…
I0403 14:13:23.750874  1003 net.cpp:313] The NetState phase (1) differed from the phase (0) specified by a rule in layer data
I0403 14:13:23.752130  1003 net.cpp:49] Initializing net from parameters: 
state {
  phase: TEST
}
layer {
  name: "data"
  type: "Data"
  top: "data"
  top: "label"
  include {
    phase: TEST
  }
  transform_param {
    mirror: false
    crop_size: 224
    mean_file: "/home/mohanty/data/final_dataset/lmdb/grayscale-20-80/mean.binaryproto"
  }
  data_param {
    source: "/home/mohanty/data/final_dataset/lmdb/grayscale-20-80/test_db"
    batch_size: 24
    backend: LMDB
  }
}
layer {
  name: "conv1/7x7_s2"
  type: "Convolution"
  bottom: "data"
  top: "conv1/7x7_s2"
  param {
    lr_mult: 1
    decay_mult: 1
  }
  param {
    lr_mult: 2
    decay_mult: 0
  }
  convolution_param {
    num_output: 64
    pad: 3
    kernel_size: 7
    stride: 2
    weight_filler {
      type: "xavier"
      std: 0.1
    }
    bias_filler {
      type: "constant"
      value: 0.2
    }
  }
}
layer {
  name: "conv1/relu_7x7"
  type: "ReLU"
  bottom: "conv1/7x7_s2"
  top: "conv1/7x7_s2"
}
layer {
  name: "pool1/3x3_s2"
  type: "Pooling"
  bottom: "conv1/7x7_s2"
  top: "pool1/3x3_s2"
  pooling_param {
    pool: MAX
    kernel_size: 3
    stride: 2
  }
}
layer {
  name: "pool1/norm1"
  type: "LRN"
  bottom: "pool1/3x3_s2"
  top: "pool1/norm1"
  lrn_param {
    local_size: 5
    alpha: 0.0001
    beta: 0.75
  }
}
layer {
  name: "conv2/3x3_reduce"
  type: "Convolution"
  bottom: "pool1/norm1"
  top: "conv2/3x3_reduce"
  param {
    lr_mult: 1
    decay_mult: 1
  }
  param {
    lr_mult: 2
    decay_mult: 0
  }
  convolution_param {
    num_output: 64
    kernel_size: 1
    weight_filler {
      type: "xavier"
      std: 0.1
    }
    bias_filler {
      type: "constant"
      value: 0.2
    }
  }
}
layer {
  name: "conv2/relu_3x3_reduce"
  type: "ReLU"
  bottom: "conv2/3x3_reduce"
  top: "conv2/3x3_reduce"
}
layer {
  name: "conv2/3x3"
  type: "Convolution"
  bottom: "conv2/3x3_reduce"
  top: "conv2/3x3"
  param {
    lr_mult: 1
    decay_mult: 1
  }
  param {
    lr_mult: 2
    decay_mult: 0
  }
  convolution_param {
    num_output: 192
    pad: 1
    kernel_size: 3
    weight_filler {
      type: "xavier"
      std: 0.03
    }
    bias_filler {
      type: "constant"
      value: 0.2
    }
  }
}
layer {
  name: "conv2/relu_3x3"
  type: "ReLU"
  bottom: "conv2/3x3"
  top: "conv2/3x3"
}
layer {
  name: "conv2/norm2"
  type: "LRN"
  bottom: "conv2/3x3"
  top: "conv2/norm2"
  lrn_param {
    local_size: 5
    alpha: 0.0001
    beta: 0.75
  }
}
layer {
  name: "pool2/3x3_s2"
  type: "Pooling"
  bottom: "conv2/norm2"
  top: "pool2/3x3_s2"
  pooling_param {
    pool: MAX
    kernel_size: 3
    stride: 2
  }
}
layer {
  name: "inception_3a/1x1"
  type: "Convolution"
  bottom: "pool2/3x3_s2"
  top: "inception_3a/1x1"
  param {
    lr_mult: 1
    decay_mult: 1
  }
  param {
    lr_mult: 2
    decay_mult: 0
  }
  convolution_param {
    num_output: 64
    kernel_size: 1
    weight_filler {
      type: "xavier"
      std: 0.03
    }
    bias_filler {
      type: "constant"
      value: 0.2
    }
  }
}
layer {
  name: "inception_3a/relu_1x1"
  type: "ReLU"
  bottom: "inception_3a/1x1"
  top: "inception_3a/1x1"
}
layer {
  name: "inception_3a/3x3_reduce"
  type: "Convolution"
  bottom: "pool2/3x3_s2"
  top: "inception_3a/3x3_reduce"
  param {
    lr_mult: 1
    decay_mult: 1
  }
  param {
    lr_mult: 2
    decay_mult: 0
  }
  convolution_param {
    num_output: 96
    kernel_size: 1
    weight_filler {
      type: "xavier"
      std: 0.09
    }
    bias_filler {
      type: "constant"
      value: 0.2
    }
  }
}
layer {
  name: "inception_3a/relu_3x3_reduce"
  type: "ReLU"
  bottom: "inception_3a/3x3_reduce"
  top: "inception_3a/3x3_reduce"
}
layer {
  name: "inception_3a/3x3"
  type: "Convolution"
  bottom: "inception_3a/3x3_reduce"
  top: "inception_3a/3x3"
  param {
    lr_mult: 1
    decay_mult: 1
  }
  param {
    lr_mult: 2
    decay_mult: 0
  }
  convolution_param {
    num_output: 128
    pad: 1
    kernel_size: 3
    weight_filler {
      type: "xavier"
      std: 0.03
    }
    bias_filler {
      type: "constant"
      value: 0.2
    }
  }
}
layer {
  name: "inception_3a/relu_3x3"
  type: "ReLU"
  bottom: "inception_3a/3x3"
  top: "inception_3a/3x3"
}
layer {
  name: "inception_3a/5x5_reduce"
  type: "Convolution"
  bottom: "pool2/3x3_s2"
  top: "inception_3a/5x5_reduce"
  param {
    lr_mult: 1
    decay_mult: 1
  }
  param {
    lr_mult: 2
    decay_mult: 0
  }
  convolution_param {
    num_output: 16
    kernel_size: 1
    weight_filler {
      type: "xavier"
      std: 0.2
    }
    bias_filler {
      type: "constant"
      value: 0.2
    }
  }
}
layer {
  name: "inception_3a/relu_5x5_reduce"
  type: "ReLU"
  bottom: "inception_3a/5x5_reduce"
  top: "inception_3a/5x5_reduce"
}
layer {
  name: "inception_3a/5x5"
  type: "Convolution"
  bottom: "inception_3a/5x5_reduce"
  top: "inception_3a/5x5"
  param {
    lr_mult: 1
    decay_mult: 1
  }
  param {
    lr_mult: 2
    decay_mult: 0
  }
  convolution_param {
    num_output: 32
    pad: 2
    kernel_size: 5
    weight_filler {
      type: "xavier"
      std: 0.03
    }
    bias_filler {
      type: "constant"
      value: 0.2
    }
  }
}
layer {
  name: "inception_3a/relu_5x5"
  type: "ReLU"
  bottom: "inception_3a/5x5"
  top: "inception_3a/5x5"
}
layer {
  name: "inception_3a/pool"
  type: "Pooling"
  bottom: "pool2/3x3_s2"
  top: "inception_3a/pool"
  pooling_param {
    pool: MAX
    kernel_size: 3
    stride: 1
    pad: 1
  }
}
layer {
  name: "inception_3a/pool_proj"
  type: "Convolution"
  bottom: "inception_3a/pool"
  top: "inception_3a/pool_proj"
  param {
    lr_mult: 1
    decay_mult: 1
  }
  param {
    lr_mult: 2
    decay_mult: 0
  }
  convolution_param {
    num_output: 32
    kernel_size: 1
    weight_filler {
      type: "xavier"
      std: 0.1
    }
    bias_filler {
      type: "constant"
      value: 0.2
    }
  }
}
layer {
  name: "inception_3a/relu_pool_proj"
  type: "ReLU"
  bottom: "inception_3a/pool_proj"
  top: "inception_3a/pool_proj"
}
layer {
  name: "inception_3a/output"
  type: "Concat"
  bottom: "inception_3a/1x1"
  bottom: "inception_3a/3x3"
  bottom: "inception_3a/5x5"
  bottom: "inception_3a/pool_proj"
  top: "inception_3a/output"
}
layer {
  name: "inception_3b/1x1"
  type: "Convolution"
  bottom: "inception_3a/output"
  top: "inception_3b/1x1"
  param {
    lr_mult: 1
    decay_mult: 1
  }
  param {
    lr_mult: 2
    decay_mult: 0
  }
  convolution_param {
    num_output: 128
    kernel_size: 1
    weight_filler {
      type: "xavier"
      std: 0.03
    }
    bias_filler {
      type: "constant"
      value: 0.2
    }
  }
}
layer {
  name: "inception_3b/relu_1x1"
  type: "ReLU"
  bottom: "inception_3b/1x1"
  top: "inception_3b/1x1"
}
layer {
  name: "inception_3b/3x3_reduce"
  type: "Convolution"
  bottom: "inception_3a/output"
  top: "inception_3b/3x3_reduce"
  param {
    lr_mult: 1
    decay_mult: 1
  }
  param {
    lr_mult: 2
    decay_mult: 0
  }
  convolution_param {
    num_output: 128
    kernel_size: 1
    weight_filler {
      type: "xavier"
      std: 0.09
    }
    bias_filler {
      type: "constant"
      value: 0.2
    }
  }
}
layer {
  name: "inception_3b/relu_3x3_reduce"
  type: "ReLU"
  bottom: "inception_3b/3x3_reduce"
  top: "inception_3b/3x3_reduce"
}
layer {
  name: "inception_3b/3x3"
  type: "Convolution"
  bottom: "inception_3b/3x3_reduce"
  top: "inception_3b/3x3"
  param {
    lr_mult: 1
    decay_mult: 1
  }
  param {
    lr_mult: 2
    decay_mult: 0
  }
  convolution_param {
    num_output: 192
    pad: 1
    kernel_size: 3
    weight_filler {
      type: "xavier"
      std: 0.03
    }
    bias_filler {
      type: "constant"
      value: 0.2
    }
  }
}
layer {
  name: "inception_3b/relu_3x3"
  type: "ReLU"
  bottom: "inception_3b/3x3"
  top: "inception_3b/3x3"
}
layer {
  name: "inception_3b/5x5_reduce"
  type: "Convolution"
  bottom: "inception_3a/output"
  top: "inception_3b/5x5_reduce"
  param {
    lr_mult: 1
    decay_mult: 1
  }
  param {
    lr_mult: 2
    decay_mult: 0
  }
  convolution_param {
    num_output: 32
    kernel_size: 1
    weight_filler {
      type: "xavier"
      std: 0.2
    }
    bias_filler {
      type: "constant"
      value: 0.2
    }
  }
}
layer {
  name: "inception_3b/relu_5x5_reduce"
  type: "ReLU"
  bottom: "inception_3b/5x5_reduce"
  top: "inception_3b/5x5_reduce"
}
layer {
  name: "inception_3b/5x5"
  type: "Convolution"
  bottom: "inception_3b/5x5_reduce"
  top: "inception_3b/5x5"
  param {
    lr_mult: 1
    decay_mult: 1
  }
  param {
    lr_mult: 2
    decay_mult: 0
  }
  convolution_param {
    num_output: 96
    pad: 2
    kernel_size: 5
    weight_filler {
      type: "xavier"
      std: 0.03
    }
    bias_filler {
      type: "constant"
      value: 0.2
    }
  }
}
layer {
  name: "inception_3b/relu_5x5"
  type: "ReLU"
  bottom: "inception_3b/5x5"
  top: "inception_3b/5x5"
}
layer {
  name: "inception_3b/pool"
  type: "Pooling"
  bottom: "inception_3a/output"
  top: "inception_3b/pool"
  pooling_param {
    pool: MAX
    kernel_size: 3
    stride: 1
    pad: 1
  }
}
layer {
  name: "inception_3b/pool_proj"
  type: "Convolution"
  bottom: "inception_3b/pool"
  top: "inception_3b/pool_proj"
  param {
    lr_mult: 1
    decay_mult: 1
  }
  param {
    lr_mult: 2
    decay_mult: 0
  }
  convolution_param {
    num_output: 64
    kernel_size: 1
    weight_filler {
      type: "xavier"
      std: 0.1
    }
    bias_filler {
      type: "constant"
      value: 0.2
    }
  }
}
layer {
  name: "inception_3b/relu_pool_proj"
  type: "ReLU"
  bottom: "inception_3b/pool_proj"
  top: "inception_3b/pool_proj"
}
layer {
  name: "inception_3b/output"
  type: "Concat"
  bottom: "inception_3b/1x1"
  bottom: "inception_3b/3x3"
  bottom: "inception_3b/5x5"
  bottom: "inception_3b/pool_proj"
  top: "inception_3b/output"
}
layer {
  name: "pool3/3x3_s2"
  type: "Pooling"
  bottom: "inception_3b/output"
  top: "pool3/3x3_s2"
  pooling_param {
    pool: MAX
    kernel_size: 3
    stride: 2
  }
}
layer {
  name: "inception_4a/1x1"
  type: "Convolution"
  bottom: "pool3/3x3_s2"
  top: "inception_4a/1x1"
  param {
    lr_mult: 1
    decay_mult: 1
  }
  param {
    lr_mult: 2
    decay_mult: 0
  }
  convolution_param {
    num_output: 192
    kernel_size: 1
    weight_filler {
      type: "xavier"
      std: 0.03
    }
    bias_filler {
      type: "constant"
      value: 0.2
    }
  }
}
layer {
  name: "inception_4a/relu_1x1"
  type: "ReLU"
  bottom: "inception_4a/1x1"
  top: "inception_4a/1x1"
}
layer {
  name: "inception_4a/3x3_reduce"
  type: "Convolution"
  bottom: "pool3/3x3_s2"
  top: "inception_4a/3x3_reduce"
  param {
    lr_mult: 1
    decay_mult: 1
  }
  param {
    lr_mult: 2
    decay_mult: 0
  }
  convolution_param {
    num_output: 96
    kernel_size: 1
    weight_filler {
      type: "xavier"
      std: 0.09
    }
    bias_filler {
      type: "constant"
      value: 0.2
    }
  }
}
layer {
  name: "inception_4a/relu_3x3_reduce"
  type: "ReLU"
  bottom: "inception_4a/3x3_reduce"
  top: "inception_4a/3x3_reduce"
}
layer {
  name: "inception_4a/3x3"
  type: "Convolution"
  bottom: "inception_4a/3x3_reduce"
  top: "inception_4a/3x3"
  param {
    lr_mult: 1
    decay_mult: 1
  }
  param {
    lr_mult: 2
    decay_mult: 0
  }
  convolution_param {
    num_output: 208
    pad: 1
    kernel_size: 3
    weight_filler {
      type: "xavier"
      std: 0.03
    }
    bias_filler {
      type: "constant"
      value: 0.2
    }
  }
}
layer {
  name: "inception_4a/relu_3x3"
  type: "ReLU"
  bottom: "inception_4a/3x3"
  top: "inception_4a/3x3"
}
layer {
  name: "inception_4a/5x5_reduce"
  type: "Convolution"
  bottom: "pool3/3x3_s2"
  top: "inception_4a/5x5_reduce"
  param {
    lr_mult: 1
    decay_mult: 1
  }
  param {
    lr_mult: 2
    decay_mult: 0
  }
  convolution_param {
    num_output: 16
    kernel_size: 1
    weight_filler {
      type: "xavier"
      std: 0.2
    }
    bias_filler {
      type: "constant"
      value: 0.2
    }
  }
}
layer {
  name: "inception_4a/relu_5x5_reduce"
  type: "ReLU"
  bottom: "inception_4a/5x5_reduce"
  top: "inception_4a/5x5_reduce"
}
layer {
  name: "inception_4a/5x5"
  type: "Convolution"
  bottom: "inception_4a/5x5_reduce"
  top: "inception_4a/5x5"
  param {
    lr_mult: 1
    decay_mult: 1
  }
  param {
    lr_mult: 2
    decay_mult: 0
  }
  convolution_param {
    num_output: 48
    pad: 2
    kernel_size: 5
    weight_filler {
      type: "xavier"
      std: 0.03
    }
    bias_filler {
      type: "constant"
      value: 0.2
    }
  }
}
layer {
  name: "inception_4a/relu_5x5"
  type: "ReLU"
  bottom: "inception_4a/5x5"
  top: "inception_4a/5x5"
}
layer {
  name: "inception_4a/pool"
  type: "Pooling"
  bottom: "pool3/3x3_s2"
  top: "inception_4a/pool"
  pooling_param {
    pool: MAX
    kernel_size: 3
    stride: 1
    pad: 1
  }
}
layer {
  name: "inception_4a/pool_proj"
  type: "Convolution"
  bottom: "inception_4a/pool"
  top: "inception_4a/pool_proj"
  param {
    lr_mult: 1
    decay_mult: 1
  }
  param {
    lr_mult: 2
    decay_mult: 0
  }
  convolution_param {
    num_output: 64
    kernel_size: 1
    weight_filler {
      type: "xavier"
      std: 0.1
    }
    bias_filler {
      type: "constant"
      value: 0.2
    }
  }
}
layer {
  name: "inception_4a/relu_pool_proj"
  type: "ReLU"
  bottom: "inception_4a/pool_proj"
  top: "inception_4a/pool_proj"
}
layer {
  name: "inception_4a/output"
  type: "Concat"
  bottom: "inception_4a/1x1"
  bottom: "inception_4a/3x3"
  bottom: "inception_4a/5x5"
  bottom: "inception_4a/pool_proj"
  top: "inception_4a/output"
}
layer {
  name: "loss1/ave_pool"
  type: "Pooling"
  bottom: "inception_4a/output"
  top: "loss1/ave_pool"
  pooling_param {
    pool: AVE
    kernel_size: 5
    stride: 3
  }
}
layer {
  name: "loss1/conv"
  type: "Convolution"
  bottom: "loss1/ave_pool"
  top: "loss1/conv"
  param {
    lr_mult: 1
    decay_mult: 1
  }
  param {
    lr_mult: 2
    decay_mult: 0
  }
  convolution_param {
    num_output: 128
    kernel_size: 1
    weight_filler {
      type: "xavier"
      std: 0.08
    }
    bias_filler {
      type: "constant"
      value: 0.2
    }
  }
}
layer {
  name: "loss1/relu_conv"
  type: "ReLU"
  bottom: "loss1/conv"
  top: "loss1/conv"
}
layer {
  name: "loss1/fc"
  type: "InnerProduct"
  bottom: "loss1/conv"
  top: "loss1/fc"
  param {
    lr_mult: 1
    decay_mult: 1
  }
  param {
    lr_mult: 2
    decay_mult: 0
  }
  inner_product_param {
    num_output: 1024
    weight_filler {
      type: "xavier"
      std: 0.02
    }
    bias_filler {
      type: "constant"
      value: 0.2
    }
  }
}
layer {
  name: "loss1/relu_fc"
  type: "ReLU"
  bottom: "loss1/fc"
  top: "loss1/fc"
}
layer {
  name: "loss1/drop_fc"
  type: "Dropout"
  bottom: "loss1/fc"
  top: "loss1/fc"
  dropout_param {
    dropout_ratio: 0.7
  }
}
layer {
  name: "loss1/classifier_plantvillage"
  type: "InnerProduct"
  bottom: "loss1/fc"
  top: "loss1/classifier_plantvillage"
  param {
    lr_mult: 1
    decay_mult: 1
  }
  param {
    lr_mult: 2
    decay_mult: 0
  }
  inner_product_param {
    num_output: 38
    weight_filler {
      type: "xavier"
      std: 0.0009765625
    }
    bias_filler {
      type: "constant"
      value: 0
    }
  }
}
layer {
  name: "inception_4b/1x1"
  type: "Convolution"
  bottom: "inception_4a/output"
  top: "inception_4b/1x1"
  param {
    lr_mult: 1
    decay_mult: 1
  }
  param {
    lr_mult: 2
    decay_mult: 0
  }
  convolution_param {
    num_output: 160
    kernel_size: 1
    weight_filler {
      type: "xavier"
      std: 0.03
    }
    bias_filler {
      type: "constant"
      value: 0.2
    }
  }
}
layer {
  name: "inception_4b/relu_1x1"
  type: "ReLU"
  bottom: "inception_4b/1x1"
  top: "inception_4b/1x1"
}
layer {
  name: "inception_4b/3x3_reduce"
  type: "Convolution"
  bottom: "inception_4a/output"
  top: "inception_4b/3x3_reduce"
  param {
    lr_mult: 1
    decay_mult: 1
  }
  param {
    lr_mult: 2
    decay_mult: 0
  }
  convolution_param {
    num_output: 112
    kernel_size: 1
    weight_filler {
      type: "xavier"
      std: 0.09
    }
    bias_filler {
      type: "constant"
      value: 0.2
    }
  }
}
layer {
  name: "inception_4b/relu_3x3_reduce"
  type: "ReLU"
  bottom: "inception_4b/3x3_reduce"
  top: "inception_4b/3x3_reduce"
}
layer {
  name: "inception_4b/3x3"
  type: "Convolution"
  bottom: "inception_4b/3x3_reduce"
  top: "inception_4b/3x3"
  param {
    lr_mult: 1
    decay_mult: 1
  }
  param {
    lr_mult: 2
    decay_mult: 0
  }
  convolution_param {
    num_output: 224
    pad: 1
    kernel_size: 3
    weight_filler {
      type: "xavier"
      std: 0.03
    }
    bias_filler {
      type: "constant"
      value: 0.2
    }
  }
}
layer {
  name: "inception_4b/relu_3x3"
  type: "ReLU"
  bottom: "inception_4b/3x3"
  top: "inception_4b/3x3"
}
layer {
  name: "inception_4b/5x5_reduce"
  type: "Convolution"
  bottom: "inception_4a/output"
  top: "inception_4b/5x5_reduce"
  param {
    lr_mult: 1
    decay_mult: 1
  }
  param {
    lr_mult: 2
    decay_mult: 0
  }
  convolution_param {
    num_output: 24
    kernel_size: 1
    weight_filler {
      type: "xavier"
      std: 0.2
    }
    bias_filler {
      type: "constant"
      value: 0.2
    }
  }
}
layer {
  name: "inception_4b/relu_5x5_reduce"
  type: "ReLU"
  bottom: "inception_4b/5x5_reduce"
  top: "inception_4b/5x5_reduce"
}
layer {
  name: "inception_4b/5x5"
  type: "Convolution"
  bottom: "inception_4b/5x5_reduce"
  top: "inception_4b/5x5"
  param {
    lr_mult: 1
    decay_mult: 1
  }
  param {
    lr_mult: 2
    decay_mult: 0
  }
  convolution_param {
    num_output: 64
    pad: 2
    kernel_size: 5
    weight_filler {
      type: "xavier"
      std: 0.03
    }
    bias_filler {
      type: "constant"
      value: 0.2
    }
  }
}
layer {
  name: "inception_4b/relu_5x5"
  type: "ReLU"
  bottom: "inception_4b/5x5"
  top: "inception_4b/5x5"
}
layer {
  name: "inception_4b/pool"
  type: "Pooling"
  bottom: "inception_4a/output"
  top: "inception_4b/pool"
  pooling_param {
    pool: MAX
    kernel_size: 3
    stride: 1
    pad: 1
  }
}
layer {
  name: "inception_4b/pool_proj"
  type: "Convolution"
  bottom: "inception_4b/pool"
  top: "inception_4b/pool_proj"
  param {
    lr_mult: 1
    decay_mult: 1
  }
  param {
    lr_mult: 2
    decay_mult: 0
  }
  convolution_param {
    num_output: 64
    kernel_size: 1
    weight_filler {
      type: "xavier"
      std: 0.1
    }
    bias_filler {
      type: "constant"
      value: 0.2
    }
  }
}
layer {
  name: "inception_4b/relu_pool_proj"
  type: "ReLU"
  bottom: "inception_4b/pool_proj"
  top: "inception_4b/pool_proj"
}
layer {
  name: "inception_4b/output"
  type: "Concat"
  bottom: "inception_4b/1x1"
  bottom: "inception_4b/3x3"
  bottom: "inception_4b/5x5"
  bottom: "inception_4b/pool_proj"
  top: "inception_4b/output"
}
layer {
  name: "inception_4c/1x1"
  type: "Convolution"
  bottom: "inception_4b/output"
  top: "inception_4c/1x1"
  param {
    lr_mult: 1
    decay_mult: 1
  }
  param {
    lr_mult: 2
    decay_mult: 0
  }
  convolution_param {
    num_output: 128
    kernel_size: 1
    weight_filler {
      type: "xavier"
      std: 0.03
    }
    bias_filler {
      type: "constant"
      value: 0.2
    }
  }
}
layer {
  name: "inception_4c/relu_1x1"
  type: "ReLU"
  bottom: "inception_4c/1x1"
  top: "inception_4c/1x1"
}
layer {
  name: "inception_4c/3x3_reduce"
  type: "Convolution"
  bottom: "inception_4b/output"
  top: "inception_4c/3x3_reduce"
  param {
    lr_mult: 1
    decay_mult: 1
  }
  param {
    lr_mult: 2
    decay_mult: 0
  }
  convolution_param {
    num_output: 128
    kernel_size: 1
    weight_filler {
      type: "xavier"
      std: 0.09
    }
    bias_filler {
      type: "constant"
      value: 0.2
    }
  }
}
layer {
  name: "inception_4c/relu_3x3_reduce"
  type: "ReLU"
  bottom: "inception_4c/3x3_reduce"
  top: "inception_4c/3x3_reduce"
}
layer {
  name: "inception_4c/3x3"
  type: "Convolution"
  bottom: "inception_4c/3x3_reduce"
  top: "inception_4c/3x3"
  param {
    lr_mult: 1
    decay_mult: 1
  }
  param {
    lr_mult: 2
    decay_mult: 0
  }
  convolution_param {
    num_output: 256
    pad: 1
    kernel_size: 3
    weight_filler {
      type: "xavier"
      std: 0.03
    }
    bias_filler {
      type: "constant"
      value: 0.2
    }
  }
}
layer {
  name: "inception_4c/relu_3x3"
  type: "ReLU"
  bottom: "inception_4c/3x3"
  top: "inception_4c/3x3"
}
layer {
  name: "inception_4c/5x5_reduce"
  type: "Convolution"
  bottom: "inception_4b/output"
  top: "inception_4c/5x5_reduce"
  param {
    lr_mult: 1
    decay_mult: 1
  }
  param {
    lr_mult: 2
    decay_mult: 0
  }
  convolution_param {
    num_output: 24
    kernel_size: 1
    weight_filler {
      type: "xavier"
      std: 0.2
    }
    bias_filler {
      type: "constant"
      value: 0.2
    }
  }
}
layer {
  name: "inception_4c/relu_5x5_reduce"
  type: "ReLU"
  bottom: "inception_4c/5x5_reduce"
  top: "inception_4c/5x5_reduce"
}
layer {
  name: "inception_4c/5x5"
  type: "Convolution"
  bottom: "inception_4c/5x5_reduce"
  top: "inception_4c/5x5"
  param {
    lr_mult: 1
    decay_mult: 1
  }
  param {
    lr_mult: 2
    decay_mult: 0
  }
  convolution_param {
    num_output: 64
    pad: 2
    kernel_size: 5
    weight_filler {
      type: "xavier"
      std: 0.03
    }
    bias_filler {
      type: "constant"
      value: 0.2
    }
  }
}
layer {
  name: "inception_4c/relu_5x5"
  type: "ReLU"
  bottom: "inception_4c/5x5"
  top: "inception_4c/5x5"
}
layer {
  name: "inception_4c/pool"
  type: "Pooling"
  bottom: "inception_4b/output"
  top: "inception_4c/pool"
  pooling_param {
    pool: MAX
    kernel_size: 3
    stride: 1
    pad: 1
  }
}
layer {
  name: "inception_4c/pool_proj"
  type: "Convolution"
  bottom: "inception_4c/pool"
  top: "inception_4c/pool_proj"
  param {
    lr_mult: 1
    decay_mult: 1
  }
  param {
    lr_mult: 2
    decay_mult: 0
  }
  convolution_param {
    num_output: 64
    kernel_size: 1
    weight_filler {
      type: "xavier"
      std: 0.1
    }
    bias_filler {
      type: "constant"
      value: 0.2
    }
  }
}
layer {
  name: "inception_4c/relu_pool_proj"
  type: "ReLU"
  bottom: "inception_4c/pool_proj"
  top: "inception_4c/pool_proj"
}
layer {
  name: "inception_4c/output"
  type: "Concat"
  bottom: "inception_4c/1x1"
  bottom: "inception_4c/3x3"
  bottom: "inception_4c/5x5"
  bottom: "inception_4c/pool_proj"
  top: "inception_4c/output"
}
layer {
  name: "inception_4d/1x1"
  type: "Convolution"
  bottom: "inception_4c/output"
  top: "inception_4d/1x1"
  param {
    lr_mult: 1
    decay_mult: 1
  }
  param {
    lr_mult: 2
    decay_mult: 0
  }
  convolution_param {
    num_output: 112
    kernel_size: 1
    weight_filler {
      type: "xavier"
      std: 0.03
    }
    bias_filler {
      type: "constant"
      value: 0.2
    }
  }
}
layer {
  name: "inception_4d/relu_1x1"
  type: "ReLU"
  bottom: "inception_4d/1x1"
  top: "inception_4d/1x1"
}
layer {
  name: "inception_4d/3x3_reduce"
  type: "Convolution"
  bottom: "inception_4c/output"
  top: "inception_4d/3x3_reduce"
  param {
    lr_mult: 1
    decay_mult: 1
  }
  param {
    lr_mult: 2
    decay_mult: 0
  }
  convolution_param {
    num_output: 144
    kernel_size: 1
    weight_filler {
      type: "xavier"
      std: 0.09
    }
    bias_filler {
      type: "constant"
      value: 0.2
    }
  }
}
layer {
  name: "inception_4d/relu_3x3_reduce"
  type: "ReLU"
  bottom: "inception_4d/3x3_reduce"
  top: "inception_4d/3x3_reduce"
}
layer {
  name: "inception_4d/3x3"
  type: "Convolution"
  bottom: "inception_4d/3x3_reduce"
  top: "inception_4d/3x3"
  param {
    lr_mult: 1
    decay_mult: 1
  }
  param {
    lr_mult: 2
    decay_mult: 0
  }
  convolution_param {
    num_output: 288
    pad: 1
    kernel_size: 3
    weight_filler {
      type: "xavier"
      std: 0.03
    }
    bias_filler {
      type: "constant"
      value: 0.2
    }
  }
}
layer {
  name: "inception_4d/relu_3x3"
  type: "ReLU"
  bottom: "inception_4d/3x3"
  top: "inception_4d/3x3"
}
layer {
  name: "inception_4d/5x5_reduce"
  type: "Convolution"
  bottom: "inception_4c/output"
  top: "inception_4d/5x5_reduce"
  param {
    lr_mult: 1
    decay_mult: 1
  }
  param {
    lr_mult: 2
    decay_mult: 0
  }
  convolution_param {
    num_output: 32
    kernel_size: 1
    weight_filler {
      type: "xavier"
      std: 0.2
    }
    bias_filler {
      type: "constant"
      value: 0.2
    }
  }
}
layer {
  name: "inception_4d/relu_5x5_reduce"
  type: "ReLU"
  bottom: "inception_4d/5x5_reduce"
  top: "inception_4d/5x5_reduce"
}
layer {
  name: "inception_4d/5x5"
  type: "Convolution"
  bottom: "inception_4d/5x5_reduce"
  top: "inception_4d/5x5"
  param {
    lr_mult: 1
    decay_mult: 1
  }
  param {
    lr_mult: 2
    decay_mult: 0
  }
  convolution_param {
    num_output: 64
    pad: 2
    kernel_size: 5
    weight_filler {
      type: "xavier"
      std: 0.03
    }
    bias_filler {
      type: "constant"
      value: 0.2
    }
  }
}
layer {
  name: "inception_4d/relu_5x5"
  type: "ReLU"
  bottom: "inception_4d/5x5"
  top: "inception_4d/5x5"
}
layer {
  name: "inception_4d/pool"
  type: "Pooling"
  bottom: "inception_4c/output"
  top: "inception_4d/pool"
  pooling_param {
    pool: MAX
    kernel_size: 3
    stride: 1
    pad: 1
  }
}
layer {
  name: "inception_4d/pool_proj"
  type: "Convolution"
  bottom: "inception_4d/pool"
  top: "inception_4d/pool_proj"
  param {
    lr_mult: 1
    decay_mult: 1
  }
  param {
    lr_mult: 2
    decay_mult: 0
  }
  convolution_param {
    num_output: 64
    kernel_size: 1
    weight_filler {
      type: "xavier"
      std: 0.1
    }
    bias_filler {
      type: "constant"
      value: 0.2
    }
  }
}
layer {
  name: "inception_4d/relu_pool_proj"
  type: "ReLU"
  bottom: "inception_4d/pool_proj"
  top: "inception_4d/pool_proj"
}
layer {
  name: "inception_4d/output"
  type: "Concat"
  bottom: "inception_4d/1x1"
  bottom: "inception_4d/3x3"
  bottom: "inception_4d/5x5"
  bottom: "inception_4d/pool_proj"
  top: "inception_4d/output"
}
layer {
  name: "loss2/ave_pool"
  type: "Pooling"
  bottom: "inception_4d/output"
  top: "loss2/ave_pool"
  pooling_param {
    pool: AVE
    kernel_size: 5
    stride: 3
  }
}
layer {
  name: "loss2/conv"
  type: "Convolution"
  bottom: "loss2/ave_pool"
  top: "loss2/conv"
  param {
    lr_mult: 1
    decay_mult: 1
  }
  param {
    lr_mult: 2
    decay_mult: 0
  }
  convolution_param {
    num_output: 128
    kernel_size: 1
    weight_filler {
      type: "xavier"
      std: 0.08
    }
    bias_filler {
      type: "constant"
      value: 0.2
    }
  }
}
layer {
  name: "loss2/relu_conv"
  type: "ReLU"
  bottom: "loss2/conv"
  top: "loss2/conv"
}
layer {
  name: "loss2/fc"
  type: "InnerProduct"
  bottom: "loss2/conv"
  top: "loss2/fc"
  param {
    lr_mult: 1
    decay_mult: 1
  }
  param {
    lr_mult: 2
    decay_mult: 0
  }
  inner_product_param {
    num_output: 1024
    weight_filler {
      type: "xavier"
      std: 0.02
    }
    bias_filler {
      type: "constant"
      value: 0.2
    }
  }
}
layer {
  name: "loss2/relu_fc"
  type: "ReLU"
  bottom: "loss2/fc"
  top: "loss2/fc"
}
layer {
  name: "loss2/drop_fc"
  type: "Dropout"
  bottom: "loss2/fc"
  top: "loss2/fc"
  dropout_param {
    dropout_ratio: 0.7
  }
}
layer {
  name: "loss2/classifier_plantvillage"
  type: "InnerProduct"
  bottom: "loss2/fc"
  top: "loss2/classifier_plantvillage"
  param {
    lr_mult: 1
    decay_mult: 1
  }
  param {
    lr_mult: 2
    decay_mult: 0
  }
  inner_product_param {
    num_output: 38
    weight_filler {
      type: "xavier"
      std: 0.0009765625
    }
    bias_filler {
      type: "constant"
      value: 0
    }
  }
}
layer {
  name: "inception_4e/1x1"
  type: "Convolution"
  bottom: "inception_4d/output"
  top: "inception_4e/1x1"
  param {
    lr_mult: 1
    decay_mult: 1
  }
  param {
    lr_mult: 2
    decay_mult: 0
  }
  convolution_param {
    num_output: 256
    kernel_size: 1
    weight_filler {
      type: "xavier"
      std: 0.03
    }
    bias_filler {
      type: "constant"
      value: 0.2
    }
  }
}
layer {
  name: "inception_4e/relu_1x1"
  type: "ReLU"
  bottom: "inception_4e/1x1"
  top: "inception_4e/1x1"
}
layer {
  name: "inception_4e/3x3_reduce"
  type: "Convolution"
  bottom: "inception_4d/output"
  top: "inception_4e/3x3_reduce"
  param {
    lr_mult: 1
    decay_mult: 1
  }
  param {
    lr_mult: 2
    decay_mult: 0
  }
  convolution_param {
    num_output: 160
    kernel_size: 1
    weight_filler {
      type: "xavier"
      std: 0.09
    }
    bias_filler {
      type: "constant"
      value: 0.2
    }
  }
}
layer {
  name: "inception_4e/relu_3x3_reduce"
  type: "ReLU"
  bottom: "inception_4e/3x3_reduce"
  top: "inception_4e/3x3_reduce"
}
layer {
  name: "inception_4e/3x3"
  type: "Convolution"
  bottom: "inception_4e/3x3_reduce"
  top: "inception_4e/3x3"
  param {
    lr_mult: 1
    decay_mult: 1
  }
  param {
    lr_mult: 2
    decay_mult: 0
  }
  convolution_param {
    num_output: 320
    pad: 1
    kernel_size: 3
    weight_filler {
      type: "xavier"
      std: 0.03
    }
    bias_filler {
      type: "constant"
      value: 0.2
    }
  }
}
layer {
  name: "inception_4e/relu_3x3"
  type: "ReLU"
  bottom: "inception_4e/3x3"
  top: "inception_4e/3x3"
}
layer {
  name: "inception_4e/5x5_reduce"
  type: "Convolution"
  bottom: "inception_4d/output"
  top: "inception_4e/5x5_reduce"
  param {
    lr_mult: 1
    decay_mult: 1
  }
  param {
    lr_mult: 2
    decay_mult: 0
  }
  convolution_param {
    num_output: 32
    kernel_size: 1
    weight_filler {
      type: "xavier"
      std: 0.2
    }
    bias_filler {
      type: "constant"
      value: 0.2
    }
  }
}
layer {
  name: "inception_4e/relu_5x5_reduce"
  type: "ReLU"
  bottom: "inception_4e/5x5_reduce"
  top: "inception_4e/5x5_reduce"
}
layer {
  name: "inception_4e/5x5"
  type: "Convolution"
  bottom: "inception_4e/5x5_reduce"
  top: "inception_4e/
I0403 14:13:23.753427  1003 layer_factory.hpp:77] Creating layer data
I0403 14:13:23.754062  1003 net.cpp:91] Creating Layer data
I0403 14:13:23.754094  1003 net.cpp:399] data -> data
I0403 14:13:23.754148  1003 net.cpp:399] data -> label
I0403 14:13:23.754186  1003 data_transformer.cpp:25] Loading mean file from: /home/mohanty/data/final_dataset/lmdb/grayscale-20-80/mean.binaryproto
I0403 14:13:23.756870  1006 db_lmdb.cpp:38] Opened lmdb /home/mohanty/data/final_dataset/lmdb/grayscale-20-80/test_db
I0403 14:13:23.767678  1003 data_layer.cpp:41] output data size: 24,3,224,224
I0403 14:13:23.796497  1003 net.cpp:141] Setting up data
I0403 14:13:23.796561  1003 net.cpp:148] Top shape: 24 3 224 224 (3612672)
I0403 14:13:23.796583  1003 net.cpp:148] Top shape: 24 (24)
I0403 14:13:23.796599  1003 net.cpp:156] Memory required for data: 14450784
I0403 14:13:23.796627  1003 layer_factory.hpp:77] Creating layer label_data_1_split
I0403 14:13:23.796655  1003 net.cpp:91] Creating Layer label_data_1_split
I0403 14:13:23.796674  1003 net.cpp:425] label_data_1_split <- label
I0403 14:13:23.796715  1003 net.cpp:399] label_data_1_split -> label_data_1_split_0
I0403 14:13:23.796743  1003 net.cpp:399] label_data_1_split -> label_data_1_split_1
I0403 14:13:23.796774  1003 net.cpp:399] label_data_1_split -> label_data_1_split_2
I0403 14:13:23.796797  1003 net.cpp:399] label_data_1_split -> label_data_1_split_3
I0403 14:13:23.796818  1003 net.cpp:399] label_data_1_split -> label_data_1_split_4
I0403 14:13:23.796849  1003 net.cpp:399] label_data_1_split -> label_data_1_split_5
I0403 14:13:23.796869  1003 net.cpp:399] label_data_1_split -> label_data_1_split_6
I0403 14:13:23.796890  1003 net.cpp:399] label_data_1_split -> label_data_1_split_7
I0403 14:13:23.796911  1003 net.cpp:399] label_data_1_split -> label_data_1_split_8
I0403 14:13:23.796933  1003 net.cpp:399] label_data_1_split -> label_data_1_split_9
I0403 14:13:23.797055  1003 net.cpp:141] Setting up label_data_1_split
I0403 14:13:23.797078  1003 net.cpp:148] Top shape: 24 (24)
I0403 14:13:23.797096  1003 net.cpp:148] Top shape: 24 (24)
I0403 14:13:23.797113  1003 net.cpp:148] Top shape: 24 (24)
I0403 14:13:23.797129  1003 net.cpp:148] Top shape: 24 (24)
I0403 14:13:23.797145  1003 net.cpp:148] Top shape: 24 (24)
I0403 14:13:23.797161  1003 net.cpp:148] Top shape: 24 (24)
I0403 14:13:23.797178  1003 net.cpp:148] Top shape: 24 (24)
I0403 14:13:23.797194  1003 net.cpp:148] Top shape: 24 (24)
I0403 14:13:23.797221  1003 net.cpp:148] Top shape: 24 (24)
I0403 14:13:23.797240  1003 net.cpp:148] Top shape: 24 (24)
I0403 14:13:23.797286  1003 net.cpp:156] Memory required for data: 14451744
I0403 14:13:23.797302  1003 layer_factory.hpp:77] Creating layer conv1/7x7_s2
I0403 14:13:23.797335  1003 net.cpp:91] Creating Layer conv1/7x7_s2
I0403 14:13:23.797355  1003 net.cpp:425] conv1/7x7_s2 <- data
I0403 14:13:23.797375  1003 net.cpp:399] conv1/7x7_s2 -> conv1/7x7_s2
I0403 14:13:23.942744  1003 net.cpp:141] Setting up conv1/7x7_s2
I0403 14:13:23.942836  1003 net.cpp:148] Top shape: 24 64 112 112 (19267584)
I0403 14:13:23.942854  1003 net.cpp:156] Memory required for data: 91522080
I0403 14:13:23.942886  1003 layer_factory.hpp:77] Creating layer conv1/relu_7x7
I0403 14:13:23.942914  1003 net.cpp:91] Creating Layer conv1/relu_7x7
I0403 14:13:23.942934  1003 net.cpp:425] conv1/relu_7x7 <- conv1/7x7_s2
I0403 14:13:23.942955  1003 net.cpp:386] conv1/relu_7x7 -> conv1/7x7_s2 (in-place)
I0403 14:13:23.943234  1003 net.cpp:141] Setting up conv1/relu_7x7
I0403 14:13:23.943264  1003 net.cpp:148] Top shape: 24 64 112 112 (19267584)
I0403 14:13:23.943280  1003 net.cpp:156] Memory required for data: 168592416
I0403 14:13:23.943297  1003 layer_factory.hpp:77] Creating layer pool1/3x3_s2
I0403 14:13:23.943325  1003 net.cpp:91] Creating Layer pool1/3x3_s2
I0403 14:13:23.943342  1003 net.cpp:425] pool1/3x3_s2 <- conv1/7x7_s2
I0403 14:13:23.943362  1003 net.cpp:399] pool1/3x3_s2 -> pool1/3x3_s2
I0403 14:13:23.943440  1003 net.cpp:141] Setting up pool1/3x3_s2
I0403 14:13:23.943465  1003 net.cpp:148] Top shape: 24 64 56 56 (4816896)
I0403 14:13:23.943481  1003 net.cpp:156] Memory required for data: 187860000
I0403 14:13:23.943497  1003 layer_factory.hpp:77] Creating layer pool1/norm1
I0403 14:13:23.943522  1003 net.cpp:91] Creating Layer pool1/norm1
I0403 14:13:23.943541  1003 net.cpp:425] pool1/norm1 <- pool1/3x3_s2
I0403 14:13:23.943560  1003 net.cpp:399] pool1/norm1 -> pool1/norm1
I0403 14:13:23.943888  1003 net.cpp:141] Setting up pool1/norm1
I0403 14:13:23.943917  1003 net.cpp:148] Top shape: 24 64 56 56 (4816896)
I0403 14:13:23.943933  1003 net.cpp:156] Memory required for data: 207127584
I0403 14:13:23.943950  1003 layer_factory.hpp:77] Creating layer conv2/3x3_reduce
I0403 14:13:23.943976  1003 net.cpp:91] Creating Layer conv2/3x3_reduce
I0403 14:13:23.943994  1003 net.cpp:425] conv2/3x3_reduce <- pool1/norm1
I0403 14:13:23.944015  1003 net.cpp:399] conv2/3x3_reduce -> conv2/3x3_reduce
I0403 14:13:23.945404  1003 net.cpp:141] Setting up conv2/3x3_reduce
I0403 14:13:23.945435  1003 net.cpp:148] Top shape: 24 64 56 56 (4816896)
I0403 14:13:23.945451  1003 net.cpp:156] Memory required for data: 226395168
I0403 14:13:23.945475  1003 layer_factory.hpp:77] Creating layer conv2/relu_3x3_reduce
I0403 14:13:23.945495  1003 net.cpp:91] Creating Layer conv2/relu_3x3_reduce
I0403 14:13:23.945513  1003 net.cpp:425] conv2/relu_3x3_reduce <- conv2/3x3_reduce
I0403 14:13:23.945559  1003 net.cpp:386] conv2/relu_3x3_reduce -> conv2/3x3_reduce (in-place)
I0403 14:13:23.945822  1003 net.cpp:141] Setting up conv2/relu_3x3_reduce
I0403 14:13:23.945850  1003 net.cpp:148] Top shape: 24 64 56 56 (4816896)
I0403 14:13:23.945866  1003 net.cpp:156] Memory required for data: 245662752
I0403 14:13:23.945883  1003 layer_factory.hpp:77] Creating layer conv2/3x3
I0403 14:13:23.945906  1003 net.cpp:91] Creating Layer conv2/3x3
I0403 14:13:23.945924  1003 net.cpp:425] conv2/3x3 <- conv2/3x3_reduce
I0403 14:13:23.945945  1003 net.cpp:399] conv2/3x3 -> conv2/3x3
I0403 14:13:23.948346  1003 net.cpp:141] Setting up conv2/3x3
I0403 14:13:23.948381  1003 net.cpp:148] Top shape: 24 192 56 56 (14450688)
I0403 14:13:23.948400  1003 net.cpp:156] Memory required for data: 303465504
I0403 14:13:23.948422  1003 layer_factory.hpp:77] Creating layer conv2/relu_3x3
I0403 14:13:23.948442  1003 net.cpp:91] Creating Layer conv2/relu_3x3
I0403 14:13:23.948459  1003 net.cpp:425] conv2/relu_3x3 <- conv2/3x3
I0403 14:13:23.948480  1003 net.cpp:386] conv2/relu_3x3 -> conv2/3x3 (in-place)
I0403 14:13:23.948667  1003 net.cpp:141] Setting up conv2/relu_3x3
I0403 14:13:23.948693  1003 net.cpp:148] Top shape: 24 192 56 56 (14450688)
I0403 14:13:23.948739  1003 net.cpp:156] Memory required for data: 361268256
I0403 14:13:23.948755  1003 layer_factory.hpp:77] Creating layer conv2/norm2
I0403 14:13:23.948777  1003 net.cpp:91] Creating Layer conv2/norm2
I0403 14:13:23.948796  1003 net.cpp:425] conv2/norm2 <- conv2/3x3
I0403 14:13:23.948813  1003 net.cpp:399] conv2/norm2 -> conv2/norm2
I0403 14:13:23.949132  1003 net.cpp:141] Setting up conv2/norm2
I0403 14:13:23.949161  1003 net.cpp:148] Top shape: 24 192 56 56 (14450688)
I0403 14:13:23.949180  1003 net.cpp:156] Memory required for data: 419071008
I0403 14:13:23.949198  1003 layer_factory.hpp:77] Creating layer pool2/3x3_s2
I0403 14:13:23.949220  1003 net.cpp:91] Creating Layer pool2/3x3_s2
I0403 14:13:23.949237  1003 net.cpp:425] pool2/3x3_s2 <- conv2/norm2
I0403 14:13:23.949256  1003 net.cpp:399] pool2/3x3_s2 -> pool2/3x3_s2
I0403 14:13:23.949313  1003 net.cpp:141] Setting up pool2/3x3_s2
I0403 14:13:23.949337  1003 net.cpp:148] Top shape: 24 192 28 28 (3612672)
I0403 14:13:23.949353  1003 net.cpp:156] Memory required for data: 433521696
I0403 14:13:23.949369  1003 layer_factory.hpp:77] Creating layer pool2/3x3_s2_pool2/3x3_s2_0_split
I0403 14:13:23.949388  1003 net.cpp:91] Creating Layer pool2/3x3_s2_pool2/3x3_s2_0_split
I0403 14:13:23.949404  1003 net.cpp:425] pool2/3x3_s2_pool2/3x3_s2_0_split <- pool2/3x3_s2
I0403 14:13:23.949424  1003 net.cpp:399] pool2/3x3_s2_pool2/3x3_s2_0_split -> pool2/3x3_s2_pool2/3x3_s2_0_split_0
I0403 14:13:23.949446  1003 net.cpp:399] pool2/3x3_s2_pool2/3x3_s2_0_split -> pool2/3x3_s2_pool2/3x3_s2_0_split_1
I0403 14:13:23.949470  1003 net.cpp:399] pool2/3x3_s2_pool2/3x3_s2_0_split -> pool2/3x3_s2_pool2/3x3_s2_0_split_2
I0403 14:13:23.949491  1003 net.cpp:399] pool2/3x3_s2_pool2/3x3_s2_0_split -> pool2/3x3_s2_pool2/3x3_s2_0_split_3
I0403 14:13:23.949566  1003 net.cpp:141] Setting up pool2/3x3_s2_pool2/3x3_s2_0_split
I0403 14:13:23.949589  1003 net.cpp:148] Top shape: 24 192 28 28 (3612672)
I0403 14:13:23.949607  1003 net.cpp:148] Top shape: 24 192 28 28 (3612672)
I0403 14:13:23.949623  1003 net.cpp:148] Top shape: 24 192 28 28 (3612672)
I0403 14:13:23.949640  1003 net.cpp:148] Top shape: 24 192 28 28 (3612672)
I0403 14:13:23.949653  1003 net.cpp:156] Memory required for data: 491324448
I0403 14:13:23.949668  1003 layer_factory.hpp:77] Creating layer inception_3a/1x1
I0403 14:13:23.949694  1003 net.cpp:91] Creating Layer inception_3a/1x1
I0403 14:13:23.949713  1003 net.cpp:425] inception_3a/1x1 <- pool2/3x3_s2_pool2/3x3_s2_0_split_0
I0403 14:13:23.949735  1003 net.cpp:399] inception_3a/1x1 -> inception_3a/1x1
I0403 14:13:23.951355  1003 net.cpp:141] Setting up inception_3a/1x1
I0403 14:13:23.951390  1003 net.cpp:148] Top shape: 24 64 28 28 (1204224)
I0403 14:13:23.951407  1003 net.cpp:156] Memory required for data: 496141344
I0403 14:13:23.951428  1003 layer_factory.hpp:77] Creating layer inception_3a/relu_1x1
I0403 14:13:23.951447  1003 net.cpp:91] Creating Layer inception_3a/relu_1x1
I0403 14:13:23.951467  1003 net.cpp:425] inception_3a/relu_1x1 <- inception_3a/1x1
I0403 14:13:23.951485  1003 net.cpp:386] inception_3a/relu_1x1 -> inception_3a/1x1 (in-place)
I0403 14:13:23.951666  1003 net.cpp:141] Setting up inception_3a/relu_1x1
I0403 14:13:23.951695  1003 net.cpp:148] Top shape: 24 64 28 28 (1204224)
I0403 14:13:23.951711  1003 net.cpp:156] Memory required for data: 500958240
I0403 14:13:23.951728  1003 layer_factory.hpp:77] Creating layer inception_3a/3x3_reduce
I0403 14:13:23.951752  1003 net.cpp:91] Creating Layer inception_3a/3x3_reduce
I0403 14:13:23.951771  1003 net.cpp:425] inception_3a/3x3_reduce <- pool2/3x3_s2_pool2/3x3_s2_0_split_1
I0403 14:13:23.951792  1003 net.cpp:399] inception_3a/3x3_reduce -> inception_3a/3x3_reduce
I0403 14:13:23.953586  1003 net.cpp:141] Setting up inception_3a/3x3_reduce
I0403 14:13:23.953618  1003 net.cpp:148] Top shape: 24 96 28 28 (1806336)
I0403 14:13:23.953635  1003 net.cpp:156] Memory required for data: 508183584
I0403 14:13:23.953661  1003 layer_factory.hpp:77] Creating layer inception_3a/relu_3x3_reduce
I0403 14:13:23.953698  1003 net.cpp:91] Creating Layer inception_3a/relu_3x3_reduce
I0403 14:13:23.953718  1003 net.cpp:425] inception_3a/relu_3x3_reduce <- inception_3a/3x3_reduce
I0403 14:13:23.953739  1003 net.cpp:386] inception_3a/relu_3x3_reduce -> inception_3a/3x3_reduce (in-place)
I0403 14:13:23.953924  1003 net.cpp:141] Setting up inception_3a/relu_3x3_reduce
I0403 14:13:23.953951  1003 net.cpp:148] Top shape: 24 96 28 28 (1806336)
I0403 14:13:23.953966  1003 net.cpp:156] Memory required for data: 515408928
I0403 14:13:23.953982  1003 layer_factory.hpp:77] Creating layer inception_3a/3x3
I0403 14:13:23.954006  1003 net.cpp:91] Creating Layer inception_3a/3x3
I0403 14:13:23.954026  1003 net.cpp:425] inception_3a/3x3 <- inception_3a/3x3_reduce
I0403 14:13:23.954046  1003 net.cpp:399] inception_3a/3x3 -> inception_3a/3x3
I0403 14:13:23.955776  1003 net.cpp:141] Setting up inception_3a/3x3
I0403 14:13:23.955808  1003 net.cpp:148] Top shape: 24 128 28 28 (2408448)
I0403 14:13:23.955826  1003 net.cpp:156] Memory required for data: 525042720
I0403 14:13:23.955845  1003 layer_factory.hpp:77] Creating layer inception_3a/relu_3x3
I0403 14:13:23.955864  1003 net.cpp:91] Creating Layer inception_3a/relu_3x3
I0403 14:13:23.955881  1003 net.cpp:425] inception_3a/relu_3x3 <- inception_3a/3x3
I0403 14:13:23.955902  1003 net.cpp:386] inception_3a/relu_3x3 -> inception_3a/3x3 (in-place)
I0403 14:13:23.956187  1003 net.cpp:141] Setting up inception_3a/relu_3x3
I0403 14:13:23.956218  1003 net.cpp:148] Top shape: 24 128 28 28 (2408448)
I0403 14:13:23.956235  1003 net.cpp:156] Memory required for data: 534676512
I0403 14:13:23.956253  1003 layer_factory.hpp:77] Creating layer inception_3a/5x5_reduce
I0403 14:13:23.956279  1003 net.cpp:91] Creating Layer inception_3a/5x5_reduce
I0403 14:13:23.956298  1003 net.cpp:425] inception_3a/5x5_reduce <- pool2/3x3_s2_pool2/3x3_s2_0_split_2
I0403 14:13:23.956321  1003 net.cpp:399] inception_3a/5x5_reduce -> inception_3a/5x5_reduce
I0403 14:13:23.957324  1003 net.cpp:141] Setting up inception_3a/5x5_reduce
I0403 14:13:23.957352  1003 net.cpp:148] Top shape: 24 16 28 28 (301056)
I0403 14:13:23.957368  1003 net.cpp:156] Memory required for data: 535880736
I0403 14:13:23.957387  1003 layer_factory.hpp:77] Creating layer inception_3a/relu_5x5_reduce
I0403 14:13:23.957406  1003 net.cpp:91] Creating Layer inception_3a/relu_5x5_reduce
I0403 14:13:23.957422  1003 net.cpp:425] inception_3a/relu_5x5_reduce <- inception_3a/5x5_reduce
I0403 14:13:23.957442  1003 net.cpp:386] inception_3a/relu_5x5_reduce -> inception_3a/5x5_reduce (in-place)
I0403 14:13:23.957742  1003 net.cpp:141] Setting up inception_3a/relu_5x5_reduce
I0403 14:13:23.957769  1003 net.cpp:148] Top shape: 24 16 28 28 (301056)
I0403 14:13:23.957784  1003 net.cpp:156] Memory required for data: 537084960
I0403 14:13:23.957799  1003 layer_factory.hpp:77] Creating layer inception_3a/5x5
I0403 14:13:23.957823  1003 net.cpp:91] Creating Layer inception_3a/5x5
I0403 14:13:23.957840  1003 net.cpp:425] inception_3a/5x5 <- inception_3a/5x5_reduce
I0403 14:13:23.957862  1003 net.cpp:399] inception_3a/5x5 -> inception_3a/5x5
I0403 14:13:23.958921  1003 net.cpp:141] Setting up inception_3a/5x5
I0403 14:13:23.958953  1003 net.cpp:148] Top shape: 24 32 28 28 (602112)
I0403 14:13:23.958971  1003 net.cpp:156] Memory required for data: 539493408
I0403 14:13:23.958991  1003 layer_factory.hpp:77] Creating layer inception_3a/relu_5x5
I0403 14:13:23.959008  1003 net.cpp:91] Creating Layer inception_3a/relu_5x5
I0403 14:13:23.959024  1003 net.cpp:425] inception_3a/relu_5x5 <- inception_3a/5x5
I0403 14:13:23.959043  1003 net.cpp:386] inception_3a/relu_5x5 -> inception_3a/5x5 (in-place)
I0403 14:13:23.959226  1003 net.cpp:141] Setting up inception_3a/relu_5x5
I0403 14:13:23.959251  1003 net.cpp:148] Top shape: 24 32 28 28 (602112)
I0403 14:13:23.959266  1003 net.cpp:156] Memory required for data: 541901856
I0403 14:13:23.959281  1003 layer_factory.hpp:77] Creating layer inception_3a/pool
I0403 14:13:23.959300  1003 net.cpp:91] Creating Layer inception_3a/pool
I0403 14:13:23.959331  1003 net.cpp:425] inception_3a/pool <- pool2/3x3_s2_pool2/3x3_s2_0_split_3
I0403 14:13:23.959357  1003 net.cpp:399] inception_3a/pool -> inception_3a/pool
I0403 14:13:23.959414  1003 net.cpp:141] Setting up inception_3a/pool
I0403 14:13:23.959440  1003 net.cpp:148] Top shape: 24 192 28 28 (3612672)
I0403 14:13:23.959456  1003 net.cpp:156] Memory required for data: 556352544
I0403 14:13:23.959473  1003 layer_factory.hpp:77] Creating layer inception_3a/pool_proj
I0403 14:13:23.959496  1003 net.cpp:91] Creating Layer inception_3a/pool_proj
I0403 14:13:23.959513  1003 net.cpp:425] inception_3a/pool_proj <- inception_3a/pool
I0403 14:13:23.959533  1003 net.cpp:399] inception_3a/pool_proj -> inception_3a/pool_proj
I0403 14:13:23.960548  1003 net.cpp:141] Setting up inception_3a/pool_proj
I0403 14:13:23.960577  1003 net.cpp:148] Top shape: 24 32 28 28 (602112)
I0403 14:13:23.960593  1003 net.cpp:156] Memory required for data: 558760992
I0403 14:13:23.960619  1003 layer_factory.hpp:77] Creating layer inception_3a/relu_pool_proj
I0403 14:13:23.960639  1003 net.cpp:91] Creating Layer inception_3a/relu_pool_proj
I0403 14:13:23.960656  1003 net.cpp:425] inception_3a/relu_pool_proj <- inception_3a/pool_proj
I0403 14:13:23.960676  1003 net.cpp:386] inception_3a/relu_pool_proj -> inception_3a/pool_proj (in-place)
I0403 14:13:23.960952  1003 net.cpp:141] Setting up inception_3a/relu_pool_proj
I0403 14:13:23.960980  1003 net.cpp:148] Top shape: 24 32 28 28 (602112)
I0403 14:13:23.960996  1003 net.cpp:156] Memory required for data: 561169440
I0403 14:13:23.961014  1003 layer_factory.hpp:77] Creating layer inception_3a/output
I0403 14:13:23.961031  1003 net.cpp:91] Creating Layer inception_3a/output
I0403 14:13:23.961047  1003 net.cpp:425] inception_3a/output <- inception_3a/1x1
I0403 14:13:23.961064  1003 net.cpp:425] inception_3a/output <- inception_3a/3x3
I0403 14:13:23.961081  1003 net.cpp:425] inception_3a/output <- inception_3a/5x5
I0403 14:13:23.961097  1003 net.cpp:425] inception_3a/output <- inception_3a/pool_proj
I0403 14:13:23.961114  1003 net.cpp:399] inception_3a/output -> inception_3a/output
I0403 14:13:23.961163  1003 net.cpp:141] Setting up inception_3a/output
I0403 14:13:23.961191  1003 net.cpp:148] Top shape: 24 256 28 28 (4816896)
I0403 14:13:23.961207  1003 net.cpp:156] Memory required for data: 580437024
I0403 14:13:23.961222  1003 layer_factory.hpp:77] Creating layer inception_3a/output_inception_3a/output_0_split
I0403 14:13:23.961243  1003 net.cpp:91] Creating Layer inception_3a/output_inception_3a/output_0_split
I0403 14:13:23.961259  1003 net.cpp:425] inception_3a/output_inception_3a/output_0_split <- inception_3a/output
I0403 14:13:23.961277  1003 net.cpp:399] inception_3a/output_inception_3a/output_0_split -> inception_3a/output_inception_3a/output_0_split_0
I0403 14:13:23.961298  1003 net.cpp:399] inception_3a/output_inception_3a/output_0_split -> inception_3a/output_inception_3a/output_0_split_1
I0403 14:13:23.961338  1003 net.cpp:399] inception_3a/output_inception_3a/output_0_split -> inception_3a/output_inception_3a/output_0_split_2
I0403 14:13:23.961361  1003 net.cpp:399] inception_3a/output_inception_3a/output_0_split -> inception_3a/output_inception_3a/output_0_split_3
I0403 14:13:23.961441  1003 net.cpp:141] Setting up inception_3a/output_inception_3a/output_0_split
I0403 14:13:23.961464  1003 net.cpp:148] Top shape: 24 256 28 28 (4816896)
I0403 14:13:23.961483  1003 net.cpp:148] Top shape: 24 256 28 28 (4816896)
I0403 14:13:23.961498  1003 net.cpp:148] Top shape: 24 256 28 28 (4816896)
I0403 14:13:23.961515  1003 net.cpp:148] Top shape: 24 256 28 28 (4816896)
I0403 14:13:23.961529  1003 net.cpp:156] Memory required for data: 657507360
I0403 14:13:23.961544  1003 layer_factory.hpp:77] Creating layer inception_3b/1x1
I0403 14:13:23.961570  1003 net.cpp:91] Creating Layer inception_3b/1x1
I0403 14:13:23.961588  1003 net.cpp:425] inception_3b/1x1 <- inception_3a/output_inception_3a/output_0_split_0
I0403 14:13:23.961608  1003 net.cpp:399] inception_3b/1x1 -> inception_3b/1x1
I0403 14:13:23.962801  1003 net.cpp:141] Setting up inception_3b/1x1
I0403 14:13:23.962841  1003 net.cpp:148] Top shape: 24 128 28 28 (2408448)
I0403 14:13:23.962860  1003 net.cpp:156] Memory required for data: 667141152
I0403 14:13:23.962878  1003 layer_factory.hpp:77] Creating layer inception_3b/relu_1x1
I0403 14:13:23.962900  1003 net.cpp:91] Creating Layer inception_3b/relu_1x1
I0403 14:13:23.962918  1003 net.cpp:425] inception_3b/relu_1x1 <- inception_3b/1x1
I0403 14:13:23.962935  1003 net.cpp:386] inception_3b/relu_1x1 -> inception_3b/1x1 (in-place)
I0403 14:13:23.963122  1003 net.cpp:141] Setting up inception_3b/relu_1x1
I0403 14:13:23.963160  1003 net.cpp:148] Top shape: 24 128 28 28 (2408448)
I0403 14:13:23.963174  1003 net.cpp:156] Memory required for data: 676774944
I0403 14:13:23.963202  1003 layer_factory.hpp:77] Creating layer inception_3b/3x3_reduce
I0403 14:13:23.963227  1003 net.cpp:91] Creating Layer inception_3b/3x3_reduce
I0403 14:13:23.963244  1003 net.cpp:425] inception_3b/3x3_reduce <- inception_3a/output_inception_3a/output_0_split_1
I0403 14:13:23.963266  1003 net.cpp:399] inception_3b/3x3_reduce -> inception_3b/3x3_reduce
I0403 14:13:23.964464  1003 net.cpp:141] Setting up inception_3b/3x3_reduce
I0403 14:13:23.964493  1003 net.cpp:148] Top shape: 24 128 28 28 (2408448)
I0403 14:13:23.964509  1003 net.cpp:156] Memory required for data: 686408736
I0403 14:13:23.964527  1003 layer_factory.hpp:77] Creating layer inception_3b/relu_3x3_reduce
I0403 14:13:23.964550  1003 net.cpp:91] Creating Layer inception_3b/relu_3x3_reduce
I0403 14:13:23.964566  1003 net.cpp:425] inception_3b/relu_3x3_reduce <- inception_3b/3x3_reduce
I0403 14:13:23.964583  1003 net.cpp:386] inception_3b/relu_3x3_reduce -> inception_3b/3x3_reduce (in-place)
I0403 14:13:23.964762  1003 net.cpp:141] Setting up inception_3b/relu_3x3_reduce
I0403 14:13:23.964788  1003 net.cpp:148] Top shape: 24 128 28 28 (2408448)
I0403 14:13:23.964803  1003 net.cpp:156] Memory required for data: 696042528
I0403 14:13:23.964818  1003 layer_factory.hpp:77] Creating layer inception_3b/3x3
I0403 14:13:23.964843  1003 net.cpp:91] Creating Layer inception_3b/3x3
I0403 14:13:23.964860  1003 net.cpp:425] inception_3b/3x3 <- inception_3b/3x3_reduce
I0403 14:13:23.964880  1003 net.cpp:399] inception_3b/3x3 -> inception_3b/3x3
I0403 14:13:23.967795  1003 net.cpp:141] Setting up inception_3b/3x3
I0403 14:13:23.967826  1003 net.cpp:148] Top shape: 24 192 28 28 (3612672)
I0403 14:13:23.967842  1003 net.cpp:156] Memory required for data: 710493216
I0403 14:13:23.967861  1003 layer_factory.hpp:77] Creating layer inception_3b/relu_3x3
I0403 14:13:23.967880  1003 net.cpp:91] Creating Layer inception_3b/relu_3x3
I0403 14:13:23.967895  1003 net.cpp:425] inception_3b/relu_3x3 <- inception_3b/3x3
I0403 14:13:23.967917  1003 net.cpp:386] inception_3b/relu_3x3 -> inception_3b/3x3 (in-place)
I0403 14:13:23.968199  1003 net.cpp:141] Setting up inception_3b/relu_3x3
I0403 14:13:23.968225  1003 net.cpp:148] Top shape: 24 192 28 28 (3612672)
I0403 14:13:23.968241  1003 net.cpp:156] Memory required for data: 724943904
I0403 14:13:23.968257  1003 layer_factory.hpp:77] Creating layer inception_3b/5x5_reduce
I0403 14:13:23.968279  1003 net.cpp:91] Creating Layer inception_3b/5x5_reduce
I0403 14:13:23.968297  1003 net.cpp:425] inception_3b/5x5_reduce <- inception_3a/output_inception_3a/output_0_split_2
I0403 14:13:23.968320  1003 net.cpp:399] inception_3b/5x5_reduce -> inception_3b/5x5_reduce
I0403 14:13:23.969303  1003 net.cpp:141] Setting up inception_3b/5x5_reduce
I0403 14:13:23.969333  1003 net.cpp:148] Top shape: 24 32 28 28 (602112)
I0403 14:13:23.969349  1003 net.cpp:156] Memory required for data: 727352352
I0403 14:13:23.969368  1003 layer_factory.hpp:77] Creating layer inception_3b/relu_5x5_reduce
I0403 14:13:23.969386  1003 net.cpp:91] Creating Layer inception_3b/relu_5x5_reduce
I0403 14:13:23.969403  1003 net.cpp:425] inception_3b/relu_5x5_reduce <- inception_3b/5x5_reduce
I0403 14:13:23.969419  1003 net.cpp:386] inception_3b/relu_5x5_reduce -> inception_3b/5x5_reduce (in-place)
I0403 14:13:23.969609  1003 net.cpp:141] Setting up inception_3b/relu_5x5_reduce
I0403 14:13:23.969635  1003 net.cpp:148] Top shape: 24 32 28 28 (602112)
I0403 14:13:23.969650  1003 net.cpp:156] Memory required for data: 729760800
I0403 14:13:23.969665  1003 layer_factory.hpp:77] Creating layer inception_3b/5x5
I0403 14:13:23.969686  1003 net.cpp:91] Creating Layer inception_3b/5x5
I0403 14:13:23.969704  1003 net.cpp:425] inception_3b/5x5 <- inception_3b/5x5_reduce
I0403 14:13:23.969725  1003 net.cpp:399] inception_3b/5x5 -> inception_3b/5x5
I0403 14:13:23.971685  1003 net.cpp:141] Setting up inception_3b/5x5
I0403 14:13:23.971714  1003 net.cpp:148] Top shape: 24 96 28 28 (1806336)
I0403 14:13:23.971730  1003 net.cpp:156] Memory required for data: 736986144
I0403 14:13:23.971748  1003 layer_factory.hpp:77] Creating layer inception_3b/relu_5x5
I0403 14:13:23.971770  1003 net.cpp:91] Creating Layer inception_3b/relu_5x5
I0403 14:13:23.971786  1003 net.cpp:425] inception_3b/relu_5x5 <- inception_3b/5x5
I0403 14:13:23.971803  1003 net.cpp:386] inception_3b/relu_5x5 -> inception_3b/5x5 (in-place)
I0403 14:13:23.971993  1003 net.cpp:141] Setting up inception_3b/relu_5x5
I0403 14:13:23.972018  1003 net.cpp:148] Top shape: 24 96 28 28 (1806336)
I0403 14:13:23.972033  1003 net.cpp:156] Memory required for data: 744211488
I0403 14:13:23.972048  1003 layer_factory.hpp:77] Creating layer inception_3b/pool
I0403 14:13:23.972066  1003 net.cpp:91] Creating Layer inception_3b/pool
I0403 14:13:23.972082  1003 net.cpp:425] inception_3b/pool <- inception_3a/output_inception_3a/output_0_split_3
I0403 14:13:23.972101  1003 net.cpp:399] inception_3b/pool -> inception_3b/pool
I0403 14:13:23.972156  1003 net.cpp:141] Setting up inception_3b/pool
I0403 14:13:23.972180  1003 net.cpp:148] Top shape: 24 256 28 28 (4816896)
I0403 14:13:23.972196  1003 net.cpp:156] Memory required for data: 763479072
I0403 14:13:23.972211  1003 layer_factory.hpp:77] Creating layer inception_3b/pool_proj
I0403 14:13:23.972234  1003 net.cpp:91] Creating Layer inception_3b/pool_proj
I0403 14:13:23.972251  1003 net.cpp:425] inception_3b/pool_proj <- inception_3b/pool
I0403 14:13:23.972272  1003 net.cpp:399] inception_3b/pool_proj -> inception_3b/pool_proj
I0403 14:13:23.973301  1003 net.cpp:141] Setting up inception_3b/pool_proj
I0403 14:13:23.973330  1003 net.cpp:148] Top shape: 24 64 28 28 (1204224)
I0403 14:13:23.973345  1003 net.cpp:156] Memory required for data: 768295968
I0403 14:13:23.973361  1003 layer_factory.hpp:77] Creating layer inception_3b/relu_pool_proj
I0403 14:13:23.973381  1003 net.cpp:91] Creating Layer inception_3b/relu_pool_proj
I0403 14:13:23.973398  1003 net.cpp:425] inception_3b/relu_pool_proj <- inception_3b/pool_proj
I0403 14:13:23.973414  1003 net.cpp:386] inception_3b/relu_pool_proj -> inception_3b/pool_proj (in-place)
I0403 14:13:23.973817  1003 net.cpp:141] Setting up inception_3b/relu_pool_proj
I0403 14:13:23.973855  1003 net.cpp:148] Top shape: 24 64 28 28 (1204224)
I0403 14:13:23.973870  1003 net.cpp:156] Memory required for data: 773112864
I0403 14:13:23.973884  1003 layer_factory.hpp:77] Creating layer inception_3b/output
I0403 14:13:23.973901  1003 net.cpp:91] Creating Layer inception_3b/output
I0403 14:13:23.973917  1003 net.cpp:425] inception_3b/output <- inception_3b/1x1
I0403 14:13:23.973932  1003 net.cpp:425] inception_3b/output <- inception_3b/3x3
I0403 14:13:23.973948  1003 net.cpp:425] inception_3b/output <- inception_3b/5x5
I0403 14:13:23.973963  1003 net.cpp:425] inception_3b/output <- inception_3b/pool_proj
I0403 14:13:23.973981  1003 net.cpp:399] inception_3b/output -> inception_3b/output
I0403 14:13:23.974023  1003 net.cpp:141] Setting up inception_3b/output
I0403 14:13:23.974048  1003 net.cpp:148] Top shape: 24 480 28 28 (9031680)
I0403 14:13:23.974064  1003 net.cpp:156] Memory required for data: 809239584
I0403 14:13:23.974078  1003 layer_factory.hpp:77] Creating layer pool3/3x3_s2
I0403 14:13:23.974095  1003 net.cpp:91] Creating Layer pool3/3x3_s2
I0403 14:13:23.974112  1003 net.cpp:425] pool3/3x3_s2 <- inception_3b/output
I0403 14:13:23.974143  1003 net.cpp:399] pool3/3x3_s2 -> pool3/3x3_s2
I0403 14:13:23.974203  1003 net.cpp:141] Setting up pool3/3x3_s2
I0403 14:13:23.974226  1003 net.cpp:148] Top shape: 24 480 14 14 (2257920)
I0403 14:13:23.974241  1003 net.cpp:156] Memory required for data: 818271264
I0403 14:13:23.974254  1003 layer_factory.hpp:77] Creating layer pool3/3x3_s2_pool3/3x3_s2_0_split
I0403 14:13:23.974272  1003 net.cpp:91] Creating Layer pool3/3x3_s2_pool3/3x3_s2_0_split
I0403 14:13:23.974287  1003 net.cpp:425] pool3/3x3_s2_pool3/3x3_s2_0_split <- pool3/3x3_s2
I0403 14:13:23.974305  1003 net.cpp:399] pool3/3x3_s2_pool3/3x3_s2_0_split -> pool3/3x3_s2_pool3/3x3_s2_0_split_0
I0403 14:13:23.974325  1003 net.cpp:399] pool3/3x3_s2_pool3/3x3_s2_0_split -> pool3/3x3_s2_pool3/3x3_s2_0_split_1
I0403 14:13:23.974344  1003 net.cpp:399] pool3/3x3_s2_pool3/3x3_s2_0_split -> pool3/3x3_s2_pool3/3x3_s2_0_split_2
I0403 14:13:23.974365  1003 net.cpp:399] pool3/3x3_s2_pool3/3x3_s2_0_split -> pool3/3x3_s2_pool3/3x3_s2_0_split_3
I0403 14:13:23.974438  1003 net.cpp:141] Setting up pool3/3x3_s2_pool3/3x3_s2_0_split
I0403 14:13:23.974459  1003 net.cpp:148] Top shape: 24 480 14 14 (2257920)
I0403 14:13:23.974475  1003 net.cpp:148] Top shape: 24 480 14 14 (2257920)
I0403 14:13:23.974491  1003 net.cpp:148] Top shape: 24 480 14 14 (2257920)
I0403 14:13:23.974506  1003 net.cpp:148] Top shape: 24 480 14 14 (2257920)
I0403 14:13:23.974519  1003 net.cpp:156] Memory required for data: 854397984
I0403 14:13:23.974534  1003 layer_factory.hpp:77] Creating layer inception_4a/1x1
I0403 14:13:23.974555  1003 net.cpp:91] Creating Layer inception_4a/1x1
I0403 14:13:23.974571  1003 net.cpp:425] inception_4a/1x1 <- pool3/3x3_s2_pool3/3x3_s2_0_split_0
I0403 14:13:23.974592  1003 net.cpp:399] inception_4a/1x1 -> inception_4a/1x1
I0403 14:13:23.976164  1003 net.cpp:141] Setting up inception_4a/1x1
I0403 14:13:23.976197  1003 net.cpp:148] Top shape: 24 192 14 14 (903168)
I0403 14:13:23.976212  1003 net.cpp:156] Memory required for data: 858010656
I0403 14:13:23.976232  1003 layer_factory.hpp:77] Creating layer inception_4a/relu_1x1
I0403 14:13:23.976253  1003 net.cpp:91] Creating Layer inception_4a/relu_1x1
I0403 14:13:23.976269  1003 net.cpp:425] inception_4a/relu_1x1 <- inception_4a/1x1
I0403 14:13:23.976286  1003 net.cpp:386] inception_4a/relu_1x1 -> inception_4a/1x1 (in-place)
I0403 14:13:23.976460  1003 net.cpp:141] Setting up inception_4a/relu_1x1
I0403 14:13:23.976485  1003 net.cpp:148] Top shape: 24 192 14 14 (903168)
I0403 14:13:23.976500  1003 net.cpp:156] Memory required for data: 861623328
I0403 14:13:23.976513  1003 layer_factory.hpp:77] Creating layer inception_4a/3x3_reduce
I0403 14:13:23.976552  1003 net.cpp:91] Creating Layer inception_4a/3x3_reduce
I0403 14:13:23.976570  1003 net.cpp:425] inception_4a/3x3_reduce <- pool3/3x3_s2_pool3/3x3_s2_0_split_1
I0403 14:13:23.976591  1003 net.cpp:399] inception_4a/3x3_reduce -> inception_4a/3x3_reduce
I0403 14:13:23.977870  1003 net.cpp:141] Setting up inception_4a/3x3_reduce
I0403 14:13:23.977898  1003 net.cpp:148] Top shape: 24 96 14 14 (451584)
I0403 14:13:23.977915  1003 net.cpp:156] Memory required for data: 863429664
I0403 14:13:23.977939  1003 layer_factory.hpp:77] Creating layer inception_4a/relu_3x3_reduce
I0403 14:13:23.977959  1003 net.cpp:91] Creating Layer inception_4a/relu_3x3_reduce
I0403 14:13:23.977977  1003 net.cpp:425] inception_4a/relu_3x3_reduce <- inception_4a/3x3_reduce
I0403 14:13:23.977996  1003 net.cpp:386] inception_4a/relu_3x3_reduce -> inception_4a/3x3_reduce (in-place)
I0403 14:13:23.978190  1003 net.cpp:141] Setting up inception_4a/relu_3x3_reduce
I0403 14:13:23.978216  1003 net.cpp:148] Top shape: 24 96 14 14 (451584)
I0403 14:13:23.978231  1003 net.cpp:156] Memory required for data: 865236000
I0403 14:13:23.978247  1003 layer_factory.hpp:77] Creating layer inception_4a/3x3
I0403 14:13:23.978271  1003 net.cpp:91] Creating Layer inception_4a/3x3
I0403 14:13:23.978291  1003 net.cpp:425] inception_4a/3x3 <- inception_4a/3x3_reduce
I0403 14:13:23.978310  1003 net.cpp:399] inception_4a/3x3 -> inception_4a/3x3
I0403 14:13:23.981037  1003 net.cpp:141] Setting up inception_4a/3x3
I0403 14:13:23.981067  1003 net.cpp:148] Top shape: 24 208 14 14 (978432)
I0403 14:13:23.981086  1003 net.cpp:156] Memory required for data: 869149728
I0403 14:13:23.981106  1003 layer_factory.hpp:77] Creating layer inception_4a/relu_3x3
I0403 14:13:23.981124  1003 net.cpp:91] Creating Layer inception_4a/relu_3x3
I0403 14:13:23.981142  1003 net.cpp:425] inception_4a/relu_3x3 <- inception_4a/3x3
I0403 14:13:23.981159  1003 net.cpp:386] inception_4a/relu_3x3 -> inception_4a/3x3 (in-place)
I0403 14:13:23.981448  1003 net.cpp:141] Setting up inception_4a/relu_3x3
I0403 14:13:23.981477  1003 net.cpp:148] Top shape: 24 208 14 14 (978432)
I0403 14:13:23.981494  1003 net.cpp:156] Memory required for data: 873063456
I0403 14:13:23.981510  1003 layer_factory.hpp:77] Creating layer inception_4a/5x5_reduce
I0403 14:13:23.981544  1003 net.cpp:91] Creating Layer inception_4a/5x5_reduce
I0403 14:13:23.981560  1003 net.cpp:425] inception_4a/5x5_reduce <- pool3/3x3_s2_pool3/3x3_s2_0_split_2
I0403 14:13:23.981585  1003 net.cpp:399] inception_4a/5x5_reduce -> inception_4a/5x5_reduce
I0403 14:13:23.982601  1003 net.cpp:141] Setting up inception_4a/5x5_reduce
I0403 14:13:23.982630  1003 net.cpp:148] Top shape: 24 16 14 14 (75264)
I0403 14:13:23.982646  1003 net.cpp:156] Memory required for data: 873364512
I0403 14:13:23.982666  1003 layer_factory.hpp:77] Creating layer inception_4a/relu_5x5_reduce
I0403 14:13:23.982695  1003 net.cpp:91] Creating Layer inception_4a/relu_5x5_reduce
I0403 14:13:23.982712  1003 net.cpp:425] inception_4a/relu_5x5_reduce <- inception_4a/5x5_reduce
I0403 14:13:23.982733  1003 net.cpp:386] inception_4a/relu_5x5_reduce -> inception_4a/5x5_reduce (in-place)
I0403 14:13:23.982918  1003 net.cpp:141] Setting up inception_4a/relu_5x5_reduce
I0403 14:13:23.982942  1003 net.cpp:148] Top shape: 24 16 14 14 (75264)
I0403 14:13:23.982957  1003 net.cpp:156] Memory required for data: 873665568
I0403 14:13:23.982974  1003 layer_factory.hpp:77] Creating layer inception_4a/5x5
I0403 14:13:23.982995  1003 net.cpp:91] Creating Layer inception_4a/5x5
I0403 14:13:23.983024  1003 net.cpp:425] inception_4a/5x5 <- inception_4a/5x5_reduce
I0403 14:13:23.983045  1003 net.cpp:399] inception_4a/5x5 -> inception_4a/5x5
I0403 14:13:23.984132  1003 net.cpp:141] Setting up inception_4a/5x5
I0403 14:13:23.984158  1003 net.cpp:148] Top shape: 24 48 14 14 (225792)
I0403 14:13:23.984174  1003 net.cpp:156] Memory required for data: 874568736
I0403 14:13:23.984197  1003 layer_factory.hpp:77] Creating layer inception_4a/relu_5x5
I0403 14:13:23.984228  1003 net.cpp:91] Creating Layer inception_4a/relu_5x5
I0403 14:13:23.984246  1003 net.cpp:425] inception_4a/relu_5x5 <- inception_4a/5x5
I0403 14:13:23.984268  1003 net.cpp:386] inception_4a/relu_5x5 -> inception_4a/5x5 (in-place)
I0403 14:13:23.984450  1003 net.cpp:141] Setting up inception_4a/relu_5x5
I0403 14:13:23.984475  1003 net.cpp:148] Top shape: 24 48 14 14 (225792)
I0403 14:13:23.984490  1003 net.cpp:156] Memory required for data: 875471904
I0403 14:13:23.984505  1003 layer_factory.hpp:77] Creating layer inception_4a/pool
I0403 14:13:23.984526  1003 net.cpp:91] Creating Layer inception_4a/pool
I0403 14:13:23.984544  1003 net.cpp:425] inception_4a/pool <- pool3/3x3_s2_pool3/3x3_s2_0_split_3
I0403 14:13:23.984573  1003 net.cpp:399] inception_4a/pool -> inception_4a/pool
I0403 14:13:23.984634  1003 net.cpp:141] Setting up inception_4a/pool
I0403 14:13:23.984658  1003 net.cpp:148] Top shape: 24 480 14 14 (2257920)
I0403 14:13:23.984673  1003 net.cpp:156] Memory required for data: 884503584
I0403 14:13:23.984686  1003 layer_factory.hpp:77] Creating layer inception_4a/pool_proj
I0403 14:13:23.984709  1003 net.cpp:91] Creating Layer inception_4a/pool_proj
I0403 14:13:23.984725  1003 net.cpp:425] inception_4a/pool_proj <- inception_4a/pool
I0403 14:13:23.984748  1003 net.cpp:399] inception_4a/pool_proj -> inception_4a/pool_proj
I0403 14:13:23.985921  1003 net.cpp:141] Setting up inception_4a/pool_proj
I0403 14:13:23.985950  1003 net.cpp:148] Top shape: 24 64 14 14 (301056)
I0403 14:13:23.985980  1003 net.cpp:156] Memory required for data: 885707808
I0403 14:13:23.986001  1003 layer_factory.hpp:77] Creating layer inception_4a/relu_pool_proj
I0403 14:13:23.986021  1003 net.cpp:91] Creating Layer inception_4a/relu_pool_proj
I0403 14:13:23.986039  1003 net.cpp:425] inception_4a/relu_pool_proj <- inception_4a/pool_proj
I0403 14:13:23.986057  1003 net.cpp:386] inception_4a/relu_pool_proj -> inception_4a/pool_proj (in-place)
I0403 14:13:23.986354  1003 net.cpp:141] Setting up inception_4a/relu_pool_proj
I0403 14:13:23.986379  1003 net.cpp:148] Top shape: 24 64 14 14 (301056)
I0403 14:13:23.986394  1003 net.cpp:156] Memory required for data: 886912032
I0403 14:13:23.986409  1003 layer_factory.hpp:77] Creating layer inception_4a/output
I0403 14:13:23.986428  1003 net.cpp:91] Creating Layer inception_4a/output
I0403 14:13:23.986443  1003 net.cpp:425] inception_4a/output <- inception_4a/1x1
I0403 14:13:23.986459  1003 net.cpp:425] inception_4a/output <- inception_4a/3x3
I0403 14:13:23.986475  1003 net.cpp:425] inception_4a/output <- inception_4a/5x5
I0403 14:13:23.986491  1003 net.cpp:425] inception_4a/output <- inception_4a/pool_proj
I0403 14:13:23.986510  1003 net.cpp:399] inception_4a/output -> inception_4a/output
I0403 14:13:23.986557  1003 net.cpp:141] Setting up inception_4a/output
I0403 14:13:23.986580  1003 net.cpp:148] Top shape: 24 512 14 14 (2408448)
I0403 14:13:23.986594  1003 net.cpp:156] Memory required for data: 896545824
I0403 14:13:23.986609  1003 layer_factory.hpp:77] Creating layer inception_4a/output_inception_4a/output_0_split
I0403 14:13:23.986627  1003 net.cpp:91] Creating Layer inception_4a/output_inception_4a/output_0_split
I0403 14:13:23.986644  1003 net.cpp:425] inception_4a/output_inception_4a/output_0_split <- inception_4a/output
I0403 14:13:23.986662  1003 net.cpp:399] inception_4a/output_inception_4a/output_0_split -> inception_4a/output_inception_4a/output_0_split_0
I0403 14:13:23.986683  1003 net.cpp:399] inception_4a/output_inception_4a/output_0_split -> inception_4a/output_inception_4a/output_0_split_1
I0403 14:13:23.986704  1003 net.cpp:399] inception_4a/output_inception_4a/output_0_split -> inception_4a/output_inception_4a/output_0_split_2
I0403 14:13:23.986726  1003 net.cpp:399] inception_4a/output_inception_4a/output_0_split -> inception_4a/output_inception_4a/output_0_split_3
I0403 14:13:23.986745  1003 net.cpp:399] inception_4a/output_inception_4a/output_0_split -> inception_4a/output_inception_4a/output_0_split_4
I0403 14:13:23.986835  1003 net.cpp:141] Setting up inception_4a/output_inception_4a/output_0_split
I0403 14:13:23.986860  1003 net.cpp:148] Top shape: 24 512 14 14 (2408448)
I0403 14:13:23.986877  1003 net.cpp:148] Top shape: 24 512 14 14 (2408448)
I0403 14:13:23.986893  1003 net.cpp:148] Top shape: 24 512 14 14 (2408448)
I0403 14:13:23.986909  1003 net.cpp:148] Top shape: 24 512 14 14 (2408448)
I0403 14:13:23.986924  1003 net.cpp:148] Top shape: 24 512 14 14 (2408448)
I0403 14:13:23.986938  1003 net.cpp:156] Memory required for data: 944714784
I0403 14:13:23.986953  1003 layer_factory.hpp:77] Creating layer loss1/ave_pool
I0403 14:13:23.986970  1003 net.cpp:91] Creating Layer loss1/ave_pool
I0403 14:13:23.986986  1003 net.cpp:425] loss1/ave_pool <- inception_4a/output_inception_4a/output_0_split_0
I0403 14:13:23.987007  1003 net.cpp:399] loss1/ave_pool -> loss1/ave_pool
I0403 14:13:23.987216  1003 net.cpp:141] Setting up loss1/ave_pool
I0403 14:13:23.987241  1003 net.cpp:148] Top shape: 24 512 4 4 (196608)
I0403 14:13:23.987257  1003 net.cpp:156] Memory required for data: 945501216
I0403 14:13:23.987270  1003 layer_factory.hpp:77] Creating layer loss1/conv
I0403 14:13:23.987293  1003 net.cpp:91] Creating Layer loss1/conv
I0403 14:13:23.987323  1003 net.cpp:425] loss1/conv <- loss1/ave_pool
I0403 14:13:23.987346  1003 net.cpp:399] loss1/conv -> loss1/conv
I0403 14:13:23.988765  1003 net.cpp:141] Setting up loss1/conv
I0403 14:13:23.988797  1003 net.cpp:148] Top shape: 24 128 4 4 (49152)
I0403 14:13:23.988837  1003 net.cpp:156] Memory required for data: 945697824
I0403 14:13:23.988858  1003 layer_factory.hpp:77] Creating layer loss1/relu_conv
I0403 14:13:23.988878  1003 net.cpp:91] Creating Layer loss1/relu_conv
I0403 14:13:23.988895  1003 net.cpp:425] loss1/relu_conv <- loss1/conv
I0403 14:13:23.988912  1003 net.cpp:386] loss1/relu_conv -> loss1/conv (in-place)
I0403 14:13:23.989213  1003 net.cpp:141] Setting up loss1/relu_conv
I0403 14:13:23.989240  1003 net.cpp:148] Top shape: 24 128 4 4 (49152)
I0403 14:13:23.989256  1003 net.cpp:156] Memory required for data: 945894432
I0403 14:13:23.989271  1003 layer_factory.hpp:77] Creating layer loss1/fc
I0403 14:13:23.989295  1003 net.cpp:91] Creating Layer loss1/fc
I0403 14:13:23.989311  1003 net.cpp:425] loss1/fc <- loss1/conv
I0403 14:13:23.989332  1003 net.cpp:399] loss1/fc -> loss1/fc
I0403 14:13:24.008105  1003 net.cpp:141] Setting up loss1/fc
I0403 14:13:24.008163  1003 net.cpp:148] Top shape: 24 1024 (24576)
I0403 14:13:24.008184  1003 net.cpp:156] Memory required for data: 945992736
I0403 14:13:24.008205  1003 layer_factory.hpp:77] Creating layer loss1/relu_fc
I0403 14:13:24.008227  1003 net.cpp:91] Creating Layer loss1/relu_fc
I0403 14:13:24.008245  1003 net.cpp:425] loss1/relu_fc <- loss1/fc
I0403 14:13:24.008265  1003 net.cpp:386] loss1/relu_fc -> loss1/fc (in-place)
I0403 14:13:24.008471  1003 net.cpp:141] Setting up loss1/relu_fc
I0403 14:13:24.008494  1003 net.cpp:148] Top shape: 24 1024 (24576)
I0403 14:13:24.008509  1003 net.cpp:156] Memory required for data: 946091040
I0403 14:13:24.008523  1003 layer_factory.hpp:77] Creating layer loss1/drop_fc
I0403 14:13:24.008553  1003 net.cpp:91] Creating Layer loss1/drop_fc
I0403 14:13:24.008569  1003 net.cpp:425] loss1/drop_fc <- loss1/fc
I0403 14:13:24.008587  1003 net.cpp:386] loss1/drop_fc -> loss1/fc (in-place)
I0403 14:13:24.008652  1003 net.cpp:141] Setting up loss1/drop_fc
I0403 14:13:24.008676  1003 net.cpp:148] Top shape: 24 1024 (24576)
I0403 14:13:24.008690  1003 net.cpp:156] Memory required for data: 946189344
I0403 14:13:24.008705  1003 layer_factory.hpp:77] Creating layer loss1/classifier_plantvillage
I0403 14:13:24.008724  1003 net.cpp:91] Creating Layer loss1/classifier_plantvillage
I0403 14:13:24.008740  1003 net.cpp:425] loss1/classifier_plantvillage <- loss1/fc
I0403 14:13:24.008762  1003 net.cpp:399] loss1/classifier_plantvillage -> loss1/classifier_plantvillage
I0403 14:13:24.009699  1003 net.cpp:141] Setting up loss1/classifier_plantvillage
I0403 14:13:24.009728  1003 net.cpp:148] Top shape: 24 38 (912)
I0403 14:13:24.009744  1003 net.cpp:156] Memory required for data: 946192992
I0403 14:13:24.009763  1003 layer_factory.hpp:77] Creating layer loss1/classifier_plantvillage_loss1/classifier_plantvillage_0_split
I0403 14:13:24.009781  1003 net.cpp:91] Creating Layer loss1/classifier_plantvillage_loss1/classifier_plantvillage_0_split
I0403 14:13:24.009799  1003 net.cpp:425] loss1/classifier_plantvillage_loss1/classifier_plantvillage_0_split <- loss1/classifier_plantvillage
I0403 14:13:24.009816  1003 net.cpp:399] loss1/classifier_plantvillage_loss1/classifier_plantvillage_0_split -> loss1/classifier_plantvillage_loss1/classifier_plantvillage_0_split_0
I0403 14:13:24.009836  1003 net.cpp:399] loss1/classifier_plantvillage_loss1/classifier_plantvillage_0_split -> loss1/classifier_plantvillage_loss1/classifier_plantvillage_0_split_1
I0403 14:13:24.009856  1003 net.cpp:399] loss1/classifier_plantvillage_loss1/classifier_plantvillage_0_split -> loss1/classifier_plantvillage_loss1/classifier_plantvillage_0_split_2
I0403 14:13:24.009922  1003 net.cpp:141] Setting up loss1/classifier_plantvillage_loss1/classifier_plantvillage_0_split
I0403 14:13:24.009944  1003 net.cpp:148] Top shape: 24 38 (912)
I0403 14:13:24.009959  1003 net.cpp:148] Top shape: 24 38 (912)
I0403 14:13:24.009974  1003 net.cpp:148] Top shape: 24 38 (912)
I0403 14:13:24.009987  1003 net.cpp:156] Memory required for data: 946203936
I0403 14:13:24.010001  1003 layer_factory.hpp:77] Creating layer inception_4b/1x1
I0403 14:13:24.010023  1003 net.cpp:91] Creating Layer inception_4b/1x1
I0403 14:13:24.010064  1003 net.cpp:425] inception_4b/1x1 <- inception_4a/output_inception_4a/output_0_split_1
I0403 14:13:24.010088  1003 net.cpp:399] inception_4b/1x1 -> inception_4b/1x1
I0403 14:13:24.011925  1003 net.cpp:141] Setting up inception_4b/1x1
I0403 14:13:24.011958  1003 net.cpp:148] Top shape: 24 160 14 14 (752640)
I0403 14:13:24.011975  1003 net.cpp:156] Memory required for data: 949214496
I0403 14:13:24.011993  1003 layer_factory.hpp:77] Creating layer inception_4b/relu_1x1
I0403 14:13:24.012012  1003 net.cpp:91] Creating Layer inception_4b/relu_1x1
I0403 14:13:24.012027  1003 net.cpp:425] inception_4b/relu_1x1 <- inception_4b/1x1
I0403 14:13:24.012044  1003 net.cpp:386] inception_4b/relu_1x1 -> inception_4b/1x1 (in-place)
I0403 14:13:24.012236  1003 net.cpp:141] Setting up inception_4b/relu_1x1
I0403 14:13:24.012261  1003 net.cpp:148] Top shape: 24 160 14 14 (752640)
I0403 14:13:24.012275  1003 net.cpp:156] Memory required for data: 952225056
I0403 14:13:24.012290  1003 layer_factory.hpp:77] Creating layer inception_4b/3x3_reduce
I0403 14:13:24.012313  1003 net.cpp:91] Creating Layer inception_4b/3x3_reduce
I0403 14:13:24.012331  1003 net.cpp:425] inception_4b/3x3_reduce <- inception_4a/output_inception_4a/output_0_split_2
I0403 14:13:24.012356  1003 net.cpp:399] inception_4b/3x3_reduce -> inception_4b/3x3_reduce
I0403 14:13:24.013674  1003 net.cpp:141] Setting up inception_4b/3x3_reduce
I0403 14:13:24.013705  1003 net.cpp:148] Top shape: 24 112 14 14 (526848)
I0403 14:13:24.013722  1003 net.cpp:156] Memory required for data: 954332448
I0403 14:13:24.013741  1003 layer_factory.hpp:77] Creating layer inception_4b/relu_3x3_reduce
I0403 14:13:24.013759  1003 net.cpp:91] Creating Layer inception_4b/relu_3x3_reduce
I0403 14:13:24.013775  1003 net.cpp:425] inception_4b/relu_3x3_reduce <- inception_4b/3x3_reduce
I0403 14:13:24.013794  1003 net.cpp:386] inception_4b/relu_3x3_reduce -> inception_4b/3x3_reduce (in-place)
I0403 14:13:24.014071  1003 net.cpp:141] Setting up inception_4b/relu_3x3_reduce
I0403 14:13:24.014098  1003 net.cpp:148] Top shape: 24 112 14 14 (526848)
I0403 14:13:24.014114  1003 net.cpp:156] Memory required for data: 956439840
I0403 14:13:24.014129  1003 layer_factory.hpp:77] Creating layer inception_4b/3x3
I0403 14:13:24.014152  1003 net.cpp:91] Creating Layer inception_4b/3x3
I0403 14:13:24.014168  1003 net.cpp:425] inception_4b/3x3 <- inception_4b/3x3_reduce
I0403 14:13:24.014197  1003 net.cpp:399] inception_4b/3x3 -> inception_4b/3x3
I0403 14:13:24.017210  1003 net.cpp:141] Setting up inception_4b/3x3
I0403 14:13:24.017238  1003 net.cpp:148] Top shape: 24 224 14 14 (1053696)
I0403 14:13:24.017253  1003 net.cpp:156] Memory required for data: 960654624
I0403 14:13:24.017272  1003 layer_factory.hpp:77] Creating layer inception_4b/relu_3x3
I0403 14:13:24.017292  1003 net.cpp:91] Creating Layer inception_4b/relu_3x3
I0403 14:13:24.017310  1003 net.cpp:425] inception_4b/relu_3x3 <- inception_4b/3x3
I0403 14:13:24.017328  1003 net.cpp:386] inception_4b/relu_3x3 -> inception_4b/3x3 (in-place)
I0403 14:13:24.017509  1003 net.cpp:141] Setting up inception_4b/relu_3x3
I0403 14:13:24.017537  1003 net.cpp:148] Top shape: 24 224 14 14 (1053696)
I0403 14:13:24.017554  1003 net.cpp:156] Memory required for data: 964869408
I0403 14:13:24.017570  1003 layer_factory.hpp:77] Creating layer inception_4b/5x5_reduce
I0403 14:13:24.017595  1003 net.cpp:91] Creating Layer inception_4b/5x5_reduce
I0403 14:13:24.017612  1003 net.cpp:425] inception_4b/5x5_reduce <- inception_4a/output_inception_4a/output_0_split_3
I0403 14:13:24.017632  1003 net.cpp:399] inception_4b/5x5_reduce -> inception_4b/5x5_reduce
I0403 14:13:24.018745  1003 net.cpp:141] Setting up inception_4b/5x5_reduce
I0403 14:13:24.018775  1003 net.cpp:148] Top shape: 24 24 14 14 (112896)
I0403 14:13:24.018791  1003 net.cpp:156] Memory required for data: 965320992
I0403 14:13:24.018811  1003 layer_factory.hpp:77] Creating layer inception_4b/relu_5x5_reduce
I0403 14:13:24.018829  1003 net.cpp:91] Creating Layer inception_4b/relu_5x5_reduce
I0403 14:13:24.018862  1003 net.cpp:425] inception_4b/relu_5x5_reduce <- inception_4b/5x5_reduce
I0403 14:13:24.018882  1003 net.cpp:386] inception_4b/relu_5x5_reduce -> inception_4b/5x5_reduce (in-place)
I0403 14:13:24.019064  1003 net.cpp:141] Setting up inception_4b/relu_5x5_reduce
I0403 14:13:24.019090  1003 net.cpp:148] Top shape: 24 24 14 14 (112896)
I0403 14:13:24.019105  1003 net.cpp:156] Memory required for data: 965772576
I0403 14:13:24.019120  1003 layer_factory.hpp:77] Creating layer inception_4b/5x5
I0403 14:13:24.019142  1003 net.cpp:91] Creating Layer inception_4b/5x5
I0403 14:13:24.019160  1003 net.cpp:425] inception_4b/5x5 <- inception_4b/5x5_reduce
I0403 14:13:24.019188  1003 net.cpp:399] inception_4b/5x5 -> inception_4b/5x5
I0403 14:13:24.020403  1003 net.cpp:141] Setting up inception_4b/5x5
I0403 14:13:24.020433  1003 net.cpp:148] Top shape: 24 64 14 14 (301056)
I0403 14:13:24.020449  1003 net.cpp:156] Memory required for data: 966976800
I0403 14:13:24.020467  1003 layer_factory.hpp:77] Creating layer inception_4b/relu_5x5
I0403 14:13:24.020486  1003 net.cpp:91] Creating Layer inception_4b/relu_5x5
I0403 14:13:24.020503  1003 net.cpp:425] inception_4b/relu_5x5 <- inception_4b/5x5
I0403 14:13:24.020520  1003 net.cpp:386] inception_4b/relu_5x5 -> inception_4b/5x5 (in-place)
I0403 14:13:24.020802  1003 net.cpp:141] Setting up inception_4b/relu_5x5
I0403 14:13:24.020830  1003 net.cpp:148] Top shape: 24 64 14 14 (301056)
I0403 14:13:24.020846  1003 net.cpp:156] Memory required for data: 968181024
I0403 14:13:24.020861  1003 layer_factory.hpp:77] Creating layer inception_4b/pool
I0403 14:13:24.020880  1003 net.cpp:91] Creating Layer inception_4b/pool
I0403 14:13:24.020896  1003 net.cpp:425] inception_4b/pool <- inception_4a/output_inception_4a/output_0_split_4
I0403 14:13:24.020915  1003 net.cpp:399] inception_4b/pool -> inception_4b/pool
I0403 14:13:24.020978  1003 net.cpp:141] Setting up inception_4b/pool
I0403 14:13:24.021001  1003 net.cpp:148] Top shape: 24 512 14 14 (2408448)
I0403 14:13:24.021016  1003 net.cpp:156] Memory required for data: 977814816
I0403 14:13:24.021030  1003 layer_factory.hpp:77] Creating layer inception_4b/pool_proj
I0403 14:13:24.021052  1003 net.cpp:91] Creating Layer inception_4b/pool_proj
I0403 14:13:24.021070  1003 net.cpp:425] inception_4b/pool_proj <- inception_4b/pool
I0403 14:13:24.021093  1003 net.cpp:399] inception_4b/pool_proj -> inception_4b/pool_proj
I0403 14:13:24.022301  1003 net.cpp:141] Setting up inception_4b/pool_proj
I0403 14:13:24.022331  1003 net.cpp:148] Top shape: 24 64 14 14 (301056)
I0403 14:13:24.022348  1003 net.cpp:156] Memory required for data: 979019040
I0403 14:13:24.022367  1003 layer_factory.hpp:77] Creating layer inception_4b/relu_pool_proj
I0403 14:13:24.022384  1003 net.cpp:91] Creating Layer inception_4b/relu_pool_proj
I0403 14:13:24.022400  1003 net.cpp:425] inception_4b/relu_pool_proj <- inception_4b/pool_proj
I0403 14:13:24.022421  1003 net.cpp:386] inception_4b/relu_pool_proj -> inception_4b/pool_proj (in-place)
I0403 14:13:24.022600  1003 net.cpp:141] Setting up inception_4b/relu_pool_proj
I0403 14:13:24.022625  1003 net.cpp:148] Top shape: 24 64 14 14 (301056)
I0403 14:13:24.022639  1003 net.cpp:156] Memory required for data: 980223264
I0403 14:13:24.022655  1003 layer_factory.hpp:77] Creating layer inception_4b/output
I0403 14:13:24.022672  1003 net.cpp:91] Creating Layer inception_4b/output
I0403 14:13:24.022687  1003 net.cpp:425] inception_4b/output <- inception_4b/1x1
I0403 14:13:24.022704  1003 net.cpp:425] inception_4b/output <- inception_4b/3x3
I0403 14:13:24.022721  1003 net.cpp:425] inception_4b/output <- inception_4b/5x5
I0403 14:13:24.022737  1003 net.cpp:425] inception_4b/output <- inception_4b/pool_proj
I0403 14:13:24.022755  1003 net.cpp:399] inception_4b/output -> inception_4b/output
I0403 14:13:24.022801  1003 net.cpp:141] Setting up inception_4b/output
I0403 14:13:24.022826  1003 net.cpp:148] Top shape: 24 512 14 14 (2408448)
I0403 14:13:24.022842  1003 net.cpp:156] Memory required for data: 989857056
I0403 14:13:24.022872  1003 layer_factory.hpp:77] Creating layer inception_4b/output_inception_4b/output_0_split
I0403 14:13:24.022892  1003 net.cpp:91] Creating Layer inception_4b/output_inception_4b/output_0_split
I0403 14:13:24.022908  1003 net.cpp:425] inception_4b/output_inception_4b/output_0_split <- inception_4b/output
I0403 14:13:24.022928  1003 net.cpp:399] inception_4b/output_inception_4b/output_0_split -> inception_4b/output_inception_4b/output_0_split_0
I0403 14:13:24.022951  1003 net.cpp:399] inception_4b/output_inception_4b/output_0_split -> inception_4b/output_inception_4b/output_0_split_1
I0403 14:13:24.022971  1003 net.cpp:399] inception_4b/output_inception_4b/output_0_split -> inception_4b/output_inception_4b/output_0_split_2
I0403 14:13:24.022992  1003 net.cpp:399] inception_4b/output_inception_4b/output_0_split -> inception_4b/output_inception_4b/output_0_split_3
I0403 14:13:24.023072  1003 net.cpp:141] Setting up inception_4b/output_inception_4b/output_0_split
I0403 14:13:24.023097  1003 net.cpp:148] Top shape: 24 512 14 14 (2408448)
I0403 14:13:24.023116  1003 net.cpp:148] Top shape: 24 512 14 14 (2408448)
I0403 14:13:24.023133  1003 net.cpp:148] Top shape: 24 512 14 14 (2408448)
I0403 14:13:24.023149  1003 net.cpp:148] Top shape: 24 512 14 14 (2408448)
I0403 14:13:24.023162  1003 net.cpp:156] Memory required for data: 1028392224
I0403 14:13:24.023185  1003 layer_factory.hpp:77] Creating layer inception_4c/1x1
I0403 14:13:24.023221  1003 net.cpp:91] Creating Layer inception_4c/1x1
I0403 14:13:24.023239  1003 net.cpp:425] inception_4c/1x1 <- inception_4b/output_inception_4b/output_0_split_0
I0403 14:13:24.023260  1003 net.cpp:399] inception_4c/1x1 -> inception_4c/1x1
I0403 14:13:24.024727  1003 net.cpp:141] Setting up inception_4c/1x1
I0403 14:13:24.024756  1003 net.cpp:148] Top shape: 24 128 14 14 (602112)
I0403 14:13:24.024772  1003 net.cpp:156] Memory required for data: 1030800672
I0403 14:13:24.024791  1003 layer_factory.hpp:77] Creating layer inception_4c/relu_1x1
I0403 14:13:24.024813  1003 net.cpp:91] Creating Layer inception_4c/relu_1x1
I0403 14:13:24.024832  1003 net.cpp:425] inception_4c/relu_1x1 <- inception_4c/1x1
I0403 14:13:24.024852  1003 net.cpp:386] inception_4c/relu_1x1 -> inception_4c/1x1 (in-place)
I0403 14:13:24.025038  1003 net.cpp:141] Setting up inception_4c/relu_1x1
I0403 14:13:24.025064  1003 net.cpp:148] Top shape: 24 128 14 14 (602112)
I0403 14:13:24.025079  1003 net.cpp:156] Memory required for data: 1033209120
I0403 14:13:24.025095  1003 layer_factory.hpp:77] Creating layer inception_4c/3x3_reduce
I0403 14:13:24.025120  1003 net.cpp:91] Creating Layer inception_4c/3x3_reduce
I0403 14:13:24.025140  1003 net.cpp:425] inception_4c/3x3_reduce <- inception_4b/output_inception_4b/output_0_split_1
I0403 14:13:24.025158  1003 net.cpp:399] inception_4c/3x3_reduce -> inception_4c/3x3_reduce
I0403 14:13:24.027148  1003 net.cpp:141] Setting up inception_4c/3x3_reduce
I0403 14:13:24.027184  1003 net.cpp:148] Top shape: 24 128 14 14 (602112)
I0403 14:13:24.027202  1003 net.cpp:156] Memory required for data: 1035617568
I0403 14:13:24.027221  1003 layer_factory.hpp:77] Creating layer inception_4c/relu_3x3_reduce
I0403 14:13:24.027242  1003 net.cpp:91] Creating Layer inception_4c/relu_3x3_reduce
I0403 14:13:24.027259  1003 net.cpp:425] inception_4c/relu_3x3_reduce <- inception_4c/3x3_reduce
I0403 14:13:24.027279  1003 net.cpp:386] inception_4c/relu_3x3_reduce -> inception_4c/3x3_reduce (in-place)
I0403 14:13:24.027597  1003 net.cpp:141] Setting up inception_4c/relu_3x3_reduce
I0403 14:13:24.027637  1003 net.cpp:148] Top shape: 24 128 14 14 (602112)
I0403 14:13:24.027652  1003 net.cpp:156] Memory required for data: 1038026016
I0403 14:13:24.027669  1003 layer_factory.hpp:77] Creating layer inception_4c/3x3
I0403 14:13:24.027698  1003 net.cpp:91] Creating Layer inception_4c/3x3
I0403 14:13:24.027716  1003 net.cpp:425] inception_4c/3x3 <- inception_4c/3x3_reduce
I0403 14:13:24.027736  1003 net.cpp:399] inception_4c/3x3 -> inception_4c/3x3
I0403 14:13:24.031461  1003 net.cpp:141] Setting up inception_4c/3x3
I0403 14:13:24.031508  1003 net.cpp:148] Top shape: 24 256 14 14 (1204224)
I0403 14:13:24.031527  1003 net.cpp:156] Memory required for data: 1042842912
I0403 14:13:24.031560  1003 layer_factory.hpp:77] Creating layer inception_4c/relu_3x3
I0403 14:13:24.031581  1003 net.cpp:91] Creating Layer inception_4c/relu_3x3
I0403 14:13:24.031599  1003 net.cpp:425] inception_4c/relu_3x3 <- inception_4c/3x3
I0403 14:13:24.031617  1003 net.cpp:386] inception_4c/relu_3x3 -> inception_4c/3x3 (in-place)
I0403 14:13:24.031805  1003 net.cpp:141] Setting up inception_4c/relu_3x3
I0403 14:13:24.031834  1003 net.cpp:148] Top shape: 24 256 14 14 (1204224)
I0403 14:13:24.031852  1003 net.cpp:156] Memory required for data: 1047659808
I0403 14:13:24.031868  1003 layer_factory.hpp:77] Creating layer inception_4c/5x5_reduce
I0403 14:13:24.031893  1003 net.cpp:91] Creating Layer inception_4c/5x5_reduce
I0403 14:13:24.031910  1003 net.cpp:425] inception_4c/5x5_reduce <- inception_4b/output_inception_4b/output_0_split_2
I0403 14:13:24.031930  1003 net.cpp:399] inception_4c/5x5_reduce -> inception_4c/5x5_reduce
I0403 14:13:24.033053  1003 net.cpp:141] Setting up inception_4c/5x5_reduce
I0403 14:13:24.033087  1003 net.cpp:148] Top shape: 24 24 14 14 (112896)
I0403 14:13:24.033103  1003 net.cpp:156] Memory required for data: 1048111392
I0403 14:13:24.033123  1003 layer_factory.hpp:77] Creating layer inception_4c/relu_5x5_reduce
I0403 14:13:24.033141  1003 net.cpp:91] Creating Layer inception_4c/relu_5x5_reduce
I0403 14:13:24.033159  1003 net.cpp:425] inception_4c/relu_5x5_reduce <- inception_4c/5x5_reduce
I0403 14:13:24.033185  1003 net.cpp:386] inception_4c/relu_5x5_reduce -> inception_4c/5x5_reduce (in-place)
I0403 14:13:24.033380  1003 net.cpp:141] Setting up inception_4c/relu_5x5_reduce
I0403 14:13:24.033406  1003 net.cpp:148] Top shape: 24 24 14 14 (112896)
I0403 14:13:24.033421  1003 net.cpp:156] Memory required for data: 1048562976
I0403 14:13:24.033437  1003 layer_factory.hpp:77] Creating layer inception_4c/5x5
I0403 14:13:24.033458  1003 net.cpp:91] Creating Layer inception_4c/5x5
I0403 14:13:24.033478  1003 net.cpp:425] inception_4c/5x5 <- inception_4c/5x5_reduce
I0403 14:13:24.033499  1003 net.cpp:399] inception_4c/5x5 -> inception_4c/5x5
I0403 14:13:24.034770  1003 net.cpp:141] Setting up inception_4c/5x5
I0403 14:13:24.034800  1003 net.cpp:148] Top shape: 24 64 14 14 (301056)
I0403 14:13:24.034816  1003 net.cpp:156] Memory required for data: 1049767200
I0403 14:13:24.034837  1003 layer_factory.hpp:77] Creating layer inception_4c/relu_5x5
I0403 14:13:24.034857  1003 net.cpp:91] Creating Layer inception_4c/relu_5x5
I0403 14:13:24.034875  1003 net.cpp:425] inception_4c/relu_5x5 <- inception_4c/5x5
I0403 14:13:24.034893  1003 net.cpp:386] inception_4c/relu_5x5 -> inception_4c/5x5 (in-place)
I0403 14:13:24.035193  1003 net.cpp:141] Setting up inception_4c/relu_5x5
I0403 14:13:24.035221  1003 net.cpp:148] Top shape: 24 64 14 14 (301056)
I0403 14:13:24.035236  1003 net.cpp:156] Memory required for data: 1050971424
I0403 14:13:24.035253  1003 layer_factory.hpp:77] Creating layer inception_4c/pool
I0403 14:13:24.035271  1003 net.cpp:91] Creating Layer inception_4c/pool
I0403 14:13:24.035287  1003 net.cpp:425] inception_4c/pool <- inception_4b/output_inception_4b/output_0_split_3
I0403 14:13:24.035308  1003 net.cpp:399] inception_4c/pool -> inception_4c/pool
I0403 14:13:24.035375  1003 net.cpp:141] Setting up inception_4c/pool
I0403 14:13:24.035401  1003 net.cpp:148] Top shape: 24 512 14 14 (2408448)
I0403 14:13:24.035416  1003 net.cpp:156] Memory required for data: 1060605216
I0403 14:13:24.035431  1003 layer_factory.hpp:77] Creating layer inception_4c/pool_proj
I0403 14:13:24.035454  1003 net.cpp:91] Creating Layer inception_4c/pool_proj
I0403 14:13:24.035473  1003 net.cpp:425] inception_4c/pool_proj <- inception_4c/pool
I0403 14:13:24.035495  1003 net.cpp:399] inception_4c/pool_proj -> inception_4c/pool_proj
I0403 14:13:24.036743  1003 net.cpp:141] Setting up inception_4c/pool_proj
I0403 14:13:24.036775  1003 net.cpp:148] Top shape: 24 64 14 14 (301056)
I0403 14:13:24.036806  1003 net.cpp:156] Memory required for data: 1061809440
I0403 14:13:24.036828  1003 layer_factory.hpp:77] Creating layer inception_4c/relu_pool_proj
I0403 14:13:24.036846  1003 net.cpp:91] Creating Layer inception_4c/relu_pool_proj
I0403 14:13:24.036862  1003 net.cpp:425] inception_4c/relu_pool_proj <- inception_4c/pool_proj
I0403 14:13:24.036880  1003 net.cpp:386] inception_4c/relu_pool_proj -> inception_4c/pool_proj (in-place)
I0403 14:13:24.037075  1003 net.cpp:141] Setting up inception_4c/relu_pool_proj
I0403 14:13:24.037099  1003 net.cpp:148] Top shape: 24 64 14 14 (301056)
I0403 14:13:24.037113  1003 net.cpp:156] Memory required for data: 1063013664
I0403 14:13:24.037129  1003 layer_factory.hpp:77] Creating layer inception_4c/output
I0403 14:13:24.037147  1003 net.cpp:91] Creating Layer inception_4c/output
I0403 14:13:24.037163  1003 net.cpp:425] inception_4c/output <- inception_4c/1x1
I0403 14:13:24.037186  1003 net.cpp:425] inception_4c/output <- inception_4c/3x3
I0403 14:13:24.037205  1003 net.cpp:425] inception_4c/output <- inception_4c/5x5
I0403 14:13:24.037222  1003 net.cpp:425] inception_4c/output <- inception_4c/pool_proj
I0403 14:13:24.037242  1003 net.cpp:399] inception_4c/output -> inception_4c/output
I0403 14:13:24.037291  1003 net.cpp:141] Setting up inception_4c/output
I0403 14:13:24.037317  1003 net.cpp:148] Top shape: 24 512 14 14 (2408448)
I0403 14:13:24.037331  1003 net.cpp:156] Memory required for data: 1072647456
I0403 14:13:24.037346  1003 layer_factory.hpp:77] Creating layer inception_4c/output_inception_4c/output_0_split
I0403 14:13:24.037364  1003 net.cpp:91] Creating Layer inception_4c/output_inception_4c/output_0_split
I0403 14:13:24.037380  1003 net.cpp:425] inception_4c/output_inception_4c/output_0_split <- inception_4c/output
I0403 14:13:24.037400  1003 net.cpp:399] inception_4c/output_inception_4c/output_0_split -> inception_4c/output_inception_4c/output_0_split_0
I0403 14:13:24.037422  1003 net.cpp:399] inception_4c/output_inception_4c/output_0_split -> inception_4c/output_inception_4c/output_0_split_1
I0403 14:13:24.037443  1003 net.cpp:399] inception_4c/output_inception_4c/output_0_split -> inception_4c/output_inception_4c/output_0_split_2
I0403 14:13:24.037464  1003 net.cpp:399] inception_4c/output_inception_4c/output_0_split -> inception_4c/output_inception_4c/output_0_split_3
I0403 14:13:24.037550  1003 net.cpp:141] Setting up inception_4c/output_inception_4c/output_0_split
I0403 14:13:24.037575  1003 net.cpp:148] Top shape: 24 512 14 14 (2408448)
I0403 14:13:24.037591  1003 net.cpp:148] Top shape: 24 512 14 14 (2408448)
I0403 14:13:24.037607  1003 net.cpp:148] Top shape: 24 512 14 14 (2408448)
I0403 14:13:24.037623  1003 net.cpp:148] Top shape: 24 512 14 14 (2408448)
I0403 14:13:24.037637  1003 net.cpp:156] Memory required for data: 1111182624
I0403 14:13:24.037652  1003 layer_factory.hpp:77] Creating layer inception_4d/1x1
I0403 14:13:24.037674  1003 net.cpp:91] Creating Layer inception_4d/1x1
I0403 14:13:24.037693  1003 net.cpp:425] inception_4d/1x1 <- inception_4c/output_inception_4c/output_0_split_0
I0403 14:13:24.037714  1003 net.cpp:399] inception_4d/1x1 -> inception_4d/1x1
I0403 14:13:24.039134  1003 net.cpp:141] Setting up inception_4d/1x1
I0403 14:13:24.039162  1003 net.cpp:148] Top shape: 24 112 14 14 (526848)
I0403 14:13:24.039186  1003 net.cpp:156] Memory required for data: 1113290016
I0403 14:13:24.039206  1003 layer_factory.hpp:77] Creating layer inception_4d/relu_1x1
I0403 14:13:24.039227  1003 net.cpp:91] Creating Layer inception_4d/relu_1x1
I0403 14:13:24.039245  1003 net.cpp:425] inception_4d/relu_1x1 <- inception_4d/1x1
I0403 14:13:24.039264  1003 net.cpp:386] inception_4d/relu_1x1 -> inception_4d/1x1 (in-place)
I0403 14:13:24.039455  1003 net.cpp:141] Setting up inception_4d/relu_1x1
I0403 14:13:24.039482  1003 net.cpp:148] Top shape: 24 112 14 14 (526848)
I0403 14:13:24.039497  1003 net.cpp:156] Memory required for data: 1115397408
I0403 14:13:24.039513  1003 layer_factory.hpp:77] Creating layer inception_4d/3x3_reduce
I0403 14:13:24.039551  1003 net.cpp:91] Creating Layer inception_4d/3x3_reduce
I0403 14:13:24.039569  1003 net.cpp:425] inception_4d/3x3_reduce <- inception_4c/output_inception_4c/output_0_split_1
I0403 14:13:24.039589  1003 net.cpp:399] inception_4d/3x3_reduce -> inception_4d/3x3_reduce
I0403 14:13:24.041141  1003 net.cpp:141] Setting up inception_4d/3x3_reduce
I0403 14:13:24.041170  1003 net.cpp:148] Top shape: 24 144 14 14 (677376)
I0403 14:13:24.041193  1003 net.cpp:156] Memory required for data: 1118106912
I0403 14:13:24.041213  1003 layer_factory.hpp:77] Creating layer inception_4d/relu_3x3_reduce
I0403 14:13:24.041231  1003 net.cpp:91] Creating Layer inception_4d/relu_3x3_reduce
I0403 14:13:24.041247  1003 net.cpp:425] inception_4d/relu_3x3_reduce <- inception_4d/3x3_reduce
I0403 14:13:24.041268  1003 net.cpp:386] inception_4d/relu_3x3_reduce -> inception_4d/3x3_reduce (in-place)
I0403 14:13:24.041568  1003 net.cpp:141] Setting up inception_4d/relu_3x3_reduce
I0403 14:13:24.041595  1003 net.cpp:148] Top shape: 24 144 14 14 (677376)
I0403 14:13:24.041610  1003 net.cpp:156] Memory required for data: 1120816416
I0403 14:13:24.041625  1003 layer_factory.hpp:77] Creating layer inception_4d/3x3
I0403 14:13:24.041656  1003 net.cpp:91] Creating Layer inception_4d/3x3
I0403 14:13:24.041673  1003 net.cpp:425] inception_4d/3x3 <- inception_4d/3x3_reduce
I0403 14:13:24.041697  1003 net.cpp:399] inception_4d/3x3 -> inception_4d/3x3
I0403 14:13:24.046026  1003 net.cpp:141] Setting up inception_4d/3x3
I0403 14:13:24.046057  1003 net.cpp:148] Top shape: 24 288 14 14 (1354752)
I0403 14:13:24.046072  1003 net.cpp:156] Memory required for data: 1126235424
I0403 14:13:24.046092  1003 layer_factory.hpp:77] Creating layer inception_4d/relu_3x3
I0403 14:13:24.046111  1003 net.cpp:91] Creating Layer inception_4d/relu_3x3
I0403 14:13:24.046128  1003 net.cpp:425] inception_4d/relu_3x3 <- inception_4d/3x3
I0403 14:13:24.046146  1003 net.cpp:386] inception_4d/relu_3x3 -> inception_4d/3x3 (in-place)
I0403 14:13:24.046336  1003 net.cpp:141] Setting up inception_4d/relu_3x3
I0403 14:13:24.046362  1003 net.cpp:148] Top shape: 24 288 14 14 (1354752)
I0403 14:13:24.046377  1003 net.cpp:156] Memory required for data: 1131654432
I0403 14:13:24.046392  1003 layer_factory.hpp:77] Creating layer inception_4d/5x5_reduce
I0403 14:13:24.046414  1003 net.cpp:91] Creating Layer inception_4d/5x5_reduce
I0403 14:13:24.046432  1003 net.cpp:425] inception_4d/5x5_reduce <- inception_4c/output_inception_4c/output_0_split_2
I0403 14:13:24.046453  1003 net.cpp:399] inception_4d/5x5_reduce -> inception_4d/5x5_reduce
I0403 14:13:24.047596  1003 net.cpp:141] Setting up inception_4d/5x5_reduce
I0403 14:13:24.047624  1003 net.cpp:148] Top shape: 24 32 14 14 (150528)
I0403 14:13:24.047639  1003 net.cpp:156] Memory required for data: 1132256544
I0403 14:13:24.047658  1003 layer_factory.hpp:77] Creating layer inception_4d/relu_5x5_reduce
I0403 14:13:24.047679  1003 net.cpp:91] Creating Layer inception_4d/relu_5x5_reduce
I0403 14:13:24.047695  1003 net.cpp:425] inception_4d/relu_5x5_reduce <- inception_4d/5x5_reduce
I0403 14:13:24.047713  1003 net.cpp:386] inception_4d/relu_5x5_reduce -> inception_4d/5x5_reduce (in-place)
I0403 14:13:24.047899  1003 net.cpp:141] Setting up inception_4d/relu_5x5_reduce
I0403 14:13:24.047926  1003 net.cpp:148] Top shape: 24 32 14 14 (150528)
I0403 14:13:24.047942  1003 net.cpp:156] Memory required for data: 1132858656
I0403 14:13:24.047957  1003 layer_factory.hpp:77] Creating layer inception_4d/5x5
I0403 14:13:24.047979  1003 net.cpp:91] Creating Layer inception_4d/5x5
I0403 14:13:24.047998  1003 net.cpp:425] inception_4d/5x5 <- inception_4d/5x5_reduce
I0403 14:13:24.048017  1003 net.cpp:399] inception_4d/5x5 -> inception_4d/5x5
I0403 14:13:24.049506  1003 net.cpp:141] Setting up inception_4d/5x5
I0403 14:13:24.049536  1003 net.cpp:148] Top shape: 24 64 14 14 (301056)
I0403 14:13:24.049553  1003 net.cpp:156] Memory required for data: 1134062880
I0403 14:13:24.049572  1003 layer_factory.hpp:77] Creating layer inception_4d/relu_5x5
I0403 14:13:24.049607  1003 net.cpp:91] Creating Layer inception_4d/relu_5x5
I0403 14:13:24.049623  1003 net.cpp:425] inception_4d/relu_5x5 <- inception_4d/5x5
I0403 14:13:24.049643  1003 net.cpp:386] inception_4d/relu_5x5 -> inception_4d/5x5 (in-place)
I0403 14:13:24.049942  1003 net.cpp:141] Setting up inception_4d/relu_5x5
I0403 14:13:24.049969  1003 net.cpp:148] Top shape: 24 64 14 14 (301056)
I0403 14:13:24.049985  1003 net.cpp:156] Memory required for data: 1135267104
I0403 14:13:24.050000  1003 layer_factory.hpp:77] Creating layer inception_4d/pool
I0403 14:13:24.050019  1003 net.cpp:91] Creating Layer inception_4d/pool
I0403 14:13:24.050034  1003 net.cpp:425] inception_4d/pool <- inception_4c/output_inception_4c/output_0_split_3
I0403 14:13:24.050055  1003 net.cpp:399] inception_4d/pool -> inception_4d/pool
I0403 14:13:24.050122  1003 net.cpp:141] Setting up inception_4d/pool
I0403 14:13:24.050148  1003 net.cpp:148] Top shape: 24 512 14 14 (2408448)
I0403 14:13:24.050163  1003 net.cpp:156] Memory required for data: 1144900896
I0403 14:13:24.050185  1003 layer_factory.hpp:77] Creating layer inception_4d/pool_proj
I0403 14:13:24.050209  1003 net.cpp:91] Creating Layer inception_4d/pool_proj
I0403 14:13:24.050228  1003 net.cpp:425] inception_4d/pool_proj <- inception_4d/pool
I0403 14:13:24.050247  1003 net.cpp:399] inception_4d/pool_proj -> inception_4d/pool_proj
I0403 14:13:24.052014  1003 net.cpp:141] Setting up inception_4d/pool_proj
I0403 14:13:24.052043  1003 net.cpp:148] Top shape: 24 64 14 14 (301056)
I0403 14:13:24.052059  1003 net.cpp:156] Memory required for data: 1146105120
I0403 14:13:24.052078  1003 layer_factory.hpp:77] Creating layer inception_4d/relu_pool_proj
I0403 14:13:24.052098  1003 net.cpp:91] Creating Layer inception_4d/relu_pool_proj
I0403 14:13:24.052115  1003 net.cpp:425] inception_4d/relu_pool_proj <- inception_4d/pool_proj
I0403 14:13:24.052134  1003 net.cpp:386] inception_4d/relu_pool_proj -> inception_4d/pool_proj (in-place)
I0403 14:13:24.052333  1003 net.cpp:141] Setting up inception_4d/relu_pool_proj
I0403 14:13:24.052361  1003 net.cpp:148] Top shape: 24 64 14 14 (301056)
I0403 14:13:24.052376  1003 net.cpp:156] Memory required for data: 1147309344
I0403 14:13:24.052389  1003 layer_factory.hpp:77] Creating layer inception_4d/output
I0403 14:13:24.052407  1003 net.cpp:91] Creating Layer inception_4d/output
I0403 14:13:24.052423  1003 net.cpp:425] inception_4d/output <- inception_4d/1x1
I0403 14:13:24.052439  1003 net.cpp:425] inception_4d/output <- inception_4d/3x3
I0403 14:13:24.052455  1003 net.cpp:425] inception_4d/output <- inception_4d/5x5
I0403 14:13:24.052470  1003 net.cpp:425] inception_4d/output <- inception_4d/pool_proj
I0403 14:13:24.052487  1003 net.cpp:399] inception_4d/output -> inception_4d/output
I0403 14:13:24.052537  1003 net.cpp:141] Setting up inception_4d/output
I0403 14:13:24.052561  1003 net.cpp:148] Top shape: 24 528 14 14 (2483712)
I0403 14:13:24.052574  1003 net.cpp:156] Memory required for data: 1157244192
I0403 14:13:24.052590  1003 layer_factory.hpp:77] Creating layer inception_4d/output_inception_4d/output_0_split
I0403 14:13:24.052609  1003 net.cpp:91] Creating Layer inception_4d/output_inception_4d/output_0_split
I0403 14:13:24.052625  1003 net.cpp:425] inception_4d/output_inception_4d/output_0_split <- inception_4d/output
I0403 14:13:24.052644  1003 net.cpp:399] inception_4d/output_inception_4d/output_0_split -> inception_4d/output_inception_4d/output_0_split_0
I0403 14:13:24.052664  1003 net.cpp:399] inception_4d/output_inception_4d/output_0_split -> inception_4d/output_inception_4d/output_0_split_1
I0403 14:13:24.052687  1003 net.cpp:399] inception_4d/output_inception_4d/output_0_split -> inception_4d/output_inception_4d/output_0_split_2
I0403 14:13:24.052709  1003 net.cpp:399] inception_4d/output_inception_4d/output_0_split -> inception_4d/output_inception_4d/output_0_split_3
I0403 14:13:24.052729  1003 net.cpp:399] inception_4d/output_inception_4d/output_0_split -> inception_4d/output_inception_4d/output_0_split_4
I0403 14:13:24.052831  1003 net.cpp:141] Setting up inception_4d/output_inception_4d/output_0_split
I0403 14:13:24.052865  1003 net.cpp:148] Top shape: 24 528 14 14 (2483712)
I0403 14:13:24.052882  1003 net.cpp:148] Top shape: 24 528 14 14 (2483712)
I0403 14:13:24.052897  1003 net.cpp:148] Top shape: 24 528 14 14 (2483712)
I0403 14:13:24.052912  1003 net.cpp:148] Top shape: 24 528 14 14 (2483712)
I0403 14:13:24.052928  1003 net.cpp:148] Top shape: 24 528 14 14 (2483712)
I0403 14:13:24.052942  1003 net.cpp:156] Memory required for data: 1206918432
I0403 14:13:24.052956  1003 layer_factory.hpp:77] Creating layer loss2/ave_pool
I0403 14:13:24.052976  1003 net.cpp:91] Creating Layer loss2/ave_pool
I0403 14:13:24.052992  1003 net.cpp:425] loss2/ave_pool <- inception_4d/output_inception_4d/output_0_split_0
I0403 14:13:24.053012  1003 net.cpp:399] loss2/ave_pool -> loss2/ave_pool
I0403 14:13:24.053329  1003 net.cpp:141] Setting up loss2/ave_pool
I0403 14:13:24.053355  1003 net.cpp:148] Top shape: 24 528 4 4 (202752)
I0403 14:13:24.053371  1003 net.cpp:156] Memory required for data: 1207729440
I0403 14:13:24.053386  1003 layer_factory.hpp:77] Creating layer loss2/conv
I0403 14:13:24.053411  1003 net.cpp:91] Creating Layer loss2/conv
I0403 14:13:24.053428  1003 net.cpp:425] loss2/conv <- loss2/ave_pool
I0403 14:13:24.053448  1003 net.cpp:399] loss2/conv -> loss2/conv
I0403 14:13:24.055356  1003 net.cpp:141] Setting up loss2/conv
I0403 14:13:24.055384  1003 net.cpp:148] Top shape: 24 128 4 4 (49152)
I0403 14:13:24.055400  1003 net.cpp:156] Memory required for data: 1207926048
I0403 14:13:24.055419  1003 layer_factory.hpp:77] Creating layer loss2/relu_conv
I0403 14:13:24.055436  1003 net.cpp:91] Creating Layer loss2/relu_conv
I0403 14:13:24.055452  1003 net.cpp:425] loss2/relu_conv <- loss2/conv
I0403 14:13:24.055472  1003 net.cpp:386] loss2/relu_conv -> loss2/conv (in-place)
I0403 14:13:24.055757  1003 net.cpp:141] Setting up loss2/relu_conv
I0403 14:13:24.055783  1003 net.cpp:148] Top shape: 24 128 4 4 (49152)
I0403 14:13:24.055797  1003 net.cpp:156] Memory required for data: 1208122656
I0403 14:13:24.055812  1003 layer_factory.hpp:77] Creating layer loss2/fc
I0403 14:13:24.055831  1003 net.cpp:91] Creating Layer loss2/fc
I0403 14:13:24.055848  1003 net.cpp:425] loss2/fc <- loss2/conv
I0403 14:13:24.055869  1003 net.cpp:399] loss2/fc -> loss2/fc
I0403 14:13:24.073613  1003 net.cpp:141] Setting up loss2/fc
I0403 14:13:24.073673  1003 net.cpp:148] Top shape: 24 1024 (24576)
I0403 14:13:24.073690  1003 net.cpp:156] Memory required for data: 1208220960
I0403 14:13:24.073709  1003 layer_factory.hpp:77] Creating layer loss2/relu_fc
I0403 14:13:24.073729  1003 net.cpp:91] Creating Layer loss2/relu_fc
I0403 14:13:24.073746  1003 net.cpp:425] loss2/relu_fc <- loss2/fc
I0403 14:13:24.073765  1003 net.cpp:386] loss2/relu_fc -> loss2/fc (in-place)
I0403 14:13:24.074111  1003 net.cpp:141] Setting up loss2/relu_fc
I0403 14:13:24.074141  1003 net.cpp:148] Top shape: 24 1024 (24576)
I0403 14:13:24.074156  1003 net.cpp:156] Memory required for data: 1208319264
I0403 14:13:24.074172  1003 layer_factory.hpp:77] Creating layer loss2/drop_fc
I0403 14:13:24.074199  1003 net.cpp:91] Creating Layer loss2/drop_fc
I0403 14:13:24.074216  1003 net.cpp:425] loss2/drop_fc <- loss2/fc
I0403 14:13:24.074234  1003 net.cpp:386] loss2/drop_fc -> loss2/fc (in-place)
I0403 14:13:24.074286  1003 net.cpp:141] Setting up loss2/drop_fc
I0403 14:13:24.074309  1003 net.cpp:148] Top shape: 24 1024 (24576)
I0403 14:13:24.074323  1003 net.cpp:156] Memory required for data: 1208417568
I0403 14:13:24.074337  1003 layer_factory.hpp:77] Creating layer loss2/classifier_plantvillage
I0403 14:13:24.074358  1003 net.cpp:91] Creating Layer loss2/classifier_plantvillage
I0403 14:13:24.074375  1003 net.cpp:425] loss2/classifier_plantvillage <- loss2/fc
I0403 14:13:24.074394  1003 net.cpp:399] loss2/classifier_plantvillage -> loss2/classifier_plantvillage
I0403 14:13:24.074806  1003 net.cpp:141] Setting up loss2/classifier_plantvillage
I0403 14:13:24.074831  1003 net.cpp:148] Top shape: 24 38 (912)
I0403 14:13:24.074870  1003 net.cpp:156] Memory required for data: 1208421216
I0403 14:13:24.074890  1003 layer_factory.hpp:77] Creating layer loss2/classifier_plantvillage_loss2/classifier_plantvillage_0_split
I0403 14:13:24.074908  1003 net.cpp:91] Creating Layer loss2/classifier_plantvillage_loss2/classifier_plantvillage_0_split
I0403 14:13:24.074924  1003 net.cpp:425] loss2/classifier_plantvillage_loss2/classifier_plantvillage_0_split <- loss2/classifier_plantvillage
I0403 14:13:24.074944  1003 net.cpp:399] loss2/classifier_plantvillage_loss2/classifier_plantvillage_0_split -> loss2/classifier_plantvillage_loss2/classifier_plantvillage_0_split_0
I0403 14:13:24.074965  1003 net.cpp:399] loss2/classifier_plantvillage_loss2/classifier_plantvillage_0_split -> loss2/classifier_plantvillage_loss2/classifier_plantvillage_0_split_1
I0403 14:13:24.074987  1003 net.cpp:399] loss2/classifier_plantvillage_loss2/classifier_plantvillage_0_split -> loss2/classifier_plantvillage_loss2/classifier_plantvillage_0_split_2
I0403 14:13:24.075065  1003 net.cpp:141] Setting up loss2/classifier_plantvillage_loss2/classifier_plantvillage_0_split
I0403 14:13:24.075090  1003 net.cpp:148] Top shape: 24 38 (912)
I0403 14:13:24.075106  1003 net.cpp:148] Top shape: 24 38 (912)
I0403 14:13:24.075121  1003 net.cpp:148] Top shape: 24 38 (912)
I0403 14:13:24.075135  1003 net.cpp:156] Memory required for data: 1208432160
I0403 14:13:24.075150  1003 layer_factory.hpp:77] Creating layer inception_4e/1x1
I0403 14:13:24.075173  1003 net.cpp:91] Creating Layer inception_4e/1x1
I0403 14:13:24.075212  1003 net.cpp:425] inception_4e/1x1 <- inception_4d/output_inception_4d/output_0_split_1
I0403 14:13:24.075233  1003 net.cpp:399] inception_4e/1x1 -> inception_4e/1x1
I0403 14:13:24.077157  1003 net.cpp:141] Setting up inception_4e/1x1
I0403 14:13:24.077193  1003 net.cpp:148] Top shape: 24 256 14 14 (1204224)
I0403 14:13:24.077209  1003 net.cpp:156] Memory required for data: 1213249056
I0403 14:13:24.077229  1003 layer_factory.hpp:77] Creating layer inception_4e/relu_1x1
I0403 14:13:24.077247  1003 net.cpp:91] Creating Layer inception_4e/relu_1x1
I0403 14:13:24.077267  1003 net.cpp:425] inception_4e/relu_1x1 <- inception_4e/1x1
I0403 14:13:24.077286  1003 net.cpp:386] inception_4e/relu_1x1 -> inception_4e/1x1 (in-place)
I0403 14:13:24.077589  1003 net.cpp:141] Setting up inception_4e/relu_1x1
I0403 14:13:24.077615  1003 net.cpp:148] Top shape: 24 256 14 14 (1204224)
I0403 14:13:24.077630  1003 net.cpp:156] Memory required for data: 1218065952
I0403 14:13:24.077646  1003 layer_factory.hpp:77] Creating layer inception_4e/3x3_reduce
I0403 14:13:24.077668  1003 net.cpp:91] Creating Layer inception_4e/3x3_reduce
I0403 14:13:24.077687  1003 net.cpp:425] inception_4e/3x3_reduce <- inception_4d/output_inception_4d/output_0_split_2
I0403 14:13:24.077708  1003 net.cpp:399] inception_4e/3x3_reduce -> inception_4e/3x3_reduce
I0403 14:13:24.079906  1003 net.cpp:141] Setting up inception_4e/3x3_reduce
I0403 14:13:24.079939  1003 net.cpp:148] Top shape: 24 160 14 14 (752640)
I0403 14:13:24.079955  1003 net.cpp:156] Memory required for data: 1221076512
I0403 14:13:24.079974  1003 layer_factory.hpp:77] Creating layer inception_4e/relu_3x3_reduce
I0403 14:13:24.079993  1003 net.cpp:91] Creating Layer inception_4e/relu_3x3_reduce
I0403 14:13:24.080010  1003 net.cpp:425] inception_4e/relu_3x3_reduce <- inception_4e/3x3_reduce
I0403 14:13:24.080030  1003 net.cpp:386] inception_4e/relu_3x3_reduce -> inception_4e/3x3_reduce (in-place)
I0403 14:13:24.080232  1003 net.cpp:141] Setting up inception_4e/relu_3x3_reduce
I0403 14:13:24.080258  1003 net.cpp:148] Top shape: 24 160 14 14 (752640)
I0403 14:13:24.080273  1003 net.cpp:156] Memory required for data: 1224087072
I0403 14:13:24.080288  1003 layer_factory.hpp:77] Creating layer inception_4e/3x3
I0403 14:13:24.080312  1003 net.cpp:91] Creating Layer inception_4e/3x3
I0403 14:13:24.080329  1003 net.cpp:425] inception_4e/3x3 <- inception_4e/3x3_reduce
I0403 14:13:24.080351  1003 net.cpp:399] inception_4e/3x3 -> inception_4e/3x3
I0403 14:13:24.085528  1003 net.cpp:141] Setting up inception_4e/3x3
I0403 14:13:24.085572  1003 net.cpp:148] Top shape: 24 320 14 14 (1505280)
I0403 14:13:24.085589  1003 net.cpp:156] Memory required for data: 1230108192
I0403 14:13:24.085608  1003 layer_factory.hpp:77] Creating layer inception_4e/relu_3x3
I0403 14:13:24.085629  1003 net.cpp:91] Creating Layer inception_4e/relu_3x3
I0403 14:13:24.085647  1003 net.cpp:425] inception_4e/relu_3x3 <- inception_4e/3x3
I0403 14:13:24.085665  1003 net.cpp:386] inception_4e/relu_3x3 -> inception_4e/3x3 (in-place)
I0403 14:13:24.085978  1003 net.cpp:141] Setting up inception_4e/relu_3x3
I0403 14:13:24.086004  1003 net.cpp:148] Top shape: 24 320 14 14 (1505280)
I0403 14:13:24.086019  1003 net.cpp:156] Memory required for data: 1236129312
I0403 14:13:24.086035  1003 layer_factory.hpp:77] Creating layer inception_4e/5x5_reduce
I0403 14:13:24.086058  1003 net.cpp:91] Creating Layer inception_4e/5x5_reduce
I0403 14:13:24.086077  1003 net.cpp:425] inception_4e/5x5_reduce <- inception_4d/output_inception_4d/output_0_split_3
I0403 14:13:24.086099  1003 net.cpp:399] inception_4e/5x5_reduce -> inception_4e/5x5_reduce
I0403 14:13:24.087215  1003 net.cpp:141] Setting up inception_4e/5x5_reduce
I0403 14:13:24.087246  1003 net.cpp:148] Top shape: 24 32 14 14 (150528)
I0403 14:13:24.087263  1003 net.cpp:156] Memory required for data: 1236731424
I0403 14:13:24.087282  1003 layer_factory.hpp:77] Creating layer inception_4e/relu_5x5_reduce
I0403 14:13:24.087301  1003 net.cpp:91] Creating Layer inception_4e/relu_5x5_reduce
I0403 14:13:24.087318  1003 net.cpp:425] inception_4e/relu_5x5_reduce <- inception_4e/5x5_reduce
I0403 14:13:24.087338  1003 net.cpp:386] inception_4e/relu_5x5_reduce -> inception_4e/5x5_reduce (in-place)
I0403 14:13:24.087648  1003 net.cpp:141] Setting up inception_4e/relu_5x5_reduce
I0403 14:13:24.087677  1003 net.cpp:148] Top shape: 24 32 14 14 (150528)
I0403 14:13:24.087693  1003 net.cpp:156] Memory required for data: 1237333536
I0403 14:13:24.087709  1003 layer_factory.hpp:77] Creating layer inception_4e/5x5
I0403 14:13:24.087750  1003 net.cpp:91] Creating Layer inception_4e/5x5
I0403 14:13:24.087770  1003 net.cpp:425] inception_4e/5x5 <- inception_4e/5x5_reduce
I0403 14:13:24.087790  1003 net.cpp:399] inception_4e/5x5 -> inception_4e/5x5
I0403 14:13:24.089716  1003 net.cpp:141] Setting up inception_4e/5x5
I0403 14:13:24.089745  1003 net.cpp:148] Top shape: 24 128 14 14 (602112)
I0403 14:13:24.089761  1003 net.cpp:156] Memory required for data: 1239741984
I0403 14:13:24.089781  1003 layer_factory.hpp:77] Creating layer inception_4e/relu_5x5
I0403 14:13:24.089802  1003 net.cpp:91] Creating Layer inception_4e/relu_5x5
I0403 14:13:24.089819  1003 net.cpp:425] inception_4e/relu_5x5 <- inception_4e/5x5
I0403 14:13:24.089838  1003 net.cpp:386] inception_4e/relu_5x5 -> inception_4e/5x5 (in-place)
I0403 14:13:24.090044  1003 net.cpp:141] Setting up inception_4e/relu_5x5
I0403 14:13:24.090068  1003 net.cpp:148] Top shape: 24 128 14 14 (602112)
I0403 14:13:24.090083  1003 net.cpp:156] Memory required for data: 1242150432
I0403 14:13:24.090098  1003 layer_factory.hpp:77] Creating layer inception_4e/pool
I0403 14:13:24.090117  1003 net.cpp:91] Creating Layer inception_4e/pool
I0403 14:13:24.090133  1003 net.cpp:425] inception_4e/pool <- inception_4d/output_inception_4d/output_0_split_4
I0403 14:13:24.090154  1003 net.cpp:399] inception_4e/pool -> inception_4e/pool
I0403 14:13:24.090235  1003 net.cpp:141] Setting up inception_4e/pool
I0403 14:13:24.090260  1003 net.cpp:148] Top shape: 24 528 14 14 (2483712)
I0403 14:13:24.090276  1003 net.cpp:156] Memory required for data: 1252085280
I0403 14:13:24.090291  1003 layer_factory.hpp:77] Creating layer inception_4e/pool_proj
I0403 14:13:24.090314  1003 net.cpp:91] Creating Layer inception_4e/pool_proj
I0403 14:13:24.090332  1003 net.cpp:425] inception_4e/pool_proj <- inception_4e/pool
I0403 14:13:24.090353  1003 net.cpp:399] inception_4e/pool_proj -> inception_4e/pool_proj
I0403 14:13:24.091891  1003 net.cpp:141] Setting up inception_4e/pool_proj
I0403 14:13:24.091930  1003 net.cpp:148] Top shape: 24 128 14 14 (602112)
I0403 14:13:24.091946  1003 net.cpp:156] Memory required for data: 1254493728
I0403 14:13:24.091965  1003 layer_factory.hpp:77] Creating layer inception_4e/relu_pool_proj
I0403 14:13:24.091985  1003 net.cpp:91] Creating Layer inception_4e/relu_pool_proj
I0403 14:13:24.092003  1003 net.cpp:425] inception_4e/relu_pool_proj <- inception_4e/pool_proj
I0403 14:13:24.092021  1003 net.cpp:386] inception_4e/relu_pool_proj -> inception_4e/pool_proj (in-place)
I0403 14:13:24.092335  1003 net.cpp:141] Setting up inception_4e/relu_pool_proj
I0403 14:13:24.092362  1003 net.cpp:148] Top shape: 24 128 14 14 (602112)
I0403 14:13:24.092378  1003 net.cpp:156] Memory required for data: 1256902176
I0403 14:13:24.092393  1003 layer_factory.hpp:77] Creating layer inception_4e/output
I0403 14:13:24.092414  1003 net.cpp:91] Creating Layer inception_4e/output
I0403 14:13:24.092432  1003 net.cpp:425] inception_4e/output <- inception_4e/1x1
I0403 14:13:24.092448  1003 net.cpp:425] inception_4e/output <- inception_4e/3x3
I0403 14:13:24.092465  1003 net.cpp:425] inception_4e/output <- inception_4e/5x5
I0403 14:13:24.092481  1003 net.cpp:425] inception_4e/output <- inception_4e/pool_proj
I0403 14:13:24.092499  1003 net.cpp:399] inception_4e/output -> inception_4e/output
I0403 14:13:24.092552  1003 net.cpp:141] Setting up inception_4e/output
I0403 14:13:24.092576  1003 net.cpp:148] Top shape: 24 832 14 14 (3913728)
I0403 14:13:24.092592  1003 net.cpp:156] Memory required for data: 1272557088
I0403 14:13:24.092605  1003 layer_factory.hpp:77] Creating layer pool4/3x3_s2
I0403 14:13:24.092623  1003 net.cpp:91] Creating Layer pool4/3x3_s2
I0403 14:13:24.092640  1003 net.cpp:425] pool4/3x3_s2 <- inception_4e/output
I0403 14:13:24.092661  1003 net.cpp:399] pool4/3x3_s2 -> pool4/3x3_s2
I0403 14:13:24.092730  1003 net.cpp:141] Setting up pool4/3x3_s2
I0403 14:13:24.092756  1003 net.cpp:148] Top shape: 24 832 7 7 (978432)
I0403 14:13:24.092770  1003 net.cpp:156] Memory required for data: 1276470816
I0403 14:13:24.092784  1003 layer_factory.hpp:77] Creating layer pool4/3x3_s2_pool4/3x3_s2_0_split
I0403 14:13:24.092806  1003 net.cpp:91] Creating Layer pool4/3x3_s2_pool4/3x3_s2_0_split
I0403 14:13:24.092823  1003 net.cpp:425] pool4/3x3_s2_pool4/3x3_s2_0_split <- pool4/3x3_s2
I0403 14:13:24.092844  1003 net.cpp:399] pool4/3x3_s2_pool4/3x3_s2_0_split -> pool4/3x3_s2_pool4/3x3_s2_0_split_0
I0403 14:13:24.092865  1003 net.cpp:399] pool4/3x3_s2_pool4/3x3_s2_0_split -> pool4/3x3_s2_pool4/3x3_s2_0_split_1
I0403 14:13:24.092886  1003 net.cpp:399] pool4/3x3_s2_pool4/3x3_s2_0_split -> pool4/3x3_s2_pool4/3x3_s2_0_split_2
I0403 14:13:24.092907  1003 net.cpp:399] pool4/3x3_s2_pool4/3x3_s2_0_split -> pool4/3x3_s2_pool4/3x3_s2_0_split_3
I0403 14:13:24.092999  1003 net.cpp:141] Setting up pool4/3x3_s2_pool4/3x3_s2_0_split
I0403 14:13:24.093027  1003 net.cpp:148] Top shape: 24 832 7 7 (978432)
I0403 14:13:24.093044  1003 net.cpp:148] Top shape: 24 832 7 7 (978432)
I0403 14:13:24.093061  1003 net.cpp:148] Top shape: 24 832 7 7 (978432)
I0403 14:13:24.093077  1003 net.cpp:148] Top shape: 24 832 7 7 (978432)
I0403 14:13:24.093091  1003 net.cpp:156] Memory required for data: 1292125728
I0403 14:13:24.093106  1003 layer_factory.hpp:77] Creating layer inception_5a/1x1
I0403 14:13:24.093128  1003 net.cpp:91] Creating Layer inception_5a/1x1
I0403 14:13:24.093147  1003 net.cpp:425] inception_5a/1x1 <- pool4/3x3_s2_pool4/3x3_s2_0_split_0
I0403 14:13:24.093168  1003 net.cpp:399] inception_5a/1x1 -> inception_5a/1x1
I0403 14:13:24.096084  1003 net.cpp:141] Setting up inception_5a/1x1
I0403 14:13:24.096115  1003 net.cpp:148] Top shape: 24 256 7 7 (301056)
I0403 14:13:24.096132  1003 net.cpp:156] Memory required for data: 1293329952
I0403 14:13:24.096150  1003 layer_factory.hpp:77] Creating layer inception_5a/relu_1x1
I0403 14:13:24.096168  1003 net.cpp:91] Creating Layer inception_5a/relu_1x1
I0403 14:13:24.096191  1003 net.cpp:425] inception_5a/relu_1x1 <- inception_5a/1x1
I0403 14:13:24.096212  1003 net.cpp:386] inception_5a/relu_1x1 -> inception_5a/1x1 (in-place)
I0403 14:13:24.096523  1003 net.cpp:141] Setting up inception_5a/relu_1x1
I0403 14:13:24.096550  1003 net.cpp:148] Top shape: 24 256 7 7 (301056)
I0403 14:13:24.096566  1003 net.cpp:156] Memory required for data: 1294534176
I0403 14:13:24.096581  1003 layer_factory.hpp:77] Creating layer inception_5a/3x3_reduce
I0403 14:13:24.096603  1003 net.cpp:91] Creating Layer inception_5a/3x3_reduce
I0403 14:13:24.096621  1003 net.cpp:425] inception_5a/3x3_reduce <- pool4/3x3_s2_pool4/3x3_s2_0_split_1
I0403 14:13:24.096642  1003 net.cpp:399] inception_5a/3x3_reduce -> inception_5a/3x3_reduce
I0403 14:13:24.099153  1003 net.cpp:141] Setting up inception_5a/3x3_reduce
I0403 14:13:24.099190  1003 net.cpp:148] Top shape: 24 160 7 7 (188160)
I0403 14:13:24.099208  1003 net.cpp:156] Memory required for data: 1295286816
I0403 14:13:24.099227  1003 layer_factory.hpp:77] Creating layer inception_5a/relu_3x3_reduce
I0403 14:13:24.099248  1003 net.cpp:91] Creating Layer inception_5a/relu_3x3_reduce
I0403 14:13:24.099267  1003 net.cpp:425] inception_5a/relu_3x3_reduce <- inception_5a/3x3_reduce
I0403 14:13:24.099284  1003 net.cpp:386] inception_5a/relu_3x3_reduce -> inception_5a/3x3_reduce (in-place)
I0403 14:13:24.099477  1003 net.cpp:141] Setting up inception_5a/relu_3x3_reduce
I0403 14:13:24.099504  1003 net.cpp:148] Top shape: 24 160 7 7 (188160)
I0403 14:13:24.099520  1003 net.cpp:156] Memory required for data: 1296039456
I0403 14:13:24.099535  1003 layer_factory.hpp:77] Creating layer inception_5a/3x3
I0403 14:13:24.099560  1003 net.cpp:91] Creating Layer inception_5a/3x3
I0403 14:13:24.099578  1003 net.cpp:425] inception_5a/3x3 <- inception_5a/3x3_reduce
I0403 14:13:24.099598  1003 net.cpp:399] inception_5a/3x3 -> inception_5a/3x3
I0403 14:13:24.104802  1003 net.cpp:141] Setting up inception_5a/3x3
I0403 14:13:24.104836  1003 net.cpp:148] Top shape: 24 320 7 7 (376320)
I0403 14:13:24.104852  1003 net.cpp:156] Memory required for data: 1297544736
I0403 14:13:24.104871  1003 layer_factory.hpp:77] Creating layer inception_5a/relu_3x3
I0403 14:13:24.104890  1003 net.cpp:91] Creating Layer inception_5a/relu_3x3
I0403 14:13:24.104907  1003 net.cpp:425] inception_5a/relu_3x3 <- inception_5a/3x3
I0403 14:13:24.104928  1003 net.cpp:386] inception_5a/relu_3x3 -> inception_5a/3x3 (in-place)
I0403 14:13:24.105242  1003 net.cpp:141] Setting up inception_5a/relu_3x3
I0403 14:13:24.105271  1003 net.cpp:148] Top shape: 24 320 7 7 (376320)
I0403 14:13:24.105288  1003 net.cpp:156] Memory required for data: 1299050016
I0403 14:13:24.105303  1003 layer_factory.hpp:77] Creating layer inception_5a/5x5_reduce
I0403 14:13:24.105327  1003 net.cpp:91] Creating Layer inception_5a/5x5_reduce
I0403 14:13:24.105346  1003 net.cpp:425] inception_5a/5x5_reduce <- pool4/3x3_s2_pool4/3x3_s2_0_split_2
I0403 14:13:24.105366  1003 net.cpp:399] inception_5a/5x5_reduce -> inception_5a/5x5_reduce
I0403 14:13:24.106569  1003 net.cpp:141] Setting up inception_5a/5x5_reduce
I0403 14:13:24.106600  1003 net.cpp:148] Top shape: 24 32 7 7 (37632)
I0403 14:13:24.106616  1003 net.cpp:156] Memory required for data: 1299200544
I0403 14:13:24.106636  1003 layer_factory.hpp:77] Creating layer inception_5a/relu_5x5_reduce
I0403 14:13:24.106654  1003 net.cpp:91] Creating Layer inception_5a/relu_5x5_reduce
I0403 14:13:24.106672  1003 net.cpp:425] inception_5a/relu_5x5_reduce <- inception_5a/5x5_reduce
I0403 14:13:24.106691  1003 net.cpp:386] inception_5a/relu_5x5_reduce -> inception_5a/5x5_reduce (in-place)
I0403 14:13:24.106999  1003 net.cpp:141] Setting up inception_5a/relu_5x5_reduce
I0403 14:13:24.107026  1003 net.cpp:148] Top shape: 24 32 7 7 (37632)
I0403 14:13:24.107043  1003 net.cpp:156] Memory required for data: 1299351072
I0403 14:13:24.107059  1003 layer_factory.hpp:77] Creating layer inception_5a/5x5
I0403 14:13:24.107081  1003 net.cpp:91] Creating Layer inception_5a/5x5
I0403 14:13:24.107100  1003 net.cpp:425] inception_5a/5x5 <- inception_5a/5x5_reduce
I0403 14:13:24.107122  1003 net.cpp:399] inception_5a/5x5 -> inception_5a/5x5
I0403 14:13:24.108901  1003 net.cpp:141] Setting up inception_5a/5x5
I0403 14:13:24.108948  1003 net.cpp:148] Top shape: 24 128 7 7 (150528)
I0403 14:13:24.108965  1003 net.cpp:156] Memory required for data: 1299953184
I0403 14:13:24.108984  1003 layer_factory.hpp:77] Creating layer inception_5a/relu_5x5
I0403 14:13:24.109004  1003 net.cpp:91] Creating Layer inception_5a/relu_5x5
I0403 14:13:24.109020  1003 net.cpp:425] inception_5a/relu_5x5 <- inception_5a/5x5
I0403 14:13:24.109041  1003 net.cpp:386] inception_5a/relu_5x5 -> inception_5a/5x5 (in-place)
I0403 14:13:24.109244  1003 net.cpp:141] Setting up inception_5a/relu_5x5
I0403 14:13:24.109269  1003 net.cpp:148] Top shape: 24 128 7 7 (150528)
I0403 14:13:24.109284  1003 net.cpp:156] Memory required for data: 1300555296
I0403 14:13:24.109299  1003 layer_factory.hpp:77] Creating layer inception_5a/pool
I0403 14:13:24.109318  1003 net.cpp:91] Creating Layer inception_5a/pool
I0403 14:13:24.109334  1003 net.cpp:425] inception_5a/pool <- pool4/3x3_s2_pool4/3x3_s2_0_split_3
I0403 14:13:24.109355  1003 net.cpp:399] inception_5a/pool -> inception_5a/pool
I0403 14:13:24.109429  1003 net.cpp:141] Setting up inception_5a/pool
I0403 14:13:24.109453  1003 net.cpp:148] Top shape: 24 832 7 7 (978432)
I0403 14:13:24.109468  1003 net.cpp:156] Memory required for data: 1304469024
I0403 14:13:24.109483  1003 layer_factory.hpp:77] Creating layer inception_5a/pool_proj
I0403 14:13:24.109508  1003 net.cpp:91] Creating Layer inception_5a/pool_proj
I0403 14:13:24.109525  1003 net.cpp:425] inception_5a/pool_proj <- inception_5a/pool
I0403 14:13:24.109544  1003 net.cpp:399] inception_5a/pool_proj -> inception_5a/pool_proj
I0403 14:13:24.111901  1003 net.cpp:141] Setting up inception_5a/pool_proj
I0403 14:13:24.111932  1003 net.cpp:148] Top shape: 24 128 7 7 (150528)
I0403 14:13:24.111950  1003 net.cpp:156] Memory required for data: 1305071136
I0403 14:13:24.111969  1003 layer_factory.hpp:77] Creating layer inception_5a/relu_pool_proj
I0403 14:13:24.111987  1003 net.cpp:91] Creating Layer inception_5a/relu_pool_proj
I0403 14:13:24.112004  1003 net.cpp:425] inception_5a/relu_pool_proj <- inception_5a/pool_proj
I0403 14:13:24.112023  1003 net.cpp:386] inception_5a/relu_pool_proj -> inception_5a/pool_proj (in-place)
I0403 14:13:24.112345  1003 net.cpp:141] Setting up inception_5a/relu_pool_proj
I0403 14:13:24.112372  1003 net.cpp:148] Top shape: 24 128 7 7 (150528)
I0403 14:13:24.112391  1003 net.cpp:156] Memory required for data: 1305673248
I0403 14:13:24.112407  1003 layer_factory.hpp:77] Creating layer inception_5a/output
I0403 14:13:24.112426  1003 net.cpp:91] Creating Layer inception_5a/output
I0403 14:13:24.112442  1003 net.cpp:425] inception_5a/output <- inception_5a/1x1
I0403 14:13:24.112459  1003 net.cpp:425] inception_5a/output <- inception_5a/3x3
I0403 14:13:24.112475  1003 net.cpp:425] inception_5a/output <- inception_5a/5x5
I0403 14:13:24.112493  1003 net.cpp:425] inception_5a/output <- inception_5a/pool_proj
I0403 14:13:24.112509  1003 net.cpp:399] inception_5a/output -> inception_5a/output
I0403 14:13:24.112563  1003 net.cpp:141] Setting up inception_5a/output
I0403 14:13:24.112587  1003 net.cpp:148] Top shape: 24 832 7 7 (978432)
I0403 14:13:24.112602  1003 net.cpp:156] Memory required for data: 1309586976
I0403 14:13:24.112617  1003 layer_factory.hpp:77] Creating layer inception_5a/output_inception_5a/output_0_split
I0403 14:13:24.112634  1003 net.cpp:91] Creating Layer inception_5a/output_inception_5a/output_0_split
I0403 14:13:24.112650  1003 net.cpp:425] inception_5a/output_inception_5a/output_0_split <- inception_5a/output
I0403 14:13:24.112670  1003 net.cpp:399] inception_5a/output_inception_5a/output_0_split -> inception_5a/output_inception_5a/output_0_split_0
I0403 14:13:24.112692  1003 net.cpp:399] inception_5a/output_inception_5a/output_0_split -> inception_5a/output_inception_5a/output_0_split_1
I0403 14:13:24.112714  1003 net.cpp:399] inception_5a/output_inception_5a/output_0_split -> inception_5a/output_inception_5a/output_0_split_2
I0403 14:13:24.112735  1003 net.cpp:399] inception_5a/output_inception_5a/output_0_split -> inception_5a/output_inception_5a/output_0_split_3
I0403 14:13:24.112864  1003 net.cpp:141] Setting up inception_5a/output_inception_5a/output_0_split
I0403 14:13:24.112889  1003 net.cpp:148] Top shape: 24 832 7 7 (978432)
I0403 14:13:24.112906  1003 net.cpp:148] Top shape: 24 832 7 7 (978432)
I0403 14:13:24.112923  1003 net.cpp:148] Top shape: 24 832 7 7 (978432)
I0403 14:13:24.112939  1003 net.cpp:148] Top shape: 24 832 7 7 (978432)
I0403 14:13:24.112954  1003 net.cpp:156] Memory required for data: 1325241888
I0403 14:13:24.112970  1003 layer_factory.hpp:77] Creating layer inception_5b/1x1
I0403 14:13:24.112994  1003 net.cpp:91] Creating Layer inception_5b/1x1
I0403 14:13:24.113013  1003 net.cpp:425] inception_5b/1x1 <- inception_5a/output_inception_5a/output_0_split_0
I0403 14:13:24.113035  1003 net.cpp:399] inception_5b/1x1 -> inception_5b/1x1
I0403 14:13:24.116997  1003 net.cpp:141] Setting up inception_5b/1x1
I0403 14:13:24.117028  1003 net.cpp:148] Top shape: 24 384 7 7 (451584)
I0403 14:13:24.117046  1003 net.cpp:156] Memory required for data: 1327048224
I0403 14:13:24.117065  1003 layer_factory.hpp:77] Creating layer inception_5b/relu_1x1
I0403 14:13:24.117086  1003 net.cpp:91] Creating Layer inception_5b/relu_1x1
I0403 14:13:24.117105  1003 net.cpp:425] inception_5b/relu_1x1 <- inception_5b/1x1
I0403 14:13:24.117122  1003 net.cpp:386] inception_5b/relu_1x1 -> inception_5b/1x1 (in-place)
I0403 14:13:24.117449  1003 net.cpp:141] Setting up inception_5b/relu_1x1
I0403 14:13:24.117475  1003 net.cpp:148] Top shape: 24 384 7 7 (451584)
I0403 14:13:24.117491  1003 net.cpp:156] Memory required for data: 1328854560
I0403 14:13:24.117506  1003 layer_factory.hpp:77] Creating layer inception_5b/3x3_reduce
I0403 14:13:24.117530  1003 net.cpp:91] Creating Layer inception_5b/3x3_reduce
I0403 14:13:24.117549  1003 net.cpp:425] inception_5b/3x3_reduce <- inception_5a/output_inception_5a/output_0_split_1
I0403 14:13:24.117573  1003 net.cpp:399] inception_5b/3x3_reduce -> inception_5b/3x3_reduce
I0403 14:13:24.120348  1003 net.cpp:141] Setting up inception_5b/3x3_reduce
I0403 14:13:24.120379  1003 net.cpp:148] Top shape: 24 192 7 7 (225792)
I0403 14:13:24.120396  1003 net.cpp:156] Memory required for data: 1329757728
I0403 14:13:24.120416  1003 layer_factory.hpp:77] Creating layer inception_5b/relu_3x3_reduce
I0403 14:13:24.120439  1003 net.cpp:91] Creating Layer inception_5b/relu_3x3_reduce
I0403 14:13:24.120455  1003 net.cpp:425] inception_5b/relu_3x3_reduce <- inception_5b/3x3_reduce
I0403 14:13:24.120474  1003 net.cpp:386] inception_5b/relu_3x3_reduce -> inception_5b/3x3_reduce (in-place)
I0403 14:13:24.120673  1003 net.cpp:141] Setting up inception_5b/relu_3x3_reduce
I0403 14:13:24.120700  1003 net.cpp:148] Top shape: 24 192 7 7 (225792)
I0403 14:13:24.120717  1003 net.cpp:156] Memory required for data: 1330660896
I0403 14:13:24.120731  1003 layer_factory.hpp:77] Creating layer inception_5b/3x3
I0403 14:13:24.120754  1003 net.cpp:91] Creating Layer inception_5b/3x3
I0403 14:13:24.120774  1003 net.cpp:425] inception_5b/3x3 <- inception_5b/3x3_reduce
I0403 14:13:24.120793  1003 net.cpp:399] inception_5b/3x3 -> inception_5b/3x3
I0403 14:13:24.127799  1003 net.cpp:141] Setting up inception_5b/3x3
I0403 14:13:24.127830  1003 net.cpp:148] Top shape: 24 384 7 7 (451584)
I0403 14:13:24.127848  1003 net.cpp:156] Memory required for data: 1332467232
I0403 14:13:24.127868  1003 layer_factory.hpp:77] Creating layer inception_5b/relu_3x3
I0403 14:13:24.127888  1003 net.cpp:91] Creating Layer inception_5b/relu_3x3
I0403 14:13:24.127907  1003 net.cpp:425] inception_5b/relu_3x3 <- inception_5b/3x3
I0403 14:13:24.127924  1003 net.cpp:386] inception_5b/relu_3x3 -> inception_5b/3x3 (in-place)
I0403 14:13:24.128239  1003 net.cpp:141] Setting up inception_5b/relu_3x3
I0403 14:13:24.128268  1003 net.cpp:148] Top shape: 24 384 7 7 (451584)
I0403 14:13:24.128285  1003 net.cpp:156] Memory required for data: 1334273568
I0403 14:13:24.128301  1003 layer_factory.hpp:77] Creating layer inception_5b/5x5_reduce
I0403 14:13:24.128342  1003 net.cpp:91] Creating Layer inception_5b/5x5_reduce
I0403 14:13:24.128361  1003 net.cpp:425] inception_5b/5x5_reduce <- inception_5a/output_inception_5a/output_0_split_2
I0403 14:13:24.128386  1003 net.cpp:399] inception_5b/5x5_reduce -> inception_5b/5x5_reduce
I0403 14:13:24.129747  1003 net.cpp:141] Setting up inception_5b/5x5_reduce
I0403 14:13:24.129776  1003 net.cpp:148] Top shape: 24 48 7 7 (56448)
I0403 14:13:24.129792  1003 net.cpp:156] Memory required for data: 1334499360
I0403 14:13:24.129812  1003 layer_factory.hpp:77] Creating layer inception_5b/relu_5x5_reduce
I0403 14:13:24.129833  1003 net.cpp:91] Creating Layer inception_5b/relu_5x5_reduce
I0403 14:13:24.129851  1003 net.cpp:425] inception_5b/relu_5x5_reduce <- inception_5b/5x5_reduce
I0403 14:13:24.129870  1003 net.cpp:386] inception_5b/relu_5x5_reduce -> inception_5b/5x5_reduce (in-place)
I0403 14:13:24.130259  1003 net.cpp:141] Setting up inception_5b/relu_5x5_reduce
I0403 14:13:24.130287  1003 net.cpp:148] Top shape: 24 48 7 7 (56448)
I0403 14:13:24.130303  1003 net.cpp:156] Memory required for data: 1334725152
I0403 14:13:24.130319  1003 layer_factory.hpp:77] Creating layer inception_5b/5x5
I0403 14:13:24.130341  1003 net.cpp:91] Creating Layer inception_5b/5x5
I0403 14:13:24.130372  1003 net.cpp:425] inception_5b/5x5 <- inception_5b/5x5_reduce
I0403 14:13:24.130391  1003 net.cpp:399] inception_5b/5x5 -> inception_5b/5x5
I0403 14:13:24.132614  1003 net.cpp:141] Setting up inception_5b/5x5
I0403 14:13:24.132649  1003 net.cpp:148] Top shape: 24 128 7 7 (150528)
I0403 14:13:24.132665  1003 net.cpp:156] Memory required for data: 1335327264
I0403 14:13:24.132685  1003 layer_factory.hpp:77] Creating layer inception_5b/relu_5x5
I0403 14:13:24.132704  1003 net.cpp:91] Creating Layer inception_5b/relu_5x5
I0403 14:13:24.132721  1003 net.cpp:425] inception_5b/relu_5x5 <- inception_5b/5x5
I0403 14:13:24.132740  1003 net.cpp:386] inception_5b/relu_5x5 -> inception_5b/5x5 (in-place)
I0403 14:13:24.132941  1003 net.cpp:141] Setting up inception_5b/relu_5x5
I0403 14:13:24.132967  1003 net.cpp:148] Top shape: 24 128 7 7 (150528)
I0403 14:13:24.132982  1003 net.cpp:156] Memory required for data: 1335929376
I0403 14:13:24.132998  1003 layer_factory.hpp:77] Creating layer inception_5b/pool
I0403 14:13:24.133016  1003 net.cpp:91] Creating Layer inception_5b/pool
I0403 14:13:24.133033  1003 net.cpp:425] inception_5b/pool <- inception_5a/output_inception_5a/output_0_split_3
I0403 14:13:24.133054  1003 net.cpp:399] inception_5b/pool -> inception_5b/pool
I0403 14:13:24.133131  1003 net.cpp:141] Setting up inception_5b/pool
I0403 14:13:24.133157  1003 net.cpp:148] Top shape: 24 832 7 7 (978432)
I0403 14:13:24.133172  1003 net.cpp:156] Memory required for data: 1339843104
I0403 14:13:24.133195  1003 layer_factory.hpp:77] Creating layer inception_5b/pool_proj
I0403 14:13:24.133219  1003 net.cpp:91] Creating Layer inception_5b/pool_proj
I0403 14:13:24.133236  1003 net.cpp:425] inception_5b/pool_proj <- inception_5b/pool
I0403 14:13:24.133256  1003 net.cpp:399] inception_5b/pool_proj -> inception_5b/pool_proj
I0403 14:13:24.135721  1003 net.cpp:141] Setting up inception_5b/pool_proj
I0403 14:13:24.135752  1003 net.cpp:148] Top shape: 24 128 7 7 (150528)
I0403 14:13:24.135768  1003 net.cpp:156] Memory required for data: 1340445216
I0403 14:13:24.135788  1003 layer_factory.hpp:77] Creating layer inception_5b/relu_pool_proj
I0403 14:13:24.135809  1003 net.cpp:91] Creating Layer inception_5b/relu_pool_proj
I0403 14:13:24.135828  1003 net.cpp:425] inception_5b/relu_pool_proj <- inception_5b/pool_proj
I0403 14:13:24.135845  1003 net.cpp:386] inception_5b/relu_pool_proj -> inception_5b/pool_proj (in-place)
I0403 14:13:24.136162  1003 net.cpp:141] Setting up inception_5b/relu_pool_proj
I0403 14:13:24.136194  1003 net.cpp:148] Top shape: 24 128 7 7 (150528)
I0403 14:13:24.136210  1003 net.cpp:156] Memory required for data: 1341047328
I0403 14:13:24.136226  1003 layer_factory.hpp:77] Creating layer inception_5b/output
I0403 14:13:24.136247  1003 net.cpp:91] Creating Layer inception_5b/output
I0403 14:13:24.136279  1003 net.cpp:425] inception_5b/output <- inception_5b/1x1
I0403 14:13:24.136298  1003 net.cpp:425] inception_5b/output <- inception_5b/3x3
I0403 14:13:24.136315  1003 net.cpp:425] inception_5b/output <- inception_5b/5x5
I0403 14:13:24.136332  1003 net.cpp:425] inception_5b/output <- inception_5b/pool_proj
I0403 14:13:24.136349  1003 net.cpp:399] inception_5b/output -> inception_5b/output
I0403 14:13:24.136405  1003 net.cpp:141] Setting up inception_5b/output
I0403 14:13:24.136430  1003 net.cpp:148] Top shape: 24 1024 7 7 (1204224)
I0403 14:13:24.136445  1003 net.cpp:156] Memory required for data: 1345864224
I0403 14:13:24.136459  1003 layer_factory.hpp:77] Creating layer pool5/7x7_s1
I0403 14:13:24.136477  1003 net.cpp:91] Creating Layer pool5/7x7_s1
I0403 14:13:24.136494  1003 net.cpp:425] pool5/7x7_s1 <- inception_5b/output
I0403 14:13:24.136517  1003 net.cpp:399] pool5/7x7_s1 -> pool5/7x7_s1
I0403 14:13:24.136757  1003 net.cpp:141] Setting up pool5/7x7_s1
I0403 14:13:24.136786  1003 net.cpp:148] Top shape: 24 1024 1 1 (24576)
I0403 14:13:24.136803  1003 net.cpp:156] Memory required for data: 1345962528
I0403 14:13:24.136821  1003 layer_factory.hpp:77] Creating layer pool5/drop_7x7_s1
I0403 14:13:24.136839  1003 net.cpp:91] Creating Layer pool5/drop_7x7_s1
I0403 14:13:24.136857  1003 net.cpp:425] pool5/drop_7x7_s1 <- pool5/7x7_s1
I0403 14:13:24.136878  1003 net.cpp:386] pool5/drop_7x7_s1 -> pool5/7x7_s1 (in-place)
I0403 14:13:24.136930  1003 net.cpp:141] Setting up pool5/drop_7x7_s1
I0403 14:13:24.136955  1003 net.cpp:148] Top shape: 24 1024 1 1 (24576)
I0403 14:13:24.136970  1003 net.cpp:156] Memory required for data: 1346060832
I0403 14:13:24.136986  1003 layer_factory.hpp:77] Creating layer loss3/classifier_plantvillage
I0403 14:13:24.137008  1003 net.cpp:91] Creating Layer loss3/classifier_plantvillage
I0403 14:13:24.137027  1003 net.cpp:425] loss3/classifier_plantvillage <- pool5/7x7_s1
I0403 14:13:24.137049  1003 net.cpp:399] loss3/classifier_plantvillage -> loss3/classifier_plantvillage
I0403 14:13:24.137509  1003 net.cpp:141] Setting up loss3/classifier_plantvillage
I0403 14:13:24.137536  1003 net.cpp:148] Top shape: 24 38 (912)
I0403 14:13:24.137552  1003 net.cpp:156] Memory required for data: 1346064480
I0403 14:13:24.137570  1003 layer_factory.hpp:77] Creating layer loss3/classifier_plantvillage_loss3/classifier_plantvillage_0_split
I0403 14:13:24.137590  1003 net.cpp:91] Creating Layer loss3/classifier_plantvillage_loss3/classifier_plantvillage_0_split
I0403 14:13:24.137612  1003 net.cpp:425] loss3/classifier_plantvillage_loss3/classifier_plantvillage_0_split <- loss3/classifier_plantvillage
I0403 14:13:24.137632  1003 net.cpp:399] loss3/classifier_plantvillage_loss3/classifier_plantvillage_0_split -> loss3/classifier_plantvillage_loss3/classifier_plantvillage_0_split_0
I0403 14:13:24.137653  1003 net.cpp:399] loss3/classifier_plantvillage_loss3/classifier_plantvillage_0_split -> loss3/classifier_plantvillage_loss3/classifier_plantvillage_0_split_1
I0403 14:13:24.137675  1003 net.cpp:399] loss3/classifier_plantvillage_loss3/classifier_plantvillage_0_split -> loss3/classifier_plantvillage_loss3/classifier_plantvillage_0_split_2
I0403 14:13:24.137696  1003 net.cpp:399] loss3/classifier_plantvillage_loss3/classifier_plantvillage_0_split -> loss3/classifier_plantvillage_loss3/classifier_plantvillage_0_split_3
I0403 14:13:24.137804  1003 net.cpp:141] Setting up loss3/classifier_plantvillage_loss3/classifier_plantvillage_0_split
I0403 14:13:24.137830  1003 net.cpp:148] Top shape: 24 38 (912)
I0403 14:13:24.137846  1003 net.cpp:148] Top shape: 24 38 (912)
I0403 14:13:24.137862  1003 net.cpp:148] Top shape: 24 38 (912)
I0403 14:13:24.137878  1003 net.cpp:148] Top shape: 24 38 (912)
I0403 14:13:24.137893  1003 net.cpp:156] Memory required for data: 1346079072
I0403 14:13:24.137909  1003 layer_factory.hpp:77] Creating layer loss1/loss
I0403 14:13:24.137933  1003 net.cpp:91] Creating Layer loss1/loss
I0403 14:13:24.137951  1003 net.cpp:425] loss1/loss <- loss1/classifier_plantvillage_loss1/classifier_plantvillage_0_split_0
I0403 14:13:24.137984  1003 net.cpp:425] loss1/loss <- label_data_1_split_0
…
