…
I0403 14:02:14.635931   662 net.cpp:313] The NetState phase (1) differed from the phase (0) specified by a rule in layer data
I0403 14:02:14.637140   662 net.cpp:49] Initializing net from parameters: 
state {
  phase: TEST
}
layer {
  name: "data"
  type: "Data"
  top: "data"
  top: "label"
  include {
    phase: TEST
  }
  transform_param {
    mirror: false
    crop_size: 224
    mean_file: "/home/mohanty/data/final_dataset/lmdb/grayscale-20-80/mean.binaryproto"
  }
  data_param {
    source: "/home/mohanty/data/final_dataset/lmdb/grayscale-20-80/test_db"
    batch_size: 24
    backend: LMDB
  }
}
layer {
  name: "conv1/7x7_s2"
  type: "Convolution"
  bottom: "data"
  top: "conv1/7x7_s2"
  param {
    lr_mult: 1
    decay_mult: 1
  }
  param {
    lr_mult: 2
    decay_mult: 0
  }
  convolution_param {
    num_output: 64
    pad: 3
    kernel_size: 7
    stride: 2
    weight_filler {
      type: "xavier"
      std: 0.1
    }
    bias_filler {
      type: "constant"
      value: 0.2
    }
  }
}
layer {
  name: "conv1/relu_7x7"
  type: "ReLU"
  bottom: "conv1/7x7_s2"
  top: "conv1/7x7_s2"
}
layer {
  name: "pool1/3x3_s2"
  type: "Pooling"
  bottom: "conv1/7x7_s2"
  top: "pool1/3x3_s2"
  pooling_param {
    pool: MAX
    kernel_size: 3
    stride: 2
  }
}
layer {
  name: "pool1/norm1"
  type: "LRN"
  bottom: "pool1/3x3_s2"
  top: "pool1/norm1"
  lrn_param {
    local_size: 5
    alpha: 0.0001
    beta: 0.75
  }
}
layer {
  name: "conv2/3x3_reduce"
  type: "Convolution"
  bottom: "pool1/norm1"
  top: "conv2/3x3_reduce"
  param {
    lr_mult: 1
    decay_mult: 1
  }
  param {
    lr_mult: 2
    decay_mult: 0
  }
  convolution_param {
    num_output: 64
    kernel_size: 1
    weight_filler {
      type: "xavier"
      std: 0.1
    }
    bias_filler {
      type: "constant"
      value: 0.2
    }
  }
}
layer {
  name: "conv2/relu_3x3_reduce"
  type: "ReLU"
  bottom: "conv2/3x3_reduce"
  top: "conv2/3x3_reduce"
}
layer {
  name: "conv2/3x3"
  type: "Convolution"
  bottom: "conv2/3x3_reduce"
  top: "conv2/3x3"
  param {
    lr_mult: 1
    decay_mult: 1
  }
  param {
    lr_mult: 2
    decay_mult: 0
  }
  convolution_param {
    num_output: 192
    pad: 1
    kernel_size: 3
    weight_filler {
      type: "xavier"
      std: 0.03
    }
    bias_filler {
      type: "constant"
      value: 0.2
    }
  }
}
layer {
  name: "conv2/relu_3x3"
  type: "ReLU"
  bottom: "conv2/3x3"
  top: "conv2/3x3"
}
layer {
  name: "conv2/norm2"
  type: "LRN"
  bottom: "conv2/3x3"
  top: "conv2/norm2"
  lrn_param {
    local_size: 5
    alpha: 0.0001
    beta: 0.75
  }
}
layer {
  name: "pool2/3x3_s2"
  type: "Pooling"
  bottom: "conv2/norm2"
  top: "pool2/3x3_s2"
  pooling_param {
    pool: MAX
    kernel_size: 3
    stride: 2
  }
}
layer {
  name: "inception_3a/1x1"
  type: "Convolution"
  bottom: "pool2/3x3_s2"
  top: "inception_3a/1x1"
  param {
    lr_mult: 1
    decay_mult: 1
  }
  param {
    lr_mult: 2
    decay_mult: 0
  }
  convolution_param {
    num_output: 64
    kernel_size: 1
    weight_filler {
      type: "xavier"
      std: 0.03
    }
    bias_filler {
      type: "constant"
      value: 0.2
    }
  }
}
layer {
  name: "inception_3a/relu_1x1"
  type: "ReLU"
  bottom: "inception_3a/1x1"
  top: "inception_3a/1x1"
}
layer {
  name: "inception_3a/3x3_reduce"
  type: "Convolution"
  bottom: "pool2/3x3_s2"
  top: "inception_3a/3x3_reduce"
  param {
    lr_mult: 1
    decay_mult: 1
  }
  param {
    lr_mult: 2
    decay_mult: 0
  }
  convolution_param {
    num_output: 96
    kernel_size: 1
    weight_filler {
      type: "xavier"
      std: 0.09
    }
    bias_filler {
      type: "constant"
      value: 0.2
    }
  }
}
layer {
  name: "inception_3a/relu_3x3_reduce"
  type: "ReLU"
  bottom: "inception_3a/3x3_reduce"
  top: "inception_3a/3x3_reduce"
}
layer {
  name: "inception_3a/3x3"
  type: "Convolution"
  bottom: "inception_3a/3x3_reduce"
  top: "inception_3a/3x3"
  param {
    lr_mult: 1
    decay_mult: 1
  }
  param {
    lr_mult: 2
    decay_mult: 0
  }
  convolution_param {
    num_output: 128
    pad: 1
    kernel_size: 3
    weight_filler {
      type: "xavier"
      std: 0.03
    }
    bias_filler {
      type: "constant"
      value: 0.2
    }
  }
}
layer {
  name: "inception_3a/relu_3x3"
  type: "ReLU"
  bottom: "inception_3a/3x3"
  top: "inception_3a/3x3"
}
layer {
  name: "inception_3a/5x5_reduce"
  type: "Convolution"
  bottom: "pool2/3x3_s2"
  top: "inception_3a/5x5_reduce"
  param {
    lr_mult: 1
    decay_mult: 1
  }
  param {
    lr_mult: 2
    decay_mult: 0
  }
  convolution_param {
    num_output: 16
    kernel_size: 1
    weight_filler {
      type: "xavier"
      std: 0.2
    }
    bias_filler {
      type: "constant"
      value: 0.2
    }
  }
}
layer {
  name: "inception_3a/relu_5x5_reduce"
  type: "ReLU"
  bottom: "inception_3a/5x5_reduce"
  top: "inception_3a/5x5_reduce"
}
layer {
  name: "inception_3a/5x5"
  type: "Convolution"
  bottom: "inception_3a/5x5_reduce"
  top: "inception_3a/5x5"
  param {
    lr_mult: 1
    decay_mult: 1
  }
  param {
    lr_mult: 2
    decay_mult: 0
  }
  convolution_param {
    num_output: 32
    pad: 2
    kernel_size: 5
    weight_filler {
      type: "xavier"
      std: 0.03
    }
    bias_filler {
      type: "constant"
      value: 0.2
    }
  }
}
layer {
  name: "inception_3a/relu_5x5"
  type: "ReLU"
  bottom: "inception_3a/5x5"
  top: "inception_3a/5x5"
}
layer {
  name: "inception_3a/pool"
  type: "Pooling"
  bottom: "pool2/3x3_s2"
  top: "inception_3a/pool"
  pooling_param {
    pool: MAX
    kernel_size: 3
    stride: 1
    pad: 1
  }
}
layer {
  name: "inception_3a/pool_proj"
  type: "Convolution"
  bottom: "inception_3a/pool"
  top: "inception_3a/pool_proj"
  param {
    lr_mult: 1
    decay_mult: 1
  }
  param {
    lr_mult: 2
    decay_mult: 0
  }
  convolution_param {
    num_output: 32
    kernel_size: 1
    weight_filler {
      type: "xavier"
      std: 0.1
    }
    bias_filler {
      type: "constant"
      value: 0.2
    }
  }
}
layer {
  name: "inception_3a/relu_pool_proj"
  type: "ReLU"
  bottom: "inception_3a/pool_proj"
  top: "inception_3a/pool_proj"
}
layer {
  name: "inception_3a/output"
  type: "Concat"
  bottom: "inception_3a/1x1"
  bottom: "inception_3a/3x3"
  bottom: "inception_3a/5x5"
  bottom: "inception_3a/pool_proj"
  top: "inception_3a/output"
}
layer {
  name: "inception_3b/1x1"
  type: "Convolution"
  bottom: "inception_3a/output"
  top: "inception_3b/1x1"
  param {
    lr_mult: 1
    decay_mult: 1
  }
  param {
    lr_mult: 2
    decay_mult: 0
  }
  convolution_param {
    num_output: 128
    kernel_size: 1
    weight_filler {
      type: "xavier"
      std: 0.03
    }
    bias_filler {
      type: "constant"
      value: 0.2
    }
  }
}
layer {
  name: "inception_3b/relu_1x1"
  type: "ReLU"
  bottom: "inception_3b/1x1"
  top: "inception_3b/1x1"
}
layer {
  name: "inception_3b/3x3_reduce"
  type: "Convolution"
  bottom: "inception_3a/output"
  top: "inception_3b/3x3_reduce"
  param {
    lr_mult: 1
    decay_mult: 1
  }
  param {
    lr_mult: 2
    decay_mult: 0
  }
  convolution_param {
    num_output: 128
    kernel_size: 1
    weight_filler {
      type: "xavier"
      std: 0.09
    }
    bias_filler {
      type: "constant"
      value: 0.2
    }
  }
}
layer {
  name: "inception_3b/relu_3x3_reduce"
  type: "ReLU"
  bottom: "inception_3b/3x3_reduce"
  top: "inception_3b/3x3_reduce"
}
layer {
  name: "inception_3b/3x3"
  type: "Convolution"
  bottom: "inception_3b/3x3_reduce"
  top: "inception_3b/3x3"
  param {
    lr_mult: 1
    decay_mult: 1
  }
  param {
    lr_mult: 2
    decay_mult: 0
  }
  convolution_param {
    num_output: 192
    pad: 1
    kernel_size: 3
    weight_filler {
      type: "xavier"
      std: 0.03
    }
    bias_filler {
      type: "constant"
      value: 0.2
    }
  }
}
layer {
  name: "inception_3b/relu_3x3"
  type: "ReLU"
  bottom: "inception_3b/3x3"
  top: "inception_3b/3x3"
}
layer {
  name: "inception_3b/5x5_reduce"
  type: "Convolution"
  bottom: "inception_3a/output"
  top: "inception_3b/5x5_reduce"
  param {
    lr_mult: 1
    decay_mult: 1
  }
  param {
    lr_mult: 2
    decay_mult: 0
  }
  convolution_param {
    num_output: 32
    kernel_size: 1
    weight_filler {
      type: "xavier"
      std: 0.2
    }
    bias_filler {
      type: "constant"
      value: 0.2
    }
  }
}
layer {
  name: "inception_3b/relu_5x5_reduce"
  type: "ReLU"
  bottom: "inception_3b/5x5_reduce"
  top: "inception_3b/5x5_reduce"
}
layer {
  name: "inception_3b/5x5"
  type: "Convolution"
  bottom: "inception_3b/5x5_reduce"
  top: "inception_3b/5x5"
  param {
    lr_mult: 1
    decay_mult: 1
  }
  param {
    lr_mult: 2
    decay_mult: 0
  }
  convolution_param {
    num_output: 96
    pad: 2
    kernel_size: 5
    weight_filler {
      type: "xavier"
      std: 0.03
    }
    bias_filler {
      type: "constant"
      value: 0.2
    }
  }
}
layer {
  name: "inception_3b/relu_5x5"
  type: "ReLU"
  bottom: "inception_3b/5x5"
  top: "inception_3b/5x5"
}
layer {
  name: "inception_3b/pool"
  type: "Pooling"
  bottom: "inception_3a/output"
  top: "inception_3b/pool"
  pooling_param {
    pool: MAX
    kernel_size: 3
    stride: 1
    pad: 1
  }
}
layer {
  name: "inception_3b/pool_proj"
  type: "Convolution"
  bottom: "inception_3b/pool"
  top: "inception_3b/pool_proj"
  param {
    lr_mult: 1
    decay_mult: 1
  }
  param {
    lr_mult: 2
    decay_mult: 0
  }
  convolution_param {
    num_output: 64
    kernel_size: 1
    weight_filler {
      type: "xavier"
      std: 0.1
    }
    bias_filler {
      type: "constant"
      value: 0.2
    }
  }
}
layer {
  name: "inception_3b/relu_pool_proj"
  type: "ReLU"
  bottom: "inception_3b/pool_proj"
  top: "inception_3b/pool_proj"
}
layer {
  name: "inception_3b/output"
  type: "Concat"
  bottom: "inception_3b/1x1"
  bottom: "inception_3b/3x3"
  bottom: "inception_3b/5x5"
  bottom: "inception_3b/pool_proj"
  top: "inception_3b/output"
}
layer {
  name: "pool3/3x3_s2"
  type: "Pooling"
  bottom: "inception_3b/output"
  top: "pool3/3x3_s2"
  pooling_param {
    pool: MAX
    kernel_size: 3
    stride: 2
  }
}
layer {
  name: "inception_4a/1x1"
  type: "Convolution"
  bottom: "pool3/3x3_s2"
  top: "inception_4a/1x1"
  param {
    lr_mult: 1
    decay_mult: 1
  }
  param {
    lr_mult: 2
    decay_mult: 0
  }
  convolution_param {
    num_output: 192
    kernel_size: 1
    weight_filler {
      type: "xavier"
      std: 0.03
    }
    bias_filler {
      type: "constant"
      value: 0.2
    }
  }
}
layer {
  name: "inception_4a/relu_1x1"
  type: "ReLU"
  bottom: "inception_4a/1x1"
  top: "inception_4a/1x1"
}
layer {
  name: "inception_4a/3x3_reduce"
  type: "Convolution"
  bottom: "pool3/3x3_s2"
  top: "inception_4a/3x3_reduce"
  param {
    lr_mult: 1
    decay_mult: 1
  }
  param {
    lr_mult: 2
    decay_mult: 0
  }
  convolution_param {
    num_output: 96
    kernel_size: 1
    weight_filler {
      type: "xavier"
      std: 0.09
    }
    bias_filler {
      type: "constant"
      value: 0.2
    }
  }
}
layer {
  name: "inception_4a/relu_3x3_reduce"
  type: "ReLU"
  bottom: "inception_4a/3x3_reduce"
  top: "inception_4a/3x3_reduce"
}
layer {
  name: "inception_4a/3x3"
  type: "Convolution"
  bottom: "inception_4a/3x3_reduce"
  top: "inception_4a/3x3"
  param {
    lr_mult: 1
    decay_mult: 1
  }
  param {
    lr_mult: 2
    decay_mult: 0
  }
  convolution_param {
    num_output: 208
    pad: 1
    kernel_size: 3
    weight_filler {
      type: "xavier"
      std: 0.03
    }
    bias_filler {
      type: "constant"
      value: 0.2
    }
  }
}
layer {
  name: "inception_4a/relu_3x3"
  type: "ReLU"
  bottom: "inception_4a/3x3"
  top: "inception_4a/3x3"
}
layer {
  name: "inception_4a/5x5_reduce"
  type: "Convolution"
  bottom: "pool3/3x3_s2"
  top: "inception_4a/5x5_reduce"
  param {
    lr_mult: 1
    decay_mult: 1
  }
  param {
    lr_mult: 2
    decay_mult: 0
  }
  convolution_param {
    num_output: 16
    kernel_size: 1
    weight_filler {
      type: "xavier"
      std: 0.2
    }
    bias_filler {
      type: "constant"
      value: 0.2
    }
  }
}
layer {
  name: "inception_4a/relu_5x5_reduce"
  type: "ReLU"
  bottom: "inception_4a/5x5_reduce"
  top: "inception_4a/5x5_reduce"
}
layer {
  name: "inception_4a/5x5"
  type: "Convolution"
  bottom: "inception_4a/5x5_reduce"
  top: "inception_4a/5x5"
  param {
    lr_mult: 1
    decay_mult: 1
  }
  param {
    lr_mult: 2
    decay_mult: 0
  }
  convolution_param {
    num_output: 48
    pad: 2
    kernel_size: 5
    weight_filler {
      type: "xavier"
      std: 0.03
    }
    bias_filler {
      type: "constant"
      value: 0.2
    }
  }
}
layer {
  name: "inception_4a/relu_5x5"
  type: "ReLU"
  bottom: "inception_4a/5x5"
  top: "inception_4a/5x5"
}
layer {
  name: "inception_4a/pool"
  type: "Pooling"
  bottom: "pool3/3x3_s2"
  top: "inception_4a/pool"
  pooling_param {
    pool: MAX
    kernel_size: 3
    stride: 1
    pad: 1
  }
}
layer {
  name: "inception_4a/pool_proj"
  type: "Convolution"
  bottom: "inception_4a/pool"
  top: "inception_4a/pool_proj"
  param {
    lr_mult: 1
    decay_mult: 1
  }
  param {
    lr_mult: 2
    decay_mult: 0
  }
  convolution_param {
    num_output: 64
    kernel_size: 1
    weight_filler {
      type: "xavier"
      std: 0.1
    }
    bias_filler {
      type: "constant"
      value: 0.2
    }
  }
}
layer {
  name: "inception_4a/relu_pool_proj"
  type: "ReLU"
  bottom: "inception_4a/pool_proj"
  top: "inception_4a/pool_proj"
}
layer {
  name: "inception_4a/output"
  type: "Concat"
  bottom: "inception_4a/1x1"
  bottom: "inception_4a/3x3"
  bottom: "inception_4a/5x5"
  bottom: "inception_4a/pool_proj"
  top: "inception_4a/output"
}
layer {
  name: "loss1/ave_pool"
  type: "Pooling"
  bottom: "inception_4a/output"
  top: "loss1/ave_pool"
  pooling_param {
    pool: AVE
    kernel_size: 5
    stride: 3
  }
}
layer {
  name: "loss1/conv"
  type: "Convolution"
  bottom: "loss1/ave_pool"
  top: "loss1/conv"
  param {
    lr_mult: 1
    decay_mult: 1
  }
  param {
    lr_mult: 2
    decay_mult: 0
  }
  convolution_param {
    num_output: 128
    kernel_size: 1
    weight_filler {
      type: "xavier"
      std: 0.08
    }
    bias_filler {
      type: "constant"
      value: 0.2
    }
  }
}
layer {
  name: "loss1/relu_conv"
  type: "ReLU"
  bottom: "loss1/conv"
  top: "loss1/conv"
}
layer {
  name: "loss1/fc"
  type: "InnerProduct"
  bottom: "loss1/conv"
  top: "loss1/fc"
  param {
    lr_mult: 1
    decay_mult: 1
  }
  param {
    lr_mult: 2
    decay_mult: 0
  }
  inner_product_param {
    num_output: 1024
    weight_filler {
      type: "xavier"
      std: 0.02
    }
    bias_filler {
      type: "constant"
      value: 0.2
    }
  }
}
layer {
  name: "loss1/relu_fc"
  type: "ReLU"
  bottom: "loss1/fc"
  top: "loss1/fc"
}
layer {
  name: "loss1/drop_fc"
  type: "Dropout"
  bottom: "loss1/fc"
  top: "loss1/fc"
  dropout_param {
    dropout_ratio: 0.7
  }
}
layer {
  name: "loss1/classifier_plantvillage"
  type: "InnerProduct"
  bottom: "loss1/fc"
  top: "loss1/classifier_plantvillage"
  param {
    lr_mult: 1
    decay_mult: 1
  }
  param {
    lr_mult: 2
    decay_mult: 0
  }
  inner_product_param {
    num_output: 38
    weight_filler {
      type: "xavier"
      std: 0.0009765625
    }
    bias_filler {
      type: "constant"
      value: 0
    }
  }
}
layer {
  name: "inception_4b/1x1"
  type: "Convolution"
  bottom: "inception_4a/output"
  top: "inception_4b/1x1"
  param {
    lr_mult: 1
    decay_mult: 1
  }
  param {
    lr_mult: 2
    decay_mult: 0
  }
  convolution_param {
    num_output: 160
    kernel_size: 1
    weight_filler {
      type: "xavier"
      std: 0.03
    }
    bias_filler {
      type: "constant"
      value: 0.2
    }
  }
}
layer {
  name: "inception_4b/relu_1x1"
  type: "ReLU"
  bottom: "inception_4b/1x1"
  top: "inception_4b/1x1"
}
layer {
  name: "inception_4b/3x3_reduce"
  type: "Convolution"
  bottom: "inception_4a/output"
  top: "inception_4b/3x3_reduce"
  param {
    lr_mult: 1
    decay_mult: 1
  }
  param {
    lr_mult: 2
    decay_mult: 0
  }
  convolution_param {
    num_output: 112
    kernel_size: 1
    weight_filler {
      type: "xavier"
      std: 0.09
    }
    bias_filler {
      type: "constant"
      value: 0.2
    }
  }
}
layer {
  name: "inception_4b/relu_3x3_reduce"
  type: "ReLU"
  bottom: "inception_4b/3x3_reduce"
  top: "inception_4b/3x3_reduce"
}
layer {
  name: "inception_4b/3x3"
  type: "Convolution"
  bottom: "inception_4b/3x3_reduce"
  top: "inception_4b/3x3"
  param {
    lr_mult: 1
    decay_mult: 1
  }
  param {
    lr_mult: 2
    decay_mult: 0
  }
  convolution_param {
    num_output: 224
    pad: 1
    kernel_size: 3
    weight_filler {
      type: "xavier"
      std: 0.03
    }
    bias_filler {
      type: "constant"
      value: 0.2
    }
  }
}
layer {
  name: "inception_4b/relu_3x3"
  type: "ReLU"
  bottom: "inception_4b/3x3"
  top: "inception_4b/3x3"
}
layer {
  name: "inception_4b/5x5_reduce"
  type: "Convolution"
  bottom: "inception_4a/output"
  top: "inception_4b/5x5_reduce"
  param {
    lr_mult: 1
    decay_mult: 1
  }
  param {
    lr_mult: 2
    decay_mult: 0
  }
  convolution_param {
    num_output: 24
    kernel_size: 1
    weight_filler {
      type: "xavier"
      std: 0.2
    }
    bias_filler {
      type: "constant"
      value: 0.2
    }
  }
}
layer {
  name: "inception_4b/relu_5x5_reduce"
  type: "ReLU"
  bottom: "inception_4b/5x5_reduce"
  top: "inception_4b/5x5_reduce"
}
layer {
  name: "inception_4b/5x5"
  type: "Convolution"
  bottom: "inception_4b/5x5_reduce"
  top: "inception_4b/5x5"
  param {
    lr_mult: 1
    decay_mult: 1
  }
  param {
    lr_mult: 2
    decay_mult: 0
  }
  convolution_param {
    num_output: 64
    pad: 2
    kernel_size: 5
    weight_filler {
      type: "xavier"
      std: 0.03
    }
    bias_filler {
      type: "constant"
      value: 0.2
    }
  }
}
layer {
  name: "inception_4b/relu_5x5"
  type: "ReLU"
  bottom: "inception_4b/5x5"
  top: "inception_4b/5x5"
}
layer {
  name: "inception_4b/pool"
  type: "Pooling"
  bottom: "inception_4a/output"
  top: "inception_4b/pool"
  pooling_param {
    pool: MAX
    kernel_size: 3
    stride: 1
    pad: 1
  }
}
layer {
  name: "inception_4b/pool_proj"
  type: "Convolution"
  bottom: "inception_4b/pool"
  top: "inception_4b/pool_proj"
  param {
    lr_mult: 1
    decay_mult: 1
  }
  param {
    lr_mult: 2
    decay_mult: 0
  }
  convolution_param {
    num_output: 64
    kernel_size: 1
    weight_filler {
      type: "xavier"
      std: 0.1
    }
    bias_filler {
      type: "constant"
      value: 0.2
    }
  }
}
layer {
  name: "inception_4b/relu_pool_proj"
  type: "ReLU"
  bottom: "inception_4b/pool_proj"
  top: "inception_4b/pool_proj"
}
layer {
  name: "inception_4b/output"
  type: "Concat"
  bottom: "inception_4b/1x1"
  bottom: "inception_4b/3x3"
  bottom: "inception_4b/5x5"
  bottom: "inception_4b/pool_proj"
  top: "inception_4b/output"
}
layer {
  name: "inception_4c/1x1"
  type: "Convolution"
  bottom: "inception_4b/output"
  top: "inception_4c/1x1"
  param {
    lr_mult: 1
    decay_mult: 1
  }
  param {
    lr_mult: 2
    decay_mult: 0
  }
  convolution_param {
    num_output: 128
    kernel_size: 1
    weight_filler {
      type: "xavier"
      std: 0.03
    }
    bias_filler {
      type: "constant"
      value: 0.2
    }
  }
}
layer {
  name: "inception_4c/relu_1x1"
  type: "ReLU"
  bottom: "inception_4c/1x1"
  top: "inception_4c/1x1"
}
layer {
  name: "inception_4c/3x3_reduce"
  type: "Convolution"
  bottom: "inception_4b/output"
  top: "inception_4c/3x3_reduce"
  param {
    lr_mult: 1
    decay_mult: 1
  }
  param {
    lr_mult: 2
    decay_mult: 0
  }
  convolution_param {
    num_output: 128
    kernel_size: 1
    weight_filler {
      type: "xavier"
      std: 0.09
    }
    bias_filler {
      type: "constant"
      value: 0.2
    }
  }
}
layer {
  name: "inception_4c/relu_3x3_reduce"
  type: "ReLU"
  bottom: "inception_4c/3x3_reduce"
  top: "inception_4c/3x3_reduce"
}
layer {
  name: "inception_4c/3x3"
  type: "Convolution"
  bottom: "inception_4c/3x3_reduce"
  top: "inception_4c/3x3"
  param {
    lr_mult: 1
    decay_mult: 1
  }
  param {
    lr_mult: 2
    decay_mult: 0
  }
  convolution_param {
    num_output: 256
    pad: 1
    kernel_size: 3
    weight_filler {
      type: "xavier"
      std: 0.03
    }
    bias_filler {
      type: "constant"
      value: 0.2
    }
  }
}
layer {
  name: "inception_4c/relu_3x3"
  type: "ReLU"
  bottom: "inception_4c/3x3"
  top: "inception_4c/3x3"
}
layer {
  name: "inception_4c/5x5_reduce"
  type: "Convolution"
  bottom: "inception_4b/output"
  top: "inception_4c/5x5_reduce"
  param {
    lr_mult: 1
    decay_mult: 1
  }
  param {
    lr_mult: 2
    decay_mult: 0
  }
  convolution_param {
    num_output: 24
    kernel_size: 1
    weight_filler {
      type: "xavier"
      std: 0.2
    }
    bias_filler {
      type: "constant"
      value: 0.2
    }
  }
}
layer {
  name: "inception_4c/relu_5x5_reduce"
  type: "ReLU"
  bottom: "inception_4c/5x5_reduce"
  top: "inception_4c/5x5_reduce"
}
layer {
  name: "inception_4c/5x5"
  type: "Convolution"
  bottom: "inception_4c/5x5_reduce"
  top: "inception_4c/5x5"
  param {
    lr_mult: 1
    decay_mult: 1
  }
  param {
    lr_mult: 2
    decay_mult: 0
  }
  convolution_param {
    num_output: 64
    pad: 2
    kernel_size: 5
    weight_filler {
      type: "xavier"
      std: 0.03
    }
    bias_filler {
      type: "constant"
      value: 0.2
    }
  }
}
layer {
  name: "inception_4c/relu_5x5"
  type: "ReLU"
  bottom: "inception_4c/5x5"
  top: "inception_4c/5x5"
}
layer {
  name: "inception_4c/pool"
  type: "Pooling"
  bottom: "inception_4b/output"
  top: "inception_4c/pool"
  pooling_param {
    pool: MAX
    kernel_size: 3
    stride: 1
    pad: 1
  }
}
layer {
  name: "inception_4c/pool_proj"
  type: "Convolution"
  bottom: "inception_4c/pool"
  top: "inception_4c/pool_proj"
  param {
    lr_mult: 1
    decay_mult: 1
  }
  param {
    lr_mult: 2
    decay_mult: 0
  }
  convolution_param {
    num_output: 64
    kernel_size: 1
    weight_filler {
      type: "xavier"
      std: 0.1
    }
    bias_filler {
      type: "constant"
      value: 0.2
    }
  }
}
layer {
  name: "inception_4c/relu_pool_proj"
  type: "ReLU"
  bottom: "inception_4c/pool_proj"
  top: "inception_4c/pool_proj"
}
layer {
  name: "inception_4c/output"
  type: "Concat"
  bottom: "inception_4c/1x1"
  bottom: "inception_4c/3x3"
  bottom: "inception_4c/5x5"
  bottom: "inception_4c/pool_proj"
  top: "inception_4c/output"
}
layer {
  name: "inception_4d/1x1"
  type: "Convolution"
  bottom: "inception_4c/output"
  top: "inception_4d/1x1"
  param {
    lr_mult: 1
    decay_mult: 1
  }
  param {
    lr_mult: 2
    decay_mult: 0
  }
  convolution_param {
    num_output: 112
    kernel_size: 1
    weight_filler {
      type: "xavier"
      std: 0.03
    }
    bias_filler {
      type: "constant"
      value: 0.2
    }
  }
}
layer {
  name: "inception_4d/relu_1x1"
  type: "ReLU"
  bottom: "inception_4d/1x1"
  top: "inception_4d/1x1"
}
layer {
  name: "inception_4d/3x3_reduce"
  type: "Convolution"
  bottom: "inception_4c/output"
  top: "inception_4d/3x3_reduce"
  param {
    lr_mult: 1
    decay_mult: 1
  }
  param {
    lr_mult: 2
    decay_mult: 0
  }
  convolution_param {
    num_output: 144
    kernel_size: 1
    weight_filler {
      type: "xavier"
      std: 0.09
    }
    bias_filler {
      type: "constant"
      value: 0.2
    }
  }
}
layer {
  name: "inception_4d/relu_3x3_reduce"
  type: "ReLU"
  bottom: "inception_4d/3x3_reduce"
  top: "inception_4d/3x3_reduce"
}
layer {
  name: "inception_4d/3x3"
  type: "Convolution"
  bottom: "inception_4d/3x3_reduce"
  top: "inception_4d/3x3"
  param {
    lr_mult: 1
    decay_mult: 1
  }
  param {
    lr_mult: 2
    decay_mult: 0
  }
  convolution_param {
    num_output: 288
    pad: 1
    kernel_size: 3
    weight_filler {
      type: "xavier"
      std: 0.03
    }
    bias_filler {
      type: "constant"
      value: 0.2
    }
  }
}
layer {
  name: "inception_4d/relu_3x3"
  type: "ReLU"
  bottom: "inception_4d/3x3"
  top: "inception_4d/3x3"
}
layer {
  name: "inception_4d/5x5_reduce"
  type: "Convolution"
  bottom: "inception_4c/output"
  top: "inception_4d/5x5_reduce"
  param {
    lr_mult: 1
    decay_mult: 1
  }
  param {
    lr_mult: 2
    decay_mult: 0
  }
  convolution_param {
    num_output: 32
    kernel_size: 1
    weight_filler {
      type: "xavier"
      std: 0.2
    }
    bias_filler {
      type: "constant"
      value: 0.2
    }
  }
}
layer {
  name: "inception_4d/relu_5x5_reduce"
  type: "ReLU"
  bottom: "inception_4d/5x5_reduce"
  top: "inception_4d/5x5_reduce"
}
layer {
  name: "inception_4d/5x5"
  type: "Convolution"
  bottom: "inception_4d/5x5_reduce"
  top: "inception_4d/5x5"
  param {
    lr_mult: 1
    decay_mult: 1
  }
  param {
    lr_mult: 2
    decay_mult: 0
  }
  convolution_param {
    num_output: 64
    pad: 2
    kernel_size: 5
    weight_filler {
      type: "xavier"
      std: 0.03
    }
    bias_filler {
      type: "constant"
      value: 0.2
    }
  }
}
layer {
  name: "inception_4d/relu_5x5"
  type: "ReLU"
  bottom: "inception_4d/5x5"
  top: "inception_4d/5x5"
}
layer {
  name: "inception_4d/pool"
  type: "Pooling"
  bottom: "inception_4c/output"
  top: "inception_4d/pool"
  pooling_param {
    pool: MAX
    kernel_size: 3
    stride: 1
    pad: 1
  }
}
layer {
  name: "inception_4d/pool_proj"
  type: "Convolution"
  bottom: "inception_4d/pool"
  top: "inception_4d/pool_proj"
  param {
    lr_mult: 1
    decay_mult: 1
  }
  param {
    lr_mult: 2
    decay_mult: 0
  }
  convolution_param {
    num_output: 64
    kernel_size: 1
    weight_filler {
      type: "xavier"
      std: 0.1
    }
    bias_filler {
      type: "constant"
      value: 0.2
    }
  }
}
layer {
  name: "inception_4d/relu_pool_proj"
  type: "ReLU"
  bottom: "inception_4d/pool_proj"
  top: "inception_4d/pool_proj"
}
layer {
  name: "inception_4d/output"
  type: "Concat"
  bottom: "inception_4d/1x1"
  bottom: "inception_4d/3x3"
  bottom: "inception_4d/5x5"
  bottom: "inception_4d/pool_proj"
  top: "inception_4d/output"
}
layer {
  name: "loss2/ave_pool"
  type: "Pooling"
  bottom: "inception_4d/output"
  top: "loss2/ave_pool"
  pooling_param {
    pool: AVE
    kernel_size: 5
    stride: 3
  }
}
layer {
  name: "loss2/conv"
  type: "Convolution"
  bottom: "loss2/ave_pool"
  top: "loss2/conv"
  param {
    lr_mult: 1
    decay_mult: 1
  }
  param {
    lr_mult: 2
    decay_mult: 0
  }
  convolution_param {
    num_output: 128
    kernel_size: 1
    weight_filler {
      type: "xavier"
      std: 0.08
    }
    bias_filler {
      type: "constant"
      value: 0.2
    }
  }
}
layer {
  name: "loss2/relu_conv"
  type: "ReLU"
  bottom: "loss2/conv"
  top: "loss2/conv"
}
layer {
  name: "loss2/fc"
  type: "InnerProduct"
  bottom: "loss2/conv"
  top: "loss2/fc"
  param {
    lr_mult: 1
    decay_mult: 1
  }
  param {
    lr_mult: 2
    decay_mult: 0
  }
  inner_product_param {
    num_output: 1024
    weight_filler {
      type: "xavier"
      std: 0.02
    }
    bias_filler {
      type: "constant"
      value: 0.2
    }
  }
}
layer {
  name: "loss2/relu_fc"
  type: "ReLU"
  bottom: "loss2/fc"
  top: "loss2/fc"
}
layer {
  name: "loss2/drop_fc"
  type: "Dropout"
  bottom: "loss2/fc"
  top: "loss2/fc"
  dropout_param {
    dropout_ratio: 0.7
  }
}
layer {
  name: "loss2/classifier_plantvillage"
  type: "InnerProduct"
  bottom: "loss2/fc"
  top: "loss2/classifier_plantvillage"
  param {
    lr_mult: 1
    decay_mult: 1
  }
  param {
    lr_mult: 2
    decay_mult: 0
  }
  inner_product_param {
    num_output: 38
    weight_filler {
      type: "xavier"
      std: 0.0009765625
    }
    bias_filler {
      type: "constant"
      value: 0
    }
  }
}
layer {
  name: "inception_4e/1x1"
  type: "Convolution"
  bottom: "inception_4d/output"
  top: "inception_4e/1x1"
  param {
    lr_mult: 1
    decay_mult: 1
  }
  param {
    lr_mult: 2
    decay_mult: 0
  }
  convolution_param {
    num_output: 256
    kernel_size: 1
    weight_filler {
      type: "xavier"
      std: 0.03
    }
    bias_filler {
      type: "constant"
      value: 0.2
    }
  }
}
layer {
  name: "inception_4e/relu_1x1"
  type: "ReLU"
  bottom: "inception_4e/1x1"
  top: "inception_4e/1x1"
}
layer {
  name: "inception_4e/3x3_reduce"
  type: "Convolution"
  bottom: "inception_4d/output"
  top: "inception_4e/3x3_reduce"
  param {
    lr_mult: 1
    decay_mult: 1
  }
  param {
    lr_mult: 2
    decay_mult: 0
  }
  convolution_param {
    num_output: 160
    kernel_size: 1
    weight_filler {
      type: "xavier"
      std: 0.09
    }
    bias_filler {
      type: "constant"
      value: 0.2
    }
  }
}
layer {
  name: "inception_4e/relu_3x3_reduce"
  type: "ReLU"
  bottom: "inception_4e/3x3_reduce"
  top: "inception_4e/3x3_reduce"
}
layer {
  name: "inception_4e/3x3"
  type: "Convolution"
  bottom: "inception_4e/3x3_reduce"
  top: "inception_4e/3x3"
  param {
    lr_mult: 1
    decay_mult: 1
  }
  param {
    lr_mult: 2
    decay_mult: 0
  }
  convolution_param {
    num_output: 320
    pad: 1
    kernel_size: 3
    weight_filler {
      type: "xavier"
      std: 0.03
    }
    bias_filler {
      type: "constant"
      value: 0.2
    }
  }
}
layer {
  name: "inception_4e/relu_3x3"
  type: "ReLU"
  bottom: "inception_4e/3x3"
  top: "inception_4e/3x3"
}
layer {
  name: "inception_4e/5x5_reduce"
  type: "Convolution"
  bottom: "inception_4d/output"
  top: "inception_4e/5x5_reduce"
  param {
    lr_mult: 1
    decay_mult: 1
  }
  param {
    lr_mult: 2
    decay_mult: 0
  }
  convolution_param {
    num_output: 32
    kernel_size: 1
    weight_filler {
      type: "xavier"
      std: 0.2
    }
    bias_filler {
      type: "constant"
      value: 0.2
    }
  }
}
layer {
  name: "inception_4e/relu_5x5_reduce"
  type: "ReLU"
  bottom: "inception_4e/5x5_reduce"
  top: "inception_4e/5x5_reduce"
}
layer {
  name: "inception_4e/5x5"
  type: "Convolution"
  bottom: "inception_4e/5x5_reduce"
  top: "inception_4e/
I0403 14:02:14.638471   662 layer_factory.hpp:77] Creating layer data
I0403 14:02:14.639096   662 net.cpp:91] Creating Layer data
I0403 14:02:14.639128   662 net.cpp:399] data -> data
I0403 14:02:14.639185   662 net.cpp:399] data -> label
I0403 14:02:14.639224   662 data_transformer.cpp:25] Loading mean file from: /home/mohanty/data/final_dataset/lmdb/grayscale-20-80/mean.binaryproto
I0403 14:02:14.642060   665 db_lmdb.cpp:38] Opened lmdb /home/mohanty/data/final_dataset/lmdb/grayscale-20-80/test_db
I0403 14:02:14.652693   662 data_layer.cpp:41] output data size: 24,3,224,224
I0403 14:02:14.680068   662 net.cpp:141] Setting up data
I0403 14:02:14.680171   662 net.cpp:148] Top shape: 24 3 224 224 (3612672)
I0403 14:02:14.680199   662 net.cpp:148] Top shape: 24 (24)
I0403 14:02:14.680217   662 net.cpp:156] Memory required for data: 14450784
I0403 14:02:14.680245   662 layer_factory.hpp:77] Creating layer label_data_1_split
I0403 14:02:14.680274   662 net.cpp:91] Creating Layer label_data_1_split
I0403 14:02:14.680291   662 net.cpp:425] label_data_1_split <- label
I0403 14:02:14.680325   662 net.cpp:399] label_data_1_split -> label_data_1_split_0
I0403 14:02:14.680354   662 net.cpp:399] label_data_1_split -> label_data_1_split_1
I0403 14:02:14.680376   662 net.cpp:399] label_data_1_split -> label_data_1_split_2
I0403 14:02:14.680398   662 net.cpp:399] label_data_1_split -> label_data_1_split_3
I0403 14:02:14.680418   662 net.cpp:399] label_data_1_split -> label_data_1_split_4
I0403 14:02:14.680439   662 net.cpp:399] label_data_1_split -> label_data_1_split_5
I0403 14:02:14.680460   662 net.cpp:399] label_data_1_split -> label_data_1_split_6
I0403 14:02:14.680481   662 net.cpp:399] label_data_1_split -> label_data_1_split_7
I0403 14:02:14.680502   662 net.cpp:399] label_data_1_split -> label_data_1_split_8
I0403 14:02:14.680524   662 net.cpp:399] label_data_1_split -> label_data_1_split_9
I0403 14:02:14.680644   662 net.cpp:141] Setting up label_data_1_split
I0403 14:02:14.680668   662 net.cpp:148] Top shape: 24 (24)
I0403 14:02:14.680685   662 net.cpp:148] Top shape: 24 (24)
I0403 14:02:14.680702   662 net.cpp:148] Top shape: 24 (24)
I0403 14:02:14.680719   662 net.cpp:148] Top shape: 24 (24)
I0403 14:02:14.680735   662 net.cpp:148] Top shape: 24 (24)
I0403 14:02:14.680752   662 net.cpp:148] Top shape: 24 (24)
I0403 14:02:14.680768   662 net.cpp:148] Top shape: 24 (24)
I0403 14:02:14.680784   662 net.cpp:148] Top shape: 24 (24)
I0403 14:02:14.680800   662 net.cpp:148] Top shape: 24 (24)
I0403 14:02:14.680816   662 net.cpp:148] Top shape: 24 (24)
I0403 14:02:14.680863   662 net.cpp:156] Memory required for data: 14451744
I0403 14:02:14.680881   662 layer_factory.hpp:77] Creating layer conv1/7x7_s2
I0403 14:02:14.680912   662 net.cpp:91] Creating Layer conv1/7x7_s2
I0403 14:02:14.680932   662 net.cpp:425] conv1/7x7_s2 <- data
I0403 14:02:14.680953   662 net.cpp:399] conv1/7x7_s2 -> conv1/7x7_s2
I0403 14:02:14.822126   662 net.cpp:141] Setting up conv1/7x7_s2
I0403 14:02:14.822230   662 net.cpp:148] Top shape: 24 64 112 112 (19267584)
I0403 14:02:14.822252   662 net.cpp:156] Memory required for data: 91522080
I0403 14:02:14.822283   662 layer_factory.hpp:77] Creating layer conv1/relu_7x7
I0403 14:02:14.822312   662 net.cpp:91] Creating Layer conv1/relu_7x7
I0403 14:02:14.822332   662 net.cpp:425] conv1/relu_7x7 <- conv1/7x7_s2
I0403 14:02:14.822352   662 net.cpp:386] conv1/relu_7x7 -> conv1/7x7_s2 (in-place)
I0403 14:02:14.822623   662 net.cpp:141] Setting up conv1/relu_7x7
I0403 14:02:14.822650   662 net.cpp:148] Top shape: 24 64 112 112 (19267584)
I0403 14:02:14.822666   662 net.cpp:156] Memory required for data: 168592416
I0403 14:02:14.822681   662 layer_factory.hpp:77] Creating layer pool1/3x3_s2
I0403 14:02:14.822707   662 net.cpp:91] Creating Layer pool1/3x3_s2
I0403 14:02:14.822726   662 net.cpp:425] pool1/3x3_s2 <- conv1/7x7_s2
I0403 14:02:14.822744   662 net.cpp:399] pool1/3x3_s2 -> pool1/3x3_s2
I0403 14:02:14.822818   662 net.cpp:141] Setting up pool1/3x3_s2
I0403 14:02:14.822841   662 net.cpp:148] Top shape: 24 64 56 56 (4816896)
I0403 14:02:14.822856   662 net.cpp:156] Memory required for data: 187860000
I0403 14:02:14.822871   662 layer_factory.hpp:77] Creating layer pool1/norm1
I0403 14:02:14.822896   662 net.cpp:91] Creating Layer pool1/norm1
I0403 14:02:14.822914   662 net.cpp:425] pool1/norm1 <- pool1/3x3_s2
I0403 14:02:14.822932   662 net.cpp:399] pool1/norm1 -> pool1/norm1
I0403 14:02:14.823225   662 net.cpp:141] Setting up pool1/norm1
I0403 14:02:14.823253   662 net.cpp:148] Top shape: 24 64 56 56 (4816896)
I0403 14:02:14.823268   662 net.cpp:156] Memory required for data: 207127584
I0403 14:02:14.823284   662 layer_factory.hpp:77] Creating layer conv2/3x3_reduce
I0403 14:02:14.823310   662 net.cpp:91] Creating Layer conv2/3x3_reduce
I0403 14:02:14.823328   662 net.cpp:425] conv2/3x3_reduce <- pool1/norm1
I0403 14:02:14.823346   662 net.cpp:399] conv2/3x3_reduce -> conv2/3x3_reduce
I0403 14:02:14.824720   662 net.cpp:141] Setting up conv2/3x3_reduce
I0403 14:02:14.824751   662 net.cpp:148] Top shape: 24 64 56 56 (4816896)
I0403 14:02:14.824769   662 net.cpp:156] Memory required for data: 226395168
I0403 14:02:14.824791   662 layer_factory.hpp:77] Creating layer conv2/relu_3x3_reduce
I0403 14:02:14.824811   662 net.cpp:91] Creating Layer conv2/relu_3x3_reduce
I0403 14:02:14.824828   662 net.cpp:425] conv2/relu_3x3_reduce <- conv2/3x3_reduce
I0403 14:02:14.824847   662 net.cpp:386] conv2/relu_3x3_reduce -> conv2/3x3_reduce (in-place)
I0403 14:02:14.825108   662 net.cpp:141] Setting up conv2/relu_3x3_reduce
I0403 14:02:14.825135   662 net.cpp:148] Top shape: 24 64 56 56 (4816896)
I0403 14:02:14.825152   662 net.cpp:156] Memory required for data: 245662752
I0403 14:02:14.825167   662 layer_factory.hpp:77] Creating layer conv2/3x3
I0403 14:02:14.825220   662 net.cpp:91] Creating Layer conv2/3x3
I0403 14:02:14.825243   662 net.cpp:425] conv2/3x3 <- conv2/3x3_reduce
I0403 14:02:14.825264   662 net.cpp:399] conv2/3x3 -> conv2/3x3
I0403 14:02:14.827608   662 net.cpp:141] Setting up conv2/3x3
I0403 14:02:14.827639   662 net.cpp:148] Top shape: 24 192 56 56 (14450688)
I0403 14:02:14.827656   662 net.cpp:156] Memory required for data: 303465504
I0403 14:02:14.827678   662 layer_factory.hpp:77] Creating layer conv2/relu_3x3
I0403 14:02:14.827697   662 net.cpp:91] Creating Layer conv2/relu_3x3
I0403 14:02:14.827714   662 net.cpp:425] conv2/relu_3x3 <- conv2/3x3
I0403 14:02:14.827733   662 net.cpp:386] conv2/relu_3x3 -> conv2/3x3 (in-place)
I0403 14:02:14.827903   662 net.cpp:141] Setting up conv2/relu_3x3
I0403 14:02:14.827929   662 net.cpp:148] Top shape: 24 192 56 56 (14450688)
I0403 14:02:14.827976   662 net.cpp:156] Memory required for data: 361268256
I0403 14:02:14.827994   662 layer_factory.hpp:77] Creating layer conv2/norm2
I0403 14:02:14.828013   662 net.cpp:91] Creating Layer conv2/norm2
I0403 14:02:14.828030   662 net.cpp:425] conv2/norm2 <- conv2/3x3
I0403 14:02:14.828049   662 net.cpp:399] conv2/norm2 -> conv2/norm2
I0403 14:02:14.828362   662 net.cpp:141] Setting up conv2/norm2
I0403 14:02:14.828392   662 net.cpp:148] Top shape: 24 192 56 56 (14450688)
I0403 14:02:14.828408   662 net.cpp:156] Memory required for data: 419071008
I0403 14:02:14.828423   662 layer_factory.hpp:77] Creating layer pool2/3x3_s2
I0403 14:02:14.828445   662 net.cpp:91] Creating Layer pool2/3x3_s2
I0403 14:02:14.828462   662 net.cpp:425] pool2/3x3_s2 <- conv2/norm2
I0403 14:02:14.828481   662 net.cpp:399] pool2/3x3_s2 -> pool2/3x3_s2
I0403 14:02:14.828538   662 net.cpp:141] Setting up pool2/3x3_s2
I0403 14:02:14.828563   662 net.cpp:148] Top shape: 24 192 28 28 (3612672)
I0403 14:02:14.828580   662 net.cpp:156] Memory required for data: 433521696
I0403 14:02:14.828596   662 layer_factory.hpp:77] Creating layer pool2/3x3_s2_pool2/3x3_s2_0_split
I0403 14:02:14.828616   662 net.cpp:91] Creating Layer pool2/3x3_s2_pool2/3x3_s2_0_split
I0403 14:02:14.828632   662 net.cpp:425] pool2/3x3_s2_pool2/3x3_s2_0_split <- pool2/3x3_s2
I0403 14:02:14.828678   662 net.cpp:399] pool2/3x3_s2_pool2/3x3_s2_0_split -> pool2/3x3_s2_pool2/3x3_s2_0_split_0
I0403 14:02:14.828704   662 net.cpp:399] pool2/3x3_s2_pool2/3x3_s2_0_split -> pool2/3x3_s2_pool2/3x3_s2_0_split_1
I0403 14:02:14.828725   662 net.cpp:399] pool2/3x3_s2_pool2/3x3_s2_0_split -> pool2/3x3_s2_pool2/3x3_s2_0_split_2
I0403 14:02:14.828747   662 net.cpp:399] pool2/3x3_s2_pool2/3x3_s2_0_split -> pool2/3x3_s2_pool2/3x3_s2_0_split_3
I0403 14:02:14.828824   662 net.cpp:141] Setting up pool2/3x3_s2_pool2/3x3_s2_0_split
I0403 14:02:14.828848   662 net.cpp:148] Top shape: 24 192 28 28 (3612672)
I0403 14:02:14.828866   662 net.cpp:148] Top shape: 24 192 28 28 (3612672)
I0403 14:02:14.828882   662 net.cpp:148] Top shape: 24 192 28 28 (3612672)
I0403 14:02:14.828898   662 net.cpp:148] Top shape: 24 192 28 28 (3612672)
I0403 14:02:14.828913   662 net.cpp:156] Memory required for data: 491324448
I0403 14:02:14.828929   662 layer_factory.hpp:77] Creating layer inception_3a/1x1
I0403 14:02:14.828954   662 net.cpp:91] Creating Layer inception_3a/1x1
I0403 14:02:14.828974   662 net.cpp:425] inception_3a/1x1 <- pool2/3x3_s2_pool2/3x3_s2_0_split_0
I0403 14:02:14.828994   662 net.cpp:399] inception_3a/1x1 -> inception_3a/1x1
I0403 14:02:14.830600   662 net.cpp:141] Setting up inception_3a/1x1
I0403 14:02:14.830631   662 net.cpp:148] Top shape: 24 64 28 28 (1204224)
I0403 14:02:14.830647   662 net.cpp:156] Memory required for data: 496141344
I0403 14:02:14.830667   662 layer_factory.hpp:77] Creating layer inception_3a/relu_1x1
I0403 14:02:14.830688   662 net.cpp:91] Creating Layer inception_3a/relu_1x1
I0403 14:02:14.830705   662 net.cpp:425] inception_3a/relu_1x1 <- inception_3a/1x1
I0403 14:02:14.830724   662 net.cpp:386] inception_3a/relu_1x1 -> inception_3a/1x1 (in-place)
I0403 14:02:14.830899   662 net.cpp:141] Setting up inception_3a/relu_1x1
I0403 14:02:14.830927   662 net.cpp:148] Top shape: 24 64 28 28 (1204224)
I0403 14:02:14.830943   662 net.cpp:156] Memory required for data: 500958240
I0403 14:02:14.830960   662 layer_factory.hpp:77] Creating layer inception_3a/3x3_reduce
I0403 14:02:14.830982   662 net.cpp:91] Creating Layer inception_3a/3x3_reduce
I0403 14:02:14.831001   662 net.cpp:425] inception_3a/3x3_reduce <- pool2/3x3_s2_pool2/3x3_s2_0_split_1
I0403 14:02:14.831020   662 net.cpp:399] inception_3a/3x3_reduce -> inception_3a/3x3_reduce
I0403 14:02:14.832789   662 net.cpp:141] Setting up inception_3a/3x3_reduce
I0403 14:02:14.832819   662 net.cpp:148] Top shape: 24 96 28 28 (1806336)
I0403 14:02:14.832835   662 net.cpp:156] Memory required for data: 508183584
I0403 14:02:14.832857   662 layer_factory.hpp:77] Creating layer inception_3a/relu_3x3_reduce
I0403 14:02:14.832898   662 net.cpp:91] Creating Layer inception_3a/relu_3x3_reduce
I0403 14:02:14.832917   662 net.cpp:425] inception_3a/relu_3x3_reduce <- inception_3a/3x3_reduce
I0403 14:02:14.832938   662 net.cpp:386] inception_3a/relu_3x3_reduce -> inception_3a/3x3_reduce (in-place)
I0403 14:02:14.833120   662 net.cpp:141] Setting up inception_3a/relu_3x3_reduce
I0403 14:02:14.833145   662 net.cpp:148] Top shape: 24 96 28 28 (1806336)
I0403 14:02:14.833173   662 net.cpp:156] Memory required for data: 515408928
I0403 14:02:14.833197   662 layer_factory.hpp:77] Creating layer inception_3a/3x3
I0403 14:02:14.833230   662 net.cpp:91] Creating Layer inception_3a/3x3
I0403 14:02:14.833250   662 net.cpp:425] inception_3a/3x3 <- inception_3a/3x3_reduce
I0403 14:02:14.833272   662 net.cpp:399] inception_3a/3x3 -> inception_3a/3x3
I0403 14:02:14.834991   662 net.cpp:141] Setting up inception_3a/3x3
I0403 14:02:14.835023   662 net.cpp:148] Top shape: 24 128 28 28 (2408448)
I0403 14:02:14.835041   662 net.cpp:156] Memory required for data: 525042720
I0403 14:02:14.835059   662 layer_factory.hpp:77] Creating layer inception_3a/relu_3x3
I0403 14:02:14.835078   662 net.cpp:91] Creating Layer inception_3a/relu_3x3
I0403 14:02:14.835094   662 net.cpp:425] inception_3a/relu_3x3 <- inception_3a/3x3
I0403 14:02:14.835113   662 net.cpp:386] inception_3a/relu_3x3 -> inception_3a/3x3 (in-place)
I0403 14:02:14.835397   662 net.cpp:141] Setting up inception_3a/relu_3x3
I0403 14:02:14.835425   662 net.cpp:148] Top shape: 24 128 28 28 (2408448)
I0403 14:02:14.835441   662 net.cpp:156] Memory required for data: 534676512
I0403 14:02:14.835456   662 layer_factory.hpp:77] Creating layer inception_3a/5x5_reduce
I0403 14:02:14.835479   662 net.cpp:91] Creating Layer inception_3a/5x5_reduce
I0403 14:02:14.835496   662 net.cpp:425] inception_3a/5x5_reduce <- pool2/3x3_s2_pool2/3x3_s2_0_split_2
I0403 14:02:14.835515   662 net.cpp:399] inception_3a/5x5_reduce -> inception_3a/5x5_reduce
I0403 14:02:14.836490   662 net.cpp:141] Setting up inception_3a/5x5_reduce
I0403 14:02:14.836520   662 net.cpp:148] Top shape: 24 16 28 28 (301056)
I0403 14:02:14.836537   662 net.cpp:156] Memory required for data: 535880736
I0403 14:02:14.836556   662 layer_factory.hpp:77] Creating layer inception_3a/relu_5x5_reduce
I0403 14:02:14.836577   662 net.cpp:91] Creating Layer inception_3a/relu_5x5_reduce
I0403 14:02:14.836594   662 net.cpp:425] inception_3a/relu_5x5_reduce <- inception_3a/5x5_reduce
I0403 14:02:14.836614   662 net.cpp:386] inception_3a/relu_5x5_reduce -> inception_3a/5x5_reduce (in-place)
I0403 14:02:14.836911   662 net.cpp:141] Setting up inception_3a/relu_5x5_reduce
I0403 14:02:14.836937   662 net.cpp:148] Top shape: 24 16 28 28 (301056)
I0403 14:02:14.836953   662 net.cpp:156] Memory required for data: 537084960
I0403 14:02:14.836968   662 layer_factory.hpp:77] Creating layer inception_3a/5x5
I0403 14:02:14.836992   662 net.cpp:91] Creating Layer inception_3a/5x5
I0403 14:02:14.837009   662 net.cpp:425] inception_3a/5x5 <- inception_3a/5x5_reduce
I0403 14:02:14.837030   662 net.cpp:399] inception_3a/5x5 -> inception_3a/5x5
I0403 14:02:14.838049   662 net.cpp:141] Setting up inception_3a/5x5
I0403 14:02:14.838078   662 net.cpp:148] Top shape: 24 32 28 28 (602112)
I0403 14:02:14.838098   662 net.cpp:156] Memory required for data: 539493408
I0403 14:02:14.838117   662 layer_factory.hpp:77] Creating layer inception_3a/relu_5x5
I0403 14:02:14.838135   662 net.cpp:91] Creating Layer inception_3a/relu_5x5
I0403 14:02:14.838152   662 net.cpp:425] inception_3a/relu_5x5 <- inception_3a/5x5
I0403 14:02:14.838170   662 net.cpp:386] inception_3a/relu_5x5 -> inception_3a/5x5 (in-place)
I0403 14:02:14.838352   662 net.cpp:141] Setting up inception_3a/relu_5x5
I0403 14:02:14.838379   662 net.cpp:148] Top shape: 24 32 28 28 (602112)
I0403 14:02:14.838394   662 net.cpp:156] Memory required for data: 541901856
I0403 14:02:14.838409   662 layer_factory.hpp:77] Creating layer inception_3a/pool
I0403 14:02:14.838428   662 net.cpp:91] Creating Layer inception_3a/pool
I0403 14:02:14.838459   662 net.cpp:425] inception_3a/pool <- pool2/3x3_s2_pool2/3x3_s2_0_split_3
I0403 14:02:14.838484   662 net.cpp:399] inception_3a/pool -> inception_3a/pool
I0403 14:02:14.838541   662 net.cpp:141] Setting up inception_3a/pool
I0403 14:02:14.838567   662 net.cpp:148] Top shape: 24 192 28 28 (3612672)
I0403 14:02:14.838582   662 net.cpp:156] Memory required for data: 556352544
I0403 14:02:14.838598   662 layer_factory.hpp:77] Creating layer inception_3a/pool_proj
I0403 14:02:14.838618   662 net.cpp:91] Creating Layer inception_3a/pool_proj
I0403 14:02:14.838634   662 net.cpp:425] inception_3a/pool_proj <- inception_3a/pool
I0403 14:02:14.838659   662 net.cpp:399] inception_3a/pool_proj -> inception_3a/pool_proj
I0403 14:02:14.839633   662 net.cpp:141] Setting up inception_3a/pool_proj
I0403 14:02:14.839661   662 net.cpp:148] Top shape: 24 32 28 28 (602112)
I0403 14:02:14.839678   662 net.cpp:156] Memory required for data: 558760992
I0403 14:02:14.839702   662 layer_factory.hpp:77] Creating layer inception_3a/relu_pool_proj
I0403 14:02:14.839723   662 net.cpp:91] Creating Layer inception_3a/relu_pool_proj
I0403 14:02:14.839740   662 net.cpp:425] inception_3a/relu_pool_proj <- inception_3a/pool_proj
I0403 14:02:14.839761   662 net.cpp:386] inception_3a/relu_pool_proj -> inception_3a/pool_proj (in-place)
I0403 14:02:14.840039   662 net.cpp:141] Setting up inception_3a/relu_pool_proj
I0403 14:02:14.840067   662 net.cpp:148] Top shape: 24 32 28 28 (602112)
I0403 14:02:14.840085   662 net.cpp:156] Memory required for data: 561169440
I0403 14:02:14.840100   662 layer_factory.hpp:77] Creating layer inception_3a/output
I0403 14:02:14.840118   662 net.cpp:91] Creating Layer inception_3a/output
I0403 14:02:14.840134   662 net.cpp:425] inception_3a/output <- inception_3a/1x1
I0403 14:02:14.840152   662 net.cpp:425] inception_3a/output <- inception_3a/3x3
I0403 14:02:14.840167   662 net.cpp:425] inception_3a/output <- inception_3a/5x5
I0403 14:02:14.840193   662 net.cpp:425] inception_3a/output <- inception_3a/pool_proj
I0403 14:02:14.840211   662 net.cpp:399] inception_3a/output -> inception_3a/output
I0403 14:02:14.840260   662 net.cpp:141] Setting up inception_3a/output
I0403 14:02:14.840284   662 net.cpp:148] Top shape: 24 256 28 28 (4816896)
I0403 14:02:14.840299   662 net.cpp:156] Memory required for data: 580437024
I0403 14:02:14.840313   662 layer_factory.hpp:77] Creating layer inception_3a/output_inception_3a/output_0_split
I0403 14:02:14.840333   662 net.cpp:91] Creating Layer inception_3a/output_inception_3a/output_0_split
I0403 14:02:14.840350   662 net.cpp:425] inception_3a/output_inception_3a/output_0_split <- inception_3a/output
I0403 14:02:14.840368   662 net.cpp:399] inception_3a/output_inception_3a/output_0_split -> inception_3a/output_inception_3a/output_0_split_0
I0403 14:02:14.840389   662 net.cpp:399] inception_3a/output_inception_3a/output_0_split -> inception_3a/output_inception_3a/output_0_split_1
I0403 14:02:14.840414   662 net.cpp:399] inception_3a/output_inception_3a/output_0_split -> inception_3a/output_inception_3a/output_0_split_2
I0403 14:02:14.840436   662 net.cpp:399] inception_3a/output_inception_3a/output_0_split -> inception_3a/output_inception_3a/output_0_split_3
I0403 14:02:14.840512   662 net.cpp:141] Setting up inception_3a/output_inception_3a/output_0_split
I0403 14:02:14.840535   662 net.cpp:148] Top shape: 24 256 28 28 (4816896)
I0403 14:02:14.840553   662 net.cpp:148] Top shape: 24 256 28 28 (4816896)
I0403 14:02:14.840569   662 net.cpp:148] Top shape: 24 256 28 28 (4816896)
I0403 14:02:14.840584   662 net.cpp:148] Top shape: 24 256 28 28 (4816896)
I0403 14:02:14.840597   662 net.cpp:156] Memory required for data: 657507360
I0403 14:02:14.840612   662 layer_factory.hpp:77] Creating layer inception_3b/1x1
I0403 14:02:14.840636   662 net.cpp:91] Creating Layer inception_3b/1x1
I0403 14:02:14.840653   662 net.cpp:425] inception_3b/1x1 <- inception_3a/output_inception_3a/output_0_split_0
I0403 14:02:14.840672   662 net.cpp:399] inception_3b/1x1 -> inception_3b/1x1
I0403 14:02:14.841819   662 net.cpp:141] Setting up inception_3b/1x1
I0403 14:02:14.841858   662 net.cpp:148] Top shape: 24 128 28 28 (2408448)
I0403 14:02:14.841876   662 net.cpp:156] Memory required for data: 667141152
I0403 14:02:14.841894   662 layer_factory.hpp:77] Creating layer inception_3b/relu_1x1
I0403 14:02:14.841915   662 net.cpp:91] Creating Layer inception_3b/relu_1x1
I0403 14:02:14.841933   662 net.cpp:425] inception_3b/relu_1x1 <- inception_3b/1x1
I0403 14:02:14.841950   662 net.cpp:386] inception_3b/relu_1x1 -> inception_3b/1x1 (in-place)
I0403 14:02:14.842125   662 net.cpp:141] Setting up inception_3b/relu_1x1
I0403 14:02:14.842154   662 net.cpp:148] Top shape: 24 128 28 28 (2408448)
I0403 14:02:14.842169   662 net.cpp:156] Memory required for data: 676774944
I0403 14:02:14.842197   662 layer_factory.hpp:77] Creating layer inception_3b/3x3_reduce
I0403 14:02:14.842226   662 net.cpp:91] Creating Layer inception_3b/3x3_reduce
I0403 14:02:14.842244   662 net.cpp:425] inception_3b/3x3_reduce <- inception_3a/output_inception_3a/output_0_split_1
I0403 14:02:14.842264   662 net.cpp:399] inception_3b/3x3_reduce -> inception_3b/3x3_reduce
I0403 14:02:14.843412   662 net.cpp:141] Setting up inception_3b/3x3_reduce
I0403 14:02:14.843441   662 net.cpp:148] Top shape: 24 128 28 28 (2408448)
I0403 14:02:14.843456   662 net.cpp:156] Memory required for data: 686408736
I0403 14:02:14.843475   662 layer_factory.hpp:77] Creating layer inception_3b/relu_3x3_reduce
I0403 14:02:14.843497   662 net.cpp:91] Creating Layer inception_3b/relu_3x3_reduce
I0403 14:02:14.843513   662 net.cpp:425] inception_3b/relu_3x3_reduce <- inception_3b/3x3_reduce
I0403 14:02:14.843531   662 net.cpp:386] inception_3b/relu_3x3_reduce -> inception_3b/3x3_reduce (in-place)
I0403 14:02:14.843720   662 net.cpp:141] Setting up inception_3b/relu_3x3_reduce
I0403 14:02:14.843747   662 net.cpp:148] Top shape: 24 128 28 28 (2408448)
I0403 14:02:14.843762   662 net.cpp:156] Memory required for data: 696042528
I0403 14:02:14.843777   662 layer_factory.hpp:77] Creating layer inception_3b/3x3
I0403 14:02:14.843801   662 net.cpp:91] Creating Layer inception_3b/3x3
I0403 14:02:14.843819   662 net.cpp:425] inception_3b/3x3 <- inception_3b/3x3_reduce
I0403 14:02:14.843840   662 net.cpp:399] inception_3b/3x3 -> inception_3b/3x3
I0403 14:02:14.846731   662 net.cpp:141] Setting up inception_3b/3x3
I0403 14:02:14.846762   662 net.cpp:148] Top shape: 24 192 28 28 (3612672)
I0403 14:02:14.846779   662 net.cpp:156] Memory required for data: 710493216
I0403 14:02:14.846798   662 layer_factory.hpp:77] Creating layer inception_3b/relu_3x3
I0403 14:02:14.846817   662 net.cpp:91] Creating Layer inception_3b/relu_3x3
I0403 14:02:14.846833   662 net.cpp:425] inception_3b/relu_3x3 <- inception_3b/3x3
I0403 14:02:14.846850   662 net.cpp:386] inception_3b/relu_3x3 -> inception_3b/3x3 (in-place)
I0403 14:02:14.847129   662 net.cpp:141] Setting up inception_3b/relu_3x3
I0403 14:02:14.847157   662 net.cpp:148] Top shape: 24 192 28 28 (3612672)
I0403 14:02:14.847173   662 net.cpp:156] Memory required for data: 724943904
I0403 14:02:14.847195   662 layer_factory.hpp:77] Creating layer inception_3b/5x5_reduce
I0403 14:02:14.847218   662 net.cpp:91] Creating Layer inception_3b/5x5_reduce
I0403 14:02:14.847236   662 net.cpp:425] inception_3b/5x5_reduce <- inception_3a/output_inception_3a/output_0_split_2
I0403 14:02:14.847256   662 net.cpp:399] inception_3b/5x5_reduce -> inception_3b/5x5_reduce
I0403 14:02:14.848244   662 net.cpp:141] Setting up inception_3b/5x5_reduce
I0403 14:02:14.848273   662 net.cpp:148] Top shape: 24 32 28 28 (602112)
I0403 14:02:14.848289   662 net.cpp:156] Memory required for data: 727352352
I0403 14:02:14.848309   662 layer_factory.hpp:77] Creating layer inception_3b/relu_5x5_reduce
I0403 14:02:14.848325   662 net.cpp:91] Creating Layer inception_3b/relu_5x5_reduce
I0403 14:02:14.848342   662 net.cpp:425] inception_3b/relu_5x5_reduce <- inception_3b/5x5_reduce
I0403 14:02:14.848359   662 net.cpp:386] inception_3b/relu_5x5_reduce -> inception_3b/5x5_reduce (in-place)
I0403 14:02:14.848546   662 net.cpp:141] Setting up inception_3b/relu_5x5_reduce
I0403 14:02:14.848572   662 net.cpp:148] Top shape: 24 32 28 28 (602112)
I0403 14:02:14.848588   662 net.cpp:156] Memory required for data: 729760800
I0403 14:02:14.848603   662 layer_factory.hpp:77] Creating layer inception_3b/5x5
I0403 14:02:14.848624   662 net.cpp:91] Creating Layer inception_3b/5x5
I0403 14:02:14.848641   662 net.cpp:425] inception_3b/5x5 <- inception_3b/5x5_reduce
I0403 14:02:14.848662   662 net.cpp:399] inception_3b/5x5 -> inception_3b/5x5
I0403 14:02:14.850615   662 net.cpp:141] Setting up inception_3b/5x5
I0403 14:02:14.850644   662 net.cpp:148] Top shape: 24 96 28 28 (1806336)
I0403 14:02:14.850659   662 net.cpp:156] Memory required for data: 736986144
I0403 14:02:14.850677   662 layer_factory.hpp:77] Creating layer inception_3b/relu_5x5
I0403 14:02:14.850698   662 net.cpp:91] Creating Layer inception_3b/relu_5x5
I0403 14:02:14.850715   662 net.cpp:425] inception_3b/relu_5x5 <- inception_3b/5x5
I0403 14:02:14.850733   662 net.cpp:386] inception_3b/relu_5x5 -> inception_3b/5x5 (in-place)
I0403 14:02:14.850919   662 net.cpp:141] Setting up inception_3b/relu_5x5
I0403 14:02:14.850944   662 net.cpp:148] Top shape: 24 96 28 28 (1806336)
I0403 14:02:14.850957   662 net.cpp:156] Memory required for data: 744211488
I0403 14:02:14.850972   662 layer_factory.hpp:77] Creating layer inception_3b/pool
I0403 14:02:14.850991   662 net.cpp:91] Creating Layer inception_3b/pool
I0403 14:02:14.851006   662 net.cpp:425] inception_3b/pool <- inception_3a/output_inception_3a/output_0_split_3
I0403 14:02:14.851023   662 net.cpp:399] inception_3b/pool -> inception_3b/pool
I0403 14:02:14.851078   662 net.cpp:141] Setting up inception_3b/pool
I0403 14:02:14.851100   662 net.cpp:148] Top shape: 24 256 28 28 (4816896)
I0403 14:02:14.851114   662 net.cpp:156] Memory required for data: 763479072
I0403 14:02:14.851130   662 layer_factory.hpp:77] Creating layer inception_3b/pool_proj
I0403 14:02:14.851151   662 net.cpp:91] Creating Layer inception_3b/pool_proj
I0403 14:02:14.851169   662 net.cpp:425] inception_3b/pool_proj <- inception_3b/pool
I0403 14:02:14.851197   662 net.cpp:399] inception_3b/pool_proj -> inception_3b/pool_proj
I0403 14:02:14.852247   662 net.cpp:141] Setting up inception_3b/pool_proj
I0403 14:02:14.852275   662 net.cpp:148] Top shape: 24 64 28 28 (1204224)
I0403 14:02:14.852291   662 net.cpp:156] Memory required for data: 768295968
I0403 14:02:14.852310   662 layer_factory.hpp:77] Creating layer inception_3b/relu_pool_proj
I0403 14:02:14.852327   662 net.cpp:91] Creating Layer inception_3b/relu_pool_proj
I0403 14:02:14.852344   662 net.cpp:425] inception_3b/relu_pool_proj <- inception_3b/pool_proj
I0403 14:02:14.852363   662 net.cpp:386] inception_3b/relu_pool_proj -> inception_3b/pool_proj (in-place)
I0403 14:02:14.852757   662 net.cpp:141] Setting up inception_3b/relu_pool_proj
I0403 14:02:14.852784   662 net.cpp:148] Top shape: 24 64 28 28 (1204224)
I0403 14:02:14.852798   662 net.cpp:156] Memory required for data: 773112864
I0403 14:02:14.852814   662 layer_factory.hpp:77] Creating layer inception_3b/output
I0403 14:02:14.852831   662 net.cpp:91] Creating Layer inception_3b/output
I0403 14:02:14.852846   662 net.cpp:425] inception_3b/output <- inception_3b/1x1
I0403 14:02:14.852864   662 net.cpp:425] inception_3b/output <- inception_3b/3x3
I0403 14:02:14.852880   662 net.cpp:425] inception_3b/output <- inception_3b/5x5
I0403 14:02:14.852895   662 net.cpp:425] inception_3b/output <- inception_3b/pool_proj
I0403 14:02:14.852915   662 net.cpp:399] inception_3b/output -> inception_3b/output
I0403 14:02:14.852957   662 net.cpp:141] Setting up inception_3b/output
I0403 14:02:14.852980   662 net.cpp:148] Top shape: 24 480 28 28 (9031680)
I0403 14:02:14.852998   662 net.cpp:156] Memory required for data: 809239584
I0403 14:02:14.853013   662 layer_factory.hpp:77] Creating layer pool3/3x3_s2
I0403 14:02:14.853029   662 net.cpp:91] Creating Layer pool3/3x3_s2
I0403 14:02:14.853045   662 net.cpp:425] pool3/3x3_s2 <- inception_3b/output
I0403 14:02:14.853078   662 net.cpp:399] pool3/3x3_s2 -> pool3/3x3_s2
I0403 14:02:14.853137   662 net.cpp:141] Setting up pool3/3x3_s2
I0403 14:02:14.853160   662 net.cpp:148] Top shape: 24 480 14 14 (2257920)
I0403 14:02:14.853174   662 net.cpp:156] Memory required for data: 818271264
I0403 14:02:14.853198   662 layer_factory.hpp:77] Creating layer pool3/3x3_s2_pool3/3x3_s2_0_split
I0403 14:02:14.853215   662 net.cpp:91] Creating Layer pool3/3x3_s2_pool3/3x3_s2_0_split
I0403 14:02:14.853231   662 net.cpp:425] pool3/3x3_s2_pool3/3x3_s2_0_split <- pool3/3x3_s2
I0403 14:02:14.853250   662 net.cpp:399] pool3/3x3_s2_pool3/3x3_s2_0_split -> pool3/3x3_s2_pool3/3x3_s2_0_split_0
I0403 14:02:14.853271   662 net.cpp:399] pool3/3x3_s2_pool3/3x3_s2_0_split -> pool3/3x3_s2_pool3/3x3_s2_0_split_1
I0403 14:02:14.853289   662 net.cpp:399] pool3/3x3_s2_pool3/3x3_s2_0_split -> pool3/3x3_s2_pool3/3x3_s2_0_split_2
I0403 14:02:14.853309   662 net.cpp:399] pool3/3x3_s2_pool3/3x3_s2_0_split -> pool3/3x3_s2_pool3/3x3_s2_0_split_3
I0403 14:02:14.853386   662 net.cpp:141] Setting up pool3/3x3_s2_pool3/3x3_s2_0_split
I0403 14:02:14.853409   662 net.cpp:148] Top shape: 24 480 14 14 (2257920)
I0403 14:02:14.853425   662 net.cpp:148] Top shape: 24 480 14 14 (2257920)
I0403 14:02:14.853440   662 net.cpp:148] Top shape: 24 480 14 14 (2257920)
I0403 14:02:14.853456   662 net.cpp:148] Top shape: 24 480 14 14 (2257920)
I0403 14:02:14.853471   662 net.cpp:156] Memory required for data: 854397984
I0403 14:02:14.853484   662 layer_factory.hpp:77] Creating layer inception_4a/1x1
I0403 14:02:14.853507   662 net.cpp:91] Creating Layer inception_4a/1x1
I0403 14:02:14.853523   662 net.cpp:425] inception_4a/1x1 <- pool3/3x3_s2_pool3/3x3_s2_0_split_0
I0403 14:02:14.853545   662 net.cpp:399] inception_4a/1x1 -> inception_4a/1x1
I0403 14:02:14.855096   662 net.cpp:141] Setting up inception_4a/1x1
I0403 14:02:14.855124   662 net.cpp:148] Top shape: 24 192 14 14 (903168)
I0403 14:02:14.855141   662 net.cpp:156] Memory required for data: 858010656
I0403 14:02:14.855171   662 layer_factory.hpp:77] Creating layer inception_4a/relu_1x1
I0403 14:02:14.855201   662 net.cpp:91] Creating Layer inception_4a/relu_1x1
I0403 14:02:14.855229   662 net.cpp:425] inception_4a/relu_1x1 <- inception_4a/1x1
I0403 14:02:14.855247   662 net.cpp:386] inception_4a/relu_1x1 -> inception_4a/1x1 (in-place)
I0403 14:02:14.855419   662 net.cpp:141] Setting up inception_4a/relu_1x1
I0403 14:02:14.855443   662 net.cpp:148] Top shape: 24 192 14 14 (903168)
I0403 14:02:14.855458   662 net.cpp:156] Memory required for data: 861623328
I0403 14:02:14.855473   662 layer_factory.hpp:77] Creating layer inception_4a/3x3_reduce
I0403 14:02:14.855495   662 net.cpp:91] Creating Layer inception_4a/3x3_reduce
I0403 14:02:14.855515   662 net.cpp:425] inception_4a/3x3_reduce <- pool3/3x3_s2_pool3/3x3_s2_0_split_1
I0403 14:02:14.855541   662 net.cpp:399] inception_4a/3x3_reduce -> inception_4a/3x3_reduce
I0403 14:02:14.856835   662 net.cpp:141] Setting up inception_4a/3x3_reduce
I0403 14:02:14.856863   662 net.cpp:148] Top shape: 24 96 14 14 (451584)
I0403 14:02:14.856878   662 net.cpp:156] Memory required for data: 863429664
I0403 14:02:14.856904   662 layer_factory.hpp:77] Creating layer inception_4a/relu_3x3_reduce
I0403 14:02:14.856922   662 net.cpp:91] Creating Layer inception_4a/relu_3x3_reduce
I0403 14:02:14.856938   662 net.cpp:425] inception_4a/relu_3x3_reduce <- inception_4a/3x3_reduce
I0403 14:02:14.856958   662 net.cpp:386] inception_4a/relu_3x3_reduce -> inception_4a/3x3_reduce (in-place)
I0403 14:02:14.857131   662 net.cpp:141] Setting up inception_4a/relu_3x3_reduce
I0403 14:02:14.857154   662 net.cpp:148] Top shape: 24 96 14 14 (451584)
I0403 14:02:14.857172   662 net.cpp:156] Memory required for data: 865236000
I0403 14:02:14.857195   662 layer_factory.hpp:77] Creating layer inception_4a/3x3
I0403 14:02:14.857218   662 net.cpp:91] Creating Layer inception_4a/3x3
I0403 14:02:14.857235   662 net.cpp:425] inception_4a/3x3 <- inception_4a/3x3_reduce
I0403 14:02:14.857257   662 net.cpp:399] inception_4a/3x3 -> inception_4a/3x3
I0403 14:02:14.859967   662 net.cpp:141] Setting up inception_4a/3x3
I0403 14:02:14.859997   662 net.cpp:148] Top shape: 24 208 14 14 (978432)
I0403 14:02:14.860024   662 net.cpp:156] Memory required for data: 869149728
I0403 14:02:14.860043   662 layer_factory.hpp:77] Creating layer inception_4a/relu_3x3
I0403 14:02:14.860062   662 net.cpp:91] Creating Layer inception_4a/relu_3x3
I0403 14:02:14.860080   662 net.cpp:425] inception_4a/relu_3x3 <- inception_4a/3x3
I0403 14:02:14.860096   662 net.cpp:386] inception_4a/relu_3x3 -> inception_4a/3x3 (in-place)
I0403 14:02:14.860381   662 net.cpp:141] Setting up inception_4a/relu_3x3
I0403 14:02:14.860406   662 net.cpp:148] Top shape: 24 208 14 14 (978432)
I0403 14:02:14.860421   662 net.cpp:156] Memory required for data: 873063456
I0403 14:02:14.860436   662 layer_factory.hpp:77] Creating layer inception_4a/5x5_reduce
I0403 14:02:14.860458   662 net.cpp:91] Creating Layer inception_4a/5x5_reduce
I0403 14:02:14.860476   662 net.cpp:425] inception_4a/5x5_reduce <- pool3/3x3_s2_pool3/3x3_s2_0_split_2
I0403 14:02:14.860496   662 net.cpp:399] inception_4a/5x5_reduce -> inception_4a/5x5_reduce
I0403 14:02:14.861539   662 net.cpp:141] Setting up inception_4a/5x5_reduce
I0403 14:02:14.861567   662 net.cpp:148] Top shape: 24 16 14 14 (75264)
I0403 14:02:14.861588   662 net.cpp:156] Memory required for data: 873364512
I0403 14:02:14.861605   662 layer_factory.hpp:77] Creating layer inception_4a/relu_5x5_reduce
I0403 14:02:14.861624   662 net.cpp:91] Creating Layer inception_4a/relu_5x5_reduce
I0403 14:02:14.861640   662 net.cpp:425] inception_4a/relu_5x5_reduce <- inception_4a/5x5_reduce
I0403 14:02:14.861657   662 net.cpp:386] inception_4a/relu_5x5_reduce -> inception_4a/5x5_reduce (in-place)
I0403 14:02:14.861840   662 net.cpp:141] Setting up inception_4a/relu_5x5_reduce
I0403 14:02:14.861866   662 net.cpp:148] Top shape: 24 16 14 14 (75264)
I0403 14:02:14.861881   662 net.cpp:156] Memory required for data: 873665568
I0403 14:02:14.861896   662 layer_factory.hpp:77] Creating layer inception_4a/5x5
I0403 14:02:14.861919   662 net.cpp:91] Creating Layer inception_4a/5x5
I0403 14:02:14.861937   662 net.cpp:425] inception_4a/5x5 <- inception_4a/5x5_reduce
I0403 14:02:14.861956   662 net.cpp:399] inception_4a/5x5 -> inception_4a/5x5
I0403 14:02:14.863092   662 net.cpp:141] Setting up inception_4a/5x5
I0403 14:02:14.863119   662 net.cpp:148] Top shape: 24 48 14 14 (225792)
I0403 14:02:14.863136   662 net.cpp:156] Memory required for data: 874568736
I0403 14:02:14.863154   662 layer_factory.hpp:77] Creating layer inception_4a/relu_5x5
I0403 14:02:14.863173   662 net.cpp:91] Creating Layer inception_4a/relu_5x5
I0403 14:02:14.863196   662 net.cpp:425] inception_4a/relu_5x5 <- inception_4a/5x5
I0403 14:02:14.863217   662 net.cpp:386] inception_4a/relu_5x5 -> inception_4a/5x5 (in-place)
I0403 14:02:14.863402   662 net.cpp:141] Setting up inception_4a/relu_5x5
I0403 14:02:14.863427   662 net.cpp:148] Top shape: 24 48 14 14 (225792)
I0403 14:02:14.863442   662 net.cpp:156] Memory required for data: 875471904
I0403 14:02:14.863457   662 layer_factory.hpp:77] Creating layer inception_4a/pool
I0403 14:02:14.863478   662 net.cpp:91] Creating Layer inception_4a/pool
I0403 14:02:14.863497   662 net.cpp:425] inception_4a/pool <- pool3/3x3_s2_pool3/3x3_s2_0_split_3
I0403 14:02:14.863515   662 net.cpp:399] inception_4a/pool -> inception_4a/pool
I0403 14:02:14.863579   662 net.cpp:141] Setting up inception_4a/pool
I0403 14:02:14.863601   662 net.cpp:148] Top shape: 24 480 14 14 (2257920)
I0403 14:02:14.863616   662 net.cpp:156] Memory required for data: 884503584
I0403 14:02:14.863631   662 layer_factory.hpp:77] Creating layer inception_4a/pool_proj
I0403 14:02:14.863654   662 net.cpp:91] Creating Layer inception_4a/pool_proj
I0403 14:02:14.863672   662 net.cpp:425] inception_4a/pool_proj <- inception_4a/pool
I0403 14:02:14.863693   662 net.cpp:399] inception_4a/pool_proj -> inception_4a/pool_proj
I0403 14:02:14.864889   662 net.cpp:141] Setting up inception_4a/pool_proj
I0403 14:02:14.864917   662 net.cpp:148] Top shape: 24 64 14 14 (301056)
I0403 14:02:14.864948   662 net.cpp:156] Memory required for data: 885707808
I0403 14:02:14.864969   662 layer_factory.hpp:77] Creating layer inception_4a/relu_pool_proj
I0403 14:02:14.864986   662 net.cpp:91] Creating Layer inception_4a/relu_pool_proj
I0403 14:02:14.865002   662 net.cpp:425] inception_4a/relu_pool_proj <- inception_4a/pool_proj
I0403 14:02:14.865022   662 net.cpp:386] inception_4a/relu_pool_proj -> inception_4a/pool_proj (in-place)
I0403 14:02:14.865309   662 net.cpp:141] Setting up inception_4a/relu_pool_proj
I0403 14:02:14.865335   662 net.cpp:148] Top shape: 24 64 14 14 (301056)
I0403 14:02:14.865350   662 net.cpp:156] Memory required for data: 886912032
I0403 14:02:14.865365   662 layer_factory.hpp:77] Creating layer inception_4a/output
I0403 14:02:14.865382   662 net.cpp:91] Creating Layer inception_4a/output
I0403 14:02:14.865397   662 net.cpp:425] inception_4a/output <- inception_4a/1x1
I0403 14:02:14.865414   662 net.cpp:425] inception_4a/output <- inception_4a/3x3
I0403 14:02:14.865430   662 net.cpp:425] inception_4a/output <- inception_4a/5x5
I0403 14:02:14.865447   662 net.cpp:425] inception_4a/output <- inception_4a/pool_proj
I0403 14:02:14.865465   662 net.cpp:399] inception_4a/output -> inception_4a/output
I0403 14:02:14.865510   662 net.cpp:141] Setting up inception_4a/output
I0403 14:02:14.865535   662 net.cpp:148] Top shape: 24 512 14 14 (2408448)
I0403 14:02:14.865550   662 net.cpp:156] Memory required for data: 896545824
I0403 14:02:14.865566   662 layer_factory.hpp:77] Creating layer inception_4a/output_inception_4a/output_0_split
I0403 14:02:14.865583   662 net.cpp:91] Creating Layer inception_4a/output_inception_4a/output_0_split
I0403 14:02:14.865599   662 net.cpp:425] inception_4a/output_inception_4a/output_0_split <- inception_4a/output
I0403 14:02:14.865618   662 net.cpp:399] inception_4a/output_inception_4a/output_0_split -> inception_4a/output_inception_4a/output_0_split_0
I0403 14:02:14.865639   662 net.cpp:399] inception_4a/output_inception_4a/output_0_split -> inception_4a/output_inception_4a/output_0_split_1
I0403 14:02:14.865660   662 net.cpp:399] inception_4a/output_inception_4a/output_0_split -> inception_4a/output_inception_4a/output_0_split_2
I0403 14:02:14.865681   662 net.cpp:399] inception_4a/output_inception_4a/output_0_split -> inception_4a/output_inception_4a/output_0_split_3
I0403 14:02:14.865701   662 net.cpp:399] inception_4a/output_inception_4a/output_0_split -> inception_4a/output_inception_4a/output_0_split_4
I0403 14:02:14.865792   662 net.cpp:141] Setting up inception_4a/output_inception_4a/output_0_split
I0403 14:02:14.865818   662 net.cpp:148] Top shape: 24 512 14 14 (2408448)
I0403 14:02:14.865834   662 net.cpp:148] Top shape: 24 512 14 14 (2408448)
I0403 14:02:14.865862   662 net.cpp:148] Top shape: 24 512 14 14 (2408448)
I0403 14:02:14.865880   662 net.cpp:148] Top shape: 24 512 14 14 (2408448)
I0403 14:02:14.865896   662 net.cpp:148] Top shape: 24 512 14 14 (2408448)
I0403 14:02:14.865909   662 net.cpp:156] Memory required for data: 944714784
I0403 14:02:14.865924   662 layer_factory.hpp:77] Creating layer loss1/ave_pool
I0403 14:02:14.865942   662 net.cpp:91] Creating Layer loss1/ave_pool
I0403 14:02:14.865958   662 net.cpp:425] loss1/ave_pool <- inception_4a/output_inception_4a/output_0_split_0
I0403 14:02:14.865977   662 net.cpp:399] loss1/ave_pool -> loss1/ave_pool
I0403 14:02:14.866209   662 net.cpp:141] Setting up loss1/ave_pool
I0403 14:02:14.866233   662 net.cpp:148] Top shape: 24 512 4 4 (196608)
I0403 14:02:14.866248   662 net.cpp:156] Memory required for data: 945501216
I0403 14:02:14.866262   662 layer_factory.hpp:77] Creating layer loss1/conv
I0403 14:02:14.866284   662 net.cpp:91] Creating Layer loss1/conv
I0403 14:02:14.866302   662 net.cpp:425] loss1/conv <- loss1/ave_pool
I0403 14:02:14.866322   662 net.cpp:399] loss1/conv -> loss1/conv
I0403 14:02:14.867766   662 net.cpp:141] Setting up loss1/conv
I0403 14:02:14.867794   662 net.cpp:148] Top shape: 24 128 4 4 (49152)
I0403 14:02:14.867823   662 net.cpp:156] Memory required for data: 945697824
I0403 14:02:14.867843   662 layer_factory.hpp:77] Creating layer loss1/relu_conv
I0403 14:02:14.867864   662 net.cpp:91] Creating Layer loss1/relu_conv
I0403 14:02:14.867880   662 net.cpp:425] loss1/relu_conv <- loss1/conv
I0403 14:02:14.867898   662 net.cpp:386] loss1/relu_conv -> loss1/conv (in-place)
I0403 14:02:14.868185   662 net.cpp:141] Setting up loss1/relu_conv
I0403 14:02:14.868211   662 net.cpp:148] Top shape: 24 128 4 4 (49152)
I0403 14:02:14.868227   662 net.cpp:156] Memory required for data: 945894432
I0403 14:02:14.868242   662 layer_factory.hpp:77] Creating layer loss1/fc
I0403 14:02:14.868266   662 net.cpp:91] Creating Layer loss1/fc
I0403 14:02:14.868284   662 net.cpp:425] loss1/fc <- loss1/conv
I0403 14:02:14.868304   662 net.cpp:399] loss1/fc -> loss1/fc
I0403 14:02:14.886067   662 net.cpp:141] Setting up loss1/fc
I0403 14:02:14.886140   662 net.cpp:148] Top shape: 24 1024 (24576)
I0403 14:02:14.886157   662 net.cpp:156] Memory required for data: 945992736
I0403 14:02:14.886183   662 layer_factory.hpp:77] Creating layer loss1/relu_fc
I0403 14:02:14.886205   662 net.cpp:91] Creating Layer loss1/relu_fc
I0403 14:02:14.886222   662 net.cpp:425] loss1/relu_fc <- loss1/fc
I0403 14:02:14.886242   662 net.cpp:386] loss1/relu_fc -> loss1/fc (in-place)
I0403 14:02:14.886463   662 net.cpp:141] Setting up loss1/relu_fc
I0403 14:02:14.886487   662 net.cpp:148] Top shape: 24 1024 (24576)
I0403 14:02:14.886502   662 net.cpp:156] Memory required for data: 946091040
I0403 14:02:14.886515   662 layer_factory.hpp:77] Creating layer loss1/drop_fc
I0403 14:02:14.886545   662 net.cpp:91] Creating Layer loss1/drop_fc
I0403 14:02:14.886562   662 net.cpp:425] loss1/drop_fc <- loss1/fc
I0403 14:02:14.886579   662 net.cpp:386] loss1/drop_fc -> loss1/fc (in-place)
I0403 14:02:14.886629   662 net.cpp:141] Setting up loss1/drop_fc
I0403 14:02:14.886656   662 net.cpp:148] Top shape: 24 1024 (24576)
I0403 14:02:14.886672   662 net.cpp:156] Memory required for data: 946189344
I0403 14:02:14.886685   662 layer_factory.hpp:77] Creating layer loss1/classifier_plantvillage
I0403 14:02:14.886704   662 net.cpp:91] Creating Layer loss1/classifier_plantvillage
I0403 14:02:14.886720   662 net.cpp:425] loss1/classifier_plantvillage <- loss1/fc
I0403 14:02:14.886740   662 net.cpp:399] loss1/classifier_plantvillage -> loss1/classifier_plantvillage
I0403 14:02:14.887645   662 net.cpp:141] Setting up loss1/classifier_plantvillage
I0403 14:02:14.887686   662 net.cpp:148] Top shape: 24 38 (912)
I0403 14:02:14.887702   662 net.cpp:156] Memory required for data: 946192992
I0403 14:02:14.887722   662 layer_factory.hpp:77] Creating layer loss1/classifier_plantvillage_loss1/classifier_plantvillage_0_split
I0403 14:02:14.887742   662 net.cpp:91] Creating Layer loss1/classifier_plantvillage_loss1/classifier_plantvillage_0_split
I0403 14:02:14.887760   662 net.cpp:425] loss1/classifier_plantvillage_loss1/classifier_plantvillage_0_split <- loss1/classifier_plantvillage
I0403 14:02:14.887778   662 net.cpp:399] loss1/classifier_plantvillage_loss1/classifier_plantvillage_0_split -> loss1/classifier_plantvillage_loss1/classifier_plantvillage_0_split_0
I0403 14:02:14.887799   662 net.cpp:399] loss1/classifier_plantvillage_loss1/classifier_plantvillage_0_split -> loss1/classifier_plantvillage_loss1/classifier_plantvillage_0_split_1
I0403 14:02:14.887820   662 net.cpp:399] loss1/classifier_plantvillage_loss1/classifier_plantvillage_0_split -> loss1/classifier_plantvillage_loss1/classifier_plantvillage_0_split_2
I0403 14:02:14.887887   662 net.cpp:141] Setting up loss1/classifier_plantvillage_loss1/classifier_plantvillage_0_split
I0403 14:02:14.887910   662 net.cpp:148] Top shape: 24 38 (912)
I0403 14:02:14.887926   662 net.cpp:148] Top shape: 24 38 (912)
I0403 14:02:14.887941   662 net.cpp:148] Top shape: 24 38 (912)
I0403 14:02:14.887955   662 net.cpp:156] Memory required for data: 946203936
I0403 14:02:14.887969   662 layer_factory.hpp:77] Creating layer inception_4b/1x1
I0403 14:02:14.888003   662 net.cpp:91] Creating Layer inception_4b/1x1
I0403 14:02:14.888042   662 net.cpp:425] inception_4b/1x1 <- inception_4a/output_inception_4a/output_0_split_1
I0403 14:02:14.888064   662 net.cpp:399] inception_4b/1x1 -> inception_4b/1x1
I0403 14:02:14.889737   662 net.cpp:141] Setting up inception_4b/1x1
I0403 14:02:14.889765   662 net.cpp:148] Top shape: 24 160 14 14 (752640)
I0403 14:02:14.889780   662 net.cpp:156] Memory required for data: 949214496
I0403 14:02:14.889796   662 layer_factory.hpp:77] Creating layer inception_4b/relu_1x1
I0403 14:02:14.889817   662 net.cpp:91] Creating Layer inception_4b/relu_1x1
I0403 14:02:14.889833   662 net.cpp:425] inception_4b/relu_1x1 <- inception_4b/1x1
I0403 14:02:14.889850   662 net.cpp:386] inception_4b/relu_1x1 -> inception_4b/1x1 (in-place)
I0403 14:02:14.890024   662 net.cpp:141] Setting up inception_4b/relu_1x1
I0403 14:02:14.890049   662 net.cpp:148] Top shape: 24 160 14 14 (752640)
I0403 14:02:14.890064   662 net.cpp:156] Memory required for data: 952225056
I0403 14:02:14.890079   662 layer_factory.hpp:77] Creating layer inception_4b/3x3_reduce
I0403 14:02:14.890100   662 net.cpp:91] Creating Layer inception_4b/3x3_reduce
I0403 14:02:14.890116   662 net.cpp:425] inception_4b/3x3_reduce <- inception_4a/output_inception_4a/output_0_split_2
I0403 14:02:14.890136   662 net.cpp:399] inception_4b/3x3_reduce -> inception_4b/3x3_reduce
I0403 14:02:14.891490   662 net.cpp:141] Setting up inception_4b/3x3_reduce
I0403 14:02:14.891520   662 net.cpp:148] Top shape: 24 112 14 14 (526848)
I0403 14:02:14.891536   662 net.cpp:156] Memory required for data: 954332448
I0403 14:02:14.891553   662 layer_factory.hpp:77] Creating layer inception_4b/relu_3x3_reduce
I0403 14:02:14.891571   662 net.cpp:91] Creating Layer inception_4b/relu_3x3_reduce
I0403 14:02:14.891588   662 net.cpp:425] inception_4b/relu_3x3_reduce <- inception_4b/3x3_reduce
I0403 14:02:14.891607   662 net.cpp:386] inception_4b/relu_3x3_reduce -> inception_4b/3x3_reduce (in-place)
I0403 14:02:14.891880   662 net.cpp:141] Setting up inception_4b/relu_3x3_reduce
I0403 14:02:14.891908   662 net.cpp:148] Top shape: 24 112 14 14 (526848)
I0403 14:02:14.891923   662 net.cpp:156] Memory required for data: 956439840
I0403 14:02:14.891937   662 layer_factory.hpp:77] Creating layer inception_4b/3x3
I0403 14:02:14.891959   662 net.cpp:91] Creating Layer inception_4b/3x3
I0403 14:02:14.891976   662 net.cpp:425] inception_4b/3x3 <- inception_4b/3x3_reduce
I0403 14:02:14.891995   662 net.cpp:399] inception_4b/3x3 -> inception_4b/3x3
I0403 14:02:14.894960   662 net.cpp:141] Setting up inception_4b/3x3
I0403 14:02:14.894989   662 net.cpp:148] Top shape: 24 224 14 14 (1053696)
I0403 14:02:14.895004   662 net.cpp:156] Memory required for data: 960654624
I0403 14:02:14.895021   662 layer_factory.hpp:77] Creating layer inception_4b/relu_3x3
I0403 14:02:14.895041   662 net.cpp:91] Creating Layer inception_4b/relu_3x3
I0403 14:02:14.895058   662 net.cpp:425] inception_4b/relu_3x3 <- inception_4b/3x3
I0403 14:02:14.895076   662 net.cpp:386] inception_4b/relu_3x3 -> inception_4b/3x3 (in-place)
I0403 14:02:14.895256   662 net.cpp:141] Setting up inception_4b/relu_3x3
I0403 14:02:14.895279   662 net.cpp:148] Top shape: 24 224 14 14 (1053696)
I0403 14:02:14.895293   662 net.cpp:156] Memory required for data: 964869408
I0403 14:02:14.895308   662 layer_factory.hpp:77] Creating layer inception_4b/5x5_reduce
I0403 14:02:14.895331   662 net.cpp:91] Creating Layer inception_4b/5x5_reduce
I0403 14:02:14.895349   662 net.cpp:425] inception_4b/5x5_reduce <- inception_4a/output_inception_4a/output_0_split_3
I0403 14:02:14.895369   662 net.cpp:399] inception_4b/5x5_reduce -> inception_4b/5x5_reduce
I0403 14:02:14.896456   662 net.cpp:141] Setting up inception_4b/5x5_reduce
I0403 14:02:14.896482   662 net.cpp:148] Top shape: 24 24 14 14 (112896)
I0403 14:02:14.896498   662 net.cpp:156] Memory required for data: 965320992
I0403 14:02:14.896518   662 layer_factory.hpp:77] Creating layer inception_4b/relu_5x5_reduce
I0403 14:02:14.896536   662 net.cpp:91] Creating Layer inception_4b/relu_5x5_reduce
I0403 14:02:14.896566   662 net.cpp:425] inception_4b/relu_5x5_reduce <- inception_4b/5x5_reduce
I0403 14:02:14.896585   662 net.cpp:386] inception_4b/relu_5x5_reduce -> inception_4b/5x5_reduce (in-place)
I0403 14:02:14.896766   662 net.cpp:141] Setting up inception_4b/relu_5x5_reduce
I0403 14:02:14.896790   662 net.cpp:148] Top shape: 24 24 14 14 (112896)
I0403 14:02:14.896805   662 net.cpp:156] Memory required for data: 965772576
I0403 14:02:14.896819   662 layer_factory.hpp:77] Creating layer inception_4b/5x5
I0403 14:02:14.896841   662 net.cpp:91] Creating Layer inception_4b/5x5
I0403 14:02:14.896858   662 net.cpp:425] inception_4b/5x5 <- inception_4b/5x5_reduce
I0403 14:02:14.896878   662 net.cpp:399] inception_4b/5x5 -> inception_4b/5x5
I0403 14:02:14.898097   662 net.cpp:141] Setting up inception_4b/5x5
I0403 14:02:14.898123   662 net.cpp:148] Top shape: 24 64 14 14 (301056)
I0403 14:02:14.898138   662 net.cpp:156] Memory required for data: 966976800
I0403 14:02:14.898155   662 layer_factory.hpp:77] Creating layer inception_4b/relu_5x5
I0403 14:02:14.898176   662 net.cpp:91] Creating Layer inception_4b/relu_5x5
I0403 14:02:14.898198   662 net.cpp:425] inception_4b/relu_5x5 <- inception_4b/5x5
I0403 14:02:14.898216   662 net.cpp:386] inception_4b/relu_5x5 -> inception_4b/5x5 (in-place)
I0403 14:02:14.898490   662 net.cpp:141] Setting up inception_4b/relu_5x5
I0403 14:02:14.898515   662 net.cpp:148] Top shape: 24 64 14 14 (301056)
I0403 14:02:14.898530   662 net.cpp:156] Memory required for data: 968181024
I0403 14:02:14.898545   662 layer_factory.hpp:77] Creating layer inception_4b/pool
I0403 14:02:14.898566   662 net.cpp:91] Creating Layer inception_4b/pool
I0403 14:02:14.898581   662 net.cpp:425] inception_4b/pool <- inception_4a/output_inception_4a/output_0_split_4
I0403 14:02:14.898599   662 net.cpp:399] inception_4b/pool -> inception_4b/pool
I0403 14:02:14.898675   662 net.cpp:141] Setting up inception_4b/pool
I0403 14:02:14.898699   662 net.cpp:148] Top shape: 24 512 14 14 (2408448)
I0403 14:02:14.898713   662 net.cpp:156] Memory required for data: 977814816
I0403 14:02:14.898728   662 layer_factory.hpp:77] Creating layer inception_4b/pool_proj
I0403 14:02:14.898751   662 net.cpp:91] Creating Layer inception_4b/pool_proj
I0403 14:02:14.898767   662 net.cpp:425] inception_4b/pool_proj <- inception_4b/pool
I0403 14:02:14.898787   662 net.cpp:399] inception_4b/pool_proj -> inception_4b/pool_proj
I0403 14:02:14.899966   662 net.cpp:141] Setting up inception_4b/pool_proj
I0403 14:02:14.899997   662 net.cpp:148] Top shape: 24 64 14 14 (301056)
I0403 14:02:14.900012   662 net.cpp:156] Memory required for data: 979019040
I0403 14:02:14.900030   662 layer_factory.hpp:77] Creating layer inception_4b/relu_pool_proj
I0403 14:02:14.900048   662 net.cpp:91] Creating Layer inception_4b/relu_pool_proj
I0403 14:02:14.900064   662 net.cpp:425] inception_4b/relu_pool_proj <- inception_4b/pool_proj
I0403 14:02:14.900080   662 net.cpp:386] inception_4b/relu_pool_proj -> inception_4b/pool_proj (in-place)
I0403 14:02:14.900275   662 net.cpp:141] Setting up inception_4b/relu_pool_proj
I0403 14:02:14.900301   662 net.cpp:148] Top shape: 24 64 14 14 (301056)
I0403 14:02:14.900316   662 net.cpp:156] Memory required for data: 980223264
I0403 14:02:14.900331   662 layer_factory.hpp:77] Creating layer inception_4b/output
I0403 14:02:14.900349   662 net.cpp:91] Creating Layer inception_4b/output
I0403 14:02:14.900364   662 net.cpp:425] inception_4b/output <- inception_4b/1x1
I0403 14:02:14.900380   662 net.cpp:425] inception_4b/output <- inception_4b/3x3
I0403 14:02:14.900396   662 net.cpp:425] inception_4b/output <- inception_4b/5x5
I0403 14:02:14.900411   662 net.cpp:425] inception_4b/output <- inception_4b/pool_proj
I0403 14:02:14.900430   662 net.cpp:399] inception_4b/output -> inception_4b/output
I0403 14:02:14.900476   662 net.cpp:141] Setting up inception_4b/output
I0403 14:02:14.900498   662 net.cpp:148] Top shape: 24 512 14 14 (2408448)
I0403 14:02:14.900513   662 net.cpp:156] Memory required for data: 989857056
I0403 14:02:14.900542   662 layer_factory.hpp:77] Creating layer inception_4b/output_inception_4b/output_0_split
I0403 14:02:14.900563   662 net.cpp:91] Creating Layer inception_4b/output_inception_4b/output_0_split
I0403 14:02:14.900591   662 net.cpp:425] inception_4b/output_inception_4b/output_0_split <- inception_4b/output
I0403 14:02:14.900609   662 net.cpp:399] inception_4b/output_inception_4b/output_0_split -> inception_4b/output_inception_4b/output_0_split_0
I0403 14:02:14.900629   662 net.cpp:399] inception_4b/output_inception_4b/output_0_split -> inception_4b/output_inception_4b/output_0_split_1
I0403 14:02:14.900650   662 net.cpp:399] inception_4b/output_inception_4b/output_0_split -> inception_4b/output_inception_4b/output_0_split_2
I0403 14:02:14.900670   662 net.cpp:399] inception_4b/output_inception_4b/output_0_split -> inception_4b/output_inception_4b/output_0_split_3
I0403 14:02:14.900749   662 net.cpp:141] Setting up inception_4b/output_inception_4b/output_0_split
I0403 14:02:14.900771   662 net.cpp:148] Top shape: 24 512 14 14 (2408448)
I0403 14:02:14.900786   662 net.cpp:148] Top shape: 24 512 14 14 (2408448)
I0403 14:02:14.900801   662 net.cpp:148] Top shape: 24 512 14 14 (2408448)
I0403 14:02:14.900816   662 net.cpp:148] Top shape: 24 512 14 14 (2408448)
I0403 14:02:14.900830   662 net.cpp:156] Memory required for data: 1028392224
I0403 14:02:14.900843   662 layer_factory.hpp:77] Creating layer inception_4c/1x1
I0403 14:02:14.900866   662 net.cpp:91] Creating Layer inception_4c/1x1
I0403 14:02:14.900882   662 net.cpp:425] inception_4c/1x1 <- inception_4b/output_inception_4b/output_0_split_0
I0403 14:02:14.900902   662 net.cpp:399] inception_4c/1x1 -> inception_4c/1x1
I0403 14:02:14.902400   662 net.cpp:141] Setting up inception_4c/1x1
I0403 14:02:14.902426   662 net.cpp:148] Top shape: 24 128 14 14 (602112)
I0403 14:02:14.902442   662 net.cpp:156] Memory required for data: 1030800672
I0403 14:02:14.902461   662 layer_factory.hpp:77] Creating layer inception_4c/relu_1x1
I0403 14:02:14.902477   662 net.cpp:91] Creating Layer inception_4c/relu_1x1
I0403 14:02:14.902497   662 net.cpp:425] inception_4c/relu_1x1 <- inception_4c/1x1
I0403 14:02:14.902514   662 net.cpp:386] inception_4c/relu_1x1 -> inception_4c/1x1 (in-place)
I0403 14:02:14.902688   662 net.cpp:141] Setting up inception_4c/relu_1x1
I0403 14:02:14.902711   662 net.cpp:148] Top shape: 24 128 14 14 (602112)
I0403 14:02:14.902725   662 net.cpp:156] Memory required for data: 1033209120
I0403 14:02:14.902740   662 layer_factory.hpp:77] Creating layer inception_4c/3x3_reduce
I0403 14:02:14.902762   662 net.cpp:91] Creating Layer inception_4c/3x3_reduce
I0403 14:02:14.902781   662 net.cpp:425] inception_4c/3x3_reduce <- inception_4b/output_inception_4b/output_0_split_1
I0403 14:02:14.902801   662 net.cpp:399] inception_4c/3x3_reduce -> inception_4c/3x3_reduce
I0403 14:02:14.904783   662 net.cpp:141] Setting up inception_4c/3x3_reduce
I0403 14:02:14.904813   662 net.cpp:148] Top shape: 24 128 14 14 (602112)
I0403 14:02:14.904829   662 net.cpp:156] Memory required for data: 1035617568
I0403 14:02:14.904846   662 layer_factory.hpp:77] Creating layer inception_4c/relu_3x3_reduce
I0403 14:02:14.904866   662 net.cpp:91] Creating Layer inception_4c/relu_3x3_reduce
I0403 14:02:14.904883   662 net.cpp:425] inception_4c/relu_3x3_reduce <- inception_4c/3x3_reduce
I0403 14:02:14.904901   662 net.cpp:386] inception_4c/relu_3x3_reduce -> inception_4c/3x3_reduce (in-place)
I0403 14:02:14.905196   662 net.cpp:141] Setting up inception_4c/relu_3x3_reduce
I0403 14:02:14.905222   662 net.cpp:148] Top shape: 24 128 14 14 (602112)
I0403 14:02:14.905237   662 net.cpp:156] Memory required for data: 1038026016
I0403 14:02:14.905252   662 layer_factory.hpp:77] Creating layer inception_4c/3x3
I0403 14:02:14.905274   662 net.cpp:91] Creating Layer inception_4c/3x3
I0403 14:02:14.905294   662 net.cpp:425] inception_4c/3x3 <- inception_4c/3x3_reduce
I0403 14:02:14.905313   662 net.cpp:399] inception_4c/3x3 -> inception_4c/3x3
I0403 14:02:14.908929   662 net.cpp:141] Setting up inception_4c/3x3
I0403 14:02:14.908973   662 net.cpp:148] Top shape: 24 256 14 14 (1204224)
I0403 14:02:14.908990   662 net.cpp:156] Memory required for data: 1042842912
I0403 14:02:14.909029   662 layer_factory.hpp:77] Creating layer inception_4c/relu_3x3
I0403 14:02:14.909049   662 net.cpp:91] Creating Layer inception_4c/relu_3x3
I0403 14:02:14.909066   662 net.cpp:425] inception_4c/relu_3x3 <- inception_4c/3x3
I0403 14:02:14.909083   662 net.cpp:386] inception_4c/relu_3x3 -> inception_4c/3x3 (in-place)
I0403 14:02:14.909271   662 net.cpp:141] Setting up inception_4c/relu_3x3
I0403 14:02:14.909298   662 net.cpp:148] Top shape: 24 256 14 14 (1204224)
I0403 14:02:14.909313   662 net.cpp:156] Memory required for data: 1047659808
I0403 14:02:14.909329   662 layer_factory.hpp:77] Creating layer inception_4c/5x5_reduce
I0403 14:02:14.909364   662 net.cpp:91] Creating Layer inception_4c/5x5_reduce
I0403 14:02:14.909384   662 net.cpp:425] inception_4c/5x5_reduce <- inception_4b/output_inception_4b/output_0_split_2
I0403 14:02:14.909404   662 net.cpp:399] inception_4c/5x5_reduce -> inception_4c/5x5_reduce
I0403 14:02:14.910518   662 net.cpp:141] Setting up inception_4c/5x5_reduce
I0403 14:02:14.910547   662 net.cpp:148] Top shape: 24 24 14 14 (112896)
I0403 14:02:14.910563   662 net.cpp:156] Memory required for data: 1048111392
I0403 14:02:14.910581   662 layer_factory.hpp:77] Creating layer inception_4c/relu_5x5_reduce
I0403 14:02:14.910603   662 net.cpp:91] Creating Layer inception_4c/relu_5x5_reduce
I0403 14:02:14.910620   662 net.cpp:425] inception_4c/relu_5x5_reduce <- inception_4c/5x5_reduce
I0403 14:02:14.910639   662 net.cpp:386] inception_4c/relu_5x5_reduce -> inception_4c/5x5_reduce (in-place)
I0403 14:02:14.910830   662 net.cpp:141] Setting up inception_4c/relu_5x5_reduce
I0403 14:02:14.910854   662 net.cpp:148] Top shape: 24 24 14 14 (112896)
I0403 14:02:14.910871   662 net.cpp:156] Memory required for data: 1048562976
I0403 14:02:14.910884   662 layer_factory.hpp:77] Creating layer inception_4c/5x5
I0403 14:02:14.910907   662 net.cpp:91] Creating Layer inception_4c/5x5
I0403 14:02:14.910925   662 net.cpp:425] inception_4c/5x5 <- inception_4c/5x5_reduce
I0403 14:02:14.910948   662 net.cpp:399] inception_4c/5x5 -> inception_4c/5x5
I0403 14:02:14.912238   662 net.cpp:141] Setting up inception_4c/5x5
I0403 14:02:14.912269   662 net.cpp:148] Top shape: 24 64 14 14 (301056)
I0403 14:02:14.912286   662 net.cpp:156] Memory required for data: 1049767200
I0403 14:02:14.912304   662 layer_factory.hpp:77] Creating layer inception_4c/relu_5x5
I0403 14:02:14.912323   662 net.cpp:91] Creating Layer inception_4c/relu_5x5
I0403 14:02:14.912340   662 net.cpp:425] inception_4c/relu_5x5 <- inception_4c/5x5
I0403 14:02:14.912359   662 net.cpp:386] inception_4c/relu_5x5 -> inception_4c/5x5 (in-place)
I0403 14:02:14.912655   662 net.cpp:141] Setting up inception_4c/relu_5x5
I0403 14:02:14.912684   662 net.cpp:148] Top shape: 24 64 14 14 (301056)
I0403 14:02:14.912700   662 net.cpp:156] Memory required for data: 1050971424
I0403 14:02:14.912715   662 layer_factory.hpp:77] Creating layer inception_4c/pool
I0403 14:02:14.912734   662 net.cpp:91] Creating Layer inception_4c/pool
I0403 14:02:14.912750   662 net.cpp:425] inception_4c/pool <- inception_4b/output_inception_4b/output_0_split_3
I0403 14:02:14.912771   662 net.cpp:399] inception_4c/pool -> inception_4c/pool
I0403 14:02:14.912838   662 net.cpp:141] Setting up inception_4c/pool
I0403 14:02:14.912864   662 net.cpp:148] Top shape: 24 512 14 14 (2408448)
I0403 14:02:14.912880   662 net.cpp:156] Memory required for data: 1060605216
I0403 14:02:14.912895   662 layer_factory.hpp:77] Creating layer inception_4c/pool_proj
I0403 14:02:14.912917   662 net.cpp:91] Creating Layer inception_4c/pool_proj
I0403 14:02:14.912935   662 net.cpp:425] inception_4c/pool_proj <- inception_4c/pool
I0403 14:02:14.912955   662 net.cpp:399] inception_4c/pool_proj -> inception_4c/pool_proj
I0403 14:02:14.914216   662 net.cpp:141] Setting up inception_4c/pool_proj
I0403 14:02:14.914247   662 net.cpp:148] Top shape: 24 64 14 14 (301056)
I0403 14:02:14.914278   662 net.cpp:156] Memory required for data: 1061809440
I0403 14:02:14.914297   662 layer_factory.hpp:77] Creating layer inception_4c/relu_pool_proj
I0403 14:02:14.914315   662 net.cpp:91] Creating Layer inception_4c/relu_pool_proj
I0403 14:02:14.914332   662 net.cpp:425] inception_4c/relu_pool_proj <- inception_4c/pool_proj
I0403 14:02:14.914350   662 net.cpp:386] inception_4c/relu_pool_proj -> inception_4c/pool_proj (in-place)
I0403 14:02:14.914540   662 net.cpp:141] Setting up inception_4c/relu_pool_proj
I0403 14:02:14.914566   662 net.cpp:148] Top shape: 24 64 14 14 (301056)
I0403 14:02:14.914582   662 net.cpp:156] Memory required for data: 1063013664
I0403 14:02:14.914597   662 layer_factory.hpp:77] Creating layer inception_4c/output
I0403 14:02:14.914614   662 net.cpp:91] Creating Layer inception_4c/output
I0403 14:02:14.914630   662 net.cpp:425] inception_4c/output <- inception_4c/1x1
I0403 14:02:14.914647   662 net.cpp:425] inception_4c/output <- inception_4c/3x3
I0403 14:02:14.914664   662 net.cpp:425] inception_4c/output <- inception_4c/5x5
I0403 14:02:14.914680   662 net.cpp:425] inception_4c/output <- inception_4c/pool_proj
I0403 14:02:14.914700   662 net.cpp:399] inception_4c/output -> inception_4c/output
I0403 14:02:14.914746   662 net.cpp:141] Setting up inception_4c/output
I0403 14:02:14.914770   662 net.cpp:148] Top shape: 24 512 14 14 (2408448)
I0403 14:02:14.914784   662 net.cpp:156] Memory required for data: 1072647456
I0403 14:02:14.914800   662 layer_factory.hpp:77] Creating layer inception_4c/output_inception_4c/output_0_split
I0403 14:02:14.914820   662 net.cpp:91] Creating Layer inception_4c/output_inception_4c/output_0_split
I0403 14:02:14.914837   662 net.cpp:425] inception_4c/output_inception_4c/output_0_split <- inception_4c/output
I0403 14:02:14.914855   662 net.cpp:399] inception_4c/output_inception_4c/output_0_split -> inception_4c/output_inception_4c/output_0_split_0
I0403 14:02:14.914875   662 net.cpp:399] inception_4c/output_inception_4c/output_0_split -> inception_4c/output_inception_4c/output_0_split_1
I0403 14:02:14.914901   662 net.cpp:399] inception_4c/output_inception_4c/output_0_split -> inception_4c/output_inception_4c/output_0_split_2
I0403 14:02:14.914921   662 net.cpp:399] inception_4c/output_inception_4c/output_0_split -> inception_4c/output_inception_4c/output_0_split_3
I0403 14:02:14.915009   662 net.cpp:141] Setting up inception_4c/output_inception_4c/output_0_split
I0403 14:02:14.915032   662 net.cpp:148] Top shape: 24 512 14 14 (2408448)
I0403 14:02:14.915048   662 net.cpp:148] Top shape: 24 512 14 14 (2408448)
I0403 14:02:14.915065   662 net.cpp:148] Top shape: 24 512 14 14 (2408448)
I0403 14:02:14.915081   662 net.cpp:148] Top shape: 24 512 14 14 (2408448)
I0403 14:02:14.915094   662 net.cpp:156] Memory required for data: 1111182624
I0403 14:02:14.915109   662 layer_factory.hpp:77] Creating layer inception_4d/1x1
I0403 14:02:14.915132   662 net.cpp:91] Creating Layer inception_4d/1x1
I0403 14:02:14.915150   662 net.cpp:425] inception_4d/1x1 <- inception_4c/output_inception_4c/output_0_split_0
I0403 14:02:14.915172   662 net.cpp:399] inception_4d/1x1 -> inception_4d/1x1
I0403 14:02:14.916599   662 net.cpp:141] Setting up inception_4d/1x1
I0403 14:02:14.916627   662 net.cpp:148] Top shape: 24 112 14 14 (526848)
I0403 14:02:14.916643   662 net.cpp:156] Memory required for data: 1113290016
I0403 14:02:14.916662   662 layer_factory.hpp:77] Creating layer inception_4d/relu_1x1
I0403 14:02:14.916683   662 net.cpp:91] Creating Layer inception_4d/relu_1x1
I0403 14:02:14.916700   662 net.cpp:425] inception_4d/relu_1x1 <- inception_4d/1x1
I0403 14:02:14.916718   662 net.cpp:386] inception_4d/relu_1x1 -> inception_4d/1x1 (in-place)
I0403 14:02:14.916906   662 net.cpp:141] Setting up inception_4d/relu_1x1
I0403 14:02:14.916931   662 net.cpp:148] Top shape: 24 112 14 14 (526848)
I0403 14:02:14.916946   662 net.cpp:156] Memory required for data: 1115397408
I0403 14:02:14.916961   662 layer_factory.hpp:77] Creating layer inception_4d/3x3_reduce
I0403 14:02:14.916999   662 net.cpp:91] Creating Layer inception_4d/3x3_reduce
I0403 14:02:14.917018   662 net.cpp:425] inception_4d/3x3_reduce <- inception_4c/output_inception_4c/output_0_split_1
I0403 14:02:14.917038   662 net.cpp:399] inception_4d/3x3_reduce -> inception_4d/3x3_reduce
I0403 14:02:14.918592   662 net.cpp:141] Setting up inception_4d/3x3_reduce
I0403 14:02:14.918622   662 net.cpp:148] Top shape: 24 144 14 14 (677376)
I0403 14:02:14.918637   662 net.cpp:156] Memory required for data: 1118106912
I0403 14:02:14.918655   662 layer_factory.hpp:77] Creating layer inception_4d/relu_3x3_reduce
I0403 14:02:14.918674   662 net.cpp:91] Creating Layer inception_4d/relu_3x3_reduce
I0403 14:02:14.918690   662 net.cpp:425] inception_4d/relu_3x3_reduce <- inception_4d/3x3_reduce
I0403 14:02:14.918710   662 net.cpp:386] inception_4d/relu_3x3_reduce -> inception_4d/3x3_reduce (in-place)
I0403 14:02:14.919008   662 net.cpp:141] Setting up inception_4d/relu_3x3_reduce
I0403 14:02:14.919034   662 net.cpp:148] Top shape: 24 144 14 14 (677376)
I0403 14:02:14.919049   662 net.cpp:156] Memory required for data: 1120816416
I0403 14:02:14.919064   662 layer_factory.hpp:77] Creating layer inception_4d/3x3
I0403 14:02:14.919087   662 net.cpp:91] Creating Layer inception_4d/3x3
I0403 14:02:14.919106   662 net.cpp:425] inception_4d/3x3 <- inception_4d/3x3_reduce
I0403 14:02:14.919127   662 net.cpp:399] inception_4d/3x3 -> inception_4d/3x3
I0403 14:02:14.923481   662 net.cpp:141] Setting up inception_4d/3x3
I0403 14:02:14.923511   662 net.cpp:148] Top shape: 24 288 14 14 (1354752)
I0403 14:02:14.923527   662 net.cpp:156] Memory required for data: 1126235424
I0403 14:02:14.923545   662 layer_factory.hpp:77] Creating layer inception_4d/relu_3x3
I0403 14:02:14.923565   662 net.cpp:91] Creating Layer inception_4d/relu_3x3
I0403 14:02:14.923583   662 net.cpp:425] inception_4d/relu_3x3 <- inception_4d/3x3
I0403 14:02:14.923601   662 net.cpp:386] inception_4d/relu_3x3 -> inception_4d/3x3 (in-place)
I0403 14:02:14.923780   662 net.cpp:141] Setting up inception_4d/relu_3x3
I0403 14:02:14.923807   662 net.cpp:148] Top shape: 24 288 14 14 (1354752)
I0403 14:02:14.923823   662 net.cpp:156] Memory required for data: 1131654432
I0403 14:02:14.923838   662 layer_factory.hpp:77] Creating layer inception_4d/5x5_reduce
I0403 14:02:14.923861   662 net.cpp:91] Creating Layer inception_4d/5x5_reduce
I0403 14:02:14.923877   662 net.cpp:425] inception_4d/5x5_reduce <- inception_4c/output_inception_4c/output_0_split_2
I0403 14:02:14.923897   662 net.cpp:399] inception_4d/5x5_reduce -> inception_4d/5x5_reduce
I0403 14:02:14.925042   662 net.cpp:141] Setting up inception_4d/5x5_reduce
I0403 14:02:14.925071   662 net.cpp:148] Top shape: 24 32 14 14 (150528)
I0403 14:02:14.925086   662 net.cpp:156] Memory required for data: 1132256544
I0403 14:02:14.925104   662 layer_factory.hpp:77] Creating layer inception_4d/relu_5x5_reduce
I0403 14:02:14.925123   662 net.cpp:91] Creating Layer inception_4d/relu_5x5_reduce
I0403 14:02:14.925140   662 net.cpp:425] inception_4d/relu_5x5_reduce <- inception_4d/5x5_reduce
I0403 14:02:14.925158   662 net.cpp:386] inception_4d/relu_5x5_reduce -> inception_4d/5x5_reduce (in-place)
I0403 14:02:14.925350   662 net.cpp:141] Setting up inception_4d/relu_5x5_reduce
I0403 14:02:14.925375   662 net.cpp:148] Top shape: 24 32 14 14 (150528)
I0403 14:02:14.925390   662 net.cpp:156] Memory required for data: 1132858656
I0403 14:02:14.925405   662 layer_factory.hpp:77] Creating layer inception_4d/5x5
I0403 14:02:14.925427   662 net.cpp:91] Creating Layer inception_4d/5x5
I0403 14:02:14.925516   662 net.cpp:425] inception_4d/5x5 <- inception_4d/5x5_reduce
I0403 14:02:14.925536   662 net.cpp:399] inception_4d/5x5 -> inception_4d/5x5
I0403 14:02:14.927021   662 net.cpp:141] Setting up inception_4d/5x5
I0403 14:02:14.927052   662 net.cpp:148] Top shape: 24 64 14 14 (301056)
I0403 14:02:14.927069   662 net.cpp:156] Memory required for data: 1134062880
I0403 14:02:14.927088   662 layer_factory.hpp:77] Creating layer inception_4d/relu_5x5
I0403 14:02:14.927122   662 net.cpp:91] Creating Layer inception_4d/relu_5x5
I0403 14:02:14.927139   662 net.cpp:425] inception_4d/relu_5x5 <- inception_4d/5x5
I0403 14:02:14.927158   662 net.cpp:386] inception_4d/relu_5x5 -> inception_4d/5x5 (in-place)
I0403 14:02:14.927464   662 net.cpp:141] Setting up inception_4d/relu_5x5
I0403 14:02:14.927492   662 net.cpp:148] Top shape: 24 64 14 14 (301056)
I0403 14:02:14.927508   662 net.cpp:156] Memory required for data: 1135267104
I0403 14:02:14.927525   662 layer_factory.hpp:77] Creating layer inception_4d/pool
I0403 14:02:14.927542   662 net.cpp:91] Creating Layer inception_4d/pool
I0403 14:02:14.927558   662 net.cpp:425] inception_4d/pool <- inception_4c/output_inception_4c/output_0_split_3
I0403 14:02:14.927578   662 net.cpp:399] inception_4d/pool -> inception_4d/pool
I0403 14:02:14.927646   662 net.cpp:141] Setting up inception_4d/pool
I0403 14:02:14.927670   662 net.cpp:148] Top shape: 24 512 14 14 (2408448)
I0403 14:02:14.927683   662 net.cpp:156] Memory required for data: 1144900896
I0403 14:02:14.927698   662 layer_factory.hpp:77] Creating layer inception_4d/pool_proj
I0403 14:02:14.927719   662 net.cpp:91] Creating Layer inception_4d/pool_proj
I0403 14:02:14.927737   662 net.cpp:425] inception_4d/pool_proj <- inception_4d/pool
I0403 14:02:14.927757   662 net.cpp:399] inception_4d/pool_proj -> inception_4d/pool_proj
I0403 14:02:14.929517   662 net.cpp:141] Setting up inception_4d/pool_proj
I0403 14:02:14.929546   662 net.cpp:148] Top shape: 24 64 14 14 (301056)
I0403 14:02:14.929563   662 net.cpp:156] Memory required for data: 1146105120
I0403 14:02:14.929580   662 layer_factory.hpp:77] Creating layer inception_4d/relu_pool_proj
I0403 14:02:14.929600   662 net.cpp:91] Creating Layer inception_4d/relu_pool_proj
I0403 14:02:14.929617   662 net.cpp:425] inception_4d/relu_pool_proj <- inception_4d/pool_proj
I0403 14:02:14.929636   662 net.cpp:386] inception_4d/relu_pool_proj -> inception_4d/pool_proj (in-place)
I0403 14:02:14.929821   662 net.cpp:141] Setting up inception_4d/relu_pool_proj
I0403 14:02:14.929847   662 net.cpp:148] Top shape: 24 64 14 14 (301056)
I0403 14:02:14.929862   662 net.cpp:156] Memory required for data: 1147309344
I0403 14:02:14.929877   662 layer_factory.hpp:77] Creating layer inception_4d/output
I0403 14:02:14.929894   662 net.cpp:91] Creating Layer inception_4d/output
I0403 14:02:14.929910   662 net.cpp:425] inception_4d/output <- inception_4d/1x1
I0403 14:02:14.929926   662 net.cpp:425] inception_4d/output <- inception_4d/3x3
I0403 14:02:14.929942   662 net.cpp:425] inception_4d/output <- inception_4d/5x5
I0403 14:02:14.929958   662 net.cpp:425] inception_4d/output <- inception_4d/pool_proj
I0403 14:02:14.929975   662 net.cpp:399] inception_4d/output -> inception_4d/output
I0403 14:02:14.930024   662 net.cpp:141] Setting up inception_4d/output
I0403 14:02:14.930047   662 net.cpp:148] Top shape: 24 528 14 14 (2483712)
I0403 14:02:14.930063   662 net.cpp:156] Memory required for data: 1157244192
I0403 14:02:14.930076   662 layer_factory.hpp:77] Creating layer inception_4d/output_inception_4d/output_0_split
I0403 14:02:14.930097   662 net.cpp:91] Creating Layer inception_4d/output_inception_4d/output_0_split
I0403 14:02:14.930114   662 net.cpp:425] inception_4d/output_inception_4d/output_0_split <- inception_4d/output
I0403 14:02:14.930131   662 net.cpp:399] inception_4d/output_inception_4d/output_0_split -> inception_4d/output_inception_4d/output_0_split_0
I0403 14:02:14.930152   662 net.cpp:399] inception_4d/output_inception_4d/output_0_split -> inception_4d/output_inception_4d/output_0_split_1
I0403 14:02:14.930173   662 net.cpp:399] inception_4d/output_inception_4d/output_0_split -> inception_4d/output_inception_4d/output_0_split_2
I0403 14:02:14.930204   662 net.cpp:399] inception_4d/output_inception_4d/output_0_split -> inception_4d/output_inception_4d/output_0_split_3
I0403 14:02:14.930227   662 net.cpp:399] inception_4d/output_inception_4d/output_0_split -> inception_4d/output_inception_4d/output_0_split_4
I0403 14:02:14.930330   662 net.cpp:141] Setting up inception_4d/output_inception_4d/output_0_split
I0403 14:02:14.930366   662 net.cpp:148] Top shape: 24 528 14 14 (2483712)
I0403 14:02:14.930382   662 net.cpp:148] Top shape: 24 528 14 14 (2483712)
I0403 14:02:14.930398   662 net.cpp:148] Top shape: 24 528 14 14 (2483712)
I0403 14:02:14.930413   662 net.cpp:148] Top shape: 24 528 14 14 (2483712)
I0403 14:02:14.930428   662 net.cpp:148] Top shape: 24 528 14 14 (2483712)
I0403 14:02:14.930443   662 net.cpp:156] Memory required for data: 1206918432
I0403 14:02:14.930457   662 layer_factory.hpp:77] Creating layer loss2/ave_pool
I0403 14:02:14.930477   662 net.cpp:91] Creating Layer loss2/ave_pool
I0403 14:02:14.930495   662 net.cpp:425] loss2/ave_pool <- inception_4d/output_inception_4d/output_0_split_0
I0403 14:02:14.930513   662 net.cpp:399] loss2/ave_pool -> loss2/ave_pool
I0403 14:02:14.930829   662 net.cpp:141] Setting up loss2/ave_pool
I0403 14:02:14.930855   662 net.cpp:148] Top shape: 24 528 4 4 (202752)
I0403 14:02:14.930868   662 net.cpp:156] Memory required for data: 1207729440
I0403 14:02:14.930883   662 layer_factory.hpp:77] Creating layer loss2/conv
I0403 14:02:14.930904   662 net.cpp:91] Creating Layer loss2/conv
I0403 14:02:14.930923   662 net.cpp:425] loss2/conv <- loss2/ave_pool
I0403 14:02:14.930943   662 net.cpp:399] loss2/conv -> loss2/conv
I0403 14:02:14.932840   662 net.cpp:141] Setting up loss2/conv
I0403 14:02:14.932870   662 net.cpp:148] Top shape: 24 128 4 4 (49152)
I0403 14:02:14.932888   662 net.cpp:156] Memory required for data: 1207926048
I0403 14:02:14.932905   662 layer_factory.hpp:77] Creating layer loss2/relu_conv
I0403 14:02:14.932924   662 net.cpp:91] Creating Layer loss2/relu_conv
I0403 14:02:14.932940   662 net.cpp:425] loss2/relu_conv <- loss2/conv
I0403 14:02:14.932960   662 net.cpp:386] loss2/relu_conv -> loss2/conv (in-place)
I0403 14:02:14.933251   662 net.cpp:141] Setting up loss2/relu_conv
I0403 14:02:14.933279   662 net.cpp:148] Top shape: 24 128 4 4 (49152)
I0403 14:02:14.933295   662 net.cpp:156] Memory required for data: 1208122656
I0403 14:02:14.933310   662 layer_factory.hpp:77] Creating layer loss2/fc
I0403 14:02:14.933329   662 net.cpp:91] Creating Layer loss2/fc
I0403 14:02:14.933346   662 net.cpp:425] loss2/fc <- loss2/conv
I0403 14:02:14.933365   662 net.cpp:399] loss2/fc -> loss2/fc
I0403 14:02:14.951042   662 net.cpp:141] Setting up loss2/fc
I0403 14:02:14.951107   662 net.cpp:148] Top shape: 24 1024 (24576)
I0403 14:02:14.951122   662 net.cpp:156] Memory required for data: 1208220960
I0403 14:02:14.951143   662 layer_factory.hpp:77] Creating layer loss2/relu_fc
I0403 14:02:14.951161   662 net.cpp:91] Creating Layer loss2/relu_fc
I0403 14:02:14.951184   662 net.cpp:425] loss2/relu_fc <- loss2/fc
I0403 14:02:14.951205   662 net.cpp:386] loss2/relu_fc -> loss2/fc (in-place)
I0403 14:02:14.951550   662 net.cpp:141] Setting up loss2/relu_fc
I0403 14:02:14.951575   662 net.cpp:148] Top shape: 24 1024 (24576)
I0403 14:02:14.951591   662 net.cpp:156] Memory required for data: 1208319264
I0403 14:02:14.951606   662 layer_factory.hpp:77] Creating layer loss2/drop_fc
I0403 14:02:14.951627   662 net.cpp:91] Creating Layer loss2/drop_fc
I0403 14:02:14.951644   662 net.cpp:425] loss2/drop_fc <- loss2/fc
I0403 14:02:14.951663   662 net.cpp:386] loss2/drop_fc -> loss2/fc (in-place)
I0403 14:02:14.951715   662 net.cpp:141] Setting up loss2/drop_fc
I0403 14:02:14.951738   662 net.cpp:148] Top shape: 24 1024 (24576)
I0403 14:02:14.951752   662 net.cpp:156] Memory required for data: 1208417568
I0403 14:02:14.951767   662 layer_factory.hpp:77] Creating layer loss2/classifier_plantvillage
I0403 14:02:14.951788   662 net.cpp:91] Creating Layer loss2/classifier_plantvillage
I0403 14:02:14.951805   662 net.cpp:425] loss2/classifier_plantvillage <- loss2/fc
I0403 14:02:14.951823   662 net.cpp:399] loss2/classifier_plantvillage -> loss2/classifier_plantvillage
I0403 14:02:14.952251   662 net.cpp:141] Setting up loss2/classifier_plantvillage
I0403 14:02:14.952276   662 net.cpp:148] Top shape: 24 38 (912)
I0403 14:02:14.952318   662 net.cpp:156] Memory required for data: 1208421216
I0403 14:02:14.952337   662 layer_factory.hpp:77] Creating layer loss2/classifier_plantvillage_loss2/classifier_plantvillage_0_split
I0403 14:02:14.952355   662 net.cpp:91] Creating Layer loss2/classifier_plantvillage_loss2/classifier_plantvillage_0_split
I0403 14:02:14.952371   662 net.cpp:425] loss2/classifier_plantvillage_loss2/classifier_plantvillage_0_split <- loss2/classifier_plantvillage
I0403 14:02:14.952394   662 net.cpp:399] loss2/classifier_plantvillage_loss2/classifier_plantvillage_0_split -> loss2/classifier_plantvillage_loss2/classifier_plantvillage_0_split_0
I0403 14:02:14.952416   662 net.cpp:399] loss2/classifier_plantvillage_loss2/classifier_plantvillage_0_split -> loss2/classifier_plantvillage_loss2/classifier_plantvillage_0_split_1
I0403 14:02:14.952437   662 net.cpp:399] loss2/classifier_plantvillage_loss2/classifier_plantvillage_0_split -> loss2/classifier_plantvillage_loss2/classifier_plantvillage_0_split_2
I0403 14:02:14.952514   662 net.cpp:141] Setting up loss2/classifier_plantvillage_loss2/classifier_plantvillage_0_split
I0403 14:02:14.952540   662 net.cpp:148] Top shape: 24 38 (912)
I0403 14:02:14.952558   662 net.cpp:148] Top shape: 24 38 (912)
I0403 14:02:14.952574   662 net.cpp:148] Top shape: 24 38 (912)
I0403 14:02:14.952587   662 net.cpp:156] Memory required for data: 1208432160
I0403 14:02:14.952602   662 layer_factory.hpp:77] Creating layer inception_4e/1x1
I0403 14:02:14.952626   662 net.cpp:91] Creating Layer inception_4e/1x1
I0403 14:02:14.952644   662 net.cpp:425] inception_4e/1x1 <- inception_4d/output_inception_4d/output_0_split_1
I0403 14:02:14.952663   662 net.cpp:399] inception_4e/1x1 -> inception_4e/1x1
I0403 14:02:14.954524   662 net.cpp:141] Setting up inception_4e/1x1
I0403 14:02:14.954553   662 net.cpp:148] Top shape: 24 256 14 14 (1204224)
I0403 14:02:14.954571   662 net.cpp:156] Memory required for data: 1213249056
I0403 14:02:14.954588   662 layer_factory.hpp:77] Creating layer inception_4e/relu_1x1
I0403 14:02:14.954607   662 net.cpp:91] Creating Layer inception_4e/relu_1x1
I0403 14:02:14.954622   662 net.cpp:425] inception_4e/relu_1x1 <- inception_4e/1x1
I0403 14:02:14.954641   662 net.cpp:386] inception_4e/relu_1x1 -> inception_4e/1x1 (in-place)
I0403 14:02:14.954938   662 net.cpp:141] Setting up inception_4e/relu_1x1
I0403 14:02:14.954967   662 net.cpp:148] Top shape: 24 256 14 14 (1204224)
I0403 14:02:14.954982   662 net.cpp:156] Memory required for data: 1218065952
I0403 14:02:14.954998   662 layer_factory.hpp:77] Creating layer inception_4e/3x3_reduce
I0403 14:02:14.955020   662 net.cpp:91] Creating Layer inception_4e/3x3_reduce
I0403 14:02:14.955037   662 net.cpp:425] inception_4e/3x3_reduce <- inception_4d/output_inception_4d/output_0_split_2
I0403 14:02:14.955057   662 net.cpp:399] inception_4e/3x3_reduce -> inception_4e/3x3_reduce
I0403 14:02:14.957190   662 net.cpp:141] Setting up inception_4e/3x3_reduce
I0403 14:02:14.957221   662 net.cpp:148] Top shape: 24 160 14 14 (752640)
I0403 14:02:14.957237   662 net.cpp:156] Memory required for data: 1221076512
I0403 14:02:14.957255   662 layer_factory.hpp:77] Creating layer inception_4e/relu_3x3_reduce
I0403 14:02:14.957273   662 net.cpp:91] Creating Layer inception_4e/relu_3x3_reduce
I0403 14:02:14.957289   662 net.cpp:425] inception_4e/relu_3x3_reduce <- inception_4e/3x3_reduce
I0403 14:02:14.957306   662 net.cpp:386] inception_4e/relu_3x3_reduce -> inception_4e/3x3_reduce (in-place)
I0403 14:02:14.957497   662 net.cpp:141] Setting up inception_4e/relu_3x3_reduce
I0403 14:02:14.957522   662 net.cpp:148] Top shape: 24 160 14 14 (752640)
I0403 14:02:14.957536   662 net.cpp:156] Memory required for data: 1224087072
I0403 14:02:14.957551   662 layer_factory.hpp:77] Creating layer inception_4e/3x3
I0403 14:02:14.957574   662 net.cpp:91] Creating Layer inception_4e/3x3
I0403 14:02:14.957592   662 net.cpp:425] inception_4e/3x3 <- inception_4e/3x3_reduce
I0403 14:02:14.957612   662 net.cpp:399] inception_4e/3x3 -> inception_4e/3x3
I0403 14:02:14.962888   662 net.cpp:141] Setting up inception_4e/3x3
I0403 14:02:14.962931   662 net.cpp:148] Top shape: 24 320 14 14 (1505280)
I0403 14:02:14.962949   662 net.cpp:156] Memory required for data: 1230108192
I0403 14:02:14.962967   662 layer_factory.hpp:77] Creating layer inception_4e/relu_3x3
I0403 14:02:14.962988   662 net.cpp:91] Creating Layer inception_4e/relu_3x3
I0403 14:02:14.963006   662 net.cpp:425] inception_4e/relu_3x3 <- inception_4e/3x3
I0403 14:02:14.963026   662 net.cpp:386] inception_4e/relu_3x3 -> inception_4e/3x3 (in-place)
I0403 14:02:14.963342   662 net.cpp:141] Setting up inception_4e/relu_3x3
I0403 14:02:14.963369   662 net.cpp:148] Top shape: 24 320 14 14 (1505280)
I0403 14:02:14.963384   662 net.cpp:156] Memory required for data: 1236129312
I0403 14:02:14.963400   662 layer_factory.hpp:77] Creating layer inception_4e/5x5_reduce
I0403 14:02:14.963423   662 net.cpp:91] Creating Layer inception_4e/5x5_reduce
I0403 14:02:14.963441   662 net.cpp:425] inception_4e/5x5_reduce <- inception_4d/output_inception_4d/output_0_split_3
I0403 14:02:14.963464   662 net.cpp:399] inception_4e/5x5_reduce -> inception_4e/5x5_reduce
I0403 14:02:14.964571   662 net.cpp:141] Setting up inception_4e/5x5_reduce
I0403 14:02:14.964602   662 net.cpp:148] Top shape: 24 32 14 14 (150528)
I0403 14:02:14.964618   662 net.cpp:156] Memory required for data: 1236731424
I0403 14:02:14.964637   662 layer_factory.hpp:77] Creating layer inception_4e/relu_5x5_reduce
I0403 14:02:14.964656   662 net.cpp:91] Creating Layer inception_4e/relu_5x5_reduce
I0403 14:02:14.964673   662 net.cpp:425] inception_4e/relu_5x5_reduce <- inception_4e/5x5_reduce
I0403 14:02:14.964694   662 net.cpp:386] inception_4e/relu_5x5_reduce -> inception_4e/5x5_reduce (in-place)
I0403 14:02:14.964998   662 net.cpp:141] Setting up inception_4e/relu_5x5_reduce
I0403 14:02:14.965029   662 net.cpp:148] Top shape: 24 32 14 14 (150528)
I0403 14:02:14.965044   662 net.cpp:156] Memory required for data: 1237333536
I0403 14:02:14.965059   662 layer_factory.hpp:77] Creating layer inception_4e/5x5
I0403 14:02:14.965100   662 net.cpp:91] Creating Layer inception_4e/5x5
I0403 14:02:14.965118   662 net.cpp:425] inception_4e/5x5 <- inception_4e/5x5_reduce
I0403 14:02:14.965138   662 net.cpp:399] inception_4e/5x5 -> inception_4e/5x5
I0403 14:02:14.967064   662 net.cpp:141] Setting up inception_4e/5x5
I0403 14:02:14.967093   662 net.cpp:148] Top shape: 24 128 14 14 (602112)
I0403 14:02:14.967109   662 net.cpp:156] Memory required for data: 1239741984
I0403 14:02:14.967128   662 layer_factory.hpp:77] Creating layer inception_4e/relu_5x5
I0403 14:02:14.967149   662 net.cpp:91] Creating Layer inception_4e/relu_5x5
I0403 14:02:14.967167   662 net.cpp:425] inception_4e/relu_5x5 <- inception_4e/5x5
I0403 14:02:14.967191   662 net.cpp:386] inception_4e/relu_5x5 -> inception_4e/5x5 (in-place)
I0403 14:02:14.967398   662 net.cpp:141] Setting up inception_4e/relu_5x5
I0403 14:02:14.967424   662 net.cpp:148] Top shape: 24 128 14 14 (602112)
I0403 14:02:14.967440   662 net.cpp:156] Memory required for data: 1242150432
I0403 14:02:14.967455   662 layer_factory.hpp:77] Creating layer inception_4e/pool
I0403 14:02:14.967474   662 net.cpp:91] Creating Layer inception_4e/pool
I0403 14:02:14.967490   662 net.cpp:425] inception_4e/pool <- inception_4d/output_inception_4d/output_0_split_4
I0403 14:02:14.967511   662 net.cpp:399] inception_4e/pool -> inception_4e/pool
I0403 14:02:14.967583   662 net.cpp:141] Setting up inception_4e/pool
I0403 14:02:14.967607   662 net.cpp:148] Top shape: 24 528 14 14 (2483712)
I0403 14:02:14.967622   662 net.cpp:156] Memory required for data: 1252085280
I0403 14:02:14.967638   662 layer_factory.hpp:77] Creating layer inception_4e/pool_proj
I0403 14:02:14.967661   662 net.cpp:91] Creating Layer inception_4e/pool_proj
I0403 14:02:14.967679   662 net.cpp:425] inception_4e/pool_proj <- inception_4e/pool
I0403 14:02:14.967699   662 net.cpp:399] inception_4e/pool_proj -> inception_4e/pool_proj
I0403 14:02:14.969267   662 net.cpp:141] Setting up inception_4e/pool_proj
I0403 14:02:14.969308   662 net.cpp:148] Top shape: 24 128 14 14 (602112)
I0403 14:02:14.969324   662 net.cpp:156] Memory required for data: 1254493728
I0403 14:02:14.969343   662 layer_factory.hpp:77] Creating layer inception_4e/relu_pool_proj
I0403 14:02:14.969364   662 net.cpp:91] Creating Layer inception_4e/relu_pool_proj
I0403 14:02:14.969382   662 net.cpp:425] inception_4e/relu_pool_proj <- inception_4e/pool_proj
I0403 14:02:14.969399   662 net.cpp:386] inception_4e/relu_pool_proj -> inception_4e/pool_proj (in-place)
I0403 14:02:14.969701   662 net.cpp:141] Setting up inception_4e/relu_pool_proj
I0403 14:02:14.969727   662 net.cpp:148] Top shape: 24 128 14 14 (602112)
I0403 14:02:14.969743   662 net.cpp:156] Memory required for data: 1256902176
I0403 14:02:14.969758   662 layer_factory.hpp:77] Creating layer inception_4e/output
I0403 14:02:14.969777   662 net.cpp:91] Creating Layer inception_4e/output
I0403 14:02:14.969794   662 net.cpp:425] inception_4e/output <- inception_4e/1x1
I0403 14:02:14.969811   662 net.cpp:425] inception_4e/output <- inception_4e/3x3
I0403 14:02:14.969827   662 net.cpp:425] inception_4e/output <- inception_4e/5x5
I0403 14:02:14.969843   662 net.cpp:425] inception_4e/output <- inception_4e/pool_proj
I0403 14:02:14.969861   662 net.cpp:399] inception_4e/output -> inception_4e/output
I0403 14:02:14.969914   662 net.cpp:141] Setting up inception_4e/output
I0403 14:02:14.969938   662 net.cpp:148] Top shape: 24 832 14 14 (3913728)
I0403 14:02:14.969954   662 net.cpp:156] Memory required for data: 1272557088
I0403 14:02:14.969969   662 layer_factory.hpp:77] Creating layer pool4/3x3_s2
I0403 14:02:14.969986   662 net.cpp:91] Creating Layer pool4/3x3_s2
I0403 14:02:14.970002   662 net.cpp:425] pool4/3x3_s2 <- inception_4e/output
I0403 14:02:14.970023   662 net.cpp:399] pool4/3x3_s2 -> pool4/3x3_s2
I0403 14:02:14.970093   662 net.cpp:141] Setting up pool4/3x3_s2
I0403 14:02:14.970118   662 net.cpp:148] Top shape: 24 832 7 7 (978432)
I0403 14:02:14.970132   662 net.cpp:156] Memory required for data: 1276470816
I0403 14:02:14.970147   662 layer_factory.hpp:77] Creating layer pool4/3x3_s2_pool4/3x3_s2_0_split
I0403 14:02:14.970168   662 net.cpp:91] Creating Layer pool4/3x3_s2_pool4/3x3_s2_0_split
I0403 14:02:14.970193   662 net.cpp:425] pool4/3x3_s2_pool4/3x3_s2_0_split <- pool4/3x3_s2
I0403 14:02:14.970216   662 net.cpp:399] pool4/3x3_s2_pool4/3x3_s2_0_split -> pool4/3x3_s2_pool4/3x3_s2_0_split_0
I0403 14:02:14.970237   662 net.cpp:399] pool4/3x3_s2_pool4/3x3_s2_0_split -> pool4/3x3_s2_pool4/3x3_s2_0_split_1
I0403 14:02:14.970257   662 net.cpp:399] pool4/3x3_s2_pool4/3x3_s2_0_split -> pool4/3x3_s2_pool4/3x3_s2_0_split_2
I0403 14:02:14.970278   662 net.cpp:399] pool4/3x3_s2_pool4/3x3_s2_0_split -> pool4/3x3_s2_pool4/3x3_s2_0_split_3
I0403 14:02:14.970371   662 net.cpp:141] Setting up pool4/3x3_s2_pool4/3x3_s2_0_split
I0403 14:02:14.970396   662 net.cpp:148] Top shape: 24 832 7 7 (978432)
I0403 14:02:14.970412   662 net.cpp:148] Top shape: 24 832 7 7 (978432)
I0403 14:02:14.970427   662 net.cpp:148] Top shape: 24 832 7 7 (978432)
I0403 14:02:14.970443   662 net.cpp:148] Top shape: 24 832 7 7 (978432)
I0403 14:02:14.970456   662 net.cpp:156] Memory required for data: 1292125728
I0403 14:02:14.970471   662 layer_factory.hpp:77] Creating layer inception_5a/1x1
I0403 14:02:14.970494   662 net.cpp:91] Creating Layer inception_5a/1x1
I0403 14:02:14.970511   662 net.cpp:425] inception_5a/1x1 <- pool4/3x3_s2_pool4/3x3_s2_0_split_0
I0403 14:02:14.970533   662 net.cpp:399] inception_5a/1x1 -> inception_5a/1x1
I0403 14:02:14.973505   662 net.cpp:141] Setting up inception_5a/1x1
I0403 14:02:14.973537   662 net.cpp:148] Top shape: 24 256 7 7 (301056)
I0403 14:02:14.973554   662 net.cpp:156] Memory required for data: 1293329952
I0403 14:02:14.973573   662 layer_factory.hpp:77] Creating layer inception_5a/relu_1x1
I0403 14:02:14.973592   662 net.cpp:91] Creating Layer inception_5a/relu_1x1
I0403 14:02:14.973608   662 net.cpp:425] inception_5a/relu_1x1 <- inception_5a/1x1
I0403 14:02:14.973625   662 net.cpp:386] inception_5a/relu_1x1 -> inception_5a/1x1 (in-place)
I0403 14:02:14.973948   662 net.cpp:141] Setting up inception_5a/relu_1x1
I0403 14:02:14.973978   662 net.cpp:148] Top shape: 24 256 7 7 (301056)
I0403 14:02:14.973994   662 net.cpp:156] Memory required for data: 1294534176
I0403 14:02:14.974009   662 layer_factory.hpp:77] Creating layer inception_5a/3x3_reduce
I0403 14:02:14.974032   662 net.cpp:91] Creating Layer inception_5a/3x3_reduce
I0403 14:02:14.974050   662 net.cpp:425] inception_5a/3x3_reduce <- pool4/3x3_s2_pool4/3x3_s2_0_split_1
I0403 14:02:14.974071   662 net.cpp:399] inception_5a/3x3_reduce -> inception_5a/3x3_reduce
I0403 14:02:14.976629   662 net.cpp:141] Setting up inception_5a/3x3_reduce
I0403 14:02:14.976657   662 net.cpp:148] Top shape: 24 160 7 7 (188160)
I0403 14:02:14.976673   662 net.cpp:156] Memory required for data: 1295286816
I0403 14:02:14.976691   662 layer_factory.hpp:77] Creating layer inception_5a/relu_3x3_reduce
I0403 14:02:14.976714   662 net.cpp:91] Creating Layer inception_5a/relu_3x3_reduce
I0403 14:02:14.976732   662 net.cpp:425] inception_5a/relu_3x3_reduce <- inception_5a/3x3_reduce
I0403 14:02:14.976749   662 net.cpp:386] inception_5a/relu_3x3_reduce -> inception_5a/3x3_reduce (in-place)
I0403 14:02:14.976936   662 net.cpp:141] Setting up inception_5a/relu_3x3_reduce
I0403 14:02:14.976963   662 net.cpp:148] Top shape: 24 160 7 7 (188160)
I0403 14:02:14.976979   662 net.cpp:156] Memory required for data: 1296039456
I0403 14:02:14.976992   662 layer_factory.hpp:77] Creating layer inception_5a/3x3
I0403 14:02:14.977012   662 net.cpp:91] Creating Layer inception_5a/3x3
I0403 14:02:14.977030   662 net.cpp:425] inception_5a/3x3 <- inception_5a/3x3_reduce
I0403 14:02:14.977051   662 net.cpp:399] inception_5a/3x3 -> inception_5a/3x3
I0403 14:02:14.982125   662 net.cpp:141] Setting up inception_5a/3x3
I0403 14:02:14.982156   662 net.cpp:148] Top shape: 24 320 7 7 (376320)
I0403 14:02:14.982172   662 net.cpp:156] Memory required for data: 1297544736
I0403 14:02:14.982203   662 layer_factory.hpp:77] Creating layer inception_5a/relu_3x3
I0403 14:02:14.982225   662 net.cpp:91] Creating Layer inception_5a/relu_3x3
I0403 14:02:14.982244   662 net.cpp:425] inception_5a/relu_3x3 <- inception_5a/3x3
I0403 14:02:14.982260   662 net.cpp:386] inception_5a/relu_3x3 -> inception_5a/3x3 (in-place)
I0403 14:02:14.982564   662 net.cpp:141] Setting up inception_5a/relu_3x3
I0403 14:02:14.982590   662 net.cpp:148] Top shape: 24 320 7 7 (376320)
I0403 14:02:14.982605   662 net.cpp:156] Memory required for data: 1299050016
I0403 14:02:14.982620   662 layer_factory.hpp:77] Creating layer inception_5a/5x5_reduce
I0403 14:02:14.982645   662 net.cpp:91] Creating Layer inception_5a/5x5_reduce
I0403 14:02:14.982662   662 net.cpp:425] inception_5a/5x5_reduce <- pool4/3x3_s2_pool4/3x3_s2_0_split_2
I0403 14:02:14.982681   662 net.cpp:399] inception_5a/5x5_reduce -> inception_5a/5x5_reduce
I0403 14:02:14.983857   662 net.cpp:141] Setting up inception_5a/5x5_reduce
I0403 14:02:14.983887   662 net.cpp:148] Top shape: 24 32 7 7 (37632)
I0403 14:02:14.983904   662 net.cpp:156] Memory required for data: 1299200544
I0403 14:02:14.983923   662 layer_factory.hpp:77] Creating layer inception_5a/relu_5x5_reduce
I0403 14:02:14.983940   662 net.cpp:91] Creating Layer inception_5a/relu_5x5_reduce
I0403 14:02:14.983958   662 net.cpp:425] inception_5a/relu_5x5_reduce <- inception_5a/5x5_reduce
I0403 14:02:14.983974   662 net.cpp:386] inception_5a/relu_5x5_reduce -> inception_5a/5x5_reduce (in-place)
I0403 14:02:14.984289   662 net.cpp:141] Setting up inception_5a/relu_5x5_reduce
I0403 14:02:14.984318   662 net.cpp:148] Top shape: 24 32 7 7 (37632)
I0403 14:02:14.984333   662 net.cpp:156] Memory required for data: 1299351072
I0403 14:02:14.984349   662 layer_factory.hpp:77] Creating layer inception_5a/5x5
I0403 14:02:14.984371   662 net.cpp:91] Creating Layer inception_5a/5x5
I0403 14:02:14.984388   662 net.cpp:425] inception_5a/5x5 <- inception_5a/5x5_reduce
I0403 14:02:14.984411   662 net.cpp:399] inception_5a/5x5 -> inception_5a/5x5
I0403 14:02:14.986135   662 net.cpp:141] Setting up inception_5a/5x5
I0403 14:02:14.986182   662 net.cpp:148] Top shape: 24 128 7 7 (150528)
I0403 14:02:14.986201   662 net.cpp:156] Memory required for data: 1299953184
I0403 14:02:14.986218   662 layer_factory.hpp:77] Creating layer inception_5a/relu_5x5
I0403 14:02:14.986239   662 net.cpp:91] Creating Layer inception_5a/relu_5x5
I0403 14:02:14.986256   662 net.cpp:425] inception_5a/relu_5x5 <- inception_5a/5x5
I0403 14:02:14.986274   662 net.cpp:386] inception_5a/relu_5x5 -> inception_5a/5x5 (in-place)
I0403 14:02:14.986466   662 net.cpp:141] Setting up inception_5a/relu_5x5
I0403 14:02:14.986491   662 net.cpp:148] Top shape: 24 128 7 7 (150528)
I0403 14:02:14.986506   662 net.cpp:156] Memory required for data: 1300555296
I0403 14:02:14.986521   662 layer_factory.hpp:77] Creating layer inception_5a/pool
I0403 14:02:14.986538   662 net.cpp:91] Creating Layer inception_5a/pool
I0403 14:02:14.986554   662 net.cpp:425] inception_5a/pool <- pool4/3x3_s2_pool4/3x3_s2_0_split_3
I0403 14:02:14.986574   662 net.cpp:399] inception_5a/pool -> inception_5a/pool
I0403 14:02:14.986646   662 net.cpp:141] Setting up inception_5a/pool
I0403 14:02:14.986670   662 net.cpp:148] Top shape: 24 832 7 7 (978432)
I0403 14:02:14.986683   662 net.cpp:156] Memory required for data: 1304469024
I0403 14:02:14.986697   662 layer_factory.hpp:77] Creating layer inception_5a/pool_proj
I0403 14:02:14.986721   662 net.cpp:91] Creating Layer inception_5a/pool_proj
I0403 14:02:14.986738   662 net.cpp:425] inception_5a/pool_proj <- inception_5a/pool
I0403 14:02:14.986757   662 net.cpp:399] inception_5a/pool_proj -> inception_5a/pool_proj
I0403 14:02:14.989047   662 net.cpp:141] Setting up inception_5a/pool_proj
I0403 14:02:14.989076   662 net.cpp:148] Top shape: 24 128 7 7 (150528)
I0403 14:02:14.989091   662 net.cpp:156] Memory required for data: 1305071136
I0403 14:02:14.989109   662 layer_factory.hpp:77] Creating layer inception_5a/relu_pool_proj
I0403 14:02:14.989130   662 net.cpp:91] Creating Layer inception_5a/relu_pool_proj
I0403 14:02:14.989145   662 net.cpp:425] inception_5a/relu_pool_proj <- inception_5a/pool_proj
I0403 14:02:14.989163   662 net.cpp:386] inception_5a/relu_pool_proj -> inception_5a/pool_proj (in-place)
I0403 14:02:14.989465   662 net.cpp:141] Setting up inception_5a/relu_pool_proj
I0403 14:02:14.989492   662 net.cpp:148] Top shape: 24 128 7 7 (150528)
I0403 14:02:14.989506   662 net.cpp:156] Memory required for data: 1305673248
I0403 14:02:14.989521   662 layer_factory.hpp:77] Creating layer inception_5a/output
I0403 14:02:14.989542   662 net.cpp:91] Creating Layer inception_5a/output
I0403 14:02:14.989558   662 net.cpp:425] inception_5a/output <- inception_5a/1x1
I0403 14:02:14.989575   662 net.cpp:425] inception_5a/output <- inception_5a/3x3
I0403 14:02:14.989591   662 net.cpp:425] inception_5a/output <- inception_5a/5x5
I0403 14:02:14.989606   662 net.cpp:425] inception_5a/output <- inception_5a/pool_proj
I0403 14:02:14.989624   662 net.cpp:399] inception_5a/output -> inception_5a/output
I0403 14:02:14.989677   662 net.cpp:141] Setting up inception_5a/output
I0403 14:02:14.989701   662 net.cpp:148] Top shape: 24 832 7 7 (978432)
I0403 14:02:14.989714   662 net.cpp:156] Memory required for data: 1309586976
I0403 14:02:14.989729   662 layer_factory.hpp:77] Creating layer inception_5a/output_inception_5a/output_0_split
I0403 14:02:14.989747   662 net.cpp:91] Creating Layer inception_5a/output_inception_5a/output_0_split
I0403 14:02:14.989763   662 net.cpp:425] inception_5a/output_inception_5a/output_0_split <- inception_5a/output
I0403 14:02:14.989781   662 net.cpp:399] inception_5a/output_inception_5a/output_0_split -> inception_5a/output_inception_5a/output_0_split_0
I0403 14:02:14.989801   662 net.cpp:399] inception_5a/output_inception_5a/output_0_split -> inception_5a/output_inception_5a/output_0_split_1
I0403 14:02:14.989822   662 net.cpp:399] inception_5a/output_inception_5a/output_0_split -> inception_5a/output_inception_5a/output_0_split_2
I0403 14:02:14.989842   662 net.cpp:399] inception_5a/output_inception_5a/output_0_split -> inception_5a/output_inception_5a/output_0_split_3
I0403 14:02:14.989953   662 net.cpp:141] Setting up inception_5a/output_inception_5a/output_0_split
I0403 14:02:14.989979   662 net.cpp:148] Top shape: 24 832 7 7 (978432)
I0403 14:02:14.989996   662 net.cpp:148] Top shape: 24 832 7 7 (978432)
I0403 14:02:14.990012   662 net.cpp:148] Top shape: 24 832 7 7 (978432)
I0403 14:02:14.990027   662 net.cpp:148] Top shape: 24 832 7 7 (978432)
I0403 14:02:14.990041   662 net.cpp:156] Memory required for data: 1325241888
I0403 14:02:14.990056   662 layer_factory.hpp:77] Creating layer inception_5b/1x1
I0403 14:02:14.990077   662 net.cpp:91] Creating Layer inception_5b/1x1
I0403 14:02:14.990093   662 net.cpp:425] inception_5b/1x1 <- inception_5a/output_inception_5a/output_0_split_0
I0403 14:02:14.990113   662 net.cpp:399] inception_5b/1x1 -> inception_5b/1x1
I0403 14:02:14.993911   662 net.cpp:141] Setting up inception_5b/1x1
I0403 14:02:14.993939   662 net.cpp:148] Top shape: 24 384 7 7 (451584)
I0403 14:02:14.993955   662 net.cpp:156] Memory required for data: 1327048224
I0403 14:02:14.993974   662 layer_factory.hpp:77] Creating layer inception_5b/relu_1x1
I0403 14:02:14.993994   662 net.cpp:91] Creating Layer inception_5b/relu_1x1
I0403 14:02:14.994011   662 net.cpp:425] inception_5b/relu_1x1 <- inception_5b/1x1
I0403 14:02:14.994029   662 net.cpp:386] inception_5b/relu_1x1 -> inception_5b/1x1 (in-place)
I0403 14:02:14.994343   662 net.cpp:141] Setting up inception_5b/relu_1x1
I0403 14:02:14.994369   662 net.cpp:148] Top shape: 24 384 7 7 (451584)
I0403 14:02:14.994385   662 net.cpp:156] Memory required for data: 1328854560
I0403 14:02:14.994398   662 layer_factory.hpp:77] Creating layer inception_5b/3x3_reduce
I0403 14:02:14.994421   662 net.cpp:91] Creating Layer inception_5b/3x3_reduce
I0403 14:02:14.994439   662 net.cpp:425] inception_5b/3x3_reduce <- inception_5a/output_inception_5a/output_0_split_1
I0403 14:02:14.994462   662 net.cpp:399] inception_5b/3x3_reduce -> inception_5b/3x3_reduce
I0403 14:02:14.997140   662 net.cpp:141] Setting up inception_5b/3x3_reduce
I0403 14:02:14.997170   662 net.cpp:148] Top shape: 24 192 7 7 (225792)
I0403 14:02:14.997194   662 net.cpp:156] Memory required for data: 1329757728
I0403 14:02:14.997212   662 layer_factory.hpp:77] Creating layer inception_5b/relu_3x3_reduce
I0403 14:02:14.997233   662 net.cpp:91] Creating Layer inception_5b/relu_3x3_reduce
I0403 14:02:14.997251   662 net.cpp:425] inception_5b/relu_3x3_reduce <- inception_5b/3x3_reduce
I0403 14:02:14.997268   662 net.cpp:386] inception_5b/relu_3x3_reduce -> inception_5b/3x3_reduce (in-place)
I0403 14:02:14.997459   662 net.cpp:141] Setting up inception_5b/relu_3x3_reduce
I0403 14:02:14.997485   662 net.cpp:148] Top shape: 24 192 7 7 (225792)
I0403 14:02:14.997500   662 net.cpp:156] Memory required for data: 1330660896
I0403 14:02:14.997515   662 layer_factory.hpp:77] Creating layer inception_5b/3x3
I0403 14:02:14.997537   662 net.cpp:91] Creating Layer inception_5b/3x3
I0403 14:02:14.997555   662 net.cpp:425] inception_5b/3x3 <- inception_5b/3x3_reduce
I0403 14:02:14.997575   662 net.cpp:399] inception_5b/3x3 -> inception_5b/3x3
I0403 14:02:15.004341   662 net.cpp:141] Setting up inception_5b/3x3
I0403 14:02:15.004374   662 net.cpp:148] Top shape: 24 384 7 7 (451584)
I0403 14:02:15.004390   662 net.cpp:156] Memory required for data: 1332467232
I0403 14:02:15.004410   662 layer_factory.hpp:77] Creating layer inception_5b/relu_3x3
I0403 14:02:15.004431   662 net.cpp:91] Creating Layer inception_5b/relu_3x3
I0403 14:02:15.004448   662 net.cpp:425] inception_5b/relu_3x3 <- inception_5b/3x3
I0403 14:02:15.004478   662 net.cpp:386] inception_5b/relu_3x3 -> inception_5b/3x3 (in-place)
I0403 14:02:15.004778   662 net.cpp:141] Setting up inception_5b/relu_3x3
I0403 14:02:15.004804   662 net.cpp:148] Top shape: 24 384 7 7 (451584)
I0403 14:02:15.004819   662 net.cpp:156] Memory required for data: 1334273568
I0403 14:02:15.004834   662 layer_factory.hpp:77] Creating layer inception_5b/5x5_reduce
I0403 14:02:15.004880   662 net.cpp:91] Creating Layer inception_5b/5x5_reduce
I0403 14:02:15.004899   662 net.cpp:425] inception_5b/5x5_reduce <- inception_5a/output_inception_5a/output_0_split_2
I0403 14:02:15.004922   662 net.cpp:399] inception_5b/5x5_reduce -> inception_5b/5x5_reduce
I0403 14:02:15.006211   662 net.cpp:141] Setting up inception_5b/5x5_reduce
I0403 14:02:15.006239   662 net.cpp:148] Top shape: 24 48 7 7 (56448)
I0403 14:02:15.006255   662 net.cpp:156] Memory required for data: 1334499360
I0403 14:02:15.006273   662 layer_factory.hpp:77] Creating layer inception_5b/relu_5x5_reduce
I0403 14:02:15.006294   662 net.cpp:91] Creating Layer inception_5b/relu_5x5_reduce
I0403 14:02:15.006311   662 net.cpp:425] inception_5b/relu_5x5_reduce <- inception_5b/5x5_reduce
I0403 14:02:15.006330   662 net.cpp:386] inception_5b/relu_5x5_reduce -> inception_5b/5x5_reduce (in-place)
I0403 14:02:15.006702   662 net.cpp:141] Setting up inception_5b/relu_5x5_reduce
I0403 14:02:15.006729   662 net.cpp:148] Top shape: 24 48 7 7 (56448)
I0403 14:02:15.006744   662 net.cpp:156] Memory required for data: 1334725152
I0403 14:02:15.006759   662 layer_factory.hpp:77] Creating layer inception_5b/5x5
I0403 14:02:15.006779   662 net.cpp:91] Creating Layer inception_5b/5x5
I0403 14:02:15.006798   662 net.cpp:425] inception_5b/5x5 <- inception_5b/5x5_reduce
I0403 14:02:15.006816   662 net.cpp:399] inception_5b/5x5 -> inception_5b/5x5
I0403 14:02:15.008900   662 net.cpp:141] Setting up inception_5b/5x5
I0403 14:02:15.008930   662 net.cpp:148] Top shape: 24 128 7 7 (150528)
I0403 14:02:15.008947   662 net.cpp:156] Memory required for data: 1335327264
I0403 14:02:15.008966   662 layer_factory.hpp:77] Creating layer inception_5b/relu_5x5
I0403 14:02:15.008983   662 net.cpp:91] Creating Layer inception_5b/relu_5x5
I0403 14:02:15.009001   662 net.cpp:425] inception_5b/relu_5x5 <- inception_5b/5x5
I0403 14:02:15.009017   662 net.cpp:386] inception_5b/relu_5x5 -> inception_5b/5x5 (in-place)
I0403 14:02:15.009222   662 net.cpp:141] Setting up inception_5b/relu_5x5
I0403 14:02:15.009248   662 net.cpp:148] Top shape: 24 128 7 7 (150528)
I0403 14:02:15.009263   662 net.cpp:156] Memory required for data: 1335929376
I0403 14:02:15.009279   662 layer_factory.hpp:77] Creating layer inception_5b/pool
I0403 14:02:15.009296   662 net.cpp:91] Creating Layer inception_5b/pool
I0403 14:02:15.009313   662 net.cpp:425] inception_5b/pool <- inception_5a/output_inception_5a/output_0_split_3
I0403 14:02:15.009335   662 net.cpp:399] inception_5b/pool -> inception_5b/pool
I0403 14:02:15.009408   662 net.cpp:141] Setting up inception_5b/pool
I0403 14:02:15.009434   662 net.cpp:148] Top shape: 24 832 7 7 (978432)
I0403 14:02:15.009449   662 net.cpp:156] Memory required for data: 1339843104
I0403 14:02:15.009464   662 layer_factory.hpp:77] Creating layer inception_5b/pool_proj
I0403 14:02:15.009486   662 net.cpp:91] Creating Layer inception_5b/pool_proj
I0403 14:02:15.009505   662 net.cpp:425] inception_5b/pool_proj <- inception_5b/pool
I0403 14:02:15.009524   662 net.cpp:399] inception_5b/pool_proj -> inception_5b/pool_proj
I0403 14:02:15.011852   662 net.cpp:141] Setting up inception_5b/pool_proj
I0403 14:02:15.011883   662 net.cpp:148] Top shape: 24 128 7 7 (150528)
I0403 14:02:15.011898   662 net.cpp:156] Memory required for data: 1340445216
I0403 14:02:15.011917   662 layer_factory.hpp:77] Creating layer inception_5b/relu_pool_proj
I0403 14:02:15.011937   662 net.cpp:91] Creating Layer inception_5b/relu_pool_proj
I0403 14:02:15.011955   662 net.cpp:425] inception_5b/relu_pool_proj <- inception_5b/pool_proj
I0403 14:02:15.011973   662 net.cpp:386] inception_5b/relu_pool_proj -> inception_5b/pool_proj (in-place)
I0403 14:02:15.012302   662 net.cpp:141] Setting up inception_5b/relu_pool_proj
I0403 14:02:15.012331   662 net.cpp:148] Top shape: 24 128 7 7 (150528)
I0403 14:02:15.012346   662 net.cpp:156] Memory required for data: 1341047328
I0403 14:02:15.012361   662 layer_factory.hpp:77] Creating layer inception_5b/output
I0403 14:02:15.012382   662 net.cpp:91] Creating Layer inception_5b/output
I0403 14:02:15.012415   662 net.cpp:425] inception_5b/output <- inception_5b/1x1
I0403 14:02:15.012435   662 net.cpp:425] inception_5b/output <- inception_5b/3x3
I0403 14:02:15.012452   662 net.cpp:425] inception_5b/output <- inception_5b/5x5
I0403 14:02:15.012470   662 net.cpp:425] inception_5b/output <- inception_5b/pool_proj
I0403 14:02:15.012487   662 net.cpp:399] inception_5b/output -> inception_5b/output
I0403 14:02:15.012543   662 net.cpp:141] Setting up inception_5b/output
I0403 14:02:15.012567   662 net.cpp:148] Top shape: 24 1024 7 7 (1204224)
I0403 14:02:15.012583   662 net.cpp:156] Memory required for data: 1345864224
I0403 14:02:15.012598   662 layer_factory.hpp:77] Creating layer pool5/7x7_s1
I0403 14:02:15.012615   662 net.cpp:91] Creating Layer pool5/7x7_s1
I0403 14:02:15.012631   662 net.cpp:425] pool5/7x7_s1 <- inception_5b/output
I0403 14:02:15.012652   662 net.cpp:399] pool5/7x7_s1 -> pool5/7x7_s1
I0403 14:02:15.012876   662 net.cpp:141] Setting up pool5/7x7_s1
I0403 14:02:15.012902   662 net.cpp:148] Top shape: 24 1024 1 1 (24576)
I0403 14:02:15.012917   662 net.cpp:156] Memory required for data: 1345962528
I0403 14:02:15.012933   662 layer_factory.hpp:77] Creating layer pool5/drop_7x7_s1
I0403 14:02:15.012954   662 net.cpp:91] Creating Layer pool5/drop_7x7_s1
I0403 14:02:15.012971   662 net.cpp:425] pool5/drop_7x7_s1 <- pool5/7x7_s1
I0403 14:02:15.012989   662 net.cpp:386] pool5/drop_7x7_s1 -> pool5/7x7_s1 (in-place)
I0403 14:02:15.013042   662 net.cpp:141] Setting up pool5/drop_7x7_s1
I0403 14:02:15.013067   662 net.cpp:148] Top shape: 24 1024 1 1 (24576)
I0403 14:02:15.013082   662 net.cpp:156] Memory required for data: 1346060832
I0403 14:02:15.013098   662 layer_factory.hpp:77] Creating layer loss3/classifier_plantvillage
I0403 14:02:15.013119   662 net.cpp:91] Creating Layer loss3/classifier_plantvillage
I0403 14:02:15.013137   662 net.cpp:425] loss3/classifier_plantvillage <- pool5/7x7_s1
I0403 14:02:15.013156   662 net.cpp:399] loss3/classifier_plantvillage -> loss3/classifier_plantvillage
I0403 14:02:15.013604   662 net.cpp:141] Setting up loss3/classifier_plantvillage
I0403 14:02:15.013629   662 net.cpp:148] Top shape: 24 38 (912)
I0403 14:02:15.013644   662 net.cpp:156] Memory required for data: 1346064480
I0403 14:02:15.013664   662 layer_factory.hpp:77] Creating layer loss3/classifier_plantvillage_loss3/classifier_plantvillage_0_split
I0403 14:02:15.013682   662 net.cpp:91] Creating Layer loss3/classifier_plantvillage_loss3/classifier_plantvillage_0_split
I0403 14:02:15.013700   662 net.cpp:425] loss3/classifier_plantvillage_loss3/classifier_plantvillage_0_split <- loss3/classifier_plantvillage
I0403 14:02:15.013721   662 net.cpp:399] loss3/classifier_plantvillage_loss3/classifier_plantvillage_0_split -> loss3/classifier_plantvillage_loss3/classifier_plantvillage_0_split_0
I0403 14:02:15.013743   662 net.cpp:399] loss3/classifier_plantvillage_loss3/classifier_plantvillage_0_split -> loss3/classifier_plantvillage_loss3/classifier_plantvillage_0_split_1
I0403 14:02:15.013766   662 net.cpp:399] loss3/classifier_plantvillage_loss3/classifier_plantvillage_0_split -> loss3/classifier_plantvillage_loss3/classifier_plantvillage_0_split_2
I0403 14:02:15.013785   662 net.cpp:399] loss3/classifier_plantvillage_loss3/classifier_plantvillage_0_split -> loss3/classifier_plantvillage_loss3/classifier_plantvillage_0_split_3
I0403 14:02:15.013890   662 net.cpp:141] Setting up loss3/classifier_plantvillage_loss3/classifier_plantvillage_0_split
I0403 14:02:15.013913   662 net.cpp:148] Top shape: 24 38 (912)
I0403 14:02:15.013929   662 net.cpp:148] Top shape: 24 38 (912)
I0403 14:02:15.013945   662 net.cpp:148] Top shape: 24 38 (912)
I0403 14:02:15.013962   662 net.cpp:148] Top shape: 24 38 (912)
I0403 14:02:15.013975   662 net.cpp:156] Memory required for data: 1346079072
I0403 14:02:15.013990   662 layer_factory.hpp:77] Creating layer loss1/loss
I0403 14:02:15.014013   662 net.cpp:91] Creating Layer loss1/loss
I0403 14:02:15.014031   662 net.cpp:425] loss1/loss <- loss1/classifier_plantvillage_loss1/classifier_plantvillage_0_split_0
I0403 14:02:15.014063   662 net.cpp:425] loss1/loss <- label_data_1_split_0
…
