…
I0403 14:21:44.485730  1185 net.cpp:313] The NetState phase (1) differed from the phase (0) specified by a rule in layer data
I0403 14:21:44.486886  1185 net.cpp:49] Initializing net from parameters: 
state {
  phase: TEST
}
layer {
  name: "data"
  type: "Data"
  top: "data"
  top: "label"
  include {
    phase: TEST
  }
  transform_param {
    mirror: false
    crop_size: 224
    mean_file: "/home/mohanty/data/final_dataset/lmdb/grayscale-20-80/mean.binaryproto"
  }
  data_param {
    source: "/home/mohanty/data/final_dataset/lmdb/grayscale-20-80/test_db"
    batch_size: 24
    backend: LMDB
  }
}
layer {
  name: "conv1/7x7_s2"
  type: "Convolution"
  bottom: "data"
  top: "conv1/7x7_s2"
  param {
    lr_mult: 1
    decay_mult: 1
  }
  param {
    lr_mult: 2
    decay_mult: 0
  }
  convolution_param {
    num_output: 64
    pad: 3
    kernel_size: 7
    stride: 2
    weight_filler {
      type: "xavier"
      std: 0.1
    }
    bias_filler {
      type: "constant"
      value: 0.2
    }
  }
}
layer {
  name: "conv1/relu_7x7"
  type: "ReLU"
  bottom: "conv1/7x7_s2"
  top: "conv1/7x7_s2"
}
layer {
  name: "pool1/3x3_s2"
  type: "Pooling"
  bottom: "conv1/7x7_s2"
  top: "pool1/3x3_s2"
  pooling_param {
    pool: MAX
    kernel_size: 3
    stride: 2
  }
}
layer {
  name: "pool1/norm1"
  type: "LRN"
  bottom: "pool1/3x3_s2"
  top: "pool1/norm1"
  lrn_param {
    local_size: 5
    alpha: 0.0001
    beta: 0.75
  }
}
layer {
  name: "conv2/3x3_reduce"
  type: "Convolution"
  bottom: "pool1/norm1"
  top: "conv2/3x3_reduce"
  param {
    lr_mult: 1
    decay_mult: 1
  }
  param {
    lr_mult: 2
    decay_mult: 0
  }
  convolution_param {
    num_output: 64
    kernel_size: 1
    weight_filler {
      type: "xavier"
      std: 0.1
    }
    bias_filler {
      type: "constant"
      value: 0.2
    }
  }
}
layer {
  name: "conv2/relu_3x3_reduce"
  type: "ReLU"
  bottom: "conv2/3x3_reduce"
  top: "conv2/3x3_reduce"
}
layer {
  name: "conv2/3x3"
  type: "Convolution"
  bottom: "conv2/3x3_reduce"
  top: "conv2/3x3"
  param {
    lr_mult: 1
    decay_mult: 1
  }
  param {
    lr_mult: 2
    decay_mult: 0
  }
  convolution_param {
    num_output: 192
    pad: 1
    kernel_size: 3
    weight_filler {
      type: "xavier"
      std: 0.03
    }
    bias_filler {
      type: "constant"
      value: 0.2
    }
  }
}
layer {
  name: "conv2/relu_3x3"
  type: "ReLU"
  bottom: "conv2/3x3"
  top: "conv2/3x3"
}
layer {
  name: "conv2/norm2"
  type: "LRN"
  bottom: "conv2/3x3"
  top: "conv2/norm2"
  lrn_param {
    local_size: 5
    alpha: 0.0001
    beta: 0.75
  }
}
layer {
  name: "pool2/3x3_s2"
  type: "Pooling"
  bottom: "conv2/norm2"
  top: "pool2/3x3_s2"
  pooling_param {
    pool: MAX
    kernel_size: 3
    stride: 2
  }
}
layer {
  name: "inception_3a/1x1"
  type: "Convolution"
  bottom: "pool2/3x3_s2"
  top: "inception_3a/1x1"
  param {
    lr_mult: 1
    decay_mult: 1
  }
  param {
    lr_mult: 2
    decay_mult: 0
  }
  convolution_param {
    num_output: 64
    kernel_size: 1
    weight_filler {
      type: "xavier"
      std: 0.03
    }
    bias_filler {
      type: "constant"
      value: 0.2
    }
  }
}
layer {
  name: "inception_3a/relu_1x1"
  type: "ReLU"
  bottom: "inception_3a/1x1"
  top: "inception_3a/1x1"
}
layer {
  name: "inception_3a/3x3_reduce"
  type: "Convolution"
  bottom: "pool2/3x3_s2"
  top: "inception_3a/3x3_reduce"
  param {
    lr_mult: 1
    decay_mult: 1
  }
  param {
    lr_mult: 2
    decay_mult: 0
  }
  convolution_param {
    num_output: 96
    kernel_size: 1
    weight_filler {
      type: "xavier"
      std: 0.09
    }
    bias_filler {
      type: "constant"
      value: 0.2
    }
  }
}
layer {
  name: "inception_3a/relu_3x3_reduce"
  type: "ReLU"
  bottom: "inception_3a/3x3_reduce"
  top: "inception_3a/3x3_reduce"
}
layer {
  name: "inception_3a/3x3"
  type: "Convolution"
  bottom: "inception_3a/3x3_reduce"
  top: "inception_3a/3x3"
  param {
    lr_mult: 1
    decay_mult: 1
  }
  param {
    lr_mult: 2
    decay_mult: 0
  }
  convolution_param {
    num_output: 128
    pad: 1
    kernel_size: 3
    weight_filler {
      type: "xavier"
      std: 0.03
    }
    bias_filler {
      type: "constant"
      value: 0.2
    }
  }
}
layer {
  name: "inception_3a/relu_3x3"
  type: "ReLU"
  bottom: "inception_3a/3x3"
  top: "inception_3a/3x3"
}
layer {
  name: "inception_3a/5x5_reduce"
  type: "Convolution"
  bottom: "pool2/3x3_s2"
  top: "inception_3a/5x5_reduce"
  param {
    lr_mult: 1
    decay_mult: 1
  }
  param {
    lr_mult: 2
    decay_mult: 0
  }
  convolution_param {
    num_output: 16
    kernel_size: 1
    weight_filler {
      type: "xavier"
      std: 0.2
    }
    bias_filler {
      type: "constant"
      value: 0.2
    }
  }
}
layer {
  name: "inception_3a/relu_5x5_reduce"
  type: "ReLU"
  bottom: "inception_3a/5x5_reduce"
  top: "inception_3a/5x5_reduce"
}
layer {
  name: "inception_3a/5x5"
  type: "Convolution"
  bottom: "inception_3a/5x5_reduce"
  top: "inception_3a/5x5"
  param {
    lr_mult: 1
    decay_mult: 1
  }
  param {
    lr_mult: 2
    decay_mult: 0
  }
  convolution_param {
    num_output: 32
    pad: 2
    kernel_size: 5
    weight_filler {
      type: "xavier"
      std: 0.03
    }
    bias_filler {
      type: "constant"
      value: 0.2
    }
  }
}
layer {
  name: "inception_3a/relu_5x5"
  type: "ReLU"
  bottom: "inception_3a/5x5"
  top: "inception_3a/5x5"
}
layer {
  name: "inception_3a/pool"
  type: "Pooling"
  bottom: "pool2/3x3_s2"
  top: "inception_3a/pool"
  pooling_param {
    pool: MAX
    kernel_size: 3
    stride: 1
    pad: 1
  }
}
layer {
  name: "inception_3a/pool_proj"
  type: "Convolution"
  bottom: "inception_3a/pool"
  top: "inception_3a/pool_proj"
  param {
    lr_mult: 1
    decay_mult: 1
  }
  param {
    lr_mult: 2
    decay_mult: 0
  }
  convolution_param {
    num_output: 32
    kernel_size: 1
    weight_filler {
      type: "xavier"
      std: 0.1
    }
    bias_filler {
      type: "constant"
      value: 0.2
    }
  }
}
layer {
  name: "inception_3a/relu_pool_proj"
  type: "ReLU"
  bottom: "inception_3a/pool_proj"
  top: "inception_3a/pool_proj"
}
layer {
  name: "inception_3a/output"
  type: "Concat"
  bottom: "inception_3a/1x1"
  bottom: "inception_3a/3x3"
  bottom: "inception_3a/5x5"
  bottom: "inception_3a/pool_proj"
  top: "inception_3a/output"
}
layer {
  name: "inception_3b/1x1"
  type: "Convolution"
  bottom: "inception_3a/output"
  top: "inception_3b/1x1"
  param {
    lr_mult: 1
    decay_mult: 1
  }
  param {
    lr_mult: 2
    decay_mult: 0
  }
  convolution_param {
    num_output: 128
    kernel_size: 1
    weight_filler {
      type: "xavier"
      std: 0.03
    }
    bias_filler {
      type: "constant"
      value: 0.2
    }
  }
}
layer {
  name: "inception_3b/relu_1x1"
  type: "ReLU"
  bottom: "inception_3b/1x1"
  top: "inception_3b/1x1"
}
layer {
  name: "inception_3b/3x3_reduce"
  type: "Convolution"
  bottom: "inception_3a/output"
  top: "inception_3b/3x3_reduce"
  param {
    lr_mult: 1
    decay_mult: 1
  }
  param {
    lr_mult: 2
    decay_mult: 0
  }
  convolution_param {
    num_output: 128
    kernel_size: 1
    weight_filler {
      type: "xavier"
      std: 0.09
    }
    bias_filler {
      type: "constant"
      value: 0.2
    }
  }
}
layer {
  name: "inception_3b/relu_3x3_reduce"
  type: "ReLU"
  bottom: "inception_3b/3x3_reduce"
  top: "inception_3b/3x3_reduce"
}
layer {
  name: "inception_3b/3x3"
  type: "Convolution"
  bottom: "inception_3b/3x3_reduce"
  top: "inception_3b/3x3"
  param {
    lr_mult: 1
    decay_mult: 1
  }
  param {
    lr_mult: 2
    decay_mult: 0
  }
  convolution_param {
    num_output: 192
    pad: 1
    kernel_size: 3
    weight_filler {
      type: "xavier"
      std: 0.03
    }
    bias_filler {
      type: "constant"
      value: 0.2
    }
  }
}
layer {
  name: "inception_3b/relu_3x3"
  type: "ReLU"
  bottom: "inception_3b/3x3"
  top: "inception_3b/3x3"
}
layer {
  name: "inception_3b/5x5_reduce"
  type: "Convolution"
  bottom: "inception_3a/output"
  top: "inception_3b/5x5_reduce"
  param {
    lr_mult: 1
    decay_mult: 1
  }
  param {
    lr_mult: 2
    decay_mult: 0
  }
  convolution_param {
    num_output: 32
    kernel_size: 1
    weight_filler {
      type: "xavier"
      std: 0.2
    }
    bias_filler {
      type: "constant"
      value: 0.2
    }
  }
}
layer {
  name: "inception_3b/relu_5x5_reduce"
  type: "ReLU"
  bottom: "inception_3b/5x5_reduce"
  top: "inception_3b/5x5_reduce"
}
layer {
  name: "inception_3b/5x5"
  type: "Convolution"
  bottom: "inception_3b/5x5_reduce"
  top: "inception_3b/5x5"
  param {
    lr_mult: 1
    decay_mult: 1
  }
  param {
    lr_mult: 2
    decay_mult: 0
  }
  convolution_param {
    num_output: 96
    pad: 2
    kernel_size: 5
    weight_filler {
      type: "xavier"
      std: 0.03
    }
    bias_filler {
      type: "constant"
      value: 0.2
    }
  }
}
layer {
  name: "inception_3b/relu_5x5"
  type: "ReLU"
  bottom: "inception_3b/5x5"
  top: "inception_3b/5x5"
}
layer {
  name: "inception_3b/pool"
  type: "Pooling"
  bottom: "inception_3a/output"
  top: "inception_3b/pool"
  pooling_param {
    pool: MAX
    kernel_size: 3
    stride: 1
    pad: 1
  }
}
layer {
  name: "inception_3b/pool_proj"
  type: "Convolution"
  bottom: "inception_3b/pool"
  top: "inception_3b/pool_proj"
  param {
    lr_mult: 1
    decay_mult: 1
  }
  param {
    lr_mult: 2
    decay_mult: 0
  }
  convolution_param {
    num_output: 64
    kernel_size: 1
    weight_filler {
      type: "xavier"
      std: 0.1
    }
    bias_filler {
      type: "constant"
      value: 0.2
    }
  }
}
layer {
  name: "inception_3b/relu_pool_proj"
  type: "ReLU"
  bottom: "inception_3b/pool_proj"
  top: "inception_3b/pool_proj"
}
layer {
  name: "inception_3b/output"
  type: "Concat"
  bottom: "inception_3b/1x1"
  bottom: "inception_3b/3x3"
  bottom: "inception_3b/5x5"
  bottom: "inception_3b/pool_proj"
  top: "inception_3b/output"
}
layer {
  name: "pool3/3x3_s2"
  type: "Pooling"
  bottom: "inception_3b/output"
  top: "pool3/3x3_s2"
  pooling_param {
    pool: MAX
    kernel_size: 3
    stride: 2
  }
}
layer {
  name: "inception_4a/1x1"
  type: "Convolution"
  bottom: "pool3/3x3_s2"
  top: "inception_4a/1x1"
  param {
    lr_mult: 1
    decay_mult: 1
  }
  param {
    lr_mult: 2
    decay_mult: 0
  }
  convolution_param {
    num_output: 192
    kernel_size: 1
    weight_filler {
      type: "xavier"
      std: 0.03
    }
    bias_filler {
      type: "constant"
      value: 0.2
    }
  }
}
layer {
  name: "inception_4a/relu_1x1"
  type: "ReLU"
  bottom: "inception_4a/1x1"
  top: "inception_4a/1x1"
}
layer {
  name: "inception_4a/3x3_reduce"
  type: "Convolution"
  bottom: "pool3/3x3_s2"
  top: "inception_4a/3x3_reduce"
  param {
    lr_mult: 1
    decay_mult: 1
  }
  param {
    lr_mult: 2
    decay_mult: 0
  }
  convolution_param {
    num_output: 96
    kernel_size: 1
    weight_filler {
      type: "xavier"
      std: 0.09
    }
    bias_filler {
      type: "constant"
      value: 0.2
    }
  }
}
layer {
  name: "inception_4a/relu_3x3_reduce"
  type: "ReLU"
  bottom: "inception_4a/3x3_reduce"
  top: "inception_4a/3x3_reduce"
}
layer {
  name: "inception_4a/3x3"
  type: "Convolution"
  bottom: "inception_4a/3x3_reduce"
  top: "inception_4a/3x3"
  param {
    lr_mult: 1
    decay_mult: 1
  }
  param {
    lr_mult: 2
    decay_mult: 0
  }
  convolution_param {
    num_output: 208
    pad: 1
    kernel_size: 3
    weight_filler {
      type: "xavier"
      std: 0.03
    }
    bias_filler {
      type: "constant"
      value: 0.2
    }
  }
}
layer {
  name: "inception_4a/relu_3x3"
  type: "ReLU"
  bottom: "inception_4a/3x3"
  top: "inception_4a/3x3"
}
layer {
  name: "inception_4a/5x5_reduce"
  type: "Convolution"
  bottom: "pool3/3x3_s2"
  top: "inception_4a/5x5_reduce"
  param {
    lr_mult: 1
    decay_mult: 1
  }
  param {
    lr_mult: 2
    decay_mult: 0
  }
  convolution_param {
    num_output: 16
    kernel_size: 1
    weight_filler {
      type: "xavier"
      std: 0.2
    }
    bias_filler {
      type: "constant"
      value: 0.2
    }
  }
}
layer {
  name: "inception_4a/relu_5x5_reduce"
  type: "ReLU"
  bottom: "inception_4a/5x5_reduce"
  top: "inception_4a/5x5_reduce"
}
layer {
  name: "inception_4a/5x5"
  type: "Convolution"
  bottom: "inception_4a/5x5_reduce"
  top: "inception_4a/5x5"
  param {
    lr_mult: 1
    decay_mult: 1
  }
  param {
    lr_mult: 2
    decay_mult: 0
  }
  convolution_param {
    num_output: 48
    pad: 2
    kernel_size: 5
    weight_filler {
      type: "xavier"
      std: 0.03
    }
    bias_filler {
      type: "constant"
      value: 0.2
    }
  }
}
layer {
  name: "inception_4a/relu_5x5"
  type: "ReLU"
  bottom: "inception_4a/5x5"
  top: "inception_4a/5x5"
}
layer {
  name: "inception_4a/pool"
  type: "Pooling"
  bottom: "pool3/3x3_s2"
  top: "inception_4a/pool"
  pooling_param {
    pool: MAX
    kernel_size: 3
    stride: 1
    pad: 1
  }
}
layer {
  name: "inception_4a/pool_proj"
  type: "Convolution"
  bottom: "inception_4a/pool"
  top: "inception_4a/pool_proj"
  param {
    lr_mult: 1
    decay_mult: 1
  }
  param {
    lr_mult: 2
    decay_mult: 0
  }
  convolution_param {
    num_output: 64
    kernel_size: 1
    weight_filler {
      type: "xavier"
      std: 0.1
    }
    bias_filler {
      type: "constant"
      value: 0.2
    }
  }
}
layer {
  name: "inception_4a/relu_pool_proj"
  type: "ReLU"
  bottom: "inception_4a/pool_proj"
  top: "inception_4a/pool_proj"
}
layer {
  name: "inception_4a/output"
  type: "Concat"
  bottom: "inception_4a/1x1"
  bottom: "inception_4a/3x3"
  bottom: "inception_4a/5x5"
  bottom: "inception_4a/pool_proj"
  top: "inception_4a/output"
}
layer {
  name: "loss1/ave_pool"
  type: "Pooling"
  bottom: "inception_4a/output"
  top: "loss1/ave_pool"
  pooling_param {
    pool: AVE
    kernel_size: 5
    stride: 3
  }
}
layer {
  name: "loss1/conv"
  type: "Convolution"
  bottom: "loss1/ave_pool"
  top: "loss1/conv"
  param {
    lr_mult: 1
    decay_mult: 1
  }
  param {
    lr_mult: 2
    decay_mult: 0
  }
  convolution_param {
    num_output: 128
    kernel_size: 1
    weight_filler {
      type: "xavier"
      std: 0.08
    }
    bias_filler {
      type: "constant"
      value: 0.2
    }
  }
}
layer {
  name: "loss1/relu_conv"
  type: "ReLU"
  bottom: "loss1/conv"
  top: "loss1/conv"
}
layer {
  name: "loss1/fc"
  type: "InnerProduct"
  bottom: "loss1/conv"
  top: "loss1/fc"
  param {
    lr_mult: 1
    decay_mult: 1
  }
  param {
    lr_mult: 2
    decay_mult: 0
  }
  inner_product_param {
    num_output: 1024
    weight_filler {
      type: "xavier"
      std: 0.02
    }
    bias_filler {
      type: "constant"
      value: 0.2
    }
  }
}
layer {
  name: "loss1/relu_fc"
  type: "ReLU"
  bottom: "loss1/fc"
  top: "loss1/fc"
}
layer {
  name: "loss1/drop_fc"
  type: "Dropout"
  bottom: "loss1/fc"
  top: "loss1/fc"
  dropout_param {
    dropout_ratio: 0.7
  }
}
layer {
  name: "loss1/classifier_plantvillage"
  type: "InnerProduct"
  bottom: "loss1/fc"
  top: "loss1/classifier_plantvillage"
  param {
    lr_mult: 1
    decay_mult: 1
  }
  param {
    lr_mult: 2
    decay_mult: 0
  }
  inner_product_param {
    num_output: 38
    weight_filler {
      type: "xavier"
      std: 0.0009765625
    }
    bias_filler {
      type: "constant"
      value: 0
    }
  }
}
layer {
  name: "inception_4b/1x1"
  type: "Convolution"
  bottom: "inception_4a/output"
  top: "inception_4b/1x1"
  param {
    lr_mult: 1
    decay_mult: 1
  }
  param {
    lr_mult: 2
    decay_mult: 0
  }
  convolution_param {
    num_output: 160
    kernel_size: 1
    weight_filler {
      type: "xavier"
      std: 0.03
    }
    bias_filler {
      type: "constant"
      value: 0.2
    }
  }
}
layer {
  name: "inception_4b/relu_1x1"
  type: "ReLU"
  bottom: "inception_4b/1x1"
  top: "inception_4b/1x1"
}
layer {
  name: "inception_4b/3x3_reduce"
  type: "Convolution"
  bottom: "inception_4a/output"
  top: "inception_4b/3x3_reduce"
  param {
    lr_mult: 1
    decay_mult: 1
  }
  param {
    lr_mult: 2
    decay_mult: 0
  }
  convolution_param {
    num_output: 112
    kernel_size: 1
    weight_filler {
      type: "xavier"
      std: 0.09
    }
    bias_filler {
      type: "constant"
      value: 0.2
    }
  }
}
layer {
  name: "inception_4b/relu_3x3_reduce"
  type: "ReLU"
  bottom: "inception_4b/3x3_reduce"
  top: "inception_4b/3x3_reduce"
}
layer {
  name: "inception_4b/3x3"
  type: "Convolution"
  bottom: "inception_4b/3x3_reduce"
  top: "inception_4b/3x3"
  param {
    lr_mult: 1
    decay_mult: 1
  }
  param {
    lr_mult: 2
    decay_mult: 0
  }
  convolution_param {
    num_output: 224
    pad: 1
    kernel_size: 3
    weight_filler {
      type: "xavier"
      std: 0.03
    }
    bias_filler {
      type: "constant"
      value: 0.2
    }
  }
}
layer {
  name: "inception_4b/relu_3x3"
  type: "ReLU"
  bottom: "inception_4b/3x3"
  top: "inception_4b/3x3"
}
layer {
  name: "inception_4b/5x5_reduce"
  type: "Convolution"
  bottom: "inception_4a/output"
  top: "inception_4b/5x5_reduce"
  param {
    lr_mult: 1
    decay_mult: 1
  }
  param {
    lr_mult: 2
    decay_mult: 0
  }
  convolution_param {
    num_output: 24
    kernel_size: 1
    weight_filler {
      type: "xavier"
      std: 0.2
    }
    bias_filler {
      type: "constant"
      value: 0.2
    }
  }
}
layer {
  name: "inception_4b/relu_5x5_reduce"
  type: "ReLU"
  bottom: "inception_4b/5x5_reduce"
  top: "inception_4b/5x5_reduce"
}
layer {
  name: "inception_4b/5x5"
  type: "Convolution"
  bottom: "inception_4b/5x5_reduce"
  top: "inception_4b/5x5"
  param {
    lr_mult: 1
    decay_mult: 1
  }
  param {
    lr_mult: 2
    decay_mult: 0
  }
  convolution_param {
    num_output: 64
    pad: 2
    kernel_size: 5
    weight_filler {
      type: "xavier"
      std: 0.03
    }
    bias_filler {
      type: "constant"
      value: 0.2
    }
  }
}
layer {
  name: "inception_4b/relu_5x5"
  type: "ReLU"
  bottom: "inception_4b/5x5"
  top: "inception_4b/5x5"
}
layer {
  name: "inception_4b/pool"
  type: "Pooling"
  bottom: "inception_4a/output"
  top: "inception_4b/pool"
  pooling_param {
    pool: MAX
    kernel_size: 3
    stride: 1
    pad: 1
  }
}
layer {
  name: "inception_4b/pool_proj"
  type: "Convolution"
  bottom: "inception_4b/pool"
  top: "inception_4b/pool_proj"
  param {
    lr_mult: 1
    decay_mult: 1
  }
  param {
    lr_mult: 2
    decay_mult: 0
  }
  convolution_param {
    num_output: 64
    kernel_size: 1
    weight_filler {
      type: "xavier"
      std: 0.1
    }
    bias_filler {
      type: "constant"
      value: 0.2
    }
  }
}
layer {
  name: "inception_4b/relu_pool_proj"
  type: "ReLU"
  bottom: "inception_4b/pool_proj"
  top: "inception_4b/pool_proj"
}
layer {
  name: "inception_4b/output"
  type: "Concat"
  bottom: "inception_4b/1x1"
  bottom: "inception_4b/3x3"
  bottom: "inception_4b/5x5"
  bottom: "inception_4b/pool_proj"
  top: "inception_4b/output"
}
layer {
  name: "inception_4c/1x1"
  type: "Convolution"
  bottom: "inception_4b/output"
  top: "inception_4c/1x1"
  param {
    lr_mult: 1
    decay_mult: 1
  }
  param {
    lr_mult: 2
    decay_mult: 0
  }
  convolution_param {
    num_output: 128
    kernel_size: 1
    weight_filler {
      type: "xavier"
      std: 0.03
    }
    bias_filler {
      type: "constant"
      value: 0.2
    }
  }
}
layer {
  name: "inception_4c/relu_1x1"
  type: "ReLU"
  bottom: "inception_4c/1x1"
  top: "inception_4c/1x1"
}
layer {
  name: "inception_4c/3x3_reduce"
  type: "Convolution"
  bottom: "inception_4b/output"
  top: "inception_4c/3x3_reduce"
  param {
    lr_mult: 1
    decay_mult: 1
  }
  param {
    lr_mult: 2
    decay_mult: 0
  }
  convolution_param {
    num_output: 128
    kernel_size: 1
    weight_filler {
      type: "xavier"
      std: 0.09
    }
    bias_filler {
      type: "constant"
      value: 0.2
    }
  }
}
layer {
  name: "inception_4c/relu_3x3_reduce"
  type: "ReLU"
  bottom: "inception_4c/3x3_reduce"
  top: "inception_4c/3x3_reduce"
}
layer {
  name: "inception_4c/3x3"
  type: "Convolution"
  bottom: "inception_4c/3x3_reduce"
  top: "inception_4c/3x3"
  param {
    lr_mult: 1
    decay_mult: 1
  }
  param {
    lr_mult: 2
    decay_mult: 0
  }
  convolution_param {
    num_output: 256
    pad: 1
    kernel_size: 3
    weight_filler {
      type: "xavier"
      std: 0.03
    }
    bias_filler {
      type: "constant"
      value: 0.2
    }
  }
}
layer {
  name: "inception_4c/relu_3x3"
  type: "ReLU"
  bottom: "inception_4c/3x3"
  top: "inception_4c/3x3"
}
layer {
  name: "inception_4c/5x5_reduce"
  type: "Convolution"
  bottom: "inception_4b/output"
  top: "inception_4c/5x5_reduce"
  param {
    lr_mult: 1
    decay_mult: 1
  }
  param {
    lr_mult: 2
    decay_mult: 0
  }
  convolution_param {
    num_output: 24
    kernel_size: 1
    weight_filler {
      type: "xavier"
      std: 0.2
    }
    bias_filler {
      type: "constant"
      value: 0.2
    }
  }
}
layer {
  name: "inception_4c/relu_5x5_reduce"
  type: "ReLU"
  bottom: "inception_4c/5x5_reduce"
  top: "inception_4c/5x5_reduce"
}
layer {
  name: "inception_4c/5x5"
  type: "Convolution"
  bottom: "inception_4c/5x5_reduce"
  top: "inception_4c/5x5"
  param {
    lr_mult: 1
    decay_mult: 1
  }
  param {
    lr_mult: 2
    decay_mult: 0
  }
  convolution_param {
    num_output: 64
    pad: 2
    kernel_size: 5
    weight_filler {
      type: "xavier"
      std: 0.03
    }
    bias_filler {
      type: "constant"
      value: 0.2
    }
  }
}
layer {
  name: "inception_4c/relu_5x5"
  type: "ReLU"
  bottom: "inception_4c/5x5"
  top: "inception_4c/5x5"
}
layer {
  name: "inception_4c/pool"
  type: "Pooling"
  bottom: "inception_4b/output"
  top: "inception_4c/pool"
  pooling_param {
    pool: MAX
    kernel_size: 3
    stride: 1
    pad: 1
  }
}
layer {
  name: "inception_4c/pool_proj"
  type: "Convolution"
  bottom: "inception_4c/pool"
  top: "inception_4c/pool_proj"
  param {
    lr_mult: 1
    decay_mult: 1
  }
  param {
    lr_mult: 2
    decay_mult: 0
  }
  convolution_param {
    num_output: 64
    kernel_size: 1
    weight_filler {
      type: "xavier"
      std: 0.1
    }
    bias_filler {
      type: "constant"
      value: 0.2
    }
  }
}
layer {
  name: "inception_4c/relu_pool_proj"
  type: "ReLU"
  bottom: "inception_4c/pool_proj"
  top: "inception_4c/pool_proj"
}
layer {
  name: "inception_4c/output"
  type: "Concat"
  bottom: "inception_4c/1x1"
  bottom: "inception_4c/3x3"
  bottom: "inception_4c/5x5"
  bottom: "inception_4c/pool_proj"
  top: "inception_4c/output"
}
layer {
  name: "inception_4d/1x1"
  type: "Convolution"
  bottom: "inception_4c/output"
  top: "inception_4d/1x1"
  param {
    lr_mult: 1
    decay_mult: 1
  }
  param {
    lr_mult: 2
    decay_mult: 0
  }
  convolution_param {
    num_output: 112
    kernel_size: 1
    weight_filler {
      type: "xavier"
      std: 0.03
    }
    bias_filler {
      type: "constant"
      value: 0.2
    }
  }
}
layer {
  name: "inception_4d/relu_1x1"
  type: "ReLU"
  bottom: "inception_4d/1x1"
  top: "inception_4d/1x1"
}
layer {
  name: "inception_4d/3x3_reduce"
  type: "Convolution"
  bottom: "inception_4c/output"
  top: "inception_4d/3x3_reduce"
  param {
    lr_mult: 1
    decay_mult: 1
  }
  param {
    lr_mult: 2
    decay_mult: 0
  }
  convolution_param {
    num_output: 144
    kernel_size: 1
    weight_filler {
      type: "xavier"
      std: 0.09
    }
    bias_filler {
      type: "constant"
      value: 0.2
    }
  }
}
layer {
  name: "inception_4d/relu_3x3_reduce"
  type: "ReLU"
  bottom: "inception_4d/3x3_reduce"
  top: "inception_4d/3x3_reduce"
}
layer {
  name: "inception_4d/3x3"
  type: "Convolution"
  bottom: "inception_4d/3x3_reduce"
  top: "inception_4d/3x3"
  param {
    lr_mult: 1
    decay_mult: 1
  }
  param {
    lr_mult: 2
    decay_mult: 0
  }
  convolution_param {
    num_output: 288
    pad: 1
    kernel_size: 3
    weight_filler {
      type: "xavier"
      std: 0.03
    }
    bias_filler {
      type: "constant"
      value: 0.2
    }
  }
}
layer {
  name: "inception_4d/relu_3x3"
  type: "ReLU"
  bottom: "inception_4d/3x3"
  top: "inception_4d/3x3"
}
layer {
  name: "inception_4d/5x5_reduce"
  type: "Convolution"
  bottom: "inception_4c/output"
  top: "inception_4d/5x5_reduce"
  param {
    lr_mult: 1
    decay_mult: 1
  }
  param {
    lr_mult: 2
    decay_mult: 0
  }
  convolution_param {
    num_output: 32
    kernel_size: 1
    weight_filler {
      type: "xavier"
      std: 0.2
    }
    bias_filler {
      type: "constant"
      value: 0.2
    }
  }
}
layer {
  name: "inception_4d/relu_5x5_reduce"
  type: "ReLU"
  bottom: "inception_4d/5x5_reduce"
  top: "inception_4d/5x5_reduce"
}
layer {
  name: "inception_4d/5x5"
  type: "Convolution"
  bottom: "inception_4d/5x5_reduce"
  top: "inception_4d/5x5"
  param {
    lr_mult: 1
    decay_mult: 1
  }
  param {
    lr_mult: 2
    decay_mult: 0
  }
  convolution_param {
    num_output: 64
    pad: 2
    kernel_size: 5
    weight_filler {
      type: "xavier"
      std: 0.03
    }
    bias_filler {
      type: "constant"
      value: 0.2
    }
  }
}
layer {
  name: "inception_4d/relu_5x5"
  type: "ReLU"
  bottom: "inception_4d/5x5"
  top: "inception_4d/5x5"
}
layer {
  name: "inception_4d/pool"
  type: "Pooling"
  bottom: "inception_4c/output"
  top: "inception_4d/pool"
  pooling_param {
    pool: MAX
    kernel_size: 3
    stride: 1
    pad: 1
  }
}
layer {
  name: "inception_4d/pool_proj"
  type: "Convolution"
  bottom: "inception_4d/pool"
  top: "inception_4d/pool_proj"
  param {
    lr_mult: 1
    decay_mult: 1
  }
  param {
    lr_mult: 2
    decay_mult: 0
  }
  convolution_param {
    num_output: 64
    kernel_size: 1
    weight_filler {
      type: "xavier"
      std: 0.1
    }
    bias_filler {
      type: "constant"
      value: 0.2
    }
  }
}
layer {
  name: "inception_4d/relu_pool_proj"
  type: "ReLU"
  bottom: "inception_4d/pool_proj"
  top: "inception_4d/pool_proj"
}
layer {
  name: "inception_4d/output"
  type: "Concat"
  bottom: "inception_4d/1x1"
  bottom: "inception_4d/3x3"
  bottom: "inception_4d/5x5"
  bottom: "inception_4d/pool_proj"
  top: "inception_4d/output"
}
layer {
  name: "loss2/ave_pool"
  type: "Pooling"
  bottom: "inception_4d/output"
  top: "loss2/ave_pool"
  pooling_param {
    pool: AVE
    kernel_size: 5
    stride: 3
  }
}
layer {
  name: "loss2/conv"
  type: "Convolution"
  bottom: "loss2/ave_pool"
  top: "loss2/conv"
  param {
    lr_mult: 1
    decay_mult: 1
  }
  param {
    lr_mult: 2
    decay_mult: 0
  }
  convolution_param {
    num_output: 128
    kernel_size: 1
    weight_filler {
      type: "xavier"
      std: 0.08
    }
    bias_filler {
      type: "constant"
      value: 0.2
    }
  }
}
layer {
  name: "loss2/relu_conv"
  type: "ReLU"
  bottom: "loss2/conv"
  top: "loss2/conv"
}
layer {
  name: "loss2/fc"
  type: "InnerProduct"
  bottom: "loss2/conv"
  top: "loss2/fc"
  param {
    lr_mult: 1
    decay_mult: 1
  }
  param {
    lr_mult: 2
    decay_mult: 0
  }
  inner_product_param {
    num_output: 1024
    weight_filler {
      type: "xavier"
      std: 0.02
    }
    bias_filler {
      type: "constant"
      value: 0.2
    }
  }
}
layer {
  name: "loss2/relu_fc"
  type: "ReLU"
  bottom: "loss2/fc"
  top: "loss2/fc"
}
layer {
  name: "loss2/drop_fc"
  type: "Dropout"
  bottom: "loss2/fc"
  top: "loss2/fc"
  dropout_param {
    dropout_ratio: 0.7
  }
}
layer {
  name: "loss2/classifier_plantvillage"
  type: "InnerProduct"
  bottom: "loss2/fc"
  top: "loss2/classifier_plantvillage"
  param {
    lr_mult: 1
    decay_mult: 1
  }
  param {
    lr_mult: 2
    decay_mult: 0
  }
  inner_product_param {
    num_output: 38
    weight_filler {
      type: "xavier"
      std: 0.0009765625
    }
    bias_filler {
      type: "constant"
      value: 0
    }
  }
}
layer {
  name: "inception_4e/1x1"
  type: "Convolution"
  bottom: "inception_4d/output"
  top: "inception_4e/1x1"
  param {
    lr_mult: 1
    decay_mult: 1
  }
  param {
    lr_mult: 2
    decay_mult: 0
  }
  convolution_param {
    num_output: 256
    kernel_size: 1
    weight_filler {
      type: "xavier"
      std: 0.03
    }
    bias_filler {
      type: "constant"
      value: 0.2
    }
  }
}
layer {
  name: "inception_4e/relu_1x1"
  type: "ReLU"
  bottom: "inception_4e/1x1"
  top: "inception_4e/1x1"
}
layer {
  name: "inception_4e/3x3_reduce"
  type: "Convolution"
  bottom: "inception_4d/output"
  top: "inception_4e/3x3_reduce"
  param {
    lr_mult: 1
    decay_mult: 1
  }
  param {
    lr_mult: 2
    decay_mult: 0
  }
  convolution_param {
    num_output: 160
    kernel_size: 1
    weight_filler {
      type: "xavier"
      std: 0.09
    }
    bias_filler {
      type: "constant"
      value: 0.2
    }
  }
}
layer {
  name: "inception_4e/relu_3x3_reduce"
  type: "ReLU"
  bottom: "inception_4e/3x3_reduce"
  top: "inception_4e/3x3_reduce"
}
layer {
  name: "inception_4e/3x3"
  type: "Convolution"
  bottom: "inception_4e/3x3_reduce"
  top: "inception_4e/3x3"
  param {
    lr_mult: 1
    decay_mult: 1
  }
  param {
    lr_mult: 2
    decay_mult: 0
  }
  convolution_param {
    num_output: 320
    pad: 1
    kernel_size: 3
    weight_filler {
      type: "xavier"
      std: 0.03
    }
    bias_filler {
      type: "constant"
      value: 0.2
    }
  }
}
layer {
  name: "inception_4e/relu_3x3"
  type: "ReLU"
  bottom: "inception_4e/3x3"
  top: "inception_4e/3x3"
}
layer {
  name: "inception_4e/5x5_reduce"
  type: "Convolution"
  bottom: "inception_4d/output"
  top: "inception_4e/5x5_reduce"
  param {
    lr_mult: 1
    decay_mult: 1
  }
  param {
    lr_mult: 2
    decay_mult: 0
  }
  convolution_param {
    num_output: 32
    kernel_size: 1
    weight_filler {
      type: "xavier"
      std: 0.2
    }
    bias_filler {
      type: "constant"
      value: 0.2
    }
  }
}
layer {
  name: "inception_4e/relu_5x5_reduce"
  type: "ReLU"
  bottom: "inception_4e/5x5_reduce"
  top: "inception_4e/5x5_reduce"
}
layer {
  name: "inception_4e/5x5"
  type: "Convolution"
  bottom: "inception_4e/5x5_reduce"
  top: "inception_4e/
I0403 14:21:44.488173  1185 layer_factory.hpp:77] Creating layer data
I0403 14:21:44.488795  1185 net.cpp:91] Creating Layer data
I0403 14:21:44.488827  1185 net.cpp:399] data -> data
I0403 14:21:44.488878  1185 net.cpp:399] data -> label
I0403 14:21:44.488914  1185 data_transformer.cpp:25] Loading mean file from: /home/mohanty/data/final_dataset/lmdb/grayscale-20-80/mean.binaryproto
I0403 14:21:44.491698  1189 db_lmdb.cpp:38] Opened lmdb /home/mohanty/data/final_dataset/lmdb/grayscale-20-80/test_db
I0403 14:21:44.502388  1185 data_layer.cpp:41] output data size: 24,3,224,224
I0403 14:21:44.530413  1185 net.cpp:141] Setting up data
I0403 14:21:44.530511  1185 net.cpp:148] Top shape: 24 3 224 224 (3612672)
I0403 14:21:44.530534  1185 net.cpp:148] Top shape: 24 (24)
I0403 14:21:44.530550  1185 net.cpp:156] Memory required for data: 14450784
I0403 14:21:44.530577  1185 layer_factory.hpp:77] Creating layer label_data_1_split
I0403 14:21:44.530604  1185 net.cpp:91] Creating Layer label_data_1_split
I0403 14:21:44.530624  1185 net.cpp:425] label_data_1_split <- label
I0403 14:21:44.530658  1185 net.cpp:399] label_data_1_split -> label_data_1_split_0
I0403 14:21:44.530686  1185 net.cpp:399] label_data_1_split -> label_data_1_split_1
I0403 14:21:44.530709  1185 net.cpp:399] label_data_1_split -> label_data_1_split_2
I0403 14:21:44.530731  1185 net.cpp:399] label_data_1_split -> label_data_1_split_3
I0403 14:21:44.530752  1185 net.cpp:399] label_data_1_split -> label_data_1_split_4
I0403 14:21:44.530773  1185 net.cpp:399] label_data_1_split -> label_data_1_split_5
I0403 14:21:44.530793  1185 net.cpp:399] label_data_1_split -> label_data_1_split_6
I0403 14:21:44.530814  1185 net.cpp:399] label_data_1_split -> label_data_1_split_7
I0403 14:21:44.530834  1185 net.cpp:399] label_data_1_split -> label_data_1_split_8
I0403 14:21:44.530855  1185 net.cpp:399] label_data_1_split -> label_data_1_split_9
I0403 14:21:44.530977  1185 net.cpp:141] Setting up label_data_1_split
I0403 14:21:44.531003  1185 net.cpp:148] Top shape: 24 (24)
I0403 14:21:44.531023  1185 net.cpp:148] Top shape: 24 (24)
I0403 14:21:44.531038  1185 net.cpp:148] Top shape: 24 (24)
I0403 14:21:44.531055  1185 net.cpp:148] Top shape: 24 (24)
I0403 14:21:44.531071  1185 net.cpp:148] Top shape: 24 (24)
I0403 14:21:44.531087  1185 net.cpp:148] Top shape: 24 (24)
I0403 14:21:44.531103  1185 net.cpp:148] Top shape: 24 (24)
I0403 14:21:44.531121  1185 net.cpp:148] Top shape: 24 (24)
I0403 14:21:44.531136  1185 net.cpp:148] Top shape: 24 (24)
I0403 14:21:44.531153  1185 net.cpp:148] Top shape: 24 (24)
I0403 14:21:44.531199  1185 net.cpp:156] Memory required for data: 14451744
I0403 14:21:44.531221  1185 layer_factory.hpp:77] Creating layer conv1/7x7_s2
I0403 14:21:44.531255  1185 net.cpp:91] Creating Layer conv1/7x7_s2
I0403 14:21:44.531273  1185 net.cpp:425] conv1/7x7_s2 <- data
I0403 14:21:44.531294  1185 net.cpp:399] conv1/7x7_s2 -> conv1/7x7_s2
I0403 14:21:44.673346  1185 net.cpp:141] Setting up conv1/7x7_s2
I0403 14:21:44.673436  1185 net.cpp:148] Top shape: 24 64 112 112 (19267584)
I0403 14:21:44.673454  1185 net.cpp:156] Memory required for data: 91522080
I0403 14:21:44.673486  1185 layer_factory.hpp:77] Creating layer conv1/relu_7x7
I0403 14:21:44.673512  1185 net.cpp:91] Creating Layer conv1/relu_7x7
I0403 14:21:44.673532  1185 net.cpp:425] conv1/relu_7x7 <- conv1/7x7_s2
I0403 14:21:44.673550  1185 net.cpp:386] conv1/relu_7x7 -> conv1/7x7_s2 (in-place)
I0403 14:21:44.673800  1185 net.cpp:141] Setting up conv1/relu_7x7
I0403 14:21:44.673827  1185 net.cpp:148] Top shape: 24 64 112 112 (19267584)
I0403 14:21:44.673842  1185 net.cpp:156] Memory required for data: 168592416
I0403 14:21:44.673857  1185 layer_factory.hpp:77] Creating layer pool1/3x3_s2
I0403 14:21:44.673882  1185 net.cpp:91] Creating Layer pool1/3x3_s2
I0403 14:21:44.673899  1185 net.cpp:425] pool1/3x3_s2 <- conv1/7x7_s2
I0403 14:21:44.673918  1185 net.cpp:399] pool1/3x3_s2 -> pool1/3x3_s2
I0403 14:21:44.673990  1185 net.cpp:141] Setting up pool1/3x3_s2
I0403 14:21:44.674013  1185 net.cpp:148] Top shape: 24 64 56 56 (4816896)
I0403 14:21:44.674028  1185 net.cpp:156] Memory required for data: 187860000
I0403 14:21:44.674043  1185 layer_factory.hpp:77] Creating layer pool1/norm1
I0403 14:21:44.674067  1185 net.cpp:91] Creating Layer pool1/norm1
I0403 14:21:44.674085  1185 net.cpp:425] pool1/norm1 <- pool1/3x3_s2
I0403 14:21:44.674103  1185 net.cpp:399] pool1/norm1 -> pool1/norm1
I0403 14:21:44.674387  1185 net.cpp:141] Setting up pool1/norm1
I0403 14:21:44.674413  1185 net.cpp:148] Top shape: 24 64 56 56 (4816896)
I0403 14:21:44.674429  1185 net.cpp:156] Memory required for data: 207127584
I0403 14:21:44.674444  1185 layer_factory.hpp:77] Creating layer conv2/3x3_reduce
I0403 14:21:44.674482  1185 net.cpp:91] Creating Layer conv2/3x3_reduce
I0403 14:21:44.674499  1185 net.cpp:425] conv2/3x3_reduce <- pool1/norm1
I0403 14:21:44.674518  1185 net.cpp:399] conv2/3x3_reduce -> conv2/3x3_reduce
I0403 14:21:44.675909  1185 net.cpp:141] Setting up conv2/3x3_reduce
I0403 14:21:44.675938  1185 net.cpp:148] Top shape: 24 64 56 56 (4816896)
I0403 14:21:44.675956  1185 net.cpp:156] Memory required for data: 226395168
I0403 14:21:44.675977  1185 layer_factory.hpp:77] Creating layer conv2/relu_3x3_reduce
I0403 14:21:44.675997  1185 net.cpp:91] Creating Layer conv2/relu_3x3_reduce
I0403 14:21:44.676013  1185 net.cpp:425] conv2/relu_3x3_reduce <- conv2/3x3_reduce
I0403 14:21:44.676030  1185 net.cpp:386] conv2/relu_3x3_reduce -> conv2/3x3_reduce (in-place)
I0403 14:21:44.676295  1185 net.cpp:141] Setting up conv2/relu_3x3_reduce
I0403 14:21:44.676322  1185 net.cpp:148] Top shape: 24 64 56 56 (4816896)
I0403 14:21:44.676338  1185 net.cpp:156] Memory required for data: 245662752
I0403 14:21:44.676354  1185 layer_factory.hpp:77] Creating layer conv2/3x3
I0403 14:21:44.676376  1185 net.cpp:91] Creating Layer conv2/3x3
I0403 14:21:44.676394  1185 net.cpp:425] conv2/3x3 <- conv2/3x3_reduce
I0403 14:21:44.676412  1185 net.cpp:399] conv2/3x3 -> conv2/3x3
I0403 14:21:44.678644  1185 net.cpp:141] Setting up conv2/3x3
I0403 14:21:44.678673  1185 net.cpp:148] Top shape: 24 192 56 56 (14450688)
I0403 14:21:44.678689  1185 net.cpp:156] Memory required for data: 303465504
I0403 14:21:44.678709  1185 layer_factory.hpp:77] Creating layer conv2/relu_3x3
I0403 14:21:44.678728  1185 net.cpp:91] Creating Layer conv2/relu_3x3
I0403 14:21:44.678745  1185 net.cpp:425] conv2/relu_3x3 <- conv2/3x3
I0403 14:21:44.678762  1185 net.cpp:386] conv2/relu_3x3 -> conv2/3x3 (in-place)
I0403 14:21:44.678923  1185 net.cpp:141] Setting up conv2/relu_3x3
I0403 14:21:44.678948  1185 net.cpp:148] Top shape: 24 192 56 56 (14450688)
I0403 14:21:44.678993  1185 net.cpp:156] Memory required for data: 361268256
I0403 14:21:44.679009  1185 layer_factory.hpp:77] Creating layer conv2/norm2
I0403 14:21:44.679028  1185 net.cpp:91] Creating Layer conv2/norm2
I0403 14:21:44.679044  1185 net.cpp:425] conv2/norm2 <- conv2/3x3
I0403 14:21:44.679061  1185 net.cpp:399] conv2/norm2 -> conv2/norm2
I0403 14:21:44.679380  1185 net.cpp:141] Setting up conv2/norm2
I0403 14:21:44.679414  1185 net.cpp:148] Top shape: 24 192 56 56 (14450688)
I0403 14:21:44.679430  1185 net.cpp:156] Memory required for data: 419071008
I0403 14:21:44.679446  1185 layer_factory.hpp:77] Creating layer pool2/3x3_s2
I0403 14:21:44.679466  1185 net.cpp:91] Creating Layer pool2/3x3_s2
I0403 14:21:44.679481  1185 net.cpp:425] pool2/3x3_s2 <- conv2/norm2
I0403 14:21:44.679502  1185 net.cpp:399] pool2/3x3_s2 -> pool2/3x3_s2
I0403 14:21:44.679566  1185 net.cpp:141] Setting up pool2/3x3_s2
I0403 14:21:44.679589  1185 net.cpp:148] Top shape: 24 192 28 28 (3612672)
I0403 14:21:44.679605  1185 net.cpp:156] Memory required for data: 433521696
I0403 14:21:44.679620  1185 layer_factory.hpp:77] Creating layer pool2/3x3_s2_pool2/3x3_s2_0_split
I0403 14:21:44.679639  1185 net.cpp:91] Creating Layer pool2/3x3_s2_pool2/3x3_s2_0_split
I0403 14:21:44.679656  1185 net.cpp:425] pool2/3x3_s2_pool2/3x3_s2_0_split <- pool2/3x3_s2
I0403 14:21:44.679673  1185 net.cpp:399] pool2/3x3_s2_pool2/3x3_s2_0_split -> pool2/3x3_s2_pool2/3x3_s2_0_split_0
I0403 14:21:44.679692  1185 net.cpp:399] pool2/3x3_s2_pool2/3x3_s2_0_split -> pool2/3x3_s2_pool2/3x3_s2_0_split_1
I0403 14:21:44.679713  1185 net.cpp:399] pool2/3x3_s2_pool2/3x3_s2_0_split -> pool2/3x3_s2_pool2/3x3_s2_0_split_2
I0403 14:21:44.679733  1185 net.cpp:399] pool2/3x3_s2_pool2/3x3_s2_0_split -> pool2/3x3_s2_pool2/3x3_s2_0_split_3
I0403 14:21:44.679800  1185 net.cpp:141] Setting up pool2/3x3_s2_pool2/3x3_s2_0_split
I0403 14:21:44.679822  1185 net.cpp:148] Top shape: 24 192 28 28 (3612672)
I0403 14:21:44.679838  1185 net.cpp:148] Top shape: 24 192 28 28 (3612672)
I0403 14:21:44.679854  1185 net.cpp:148] Top shape: 24 192 28 28 (3612672)
I0403 14:21:44.679870  1185 net.cpp:148] Top shape: 24 192 28 28 (3612672)
I0403 14:21:44.679884  1185 net.cpp:156] Memory required for data: 491324448
I0403 14:21:44.679899  1185 layer_factory.hpp:77] Creating layer inception_3a/1x1
I0403 14:21:44.679921  1185 net.cpp:91] Creating Layer inception_3a/1x1
I0403 14:21:44.679939  1185 net.cpp:425] inception_3a/1x1 <- pool2/3x3_s2_pool2/3x3_s2_0_split_0
I0403 14:21:44.679960  1185 net.cpp:399] inception_3a/1x1 -> inception_3a/1x1
I0403 14:21:44.681498  1185 net.cpp:141] Setting up inception_3a/1x1
I0403 14:21:44.681541  1185 net.cpp:148] Top shape: 24 64 28 28 (1204224)
I0403 14:21:44.681558  1185 net.cpp:156] Memory required for data: 496141344
I0403 14:21:44.681577  1185 layer_factory.hpp:77] Creating layer inception_3a/relu_1x1
I0403 14:21:44.681596  1185 net.cpp:91] Creating Layer inception_3a/relu_1x1
I0403 14:21:44.681612  1185 net.cpp:425] inception_3a/relu_1x1 <- inception_3a/1x1
I0403 14:21:44.681632  1185 net.cpp:386] inception_3a/relu_1x1 -> inception_3a/1x1 (in-place)
I0403 14:21:44.681802  1185 net.cpp:141] Setting up inception_3a/relu_1x1
I0403 14:21:44.681826  1185 net.cpp:148] Top shape: 24 64 28 28 (1204224)
I0403 14:21:44.681840  1185 net.cpp:156] Memory required for data: 500958240
I0403 14:21:44.681855  1185 layer_factory.hpp:77] Creating layer inception_3a/3x3_reduce
I0403 14:21:44.681879  1185 net.cpp:91] Creating Layer inception_3a/3x3_reduce
I0403 14:21:44.681896  1185 net.cpp:425] inception_3a/3x3_reduce <- pool2/3x3_s2_pool2/3x3_s2_0_split_1
I0403 14:21:44.681917  1185 net.cpp:399] inception_3a/3x3_reduce -> inception_3a/3x3_reduce
I0403 14:21:44.683662  1185 net.cpp:141] Setting up inception_3a/3x3_reduce
I0403 14:21:44.683697  1185 net.cpp:148] Top shape: 24 96 28 28 (1806336)
I0403 14:21:44.683714  1185 net.cpp:156] Memory required for data: 508183584
I0403 14:21:44.683737  1185 layer_factory.hpp:77] Creating layer inception_3a/relu_3x3_reduce
I0403 14:21:44.683773  1185 net.cpp:91] Creating Layer inception_3a/relu_3x3_reduce
I0403 14:21:44.683792  1185 net.cpp:425] inception_3a/relu_3x3_reduce <- inception_3a/3x3_reduce
I0403 14:21:44.683809  1185 net.cpp:386] inception_3a/relu_3x3_reduce -> inception_3a/3x3_reduce (in-place)
I0403 14:21:44.683986  1185 net.cpp:141] Setting up inception_3a/relu_3x3_reduce
I0403 14:21:44.684013  1185 net.cpp:148] Top shape: 24 96 28 28 (1806336)
I0403 14:21:44.684029  1185 net.cpp:156] Memory required for data: 515408928
I0403 14:21:44.684044  1185 layer_factory.hpp:77] Creating layer inception_3a/3x3
I0403 14:21:44.684067  1185 net.cpp:91] Creating Layer inception_3a/3x3
I0403 14:21:44.684085  1185 net.cpp:425] inception_3a/3x3 <- inception_3a/3x3_reduce
I0403 14:21:44.684103  1185 net.cpp:399] inception_3a/3x3 -> inception_3a/3x3
I0403 14:21:44.685734  1185 net.cpp:141] Setting up inception_3a/3x3
I0403 14:21:44.685761  1185 net.cpp:148] Top shape: 24 128 28 28 (2408448)
I0403 14:21:44.685777  1185 net.cpp:156] Memory required for data: 525042720
I0403 14:21:44.685796  1185 layer_factory.hpp:77] Creating layer inception_3a/relu_3x3
I0403 14:21:44.685814  1185 net.cpp:91] Creating Layer inception_3a/relu_3x3
I0403 14:21:44.685830  1185 net.cpp:425] inception_3a/relu_3x3 <- inception_3a/3x3
I0403 14:21:44.685850  1185 net.cpp:386] inception_3a/relu_3x3 -> inception_3a/3x3 (in-place)
I0403 14:21:44.686120  1185 net.cpp:141] Setting up inception_3a/relu_3x3
I0403 14:21:44.686146  1185 net.cpp:148] Top shape: 24 128 28 28 (2408448)
I0403 14:21:44.686161  1185 net.cpp:156] Memory required for data: 534676512
I0403 14:21:44.686175  1185 layer_factory.hpp:77] Creating layer inception_3a/5x5_reduce
I0403 14:21:44.686197  1185 net.cpp:91] Creating Layer inception_3a/5x5_reduce
I0403 14:21:44.686231  1185 net.cpp:425] inception_3a/5x5_reduce <- pool2/3x3_s2_pool2/3x3_s2_0_split_2
I0403 14:21:44.686257  1185 net.cpp:399] inception_3a/5x5_reduce -> inception_3a/5x5_reduce
I0403 14:21:44.687217  1185 net.cpp:141] Setting up inception_3a/5x5_reduce
I0403 14:21:44.687244  1185 net.cpp:148] Top shape: 24 16 28 28 (301056)
I0403 14:21:44.687260  1185 net.cpp:156] Memory required for data: 535880736
I0403 14:21:44.687278  1185 layer_factory.hpp:77] Creating layer inception_3a/relu_5x5_reduce
I0403 14:21:44.687299  1185 net.cpp:91] Creating Layer inception_3a/relu_5x5_reduce
I0403 14:21:44.687316  1185 net.cpp:425] inception_3a/relu_5x5_reduce <- inception_3a/5x5_reduce
I0403 14:21:44.687333  1185 net.cpp:386] inception_3a/relu_5x5_reduce -> inception_3a/5x5_reduce (in-place)
I0403 14:21:44.687624  1185 net.cpp:141] Setting up inception_3a/relu_5x5_reduce
I0403 14:21:44.687650  1185 net.cpp:148] Top shape: 24 16 28 28 (301056)
I0403 14:21:44.687665  1185 net.cpp:156] Memory required for data: 537084960
I0403 14:21:44.687680  1185 layer_factory.hpp:77] Creating layer inception_3a/5x5
I0403 14:21:44.687701  1185 net.cpp:91] Creating Layer inception_3a/5x5
I0403 14:21:44.687719  1185 net.cpp:425] inception_3a/5x5 <- inception_3a/5x5_reduce
I0403 14:21:44.687741  1185 net.cpp:399] inception_3a/5x5 -> inception_3a/5x5
I0403 14:21:44.688735  1185 net.cpp:141] Setting up inception_3a/5x5
I0403 14:21:44.688762  1185 net.cpp:148] Top shape: 24 32 28 28 (602112)
I0403 14:21:44.688777  1185 net.cpp:156] Memory required for data: 539493408
I0403 14:21:44.688796  1185 layer_factory.hpp:77] Creating layer inception_3a/relu_5x5
I0403 14:21:44.688814  1185 net.cpp:91] Creating Layer inception_3a/relu_5x5
I0403 14:21:44.688830  1185 net.cpp:425] inception_3a/relu_5x5 <- inception_3a/5x5
I0403 14:21:44.688849  1185 net.cpp:386] inception_3a/relu_5x5 -> inception_3a/5x5 (in-place)
I0403 14:21:44.689023  1185 net.cpp:141] Setting up inception_3a/relu_5x5
I0403 14:21:44.689046  1185 net.cpp:148] Top shape: 24 32 28 28 (602112)
I0403 14:21:44.689061  1185 net.cpp:156] Memory required for data: 541901856
I0403 14:21:44.689075  1185 layer_factory.hpp:77] Creating layer inception_3a/pool
I0403 14:21:44.689095  1185 net.cpp:91] Creating Layer inception_3a/pool
I0403 14:21:44.689124  1185 net.cpp:425] inception_3a/pool <- pool2/3x3_s2_pool2/3x3_s2_0_split_3
I0403 14:21:44.689143  1185 net.cpp:399] inception_3a/pool -> inception_3a/pool
I0403 14:21:44.689201  1185 net.cpp:141] Setting up inception_3a/pool
I0403 14:21:44.689229  1185 net.cpp:148] Top shape: 24 192 28 28 (3612672)
I0403 14:21:44.689244  1185 net.cpp:156] Memory required for data: 556352544
I0403 14:21:44.689259  1185 layer_factory.hpp:77] Creating layer inception_3a/pool_proj
I0403 14:21:44.689280  1185 net.cpp:91] Creating Layer inception_3a/pool_proj
I0403 14:21:44.689297  1185 net.cpp:425] inception_3a/pool_proj <- inception_3a/pool
I0403 14:21:44.689317  1185 net.cpp:399] inception_3a/pool_proj -> inception_3a/pool_proj
I0403 14:21:44.690270  1185 net.cpp:141] Setting up inception_3a/pool_proj
I0403 14:21:44.690300  1185 net.cpp:148] Top shape: 24 32 28 28 (602112)
I0403 14:21:44.690316  1185 net.cpp:156] Memory required for data: 558760992
I0403 14:21:44.690337  1185 layer_factory.hpp:77] Creating layer inception_3a/relu_pool_proj
I0403 14:21:44.690359  1185 net.cpp:91] Creating Layer inception_3a/relu_pool_proj
I0403 14:21:44.690376  1185 net.cpp:425] inception_3a/relu_pool_proj <- inception_3a/pool_proj
I0403 14:21:44.690393  1185 net.cpp:386] inception_3a/relu_pool_proj -> inception_3a/pool_proj (in-place)
I0403 14:21:44.690667  1185 net.cpp:141] Setting up inception_3a/relu_pool_proj
I0403 14:21:44.690693  1185 net.cpp:148] Top shape: 24 32 28 28 (602112)
I0403 14:21:44.690708  1185 net.cpp:156] Memory required for data: 561169440
I0403 14:21:44.690724  1185 layer_factory.hpp:77] Creating layer inception_3a/output
I0403 14:21:44.690742  1185 net.cpp:91] Creating Layer inception_3a/output
I0403 14:21:44.690757  1185 net.cpp:425] inception_3a/output <- inception_3a/1x1
I0403 14:21:44.690773  1185 net.cpp:425] inception_3a/output <- inception_3a/3x3
I0403 14:21:44.690789  1185 net.cpp:425] inception_3a/output <- inception_3a/5x5
I0403 14:21:44.690804  1185 net.cpp:425] inception_3a/output <- inception_3a/pool_proj
I0403 14:21:44.690824  1185 net.cpp:399] inception_3a/output -> inception_3a/output
I0403 14:21:44.690868  1185 net.cpp:141] Setting up inception_3a/output
I0403 14:21:44.690894  1185 net.cpp:148] Top shape: 24 256 28 28 (4816896)
I0403 14:21:44.690910  1185 net.cpp:156] Memory required for data: 580437024
I0403 14:21:44.690925  1185 layer_factory.hpp:77] Creating layer inception_3a/output_inception_3a/output_0_split
I0403 14:21:44.690942  1185 net.cpp:91] Creating Layer inception_3a/output_inception_3a/output_0_split
I0403 14:21:44.690958  1185 net.cpp:425] inception_3a/output_inception_3a/output_0_split <- inception_3a/output
I0403 14:21:44.690974  1185 net.cpp:399] inception_3a/output_inception_3a/output_0_split -> inception_3a/output_inception_3a/output_0_split_0
I0403 14:21:44.690994  1185 net.cpp:399] inception_3a/output_inception_3a/output_0_split -> inception_3a/output_inception_3a/output_0_split_1
I0403 14:21:44.691017  1185 net.cpp:399] inception_3a/output_inception_3a/output_0_split -> inception_3a/output_inception_3a/output_0_split_2
I0403 14:21:44.691040  1185 net.cpp:399] inception_3a/output_inception_3a/output_0_split -> inception_3a/output_inception_3a/output_0_split_3
I0403 14:21:44.691113  1185 net.cpp:141] Setting up inception_3a/output_inception_3a/output_0_split
I0403 14:21:44.691138  1185 net.cpp:148] Top shape: 24 256 28 28 (4816896)
I0403 14:21:44.691155  1185 net.cpp:148] Top shape: 24 256 28 28 (4816896)
I0403 14:21:44.691171  1185 net.cpp:148] Top shape: 24 256 28 28 (4816896)
I0403 14:21:44.691186  1185 net.cpp:148] Top shape: 24 256 28 28 (4816896)
I0403 14:21:44.691200  1185 net.cpp:156] Memory required for data: 657507360
I0403 14:21:44.691218  1185 layer_factory.hpp:77] Creating layer inception_3b/1x1
I0403 14:21:44.691241  1185 net.cpp:91] Creating Layer inception_3b/1x1
I0403 14:21:44.691259  1185 net.cpp:425] inception_3b/1x1 <- inception_3a/output_inception_3a/output_0_split_0
I0403 14:21:44.691277  1185 net.cpp:399] inception_3b/1x1 -> inception_3b/1x1
I0403 14:21:44.692407  1185 net.cpp:141] Setting up inception_3b/1x1
I0403 14:21:44.692448  1185 net.cpp:148] Top shape: 24 128 28 28 (2408448)
I0403 14:21:44.692466  1185 net.cpp:156] Memory required for data: 667141152
I0403 14:21:44.692486  1185 layer_factory.hpp:77] Creating layer inception_3b/relu_1x1
I0403 14:21:44.692503  1185 net.cpp:91] Creating Layer inception_3b/relu_1x1
I0403 14:21:44.692519  1185 net.cpp:425] inception_3b/relu_1x1 <- inception_3b/1x1
I0403 14:21:44.692539  1185 net.cpp:386] inception_3b/relu_1x1 -> inception_3b/1x1 (in-place)
I0403 14:21:44.692716  1185 net.cpp:141] Setting up inception_3b/relu_1x1
I0403 14:21:44.692741  1185 net.cpp:148] Top shape: 24 128 28 28 (2408448)
I0403 14:21:44.692756  1185 net.cpp:156] Memory required for data: 676774944
I0403 14:21:44.692770  1185 layer_factory.hpp:77] Creating layer inception_3b/3x3_reduce
I0403 14:21:44.692793  1185 net.cpp:91] Creating Layer inception_3b/3x3_reduce
I0403 14:21:44.692811  1185 net.cpp:425] inception_3b/3x3_reduce <- inception_3a/output_inception_3a/output_0_split_1
I0403 14:21:44.692831  1185 net.cpp:399] inception_3b/3x3_reduce -> inception_3b/3x3_reduce
I0403 14:21:44.693967  1185 net.cpp:141] Setting up inception_3b/3x3_reduce
I0403 14:21:44.693999  1185 net.cpp:148] Top shape: 24 128 28 28 (2408448)
I0403 14:21:44.694015  1185 net.cpp:156] Memory required for data: 686408736
I0403 14:21:44.694033  1185 layer_factory.hpp:77] Creating layer inception_3b/relu_3x3_reduce
I0403 14:21:44.694051  1185 net.cpp:91] Creating Layer inception_3b/relu_3x3_reduce
I0403 14:21:44.694068  1185 net.cpp:425] inception_3b/relu_3x3_reduce <- inception_3b/3x3_reduce
I0403 14:21:44.694085  1185 net.cpp:386] inception_3b/relu_3x3_reduce -> inception_3b/3x3_reduce (in-place)
I0403 14:21:44.694262  1185 net.cpp:141] Setting up inception_3b/relu_3x3_reduce
I0403 14:21:44.694288  1185 net.cpp:148] Top shape: 24 128 28 28 (2408448)
I0403 14:21:44.694301  1185 net.cpp:156] Memory required for data: 696042528
I0403 14:21:44.694316  1185 layer_factory.hpp:77] Creating layer inception_3b/3x3
I0403 14:21:44.694340  1185 net.cpp:91] Creating Layer inception_3b/3x3
I0403 14:21:44.694358  1185 net.cpp:425] inception_3b/3x3 <- inception_3b/3x3_reduce
I0403 14:21:44.694380  1185 net.cpp:399] inception_3b/3x3 -> inception_3b/3x3
I0403 14:21:44.697379  1185 net.cpp:141] Setting up inception_3b/3x3
I0403 14:21:44.697408  1185 net.cpp:148] Top shape: 24 192 28 28 (3612672)
I0403 14:21:44.697424  1185 net.cpp:156] Memory required for data: 710493216
I0403 14:21:44.697443  1185 layer_factory.hpp:77] Creating layer inception_3b/relu_3x3
I0403 14:21:44.697461  1185 net.cpp:91] Creating Layer inception_3b/relu_3x3
I0403 14:21:44.697479  1185 net.cpp:425] inception_3b/relu_3x3 <- inception_3b/3x3
I0403 14:21:44.697499  1185 net.cpp:386] inception_3b/relu_3x3 -> inception_3b/3x3 (in-place)
I0403 14:21:44.697837  1185 net.cpp:141] Setting up inception_3b/relu_3x3
I0403 14:21:44.697863  1185 net.cpp:148] Top shape: 24 192 28 28 (3612672)
I0403 14:21:44.697878  1185 net.cpp:156] Memory required for data: 724943904
I0403 14:21:44.697893  1185 layer_factory.hpp:77] Creating layer inception_3b/5x5_reduce
I0403 14:21:44.697916  1185 net.cpp:91] Creating Layer inception_3b/5x5_reduce
I0403 14:21:44.697933  1185 net.cpp:425] inception_3b/5x5_reduce <- inception_3a/output_inception_3a/output_0_split_2
I0403 14:21:44.697955  1185 net.cpp:399] inception_3b/5x5_reduce -> inception_3b/5x5_reduce
I0403 14:21:44.698935  1185 net.cpp:141] Setting up inception_3b/5x5_reduce
I0403 14:21:44.698962  1185 net.cpp:148] Top shape: 24 32 28 28 (602112)
I0403 14:21:44.698977  1185 net.cpp:156] Memory required for data: 727352352
I0403 14:21:44.698995  1185 layer_factory.hpp:77] Creating layer inception_3b/relu_5x5_reduce
I0403 14:21:44.699013  1185 net.cpp:91] Creating Layer inception_3b/relu_5x5_reduce
I0403 14:21:44.699029  1185 net.cpp:425] inception_3b/relu_5x5_reduce <- inception_3b/5x5_reduce
I0403 14:21:44.699048  1185 net.cpp:386] inception_3b/relu_5x5_reduce -> inception_3b/5x5_reduce (in-place)
I0403 14:21:44.699241  1185 net.cpp:141] Setting up inception_3b/relu_5x5_reduce
I0403 14:21:44.699266  1185 net.cpp:148] Top shape: 24 32 28 28 (602112)
I0403 14:21:44.699280  1185 net.cpp:156] Memory required for data: 729760800
I0403 14:21:44.699295  1185 layer_factory.hpp:77] Creating layer inception_3b/5x5
I0403 14:21:44.699317  1185 net.cpp:91] Creating Layer inception_3b/5x5
I0403 14:21:44.699334  1185 net.cpp:425] inception_3b/5x5 <- inception_3b/5x5_reduce
I0403 14:21:44.699355  1185 net.cpp:399] inception_3b/5x5 -> inception_3b/5x5
I0403 14:21:44.701350  1185 net.cpp:141] Setting up inception_3b/5x5
I0403 14:21:44.701391  1185 net.cpp:148] Top shape: 24 96 28 28 (1806336)
I0403 14:21:44.701408  1185 net.cpp:156] Memory required for data: 736986144
I0403 14:21:44.701426  1185 layer_factory.hpp:77] Creating layer inception_3b/relu_5x5
I0403 14:21:44.701444  1185 net.cpp:91] Creating Layer inception_3b/relu_5x5
I0403 14:21:44.701462  1185 net.cpp:425] inception_3b/relu_5x5 <- inception_3b/5x5
I0403 14:21:44.701478  1185 net.cpp:386] inception_3b/relu_5x5 -> inception_3b/5x5 (in-place)
I0403 14:21:44.701665  1185 net.cpp:141] Setting up inception_3b/relu_5x5
I0403 14:21:44.701691  1185 net.cpp:148] Top shape: 24 96 28 28 (1806336)
I0403 14:21:44.701705  1185 net.cpp:156] Memory required for data: 744211488
I0403 14:21:44.701719  1185 layer_factory.hpp:77] Creating layer inception_3b/pool
I0403 14:21:44.701737  1185 net.cpp:91] Creating Layer inception_3b/pool
I0403 14:21:44.701753  1185 net.cpp:425] inception_3b/pool <- inception_3a/output_inception_3a/output_0_split_3
I0403 14:21:44.701772  1185 net.cpp:399] inception_3b/pool -> inception_3b/pool
I0403 14:21:44.701825  1185 net.cpp:141] Setting up inception_3b/pool
I0403 14:21:44.701851  1185 net.cpp:148] Top shape: 24 256 28 28 (4816896)
I0403 14:21:44.701866  1185 net.cpp:156] Memory required for data: 763479072
I0403 14:21:44.701881  1185 layer_factory.hpp:77] Creating layer inception_3b/pool_proj
I0403 14:21:44.701902  1185 net.cpp:91] Creating Layer inception_3b/pool_proj
I0403 14:21:44.701920  1185 net.cpp:425] inception_3b/pool_proj <- inception_3b/pool
I0403 14:21:44.701938  1185 net.cpp:399] inception_3b/pool_proj -> inception_3b/pool_proj
I0403 14:21:44.702973  1185 net.cpp:141] Setting up inception_3b/pool_proj
I0403 14:21:44.703001  1185 net.cpp:148] Top shape: 24 64 28 28 (1204224)
I0403 14:21:44.703016  1185 net.cpp:156] Memory required for data: 768295968
I0403 14:21:44.703034  1185 layer_factory.hpp:77] Creating layer inception_3b/relu_pool_proj
I0403 14:21:44.703054  1185 net.cpp:91] Creating Layer inception_3b/relu_pool_proj
I0403 14:21:44.703071  1185 net.cpp:425] inception_3b/relu_pool_proj <- inception_3b/pool_proj
I0403 14:21:44.703089  1185 net.cpp:386] inception_3b/relu_pool_proj -> inception_3b/pool_proj (in-place)
I0403 14:21:44.703491  1185 net.cpp:141] Setting up inception_3b/relu_pool_proj
I0403 14:21:44.703517  1185 net.cpp:148] Top shape: 24 64 28 28 (1204224)
I0403 14:21:44.703532  1185 net.cpp:156] Memory required for data: 773112864
I0403 14:21:44.703547  1185 layer_factory.hpp:77] Creating layer inception_3b/output
I0403 14:21:44.703564  1185 net.cpp:91] Creating Layer inception_3b/output
I0403 14:21:44.703580  1185 net.cpp:425] inception_3b/output <- inception_3b/1x1
I0403 14:21:44.703596  1185 net.cpp:425] inception_3b/output <- inception_3b/3x3
I0403 14:21:44.703611  1185 net.cpp:425] inception_3b/output <- inception_3b/5x5
I0403 14:21:44.703627  1185 net.cpp:425] inception_3b/output <- inception_3b/pool_proj
I0403 14:21:44.703646  1185 net.cpp:399] inception_3b/output -> inception_3b/output
I0403 14:21:44.703692  1185 net.cpp:141] Setting up inception_3b/output
I0403 14:21:44.703714  1185 net.cpp:148] Top shape: 24 480 28 28 (9031680)
I0403 14:21:44.703728  1185 net.cpp:156] Memory required for data: 809239584
I0403 14:21:44.703742  1185 layer_factory.hpp:77] Creating layer pool3/3x3_s2
I0403 14:21:44.703759  1185 net.cpp:91] Creating Layer pool3/3x3_s2
I0403 14:21:44.703775  1185 net.cpp:425] pool3/3x3_s2 <- inception_3b/output
I0403 14:21:44.703810  1185 net.cpp:399] pool3/3x3_s2 -> pool3/3x3_s2
I0403 14:21:44.703868  1185 net.cpp:141] Setting up pool3/3x3_s2
I0403 14:21:44.703891  1185 net.cpp:148] Top shape: 24 480 14 14 (2257920)
I0403 14:21:44.703905  1185 net.cpp:156] Memory required for data: 818271264
I0403 14:21:44.703919  1185 layer_factory.hpp:77] Creating layer pool3/3x3_s2_pool3/3x3_s2_0_split
I0403 14:21:44.703939  1185 net.cpp:91] Creating Layer pool3/3x3_s2_pool3/3x3_s2_0_split
I0403 14:21:44.703955  1185 net.cpp:425] pool3/3x3_s2_pool3/3x3_s2_0_split <- pool3/3x3_s2
I0403 14:21:44.703972  1185 net.cpp:399] pool3/3x3_s2_pool3/3x3_s2_0_split -> pool3/3x3_s2_pool3/3x3_s2_0_split_0
I0403 14:21:44.703994  1185 net.cpp:399] pool3/3x3_s2_pool3/3x3_s2_0_split -> pool3/3x3_s2_pool3/3x3_s2_0_split_1
I0403 14:21:44.704013  1185 net.cpp:399] pool3/3x3_s2_pool3/3x3_s2_0_split -> pool3/3x3_s2_pool3/3x3_s2_0_split_2
I0403 14:21:44.704032  1185 net.cpp:399] pool3/3x3_s2_pool3/3x3_s2_0_split -> pool3/3x3_s2_pool3/3x3_s2_0_split_3
I0403 14:21:44.704107  1185 net.cpp:141] Setting up pool3/3x3_s2_pool3/3x3_s2_0_split
I0403 14:21:44.704128  1185 net.cpp:148] Top shape: 24 480 14 14 (2257920)
I0403 14:21:44.704144  1185 net.cpp:148] Top shape: 24 480 14 14 (2257920)
I0403 14:21:44.704160  1185 net.cpp:148] Top shape: 24 480 14 14 (2257920)
I0403 14:21:44.704175  1185 net.cpp:148] Top shape: 24 480 14 14 (2257920)
I0403 14:21:44.704188  1185 net.cpp:156] Memory required for data: 854397984
I0403 14:21:44.704202  1185 layer_factory.hpp:77] Creating layer inception_4a/1x1
I0403 14:21:44.704243  1185 net.cpp:91] Creating Layer inception_4a/1x1
I0403 14:21:44.704262  1185 net.cpp:425] inception_4a/1x1 <- pool3/3x3_s2_pool3/3x3_s2_0_split_0
I0403 14:21:44.704283  1185 net.cpp:399] inception_4a/1x1 -> inception_4a/1x1
I0403 14:21:44.705852  1185 net.cpp:141] Setting up inception_4a/1x1
I0403 14:21:44.705878  1185 net.cpp:148] Top shape: 24 192 14 14 (903168)
I0403 14:21:44.705893  1185 net.cpp:156] Memory required for data: 858010656
I0403 14:21:44.705911  1185 layer_factory.hpp:77] Creating layer inception_4a/relu_1x1
I0403 14:21:44.705932  1185 net.cpp:91] Creating Layer inception_4a/relu_1x1
I0403 14:21:44.705948  1185 net.cpp:425] inception_4a/relu_1x1 <- inception_4a/1x1
I0403 14:21:44.705965  1185 net.cpp:386] inception_4a/relu_1x1 -> inception_4a/1x1 (in-place)
I0403 14:21:44.706140  1185 net.cpp:141] Setting up inception_4a/relu_1x1
I0403 14:21:44.706166  1185 net.cpp:148] Top shape: 24 192 14 14 (903168)
I0403 14:21:44.706182  1185 net.cpp:156] Memory required for data: 861623328
I0403 14:21:44.706195  1185 layer_factory.hpp:77] Creating layer inception_4a/3x3_reduce
I0403 14:21:44.706221  1185 net.cpp:91] Creating Layer inception_4a/3x3_reduce
I0403 14:21:44.706240  1185 net.cpp:425] inception_4a/3x3_reduce <- pool3/3x3_s2_pool3/3x3_s2_0_split_1
I0403 14:21:44.706259  1185 net.cpp:399] inception_4a/3x3_reduce -> inception_4a/3x3_reduce
I0403 14:21:44.707557  1185 net.cpp:141] Setting up inception_4a/3x3_reduce
I0403 14:21:44.707584  1185 net.cpp:148] Top shape: 24 96 14 14 (451584)
I0403 14:21:44.707600  1185 net.cpp:156] Memory required for data: 863429664
I0403 14:21:44.707624  1185 layer_factory.hpp:77] Creating layer inception_4a/relu_3x3_reduce
I0403 14:21:44.707646  1185 net.cpp:91] Creating Layer inception_4a/relu_3x3_reduce
I0403 14:21:44.707664  1185 net.cpp:425] inception_4a/relu_3x3_reduce <- inception_4a/3x3_reduce
I0403 14:21:44.707680  1185 net.cpp:386] inception_4a/relu_3x3_reduce -> inception_4a/3x3_reduce (in-place)
I0403 14:21:44.707854  1185 net.cpp:141] Setting up inception_4a/relu_3x3_reduce
I0403 14:21:44.707880  1185 net.cpp:148] Top shape: 24 96 14 14 (451584)
I0403 14:21:44.707895  1185 net.cpp:156] Memory required for data: 865236000
I0403 14:21:44.707909  1185 layer_factory.hpp:77] Creating layer inception_4a/3x3
I0403 14:21:44.707931  1185 net.cpp:91] Creating Layer inception_4a/3x3
I0403 14:21:44.707948  1185 net.cpp:425] inception_4a/3x3 <- inception_4a/3x3_reduce
I0403 14:21:44.707967  1185 net.cpp:399] inception_4a/3x3 -> inception_4a/3x3
I0403 14:21:44.710651  1185 net.cpp:141] Setting up inception_4a/3x3
I0403 14:21:44.710683  1185 net.cpp:148] Top shape: 24 208 14 14 (978432)
I0403 14:21:44.710700  1185 net.cpp:156] Memory required for data: 869149728
I0403 14:21:44.710717  1185 layer_factory.hpp:77] Creating layer inception_4a/relu_3x3
I0403 14:21:44.710736  1185 net.cpp:91] Creating Layer inception_4a/relu_3x3
I0403 14:21:44.710752  1185 net.cpp:425] inception_4a/relu_3x3 <- inception_4a/3x3
I0403 14:21:44.710768  1185 net.cpp:386] inception_4a/relu_3x3 -> inception_4a/3x3 (in-place)
I0403 14:21:44.711046  1185 net.cpp:141] Setting up inception_4a/relu_3x3
I0403 14:21:44.711074  1185 net.cpp:148] Top shape: 24 208 14 14 (978432)
I0403 14:21:44.711091  1185 net.cpp:156] Memory required for data: 873063456
I0403 14:21:44.711105  1185 layer_factory.hpp:77] Creating layer inception_4a/5x5_reduce
I0403 14:21:44.711127  1185 net.cpp:91] Creating Layer inception_4a/5x5_reduce
I0403 14:21:44.711144  1185 net.cpp:425] inception_4a/5x5_reduce <- pool3/3x3_s2_pool3/3x3_s2_0_split_2
I0403 14:21:44.711163  1185 net.cpp:399] inception_4a/5x5_reduce -> inception_4a/5x5_reduce
I0403 14:21:44.712173  1185 net.cpp:141] Setting up inception_4a/5x5_reduce
I0403 14:21:44.712200  1185 net.cpp:148] Top shape: 24 16 14 14 (75264)
I0403 14:21:44.712234  1185 net.cpp:156] Memory required for data: 873364512
I0403 14:21:44.712254  1185 layer_factory.hpp:77] Creating layer inception_4a/relu_5x5_reduce
I0403 14:21:44.712272  1185 net.cpp:91] Creating Layer inception_4a/relu_5x5_reduce
I0403 14:21:44.712288  1185 net.cpp:425] inception_4a/relu_5x5_reduce <- inception_4a/5x5_reduce
I0403 14:21:44.712308  1185 net.cpp:386] inception_4a/relu_5x5_reduce -> inception_4a/5x5_reduce (in-place)
I0403 14:21:44.712489  1185 net.cpp:141] Setting up inception_4a/relu_5x5_reduce
I0403 14:21:44.712527  1185 net.cpp:148] Top shape: 24 16 14 14 (75264)
I0403 14:21:44.712541  1185 net.cpp:156] Memory required for data: 873665568
I0403 14:21:44.712556  1185 layer_factory.hpp:77] Creating layer inception_4a/5x5
I0403 14:21:44.712579  1185 net.cpp:91] Creating Layer inception_4a/5x5
I0403 14:21:44.712595  1185 net.cpp:425] inception_4a/5x5 <- inception_4a/5x5_reduce
I0403 14:21:44.712615  1185 net.cpp:399] inception_4a/5x5 -> inception_4a/5x5
I0403 14:21:44.713702  1185 net.cpp:141] Setting up inception_4a/5x5
I0403 14:21:44.713729  1185 net.cpp:148] Top shape: 24 48 14 14 (225792)
I0403 14:21:44.713745  1185 net.cpp:156] Memory required for data: 874568736
I0403 14:21:44.713764  1185 layer_factory.hpp:77] Creating layer inception_4a/relu_5x5
I0403 14:21:44.713784  1185 net.cpp:91] Creating Layer inception_4a/relu_5x5
I0403 14:21:44.713801  1185 net.cpp:425] inception_4a/relu_5x5 <- inception_4a/5x5
I0403 14:21:44.713819  1185 net.cpp:386] inception_4a/relu_5x5 -> inception_4a/5x5 (in-place)
I0403 14:21:44.713991  1185 net.cpp:141] Setting up inception_4a/relu_5x5
I0403 14:21:44.714018  1185 net.cpp:148] Top shape: 24 48 14 14 (225792)
I0403 14:21:44.714033  1185 net.cpp:156] Memory required for data: 875471904
I0403 14:21:44.714048  1185 layer_factory.hpp:77] Creating layer inception_4a/pool
I0403 14:21:44.714066  1185 net.cpp:91] Creating Layer inception_4a/pool
I0403 14:21:44.714082  1185 net.cpp:425] inception_4a/pool <- pool3/3x3_s2_pool3/3x3_s2_0_split_3
I0403 14:21:44.714099  1185 net.cpp:399] inception_4a/pool -> inception_4a/pool
I0403 14:21:44.714161  1185 net.cpp:141] Setting up inception_4a/pool
I0403 14:21:44.714184  1185 net.cpp:148] Top shape: 24 480 14 14 (2257920)
I0403 14:21:44.714198  1185 net.cpp:156] Memory required for data: 884503584
I0403 14:21:44.714229  1185 layer_factory.hpp:77] Creating layer inception_4a/pool_proj
I0403 14:21:44.714256  1185 net.cpp:91] Creating Layer inception_4a/pool_proj
I0403 14:21:44.714273  1185 net.cpp:425] inception_4a/pool_proj <- inception_4a/pool
I0403 14:21:44.714294  1185 net.cpp:399] inception_4a/pool_proj -> inception_4a/pool_proj
I0403 14:21:44.715466  1185 net.cpp:141] Setting up inception_4a/pool_proj
I0403 14:21:44.715495  1185 net.cpp:148] Top shape: 24 64 14 14 (301056)
I0403 14:21:44.715528  1185 net.cpp:156] Memory required for data: 885707808
I0403 14:21:44.715546  1185 layer_factory.hpp:77] Creating layer inception_4a/relu_pool_proj
I0403 14:21:44.715569  1185 net.cpp:91] Creating Layer inception_4a/relu_pool_proj
I0403 14:21:44.715585  1185 net.cpp:425] inception_4a/relu_pool_proj <- inception_4a/pool_proj
I0403 14:21:44.715603  1185 net.cpp:386] inception_4a/relu_pool_proj -> inception_4a/pool_proj (in-place)
I0403 14:21:44.715881  1185 net.cpp:141] Setting up inception_4a/relu_pool_proj
I0403 14:21:44.715908  1185 net.cpp:148] Top shape: 24 64 14 14 (301056)
I0403 14:21:44.715922  1185 net.cpp:156] Memory required for data: 886912032
I0403 14:21:44.715937  1185 layer_factory.hpp:77] Creating layer inception_4a/output
I0403 14:21:44.715956  1185 net.cpp:91] Creating Layer inception_4a/output
I0403 14:21:44.715973  1185 net.cpp:425] inception_4a/output <- inception_4a/1x1
I0403 14:21:44.715989  1185 net.cpp:425] inception_4a/output <- inception_4a/3x3
I0403 14:21:44.716006  1185 net.cpp:425] inception_4a/output <- inception_4a/5x5
I0403 14:21:44.716022  1185 net.cpp:425] inception_4a/output <- inception_4a/pool_proj
I0403 14:21:44.716037  1185 net.cpp:399] inception_4a/output -> inception_4a/output
I0403 14:21:44.716084  1185 net.cpp:141] Setting up inception_4a/output
I0403 14:21:44.716106  1185 net.cpp:148] Top shape: 24 512 14 14 (2408448)
I0403 14:21:44.716120  1185 net.cpp:156] Memory required for data: 896545824
I0403 14:21:44.716135  1185 layer_factory.hpp:77] Creating layer inception_4a/output_inception_4a/output_0_split
I0403 14:21:44.716151  1185 net.cpp:91] Creating Layer inception_4a/output_inception_4a/output_0_split
I0403 14:21:44.716166  1185 net.cpp:425] inception_4a/output_inception_4a/output_0_split <- inception_4a/output
I0403 14:21:44.716187  1185 net.cpp:399] inception_4a/output_inception_4a/output_0_split -> inception_4a/output_inception_4a/output_0_split_0
I0403 14:21:44.716207  1185 net.cpp:399] inception_4a/output_inception_4a/output_0_split -> inception_4a/output_inception_4a/output_0_split_1
I0403 14:21:44.716233  1185 net.cpp:399] inception_4a/output_inception_4a/output_0_split -> inception_4a/output_inception_4a/output_0_split_2
I0403 14:21:44.716253  1185 net.cpp:399] inception_4a/output_inception_4a/output_0_split -> inception_4a/output_inception_4a/output_0_split_3
I0403 14:21:44.716272  1185 net.cpp:399] inception_4a/output_inception_4a/output_0_split -> inception_4a/output_inception_4a/output_0_split_4
I0403 14:21:44.716366  1185 net.cpp:141] Setting up inception_4a/output_inception_4a/output_0_split
I0403 14:21:44.716388  1185 net.cpp:148] Top shape: 24 512 14 14 (2408448)
I0403 14:21:44.716405  1185 net.cpp:148] Top shape: 24 512 14 14 (2408448)
I0403 14:21:44.716420  1185 net.cpp:148] Top shape: 24 512 14 14 (2408448)
I0403 14:21:44.716435  1185 net.cpp:148] Top shape: 24 512 14 14 (2408448)
I0403 14:21:44.716451  1185 net.cpp:148] Top shape: 24 512 14 14 (2408448)
I0403 14:21:44.716465  1185 net.cpp:156] Memory required for data: 944714784
I0403 14:21:44.716480  1185 layer_factory.hpp:77] Creating layer loss1/ave_pool
I0403 14:21:44.716497  1185 net.cpp:91] Creating Layer loss1/ave_pool
I0403 14:21:44.716513  1185 net.cpp:425] loss1/ave_pool <- inception_4a/output_inception_4a/output_0_split_0
I0403 14:21:44.716533  1185 net.cpp:399] loss1/ave_pool -> loss1/ave_pool
I0403 14:21:44.716737  1185 net.cpp:141] Setting up loss1/ave_pool
I0403 14:21:44.716763  1185 net.cpp:148] Top shape: 24 512 4 4 (196608)
I0403 14:21:44.716776  1185 net.cpp:156] Memory required for data: 945501216
I0403 14:21:44.716791  1185 layer_factory.hpp:77] Creating layer loss1/conv
I0403 14:21:44.716814  1185 net.cpp:91] Creating Layer loss1/conv
I0403 14:21:44.716831  1185 net.cpp:425] loss1/conv <- loss1/ave_pool
I0403 14:21:44.716851  1185 net.cpp:399] loss1/conv -> loss1/conv
I0403 14:21:44.718262  1185 net.cpp:141] Setting up loss1/conv
I0403 14:21:44.718292  1185 net.cpp:148] Top shape: 24 128 4 4 (49152)
I0403 14:21:44.718322  1185 net.cpp:156] Memory required for data: 945697824
I0403 14:21:44.718341  1185 layer_factory.hpp:77] Creating layer loss1/relu_conv
I0403 14:21:44.718360  1185 net.cpp:91] Creating Layer loss1/relu_conv
I0403 14:21:44.718376  1185 net.cpp:425] loss1/relu_conv <- loss1/conv
I0403 14:21:44.718395  1185 net.cpp:386] loss1/relu_conv -> loss1/conv (in-place)
I0403 14:21:44.718673  1185 net.cpp:141] Setting up loss1/relu_conv
I0403 14:21:44.718701  1185 net.cpp:148] Top shape: 24 128 4 4 (49152)
I0403 14:21:44.718716  1185 net.cpp:156] Memory required for data: 945894432
I0403 14:21:44.718731  1185 layer_factory.hpp:77] Creating layer loss1/fc
I0403 14:21:44.718755  1185 net.cpp:91] Creating Layer loss1/fc
I0403 14:21:44.718772  1185 net.cpp:425] loss1/fc <- loss1/conv
I0403 14:21:44.718792  1185 net.cpp:399] loss1/fc -> loss1/fc
I0403 14:21:44.736651  1185 net.cpp:141] Setting up loss1/fc
I0403 14:21:44.736716  1185 net.cpp:148] Top shape: 24 1024 (24576)
I0403 14:21:44.736733  1185 net.cpp:156] Memory required for data: 945992736
I0403 14:21:44.736752  1185 layer_factory.hpp:77] Creating layer loss1/relu_fc
I0403 14:21:44.736773  1185 net.cpp:91] Creating Layer loss1/relu_fc
I0403 14:21:44.736789  1185 net.cpp:425] loss1/relu_fc <- loss1/fc
I0403 14:21:44.736807  1185 net.cpp:386] loss1/relu_fc -> loss1/fc (in-place)
I0403 14:21:44.737016  1185 net.cpp:141] Setting up loss1/relu_fc
I0403 14:21:44.737043  1185 net.cpp:148] Top shape: 24 1024 (24576)
I0403 14:21:44.737059  1185 net.cpp:156] Memory required for data: 946091040
I0403 14:21:44.737074  1185 layer_factory.hpp:77] Creating layer loss1/drop_fc
I0403 14:21:44.737102  1185 net.cpp:91] Creating Layer loss1/drop_fc
I0403 14:21:44.737119  1185 net.cpp:425] loss1/drop_fc <- loss1/fc
I0403 14:21:44.737136  1185 net.cpp:386] loss1/drop_fc -> loss1/fc (in-place)
I0403 14:21:44.737190  1185 net.cpp:141] Setting up loss1/drop_fc
I0403 14:21:44.737216  1185 net.cpp:148] Top shape: 24 1024 (24576)
I0403 14:21:44.737247  1185 net.cpp:156] Memory required for data: 946189344
I0403 14:21:44.737263  1185 layer_factory.hpp:77] Creating layer loss1/classifier_plantvillage
I0403 14:21:44.737289  1185 net.cpp:91] Creating Layer loss1/classifier_plantvillage
I0403 14:21:44.737306  1185 net.cpp:425] loss1/classifier_plantvillage <- loss1/fc
I0403 14:21:44.737324  1185 net.cpp:399] loss1/classifier_plantvillage -> loss1/classifier_plantvillage
I0403 14:21:44.738276  1185 net.cpp:141] Setting up loss1/classifier_plantvillage
I0403 14:21:44.738306  1185 net.cpp:148] Top shape: 24 38 (912)
I0403 14:21:44.738323  1185 net.cpp:156] Memory required for data: 946192992
I0403 14:21:44.738342  1185 layer_factory.hpp:77] Creating layer loss1/classifier_plantvillage_loss1/classifier_plantvillage_0_split
I0403 14:21:44.738360  1185 net.cpp:91] Creating Layer loss1/classifier_plantvillage_loss1/classifier_plantvillage_0_split
I0403 14:21:44.738376  1185 net.cpp:425] loss1/classifier_plantvillage_loss1/classifier_plantvillage_0_split <- loss1/classifier_plantvillage
I0403 14:21:44.738394  1185 net.cpp:399] loss1/classifier_plantvillage_loss1/classifier_plantvillage_0_split -> loss1/classifier_plantvillage_loss1/classifier_plantvillage_0_split_0
I0403 14:21:44.738415  1185 net.cpp:399] loss1/classifier_plantvillage_loss1/classifier_plantvillage_0_split -> loss1/classifier_plantvillage_loss1/classifier_plantvillage_0_split_1
I0403 14:21:44.738437  1185 net.cpp:399] loss1/classifier_plantvillage_loss1/classifier_plantvillage_0_split -> loss1/classifier_plantvillage_loss1/classifier_plantvillage_0_split_2
I0403 14:21:44.738503  1185 net.cpp:141] Setting up loss1/classifier_plantvillage_loss1/classifier_plantvillage_0_split
I0403 14:21:44.738528  1185 net.cpp:148] Top shape: 24 38 (912)
I0403 14:21:44.738543  1185 net.cpp:148] Top shape: 24 38 (912)
I0403 14:21:44.738559  1185 net.cpp:148] Top shape: 24 38 (912)
I0403 14:21:44.738571  1185 net.cpp:156] Memory required for data: 946203936
I0403 14:21:44.738586  1185 layer_factory.hpp:77] Creating layer inception_4b/1x1
I0403 14:21:44.738607  1185 net.cpp:91] Creating Layer inception_4b/1x1
I0403 14:21:44.738647  1185 net.cpp:425] inception_4b/1x1 <- inception_4a/output_inception_4a/output_0_split_1
I0403 14:21:44.738670  1185 net.cpp:399] inception_4b/1x1 -> inception_4b/1x1
I0403 14:21:44.740350  1185 net.cpp:141] Setting up inception_4b/1x1
I0403 14:21:44.740380  1185 net.cpp:148] Top shape: 24 160 14 14 (752640)
I0403 14:21:44.740396  1185 net.cpp:156] Memory required for data: 949214496
I0403 14:21:44.740413  1185 layer_factory.hpp:77] Creating layer inception_4b/relu_1x1
I0403 14:21:44.740432  1185 net.cpp:91] Creating Layer inception_4b/relu_1x1
I0403 14:21:44.740449  1185 net.cpp:425] inception_4b/relu_1x1 <- inception_4b/1x1
I0403 14:21:44.740469  1185 net.cpp:386] inception_4b/relu_1x1 -> inception_4b/1x1 (in-place)
I0403 14:21:44.740645  1185 net.cpp:141] Setting up inception_4b/relu_1x1
I0403 14:21:44.740670  1185 net.cpp:148] Top shape: 24 160 14 14 (752640)
I0403 14:21:44.740685  1185 net.cpp:156] Memory required for data: 952225056
I0403 14:21:44.740700  1185 layer_factory.hpp:77] Creating layer inception_4b/3x3_reduce
I0403 14:21:44.740721  1185 net.cpp:91] Creating Layer inception_4b/3x3_reduce
I0403 14:21:44.740751  1185 net.cpp:425] inception_4b/3x3_reduce <- inception_4a/output_inception_4a/output_0_split_2
I0403 14:21:44.740772  1185 net.cpp:399] inception_4b/3x3_reduce -> inception_4b/3x3_reduce
I0403 14:21:44.742147  1185 net.cpp:141] Setting up inception_4b/3x3_reduce
I0403 14:21:44.742175  1185 net.cpp:148] Top shape: 24 112 14 14 (526848)
I0403 14:21:44.742190  1185 net.cpp:156] Memory required for data: 954332448
I0403 14:21:44.742213  1185 layer_factory.hpp:77] Creating layer inception_4b/relu_3x3_reduce
I0403 14:21:44.742250  1185 net.cpp:91] Creating Layer inception_4b/relu_3x3_reduce
I0403 14:21:44.742269  1185 net.cpp:425] inception_4b/relu_3x3_reduce <- inception_4b/3x3_reduce
I0403 14:21:44.742285  1185 net.cpp:386] inception_4b/relu_3x3_reduce -> inception_4b/3x3_reduce (in-place)
I0403 14:21:44.742583  1185 net.cpp:141] Setting up inception_4b/relu_3x3_reduce
I0403 14:21:44.742609  1185 net.cpp:148] Top shape: 24 112 14 14 (526848)
I0403 14:21:44.742624  1185 net.cpp:156] Memory required for data: 956439840
I0403 14:21:44.742640  1185 layer_factory.hpp:77] Creating layer inception_4b/3x3
I0403 14:21:44.742661  1185 net.cpp:91] Creating Layer inception_4b/3x3
I0403 14:21:44.742678  1185 net.cpp:425] inception_4b/3x3 <- inception_4b/3x3_reduce
I0403 14:21:44.742702  1185 net.cpp:399] inception_4b/3x3 -> inception_4b/3x3
I0403 14:21:44.745685  1185 net.cpp:141] Setting up inception_4b/3x3
I0403 14:21:44.745714  1185 net.cpp:148] Top shape: 24 224 14 14 (1053696)
I0403 14:21:44.745733  1185 net.cpp:156] Memory required for data: 960654624
I0403 14:21:44.745753  1185 layer_factory.hpp:77] Creating layer inception_4b/relu_3x3
I0403 14:21:44.745770  1185 net.cpp:91] Creating Layer inception_4b/relu_3x3
I0403 14:21:44.745787  1185 net.cpp:425] inception_4b/relu_3x3 <- inception_4b/3x3
I0403 14:21:44.745803  1185 net.cpp:386] inception_4b/relu_3x3 -> inception_4b/3x3 (in-place)
I0403 14:21:44.745985  1185 net.cpp:141] Setting up inception_4b/relu_3x3
I0403 14:21:44.746012  1185 net.cpp:148] Top shape: 24 224 14 14 (1053696)
I0403 14:21:44.746028  1185 net.cpp:156] Memory required for data: 964869408
I0403 14:21:44.746042  1185 layer_factory.hpp:77] Creating layer inception_4b/5x5_reduce
I0403 14:21:44.746064  1185 net.cpp:91] Creating Layer inception_4b/5x5_reduce
I0403 14:21:44.746083  1185 net.cpp:425] inception_4b/5x5_reduce <- inception_4a/output_inception_4a/output_0_split_3
I0403 14:21:44.746100  1185 net.cpp:399] inception_4b/5x5_reduce -> inception_4b/5x5_reduce
I0403 14:21:44.747230  1185 net.cpp:141] Setting up inception_4b/5x5_reduce
I0403 14:21:44.747257  1185 net.cpp:148] Top shape: 24 24 14 14 (112896)
I0403 14:21:44.747272  1185 net.cpp:156] Memory required for data: 965320992
I0403 14:21:44.747290  1185 layer_factory.hpp:77] Creating layer inception_4b/relu_5x5_reduce
I0403 14:21:44.747309  1185 net.cpp:91] Creating Layer inception_4b/relu_5x5_reduce
I0403 14:21:44.747340  1185 net.cpp:425] inception_4b/relu_5x5_reduce <- inception_4b/5x5_reduce
I0403 14:21:44.747361  1185 net.cpp:386] inception_4b/relu_5x5_reduce -> inception_4b/5x5_reduce (in-place)
I0403 14:21:44.747541  1185 net.cpp:141] Setting up inception_4b/relu_5x5_reduce
I0403 14:21:44.747565  1185 net.cpp:148] Top shape: 24 24 14 14 (112896)
I0403 14:21:44.747581  1185 net.cpp:156] Memory required for data: 965772576
I0403 14:21:44.747594  1185 layer_factory.hpp:77] Creating layer inception_4b/5x5
I0403 14:21:44.747617  1185 net.cpp:91] Creating Layer inception_4b/5x5
I0403 14:21:44.747633  1185 net.cpp:425] inception_4b/5x5 <- inception_4b/5x5_reduce
I0403 14:21:44.747654  1185 net.cpp:399] inception_4b/5x5 -> inception_4b/5x5
I0403 14:21:44.748905  1185 net.cpp:141] Setting up inception_4b/5x5
I0403 14:21:44.748934  1185 net.cpp:148] Top shape: 24 64 14 14 (301056)
I0403 14:21:44.748950  1185 net.cpp:156] Memory required for data: 966976800
I0403 14:21:44.748967  1185 layer_factory.hpp:77] Creating layer inception_4b/relu_5x5
I0403 14:21:44.748986  1185 net.cpp:91] Creating Layer inception_4b/relu_5x5
I0403 14:21:44.749001  1185 net.cpp:425] inception_4b/relu_5x5 <- inception_4b/5x5
I0403 14:21:44.749022  1185 net.cpp:386] inception_4b/relu_5x5 -> inception_4b/5x5 (in-place)
I0403 14:21:44.749308  1185 net.cpp:141] Setting up inception_4b/relu_5x5
I0403 14:21:44.749335  1185 net.cpp:148] Top shape: 24 64 14 14 (301056)
I0403 14:21:44.749349  1185 net.cpp:156] Memory required for data: 968181024
I0403 14:21:44.749364  1185 layer_factory.hpp:77] Creating layer inception_4b/pool
I0403 14:21:44.749382  1185 net.cpp:91] Creating Layer inception_4b/pool
I0403 14:21:44.749398  1185 net.cpp:425] inception_4b/pool <- inception_4a/output_inception_4a/output_0_split_4
I0403 14:21:44.749423  1185 net.cpp:399] inception_4b/pool -> inception_4b/pool
I0403 14:21:44.749487  1185 net.cpp:141] Setting up inception_4b/pool
I0403 14:21:44.749511  1185 net.cpp:148] Top shape: 24 512 14 14 (2408448)
I0403 14:21:44.749524  1185 net.cpp:156] Memory required for data: 977814816
I0403 14:21:44.749539  1185 layer_factory.hpp:77] Creating layer inception_4b/pool_proj
I0403 14:21:44.749562  1185 net.cpp:91] Creating Layer inception_4b/pool_proj
I0403 14:21:44.749579  1185 net.cpp:425] inception_4b/pool_proj <- inception_4b/pool
I0403 14:21:44.749598  1185 net.cpp:399] inception_4b/pool_proj -> inception_4b/pool_proj
I0403 14:21:44.750794  1185 net.cpp:141] Setting up inception_4b/pool_proj
I0403 14:21:44.750823  1185 net.cpp:148] Top shape: 24 64 14 14 (301056)
I0403 14:21:44.750838  1185 net.cpp:156] Memory required for data: 979019040
I0403 14:21:44.750856  1185 layer_factory.hpp:77] Creating layer inception_4b/relu_pool_proj
I0403 14:21:44.750874  1185 net.cpp:91] Creating Layer inception_4b/relu_pool_proj
I0403 14:21:44.750890  1185 net.cpp:425] inception_4b/relu_pool_proj <- inception_4b/pool_proj
I0403 14:21:44.750911  1185 net.cpp:386] inception_4b/relu_pool_proj -> inception_4b/pool_proj (in-place)
I0403 14:21:44.751091  1185 net.cpp:141] Setting up inception_4b/relu_pool_proj
I0403 14:21:44.751116  1185 net.cpp:148] Top shape: 24 64 14 14 (301056)
I0403 14:21:44.751129  1185 net.cpp:156] Memory required for data: 980223264
I0403 14:21:44.751144  1185 layer_factory.hpp:77] Creating layer inception_4b/output
I0403 14:21:44.751164  1185 net.cpp:91] Creating Layer inception_4b/output
I0403 14:21:44.751180  1185 net.cpp:425] inception_4b/output <- inception_4b/1x1
I0403 14:21:44.751196  1185 net.cpp:425] inception_4b/output <- inception_4b/3x3
I0403 14:21:44.751216  1185 net.cpp:425] inception_4b/output <- inception_4b/5x5
I0403 14:21:44.751250  1185 net.cpp:425] inception_4b/output <- inception_4b/pool_proj
I0403 14:21:44.751267  1185 net.cpp:399] inception_4b/output -> inception_4b/output
I0403 14:21:44.751317  1185 net.cpp:141] Setting up inception_4b/output
I0403 14:21:44.751339  1185 net.cpp:148] Top shape: 24 512 14 14 (2408448)
I0403 14:21:44.751354  1185 net.cpp:156] Memory required for data: 989857056
I0403 14:21:44.751384  1185 layer_factory.hpp:77] Creating layer inception_4b/output_inception_4b/output_0_split
I0403 14:21:44.751402  1185 net.cpp:91] Creating Layer inception_4b/output_inception_4b/output_0_split
I0403 14:21:44.751418  1185 net.cpp:425] inception_4b/output_inception_4b/output_0_split <- inception_4b/output
I0403 14:21:44.751438  1185 net.cpp:399] inception_4b/output_inception_4b/output_0_split -> inception_4b/output_inception_4b/output_0_split_0
I0403 14:21:44.751461  1185 net.cpp:399] inception_4b/output_inception_4b/output_0_split -> inception_4b/output_inception_4b/output_0_split_1
I0403 14:21:44.751482  1185 net.cpp:399] inception_4b/output_inception_4b/output_0_split -> inception_4b/output_inception_4b/output_0_split_2
I0403 14:21:44.751502  1185 net.cpp:399] inception_4b/output_inception_4b/output_0_split -> inception_4b/output_inception_4b/output_0_split_3
I0403 14:21:44.751595  1185 net.cpp:141] Setting up inception_4b/output_inception_4b/output_0_split
I0403 14:21:44.751621  1185 net.cpp:148] Top shape: 24 512 14 14 (2408448)
I0403 14:21:44.751638  1185 net.cpp:148] Top shape: 24 512 14 14 (2408448)
I0403 14:21:44.751654  1185 net.cpp:148] Top shape: 24 512 14 14 (2408448)
I0403 14:21:44.751668  1185 net.cpp:148] Top shape: 24 512 14 14 (2408448)
I0403 14:21:44.751682  1185 net.cpp:156] Memory required for data: 1028392224
I0403 14:21:44.751696  1185 layer_factory.hpp:77] Creating layer inception_4c/1x1
I0403 14:21:44.751720  1185 net.cpp:91] Creating Layer inception_4c/1x1
I0403 14:21:44.751737  1185 net.cpp:425] inception_4c/1x1 <- inception_4b/output_inception_4b/output_0_split_0
I0403 14:21:44.751756  1185 net.cpp:399] inception_4c/1x1 -> inception_4c/1x1
I0403 14:21:44.753206  1185 net.cpp:141] Setting up inception_4c/1x1
I0403 14:21:44.753243  1185 net.cpp:148] Top shape: 24 128 14 14 (602112)
I0403 14:21:44.753260  1185 net.cpp:156] Memory required for data: 1030800672
I0403 14:21:44.753278  1185 layer_factory.hpp:77] Creating layer inception_4c/relu_1x1
I0403 14:21:44.753299  1185 net.cpp:91] Creating Layer inception_4c/relu_1x1
I0403 14:21:44.753316  1185 net.cpp:425] inception_4c/relu_1x1 <- inception_4c/1x1
I0403 14:21:44.753334  1185 net.cpp:386] inception_4c/relu_1x1 -> inception_4c/1x1 (in-place)
I0403 14:21:44.753515  1185 net.cpp:141] Setting up inception_4c/relu_1x1
I0403 14:21:44.753541  1185 net.cpp:148] Top shape: 24 128 14 14 (602112)
I0403 14:21:44.753556  1185 net.cpp:156] Memory required for data: 1033209120
I0403 14:21:44.753571  1185 layer_factory.hpp:77] Creating layer inception_4c/3x3_reduce
I0403 14:21:44.753592  1185 net.cpp:91] Creating Layer inception_4c/3x3_reduce
I0403 14:21:44.753610  1185 net.cpp:425] inception_4c/3x3_reduce <- inception_4b/output_inception_4b/output_0_split_1
I0403 14:21:44.753628  1185 net.cpp:399] inception_4c/3x3_reduce -> inception_4c/3x3_reduce
I0403 14:21:44.755578  1185 net.cpp:141] Setting up inception_4c/3x3_reduce
I0403 14:21:44.755609  1185 net.cpp:148] Top shape: 24 128 14 14 (602112)
I0403 14:21:44.755625  1185 net.cpp:156] Memory required for data: 1035617568
I0403 14:21:44.755643  1185 layer_factory.hpp:77] Creating layer inception_4c/relu_3x3_reduce
I0403 14:21:44.755662  1185 net.cpp:91] Creating Layer inception_4c/relu_3x3_reduce
I0403 14:21:44.755678  1185 net.cpp:425] inception_4c/relu_3x3_reduce <- inception_4c/3x3_reduce
I0403 14:21:44.755698  1185 net.cpp:386] inception_4c/relu_3x3_reduce -> inception_4c/3x3_reduce (in-place)
I0403 14:21:44.755985  1185 net.cpp:141] Setting up inception_4c/relu_3x3_reduce
I0403 14:21:44.756014  1185 net.cpp:148] Top shape: 24 128 14 14 (602112)
I0403 14:21:44.756031  1185 net.cpp:156] Memory required for data: 1038026016
I0403 14:21:44.756045  1185 layer_factory.hpp:77] Creating layer inception_4c/3x3
I0403 14:21:44.756068  1185 net.cpp:91] Creating Layer inception_4c/3x3
I0403 14:21:44.756086  1185 net.cpp:425] inception_4c/3x3 <- inception_4c/3x3_reduce
I0403 14:21:44.756105  1185 net.cpp:399] inception_4c/3x3 -> inception_4c/3x3
I0403 14:21:44.759737  1185 net.cpp:141] Setting up inception_4c/3x3
I0403 14:21:44.759780  1185 net.cpp:148] Top shape: 24 256 14 14 (1204224)
I0403 14:21:44.759796  1185 net.cpp:156] Memory required for data: 1042842912
I0403 14:21:44.759829  1185 layer_factory.hpp:77] Creating layer inception_4c/relu_3x3
I0403 14:21:44.759850  1185 net.cpp:91] Creating Layer inception_4c/relu_3x3
I0403 14:21:44.759866  1185 net.cpp:425] inception_4c/relu_3x3 <- inception_4c/3x3
I0403 14:21:44.759886  1185 net.cpp:386] inception_4c/relu_3x3 -> inception_4c/3x3 (in-place)
I0403 14:21:44.760068  1185 net.cpp:141] Setting up inception_4c/relu_3x3
I0403 14:21:44.760093  1185 net.cpp:148] Top shape: 24 256 14 14 (1204224)
I0403 14:21:44.760107  1185 net.cpp:156] Memory required for data: 1047659808
I0403 14:21:44.760123  1185 layer_factory.hpp:77] Creating layer inception_4c/5x5_reduce
I0403 14:21:44.760145  1185 net.cpp:91] Creating Layer inception_4c/5x5_reduce
I0403 14:21:44.760162  1185 net.cpp:425] inception_4c/5x5_reduce <- inception_4b/output_inception_4b/output_0_split_2
I0403 14:21:44.760185  1185 net.cpp:399] inception_4c/5x5_reduce -> inception_4c/5x5_reduce
I0403 14:21:44.761294  1185 net.cpp:141] Setting up inception_4c/5x5_reduce
I0403 14:21:44.761323  1185 net.cpp:148] Top shape: 24 24 14 14 (112896)
I0403 14:21:44.761339  1185 net.cpp:156] Memory required for data: 1048111392
I0403 14:21:44.761358  1185 layer_factory.hpp:77] Creating layer inception_4c/relu_5x5_reduce
I0403 14:21:44.761378  1185 net.cpp:91] Creating Layer inception_4c/relu_5x5_reduce
I0403 14:21:44.761394  1185 net.cpp:425] inception_4c/relu_5x5_reduce <- inception_4c/5x5_reduce
I0403 14:21:44.761415  1185 net.cpp:386] inception_4c/relu_5x5_reduce -> inception_4c/5x5_reduce (in-place)
I0403 14:21:44.761611  1185 net.cpp:141] Setting up inception_4c/relu_5x5_reduce
I0403 14:21:44.761636  1185 net.cpp:148] Top shape: 24 24 14 14 (112896)
I0403 14:21:44.761651  1185 net.cpp:156] Memory required for data: 1048562976
I0403 14:21:44.761665  1185 layer_factory.hpp:77] Creating layer inception_4c/5x5
I0403 14:21:44.761687  1185 net.cpp:91] Creating Layer inception_4c/5x5
I0403 14:21:44.761705  1185 net.cpp:425] inception_4c/5x5 <- inception_4c/5x5_reduce
I0403 14:21:44.761726  1185 net.cpp:399] inception_4c/5x5 -> inception_4c/5x5
I0403 14:21:44.762961  1185 net.cpp:141] Setting up inception_4c/5x5
I0403 14:21:44.762989  1185 net.cpp:148] Top shape: 24 64 14 14 (301056)
I0403 14:21:44.763005  1185 net.cpp:156] Memory required for data: 1049767200
I0403 14:21:44.763022  1185 layer_factory.hpp:77] Creating layer inception_4c/relu_5x5
I0403 14:21:44.763043  1185 net.cpp:91] Creating Layer inception_4c/relu_5x5
I0403 14:21:44.763062  1185 net.cpp:425] inception_4c/relu_5x5 <- inception_4c/5x5
I0403 14:21:44.763079  1185 net.cpp:386] inception_4c/relu_5x5 -> inception_4c/5x5 (in-place)
I0403 14:21:44.763394  1185 net.cpp:141] Setting up inception_4c/relu_5x5
I0403 14:21:44.763422  1185 net.cpp:148] Top shape: 24 64 14 14 (301056)
I0403 14:21:44.763437  1185 net.cpp:156] Memory required for data: 1050971424
I0403 14:21:44.763453  1185 layer_factory.hpp:77] Creating layer inception_4c/pool
I0403 14:21:44.763473  1185 net.cpp:91] Creating Layer inception_4c/pool
I0403 14:21:44.763491  1185 net.cpp:425] inception_4c/pool <- inception_4b/output_inception_4b/output_0_split_3
I0403 14:21:44.763521  1185 net.cpp:399] inception_4c/pool -> inception_4c/pool
I0403 14:21:44.763587  1185 net.cpp:141] Setting up inception_4c/pool
I0403 14:21:44.763612  1185 net.cpp:148] Top shape: 24 512 14 14 (2408448)
I0403 14:21:44.763625  1185 net.cpp:156] Memory required for data: 1060605216
I0403 14:21:44.763640  1185 layer_factory.hpp:77] Creating layer inception_4c/pool_proj
I0403 14:21:44.763661  1185 net.cpp:91] Creating Layer inception_4c/pool_proj
I0403 14:21:44.763679  1185 net.cpp:425] inception_4c/pool_proj <- inception_4c/pool
I0403 14:21:44.763700  1185 net.cpp:399] inception_4c/pool_proj -> inception_4c/pool_proj
I0403 14:21:44.764912  1185 net.cpp:141] Setting up inception_4c/pool_proj
I0403 14:21:44.764940  1185 net.cpp:148] Top shape: 24 64 14 14 (301056)
I0403 14:21:44.764972  1185 net.cpp:156] Memory required for data: 1061809440
I0403 14:21:44.764991  1185 layer_factory.hpp:77] Creating layer inception_4c/relu_pool_proj
I0403 14:21:44.765010  1185 net.cpp:91] Creating Layer inception_4c/relu_pool_proj
I0403 14:21:44.765027  1185 net.cpp:425] inception_4c/relu_pool_proj <- inception_4c/pool_proj
I0403 14:21:44.765046  1185 net.cpp:386] inception_4c/relu_pool_proj -> inception_4c/pool_proj (in-place)
I0403 14:21:44.765230  1185 net.cpp:141] Setting up inception_4c/relu_pool_proj
I0403 14:21:44.765254  1185 net.cpp:148] Top shape: 24 64 14 14 (301056)
I0403 14:21:44.765270  1185 net.cpp:156] Memory required for data: 1063013664
I0403 14:21:44.765285  1185 layer_factory.hpp:77] Creating layer inception_4c/output
I0403 14:21:44.765305  1185 net.cpp:91] Creating Layer inception_4c/output
I0403 14:21:44.765322  1185 net.cpp:425] inception_4c/output <- inception_4c/1x1
I0403 14:21:44.765338  1185 net.cpp:425] inception_4c/output <- inception_4c/3x3
I0403 14:21:44.765354  1185 net.cpp:425] inception_4c/output <- inception_4c/5x5
I0403 14:21:44.765369  1185 net.cpp:425] inception_4c/output <- inception_4c/pool_proj
I0403 14:21:44.765386  1185 net.cpp:399] inception_4c/output -> inception_4c/output
I0403 14:21:44.765431  1185 net.cpp:141] Setting up inception_4c/output
I0403 14:21:44.765456  1185 net.cpp:148] Top shape: 24 512 14 14 (2408448)
I0403 14:21:44.765472  1185 net.cpp:156] Memory required for data: 1072647456
I0403 14:21:44.765487  1185 layer_factory.hpp:77] Creating layer inception_4c/output_inception_4c/output_0_split
I0403 14:21:44.765504  1185 net.cpp:91] Creating Layer inception_4c/output_inception_4c/output_0_split
I0403 14:21:44.765519  1185 net.cpp:425] inception_4c/output_inception_4c/output_0_split <- inception_4c/output
I0403 14:21:44.765539  1185 net.cpp:399] inception_4c/output_inception_4c/output_0_split -> inception_4c/output_inception_4c/output_0_split_0
I0403 14:21:44.765559  1185 net.cpp:399] inception_4c/output_inception_4c/output_0_split -> inception_4c/output_inception_4c/output_0_split_1
I0403 14:21:44.765580  1185 net.cpp:399] inception_4c/output_inception_4c/output_0_split -> inception_4c/output_inception_4c/output_0_split_2
I0403 14:21:44.765599  1185 net.cpp:399] inception_4c/output_inception_4c/output_0_split -> inception_4c/output_inception_4c/output_0_split_3
I0403 14:21:44.765683  1185 net.cpp:141] Setting up inception_4c/output_inception_4c/output_0_split
I0403 14:21:44.765709  1185 net.cpp:148] Top shape: 24 512 14 14 (2408448)
I0403 14:21:44.765727  1185 net.cpp:148] Top shape: 24 512 14 14 (2408448)
I0403 14:21:44.765741  1185 net.cpp:148] Top shape: 24 512 14 14 (2408448)
I0403 14:21:44.765758  1185 net.cpp:148] Top shape: 24 512 14 14 (2408448)
I0403 14:21:44.765770  1185 net.cpp:156] Memory required for data: 1111182624
I0403 14:21:44.765784  1185 layer_factory.hpp:77] Creating layer inception_4d/1x1
I0403 14:21:44.765805  1185 net.cpp:91] Creating Layer inception_4d/1x1
I0403 14:21:44.765822  1185 net.cpp:425] inception_4d/1x1 <- inception_4c/output_inception_4c/output_0_split_0
I0403 14:21:44.765841  1185 net.cpp:399] inception_4d/1x1 -> inception_4d/1x1
I0403 14:21:44.767274  1185 net.cpp:141] Setting up inception_4d/1x1
I0403 14:21:44.767304  1185 net.cpp:148] Top shape: 24 112 14 14 (526848)
I0403 14:21:44.767320  1185 net.cpp:156] Memory required for data: 1113290016
I0403 14:21:44.767338  1185 layer_factory.hpp:77] Creating layer inception_4d/relu_1x1
I0403 14:21:44.767356  1185 net.cpp:91] Creating Layer inception_4d/relu_1x1
I0403 14:21:44.767372  1185 net.cpp:425] inception_4d/relu_1x1 <- inception_4d/1x1
I0403 14:21:44.767390  1185 net.cpp:386] inception_4d/relu_1x1 -> inception_4d/1x1 (in-place)
I0403 14:21:44.767573  1185 net.cpp:141] Setting up inception_4d/relu_1x1
I0403 14:21:44.767599  1185 net.cpp:148] Top shape: 24 112 14 14 (526848)
I0403 14:21:44.767616  1185 net.cpp:156] Memory required for data: 1115397408
I0403 14:21:44.767632  1185 layer_factory.hpp:77] Creating layer inception_4d/3x3_reduce
I0403 14:21:44.767666  1185 net.cpp:91] Creating Layer inception_4d/3x3_reduce
I0403 14:21:44.767684  1185 net.cpp:425] inception_4d/3x3_reduce <- inception_4c/output_inception_4c/output_0_split_1
I0403 14:21:44.767706  1185 net.cpp:399] inception_4d/3x3_reduce -> inception_4d/3x3_reduce
I0403 14:21:44.769222  1185 net.cpp:141] Setting up inception_4d/3x3_reduce
I0403 14:21:44.769249  1185 net.cpp:148] Top shape: 24 144 14 14 (677376)
I0403 14:21:44.769265  1185 net.cpp:156] Memory required for data: 1118106912
I0403 14:21:44.769284  1185 layer_factory.hpp:77] Creating layer inception_4d/relu_3x3_reduce
I0403 14:21:44.769304  1185 net.cpp:91] Creating Layer inception_4d/relu_3x3_reduce
I0403 14:21:44.769321  1185 net.cpp:425] inception_4d/relu_3x3_reduce <- inception_4d/3x3_reduce
I0403 14:21:44.769340  1185 net.cpp:386] inception_4d/relu_3x3_reduce -> inception_4d/3x3_reduce (in-place)
I0403 14:21:44.769632  1185 net.cpp:141] Setting up inception_4d/relu_3x3_reduce
I0403 14:21:44.769659  1185 net.cpp:148] Top shape: 24 144 14 14 (677376)
I0403 14:21:44.769673  1185 net.cpp:156] Memory required for data: 1120816416
I0403 14:21:44.769687  1185 layer_factory.hpp:77] Creating layer inception_4d/3x3
I0403 14:21:44.769709  1185 net.cpp:91] Creating Layer inception_4d/3x3
I0403 14:21:44.769727  1185 net.cpp:425] inception_4d/3x3 <- inception_4d/3x3_reduce
I0403 14:21:44.769749  1185 net.cpp:399] inception_4d/3x3 -> inception_4d/3x3
I0403 14:21:44.776196  1185 net.cpp:141] Setting up inception_4d/3x3
I0403 14:21:44.776233  1185 net.cpp:148] Top shape: 24 288 14 14 (1354752)
I0403 14:21:44.776250  1185 net.cpp:156] Memory required for data: 1126235424
I0403 14:21:44.776268  1185 layer_factory.hpp:77] Creating layer inception_4d/relu_3x3
I0403 14:21:44.776288  1185 net.cpp:91] Creating Layer inception_4d/relu_3x3
I0403 14:21:44.776304  1185 net.cpp:425] inception_4d/relu_3x3 <- inception_4d/3x3
I0403 14:21:44.776324  1185 net.cpp:386] inception_4d/relu_3x3 -> inception_4d/3x3 (in-place)
I0403 14:21:44.776506  1185 net.cpp:141] Setting up inception_4d/relu_3x3
I0403 14:21:44.776531  1185 net.cpp:148] Top shape: 24 288 14 14 (1354752)
I0403 14:21:44.776546  1185 net.cpp:156] Memory required for data: 1131654432
I0403 14:21:44.776561  1185 layer_factory.hpp:77] Creating layer inception_4d/5x5_reduce
I0403 14:21:44.776583  1185 net.cpp:91] Creating Layer inception_4d/5x5_reduce
I0403 14:21:44.776602  1185 net.cpp:425] inception_4d/5x5_reduce <- inception_4c/output_inception_4c/output_0_split_2
I0403 14:21:44.776623  1185 net.cpp:399] inception_4d/5x5_reduce -> inception_4d/5x5_reduce
I0403 14:21:44.777783  1185 net.cpp:141] Setting up inception_4d/5x5_reduce
I0403 14:21:44.777813  1185 net.cpp:148] Top shape: 24 32 14 14 (150528)
I0403 14:21:44.777829  1185 net.cpp:156] Memory required for data: 1132256544
I0403 14:21:44.777848  1185 layer_factory.hpp:77] Creating layer inception_4d/relu_5x5_reduce
I0403 14:21:44.777866  1185 net.cpp:91] Creating Layer inception_4d/relu_5x5_reduce
I0403 14:21:44.777884  1185 net.cpp:425] inception_4d/relu_5x5_reduce <- inception_4d/5x5_reduce
I0403 14:21:44.777900  1185 net.cpp:386] inception_4d/relu_5x5_reduce -> inception_4d/5x5_reduce (in-place)
I0403 14:21:44.778092  1185 net.cpp:141] Setting up inception_4d/relu_5x5_reduce
I0403 14:21:44.778117  1185 net.cpp:148] Top shape: 24 32 14 14 (150528)
I0403 14:21:44.778131  1185 net.cpp:156] Memory required for data: 1132858656
I0403 14:21:44.778146  1185 layer_factory.hpp:77] Creating layer inception_4d/5x5
I0403 14:21:44.778168  1185 net.cpp:91] Creating Layer inception_4d/5x5
I0403 14:21:44.778185  1185 net.cpp:425] inception_4d/5x5 <- inception_4d/5x5_reduce
I0403 14:21:44.778206  1185 net.cpp:399] inception_4d/5x5 -> inception_4d/5x5
I0403 14:21:44.781286  1185 net.cpp:141] Setting up inception_4d/5x5
I0403 14:21:44.781313  1185 net.cpp:148] Top shape: 24 64 14 14 (301056)
I0403 14:21:44.781328  1185 net.cpp:156] Memory required for data: 1134062880
I0403 14:21:44.781347  1185 layer_factory.hpp:77] Creating layer inception_4d/relu_5x5
I0403 14:21:44.781384  1185 net.cpp:91] Creating Layer inception_4d/relu_5x5
I0403 14:21:44.781402  1185 net.cpp:425] inception_4d/relu_5x5 <- inception_4d/5x5
I0403 14:21:44.781420  1185 net.cpp:386] inception_4d/relu_5x5 -> inception_4d/5x5 (in-place)
I0403 14:21:44.781725  1185 net.cpp:141] Setting up inception_4d/relu_5x5
I0403 14:21:44.781751  1185 net.cpp:148] Top shape: 24 64 14 14 (301056)
I0403 14:21:44.781766  1185 net.cpp:156] Memory required for data: 1135267104
I0403 14:21:44.781780  1185 layer_factory.hpp:77] Creating layer inception_4d/pool
I0403 14:21:44.781798  1185 net.cpp:91] Creating Layer inception_4d/pool
I0403 14:21:44.781818  1185 net.cpp:425] inception_4d/pool <- inception_4c/output_inception_4c/output_0_split_3
I0403 14:21:44.781837  1185 net.cpp:399] inception_4d/pool -> inception_4d/pool
I0403 14:21:44.781904  1185 net.cpp:141] Setting up inception_4d/pool
I0403 14:21:44.781929  1185 net.cpp:148] Top shape: 24 512 14 14 (2408448)
I0403 14:21:44.781942  1185 net.cpp:156] Memory required for data: 1144900896
I0403 14:21:44.781956  1185 layer_factory.hpp:77] Creating layer inception_4d/pool_proj
I0403 14:21:44.781978  1185 net.cpp:91] Creating Layer inception_4d/pool_proj
I0403 14:21:44.781996  1185 net.cpp:425] inception_4d/pool_proj <- inception_4d/pool
I0403 14:21:44.782016  1185 net.cpp:399] inception_4d/pool_proj -> inception_4d/pool_proj
I0403 14:21:44.783952  1185 net.cpp:141] Setting up inception_4d/pool_proj
I0403 14:21:44.783987  1185 net.cpp:148] Top shape: 24 64 14 14 (301056)
I0403 14:21:44.784004  1185 net.cpp:156] Memory required for data: 1146105120
I0403 14:21:44.784024  1185 layer_factory.hpp:77] Creating layer inception_4d/relu_pool_proj
I0403 14:21:44.784041  1185 net.cpp:91] Creating Layer inception_4d/relu_pool_proj
I0403 14:21:44.784059  1185 net.cpp:425] inception_4d/relu_pool_proj <- inception_4d/pool_proj
I0403 14:21:44.784077  1185 net.cpp:386] inception_4d/relu_pool_proj -> inception_4d/pool_proj (in-place)
I0403 14:21:44.784266  1185 net.cpp:141] Setting up inception_4d/relu_pool_proj
I0403 14:21:44.784296  1185 net.cpp:148] Top shape: 24 64 14 14 (301056)
I0403 14:21:44.784317  1185 net.cpp:156] Memory required for data: 1147309344
I0403 14:21:44.784332  1185 layer_factory.hpp:77] Creating layer inception_4d/output
I0403 14:21:44.784349  1185 net.cpp:91] Creating Layer inception_4d/output
I0403 14:21:44.784365  1185 net.cpp:425] inception_4d/output <- inception_4d/1x1
I0403 14:21:44.784381  1185 net.cpp:425] inception_4d/output <- inception_4d/3x3
I0403 14:21:44.784397  1185 net.cpp:425] inception_4d/output <- inception_4d/5x5
I0403 14:21:44.784412  1185 net.cpp:425] inception_4d/output <- inception_4d/pool_proj
I0403 14:21:44.784432  1185 net.cpp:399] inception_4d/output -> inception_4d/output
I0403 14:21:44.784481  1185 net.cpp:141] Setting up inception_4d/output
I0403 14:21:44.784505  1185 net.cpp:148] Top shape: 24 528 14 14 (2483712)
I0403 14:21:44.784521  1185 net.cpp:156] Memory required for data: 1157244192
I0403 14:21:44.784535  1185 layer_factory.hpp:77] Creating layer inception_4d/output_inception_4d/output_0_split
I0403 14:21:44.784554  1185 net.cpp:91] Creating Layer inception_4d/output_inception_4d/output_0_split
I0403 14:21:44.784569  1185 net.cpp:425] inception_4d/output_inception_4d/output_0_split <- inception_4d/output
I0403 14:21:44.784587  1185 net.cpp:399] inception_4d/output_inception_4d/output_0_split -> inception_4d/output_inception_4d/output_0_split_0
I0403 14:21:44.784610  1185 net.cpp:399] inception_4d/output_inception_4d/output_0_split -> inception_4d/output_inception_4d/output_0_split_1
I0403 14:21:44.784631  1185 net.cpp:399] inception_4d/output_inception_4d/output_0_split -> inception_4d/output_inception_4d/output_0_split_2
I0403 14:21:44.784652  1185 net.cpp:399] inception_4d/output_inception_4d/output_0_split -> inception_4d/output_inception_4d/output_0_split_3
I0403 14:21:44.784674  1185 net.cpp:399] inception_4d/output_inception_4d/output_0_split -> inception_4d/output_inception_4d/output_0_split_4
I0403 14:21:44.784780  1185 net.cpp:141] Setting up inception_4d/output_inception_4d/output_0_split
I0403 14:21:44.784816  1185 net.cpp:148] Top shape: 24 528 14 14 (2483712)
I0403 14:21:44.784834  1185 net.cpp:148] Top shape: 24 528 14 14 (2483712)
I0403 14:21:44.784852  1185 net.cpp:148] Top shape: 24 528 14 14 (2483712)
I0403 14:21:44.784868  1185 net.cpp:148] Top shape: 24 528 14 14 (2483712)
I0403 14:21:44.784883  1185 net.cpp:148] Top shape: 24 528 14 14 (2483712)
I0403 14:21:44.784896  1185 net.cpp:156] Memory required for data: 1206918432
I0403 14:21:44.784910  1185 layer_factory.hpp:77] Creating layer loss2/ave_pool
I0403 14:21:44.784929  1185 net.cpp:91] Creating Layer loss2/ave_pool
I0403 14:21:44.784945  1185 net.cpp:425] loss2/ave_pool <- inception_4d/output_inception_4d/output_0_split_0
I0403 14:21:44.784963  1185 net.cpp:399] loss2/ave_pool -> loss2/ave_pool
I0403 14:21:44.785290  1185 net.cpp:141] Setting up loss2/ave_pool
I0403 14:21:44.785317  1185 net.cpp:148] Top shape: 24 528 4 4 (202752)
I0403 14:21:44.785333  1185 net.cpp:156] Memory required for data: 1207729440
I0403 14:21:44.785348  1185 layer_factory.hpp:77] Creating layer loss2/conv
I0403 14:21:44.785372  1185 net.cpp:91] Creating Layer loss2/conv
I0403 14:21:44.785388  1185 net.cpp:425] loss2/conv <- loss2/ave_pool
I0403 14:21:44.785408  1185 net.cpp:399] loss2/conv -> loss2/conv
I0403 14:21:44.787309  1185 net.cpp:141] Setting up loss2/conv
I0403 14:21:44.787338  1185 net.cpp:148] Top shape: 24 128 4 4 (49152)
I0403 14:21:44.787353  1185 net.cpp:156] Memory required for data: 1207926048
I0403 14:21:44.787372  1185 layer_factory.hpp:77] Creating layer loss2/relu_conv
I0403 14:21:44.787392  1185 net.cpp:91] Creating Layer loss2/relu_conv
I0403 14:21:44.787410  1185 net.cpp:425] loss2/relu_conv <- loss2/conv
I0403 14:21:44.787428  1185 net.cpp:386] loss2/relu_conv -> loss2/conv (in-place)
I0403 14:21:44.787713  1185 net.cpp:141] Setting up loss2/relu_conv
I0403 14:21:44.787739  1185 net.cpp:148] Top shape: 24 128 4 4 (49152)
I0403 14:21:44.787753  1185 net.cpp:156] Memory required for data: 1208122656
I0403 14:21:44.787770  1185 layer_factory.hpp:77] Creating layer loss2/fc
I0403 14:21:44.787791  1185 net.cpp:91] Creating Layer loss2/fc
I0403 14:21:44.787808  1185 net.cpp:425] loss2/fc <- loss2/conv
I0403 14:21:44.787827  1185 net.cpp:399] loss2/fc -> loss2/fc
I0403 14:21:44.806340  1185 net.cpp:141] Setting up loss2/fc
I0403 14:21:44.806411  1185 net.cpp:148] Top shape: 24 1024 (24576)
I0403 14:21:44.806440  1185 net.cpp:156] Memory required for data: 1208220960
I0403 14:21:44.806460  1185 layer_factory.hpp:77] Creating layer loss2/relu_fc
I0403 14:21:44.806480  1185 net.cpp:91] Creating Layer loss2/relu_fc
I0403 14:21:44.806499  1185 net.cpp:425] loss2/relu_fc <- loss2/fc
I0403 14:21:44.806519  1185 net.cpp:386] loss2/relu_fc -> loss2/fc (in-place)
I0403 14:21:44.806864  1185 net.cpp:141] Setting up loss2/relu_fc
I0403 14:21:44.806890  1185 net.cpp:148] Top shape: 24 1024 (24576)
I0403 14:21:44.806905  1185 net.cpp:156] Memory required for data: 1208319264
I0403 14:21:44.806920  1185 layer_factory.hpp:77] Creating layer loss2/drop_fc
I0403 14:21:44.806937  1185 net.cpp:91] Creating Layer loss2/drop_fc
I0403 14:21:44.806952  1185 net.cpp:425] loss2/drop_fc <- loss2/fc
I0403 14:21:44.806972  1185 net.cpp:386] loss2/drop_fc -> loss2/fc (in-place)
I0403 14:21:44.807019  1185 net.cpp:141] Setting up loss2/drop_fc
I0403 14:21:44.807041  1185 net.cpp:148] Top shape: 24 1024 (24576)
I0403 14:21:44.807055  1185 net.cpp:156] Memory required for data: 1208417568
I0403 14:21:44.807070  1185 layer_factory.hpp:77] Creating layer loss2/classifier_plantvillage
I0403 14:21:44.807093  1185 net.cpp:91] Creating Layer loss2/classifier_plantvillage
I0403 14:21:44.807109  1185 net.cpp:425] loss2/classifier_plantvillage <- loss2/fc
I0403 14:21:44.807131  1185 net.cpp:399] loss2/classifier_plantvillage -> loss2/classifier_plantvillage
I0403 14:21:44.807543  1185 net.cpp:141] Setting up loss2/classifier_plantvillage
I0403 14:21:44.807566  1185 net.cpp:148] Top shape: 24 38 (912)
I0403 14:21:44.807602  1185 net.cpp:156] Memory required for data: 1208421216
I0403 14:21:44.807621  1185 layer_factory.hpp:77] Creating layer loss2/classifier_plantvillage_loss2/classifier_plantvillage_0_split
I0403 14:21:44.807639  1185 net.cpp:91] Creating Layer loss2/classifier_plantvillage_loss2/classifier_plantvillage_0_split
I0403 14:21:44.807654  1185 net.cpp:425] loss2/classifier_plantvillage_loss2/classifier_plantvillage_0_split <- loss2/classifier_plantvillage
I0403 14:21:44.807685  1185 net.cpp:399] loss2/classifier_plantvillage_loss2/classifier_plantvillage_0_split -> loss2/classifier_plantvillage_loss2/classifier_plantvillage_0_split_0
I0403 14:21:44.807708  1185 net.cpp:399] loss2/classifier_plantvillage_loss2/classifier_plantvillage_0_split -> loss2/classifier_plantvillage_loss2/classifier_plantvillage_0_split_1
I0403 14:21:44.807729  1185 net.cpp:399] loss2/classifier_plantvillage_loss2/classifier_plantvillage_0_split -> loss2/classifier_plantvillage_loss2/classifier_plantvillage_0_split_2
I0403 14:21:44.807807  1185 net.cpp:141] Setting up loss2/classifier_plantvillage_loss2/classifier_plantvillage_0_split
I0403 14:21:44.807831  1185 net.cpp:148] Top shape: 24 38 (912)
I0403 14:21:44.807847  1185 net.cpp:148] Top shape: 24 38 (912)
I0403 14:21:44.807862  1185 net.cpp:148] Top shape: 24 38 (912)
I0403 14:21:44.807876  1185 net.cpp:156] Memory required for data: 1208432160
I0403 14:21:44.807891  1185 layer_factory.hpp:77] Creating layer inception_4e/1x1
I0403 14:21:44.807915  1185 net.cpp:91] Creating Layer inception_4e/1x1
I0403 14:21:44.807934  1185 net.cpp:425] inception_4e/1x1 <- inception_4d/output_inception_4d/output_0_split_1
I0403 14:21:44.807952  1185 net.cpp:399] inception_4e/1x1 -> inception_4e/1x1
I0403 14:21:44.809816  1185 net.cpp:141] Setting up inception_4e/1x1
I0403 14:21:44.809844  1185 net.cpp:148] Top shape: 24 256 14 14 (1204224)
I0403 14:21:44.809859  1185 net.cpp:156] Memory required for data: 1213249056
I0403 14:21:44.809877  1185 layer_factory.hpp:77] Creating layer inception_4e/relu_1x1
I0403 14:21:44.809897  1185 net.cpp:91] Creating Layer inception_4e/relu_1x1
I0403 14:21:44.809914  1185 net.cpp:425] inception_4e/relu_1x1 <- inception_4e/1x1
I0403 14:21:44.809931  1185 net.cpp:386] inception_4e/relu_1x1 -> inception_4e/1x1 (in-place)
I0403 14:21:44.810225  1185 net.cpp:141] Setting up inception_4e/relu_1x1
I0403 14:21:44.810250  1185 net.cpp:148] Top shape: 24 256 14 14 (1204224)
I0403 14:21:44.810264  1185 net.cpp:156] Memory required for data: 1218065952
I0403 14:21:44.810292  1185 layer_factory.hpp:77] Creating layer inception_4e/3x3_reduce
I0403 14:21:44.810312  1185 net.cpp:91] Creating Layer inception_4e/3x3_reduce
I0403 14:21:44.810330  1185 net.cpp:425] inception_4e/3x3_reduce <- inception_4d/output_inception_4d/output_0_split_2
I0403 14:21:44.810351  1185 net.cpp:399] inception_4e/3x3_reduce -> inception_4e/3x3_reduce
I0403 14:21:44.812566  1185 net.cpp:141] Setting up inception_4e/3x3_reduce
I0403 14:21:44.812607  1185 net.cpp:148] Top shape: 24 160 14 14 (752640)
I0403 14:21:44.812623  1185 net.cpp:156] Memory required for data: 1221076512
I0403 14:21:44.812640  1185 layer_factory.hpp:77] Creating layer inception_4e/relu_3x3_reduce
I0403 14:21:44.812659  1185 net.cpp:91] Creating Layer inception_4e/relu_3x3_reduce
I0403 14:21:44.812674  1185 net.cpp:425] inception_4e/relu_3x3_reduce <- inception_4e/3x3_reduce
I0403 14:21:44.812693  1185 net.cpp:386] inception_4e/relu_3x3_reduce -> inception_4e/3x3_reduce (in-place)
I0403 14:21:44.812872  1185 net.cpp:141] Setting up inception_4e/relu_3x3_reduce
I0403 14:21:44.812896  1185 net.cpp:148] Top shape: 24 160 14 14 (752640)
I0403 14:21:44.812911  1185 net.cpp:156] Memory required for data: 1224087072
I0403 14:21:44.812924  1185 layer_factory.hpp:77] Creating layer inception_4e/3x3
I0403 14:21:44.812947  1185 net.cpp:91] Creating Layer inception_4e/3x3
I0403 14:21:44.812963  1185 net.cpp:425] inception_4e/3x3 <- inception_4e/3x3_reduce
I0403 14:21:44.812983  1185 net.cpp:399] inception_4e/3x3 -> inception_4e/3x3
I0403 14:21:44.818089  1185 net.cpp:141] Setting up inception_4e/3x3
I0403 14:21:44.818131  1185 net.cpp:148] Top shape: 24 320 14 14 (1505280)
I0403 14:21:44.818148  1185 net.cpp:156] Memory required for data: 1230108192
I0403 14:21:44.818166  1185 layer_factory.hpp:77] Creating layer inception_4e/relu_3x3
I0403 14:21:44.818187  1185 net.cpp:91] Creating Layer inception_4e/relu_3x3
I0403 14:21:44.818205  1185 net.cpp:425] inception_4e/relu_3x3 <- inception_4e/3x3
I0403 14:21:44.818229  1185 net.cpp:386] inception_4e/relu_3x3 -> inception_4e/3x3 (in-place)
I0403 14:21:44.818529  1185 net.cpp:141] Setting up inception_4e/relu_3x3
I0403 14:21:44.818558  1185 net.cpp:148] Top shape: 24 320 14 14 (1505280)
I0403 14:21:44.818574  1185 net.cpp:156] Memory required for data: 1236129312
I0403 14:21:44.818588  1185 layer_factory.hpp:77] Creating layer inception_4e/5x5_reduce
I0403 14:21:44.818611  1185 net.cpp:91] Creating Layer inception_4e/5x5_reduce
I0403 14:21:44.818629  1185 net.cpp:425] inception_4e/5x5_reduce <- inception_4d/output_inception_4d/output_0_split_3
I0403 14:21:44.818650  1185 net.cpp:399] inception_4e/5x5_reduce -> inception_4e/5x5_reduce
I0403 14:21:44.819723  1185 net.cpp:141] Setting up inception_4e/5x5_reduce
I0403 14:21:44.819751  1185 net.cpp:148] Top shape: 24 32 14 14 (150528)
I0403 14:21:44.819766  1185 net.cpp:156] Memory required for data: 1236731424
I0403 14:21:44.819784  1185 layer_factory.hpp:77] Creating layer inception_4e/relu_5x5_reduce
I0403 14:21:44.819805  1185 net.cpp:91] Creating Layer inception_4e/relu_5x5_reduce
I0403 14:21:44.819823  1185 net.cpp:425] inception_4e/relu_5x5_reduce <- inception_4e/5x5_reduce
I0403 14:21:44.819839  1185 net.cpp:386] inception_4e/relu_5x5_reduce -> inception_4e/5x5_reduce (in-place)
I0403 14:21:44.820137  1185 net.cpp:141] Setting up inception_4e/relu_5x5_reduce
I0403 14:21:44.820174  1185 net.cpp:148] Top shape: 24 32 14 14 (150528)
I0403 14:21:44.820189  1185 net.cpp:156] Memory required for data: 1237333536
I0403 14:21:44.820204  1185 layer_factory.hpp:77] Creating layer inception_4e/5x5
I0403 14:21:44.820250  1185 net.cpp:91] Creating Layer inception_4e/5x5
I0403 14:21:44.820269  1185 net.cpp:425] inception_4e/5x5 <- inception_4e/5x5_reduce
I0403 14:21:44.820288  1185 net.cpp:399] inception_4e/5x5 -> inception_4e/5x5
I0403 14:21:44.822116  1185 net.cpp:141] Setting up inception_4e/5x5
I0403 14:21:44.822145  1185 net.cpp:148] Top shape: 24 128 14 14 (602112)
I0403 14:21:44.822162  1185 net.cpp:156] Memory required for data: 1239741984
I0403 14:21:44.822180  1185 layer_factory.hpp:77] Creating layer inception_4e/relu_5x5
I0403 14:21:44.822198  1185 net.cpp:91] Creating Layer inception_4e/relu_5x5
I0403 14:21:44.822228  1185 net.cpp:425] inception_4e/relu_5x5 <- inception_4e/5x5
I0403 14:21:44.822250  1185 net.cpp:386] inception_4e/relu_5x5 -> inception_4e/5x5 (in-place)
I0403 14:21:44.822439  1185 net.cpp:141] Setting up inception_4e/relu_5x5
I0403 14:21:44.822463  1185 net.cpp:148] Top shape: 24 128 14 14 (602112)
I0403 14:21:44.822477  1185 net.cpp:156] Memory required for data: 1242150432
I0403 14:21:44.822491  1185 layer_factory.hpp:77] Creating layer inception_4e/pool
I0403 14:21:44.822510  1185 net.cpp:91] Creating Layer inception_4e/pool
I0403 14:21:44.822525  1185 net.cpp:425] inception_4e/pool <- inception_4d/output_inception_4d/output_0_split_4
I0403 14:21:44.822545  1185 net.cpp:399] inception_4e/pool -> inception_4e/pool
I0403 14:21:44.822614  1185 net.cpp:141] Setting up inception_4e/pool
I0403 14:21:44.822638  1185 net.cpp:148] Top shape: 24 528 14 14 (2483712)
I0403 14:21:44.822651  1185 net.cpp:156] Memory required for data: 1252085280
I0403 14:21:44.822665  1185 layer_factory.hpp:77] Creating layer inception_4e/pool_proj
I0403 14:21:44.822688  1185 net.cpp:91] Creating Layer inception_4e/pool_proj
I0403 14:21:44.822705  1185 net.cpp:425] inception_4e/pool_proj <- inception_4e/pool
I0403 14:21:44.822722  1185 net.cpp:399] inception_4e/pool_proj -> inception_4e/pool_proj
I0403 14:21:44.824225  1185 net.cpp:141] Setting up inception_4e/pool_proj
I0403 14:21:44.824266  1185 net.cpp:148] Top shape: 24 128 14 14 (602112)
I0403 14:21:44.824282  1185 net.cpp:156] Memory required for data: 1254493728
I0403 14:21:44.824301  1185 layer_factory.hpp:77] Creating layer inception_4e/relu_pool_proj
I0403 14:21:44.824318  1185 net.cpp:91] Creating Layer inception_4e/relu_pool_proj
I0403 14:21:44.824333  1185 net.cpp:425] inception_4e/relu_pool_proj <- inception_4e/pool_proj
I0403 14:21:44.824352  1185 net.cpp:386] inception_4e/relu_pool_proj -> inception_4e/pool_proj (in-place)
I0403 14:21:44.824651  1185 net.cpp:141] Setting up inception_4e/relu_pool_proj
I0403 14:21:44.824679  1185 net.cpp:148] Top shape: 24 128 14 14 (602112)
I0403 14:21:44.824695  1185 net.cpp:156] Memory required for data: 1256902176
I0403 14:21:44.824710  1185 layer_factory.hpp:77] Creating layer inception_4e/output
I0403 14:21:44.824729  1185 net.cpp:91] Creating Layer inception_4e/output
I0403 14:21:44.824746  1185 net.cpp:425] inception_4e/output <- inception_4e/1x1
I0403 14:21:44.824764  1185 net.cpp:425] inception_4e/output <- inception_4e/3x3
I0403 14:21:44.824791  1185 net.cpp:425] inception_4e/output <- inception_4e/5x5
I0403 14:21:44.824807  1185 net.cpp:425] inception_4e/output <- inception_4e/pool_proj
I0403 14:21:44.824826  1185 net.cpp:399] inception_4e/output -> inception_4e/output
I0403 14:21:44.824877  1185 net.cpp:141] Setting up inception_4e/output
I0403 14:21:44.824900  1185 net.cpp:148] Top shape: 24 832 14 14 (3913728)
I0403 14:21:44.824915  1185 net.cpp:156] Memory required for data: 1272557088
I0403 14:21:44.824930  1185 layer_factory.hpp:77] Creating layer pool4/3x3_s2
I0403 14:21:44.824950  1185 net.cpp:91] Creating Layer pool4/3x3_s2
I0403 14:21:44.824968  1185 net.cpp:425] pool4/3x3_s2 <- inception_4e/output
I0403 14:21:44.824986  1185 net.cpp:399] pool4/3x3_s2 -> pool4/3x3_s2
I0403 14:21:44.825055  1185 net.cpp:141] Setting up pool4/3x3_s2
I0403 14:21:44.825080  1185 net.cpp:148] Top shape: 24 832 7 7 (978432)
I0403 14:21:44.825095  1185 net.cpp:156] Memory required for data: 1276470816
I0403 14:21:44.825109  1185 layer_factory.hpp:77] Creating layer pool4/3x3_s2_pool4/3x3_s2_0_split
I0403 14:21:44.825125  1185 net.cpp:91] Creating Layer pool4/3x3_s2_pool4/3x3_s2_0_split
I0403 14:21:44.825140  1185 net.cpp:425] pool4/3x3_s2_pool4/3x3_s2_0_split <- pool4/3x3_s2
I0403 14:21:44.825161  1185 net.cpp:399] pool4/3x3_s2_pool4/3x3_s2_0_split -> pool4/3x3_s2_pool4/3x3_s2_0_split_0
I0403 14:21:44.825182  1185 net.cpp:399] pool4/3x3_s2_pool4/3x3_s2_0_split -> pool4/3x3_s2_pool4/3x3_s2_0_split_1
I0403 14:21:44.825201  1185 net.cpp:399] pool4/3x3_s2_pool4/3x3_s2_0_split -> pool4/3x3_s2_pool4/3x3_s2_0_split_2
I0403 14:21:44.825242  1185 net.cpp:399] pool4/3x3_s2_pool4/3x3_s2_0_split -> pool4/3x3_s2_pool4/3x3_s2_0_split_3
I0403 14:21:44.825350  1185 net.cpp:141] Setting up pool4/3x3_s2_pool4/3x3_s2_0_split
I0403 14:21:44.825374  1185 net.cpp:148] Top shape: 24 832 7 7 (978432)
I0403 14:21:44.825392  1185 net.cpp:148] Top shape: 24 832 7 7 (978432)
I0403 14:21:44.825407  1185 net.cpp:148] Top shape: 24 832 7 7 (978432)
I0403 14:21:44.825423  1185 net.cpp:148] Top shape: 24 832 7 7 (978432)
I0403 14:21:44.825436  1185 net.cpp:156] Memory required for data: 1292125728
I0403 14:21:44.825451  1185 layer_factory.hpp:77] Creating layer inception_5a/1x1
I0403 14:21:44.825474  1185 net.cpp:91] Creating Layer inception_5a/1x1
I0403 14:21:44.825491  1185 net.cpp:425] inception_5a/1x1 <- pool4/3x3_s2_pool4/3x3_s2_0_split_0
I0403 14:21:44.825515  1185 net.cpp:399] inception_5a/1x1 -> inception_5a/1x1
I0403 14:21:44.828464  1185 net.cpp:141] Setting up inception_5a/1x1
I0403 14:21:44.828495  1185 net.cpp:148] Top shape: 24 256 7 7 (301056)
I0403 14:21:44.828510  1185 net.cpp:156] Memory required for data: 1293329952
I0403 14:21:44.828528  1185 layer_factory.hpp:77] Creating layer inception_5a/relu_1x1
I0403 14:21:44.828547  1185 net.cpp:91] Creating Layer inception_5a/relu_1x1
I0403 14:21:44.828563  1185 net.cpp:425] inception_5a/relu_1x1 <- inception_5a/1x1
I0403 14:21:44.828583  1185 net.cpp:386] inception_5a/relu_1x1 -> inception_5a/1x1 (in-place)
I0403 14:21:44.828894  1185 net.cpp:141] Setting up inception_5a/relu_1x1
I0403 14:21:44.828920  1185 net.cpp:148] Top shape: 24 256 7 7 (301056)
I0403 14:21:44.828935  1185 net.cpp:156] Memory required for data: 1294534176
I0403 14:21:44.828949  1185 layer_factory.hpp:77] Creating layer inception_5a/3x3_reduce
I0403 14:21:44.828972  1185 net.cpp:91] Creating Layer inception_5a/3x3_reduce
I0403 14:21:44.828990  1185 net.cpp:425] inception_5a/3x3_reduce <- pool4/3x3_s2_pool4/3x3_s2_0_split_1
I0403 14:21:44.829012  1185 net.cpp:399] inception_5a/3x3_reduce -> inception_5a/3x3_reduce
I0403 14:21:44.831513  1185 net.cpp:141] Setting up inception_5a/3x3_reduce
I0403 14:21:44.831544  1185 net.cpp:148] Top shape: 24 160 7 7 (188160)
I0403 14:21:44.831562  1185 net.cpp:156] Memory required for data: 1295286816
I0403 14:21:44.831581  1185 layer_factory.hpp:77] Creating layer inception_5a/relu_3x3_reduce
I0403 14:21:44.831604  1185 net.cpp:91] Creating Layer inception_5a/relu_3x3_reduce
I0403 14:21:44.831622  1185 net.cpp:425] inception_5a/relu_3x3_reduce <- inception_5a/3x3_reduce
I0403 14:21:44.831642  1185 net.cpp:386] inception_5a/relu_3x3_reduce -> inception_5a/3x3_reduce (in-place)
I0403 14:21:44.831828  1185 net.cpp:141] Setting up inception_5a/relu_3x3_reduce
I0403 14:21:44.831854  1185 net.cpp:148] Top shape: 24 160 7 7 (188160)
I0403 14:21:44.831871  1185 net.cpp:156] Memory required for data: 1296039456
I0403 14:21:44.831887  1185 layer_factory.hpp:77] Creating layer inception_5a/3x3
I0403 14:21:44.831912  1185 net.cpp:91] Creating Layer inception_5a/3x3
I0403 14:21:44.831930  1185 net.cpp:425] inception_5a/3x3 <- inception_5a/3x3_reduce
I0403 14:21:44.831954  1185 net.cpp:399] inception_5a/3x3 -> inception_5a/3x3
I0403 14:21:44.837092  1185 net.cpp:141] Setting up inception_5a/3x3
I0403 14:21:44.837124  1185 net.cpp:148] Top shape: 24 320 7 7 (376320)
I0403 14:21:44.837142  1185 net.cpp:156] Memory required for data: 1297544736
I0403 14:21:44.837162  1185 layer_factory.hpp:77] Creating layer inception_5a/relu_3x3
I0403 14:21:44.837182  1185 net.cpp:91] Creating Layer inception_5a/relu_3x3
I0403 14:21:44.837198  1185 net.cpp:425] inception_5a/relu_3x3 <- inception_5a/3x3
I0403 14:21:44.837223  1185 net.cpp:386] inception_5a/relu_3x3 -> inception_5a/3x3 (in-place)
I0403 14:21:44.837515  1185 net.cpp:141] Setting up inception_5a/relu_3x3
I0403 14:21:44.837545  1185 net.cpp:148] Top shape: 24 320 7 7 (376320)
I0403 14:21:44.837563  1185 net.cpp:156] Memory required for data: 1299050016
I0403 14:21:44.837579  1185 layer_factory.hpp:77] Creating layer inception_5a/5x5_reduce
I0403 14:21:44.837602  1185 net.cpp:91] Creating Layer inception_5a/5x5_reduce
I0403 14:21:44.837620  1185 net.cpp:425] inception_5a/5x5_reduce <- pool4/3x3_s2_pool4/3x3_s2_0_split_2
I0403 14:21:44.837641  1185 net.cpp:399] inception_5a/5x5_reduce -> inception_5a/5x5_reduce
I0403 14:21:44.838814  1185 net.cpp:141] Setting up inception_5a/5x5_reduce
I0403 14:21:44.838845  1185 net.cpp:148] Top shape: 24 32 7 7 (37632)
I0403 14:21:44.838861  1185 net.cpp:156] Memory required for data: 1299200544
I0403 14:21:44.838881  1185 layer_factory.hpp:77] Creating layer inception_5a/relu_5x5_reduce
I0403 14:21:44.838901  1185 net.cpp:91] Creating Layer inception_5a/relu_5x5_reduce
I0403 14:21:44.838917  1185 net.cpp:425] inception_5a/relu_5x5_reduce <- inception_5a/5x5_reduce
I0403 14:21:44.838937  1185 net.cpp:386] inception_5a/relu_5x5_reduce -> inception_5a/5x5_reduce (in-place)
I0403 14:21:44.839241  1185 net.cpp:141] Setting up inception_5a/relu_5x5_reduce
I0403 14:21:44.839268  1185 net.cpp:148] Top shape: 24 32 7 7 (37632)
I0403 14:21:44.839283  1185 net.cpp:156] Memory required for data: 1299351072
I0403 14:21:44.839300  1185 layer_factory.hpp:77] Creating layer inception_5a/5x5
I0403 14:21:44.839323  1185 net.cpp:91] Creating Layer inception_5a/5x5
I0403 14:21:44.839340  1185 net.cpp:425] inception_5a/5x5 <- inception_5a/5x5_reduce
I0403 14:21:44.839361  1185 net.cpp:399] inception_5a/5x5 -> inception_5a/5x5
I0403 14:21:44.841086  1185 net.cpp:141] Setting up inception_5a/5x5
I0403 14:21:44.841130  1185 net.cpp:148] Top shape: 24 128 7 7 (150528)
I0403 14:21:44.841148  1185 net.cpp:156] Memory required for data: 1299953184
I0403 14:21:44.841167  1185 layer_factory.hpp:77] Creating layer inception_5a/relu_5x5
I0403 14:21:44.841186  1185 net.cpp:91] Creating Layer inception_5a/relu_5x5
I0403 14:21:44.841202  1185 net.cpp:425] inception_5a/relu_5x5 <- inception_5a/5x5
I0403 14:21:44.841228  1185 net.cpp:386] inception_5a/relu_5x5 -> inception_5a/5x5 (in-place)
I0403 14:21:44.841419  1185 net.cpp:141] Setting up inception_5a/relu_5x5
I0403 14:21:44.841444  1185 net.cpp:148] Top shape: 24 128 7 7 (150528)
I0403 14:21:44.841459  1185 net.cpp:156] Memory required for data: 1300555296
I0403 14:21:44.841475  1185 layer_factory.hpp:77] Creating layer inception_5a/pool
I0403 14:21:44.841492  1185 net.cpp:91] Creating Layer inception_5a/pool
I0403 14:21:44.841508  1185 net.cpp:425] inception_5a/pool <- pool4/3x3_s2_pool4/3x3_s2_0_split_3
I0403 14:21:44.841529  1185 net.cpp:399] inception_5a/pool -> inception_5a/pool
I0403 14:21:44.841603  1185 net.cpp:141] Setting up inception_5a/pool
I0403 14:21:44.841625  1185 net.cpp:148] Top shape: 24 832 7 7 (978432)
I0403 14:21:44.841641  1185 net.cpp:156] Memory required for data: 1304469024
I0403 14:21:44.841655  1185 layer_factory.hpp:77] Creating layer inception_5a/pool_proj
I0403 14:21:44.841677  1185 net.cpp:91] Creating Layer inception_5a/pool_proj
I0403 14:21:44.841694  1185 net.cpp:425] inception_5a/pool_proj <- inception_5a/pool
I0403 14:21:44.841716  1185 net.cpp:399] inception_5a/pool_proj -> inception_5a/pool_proj
I0403 14:21:44.844138  1185 net.cpp:141] Setting up inception_5a/pool_proj
I0403 14:21:44.844172  1185 net.cpp:148] Top shape: 24 128 7 7 (150528)
I0403 14:21:44.844190  1185 net.cpp:156] Memory required for data: 1305071136
I0403 14:21:44.844218  1185 layer_factory.hpp:77] Creating layer inception_5a/relu_pool_proj
I0403 14:21:44.844239  1185 net.cpp:91] Creating Layer inception_5a/relu_pool_proj
I0403 14:21:44.844259  1185 net.cpp:425] inception_5a/relu_pool_proj <- inception_5a/pool_proj
I0403 14:21:44.844276  1185 net.cpp:386] inception_5a/relu_pool_proj -> inception_5a/pool_proj (in-place)
I0403 14:21:44.844586  1185 net.cpp:141] Setting up inception_5a/relu_pool_proj
I0403 14:21:44.844616  1185 net.cpp:148] Top shape: 24 128 7 7 (150528)
I0403 14:21:44.844635  1185 net.cpp:156] Memory required for data: 1305673248
I0403 14:21:44.844652  1185 layer_factory.hpp:77] Creating layer inception_5a/output
I0403 14:21:44.844671  1185 net.cpp:91] Creating Layer inception_5a/output
I0403 14:21:44.844686  1185 net.cpp:425] inception_5a/output <- inception_5a/1x1
I0403 14:21:44.844703  1185 net.cpp:425] inception_5a/output <- inception_5a/3x3
I0403 14:21:44.844719  1185 net.cpp:425] inception_5a/output <- inception_5a/5x5
I0403 14:21:44.844737  1185 net.cpp:425] inception_5a/output <- inception_5a/pool_proj
I0403 14:21:44.844754  1185 net.cpp:399] inception_5a/output -> inception_5a/output
I0403 14:21:44.844807  1185 net.cpp:141] Setting up inception_5a/output
I0403 14:21:44.844831  1185 net.cpp:148] Top shape: 24 832 7 7 (978432)
I0403 14:21:44.844846  1185 net.cpp:156] Memory required for data: 1309586976
I0403 14:21:44.844861  1185 layer_factory.hpp:77] Creating layer inception_5a/output_inception_5a/output_0_split
I0403 14:21:44.844882  1185 net.cpp:91] Creating Layer inception_5a/output_inception_5a/output_0_split
I0403 14:21:44.844899  1185 net.cpp:425] inception_5a/output_inception_5a/output_0_split <- inception_5a/output
I0403 14:21:44.844918  1185 net.cpp:399] inception_5a/output_inception_5a/output_0_split -> inception_5a/output_inception_5a/output_0_split_0
I0403 14:21:44.844938  1185 net.cpp:399] inception_5a/output_inception_5a/output_0_split -> inception_5a/output_inception_5a/output_0_split_1
I0403 14:21:44.844960  1185 net.cpp:399] inception_5a/output_inception_5a/output_0_split -> inception_5a/output_inception_5a/output_0_split_2
I0403 14:21:44.844981  1185 net.cpp:399] inception_5a/output_inception_5a/output_0_split -> inception_5a/output_inception_5a/output_0_split_3
I0403 14:21:44.845099  1185 net.cpp:141] Setting up inception_5a/output_inception_5a/output_0_split
I0403 14:21:44.845124  1185 net.cpp:148] Top shape: 24 832 7 7 (978432)
I0403 14:21:44.845141  1185 net.cpp:148] Top shape: 24 832 7 7 (978432)
I0403 14:21:44.845158  1185 net.cpp:148] Top shape: 24 832 7 7 (978432)
I0403 14:21:44.845173  1185 net.cpp:148] Top shape: 24 832 7 7 (978432)
I0403 14:21:44.845187  1185 net.cpp:156] Memory required for data: 1325241888
I0403 14:21:44.845202  1185 layer_factory.hpp:77] Creating layer inception_5b/1x1
I0403 14:21:44.845232  1185 net.cpp:91] Creating Layer inception_5b/1x1
I0403 14:21:44.845265  1185 net.cpp:425] inception_5b/1x1 <- inception_5a/output_inception_5a/output_0_split_0
I0403 14:21:44.845288  1185 net.cpp:399] inception_5b/1x1 -> inception_5b/1x1
I0403 14:21:44.849195  1185 net.cpp:141] Setting up inception_5b/1x1
I0403 14:21:44.849234  1185 net.cpp:148] Top shape: 24 384 7 7 (451584)
I0403 14:21:44.849252  1185 net.cpp:156] Memory required for data: 1327048224
I0403 14:21:44.849272  1185 layer_factory.hpp:77] Creating layer inception_5b/relu_1x1
I0403 14:21:44.849293  1185 net.cpp:91] Creating Layer inception_5b/relu_1x1
I0403 14:21:44.849311  1185 net.cpp:425] inception_5b/relu_1x1 <- inception_5b/1x1
I0403 14:21:44.849330  1185 net.cpp:386] inception_5b/relu_1x1 -> inception_5b/1x1 (in-place)
I0403 14:21:44.849644  1185 net.cpp:141] Setting up inception_5b/relu_1x1
I0403 14:21:44.849670  1185 net.cpp:148] Top shape: 24 384 7 7 (451584)
I0403 14:21:44.849686  1185 net.cpp:156] Memory required for data: 1328854560
I0403 14:21:44.849702  1185 layer_factory.hpp:77] Creating layer inception_5b/3x3_reduce
I0403 14:21:44.849727  1185 net.cpp:91] Creating Layer inception_5b/3x3_reduce
I0403 14:21:44.849746  1185 net.cpp:425] inception_5b/3x3_reduce <- inception_5a/output_inception_5a/output_0_split_1
I0403 14:21:44.849767  1185 net.cpp:399] inception_5b/3x3_reduce -> inception_5b/3x3_reduce
I0403 14:21:44.852537  1185 net.cpp:141] Setting up inception_5b/3x3_reduce
I0403 14:21:44.852571  1185 net.cpp:148] Top shape: 24 192 7 7 (225792)
I0403 14:21:44.852589  1185 net.cpp:156] Memory required for data: 1329757728
I0403 14:21:44.852609  1185 layer_factory.hpp:77] Creating layer inception_5b/relu_3x3_reduce
I0403 14:21:44.852628  1185 net.cpp:91] Creating Layer inception_5b/relu_3x3_reduce
I0403 14:21:44.852645  1185 net.cpp:425] inception_5b/relu_3x3_reduce <- inception_5b/3x3_reduce
I0403 14:21:44.852663  1185 net.cpp:386] inception_5b/relu_3x3_reduce -> inception_5b/3x3_reduce (in-place)
I0403 14:21:44.852855  1185 net.cpp:141] Setting up inception_5b/relu_3x3_reduce
I0403 14:21:44.852880  1185 net.cpp:148] Top shape: 24 192 7 7 (225792)
I0403 14:21:44.852895  1185 net.cpp:156] Memory required for data: 1330660896
I0403 14:21:44.852910  1185 layer_factory.hpp:77] Creating layer inception_5b/3x3
I0403 14:21:44.852932  1185 net.cpp:91] Creating Layer inception_5b/3x3
I0403 14:21:44.852949  1185 net.cpp:425] inception_5b/3x3 <- inception_5b/3x3_reduce
I0403 14:21:44.852972  1185 net.cpp:399] inception_5b/3x3 -> inception_5b/3x3
I0403 14:21:44.859746  1185 net.cpp:141] Setting up inception_5b/3x3
I0403 14:21:44.859781  1185 net.cpp:148] Top shape: 24 384 7 7 (451584)
I0403 14:21:44.859800  1185 net.cpp:156] Memory required for data: 1332467232
I0403 14:21:44.859820  1185 layer_factory.hpp:77] Creating layer inception_5b/relu_3x3
I0403 14:21:44.859840  1185 net.cpp:91] Creating Layer inception_5b/relu_3x3
I0403 14:21:44.859859  1185 net.cpp:425] inception_5b/relu_3x3 <- inception_5b/3x3
I0403 14:21:44.859880  1185 net.cpp:386] inception_5b/relu_3x3 -> inception_5b/3x3 (in-place)
I0403 14:21:44.860177  1185 net.cpp:141] Setting up inception_5b/relu_3x3
I0403 14:21:44.860213  1185 net.cpp:148] Top shape: 24 384 7 7 (451584)
I0403 14:21:44.860232  1185 net.cpp:156] Memory required for data: 1334273568
I0403 14:21:44.860261  1185 layer_factory.hpp:77] Creating layer inception_5b/5x5_reduce
I0403 14:21:44.860303  1185 net.cpp:91] Creating Layer inception_5b/5x5_reduce
I0403 14:21:44.860323  1185 net.cpp:425] inception_5b/5x5_reduce <- inception_5a/output_inception_5a/output_0_split_2
I0403 14:21:44.860343  1185 net.cpp:399] inception_5b/5x5_reduce -> inception_5b/5x5_reduce
I0403 14:21:44.861675  1185 net.cpp:141] Setting up inception_5b/5x5_reduce
I0403 14:21:44.861706  1185 net.cpp:148] Top shape: 24 48 7 7 (56448)
I0403 14:21:44.861722  1185 net.cpp:156] Memory required for data: 1334499360
I0403 14:21:44.861742  1185 layer_factory.hpp:77] Creating layer inception_5b/relu_5x5_reduce
I0403 14:21:44.861763  1185 net.cpp:91] Creating Layer inception_5b/relu_5x5_reduce
I0403 14:21:44.861780  1185 net.cpp:425] inception_5b/relu_5x5_reduce <- inception_5b/5x5_reduce
I0403 14:21:44.861801  1185 net.cpp:386] inception_5b/relu_5x5_reduce -> inception_5b/5x5_reduce (in-place)
I0403 14:21:44.862170  1185 net.cpp:141] Setting up inception_5b/relu_5x5_reduce
I0403 14:21:44.862197  1185 net.cpp:148] Top shape: 24 48 7 7 (56448)
I0403 14:21:44.862228  1185 net.cpp:156] Memory required for data: 1334725152
I0403 14:21:44.862247  1185 layer_factory.hpp:77] Creating layer inception_5b/5x5
I0403 14:21:44.862269  1185 net.cpp:91] Creating Layer inception_5b/5x5
I0403 14:21:44.862287  1185 net.cpp:425] inception_5b/5x5 <- inception_5b/5x5_reduce
I0403 14:21:44.862308  1185 net.cpp:399] inception_5b/5x5 -> inception_5b/5x5
I0403 14:21:44.864419  1185 net.cpp:141] Setting up inception_5b/5x5
I0403 14:21:44.864449  1185 net.cpp:148] Top shape: 24 128 7 7 (150528)
I0403 14:21:44.864465  1185 net.cpp:156] Memory required for data: 1335327264
I0403 14:21:44.864485  1185 layer_factory.hpp:77] Creating layer inception_5b/relu_5x5
I0403 14:21:44.864506  1185 net.cpp:91] Creating Layer inception_5b/relu_5x5
I0403 14:21:44.864523  1185 net.cpp:425] inception_5b/relu_5x5 <- inception_5b/5x5
I0403 14:21:44.864544  1185 net.cpp:386] inception_5b/relu_5x5 -> inception_5b/5x5 (in-place)
I0403 14:21:44.864737  1185 net.cpp:141] Setting up inception_5b/relu_5x5
I0403 14:21:44.864763  1185 net.cpp:148] Top shape: 24 128 7 7 (150528)
I0403 14:21:44.864778  1185 net.cpp:156] Memory required for data: 1335929376
I0403 14:21:44.864794  1185 layer_factory.hpp:77] Creating layer inception_5b/pool
I0403 14:21:44.864814  1185 net.cpp:91] Creating Layer inception_5b/pool
I0403 14:21:44.864832  1185 net.cpp:425] inception_5b/pool <- inception_5a/output_inception_5a/output_0_split_3
I0403 14:21:44.864850  1185 net.cpp:399] inception_5b/pool -> inception_5b/pool
I0403 14:21:44.864924  1185 net.cpp:141] Setting up inception_5b/pool
I0403 14:21:44.864949  1185 net.cpp:148] Top shape: 24 832 7 7 (978432)
I0403 14:21:44.864966  1185 net.cpp:156] Memory required for data: 1339843104
I0403 14:21:44.864980  1185 layer_factory.hpp:77] Creating layer inception_5b/pool_proj
I0403 14:21:44.865002  1185 net.cpp:91] Creating Layer inception_5b/pool_proj
I0403 14:21:44.865020  1185 net.cpp:425] inception_5b/pool_proj <- inception_5b/pool
I0403 14:21:44.865041  1185 net.cpp:399] inception_5b/pool_proj -> inception_5b/pool_proj
I0403 14:21:44.867431  1185 net.cpp:141] Setting up inception_5b/pool_proj
I0403 14:21:44.867465  1185 net.cpp:148] Top shape: 24 128 7 7 (150528)
I0403 14:21:44.867482  1185 net.cpp:156] Memory required for data: 1340445216
I0403 14:21:44.867502  1185 layer_factory.hpp:77] Creating layer inception_5b/relu_pool_proj
I0403 14:21:44.867522  1185 net.cpp:91] Creating Layer inception_5b/relu_pool_proj
I0403 14:21:44.867540  1185 net.cpp:425] inception_5b/relu_pool_proj <- inception_5b/pool_proj
I0403 14:21:44.867560  1185 net.cpp:386] inception_5b/relu_pool_proj -> inception_5b/pool_proj (in-place)
I0403 14:21:44.867861  1185 net.cpp:141] Setting up inception_5b/relu_pool_proj
I0403 14:21:44.867890  1185 net.cpp:148] Top shape: 24 128 7 7 (150528)
I0403 14:21:44.867907  1185 net.cpp:156] Memory required for data: 1341047328
I0403 14:21:44.867921  1185 layer_factory.hpp:77] Creating layer inception_5b/output
I0403 14:21:44.867939  1185 net.cpp:91] Creating Layer inception_5b/output
I0403 14:21:44.867970  1185 net.cpp:425] inception_5b/output <- inception_5b/1x1
I0403 14:21:44.867988  1185 net.cpp:425] inception_5b/output <- inception_5b/3x3
I0403 14:21:44.868005  1185 net.cpp:425] inception_5b/output <- inception_5b/5x5
I0403 14:21:44.868021  1185 net.cpp:425] inception_5b/output <- inception_5b/pool_proj
I0403 14:21:44.868041  1185 net.cpp:399] inception_5b/output -> inception_5b/output
I0403 14:21:44.868093  1185 net.cpp:141] Setting up inception_5b/output
I0403 14:21:44.868118  1185 net.cpp:148] Top shape: 24 1024 7 7 (1204224)
I0403 14:21:44.868131  1185 net.cpp:156] Memory required for data: 1345864224
I0403 14:21:44.868146  1185 layer_factory.hpp:77] Creating layer pool5/7x7_s1
I0403 14:21:44.868166  1185 net.cpp:91] Creating Layer pool5/7x7_s1
I0403 14:21:44.868185  1185 net.cpp:425] pool5/7x7_s1 <- inception_5b/output
I0403 14:21:44.868203  1185 net.cpp:399] pool5/7x7_s1 -> pool5/7x7_s1
I0403 14:21:44.868428  1185 net.cpp:141] Setting up pool5/7x7_s1
I0403 14:21:44.868453  1185 net.cpp:148] Top shape: 24 1024 1 1 (24576)
I0403 14:21:44.868468  1185 net.cpp:156] Memory required for data: 1345962528
I0403 14:21:44.868482  1185 layer_factory.hpp:77] Creating layer pool5/drop_7x7_s1
I0403 14:21:44.868501  1185 net.cpp:91] Creating Layer pool5/drop_7x7_s1
I0403 14:21:44.868517  1185 net.cpp:425] pool5/drop_7x7_s1 <- pool5/7x7_s1
I0403 14:21:44.868537  1185 net.cpp:386] pool5/drop_7x7_s1 -> pool5/7x7_s1 (in-place)
I0403 14:21:44.868587  1185 net.cpp:141] Setting up pool5/drop_7x7_s1
I0403 14:21:44.868610  1185 net.cpp:148] Top shape: 24 1024 1 1 (24576)
I0403 14:21:44.868625  1185 net.cpp:156] Memory required for data: 1346060832
I0403 14:21:44.868639  1185 layer_factory.hpp:77] Creating layer loss3/classifier_plantvillage
I0403 14:21:44.868661  1185 net.cpp:91] Creating Layer loss3/classifier_plantvillage
I0403 14:21:44.868679  1185 net.cpp:425] loss3/classifier_plantvillage <- pool5/7x7_s1
I0403 14:21:44.868700  1185 net.cpp:399] loss3/classifier_plantvillage -> loss3/classifier_plantvillage
I0403 14:21:44.869128  1185 net.cpp:141] Setting up loss3/classifier_plantvillage
I0403 14:21:44.869155  1185 net.cpp:148] Top shape: 24 38 (912)
I0403 14:21:44.869170  1185 net.cpp:156] Memory required for data: 1346064480
I0403 14:21:44.869189  1185 layer_factory.hpp:77] Creating layer loss3/classifier_plantvillage_loss3/classifier_plantvillage_0_split
I0403 14:21:44.869217  1185 net.cpp:91] Creating Layer loss3/classifier_plantvillage_loss3/classifier_plantvillage_0_split
I0403 14:21:44.869238  1185 net.cpp:425] loss3/classifier_plantvillage_loss3/classifier_plantvillage_0_split <- loss3/classifier_plantvillage
I0403 14:21:44.869269  1185 net.cpp:399] loss3/classifier_plantvillage_loss3/classifier_plantvillage_0_split -> loss3/classifier_plantvillage_loss3/classifier_plantvillage_0_split_0
I0403 14:21:44.869290  1185 net.cpp:399] loss3/classifier_plantvillage_loss3/classifier_plantvillage_0_split -> loss3/classifier_plantvillage_loss3/classifier_plantvillage_0_split_1
I0403 14:21:44.869310  1185 net.cpp:399] loss3/classifier_plantvillage_loss3/classifier_plantvillage_0_split -> loss3/classifier_plantvillage_loss3/classifier_plantvillage_0_split_2
I0403 14:21:44.869333  1185 net.cpp:399] loss3/classifier_plantvillage_loss3/classifier_plantvillage_0_split -> loss3/classifier_plantvillage_loss3/classifier_plantvillage_0_split_3
I0403 14:21:44.869441  1185 net.cpp:141] Setting up loss3/classifier_plantvillage_loss3/classifier_plantvillage_0_split
I0403 14:21:44.869464  1185 net.cpp:148] Top shape: 24 38 (912)
I0403 14:21:44.869482  1185 net.cpp:148] Top shape: 24 38 (912)
I0403 14:21:44.869498  1185 net.cpp:148] Top shape: 24 38 (912)
I0403 14:21:44.869513  1185 net.cpp:148] Top shape: 24 38 (912)
I0403 14:21:44.869527  1185 net.cpp:156] Memory required for data: 1346079072
I0403 14:21:44.869554  1185 layer_factory.hpp:77] Creating layer loss1/loss
I0403 14:21:44.869575  1185 net.cpp:91] Creating Layer loss1/loss
I0403 14:21:44.869593  1185 net.cpp:425] loss1/loss <- loss1/classifier_plantvillage_loss1/classifier_plantvillage_0_split_0
I0403 14:21:44.869624  1185 net.cpp:425] loss1/loss <- label_data_1_split_0
…
