…
I0403 14:49:34.887544  2025 net.cpp:313] The NetState phase (1) differed from the phase (0) specified by a rule in layer data
I0403 14:49:34.888777  2025 net.cpp:49] Initializing net from parameters: 
state {
  phase: TEST
}
layer {
  name: "data"
  type: "Data"
  top: "data"
  top: "label"
  include {
    phase: TEST
  }
  transform_param {
    mirror: false
    crop_size: 224
    mean_file: "/home/mohanty/data/final_dataset/lmdb/grayscale-20-80/mean.binaryproto"
  }
  data_param {
    source: "/home/mohanty/data/final_dataset/lmdb/grayscale-20-80/test_db"
    batch_size: 24
    backend: LMDB
  }
}
layer {
  name: "conv1/7x7_s2"
  type: "Convolution"
  bottom: "data"
  top: "conv1/7x7_s2"
  param {
    lr_mult: 1
    decay_mult: 1
  }
  param {
    lr_mult: 2
    decay_mult: 0
  }
  convolution_param {
    num_output: 64
    pad: 3
    kernel_size: 7
    stride: 2
    weight_filler {
      type: "xavier"
      std: 0.1
    }
    bias_filler {
      type: "constant"
      value: 0.2
    }
  }
}
layer {
  name: "conv1/relu_7x7"
  type: "ReLU"
  bottom: "conv1/7x7_s2"
  top: "conv1/7x7_s2"
}
layer {
  name: "pool1/3x3_s2"
  type: "Pooling"
  bottom: "conv1/7x7_s2"
  top: "pool1/3x3_s2"
  pooling_param {
    pool: MAX
    kernel_size: 3
    stride: 2
  }
}
layer {
  name: "pool1/norm1"
  type: "LRN"
  bottom: "pool1/3x3_s2"
  top: "pool1/norm1"
  lrn_param {
    local_size: 5
    alpha: 0.0001
    beta: 0.75
  }
}
layer {
  name: "conv2/3x3_reduce"
  type: "Convolution"
  bottom: "pool1/norm1"
  top: "conv2/3x3_reduce"
  param {
    lr_mult: 1
    decay_mult: 1
  }
  param {
    lr_mult: 2
    decay_mult: 0
  }
  convolution_param {
    num_output: 64
    kernel_size: 1
    weight_filler {
      type: "xavier"
      std: 0.1
    }
    bias_filler {
      type: "constant"
      value: 0.2
    }
  }
}
layer {
  name: "conv2/relu_3x3_reduce"
  type: "ReLU"
  bottom: "conv2/3x3_reduce"
  top: "conv2/3x3_reduce"
}
layer {
  name: "conv2/3x3"
  type: "Convolution"
  bottom: "conv2/3x3_reduce"
  top: "conv2/3x3"
  param {
    lr_mult: 1
    decay_mult: 1
  }
  param {
    lr_mult: 2
    decay_mult: 0
  }
  convolution_param {
    num_output: 192
    pad: 1
    kernel_size: 3
    weight_filler {
      type: "xavier"
      std: 0.03
    }
    bias_filler {
      type: "constant"
      value: 0.2
    }
  }
}
layer {
  name: "conv2/relu_3x3"
  type: "ReLU"
  bottom: "conv2/3x3"
  top: "conv2/3x3"
}
layer {
  name: "conv2/norm2"
  type: "LRN"
  bottom: "conv2/3x3"
  top: "conv2/norm2"
  lrn_param {
    local_size: 5
    alpha: 0.0001
    beta: 0.75
  }
}
layer {
  name: "pool2/3x3_s2"
  type: "Pooling"
  bottom: "conv2/norm2"
  top: "pool2/3x3_s2"
  pooling_param {
    pool: MAX
    kernel_size: 3
    stride: 2
  }
}
layer {
  name: "inception_3a/1x1"
  type: "Convolution"
  bottom: "pool2/3x3_s2"
  top: "inception_3a/1x1"
  param {
    lr_mult: 1
    decay_mult: 1
  }
  param {
    lr_mult: 2
    decay_mult: 0
  }
  convolution_param {
    num_output: 64
    kernel_size: 1
    weight_filler {
      type: "xavier"
      std: 0.03
    }
    bias_filler {
      type: "constant"
      value: 0.2
    }
  }
}
layer {
  name: "inception_3a/relu_1x1"
  type: "ReLU"
  bottom: "inception_3a/1x1"
  top: "inception_3a/1x1"
}
layer {
  name: "inception_3a/3x3_reduce"
  type: "Convolution"
  bottom: "pool2/3x3_s2"
  top: "inception_3a/3x3_reduce"
  param {
    lr_mult: 1
    decay_mult: 1
  }
  param {
    lr_mult: 2
    decay_mult: 0
  }
  convolution_param {
    num_output: 96
    kernel_size: 1
    weight_filler {
      type: "xavier"
      std: 0.09
    }
    bias_filler {
      type: "constant"
      value: 0.2
    }
  }
}
layer {
  name: "inception_3a/relu_3x3_reduce"
  type: "ReLU"
  bottom: "inception_3a/3x3_reduce"
  top: "inception_3a/3x3_reduce"
}
layer {
  name: "inception_3a/3x3"
  type: "Convolution"
  bottom: "inception_3a/3x3_reduce"
  top: "inception_3a/3x3"
  param {
    lr_mult: 1
    decay_mult: 1
  }
  param {
    lr_mult: 2
    decay_mult: 0
  }
  convolution_param {
    num_output: 128
    pad: 1
    kernel_size: 3
    weight_filler {
      type: "xavier"
      std: 0.03
    }
    bias_filler {
      type: "constant"
      value: 0.2
    }
  }
}
layer {
  name: "inception_3a/relu_3x3"
  type: "ReLU"
  bottom: "inception_3a/3x3"
  top: "inception_3a/3x3"
}
layer {
  name: "inception_3a/5x5_reduce"
  type: "Convolution"
  bottom: "pool2/3x3_s2"
  top: "inception_3a/5x5_reduce"
  param {
    lr_mult: 1
    decay_mult: 1
  }
  param {
    lr_mult: 2
    decay_mult: 0
  }
  convolution_param {
    num_output: 16
    kernel_size: 1
    weight_filler {
      type: "xavier"
      std: 0.2
    }
    bias_filler {
      type: "constant"
      value: 0.2
    }
  }
}
layer {
  name: "inception_3a/relu_5x5_reduce"
  type: "ReLU"
  bottom: "inception_3a/5x5_reduce"
  top: "inception_3a/5x5_reduce"
}
layer {
  name: "inception_3a/5x5"
  type: "Convolution"
  bottom: "inception_3a/5x5_reduce"
  top: "inception_3a/5x5"
  param {
    lr_mult: 1
    decay_mult: 1
  }
  param {
    lr_mult: 2
    decay_mult: 0
  }
  convolution_param {
    num_output: 32
    pad: 2
    kernel_size: 5
    weight_filler {
      type: "xavier"
      std: 0.03
    }
    bias_filler {
      type: "constant"
      value: 0.2
    }
  }
}
layer {
  name: "inception_3a/relu_5x5"
  type: "ReLU"
  bottom: "inception_3a/5x5"
  top: "inception_3a/5x5"
}
layer {
  name: "inception_3a/pool"
  type: "Pooling"
  bottom: "pool2/3x3_s2"
  top: "inception_3a/pool"
  pooling_param {
    pool: MAX
    kernel_size: 3
    stride: 1
    pad: 1
  }
}
layer {
  name: "inception_3a/pool_proj"
  type: "Convolution"
  bottom: "inception_3a/pool"
  top: "inception_3a/pool_proj"
  param {
    lr_mult: 1
    decay_mult: 1
  }
  param {
    lr_mult: 2
    decay_mult: 0
  }
  convolution_param {
    num_output: 32
    kernel_size: 1
    weight_filler {
      type: "xavier"
      std: 0.1
    }
    bias_filler {
      type: "constant"
      value: 0.2
    }
  }
}
layer {
  name: "inception_3a/relu_pool_proj"
  type: "ReLU"
  bottom: "inception_3a/pool_proj"
  top: "inception_3a/pool_proj"
}
layer {
  name: "inception_3a/output"
  type: "Concat"
  bottom: "inception_3a/1x1"
  bottom: "inception_3a/3x3"
  bottom: "inception_3a/5x5"
  bottom: "inception_3a/pool_proj"
  top: "inception_3a/output"
}
layer {
  name: "inception_3b/1x1"
  type: "Convolution"
  bottom: "inception_3a/output"
  top: "inception_3b/1x1"
  param {
    lr_mult: 1
    decay_mult: 1
  }
  param {
    lr_mult: 2
    decay_mult: 0
  }
  convolution_param {
    num_output: 128
    kernel_size: 1
    weight_filler {
      type: "xavier"
      std: 0.03
    }
    bias_filler {
      type: "constant"
      value: 0.2
    }
  }
}
layer {
  name: "inception_3b/relu_1x1"
  type: "ReLU"
  bottom: "inception_3b/1x1"
  top: "inception_3b/1x1"
}
layer {
  name: "inception_3b/3x3_reduce"
  type: "Convolution"
  bottom: "inception_3a/output"
  top: "inception_3b/3x3_reduce"
  param {
    lr_mult: 1
    decay_mult: 1
  }
  param {
    lr_mult: 2
    decay_mult: 0
  }
  convolution_param {
    num_output: 128
    kernel_size: 1
    weight_filler {
      type: "xavier"
      std: 0.09
    }
    bias_filler {
      type: "constant"
      value: 0.2
    }
  }
}
layer {
  name: "inception_3b/relu_3x3_reduce"
  type: "ReLU"
  bottom: "inception_3b/3x3_reduce"
  top: "inception_3b/3x3_reduce"
}
layer {
  name: "inception_3b/3x3"
  type: "Convolution"
  bottom: "inception_3b/3x3_reduce"
  top: "inception_3b/3x3"
  param {
    lr_mult: 1
    decay_mult: 1
  }
  param {
    lr_mult: 2
    decay_mult: 0
  }
  convolution_param {
    num_output: 192
    pad: 1
    kernel_size: 3
    weight_filler {
      type: "xavier"
      std: 0.03
    }
    bias_filler {
      type: "constant"
      value: 0.2
    }
  }
}
layer {
  name: "inception_3b/relu_3x3"
  type: "ReLU"
  bottom: "inception_3b/3x3"
  top: "inception_3b/3x3"
}
layer {
  name: "inception_3b/5x5_reduce"
  type: "Convolution"
  bottom: "inception_3a/output"
  top: "inception_3b/5x5_reduce"
  param {
    lr_mult: 1
    decay_mult: 1
  }
  param {
    lr_mult: 2
    decay_mult: 0
  }
  convolution_param {
    num_output: 32
    kernel_size: 1
    weight_filler {
      type: "xavier"
      std: 0.2
    }
    bias_filler {
      type: "constant"
      value: 0.2
    }
  }
}
layer {
  name: "inception_3b/relu_5x5_reduce"
  type: "ReLU"
  bottom: "inception_3b/5x5_reduce"
  top: "inception_3b/5x5_reduce"
}
layer {
  name: "inception_3b/5x5"
  type: "Convolution"
  bottom: "inception_3b/5x5_reduce"
  top: "inception_3b/5x5"
  param {
    lr_mult: 1
    decay_mult: 1
  }
  param {
    lr_mult: 2
    decay_mult: 0
  }
  convolution_param {
    num_output: 96
    pad: 2
    kernel_size: 5
    weight_filler {
      type: "xavier"
      std: 0.03
    }
    bias_filler {
      type: "constant"
      value: 0.2
    }
  }
}
layer {
  name: "inception_3b/relu_5x5"
  type: "ReLU"
  bottom: "inception_3b/5x5"
  top: "inception_3b/5x5"
}
layer {
  name: "inception_3b/pool"
  type: "Pooling"
  bottom: "inception_3a/output"
  top: "inception_3b/pool"
  pooling_param {
    pool: MAX
    kernel_size: 3
    stride: 1
    pad: 1
  }
}
layer {
  name: "inception_3b/pool_proj"
  type: "Convolution"
  bottom: "inception_3b/pool"
  top: "inception_3b/pool_proj"
  param {
    lr_mult: 1
    decay_mult: 1
  }
  param {
    lr_mult: 2
    decay_mult: 0
  }
  convolution_param {
    num_output: 64
    kernel_size: 1
    weight_filler {
      type: "xavier"
      std: 0.1
    }
    bias_filler {
      type: "constant"
      value: 0.2
    }
  }
}
layer {
  name: "inception_3b/relu_pool_proj"
  type: "ReLU"
  bottom: "inception_3b/pool_proj"
  top: "inception_3b/pool_proj"
}
layer {
  name: "inception_3b/output"
  type: "Concat"
  bottom: "inception_3b/1x1"
  bottom: "inception_3b/3x3"
  bottom: "inception_3b/5x5"
  bottom: "inception_3b/pool_proj"
  top: "inception_3b/output"
}
layer {
  name: "pool3/3x3_s2"
  type: "Pooling"
  bottom: "inception_3b/output"
  top: "pool3/3x3_s2"
  pooling_param {
    pool: MAX
    kernel_size: 3
    stride: 2
  }
}
layer {
  name: "inception_4a/1x1"
  type: "Convolution"
  bottom: "pool3/3x3_s2"
  top: "inception_4a/1x1"
  param {
    lr_mult: 1
    decay_mult: 1
  }
  param {
    lr_mult: 2
    decay_mult: 0
  }
  convolution_param {
    num_output: 192
    kernel_size: 1
    weight_filler {
      type: "xavier"
      std: 0.03
    }
    bias_filler {
      type: "constant"
      value: 0.2
    }
  }
}
layer {
  name: "inception_4a/relu_1x1"
  type: "ReLU"
  bottom: "inception_4a/1x1"
  top: "inception_4a/1x1"
}
layer {
  name: "inception_4a/3x3_reduce"
  type: "Convolution"
  bottom: "pool3/3x3_s2"
  top: "inception_4a/3x3_reduce"
  param {
    lr_mult: 1
    decay_mult: 1
  }
  param {
    lr_mult: 2
    decay_mult: 0
  }
  convolution_param {
    num_output: 96
    kernel_size: 1
    weight_filler {
      type: "xavier"
      std: 0.09
    }
    bias_filler {
      type: "constant"
      value: 0.2
    }
  }
}
layer {
  name: "inception_4a/relu_3x3_reduce"
  type: "ReLU"
  bottom: "inception_4a/3x3_reduce"
  top: "inception_4a/3x3_reduce"
}
layer {
  name: "inception_4a/3x3"
  type: "Convolution"
  bottom: "inception_4a/3x3_reduce"
  top: "inception_4a/3x3"
  param {
    lr_mult: 1
    decay_mult: 1
  }
  param {
    lr_mult: 2
    decay_mult: 0
  }
  convolution_param {
    num_output: 208
    pad: 1
    kernel_size: 3
    weight_filler {
      type: "xavier"
      std: 0.03
    }
    bias_filler {
      type: "constant"
      value: 0.2
    }
  }
}
layer {
  name: "inception_4a/relu_3x3"
  type: "ReLU"
  bottom: "inception_4a/3x3"
  top: "inception_4a/3x3"
}
layer {
  name: "inception_4a/5x5_reduce"
  type: "Convolution"
  bottom: "pool3/3x3_s2"
  top: "inception_4a/5x5_reduce"
  param {
    lr_mult: 1
    decay_mult: 1
  }
  param {
    lr_mult: 2
    decay_mult: 0
  }
  convolution_param {
    num_output: 16
    kernel_size: 1
    weight_filler {
      type: "xavier"
      std: 0.2
    }
    bias_filler {
      type: "constant"
      value: 0.2
    }
  }
}
layer {
  name: "inception_4a/relu_5x5_reduce"
  type: "ReLU"
  bottom: "inception_4a/5x5_reduce"
  top: "inception_4a/5x5_reduce"
}
layer {
  name: "inception_4a/5x5"
  type: "Convolution"
  bottom: "inception_4a/5x5_reduce"
  top: "inception_4a/5x5"
  param {
    lr_mult: 1
    decay_mult: 1
  }
  param {
    lr_mult: 2
    decay_mult: 0
  }
  convolution_param {
    num_output: 48
    pad: 2
    kernel_size: 5
    weight_filler {
      type: "xavier"
      std: 0.03
    }
    bias_filler {
      type: "constant"
      value: 0.2
    }
  }
}
layer {
  name: "inception_4a/relu_5x5"
  type: "ReLU"
  bottom: "inception_4a/5x5"
  top: "inception_4a/5x5"
}
layer {
  name: "inception_4a/pool"
  type: "Pooling"
  bottom: "pool3/3x3_s2"
  top: "inception_4a/pool"
  pooling_param {
    pool: MAX
    kernel_size: 3
    stride: 1
    pad: 1
  }
}
layer {
  name: "inception_4a/pool_proj"
  type: "Convolution"
  bottom: "inception_4a/pool"
  top: "inception_4a/pool_proj"
  param {
    lr_mult: 1
    decay_mult: 1
  }
  param {
    lr_mult: 2
    decay_mult: 0
  }
  convolution_param {
    num_output: 64
    kernel_size: 1
    weight_filler {
      type: "xavier"
      std: 0.1
    }
    bias_filler {
      type: "constant"
      value: 0.2
    }
  }
}
layer {
  name: "inception_4a/relu_pool_proj"
  type: "ReLU"
  bottom: "inception_4a/pool_proj"
  top: "inception_4a/pool_proj"
}
layer {
  name: "inception_4a/output"
  type: "Concat"
  bottom: "inception_4a/1x1"
  bottom: "inception_4a/3x3"
  bottom: "inception_4a/5x5"
  bottom: "inception_4a/pool_proj"
  top: "inception_4a/output"
}
layer {
  name: "loss1/ave_pool"
  type: "Pooling"
  bottom: "inception_4a/output"
  top: "loss1/ave_pool"
  pooling_param {
    pool: AVE
    kernel_size: 5
    stride: 3
  }
}
layer {
  name: "loss1/conv"
  type: "Convolution"
  bottom: "loss1/ave_pool"
  top: "loss1/conv"
  param {
    lr_mult: 1
    decay_mult: 1
  }
  param {
    lr_mult: 2
    decay_mult: 0
  }
  convolution_param {
    num_output: 128
    kernel_size: 1
    weight_filler {
      type: "xavier"
      std: 0.08
    }
    bias_filler {
      type: "constant"
      value: 0.2
    }
  }
}
layer {
  name: "loss1/relu_conv"
  type: "ReLU"
  bottom: "loss1/conv"
  top: "loss1/conv"
}
layer {
  name: "loss1/fc"
  type: "InnerProduct"
  bottom: "loss1/conv"
  top: "loss1/fc"
  param {
    lr_mult: 1
    decay_mult: 1
  }
  param {
    lr_mult: 2
    decay_mult: 0
  }
  inner_product_param {
    num_output: 1024
    weight_filler {
      type: "xavier"
      std: 0.02
    }
    bias_filler {
      type: "constant"
      value: 0.2
    }
  }
}
layer {
  name: "loss1/relu_fc"
  type: "ReLU"
  bottom: "loss1/fc"
  top: "loss1/fc"
}
layer {
  name: "loss1/drop_fc"
  type: "Dropout"
  bottom: "loss1/fc"
  top: "loss1/fc"
  dropout_param {
    dropout_ratio: 0.7
  }
}
layer {
  name: "loss1/classifier_plantvillage"
  type: "InnerProduct"
  bottom: "loss1/fc"
  top: "loss1/classifier_plantvillage"
  param {
    lr_mult: 1
    decay_mult: 1
  }
  param {
    lr_mult: 2
    decay_mult: 0
  }
  inner_product_param {
    num_output: 38
    weight_filler {
      type: "xavier"
      std: 0.0009765625
    }
    bias_filler {
      type: "constant"
      value: 0
    }
  }
}
layer {
  name: "inception_4b/1x1"
  type: "Convolution"
  bottom: "inception_4a/output"
  top: "inception_4b/1x1"
  param {
    lr_mult: 1
    decay_mult: 1
  }
  param {
    lr_mult: 2
    decay_mult: 0
  }
  convolution_param {
    num_output: 160
    kernel_size: 1
    weight_filler {
      type: "xavier"
      std: 0.03
    }
    bias_filler {
      type: "constant"
      value: 0.2
    }
  }
}
layer {
  name: "inception_4b/relu_1x1"
  type: "ReLU"
  bottom: "inception_4b/1x1"
  top: "inception_4b/1x1"
}
layer {
  name: "inception_4b/3x3_reduce"
  type: "Convolution"
  bottom: "inception_4a/output"
  top: "inception_4b/3x3_reduce"
  param {
    lr_mult: 1
    decay_mult: 1
  }
  param {
    lr_mult: 2
    decay_mult: 0
  }
  convolution_param {
    num_output: 112
    kernel_size: 1
    weight_filler {
      type: "xavier"
      std: 0.09
    }
    bias_filler {
      type: "constant"
      value: 0.2
    }
  }
}
layer {
  name: "inception_4b/relu_3x3_reduce"
  type: "ReLU"
  bottom: "inception_4b/3x3_reduce"
  top: "inception_4b/3x3_reduce"
}
layer {
  name: "inception_4b/3x3"
  type: "Convolution"
  bottom: "inception_4b/3x3_reduce"
  top: "inception_4b/3x3"
  param {
    lr_mult: 1
    decay_mult: 1
  }
  param {
    lr_mult: 2
    decay_mult: 0
  }
  convolution_param {
    num_output: 224
    pad: 1
    kernel_size: 3
    weight_filler {
      type: "xavier"
      std: 0.03
    }
    bias_filler {
      type: "constant"
      value: 0.2
    }
  }
}
layer {
  name: "inception_4b/relu_3x3"
  type: "ReLU"
  bottom: "inception_4b/3x3"
  top: "inception_4b/3x3"
}
layer {
  name: "inception_4b/5x5_reduce"
  type: "Convolution"
  bottom: "inception_4a/output"
  top: "inception_4b/5x5_reduce"
  param {
    lr_mult: 1
    decay_mult: 1
  }
  param {
    lr_mult: 2
    decay_mult: 0
  }
  convolution_param {
    num_output: 24
    kernel_size: 1
    weight_filler {
      type: "xavier"
      std: 0.2
    }
    bias_filler {
      type: "constant"
      value: 0.2
    }
  }
}
layer {
  name: "inception_4b/relu_5x5_reduce"
  type: "ReLU"
  bottom: "inception_4b/5x5_reduce"
  top: "inception_4b/5x5_reduce"
}
layer {
  name: "inception_4b/5x5"
  type: "Convolution"
  bottom: "inception_4b/5x5_reduce"
  top: "inception_4b/5x5"
  param {
    lr_mult: 1
    decay_mult: 1
  }
  param {
    lr_mult: 2
    decay_mult: 0
  }
  convolution_param {
    num_output: 64
    pad: 2
    kernel_size: 5
    weight_filler {
      type: "xavier"
      std: 0.03
    }
    bias_filler {
      type: "constant"
      value: 0.2
    }
  }
}
layer {
  name: "inception_4b/relu_5x5"
  type: "ReLU"
  bottom: "inception_4b/5x5"
  top: "inception_4b/5x5"
}
layer {
  name: "inception_4b/pool"
  type: "Pooling"
  bottom: "inception_4a/output"
  top: "inception_4b/pool"
  pooling_param {
    pool: MAX
    kernel_size: 3
    stride: 1
    pad: 1
  }
}
layer {
  name: "inception_4b/pool_proj"
  type: "Convolution"
  bottom: "inception_4b/pool"
  top: "inception_4b/pool_proj"
  param {
    lr_mult: 1
    decay_mult: 1
  }
  param {
    lr_mult: 2
    decay_mult: 0
  }
  convolution_param {
    num_output: 64
    kernel_size: 1
    weight_filler {
      type: "xavier"
      std: 0.1
    }
    bias_filler {
      type: "constant"
      value: 0.2
    }
  }
}
layer {
  name: "inception_4b/relu_pool_proj"
  type: "ReLU"
  bottom: "inception_4b/pool_proj"
  top: "inception_4b/pool_proj"
}
layer {
  name: "inception_4b/output"
  type: "Concat"
  bottom: "inception_4b/1x1"
  bottom: "inception_4b/3x3"
  bottom: "inception_4b/5x5"
  bottom: "inception_4b/pool_proj"
  top: "inception_4b/output"
}
layer {
  name: "inception_4c/1x1"
  type: "Convolution"
  bottom: "inception_4b/output"
  top: "inception_4c/1x1"
  param {
    lr_mult: 1
    decay_mult: 1
  }
  param {
    lr_mult: 2
    decay_mult: 0
  }
  convolution_param {
    num_output: 128
    kernel_size: 1
    weight_filler {
      type: "xavier"
      std: 0.03
    }
    bias_filler {
      type: "constant"
      value: 0.2
    }
  }
}
layer {
  name: "inception_4c/relu_1x1"
  type: "ReLU"
  bottom: "inception_4c/1x1"
  top: "inception_4c/1x1"
}
layer {
  name: "inception_4c/3x3_reduce"
  type: "Convolution"
  bottom: "inception_4b/output"
  top: "inception_4c/3x3_reduce"
  param {
    lr_mult: 1
    decay_mult: 1
  }
  param {
    lr_mult: 2
    decay_mult: 0
  }
  convolution_param {
    num_output: 128
    kernel_size: 1
    weight_filler {
      type: "xavier"
      std: 0.09
    }
    bias_filler {
      type: "constant"
      value: 0.2
    }
  }
}
layer {
  name: "inception_4c/relu_3x3_reduce"
  type: "ReLU"
  bottom: "inception_4c/3x3_reduce"
  top: "inception_4c/3x3_reduce"
}
layer {
  name: "inception_4c/3x3"
  type: "Convolution"
  bottom: "inception_4c/3x3_reduce"
  top: "inception_4c/3x3"
  param {
    lr_mult: 1
    decay_mult: 1
  }
  param {
    lr_mult: 2
    decay_mult: 0
  }
  convolution_param {
    num_output: 256
    pad: 1
    kernel_size: 3
    weight_filler {
      type: "xavier"
      std: 0.03
    }
    bias_filler {
      type: "constant"
      value: 0.2
    }
  }
}
layer {
  name: "inception_4c/relu_3x3"
  type: "ReLU"
  bottom: "inception_4c/3x3"
  top: "inception_4c/3x3"
}
layer {
  name: "inception_4c/5x5_reduce"
  type: "Convolution"
  bottom: "inception_4b/output"
  top: "inception_4c/5x5_reduce"
  param {
    lr_mult: 1
    decay_mult: 1
  }
  param {
    lr_mult: 2
    decay_mult: 0
  }
  convolution_param {
    num_output: 24
    kernel_size: 1
    weight_filler {
      type: "xavier"
      std: 0.2
    }
    bias_filler {
      type: "constant"
      value: 0.2
    }
  }
}
layer {
  name: "inception_4c/relu_5x5_reduce"
  type: "ReLU"
  bottom: "inception_4c/5x5_reduce"
  top: "inception_4c/5x5_reduce"
}
layer {
  name: "inception_4c/5x5"
  type: "Convolution"
  bottom: "inception_4c/5x5_reduce"
  top: "inception_4c/5x5"
  param {
    lr_mult: 1
    decay_mult: 1
  }
  param {
    lr_mult: 2
    decay_mult: 0
  }
  convolution_param {
    num_output: 64
    pad: 2
    kernel_size: 5
    weight_filler {
      type: "xavier"
      std: 0.03
    }
    bias_filler {
      type: "constant"
      value: 0.2
    }
  }
}
layer {
  name: "inception_4c/relu_5x5"
  type: "ReLU"
  bottom: "inception_4c/5x5"
  top: "inception_4c/5x5"
}
layer {
  name: "inception_4c/pool"
  type: "Pooling"
  bottom: "inception_4b/output"
  top: "inception_4c/pool"
  pooling_param {
    pool: MAX
    kernel_size: 3
    stride: 1
    pad: 1
  }
}
layer {
  name: "inception_4c/pool_proj"
  type: "Convolution"
  bottom: "inception_4c/pool"
  top: "inception_4c/pool_proj"
  param {
    lr_mult: 1
    decay_mult: 1
  }
  param {
    lr_mult: 2
    decay_mult: 0
  }
  convolution_param {
    num_output: 64
    kernel_size: 1
    weight_filler {
      type: "xavier"
      std: 0.1
    }
    bias_filler {
      type: "constant"
      value: 0.2
    }
  }
}
layer {
  name: "inception_4c/relu_pool_proj"
  type: "ReLU"
  bottom: "inception_4c/pool_proj"
  top: "inception_4c/pool_proj"
}
layer {
  name: "inception_4c/output"
  type: "Concat"
  bottom: "inception_4c/1x1"
  bottom: "inception_4c/3x3"
  bottom: "inception_4c/5x5"
  bottom: "inception_4c/pool_proj"
  top: "inception_4c/output"
}
layer {
  name: "inception_4d/1x1"
  type: "Convolution"
  bottom: "inception_4c/output"
  top: "inception_4d/1x1"
  param {
    lr_mult: 1
    decay_mult: 1
  }
  param {
    lr_mult: 2
    decay_mult: 0
  }
  convolution_param {
    num_output: 112
    kernel_size: 1
    weight_filler {
      type: "xavier"
      std: 0.03
    }
    bias_filler {
      type: "constant"
      value: 0.2
    }
  }
}
layer {
  name: "inception_4d/relu_1x1"
  type: "ReLU"
  bottom: "inception_4d/1x1"
  top: "inception_4d/1x1"
}
layer {
  name: "inception_4d/3x3_reduce"
  type: "Convolution"
  bottom: "inception_4c/output"
  top: "inception_4d/3x3_reduce"
  param {
    lr_mult: 1
    decay_mult: 1
  }
  param {
    lr_mult: 2
    decay_mult: 0
  }
  convolution_param {
    num_output: 144
    kernel_size: 1
    weight_filler {
      type: "xavier"
      std: 0.09
    }
    bias_filler {
      type: "constant"
      value: 0.2
    }
  }
}
layer {
  name: "inception_4d/relu_3x3_reduce"
  type: "ReLU"
  bottom: "inception_4d/3x3_reduce"
  top: "inception_4d/3x3_reduce"
}
layer {
  name: "inception_4d/3x3"
  type: "Convolution"
  bottom: "inception_4d/3x3_reduce"
  top: "inception_4d/3x3"
  param {
    lr_mult: 1
    decay_mult: 1
  }
  param {
    lr_mult: 2
    decay_mult: 0
  }
  convolution_param {
    num_output: 288
    pad: 1
    kernel_size: 3
    weight_filler {
      type: "xavier"
      std: 0.03
    }
    bias_filler {
      type: "constant"
      value: 0.2
    }
  }
}
layer {
  name: "inception_4d/relu_3x3"
  type: "ReLU"
  bottom: "inception_4d/3x3"
  top: "inception_4d/3x3"
}
layer {
  name: "inception_4d/5x5_reduce"
  type: "Convolution"
  bottom: "inception_4c/output"
  top: "inception_4d/5x5_reduce"
  param {
    lr_mult: 1
    decay_mult: 1
  }
  param {
    lr_mult: 2
    decay_mult: 0
  }
  convolution_param {
    num_output: 32
    kernel_size: 1
    weight_filler {
      type: "xavier"
      std: 0.2
    }
    bias_filler {
      type: "constant"
      value: 0.2
    }
  }
}
layer {
  name: "inception_4d/relu_5x5_reduce"
  type: "ReLU"
  bottom: "inception_4d/5x5_reduce"
  top: "inception_4d/5x5_reduce"
}
layer {
  name: "inception_4d/5x5"
  type: "Convolution"
  bottom: "inception_4d/5x5_reduce"
  top: "inception_4d/5x5"
  param {
    lr_mult: 1
    decay_mult: 1
  }
  param {
    lr_mult: 2
    decay_mult: 0
  }
  convolution_param {
    num_output: 64
    pad: 2
    kernel_size: 5
    weight_filler {
      type: "xavier"
      std: 0.03
    }
    bias_filler {
      type: "constant"
      value: 0.2
    }
  }
}
layer {
  name: "inception_4d/relu_5x5"
  type: "ReLU"
  bottom: "inception_4d/5x5"
  top: "inception_4d/5x5"
}
layer {
  name: "inception_4d/pool"
  type: "Pooling"
  bottom: "inception_4c/output"
  top: "inception_4d/pool"
  pooling_param {
    pool: MAX
    kernel_size: 3
    stride: 1
    pad: 1
  }
}
layer {
  name: "inception_4d/pool_proj"
  type: "Convolution"
  bottom: "inception_4d/pool"
  top: "inception_4d/pool_proj"
  param {
    lr_mult: 1
    decay_mult: 1
  }
  param {
    lr_mult: 2
    decay_mult: 0
  }
  convolution_param {
    num_output: 64
    kernel_size: 1
    weight_filler {
      type: "xavier"
      std: 0.1
    }
    bias_filler {
      type: "constant"
      value: 0.2
    }
  }
}
layer {
  name: "inception_4d/relu_pool_proj"
  type: "ReLU"
  bottom: "inception_4d/pool_proj"
  top: "inception_4d/pool_proj"
}
layer {
  name: "inception_4d/output"
  type: "Concat"
  bottom: "inception_4d/1x1"
  bottom: "inception_4d/3x3"
  bottom: "inception_4d/5x5"
  bottom: "inception_4d/pool_proj"
  top: "inception_4d/output"
}
layer {
  name: "loss2/ave_pool"
  type: "Pooling"
  bottom: "inception_4d/output"
  top: "loss2/ave_pool"
  pooling_param {
    pool: AVE
    kernel_size: 5
    stride: 3
  }
}
layer {
  name: "loss2/conv"
  type: "Convolution"
  bottom: "loss2/ave_pool"
  top: "loss2/conv"
  param {
    lr_mult: 1
    decay_mult: 1
  }
  param {
    lr_mult: 2
    decay_mult: 0
  }
  convolution_param {
    num_output: 128
    kernel_size: 1
    weight_filler {
      type: "xavier"
      std: 0.08
    }
    bias_filler {
      type: "constant"
      value: 0.2
    }
  }
}
layer {
  name: "loss2/relu_conv"
  type: "ReLU"
  bottom: "loss2/conv"
  top: "loss2/conv"
}
layer {
  name: "loss2/fc"
  type: "InnerProduct"
  bottom: "loss2/conv"
  top: "loss2/fc"
  param {
    lr_mult: 1
    decay_mult: 1
  }
  param {
    lr_mult: 2
    decay_mult: 0
  }
  inner_product_param {
    num_output: 1024
    weight_filler {
      type: "xavier"
      std: 0.02
    }
    bias_filler {
      type: "constant"
      value: 0.2
    }
  }
}
layer {
  name: "loss2/relu_fc"
  type: "ReLU"
  bottom: "loss2/fc"
  top: "loss2/fc"
}
layer {
  name: "loss2/drop_fc"
  type: "Dropout"
  bottom: "loss2/fc"
  top: "loss2/fc"
  dropout_param {
    dropout_ratio: 0.7
  }
}
layer {
  name: "loss2/classifier_plantvillage"
  type: "InnerProduct"
  bottom: "loss2/fc"
  top: "loss2/classifier_plantvillage"
  param {
    lr_mult: 1
    decay_mult: 1
  }
  param {
    lr_mult: 2
    decay_mult: 0
  }
  inner_product_param {
    num_output: 38
    weight_filler {
      type: "xavier"
      std: 0.0009765625
    }
    bias_filler {
      type: "constant"
      value: 0
    }
  }
}
layer {
  name: "inception_4e/1x1"
  type: "Convolution"
  bottom: "inception_4d/output"
  top: "inception_4e/1x1"
  param {
    lr_mult: 1
    decay_mult: 1
  }
  param {
    lr_mult: 2
    decay_mult: 0
  }
  convolution_param {
    num_output: 256
    kernel_size: 1
    weight_filler {
      type: "xavier"
      std: 0.03
    }
    bias_filler {
      type: "constant"
      value: 0.2
    }
  }
}
layer {
  name: "inception_4e/relu_1x1"
  type: "ReLU"
  bottom: "inception_4e/1x1"
  top: "inception_4e/1x1"
}
layer {
  name: "inception_4e/3x3_reduce"
  type: "Convolution"
  bottom: "inception_4d/output"
  top: "inception_4e/3x3_reduce"
  param {
    lr_mult: 1
    decay_mult: 1
  }
  param {
    lr_mult: 2
    decay_mult: 0
  }
  convolution_param {
    num_output: 160
    kernel_size: 1
    weight_filler {
      type: "xavier"
      std: 0.09
    }
    bias_filler {
      type: "constant"
      value: 0.2
    }
  }
}
layer {
  name: "inception_4e/relu_3x3_reduce"
  type: "ReLU"
  bottom: "inception_4e/3x3_reduce"
  top: "inception_4e/3x3_reduce"
}
layer {
  name: "inception_4e/3x3"
  type: "Convolution"
  bottom: "inception_4e/3x3_reduce"
  top: "inception_4e/3x3"
  param {
    lr_mult: 1
    decay_mult: 1
  }
  param {
    lr_mult: 2
    decay_mult: 0
  }
  convolution_param {
    num_output: 320
    pad: 1
    kernel_size: 3
    weight_filler {
      type: "xavier"
      std: 0.03
    }
    bias_filler {
      type: "constant"
      value: 0.2
    }
  }
}
layer {
  name: "inception_4e/relu_3x3"
  type: "ReLU"
  bottom: "inception_4e/3x3"
  top: "inception_4e/3x3"
}
layer {
  name: "inception_4e/5x5_reduce"
  type: "Convolution"
  bottom: "inception_4d/output"
  top: "inception_4e/5x5_reduce"
  param {
    lr_mult: 1
    decay_mult: 1
  }
  param {
    lr_mult: 2
    decay_mult: 0
  }
  convolution_param {
    num_output: 32
    kernel_size: 1
    weight_filler {
      type: "xavier"
      std: 0.2
    }
    bias_filler {
      type: "constant"
      value: 0.2
    }
  }
}
layer {
  name: "inception_4e/relu_5x5_reduce"
  type: "ReLU"
  bottom: "inception_4e/5x5_reduce"
  top: "inception_4e/5x5_reduce"
}
layer {
  name: "inception_4e/5x5"
  type: "Convolution"
  bottom: "inception_4e/5x5_reduce"
  top: "inception_4e/
I0403 14:49:34.890087  2025 layer_factory.hpp:77] Creating layer data
I0403 14:49:34.890703  2025 net.cpp:91] Creating Layer data
I0403 14:49:34.890738  2025 net.cpp:399] data -> data
I0403 14:49:34.890794  2025 net.cpp:399] data -> label
I0403 14:49:34.890831  2025 data_transformer.cpp:25] Loading mean file from: /home/mohanty/data/final_dataset/lmdb/grayscale-20-80/mean.binaryproto
I0403 14:49:34.892058  2028 db_lmdb.cpp:38] Opened lmdb /home/mohanty/data/final_dataset/lmdb/grayscale-20-80/test_db
I0403 14:49:34.904397  2025 data_layer.cpp:41] output data size: 24,3,224,224
I0403 14:49:34.932262  2025 net.cpp:141] Setting up data
I0403 14:49:34.932322  2025 net.cpp:148] Top shape: 24 3 224 224 (3612672)
I0403 14:49:34.932348  2025 net.cpp:148] Top shape: 24 (24)
I0403 14:49:34.932364  2025 net.cpp:156] Memory required for data: 14450784
I0403 14:49:34.932391  2025 layer_factory.hpp:77] Creating layer label_data_1_split
I0403 14:49:34.932420  2025 net.cpp:91] Creating Layer label_data_1_split
I0403 14:49:34.932440  2025 net.cpp:425] label_data_1_split <- label
I0403 14:49:34.932474  2025 net.cpp:399] label_data_1_split -> label_data_1_split_0
I0403 14:49:34.932503  2025 net.cpp:399] label_data_1_split -> label_data_1_split_1
I0403 14:49:34.932526  2025 net.cpp:399] label_data_1_split -> label_data_1_split_2
I0403 14:49:34.932548  2025 net.cpp:399] label_data_1_split -> label_data_1_split_3
I0403 14:49:34.932569  2025 net.cpp:399] label_data_1_split -> label_data_1_split_4
I0403 14:49:34.932590  2025 net.cpp:399] label_data_1_split -> label_data_1_split_5
I0403 14:49:34.932611  2025 net.cpp:399] label_data_1_split -> label_data_1_split_6
I0403 14:49:34.932633  2025 net.cpp:399] label_data_1_split -> label_data_1_split_7
I0403 14:49:34.932654  2025 net.cpp:399] label_data_1_split -> label_data_1_split_8
I0403 14:49:34.932677  2025 net.cpp:399] label_data_1_split -> label_data_1_split_9
I0403 14:49:34.932801  2025 net.cpp:141] Setting up label_data_1_split
I0403 14:49:34.932826  2025 net.cpp:148] Top shape: 24 (24)
I0403 14:49:34.932844  2025 net.cpp:148] Top shape: 24 (24)
I0403 14:49:34.932862  2025 net.cpp:148] Top shape: 24 (24)
I0403 14:49:34.932878  2025 net.cpp:148] Top shape: 24 (24)
I0403 14:49:34.932895  2025 net.cpp:148] Top shape: 24 (24)
I0403 14:49:34.932911  2025 net.cpp:148] Top shape: 24 (24)
I0403 14:49:34.932929  2025 net.cpp:148] Top shape: 24 (24)
I0403 14:49:34.932945  2025 net.cpp:148] Top shape: 24 (24)
I0403 14:49:34.932962  2025 net.cpp:148] Top shape: 24 (24)
I0403 14:49:34.932979  2025 net.cpp:148] Top shape: 24 (24)
I0403 14:49:34.933023  2025 net.cpp:156] Memory required for data: 14451744
I0403 14:49:34.933039  2025 layer_factory.hpp:77] Creating layer conv1/7x7_s2
I0403 14:49:34.933071  2025 net.cpp:91] Creating Layer conv1/7x7_s2
I0403 14:49:34.933091  2025 net.cpp:425] conv1/7x7_s2 <- data
I0403 14:49:34.933114  2025 net.cpp:399] conv1/7x7_s2 -> conv1/7x7_s2
I0403 14:49:35.076864  2025 net.cpp:141] Setting up conv1/7x7_s2
I0403 14:49:35.076953  2025 net.cpp:148] Top shape: 24 64 112 112 (19267584)
I0403 14:49:35.076972  2025 net.cpp:156] Memory required for data: 91522080
I0403 14:49:35.077005  2025 layer_factory.hpp:77] Creating layer conv1/relu_7x7
I0403 14:49:35.077033  2025 net.cpp:91] Creating Layer conv1/relu_7x7
I0403 14:49:35.077054  2025 net.cpp:425] conv1/relu_7x7 <- conv1/7x7_s2
I0403 14:49:35.077074  2025 net.cpp:386] conv1/relu_7x7 -> conv1/7x7_s2 (in-place)
I0403 14:49:35.077347  2025 net.cpp:141] Setting up conv1/relu_7x7
I0403 14:49:35.077378  2025 net.cpp:148] Top shape: 24 64 112 112 (19267584)
I0403 14:49:35.077394  2025 net.cpp:156] Memory required for data: 168592416
I0403 14:49:35.077410  2025 layer_factory.hpp:77] Creating layer pool1/3x3_s2
I0403 14:49:35.077440  2025 net.cpp:91] Creating Layer pool1/3x3_s2
I0403 14:49:35.077457  2025 net.cpp:425] pool1/3x3_s2 <- conv1/7x7_s2
I0403 14:49:35.077477  2025 net.cpp:399] pool1/3x3_s2 -> pool1/3x3_s2
I0403 14:49:35.077554  2025 net.cpp:141] Setting up pool1/3x3_s2
I0403 14:49:35.077580  2025 net.cpp:148] Top shape: 24 64 56 56 (4816896)
I0403 14:49:35.077595  2025 net.cpp:156] Memory required for data: 187860000
I0403 14:49:35.077611  2025 layer_factory.hpp:77] Creating layer pool1/norm1
I0403 14:49:35.077637  2025 net.cpp:91] Creating Layer pool1/norm1
I0403 14:49:35.077656  2025 net.cpp:425] pool1/norm1 <- pool1/3x3_s2
I0403 14:49:35.077674  2025 net.cpp:399] pool1/norm1 -> pool1/norm1
I0403 14:49:35.077968  2025 net.cpp:141] Setting up pool1/norm1
I0403 14:49:35.077997  2025 net.cpp:148] Top shape: 24 64 56 56 (4816896)
I0403 14:49:35.078013  2025 net.cpp:156] Memory required for data: 207127584
I0403 14:49:35.078029  2025 layer_factory.hpp:77] Creating layer conv2/3x3_reduce
I0403 14:49:35.078055  2025 net.cpp:91] Creating Layer conv2/3x3_reduce
I0403 14:49:35.078073  2025 net.cpp:425] conv2/3x3_reduce <- pool1/norm1
I0403 14:49:35.078094  2025 net.cpp:399] conv2/3x3_reduce -> conv2/3x3_reduce
I0403 14:49:35.080297  2025 net.cpp:141] Setting up conv2/3x3_reduce
I0403 14:49:35.080329  2025 net.cpp:148] Top shape: 24 64 56 56 (4816896)
I0403 14:49:35.080346  2025 net.cpp:156] Memory required for data: 226395168
I0403 14:49:35.080368  2025 layer_factory.hpp:77] Creating layer conv2/relu_3x3_reduce
I0403 14:49:35.080389  2025 net.cpp:91] Creating Layer conv2/relu_3x3_reduce
I0403 14:49:35.080405  2025 net.cpp:425] conv2/relu_3x3_reduce <- conv2/3x3_reduce
I0403 14:49:35.080423  2025 net.cpp:386] conv2/relu_3x3_reduce -> conv2/3x3_reduce (in-place)
I0403 14:49:35.080684  2025 net.cpp:141] Setting up conv2/relu_3x3_reduce
I0403 14:49:35.080713  2025 net.cpp:148] Top shape: 24 64 56 56 (4816896)
I0403 14:49:35.080729  2025 net.cpp:156] Memory required for data: 245662752
I0403 14:49:35.080744  2025 layer_factory.hpp:77] Creating layer conv2/3x3
I0403 14:49:35.080767  2025 net.cpp:91] Creating Layer conv2/3x3
I0403 14:49:35.080785  2025 net.cpp:425] conv2/3x3 <- conv2/3x3_reduce
I0403 14:49:35.080804  2025 net.cpp:399] conv2/3x3 -> conv2/3x3
I0403 14:49:35.083163  2025 net.cpp:141] Setting up conv2/3x3
I0403 14:49:35.083197  2025 net.cpp:148] Top shape: 24 192 56 56 (14450688)
I0403 14:49:35.083220  2025 net.cpp:156] Memory required for data: 303465504
I0403 14:49:35.083243  2025 layer_factory.hpp:77] Creating layer conv2/relu_3x3
I0403 14:49:35.083263  2025 net.cpp:91] Creating Layer conv2/relu_3x3
I0403 14:49:35.083281  2025 net.cpp:425] conv2/relu_3x3 <- conv2/3x3
I0403 14:49:35.083298  2025 net.cpp:386] conv2/relu_3x3 -> conv2/3x3 (in-place)
I0403 14:49:35.083470  2025 net.cpp:141] Setting up conv2/relu_3x3
I0403 14:49:35.083497  2025 net.cpp:148] Top shape: 24 192 56 56 (14450688)
I0403 14:49:35.083544  2025 net.cpp:156] Memory required for data: 361268256
I0403 14:49:35.083561  2025 layer_factory.hpp:77] Creating layer conv2/norm2
I0403 14:49:35.083581  2025 net.cpp:91] Creating Layer conv2/norm2
I0403 14:49:35.083598  2025 net.cpp:425] conv2/norm2 <- conv2/3x3
I0403 14:49:35.083618  2025 net.cpp:399] conv2/norm2 -> conv2/norm2
I0403 14:49:35.083926  2025 net.cpp:141] Setting up conv2/norm2
I0403 14:49:35.083956  2025 net.cpp:148] Top shape: 24 192 56 56 (14450688)
I0403 14:49:35.083972  2025 net.cpp:156] Memory required for data: 419071008
I0403 14:49:35.083988  2025 layer_factory.hpp:77] Creating layer pool2/3x3_s2
I0403 14:49:35.084007  2025 net.cpp:91] Creating Layer pool2/3x3_s2
I0403 14:49:35.084024  2025 net.cpp:425] pool2/3x3_s2 <- conv2/norm2
I0403 14:49:35.084043  2025 net.cpp:399] pool2/3x3_s2 -> pool2/3x3_s2
I0403 14:49:35.084096  2025 net.cpp:141] Setting up pool2/3x3_s2
I0403 14:49:35.084121  2025 net.cpp:148] Top shape: 24 192 28 28 (3612672)
I0403 14:49:35.084136  2025 net.cpp:156] Memory required for data: 433521696
I0403 14:49:35.084152  2025 layer_factory.hpp:77] Creating layer pool2/3x3_s2_pool2/3x3_s2_0_split
I0403 14:49:35.084172  2025 net.cpp:91] Creating Layer pool2/3x3_s2_pool2/3x3_s2_0_split
I0403 14:49:35.084189  2025 net.cpp:425] pool2/3x3_s2_pool2/3x3_s2_0_split <- pool2/3x3_s2
I0403 14:49:35.084208  2025 net.cpp:399] pool2/3x3_s2_pool2/3x3_s2_0_split -> pool2/3x3_s2_pool2/3x3_s2_0_split_0
I0403 14:49:35.084234  2025 net.cpp:399] pool2/3x3_s2_pool2/3x3_s2_0_split -> pool2/3x3_s2_pool2/3x3_s2_0_split_1
I0403 14:49:35.084256  2025 net.cpp:399] pool2/3x3_s2_pool2/3x3_s2_0_split -> pool2/3x3_s2_pool2/3x3_s2_0_split_2
I0403 14:49:35.084277  2025 net.cpp:399] pool2/3x3_s2_pool2/3x3_s2_0_split -> pool2/3x3_s2_pool2/3x3_s2_0_split_3
I0403 14:49:35.084345  2025 net.cpp:141] Setting up pool2/3x3_s2_pool2/3x3_s2_0_split
I0403 14:49:35.084370  2025 net.cpp:148] Top shape: 24 192 28 28 (3612672)
I0403 14:49:35.084388  2025 net.cpp:148] Top shape: 24 192 28 28 (3612672)
I0403 14:49:35.084405  2025 net.cpp:148] Top shape: 24 192 28 28 (3612672)
I0403 14:49:35.084422  2025 net.cpp:148] Top shape: 24 192 28 28 (3612672)
I0403 14:49:35.084436  2025 net.cpp:156] Memory required for data: 491324448
I0403 14:49:35.084452  2025 layer_factory.hpp:77] Creating layer inception_3a/1x1
I0403 14:49:35.084475  2025 net.cpp:91] Creating Layer inception_3a/1x1
I0403 14:49:35.084491  2025 net.cpp:425] inception_3a/1x1 <- pool2/3x3_s2_pool2/3x3_s2_0_split_0
I0403 14:49:35.084511  2025 net.cpp:399] inception_3a/1x1 -> inception_3a/1x1
I0403 14:49:35.088454  2025 net.cpp:141] Setting up inception_3a/1x1
I0403 14:49:35.088488  2025 net.cpp:148] Top shape: 24 64 28 28 (1204224)
I0403 14:49:35.088505  2025 net.cpp:156] Memory required for data: 496141344
I0403 14:49:35.088526  2025 layer_factory.hpp:77] Creating layer inception_3a/relu_1x1
I0403 14:49:35.088546  2025 net.cpp:91] Creating Layer inception_3a/relu_1x1
I0403 14:49:35.088562  2025 net.cpp:425] inception_3a/relu_1x1 <- inception_3a/1x1
I0403 14:49:35.088579  2025 net.cpp:386] inception_3a/relu_1x1 -> inception_3a/1x1 (in-place)
I0403 14:49:35.088768  2025 net.cpp:141] Setting up inception_3a/relu_1x1
I0403 14:49:35.088794  2025 net.cpp:148] Top shape: 24 64 28 28 (1204224)
I0403 14:49:35.088810  2025 net.cpp:156] Memory required for data: 500958240
I0403 14:49:35.088826  2025 layer_factory.hpp:77] Creating layer inception_3a/3x3_reduce
I0403 14:49:35.088850  2025 net.cpp:91] Creating Layer inception_3a/3x3_reduce
I0403 14:49:35.088868  2025 net.cpp:425] inception_3a/3x3_reduce <- pool2/3x3_s2_pool2/3x3_s2_0_split_1
I0403 14:49:35.088893  2025 net.cpp:399] inception_3a/3x3_reduce -> inception_3a/3x3_reduce
I0403 14:49:35.090987  2025 net.cpp:141] Setting up inception_3a/3x3_reduce
I0403 14:49:35.091022  2025 net.cpp:148] Top shape: 24 96 28 28 (1806336)
I0403 14:49:35.091039  2025 net.cpp:156] Memory required for data: 508183584
I0403 14:49:35.091063  2025 layer_factory.hpp:77] Creating layer inception_3a/relu_3x3_reduce
I0403 14:49:35.091101  2025 net.cpp:91] Creating Layer inception_3a/relu_3x3_reduce
I0403 14:49:35.091122  2025 net.cpp:425] inception_3a/relu_3x3_reduce <- inception_3a/3x3_reduce
I0403 14:49:35.091142  2025 net.cpp:386] inception_3a/relu_3x3_reduce -> inception_3a/3x3_reduce (in-place)
I0403 14:49:35.091341  2025 net.cpp:141] Setting up inception_3a/relu_3x3_reduce
I0403 14:49:35.091368  2025 net.cpp:148] Top shape: 24 96 28 28 (1806336)
I0403 14:49:35.091383  2025 net.cpp:156] Memory required for data: 515408928
I0403 14:49:35.091399  2025 layer_factory.hpp:77] Creating layer inception_3a/3x3
I0403 14:49:35.091425  2025 net.cpp:91] Creating Layer inception_3a/3x3
I0403 14:49:35.091444  2025 net.cpp:425] inception_3a/3x3 <- inception_3a/3x3_reduce
I0403 14:49:35.091464  2025 net.cpp:399] inception_3a/3x3 -> inception_3a/3x3
I0403 14:49:35.093201  2025 net.cpp:141] Setting up inception_3a/3x3
I0403 14:49:35.093243  2025 net.cpp:148] Top shape: 24 128 28 28 (2408448)
I0403 14:49:35.093262  2025 net.cpp:156] Memory required for data: 525042720
I0403 14:49:35.093281  2025 layer_factory.hpp:77] Creating layer inception_3a/relu_3x3
I0403 14:49:35.093300  2025 net.cpp:91] Creating Layer inception_3a/relu_3x3
I0403 14:49:35.093317  2025 net.cpp:425] inception_3a/relu_3x3 <- inception_3a/3x3
I0403 14:49:35.093338  2025 net.cpp:386] inception_3a/relu_3x3 -> inception_3a/3x3 (in-place)
I0403 14:49:35.093628  2025 net.cpp:141] Setting up inception_3a/relu_3x3
I0403 14:49:35.093657  2025 net.cpp:148] Top shape: 24 128 28 28 (2408448)
I0403 14:49:35.093672  2025 net.cpp:156] Memory required for data: 534676512
I0403 14:49:35.093688  2025 layer_factory.hpp:77] Creating layer inception_3a/5x5_reduce
I0403 14:49:35.093711  2025 net.cpp:91] Creating Layer inception_3a/5x5_reduce
I0403 14:49:35.093730  2025 net.cpp:425] inception_3a/5x5_reduce <- pool2/3x3_s2_pool2/3x3_s2_0_split_2
I0403 14:49:35.093754  2025 net.cpp:399] inception_3a/5x5_reduce -> inception_3a/5x5_reduce
I0403 14:49:35.094766  2025 net.cpp:141] Setting up inception_3a/5x5_reduce
I0403 14:49:35.094796  2025 net.cpp:148] Top shape: 24 16 28 28 (301056)
I0403 14:49:35.094813  2025 net.cpp:156] Memory required for data: 535880736
I0403 14:49:35.094833  2025 layer_factory.hpp:77] Creating layer inception_3a/relu_5x5_reduce
I0403 14:49:35.094852  2025 net.cpp:91] Creating Layer inception_3a/relu_5x5_reduce
I0403 14:49:35.094871  2025 net.cpp:425] inception_3a/relu_5x5_reduce <- inception_3a/5x5_reduce
I0403 14:49:35.094892  2025 net.cpp:386] inception_3a/relu_5x5_reduce -> inception_3a/5x5_reduce (in-place)
I0403 14:49:35.095201  2025 net.cpp:141] Setting up inception_3a/relu_5x5_reduce
I0403 14:49:35.095234  2025 net.cpp:148] Top shape: 24 16 28 28 (301056)
I0403 14:49:35.095250  2025 net.cpp:156] Memory required for data: 537084960
I0403 14:49:35.095266  2025 layer_factory.hpp:77] Creating layer inception_3a/5x5
I0403 14:49:35.095290  2025 net.cpp:91] Creating Layer inception_3a/5x5
I0403 14:49:35.095309  2025 net.cpp:425] inception_3a/5x5 <- inception_3a/5x5_reduce
I0403 14:49:35.095332  2025 net.cpp:399] inception_3a/5x5 -> inception_3a/5x5
I0403 14:49:35.096392  2025 net.cpp:141] Setting up inception_3a/5x5
I0403 14:49:35.096426  2025 net.cpp:148] Top shape: 24 32 28 28 (602112)
I0403 14:49:35.096444  2025 net.cpp:156] Memory required for data: 539493408
I0403 14:49:35.096464  2025 layer_factory.hpp:77] Creating layer inception_3a/relu_5x5
I0403 14:49:35.096483  2025 net.cpp:91] Creating Layer inception_3a/relu_5x5
I0403 14:49:35.096500  2025 net.cpp:425] inception_3a/relu_5x5 <- inception_3a/5x5
I0403 14:49:35.096521  2025 net.cpp:386] inception_3a/relu_5x5 -> inception_3a/5x5 (in-place)
I0403 14:49:35.096706  2025 net.cpp:141] Setting up inception_3a/relu_5x5
I0403 14:49:35.096734  2025 net.cpp:148] Top shape: 24 32 28 28 (602112)
I0403 14:49:35.096748  2025 net.cpp:156] Memory required for data: 541901856
I0403 14:49:35.096765  2025 layer_factory.hpp:77] Creating layer inception_3a/pool
I0403 14:49:35.096783  2025 net.cpp:91] Creating Layer inception_3a/pool
I0403 14:49:35.096815  2025 net.cpp:425] inception_3a/pool <- pool2/3x3_s2_pool2/3x3_s2_0_split_3
I0403 14:49:35.096838  2025 net.cpp:399] inception_3a/pool -> inception_3a/pool
I0403 14:49:35.096900  2025 net.cpp:141] Setting up inception_3a/pool
I0403 14:49:35.096925  2025 net.cpp:148] Top shape: 24 192 28 28 (3612672)
I0403 14:49:35.096940  2025 net.cpp:156] Memory required for data: 556352544
I0403 14:49:35.096956  2025 layer_factory.hpp:77] Creating layer inception_3a/pool_proj
I0403 14:49:35.096978  2025 net.cpp:91] Creating Layer inception_3a/pool_proj
I0403 14:49:35.096997  2025 net.cpp:425] inception_3a/pool_proj <- inception_3a/pool
I0403 14:49:35.097021  2025 net.cpp:399] inception_3a/pool_proj -> inception_3a/pool_proj
I0403 14:49:35.098027  2025 net.cpp:141] Setting up inception_3a/pool_proj
I0403 14:49:35.098057  2025 net.cpp:148] Top shape: 24 32 28 28 (602112)
I0403 14:49:35.098074  2025 net.cpp:156] Memory required for data: 558760992
I0403 14:49:35.098099  2025 layer_factory.hpp:77] Creating layer inception_3a/relu_pool_proj
I0403 14:49:35.098120  2025 net.cpp:91] Creating Layer inception_3a/relu_pool_proj
I0403 14:49:35.098137  2025 net.cpp:425] inception_3a/relu_pool_proj <- inception_3a/pool_proj
I0403 14:49:35.098158  2025 net.cpp:386] inception_3a/relu_pool_proj -> inception_3a/pool_proj (in-place)
I0403 14:49:35.098453  2025 net.cpp:141] Setting up inception_3a/relu_pool_proj
I0403 14:49:35.098482  2025 net.cpp:148] Top shape: 24 32 28 28 (602112)
I0403 14:49:35.098498  2025 net.cpp:156] Memory required for data: 561169440
I0403 14:49:35.098515  2025 layer_factory.hpp:77] Creating layer inception_3a/output
I0403 14:49:35.098532  2025 net.cpp:91] Creating Layer inception_3a/output
I0403 14:49:35.098549  2025 net.cpp:425] inception_3a/output <- inception_3a/1x1
I0403 14:49:35.098567  2025 net.cpp:425] inception_3a/output <- inception_3a/3x3
I0403 14:49:35.098583  2025 net.cpp:425] inception_3a/output <- inception_3a/5x5
I0403 14:49:35.098600  2025 net.cpp:425] inception_3a/output <- inception_3a/pool_proj
I0403 14:49:35.098620  2025 net.cpp:399] inception_3a/output -> inception_3a/output
I0403 14:49:35.098670  2025 net.cpp:141] Setting up inception_3a/output
I0403 14:49:35.098697  2025 net.cpp:148] Top shape: 24 256 28 28 (4816896)
I0403 14:49:35.098714  2025 net.cpp:156] Memory required for data: 580437024
I0403 14:49:35.098731  2025 layer_factory.hpp:77] Creating layer inception_3a/output_inception_3a/output_0_split
I0403 14:49:35.098747  2025 net.cpp:91] Creating Layer inception_3a/output_inception_3a/output_0_split
I0403 14:49:35.098763  2025 net.cpp:425] inception_3a/output_inception_3a/output_0_split <- inception_3a/output
I0403 14:49:35.098783  2025 net.cpp:399] inception_3a/output_inception_3a/output_0_split -> inception_3a/output_inception_3a/output_0_split_0
I0403 14:49:35.098803  2025 net.cpp:399] inception_3a/output_inception_3a/output_0_split -> inception_3a/output_inception_3a/output_0_split_1
I0403 14:49:35.098830  2025 net.cpp:399] inception_3a/output_inception_3a/output_0_split -> inception_3a/output_inception_3a/output_0_split_2
I0403 14:49:35.098855  2025 net.cpp:399] inception_3a/output_inception_3a/output_0_split -> inception_3a/output_inception_3a/output_0_split_3
I0403 14:49:35.098934  2025 net.cpp:141] Setting up inception_3a/output_inception_3a/output_0_split
I0403 14:49:35.098961  2025 net.cpp:148] Top shape: 24 256 28 28 (4816896)
I0403 14:49:35.098979  2025 net.cpp:148] Top shape: 24 256 28 28 (4816896)
I0403 14:49:35.098996  2025 net.cpp:148] Top shape: 24 256 28 28 (4816896)
I0403 14:49:35.099014  2025 net.cpp:148] Top shape: 24 256 28 28 (4816896)
I0403 14:49:35.099028  2025 net.cpp:156] Memory required for data: 657507360
I0403 14:49:35.099043  2025 layer_factory.hpp:77] Creating layer inception_3b/1x1
I0403 14:49:35.099066  2025 net.cpp:91] Creating Layer inception_3b/1x1
I0403 14:49:35.099084  2025 net.cpp:425] inception_3b/1x1 <- inception_3a/output_inception_3a/output_0_split_0
I0403 14:49:35.099104  2025 net.cpp:399] inception_3b/1x1 -> inception_3b/1x1
I0403 14:49:35.100316  2025 net.cpp:141] Setting up inception_3b/1x1
I0403 14:49:35.100358  2025 net.cpp:148] Top shape: 24 128 28 28 (2408448)
I0403 14:49:35.100375  2025 net.cpp:156] Memory required for data: 667141152
I0403 14:49:35.100395  2025 layer_factory.hpp:77] Creating layer inception_3b/relu_1x1
I0403 14:49:35.100419  2025 net.cpp:91] Creating Layer inception_3b/relu_1x1
I0403 14:49:35.100437  2025 net.cpp:425] inception_3b/relu_1x1 <- inception_3b/1x1
I0403 14:49:35.100455  2025 net.cpp:386] inception_3b/relu_1x1 -> inception_3b/1x1 (in-place)
I0403 14:49:35.100641  2025 net.cpp:141] Setting up inception_3b/relu_1x1
I0403 14:49:35.100668  2025 net.cpp:148] Top shape: 24 128 28 28 (2408448)
I0403 14:49:35.100684  2025 net.cpp:156] Memory required for data: 676774944
I0403 14:49:35.100700  2025 layer_factory.hpp:77] Creating layer inception_3b/3x3_reduce
I0403 14:49:35.100723  2025 net.cpp:91] Creating Layer inception_3b/3x3_reduce
I0403 14:49:35.100742  2025 net.cpp:425] inception_3b/3x3_reduce <- inception_3a/output_inception_3a/output_0_split_1
I0403 14:49:35.100765  2025 net.cpp:399] inception_3b/3x3_reduce -> inception_3b/3x3_reduce
I0403 14:49:35.101969  2025 net.cpp:141] Setting up inception_3b/3x3_reduce
I0403 14:49:35.102004  2025 net.cpp:148] Top shape: 24 128 28 28 (2408448)
I0403 14:49:35.102021  2025 net.cpp:156] Memory required for data: 686408736
I0403 14:49:35.102041  2025 layer_factory.hpp:77] Creating layer inception_3b/relu_3x3_reduce
I0403 14:49:35.102059  2025 net.cpp:91] Creating Layer inception_3b/relu_3x3_reduce
I0403 14:49:35.102077  2025 net.cpp:425] inception_3b/relu_3x3_reduce <- inception_3b/3x3_reduce
I0403 14:49:35.102095  2025 net.cpp:386] inception_3b/relu_3x3_reduce -> inception_3b/3x3_reduce (in-place)
I0403 14:49:35.102285  2025 net.cpp:141] Setting up inception_3b/relu_3x3_reduce
I0403 14:49:35.102314  2025 net.cpp:148] Top shape: 24 128 28 28 (2408448)
I0403 14:49:35.102331  2025 net.cpp:156] Memory required for data: 696042528
I0403 14:49:35.102346  2025 layer_factory.hpp:77] Creating layer inception_3b/3x3
I0403 14:49:35.102372  2025 net.cpp:91] Creating Layer inception_3b/3x3
I0403 14:49:35.102392  2025 net.cpp:425] inception_3b/3x3 <- inception_3b/3x3_reduce
I0403 14:49:35.102414  2025 net.cpp:399] inception_3b/3x3 -> inception_3b/3x3
I0403 14:49:35.105484  2025 net.cpp:141] Setting up inception_3b/3x3
I0403 14:49:35.105515  2025 net.cpp:148] Top shape: 24 192 28 28 (3612672)
I0403 14:49:35.105532  2025 net.cpp:156] Memory required for data: 710493216
I0403 14:49:35.105551  2025 layer_factory.hpp:77] Creating layer inception_3b/relu_3x3
I0403 14:49:35.105571  2025 net.cpp:91] Creating Layer inception_3b/relu_3x3
I0403 14:49:35.105588  2025 net.cpp:425] inception_3b/relu_3x3 <- inception_3b/3x3
I0403 14:49:35.105608  2025 net.cpp:386] inception_3b/relu_3x3 -> inception_3b/3x3 (in-place)
I0403 14:49:35.105896  2025 net.cpp:141] Setting up inception_3b/relu_3x3
I0403 14:49:35.105924  2025 net.cpp:148] Top shape: 24 192 28 28 (3612672)
I0403 14:49:35.105942  2025 net.cpp:156] Memory required for data: 724943904
I0403 14:49:35.105957  2025 layer_factory.hpp:77] Creating layer inception_3b/5x5_reduce
I0403 14:49:35.105981  2025 net.cpp:91] Creating Layer inception_3b/5x5_reduce
I0403 14:49:35.106000  2025 net.cpp:425] inception_3b/5x5_reduce <- inception_3a/output_inception_3a/output_0_split_2
I0403 14:49:35.106024  2025 net.cpp:399] inception_3b/5x5_reduce -> inception_3b/5x5_reduce
I0403 14:49:35.107064  2025 net.cpp:141] Setting up inception_3b/5x5_reduce
I0403 14:49:35.107096  2025 net.cpp:148] Top shape: 24 32 28 28 (602112)
I0403 14:49:35.107112  2025 net.cpp:156] Memory required for data: 727352352
I0403 14:49:35.107132  2025 layer_factory.hpp:77] Creating layer inception_3b/relu_5x5_reduce
I0403 14:49:35.107152  2025 net.cpp:91] Creating Layer inception_3b/relu_5x5_reduce
I0403 14:49:35.107168  2025 net.cpp:425] inception_3b/relu_5x5_reduce <- inception_3b/5x5_reduce
I0403 14:49:35.107189  2025 net.cpp:386] inception_3b/relu_5x5_reduce -> inception_3b/5x5_reduce (in-place)
I0403 14:49:35.107396  2025 net.cpp:141] Setting up inception_3b/relu_5x5_reduce
I0403 14:49:35.107424  2025 net.cpp:148] Top shape: 24 32 28 28 (602112)
I0403 14:49:35.107439  2025 net.cpp:156] Memory required for data: 729760800
I0403 14:49:35.107455  2025 layer_factory.hpp:77] Creating layer inception_3b/5x5
I0403 14:49:35.107480  2025 net.cpp:91] Creating Layer inception_3b/5x5
I0403 14:49:35.107498  2025 net.cpp:425] inception_3b/5x5 <- inception_3b/5x5_reduce
I0403 14:49:35.107522  2025 net.cpp:399] inception_3b/5x5 -> inception_3b/5x5
I0403 14:49:35.109578  2025 net.cpp:141] Setting up inception_3b/5x5
I0403 14:49:35.109609  2025 net.cpp:148] Top shape: 24 96 28 28 (1806336)
I0403 14:49:35.109630  2025 net.cpp:156] Memory required for data: 736986144
I0403 14:49:35.109650  2025 layer_factory.hpp:77] Creating layer inception_3b/relu_5x5
I0403 14:49:35.109669  2025 net.cpp:91] Creating Layer inception_3b/relu_5x5
I0403 14:49:35.109685  2025 net.cpp:425] inception_3b/relu_5x5 <- inception_3b/5x5
I0403 14:49:35.109704  2025 net.cpp:386] inception_3b/relu_5x5 -> inception_3b/5x5 (in-place)
I0403 14:49:35.109905  2025 net.cpp:141] Setting up inception_3b/relu_5x5
I0403 14:49:35.109931  2025 net.cpp:148] Top shape: 24 96 28 28 (1806336)
I0403 14:49:35.109947  2025 net.cpp:156] Memory required for data: 744211488
I0403 14:49:35.109963  2025 layer_factory.hpp:77] Creating layer inception_3b/pool
I0403 14:49:35.109982  2025 net.cpp:91] Creating Layer inception_3b/pool
I0403 14:49:35.110000  2025 net.cpp:425] inception_3b/pool <- inception_3a/output_inception_3a/output_0_split_3
I0403 14:49:35.110019  2025 net.cpp:399] inception_3b/pool -> inception_3b/pool
I0403 14:49:35.110079  2025 net.cpp:141] Setting up inception_3b/pool
I0403 14:49:35.110106  2025 net.cpp:148] Top shape: 24 256 28 28 (4816896)
I0403 14:49:35.110122  2025 net.cpp:156] Memory required for data: 763479072
I0403 14:49:35.110137  2025 layer_factory.hpp:77] Creating layer inception_3b/pool_proj
I0403 14:49:35.110158  2025 net.cpp:91] Creating Layer inception_3b/pool_proj
I0403 14:49:35.110177  2025 net.cpp:425] inception_3b/pool_proj <- inception_3b/pool
I0403 14:49:35.110198  2025 net.cpp:399] inception_3b/pool_proj -> inception_3b/pool_proj
I0403 14:49:35.111317  2025 net.cpp:141] Setting up inception_3b/pool_proj
I0403 14:49:35.111347  2025 net.cpp:148] Top shape: 24 64 28 28 (1204224)
I0403 14:49:35.111363  2025 net.cpp:156] Memory required for data: 768295968
I0403 14:49:35.111385  2025 layer_factory.hpp:77] Creating layer inception_3b/relu_pool_proj
I0403 14:49:35.111409  2025 net.cpp:91] Creating Layer inception_3b/relu_pool_proj
I0403 14:49:35.111428  2025 net.cpp:425] inception_3b/relu_pool_proj <- inception_3b/pool_proj
I0403 14:49:35.111446  2025 net.cpp:386] inception_3b/relu_pool_proj -> inception_3b/pool_proj (in-place)
I0403 14:49:35.111863  2025 net.cpp:141] Setting up inception_3b/relu_pool_proj
I0403 14:49:35.111891  2025 net.cpp:148] Top shape: 24 64 28 28 (1204224)
I0403 14:49:35.111907  2025 net.cpp:156] Memory required for data: 773112864
I0403 14:49:35.111923  2025 layer_factory.hpp:77] Creating layer inception_3b/output
I0403 14:49:35.111942  2025 net.cpp:91] Creating Layer inception_3b/output
I0403 14:49:35.111958  2025 net.cpp:425] inception_3b/output <- inception_3b/1x1
I0403 14:49:35.111975  2025 net.cpp:425] inception_3b/output <- inception_3b/3x3
I0403 14:49:35.111994  2025 net.cpp:425] inception_3b/output <- inception_3b/5x5
I0403 14:49:35.112010  2025 net.cpp:425] inception_3b/output <- inception_3b/pool_proj
I0403 14:49:35.112030  2025 net.cpp:399] inception_3b/output -> inception_3b/output
I0403 14:49:35.112076  2025 net.cpp:141] Setting up inception_3b/output
I0403 14:49:35.112104  2025 net.cpp:148] Top shape: 24 480 28 28 (9031680)
I0403 14:49:35.112120  2025 net.cpp:156] Memory required for data: 809239584
I0403 14:49:35.112135  2025 layer_factory.hpp:77] Creating layer pool3/3x3_s2
I0403 14:49:35.112154  2025 net.cpp:91] Creating Layer pool3/3x3_s2
I0403 14:49:35.112171  2025 net.cpp:425] pool3/3x3_s2 <- inception_3b/output
I0403 14:49:35.112212  2025 net.cpp:399] pool3/3x3_s2 -> pool3/3x3_s2
I0403 14:49:35.112277  2025 net.cpp:141] Setting up pool3/3x3_s2
I0403 14:49:35.112303  2025 net.cpp:148] Top shape: 24 480 14 14 (2257920)
I0403 14:49:35.112318  2025 net.cpp:156] Memory required for data: 818271264
I0403 14:49:35.112334  2025 layer_factory.hpp:77] Creating layer pool3/3x3_s2_pool3/3x3_s2_0_split
I0403 14:49:35.112354  2025 net.cpp:91] Creating Layer pool3/3x3_s2_pool3/3x3_s2_0_split
I0403 14:49:35.112370  2025 net.cpp:425] pool3/3x3_s2_pool3/3x3_s2_0_split <- pool3/3x3_s2
I0403 14:49:35.112388  2025 net.cpp:399] pool3/3x3_s2_pool3/3x3_s2_0_split -> pool3/3x3_s2_pool3/3x3_s2_0_split_0
I0403 14:49:35.112408  2025 net.cpp:399] pool3/3x3_s2_pool3/3x3_s2_0_split -> pool3/3x3_s2_pool3/3x3_s2_0_split_1
I0403 14:49:35.112431  2025 net.cpp:399] pool3/3x3_s2_pool3/3x3_s2_0_split -> pool3/3x3_s2_pool3/3x3_s2_0_split_2
I0403 14:49:35.112457  2025 net.cpp:399] pool3/3x3_s2_pool3/3x3_s2_0_split -> pool3/3x3_s2_pool3/3x3_s2_0_split_3
I0403 14:49:35.112540  2025 net.cpp:141] Setting up pool3/3x3_s2_pool3/3x3_s2_0_split
I0403 14:49:35.112565  2025 net.cpp:148] Top shape: 24 480 14 14 (2257920)
I0403 14:49:35.112581  2025 net.cpp:148] Top shape: 24 480 14 14 (2257920)
I0403 14:49:35.112598  2025 net.cpp:148] Top shape: 24 480 14 14 (2257920)
I0403 14:49:35.112614  2025 net.cpp:148] Top shape: 24 480 14 14 (2257920)
I0403 14:49:35.112629  2025 net.cpp:156] Memory required for data: 854397984
I0403 14:49:35.112644  2025 layer_factory.hpp:77] Creating layer inception_4a/1x1
I0403 14:49:35.112668  2025 net.cpp:91] Creating Layer inception_4a/1x1
I0403 14:49:35.112685  2025 net.cpp:425] inception_4a/1x1 <- pool3/3x3_s2_pool3/3x3_s2_0_split_0
I0403 14:49:35.112709  2025 net.cpp:399] inception_4a/1x1 -> inception_4a/1x1
I0403 14:49:35.114377  2025 net.cpp:141] Setting up inception_4a/1x1
I0403 14:49:35.114408  2025 net.cpp:148] Top shape: 24 192 14 14 (903168)
I0403 14:49:35.114423  2025 net.cpp:156] Memory required for data: 858010656
I0403 14:49:35.114442  2025 layer_factory.hpp:77] Creating layer inception_4a/relu_1x1
I0403 14:49:35.114464  2025 net.cpp:91] Creating Layer inception_4a/relu_1x1
I0403 14:49:35.114482  2025 net.cpp:425] inception_4a/relu_1x1 <- inception_4a/1x1
I0403 14:49:35.114502  2025 net.cpp:386] inception_4a/relu_1x1 -> inception_4a/1x1 (in-place)
I0403 14:49:35.114689  2025 net.cpp:141] Setting up inception_4a/relu_1x1
I0403 14:49:35.114720  2025 net.cpp:148] Top shape: 24 192 14 14 (903168)
I0403 14:49:35.114738  2025 net.cpp:156] Memory required for data: 861623328
I0403 14:49:35.114754  2025 layer_factory.hpp:77] Creating layer inception_4a/3x3_reduce
I0403 14:49:35.114778  2025 net.cpp:91] Creating Layer inception_4a/3x3_reduce
I0403 14:49:35.114796  2025 net.cpp:425] inception_4a/3x3_reduce <- pool3/3x3_s2_pool3/3x3_s2_0_split_1
I0403 14:49:35.114817  2025 net.cpp:399] inception_4a/3x3_reduce -> inception_4a/3x3_reduce
I0403 14:49:35.116173  2025 net.cpp:141] Setting up inception_4a/3x3_reduce
I0403 14:49:35.116204  2025 net.cpp:148] Top shape: 24 96 14 14 (451584)
I0403 14:49:35.116225  2025 net.cpp:156] Memory required for data: 863429664
I0403 14:49:35.116252  2025 layer_factory.hpp:77] Creating layer inception_4a/relu_3x3_reduce
I0403 14:49:35.116276  2025 net.cpp:91] Creating Layer inception_4a/relu_3x3_reduce
I0403 14:49:35.116294  2025 net.cpp:425] inception_4a/relu_3x3_reduce <- inception_4a/3x3_reduce
I0403 14:49:35.116313  2025 net.cpp:386] inception_4a/relu_3x3_reduce -> inception_4a/3x3_reduce (in-place)
I0403 14:49:35.116497  2025 net.cpp:141] Setting up inception_4a/relu_3x3_reduce
I0403 14:49:35.116524  2025 net.cpp:148] Top shape: 24 96 14 14 (451584)
I0403 14:49:35.116540  2025 net.cpp:156] Memory required for data: 865236000
I0403 14:49:35.116555  2025 layer_factory.hpp:77] Creating layer inception_4a/3x3
I0403 14:49:35.116580  2025 net.cpp:91] Creating Layer inception_4a/3x3
I0403 14:49:35.116600  2025 net.cpp:425] inception_4a/3x3 <- inception_4a/3x3_reduce
I0403 14:49:35.116619  2025 net.cpp:399] inception_4a/3x3 -> inception_4a/3x3
I0403 14:49:35.119431  2025 net.cpp:141] Setting up inception_4a/3x3
I0403 14:49:35.119463  2025 net.cpp:148] Top shape: 24 208 14 14 (978432)
I0403 14:49:35.119482  2025 net.cpp:156] Memory required for data: 869149728
I0403 14:49:35.119501  2025 layer_factory.hpp:77] Creating layer inception_4a/relu_3x3
I0403 14:49:35.119521  2025 net.cpp:91] Creating Layer inception_4a/relu_3x3
I0403 14:49:35.119539  2025 net.cpp:425] inception_4a/relu_3x3 <- inception_4a/3x3
I0403 14:49:35.119557  2025 net.cpp:386] inception_4a/relu_3x3 -> inception_4a/3x3 (in-place)
I0403 14:49:35.119848  2025 net.cpp:141] Setting up inception_4a/relu_3x3
I0403 14:49:35.119879  2025 net.cpp:148] Top shape: 24 208 14 14 (978432)
I0403 14:49:35.119896  2025 net.cpp:156] Memory required for data: 873063456
I0403 14:49:35.119912  2025 layer_factory.hpp:77] Creating layer inception_4a/5x5_reduce
I0403 14:49:35.119935  2025 net.cpp:91] Creating Layer inception_4a/5x5_reduce
I0403 14:49:35.119954  2025 net.cpp:425] inception_4a/5x5_reduce <- pool3/3x3_s2_pool3/3x3_s2_0_split_2
I0403 14:49:35.119976  2025 net.cpp:399] inception_4a/5x5_reduce -> inception_4a/5x5_reduce
I0403 14:49:35.121042  2025 net.cpp:141] Setting up inception_4a/5x5_reduce
I0403 14:49:35.121074  2025 net.cpp:148] Top shape: 24 16 14 14 (75264)
I0403 14:49:35.121093  2025 net.cpp:156] Memory required for data: 873364512
I0403 14:49:35.121112  2025 layer_factory.hpp:77] Creating layer inception_4a/relu_5x5_reduce
I0403 14:49:35.121132  2025 net.cpp:91] Creating Layer inception_4a/relu_5x5_reduce
I0403 14:49:35.121148  2025 net.cpp:425] inception_4a/relu_5x5_reduce <- inception_4a/5x5_reduce
I0403 14:49:35.121170  2025 net.cpp:386] inception_4a/relu_5x5_reduce -> inception_4a/5x5_reduce (in-place)
I0403 14:49:35.121366  2025 net.cpp:141] Setting up inception_4a/relu_5x5_reduce
I0403 14:49:35.121392  2025 net.cpp:148] Top shape: 24 16 14 14 (75264)
I0403 14:49:35.121408  2025 net.cpp:156] Memory required for data: 873665568
I0403 14:49:35.121424  2025 layer_factory.hpp:77] Creating layer inception_4a/5x5
I0403 14:49:35.121448  2025 net.cpp:91] Creating Layer inception_4a/5x5
I0403 14:49:35.121466  2025 net.cpp:425] inception_4a/5x5 <- inception_4a/5x5_reduce
I0403 14:49:35.121490  2025 net.cpp:399] inception_4a/5x5 -> inception_4a/5x5
I0403 14:49:35.122632  2025 net.cpp:141] Setting up inception_4a/5x5
I0403 14:49:35.122663  2025 net.cpp:148] Top shape: 24 48 14 14 (225792)
I0403 14:49:35.122678  2025 net.cpp:156] Memory required for data: 874568736
I0403 14:49:35.122699  2025 layer_factory.hpp:77] Creating layer inception_4a/relu_5x5
I0403 14:49:35.122717  2025 net.cpp:91] Creating Layer inception_4a/relu_5x5
I0403 14:49:35.122733  2025 net.cpp:425] inception_4a/relu_5x5 <- inception_4a/5x5
I0403 14:49:35.122755  2025 net.cpp:386] inception_4a/relu_5x5 -> inception_4a/5x5 (in-place)
I0403 14:49:35.122943  2025 net.cpp:141] Setting up inception_4a/relu_5x5
I0403 14:49:35.122969  2025 net.cpp:148] Top shape: 24 48 14 14 (225792)
I0403 14:49:35.122985  2025 net.cpp:156] Memory required for data: 875471904
I0403 14:49:35.123002  2025 layer_factory.hpp:77] Creating layer inception_4a/pool
I0403 14:49:35.123023  2025 net.cpp:91] Creating Layer inception_4a/pool
I0403 14:49:35.123040  2025 net.cpp:425] inception_4a/pool <- pool3/3x3_s2_pool3/3x3_s2_0_split_3
I0403 14:49:35.123060  2025 net.cpp:399] inception_4a/pool -> inception_4a/pool
I0403 14:49:35.123126  2025 net.cpp:141] Setting up inception_4a/pool
I0403 14:49:35.123150  2025 net.cpp:148] Top shape: 24 480 14 14 (2257920)
I0403 14:49:35.123167  2025 net.cpp:156] Memory required for data: 884503584
I0403 14:49:35.123183  2025 layer_factory.hpp:77] Creating layer inception_4a/pool_proj
I0403 14:49:35.123205  2025 net.cpp:91] Creating Layer inception_4a/pool_proj
I0403 14:49:35.123236  2025 net.cpp:425] inception_4a/pool_proj <- inception_4a/pool
I0403 14:49:35.123260  2025 net.cpp:399] inception_4a/pool_proj -> inception_4a/pool_proj
I0403 14:49:35.124490  2025 net.cpp:141] Setting up inception_4a/pool_proj
I0403 14:49:35.124521  2025 net.cpp:148] Top shape: 24 64 14 14 (301056)
I0403 14:49:35.124553  2025 net.cpp:156] Memory required for data: 885707808
I0403 14:49:35.124574  2025 layer_factory.hpp:77] Creating layer inception_4a/relu_pool_proj
I0403 14:49:35.124598  2025 net.cpp:91] Creating Layer inception_4a/relu_pool_proj
I0403 14:49:35.124615  2025 net.cpp:425] inception_4a/relu_pool_proj <- inception_4a/pool_proj
I0403 14:49:35.124634  2025 net.cpp:386] inception_4a/relu_pool_proj -> inception_4a/pool_proj (in-place)
I0403 14:49:35.124930  2025 net.cpp:141] Setting up inception_4a/relu_pool_proj
I0403 14:49:35.124958  2025 net.cpp:148] Top shape: 24 64 14 14 (301056)
I0403 14:49:35.124975  2025 net.cpp:156] Memory required for data: 886912032
I0403 14:49:35.124990  2025 layer_factory.hpp:77] Creating layer inception_4a/output
I0403 14:49:35.125008  2025 net.cpp:91] Creating Layer inception_4a/output
I0403 14:49:35.125025  2025 net.cpp:425] inception_4a/output <- inception_4a/1x1
I0403 14:49:35.125043  2025 net.cpp:425] inception_4a/output <- inception_4a/3x3
I0403 14:49:35.125061  2025 net.cpp:425] inception_4a/output <- inception_4a/5x5
I0403 14:49:35.125077  2025 net.cpp:425] inception_4a/output <- inception_4a/pool_proj
I0403 14:49:35.125097  2025 net.cpp:399] inception_4a/output -> inception_4a/output
I0403 14:49:35.125149  2025 net.cpp:141] Setting up inception_4a/output
I0403 14:49:35.125174  2025 net.cpp:148] Top shape: 24 512 14 14 (2408448)
I0403 14:49:35.125188  2025 net.cpp:156] Memory required for data: 896545824
I0403 14:49:35.125203  2025 layer_factory.hpp:77] Creating layer inception_4a/output_inception_4a/output_0_split
I0403 14:49:35.125227  2025 net.cpp:91] Creating Layer inception_4a/output_inception_4a/output_0_split
I0403 14:49:35.125244  2025 net.cpp:425] inception_4a/output_inception_4a/output_0_split <- inception_4a/output
I0403 14:49:35.125265  2025 net.cpp:399] inception_4a/output_inception_4a/output_0_split -> inception_4a/output_inception_4a/output_0_split_0
I0403 14:49:35.125288  2025 net.cpp:399] inception_4a/output_inception_4a/output_0_split -> inception_4a/output_inception_4a/output_0_split_1
I0403 14:49:35.125310  2025 net.cpp:399] inception_4a/output_inception_4a/output_0_split -> inception_4a/output_inception_4a/output_0_split_2
I0403 14:49:35.125334  2025 net.cpp:399] inception_4a/output_inception_4a/output_0_split -> inception_4a/output_inception_4a/output_0_split_3
I0403 14:49:35.125355  2025 net.cpp:399] inception_4a/output_inception_4a/output_0_split -> inception_4a/output_inception_4a/output_0_split_4
I0403 14:49:35.125452  2025 net.cpp:141] Setting up inception_4a/output_inception_4a/output_0_split
I0403 14:49:35.125480  2025 net.cpp:148] Top shape: 24 512 14 14 (2408448)
I0403 14:49:35.125499  2025 net.cpp:148] Top shape: 24 512 14 14 (2408448)
I0403 14:49:35.125515  2025 net.cpp:148] Top shape: 24 512 14 14 (2408448)
I0403 14:49:35.125532  2025 net.cpp:148] Top shape: 24 512 14 14 (2408448)
I0403 14:49:35.125548  2025 net.cpp:148] Top shape: 24 512 14 14 (2408448)
I0403 14:49:35.125563  2025 net.cpp:156] Memory required for data: 944714784
I0403 14:49:35.125578  2025 layer_factory.hpp:77] Creating layer loss1/ave_pool
I0403 14:49:35.125597  2025 net.cpp:91] Creating Layer loss1/ave_pool
I0403 14:49:35.125614  2025 net.cpp:425] loss1/ave_pool <- inception_4a/output_inception_4a/output_0_split_0
I0403 14:49:35.125635  2025 net.cpp:399] loss1/ave_pool -> loss1/ave_pool
I0403 14:49:35.125855  2025 net.cpp:141] Setting up loss1/ave_pool
I0403 14:49:35.125883  2025 net.cpp:148] Top shape: 24 512 4 4 (196608)
I0403 14:49:35.125900  2025 net.cpp:156] Memory required for data: 945501216
I0403 14:49:35.125916  2025 layer_factory.hpp:77] Creating layer loss1/conv
I0403 14:49:35.125938  2025 net.cpp:91] Creating Layer loss1/conv
I0403 14:49:35.125957  2025 net.cpp:425] loss1/conv <- loss1/ave_pool
I0403 14:49:35.125978  2025 net.cpp:399] loss1/conv -> loss1/conv
I0403 14:49:35.127470  2025 net.cpp:141] Setting up loss1/conv
I0403 14:49:35.127502  2025 net.cpp:148] Top shape: 24 128 4 4 (49152)
I0403 14:49:35.127533  2025 net.cpp:156] Memory required for data: 945697824
I0403 14:49:35.127554  2025 layer_factory.hpp:77] Creating layer loss1/relu_conv
I0403 14:49:35.127574  2025 net.cpp:91] Creating Layer loss1/relu_conv
I0403 14:49:35.127591  2025 net.cpp:425] loss1/relu_conv <- loss1/conv
I0403 14:49:35.127609  2025 net.cpp:386] loss1/relu_conv -> loss1/conv (in-place)
I0403 14:49:35.127907  2025 net.cpp:141] Setting up loss1/relu_conv
I0403 14:49:35.127936  2025 net.cpp:148] Top shape: 24 128 4 4 (49152)
I0403 14:49:35.127954  2025 net.cpp:156] Memory required for data: 945894432
I0403 14:49:35.127969  2025 layer_factory.hpp:77] Creating layer loss1/fc
I0403 14:49:35.127995  2025 net.cpp:91] Creating Layer loss1/fc
I0403 14:49:35.128015  2025 net.cpp:425] loss1/fc <- loss1/conv
I0403 14:49:35.128037  2025 net.cpp:399] loss1/fc -> loss1/fc
I0403 14:49:35.146819  2025 net.cpp:141] Setting up loss1/fc
I0403 14:49:35.146879  2025 net.cpp:148] Top shape: 24 1024 (24576)
I0403 14:49:35.146895  2025 net.cpp:156] Memory required for data: 945992736
I0403 14:49:35.146916  2025 layer_factory.hpp:77] Creating layer loss1/relu_fc
I0403 14:49:35.146939  2025 net.cpp:91] Creating Layer loss1/relu_fc
I0403 14:49:35.146957  2025 net.cpp:425] loss1/relu_fc <- loss1/fc
I0403 14:49:35.146976  2025 net.cpp:386] loss1/relu_fc -> loss1/fc (in-place)
I0403 14:49:35.147195  2025 net.cpp:141] Setting up loss1/relu_fc
I0403 14:49:35.147229  2025 net.cpp:148] Top shape: 24 1024 (24576)
I0403 14:49:35.147248  2025 net.cpp:156] Memory required for data: 946091040
I0403 14:49:35.147263  2025 layer_factory.hpp:77] Creating layer loss1/drop_fc
I0403 14:49:35.147291  2025 net.cpp:91] Creating Layer loss1/drop_fc
I0403 14:49:35.147310  2025 net.cpp:425] loss1/drop_fc <- loss1/fc
I0403 14:49:35.147328  2025 net.cpp:386] loss1/drop_fc -> loss1/fc (in-place)
I0403 14:49:35.147384  2025 net.cpp:141] Setting up loss1/drop_fc
I0403 14:49:35.147408  2025 net.cpp:148] Top shape: 24 1024 (24576)
I0403 14:49:35.147423  2025 net.cpp:156] Memory required for data: 946189344
I0403 14:49:35.147439  2025 layer_factory.hpp:77] Creating layer loss1/classifier_plantvillage
I0403 14:49:35.147462  2025 net.cpp:91] Creating Layer loss1/classifier_plantvillage
I0403 14:49:35.147493  2025 net.cpp:425] loss1/classifier_plantvillage <- loss1/fc
I0403 14:49:35.147512  2025 net.cpp:399] loss1/classifier_plantvillage -> loss1/classifier_plantvillage
I0403 14:49:35.148489  2025 net.cpp:141] Setting up loss1/classifier_plantvillage
I0403 14:49:35.148522  2025 net.cpp:148] Top shape: 24 38 (912)
I0403 14:49:35.148540  2025 net.cpp:156] Memory required for data: 946192992
I0403 14:49:35.148560  2025 layer_factory.hpp:77] Creating layer loss1/classifier_plantvillage_loss1/classifier_plantvillage_0_split
I0403 14:49:35.148579  2025 net.cpp:91] Creating Layer loss1/classifier_plantvillage_loss1/classifier_plantvillage_0_split
I0403 14:49:35.148597  2025 net.cpp:425] loss1/classifier_plantvillage_loss1/classifier_plantvillage_0_split <- loss1/classifier_plantvillage
I0403 14:49:35.148615  2025 net.cpp:399] loss1/classifier_plantvillage_loss1/classifier_plantvillage_0_split -> loss1/classifier_plantvillage_loss1/classifier_plantvillage_0_split_0
I0403 14:49:35.148638  2025 net.cpp:399] loss1/classifier_plantvillage_loss1/classifier_plantvillage_0_split -> loss1/classifier_plantvillage_loss1/classifier_plantvillage_0_split_1
I0403 14:49:35.148659  2025 net.cpp:399] loss1/classifier_plantvillage_loss1/classifier_plantvillage_0_split -> loss1/classifier_plantvillage_loss1/classifier_plantvillage_0_split_2
I0403 14:49:35.148730  2025 net.cpp:141] Setting up loss1/classifier_plantvillage_loss1/classifier_plantvillage_0_split
I0403 14:49:35.148754  2025 net.cpp:148] Top shape: 24 38 (912)
I0403 14:49:35.148772  2025 net.cpp:148] Top shape: 24 38 (912)
I0403 14:49:35.148799  2025 net.cpp:148] Top shape: 24 38 (912)
I0403 14:49:35.148813  2025 net.cpp:156] Memory required for data: 946203936
I0403 14:49:35.148828  2025 layer_factory.hpp:77] Creating layer inception_4b/1x1
I0403 14:49:35.148849  2025 net.cpp:91] Creating Layer inception_4b/1x1
I0403 14:49:35.148892  2025 net.cpp:425] inception_4b/1x1 <- inception_4a/output_inception_4a/output_0_split_1
I0403 14:49:35.148916  2025 net.cpp:399] inception_4b/1x1 -> inception_4b/1x1
I0403 14:49:35.150677  2025 net.cpp:141] Setting up inception_4b/1x1
I0403 14:49:35.150710  2025 net.cpp:148] Top shape: 24 160 14 14 (752640)
I0403 14:49:35.150727  2025 net.cpp:156] Memory required for data: 949214496
I0403 14:49:35.150746  2025 layer_factory.hpp:77] Creating layer inception_4b/relu_1x1
I0403 14:49:35.150765  2025 net.cpp:91] Creating Layer inception_4b/relu_1x1
I0403 14:49:35.150782  2025 net.cpp:425] inception_4b/relu_1x1 <- inception_4b/1x1
I0403 14:49:35.150800  2025 net.cpp:386] inception_4b/relu_1x1 -> inception_4b/1x1 (in-place)
I0403 14:49:35.150990  2025 net.cpp:141] Setting up inception_4b/relu_1x1
I0403 14:49:35.151015  2025 net.cpp:148] Top shape: 24 160 14 14 (752640)
I0403 14:49:35.151031  2025 net.cpp:156] Memory required for data: 952225056
I0403 14:49:35.151046  2025 layer_factory.hpp:77] Creating layer inception_4b/3x3_reduce
I0403 14:49:35.151072  2025 net.cpp:91] Creating Layer inception_4b/3x3_reduce
I0403 14:49:35.151089  2025 net.cpp:425] inception_4b/3x3_reduce <- inception_4a/output_inception_4a/output_0_split_2
I0403 14:49:35.151113  2025 net.cpp:399] inception_4b/3x3_reduce -> inception_4b/3x3_reduce
I0403 14:49:35.152578  2025 net.cpp:141] Setting up inception_4b/3x3_reduce
I0403 14:49:35.152608  2025 net.cpp:148] Top shape: 24 112 14 14 (526848)
I0403 14:49:35.152624  2025 net.cpp:156] Memory required for data: 954332448
I0403 14:49:35.152643  2025 layer_factory.hpp:77] Creating layer inception_4b/relu_3x3_reduce
I0403 14:49:35.152662  2025 net.cpp:91] Creating Layer inception_4b/relu_3x3_reduce
I0403 14:49:35.152678  2025 net.cpp:425] inception_4b/relu_3x3_reduce <- inception_4b/3x3_reduce
I0403 14:49:35.152698  2025 net.cpp:386] inception_4b/relu_3x3_reduce -> inception_4b/3x3_reduce (in-place)
I0403 14:49:35.152989  2025 net.cpp:141] Setting up inception_4b/relu_3x3_reduce
I0403 14:49:35.153017  2025 net.cpp:148] Top shape: 24 112 14 14 (526848)
I0403 14:49:35.153031  2025 net.cpp:156] Memory required for data: 956439840
I0403 14:49:35.153046  2025 layer_factory.hpp:77] Creating layer inception_4b/3x3
I0403 14:49:35.153069  2025 net.cpp:91] Creating Layer inception_4b/3x3
I0403 14:49:35.153087  2025 net.cpp:425] inception_4b/3x3 <- inception_4b/3x3_reduce
I0403 14:49:35.153110  2025 net.cpp:399] inception_4b/3x3 -> inception_4b/3x3
I0403 14:49:35.156250  2025 net.cpp:141] Setting up inception_4b/3x3
I0403 14:49:35.156280  2025 net.cpp:148] Top shape: 24 224 14 14 (1053696)
I0403 14:49:35.156296  2025 net.cpp:156] Memory required for data: 960654624
I0403 14:49:35.156314  2025 layer_factory.hpp:77] Creating layer inception_4b/relu_3x3
I0403 14:49:35.156335  2025 net.cpp:91] Creating Layer inception_4b/relu_3x3
I0403 14:49:35.156352  2025 net.cpp:425] inception_4b/relu_3x3 <- inception_4b/3x3
I0403 14:49:35.156370  2025 net.cpp:386] inception_4b/relu_3x3 -> inception_4b/3x3 (in-place)
I0403 14:49:35.156559  2025 net.cpp:141] Setting up inception_4b/relu_3x3
I0403 14:49:35.156587  2025 net.cpp:148] Top shape: 24 224 14 14 (1053696)
I0403 14:49:35.156604  2025 net.cpp:156] Memory required for data: 964869408
I0403 14:49:35.156618  2025 layer_factory.hpp:77] Creating layer inception_4b/5x5_reduce
I0403 14:49:35.156641  2025 net.cpp:91] Creating Layer inception_4b/5x5_reduce
I0403 14:49:35.156659  2025 net.cpp:425] inception_4b/5x5_reduce <- inception_4a/output_inception_4a/output_0_split_3
I0403 14:49:35.156679  2025 net.cpp:399] inception_4b/5x5_reduce -> inception_4b/5x5_reduce
I0403 14:49:35.157835  2025 net.cpp:141] Setting up inception_4b/5x5_reduce
I0403 14:49:35.157866  2025 net.cpp:148] Top shape: 24 24 14 14 (112896)
I0403 14:49:35.157884  2025 net.cpp:156] Memory required for data: 965320992
I0403 14:49:35.157903  2025 layer_factory.hpp:77] Creating layer inception_4b/relu_5x5_reduce
I0403 14:49:35.157922  2025 net.cpp:91] Creating Layer inception_4b/relu_5x5_reduce
I0403 14:49:35.157953  2025 net.cpp:425] inception_4b/relu_5x5_reduce <- inception_4b/5x5_reduce
I0403 14:49:35.157975  2025 net.cpp:386] inception_4b/relu_5x5_reduce -> inception_4b/5x5_reduce (in-place)
I0403 14:49:35.158164  2025 net.cpp:141] Setting up inception_4b/relu_5x5_reduce
I0403 14:49:35.158191  2025 net.cpp:148] Top shape: 24 24 14 14 (112896)
I0403 14:49:35.158206  2025 net.cpp:156] Memory required for data: 965772576
I0403 14:49:35.158226  2025 layer_factory.hpp:77] Creating layer inception_4b/5x5
I0403 14:49:35.158249  2025 net.cpp:91] Creating Layer inception_4b/5x5
I0403 14:49:35.158268  2025 net.cpp:425] inception_4b/5x5 <- inception_4b/5x5_reduce
I0403 14:49:35.158290  2025 net.cpp:399] inception_4b/5x5 -> inception_4b/5x5
I0403 14:49:35.159627  2025 net.cpp:141] Setting up inception_4b/5x5
I0403 14:49:35.159659  2025 net.cpp:148] Top shape: 24 64 14 14 (301056)
I0403 14:49:35.159677  2025 net.cpp:156] Memory required for data: 966976800
I0403 14:49:35.159695  2025 layer_factory.hpp:77] Creating layer inception_4b/relu_5x5
I0403 14:49:35.159714  2025 net.cpp:91] Creating Layer inception_4b/relu_5x5
I0403 14:49:35.159730  2025 net.cpp:425] inception_4b/relu_5x5 <- inception_4b/5x5
I0403 14:49:35.159749  2025 net.cpp:386] inception_4b/relu_5x5 -> inception_4b/5x5 (in-place)
I0403 14:49:35.160045  2025 net.cpp:141] Setting up inception_4b/relu_5x5
I0403 14:49:35.160075  2025 net.cpp:148] Top shape: 24 64 14 14 (301056)
I0403 14:49:35.160091  2025 net.cpp:156] Memory required for data: 968181024
I0403 14:49:35.160106  2025 layer_factory.hpp:77] Creating layer inception_4b/pool
I0403 14:49:35.160125  2025 net.cpp:91] Creating Layer inception_4b/pool
I0403 14:49:35.160142  2025 net.cpp:425] inception_4b/pool <- inception_4a/output_inception_4a/output_0_split_4
I0403 14:49:35.160163  2025 net.cpp:399] inception_4b/pool -> inception_4b/pool
I0403 14:49:35.160236  2025 net.cpp:141] Setting up inception_4b/pool
I0403 14:49:35.160262  2025 net.cpp:148] Top shape: 24 512 14 14 (2408448)
I0403 14:49:35.160277  2025 net.cpp:156] Memory required for data: 977814816
I0403 14:49:35.160292  2025 layer_factory.hpp:77] Creating layer inception_4b/pool_proj
I0403 14:49:35.160315  2025 net.cpp:91] Creating Layer inception_4b/pool_proj
I0403 14:49:35.160332  2025 net.cpp:425] inception_4b/pool_proj <- inception_4b/pool
I0403 14:49:35.160354  2025 net.cpp:399] inception_4b/pool_proj -> inception_4b/pool_proj
I0403 14:49:35.161651  2025 net.cpp:141] Setting up inception_4b/pool_proj
I0403 14:49:35.161681  2025 net.cpp:148] Top shape: 24 64 14 14 (301056)
I0403 14:49:35.161697  2025 net.cpp:156] Memory required for data: 979019040
I0403 14:49:35.161717  2025 layer_factory.hpp:77] Creating layer inception_4b/relu_pool_proj
I0403 14:49:35.161736  2025 net.cpp:91] Creating Layer inception_4b/relu_pool_proj
I0403 14:49:35.161753  2025 net.cpp:425] inception_4b/relu_pool_proj <- inception_4b/pool_proj
I0403 14:49:35.161787  2025 net.cpp:386] inception_4b/relu_pool_proj -> inception_4b/pool_proj (in-place)
I0403 14:49:35.161973  2025 net.cpp:141] Setting up inception_4b/relu_pool_proj
I0403 14:49:35.161999  2025 net.cpp:148] Top shape: 24 64 14 14 (301056)
I0403 14:49:35.162014  2025 net.cpp:156] Memory required for data: 980223264
I0403 14:49:35.162030  2025 layer_factory.hpp:77] Creating layer inception_4b/output
I0403 14:49:35.162048  2025 net.cpp:91] Creating Layer inception_4b/output
I0403 14:49:35.162063  2025 net.cpp:425] inception_4b/output <- inception_4b/1x1
I0403 14:49:35.162081  2025 net.cpp:425] inception_4b/output <- inception_4b/3x3
I0403 14:49:35.162101  2025 net.cpp:425] inception_4b/output <- inception_4b/5x5
I0403 14:49:35.162118  2025 net.cpp:425] inception_4b/output <- inception_4b/pool_proj
I0403 14:49:35.162137  2025 net.cpp:399] inception_4b/output -> inception_4b/output
I0403 14:49:35.162184  2025 net.cpp:141] Setting up inception_4b/output
I0403 14:49:35.162214  2025 net.cpp:148] Top shape: 24 512 14 14 (2408448)
I0403 14:49:35.162231  2025 net.cpp:156] Memory required for data: 989857056
I0403 14:49:35.162261  2025 layer_factory.hpp:77] Creating layer inception_4b/output_inception_4b/output_0_split
I0403 14:49:35.162281  2025 net.cpp:91] Creating Layer inception_4b/output_inception_4b/output_0_split
I0403 14:49:35.162297  2025 net.cpp:425] inception_4b/output_inception_4b/output_0_split <- inception_4b/output
I0403 14:49:35.162317  2025 net.cpp:399] inception_4b/output_inception_4b/output_0_split -> inception_4b/output_inception_4b/output_0_split_0
I0403 14:49:35.162338  2025 net.cpp:399] inception_4b/output_inception_4b/output_0_split -> inception_4b/output_inception_4b/output_0_split_1
I0403 14:49:35.162361  2025 net.cpp:399] inception_4b/output_inception_4b/output_0_split -> inception_4b/output_inception_4b/output_0_split_2
I0403 14:49:35.162384  2025 net.cpp:399] inception_4b/output_inception_4b/output_0_split -> inception_4b/output_inception_4b/output_0_split_3
I0403 14:49:35.162482  2025 net.cpp:141] Setting up inception_4b/output_inception_4b/output_0_split
I0403 14:49:35.162509  2025 net.cpp:148] Top shape: 24 512 14 14 (2408448)
I0403 14:49:35.162528  2025 net.cpp:148] Top shape: 24 512 14 14 (2408448)
I0403 14:49:35.162544  2025 net.cpp:148] Top shape: 24 512 14 14 (2408448)
I0403 14:49:35.162560  2025 net.cpp:148] Top shape: 24 512 14 14 (2408448)
I0403 14:49:35.162575  2025 net.cpp:156] Memory required for data: 1028392224
I0403 14:49:35.162590  2025 layer_factory.hpp:77] Creating layer inception_4c/1x1
I0403 14:49:35.162614  2025 net.cpp:91] Creating Layer inception_4c/1x1
I0403 14:49:35.162633  2025 net.cpp:425] inception_4c/1x1 <- inception_4b/output_inception_4b/output_0_split_0
I0403 14:49:35.162654  2025 net.cpp:399] inception_4c/1x1 -> inception_4c/1x1
I0403 14:49:35.164216  2025 net.cpp:141] Setting up inception_4c/1x1
I0403 14:49:35.164247  2025 net.cpp:148] Top shape: 24 128 14 14 (602112)
I0403 14:49:35.164263  2025 net.cpp:156] Memory required for data: 1030800672
I0403 14:49:35.164283  2025 layer_factory.hpp:77] Creating layer inception_4c/relu_1x1
I0403 14:49:35.164304  2025 net.cpp:91] Creating Layer inception_4c/relu_1x1
I0403 14:49:35.164321  2025 net.cpp:425] inception_4c/relu_1x1 <- inception_4c/1x1
I0403 14:49:35.164340  2025 net.cpp:386] inception_4c/relu_1x1 -> inception_4c/1x1 (in-place)
I0403 14:49:35.164537  2025 net.cpp:141] Setting up inception_4c/relu_1x1
I0403 14:49:35.164563  2025 net.cpp:148] Top shape: 24 128 14 14 (602112)
I0403 14:49:35.164579  2025 net.cpp:156] Memory required for data: 1033209120
I0403 14:49:35.164595  2025 layer_factory.hpp:77] Creating layer inception_4c/3x3_reduce
I0403 14:49:35.164621  2025 net.cpp:91] Creating Layer inception_4c/3x3_reduce
I0403 14:49:35.164640  2025 net.cpp:425] inception_4c/3x3_reduce <- inception_4b/output_inception_4b/output_0_split_1
I0403 14:49:35.164661  2025 net.cpp:399] inception_4c/3x3_reduce -> inception_4c/3x3_reduce
I0403 14:49:35.166705  2025 net.cpp:141] Setting up inception_4c/3x3_reduce
I0403 14:49:35.166738  2025 net.cpp:148] Top shape: 24 128 14 14 (602112)
I0403 14:49:35.166756  2025 net.cpp:156] Memory required for data: 1035617568
I0403 14:49:35.166776  2025 layer_factory.hpp:77] Creating layer inception_4c/relu_3x3_reduce
I0403 14:49:35.166796  2025 net.cpp:91] Creating Layer inception_4c/relu_3x3_reduce
I0403 14:49:35.166813  2025 net.cpp:425] inception_4c/relu_3x3_reduce <- inception_4c/3x3_reduce
I0403 14:49:35.166836  2025 net.cpp:386] inception_4c/relu_3x3_reduce -> inception_4c/3x3_reduce (in-place)
I0403 14:49:35.167137  2025 net.cpp:141] Setting up inception_4c/relu_3x3_reduce
I0403 14:49:35.167167  2025 net.cpp:148] Top shape: 24 128 14 14 (602112)
I0403 14:49:35.167184  2025 net.cpp:156] Memory required for data: 1038026016
I0403 14:49:35.167201  2025 layer_factory.hpp:77] Creating layer inception_4c/3x3
I0403 14:49:35.167232  2025 net.cpp:91] Creating Layer inception_4c/3x3
I0403 14:49:35.167251  2025 net.cpp:425] inception_4c/3x3 <- inception_4c/3x3_reduce
I0403 14:49:35.167271  2025 net.cpp:399] inception_4c/3x3 -> inception_4c/3x3
I0403 14:49:35.171088  2025 net.cpp:141] Setting up inception_4c/3x3
I0403 14:49:35.171134  2025 net.cpp:148] Top shape: 24 256 14 14 (1204224)
I0403 14:49:35.171152  2025 net.cpp:156] Memory required for data: 1042842912
I0403 14:49:35.171187  2025 layer_factory.hpp:77] Creating layer inception_4c/relu_3x3
I0403 14:49:35.171213  2025 net.cpp:91] Creating Layer inception_4c/relu_3x3
I0403 14:49:35.171233  2025 net.cpp:425] inception_4c/relu_3x3 <- inception_4c/3x3
I0403 14:49:35.171255  2025 net.cpp:386] inception_4c/relu_3x3 -> inception_4c/3x3 (in-place)
I0403 14:49:35.171449  2025 net.cpp:141] Setting up inception_4c/relu_3x3
I0403 14:49:35.171479  2025 net.cpp:148] Top shape: 24 256 14 14 (1204224)
I0403 14:49:35.171495  2025 net.cpp:156] Memory required for data: 1047659808
I0403 14:49:35.171511  2025 layer_factory.hpp:77] Creating layer inception_4c/5x5_reduce
I0403 14:49:35.171537  2025 net.cpp:91] Creating Layer inception_4c/5x5_reduce
I0403 14:49:35.171557  2025 net.cpp:425] inception_4c/5x5_reduce <- inception_4b/output_inception_4b/output_0_split_2
I0403 14:49:35.171577  2025 net.cpp:399] inception_4c/5x5_reduce -> inception_4c/5x5_reduce
I0403 14:49:35.172730  2025 net.cpp:141] Setting up inception_4c/5x5_reduce
I0403 14:49:35.172763  2025 net.cpp:148] Top shape: 24 24 14 14 (112896)
I0403 14:49:35.172781  2025 net.cpp:156] Memory required for data: 1048111392
I0403 14:49:35.172801  2025 layer_factory.hpp:77] Creating layer inception_4c/relu_5x5_reduce
I0403 14:49:35.172821  2025 net.cpp:91] Creating Layer inception_4c/relu_5x5_reduce
I0403 14:49:35.172837  2025 net.cpp:425] inception_4c/relu_5x5_reduce <- inception_4c/5x5_reduce
I0403 14:49:35.172858  2025 net.cpp:386] inception_4c/relu_5x5_reduce -> inception_4c/5x5_reduce (in-place)
I0403 14:49:35.173055  2025 net.cpp:141] Setting up inception_4c/relu_5x5_reduce
I0403 14:49:35.173082  2025 net.cpp:148] Top shape: 24 24 14 14 (112896)
I0403 14:49:35.173099  2025 net.cpp:156] Memory required for data: 1048562976
I0403 14:49:35.173113  2025 layer_factory.hpp:77] Creating layer inception_4c/5x5
I0403 14:49:35.173140  2025 net.cpp:91] Creating Layer inception_4c/5x5
I0403 14:49:35.173158  2025 net.cpp:425] inception_4c/5x5 <- inception_4c/5x5_reduce
I0403 14:49:35.173180  2025 net.cpp:399] inception_4c/5x5 -> inception_4c/5x5
I0403 14:49:35.174518  2025 net.cpp:141] Setting up inception_4c/5x5
I0403 14:49:35.174548  2025 net.cpp:148] Top shape: 24 64 14 14 (301056)
I0403 14:49:35.174566  2025 net.cpp:156] Memory required for data: 1049767200
I0403 14:49:35.174584  2025 layer_factory.hpp:77] Creating layer inception_4c/relu_5x5
I0403 14:49:35.174605  2025 net.cpp:91] Creating Layer inception_4c/relu_5x5
I0403 14:49:35.174624  2025 net.cpp:425] inception_4c/relu_5x5 <- inception_4c/5x5
I0403 14:49:35.174643  2025 net.cpp:386] inception_4c/relu_5x5 -> inception_4c/5x5 (in-place)
I0403 14:49:35.174947  2025 net.cpp:141] Setting up inception_4c/relu_5x5
I0403 14:49:35.174976  2025 net.cpp:148] Top shape: 24 64 14 14 (301056)
I0403 14:49:35.174991  2025 net.cpp:156] Memory required for data: 1050971424
I0403 14:49:35.175007  2025 layer_factory.hpp:77] Creating layer inception_4c/pool
I0403 14:49:35.175029  2025 net.cpp:91] Creating Layer inception_4c/pool
I0403 14:49:35.175046  2025 net.cpp:425] inception_4c/pool <- inception_4b/output_inception_4b/output_0_split_3
I0403 14:49:35.175066  2025 net.cpp:399] inception_4c/pool -> inception_4c/pool
I0403 14:49:35.175135  2025 net.cpp:141] Setting up inception_4c/pool
I0403 14:49:35.175161  2025 net.cpp:148] Top shape: 24 512 14 14 (2408448)
I0403 14:49:35.175176  2025 net.cpp:156] Memory required for data: 1060605216
I0403 14:49:35.175191  2025 layer_factory.hpp:77] Creating layer inception_4c/pool_proj
I0403 14:49:35.175221  2025 net.cpp:91] Creating Layer inception_4c/pool_proj
I0403 14:49:35.175241  2025 net.cpp:425] inception_4c/pool_proj <- inception_4c/pool
I0403 14:49:35.175264  2025 net.cpp:399] inception_4c/pool_proj -> inception_4c/pool_proj
I0403 14:49:35.176594  2025 net.cpp:141] Setting up inception_4c/pool_proj
I0403 14:49:35.176627  2025 net.cpp:148] Top shape: 24 64 14 14 (301056)
I0403 14:49:35.176661  2025 net.cpp:156] Memory required for data: 1061809440
I0403 14:49:35.176681  2025 layer_factory.hpp:77] Creating layer inception_4c/relu_pool_proj
I0403 14:49:35.176700  2025 net.cpp:91] Creating Layer inception_4c/relu_pool_proj
I0403 14:49:35.176718  2025 net.cpp:425] inception_4c/relu_pool_proj <- inception_4c/pool_proj
I0403 14:49:35.176739  2025 net.cpp:386] inception_4c/relu_pool_proj -> inception_4c/pool_proj (in-place)
I0403 14:49:35.176936  2025 net.cpp:141] Setting up inception_4c/relu_pool_proj
I0403 14:49:35.176964  2025 net.cpp:148] Top shape: 24 64 14 14 (301056)
I0403 14:49:35.176978  2025 net.cpp:156] Memory required for data: 1063013664
I0403 14:49:35.176995  2025 layer_factory.hpp:77] Creating layer inception_4c/output
I0403 14:49:35.177011  2025 net.cpp:91] Creating Layer inception_4c/output
I0403 14:49:35.177028  2025 net.cpp:425] inception_4c/output <- inception_4c/1x1
I0403 14:49:35.177047  2025 net.cpp:425] inception_4c/output <- inception_4c/3x3
I0403 14:49:35.177063  2025 net.cpp:425] inception_4c/output <- inception_4c/5x5
I0403 14:49:35.177079  2025 net.cpp:425] inception_4c/output <- inception_4c/pool_proj
I0403 14:49:35.177099  2025 net.cpp:399] inception_4c/output -> inception_4c/output
I0403 14:49:35.177150  2025 net.cpp:141] Setting up inception_4c/output
I0403 14:49:35.177177  2025 net.cpp:148] Top shape: 24 512 14 14 (2408448)
I0403 14:49:35.177193  2025 net.cpp:156] Memory required for data: 1072647456
I0403 14:49:35.177213  2025 layer_factory.hpp:77] Creating layer inception_4c/output_inception_4c/output_0_split
I0403 14:49:35.177233  2025 net.cpp:91] Creating Layer inception_4c/output_inception_4c/output_0_split
I0403 14:49:35.177249  2025 net.cpp:425] inception_4c/output_inception_4c/output_0_split <- inception_4c/output
I0403 14:49:35.177270  2025 net.cpp:399] inception_4c/output_inception_4c/output_0_split -> inception_4c/output_inception_4c/output_0_split_0
I0403 14:49:35.177294  2025 net.cpp:399] inception_4c/output_inception_4c/output_0_split -> inception_4c/output_inception_4c/output_0_split_1
I0403 14:49:35.177315  2025 net.cpp:399] inception_4c/output_inception_4c/output_0_split -> inception_4c/output_inception_4c/output_0_split_2
I0403 14:49:35.177337  2025 net.cpp:399] inception_4c/output_inception_4c/output_0_split -> inception_4c/output_inception_4c/output_0_split_3
I0403 14:49:35.177429  2025 net.cpp:141] Setting up inception_4c/output_inception_4c/output_0_split
I0403 14:49:35.177454  2025 net.cpp:148] Top shape: 24 512 14 14 (2408448)
I0403 14:49:35.177475  2025 net.cpp:148] Top shape: 24 512 14 14 (2408448)
I0403 14:49:35.177492  2025 net.cpp:148] Top shape: 24 512 14 14 (2408448)
I0403 14:49:35.177510  2025 net.cpp:148] Top shape: 24 512 14 14 (2408448)
I0403 14:49:35.177523  2025 net.cpp:156] Memory required for data: 1111182624
I0403 14:49:35.177539  2025 layer_factory.hpp:77] Creating layer inception_4d/1x1
I0403 14:49:35.177561  2025 net.cpp:91] Creating Layer inception_4d/1x1
I0403 14:49:35.177578  2025 net.cpp:425] inception_4d/1x1 <- inception_4c/output_inception_4c/output_0_split_0
I0403 14:49:35.177602  2025 net.cpp:399] inception_4d/1x1 -> inception_4d/1x1
I0403 14:49:35.179111  2025 net.cpp:141] Setting up inception_4d/1x1
I0403 14:49:35.179141  2025 net.cpp:148] Top shape: 24 112 14 14 (526848)
I0403 14:49:35.179158  2025 net.cpp:156] Memory required for data: 1113290016
I0403 14:49:35.179177  2025 layer_factory.hpp:77] Creating layer inception_4d/relu_1x1
I0403 14:49:35.179198  2025 net.cpp:91] Creating Layer inception_4d/relu_1x1
I0403 14:49:35.179222  2025 net.cpp:425] inception_4d/relu_1x1 <- inception_4d/1x1
I0403 14:49:35.179241  2025 net.cpp:386] inception_4d/relu_1x1 -> inception_4d/1x1 (in-place)
I0403 14:49:35.179440  2025 net.cpp:141] Setting up inception_4d/relu_1x1
I0403 14:49:35.179469  2025 net.cpp:148] Top shape: 24 112 14 14 (526848)
I0403 14:49:35.179486  2025 net.cpp:156] Memory required for data: 1115397408
I0403 14:49:35.179502  2025 layer_factory.hpp:77] Creating layer inception_4d/3x3_reduce
I0403 14:49:35.179543  2025 net.cpp:91] Creating Layer inception_4d/3x3_reduce
I0403 14:49:35.179563  2025 net.cpp:425] inception_4d/3x3_reduce <- inception_4c/output_inception_4c/output_0_split_1
I0403 14:49:35.179584  2025 net.cpp:399] inception_4d/3x3_reduce -> inception_4d/3x3_reduce
I0403 14:49:35.181187  2025 net.cpp:141] Setting up inception_4d/3x3_reduce
I0403 14:49:35.181222  2025 net.cpp:148] Top shape: 24 144 14 14 (677376)
I0403 14:49:35.181242  2025 net.cpp:156] Memory required for data: 1118106912
I0403 14:49:35.181262  2025 layer_factory.hpp:77] Creating layer inception_4d/relu_3x3_reduce
I0403 14:49:35.181284  2025 net.cpp:91] Creating Layer inception_4d/relu_3x3_reduce
I0403 14:49:35.181303  2025 net.cpp:425] inception_4d/relu_3x3_reduce <- inception_4d/3x3_reduce
I0403 14:49:35.181320  2025 net.cpp:386] inception_4d/relu_3x3_reduce -> inception_4d/3x3_reduce (in-place)
I0403 14:49:35.181627  2025 net.cpp:141] Setting up inception_4d/relu_3x3_reduce
I0403 14:49:35.181655  2025 net.cpp:148] Top shape: 24 144 14 14 (677376)
I0403 14:49:35.181671  2025 net.cpp:156] Memory required for data: 1120816416
I0403 14:49:35.181687  2025 layer_factory.hpp:77] Creating layer inception_4d/3x3
I0403 14:49:35.181710  2025 net.cpp:91] Creating Layer inception_4d/3x3
I0403 14:49:35.181730  2025 net.cpp:425] inception_4d/3x3 <- inception_4d/3x3_reduce
I0403 14:49:35.181752  2025 net.cpp:399] inception_4d/3x3 -> inception_4d/3x3
I0403 14:49:35.186347  2025 net.cpp:141] Setting up inception_4d/3x3
I0403 14:49:35.186378  2025 net.cpp:148] Top shape: 24 288 14 14 (1354752)
I0403 14:49:35.186394  2025 net.cpp:156] Memory required for data: 1126235424
I0403 14:49:35.186414  2025 layer_factory.hpp:77] Creating layer inception_4d/relu_3x3
I0403 14:49:35.186434  2025 net.cpp:91] Creating Layer inception_4d/relu_3x3
I0403 14:49:35.186452  2025 net.cpp:425] inception_4d/relu_3x3 <- inception_4d/3x3
I0403 14:49:35.186471  2025 net.cpp:386] inception_4d/relu_3x3 -> inception_4d/3x3 (in-place)
I0403 14:49:35.186662  2025 net.cpp:141] Setting up inception_4d/relu_3x3
I0403 14:49:35.186689  2025 net.cpp:148] Top shape: 24 288 14 14 (1354752)
I0403 14:49:35.186704  2025 net.cpp:156] Memory required for data: 1131654432
I0403 14:49:35.186719  2025 layer_factory.hpp:77] Creating layer inception_4d/5x5_reduce
I0403 14:49:35.186743  2025 net.cpp:91] Creating Layer inception_4d/5x5_reduce
I0403 14:49:35.186761  2025 net.cpp:425] inception_4d/5x5_reduce <- inception_4c/output_inception_4c/output_0_split_2
I0403 14:49:35.186784  2025 net.cpp:399] inception_4d/5x5_reduce -> inception_4d/5x5_reduce
I0403 14:49:35.188014  2025 net.cpp:141] Setting up inception_4d/5x5_reduce
I0403 14:49:35.188042  2025 net.cpp:148] Top shape: 24 32 14 14 (150528)
I0403 14:49:35.188061  2025 net.cpp:156] Memory required for data: 1132256544
I0403 14:49:35.188081  2025 layer_factory.hpp:77] Creating layer inception_4d/relu_5x5_reduce
I0403 14:49:35.188100  2025 net.cpp:91] Creating Layer inception_4d/relu_5x5_reduce
I0403 14:49:35.188117  2025 net.cpp:425] inception_4d/relu_5x5_reduce <- inception_4d/5x5_reduce
I0403 14:49:35.188134  2025 net.cpp:386] inception_4d/relu_5x5_reduce -> inception_4d/5x5_reduce (in-place)
I0403 14:49:35.188334  2025 net.cpp:141] Setting up inception_4d/relu_5x5_reduce
I0403 14:49:35.188362  2025 net.cpp:148] Top shape: 24 32 14 14 (150528)
I0403 14:49:35.188380  2025 net.cpp:156] Memory required for data: 1132858656
I0403 14:49:35.188395  2025 layer_factory.hpp:77] Creating layer inception_4d/5x5
I0403 14:49:35.188417  2025 net.cpp:91] Creating Layer inception_4d/5x5
I0403 14:49:35.188436  2025 net.cpp:425] inception_4d/5x5 <- inception_4d/5x5_reduce
I0403 14:49:35.188457  2025 net.cpp:399] inception_4d/5x5 -> inception_4d/5x5
I0403 14:49:35.190022  2025 net.cpp:141] Setting up inception_4d/5x5
I0403 14:49:35.190050  2025 net.cpp:148] Top shape: 24 64 14 14 (301056)
I0403 14:49:35.190065  2025 net.cpp:156] Memory required for data: 1134062880
I0403 14:49:35.190084  2025 layer_factory.hpp:77] Creating layer inception_4d/relu_5x5
I0403 14:49:35.190117  2025 net.cpp:91] Creating Layer inception_4d/relu_5x5
I0403 14:49:35.190135  2025 net.cpp:425] inception_4d/relu_5x5 <- inception_4d/5x5
I0403 14:49:35.190167  2025 net.cpp:386] inception_4d/relu_5x5 -> inception_4d/5x5 (in-place)
I0403 14:49:35.190502  2025 net.cpp:141] Setting up inception_4d/relu_5x5
I0403 14:49:35.190529  2025 net.cpp:148] Top shape: 24 64 14 14 (301056)
I0403 14:49:35.190544  2025 net.cpp:156] Memory required for data: 1135267104
I0403 14:49:35.190558  2025 layer_factory.hpp:77] Creating layer inception_4d/pool
I0403 14:49:35.190575  2025 net.cpp:91] Creating Layer inception_4d/pool
I0403 14:49:35.190593  2025 net.cpp:425] inception_4d/pool <- inception_4c/output_inception_4c/output_0_split_3
I0403 14:49:35.190613  2025 net.cpp:399] inception_4d/pool -> inception_4d/pool
I0403 14:49:35.190681  2025 net.cpp:141] Setting up inception_4d/pool
I0403 14:49:35.190708  2025 net.cpp:148] Top shape: 24 512 14 14 (2408448)
I0403 14:49:35.190723  2025 net.cpp:156] Memory required for data: 1144900896
I0403 14:49:35.190738  2025 layer_factory.hpp:77] Creating layer inception_4d/pool_proj
I0403 14:49:35.190759  2025 net.cpp:91] Creating Layer inception_4d/pool_proj
I0403 14:49:35.190778  2025 net.cpp:425] inception_4d/pool_proj <- inception_4d/pool
I0403 14:49:35.190796  2025 net.cpp:399] inception_4d/pool_proj -> inception_4d/pool_proj
I0403 14:49:35.192620  2025 net.cpp:141] Setting up inception_4d/pool_proj
I0403 14:49:35.192649  2025 net.cpp:148] Top shape: 24 64 14 14 (301056)
I0403 14:49:35.192664  2025 net.cpp:156] Memory required for data: 1146105120
I0403 14:49:35.192682  2025 layer_factory.hpp:77] Creating layer inception_4d/relu_pool_proj
I0403 14:49:35.192704  2025 net.cpp:91] Creating Layer inception_4d/relu_pool_proj
I0403 14:49:35.192723  2025 net.cpp:425] inception_4d/relu_pool_proj <- inception_4d/pool_proj
I0403 14:49:35.192740  2025 net.cpp:386] inception_4d/relu_pool_proj -> inception_4d/pool_proj (in-place)
I0403 14:49:35.192926  2025 net.cpp:141] Setting up inception_4d/relu_pool_proj
I0403 14:49:35.192951  2025 net.cpp:148] Top shape: 24 64 14 14 (301056)
I0403 14:49:35.192965  2025 net.cpp:156] Memory required for data: 1147309344
I0403 14:49:35.192981  2025 layer_factory.hpp:77] Creating layer inception_4d/output
I0403 14:49:35.192997  2025 net.cpp:91] Creating Layer inception_4d/output
I0403 14:49:35.193013  2025 net.cpp:425] inception_4d/output <- inception_4d/1x1
I0403 14:49:35.193029  2025 net.cpp:425] inception_4d/output <- inception_4d/3x3
I0403 14:49:35.193045  2025 net.cpp:425] inception_4d/output <- inception_4d/5x5
I0403 14:49:35.193061  2025 net.cpp:425] inception_4d/output <- inception_4d/pool_proj
I0403 14:49:35.193081  2025 net.cpp:399] inception_4d/output -> inception_4d/output
I0403 14:49:35.193128  2025 net.cpp:141] Setting up inception_4d/output
I0403 14:49:35.193156  2025 net.cpp:148] Top shape: 24 528 14 14 (2483712)
I0403 14:49:35.193171  2025 net.cpp:156] Memory required for data: 1157244192
I0403 14:49:35.193186  2025 layer_factory.hpp:77] Creating layer inception_4d/output_inception_4d/output_0_split
I0403 14:49:35.193203  2025 net.cpp:91] Creating Layer inception_4d/output_inception_4d/output_0_split
I0403 14:49:35.193248  2025 net.cpp:425] inception_4d/output_inception_4d/output_0_split <- inception_4d/output
I0403 14:49:35.193269  2025 net.cpp:399] inception_4d/output_inception_4d/output_0_split -> inception_4d/output_inception_4d/output_0_split_0
I0403 14:49:35.193290  2025 net.cpp:399] inception_4d/output_inception_4d/output_0_split -> inception_4d/output_inception_4d/output_0_split_1
I0403 14:49:35.193315  2025 net.cpp:399] inception_4d/output_inception_4d/output_0_split -> inception_4d/output_inception_4d/output_0_split_2
I0403 14:49:35.193338  2025 net.cpp:399] inception_4d/output_inception_4d/output_0_split -> inception_4d/output_inception_4d/output_0_split_3
I0403 14:49:35.193359  2025 net.cpp:399] inception_4d/output_inception_4d/output_0_split -> inception_4d/output_inception_4d/output_0_split_4
I0403 14:49:35.193466  2025 net.cpp:141] Setting up inception_4d/output_inception_4d/output_0_split
I0403 14:49:35.193503  2025 net.cpp:148] Top shape: 24 528 14 14 (2483712)
I0403 14:49:35.193533  2025 net.cpp:148] Top shape: 24 528 14 14 (2483712)
I0403 14:49:35.193548  2025 net.cpp:148] Top shape: 24 528 14 14 (2483712)
I0403 14:49:35.193564  2025 net.cpp:148] Top shape: 24 528 14 14 (2483712)
I0403 14:49:35.193580  2025 net.cpp:148] Top shape: 24 528 14 14 (2483712)
I0403 14:49:35.193594  2025 net.cpp:156] Memory required for data: 1206918432
I0403 14:49:35.193608  2025 layer_factory.hpp:77] Creating layer loss2/ave_pool
I0403 14:49:35.193629  2025 net.cpp:91] Creating Layer loss2/ave_pool
I0403 14:49:35.193645  2025 net.cpp:425] loss2/ave_pool <- inception_4d/output_inception_4d/output_0_split_0
I0403 14:49:35.193665  2025 net.cpp:399] loss2/ave_pool -> loss2/ave_pool
I0403 14:49:35.193979  2025 net.cpp:141] Setting up loss2/ave_pool
I0403 14:49:35.194006  2025 net.cpp:148] Top shape: 24 528 4 4 (202752)
I0403 14:49:35.194021  2025 net.cpp:156] Memory required for data: 1207729440
I0403 14:49:35.194036  2025 layer_factory.hpp:77] Creating layer loss2/conv
I0403 14:49:35.194061  2025 net.cpp:91] Creating Layer loss2/conv
I0403 14:49:35.194078  2025 net.cpp:425] loss2/conv <- loss2/ave_pool
I0403 14:49:35.194098  2025 net.cpp:399] loss2/conv -> loss2/conv
I0403 14:49:35.196043  2025 net.cpp:141] Setting up loss2/conv
I0403 14:49:35.196072  2025 net.cpp:148] Top shape: 24 128 4 4 (49152)
I0403 14:49:35.196087  2025 net.cpp:156] Memory required for data: 1207926048
I0403 14:49:35.196106  2025 layer_factory.hpp:77] Creating layer loss2/relu_conv
I0403 14:49:35.196125  2025 net.cpp:91] Creating Layer loss2/relu_conv
I0403 14:49:35.196141  2025 net.cpp:425] loss2/relu_conv <- loss2/conv
I0403 14:49:35.196161  2025 net.cpp:386] loss2/relu_conv -> loss2/conv (in-place)
I0403 14:49:35.196454  2025 net.cpp:141] Setting up loss2/relu_conv
I0403 14:49:35.196480  2025 net.cpp:148] Top shape: 24 128 4 4 (49152)
I0403 14:49:35.196496  2025 net.cpp:156] Memory required for data: 1208122656
I0403 14:49:35.196511  2025 layer_factory.hpp:77] Creating layer loss2/fc
I0403 14:49:35.196530  2025 net.cpp:91] Creating Layer loss2/fc
I0403 14:49:35.196547  2025 net.cpp:425] loss2/fc <- loss2/conv
I0403 14:49:35.196568  2025 net.cpp:399] loss2/fc -> loss2/fc
I0403 14:49:35.214882  2025 net.cpp:141] Setting up loss2/fc
I0403 14:49:35.214941  2025 net.cpp:148] Top shape: 24 1024 (24576)
I0403 14:49:35.214957  2025 net.cpp:156] Memory required for data: 1208220960
I0403 14:49:35.214978  2025 layer_factory.hpp:77] Creating layer loss2/relu_fc
I0403 14:49:35.214998  2025 net.cpp:91] Creating Layer loss2/relu_fc
I0403 14:49:35.215016  2025 net.cpp:425] loss2/relu_fc <- loss2/fc
I0403 14:49:35.215034  2025 net.cpp:386] loss2/relu_fc -> loss2/fc (in-place)
I0403 14:49:35.215378  2025 net.cpp:141] Setting up loss2/relu_fc
I0403 14:49:35.215409  2025 net.cpp:148] Top shape: 24 1024 (24576)
I0403 14:49:35.215425  2025 net.cpp:156] Memory required for data: 1208319264
I0403 14:49:35.215440  2025 layer_factory.hpp:77] Creating layer loss2/drop_fc
I0403 14:49:35.215459  2025 net.cpp:91] Creating Layer loss2/drop_fc
I0403 14:49:35.215476  2025 net.cpp:425] loss2/drop_fc <- loss2/fc
I0403 14:49:35.215493  2025 net.cpp:386] loss2/drop_fc -> loss2/fc (in-place)
I0403 14:49:35.215548  2025 net.cpp:141] Setting up loss2/drop_fc
I0403 14:49:35.215571  2025 net.cpp:148] Top shape: 24 1024 (24576)
I0403 14:49:35.215586  2025 net.cpp:156] Memory required for data: 1208417568
I0403 14:49:35.215601  2025 layer_factory.hpp:77] Creating layer loss2/classifier_plantvillage
I0403 14:49:35.215622  2025 net.cpp:91] Creating Layer loss2/classifier_plantvillage
I0403 14:49:35.215641  2025 net.cpp:425] loss2/classifier_plantvillage <- loss2/fc
I0403 14:49:35.215658  2025 net.cpp:399] loss2/classifier_plantvillage -> loss2/classifier_plantvillage
I0403 14:49:35.216081  2025 net.cpp:141] Setting up loss2/classifier_plantvillage
I0403 14:49:35.216107  2025 net.cpp:148] Top shape: 24 38 (912)
I0403 14:49:35.216147  2025 net.cpp:156] Memory required for data: 1208421216
I0403 14:49:35.216167  2025 layer_factory.hpp:77] Creating layer loss2/classifier_plantvillage_loss2/classifier_plantvillage_0_split
I0403 14:49:35.216186  2025 net.cpp:91] Creating Layer loss2/classifier_plantvillage_loss2/classifier_plantvillage_0_split
I0403 14:49:35.216202  2025 net.cpp:425] loss2/classifier_plantvillage_loss2/classifier_plantvillage_0_split <- loss2/classifier_plantvillage
I0403 14:49:35.216228  2025 net.cpp:399] loss2/classifier_plantvillage_loss2/classifier_plantvillage_0_split -> loss2/classifier_plantvillage_loss2/classifier_plantvillage_0_split_0
I0403 14:49:35.216250  2025 net.cpp:399] loss2/classifier_plantvillage_loss2/classifier_plantvillage_0_split -> loss2/classifier_plantvillage_loss2/classifier_plantvillage_0_split_1
I0403 14:49:35.216272  2025 net.cpp:399] loss2/classifier_plantvillage_loss2/classifier_plantvillage_0_split -> loss2/classifier_plantvillage_loss2/classifier_plantvillage_0_split_2
I0403 14:49:35.216354  2025 net.cpp:141] Setting up loss2/classifier_plantvillage_loss2/classifier_plantvillage_0_split
I0403 14:49:35.216378  2025 net.cpp:148] Top shape: 24 38 (912)
I0403 14:49:35.216395  2025 net.cpp:148] Top shape: 24 38 (912)
I0403 14:49:35.216411  2025 net.cpp:148] Top shape: 24 38 (912)
I0403 14:49:35.216425  2025 net.cpp:156] Memory required for data: 1208432160
I0403 14:49:35.216441  2025 layer_factory.hpp:77] Creating layer inception_4e/1x1
I0403 14:49:35.216465  2025 net.cpp:91] Creating Layer inception_4e/1x1
I0403 14:49:35.216485  2025 net.cpp:425] inception_4e/1x1 <- inception_4d/output_inception_4d/output_0_split_1
I0403 14:49:35.216506  2025 net.cpp:399] inception_4e/1x1 -> inception_4e/1x1
I0403 14:49:35.218477  2025 net.cpp:141] Setting up inception_4e/1x1
I0403 14:49:35.218507  2025 net.cpp:148] Top shape: 24 256 14 14 (1204224)
I0403 14:49:35.218523  2025 net.cpp:156] Memory required for data: 1213249056
I0403 14:49:35.218544  2025 layer_factory.hpp:77] Creating layer inception_4e/relu_1x1
I0403 14:49:35.218565  2025 net.cpp:91] Creating Layer inception_4e/relu_1x1
I0403 14:49:35.218583  2025 net.cpp:425] inception_4e/relu_1x1 <- inception_4e/1x1
I0403 14:49:35.218603  2025 net.cpp:386] inception_4e/relu_1x1 -> inception_4e/1x1 (in-place)
I0403 14:49:35.218917  2025 net.cpp:141] Setting up inception_4e/relu_1x1
I0403 14:49:35.218945  2025 net.cpp:148] Top shape: 24 256 14 14 (1204224)
I0403 14:49:35.218961  2025 net.cpp:156] Memory required for data: 1218065952
I0403 14:49:35.218977  2025 layer_factory.hpp:77] Creating layer inception_4e/3x3_reduce
I0403 14:49:35.219002  2025 net.cpp:91] Creating Layer inception_4e/3x3_reduce
I0403 14:49:35.219022  2025 net.cpp:425] inception_4e/3x3_reduce <- inception_4d/output_inception_4d/output_0_split_2
I0403 14:49:35.219045  2025 net.cpp:399] inception_4e/3x3_reduce -> inception_4e/3x3_reduce
I0403 14:49:35.221325  2025 net.cpp:141] Setting up inception_4e/3x3_reduce
I0403 14:49:35.221356  2025 net.cpp:148] Top shape: 24 160 14 14 (752640)
I0403 14:49:35.221374  2025 net.cpp:156] Memory required for data: 1221076512
I0403 14:49:35.221392  2025 layer_factory.hpp:77] Creating layer inception_4e/relu_3x3_reduce
I0403 14:49:35.221411  2025 net.cpp:91] Creating Layer inception_4e/relu_3x3_reduce
I0403 14:49:35.221428  2025 net.cpp:425] inception_4e/relu_3x3_reduce <- inception_4e/3x3_reduce
I0403 14:49:35.221449  2025 net.cpp:386] inception_4e/relu_3x3_reduce -> inception_4e/3x3_reduce (in-place)
I0403 14:49:35.221649  2025 net.cpp:141] Setting up inception_4e/relu_3x3_reduce
I0403 14:49:35.221676  2025 net.cpp:148] Top shape: 24 160 14 14 (752640)
I0403 14:49:35.221693  2025 net.cpp:156] Memory required for data: 1224087072
I0403 14:49:35.221707  2025 layer_factory.hpp:77] Creating layer inception_4e/3x3
I0403 14:49:35.221731  2025 net.cpp:91] Creating Layer inception_4e/3x3
I0403 14:49:35.221750  2025 net.cpp:425] inception_4e/3x3 <- inception_4e/3x3_reduce
I0403 14:49:35.221773  2025 net.cpp:399] inception_4e/3x3 -> inception_4e/3x3
I0403 14:49:35.227089  2025 net.cpp:141] Setting up inception_4e/3x3
I0403 14:49:35.227134  2025 net.cpp:148] Top shape: 24 320 14 14 (1505280)
I0403 14:49:35.227151  2025 net.cpp:156] Memory required for data: 1230108192
I0403 14:49:35.227171  2025 layer_factory.hpp:77] Creating layer inception_4e/relu_3x3
I0403 14:49:35.227193  2025 net.cpp:91] Creating Layer inception_4e/relu_3x3
I0403 14:49:35.227216  2025 net.cpp:425] inception_4e/relu_3x3 <- inception_4e/3x3
I0403 14:49:35.227239  2025 net.cpp:386] inception_4e/relu_3x3 -> inception_4e/3x3 (in-place)
I0403 14:49:35.227563  2025 net.cpp:141] Setting up inception_4e/relu_3x3
I0403 14:49:35.227592  2025 net.cpp:148] Top shape: 24 320 14 14 (1505280)
I0403 14:49:35.227608  2025 net.cpp:156] Memory required for data: 1236129312
I0403 14:49:35.227624  2025 layer_factory.hpp:77] Creating layer inception_4e/5x5_reduce
I0403 14:49:35.227648  2025 net.cpp:91] Creating Layer inception_4e/5x5_reduce
I0403 14:49:35.227668  2025 net.cpp:425] inception_4e/5x5_reduce <- inception_4d/output_inception_4d/output_0_split_3
I0403 14:49:35.227691  2025 net.cpp:399] inception_4e/5x5_reduce -> inception_4e/5x5_reduce
I0403 14:49:35.228840  2025 net.cpp:141] Setting up inception_4e/5x5_reduce
I0403 14:49:35.228870  2025 net.cpp:148] Top shape: 24 32 14 14 (150528)
I0403 14:49:35.228886  2025 net.cpp:156] Memory required for data: 1236731424
I0403 14:49:35.228906  2025 layer_factory.hpp:77] Creating layer inception_4e/relu_5x5_reduce
I0403 14:49:35.228925  2025 net.cpp:91] Creating Layer inception_4e/relu_5x5_reduce
I0403 14:49:35.228943  2025 net.cpp:425] inception_4e/relu_5x5_reduce <- inception_4e/5x5_reduce
I0403 14:49:35.228963  2025 net.cpp:386] inception_4e/relu_5x5_reduce -> inception_4e/5x5_reduce (in-place)
I0403 14:49:35.229286  2025 net.cpp:141] Setting up inception_4e/relu_5x5_reduce
I0403 14:49:35.229315  2025 net.cpp:148] Top shape: 24 32 14 14 (150528)
I0403 14:49:35.229331  2025 net.cpp:156] Memory required for data: 1237333536
I0403 14:49:35.229347  2025 layer_factory.hpp:77] Creating layer inception_4e/5x5
I0403 14:49:35.229392  2025 net.cpp:91] Creating Layer inception_4e/5x5
I0403 14:49:35.229411  2025 net.cpp:425] inception_4e/5x5 <- inception_4e/5x5_reduce
I0403 14:49:35.229432  2025 net.cpp:399] inception_4e/5x5 -> inception_4e/5x5
I0403 14:49:35.231400  2025 net.cpp:141] Setting up inception_4e/5x5
I0403 14:49:35.231431  2025 net.cpp:148] Top shape: 24 128 14 14 (602112)
I0403 14:49:35.231449  2025 net.cpp:156] Memory required for data: 1239741984
I0403 14:49:35.231472  2025 layer_factory.hpp:77] Creating layer inception_4e/relu_5x5
I0403 14:49:35.231492  2025 net.cpp:91] Creating Layer inception_4e/relu_5x5
I0403 14:49:35.231509  2025 net.cpp:425] inception_4e/relu_5x5 <- inception_4e/5x5
I0403 14:49:35.231529  2025 net.cpp:386] inception_4e/relu_5x5 -> inception_4e/5x5 (in-place)
I0403 14:49:35.231740  2025 net.cpp:141] Setting up inception_4e/relu_5x5
I0403 14:49:35.231767  2025 net.cpp:148] Top shape: 24 128 14 14 (602112)
I0403 14:49:35.231783  2025 net.cpp:156] Memory required for data: 1242150432
I0403 14:49:35.231799  2025 layer_factory.hpp:77] Creating layer inception_4e/pool
I0403 14:49:35.231818  2025 net.cpp:91] Creating Layer inception_4e/pool
I0403 14:49:35.231835  2025 net.cpp:425] inception_4e/pool <- inception_4d/output_inception_4d/output_0_split_4
I0403 14:49:35.231858  2025 net.cpp:399] inception_4e/pool -> inception_4e/pool
I0403 14:49:35.231935  2025 net.cpp:141] Setting up inception_4e/pool
I0403 14:49:35.231961  2025 net.cpp:148] Top shape: 24 528 14 14 (2483712)
I0403 14:49:35.231976  2025 net.cpp:156] Memory required for data: 1252085280
I0403 14:49:35.231992  2025 layer_factory.hpp:77] Creating layer inception_4e/pool_proj
I0403 14:49:35.232017  2025 net.cpp:91] Creating Layer inception_4e/pool_proj
I0403 14:49:35.232036  2025 net.cpp:425] inception_4e/pool_proj <- inception_4e/pool
I0403 14:49:35.232056  2025 net.cpp:399] inception_4e/pool_proj -> inception_4e/pool_proj
I0403 14:49:35.233680  2025 net.cpp:141] Setting up inception_4e/pool_proj
I0403 14:49:35.233724  2025 net.cpp:148] Top shape: 24 128 14 14 (602112)
I0403 14:49:35.233741  2025 net.cpp:156] Memory required for data: 1254493728
I0403 14:49:35.233762  2025 layer_factory.hpp:77] Creating layer inception_4e/relu_pool_proj
I0403 14:49:35.233783  2025 net.cpp:91] Creating Layer inception_4e/relu_pool_proj
I0403 14:49:35.233803  2025 net.cpp:425] inception_4e/relu_pool_proj <- inception_4e/pool_proj
I0403 14:49:35.233821  2025 net.cpp:386] inception_4e/relu_pool_proj -> inception_4e/pool_proj (in-place)
I0403 14:49:35.234134  2025 net.cpp:141] Setting up inception_4e/relu_pool_proj
I0403 14:49:35.234163  2025 net.cpp:148] Top shape: 24 128 14 14 (602112)
I0403 14:49:35.234179  2025 net.cpp:156] Memory required for data: 1256902176
I0403 14:49:35.234194  2025 layer_factory.hpp:77] Creating layer inception_4e/output
I0403 14:49:35.234220  2025 net.cpp:91] Creating Layer inception_4e/output
I0403 14:49:35.234238  2025 net.cpp:425] inception_4e/output <- inception_4e/1x1
I0403 14:49:35.234257  2025 net.cpp:425] inception_4e/output <- inception_4e/3x3
I0403 14:49:35.234274  2025 net.cpp:425] inception_4e/output <- inception_4e/5x5
I0403 14:49:35.234290  2025 net.cpp:425] inception_4e/output <- inception_4e/pool_proj
I0403 14:49:35.234308  2025 net.cpp:399] inception_4e/output -> inception_4e/output
I0403 14:49:35.234364  2025 net.cpp:141] Setting up inception_4e/output
I0403 14:49:35.234388  2025 net.cpp:148] Top shape: 24 832 14 14 (3913728)
I0403 14:49:35.234405  2025 net.cpp:156] Memory required for data: 1272557088
I0403 14:49:35.234419  2025 layer_factory.hpp:77] Creating layer pool4/3x3_s2
I0403 14:49:35.234437  2025 net.cpp:91] Creating Layer pool4/3x3_s2
I0403 14:49:35.234454  2025 net.cpp:425] pool4/3x3_s2 <- inception_4e/output
I0403 14:49:35.234479  2025 net.cpp:399] pool4/3x3_s2 -> pool4/3x3_s2
I0403 14:49:35.234555  2025 net.cpp:141] Setting up pool4/3x3_s2
I0403 14:49:35.234581  2025 net.cpp:148] Top shape: 24 832 7 7 (978432)
I0403 14:49:35.234596  2025 net.cpp:156] Memory required for data: 1276470816
I0403 14:49:35.234611  2025 layer_factory.hpp:77] Creating layer pool4/3x3_s2_pool4/3x3_s2_0_split
I0403 14:49:35.234629  2025 net.cpp:91] Creating Layer pool4/3x3_s2_pool4/3x3_s2_0_split
I0403 14:49:35.234647  2025 net.cpp:425] pool4/3x3_s2_pool4/3x3_s2_0_split <- pool4/3x3_s2
I0403 14:49:35.234668  2025 net.cpp:399] pool4/3x3_s2_pool4/3x3_s2_0_split -> pool4/3x3_s2_pool4/3x3_s2_0_split_0
I0403 14:49:35.234690  2025 net.cpp:399] pool4/3x3_s2_pool4/3x3_s2_0_split -> pool4/3x3_s2_pool4/3x3_s2_0_split_1
I0403 14:49:35.234712  2025 net.cpp:399] pool4/3x3_s2_pool4/3x3_s2_0_split -> pool4/3x3_s2_pool4/3x3_s2_0_split_2
I0403 14:49:35.234735  2025 net.cpp:399] pool4/3x3_s2_pool4/3x3_s2_0_split -> pool4/3x3_s2_pool4/3x3_s2_0_split_3
I0403 14:49:35.234829  2025 net.cpp:141] Setting up pool4/3x3_s2_pool4/3x3_s2_0_split
I0403 14:49:35.234858  2025 net.cpp:148] Top shape: 24 832 7 7 (978432)
I0403 14:49:35.234876  2025 net.cpp:148] Top shape: 24 832 7 7 (978432)
I0403 14:49:35.234894  2025 net.cpp:148] Top shape: 24 832 7 7 (978432)
I0403 14:49:35.234910  2025 net.cpp:148] Top shape: 24 832 7 7 (978432)
I0403 14:49:35.234925  2025 net.cpp:156] Memory required for data: 1292125728
I0403 14:49:35.234941  2025 layer_factory.hpp:77] Creating layer inception_5a/1x1
I0403 14:49:35.234964  2025 net.cpp:91] Creating Layer inception_5a/1x1
I0403 14:49:35.234983  2025 net.cpp:425] inception_5a/1x1 <- pool4/3x3_s2_pool4/3x3_s2_0_split_0
I0403 14:49:35.235003  2025 net.cpp:399] inception_5a/1x1 -> inception_5a/1x1
I0403 14:49:35.238014  2025 net.cpp:141] Setting up inception_5a/1x1
I0403 14:49:35.238046  2025 net.cpp:148] Top shape: 24 256 7 7 (301056)
I0403 14:49:35.238064  2025 net.cpp:156] Memory required for data: 1293329952
I0403 14:49:35.238082  2025 layer_factory.hpp:77] Creating layer inception_5a/relu_1x1
I0403 14:49:35.238101  2025 net.cpp:91] Creating Layer inception_5a/relu_1x1
I0403 14:49:35.238116  2025 net.cpp:425] inception_5a/relu_1x1 <- inception_5a/1x1
I0403 14:49:35.238137  2025 net.cpp:386] inception_5a/relu_1x1 -> inception_5a/1x1 (in-place)
I0403 14:49:35.238467  2025 net.cpp:141] Setting up inception_5a/relu_1x1
I0403 14:49:35.238497  2025 net.cpp:148] Top shape: 24 256 7 7 (301056)
I0403 14:49:35.238512  2025 net.cpp:156] Memory required for data: 1294534176
I0403 14:49:35.238528  2025 layer_factory.hpp:77] Creating layer inception_5a/3x3_reduce
I0403 14:49:35.238550  2025 net.cpp:91] Creating Layer inception_5a/3x3_reduce
I0403 14:49:35.238570  2025 net.cpp:425] inception_5a/3x3_reduce <- pool4/3x3_s2_pool4/3x3_s2_0_split_1
I0403 14:49:35.238592  2025 net.cpp:399] inception_5a/3x3_reduce -> inception_5a/3x3_reduce
I0403 14:49:35.241173  2025 net.cpp:141] Setting up inception_5a/3x3_reduce
I0403 14:49:35.241202  2025 net.cpp:148] Top shape: 24 160 7 7 (188160)
I0403 14:49:35.241225  2025 net.cpp:156] Memory required for data: 1295286816
I0403 14:49:35.241245  2025 layer_factory.hpp:77] Creating layer inception_5a/relu_3x3_reduce
I0403 14:49:35.241266  2025 net.cpp:91] Creating Layer inception_5a/relu_3x3_reduce
I0403 14:49:35.241283  2025 net.cpp:425] inception_5a/relu_3x3_reduce <- inception_5a/3x3_reduce
I0403 14:49:35.241302  2025 net.cpp:386] inception_5a/relu_3x3_reduce -> inception_5a/3x3_reduce (in-place)
I0403 14:49:35.241508  2025 net.cpp:141] Setting up inception_5a/relu_3x3_reduce
I0403 14:49:35.241539  2025 net.cpp:148] Top shape: 24 160 7 7 (188160)
I0403 14:49:35.241554  2025 net.cpp:156] Memory required for data: 1296039456
I0403 14:49:35.241571  2025 layer_factory.hpp:77] Creating layer inception_5a/3x3
I0403 14:49:35.241595  2025 net.cpp:91] Creating Layer inception_5a/3x3
I0403 14:49:35.241614  2025 net.cpp:425] inception_5a/3x3 <- inception_5a/3x3_reduce
I0403 14:49:35.241634  2025 net.cpp:399] inception_5a/3x3 -> inception_5a/3x3
I0403 14:49:35.246878  2025 net.cpp:141] Setting up inception_5a/3x3
I0403 14:49:35.246914  2025 net.cpp:148] Top shape: 24 320 7 7 (376320)
I0403 14:49:35.246932  2025 net.cpp:156] Memory required for data: 1297544736
I0403 14:49:35.246951  2025 layer_factory.hpp:77] Creating layer inception_5a/relu_3x3
I0403 14:49:35.246970  2025 net.cpp:91] Creating Layer inception_5a/relu_3x3
I0403 14:49:35.246987  2025 net.cpp:425] inception_5a/relu_3x3 <- inception_5a/3x3
I0403 14:49:35.247009  2025 net.cpp:386] inception_5a/relu_3x3 -> inception_5a/3x3 (in-place)
I0403 14:49:35.247316  2025 net.cpp:141] Setting up inception_5a/relu_3x3
I0403 14:49:35.247346  2025 net.cpp:148] Top shape: 24 320 7 7 (376320)
I0403 14:49:35.247362  2025 net.cpp:156] Memory required for data: 1299050016
I0403 14:49:35.247377  2025 layer_factory.hpp:77] Creating layer inception_5a/5x5_reduce
I0403 14:49:35.247401  2025 net.cpp:91] Creating Layer inception_5a/5x5_reduce
I0403 14:49:35.247421  2025 net.cpp:425] inception_5a/5x5_reduce <- pool4/3x3_s2_pool4/3x3_s2_0_split_2
I0403 14:49:35.247440  2025 net.cpp:399] inception_5a/5x5_reduce -> inception_5a/5x5_reduce
I0403 14:49:35.248656  2025 net.cpp:141] Setting up inception_5a/5x5_reduce
I0403 14:49:35.248688  2025 net.cpp:148] Top shape: 24 32 7 7 (37632)
I0403 14:49:35.248705  2025 net.cpp:156] Memory required for data: 1299200544
I0403 14:49:35.248724  2025 layer_factory.hpp:77] Creating layer inception_5a/relu_5x5_reduce
I0403 14:49:35.248744  2025 net.cpp:91] Creating Layer inception_5a/relu_5x5_reduce
I0403 14:49:35.248760  2025 net.cpp:425] inception_5a/relu_5x5_reduce <- inception_5a/5x5_reduce
I0403 14:49:35.248780  2025 net.cpp:386] inception_5a/relu_5x5_reduce -> inception_5a/5x5_reduce (in-place)
I0403 14:49:35.249094  2025 net.cpp:141] Setting up inception_5a/relu_5x5_reduce
I0403 14:49:35.249121  2025 net.cpp:148] Top shape: 24 32 7 7 (37632)
I0403 14:49:35.249136  2025 net.cpp:156] Memory required for data: 1299351072
I0403 14:49:35.249152  2025 layer_factory.hpp:77] Creating layer inception_5a/5x5
I0403 14:49:35.249174  2025 net.cpp:91] Creating Layer inception_5a/5x5
I0403 14:49:35.249193  2025 net.cpp:425] inception_5a/5x5 <- inception_5a/5x5_reduce
I0403 14:49:35.249219  2025 net.cpp:399] inception_5a/5x5 -> inception_5a/5x5
I0403 14:49:35.251049  2025 net.cpp:141] Setting up inception_5a/5x5
I0403 14:49:35.251094  2025 net.cpp:148] Top shape: 24 128 7 7 (150528)
I0403 14:49:35.251112  2025 net.cpp:156] Memory required for data: 1299953184
I0403 14:49:35.251132  2025 layer_factory.hpp:77] Creating layer inception_5a/relu_5x5
I0403 14:49:35.251150  2025 net.cpp:91] Creating Layer inception_5a/relu_5x5
I0403 14:49:35.251168  2025 net.cpp:425] inception_5a/relu_5x5 <- inception_5a/5x5
I0403 14:49:35.251188  2025 net.cpp:386] inception_5a/relu_5x5 -> inception_5a/5x5 (in-place)
I0403 14:49:35.251392  2025 net.cpp:141] Setting up inception_5a/relu_5x5
I0403 14:49:35.251420  2025 net.cpp:148] Top shape: 24 128 7 7 (150528)
I0403 14:49:35.251435  2025 net.cpp:156] Memory required for data: 1300555296
I0403 14:49:35.251451  2025 layer_factory.hpp:77] Creating layer inception_5a/pool
I0403 14:49:35.251471  2025 net.cpp:91] Creating Layer inception_5a/pool
I0403 14:49:35.251487  2025 net.cpp:425] inception_5a/pool <- pool4/3x3_s2_pool4/3x3_s2_0_split_3
I0403 14:49:35.251508  2025 net.cpp:399] inception_5a/pool -> inception_5a/pool
I0403 14:49:35.251582  2025 net.cpp:141] Setting up inception_5a/pool
I0403 14:49:35.251607  2025 net.cpp:148] Top shape: 24 832 7 7 (978432)
I0403 14:49:35.251622  2025 net.cpp:156] Memory required for data: 1304469024
I0403 14:49:35.251637  2025 layer_factory.hpp:77] Creating layer inception_5a/pool_proj
I0403 14:49:35.251662  2025 net.cpp:91] Creating Layer inception_5a/pool_proj
I0403 14:49:35.251680  2025 net.cpp:425] inception_5a/pool_proj <- inception_5a/pool
I0403 14:49:35.251700  2025 net.cpp:399] inception_5a/pool_proj -> inception_5a/pool_proj
I0403 14:49:35.254068  2025 net.cpp:141] Setting up inception_5a/pool_proj
I0403 14:49:35.254101  2025 net.cpp:148] Top shape: 24 128 7 7 (150528)
I0403 14:49:35.254119  2025 net.cpp:156] Memory required for data: 1305071136
I0403 14:49:35.254139  2025 layer_factory.hpp:77] Creating layer inception_5a/relu_pool_proj
I0403 14:49:35.254158  2025 net.cpp:91] Creating Layer inception_5a/relu_pool_proj
I0403 14:49:35.254175  2025 net.cpp:425] inception_5a/relu_pool_proj <- inception_5a/pool_proj
I0403 14:49:35.254194  2025 net.cpp:386] inception_5a/relu_pool_proj -> inception_5a/pool_proj (in-place)
I0403 14:49:35.254506  2025 net.cpp:141] Setting up inception_5a/relu_pool_proj
I0403 14:49:35.254536  2025 net.cpp:148] Top shape: 24 128 7 7 (150528)
I0403 14:49:35.254554  2025 net.cpp:156] Memory required for data: 1305673248
I0403 14:49:35.254568  2025 layer_factory.hpp:77] Creating layer inception_5a/output
I0403 14:49:35.254587  2025 net.cpp:91] Creating Layer inception_5a/output
I0403 14:49:35.254603  2025 net.cpp:425] inception_5a/output <- inception_5a/1x1
I0403 14:49:35.254621  2025 net.cpp:425] inception_5a/output <- inception_5a/3x3
I0403 14:49:35.254637  2025 net.cpp:425] inception_5a/output <- inception_5a/5x5
I0403 14:49:35.254654  2025 net.cpp:425] inception_5a/output <- inception_5a/pool_proj
I0403 14:49:35.254673  2025 net.cpp:399] inception_5a/output -> inception_5a/output
I0403 14:49:35.254726  2025 net.cpp:141] Setting up inception_5a/output
I0403 14:49:35.254751  2025 net.cpp:148] Top shape: 24 832 7 7 (978432)
I0403 14:49:35.254766  2025 net.cpp:156] Memory required for data: 1309586976
I0403 14:49:35.254781  2025 layer_factory.hpp:77] Creating layer inception_5a/output_inception_5a/output_0_split
I0403 14:49:35.254799  2025 net.cpp:91] Creating Layer inception_5a/output_inception_5a/output_0_split
I0403 14:49:35.254818  2025 net.cpp:425] inception_5a/output_inception_5a/output_0_split <- inception_5a/output
I0403 14:49:35.254837  2025 net.cpp:399] inception_5a/output_inception_5a/output_0_split -> inception_5a/output_inception_5a/output_0_split_0
I0403 14:49:35.254858  2025 net.cpp:399] inception_5a/output_inception_5a/output_0_split -> inception_5a/output_inception_5a/output_0_split_1
I0403 14:49:35.254880  2025 net.cpp:399] inception_5a/output_inception_5a/output_0_split -> inception_5a/output_inception_5a/output_0_split_2
I0403 14:49:35.254901  2025 net.cpp:399] inception_5a/output_inception_5a/output_0_split -> inception_5a/output_inception_5a/output_0_split_3
I0403 14:49:35.255019  2025 net.cpp:141] Setting up inception_5a/output_inception_5a/output_0_split
I0403 14:49:35.255044  2025 net.cpp:148] Top shape: 24 832 7 7 (978432)
I0403 14:49:35.255061  2025 net.cpp:148] Top shape: 24 832 7 7 (978432)
I0403 14:49:35.255076  2025 net.cpp:148] Top shape: 24 832 7 7 (978432)
I0403 14:49:35.255092  2025 net.cpp:148] Top shape: 24 832 7 7 (978432)
I0403 14:49:35.255106  2025 net.cpp:156] Memory required for data: 1325241888
I0403 14:49:35.255121  2025 layer_factory.hpp:77] Creating layer inception_5b/1x1
I0403 14:49:35.255144  2025 net.cpp:91] Creating Layer inception_5b/1x1
I0403 14:49:35.255162  2025 net.cpp:425] inception_5b/1x1 <- inception_5a/output_inception_5a/output_0_split_0
I0403 14:49:35.255184  2025 net.cpp:399] inception_5b/1x1 -> inception_5b/1x1
I0403 14:49:35.259155  2025 net.cpp:141] Setting up inception_5b/1x1
I0403 14:49:35.259186  2025 net.cpp:148] Top shape: 24 384 7 7 (451584)
I0403 14:49:35.259202  2025 net.cpp:156] Memory required for data: 1327048224
I0403 14:49:35.259227  2025 layer_factory.hpp:77] Creating layer inception_5b/relu_1x1
I0403 14:49:35.259249  2025 net.cpp:91] Creating Layer inception_5b/relu_1x1
I0403 14:49:35.259268  2025 net.cpp:425] inception_5b/relu_1x1 <- inception_5b/1x1
I0403 14:49:35.259286  2025 net.cpp:386] inception_5b/relu_1x1 -> inception_5b/1x1 (in-place)
I0403 14:49:35.259601  2025 net.cpp:141] Setting up inception_5b/relu_1x1
I0403 14:49:35.259629  2025 net.cpp:148] Top shape: 24 384 7 7 (451584)
I0403 14:49:35.259644  2025 net.cpp:156] Memory required for data: 1328854560
I0403 14:49:35.259660  2025 layer_factory.hpp:77] Creating layer inception_5b/3x3_reduce
I0403 14:49:35.259683  2025 net.cpp:91] Creating Layer inception_5b/3x3_reduce
I0403 14:49:35.259707  2025 net.cpp:425] inception_5b/3x3_reduce <- inception_5a/output_inception_5a/output_0_split_1
I0403 14:49:35.259728  2025 net.cpp:399] inception_5b/3x3_reduce -> inception_5b/3x3_reduce
I0403 14:49:35.262543  2025 net.cpp:141] Setting up inception_5b/3x3_reduce
I0403 14:49:35.262573  2025 net.cpp:148] Top shape: 24 192 7 7 (225792)
I0403 14:49:35.262593  2025 net.cpp:156] Memory required for data: 1329757728
I0403 14:49:35.262614  2025 layer_factory.hpp:77] Creating layer inception_5b/relu_3x3_reduce
I0403 14:49:35.262631  2025 net.cpp:91] Creating Layer inception_5b/relu_3x3_reduce
I0403 14:49:35.262648  2025 net.cpp:425] inception_5b/relu_3x3_reduce <- inception_5b/3x3_reduce
I0403 14:49:35.262666  2025 net.cpp:386] inception_5b/relu_3x3_reduce -> inception_5b/3x3_reduce (in-place)
I0403 14:49:35.262864  2025 net.cpp:141] Setting up inception_5b/relu_3x3_reduce
I0403 14:49:35.262893  2025 net.cpp:148] Top shape: 24 192 7 7 (225792)
I0403 14:49:35.262909  2025 net.cpp:156] Memory required for data: 1330660896
I0403 14:49:35.262925  2025 layer_factory.hpp:77] Creating layer inception_5b/3x3
I0403 14:49:35.262948  2025 net.cpp:91] Creating Layer inception_5b/3x3
I0403 14:49:35.262967  2025 net.cpp:425] inception_5b/3x3 <- inception_5b/3x3_reduce
I0403 14:49:35.262987  2025 net.cpp:399] inception_5b/3x3 -> inception_5b/3x3
I0403 14:49:35.270011  2025 net.cpp:141] Setting up inception_5b/3x3
I0403 14:49:35.270046  2025 net.cpp:148] Top shape: 24 384 7 7 (451584)
I0403 14:49:35.270063  2025 net.cpp:156] Memory required for data: 1332467232
I0403 14:49:35.270083  2025 layer_factory.hpp:77] Creating layer inception_5b/relu_3x3
I0403 14:49:35.270102  2025 net.cpp:91] Creating Layer inception_5b/relu_3x3
I0403 14:49:35.270119  2025 net.cpp:425] inception_5b/relu_3x3 <- inception_5b/3x3
I0403 14:49:35.270138  2025 net.cpp:386] inception_5b/relu_3x3 -> inception_5b/3x3 (in-place)
I0403 14:49:35.270473  2025 net.cpp:141] Setting up inception_5b/relu_3x3
I0403 14:49:35.270505  2025 net.cpp:148] Top shape: 24 384 7 7 (451584)
I0403 14:49:35.270537  2025 net.cpp:156] Memory required for data: 1334273568
I0403 14:49:35.270553  2025 layer_factory.hpp:77] Creating layer inception_5b/5x5_reduce
I0403 14:49:35.270593  2025 net.cpp:91] Creating Layer inception_5b/5x5_reduce
I0403 14:49:35.270613  2025 net.cpp:425] inception_5b/5x5_reduce <- inception_5a/output_inception_5a/output_0_split_2
I0403 14:49:35.270634  2025 net.cpp:399] inception_5b/5x5_reduce -> inception_5b/5x5_reduce
I0403 14:49:35.271956  2025 net.cpp:141] Setting up inception_5b/5x5_reduce
I0403 14:49:35.271986  2025 net.cpp:148] Top shape: 24 48 7 7 (56448)
I0403 14:49:35.272001  2025 net.cpp:156] Memory required for data: 1334499360
I0403 14:49:35.272020  2025 layer_factory.hpp:77] Creating layer inception_5b/relu_5x5_reduce
I0403 14:49:35.272042  2025 net.cpp:91] Creating Layer inception_5b/relu_5x5_reduce
I0403 14:49:35.272060  2025 net.cpp:425] inception_5b/relu_5x5_reduce <- inception_5b/5x5_reduce
I0403 14:49:35.272078  2025 net.cpp:386] inception_5b/relu_5x5_reduce -> inception_5b/5x5_reduce (in-place)
I0403 14:49:35.272469  2025 net.cpp:141] Setting up inception_5b/relu_5x5_reduce
I0403 14:49:35.272496  2025 net.cpp:148] Top shape: 24 48 7 7 (56448)
I0403 14:49:35.272512  2025 net.cpp:156] Memory required for data: 1334725152
I0403 14:49:35.272527  2025 layer_factory.hpp:77] Creating layer inception_5b/5x5
I0403 14:49:35.272548  2025 net.cpp:91] Creating Layer inception_5b/5x5
I0403 14:49:35.272567  2025 net.cpp:425] inception_5b/5x5 <- inception_5b/5x5_reduce
I0403 14:49:35.272585  2025 net.cpp:399] inception_5b/5x5 -> inception_5b/5x5
I0403 14:49:35.274778  2025 net.cpp:141] Setting up inception_5b/5x5
I0403 14:49:35.274811  2025 net.cpp:148] Top shape: 24 128 7 7 (150528)
I0403 14:49:35.274827  2025 net.cpp:156] Memory required for data: 1335327264
I0403 14:49:35.274847  2025 layer_factory.hpp:77] Creating layer inception_5b/relu_5x5
I0403 14:49:35.274868  2025 net.cpp:91] Creating Layer inception_5b/relu_5x5
I0403 14:49:35.274885  2025 net.cpp:425] inception_5b/relu_5x5 <- inception_5b/5x5
I0403 14:49:35.274906  2025 net.cpp:386] inception_5b/relu_5x5 -> inception_5b/5x5 (in-place)
I0403 14:49:35.275115  2025 net.cpp:141] Setting up inception_5b/relu_5x5
I0403 14:49:35.275142  2025 net.cpp:148] Top shape: 24 128 7 7 (150528)
I0403 14:49:35.275158  2025 net.cpp:156] Memory required for data: 1335929376
I0403 14:49:35.275176  2025 layer_factory.hpp:77] Creating layer inception_5b/pool
I0403 14:49:35.275197  2025 net.cpp:91] Creating Layer inception_5b/pool
I0403 14:49:35.275220  2025 net.cpp:425] inception_5b/pool <- inception_5a/output_inception_5a/output_0_split_3
I0403 14:49:35.275244  2025 net.cpp:399] inception_5b/pool -> inception_5b/pool
I0403 14:49:35.275323  2025 net.cpp:141] Setting up inception_5b/pool
I0403 14:49:35.275349  2025 net.cpp:148] Top shape: 24 832 7 7 (978432)
I0403 14:49:35.275365  2025 net.cpp:156] Memory required for data: 1339843104
I0403 14:49:35.275380  2025 layer_factory.hpp:77] Creating layer inception_5b/pool_proj
I0403 14:49:35.275403  2025 net.cpp:91] Creating Layer inception_5b/pool_proj
I0403 14:49:35.275423  2025 net.cpp:425] inception_5b/pool_proj <- inception_5b/pool
I0403 14:49:35.275445  2025 net.cpp:399] inception_5b/pool_proj -> inception_5b/pool_proj
I0403 14:49:35.277901  2025 net.cpp:141] Setting up inception_5b/pool_proj
I0403 14:49:35.277937  2025 net.cpp:148] Top shape: 24 128 7 7 (150528)
I0403 14:49:35.277956  2025 net.cpp:156] Memory required for data: 1340445216
I0403 14:49:35.277976  2025 layer_factory.hpp:77] Creating layer inception_5b/relu_pool_proj
I0403 14:49:35.277995  2025 net.cpp:91] Creating Layer inception_5b/relu_pool_proj
I0403 14:49:35.278012  2025 net.cpp:425] inception_5b/relu_pool_proj <- inception_5b/pool_proj
I0403 14:49:35.278035  2025 net.cpp:386] inception_5b/relu_pool_proj -> inception_5b/pool_proj (in-place)
I0403 14:49:35.278357  2025 net.cpp:141] Setting up inception_5b/relu_pool_proj
I0403 14:49:35.278388  2025 net.cpp:148] Top shape: 24 128 7 7 (150528)
I0403 14:49:35.278404  2025 net.cpp:156] Memory required for data: 1341047328
I0403 14:49:35.278420  2025 layer_factory.hpp:77] Creating layer inception_5b/output
I0403 14:49:35.278439  2025 net.cpp:91] Creating Layer inception_5b/output
I0403 14:49:35.278475  2025 net.cpp:425] inception_5b/output <- inception_5b/1x1
I0403 14:49:35.278493  2025 net.cpp:425] inception_5b/output <- inception_5b/3x3
I0403 14:49:35.278511  2025 net.cpp:425] inception_5b/output <- inception_5b/5x5
I0403 14:49:35.278527  2025 net.cpp:425] inception_5b/output <- inception_5b/pool_proj
I0403 14:49:35.278547  2025 net.cpp:399] inception_5b/output -> inception_5b/output
I0403 14:49:35.278604  2025 net.cpp:141] Setting up inception_5b/output
I0403 14:49:35.278630  2025 net.cpp:148] Top shape: 24 1024 7 7 (1204224)
I0403 14:49:35.278645  2025 net.cpp:156] Memory required for data: 1345864224
I0403 14:49:35.278661  2025 layer_factory.hpp:77] Creating layer pool5/7x7_s1
I0403 14:49:35.278682  2025 net.cpp:91] Creating Layer pool5/7x7_s1
I0403 14:49:35.278700  2025 net.cpp:425] pool5/7x7_s1 <- inception_5b/output
I0403 14:49:35.278722  2025 net.cpp:399] pool5/7x7_s1 -> pool5/7x7_s1
I0403 14:49:35.278952  2025 net.cpp:141] Setting up pool5/7x7_s1
I0403 14:49:35.278982  2025 net.cpp:148] Top shape: 24 1024 1 1 (24576)
I0403 14:49:35.279000  2025 net.cpp:156] Memory required for data: 1345962528
I0403 14:49:35.279016  2025 layer_factory.hpp:77] Creating layer pool5/drop_7x7_s1
I0403 14:49:35.279034  2025 net.cpp:91] Creating Layer pool5/drop_7x7_s1
I0403 14:49:35.279052  2025 net.cpp:425] pool5/drop_7x7_s1 <- pool5/7x7_s1
I0403 14:49:35.279072  2025 net.cpp:386] pool5/drop_7x7_s1 -> pool5/7x7_s1 (in-place)
I0403 14:49:35.279126  2025 net.cpp:141] Setting up pool5/drop_7x7_s1
I0403 14:49:35.279151  2025 net.cpp:148] Top shape: 24 1024 1 1 (24576)
I0403 14:49:35.279167  2025 net.cpp:156] Memory required for data: 1346060832
I0403 14:49:35.279182  2025 layer_factory.hpp:77] Creating layer loss3/classifier_plantvillage
I0403 14:49:35.279206  2025 net.cpp:91] Creating Layer loss3/classifier_plantvillage
I0403 14:49:35.279229  2025 net.cpp:425] loss3/classifier_plantvillage <- pool5/7x7_s1
I0403 14:49:35.279253  2025 net.cpp:399] loss3/classifier_plantvillage -> loss3/classifier_plantvillage
I0403 14:49:35.279711  2025 net.cpp:141] Setting up loss3/classifier_plantvillage
I0403 14:49:35.279737  2025 net.cpp:148] Top shape: 24 38 (912)
I0403 14:49:35.279753  2025 net.cpp:156] Memory required for data: 1346064480
I0403 14:49:35.279772  2025 layer_factory.hpp:77] Creating layer loss3/classifier_plantvillage_loss3/classifier_plantvillage_0_split
I0403 14:49:35.279796  2025 net.cpp:91] Creating Layer loss3/classifier_plantvillage_loss3/classifier_plantvillage_0_split
I0403 14:49:35.279815  2025 net.cpp:425] loss3/classifier_plantvillage_loss3/classifier_plantvillage_0_split <- loss3/classifier_plantvillage
I0403 14:49:35.279834  2025 net.cpp:399] loss3/classifier_plantvillage_loss3/classifier_plantvillage_0_split -> loss3/classifier_plantvillage_loss3/classifier_plantvillage_0_split_0
I0403 14:49:35.279856  2025 net.cpp:399] loss3/classifier_plantvillage_loss3/classifier_plantvillage_0_split -> loss3/classifier_plantvillage_loss3/classifier_plantvillage_0_split_1
I0403 14:49:35.279878  2025 net.cpp:399] loss3/classifier_plantvillage_loss3/classifier_plantvillage_0_split -> loss3/classifier_plantvillage_loss3/classifier_plantvillage_0_split_2
I0403 14:49:35.279901  2025 net.cpp:399] loss3/classifier_plantvillage_loss3/classifier_plantvillage_0_split -> loss3/classifier_plantvillage_loss3/classifier_plantvillage_0_split_3
I0403 14:49:35.280009  2025 net.cpp:141] Setting up loss3/classifier_plantvillage_loss3/classifier_plantvillage_0_split
I0403 14:49:35.280033  2025 net.cpp:148] Top shape: 24 38 (912)
I0403 14:49:35.280051  2025 net.cpp:148] Top shape: 24 38 (912)
I0403 14:49:35.280067  2025 net.cpp:148] Top shape: 24 38 (912)
I0403 14:49:35.280084  2025 net.cpp:148] Top shape: 24 38 (912)
I0403 14:49:35.280099  2025 net.cpp:156] Memory required for data: 1346079072
I0403 14:49:35.280114  2025 layer_factory.hpp:77] Creating layer loss1/loss
I0403 14:49:35.280136  2025 net.cpp:91] Creating Layer loss1/loss
I0403 14:49:35.280154  2025 net.cpp:425] loss1/loss <- loss1/classifier_plantvillage_loss1/classifier_plantvillage_0_split_0
I0403 14:49:35.280189  2025 net.cpp:425] loss1/loss <- label_data_1_split_0
…
