…
I0403 14:10:36.794389   952 net.cpp:313] The NetState phase (1) differed from the phase (0) specified by a rule in layer data
I0403 14:10:36.795624   952 net.cpp:49] Initializing net from parameters: 
state {
  phase: TEST
}
layer {
  name: "data"
  type: "Data"
  top: "data"
  top: "label"
  include {
    phase: TEST
  }
  transform_param {
    mirror: false
    crop_size: 224
    mean_file: "/home/mohanty/data/final_dataset/lmdb/grayscale-20-80/mean.binaryproto"
  }
  data_param {
    source: "/home/mohanty/data/final_dataset/lmdb/grayscale-20-80/test_db"
    batch_size: 24
    backend: LMDB
  }
}
layer {
  name: "conv1/7x7_s2"
  type: "Convolution"
  bottom: "data"
  top: "conv1/7x7_s2"
  param {
    lr_mult: 1
    decay_mult: 1
  }
  param {
    lr_mult: 2
    decay_mult: 0
  }
  convolution_param {
    num_output: 64
    pad: 3
    kernel_size: 7
    stride: 2
    weight_filler {
      type: "xavier"
      std: 0.1
    }
    bias_filler {
      type: "constant"
      value: 0.2
    }
  }
}
layer {
  name: "conv1/relu_7x7"
  type: "ReLU"
  bottom: "conv1/7x7_s2"
  top: "conv1/7x7_s2"
}
layer {
  name: "pool1/3x3_s2"
  type: "Pooling"
  bottom: "conv1/7x7_s2"
  top: "pool1/3x3_s2"
  pooling_param {
    pool: MAX
    kernel_size: 3
    stride: 2
  }
}
layer {
  name: "pool1/norm1"
  type: "LRN"
  bottom: "pool1/3x3_s2"
  top: "pool1/norm1"
  lrn_param {
    local_size: 5
    alpha: 0.0001
    beta: 0.75
  }
}
layer {
  name: "conv2/3x3_reduce"
  type: "Convolution"
  bottom: "pool1/norm1"
  top: "conv2/3x3_reduce"
  param {
    lr_mult: 1
    decay_mult: 1
  }
  param {
    lr_mult: 2
    decay_mult: 0
  }
  convolution_param {
    num_output: 64
    kernel_size: 1
    weight_filler {
      type: "xavier"
      std: 0.1
    }
    bias_filler {
      type: "constant"
      value: 0.2
    }
  }
}
layer {
  name: "conv2/relu_3x3_reduce"
  type: "ReLU"
  bottom: "conv2/3x3_reduce"
  top: "conv2/3x3_reduce"
}
layer {
  name: "conv2/3x3"
  type: "Convolution"
  bottom: "conv2/3x3_reduce"
  top: "conv2/3x3"
  param {
    lr_mult: 1
    decay_mult: 1
  }
  param {
    lr_mult: 2
    decay_mult: 0
  }
  convolution_param {
    num_output: 192
    pad: 1
    kernel_size: 3
    weight_filler {
      type: "xavier"
      std: 0.03
    }
    bias_filler {
      type: "constant"
      value: 0.2
    }
  }
}
layer {
  name: "conv2/relu_3x3"
  type: "ReLU"
  bottom: "conv2/3x3"
  top: "conv2/3x3"
}
layer {
  name: "conv2/norm2"
  type: "LRN"
  bottom: "conv2/3x3"
  top: "conv2/norm2"
  lrn_param {
    local_size: 5
    alpha: 0.0001
    beta: 0.75
  }
}
layer {
  name: "pool2/3x3_s2"
  type: "Pooling"
  bottom: "conv2/norm2"
  top: "pool2/3x3_s2"
  pooling_param {
    pool: MAX
    kernel_size: 3
    stride: 2
  }
}
layer {
  name: "inception_3a/1x1"
  type: "Convolution"
  bottom: "pool2/3x3_s2"
  top: "inception_3a/1x1"
  param {
    lr_mult: 1
    decay_mult: 1
  }
  param {
    lr_mult: 2
    decay_mult: 0
  }
  convolution_param {
    num_output: 64
    kernel_size: 1
    weight_filler {
      type: "xavier"
      std: 0.03
    }
    bias_filler {
      type: "constant"
      value: 0.2
    }
  }
}
layer {
  name: "inception_3a/relu_1x1"
  type: "ReLU"
  bottom: "inception_3a/1x1"
  top: "inception_3a/1x1"
}
layer {
  name: "inception_3a/3x3_reduce"
  type: "Convolution"
  bottom: "pool2/3x3_s2"
  top: "inception_3a/3x3_reduce"
  param {
    lr_mult: 1
    decay_mult: 1
  }
  param {
    lr_mult: 2
    decay_mult: 0
  }
  convolution_param {
    num_output: 96
    kernel_size: 1
    weight_filler {
      type: "xavier"
      std: 0.09
    }
    bias_filler {
      type: "constant"
      value: 0.2
    }
  }
}
layer {
  name: "inception_3a/relu_3x3_reduce"
  type: "ReLU"
  bottom: "inception_3a/3x3_reduce"
  top: "inception_3a/3x3_reduce"
}
layer {
  name: "inception_3a/3x3"
  type: "Convolution"
  bottom: "inception_3a/3x3_reduce"
  top: "inception_3a/3x3"
  param {
    lr_mult: 1
    decay_mult: 1
  }
  param {
    lr_mult: 2
    decay_mult: 0
  }
  convolution_param {
    num_output: 128
    pad: 1
    kernel_size: 3
    weight_filler {
      type: "xavier"
      std: 0.03
    }
    bias_filler {
      type: "constant"
      value: 0.2
    }
  }
}
layer {
  name: "inception_3a/relu_3x3"
  type: "ReLU"
  bottom: "inception_3a/3x3"
  top: "inception_3a/3x3"
}
layer {
  name: "inception_3a/5x5_reduce"
  type: "Convolution"
  bottom: "pool2/3x3_s2"
  top: "inception_3a/5x5_reduce"
  param {
    lr_mult: 1
    decay_mult: 1
  }
  param {
    lr_mult: 2
    decay_mult: 0
  }
  convolution_param {
    num_output: 16
    kernel_size: 1
    weight_filler {
      type: "xavier"
      std: 0.2
    }
    bias_filler {
      type: "constant"
      value: 0.2
    }
  }
}
layer {
  name: "inception_3a/relu_5x5_reduce"
  type: "ReLU"
  bottom: "inception_3a/5x5_reduce"
  top: "inception_3a/5x5_reduce"
}
layer {
  name: "inception_3a/5x5"
  type: "Convolution"
  bottom: "inception_3a/5x5_reduce"
  top: "inception_3a/5x5"
  param {
    lr_mult: 1
    decay_mult: 1
  }
  param {
    lr_mult: 2
    decay_mult: 0
  }
  convolution_param {
    num_output: 32
    pad: 2
    kernel_size: 5
    weight_filler {
      type: "xavier"
      std: 0.03
    }
    bias_filler {
      type: "constant"
      value: 0.2
    }
  }
}
layer {
  name: "inception_3a/relu_5x5"
  type: "ReLU"
  bottom: "inception_3a/5x5"
  top: "inception_3a/5x5"
}
layer {
  name: "inception_3a/pool"
  type: "Pooling"
  bottom: "pool2/3x3_s2"
  top: "inception_3a/pool"
  pooling_param {
    pool: MAX
    kernel_size: 3
    stride: 1
    pad: 1
  }
}
layer {
  name: "inception_3a/pool_proj"
  type: "Convolution"
  bottom: "inception_3a/pool"
  top: "inception_3a/pool_proj"
  param {
    lr_mult: 1
    decay_mult: 1
  }
  param {
    lr_mult: 2
    decay_mult: 0
  }
  convolution_param {
    num_output: 32
    kernel_size: 1
    weight_filler {
      type: "xavier"
      std: 0.1
    }
    bias_filler {
      type: "constant"
      value: 0.2
    }
  }
}
layer {
  name: "inception_3a/relu_pool_proj"
  type: "ReLU"
  bottom: "inception_3a/pool_proj"
  top: "inception_3a/pool_proj"
}
layer {
  name: "inception_3a/output"
  type: "Concat"
  bottom: "inception_3a/1x1"
  bottom: "inception_3a/3x3"
  bottom: "inception_3a/5x5"
  bottom: "inception_3a/pool_proj"
  top: "inception_3a/output"
}
layer {
  name: "inception_3b/1x1"
  type: "Convolution"
  bottom: "inception_3a/output"
  top: "inception_3b/1x1"
  param {
    lr_mult: 1
    decay_mult: 1
  }
  param {
    lr_mult: 2
    decay_mult: 0
  }
  convolution_param {
    num_output: 128
    kernel_size: 1
    weight_filler {
      type: "xavier"
      std: 0.03
    }
    bias_filler {
      type: "constant"
      value: 0.2
    }
  }
}
layer {
  name: "inception_3b/relu_1x1"
  type: "ReLU"
  bottom: "inception_3b/1x1"
  top: "inception_3b/1x1"
}
layer {
  name: "inception_3b/3x3_reduce"
  type: "Convolution"
  bottom: "inception_3a/output"
  top: "inception_3b/3x3_reduce"
  param {
    lr_mult: 1
    decay_mult: 1
  }
  param {
    lr_mult: 2
    decay_mult: 0
  }
  convolution_param {
    num_output: 128
    kernel_size: 1
    weight_filler {
      type: "xavier"
      std: 0.09
    }
    bias_filler {
      type: "constant"
      value: 0.2
    }
  }
}
layer {
  name: "inception_3b/relu_3x3_reduce"
  type: "ReLU"
  bottom: "inception_3b/3x3_reduce"
  top: "inception_3b/3x3_reduce"
}
layer {
  name: "inception_3b/3x3"
  type: "Convolution"
  bottom: "inception_3b/3x3_reduce"
  top: "inception_3b/3x3"
  param {
    lr_mult: 1
    decay_mult: 1
  }
  param {
    lr_mult: 2
    decay_mult: 0
  }
  convolution_param {
    num_output: 192
    pad: 1
    kernel_size: 3
    weight_filler {
      type: "xavier"
      std: 0.03
    }
    bias_filler {
      type: "constant"
      value: 0.2
    }
  }
}
layer {
  name: "inception_3b/relu_3x3"
  type: "ReLU"
  bottom: "inception_3b/3x3"
  top: "inception_3b/3x3"
}
layer {
  name: "inception_3b/5x5_reduce"
  type: "Convolution"
  bottom: "inception_3a/output"
  top: "inception_3b/5x5_reduce"
  param {
    lr_mult: 1
    decay_mult: 1
  }
  param {
    lr_mult: 2
    decay_mult: 0
  }
  convolution_param {
    num_output: 32
    kernel_size: 1
    weight_filler {
      type: "xavier"
      std: 0.2
    }
    bias_filler {
      type: "constant"
      value: 0.2
    }
  }
}
layer {
  name: "inception_3b/relu_5x5_reduce"
  type: "ReLU"
  bottom: "inception_3b/5x5_reduce"
  top: "inception_3b/5x5_reduce"
}
layer {
  name: "inception_3b/5x5"
  type: "Convolution"
  bottom: "inception_3b/5x5_reduce"
  top: "inception_3b/5x5"
  param {
    lr_mult: 1
    decay_mult: 1
  }
  param {
    lr_mult: 2
    decay_mult: 0
  }
  convolution_param {
    num_output: 96
    pad: 2
    kernel_size: 5
    weight_filler {
      type: "xavier"
      std: 0.03
    }
    bias_filler {
      type: "constant"
      value: 0.2
    }
  }
}
layer {
  name: "inception_3b/relu_5x5"
  type: "ReLU"
  bottom: "inception_3b/5x5"
  top: "inception_3b/5x5"
}
layer {
  name: "inception_3b/pool"
  type: "Pooling"
  bottom: "inception_3a/output"
  top: "inception_3b/pool"
  pooling_param {
    pool: MAX
    kernel_size: 3
    stride: 1
    pad: 1
  }
}
layer {
  name: "inception_3b/pool_proj"
  type: "Convolution"
  bottom: "inception_3b/pool"
  top: "inception_3b/pool_proj"
  param {
    lr_mult: 1
    decay_mult: 1
  }
  param {
    lr_mult: 2
    decay_mult: 0
  }
  convolution_param {
    num_output: 64
    kernel_size: 1
    weight_filler {
      type: "xavier"
      std: 0.1
    }
    bias_filler {
      type: "constant"
      value: 0.2
    }
  }
}
layer {
  name: "inception_3b/relu_pool_proj"
  type: "ReLU"
  bottom: "inception_3b/pool_proj"
  top: "inception_3b/pool_proj"
}
layer {
  name: "inception_3b/output"
  type: "Concat"
  bottom: "inception_3b/1x1"
  bottom: "inception_3b/3x3"
  bottom: "inception_3b/5x5"
  bottom: "inception_3b/pool_proj"
  top: "inception_3b/output"
}
layer {
  name: "pool3/3x3_s2"
  type: "Pooling"
  bottom: "inception_3b/output"
  top: "pool3/3x3_s2"
  pooling_param {
    pool: MAX
    kernel_size: 3
    stride: 2
  }
}
layer {
  name: "inception_4a/1x1"
  type: "Convolution"
  bottom: "pool3/3x3_s2"
  top: "inception_4a/1x1"
  param {
    lr_mult: 1
    decay_mult: 1
  }
  param {
    lr_mult: 2
    decay_mult: 0
  }
  convolution_param {
    num_output: 192
    kernel_size: 1
    weight_filler {
      type: "xavier"
      std: 0.03
    }
    bias_filler {
      type: "constant"
      value: 0.2
    }
  }
}
layer {
  name: "inception_4a/relu_1x1"
  type: "ReLU"
  bottom: "inception_4a/1x1"
  top: "inception_4a/1x1"
}
layer {
  name: "inception_4a/3x3_reduce"
  type: "Convolution"
  bottom: "pool3/3x3_s2"
  top: "inception_4a/3x3_reduce"
  param {
    lr_mult: 1
    decay_mult: 1
  }
  param {
    lr_mult: 2
    decay_mult: 0
  }
  convolution_param {
    num_output: 96
    kernel_size: 1
    weight_filler {
      type: "xavier"
      std: 0.09
    }
    bias_filler {
      type: "constant"
      value: 0.2
    }
  }
}
layer {
  name: "inception_4a/relu_3x3_reduce"
  type: "ReLU"
  bottom: "inception_4a/3x3_reduce"
  top: "inception_4a/3x3_reduce"
}
layer {
  name: "inception_4a/3x3"
  type: "Convolution"
  bottom: "inception_4a/3x3_reduce"
  top: "inception_4a/3x3"
  param {
    lr_mult: 1
    decay_mult: 1
  }
  param {
    lr_mult: 2
    decay_mult: 0
  }
  convolution_param {
    num_output: 208
    pad: 1
    kernel_size: 3
    weight_filler {
      type: "xavier"
      std: 0.03
    }
    bias_filler {
      type: "constant"
      value: 0.2
    }
  }
}
layer {
  name: "inception_4a/relu_3x3"
  type: "ReLU"
  bottom: "inception_4a/3x3"
  top: "inception_4a/3x3"
}
layer {
  name: "inception_4a/5x5_reduce"
  type: "Convolution"
  bottom: "pool3/3x3_s2"
  top: "inception_4a/5x5_reduce"
  param {
    lr_mult: 1
    decay_mult: 1
  }
  param {
    lr_mult: 2
    decay_mult: 0
  }
  convolution_param {
    num_output: 16
    kernel_size: 1
    weight_filler {
      type: "xavier"
      std: 0.2
    }
    bias_filler {
      type: "constant"
      value: 0.2
    }
  }
}
layer {
  name: "inception_4a/relu_5x5_reduce"
  type: "ReLU"
  bottom: "inception_4a/5x5_reduce"
  top: "inception_4a/5x5_reduce"
}
layer {
  name: "inception_4a/5x5"
  type: "Convolution"
  bottom: "inception_4a/5x5_reduce"
  top: "inception_4a/5x5"
  param {
    lr_mult: 1
    decay_mult: 1
  }
  param {
    lr_mult: 2
    decay_mult: 0
  }
  convolution_param {
    num_output: 48
    pad: 2
    kernel_size: 5
    weight_filler {
      type: "xavier"
      std: 0.03
    }
    bias_filler {
      type: "constant"
      value: 0.2
    }
  }
}
layer {
  name: "inception_4a/relu_5x5"
  type: "ReLU"
  bottom: "inception_4a/5x5"
  top: "inception_4a/5x5"
}
layer {
  name: "inception_4a/pool"
  type: "Pooling"
  bottom: "pool3/3x3_s2"
  top: "inception_4a/pool"
  pooling_param {
    pool: MAX
    kernel_size: 3
    stride: 1
    pad: 1
  }
}
layer {
  name: "inception_4a/pool_proj"
  type: "Convolution"
  bottom: "inception_4a/pool"
  top: "inception_4a/pool_proj"
  param {
    lr_mult: 1
    decay_mult: 1
  }
  param {
    lr_mult: 2
    decay_mult: 0
  }
  convolution_param {
    num_output: 64
    kernel_size: 1
    weight_filler {
      type: "xavier"
      std: 0.1
    }
    bias_filler {
      type: "constant"
      value: 0.2
    }
  }
}
layer {
  name: "inception_4a/relu_pool_proj"
  type: "ReLU"
  bottom: "inception_4a/pool_proj"
  top: "inception_4a/pool_proj"
}
layer {
  name: "inception_4a/output"
  type: "Concat"
  bottom: "inception_4a/1x1"
  bottom: "inception_4a/3x3"
  bottom: "inception_4a/5x5"
  bottom: "inception_4a/pool_proj"
  top: "inception_4a/output"
}
layer {
  name: "loss1/ave_pool"
  type: "Pooling"
  bottom: "inception_4a/output"
  top: "loss1/ave_pool"
  pooling_param {
    pool: AVE
    kernel_size: 5
    stride: 3
  }
}
layer {
  name: "loss1/conv"
  type: "Convolution"
  bottom: "loss1/ave_pool"
  top: "loss1/conv"
  param {
    lr_mult: 1
    decay_mult: 1
  }
  param {
    lr_mult: 2
    decay_mult: 0
  }
  convolution_param {
    num_output: 128
    kernel_size: 1
    weight_filler {
      type: "xavier"
      std: 0.08
    }
    bias_filler {
      type: "constant"
      value: 0.2
    }
  }
}
layer {
  name: "loss1/relu_conv"
  type: "ReLU"
  bottom: "loss1/conv"
  top: "loss1/conv"
}
layer {
  name: "loss1/fc"
  type: "InnerProduct"
  bottom: "loss1/conv"
  top: "loss1/fc"
  param {
    lr_mult: 1
    decay_mult: 1
  }
  param {
    lr_mult: 2
    decay_mult: 0
  }
  inner_product_param {
    num_output: 1024
    weight_filler {
      type: "xavier"
      std: 0.02
    }
    bias_filler {
      type: "constant"
      value: 0.2
    }
  }
}
layer {
  name: "loss1/relu_fc"
  type: "ReLU"
  bottom: "loss1/fc"
  top: "loss1/fc"
}
layer {
  name: "loss1/drop_fc"
  type: "Dropout"
  bottom: "loss1/fc"
  top: "loss1/fc"
  dropout_param {
    dropout_ratio: 0.7
  }
}
layer {
  name: "loss1/classifier_plantvillage"
  type: "InnerProduct"
  bottom: "loss1/fc"
  top: "loss1/classifier_plantvillage"
  param {
    lr_mult: 1
    decay_mult: 1
  }
  param {
    lr_mult: 2
    decay_mult: 0
  }
  inner_product_param {
    num_output: 38
    weight_filler {
      type: "xavier"
      std: 0.0009765625
    }
    bias_filler {
      type: "constant"
      value: 0
    }
  }
}
layer {
  name: "inception_4b/1x1"
  type: "Convolution"
  bottom: "inception_4a/output"
  top: "inception_4b/1x1"
  param {
    lr_mult: 1
    decay_mult: 1
  }
  param {
    lr_mult: 2
    decay_mult: 0
  }
  convolution_param {
    num_output: 160
    kernel_size: 1
    weight_filler {
      type: "xavier"
      std: 0.03
    }
    bias_filler {
      type: "constant"
      value: 0.2
    }
  }
}
layer {
  name: "inception_4b/relu_1x1"
  type: "ReLU"
  bottom: "inception_4b/1x1"
  top: "inception_4b/1x1"
}
layer {
  name: "inception_4b/3x3_reduce"
  type: "Convolution"
  bottom: "inception_4a/output"
  top: "inception_4b/3x3_reduce"
  param {
    lr_mult: 1
    decay_mult: 1
  }
  param {
    lr_mult: 2
    decay_mult: 0
  }
  convolution_param {
    num_output: 112
    kernel_size: 1
    weight_filler {
      type: "xavier"
      std: 0.09
    }
    bias_filler {
      type: "constant"
      value: 0.2
    }
  }
}
layer {
  name: "inception_4b/relu_3x3_reduce"
  type: "ReLU"
  bottom: "inception_4b/3x3_reduce"
  top: "inception_4b/3x3_reduce"
}
layer {
  name: "inception_4b/3x3"
  type: "Convolution"
  bottom: "inception_4b/3x3_reduce"
  top: "inception_4b/3x3"
  param {
    lr_mult: 1
    decay_mult: 1
  }
  param {
    lr_mult: 2
    decay_mult: 0
  }
  convolution_param {
    num_output: 224
    pad: 1
    kernel_size: 3
    weight_filler {
      type: "xavier"
      std: 0.03
    }
    bias_filler {
      type: "constant"
      value: 0.2
    }
  }
}
layer {
  name: "inception_4b/relu_3x3"
  type: "ReLU"
  bottom: "inception_4b/3x3"
  top: "inception_4b/3x3"
}
layer {
  name: "inception_4b/5x5_reduce"
  type: "Convolution"
  bottom: "inception_4a/output"
  top: "inception_4b/5x5_reduce"
  param {
    lr_mult: 1
    decay_mult: 1
  }
  param {
    lr_mult: 2
    decay_mult: 0
  }
  convolution_param {
    num_output: 24
    kernel_size: 1
    weight_filler {
      type: "xavier"
      std: 0.2
    }
    bias_filler {
      type: "constant"
      value: 0.2
    }
  }
}
layer {
  name: "inception_4b/relu_5x5_reduce"
  type: "ReLU"
  bottom: "inception_4b/5x5_reduce"
  top: "inception_4b/5x5_reduce"
}
layer {
  name: "inception_4b/5x5"
  type: "Convolution"
  bottom: "inception_4b/5x5_reduce"
  top: "inception_4b/5x5"
  param {
    lr_mult: 1
    decay_mult: 1
  }
  param {
    lr_mult: 2
    decay_mult: 0
  }
  convolution_param {
    num_output: 64
    pad: 2
    kernel_size: 5
    weight_filler {
      type: "xavier"
      std: 0.03
    }
    bias_filler {
      type: "constant"
      value: 0.2
    }
  }
}
layer {
  name: "inception_4b/relu_5x5"
  type: "ReLU"
  bottom: "inception_4b/5x5"
  top: "inception_4b/5x5"
}
layer {
  name: "inception_4b/pool"
  type: "Pooling"
  bottom: "inception_4a/output"
  top: "inception_4b/pool"
  pooling_param {
    pool: MAX
    kernel_size: 3
    stride: 1
    pad: 1
  }
}
layer {
  name: "inception_4b/pool_proj"
  type: "Convolution"
  bottom: "inception_4b/pool"
  top: "inception_4b/pool_proj"
  param {
    lr_mult: 1
    decay_mult: 1
  }
  param {
    lr_mult: 2
    decay_mult: 0
  }
  convolution_param {
    num_output: 64
    kernel_size: 1
    weight_filler {
      type: "xavier"
      std: 0.1
    }
    bias_filler {
      type: "constant"
      value: 0.2
    }
  }
}
layer {
  name: "inception_4b/relu_pool_proj"
  type: "ReLU"
  bottom: "inception_4b/pool_proj"
  top: "inception_4b/pool_proj"
}
layer {
  name: "inception_4b/output"
  type: "Concat"
  bottom: "inception_4b/1x1"
  bottom: "inception_4b/3x3"
  bottom: "inception_4b/5x5"
  bottom: "inception_4b/pool_proj"
  top: "inception_4b/output"
}
layer {
  name: "inception_4c/1x1"
  type: "Convolution"
  bottom: "inception_4b/output"
  top: "inception_4c/1x1"
  param {
    lr_mult: 1
    decay_mult: 1
  }
  param {
    lr_mult: 2
    decay_mult: 0
  }
  convolution_param {
    num_output: 128
    kernel_size: 1
    weight_filler {
      type: "xavier"
      std: 0.03
    }
    bias_filler {
      type: "constant"
      value: 0.2
    }
  }
}
layer {
  name: "inception_4c/relu_1x1"
  type: "ReLU"
  bottom: "inception_4c/1x1"
  top: "inception_4c/1x1"
}
layer {
  name: "inception_4c/3x3_reduce"
  type: "Convolution"
  bottom: "inception_4b/output"
  top: "inception_4c/3x3_reduce"
  param {
    lr_mult: 1
    decay_mult: 1
  }
  param {
    lr_mult: 2
    decay_mult: 0
  }
  convolution_param {
    num_output: 128
    kernel_size: 1
    weight_filler {
      type: "xavier"
      std: 0.09
    }
    bias_filler {
      type: "constant"
      value: 0.2
    }
  }
}
layer {
  name: "inception_4c/relu_3x3_reduce"
  type: "ReLU"
  bottom: "inception_4c/3x3_reduce"
  top: "inception_4c/3x3_reduce"
}
layer {
  name: "inception_4c/3x3"
  type: "Convolution"
  bottom: "inception_4c/3x3_reduce"
  top: "inception_4c/3x3"
  param {
    lr_mult: 1
    decay_mult: 1
  }
  param {
    lr_mult: 2
    decay_mult: 0
  }
  convolution_param {
    num_output: 256
    pad: 1
    kernel_size: 3
    weight_filler {
      type: "xavier"
      std: 0.03
    }
    bias_filler {
      type: "constant"
      value: 0.2
    }
  }
}
layer {
  name: "inception_4c/relu_3x3"
  type: "ReLU"
  bottom: "inception_4c/3x3"
  top: "inception_4c/3x3"
}
layer {
  name: "inception_4c/5x5_reduce"
  type: "Convolution"
  bottom: "inception_4b/output"
  top: "inception_4c/5x5_reduce"
  param {
    lr_mult: 1
    decay_mult: 1
  }
  param {
    lr_mult: 2
    decay_mult: 0
  }
  convolution_param {
    num_output: 24
    kernel_size: 1
    weight_filler {
      type: "xavier"
      std: 0.2
    }
    bias_filler {
      type: "constant"
      value: 0.2
    }
  }
}
layer {
  name: "inception_4c/relu_5x5_reduce"
  type: "ReLU"
  bottom: "inception_4c/5x5_reduce"
  top: "inception_4c/5x5_reduce"
}
layer {
  name: "inception_4c/5x5"
  type: "Convolution"
  bottom: "inception_4c/5x5_reduce"
  top: "inception_4c/5x5"
  param {
    lr_mult: 1
    decay_mult: 1
  }
  param {
    lr_mult: 2
    decay_mult: 0
  }
  convolution_param {
    num_output: 64
    pad: 2
    kernel_size: 5
    weight_filler {
      type: "xavier"
      std: 0.03
    }
    bias_filler {
      type: "constant"
      value: 0.2
    }
  }
}
layer {
  name: "inception_4c/relu_5x5"
  type: "ReLU"
  bottom: "inception_4c/5x5"
  top: "inception_4c/5x5"
}
layer {
  name: "inception_4c/pool"
  type: "Pooling"
  bottom: "inception_4b/output"
  top: "inception_4c/pool"
  pooling_param {
    pool: MAX
    kernel_size: 3
    stride: 1
    pad: 1
  }
}
layer {
  name: "inception_4c/pool_proj"
  type: "Convolution"
  bottom: "inception_4c/pool"
  top: "inception_4c/pool_proj"
  param {
    lr_mult: 1
    decay_mult: 1
  }
  param {
    lr_mult: 2
    decay_mult: 0
  }
  convolution_param {
    num_output: 64
    kernel_size: 1
    weight_filler {
      type: "xavier"
      std: 0.1
    }
    bias_filler {
      type: "constant"
      value: 0.2
    }
  }
}
layer {
  name: "inception_4c/relu_pool_proj"
  type: "ReLU"
  bottom: "inception_4c/pool_proj"
  top: "inception_4c/pool_proj"
}
layer {
  name: "inception_4c/output"
  type: "Concat"
  bottom: "inception_4c/1x1"
  bottom: "inception_4c/3x3"
  bottom: "inception_4c/5x5"
  bottom: "inception_4c/pool_proj"
  top: "inception_4c/output"
}
layer {
  name: "inception_4d/1x1"
  type: "Convolution"
  bottom: "inception_4c/output"
  top: "inception_4d/1x1"
  param {
    lr_mult: 1
    decay_mult: 1
  }
  param {
    lr_mult: 2
    decay_mult: 0
  }
  convolution_param {
    num_output: 112
    kernel_size: 1
    weight_filler {
      type: "xavier"
      std: 0.03
    }
    bias_filler {
      type: "constant"
      value: 0.2
    }
  }
}
layer {
  name: "inception_4d/relu_1x1"
  type: "ReLU"
  bottom: "inception_4d/1x1"
  top: "inception_4d/1x1"
}
layer {
  name: "inception_4d/3x3_reduce"
  type: "Convolution"
  bottom: "inception_4c/output"
  top: "inception_4d/3x3_reduce"
  param {
    lr_mult: 1
    decay_mult: 1
  }
  param {
    lr_mult: 2
    decay_mult: 0
  }
  convolution_param {
    num_output: 144
    kernel_size: 1
    weight_filler {
      type: "xavier"
      std: 0.09
    }
    bias_filler {
      type: "constant"
      value: 0.2
    }
  }
}
layer {
  name: "inception_4d/relu_3x3_reduce"
  type: "ReLU"
  bottom: "inception_4d/3x3_reduce"
  top: "inception_4d/3x3_reduce"
}
layer {
  name: "inception_4d/3x3"
  type: "Convolution"
  bottom: "inception_4d/3x3_reduce"
  top: "inception_4d/3x3"
  param {
    lr_mult: 1
    decay_mult: 1
  }
  param {
    lr_mult: 2
    decay_mult: 0
  }
  convolution_param {
    num_output: 288
    pad: 1
    kernel_size: 3
    weight_filler {
      type: "xavier"
      std: 0.03
    }
    bias_filler {
      type: "constant"
      value: 0.2
    }
  }
}
layer {
  name: "inception_4d/relu_3x3"
  type: "ReLU"
  bottom: "inception_4d/3x3"
  top: "inception_4d/3x3"
}
layer {
  name: "inception_4d/5x5_reduce"
  type: "Convolution"
  bottom: "inception_4c/output"
  top: "inception_4d/5x5_reduce"
  param {
    lr_mult: 1
    decay_mult: 1
  }
  param {
    lr_mult: 2
    decay_mult: 0
  }
  convolution_param {
    num_output: 32
    kernel_size: 1
    weight_filler {
      type: "xavier"
      std: 0.2
    }
    bias_filler {
      type: "constant"
      value: 0.2
    }
  }
}
layer {
  name: "inception_4d/relu_5x5_reduce"
  type: "ReLU"
  bottom: "inception_4d/5x5_reduce"
  top: "inception_4d/5x5_reduce"
}
layer {
  name: "inception_4d/5x5"
  type: "Convolution"
  bottom: "inception_4d/5x5_reduce"
  top: "inception_4d/5x5"
  param {
    lr_mult: 1
    decay_mult: 1
  }
  param {
    lr_mult: 2
    decay_mult: 0
  }
  convolution_param {
    num_output: 64
    pad: 2
    kernel_size: 5
    weight_filler {
      type: "xavier"
      std: 0.03
    }
    bias_filler {
      type: "constant"
      value: 0.2
    }
  }
}
layer {
  name: "inception_4d/relu_5x5"
  type: "ReLU"
  bottom: "inception_4d/5x5"
  top: "inception_4d/5x5"
}
layer {
  name: "inception_4d/pool"
  type: "Pooling"
  bottom: "inception_4c/output"
  top: "inception_4d/pool"
  pooling_param {
    pool: MAX
    kernel_size: 3
    stride: 1
    pad: 1
  }
}
layer {
  name: "inception_4d/pool_proj"
  type: "Convolution"
  bottom: "inception_4d/pool"
  top: "inception_4d/pool_proj"
  param {
    lr_mult: 1
    decay_mult: 1
  }
  param {
    lr_mult: 2
    decay_mult: 0
  }
  convolution_param {
    num_output: 64
    kernel_size: 1
    weight_filler {
      type: "xavier"
      std: 0.1
    }
    bias_filler {
      type: "constant"
      value: 0.2
    }
  }
}
layer {
  name: "inception_4d/relu_pool_proj"
  type: "ReLU"
  bottom: "inception_4d/pool_proj"
  top: "inception_4d/pool_proj"
}
layer {
  name: "inception_4d/output"
  type: "Concat"
  bottom: "inception_4d/1x1"
  bottom: "inception_4d/3x3"
  bottom: "inception_4d/5x5"
  bottom: "inception_4d/pool_proj"
  top: "inception_4d/output"
}
layer {
  name: "loss2/ave_pool"
  type: "Pooling"
  bottom: "inception_4d/output"
  top: "loss2/ave_pool"
  pooling_param {
    pool: AVE
    kernel_size: 5
    stride: 3
  }
}
layer {
  name: "loss2/conv"
  type: "Convolution"
  bottom: "loss2/ave_pool"
  top: "loss2/conv"
  param {
    lr_mult: 1
    decay_mult: 1
  }
  param {
    lr_mult: 2
    decay_mult: 0
  }
  convolution_param {
    num_output: 128
    kernel_size: 1
    weight_filler {
      type: "xavier"
      std: 0.08
    }
    bias_filler {
      type: "constant"
      value: 0.2
    }
  }
}
layer {
  name: "loss2/relu_conv"
  type: "ReLU"
  bottom: "loss2/conv"
  top: "loss2/conv"
}
layer {
  name: "loss2/fc"
  type: "InnerProduct"
  bottom: "loss2/conv"
  top: "loss2/fc"
  param {
    lr_mult: 1
    decay_mult: 1
  }
  param {
    lr_mult: 2
    decay_mult: 0
  }
  inner_product_param {
    num_output: 1024
    weight_filler {
      type: "xavier"
      std: 0.02
    }
    bias_filler {
      type: "constant"
      value: 0.2
    }
  }
}
layer {
  name: "loss2/relu_fc"
  type: "ReLU"
  bottom: "loss2/fc"
  top: "loss2/fc"
}
layer {
  name: "loss2/drop_fc"
  type: "Dropout"
  bottom: "loss2/fc"
  top: "loss2/fc"
  dropout_param {
    dropout_ratio: 0.7
  }
}
layer {
  name: "loss2/classifier_plantvillage"
  type: "InnerProduct"
  bottom: "loss2/fc"
  top: "loss2/classifier_plantvillage"
  param {
    lr_mult: 1
    decay_mult: 1
  }
  param {
    lr_mult: 2
    decay_mult: 0
  }
  inner_product_param {
    num_output: 38
    weight_filler {
      type: "xavier"
      std: 0.0009765625
    }
    bias_filler {
      type: "constant"
      value: 0
    }
  }
}
layer {
  name: "inception_4e/1x1"
  type: "Convolution"
  bottom: "inception_4d/output"
  top: "inception_4e/1x1"
  param {
    lr_mult: 1
    decay_mult: 1
  }
  param {
    lr_mult: 2
    decay_mult: 0
  }
  convolution_param {
    num_output: 256
    kernel_size: 1
    weight_filler {
      type: "xavier"
      std: 0.03
    }
    bias_filler {
      type: "constant"
      value: 0.2
    }
  }
}
layer {
  name: "inception_4e/relu_1x1"
  type: "ReLU"
  bottom: "inception_4e/1x1"
  top: "inception_4e/1x1"
}
layer {
  name: "inception_4e/3x3_reduce"
  type: "Convolution"
  bottom: "inception_4d/output"
  top: "inception_4e/3x3_reduce"
  param {
    lr_mult: 1
    decay_mult: 1
  }
  param {
    lr_mult: 2
    decay_mult: 0
  }
  convolution_param {
    num_output: 160
    kernel_size: 1
    weight_filler {
      type: "xavier"
      std: 0.09
    }
    bias_filler {
      type: "constant"
      value: 0.2
    }
  }
}
layer {
  name: "inception_4e/relu_3x3_reduce"
  type: "ReLU"
  bottom: "inception_4e/3x3_reduce"
  top: "inception_4e/3x3_reduce"
}
layer {
  name: "inception_4e/3x3"
  type: "Convolution"
  bottom: "inception_4e/3x3_reduce"
  top: "inception_4e/3x3"
  param {
    lr_mult: 1
    decay_mult: 1
  }
  param {
    lr_mult: 2
    decay_mult: 0
  }
  convolution_param {
    num_output: 320
    pad: 1
    kernel_size: 3
    weight_filler {
      type: "xavier"
      std: 0.03
    }
    bias_filler {
      type: "constant"
      value: 0.2
    }
  }
}
layer {
  name: "inception_4e/relu_3x3"
  type: "ReLU"
  bottom: "inception_4e/3x3"
  top: "inception_4e/3x3"
}
layer {
  name: "inception_4e/5x5_reduce"
  type: "Convolution"
  bottom: "inception_4d/output"
  top: "inception_4e/5x5_reduce"
  param {
    lr_mult: 1
    decay_mult: 1
  }
  param {
    lr_mult: 2
    decay_mult: 0
  }
  convolution_param {
    num_output: 32
    kernel_size: 1
    weight_filler {
      type: "xavier"
      std: 0.2
    }
    bias_filler {
      type: "constant"
      value: 0.2
    }
  }
}
layer {
  name: "inception_4e/relu_5x5_reduce"
  type: "ReLU"
  bottom: "inception_4e/5x5_reduce"
  top: "inception_4e/5x5_reduce"
}
layer {
  name: "inception_4e/5x5"
  type: "Convolution"
  bottom: "inception_4e/5x5_reduce"
  top: "inception_4e/
I0403 14:10:36.796895   952 layer_factory.hpp:77] Creating layer data
I0403 14:10:36.797508   952 net.cpp:91] Creating Layer data
I0403 14:10:36.797539   952 net.cpp:399] data -> data
I0403 14:10:36.797590   952 net.cpp:399] data -> label
I0403 14:10:36.797627   952 data_transformer.cpp:25] Loading mean file from: /home/mohanty/data/final_dataset/lmdb/grayscale-20-80/mean.binaryproto
I0403 14:10:36.800160   954 db_lmdb.cpp:38] Opened lmdb /home/mohanty/data/final_dataset/lmdb/grayscale-20-80/test_db
I0403 14:10:36.811064   952 data_layer.cpp:41] output data size: 24,3,224,224
I0403 14:10:36.838768   952 net.cpp:141] Setting up data
I0403 14:10:36.838870   952 net.cpp:148] Top shape: 24 3 224 224 (3612672)
I0403 14:10:36.838892   952 net.cpp:148] Top shape: 24 (24)
I0403 14:10:36.838907   952 net.cpp:156] Memory required for data: 14450784
I0403 14:10:36.838948   952 layer_factory.hpp:77] Creating layer label_data_1_split
I0403 14:10:36.838974   952 net.cpp:91] Creating Layer label_data_1_split
I0403 14:10:36.838992   952 net.cpp:425] label_data_1_split <- label
I0403 14:10:36.839025   952 net.cpp:399] label_data_1_split -> label_data_1_split_0
I0403 14:10:36.839052   952 net.cpp:399] label_data_1_split -> label_data_1_split_1
I0403 14:10:36.839076   952 net.cpp:399] label_data_1_split -> label_data_1_split_2
I0403 14:10:36.839097   952 net.cpp:399] label_data_1_split -> label_data_1_split_3
I0403 14:10:36.839117   952 net.cpp:399] label_data_1_split -> label_data_1_split_4
I0403 14:10:36.839136   952 net.cpp:399] label_data_1_split -> label_data_1_split_5
I0403 14:10:36.839155   952 net.cpp:399] label_data_1_split -> label_data_1_split_6
I0403 14:10:36.839175   952 net.cpp:399] label_data_1_split -> label_data_1_split_7
I0403 14:10:36.839195   952 net.cpp:399] label_data_1_split -> label_data_1_split_8
I0403 14:10:36.839221   952 net.cpp:399] label_data_1_split -> label_data_1_split_9
I0403 14:10:36.839351   952 net.cpp:141] Setting up label_data_1_split
I0403 14:10:36.839375   952 net.cpp:148] Top shape: 24 (24)
I0403 14:10:36.839392   952 net.cpp:148] Top shape: 24 (24)
I0403 14:10:36.839408   952 net.cpp:148] Top shape: 24 (24)
I0403 14:10:36.839424   952 net.cpp:148] Top shape: 24 (24)
I0403 14:10:36.839439   952 net.cpp:148] Top shape: 24 (24)
I0403 14:10:36.839457   952 net.cpp:148] Top shape: 24 (24)
I0403 14:10:36.839473   952 net.cpp:148] Top shape: 24 (24)
I0403 14:10:36.839489   952 net.cpp:148] Top shape: 24 (24)
I0403 14:10:36.839505   952 net.cpp:148] Top shape: 24 (24)
I0403 14:10:36.839521   952 net.cpp:148] Top shape: 24 (24)
I0403 14:10:36.839565   952 net.cpp:156] Memory required for data: 14451744
I0403 14:10:36.839581   952 layer_factory.hpp:77] Creating layer conv1/7x7_s2
I0403 14:10:36.839613   952 net.cpp:91] Creating Layer conv1/7x7_s2
I0403 14:10:36.839632   952 net.cpp:425] conv1/7x7_s2 <- data
I0403 14:10:36.839651   952 net.cpp:399] conv1/7x7_s2 -> conv1/7x7_s2
I0403 14:10:36.986659   952 net.cpp:141] Setting up conv1/7x7_s2
I0403 14:10:36.986748   952 net.cpp:148] Top shape: 24 64 112 112 (19267584)
I0403 14:10:36.986766   952 net.cpp:156] Memory required for data: 91522080
I0403 14:10:36.986798   952 layer_factory.hpp:77] Creating layer conv1/relu_7x7
I0403 14:10:36.986825   952 net.cpp:91] Creating Layer conv1/relu_7x7
I0403 14:10:36.986845   952 net.cpp:425] conv1/relu_7x7 <- conv1/7x7_s2
I0403 14:10:36.986863   952 net.cpp:386] conv1/relu_7x7 -> conv1/7x7_s2 (in-place)
I0403 14:10:36.987135   952 net.cpp:141] Setting up conv1/relu_7x7
I0403 14:10:36.987165   952 net.cpp:148] Top shape: 24 64 112 112 (19267584)
I0403 14:10:36.987188   952 net.cpp:156] Memory required for data: 168592416
I0403 14:10:36.987205   952 layer_factory.hpp:77] Creating layer pool1/3x3_s2
I0403 14:10:36.987231   952 net.cpp:91] Creating Layer pool1/3x3_s2
I0403 14:10:36.987249   952 net.cpp:425] pool1/3x3_s2 <- conv1/7x7_s2
I0403 14:10:36.987272   952 net.cpp:399] pool1/3x3_s2 -> pool1/3x3_s2
I0403 14:10:36.987365   952 net.cpp:141] Setting up pool1/3x3_s2
I0403 14:10:36.987390   952 net.cpp:148] Top shape: 24 64 56 56 (4816896)
I0403 14:10:36.987406   952 net.cpp:156] Memory required for data: 187860000
I0403 14:10:36.987421   952 layer_factory.hpp:77] Creating layer pool1/norm1
I0403 14:10:36.987447   952 net.cpp:91] Creating Layer pool1/norm1
I0403 14:10:36.987467   952 net.cpp:425] pool1/norm1 <- pool1/3x3_s2
I0403 14:10:36.987488   952 net.cpp:399] pool1/norm1 -> pool1/norm1
I0403 14:10:36.987812   952 net.cpp:141] Setting up pool1/norm1
I0403 14:10:36.987843   952 net.cpp:148] Top shape: 24 64 56 56 (4816896)
I0403 14:10:36.987859   952 net.cpp:156] Memory required for data: 207127584
I0403 14:10:36.987874   952 layer_factory.hpp:77] Creating layer conv2/3x3_reduce
I0403 14:10:36.987901   952 net.cpp:91] Creating Layer conv2/3x3_reduce
I0403 14:10:36.987943   952 net.cpp:425] conv2/3x3_reduce <- pool1/norm1
I0403 14:10:36.987968   952 net.cpp:399] conv2/3x3_reduce -> conv2/3x3_reduce
I0403 14:10:36.989496   952 net.cpp:141] Setting up conv2/3x3_reduce
I0403 14:10:36.989528   952 net.cpp:148] Top shape: 24 64 56 56 (4816896)
I0403 14:10:36.989544   952 net.cpp:156] Memory required for data: 226395168
I0403 14:10:36.989569   952 layer_factory.hpp:77] Creating layer conv2/relu_3x3_reduce
I0403 14:10:36.989589   952 net.cpp:91] Creating Layer conv2/relu_3x3_reduce
I0403 14:10:36.989605   952 net.cpp:425] conv2/relu_3x3_reduce <- conv2/3x3_reduce
I0403 14:10:36.989624   952 net.cpp:386] conv2/relu_3x3_reduce -> conv2/3x3_reduce (in-place)
I0403 14:10:36.989907   952 net.cpp:141] Setting up conv2/relu_3x3_reduce
I0403 14:10:36.989934   952 net.cpp:148] Top shape: 24 64 56 56 (4816896)
I0403 14:10:36.989949   952 net.cpp:156] Memory required for data: 245662752
I0403 14:10:36.989965   952 layer_factory.hpp:77] Creating layer conv2/3x3
I0403 14:10:36.989990   952 net.cpp:91] Creating Layer conv2/3x3
I0403 14:10:36.990010   952 net.cpp:425] conv2/3x3 <- conv2/3x3_reduce
I0403 14:10:36.990031   952 net.cpp:399] conv2/3x3 -> conv2/3x3
I0403 14:10:36.992491   952 net.cpp:141] Setting up conv2/3x3
I0403 14:10:36.992522   952 net.cpp:148] Top shape: 24 192 56 56 (14450688)
I0403 14:10:36.992539   952 net.cpp:156] Memory required for data: 303465504
I0403 14:10:36.992564   952 layer_factory.hpp:77] Creating layer conv2/relu_3x3
I0403 14:10:36.992584   952 net.cpp:91] Creating Layer conv2/relu_3x3
I0403 14:10:36.992601   952 net.cpp:425] conv2/relu_3x3 <- conv2/3x3
I0403 14:10:36.992619   952 net.cpp:386] conv2/relu_3x3 -> conv2/3x3 (in-place)
I0403 14:10:36.992805   952 net.cpp:141] Setting up conv2/relu_3x3
I0403 14:10:36.992833   952 net.cpp:148] Top shape: 24 192 56 56 (14450688)
I0403 14:10:36.992878   952 net.cpp:156] Memory required for data: 361268256
I0403 14:10:36.992895   952 layer_factory.hpp:77] Creating layer conv2/norm2
I0403 14:10:36.992914   952 net.cpp:91] Creating Layer conv2/norm2
I0403 14:10:36.992935   952 net.cpp:425] conv2/norm2 <- conv2/3x3
I0403 14:10:36.992954   952 net.cpp:399] conv2/norm2 -> conv2/norm2
I0403 14:10:36.993288   952 net.cpp:141] Setting up conv2/norm2
I0403 14:10:36.993316   952 net.cpp:148] Top shape: 24 192 56 56 (14450688)
I0403 14:10:36.993332   952 net.cpp:156] Memory required for data: 419071008
I0403 14:10:36.993348   952 layer_factory.hpp:77] Creating layer pool2/3x3_s2
I0403 14:10:36.993369   952 net.cpp:91] Creating Layer pool2/3x3_s2
I0403 14:10:36.993387   952 net.cpp:425] pool2/3x3_s2 <- conv2/norm2
I0403 14:10:36.993405   952 net.cpp:399] pool2/3x3_s2 -> pool2/3x3_s2
I0403 14:10:36.993461   952 net.cpp:141] Setting up pool2/3x3_s2
I0403 14:10:36.993485   952 net.cpp:148] Top shape: 24 192 28 28 (3612672)
I0403 14:10:36.993501   952 net.cpp:156] Memory required for data: 433521696
I0403 14:10:36.993517   952 layer_factory.hpp:77] Creating layer pool2/3x3_s2_pool2/3x3_s2_0_split
I0403 14:10:36.993535   952 net.cpp:91] Creating Layer pool2/3x3_s2_pool2/3x3_s2_0_split
I0403 14:10:36.993553   952 net.cpp:425] pool2/3x3_s2_pool2/3x3_s2_0_split <- pool2/3x3_s2
I0403 14:10:36.993573   952 net.cpp:399] pool2/3x3_s2_pool2/3x3_s2_0_split -> pool2/3x3_s2_pool2/3x3_s2_0_split_0
I0403 14:10:36.993594   952 net.cpp:399] pool2/3x3_s2_pool2/3x3_s2_0_split -> pool2/3x3_s2_pool2/3x3_s2_0_split_1
I0403 14:10:36.993615   952 net.cpp:399] pool2/3x3_s2_pool2/3x3_s2_0_split -> pool2/3x3_s2_pool2/3x3_s2_0_split_2
I0403 14:10:36.993635   952 net.cpp:399] pool2/3x3_s2_pool2/3x3_s2_0_split -> pool2/3x3_s2_pool2/3x3_s2_0_split_3
I0403 14:10:36.993710   952 net.cpp:141] Setting up pool2/3x3_s2_pool2/3x3_s2_0_split
I0403 14:10:36.993732   952 net.cpp:148] Top shape: 24 192 28 28 (3612672)
I0403 14:10:36.993749   952 net.cpp:148] Top shape: 24 192 28 28 (3612672)
I0403 14:10:36.993765   952 net.cpp:148] Top shape: 24 192 28 28 (3612672)
I0403 14:10:36.993782   952 net.cpp:148] Top shape: 24 192 28 28 (3612672)
I0403 14:10:36.993796   952 net.cpp:156] Memory required for data: 491324448
I0403 14:10:36.993811   952 layer_factory.hpp:77] Creating layer inception_3a/1x1
I0403 14:10:36.993836   952 net.cpp:91] Creating Layer inception_3a/1x1
I0403 14:10:36.993854   952 net.cpp:425] inception_3a/1x1 <- pool2/3x3_s2_pool2/3x3_s2_0_split_0
I0403 14:10:36.993873   952 net.cpp:399] inception_3a/1x1 -> inception_3a/1x1
I0403 14:10:36.995887   952 net.cpp:141] Setting up inception_3a/1x1
I0403 14:10:36.995918   952 net.cpp:148] Top shape: 24 64 28 28 (1204224)
I0403 14:10:36.995934   952 net.cpp:156] Memory required for data: 496141344
I0403 14:10:36.995952   952 layer_factory.hpp:77] Creating layer inception_3a/relu_1x1
I0403 14:10:36.995975   952 net.cpp:91] Creating Layer inception_3a/relu_1x1
I0403 14:10:36.995990   952 net.cpp:425] inception_3a/relu_1x1 <- inception_3a/1x1
I0403 14:10:36.996008   952 net.cpp:386] inception_3a/relu_1x1 -> inception_3a/1x1 (in-place)
I0403 14:10:36.996193   952 net.cpp:141] Setting up inception_3a/relu_1x1
I0403 14:10:36.996225   952 net.cpp:148] Top shape: 24 64 28 28 (1204224)
I0403 14:10:36.996243   952 net.cpp:156] Memory required for data: 500958240
I0403 14:10:36.996258   952 layer_factory.hpp:77] Creating layer inception_3a/3x3_reduce
I0403 14:10:36.996281   952 net.cpp:91] Creating Layer inception_3a/3x3_reduce
I0403 14:10:36.996299   952 net.cpp:425] inception_3a/3x3_reduce <- pool2/3x3_s2_pool2/3x3_s2_0_split_1
I0403 14:10:36.996320   952 net.cpp:399] inception_3a/3x3_reduce -> inception_3a/3x3_reduce
I0403 14:10:36.998131   952 net.cpp:141] Setting up inception_3a/3x3_reduce
I0403 14:10:36.998162   952 net.cpp:148] Top shape: 24 96 28 28 (1806336)
I0403 14:10:36.998181   952 net.cpp:156] Memory required for data: 508183584
I0403 14:10:36.998209   952 layer_factory.hpp:77] Creating layer inception_3a/relu_3x3_reduce
I0403 14:10:36.998246   952 net.cpp:91] Creating Layer inception_3a/relu_3x3_reduce
I0403 14:10:36.998263   952 net.cpp:425] inception_3a/relu_3x3_reduce <- inception_3a/3x3_reduce
I0403 14:10:36.998281   952 net.cpp:386] inception_3a/relu_3x3_reduce -> inception_3a/3x3_reduce (in-place)
I0403 14:10:36.998476   952 net.cpp:141] Setting up inception_3a/relu_3x3_reduce
I0403 14:10:36.998502   952 net.cpp:148] Top shape: 24 96 28 28 (1806336)
I0403 14:10:36.998517   952 net.cpp:156] Memory required for data: 515408928
I0403 14:10:36.998534   952 layer_factory.hpp:77] Creating layer inception_3a/3x3
I0403 14:10:36.998559   952 net.cpp:91] Creating Layer inception_3a/3x3
I0403 14:10:36.998577   952 net.cpp:425] inception_3a/3x3 <- inception_3a/3x3_reduce
I0403 14:10:36.998599   952 net.cpp:399] inception_3a/3x3 -> inception_3a/3x3
I0403 14:10:37.000339   952 net.cpp:141] Setting up inception_3a/3x3
I0403 14:10:37.000370   952 net.cpp:148] Top shape: 24 128 28 28 (2408448)
I0403 14:10:37.000385   952 net.cpp:156] Memory required for data: 525042720
I0403 14:10:37.000406   952 layer_factory.hpp:77] Creating layer inception_3a/relu_3x3
I0403 14:10:37.000427   952 net.cpp:91] Creating Layer inception_3a/relu_3x3
I0403 14:10:37.000443   952 net.cpp:425] inception_3a/relu_3x3 <- inception_3a/3x3
I0403 14:10:37.000461   952 net.cpp:386] inception_3a/relu_3x3 -> inception_3a/3x3 (in-place)
I0403 14:10:37.000747   952 net.cpp:141] Setting up inception_3a/relu_3x3
I0403 14:10:37.000774   952 net.cpp:148] Top shape: 24 128 28 28 (2408448)
I0403 14:10:37.000790   952 net.cpp:156] Memory required for data: 534676512
I0403 14:10:37.000807   952 layer_factory.hpp:77] Creating layer inception_3a/5x5_reduce
I0403 14:10:37.000831   952 net.cpp:91] Creating Layer inception_3a/5x5_reduce
I0403 14:10:37.000849   952 net.cpp:425] inception_3a/5x5_reduce <- pool2/3x3_s2_pool2/3x3_s2_0_split_2
I0403 14:10:37.000869   952 net.cpp:399] inception_3a/5x5_reduce -> inception_3a/5x5_reduce
I0403 14:10:37.001878   952 net.cpp:141] Setting up inception_3a/5x5_reduce
I0403 14:10:37.001909   952 net.cpp:148] Top shape: 24 16 28 28 (301056)
I0403 14:10:37.001926   952 net.cpp:156] Memory required for data: 535880736
I0403 14:10:37.001945   952 layer_factory.hpp:77] Creating layer inception_3a/relu_5x5_reduce
I0403 14:10:37.001965   952 net.cpp:91] Creating Layer inception_3a/relu_5x5_reduce
I0403 14:10:37.001981   952 net.cpp:425] inception_3a/relu_5x5_reduce <- inception_3a/5x5_reduce
I0403 14:10:37.002002   952 net.cpp:386] inception_3a/relu_5x5_reduce -> inception_3a/5x5_reduce (in-place)
I0403 14:10:37.002315   952 net.cpp:141] Setting up inception_3a/relu_5x5_reduce
I0403 14:10:37.002344   952 net.cpp:148] Top shape: 24 16 28 28 (301056)
I0403 14:10:37.002360   952 net.cpp:156] Memory required for data: 537084960
I0403 14:10:37.002377   952 layer_factory.hpp:77] Creating layer inception_3a/5x5
I0403 14:10:37.002399   952 net.cpp:91] Creating Layer inception_3a/5x5
I0403 14:10:37.002418   952 net.cpp:425] inception_3a/5x5 <- inception_3a/5x5_reduce
I0403 14:10:37.002437   952 net.cpp:399] inception_3a/5x5 -> inception_3a/5x5
I0403 14:10:37.003509   952 net.cpp:141] Setting up inception_3a/5x5
I0403 14:10:37.003538   952 net.cpp:148] Top shape: 24 32 28 28 (602112)
I0403 14:10:37.003556   952 net.cpp:156] Memory required for data: 539493408
I0403 14:10:37.003576   952 layer_factory.hpp:77] Creating layer inception_3a/relu_5x5
I0403 14:10:37.003597   952 net.cpp:91] Creating Layer inception_3a/relu_5x5
I0403 14:10:37.003615   952 net.cpp:425] inception_3a/relu_5x5 <- inception_3a/5x5
I0403 14:10:37.003633   952 net.cpp:386] inception_3a/relu_5x5 -> inception_3a/5x5 (in-place)
I0403 14:10:37.003816   952 net.cpp:141] Setting up inception_3a/relu_5x5
I0403 14:10:37.003844   952 net.cpp:148] Top shape: 24 32 28 28 (602112)
I0403 14:10:37.003860   952 net.cpp:156] Memory required for data: 541901856
I0403 14:10:37.003876   952 layer_factory.hpp:77] Creating layer inception_3a/pool
I0403 14:10:37.003895   952 net.cpp:91] Creating Layer inception_3a/pool
I0403 14:10:37.003927   952 net.cpp:425] inception_3a/pool <- pool2/3x3_s2_pool2/3x3_s2_0_split_3
I0403 14:10:37.003949   952 net.cpp:399] inception_3a/pool -> inception_3a/pool
I0403 14:10:37.004011   952 net.cpp:141] Setting up inception_3a/pool
I0403 14:10:37.004036   952 net.cpp:148] Top shape: 24 192 28 28 (3612672)
I0403 14:10:37.004052   952 net.cpp:156] Memory required for data: 556352544
I0403 14:10:37.004068   952 layer_factory.hpp:77] Creating layer inception_3a/pool_proj
I0403 14:10:37.004091   952 net.cpp:91] Creating Layer inception_3a/pool_proj
I0403 14:10:37.004112   952 net.cpp:425] inception_3a/pool_proj <- inception_3a/pool
I0403 14:10:37.004132   952 net.cpp:399] inception_3a/pool_proj -> inception_3a/pool_proj
I0403 14:10:37.005143   952 net.cpp:141] Setting up inception_3a/pool_proj
I0403 14:10:37.005172   952 net.cpp:148] Top shape: 24 32 28 28 (602112)
I0403 14:10:37.005194   952 net.cpp:156] Memory required for data: 558760992
I0403 14:10:37.005220   952 layer_factory.hpp:77] Creating layer inception_3a/relu_pool_proj
I0403 14:10:37.005241   952 net.cpp:91] Creating Layer inception_3a/relu_pool_proj
I0403 14:10:37.005257   952 net.cpp:425] inception_3a/relu_pool_proj <- inception_3a/pool_proj
I0403 14:10:37.005277   952 net.cpp:386] inception_3a/relu_pool_proj -> inception_3a/pool_proj (in-place)
I0403 14:10:37.005563   952 net.cpp:141] Setting up inception_3a/relu_pool_proj
I0403 14:10:37.005590   952 net.cpp:148] Top shape: 24 32 28 28 (602112)
I0403 14:10:37.005606   952 net.cpp:156] Memory required for data: 561169440
I0403 14:10:37.005622   952 layer_factory.hpp:77] Creating layer inception_3a/output
I0403 14:10:37.005643   952 net.cpp:91] Creating Layer inception_3a/output
I0403 14:10:37.005661   952 net.cpp:425] inception_3a/output <- inception_3a/1x1
I0403 14:10:37.005677   952 net.cpp:425] inception_3a/output <- inception_3a/3x3
I0403 14:10:37.005694   952 net.cpp:425] inception_3a/output <- inception_3a/5x5
I0403 14:10:37.005710   952 net.cpp:425] inception_3a/output <- inception_3a/pool_proj
I0403 14:10:37.005728   952 net.cpp:399] inception_3a/output -> inception_3a/output
I0403 14:10:37.005777   952 net.cpp:141] Setting up inception_3a/output
I0403 14:10:37.005801   952 net.cpp:148] Top shape: 24 256 28 28 (4816896)
I0403 14:10:37.005817   952 net.cpp:156] Memory required for data: 580437024
I0403 14:10:37.005832   952 layer_factory.hpp:77] Creating layer inception_3a/output_inception_3a/output_0_split
I0403 14:10:37.005849   952 net.cpp:91] Creating Layer inception_3a/output_inception_3a/output_0_split
I0403 14:10:37.005866   952 net.cpp:425] inception_3a/output_inception_3a/output_0_split <- inception_3a/output
I0403 14:10:37.005887   952 net.cpp:399] inception_3a/output_inception_3a/output_0_split -> inception_3a/output_inception_3a/output_0_split_0
I0403 14:10:37.005908   952 net.cpp:399] inception_3a/output_inception_3a/output_0_split -> inception_3a/output_inception_3a/output_0_split_1
I0403 14:10:37.005934   952 net.cpp:399] inception_3a/output_inception_3a/output_0_split -> inception_3a/output_inception_3a/output_0_split_2
I0403 14:10:37.005956   952 net.cpp:399] inception_3a/output_inception_3a/output_0_split -> inception_3a/output_inception_3a/output_0_split_3
I0403 14:10:37.006032   952 net.cpp:141] Setting up inception_3a/output_inception_3a/output_0_split
I0403 14:10:37.006057   952 net.cpp:148] Top shape: 24 256 28 28 (4816896)
I0403 14:10:37.006077   952 net.cpp:148] Top shape: 24 256 28 28 (4816896)
I0403 14:10:37.006093   952 net.cpp:148] Top shape: 24 256 28 28 (4816896)
I0403 14:10:37.006110   952 net.cpp:148] Top shape: 24 256 28 28 (4816896)
I0403 14:10:37.006125   952 net.cpp:156] Memory required for data: 657507360
I0403 14:10:37.006140   952 layer_factory.hpp:77] Creating layer inception_3b/1x1
I0403 14:10:37.006160   952 net.cpp:91] Creating Layer inception_3b/1x1
I0403 14:10:37.006181   952 net.cpp:425] inception_3b/1x1 <- inception_3a/output_inception_3a/output_0_split_0
I0403 14:10:37.006208   952 net.cpp:399] inception_3b/1x1 -> inception_3b/1x1
I0403 14:10:37.007401   952 net.cpp:141] Setting up inception_3b/1x1
I0403 14:10:37.007443   952 net.cpp:148] Top shape: 24 128 28 28 (2408448)
I0403 14:10:37.007460   952 net.cpp:156] Memory required for data: 667141152
I0403 14:10:37.007479   952 layer_factory.hpp:77] Creating layer inception_3b/relu_1x1
I0403 14:10:37.007501   952 net.cpp:91] Creating Layer inception_3b/relu_1x1
I0403 14:10:37.007519   952 net.cpp:425] inception_3b/relu_1x1 <- inception_3b/1x1
I0403 14:10:37.007537   952 net.cpp:386] inception_3b/relu_1x1 -> inception_3b/1x1 (in-place)
I0403 14:10:37.007722   952 net.cpp:141] Setting up inception_3b/relu_1x1
I0403 14:10:37.007747   952 net.cpp:148] Top shape: 24 128 28 28 (2408448)
I0403 14:10:37.007763   952 net.cpp:156] Memory required for data: 676774944
I0403 14:10:37.007778   952 layer_factory.hpp:77] Creating layer inception_3b/3x3_reduce
I0403 14:10:37.007802   952 net.cpp:91] Creating Layer inception_3b/3x3_reduce
I0403 14:10:37.007822   952 net.cpp:425] inception_3b/3x3_reduce <- inception_3a/output_inception_3a/output_0_split_1
I0403 14:10:37.007840   952 net.cpp:399] inception_3b/3x3_reduce -> inception_3b/3x3_reduce
I0403 14:10:37.009032   952 net.cpp:141] Setting up inception_3b/3x3_reduce
I0403 14:10:37.009060   952 net.cpp:148] Top shape: 24 128 28 28 (2408448)
I0403 14:10:37.009078   952 net.cpp:156] Memory required for data: 686408736
I0403 14:10:37.009099   952 layer_factory.hpp:77] Creating layer inception_3b/relu_3x3_reduce
I0403 14:10:37.009119   952 net.cpp:91] Creating Layer inception_3b/relu_3x3_reduce
I0403 14:10:37.009138   952 net.cpp:425] inception_3b/relu_3x3_reduce <- inception_3b/3x3_reduce
I0403 14:10:37.009155   952 net.cpp:386] inception_3b/relu_3x3_reduce -> inception_3b/3x3_reduce (in-place)
I0403 14:10:37.009338   952 net.cpp:141] Setting up inception_3b/relu_3x3_reduce
I0403 14:10:37.009367   952 net.cpp:148] Top shape: 24 128 28 28 (2408448)
I0403 14:10:37.009383   952 net.cpp:156] Memory required for data: 696042528
I0403 14:10:37.009399   952 layer_factory.hpp:77] Creating layer inception_3b/3x3
I0403 14:10:37.009424   952 net.cpp:91] Creating Layer inception_3b/3x3
I0403 14:10:37.009443   952 net.cpp:425] inception_3b/3x3 <- inception_3b/3x3_reduce
I0403 14:10:37.009466   952 net.cpp:399] inception_3b/3x3 -> inception_3b/3x3
I0403 14:10:37.012547   952 net.cpp:141] Setting up inception_3b/3x3
I0403 14:10:37.012578   952 net.cpp:148] Top shape: 24 192 28 28 (3612672)
I0403 14:10:37.012595   952 net.cpp:156] Memory required for data: 710493216
I0403 14:10:37.012614   952 layer_factory.hpp:77] Creating layer inception_3b/relu_3x3
I0403 14:10:37.012635   952 net.cpp:91] Creating Layer inception_3b/relu_3x3
I0403 14:10:37.012655   952 net.cpp:425] inception_3b/relu_3x3 <- inception_3b/3x3
I0403 14:10:37.012672   952 net.cpp:386] inception_3b/relu_3x3 -> inception_3b/3x3 (in-place)
I0403 14:10:37.012962   952 net.cpp:141] Setting up inception_3b/relu_3x3
I0403 14:10:37.012990   952 net.cpp:148] Top shape: 24 192 28 28 (3612672)
I0403 14:10:37.013006   952 net.cpp:156] Memory required for data: 724943904
I0403 14:10:37.013022   952 layer_factory.hpp:77] Creating layer inception_3b/5x5_reduce
I0403 14:10:37.013048   952 net.cpp:91] Creating Layer inception_3b/5x5_reduce
I0403 14:10:37.013067   952 net.cpp:425] inception_3b/5x5_reduce <- inception_3a/output_inception_3a/output_0_split_2
I0403 14:10:37.013087   952 net.cpp:399] inception_3b/5x5_reduce -> inception_3b/5x5_reduce
I0403 14:10:37.014138   952 net.cpp:141] Setting up inception_3b/5x5_reduce
I0403 14:10:37.014168   952 net.cpp:148] Top shape: 24 32 28 28 (602112)
I0403 14:10:37.014191   952 net.cpp:156] Memory required for data: 727352352
I0403 14:10:37.014211   952 layer_factory.hpp:77] Creating layer inception_3b/relu_5x5_reduce
I0403 14:10:37.014235   952 net.cpp:91] Creating Layer inception_3b/relu_5x5_reduce
I0403 14:10:37.014251   952 net.cpp:425] inception_3b/relu_5x5_reduce <- inception_3b/5x5_reduce
I0403 14:10:37.014271   952 net.cpp:386] inception_3b/relu_5x5_reduce -> inception_3b/5x5_reduce (in-place)
I0403 14:10:37.014468   952 net.cpp:141] Setting up inception_3b/relu_5x5_reduce
I0403 14:10:37.014499   952 net.cpp:148] Top shape: 24 32 28 28 (602112)
I0403 14:10:37.014515   952 net.cpp:156] Memory required for data: 729760800
I0403 14:10:37.014531   952 layer_factory.hpp:77] Creating layer inception_3b/5x5
I0403 14:10:37.014554   952 net.cpp:91] Creating Layer inception_3b/5x5
I0403 14:10:37.014574   952 net.cpp:425] inception_3b/5x5 <- inception_3b/5x5_reduce
I0403 14:10:37.014595   952 net.cpp:399] inception_3b/5x5 -> inception_3b/5x5
I0403 14:10:37.016656   952 net.cpp:141] Setting up inception_3b/5x5
I0403 14:10:37.016686   952 net.cpp:148] Top shape: 24 96 28 28 (1806336)
I0403 14:10:37.016702   952 net.cpp:156] Memory required for data: 736986144
I0403 14:10:37.016722   952 layer_factory.hpp:77] Creating layer inception_3b/relu_5x5
I0403 14:10:37.016742   952 net.cpp:91] Creating Layer inception_3b/relu_5x5
I0403 14:10:37.016759   952 net.cpp:425] inception_3b/relu_5x5 <- inception_3b/5x5
I0403 14:10:37.016777   952 net.cpp:386] inception_3b/relu_5x5 -> inception_3b/5x5 (in-place)
I0403 14:10:37.016978   952 net.cpp:141] Setting up inception_3b/relu_5x5
I0403 14:10:37.017005   952 net.cpp:148] Top shape: 24 96 28 28 (1806336)
I0403 14:10:37.017020   952 net.cpp:156] Memory required for data: 744211488
I0403 14:10:37.017036   952 layer_factory.hpp:77] Creating layer inception_3b/pool
I0403 14:10:37.017055   952 net.cpp:91] Creating Layer inception_3b/pool
I0403 14:10:37.017071   952 net.cpp:425] inception_3b/pool <- inception_3a/output_inception_3a/output_0_split_3
I0403 14:10:37.017089   952 net.cpp:399] inception_3b/pool -> inception_3b/pool
I0403 14:10:37.017148   952 net.cpp:141] Setting up inception_3b/pool
I0403 14:10:37.017173   952 net.cpp:148] Top shape: 24 256 28 28 (4816896)
I0403 14:10:37.017192   952 net.cpp:156] Memory required for data: 763479072
I0403 14:10:37.017209   952 layer_factory.hpp:77] Creating layer inception_3b/pool_proj
I0403 14:10:37.017232   952 net.cpp:91] Creating Layer inception_3b/pool_proj
I0403 14:10:37.017251   952 net.cpp:425] inception_3b/pool_proj <- inception_3b/pool
I0403 14:10:37.017272   952 net.cpp:399] inception_3b/pool_proj -> inception_3b/pool_proj
I0403 14:10:37.018383   952 net.cpp:141] Setting up inception_3b/pool_proj
I0403 14:10:37.018412   952 net.cpp:148] Top shape: 24 64 28 28 (1204224)
I0403 14:10:37.018429   952 net.cpp:156] Memory required for data: 768295968
I0403 14:10:37.018447   952 layer_factory.hpp:77] Creating layer inception_3b/relu_pool_proj
I0403 14:10:37.018467   952 net.cpp:91] Creating Layer inception_3b/relu_pool_proj
I0403 14:10:37.018483   952 net.cpp:425] inception_3b/relu_pool_proj <- inception_3b/pool_proj
I0403 14:10:37.018503   952 net.cpp:386] inception_3b/relu_pool_proj -> inception_3b/pool_proj (in-place)
I0403 14:10:37.018911   952 net.cpp:141] Setting up inception_3b/relu_pool_proj
I0403 14:10:37.018941   952 net.cpp:148] Top shape: 24 64 28 28 (1204224)
I0403 14:10:37.018959   952 net.cpp:156] Memory required for data: 773112864
I0403 14:10:37.018975   952 layer_factory.hpp:77] Creating layer inception_3b/output
I0403 14:10:37.018993   952 net.cpp:91] Creating Layer inception_3b/output
I0403 14:10:37.019009   952 net.cpp:425] inception_3b/output <- inception_3b/1x1
I0403 14:10:37.019026   952 net.cpp:425] inception_3b/output <- inception_3b/3x3
I0403 14:10:37.019042   952 net.cpp:425] inception_3b/output <- inception_3b/5x5
I0403 14:10:37.019059   952 net.cpp:425] inception_3b/output <- inception_3b/pool_proj
I0403 14:10:37.019079   952 net.cpp:399] inception_3b/output -> inception_3b/output
I0403 14:10:37.019125   952 net.cpp:141] Setting up inception_3b/output
I0403 14:10:37.019148   952 net.cpp:148] Top shape: 24 480 28 28 (9031680)
I0403 14:10:37.019165   952 net.cpp:156] Memory required for data: 809239584
I0403 14:10:37.019184   952 layer_factory.hpp:77] Creating layer pool3/3x3_s2
I0403 14:10:37.019206   952 net.cpp:91] Creating Layer pool3/3x3_s2
I0403 14:10:37.019223   952 net.cpp:425] pool3/3x3_s2 <- inception_3b/output
I0403 14:10:37.019258   952 net.cpp:399] pool3/3x3_s2 -> pool3/3x3_s2
I0403 14:10:37.019323   952 net.cpp:141] Setting up pool3/3x3_s2
I0403 14:10:37.019348   952 net.cpp:148] Top shape: 24 480 14 14 (2257920)
I0403 14:10:37.019363   952 net.cpp:156] Memory required for data: 818271264
I0403 14:10:37.019378   952 layer_factory.hpp:77] Creating layer pool3/3x3_s2_pool3/3x3_s2_0_split
I0403 14:10:37.019397   952 net.cpp:91] Creating Layer pool3/3x3_s2_pool3/3x3_s2_0_split
I0403 14:10:37.019412   952 net.cpp:425] pool3/3x3_s2_pool3/3x3_s2_0_split <- pool3/3x3_s2
I0403 14:10:37.019433   952 net.cpp:399] pool3/3x3_s2_pool3/3x3_s2_0_split -> pool3/3x3_s2_pool3/3x3_s2_0_split_0
I0403 14:10:37.019454   952 net.cpp:399] pool3/3x3_s2_pool3/3x3_s2_0_split -> pool3/3x3_s2_pool3/3x3_s2_0_split_1
I0403 14:10:37.019475   952 net.cpp:399] pool3/3x3_s2_pool3/3x3_s2_0_split -> pool3/3x3_s2_pool3/3x3_s2_0_split_2
I0403 14:10:37.019496   952 net.cpp:399] pool3/3x3_s2_pool3/3x3_s2_0_split -> pool3/3x3_s2_pool3/3x3_s2_0_split_3
I0403 14:10:37.019575   952 net.cpp:141] Setting up pool3/3x3_s2_pool3/3x3_s2_0_split
I0403 14:10:37.019600   952 net.cpp:148] Top shape: 24 480 14 14 (2257920)
I0403 14:10:37.019618   952 net.cpp:148] Top shape: 24 480 14 14 (2257920)
I0403 14:10:37.019634   952 net.cpp:148] Top shape: 24 480 14 14 (2257920)
I0403 14:10:37.019649   952 net.cpp:148] Top shape: 24 480 14 14 (2257920)
I0403 14:10:37.019665   952 net.cpp:156] Memory required for data: 854397984
I0403 14:10:37.019680   952 layer_factory.hpp:77] Creating layer inception_4a/1x1
I0403 14:10:37.019703   952 net.cpp:91] Creating Layer inception_4a/1x1
I0403 14:10:37.019721   952 net.cpp:425] inception_4a/1x1 <- pool3/3x3_s2_pool3/3x3_s2_0_split_0
I0403 14:10:37.019744   952 net.cpp:399] inception_4a/1x1 -> inception_4a/1x1
I0403 14:10:37.021399   952 net.cpp:141] Setting up inception_4a/1x1
I0403 14:10:37.021426   952 net.cpp:148] Top shape: 24 192 14 14 (903168)
I0403 14:10:37.021442   952 net.cpp:156] Memory required for data: 858010656
I0403 14:10:37.021461   952 layer_factory.hpp:77] Creating layer inception_4a/relu_1x1
I0403 14:10:37.021478   952 net.cpp:91] Creating Layer inception_4a/relu_1x1
I0403 14:10:37.021494   952 net.cpp:425] inception_4a/relu_1x1 <- inception_4a/1x1
I0403 14:10:37.021514   952 net.cpp:386] inception_4a/relu_1x1 -> inception_4a/1x1 (in-place)
I0403 14:10:37.021692   952 net.cpp:141] Setting up inception_4a/relu_1x1
I0403 14:10:37.021716   952 net.cpp:148] Top shape: 24 192 14 14 (903168)
I0403 14:10:37.021731   952 net.cpp:156] Memory required for data: 861623328
I0403 14:10:37.021746   952 layer_factory.hpp:77] Creating layer inception_4a/3x3_reduce
I0403 14:10:37.021771   952 net.cpp:91] Creating Layer inception_4a/3x3_reduce
I0403 14:10:37.021790   952 net.cpp:425] inception_4a/3x3_reduce <- pool3/3x3_s2_pool3/3x3_s2_0_split_1
I0403 14:10:37.021811   952 net.cpp:399] inception_4a/3x3_reduce -> inception_4a/3x3_reduce
I0403 14:10:37.023113   952 net.cpp:141] Setting up inception_4a/3x3_reduce
I0403 14:10:37.023140   952 net.cpp:148] Top shape: 24 96 14 14 (451584)
I0403 14:10:37.023156   952 net.cpp:156] Memory required for data: 863429664
I0403 14:10:37.023193   952 layer_factory.hpp:77] Creating layer inception_4a/relu_3x3_reduce
I0403 14:10:37.023216   952 net.cpp:91] Creating Layer inception_4a/relu_3x3_reduce
I0403 14:10:37.023232   952 net.cpp:425] inception_4a/relu_3x3_reduce <- inception_4a/3x3_reduce
I0403 14:10:37.023250   952 net.cpp:386] inception_4a/relu_3x3_reduce -> inception_4a/3x3_reduce (in-place)
I0403 14:10:37.023428   952 net.cpp:141] Setting up inception_4a/relu_3x3_reduce
I0403 14:10:37.023454   952 net.cpp:148] Top shape: 24 96 14 14 (451584)
I0403 14:10:37.023470   952 net.cpp:156] Memory required for data: 865236000
I0403 14:10:37.023485   952 layer_factory.hpp:77] Creating layer inception_4a/3x3
I0403 14:10:37.023509   952 net.cpp:91] Creating Layer inception_4a/3x3
I0403 14:10:37.023525   952 net.cpp:425] inception_4a/3x3 <- inception_4a/3x3_reduce
I0403 14:10:37.023546   952 net.cpp:399] inception_4a/3x3 -> inception_4a/3x3
I0403 14:10:37.026331   952 net.cpp:141] Setting up inception_4a/3x3
I0403 14:10:37.026361   952 net.cpp:148] Top shape: 24 208 14 14 (978432)
I0403 14:10:37.026377   952 net.cpp:156] Memory required for data: 869149728
I0403 14:10:37.026396   952 layer_factory.hpp:77] Creating layer inception_4a/relu_3x3
I0403 14:10:37.026417   952 net.cpp:91] Creating Layer inception_4a/relu_3x3
I0403 14:10:37.026433   952 net.cpp:425] inception_4a/relu_3x3 <- inception_4a/3x3
I0403 14:10:37.026451   952 net.cpp:386] inception_4a/relu_3x3 -> inception_4a/3x3 (in-place)
I0403 14:10:37.026739   952 net.cpp:141] Setting up inception_4a/relu_3x3
I0403 14:10:37.026767   952 net.cpp:148] Top shape: 24 208 14 14 (978432)
I0403 14:10:37.026782   952 net.cpp:156] Memory required for data: 873063456
I0403 14:10:37.026796   952 layer_factory.hpp:77] Creating layer inception_4a/5x5_reduce
I0403 14:10:37.026819   952 net.cpp:91] Creating Layer inception_4a/5x5_reduce
I0403 14:10:37.026839   952 net.cpp:425] inception_4a/5x5_reduce <- pool3/3x3_s2_pool3/3x3_s2_0_split_2
I0403 14:10:37.026860   952 net.cpp:399] inception_4a/5x5_reduce -> inception_4a/5x5_reduce
I0403 14:10:37.027915   952 net.cpp:141] Setting up inception_4a/5x5_reduce
I0403 14:10:37.027943   952 net.cpp:148] Top shape: 24 16 14 14 (75264)
I0403 14:10:37.027958   952 net.cpp:156] Memory required for data: 873364512
I0403 14:10:37.027977   952 layer_factory.hpp:77] Creating layer inception_4a/relu_5x5_reduce
I0403 14:10:37.027997   952 net.cpp:91] Creating Layer inception_4a/relu_5x5_reduce
I0403 14:10:37.028014   952 net.cpp:425] inception_4a/relu_5x5_reduce <- inception_4a/5x5_reduce
I0403 14:10:37.028033   952 net.cpp:386] inception_4a/relu_5x5_reduce -> inception_4a/5x5_reduce (in-place)
I0403 14:10:37.028218   952 net.cpp:141] Setting up inception_4a/relu_5x5_reduce
I0403 14:10:37.028246   952 net.cpp:148] Top shape: 24 16 14 14 (75264)
I0403 14:10:37.028262   952 net.cpp:156] Memory required for data: 873665568
I0403 14:10:37.028277   952 layer_factory.hpp:77] Creating layer inception_4a/5x5
I0403 14:10:37.028301   952 net.cpp:91] Creating Layer inception_4a/5x5
I0403 14:10:37.028318   952 net.cpp:425] inception_4a/5x5 <- inception_4a/5x5_reduce
I0403 14:10:37.028337   952 net.cpp:399] inception_4a/5x5 -> inception_4a/5x5
I0403 14:10:37.029456   952 net.cpp:141] Setting up inception_4a/5x5
I0403 14:10:37.029487   952 net.cpp:148] Top shape: 24 48 14 14 (225792)
I0403 14:10:37.029505   952 net.cpp:156] Memory required for data: 874568736
I0403 14:10:37.029523   952 layer_factory.hpp:77] Creating layer inception_4a/relu_5x5
I0403 14:10:37.029541   952 net.cpp:91] Creating Layer inception_4a/relu_5x5
I0403 14:10:37.029557   952 net.cpp:425] inception_4a/relu_5x5 <- inception_4a/5x5
I0403 14:10:37.029578   952 net.cpp:386] inception_4a/relu_5x5 -> inception_4a/5x5 (in-place)
I0403 14:10:37.029760   952 net.cpp:141] Setting up inception_4a/relu_5x5
I0403 14:10:37.029786   952 net.cpp:148] Top shape: 24 48 14 14 (225792)
I0403 14:10:37.029800   952 net.cpp:156] Memory required for data: 875471904
I0403 14:10:37.029816   952 layer_factory.hpp:77] Creating layer inception_4a/pool
I0403 14:10:37.029835   952 net.cpp:91] Creating Layer inception_4a/pool
I0403 14:10:37.029851   952 net.cpp:425] inception_4a/pool <- pool3/3x3_s2_pool3/3x3_s2_0_split_3
I0403 14:10:37.029871   952 net.cpp:399] inception_4a/pool -> inception_4a/pool
I0403 14:10:37.029933   952 net.cpp:141] Setting up inception_4a/pool
I0403 14:10:37.029958   952 net.cpp:148] Top shape: 24 480 14 14 (2257920)
I0403 14:10:37.029971   952 net.cpp:156] Memory required for data: 884503584
I0403 14:10:37.029986   952 layer_factory.hpp:77] Creating layer inception_4a/pool_proj
I0403 14:10:37.030010   952 net.cpp:91] Creating Layer inception_4a/pool_proj
I0403 14:10:37.030028   952 net.cpp:425] inception_4a/pool_proj <- inception_4a/pool
I0403 14:10:37.030047   952 net.cpp:399] inception_4a/pool_proj -> inception_4a/pool_proj
I0403 14:10:37.031260   952 net.cpp:141] Setting up inception_4a/pool_proj
I0403 14:10:37.031291   952 net.cpp:148] Top shape: 24 64 14 14 (301056)
I0403 14:10:37.031322   952 net.cpp:156] Memory required for data: 885707808
I0403 14:10:37.031342   952 layer_factory.hpp:77] Creating layer inception_4a/relu_pool_proj
I0403 14:10:37.031361   952 net.cpp:91] Creating Layer inception_4a/relu_pool_proj
I0403 14:10:37.031378   952 net.cpp:425] inception_4a/relu_pool_proj <- inception_4a/pool_proj
I0403 14:10:37.031399   952 net.cpp:386] inception_4a/relu_pool_proj -> inception_4a/pool_proj (in-place)
I0403 14:10:37.031714   952 net.cpp:141] Setting up inception_4a/relu_pool_proj
I0403 14:10:37.031745   952 net.cpp:148] Top shape: 24 64 14 14 (301056)
I0403 14:10:37.031761   952 net.cpp:156] Memory required for data: 886912032
I0403 14:10:37.031777   952 layer_factory.hpp:77] Creating layer inception_4a/output
I0403 14:10:37.031795   952 net.cpp:91] Creating Layer inception_4a/output
I0403 14:10:37.031811   952 net.cpp:425] inception_4a/output <- inception_4a/1x1
I0403 14:10:37.031828   952 net.cpp:425] inception_4a/output <- inception_4a/3x3
I0403 14:10:37.031844   952 net.cpp:425] inception_4a/output <- inception_4a/5x5
I0403 14:10:37.031862   952 net.cpp:425] inception_4a/output <- inception_4a/pool_proj
I0403 14:10:37.031894   952 net.cpp:399] inception_4a/output -> inception_4a/output
I0403 14:10:37.031940   952 net.cpp:141] Setting up inception_4a/output
I0403 14:10:37.031963   952 net.cpp:148] Top shape: 24 512 14 14 (2408448)
I0403 14:10:37.031978   952 net.cpp:156] Memory required for data: 896545824
I0403 14:10:37.031993   952 layer_factory.hpp:77] Creating layer inception_4a/output_inception_4a/output_0_split
I0403 14:10:37.032014   952 net.cpp:91] Creating Layer inception_4a/output_inception_4a/output_0_split
I0403 14:10:37.032030   952 net.cpp:425] inception_4a/output_inception_4a/output_0_split <- inception_4a/output
I0403 14:10:37.032048   952 net.cpp:399] inception_4a/output_inception_4a/output_0_split -> inception_4a/output_inception_4a/output_0_split_0
I0403 14:10:37.032071   952 net.cpp:399] inception_4a/output_inception_4a/output_0_split -> inception_4a/output_inception_4a/output_0_split_1
I0403 14:10:37.032091   952 net.cpp:399] inception_4a/output_inception_4a/output_0_split -> inception_4a/output_inception_4a/output_0_split_2
I0403 14:10:37.032112   952 net.cpp:399] inception_4a/output_inception_4a/output_0_split -> inception_4a/output_inception_4a/output_0_split_3
I0403 14:10:37.032132   952 net.cpp:399] inception_4a/output_inception_4a/output_0_split -> inception_4a/output_inception_4a/output_0_split_4
I0403 14:10:37.032233   952 net.cpp:141] Setting up inception_4a/output_inception_4a/output_0_split
I0403 14:10:37.032258   952 net.cpp:148] Top shape: 24 512 14 14 (2408448)
I0403 14:10:37.032274   952 net.cpp:148] Top shape: 24 512 14 14 (2408448)
I0403 14:10:37.032291   952 net.cpp:148] Top shape: 24 512 14 14 (2408448)
I0403 14:10:37.032307   952 net.cpp:148] Top shape: 24 512 14 14 (2408448)
I0403 14:10:37.032323   952 net.cpp:148] Top shape: 24 512 14 14 (2408448)
I0403 14:10:37.032337   952 net.cpp:156] Memory required for data: 944714784
I0403 14:10:37.032352   952 layer_factory.hpp:77] Creating layer loss1/ave_pool
I0403 14:10:37.032372   952 net.cpp:91] Creating Layer loss1/ave_pool
I0403 14:10:37.032389   952 net.cpp:425] loss1/ave_pool <- inception_4a/output_inception_4a/output_0_split_0
I0403 14:10:37.032407   952 net.cpp:399] loss1/ave_pool -> loss1/ave_pool
I0403 14:10:37.032623   952 net.cpp:141] Setting up loss1/ave_pool
I0403 14:10:37.032649   952 net.cpp:148] Top shape: 24 512 4 4 (196608)
I0403 14:10:37.032663   952 net.cpp:156] Memory required for data: 945501216
I0403 14:10:37.032678   952 layer_factory.hpp:77] Creating layer loss1/conv
I0403 14:10:37.032701   952 net.cpp:91] Creating Layer loss1/conv
I0403 14:10:37.032718   952 net.cpp:425] loss1/conv <- loss1/ave_pool
I0403 14:10:37.032739   952 net.cpp:399] loss1/conv -> loss1/conv
I0403 14:10:37.034265   952 net.cpp:141] Setting up loss1/conv
I0403 14:10:37.034293   952 net.cpp:148] Top shape: 24 128 4 4 (49152)
I0403 14:10:37.034323   952 net.cpp:156] Memory required for data: 945697824
I0403 14:10:37.034344   952 layer_factory.hpp:77] Creating layer loss1/relu_conv
I0403 14:10:37.034365   952 net.cpp:91] Creating Layer loss1/relu_conv
I0403 14:10:37.034382   952 net.cpp:425] loss1/relu_conv <- loss1/conv
I0403 14:10:37.034400   952 net.cpp:386] loss1/relu_conv -> loss1/conv (in-place)
I0403 14:10:37.034693   952 net.cpp:141] Setting up loss1/relu_conv
I0403 14:10:37.034721   952 net.cpp:148] Top shape: 24 128 4 4 (49152)
I0403 14:10:37.034736   952 net.cpp:156] Memory required for data: 945894432
I0403 14:10:37.034751   952 layer_factory.hpp:77] Creating layer loss1/fc
I0403 14:10:37.034780   952 net.cpp:91] Creating Layer loss1/fc
I0403 14:10:37.034798   952 net.cpp:425] loss1/fc <- loss1/conv
I0403 14:10:37.034817   952 net.cpp:399] loss1/fc -> loss1/fc
I0403 14:10:37.053792   952 net.cpp:141] Setting up loss1/fc
I0403 14:10:37.053860   952 net.cpp:148] Top shape: 24 1024 (24576)
I0403 14:10:37.053876   952 net.cpp:156] Memory required for data: 945992736
I0403 14:10:37.053896   952 layer_factory.hpp:77] Creating layer loss1/relu_fc
I0403 14:10:37.053916   952 net.cpp:91] Creating Layer loss1/relu_fc
I0403 14:10:37.053933   952 net.cpp:425] loss1/relu_fc <- loss1/fc
I0403 14:10:37.053954   952 net.cpp:386] loss1/relu_fc -> loss1/fc (in-place)
I0403 14:10:37.054173   952 net.cpp:141] Setting up loss1/relu_fc
I0403 14:10:37.054203   952 net.cpp:148] Top shape: 24 1024 (24576)
I0403 14:10:37.054219   952 net.cpp:156] Memory required for data: 946091040
I0403 14:10:37.054234   952 layer_factory.hpp:77] Creating layer loss1/drop_fc
I0403 14:10:37.054265   952 net.cpp:91] Creating Layer loss1/drop_fc
I0403 14:10:37.054283   952 net.cpp:425] loss1/drop_fc <- loss1/fc
I0403 14:10:37.054301   952 net.cpp:386] loss1/drop_fc -> loss1/fc (in-place)
I0403 14:10:37.054354   952 net.cpp:141] Setting up loss1/drop_fc
I0403 14:10:37.054381   952 net.cpp:148] Top shape: 24 1024 (24576)
I0403 14:10:37.054397   952 net.cpp:156] Memory required for data: 946189344
I0403 14:10:37.054412   952 layer_factory.hpp:77] Creating layer loss1/classifier_plantvillage
I0403 14:10:37.054431   952 net.cpp:91] Creating Layer loss1/classifier_plantvillage
I0403 14:10:37.054446   952 net.cpp:425] loss1/classifier_plantvillage <- loss1/fc
I0403 14:10:37.054471   952 net.cpp:399] loss1/classifier_plantvillage -> loss1/classifier_plantvillage
I0403 14:10:37.055476   952 net.cpp:141] Setting up loss1/classifier_plantvillage
I0403 14:10:37.055505   952 net.cpp:148] Top shape: 24 38 (912)
I0403 14:10:37.055521   952 net.cpp:156] Memory required for data: 946192992
I0403 14:10:37.055539   952 layer_factory.hpp:77] Creating layer loss1/classifier_plantvillage_loss1/classifier_plantvillage_0_split
I0403 14:10:37.055557   952 net.cpp:91] Creating Layer loss1/classifier_plantvillage_loss1/classifier_plantvillage_0_split
I0403 14:10:37.055573   952 net.cpp:425] loss1/classifier_plantvillage_loss1/classifier_plantvillage_0_split <- loss1/classifier_plantvillage
I0403 14:10:37.055594   952 net.cpp:399] loss1/classifier_plantvillage_loss1/classifier_plantvillage_0_split -> loss1/classifier_plantvillage_loss1/classifier_plantvillage_0_split_0
I0403 14:10:37.055615   952 net.cpp:399] loss1/classifier_plantvillage_loss1/classifier_plantvillage_0_split -> loss1/classifier_plantvillage_loss1/classifier_plantvillage_0_split_1
I0403 14:10:37.055634   952 net.cpp:399] loss1/classifier_plantvillage_loss1/classifier_plantvillage_0_split -> loss1/classifier_plantvillage_loss1/classifier_plantvillage_0_split_2
I0403 14:10:37.055703   952 net.cpp:141] Setting up loss1/classifier_plantvillage_loss1/classifier_plantvillage_0_split
I0403 14:10:37.055727   952 net.cpp:148] Top shape: 24 38 (912)
I0403 14:10:37.055743   952 net.cpp:148] Top shape: 24 38 (912)
I0403 14:10:37.055771   952 net.cpp:148] Top shape: 24 38 (912)
I0403 14:10:37.055785   952 net.cpp:156] Memory required for data: 946203936
I0403 14:10:37.055799   952 layer_factory.hpp:77] Creating layer inception_4b/1x1
I0403 14:10:37.055824   952 net.cpp:91] Creating Layer inception_4b/1x1
I0403 14:10:37.055867   952 net.cpp:425] inception_4b/1x1 <- inception_4a/output_inception_4a/output_0_split_1
I0403 14:10:37.055887   952 net.cpp:399] inception_4b/1x1 -> inception_4b/1x1
I0403 14:10:37.057631   952 net.cpp:141] Setting up inception_4b/1x1
I0403 14:10:37.057660   952 net.cpp:148] Top shape: 24 160 14 14 (752640)
I0403 14:10:37.057675   952 net.cpp:156] Memory required for data: 949214496
I0403 14:10:37.057694   952 layer_factory.hpp:77] Creating layer inception_4b/relu_1x1
I0403 14:10:37.057715   952 net.cpp:91] Creating Layer inception_4b/relu_1x1
I0403 14:10:37.057731   952 net.cpp:425] inception_4b/relu_1x1 <- inception_4b/1x1
I0403 14:10:37.057749   952 net.cpp:386] inception_4b/relu_1x1 -> inception_4b/1x1 (in-place)
I0403 14:10:37.057945   952 net.cpp:141] Setting up inception_4b/relu_1x1
I0403 14:10:37.057971   952 net.cpp:148] Top shape: 24 160 14 14 (752640)
I0403 14:10:37.057986   952 net.cpp:156] Memory required for data: 952225056
I0403 14:10:37.058001   952 layer_factory.hpp:77] Creating layer inception_4b/3x3_reduce
I0403 14:10:37.058023   952 net.cpp:91] Creating Layer inception_4b/3x3_reduce
I0403 14:10:37.058042   952 net.cpp:425] inception_4b/3x3_reduce <- inception_4a/output_inception_4a/output_0_split_2
I0403 14:10:37.058059   952 net.cpp:399] inception_4b/3x3_reduce -> inception_4b/3x3_reduce
I0403 14:10:37.059458   952 net.cpp:141] Setting up inception_4b/3x3_reduce
I0403 14:10:37.059489   952 net.cpp:148] Top shape: 24 112 14 14 (526848)
I0403 14:10:37.059505   952 net.cpp:156] Memory required for data: 954332448
I0403 14:10:37.059523   952 layer_factory.hpp:77] Creating layer inception_4b/relu_3x3_reduce
I0403 14:10:37.059540   952 net.cpp:91] Creating Layer inception_4b/relu_3x3_reduce
I0403 14:10:37.059556   952 net.cpp:425] inception_4b/relu_3x3_reduce <- inception_4b/3x3_reduce
I0403 14:10:37.059573   952 net.cpp:386] inception_4b/relu_3x3_reduce -> inception_4b/3x3_reduce (in-place)
I0403 14:10:37.059870   952 net.cpp:141] Setting up inception_4b/relu_3x3_reduce
I0403 14:10:37.059898   952 net.cpp:148] Top shape: 24 112 14 14 (526848)
I0403 14:10:37.059914   952 net.cpp:156] Memory required for data: 956439840
I0403 14:10:37.059929   952 layer_factory.hpp:77] Creating layer inception_4b/3x3
I0403 14:10:37.059952   952 net.cpp:91] Creating Layer inception_4b/3x3
I0403 14:10:37.059970   952 net.cpp:425] inception_4b/3x3 <- inception_4b/3x3_reduce
I0403 14:10:37.060001   952 net.cpp:399] inception_4b/3x3 -> inception_4b/3x3
I0403 14:10:37.063046   952 net.cpp:141] Setting up inception_4b/3x3
I0403 14:10:37.063076   952 net.cpp:148] Top shape: 24 224 14 14 (1053696)
I0403 14:10:37.063091   952 net.cpp:156] Memory required for data: 960654624
I0403 14:10:37.063109   952 layer_factory.hpp:77] Creating layer inception_4b/relu_3x3
I0403 14:10:37.063127   952 net.cpp:91] Creating Layer inception_4b/relu_3x3
I0403 14:10:37.063143   952 net.cpp:425] inception_4b/relu_3x3 <- inception_4b/3x3
I0403 14:10:37.063163   952 net.cpp:386] inception_4b/relu_3x3 -> inception_4b/3x3 (in-place)
I0403 14:10:37.063354   952 net.cpp:141] Setting up inception_4b/relu_3x3
I0403 14:10:37.063380   952 net.cpp:148] Top shape: 24 224 14 14 (1053696)
I0403 14:10:37.063395   952 net.cpp:156] Memory required for data: 964869408
I0403 14:10:37.063410   952 layer_factory.hpp:77] Creating layer inception_4b/5x5_reduce
I0403 14:10:37.063431   952 net.cpp:91] Creating Layer inception_4b/5x5_reduce
I0403 14:10:37.063448   952 net.cpp:425] inception_4b/5x5_reduce <- inception_4a/output_inception_4a/output_0_split_3
I0403 14:10:37.063472   952 net.cpp:399] inception_4b/5x5_reduce -> inception_4b/5x5_reduce
I0403 14:10:37.064594   952 net.cpp:141] Setting up inception_4b/5x5_reduce
I0403 14:10:37.064620   952 net.cpp:148] Top shape: 24 24 14 14 (112896)
I0403 14:10:37.064638   952 net.cpp:156] Memory required for data: 965320992
I0403 14:10:37.064657   952 layer_factory.hpp:77] Creating layer inception_4b/relu_5x5_reduce
I0403 14:10:37.064674   952 net.cpp:91] Creating Layer inception_4b/relu_5x5_reduce
I0403 14:10:37.064704   952 net.cpp:425] inception_4b/relu_5x5_reduce <- inception_4b/5x5_reduce
I0403 14:10:37.064723   952 net.cpp:386] inception_4b/relu_5x5_reduce -> inception_4b/5x5_reduce (in-place)
I0403 14:10:37.064904   952 net.cpp:141] Setting up inception_4b/relu_5x5_reduce
I0403 14:10:37.064931   952 net.cpp:148] Top shape: 24 24 14 14 (112896)
I0403 14:10:37.064947   952 net.cpp:156] Memory required for data: 965772576
I0403 14:10:37.064961   952 layer_factory.hpp:77] Creating layer inception_4b/5x5
I0403 14:10:37.064982   952 net.cpp:91] Creating Layer inception_4b/5x5
I0403 14:10:37.064999   952 net.cpp:425] inception_4b/5x5 <- inception_4b/5x5_reduce
I0403 14:10:37.065086   952 net.cpp:399] inception_4b/5x5 -> inception_4b/5x5
I0403 14:10:37.066364   952 net.cpp:141] Setting up inception_4b/5x5
I0403 14:10:37.066391   952 net.cpp:148] Top shape: 24 64 14 14 (301056)
I0403 14:10:37.066406   952 net.cpp:156] Memory required for data: 966976800
I0403 14:10:37.066424   952 layer_factory.hpp:77] Creating layer inception_4b/relu_5x5
I0403 14:10:37.066444   952 net.cpp:91] Creating Layer inception_4b/relu_5x5
I0403 14:10:37.066460   952 net.cpp:425] inception_4b/relu_5x5 <- inception_4b/5x5
I0403 14:10:37.066478   952 net.cpp:386] inception_4b/relu_5x5 -> inception_4b/5x5 (in-place)
I0403 14:10:37.066764   952 net.cpp:141] Setting up inception_4b/relu_5x5
I0403 14:10:37.066790   952 net.cpp:148] Top shape: 24 64 14 14 (301056)
I0403 14:10:37.066805   952 net.cpp:156] Memory required for data: 968181024
I0403 14:10:37.066819   952 layer_factory.hpp:77] Creating layer inception_4b/pool
I0403 14:10:37.066841   952 net.cpp:91] Creating Layer inception_4b/pool
I0403 14:10:37.066859   952 net.cpp:425] inception_4b/pool <- inception_4a/output_inception_4a/output_0_split_4
I0403 14:10:37.066877   952 net.cpp:399] inception_4b/pool -> inception_4b/pool
I0403 14:10:37.066943   952 net.cpp:141] Setting up inception_4b/pool
I0403 14:10:37.066967   952 net.cpp:148] Top shape: 24 512 14 14 (2408448)
I0403 14:10:37.066982   952 net.cpp:156] Memory required for data: 977814816
I0403 14:10:37.066995   952 layer_factory.hpp:77] Creating layer inception_4b/pool_proj
I0403 14:10:37.067016   952 net.cpp:91] Creating Layer inception_4b/pool_proj
I0403 14:10:37.067034   952 net.cpp:425] inception_4b/pool_proj <- inception_4b/pool
I0403 14:10:37.067054   952 net.cpp:399] inception_4b/pool_proj -> inception_4b/pool_proj
I0403 14:10:37.068296   952 net.cpp:141] Setting up inception_4b/pool_proj
I0403 14:10:37.068323   952 net.cpp:148] Top shape: 24 64 14 14 (301056)
I0403 14:10:37.068338   952 net.cpp:156] Memory required for data: 979019040
I0403 14:10:37.068356   952 layer_factory.hpp:77] Creating layer inception_4b/relu_pool_proj
I0403 14:10:37.068375   952 net.cpp:91] Creating Layer inception_4b/relu_pool_proj
I0403 14:10:37.068392   952 net.cpp:425] inception_4b/relu_pool_proj <- inception_4b/pool_proj
I0403 14:10:37.068408   952 net.cpp:386] inception_4b/relu_pool_proj -> inception_4b/pool_proj (in-place)
I0403 14:10:37.068588   952 net.cpp:141] Setting up inception_4b/relu_pool_proj
I0403 14:10:37.068614   952 net.cpp:148] Top shape: 24 64 14 14 (301056)
I0403 14:10:37.068627   952 net.cpp:156] Memory required for data: 980223264
I0403 14:10:37.068655   952 layer_factory.hpp:77] Creating layer inception_4b/output
I0403 14:10:37.068673   952 net.cpp:91] Creating Layer inception_4b/output
I0403 14:10:37.068689   952 net.cpp:425] inception_4b/output <- inception_4b/1x1
I0403 14:10:37.068706   952 net.cpp:425] inception_4b/output <- inception_4b/3x3
I0403 14:10:37.068722   952 net.cpp:425] inception_4b/output <- inception_4b/5x5
I0403 14:10:37.068738   952 net.cpp:425] inception_4b/output <- inception_4b/pool_proj
I0403 14:10:37.068758   952 net.cpp:399] inception_4b/output -> inception_4b/output
I0403 14:10:37.068804   952 net.cpp:141] Setting up inception_4b/output
I0403 14:10:37.068827   952 net.cpp:148] Top shape: 24 512 14 14 (2408448)
I0403 14:10:37.068845   952 net.cpp:156] Memory required for data: 989857056
I0403 14:10:37.068876   952 layer_factory.hpp:77] Creating layer inception_4b/output_inception_4b/output_0_split
I0403 14:10:37.068893   952 net.cpp:91] Creating Layer inception_4b/output_inception_4b/output_0_split
I0403 14:10:37.068908   952 net.cpp:425] inception_4b/output_inception_4b/output_0_split <- inception_4b/output
I0403 14:10:37.068927   952 net.cpp:399] inception_4b/output_inception_4b/output_0_split -> inception_4b/output_inception_4b/output_0_split_0
I0403 14:10:37.068945   952 net.cpp:399] inception_4b/output_inception_4b/output_0_split -> inception_4b/output_inception_4b/output_0_split_1
I0403 14:10:37.068965   952 net.cpp:399] inception_4b/output_inception_4b/output_0_split -> inception_4b/output_inception_4b/output_0_split_2
I0403 14:10:37.068989   952 net.cpp:399] inception_4b/output_inception_4b/output_0_split -> inception_4b/output_inception_4b/output_0_split_3
I0403 14:10:37.069079   952 net.cpp:141] Setting up inception_4b/output_inception_4b/output_0_split
I0403 14:10:37.069103   952 net.cpp:148] Top shape: 24 512 14 14 (2408448)
I0403 14:10:37.069120   952 net.cpp:148] Top shape: 24 512 14 14 (2408448)
I0403 14:10:37.069136   952 net.cpp:148] Top shape: 24 512 14 14 (2408448)
I0403 14:10:37.069152   952 net.cpp:148] Top shape: 24 512 14 14 (2408448)
I0403 14:10:37.069167   952 net.cpp:156] Memory required for data: 1028392224
I0403 14:10:37.069186   952 layer_factory.hpp:77] Creating layer inception_4c/1x1
I0403 14:10:37.069211   952 net.cpp:91] Creating Layer inception_4c/1x1
I0403 14:10:37.069228   952 net.cpp:425] inception_4c/1x1 <- inception_4b/output_inception_4b/output_0_split_0
I0403 14:10:37.069249   952 net.cpp:399] inception_4c/1x1 -> inception_4c/1x1
I0403 14:10:37.070744   952 net.cpp:141] Setting up inception_4c/1x1
I0403 14:10:37.070773   952 net.cpp:148] Top shape: 24 128 14 14 (602112)
I0403 14:10:37.070801   952 net.cpp:156] Memory required for data: 1030800672
I0403 14:10:37.070821   952 layer_factory.hpp:77] Creating layer inception_4c/relu_1x1
I0403 14:10:37.070838   952 net.cpp:91] Creating Layer inception_4c/relu_1x1
I0403 14:10:37.070854   952 net.cpp:425] inception_4c/relu_1x1 <- inception_4c/1x1
I0403 14:10:37.070875   952 net.cpp:386] inception_4c/relu_1x1 -> inception_4c/1x1 (in-place)
I0403 14:10:37.071066   952 net.cpp:141] Setting up inception_4c/relu_1x1
I0403 14:10:37.071105   952 net.cpp:148] Top shape: 24 128 14 14 (602112)
I0403 14:10:37.071120   952 net.cpp:156] Memory required for data: 1033209120
I0403 14:10:37.071135   952 layer_factory.hpp:77] Creating layer inception_4c/3x3_reduce
I0403 14:10:37.071157   952 net.cpp:91] Creating Layer inception_4c/3x3_reduce
I0403 14:10:37.071176   952 net.cpp:425] inception_4c/3x3_reduce <- inception_4b/output_inception_4b/output_0_split_1
I0403 14:10:37.071204   952 net.cpp:399] inception_4c/3x3_reduce -> inception_4c/3x3_reduce
I0403 14:10:37.073272   952 net.cpp:141] Setting up inception_4c/3x3_reduce
I0403 14:10:37.073302   952 net.cpp:148] Top shape: 24 128 14 14 (602112)
I0403 14:10:37.073318   952 net.cpp:156] Memory required for data: 1035617568
I0403 14:10:37.073336   952 layer_factory.hpp:77] Creating layer inception_4c/relu_3x3_reduce
I0403 14:10:37.073357   952 net.cpp:91] Creating Layer inception_4c/relu_3x3_reduce
I0403 14:10:37.073374   952 net.cpp:425] inception_4c/relu_3x3_reduce <- inception_4c/3x3_reduce
I0403 14:10:37.073393   952 net.cpp:386] inception_4c/relu_3x3_reduce -> inception_4c/3x3_reduce (in-place)
I0403 14:10:37.073690   952 net.cpp:141] Setting up inception_4c/relu_3x3_reduce
I0403 14:10:37.073717   952 net.cpp:148] Top shape: 24 128 14 14 (602112)
I0403 14:10:37.073732   952 net.cpp:156] Memory required for data: 1038026016
I0403 14:10:37.073747   952 layer_factory.hpp:77] Creating layer inception_4c/3x3
I0403 14:10:37.073770   952 net.cpp:91] Creating Layer inception_4c/3x3
I0403 14:10:37.073787   952 net.cpp:425] inception_4c/3x3 <- inception_4c/3x3_reduce
I0403 14:10:37.073809   952 net.cpp:399] inception_4c/3x3 -> inception_4c/3x3
I0403 14:10:37.077553   952 net.cpp:141] Setting up inception_4c/3x3
I0403 14:10:37.077595   952 net.cpp:148] Top shape: 24 256 14 14 (1204224)
I0403 14:10:37.077612   952 net.cpp:156] Memory required for data: 1042842912
I0403 14:10:37.077646   952 layer_factory.hpp:77] Creating layer inception_4c/relu_3x3
I0403 14:10:37.077667   952 net.cpp:91] Creating Layer inception_4c/relu_3x3
I0403 14:10:37.077684   952 net.cpp:425] inception_4c/relu_3x3 <- inception_4c/3x3
I0403 14:10:37.077702   952 net.cpp:386] inception_4c/relu_3x3 -> inception_4c/3x3 (in-place)
I0403 14:10:37.077884   952 net.cpp:141] Setting up inception_4c/relu_3x3
I0403 14:10:37.077911   952 net.cpp:148] Top shape: 24 256 14 14 (1204224)
I0403 14:10:37.077939   952 net.cpp:156] Memory required for data: 1047659808
I0403 14:10:37.077953   952 layer_factory.hpp:77] Creating layer inception_4c/5x5_reduce
I0403 14:10:37.077975   952 net.cpp:91] Creating Layer inception_4c/5x5_reduce
I0403 14:10:37.077991   952 net.cpp:425] inception_4c/5x5_reduce <- inception_4b/output_inception_4b/output_0_split_2
I0403 14:10:37.078014   952 net.cpp:399] inception_4c/5x5_reduce -> inception_4c/5x5_reduce
I0403 14:10:37.079128   952 net.cpp:141] Setting up inception_4c/5x5_reduce
I0403 14:10:37.079157   952 net.cpp:148] Top shape: 24 24 14 14 (112896)
I0403 14:10:37.079174   952 net.cpp:156] Memory required for data: 1048111392
I0403 14:10:37.079196   952 layer_factory.hpp:77] Creating layer inception_4c/relu_5x5_reduce
I0403 14:10:37.079218   952 net.cpp:91] Creating Layer inception_4c/relu_5x5_reduce
I0403 14:10:37.079234   952 net.cpp:425] inception_4c/relu_5x5_reduce <- inception_4c/5x5_reduce
I0403 14:10:37.079252   952 net.cpp:386] inception_4c/relu_5x5_reduce -> inception_4c/5x5_reduce (in-place)
I0403 14:10:37.079434   952 net.cpp:141] Setting up inception_4c/relu_5x5_reduce
I0403 14:10:37.079460   952 net.cpp:148] Top shape: 24 24 14 14 (112896)
I0403 14:10:37.079476   952 net.cpp:156] Memory required for data: 1048562976
I0403 14:10:37.079490   952 layer_factory.hpp:77] Creating layer inception_4c/5x5
I0403 14:10:37.079512   952 net.cpp:91] Creating Layer inception_4c/5x5
I0403 14:10:37.079541   952 net.cpp:425] inception_4c/5x5 <- inception_4c/5x5_reduce
I0403 14:10:37.079561   952 net.cpp:399] inception_4c/5x5 -> inception_4c/5x5
I0403 14:10:37.080823   952 net.cpp:141] Setting up inception_4c/5x5
I0403 14:10:37.080853   952 net.cpp:148] Top shape: 24 64 14 14 (301056)
I0403 14:10:37.080869   952 net.cpp:156] Memory required for data: 1049767200
I0403 14:10:37.080888   952 layer_factory.hpp:77] Creating layer inception_4c/relu_5x5
I0403 14:10:37.080904   952 net.cpp:91] Creating Layer inception_4c/relu_5x5
I0403 14:10:37.080919   952 net.cpp:425] inception_4c/relu_5x5 <- inception_4c/5x5
I0403 14:10:37.080938   952 net.cpp:386] inception_4c/relu_5x5 -> inception_4c/5x5 (in-place)
I0403 14:10:37.081243   952 net.cpp:141] Setting up inception_4c/relu_5x5
I0403 14:10:37.081272   952 net.cpp:148] Top shape: 24 64 14 14 (301056)
I0403 14:10:37.081287   952 net.cpp:156] Memory required for data: 1050971424
I0403 14:10:37.081302   952 layer_factory.hpp:77] Creating layer inception_4c/pool
I0403 14:10:37.081321   952 net.cpp:91] Creating Layer inception_4c/pool
I0403 14:10:37.081336   952 net.cpp:425] inception_4c/pool <- inception_4b/output_inception_4b/output_0_split_3
I0403 14:10:37.081357   952 net.cpp:399] inception_4c/pool -> inception_4c/pool
I0403 14:10:37.081439   952 net.cpp:141] Setting up inception_4c/pool
I0403 14:10:37.081462   952 net.cpp:148] Top shape: 24 512 14 14 (2408448)
I0403 14:10:37.081476   952 net.cpp:156] Memory required for data: 1060605216
I0403 14:10:37.081490   952 layer_factory.hpp:77] Creating layer inception_4c/pool_proj
I0403 14:10:37.081514   952 net.cpp:91] Creating Layer inception_4c/pool_proj
I0403 14:10:37.081532   952 net.cpp:425] inception_4c/pool_proj <- inception_4c/pool
I0403 14:10:37.081550   952 net.cpp:399] inception_4c/pool_proj -> inception_4c/pool_proj
I0403 14:10:37.082787   952 net.cpp:141] Setting up inception_4c/pool_proj
I0403 14:10:37.082815   952 net.cpp:148] Top shape: 24 64 14 14 (301056)
I0403 14:10:37.082845   952 net.cpp:156] Memory required for data: 1061809440
I0403 14:10:37.082865   952 layer_factory.hpp:77] Creating layer inception_4c/relu_pool_proj
I0403 14:10:37.082886   952 net.cpp:91] Creating Layer inception_4c/relu_pool_proj
I0403 14:10:37.082903   952 net.cpp:425] inception_4c/relu_pool_proj <- inception_4c/pool_proj
I0403 14:10:37.082921   952 net.cpp:386] inception_4c/relu_pool_proj -> inception_4c/pool_proj (in-place)
I0403 14:10:37.083106   952 net.cpp:141] Setting up inception_4c/relu_pool_proj
I0403 14:10:37.083133   952 net.cpp:148] Top shape: 24 64 14 14 (301056)
I0403 14:10:37.083148   952 net.cpp:156] Memory required for data: 1063013664
I0403 14:10:37.083163   952 layer_factory.hpp:77] Creating layer inception_4c/output
I0403 14:10:37.083189   952 net.cpp:91] Creating Layer inception_4c/output
I0403 14:10:37.083209   952 net.cpp:425] inception_4c/output <- inception_4c/1x1
I0403 14:10:37.083225   952 net.cpp:425] inception_4c/output <- inception_4c/3x3
I0403 14:10:37.083241   952 net.cpp:425] inception_4c/output <- inception_4c/5x5
I0403 14:10:37.083257   952 net.cpp:425] inception_4c/output <- inception_4c/pool_proj
I0403 14:10:37.083274   952 net.cpp:399] inception_4c/output -> inception_4c/output
I0403 14:10:37.083323   952 net.cpp:141] Setting up inception_4c/output
I0403 14:10:37.083348   952 net.cpp:148] Top shape: 24 512 14 14 (2408448)
I0403 14:10:37.083362   952 net.cpp:156] Memory required for data: 1072647456
I0403 14:10:37.083379   952 layer_factory.hpp:77] Creating layer inception_4c/output_inception_4c/output_0_split
I0403 14:10:37.083397   952 net.cpp:91] Creating Layer inception_4c/output_inception_4c/output_0_split
I0403 14:10:37.083413   952 net.cpp:425] inception_4c/output_inception_4c/output_0_split <- inception_4c/output
I0403 14:10:37.083431   952 net.cpp:399] inception_4c/output_inception_4c/output_0_split -> inception_4c/output_inception_4c/output_0_split_0
I0403 14:10:37.083451   952 net.cpp:399] inception_4c/output_inception_4c/output_0_split -> inception_4c/output_inception_4c/output_0_split_1
I0403 14:10:37.083472   952 net.cpp:399] inception_4c/output_inception_4c/output_0_split -> inception_4c/output_inception_4c/output_0_split_2
I0403 14:10:37.083493   952 net.cpp:399] inception_4c/output_inception_4c/output_0_split -> inception_4c/output_inception_4c/output_0_split_3
I0403 14:10:37.083585   952 net.cpp:141] Setting up inception_4c/output_inception_4c/output_0_split
I0403 14:10:37.083607   952 net.cpp:148] Top shape: 24 512 14 14 (2408448)
I0403 14:10:37.083624   952 net.cpp:148] Top shape: 24 512 14 14 (2408448)
I0403 14:10:37.083641   952 net.cpp:148] Top shape: 24 512 14 14 (2408448)
I0403 14:10:37.083655   952 net.cpp:148] Top shape: 24 512 14 14 (2408448)
I0403 14:10:37.083669   952 net.cpp:156] Memory required for data: 1111182624
I0403 14:10:37.083684   952 layer_factory.hpp:77] Creating layer inception_4d/1x1
I0403 14:10:37.083706   952 net.cpp:91] Creating Layer inception_4d/1x1
I0403 14:10:37.083724   952 net.cpp:425] inception_4d/1x1 <- inception_4c/output_inception_4c/output_0_split_0
I0403 14:10:37.083745   952 net.cpp:399] inception_4d/1x1 -> inception_4d/1x1
I0403 14:10:37.085228   952 net.cpp:141] Setting up inception_4d/1x1
I0403 14:10:37.085258   952 net.cpp:148] Top shape: 24 112 14 14 (526848)
I0403 14:10:37.085274   952 net.cpp:156] Memory required for data: 1113290016
I0403 14:10:37.085294   952 layer_factory.hpp:77] Creating layer inception_4d/relu_1x1
I0403 14:10:37.085314   952 net.cpp:91] Creating Layer inception_4d/relu_1x1
I0403 14:10:37.085330   952 net.cpp:425] inception_4d/relu_1x1 <- inception_4d/1x1
I0403 14:10:37.085350   952 net.cpp:386] inception_4d/relu_1x1 -> inception_4d/1x1 (in-place)
I0403 14:10:37.085544   952 net.cpp:141] Setting up inception_4d/relu_1x1
I0403 14:10:37.085571   952 net.cpp:148] Top shape: 24 112 14 14 (526848)
I0403 14:10:37.085587   952 net.cpp:156] Memory required for data: 1115397408
I0403 14:10:37.085602   952 layer_factory.hpp:77] Creating layer inception_4d/3x3_reduce
I0403 14:10:37.085643   952 net.cpp:91] Creating Layer inception_4d/3x3_reduce
I0403 14:10:37.085661   952 net.cpp:425] inception_4d/3x3_reduce <- inception_4c/output_inception_4c/output_0_split_1
I0403 14:10:37.085683   952 net.cpp:399] inception_4d/3x3_reduce -> inception_4d/3x3_reduce
I0403 14:10:37.087287   952 net.cpp:141] Setting up inception_4d/3x3_reduce
I0403 14:10:37.087317   952 net.cpp:148] Top shape: 24 144 14 14 (677376)
I0403 14:10:37.087333   952 net.cpp:156] Memory required for data: 1118106912
I0403 14:10:37.087352   952 layer_factory.hpp:77] Creating layer inception_4d/relu_3x3_reduce
I0403 14:10:37.087370   952 net.cpp:91] Creating Layer inception_4d/relu_3x3_reduce
I0403 14:10:37.087386   952 net.cpp:425] inception_4d/relu_3x3_reduce <- inception_4d/3x3_reduce
I0403 14:10:37.087406   952 net.cpp:386] inception_4d/relu_3x3_reduce -> inception_4d/3x3_reduce (in-place)
I0403 14:10:37.087718   952 net.cpp:141] Setting up inception_4d/relu_3x3_reduce
I0403 14:10:37.087749   952 net.cpp:148] Top shape: 24 144 14 14 (677376)
I0403 14:10:37.087764   952 net.cpp:156] Memory required for data: 1120816416
I0403 14:10:37.087780   952 layer_factory.hpp:77] Creating layer inception_4d/3x3
I0403 14:10:37.087803   952 net.cpp:91] Creating Layer inception_4d/3x3
I0403 14:10:37.087821   952 net.cpp:425] inception_4d/3x3 <- inception_4d/3x3_reduce
I0403 14:10:37.087841   952 net.cpp:399] inception_4d/3x3 -> inception_4d/3x3
I0403 14:10:37.092358   952 net.cpp:141] Setting up inception_4d/3x3
I0403 14:10:37.092391   952 net.cpp:148] Top shape: 24 288 14 14 (1354752)
I0403 14:10:37.092407   952 net.cpp:156] Memory required for data: 1126235424
I0403 14:10:37.092427   952 layer_factory.hpp:77] Creating layer inception_4d/relu_3x3
I0403 14:10:37.092447   952 net.cpp:91] Creating Layer inception_4d/relu_3x3
I0403 14:10:37.092465   952 net.cpp:425] inception_4d/relu_3x3 <- inception_4d/3x3
I0403 14:10:37.092483   952 net.cpp:386] inception_4d/relu_3x3 -> inception_4d/3x3 (in-place)
I0403 14:10:37.092692   952 net.cpp:141] Setting up inception_4d/relu_3x3
I0403 14:10:37.092718   952 net.cpp:148] Top shape: 24 288 14 14 (1354752)
I0403 14:10:37.092732   952 net.cpp:156] Memory required for data: 1131654432
I0403 14:10:37.092747   952 layer_factory.hpp:77] Creating layer inception_4d/5x5_reduce
I0403 14:10:37.092772   952 net.cpp:91] Creating Layer inception_4d/5x5_reduce
I0403 14:10:37.092789   952 net.cpp:425] inception_4d/5x5_reduce <- inception_4c/output_inception_4c/output_0_split_2
I0403 14:10:37.092808   952 net.cpp:399] inception_4d/5x5_reduce -> inception_4d/5x5_reduce
I0403 14:10:37.094019   952 net.cpp:141] Setting up inception_4d/5x5_reduce
I0403 14:10:37.094049   952 net.cpp:148] Top shape: 24 32 14 14 (150528)
I0403 14:10:37.094064   952 net.cpp:156] Memory required for data: 1132256544
I0403 14:10:37.094084   952 layer_factory.hpp:77] Creating layer inception_4d/relu_5x5_reduce
I0403 14:10:37.094105   952 net.cpp:91] Creating Layer inception_4d/relu_5x5_reduce
I0403 14:10:37.094122   952 net.cpp:425] inception_4d/relu_5x5_reduce <- inception_4d/5x5_reduce
I0403 14:10:37.094141   952 net.cpp:386] inception_4d/relu_5x5_reduce -> inception_4d/5x5_reduce (in-place)
I0403 14:10:37.094357   952 net.cpp:141] Setting up inception_4d/relu_5x5_reduce
I0403 14:10:37.094382   952 net.cpp:148] Top shape: 24 32 14 14 (150528)
I0403 14:10:37.094399   952 net.cpp:156] Memory required for data: 1132858656
I0403 14:10:37.094414   952 layer_factory.hpp:77] Creating layer inception_4d/5x5
I0403 14:10:37.094434   952 net.cpp:91] Creating Layer inception_4d/5x5
I0403 14:10:37.094451   952 net.cpp:425] inception_4d/5x5 <- inception_4d/5x5_reduce
I0403 14:10:37.094475   952 net.cpp:399] inception_4d/5x5 -> inception_4d/5x5
I0403 14:10:37.096067   952 net.cpp:141] Setting up inception_4d/5x5
I0403 14:10:37.096098   952 net.cpp:148] Top shape: 24 64 14 14 (301056)
I0403 14:10:37.096114   952 net.cpp:156] Memory required for data: 1134062880
I0403 14:10:37.096134   952 layer_factory.hpp:77] Creating layer inception_4d/relu_5x5
I0403 14:10:37.096168   952 net.cpp:91] Creating Layer inception_4d/relu_5x5
I0403 14:10:37.096191   952 net.cpp:425] inception_4d/relu_5x5 <- inception_4d/5x5
I0403 14:10:37.096210   952 net.cpp:386] inception_4d/relu_5x5 -> inception_4d/5x5 (in-place)
I0403 14:10:37.096518   952 net.cpp:141] Setting up inception_4d/relu_5x5
I0403 14:10:37.096547   952 net.cpp:148] Top shape: 24 64 14 14 (301056)
I0403 14:10:37.096563   952 net.cpp:156] Memory required for data: 1135267104
I0403 14:10:37.096578   952 layer_factory.hpp:77] Creating layer inception_4d/pool
I0403 14:10:37.096596   952 net.cpp:91] Creating Layer inception_4d/pool
I0403 14:10:37.096612   952 net.cpp:425] inception_4d/pool <- inception_4c/output_inception_4c/output_0_split_3
I0403 14:10:37.096632   952 net.cpp:399] inception_4d/pool -> inception_4d/pool
I0403 14:10:37.096701   952 net.cpp:141] Setting up inception_4d/pool
I0403 14:10:37.096725   952 net.cpp:148] Top shape: 24 512 14 14 (2408448)
I0403 14:10:37.096740   952 net.cpp:156] Memory required for data: 1144900896
I0403 14:10:37.096755   952 layer_factory.hpp:77] Creating layer inception_4d/pool_proj
I0403 14:10:37.096778   952 net.cpp:91] Creating Layer inception_4d/pool_proj
I0403 14:10:37.096796   952 net.cpp:425] inception_4d/pool_proj <- inception_4d/pool
I0403 14:10:37.096817   952 net.cpp:399] inception_4d/pool_proj -> inception_4d/pool_proj
I0403 14:10:37.098666   952 net.cpp:141] Setting up inception_4d/pool_proj
I0403 14:10:37.098707   952 net.cpp:148] Top shape: 24 64 14 14 (301056)
I0403 14:10:37.098722   952 net.cpp:156] Memory required for data: 1146105120
I0403 14:10:37.098753   952 layer_factory.hpp:77] Creating layer inception_4d/relu_pool_proj
I0403 14:10:37.098775   952 net.cpp:91] Creating Layer inception_4d/relu_pool_proj
I0403 14:10:37.098793   952 net.cpp:425] inception_4d/relu_pool_proj <- inception_4d/pool_proj
I0403 14:10:37.098811   952 net.cpp:386] inception_4d/relu_pool_proj -> inception_4d/pool_proj (in-place)
I0403 14:10:37.099009   952 net.cpp:141] Setting up inception_4d/relu_pool_proj
I0403 14:10:37.099035   952 net.cpp:148] Top shape: 24 64 14 14 (301056)
I0403 14:10:37.099050   952 net.cpp:156] Memory required for data: 1147309344
I0403 14:10:37.099078   952 layer_factory.hpp:77] Creating layer inception_4d/output
I0403 14:10:37.099098   952 net.cpp:91] Creating Layer inception_4d/output
I0403 14:10:37.099114   952 net.cpp:425] inception_4d/output <- inception_4d/1x1
I0403 14:10:37.099131   952 net.cpp:425] inception_4d/output <- inception_4d/3x3
I0403 14:10:37.099148   952 net.cpp:425] inception_4d/output <- inception_4d/5x5
I0403 14:10:37.099164   952 net.cpp:425] inception_4d/output <- inception_4d/pool_proj
I0403 14:10:37.099185   952 net.cpp:399] inception_4d/output -> inception_4d/output
I0403 14:10:37.099237   952 net.cpp:141] Setting up inception_4d/output
I0403 14:10:37.099261   952 net.cpp:148] Top shape: 24 528 14 14 (2483712)
I0403 14:10:37.099277   952 net.cpp:156] Memory required for data: 1157244192
I0403 14:10:37.099290   952 layer_factory.hpp:77] Creating layer inception_4d/output_inception_4d/output_0_split
I0403 14:10:37.099308   952 net.cpp:91] Creating Layer inception_4d/output_inception_4d/output_0_split
I0403 14:10:37.099324   952 net.cpp:425] inception_4d/output_inception_4d/output_0_split <- inception_4d/output
I0403 14:10:37.099344   952 net.cpp:399] inception_4d/output_inception_4d/output_0_split -> inception_4d/output_inception_4d/output_0_split_0
I0403 14:10:37.099365   952 net.cpp:399] inception_4d/output_inception_4d/output_0_split -> inception_4d/output_inception_4d/output_0_split_1
I0403 14:10:37.099386   952 net.cpp:399] inception_4d/output_inception_4d/output_0_split -> inception_4d/output_inception_4d/output_0_split_2
I0403 14:10:37.099409   952 net.cpp:399] inception_4d/output_inception_4d/output_0_split -> inception_4d/output_inception_4d/output_0_split_3
I0403 14:10:37.099431   952 net.cpp:399] inception_4d/output_inception_4d/output_0_split -> inception_4d/output_inception_4d/output_0_split_4
I0403 14:10:37.099537   952 net.cpp:141] Setting up inception_4d/output_inception_4d/output_0_split
I0403 14:10:37.099575   952 net.cpp:148] Top shape: 24 528 14 14 (2483712)
I0403 14:10:37.099591   952 net.cpp:148] Top shape: 24 528 14 14 (2483712)
I0403 14:10:37.099607   952 net.cpp:148] Top shape: 24 528 14 14 (2483712)
I0403 14:10:37.099623   952 net.cpp:148] Top shape: 24 528 14 14 (2483712)
I0403 14:10:37.099639   952 net.cpp:148] Top shape: 24 528 14 14 (2483712)
I0403 14:10:37.099653   952 net.cpp:156] Memory required for data: 1206918432
I0403 14:10:37.099668   952 layer_factory.hpp:77] Creating layer loss2/ave_pool
I0403 14:10:37.099686   952 net.cpp:91] Creating Layer loss2/ave_pool
I0403 14:10:37.099702   952 net.cpp:425] loss2/ave_pool <- inception_4d/output_inception_4d/output_0_split_0
I0403 14:10:37.099723   952 net.cpp:399] loss2/ave_pool -> loss2/ave_pool
I0403 14:10:37.100042   952 net.cpp:141] Setting up loss2/ave_pool
I0403 14:10:37.100069   952 net.cpp:148] Top shape: 24 528 4 4 (202752)
I0403 14:10:37.100085   952 net.cpp:156] Memory required for data: 1207729440
I0403 14:10:37.100101   952 layer_factory.hpp:77] Creating layer loss2/conv
I0403 14:10:37.100123   952 net.cpp:91] Creating Layer loss2/conv
I0403 14:10:37.100142   952 net.cpp:425] loss2/conv <- loss2/ave_pool
I0403 14:10:37.100162   952 net.cpp:399] loss2/conv -> loss2/conv
I0403 14:10:37.102207   952 net.cpp:141] Setting up loss2/conv
I0403 14:10:37.102251   952 net.cpp:148] Top shape: 24 128 4 4 (49152)
I0403 14:10:37.102267   952 net.cpp:156] Memory required for data: 1207926048
I0403 14:10:37.102286   952 layer_factory.hpp:77] Creating layer loss2/relu_conv
I0403 14:10:37.102305   952 net.cpp:91] Creating Layer loss2/relu_conv
I0403 14:10:37.102321   952 net.cpp:425] loss2/relu_conv <- loss2/conv
I0403 14:10:37.102341   952 net.cpp:386] loss2/relu_conv -> loss2/conv (in-place)
I0403 14:10:37.102638   952 net.cpp:141] Setting up loss2/relu_conv
I0403 14:10:37.102668   952 net.cpp:148] Top shape: 24 128 4 4 (49152)
I0403 14:10:37.102684   952 net.cpp:156] Memory required for data: 1208122656
I0403 14:10:37.102699   952 layer_factory.hpp:77] Creating layer loss2/fc
I0403 14:10:37.102720   952 net.cpp:91] Creating Layer loss2/fc
I0403 14:10:37.102735   952 net.cpp:425] loss2/fc <- loss2/conv
I0403 14:10:37.102757   952 net.cpp:399] loss2/fc -> loss2/fc
I0403 14:10:37.120967   952 net.cpp:141] Setting up loss2/fc
I0403 14:10:37.121014   952 net.cpp:148] Top shape: 24 1024 (24576)
I0403 14:10:37.121031   952 net.cpp:156] Memory required for data: 1208220960
I0403 14:10:37.121050   952 layer_factory.hpp:77] Creating layer loss2/relu_fc
I0403 14:10:37.121071   952 net.cpp:91] Creating Layer loss2/relu_fc
I0403 14:10:37.121090   952 net.cpp:425] loss2/relu_fc <- loss2/fc
I0403 14:10:37.121109   952 net.cpp:386] loss2/relu_fc -> loss2/fc (in-place)
I0403 14:10:37.121450   952 net.cpp:141] Setting up loss2/relu_fc
I0403 14:10:37.121477   952 net.cpp:148] Top shape: 24 1024 (24576)
I0403 14:10:37.121495   952 net.cpp:156] Memory required for data: 1208319264
I0403 14:10:37.121510   952 layer_factory.hpp:77] Creating layer loss2/drop_fc
I0403 14:10:37.121531   952 net.cpp:91] Creating Layer loss2/drop_fc
I0403 14:10:37.121547   952 net.cpp:425] loss2/drop_fc <- loss2/fc
I0403 14:10:37.121565   952 net.cpp:386] loss2/drop_fc -> loss2/fc (in-place)
I0403 14:10:37.121619   952 net.cpp:141] Setting up loss2/drop_fc
I0403 14:10:37.121642   952 net.cpp:148] Top shape: 24 1024 (24576)
I0403 14:10:37.121657   952 net.cpp:156] Memory required for data: 1208417568
I0403 14:10:37.121672   952 layer_factory.hpp:77] Creating layer loss2/classifier_plantvillage
I0403 14:10:37.121691   952 net.cpp:91] Creating Layer loss2/classifier_plantvillage
I0403 14:10:37.121707   952 net.cpp:425] loss2/classifier_plantvillage <- loss2/fc
I0403 14:10:37.121729   952 net.cpp:399] loss2/classifier_plantvillage -> loss2/classifier_plantvillage
I0403 14:10:37.122154   952 net.cpp:141] Setting up loss2/classifier_plantvillage
I0403 14:10:37.122184   952 net.cpp:148] Top shape: 24 38 (912)
I0403 14:10:37.122225   952 net.cpp:156] Memory required for data: 1208421216
I0403 14:10:37.122243   952 layer_factory.hpp:77] Creating layer loss2/classifier_plantvillage_loss2/classifier_plantvillage_0_split
I0403 14:10:37.122262   952 net.cpp:91] Creating Layer loss2/classifier_plantvillage_loss2/classifier_plantvillage_0_split
I0403 14:10:37.122278   952 net.cpp:425] loss2/classifier_plantvillage_loss2/classifier_plantvillage_0_split <- loss2/classifier_plantvillage
I0403 14:10:37.122299   952 net.cpp:399] loss2/classifier_plantvillage_loss2/classifier_plantvillage_0_split -> loss2/classifier_plantvillage_loss2/classifier_plantvillage_0_split_0
I0403 14:10:37.122321   952 net.cpp:399] loss2/classifier_plantvillage_loss2/classifier_plantvillage_0_split -> loss2/classifier_plantvillage_loss2/classifier_plantvillage_0_split_1
I0403 14:10:37.122342   952 net.cpp:399] loss2/classifier_plantvillage_loss2/classifier_plantvillage_0_split -> loss2/classifier_plantvillage_loss2/classifier_plantvillage_0_split_2
I0403 14:10:37.122421   952 net.cpp:141] Setting up loss2/classifier_plantvillage_loss2/classifier_plantvillage_0_split
I0403 14:10:37.122445   952 net.cpp:148] Top shape: 24 38 (912)
I0403 14:10:37.122462   952 net.cpp:148] Top shape: 24 38 (912)
I0403 14:10:37.122476   952 net.cpp:148] Top shape: 24 38 (912)
I0403 14:10:37.122490   952 net.cpp:156] Memory required for data: 1208432160
I0403 14:10:37.122505   952 layer_factory.hpp:77] Creating layer inception_4e/1x1
I0403 14:10:37.122529   952 net.cpp:91] Creating Layer inception_4e/1x1
I0403 14:10:37.122545   952 net.cpp:425] inception_4e/1x1 <- inception_4d/output_inception_4d/output_0_split_1
I0403 14:10:37.122565   952 net.cpp:399] inception_4e/1x1 -> inception_4e/1x1
I0403 14:10:37.124485   952 net.cpp:141] Setting up inception_4e/1x1
I0403 14:10:37.124516   952 net.cpp:148] Top shape: 24 256 14 14 (1204224)
I0403 14:10:37.124532   952 net.cpp:156] Memory required for data: 1213249056
I0403 14:10:37.124552   952 layer_factory.hpp:77] Creating layer inception_4e/relu_1x1
I0403 14:10:37.124569   952 net.cpp:91] Creating Layer inception_4e/relu_1x1
I0403 14:10:37.124585   952 net.cpp:425] inception_4e/relu_1x1 <- inception_4e/1x1
I0403 14:10:37.124605   952 net.cpp:386] inception_4e/relu_1x1 -> inception_4e/1x1 (in-place)
I0403 14:10:37.124908   952 net.cpp:141] Setting up inception_4e/relu_1x1
I0403 14:10:37.124938   952 net.cpp:148] Top shape: 24 256 14 14 (1204224)
I0403 14:10:37.124953   952 net.cpp:156] Memory required for data: 1218065952
I0403 14:10:37.124969   952 layer_factory.hpp:77] Creating layer inception_4e/3x3_reduce
I0403 14:10:37.124991   952 net.cpp:91] Creating Layer inception_4e/3x3_reduce
I0403 14:10:37.125008   952 net.cpp:425] inception_4e/3x3_reduce <- inception_4d/output_inception_4d/output_0_split_2
I0403 14:10:37.125028   952 net.cpp:399] inception_4e/3x3_reduce -> inception_4e/3x3_reduce
I0403 14:10:37.127238   952 net.cpp:141] Setting up inception_4e/3x3_reduce
I0403 14:10:37.127267   952 net.cpp:148] Top shape: 24 160 14 14 (752640)
I0403 14:10:37.127284   952 net.cpp:156] Memory required for data: 1221076512
I0403 14:10:37.127301   952 layer_factory.hpp:77] Creating layer inception_4e/relu_3x3_reduce
I0403 14:10:37.127322   952 net.cpp:91] Creating Layer inception_4e/relu_3x3_reduce
I0403 14:10:37.127341   952 net.cpp:425] inception_4e/relu_3x3_reduce <- inception_4e/3x3_reduce
I0403 14:10:37.127358   952 net.cpp:386] inception_4e/relu_3x3_reduce -> inception_4e/3x3_reduce (in-place)
I0403 14:10:37.127552   952 net.cpp:141] Setting up inception_4e/relu_3x3_reduce
I0403 14:10:37.127576   952 net.cpp:148] Top shape: 24 160 14 14 (752640)
I0403 14:10:37.127591   952 net.cpp:156] Memory required for data: 1224087072
I0403 14:10:37.127606   952 layer_factory.hpp:77] Creating layer inception_4e/3x3
I0403 14:10:37.127629   952 net.cpp:91] Creating Layer inception_4e/3x3
I0403 14:10:37.127646   952 net.cpp:425] inception_4e/3x3 <- inception_4e/3x3_reduce
I0403 14:10:37.127667   952 net.cpp:399] inception_4e/3x3 -> inception_4e/3x3
I0403 14:10:37.132848   952 net.cpp:141] Setting up inception_4e/3x3
I0403 14:10:37.132891   952 net.cpp:148] Top shape: 24 320 14 14 (1505280)
I0403 14:10:37.132908   952 net.cpp:156] Memory required for data: 1230108192
I0403 14:10:37.132927   952 layer_factory.hpp:77] Creating layer inception_4e/relu_3x3
I0403 14:10:37.132946   952 net.cpp:91] Creating Layer inception_4e/relu_3x3
I0403 14:10:37.132961   952 net.cpp:425] inception_4e/relu_3x3 <- inception_4e/3x3
I0403 14:10:37.132982   952 net.cpp:386] inception_4e/relu_3x3 -> inception_4e/3x3 (in-place)
I0403 14:10:37.133306   952 net.cpp:141] Setting up inception_4e/relu_3x3
I0403 14:10:37.133333   952 net.cpp:148] Top shape: 24 320 14 14 (1505280)
I0403 14:10:37.133348   952 net.cpp:156] Memory required for data: 1236129312
I0403 14:10:37.133363   952 layer_factory.hpp:77] Creating layer inception_4e/5x5_reduce
I0403 14:10:37.133388   952 net.cpp:91] Creating Layer inception_4e/5x5_reduce
I0403 14:10:37.133405   952 net.cpp:425] inception_4e/5x5_reduce <- inception_4d/output_inception_4d/output_0_split_3
I0403 14:10:37.133427   952 net.cpp:399] inception_4e/5x5_reduce -> inception_4e/5x5_reduce
I0403 14:10:37.134553   952 net.cpp:141] Setting up inception_4e/5x5_reduce
I0403 14:10:37.134583   952 net.cpp:148] Top shape: 24 32 14 14 (150528)
I0403 14:10:37.134599   952 net.cpp:156] Memory required for data: 1236731424
I0403 14:10:37.134618   952 layer_factory.hpp:77] Creating layer inception_4e/relu_5x5_reduce
I0403 14:10:37.134636   952 net.cpp:91] Creating Layer inception_4e/relu_5x5_reduce
I0403 14:10:37.134652   952 net.cpp:425] inception_4e/relu_5x5_reduce <- inception_4e/5x5_reduce
I0403 14:10:37.134670   952 net.cpp:386] inception_4e/relu_5x5_reduce -> inception_4e/5x5_reduce (in-place)
I0403 14:10:37.134976   952 net.cpp:141] Setting up inception_4e/relu_5x5_reduce
I0403 14:10:37.135005   952 net.cpp:148] Top shape: 24 32 14 14 (150528)
I0403 14:10:37.135020   952 net.cpp:156] Memory required for data: 1237333536
I0403 14:10:37.135036   952 layer_factory.hpp:77] Creating layer inception_4e/5x5
I0403 14:10:37.135078   952 net.cpp:91] Creating Layer inception_4e/5x5
I0403 14:10:37.135098   952 net.cpp:425] inception_4e/5x5 <- inception_4e/5x5_reduce
I0403 14:10:37.135118   952 net.cpp:399] inception_4e/5x5 -> inception_4e/5x5
I0403 14:10:37.137040   952 net.cpp:141] Setting up inception_4e/5x5
I0403 14:10:37.137069   952 net.cpp:148] Top shape: 24 128 14 14 (602112)
I0403 14:10:37.137084   952 net.cpp:156] Memory required for data: 1239741984
I0403 14:10:37.137104   952 layer_factory.hpp:77] Creating layer inception_4e/relu_5x5
I0403 14:10:37.137123   952 net.cpp:91] Creating Layer inception_4e/relu_5x5
I0403 14:10:37.137140   952 net.cpp:425] inception_4e/relu_5x5 <- inception_4e/5x5
I0403 14:10:37.137158   952 net.cpp:386] inception_4e/relu_5x5 -> inception_4e/5x5 (in-place)
I0403 14:10:37.137368   952 net.cpp:141] Setting up inception_4e/relu_5x5
I0403 14:10:37.137397   952 net.cpp:148] Top shape: 24 128 14 14 (602112)
I0403 14:10:37.137413   952 net.cpp:156] Memory required for data: 1242150432
I0403 14:10:37.137428   952 layer_factory.hpp:77] Creating layer inception_4e/pool
I0403 14:10:37.137446   952 net.cpp:91] Creating Layer inception_4e/pool
I0403 14:10:37.137465   952 net.cpp:425] inception_4e/pool <- inception_4d/output_inception_4d/output_0_split_4
I0403 14:10:37.137485   952 net.cpp:399] inception_4e/pool -> inception_4e/pool
I0403 14:10:37.137557   952 net.cpp:141] Setting up inception_4e/pool
I0403 14:10:37.137581   952 net.cpp:148] Top shape: 24 528 14 14 (2483712)
I0403 14:10:37.137596   952 net.cpp:156] Memory required for data: 1252085280
I0403 14:10:37.137611   952 layer_factory.hpp:77] Creating layer inception_4e/pool_proj
I0403 14:10:37.137634   952 net.cpp:91] Creating Layer inception_4e/pool_proj
I0403 14:10:37.137652   952 net.cpp:425] inception_4e/pool_proj <- inception_4e/pool
I0403 14:10:37.137673   952 net.cpp:399] inception_4e/pool_proj -> inception_4e/pool_proj
I0403 14:10:37.139250   952 net.cpp:141] Setting up inception_4e/pool_proj
I0403 14:10:37.139291   952 net.cpp:148] Top shape: 24 128 14 14 (602112)
I0403 14:10:37.139307   952 net.cpp:156] Memory required for data: 1254493728
I0403 14:10:37.139324   952 layer_factory.hpp:77] Creating layer inception_4e/relu_pool_proj
I0403 14:10:37.139345   952 net.cpp:91] Creating Layer inception_4e/relu_pool_proj
I0403 14:10:37.139363   952 net.cpp:425] inception_4e/relu_pool_proj <- inception_4e/pool_proj
I0403 14:10:37.139379   952 net.cpp:386] inception_4e/relu_pool_proj -> inception_4e/pool_proj (in-place)
I0403 14:10:37.139681   952 net.cpp:141] Setting up inception_4e/relu_pool_proj
I0403 14:10:37.139708   952 net.cpp:148] Top shape: 24 128 14 14 (602112)
I0403 14:10:37.139724   952 net.cpp:156] Memory required for data: 1256902176
I0403 14:10:37.139739   952 layer_factory.hpp:77] Creating layer inception_4e/output
I0403 14:10:37.139761   952 net.cpp:91] Creating Layer inception_4e/output
I0403 14:10:37.139778   952 net.cpp:425] inception_4e/output <- inception_4e/1x1
I0403 14:10:37.139796   952 net.cpp:425] inception_4e/output <- inception_4e/3x3
I0403 14:10:37.139811   952 net.cpp:425] inception_4e/output <- inception_4e/5x5
I0403 14:10:37.139827   952 net.cpp:425] inception_4e/output <- inception_4e/pool_proj
I0403 14:10:37.139844   952 net.cpp:399] inception_4e/output -> inception_4e/output
I0403 14:10:37.139895   952 net.cpp:141] Setting up inception_4e/output
I0403 14:10:37.139921   952 net.cpp:148] Top shape: 24 832 14 14 (3913728)
I0403 14:10:37.139936   952 net.cpp:156] Memory required for data: 1272557088
I0403 14:10:37.139951   952 layer_factory.hpp:77] Creating layer pool4/3x3_s2
I0403 14:10:37.139969   952 net.cpp:91] Creating Layer pool4/3x3_s2
I0403 14:10:37.139986   952 net.cpp:425] pool4/3x3_s2 <- inception_4e/output
I0403 14:10:37.140007   952 net.cpp:399] pool4/3x3_s2 -> pool4/3x3_s2
I0403 14:10:37.140075   952 net.cpp:141] Setting up pool4/3x3_s2
I0403 14:10:37.140102   952 net.cpp:148] Top shape: 24 832 7 7 (978432)
I0403 14:10:37.140117   952 net.cpp:156] Memory required for data: 1276470816
I0403 14:10:37.140132   952 layer_factory.hpp:77] Creating layer pool4/3x3_s2_pool4/3x3_s2_0_split
I0403 14:10:37.140151   952 net.cpp:91] Creating Layer pool4/3x3_s2_pool4/3x3_s2_0_split
I0403 14:10:37.140167   952 net.cpp:425] pool4/3x3_s2_pool4/3x3_s2_0_split <- pool4/3x3_s2
I0403 14:10:37.140189   952 net.cpp:399] pool4/3x3_s2_pool4/3x3_s2_0_split -> pool4/3x3_s2_pool4/3x3_s2_0_split_0
I0403 14:10:37.140211   952 net.cpp:399] pool4/3x3_s2_pool4/3x3_s2_0_split -> pool4/3x3_s2_pool4/3x3_s2_0_split_1
I0403 14:10:37.140234   952 net.cpp:399] pool4/3x3_s2_pool4/3x3_s2_0_split -> pool4/3x3_s2_pool4/3x3_s2_0_split_2
I0403 14:10:37.140256   952 net.cpp:399] pool4/3x3_s2_pool4/3x3_s2_0_split -> pool4/3x3_s2_pool4/3x3_s2_0_split_3
I0403 14:10:37.140352   952 net.cpp:141] Setting up pool4/3x3_s2_pool4/3x3_s2_0_split
I0403 14:10:37.140377   952 net.cpp:148] Top shape: 24 832 7 7 (978432)
I0403 14:10:37.140393   952 net.cpp:148] Top shape: 24 832 7 7 (978432)
I0403 14:10:37.140409   952 net.cpp:148] Top shape: 24 832 7 7 (978432)
I0403 14:10:37.140426   952 net.cpp:148] Top shape: 24 832 7 7 (978432)
I0403 14:10:37.140440   952 net.cpp:156] Memory required for data: 1292125728
I0403 14:10:37.140455   952 layer_factory.hpp:77] Creating layer inception_5a/1x1
I0403 14:10:37.140478   952 net.cpp:91] Creating Layer inception_5a/1x1
I0403 14:10:37.140496   952 net.cpp:425] inception_5a/1x1 <- pool4/3x3_s2_pool4/3x3_s2_0_split_0
I0403 14:10:37.140517   952 net.cpp:399] inception_5a/1x1 -> inception_5a/1x1
I0403 14:10:37.143595   952 net.cpp:141] Setting up inception_5a/1x1
I0403 14:10:37.143626   952 net.cpp:148] Top shape: 24 256 7 7 (301056)
I0403 14:10:37.143642   952 net.cpp:156] Memory required for data: 1293329952
I0403 14:10:37.143662   952 layer_factory.hpp:77] Creating layer inception_5a/relu_1x1
I0403 14:10:37.143683   952 net.cpp:91] Creating Layer inception_5a/relu_1x1
I0403 14:10:37.143700   952 net.cpp:425] inception_5a/relu_1x1 <- inception_5a/1x1
I0403 14:10:37.143719   952 net.cpp:386] inception_5a/relu_1x1 -> inception_5a/1x1 (in-place)
I0403 14:10:37.144052   952 net.cpp:141] Setting up inception_5a/relu_1x1
I0403 14:10:37.144079   952 net.cpp:148] Top shape: 24 256 7 7 (301056)
I0403 14:10:37.144095   952 net.cpp:156] Memory required for data: 1294534176
I0403 14:10:37.144111   952 layer_factory.hpp:77] Creating layer inception_5a/3x3_reduce
I0403 14:10:37.144136   952 net.cpp:91] Creating Layer inception_5a/3x3_reduce
I0403 14:10:37.144155   952 net.cpp:425] inception_5a/3x3_reduce <- pool4/3x3_s2_pool4/3x3_s2_0_split_1
I0403 14:10:37.144176   952 net.cpp:399] inception_5a/3x3_reduce -> inception_5a/3x3_reduce
I0403 14:10:37.146821   952 net.cpp:141] Setting up inception_5a/3x3_reduce
I0403 14:10:37.146850   952 net.cpp:148] Top shape: 24 160 7 7 (188160)
I0403 14:10:37.146867   952 net.cpp:156] Memory required for data: 1295286816
I0403 14:10:37.146885   952 layer_factory.hpp:77] Creating layer inception_5a/relu_3x3_reduce
I0403 14:10:37.146906   952 net.cpp:91] Creating Layer inception_5a/relu_3x3_reduce
I0403 14:10:37.146924   952 net.cpp:425] inception_5a/relu_3x3_reduce <- inception_5a/3x3_reduce
I0403 14:10:37.146942   952 net.cpp:386] inception_5a/relu_3x3_reduce -> inception_5a/3x3_reduce (in-place)
I0403 14:10:37.147141   952 net.cpp:141] Setting up inception_5a/relu_3x3_reduce
I0403 14:10:37.147167   952 net.cpp:148] Top shape: 24 160 7 7 (188160)
I0403 14:10:37.147188   952 net.cpp:156] Memory required for data: 1296039456
I0403 14:10:37.147204   952 layer_factory.hpp:77] Creating layer inception_5a/3x3
I0403 14:10:37.147228   952 net.cpp:91] Creating Layer inception_5a/3x3
I0403 14:10:37.147246   952 net.cpp:425] inception_5a/3x3 <- inception_5a/3x3_reduce
I0403 14:10:37.147269   952 net.cpp:399] inception_5a/3x3 -> inception_5a/3x3
I0403 14:10:37.152642   952 net.cpp:141] Setting up inception_5a/3x3
I0403 14:10:37.152673   952 net.cpp:148] Top shape: 24 320 7 7 (376320)
I0403 14:10:37.152690   952 net.cpp:156] Memory required for data: 1297544736
I0403 14:10:37.152709   952 layer_factory.hpp:77] Creating layer inception_5a/relu_3x3
I0403 14:10:37.152730   952 net.cpp:91] Creating Layer inception_5a/relu_3x3
I0403 14:10:37.152750   952 net.cpp:425] inception_5a/relu_3x3 <- inception_5a/3x3
I0403 14:10:37.152767   952 net.cpp:386] inception_5a/relu_3x3 -> inception_5a/3x3 (in-place)
I0403 14:10:37.153079   952 net.cpp:141] Setting up inception_5a/relu_3x3
I0403 14:10:37.153106   952 net.cpp:148] Top shape: 24 320 7 7 (376320)
I0403 14:10:37.153122   952 net.cpp:156] Memory required for data: 1299050016
I0403 14:10:37.153137   952 layer_factory.hpp:77] Creating layer inception_5a/5x5_reduce
I0403 14:10:37.153162   952 net.cpp:91] Creating Layer inception_5a/5x5_reduce
I0403 14:10:37.153190   952 net.cpp:425] inception_5a/5x5_reduce <- pool4/3x3_s2_pool4/3x3_s2_0_split_2
I0403 14:10:37.153218   952 net.cpp:399] inception_5a/5x5_reduce -> inception_5a/5x5_reduce
I0403 14:10:37.154487   952 net.cpp:141] Setting up inception_5a/5x5_reduce
I0403 14:10:37.154520   952 net.cpp:148] Top shape: 24 32 7 7 (37632)
I0403 14:10:37.154537   952 net.cpp:156] Memory required for data: 1299200544
I0403 14:10:37.154556   952 layer_factory.hpp:77] Creating layer inception_5a/relu_5x5_reduce
I0403 14:10:37.154575   952 net.cpp:91] Creating Layer inception_5a/relu_5x5_reduce
I0403 14:10:37.154592   952 net.cpp:425] inception_5a/relu_5x5_reduce <- inception_5a/5x5_reduce
I0403 14:10:37.154611   952 net.cpp:386] inception_5a/relu_5x5_reduce -> inception_5a/5x5_reduce (in-place)
I0403 14:10:37.154935   952 net.cpp:141] Setting up inception_5a/relu_5x5_reduce
I0403 14:10:37.154966   952 net.cpp:148] Top shape: 24 32 7 7 (37632)
I0403 14:10:37.154983   952 net.cpp:156] Memory required for data: 1299351072
I0403 14:10:37.154999   952 layer_factory.hpp:77] Creating layer inception_5a/5x5
I0403 14:10:37.155022   952 net.cpp:91] Creating Layer inception_5a/5x5
I0403 14:10:37.155040   952 net.cpp:425] inception_5a/5x5 <- inception_5a/5x5_reduce
I0403 14:10:37.155061   952 net.cpp:399] inception_5a/5x5 -> inception_5a/5x5
I0403 14:10:37.156919   952 net.cpp:141] Setting up inception_5a/5x5
I0403 14:10:37.156962   952 net.cpp:148] Top shape: 24 128 7 7 (150528)
I0403 14:10:37.156980   952 net.cpp:156] Memory required for data: 1299953184
I0403 14:10:37.156998   952 layer_factory.hpp:77] Creating layer inception_5a/relu_5x5
I0403 14:10:37.157019   952 net.cpp:91] Creating Layer inception_5a/relu_5x5
I0403 14:10:37.157037   952 net.cpp:425] inception_5a/relu_5x5 <- inception_5a/5x5
I0403 14:10:37.157055   952 net.cpp:386] inception_5a/relu_5x5 -> inception_5a/5x5 (in-place)
I0403 14:10:37.157266   952 net.cpp:141] Setting up inception_5a/relu_5x5
I0403 14:10:37.157295   952 net.cpp:148] Top shape: 24 128 7 7 (150528)
I0403 14:10:37.157311   952 net.cpp:156] Memory required for data: 1300555296
I0403 14:10:37.157327   952 layer_factory.hpp:77] Creating layer inception_5a/pool
I0403 14:10:37.157346   952 net.cpp:91] Creating Layer inception_5a/pool
I0403 14:10:37.157362   952 net.cpp:425] inception_5a/pool <- pool4/3x3_s2_pool4/3x3_s2_0_split_3
I0403 14:10:37.157384   952 net.cpp:399] inception_5a/pool -> inception_5a/pool
I0403 14:10:37.157459   952 net.cpp:141] Setting up inception_5a/pool
I0403 14:10:37.157485   952 net.cpp:148] Top shape: 24 832 7 7 (978432)
I0403 14:10:37.157500   952 net.cpp:156] Memory required for data: 1304469024
I0403 14:10:37.157516   952 layer_factory.hpp:77] Creating layer inception_5a/pool_proj
I0403 14:10:37.157538   952 net.cpp:91] Creating Layer inception_5a/pool_proj
I0403 14:10:37.157557   952 net.cpp:425] inception_5a/pool_proj <- inception_5a/pool
I0403 14:10:37.157577   952 net.cpp:399] inception_5a/pool_proj -> inception_5a/pool_proj
I0403 14:10:37.160027   952 net.cpp:141] Setting up inception_5a/pool_proj
I0403 14:10:37.160059   952 net.cpp:148] Top shape: 24 128 7 7 (150528)
I0403 14:10:37.160075   952 net.cpp:156] Memory required for data: 1305071136
I0403 14:10:37.160094   952 layer_factory.hpp:77] Creating layer inception_5a/relu_pool_proj
I0403 14:10:37.160125   952 net.cpp:91] Creating Layer inception_5a/relu_pool_proj
I0403 14:10:37.160145   952 net.cpp:425] inception_5a/relu_pool_proj <- inception_5a/pool_proj
I0403 14:10:37.160162   952 net.cpp:386] inception_5a/relu_pool_proj -> inception_5a/pool_proj (in-place)
I0403 14:10:37.160498   952 net.cpp:141] Setting up inception_5a/relu_pool_proj
I0403 14:10:37.160526   952 net.cpp:148] Top shape: 24 128 7 7 (150528)
I0403 14:10:37.160540   952 net.cpp:156] Memory required for data: 1305673248
I0403 14:10:37.160557   952 layer_factory.hpp:77] Creating layer inception_5a/output
I0403 14:10:37.160574   952 net.cpp:91] Creating Layer inception_5a/output
I0403 14:10:37.160591   952 net.cpp:425] inception_5a/output <- inception_5a/1x1
I0403 14:10:37.160609   952 net.cpp:425] inception_5a/output <- inception_5a/3x3
I0403 14:10:37.160624   952 net.cpp:425] inception_5a/output <- inception_5a/5x5
I0403 14:10:37.160640   952 net.cpp:425] inception_5a/output <- inception_5a/pool_proj
I0403 14:10:37.160660   952 net.cpp:399] inception_5a/output -> inception_5a/output
I0403 14:10:37.160722   952 net.cpp:141] Setting up inception_5a/output
I0403 14:10:37.160747   952 net.cpp:148] Top shape: 24 832 7 7 (978432)
I0403 14:10:37.160761   952 net.cpp:156] Memory required for data: 1309586976
I0403 14:10:37.160776   952 layer_factory.hpp:77] Creating layer inception_5a/output_inception_5a/output_0_split
I0403 14:10:37.160794   952 net.cpp:91] Creating Layer inception_5a/output_inception_5a/output_0_split
I0403 14:10:37.160809   952 net.cpp:425] inception_5a/output_inception_5a/output_0_split <- inception_5a/output
I0403 14:10:37.160830   952 net.cpp:399] inception_5a/output_inception_5a/output_0_split -> inception_5a/output_inception_5a/output_0_split_0
I0403 14:10:37.160851   952 net.cpp:399] inception_5a/output_inception_5a/output_0_split -> inception_5a/output_inception_5a/output_0_split_1
I0403 14:10:37.160871   952 net.cpp:399] inception_5a/output_inception_5a/output_0_split -> inception_5a/output_inception_5a/output_0_split_2
I0403 14:10:37.160892   952 net.cpp:399] inception_5a/output_inception_5a/output_0_split -> inception_5a/output_inception_5a/output_0_split_3
I0403 14:10:37.161011   952 net.cpp:141] Setting up inception_5a/output_inception_5a/output_0_split
I0403 14:10:37.161037   952 net.cpp:148] Top shape: 24 832 7 7 (978432)
I0403 14:10:37.161056   952 net.cpp:148] Top shape: 24 832 7 7 (978432)
I0403 14:10:37.161072   952 net.cpp:148] Top shape: 24 832 7 7 (978432)
I0403 14:10:37.161087   952 net.cpp:148] Top shape: 24 832 7 7 (978432)
I0403 14:10:37.161103   952 net.cpp:156] Memory required for data: 1325241888
I0403 14:10:37.161116   952 layer_factory.hpp:77] Creating layer inception_5b/1x1
I0403 14:10:37.161139   952 net.cpp:91] Creating Layer inception_5b/1x1
I0403 14:10:37.161156   952 net.cpp:425] inception_5b/1x1 <- inception_5a/output_inception_5a/output_0_split_0
I0403 14:10:37.161180   952 net.cpp:399] inception_5b/1x1 -> inception_5b/1x1
I0403 14:10:37.165118   952 net.cpp:141] Setting up inception_5b/1x1
I0403 14:10:37.165148   952 net.cpp:148] Top shape: 24 384 7 7 (451584)
I0403 14:10:37.165163   952 net.cpp:156] Memory required for data: 1327048224
I0403 14:10:37.165187   952 layer_factory.hpp:77] Creating layer inception_5b/relu_1x1
I0403 14:10:37.165210   952 net.cpp:91] Creating Layer inception_5b/relu_1x1
I0403 14:10:37.165227   952 net.cpp:425] inception_5b/relu_1x1 <- inception_5b/1x1
I0403 14:10:37.165244   952 net.cpp:386] inception_5b/relu_1x1 -> inception_5b/1x1 (in-place)
I0403 14:10:37.165562   952 net.cpp:141] Setting up inception_5b/relu_1x1
I0403 14:10:37.165590   952 net.cpp:148] Top shape: 24 384 7 7 (451584)
I0403 14:10:37.165606   952 net.cpp:156] Memory required for data: 1328854560
I0403 14:10:37.165621   952 layer_factory.hpp:77] Creating layer inception_5b/3x3_reduce
I0403 14:10:37.165643   952 net.cpp:91] Creating Layer inception_5b/3x3_reduce
I0403 14:10:37.165662   952 net.cpp:425] inception_5b/3x3_reduce <- inception_5a/output_inception_5a/output_0_split_1
I0403 14:10:37.165683   952 net.cpp:399] inception_5b/3x3_reduce -> inception_5b/3x3_reduce
I0403 14:10:37.168457   952 net.cpp:141] Setting up inception_5b/3x3_reduce
I0403 14:10:37.168488   952 net.cpp:148] Top shape: 24 192 7 7 (225792)
I0403 14:10:37.168503   952 net.cpp:156] Memory required for data: 1329757728
I0403 14:10:37.168522   952 layer_factory.hpp:77] Creating layer inception_5b/relu_3x3_reduce
I0403 14:10:37.168542   952 net.cpp:91] Creating Layer inception_5b/relu_3x3_reduce
I0403 14:10:37.168560   952 net.cpp:425] inception_5b/relu_3x3_reduce <- inception_5b/3x3_reduce
I0403 14:10:37.168577   952 net.cpp:386] inception_5b/relu_3x3_reduce -> inception_5b/3x3_reduce (in-place)
I0403 14:10:37.168774   952 net.cpp:141] Setting up inception_5b/relu_3x3_reduce
I0403 14:10:37.168802   952 net.cpp:148] Top shape: 24 192 7 7 (225792)
I0403 14:10:37.168817   952 net.cpp:156] Memory required for data: 1330660896
I0403 14:10:37.168833   952 layer_factory.hpp:77] Creating layer inception_5b/3x3
I0403 14:10:37.168853   952 net.cpp:91] Creating Layer inception_5b/3x3
I0403 14:10:37.168870   952 net.cpp:425] inception_5b/3x3 <- inception_5b/3x3_reduce
I0403 14:10:37.168891   952 net.cpp:399] inception_5b/3x3 -> inception_5b/3x3
I0403 14:10:37.175858   952 net.cpp:141] Setting up inception_5b/3x3
I0403 14:10:37.175889   952 net.cpp:148] Top shape: 24 384 7 7 (451584)
I0403 14:10:37.175904   952 net.cpp:156] Memory required for data: 1332467232
I0403 14:10:37.175923   952 layer_factory.hpp:77] Creating layer inception_5b/relu_3x3
I0403 14:10:37.175945   952 net.cpp:91] Creating Layer inception_5b/relu_3x3
I0403 14:10:37.175961   952 net.cpp:425] inception_5b/relu_3x3 <- inception_5b/3x3
I0403 14:10:37.175979   952 net.cpp:386] inception_5b/relu_3x3 -> inception_5b/3x3 (in-place)
I0403 14:10:37.176300   952 net.cpp:141] Setting up inception_5b/relu_3x3
I0403 14:10:37.176327   952 net.cpp:148] Top shape: 24 384 7 7 (451584)
I0403 14:10:37.176342   952 net.cpp:156] Memory required for data: 1334273568
I0403 14:10:37.176358   952 layer_factory.hpp:77] Creating layer inception_5b/5x5_reduce
I0403 14:10:37.176398   952 net.cpp:91] Creating Layer inception_5b/5x5_reduce
I0403 14:10:37.176419   952 net.cpp:425] inception_5b/5x5_reduce <- inception_5a/output_inception_5a/output_0_split_2
I0403 14:10:37.176441   952 net.cpp:399] inception_5b/5x5_reduce -> inception_5b/5x5_reduce
I0403 14:10:37.177785   952 net.cpp:141] Setting up inception_5b/5x5_reduce
I0403 14:10:37.177814   952 net.cpp:148] Top shape: 24 48 7 7 (56448)
I0403 14:10:37.177830   952 net.cpp:156] Memory required for data: 1334499360
I0403 14:10:37.177850   952 layer_factory.hpp:77] Creating layer inception_5b/relu_5x5_reduce
I0403 14:10:37.177870   952 net.cpp:91] Creating Layer inception_5b/relu_5x5_reduce
I0403 14:10:37.177889   952 net.cpp:425] inception_5b/relu_5x5_reduce <- inception_5b/5x5_reduce
I0403 14:10:37.177907   952 net.cpp:386] inception_5b/relu_5x5_reduce -> inception_5b/5x5_reduce (in-place)
I0403 14:10:37.178308   952 net.cpp:141] Setting up inception_5b/relu_5x5_reduce
I0403 14:10:37.178335   952 net.cpp:148] Top shape: 24 48 7 7 (56448)
I0403 14:10:37.178351   952 net.cpp:156] Memory required for data: 1334725152
I0403 14:10:37.178365   952 layer_factory.hpp:77] Creating layer inception_5b/5x5
I0403 14:10:37.178386   952 net.cpp:91] Creating Layer inception_5b/5x5
I0403 14:10:37.178403   952 net.cpp:425] inception_5b/5x5 <- inception_5b/5x5_reduce
I0403 14:10:37.178422   952 net.cpp:399] inception_5b/5x5 -> inception_5b/5x5
I0403 14:10:37.180589   952 net.cpp:141] Setting up inception_5b/5x5
I0403 14:10:37.180618   952 net.cpp:148] Top shape: 24 128 7 7 (150528)
I0403 14:10:37.180632   952 net.cpp:156] Memory required for data: 1335327264
I0403 14:10:37.180651   952 layer_factory.hpp:77] Creating layer inception_5b/relu_5x5
I0403 14:10:37.180672   952 net.cpp:91] Creating Layer inception_5b/relu_5x5
I0403 14:10:37.180691   952 net.cpp:425] inception_5b/relu_5x5 <- inception_5b/5x5
I0403 14:10:37.180707   952 net.cpp:386] inception_5b/relu_5x5 -> inception_5b/5x5 (in-place)
I0403 14:10:37.180909   952 net.cpp:141] Setting up inception_5b/relu_5x5
I0403 14:10:37.180937   952 net.cpp:148] Top shape: 24 128 7 7 (150528)
I0403 14:10:37.180951   952 net.cpp:156] Memory required for data: 1335929376
I0403 14:10:37.180966   952 layer_factory.hpp:77] Creating layer inception_5b/pool
I0403 14:10:37.180985   952 net.cpp:91] Creating Layer inception_5b/pool
I0403 14:10:37.181001   952 net.cpp:425] inception_5b/pool <- inception_5a/output_inception_5a/output_0_split_3
I0403 14:10:37.181022   952 net.cpp:399] inception_5b/pool -> inception_5b/pool
I0403 14:10:37.181100   952 net.cpp:141] Setting up inception_5b/pool
I0403 14:10:37.181124   952 net.cpp:148] Top shape: 24 832 7 7 (978432)
I0403 14:10:37.181140   952 net.cpp:156] Memory required for data: 1339843104
I0403 14:10:37.181154   952 layer_factory.hpp:77] Creating layer inception_5b/pool_proj
I0403 14:10:37.181183   952 net.cpp:91] Creating Layer inception_5b/pool_proj
I0403 14:10:37.181203   952 net.cpp:425] inception_5b/pool_proj <- inception_5b/pool
I0403 14:10:37.181223   952 net.cpp:399] inception_5b/pool_proj -> inception_5b/pool_proj
I0403 14:10:37.183635   952 net.cpp:141] Setting up inception_5b/pool_proj
I0403 14:10:37.183665   952 net.cpp:148] Top shape: 24 128 7 7 (150528)
I0403 14:10:37.183681   952 net.cpp:156] Memory required for data: 1340445216
I0403 14:10:37.183701   952 layer_factory.hpp:77] Creating layer inception_5b/relu_pool_proj
I0403 14:10:37.183720   952 net.cpp:91] Creating Layer inception_5b/relu_pool_proj
I0403 14:10:37.183738   952 net.cpp:425] inception_5b/relu_pool_proj <- inception_5b/pool_proj
I0403 14:10:37.183756   952 net.cpp:386] inception_5b/relu_pool_proj -> inception_5b/pool_proj (in-place)
I0403 14:10:37.184065   952 net.cpp:141] Setting up inception_5b/relu_pool_proj
I0403 14:10:37.184092   952 net.cpp:148] Top shape: 24 128 7 7 (150528)
I0403 14:10:37.184108   952 net.cpp:156] Memory required for data: 1341047328
I0403 14:10:37.184123   952 layer_factory.hpp:77] Creating layer inception_5b/output
I0403 14:10:37.184142   952 net.cpp:91] Creating Layer inception_5b/output
I0403 14:10:37.184173   952 net.cpp:425] inception_5b/output <- inception_5b/1x1
I0403 14:10:37.184198   952 net.cpp:425] inception_5b/output <- inception_5b/3x3
I0403 14:10:37.184216   952 net.cpp:425] inception_5b/output <- inception_5b/5x5
I0403 14:10:37.184231   952 net.cpp:425] inception_5b/output <- inception_5b/pool_proj
I0403 14:10:37.184248   952 net.cpp:399] inception_5b/output -> inception_5b/output
I0403 14:10:37.184303   952 net.cpp:141] Setting up inception_5b/output
I0403 14:10:37.184327   952 net.cpp:148] Top shape: 24 1024 7 7 (1204224)
I0403 14:10:37.184342   952 net.cpp:156] Memory required for data: 1345864224
I0403 14:10:37.184357   952 layer_factory.hpp:77] Creating layer pool5/7x7_s1
I0403 14:10:37.184376   952 net.cpp:91] Creating Layer pool5/7x7_s1
I0403 14:10:37.184392   952 net.cpp:425] pool5/7x7_s1 <- inception_5b/output
I0403 14:10:37.184412   952 net.cpp:399] pool5/7x7_s1 -> pool5/7x7_s1
I0403 14:10:37.184639   952 net.cpp:141] Setting up pool5/7x7_s1
I0403 14:10:37.184665   952 net.cpp:148] Top shape: 24 1024 1 1 (24576)
I0403 14:10:37.184682   952 net.cpp:156] Memory required for data: 1345962528
I0403 14:10:37.184697   952 layer_factory.hpp:77] Creating layer pool5/drop_7x7_s1
I0403 14:10:37.184716   952 net.cpp:91] Creating Layer pool5/drop_7x7_s1
I0403 14:10:37.184732   952 net.cpp:425] pool5/drop_7x7_s1 <- pool5/7x7_s1
I0403 14:10:37.184749   952 net.cpp:386] pool5/drop_7x7_s1 -> pool5/7x7_s1 (in-place)
I0403 14:10:37.184803   952 net.cpp:141] Setting up pool5/drop_7x7_s1
I0403 14:10:37.184826   952 net.cpp:148] Top shape: 24 1024 1 1 (24576)
I0403 14:10:37.184841   952 net.cpp:156] Memory required for data: 1346060832
I0403 14:10:37.184855   952 layer_factory.hpp:77] Creating layer loss3/classifier_plantvillage
I0403 14:10:37.184877   952 net.cpp:91] Creating Layer loss3/classifier_plantvillage
I0403 14:10:37.184895   952 net.cpp:425] loss3/classifier_plantvillage <- pool5/7x7_s1
I0403 14:10:37.184913   952 net.cpp:399] loss3/classifier_plantvillage -> loss3/classifier_plantvillage
I0403 14:10:37.185361   952 net.cpp:141] Setting up loss3/classifier_plantvillage
I0403 14:10:37.185387   952 net.cpp:148] Top shape: 24 38 (912)
I0403 14:10:37.185402   952 net.cpp:156] Memory required for data: 1346064480
I0403 14:10:37.185421   952 layer_factory.hpp:77] Creating layer loss3/classifier_plantvillage_loss3/classifier_plantvillage_0_split
I0403 14:10:37.185439   952 net.cpp:91] Creating Layer loss3/classifier_plantvillage_loss3/classifier_plantvillage_0_split
I0403 14:10:37.185456   952 net.cpp:425] loss3/classifier_plantvillage_loss3/classifier_plantvillage_0_split <- loss3/classifier_plantvillage
I0403 14:10:37.185477   952 net.cpp:399] loss3/classifier_plantvillage_loss3/classifier_plantvillage_0_split -> loss3/classifier_plantvillage_loss3/classifier_plantvillage_0_split_0
I0403 14:10:37.185499   952 net.cpp:399] loss3/classifier_plantvillage_loss3/classifier_plantvillage_0_split -> loss3/classifier_plantvillage_loss3/classifier_plantvillage_0_split_1
I0403 14:10:37.185520   952 net.cpp:399] loss3/classifier_plantvillage_loss3/classifier_plantvillage_0_split -> loss3/classifier_plantvillage_loss3/classifier_plantvillage_0_split_2
I0403 14:10:37.185540   952 net.cpp:399] loss3/classifier_plantvillage_loss3/classifier_plantvillage_0_split -> loss3/classifier_plantvillage_loss3/classifier_plantvillage_0_split_3
I0403 14:10:37.185650   952 net.cpp:141] Setting up loss3/classifier_plantvillage_loss3/classifier_plantvillage_0_split
I0403 14:10:37.185677   952 net.cpp:148] Top shape: 24 38 (912)
I0403 14:10:37.185693   952 net.cpp:148] Top shape: 24 38 (912)
I0403 14:10:37.185709   952 net.cpp:148] Top shape: 24 38 (912)
I0403 14:10:37.185725   952 net.cpp:148] Top shape: 24 38 (912)
I0403 14:10:37.185739   952 net.cpp:156] Memory required for data: 1346079072
I0403 14:10:37.185755   952 layer_factory.hpp:77] Creating layer loss1/loss
I0403 14:10:37.185776   952 net.cpp:91] Creating Layer loss1/loss
I0403 14:10:37.185794   952 net.cpp:425] loss1/loss <- loss1/classifier_plantvillage_loss1/classifier_plantvillage_0_split_0
I0403 14:10:37.185825   952 net.cpp:425] loss1/loss <- label_data_1_split_0
…
