…
I0403 14:24:30.959131  1250 net.cpp:313] The NetState phase (1) differed from the phase (0) specified by a rule in layer data
I0403 14:24:30.960383  1250 net.cpp:49] Initializing net from parameters: 
state {
  phase: TEST
}
layer {
  name: "data"
  type: "Data"
  top: "data"
  top: "label"
  include {
    phase: TEST
  }
  transform_param {
    mirror: false
    crop_size: 224
    mean_file: "/home/mohanty/data/final_dataset/lmdb/grayscale-20-80/mean.binaryproto"
  }
  data_param {
    source: "/home/mohanty/data/final_dataset/lmdb/grayscale-20-80/test_db"
    batch_size: 24
    backend: LMDB
  }
}
layer {
  name: "conv1/7x7_s2"
  type: "Convolution"
  bottom: "data"
  top: "conv1/7x7_s2"
  param {
    lr_mult: 1
    decay_mult: 1
  }
  param {
    lr_mult: 2
    decay_mult: 0
  }
  convolution_param {
    num_output: 64
    pad: 3
    kernel_size: 7
    stride: 2
    weight_filler {
      type: "xavier"
      std: 0.1
    }
    bias_filler {
      type: "constant"
      value: 0.2
    }
  }
}
layer {
  name: "conv1/relu_7x7"
  type: "ReLU"
  bottom: "conv1/7x7_s2"
  top: "conv1/7x7_s2"
}
layer {
  name: "pool1/3x3_s2"
  type: "Pooling"
  bottom: "conv1/7x7_s2"
  top: "pool1/3x3_s2"
  pooling_param {
    pool: MAX
    kernel_size: 3
    stride: 2
  }
}
layer {
  name: "pool1/norm1"
  type: "LRN"
  bottom: "pool1/3x3_s2"
  top: "pool1/norm1"
  lrn_param {
    local_size: 5
    alpha: 0.0001
    beta: 0.75
  }
}
layer {
  name: "conv2/3x3_reduce"
  type: "Convolution"
  bottom: "pool1/norm1"
  top: "conv2/3x3_reduce"
  param {
    lr_mult: 1
    decay_mult: 1
  }
  param {
    lr_mult: 2
    decay_mult: 0
  }
  convolution_param {
    num_output: 64
    kernel_size: 1
    weight_filler {
      type: "xavier"
      std: 0.1
    }
    bias_filler {
      type: "constant"
      value: 0.2
    }
  }
}
layer {
  name: "conv2/relu_3x3_reduce"
  type: "ReLU"
  bottom: "conv2/3x3_reduce"
  top: "conv2/3x3_reduce"
}
layer {
  name: "conv2/3x3"
  type: "Convolution"
  bottom: "conv2/3x3_reduce"
  top: "conv2/3x3"
  param {
    lr_mult: 1
    decay_mult: 1
  }
  param {
    lr_mult: 2
    decay_mult: 0
  }
  convolution_param {
    num_output: 192
    pad: 1
    kernel_size: 3
    weight_filler {
      type: "xavier"
      std: 0.03
    }
    bias_filler {
      type: "constant"
      value: 0.2
    }
  }
}
layer {
  name: "conv2/relu_3x3"
  type: "ReLU"
  bottom: "conv2/3x3"
  top: "conv2/3x3"
}
layer {
  name: "conv2/norm2"
  type: "LRN"
  bottom: "conv2/3x3"
  top: "conv2/norm2"
  lrn_param {
    local_size: 5
    alpha: 0.0001
    beta: 0.75
  }
}
layer {
  name: "pool2/3x3_s2"
  type: "Pooling"
  bottom: "conv2/norm2"
  top: "pool2/3x3_s2"
  pooling_param {
    pool: MAX
    kernel_size: 3
    stride: 2
  }
}
layer {
  name: "inception_3a/1x1"
  type: "Convolution"
  bottom: "pool2/3x3_s2"
  top: "inception_3a/1x1"
  param {
    lr_mult: 1
    decay_mult: 1
  }
  param {
    lr_mult: 2
    decay_mult: 0
  }
  convolution_param {
    num_output: 64
    kernel_size: 1
    weight_filler {
      type: "xavier"
      std: 0.03
    }
    bias_filler {
      type: "constant"
      value: 0.2
    }
  }
}
layer {
  name: "inception_3a/relu_1x1"
  type: "ReLU"
  bottom: "inception_3a/1x1"
  top: "inception_3a/1x1"
}
layer {
  name: "inception_3a/3x3_reduce"
  type: "Convolution"
  bottom: "pool2/3x3_s2"
  top: "inception_3a/3x3_reduce"
  param {
    lr_mult: 1
    decay_mult: 1
  }
  param {
    lr_mult: 2
    decay_mult: 0
  }
  convolution_param {
    num_output: 96
    kernel_size: 1
    weight_filler {
      type: "xavier"
      std: 0.09
    }
    bias_filler {
      type: "constant"
      value: 0.2
    }
  }
}
layer {
  name: "inception_3a/relu_3x3_reduce"
  type: "ReLU"
  bottom: "inception_3a/3x3_reduce"
  top: "inception_3a/3x3_reduce"
}
layer {
  name: "inception_3a/3x3"
  type: "Convolution"
  bottom: "inception_3a/3x3_reduce"
  top: "inception_3a/3x3"
  param {
    lr_mult: 1
    decay_mult: 1
  }
  param {
    lr_mult: 2
    decay_mult: 0
  }
  convolution_param {
    num_output: 128
    pad: 1
    kernel_size: 3
    weight_filler {
      type: "xavier"
      std: 0.03
    }
    bias_filler {
      type: "constant"
      value: 0.2
    }
  }
}
layer {
  name: "inception_3a/relu_3x3"
  type: "ReLU"
  bottom: "inception_3a/3x3"
  top: "inception_3a/3x3"
}
layer {
  name: "inception_3a/5x5_reduce"
  type: "Convolution"
  bottom: "pool2/3x3_s2"
  top: "inception_3a/5x5_reduce"
  param {
    lr_mult: 1
    decay_mult: 1
  }
  param {
    lr_mult: 2
    decay_mult: 0
  }
  convolution_param {
    num_output: 16
    kernel_size: 1
    weight_filler {
      type: "xavier"
      std: 0.2
    }
    bias_filler {
      type: "constant"
      value: 0.2
    }
  }
}
layer {
  name: "inception_3a/relu_5x5_reduce"
  type: "ReLU"
  bottom: "inception_3a/5x5_reduce"
  top: "inception_3a/5x5_reduce"
}
layer {
  name: "inception_3a/5x5"
  type: "Convolution"
  bottom: "inception_3a/5x5_reduce"
  top: "inception_3a/5x5"
  param {
    lr_mult: 1
    decay_mult: 1
  }
  param {
    lr_mult: 2
    decay_mult: 0
  }
  convolution_param {
    num_output: 32
    pad: 2
    kernel_size: 5
    weight_filler {
      type: "xavier"
      std: 0.03
    }
    bias_filler {
      type: "constant"
      value: 0.2
    }
  }
}
layer {
  name: "inception_3a/relu_5x5"
  type: "ReLU"
  bottom: "inception_3a/5x5"
  top: "inception_3a/5x5"
}
layer {
  name: "inception_3a/pool"
  type: "Pooling"
  bottom: "pool2/3x3_s2"
  top: "inception_3a/pool"
  pooling_param {
    pool: MAX
    kernel_size: 3
    stride: 1
    pad: 1
  }
}
layer {
  name: "inception_3a/pool_proj"
  type: "Convolution"
  bottom: "inception_3a/pool"
  top: "inception_3a/pool_proj"
  param {
    lr_mult: 1
    decay_mult: 1
  }
  param {
    lr_mult: 2
    decay_mult: 0
  }
  convolution_param {
    num_output: 32
    kernel_size: 1
    weight_filler {
      type: "xavier"
      std: 0.1
    }
    bias_filler {
      type: "constant"
      value: 0.2
    }
  }
}
layer {
  name: "inception_3a/relu_pool_proj"
  type: "ReLU"
  bottom: "inception_3a/pool_proj"
  top: "inception_3a/pool_proj"
}
layer {
  name: "inception_3a/output"
  type: "Concat"
  bottom: "inception_3a/1x1"
  bottom: "inception_3a/3x3"
  bottom: "inception_3a/5x5"
  bottom: "inception_3a/pool_proj"
  top: "inception_3a/output"
}
layer {
  name: "inception_3b/1x1"
  type: "Convolution"
  bottom: "inception_3a/output"
  top: "inception_3b/1x1"
  param {
    lr_mult: 1
    decay_mult: 1
  }
  param {
    lr_mult: 2
    decay_mult: 0
  }
  convolution_param {
    num_output: 128
    kernel_size: 1
    weight_filler {
      type: "xavier"
      std: 0.03
    }
    bias_filler {
      type: "constant"
      value: 0.2
    }
  }
}
layer {
  name: "inception_3b/relu_1x1"
  type: "ReLU"
  bottom: "inception_3b/1x1"
  top: "inception_3b/1x1"
}
layer {
  name: "inception_3b/3x3_reduce"
  type: "Convolution"
  bottom: "inception_3a/output"
  top: "inception_3b/3x3_reduce"
  param {
    lr_mult: 1
    decay_mult: 1
  }
  param {
    lr_mult: 2
    decay_mult: 0
  }
  convolution_param {
    num_output: 128
    kernel_size: 1
    weight_filler {
      type: "xavier"
      std: 0.09
    }
    bias_filler {
      type: "constant"
      value: 0.2
    }
  }
}
layer {
  name: "inception_3b/relu_3x3_reduce"
  type: "ReLU"
  bottom: "inception_3b/3x3_reduce"
  top: "inception_3b/3x3_reduce"
}
layer {
  name: "inception_3b/3x3"
  type: "Convolution"
  bottom: "inception_3b/3x3_reduce"
  top: "inception_3b/3x3"
  param {
    lr_mult: 1
    decay_mult: 1
  }
  param {
    lr_mult: 2
    decay_mult: 0
  }
  convolution_param {
    num_output: 192
    pad: 1
    kernel_size: 3
    weight_filler {
      type: "xavier"
      std: 0.03
    }
    bias_filler {
      type: "constant"
      value: 0.2
    }
  }
}
layer {
  name: "inception_3b/relu_3x3"
  type: "ReLU"
  bottom: "inception_3b/3x3"
  top: "inception_3b/3x3"
}
layer {
  name: "inception_3b/5x5_reduce"
  type: "Convolution"
  bottom: "inception_3a/output"
  top: "inception_3b/5x5_reduce"
  param {
    lr_mult: 1
    decay_mult: 1
  }
  param {
    lr_mult: 2
    decay_mult: 0
  }
  convolution_param {
    num_output: 32
    kernel_size: 1
    weight_filler {
      type: "xavier"
      std: 0.2
    }
    bias_filler {
      type: "constant"
      value: 0.2
    }
  }
}
layer {
  name: "inception_3b/relu_5x5_reduce"
  type: "ReLU"
  bottom: "inception_3b/5x5_reduce"
  top: "inception_3b/5x5_reduce"
}
layer {
  name: "inception_3b/5x5"
  type: "Convolution"
  bottom: "inception_3b/5x5_reduce"
  top: "inception_3b/5x5"
  param {
    lr_mult: 1
    decay_mult: 1
  }
  param {
    lr_mult: 2
    decay_mult: 0
  }
  convolution_param {
    num_output: 96
    pad: 2
    kernel_size: 5
    weight_filler {
      type: "xavier"
      std: 0.03
    }
    bias_filler {
      type: "constant"
      value: 0.2
    }
  }
}
layer {
  name: "inception_3b/relu_5x5"
  type: "ReLU"
  bottom: "inception_3b/5x5"
  top: "inception_3b/5x5"
}
layer {
  name: "inception_3b/pool"
  type: "Pooling"
  bottom: "inception_3a/output"
  top: "inception_3b/pool"
  pooling_param {
    pool: MAX
    kernel_size: 3
    stride: 1
    pad: 1
  }
}
layer {
  name: "inception_3b/pool_proj"
  type: "Convolution"
  bottom: "inception_3b/pool"
  top: "inception_3b/pool_proj"
  param {
    lr_mult: 1
    decay_mult: 1
  }
  param {
    lr_mult: 2
    decay_mult: 0
  }
  convolution_param {
    num_output: 64
    kernel_size: 1
    weight_filler {
      type: "xavier"
      std: 0.1
    }
    bias_filler {
      type: "constant"
      value: 0.2
    }
  }
}
layer {
  name: "inception_3b/relu_pool_proj"
  type: "ReLU"
  bottom: "inception_3b/pool_proj"
  top: "inception_3b/pool_proj"
}
layer {
  name: "inception_3b/output"
  type: "Concat"
  bottom: "inception_3b/1x1"
  bottom: "inception_3b/3x3"
  bottom: "inception_3b/5x5"
  bottom: "inception_3b/pool_proj"
  top: "inception_3b/output"
}
layer {
  name: "pool3/3x3_s2"
  type: "Pooling"
  bottom: "inception_3b/output"
  top: "pool3/3x3_s2"
  pooling_param {
    pool: MAX
    kernel_size: 3
    stride: 2
  }
}
layer {
  name: "inception_4a/1x1"
  type: "Convolution"
  bottom: "pool3/3x3_s2"
  top: "inception_4a/1x1"
  param {
    lr_mult: 1
    decay_mult: 1
  }
  param {
    lr_mult: 2
    decay_mult: 0
  }
  convolution_param {
    num_output: 192
    kernel_size: 1
    weight_filler {
      type: "xavier"
      std: 0.03
    }
    bias_filler {
      type: "constant"
      value: 0.2
    }
  }
}
layer {
  name: "inception_4a/relu_1x1"
  type: "ReLU"
  bottom: "inception_4a/1x1"
  top: "inception_4a/1x1"
}
layer {
  name: "inception_4a/3x3_reduce"
  type: "Convolution"
  bottom: "pool3/3x3_s2"
  top: "inception_4a/3x3_reduce"
  param {
    lr_mult: 1
    decay_mult: 1
  }
  param {
    lr_mult: 2
    decay_mult: 0
  }
  convolution_param {
    num_output: 96
    kernel_size: 1
    weight_filler {
      type: "xavier"
      std: 0.09
    }
    bias_filler {
      type: "constant"
      value: 0.2
    }
  }
}
layer {
  name: "inception_4a/relu_3x3_reduce"
  type: "ReLU"
  bottom: "inception_4a/3x3_reduce"
  top: "inception_4a/3x3_reduce"
}
layer {
  name: "inception_4a/3x3"
  type: "Convolution"
  bottom: "inception_4a/3x3_reduce"
  top: "inception_4a/3x3"
  param {
    lr_mult: 1
    decay_mult: 1
  }
  param {
    lr_mult: 2
    decay_mult: 0
  }
  convolution_param {
    num_output: 208
    pad: 1
    kernel_size: 3
    weight_filler {
      type: "xavier"
      std: 0.03
    }
    bias_filler {
      type: "constant"
      value: 0.2
    }
  }
}
layer {
  name: "inception_4a/relu_3x3"
  type: "ReLU"
  bottom: "inception_4a/3x3"
  top: "inception_4a/3x3"
}
layer {
  name: "inception_4a/5x5_reduce"
  type: "Convolution"
  bottom: "pool3/3x3_s2"
  top: "inception_4a/5x5_reduce"
  param {
    lr_mult: 1
    decay_mult: 1
  }
  param {
    lr_mult: 2
    decay_mult: 0
  }
  convolution_param {
    num_output: 16
    kernel_size: 1
    weight_filler {
      type: "xavier"
      std: 0.2
    }
    bias_filler {
      type: "constant"
      value: 0.2
    }
  }
}
layer {
  name: "inception_4a/relu_5x5_reduce"
  type: "ReLU"
  bottom: "inception_4a/5x5_reduce"
  top: "inception_4a/5x5_reduce"
}
layer {
  name: "inception_4a/5x5"
  type: "Convolution"
  bottom: "inception_4a/5x5_reduce"
  top: "inception_4a/5x5"
  param {
    lr_mult: 1
    decay_mult: 1
  }
  param {
    lr_mult: 2
    decay_mult: 0
  }
  convolution_param {
    num_output: 48
    pad: 2
    kernel_size: 5
    weight_filler {
      type: "xavier"
      std: 0.03
    }
    bias_filler {
      type: "constant"
      value: 0.2
    }
  }
}
layer {
  name: "inception_4a/relu_5x5"
  type: "ReLU"
  bottom: "inception_4a/5x5"
  top: "inception_4a/5x5"
}
layer {
  name: "inception_4a/pool"
  type: "Pooling"
  bottom: "pool3/3x3_s2"
  top: "inception_4a/pool"
  pooling_param {
    pool: MAX
    kernel_size: 3
    stride: 1
    pad: 1
  }
}
layer {
  name: "inception_4a/pool_proj"
  type: "Convolution"
  bottom: "inception_4a/pool"
  top: "inception_4a/pool_proj"
  param {
    lr_mult: 1
    decay_mult: 1
  }
  param {
    lr_mult: 2
    decay_mult: 0
  }
  convolution_param {
    num_output: 64
    kernel_size: 1
    weight_filler {
      type: "xavier"
      std: 0.1
    }
    bias_filler {
      type: "constant"
      value: 0.2
    }
  }
}
layer {
  name: "inception_4a/relu_pool_proj"
  type: "ReLU"
  bottom: "inception_4a/pool_proj"
  top: "inception_4a/pool_proj"
}
layer {
  name: "inception_4a/output"
  type: "Concat"
  bottom: "inception_4a/1x1"
  bottom: "inception_4a/3x3"
  bottom: "inception_4a/5x5"
  bottom: "inception_4a/pool_proj"
  top: "inception_4a/output"
}
layer {
  name: "loss1/ave_pool"
  type: "Pooling"
  bottom: "inception_4a/output"
  top: "loss1/ave_pool"
  pooling_param {
    pool: AVE
    kernel_size: 5
    stride: 3
  }
}
layer {
  name: "loss1/conv"
  type: "Convolution"
  bottom: "loss1/ave_pool"
  top: "loss1/conv"
  param {
    lr_mult: 1
    decay_mult: 1
  }
  param {
    lr_mult: 2
    decay_mult: 0
  }
  convolution_param {
    num_output: 128
    kernel_size: 1
    weight_filler {
      type: "xavier"
      std: 0.08
    }
    bias_filler {
      type: "constant"
      value: 0.2
    }
  }
}
layer {
  name: "loss1/relu_conv"
  type: "ReLU"
  bottom: "loss1/conv"
  top: "loss1/conv"
}
layer {
  name: "loss1/fc"
  type: "InnerProduct"
  bottom: "loss1/conv"
  top: "loss1/fc"
  param {
    lr_mult: 1
    decay_mult: 1
  }
  param {
    lr_mult: 2
    decay_mult: 0
  }
  inner_product_param {
    num_output: 1024
    weight_filler {
      type: "xavier"
      std: 0.02
    }
    bias_filler {
      type: "constant"
      value: 0.2
    }
  }
}
layer {
  name: "loss1/relu_fc"
  type: "ReLU"
  bottom: "loss1/fc"
  top: "loss1/fc"
}
layer {
  name: "loss1/drop_fc"
  type: "Dropout"
  bottom: "loss1/fc"
  top: "loss1/fc"
  dropout_param {
    dropout_ratio: 0.7
  }
}
layer {
  name: "loss1/classifier_plantvillage"
  type: "InnerProduct"
  bottom: "loss1/fc"
  top: "loss1/classifier_plantvillage"
  param {
    lr_mult: 1
    decay_mult: 1
  }
  param {
    lr_mult: 2
    decay_mult: 0
  }
  inner_product_param {
    num_output: 38
    weight_filler {
      type: "xavier"
      std: 0.0009765625
    }
    bias_filler {
      type: "constant"
      value: 0
    }
  }
}
layer {
  name: "inception_4b/1x1"
  type: "Convolution"
  bottom: "inception_4a/output"
  top: "inception_4b/1x1"
  param {
    lr_mult: 1
    decay_mult: 1
  }
  param {
    lr_mult: 2
    decay_mult: 0
  }
  convolution_param {
    num_output: 160
    kernel_size: 1
    weight_filler {
      type: "xavier"
      std: 0.03
    }
    bias_filler {
      type: "constant"
      value: 0.2
    }
  }
}
layer {
  name: "inception_4b/relu_1x1"
  type: "ReLU"
  bottom: "inception_4b/1x1"
  top: "inception_4b/1x1"
}
layer {
  name: "inception_4b/3x3_reduce"
  type: "Convolution"
  bottom: "inception_4a/output"
  top: "inception_4b/3x3_reduce"
  param {
    lr_mult: 1
    decay_mult: 1
  }
  param {
    lr_mult: 2
    decay_mult: 0
  }
  convolution_param {
    num_output: 112
    kernel_size: 1
    weight_filler {
      type: "xavier"
      std: 0.09
    }
    bias_filler {
      type: "constant"
      value: 0.2
    }
  }
}
layer {
  name: "inception_4b/relu_3x3_reduce"
  type: "ReLU"
  bottom: "inception_4b/3x3_reduce"
  top: "inception_4b/3x3_reduce"
}
layer {
  name: "inception_4b/3x3"
  type: "Convolution"
  bottom: "inception_4b/3x3_reduce"
  top: "inception_4b/3x3"
  param {
    lr_mult: 1
    decay_mult: 1
  }
  param {
    lr_mult: 2
    decay_mult: 0
  }
  convolution_param {
    num_output: 224
    pad: 1
    kernel_size: 3
    weight_filler {
      type: "xavier"
      std: 0.03
    }
    bias_filler {
      type: "constant"
      value: 0.2
    }
  }
}
layer {
  name: "inception_4b/relu_3x3"
  type: "ReLU"
  bottom: "inception_4b/3x3"
  top: "inception_4b/3x3"
}
layer {
  name: "inception_4b/5x5_reduce"
  type: "Convolution"
  bottom: "inception_4a/output"
  top: "inception_4b/5x5_reduce"
  param {
    lr_mult: 1
    decay_mult: 1
  }
  param {
    lr_mult: 2
    decay_mult: 0
  }
  convolution_param {
    num_output: 24
    kernel_size: 1
    weight_filler {
      type: "xavier"
      std: 0.2
    }
    bias_filler {
      type: "constant"
      value: 0.2
    }
  }
}
layer {
  name: "inception_4b/relu_5x5_reduce"
  type: "ReLU"
  bottom: "inception_4b/5x5_reduce"
  top: "inception_4b/5x5_reduce"
}
layer {
  name: "inception_4b/5x5"
  type: "Convolution"
  bottom: "inception_4b/5x5_reduce"
  top: "inception_4b/5x5"
  param {
    lr_mult: 1
    decay_mult: 1
  }
  param {
    lr_mult: 2
    decay_mult: 0
  }
  convolution_param {
    num_output: 64
    pad: 2
    kernel_size: 5
    weight_filler {
      type: "xavier"
      std: 0.03
    }
    bias_filler {
      type: "constant"
      value: 0.2
    }
  }
}
layer {
  name: "inception_4b/relu_5x5"
  type: "ReLU"
  bottom: "inception_4b/5x5"
  top: "inception_4b/5x5"
}
layer {
  name: "inception_4b/pool"
  type: "Pooling"
  bottom: "inception_4a/output"
  top: "inception_4b/pool"
  pooling_param {
    pool: MAX
    kernel_size: 3
    stride: 1
    pad: 1
  }
}
layer {
  name: "inception_4b/pool_proj"
  type: "Convolution"
  bottom: "inception_4b/pool"
  top: "inception_4b/pool_proj"
  param {
    lr_mult: 1
    decay_mult: 1
  }
  param {
    lr_mult: 2
    decay_mult: 0
  }
  convolution_param {
    num_output: 64
    kernel_size: 1
    weight_filler {
      type: "xavier"
      std: 0.1
    }
    bias_filler {
      type: "constant"
      value: 0.2
    }
  }
}
layer {
  name: "inception_4b/relu_pool_proj"
  type: "ReLU"
  bottom: "inception_4b/pool_proj"
  top: "inception_4b/pool_proj"
}
layer {
  name: "inception_4b/output"
  type: "Concat"
  bottom: "inception_4b/1x1"
  bottom: "inception_4b/3x3"
  bottom: "inception_4b/5x5"
  bottom: "inception_4b/pool_proj"
  top: "inception_4b/output"
}
layer {
  name: "inception_4c/1x1"
  type: "Convolution"
  bottom: "inception_4b/output"
  top: "inception_4c/1x1"
  param {
    lr_mult: 1
    decay_mult: 1
  }
  param {
    lr_mult: 2
    decay_mult: 0
  }
  convolution_param {
    num_output: 128
    kernel_size: 1
    weight_filler {
      type: "xavier"
      std: 0.03
    }
    bias_filler {
      type: "constant"
      value: 0.2
    }
  }
}
layer {
  name: "inception_4c/relu_1x1"
  type: "ReLU"
  bottom: "inception_4c/1x1"
  top: "inception_4c/1x1"
}
layer {
  name: "inception_4c/3x3_reduce"
  type: "Convolution"
  bottom: "inception_4b/output"
  top: "inception_4c/3x3_reduce"
  param {
    lr_mult: 1
    decay_mult: 1
  }
  param {
    lr_mult: 2
    decay_mult: 0
  }
  convolution_param {
    num_output: 128
    kernel_size: 1
    weight_filler {
      type: "xavier"
      std: 0.09
    }
    bias_filler {
      type: "constant"
      value: 0.2
    }
  }
}
layer {
  name: "inception_4c/relu_3x3_reduce"
  type: "ReLU"
  bottom: "inception_4c/3x3_reduce"
  top: "inception_4c/3x3_reduce"
}
layer {
  name: "inception_4c/3x3"
  type: "Convolution"
  bottom: "inception_4c/3x3_reduce"
  top: "inception_4c/3x3"
  param {
    lr_mult: 1
    decay_mult: 1
  }
  param {
    lr_mult: 2
    decay_mult: 0
  }
  convolution_param {
    num_output: 256
    pad: 1
    kernel_size: 3
    weight_filler {
      type: "xavier"
      std: 0.03
    }
    bias_filler {
      type: "constant"
      value: 0.2
    }
  }
}
layer {
  name: "inception_4c/relu_3x3"
  type: "ReLU"
  bottom: "inception_4c/3x3"
  top: "inception_4c/3x3"
}
layer {
  name: "inception_4c/5x5_reduce"
  type: "Convolution"
  bottom: "inception_4b/output"
  top: "inception_4c/5x5_reduce"
  param {
    lr_mult: 1
    decay_mult: 1
  }
  param {
    lr_mult: 2
    decay_mult: 0
  }
  convolution_param {
    num_output: 24
    kernel_size: 1
    weight_filler {
      type: "xavier"
      std: 0.2
    }
    bias_filler {
      type: "constant"
      value: 0.2
    }
  }
}
layer {
  name: "inception_4c/relu_5x5_reduce"
  type: "ReLU"
  bottom: "inception_4c/5x5_reduce"
  top: "inception_4c/5x5_reduce"
}
layer {
  name: "inception_4c/5x5"
  type: "Convolution"
  bottom: "inception_4c/5x5_reduce"
  top: "inception_4c/5x5"
  param {
    lr_mult: 1
    decay_mult: 1
  }
  param {
    lr_mult: 2
    decay_mult: 0
  }
  convolution_param {
    num_output: 64
    pad: 2
    kernel_size: 5
    weight_filler {
      type: "xavier"
      std: 0.03
    }
    bias_filler {
      type: "constant"
      value: 0.2
    }
  }
}
layer {
  name: "inception_4c/relu_5x5"
  type: "ReLU"
  bottom: "inception_4c/5x5"
  top: "inception_4c/5x5"
}
layer {
  name: "inception_4c/pool"
  type: "Pooling"
  bottom: "inception_4b/output"
  top: "inception_4c/pool"
  pooling_param {
    pool: MAX
    kernel_size: 3
    stride: 1
    pad: 1
  }
}
layer {
  name: "inception_4c/pool_proj"
  type: "Convolution"
  bottom: "inception_4c/pool"
  top: "inception_4c/pool_proj"
  param {
    lr_mult: 1
    decay_mult: 1
  }
  param {
    lr_mult: 2
    decay_mult: 0
  }
  convolution_param {
    num_output: 64
    kernel_size: 1
    weight_filler {
      type: "xavier"
      std: 0.1
    }
    bias_filler {
      type: "constant"
      value: 0.2
    }
  }
}
layer {
  name: "inception_4c/relu_pool_proj"
  type: "ReLU"
  bottom: "inception_4c/pool_proj"
  top: "inception_4c/pool_proj"
}
layer {
  name: "inception_4c/output"
  type: "Concat"
  bottom: "inception_4c/1x1"
  bottom: "inception_4c/3x3"
  bottom: "inception_4c/5x5"
  bottom: "inception_4c/pool_proj"
  top: "inception_4c/output"
}
layer {
  name: "inception_4d/1x1"
  type: "Convolution"
  bottom: "inception_4c/output"
  top: "inception_4d/1x1"
  param {
    lr_mult: 1
    decay_mult: 1
  }
  param {
    lr_mult: 2
    decay_mult: 0
  }
  convolution_param {
    num_output: 112
    kernel_size: 1
    weight_filler {
      type: "xavier"
      std: 0.03
    }
    bias_filler {
      type: "constant"
      value: 0.2
    }
  }
}
layer {
  name: "inception_4d/relu_1x1"
  type: "ReLU"
  bottom: "inception_4d/1x1"
  top: "inception_4d/1x1"
}
layer {
  name: "inception_4d/3x3_reduce"
  type: "Convolution"
  bottom: "inception_4c/output"
  top: "inception_4d/3x3_reduce"
  param {
    lr_mult: 1
    decay_mult: 1
  }
  param {
    lr_mult: 2
    decay_mult: 0
  }
  convolution_param {
    num_output: 144
    kernel_size: 1
    weight_filler {
      type: "xavier"
      std: 0.09
    }
    bias_filler {
      type: "constant"
      value: 0.2
    }
  }
}
layer {
  name: "inception_4d/relu_3x3_reduce"
  type: "ReLU"
  bottom: "inception_4d/3x3_reduce"
  top: "inception_4d/3x3_reduce"
}
layer {
  name: "inception_4d/3x3"
  type: "Convolution"
  bottom: "inception_4d/3x3_reduce"
  top: "inception_4d/3x3"
  param {
    lr_mult: 1
    decay_mult: 1
  }
  param {
    lr_mult: 2
    decay_mult: 0
  }
  convolution_param {
    num_output: 288
    pad: 1
    kernel_size: 3
    weight_filler {
      type: "xavier"
      std: 0.03
    }
    bias_filler {
      type: "constant"
      value: 0.2
    }
  }
}
layer {
  name: "inception_4d/relu_3x3"
  type: "ReLU"
  bottom: "inception_4d/3x3"
  top: "inception_4d/3x3"
}
layer {
  name: "inception_4d/5x5_reduce"
  type: "Convolution"
  bottom: "inception_4c/output"
  top: "inception_4d/5x5_reduce"
  param {
    lr_mult: 1
    decay_mult: 1
  }
  param {
    lr_mult: 2
    decay_mult: 0
  }
  convolution_param {
    num_output: 32
    kernel_size: 1
    weight_filler {
      type: "xavier"
      std: 0.2
    }
    bias_filler {
      type: "constant"
      value: 0.2
    }
  }
}
layer {
  name: "inception_4d/relu_5x5_reduce"
  type: "ReLU"
  bottom: "inception_4d/5x5_reduce"
  top: "inception_4d/5x5_reduce"
}
layer {
  name: "inception_4d/5x5"
  type: "Convolution"
  bottom: "inception_4d/5x5_reduce"
  top: "inception_4d/5x5"
  param {
    lr_mult: 1
    decay_mult: 1
  }
  param {
    lr_mult: 2
    decay_mult: 0
  }
  convolution_param {
    num_output: 64
    pad: 2
    kernel_size: 5
    weight_filler {
      type: "xavier"
      std: 0.03
    }
    bias_filler {
      type: "constant"
      value: 0.2
    }
  }
}
layer {
  name: "inception_4d/relu_5x5"
  type: "ReLU"
  bottom: "inception_4d/5x5"
  top: "inception_4d/5x5"
}
layer {
  name: "inception_4d/pool"
  type: "Pooling"
  bottom: "inception_4c/output"
  top: "inception_4d/pool"
  pooling_param {
    pool: MAX
    kernel_size: 3
    stride: 1
    pad: 1
  }
}
layer {
  name: "inception_4d/pool_proj"
  type: "Convolution"
  bottom: "inception_4d/pool"
  top: "inception_4d/pool_proj"
  param {
    lr_mult: 1
    decay_mult: 1
  }
  param {
    lr_mult: 2
    decay_mult: 0
  }
  convolution_param {
    num_output: 64
    kernel_size: 1
    weight_filler {
      type: "xavier"
      std: 0.1
    }
    bias_filler {
      type: "constant"
      value: 0.2
    }
  }
}
layer {
  name: "inception_4d/relu_pool_proj"
  type: "ReLU"
  bottom: "inception_4d/pool_proj"
  top: "inception_4d/pool_proj"
}
layer {
  name: "inception_4d/output"
  type: "Concat"
  bottom: "inception_4d/1x1"
  bottom: "inception_4d/3x3"
  bottom: "inception_4d/5x5"
  bottom: "inception_4d/pool_proj"
  top: "inception_4d/output"
}
layer {
  name: "loss2/ave_pool"
  type: "Pooling"
  bottom: "inception_4d/output"
  top: "loss2/ave_pool"
  pooling_param {
    pool: AVE
    kernel_size: 5
    stride: 3
  }
}
layer {
  name: "loss2/conv"
  type: "Convolution"
  bottom: "loss2/ave_pool"
  top: "loss2/conv"
  param {
    lr_mult: 1
    decay_mult: 1
  }
  param {
    lr_mult: 2
    decay_mult: 0
  }
  convolution_param {
    num_output: 128
    kernel_size: 1
    weight_filler {
      type: "xavier"
      std: 0.08
    }
    bias_filler {
      type: "constant"
      value: 0.2
    }
  }
}
layer {
  name: "loss2/relu_conv"
  type: "ReLU"
  bottom: "loss2/conv"
  top: "loss2/conv"
}
layer {
  name: "loss2/fc"
  type: "InnerProduct"
  bottom: "loss2/conv"
  top: "loss2/fc"
  param {
    lr_mult: 1
    decay_mult: 1
  }
  param {
    lr_mult: 2
    decay_mult: 0
  }
  inner_product_param {
    num_output: 1024
    weight_filler {
      type: "xavier"
      std: 0.02
    }
    bias_filler {
      type: "constant"
      value: 0.2
    }
  }
}
layer {
  name: "loss2/relu_fc"
  type: "ReLU"
  bottom: "loss2/fc"
  top: "loss2/fc"
}
layer {
  name: "loss2/drop_fc"
  type: "Dropout"
  bottom: "loss2/fc"
  top: "loss2/fc"
  dropout_param {
    dropout_ratio: 0.7
  }
}
layer {
  name: "loss2/classifier_plantvillage"
  type: "InnerProduct"
  bottom: "loss2/fc"
  top: "loss2/classifier_plantvillage"
  param {
    lr_mult: 1
    decay_mult: 1
  }
  param {
    lr_mult: 2
    decay_mult: 0
  }
  inner_product_param {
    num_output: 38
    weight_filler {
      type: "xavier"
      std: 0.0009765625
    }
    bias_filler {
      type: "constant"
      value: 0
    }
  }
}
layer {
  name: "inception_4e/1x1"
  type: "Convolution"
  bottom: "inception_4d/output"
  top: "inception_4e/1x1"
  param {
    lr_mult: 1
    decay_mult: 1
  }
  param {
    lr_mult: 2
    decay_mult: 0
  }
  convolution_param {
    num_output: 256
    kernel_size: 1
    weight_filler {
      type: "xavier"
      std: 0.03
    }
    bias_filler {
      type: "constant"
      value: 0.2
    }
  }
}
layer {
  name: "inception_4e/relu_1x1"
  type: "ReLU"
  bottom: "inception_4e/1x1"
  top: "inception_4e/1x1"
}
layer {
  name: "inception_4e/3x3_reduce"
  type: "Convolution"
  bottom: "inception_4d/output"
  top: "inception_4e/3x3_reduce"
  param {
    lr_mult: 1
    decay_mult: 1
  }
  param {
    lr_mult: 2
    decay_mult: 0
  }
  convolution_param {
    num_output: 160
    kernel_size: 1
    weight_filler {
      type: "xavier"
      std: 0.09
    }
    bias_filler {
      type: "constant"
      value: 0.2
    }
  }
}
layer {
  name: "inception_4e/relu_3x3_reduce"
  type: "ReLU"
  bottom: "inception_4e/3x3_reduce"
  top: "inception_4e/3x3_reduce"
}
layer {
  name: "inception_4e/3x3"
  type: "Convolution"
  bottom: "inception_4e/3x3_reduce"
  top: "inception_4e/3x3"
  param {
    lr_mult: 1
    decay_mult: 1
  }
  param {
    lr_mult: 2
    decay_mult: 0
  }
  convolution_param {
    num_output: 320
    pad: 1
    kernel_size: 3
    weight_filler {
      type: "xavier"
      std: 0.03
    }
    bias_filler {
      type: "constant"
      value: 0.2
    }
  }
}
layer {
  name: "inception_4e/relu_3x3"
  type: "ReLU"
  bottom: "inception_4e/3x3"
  top: "inception_4e/3x3"
}
layer {
  name: "inception_4e/5x5_reduce"
  type: "Convolution"
  bottom: "inception_4d/output"
  top: "inception_4e/5x5_reduce"
  param {
    lr_mult: 1
    decay_mult: 1
  }
  param {
    lr_mult: 2
    decay_mult: 0
  }
  convolution_param {
    num_output: 32
    kernel_size: 1
    weight_filler {
      type: "xavier"
      std: 0.2
    }
    bias_filler {
      type: "constant"
      value: 0.2
    }
  }
}
layer {
  name: "inception_4e/relu_5x5_reduce"
  type: "ReLU"
  bottom: "inception_4e/5x5_reduce"
  top: "inception_4e/5x5_reduce"
}
layer {
  name: "inception_4e/5x5"
  type: "Convolution"
  bottom: "inception_4e/5x5_reduce"
  top: "inception_4e/
I0403 14:24:30.961665  1250 layer_factory.hpp:77] Creating layer data
I0403 14:24:30.962285  1250 net.cpp:91] Creating Layer data
I0403 14:24:30.962317  1250 net.cpp:399] data -> data
I0403 14:24:30.962370  1250 net.cpp:399] data -> label
I0403 14:24:30.962407  1250 data_transformer.cpp:25] Loading mean file from: /home/mohanty/data/final_dataset/lmdb/grayscale-20-80/mean.binaryproto
I0403 14:24:30.964679  1253 db_lmdb.cpp:38] Opened lmdb /home/mohanty/data/final_dataset/lmdb/grayscale-20-80/test_db
I0403 14:24:30.975620  1250 data_layer.cpp:41] output data size: 24,3,224,224
I0403 14:24:31.002842  1250 net.cpp:141] Setting up data
I0403 14:24:31.002902  1250 net.cpp:148] Top shape: 24 3 224 224 (3612672)
I0403 14:24:31.002924  1250 net.cpp:148] Top shape: 24 (24)
I0403 14:24:31.002939  1250 net.cpp:156] Memory required for data: 14450784
I0403 14:24:31.002966  1250 layer_factory.hpp:77] Creating layer label_data_1_split
I0403 14:24:31.002992  1250 net.cpp:91] Creating Layer label_data_1_split
I0403 14:24:31.003010  1250 net.cpp:425] label_data_1_split <- label
I0403 14:24:31.003053  1250 net.cpp:399] label_data_1_split -> label_data_1_split_0
I0403 14:24:31.003082  1250 net.cpp:399] label_data_1_split -> label_data_1_split_1
I0403 14:24:31.003103  1250 net.cpp:399] label_data_1_split -> label_data_1_split_2
I0403 14:24:31.003125  1250 net.cpp:399] label_data_1_split -> label_data_1_split_3
I0403 14:24:31.003145  1250 net.cpp:399] label_data_1_split -> label_data_1_split_4
I0403 14:24:31.003165  1250 net.cpp:399] label_data_1_split -> label_data_1_split_5
I0403 14:24:31.003185  1250 net.cpp:399] label_data_1_split -> label_data_1_split_6
I0403 14:24:31.003206  1250 net.cpp:399] label_data_1_split -> label_data_1_split_7
I0403 14:24:31.003240  1250 net.cpp:399] label_data_1_split -> label_data_1_split_8
I0403 14:24:31.003262  1250 net.cpp:399] label_data_1_split -> label_data_1_split_9
I0403 14:24:31.003393  1250 net.cpp:141] Setting up label_data_1_split
I0403 14:24:31.003417  1250 net.cpp:148] Top shape: 24 (24)
I0403 14:24:31.003434  1250 net.cpp:148] Top shape: 24 (24)
I0403 14:24:31.003450  1250 net.cpp:148] Top shape: 24 (24)
I0403 14:24:31.003479  1250 net.cpp:148] Top shape: 24 (24)
I0403 14:24:31.003495  1250 net.cpp:148] Top shape: 24 (24)
I0403 14:24:31.003511  1250 net.cpp:148] Top shape: 24 (24)
I0403 14:24:31.003527  1250 net.cpp:148] Top shape: 24 (24)
I0403 14:24:31.003543  1250 net.cpp:148] Top shape: 24 (24)
I0403 14:24:31.003559  1250 net.cpp:148] Top shape: 24 (24)
I0403 14:24:31.003576  1250 net.cpp:148] Top shape: 24 (24)
I0403 14:24:31.003621  1250 net.cpp:156] Memory required for data: 14451744
I0403 14:24:31.003638  1250 layer_factory.hpp:77] Creating layer conv1/7x7_s2
I0403 14:24:31.003670  1250 net.cpp:91] Creating Layer conv1/7x7_s2
I0403 14:24:31.003690  1250 net.cpp:425] conv1/7x7_s2 <- data
I0403 14:24:31.003710  1250 net.cpp:399] conv1/7x7_s2 -> conv1/7x7_s2
I0403 14:24:31.143491  1250 net.cpp:141] Setting up conv1/7x7_s2
I0403 14:24:31.143584  1250 net.cpp:148] Top shape: 24 64 112 112 (19267584)
I0403 14:24:31.143601  1250 net.cpp:156] Memory required for data: 91522080
I0403 14:24:31.143633  1250 layer_factory.hpp:77] Creating layer conv1/relu_7x7
I0403 14:24:31.143663  1250 net.cpp:91] Creating Layer conv1/relu_7x7
I0403 14:24:31.143682  1250 net.cpp:425] conv1/relu_7x7 <- conv1/7x7_s2
I0403 14:24:31.143702  1250 net.cpp:386] conv1/relu_7x7 -> conv1/7x7_s2 (in-place)
I0403 14:24:31.143987  1250 net.cpp:141] Setting up conv1/relu_7x7
I0403 14:24:31.144018  1250 net.cpp:148] Top shape: 24 64 112 112 (19267584)
I0403 14:24:31.144035  1250 net.cpp:156] Memory required for data: 168592416
I0403 14:24:31.144052  1250 layer_factory.hpp:77] Creating layer pool1/3x3_s2
I0403 14:24:31.144078  1250 net.cpp:91] Creating Layer pool1/3x3_s2
I0403 14:24:31.144096  1250 net.cpp:425] pool1/3x3_s2 <- conv1/7x7_s2
I0403 14:24:31.144119  1250 net.cpp:399] pool1/3x3_s2 -> pool1/3x3_s2
I0403 14:24:31.144198  1250 net.cpp:141] Setting up pool1/3x3_s2
I0403 14:24:31.144229  1250 net.cpp:148] Top shape: 24 64 56 56 (4816896)
I0403 14:24:31.144245  1250 net.cpp:156] Memory required for data: 187860000
I0403 14:24:31.144260  1250 layer_factory.hpp:77] Creating layer pool1/norm1
I0403 14:24:31.144286  1250 net.cpp:91] Creating Layer pool1/norm1
I0403 14:24:31.144304  1250 net.cpp:425] pool1/norm1 <- pool1/3x3_s2
I0403 14:24:31.144323  1250 net.cpp:399] pool1/norm1 -> pool1/norm1
I0403 14:24:31.144639  1250 net.cpp:141] Setting up pool1/norm1
I0403 14:24:31.144670  1250 net.cpp:148] Top shape: 24 64 56 56 (4816896)
I0403 14:24:31.144687  1250 net.cpp:156] Memory required for data: 207127584
I0403 14:24:31.144702  1250 layer_factory.hpp:77] Creating layer conv2/3x3_reduce
I0403 14:24:31.144731  1250 net.cpp:91] Creating Layer conv2/3x3_reduce
I0403 14:24:31.144749  1250 net.cpp:425] conv2/3x3_reduce <- pool1/norm1
I0403 14:24:31.144769  1250 net.cpp:399] conv2/3x3_reduce -> conv2/3x3_reduce
I0403 14:24:31.146245  1250 net.cpp:141] Setting up conv2/3x3_reduce
I0403 14:24:31.146275  1250 net.cpp:148] Top shape: 24 64 56 56 (4816896)
I0403 14:24:31.146292  1250 net.cpp:156] Memory required for data: 226395168
I0403 14:24:31.146314  1250 layer_factory.hpp:77] Creating layer conv2/relu_3x3_reduce
I0403 14:24:31.146337  1250 net.cpp:91] Creating Layer conv2/relu_3x3_reduce
I0403 14:24:31.146353  1250 net.cpp:425] conv2/relu_3x3_reduce <- conv2/3x3_reduce
I0403 14:24:31.146373  1250 net.cpp:386] conv2/relu_3x3_reduce -> conv2/3x3_reduce (in-place)
I0403 14:24:31.146677  1250 net.cpp:141] Setting up conv2/relu_3x3_reduce
I0403 14:24:31.146705  1250 net.cpp:148] Top shape: 24 64 56 56 (4816896)
I0403 14:24:31.146721  1250 net.cpp:156] Memory required for data: 245662752
I0403 14:24:31.146738  1250 layer_factory.hpp:77] Creating layer conv2/3x3
I0403 14:24:31.146762  1250 net.cpp:91] Creating Layer conv2/3x3
I0403 14:24:31.146780  1250 net.cpp:425] conv2/3x3 <- conv2/3x3_reduce
I0403 14:24:31.146803  1250 net.cpp:399] conv2/3x3 -> conv2/3x3
I0403 14:24:31.149256  1250 net.cpp:141] Setting up conv2/3x3
I0403 14:24:31.149288  1250 net.cpp:148] Top shape: 24 192 56 56 (14450688)
I0403 14:24:31.149304  1250 net.cpp:156] Memory required for data: 303465504
I0403 14:24:31.149327  1250 layer_factory.hpp:77] Creating layer conv2/relu_3x3
I0403 14:24:31.149349  1250 net.cpp:91] Creating Layer conv2/relu_3x3
I0403 14:24:31.149368  1250 net.cpp:425] conv2/relu_3x3 <- conv2/3x3
I0403 14:24:31.149386  1250 net.cpp:386] conv2/relu_3x3 -> conv2/3x3 (in-place)
I0403 14:24:31.149572  1250 net.cpp:141] Setting up conv2/relu_3x3
I0403 14:24:31.149600  1250 net.cpp:148] Top shape: 24 192 56 56 (14450688)
I0403 14:24:31.149649  1250 net.cpp:156] Memory required for data: 361268256
I0403 14:24:31.149667  1250 layer_factory.hpp:77] Creating layer conv2/norm2
I0403 14:24:31.149685  1250 net.cpp:91] Creating Layer conv2/norm2
I0403 14:24:31.149703  1250 net.cpp:425] conv2/norm2 <- conv2/3x3
I0403 14:24:31.149723  1250 net.cpp:399] conv2/norm2 -> conv2/norm2
I0403 14:24:31.150041  1250 net.cpp:141] Setting up conv2/norm2
I0403 14:24:31.150069  1250 net.cpp:148] Top shape: 24 192 56 56 (14450688)
I0403 14:24:31.150085  1250 net.cpp:156] Memory required for data: 419071008
I0403 14:24:31.150101  1250 layer_factory.hpp:77] Creating layer pool2/3x3_s2
I0403 14:24:31.150121  1250 net.cpp:91] Creating Layer pool2/3x3_s2
I0403 14:24:31.150137  1250 net.cpp:425] pool2/3x3_s2 <- conv2/norm2
I0403 14:24:31.150159  1250 net.cpp:399] pool2/3x3_s2 -> pool2/3x3_s2
I0403 14:24:31.150259  1250 net.cpp:141] Setting up pool2/3x3_s2
I0403 14:24:31.150285  1250 net.cpp:148] Top shape: 24 192 28 28 (3612672)
I0403 14:24:31.150300  1250 net.cpp:156] Memory required for data: 433521696
I0403 14:24:31.150315  1250 layer_factory.hpp:77] Creating layer pool2/3x3_s2_pool2/3x3_s2_0_split
I0403 14:24:31.150336  1250 net.cpp:91] Creating Layer pool2/3x3_s2_pool2/3x3_s2_0_split
I0403 14:24:31.150352  1250 net.cpp:425] pool2/3x3_s2_pool2/3x3_s2_0_split <- pool2/3x3_s2
I0403 14:24:31.150373  1250 net.cpp:399] pool2/3x3_s2_pool2/3x3_s2_0_split -> pool2/3x3_s2_pool2/3x3_s2_0_split_0
I0403 14:24:31.150394  1250 net.cpp:399] pool2/3x3_s2_pool2/3x3_s2_0_split -> pool2/3x3_s2_pool2/3x3_s2_0_split_1
I0403 14:24:31.150414  1250 net.cpp:399] pool2/3x3_s2_pool2/3x3_s2_0_split -> pool2/3x3_s2_pool2/3x3_s2_0_split_2
I0403 14:24:31.150436  1250 net.cpp:399] pool2/3x3_s2_pool2/3x3_s2_0_split -> pool2/3x3_s2_pool2/3x3_s2_0_split_3
I0403 14:24:31.150508  1250 net.cpp:141] Setting up pool2/3x3_s2_pool2/3x3_s2_0_split
I0403 14:24:31.150532  1250 net.cpp:148] Top shape: 24 192 28 28 (3612672)
I0403 14:24:31.150550  1250 net.cpp:148] Top shape: 24 192 28 28 (3612672)
I0403 14:24:31.150566  1250 net.cpp:148] Top shape: 24 192 28 28 (3612672)
I0403 14:24:31.150583  1250 net.cpp:148] Top shape: 24 192 28 28 (3612672)
I0403 14:24:31.150598  1250 net.cpp:156] Memory required for data: 491324448
I0403 14:24:31.150612  1250 layer_factory.hpp:77] Creating layer inception_3a/1x1
I0403 14:24:31.150636  1250 net.cpp:91] Creating Layer inception_3a/1x1
I0403 14:24:31.150655  1250 net.cpp:425] inception_3a/1x1 <- pool2/3x3_s2_pool2/3x3_s2_0_split_0
I0403 14:24:31.150676  1250 net.cpp:399] inception_3a/1x1 -> inception_3a/1x1
I0403 14:24:31.152298  1250 net.cpp:141] Setting up inception_3a/1x1
I0403 14:24:31.152329  1250 net.cpp:148] Top shape: 24 64 28 28 (1204224)
I0403 14:24:31.152345  1250 net.cpp:156] Memory required for data: 496141344
I0403 14:24:31.152365  1250 layer_factory.hpp:77] Creating layer inception_3a/relu_1x1
I0403 14:24:31.152387  1250 net.cpp:91] Creating Layer inception_3a/relu_1x1
I0403 14:24:31.152405  1250 net.cpp:425] inception_3a/relu_1x1 <- inception_3a/1x1
I0403 14:24:31.152426  1250 net.cpp:386] inception_3a/relu_1x1 -> inception_3a/1x1 (in-place)
I0403 14:24:31.152606  1250 net.cpp:141] Setting up inception_3a/relu_1x1
I0403 14:24:31.152632  1250 net.cpp:148] Top shape: 24 64 28 28 (1204224)
I0403 14:24:31.152648  1250 net.cpp:156] Memory required for data: 500958240
I0403 14:24:31.152663  1250 layer_factory.hpp:77] Creating layer inception_3a/3x3_reduce
I0403 14:24:31.152688  1250 net.cpp:91] Creating Layer inception_3a/3x3_reduce
I0403 14:24:31.152706  1250 net.cpp:425] inception_3a/3x3_reduce <- pool2/3x3_s2_pool2/3x3_s2_0_split_1
I0403 14:24:31.152726  1250 net.cpp:399] inception_3a/3x3_reduce -> inception_3a/3x3_reduce
I0403 14:24:31.154516  1250 net.cpp:141] Setting up inception_3a/3x3_reduce
I0403 14:24:31.154547  1250 net.cpp:148] Top shape: 24 96 28 28 (1806336)
I0403 14:24:31.154563  1250 net.cpp:156] Memory required for data: 508183584
I0403 14:24:31.154587  1250 layer_factory.hpp:77] Creating layer inception_3a/relu_3x3_reduce
I0403 14:24:31.154625  1250 net.cpp:91] Creating Layer inception_3a/relu_3x3_reduce
I0403 14:24:31.154644  1250 net.cpp:425] inception_3a/relu_3x3_reduce <- inception_3a/3x3_reduce
I0403 14:24:31.154664  1250 net.cpp:386] inception_3a/relu_3x3_reduce -> inception_3a/3x3_reduce (in-place)
I0403 14:24:31.154856  1250 net.cpp:141] Setting up inception_3a/relu_3x3_reduce
I0403 14:24:31.154883  1250 net.cpp:148] Top shape: 24 96 28 28 (1806336)
I0403 14:24:31.154898  1250 net.cpp:156] Memory required for data: 515408928
I0403 14:24:31.154914  1250 layer_factory.hpp:77] Creating layer inception_3a/3x3
I0403 14:24:31.154937  1250 net.cpp:91] Creating Layer inception_3a/3x3
I0403 14:24:31.154955  1250 net.cpp:425] inception_3a/3x3 <- inception_3a/3x3_reduce
I0403 14:24:31.154979  1250 net.cpp:399] inception_3a/3x3 -> inception_3a/3x3
I0403 14:24:31.156749  1250 net.cpp:141] Setting up inception_3a/3x3
I0403 14:24:31.156780  1250 net.cpp:148] Top shape: 24 128 28 28 (2408448)
I0403 14:24:31.156795  1250 net.cpp:156] Memory required for data: 525042720
I0403 14:24:31.156816  1250 layer_factory.hpp:77] Creating layer inception_3a/relu_3x3
I0403 14:24:31.156837  1250 net.cpp:91] Creating Layer inception_3a/relu_3x3
I0403 14:24:31.156854  1250 net.cpp:425] inception_3a/relu_3x3 <- inception_3a/3x3
I0403 14:24:31.156872  1250 net.cpp:386] inception_3a/relu_3x3 -> inception_3a/3x3 (in-place)
I0403 14:24:31.157193  1250 net.cpp:141] Setting up inception_3a/relu_3x3
I0403 14:24:31.157227  1250 net.cpp:148] Top shape: 24 128 28 28 (2408448)
I0403 14:24:31.157243  1250 net.cpp:156] Memory required for data: 534676512
I0403 14:24:31.157258  1250 layer_factory.hpp:77] Creating layer inception_3a/5x5_reduce
I0403 14:24:31.157282  1250 net.cpp:91] Creating Layer inception_3a/5x5_reduce
I0403 14:24:31.157301  1250 net.cpp:425] inception_3a/5x5_reduce <- pool2/3x3_s2_pool2/3x3_s2_0_split_2
I0403 14:24:31.157325  1250 net.cpp:399] inception_3a/5x5_reduce -> inception_3a/5x5_reduce
I0403 14:24:31.158339  1250 net.cpp:141] Setting up inception_3a/5x5_reduce
I0403 14:24:31.158371  1250 net.cpp:148] Top shape: 24 16 28 28 (301056)
I0403 14:24:31.158388  1250 net.cpp:156] Memory required for data: 535880736
I0403 14:24:31.158408  1250 layer_factory.hpp:77] Creating layer inception_3a/relu_5x5_reduce
I0403 14:24:31.158427  1250 net.cpp:91] Creating Layer inception_3a/relu_5x5_reduce
I0403 14:24:31.158444  1250 net.cpp:425] inception_3a/relu_5x5_reduce <- inception_3a/5x5_reduce
I0403 14:24:31.158463  1250 net.cpp:386] inception_3a/relu_5x5_reduce -> inception_3a/5x5_reduce (in-place)
I0403 14:24:31.158782  1250 net.cpp:141] Setting up inception_3a/relu_5x5_reduce
I0403 14:24:31.158812  1250 net.cpp:148] Top shape: 24 16 28 28 (301056)
I0403 14:24:31.158828  1250 net.cpp:156] Memory required for data: 537084960
I0403 14:24:31.158844  1250 layer_factory.hpp:77] Creating layer inception_3a/5x5
I0403 14:24:31.158867  1250 net.cpp:91] Creating Layer inception_3a/5x5
I0403 14:24:31.158885  1250 net.cpp:425] inception_3a/5x5 <- inception_3a/5x5_reduce
I0403 14:24:31.158934  1250 net.cpp:399] inception_3a/5x5 -> inception_3a/5x5
I0403 14:24:31.160015  1250 net.cpp:141] Setting up inception_3a/5x5
I0403 14:24:31.160044  1250 net.cpp:148] Top shape: 24 32 28 28 (602112)
I0403 14:24:31.160060  1250 net.cpp:156] Memory required for data: 539493408
I0403 14:24:31.160079  1250 layer_factory.hpp:77] Creating layer inception_3a/relu_5x5
I0403 14:24:31.160101  1250 net.cpp:91] Creating Layer inception_3a/relu_5x5
I0403 14:24:31.160120  1250 net.cpp:425] inception_3a/relu_5x5 <- inception_3a/5x5
I0403 14:24:31.160137  1250 net.cpp:386] inception_3a/relu_5x5 -> inception_3a/5x5 (in-place)
I0403 14:24:31.160326  1250 net.cpp:141] Setting up inception_3a/relu_5x5
I0403 14:24:31.160352  1250 net.cpp:148] Top shape: 24 32 28 28 (602112)
I0403 14:24:31.160367  1250 net.cpp:156] Memory required for data: 541901856
I0403 14:24:31.160383  1250 layer_factory.hpp:77] Creating layer inception_3a/pool
I0403 14:24:31.160405  1250 net.cpp:91] Creating Layer inception_3a/pool
I0403 14:24:31.160440  1250 net.cpp:425] inception_3a/pool <- pool2/3x3_s2_pool2/3x3_s2_0_split_3
I0403 14:24:31.160464  1250 net.cpp:399] inception_3a/pool -> inception_3a/pool
I0403 14:24:31.160524  1250 net.cpp:141] Setting up inception_3a/pool
I0403 14:24:31.160549  1250 net.cpp:148] Top shape: 24 192 28 28 (3612672)
I0403 14:24:31.160564  1250 net.cpp:156] Memory required for data: 556352544
I0403 14:24:31.160579  1250 layer_factory.hpp:77] Creating layer inception_3a/pool_proj
I0403 14:24:31.160615  1250 net.cpp:91] Creating Layer inception_3a/pool_proj
I0403 14:24:31.160632  1250 net.cpp:425] inception_3a/pool_proj <- inception_3a/pool
I0403 14:24:31.160655  1250 net.cpp:399] inception_3a/pool_proj -> inception_3a/pool_proj
I0403 14:24:31.161633  1250 net.cpp:141] Setting up inception_3a/pool_proj
I0403 14:24:31.161660  1250 net.cpp:148] Top shape: 24 32 28 28 (602112)
I0403 14:24:31.161676  1250 net.cpp:156] Memory required for data: 558760992
I0403 14:24:31.161700  1250 layer_factory.hpp:77] Creating layer inception_3a/relu_pool_proj
I0403 14:24:31.161720  1250 net.cpp:91] Creating Layer inception_3a/relu_pool_proj
I0403 14:24:31.161736  1250 net.cpp:425] inception_3a/relu_pool_proj <- inception_3a/pool_proj
I0403 14:24:31.161752  1250 net.cpp:386] inception_3a/relu_pool_proj -> inception_3a/pool_proj (in-place)
I0403 14:24:31.162024  1250 net.cpp:141] Setting up inception_3a/relu_pool_proj
I0403 14:24:31.162050  1250 net.cpp:148] Top shape: 24 32 28 28 (602112)
I0403 14:24:31.162063  1250 net.cpp:156] Memory required for data: 561169440
I0403 14:24:31.162080  1250 layer_factory.hpp:77] Creating layer inception_3a/output
I0403 14:24:31.162099  1250 net.cpp:91] Creating Layer inception_3a/output
I0403 14:24:31.162116  1250 net.cpp:425] inception_3a/output <- inception_3a/1x1
I0403 14:24:31.162132  1250 net.cpp:425] inception_3a/output <- inception_3a/3x3
I0403 14:24:31.162147  1250 net.cpp:425] inception_3a/output <- inception_3a/5x5
I0403 14:24:31.162163  1250 net.cpp:425] inception_3a/output <- inception_3a/pool_proj
I0403 14:24:31.162179  1250 net.cpp:399] inception_3a/output -> inception_3a/output
I0403 14:24:31.162245  1250 net.cpp:141] Setting up inception_3a/output
I0403 14:24:31.162268  1250 net.cpp:148] Top shape: 24 256 28 28 (4816896)
I0403 14:24:31.162283  1250 net.cpp:156] Memory required for data: 580437024
I0403 14:24:31.162298  1250 layer_factory.hpp:77] Creating layer inception_3a/output_inception_3a/output_0_split
I0403 14:24:31.162317  1250 net.cpp:91] Creating Layer inception_3a/output_inception_3a/output_0_split
I0403 14:24:31.162331  1250 net.cpp:425] inception_3a/output_inception_3a/output_0_split <- inception_3a/output
I0403 14:24:31.162351  1250 net.cpp:399] inception_3a/output_inception_3a/output_0_split -> inception_3a/output_inception_3a/output_0_split_0
I0403 14:24:31.162371  1250 net.cpp:399] inception_3a/output_inception_3a/output_0_split -> inception_3a/output_inception_3a/output_0_split_1
I0403 14:24:31.162395  1250 net.cpp:399] inception_3a/output_inception_3a/output_0_split -> inception_3a/output_inception_3a/output_0_split_2
I0403 14:24:31.162417  1250 net.cpp:399] inception_3a/output_inception_3a/output_0_split -> inception_3a/output_inception_3a/output_0_split_3
I0403 14:24:31.162493  1250 net.cpp:141] Setting up inception_3a/output_inception_3a/output_0_split
I0403 14:24:31.162518  1250 net.cpp:148] Top shape: 24 256 28 28 (4816896)
I0403 14:24:31.162545  1250 net.cpp:148] Top shape: 24 256 28 28 (4816896)
I0403 14:24:31.162561  1250 net.cpp:148] Top shape: 24 256 28 28 (4816896)
I0403 14:24:31.162576  1250 net.cpp:148] Top shape: 24 256 28 28 (4816896)
I0403 14:24:31.162590  1250 net.cpp:156] Memory required for data: 657507360
I0403 14:24:31.162605  1250 layer_factory.hpp:77] Creating layer inception_3b/1x1
I0403 14:24:31.162626  1250 net.cpp:91] Creating Layer inception_3b/1x1
I0403 14:24:31.162643  1250 net.cpp:425] inception_3b/1x1 <- inception_3a/output_inception_3a/output_0_split_0
I0403 14:24:31.162663  1250 net.cpp:399] inception_3b/1x1 -> inception_3b/1x1
I0403 14:24:31.163799  1250 net.cpp:141] Setting up inception_3b/1x1
I0403 14:24:31.163838  1250 net.cpp:148] Top shape: 24 128 28 28 (2408448)
I0403 14:24:31.163854  1250 net.cpp:156] Memory required for data: 667141152
I0403 14:24:31.163872  1250 layer_factory.hpp:77] Creating layer inception_3b/relu_1x1
I0403 14:24:31.163890  1250 net.cpp:91] Creating Layer inception_3b/relu_1x1
I0403 14:24:31.163907  1250 net.cpp:425] inception_3b/relu_1x1 <- inception_3b/1x1
I0403 14:24:31.163925  1250 net.cpp:386] inception_3b/relu_1x1 -> inception_3b/1x1 (in-place)
I0403 14:24:31.164115  1250 net.cpp:141] Setting up inception_3b/relu_1x1
I0403 14:24:31.164140  1250 net.cpp:148] Top shape: 24 128 28 28 (2408448)
I0403 14:24:31.164155  1250 net.cpp:156] Memory required for data: 676774944
I0403 14:24:31.164170  1250 layer_factory.hpp:77] Creating layer inception_3b/3x3_reduce
I0403 14:24:31.164192  1250 net.cpp:91] Creating Layer inception_3b/3x3_reduce
I0403 14:24:31.164214  1250 net.cpp:425] inception_3b/3x3_reduce <- inception_3a/output_inception_3a/output_0_split_1
I0403 14:24:31.164249  1250 net.cpp:399] inception_3b/3x3_reduce -> inception_3b/3x3_reduce
I0403 14:24:31.165385  1250 net.cpp:141] Setting up inception_3b/3x3_reduce
I0403 14:24:31.165412  1250 net.cpp:148] Top shape: 24 128 28 28 (2408448)
I0403 14:24:31.165427  1250 net.cpp:156] Memory required for data: 686408736
I0403 14:24:31.165446  1250 layer_factory.hpp:77] Creating layer inception_3b/relu_3x3_reduce
I0403 14:24:31.165467  1250 net.cpp:91] Creating Layer inception_3b/relu_3x3_reduce
I0403 14:24:31.165495  1250 net.cpp:425] inception_3b/relu_3x3_reduce <- inception_3b/3x3_reduce
I0403 14:24:31.165514  1250 net.cpp:386] inception_3b/relu_3x3_reduce -> inception_3b/3x3_reduce (in-place)
I0403 14:24:31.165693  1250 net.cpp:141] Setting up inception_3b/relu_3x3_reduce
I0403 14:24:31.165717  1250 net.cpp:148] Top shape: 24 128 28 28 (2408448)
I0403 14:24:31.165732  1250 net.cpp:156] Memory required for data: 696042528
I0403 14:24:31.165747  1250 layer_factory.hpp:77] Creating layer inception_3b/3x3
I0403 14:24:31.165772  1250 net.cpp:91] Creating Layer inception_3b/3x3
I0403 14:24:31.165803  1250 net.cpp:425] inception_3b/3x3 <- inception_3b/3x3_reduce
I0403 14:24:31.165822  1250 net.cpp:399] inception_3b/3x3 -> inception_3b/3x3
I0403 14:24:31.168808  1250 net.cpp:141] Setting up inception_3b/3x3
I0403 14:24:31.168838  1250 net.cpp:148] Top shape: 24 192 28 28 (3612672)
I0403 14:24:31.168854  1250 net.cpp:156] Memory required for data: 710493216
I0403 14:24:31.168874  1250 layer_factory.hpp:77] Creating layer inception_3b/relu_3x3
I0403 14:24:31.168894  1250 net.cpp:91] Creating Layer inception_3b/relu_3x3
I0403 14:24:31.168911  1250 net.cpp:425] inception_3b/relu_3x3 <- inception_3b/3x3
I0403 14:24:31.168928  1250 net.cpp:386] inception_3b/relu_3x3 -> inception_3b/3x3 (in-place)
I0403 14:24:31.169237  1250 net.cpp:141] Setting up inception_3b/relu_3x3
I0403 14:24:31.169263  1250 net.cpp:148] Top shape: 24 192 28 28 (3612672)
I0403 14:24:31.169278  1250 net.cpp:156] Memory required for data: 724943904
I0403 14:24:31.169293  1250 layer_factory.hpp:77] Creating layer inception_3b/5x5_reduce
I0403 14:24:31.169317  1250 net.cpp:91] Creating Layer inception_3b/5x5_reduce
I0403 14:24:31.169334  1250 net.cpp:425] inception_3b/5x5_reduce <- inception_3a/output_inception_3a/output_0_split_2
I0403 14:24:31.169356  1250 net.cpp:399] inception_3b/5x5_reduce -> inception_3b/5x5_reduce
I0403 14:24:31.170457  1250 net.cpp:141] Setting up inception_3b/5x5_reduce
I0403 14:24:31.170487  1250 net.cpp:148] Top shape: 24 32 28 28 (602112)
I0403 14:24:31.170503  1250 net.cpp:156] Memory required for data: 727352352
I0403 14:24:31.170522  1250 layer_factory.hpp:77] Creating layer inception_3b/relu_5x5_reduce
I0403 14:24:31.170557  1250 net.cpp:91] Creating Layer inception_3b/relu_5x5_reduce
I0403 14:24:31.170575  1250 net.cpp:425] inception_3b/relu_5x5_reduce <- inception_3b/5x5_reduce
I0403 14:24:31.170593  1250 net.cpp:386] inception_3b/relu_5x5_reduce -> inception_3b/5x5_reduce (in-place)
I0403 14:24:31.170790  1250 net.cpp:141] Setting up inception_3b/relu_5x5_reduce
I0403 14:24:31.170817  1250 net.cpp:148] Top shape: 24 32 28 28 (602112)
I0403 14:24:31.170833  1250 net.cpp:156] Memory required for data: 729760800
I0403 14:24:31.170848  1250 layer_factory.hpp:77] Creating layer inception_3b/5x5
I0403 14:24:31.170871  1250 net.cpp:91] Creating Layer inception_3b/5x5
I0403 14:24:31.170889  1250 net.cpp:425] inception_3b/5x5 <- inception_3b/5x5_reduce
I0403 14:24:31.170909  1250 net.cpp:399] inception_3b/5x5 -> inception_3b/5x5
I0403 14:24:31.172919  1250 net.cpp:141] Setting up inception_3b/5x5
I0403 14:24:31.172946  1250 net.cpp:148] Top shape: 24 96 28 28 (1806336)
I0403 14:24:31.172961  1250 net.cpp:156] Memory required for data: 736986144
I0403 14:24:31.172981  1250 layer_factory.hpp:77] Creating layer inception_3b/relu_5x5
I0403 14:24:31.173001  1250 net.cpp:91] Creating Layer inception_3b/relu_5x5
I0403 14:24:31.173017  1250 net.cpp:425] inception_3b/relu_5x5 <- inception_3b/5x5
I0403 14:24:31.173033  1250 net.cpp:386] inception_3b/relu_5x5 -> inception_3b/5x5 (in-place)
I0403 14:24:31.173235  1250 net.cpp:141] Setting up inception_3b/relu_5x5
I0403 14:24:31.173260  1250 net.cpp:148] Top shape: 24 96 28 28 (1806336)
I0403 14:24:31.173275  1250 net.cpp:156] Memory required for data: 744211488
I0403 14:24:31.173290  1250 layer_factory.hpp:77] Creating layer inception_3b/pool
I0403 14:24:31.173307  1250 net.cpp:91] Creating Layer inception_3b/pool
I0403 14:24:31.173323  1250 net.cpp:425] inception_3b/pool <- inception_3a/output_inception_3a/output_0_split_3
I0403 14:24:31.173341  1250 net.cpp:399] inception_3b/pool -> inception_3b/pool
I0403 14:24:31.173398  1250 net.cpp:141] Setting up inception_3b/pool
I0403 14:24:31.173421  1250 net.cpp:148] Top shape: 24 256 28 28 (4816896)
I0403 14:24:31.173437  1250 net.cpp:156] Memory required for data: 763479072
I0403 14:24:31.173451  1250 layer_factory.hpp:77] Creating layer inception_3b/pool_proj
I0403 14:24:31.173485  1250 net.cpp:91] Creating Layer inception_3b/pool_proj
I0403 14:24:31.173503  1250 net.cpp:425] inception_3b/pool_proj <- inception_3b/pool
I0403 14:24:31.173524  1250 net.cpp:399] inception_3b/pool_proj -> inception_3b/pool_proj
I0403 14:24:31.174599  1250 net.cpp:141] Setting up inception_3b/pool_proj
I0403 14:24:31.174628  1250 net.cpp:148] Top shape: 24 64 28 28 (1204224)
I0403 14:24:31.174644  1250 net.cpp:156] Memory required for data: 768295968
I0403 14:24:31.174664  1250 layer_factory.hpp:77] Creating layer inception_3b/relu_pool_proj
I0403 14:24:31.174680  1250 net.cpp:91] Creating Layer inception_3b/relu_pool_proj
I0403 14:24:31.174696  1250 net.cpp:425] inception_3b/relu_pool_proj <- inception_3b/pool_proj
I0403 14:24:31.174716  1250 net.cpp:386] inception_3b/relu_pool_proj -> inception_3b/pool_proj (in-place)
I0403 14:24:31.175132  1250 net.cpp:141] Setting up inception_3b/relu_pool_proj
I0403 14:24:31.175160  1250 net.cpp:148] Top shape: 24 64 28 28 (1204224)
I0403 14:24:31.175176  1250 net.cpp:156] Memory required for data: 773112864
I0403 14:24:31.175191  1250 layer_factory.hpp:77] Creating layer inception_3b/output
I0403 14:24:31.175214  1250 net.cpp:91] Creating Layer inception_3b/output
I0403 14:24:31.175231  1250 net.cpp:425] inception_3b/output <- inception_3b/1x1
I0403 14:24:31.175248  1250 net.cpp:425] inception_3b/output <- inception_3b/3x3
I0403 14:24:31.175264  1250 net.cpp:425] inception_3b/output <- inception_3b/5x5
I0403 14:24:31.175281  1250 net.cpp:425] inception_3b/output <- inception_3b/pool_proj
I0403 14:24:31.175297  1250 net.cpp:399] inception_3b/output -> inception_3b/output
I0403 14:24:31.175343  1250 net.cpp:141] Setting up inception_3b/output
I0403 14:24:31.175367  1250 net.cpp:148] Top shape: 24 480 28 28 (9031680)
I0403 14:24:31.175382  1250 net.cpp:156] Memory required for data: 809239584
I0403 14:24:31.175397  1250 layer_factory.hpp:77] Creating layer pool3/3x3_s2
I0403 14:24:31.175417  1250 net.cpp:91] Creating Layer pool3/3x3_s2
I0403 14:24:31.175436  1250 net.cpp:425] pool3/3x3_s2 <- inception_3b/output
I0403 14:24:31.175469  1250 net.cpp:399] pool3/3x3_s2 -> pool3/3x3_s2
I0403 14:24:31.175531  1250 net.cpp:141] Setting up pool3/3x3_s2
I0403 14:24:31.175554  1250 net.cpp:148] Top shape: 24 480 14 14 (2257920)
I0403 14:24:31.175570  1250 net.cpp:156] Memory required for data: 818271264
I0403 14:24:31.175585  1250 layer_factory.hpp:77] Creating layer pool3/3x3_s2_pool3/3x3_s2_0_split
I0403 14:24:31.175602  1250 net.cpp:91] Creating Layer pool3/3x3_s2_pool3/3x3_s2_0_split
I0403 14:24:31.175617  1250 net.cpp:425] pool3/3x3_s2_pool3/3x3_s2_0_split <- pool3/3x3_s2
I0403 14:24:31.175637  1250 net.cpp:399] pool3/3x3_s2_pool3/3x3_s2_0_split -> pool3/3x3_s2_pool3/3x3_s2_0_split_0
I0403 14:24:31.175658  1250 net.cpp:399] pool3/3x3_s2_pool3/3x3_s2_0_split -> pool3/3x3_s2_pool3/3x3_s2_0_split_1
I0403 14:24:31.175678  1250 net.cpp:399] pool3/3x3_s2_pool3/3x3_s2_0_split -> pool3/3x3_s2_pool3/3x3_s2_0_split_2
I0403 14:24:31.175698  1250 net.cpp:399] pool3/3x3_s2_pool3/3x3_s2_0_split -> pool3/3x3_s2_pool3/3x3_s2_0_split_3
I0403 14:24:31.175776  1250 net.cpp:141] Setting up pool3/3x3_s2_pool3/3x3_s2_0_split
I0403 14:24:31.175803  1250 net.cpp:148] Top shape: 24 480 14 14 (2257920)
I0403 14:24:31.175822  1250 net.cpp:148] Top shape: 24 480 14 14 (2257920)
I0403 14:24:31.175837  1250 net.cpp:148] Top shape: 24 480 14 14 (2257920)
I0403 14:24:31.175853  1250 net.cpp:148] Top shape: 24 480 14 14 (2257920)
I0403 14:24:31.175868  1250 net.cpp:156] Memory required for data: 854397984
I0403 14:24:31.175884  1250 layer_factory.hpp:77] Creating layer inception_4a/1x1
I0403 14:24:31.175906  1250 net.cpp:91] Creating Layer inception_4a/1x1
I0403 14:24:31.175923  1250 net.cpp:425] inception_4a/1x1 <- pool3/3x3_s2_pool3/3x3_s2_0_split_0
I0403 14:24:31.175942  1250 net.cpp:399] inception_4a/1x1 -> inception_4a/1x1
I0403 14:24:31.177549  1250 net.cpp:141] Setting up inception_4a/1x1
I0403 14:24:31.177582  1250 net.cpp:148] Top shape: 24 192 14 14 (903168)
I0403 14:24:31.177597  1250 net.cpp:156] Memory required for data: 858010656
I0403 14:24:31.177618  1250 layer_factory.hpp:77] Creating layer inception_4a/relu_1x1
I0403 14:24:31.177635  1250 net.cpp:91] Creating Layer inception_4a/relu_1x1
I0403 14:24:31.177651  1250 net.cpp:425] inception_4a/relu_1x1 <- inception_4a/1x1
I0403 14:24:31.177671  1250 net.cpp:386] inception_4a/relu_1x1 -> inception_4a/1x1 (in-place)
I0403 14:24:31.177852  1250 net.cpp:141] Setting up inception_4a/relu_1x1
I0403 14:24:31.177877  1250 net.cpp:148] Top shape: 24 192 14 14 (903168)
I0403 14:24:31.177893  1250 net.cpp:156] Memory required for data: 861623328
I0403 14:24:31.177908  1250 layer_factory.hpp:77] Creating layer inception_4a/3x3_reduce
I0403 14:24:31.177930  1250 net.cpp:91] Creating Layer inception_4a/3x3_reduce
I0403 14:24:31.177948  1250 net.cpp:425] inception_4a/3x3_reduce <- pool3/3x3_s2_pool3/3x3_s2_0_split_1
I0403 14:24:31.177970  1250 net.cpp:399] inception_4a/3x3_reduce -> inception_4a/3x3_reduce
I0403 14:24:31.179368  1250 net.cpp:141] Setting up inception_4a/3x3_reduce
I0403 14:24:31.179399  1250 net.cpp:148] Top shape: 24 96 14 14 (451584)
I0403 14:24:31.179415  1250 net.cpp:156] Memory required for data: 863429664
I0403 14:24:31.179441  1250 layer_factory.hpp:77] Creating layer inception_4a/relu_3x3_reduce
I0403 14:24:31.179463  1250 net.cpp:91] Creating Layer inception_4a/relu_3x3_reduce
I0403 14:24:31.179481  1250 net.cpp:425] inception_4a/relu_3x3_reduce <- inception_4a/3x3_reduce
I0403 14:24:31.179498  1250 net.cpp:386] inception_4a/relu_3x3_reduce -> inception_4a/3x3_reduce (in-place)
I0403 14:24:31.179683  1250 net.cpp:141] Setting up inception_4a/relu_3x3_reduce
I0403 14:24:31.179708  1250 net.cpp:148] Top shape: 24 96 14 14 (451584)
I0403 14:24:31.179723  1250 net.cpp:156] Memory required for data: 865236000
I0403 14:24:31.179740  1250 layer_factory.hpp:77] Creating layer inception_4a/3x3
I0403 14:24:31.179764  1250 net.cpp:91] Creating Layer inception_4a/3x3
I0403 14:24:31.179782  1250 net.cpp:425] inception_4a/3x3 <- inception_4a/3x3_reduce
I0403 14:24:31.179805  1250 net.cpp:399] inception_4a/3x3 -> inception_4a/3x3
I0403 14:24:31.182515  1250 net.cpp:141] Setting up inception_4a/3x3
I0403 14:24:31.182545  1250 net.cpp:148] Top shape: 24 208 14 14 (978432)
I0403 14:24:31.182561  1250 net.cpp:156] Memory required for data: 869149728
I0403 14:24:31.182581  1250 layer_factory.hpp:77] Creating layer inception_4a/relu_3x3
I0403 14:24:31.182601  1250 net.cpp:91] Creating Layer inception_4a/relu_3x3
I0403 14:24:31.182618  1250 net.cpp:425] inception_4a/relu_3x3 <- inception_4a/3x3
I0403 14:24:31.182636  1250 net.cpp:386] inception_4a/relu_3x3 -> inception_4a/3x3 (in-place)
I0403 14:24:31.182925  1250 net.cpp:141] Setting up inception_4a/relu_3x3
I0403 14:24:31.182952  1250 net.cpp:148] Top shape: 24 208 14 14 (978432)
I0403 14:24:31.182967  1250 net.cpp:156] Memory required for data: 873063456
I0403 14:24:31.182982  1250 layer_factory.hpp:77] Creating layer inception_4a/5x5_reduce
I0403 14:24:31.183007  1250 net.cpp:91] Creating Layer inception_4a/5x5_reduce
I0403 14:24:31.183023  1250 net.cpp:425] inception_4a/5x5_reduce <- pool3/3x3_s2_pool3/3x3_s2_0_split_2
I0403 14:24:31.183045  1250 net.cpp:399] inception_4a/5x5_reduce -> inception_4a/5x5_reduce
I0403 14:24:31.184072  1250 net.cpp:141] Setting up inception_4a/5x5_reduce
I0403 14:24:31.184103  1250 net.cpp:148] Top shape: 24 16 14 14 (75264)
I0403 14:24:31.184118  1250 net.cpp:156] Memory required for data: 873364512
I0403 14:24:31.184137  1250 layer_factory.hpp:77] Creating layer inception_4a/relu_5x5_reduce
I0403 14:24:31.184159  1250 net.cpp:91] Creating Layer inception_4a/relu_5x5_reduce
I0403 14:24:31.184175  1250 net.cpp:425] inception_4a/relu_5x5_reduce <- inception_4a/5x5_reduce
I0403 14:24:31.184192  1250 net.cpp:386] inception_4a/relu_5x5_reduce -> inception_4a/5x5_reduce (in-place)
I0403 14:24:31.184386  1250 net.cpp:141] Setting up inception_4a/relu_5x5_reduce
I0403 14:24:31.184412  1250 net.cpp:148] Top shape: 24 16 14 14 (75264)
I0403 14:24:31.184427  1250 net.cpp:156] Memory required for data: 873665568
I0403 14:24:31.184442  1250 layer_factory.hpp:77] Creating layer inception_4a/5x5
I0403 14:24:31.184468  1250 net.cpp:91] Creating Layer inception_4a/5x5
I0403 14:24:31.184486  1250 net.cpp:425] inception_4a/5x5 <- inception_4a/5x5_reduce
I0403 14:24:31.184506  1250 net.cpp:399] inception_4a/5x5 -> inception_4a/5x5
I0403 14:24:31.185590  1250 net.cpp:141] Setting up inception_4a/5x5
I0403 14:24:31.185619  1250 net.cpp:148] Top shape: 24 48 14 14 (225792)
I0403 14:24:31.185636  1250 net.cpp:156] Memory required for data: 874568736
I0403 14:24:31.185657  1250 layer_factory.hpp:77] Creating layer inception_4a/relu_5x5
I0403 14:24:31.185674  1250 net.cpp:91] Creating Layer inception_4a/relu_5x5
I0403 14:24:31.185689  1250 net.cpp:425] inception_4a/relu_5x5 <- inception_4a/5x5
I0403 14:24:31.185708  1250 net.cpp:386] inception_4a/relu_5x5 -> inception_4a/5x5 (in-place)
I0403 14:24:31.185900  1250 net.cpp:141] Setting up inception_4a/relu_5x5
I0403 14:24:31.185925  1250 net.cpp:148] Top shape: 24 48 14 14 (225792)
I0403 14:24:31.185940  1250 net.cpp:156] Memory required for data: 875471904
I0403 14:24:31.185956  1250 layer_factory.hpp:77] Creating layer inception_4a/pool
I0403 14:24:31.185973  1250 net.cpp:91] Creating Layer inception_4a/pool
I0403 14:24:31.185989  1250 net.cpp:425] inception_4a/pool <- pool3/3x3_s2_pool3/3x3_s2_0_split_3
I0403 14:24:31.186009  1250 net.cpp:399] inception_4a/pool -> inception_4a/pool
I0403 14:24:31.186070  1250 net.cpp:141] Setting up inception_4a/pool
I0403 14:24:31.186097  1250 net.cpp:148] Top shape: 24 480 14 14 (2257920)
I0403 14:24:31.186113  1250 net.cpp:156] Memory required for data: 884503584
I0403 14:24:31.186128  1250 layer_factory.hpp:77] Creating layer inception_4a/pool_proj
I0403 14:24:31.186162  1250 net.cpp:91] Creating Layer inception_4a/pool_proj
I0403 14:24:31.186179  1250 net.cpp:425] inception_4a/pool_proj <- inception_4a/pool
I0403 14:24:31.186197  1250 net.cpp:399] inception_4a/pool_proj -> inception_4a/pool_proj
I0403 14:24:31.187399  1250 net.cpp:141] Setting up inception_4a/pool_proj
I0403 14:24:31.187429  1250 net.cpp:148] Top shape: 24 64 14 14 (301056)
I0403 14:24:31.187458  1250 net.cpp:156] Memory required for data: 885707808
I0403 14:24:31.187477  1250 layer_factory.hpp:77] Creating layer inception_4a/relu_pool_proj
I0403 14:24:31.187494  1250 net.cpp:91] Creating Layer inception_4a/relu_pool_proj
I0403 14:24:31.187510  1250 net.cpp:425] inception_4a/relu_pool_proj <- inception_4a/pool_proj
I0403 14:24:31.187528  1250 net.cpp:386] inception_4a/relu_pool_proj -> inception_4a/pool_proj (in-place)
I0403 14:24:31.187820  1250 net.cpp:141] Setting up inception_4a/relu_pool_proj
I0403 14:24:31.187849  1250 net.cpp:148] Top shape: 24 64 14 14 (301056)
I0403 14:24:31.187862  1250 net.cpp:156] Memory required for data: 886912032
I0403 14:24:31.187877  1250 layer_factory.hpp:77] Creating layer inception_4a/output
I0403 14:24:31.187894  1250 net.cpp:91] Creating Layer inception_4a/output
I0403 14:24:31.187909  1250 net.cpp:425] inception_4a/output <- inception_4a/1x1
I0403 14:24:31.187927  1250 net.cpp:425] inception_4a/output <- inception_4a/3x3
I0403 14:24:31.187942  1250 net.cpp:425] inception_4a/output <- inception_4a/5x5
I0403 14:24:31.187958  1250 net.cpp:425] inception_4a/output <- inception_4a/pool_proj
I0403 14:24:31.187985  1250 net.cpp:399] inception_4a/output -> inception_4a/output
I0403 14:24:31.188031  1250 net.cpp:141] Setting up inception_4a/output
I0403 14:24:31.188053  1250 net.cpp:148] Top shape: 24 512 14 14 (2408448)
I0403 14:24:31.188067  1250 net.cpp:156] Memory required for data: 896545824
I0403 14:24:31.188081  1250 layer_factory.hpp:77] Creating layer inception_4a/output_inception_4a/output_0_split
I0403 14:24:31.188102  1250 net.cpp:91] Creating Layer inception_4a/output_inception_4a/output_0_split
I0403 14:24:31.188117  1250 net.cpp:425] inception_4a/output_inception_4a/output_0_split <- inception_4a/output
I0403 14:24:31.188133  1250 net.cpp:399] inception_4a/output_inception_4a/output_0_split -> inception_4a/output_inception_4a/output_0_split_0
I0403 14:24:31.188153  1250 net.cpp:399] inception_4a/output_inception_4a/output_0_split -> inception_4a/output_inception_4a/output_0_split_1
I0403 14:24:31.188174  1250 net.cpp:399] inception_4a/output_inception_4a/output_0_split -> inception_4a/output_inception_4a/output_0_split_2
I0403 14:24:31.188195  1250 net.cpp:399] inception_4a/output_inception_4a/output_0_split -> inception_4a/output_inception_4a/output_0_split_3
I0403 14:24:31.188220  1250 net.cpp:399] inception_4a/output_inception_4a/output_0_split -> inception_4a/output_inception_4a/output_0_split_4
I0403 14:24:31.188309  1250 net.cpp:141] Setting up inception_4a/output_inception_4a/output_0_split
I0403 14:24:31.188331  1250 net.cpp:148] Top shape: 24 512 14 14 (2408448)
I0403 14:24:31.188346  1250 net.cpp:148] Top shape: 24 512 14 14 (2408448)
I0403 14:24:31.188362  1250 net.cpp:148] Top shape: 24 512 14 14 (2408448)
I0403 14:24:31.188377  1250 net.cpp:148] Top shape: 24 512 14 14 (2408448)
I0403 14:24:31.188392  1250 net.cpp:148] Top shape: 24 512 14 14 (2408448)
I0403 14:24:31.188405  1250 net.cpp:156] Memory required for data: 944714784
I0403 14:24:31.188421  1250 layer_factory.hpp:77] Creating layer loss1/ave_pool
I0403 14:24:31.188441  1250 net.cpp:91] Creating Layer loss1/ave_pool
I0403 14:24:31.188457  1250 net.cpp:425] loss1/ave_pool <- inception_4a/output_inception_4a/output_0_split_0
I0403 14:24:31.188474  1250 net.cpp:399] loss1/ave_pool -> loss1/ave_pool
I0403 14:24:31.188675  1250 net.cpp:141] Setting up loss1/ave_pool
I0403 14:24:31.188699  1250 net.cpp:148] Top shape: 24 512 4 4 (196608)
I0403 14:24:31.188714  1250 net.cpp:156] Memory required for data: 945501216
I0403 14:24:31.188727  1250 layer_factory.hpp:77] Creating layer loss1/conv
I0403 14:24:31.188748  1250 net.cpp:91] Creating Layer loss1/conv
I0403 14:24:31.188766  1250 net.cpp:425] loss1/conv <- loss1/ave_pool
I0403 14:24:31.188786  1250 net.cpp:399] loss1/conv -> loss1/conv
I0403 14:24:31.190196  1250 net.cpp:141] Setting up loss1/conv
I0403 14:24:31.190227  1250 net.cpp:148] Top shape: 24 128 4 4 (49152)
I0403 14:24:31.190256  1250 net.cpp:156] Memory required for data: 945697824
I0403 14:24:31.190276  1250 layer_factory.hpp:77] Creating layer loss1/relu_conv
I0403 14:24:31.190296  1250 net.cpp:91] Creating Layer loss1/relu_conv
I0403 14:24:31.190313  1250 net.cpp:425] loss1/relu_conv <- loss1/conv
I0403 14:24:31.190330  1250 net.cpp:386] loss1/relu_conv -> loss1/conv (in-place)
I0403 14:24:31.190610  1250 net.cpp:141] Setting up loss1/relu_conv
I0403 14:24:31.190636  1250 net.cpp:148] Top shape: 24 128 4 4 (49152)
I0403 14:24:31.190650  1250 net.cpp:156] Memory required for data: 945894432
I0403 14:24:31.190665  1250 layer_factory.hpp:77] Creating layer loss1/fc
I0403 14:24:31.190690  1250 net.cpp:91] Creating Layer loss1/fc
I0403 14:24:31.190709  1250 net.cpp:425] loss1/fc <- loss1/conv
I0403 14:24:31.190727  1250 net.cpp:399] loss1/fc -> loss1/fc
I0403 14:24:31.208411  1250 net.cpp:141] Setting up loss1/fc
I0403 14:24:31.208472  1250 net.cpp:148] Top shape: 24 1024 (24576)
I0403 14:24:31.208488  1250 net.cpp:156] Memory required for data: 945992736
I0403 14:24:31.208508  1250 layer_factory.hpp:77] Creating layer loss1/relu_fc
I0403 14:24:31.208526  1250 net.cpp:91] Creating Layer loss1/relu_fc
I0403 14:24:31.208544  1250 net.cpp:425] loss1/relu_fc <- loss1/fc
I0403 14:24:31.208564  1250 net.cpp:386] loss1/relu_fc -> loss1/fc (in-place)
I0403 14:24:31.208768  1250 net.cpp:141] Setting up loss1/relu_fc
I0403 14:24:31.208792  1250 net.cpp:148] Top shape: 24 1024 (24576)
I0403 14:24:31.208806  1250 net.cpp:156] Memory required for data: 946091040
I0403 14:24:31.208832  1250 layer_factory.hpp:77] Creating layer loss1/drop_fc
I0403 14:24:31.208863  1250 net.cpp:91] Creating Layer loss1/drop_fc
I0403 14:24:31.208880  1250 net.cpp:425] loss1/drop_fc <- loss1/fc
I0403 14:24:31.208899  1250 net.cpp:386] loss1/drop_fc -> loss1/fc (in-place)
I0403 14:24:31.208950  1250 net.cpp:141] Setting up loss1/drop_fc
I0403 14:24:31.208971  1250 net.cpp:148] Top shape: 24 1024 (24576)
I0403 14:24:31.208986  1250 net.cpp:156] Memory required for data: 946189344
I0403 14:24:31.209000  1250 layer_factory.hpp:77] Creating layer loss1/classifier_plantvillage
I0403 14:24:31.209022  1250 net.cpp:91] Creating Layer loss1/classifier_plantvillage
I0403 14:24:31.209038  1250 net.cpp:425] loss1/classifier_plantvillage <- loss1/fc
I0403 14:24:31.209059  1250 net.cpp:399] loss1/classifier_plantvillage -> loss1/classifier_plantvillage
I0403 14:24:31.209971  1250 net.cpp:141] Setting up loss1/classifier_plantvillage
I0403 14:24:31.210000  1250 net.cpp:148] Top shape: 24 38 (912)
I0403 14:24:31.210014  1250 net.cpp:156] Memory required for data: 946192992
I0403 14:24:31.210031  1250 layer_factory.hpp:77] Creating layer loss1/classifier_plantvillage_loss1/classifier_plantvillage_0_split
I0403 14:24:31.210049  1250 net.cpp:91] Creating Layer loss1/classifier_plantvillage_loss1/classifier_plantvillage_0_split
I0403 14:24:31.210064  1250 net.cpp:425] loss1/classifier_plantvillage_loss1/classifier_plantvillage_0_split <- loss1/classifier_plantvillage
I0403 14:24:31.210083  1250 net.cpp:399] loss1/classifier_plantvillage_loss1/classifier_plantvillage_0_split -> loss1/classifier_plantvillage_loss1/classifier_plantvillage_0_split_0
I0403 14:24:31.210104  1250 net.cpp:399] loss1/classifier_plantvillage_loss1/classifier_plantvillage_0_split -> loss1/classifier_plantvillage_loss1/classifier_plantvillage_0_split_1
I0403 14:24:31.210124  1250 net.cpp:399] loss1/classifier_plantvillage_loss1/classifier_plantvillage_0_split -> loss1/classifier_plantvillage_loss1/classifier_plantvillage_0_split_2
I0403 14:24:31.210187  1250 net.cpp:141] Setting up loss1/classifier_plantvillage_loss1/classifier_plantvillage_0_split
I0403 14:24:31.210216  1250 net.cpp:148] Top shape: 24 38 (912)
I0403 14:24:31.210234  1250 net.cpp:148] Top shape: 24 38 (912)
I0403 14:24:31.210250  1250 net.cpp:148] Top shape: 24 38 (912)
I0403 14:24:31.210264  1250 net.cpp:156] Memory required for data: 946203936
I0403 14:24:31.210278  1250 layer_factory.hpp:77] Creating layer inception_4b/1x1
I0403 14:24:31.210299  1250 net.cpp:91] Creating Layer inception_4b/1x1
I0403 14:24:31.210352  1250 net.cpp:425] inception_4b/1x1 <- inception_4a/output_inception_4a/output_0_split_1
I0403 14:24:31.210372  1250 net.cpp:399] inception_4b/1x1 -> inception_4b/1x1
I0403 14:24:31.212062  1250 net.cpp:141] Setting up inception_4b/1x1
I0403 14:24:31.212090  1250 net.cpp:148] Top shape: 24 160 14 14 (752640)
I0403 14:24:31.212106  1250 net.cpp:156] Memory required for data: 949214496
I0403 14:24:31.212124  1250 layer_factory.hpp:77] Creating layer inception_4b/relu_1x1
I0403 14:24:31.212157  1250 net.cpp:91] Creating Layer inception_4b/relu_1x1
I0403 14:24:31.212173  1250 net.cpp:425] inception_4b/relu_1x1 <- inception_4b/1x1
I0403 14:24:31.212189  1250 net.cpp:386] inception_4b/relu_1x1 -> inception_4b/1x1 (in-place)
I0403 14:24:31.212368  1250 net.cpp:141] Setting up inception_4b/relu_1x1
I0403 14:24:31.212391  1250 net.cpp:148] Top shape: 24 160 14 14 (752640)
I0403 14:24:31.212406  1250 net.cpp:156] Memory required for data: 952225056
I0403 14:24:31.212419  1250 layer_factory.hpp:77] Creating layer inception_4b/3x3_reduce
I0403 14:24:31.212443  1250 net.cpp:91] Creating Layer inception_4b/3x3_reduce
I0403 14:24:31.212460  1250 net.cpp:425] inception_4b/3x3_reduce <- inception_4a/output_inception_4a/output_0_split_2
I0403 14:24:31.212478  1250 net.cpp:399] inception_4b/3x3_reduce -> inception_4b/3x3_reduce
I0403 14:24:31.213830  1250 net.cpp:141] Setting up inception_4b/3x3_reduce
I0403 14:24:31.213857  1250 net.cpp:148] Top shape: 24 112 14 14 (526848)
I0403 14:24:31.213872  1250 net.cpp:156] Memory required for data: 954332448
I0403 14:24:31.213889  1250 layer_factory.hpp:77] Creating layer inception_4b/relu_3x3_reduce
I0403 14:24:31.213910  1250 net.cpp:91] Creating Layer inception_4b/relu_3x3_reduce
I0403 14:24:31.213927  1250 net.cpp:425] inception_4b/relu_3x3_reduce <- inception_4b/3x3_reduce
I0403 14:24:31.213944  1250 net.cpp:386] inception_4b/relu_3x3_reduce -> inception_4b/3x3_reduce (in-place)
I0403 14:24:31.214221  1250 net.cpp:141] Setting up inception_4b/relu_3x3_reduce
I0403 14:24:31.214246  1250 net.cpp:148] Top shape: 24 112 14 14 (526848)
I0403 14:24:31.214260  1250 net.cpp:156] Memory required for data: 956439840
I0403 14:24:31.214275  1250 layer_factory.hpp:77] Creating layer inception_4b/3x3
I0403 14:24:31.214298  1250 net.cpp:91] Creating Layer inception_4b/3x3
I0403 14:24:31.214314  1250 net.cpp:425] inception_4b/3x3 <- inception_4b/3x3_reduce
I0403 14:24:31.214334  1250 net.cpp:399] inception_4b/3x3 -> inception_4b/3x3
I0403 14:24:31.217288  1250 net.cpp:141] Setting up inception_4b/3x3
I0403 14:24:31.217320  1250 net.cpp:148] Top shape: 24 224 14 14 (1053696)
I0403 14:24:31.217336  1250 net.cpp:156] Memory required for data: 960654624
I0403 14:24:31.217355  1250 layer_factory.hpp:77] Creating layer inception_4b/relu_3x3
I0403 14:24:31.217372  1250 net.cpp:91] Creating Layer inception_4b/relu_3x3
I0403 14:24:31.217387  1250 net.cpp:425] inception_4b/relu_3x3 <- inception_4b/3x3
I0403 14:24:31.217407  1250 net.cpp:386] inception_4b/relu_3x3 -> inception_4b/3x3 (in-place)
I0403 14:24:31.217586  1250 net.cpp:141] Setting up inception_4b/relu_3x3
I0403 14:24:31.217612  1250 net.cpp:148] Top shape: 24 224 14 14 (1053696)
I0403 14:24:31.217627  1250 net.cpp:156] Memory required for data: 964869408
I0403 14:24:31.217641  1250 layer_factory.hpp:77] Creating layer inception_4b/5x5_reduce
I0403 14:24:31.217664  1250 net.cpp:91] Creating Layer inception_4b/5x5_reduce
I0403 14:24:31.217680  1250 net.cpp:425] inception_4b/5x5_reduce <- inception_4a/output_inception_4a/output_0_split_3
I0403 14:24:31.217702  1250 net.cpp:399] inception_4b/5x5_reduce -> inception_4b/5x5_reduce
I0403 14:24:31.218791  1250 net.cpp:141] Setting up inception_4b/5x5_reduce
I0403 14:24:31.218818  1250 net.cpp:148] Top shape: 24 24 14 14 (112896)
I0403 14:24:31.218833  1250 net.cpp:156] Memory required for data: 965320992
I0403 14:24:31.218852  1250 layer_factory.hpp:77] Creating layer inception_4b/relu_5x5_reduce
I0403 14:24:31.218871  1250 net.cpp:91] Creating Layer inception_4b/relu_5x5_reduce
I0403 14:24:31.218902  1250 net.cpp:425] inception_4b/relu_5x5_reduce <- inception_4b/5x5_reduce
I0403 14:24:31.218920  1250 net.cpp:386] inception_4b/relu_5x5_reduce -> inception_4b/5x5_reduce (in-place)
I0403 14:24:31.219102  1250 net.cpp:141] Setting up inception_4b/relu_5x5_reduce
I0403 14:24:31.219130  1250 net.cpp:148] Top shape: 24 24 14 14 (112896)
I0403 14:24:31.219146  1250 net.cpp:156] Memory required for data: 965772576
I0403 14:24:31.219161  1250 layer_factory.hpp:77] Creating layer inception_4b/5x5
I0403 14:24:31.219183  1250 net.cpp:91] Creating Layer inception_4b/5x5
I0403 14:24:31.219200  1250 net.cpp:425] inception_4b/5x5 <- inception_4b/5x5_reduce
I0403 14:24:31.219224  1250 net.cpp:399] inception_4b/5x5 -> inception_4b/5x5
I0403 14:24:31.220495  1250 net.cpp:141] Setting up inception_4b/5x5
I0403 14:24:31.220523  1250 net.cpp:148] Top shape: 24 64 14 14 (301056)
I0403 14:24:31.220540  1250 net.cpp:156] Memory required for data: 966976800
I0403 14:24:31.220558  1250 layer_factory.hpp:77] Creating layer inception_4b/relu_5x5
I0403 14:24:31.220578  1250 net.cpp:91] Creating Layer inception_4b/relu_5x5
I0403 14:24:31.220597  1250 net.cpp:425] inception_4b/relu_5x5 <- inception_4b/5x5
I0403 14:24:31.220613  1250 net.cpp:386] inception_4b/relu_5x5 -> inception_4b/5x5 (in-place)
I0403 14:24:31.220903  1250 net.cpp:141] Setting up inception_4b/relu_5x5
I0403 14:24:31.220930  1250 net.cpp:148] Top shape: 24 64 14 14 (301056)
I0403 14:24:31.220947  1250 net.cpp:156] Memory required for data: 968181024
I0403 14:24:31.220962  1250 layer_factory.hpp:77] Creating layer inception_4b/pool
I0403 14:24:31.220983  1250 net.cpp:91] Creating Layer inception_4b/pool
I0403 14:24:31.221000  1250 net.cpp:425] inception_4b/pool <- inception_4a/output_inception_4a/output_0_split_4
I0403 14:24:31.221019  1250 net.cpp:399] inception_4b/pool -> inception_4b/pool
I0403 14:24:31.221086  1250 net.cpp:141] Setting up inception_4b/pool
I0403 14:24:31.221112  1250 net.cpp:148] Top shape: 24 512 14 14 (2408448)
I0403 14:24:31.221127  1250 net.cpp:156] Memory required for data: 977814816
I0403 14:24:31.221141  1250 layer_factory.hpp:77] Creating layer inception_4b/pool_proj
I0403 14:24:31.221163  1250 net.cpp:91] Creating Layer inception_4b/pool_proj
I0403 14:24:31.221181  1250 net.cpp:425] inception_4b/pool_proj <- inception_4b/pool
I0403 14:24:31.221202  1250 net.cpp:399] inception_4b/pool_proj -> inception_4b/pool_proj
I0403 14:24:31.222506  1250 net.cpp:141] Setting up inception_4b/pool_proj
I0403 14:24:31.222534  1250 net.cpp:148] Top shape: 24 64 14 14 (301056)
I0403 14:24:31.222550  1250 net.cpp:156] Memory required for data: 979019040
I0403 14:24:31.222569  1250 layer_factory.hpp:77] Creating layer inception_4b/relu_pool_proj
I0403 14:24:31.222590  1250 net.cpp:91] Creating Layer inception_4b/relu_pool_proj
I0403 14:24:31.222607  1250 net.cpp:425] inception_4b/relu_pool_proj <- inception_4b/pool_proj
I0403 14:24:31.222625  1250 net.cpp:386] inception_4b/relu_pool_proj -> inception_4b/pool_proj (in-place)
I0403 14:24:31.222810  1250 net.cpp:141] Setting up inception_4b/relu_pool_proj
I0403 14:24:31.222838  1250 net.cpp:148] Top shape: 24 64 14 14 (301056)
I0403 14:24:31.222856  1250 net.cpp:156] Memory required for data: 980223264
I0403 14:24:31.222870  1250 layer_factory.hpp:77] Creating layer inception_4b/output
I0403 14:24:31.222888  1250 net.cpp:91] Creating Layer inception_4b/output
I0403 14:24:31.222904  1250 net.cpp:425] inception_4b/output <- inception_4b/1x1
I0403 14:24:31.222921  1250 net.cpp:425] inception_4b/output <- inception_4b/3x3
I0403 14:24:31.222939  1250 net.cpp:425] inception_4b/output <- inception_4b/5x5
I0403 14:24:31.222954  1250 net.cpp:425] inception_4b/output <- inception_4b/pool_proj
I0403 14:24:31.222971  1250 net.cpp:399] inception_4b/output -> inception_4b/output
I0403 14:24:31.223022  1250 net.cpp:141] Setting up inception_4b/output
I0403 14:24:31.223047  1250 net.cpp:148] Top shape: 24 512 14 14 (2408448)
I0403 14:24:31.223060  1250 net.cpp:156] Memory required for data: 989857056
I0403 14:24:31.223090  1250 layer_factory.hpp:77] Creating layer inception_4b/output_inception_4b/output_0_split
I0403 14:24:31.223109  1250 net.cpp:91] Creating Layer inception_4b/output_inception_4b/output_0_split
I0403 14:24:31.223125  1250 net.cpp:425] inception_4b/output_inception_4b/output_0_split <- inception_4b/output
I0403 14:24:31.223145  1250 net.cpp:399] inception_4b/output_inception_4b/output_0_split -> inception_4b/output_inception_4b/output_0_split_0
I0403 14:24:31.223166  1250 net.cpp:399] inception_4b/output_inception_4b/output_0_split -> inception_4b/output_inception_4b/output_0_split_1
I0403 14:24:31.223187  1250 net.cpp:399] inception_4b/output_inception_4b/output_0_split -> inception_4b/output_inception_4b/output_0_split_2
I0403 14:24:31.223214  1250 net.cpp:399] inception_4b/output_inception_4b/output_0_split -> inception_4b/output_inception_4b/output_0_split_3
I0403 14:24:31.223304  1250 net.cpp:141] Setting up inception_4b/output_inception_4b/output_0_split
I0403 14:24:31.223327  1250 net.cpp:148] Top shape: 24 512 14 14 (2408448)
I0403 14:24:31.223343  1250 net.cpp:148] Top shape: 24 512 14 14 (2408448)
I0403 14:24:31.223359  1250 net.cpp:148] Top shape: 24 512 14 14 (2408448)
I0403 14:24:31.223374  1250 net.cpp:148] Top shape: 24 512 14 14 (2408448)
I0403 14:24:31.223388  1250 net.cpp:156] Memory required for data: 1028392224
I0403 14:24:31.223403  1250 layer_factory.hpp:77] Creating layer inception_4c/1x1
I0403 14:24:31.223426  1250 net.cpp:91] Creating Layer inception_4c/1x1
I0403 14:24:31.223445  1250 net.cpp:425] inception_4c/1x1 <- inception_4b/output_inception_4b/output_0_split_0
I0403 14:24:31.223466  1250 net.cpp:399] inception_4c/1x1 -> inception_4c/1x1
I0403 14:24:31.224942  1250 net.cpp:141] Setting up inception_4c/1x1
I0403 14:24:31.224974  1250 net.cpp:148] Top shape: 24 128 14 14 (602112)
I0403 14:24:31.224990  1250 net.cpp:156] Memory required for data: 1030800672
I0403 14:24:31.225010  1250 layer_factory.hpp:77] Creating layer inception_4c/relu_1x1
I0403 14:24:31.225028  1250 net.cpp:91] Creating Layer inception_4c/relu_1x1
I0403 14:24:31.225044  1250 net.cpp:425] inception_4c/relu_1x1 <- inception_4c/1x1
I0403 14:24:31.225064  1250 net.cpp:386] inception_4c/relu_1x1 -> inception_4c/1x1 (in-place)
I0403 14:24:31.225255  1250 net.cpp:141] Setting up inception_4c/relu_1x1
I0403 14:24:31.225281  1250 net.cpp:148] Top shape: 24 128 14 14 (602112)
I0403 14:24:31.225296  1250 net.cpp:156] Memory required for data: 1033209120
I0403 14:24:31.225311  1250 layer_factory.hpp:77] Creating layer inception_4c/3x3_reduce
I0403 14:24:31.225332  1250 net.cpp:91] Creating Layer inception_4c/3x3_reduce
I0403 14:24:31.225350  1250 net.cpp:425] inception_4c/3x3_reduce <- inception_4b/output_inception_4b/output_0_split_1
I0403 14:24:31.225373  1250 net.cpp:399] inception_4c/3x3_reduce -> inception_4c/3x3_reduce
I0403 14:24:31.227358  1250 net.cpp:141] Setting up inception_4c/3x3_reduce
I0403 14:24:31.227387  1250 net.cpp:148] Top shape: 24 128 14 14 (602112)
I0403 14:24:31.227403  1250 net.cpp:156] Memory required for data: 1035617568
I0403 14:24:31.227422  1250 layer_factory.hpp:77] Creating layer inception_4c/relu_3x3_reduce
I0403 14:24:31.227444  1250 net.cpp:91] Creating Layer inception_4c/relu_3x3_reduce
I0403 14:24:31.227461  1250 net.cpp:425] inception_4c/relu_3x3_reduce <- inception_4c/3x3_reduce
I0403 14:24:31.227479  1250 net.cpp:386] inception_4c/relu_3x3_reduce -> inception_4c/3x3_reduce (in-place)
I0403 14:24:31.227772  1250 net.cpp:141] Setting up inception_4c/relu_3x3_reduce
I0403 14:24:31.227799  1250 net.cpp:148] Top shape: 24 128 14 14 (602112)
I0403 14:24:31.227813  1250 net.cpp:156] Memory required for data: 1038026016
I0403 14:24:31.227829  1250 layer_factory.hpp:77] Creating layer inception_4c/3x3
I0403 14:24:31.227852  1250 net.cpp:91] Creating Layer inception_4c/3x3
I0403 14:24:31.227870  1250 net.cpp:425] inception_4c/3x3 <- inception_4c/3x3_reduce
I0403 14:24:31.227892  1250 net.cpp:399] inception_4c/3x3 -> inception_4c/3x3
I0403 14:24:31.231605  1250 net.cpp:141] Setting up inception_4c/3x3
I0403 14:24:31.231649  1250 net.cpp:148] Top shape: 24 256 14 14 (1204224)
I0403 14:24:31.231667  1250 net.cpp:156] Memory required for data: 1042842912
I0403 14:24:31.231699  1250 layer_factory.hpp:77] Creating layer inception_4c/relu_3x3
I0403 14:24:31.231722  1250 net.cpp:91] Creating Layer inception_4c/relu_3x3
I0403 14:24:31.231739  1250 net.cpp:425] inception_4c/relu_3x3 <- inception_4c/3x3
I0403 14:24:31.231757  1250 net.cpp:386] inception_4c/relu_3x3 -> inception_4c/3x3 (in-place)
I0403 14:24:31.231943  1250 net.cpp:141] Setting up inception_4c/relu_3x3
I0403 14:24:31.231969  1250 net.cpp:148] Top shape: 24 256 14 14 (1204224)
I0403 14:24:31.231984  1250 net.cpp:156] Memory required for data: 1047659808
I0403 14:24:31.231998  1250 layer_factory.hpp:77] Creating layer inception_4c/5x5_reduce
I0403 14:24:31.232036  1250 net.cpp:91] Creating Layer inception_4c/5x5_reduce
I0403 14:24:31.232056  1250 net.cpp:425] inception_4c/5x5_reduce <- inception_4b/output_inception_4b/output_0_split_2
I0403 14:24:31.232080  1250 net.cpp:399] inception_4c/5x5_reduce -> inception_4c/5x5_reduce
I0403 14:24:31.233235  1250 net.cpp:141] Setting up inception_4c/5x5_reduce
I0403 14:24:31.233265  1250 net.cpp:148] Top shape: 24 24 14 14 (112896)
I0403 14:24:31.233280  1250 net.cpp:156] Memory required for data: 1048111392
I0403 14:24:31.233299  1250 layer_factory.hpp:77] Creating layer inception_4c/relu_5x5_reduce
I0403 14:24:31.233320  1250 net.cpp:91] Creating Layer inception_4c/relu_5x5_reduce
I0403 14:24:31.233337  1250 net.cpp:425] inception_4c/relu_5x5_reduce <- inception_4c/5x5_reduce
I0403 14:24:31.233355  1250 net.cpp:386] inception_4c/relu_5x5_reduce -> inception_4c/5x5_reduce (in-place)
I0403 14:24:31.233544  1250 net.cpp:141] Setting up inception_4c/relu_5x5_reduce
I0403 14:24:31.233572  1250 net.cpp:148] Top shape: 24 24 14 14 (112896)
I0403 14:24:31.233587  1250 net.cpp:156] Memory required for data: 1048562976
I0403 14:24:31.233602  1250 layer_factory.hpp:77] Creating layer inception_4c/5x5
I0403 14:24:31.233623  1250 net.cpp:91] Creating Layer inception_4c/5x5
I0403 14:24:31.233641  1250 net.cpp:425] inception_4c/5x5 <- inception_4c/5x5_reduce
I0403 14:24:31.233661  1250 net.cpp:399] inception_4c/5x5 -> inception_4c/5x5
I0403 14:24:31.234975  1250 net.cpp:141] Setting up inception_4c/5x5
I0403 14:24:31.235005  1250 net.cpp:148] Top shape: 24 64 14 14 (301056)
I0403 14:24:31.235021  1250 net.cpp:156] Memory required for data: 1049767200
I0403 14:24:31.235039  1250 layer_factory.hpp:77] Creating layer inception_4c/relu_5x5
I0403 14:24:31.235057  1250 net.cpp:91] Creating Layer inception_4c/relu_5x5
I0403 14:24:31.235074  1250 net.cpp:425] inception_4c/relu_5x5 <- inception_4c/5x5
I0403 14:24:31.235095  1250 net.cpp:386] inception_4c/relu_5x5 -> inception_4c/5x5 (in-place)
I0403 14:24:31.235388  1250 net.cpp:141] Setting up inception_4c/relu_5x5
I0403 14:24:31.235415  1250 net.cpp:148] Top shape: 24 64 14 14 (301056)
I0403 14:24:31.235432  1250 net.cpp:156] Memory required for data: 1050971424
I0403 14:24:31.235447  1250 layer_factory.hpp:77] Creating layer inception_4c/pool
I0403 14:24:31.235466  1250 net.cpp:91] Creating Layer inception_4c/pool
I0403 14:24:31.235481  1250 net.cpp:425] inception_4c/pool <- inception_4b/output_inception_4b/output_0_split_3
I0403 14:24:31.235501  1250 net.cpp:399] inception_4c/pool -> inception_4c/pool
I0403 14:24:31.235565  1250 net.cpp:141] Setting up inception_4c/pool
I0403 14:24:31.235589  1250 net.cpp:148] Top shape: 24 512 14 14 (2408448)
I0403 14:24:31.235604  1250 net.cpp:156] Memory required for data: 1060605216
I0403 14:24:31.235617  1250 layer_factory.hpp:77] Creating layer inception_4c/pool_proj
I0403 14:24:31.235640  1250 net.cpp:91] Creating Layer inception_4c/pool_proj
I0403 14:24:31.235656  1250 net.cpp:425] inception_4c/pool_proj <- inception_4c/pool
I0403 14:24:31.235677  1250 net.cpp:399] inception_4c/pool_proj -> inception_4c/pool_proj
I0403 14:24:31.236891  1250 net.cpp:141] Setting up inception_4c/pool_proj
I0403 14:24:31.236918  1250 net.cpp:148] Top shape: 24 64 14 14 (301056)
I0403 14:24:31.236948  1250 net.cpp:156] Memory required for data: 1061809440
I0403 14:24:31.236966  1250 layer_factory.hpp:77] Creating layer inception_4c/relu_pool_proj
I0403 14:24:31.236987  1250 net.cpp:91] Creating Layer inception_4c/relu_pool_proj
I0403 14:24:31.237004  1250 net.cpp:425] inception_4c/relu_pool_proj <- inception_4c/pool_proj
I0403 14:24:31.237020  1250 net.cpp:386] inception_4c/relu_pool_proj -> inception_4c/pool_proj (in-place)
I0403 14:24:31.237205  1250 net.cpp:141] Setting up inception_4c/relu_pool_proj
I0403 14:24:31.237236  1250 net.cpp:148] Top shape: 24 64 14 14 (301056)
I0403 14:24:31.237253  1250 net.cpp:156] Memory required for data: 1063013664
I0403 14:24:31.237268  1250 layer_factory.hpp:77] Creating layer inception_4c/output
I0403 14:24:31.237287  1250 net.cpp:91] Creating Layer inception_4c/output
I0403 14:24:31.237303  1250 net.cpp:425] inception_4c/output <- inception_4c/1x1
I0403 14:24:31.237318  1250 net.cpp:425] inception_4c/output <- inception_4c/3x3
I0403 14:24:31.237334  1250 net.cpp:425] inception_4c/output <- inception_4c/5x5
I0403 14:24:31.237349  1250 net.cpp:425] inception_4c/output <- inception_4c/pool_proj
I0403 14:24:31.237365  1250 net.cpp:399] inception_4c/output -> inception_4c/output
I0403 14:24:31.237413  1250 net.cpp:141] Setting up inception_4c/output
I0403 14:24:31.237438  1250 net.cpp:148] Top shape: 24 512 14 14 (2408448)
I0403 14:24:31.237452  1250 net.cpp:156] Memory required for data: 1072647456
I0403 14:24:31.237467  1250 layer_factory.hpp:77] Creating layer inception_4c/output_inception_4c/output_0_split
I0403 14:24:31.237483  1250 net.cpp:91] Creating Layer inception_4c/output_inception_4c/output_0_split
I0403 14:24:31.237498  1250 net.cpp:425] inception_4c/output_inception_4c/output_0_split <- inception_4c/output
I0403 14:24:31.237517  1250 net.cpp:399] inception_4c/output_inception_4c/output_0_split -> inception_4c/output_inception_4c/output_0_split_0
I0403 14:24:31.237539  1250 net.cpp:399] inception_4c/output_inception_4c/output_0_split -> inception_4c/output_inception_4c/output_0_split_1
I0403 14:24:31.237558  1250 net.cpp:399] inception_4c/output_inception_4c/output_0_split -> inception_4c/output_inception_4c/output_0_split_2
I0403 14:24:31.237579  1250 net.cpp:399] inception_4c/output_inception_4c/output_0_split -> inception_4c/output_inception_4c/output_0_split_3
I0403 14:24:31.237668  1250 net.cpp:141] Setting up inception_4c/output_inception_4c/output_0_split
I0403 14:24:31.237690  1250 net.cpp:148] Top shape: 24 512 14 14 (2408448)
I0403 14:24:31.237705  1250 net.cpp:148] Top shape: 24 512 14 14 (2408448)
I0403 14:24:31.237720  1250 net.cpp:148] Top shape: 24 512 14 14 (2408448)
I0403 14:24:31.237735  1250 net.cpp:148] Top shape: 24 512 14 14 (2408448)
I0403 14:24:31.237749  1250 net.cpp:156] Memory required for data: 1111182624
I0403 14:24:31.237763  1250 layer_factory.hpp:77] Creating layer inception_4d/1x1
I0403 14:24:31.237787  1250 net.cpp:91] Creating Layer inception_4d/1x1
I0403 14:24:31.237804  1250 net.cpp:425] inception_4d/1x1 <- inception_4c/output_inception_4c/output_0_split_0
I0403 14:24:31.237825  1250 net.cpp:399] inception_4d/1x1 -> inception_4d/1x1
I0403 14:24:31.239205  1250 net.cpp:141] Setting up inception_4d/1x1
I0403 14:24:31.239236  1250 net.cpp:148] Top shape: 24 112 14 14 (526848)
I0403 14:24:31.239251  1250 net.cpp:156] Memory required for data: 1113290016
I0403 14:24:31.239270  1250 layer_factory.hpp:77] Creating layer inception_4d/relu_1x1
I0403 14:24:31.239287  1250 net.cpp:91] Creating Layer inception_4d/relu_1x1
I0403 14:24:31.239303  1250 net.cpp:425] inception_4d/relu_1x1 <- inception_4d/1x1
I0403 14:24:31.239322  1250 net.cpp:386] inception_4d/relu_1x1 -> inception_4d/1x1 (in-place)
I0403 14:24:31.239506  1250 net.cpp:141] Setting up inception_4d/relu_1x1
I0403 14:24:31.239531  1250 net.cpp:148] Top shape: 24 112 14 14 (526848)
I0403 14:24:31.239544  1250 net.cpp:156] Memory required for data: 1115397408
I0403 14:24:31.239559  1250 layer_factory.hpp:77] Creating layer inception_4d/3x3_reduce
I0403 14:24:31.239594  1250 net.cpp:91] Creating Layer inception_4d/3x3_reduce
I0403 14:24:31.239614  1250 net.cpp:425] inception_4d/3x3_reduce <- inception_4c/output_inception_4c/output_0_split_1
I0403 14:24:31.239634  1250 net.cpp:399] inception_4d/3x3_reduce -> inception_4d/3x3_reduce
I0403 14:24:31.241144  1250 net.cpp:141] Setting up inception_4d/3x3_reduce
I0403 14:24:31.241173  1250 net.cpp:148] Top shape: 24 144 14 14 (677376)
I0403 14:24:31.241189  1250 net.cpp:156] Memory required for data: 1118106912
I0403 14:24:31.241211  1250 layer_factory.hpp:77] Creating layer inception_4d/relu_3x3_reduce
I0403 14:24:31.241231  1250 net.cpp:91] Creating Layer inception_4d/relu_3x3_reduce
I0403 14:24:31.241247  1250 net.cpp:425] inception_4d/relu_3x3_reduce <- inception_4d/3x3_reduce
I0403 14:24:31.241264  1250 net.cpp:386] inception_4d/relu_3x3_reduce -> inception_4d/3x3_reduce (in-place)
I0403 14:24:31.241550  1250 net.cpp:141] Setting up inception_4d/relu_3x3_reduce
I0403 14:24:31.241578  1250 net.cpp:148] Top shape: 24 144 14 14 (677376)
I0403 14:24:31.241593  1250 net.cpp:156] Memory required for data: 1120816416
I0403 14:24:31.241608  1250 layer_factory.hpp:77] Creating layer inception_4d/3x3
I0403 14:24:31.241629  1250 net.cpp:91] Creating Layer inception_4d/3x3
I0403 14:24:31.241647  1250 net.cpp:425] inception_4d/3x3 <- inception_4d/3x3_reduce
I0403 14:24:31.241665  1250 net.cpp:399] inception_4d/3x3 -> inception_4d/3x3
I0403 14:24:31.245949  1250 net.cpp:141] Setting up inception_4d/3x3
I0403 14:24:31.245978  1250 net.cpp:148] Top shape: 24 288 14 14 (1354752)
I0403 14:24:31.245993  1250 net.cpp:156] Memory required for data: 1126235424
I0403 14:24:31.246011  1250 layer_factory.hpp:77] Creating layer inception_4d/relu_3x3
I0403 14:24:31.246029  1250 net.cpp:91] Creating Layer inception_4d/relu_3x3
I0403 14:24:31.246044  1250 net.cpp:425] inception_4d/relu_3x3 <- inception_4d/3x3
I0403 14:24:31.246064  1250 net.cpp:386] inception_4d/relu_3x3 -> inception_4d/3x3 (in-place)
I0403 14:24:31.246255  1250 net.cpp:141] Setting up inception_4d/relu_3x3
I0403 14:24:31.246280  1250 net.cpp:148] Top shape: 24 288 14 14 (1354752)
I0403 14:24:31.246294  1250 net.cpp:156] Memory required for data: 1131654432
I0403 14:24:31.246309  1250 layer_factory.hpp:77] Creating layer inception_4d/5x5_reduce
I0403 14:24:31.246331  1250 net.cpp:91] Creating Layer inception_4d/5x5_reduce
I0403 14:24:31.246348  1250 net.cpp:425] inception_4d/5x5_reduce <- inception_4c/output_inception_4c/output_0_split_2
I0403 14:24:31.246369  1250 net.cpp:399] inception_4d/5x5_reduce -> inception_4d/5x5_reduce
I0403 14:24:31.247524  1250 net.cpp:141] Setting up inception_4d/5x5_reduce
I0403 14:24:31.247551  1250 net.cpp:148] Top shape: 24 32 14 14 (150528)
I0403 14:24:31.247566  1250 net.cpp:156] Memory required for data: 1132256544
I0403 14:24:31.247584  1250 layer_factory.hpp:77] Creating layer inception_4d/relu_5x5_reduce
I0403 14:24:31.247604  1250 net.cpp:91] Creating Layer inception_4d/relu_5x5_reduce
I0403 14:24:31.247622  1250 net.cpp:425] inception_4d/relu_5x5_reduce <- inception_4d/5x5_reduce
I0403 14:24:31.247638  1250 net.cpp:386] inception_4d/relu_5x5_reduce -> inception_4d/5x5_reduce (in-place)
I0403 14:24:31.247825  1250 net.cpp:141] Setting up inception_4d/relu_5x5_reduce
I0403 14:24:31.247850  1250 net.cpp:148] Top shape: 24 32 14 14 (150528)
I0403 14:24:31.247864  1250 net.cpp:156] Memory required for data: 1132858656
I0403 14:24:31.247879  1250 layer_factory.hpp:77] Creating layer inception_4d/5x5
I0403 14:24:31.247900  1250 net.cpp:91] Creating Layer inception_4d/5x5
I0403 14:24:31.247917  1250 net.cpp:425] inception_4d/5x5 <- inception_4d/5x5_reduce
I0403 14:24:31.247941  1250 net.cpp:399] inception_4d/5x5 -> inception_4d/5x5
I0403 14:24:31.249426  1250 net.cpp:141] Setting up inception_4d/5x5
I0403 14:24:31.249454  1250 net.cpp:148] Top shape: 24 64 14 14 (301056)
I0403 14:24:31.249470  1250 net.cpp:156] Memory required for data: 1134062880
I0403 14:24:31.249488  1250 layer_factory.hpp:77] Creating layer inception_4d/relu_5x5
I0403 14:24:31.249523  1250 net.cpp:91] Creating Layer inception_4d/relu_5x5
I0403 14:24:31.249541  1250 net.cpp:425] inception_4d/relu_5x5 <- inception_4d/5x5
I0403 14:24:31.249558  1250 net.cpp:386] inception_4d/relu_5x5 -> inception_4d/5x5 (in-place)
I0403 14:24:31.249863  1250 net.cpp:141] Setting up inception_4d/relu_5x5
I0403 14:24:31.249889  1250 net.cpp:148] Top shape: 24 64 14 14 (301056)
I0403 14:24:31.249903  1250 net.cpp:156] Memory required for data: 1135267104
I0403 14:24:31.249918  1250 layer_factory.hpp:77] Creating layer inception_4d/pool
I0403 14:24:31.249939  1250 net.cpp:91] Creating Layer inception_4d/pool
I0403 14:24:31.249958  1250 net.cpp:425] inception_4d/pool <- inception_4c/output_inception_4c/output_0_split_3
I0403 14:24:31.249975  1250 net.cpp:399] inception_4d/pool -> inception_4d/pool
I0403 14:24:31.250043  1250 net.cpp:141] Setting up inception_4d/pool
I0403 14:24:31.250066  1250 net.cpp:148] Top shape: 24 512 14 14 (2408448)
I0403 14:24:31.250082  1250 net.cpp:156] Memory required for data: 1144900896
I0403 14:24:31.250095  1250 layer_factory.hpp:77] Creating layer inception_4d/pool_proj
I0403 14:24:31.250118  1250 net.cpp:91] Creating Layer inception_4d/pool_proj
I0403 14:24:31.250134  1250 net.cpp:425] inception_4d/pool_proj <- inception_4d/pool
I0403 14:24:31.250155  1250 net.cpp:399] inception_4d/pool_proj -> inception_4d/pool_proj
I0403 14:24:31.251921  1250 net.cpp:141] Setting up inception_4d/pool_proj
I0403 14:24:31.251950  1250 net.cpp:148] Top shape: 24 64 14 14 (301056)
I0403 14:24:31.251966  1250 net.cpp:156] Memory required for data: 1146105120
I0403 14:24:31.251984  1250 layer_factory.hpp:77] Creating layer inception_4d/relu_pool_proj
I0403 14:24:31.252002  1250 net.cpp:91] Creating Layer inception_4d/relu_pool_proj
I0403 14:24:31.252018  1250 net.cpp:425] inception_4d/relu_pool_proj <- inception_4d/pool_proj
I0403 14:24:31.252038  1250 net.cpp:386] inception_4d/relu_pool_proj -> inception_4d/pool_proj (in-place)
I0403 14:24:31.252226  1250 net.cpp:141] Setting up inception_4d/relu_pool_proj
I0403 14:24:31.252251  1250 net.cpp:148] Top shape: 24 64 14 14 (301056)
I0403 14:24:31.252266  1250 net.cpp:156] Memory required for data: 1147309344
I0403 14:24:31.252281  1250 layer_factory.hpp:77] Creating layer inception_4d/output
I0403 14:24:31.252300  1250 net.cpp:91] Creating Layer inception_4d/output
I0403 14:24:31.252317  1250 net.cpp:425] inception_4d/output <- inception_4d/1x1
I0403 14:24:31.252334  1250 net.cpp:425] inception_4d/output <- inception_4d/3x3
I0403 14:24:31.252351  1250 net.cpp:425] inception_4d/output <- inception_4d/5x5
I0403 14:24:31.252367  1250 net.cpp:425] inception_4d/output <- inception_4d/pool_proj
I0403 14:24:31.252384  1250 net.cpp:399] inception_4d/output -> inception_4d/output
I0403 14:24:31.252434  1250 net.cpp:141] Setting up inception_4d/output
I0403 14:24:31.252457  1250 net.cpp:148] Top shape: 24 528 14 14 (2483712)
I0403 14:24:31.252472  1250 net.cpp:156] Memory required for data: 1157244192
I0403 14:24:31.252486  1250 layer_factory.hpp:77] Creating layer inception_4d/output_inception_4d/output_0_split
I0403 14:24:31.252504  1250 net.cpp:91] Creating Layer inception_4d/output_inception_4d/output_0_split
I0403 14:24:31.252519  1250 net.cpp:425] inception_4d/output_inception_4d/output_0_split <- inception_4d/output
I0403 14:24:31.252538  1250 net.cpp:399] inception_4d/output_inception_4d/output_0_split -> inception_4d/output_inception_4d/output_0_split_0
I0403 14:24:31.252559  1250 net.cpp:399] inception_4d/output_inception_4d/output_0_split -> inception_4d/output_inception_4d/output_0_split_1
I0403 14:24:31.252579  1250 net.cpp:399] inception_4d/output_inception_4d/output_0_split -> inception_4d/output_inception_4d/output_0_split_2
I0403 14:24:31.252600  1250 net.cpp:399] inception_4d/output_inception_4d/output_0_split -> inception_4d/output_inception_4d/output_0_split_3
I0403 14:24:31.252620  1250 net.cpp:399] inception_4d/output_inception_4d/output_0_split -> inception_4d/output_inception_4d/output_0_split_4
I0403 14:24:31.252723  1250 net.cpp:141] Setting up inception_4d/output_inception_4d/output_0_split
I0403 14:24:31.252758  1250 net.cpp:148] Top shape: 24 528 14 14 (2483712)
I0403 14:24:31.252777  1250 net.cpp:148] Top shape: 24 528 14 14 (2483712)
I0403 14:24:31.252794  1250 net.cpp:148] Top shape: 24 528 14 14 (2483712)
I0403 14:24:31.252810  1250 net.cpp:148] Top shape: 24 528 14 14 (2483712)
I0403 14:24:31.252825  1250 net.cpp:148] Top shape: 24 528 14 14 (2483712)
I0403 14:24:31.252838  1250 net.cpp:156] Memory required for data: 1206918432
I0403 14:24:31.252852  1250 layer_factory.hpp:77] Creating layer loss2/ave_pool
I0403 14:24:31.252871  1250 net.cpp:91] Creating Layer loss2/ave_pool
I0403 14:24:31.252885  1250 net.cpp:425] loss2/ave_pool <- inception_4d/output_inception_4d/output_0_split_0
I0403 14:24:31.252908  1250 net.cpp:399] loss2/ave_pool -> loss2/ave_pool
I0403 14:24:31.253247  1250 net.cpp:141] Setting up loss2/ave_pool
I0403 14:24:31.253274  1250 net.cpp:148] Top shape: 24 528 4 4 (202752)
I0403 14:24:31.253303  1250 net.cpp:156] Memory required for data: 1207729440
I0403 14:24:31.253319  1250 layer_factory.hpp:77] Creating layer loss2/conv
I0403 14:24:31.253341  1250 net.cpp:91] Creating Layer loss2/conv
I0403 14:24:31.253360  1250 net.cpp:425] loss2/conv <- loss2/ave_pool
I0403 14:24:31.253383  1250 net.cpp:399] loss2/conv -> loss2/conv
I0403 14:24:31.255337  1250 net.cpp:141] Setting up loss2/conv
I0403 14:24:31.255367  1250 net.cpp:148] Top shape: 24 128 4 4 (49152)
I0403 14:24:31.255386  1250 net.cpp:156] Memory required for data: 1207926048
I0403 14:24:31.255405  1250 layer_factory.hpp:77] Creating layer loss2/relu_conv
I0403 14:24:31.255424  1250 net.cpp:91] Creating Layer loss2/relu_conv
I0403 14:24:31.255441  1250 net.cpp:425] loss2/relu_conv <- loss2/conv
I0403 14:24:31.255460  1250 net.cpp:386] loss2/relu_conv -> loss2/conv (in-place)
I0403 14:24:31.255750  1250 net.cpp:141] Setting up loss2/relu_conv
I0403 14:24:31.255779  1250 net.cpp:148] Top shape: 24 128 4 4 (49152)
I0403 14:24:31.255795  1250 net.cpp:156] Memory required for data: 1208122656
I0403 14:24:31.255811  1250 layer_factory.hpp:77] Creating layer loss2/fc
I0403 14:24:31.255831  1250 net.cpp:91] Creating Layer loss2/fc
I0403 14:24:31.255847  1250 net.cpp:425] loss2/fc <- loss2/conv
I0403 14:24:31.255868  1250 net.cpp:399] loss2/fc -> loss2/fc
I0403 14:24:31.274176  1250 net.cpp:141] Setting up loss2/fc
I0403 14:24:31.274245  1250 net.cpp:148] Top shape: 24 1024 (24576)
I0403 14:24:31.274261  1250 net.cpp:156] Memory required for data: 1208220960
I0403 14:24:31.274282  1250 layer_factory.hpp:77] Creating layer loss2/relu_fc
I0403 14:24:31.274305  1250 net.cpp:91] Creating Layer loss2/relu_fc
I0403 14:24:31.274325  1250 net.cpp:425] loss2/relu_fc <- loss2/fc
I0403 14:24:31.274343  1250 net.cpp:386] loss2/relu_fc -> loss2/fc (in-place)
I0403 14:24:31.274699  1250 net.cpp:141] Setting up loss2/relu_fc
I0403 14:24:31.274726  1250 net.cpp:148] Top shape: 24 1024 (24576)
I0403 14:24:31.274742  1250 net.cpp:156] Memory required for data: 1208319264
I0403 14:24:31.274757  1250 layer_factory.hpp:77] Creating layer loss2/drop_fc
I0403 14:24:31.274780  1250 net.cpp:91] Creating Layer loss2/drop_fc
I0403 14:24:31.274796  1250 net.cpp:425] loss2/drop_fc <- loss2/fc
I0403 14:24:31.274814  1250 net.cpp:386] loss2/drop_fc -> loss2/fc (in-place)
I0403 14:24:31.274864  1250 net.cpp:141] Setting up loss2/drop_fc
I0403 14:24:31.274890  1250 net.cpp:148] Top shape: 24 1024 (24576)
I0403 14:24:31.274905  1250 net.cpp:156] Memory required for data: 1208417568
I0403 14:24:31.274920  1250 layer_factory.hpp:77] Creating layer loss2/classifier_plantvillage
I0403 14:24:31.274940  1250 net.cpp:91] Creating Layer loss2/classifier_plantvillage
I0403 14:24:31.274956  1250 net.cpp:425] loss2/classifier_plantvillage <- loss2/fc
I0403 14:24:31.274977  1250 net.cpp:399] loss2/classifier_plantvillage -> loss2/classifier_plantvillage
I0403 14:24:31.275403  1250 net.cpp:141] Setting up loss2/classifier_plantvillage
I0403 14:24:31.275431  1250 net.cpp:148] Top shape: 24 38 (912)
I0403 14:24:31.275465  1250 net.cpp:156] Memory required for data: 1208421216
I0403 14:24:31.275485  1250 layer_factory.hpp:77] Creating layer loss2/classifier_plantvillage_loss2/classifier_plantvillage_0_split
I0403 14:24:31.275503  1250 net.cpp:91] Creating Layer loss2/classifier_plantvillage_loss2/classifier_plantvillage_0_split
I0403 14:24:31.275519  1250 net.cpp:425] loss2/classifier_plantvillage_loss2/classifier_plantvillage_0_split <- loss2/classifier_plantvillage
I0403 14:24:31.275537  1250 net.cpp:399] loss2/classifier_plantvillage_loss2/classifier_plantvillage_0_split -> loss2/classifier_plantvillage_loss2/classifier_plantvillage_0_split_0
I0403 14:24:31.275562  1250 net.cpp:399] loss2/classifier_plantvillage_loss2/classifier_plantvillage_0_split -> loss2/classifier_plantvillage_loss2/classifier_plantvillage_0_split_1
I0403 14:24:31.275583  1250 net.cpp:399] loss2/classifier_plantvillage_loss2/classifier_plantvillage_0_split -> loss2/classifier_plantvillage_loss2/classifier_plantvillage_0_split_2
I0403 14:24:31.275662  1250 net.cpp:141] Setting up loss2/classifier_plantvillage_loss2/classifier_plantvillage_0_split
I0403 14:24:31.275686  1250 net.cpp:148] Top shape: 24 38 (912)
I0403 14:24:31.275703  1250 net.cpp:148] Top shape: 24 38 (912)
I0403 14:24:31.275718  1250 net.cpp:148] Top shape: 24 38 (912)
I0403 14:24:31.275732  1250 net.cpp:156] Memory required for data: 1208432160
I0403 14:24:31.275746  1250 layer_factory.hpp:77] Creating layer inception_4e/1x1
I0403 14:24:31.275770  1250 net.cpp:91] Creating Layer inception_4e/1x1
I0403 14:24:31.275789  1250 net.cpp:425] inception_4e/1x1 <- inception_4d/output_inception_4d/output_0_split_1
I0403 14:24:31.275810  1250 net.cpp:399] inception_4e/1x1 -> inception_4e/1x1
I0403 14:24:31.277729  1250 net.cpp:141] Setting up inception_4e/1x1
I0403 14:24:31.277756  1250 net.cpp:148] Top shape: 24 256 14 14 (1204224)
I0403 14:24:31.277772  1250 net.cpp:156] Memory required for data: 1213249056
I0403 14:24:31.277791  1250 layer_factory.hpp:77] Creating layer inception_4e/relu_1x1
I0403 14:24:31.277812  1250 net.cpp:91] Creating Layer inception_4e/relu_1x1
I0403 14:24:31.277828  1250 net.cpp:425] inception_4e/relu_1x1 <- inception_4e/1x1
I0403 14:24:31.277845  1250 net.cpp:386] inception_4e/relu_1x1 -> inception_4e/1x1 (in-place)
I0403 14:24:31.278151  1250 net.cpp:141] Setting up inception_4e/relu_1x1
I0403 14:24:31.278178  1250 net.cpp:148] Top shape: 24 256 14 14 (1204224)
I0403 14:24:31.278192  1250 net.cpp:156] Memory required for data: 1218065952
I0403 14:24:31.278211  1250 layer_factory.hpp:77] Creating layer inception_4e/3x3_reduce
I0403 14:24:31.278237  1250 net.cpp:91] Creating Layer inception_4e/3x3_reduce
I0403 14:24:31.278255  1250 net.cpp:425] inception_4e/3x3_reduce <- inception_4d/output_inception_4d/output_0_split_2
I0403 14:24:31.278275  1250 net.cpp:399] inception_4e/3x3_reduce -> inception_4e/3x3_reduce
I0403 14:24:31.280477  1250 net.cpp:141] Setting up inception_4e/3x3_reduce
I0403 14:24:31.280506  1250 net.cpp:148] Top shape: 24 160 14 14 (752640)
I0403 14:24:31.280522  1250 net.cpp:156] Memory required for data: 1221076512
I0403 14:24:31.280540  1250 layer_factory.hpp:77] Creating layer inception_4e/relu_3x3_reduce
I0403 14:24:31.280561  1250 net.cpp:91] Creating Layer inception_4e/relu_3x3_reduce
I0403 14:24:31.280580  1250 net.cpp:425] inception_4e/relu_3x3_reduce <- inception_4e/3x3_reduce
I0403 14:24:31.280597  1250 net.cpp:386] inception_4e/relu_3x3_reduce -> inception_4e/3x3_reduce (in-place)
I0403 14:24:31.280788  1250 net.cpp:141] Setting up inception_4e/relu_3x3_reduce
I0403 14:24:31.280817  1250 net.cpp:148] Top shape: 24 160 14 14 (752640)
I0403 14:24:31.280833  1250 net.cpp:156] Memory required for data: 1224087072
I0403 14:24:31.280848  1250 layer_factory.hpp:77] Creating layer inception_4e/3x3
I0403 14:24:31.280870  1250 net.cpp:91] Creating Layer inception_4e/3x3
I0403 14:24:31.280889  1250 net.cpp:425] inception_4e/3x3 <- inception_4e/3x3_reduce
I0403 14:24:31.280907  1250 net.cpp:399] inception_4e/3x3 -> inception_4e/3x3
I0403 14:24:31.286056  1250 net.cpp:141] Setting up inception_4e/3x3
I0403 14:24:31.286100  1250 net.cpp:148] Top shape: 24 320 14 14 (1505280)
I0403 14:24:31.286118  1250 net.cpp:156] Memory required for data: 1230108192
I0403 14:24:31.286139  1250 layer_factory.hpp:77] Creating layer inception_4e/relu_3x3
I0403 14:24:31.286156  1250 net.cpp:91] Creating Layer inception_4e/relu_3x3
I0403 14:24:31.286172  1250 net.cpp:425] inception_4e/relu_3x3 <- inception_4e/3x3
I0403 14:24:31.286192  1250 net.cpp:386] inception_4e/relu_3x3 -> inception_4e/3x3 (in-place)
I0403 14:24:31.286504  1250 net.cpp:141] Setting up inception_4e/relu_3x3
I0403 14:24:31.286531  1250 net.cpp:148] Top shape: 24 320 14 14 (1505280)
I0403 14:24:31.286546  1250 net.cpp:156] Memory required for data: 1236129312
I0403 14:24:31.286561  1250 layer_factory.hpp:77] Creating layer inception_4e/5x5_reduce
I0403 14:24:31.286586  1250 net.cpp:91] Creating Layer inception_4e/5x5_reduce
I0403 14:24:31.286603  1250 net.cpp:425] inception_4e/5x5_reduce <- inception_4d/output_inception_4d/output_0_split_3
I0403 14:24:31.286625  1250 net.cpp:399] inception_4e/5x5_reduce -> inception_4e/5x5_reduce
I0403 14:24:31.287734  1250 net.cpp:141] Setting up inception_4e/5x5_reduce
I0403 14:24:31.287762  1250 net.cpp:148] Top shape: 24 32 14 14 (150528)
I0403 14:24:31.287778  1250 net.cpp:156] Memory required for data: 1236731424
I0403 14:24:31.287797  1250 layer_factory.hpp:77] Creating layer inception_4e/relu_5x5_reduce
I0403 14:24:31.287820  1250 net.cpp:91] Creating Layer inception_4e/relu_5x5_reduce
I0403 14:24:31.287837  1250 net.cpp:425] inception_4e/relu_5x5_reduce <- inception_4e/5x5_reduce
I0403 14:24:31.287855  1250 net.cpp:386] inception_4e/relu_5x5_reduce -> inception_4e/5x5_reduce (in-place)
I0403 14:24:31.288162  1250 net.cpp:141] Setting up inception_4e/relu_5x5_reduce
I0403 14:24:31.288189  1250 net.cpp:148] Top shape: 24 32 14 14 (150528)
I0403 14:24:31.288205  1250 net.cpp:156] Memory required for data: 1237333536
I0403 14:24:31.288225  1250 layer_factory.hpp:77] Creating layer inception_4e/5x5
I0403 14:24:31.288266  1250 net.cpp:91] Creating Layer inception_4e/5x5
I0403 14:24:31.288286  1250 net.cpp:425] inception_4e/5x5 <- inception_4e/5x5_reduce
I0403 14:24:31.288306  1250 net.cpp:399] inception_4e/5x5 -> inception_4e/5x5
I0403 14:24:31.290217  1250 net.cpp:141] Setting up inception_4e/5x5
I0403 14:24:31.290246  1250 net.cpp:148] Top shape: 24 128 14 14 (602112)
I0403 14:24:31.290262  1250 net.cpp:156] Memory required for data: 1239741984
I0403 14:24:31.290282  1250 layer_factory.hpp:77] Creating layer inception_4e/relu_5x5
I0403 14:24:31.290303  1250 net.cpp:91] Creating Layer inception_4e/relu_5x5
I0403 14:24:31.290319  1250 net.cpp:425] inception_4e/relu_5x5 <- inception_4e/5x5
I0403 14:24:31.290338  1250 net.cpp:386] inception_4e/relu_5x5 -> inception_4e/5x5 (in-place)
I0403 14:24:31.290539  1250 net.cpp:141] Setting up inception_4e/relu_5x5
I0403 14:24:31.290565  1250 net.cpp:148] Top shape: 24 128 14 14 (602112)
I0403 14:24:31.290581  1250 net.cpp:156] Memory required for data: 1242150432
I0403 14:24:31.290596  1250 layer_factory.hpp:77] Creating layer inception_4e/pool
I0403 14:24:31.290616  1250 net.cpp:91] Creating Layer inception_4e/pool
I0403 14:24:31.290632  1250 net.cpp:425] inception_4e/pool <- inception_4d/output_inception_4d/output_0_split_4
I0403 14:24:31.290650  1250 net.cpp:399] inception_4e/pool -> inception_4e/pool
I0403 14:24:31.290724  1250 net.cpp:141] Setting up inception_4e/pool
I0403 14:24:31.290750  1250 net.cpp:148] Top shape: 24 528 14 14 (2483712)
I0403 14:24:31.290763  1250 net.cpp:156] Memory required for data: 1252085280
I0403 14:24:31.290778  1250 layer_factory.hpp:77] Creating layer inception_4e/pool_proj
I0403 14:24:31.290801  1250 net.cpp:91] Creating Layer inception_4e/pool_proj
I0403 14:24:31.290818  1250 net.cpp:425] inception_4e/pool_proj <- inception_4e/pool
I0403 14:24:31.290839  1250 net.cpp:399] inception_4e/pool_proj -> inception_4e/pool_proj
I0403 14:24:31.292400  1250 net.cpp:141] Setting up inception_4e/pool_proj
I0403 14:24:31.292444  1250 net.cpp:148] Top shape: 24 128 14 14 (602112)
I0403 14:24:31.292460  1250 net.cpp:156] Memory required for data: 1254493728
I0403 14:24:31.292479  1250 layer_factory.hpp:77] Creating layer inception_4e/relu_pool_proj
I0403 14:24:31.292497  1250 net.cpp:91] Creating Layer inception_4e/relu_pool_proj
I0403 14:24:31.292515  1250 net.cpp:425] inception_4e/relu_pool_proj <- inception_4e/pool_proj
I0403 14:24:31.292534  1250 net.cpp:386] inception_4e/relu_pool_proj -> inception_4e/pool_proj (in-place)
I0403 14:24:31.292840  1250 net.cpp:141] Setting up inception_4e/relu_pool_proj
I0403 14:24:31.292867  1250 net.cpp:148] Top shape: 24 128 14 14 (602112)
I0403 14:24:31.292883  1250 net.cpp:156] Memory required for data: 1256902176
I0403 14:24:31.292897  1250 layer_factory.hpp:77] Creating layer inception_4e/output
I0403 14:24:31.292915  1250 net.cpp:91] Creating Layer inception_4e/output
I0403 14:24:31.292930  1250 net.cpp:425] inception_4e/output <- inception_4e/1x1
I0403 14:24:31.292948  1250 net.cpp:425] inception_4e/output <- inception_4e/3x3
I0403 14:24:31.292963  1250 net.cpp:425] inception_4e/output <- inception_4e/5x5
I0403 14:24:31.292979  1250 net.cpp:425] inception_4e/output <- inception_4e/pool_proj
I0403 14:24:31.292999  1250 net.cpp:399] inception_4e/output -> inception_4e/output
I0403 14:24:31.293051  1250 net.cpp:141] Setting up inception_4e/output
I0403 14:24:31.293077  1250 net.cpp:148] Top shape: 24 832 14 14 (3913728)
I0403 14:24:31.293093  1250 net.cpp:156] Memory required for data: 1272557088
I0403 14:24:31.293108  1250 layer_factory.hpp:77] Creating layer pool4/3x3_s2
I0403 14:24:31.293126  1250 net.cpp:91] Creating Layer pool4/3x3_s2
I0403 14:24:31.293143  1250 net.cpp:425] pool4/3x3_s2 <- inception_4e/output
I0403 14:24:31.293162  1250 net.cpp:399] pool4/3x3_s2 -> pool4/3x3_s2
I0403 14:24:31.293246  1250 net.cpp:141] Setting up pool4/3x3_s2
I0403 14:24:31.293270  1250 net.cpp:148] Top shape: 24 832 7 7 (978432)
I0403 14:24:31.293285  1250 net.cpp:156] Memory required for data: 1276470816
I0403 14:24:31.293300  1250 layer_factory.hpp:77] Creating layer pool4/3x3_s2_pool4/3x3_s2_0_split
I0403 14:24:31.293320  1250 net.cpp:91] Creating Layer pool4/3x3_s2_pool4/3x3_s2_0_split
I0403 14:24:31.293337  1250 net.cpp:425] pool4/3x3_s2_pool4/3x3_s2_0_split <- pool4/3x3_s2
I0403 14:24:31.293355  1250 net.cpp:399] pool4/3x3_s2_pool4/3x3_s2_0_split -> pool4/3x3_s2_pool4/3x3_s2_0_split_0
I0403 14:24:31.293375  1250 net.cpp:399] pool4/3x3_s2_pool4/3x3_s2_0_split -> pool4/3x3_s2_pool4/3x3_s2_0_split_1
I0403 14:24:31.293401  1250 net.cpp:399] pool4/3x3_s2_pool4/3x3_s2_0_split -> pool4/3x3_s2_pool4/3x3_s2_0_split_2
I0403 14:24:31.293422  1250 net.cpp:399] pool4/3x3_s2_pool4/3x3_s2_0_split -> pool4/3x3_s2_pool4/3x3_s2_0_split_3
I0403 14:24:31.293516  1250 net.cpp:141] Setting up pool4/3x3_s2_pool4/3x3_s2_0_split
I0403 14:24:31.293540  1250 net.cpp:148] Top shape: 24 832 7 7 (978432)
I0403 14:24:31.293556  1250 net.cpp:148] Top shape: 24 832 7 7 (978432)
I0403 14:24:31.293572  1250 net.cpp:148] Top shape: 24 832 7 7 (978432)
I0403 14:24:31.293588  1250 net.cpp:148] Top shape: 24 832 7 7 (978432)
I0403 14:24:31.293603  1250 net.cpp:156] Memory required for data: 1292125728
I0403 14:24:31.293618  1250 layer_factory.hpp:77] Creating layer inception_5a/1x1
I0403 14:24:31.293640  1250 net.cpp:91] Creating Layer inception_5a/1x1
I0403 14:24:31.293658  1250 net.cpp:425] inception_5a/1x1 <- pool4/3x3_s2_pool4/3x3_s2_0_split_0
I0403 14:24:31.293680  1250 net.cpp:399] inception_5a/1x1 -> inception_5a/1x1
I0403 14:24:31.296630  1250 net.cpp:141] Setting up inception_5a/1x1
I0403 14:24:31.296660  1250 net.cpp:148] Top shape: 24 256 7 7 (301056)
I0403 14:24:31.296676  1250 net.cpp:156] Memory required for data: 1293329952
I0403 14:24:31.296695  1250 layer_factory.hpp:77] Creating layer inception_5a/relu_1x1
I0403 14:24:31.296716  1250 net.cpp:91] Creating Layer inception_5a/relu_1x1
I0403 14:24:31.296733  1250 net.cpp:425] inception_5a/relu_1x1 <- inception_5a/1x1
I0403 14:24:31.296752  1250 net.cpp:386] inception_5a/relu_1x1 -> inception_5a/1x1 (in-place)
I0403 14:24:31.297075  1250 net.cpp:141] Setting up inception_5a/relu_1x1
I0403 14:24:31.297101  1250 net.cpp:148] Top shape: 24 256 7 7 (301056)
I0403 14:24:31.297116  1250 net.cpp:156] Memory required for data: 1294534176
I0403 14:24:31.297132  1250 layer_factory.hpp:77] Creating layer inception_5a/3x3_reduce
I0403 14:24:31.297153  1250 net.cpp:91] Creating Layer inception_5a/3x3_reduce
I0403 14:24:31.297173  1250 net.cpp:425] inception_5a/3x3_reduce <- pool4/3x3_s2_pool4/3x3_s2_0_split_1
I0403 14:24:31.297194  1250 net.cpp:399] inception_5a/3x3_reduce -> inception_5a/3x3_reduce
I0403 14:24:31.299731  1250 net.cpp:141] Setting up inception_5a/3x3_reduce
I0403 14:24:31.299762  1250 net.cpp:148] Top shape: 24 160 7 7 (188160)
I0403 14:24:31.299777  1250 net.cpp:156] Memory required for data: 1295286816
I0403 14:24:31.299796  1250 layer_factory.hpp:77] Creating layer inception_5a/relu_3x3_reduce
I0403 14:24:31.299814  1250 net.cpp:91] Creating Layer inception_5a/relu_3x3_reduce
I0403 14:24:31.299831  1250 net.cpp:425] inception_5a/relu_3x3_reduce <- inception_5a/3x3_reduce
I0403 14:24:31.299851  1250 net.cpp:386] inception_5a/relu_3x3_reduce -> inception_5a/3x3_reduce (in-place)
I0403 14:24:31.300045  1250 net.cpp:141] Setting up inception_5a/relu_3x3_reduce
I0403 14:24:31.300070  1250 net.cpp:148] Top shape: 24 160 7 7 (188160)
I0403 14:24:31.300084  1250 net.cpp:156] Memory required for data: 1296039456
I0403 14:24:31.300099  1250 layer_factory.hpp:77] Creating layer inception_5a/3x3
I0403 14:24:31.300122  1250 net.cpp:91] Creating Layer inception_5a/3x3
I0403 14:24:31.300139  1250 net.cpp:425] inception_5a/3x3 <- inception_5a/3x3_reduce
I0403 14:24:31.300163  1250 net.cpp:399] inception_5a/3x3 -> inception_5a/3x3
I0403 14:24:31.305358  1250 net.cpp:141] Setting up inception_5a/3x3
I0403 14:24:31.305389  1250 net.cpp:148] Top shape: 24 320 7 7 (376320)
I0403 14:24:31.305405  1250 net.cpp:156] Memory required for data: 1297544736
I0403 14:24:31.305425  1250 layer_factory.hpp:77] Creating layer inception_5a/relu_3x3
I0403 14:24:31.305446  1250 net.cpp:91] Creating Layer inception_5a/relu_3x3
I0403 14:24:31.305464  1250 net.cpp:425] inception_5a/relu_3x3 <- inception_5a/3x3
I0403 14:24:31.305481  1250 net.cpp:386] inception_5a/relu_3x3 -> inception_5a/3x3 (in-place)
I0403 14:24:31.305783  1250 net.cpp:141] Setting up inception_5a/relu_3x3
I0403 14:24:31.305809  1250 net.cpp:148] Top shape: 24 320 7 7 (376320)
I0403 14:24:31.305824  1250 net.cpp:156] Memory required for data: 1299050016
I0403 14:24:31.305840  1250 layer_factory.hpp:77] Creating layer inception_5a/5x5_reduce
I0403 14:24:31.305862  1250 net.cpp:91] Creating Layer inception_5a/5x5_reduce
I0403 14:24:31.305881  1250 net.cpp:425] inception_5a/5x5_reduce <- pool4/3x3_s2_pool4/3x3_s2_0_split_2
I0403 14:24:31.305903  1250 net.cpp:399] inception_5a/5x5_reduce -> inception_5a/5x5_reduce
I0403 14:24:31.307119  1250 net.cpp:141] Setting up inception_5a/5x5_reduce
I0403 14:24:31.307152  1250 net.cpp:148] Top shape: 24 32 7 7 (37632)
I0403 14:24:31.307169  1250 net.cpp:156] Memory required for data: 1299200544
I0403 14:24:31.307188  1250 layer_factory.hpp:77] Creating layer inception_5a/relu_5x5_reduce
I0403 14:24:31.307207  1250 net.cpp:91] Creating Layer inception_5a/relu_5x5_reduce
I0403 14:24:31.307229  1250 net.cpp:425] inception_5a/relu_5x5_reduce <- inception_5a/5x5_reduce
I0403 14:24:31.307248  1250 net.cpp:386] inception_5a/relu_5x5_reduce -> inception_5a/5x5_reduce (in-place)
I0403 14:24:31.307559  1250 net.cpp:141] Setting up inception_5a/relu_5x5_reduce
I0403 14:24:31.307588  1250 net.cpp:148] Top shape: 24 32 7 7 (37632)
I0403 14:24:31.307605  1250 net.cpp:156] Memory required for data: 1299351072
I0403 14:24:31.307620  1250 layer_factory.hpp:77] Creating layer inception_5a/5x5
I0403 14:24:31.307639  1250 net.cpp:91] Creating Layer inception_5a/5x5
I0403 14:24:31.307657  1250 net.cpp:425] inception_5a/5x5 <- inception_5a/5x5_reduce
I0403 14:24:31.307678  1250 net.cpp:399] inception_5a/5x5 -> inception_5a/5x5
I0403 14:24:31.309473  1250 net.cpp:141] Setting up inception_5a/5x5
I0403 14:24:31.309514  1250 net.cpp:148] Top shape: 24 128 7 7 (150528)
I0403 14:24:31.309531  1250 net.cpp:156] Memory required for data: 1299953184
I0403 14:24:31.309551  1250 layer_factory.hpp:77] Creating layer inception_5a/relu_5x5
I0403 14:24:31.309571  1250 net.cpp:91] Creating Layer inception_5a/relu_5x5
I0403 14:24:31.309588  1250 net.cpp:425] inception_5a/relu_5x5 <- inception_5a/5x5
I0403 14:24:31.309607  1250 net.cpp:386] inception_5a/relu_5x5 -> inception_5a/5x5 (in-place)
I0403 14:24:31.309804  1250 net.cpp:141] Setting up inception_5a/relu_5x5
I0403 14:24:31.309833  1250 net.cpp:148] Top shape: 24 128 7 7 (150528)
I0403 14:24:31.309849  1250 net.cpp:156] Memory required for data: 1300555296
I0403 14:24:31.309864  1250 layer_factory.hpp:77] Creating layer inception_5a/pool
I0403 14:24:31.309882  1250 net.cpp:91] Creating Layer inception_5a/pool
I0403 14:24:31.309898  1250 net.cpp:425] inception_5a/pool <- pool4/3x3_s2_pool4/3x3_s2_0_split_3
I0403 14:24:31.309917  1250 net.cpp:399] inception_5a/pool -> inception_5a/pool
I0403 14:24:31.309991  1250 net.cpp:141] Setting up inception_5a/pool
I0403 14:24:31.310015  1250 net.cpp:148] Top shape: 24 832 7 7 (978432)
I0403 14:24:31.310030  1250 net.cpp:156] Memory required for data: 1304469024
I0403 14:24:31.310045  1250 layer_factory.hpp:77] Creating layer inception_5a/pool_proj
I0403 14:24:31.310068  1250 net.cpp:91] Creating Layer inception_5a/pool_proj
I0403 14:24:31.310086  1250 net.cpp:425] inception_5a/pool_proj <- inception_5a/pool
I0403 14:24:31.310109  1250 net.cpp:399] inception_5a/pool_proj -> inception_5a/pool_proj
I0403 14:24:31.312512  1250 net.cpp:141] Setting up inception_5a/pool_proj
I0403 14:24:31.312542  1250 net.cpp:148] Top shape: 24 128 7 7 (150528)
I0403 14:24:31.312558  1250 net.cpp:156] Memory required for data: 1305071136
I0403 14:24:31.312577  1250 layer_factory.hpp:77] Creating layer inception_5a/relu_pool_proj
I0403 14:24:31.312598  1250 net.cpp:91] Creating Layer inception_5a/relu_pool_proj
I0403 14:24:31.312615  1250 net.cpp:425] inception_5a/relu_pool_proj <- inception_5a/pool_proj
I0403 14:24:31.312633  1250 net.cpp:386] inception_5a/relu_pool_proj -> inception_5a/pool_proj (in-place)
I0403 14:24:31.312937  1250 net.cpp:141] Setting up inception_5a/relu_pool_proj
I0403 14:24:31.312963  1250 net.cpp:148] Top shape: 24 128 7 7 (150528)
I0403 14:24:31.312978  1250 net.cpp:156] Memory required for data: 1305673248
I0403 14:24:31.312994  1250 layer_factory.hpp:77] Creating layer inception_5a/output
I0403 14:24:31.313011  1250 net.cpp:91] Creating Layer inception_5a/output
I0403 14:24:31.313027  1250 net.cpp:425] inception_5a/output <- inception_5a/1x1
I0403 14:24:31.313045  1250 net.cpp:425] inception_5a/output <- inception_5a/3x3
I0403 14:24:31.313061  1250 net.cpp:425] inception_5a/output <- inception_5a/5x5
I0403 14:24:31.313076  1250 net.cpp:425] inception_5a/output <- inception_5a/pool_proj
I0403 14:24:31.313097  1250 net.cpp:399] inception_5a/output -> inception_5a/output
I0403 14:24:31.313149  1250 net.cpp:141] Setting up inception_5a/output
I0403 14:24:31.313176  1250 net.cpp:148] Top shape: 24 832 7 7 (978432)
I0403 14:24:31.313192  1250 net.cpp:156] Memory required for data: 1309586976
I0403 14:24:31.313217  1250 layer_factory.hpp:77] Creating layer inception_5a/output_inception_5a/output_0_split
I0403 14:24:31.313238  1250 net.cpp:91] Creating Layer inception_5a/output_inception_5a/output_0_split
I0403 14:24:31.313256  1250 net.cpp:425] inception_5a/output_inception_5a/output_0_split <- inception_5a/output
I0403 14:24:31.313277  1250 net.cpp:399] inception_5a/output_inception_5a/output_0_split -> inception_5a/output_inception_5a/output_0_split_0
I0403 14:24:31.313298  1250 net.cpp:399] inception_5a/output_inception_5a/output_0_split -> inception_5a/output_inception_5a/output_0_split_1
I0403 14:24:31.313320  1250 net.cpp:399] inception_5a/output_inception_5a/output_0_split -> inception_5a/output_inception_5a/output_0_split_2
I0403 14:24:31.313341  1250 net.cpp:399] inception_5a/output_inception_5a/output_0_split -> inception_5a/output_inception_5a/output_0_split_3
I0403 14:24:31.313454  1250 net.cpp:141] Setting up inception_5a/output_inception_5a/output_0_split
I0403 14:24:31.313480  1250 net.cpp:148] Top shape: 24 832 7 7 (978432)
I0403 14:24:31.313500  1250 net.cpp:148] Top shape: 24 832 7 7 (978432)
I0403 14:24:31.313516  1250 net.cpp:148] Top shape: 24 832 7 7 (978432)
I0403 14:24:31.313532  1250 net.cpp:148] Top shape: 24 832 7 7 (978432)
I0403 14:24:31.313546  1250 net.cpp:156] Memory required for data: 1325241888
I0403 14:24:31.313561  1250 layer_factory.hpp:77] Creating layer inception_5b/1x1
I0403 14:24:31.313580  1250 net.cpp:91] Creating Layer inception_5b/1x1
I0403 14:24:31.313597  1250 net.cpp:425] inception_5b/1x1 <- inception_5a/output_inception_5a/output_0_split_0
I0403 14:24:31.313619  1250 net.cpp:399] inception_5b/1x1 -> inception_5b/1x1
I0403 14:24:31.317636  1250 net.cpp:141] Setting up inception_5b/1x1
I0403 14:24:31.317672  1250 net.cpp:148] Top shape: 24 384 7 7 (451584)
I0403 14:24:31.317688  1250 net.cpp:156] Memory required for data: 1327048224
I0403 14:24:31.317708  1250 layer_factory.hpp:77] Creating layer inception_5b/relu_1x1
I0403 14:24:31.317728  1250 net.cpp:91] Creating Layer inception_5b/relu_1x1
I0403 14:24:31.317744  1250 net.cpp:425] inception_5b/relu_1x1 <- inception_5b/1x1
I0403 14:24:31.317765  1250 net.cpp:386] inception_5b/relu_1x1 -> inception_5b/1x1 (in-place)
I0403 14:24:31.318089  1250 net.cpp:141] Setting up inception_5b/relu_1x1
I0403 14:24:31.318116  1250 net.cpp:148] Top shape: 24 384 7 7 (451584)
I0403 14:24:31.318132  1250 net.cpp:156] Memory required for data: 1328854560
I0403 14:24:31.318148  1250 layer_factory.hpp:77] Creating layer inception_5b/3x3_reduce
I0403 14:24:31.318173  1250 net.cpp:91] Creating Layer inception_5b/3x3_reduce
I0403 14:24:31.318195  1250 net.cpp:425] inception_5b/3x3_reduce <- inception_5a/output_inception_5a/output_0_split_1
I0403 14:24:31.318225  1250 net.cpp:399] inception_5b/3x3_reduce -> inception_5b/3x3_reduce
I0403 14:24:31.321064  1250 net.cpp:141] Setting up inception_5b/3x3_reduce
I0403 14:24:31.321096  1250 net.cpp:148] Top shape: 24 192 7 7 (225792)
I0403 14:24:31.321112  1250 net.cpp:156] Memory required for data: 1329757728
I0403 14:24:31.321132  1250 layer_factory.hpp:77] Creating layer inception_5b/relu_3x3_reduce
I0403 14:24:31.321153  1250 net.cpp:91] Creating Layer inception_5b/relu_3x3_reduce
I0403 14:24:31.321172  1250 net.cpp:425] inception_5b/relu_3x3_reduce <- inception_5b/3x3_reduce
I0403 14:24:31.321190  1250 net.cpp:386] inception_5b/relu_3x3_reduce -> inception_5b/3x3_reduce (in-place)
I0403 14:24:31.321398  1250 net.cpp:141] Setting up inception_5b/relu_3x3_reduce
I0403 14:24:31.321424  1250 net.cpp:148] Top shape: 24 192 7 7 (225792)
I0403 14:24:31.321442  1250 net.cpp:156] Memory required for data: 1330660896
I0403 14:24:31.321458  1250 layer_factory.hpp:77] Creating layer inception_5b/3x3
I0403 14:24:31.321481  1250 net.cpp:91] Creating Layer inception_5b/3x3
I0403 14:24:31.321499  1250 net.cpp:425] inception_5b/3x3 <- inception_5b/3x3_reduce
I0403 14:24:31.321522  1250 net.cpp:399] inception_5b/3x3 -> inception_5b/3x3
I0403 14:24:31.328691  1250 net.cpp:141] Setting up inception_5b/3x3
I0403 14:24:31.328722  1250 net.cpp:148] Top shape: 24 384 7 7 (451584)
I0403 14:24:31.328737  1250 net.cpp:156] Memory required for data: 1332467232
I0403 14:24:31.328758  1250 layer_factory.hpp:77] Creating layer inception_5b/relu_3x3
I0403 14:24:31.328778  1250 net.cpp:91] Creating Layer inception_5b/relu_3x3
I0403 14:24:31.328796  1250 net.cpp:425] inception_5b/relu_3x3 <- inception_5b/3x3
I0403 14:24:31.328814  1250 net.cpp:386] inception_5b/relu_3x3 -> inception_5b/3x3 (in-place)
I0403 14:24:31.329120  1250 net.cpp:141] Setting up inception_5b/relu_3x3
I0403 14:24:31.329146  1250 net.cpp:148] Top shape: 24 384 7 7 (451584)
I0403 14:24:31.329161  1250 net.cpp:156] Memory required for data: 1334273568
I0403 14:24:31.329176  1250 layer_factory.hpp:77] Creating layer inception_5b/5x5_reduce
I0403 14:24:31.329221  1250 net.cpp:91] Creating Layer inception_5b/5x5_reduce
I0403 14:24:31.329241  1250 net.cpp:425] inception_5b/5x5_reduce <- inception_5a/output_inception_5a/output_0_split_2
I0403 14:24:31.329264  1250 net.cpp:399] inception_5b/5x5_reduce -> inception_5b/5x5_reduce
I0403 14:24:31.330621  1250 net.cpp:141] Setting up inception_5b/5x5_reduce
I0403 14:24:31.330649  1250 net.cpp:148] Top shape: 24 48 7 7 (56448)
I0403 14:24:31.330664  1250 net.cpp:156] Memory required for data: 1334499360
I0403 14:24:31.330683  1250 layer_factory.hpp:77] Creating layer inception_5b/relu_5x5_reduce
I0403 14:24:31.330701  1250 net.cpp:91] Creating Layer inception_5b/relu_5x5_reduce
I0403 14:24:31.330718  1250 net.cpp:425] inception_5b/relu_5x5_reduce <- inception_5b/5x5_reduce
I0403 14:24:31.330739  1250 net.cpp:386] inception_5b/relu_5x5_reduce -> inception_5b/5x5_reduce (in-place)
I0403 14:24:31.331143  1250 net.cpp:141] Setting up inception_5b/relu_5x5_reduce
I0403 14:24:31.331171  1250 net.cpp:148] Top shape: 24 48 7 7 (56448)
I0403 14:24:31.331187  1250 net.cpp:156] Memory required for data: 1334725152
I0403 14:24:31.331202  1250 layer_factory.hpp:77] Creating layer inception_5b/5x5
I0403 14:24:31.331239  1250 net.cpp:91] Creating Layer inception_5b/5x5
I0403 14:24:31.331257  1250 net.cpp:425] inception_5b/5x5 <- inception_5b/5x5_reduce
I0403 14:24:31.331276  1250 net.cpp:399] inception_5b/5x5 -> inception_5b/5x5
I0403 14:24:31.333480  1250 net.cpp:141] Setting up inception_5b/5x5
I0403 14:24:31.333509  1250 net.cpp:148] Top shape: 24 128 7 7 (150528)
I0403 14:24:31.333524  1250 net.cpp:156] Memory required for data: 1335327264
I0403 14:24:31.333542  1250 layer_factory.hpp:77] Creating layer inception_5b/relu_5x5
I0403 14:24:31.333562  1250 net.cpp:91] Creating Layer inception_5b/relu_5x5
I0403 14:24:31.333580  1250 net.cpp:425] inception_5b/relu_5x5 <- inception_5b/5x5
I0403 14:24:31.333597  1250 net.cpp:386] inception_5b/relu_5x5 -> inception_5b/5x5 (in-place)
I0403 14:24:31.333792  1250 net.cpp:141] Setting up inception_5b/relu_5x5
I0403 14:24:31.333819  1250 net.cpp:148] Top shape: 24 128 7 7 (150528)
I0403 14:24:31.333835  1250 net.cpp:156] Memory required for data: 1335929376
I0403 14:24:31.333850  1250 layer_factory.hpp:77] Creating layer inception_5b/pool
I0403 14:24:31.333868  1250 net.cpp:91] Creating Layer inception_5b/pool
I0403 14:24:31.333884  1250 net.cpp:425] inception_5b/pool <- inception_5a/output_inception_5a/output_0_split_3
I0403 14:24:31.333905  1250 net.cpp:399] inception_5b/pool -> inception_5b/pool
I0403 14:24:31.333979  1250 net.cpp:141] Setting up inception_5b/pool
I0403 14:24:31.334003  1250 net.cpp:148] Top shape: 24 832 7 7 (978432)
I0403 14:24:31.334017  1250 net.cpp:156] Memory required for data: 1339843104
I0403 14:24:31.334031  1250 layer_factory.hpp:77] Creating layer inception_5b/pool_proj
I0403 14:24:31.334053  1250 net.cpp:91] Creating Layer inception_5b/pool_proj
I0403 14:24:31.334070  1250 net.cpp:425] inception_5b/pool_proj <- inception_5b/pool
I0403 14:24:31.334095  1250 net.cpp:399] inception_5b/pool_proj -> inception_5b/pool_proj
I0403 14:24:31.336478  1250 net.cpp:141] Setting up inception_5b/pool_proj
I0403 14:24:31.336506  1250 net.cpp:148] Top shape: 24 128 7 7 (150528)
I0403 14:24:31.336522  1250 net.cpp:156] Memory required for data: 1340445216
I0403 14:24:31.336540  1250 layer_factory.hpp:77] Creating layer inception_5b/relu_pool_proj
I0403 14:24:31.336560  1250 net.cpp:91] Creating Layer inception_5b/relu_pool_proj
I0403 14:24:31.336577  1250 net.cpp:425] inception_5b/relu_pool_proj <- inception_5b/pool_proj
I0403 14:24:31.336596  1250 net.cpp:386] inception_5b/relu_pool_proj -> inception_5b/pool_proj (in-place)
I0403 14:24:31.336900  1250 net.cpp:141] Setting up inception_5b/relu_pool_proj
I0403 14:24:31.336927  1250 net.cpp:148] Top shape: 24 128 7 7 (150528)
I0403 14:24:31.336941  1250 net.cpp:156] Memory required for data: 1341047328
I0403 14:24:31.336956  1250 layer_factory.hpp:77] Creating layer inception_5b/output
I0403 14:24:31.336973  1250 net.cpp:91] Creating Layer inception_5b/output
I0403 14:24:31.337004  1250 net.cpp:425] inception_5b/output <- inception_5b/1x1
I0403 14:24:31.337021  1250 net.cpp:425] inception_5b/output <- inception_5b/3x3
I0403 14:24:31.337038  1250 net.cpp:425] inception_5b/output <- inception_5b/5x5
I0403 14:24:31.337054  1250 net.cpp:425] inception_5b/output <- inception_5b/pool_proj
I0403 14:24:31.337074  1250 net.cpp:399] inception_5b/output -> inception_5b/output
I0403 14:24:31.337142  1250 net.cpp:141] Setting up inception_5b/output
I0403 14:24:31.337167  1250 net.cpp:148] Top shape: 24 1024 7 7 (1204224)
I0403 14:24:31.337182  1250 net.cpp:156] Memory required for data: 1345864224
I0403 14:24:31.337196  1250 layer_factory.hpp:77] Creating layer pool5/7x7_s1
I0403 14:24:31.337219  1250 net.cpp:91] Creating Layer pool5/7x7_s1
I0403 14:24:31.337237  1250 net.cpp:425] pool5/7x7_s1 <- inception_5b/output
I0403 14:24:31.337258  1250 net.cpp:399] pool5/7x7_s1 -> pool5/7x7_s1
I0403 14:24:31.337494  1250 net.cpp:141] Setting up pool5/7x7_s1
I0403 14:24:31.337519  1250 net.cpp:148] Top shape: 24 1024 1 1 (24576)
I0403 14:24:31.337534  1250 net.cpp:156] Memory required for data: 1345962528
I0403 14:24:31.337549  1250 layer_factory.hpp:77] Creating layer pool5/drop_7x7_s1
I0403 14:24:31.337571  1250 net.cpp:91] Creating Layer pool5/drop_7x7_s1
I0403 14:24:31.337589  1250 net.cpp:425] pool5/drop_7x7_s1 <- pool5/7x7_s1
I0403 14:24:31.337606  1250 net.cpp:386] pool5/drop_7x7_s1 -> pool5/7x7_s1 (in-place)
I0403 14:24:31.337658  1250 net.cpp:141] Setting up pool5/drop_7x7_s1
I0403 14:24:31.337680  1250 net.cpp:148] Top shape: 24 1024 1 1 (24576)
I0403 14:24:31.337694  1250 net.cpp:156] Memory required for data: 1346060832
I0403 14:24:31.337709  1250 layer_factory.hpp:77] Creating layer loss3/classifier_plantvillage
I0403 14:24:31.337728  1250 net.cpp:91] Creating Layer loss3/classifier_plantvillage
I0403 14:24:31.337743  1250 net.cpp:425] loss3/classifier_plantvillage <- pool5/7x7_s1
I0403 14:24:31.337764  1250 net.cpp:399] loss3/classifier_plantvillage -> loss3/classifier_plantvillage
I0403 14:24:31.338196  1250 net.cpp:141] Setting up loss3/classifier_plantvillage
I0403 14:24:31.338224  1250 net.cpp:148] Top shape: 24 38 (912)
I0403 14:24:31.338239  1250 net.cpp:156] Memory required for data: 1346064480
I0403 14:24:31.338258  1250 layer_factory.hpp:77] Creating layer loss3/classifier_plantvillage_loss3/classifier_plantvillage_0_split
I0403 14:24:31.338279  1250 net.cpp:91] Creating Layer loss3/classifier_plantvillage_loss3/classifier_plantvillage_0_split
I0403 14:24:31.338296  1250 net.cpp:425] loss3/classifier_plantvillage_loss3/classifier_plantvillage_0_split <- loss3/classifier_plantvillage
I0403 14:24:31.338316  1250 net.cpp:399] loss3/classifier_plantvillage_loss3/classifier_plantvillage_0_split -> loss3/classifier_plantvillage_loss3/classifier_plantvillage_0_split_0
I0403 14:24:31.338337  1250 net.cpp:399] loss3/classifier_plantvillage_loss3/classifier_plantvillage_0_split -> loss3/classifier_plantvillage_loss3/classifier_plantvillage_0_split_1
I0403 14:24:31.338358  1250 net.cpp:399] loss3/classifier_plantvillage_loss3/classifier_plantvillage_0_split -> loss3/classifier_plantvillage_loss3/classifier_plantvillage_0_split_2
I0403 14:24:31.338378  1250 net.cpp:399] loss3/classifier_plantvillage_loss3/classifier_plantvillage_0_split -> loss3/classifier_plantvillage_loss3/classifier_plantvillage_0_split_3
I0403 14:24:31.338480  1250 net.cpp:141] Setting up loss3/classifier_plantvillage_loss3/classifier_plantvillage_0_split
I0403 14:24:31.338505  1250 net.cpp:148] Top shape: 24 38 (912)
I0403 14:24:31.338520  1250 net.cpp:148] Top shape: 24 38 (912)
I0403 14:24:31.338536  1250 net.cpp:148] Top shape: 24 38 (912)
I0403 14:24:31.338551  1250 net.cpp:148] Top shape: 24 38 (912)
I0403 14:24:31.338563  1250 net.cpp:156] Memory required for data: 1346079072
I0403 14:24:31.338578  1250 layer_factory.hpp:77] Creating layer loss1/loss
I0403 14:24:31.338599  1250 net.cpp:91] Creating Layer loss1/loss
I0403 14:24:31.338616  1250 net.cpp:425] loss1/loss <- loss1/classifier_plantvillage_loss1/classifier_plantvillage_0_split_0
I0403 14:24:31.338660  1250 net.cpp:425] loss1/loss <- label_data_1_split_0
…
