…
I0403 12:24:00.899559  8852 net.cpp:313] The NetState phase (1) differed from the phase (0) specified by a rule in layer data
I0403 12:24:00.899881  8852 net.cpp:49] Initializing net from parameters: 
state {
  phase: TEST
}
layer {
  name: "data"
  type: "Data"
  top: "data"
  top: "label"
  include {
    phase: TEST
  }
  transform_param {
    crop_size: 227
    mean_file: "/home/mohanty/data/final_dataset/lmdb/grayscale-20-80/mean.binaryproto"
  }
  data_param {
    source: "/home/mohanty/data/final_dataset/lmdb/grayscale-20-80/test_db"
    batch_size: 100
    backend: LMDB
  }
}
layer {
  name: "conv1"
  type: "Convolution"
  bottom: "data"
  top: "conv1"
  param {
    lr_mult: 1
    decay_mult: 1
  }
  param {
    lr_mult: 2
    decay_mult: 0
  }
  convolution_param {
    num_output: 96
    kernel_size: 11
    stride: 4
    weight_filler {
      type: "gaussian"
      std: 0.01
    }
    bias_filler {
      type: "constant"
      value: 0
    }
  }
}
layer {
  name: "relu1"
  type: "ReLU"
  bottom: "conv1"
  top: "conv1"
}
layer {
  name: "norm1"
  type: "LRN"
  bottom: "conv1"
  top: "norm1"
  lrn_param {
    local_size: 5
    alpha: 0.0001
    beta: 0.75
  }
}
layer {
  name: "pool1"
  type: "Pooling"
  bottom: "norm1"
  top: "pool1"
  pooling_param {
    pool: MAX
    kernel_size: 3
    stride: 2
  }
}
layer {
  name: "conv2"
  type: "Convolution"
  bottom: "pool1"
  top: "conv2"
  param {
    lr_mult: 1
    decay_mult: 1
  }
  param {
    lr_mult: 2
    decay_mult: 0
  }
  convolution_param {
    num_output: 256
    pad: 2
    kernel_size: 5
    group: 2
    weight_filler {
      type: "gaussian"
      std: 0.01
    }
    bias_filler {
      type: "constant"
      value: 0.1
    }
  }
}
layer {
  name: "relu2"
  type: "ReLU"
  bottom: "conv2"
  top: "conv2"
}
layer {
  name: "norm2"
  type: "LRN"
  bottom: "conv2"
  top: "norm2"
  lrn_param {
    local_size: 5
    alpha: 0.0001
    beta: 0.75
  }
}
layer {
  name: "pool2"
  type: "Pooling"
  bottom: "norm2"
  top: "pool2"
  pooling_param {
    pool: MAX
    kernel_size: 3
    stride: 2
  }
}
layer {
  name: "conv3"
  type: "Convolution"
  bottom: "pool2"
  top: "conv3"
  param {
    lr_mult: 1
    decay_mult: 1
  }
  param {
    lr_mult: 2
    decay_mult: 0
  }
  convolution_param {
    num_output: 384
    pad: 1
    kernel_size: 3
    weight_filler {
      type: "gaussian"
      std: 0.01
    }
    bias_filler {
      type: "constant"
      value: 0
    }
  }
}
layer {
  name: "relu3"
  type: "ReLU"
  bottom: "conv3"
  top: "conv3"
}
layer {
  name: "conv4"
  type: "Convolution"
  bottom: "conv3"
  top: "conv4"
  param {
    lr_mult: 1
    decay_mult: 1
  }
  param {
    lr_mult: 2
    decay_mult: 0
  }
  convolution_param {
    num_output: 384
    pad: 1
    kernel_size: 3
    group: 2
    weight_filler {
      type: "gaussian"
      std: 0.01
    }
    bias_filler {
      type: "constant"
      value: 0.1
    }
  }
}
layer {
  name: "relu4"
  type: "ReLU"
  bottom: "conv4"
  top: "conv4"
}
layer {
  name: "conv5"
  type: "Convolution"
  bottom: "conv4"
  top: "conv5"
  param {
    lr_mult: 1
    decay_mult: 1
  }
  param {
    lr_mult: 2
    decay_mult: 0
  }
  convolution_param {
    num_output: 256
    pad: 1
    kernel_size: 3
    group: 2
    weight_filler {
      type: "gaussian"
      std: 0.01
    }
    bias_filler {
      type: "constant"
      value: 0.1
    }
  }
}
layer {
  name: "relu5"
  type: "ReLU"
  bottom: "conv5"
  top: "conv5"
}
layer {
  name: "pool5"
  type: "Pooling"
  bottom: "conv5"
  top: "pool5"
  pooling_param {
    pool: MAX
    kernel_size: 3
    stride: 2
  }
}
layer {
  name: "fc6"
  type: "InnerProduct"
  bottom: "pool5"
  top: "fc6"
  param {
    lr_mult: 1
    decay_mult: 1
  }
  param {
    lr_mult: 2
    decay_mult: 0
  }
  inner_product_param {
    num_output: 4096
    weight_filler {
      type: "gaussian"
      std: 0.005
    }
    bias_filler {
      type: "constant"
      value: 0.1
    }
  }
}
layer {
  name: "relu6"
  type: "ReLU"
  bottom: "fc6"
  top: "fc6"
}
layer {
  name: "drop6"
  type: "Dropout"
  bottom: "fc6"
  top: "fc6"
  dropout_param {
    dropout_ratio: 0.5
  }
}
layer {
  name: "fc7"
  type: "InnerProduct"
  bottom: "fc6"
  top: "fc7"
  param {
    lr_mult: 1
    decay_mult: 1
  }
  param {
    lr_mult: 2
    decay_mult: 0
  }
  inner_product_param {
    num_output: 4096
    weight_filler {
      type: "gaussian"
      std: 0.005
    }
    bias_filler {
      type: "constant"
      value: 0.1
    }
  }
}
layer {
  name: "relu7"
  type: "ReLU"
  bottom: "fc7"
  top: "fc7"
}
layer {
  name: "drop7"
  type: "Dropout"
  bottom: "fc7"
  top: "fc7"
  dropout_param {
    dropout_ratio: 0.5
  }
}
layer {
  name: "fc8_plantvillage"
  type: "InnerProduct"
  bottom: "fc7"
  top: "fc8_plantvillage"
  param {
    lr_mult: 1
    decay_mult: 1
  }
  param {
    lr_mult: 2
    decay_mult: 0
  }
  inner_product_param {
    num_output: 38
    weight_filler {
      type: "gaussian"
      std: 0.01
    }
    bias_filler {
      type: "constant"
      value: 0
    }
  }
}
layer {
  name: "prob"
  type: "Softmax"
  bottom: "fc8_plantvillage"
  top: "prob"
  include {
    phase: TEST
  }
}
layer {
  name: "hdf5out"
  type: "HDF5Output"
  bottom: "prob"
  bottom: "label"
  include {
    phase: TEST
  }
  hdf5_output_param {
    file_name: "hdf5_dumps/iter_1680.h5"
  }
}
layer {
  name: "loss"
  type: "SoftmaxWithLoss"
  bottom: "fc8_plantvillage"
  bottom: "label"
  top: "loss"
}
layer {
  name: "accuracy"
  type: "Accuracy"
  bottom: "fc8_plantvillage"
  bottom: "label"
  top: "accuracy"
  include {
    phase: TEST
  }
}
I0403 12:24:00.900450  8852 layer_factory.hpp:77] Creating layer data
I0403 12:24:00.901094  8852 net.cpp:91] Creating Layer data
I0403 12:24:00.901126  8852 net.cpp:399] data -> data
I0403 12:24:00.901177  8852 net.cpp:399] data -> label
I0403 12:24:00.901226  8852 data_transformer.cpp:25] Loading mean file from: /home/mohanty/data/final_dataset/lmdb/grayscale-20-80/mean.binaryproto
I0403 12:24:00.904630  8858 db_lmdb.cpp:38] Opened lmdb /home/mohanty/data/final_dataset/lmdb/grayscale-20-80/test_db
I0403 12:24:00.914844  8852 data_layer.cpp:41] output data size: 100,3,227,227
I0403 12:24:01.033057  8852 net.cpp:141] Setting up data
I0403 12:24:01.033149  8852 net.cpp:148] Top shape: 100 3 227 227 (15458700)
I0403 12:24:01.033171  8852 net.cpp:148] Top shape: 100 (100)
I0403 12:24:01.033186  8852 net.cpp:156] Memory required for data: 61835200
I0403 12:24:01.033215  8852 layer_factory.hpp:77] Creating layer label_data_1_split
I0403 12:24:01.033239  8852 net.cpp:91] Creating Layer label_data_1_split
I0403 12:24:01.033257  8852 net.cpp:425] label_data_1_split <- label
I0403 12:24:01.033289  8852 net.cpp:399] label_data_1_split -> label_data_1_split_0
I0403 12:24:01.033319  8852 net.cpp:399] label_data_1_split -> label_data_1_split_1
I0403 12:24:01.033339  8852 net.cpp:399] label_data_1_split -> label_data_1_split_2
I0403 12:24:01.033402  8852 net.cpp:141] Setting up label_data_1_split
I0403 12:24:01.033428  8852 net.cpp:148] Top shape: 100 (100)
I0403 12:24:01.033449  8852 net.cpp:148] Top shape: 100 (100)
I0403 12:24:01.033465  8852 net.cpp:148] Top shape: 100 (100)
I0403 12:24:01.033478  8852 net.cpp:156] Memory required for data: 61836400
I0403 12:24:01.033498  8852 layer_factory.hpp:77] Creating layer conv1
I0403 12:24:01.033529  8852 net.cpp:91] Creating Layer conv1
I0403 12:24:01.033552  8852 net.cpp:425] conv1 <- data
I0403 12:24:01.033572  8852 net.cpp:399] conv1 -> conv1
I0403 12:24:01.173390  8852 net.cpp:141] Setting up conv1
I0403 12:24:01.173466  8852 net.cpp:148] Top shape: 100 96 55 55 (29040000)
I0403 12:24:01.173485  8852 net.cpp:156] Memory required for data: 177996400
I0403 12:24:01.173516  8852 layer_factory.hpp:77] Creating layer relu1
I0403 12:24:01.173548  8852 net.cpp:91] Creating Layer relu1
I0403 12:24:01.173568  8852 net.cpp:425] relu1 <- conv1
I0403 12:24:01.173588  8852 net.cpp:386] relu1 -> conv1 (in-place)
I0403 12:24:01.173883  8852 net.cpp:141] Setting up relu1
I0403 12:24:01.173910  8852 net.cpp:148] Top shape: 100 96 55 55 (29040000)
I0403 12:24:01.173962  8852 net.cpp:156] Memory required for data: 294156400
I0403 12:24:01.173979  8852 layer_factory.hpp:77] Creating layer norm1
I0403 12:24:01.174006  8852 net.cpp:91] Creating Layer norm1
I0403 12:24:01.174024  8852 net.cpp:425] norm1 <- conv1
I0403 12:24:01.174042  8852 net.cpp:399] norm1 -> norm1
I0403 12:24:01.174352  8852 net.cpp:141] Setting up norm1
I0403 12:24:01.174381  8852 net.cpp:148] Top shape: 100 96 55 55 (29040000)
I0403 12:24:01.174396  8852 net.cpp:156] Memory required for data: 410316400
I0403 12:24:01.174410  8852 layer_factory.hpp:77] Creating layer pool1
I0403 12:24:01.174433  8852 net.cpp:91] Creating Layer pool1
I0403 12:24:01.174449  8852 net.cpp:425] pool1 <- norm1
I0403 12:24:01.174468  8852 net.cpp:399] pool1 -> pool1
I0403 12:24:01.174535  8852 net.cpp:141] Setting up pool1
I0403 12:24:01.174571  8852 net.cpp:148] Top shape: 100 96 27 27 (6998400)
I0403 12:24:01.174587  8852 net.cpp:156] Memory required for data: 438310000
I0403 12:24:01.174602  8852 layer_factory.hpp:77] Creating layer conv2
I0403 12:24:01.174625  8852 net.cpp:91] Creating Layer conv2
I0403 12:24:01.174641  8852 net.cpp:425] conv2 <- pool1
I0403 12:24:01.174659  8852 net.cpp:399] conv2 -> conv2
I0403 12:24:01.189857  8852 net.cpp:141] Setting up conv2
I0403 12:24:01.189908  8852 net.cpp:148] Top shape: 100 256 27 27 (18662400)
I0403 12:24:01.189924  8852 net.cpp:156] Memory required for data: 512959600
I0403 12:24:01.189947  8852 layer_factory.hpp:77] Creating layer relu2
I0403 12:24:01.189970  8852 net.cpp:91] Creating Layer relu2
I0403 12:24:01.189986  8852 net.cpp:425] relu2 <- conv2
I0403 12:24:01.190006  8852 net.cpp:386] relu2 -> conv2 (in-place)
I0403 12:24:01.190290  8852 net.cpp:141] Setting up relu2
I0403 12:24:01.190317  8852 net.cpp:148] Top shape: 100 256 27 27 (18662400)
I0403 12:24:01.190333  8852 net.cpp:156] Memory required for data: 587609200
I0403 12:24:01.190349  8852 layer_factory.hpp:77] Creating layer norm2
I0403 12:24:01.190372  8852 net.cpp:91] Creating Layer norm2
I0403 12:24:01.190389  8852 net.cpp:425] norm2 <- conv2
I0403 12:24:01.190407  8852 net.cpp:399] norm2 -> norm2
I0403 12:24:01.190618  8852 net.cpp:141] Setting up norm2
I0403 12:24:01.190644  8852 net.cpp:148] Top shape: 100 256 27 27 (18662400)
I0403 12:24:01.190659  8852 net.cpp:156] Memory required for data: 662258800
I0403 12:24:01.190675  8852 layer_factory.hpp:77] Creating layer pool2
I0403 12:24:01.190692  8852 net.cpp:91] Creating Layer pool2
I0403 12:24:01.190737  8852 net.cpp:425] pool2 <- norm2
I0403 12:24:01.190760  8852 net.cpp:399] pool2 -> pool2
I0403 12:24:01.190816  8852 net.cpp:141] Setting up pool2
I0403 12:24:01.190840  8852 net.cpp:148] Top shape: 100 256 13 13 (4326400)
I0403 12:24:01.190855  8852 net.cpp:156] Memory required for data: 679564400
I0403 12:24:01.190870  8852 layer_factory.hpp:77] Creating layer conv3
I0403 12:24:01.190894  8852 net.cpp:91] Creating Layer conv3
I0403 12:24:01.190912  8852 net.cpp:425] conv3 <- pool2
I0403 12:24:01.190929  8852 net.cpp:399] conv3 -> conv3
I0403 12:24:01.229511  8852 net.cpp:141] Setting up conv3
I0403 12:24:01.229585  8852 net.cpp:148] Top shape: 100 384 13 13 (6489600)
I0403 12:24:01.229604  8852 net.cpp:156] Memory required for data: 705522800
I0403 12:24:01.229629  8852 layer_factory.hpp:77] Creating layer relu3
I0403 12:24:01.229651  8852 net.cpp:91] Creating Layer relu3
I0403 12:24:01.229667  8852 net.cpp:425] relu3 <- conv3
I0403 12:24:01.229691  8852 net.cpp:386] relu3 -> conv3 (in-place)
I0403 12:24:01.229959  8852 net.cpp:141] Setting up relu3
I0403 12:24:01.229984  8852 net.cpp:148] Top shape: 100 384 13 13 (6489600)
I0403 12:24:01.230000  8852 net.cpp:156] Memory required for data: 731481200
I0403 12:24:01.230013  8852 layer_factory.hpp:77] Creating layer conv4
I0403 12:24:01.230041  8852 net.cpp:91] Creating Layer conv4
I0403 12:24:01.230057  8852 net.cpp:425] conv4 <- conv3
I0403 12:24:01.230078  8852 net.cpp:399] conv4 -> conv4
I0403 12:24:01.260753  8852 net.cpp:141] Setting up conv4
I0403 12:24:01.260825  8852 net.cpp:148] Top shape: 100 384 13 13 (6489600)
I0403 12:24:01.260874  8852 net.cpp:156] Memory required for data: 757439600
I0403 12:24:01.260896  8852 layer_factory.hpp:77] Creating layer relu4
I0403 12:24:01.260920  8852 net.cpp:91] Creating Layer relu4
I0403 12:24:01.260937  8852 net.cpp:425] relu4 <- conv4
I0403 12:24:01.260959  8852 net.cpp:386] relu4 -> conv4 (in-place)
I0403 12:24:01.261242  8852 net.cpp:141] Setting up relu4
I0403 12:24:01.261315  8852 net.cpp:148] Top shape: 100 384 13 13 (6489600)
I0403 12:24:01.261339  8852 net.cpp:156] Memory required for data: 783398000
I0403 12:24:01.261355  8852 layer_factory.hpp:77] Creating layer conv5
I0403 12:24:01.261382  8852 net.cpp:91] Creating Layer conv5
I0403 12:24:01.261401  8852 net.cpp:425] conv5 <- conv4
I0403 12:24:01.261420  8852 net.cpp:399] conv5 -> conv5
I0403 12:24:01.282445  8852 net.cpp:141] Setting up conv5
I0403 12:24:01.282505  8852 net.cpp:148] Top shape: 100 256 13 13 (4326400)
I0403 12:24:01.282522  8852 net.cpp:156] Memory required for data: 800703600
I0403 12:24:01.282552  8852 layer_factory.hpp:77] Creating layer relu5
I0403 12:24:01.282575  8852 net.cpp:91] Creating Layer relu5
I0403 12:24:01.282601  8852 net.cpp:425] relu5 <- conv5
I0403 12:24:01.282623  8852 net.cpp:386] relu5 -> conv5 (in-place)
I0403 12:24:01.282907  8852 net.cpp:141] Setting up relu5
I0403 12:24:01.282934  8852 net.cpp:148] Top shape: 100 256 13 13 (4326400)
I0403 12:24:01.282949  8852 net.cpp:156] Memory required for data: 818009200
I0403 12:24:01.282964  8852 layer_factory.hpp:77] Creating layer pool5
I0403 12:24:01.282989  8852 net.cpp:91] Creating Layer pool5
I0403 12:24:01.283005  8852 net.cpp:425] pool5 <- conv5
I0403 12:24:01.283023  8852 net.cpp:399] pool5 -> pool5
I0403 12:24:01.283088  8852 net.cpp:141] Setting up pool5
I0403 12:24:01.283113  8852 net.cpp:148] Top shape: 100 256 6 6 (921600)
I0403 12:24:01.283128  8852 net.cpp:156] Memory required for data: 821695600
I0403 12:24:01.283141  8852 layer_factory.hpp:77] Creating layer fc6
I0403 12:24:01.283167  8852 net.cpp:91] Creating Layer fc6
I0403 12:24:01.283185  8852 net.cpp:425] fc6 <- pool5
I0403 12:24:01.283205  8852 net.cpp:399] fc6 -> fc6
I0403 12:24:02.844261  8852 net.cpp:141] Setting up fc6
I0403 12:24:02.844334  8852 net.cpp:148] Top shape: 100 4096 (409600)
I0403 12:24:02.844350  8852 net.cpp:156] Memory required for data: 823334000
I0403 12:24:02.844370  8852 layer_factory.hpp:77] Creating layer relu6
I0403 12:24:02.844394  8852 net.cpp:91] Creating Layer relu6
I0403 12:24:02.844413  8852 net.cpp:425] relu6 <- fc6
I0403 12:24:02.844431  8852 net.cpp:386] relu6 -> fc6 (in-place)
I0403 12:24:02.844666  8852 net.cpp:141] Setting up relu6
I0403 12:24:02.844692  8852 net.cpp:148] Top shape: 100 4096 (409600)
I0403 12:24:02.844705  8852 net.cpp:156] Memory required for data: 824972400
I0403 12:24:02.844719  8852 layer_factory.hpp:77] Creating layer drop6
I0403 12:24:02.844738  8852 net.cpp:91] Creating Layer drop6
I0403 12:24:02.844753  8852 net.cpp:425] drop6 <- fc6
I0403 12:24:02.844774  8852 net.cpp:386] drop6 -> fc6 (in-place)
I0403 12:24:02.844823  8852 net.cpp:141] Setting up drop6
I0403 12:24:02.844848  8852 net.cpp:148] Top shape: 100 4096 (409600)
I0403 12:24:02.844864  8852 net.cpp:156] Memory required for data: 826610800
I0403 12:24:02.844878  8852 layer_factory.hpp:77] Creating layer fc7
I0403 12:24:02.844897  8852 net.cpp:91] Creating Layer fc7
I0403 12:24:02.844913  8852 net.cpp:425] fc7 <- fc6
I0403 12:24:02.844931  8852 net.cpp:399] fc7 -> fc7
I0403 12:24:03.529167  8852 net.cpp:141] Setting up fc7
I0403 12:24:03.529245  8852 net.cpp:148] Top shape: 100 4096 (409600)
I0403 12:24:03.529261  8852 net.cpp:156] Memory required for data: 828249200
I0403 12:24:03.529283  8852 layer_factory.hpp:77] Creating layer relu7
I0403 12:24:03.529304  8852 net.cpp:91] Creating Layer relu7
I0403 12:24:03.529320  8852 net.cpp:425] relu7 <- fc7
I0403 12:24:03.529342  8852 net.cpp:386] relu7 -> fc7 (in-place)
I0403 12:24:03.529755  8852 net.cpp:141] Setting up relu7
I0403 12:24:03.529781  8852 net.cpp:148] Top shape: 100 4096 (409600)
I0403 12:24:03.529836  8852 net.cpp:156] Memory required for data: 829887600
I0403 12:24:03.529852  8852 layer_factory.hpp:77] Creating layer drop7
I0403 12:24:03.529870  8852 net.cpp:91] Creating Layer drop7
I0403 12:24:03.529886  8852 net.cpp:425] drop7 <- fc7
I0403 12:24:03.529906  8852 net.cpp:386] drop7 -> fc7 (in-place)
I0403 12:24:03.529948  8852 net.cpp:141] Setting up drop7
I0403 12:24:03.529970  8852 net.cpp:148] Top shape: 100 4096 (409600)
I0403 12:24:03.529985  8852 net.cpp:156] Memory required for data: 831526000
I0403 12:24:03.529999  8852 layer_factory.hpp:77] Creating layer fc8_plantvillage
I0403 12:24:03.530021  8852 net.cpp:91] Creating Layer fc8_plantvillage
I0403 12:24:03.530037  8852 net.cpp:425] fc8_plantvillage <- fc7
I0403 12:24:03.530056  8852 net.cpp:399] fc8_plantvillage -> fc8_plantvillage
I0403 12:24:03.536769  8852 net.cpp:141] Setting up fc8_plantvillage
I0403 12:24:03.536798  8852 net.cpp:148] Top shape: 100 38 (3800)
I0403 12:24:03.536813  8852 net.cpp:156] Memory required for data: 831541200
I0403 12:24:03.536830  8852 layer_factory.hpp:77] Creating layer fc8_plantvillage_fc8_plantvillage_0_split
I0403 12:24:03.536849  8852 net.cpp:91] Creating Layer fc8_plantvillage_fc8_plantvillage_0_split
I0403 12:24:03.536864  8852 net.cpp:425] fc8_plantvillage_fc8_plantvillage_0_split <- fc8_plantvillage
I0403 12:24:03.536881  8852 net.cpp:399] fc8_plantvillage_fc8_plantvillage_0_split -> fc8_plantvillage_fc8_plantvillage_0_split_0
I0403 12:24:03.536902  8852 net.cpp:399] fc8_plantvillage_fc8_plantvillage_0_split -> fc8_plantvillage_fc8_plantvillage_0_split_1
I0403 12:24:03.536921  8852 net.cpp:399] fc8_plantvillage_fc8_plantvillage_0_split -> fc8_plantvillage_fc8_plantvillage_0_split_2
I0403 12:24:03.536998  8852 net.cpp:141] Setting up fc8_plantvillage_fc8_plantvillage_0_split
I0403 12:24:03.537021  8852 net.cpp:148] Top shape: 100 38 (3800)
I0403 12:24:03.537037  8852 net.cpp:148] Top shape: 100 38 (3800)
I0403 12:24:03.537053  8852 net.cpp:148] Top shape: 100 38 (3800)
I0403 12:24:03.537066  8852 net.cpp:156] Memory required for data: 831586800
I0403 12:24:03.537081  8852 layer_factory.hpp:77] Creating layer prob
I0403 12:24:03.537098  8852 net.cpp:91] Creating Layer prob
I0403 12:24:03.537113  8852 net.cpp:425] prob <- fc8_plantvillage_fc8_plantvillage_0_split_0
I0403 12:24:03.537132  8852 net.cpp:399] prob -> prob
I0403 12:24:03.537358  8852 net.cpp:141] Setting up prob
I0403 12:24:03.537384  8852 net.cpp:148] Top shape: 100 38 (3800)
I0403 12:24:03.537400  8852 net.cpp:156] Memory required for data: 831602000
I0403 12:24:03.537415  8852 layer_factory.hpp:77] Creating layer hdf5out
I0403 12:24:03.537433  8852 net.cpp:91] Creating Layer hdf5out
I0403 12:24:03.537448  8852 net.cpp:425] hdf5out <- prob
I0403 12:24:03.537463  8852 net.cpp:425] hdf5out <- label_data_1_split_0
I0403 12:24:03.812685  8852 net.cpp:141] Setting up hdf5out
…
