…
I0403 12:10:57.371788  8548 net.cpp:313] The NetState phase (1) differed from the phase (0) specified by a rule in layer data
I0403 12:10:57.372093  8548 net.cpp:49] Initializing net from parameters: 
state {
  phase: TEST
}
layer {
  name: "data"
  type: "Data"
  top: "data"
  top: "label"
  include {
    phase: TEST
  }
  transform_param {
    crop_size: 227
    mean_file: "/home/mohanty/data/final_dataset/lmdb/grayscale-20-80/mean.binaryproto"
  }
  data_param {
    source: "/home/mohanty/data/final_dataset/lmdb/grayscale-20-80/test_db"
    batch_size: 100
    backend: LMDB
  }
}
layer {
  name: "conv1"
  type: "Convolution"
  bottom: "data"
  top: "conv1"
  param {
    lr_mult: 1
    decay_mult: 1
  }
  param {
    lr_mult: 2
    decay_mult: 0
  }
  convolution_param {
    num_output: 96
    kernel_size: 11
    stride: 4
    weight_filler {
      type: "gaussian"
      std: 0.01
    }
    bias_filler {
      type: "constant"
      value: 0
    }
  }
}
layer {
  name: "relu1"
  type: "ReLU"
  bottom: "conv1"
  top: "conv1"
}
layer {
  name: "norm1"
  type: "LRN"
  bottom: "conv1"
  top: "norm1"
  lrn_param {
    local_size: 5
    alpha: 0.0001
    beta: 0.75
  }
}
layer {
  name: "pool1"
  type: "Pooling"
  bottom: "norm1"
  top: "pool1"
  pooling_param {
    pool: MAX
    kernel_size: 3
    stride: 2
  }
}
layer {
  name: "conv2"
  type: "Convolution"
  bottom: "pool1"
  top: "conv2"
  param {
    lr_mult: 1
    decay_mult: 1
  }
  param {
    lr_mult: 2
    decay_mult: 0
  }
  convolution_param {
    num_output: 256
    pad: 2
    kernel_size: 5
    group: 2
    weight_filler {
      type: "gaussian"
      std: 0.01
    }
    bias_filler {
      type: "constant"
      value: 0.1
    }
  }
}
layer {
  name: "relu2"
  type: "ReLU"
  bottom: "conv2"
  top: "conv2"
}
layer {
  name: "norm2"
  type: "LRN"
  bottom: "conv2"
  top: "norm2"
  lrn_param {
    local_size: 5
    alpha: 0.0001
    beta: 0.75
  }
}
layer {
  name: "pool2"
  type: "Pooling"
  bottom: "norm2"
  top: "pool2"
  pooling_param {
    pool: MAX
    kernel_size: 3
    stride: 2
  }
}
layer {
  name: "conv3"
  type: "Convolution"
  bottom: "pool2"
  top: "conv3"
  param {
    lr_mult: 1
    decay_mult: 1
  }
  param {
    lr_mult: 2
    decay_mult: 0
  }
  convolution_param {
    num_output: 384
    pad: 1
    kernel_size: 3
    weight_filler {
      type: "gaussian"
      std: 0.01
    }
    bias_filler {
      type: "constant"
      value: 0
    }
  }
}
layer {
  name: "relu3"
  type: "ReLU"
  bottom: "conv3"
  top: "conv3"
}
layer {
  name: "conv4"
  type: "Convolution"
  bottom: "conv3"
  top: "conv4"
  param {
    lr_mult: 1
    decay_mult: 1
  }
  param {
    lr_mult: 2
    decay_mult: 0
  }
  convolution_param {
    num_output: 384
    pad: 1
    kernel_size: 3
    group: 2
    weight_filler {
      type: "gaussian"
      std: 0.01
    }
    bias_filler {
      type: "constant"
      value: 0.1
    }
  }
}
layer {
  name: "relu4"
  type: "ReLU"
  bottom: "conv4"
  top: "conv4"
}
layer {
  name: "conv5"
  type: "Convolution"
  bottom: "conv4"
  top: "conv5"
  param {
    lr_mult: 1
    decay_mult: 1
  }
  param {
    lr_mult: 2
    decay_mult: 0
  }
  convolution_param {
    num_output: 256
    pad: 1
    kernel_size: 3
    group: 2
    weight_filler {
      type: "gaussian"
      std: 0.01
    }
    bias_filler {
      type: "constant"
      value: 0.1
    }
  }
}
layer {
  name: "relu5"
  type: "ReLU"
  bottom: "conv5"
  top: "conv5"
}
layer {
  name: "pool5"
  type: "Pooling"
  bottom: "conv5"
  top: "pool5"
  pooling_param {
    pool: MAX
    kernel_size: 3
    stride: 2
  }
}
layer {
  name: "fc6"
  type: "InnerProduct"
  bottom: "pool5"
  top: "fc6"
  param {
    lr_mult: 1
    decay_mult: 1
  }
  param {
    lr_mult: 2
    decay_mult: 0
  }
  inner_product_param {
    num_output: 4096
    weight_filler {
      type: "gaussian"
      std: 0.005
    }
    bias_filler {
      type: "constant"
      value: 0.1
    }
  }
}
layer {
  name: "relu6"
  type: "ReLU"
  bottom: "fc6"
  top: "fc6"
}
layer {
  name: "drop6"
  type: "Dropout"
  bottom: "fc6"
  top: "fc6"
  dropout_param {
    dropout_ratio: 0.5
  }
}
layer {
  name: "fc7"
  type: "InnerProduct"
  bottom: "fc6"
  top: "fc7"
  param {
    lr_mult: 1
    decay_mult: 1
  }
  param {
    lr_mult: 2
    decay_mult: 0
  }
  inner_product_param {
    num_output: 4096
    weight_filler {
      type: "gaussian"
      std: 0.005
    }
    bias_filler {
      type: "constant"
      value: 0.1
    }
  }
}
layer {
  name: "relu7"
  type: "ReLU"
  bottom: "fc7"
  top: "fc7"
}
layer {
  name: "drop7"
  type: "Dropout"
  bottom: "fc7"
  top: "fc7"
  dropout_param {
    dropout_ratio: 0.5
  }
}
layer {
  name: "fc8_plantvillage"
  type: "InnerProduct"
  bottom: "fc7"
  top: "fc8_plantvillage"
  param {
    lr_mult: 1
    decay_mult: 1
  }
  param {
    lr_mult: 2
    decay_mult: 0
  }
  inner_product_param {
    num_output: 38
    weight_filler {
      type: "gaussian"
      std: 0.01
    }
    bias_filler {
      type: "constant"
      value: 0
    }
  }
}
layer {
  name: "prob"
  type: "Softmax"
  bottom: "fc8_plantvillage"
  top: "prob"
  include {
    phase: TEST
  }
}
layer {
  name: "hdf5out"
  type: "HDF5Output"
  bottom: "prob"
  bottom: "label"
  include {
    phase: TEST
  }
  hdf5_output_param {
    file_name: "hdf5_dumps/iter_735.h5"
  }
}
layer {
  name: "loss"
  type: "SoftmaxWithLoss"
  bottom: "fc8_plantvillage"
  bottom: "label"
  top: "loss"
}
layer {
  name: "accuracy"
  type: "Accuracy"
  bottom: "fc8_plantvillage"
  bottom: "label"
  top: "accuracy"
  include {
    phase: TEST
  }
}
I0403 12:10:57.372689  8548 layer_factory.hpp:77] Creating layer data
I0403 12:10:57.373329  8548 net.cpp:91] Creating Layer data
I0403 12:10:57.373361  8548 net.cpp:399] data -> data
I0403 12:10:57.373412  8548 net.cpp:399] data -> label
I0403 12:10:57.373448  8548 data_transformer.cpp:25] Loading mean file from: /home/mohanty/data/final_dataset/lmdb/grayscale-20-80/mean.binaryproto
I0403 12:10:57.376323  8551 db_lmdb.cpp:38] Opened lmdb /home/mohanty/data/final_dataset/lmdb/grayscale-20-80/test_db
I0403 12:10:57.387603  8548 data_layer.cpp:41] output data size: 100,3,227,227
I0403 12:10:57.506661  8548 net.cpp:141] Setting up data
I0403 12:10:57.506755  8548 net.cpp:148] Top shape: 100 3 227 227 (15458700)
I0403 12:10:57.506779  8548 net.cpp:148] Top shape: 100 (100)
I0403 12:10:57.506795  8548 net.cpp:156] Memory required for data: 61835200
I0403 12:10:57.506824  8548 layer_factory.hpp:77] Creating layer label_data_1_split
I0403 12:10:57.506851  8548 net.cpp:91] Creating Layer label_data_1_split
I0403 12:10:57.506870  8548 net.cpp:425] label_data_1_split <- label
I0403 12:10:57.506903  8548 net.cpp:399] label_data_1_split -> label_data_1_split_0
I0403 12:10:57.506932  8548 net.cpp:399] label_data_1_split -> label_data_1_split_1
I0403 12:10:57.506953  8548 net.cpp:399] label_data_1_split -> label_data_1_split_2
I0403 12:10:57.507017  8548 net.cpp:141] Setting up label_data_1_split
I0403 12:10:57.507041  8548 net.cpp:148] Top shape: 100 (100)
I0403 12:10:57.507060  8548 net.cpp:148] Top shape: 100 (100)
I0403 12:10:57.507077  8548 net.cpp:148] Top shape: 100 (100)
I0403 12:10:57.507093  8548 net.cpp:156] Memory required for data: 61836400
I0403 12:10:57.507107  8548 layer_factory.hpp:77] Creating layer conv1
I0403 12:10:57.507139  8548 net.cpp:91] Creating Layer conv1
I0403 12:10:57.507160  8548 net.cpp:425] conv1 <- data
I0403 12:10:57.507180  8548 net.cpp:399] conv1 -> conv1
I0403 12:10:57.644929  8548 net.cpp:141] Setting up conv1
I0403 12:10:57.645007  8548 net.cpp:148] Top shape: 100 96 55 55 (29040000)
I0403 12:10:57.645025  8548 net.cpp:156] Memory required for data: 177996400
I0403 12:10:57.645056  8548 layer_factory.hpp:77] Creating layer relu1
I0403 12:10:57.645084  8548 net.cpp:91] Creating Layer relu1
I0403 12:10:57.645102  8548 net.cpp:425] relu1 <- conv1
I0403 12:10:57.645122  8548 net.cpp:386] relu1 -> conv1 (in-place)
I0403 12:10:57.645381  8548 net.cpp:141] Setting up relu1
I0403 12:10:57.645408  8548 net.cpp:148] Top shape: 100 96 55 55 (29040000)
I0403 12:10:57.645459  8548 net.cpp:156] Memory required for data: 294156400
I0403 12:10:57.645476  8548 layer_factory.hpp:77] Creating layer norm1
I0403 12:10:57.645503  8548 net.cpp:91] Creating Layer norm1
I0403 12:10:57.645525  8548 net.cpp:425] norm1 <- conv1
I0403 12:10:57.645545  8548 net.cpp:399] norm1 -> norm1
I0403 12:10:57.645862  8548 net.cpp:141] Setting up norm1
I0403 12:10:57.645890  8548 net.cpp:148] Top shape: 100 96 55 55 (29040000)
I0403 12:10:57.645906  8548 net.cpp:156] Memory required for data: 410316400
I0403 12:10:57.645921  8548 layer_factory.hpp:77] Creating layer pool1
I0403 12:10:57.645944  8548 net.cpp:91] Creating Layer pool1
I0403 12:10:57.645961  8548 net.cpp:425] pool1 <- norm1
I0403 12:10:57.645978  8548 net.cpp:399] pool1 -> pool1
I0403 12:10:57.646044  8548 net.cpp:141] Setting up pool1
I0403 12:10:57.646069  8548 net.cpp:148] Top shape: 100 96 27 27 (6998400)
I0403 12:10:57.646083  8548 net.cpp:156] Memory required for data: 438310000
I0403 12:10:57.646097  8548 layer_factory.hpp:77] Creating layer conv2
I0403 12:10:57.646122  8548 net.cpp:91] Creating Layer conv2
I0403 12:10:57.646138  8548 net.cpp:425] conv2 <- pool1
I0403 12:10:57.646157  8548 net.cpp:399] conv2 -> conv2
I0403 12:10:57.661020  8548 net.cpp:141] Setting up conv2
I0403 12:10:57.661067  8548 net.cpp:148] Top shape: 100 256 27 27 (18662400)
I0403 12:10:57.661085  8548 net.cpp:156] Memory required for data: 512959600
I0403 12:10:57.661109  8548 layer_factory.hpp:77] Creating layer relu2
I0403 12:10:57.661131  8548 net.cpp:91] Creating Layer relu2
I0403 12:10:57.661149  8548 net.cpp:425] relu2 <- conv2
I0403 12:10:57.661165  8548 net.cpp:386] relu2 -> conv2 (in-place)
I0403 12:10:57.661440  8548 net.cpp:141] Setting up relu2
I0403 12:10:57.661468  8548 net.cpp:148] Top shape: 100 256 27 27 (18662400)
I0403 12:10:57.661484  8548 net.cpp:156] Memory required for data: 587609200
I0403 12:10:57.661499  8548 layer_factory.hpp:77] Creating layer norm2
I0403 12:10:57.661525  8548 net.cpp:91] Creating Layer norm2
I0403 12:10:57.661551  8548 net.cpp:425] norm2 <- conv2
I0403 12:10:57.661569  8548 net.cpp:399] norm2 -> norm2
I0403 12:10:57.661757  8548 net.cpp:141] Setting up norm2
I0403 12:10:57.661783  8548 net.cpp:148] Top shape: 100 256 27 27 (18662400)
I0403 12:10:57.661798  8548 net.cpp:156] Memory required for data: 662258800
I0403 12:10:57.661813  8548 layer_factory.hpp:77] Creating layer pool2
I0403 12:10:57.661833  8548 net.cpp:91] Creating Layer pool2
I0403 12:10:57.661847  8548 net.cpp:425] pool2 <- norm2
I0403 12:10:57.661864  8548 net.cpp:399] pool2 -> pool2
I0403 12:10:57.661914  8548 net.cpp:141] Setting up pool2
I0403 12:10:57.661937  8548 net.cpp:148] Top shape: 100 256 13 13 (4326400)
I0403 12:10:57.661952  8548 net.cpp:156] Memory required for data: 679564400
I0403 12:10:57.661967  8548 layer_factory.hpp:77] Creating layer conv3
I0403 12:10:57.661989  8548 net.cpp:91] Creating Layer conv3
I0403 12:10:57.662005  8548 net.cpp:425] conv3 <- pool2
I0403 12:10:57.662024  8548 net.cpp:399] conv3 -> conv3
I0403 12:10:57.702728  8548 net.cpp:141] Setting up conv3
I0403 12:10:57.702805  8548 net.cpp:148] Top shape: 100 384 13 13 (6489600)
I0403 12:10:57.702823  8548 net.cpp:156] Memory required for data: 705522800
I0403 12:10:57.702850  8548 layer_factory.hpp:77] Creating layer relu3
I0403 12:10:57.702873  8548 net.cpp:91] Creating Layer relu3
I0403 12:10:57.702890  8548 net.cpp:425] relu3 <- conv3
I0403 12:10:57.702909  8548 net.cpp:386] relu3 -> conv3 (in-place)
I0403 12:10:57.703174  8548 net.cpp:141] Setting up relu3
I0403 12:10:57.703207  8548 net.cpp:148] Top shape: 100 384 13 13 (6489600)
I0403 12:10:57.703223  8548 net.cpp:156] Memory required for data: 731481200
I0403 12:10:57.703238  8548 layer_factory.hpp:77] Creating layer conv4
I0403 12:10:57.703263  8548 net.cpp:91] Creating Layer conv4
I0403 12:10:57.703280  8548 net.cpp:425] conv4 <- conv3
I0403 12:10:57.703304  8548 net.cpp:399] conv4 -> conv4
I0403 12:10:57.732926  8548 net.cpp:141] Setting up conv4
I0403 12:10:57.732996  8548 net.cpp:148] Top shape: 100 384 13 13 (6489600)
I0403 12:10:57.733060  8548 net.cpp:156] Memory required for data: 757439600
I0403 12:10:57.733083  8548 layer_factory.hpp:77] Creating layer relu4
I0403 12:10:57.733103  8548 net.cpp:91] Creating Layer relu4
I0403 12:10:57.733120  8548 net.cpp:425] relu4 <- conv4
I0403 12:10:57.733141  8548 net.cpp:386] relu4 -> conv4 (in-place)
I0403 12:10:57.733412  8548 net.cpp:141] Setting up relu4
I0403 12:10:57.733440  8548 net.cpp:148] Top shape: 100 384 13 13 (6489600)
I0403 12:10:57.733458  8548 net.cpp:156] Memory required for data: 783398000
I0403 12:10:57.733472  8548 layer_factory.hpp:77] Creating layer conv5
I0403 12:10:57.733497  8548 net.cpp:91] Creating Layer conv5
I0403 12:10:57.733521  8548 net.cpp:425] conv5 <- conv4
I0403 12:10:57.733546  8548 net.cpp:399] conv5 -> conv5
I0403 12:10:57.754004  8548 net.cpp:141] Setting up conv5
I0403 12:10:57.754055  8548 net.cpp:148] Top shape: 100 256 13 13 (4326400)
I0403 12:10:57.754072  8548 net.cpp:156] Memory required for data: 800703600
I0403 12:10:57.754097  8548 layer_factory.hpp:77] Creating layer relu5
I0403 12:10:57.754119  8548 net.cpp:91] Creating Layer relu5
I0403 12:10:57.754135  8548 net.cpp:425] relu5 <- conv5
I0403 12:10:57.754155  8548 net.cpp:386] relu5 -> conv5 (in-place)
I0403 12:10:57.754441  8548 net.cpp:141] Setting up relu5
I0403 12:10:57.754468  8548 net.cpp:148] Top shape: 100 256 13 13 (4326400)
I0403 12:10:57.754483  8548 net.cpp:156] Memory required for data: 818009200
I0403 12:10:57.754498  8548 layer_factory.hpp:77] Creating layer pool5
I0403 12:10:57.754535  8548 net.cpp:91] Creating Layer pool5
I0403 12:10:57.754555  8548 net.cpp:425] pool5 <- conv5
I0403 12:10:57.754573  8548 net.cpp:399] pool5 -> pool5
I0403 12:10:57.754638  8548 net.cpp:141] Setting up pool5
I0403 12:10:57.754663  8548 net.cpp:148] Top shape: 100 256 6 6 (921600)
I0403 12:10:57.754679  8548 net.cpp:156] Memory required for data: 821695600
I0403 12:10:57.754694  8548 layer_factory.hpp:77] Creating layer fc6
I0403 12:10:57.754725  8548 net.cpp:91] Creating Layer fc6
I0403 12:10:57.754745  8548 net.cpp:425] fc6 <- pool5
I0403 12:10:57.754762  8548 net.cpp:399] fc6 -> fc6
I0403 12:10:59.307518  8548 net.cpp:141] Setting up fc6
I0403 12:10:59.307560  8548 net.cpp:148] Top shape: 100 4096 (409600)
I0403 12:10:59.307577  8548 net.cpp:156] Memory required for data: 823334000
I0403 12:10:59.307598  8548 layer_factory.hpp:77] Creating layer relu6
I0403 12:10:59.307621  8548 net.cpp:91] Creating Layer relu6
I0403 12:10:59.307638  8548 net.cpp:425] relu6 <- fc6
I0403 12:10:59.307659  8548 net.cpp:386] relu6 -> fc6 (in-place)
I0403 12:10:59.307876  8548 net.cpp:141] Setting up relu6
I0403 12:10:59.307903  8548 net.cpp:148] Top shape: 100 4096 (409600)
I0403 12:10:59.307916  8548 net.cpp:156] Memory required for data: 824972400
I0403 12:10:59.307930  8548 layer_factory.hpp:77] Creating layer drop6
I0403 12:10:59.307948  8548 net.cpp:91] Creating Layer drop6
I0403 12:10:59.307963  8548 net.cpp:425] drop6 <- fc6
I0403 12:10:59.307984  8548 net.cpp:386] drop6 -> fc6 (in-place)
I0403 12:10:59.308037  8548 net.cpp:141] Setting up drop6
I0403 12:10:59.308061  8548 net.cpp:148] Top shape: 100 4096 (409600)
I0403 12:10:59.308076  8548 net.cpp:156] Memory required for data: 826610800
I0403 12:10:59.308091  8548 layer_factory.hpp:77] Creating layer fc7
I0403 12:10:59.308110  8548 net.cpp:91] Creating Layer fc7
I0403 12:10:59.308125  8548 net.cpp:425] fc7 <- fc6
I0403 12:10:59.308145  8548 net.cpp:399] fc7 -> fc7
I0403 12:10:59.992660  8548 net.cpp:141] Setting up fc7
I0403 12:10:59.992736  8548 net.cpp:148] Top shape: 100 4096 (409600)
I0403 12:10:59.992753  8548 net.cpp:156] Memory required for data: 828249200
I0403 12:10:59.992774  8548 layer_factory.hpp:77] Creating layer relu7
I0403 12:10:59.992795  8548 net.cpp:91] Creating Layer relu7
I0403 12:10:59.992812  8548 net.cpp:425] relu7 <- fc7
I0403 12:10:59.992835  8548 net.cpp:386] relu7 -> fc7 (in-place)
I0403 12:10:59.993234  8548 net.cpp:141] Setting up relu7
I0403 12:10:59.993260  8548 net.cpp:148] Top shape: 100 4096 (409600)
I0403 12:10:59.993314  8548 net.cpp:156] Memory required for data: 829887600
I0403 12:10:59.993330  8548 layer_factory.hpp:77] Creating layer drop7
I0403 12:10:59.993350  8548 net.cpp:91] Creating Layer drop7
I0403 12:10:59.993365  8548 net.cpp:425] drop7 <- fc7
I0403 12:10:59.993383  8548 net.cpp:386] drop7 -> fc7 (in-place)
I0403 12:10:59.993427  8548 net.cpp:141] Setting up drop7
I0403 12:10:59.993450  8548 net.cpp:148] Top shape: 100 4096 (409600)
I0403 12:10:59.993465  8548 net.cpp:156] Memory required for data: 831526000
I0403 12:10:59.993479  8548 layer_factory.hpp:77] Creating layer fc8_plantvillage
I0403 12:10:59.993497  8548 net.cpp:91] Creating Layer fc8_plantvillage
I0403 12:10:59.993520  8548 net.cpp:425] fc8_plantvillage <- fc7
I0403 12:10:59.993541  8548 net.cpp:399] fc8_plantvillage -> fc8_plantvillage
I0403 12:11:00.000275  8548 net.cpp:141] Setting up fc8_plantvillage
I0403 12:11:00.000305  8548 net.cpp:148] Top shape: 100 38 (3800)
I0403 12:11:00.000322  8548 net.cpp:156] Memory required for data: 831541200
I0403 12:11:00.000344  8548 layer_factory.hpp:77] Creating layer fc8_plantvillage_fc8_plantvillage_0_split
I0403 12:11:00.000362  8548 net.cpp:91] Creating Layer fc8_plantvillage_fc8_plantvillage_0_split
I0403 12:11:00.000378  8548 net.cpp:425] fc8_plantvillage_fc8_plantvillage_0_split <- fc8_plantvillage
I0403 12:11:00.000398  8548 net.cpp:399] fc8_plantvillage_fc8_plantvillage_0_split -> fc8_plantvillage_fc8_plantvillage_0_split_0
I0403 12:11:00.000419  8548 net.cpp:399] fc8_plantvillage_fc8_plantvillage_0_split -> fc8_plantvillage_fc8_plantvillage_0_split_1
I0403 12:11:00.000440  8548 net.cpp:399] fc8_plantvillage_fc8_plantvillage_0_split -> fc8_plantvillage_fc8_plantvillage_0_split_2
I0403 12:11:00.000524  8548 net.cpp:141] Setting up fc8_plantvillage_fc8_plantvillage_0_split
I0403 12:11:00.000557  8548 net.cpp:148] Top shape: 100 38 (3800)
I0403 12:11:00.000572  8548 net.cpp:148] Top shape: 100 38 (3800)
I0403 12:11:00.000587  8548 net.cpp:148] Top shape: 100 38 (3800)
I0403 12:11:00.000600  8548 net.cpp:156] Memory required for data: 831586800
I0403 12:11:00.000614  8548 layer_factory.hpp:77] Creating layer prob
I0403 12:11:00.000633  8548 net.cpp:91] Creating Layer prob
I0403 12:11:00.000648  8548 net.cpp:425] prob <- fc8_plantvillage_fc8_plantvillage_0_split_0
I0403 12:11:00.000669  8548 net.cpp:399] prob -> prob
I0403 12:11:00.000898  8548 net.cpp:141] Setting up prob
I0403 12:11:00.000924  8548 net.cpp:148] Top shape: 100 38 (3800)
I0403 12:11:00.000939  8548 net.cpp:156] Memory required for data: 831602000
I0403 12:11:00.000953  8548 layer_factory.hpp:77] Creating layer hdf5out
I0403 12:11:00.000972  8548 net.cpp:91] Creating Layer hdf5out
I0403 12:11:00.000987  8548 net.cpp:425] hdf5out <- prob
I0403 12:11:00.001001  8548 net.cpp:425] hdf5out <- label_data_1_split_0
I0403 12:11:00.003288  8548 net.cpp:141] Setting up hdf5out
…
