…
I0403 12:09:30.435477  8515 net.cpp:313] The NetState phase (1) differed from the phase (0) specified by a rule in layer data
I0403 12:09:30.435798  8515 net.cpp:49] Initializing net from parameters: 
state {
  phase: TEST
}
layer {
  name: "data"
  type: "Data"
  top: "data"
  top: "label"
  include {
    phase: TEST
  }
  transform_param {
    crop_size: 227
    mean_file: "/home/mohanty/data/final_dataset/lmdb/grayscale-20-80/mean.binaryproto"
  }
  data_param {
    source: "/home/mohanty/data/final_dataset/lmdb/grayscale-20-80/test_db"
    batch_size: 100
    backend: LMDB
  }
}
layer {
  name: "conv1"
  type: "Convolution"
  bottom: "data"
  top: "conv1"
  param {
    lr_mult: 1
    decay_mult: 1
  }
  param {
    lr_mult: 2
    decay_mult: 0
  }
  convolution_param {
    num_output: 96
    kernel_size: 11
    stride: 4
    weight_filler {
      type: "gaussian"
      std: 0.01
    }
    bias_filler {
      type: "constant"
      value: 0
    }
  }
}
layer {
  name: "relu1"
  type: "ReLU"
  bottom: "conv1"
  top: "conv1"
}
layer {
  name: "norm1"
  type: "LRN"
  bottom: "conv1"
  top: "norm1"
  lrn_param {
    local_size: 5
    alpha: 0.0001
    beta: 0.75
  }
}
layer {
  name: "pool1"
  type: "Pooling"
  bottom: "norm1"
  top: "pool1"
  pooling_param {
    pool: MAX
    kernel_size: 3
    stride: 2
  }
}
layer {
  name: "conv2"
  type: "Convolution"
  bottom: "pool1"
  top: "conv2"
  param {
    lr_mult: 1
    decay_mult: 1
  }
  param {
    lr_mult: 2
    decay_mult: 0
  }
  convolution_param {
    num_output: 256
    pad: 2
    kernel_size: 5
    group: 2
    weight_filler {
      type: "gaussian"
      std: 0.01
    }
    bias_filler {
      type: "constant"
      value: 0.1
    }
  }
}
layer {
  name: "relu2"
  type: "ReLU"
  bottom: "conv2"
  top: "conv2"
}
layer {
  name: "norm2"
  type: "LRN"
  bottom: "conv2"
  top: "norm2"
  lrn_param {
    local_size: 5
    alpha: 0.0001
    beta: 0.75
  }
}
layer {
  name: "pool2"
  type: "Pooling"
  bottom: "norm2"
  top: "pool2"
  pooling_param {
    pool: MAX
    kernel_size: 3
    stride: 2
  }
}
layer {
  name: "conv3"
  type: "Convolution"
  bottom: "pool2"
  top: "conv3"
  param {
    lr_mult: 1
    decay_mult: 1
  }
  param {
    lr_mult: 2
    decay_mult: 0
  }
  convolution_param {
    num_output: 384
    pad: 1
    kernel_size: 3
    weight_filler {
      type: "gaussian"
      std: 0.01
    }
    bias_filler {
      type: "constant"
      value: 0
    }
  }
}
layer {
  name: "relu3"
  type: "ReLU"
  bottom: "conv3"
  top: "conv3"
}
layer {
  name: "conv4"
  type: "Convolution"
  bottom: "conv3"
  top: "conv4"
  param {
    lr_mult: 1
    decay_mult: 1
  }
  param {
    lr_mult: 2
    decay_mult: 0
  }
  convolution_param {
    num_output: 384
    pad: 1
    kernel_size: 3
    group: 2
    weight_filler {
      type: "gaussian"
      std: 0.01
    }
    bias_filler {
      type: "constant"
      value: 0.1
    }
  }
}
layer {
  name: "relu4"
  type: "ReLU"
  bottom: "conv4"
  top: "conv4"
}
layer {
  name: "conv5"
  type: "Convolution"
  bottom: "conv4"
  top: "conv5"
  param {
    lr_mult: 1
    decay_mult: 1
  }
  param {
    lr_mult: 2
    decay_mult: 0
  }
  convolution_param {
    num_output: 256
    pad: 1
    kernel_size: 3
    group: 2
    weight_filler {
      type: "gaussian"
      std: 0.01
    }
    bias_filler {
      type: "constant"
      value: 0.1
    }
  }
}
layer {
  name: "relu5"
  type: "ReLU"
  bottom: "conv5"
  top: "conv5"
}
layer {
  name: "pool5"
  type: "Pooling"
  bottom: "conv5"
  top: "pool5"
  pooling_param {
    pool: MAX
    kernel_size: 3
    stride: 2
  }
}
layer {
  name: "fc6"
  type: "InnerProduct"
  bottom: "pool5"
  top: "fc6"
  param {
    lr_mult: 1
    decay_mult: 1
  }
  param {
    lr_mult: 2
    decay_mult: 0
  }
  inner_product_param {
    num_output: 4096
    weight_filler {
      type: "gaussian"
      std: 0.005
    }
    bias_filler {
      type: "constant"
      value: 0.1
    }
  }
}
layer {
  name: "relu6"
  type: "ReLU"
  bottom: "fc6"
  top: "fc6"
}
layer {
  name: "drop6"
  type: "Dropout"
  bottom: "fc6"
  top: "fc6"
  dropout_param {
    dropout_ratio: 0.5
  }
}
layer {
  name: "fc7"
  type: "InnerProduct"
  bottom: "fc6"
  top: "fc7"
  param {
    lr_mult: 1
    decay_mult: 1
  }
  param {
    lr_mult: 2
    decay_mult: 0
  }
  inner_product_param {
    num_output: 4096
    weight_filler {
      type: "gaussian"
      std: 0.005
    }
    bias_filler {
      type: "constant"
      value: 0.1
    }
  }
}
layer {
  name: "relu7"
  type: "ReLU"
  bottom: "fc7"
  top: "fc7"
}
layer {
  name: "drop7"
  type: "Dropout"
  bottom: "fc7"
  top: "fc7"
  dropout_param {
    dropout_ratio: 0.5
  }
}
layer {
  name: "fc8_plantvillage"
  type: "InnerProduct"
  bottom: "fc7"
  top: "fc8_plantvillage"
  param {
    lr_mult: 1
    decay_mult: 1
  }
  param {
    lr_mult: 2
    decay_mult: 0
  }
  inner_product_param {
    num_output: 38
    weight_filler {
      type: "gaussian"
      std: 0.01
    }
    bias_filler {
      type: "constant"
      value: 0
    }
  }
}
layer {
  name: "prob"
  type: "Softmax"
  bottom: "fc8_plantvillage"
  top: "prob"
  include {
    phase: TEST
  }
}
layer {
  name: "hdf5out"
  type: "HDF5Output"
  bottom: "prob"
  bottom: "label"
  include {
    phase: TEST
  }
  hdf5_output_param {
    file_name: "hdf5_dumps/iter_630.h5"
  }
}
layer {
  name: "loss"
  type: "SoftmaxWithLoss"
  bottom: "fc8_plantvillage"
  bottom: "label"
  top: "loss"
}
layer {
  name: "accuracy"
  type: "Accuracy"
  bottom: "fc8_plantvillage"
  bottom: "label"
  top: "accuracy"
  include {
    phase: TEST
  }
}
I0403 12:09:30.436352  8515 layer_factory.hpp:77] Creating layer data
I0403 12:09:30.436995  8515 net.cpp:91] Creating Layer data
I0403 12:09:30.437026  8515 net.cpp:399] data -> data
I0403 12:09:30.437073  8515 net.cpp:399] data -> label
I0403 12:09:30.437111  8515 data_transformer.cpp:25] Loading mean file from: /home/mohanty/data/final_dataset/lmdb/grayscale-20-80/mean.binaryproto
I0403 12:09:30.440332  8520 db_lmdb.cpp:38] Opened lmdb /home/mohanty/data/final_dataset/lmdb/grayscale-20-80/test_db
I0403 12:09:30.452265  8515 data_layer.cpp:41] output data size: 100,3,227,227
I0403 12:09:30.571419  8515 net.cpp:141] Setting up data
I0403 12:09:30.571504  8515 net.cpp:148] Top shape: 100 3 227 227 (15458700)
I0403 12:09:30.571527  8515 net.cpp:148] Top shape: 100 (100)
I0403 12:09:30.571544  8515 net.cpp:156] Memory required for data: 61835200
I0403 12:09:30.571573  8515 layer_factory.hpp:77] Creating layer label_data_1_split
I0403 12:09:30.571599  8515 net.cpp:91] Creating Layer label_data_1_split
I0403 12:09:30.571615  8515 net.cpp:425] label_data_1_split <- label
I0403 12:09:30.571646  8515 net.cpp:399] label_data_1_split -> label_data_1_split_0
I0403 12:09:30.571672  8515 net.cpp:399] label_data_1_split -> label_data_1_split_1
I0403 12:09:30.571691  8515 net.cpp:399] label_data_1_split -> label_data_1_split_2
I0403 12:09:30.571751  8515 net.cpp:141] Setting up label_data_1_split
I0403 12:09:30.571774  8515 net.cpp:148] Top shape: 100 (100)
I0403 12:09:30.571789  8515 net.cpp:148] Top shape: 100 (100)
I0403 12:09:30.571805  8515 net.cpp:148] Top shape: 100 (100)
I0403 12:09:30.571818  8515 net.cpp:156] Memory required for data: 61836400
I0403 12:09:30.571832  8515 layer_factory.hpp:77] Creating layer conv1
I0403 12:09:30.571876  8515 net.cpp:91] Creating Layer conv1
I0403 12:09:30.571894  8515 net.cpp:425] conv1 <- data
I0403 12:09:30.571913  8515 net.cpp:399] conv1 -> conv1
I0403 12:09:30.709929  8515 net.cpp:141] Setting up conv1
I0403 12:09:30.710011  8515 net.cpp:148] Top shape: 100 96 55 55 (29040000)
I0403 12:09:30.710029  8515 net.cpp:156] Memory required for data: 177996400
I0403 12:09:30.710062  8515 layer_factory.hpp:77] Creating layer relu1
I0403 12:09:30.710089  8515 net.cpp:91] Creating Layer relu1
I0403 12:09:30.710108  8515 net.cpp:425] relu1 <- conv1
I0403 12:09:30.710126  8515 net.cpp:386] relu1 -> conv1 (in-place)
I0403 12:09:30.710398  8515 net.cpp:141] Setting up relu1
I0403 12:09:30.710427  8515 net.cpp:148] Top shape: 100 96 55 55 (29040000)
I0403 12:09:30.710477  8515 net.cpp:156] Memory required for data: 294156400
I0403 12:09:30.710494  8515 layer_factory.hpp:77] Creating layer norm1
I0403 12:09:30.710530  8515 net.cpp:91] Creating Layer norm1
I0403 12:09:30.710552  8515 net.cpp:425] norm1 <- conv1
I0403 12:09:30.710572  8515 net.cpp:399] norm1 -> norm1
I0403 12:09:30.710881  8515 net.cpp:141] Setting up norm1
I0403 12:09:30.710909  8515 net.cpp:148] Top shape: 100 96 55 55 (29040000)
I0403 12:09:30.710925  8515 net.cpp:156] Memory required for data: 410316400
I0403 12:09:30.710939  8515 layer_factory.hpp:77] Creating layer pool1
I0403 12:09:30.710961  8515 net.cpp:91] Creating Layer pool1
I0403 12:09:30.710978  8515 net.cpp:425] pool1 <- norm1
I0403 12:09:30.710995  8515 net.cpp:399] pool1 -> pool1
I0403 12:09:30.711063  8515 net.cpp:141] Setting up pool1
I0403 12:09:30.711086  8515 net.cpp:148] Top shape: 100 96 27 27 (6998400)
I0403 12:09:30.711102  8515 net.cpp:156] Memory required for data: 438310000
I0403 12:09:30.711117  8515 layer_factory.hpp:77] Creating layer conv2
I0403 12:09:30.711140  8515 net.cpp:91] Creating Layer conv2
I0403 12:09:30.711156  8515 net.cpp:425] conv2 <- pool1
I0403 12:09:30.711174  8515 net.cpp:399] conv2 -> conv2
I0403 12:09:30.726363  8515 net.cpp:141] Setting up conv2
I0403 12:09:30.726413  8515 net.cpp:148] Top shape: 100 256 27 27 (18662400)
I0403 12:09:30.726429  8515 net.cpp:156] Memory required for data: 512959600
I0403 12:09:30.726451  8515 layer_factory.hpp:77] Creating layer relu2
I0403 12:09:30.726472  8515 net.cpp:91] Creating Layer relu2
I0403 12:09:30.726490  8515 net.cpp:425] relu2 <- conv2
I0403 12:09:30.726506  8515 net.cpp:386] relu2 -> conv2 (in-place)
I0403 12:09:30.726781  8515 net.cpp:141] Setting up relu2
I0403 12:09:30.726817  8515 net.cpp:148] Top shape: 100 256 27 27 (18662400)
I0403 12:09:30.726833  8515 net.cpp:156] Memory required for data: 587609200
I0403 12:09:30.726848  8515 layer_factory.hpp:77] Creating layer norm2
I0403 12:09:30.726869  8515 net.cpp:91] Creating Layer norm2
I0403 12:09:30.726884  8515 net.cpp:425] norm2 <- conv2
I0403 12:09:30.726903  8515 net.cpp:399] norm2 -> norm2
I0403 12:09:30.727092  8515 net.cpp:141] Setting up norm2
I0403 12:09:30.727118  8515 net.cpp:148] Top shape: 100 256 27 27 (18662400)
I0403 12:09:30.727133  8515 net.cpp:156] Memory required for data: 662258800
I0403 12:09:30.727147  8515 layer_factory.hpp:77] Creating layer pool2
I0403 12:09:30.727165  8515 net.cpp:91] Creating Layer pool2
I0403 12:09:30.727181  8515 net.cpp:425] pool2 <- norm2
I0403 12:09:30.727200  8515 net.cpp:399] pool2 -> pool2
I0403 12:09:30.727251  8515 net.cpp:141] Setting up pool2
I0403 12:09:30.727273  8515 net.cpp:148] Top shape: 100 256 13 13 (4326400)
I0403 12:09:30.727288  8515 net.cpp:156] Memory required for data: 679564400
I0403 12:09:30.727303  8515 layer_factory.hpp:77] Creating layer conv3
I0403 12:09:30.727324  8515 net.cpp:91] Creating Layer conv3
I0403 12:09:30.727340  8515 net.cpp:425] conv3 <- pool2
I0403 12:09:30.727357  8515 net.cpp:399] conv3 -> conv3
I0403 12:09:30.769626  8515 net.cpp:141] Setting up conv3
I0403 12:09:30.769701  8515 net.cpp:148] Top shape: 100 384 13 13 (6489600)
I0403 12:09:30.769721  8515 net.cpp:156] Memory required for data: 705522800
I0403 12:09:30.769747  8515 layer_factory.hpp:77] Creating layer relu3
I0403 12:09:30.769769  8515 net.cpp:91] Creating Layer relu3
I0403 12:09:30.769785  8515 net.cpp:425] relu3 <- conv3
I0403 12:09:30.769805  8515 net.cpp:386] relu3 -> conv3 (in-place)
I0403 12:09:30.770084  8515 net.cpp:141] Setting up relu3
I0403 12:09:30.770112  8515 net.cpp:148] Top shape: 100 384 13 13 (6489600)
I0403 12:09:30.770126  8515 net.cpp:156] Memory required for data: 731481200
I0403 12:09:30.770141  8515 layer_factory.hpp:77] Creating layer conv4
I0403 12:09:30.770166  8515 net.cpp:91] Creating Layer conv4
I0403 12:09:30.770184  8515 net.cpp:425] conv4 <- conv3
I0403 12:09:30.770208  8515 net.cpp:399] conv4 -> conv4
I0403 12:09:30.800144  8515 net.cpp:141] Setting up conv4
I0403 12:09:30.800211  8515 net.cpp:148] Top shape: 100 384 13 13 (6489600)
I0403 12:09:30.800263  8515 net.cpp:156] Memory required for data: 757439600
I0403 12:09:30.800287  8515 layer_factory.hpp:77] Creating layer relu4
I0403 12:09:30.800310  8515 net.cpp:91] Creating Layer relu4
I0403 12:09:30.800328  8515 net.cpp:425] relu4 <- conv4
I0403 12:09:30.800349  8515 net.cpp:386] relu4 -> conv4 (in-place)
I0403 12:09:30.800637  8515 net.cpp:141] Setting up relu4
I0403 12:09:30.800663  8515 net.cpp:148] Top shape: 100 384 13 13 (6489600)
I0403 12:09:30.800678  8515 net.cpp:156] Memory required for data: 783398000
I0403 12:09:30.800693  8515 layer_factory.hpp:77] Creating layer conv5
I0403 12:09:30.800719  8515 net.cpp:91] Creating Layer conv5
I0403 12:09:30.800736  8515 net.cpp:425] conv5 <- conv4
I0403 12:09:30.800757  8515 net.cpp:399] conv5 -> conv5
I0403 12:09:30.821341  8515 net.cpp:141] Setting up conv5
I0403 12:09:30.821398  8515 net.cpp:148] Top shape: 100 256 13 13 (4326400)
I0403 12:09:30.821414  8515 net.cpp:156] Memory required for data: 800703600
I0403 12:09:30.821441  8515 layer_factory.hpp:77] Creating layer relu5
I0403 12:09:30.821465  8515 net.cpp:91] Creating Layer relu5
I0403 12:09:30.821485  8515 net.cpp:425] relu5 <- conv5
I0403 12:09:30.821509  8515 net.cpp:386] relu5 -> conv5 (in-place)
I0403 12:09:30.821795  8515 net.cpp:141] Setting up relu5
I0403 12:09:30.821825  8515 net.cpp:148] Top shape: 100 256 13 13 (4326400)
I0403 12:09:30.821840  8515 net.cpp:156] Memory required for data: 818009200
I0403 12:09:30.821853  8515 layer_factory.hpp:77] Creating layer pool5
I0403 12:09:30.821878  8515 net.cpp:91] Creating Layer pool5
I0403 12:09:30.821895  8515 net.cpp:425] pool5 <- conv5
I0403 12:09:30.821913  8515 net.cpp:399] pool5 -> pool5
I0403 12:09:30.821975  8515 net.cpp:141] Setting up pool5
I0403 12:09:30.822000  8515 net.cpp:148] Top shape: 100 256 6 6 (921600)
I0403 12:09:30.822013  8515 net.cpp:156] Memory required for data: 821695600
I0403 12:09:30.822028  8515 layer_factory.hpp:77] Creating layer fc6
I0403 12:09:30.822054  8515 net.cpp:91] Creating Layer fc6
I0403 12:09:30.822070  8515 net.cpp:425] fc6 <- pool5
I0403 12:09:30.822091  8515 net.cpp:399] fc6 -> fc6
I0403 12:09:32.372712  8515 net.cpp:141] Setting up fc6
I0403 12:09:32.372788  8515 net.cpp:148] Top shape: 100 4096 (409600)
I0403 12:09:32.372805  8515 net.cpp:156] Memory required for data: 823334000
I0403 12:09:32.372825  8515 layer_factory.hpp:77] Creating layer relu6
I0403 12:09:32.372848  8515 net.cpp:91] Creating Layer relu6
I0403 12:09:32.372864  8515 net.cpp:425] relu6 <- fc6
I0403 12:09:32.372884  8515 net.cpp:386] relu6 -> fc6 (in-place)
I0403 12:09:32.373114  8515 net.cpp:141] Setting up relu6
I0403 12:09:32.373139  8515 net.cpp:148] Top shape: 100 4096 (409600)
I0403 12:09:32.373153  8515 net.cpp:156] Memory required for data: 824972400
I0403 12:09:32.373169  8515 layer_factory.hpp:77] Creating layer drop6
I0403 12:09:32.373188  8515 net.cpp:91] Creating Layer drop6
I0403 12:09:32.373203  8515 net.cpp:425] drop6 <- fc6
I0403 12:09:32.373221  8515 net.cpp:386] drop6 -> fc6 (in-place)
I0403 12:09:32.373273  8515 net.cpp:141] Setting up drop6
I0403 12:09:32.373298  8515 net.cpp:148] Top shape: 100 4096 (409600)
I0403 12:09:32.373313  8515 net.cpp:156] Memory required for data: 826610800
I0403 12:09:32.373327  8515 layer_factory.hpp:77] Creating layer fc7
I0403 12:09:32.373347  8515 net.cpp:91] Creating Layer fc7
I0403 12:09:32.373360  8515 net.cpp:425] fc7 <- fc6
I0403 12:09:32.373379  8515 net.cpp:399] fc7 -> fc7
I0403 12:09:33.057930  8515 net.cpp:141] Setting up fc7
I0403 12:09:33.058008  8515 net.cpp:148] Top shape: 100 4096 (409600)
I0403 12:09:33.058024  8515 net.cpp:156] Memory required for data: 828249200
I0403 12:09:33.058046  8515 layer_factory.hpp:77] Creating layer relu7
I0403 12:09:33.058068  8515 net.cpp:91] Creating Layer relu7
I0403 12:09:33.058085  8515 net.cpp:425] relu7 <- fc7
I0403 12:09:33.058106  8515 net.cpp:386] relu7 -> fc7 (in-place)
I0403 12:09:33.058522  8515 net.cpp:141] Setting up relu7
I0403 12:09:33.058553  8515 net.cpp:148] Top shape: 100 4096 (409600)
I0403 12:09:33.058612  8515 net.cpp:156] Memory required for data: 829887600
I0403 12:09:33.058629  8515 layer_factory.hpp:77] Creating layer drop7
I0403 12:09:33.058647  8515 net.cpp:91] Creating Layer drop7
I0403 12:09:33.058662  8515 net.cpp:425] drop7 <- fc7
I0403 12:09:33.058681  8515 net.cpp:386] drop7 -> fc7 (in-place)
I0403 12:09:33.058724  8515 net.cpp:141] Setting up drop7
I0403 12:09:33.058749  8515 net.cpp:148] Top shape: 100 4096 (409600)
I0403 12:09:33.058764  8515 net.cpp:156] Memory required for data: 831526000
I0403 12:09:33.058779  8515 layer_factory.hpp:77] Creating layer fc8_plantvillage
I0403 12:09:33.058799  8515 net.cpp:91] Creating Layer fc8_plantvillage
I0403 12:09:33.058814  8515 net.cpp:425] fc8_plantvillage <- fc7
I0403 12:09:33.058832  8515 net.cpp:399] fc8_plantvillage -> fc8_plantvillage
I0403 12:09:33.065620  8515 net.cpp:141] Setting up fc8_plantvillage
I0403 12:09:33.065649  8515 net.cpp:148] Top shape: 100 38 (3800)
I0403 12:09:33.065665  8515 net.cpp:156] Memory required for data: 831541200
I0403 12:09:33.065681  8515 layer_factory.hpp:77] Creating layer fc8_plantvillage_fc8_plantvillage_0_split
I0403 12:09:33.065701  8515 net.cpp:91] Creating Layer fc8_plantvillage_fc8_plantvillage_0_split
I0403 12:09:33.065716  8515 net.cpp:425] fc8_plantvillage_fc8_plantvillage_0_split <- fc8_plantvillage
I0403 12:09:33.065733  8515 net.cpp:399] fc8_plantvillage_fc8_plantvillage_0_split -> fc8_plantvillage_fc8_plantvillage_0_split_0
I0403 12:09:33.065752  8515 net.cpp:399] fc8_plantvillage_fc8_plantvillage_0_split -> fc8_plantvillage_fc8_plantvillage_0_split_1
I0403 12:09:33.065771  8515 net.cpp:399] fc8_plantvillage_fc8_plantvillage_0_split -> fc8_plantvillage_fc8_plantvillage_0_split_2
I0403 12:09:33.065850  8515 net.cpp:141] Setting up fc8_plantvillage_fc8_plantvillage_0_split
I0403 12:09:33.065874  8515 net.cpp:148] Top shape: 100 38 (3800)
I0403 12:09:33.065891  8515 net.cpp:148] Top shape: 100 38 (3800)
I0403 12:09:33.065906  8515 net.cpp:148] Top shape: 100 38 (3800)
I0403 12:09:33.065918  8515 net.cpp:156] Memory required for data: 831586800
I0403 12:09:33.065932  8515 layer_factory.hpp:77] Creating layer prob
I0403 12:09:33.065950  8515 net.cpp:91] Creating Layer prob
I0403 12:09:33.065964  8515 net.cpp:425] prob <- fc8_plantvillage_fc8_plantvillage_0_split_0
I0403 12:09:33.065981  8515 net.cpp:399] prob -> prob
I0403 12:09:33.066211  8515 net.cpp:141] Setting up prob
I0403 12:09:33.066236  8515 net.cpp:148] Top shape: 100 38 (3800)
I0403 12:09:33.066251  8515 net.cpp:156] Memory required for data: 831602000
I0403 12:09:33.066265  8515 layer_factory.hpp:77] Creating layer hdf5out
I0403 12:09:33.066283  8515 net.cpp:91] Creating Layer hdf5out
I0403 12:09:33.066298  8515 net.cpp:425] hdf5out <- prob
I0403 12:09:33.066314  8515 net.cpp:425] hdf5out <- label_data_1_split_0
I0403 12:09:33.068630  8515 net.cpp:141] Setting up hdf5out
…
