…
I0403 12:05:10.872942  8420 net.cpp:313] The NetState phase (1) differed from the phase (0) specified by a rule in layer data
I0403 12:05:10.873241  8420 net.cpp:49] Initializing net from parameters: 
state {
  phase: TEST
}
layer {
  name: "data"
  type: "Data"
  top: "data"
  top: "label"
  include {
    phase: TEST
  }
  transform_param {
    crop_size: 227
    mean_file: "/home/mohanty/data/final_dataset/lmdb/grayscale-20-80/mean.binaryproto"
  }
  data_param {
    source: "/home/mohanty/data/final_dataset/lmdb/grayscale-20-80/test_db"
    batch_size: 100
    backend: LMDB
  }
}
layer {
  name: "conv1"
  type: "Convolution"
  bottom: "data"
  top: "conv1"
  param {
    lr_mult: 1
    decay_mult: 1
  }
  param {
    lr_mult: 2
    decay_mult: 0
  }
  convolution_param {
    num_output: 96
    kernel_size: 11
    stride: 4
    weight_filler {
      type: "gaussian"
      std: 0.01
    }
    bias_filler {
      type: "constant"
      value: 0
    }
  }
}
layer {
  name: "relu1"
  type: "ReLU"
  bottom: "conv1"
  top: "conv1"
}
layer {
  name: "norm1"
  type: "LRN"
  bottom: "conv1"
  top: "norm1"
  lrn_param {
    local_size: 5
    alpha: 0.0001
    beta: 0.75
  }
}
layer {
  name: "pool1"
  type: "Pooling"
  bottom: "norm1"
  top: "pool1"
  pooling_param {
    pool: MAX
    kernel_size: 3
    stride: 2
  }
}
layer {
  name: "conv2"
  type: "Convolution"
  bottom: "pool1"
  top: "conv2"
  param {
    lr_mult: 1
    decay_mult: 1
  }
  param {
    lr_mult: 2
    decay_mult: 0
  }
  convolution_param {
    num_output: 256
    pad: 2
    kernel_size: 5
    group: 2
    weight_filler {
      type: "gaussian"
      std: 0.01
    }
    bias_filler {
      type: "constant"
      value: 0.1
    }
  }
}
layer {
  name: "relu2"
  type: "ReLU"
  bottom: "conv2"
  top: "conv2"
}
layer {
  name: "norm2"
  type: "LRN"
  bottom: "conv2"
  top: "norm2"
  lrn_param {
    local_size: 5
    alpha: 0.0001
    beta: 0.75
  }
}
layer {
  name: "pool2"
  type: "Pooling"
  bottom: "norm2"
  top: "pool2"
  pooling_param {
    pool: MAX
    kernel_size: 3
    stride: 2
  }
}
layer {
  name: "conv3"
  type: "Convolution"
  bottom: "pool2"
  top: "conv3"
  param {
    lr_mult: 1
    decay_mult: 1
  }
  param {
    lr_mult: 2
    decay_mult: 0
  }
  convolution_param {
    num_output: 384
    pad: 1
    kernel_size: 3
    weight_filler {
      type: "gaussian"
      std: 0.01
    }
    bias_filler {
      type: "constant"
      value: 0
    }
  }
}
layer {
  name: "relu3"
  type: "ReLU"
  bottom: "conv3"
  top: "conv3"
}
layer {
  name: "conv4"
  type: "Convolution"
  bottom: "conv3"
  top: "conv4"
  param {
    lr_mult: 1
    decay_mult: 1
  }
  param {
    lr_mult: 2
    decay_mult: 0
  }
  convolution_param {
    num_output: 384
    pad: 1
    kernel_size: 3
    group: 2
    weight_filler {
      type: "gaussian"
      std: 0.01
    }
    bias_filler {
      type: "constant"
      value: 0.1
    }
  }
}
layer {
  name: "relu4"
  type: "ReLU"
  bottom: "conv4"
  top: "conv4"
}
layer {
  name: "conv5"
  type: "Convolution"
  bottom: "conv4"
  top: "conv5"
  param {
    lr_mult: 1
    decay_mult: 1
  }
  param {
    lr_mult: 2
    decay_mult: 0
  }
  convolution_param {
    num_output: 256
    pad: 1
    kernel_size: 3
    group: 2
    weight_filler {
      type: "gaussian"
      std: 0.01
    }
    bias_filler {
      type: "constant"
      value: 0.1
    }
  }
}
layer {
  name: "relu5"
  type: "ReLU"
  bottom: "conv5"
  top: "conv5"
}
layer {
  name: "pool5"
  type: "Pooling"
  bottom: "conv5"
  top: "pool5"
  pooling_param {
    pool: MAX
    kernel_size: 3
    stride: 2
  }
}
layer {
  name: "fc6"
  type: "InnerProduct"
  bottom: "pool5"
  top: "fc6"
  param {
    lr_mult: 1
    decay_mult: 1
  }
  param {
    lr_mult: 2
    decay_mult: 0
  }
  inner_product_param {
    num_output: 4096
    weight_filler {
      type: "gaussian"
      std: 0.005
    }
    bias_filler {
      type: "constant"
      value: 0.1
    }
  }
}
layer {
  name: "relu6"
  type: "ReLU"
  bottom: "fc6"
  top: "fc6"
}
layer {
  name: "drop6"
  type: "Dropout"
  bottom: "fc6"
  top: "fc6"
  dropout_param {
    dropout_ratio: 0.5
  }
}
layer {
  name: "fc7"
  type: "InnerProduct"
  bottom: "fc6"
  top: "fc7"
  param {
    lr_mult: 1
    decay_mult: 1
  }
  param {
    lr_mult: 2
    decay_mult: 0
  }
  inner_product_param {
    num_output: 4096
    weight_filler {
      type: "gaussian"
      std: 0.005
    }
    bias_filler {
      type: "constant"
      value: 0.1
    }
  }
}
layer {
  name: "relu7"
  type: "ReLU"
  bottom: "fc7"
  top: "fc7"
}
layer {
  name: "drop7"
  type: "Dropout"
  bottom: "fc7"
  top: "fc7"
  dropout_param {
    dropout_ratio: 0.5
  }
}
layer {
  name: "fc8_plantvillage"
  type: "InnerProduct"
  bottom: "fc7"
  top: "fc8_plantvillage"
  param {
    lr_mult: 1
    decay_mult: 1
  }
  param {
    lr_mult: 2
    decay_mult: 0
  }
  inner_product_param {
    num_output: 38
    weight_filler {
      type: "gaussian"
      std: 0.01
    }
    bias_filler {
      type: "constant"
      value: 0
    }
  }
}
layer {
  name: "prob"
  type: "Softmax"
  bottom: "fc8_plantvillage"
  top: "prob"
  include {
    phase: TEST
  }
}
layer {
  name: "hdf5out"
  type: "HDF5Output"
  bottom: "prob"
  bottom: "label"
  include {
    phase: TEST
  }
  hdf5_output_param {
    file_name: "hdf5_dumps/iter_315.h5"
  }
}
layer {
  name: "loss"
  type: "SoftmaxWithLoss"
  bottom: "fc8_plantvillage"
  bottom: "label"
  top: "loss"
}
layer {
  name: "accuracy"
  type: "Accuracy"
  bottom: "fc8_plantvillage"
  bottom: "label"
  top: "accuracy"
  include {
    phase: TEST
  }
}
I0403 12:05:10.873801  8420 layer_factory.hpp:77] Creating layer data
I0403 12:05:10.874449  8420 net.cpp:91] Creating Layer data
I0403 12:05:10.874480  8420 net.cpp:399] data -> data
I0403 12:05:10.874531  8420 net.cpp:399] data -> label
I0403 12:05:10.874580  8420 data_transformer.cpp:25] Loading mean file from: /home/mohanty/data/final_dataset/lmdb/grayscale-20-80/mean.binaryproto
I0403 12:05:10.877593  8423 db_lmdb.cpp:38] Opened lmdb /home/mohanty/data/final_dataset/lmdb/grayscale-20-80/test_db
I0403 12:05:10.888942  8420 data_layer.cpp:41] output data size: 100,3,227,227
I0403 12:05:11.007956  8420 net.cpp:141] Setting up data
I0403 12:05:11.008018  8420 net.cpp:148] Top shape: 100 3 227 227 (15458700)
I0403 12:05:11.008039  8420 net.cpp:148] Top shape: 100 (100)
I0403 12:05:11.008054  8420 net.cpp:156] Memory required for data: 61835200
I0403 12:05:11.008082  8420 layer_factory.hpp:77] Creating layer label_data_1_split
I0403 12:05:11.008106  8420 net.cpp:91] Creating Layer label_data_1_split
I0403 12:05:11.008123  8420 net.cpp:425] label_data_1_split <- label
I0403 12:05:11.008155  8420 net.cpp:399] label_data_1_split -> label_data_1_split_0
I0403 12:05:11.008180  8420 net.cpp:399] label_data_1_split -> label_data_1_split_1
I0403 12:05:11.008199  8420 net.cpp:399] label_data_1_split -> label_data_1_split_2
I0403 12:05:11.008261  8420 net.cpp:141] Setting up label_data_1_split
I0403 12:05:11.008296  8420 net.cpp:148] Top shape: 100 (100)
I0403 12:05:11.008312  8420 net.cpp:148] Top shape: 100 (100)
I0403 12:05:11.008328  8420 net.cpp:148] Top shape: 100 (100)
I0403 12:05:11.008343  8420 net.cpp:156] Memory required for data: 61836400
I0403 12:05:11.008358  8420 layer_factory.hpp:77] Creating layer conv1
I0403 12:05:11.008388  8420 net.cpp:91] Creating Layer conv1
I0403 12:05:11.008406  8420 net.cpp:425] conv1 <- data
I0403 12:05:11.008425  8420 net.cpp:399] conv1 -> conv1
I0403 12:05:11.145903  8420 net.cpp:141] Setting up conv1
I0403 12:05:11.145948  8420 net.cpp:148] Top shape: 100 96 55 55 (29040000)
I0403 12:05:11.145967  8420 net.cpp:156] Memory required for data: 177996400
I0403 12:05:11.145998  8420 layer_factory.hpp:77] Creating layer relu1
I0403 12:05:11.146025  8420 net.cpp:91] Creating Layer relu1
I0403 12:05:11.146044  8420 net.cpp:425] relu1 <- conv1
I0403 12:05:11.146062  8420 net.cpp:386] relu1 -> conv1 (in-place)
I0403 12:05:11.146332  8420 net.cpp:141] Setting up relu1
I0403 12:05:11.146360  8420 net.cpp:148] Top shape: 100 96 55 55 (29040000)
I0403 12:05:11.146414  8420 net.cpp:156] Memory required for data: 294156400
I0403 12:05:11.146431  8420 layer_factory.hpp:77] Creating layer norm1
I0403 12:05:11.146457  8420 net.cpp:91] Creating Layer norm1
I0403 12:05:11.146476  8420 net.cpp:425] norm1 <- conv1
I0403 12:05:11.146492  8420 net.cpp:399] norm1 -> norm1
I0403 12:05:11.146805  8420 net.cpp:141] Setting up norm1
I0403 12:05:11.146832  8420 net.cpp:148] Top shape: 100 96 55 55 (29040000)
I0403 12:05:11.146848  8420 net.cpp:156] Memory required for data: 410316400
I0403 12:05:11.146863  8420 layer_factory.hpp:77] Creating layer pool1
I0403 12:05:11.146885  8420 net.cpp:91] Creating Layer pool1
I0403 12:05:11.146903  8420 net.cpp:425] pool1 <- norm1
I0403 12:05:11.146919  8420 net.cpp:399] pool1 -> pool1
I0403 12:05:11.146988  8420 net.cpp:141] Setting up pool1
I0403 12:05:11.147012  8420 net.cpp:148] Top shape: 100 96 27 27 (6998400)
I0403 12:05:11.147027  8420 net.cpp:156] Memory required for data: 438310000
I0403 12:05:11.147042  8420 layer_factory.hpp:77] Creating layer conv2
I0403 12:05:11.147064  8420 net.cpp:91] Creating Layer conv2
I0403 12:05:11.147081  8420 net.cpp:425] conv2 <- pool1
I0403 12:05:11.147099  8420 net.cpp:399] conv2 -> conv2
I0403 12:05:11.162072  8420 net.cpp:141] Setting up conv2
I0403 12:05:11.162140  8420 net.cpp:148] Top shape: 100 256 27 27 (18662400)
I0403 12:05:11.162158  8420 net.cpp:156] Memory required for data: 512959600
I0403 12:05:11.162180  8420 layer_factory.hpp:77] Creating layer relu2
I0403 12:05:11.162200  8420 net.cpp:91] Creating Layer relu2
I0403 12:05:11.162216  8420 net.cpp:425] relu2 <- conv2
I0403 12:05:11.162236  8420 net.cpp:386] relu2 -> conv2 (in-place)
I0403 12:05:11.162513  8420 net.cpp:141] Setting up relu2
I0403 12:05:11.162542  8420 net.cpp:148] Top shape: 100 256 27 27 (18662400)
I0403 12:05:11.162559  8420 net.cpp:156] Memory required for data: 587609200
I0403 12:05:11.162575  8420 layer_factory.hpp:77] Creating layer norm2
I0403 12:05:11.162597  8420 net.cpp:91] Creating Layer norm2
I0403 12:05:11.162613  8420 net.cpp:425] norm2 <- conv2
I0403 12:05:11.162631  8420 net.cpp:399] norm2 -> norm2
I0403 12:05:11.162825  8420 net.cpp:141] Setting up norm2
I0403 12:05:11.162853  8420 net.cpp:148] Top shape: 100 256 27 27 (18662400)
I0403 12:05:11.162868  8420 net.cpp:156] Memory required for data: 662258800
I0403 12:05:11.162883  8420 layer_factory.hpp:77] Creating layer pool2
I0403 12:05:11.162899  8420 net.cpp:91] Creating Layer pool2
I0403 12:05:11.162914  8420 net.cpp:425] pool2 <- norm2
I0403 12:05:11.162933  8420 net.cpp:399] pool2 -> pool2
I0403 12:05:11.162984  8420 net.cpp:141] Setting up pool2
I0403 12:05:11.163010  8420 net.cpp:148] Top shape: 100 256 13 13 (4326400)
I0403 12:05:11.163025  8420 net.cpp:156] Memory required for data: 679564400
I0403 12:05:11.163040  8420 layer_factory.hpp:77] Creating layer conv3
I0403 12:05:11.163061  8420 net.cpp:91] Creating Layer conv3
I0403 12:05:11.163076  8420 net.cpp:425] conv3 <- pool2
I0403 12:05:11.163095  8420 net.cpp:399] conv3 -> conv3
I0403 12:05:11.204731  8420 net.cpp:141] Setting up conv3
I0403 12:05:11.204809  8420 net.cpp:148] Top shape: 100 384 13 13 (6489600)
I0403 12:05:11.204828  8420 net.cpp:156] Memory required for data: 705522800
I0403 12:05:11.204854  8420 layer_factory.hpp:77] Creating layer relu3
I0403 12:05:11.204876  8420 net.cpp:91] Creating Layer relu3
I0403 12:05:11.204893  8420 net.cpp:425] relu3 <- conv3
I0403 12:05:11.204915  8420 net.cpp:386] relu3 -> conv3 (in-place)
I0403 12:05:11.205199  8420 net.cpp:141] Setting up relu3
I0403 12:05:11.205226  8420 net.cpp:148] Top shape: 100 384 13 13 (6489600)
I0403 12:05:11.205241  8420 net.cpp:156] Memory required for data: 731481200
I0403 12:05:11.205256  8420 layer_factory.hpp:77] Creating layer conv4
I0403 12:05:11.205282  8420 net.cpp:91] Creating Layer conv4
I0403 12:05:11.205301  8420 net.cpp:425] conv4 <- conv3
I0403 12:05:11.205323  8420 net.cpp:399] conv4 -> conv4
I0403 12:05:11.235043  8420 net.cpp:141] Setting up conv4
I0403 12:05:11.235105  8420 net.cpp:148] Top shape: 100 384 13 13 (6489600)
I0403 12:05:11.235157  8420 net.cpp:156] Memory required for data: 757439600
I0403 12:05:11.235179  8420 layer_factory.hpp:77] Creating layer relu4
I0403 12:05:11.235201  8420 net.cpp:91] Creating Layer relu4
I0403 12:05:11.235218  8420 net.cpp:425] relu4 <- conv4
I0403 12:05:11.235235  8420 net.cpp:386] relu4 -> conv4 (in-place)
I0403 12:05:11.235522  8420 net.cpp:141] Setting up relu4
I0403 12:05:11.235556  8420 net.cpp:148] Top shape: 100 384 13 13 (6489600)
I0403 12:05:11.235574  8420 net.cpp:156] Memory required for data: 783398000
I0403 12:05:11.235589  8420 layer_factory.hpp:77] Creating layer conv5
I0403 12:05:11.235615  8420 net.cpp:91] Creating Layer conv5
I0403 12:05:11.235633  8420 net.cpp:425] conv5 <- conv4
I0403 12:05:11.235652  8420 net.cpp:399] conv5 -> conv5
I0403 12:05:11.256183  8420 net.cpp:141] Setting up conv5
I0403 12:05:11.256244  8420 net.cpp:148] Top shape: 100 256 13 13 (4326400)
I0403 12:05:11.256263  8420 net.cpp:156] Memory required for data: 800703600
I0403 12:05:11.256289  8420 layer_factory.hpp:77] Creating layer relu5
I0403 12:05:11.256310  8420 net.cpp:91] Creating Layer relu5
I0403 12:05:11.256326  8420 net.cpp:425] relu5 <- conv5
I0403 12:05:11.256347  8420 net.cpp:386] relu5 -> conv5 (in-place)
I0403 12:05:11.256638  8420 net.cpp:141] Setting up relu5
I0403 12:05:11.256664  8420 net.cpp:148] Top shape: 100 256 13 13 (4326400)
I0403 12:05:11.256680  8420 net.cpp:156] Memory required for data: 818009200
I0403 12:05:11.256695  8420 layer_factory.hpp:77] Creating layer pool5
I0403 12:05:11.256721  8420 net.cpp:91] Creating Layer pool5
I0403 12:05:11.256737  8420 net.cpp:425] pool5 <- conv5
I0403 12:05:11.256757  8420 net.cpp:399] pool5 -> pool5
I0403 12:05:11.256819  8420 net.cpp:141] Setting up pool5
I0403 12:05:11.256842  8420 net.cpp:148] Top shape: 100 256 6 6 (921600)
I0403 12:05:11.256857  8420 net.cpp:156] Memory required for data: 821695600
I0403 12:05:11.256871  8420 layer_factory.hpp:77] Creating layer fc6
I0403 12:05:11.256898  8420 net.cpp:91] Creating Layer fc6
I0403 12:05:11.256916  8420 net.cpp:425] fc6 <- pool5
I0403 12:05:11.256935  8420 net.cpp:399] fc6 -> fc6
I0403 12:05:12.808758  8420 net.cpp:141] Setting up fc6
I0403 12:05:12.808840  8420 net.cpp:148] Top shape: 100 4096 (409600)
I0403 12:05:12.808857  8420 net.cpp:156] Memory required for data: 823334000
I0403 12:05:12.808881  8420 layer_factory.hpp:77] Creating layer relu6
I0403 12:05:12.808902  8420 net.cpp:91] Creating Layer relu6
I0403 12:05:12.808918  8420 net.cpp:425] relu6 <- fc6
I0403 12:05:12.808938  8420 net.cpp:386] relu6 -> fc6 (in-place)
I0403 12:05:12.809162  8420 net.cpp:141] Setting up relu6
I0403 12:05:12.809190  8420 net.cpp:148] Top shape: 100 4096 (409600)
I0403 12:05:12.809206  8420 net.cpp:156] Memory required for data: 824972400
I0403 12:05:12.809221  8420 layer_factory.hpp:77] Creating layer drop6
I0403 12:05:12.809240  8420 net.cpp:91] Creating Layer drop6
I0403 12:05:12.809255  8420 net.cpp:425] drop6 <- fc6
I0403 12:05:12.809274  8420 net.cpp:386] drop6 -> fc6 (in-place)
I0403 12:05:12.809329  8420 net.cpp:141] Setting up drop6
I0403 12:05:12.809351  8420 net.cpp:148] Top shape: 100 4096 (409600)
I0403 12:05:12.809366  8420 net.cpp:156] Memory required for data: 826610800
I0403 12:05:12.809381  8420 layer_factory.hpp:77] Creating layer fc7
I0403 12:05:12.809404  8420 net.cpp:91] Creating Layer fc7
I0403 12:05:12.809420  8420 net.cpp:425] fc7 <- fc6
I0403 12:05:12.809440  8420 net.cpp:399] fc7 -> fc7
I0403 12:05:13.499424  8420 net.cpp:141] Setting up fc7
I0403 12:05:13.499501  8420 net.cpp:148] Top shape: 100 4096 (409600)
I0403 12:05:13.499518  8420 net.cpp:156] Memory required for data: 828249200
I0403 12:05:13.499542  8420 layer_factory.hpp:77] Creating layer relu7
I0403 12:05:13.499565  8420 net.cpp:91] Creating Layer relu7
I0403 12:05:13.499583  8420 net.cpp:425] relu7 <- fc7
I0403 12:05:13.499603  8420 net.cpp:386] relu7 -> fc7 (in-place)
I0403 12:05:13.500032  8420 net.cpp:141] Setting up relu7
I0403 12:05:13.500059  8420 net.cpp:148] Top shape: 100 4096 (409600)
I0403 12:05:13.500115  8420 net.cpp:156] Memory required for data: 829887600
I0403 12:05:13.500131  8420 layer_factory.hpp:77] Creating layer drop7
I0403 12:05:13.500150  8420 net.cpp:91] Creating Layer drop7
I0403 12:05:13.500166  8420 net.cpp:425] drop7 <- fc7
I0403 12:05:13.500185  8420 net.cpp:386] drop7 -> fc7 (in-place)
I0403 12:05:13.500228  8420 net.cpp:141] Setting up drop7
I0403 12:05:13.500250  8420 net.cpp:148] Top shape: 100 4096 (409600)
I0403 12:05:13.500268  8420 net.cpp:156] Memory required for data: 831526000
I0403 12:05:13.500283  8420 layer_factory.hpp:77] Creating layer fc8_plantvillage
I0403 12:05:13.500304  8420 net.cpp:91] Creating Layer fc8_plantvillage
I0403 12:05:13.500319  8420 net.cpp:425] fc8_plantvillage <- fc7
I0403 12:05:13.500339  8420 net.cpp:399] fc8_plantvillage -> fc8_plantvillage
I0403 12:05:13.507077  8420 net.cpp:141] Setting up fc8_plantvillage
I0403 12:05:13.507105  8420 net.cpp:148] Top shape: 100 38 (3800)
I0403 12:05:13.507122  8420 net.cpp:156] Memory required for data: 831541200
I0403 12:05:13.507138  8420 layer_factory.hpp:77] Creating layer fc8_plantvillage_fc8_plantvillage_0_split
I0403 12:05:13.507158  8420 net.cpp:91] Creating Layer fc8_plantvillage_fc8_plantvillage_0_split
I0403 12:05:13.507172  8420 net.cpp:425] fc8_plantvillage_fc8_plantvillage_0_split <- fc8_plantvillage
I0403 12:05:13.507191  8420 net.cpp:399] fc8_plantvillage_fc8_plantvillage_0_split -> fc8_plantvillage_fc8_plantvillage_0_split_0
I0403 12:05:13.507213  8420 net.cpp:399] fc8_plantvillage_fc8_plantvillage_0_split -> fc8_plantvillage_fc8_plantvillage_0_split_1
I0403 12:05:13.507233  8420 net.cpp:399] fc8_plantvillage_fc8_plantvillage_0_split -> fc8_plantvillage_fc8_plantvillage_0_split_2
I0403 12:05:13.507310  8420 net.cpp:141] Setting up fc8_plantvillage_fc8_plantvillage_0_split
I0403 12:05:13.507335  8420 net.cpp:148] Top shape: 100 38 (3800)
I0403 12:05:13.507352  8420 net.cpp:148] Top shape: 100 38 (3800)
I0403 12:05:13.507367  8420 net.cpp:148] Top shape: 100 38 (3800)
I0403 12:05:13.507380  8420 net.cpp:156] Memory required for data: 831586800
I0403 12:05:13.507393  8420 layer_factory.hpp:77] Creating layer prob
I0403 12:05:13.507412  8420 net.cpp:91] Creating Layer prob
I0403 12:05:13.507426  8420 net.cpp:425] prob <- fc8_plantvillage_fc8_plantvillage_0_split_0
I0403 12:05:13.507443  8420 net.cpp:399] prob -> prob
I0403 12:05:13.507674  8420 net.cpp:141] Setting up prob
I0403 12:05:13.507701  8420 net.cpp:148] Top shape: 100 38 (3800)
I0403 12:05:13.507716  8420 net.cpp:156] Memory required for data: 831602000
I0403 12:05:13.507730  8420 layer_factory.hpp:77] Creating layer hdf5out
I0403 12:05:13.507748  8420 net.cpp:91] Creating Layer hdf5out
I0403 12:05:13.507764  8420 net.cpp:425] hdf5out <- prob
I0403 12:05:13.507779  8420 net.cpp:425] hdf5out <- label_data_1_split_0
I0403 12:05:13.510673  8420 net.cpp:141] Setting up hdf5out
…
