…
I0403 12:19:39.732396  8751 net.cpp:313] The NetState phase (1) differed from the phase (0) specified by a rule in layer data
I0403 12:19:39.732728  8751 net.cpp:49] Initializing net from parameters: 
state {
  phase: TEST
}
layer {
  name: "data"
  type: "Data"
  top: "data"
  top: "label"
  include {
    phase: TEST
  }
  transform_param {
    crop_size: 227
    mean_file: "/home/mohanty/data/final_dataset/lmdb/grayscale-20-80/mean.binaryproto"
  }
  data_param {
    source: "/home/mohanty/data/final_dataset/lmdb/grayscale-20-80/test_db"
    batch_size: 100
    backend: LMDB
  }
}
layer {
  name: "conv1"
  type: "Convolution"
  bottom: "data"
  top: "conv1"
  param {
    lr_mult: 1
    decay_mult: 1
  }
  param {
    lr_mult: 2
    decay_mult: 0
  }
  convolution_param {
    num_output: 96
    kernel_size: 11
    stride: 4
    weight_filler {
      type: "gaussian"
      std: 0.01
    }
    bias_filler {
      type: "constant"
      value: 0
    }
  }
}
layer {
  name: "relu1"
  type: "ReLU"
  bottom: "conv1"
  top: "conv1"
}
layer {
  name: "norm1"
  type: "LRN"
  bottom: "conv1"
  top: "norm1"
  lrn_param {
    local_size: 5
    alpha: 0.0001
    beta: 0.75
  }
}
layer {
  name: "pool1"
  type: "Pooling"
  bottom: "norm1"
  top: "pool1"
  pooling_param {
    pool: MAX
    kernel_size: 3
    stride: 2
  }
}
layer {
  name: "conv2"
  type: "Convolution"
  bottom: "pool1"
  top: "conv2"
  param {
    lr_mult: 1
    decay_mult: 1
  }
  param {
    lr_mult: 2
    decay_mult: 0
  }
  convolution_param {
    num_output: 256
    pad: 2
    kernel_size: 5
    group: 2
    weight_filler {
      type: "gaussian"
      std: 0.01
    }
    bias_filler {
      type: "constant"
      value: 0.1
    }
  }
}
layer {
  name: "relu2"
  type: "ReLU"
  bottom: "conv2"
  top: "conv2"
}
layer {
  name: "norm2"
  type: "LRN"
  bottom: "conv2"
  top: "norm2"
  lrn_param {
    local_size: 5
    alpha: 0.0001
    beta: 0.75
  }
}
layer {
  name: "pool2"
  type: "Pooling"
  bottom: "norm2"
  top: "pool2"
  pooling_param {
    pool: MAX
    kernel_size: 3
    stride: 2
  }
}
layer {
  name: "conv3"
  type: "Convolution"
  bottom: "pool2"
  top: "conv3"
  param {
    lr_mult: 1
    decay_mult: 1
  }
  param {
    lr_mult: 2
    decay_mult: 0
  }
  convolution_param {
    num_output: 384
    pad: 1
    kernel_size: 3
    weight_filler {
      type: "gaussian"
      std: 0.01
    }
    bias_filler {
      type: "constant"
      value: 0
    }
  }
}
layer {
  name: "relu3"
  type: "ReLU"
  bottom: "conv3"
  top: "conv3"
}
layer {
  name: "conv4"
  type: "Convolution"
  bottom: "conv3"
  top: "conv4"
  param {
    lr_mult: 1
    decay_mult: 1
  }
  param {
    lr_mult: 2
    decay_mult: 0
  }
  convolution_param {
    num_output: 384
    pad: 1
    kernel_size: 3
    group: 2
    weight_filler {
      type: "gaussian"
      std: 0.01
    }
    bias_filler {
      type: "constant"
      value: 0.1
    }
  }
}
layer {
  name: "relu4"
  type: "ReLU"
  bottom: "conv4"
  top: "conv4"
}
layer {
  name: "conv5"
  type: "Convolution"
  bottom: "conv4"
  top: "conv5"
  param {
    lr_mult: 1
    decay_mult: 1
  }
  param {
    lr_mult: 2
    decay_mult: 0
  }
  convolution_param {
    num_output: 256
    pad: 1
    kernel_size: 3
    group: 2
    weight_filler {
      type: "gaussian"
      std: 0.01
    }
    bias_filler {
      type: "constant"
      value: 0.1
    }
  }
}
layer {
  name: "relu5"
  type: "ReLU"
  bottom: "conv5"
  top: "conv5"
}
layer {
  name: "pool5"
  type: "Pooling"
  bottom: "conv5"
  top: "pool5"
  pooling_param {
    pool: MAX
    kernel_size: 3
    stride: 2
  }
}
layer {
  name: "fc6"
  type: "InnerProduct"
  bottom: "pool5"
  top: "fc6"
  param {
    lr_mult: 1
    decay_mult: 1
  }
  param {
    lr_mult: 2
    decay_mult: 0
  }
  inner_product_param {
    num_output: 4096
    weight_filler {
      type: "gaussian"
      std: 0.005
    }
    bias_filler {
      type: "constant"
      value: 0.1
    }
  }
}
layer {
  name: "relu6"
  type: "ReLU"
  bottom: "fc6"
  top: "fc6"
}
layer {
  name: "drop6"
  type: "Dropout"
  bottom: "fc6"
  top: "fc6"
  dropout_param {
    dropout_ratio: 0.5
  }
}
layer {
  name: "fc7"
  type: "InnerProduct"
  bottom: "fc6"
  top: "fc7"
  param {
    lr_mult: 1
    decay_mult: 1
  }
  param {
    lr_mult: 2
    decay_mult: 0
  }
  inner_product_param {
    num_output: 4096
    weight_filler {
      type: "gaussian"
      std: 0.005
    }
    bias_filler {
      type: "constant"
      value: 0.1
    }
  }
}
layer {
  name: "relu7"
  type: "ReLU"
  bottom: "fc7"
  top: "fc7"
}
layer {
  name: "drop7"
  type: "Dropout"
  bottom: "fc7"
  top: "fc7"
  dropout_param {
    dropout_ratio: 0.5
  }
}
layer {
  name: "fc8_plantvillage"
  type: "InnerProduct"
  bottom: "fc7"
  top: "fc8_plantvillage"
  param {
    lr_mult: 1
    decay_mult: 1
  }
  param {
    lr_mult: 2
    decay_mult: 0
  }
  inner_product_param {
    num_output: 38
    weight_filler {
      type: "gaussian"
      std: 0.01
    }
    bias_filler {
      type: "constant"
      value: 0
    }
  }
}
layer {
  name: "prob"
  type: "Softmax"
  bottom: "fc8_plantvillage"
  top: "prob"
  include {
    phase: TEST
  }
}
layer {
  name: "hdf5out"
  type: "HDF5Output"
  bottom: "prob"
  bottom: "label"
  include {
    phase: TEST
  }
  hdf5_output_param {
    file_name: "hdf5_dumps/iter_1365.h5"
  }
}
layer {
  name: "loss"
  type: "SoftmaxWithLoss"
  bottom: "fc8_plantvillage"
  bottom: "label"
  top: "loss"
}
layer {
  name: "accuracy"
  type: "Accuracy"
  bottom: "fc8_plantvillage"
  bottom: "label"
  top: "accuracy"
  include {
    phase: TEST
  }
}
I0403 12:19:39.733333  8751 layer_factory.hpp:77] Creating layer data
I0403 12:19:39.733989  8751 net.cpp:91] Creating Layer data
I0403 12:19:39.734019  8751 net.cpp:399] data -> data
I0403 12:19:39.734071  8751 net.cpp:399] data -> label
I0403 12:19:39.734107  8751 data_transformer.cpp:25] Loading mean file from: /home/mohanty/data/final_dataset/lmdb/grayscale-20-80/mean.binaryproto
I0403 12:19:39.736923  8754 db_lmdb.cpp:38] Opened lmdb /home/mohanty/data/final_dataset/lmdb/grayscale-20-80/test_db
I0403 12:19:39.747963  8751 data_layer.cpp:41] output data size: 100,3,227,227
I0403 12:19:39.865001  8751 net.cpp:141] Setting up data
I0403 12:19:39.865097  8751 net.cpp:148] Top shape: 100 3 227 227 (15458700)
I0403 12:19:39.865119  8751 net.cpp:148] Top shape: 100 (100)
I0403 12:19:39.865134  8751 net.cpp:156] Memory required for data: 61835200
I0403 12:19:39.865161  8751 layer_factory.hpp:77] Creating layer label_data_1_split
I0403 12:19:39.865187  8751 net.cpp:91] Creating Layer label_data_1_split
I0403 12:19:39.865205  8751 net.cpp:425] label_data_1_split <- label
I0403 12:19:39.865237  8751 net.cpp:399] label_data_1_split -> label_data_1_split_0
I0403 12:19:39.865264  8751 net.cpp:399] label_data_1_split -> label_data_1_split_1
I0403 12:19:39.865284  8751 net.cpp:399] label_data_1_split -> label_data_1_split_2
I0403 12:19:39.865350  8751 net.cpp:141] Setting up label_data_1_split
I0403 12:19:39.865371  8751 net.cpp:148] Top shape: 100 (100)
I0403 12:19:39.865388  8751 net.cpp:148] Top shape: 100 (100)
I0403 12:19:39.865403  8751 net.cpp:148] Top shape: 100 (100)
I0403 12:19:39.865417  8751 net.cpp:156] Memory required for data: 61836400
I0403 12:19:39.865432  8751 layer_factory.hpp:77] Creating layer conv1
I0403 12:19:39.865464  8751 net.cpp:91] Creating Layer conv1
I0403 12:19:39.865483  8751 net.cpp:425] conv1 <- data
I0403 12:19:39.865500  8751 net.cpp:399] conv1 -> conv1
I0403 12:19:40.004694  8751 net.cpp:141] Setting up conv1
I0403 12:19:40.004770  8751 net.cpp:148] Top shape: 100 96 55 55 (29040000)
I0403 12:19:40.004788  8751 net.cpp:156] Memory required for data: 177996400
I0403 12:19:40.004820  8751 layer_factory.hpp:77] Creating layer relu1
I0403 12:19:40.004848  8751 net.cpp:91] Creating Layer relu1
I0403 12:19:40.004866  8751 net.cpp:425] relu1 <- conv1
I0403 12:19:40.004885  8751 net.cpp:386] relu1 -> conv1 (in-place)
I0403 12:19:40.005158  8751 net.cpp:141] Setting up relu1
I0403 12:19:40.005187  8751 net.cpp:148] Top shape: 100 96 55 55 (29040000)
I0403 12:19:40.005239  8751 net.cpp:156] Memory required for data: 294156400
I0403 12:19:40.005255  8751 layer_factory.hpp:77] Creating layer norm1
I0403 12:19:40.005283  8751 net.cpp:91] Creating Layer norm1
I0403 12:19:40.005301  8751 net.cpp:425] norm1 <- conv1
I0403 12:19:40.005322  8751 net.cpp:399] norm1 -> norm1
I0403 12:19:40.005661  8751 net.cpp:141] Setting up norm1
I0403 12:19:40.005689  8751 net.cpp:148] Top shape: 100 96 55 55 (29040000)
I0403 12:19:40.005705  8751 net.cpp:156] Memory required for data: 410316400
I0403 12:19:40.005720  8751 layer_factory.hpp:77] Creating layer pool1
I0403 12:19:40.005743  8751 net.cpp:91] Creating Layer pool1
I0403 12:19:40.005759  8751 net.cpp:425] pool1 <- norm1
I0403 12:19:40.005779  8751 net.cpp:399] pool1 -> pool1
I0403 12:19:40.005852  8751 net.cpp:141] Setting up pool1
I0403 12:19:40.005880  8751 net.cpp:148] Top shape: 100 96 27 27 (6998400)
I0403 12:19:40.005897  8751 net.cpp:156] Memory required for data: 438310000
I0403 12:19:40.005911  8751 layer_factory.hpp:77] Creating layer conv2
I0403 12:19:40.005939  8751 net.cpp:91] Creating Layer conv2
I0403 12:19:40.005955  8751 net.cpp:425] conv2 <- pool1
I0403 12:19:40.005975  8751 net.cpp:399] conv2 -> conv2
I0403 12:19:40.021472  8751 net.cpp:141] Setting up conv2
I0403 12:19:40.021528  8751 net.cpp:148] Top shape: 100 256 27 27 (18662400)
I0403 12:19:40.021545  8751 net.cpp:156] Memory required for data: 512959600
I0403 12:19:40.021569  8751 layer_factory.hpp:77] Creating layer relu2
I0403 12:19:40.021589  8751 net.cpp:91] Creating Layer relu2
I0403 12:19:40.021605  8751 net.cpp:425] relu2 <- conv2
I0403 12:19:40.021625  8751 net.cpp:386] relu2 -> conv2 (in-place)
I0403 12:19:40.021914  8751 net.cpp:141] Setting up relu2
I0403 12:19:40.021940  8751 net.cpp:148] Top shape: 100 256 27 27 (18662400)
I0403 12:19:40.021955  8751 net.cpp:156] Memory required for data: 587609200
I0403 12:19:40.021970  8751 layer_factory.hpp:77] Creating layer norm2
I0403 12:19:40.021993  8751 net.cpp:91] Creating Layer norm2
I0403 12:19:40.022011  8751 net.cpp:425] norm2 <- conv2
I0403 12:19:40.022029  8751 net.cpp:399] norm2 -> norm2
I0403 12:19:40.022234  8751 net.cpp:141] Setting up norm2
I0403 12:19:40.022259  8751 net.cpp:148] Top shape: 100 256 27 27 (18662400)
I0403 12:19:40.022274  8751 net.cpp:156] Memory required for data: 662258800
I0403 12:19:40.022289  8751 layer_factory.hpp:77] Creating layer pool2
I0403 12:19:40.022308  8751 net.cpp:91] Creating Layer pool2
I0403 12:19:40.022323  8751 net.cpp:425] pool2 <- norm2
I0403 12:19:40.022342  8751 net.cpp:399] pool2 -> pool2
I0403 12:19:40.022397  8751 net.cpp:141] Setting up pool2
I0403 12:19:40.022420  8751 net.cpp:148] Top shape: 100 256 13 13 (4326400)
I0403 12:19:40.022435  8751 net.cpp:156] Memory required for data: 679564400
I0403 12:19:40.022449  8751 layer_factory.hpp:77] Creating layer conv3
I0403 12:19:40.022475  8751 net.cpp:91] Creating Layer conv3
I0403 12:19:40.022491  8751 net.cpp:425] conv3 <- pool2
I0403 12:19:40.022514  8751 net.cpp:399] conv3 -> conv3
I0403 12:19:40.061293  8751 net.cpp:141] Setting up conv3
I0403 12:19:40.061372  8751 net.cpp:148] Top shape: 100 384 13 13 (6489600)
I0403 12:19:40.061388  8751 net.cpp:156] Memory required for data: 705522800
I0403 12:19:40.061415  8751 layer_factory.hpp:77] Creating layer relu3
I0403 12:19:40.061439  8751 net.cpp:91] Creating Layer relu3
I0403 12:19:40.061456  8751 net.cpp:425] relu3 <- conv3
I0403 12:19:40.061478  8751 net.cpp:386] relu3 -> conv3 (in-place)
I0403 12:19:40.061770  8751 net.cpp:141] Setting up relu3
I0403 12:19:40.061797  8751 net.cpp:148] Top shape: 100 384 13 13 (6489600)
I0403 12:19:40.061813  8751 net.cpp:156] Memory required for data: 731481200
I0403 12:19:40.061828  8751 layer_factory.hpp:77] Creating layer conv4
I0403 12:19:40.061883  8751 net.cpp:91] Creating Layer conv4
I0403 12:19:40.061905  8751 net.cpp:425] conv4 <- conv3
I0403 12:19:40.061928  8751 net.cpp:399] conv4 -> conv4
I0403 12:19:40.092020  8751 net.cpp:141] Setting up conv4
I0403 12:19:40.092090  8751 net.cpp:148] Top shape: 100 384 13 13 (6489600)
I0403 12:19:40.092154  8751 net.cpp:156] Memory required for data: 757439600
I0403 12:19:40.092176  8751 layer_factory.hpp:77] Creating layer relu4
I0403 12:19:40.092198  8751 net.cpp:91] Creating Layer relu4
I0403 12:19:40.092216  8751 net.cpp:425] relu4 <- conv4
I0403 12:19:40.092236  8751 net.cpp:386] relu4 -> conv4 (in-place)
I0403 12:19:40.092522  8751 net.cpp:141] Setting up relu4
I0403 12:19:40.092552  8751 net.cpp:148] Top shape: 100 384 13 13 (6489600)
I0403 12:19:40.092576  8751 net.cpp:156] Memory required for data: 783398000
I0403 12:19:40.092592  8751 layer_factory.hpp:77] Creating layer conv5
I0403 12:19:40.092617  8751 net.cpp:91] Creating Layer conv5
I0403 12:19:40.092633  8751 net.cpp:425] conv5 <- conv4
I0403 12:19:40.092653  8751 net.cpp:399] conv5 -> conv5
I0403 12:19:40.113463  8751 net.cpp:141] Setting up conv5
I0403 12:19:40.113528  8751 net.cpp:148] Top shape: 100 256 13 13 (4326400)
I0403 12:19:40.113546  8751 net.cpp:156] Memory required for data: 800703600
I0403 12:19:40.113584  8751 layer_factory.hpp:77] Creating layer relu5
I0403 12:19:40.113605  8751 net.cpp:91] Creating Layer relu5
I0403 12:19:40.113632  8751 net.cpp:425] relu5 <- conv5
I0403 12:19:40.113657  8751 net.cpp:386] relu5 -> conv5 (in-place)
I0403 12:19:40.113956  8751 net.cpp:141] Setting up relu5
I0403 12:19:40.113982  8751 net.cpp:148] Top shape: 100 256 13 13 (4326400)
I0403 12:19:40.113997  8751 net.cpp:156] Memory required for data: 818009200
I0403 12:19:40.114012  8751 layer_factory.hpp:77] Creating layer pool5
I0403 12:19:40.114035  8751 net.cpp:91] Creating Layer pool5
I0403 12:19:40.114053  8751 net.cpp:425] pool5 <- conv5
I0403 12:19:40.114069  8751 net.cpp:399] pool5 -> pool5
I0403 12:19:40.114132  8751 net.cpp:141] Setting up pool5
I0403 12:19:40.114156  8751 net.cpp:148] Top shape: 100 256 6 6 (921600)
I0403 12:19:40.114169  8751 net.cpp:156] Memory required for data: 821695600
I0403 12:19:40.114183  8751 layer_factory.hpp:77] Creating layer fc6
I0403 12:19:40.114210  8751 net.cpp:91] Creating Layer fc6
I0403 12:19:40.114226  8751 net.cpp:425] fc6 <- pool5
I0403 12:19:40.114248  8751 net.cpp:399] fc6 -> fc6
I0403 12:19:41.682009  8751 net.cpp:141] Setting up fc6
I0403 12:19:41.682049  8751 net.cpp:148] Top shape: 100 4096 (409600)
I0403 12:19:41.682065  8751 net.cpp:156] Memory required for data: 823334000
I0403 12:19:41.682086  8751 layer_factory.hpp:77] Creating layer relu6
I0403 12:19:41.682111  8751 net.cpp:91] Creating Layer relu6
I0403 12:19:41.682128  8751 net.cpp:425] relu6 <- fc6
I0403 12:19:41.682147  8751 net.cpp:386] relu6 -> fc6 (in-place)
I0403 12:19:41.682361  8751 net.cpp:141] Setting up relu6
I0403 12:19:41.682385  8751 net.cpp:148] Top shape: 100 4096 (409600)
I0403 12:19:41.682399  8751 net.cpp:156] Memory required for data: 824972400
I0403 12:19:41.682413  8751 layer_factory.hpp:77] Creating layer drop6
I0403 12:19:41.682430  8751 net.cpp:91] Creating Layer drop6
I0403 12:19:41.682446  8751 net.cpp:425] drop6 <- fc6
I0403 12:19:41.682463  8751 net.cpp:386] drop6 -> fc6 (in-place)
I0403 12:19:41.682517  8751 net.cpp:141] Setting up drop6
I0403 12:19:41.682543  8751 net.cpp:148] Top shape: 100 4096 (409600)
I0403 12:19:41.682557  8751 net.cpp:156] Memory required for data: 826610800
I0403 12:19:41.682571  8751 layer_factory.hpp:77] Creating layer fc7
I0403 12:19:41.682590  8751 net.cpp:91] Creating Layer fc7
I0403 12:19:41.682605  8751 net.cpp:425] fc7 <- fc6
I0403 12:19:41.682624  8751 net.cpp:399] fc7 -> fc7
I0403 12:19:42.366011  8751 net.cpp:141] Setting up fc7
I0403 12:19:42.366081  8751 net.cpp:148] Top shape: 100 4096 (409600)
I0403 12:19:42.366098  8751 net.cpp:156] Memory required for data: 828249200
I0403 12:19:42.366118  8751 layer_factory.hpp:77] Creating layer relu7
I0403 12:19:42.366140  8751 net.cpp:91] Creating Layer relu7
I0403 12:19:42.366158  8751 net.cpp:425] relu7 <- fc7
I0403 12:19:42.366178  8751 net.cpp:386] relu7 -> fc7 (in-place)
I0403 12:19:42.366592  8751 net.cpp:141] Setting up relu7
I0403 12:19:42.366618  8751 net.cpp:148] Top shape: 100 4096 (409600)
I0403 12:19:42.366672  8751 net.cpp:156] Memory required for data: 829887600
I0403 12:19:42.366688  8751 layer_factory.hpp:77] Creating layer drop7
I0403 12:19:42.366706  8751 net.cpp:91] Creating Layer drop7
I0403 12:19:42.366722  8751 net.cpp:425] drop7 <- fc7
I0403 12:19:42.366741  8751 net.cpp:386] drop7 -> fc7 (in-place)
I0403 12:19:42.366785  8751 net.cpp:141] Setting up drop7
I0403 12:19:42.366806  8751 net.cpp:148] Top shape: 100 4096 (409600)
I0403 12:19:42.366821  8751 net.cpp:156] Memory required for data: 831526000
I0403 12:19:42.366834  8751 layer_factory.hpp:77] Creating layer fc8_plantvillage
I0403 12:19:42.366855  8751 net.cpp:91] Creating Layer fc8_plantvillage
I0403 12:19:42.366871  8751 net.cpp:425] fc8_plantvillage <- fc7
I0403 12:19:42.366891  8751 net.cpp:399] fc8_plantvillage -> fc8_plantvillage
I0403 12:19:42.373605  8751 net.cpp:141] Setting up fc8_plantvillage
I0403 12:19:42.373632  8751 net.cpp:148] Top shape: 100 38 (3800)
I0403 12:19:42.373647  8751 net.cpp:156] Memory required for data: 831541200
I0403 12:19:42.373664  8751 layer_factory.hpp:77] Creating layer fc8_plantvillage_fc8_plantvillage_0_split
I0403 12:19:42.373682  8751 net.cpp:91] Creating Layer fc8_plantvillage_fc8_plantvillage_0_split
I0403 12:19:42.373697  8751 net.cpp:425] fc8_plantvillage_fc8_plantvillage_0_split <- fc8_plantvillage
I0403 12:19:42.373716  8751 net.cpp:399] fc8_plantvillage_fc8_plantvillage_0_split -> fc8_plantvillage_fc8_plantvillage_0_split_0
I0403 12:19:42.373736  8751 net.cpp:399] fc8_plantvillage_fc8_plantvillage_0_split -> fc8_plantvillage_fc8_plantvillage_0_split_1
I0403 12:19:42.373756  8751 net.cpp:399] fc8_plantvillage_fc8_plantvillage_0_split -> fc8_plantvillage_fc8_plantvillage_0_split_2
I0403 12:19:42.373833  8751 net.cpp:141] Setting up fc8_plantvillage_fc8_plantvillage_0_split
I0403 12:19:42.373857  8751 net.cpp:148] Top shape: 100 38 (3800)
I0403 12:19:42.373872  8751 net.cpp:148] Top shape: 100 38 (3800)
I0403 12:19:42.373888  8751 net.cpp:148] Top shape: 100 38 (3800)
I0403 12:19:42.373900  8751 net.cpp:156] Memory required for data: 831586800
I0403 12:19:42.373915  8751 layer_factory.hpp:77] Creating layer prob
I0403 12:19:42.373934  8751 net.cpp:91] Creating Layer prob
I0403 12:19:42.373949  8751 net.cpp:425] prob <- fc8_plantvillage_fc8_plantvillage_0_split_0
I0403 12:19:42.373968  8751 net.cpp:399] prob -> prob
I0403 12:19:42.374193  8751 net.cpp:141] Setting up prob
I0403 12:19:42.374222  8751 net.cpp:148] Top shape: 100 38 (3800)
I0403 12:19:42.374236  8751 net.cpp:156] Memory required for data: 831602000
I0403 12:19:42.374253  8751 layer_factory.hpp:77] Creating layer hdf5out
I0403 12:19:42.374270  8751 net.cpp:91] Creating Layer hdf5out
I0403 12:19:42.374286  8751 net.cpp:425] hdf5out <- prob
I0403 12:19:42.374302  8751 net.cpp:425] hdf5out <- label_data_1_split_0
I0403 12:19:42.662101  8751 net.cpp:141] Setting up hdf5out
…
