…
I0403 12:31:14.873458  9019 net.cpp:313] The NetState phase (1) differed from the phase (0) specified by a rule in layer data
I0403 12:31:14.873782  9019 net.cpp:49] Initializing net from parameters: 
state {
  phase: TEST
}
layer {
  name: "data"
  type: "Data"
  top: "data"
  top: "label"
  include {
    phase: TEST
  }
  transform_param {
    crop_size: 227
    mean_file: "/home/mohanty/data/final_dataset/lmdb/grayscale-20-80/mean.binaryproto"
  }
  data_param {
    source: "/home/mohanty/data/final_dataset/lmdb/grayscale-20-80/test_db"
    batch_size: 100
    backend: LMDB
  }
}
layer {
  name: "conv1"
  type: "Convolution"
  bottom: "data"
  top: "conv1"
  param {
    lr_mult: 1
    decay_mult: 1
  }
  param {
    lr_mult: 2
    decay_mult: 0
  }
  convolution_param {
    num_output: 96
    kernel_size: 11
    stride: 4
    weight_filler {
      type: "gaussian"
      std: 0.01
    }
    bias_filler {
      type: "constant"
      value: 0
    }
  }
}
layer {
  name: "relu1"
  type: "ReLU"
  bottom: "conv1"
  top: "conv1"
}
layer {
  name: "norm1"
  type: "LRN"
  bottom: "conv1"
  top: "norm1"
  lrn_param {
    local_size: 5
    alpha: 0.0001
    beta: 0.75
  }
}
layer {
  name: "pool1"
  type: "Pooling"
  bottom: "norm1"
  top: "pool1"
  pooling_param {
    pool: MAX
    kernel_size: 3
    stride: 2
  }
}
layer {
  name: "conv2"
  type: "Convolution"
  bottom: "pool1"
  top: "conv2"
  param {
    lr_mult: 1
    decay_mult: 1
  }
  param {
    lr_mult: 2
    decay_mult: 0
  }
  convolution_param {
    num_output: 256
    pad: 2
    kernel_size: 5
    group: 2
    weight_filler {
      type: "gaussian"
      std: 0.01
    }
    bias_filler {
      type: "constant"
      value: 0.1
    }
  }
}
layer {
  name: "relu2"
  type: "ReLU"
  bottom: "conv2"
  top: "conv2"
}
layer {
  name: "norm2"
  type: "LRN"
  bottom: "conv2"
  top: "norm2"
  lrn_param {
    local_size: 5
    alpha: 0.0001
    beta: 0.75
  }
}
layer {
  name: "pool2"
  type: "Pooling"
  bottom: "norm2"
  top: "pool2"
  pooling_param {
    pool: MAX
    kernel_size: 3
    stride: 2
  }
}
layer {
  name: "conv3"
  type: "Convolution"
  bottom: "pool2"
  top: "conv3"
  param {
    lr_mult: 1
    decay_mult: 1
  }
  param {
    lr_mult: 2
    decay_mult: 0
  }
  convolution_param {
    num_output: 384
    pad: 1
    kernel_size: 3
    weight_filler {
      type: "gaussian"
      std: 0.01
    }
    bias_filler {
      type: "constant"
      value: 0
    }
  }
}
layer {
  name: "relu3"
  type: "ReLU"
  bottom: "conv3"
  top: "conv3"
}
layer {
  name: "conv4"
  type: "Convolution"
  bottom: "conv3"
  top: "conv4"
  param {
    lr_mult: 1
    decay_mult: 1
  }
  param {
    lr_mult: 2
    decay_mult: 0
  }
  convolution_param {
    num_output: 384
    pad: 1
    kernel_size: 3
    group: 2
    weight_filler {
      type: "gaussian"
      std: 0.01
    }
    bias_filler {
      type: "constant"
      value: 0.1
    }
  }
}
layer {
  name: "relu4"
  type: "ReLU"
  bottom: "conv4"
  top: "conv4"
}
layer {
  name: "conv5"
  type: "Convolution"
  bottom: "conv4"
  top: "conv5"
  param {
    lr_mult: 1
    decay_mult: 1
  }
  param {
    lr_mult: 2
    decay_mult: 0
  }
  convolution_param {
    num_output: 256
    pad: 1
    kernel_size: 3
    group: 2
    weight_filler {
      type: "gaussian"
      std: 0.01
    }
    bias_filler {
      type: "constant"
      value: 0.1
    }
  }
}
layer {
  name: "relu5"
  type: "ReLU"
  bottom: "conv5"
  top: "conv5"
}
layer {
  name: "pool5"
  type: "Pooling"
  bottom: "conv5"
  top: "pool5"
  pooling_param {
    pool: MAX
    kernel_size: 3
    stride: 2
  }
}
layer {
  name: "fc6"
  type: "InnerProduct"
  bottom: "pool5"
  top: "fc6"
  param {
    lr_mult: 1
    decay_mult: 1
  }
  param {
    lr_mult: 2
    decay_mult: 0
  }
  inner_product_param {
    num_output: 4096
    weight_filler {
      type: "gaussian"
      std: 0.005
    }
    bias_filler {
      type: "constant"
      value: 0.1
    }
  }
}
layer {
  name: "relu6"
  type: "ReLU"
  bottom: "fc6"
  top: "fc6"
}
layer {
  name: "drop6"
  type: "Dropout"
  bottom: "fc6"
  top: "fc6"
  dropout_param {
    dropout_ratio: 0.5
  }
}
layer {
  name: "fc7"
  type: "InnerProduct"
  bottom: "fc6"
  top: "fc7"
  param {
    lr_mult: 1
    decay_mult: 1
  }
  param {
    lr_mult: 2
    decay_mult: 0
  }
  inner_product_param {
    num_output: 4096
    weight_filler {
      type: "gaussian"
      std: 0.005
    }
    bias_filler {
      type: "constant"
      value: 0.1
    }
  }
}
layer {
  name: "relu7"
  type: "ReLU"
  bottom: "fc7"
  top: "fc7"
}
layer {
  name: "drop7"
  type: "Dropout"
  bottom: "fc7"
  top: "fc7"
  dropout_param {
    dropout_ratio: 0.5
  }
}
layer {
  name: "fc8_plantvillage"
  type: "InnerProduct"
  bottom: "fc7"
  top: "fc8_plantvillage"
  param {
    lr_mult: 1
    decay_mult: 1
  }
  param {
    lr_mult: 2
    decay_mult: 0
  }
  inner_product_param {
    num_output: 38
    weight_filler {
      type: "gaussian"
      std: 0.01
    }
    bias_filler {
      type: "constant"
      value: 0
    }
  }
}
layer {
  name: "prob"
  type: "Softmax"
  bottom: "fc8_plantvillage"
  top: "prob"
  include {
    phase: TEST
  }
}
layer {
  name: "hdf5out"
  type: "HDF5Output"
  bottom: "prob"
  bottom: "label"
  include {
    phase: TEST
  }
  hdf5_output_param {
    file_name: "hdf5_dumps/iter_2205.h5"
  }
}
layer {
  name: "loss"
  type: "SoftmaxWithLoss"
  bottom: "fc8_plantvillage"
  bottom: "label"
  top: "loss"
}
layer {
  name: "accuracy"
  type: "Accuracy"
  bottom: "fc8_plantvillage"
  bottom: "label"
  top: "accuracy"
  include {
    phase: TEST
  }
}
I0403 12:31:14.874371  9019 layer_factory.hpp:77] Creating layer data
I0403 12:31:14.875046  9019 net.cpp:91] Creating Layer data
I0403 12:31:14.875079  9019 net.cpp:399] data -> data
I0403 12:31:14.875131  9019 net.cpp:399] data -> label
I0403 12:31:14.875169  9019 data_transformer.cpp:25] Loading mean file from: /home/mohanty/data/final_dataset/lmdb/grayscale-20-80/mean.binaryproto
I0403 12:31:14.877642  9023 db_lmdb.cpp:38] Opened lmdb /home/mohanty/data/final_dataset/lmdb/grayscale-20-80/test_db
I0403 12:31:14.889369  9019 data_layer.cpp:41] output data size: 100,3,227,227
I0403 12:31:15.007938  9019 net.cpp:141] Setting up data
I0403 12:31:15.008034  9019 net.cpp:148] Top shape: 100 3 227 227 (15458700)
I0403 12:31:15.008056  9019 net.cpp:148] Top shape: 100 (100)
I0403 12:31:15.008071  9019 net.cpp:156] Memory required for data: 61835200
I0403 12:31:15.008100  9019 layer_factory.hpp:77] Creating layer label_data_1_split
I0403 12:31:15.008126  9019 net.cpp:91] Creating Layer label_data_1_split
I0403 12:31:15.008143  9019 net.cpp:425] label_data_1_split <- label
I0403 12:31:15.008175  9019 net.cpp:399] label_data_1_split -> label_data_1_split_0
I0403 12:31:15.008203  9019 net.cpp:399] label_data_1_split -> label_data_1_split_1
I0403 12:31:15.008222  9019 net.cpp:399] label_data_1_split -> label_data_1_split_2
I0403 12:31:15.008285  9019 net.cpp:141] Setting up label_data_1_split
I0403 12:31:15.008308  9019 net.cpp:148] Top shape: 100 (100)
I0403 12:31:15.008323  9019 net.cpp:148] Top shape: 100 (100)
I0403 12:31:15.008339  9019 net.cpp:148] Top shape: 100 (100)
I0403 12:31:15.008353  9019 net.cpp:156] Memory required for data: 61836400
I0403 12:31:15.008368  9019 layer_factory.hpp:77] Creating layer conv1
I0403 12:31:15.008399  9019 net.cpp:91] Creating Layer conv1
I0403 12:31:15.008417  9019 net.cpp:425] conv1 <- data
I0403 12:31:15.008437  9019 net.cpp:399] conv1 -> conv1
I0403 12:31:15.146173  9019 net.cpp:141] Setting up conv1
I0403 12:31:15.146250  9019 net.cpp:148] Top shape: 100 96 55 55 (29040000)
I0403 12:31:15.146267  9019 net.cpp:156] Memory required for data: 177996400
I0403 12:31:15.146298  9019 layer_factory.hpp:77] Creating layer relu1
I0403 12:31:15.146325  9019 net.cpp:91] Creating Layer relu1
I0403 12:31:15.146343  9019 net.cpp:425] relu1 <- conv1
I0403 12:31:15.146361  9019 net.cpp:386] relu1 -> conv1 (in-place)
I0403 12:31:15.146621  9019 net.cpp:141] Setting up relu1
I0403 12:31:15.146649  9019 net.cpp:148] Top shape: 100 96 55 55 (29040000)
I0403 12:31:15.146698  9019 net.cpp:156] Memory required for data: 294156400
I0403 12:31:15.146715  9019 layer_factory.hpp:77] Creating layer norm1
I0403 12:31:15.146741  9019 net.cpp:91] Creating Layer norm1
I0403 12:31:15.146759  9019 net.cpp:425] norm1 <- conv1
I0403 12:31:15.146778  9019 net.cpp:399] norm1 -> norm1
I0403 12:31:15.147114  9019 net.cpp:141] Setting up norm1
I0403 12:31:15.147142  9019 net.cpp:148] Top shape: 100 96 55 55 (29040000)
I0403 12:31:15.147157  9019 net.cpp:156] Memory required for data: 410316400
I0403 12:31:15.147171  9019 layer_factory.hpp:77] Creating layer pool1
I0403 12:31:15.147195  9019 net.cpp:91] Creating Layer pool1
I0403 12:31:15.147212  9019 net.cpp:425] pool1 <- norm1
I0403 12:31:15.147230  9019 net.cpp:399] pool1 -> pool1
I0403 12:31:15.147296  9019 net.cpp:141] Setting up pool1
I0403 12:31:15.147320  9019 net.cpp:148] Top shape: 100 96 27 27 (6998400)
I0403 12:31:15.147336  9019 net.cpp:156] Memory required for data: 438310000
I0403 12:31:15.147349  9019 layer_factory.hpp:77] Creating layer conv2
I0403 12:31:15.147374  9019 net.cpp:91] Creating Layer conv2
I0403 12:31:15.147390  9019 net.cpp:425] conv2 <- pool1
I0403 12:31:15.147408  9019 net.cpp:399] conv2 -> conv2
I0403 12:31:15.162461  9019 net.cpp:141] Setting up conv2
I0403 12:31:15.162515  9019 net.cpp:148] Top shape: 100 256 27 27 (18662400)
I0403 12:31:15.162533  9019 net.cpp:156] Memory required for data: 512959600
I0403 12:31:15.162561  9019 layer_factory.hpp:77] Creating layer relu2
I0403 12:31:15.162582  9019 net.cpp:91] Creating Layer relu2
I0403 12:31:15.162598  9019 net.cpp:425] relu2 <- conv2
I0403 12:31:15.162616  9019 net.cpp:386] relu2 -> conv2 (in-place)
I0403 12:31:15.162886  9019 net.cpp:141] Setting up relu2
I0403 12:31:15.162914  9019 net.cpp:148] Top shape: 100 256 27 27 (18662400)
I0403 12:31:15.162928  9019 net.cpp:156] Memory required for data: 587609200
I0403 12:31:15.162943  9019 layer_factory.hpp:77] Creating layer norm2
I0403 12:31:15.162966  9019 net.cpp:91] Creating Layer norm2
I0403 12:31:15.162981  9019 net.cpp:425] norm2 <- conv2
I0403 12:31:15.162999  9019 net.cpp:399] norm2 -> norm2
I0403 12:31:15.163185  9019 net.cpp:141] Setting up norm2
I0403 12:31:15.163210  9019 net.cpp:148] Top shape: 100 256 27 27 (18662400)
I0403 12:31:15.163225  9019 net.cpp:156] Memory required for data: 662258800
I0403 12:31:15.163240  9019 layer_factory.hpp:77] Creating layer pool2
I0403 12:31:15.163259  9019 net.cpp:91] Creating Layer pool2
I0403 12:31:15.163274  9019 net.cpp:425] pool2 <- norm2
I0403 12:31:15.163291  9019 net.cpp:399] pool2 -> pool2
I0403 12:31:15.163342  9019 net.cpp:141] Setting up pool2
I0403 12:31:15.163365  9019 net.cpp:148] Top shape: 100 256 13 13 (4326400)
I0403 12:31:15.163379  9019 net.cpp:156] Memory required for data: 679564400
I0403 12:31:15.163394  9019 layer_factory.hpp:77] Creating layer conv3
I0403 12:31:15.163416  9019 net.cpp:91] Creating Layer conv3
I0403 12:31:15.163432  9019 net.cpp:425] conv3 <- pool2
I0403 12:31:15.163450  9019 net.cpp:399] conv3 -> conv3
I0403 12:31:15.203732  9019 net.cpp:141] Setting up conv3
I0403 12:31:15.203781  9019 net.cpp:148] Top shape: 100 384 13 13 (6489600)
I0403 12:31:15.203800  9019 net.cpp:156] Memory required for data: 705522800
I0403 12:31:15.203835  9019 layer_factory.hpp:77] Creating layer relu3
I0403 12:31:15.203862  9019 net.cpp:91] Creating Layer relu3
I0403 12:31:15.203879  9019 net.cpp:425] relu3 <- conv3
I0403 12:31:15.203899  9019 net.cpp:386] relu3 -> conv3 (in-place)
I0403 12:31:15.204165  9019 net.cpp:141] Setting up relu3
I0403 12:31:15.204196  9019 net.cpp:148] Top shape: 100 384 13 13 (6489600)
I0403 12:31:15.204211  9019 net.cpp:156] Memory required for data: 731481200
I0403 12:31:15.204226  9019 layer_factory.hpp:77] Creating layer conv4
I0403 12:31:15.204251  9019 net.cpp:91] Creating Layer conv4
I0403 12:31:15.204268  9019 net.cpp:425] conv4 <- conv3
I0403 12:31:15.204288  9019 net.cpp:399] conv4 -> conv4
I0403 12:31:15.234343  9019 net.cpp:141] Setting up conv4
I0403 12:31:15.234411  9019 net.cpp:148] Top shape: 100 384 13 13 (6489600)
I0403 12:31:15.234463  9019 net.cpp:156] Memory required for data: 757439600
I0403 12:31:15.234485  9019 layer_factory.hpp:77] Creating layer relu4
I0403 12:31:15.234509  9019 net.cpp:91] Creating Layer relu4
I0403 12:31:15.234527  9019 net.cpp:425] relu4 <- conv4
I0403 12:31:15.234557  9019 net.cpp:386] relu4 -> conv4 (in-place)
I0403 12:31:15.234832  9019 net.cpp:141] Setting up relu4
I0403 12:31:15.234858  9019 net.cpp:148] Top shape: 100 384 13 13 (6489600)
I0403 12:31:15.234874  9019 net.cpp:156] Memory required for data: 783398000
I0403 12:31:15.234889  9019 layer_factory.hpp:77] Creating layer conv5
I0403 12:31:15.234913  9019 net.cpp:91] Creating Layer conv5
I0403 12:31:15.234932  9019 net.cpp:425] conv5 <- conv4
I0403 12:31:15.234951  9019 net.cpp:399] conv5 -> conv5
I0403 12:31:15.255568  9019 net.cpp:141] Setting up conv5
I0403 12:31:15.255625  9019 net.cpp:148] Top shape: 100 256 13 13 (4326400)
I0403 12:31:15.255643  9019 net.cpp:156] Memory required for data: 800703600
I0403 12:31:15.255668  9019 layer_factory.hpp:77] Creating layer relu5
I0403 12:31:15.255689  9019 net.cpp:91] Creating Layer relu5
I0403 12:31:15.255707  9019 net.cpp:425] relu5 <- conv5
I0403 12:31:15.255723  9019 net.cpp:386] relu5 -> conv5 (in-place)
I0403 12:31:15.256001  9019 net.cpp:141] Setting up relu5
I0403 12:31:15.256031  9019 net.cpp:148] Top shape: 100 256 13 13 (4326400)
I0403 12:31:15.256047  9019 net.cpp:156] Memory required for data: 818009200
I0403 12:31:15.256062  9019 layer_factory.hpp:77] Creating layer pool5
I0403 12:31:15.256083  9019 net.cpp:91] Creating Layer pool5
I0403 12:31:15.256099  9019 net.cpp:425] pool5 <- conv5
I0403 12:31:15.256121  9019 net.cpp:399] pool5 -> pool5
I0403 12:31:15.256184  9019 net.cpp:141] Setting up pool5
I0403 12:31:15.256208  9019 net.cpp:148] Top shape: 100 256 6 6 (921600)
I0403 12:31:15.256223  9019 net.cpp:156] Memory required for data: 821695600
I0403 12:31:15.256238  9019 layer_factory.hpp:77] Creating layer fc6
I0403 12:31:15.256268  9019 net.cpp:91] Creating Layer fc6
I0403 12:31:15.256286  9019 net.cpp:425] fc6 <- pool5
I0403 12:31:15.256315  9019 net.cpp:399] fc6 -> fc6
I0403 12:31:16.809609  9019 net.cpp:141] Setting up fc6
I0403 12:31:16.809684  9019 net.cpp:148] Top shape: 100 4096 (409600)
I0403 12:31:16.809701  9019 net.cpp:156] Memory required for data: 823334000
I0403 12:31:16.809722  9019 layer_factory.hpp:77] Creating layer relu6
I0403 12:31:16.809748  9019 net.cpp:91] Creating Layer relu6
I0403 12:31:16.809767  9019 net.cpp:425] relu6 <- fc6
I0403 12:31:16.809784  9019 net.cpp:386] relu6 -> fc6 (in-place)
I0403 12:31:16.809998  9019 net.cpp:141] Setting up relu6
I0403 12:31:16.810025  9019 net.cpp:148] Top shape: 100 4096 (409600)
I0403 12:31:16.810040  9019 net.cpp:156] Memory required for data: 824972400
I0403 12:31:16.810055  9019 layer_factory.hpp:77] Creating layer drop6
I0403 12:31:16.810072  9019 net.cpp:91] Creating Layer drop6
I0403 12:31:16.810087  9019 net.cpp:425] drop6 <- fc6
I0403 12:31:16.810104  9019 net.cpp:386] drop6 -> fc6 (in-place)
I0403 12:31:16.810156  9019 net.cpp:141] Setting up drop6
I0403 12:31:16.810179  9019 net.cpp:148] Top shape: 100 4096 (409600)
I0403 12:31:16.810194  9019 net.cpp:156] Memory required for data: 826610800
I0403 12:31:16.810207  9019 layer_factory.hpp:77] Creating layer fc7
I0403 12:31:16.810230  9019 net.cpp:91] Creating Layer fc7
I0403 12:31:16.810245  9019 net.cpp:425] fc7 <- fc6
I0403 12:31:16.810264  9019 net.cpp:399] fc7 -> fc7
I0403 12:31:17.493818  9019 net.cpp:141] Setting up fc7
I0403 12:31:17.493896  9019 net.cpp:148] Top shape: 100 4096 (409600)
I0403 12:31:17.493912  9019 net.cpp:156] Memory required for data: 828249200
I0403 12:31:17.493933  9019 layer_factory.hpp:77] Creating layer relu7
I0403 12:31:17.493957  9019 net.cpp:91] Creating Layer relu7
I0403 12:31:17.493976  9019 net.cpp:425] relu7 <- fc7
I0403 12:31:17.493994  9019 net.cpp:386] relu7 -> fc7 (in-place)
I0403 12:31:17.494422  9019 net.cpp:141] Setting up relu7
I0403 12:31:17.494451  9019 net.cpp:148] Top shape: 100 4096 (409600)
I0403 12:31:17.494518  9019 net.cpp:156] Memory required for data: 829887600
I0403 12:31:17.494535  9019 layer_factory.hpp:77] Creating layer drop7
I0403 12:31:17.494565  9019 net.cpp:91] Creating Layer drop7
I0403 12:31:17.494580  9019 net.cpp:425] drop7 <- fc7
I0403 12:31:17.494596  9019 net.cpp:386] drop7 -> fc7 (in-place)
I0403 12:31:17.494642  9019 net.cpp:141] Setting up drop7
I0403 12:31:17.494663  9019 net.cpp:148] Top shape: 100 4096 (409600)
I0403 12:31:17.494678  9019 net.cpp:156] Memory required for data: 831526000
I0403 12:31:17.494691  9019 layer_factory.hpp:77] Creating layer fc8_plantvillage
I0403 12:31:17.494714  9019 net.cpp:91] Creating Layer fc8_plantvillage
I0403 12:31:17.494731  9019 net.cpp:425] fc8_plantvillage <- fc7
I0403 12:31:17.494748  9019 net.cpp:399] fc8_plantvillage -> fc8_plantvillage
I0403 12:31:17.501690  9019 net.cpp:141] Setting up fc8_plantvillage
I0403 12:31:17.501719  9019 net.cpp:148] Top shape: 100 38 (3800)
I0403 12:31:17.501734  9019 net.cpp:156] Memory required for data: 831541200
I0403 12:31:17.501752  9019 layer_factory.hpp:77] Creating layer fc8_plantvillage_fc8_plantvillage_0_split
I0403 12:31:17.501771  9019 net.cpp:91] Creating Layer fc8_plantvillage_fc8_plantvillage_0_split
I0403 12:31:17.501786  9019 net.cpp:425] fc8_plantvillage_fc8_plantvillage_0_split <- fc8_plantvillage
I0403 12:31:17.501803  9019 net.cpp:399] fc8_plantvillage_fc8_plantvillage_0_split -> fc8_plantvillage_fc8_plantvillage_0_split_0
I0403 12:31:17.501826  9019 net.cpp:399] fc8_plantvillage_fc8_plantvillage_0_split -> fc8_plantvillage_fc8_plantvillage_0_split_1
I0403 12:31:17.501847  9019 net.cpp:399] fc8_plantvillage_fc8_plantvillage_0_split -> fc8_plantvillage_fc8_plantvillage_0_split_2
I0403 12:31:17.501927  9019 net.cpp:141] Setting up fc8_plantvillage_fc8_plantvillage_0_split
I0403 12:31:17.501951  9019 net.cpp:148] Top shape: 100 38 (3800)
I0403 12:31:17.501967  9019 net.cpp:148] Top shape: 100 38 (3800)
I0403 12:31:17.501982  9019 net.cpp:148] Top shape: 100 38 (3800)
I0403 12:31:17.501996  9019 net.cpp:156] Memory required for data: 831586800
I0403 12:31:17.502012  9019 layer_factory.hpp:77] Creating layer prob
I0403 12:31:17.502030  9019 net.cpp:91] Creating Layer prob
I0403 12:31:17.502045  9019 net.cpp:425] prob <- fc8_plantvillage_fc8_plantvillage_0_split_0
I0403 12:31:17.502063  9019 net.cpp:399] prob -> prob
I0403 12:31:17.502290  9019 net.cpp:141] Setting up prob
I0403 12:31:17.502315  9019 net.cpp:148] Top shape: 100 38 (3800)
I0403 12:31:17.502331  9019 net.cpp:156] Memory required for data: 831602000
I0403 12:31:17.502346  9019 layer_factory.hpp:77] Creating layer hdf5out
I0403 12:31:17.502367  9019 net.cpp:91] Creating Layer hdf5out
I0403 12:31:17.502384  9019 net.cpp:425] hdf5out <- prob
I0403 12:31:17.502401  9019 net.cpp:425] hdf5out <- label_data_1_split_0
I0403 12:31:17.504995  9019 net.cpp:141] Setting up hdf5out
…
