…
I0403 12:44:13.972792  9474 net.cpp:313] The NetState phase (1) differed from the phase (0) specified by a rule in layer data
I0403 12:44:13.973096  9474 net.cpp:49] Initializing net from parameters: 
state {
  phase: TEST
}
layer {
  name: "data"
  type: "Data"
  top: "data"
  top: "label"
  include {
    phase: TEST
  }
  transform_param {
    crop_size: 227
    mean_file: "/home/mohanty/data/final_dataset/lmdb/grayscale-20-80/mean.binaryproto"
  }
  data_param {
    source: "/home/mohanty/data/final_dataset/lmdb/grayscale-20-80/test_db"
    batch_size: 100
    backend: LMDB
  }
}
layer {
  name: "conv1"
  type: "Convolution"
  bottom: "data"
  top: "conv1"
  param {
    lr_mult: 1
    decay_mult: 1
  }
  param {
    lr_mult: 2
    decay_mult: 0
  }
  convolution_param {
    num_output: 96
    kernel_size: 11
    stride: 4
    weight_filler {
      type: "gaussian"
      std: 0.01
    }
    bias_filler {
      type: "constant"
      value: 0
    }
  }
}
layer {
  name: "relu1"
  type: "ReLU"
  bottom: "conv1"
  top: "conv1"
}
layer {
  name: "norm1"
  type: "LRN"
  bottom: "conv1"
  top: "norm1"
  lrn_param {
    local_size: 5
    alpha: 0.0001
    beta: 0.75
  }
}
layer {
  name: "pool1"
  type: "Pooling"
  bottom: "norm1"
  top: "pool1"
  pooling_param {
    pool: MAX
    kernel_size: 3
    stride: 2
  }
}
layer {
  name: "conv2"
  type: "Convolution"
  bottom: "pool1"
  top: "conv2"
  param {
    lr_mult: 1
    decay_mult: 1
  }
  param {
    lr_mult: 2
    decay_mult: 0
  }
  convolution_param {
    num_output: 256
    pad: 2
    kernel_size: 5
    group: 2
    weight_filler {
      type: "gaussian"
      std: 0.01
    }
    bias_filler {
      type: "constant"
      value: 0.1
    }
  }
}
layer {
  name: "relu2"
  type: "ReLU"
  bottom: "conv2"
  top: "conv2"
}
layer {
  name: "norm2"
  type: "LRN"
  bottom: "conv2"
  top: "norm2"
  lrn_param {
    local_size: 5
    alpha: 0.0001
    beta: 0.75
  }
}
layer {
  name: "pool2"
  type: "Pooling"
  bottom: "norm2"
  top: "pool2"
  pooling_param {
    pool: MAX
    kernel_size: 3
    stride: 2
  }
}
layer {
  name: "conv3"
  type: "Convolution"
  bottom: "pool2"
  top: "conv3"
  param {
    lr_mult: 1
    decay_mult: 1
  }
  param {
    lr_mult: 2
    decay_mult: 0
  }
  convolution_param {
    num_output: 384
    pad: 1
    kernel_size: 3
    weight_filler {
      type: "gaussian"
      std: 0.01
    }
    bias_filler {
      type: "constant"
      value: 0
    }
  }
}
layer {
  name: "relu3"
  type: "ReLU"
  bottom: "conv3"
  top: "conv3"
}
layer {
  name: "conv4"
  type: "Convolution"
  bottom: "conv3"
  top: "conv4"
  param {
    lr_mult: 1
    decay_mult: 1
  }
  param {
    lr_mult: 2
    decay_mult: 0
  }
  convolution_param {
    num_output: 384
    pad: 1
    kernel_size: 3
    group: 2
    weight_filler {
      type: "gaussian"
      std: 0.01
    }
    bias_filler {
      type: "constant"
      value: 0.1
    }
  }
}
layer {
  name: "relu4"
  type: "ReLU"
  bottom: "conv4"
  top: "conv4"
}
layer {
  name: "conv5"
  type: "Convolution"
  bottom: "conv4"
  top: "conv5"
  param {
    lr_mult: 1
    decay_mult: 1
  }
  param {
    lr_mult: 2
    decay_mult: 0
  }
  convolution_param {
    num_output: 256
    pad: 1
    kernel_size: 3
    group: 2
    weight_filler {
      type: "gaussian"
      std: 0.01
    }
    bias_filler {
      type: "constant"
      value: 0.1
    }
  }
}
layer {
  name: "relu5"
  type: "ReLU"
  bottom: "conv5"
  top: "conv5"
}
layer {
  name: "pool5"
  type: "Pooling"
  bottom: "conv5"
  top: "pool5"
  pooling_param {
    pool: MAX
    kernel_size: 3
    stride: 2
  }
}
layer {
  name: "fc6"
  type: "InnerProduct"
  bottom: "pool5"
  top: "fc6"
  param {
    lr_mult: 1
    decay_mult: 1
  }
  param {
    lr_mult: 2
    decay_mult: 0
  }
  inner_product_param {
    num_output: 4096
    weight_filler {
      type: "gaussian"
      std: 0.005
    }
    bias_filler {
      type: "constant"
      value: 0.1
    }
  }
}
layer {
  name: "relu6"
  type: "ReLU"
  bottom: "fc6"
  top: "fc6"
}
layer {
  name: "drop6"
  type: "Dropout"
  bottom: "fc6"
  top: "fc6"
  dropout_param {
    dropout_ratio: 0.5
  }
}
layer {
  name: "fc7"
  type: "InnerProduct"
  bottom: "fc6"
  top: "fc7"
  param {
    lr_mult: 1
    decay_mult: 1
  }
  param {
    lr_mult: 2
    decay_mult: 0
  }
  inner_product_param {
    num_output: 4096
    weight_filler {
      type: "gaussian"
      std: 0.005
    }
    bias_filler {
      type: "constant"
      value: 0.1
    }
  }
}
layer {
  name: "relu7"
  type: "ReLU"
  bottom: "fc7"
  top: "fc7"
}
layer {
  name: "drop7"
  type: "Dropout"
  bottom: "fc7"
  top: "fc7"
  dropout_param {
    dropout_ratio: 0.5
  }
}
layer {
  name: "fc8_plantvillage"
  type: "InnerProduct"
  bottom: "fc7"
  top: "fc8_plantvillage"
  param {
    lr_mult: 1
    decay_mult: 1
  }
  param {
    lr_mult: 2
    decay_mult: 0
  }
  inner_product_param {
    num_output: 38
    weight_filler {
      type: "gaussian"
      std: 0.01
    }
    bias_filler {
      type: "constant"
      value: 0
    }
  }
}
layer {
  name: "prob"
  type: "Softmax"
  bottom: "fc8_plantvillage"
  top: "prob"
  include {
    phase: TEST
  }
}
layer {
  name: "hdf5out"
  type: "HDF5Output"
  bottom: "prob"
  bottom: "label"
  include {
    phase: TEST
  }
  hdf5_output_param {
    file_name: "hdf5_dumps/iter_3150.h5"
  }
}
layer {
  name: "loss"
  type: "SoftmaxWithLoss"
  bottom: "fc8_plantvillage"
  bottom: "label"
  top: "loss"
}
layer {
  name: "accuracy"
  type: "Accuracy"
  bottom: "fc8_plantvillage"
  bottom: "label"
  top: "accuracy"
  include {
    phase: TEST
  }
}
I0403 12:44:13.973681  9474 layer_factory.hpp:77] Creating layer data
I0403 12:44:13.974326  9474 net.cpp:91] Creating Layer data
I0403 12:44:13.974356  9474 net.cpp:399] data -> data
I0403 12:44:13.974406  9474 net.cpp:399] data -> label
I0403 12:44:13.974442  9474 data_transformer.cpp:25] Loading mean file from: /home/mohanty/data/final_dataset/lmdb/grayscale-20-80/mean.binaryproto
I0403 12:44:13.977397  9477 db_lmdb.cpp:38] Opened lmdb /home/mohanty/data/final_dataset/lmdb/grayscale-20-80/test_db
I0403 12:44:13.988512  9474 data_layer.cpp:41] output data size: 100,3,227,227
I0403 12:44:14.108486  9474 net.cpp:141] Setting up data
I0403 12:44:14.108587  9474 net.cpp:148] Top shape: 100 3 227 227 (15458700)
I0403 12:44:14.108609  9474 net.cpp:148] Top shape: 100 (100)
I0403 12:44:14.108625  9474 net.cpp:156] Memory required for data: 61835200
I0403 12:44:14.108654  9474 layer_factory.hpp:77] Creating layer label_data_1_split
I0403 12:44:14.108680  9474 net.cpp:91] Creating Layer label_data_1_split
I0403 12:44:14.108697  9474 net.cpp:425] label_data_1_split <- label
I0403 12:44:14.108728  9474 net.cpp:399] label_data_1_split -> label_data_1_split_0
I0403 12:44:14.108757  9474 net.cpp:399] label_data_1_split -> label_data_1_split_1
I0403 12:44:14.108777  9474 net.cpp:399] label_data_1_split -> label_data_1_split_2
I0403 12:44:14.108845  9474 net.cpp:141] Setting up label_data_1_split
I0403 12:44:14.108867  9474 net.cpp:148] Top shape: 100 (100)
I0403 12:44:14.108883  9474 net.cpp:148] Top shape: 100 (100)
I0403 12:44:14.108899  9474 net.cpp:148] Top shape: 100 (100)
I0403 12:44:14.108912  9474 net.cpp:156] Memory required for data: 61836400
I0403 12:44:14.108927  9474 layer_factory.hpp:77] Creating layer conv1
I0403 12:44:14.108957  9474 net.cpp:91] Creating Layer conv1
I0403 12:44:14.108973  9474 net.cpp:425] conv1 <- data
I0403 12:44:14.108992  9474 net.cpp:399] conv1 -> conv1
I0403 12:44:14.251235  9474 net.cpp:141] Setting up conv1
I0403 12:44:14.251309  9474 net.cpp:148] Top shape: 100 96 55 55 (29040000)
I0403 12:44:14.251327  9474 net.cpp:156] Memory required for data: 177996400
I0403 12:44:14.251358  9474 layer_factory.hpp:77] Creating layer relu1
I0403 12:44:14.251384  9474 net.cpp:91] Creating Layer relu1
I0403 12:44:14.251402  9474 net.cpp:425] relu1 <- conv1
I0403 12:44:14.251420  9474 net.cpp:386] relu1 -> conv1 (in-place)
I0403 12:44:14.251682  9474 net.cpp:141] Setting up relu1
I0403 12:44:14.251709  9474 net.cpp:148] Top shape: 100 96 55 55 (29040000)
I0403 12:44:14.251765  9474 net.cpp:156] Memory required for data: 294156400
I0403 12:44:14.251780  9474 layer_factory.hpp:77] Creating layer norm1
I0403 12:44:14.251806  9474 net.cpp:91] Creating Layer norm1
I0403 12:44:14.251824  9474 net.cpp:425] norm1 <- conv1
I0403 12:44:14.251842  9474 net.cpp:399] norm1 -> norm1
I0403 12:44:14.252154  9474 net.cpp:141] Setting up norm1
I0403 12:44:14.252182  9474 net.cpp:148] Top shape: 100 96 55 55 (29040000)
I0403 12:44:14.252197  9474 net.cpp:156] Memory required for data: 410316400
I0403 12:44:14.252212  9474 layer_factory.hpp:77] Creating layer pool1
I0403 12:44:14.252233  9474 net.cpp:91] Creating Layer pool1
I0403 12:44:14.252250  9474 net.cpp:425] pool1 <- norm1
I0403 12:44:14.252267  9474 net.cpp:399] pool1 -> pool1
I0403 12:44:14.252348  9474 net.cpp:141] Setting up pool1
I0403 12:44:14.252372  9474 net.cpp:148] Top shape: 100 96 27 27 (6998400)
I0403 12:44:14.252388  9474 net.cpp:156] Memory required for data: 438310000
I0403 12:44:14.252403  9474 layer_factory.hpp:77] Creating layer conv2
I0403 12:44:14.252426  9474 net.cpp:91] Creating Layer conv2
I0403 12:44:14.252441  9474 net.cpp:425] conv2 <- pool1
I0403 12:44:14.252460  9474 net.cpp:399] conv2 -> conv2
I0403 12:44:14.267573  9474 net.cpp:141] Setting up conv2
I0403 12:44:14.267626  9474 net.cpp:148] Top shape: 100 256 27 27 (18662400)
I0403 12:44:14.267642  9474 net.cpp:156] Memory required for data: 512959600
I0403 12:44:14.267664  9474 layer_factory.hpp:77] Creating layer relu2
I0403 12:44:14.267684  9474 net.cpp:91] Creating Layer relu2
I0403 12:44:14.267700  9474 net.cpp:425] relu2 <- conv2
I0403 12:44:14.267721  9474 net.cpp:386] relu2 -> conv2 (in-place)
I0403 12:44:14.268007  9474 net.cpp:141] Setting up relu2
I0403 12:44:14.268033  9474 net.cpp:148] Top shape: 100 256 27 27 (18662400)
I0403 12:44:14.268049  9474 net.cpp:156] Memory required for data: 587609200
I0403 12:44:14.268065  9474 layer_factory.hpp:77] Creating layer norm2
I0403 12:44:14.268087  9474 net.cpp:91] Creating Layer norm2
I0403 12:44:14.268105  9474 net.cpp:425] norm2 <- conv2
I0403 12:44:14.268126  9474 net.cpp:399] norm2 -> norm2
I0403 12:44:14.268359  9474 net.cpp:141] Setting up norm2
I0403 12:44:14.268386  9474 net.cpp:148] Top shape: 100 256 27 27 (18662400)
I0403 12:44:14.268401  9474 net.cpp:156] Memory required for data: 662258800
I0403 12:44:14.268416  9474 layer_factory.hpp:77] Creating layer pool2
I0403 12:44:14.268435  9474 net.cpp:91] Creating Layer pool2
I0403 12:44:14.268450  9474 net.cpp:425] pool2 <- norm2
I0403 12:44:14.268470  9474 net.cpp:399] pool2 -> pool2
I0403 12:44:14.268523  9474 net.cpp:141] Setting up pool2
I0403 12:44:14.268550  9474 net.cpp:148] Top shape: 100 256 13 13 (4326400)
I0403 12:44:14.268566  9474 net.cpp:156] Memory required for data: 679564400
I0403 12:44:14.268581  9474 layer_factory.hpp:77] Creating layer conv3
I0403 12:44:14.268606  9474 net.cpp:91] Creating Layer conv3
I0403 12:44:14.268625  9474 net.cpp:425] conv3 <- pool2
I0403 12:44:14.268641  9474 net.cpp:399] conv3 -> conv3
I0403 12:44:14.307226  9474 net.cpp:141] Setting up conv3
I0403 12:44:14.307297  9474 net.cpp:148] Top shape: 100 384 13 13 (6489600)
I0403 12:44:14.307314  9474 net.cpp:156] Memory required for data: 705522800
I0403 12:44:14.307339  9474 layer_factory.hpp:77] Creating layer relu3
I0403 12:44:14.307365  9474 net.cpp:91] Creating Layer relu3
I0403 12:44:14.307384  9474 net.cpp:425] relu3 <- conv3
I0403 12:44:14.307402  9474 net.cpp:386] relu3 -> conv3 (in-place)
I0403 12:44:14.307682  9474 net.cpp:141] Setting up relu3
I0403 12:44:14.307709  9474 net.cpp:148] Top shape: 100 384 13 13 (6489600)
I0403 12:44:14.307724  9474 net.cpp:156] Memory required for data: 731481200
I0403 12:44:14.307740  9474 layer_factory.hpp:77] Creating layer conv4
I0403 12:44:14.307765  9474 net.cpp:91] Creating Layer conv4
I0403 12:44:14.307782  9474 net.cpp:425] conv4 <- conv3
I0403 12:44:14.307802  9474 net.cpp:399] conv4 -> conv4
I0403 12:44:14.338163  9474 net.cpp:141] Setting up conv4
I0403 12:44:14.338235  9474 net.cpp:148] Top shape: 100 384 13 13 (6489600)
I0403 12:44:14.338285  9474 net.cpp:156] Memory required for data: 757439600
I0403 12:44:14.338310  9474 layer_factory.hpp:77] Creating layer relu4
I0403 12:44:14.338331  9474 net.cpp:91] Creating Layer relu4
I0403 12:44:14.338349  9474 net.cpp:425] relu4 <- conv4
I0403 12:44:14.338371  9474 net.cpp:386] relu4 -> conv4 (in-place)
I0403 12:44:14.338758  9474 net.cpp:141] Setting up relu4
I0403 12:44:14.338788  9474 net.cpp:148] Top shape: 100 384 13 13 (6489600)
I0403 12:44:14.338804  9474 net.cpp:156] Memory required for data: 783398000
I0403 12:44:14.338819  9474 layer_factory.hpp:77] Creating layer conv5
I0403 12:44:14.338845  9474 net.cpp:91] Creating Layer conv5
I0403 12:44:14.338861  9474 net.cpp:425] conv5 <- conv4
I0403 12:44:14.338881  9474 net.cpp:399] conv5 -> conv5
I0403 12:44:14.359864  9474 net.cpp:141] Setting up conv5
I0403 12:44:14.359921  9474 net.cpp:148] Top shape: 100 256 13 13 (4326400)
I0403 12:44:14.359938  9474 net.cpp:156] Memory required for data: 800703600
I0403 12:44:14.359963  9474 layer_factory.hpp:77] Creating layer relu5
I0403 12:44:14.359984  9474 net.cpp:91] Creating Layer relu5
I0403 12:44:14.360002  9474 net.cpp:425] relu5 <- conv5
I0403 12:44:14.360023  9474 net.cpp:386] relu5 -> conv5 (in-place)
I0403 12:44:14.360307  9474 net.cpp:141] Setting up relu5
I0403 12:44:14.360335  9474 net.cpp:148] Top shape: 100 256 13 13 (4326400)
I0403 12:44:14.360350  9474 net.cpp:156] Memory required for data: 818009200
I0403 12:44:14.360365  9474 layer_factory.hpp:77] Creating layer pool5
I0403 12:44:14.360390  9474 net.cpp:91] Creating Layer pool5
I0403 12:44:14.360407  9474 net.cpp:425] pool5 <- conv5
I0403 12:44:14.360426  9474 net.cpp:399] pool5 -> pool5
I0403 12:44:14.360488  9474 net.cpp:141] Setting up pool5
I0403 12:44:14.360512  9474 net.cpp:148] Top shape: 100 256 6 6 (921600)
I0403 12:44:14.360527  9474 net.cpp:156] Memory required for data: 821695600
I0403 12:44:14.360545  9474 layer_factory.hpp:77] Creating layer fc6
I0403 12:44:14.360575  9474 net.cpp:91] Creating Layer fc6
I0403 12:44:14.360594  9474 net.cpp:425] fc6 <- pool5
I0403 12:44:14.360611  9474 net.cpp:399] fc6 -> fc6
I0403 12:44:15.928088  9474 net.cpp:141] Setting up fc6
I0403 12:44:15.928169  9474 net.cpp:148] Top shape: 100 4096 (409600)
I0403 12:44:15.928184  9474 net.cpp:156] Memory required for data: 823334000
I0403 12:44:15.928205  9474 layer_factory.hpp:77] Creating layer relu6
I0403 12:44:15.928228  9474 net.cpp:91] Creating Layer relu6
I0403 12:44:15.928246  9474 net.cpp:425] relu6 <- fc6
I0403 12:44:15.928267  9474 net.cpp:386] relu6 -> fc6 (in-place)
I0403 12:44:15.928488  9474 net.cpp:141] Setting up relu6
I0403 12:44:15.928514  9474 net.cpp:148] Top shape: 100 4096 (409600)
I0403 12:44:15.928529  9474 net.cpp:156] Memory required for data: 824972400
I0403 12:44:15.928550  9474 layer_factory.hpp:77] Creating layer drop6
I0403 12:44:15.928570  9474 net.cpp:91] Creating Layer drop6
I0403 12:44:15.928585  9474 net.cpp:425] drop6 <- fc6
I0403 12:44:15.928606  9474 net.cpp:386] drop6 -> fc6 (in-place)
I0403 12:44:15.928658  9474 net.cpp:141] Setting up drop6
I0403 12:44:15.928683  9474 net.cpp:148] Top shape: 100 4096 (409600)
I0403 12:44:15.928699  9474 net.cpp:156] Memory required for data: 826610800
I0403 12:44:15.928712  9474 layer_factory.hpp:77] Creating layer fc7
I0403 12:44:15.928731  9474 net.cpp:91] Creating Layer fc7
I0403 12:44:15.928746  9474 net.cpp:425] fc7 <- fc6
I0403 12:44:15.928766  9474 net.cpp:399] fc7 -> fc7
I0403 12:44:16.614097  9474 net.cpp:141] Setting up fc7
I0403 12:44:16.614176  9474 net.cpp:148] Top shape: 100 4096 (409600)
I0403 12:44:16.614192  9474 net.cpp:156] Memory required for data: 828249200
I0403 12:44:16.614212  9474 layer_factory.hpp:77] Creating layer relu7
I0403 12:44:16.614233  9474 net.cpp:91] Creating Layer relu7
I0403 12:44:16.614250  9474 net.cpp:425] relu7 <- fc7
I0403 12:44:16.614272  9474 net.cpp:386] relu7 -> fc7 (in-place)
I0403 12:44:16.614704  9474 net.cpp:141] Setting up relu7
I0403 12:44:16.614732  9474 net.cpp:148] Top shape: 100 4096 (409600)
I0403 12:44:16.614785  9474 net.cpp:156] Memory required for data: 829887600
I0403 12:44:16.614801  9474 layer_factory.hpp:77] Creating layer drop7
I0403 12:44:16.614820  9474 net.cpp:91] Creating Layer drop7
I0403 12:44:16.614835  9474 net.cpp:425] drop7 <- fc7
I0403 12:44:16.614855  9474 net.cpp:386] drop7 -> fc7 (in-place)
I0403 12:44:16.614897  9474 net.cpp:141] Setting up drop7
I0403 12:44:16.614922  9474 net.cpp:148] Top shape: 100 4096 (409600)
I0403 12:44:16.614938  9474 net.cpp:156] Memory required for data: 831526000
I0403 12:44:16.614953  9474 layer_factory.hpp:77] Creating layer fc8_plantvillage
I0403 12:44:16.614971  9474 net.cpp:91] Creating Layer fc8_plantvillage
I0403 12:44:16.614986  9474 net.cpp:425] fc8_plantvillage <- fc7
I0403 12:44:16.615005  9474 net.cpp:399] fc8_plantvillage -> fc8_plantvillage
I0403 12:44:16.621763  9474 net.cpp:141] Setting up fc8_plantvillage
I0403 12:44:16.621794  9474 net.cpp:148] Top shape: 100 38 (3800)
I0403 12:44:16.621812  9474 net.cpp:156] Memory required for data: 831541200
I0403 12:44:16.621830  9474 layer_factory.hpp:77] Creating layer fc8_plantvillage_fc8_plantvillage_0_split
I0403 12:44:16.621850  9474 net.cpp:91] Creating Layer fc8_plantvillage_fc8_plantvillage_0_split
I0403 12:44:16.621865  9474 net.cpp:425] fc8_plantvillage_fc8_plantvillage_0_split <- fc8_plantvillage
I0403 12:44:16.621886  9474 net.cpp:399] fc8_plantvillage_fc8_plantvillage_0_split -> fc8_plantvillage_fc8_plantvillage_0_split_0
I0403 12:44:16.621906  9474 net.cpp:399] fc8_plantvillage_fc8_plantvillage_0_split -> fc8_plantvillage_fc8_plantvillage_0_split_1
I0403 12:44:16.621928  9474 net.cpp:399] fc8_plantvillage_fc8_plantvillage_0_split -> fc8_plantvillage_fc8_plantvillage_0_split_2
I0403 12:44:16.622009  9474 net.cpp:141] Setting up fc8_plantvillage_fc8_plantvillage_0_split
I0403 12:44:16.622032  9474 net.cpp:148] Top shape: 100 38 (3800)
I0403 12:44:16.622047  9474 net.cpp:148] Top shape: 100 38 (3800)
I0403 12:44:16.622062  9474 net.cpp:148] Top shape: 100 38 (3800)
I0403 12:44:16.622076  9474 net.cpp:156] Memory required for data: 831586800
I0403 12:44:16.622089  9474 layer_factory.hpp:77] Creating layer prob
I0403 12:44:16.622107  9474 net.cpp:91] Creating Layer prob
I0403 12:44:16.622123  9474 net.cpp:425] prob <- fc8_plantvillage_fc8_plantvillage_0_split_0
I0403 12:44:16.622141  9474 net.cpp:399] prob -> prob
I0403 12:44:16.622366  9474 net.cpp:141] Setting up prob
I0403 12:44:16.622392  9474 net.cpp:148] Top shape: 100 38 (3800)
I0403 12:44:16.622409  9474 net.cpp:156] Memory required for data: 831602000
I0403 12:44:16.622423  9474 layer_factory.hpp:77] Creating layer hdf5out
I0403 12:44:16.622442  9474 net.cpp:91] Creating Layer hdf5out
I0403 12:44:16.622457  9474 net.cpp:425] hdf5out <- prob
I0403 12:44:16.622472  9474 net.cpp:425] hdf5out <- label_data_1_split_0
I0403 12:44:16.625049  9474 net.cpp:141] Setting up hdf5out
…
