…
I0403 12:38:30.407191  9208 net.cpp:313] The NetState phase (1) differed from the phase (0) specified by a rule in layer data
I0403 12:38:30.407501  9208 net.cpp:49] Initializing net from parameters: 
state {
  phase: TEST
}
layer {
  name: "data"
  type: "Data"
  top: "data"
  top: "label"
  include {
    phase: TEST
  }
  transform_param {
    crop_size: 227
    mean_file: "/home/mohanty/data/final_dataset/lmdb/grayscale-20-80/mean.binaryproto"
  }
  data_param {
    source: "/home/mohanty/data/final_dataset/lmdb/grayscale-20-80/test_db"
    batch_size: 100
    backend: LMDB
  }
}
layer {
  name: "conv1"
  type: "Convolution"
  bottom: "data"
  top: "conv1"
  param {
    lr_mult: 1
    decay_mult: 1
  }
  param {
    lr_mult: 2
    decay_mult: 0
  }
  convolution_param {
    num_output: 96
    kernel_size: 11
    stride: 4
    weight_filler {
      type: "gaussian"
      std: 0.01
    }
    bias_filler {
      type: "constant"
      value: 0
    }
  }
}
layer {
  name: "relu1"
  type: "ReLU"
  bottom: "conv1"
  top: "conv1"
}
layer {
  name: "norm1"
  type: "LRN"
  bottom: "conv1"
  top: "norm1"
  lrn_param {
    local_size: 5
    alpha: 0.0001
    beta: 0.75
  }
}
layer {
  name: "pool1"
  type: "Pooling"
  bottom: "norm1"
  top: "pool1"
  pooling_param {
    pool: MAX
    kernel_size: 3
    stride: 2
  }
}
layer {
  name: "conv2"
  type: "Convolution"
  bottom: "pool1"
  top: "conv2"
  param {
    lr_mult: 1
    decay_mult: 1
  }
  param {
    lr_mult: 2
    decay_mult: 0
  }
  convolution_param {
    num_output: 256
    pad: 2
    kernel_size: 5
    group: 2
    weight_filler {
      type: "gaussian"
      std: 0.01
    }
    bias_filler {
      type: "constant"
      value: 0.1
    }
  }
}
layer {
  name: "relu2"
  type: "ReLU"
  bottom: "conv2"
  top: "conv2"
}
layer {
  name: "norm2"
  type: "LRN"
  bottom: "conv2"
  top: "norm2"
  lrn_param {
    local_size: 5
    alpha: 0.0001
    beta: 0.75
  }
}
layer {
  name: "pool2"
  type: "Pooling"
  bottom: "norm2"
  top: "pool2"
  pooling_param {
    pool: MAX
    kernel_size: 3
    stride: 2
  }
}
layer {
  name: "conv3"
  type: "Convolution"
  bottom: "pool2"
  top: "conv3"
  param {
    lr_mult: 1
    decay_mult: 1
  }
  param {
    lr_mult: 2
    decay_mult: 0
  }
  convolution_param {
    num_output: 384
    pad: 1
    kernel_size: 3
    weight_filler {
      type: "gaussian"
      std: 0.01
    }
    bias_filler {
      type: "constant"
      value: 0
    }
  }
}
layer {
  name: "relu3"
  type: "ReLU"
  bottom: "conv3"
  top: "conv3"
}
layer {
  name: "conv4"
  type: "Convolution"
  bottom: "conv3"
  top: "conv4"
  param {
    lr_mult: 1
    decay_mult: 1
  }
  param {
    lr_mult: 2
    decay_mult: 0
  }
  convolution_param {
    num_output: 384
    pad: 1
    kernel_size: 3
    group: 2
    weight_filler {
      type: "gaussian"
      std: 0.01
    }
    bias_filler {
      type: "constant"
      value: 0.1
    }
  }
}
layer {
  name: "relu4"
  type: "ReLU"
  bottom: "conv4"
  top: "conv4"
}
layer {
  name: "conv5"
  type: "Convolution"
  bottom: "conv4"
  top: "conv5"
  param {
    lr_mult: 1
    decay_mult: 1
  }
  param {
    lr_mult: 2
    decay_mult: 0
  }
  convolution_param {
    num_output: 256
    pad: 1
    kernel_size: 3
    group: 2
    weight_filler {
      type: "gaussian"
      std: 0.01
    }
    bias_filler {
      type: "constant"
      value: 0.1
    }
  }
}
layer {
  name: "relu5"
  type: "ReLU"
  bottom: "conv5"
  top: "conv5"
}
layer {
  name: "pool5"
  type: "Pooling"
  bottom: "conv5"
  top: "pool5"
  pooling_param {
    pool: MAX
    kernel_size: 3
    stride: 2
  }
}
layer {
  name: "fc6"
  type: "InnerProduct"
  bottom: "pool5"
  top: "fc6"
  param {
    lr_mult: 1
    decay_mult: 1
  }
  param {
    lr_mult: 2
    decay_mult: 0
  }
  inner_product_param {
    num_output: 4096
    weight_filler {
      type: "gaussian"
      std: 0.005
    }
    bias_filler {
      type: "constant"
      value: 0.1
    }
  }
}
layer {
  name: "relu6"
  type: "ReLU"
  bottom: "fc6"
  top: "fc6"
}
layer {
  name: "drop6"
  type: "Dropout"
  bottom: "fc6"
  top: "fc6"
  dropout_param {
    dropout_ratio: 0.5
  }
}
layer {
  name: "fc7"
  type: "InnerProduct"
  bottom: "fc6"
  top: "fc7"
  param {
    lr_mult: 1
    decay_mult: 1
  }
  param {
    lr_mult: 2
    decay_mult: 0
  }
  inner_product_param {
    num_output: 4096
    weight_filler {
      type: "gaussian"
      std: 0.005
    }
    bias_filler {
      type: "constant"
      value: 0.1
    }
  }
}
layer {
  name: "relu7"
  type: "ReLU"
  bottom: "fc7"
  top: "fc7"
}
layer {
  name: "drop7"
  type: "Dropout"
  bottom: "fc7"
  top: "fc7"
  dropout_param {
    dropout_ratio: 0.5
  }
}
layer {
  name: "fc8_plantvillage"
  type: "InnerProduct"
  bottom: "fc7"
  top: "fc8_plantvillage"
  param {
    lr_mult: 1
    decay_mult: 1
  }
  param {
    lr_mult: 2
    decay_mult: 0
  }
  inner_product_param {
    num_output: 38
    weight_filler {
      type: "gaussian"
      std: 0.01
    }
    bias_filler {
      type: "constant"
      value: 0
    }
  }
}
layer {
  name: "prob"
  type: "Softmax"
  bottom: "fc8_plantvillage"
  top: "prob"
  include {
    phase: TEST
  }
}
layer {
  name: "hdf5out"
  type: "HDF5Output"
  bottom: "prob"
  bottom: "label"
  include {
    phase: TEST
  }
  hdf5_output_param {
    file_name: "hdf5_dumps/iter_2730.h5"
  }
}
layer {
  name: "loss"
  type: "SoftmaxWithLoss"
  bottom: "fc8_plantvillage"
  bottom: "label"
  top: "loss"
}
layer {
  name: "accuracy"
  type: "Accuracy"
  bottom: "fc8_plantvillage"
  bottom: "label"
  top: "accuracy"
  include {
    phase: TEST
  }
}
I0403 12:38:30.408092  9208 layer_factory.hpp:77] Creating layer data
I0403 12:38:30.408720  9208 net.cpp:91] Creating Layer data
I0403 12:38:30.408749  9208 net.cpp:399] data -> data
I0403 12:38:30.408812  9208 net.cpp:399] data -> label
I0403 12:38:30.408849  9208 data_transformer.cpp:25] Loading mean file from: /home/mohanty/data/final_dataset/lmdb/grayscale-20-80/mean.binaryproto
I0403 12:38:30.411589  9211 db_lmdb.cpp:38] Opened lmdb /home/mohanty/data/final_dataset/lmdb/grayscale-20-80/test_db
I0403 12:38:30.422793  9208 data_layer.cpp:41] output data size: 100,3,227,227
I0403 12:38:30.541237  9208 net.cpp:141] Setting up data
I0403 12:38:30.541334  9208 net.cpp:148] Top shape: 100 3 227 227 (15458700)
I0403 12:38:30.541357  9208 net.cpp:148] Top shape: 100 (100)
I0403 12:38:30.541373  9208 net.cpp:156] Memory required for data: 61835200
I0403 12:38:30.541400  9208 layer_factory.hpp:77] Creating layer label_data_1_split
I0403 12:38:30.541425  9208 net.cpp:91] Creating Layer label_data_1_split
I0403 12:38:30.541443  9208 net.cpp:425] label_data_1_split <- label
I0403 12:38:30.541476  9208 net.cpp:399] label_data_1_split -> label_data_1_split_0
I0403 12:38:30.541508  9208 net.cpp:399] label_data_1_split -> label_data_1_split_1
I0403 12:38:30.541532  9208 net.cpp:399] label_data_1_split -> label_data_1_split_2
I0403 12:38:30.541595  9208 net.cpp:141] Setting up label_data_1_split
I0403 12:38:30.541620  9208 net.cpp:148] Top shape: 100 (100)
I0403 12:38:30.541635  9208 net.cpp:148] Top shape: 100 (100)
I0403 12:38:30.541651  9208 net.cpp:148] Top shape: 100 (100)
I0403 12:38:30.541666  9208 net.cpp:156] Memory required for data: 61836400
I0403 12:38:30.541682  9208 layer_factory.hpp:77] Creating layer conv1
I0403 12:38:30.541713  9208 net.cpp:91] Creating Layer conv1
I0403 12:38:30.541733  9208 net.cpp:425] conv1 <- data
I0403 12:38:30.541751  9208 net.cpp:399] conv1 -> conv1
I0403 12:38:30.684906  9208 net.cpp:141] Setting up conv1
I0403 12:38:30.685022  9208 net.cpp:148] Top shape: 100 96 55 55 (29040000)
I0403 12:38:30.685044  9208 net.cpp:156] Memory required for data: 177996400
I0403 12:38:30.685075  9208 layer_factory.hpp:77] Creating layer relu1
I0403 12:38:30.685103  9208 net.cpp:91] Creating Layer relu1
I0403 12:38:30.685122  9208 net.cpp:425] relu1 <- conv1
I0403 12:38:30.685144  9208 net.cpp:386] relu1 -> conv1 (in-place)
I0403 12:38:30.685415  9208 net.cpp:141] Setting up relu1
I0403 12:38:30.685443  9208 net.cpp:148] Top shape: 100 96 55 55 (29040000)
I0403 12:38:30.685498  9208 net.cpp:156] Memory required for data: 294156400
I0403 12:38:30.685521  9208 layer_factory.hpp:77] Creating layer norm1
I0403 12:38:30.685552  9208 net.cpp:91] Creating Layer norm1
I0403 12:38:30.685570  9208 net.cpp:425] norm1 <- conv1
I0403 12:38:30.685588  9208 net.cpp:399] norm1 -> norm1
I0403 12:38:30.685919  9208 net.cpp:141] Setting up norm1
I0403 12:38:30.685946  9208 net.cpp:148] Top shape: 100 96 55 55 (29040000)
I0403 12:38:30.685961  9208 net.cpp:156] Memory required for data: 410316400
I0403 12:38:30.685977  9208 layer_factory.hpp:77] Creating layer pool1
I0403 12:38:30.686002  9208 net.cpp:91] Creating Layer pool1
I0403 12:38:30.686019  9208 net.cpp:425] pool1 <- norm1
I0403 12:38:30.686038  9208 net.cpp:399] pool1 -> pool1
I0403 12:38:30.686111  9208 net.cpp:141] Setting up pool1
I0403 12:38:30.686136  9208 net.cpp:148] Top shape: 100 96 27 27 (6998400)
I0403 12:38:30.686151  9208 net.cpp:156] Memory required for data: 438310000
I0403 12:38:30.686167  9208 layer_factory.hpp:77] Creating layer conv2
I0403 12:38:30.686193  9208 net.cpp:91] Creating Layer conv2
I0403 12:38:30.686210  9208 net.cpp:425] conv2 <- pool1
I0403 12:38:30.686230  9208 net.cpp:399] conv2 -> conv2
I0403 12:38:30.701946  9208 net.cpp:141] Setting up conv2
I0403 12:38:30.701997  9208 net.cpp:148] Top shape: 100 256 27 27 (18662400)
I0403 12:38:30.702013  9208 net.cpp:156] Memory required for data: 512959600
I0403 12:38:30.702044  9208 layer_factory.hpp:77] Creating layer relu2
I0403 12:38:30.702066  9208 net.cpp:91] Creating Layer relu2
I0403 12:38:30.702085  9208 net.cpp:425] relu2 <- conv2
I0403 12:38:30.702105  9208 net.cpp:386] relu2 -> conv2 (in-place)
I0403 12:38:30.702395  9208 net.cpp:141] Setting up relu2
I0403 12:38:30.702426  9208 net.cpp:148] Top shape: 100 256 27 27 (18662400)
I0403 12:38:30.702445  9208 net.cpp:156] Memory required for data: 587609200
I0403 12:38:30.702461  9208 layer_factory.hpp:77] Creating layer norm2
I0403 12:38:30.702509  9208 net.cpp:91] Creating Layer norm2
I0403 12:38:30.702533  9208 net.cpp:425] norm2 <- conv2
I0403 12:38:30.702554  9208 net.cpp:399] norm2 -> norm2
I0403 12:38:30.702770  9208 net.cpp:141] Setting up norm2
I0403 12:38:30.702797  9208 net.cpp:148] Top shape: 100 256 27 27 (18662400)
I0403 12:38:30.702813  9208 net.cpp:156] Memory required for data: 662258800
I0403 12:38:30.702828  9208 layer_factory.hpp:77] Creating layer pool2
I0403 12:38:30.702849  9208 net.cpp:91] Creating Layer pool2
I0403 12:38:30.702867  9208 net.cpp:425] pool2 <- norm2
I0403 12:38:30.702885  9208 net.cpp:399] pool2 -> pool2
I0403 12:38:30.702942  9208 net.cpp:141] Setting up pool2
I0403 12:38:30.702966  9208 net.cpp:148] Top shape: 100 256 13 13 (4326400)
I0403 12:38:30.702982  9208 net.cpp:156] Memory required for data: 679564400
I0403 12:38:30.702997  9208 layer_factory.hpp:77] Creating layer conv3
I0403 12:38:30.703022  9208 net.cpp:91] Creating Layer conv3
I0403 12:38:30.703039  9208 net.cpp:425] conv3 <- pool2
I0403 12:38:30.703063  9208 net.cpp:399] conv3 -> conv3
I0403 12:38:30.742308  9208 net.cpp:141] Setting up conv3
I0403 12:38:30.742357  9208 net.cpp:148] Top shape: 100 384 13 13 (6489600)
I0403 12:38:30.742373  9208 net.cpp:156] Memory required for data: 705522800
I0403 12:38:30.742398  9208 layer_factory.hpp:77] Creating layer relu3
I0403 12:38:30.742424  9208 net.cpp:91] Creating Layer relu3
I0403 12:38:30.742442  9208 net.cpp:425] relu3 <- conv3
I0403 12:38:30.742461  9208 net.cpp:386] relu3 -> conv3 (in-place)
I0403 12:38:30.742739  9208 net.cpp:141] Setting up relu3
I0403 12:38:30.742765  9208 net.cpp:148] Top shape: 100 384 13 13 (6489600)
I0403 12:38:30.742781  9208 net.cpp:156] Memory required for data: 731481200
I0403 12:38:30.742808  9208 layer_factory.hpp:77] Creating layer conv4
I0403 12:38:30.742838  9208 net.cpp:91] Creating Layer conv4
I0403 12:38:30.742856  9208 net.cpp:425] conv4 <- conv3
I0403 12:38:30.742876  9208 net.cpp:399] conv4 -> conv4
I0403 12:38:30.773223  9208 net.cpp:141] Setting up conv4
I0403 12:38:30.773296  9208 net.cpp:148] Top shape: 100 384 13 13 (6489600)
I0403 12:38:30.773346  9208 net.cpp:156] Memory required for data: 757439600
I0403 12:38:30.773370  9208 layer_factory.hpp:77] Creating layer relu4
I0403 12:38:30.773394  9208 net.cpp:91] Creating Layer relu4
I0403 12:38:30.773413  9208 net.cpp:425] relu4 <- conv4
I0403 12:38:30.773433  9208 net.cpp:386] relu4 -> conv4 (in-place)
I0403 12:38:30.773717  9208 net.cpp:141] Setting up relu4
I0403 12:38:30.773744  9208 net.cpp:148] Top shape: 100 384 13 13 (6489600)
I0403 12:38:30.773759  9208 net.cpp:156] Memory required for data: 783398000
I0403 12:38:30.773775  9208 layer_factory.hpp:77] Creating layer conv5
I0403 12:38:30.773802  9208 net.cpp:91] Creating Layer conv5
I0403 12:38:30.773819  9208 net.cpp:425] conv5 <- conv4
I0403 12:38:30.773843  9208 net.cpp:399] conv5 -> conv5
I0403 12:38:30.795150  9208 net.cpp:141] Setting up conv5
I0403 12:38:30.795198  9208 net.cpp:148] Top shape: 100 256 13 13 (4326400)
I0403 12:38:30.795215  9208 net.cpp:156] Memory required for data: 800703600
I0403 12:38:30.795244  9208 layer_factory.hpp:77] Creating layer relu5
I0403 12:38:30.795267  9208 net.cpp:91] Creating Layer relu5
I0403 12:38:30.795290  9208 net.cpp:425] relu5 <- conv5
I0403 12:38:30.795310  9208 net.cpp:386] relu5 -> conv5 (in-place)
I0403 12:38:30.795608  9208 net.cpp:141] Setting up relu5
I0403 12:38:30.795639  9208 net.cpp:148] Top shape: 100 256 13 13 (4326400)
I0403 12:38:30.795655  9208 net.cpp:156] Memory required for data: 818009200
I0403 12:38:30.795671  9208 layer_factory.hpp:77] Creating layer pool5
I0403 12:38:30.795693  9208 net.cpp:91] Creating Layer pool5
I0403 12:38:30.795711  9208 net.cpp:425] pool5 <- conv5
I0403 12:38:30.795732  9208 net.cpp:399] pool5 -> pool5
I0403 12:38:30.795797  9208 net.cpp:141] Setting up pool5
I0403 12:38:30.795821  9208 net.cpp:148] Top shape: 100 256 6 6 (921600)
I0403 12:38:30.795837  9208 net.cpp:156] Memory required for data: 821695600
I0403 12:38:30.795852  9208 layer_factory.hpp:77] Creating layer fc6
I0403 12:38:30.795882  9208 net.cpp:91] Creating Layer fc6
I0403 12:38:30.795902  9208 net.cpp:425] fc6 <- pool5
I0403 12:38:30.795922  9208 net.cpp:399] fc6 -> fc6
I0403 12:38:32.449496  9208 net.cpp:141] Setting up fc6
I0403 12:38:32.449584  9208 net.cpp:148] Top shape: 100 4096 (409600)
I0403 12:38:32.449602  9208 net.cpp:156] Memory required for data: 823334000
I0403 12:38:32.449623  9208 layer_factory.hpp:77] Creating layer relu6
I0403 12:38:32.449646  9208 net.cpp:91] Creating Layer relu6
I0403 12:38:32.449666  9208 net.cpp:425] relu6 <- fc6
I0403 12:38:32.449690  9208 net.cpp:386] relu6 -> fc6 (in-place)
I0403 12:38:32.449918  9208 net.cpp:141] Setting up relu6
I0403 12:38:32.449941  9208 net.cpp:148] Top shape: 100 4096 (409600)
I0403 12:38:32.449956  9208 net.cpp:156] Memory required for data: 824972400
I0403 12:38:32.449970  9208 layer_factory.hpp:77] Creating layer drop6
I0403 12:38:32.449991  9208 net.cpp:91] Creating Layer drop6
I0403 12:38:32.450008  9208 net.cpp:425] drop6 <- fc6
I0403 12:38:32.450026  9208 net.cpp:386] drop6 -> fc6 (in-place)
I0403 12:38:32.450080  9208 net.cpp:141] Setting up drop6
I0403 12:38:32.450103  9208 net.cpp:148] Top shape: 100 4096 (409600)
I0403 12:38:32.450119  9208 net.cpp:156] Memory required for data: 826610800
I0403 12:38:32.450134  9208 layer_factory.hpp:77] Creating layer fc7
I0403 12:38:32.450155  9208 net.cpp:91] Creating Layer fc7
I0403 12:38:32.450171  9208 net.cpp:425] fc7 <- fc6
I0403 12:38:32.450189  9208 net.cpp:399] fc7 -> fc7
I0403 12:38:33.174392  9208 net.cpp:141] Setting up fc7
I0403 12:38:33.174453  9208 net.cpp:148] Top shape: 100 4096 (409600)
I0403 12:38:33.174470  9208 net.cpp:156] Memory required for data: 828249200
I0403 12:38:33.174491  9208 layer_factory.hpp:77] Creating layer relu7
I0403 12:38:33.174526  9208 net.cpp:91] Creating Layer relu7
I0403 12:38:33.174549  9208 net.cpp:425] relu7 <- fc7
I0403 12:38:33.174571  9208 net.cpp:386] relu7 -> fc7 (in-place)
I0403 12:38:33.174968  9208 net.cpp:141] Setting up relu7
I0403 12:38:33.174995  9208 net.cpp:148] Top shape: 100 4096 (409600)
I0403 12:38:33.175052  9208 net.cpp:156] Memory required for data: 829887600
I0403 12:38:33.175068  9208 layer_factory.hpp:77] Creating layer drop7
I0403 12:38:33.175089  9208 net.cpp:91] Creating Layer drop7
I0403 12:38:33.175106  9208 net.cpp:425] drop7 <- fc7
I0403 12:38:33.175122  9208 net.cpp:386] drop7 -> fc7 (in-place)
I0403 12:38:33.175168  9208 net.cpp:141] Setting up drop7
I0403 12:38:33.175189  9208 net.cpp:148] Top shape: 100 4096 (409600)
I0403 12:38:33.175204  9208 net.cpp:156] Memory required for data: 831526000
I0403 12:38:33.175217  9208 layer_factory.hpp:77] Creating layer fc8_plantvillage
I0403 12:38:33.175236  9208 net.cpp:91] Creating Layer fc8_plantvillage
I0403 12:38:33.175252  9208 net.cpp:425] fc8_plantvillage <- fc7
I0403 12:38:33.175272  9208 net.cpp:399] fc8_plantvillage -> fc8_plantvillage
I0403 12:38:33.182219  9208 net.cpp:141] Setting up fc8_plantvillage
I0403 12:38:33.182251  9208 net.cpp:148] Top shape: 100 38 (3800)
I0403 12:38:33.182268  9208 net.cpp:156] Memory required for data: 831541200
I0403 12:38:33.182286  9208 layer_factory.hpp:77] Creating layer fc8_plantvillage_fc8_plantvillage_0_split
I0403 12:38:33.182304  9208 net.cpp:91] Creating Layer fc8_plantvillage_fc8_plantvillage_0_split
I0403 12:38:33.182320  9208 net.cpp:425] fc8_plantvillage_fc8_plantvillage_0_split <- fc8_plantvillage
I0403 12:38:33.182338  9208 net.cpp:399] fc8_plantvillage_fc8_plantvillage_0_split -> fc8_plantvillage_fc8_plantvillage_0_split_0
I0403 12:38:33.182358  9208 net.cpp:399] fc8_plantvillage_fc8_plantvillage_0_split -> fc8_plantvillage_fc8_plantvillage_0_split_1
I0403 12:38:33.182379  9208 net.cpp:399] fc8_plantvillage_fc8_plantvillage_0_split -> fc8_plantvillage_fc8_plantvillage_0_split_2
I0403 12:38:33.182454  9208 net.cpp:141] Setting up fc8_plantvillage_fc8_plantvillage_0_split
I0403 12:38:33.182478  9208 net.cpp:148] Top shape: 100 38 (3800)
I0403 12:38:33.182495  9208 net.cpp:148] Top shape: 100 38 (3800)
I0403 12:38:33.182518  9208 net.cpp:148] Top shape: 100 38 (3800)
I0403 12:38:33.182533  9208 net.cpp:156] Memory required for data: 831586800
I0403 12:38:33.182549  9208 layer_factory.hpp:77] Creating layer prob
I0403 12:38:33.182566  9208 net.cpp:91] Creating Layer prob
I0403 12:38:33.182581  9208 net.cpp:425] prob <- fc8_plantvillage_fc8_plantvillage_0_split_0
I0403 12:38:33.182600  9208 net.cpp:399] prob -> prob
I0403 12:38:33.182818  9208 net.cpp:141] Setting up prob
I0403 12:38:33.182844  9208 net.cpp:148] Top shape: 100 38 (3800)
I0403 12:38:33.182859  9208 net.cpp:156] Memory required for data: 831602000
I0403 12:38:33.182875  9208 layer_factory.hpp:77] Creating layer hdf5out
I0403 12:38:33.182899  9208 net.cpp:91] Creating Layer hdf5out
I0403 12:38:33.182917  9208 net.cpp:425] hdf5out <- prob
I0403 12:38:33.182934  9208 net.cpp:425] hdf5out <- label_data_1_split_0
I0403 12:38:33.185529  9208 net.cpp:141] Setting up hdf5out
…
