…
I0403 12:18:12.954249  8708 net.cpp:313] The NetState phase (1) differed from the phase (0) specified by a rule in layer data
I0403 12:18:12.954582  8708 net.cpp:49] Initializing net from parameters: 
state {
  phase: TEST
}
layer {
  name: "data"
  type: "Data"
  top: "data"
  top: "label"
  include {
    phase: TEST
  }
  transform_param {
    crop_size: 227
    mean_file: "/home/mohanty/data/final_dataset/lmdb/grayscale-20-80/mean.binaryproto"
  }
  data_param {
    source: "/home/mohanty/data/final_dataset/lmdb/grayscale-20-80/test_db"
    batch_size: 100
    backend: LMDB
  }
}
layer {
  name: "conv1"
  type: "Convolution"
  bottom: "data"
  top: "conv1"
  param {
    lr_mult: 1
    decay_mult: 1
  }
  param {
    lr_mult: 2
    decay_mult: 0
  }
  convolution_param {
    num_output: 96
    kernel_size: 11
    stride: 4
    weight_filler {
      type: "gaussian"
      std: 0.01
    }
    bias_filler {
      type: "constant"
      value: 0
    }
  }
}
layer {
  name: "relu1"
  type: "ReLU"
  bottom: "conv1"
  top: "conv1"
}
layer {
  name: "norm1"
  type: "LRN"
  bottom: "conv1"
  top: "norm1"
  lrn_param {
    local_size: 5
    alpha: 0.0001
    beta: 0.75
  }
}
layer {
  name: "pool1"
  type: "Pooling"
  bottom: "norm1"
  top: "pool1"
  pooling_param {
    pool: MAX
    kernel_size: 3
    stride: 2
  }
}
layer {
  name: "conv2"
  type: "Convolution"
  bottom: "pool1"
  top: "conv2"
  param {
    lr_mult: 1
    decay_mult: 1
  }
  param {
    lr_mult: 2
    decay_mult: 0
  }
  convolution_param {
    num_output: 256
    pad: 2
    kernel_size: 5
    group: 2
    weight_filler {
      type: "gaussian"
      std: 0.01
    }
    bias_filler {
      type: "constant"
      value: 0.1
    }
  }
}
layer {
  name: "relu2"
  type: "ReLU"
  bottom: "conv2"
  top: "conv2"
}
layer {
  name: "norm2"
  type: "LRN"
  bottom: "conv2"
  top: "norm2"
  lrn_param {
    local_size: 5
    alpha: 0.0001
    beta: 0.75
  }
}
layer {
  name: "pool2"
  type: "Pooling"
  bottom: "norm2"
  top: "pool2"
  pooling_param {
    pool: MAX
    kernel_size: 3
    stride: 2
  }
}
layer {
  name: "conv3"
  type: "Convolution"
  bottom: "pool2"
  top: "conv3"
  param {
    lr_mult: 1
    decay_mult: 1
  }
  param {
    lr_mult: 2
    decay_mult: 0
  }
  convolution_param {
    num_output: 384
    pad: 1
    kernel_size: 3
    weight_filler {
      type: "gaussian"
      std: 0.01
    }
    bias_filler {
      type: "constant"
      value: 0
    }
  }
}
layer {
  name: "relu3"
  type: "ReLU"
  bottom: "conv3"
  top: "conv3"
}
layer {
  name: "conv4"
  type: "Convolution"
  bottom: "conv3"
  top: "conv4"
  param {
    lr_mult: 1
    decay_mult: 1
  }
  param {
    lr_mult: 2
    decay_mult: 0
  }
  convolution_param {
    num_output: 384
    pad: 1
    kernel_size: 3
    group: 2
    weight_filler {
      type: "gaussian"
      std: 0.01
    }
    bias_filler {
      type: "constant"
      value: 0.1
    }
  }
}
layer {
  name: "relu4"
  type: "ReLU"
  bottom: "conv4"
  top: "conv4"
}
layer {
  name: "conv5"
  type: "Convolution"
  bottom: "conv4"
  top: "conv5"
  param {
    lr_mult: 1
    decay_mult: 1
  }
  param {
    lr_mult: 2
    decay_mult: 0
  }
  convolution_param {
    num_output: 256
    pad: 1
    kernel_size: 3
    group: 2
    weight_filler {
      type: "gaussian"
      std: 0.01
    }
    bias_filler {
      type: "constant"
      value: 0.1
    }
  }
}
layer {
  name: "relu5"
  type: "ReLU"
  bottom: "conv5"
  top: "conv5"
}
layer {
  name: "pool5"
  type: "Pooling"
  bottom: "conv5"
  top: "pool5"
  pooling_param {
    pool: MAX
    kernel_size: 3
    stride: 2
  }
}
layer {
  name: "fc6"
  type: "InnerProduct"
  bottom: "pool5"
  top: "fc6"
  param {
    lr_mult: 1
    decay_mult: 1
  }
  param {
    lr_mult: 2
    decay_mult: 0
  }
  inner_product_param {
    num_output: 4096
    weight_filler {
      type: "gaussian"
      std: 0.005
    }
    bias_filler {
      type: "constant"
      value: 0.1
    }
  }
}
layer {
  name: "relu6"
  type: "ReLU"
  bottom: "fc6"
  top: "fc6"
}
layer {
  name: "drop6"
  type: "Dropout"
  bottom: "fc6"
  top: "fc6"
  dropout_param {
    dropout_ratio: 0.5
  }
}
layer {
  name: "fc7"
  type: "InnerProduct"
  bottom: "fc6"
  top: "fc7"
  param {
    lr_mult: 1
    decay_mult: 1
  }
  param {
    lr_mult: 2
    decay_mult: 0
  }
  inner_product_param {
    num_output: 4096
    weight_filler {
      type: "gaussian"
      std: 0.005
    }
    bias_filler {
      type: "constant"
      value: 0.1
    }
  }
}
layer {
  name: "relu7"
  type: "ReLU"
  bottom: "fc7"
  top: "fc7"
}
layer {
  name: "drop7"
  type: "Dropout"
  bottom: "fc7"
  top: "fc7"
  dropout_param {
    dropout_ratio: 0.5
  }
}
layer {
  name: "fc8_plantvillage"
  type: "InnerProduct"
  bottom: "fc7"
  top: "fc8_plantvillage"
  param {
    lr_mult: 1
    decay_mult: 1
  }
  param {
    lr_mult: 2
    decay_mult: 0
  }
  inner_product_param {
    num_output: 38
    weight_filler {
      type: "gaussian"
      std: 0.01
    }
    bias_filler {
      type: "constant"
      value: 0
    }
  }
}
layer {
  name: "prob"
  type: "Softmax"
  bottom: "fc8_plantvillage"
  top: "prob"
  include {
    phase: TEST
  }
}
layer {
  name: "hdf5out"
  type: "HDF5Output"
  bottom: "prob"
  bottom: "label"
  include {
    phase: TEST
  }
  hdf5_output_param {
    file_name: "hdf5_dumps/iter_1260.h5"
  }
}
layer {
  name: "loss"
  type: "SoftmaxWithLoss"
  bottom: "fc8_plantvillage"
  bottom: "label"
  top: "loss"
}
layer {
  name: "accuracy"
  type: "Accuracy"
  bottom: "fc8_plantvillage"
  bottom: "label"
  top: "accuracy"
  include {
    phase: TEST
  }
}
I0403 12:18:12.955148  8708 layer_factory.hpp:77] Creating layer data
I0403 12:18:12.955808  8708 net.cpp:91] Creating Layer data
I0403 12:18:12.955849  8708 net.cpp:399] data -> data
I0403 12:18:12.955904  8708 net.cpp:399] data -> label
I0403 12:18:12.955941  8708 data_transformer.cpp:25] Loading mean file from: /home/mohanty/data/final_dataset/lmdb/grayscale-20-80/mean.binaryproto
I0403 12:18:12.958892  8711 db_lmdb.cpp:38] Opened lmdb /home/mohanty/data/final_dataset/lmdb/grayscale-20-80/test_db
I0403 12:18:12.969964  8708 data_layer.cpp:41] output data size: 100,3,227,227
I0403 12:18:13.089293  8708 net.cpp:141] Setting up data
I0403 12:18:13.089388  8708 net.cpp:148] Top shape: 100 3 227 227 (15458700)
I0403 12:18:13.089412  8708 net.cpp:148] Top shape: 100 (100)
I0403 12:18:13.089428  8708 net.cpp:156] Memory required for data: 61835200
I0403 12:18:13.089457  8708 layer_factory.hpp:77] Creating layer label_data_1_split
I0403 12:18:13.089483  8708 net.cpp:91] Creating Layer label_data_1_split
I0403 12:18:13.089501  8708 net.cpp:425] label_data_1_split <- label
I0403 12:18:13.089535  8708 net.cpp:399] label_data_1_split -> label_data_1_split_0
I0403 12:18:13.089568  8708 net.cpp:399] label_data_1_split -> label_data_1_split_1
I0403 12:18:13.089591  8708 net.cpp:399] label_data_1_split -> label_data_1_split_2
I0403 12:18:13.089655  8708 net.cpp:141] Setting up label_data_1_split
I0403 12:18:13.089679  8708 net.cpp:148] Top shape: 100 (100)
I0403 12:18:13.089696  8708 net.cpp:148] Top shape: 100 (100)
I0403 12:18:13.089712  8708 net.cpp:148] Top shape: 100 (100)
I0403 12:18:13.089726  8708 net.cpp:156] Memory required for data: 61836400
I0403 12:18:13.089741  8708 layer_factory.hpp:77] Creating layer conv1
I0403 12:18:13.089773  8708 net.cpp:91] Creating Layer conv1
I0403 12:18:13.089792  8708 net.cpp:425] conv1 <- data
I0403 12:18:13.089813  8708 net.cpp:399] conv1 -> conv1
I0403 12:18:13.227933  8708 net.cpp:141] Setting up conv1
I0403 12:18:13.228013  8708 net.cpp:148] Top shape: 100 96 55 55 (29040000)
I0403 12:18:13.228030  8708 net.cpp:156] Memory required for data: 177996400
I0403 12:18:13.228061  8708 layer_factory.hpp:77] Creating layer relu1
I0403 12:18:13.228090  8708 net.cpp:91] Creating Layer relu1
I0403 12:18:13.228108  8708 net.cpp:425] relu1 <- conv1
I0403 12:18:13.228127  8708 net.cpp:386] relu1 -> conv1 (in-place)
I0403 12:18:13.228404  8708 net.cpp:141] Setting up relu1
I0403 12:18:13.228430  8708 net.cpp:148] Top shape: 100 96 55 55 (29040000)
I0403 12:18:13.228485  8708 net.cpp:156] Memory required for data: 294156400
I0403 12:18:13.228502  8708 layer_factory.hpp:77] Creating layer norm1
I0403 12:18:13.228530  8708 net.cpp:91] Creating Layer norm1
I0403 12:18:13.228569  8708 net.cpp:425] norm1 <- conv1
I0403 12:18:13.228591  8708 net.cpp:399] norm1 -> norm1
I0403 12:18:13.228934  8708 net.cpp:141] Setting up norm1
I0403 12:18:13.228962  8708 net.cpp:148] Top shape: 100 96 55 55 (29040000)
I0403 12:18:13.228978  8708 net.cpp:156] Memory required for data: 410316400
I0403 12:18:13.228994  8708 layer_factory.hpp:77] Creating layer pool1
I0403 12:18:13.229017  8708 net.cpp:91] Creating Layer pool1
I0403 12:18:13.229035  8708 net.cpp:425] pool1 <- norm1
I0403 12:18:13.229056  8708 net.cpp:399] pool1 -> pool1
I0403 12:18:13.229130  8708 net.cpp:141] Setting up pool1
I0403 12:18:13.229154  8708 net.cpp:148] Top shape: 100 96 27 27 (6998400)
I0403 12:18:13.229169  8708 net.cpp:156] Memory required for data: 438310000
I0403 12:18:13.229184  8708 layer_factory.hpp:77] Creating layer conv2
I0403 12:18:13.229213  8708 net.cpp:91] Creating Layer conv2
I0403 12:18:13.229230  8708 net.cpp:425] conv2 <- pool1
I0403 12:18:13.229252  8708 net.cpp:399] conv2 -> conv2
I0403 12:18:13.246127  8708 net.cpp:141] Setting up conv2
I0403 12:18:13.246186  8708 net.cpp:148] Top shape: 100 256 27 27 (18662400)
I0403 12:18:13.246202  8708 net.cpp:156] Memory required for data: 512959600
I0403 12:18:13.246227  8708 layer_factory.hpp:77] Creating layer relu2
I0403 12:18:13.246251  8708 net.cpp:91] Creating Layer relu2
I0403 12:18:13.246270  8708 net.cpp:425] relu2 <- conv2
I0403 12:18:13.246289  8708 net.cpp:386] relu2 -> conv2 (in-place)
I0403 12:18:13.246580  8708 net.cpp:141] Setting up relu2
I0403 12:18:13.246608  8708 net.cpp:148] Top shape: 100 256 27 27 (18662400)
I0403 12:18:13.246624  8708 net.cpp:156] Memory required for data: 587609200
I0403 12:18:13.246640  8708 layer_factory.hpp:77] Creating layer norm2
I0403 12:18:13.246664  8708 net.cpp:91] Creating Layer norm2
I0403 12:18:13.246681  8708 net.cpp:425] norm2 <- conv2
I0403 12:18:13.246704  8708 net.cpp:399] norm2 -> norm2
I0403 12:18:13.246912  8708 net.cpp:141] Setting up norm2
I0403 12:18:13.246938  8708 net.cpp:148] Top shape: 100 256 27 27 (18662400)
I0403 12:18:13.246954  8708 net.cpp:156] Memory required for data: 662258800
I0403 12:18:13.246969  8708 layer_factory.hpp:77] Creating layer pool2
I0403 12:18:13.246987  8708 net.cpp:91] Creating Layer pool2
I0403 12:18:13.247007  8708 net.cpp:425] pool2 <- norm2
I0403 12:18:13.247025  8708 net.cpp:399] pool2 -> pool2
I0403 12:18:13.247079  8708 net.cpp:141] Setting up pool2
I0403 12:18:13.247103  8708 net.cpp:148] Top shape: 100 256 13 13 (4326400)
I0403 12:18:13.247118  8708 net.cpp:156] Memory required for data: 679564400
I0403 12:18:13.247133  8708 layer_factory.hpp:77] Creating layer conv3
I0403 12:18:13.247158  8708 net.cpp:91] Creating Layer conv3
I0403 12:18:13.247175  8708 net.cpp:425] conv3 <- pool2
I0403 12:18:13.247197  8708 net.cpp:399] conv3 -> conv3
I0403 12:18:13.289494  8708 net.cpp:141] Setting up conv3
I0403 12:18:13.289572  8708 net.cpp:148] Top shape: 100 384 13 13 (6489600)
I0403 12:18:13.289590  8708 net.cpp:156] Memory required for data: 705522800
I0403 12:18:13.289615  8708 layer_factory.hpp:77] Creating layer relu3
I0403 12:18:13.289641  8708 net.cpp:91] Creating Layer relu3
I0403 12:18:13.289659  8708 net.cpp:425] relu3 <- conv3
I0403 12:18:13.289680  8708 net.cpp:386] relu3 -> conv3 (in-place)
I0403 12:18:13.289954  8708 net.cpp:141] Setting up relu3
I0403 12:18:13.289983  8708 net.cpp:148] Top shape: 100 384 13 13 (6489600)
I0403 12:18:13.289997  8708 net.cpp:156] Memory required for data: 731481200
I0403 12:18:13.290011  8708 layer_factory.hpp:77] Creating layer conv4
I0403 12:18:13.290037  8708 net.cpp:91] Creating Layer conv4
I0403 12:18:13.290055  8708 net.cpp:425] conv4 <- conv3
I0403 12:18:13.290077  8708 net.cpp:399] conv4 -> conv4
I0403 12:18:13.322700  8708 net.cpp:141] Setting up conv4
I0403 12:18:13.322751  8708 net.cpp:148] Top shape: 100 384 13 13 (6489600)
I0403 12:18:13.322806  8708 net.cpp:156] Memory required for data: 757439600
I0403 12:18:13.322831  8708 layer_factory.hpp:77] Creating layer relu4
I0403 12:18:13.322854  8708 net.cpp:91] Creating Layer relu4
I0403 12:18:13.322870  8708 net.cpp:425] relu4 <- conv4
I0403 12:18:13.322891  8708 net.cpp:386] relu4 -> conv4 (in-place)
I0403 12:18:13.323195  8708 net.cpp:141] Setting up relu4
I0403 12:18:13.323222  8708 net.cpp:148] Top shape: 100 384 13 13 (6489600)
I0403 12:18:13.323236  8708 net.cpp:156] Memory required for data: 783398000
I0403 12:18:13.323251  8708 layer_factory.hpp:77] Creating layer conv5
I0403 12:18:13.323276  8708 net.cpp:91] Creating Layer conv5
I0403 12:18:13.323293  8708 net.cpp:425] conv5 <- conv4
I0403 12:18:13.323314  8708 net.cpp:399] conv5 -> conv5
I0403 12:18:13.345568  8708 net.cpp:141] Setting up conv5
I0403 12:18:13.345628  8708 net.cpp:148] Top shape: 100 256 13 13 (4326400)
I0403 12:18:13.345643  8708 net.cpp:156] Memory required for data: 800703600
I0403 12:18:13.345669  8708 layer_factory.hpp:77] Creating layer relu5
I0403 12:18:13.345691  8708 net.cpp:91] Creating Layer relu5
I0403 12:18:13.345708  8708 net.cpp:425] relu5 <- conv5
I0403 12:18:13.345727  8708 net.cpp:386] relu5 -> conv5 (in-place)
I0403 12:18:13.346010  8708 net.cpp:141] Setting up relu5
I0403 12:18:13.346050  8708 net.cpp:148] Top shape: 100 256 13 13 (4326400)
I0403 12:18:13.346065  8708 net.cpp:156] Memory required for data: 818009200
I0403 12:18:13.346081  8708 layer_factory.hpp:77] Creating layer pool5
I0403 12:18:13.346106  8708 net.cpp:91] Creating Layer pool5
I0403 12:18:13.346123  8708 net.cpp:425] pool5 <- conv5
I0403 12:18:13.346141  8708 net.cpp:399] pool5 -> pool5
I0403 12:18:13.346204  8708 net.cpp:141] Setting up pool5
I0403 12:18:13.346226  8708 net.cpp:148] Top shape: 100 256 6 6 (921600)
I0403 12:18:13.346241  8708 net.cpp:156] Memory required for data: 821695600
I0403 12:18:13.346256  8708 layer_factory.hpp:77] Creating layer fc6
I0403 12:18:13.346285  8708 net.cpp:91] Creating Layer fc6
I0403 12:18:13.346303  8708 net.cpp:425] fc6 <- pool5
I0403 12:18:13.346321  8708 net.cpp:399] fc6 -> fc6
I0403 12:18:14.898216  8708 net.cpp:141] Setting up fc6
I0403 12:18:14.898296  8708 net.cpp:148] Top shape: 100 4096 (409600)
I0403 12:18:14.898313  8708 net.cpp:156] Memory required for data: 823334000
I0403 12:18:14.898334  8708 layer_factory.hpp:77] Creating layer relu6
I0403 12:18:14.898355  8708 net.cpp:91] Creating Layer relu6
I0403 12:18:14.898372  8708 net.cpp:425] relu6 <- fc6
I0403 12:18:14.898393  8708 net.cpp:386] relu6 -> fc6 (in-place)
I0403 12:18:14.898632  8708 net.cpp:141] Setting up relu6
I0403 12:18:14.898656  8708 net.cpp:148] Top shape: 100 4096 (409600)
I0403 12:18:14.898671  8708 net.cpp:156] Memory required for data: 824972400
I0403 12:18:14.898685  8708 layer_factory.hpp:77] Creating layer drop6
I0403 12:18:14.898704  8708 net.cpp:91] Creating Layer drop6
I0403 12:18:14.898722  8708 net.cpp:425] drop6 <- fc6
I0403 12:18:14.898739  8708 net.cpp:386] drop6 -> fc6 (in-place)
I0403 12:18:14.898789  8708 net.cpp:141] Setting up drop6
I0403 12:18:14.898818  8708 net.cpp:148] Top shape: 100 4096 (409600)
I0403 12:18:14.898833  8708 net.cpp:156] Memory required for data: 826610800
I0403 12:18:14.898847  8708 layer_factory.hpp:77] Creating layer fc7
I0403 12:18:14.898866  8708 net.cpp:91] Creating Layer fc7
I0403 12:18:14.898881  8708 net.cpp:425] fc7 <- fc6
I0403 12:18:14.898901  8708 net.cpp:399] fc7 -> fc7
I0403 12:18:15.584870  8708 net.cpp:141] Setting up fc7
I0403 12:18:15.584915  8708 net.cpp:148] Top shape: 100 4096 (409600)
I0403 12:18:15.584930  8708 net.cpp:156] Memory required for data: 828249200
I0403 12:18:15.584950  8708 layer_factory.hpp:77] Creating layer relu7
I0403 12:18:15.584971  8708 net.cpp:91] Creating Layer relu7
I0403 12:18:15.584986  8708 net.cpp:425] relu7 <- fc7
I0403 12:18:15.585007  8708 net.cpp:386] relu7 -> fc7 (in-place)
I0403 12:18:15.585398  8708 net.cpp:141] Setting up relu7
I0403 12:18:15.585424  8708 net.cpp:148] Top shape: 100 4096 (409600)
I0403 12:18:15.585492  8708 net.cpp:156] Memory required for data: 829887600
I0403 12:18:15.585508  8708 layer_factory.hpp:77] Creating layer drop7
I0403 12:18:15.585526  8708 net.cpp:91] Creating Layer drop7
I0403 12:18:15.585546  8708 net.cpp:425] drop7 <- fc7
I0403 12:18:15.585566  8708 net.cpp:386] drop7 -> fc7 (in-place)
I0403 12:18:15.585608  8708 net.cpp:141] Setting up drop7
I0403 12:18:15.585635  8708 net.cpp:148] Top shape: 100 4096 (409600)
I0403 12:18:15.585650  8708 net.cpp:156] Memory required for data: 831526000
I0403 12:18:15.585664  8708 layer_factory.hpp:77] Creating layer fc8_plantvillage
I0403 12:18:15.585682  8708 net.cpp:91] Creating Layer fc8_plantvillage
I0403 12:18:15.585697  8708 net.cpp:425] fc8_plantvillage <- fc7
I0403 12:18:15.585717  8708 net.cpp:399] fc8_plantvillage -> fc8_plantvillage
I0403 12:18:15.592404  8708 net.cpp:141] Setting up fc8_plantvillage
I0403 12:18:15.592433  8708 net.cpp:148] Top shape: 100 38 (3800)
I0403 12:18:15.592448  8708 net.cpp:156] Memory required for data: 831541200
I0403 12:18:15.592465  8708 layer_factory.hpp:77] Creating layer fc8_plantvillage_fc8_plantvillage_0_split
I0403 12:18:15.592486  8708 net.cpp:91] Creating Layer fc8_plantvillage_fc8_plantvillage_0_split
I0403 12:18:15.592502  8708 net.cpp:425] fc8_plantvillage_fc8_plantvillage_0_split <- fc8_plantvillage
I0403 12:18:15.592519  8708 net.cpp:399] fc8_plantvillage_fc8_plantvillage_0_split -> fc8_plantvillage_fc8_plantvillage_0_split_0
I0403 12:18:15.592545  8708 net.cpp:399] fc8_plantvillage_fc8_plantvillage_0_split -> fc8_plantvillage_fc8_plantvillage_0_split_1
I0403 12:18:15.592566  8708 net.cpp:399] fc8_plantvillage_fc8_plantvillage_0_split -> fc8_plantvillage_fc8_plantvillage_0_split_2
I0403 12:18:15.592643  8708 net.cpp:141] Setting up fc8_plantvillage_fc8_plantvillage_0_split
I0403 12:18:15.592666  8708 net.cpp:148] Top shape: 100 38 (3800)
I0403 12:18:15.592682  8708 net.cpp:148] Top shape: 100 38 (3800)
I0403 12:18:15.592697  8708 net.cpp:148] Top shape: 100 38 (3800)
I0403 12:18:15.592710  8708 net.cpp:156] Memory required for data: 831586800
I0403 12:18:15.592725  8708 layer_factory.hpp:77] Creating layer prob
I0403 12:18:15.592742  8708 net.cpp:91] Creating Layer prob
I0403 12:18:15.592757  8708 net.cpp:425] prob <- fc8_plantvillage_fc8_plantvillage_0_split_0
I0403 12:18:15.592774  8708 net.cpp:399] prob -> prob
I0403 12:18:15.592998  8708 net.cpp:141] Setting up prob
I0403 12:18:15.593024  8708 net.cpp:148] Top shape: 100 38 (3800)
I0403 12:18:15.593039  8708 net.cpp:156] Memory required for data: 831602000
I0403 12:18:15.593052  8708 layer_factory.hpp:77] Creating layer hdf5out
I0403 12:18:15.593070  8708 net.cpp:91] Creating Layer hdf5out
I0403 12:18:15.593085  8708 net.cpp:425] hdf5out <- prob
I0403 12:18:15.593101  8708 net.cpp:425] hdf5out <- label_data_1_split_0
I0403 12:18:15.595583  8708 net.cpp:141] Setting up hdf5out
…
