…
I0403 12:15:19.920621  8653 net.cpp:313] The NetState phase (1) differed from the phase (0) specified by a rule in layer data
I0403 12:15:19.920933  8653 net.cpp:49] Initializing net from parameters: 
state {
  phase: TEST
}
layer {
  name: "data"
  type: "Data"
  top: "data"
  top: "label"
  include {
    phase: TEST
  }
  transform_param {
    crop_size: 227
    mean_file: "/home/mohanty/data/final_dataset/lmdb/grayscale-20-80/mean.binaryproto"
  }
  data_param {
    source: "/home/mohanty/data/final_dataset/lmdb/grayscale-20-80/test_db"
    batch_size: 100
    backend: LMDB
  }
}
layer {
  name: "conv1"
  type: "Convolution"
  bottom: "data"
  top: "conv1"
  param {
    lr_mult: 1
    decay_mult: 1
  }
  param {
    lr_mult: 2
    decay_mult: 0
  }
  convolution_param {
    num_output: 96
    kernel_size: 11
    stride: 4
    weight_filler {
      type: "gaussian"
      std: 0.01
    }
    bias_filler {
      type: "constant"
      value: 0
    }
  }
}
layer {
  name: "relu1"
  type: "ReLU"
  bottom: "conv1"
  top: "conv1"
}
layer {
  name: "norm1"
  type: "LRN"
  bottom: "conv1"
  top: "norm1"
  lrn_param {
    local_size: 5
    alpha: 0.0001
    beta: 0.75
  }
}
layer {
  name: "pool1"
  type: "Pooling"
  bottom: "norm1"
  top: "pool1"
  pooling_param {
    pool: MAX
    kernel_size: 3
    stride: 2
  }
}
layer {
  name: "conv2"
  type: "Convolution"
  bottom: "pool1"
  top: "conv2"
  param {
    lr_mult: 1
    decay_mult: 1
  }
  param {
    lr_mult: 2
    decay_mult: 0
  }
  convolution_param {
    num_output: 256
    pad: 2
    kernel_size: 5
    group: 2
    weight_filler {
      type: "gaussian"
      std: 0.01
    }
    bias_filler {
      type: "constant"
      value: 0.1
    }
  }
}
layer {
  name: "relu2"
  type: "ReLU"
  bottom: "conv2"
  top: "conv2"
}
layer {
  name: "norm2"
  type: "LRN"
  bottom: "conv2"
  top: "norm2"
  lrn_param {
    local_size: 5
    alpha: 0.0001
    beta: 0.75
  }
}
layer {
  name: "pool2"
  type: "Pooling"
  bottom: "norm2"
  top: "pool2"
  pooling_param {
    pool: MAX
    kernel_size: 3
    stride: 2
  }
}
layer {
  name: "conv3"
  type: "Convolution"
  bottom: "pool2"
  top: "conv3"
  param {
    lr_mult: 1
    decay_mult: 1
  }
  param {
    lr_mult: 2
    decay_mult: 0
  }
  convolution_param {
    num_output: 384
    pad: 1
    kernel_size: 3
    weight_filler {
      type: "gaussian"
      std: 0.01
    }
    bias_filler {
      type: "constant"
      value: 0
    }
  }
}
layer {
  name: "relu3"
  type: "ReLU"
  bottom: "conv3"
  top: "conv3"
}
layer {
  name: "conv4"
  type: "Convolution"
  bottom: "conv3"
  top: "conv4"
  param {
    lr_mult: 1
    decay_mult: 1
  }
  param {
    lr_mult: 2
    decay_mult: 0
  }
  convolution_param {
    num_output: 384
    pad: 1
    kernel_size: 3
    group: 2
    weight_filler {
      type: "gaussian"
      std: 0.01
    }
    bias_filler {
      type: "constant"
      value: 0.1
    }
  }
}
layer {
  name: "relu4"
  type: "ReLU"
  bottom: "conv4"
  top: "conv4"
}
layer {
  name: "conv5"
  type: "Convolution"
  bottom: "conv4"
  top: "conv5"
  param {
    lr_mult: 1
    decay_mult: 1
  }
  param {
    lr_mult: 2
    decay_mult: 0
  }
  convolution_param {
    num_output: 256
    pad: 1
    kernel_size: 3
    group: 2
    weight_filler {
      type: "gaussian"
      std: 0.01
    }
    bias_filler {
      type: "constant"
      value: 0.1
    }
  }
}
layer {
  name: "relu5"
  type: "ReLU"
  bottom: "conv5"
  top: "conv5"
}
layer {
  name: "pool5"
  type: "Pooling"
  bottom: "conv5"
  top: "pool5"
  pooling_param {
    pool: MAX
    kernel_size: 3
    stride: 2
  }
}
layer {
  name: "fc6"
  type: "InnerProduct"
  bottom: "pool5"
  top: "fc6"
  param {
    lr_mult: 1
    decay_mult: 1
  }
  param {
    lr_mult: 2
    decay_mult: 0
  }
  inner_product_param {
    num_output: 4096
    weight_filler {
      type: "gaussian"
      std: 0.005
    }
    bias_filler {
      type: "constant"
      value: 0.1
    }
  }
}
layer {
  name: "relu6"
  type: "ReLU"
  bottom: "fc6"
  top: "fc6"
}
layer {
  name: "drop6"
  type: "Dropout"
  bottom: "fc6"
  top: "fc6"
  dropout_param {
    dropout_ratio: 0.5
  }
}
layer {
  name: "fc7"
  type: "InnerProduct"
  bottom: "fc6"
  top: "fc7"
  param {
    lr_mult: 1
    decay_mult: 1
  }
  param {
    lr_mult: 2
    decay_mult: 0
  }
  inner_product_param {
    num_output: 4096
    weight_filler {
      type: "gaussian"
      std: 0.005
    }
    bias_filler {
      type: "constant"
      value: 0.1
    }
  }
}
layer {
  name: "relu7"
  type: "ReLU"
  bottom: "fc7"
  top: "fc7"
}
layer {
  name: "drop7"
  type: "Dropout"
  bottom: "fc7"
  top: "fc7"
  dropout_param {
    dropout_ratio: 0.5
  }
}
layer {
  name: "fc8_plantvillage"
  type: "InnerProduct"
  bottom: "fc7"
  top: "fc8_plantvillage"
  param {
    lr_mult: 1
    decay_mult: 1
  }
  param {
    lr_mult: 2
    decay_mult: 0
  }
  inner_product_param {
    num_output: 38
    weight_filler {
      type: "gaussian"
      std: 0.01
    }
    bias_filler {
      type: "constant"
      value: 0
    }
  }
}
layer {
  name: "prob"
  type: "Softmax"
  bottom: "fc8_plantvillage"
  top: "prob"
  include {
    phase: TEST
  }
}
layer {
  name: "hdf5out"
  type: "HDF5Output"
  bottom: "prob"
  bottom: "label"
  include {
    phase: TEST
  }
  hdf5_output_param {
    file_name: "hdf5_dumps/iter_1050.h5"
  }
}
layer {
  name: "loss"
  type: "SoftmaxWithLoss"
  bottom: "fc8_plantvillage"
  bottom: "label"
  top: "loss"
}
layer {
  name: "accuracy"
  type: "Accuracy"
  bottom: "fc8_plantvillage"
  bottom: "label"
  top: "accuracy"
  include {
    phase: TEST
  }
}
I0403 12:15:19.921531  8653 layer_factory.hpp:77] Creating layer data
I0403 12:15:19.922183  8653 net.cpp:91] Creating Layer data
I0403 12:15:19.922211  8653 net.cpp:399] data -> data
I0403 12:15:19.922262  8653 net.cpp:399] data -> label
I0403 12:15:19.922299  8653 data_transformer.cpp:25] Loading mean file from: /home/mohanty/data/final_dataset/lmdb/grayscale-20-80/mean.binaryproto
I0403 12:15:19.925359  8656 db_lmdb.cpp:38] Opened lmdb /home/mohanty/data/final_dataset/lmdb/grayscale-20-80/test_db
I0403 12:15:19.936605  8653 data_layer.cpp:41] output data size: 100,3,227,227
I0403 12:15:20.055507  8653 net.cpp:141] Setting up data
I0403 12:15:20.055613  8653 net.cpp:148] Top shape: 100 3 227 227 (15458700)
I0403 12:15:20.055635  8653 net.cpp:148] Top shape: 100 (100)
I0403 12:15:20.055650  8653 net.cpp:156] Memory required for data: 61835200
I0403 12:15:20.055678  8653 layer_factory.hpp:77] Creating layer label_data_1_split
I0403 12:15:20.055703  8653 net.cpp:91] Creating Layer label_data_1_split
I0403 12:15:20.055721  8653 net.cpp:425] label_data_1_split <- label
I0403 12:15:20.055752  8653 net.cpp:399] label_data_1_split -> label_data_1_split_0
I0403 12:15:20.055780  8653 net.cpp:399] label_data_1_split -> label_data_1_split_1
I0403 12:15:20.055800  8653 net.cpp:399] label_data_1_split -> label_data_1_split_2
I0403 12:15:20.055866  8653 net.cpp:141] Setting up label_data_1_split
I0403 12:15:20.055889  8653 net.cpp:148] Top shape: 100 (100)
I0403 12:15:20.055905  8653 net.cpp:148] Top shape: 100 (100)
I0403 12:15:20.055922  8653 net.cpp:148] Top shape: 100 (100)
I0403 12:15:20.055937  8653 net.cpp:156] Memory required for data: 61836400
I0403 12:15:20.055950  8653 layer_factory.hpp:77] Creating layer conv1
I0403 12:15:20.055981  8653 net.cpp:91] Creating Layer conv1
I0403 12:15:20.055999  8653 net.cpp:425] conv1 <- data
I0403 12:15:20.056018  8653 net.cpp:399] conv1 -> conv1
I0403 12:15:20.192586  8653 net.cpp:141] Setting up conv1
I0403 12:15:20.192663  8653 net.cpp:148] Top shape: 100 96 55 55 (29040000)
I0403 12:15:20.192682  8653 net.cpp:156] Memory required for data: 177996400
I0403 12:15:20.192713  8653 layer_factory.hpp:77] Creating layer relu1
I0403 12:15:20.192739  8653 net.cpp:91] Creating Layer relu1
I0403 12:15:20.192757  8653 net.cpp:425] relu1 <- conv1
I0403 12:15:20.192775  8653 net.cpp:386] relu1 -> conv1 (in-place)
I0403 12:15:20.193035  8653 net.cpp:141] Setting up relu1
I0403 12:15:20.193063  8653 net.cpp:148] Top shape: 100 96 55 55 (29040000)
I0403 12:15:20.193114  8653 net.cpp:156] Memory required for data: 294156400
I0403 12:15:20.193130  8653 layer_factory.hpp:77] Creating layer norm1
I0403 12:15:20.193158  8653 net.cpp:91] Creating Layer norm1
I0403 12:15:20.193177  8653 net.cpp:425] norm1 <- conv1
I0403 12:15:20.193195  8653 net.cpp:399] norm1 -> norm1
I0403 12:15:20.193502  8653 net.cpp:141] Setting up norm1
I0403 12:15:20.193534  8653 net.cpp:148] Top shape: 100 96 55 55 (29040000)
I0403 12:15:20.193552  8653 net.cpp:156] Memory required for data: 410316400
I0403 12:15:20.193567  8653 layer_factory.hpp:77] Creating layer pool1
I0403 12:15:20.193588  8653 net.cpp:91] Creating Layer pool1
I0403 12:15:20.193608  8653 net.cpp:425] pool1 <- norm1
I0403 12:15:20.193626  8653 net.cpp:399] pool1 -> pool1
I0403 12:15:20.193693  8653 net.cpp:141] Setting up pool1
I0403 12:15:20.193717  8653 net.cpp:148] Top shape: 100 96 27 27 (6998400)
I0403 12:15:20.193732  8653 net.cpp:156] Memory required for data: 438310000
I0403 12:15:20.193747  8653 layer_factory.hpp:77] Creating layer conv2
I0403 12:15:20.193771  8653 net.cpp:91] Creating Layer conv2
I0403 12:15:20.193789  8653 net.cpp:425] conv2 <- pool1
I0403 12:15:20.193806  8653 net.cpp:399] conv2 -> conv2
I0403 12:15:20.209195  8653 net.cpp:141] Setting up conv2
I0403 12:15:20.209251  8653 net.cpp:148] Top shape: 100 256 27 27 (18662400)
I0403 12:15:20.209271  8653 net.cpp:156] Memory required for data: 512959600
I0403 12:15:20.209295  8653 layer_factory.hpp:77] Creating layer relu2
I0403 12:15:20.209316  8653 net.cpp:91] Creating Layer relu2
I0403 12:15:20.209333  8653 net.cpp:425] relu2 <- conv2
I0403 12:15:20.209352  8653 net.cpp:386] relu2 -> conv2 (in-place)
I0403 12:15:20.209632  8653 net.cpp:141] Setting up relu2
I0403 12:15:20.209661  8653 net.cpp:148] Top shape: 100 256 27 27 (18662400)
I0403 12:15:20.209677  8653 net.cpp:156] Memory required for data: 587609200
I0403 12:15:20.209693  8653 layer_factory.hpp:77] Creating layer norm2
I0403 12:15:20.209714  8653 net.cpp:91] Creating Layer norm2
I0403 12:15:20.209731  8653 net.cpp:425] norm2 <- conv2
I0403 12:15:20.209750  8653 net.cpp:399] norm2 -> norm2
I0403 12:15:20.209947  8653 net.cpp:141] Setting up norm2
I0403 12:15:20.209975  8653 net.cpp:148] Top shape: 100 256 27 27 (18662400)
I0403 12:15:20.209990  8653 net.cpp:156] Memory required for data: 662258800
I0403 12:15:20.210005  8653 layer_factory.hpp:77] Creating layer pool2
I0403 12:15:20.210024  8653 net.cpp:91] Creating Layer pool2
I0403 12:15:20.210041  8653 net.cpp:425] pool2 <- norm2
I0403 12:15:20.210062  8653 net.cpp:399] pool2 -> pool2
I0403 12:15:20.210116  8653 net.cpp:141] Setting up pool2
I0403 12:15:20.210144  8653 net.cpp:148] Top shape: 100 256 13 13 (4326400)
I0403 12:15:20.210160  8653 net.cpp:156] Memory required for data: 679564400
I0403 12:15:20.210175  8653 layer_factory.hpp:77] Creating layer conv3
I0403 12:15:20.210201  8653 net.cpp:91] Creating Layer conv3
I0403 12:15:20.210218  8653 net.cpp:425] conv3 <- pool2
I0403 12:15:20.210237  8653 net.cpp:399] conv3 -> conv3
I0403 12:15:20.252434  8653 net.cpp:141] Setting up conv3
I0403 12:15:20.252482  8653 net.cpp:148] Top shape: 100 384 13 13 (6489600)
I0403 12:15:20.252499  8653 net.cpp:156] Memory required for data: 705522800
I0403 12:15:20.252531  8653 layer_factory.hpp:77] Creating layer relu3
I0403 12:15:20.252553  8653 net.cpp:91] Creating Layer relu3
I0403 12:15:20.252571  8653 net.cpp:425] relu3 <- conv3
I0403 12:15:20.252593  8653 net.cpp:386] relu3 -> conv3 (in-place)
I0403 12:15:20.252872  8653 net.cpp:141] Setting up relu3
I0403 12:15:20.252898  8653 net.cpp:148] Top shape: 100 384 13 13 (6489600)
I0403 12:15:20.252914  8653 net.cpp:156] Memory required for data: 731481200
I0403 12:15:20.252929  8653 layer_factory.hpp:77] Creating layer conv4
I0403 12:15:20.252955  8653 net.cpp:91] Creating Layer conv4
I0403 12:15:20.252985  8653 net.cpp:425] conv4 <- conv3
I0403 12:15:20.253006  8653 net.cpp:399] conv4 -> conv4
I0403 12:15:20.282582  8653 net.cpp:141] Setting up conv4
I0403 12:15:20.282652  8653 net.cpp:148] Top shape: 100 384 13 13 (6489600)
I0403 12:15:20.282702  8653 net.cpp:156] Memory required for data: 757439600
I0403 12:15:20.282724  8653 layer_factory.hpp:77] Creating layer relu4
I0403 12:15:20.282745  8653 net.cpp:91] Creating Layer relu4
I0403 12:15:20.282763  8653 net.cpp:425] relu4 <- conv4
I0403 12:15:20.282784  8653 net.cpp:386] relu4 -> conv4 (in-place)
I0403 12:15:20.283061  8653 net.cpp:141] Setting up relu4
I0403 12:15:20.283087  8653 net.cpp:148] Top shape: 100 384 13 13 (6489600)
I0403 12:15:20.283102  8653 net.cpp:156] Memory required for data: 783398000
I0403 12:15:20.283118  8653 layer_factory.hpp:77] Creating layer conv5
I0403 12:15:20.283143  8653 net.cpp:91] Creating Layer conv5
I0403 12:15:20.283160  8653 net.cpp:425] conv5 <- conv4
I0403 12:15:20.283185  8653 net.cpp:399] conv5 -> conv5
I0403 12:15:20.303546  8653 net.cpp:141] Setting up conv5
I0403 12:15:20.303598  8653 net.cpp:148] Top shape: 100 256 13 13 (4326400)
I0403 12:15:20.303617  8653 net.cpp:156] Memory required for data: 800703600
I0403 12:15:20.303640  8653 layer_factory.hpp:77] Creating layer relu5
I0403 12:15:20.303660  8653 net.cpp:91] Creating Layer relu5
I0403 12:15:20.303678  8653 net.cpp:425] relu5 <- conv5
I0403 12:15:20.303697  8653 net.cpp:386] relu5 -> conv5 (in-place)
I0403 12:15:20.303978  8653 net.cpp:141] Setting up relu5
I0403 12:15:20.304005  8653 net.cpp:148] Top shape: 100 256 13 13 (4326400)
I0403 12:15:20.304021  8653 net.cpp:156] Memory required for data: 818009200
I0403 12:15:20.304036  8653 layer_factory.hpp:77] Creating layer pool5
I0403 12:15:20.304060  8653 net.cpp:91] Creating Layer pool5
I0403 12:15:20.304077  8653 net.cpp:425] pool5 <- conv5
I0403 12:15:20.304096  8653 net.cpp:399] pool5 -> pool5
I0403 12:15:20.304157  8653 net.cpp:141] Setting up pool5
I0403 12:15:20.304182  8653 net.cpp:148] Top shape: 100 256 6 6 (921600)
I0403 12:15:20.304196  8653 net.cpp:156] Memory required for data: 821695600
I0403 12:15:20.304210  8653 layer_factory.hpp:77] Creating layer fc6
I0403 12:15:20.304237  8653 net.cpp:91] Creating Layer fc6
I0403 12:15:20.304255  8653 net.cpp:425] fc6 <- pool5
I0403 12:15:20.304275  8653 net.cpp:399] fc6 -> fc6
I0403 12:15:21.853869  8653 net.cpp:141] Setting up fc6
I0403 12:15:21.853910  8653 net.cpp:148] Top shape: 100 4096 (409600)
I0403 12:15:21.853926  8653 net.cpp:156] Memory required for data: 823334000
I0403 12:15:21.853947  8653 layer_factory.hpp:77] Creating layer relu6
I0403 12:15:21.853968  8653 net.cpp:91] Creating Layer relu6
I0403 12:15:21.853986  8653 net.cpp:425] relu6 <- fc6
I0403 12:15:21.854003  8653 net.cpp:386] relu6 -> fc6 (in-place)
I0403 12:15:21.854220  8653 net.cpp:141] Setting up relu6
I0403 12:15:21.854245  8653 net.cpp:148] Top shape: 100 4096 (409600)
I0403 12:15:21.854261  8653 net.cpp:156] Memory required for data: 824972400
I0403 12:15:21.854275  8653 layer_factory.hpp:77] Creating layer drop6
I0403 12:15:21.854292  8653 net.cpp:91] Creating Layer drop6
I0403 12:15:21.854307  8653 net.cpp:425] drop6 <- fc6
I0403 12:15:21.854326  8653 net.cpp:386] drop6 -> fc6 (in-place)
I0403 12:15:21.854375  8653 net.cpp:141] Setting up drop6
I0403 12:15:21.854400  8653 net.cpp:148] Top shape: 100 4096 (409600)
I0403 12:15:21.854415  8653 net.cpp:156] Memory required for data: 826610800
I0403 12:15:21.854430  8653 layer_factory.hpp:77] Creating layer fc7
I0403 12:15:21.854450  8653 net.cpp:91] Creating Layer fc7
I0403 12:15:21.854465  8653 net.cpp:425] fc7 <- fc6
I0403 12:15:21.854485  8653 net.cpp:399] fc7 -> fc7
I0403 12:15:22.538203  8653 net.cpp:141] Setting up fc7
I0403 12:15:22.538275  8653 net.cpp:148] Top shape: 100 4096 (409600)
I0403 12:15:22.538292  8653 net.cpp:156] Memory required for data: 828249200
I0403 12:15:22.538312  8653 layer_factory.hpp:77] Creating layer relu7
I0403 12:15:22.538334  8653 net.cpp:91] Creating Layer relu7
I0403 12:15:22.538350  8653 net.cpp:425] relu7 <- fc7
I0403 12:15:22.538372  8653 net.cpp:386] relu7 -> fc7 (in-place)
I0403 12:15:22.538784  8653 net.cpp:141] Setting up relu7
I0403 12:15:22.538811  8653 net.cpp:148] Top shape: 100 4096 (409600)
I0403 12:15:22.538883  8653 net.cpp:156] Memory required for data: 829887600
I0403 12:15:22.538899  8653 layer_factory.hpp:77] Creating layer drop7
I0403 12:15:22.538918  8653 net.cpp:91] Creating Layer drop7
I0403 12:15:22.538933  8653 net.cpp:425] drop7 <- fc7
I0403 12:15:22.538974  8653 net.cpp:386] drop7 -> fc7 (in-place)
I0403 12:15:22.539033  8653 net.cpp:141] Setting up drop7
I0403 12:15:22.539074  8653 net.cpp:148] Top shape: 100 4096 (409600)
I0403 12:15:22.539090  8653 net.cpp:156] Memory required for data: 831526000
I0403 12:15:22.539105  8653 layer_factory.hpp:77] Creating layer fc8_plantvillage
I0403 12:15:22.539124  8653 net.cpp:91] Creating Layer fc8_plantvillage
I0403 12:15:22.539140  8653 net.cpp:425] fc8_plantvillage <- fc7
I0403 12:15:22.539160  8653 net.cpp:399] fc8_plantvillage -> fc8_plantvillage
I0403 12:15:22.545956  8653 net.cpp:141] Setting up fc8_plantvillage
I0403 12:15:22.545985  8653 net.cpp:148] Top shape: 100 38 (3800)
I0403 12:15:22.546000  8653 net.cpp:156] Memory required for data: 831541200
I0403 12:15:22.546018  8653 layer_factory.hpp:77] Creating layer fc8_plantvillage_fc8_plantvillage_0_split
I0403 12:15:22.546037  8653 net.cpp:91] Creating Layer fc8_plantvillage_fc8_plantvillage_0_split
I0403 12:15:22.546056  8653 net.cpp:425] fc8_plantvillage_fc8_plantvillage_0_split <- fc8_plantvillage
I0403 12:15:22.546073  8653 net.cpp:399] fc8_plantvillage_fc8_plantvillage_0_split -> fc8_plantvillage_fc8_plantvillage_0_split_0
I0403 12:15:22.546092  8653 net.cpp:399] fc8_plantvillage_fc8_plantvillage_0_split -> fc8_plantvillage_fc8_plantvillage_0_split_1
I0403 12:15:22.546111  8653 net.cpp:399] fc8_plantvillage_fc8_plantvillage_0_split -> fc8_plantvillage_fc8_plantvillage_0_split_2
I0403 12:15:22.546188  8653 net.cpp:141] Setting up fc8_plantvillage_fc8_plantvillage_0_split
I0403 12:15:22.546216  8653 net.cpp:148] Top shape: 100 38 (3800)
I0403 12:15:22.546232  8653 net.cpp:148] Top shape: 100 38 (3800)
I0403 12:15:22.546248  8653 net.cpp:148] Top shape: 100 38 (3800)
I0403 12:15:22.546262  8653 net.cpp:156] Memory required for data: 831586800
I0403 12:15:22.546278  8653 layer_factory.hpp:77] Creating layer prob
I0403 12:15:22.546298  8653 net.cpp:91] Creating Layer prob
I0403 12:15:22.546313  8653 net.cpp:425] prob <- fc8_plantvillage_fc8_plantvillage_0_split_0
I0403 12:15:22.546329  8653 net.cpp:399] prob -> prob
I0403 12:15:22.546568  8653 net.cpp:141] Setting up prob
I0403 12:15:22.546596  8653 net.cpp:148] Top shape: 100 38 (3800)
I0403 12:15:22.546609  8653 net.cpp:156] Memory required for data: 831602000
I0403 12:15:22.546624  8653 layer_factory.hpp:77] Creating layer hdf5out
I0403 12:15:22.546643  8653 net.cpp:91] Creating Layer hdf5out
I0403 12:15:22.546658  8653 net.cpp:425] hdf5out <- prob
I0403 12:15:22.546674  8653 net.cpp:425] hdf5out <- label_data_1_split_0
I0403 12:15:22.549336  8653 net.cpp:141] Setting up hdf5out
…
