…
I0403 12:35:34.833884  9147 net.cpp:313] The NetState phase (1) differed from the phase (0) specified by a rule in layer data
I0403 12:35:34.834202  9147 net.cpp:49] Initializing net from parameters: 
state {
  phase: TEST
}
layer {
  name: "data"
  type: "Data"
  top: "data"
  top: "label"
  include {
    phase: TEST
  }
  transform_param {
    crop_size: 227
    mean_file: "/home/mohanty/data/final_dataset/lmdb/grayscale-20-80/mean.binaryproto"
  }
  data_param {
    source: "/home/mohanty/data/final_dataset/lmdb/grayscale-20-80/test_db"
    batch_size: 100
    backend: LMDB
  }
}
layer {
  name: "conv1"
  type: "Convolution"
  bottom: "data"
  top: "conv1"
  param {
    lr_mult: 1
    decay_mult: 1
  }
  param {
    lr_mult: 2
    decay_mult: 0
  }
  convolution_param {
    num_output: 96
    kernel_size: 11
    stride: 4
    weight_filler {
      type: "gaussian"
      std: 0.01
    }
    bias_filler {
      type: "constant"
      value: 0
    }
  }
}
layer {
  name: "relu1"
  type: "ReLU"
  bottom: "conv1"
  top: "conv1"
}
layer {
  name: "norm1"
  type: "LRN"
  bottom: "conv1"
  top: "norm1"
  lrn_param {
    local_size: 5
    alpha: 0.0001
    beta: 0.75
  }
}
layer {
  name: "pool1"
  type: "Pooling"
  bottom: "norm1"
  top: "pool1"
  pooling_param {
    pool: MAX
    kernel_size: 3
    stride: 2
  }
}
layer {
  name: "conv2"
  type: "Convolution"
  bottom: "pool1"
  top: "conv2"
  param {
    lr_mult: 1
    decay_mult: 1
  }
  param {
    lr_mult: 2
    decay_mult: 0
  }
  convolution_param {
    num_output: 256
    pad: 2
    kernel_size: 5
    group: 2
    weight_filler {
      type: "gaussian"
      std: 0.01
    }
    bias_filler {
      type: "constant"
      value: 0.1
    }
  }
}
layer {
  name: "relu2"
  type: "ReLU"
  bottom: "conv2"
  top: "conv2"
}
layer {
  name: "norm2"
  type: "LRN"
  bottom: "conv2"
  top: "norm2"
  lrn_param {
    local_size: 5
    alpha: 0.0001
    beta: 0.75
  }
}
layer {
  name: "pool2"
  type: "Pooling"
  bottom: "norm2"
  top: "pool2"
  pooling_param {
    pool: MAX
    kernel_size: 3
    stride: 2
  }
}
layer {
  name: "conv3"
  type: "Convolution"
  bottom: "pool2"
  top: "conv3"
  param {
    lr_mult: 1
    decay_mult: 1
  }
  param {
    lr_mult: 2
    decay_mult: 0
  }
  convolution_param {
    num_output: 384
    pad: 1
    kernel_size: 3
    weight_filler {
      type: "gaussian"
      std: 0.01
    }
    bias_filler {
      type: "constant"
      value: 0
    }
  }
}
layer {
  name: "relu3"
  type: "ReLU"
  bottom: "conv3"
  top: "conv3"
}
layer {
  name: "conv4"
  type: "Convolution"
  bottom: "conv3"
  top: "conv4"
  param {
    lr_mult: 1
    decay_mult: 1
  }
  param {
    lr_mult: 2
    decay_mult: 0
  }
  convolution_param {
    num_output: 384
    pad: 1
    kernel_size: 3
    group: 2
    weight_filler {
      type: "gaussian"
      std: 0.01
    }
    bias_filler {
      type: "constant"
      value: 0.1
    }
  }
}
layer {
  name: "relu4"
  type: "ReLU"
  bottom: "conv4"
  top: "conv4"
}
layer {
  name: "conv5"
  type: "Convolution"
  bottom: "conv4"
  top: "conv5"
  param {
    lr_mult: 1
    decay_mult: 1
  }
  param {
    lr_mult: 2
    decay_mult: 0
  }
  convolution_param {
    num_output: 256
    pad: 1
    kernel_size: 3
    group: 2
    weight_filler {
      type: "gaussian"
      std: 0.01
    }
    bias_filler {
      type: "constant"
      value: 0.1
    }
  }
}
layer {
  name: "relu5"
  type: "ReLU"
  bottom: "conv5"
  top: "conv5"
}
layer {
  name: "pool5"
  type: "Pooling"
  bottom: "conv5"
  top: "pool5"
  pooling_param {
    pool: MAX
    kernel_size: 3
    stride: 2
  }
}
layer {
  name: "fc6"
  type: "InnerProduct"
  bottom: "pool5"
  top: "fc6"
  param {
    lr_mult: 1
    decay_mult: 1
  }
  param {
    lr_mult: 2
    decay_mult: 0
  }
  inner_product_param {
    num_output: 4096
    weight_filler {
      type: "gaussian"
      std: 0.005
    }
    bias_filler {
      type: "constant"
      value: 0.1
    }
  }
}
layer {
  name: "relu6"
  type: "ReLU"
  bottom: "fc6"
  top: "fc6"
}
layer {
  name: "drop6"
  type: "Dropout"
  bottom: "fc6"
  top: "fc6"
  dropout_param {
    dropout_ratio: 0.5
  }
}
layer {
  name: "fc7"
  type: "InnerProduct"
  bottom: "fc6"
  top: "fc7"
  param {
    lr_mult: 1
    decay_mult: 1
  }
  param {
    lr_mult: 2
    decay_mult: 0
  }
  inner_product_param {
    num_output: 4096
    weight_filler {
      type: "gaussian"
      std: 0.005
    }
    bias_filler {
      type: "constant"
      value: 0.1
    }
  }
}
layer {
  name: "relu7"
  type: "ReLU"
  bottom: "fc7"
  top: "fc7"
}
layer {
  name: "drop7"
  type: "Dropout"
  bottom: "fc7"
  top: "fc7"
  dropout_param {
    dropout_ratio: 0.5
  }
}
layer {
  name: "fc8_plantvillage"
  type: "InnerProduct"
  bottom: "fc7"
  top: "fc8_plantvillage"
  param {
    lr_mult: 1
    decay_mult: 1
  }
  param {
    lr_mult: 2
    decay_mult: 0
  }
  inner_product_param {
    num_output: 38
    weight_filler {
      type: "gaussian"
      std: 0.01
    }
    bias_filler {
      type: "constant"
      value: 0
    }
  }
}
layer {
  name: "prob"
  type: "Softmax"
  bottom: "fc8_plantvillage"
  top: "prob"
  include {
    phase: TEST
  }
}
layer {
  name: "hdf5out"
  type: "HDF5Output"
  bottom: "prob"
  bottom: "label"
  include {
    phase: TEST
  }
  hdf5_output_param {
    file_name: "hdf5_dumps/iter_2520.h5"
  }
}
layer {
  name: "loss"
  type: "SoftmaxWithLoss"
  bottom: "fc8_plantvillage"
  bottom: "label"
  top: "loss"
}
layer {
  name: "accuracy"
  type: "Accuracy"
  bottom: "fc8_plantvillage"
  bottom: "label"
  top: "accuracy"
  include {
    phase: TEST
  }
}
I0403 12:35:34.834769  9147 layer_factory.hpp:77] Creating layer data
I0403 12:35:34.835417  9147 net.cpp:91] Creating Layer data
I0403 12:35:34.835448  9147 net.cpp:399] data -> data
I0403 12:35:34.835500  9147 net.cpp:399] data -> label
I0403 12:35:34.835539  9147 data_transformer.cpp:25] Loading mean file from: /home/mohanty/data/final_dataset/lmdb/grayscale-20-80/mean.binaryproto
I0403 12:35:34.838629  9150 db_lmdb.cpp:38] Opened lmdb /home/mohanty/data/final_dataset/lmdb/grayscale-20-80/test_db
I0403 12:35:34.849356  9147 data_layer.cpp:41] output data size: 100,3,227,227
I0403 12:35:34.967893  9147 net.cpp:141] Setting up data
I0403 12:35:34.967952  9147 net.cpp:148] Top shape: 100 3 227 227 (15458700)
I0403 12:35:34.967973  9147 net.cpp:148] Top shape: 100 (100)
I0403 12:35:34.967988  9147 net.cpp:156] Memory required for data: 61835200
I0403 12:35:34.968016  9147 layer_factory.hpp:77] Creating layer label_data_1_split
I0403 12:35:34.968041  9147 net.cpp:91] Creating Layer label_data_1_split
I0403 12:35:34.968058  9147 net.cpp:425] label_data_1_split <- label
I0403 12:35:34.968089  9147 net.cpp:399] label_data_1_split -> label_data_1_split_0
I0403 12:35:34.968116  9147 net.cpp:399] label_data_1_split -> label_data_1_split_1
I0403 12:35:34.968135  9147 net.cpp:399] label_data_1_split -> label_data_1_split_2
I0403 12:35:34.968196  9147 net.cpp:141] Setting up label_data_1_split
I0403 12:35:34.968219  9147 net.cpp:148] Top shape: 100 (100)
I0403 12:35:34.968235  9147 net.cpp:148] Top shape: 100 (100)
I0403 12:35:34.968250  9147 net.cpp:148] Top shape: 100 (100)
I0403 12:35:34.968264  9147 net.cpp:156] Memory required for data: 61836400
I0403 12:35:34.968278  9147 layer_factory.hpp:77] Creating layer conv1
I0403 12:35:34.968309  9147 net.cpp:91] Creating Layer conv1
I0403 12:35:34.968327  9147 net.cpp:425] conv1 <- data
I0403 12:35:34.968344  9147 net.cpp:399] conv1 -> conv1
I0403 12:35:35.111439  9147 net.cpp:141] Setting up conv1
I0403 12:35:35.111484  9147 net.cpp:148] Top shape: 100 96 55 55 (29040000)
I0403 12:35:35.111501  9147 net.cpp:156] Memory required for data: 177996400
I0403 12:35:35.111531  9147 layer_factory.hpp:77] Creating layer relu1
I0403 12:35:35.111564  9147 net.cpp:91] Creating Layer relu1
I0403 12:35:35.111582  9147 net.cpp:425] relu1 <- conv1
I0403 12:35:35.111601  9147 net.cpp:386] relu1 -> conv1 (in-place)
I0403 12:35:35.111855  9147 net.cpp:141] Setting up relu1
I0403 12:35:35.111881  9147 net.cpp:148] Top shape: 100 96 55 55 (29040000)
I0403 12:35:35.111935  9147 net.cpp:156] Memory required for data: 294156400
I0403 12:35:35.111951  9147 layer_factory.hpp:77] Creating layer norm1
I0403 12:35:35.111979  9147 net.cpp:91] Creating Layer norm1
I0403 12:35:35.111996  9147 net.cpp:425] norm1 <- conv1
I0403 12:35:35.112015  9147 net.cpp:399] norm1 -> norm1
I0403 12:35:35.112320  9147 net.cpp:141] Setting up norm1
I0403 12:35:35.112350  9147 net.cpp:148] Top shape: 100 96 55 55 (29040000)
I0403 12:35:35.112365  9147 net.cpp:156] Memory required for data: 410316400
I0403 12:35:35.112380  9147 layer_factory.hpp:77] Creating layer pool1
I0403 12:35:35.112403  9147 net.cpp:91] Creating Layer pool1
I0403 12:35:35.112419  9147 net.cpp:425] pool1 <- norm1
I0403 12:35:35.112437  9147 net.cpp:399] pool1 -> pool1
I0403 12:35:35.112505  9147 net.cpp:141] Setting up pool1
I0403 12:35:35.112529  9147 net.cpp:148] Top shape: 100 96 27 27 (6998400)
I0403 12:35:35.112548  9147 net.cpp:156] Memory required for data: 438310000
I0403 12:35:35.112563  9147 layer_factory.hpp:77] Creating layer conv2
I0403 12:35:35.112597  9147 net.cpp:91] Creating Layer conv2
I0403 12:35:35.112614  9147 net.cpp:425] conv2 <- pool1
I0403 12:35:35.112632  9147 net.cpp:399] conv2 -> conv2
I0403 12:35:35.128058  9147 net.cpp:141] Setting up conv2
I0403 12:35:35.128114  9147 net.cpp:148] Top shape: 100 256 27 27 (18662400)
I0403 12:35:35.128131  9147 net.cpp:156] Memory required for data: 512959600
I0403 12:35:35.128154  9147 layer_factory.hpp:77] Creating layer relu2
I0403 12:35:35.128177  9147 net.cpp:91] Creating Layer relu2
I0403 12:35:35.128193  9147 net.cpp:425] relu2 <- conv2
I0403 12:35:35.128212  9147 net.cpp:386] relu2 -> conv2 (in-place)
I0403 12:35:35.128479  9147 net.cpp:141] Setting up relu2
I0403 12:35:35.128506  9147 net.cpp:148] Top shape: 100 256 27 27 (18662400)
I0403 12:35:35.128521  9147 net.cpp:156] Memory required for data: 587609200
I0403 12:35:35.128540  9147 layer_factory.hpp:77] Creating layer norm2
I0403 12:35:35.128564  9147 net.cpp:91] Creating Layer norm2
I0403 12:35:35.128582  9147 net.cpp:425] norm2 <- conv2
I0403 12:35:35.128600  9147 net.cpp:399] norm2 -> norm2
I0403 12:35:35.128832  9147 net.cpp:141] Setting up norm2
I0403 12:35:35.128860  9147 net.cpp:148] Top shape: 100 256 27 27 (18662400)
I0403 12:35:35.128876  9147 net.cpp:156] Memory required for data: 662258800
I0403 12:35:35.128890  9147 layer_factory.hpp:77] Creating layer pool2
I0403 12:35:35.128911  9147 net.cpp:91] Creating Layer pool2
I0403 12:35:35.128926  9147 net.cpp:425] pool2 <- norm2
I0403 12:35:35.128944  9147 net.cpp:399] pool2 -> pool2
I0403 12:35:35.128995  9147 net.cpp:141] Setting up pool2
I0403 12:35:35.129019  9147 net.cpp:148] Top shape: 100 256 13 13 (4326400)
I0403 12:35:35.129034  9147 net.cpp:156] Memory required for data: 679564400
I0403 12:35:35.129048  9147 layer_factory.hpp:77] Creating layer conv3
I0403 12:35:35.129071  9147 net.cpp:91] Creating Layer conv3
I0403 12:35:35.129101  9147 net.cpp:425] conv3 <- pool2
I0403 12:35:35.129119  9147 net.cpp:399] conv3 -> conv3
I0403 12:35:35.167937  9147 net.cpp:141] Setting up conv3
I0403 12:35:35.168012  9147 net.cpp:148] Top shape: 100 384 13 13 (6489600)
I0403 12:35:35.168028  9147 net.cpp:156] Memory required for data: 705522800
I0403 12:35:35.168056  9147 layer_factory.hpp:77] Creating layer relu3
I0403 12:35:35.168081  9147 net.cpp:91] Creating Layer relu3
I0403 12:35:35.168097  9147 net.cpp:425] relu3 <- conv3
I0403 12:35:35.168117  9147 net.cpp:386] relu3 -> conv3 (in-place)
I0403 12:35:35.168397  9147 net.cpp:141] Setting up relu3
I0403 12:35:35.168424  9147 net.cpp:148] Top shape: 100 384 13 13 (6489600)
I0403 12:35:35.168440  9147 net.cpp:156] Memory required for data: 731481200
I0403 12:35:35.168455  9147 layer_factory.hpp:77] Creating layer conv4
I0403 12:35:35.168483  9147 net.cpp:91] Creating Layer conv4
I0403 12:35:35.168500  9147 net.cpp:425] conv4 <- conv3
I0403 12:35:35.168521  9147 net.cpp:399] conv4 -> conv4
I0403 12:35:35.198910  9147 net.cpp:141] Setting up conv4
I0403 12:35:35.198981  9147 net.cpp:148] Top shape: 100 384 13 13 (6489600)
I0403 12:35:35.199031  9147 net.cpp:156] Memory required for data: 757439600
I0403 12:35:35.199054  9147 layer_factory.hpp:77] Creating layer relu4
I0403 12:35:35.199079  9147 net.cpp:91] Creating Layer relu4
I0403 12:35:35.199096  9147 net.cpp:425] relu4 <- conv4
I0403 12:35:35.199115  9147 net.cpp:386] relu4 -> conv4 (in-place)
I0403 12:35:35.199434  9147 net.cpp:141] Setting up relu4
I0403 12:35:35.199461  9147 net.cpp:148] Top shape: 100 384 13 13 (6489600)
I0403 12:35:35.199476  9147 net.cpp:156] Memory required for data: 783398000
I0403 12:35:35.199491  9147 layer_factory.hpp:77] Creating layer conv5
I0403 12:35:35.199515  9147 net.cpp:91] Creating Layer conv5
I0403 12:35:35.199533  9147 net.cpp:425] conv5 <- conv4
I0403 12:35:35.199559  9147 net.cpp:399] conv5 -> conv5
I0403 12:35:35.220521  9147 net.cpp:141] Setting up conv5
I0403 12:35:35.220579  9147 net.cpp:148] Top shape: 100 256 13 13 (4326400)
I0403 12:35:35.220600  9147 net.cpp:156] Memory required for data: 800703600
I0403 12:35:35.220623  9147 layer_factory.hpp:77] Creating layer relu5
I0403 12:35:35.220650  9147 net.cpp:91] Creating Layer relu5
I0403 12:35:35.220669  9147 net.cpp:425] relu5 <- conv5
I0403 12:35:35.220687  9147 net.cpp:386] relu5 -> conv5 (in-place)
I0403 12:35:35.220968  9147 net.cpp:141] Setting up relu5
I0403 12:35:35.220995  9147 net.cpp:148] Top shape: 100 256 13 13 (4326400)
I0403 12:35:35.221010  9147 net.cpp:156] Memory required for data: 818009200
I0403 12:35:35.221025  9147 layer_factory.hpp:77] Creating layer pool5
I0403 12:35:35.221050  9147 net.cpp:91] Creating Layer pool5
I0403 12:35:35.221066  9147 net.cpp:425] pool5 <- conv5
I0403 12:35:35.221087  9147 net.cpp:399] pool5 -> pool5
I0403 12:35:35.221150  9147 net.cpp:141] Setting up pool5
I0403 12:35:35.221174  9147 net.cpp:148] Top shape: 100 256 6 6 (921600)
I0403 12:35:35.221189  9147 net.cpp:156] Memory required for data: 821695600
I0403 12:35:35.221204  9147 layer_factory.hpp:77] Creating layer fc6
I0403 12:35:35.221232  9147 net.cpp:91] Creating Layer fc6
I0403 12:35:35.221251  9147 net.cpp:425] fc6 <- pool5
I0403 12:35:35.221269  9147 net.cpp:399] fc6 -> fc6
I0403 12:35:36.770761  9147 net.cpp:141] Setting up fc6
I0403 12:35:36.770834  9147 net.cpp:148] Top shape: 100 4096 (409600)
I0403 12:35:36.770866  9147 net.cpp:156] Memory required for data: 823334000
I0403 12:35:36.770903  9147 layer_factory.hpp:77] Creating layer relu6
I0403 12:35:36.770932  9147 net.cpp:91] Creating Layer relu6
I0403 12:35:36.770951  9147 net.cpp:425] relu6 <- fc6
I0403 12:35:36.770985  9147 net.cpp:386] relu6 -> fc6 (in-place)
I0403 12:35:36.771215  9147 net.cpp:141] Setting up relu6
I0403 12:35:36.771242  9147 net.cpp:148] Top shape: 100 4096 (409600)
I0403 12:35:36.771260  9147 net.cpp:156] Memory required for data: 824972400
I0403 12:35:36.771275  9147 layer_factory.hpp:77] Creating layer drop6
I0403 12:35:36.771296  9147 net.cpp:91] Creating Layer drop6
I0403 12:35:36.771313  9147 net.cpp:425] drop6 <- fc6
I0403 12:35:36.771332  9147 net.cpp:386] drop6 -> fc6 (in-place)
I0403 12:35:36.771385  9147 net.cpp:141] Setting up drop6
I0403 12:35:36.771428  9147 net.cpp:148] Top shape: 100 4096 (409600)
I0403 12:35:36.771443  9147 net.cpp:156] Memory required for data: 826610800
I0403 12:35:36.771458  9147 layer_factory.hpp:77] Creating layer fc7
I0403 12:35:36.771481  9147 net.cpp:91] Creating Layer fc7
I0403 12:35:36.771504  9147 net.cpp:425] fc7 <- fc6
I0403 12:35:36.771527  9147 net.cpp:399] fc7 -> fc7
I0403 12:35:37.474408  9147 net.cpp:141] Setting up fc7
I0403 12:35:37.474488  9147 net.cpp:148] Top shape: 100 4096 (409600)
I0403 12:35:37.474503  9147 net.cpp:156] Memory required for data: 828249200
I0403 12:35:37.474524  9147 layer_factory.hpp:77] Creating layer relu7
I0403 12:35:37.474557  9147 net.cpp:91] Creating Layer relu7
I0403 12:35:37.474578  9147 net.cpp:425] relu7 <- fc7
I0403 12:35:37.474598  9147 net.cpp:386] relu7 -> fc7 (in-place)
I0403 12:35:37.475003  9147 net.cpp:141] Setting up relu7
I0403 12:35:37.475028  9147 net.cpp:148] Top shape: 100 4096 (409600)
I0403 12:35:37.475086  9147 net.cpp:156] Memory required for data: 829887600
I0403 12:35:37.475102  9147 layer_factory.hpp:77] Creating layer drop7
I0403 12:35:37.475123  9147 net.cpp:91] Creating Layer drop7
I0403 12:35:37.475138  9147 net.cpp:425] drop7 <- fc7
I0403 12:35:37.475155  9147 net.cpp:386] drop7 -> fc7 (in-place)
I0403 12:35:37.475200  9147 net.cpp:141] Setting up drop7
I0403 12:35:37.475222  9147 net.cpp:148] Top shape: 100 4096 (409600)
I0403 12:35:37.475235  9147 net.cpp:156] Memory required for data: 831526000
I0403 12:35:37.475250  9147 layer_factory.hpp:77] Creating layer fc8_plantvillage
I0403 12:35:37.475270  9147 net.cpp:91] Creating Layer fc8_plantvillage
I0403 12:35:37.475284  9147 net.cpp:425] fc8_plantvillage <- fc7
I0403 12:35:37.475303  9147 net.cpp:399] fc8_plantvillage -> fc8_plantvillage
I0403 12:35:37.482036  9147 net.cpp:141] Setting up fc8_plantvillage
I0403 12:35:37.482064  9147 net.cpp:148] Top shape: 100 38 (3800)
I0403 12:35:37.482079  9147 net.cpp:156] Memory required for data: 831541200
I0403 12:35:37.482097  9147 layer_factory.hpp:77] Creating layer fc8_plantvillage_fc8_plantvillage_0_split
I0403 12:35:37.482117  9147 net.cpp:91] Creating Layer fc8_plantvillage_fc8_plantvillage_0_split
I0403 12:35:37.482132  9147 net.cpp:425] fc8_plantvillage_fc8_plantvillage_0_split <- fc8_plantvillage
I0403 12:35:37.482149  9147 net.cpp:399] fc8_plantvillage_fc8_plantvillage_0_split -> fc8_plantvillage_fc8_plantvillage_0_split_0
I0403 12:35:37.482169  9147 net.cpp:399] fc8_plantvillage_fc8_plantvillage_0_split -> fc8_plantvillage_fc8_plantvillage_0_split_1
I0403 12:35:37.482190  9147 net.cpp:399] fc8_plantvillage_fc8_plantvillage_0_split -> fc8_plantvillage_fc8_plantvillage_0_split_2
I0403 12:35:37.482267  9147 net.cpp:141] Setting up fc8_plantvillage_fc8_plantvillage_0_split
I0403 12:35:37.482291  9147 net.cpp:148] Top shape: 100 38 (3800)
I0403 12:35:37.482307  9147 net.cpp:148] Top shape: 100 38 (3800)
I0403 12:35:37.482321  9147 net.cpp:148] Top shape: 100 38 (3800)
I0403 12:35:37.482333  9147 net.cpp:156] Memory required for data: 831586800
I0403 12:35:37.482347  9147 layer_factory.hpp:77] Creating layer prob
I0403 12:35:37.482365  9147 net.cpp:91] Creating Layer prob
I0403 12:35:37.482380  9147 net.cpp:425] prob <- fc8_plantvillage_fc8_plantvillage_0_split_0
I0403 12:35:37.482400  9147 net.cpp:399] prob -> prob
I0403 12:35:37.482628  9147 net.cpp:141] Setting up prob
I0403 12:35:37.482653  9147 net.cpp:148] Top shape: 100 38 (3800)
I0403 12:35:37.482667  9147 net.cpp:156] Memory required for data: 831602000
I0403 12:35:37.482681  9147 layer_factory.hpp:77] Creating layer hdf5out
I0403 12:35:37.482702  9147 net.cpp:91] Creating Layer hdf5out
I0403 12:35:37.482717  9147 net.cpp:425] hdf5out <- prob
I0403 12:35:37.482733  9147 net.cpp:425] hdf5out <- label_data_1_split_0
I0403 12:35:37.485224  9147 net.cpp:141] Setting up hdf5out
…
