…
I0403 12:16:46.434752  8680 net.cpp:313] The NetState phase (1) differed from the phase (0) specified by a rule in layer data
I0403 12:16:46.435053  8680 net.cpp:49] Initializing net from parameters: 
state {
  phase: TEST
}
layer {
  name: "data"
  type: "Data"
  top: "data"
  top: "label"
  include {
    phase: TEST
  }
  transform_param {
    crop_size: 227
    mean_file: "/home/mohanty/data/final_dataset/lmdb/grayscale-20-80/mean.binaryproto"
  }
  data_param {
    source: "/home/mohanty/data/final_dataset/lmdb/grayscale-20-80/test_db"
    batch_size: 100
    backend: LMDB
  }
}
layer {
  name: "conv1"
  type: "Convolution"
  bottom: "data"
  top: "conv1"
  param {
    lr_mult: 1
    decay_mult: 1
  }
  param {
    lr_mult: 2
    decay_mult: 0
  }
  convolution_param {
    num_output: 96
    kernel_size: 11
    stride: 4
    weight_filler {
      type: "gaussian"
      std: 0.01
    }
    bias_filler {
      type: "constant"
      value: 0
    }
  }
}
layer {
  name: "relu1"
  type: "ReLU"
  bottom: "conv1"
  top: "conv1"
}
layer {
  name: "norm1"
  type: "LRN"
  bottom: "conv1"
  top: "norm1"
  lrn_param {
    local_size: 5
    alpha: 0.0001
    beta: 0.75
  }
}
layer {
  name: "pool1"
  type: "Pooling"
  bottom: "norm1"
  top: "pool1"
  pooling_param {
    pool: MAX
    kernel_size: 3
    stride: 2
  }
}
layer {
  name: "conv2"
  type: "Convolution"
  bottom: "pool1"
  top: "conv2"
  param {
    lr_mult: 1
    decay_mult: 1
  }
  param {
    lr_mult: 2
    decay_mult: 0
  }
  convolution_param {
    num_output: 256
    pad: 2
    kernel_size: 5
    group: 2
    weight_filler {
      type: "gaussian"
      std: 0.01
    }
    bias_filler {
      type: "constant"
      value: 0.1
    }
  }
}
layer {
  name: "relu2"
  type: "ReLU"
  bottom: "conv2"
  top: "conv2"
}
layer {
  name: "norm2"
  type: "LRN"
  bottom: "conv2"
  top: "norm2"
  lrn_param {
    local_size: 5
    alpha: 0.0001
    beta: 0.75
  }
}
layer {
  name: "pool2"
  type: "Pooling"
  bottom: "norm2"
  top: "pool2"
  pooling_param {
    pool: MAX
    kernel_size: 3
    stride: 2
  }
}
layer {
  name: "conv3"
  type: "Convolution"
  bottom: "pool2"
  top: "conv3"
  param {
    lr_mult: 1
    decay_mult: 1
  }
  param {
    lr_mult: 2
    decay_mult: 0
  }
  convolution_param {
    num_output: 384
    pad: 1
    kernel_size: 3
    weight_filler {
      type: "gaussian"
      std: 0.01
    }
    bias_filler {
      type: "constant"
      value: 0
    }
  }
}
layer {
  name: "relu3"
  type: "ReLU"
  bottom: "conv3"
  top: "conv3"
}
layer {
  name: "conv4"
  type: "Convolution"
  bottom: "conv3"
  top: "conv4"
  param {
    lr_mult: 1
    decay_mult: 1
  }
  param {
    lr_mult: 2
    decay_mult: 0
  }
  convolution_param {
    num_output: 384
    pad: 1
    kernel_size: 3
    group: 2
    weight_filler {
      type: "gaussian"
      std: 0.01
    }
    bias_filler {
      type: "constant"
      value: 0.1
    }
  }
}
layer {
  name: "relu4"
  type: "ReLU"
  bottom: "conv4"
  top: "conv4"
}
layer {
  name: "conv5"
  type: "Convolution"
  bottom: "conv4"
  top: "conv5"
  param {
    lr_mult: 1
    decay_mult: 1
  }
  param {
    lr_mult: 2
    decay_mult: 0
  }
  convolution_param {
    num_output: 256
    pad: 1
    kernel_size: 3
    group: 2
    weight_filler {
      type: "gaussian"
      std: 0.01
    }
    bias_filler {
      type: "constant"
      value: 0.1
    }
  }
}
layer {
  name: "relu5"
  type: "ReLU"
  bottom: "conv5"
  top: "conv5"
}
layer {
  name: "pool5"
  type: "Pooling"
  bottom: "conv5"
  top: "pool5"
  pooling_param {
    pool: MAX
    kernel_size: 3
    stride: 2
  }
}
layer {
  name: "fc6"
  type: "InnerProduct"
  bottom: "pool5"
  top: "fc6"
  param {
    lr_mult: 1
    decay_mult: 1
  }
  param {
    lr_mult: 2
    decay_mult: 0
  }
  inner_product_param {
    num_output: 4096
    weight_filler {
      type: "gaussian"
      std: 0.005
    }
    bias_filler {
      type: "constant"
      value: 0.1
    }
  }
}
layer {
  name: "relu6"
  type: "ReLU"
  bottom: "fc6"
  top: "fc6"
}
layer {
  name: "drop6"
  type: "Dropout"
  bottom: "fc6"
  top: "fc6"
  dropout_param {
    dropout_ratio: 0.5
  }
}
layer {
  name: "fc7"
  type: "InnerProduct"
  bottom: "fc6"
  top: "fc7"
  param {
    lr_mult: 1
    decay_mult: 1
  }
  param {
    lr_mult: 2
    decay_mult: 0
  }
  inner_product_param {
    num_output: 4096
    weight_filler {
      type: "gaussian"
      std: 0.005
    }
    bias_filler {
      type: "constant"
      value: 0.1
    }
  }
}
layer {
  name: "relu7"
  type: "ReLU"
  bottom: "fc7"
  top: "fc7"
}
layer {
  name: "drop7"
  type: "Dropout"
  bottom: "fc7"
  top: "fc7"
  dropout_param {
    dropout_ratio: 0.5
  }
}
layer {
  name: "fc8_plantvillage"
  type: "InnerProduct"
  bottom: "fc7"
  top: "fc8_plantvillage"
  param {
    lr_mult: 1
    decay_mult: 1
  }
  param {
    lr_mult: 2
    decay_mult: 0
  }
  inner_product_param {
    num_output: 38
    weight_filler {
      type: "gaussian"
      std: 0.01
    }
    bias_filler {
      type: "constant"
      value: 0
    }
  }
}
layer {
  name: "prob"
  type: "Softmax"
  bottom: "fc8_plantvillage"
  top: "prob"
  include {
    phase: TEST
  }
}
layer {
  name: "hdf5out"
  type: "HDF5Output"
  bottom: "prob"
  bottom: "label"
  include {
    phase: TEST
  }
  hdf5_output_param {
    file_name: "hdf5_dumps/iter_1155.h5"
  }
}
layer {
  name: "loss"
  type: "SoftmaxWithLoss"
  bottom: "fc8_plantvillage"
  bottom: "label"
  top: "loss"
}
layer {
  name: "accuracy"
  type: "Accuracy"
  bottom: "fc8_plantvillage"
  bottom: "label"
  top: "accuracy"
  include {
    phase: TEST
  }
}
I0403 12:16:46.435648  8680 layer_factory.hpp:77] Creating layer data
I0403 12:16:46.436314  8680 net.cpp:91] Creating Layer data
I0403 12:16:46.436348  8680 net.cpp:399] data -> data
I0403 12:16:46.436401  8680 net.cpp:399] data -> label
I0403 12:16:46.436437  8680 data_transformer.cpp:25] Loading mean file from: /home/mohanty/data/final_dataset/lmdb/grayscale-20-80/mean.binaryproto
I0403 12:16:46.439739  8685 db_lmdb.cpp:38] Opened lmdb /home/mohanty/data/final_dataset/lmdb/grayscale-20-80/test_db
I0403 12:16:46.450785  8680 data_layer.cpp:41] output data size: 100,3,227,227
I0403 12:16:46.568693  8680 net.cpp:141] Setting up data
I0403 12:16:46.568788  8680 net.cpp:148] Top shape: 100 3 227 227 (15458700)
I0403 12:16:46.568811  8680 net.cpp:148] Top shape: 100 (100)
I0403 12:16:46.568827  8680 net.cpp:156] Memory required for data: 61835200
I0403 12:16:46.568856  8680 layer_factory.hpp:77] Creating layer label_data_1_split
I0403 12:16:46.568882  8680 net.cpp:91] Creating Layer label_data_1_split
I0403 12:16:46.568902  8680 net.cpp:425] label_data_1_split <- label
I0403 12:16:46.568934  8680 net.cpp:399] label_data_1_split -> label_data_1_split_0
I0403 12:16:46.568964  8680 net.cpp:399] label_data_1_split -> label_data_1_split_1
I0403 12:16:46.568985  8680 net.cpp:399] label_data_1_split -> label_data_1_split_2
I0403 12:16:46.569052  8680 net.cpp:141] Setting up label_data_1_split
I0403 12:16:46.569077  8680 net.cpp:148] Top shape: 100 (100)
I0403 12:16:46.569094  8680 net.cpp:148] Top shape: 100 (100)
I0403 12:16:46.569109  8680 net.cpp:148] Top shape: 100 (100)
I0403 12:16:46.569124  8680 net.cpp:156] Memory required for data: 61836400
I0403 12:16:46.569139  8680 layer_factory.hpp:77] Creating layer conv1
I0403 12:16:46.569171  8680 net.cpp:91] Creating Layer conv1
I0403 12:16:46.569191  8680 net.cpp:425] conv1 <- data
I0403 12:16:46.569212  8680 net.cpp:399] conv1 -> conv1
I0403 12:16:46.705775  8680 net.cpp:141] Setting up conv1
I0403 12:16:46.705852  8680 net.cpp:148] Top shape: 100 96 55 55 (29040000)
I0403 12:16:46.705869  8680 net.cpp:156] Memory required for data: 177996400
I0403 12:16:46.705900  8680 layer_factory.hpp:77] Creating layer relu1
I0403 12:16:46.705929  8680 net.cpp:91] Creating Layer relu1
I0403 12:16:46.705946  8680 net.cpp:425] relu1 <- conv1
I0403 12:16:46.705965  8680 net.cpp:386] relu1 -> conv1 (in-place)
I0403 12:16:46.706221  8680 net.cpp:141] Setting up relu1
I0403 12:16:46.706249  8680 net.cpp:148] Top shape: 100 96 55 55 (29040000)
I0403 12:16:46.706303  8680 net.cpp:156] Memory required for data: 294156400
I0403 12:16:46.706321  8680 layer_factory.hpp:77] Creating layer norm1
I0403 12:16:46.706352  8680 net.cpp:91] Creating Layer norm1
I0403 12:16:46.706370  8680 net.cpp:425] norm1 <- conv1
I0403 12:16:46.706388  8680 net.cpp:399] norm1 -> norm1
I0403 12:16:46.706703  8680 net.cpp:141] Setting up norm1
I0403 12:16:46.706732  8680 net.cpp:148] Top shape: 100 96 55 55 (29040000)
I0403 12:16:46.706748  8680 net.cpp:156] Memory required for data: 410316400
I0403 12:16:46.706763  8680 layer_factory.hpp:77] Creating layer pool1
I0403 12:16:46.706784  8680 net.cpp:91] Creating Layer pool1
I0403 12:16:46.706801  8680 net.cpp:425] pool1 <- norm1
I0403 12:16:46.706818  8680 net.cpp:399] pool1 -> pool1
I0403 12:16:46.706886  8680 net.cpp:141] Setting up pool1
I0403 12:16:46.706910  8680 net.cpp:148] Top shape: 100 96 27 27 (6998400)
I0403 12:16:46.706925  8680 net.cpp:156] Memory required for data: 438310000
I0403 12:16:46.706939  8680 layer_factory.hpp:77] Creating layer conv2
I0403 12:16:46.706964  8680 net.cpp:91] Creating Layer conv2
I0403 12:16:46.706980  8680 net.cpp:425] conv2 <- pool1
I0403 12:16:46.706998  8680 net.cpp:399] conv2 -> conv2
I0403 12:16:46.721873  8680 net.cpp:141] Setting up conv2
I0403 12:16:46.721925  8680 net.cpp:148] Top shape: 100 256 27 27 (18662400)
I0403 12:16:46.721942  8680 net.cpp:156] Memory required for data: 512959600
I0403 12:16:46.721966  8680 layer_factory.hpp:77] Creating layer relu2
I0403 12:16:46.721987  8680 net.cpp:91] Creating Layer relu2
I0403 12:16:46.722004  8680 net.cpp:425] relu2 <- conv2
I0403 12:16:46.722023  8680 net.cpp:386] relu2 -> conv2 (in-place)
I0403 12:16:46.722440  8680 net.cpp:141] Setting up relu2
I0403 12:16:46.722467  8680 net.cpp:148] Top shape: 100 256 27 27 (18662400)
I0403 12:16:46.722482  8680 net.cpp:156] Memory required for data: 587609200
I0403 12:16:46.722498  8680 layer_factory.hpp:77] Creating layer norm2
I0403 12:16:46.722518  8680 net.cpp:91] Creating Layer norm2
I0403 12:16:46.722538  8680 net.cpp:425] norm2 <- conv2
I0403 12:16:46.722558  8680 net.cpp:399] norm2 -> norm2
I0403 12:16:46.722743  8680 net.cpp:141] Setting up norm2
I0403 12:16:46.722770  8680 net.cpp:148] Top shape: 100 256 27 27 (18662400)
I0403 12:16:46.722785  8680 net.cpp:156] Memory required for data: 662258800
I0403 12:16:46.722801  8680 layer_factory.hpp:77] Creating layer pool2
I0403 12:16:46.722820  8680 net.cpp:91] Creating Layer pool2
I0403 12:16:46.722836  8680 net.cpp:425] pool2 <- norm2
I0403 12:16:46.722853  8680 net.cpp:399] pool2 -> pool2
I0403 12:16:46.722903  8680 net.cpp:141] Setting up pool2
I0403 12:16:46.722926  8680 net.cpp:148] Top shape: 100 256 13 13 (4326400)
I0403 12:16:46.722941  8680 net.cpp:156] Memory required for data: 679564400
I0403 12:16:46.722956  8680 layer_factory.hpp:77] Creating layer conv3
I0403 12:16:46.722978  8680 net.cpp:91] Creating Layer conv3
I0403 12:16:46.722995  8680 net.cpp:425] conv3 <- pool2
I0403 12:16:46.723013  8680 net.cpp:399] conv3 -> conv3
I0403 12:16:46.765661  8680 net.cpp:141] Setting up conv3
I0403 12:16:46.765712  8680 net.cpp:148] Top shape: 100 384 13 13 (6489600)
I0403 12:16:46.765728  8680 net.cpp:156] Memory required for data: 705522800
I0403 12:16:46.765754  8680 layer_factory.hpp:77] Creating layer relu3
I0403 12:16:46.765779  8680 net.cpp:91] Creating Layer relu3
I0403 12:16:46.765796  8680 net.cpp:425] relu3 <- conv3
I0403 12:16:46.765817  8680 net.cpp:386] relu3 -> conv3 (in-place)
I0403 12:16:46.766088  8680 net.cpp:141] Setting up relu3
I0403 12:16:46.766114  8680 net.cpp:148] Top shape: 100 384 13 13 (6489600)
I0403 12:16:46.766129  8680 net.cpp:156] Memory required for data: 731481200
I0403 12:16:46.766144  8680 layer_factory.hpp:77] Creating layer conv4
I0403 12:16:46.766170  8680 net.cpp:91] Creating Layer conv4
I0403 12:16:46.766186  8680 net.cpp:425] conv4 <- conv3
I0403 12:16:46.766208  8680 net.cpp:399] conv4 -> conv4
I0403 12:16:46.795826  8680 net.cpp:141] Setting up conv4
I0403 12:16:46.795898  8680 net.cpp:148] Top shape: 100 384 13 13 (6489600)
I0403 12:16:46.795954  8680 net.cpp:156] Memory required for data: 757439600
I0403 12:16:46.795976  8680 layer_factory.hpp:77] Creating layer relu4
I0403 12:16:46.796000  8680 net.cpp:91] Creating Layer relu4
I0403 12:16:46.796016  8680 net.cpp:425] relu4 <- conv4
I0403 12:16:46.796037  8680 net.cpp:386] relu4 -> conv4 (in-place)
I0403 12:16:46.796327  8680 net.cpp:141] Setting up relu4
I0403 12:16:46.796357  8680 net.cpp:148] Top shape: 100 384 13 13 (6489600)
I0403 12:16:46.796373  8680 net.cpp:156] Memory required for data: 783398000
I0403 12:16:46.796389  8680 layer_factory.hpp:77] Creating layer conv5
I0403 12:16:46.796414  8680 net.cpp:91] Creating Layer conv5
I0403 12:16:46.796432  8680 net.cpp:425] conv5 <- conv4
I0403 12:16:46.796450  8680 net.cpp:399] conv5 -> conv5
I0403 12:16:46.817001  8680 net.cpp:141] Setting up conv5
I0403 12:16:46.817062  8680 net.cpp:148] Top shape: 100 256 13 13 (4326400)
I0403 12:16:46.817082  8680 net.cpp:156] Memory required for data: 800703600
I0403 12:16:46.817108  8680 layer_factory.hpp:77] Creating layer relu5
I0403 12:16:46.817131  8680 net.cpp:91] Creating Layer relu5
I0403 12:16:46.817149  8680 net.cpp:425] relu5 <- conv5
I0403 12:16:46.817169  8680 net.cpp:386] relu5 -> conv5 (in-place)
I0403 12:16:46.817459  8680 net.cpp:141] Setting up relu5
I0403 12:16:46.817487  8680 net.cpp:148] Top shape: 100 256 13 13 (4326400)
I0403 12:16:46.817502  8680 net.cpp:156] Memory required for data: 818009200
I0403 12:16:46.817518  8680 layer_factory.hpp:77] Creating layer pool5
I0403 12:16:46.817544  8680 net.cpp:91] Creating Layer pool5
I0403 12:16:46.817562  8680 net.cpp:425] pool5 <- conv5
I0403 12:16:46.817584  8680 net.cpp:399] pool5 -> pool5
I0403 12:16:46.817646  8680 net.cpp:141] Setting up pool5
I0403 12:16:46.817668  8680 net.cpp:148] Top shape: 100 256 6 6 (921600)
I0403 12:16:46.817683  8680 net.cpp:156] Memory required for data: 821695600
I0403 12:16:46.817698  8680 layer_factory.hpp:77] Creating layer fc6
I0403 12:16:46.817728  8680 net.cpp:91] Creating Layer fc6
I0403 12:16:46.817746  8680 net.cpp:425] fc6 <- pool5
I0403 12:16:46.817767  8680 net.cpp:399] fc6 -> fc6
I0403 12:16:48.365550  8680 net.cpp:141] Setting up fc6
I0403 12:16:48.365593  8680 net.cpp:148] Top shape: 100 4096 (409600)
I0403 12:16:48.365610  8680 net.cpp:156] Memory required for data: 823334000
I0403 12:16:48.365631  8680 layer_factory.hpp:77] Creating layer relu6
I0403 12:16:48.365655  8680 net.cpp:91] Creating Layer relu6
I0403 12:16:48.365672  8680 net.cpp:425] relu6 <- fc6
I0403 12:16:48.365690  8680 net.cpp:386] relu6 -> fc6 (in-place)
I0403 12:16:48.365908  8680 net.cpp:141] Setting up relu6
I0403 12:16:48.365932  8680 net.cpp:148] Top shape: 100 4096 (409600)
I0403 12:16:48.365947  8680 net.cpp:156] Memory required for data: 824972400
I0403 12:16:48.365962  8680 layer_factory.hpp:77] Creating layer drop6
I0403 12:16:48.365978  8680 net.cpp:91] Creating Layer drop6
I0403 12:16:48.365993  8680 net.cpp:425] drop6 <- fc6
I0403 12:16:48.366013  8680 net.cpp:386] drop6 -> fc6 (in-place)
I0403 12:16:48.366062  8680 net.cpp:141] Setting up drop6
I0403 12:16:48.366085  8680 net.cpp:148] Top shape: 100 4096 (409600)
I0403 12:16:48.366102  8680 net.cpp:156] Memory required for data: 826610800
I0403 12:16:48.366117  8680 layer_factory.hpp:77] Creating layer fc7
I0403 12:16:48.366135  8680 net.cpp:91] Creating Layer fc7
I0403 12:16:48.366149  8680 net.cpp:425] fc7 <- fc6
I0403 12:16:48.366168  8680 net.cpp:399] fc7 -> fc7
I0403 12:16:49.050377  8680 net.cpp:141] Setting up fc7
I0403 12:16:49.050452  8680 net.cpp:148] Top shape: 100 4096 (409600)
I0403 12:16:49.050468  8680 net.cpp:156] Memory required for data: 828249200
I0403 12:16:49.050488  8680 layer_factory.hpp:77] Creating layer relu7
I0403 12:16:49.050510  8680 net.cpp:91] Creating Layer relu7
I0403 12:16:49.050526  8680 net.cpp:425] relu7 <- fc7
I0403 12:16:49.050554  8680 net.cpp:386] relu7 -> fc7 (in-place)
I0403 12:16:49.050961  8680 net.cpp:141] Setting up relu7
I0403 12:16:49.050989  8680 net.cpp:148] Top shape: 100 4096 (409600)
I0403 12:16:49.051048  8680 net.cpp:156] Memory required for data: 829887600
I0403 12:16:49.051065  8680 layer_factory.hpp:77] Creating layer drop7
I0403 12:16:49.051084  8680 net.cpp:91] Creating Layer drop7
I0403 12:16:49.051098  8680 net.cpp:425] drop7 <- fc7
I0403 12:16:49.051120  8680 net.cpp:386] drop7 -> fc7 (in-place)
I0403 12:16:49.051162  8680 net.cpp:141] Setting up drop7
I0403 12:16:49.051184  8680 net.cpp:148] Top shape: 100 4096 (409600)
I0403 12:16:49.051199  8680 net.cpp:156] Memory required for data: 831526000
I0403 12:16:49.051213  8680 layer_factory.hpp:77] Creating layer fc8_plantvillage
I0403 12:16:49.051235  8680 net.cpp:91] Creating Layer fc8_plantvillage
I0403 12:16:49.051251  8680 net.cpp:425] fc8_plantvillage <- fc7
I0403 12:16:49.051271  8680 net.cpp:399] fc8_plantvillage -> fc8_plantvillage
I0403 12:16:49.058001  8680 net.cpp:141] Setting up fc8_plantvillage
I0403 12:16:49.058029  8680 net.cpp:148] Top shape: 100 38 (3800)
I0403 12:16:49.058045  8680 net.cpp:156] Memory required for data: 831541200
I0403 12:16:49.058064  8680 layer_factory.hpp:77] Creating layer fc8_plantvillage_fc8_plantvillage_0_split
I0403 12:16:49.058084  8680 net.cpp:91] Creating Layer fc8_plantvillage_fc8_plantvillage_0_split
I0403 12:16:49.058101  8680 net.cpp:425] fc8_plantvillage_fc8_plantvillage_0_split <- fc8_plantvillage
I0403 12:16:49.058121  8680 net.cpp:399] fc8_plantvillage_fc8_plantvillage_0_split -> fc8_plantvillage_fc8_plantvillage_0_split_0
I0403 12:16:49.058143  8680 net.cpp:399] fc8_plantvillage_fc8_plantvillage_0_split -> fc8_plantvillage_fc8_plantvillage_0_split_1
I0403 12:16:49.058164  8680 net.cpp:399] fc8_plantvillage_fc8_plantvillage_0_split -> fc8_plantvillage_fc8_plantvillage_0_split_2
I0403 12:16:49.058239  8680 net.cpp:141] Setting up fc8_plantvillage_fc8_plantvillage_0_split
I0403 12:16:49.058264  8680 net.cpp:148] Top shape: 100 38 (3800)
I0403 12:16:49.058280  8680 net.cpp:148] Top shape: 100 38 (3800)
I0403 12:16:49.058295  8680 net.cpp:148] Top shape: 100 38 (3800)
I0403 12:16:49.058308  8680 net.cpp:156] Memory required for data: 831586800
I0403 12:16:49.058322  8680 layer_factory.hpp:77] Creating layer prob
I0403 12:16:49.058341  8680 net.cpp:91] Creating Layer prob
I0403 12:16:49.058357  8680 net.cpp:425] prob <- fc8_plantvillage_fc8_plantvillage_0_split_0
I0403 12:16:49.058375  8680 net.cpp:399] prob -> prob
I0403 12:16:49.058617  8680 net.cpp:141] Setting up prob
I0403 12:16:49.058646  8680 net.cpp:148] Top shape: 100 38 (3800)
I0403 12:16:49.058662  8680 net.cpp:156] Memory required for data: 831602000
I0403 12:16:49.058677  8680 layer_factory.hpp:77] Creating layer hdf5out
I0403 12:16:49.058696  8680 net.cpp:91] Creating Layer hdf5out
I0403 12:16:49.058711  8680 net.cpp:425] hdf5out <- prob
I0403 12:16:49.058725  8680 net.cpp:425] hdf5out <- label_data_1_split_0
I0403 12:16:49.061457  8680 net.cpp:141] Setting up hdf5out
…
