…
I0403 12:34:07.830410  9090 net.cpp:313] The NetState phase (1) differed from the phase (0) specified by a rule in layer data
I0403 12:34:07.830727  9090 net.cpp:49] Initializing net from parameters: 
state {
  phase: TEST
}
layer {
  name: "data"
  type: "Data"
  top: "data"
  top: "label"
  include {
    phase: TEST
  }
  transform_param {
    crop_size: 227
    mean_file: "/home/mohanty/data/final_dataset/lmdb/grayscale-20-80/mean.binaryproto"
  }
  data_param {
    source: "/home/mohanty/data/final_dataset/lmdb/grayscale-20-80/test_db"
    batch_size: 100
    backend: LMDB
  }
}
layer {
  name: "conv1"
  type: "Convolution"
  bottom: "data"
  top: "conv1"
  param {
    lr_mult: 1
    decay_mult: 1
  }
  param {
    lr_mult: 2
    decay_mult: 0
  }
  convolution_param {
    num_output: 96
    kernel_size: 11
    stride: 4
    weight_filler {
      type: "gaussian"
      std: 0.01
    }
    bias_filler {
      type: "constant"
      value: 0
    }
  }
}
layer {
  name: "relu1"
  type: "ReLU"
  bottom: "conv1"
  top: "conv1"
}
layer {
  name: "norm1"
  type: "LRN"
  bottom: "conv1"
  top: "norm1"
  lrn_param {
    local_size: 5
    alpha: 0.0001
    beta: 0.75
  }
}
layer {
  name: "pool1"
  type: "Pooling"
  bottom: "norm1"
  top: "pool1"
  pooling_param {
    pool: MAX
    kernel_size: 3
    stride: 2
  }
}
layer {
  name: "conv2"
  type: "Convolution"
  bottom: "pool1"
  top: "conv2"
  param {
    lr_mult: 1
    decay_mult: 1
  }
  param {
    lr_mult: 2
    decay_mult: 0
  }
  convolution_param {
    num_output: 256
    pad: 2
    kernel_size: 5
    group: 2
    weight_filler {
      type: "gaussian"
      std: 0.01
    }
    bias_filler {
      type: "constant"
      value: 0.1
    }
  }
}
layer {
  name: "relu2"
  type: "ReLU"
  bottom: "conv2"
  top: "conv2"
}
layer {
  name: "norm2"
  type: "LRN"
  bottom: "conv2"
  top: "norm2"
  lrn_param {
    local_size: 5
    alpha: 0.0001
    beta: 0.75
  }
}
layer {
  name: "pool2"
  type: "Pooling"
  bottom: "norm2"
  top: "pool2"
  pooling_param {
    pool: MAX
    kernel_size: 3
    stride: 2
  }
}
layer {
  name: "conv3"
  type: "Convolution"
  bottom: "pool2"
  top: "conv3"
  param {
    lr_mult: 1
    decay_mult: 1
  }
  param {
    lr_mult: 2
    decay_mult: 0
  }
  convolution_param {
    num_output: 384
    pad: 1
    kernel_size: 3
    weight_filler {
      type: "gaussian"
      std: 0.01
    }
    bias_filler {
      type: "constant"
      value: 0
    }
  }
}
layer {
  name: "relu3"
  type: "ReLU"
  bottom: "conv3"
  top: "conv3"
}
layer {
  name: "conv4"
  type: "Convolution"
  bottom: "conv3"
  top: "conv4"
  param {
    lr_mult: 1
    decay_mult: 1
  }
  param {
    lr_mult: 2
    decay_mult: 0
  }
  convolution_param {
    num_output: 384
    pad: 1
    kernel_size: 3
    group: 2
    weight_filler {
      type: "gaussian"
      std: 0.01
    }
    bias_filler {
      type: "constant"
      value: 0.1
    }
  }
}
layer {
  name: "relu4"
  type: "ReLU"
  bottom: "conv4"
  top: "conv4"
}
layer {
  name: "conv5"
  type: "Convolution"
  bottom: "conv4"
  top: "conv5"
  param {
    lr_mult: 1
    decay_mult: 1
  }
  param {
    lr_mult: 2
    decay_mult: 0
  }
  convolution_param {
    num_output: 256
    pad: 1
    kernel_size: 3
    group: 2
    weight_filler {
      type: "gaussian"
      std: 0.01
    }
    bias_filler {
      type: "constant"
      value: 0.1
    }
  }
}
layer {
  name: "relu5"
  type: "ReLU"
  bottom: "conv5"
  top: "conv5"
}
layer {
  name: "pool5"
  type: "Pooling"
  bottom: "conv5"
  top: "pool5"
  pooling_param {
    pool: MAX
    kernel_size: 3
    stride: 2
  }
}
layer {
  name: "fc6"
  type: "InnerProduct"
  bottom: "pool5"
  top: "fc6"
  param {
    lr_mult: 1
    decay_mult: 1
  }
  param {
    lr_mult: 2
    decay_mult: 0
  }
  inner_product_param {
    num_output: 4096
    weight_filler {
      type: "gaussian"
      std: 0.005
    }
    bias_filler {
      type: "constant"
      value: 0.1
    }
  }
}
layer {
  name: "relu6"
  type: "ReLU"
  bottom: "fc6"
  top: "fc6"
}
layer {
  name: "drop6"
  type: "Dropout"
  bottom: "fc6"
  top: "fc6"
  dropout_param {
    dropout_ratio: 0.5
  }
}
layer {
  name: "fc7"
  type: "InnerProduct"
  bottom: "fc6"
  top: "fc7"
  param {
    lr_mult: 1
    decay_mult: 1
  }
  param {
    lr_mult: 2
    decay_mult: 0
  }
  inner_product_param {
    num_output: 4096
    weight_filler {
      type: "gaussian"
      std: 0.005
    }
    bias_filler {
      type: "constant"
      value: 0.1
    }
  }
}
layer {
  name: "relu7"
  type: "ReLU"
  bottom: "fc7"
  top: "fc7"
}
layer {
  name: "drop7"
  type: "Dropout"
  bottom: "fc7"
  top: "fc7"
  dropout_param {
    dropout_ratio: 0.5
  }
}
layer {
  name: "fc8_plantvillage"
  type: "InnerProduct"
  bottom: "fc7"
  top: "fc8_plantvillage"
  param {
    lr_mult: 1
    decay_mult: 1
  }
  param {
    lr_mult: 2
    decay_mult: 0
  }
  inner_product_param {
    num_output: 38
    weight_filler {
      type: "gaussian"
      std: 0.01
    }
    bias_filler {
      type: "constant"
      value: 0
    }
  }
}
layer {
  name: "prob"
  type: "Softmax"
  bottom: "fc8_plantvillage"
  top: "prob"
  include {
    phase: TEST
  }
}
layer {
  name: "hdf5out"
  type: "HDF5Output"
  bottom: "prob"
  bottom: "label"
  include {
    phase: TEST
  }
  hdf5_output_param {
    file_name: "hdf5_dumps/iter_2415.h5"
  }
}
layer {
  name: "loss"
  type: "SoftmaxWithLoss"
  bottom: "fc8_plantvillage"
  bottom: "label"
  top: "loss"
}
layer {
  name: "accuracy"
  type: "Accuracy"
  bottom: "fc8_plantvillage"
  bottom: "label"
  top: "accuracy"
  include {
    phase: TEST
  }
}
I0403 12:34:07.831296  9090 layer_factory.hpp:77] Creating layer data
I0403 12:34:07.831951  9090 net.cpp:91] Creating Layer data
I0403 12:34:07.831984  9090 net.cpp:399] data -> data
I0403 12:34:07.832036  9090 net.cpp:399] data -> label
I0403 12:34:07.832072  9090 data_transformer.cpp:25] Loading mean file from: /home/mohanty/data/final_dataset/lmdb/grayscale-20-80/mean.binaryproto
I0403 12:34:07.834817  9094 db_lmdb.cpp:38] Opened lmdb /home/mohanty/data/final_dataset/lmdb/grayscale-20-80/test_db
I0403 12:34:07.846421  9090 data_layer.cpp:41] output data size: 100,3,227,227
I0403 12:34:07.964910  9090 net.cpp:141] Setting up data
I0403 12:34:07.965003  9090 net.cpp:148] Top shape: 100 3 227 227 (15458700)
I0403 12:34:07.965024  9090 net.cpp:148] Top shape: 100 (100)
I0403 12:34:07.965039  9090 net.cpp:156] Memory required for data: 61835200
I0403 12:34:07.965066  9090 layer_factory.hpp:77] Creating layer label_data_1_split
I0403 12:34:07.965091  9090 net.cpp:91] Creating Layer label_data_1_split
I0403 12:34:07.965108  9090 net.cpp:425] label_data_1_split <- label
I0403 12:34:07.965140  9090 net.cpp:399] label_data_1_split -> label_data_1_split_0
I0403 12:34:07.965167  9090 net.cpp:399] label_data_1_split -> label_data_1_split_1
I0403 12:34:07.965188  9090 net.cpp:399] label_data_1_split -> label_data_1_split_2
I0403 12:34:07.965248  9090 net.cpp:141] Setting up label_data_1_split
I0403 12:34:07.965271  9090 net.cpp:148] Top shape: 100 (100)
I0403 12:34:07.965288  9090 net.cpp:148] Top shape: 100 (100)
I0403 12:34:07.965304  9090 net.cpp:148] Top shape: 100 (100)
I0403 12:34:07.965317  9090 net.cpp:156] Memory required for data: 61836400
I0403 12:34:07.965332  9090 layer_factory.hpp:77] Creating layer conv1
I0403 12:34:07.965363  9090 net.cpp:91] Creating Layer conv1
I0403 12:34:07.965380  9090 net.cpp:425] conv1 <- data
I0403 12:34:07.965399  9090 net.cpp:399] conv1 -> conv1
I0403 12:34:08.107914  9090 net.cpp:141] Setting up conv1
I0403 12:34:08.107955  9090 net.cpp:148] Top shape: 100 96 55 55 (29040000)
I0403 12:34:08.107972  9090 net.cpp:156] Memory required for data: 177996400
I0403 12:34:08.108002  9090 layer_factory.hpp:77] Creating layer relu1
I0403 12:34:08.108029  9090 net.cpp:91] Creating Layer relu1
I0403 12:34:08.108047  9090 net.cpp:425] relu1 <- conv1
I0403 12:34:08.108064  9090 net.cpp:386] relu1 -> conv1 (in-place)
I0403 12:34:08.108324  9090 net.cpp:141] Setting up relu1
I0403 12:34:08.108350  9090 net.cpp:148] Top shape: 100 96 55 55 (29040000)
I0403 12:34:08.108400  9090 net.cpp:156] Memory required for data: 294156400
I0403 12:34:08.108417  9090 layer_factory.hpp:77] Creating layer norm1
I0403 12:34:08.108454  9090 net.cpp:91] Creating Layer norm1
I0403 12:34:08.108474  9090 net.cpp:425] norm1 <- conv1
I0403 12:34:08.108494  9090 net.cpp:399] norm1 -> norm1
I0403 12:34:08.108825  9090 net.cpp:141] Setting up norm1
I0403 12:34:08.108852  9090 net.cpp:148] Top shape: 100 96 55 55 (29040000)
I0403 12:34:08.108867  9090 net.cpp:156] Memory required for data: 410316400
I0403 12:34:08.108882  9090 layer_factory.hpp:77] Creating layer pool1
I0403 12:34:08.108903  9090 net.cpp:91] Creating Layer pool1
I0403 12:34:08.108919  9090 net.cpp:425] pool1 <- norm1
I0403 12:34:08.108937  9090 net.cpp:399] pool1 -> pool1
I0403 12:34:08.109001  9090 net.cpp:141] Setting up pool1
I0403 12:34:08.109025  9090 net.cpp:148] Top shape: 100 96 27 27 (6998400)
I0403 12:34:08.109038  9090 net.cpp:156] Memory required for data: 438310000
I0403 12:34:08.109052  9090 layer_factory.hpp:77] Creating layer conv2
I0403 12:34:08.109076  9090 net.cpp:91] Creating Layer conv2
I0403 12:34:08.109091  9090 net.cpp:425] conv2 <- pool1
I0403 12:34:08.109108  9090 net.cpp:399] conv2 -> conv2
I0403 12:34:08.124162  9090 net.cpp:141] Setting up conv2
I0403 12:34:08.124217  9090 net.cpp:148] Top shape: 100 256 27 27 (18662400)
I0403 12:34:08.124233  9090 net.cpp:156] Memory required for data: 512959600
I0403 12:34:08.124254  9090 layer_factory.hpp:77] Creating layer relu2
I0403 12:34:08.124275  9090 net.cpp:91] Creating Layer relu2
I0403 12:34:08.124291  9090 net.cpp:425] relu2 <- conv2
I0403 12:34:08.124310  9090 net.cpp:386] relu2 -> conv2 (in-place)
I0403 12:34:08.124588  9090 net.cpp:141] Setting up relu2
I0403 12:34:08.124614  9090 net.cpp:148] Top shape: 100 256 27 27 (18662400)
I0403 12:34:08.124629  9090 net.cpp:156] Memory required for data: 587609200
I0403 12:34:08.124644  9090 layer_factory.hpp:77] Creating layer norm2
I0403 12:34:08.124665  9090 net.cpp:91] Creating Layer norm2
I0403 12:34:08.124680  9090 net.cpp:425] norm2 <- conv2
I0403 12:34:08.124697  9090 net.cpp:399] norm2 -> norm2
I0403 12:34:08.124902  9090 net.cpp:141] Setting up norm2
I0403 12:34:08.124928  9090 net.cpp:148] Top shape: 100 256 27 27 (18662400)
I0403 12:34:08.124943  9090 net.cpp:156] Memory required for data: 662258800
I0403 12:34:08.124989  9090 layer_factory.hpp:77] Creating layer pool2
I0403 12:34:08.125008  9090 net.cpp:91] Creating Layer pool2
I0403 12:34:08.125025  9090 net.cpp:425] pool2 <- norm2
I0403 12:34:08.125042  9090 net.cpp:399] pool2 -> pool2
I0403 12:34:08.125104  9090 net.cpp:141] Setting up pool2
I0403 12:34:08.125126  9090 net.cpp:148] Top shape: 100 256 13 13 (4326400)
I0403 12:34:08.125140  9090 net.cpp:156] Memory required for data: 679564400
I0403 12:34:08.125154  9090 layer_factory.hpp:77] Creating layer conv3
I0403 12:34:08.125174  9090 net.cpp:91] Creating Layer conv3
I0403 12:34:08.125190  9090 net.cpp:425] conv3 <- pool2
I0403 12:34:08.125207  9090 net.cpp:399] conv3 -> conv3
I0403 12:34:08.163660  9090 net.cpp:141] Setting up conv3
I0403 12:34:08.163733  9090 net.cpp:148] Top shape: 100 384 13 13 (6489600)
I0403 12:34:08.163750  9090 net.cpp:156] Memory required for data: 705522800
I0403 12:34:08.163776  9090 layer_factory.hpp:77] Creating layer relu3
I0403 12:34:08.163800  9090 net.cpp:91] Creating Layer relu3
I0403 12:34:08.163816  9090 net.cpp:425] relu3 <- conv3
I0403 12:34:08.163836  9090 net.cpp:386] relu3 -> conv3 (in-place)
I0403 12:34:08.164103  9090 net.cpp:141] Setting up relu3
I0403 12:34:08.164130  9090 net.cpp:148] Top shape: 100 384 13 13 (6489600)
I0403 12:34:08.164145  9090 net.cpp:156] Memory required for data: 731481200
I0403 12:34:08.164160  9090 layer_factory.hpp:77] Creating layer conv4
I0403 12:34:08.164185  9090 net.cpp:91] Creating Layer conv4
I0403 12:34:08.164201  9090 net.cpp:425] conv4 <- conv3
I0403 12:34:08.164219  9090 net.cpp:399] conv4 -> conv4
I0403 12:34:08.194499  9090 net.cpp:141] Setting up conv4
I0403 12:34:08.194578  9090 net.cpp:148] Top shape: 100 384 13 13 (6489600)
I0403 12:34:08.194634  9090 net.cpp:156] Memory required for data: 757439600
I0403 12:34:08.194658  9090 layer_factory.hpp:77] Creating layer relu4
I0403 12:34:08.194680  9090 net.cpp:91] Creating Layer relu4
I0403 12:34:08.194697  9090 net.cpp:425] relu4 <- conv4
I0403 12:34:08.194718  9090 net.cpp:386] relu4 -> conv4 (in-place)
I0403 12:34:08.195001  9090 net.cpp:141] Setting up relu4
I0403 12:34:08.195034  9090 net.cpp:148] Top shape: 100 384 13 13 (6489600)
I0403 12:34:08.195080  9090 net.cpp:156] Memory required for data: 783398000
I0403 12:34:08.195103  9090 layer_factory.hpp:77] Creating layer conv5
I0403 12:34:08.195130  9090 net.cpp:91] Creating Layer conv5
I0403 12:34:08.195148  9090 net.cpp:425] conv5 <- conv4
I0403 12:34:08.195168  9090 net.cpp:399] conv5 -> conv5
I0403 12:34:08.216172  9090 net.cpp:141] Setting up conv5
I0403 12:34:08.216231  9090 net.cpp:148] Top shape: 100 256 13 13 (4326400)
I0403 12:34:08.216248  9090 net.cpp:156] Memory required for data: 800703600
I0403 12:34:08.216274  9090 layer_factory.hpp:77] Creating layer relu5
I0403 12:34:08.216295  9090 net.cpp:91] Creating Layer relu5
I0403 12:34:08.216311  9090 net.cpp:425] relu5 <- conv5
I0403 12:34:08.216334  9090 net.cpp:386] relu5 -> conv5 (in-place)
I0403 12:34:08.216630  9090 net.cpp:141] Setting up relu5
I0403 12:34:08.216657  9090 net.cpp:148] Top shape: 100 256 13 13 (4326400)
I0403 12:34:08.216673  9090 net.cpp:156] Memory required for data: 818009200
I0403 12:34:08.216688  9090 layer_factory.hpp:77] Creating layer pool5
I0403 12:34:08.216711  9090 net.cpp:91] Creating Layer pool5
I0403 12:34:08.216729  9090 net.cpp:425] pool5 <- conv5
I0403 12:34:08.216747  9090 net.cpp:399] pool5 -> pool5
I0403 12:34:08.216812  9090 net.cpp:141] Setting up pool5
I0403 12:34:08.216835  9090 net.cpp:148] Top shape: 100 256 6 6 (921600)
I0403 12:34:08.216850  9090 net.cpp:156] Memory required for data: 821695600
I0403 12:34:08.216864  9090 layer_factory.hpp:77] Creating layer fc6
I0403 12:34:08.216891  9090 net.cpp:91] Creating Layer fc6
I0403 12:34:08.216907  9090 net.cpp:425] fc6 <- pool5
I0403 12:34:08.216928  9090 net.cpp:399] fc6 -> fc6
I0403 12:34:09.776213  9090 net.cpp:141] Setting up fc6
I0403 12:34:09.776289  9090 net.cpp:148] Top shape: 100 4096 (409600)
I0403 12:34:09.776305  9090 net.cpp:156] Memory required for data: 823334000
I0403 12:34:09.776325  9090 layer_factory.hpp:77] Creating layer relu6
I0403 12:34:09.776350  9090 net.cpp:91] Creating Layer relu6
I0403 12:34:09.776368  9090 net.cpp:425] relu6 <- fc6
I0403 12:34:09.776387  9090 net.cpp:386] relu6 -> fc6 (in-place)
I0403 12:34:09.776631  9090 net.cpp:141] Setting up relu6
I0403 12:34:09.776656  9090 net.cpp:148] Top shape: 100 4096 (409600)
I0403 12:34:09.776670  9090 net.cpp:156] Memory required for data: 824972400
I0403 12:34:09.776685  9090 layer_factory.hpp:77] Creating layer drop6
I0403 12:34:09.776702  9090 net.cpp:91] Creating Layer drop6
I0403 12:34:09.776717  9090 net.cpp:425] drop6 <- fc6
I0403 12:34:09.776736  9090 net.cpp:386] drop6 -> fc6 (in-place)
I0403 12:34:09.776787  9090 net.cpp:141] Setting up drop6
I0403 12:34:09.776813  9090 net.cpp:148] Top shape: 100 4096 (409600)
I0403 12:34:09.776829  9090 net.cpp:156] Memory required for data: 826610800
I0403 12:34:09.776844  9090 layer_factory.hpp:77] Creating layer fc7
I0403 12:34:09.776862  9090 net.cpp:91] Creating Layer fc7
I0403 12:34:09.776886  9090 net.cpp:425] fc7 <- fc6
I0403 12:34:09.776904  9090 net.cpp:399] fc7 -> fc7
I0403 12:34:10.461702  9090 net.cpp:141] Setting up fc7
I0403 12:34:10.461781  9090 net.cpp:148] Top shape: 100 4096 (409600)
I0403 12:34:10.461796  9090 net.cpp:156] Memory required for data: 828249200
I0403 12:34:10.461818  9090 layer_factory.hpp:77] Creating layer relu7
I0403 12:34:10.461839  9090 net.cpp:91] Creating Layer relu7
I0403 12:34:10.461856  9090 net.cpp:425] relu7 <- fc7
I0403 12:34:10.461877  9090 net.cpp:386] relu7 -> fc7 (in-place)
I0403 12:34:10.462278  9090 net.cpp:141] Setting up relu7
I0403 12:34:10.462306  9090 net.cpp:148] Top shape: 100 4096 (409600)
I0403 12:34:10.462357  9090 net.cpp:156] Memory required for data: 829887600
I0403 12:34:10.462371  9090 layer_factory.hpp:77] Creating layer drop7
I0403 12:34:10.462389  9090 net.cpp:91] Creating Layer drop7
I0403 12:34:10.462404  9090 net.cpp:425] drop7 <- fc7
I0403 12:34:10.462424  9090 net.cpp:386] drop7 -> fc7 (in-place)
I0403 12:34:10.462467  9090 net.cpp:141] Setting up drop7
I0403 12:34:10.462488  9090 net.cpp:148] Top shape: 100 4096 (409600)
I0403 12:34:10.462502  9090 net.cpp:156] Memory required for data: 831526000
I0403 12:34:10.462523  9090 layer_factory.hpp:77] Creating layer fc8_plantvillage
I0403 12:34:10.462546  9090 net.cpp:91] Creating Layer fc8_plantvillage
I0403 12:34:10.462563  9090 net.cpp:425] fc8_plantvillage <- fc7
I0403 12:34:10.462581  9090 net.cpp:399] fc8_plantvillage -> fc8_plantvillage
I0403 12:34:10.469291  9090 net.cpp:141] Setting up fc8_plantvillage
I0403 12:34:10.469319  9090 net.cpp:148] Top shape: 100 38 (3800)
I0403 12:34:10.469334  9090 net.cpp:156] Memory required for data: 831541200
I0403 12:34:10.469352  9090 layer_factory.hpp:77] Creating layer fc8_plantvillage_fc8_plantvillage_0_split
I0403 12:34:10.469369  9090 net.cpp:91] Creating Layer fc8_plantvillage_fc8_plantvillage_0_split
I0403 12:34:10.469385  9090 net.cpp:425] fc8_plantvillage_fc8_plantvillage_0_split <- fc8_plantvillage
I0403 12:34:10.469404  9090 net.cpp:399] fc8_plantvillage_fc8_plantvillage_0_split -> fc8_plantvillage_fc8_plantvillage_0_split_0
I0403 12:34:10.469425  9090 net.cpp:399] fc8_plantvillage_fc8_plantvillage_0_split -> fc8_plantvillage_fc8_plantvillage_0_split_1
I0403 12:34:10.469444  9090 net.cpp:399] fc8_plantvillage_fc8_plantvillage_0_split -> fc8_plantvillage_fc8_plantvillage_0_split_2
I0403 12:34:10.469527  9090 net.cpp:141] Setting up fc8_plantvillage_fc8_plantvillage_0_split
I0403 12:34:10.469552  9090 net.cpp:148] Top shape: 100 38 (3800)
I0403 12:34:10.469568  9090 net.cpp:148] Top shape: 100 38 (3800)
I0403 12:34:10.469583  9090 net.cpp:148] Top shape: 100 38 (3800)
I0403 12:34:10.469594  9090 net.cpp:156] Memory required for data: 831586800
I0403 12:34:10.469609  9090 layer_factory.hpp:77] Creating layer prob
I0403 12:34:10.469626  9090 net.cpp:91] Creating Layer prob
I0403 12:34:10.469640  9090 net.cpp:425] prob <- fc8_plantvillage_fc8_plantvillage_0_split_0
I0403 12:34:10.469660  9090 net.cpp:399] prob -> prob
I0403 12:34:10.469888  9090 net.cpp:141] Setting up prob
I0403 12:34:10.469918  9090 net.cpp:148] Top shape: 100 38 (3800)
I0403 12:34:10.469933  9090 net.cpp:156] Memory required for data: 831602000
I0403 12:34:10.469947  9090 layer_factory.hpp:77] Creating layer hdf5out
I0403 12:34:10.469965  9090 net.cpp:91] Creating Layer hdf5out
I0403 12:34:10.469980  9090 net.cpp:425] hdf5out <- prob
I0403 12:34:10.469996  9090 net.cpp:425] hdf5out <- label_data_1_split_0
I0403 12:34:10.472105  9090 net.cpp:141] Setting up hdf5out
…
