…
I0403 12:42:47.303910  9406 net.cpp:313] The NetState phase (1) differed from the phase (0) specified by a rule in layer data
I0403 12:42:47.304643  9406 net.cpp:49] Initializing net from parameters: 
state {
  phase: TEST
}
layer {
  name: "data"
  type: "Data"
  top: "data"
  top: "label"
  include {
    phase: TEST
  }
  transform_param {
    crop_size: 227
    mean_file: "/home/mohanty/data/final_dataset/lmdb/grayscale-20-80/mean.binaryproto"
  }
  data_param {
    source: "/home/mohanty/data/final_dataset/lmdb/grayscale-20-80/test_db"
    batch_size: 100
    backend: LMDB
  }
}
layer {
  name: "conv1"
  type: "Convolution"
  bottom: "data"
  top: "conv1"
  param {
    lr_mult: 1
    decay_mult: 1
  }
  param {
    lr_mult: 2
    decay_mult: 0
  }
  convolution_param {
    num_output: 96
    kernel_size: 11
    stride: 4
    weight_filler {
      type: "gaussian"
      std: 0.01
    }
    bias_filler {
      type: "constant"
      value: 0
    }
  }
}
layer {
  name: "relu1"
  type: "ReLU"
  bottom: "conv1"
  top: "conv1"
}
layer {
  name: "norm1"
  type: "LRN"
  bottom: "conv1"
  top: "norm1"
  lrn_param {
    local_size: 5
    alpha: 0.0001
    beta: 0.75
  }
}
layer {
  name: "pool1"
  type: "Pooling"
  bottom: "norm1"
  top: "pool1"
  pooling_param {
    pool: MAX
    kernel_size: 3
    stride: 2
  }
}
layer {
  name: "conv2"
  type: "Convolution"
  bottom: "pool1"
  top: "conv2"
  param {
    lr_mult: 1
    decay_mult: 1
  }
  param {
    lr_mult: 2
    decay_mult: 0
  }
  convolution_param {
    num_output: 256
    pad: 2
    kernel_size: 5
    group: 2
    weight_filler {
      type: "gaussian"
      std: 0.01
    }
    bias_filler {
      type: "constant"
      value: 0.1
    }
  }
}
layer {
  name: "relu2"
  type: "ReLU"
  bottom: "conv2"
  top: "conv2"
}
layer {
  name: "norm2"
  type: "LRN"
  bottom: "conv2"
  top: "norm2"
  lrn_param {
    local_size: 5
    alpha: 0.0001
    beta: 0.75
  }
}
layer {
  name: "pool2"
  type: "Pooling"
  bottom: "norm2"
  top: "pool2"
  pooling_param {
    pool: MAX
    kernel_size: 3
    stride: 2
  }
}
layer {
  name: "conv3"
  type: "Convolution"
  bottom: "pool2"
  top: "conv3"
  param {
    lr_mult: 1
    decay_mult: 1
  }
  param {
    lr_mult: 2
    decay_mult: 0
  }
  convolution_param {
    num_output: 384
    pad: 1
    kernel_size: 3
    weight_filler {
      type: "gaussian"
      std: 0.01
    }
    bias_filler {
      type: "constant"
      value: 0
    }
  }
}
layer {
  name: "relu3"
  type: "ReLU"
  bottom: "conv3"
  top: "conv3"
}
layer {
  name: "conv4"
  type: "Convolution"
  bottom: "conv3"
  top: "conv4"
  param {
    lr_mult: 1
    decay_mult: 1
  }
  param {
    lr_mult: 2
    decay_mult: 0
  }
  convolution_param {
    num_output: 384
    pad: 1
    kernel_size: 3
    group: 2
    weight_filler {
      type: "gaussian"
      std: 0.01
    }
    bias_filler {
      type: "constant"
      value: 0.1
    }
  }
}
layer {
  name: "relu4"
  type: "ReLU"
  bottom: "conv4"
  top: "conv4"
}
layer {
  name: "conv5"
  type: "Convolution"
  bottom: "conv4"
  top: "conv5"
  param {
    lr_mult: 1
    decay_mult: 1
  }
  param {
    lr_mult: 2
    decay_mult: 0
  }
  convolution_param {
    num_output: 256
    pad: 1
    kernel_size: 3
    group: 2
    weight_filler {
      type: "gaussian"
      std: 0.01
    }
    bias_filler {
      type: "constant"
      value: 0.1
    }
  }
}
layer {
  name: "relu5"
  type: "ReLU"
  bottom: "conv5"
  top: "conv5"
}
layer {
  name: "pool5"
  type: "Pooling"
  bottom: "conv5"
  top: "pool5"
  pooling_param {
    pool: MAX
    kernel_size: 3
    stride: 2
  }
}
layer {
  name: "fc6"
  type: "InnerProduct"
  bottom: "pool5"
  top: "fc6"
  param {
    lr_mult: 1
    decay_mult: 1
  }
  param {
    lr_mult: 2
    decay_mult: 0
  }
  inner_product_param {
    num_output: 4096
    weight_filler {
      type: "gaussian"
      std: 0.005
    }
    bias_filler {
      type: "constant"
      value: 0.1
    }
  }
}
layer {
  name: "relu6"
  type: "ReLU"
  bottom: "fc6"
  top: "fc6"
}
layer {
  name: "drop6"
  type: "Dropout"
  bottom: "fc6"
  top: "fc6"
  dropout_param {
    dropout_ratio: 0.5
  }
}
layer {
  name: "fc7"
  type: "InnerProduct"
  bottom: "fc6"
  top: "fc7"
  param {
    lr_mult: 1
    decay_mult: 1
  }
  param {
    lr_mult: 2
    decay_mult: 0
  }
  inner_product_param {
    num_output: 4096
    weight_filler {
      type: "gaussian"
      std: 0.005
    }
    bias_filler {
      type: "constant"
      value: 0.1
    }
  }
}
layer {
  name: "relu7"
  type: "ReLU"
  bottom: "fc7"
  top: "fc7"
}
layer {
  name: "drop7"
  type: "Dropout"
  bottom: "fc7"
  top: "fc7"
  dropout_param {
    dropout_ratio: 0.5
  }
}
layer {
  name: "fc8_plantvillage"
  type: "InnerProduct"
  bottom: "fc7"
  top: "fc8_plantvillage"
  param {
    lr_mult: 1
    decay_mult: 1
  }
  param {
    lr_mult: 2
    decay_mult: 0
  }
  inner_product_param {
    num_output: 38
    weight_filler {
      type: "gaussian"
      std: 0.01
    }
    bias_filler {
      type: "constant"
      value: 0
    }
  }
}
layer {
  name: "prob"
  type: "Softmax"
  bottom: "fc8_plantvillage"
  top: "prob"
  include {
    phase: TEST
  }
}
layer {
  name: "hdf5out"
  type: "HDF5Output"
  bottom: "prob"
  bottom: "label"
  include {
    phase: TEST
  }
  hdf5_output_param {
    file_name: "hdf5_dumps/iter_3045.h5"
  }
}
layer {
  name: "loss"
  type: "SoftmaxWithLoss"
  bottom: "fc8_plantvillage"
  bottom: "label"
  top: "loss"
}
layer {
  name: "accuracy"
  type: "Accuracy"
  bottom: "fc8_plantvillage"
  bottom: "label"
  top: "accuracy"
  include {
    phase: TEST
  }
}
I0403 12:42:47.305317  9406 layer_factory.hpp:77] Creating layer data
I0403 12:42:47.306089  9406 net.cpp:91] Creating Layer data
I0403 12:42:47.306129  9406 net.cpp:399] data -> data
I0403 12:42:47.306190  9406 net.cpp:399] data -> label
I0403 12:42:47.306236  9406 data_transformer.cpp:25] Loading mean file from: /home/mohanty/data/final_dataset/lmdb/grayscale-20-80/mean.binaryproto
I0403 12:42:47.309296  9410 db_lmdb.cpp:38] Opened lmdb /home/mohanty/data/final_dataset/lmdb/grayscale-20-80/test_db
I0403 12:42:47.322520  9406 data_layer.cpp:41] output data size: 100,3,227,227
I0403 12:42:47.458750  9406 net.cpp:141] Setting up data
I0403 12:42:47.458858  9406 net.cpp:148] Top shape: 100 3 227 227 (15458700)
I0403 12:42:47.458885  9406 net.cpp:148] Top shape: 100 (100)
I0403 12:42:47.458904  9406 net.cpp:156] Memory required for data: 61835200
I0403 12:42:47.458937  9406 layer_factory.hpp:77] Creating layer label_data_1_split
I0403 12:42:47.458968  9406 net.cpp:91] Creating Layer label_data_1_split
I0403 12:42:47.458992  9406 net.cpp:425] label_data_1_split <- label
I0403 12:42:47.459029  9406 net.cpp:399] label_data_1_split -> label_data_1_split_0
I0403 12:42:47.459064  9406 net.cpp:399] label_data_1_split -> label_data_1_split_1
I0403 12:42:47.459089  9406 net.cpp:399] label_data_1_split -> label_data_1_split_2
I0403 12:42:47.459167  9406 net.cpp:141] Setting up label_data_1_split
I0403 12:42:47.459195  9406 net.cpp:148] Top shape: 100 (100)
I0403 12:42:47.459215  9406 net.cpp:148] Top shape: 100 (100)
I0403 12:42:47.459235  9406 net.cpp:148] Top shape: 100 (100)
I0403 12:42:47.459252  9406 net.cpp:156] Memory required for data: 61836400
I0403 12:42:47.459271  9406 layer_factory.hpp:77] Creating layer conv1
I0403 12:42:47.459309  9406 net.cpp:91] Creating Layer conv1
I0403 12:42:47.459332  9406 net.cpp:425] conv1 <- data
I0403 12:42:47.459357  9406 net.cpp:399] conv1 -> conv1
I0403 12:42:47.627179  9406 net.cpp:141] Setting up conv1
I0403 12:42:47.627293  9406 net.cpp:148] Top shape: 100 96 55 55 (29040000)
I0403 12:42:47.627317  9406 net.cpp:156] Memory required for data: 177996400
I0403 12:42:47.627356  9406 layer_factory.hpp:77] Creating layer relu1
I0403 12:42:47.627388  9406 net.cpp:91] Creating Layer relu1
I0403 12:42:47.627411  9406 net.cpp:425] relu1 <- conv1
I0403 12:42:47.627435  9406 net.cpp:386] relu1 -> conv1 (in-place)
I0403 12:42:47.627743  9406 net.cpp:141] Setting up relu1
I0403 12:42:47.627775  9406 net.cpp:148] Top shape: 100 96 55 55 (29040000)
I0403 12:42:47.627833  9406 net.cpp:156] Memory required for data: 294156400
I0403 12:42:47.627854  9406 layer_factory.hpp:77] Creating layer norm1
I0403 12:42:47.627888  9406 net.cpp:91] Creating Layer norm1
I0403 12:42:47.627910  9406 net.cpp:425] norm1 <- conv1
I0403 12:42:47.627933  9406 net.cpp:399] norm1 -> norm1
I0403 12:42:47.628293  9406 net.cpp:141] Setting up norm1
I0403 12:42:47.628325  9406 net.cpp:148] Top shape: 100 96 55 55 (29040000)
I0403 12:42:47.628345  9406 net.cpp:156] Memory required for data: 410316400
I0403 12:42:47.628365  9406 layer_factory.hpp:77] Creating layer pool1
I0403 12:42:47.628393  9406 net.cpp:91] Creating Layer pool1
I0403 12:42:47.628414  9406 net.cpp:425] pool1 <- norm1
I0403 12:42:47.628437  9406 net.cpp:399] pool1 -> pool1
I0403 12:42:47.628515  9406 net.cpp:141] Setting up pool1
I0403 12:42:47.628550  9406 net.cpp:148] Top shape: 100 96 27 27 (6998400)
I0403 12:42:47.628571  9406 net.cpp:156] Memory required for data: 438310000
I0403 12:42:47.628588  9406 layer_factory.hpp:77] Creating layer conv2
I0403 12:42:47.628618  9406 net.cpp:91] Creating Layer conv2
I0403 12:42:47.628638  9406 net.cpp:425] conv2 <- pool1
I0403 12:42:47.628659  9406 net.cpp:399] conv2 -> conv2
I0403 12:42:47.646519  9406 net.cpp:141] Setting up conv2
I0403 12:42:47.646567  9406 net.cpp:148] Top shape: 100 256 27 27 (18662400)
I0403 12:42:47.646589  9406 net.cpp:156] Memory required for data: 512959600
I0403 12:42:47.646616  9406 layer_factory.hpp:77] Creating layer relu2
I0403 12:42:47.646639  9406 net.cpp:91] Creating Layer relu2
I0403 12:42:47.646659  9406 net.cpp:425] relu2 <- conv2
I0403 12:42:47.646682  9406 net.cpp:386] relu2 -> conv2 (in-place)
I0403 12:42:47.646996  9406 net.cpp:141] Setting up relu2
I0403 12:42:47.647028  9406 net.cpp:148] Top shape: 100 256 27 27 (18662400)
I0403 12:42:47.647047  9406 net.cpp:156] Memory required for data: 587609200
I0403 12:42:47.647066  9406 layer_factory.hpp:77] Creating layer norm2
I0403 12:42:47.647091  9406 net.cpp:91] Creating Layer norm2
I0403 12:42:47.647111  9406 net.cpp:425] norm2 <- conv2
I0403 12:42:47.647135  9406 net.cpp:399] norm2 -> norm2
I0403 12:42:47.647353  9406 net.cpp:141] Setting up norm2
I0403 12:42:47.647384  9406 net.cpp:148] Top shape: 100 256 27 27 (18662400)
I0403 12:42:47.647403  9406 net.cpp:156] Memory required for data: 662258800
I0403 12:42:47.647421  9406 layer_factory.hpp:77] Creating layer pool2
I0403 12:42:47.647442  9406 net.cpp:91] Creating Layer pool2
I0403 12:42:47.647461  9406 net.cpp:425] pool2 <- norm2
I0403 12:42:47.647482  9406 net.cpp:399] pool2 -> pool2
I0403 12:42:47.647546  9406 net.cpp:141] Setting up pool2
I0403 12:42:47.647573  9406 net.cpp:148] Top shape: 100 256 13 13 (4326400)
I0403 12:42:47.647591  9406 net.cpp:156] Memory required for data: 679564400
I0403 12:42:47.647609  9406 layer_factory.hpp:77] Creating layer conv3
I0403 12:42:47.647634  9406 net.cpp:91] Creating Layer conv3
I0403 12:42:47.647653  9406 net.cpp:425] conv3 <- pool2
I0403 12:42:47.647675  9406 net.cpp:399] conv3 -> conv3
I0403 12:42:47.693853  9406 net.cpp:141] Setting up conv3
I0403 12:42:47.693909  9406 net.cpp:148] Top shape: 100 384 13 13 (6489600)
I0403 12:42:47.693929  9406 net.cpp:156] Memory required for data: 705522800
I0403 12:42:47.693958  9406 layer_factory.hpp:77] Creating layer relu3
I0403 12:42:47.693984  9406 net.cpp:91] Creating Layer relu3
I0403 12:42:47.694005  9406 net.cpp:425] relu3 <- conv3
I0403 12:42:47.694025  9406 net.cpp:386] relu3 -> conv3 (in-place)
I0403 12:42:47.694334  9406 net.cpp:141] Setting up relu3
I0403 12:42:47.694366  9406 net.cpp:148] Top shape: 100 384 13 13 (6489600)
I0403 12:42:47.694386  9406 net.cpp:156] Memory required for data: 731481200
I0403 12:42:47.694404  9406 layer_factory.hpp:77] Creating layer conv4
I0403 12:42:47.694432  9406 net.cpp:91] Creating Layer conv4
I0403 12:42:47.694452  9406 net.cpp:425] conv4 <- conv3
I0403 12:42:47.694473  9406 net.cpp:399] conv4 -> conv4
I0403 12:42:47.730505  9406 net.cpp:141] Setting up conv4
I0403 12:42:47.730563  9406 net.cpp:148] Top shape: 100 384 13 13 (6489600)
I0403 12:42:47.730623  9406 net.cpp:156] Memory required for data: 757439600
I0403 12:42:47.730648  9406 layer_factory.hpp:77] Creating layer relu4
I0403 12:42:47.730674  9406 net.cpp:91] Creating Layer relu4
I0403 12:42:47.730695  9406 net.cpp:425] relu4 <- conv4
I0403 12:42:47.730716  9406 net.cpp:386] relu4 -> conv4 (in-place)
I0403 12:42:47.731041  9406 net.cpp:141] Setting up relu4
I0403 12:42:47.731076  9406 net.cpp:148] Top shape: 100 384 13 13 (6489600)
I0403 12:42:47.731096  9406 net.cpp:156] Memory required for data: 783398000
I0403 12:42:47.731115  9406 layer_factory.hpp:77] Creating layer conv5
I0403 12:42:47.731144  9406 net.cpp:91] Creating Layer conv5
I0403 12:42:47.731165  9406 net.cpp:425] conv5 <- conv4
I0403 12:42:47.731189  9406 net.cpp:399] conv5 -> conv5
I0403 12:42:47.756070  9406 net.cpp:141] Setting up conv5
I0403 12:42:47.756114  9406 net.cpp:148] Top shape: 100 256 13 13 (4326400)
I0403 12:42:47.756136  9406 net.cpp:156] Memory required for data: 800703600
I0403 12:42:47.756165  9406 layer_factory.hpp:77] Creating layer relu5
I0403 12:42:47.756191  9406 net.cpp:91] Creating Layer relu5
I0403 12:42:47.756211  9406 net.cpp:425] relu5 <- conv5
I0403 12:42:47.756234  9406 net.cpp:386] relu5 -> conv5 (in-place)
I0403 12:42:47.756577  9406 net.cpp:141] Setting up relu5
I0403 12:42:47.756608  9406 net.cpp:148] Top shape: 100 256 13 13 (4326400)
I0403 12:42:47.756628  9406 net.cpp:156] Memory required for data: 818009200
I0403 12:42:47.756646  9406 layer_factory.hpp:77] Creating layer pool5
I0403 12:42:47.756675  9406 net.cpp:91] Creating Layer pool5
I0403 12:42:47.756695  9406 net.cpp:425] pool5 <- conv5
I0403 12:42:47.756718  9406 net.cpp:399] pool5 -> pool5
I0403 12:42:47.756789  9406 net.cpp:141] Setting up pool5
I0403 12:42:47.756819  9406 net.cpp:148] Top shape: 100 256 6 6 (921600)
I0403 12:42:47.756836  9406 net.cpp:156] Memory required for data: 821695600
I0403 12:42:47.756853  9406 layer_factory.hpp:77] Creating layer fc6
I0403 12:42:47.756886  9406 net.cpp:91] Creating Layer fc6
I0403 12:42:47.756906  9406 net.cpp:425] fc6 <- pool5
I0403 12:42:47.756978  9406 net.cpp:399] fc6 -> fc6
I0403 12:42:49.295271  9406 net.cpp:141] Setting up fc6
I0403 12:42:49.295354  9406 net.cpp:148] Top shape: 100 4096 (409600)
I0403 12:42:49.295370  9406 net.cpp:156] Memory required for data: 823334000
I0403 12:42:49.295392  9406 layer_factory.hpp:77] Creating layer relu6
I0403 12:42:49.295413  9406 net.cpp:91] Creating Layer relu6
I0403 12:42:49.295429  9406 net.cpp:425] relu6 <- fc6
I0403 12:42:49.295449  9406 net.cpp:386] relu6 -> fc6 (in-place)
I0403 12:42:49.295670  9406 net.cpp:141] Setting up relu6
I0403 12:42:49.295696  9406 net.cpp:148] Top shape: 100 4096 (409600)
I0403 12:42:49.295711  9406 net.cpp:156] Memory required for data: 824972400
I0403 12:42:49.295727  9406 layer_factory.hpp:77] Creating layer drop6
I0403 12:42:49.295744  9406 net.cpp:91] Creating Layer drop6
I0403 12:42:49.295758  9406 net.cpp:425] drop6 <- fc6
I0403 12:42:49.295776  9406 net.cpp:386] drop6 -> fc6 (in-place)
I0403 12:42:49.295826  9406 net.cpp:141] Setting up drop6
I0403 12:42:49.295847  9406 net.cpp:148] Top shape: 100 4096 (409600)
I0403 12:42:49.295861  9406 net.cpp:156] Memory required for data: 826610800
I0403 12:42:49.295876  9406 layer_factory.hpp:77] Creating layer fc7
I0403 12:42:49.295897  9406 net.cpp:91] Creating Layer fc7
I0403 12:42:49.295913  9406 net.cpp:425] fc7 <- fc6
I0403 12:42:49.295933  9406 net.cpp:399] fc7 -> fc7
I0403 12:42:49.956311  9406 net.cpp:141] Setting up fc7
I0403 12:42:49.956387  9406 net.cpp:148] Top shape: 100 4096 (409600)
I0403 12:42:49.956403  9406 net.cpp:156] Memory required for data: 828249200
I0403 12:42:49.956425  9406 layer_factory.hpp:77] Creating layer relu7
I0403 12:42:49.956446  9406 net.cpp:91] Creating Layer relu7
I0403 12:42:49.956464  9406 net.cpp:425] relu7 <- fc7
I0403 12:42:49.956483  9406 net.cpp:386] relu7 -> fc7 (in-place)
I0403 12:42:49.956894  9406 net.cpp:141] Setting up relu7
I0403 12:42:49.956920  9406 net.cpp:148] Top shape: 100 4096 (409600)
I0403 12:42:49.956974  9406 net.cpp:156] Memory required for data: 829887600
I0403 12:42:49.956990  9406 layer_factory.hpp:77] Creating layer drop7
I0403 12:42:49.957010  9406 net.cpp:91] Creating Layer drop7
I0403 12:42:49.957025  9406 net.cpp:425] drop7 <- fc7
I0403 12:42:49.957043  9406 net.cpp:386] drop7 -> fc7 (in-place)
I0403 12:42:49.957087  9406 net.cpp:141] Setting up drop7
I0403 12:42:49.957108  9406 net.cpp:148] Top shape: 100 4096 (409600)
I0403 12:42:49.957123  9406 net.cpp:156] Memory required for data: 831526000
I0403 12:42:49.957136  9406 layer_factory.hpp:77] Creating layer fc8_plantvillage
I0403 12:42:49.957157  9406 net.cpp:91] Creating Layer fc8_plantvillage
I0403 12:42:49.957175  9406 net.cpp:425] fc8_plantvillage <- fc7
I0403 12:42:49.957195  9406 net.cpp:399] fc8_plantvillage -> fc8_plantvillage
I0403 12:42:49.963846  9406 net.cpp:141] Setting up fc8_plantvillage
I0403 12:42:49.963874  9406 net.cpp:148] Top shape: 100 38 (3800)
I0403 12:42:49.963891  9406 net.cpp:156] Memory required for data: 831541200
I0403 12:42:49.963908  9406 layer_factory.hpp:77] Creating layer fc8_plantvillage_fc8_plantvillage_0_split
I0403 12:42:49.963927  9406 net.cpp:91] Creating Layer fc8_plantvillage_fc8_plantvillage_0_split
I0403 12:42:49.963940  9406 net.cpp:425] fc8_plantvillage_fc8_plantvillage_0_split <- fc8_plantvillage
I0403 12:42:49.963960  9406 net.cpp:399] fc8_plantvillage_fc8_plantvillage_0_split -> fc8_plantvillage_fc8_plantvillage_0_split_0
I0403 12:42:49.963980  9406 net.cpp:399] fc8_plantvillage_fc8_plantvillage_0_split -> fc8_plantvillage_fc8_plantvillage_0_split_1
I0403 12:42:49.963999  9406 net.cpp:399] fc8_plantvillage_fc8_plantvillage_0_split -> fc8_plantvillage_fc8_plantvillage_0_split_2
I0403 12:42:49.964078  9406 net.cpp:141] Setting up fc8_plantvillage_fc8_plantvillage_0_split
I0403 12:42:49.964103  9406 net.cpp:148] Top shape: 100 38 (3800)
I0403 12:42:49.964120  9406 net.cpp:148] Top shape: 100 38 (3800)
I0403 12:42:49.964136  9406 net.cpp:148] Top shape: 100 38 (3800)
I0403 12:42:49.964150  9406 net.cpp:156] Memory required for data: 831586800
I0403 12:42:49.964164  9406 layer_factory.hpp:77] Creating layer prob
I0403 12:42:49.964182  9406 net.cpp:91] Creating Layer prob
I0403 12:42:49.964196  9406 net.cpp:425] prob <- fc8_plantvillage_fc8_plantvillage_0_split_0
I0403 12:42:49.964215  9406 net.cpp:399] prob -> prob
I0403 12:42:49.964427  9406 net.cpp:141] Setting up prob
I0403 12:42:49.964454  9406 net.cpp:148] Top shape: 100 38 (3800)
I0403 12:42:49.964469  9406 net.cpp:156] Memory required for data: 831602000
I0403 12:42:49.964483  9406 layer_factory.hpp:77] Creating layer hdf5out
I0403 12:42:49.964503  9406 net.cpp:91] Creating Layer hdf5out
I0403 12:42:49.964516  9406 net.cpp:425] hdf5out <- prob
I0403 12:42:49.964532  9406 net.cpp:425] hdf5out <- label_data_1_split_0
I0403 12:42:49.967173  9406 net.cpp:141] Setting up hdf5out
…
