…
I0403 12:06:37.331301  8448 net.cpp:313] The NetState phase (1) differed from the phase (0) specified by a rule in layer data
I0403 12:06:37.331598  8448 net.cpp:49] Initializing net from parameters: 
state {
  phase: TEST
}
layer {
  name: "data"
  type: "Data"
  top: "data"
  top: "label"
  include {
    phase: TEST
  }
  transform_param {
    crop_size: 227
    mean_file: "/home/mohanty/data/final_dataset/lmdb/grayscale-20-80/mean.binaryproto"
  }
  data_param {
    source: "/home/mohanty/data/final_dataset/lmdb/grayscale-20-80/test_db"
    batch_size: 100
    backend: LMDB
  }
}
layer {
  name: "conv1"
  type: "Convolution"
  bottom: "data"
  top: "conv1"
  param {
    lr_mult: 1
    decay_mult: 1
  }
  param {
    lr_mult: 2
    decay_mult: 0
  }
  convolution_param {
    num_output: 96
    kernel_size: 11
    stride: 4
    weight_filler {
      type: "gaussian"
      std: 0.01
    }
    bias_filler {
      type: "constant"
      value: 0
    }
  }
}
layer {
  name: "relu1"
  type: "ReLU"
  bottom: "conv1"
  top: "conv1"
}
layer {
  name: "norm1"
  type: "LRN"
  bottom: "conv1"
  top: "norm1"
  lrn_param {
    local_size: 5
    alpha: 0.0001
    beta: 0.75
  }
}
layer {
  name: "pool1"
  type: "Pooling"
  bottom: "norm1"
  top: "pool1"
  pooling_param {
    pool: MAX
    kernel_size: 3
    stride: 2
  }
}
layer {
  name: "conv2"
  type: "Convolution"
  bottom: "pool1"
  top: "conv2"
  param {
    lr_mult: 1
    decay_mult: 1
  }
  param {
    lr_mult: 2
    decay_mult: 0
  }
  convolution_param {
    num_output: 256
    pad: 2
    kernel_size: 5
    group: 2
    weight_filler {
      type: "gaussian"
      std: 0.01
    }
    bias_filler {
      type: "constant"
      value: 0.1
    }
  }
}
layer {
  name: "relu2"
  type: "ReLU"
  bottom: "conv2"
  top: "conv2"
}
layer {
  name: "norm2"
  type: "LRN"
  bottom: "conv2"
  top: "norm2"
  lrn_param {
    local_size: 5
    alpha: 0.0001
    beta: 0.75
  }
}
layer {
  name: "pool2"
  type: "Pooling"
  bottom: "norm2"
  top: "pool2"
  pooling_param {
    pool: MAX
    kernel_size: 3
    stride: 2
  }
}
layer {
  name: "conv3"
  type: "Convolution"
  bottom: "pool2"
  top: "conv3"
  param {
    lr_mult: 1
    decay_mult: 1
  }
  param {
    lr_mult: 2
    decay_mult: 0
  }
  convolution_param {
    num_output: 384
    pad: 1
    kernel_size: 3
    weight_filler {
      type: "gaussian"
      std: 0.01
    }
    bias_filler {
      type: "constant"
      value: 0
    }
  }
}
layer {
  name: "relu3"
  type: "ReLU"
  bottom: "conv3"
  top: "conv3"
}
layer {
  name: "conv4"
  type: "Convolution"
  bottom: "conv3"
  top: "conv4"
  param {
    lr_mult: 1
    decay_mult: 1
  }
  param {
    lr_mult: 2
    decay_mult: 0
  }
  convolution_param {
    num_output: 384
    pad: 1
    kernel_size: 3
    group: 2
    weight_filler {
      type: "gaussian"
      std: 0.01
    }
    bias_filler {
      type: "constant"
      value: 0.1
    }
  }
}
layer {
  name: "relu4"
  type: "ReLU"
  bottom: "conv4"
  top: "conv4"
}
layer {
  name: "conv5"
  type: "Convolution"
  bottom: "conv4"
  top: "conv5"
  param {
    lr_mult: 1
    decay_mult: 1
  }
  param {
    lr_mult: 2
    decay_mult: 0
  }
  convolution_param {
    num_output: 256
    pad: 1
    kernel_size: 3
    group: 2
    weight_filler {
      type: "gaussian"
      std: 0.01
    }
    bias_filler {
      type: "constant"
      value: 0.1
    }
  }
}
layer {
  name: "relu5"
  type: "ReLU"
  bottom: "conv5"
  top: "conv5"
}
layer {
  name: "pool5"
  type: "Pooling"
  bottom: "conv5"
  top: "pool5"
  pooling_param {
    pool: MAX
    kernel_size: 3
    stride: 2
  }
}
layer {
  name: "fc6"
  type: "InnerProduct"
  bottom: "pool5"
  top: "fc6"
  param {
    lr_mult: 1
    decay_mult: 1
  }
  param {
    lr_mult: 2
    decay_mult: 0
  }
  inner_product_param {
    num_output: 4096
    weight_filler {
      type: "gaussian"
      std: 0.005
    }
    bias_filler {
      type: "constant"
      value: 0.1
    }
  }
}
layer {
  name: "relu6"
  type: "ReLU"
  bottom: "fc6"
  top: "fc6"
}
layer {
  name: "drop6"
  type: "Dropout"
  bottom: "fc6"
  top: "fc6"
  dropout_param {
    dropout_ratio: 0.5
  }
}
layer {
  name: "fc7"
  type: "InnerProduct"
  bottom: "fc6"
  top: "fc7"
  param {
    lr_mult: 1
    decay_mult: 1
  }
  param {
    lr_mult: 2
    decay_mult: 0
  }
  inner_product_param {
    num_output: 4096
    weight_filler {
      type: "gaussian"
      std: 0.005
    }
    bias_filler {
      type: "constant"
      value: 0.1
    }
  }
}
layer {
  name: "relu7"
  type: "ReLU"
  bottom: "fc7"
  top: "fc7"
}
layer {
  name: "drop7"
  type: "Dropout"
  bottom: "fc7"
  top: "fc7"
  dropout_param {
    dropout_ratio: 0.5
  }
}
layer {
  name: "fc8_plantvillage"
  type: "InnerProduct"
  bottom: "fc7"
  top: "fc8_plantvillage"
  param {
    lr_mult: 1
    decay_mult: 1
  }
  param {
    lr_mult: 2
    decay_mult: 0
  }
  inner_product_param {
    num_output: 38
    weight_filler {
      type: "gaussian"
      std: 0.01
    }
    bias_filler {
      type: "constant"
      value: 0
    }
  }
}
layer {
  name: "prob"
  type: "Softmax"
  bottom: "fc8_plantvillage"
  top: "prob"
  include {
    phase: TEST
  }
}
layer {
  name: "hdf5out"
  type: "HDF5Output"
  bottom: "prob"
  bottom: "label"
  include {
    phase: TEST
  }
  hdf5_output_param {
    file_name: "hdf5_dumps/iter_420.h5"
  }
}
layer {
  name: "loss"
  type: "SoftmaxWithLoss"
  bottom: "fc8_plantvillage"
  bottom: "label"
  top: "loss"
}
layer {
  name: "accuracy"
  type: "Accuracy"
  bottom: "fc8_plantvillage"
  bottom: "label"
  top: "accuracy"
  include {
    phase: TEST
  }
}
I0403 12:06:37.332197  8448 layer_factory.hpp:77] Creating layer data
I0403 12:06:37.332857  8448 net.cpp:91] Creating Layer data
I0403 12:06:37.332895  8448 net.cpp:399] data -> data
I0403 12:06:37.332947  8448 net.cpp:399] data -> label
I0403 12:06:37.332983  8448 data_transformer.cpp:25] Loading mean file from: /home/mohanty/data/final_dataset/lmdb/grayscale-20-80/mean.binaryproto
I0403 12:06:37.336366  8451 db_lmdb.cpp:38] Opened lmdb /home/mohanty/data/final_dataset/lmdb/grayscale-20-80/test_db
I0403 12:06:37.346806  8448 data_layer.cpp:41] output data size: 100,3,227,227
I0403 12:06:37.467447  8448 net.cpp:141] Setting up data
I0403 12:06:37.467545  8448 net.cpp:148] Top shape: 100 3 227 227 (15458700)
I0403 12:06:37.467568  8448 net.cpp:148] Top shape: 100 (100)
I0403 12:06:37.467584  8448 net.cpp:156] Memory required for data: 61835200
I0403 12:06:37.467613  8448 layer_factory.hpp:77] Creating layer label_data_1_split
I0403 12:06:37.467638  8448 net.cpp:91] Creating Layer label_data_1_split
I0403 12:06:37.467656  8448 net.cpp:425] label_data_1_split <- label
I0403 12:06:37.467690  8448 net.cpp:399] label_data_1_split -> label_data_1_split_0
I0403 12:06:37.467717  8448 net.cpp:399] label_data_1_split -> label_data_1_split_1
I0403 12:06:37.467738  8448 net.cpp:399] label_data_1_split -> label_data_1_split_2
I0403 12:06:37.467803  8448 net.cpp:141] Setting up label_data_1_split
I0403 12:06:37.467826  8448 net.cpp:148] Top shape: 100 (100)
I0403 12:06:37.467844  8448 net.cpp:148] Top shape: 100 (100)
I0403 12:06:37.467860  8448 net.cpp:148] Top shape: 100 (100)
I0403 12:06:37.467875  8448 net.cpp:156] Memory required for data: 61836400
I0403 12:06:37.467888  8448 layer_factory.hpp:77] Creating layer conv1
I0403 12:06:37.467919  8448 net.cpp:91] Creating Layer conv1
I0403 12:06:37.467938  8448 net.cpp:425] conv1 <- data
I0403 12:06:37.467957  8448 net.cpp:399] conv1 -> conv1
I0403 12:06:37.605574  8448 net.cpp:141] Setting up conv1
I0403 12:06:37.605653  8448 net.cpp:148] Top shape: 100 96 55 55 (29040000)
I0403 12:06:37.605669  8448 net.cpp:156] Memory required for data: 177996400
I0403 12:06:37.605701  8448 layer_factory.hpp:77] Creating layer relu1
I0403 12:06:37.605729  8448 net.cpp:91] Creating Layer relu1
I0403 12:06:37.605748  8448 net.cpp:425] relu1 <- conv1
I0403 12:06:37.605770  8448 net.cpp:386] relu1 -> conv1 (in-place)
I0403 12:06:37.606053  8448 net.cpp:141] Setting up relu1
I0403 12:06:37.606081  8448 net.cpp:148] Top shape: 100 96 55 55 (29040000)
I0403 12:06:37.606140  8448 net.cpp:156] Memory required for data: 294156400
I0403 12:06:37.606158  8448 layer_factory.hpp:77] Creating layer norm1
I0403 12:06:37.606187  8448 net.cpp:91] Creating Layer norm1
I0403 12:06:37.606206  8448 net.cpp:425] norm1 <- conv1
I0403 12:06:37.606225  8448 net.cpp:399] norm1 -> norm1
I0403 12:06:37.606573  8448 net.cpp:141] Setting up norm1
I0403 12:06:37.606602  8448 net.cpp:148] Top shape: 100 96 55 55 (29040000)
I0403 12:06:37.606619  8448 net.cpp:156] Memory required for data: 410316400
I0403 12:06:37.606634  8448 layer_factory.hpp:77] Creating layer pool1
I0403 12:06:37.606660  8448 net.cpp:91] Creating Layer pool1
I0403 12:06:37.606679  8448 net.cpp:425] pool1 <- norm1
I0403 12:06:37.606698  8448 net.cpp:399] pool1 -> pool1
I0403 12:06:37.606772  8448 net.cpp:141] Setting up pool1
I0403 12:06:37.606802  8448 net.cpp:148] Top shape: 100 96 27 27 (6998400)
I0403 12:06:37.606817  8448 net.cpp:156] Memory required for data: 438310000
I0403 12:06:37.606833  8448 layer_factory.hpp:77] Creating layer conv2
I0403 12:06:37.606860  8448 net.cpp:91] Creating Layer conv2
I0403 12:06:37.606878  8448 net.cpp:425] conv2 <- pool1
I0403 12:06:37.606899  8448 net.cpp:399] conv2 -> conv2
I0403 12:06:37.621942  8448 net.cpp:141] Setting up conv2
I0403 12:06:37.621992  8448 net.cpp:148] Top shape: 100 256 27 27 (18662400)
I0403 12:06:37.622012  8448 net.cpp:156] Memory required for data: 512959600
I0403 12:06:37.622035  8448 layer_factory.hpp:77] Creating layer relu2
I0403 12:06:37.622056  8448 net.cpp:91] Creating Layer relu2
I0403 12:06:37.622073  8448 net.cpp:425] relu2 <- conv2
I0403 12:06:37.622092  8448 net.cpp:386] relu2 -> conv2 (in-place)
I0403 12:06:37.622375  8448 net.cpp:141] Setting up relu2
I0403 12:06:37.622406  8448 net.cpp:148] Top shape: 100 256 27 27 (18662400)
I0403 12:06:37.622422  8448 net.cpp:156] Memory required for data: 587609200
I0403 12:06:37.622437  8448 layer_factory.hpp:77] Creating layer norm2
I0403 12:06:37.622459  8448 net.cpp:91] Creating Layer norm2
I0403 12:06:37.622476  8448 net.cpp:425] norm2 <- conv2
I0403 12:06:37.622496  8448 net.cpp:399] norm2 -> norm2
I0403 12:06:37.622704  8448 net.cpp:141] Setting up norm2
I0403 12:06:37.622730  8448 net.cpp:148] Top shape: 100 256 27 27 (18662400)
I0403 12:06:37.622751  8448 net.cpp:156] Memory required for data: 662258800
I0403 12:06:37.622766  8448 layer_factory.hpp:77] Creating layer pool2
I0403 12:06:37.622784  8448 net.cpp:91] Creating Layer pool2
I0403 12:06:37.622802  8448 net.cpp:425] pool2 <- norm2
I0403 12:06:37.622818  8448 net.cpp:399] pool2 -> pool2
I0403 12:06:37.622872  8448 net.cpp:141] Setting up pool2
I0403 12:06:37.622895  8448 net.cpp:148] Top shape: 100 256 13 13 (4326400)
I0403 12:06:37.622910  8448 net.cpp:156] Memory required for data: 679564400
I0403 12:06:37.622925  8448 layer_factory.hpp:77] Creating layer conv3
I0403 12:06:37.622951  8448 net.cpp:91] Creating Layer conv3
I0403 12:06:37.622967  8448 net.cpp:425] conv3 <- pool2
I0403 12:06:37.622988  8448 net.cpp:399] conv3 -> conv3
I0403 12:06:37.664271  8448 net.cpp:141] Setting up conv3
I0403 12:06:37.664329  8448 net.cpp:148] Top shape: 100 384 13 13 (6489600)
I0403 12:06:37.664345  8448 net.cpp:156] Memory required for data: 705522800
I0403 12:06:37.664371  8448 layer_factory.hpp:77] Creating layer relu3
I0403 12:06:37.664397  8448 net.cpp:91] Creating Layer relu3
I0403 12:06:37.664415  8448 net.cpp:425] relu3 <- conv3
I0403 12:06:37.664448  8448 net.cpp:386] relu3 -> conv3 (in-place)
I0403 12:06:37.664733  8448 net.cpp:141] Setting up relu3
I0403 12:06:37.664760  8448 net.cpp:148] Top shape: 100 384 13 13 (6489600)
I0403 12:06:37.664774  8448 net.cpp:156] Memory required for data: 731481200
I0403 12:06:37.664789  8448 layer_factory.hpp:77] Creating layer conv4
I0403 12:06:37.664818  8448 net.cpp:91] Creating Layer conv4
I0403 12:06:37.664834  8448 net.cpp:425] conv4 <- conv3
I0403 12:06:37.664852  8448 net.cpp:399] conv4 -> conv4
I0403 12:06:37.694339  8448 net.cpp:141] Setting up conv4
I0403 12:06:37.694406  8448 net.cpp:148] Top shape: 100 384 13 13 (6489600)
I0403 12:06:37.694465  8448 net.cpp:156] Memory required for data: 757439600
I0403 12:06:37.694486  8448 layer_factory.hpp:77] Creating layer relu4
I0403 12:06:37.694510  8448 net.cpp:91] Creating Layer relu4
I0403 12:06:37.694528  8448 net.cpp:425] relu4 <- conv4
I0403 12:06:37.694560  8448 net.cpp:386] relu4 -> conv4 (in-place)
I0403 12:06:37.694852  8448 net.cpp:141] Setting up relu4
I0403 12:06:37.694880  8448 net.cpp:148] Top shape: 100 384 13 13 (6489600)
I0403 12:06:37.694895  8448 net.cpp:156] Memory required for data: 783398000
I0403 12:06:37.694911  8448 layer_factory.hpp:77] Creating layer conv5
I0403 12:06:37.694937  8448 net.cpp:91] Creating Layer conv5
I0403 12:06:37.694955  8448 net.cpp:425] conv5 <- conv4
I0403 12:06:37.694977  8448 net.cpp:399] conv5 -> conv5
I0403 12:06:37.715528  8448 net.cpp:141] Setting up conv5
I0403 12:06:37.715591  8448 net.cpp:148] Top shape: 100 256 13 13 (4326400)
I0403 12:06:37.715608  8448 net.cpp:156] Memory required for data: 800703600
I0403 12:06:37.715636  8448 layer_factory.hpp:77] Creating layer relu5
I0403 12:06:37.715658  8448 net.cpp:91] Creating Layer relu5
I0403 12:06:37.715677  8448 net.cpp:425] relu5 <- conv5
I0403 12:06:37.715697  8448 net.cpp:386] relu5 -> conv5 (in-place)
I0403 12:06:37.715991  8448 net.cpp:141] Setting up relu5
I0403 12:06:37.716019  8448 net.cpp:148] Top shape: 100 256 13 13 (4326400)
I0403 12:06:37.716037  8448 net.cpp:156] Memory required for data: 818009200
I0403 12:06:37.716051  8448 layer_factory.hpp:77] Creating layer pool5
I0403 12:06:37.716073  8448 net.cpp:91] Creating Layer pool5
I0403 12:06:37.716090  8448 net.cpp:425] pool5 <- conv5
I0403 12:06:37.716112  8448 net.cpp:399] pool5 -> pool5
I0403 12:06:37.716173  8448 net.cpp:141] Setting up pool5
I0403 12:06:37.716197  8448 net.cpp:148] Top shape: 100 256 6 6 (921600)
I0403 12:06:37.716212  8448 net.cpp:156] Memory required for data: 821695600
I0403 12:06:37.716228  8448 layer_factory.hpp:77] Creating layer fc6
I0403 12:06:37.716258  8448 net.cpp:91] Creating Layer fc6
I0403 12:06:37.716275  8448 net.cpp:425] fc6 <- pool5
I0403 12:06:37.716298  8448 net.cpp:399] fc6 -> fc6
I0403 12:06:39.268762  8448 net.cpp:141] Setting up fc6
I0403 12:06:39.268805  8448 net.cpp:148] Top shape: 100 4096 (409600)
I0403 12:06:39.268821  8448 net.cpp:156] Memory required for data: 823334000
I0403 12:06:39.268842  8448 layer_factory.hpp:77] Creating layer relu6
I0403 12:06:39.268863  8448 net.cpp:91] Creating Layer relu6
I0403 12:06:39.268879  8448 net.cpp:425] relu6 <- fc6
I0403 12:06:39.268899  8448 net.cpp:386] relu6 -> fc6 (in-place)
I0403 12:06:39.269119  8448 net.cpp:141] Setting up relu6
I0403 12:06:39.269146  8448 net.cpp:148] Top shape: 100 4096 (409600)
I0403 12:06:39.269161  8448 net.cpp:156] Memory required for data: 824972400
I0403 12:06:39.269176  8448 layer_factory.hpp:77] Creating layer drop6
I0403 12:06:39.269192  8448 net.cpp:91] Creating Layer drop6
I0403 12:06:39.269207  8448 net.cpp:425] drop6 <- fc6
I0403 12:06:39.269223  8448 net.cpp:386] drop6 -> fc6 (in-place)
I0403 12:06:39.269281  8448 net.cpp:141] Setting up drop6
I0403 12:06:39.269304  8448 net.cpp:148] Top shape: 100 4096 (409600)
I0403 12:06:39.269318  8448 net.cpp:156] Memory required for data: 826610800
I0403 12:06:39.269332  8448 layer_factory.hpp:77] Creating layer fc7
I0403 12:06:39.269352  8448 net.cpp:91] Creating Layer fc7
I0403 12:06:39.269369  8448 net.cpp:425] fc7 <- fc6
I0403 12:06:39.269387  8448 net.cpp:399] fc7 -> fc7
I0403 12:06:39.956203  8448 net.cpp:141] Setting up fc7
I0403 12:06:39.956279  8448 net.cpp:148] Top shape: 100 4096 (409600)
I0403 12:06:39.956295  8448 net.cpp:156] Memory required for data: 828249200
I0403 12:06:39.956315  8448 layer_factory.hpp:77] Creating layer relu7
I0403 12:06:39.956341  8448 net.cpp:91] Creating Layer relu7
I0403 12:06:39.956358  8448 net.cpp:425] relu7 <- fc7
I0403 12:06:39.956377  8448 net.cpp:386] relu7 -> fc7 (in-place)
I0403 12:06:39.956787  8448 net.cpp:141] Setting up relu7
I0403 12:06:39.956814  8448 net.cpp:148] Top shape: 100 4096 (409600)
I0403 12:06:39.956869  8448 net.cpp:156] Memory required for data: 829887600
I0403 12:06:39.956886  8448 layer_factory.hpp:77] Creating layer drop7
I0403 12:06:39.956907  8448 net.cpp:91] Creating Layer drop7
I0403 12:06:39.956923  8448 net.cpp:425] drop7 <- fc7
I0403 12:06:39.956939  8448 net.cpp:386] drop7 -> fc7 (in-place)
I0403 12:06:39.956984  8448 net.cpp:141] Setting up drop7
I0403 12:06:39.957006  8448 net.cpp:148] Top shape: 100 4096 (409600)
I0403 12:06:39.957020  8448 net.cpp:156] Memory required for data: 831526000
I0403 12:06:39.957036  8448 layer_factory.hpp:77] Creating layer fc8_plantvillage
I0403 12:06:39.957054  8448 net.cpp:91] Creating Layer fc8_plantvillage
I0403 12:06:39.957069  8448 net.cpp:425] fc8_plantvillage <- fc7
I0403 12:06:39.957089  8448 net.cpp:399] fc8_plantvillage -> fc8_plantvillage
I0403 12:06:39.963866  8448 net.cpp:141] Setting up fc8_plantvillage
I0403 12:06:39.963897  8448 net.cpp:148] Top shape: 100 38 (3800)
I0403 12:06:39.963912  8448 net.cpp:156] Memory required for data: 831541200
I0403 12:06:39.963930  8448 layer_factory.hpp:77] Creating layer fc8_plantvillage_fc8_plantvillage_0_split
I0403 12:06:39.963950  8448 net.cpp:91] Creating Layer fc8_plantvillage_fc8_plantvillage_0_split
I0403 12:06:39.963965  8448 net.cpp:425] fc8_plantvillage_fc8_plantvillage_0_split <- fc8_plantvillage
I0403 12:06:39.963982  8448 net.cpp:399] fc8_plantvillage_fc8_plantvillage_0_split -> fc8_plantvillage_fc8_plantvillage_0_split_0
I0403 12:06:39.964001  8448 net.cpp:399] fc8_plantvillage_fc8_plantvillage_0_split -> fc8_plantvillage_fc8_plantvillage_0_split_1
I0403 12:06:39.964023  8448 net.cpp:399] fc8_plantvillage_fc8_plantvillage_0_split -> fc8_plantvillage_fc8_plantvillage_0_split_2
I0403 12:06:39.964103  8448 net.cpp:141] Setting up fc8_plantvillage_fc8_plantvillage_0_split
I0403 12:06:39.964128  8448 net.cpp:148] Top shape: 100 38 (3800)
I0403 12:06:39.964143  8448 net.cpp:148] Top shape: 100 38 (3800)
I0403 12:06:39.964159  8448 net.cpp:148] Top shape: 100 38 (3800)
I0403 12:06:39.964174  8448 net.cpp:156] Memory required for data: 831586800
I0403 12:06:39.964187  8448 layer_factory.hpp:77] Creating layer prob
I0403 12:06:39.964205  8448 net.cpp:91] Creating Layer prob
I0403 12:06:39.964221  8448 net.cpp:425] prob <- fc8_plantvillage_fc8_plantvillage_0_split_0
I0403 12:06:39.964237  8448 net.cpp:399] prob -> prob
I0403 12:06:39.964462  8448 net.cpp:141] Setting up prob
I0403 12:06:39.964489  8448 net.cpp:148] Top shape: 100 38 (3800)
I0403 12:06:39.964504  8448 net.cpp:156] Memory required for data: 831602000
I0403 12:06:39.964519  8448 layer_factory.hpp:77] Creating layer hdf5out
I0403 12:06:39.964567  8448 net.cpp:91] Creating Layer hdf5out
I0403 12:06:39.964588  8448 net.cpp:425] hdf5out <- prob
I0403 12:06:39.964607  8448 net.cpp:425] hdf5out <- label_data_1_split_0
I0403 12:06:39.966864  8448 net.cpp:141] Setting up hdf5out
…
