…
I0403 12:29:48.286876  8984 net.cpp:313] The NetState phase (1) differed from the phase (0) specified by a rule in layer data
I0403 12:29:48.287171  8984 net.cpp:49] Initializing net from parameters: 
state {
  phase: TEST
}
layer {
  name: "data"
  type: "Data"
  top: "data"
  top: "label"
  include {
    phase: TEST
  }
  transform_param {
    crop_size: 227
    mean_file: "/home/mohanty/data/final_dataset/lmdb/grayscale-20-80/mean.binaryproto"
  }
  data_param {
    source: "/home/mohanty/data/final_dataset/lmdb/grayscale-20-80/test_db"
    batch_size: 100
    backend: LMDB
  }
}
layer {
  name: "conv1"
  type: "Convolution"
  bottom: "data"
  top: "conv1"
  param {
    lr_mult: 1
    decay_mult: 1
  }
  param {
    lr_mult: 2
    decay_mult: 0
  }
  convolution_param {
    num_output: 96
    kernel_size: 11
    stride: 4
    weight_filler {
      type: "gaussian"
      std: 0.01
    }
    bias_filler {
      type: "constant"
      value: 0
    }
  }
}
layer {
  name: "relu1"
  type: "ReLU"
  bottom: "conv1"
  top: "conv1"
}
layer {
  name: "norm1"
  type: "LRN"
  bottom: "conv1"
  top: "norm1"
  lrn_param {
    local_size: 5
    alpha: 0.0001
    beta: 0.75
  }
}
layer {
  name: "pool1"
  type: "Pooling"
  bottom: "norm1"
  top: "pool1"
  pooling_param {
    pool: MAX
    kernel_size: 3
    stride: 2
  }
}
layer {
  name: "conv2"
  type: "Convolution"
  bottom: "pool1"
  top: "conv2"
  param {
    lr_mult: 1
    decay_mult: 1
  }
  param {
    lr_mult: 2
    decay_mult: 0
  }
  convolution_param {
    num_output: 256
    pad: 2
    kernel_size: 5
    group: 2
    weight_filler {
      type: "gaussian"
      std: 0.01
    }
    bias_filler {
      type: "constant"
      value: 0.1
    }
  }
}
layer {
  name: "relu2"
  type: "ReLU"
  bottom: "conv2"
  top: "conv2"
}
layer {
  name: "norm2"
  type: "LRN"
  bottom: "conv2"
  top: "norm2"
  lrn_param {
    local_size: 5
    alpha: 0.0001
    beta: 0.75
  }
}
layer {
  name: "pool2"
  type: "Pooling"
  bottom: "norm2"
  top: "pool2"
  pooling_param {
    pool: MAX
    kernel_size: 3
    stride: 2
  }
}
layer {
  name: "conv3"
  type: "Convolution"
  bottom: "pool2"
  top: "conv3"
  param {
    lr_mult: 1
    decay_mult: 1
  }
  param {
    lr_mult: 2
    decay_mult: 0
  }
  convolution_param {
    num_output: 384
    pad: 1
    kernel_size: 3
    weight_filler {
      type: "gaussian"
      std: 0.01
    }
    bias_filler {
      type: "constant"
      value: 0
    }
  }
}
layer {
  name: "relu3"
  type: "ReLU"
  bottom: "conv3"
  top: "conv3"
}
layer {
  name: "conv4"
  type: "Convolution"
  bottom: "conv3"
  top: "conv4"
  param {
    lr_mult: 1
    decay_mult: 1
  }
  param {
    lr_mult: 2
    decay_mult: 0
  }
  convolution_param {
    num_output: 384
    pad: 1
    kernel_size: 3
    group: 2
    weight_filler {
      type: "gaussian"
      std: 0.01
    }
    bias_filler {
      type: "constant"
      value: 0.1
    }
  }
}
layer {
  name: "relu4"
  type: "ReLU"
  bottom: "conv4"
  top: "conv4"
}
layer {
  name: "conv5"
  type: "Convolution"
  bottom: "conv4"
  top: "conv5"
  param {
    lr_mult: 1
    decay_mult: 1
  }
  param {
    lr_mult: 2
    decay_mult: 0
  }
  convolution_param {
    num_output: 256
    pad: 1
    kernel_size: 3
    group: 2
    weight_filler {
      type: "gaussian"
      std: 0.01
    }
    bias_filler {
      type: "constant"
      value: 0.1
    }
  }
}
layer {
  name: "relu5"
  type: "ReLU"
  bottom: "conv5"
  top: "conv5"
}
layer {
  name: "pool5"
  type: "Pooling"
  bottom: "conv5"
  top: "pool5"
  pooling_param {
    pool: MAX
    kernel_size: 3
    stride: 2
  }
}
layer {
  name: "fc6"
  type: "InnerProduct"
  bottom: "pool5"
  top: "fc6"
  param {
    lr_mult: 1
    decay_mult: 1
  }
  param {
    lr_mult: 2
    decay_mult: 0
  }
  inner_product_param {
    num_output: 4096
    weight_filler {
      type: "gaussian"
      std: 0.005
    }
    bias_filler {
      type: "constant"
      value: 0.1
    }
  }
}
layer {
  name: "relu6"
  type: "ReLU"
  bottom: "fc6"
  top: "fc6"
}
layer {
  name: "drop6"
  type: "Dropout"
  bottom: "fc6"
  top: "fc6"
  dropout_param {
    dropout_ratio: 0.5
  }
}
layer {
  name: "fc7"
  type: "InnerProduct"
  bottom: "fc6"
  top: "fc7"
  param {
    lr_mult: 1
    decay_mult: 1
  }
  param {
    lr_mult: 2
    decay_mult: 0
  }
  inner_product_param {
    num_output: 4096
    weight_filler {
      type: "gaussian"
      std: 0.005
    }
    bias_filler {
      type: "constant"
      value: 0.1
    }
  }
}
layer {
  name: "relu7"
  type: "ReLU"
  bottom: "fc7"
  top: "fc7"
}
layer {
  name: "drop7"
  type: "Dropout"
  bottom: "fc7"
  top: "fc7"
  dropout_param {
    dropout_ratio: 0.5
  }
}
layer {
  name: "fc8_plantvillage"
  type: "InnerProduct"
  bottom: "fc7"
  top: "fc8_plantvillage"
  param {
    lr_mult: 1
    decay_mult: 1
  }
  param {
    lr_mult: 2
    decay_mult: 0
  }
  inner_product_param {
    num_output: 38
    weight_filler {
      type: "gaussian"
      std: 0.01
    }
    bias_filler {
      type: "constant"
      value: 0
    }
  }
}
layer {
  name: "prob"
  type: "Softmax"
  bottom: "fc8_plantvillage"
  top: "prob"
  include {
    phase: TEST
  }
}
layer {
  name: "hdf5out"
  type: "HDF5Output"
  bottom: "prob"
  bottom: "label"
  include {
    phase: TEST
  }
  hdf5_output_param {
    file_name: "hdf5_dumps/iter_2100.h5"
  }
}
layer {
  name: "loss"
  type: "SoftmaxWithLoss"
  bottom: "fc8_plantvillage"
  bottom: "label"
  top: "loss"
}
layer {
  name: "accuracy"
  type: "Accuracy"
  bottom: "fc8_plantvillage"
  bottom: "label"
  top: "accuracy"
  include {
    phase: TEST
  }
}
I0403 12:29:48.287713  8984 layer_factory.hpp:77] Creating layer data
I0403 12:29:48.288353  8984 net.cpp:91] Creating Layer data
I0403 12:29:48.288386  8984 net.cpp:399] data -> data
I0403 12:29:48.288436  8984 net.cpp:399] data -> label
I0403 12:29:48.288471  8984 data_transformer.cpp:25] Loading mean file from: /home/mohanty/data/final_dataset/lmdb/grayscale-20-80/mean.binaryproto
I0403 12:29:48.291813  8989 db_lmdb.cpp:38] Opened lmdb /home/mohanty/data/final_dataset/lmdb/grayscale-20-80/test_db
I0403 12:29:48.302219  8984 data_layer.cpp:41] output data size: 100,3,227,227
I0403 12:29:48.419731  8984 net.cpp:141] Setting up data
I0403 12:29:48.419821  8984 net.cpp:148] Top shape: 100 3 227 227 (15458700)
I0403 12:29:48.419842  8984 net.cpp:148] Top shape: 100 (100)
I0403 12:29:48.419857  8984 net.cpp:156] Memory required for data: 61835200
I0403 12:29:48.419883  8984 layer_factory.hpp:77] Creating layer label_data_1_split
I0403 12:29:48.419908  8984 net.cpp:91] Creating Layer label_data_1_split
I0403 12:29:48.419924  8984 net.cpp:425] label_data_1_split <- label
I0403 12:29:48.419955  8984 net.cpp:399] label_data_1_split -> label_data_1_split_0
I0403 12:29:48.419982  8984 net.cpp:399] label_data_1_split -> label_data_1_split_1
I0403 12:29:48.420002  8984 net.cpp:399] label_data_1_split -> label_data_1_split_2
I0403 12:29:48.420063  8984 net.cpp:141] Setting up label_data_1_split
I0403 12:29:48.420084  8984 net.cpp:148] Top shape: 100 (100)
I0403 12:29:48.420099  8984 net.cpp:148] Top shape: 100 (100)
I0403 12:29:48.420114  8984 net.cpp:148] Top shape: 100 (100)
I0403 12:29:48.420127  8984 net.cpp:156] Memory required for data: 61836400
I0403 12:29:48.420141  8984 layer_factory.hpp:77] Creating layer conv1
I0403 12:29:48.420171  8984 net.cpp:91] Creating Layer conv1
I0403 12:29:48.420188  8984 net.cpp:425] conv1 <- data
I0403 12:29:48.420207  8984 net.cpp:399] conv1 -> conv1
I0403 12:29:48.559651  8984 net.cpp:141] Setting up conv1
I0403 12:29:48.559728  8984 net.cpp:148] Top shape: 100 96 55 55 (29040000)
I0403 12:29:48.559746  8984 net.cpp:156] Memory required for data: 177996400
I0403 12:29:48.559777  8984 layer_factory.hpp:77] Creating layer relu1
I0403 12:29:48.559804  8984 net.cpp:91] Creating Layer relu1
I0403 12:29:48.559823  8984 net.cpp:425] relu1 <- conv1
I0403 12:29:48.559841  8984 net.cpp:386] relu1 -> conv1 (in-place)
I0403 12:29:48.560097  8984 net.cpp:141] Setting up relu1
I0403 12:29:48.560125  8984 net.cpp:148] Top shape: 100 96 55 55 (29040000)
I0403 12:29:48.560178  8984 net.cpp:156] Memory required for data: 294156400
I0403 12:29:48.560202  8984 layer_factory.hpp:77] Creating layer norm1
I0403 12:29:48.560228  8984 net.cpp:91] Creating Layer norm1
I0403 12:29:48.560247  8984 net.cpp:425] norm1 <- conv1
I0403 12:29:48.560266  8984 net.cpp:399] norm1 -> norm1
I0403 12:29:48.560592  8984 net.cpp:141] Setting up norm1
I0403 12:29:48.560621  8984 net.cpp:148] Top shape: 100 96 55 55 (29040000)
I0403 12:29:48.560637  8984 net.cpp:156] Memory required for data: 410316400
I0403 12:29:48.560652  8984 layer_factory.hpp:77] Creating layer pool1
I0403 12:29:48.560674  8984 net.cpp:91] Creating Layer pool1
I0403 12:29:48.560691  8984 net.cpp:425] pool1 <- norm1
I0403 12:29:48.560709  8984 net.cpp:399] pool1 -> pool1
I0403 12:29:48.560777  8984 net.cpp:141] Setting up pool1
I0403 12:29:48.560801  8984 net.cpp:148] Top shape: 100 96 27 27 (6998400)
I0403 12:29:48.560837  8984 net.cpp:156] Memory required for data: 438310000
I0403 12:29:48.560858  8984 layer_factory.hpp:77] Creating layer conv2
I0403 12:29:48.560883  8984 net.cpp:91] Creating Layer conv2
I0403 12:29:48.560899  8984 net.cpp:425] conv2 <- pool1
I0403 12:29:48.560915  8984 net.cpp:399] conv2 -> conv2
I0403 12:29:48.576005  8984 net.cpp:141] Setting up conv2
I0403 12:29:48.576058  8984 net.cpp:148] Top shape: 100 256 27 27 (18662400)
I0403 12:29:48.576074  8984 net.cpp:156] Memory required for data: 512959600
I0403 12:29:48.576097  8984 layer_factory.hpp:77] Creating layer relu2
I0403 12:29:48.576118  8984 net.cpp:91] Creating Layer relu2
I0403 12:29:48.576134  8984 net.cpp:425] relu2 <- conv2
I0403 12:29:48.576153  8984 net.cpp:386] relu2 -> conv2 (in-place)
I0403 12:29:48.576468  8984 net.cpp:141] Setting up relu2
I0403 12:29:48.576496  8984 net.cpp:148] Top shape: 100 256 27 27 (18662400)
I0403 12:29:48.576511  8984 net.cpp:156] Memory required for data: 587609200
I0403 12:29:48.576526  8984 layer_factory.hpp:77] Creating layer norm2
I0403 12:29:48.576565  8984 net.cpp:91] Creating Layer norm2
I0403 12:29:48.576581  8984 net.cpp:425] norm2 <- conv2
I0403 12:29:48.576601  8984 net.cpp:399] norm2 -> norm2
I0403 12:29:48.576800  8984 net.cpp:141] Setting up norm2
I0403 12:29:48.576827  8984 net.cpp:148] Top shape: 100 256 27 27 (18662400)
I0403 12:29:48.576841  8984 net.cpp:156] Memory required for data: 662258800
I0403 12:29:48.576855  8984 layer_factory.hpp:77] Creating layer pool2
I0403 12:29:48.576877  8984 net.cpp:91] Creating Layer pool2
I0403 12:29:48.576894  8984 net.cpp:425] pool2 <- norm2
I0403 12:29:48.576911  8984 net.cpp:399] pool2 -> pool2
I0403 12:29:48.576963  8984 net.cpp:141] Setting up pool2
I0403 12:29:48.576987  8984 net.cpp:148] Top shape: 100 256 13 13 (4326400)
I0403 12:29:48.577002  8984 net.cpp:156] Memory required for data: 679564400
I0403 12:29:48.577015  8984 layer_factory.hpp:77] Creating layer conv3
I0403 12:29:48.577039  8984 net.cpp:91] Creating Layer conv3
I0403 12:29:48.577057  8984 net.cpp:425] conv3 <- pool2
I0403 12:29:48.577077  8984 net.cpp:399] conv3 -> conv3
I0403 12:29:48.615633  8984 net.cpp:141] Setting up conv3
I0403 12:29:48.615702  8984 net.cpp:148] Top shape: 100 384 13 13 (6489600)
I0403 12:29:48.615720  8984 net.cpp:156] Memory required for data: 705522800
I0403 12:29:48.615744  8984 layer_factory.hpp:77] Creating layer relu3
I0403 12:29:48.615769  8984 net.cpp:91] Creating Layer relu3
I0403 12:29:48.615787  8984 net.cpp:425] relu3 <- conv3
I0403 12:29:48.615805  8984 net.cpp:386] relu3 -> conv3 (in-place)
I0403 12:29:48.616091  8984 net.cpp:141] Setting up relu3
I0403 12:29:48.616118  8984 net.cpp:148] Top shape: 100 384 13 13 (6489600)
I0403 12:29:48.616133  8984 net.cpp:156] Memory required for data: 731481200
I0403 12:29:48.616148  8984 layer_factory.hpp:77] Creating layer conv4
I0403 12:29:48.616174  8984 net.cpp:91] Creating Layer conv4
I0403 12:29:48.616191  8984 net.cpp:425] conv4 <- conv3
I0403 12:29:48.616211  8984 net.cpp:399] conv4 -> conv4
I0403 12:29:48.646178  8984 net.cpp:141] Setting up conv4
I0403 12:29:48.646246  8984 net.cpp:148] Top shape: 100 384 13 13 (6489600)
I0403 12:29:48.646306  8984 net.cpp:156] Memory required for data: 757439600
I0403 12:29:48.646328  8984 layer_factory.hpp:77] Creating layer relu4
I0403 12:29:48.646350  8984 net.cpp:91] Creating Layer relu4
I0403 12:29:48.646368  8984 net.cpp:425] relu4 <- conv4
I0403 12:29:48.646390  8984 net.cpp:386] relu4 -> conv4 (in-place)
I0403 12:29:48.646720  8984 net.cpp:141] Setting up relu4
I0403 12:29:48.646747  8984 net.cpp:148] Top shape: 100 384 13 13 (6489600)
I0403 12:29:48.646764  8984 net.cpp:156] Memory required for data: 783398000
I0403 12:29:48.646778  8984 layer_factory.hpp:77] Creating layer conv5
I0403 12:29:48.646805  8984 net.cpp:91] Creating Layer conv5
I0403 12:29:48.646822  8984 net.cpp:425] conv5 <- conv4
I0403 12:29:48.646843  8984 net.cpp:399] conv5 -> conv5
I0403 12:29:48.668002  8984 net.cpp:141] Setting up conv5
I0403 12:29:48.668059  8984 net.cpp:148] Top shape: 100 256 13 13 (4326400)
I0403 12:29:48.668077  8984 net.cpp:156] Memory required for data: 800703600
I0403 12:29:48.668102  8984 layer_factory.hpp:77] Creating layer relu5
I0403 12:29:48.668126  8984 net.cpp:91] Creating Layer relu5
I0403 12:29:48.668145  8984 net.cpp:425] relu5 <- conv5
I0403 12:29:48.668164  8984 net.cpp:386] relu5 -> conv5 (in-place)
I0403 12:29:48.668467  8984 net.cpp:141] Setting up relu5
I0403 12:29:48.668494  8984 net.cpp:148] Top shape: 100 256 13 13 (4326400)
I0403 12:29:48.668509  8984 net.cpp:156] Memory required for data: 818009200
I0403 12:29:48.668525  8984 layer_factory.hpp:77] Creating layer pool5
I0403 12:29:48.668555  8984 net.cpp:91] Creating Layer pool5
I0403 12:29:48.668575  8984 net.cpp:425] pool5 <- conv5
I0403 12:29:48.668606  8984 net.cpp:399] pool5 -> pool5
I0403 12:29:48.668668  8984 net.cpp:141] Setting up pool5
I0403 12:29:48.668691  8984 net.cpp:148] Top shape: 100 256 6 6 (921600)
I0403 12:29:48.668706  8984 net.cpp:156] Memory required for data: 821695600
I0403 12:29:48.668721  8984 layer_factory.hpp:77] Creating layer fc6
I0403 12:29:48.668750  8984 net.cpp:91] Creating Layer fc6
I0403 12:29:48.668767  8984 net.cpp:425] fc6 <- pool5
I0403 12:29:48.668786  8984 net.cpp:399] fc6 -> fc6
I0403 12:29:50.229221  8984 net.cpp:141] Setting up fc6
I0403 12:29:50.229279  8984 net.cpp:148] Top shape: 100 4096 (409600)
I0403 12:29:50.229295  8984 net.cpp:156] Memory required for data: 823334000
I0403 12:29:50.229315  8984 layer_factory.hpp:77] Creating layer relu6
I0403 12:29:50.229336  8984 net.cpp:91] Creating Layer relu6
I0403 12:29:50.229353  8984 net.cpp:425] relu6 <- fc6
I0403 12:29:50.229374  8984 net.cpp:386] relu6 -> fc6 (in-place)
I0403 12:29:50.229605  8984 net.cpp:141] Setting up relu6
I0403 12:29:50.229630  8984 net.cpp:148] Top shape: 100 4096 (409600)
I0403 12:29:50.229645  8984 net.cpp:156] Memory required for data: 824972400
I0403 12:29:50.229660  8984 layer_factory.hpp:77] Creating layer drop6
I0403 12:29:50.229681  8984 net.cpp:91] Creating Layer drop6
I0403 12:29:50.229696  8984 net.cpp:425] drop6 <- fc6
I0403 12:29:50.229714  8984 net.cpp:386] drop6 -> fc6 (in-place)
I0403 12:29:50.229763  8984 net.cpp:141] Setting up drop6
I0403 12:29:50.229789  8984 net.cpp:148] Top shape: 100 4096 (409600)
I0403 12:29:50.229804  8984 net.cpp:156] Memory required for data: 826610800
I0403 12:29:50.229818  8984 layer_factory.hpp:77] Creating layer fc7
I0403 12:29:50.229838  8984 net.cpp:91] Creating Layer fc7
I0403 12:29:50.229853  8984 net.cpp:425] fc7 <- fc6
I0403 12:29:50.229872  8984 net.cpp:399] fc7 -> fc7
I0403 12:29:50.913697  8984 net.cpp:141] Setting up fc7
I0403 12:29:50.913775  8984 net.cpp:148] Top shape: 100 4096 (409600)
I0403 12:29:50.913791  8984 net.cpp:156] Memory required for data: 828249200
I0403 12:29:50.913811  8984 layer_factory.hpp:77] Creating layer relu7
I0403 12:29:50.913835  8984 net.cpp:91] Creating Layer relu7
I0403 12:29:50.913851  8984 net.cpp:425] relu7 <- fc7
I0403 12:29:50.913872  8984 net.cpp:386] relu7 -> fc7 (in-place)
I0403 12:29:50.914283  8984 net.cpp:141] Setting up relu7
I0403 12:29:50.914309  8984 net.cpp:148] Top shape: 100 4096 (409600)
I0403 12:29:50.914362  8984 net.cpp:156] Memory required for data: 829887600
I0403 12:29:50.914378  8984 layer_factory.hpp:77] Creating layer drop7
I0403 12:29:50.914397  8984 net.cpp:91] Creating Layer drop7
I0403 12:29:50.914412  8984 net.cpp:425] drop7 <- fc7
I0403 12:29:50.914432  8984 net.cpp:386] drop7 -> fc7 (in-place)
I0403 12:29:50.914475  8984 net.cpp:141] Setting up drop7
I0403 12:29:50.914500  8984 net.cpp:148] Top shape: 100 4096 (409600)
I0403 12:29:50.914513  8984 net.cpp:156] Memory required for data: 831526000
I0403 12:29:50.914527  8984 layer_factory.hpp:77] Creating layer fc8_plantvillage
I0403 12:29:50.914559  8984 net.cpp:91] Creating Layer fc8_plantvillage
I0403 12:29:50.914577  8984 net.cpp:425] fc8_plantvillage <- fc7
I0403 12:29:50.914598  8984 net.cpp:399] fc8_plantvillage -> fc8_plantvillage
I0403 12:29:50.921324  8984 net.cpp:141] Setting up fc8_plantvillage
I0403 12:29:50.921355  8984 net.cpp:148] Top shape: 100 38 (3800)
I0403 12:29:50.921370  8984 net.cpp:156] Memory required for data: 831541200
I0403 12:29:50.921388  8984 layer_factory.hpp:77] Creating layer fc8_plantvillage_fc8_plantvillage_0_split
I0403 12:29:50.921409  8984 net.cpp:91] Creating Layer fc8_plantvillage_fc8_plantvillage_0_split
I0403 12:29:50.921424  8984 net.cpp:425] fc8_plantvillage_fc8_plantvillage_0_split <- fc8_plantvillage
I0403 12:29:50.921442  8984 net.cpp:399] fc8_plantvillage_fc8_plantvillage_0_split -> fc8_plantvillage_fc8_plantvillage_0_split_0
I0403 12:29:50.921463  8984 net.cpp:399] fc8_plantvillage_fc8_plantvillage_0_split -> fc8_plantvillage_fc8_plantvillage_0_split_1
I0403 12:29:50.921483  8984 net.cpp:399] fc8_plantvillage_fc8_plantvillage_0_split -> fc8_plantvillage_fc8_plantvillage_0_split_2
I0403 12:29:50.921568  8984 net.cpp:141] Setting up fc8_plantvillage_fc8_plantvillage_0_split
I0403 12:29:50.921593  8984 net.cpp:148] Top shape: 100 38 (3800)
I0403 12:29:50.921608  8984 net.cpp:148] Top shape: 100 38 (3800)
I0403 12:29:50.921623  8984 net.cpp:148] Top shape: 100 38 (3800)
I0403 12:29:50.921638  8984 net.cpp:156] Memory required for data: 831586800
I0403 12:29:50.921651  8984 layer_factory.hpp:77] Creating layer prob
I0403 12:29:50.921669  8984 net.cpp:91] Creating Layer prob
I0403 12:29:50.921684  8984 net.cpp:425] prob <- fc8_plantvillage_fc8_plantvillage_0_split_0
I0403 12:29:50.921701  8984 net.cpp:399] prob -> prob
I0403 12:29:50.921922  8984 net.cpp:141] Setting up prob
I0403 12:29:50.921947  8984 net.cpp:148] Top shape: 100 38 (3800)
I0403 12:29:50.921962  8984 net.cpp:156] Memory required for data: 831602000
I0403 12:29:50.921975  8984 layer_factory.hpp:77] Creating layer hdf5out
I0403 12:29:50.921994  8984 net.cpp:91] Creating Layer hdf5out
I0403 12:29:50.922009  8984 net.cpp:425] hdf5out <- prob
I0403 12:29:50.922026  8984 net.cpp:425] hdf5out <- label_data_1_split_0
I0403 12:29:51.064117  8984 net.cpp:141] Setting up hdf5out
…
