…
I0403 12:26:54.955034  8920 net.cpp:313] The NetState phase (1) differed from the phase (0) specified by a rule in layer data
I0403 12:26:54.955344  8920 net.cpp:49] Initializing net from parameters: 
state {
  phase: TEST
}
layer {
  name: "data"
  type: "Data"
  top: "data"
  top: "label"
  include {
    phase: TEST
  }
  transform_param {
    crop_size: 227
    mean_file: "/home/mohanty/data/final_dataset/lmdb/grayscale-20-80/mean.binaryproto"
  }
  data_param {
    source: "/home/mohanty/data/final_dataset/lmdb/grayscale-20-80/test_db"
    batch_size: 100
    backend: LMDB
  }
}
layer {
  name: "conv1"
  type: "Convolution"
  bottom: "data"
  top: "conv1"
  param {
    lr_mult: 1
    decay_mult: 1
  }
  param {
    lr_mult: 2
    decay_mult: 0
  }
  convolution_param {
    num_output: 96
    kernel_size: 11
    stride: 4
    weight_filler {
      type: "gaussian"
      std: 0.01
    }
    bias_filler {
      type: "constant"
      value: 0
    }
  }
}
layer {
  name: "relu1"
  type: "ReLU"
  bottom: "conv1"
  top: "conv1"
}
layer {
  name: "norm1"
  type: "LRN"
  bottom: "conv1"
  top: "norm1"
  lrn_param {
    local_size: 5
    alpha: 0.0001
    beta: 0.75
  }
}
layer {
  name: "pool1"
  type: "Pooling"
  bottom: "norm1"
  top: "pool1"
  pooling_param {
    pool: MAX
    kernel_size: 3
    stride: 2
  }
}
layer {
  name: "conv2"
  type: "Convolution"
  bottom: "pool1"
  top: "conv2"
  param {
    lr_mult: 1
    decay_mult: 1
  }
  param {
    lr_mult: 2
    decay_mult: 0
  }
  convolution_param {
    num_output: 256
    pad: 2
    kernel_size: 5
    group: 2
    weight_filler {
      type: "gaussian"
      std: 0.01
    }
    bias_filler {
      type: "constant"
      value: 0.1
    }
  }
}
layer {
  name: "relu2"
  type: "ReLU"
  bottom: "conv2"
  top: "conv2"
}
layer {
  name: "norm2"
  type: "LRN"
  bottom: "conv2"
  top: "norm2"
  lrn_param {
    local_size: 5
    alpha: 0.0001
    beta: 0.75
  }
}
layer {
  name: "pool2"
  type: "Pooling"
  bottom: "norm2"
  top: "pool2"
  pooling_param {
    pool: MAX
    kernel_size: 3
    stride: 2
  }
}
layer {
  name: "conv3"
  type: "Convolution"
  bottom: "pool2"
  top: "conv3"
  param {
    lr_mult: 1
    decay_mult: 1
  }
  param {
    lr_mult: 2
    decay_mult: 0
  }
  convolution_param {
    num_output: 384
    pad: 1
    kernel_size: 3
    weight_filler {
      type: "gaussian"
      std: 0.01
    }
    bias_filler {
      type: "constant"
      value: 0
    }
  }
}
layer {
  name: "relu3"
  type: "ReLU"
  bottom: "conv3"
  top: "conv3"
}
layer {
  name: "conv4"
  type: "Convolution"
  bottom: "conv3"
  top: "conv4"
  param {
    lr_mult: 1
    decay_mult: 1
  }
  param {
    lr_mult: 2
    decay_mult: 0
  }
  convolution_param {
    num_output: 384
    pad: 1
    kernel_size: 3
    group: 2
    weight_filler {
      type: "gaussian"
      std: 0.01
    }
    bias_filler {
      type: "constant"
      value: 0.1
    }
  }
}
layer {
  name: "relu4"
  type: "ReLU"
  bottom: "conv4"
  top: "conv4"
}
layer {
  name: "conv5"
  type: "Convolution"
  bottom: "conv4"
  top: "conv5"
  param {
    lr_mult: 1
    decay_mult: 1
  }
  param {
    lr_mult: 2
    decay_mult: 0
  }
  convolution_param {
    num_output: 256
    pad: 1
    kernel_size: 3
    group: 2
    weight_filler {
      type: "gaussian"
      std: 0.01
    }
    bias_filler {
      type: "constant"
      value: 0.1
    }
  }
}
layer {
  name: "relu5"
  type: "ReLU"
  bottom: "conv5"
  top: "conv5"
}
layer {
  name: "pool5"
  type: "Pooling"
  bottom: "conv5"
  top: "pool5"
  pooling_param {
    pool: MAX
    kernel_size: 3
    stride: 2
  }
}
layer {
  name: "fc6"
  type: "InnerProduct"
  bottom: "pool5"
  top: "fc6"
  param {
    lr_mult: 1
    decay_mult: 1
  }
  param {
    lr_mult: 2
    decay_mult: 0
  }
  inner_product_param {
    num_output: 4096
    weight_filler {
      type: "gaussian"
      std: 0.005
    }
    bias_filler {
      type: "constant"
      value: 0.1
    }
  }
}
layer {
  name: "relu6"
  type: "ReLU"
  bottom: "fc6"
  top: "fc6"
}
layer {
  name: "drop6"
  type: "Dropout"
  bottom: "fc6"
  top: "fc6"
  dropout_param {
    dropout_ratio: 0.5
  }
}
layer {
  name: "fc7"
  type: "InnerProduct"
  bottom: "fc6"
  top: "fc7"
  param {
    lr_mult: 1
    decay_mult: 1
  }
  param {
    lr_mult: 2
    decay_mult: 0
  }
  inner_product_param {
    num_output: 4096
    weight_filler {
      type: "gaussian"
      std: 0.005
    }
    bias_filler {
      type: "constant"
      value: 0.1
    }
  }
}
layer {
  name: "relu7"
  type: "ReLU"
  bottom: "fc7"
  top: "fc7"
}
layer {
  name: "drop7"
  type: "Dropout"
  bottom: "fc7"
  top: "fc7"
  dropout_param {
    dropout_ratio: 0.5
  }
}
layer {
  name: "fc8_plantvillage"
  type: "InnerProduct"
  bottom: "fc7"
  top: "fc8_plantvillage"
  param {
    lr_mult: 1
    decay_mult: 1
  }
  param {
    lr_mult: 2
    decay_mult: 0
  }
  inner_product_param {
    num_output: 38
    weight_filler {
      type: "gaussian"
      std: 0.01
    }
    bias_filler {
      type: "constant"
      value: 0
    }
  }
}
layer {
  name: "prob"
  type: "Softmax"
  bottom: "fc8_plantvillage"
  top: "prob"
  include {
    phase: TEST
  }
}
layer {
  name: "hdf5out"
  type: "HDF5Output"
  bottom: "prob"
  bottom: "label"
  include {
    phase: TEST
  }
  hdf5_output_param {
    file_name: "hdf5_dumps/iter_1890.h5"
  }
}
layer {
  name: "loss"
  type: "SoftmaxWithLoss"
  bottom: "fc8_plantvillage"
  bottom: "label"
  top: "loss"
}
layer {
  name: "accuracy"
  type: "Accuracy"
  bottom: "fc8_plantvillage"
  bottom: "label"
  top: "accuracy"
  include {
    phase: TEST
  }
}
I0403 12:26:54.955929  8920 layer_factory.hpp:77] Creating layer data
I0403 12:26:54.956599  8920 net.cpp:91] Creating Layer data
I0403 12:26:54.956632  8920 net.cpp:399] data -> data
I0403 12:26:54.956683  8920 net.cpp:399] data -> label
I0403 12:26:54.956719  8920 data_transformer.cpp:25] Loading mean file from: /home/mohanty/data/final_dataset/lmdb/grayscale-20-80/mean.binaryproto
I0403 12:26:54.959717  8923 db_lmdb.cpp:38] Opened lmdb /home/mohanty/data/final_dataset/lmdb/grayscale-20-80/test_db
I0403 12:26:54.970737  8920 data_layer.cpp:41] output data size: 100,3,227,227
I0403 12:26:55.088646  8920 net.cpp:141] Setting up data
I0403 12:26:55.088742  8920 net.cpp:148] Top shape: 100 3 227 227 (15458700)
I0403 12:26:55.088764  8920 net.cpp:148] Top shape: 100 (100)
I0403 12:26:55.088779  8920 net.cpp:156] Memory required for data: 61835200
I0403 12:26:55.088806  8920 layer_factory.hpp:77] Creating layer label_data_1_split
I0403 12:26:55.088831  8920 net.cpp:91] Creating Layer label_data_1_split
I0403 12:26:55.088847  8920 net.cpp:425] label_data_1_split <- label
I0403 12:26:55.088878  8920 net.cpp:399] label_data_1_split -> label_data_1_split_0
I0403 12:26:55.088907  8920 net.cpp:399] label_data_1_split -> label_data_1_split_1
I0403 12:26:55.088925  8920 net.cpp:399] label_data_1_split -> label_data_1_split_2
I0403 12:26:55.088986  8920 net.cpp:141] Setting up label_data_1_split
I0403 12:26:55.089009  8920 net.cpp:148] Top shape: 100 (100)
I0403 12:26:55.089023  8920 net.cpp:148] Top shape: 100 (100)
I0403 12:26:55.089038  8920 net.cpp:148] Top shape: 100 (100)
I0403 12:26:55.089051  8920 net.cpp:156] Memory required for data: 61836400
I0403 12:26:55.089066  8920 layer_factory.hpp:77] Creating layer conv1
I0403 12:26:55.089097  8920 net.cpp:91] Creating Layer conv1
I0403 12:26:55.089113  8920 net.cpp:425] conv1 <- data
I0403 12:26:55.089131  8920 net.cpp:399] conv1 -> conv1
I0403 12:26:55.226368  8920 net.cpp:141] Setting up conv1
I0403 12:26:55.226444  8920 net.cpp:148] Top shape: 100 96 55 55 (29040000)
I0403 12:26:55.226461  8920 net.cpp:156] Memory required for data: 177996400
I0403 12:26:55.226492  8920 layer_factory.hpp:77] Creating layer relu1
I0403 12:26:55.226519  8920 net.cpp:91] Creating Layer relu1
I0403 12:26:55.226541  8920 net.cpp:425] relu1 <- conv1
I0403 12:26:55.226562  8920 net.cpp:386] relu1 -> conv1 (in-place)
I0403 12:26:55.226824  8920 net.cpp:141] Setting up relu1
I0403 12:26:55.226850  8920 net.cpp:148] Top shape: 100 96 55 55 (29040000)
I0403 12:26:55.226909  8920 net.cpp:156] Memory required for data: 294156400
I0403 12:26:55.226925  8920 layer_factory.hpp:77] Creating layer norm1
I0403 12:26:55.226953  8920 net.cpp:91] Creating Layer norm1
I0403 12:26:55.226970  8920 net.cpp:425] norm1 <- conv1
I0403 12:26:55.226987  8920 net.cpp:399] norm1 -> norm1
I0403 12:26:55.227289  8920 net.cpp:141] Setting up norm1
I0403 12:26:55.227330  8920 net.cpp:148] Top shape: 100 96 55 55 (29040000)
I0403 12:26:55.227346  8920 net.cpp:156] Memory required for data: 410316400
I0403 12:26:55.227361  8920 layer_factory.hpp:77] Creating layer pool1
I0403 12:26:55.227385  8920 net.cpp:91] Creating Layer pool1
I0403 12:26:55.227401  8920 net.cpp:425] pool1 <- norm1
I0403 12:26:55.227419  8920 net.cpp:399] pool1 -> pool1
I0403 12:26:55.227484  8920 net.cpp:141] Setting up pool1
I0403 12:26:55.227509  8920 net.cpp:148] Top shape: 100 96 27 27 (6998400)
I0403 12:26:55.227522  8920 net.cpp:156] Memory required for data: 438310000
I0403 12:26:55.227541  8920 layer_factory.hpp:77] Creating layer conv2
I0403 12:26:55.227567  8920 net.cpp:91] Creating Layer conv2
I0403 12:26:55.227584  8920 net.cpp:425] conv2 <- pool1
I0403 12:26:55.227603  8920 net.cpp:399] conv2 -> conv2
I0403 12:26:55.242380  8920 net.cpp:141] Setting up conv2
I0403 12:26:55.242432  8920 net.cpp:148] Top shape: 100 256 27 27 (18662400)
I0403 12:26:55.242447  8920 net.cpp:156] Memory required for data: 512959600
I0403 12:26:55.242470  8920 layer_factory.hpp:77] Creating layer relu2
I0403 12:26:55.242489  8920 net.cpp:91] Creating Layer relu2
I0403 12:26:55.242506  8920 net.cpp:425] relu2 <- conv2
I0403 12:26:55.242525  8920 net.cpp:386] relu2 -> conv2 (in-place)
I0403 12:26:55.242804  8920 net.cpp:141] Setting up relu2
I0403 12:26:55.242830  8920 net.cpp:148] Top shape: 100 256 27 27 (18662400)
I0403 12:26:55.242844  8920 net.cpp:156] Memory required for data: 587609200
I0403 12:26:55.242859  8920 layer_factory.hpp:77] Creating layer norm2
I0403 12:26:55.242892  8920 net.cpp:91] Creating Layer norm2
I0403 12:26:55.242908  8920 net.cpp:425] norm2 <- conv2
I0403 12:26:55.242925  8920 net.cpp:399] norm2 -> norm2
I0403 12:26:55.243121  8920 net.cpp:141] Setting up norm2
I0403 12:26:55.243147  8920 net.cpp:148] Top shape: 100 256 27 27 (18662400)
I0403 12:26:55.243162  8920 net.cpp:156] Memory required for data: 662258800
I0403 12:26:55.243176  8920 layer_factory.hpp:77] Creating layer pool2
I0403 12:26:55.243194  8920 net.cpp:91] Creating Layer pool2
I0403 12:26:55.243209  8920 net.cpp:425] pool2 <- norm2
I0403 12:26:55.243227  8920 net.cpp:399] pool2 -> pool2
I0403 12:26:55.243278  8920 net.cpp:141] Setting up pool2
I0403 12:26:55.243301  8920 net.cpp:148] Top shape: 100 256 13 13 (4326400)
I0403 12:26:55.243315  8920 net.cpp:156] Memory required for data: 679564400
I0403 12:26:55.243340  8920 layer_factory.hpp:77] Creating layer conv3
I0403 12:26:55.243367  8920 net.cpp:91] Creating Layer conv3
I0403 12:26:55.243384  8920 net.cpp:425] conv3 <- pool2
I0403 12:26:55.243403  8920 net.cpp:399] conv3 -> conv3
I0403 12:26:55.285783  8920 net.cpp:141] Setting up conv3
I0403 12:26:55.285862  8920 net.cpp:148] Top shape: 100 384 13 13 (6489600)
I0403 12:26:55.285881  8920 net.cpp:156] Memory required for data: 705522800
I0403 12:26:55.285907  8920 layer_factory.hpp:77] Creating layer relu3
I0403 12:26:55.285931  8920 net.cpp:91] Creating Layer relu3
I0403 12:26:55.285949  8920 net.cpp:425] relu3 <- conv3
I0403 12:26:55.285970  8920 net.cpp:386] relu3 -> conv3 (in-place)
I0403 12:26:55.286250  8920 net.cpp:141] Setting up relu3
I0403 12:26:55.286279  8920 net.cpp:148] Top shape: 100 384 13 13 (6489600)
I0403 12:26:55.286295  8920 net.cpp:156] Memory required for data: 731481200
I0403 12:26:55.286310  8920 layer_factory.hpp:77] Creating layer conv4
I0403 12:26:55.286337  8920 net.cpp:91] Creating Layer conv4
I0403 12:26:55.286355  8920 net.cpp:425] conv4 <- conv3
I0403 12:26:55.286375  8920 net.cpp:399] conv4 -> conv4
I0403 12:26:55.316128  8920 net.cpp:141] Setting up conv4
I0403 12:26:55.316195  8920 net.cpp:148] Top shape: 100 384 13 13 (6489600)
I0403 12:26:55.316247  8920 net.cpp:156] Memory required for data: 757439600
I0403 12:26:55.316273  8920 layer_factory.hpp:77] Creating layer relu4
I0403 12:26:55.316296  8920 net.cpp:91] Creating Layer relu4
I0403 12:26:55.316313  8920 net.cpp:425] relu4 <- conv4
I0403 12:26:55.316331  8920 net.cpp:386] relu4 -> conv4 (in-place)
I0403 12:26:55.316617  8920 net.cpp:141] Setting up relu4
I0403 12:26:55.316644  8920 net.cpp:148] Top shape: 100 384 13 13 (6489600)
I0403 12:26:55.316659  8920 net.cpp:156] Memory required for data: 783398000
I0403 12:26:55.316674  8920 layer_factory.hpp:77] Creating layer conv5
I0403 12:26:55.316709  8920 net.cpp:91] Creating Layer conv5
I0403 12:26:55.316727  8920 net.cpp:425] conv5 <- conv4
I0403 12:26:55.316745  8920 net.cpp:399] conv5 -> conv5
I0403 12:26:55.337321  8920 net.cpp:141] Setting up conv5
I0403 12:26:55.337381  8920 net.cpp:148] Top shape: 100 256 13 13 (4326400)
I0403 12:26:55.337399  8920 net.cpp:156] Memory required for data: 800703600
I0403 12:26:55.337424  8920 layer_factory.hpp:77] Creating layer relu5
I0403 12:26:55.337445  8920 net.cpp:91] Creating Layer relu5
I0403 12:26:55.337461  8920 net.cpp:425] relu5 <- conv5
I0403 12:26:55.337481  8920 net.cpp:386] relu5 -> conv5 (in-place)
I0403 12:26:55.337769  8920 net.cpp:141] Setting up relu5
I0403 12:26:55.337795  8920 net.cpp:148] Top shape: 100 256 13 13 (4326400)
I0403 12:26:55.337810  8920 net.cpp:156] Memory required for data: 818009200
I0403 12:26:55.337824  8920 layer_factory.hpp:77] Creating layer pool5
I0403 12:26:55.337846  8920 net.cpp:91] Creating Layer pool5
I0403 12:26:55.337862  8920 net.cpp:425] pool5 <- conv5
I0403 12:26:55.337883  8920 net.cpp:399] pool5 -> pool5
I0403 12:26:55.337944  8920 net.cpp:141] Setting up pool5
I0403 12:26:55.337968  8920 net.cpp:148] Top shape: 100 256 6 6 (921600)
I0403 12:26:55.337982  8920 net.cpp:156] Memory required for data: 821695600
I0403 12:26:55.337996  8920 layer_factory.hpp:77] Creating layer fc6
I0403 12:26:55.338026  8920 net.cpp:91] Creating Layer fc6
I0403 12:26:55.338043  8920 net.cpp:425] fc6 <- pool5
I0403 12:26:55.338063  8920 net.cpp:399] fc6 -> fc6
I0403 12:26:56.891172  8920 net.cpp:141] Setting up fc6
I0403 12:26:56.891252  8920 net.cpp:148] Top shape: 100 4096 (409600)
I0403 12:26:56.891268  8920 net.cpp:156] Memory required for data: 823334000
I0403 12:26:56.891288  8920 layer_factory.hpp:77] Creating layer relu6
I0403 12:26:56.891312  8920 net.cpp:91] Creating Layer relu6
I0403 12:26:56.891330  8920 net.cpp:425] relu6 <- fc6
I0403 12:26:56.891350  8920 net.cpp:386] relu6 -> fc6 (in-place)
I0403 12:26:56.891597  8920 net.cpp:141] Setting up relu6
I0403 12:26:56.891621  8920 net.cpp:148] Top shape: 100 4096 (409600)
I0403 12:26:56.891636  8920 net.cpp:156] Memory required for data: 824972400
I0403 12:26:56.891650  8920 layer_factory.hpp:77] Creating layer drop6
I0403 12:26:56.891669  8920 net.cpp:91] Creating Layer drop6
I0403 12:26:56.891685  8920 net.cpp:425] drop6 <- fc6
I0403 12:26:56.891703  8920 net.cpp:386] drop6 -> fc6 (in-place)
I0403 12:26:56.891765  8920 net.cpp:141] Setting up drop6
I0403 12:26:56.891788  8920 net.cpp:148] Top shape: 100 4096 (409600)
I0403 12:26:56.891801  8920 net.cpp:156] Memory required for data: 826610800
I0403 12:26:56.891815  8920 layer_factory.hpp:77] Creating layer fc7
I0403 12:26:56.891839  8920 net.cpp:91] Creating Layer fc7
I0403 12:26:56.891855  8920 net.cpp:425] fc7 <- fc6
I0403 12:26:56.891875  8920 net.cpp:399] fc7 -> fc7
I0403 12:26:57.591364  8920 net.cpp:141] Setting up fc7
I0403 12:26:57.591410  8920 net.cpp:148] Top shape: 100 4096 (409600)
I0403 12:26:57.591426  8920 net.cpp:156] Memory required for data: 828249200
I0403 12:26:57.591446  8920 layer_factory.hpp:77] Creating layer relu7
I0403 12:26:57.591469  8920 net.cpp:91] Creating Layer relu7
I0403 12:26:57.591486  8920 net.cpp:425] relu7 <- fc7
I0403 12:26:57.591507  8920 net.cpp:386] relu7 -> fc7 (in-place)
I0403 12:26:57.591941  8920 net.cpp:141] Setting up relu7
I0403 12:26:57.591969  8920 net.cpp:148] Top shape: 100 4096 (409600)
I0403 12:26:57.592022  8920 net.cpp:156] Memory required for data: 829887600
I0403 12:26:57.592037  8920 layer_factory.hpp:77] Creating layer drop7
I0403 12:26:57.592056  8920 net.cpp:91] Creating Layer drop7
I0403 12:26:57.592070  8920 net.cpp:425] drop7 <- fc7
I0403 12:26:57.592088  8920 net.cpp:386] drop7 -> fc7 (in-place)
I0403 12:26:57.592129  8920 net.cpp:141] Setting up drop7
I0403 12:26:57.592150  8920 net.cpp:148] Top shape: 100 4096 (409600)
I0403 12:26:57.592164  8920 net.cpp:156] Memory required for data: 831526000
I0403 12:26:57.592176  8920 layer_factory.hpp:77] Creating layer fc8_plantvillage
I0403 12:26:57.592197  8920 net.cpp:91] Creating Layer fc8_plantvillage
I0403 12:26:57.592213  8920 net.cpp:425] fc8_plantvillage <- fc7
I0403 12:26:57.592232  8920 net.cpp:399] fc8_plantvillage -> fc8_plantvillage
I0403 12:26:57.598903  8920 net.cpp:141] Setting up fc8_plantvillage
I0403 12:26:57.598933  8920 net.cpp:148] Top shape: 100 38 (3800)
I0403 12:26:57.598949  8920 net.cpp:156] Memory required for data: 831541200
I0403 12:26:57.598968  8920 layer_factory.hpp:77] Creating layer fc8_plantvillage_fc8_plantvillage_0_split
I0403 12:26:57.598987  8920 net.cpp:91] Creating Layer fc8_plantvillage_fc8_plantvillage_0_split
I0403 12:26:57.599002  8920 net.cpp:425] fc8_plantvillage_fc8_plantvillage_0_split <- fc8_plantvillage
I0403 12:26:57.599020  8920 net.cpp:399] fc8_plantvillage_fc8_plantvillage_0_split -> fc8_plantvillage_fc8_plantvillage_0_split_0
I0403 12:26:57.599040  8920 net.cpp:399] fc8_plantvillage_fc8_plantvillage_0_split -> fc8_plantvillage_fc8_plantvillage_0_split_1
I0403 12:26:57.599059  8920 net.cpp:399] fc8_plantvillage_fc8_plantvillage_0_split -> fc8_plantvillage_fc8_plantvillage_0_split_2
I0403 12:26:57.599145  8920 net.cpp:141] Setting up fc8_plantvillage_fc8_plantvillage_0_split
I0403 12:26:57.599169  8920 net.cpp:148] Top shape: 100 38 (3800)
I0403 12:26:57.599184  8920 net.cpp:148] Top shape: 100 38 (3800)
I0403 12:26:57.599198  8920 net.cpp:148] Top shape: 100 38 (3800)
I0403 12:26:57.599212  8920 net.cpp:156] Memory required for data: 831586800
I0403 12:26:57.599226  8920 layer_factory.hpp:77] Creating layer prob
I0403 12:26:57.599244  8920 net.cpp:91] Creating Layer prob
I0403 12:26:57.599259  8920 net.cpp:425] prob <- fc8_plantvillage_fc8_plantvillage_0_split_0
I0403 12:26:57.599278  8920 net.cpp:399] prob -> prob
I0403 12:26:57.599512  8920 net.cpp:141] Setting up prob
I0403 12:26:57.599545  8920 net.cpp:148] Top shape: 100 38 (3800)
I0403 12:26:57.599561  8920 net.cpp:156] Memory required for data: 831602000
I0403 12:26:57.599575  8920 layer_factory.hpp:77] Creating layer hdf5out
I0403 12:26:57.599594  8920 net.cpp:91] Creating Layer hdf5out
I0403 12:26:57.599608  8920 net.cpp:425] hdf5out <- prob
I0403 12:26:57.599623  8920 net.cpp:425] hdf5out <- label_data_1_split_0
I0403 12:26:57.602392  8920 net.cpp:141] Setting up hdf5out
…
