…
I0403 12:03:44.462203  8392 net.cpp:313] The NetState phase (1) differed from the phase (0) specified by a rule in layer data
I0403 12:03:44.462504  8392 net.cpp:49] Initializing net from parameters: 
state {
  phase: TEST
}
layer {
  name: "data"
  type: "Data"
  top: "data"
  top: "label"
  include {
    phase: TEST
  }
  transform_param {
    crop_size: 227
    mean_file: "/home/mohanty/data/final_dataset/lmdb/grayscale-20-80/mean.binaryproto"
  }
  data_param {
    source: "/home/mohanty/data/final_dataset/lmdb/grayscale-20-80/test_db"
    batch_size: 100
    backend: LMDB
  }
}
layer {
  name: "conv1"
  type: "Convolution"
  bottom: "data"
  top: "conv1"
  param {
    lr_mult: 1
    decay_mult: 1
  }
  param {
    lr_mult: 2
    decay_mult: 0
  }
  convolution_param {
    num_output: 96
    kernel_size: 11
    stride: 4
    weight_filler {
      type: "gaussian"
      std: 0.01
    }
    bias_filler {
      type: "constant"
      value: 0
    }
  }
}
layer {
  name: "relu1"
  type: "ReLU"
  bottom: "conv1"
  top: "conv1"
}
layer {
  name: "norm1"
  type: "LRN"
  bottom: "conv1"
  top: "norm1"
  lrn_param {
    local_size: 5
    alpha: 0.0001
    beta: 0.75
  }
}
layer {
  name: "pool1"
  type: "Pooling"
  bottom: "norm1"
  top: "pool1"
  pooling_param {
    pool: MAX
    kernel_size: 3
    stride: 2
  }
}
layer {
  name: "conv2"
  type: "Convolution"
  bottom: "pool1"
  top: "conv2"
  param {
    lr_mult: 1
    decay_mult: 1
  }
  param {
    lr_mult: 2
    decay_mult: 0
  }
  convolution_param {
    num_output: 256
    pad: 2
    kernel_size: 5
    group: 2
    weight_filler {
      type: "gaussian"
      std: 0.01
    }
    bias_filler {
      type: "constant"
      value: 0.1
    }
  }
}
layer {
  name: "relu2"
  type: "ReLU"
  bottom: "conv2"
  top: "conv2"
}
layer {
  name: "norm2"
  type: "LRN"
  bottom: "conv2"
  top: "norm2"
  lrn_param {
    local_size: 5
    alpha: 0.0001
    beta: 0.75
  }
}
layer {
  name: "pool2"
  type: "Pooling"
  bottom: "norm2"
  top: "pool2"
  pooling_param {
    pool: MAX
    kernel_size: 3
    stride: 2
  }
}
layer {
  name: "conv3"
  type: "Convolution"
  bottom: "pool2"
  top: "conv3"
  param {
    lr_mult: 1
    decay_mult: 1
  }
  param {
    lr_mult: 2
    decay_mult: 0
  }
  convolution_param {
    num_output: 384
    pad: 1
    kernel_size: 3
    weight_filler {
      type: "gaussian"
      std: 0.01
    }
    bias_filler {
      type: "constant"
      value: 0
    }
  }
}
layer {
  name: "relu3"
  type: "ReLU"
  bottom: "conv3"
  top: "conv3"
}
layer {
  name: "conv4"
  type: "Convolution"
  bottom: "conv3"
  top: "conv4"
  param {
    lr_mult: 1
    decay_mult: 1
  }
  param {
    lr_mult: 2
    decay_mult: 0
  }
  convolution_param {
    num_output: 384
    pad: 1
    kernel_size: 3
    group: 2
    weight_filler {
      type: "gaussian"
      std: 0.01
    }
    bias_filler {
      type: "constant"
      value: 0.1
    }
  }
}
layer {
  name: "relu4"
  type: "ReLU"
  bottom: "conv4"
  top: "conv4"
}
layer {
  name: "conv5"
  type: "Convolution"
  bottom: "conv4"
  top: "conv5"
  param {
    lr_mult: 1
    decay_mult: 1
  }
  param {
    lr_mult: 2
    decay_mult: 0
  }
  convolution_param {
    num_output: 256
    pad: 1
    kernel_size: 3
    group: 2
    weight_filler {
      type: "gaussian"
      std: 0.01
    }
    bias_filler {
      type: "constant"
      value: 0.1
    }
  }
}
layer {
  name: "relu5"
  type: "ReLU"
  bottom: "conv5"
  top: "conv5"
}
layer {
  name: "pool5"
  type: "Pooling"
  bottom: "conv5"
  top: "pool5"
  pooling_param {
    pool: MAX
    kernel_size: 3
    stride: 2
  }
}
layer {
  name: "fc6"
  type: "InnerProduct"
  bottom: "pool5"
  top: "fc6"
  param {
    lr_mult: 1
    decay_mult: 1
  }
  param {
    lr_mult: 2
    decay_mult: 0
  }
  inner_product_param {
    num_output: 4096
    weight_filler {
      type: "gaussian"
      std: 0.005
    }
    bias_filler {
      type: "constant"
      value: 0.1
    }
  }
}
layer {
  name: "relu6"
  type: "ReLU"
  bottom: "fc6"
  top: "fc6"
}
layer {
  name: "drop6"
  type: "Dropout"
  bottom: "fc6"
  top: "fc6"
  dropout_param {
    dropout_ratio: 0.5
  }
}
layer {
  name: "fc7"
  type: "InnerProduct"
  bottom: "fc6"
  top: "fc7"
  param {
    lr_mult: 1
    decay_mult: 1
  }
  param {
    lr_mult: 2
    decay_mult: 0
  }
  inner_product_param {
    num_output: 4096
    weight_filler {
      type: "gaussian"
      std: 0.005
    }
    bias_filler {
      type: "constant"
      value: 0.1
    }
  }
}
layer {
  name: "relu7"
  type: "ReLU"
  bottom: "fc7"
  top: "fc7"
}
layer {
  name: "drop7"
  type: "Dropout"
  bottom: "fc7"
  top: "fc7"
  dropout_param {
    dropout_ratio: 0.5
  }
}
layer {
  name: "fc8_plantvillage"
  type: "InnerProduct"
  bottom: "fc7"
  top: "fc8_plantvillage"
  param {
    lr_mult: 1
    decay_mult: 1
  }
  param {
    lr_mult: 2
    decay_mult: 0
  }
  inner_product_param {
    num_output: 38
    weight_filler {
      type: "gaussian"
      std: 0.01
    }
    bias_filler {
      type: "constant"
      value: 0
    }
  }
}
layer {
  name: "prob"
  type: "Softmax"
  bottom: "fc8_plantvillage"
  top: "prob"
  include {
    phase: TEST
  }
}
layer {
  name: "hdf5out"
  type: "HDF5Output"
  bottom: "prob"
  bottom: "label"
  include {
    phase: TEST
  }
  hdf5_output_param {
    file_name: "hdf5_dumps/iter_210.h5"
  }
}
layer {
  name: "loss"
  type: "SoftmaxWithLoss"
  bottom: "fc8_plantvillage"
  bottom: "label"
  top: "loss"
}
layer {
  name: "accuracy"
  type: "Accuracy"
  bottom: "fc8_plantvillage"
  bottom: "label"
  top: "accuracy"
  include {
    phase: TEST
  }
}
I0403 12:03:44.463120  8392 layer_factory.hpp:77] Creating layer data
I0403 12:03:44.463784  8392 net.cpp:91] Creating Layer data
I0403 12:03:44.463819  8392 net.cpp:399] data -> data
I0403 12:03:44.463870  8392 net.cpp:399] data -> label
I0403 12:03:44.463906  8392 data_transformer.cpp:25] Loading mean file from: /home/mohanty/data/final_dataset/lmdb/grayscale-20-80/mean.binaryproto
I0403 12:03:44.467679  8398 db_lmdb.cpp:38] Opened lmdb /home/mohanty/data/final_dataset/lmdb/grayscale-20-80/test_db
I0403 12:03:44.477900  8392 data_layer.cpp:41] output data size: 100,3,227,227
I0403 12:03:44.599529  8392 net.cpp:141] Setting up data
I0403 12:03:44.599632  8392 net.cpp:148] Top shape: 100 3 227 227 (15458700)
I0403 12:03:44.599655  8392 net.cpp:148] Top shape: 100 (100)
I0403 12:03:44.599671  8392 net.cpp:156] Memory required for data: 61835200
I0403 12:03:44.599700  8392 layer_factory.hpp:77] Creating layer label_data_1_split
I0403 12:03:44.599726  8392 net.cpp:91] Creating Layer label_data_1_split
I0403 12:03:44.599745  8392 net.cpp:425] label_data_1_split <- label
I0403 12:03:44.599778  8392 net.cpp:399] label_data_1_split -> label_data_1_split_0
I0403 12:03:44.599807  8392 net.cpp:399] label_data_1_split -> label_data_1_split_1
I0403 12:03:44.599827  8392 net.cpp:399] label_data_1_split -> label_data_1_split_2
I0403 12:03:44.599891  8392 net.cpp:141] Setting up label_data_1_split
I0403 12:03:44.599915  8392 net.cpp:148] Top shape: 100 (100)
I0403 12:03:44.599932  8392 net.cpp:148] Top shape: 100 (100)
I0403 12:03:44.599949  8392 net.cpp:148] Top shape: 100 (100)
I0403 12:03:44.599963  8392 net.cpp:156] Memory required for data: 61836400
I0403 12:03:44.599978  8392 layer_factory.hpp:77] Creating layer conv1
I0403 12:03:44.600010  8392 net.cpp:91] Creating Layer conv1
I0403 12:03:44.600028  8392 net.cpp:425] conv1 <- data
I0403 12:03:44.600051  8392 net.cpp:399] conv1 -> conv1
I0403 12:03:44.741145  8392 net.cpp:141] Setting up conv1
I0403 12:03:44.741225  8392 net.cpp:148] Top shape: 100 96 55 55 (29040000)
I0403 12:03:44.741245  8392 net.cpp:156] Memory required for data: 177996400
I0403 12:03:44.741289  8392 layer_factory.hpp:77] Creating layer relu1
I0403 12:03:44.741318  8392 net.cpp:91] Creating Layer relu1
I0403 12:03:44.741338  8392 net.cpp:425] relu1 <- conv1
I0403 12:03:44.741358  8392 net.cpp:386] relu1 -> conv1 (in-place)
I0403 12:03:44.741631  8392 net.cpp:141] Setting up relu1
I0403 12:03:44.741659  8392 net.cpp:148] Top shape: 100 96 55 55 (29040000)
I0403 12:03:44.741716  8392 net.cpp:156] Memory required for data: 294156400
I0403 12:03:44.741734  8392 layer_factory.hpp:77] Creating layer norm1
I0403 12:03:44.741760  8392 net.cpp:91] Creating Layer norm1
I0403 12:03:44.741808  8392 net.cpp:425] norm1 <- conv1
I0403 12:03:44.741833  8392 net.cpp:399] norm1 -> norm1
I0403 12:03:44.742136  8392 net.cpp:141] Setting up norm1
I0403 12:03:44.742166  8392 net.cpp:148] Top shape: 100 96 55 55 (29040000)
I0403 12:03:44.742183  8392 net.cpp:156] Memory required for data: 410316400
I0403 12:03:44.742199  8392 layer_factory.hpp:77] Creating layer pool1
I0403 12:03:44.742223  8392 net.cpp:91] Creating Layer pool1
I0403 12:03:44.742240  8392 net.cpp:425] pool1 <- norm1
I0403 12:03:44.742259  8392 net.cpp:399] pool1 -> pool1
I0403 12:03:44.742324  8392 net.cpp:141] Setting up pool1
I0403 12:03:44.742348  8392 net.cpp:148] Top shape: 100 96 27 27 (6998400)
I0403 12:03:44.742363  8392 net.cpp:156] Memory required for data: 438310000
I0403 12:03:44.742379  8392 layer_factory.hpp:77] Creating layer conv2
I0403 12:03:44.742404  8392 net.cpp:91] Creating Layer conv2
I0403 12:03:44.742421  8392 net.cpp:425] conv2 <- pool1
I0403 12:03:44.742439  8392 net.cpp:399] conv2 -> conv2
I0403 12:03:44.757606  8392 net.cpp:141] Setting up conv2
I0403 12:03:44.757657  8392 net.cpp:148] Top shape: 100 256 27 27 (18662400)
I0403 12:03:44.757673  8392 net.cpp:156] Memory required for data: 512959600
I0403 12:03:44.757699  8392 layer_factory.hpp:77] Creating layer relu2
I0403 12:03:44.757720  8392 net.cpp:91] Creating Layer relu2
I0403 12:03:44.757737  8392 net.cpp:425] relu2 <- conv2
I0403 12:03:44.757755  8392 net.cpp:386] relu2 -> conv2 (in-place)
I0403 12:03:44.758034  8392 net.cpp:141] Setting up relu2
I0403 12:03:44.758064  8392 net.cpp:148] Top shape: 100 256 27 27 (18662400)
I0403 12:03:44.758080  8392 net.cpp:156] Memory required for data: 587609200
I0403 12:03:44.758095  8392 layer_factory.hpp:77] Creating layer norm2
I0403 12:03:44.758116  8392 net.cpp:91] Creating Layer norm2
I0403 12:03:44.758132  8392 net.cpp:425] norm2 <- conv2
I0403 12:03:44.758152  8392 net.cpp:399] norm2 -> norm2
I0403 12:03:44.758349  8392 net.cpp:141] Setting up norm2
I0403 12:03:44.758375  8392 net.cpp:148] Top shape: 100 256 27 27 (18662400)
I0403 12:03:44.758390  8392 net.cpp:156] Memory required for data: 662258800
I0403 12:03:44.758405  8392 layer_factory.hpp:77] Creating layer pool2
I0403 12:03:44.758425  8392 net.cpp:91] Creating Layer pool2
I0403 12:03:44.758441  8392 net.cpp:425] pool2 <- norm2
I0403 12:03:44.758458  8392 net.cpp:399] pool2 -> pool2
I0403 12:03:44.758512  8392 net.cpp:141] Setting up pool2
I0403 12:03:44.758539  8392 net.cpp:148] Top shape: 100 256 13 13 (4326400)
I0403 12:03:44.758556  8392 net.cpp:156] Memory required for data: 679564400
I0403 12:03:44.758571  8392 layer_factory.hpp:77] Creating layer conv3
I0403 12:03:44.758594  8392 net.cpp:91] Creating Layer conv3
I0403 12:03:44.758612  8392 net.cpp:425] conv3 <- pool2
I0403 12:03:44.758633  8392 net.cpp:399] conv3 -> conv3
I0403 12:03:44.797790  8392 net.cpp:141] Setting up conv3
I0403 12:03:44.797890  8392 net.cpp:148] Top shape: 100 384 13 13 (6489600)
I0403 12:03:44.797909  8392 net.cpp:156] Memory required for data: 705522800
I0403 12:03:44.797935  8392 layer_factory.hpp:77] Creating layer relu3
I0403 12:03:44.797960  8392 net.cpp:91] Creating Layer relu3
I0403 12:03:44.797978  8392 net.cpp:425] relu3 <- conv3
I0403 12:03:44.797998  8392 net.cpp:386] relu3 -> conv3 (in-place)
I0403 12:03:44.798279  8392 net.cpp:141] Setting up relu3
I0403 12:03:44.798305  8392 net.cpp:148] Top shape: 100 384 13 13 (6489600)
I0403 12:03:44.798321  8392 net.cpp:156] Memory required for data: 731481200
I0403 12:03:44.798336  8392 layer_factory.hpp:77] Creating layer conv4
I0403 12:03:44.798362  8392 net.cpp:91] Creating Layer conv4
I0403 12:03:44.798379  8392 net.cpp:425] conv4 <- conv3
I0403 12:03:44.798401  8392 net.cpp:399] conv4 -> conv4
I0403 12:03:44.828989  8392 net.cpp:141] Setting up conv4
I0403 12:03:44.829056  8392 net.cpp:148] Top shape: 100 384 13 13 (6489600)
I0403 12:03:44.829113  8392 net.cpp:156] Memory required for data: 757439600
I0403 12:03:44.829136  8392 layer_factory.hpp:77] Creating layer relu4
I0403 12:03:44.829159  8392 net.cpp:91] Creating Layer relu4
I0403 12:03:44.829176  8392 net.cpp:425] relu4 <- conv4
I0403 12:03:44.829197  8392 net.cpp:386] relu4 -> conv4 (in-place)
I0403 12:03:44.829478  8392 net.cpp:141] Setting up relu4
I0403 12:03:44.829504  8392 net.cpp:148] Top shape: 100 384 13 13 (6489600)
I0403 12:03:44.829520  8392 net.cpp:156] Memory required for data: 783398000
I0403 12:03:44.829540  8392 layer_factory.hpp:77] Creating layer conv5
I0403 12:03:44.829571  8392 net.cpp:91] Creating Layer conv5
I0403 12:03:44.829591  8392 net.cpp:425] conv5 <- conv4
I0403 12:03:44.829615  8392 net.cpp:399] conv5 -> conv5
I0403 12:03:44.850817  8392 net.cpp:141] Setting up conv5
I0403 12:03:44.850903  8392 net.cpp:148] Top shape: 100 256 13 13 (4326400)
I0403 12:03:44.850924  8392 net.cpp:156] Memory required for data: 800703600
I0403 12:03:44.850952  8392 layer_factory.hpp:77] Creating layer relu5
I0403 12:03:44.850975  8392 net.cpp:91] Creating Layer relu5
I0403 12:03:44.850991  8392 net.cpp:425] relu5 <- conv5
I0403 12:03:44.851009  8392 net.cpp:386] relu5 -> conv5 (in-place)
I0403 12:03:44.851294  8392 net.cpp:141] Setting up relu5
I0403 12:03:44.851322  8392 net.cpp:148] Top shape: 100 256 13 13 (4326400)
I0403 12:03:44.851337  8392 net.cpp:156] Memory required for data: 818009200
I0403 12:03:44.851352  8392 layer_factory.hpp:77] Creating layer pool5
I0403 12:03:44.851377  8392 net.cpp:91] Creating Layer pool5
I0403 12:03:44.851395  8392 net.cpp:425] pool5 <- conv5
I0403 12:03:44.851413  8392 net.cpp:399] pool5 -> pool5
I0403 12:03:44.851477  8392 net.cpp:141] Setting up pool5
I0403 12:03:44.851501  8392 net.cpp:148] Top shape: 100 256 6 6 (921600)
I0403 12:03:44.851516  8392 net.cpp:156] Memory required for data: 821695600
I0403 12:03:44.851531  8392 layer_factory.hpp:77] Creating layer fc6
I0403 12:03:44.851563  8392 net.cpp:91] Creating Layer fc6
I0403 12:03:44.851583  8392 net.cpp:425] fc6 <- pool5
I0403 12:03:44.851603  8392 net.cpp:399] fc6 -> fc6
I0403 12:03:46.414414  8392 net.cpp:141] Setting up fc6
I0403 12:03:46.414459  8392 net.cpp:148] Top shape: 100 4096 (409600)
I0403 12:03:46.414475  8392 net.cpp:156] Memory required for data: 823334000
I0403 12:03:46.414496  8392 layer_factory.hpp:77] Creating layer relu6
I0403 12:03:46.414518  8392 net.cpp:91] Creating Layer relu6
I0403 12:03:46.414538  8392 net.cpp:425] relu6 <- fc6
I0403 12:03:46.414561  8392 net.cpp:386] relu6 -> fc6 (in-place)
I0403 12:03:46.414788  8392 net.cpp:141] Setting up relu6
I0403 12:03:46.414813  8392 net.cpp:148] Top shape: 100 4096 (409600)
I0403 12:03:46.414826  8392 net.cpp:156] Memory required for data: 824972400
I0403 12:03:46.414840  8392 layer_factory.hpp:77] Creating layer drop6
I0403 12:03:46.414863  8392 net.cpp:91] Creating Layer drop6
I0403 12:03:46.414880  8392 net.cpp:425] drop6 <- fc6
I0403 12:03:46.414896  8392 net.cpp:386] drop6 -> fc6 (in-place)
I0403 12:03:46.414949  8392 net.cpp:141] Setting up drop6
I0403 12:03:46.414973  8392 net.cpp:148] Top shape: 100 4096 (409600)
I0403 12:03:46.414986  8392 net.cpp:156] Memory required for data: 826610800
I0403 12:03:46.415001  8392 layer_factory.hpp:77] Creating layer fc7
I0403 12:03:46.415032  8392 net.cpp:91] Creating Layer fc7
I0403 12:03:46.415046  8392 net.cpp:425] fc7 <- fc6
I0403 12:03:46.415066  8392 net.cpp:399] fc7 -> fc7
I0403 12:03:47.101353  8392 net.cpp:141] Setting up fc7
I0403 12:03:47.101428  8392 net.cpp:148] Top shape: 100 4096 (409600)
I0403 12:03:47.101444  8392 net.cpp:156] Memory required for data: 828249200
I0403 12:03:47.101464  8392 layer_factory.hpp:77] Creating layer relu7
I0403 12:03:47.101487  8392 net.cpp:91] Creating Layer relu7
I0403 12:03:47.101505  8392 net.cpp:425] relu7 <- fc7
I0403 12:03:47.101524  8392 net.cpp:386] relu7 -> fc7 (in-place)
I0403 12:03:47.101945  8392 net.cpp:141] Setting up relu7
I0403 12:03:47.101972  8392 net.cpp:148] Top shape: 100 4096 (409600)
I0403 12:03:47.102027  8392 net.cpp:156] Memory required for data: 829887600
I0403 12:03:47.102043  8392 layer_factory.hpp:77] Creating layer drop7
I0403 12:03:47.102064  8392 net.cpp:91] Creating Layer drop7
I0403 12:03:47.102080  8392 net.cpp:425] drop7 <- fc7
I0403 12:03:47.102097  8392 net.cpp:386] drop7 -> fc7 (in-place)
I0403 12:03:47.102144  8392 net.cpp:141] Setting up drop7
I0403 12:03:47.102164  8392 net.cpp:148] Top shape: 100 4096 (409600)
I0403 12:03:47.102179  8392 net.cpp:156] Memory required for data: 831526000
I0403 12:03:47.102192  8392 layer_factory.hpp:77] Creating layer fc8_plantvillage
I0403 12:03:47.102211  8392 net.cpp:91] Creating Layer fc8_plantvillage
I0403 12:03:47.102226  8392 net.cpp:425] fc8_plantvillage <- fc7
I0403 12:03:47.102247  8392 net.cpp:399] fc8_plantvillage -> fc8_plantvillage
I0403 12:03:47.109036  8392 net.cpp:141] Setting up fc8_plantvillage
I0403 12:03:47.109066  8392 net.cpp:148] Top shape: 100 38 (3800)
I0403 12:03:47.109082  8392 net.cpp:156] Memory required for data: 831541200
I0403 12:03:47.109102  8392 layer_factory.hpp:77] Creating layer fc8_plantvillage_fc8_plantvillage_0_split
I0403 12:03:47.109119  8392 net.cpp:91] Creating Layer fc8_plantvillage_fc8_plantvillage_0_split
I0403 12:03:47.109134  8392 net.cpp:425] fc8_plantvillage_fc8_plantvillage_0_split <- fc8_plantvillage
I0403 12:03:47.109151  8392 net.cpp:399] fc8_plantvillage_fc8_plantvillage_0_split -> fc8_plantvillage_fc8_plantvillage_0_split_0
I0403 12:03:47.109170  8392 net.cpp:399] fc8_plantvillage_fc8_plantvillage_0_split -> fc8_plantvillage_fc8_plantvillage_0_split_1
I0403 12:03:47.109190  8392 net.cpp:399] fc8_plantvillage_fc8_plantvillage_0_split -> fc8_plantvillage_fc8_plantvillage_0_split_2
I0403 12:03:47.109269  8392 net.cpp:141] Setting up fc8_plantvillage_fc8_plantvillage_0_split
I0403 12:03:47.109293  8392 net.cpp:148] Top shape: 100 38 (3800)
I0403 12:03:47.109309  8392 net.cpp:148] Top shape: 100 38 (3800)
I0403 12:03:47.109323  8392 net.cpp:148] Top shape: 100 38 (3800)
I0403 12:03:47.109338  8392 net.cpp:156] Memory required for data: 831586800
I0403 12:03:47.109360  8392 layer_factory.hpp:77] Creating layer prob
I0403 12:03:47.109380  8392 net.cpp:91] Creating Layer prob
I0403 12:03:47.109395  8392 net.cpp:425] prob <- fc8_plantvillage_fc8_plantvillage_0_split_0
I0403 12:03:47.109422  8392 net.cpp:399] prob -> prob
I0403 12:03:47.109659  8392 net.cpp:141] Setting up prob
I0403 12:03:47.109685  8392 net.cpp:148] Top shape: 100 38 (3800)
I0403 12:03:47.109699  8392 net.cpp:156] Memory required for data: 831602000
I0403 12:03:47.109721  8392 layer_factory.hpp:77] Creating layer hdf5out
I0403 12:03:47.109742  8392 net.cpp:91] Creating Layer hdf5out
I0403 12:03:47.109760  8392 net.cpp:425] hdf5out <- prob
I0403 12:03:47.109776  8392 net.cpp:425] hdf5out <- label_data_1_split_0
I0403 12:03:47.112123  8392 net.cpp:141] Setting up hdf5out
…
