…
I0403 12:13:53.002845  8624 net.cpp:313] The NetState phase (1) differed from the phase (0) specified by a rule in layer data
I0403 12:13:53.003170  8624 net.cpp:49] Initializing net from parameters: 
state {
  phase: TEST
}
layer {
  name: "data"
  type: "Data"
  top: "data"
  top: "label"
  include {
    phase: TEST
  }
  transform_param {
    crop_size: 227
    mean_file: "/home/mohanty/data/final_dataset/lmdb/grayscale-20-80/mean.binaryproto"
  }
  data_param {
    source: "/home/mohanty/data/final_dataset/lmdb/grayscale-20-80/test_db"
    batch_size: 100
    backend: LMDB
  }
}
layer {
  name: "conv1"
  type: "Convolution"
  bottom: "data"
  top: "conv1"
  param {
    lr_mult: 1
    decay_mult: 1
  }
  param {
    lr_mult: 2
    decay_mult: 0
  }
  convolution_param {
    num_output: 96
    kernel_size: 11
    stride: 4
    weight_filler {
      type: "gaussian"
      std: 0.01
    }
    bias_filler {
      type: "constant"
      value: 0
    }
  }
}
layer {
  name: "relu1"
  type: "ReLU"
  bottom: "conv1"
  top: "conv1"
}
layer {
  name: "norm1"
  type: "LRN"
  bottom: "conv1"
  top: "norm1"
  lrn_param {
    local_size: 5
    alpha: 0.0001
    beta: 0.75
  }
}
layer {
  name: "pool1"
  type: "Pooling"
  bottom: "norm1"
  top: "pool1"
  pooling_param {
    pool: MAX
    kernel_size: 3
    stride: 2
  }
}
layer {
  name: "conv2"
  type: "Convolution"
  bottom: "pool1"
  top: "conv2"
  param {
    lr_mult: 1
    decay_mult: 1
  }
  param {
    lr_mult: 2
    decay_mult: 0
  }
  convolution_param {
    num_output: 256
    pad: 2
    kernel_size: 5
    group: 2
    weight_filler {
      type: "gaussian"
      std: 0.01
    }
    bias_filler {
      type: "constant"
      value: 0.1
    }
  }
}
layer {
  name: "relu2"
  type: "ReLU"
  bottom: "conv2"
  top: "conv2"
}
layer {
  name: "norm2"
  type: "LRN"
  bottom: "conv2"
  top: "norm2"
  lrn_param {
    local_size: 5
    alpha: 0.0001
    beta: 0.75
  }
}
layer {
  name: "pool2"
  type: "Pooling"
  bottom: "norm2"
  top: "pool2"
  pooling_param {
    pool: MAX
    kernel_size: 3
    stride: 2
  }
}
layer {
  name: "conv3"
  type: "Convolution"
  bottom: "pool2"
  top: "conv3"
  param {
    lr_mult: 1
    decay_mult: 1
  }
  param {
    lr_mult: 2
    decay_mult: 0
  }
  convolution_param {
    num_output: 384
    pad: 1
    kernel_size: 3
    weight_filler {
      type: "gaussian"
      std: 0.01
    }
    bias_filler {
      type: "constant"
      value: 0
    }
  }
}
layer {
  name: "relu3"
  type: "ReLU"
  bottom: "conv3"
  top: "conv3"
}
layer {
  name: "conv4"
  type: "Convolution"
  bottom: "conv3"
  top: "conv4"
  param {
    lr_mult: 1
    decay_mult: 1
  }
  param {
    lr_mult: 2
    decay_mult: 0
  }
  convolution_param {
    num_output: 384
    pad: 1
    kernel_size: 3
    group: 2
    weight_filler {
      type: "gaussian"
      std: 0.01
    }
    bias_filler {
      type: "constant"
      value: 0.1
    }
  }
}
layer {
  name: "relu4"
  type: "ReLU"
  bottom: "conv4"
  top: "conv4"
}
layer {
  name: "conv5"
  type: "Convolution"
  bottom: "conv4"
  top: "conv5"
  param {
    lr_mult: 1
    decay_mult: 1
  }
  param {
    lr_mult: 2
    decay_mult: 0
  }
  convolution_param {
    num_output: 256
    pad: 1
    kernel_size: 3
    group: 2
    weight_filler {
      type: "gaussian"
      std: 0.01
    }
    bias_filler {
      type: "constant"
      value: 0.1
    }
  }
}
layer {
  name: "relu5"
  type: "ReLU"
  bottom: "conv5"
  top: "conv5"
}
layer {
  name: "pool5"
  type: "Pooling"
  bottom: "conv5"
  top: "pool5"
  pooling_param {
    pool: MAX
    kernel_size: 3
    stride: 2
  }
}
layer {
  name: "fc6"
  type: "InnerProduct"
  bottom: "pool5"
  top: "fc6"
  param {
    lr_mult: 1
    decay_mult: 1
  }
  param {
    lr_mult: 2
    decay_mult: 0
  }
  inner_product_param {
    num_output: 4096
    weight_filler {
      type: "gaussian"
      std: 0.005
    }
    bias_filler {
      type: "constant"
      value: 0.1
    }
  }
}
layer {
  name: "relu6"
  type: "ReLU"
  bottom: "fc6"
  top: "fc6"
}
layer {
  name: "drop6"
  type: "Dropout"
  bottom: "fc6"
  top: "fc6"
  dropout_param {
    dropout_ratio: 0.5
  }
}
layer {
  name: "fc7"
  type: "InnerProduct"
  bottom: "fc6"
  top: "fc7"
  param {
    lr_mult: 1
    decay_mult: 1
  }
  param {
    lr_mult: 2
    decay_mult: 0
  }
  inner_product_param {
    num_output: 4096
    weight_filler {
      type: "gaussian"
      std: 0.005
    }
    bias_filler {
      type: "constant"
      value: 0.1
    }
  }
}
layer {
  name: "relu7"
  type: "ReLU"
  bottom: "fc7"
  top: "fc7"
}
layer {
  name: "drop7"
  type: "Dropout"
  bottom: "fc7"
  top: "fc7"
  dropout_param {
    dropout_ratio: 0.5
  }
}
layer {
  name: "fc8_plantvillage"
  type: "InnerProduct"
  bottom: "fc7"
  top: "fc8_plantvillage"
  param {
    lr_mult: 1
    decay_mult: 1
  }
  param {
    lr_mult: 2
    decay_mult: 0
  }
  inner_product_param {
    num_output: 38
    weight_filler {
      type: "gaussian"
      std: 0.01
    }
    bias_filler {
      type: "constant"
      value: 0
    }
  }
}
layer {
  name: "prob"
  type: "Softmax"
  bottom: "fc8_plantvillage"
  top: "prob"
  include {
    phase: TEST
  }
}
layer {
  name: "hdf5out"
  type: "HDF5Output"
  bottom: "prob"
  bottom: "label"
  include {
    phase: TEST
  }
  hdf5_output_param {
    file_name: "hdf5_dumps/iter_945.h5"
  }
}
layer {
  name: "loss"
  type: "SoftmaxWithLoss"
  bottom: "fc8_plantvillage"
  bottom: "label"
  top: "loss"
}
layer {
  name: "accuracy"
  type: "Accuracy"
  bottom: "fc8_plantvillage"
  bottom: "label"
  top: "accuracy"
  include {
    phase: TEST
  }
}
I0403 12:13:53.003815  8624 layer_factory.hpp:77] Creating layer data
I0403 12:13:53.004482  8624 net.cpp:91] Creating Layer data
I0403 12:13:53.004514  8624 net.cpp:399] data -> data
I0403 12:13:53.004580  8624 net.cpp:399] data -> label
I0403 12:13:53.004618  8624 data_transformer.cpp:25] Loading mean file from: /home/mohanty/data/final_dataset/lmdb/grayscale-20-80/mean.binaryproto
I0403 12:13:53.007277  8627 db_lmdb.cpp:38] Opened lmdb /home/mohanty/data/final_dataset/lmdb/grayscale-20-80/test_db
I0403 12:13:53.018822  8624 data_layer.cpp:41] output data size: 100,3,227,227
I0403 12:13:53.138883  8624 net.cpp:141] Setting up data
I0403 12:13:53.138979  8624 net.cpp:148] Top shape: 100 3 227 227 (15458700)
I0403 12:13:53.139003  8624 net.cpp:148] Top shape: 100 (100)
I0403 12:13:53.139019  8624 net.cpp:156] Memory required for data: 61835200
I0403 12:13:53.139047  8624 layer_factory.hpp:77] Creating layer label_data_1_split
I0403 12:13:53.139075  8624 net.cpp:91] Creating Layer label_data_1_split
I0403 12:13:53.139093  8624 net.cpp:425] label_data_1_split <- label
I0403 12:13:53.139125  8624 net.cpp:399] label_data_1_split -> label_data_1_split_0
I0403 12:13:53.139153  8624 net.cpp:399] label_data_1_split -> label_data_1_split_1
I0403 12:13:53.139174  8624 net.cpp:399] label_data_1_split -> label_data_1_split_2
I0403 12:13:53.139243  8624 net.cpp:141] Setting up label_data_1_split
I0403 12:13:53.139269  8624 net.cpp:148] Top shape: 100 (100)
I0403 12:13:53.139286  8624 net.cpp:148] Top shape: 100 (100)
I0403 12:13:53.139303  8624 net.cpp:148] Top shape: 100 (100)
I0403 12:13:53.139317  8624 net.cpp:156] Memory required for data: 61836400
I0403 12:13:53.139333  8624 layer_factory.hpp:77] Creating layer conv1
I0403 12:13:53.139364  8624 net.cpp:91] Creating Layer conv1
I0403 12:13:53.139384  8624 net.cpp:425] conv1 <- data
I0403 12:13:53.139405  8624 net.cpp:399] conv1 -> conv1
I0403 12:13:53.276904  8624 net.cpp:141] Setting up conv1
I0403 12:13:53.276978  8624 net.cpp:148] Top shape: 100 96 55 55 (29040000)
I0403 12:13:53.276994  8624 net.cpp:156] Memory required for data: 177996400
I0403 12:13:53.277029  8624 layer_factory.hpp:77] Creating layer relu1
I0403 12:13:53.277056  8624 net.cpp:91] Creating Layer relu1
I0403 12:13:53.277075  8624 net.cpp:425] relu1 <- conv1
I0403 12:13:53.277093  8624 net.cpp:386] relu1 -> conv1 (in-place)
I0403 12:13:53.277350  8624 net.cpp:141] Setting up relu1
I0403 12:13:53.277377  8624 net.cpp:148] Top shape: 100 96 55 55 (29040000)
I0403 12:13:53.277426  8624 net.cpp:156] Memory required for data: 294156400
I0403 12:13:53.277442  8624 layer_factory.hpp:77] Creating layer norm1
I0403 12:13:53.277468  8624 net.cpp:91] Creating Layer norm1
I0403 12:13:53.277487  8624 net.cpp:425] norm1 <- conv1
I0403 12:13:53.277504  8624 net.cpp:399] norm1 -> norm1
I0403 12:13:53.277815  8624 net.cpp:141] Setting up norm1
I0403 12:13:53.277842  8624 net.cpp:148] Top shape: 100 96 55 55 (29040000)
I0403 12:13:53.277858  8624 net.cpp:156] Memory required for data: 410316400
I0403 12:13:53.277873  8624 layer_factory.hpp:77] Creating layer pool1
I0403 12:13:53.277894  8624 net.cpp:91] Creating Layer pool1
I0403 12:13:53.277911  8624 net.cpp:425] pool1 <- norm1
I0403 12:13:53.277928  8624 net.cpp:399] pool1 -> pool1
I0403 12:13:53.277993  8624 net.cpp:141] Setting up pool1
I0403 12:13:53.278017  8624 net.cpp:148] Top shape: 100 96 27 27 (6998400)
I0403 12:13:53.278033  8624 net.cpp:156] Memory required for data: 438310000
I0403 12:13:53.278048  8624 layer_factory.hpp:77] Creating layer conv2
I0403 12:13:53.278070  8624 net.cpp:91] Creating Layer conv2
I0403 12:13:53.278087  8624 net.cpp:425] conv2 <- pool1
I0403 12:13:53.278105  8624 net.cpp:399] conv2 -> conv2
I0403 12:13:53.292573  8624 net.cpp:141] Setting up conv2
I0403 12:13:53.292608  8624 net.cpp:148] Top shape: 100 256 27 27 (18662400)
I0403 12:13:53.292624  8624 net.cpp:156] Memory required for data: 512959600
I0403 12:13:53.292649  8624 layer_factory.hpp:77] Creating layer relu2
I0403 12:13:53.292667  8624 net.cpp:91] Creating Layer relu2
I0403 12:13:53.292683  8624 net.cpp:425] relu2 <- conv2
I0403 12:13:53.292701  8624 net.cpp:386] relu2 -> conv2 (in-place)
I0403 12:13:53.292978  8624 net.cpp:141] Setting up relu2
I0403 12:13:53.293004  8624 net.cpp:148] Top shape: 100 256 27 27 (18662400)
I0403 12:13:53.293026  8624 net.cpp:156] Memory required for data: 587609200
I0403 12:13:53.293041  8624 layer_factory.hpp:77] Creating layer norm2
I0403 12:13:53.293061  8624 net.cpp:91] Creating Layer norm2
I0403 12:13:53.293076  8624 net.cpp:425] norm2 <- conv2
I0403 12:13:53.293095  8624 net.cpp:399] norm2 -> norm2
I0403 12:13:53.293294  8624 net.cpp:141] Setting up norm2
I0403 12:13:53.293319  8624 net.cpp:148] Top shape: 100 256 27 27 (18662400)
I0403 12:13:53.293335  8624 net.cpp:156] Memory required for data: 662258800
I0403 12:13:53.293350  8624 layer_factory.hpp:77] Creating layer pool2
I0403 12:13:53.293370  8624 net.cpp:91] Creating Layer pool2
I0403 12:13:53.293387  8624 net.cpp:425] pool2 <- norm2
I0403 12:13:53.293404  8624 net.cpp:399] pool2 -> pool2
I0403 12:13:53.293457  8624 net.cpp:141] Setting up pool2
I0403 12:13:53.293481  8624 net.cpp:148] Top shape: 100 256 13 13 (4326400)
I0403 12:13:53.293496  8624 net.cpp:156] Memory required for data: 679564400
I0403 12:13:53.293510  8624 layer_factory.hpp:77] Creating layer conv3
I0403 12:13:53.293532  8624 net.cpp:91] Creating Layer conv3
I0403 12:13:53.293553  8624 net.cpp:425] conv3 <- pool2
I0403 12:13:53.293576  8624 net.cpp:399] conv3 -> conv3
I0403 12:13:53.334475  8624 net.cpp:141] Setting up conv3
I0403 12:13:53.334552  8624 net.cpp:148] Top shape: 100 384 13 13 (6489600)
I0403 12:13:53.334573  8624 net.cpp:156] Memory required for data: 705522800
I0403 12:13:53.334599  8624 layer_factory.hpp:77] Creating layer relu3
I0403 12:13:53.334621  8624 net.cpp:91] Creating Layer relu3
I0403 12:13:53.334638  8624 net.cpp:425] relu3 <- conv3
I0403 12:13:53.334656  8624 net.cpp:386] relu3 -> conv3 (in-place)
I0403 12:13:53.334931  8624 net.cpp:141] Setting up relu3
I0403 12:13:53.334959  8624 net.cpp:148] Top shape: 100 384 13 13 (6489600)
I0403 12:13:53.334974  8624 net.cpp:156] Memory required for data: 731481200
I0403 12:13:53.334988  8624 layer_factory.hpp:77] Creating layer conv4
I0403 12:13:53.335014  8624 net.cpp:91] Creating Layer conv4
I0403 12:13:53.335032  8624 net.cpp:425] conv4 <- conv3
I0403 12:13:53.335053  8624 net.cpp:399] conv4 -> conv4
I0403 12:13:53.363776  8624 net.cpp:141] Setting up conv4
I0403 12:13:53.363826  8624 net.cpp:148] Top shape: 100 384 13 13 (6489600)
I0403 12:13:53.363875  8624 net.cpp:156] Memory required for data: 757439600
I0403 12:13:53.363896  8624 layer_factory.hpp:77] Creating layer relu4
I0403 12:13:53.363917  8624 net.cpp:91] Creating Layer relu4
I0403 12:13:53.363934  8624 net.cpp:425] relu4 <- conv4
I0403 12:13:53.363955  8624 net.cpp:386] relu4 -> conv4 (in-place)
I0403 12:13:53.364228  8624 net.cpp:141] Setting up relu4
I0403 12:13:53.364254  8624 net.cpp:148] Top shape: 100 384 13 13 (6489600)
I0403 12:13:53.364270  8624 net.cpp:156] Memory required for data: 783398000
I0403 12:13:53.364285  8624 layer_factory.hpp:77] Creating layer conv5
I0403 12:13:53.364310  8624 net.cpp:91] Creating Layer conv5
I0403 12:13:53.364326  8624 net.cpp:425] conv5 <- conv4
I0403 12:13:53.364347  8624 net.cpp:399] conv5 -> conv5
I0403 12:13:53.384186  8624 net.cpp:141] Setting up conv5
I0403 12:13:53.384222  8624 net.cpp:148] Top shape: 100 256 13 13 (4326400)
I0403 12:13:53.384238  8624 net.cpp:156] Memory required for data: 800703600
I0403 12:13:53.384263  8624 layer_factory.hpp:77] Creating layer relu5
I0403 12:13:53.384284  8624 net.cpp:91] Creating Layer relu5
I0403 12:13:53.384302  8624 net.cpp:425] relu5 <- conv5
I0403 12:13:53.384320  8624 net.cpp:386] relu5 -> conv5 (in-place)
I0403 12:13:53.384621  8624 net.cpp:141] Setting up relu5
I0403 12:13:53.384649  8624 net.cpp:148] Top shape: 100 256 13 13 (4326400)
I0403 12:13:53.384663  8624 net.cpp:156] Memory required for data: 818009200
I0403 12:13:53.384678  8624 layer_factory.hpp:77] Creating layer pool5
I0403 12:13:53.384702  8624 net.cpp:91] Creating Layer pool5
I0403 12:13:53.384719  8624 net.cpp:425] pool5 <- conv5
I0403 12:13:53.384737  8624 net.cpp:399] pool5 -> pool5
I0403 12:13:53.384799  8624 net.cpp:141] Setting up pool5
I0403 12:13:53.384822  8624 net.cpp:148] Top shape: 100 256 6 6 (921600)
I0403 12:13:53.384836  8624 net.cpp:156] Memory required for data: 821695600
I0403 12:13:53.384851  8624 layer_factory.hpp:77] Creating layer fc6
I0403 12:13:53.384879  8624 net.cpp:91] Creating Layer fc6
I0403 12:13:53.384897  8624 net.cpp:425] fc6 <- pool5
I0403 12:13:53.384915  8624 net.cpp:399] fc6 -> fc6
I0403 12:13:54.901738  8624 net.cpp:141] Setting up fc6
I0403 12:13:54.901818  8624 net.cpp:148] Top shape: 100 4096 (409600)
I0403 12:13:54.901834  8624 net.cpp:156] Memory required for data: 823334000
I0403 12:13:54.901857  8624 layer_factory.hpp:77] Creating layer relu6
I0403 12:13:54.901880  8624 net.cpp:91] Creating Layer relu6
I0403 12:13:54.901897  8624 net.cpp:425] relu6 <- fc6
I0403 12:13:54.901921  8624 net.cpp:386] relu6 -> fc6 (in-place)
I0403 12:13:54.902153  8624 net.cpp:141] Setting up relu6
I0403 12:13:54.902179  8624 net.cpp:148] Top shape: 100 4096 (409600)
I0403 12:13:54.902194  8624 net.cpp:156] Memory required for data: 824972400
I0403 12:13:54.902209  8624 layer_factory.hpp:77] Creating layer drop6
I0403 12:13:54.902230  8624 net.cpp:91] Creating Layer drop6
I0403 12:13:54.902245  8624 net.cpp:425] drop6 <- fc6
I0403 12:13:54.902262  8624 net.cpp:386] drop6 -> fc6 (in-place)
I0403 12:13:54.902318  8624 net.cpp:141] Setting up drop6
I0403 12:13:54.902343  8624 net.cpp:148] Top shape: 100 4096 (409600)
I0403 12:13:54.902359  8624 net.cpp:156] Memory required for data: 826610800
I0403 12:13:54.902374  8624 layer_factory.hpp:77] Creating layer fc7
I0403 12:13:54.902392  8624 net.cpp:91] Creating Layer fc7
I0403 12:13:54.902407  8624 net.cpp:425] fc7 <- fc6
I0403 12:13:54.902427  8624 net.cpp:399] fc7 -> fc7
I0403 12:13:55.599553  8624 net.cpp:141] Setting up fc7
I0403 12:13:55.599634  8624 net.cpp:148] Top shape: 100 4096 (409600)
I0403 12:13:55.599653  8624 net.cpp:156] Memory required for data: 828249200
I0403 12:13:55.599674  8624 layer_factory.hpp:77] Creating layer relu7
I0403 12:13:55.599697  8624 net.cpp:91] Creating Layer relu7
I0403 12:13:55.599715  8624 net.cpp:425] relu7 <- fc7
I0403 12:13:55.599740  8624 net.cpp:386] relu7 -> fc7 (in-place)
I0403 12:13:55.600184  8624 net.cpp:141] Setting up relu7
I0403 12:13:55.600213  8624 net.cpp:148] Top shape: 100 4096 (409600)
I0403 12:13:55.600272  8624 net.cpp:156] Memory required for data: 829887600
I0403 12:13:55.600291  8624 layer_factory.hpp:77] Creating layer drop7
I0403 12:13:55.600309  8624 net.cpp:91] Creating Layer drop7
I0403 12:13:55.600327  8624 net.cpp:425] drop7 <- fc7
I0403 12:13:55.600347  8624 net.cpp:386] drop7 -> fc7 (in-place)
I0403 12:13:55.600397  8624 net.cpp:141] Setting up drop7
I0403 12:13:55.600421  8624 net.cpp:148] Top shape: 100 4096 (409600)
I0403 12:13:55.600437  8624 net.cpp:156] Memory required for data: 831526000
I0403 12:13:55.600453  8624 layer_factory.hpp:77] Creating layer fc8_plantvillage
I0403 12:13:55.600474  8624 net.cpp:91] Creating Layer fc8_plantvillage
I0403 12:13:55.600492  8624 net.cpp:425] fc8_plantvillage <- fc7
I0403 12:13:55.600514  8624 net.cpp:399] fc8_plantvillage -> fc8_plantvillage
I0403 12:13:55.607734  8624 net.cpp:141] Setting up fc8_plantvillage
I0403 12:13:55.607798  8624 net.cpp:148] Top shape: 100 38 (3800)
I0403 12:13:55.607816  8624 net.cpp:156] Memory required for data: 831541200
I0403 12:13:55.607838  8624 layer_factory.hpp:77] Creating layer fc8_plantvillage_fc8_plantvillage_0_split
I0403 12:13:55.607859  8624 net.cpp:91] Creating Layer fc8_plantvillage_fc8_plantvillage_0_split
I0403 12:13:55.607877  8624 net.cpp:425] fc8_plantvillage_fc8_plantvillage_0_split <- fc8_plantvillage
I0403 12:13:55.607895  8624 net.cpp:399] fc8_plantvillage_fc8_plantvillage_0_split -> fc8_plantvillage_fc8_plantvillage_0_split_0
I0403 12:13:55.607918  8624 net.cpp:399] fc8_plantvillage_fc8_plantvillage_0_split -> fc8_plantvillage_fc8_plantvillage_0_split_1
I0403 12:13:55.607939  8624 net.cpp:399] fc8_plantvillage_fc8_plantvillage_0_split -> fc8_plantvillage_fc8_plantvillage_0_split_2
I0403 12:13:55.608026  8624 net.cpp:141] Setting up fc8_plantvillage_fc8_plantvillage_0_split
I0403 12:13:55.608050  8624 net.cpp:148] Top shape: 100 38 (3800)
I0403 12:13:55.608068  8624 net.cpp:148] Top shape: 100 38 (3800)
I0403 12:13:55.608084  8624 net.cpp:148] Top shape: 100 38 (3800)
I0403 12:13:55.608099  8624 net.cpp:156] Memory required for data: 831586800
I0403 12:13:55.608114  8624 layer_factory.hpp:77] Creating layer prob
I0403 12:13:55.608134  8624 net.cpp:91] Creating Layer prob
I0403 12:13:55.608150  8624 net.cpp:425] prob <- fc8_plantvillage_fc8_plantvillage_0_split_0
I0403 12:13:55.608170  8624 net.cpp:399] prob -> prob
I0403 12:13:55.608448  8624 net.cpp:141] Setting up prob
I0403 12:13:55.608474  8624 net.cpp:148] Top shape: 100 38 (3800)
I0403 12:13:55.608490  8624 net.cpp:156] Memory required for data: 831602000
I0403 12:13:55.608506  8624 layer_factory.hpp:77] Creating layer hdf5out
I0403 12:13:55.608526  8624 net.cpp:91] Creating Layer hdf5out
I0403 12:13:55.608549  8624 net.cpp:425] hdf5out <- prob
I0403 12:13:55.608572  8624 net.cpp:425] hdf5out <- label_data_1_split_0
I0403 12:13:55.610855  8624 net.cpp:141] Setting up hdf5out
…
