…
I0403 12:39:57.396761  9248 net.cpp:313] The NetState phase (1) differed from the phase (0) specified by a rule in layer data
I0403 12:39:57.397071  9248 net.cpp:49] Initializing net from parameters: 
state {
  phase: TEST
}
layer {
  name: "data"
  type: "Data"
  top: "data"
  top: "label"
  include {
    phase: TEST
  }
  transform_param {
    crop_size: 227
    mean_file: "/home/mohanty/data/final_dataset/lmdb/grayscale-20-80/mean.binaryproto"
  }
  data_param {
    source: "/home/mohanty/data/final_dataset/lmdb/grayscale-20-80/test_db"
    batch_size: 100
    backend: LMDB
  }
}
layer {
  name: "conv1"
  type: "Convolution"
  bottom: "data"
  top: "conv1"
  param {
    lr_mult: 1
    decay_mult: 1
  }
  param {
    lr_mult: 2
    decay_mult: 0
  }
  convolution_param {
    num_output: 96
    kernel_size: 11
    stride: 4
    weight_filler {
      type: "gaussian"
      std: 0.01
    }
    bias_filler {
      type: "constant"
      value: 0
    }
  }
}
layer {
  name: "relu1"
  type: "ReLU"
  bottom: "conv1"
  top: "conv1"
}
layer {
  name: "norm1"
  type: "LRN"
  bottom: "conv1"
  top: "norm1"
  lrn_param {
    local_size: 5
    alpha: 0.0001
    beta: 0.75
  }
}
layer {
  name: "pool1"
  type: "Pooling"
  bottom: "norm1"
  top: "pool1"
  pooling_param {
    pool: MAX
    kernel_size: 3
    stride: 2
  }
}
layer {
  name: "conv2"
  type: "Convolution"
  bottom: "pool1"
  top: "conv2"
  param {
    lr_mult: 1
    decay_mult: 1
  }
  param {
    lr_mult: 2
    decay_mult: 0
  }
  convolution_param {
    num_output: 256
    pad: 2
    kernel_size: 5
    group: 2
    weight_filler {
      type: "gaussian"
      std: 0.01
    }
    bias_filler {
      type: "constant"
      value: 0.1
    }
  }
}
layer {
  name: "relu2"
  type: "ReLU"
  bottom: "conv2"
  top: "conv2"
}
layer {
  name: "norm2"
  type: "LRN"
  bottom: "conv2"
  top: "norm2"
  lrn_param {
    local_size: 5
    alpha: 0.0001
    beta: 0.75
  }
}
layer {
  name: "pool2"
  type: "Pooling"
  bottom: "norm2"
  top: "pool2"
  pooling_param {
    pool: MAX
    kernel_size: 3
    stride: 2
  }
}
layer {
  name: "conv3"
  type: "Convolution"
  bottom: "pool2"
  top: "conv3"
  param {
    lr_mult: 1
    decay_mult: 1
  }
  param {
    lr_mult: 2
    decay_mult: 0
  }
  convolution_param {
    num_output: 384
    pad: 1
    kernel_size: 3
    weight_filler {
      type: "gaussian"
      std: 0.01
    }
    bias_filler {
      type: "constant"
      value: 0
    }
  }
}
layer {
  name: "relu3"
  type: "ReLU"
  bottom: "conv3"
  top: "conv3"
}
layer {
  name: "conv4"
  type: "Convolution"
  bottom: "conv3"
  top: "conv4"
  param {
    lr_mult: 1
    decay_mult: 1
  }
  param {
    lr_mult: 2
    decay_mult: 0
  }
  convolution_param {
    num_output: 384
    pad: 1
    kernel_size: 3
    group: 2
    weight_filler {
      type: "gaussian"
      std: 0.01
    }
    bias_filler {
      type: "constant"
      value: 0.1
    }
  }
}
layer {
  name: "relu4"
  type: "ReLU"
  bottom: "conv4"
  top: "conv4"
}
layer {
  name: "conv5"
  type: "Convolution"
  bottom: "conv4"
  top: "conv5"
  param {
    lr_mult: 1
    decay_mult: 1
  }
  param {
    lr_mult: 2
    decay_mult: 0
  }
  convolution_param {
    num_output: 256
    pad: 1
    kernel_size: 3
    group: 2
    weight_filler {
      type: "gaussian"
      std: 0.01
    }
    bias_filler {
      type: "constant"
      value: 0.1
    }
  }
}
layer {
  name: "relu5"
  type: "ReLU"
  bottom: "conv5"
  top: "conv5"
}
layer {
  name: "pool5"
  type: "Pooling"
  bottom: "conv5"
  top: "pool5"
  pooling_param {
    pool: MAX
    kernel_size: 3
    stride: 2
  }
}
layer {
  name: "fc6"
  type: "InnerProduct"
  bottom: "pool5"
  top: "fc6"
  param {
    lr_mult: 1
    decay_mult: 1
  }
  param {
    lr_mult: 2
    decay_mult: 0
  }
  inner_product_param {
    num_output: 4096
    weight_filler {
      type: "gaussian"
      std: 0.005
    }
    bias_filler {
      type: "constant"
      value: 0.1
    }
  }
}
layer {
  name: "relu6"
  type: "ReLU"
  bottom: "fc6"
  top: "fc6"
}
layer {
  name: "drop6"
  type: "Dropout"
  bottom: "fc6"
  top: "fc6"
  dropout_param {
    dropout_ratio: 0.5
  }
}
layer {
  name: "fc7"
  type: "InnerProduct"
  bottom: "fc6"
  top: "fc7"
  param {
    lr_mult: 1
    decay_mult: 1
  }
  param {
    lr_mult: 2
    decay_mult: 0
  }
  inner_product_param {
    num_output: 4096
    weight_filler {
      type: "gaussian"
      std: 0.005
    }
    bias_filler {
      type: "constant"
      value: 0.1
    }
  }
}
layer {
  name: "relu7"
  type: "ReLU"
  bottom: "fc7"
  top: "fc7"
}
layer {
  name: "drop7"
  type: "Dropout"
  bottom: "fc7"
  top: "fc7"
  dropout_param {
    dropout_ratio: 0.5
  }
}
layer {
  name: "fc8_plantvillage"
  type: "InnerProduct"
  bottom: "fc7"
  top: "fc8_plantvillage"
  param {
    lr_mult: 1
    decay_mult: 1
  }
  param {
    lr_mult: 2
    decay_mult: 0
  }
  inner_product_param {
    num_output: 38
    weight_filler {
      type: "gaussian"
      std: 0.01
    }
    bias_filler {
      type: "constant"
      value: 0
    }
  }
}
layer {
  name: "prob"
  type: "Softmax"
  bottom: "fc8_plantvillage"
  top: "prob"
  include {
    phase: TEST
  }
}
layer {
  name: "hdf5out"
  type: "HDF5Output"
  bottom: "prob"
  bottom: "label"
  include {
    phase: TEST
  }
  hdf5_output_param {
    file_name: "hdf5_dumps/iter_2835.h5"
  }
}
layer {
  name: "loss"
  type: "SoftmaxWithLoss"
  bottom: "fc8_plantvillage"
  bottom: "label"
  top: "loss"
}
layer {
  name: "accuracy"
  type: "Accuracy"
  bottom: "fc8_plantvillage"
  bottom: "label"
  top: "accuracy"
  include {
    phase: TEST
  }
}
I0403 12:39:57.397666  9248 layer_factory.hpp:77] Creating layer data
I0403 12:39:57.398324  9248 net.cpp:91] Creating Layer data
I0403 12:39:57.398358  9248 net.cpp:399] data -> data
I0403 12:39:57.398411  9248 net.cpp:399] data -> label
I0403 12:39:57.398447  9248 data_transformer.cpp:25] Loading mean file from: /home/mohanty/data/final_dataset/lmdb/grayscale-20-80/mean.binaryproto
I0403 12:39:57.401211  9251 db_lmdb.cpp:38] Opened lmdb /home/mohanty/data/final_dataset/lmdb/grayscale-20-80/test_db
I0403 12:39:57.412582  9248 data_layer.cpp:41] output data size: 100,3,227,227
I0403 12:39:57.531270  9248 net.cpp:141] Setting up data
I0403 12:39:57.531364  9248 net.cpp:148] Top shape: 100 3 227 227 (15458700)
I0403 12:39:57.531386  9248 net.cpp:148] Top shape: 100 (100)
I0403 12:39:57.531401  9248 net.cpp:156] Memory required for data: 61835200
I0403 12:39:57.531429  9248 layer_factory.hpp:77] Creating layer label_data_1_split
I0403 12:39:57.531455  9248 net.cpp:91] Creating Layer label_data_1_split
I0403 12:39:57.531471  9248 net.cpp:425] label_data_1_split <- label
I0403 12:39:57.531503  9248 net.cpp:399] label_data_1_split -> label_data_1_split_0
I0403 12:39:57.531536  9248 net.cpp:399] label_data_1_split -> label_data_1_split_1
I0403 12:39:57.531558  9248 net.cpp:399] label_data_1_split -> label_data_1_split_2
I0403 12:39:57.531623  9248 net.cpp:141] Setting up label_data_1_split
I0403 12:39:57.531646  9248 net.cpp:148] Top shape: 100 (100)
I0403 12:39:57.531662  9248 net.cpp:148] Top shape: 100 (100)
I0403 12:39:57.531678  9248 net.cpp:148] Top shape: 100 (100)
I0403 12:39:57.531692  9248 net.cpp:156] Memory required for data: 61836400
I0403 12:39:57.531707  9248 layer_factory.hpp:77] Creating layer conv1
I0403 12:39:57.531738  9248 net.cpp:91] Creating Layer conv1
I0403 12:39:57.531755  9248 net.cpp:425] conv1 <- data
I0403 12:39:57.531774  9248 net.cpp:399] conv1 -> conv1
I0403 12:39:57.671327  9248 net.cpp:141] Setting up conv1
I0403 12:39:57.671406  9248 net.cpp:148] Top shape: 100 96 55 55 (29040000)
I0403 12:39:57.671424  9248 net.cpp:156] Memory required for data: 177996400
I0403 12:39:57.671458  9248 layer_factory.hpp:77] Creating layer relu1
I0403 12:39:57.671485  9248 net.cpp:91] Creating Layer relu1
I0403 12:39:57.671509  9248 net.cpp:425] relu1 <- conv1
I0403 12:39:57.671530  9248 net.cpp:386] relu1 -> conv1 (in-place)
I0403 12:39:57.671804  9248 net.cpp:141] Setting up relu1
I0403 12:39:57.671833  9248 net.cpp:148] Top shape: 100 96 55 55 (29040000)
I0403 12:39:57.671886  9248 net.cpp:156] Memory required for data: 294156400
I0403 12:39:57.671903  9248 layer_factory.hpp:77] Creating layer norm1
I0403 12:39:57.671929  9248 net.cpp:91] Creating Layer norm1
I0403 12:39:57.671947  9248 net.cpp:425] norm1 <- conv1
I0403 12:39:57.671968  9248 net.cpp:399] norm1 -> norm1
I0403 12:39:57.672299  9248 net.cpp:141] Setting up norm1
I0403 12:39:57.672327  9248 net.cpp:148] Top shape: 100 96 55 55 (29040000)
I0403 12:39:57.672343  9248 net.cpp:156] Memory required for data: 410316400
I0403 12:39:57.672358  9248 layer_factory.hpp:77] Creating layer pool1
I0403 12:39:57.672381  9248 net.cpp:91] Creating Layer pool1
I0403 12:39:57.672399  9248 net.cpp:425] pool1 <- norm1
I0403 12:39:57.672420  9248 net.cpp:399] pool1 -> pool1
I0403 12:39:57.672490  9248 net.cpp:141] Setting up pool1
I0403 12:39:57.672520  9248 net.cpp:148] Top shape: 100 96 27 27 (6998400)
I0403 12:39:57.672535  9248 net.cpp:156] Memory required for data: 438310000
I0403 12:39:57.672550  9248 layer_factory.hpp:77] Creating layer conv2
I0403 12:39:57.672610  9248 net.cpp:91] Creating Layer conv2
I0403 12:39:57.672629  9248 net.cpp:425] conv2 <- pool1
I0403 12:39:57.672647  9248 net.cpp:399] conv2 -> conv2
I0403 12:39:57.688407  9248 net.cpp:141] Setting up conv2
I0403 12:39:57.688462  9248 net.cpp:148] Top shape: 100 256 27 27 (18662400)
I0403 12:39:57.688479  9248 net.cpp:156] Memory required for data: 512959600
I0403 12:39:57.688503  9248 layer_factory.hpp:77] Creating layer relu2
I0403 12:39:57.688560  9248 net.cpp:91] Creating Layer relu2
I0403 12:39:57.688578  9248 net.cpp:425] relu2 <- conv2
I0403 12:39:57.688599  9248 net.cpp:386] relu2 -> conv2 (in-place)
I0403 12:39:57.688896  9248 net.cpp:141] Setting up relu2
I0403 12:39:57.688925  9248 net.cpp:148] Top shape: 100 256 27 27 (18662400)
I0403 12:39:57.688941  9248 net.cpp:156] Memory required for data: 587609200
I0403 12:39:57.688956  9248 layer_factory.hpp:77] Creating layer norm2
I0403 12:39:57.688980  9248 net.cpp:91] Creating Layer norm2
I0403 12:39:57.688998  9248 net.cpp:425] norm2 <- conv2
I0403 12:39:57.689018  9248 net.cpp:399] norm2 -> norm2
I0403 12:39:57.689224  9248 net.cpp:141] Setting up norm2
I0403 12:39:57.689252  9248 net.cpp:148] Top shape: 100 256 27 27 (18662400)
I0403 12:39:57.689270  9248 net.cpp:156] Memory required for data: 662258800
I0403 12:39:57.689285  9248 layer_factory.hpp:77] Creating layer pool2
I0403 12:39:57.689304  9248 net.cpp:91] Creating Layer pool2
I0403 12:39:57.689321  9248 net.cpp:425] pool2 <- norm2
I0403 12:39:57.689340  9248 net.cpp:399] pool2 -> pool2
I0403 12:39:57.689398  9248 net.cpp:141] Setting up pool2
I0403 12:39:57.689424  9248 net.cpp:148] Top shape: 100 256 13 13 (4326400)
I0403 12:39:57.689440  9248 net.cpp:156] Memory required for data: 679564400
I0403 12:39:57.689456  9248 layer_factory.hpp:77] Creating layer conv3
I0403 12:39:57.689481  9248 net.cpp:91] Creating Layer conv3
I0403 12:39:57.689498  9248 net.cpp:425] conv3 <- pool2
I0403 12:39:57.689523  9248 net.cpp:399] conv3 -> conv3
I0403 12:39:57.728498  9248 net.cpp:141] Setting up conv3
I0403 12:39:57.728580  9248 net.cpp:148] Top shape: 100 384 13 13 (6489600)
I0403 12:39:57.728598  9248 net.cpp:156] Memory required for data: 705522800
I0403 12:39:57.728624  9248 layer_factory.hpp:77] Creating layer relu3
I0403 12:39:57.728648  9248 net.cpp:91] Creating Layer relu3
I0403 12:39:57.728665  9248 net.cpp:425] relu3 <- conv3
I0403 12:39:57.728688  9248 net.cpp:386] relu3 -> conv3 (in-place)
I0403 12:39:57.728966  9248 net.cpp:141] Setting up relu3
I0403 12:39:57.728993  9248 net.cpp:148] Top shape: 100 384 13 13 (6489600)
I0403 12:39:57.729008  9248 net.cpp:156] Memory required for data: 731481200
I0403 12:39:57.729024  9248 layer_factory.hpp:77] Creating layer conv4
I0403 12:39:57.729077  9248 net.cpp:91] Creating Layer conv4
I0403 12:39:57.729099  9248 net.cpp:425] conv4 <- conv3
I0403 12:39:57.729120  9248 net.cpp:399] conv4 -> conv4
I0403 12:39:57.759300  9248 net.cpp:141] Setting up conv4
I0403 12:39:57.759351  9248 net.cpp:148] Top shape: 100 384 13 13 (6489600)
I0403 12:39:57.759400  9248 net.cpp:156] Memory required for data: 757439600
I0403 12:39:57.759423  9248 layer_factory.hpp:77] Creating layer relu4
I0403 12:39:57.759444  9248 net.cpp:91] Creating Layer relu4
I0403 12:39:57.759461  9248 net.cpp:425] relu4 <- conv4
I0403 12:39:57.759480  9248 net.cpp:386] relu4 -> conv4 (in-place)
I0403 12:39:57.759759  9248 net.cpp:141] Setting up relu4
I0403 12:39:57.759789  9248 net.cpp:148] Top shape: 100 384 13 13 (6489600)
I0403 12:39:57.759805  9248 net.cpp:156] Memory required for data: 783398000
I0403 12:39:57.759820  9248 layer_factory.hpp:77] Creating layer conv5
I0403 12:39:57.759845  9248 net.cpp:91] Creating Layer conv5
I0403 12:39:57.759862  9248 net.cpp:425] conv5 <- conv4
I0403 12:39:57.759892  9248 net.cpp:399] conv5 -> conv5
I0403 12:39:57.780728  9248 net.cpp:141] Setting up conv5
I0403 12:39:57.780791  9248 net.cpp:148] Top shape: 100 256 13 13 (4326400)
I0403 12:39:57.780809  9248 net.cpp:156] Memory required for data: 800703600
I0403 12:39:57.780833  9248 layer_factory.hpp:77] Creating layer relu5
I0403 12:39:57.780854  9248 net.cpp:91] Creating Layer relu5
I0403 12:39:57.780870  9248 net.cpp:425] relu5 <- conv5
I0403 12:39:57.780892  9248 net.cpp:386] relu5 -> conv5 (in-place)
I0403 12:39:57.781162  9248 net.cpp:141] Setting up relu5
I0403 12:39:57.781188  9248 net.cpp:148] Top shape: 100 256 13 13 (4326400)
I0403 12:39:57.781203  9248 net.cpp:156] Memory required for data: 818009200
I0403 12:39:57.781219  9248 layer_factory.hpp:77] Creating layer pool5
I0403 12:39:57.781244  9248 net.cpp:91] Creating Layer pool5
I0403 12:39:57.781261  9248 net.cpp:425] pool5 <- conv5
I0403 12:39:57.781280  9248 net.cpp:399] pool5 -> pool5
I0403 12:39:57.781339  9248 net.cpp:141] Setting up pool5
I0403 12:39:57.781363  9248 net.cpp:148] Top shape: 100 256 6 6 (921600)
I0403 12:39:57.781376  9248 net.cpp:156] Memory required for data: 821695600
I0403 12:39:57.781391  9248 layer_factory.hpp:77] Creating layer fc6
I0403 12:39:57.781417  9248 net.cpp:91] Creating Layer fc6
I0403 12:39:57.781435  9248 net.cpp:425] fc6 <- pool5
I0403 12:39:57.781455  9248 net.cpp:399] fc6 -> fc6
I0403 12:39:59.332309  9248 net.cpp:141] Setting up fc6
I0403 12:39:59.332389  9248 net.cpp:148] Top shape: 100 4096 (409600)
I0403 12:39:59.332406  9248 net.cpp:156] Memory required for data: 823334000
I0403 12:39:59.332428  9248 layer_factory.hpp:77] Creating layer relu6
I0403 12:39:59.332450  9248 net.cpp:91] Creating Layer relu6
I0403 12:39:59.332468  9248 net.cpp:425] relu6 <- fc6
I0403 12:39:59.332487  9248 net.cpp:386] relu6 -> fc6 (in-place)
I0403 12:39:59.332726  9248 net.cpp:141] Setting up relu6
I0403 12:39:59.332751  9248 net.cpp:148] Top shape: 100 4096 (409600)
I0403 12:39:59.332767  9248 net.cpp:156] Memory required for data: 824972400
I0403 12:39:59.332780  9248 layer_factory.hpp:77] Creating layer drop6
I0403 12:39:59.332798  9248 net.cpp:91] Creating Layer drop6
I0403 12:39:59.332813  9248 net.cpp:425] drop6 <- fc6
I0403 12:39:59.332833  9248 net.cpp:386] drop6 -> fc6 (in-place)
I0403 12:39:59.332893  9248 net.cpp:141] Setting up drop6
I0403 12:39:59.332916  9248 net.cpp:148] Top shape: 100 4096 (409600)
I0403 12:39:59.332931  9248 net.cpp:156] Memory required for data: 826610800
I0403 12:39:59.332944  9248 layer_factory.hpp:77] Creating layer fc7
I0403 12:39:59.332968  9248 net.cpp:91] Creating Layer fc7
I0403 12:39:59.332985  9248 net.cpp:425] fc7 <- fc6
I0403 12:39:59.333005  9248 net.cpp:399] fc7 -> fc7
I0403 12:40:00.018122  9248 net.cpp:141] Setting up fc7
I0403 12:40:00.018183  9248 net.cpp:148] Top shape: 100 4096 (409600)
I0403 12:40:00.018199  9248 net.cpp:156] Memory required for data: 828249200
I0403 12:40:00.018220  9248 layer_factory.hpp:77] Creating layer relu7
I0403 12:40:00.018242  9248 net.cpp:91] Creating Layer relu7
I0403 12:40:00.018260  9248 net.cpp:425] relu7 <- fc7
I0403 12:40:00.018280  9248 net.cpp:386] relu7 -> fc7 (in-place)
I0403 12:40:00.018718  9248 net.cpp:141] Setting up relu7
I0403 12:40:00.018743  9248 net.cpp:148] Top shape: 100 4096 (409600)
I0403 12:40:00.018813  9248 net.cpp:156] Memory required for data: 829887600
I0403 12:40:00.018829  9248 layer_factory.hpp:77] Creating layer drop7
I0403 12:40:00.018848  9248 net.cpp:91] Creating Layer drop7
I0403 12:40:00.018863  9248 net.cpp:425] drop7 <- fc7
I0403 12:40:00.018882  9248 net.cpp:386] drop7 -> fc7 (in-place)
I0403 12:40:00.018925  9248 net.cpp:141] Setting up drop7
I0403 12:40:00.018950  9248 net.cpp:148] Top shape: 100 4096 (409600)
I0403 12:40:00.018965  9248 net.cpp:156] Memory required for data: 831526000
I0403 12:40:00.018980  9248 layer_factory.hpp:77] Creating layer fc8_plantvillage
I0403 12:40:00.018998  9248 net.cpp:91] Creating Layer fc8_plantvillage
I0403 12:40:00.019014  9248 net.cpp:425] fc8_plantvillage <- fc7
I0403 12:40:00.019033  9248 net.cpp:399] fc8_plantvillage -> fc8_plantvillage
I0403 12:40:00.025925  9248 net.cpp:141] Setting up fc8_plantvillage
I0403 12:40:00.025954  9248 net.cpp:148] Top shape: 100 38 (3800)
I0403 12:40:00.025969  9248 net.cpp:156] Memory required for data: 831541200
I0403 12:40:00.025986  9248 layer_factory.hpp:77] Creating layer fc8_plantvillage_fc8_plantvillage_0_split
I0403 12:40:00.026005  9248 net.cpp:91] Creating Layer fc8_plantvillage_fc8_plantvillage_0_split
I0403 12:40:00.026021  9248 net.cpp:425] fc8_plantvillage_fc8_plantvillage_0_split <- fc8_plantvillage
I0403 12:40:00.026039  9248 net.cpp:399] fc8_plantvillage_fc8_plantvillage_0_split -> fc8_plantvillage_fc8_plantvillage_0_split_0
I0403 12:40:00.026059  9248 net.cpp:399] fc8_plantvillage_fc8_plantvillage_0_split -> fc8_plantvillage_fc8_plantvillage_0_split_1
I0403 12:40:00.026078  9248 net.cpp:399] fc8_plantvillage_fc8_plantvillage_0_split -> fc8_plantvillage_fc8_plantvillage_0_split_2
I0403 12:40:00.026154  9248 net.cpp:141] Setting up fc8_plantvillage_fc8_plantvillage_0_split
I0403 12:40:00.026180  9248 net.cpp:148] Top shape: 100 38 (3800)
I0403 12:40:00.026197  9248 net.cpp:148] Top shape: 100 38 (3800)
I0403 12:40:00.026212  9248 net.cpp:148] Top shape: 100 38 (3800)
I0403 12:40:00.026226  9248 net.cpp:156] Memory required for data: 831586800
I0403 12:40:00.026239  9248 layer_factory.hpp:77] Creating layer prob
I0403 12:40:00.026257  9248 net.cpp:91] Creating Layer prob
I0403 12:40:00.026271  9248 net.cpp:425] prob <- fc8_plantvillage_fc8_plantvillage_0_split_0
I0403 12:40:00.026288  9248 net.cpp:399] prob -> prob
I0403 12:40:00.026512  9248 net.cpp:141] Setting up prob
I0403 12:40:00.026537  9248 net.cpp:148] Top shape: 100 38 (3800)
I0403 12:40:00.026551  9248 net.cpp:156] Memory required for data: 831602000
I0403 12:40:00.026564  9248 layer_factory.hpp:77] Creating layer hdf5out
I0403 12:40:00.026583  9248 net.cpp:91] Creating Layer hdf5out
I0403 12:40:00.026598  9248 net.cpp:425] hdf5out <- prob
I0403 12:40:00.026613  9248 net.cpp:425] hdf5out <- label_data_1_split_0
I0403 12:40:00.028803  9248 net.cpp:141] Setting up hdf5out
…
