…
I0403 12:37:03.637174  9179 net.cpp:313] The NetState phase (1) differed from the phase (0) specified by a rule in layer data
I0403 12:37:03.637483  9179 net.cpp:49] Initializing net from parameters: 
state {
  phase: TEST
}
layer {
  name: "data"
  type: "Data"
  top: "data"
  top: "label"
  include {
    phase: TEST
  }
  transform_param {
    crop_size: 227
    mean_file: "/home/mohanty/data/final_dataset/lmdb/grayscale-20-80/mean.binaryproto"
  }
  data_param {
    source: "/home/mohanty/data/final_dataset/lmdb/grayscale-20-80/test_db"
    batch_size: 100
    backend: LMDB
  }
}
layer {
  name: "conv1"
  type: "Convolution"
  bottom: "data"
  top: "conv1"
  param {
    lr_mult: 1
    decay_mult: 1
  }
  param {
    lr_mult: 2
    decay_mult: 0
  }
  convolution_param {
    num_output: 96
    kernel_size: 11
    stride: 4
    weight_filler {
      type: "gaussian"
      std: 0.01
    }
    bias_filler {
      type: "constant"
      value: 0
    }
  }
}
layer {
  name: "relu1"
  type: "ReLU"
  bottom: "conv1"
  top: "conv1"
}
layer {
  name: "norm1"
  type: "LRN"
  bottom: "conv1"
  top: "norm1"
  lrn_param {
    local_size: 5
    alpha: 0.0001
    beta: 0.75
  }
}
layer {
  name: "pool1"
  type: "Pooling"
  bottom: "norm1"
  top: "pool1"
  pooling_param {
    pool: MAX
    kernel_size: 3
    stride: 2
  }
}
layer {
  name: "conv2"
  type: "Convolution"
  bottom: "pool1"
  top: "conv2"
  param {
    lr_mult: 1
    decay_mult: 1
  }
  param {
    lr_mult: 2
    decay_mult: 0
  }
  convolution_param {
    num_output: 256
    pad: 2
    kernel_size: 5
    group: 2
    weight_filler {
      type: "gaussian"
      std: 0.01
    }
    bias_filler {
      type: "constant"
      value: 0.1
    }
  }
}
layer {
  name: "relu2"
  type: "ReLU"
  bottom: "conv2"
  top: "conv2"
}
layer {
  name: "norm2"
  type: "LRN"
  bottom: "conv2"
  top: "norm2"
  lrn_param {
    local_size: 5
    alpha: 0.0001
    beta: 0.75
  }
}
layer {
  name: "pool2"
  type: "Pooling"
  bottom: "norm2"
  top: "pool2"
  pooling_param {
    pool: MAX
    kernel_size: 3
    stride: 2
  }
}
layer {
  name: "conv3"
  type: "Convolution"
  bottom: "pool2"
  top: "conv3"
  param {
    lr_mult: 1
    decay_mult: 1
  }
  param {
    lr_mult: 2
    decay_mult: 0
  }
  convolution_param {
    num_output: 384
    pad: 1
    kernel_size: 3
    weight_filler {
      type: "gaussian"
      std: 0.01
    }
    bias_filler {
      type: "constant"
      value: 0
    }
  }
}
layer {
  name: "relu3"
  type: "ReLU"
  bottom: "conv3"
  top: "conv3"
}
layer {
  name: "conv4"
  type: "Convolution"
  bottom: "conv3"
  top: "conv4"
  param {
    lr_mult: 1
    decay_mult: 1
  }
  param {
    lr_mult: 2
    decay_mult: 0
  }
  convolution_param {
    num_output: 384
    pad: 1
    kernel_size: 3
    group: 2
    weight_filler {
      type: "gaussian"
      std: 0.01
    }
    bias_filler {
      type: "constant"
      value: 0.1
    }
  }
}
layer {
  name: "relu4"
  type: "ReLU"
  bottom: "conv4"
  top: "conv4"
}
layer {
  name: "conv5"
  type: "Convolution"
  bottom: "conv4"
  top: "conv5"
  param {
    lr_mult: 1
    decay_mult: 1
  }
  param {
    lr_mult: 2
    decay_mult: 0
  }
  convolution_param {
    num_output: 256
    pad: 1
    kernel_size: 3
    group: 2
    weight_filler {
      type: "gaussian"
      std: 0.01
    }
    bias_filler {
      type: "constant"
      value: 0.1
    }
  }
}
layer {
  name: "relu5"
  type: "ReLU"
  bottom: "conv5"
  top: "conv5"
}
layer {
  name: "pool5"
  type: "Pooling"
  bottom: "conv5"
  top: "pool5"
  pooling_param {
    pool: MAX
    kernel_size: 3
    stride: 2
  }
}
layer {
  name: "fc6"
  type: "InnerProduct"
  bottom: "pool5"
  top: "fc6"
  param {
    lr_mult: 1
    decay_mult: 1
  }
  param {
    lr_mult: 2
    decay_mult: 0
  }
  inner_product_param {
    num_output: 4096
    weight_filler {
      type: "gaussian"
      std: 0.005
    }
    bias_filler {
      type: "constant"
      value: 0.1
    }
  }
}
layer {
  name: "relu6"
  type: "ReLU"
  bottom: "fc6"
  top: "fc6"
}
layer {
  name: "drop6"
  type: "Dropout"
  bottom: "fc6"
  top: "fc6"
  dropout_param {
    dropout_ratio: 0.5
  }
}
layer {
  name: "fc7"
  type: "InnerProduct"
  bottom: "fc6"
  top: "fc7"
  param {
    lr_mult: 1
    decay_mult: 1
  }
  param {
    lr_mult: 2
    decay_mult: 0
  }
  inner_product_param {
    num_output: 4096
    weight_filler {
      type: "gaussian"
      std: 0.005
    }
    bias_filler {
      type: "constant"
      value: 0.1
    }
  }
}
layer {
  name: "relu7"
  type: "ReLU"
  bottom: "fc7"
  top: "fc7"
}
layer {
  name: "drop7"
  type: "Dropout"
  bottom: "fc7"
  top: "fc7"
  dropout_param {
    dropout_ratio: 0.5
  }
}
layer {
  name: "fc8_plantvillage"
  type: "InnerProduct"
  bottom: "fc7"
  top: "fc8_plantvillage"
  param {
    lr_mult: 1
    decay_mult: 1
  }
  param {
    lr_mult: 2
    decay_mult: 0
  }
  inner_product_param {
    num_output: 38
    weight_filler {
      type: "gaussian"
      std: 0.01
    }
    bias_filler {
      type: "constant"
      value: 0
    }
  }
}
layer {
  name: "prob"
  type: "Softmax"
  bottom: "fc8_plantvillage"
  top: "prob"
  include {
    phase: TEST
  }
}
layer {
  name: "hdf5out"
  type: "HDF5Output"
  bottom: "prob"
  bottom: "label"
  include {
    phase: TEST
  }
  hdf5_output_param {
    file_name: "hdf5_dumps/iter_2625.h5"
  }
}
layer {
  name: "loss"
  type: "SoftmaxWithLoss"
  bottom: "fc8_plantvillage"
  bottom: "label"
  top: "loss"
}
layer {
  name: "accuracy"
  type: "Accuracy"
  bottom: "fc8_plantvillage"
  bottom: "label"
  top: "accuracy"
  include {
    phase: TEST
  }
}
I0403 12:37:03.638067  9179 layer_factory.hpp:77] Creating layer data
I0403 12:37:03.638718  9179 net.cpp:91] Creating Layer data
I0403 12:37:03.638748  9179 net.cpp:399] data -> data
I0403 12:37:03.638799  9179 net.cpp:399] data -> label
I0403 12:37:03.638838  9179 data_transformer.cpp:25] Loading mean file from: /home/mohanty/data/final_dataset/lmdb/grayscale-20-80/mean.binaryproto
I0403 12:37:03.641501  9185 db_lmdb.cpp:38] Opened lmdb /home/mohanty/data/final_dataset/lmdb/grayscale-20-80/test_db
I0403 12:37:03.655879  9179 data_layer.cpp:41] output data size: 100,3,227,227
I0403 12:37:03.776123  9179 net.cpp:141] Setting up data
I0403 12:37:03.776218  9179 net.cpp:148] Top shape: 100 3 227 227 (15458700)
I0403 12:37:03.776240  9179 net.cpp:148] Top shape: 100 (100)
I0403 12:37:03.776264  9179 net.cpp:156] Memory required for data: 61835200
I0403 12:37:03.776291  9179 layer_factory.hpp:77] Creating layer label_data_1_split
I0403 12:37:03.776319  9179 net.cpp:91] Creating Layer label_data_1_split
I0403 12:37:03.776337  9179 net.cpp:425] label_data_1_split <- label
I0403 12:37:03.776370  9179 net.cpp:399] label_data_1_split -> label_data_1_split_0
I0403 12:37:03.776396  9179 net.cpp:399] label_data_1_split -> label_data_1_split_1
I0403 12:37:03.776417  9179 net.cpp:399] label_data_1_split -> label_data_1_split_2
I0403 12:37:03.776484  9179 net.cpp:141] Setting up label_data_1_split
I0403 12:37:03.776507  9179 net.cpp:148] Top shape: 100 (100)
I0403 12:37:03.776523  9179 net.cpp:148] Top shape: 100 (100)
I0403 12:37:03.776545  9179 net.cpp:148] Top shape: 100 (100)
I0403 12:37:03.776569  9179 net.cpp:156] Memory required for data: 61836400
I0403 12:37:03.776584  9179 layer_factory.hpp:77] Creating layer conv1
I0403 12:37:03.776618  9179 net.cpp:91] Creating Layer conv1
I0403 12:37:03.776635  9179 net.cpp:425] conv1 <- data
I0403 12:37:03.776655  9179 net.cpp:399] conv1 -> conv1
I0403 12:37:03.917181  9179 net.cpp:141] Setting up conv1
I0403 12:37:03.917260  9179 net.cpp:148] Top shape: 100 96 55 55 (29040000)
I0403 12:37:03.917278  9179 net.cpp:156] Memory required for data: 177996400
I0403 12:37:03.917309  9179 layer_factory.hpp:77] Creating layer relu1
I0403 12:37:03.917336  9179 net.cpp:91] Creating Layer relu1
I0403 12:37:03.917354  9179 net.cpp:425] relu1 <- conv1
I0403 12:37:03.917373  9179 net.cpp:386] relu1 -> conv1 (in-place)
I0403 12:37:03.917666  9179 net.cpp:141] Setting up relu1
I0403 12:37:03.917695  9179 net.cpp:148] Top shape: 100 96 55 55 (29040000)
I0403 12:37:03.917743  9179 net.cpp:156] Memory required for data: 294156400
I0403 12:37:03.917759  9179 layer_factory.hpp:77] Creating layer norm1
I0403 12:37:03.917786  9179 net.cpp:91] Creating Layer norm1
I0403 12:37:03.917804  9179 net.cpp:425] norm1 <- conv1
I0403 12:37:03.917821  9179 net.cpp:399] norm1 -> norm1
I0403 12:37:03.918128  9179 net.cpp:141] Setting up norm1
I0403 12:37:03.918155  9179 net.cpp:148] Top shape: 100 96 55 55 (29040000)
I0403 12:37:03.918170  9179 net.cpp:156] Memory required for data: 410316400
I0403 12:37:03.918185  9179 layer_factory.hpp:77] Creating layer pool1
I0403 12:37:03.918207  9179 net.cpp:91] Creating Layer pool1
I0403 12:37:03.918225  9179 net.cpp:425] pool1 <- norm1
I0403 12:37:03.918242  9179 net.cpp:399] pool1 -> pool1
I0403 12:37:03.918311  9179 net.cpp:141] Setting up pool1
I0403 12:37:03.918335  9179 net.cpp:148] Top shape: 100 96 27 27 (6998400)
I0403 12:37:03.918350  9179 net.cpp:156] Memory required for data: 438310000
I0403 12:37:03.918365  9179 layer_factory.hpp:77] Creating layer conv2
I0403 12:37:03.918390  9179 net.cpp:91] Creating Layer conv2
I0403 12:37:03.918406  9179 net.cpp:425] conv2 <- pool1
I0403 12:37:03.918422  9179 net.cpp:399] conv2 -> conv2
I0403 12:37:03.933585  9179 net.cpp:141] Setting up conv2
I0403 12:37:03.933640  9179 net.cpp:148] Top shape: 100 256 27 27 (18662400)
I0403 12:37:03.933657  9179 net.cpp:156] Memory required for data: 512959600
I0403 12:37:03.933678  9179 layer_factory.hpp:77] Creating layer relu2
I0403 12:37:03.933699  9179 net.cpp:91] Creating Layer relu2
I0403 12:37:03.933715  9179 net.cpp:425] relu2 <- conv2
I0403 12:37:03.933735  9179 net.cpp:386] relu2 -> conv2 (in-place)
I0403 12:37:03.934015  9179 net.cpp:141] Setting up relu2
I0403 12:37:03.934041  9179 net.cpp:148] Top shape: 100 256 27 27 (18662400)
I0403 12:37:03.934056  9179 net.cpp:156] Memory required for data: 587609200
I0403 12:37:03.934072  9179 layer_factory.hpp:77] Creating layer norm2
I0403 12:37:03.934094  9179 net.cpp:91] Creating Layer norm2
I0403 12:37:03.934111  9179 net.cpp:425] norm2 <- conv2
I0403 12:37:03.934130  9179 net.cpp:399] norm2 -> norm2
I0403 12:37:03.934326  9179 net.cpp:141] Setting up norm2
I0403 12:37:03.934355  9179 net.cpp:148] Top shape: 100 256 27 27 (18662400)
I0403 12:37:03.934370  9179 net.cpp:156] Memory required for data: 662258800
I0403 12:37:03.934386  9179 layer_factory.hpp:77] Creating layer pool2
I0403 12:37:03.934403  9179 net.cpp:91] Creating Layer pool2
I0403 12:37:03.934418  9179 net.cpp:425] pool2 <- norm2
I0403 12:37:03.934438  9179 net.cpp:399] pool2 -> pool2
I0403 12:37:03.934520  9179 net.cpp:141] Setting up pool2
I0403 12:37:03.934554  9179 net.cpp:148] Top shape: 100 256 13 13 (4326400)
I0403 12:37:03.934571  9179 net.cpp:156] Memory required for data: 679564400
I0403 12:37:03.934586  9179 layer_factory.hpp:77] Creating layer conv3
I0403 12:37:03.934615  9179 net.cpp:91] Creating Layer conv3
I0403 12:37:03.934633  9179 net.cpp:425] conv3 <- pool2
I0403 12:37:03.934653  9179 net.cpp:399] conv3 -> conv3
I0403 12:37:03.973273  9179 net.cpp:141] Setting up conv3
I0403 12:37:03.973346  9179 net.cpp:148] Top shape: 100 384 13 13 (6489600)
I0403 12:37:03.973364  9179 net.cpp:156] Memory required for data: 705522800
I0403 12:37:03.973389  9179 layer_factory.hpp:77] Creating layer relu3
I0403 12:37:03.973412  9179 net.cpp:91] Creating Layer relu3
I0403 12:37:03.973428  9179 net.cpp:425] relu3 <- conv3
I0403 12:37:03.973446  9179 net.cpp:386] relu3 -> conv3 (in-place)
I0403 12:37:03.973721  9179 net.cpp:141] Setting up relu3
I0403 12:37:03.973748  9179 net.cpp:148] Top shape: 100 384 13 13 (6489600)
I0403 12:37:03.973763  9179 net.cpp:156] Memory required for data: 731481200
I0403 12:37:03.973778  9179 layer_factory.hpp:77] Creating layer conv4
I0403 12:37:03.973801  9179 net.cpp:91] Creating Layer conv4
I0403 12:37:03.973817  9179 net.cpp:425] conv4 <- conv3
I0403 12:37:03.973837  9179 net.cpp:399] conv4 -> conv4
I0403 12:37:04.003892  9179 net.cpp:141] Setting up conv4
I0403 12:37:04.003962  9179 net.cpp:148] Top shape: 100 384 13 13 (6489600)
I0403 12:37:04.004014  9179 net.cpp:156] Memory required for data: 757439600
I0403 12:37:04.004050  9179 layer_factory.hpp:77] Creating layer relu4
I0403 12:37:04.004072  9179 net.cpp:91] Creating Layer relu4
I0403 12:37:04.004089  9179 net.cpp:425] relu4 <- conv4
I0403 12:37:04.004108  9179 net.cpp:386] relu4 -> conv4 (in-place)
I0403 12:37:04.004387  9179 net.cpp:141] Setting up relu4
I0403 12:37:04.004413  9179 net.cpp:148] Top shape: 100 384 13 13 (6489600)
I0403 12:37:04.004432  9179 net.cpp:156] Memory required for data: 783398000
I0403 12:37:04.004448  9179 layer_factory.hpp:77] Creating layer conv5
I0403 12:37:04.004472  9179 net.cpp:91] Creating Layer conv5
I0403 12:37:04.004487  9179 net.cpp:425] conv5 <- conv4
I0403 12:37:04.004506  9179 net.cpp:399] conv5 -> conv5
I0403 12:37:04.025364  9179 net.cpp:141] Setting up conv5
I0403 12:37:04.025415  9179 net.cpp:148] Top shape: 100 256 13 13 (4326400)
I0403 12:37:04.025432  9179 net.cpp:156] Memory required for data: 800703600
I0403 12:37:04.025460  9179 layer_factory.hpp:77] Creating layer relu5
I0403 12:37:04.025483  9179 net.cpp:91] Creating Layer relu5
I0403 12:37:04.025501  9179 net.cpp:425] relu5 <- conv5
I0403 12:37:04.025521  9179 net.cpp:386] relu5 -> conv5 (in-place)
I0403 12:37:04.025835  9179 net.cpp:141] Setting up relu5
I0403 12:37:04.025864  9179 net.cpp:148] Top shape: 100 256 13 13 (4326400)
I0403 12:37:04.025882  9179 net.cpp:156] Memory required for data: 818009200
I0403 12:37:04.025897  9179 layer_factory.hpp:77] Creating layer pool5
I0403 12:37:04.025918  9179 net.cpp:91] Creating Layer pool5
I0403 12:37:04.025935  9179 net.cpp:425] pool5 <- conv5
I0403 12:37:04.025957  9179 net.cpp:399] pool5 -> pool5
I0403 12:37:04.026018  9179 net.cpp:141] Setting up pool5
I0403 12:37:04.026044  9179 net.cpp:148] Top shape: 100 256 6 6 (921600)
I0403 12:37:04.026059  9179 net.cpp:156] Memory required for data: 821695600
I0403 12:37:04.026073  9179 layer_factory.hpp:77] Creating layer fc6
I0403 12:37:04.026100  9179 net.cpp:91] Creating Layer fc6
I0403 12:37:04.026118  9179 net.cpp:425] fc6 <- pool5
I0403 12:37:04.026139  9179 net.cpp:399] fc6 -> fc6
I0403 12:37:05.587959  9179 net.cpp:141] Setting up fc6
I0403 12:37:05.588006  9179 net.cpp:148] Top shape: 100 4096 (409600)
I0403 12:37:05.588022  9179 net.cpp:156] Memory required for data: 823334000
I0403 12:37:05.588043  9179 layer_factory.hpp:77] Creating layer relu6
I0403 12:37:05.588064  9179 net.cpp:91] Creating Layer relu6
I0403 12:37:05.588080  9179 net.cpp:425] relu6 <- fc6
I0403 12:37:05.588099  9179 net.cpp:386] relu6 -> fc6 (in-place)
I0403 12:37:05.588322  9179 net.cpp:141] Setting up relu6
I0403 12:37:05.588349  9179 net.cpp:148] Top shape: 100 4096 (409600)
I0403 12:37:05.588364  9179 net.cpp:156] Memory required for data: 824972400
I0403 12:37:05.588379  9179 layer_factory.hpp:77] Creating layer drop6
I0403 12:37:05.588397  9179 net.cpp:91] Creating Layer drop6
I0403 12:37:05.588413  9179 net.cpp:425] drop6 <- fc6
I0403 12:37:05.588430  9179 net.cpp:386] drop6 -> fc6 (in-place)
I0403 12:37:05.588479  9179 net.cpp:141] Setting up drop6
I0403 12:37:05.588500  9179 net.cpp:148] Top shape: 100 4096 (409600)
I0403 12:37:05.588515  9179 net.cpp:156] Memory required for data: 826610800
I0403 12:37:05.588528  9179 layer_factory.hpp:77] Creating layer fc7
I0403 12:37:05.588556  9179 net.cpp:91] Creating Layer fc7
I0403 12:37:05.588583  9179 net.cpp:425] fc7 <- fc6
I0403 12:37:05.588603  9179 net.cpp:399] fc7 -> fc7
I0403 12:37:06.271173  9179 net.cpp:141] Setting up fc7
I0403 12:37:06.271250  9179 net.cpp:148] Top shape: 100 4096 (409600)
I0403 12:37:06.271265  9179 net.cpp:156] Memory required for data: 828249200
I0403 12:37:06.271286  9179 layer_factory.hpp:77] Creating layer relu7
I0403 12:37:06.271317  9179 net.cpp:91] Creating Layer relu7
I0403 12:37:06.271334  9179 net.cpp:425] relu7 <- fc7
I0403 12:37:06.271353  9179 net.cpp:386] relu7 -> fc7 (in-place)
I0403 12:37:06.271766  9179 net.cpp:141] Setting up relu7
I0403 12:37:06.271795  9179 net.cpp:148] Top shape: 100 4096 (409600)
I0403 12:37:06.271849  9179 net.cpp:156] Memory required for data: 829887600
I0403 12:37:06.271865  9179 layer_factory.hpp:77] Creating layer drop7
I0403 12:37:06.271884  9179 net.cpp:91] Creating Layer drop7
I0403 12:37:06.271898  9179 net.cpp:425] drop7 <- fc7
I0403 12:37:06.271917  9179 net.cpp:386] drop7 -> fc7 (in-place)
I0403 12:37:06.271961  9179 net.cpp:141] Setting up drop7
I0403 12:37:06.271983  9179 net.cpp:148] Top shape: 100 4096 (409600)
I0403 12:37:06.271997  9179 net.cpp:156] Memory required for data: 831526000
I0403 12:37:06.272011  9179 layer_factory.hpp:77] Creating layer fc8_plantvillage
I0403 12:37:06.272032  9179 net.cpp:91] Creating Layer fc8_plantvillage
I0403 12:37:06.272047  9179 net.cpp:425] fc8_plantvillage <- fc7
I0403 12:37:06.272064  9179 net.cpp:399] fc8_plantvillage -> fc8_plantvillage
I0403 12:37:06.278985  9179 net.cpp:141] Setting up fc8_plantvillage
I0403 12:37:06.279013  9179 net.cpp:148] Top shape: 100 38 (3800)
I0403 12:37:06.279029  9179 net.cpp:156] Memory required for data: 831541200
I0403 12:37:06.279047  9179 layer_factory.hpp:77] Creating layer fc8_plantvillage_fc8_plantvillage_0_split
I0403 12:37:06.279065  9179 net.cpp:91] Creating Layer fc8_plantvillage_fc8_plantvillage_0_split
I0403 12:37:06.279081  9179 net.cpp:425] fc8_plantvillage_fc8_plantvillage_0_split <- fc8_plantvillage
I0403 12:37:06.279100  9179 net.cpp:399] fc8_plantvillage_fc8_plantvillage_0_split -> fc8_plantvillage_fc8_plantvillage_0_split_0
I0403 12:37:06.279121  9179 net.cpp:399] fc8_plantvillage_fc8_plantvillage_0_split -> fc8_plantvillage_fc8_plantvillage_0_split_1
I0403 12:37:06.279141  9179 net.cpp:399] fc8_plantvillage_fc8_plantvillage_0_split -> fc8_plantvillage_fc8_plantvillage_0_split_2
I0403 12:37:06.279220  9179 net.cpp:141] Setting up fc8_plantvillage_fc8_plantvillage_0_split
I0403 12:37:06.279243  9179 net.cpp:148] Top shape: 100 38 (3800)
I0403 12:37:06.279260  9179 net.cpp:148] Top shape: 100 38 (3800)
I0403 12:37:06.279275  9179 net.cpp:148] Top shape: 100 38 (3800)
I0403 12:37:06.279290  9179 net.cpp:156] Memory required for data: 831586800
I0403 12:37:06.279304  9179 layer_factory.hpp:77] Creating layer prob
I0403 12:37:06.279325  9179 net.cpp:91] Creating Layer prob
I0403 12:37:06.279342  9179 net.cpp:425] prob <- fc8_plantvillage_fc8_plantvillage_0_split_0
I0403 12:37:06.279361  9179 net.cpp:399] prob -> prob
I0403 12:37:06.279593  9179 net.cpp:141] Setting up prob
I0403 12:37:06.279623  9179 net.cpp:148] Top shape: 100 38 (3800)
I0403 12:37:06.279638  9179 net.cpp:156] Memory required for data: 831602000
I0403 12:37:06.279652  9179 layer_factory.hpp:77] Creating layer hdf5out
I0403 12:37:06.279670  9179 net.cpp:91] Creating Layer hdf5out
I0403 12:37:06.279685  9179 net.cpp:425] hdf5out <- prob
I0403 12:37:06.279701  9179 net.cpp:425] hdf5out <- label_data_1_split_0
I0403 12:37:06.282196  9179 net.cpp:141] Setting up hdf5out
…
