…
I0403 12:21:06.835307  8783 net.cpp:313] The NetState phase (1) differed from the phase (0) specified by a rule in layer data
I0403 12:21:06.835618  8783 net.cpp:49] Initializing net from parameters: 
state {
  phase: TEST
}
layer {
  name: "data"
  type: "Data"
  top: "data"
  top: "label"
  include {
    phase: TEST
  }
  transform_param {
    crop_size: 227
    mean_file: "/home/mohanty/data/final_dataset/lmdb/grayscale-20-80/mean.binaryproto"
  }
  data_param {
    source: "/home/mohanty/data/final_dataset/lmdb/grayscale-20-80/test_db"
    batch_size: 100
    backend: LMDB
  }
}
layer {
  name: "conv1"
  type: "Convolution"
  bottom: "data"
  top: "conv1"
  param {
    lr_mult: 1
    decay_mult: 1
  }
  param {
    lr_mult: 2
    decay_mult: 0
  }
  convolution_param {
    num_output: 96
    kernel_size: 11
    stride: 4
    weight_filler {
      type: "gaussian"
      std: 0.01
    }
    bias_filler {
      type: "constant"
      value: 0
    }
  }
}
layer {
  name: "relu1"
  type: "ReLU"
  bottom: "conv1"
  top: "conv1"
}
layer {
  name: "norm1"
  type: "LRN"
  bottom: "conv1"
  top: "norm1"
  lrn_param {
    local_size: 5
    alpha: 0.0001
    beta: 0.75
  }
}
layer {
  name: "pool1"
  type: "Pooling"
  bottom: "norm1"
  top: "pool1"
  pooling_param {
    pool: MAX
    kernel_size: 3
    stride: 2
  }
}
layer {
  name: "conv2"
  type: "Convolution"
  bottom: "pool1"
  top: "conv2"
  param {
    lr_mult: 1
    decay_mult: 1
  }
  param {
    lr_mult: 2
    decay_mult: 0
  }
  convolution_param {
    num_output: 256
    pad: 2
    kernel_size: 5
    group: 2
    weight_filler {
      type: "gaussian"
      std: 0.01
    }
    bias_filler {
      type: "constant"
      value: 0.1
    }
  }
}
layer {
  name: "relu2"
  type: "ReLU"
  bottom: "conv2"
  top: "conv2"
}
layer {
  name: "norm2"
  type: "LRN"
  bottom: "conv2"
  top: "norm2"
  lrn_param {
    local_size: 5
    alpha: 0.0001
    beta: 0.75
  }
}
layer {
  name: "pool2"
  type: "Pooling"
  bottom: "norm2"
  top: "pool2"
  pooling_param {
    pool: MAX
    kernel_size: 3
    stride: 2
  }
}
layer {
  name: "conv3"
  type: "Convolution"
  bottom: "pool2"
  top: "conv3"
  param {
    lr_mult: 1
    decay_mult: 1
  }
  param {
    lr_mult: 2
    decay_mult: 0
  }
  convolution_param {
    num_output: 384
    pad: 1
    kernel_size: 3
    weight_filler {
      type: "gaussian"
      std: 0.01
    }
    bias_filler {
      type: "constant"
      value: 0
    }
  }
}
layer {
  name: "relu3"
  type: "ReLU"
  bottom: "conv3"
  top: "conv3"
}
layer {
  name: "conv4"
  type: "Convolution"
  bottom: "conv3"
  top: "conv4"
  param {
    lr_mult: 1
    decay_mult: 1
  }
  param {
    lr_mult: 2
    decay_mult: 0
  }
  convolution_param {
    num_output: 384
    pad: 1
    kernel_size: 3
    group: 2
    weight_filler {
      type: "gaussian"
      std: 0.01
    }
    bias_filler {
      type: "constant"
      value: 0.1
    }
  }
}
layer {
  name: "relu4"
  type: "ReLU"
  bottom: "conv4"
  top: "conv4"
}
layer {
  name: "conv5"
  type: "Convolution"
  bottom: "conv4"
  top: "conv5"
  param {
    lr_mult: 1
    decay_mult: 1
  }
  param {
    lr_mult: 2
    decay_mult: 0
  }
  convolution_param {
    num_output: 256
    pad: 1
    kernel_size: 3
    group: 2
    weight_filler {
      type: "gaussian"
      std: 0.01
    }
    bias_filler {
      type: "constant"
      value: 0.1
    }
  }
}
layer {
  name: "relu5"
  type: "ReLU"
  bottom: "conv5"
  top: "conv5"
}
layer {
  name: "pool5"
  type: "Pooling"
  bottom: "conv5"
  top: "pool5"
  pooling_param {
    pool: MAX
    kernel_size: 3
    stride: 2
  }
}
layer {
  name: "fc6"
  type: "InnerProduct"
  bottom: "pool5"
  top: "fc6"
  param {
    lr_mult: 1
    decay_mult: 1
  }
  param {
    lr_mult: 2
    decay_mult: 0
  }
  inner_product_param {
    num_output: 4096
    weight_filler {
      type: "gaussian"
      std: 0.005
    }
    bias_filler {
      type: "constant"
      value: 0.1
    }
  }
}
layer {
  name: "relu6"
  type: "ReLU"
  bottom: "fc6"
  top: "fc6"
}
layer {
  name: "drop6"
  type: "Dropout"
  bottom: "fc6"
  top: "fc6"
  dropout_param {
    dropout_ratio: 0.5
  }
}
layer {
  name: "fc7"
  type: "InnerProduct"
  bottom: "fc6"
  top: "fc7"
  param {
    lr_mult: 1
    decay_mult: 1
  }
  param {
    lr_mult: 2
    decay_mult: 0
  }
  inner_product_param {
    num_output: 4096
    weight_filler {
      type: "gaussian"
      std: 0.005
    }
    bias_filler {
      type: "constant"
      value: 0.1
    }
  }
}
layer {
  name: "relu7"
  type: "ReLU"
  bottom: "fc7"
  top: "fc7"
}
layer {
  name: "drop7"
  type: "Dropout"
  bottom: "fc7"
  top: "fc7"
  dropout_param {
    dropout_ratio: 0.5
  }
}
layer {
  name: "fc8_plantvillage"
  type: "InnerProduct"
  bottom: "fc7"
  top: "fc8_plantvillage"
  param {
    lr_mult: 1
    decay_mult: 1
  }
  param {
    lr_mult: 2
    decay_mult: 0
  }
  inner_product_param {
    num_output: 38
    weight_filler {
      type: "gaussian"
      std: 0.01
    }
    bias_filler {
      type: "constant"
      value: 0
    }
  }
}
layer {
  name: "prob"
  type: "Softmax"
  bottom: "fc8_plantvillage"
  top: "prob"
  include {
    phase: TEST
  }
}
layer {
  name: "hdf5out"
  type: "HDF5Output"
  bottom: "prob"
  bottom: "label"
  include {
    phase: TEST
  }
  hdf5_output_param {
    file_name: "hdf5_dumps/iter_1470.h5"
  }
}
layer {
  name: "loss"
  type: "SoftmaxWithLoss"
  bottom: "fc8_plantvillage"
  bottom: "label"
  top: "loss"
}
layer {
  name: "accuracy"
  type: "Accuracy"
  bottom: "fc8_plantvillage"
  bottom: "label"
  top: "accuracy"
  include {
    phase: TEST
  }
}
I0403 12:21:06.836248  8783 layer_factory.hpp:77] Creating layer data
I0403 12:21:06.836901  8783 net.cpp:91] Creating Layer data
I0403 12:21:06.836930  8783 net.cpp:399] data -> data
I0403 12:21:06.836982  8783 net.cpp:399] data -> label
I0403 12:21:06.837016  8783 data_transformer.cpp:25] Loading mean file from: /home/mohanty/data/final_dataset/lmdb/grayscale-20-80/mean.binaryproto
I0403 12:21:06.847152  8786 db_lmdb.cpp:38] Opened lmdb /home/mohanty/data/final_dataset/lmdb/grayscale-20-80/test_db
I0403 12:21:06.851449  8783 data_layer.cpp:41] output data size: 100,3,227,227
I0403 12:21:06.972693  8783 net.cpp:141] Setting up data
I0403 12:21:06.972789  8783 net.cpp:148] Top shape: 100 3 227 227 (15458700)
I0403 12:21:06.972813  8783 net.cpp:148] Top shape: 100 (100)
I0403 12:21:06.972829  8783 net.cpp:156] Memory required for data: 61835200
I0403 12:21:06.972857  8783 layer_factory.hpp:77] Creating layer label_data_1_split
I0403 12:21:06.972883  8783 net.cpp:91] Creating Layer label_data_1_split
I0403 12:21:06.972901  8783 net.cpp:425] label_data_1_split <- label
I0403 12:21:06.972934  8783 net.cpp:399] label_data_1_split -> label_data_1_split_0
I0403 12:21:06.972961  8783 net.cpp:399] label_data_1_split -> label_data_1_split_1
I0403 12:21:06.972982  8783 net.cpp:399] label_data_1_split -> label_data_1_split_2
I0403 12:21:06.973049  8783 net.cpp:141] Setting up label_data_1_split
I0403 12:21:06.973073  8783 net.cpp:148] Top shape: 100 (100)
I0403 12:21:06.973089  8783 net.cpp:148] Top shape: 100 (100)
I0403 12:21:06.973105  8783 net.cpp:148] Top shape: 100 (100)
I0403 12:21:06.973119  8783 net.cpp:156] Memory required for data: 61836400
I0403 12:21:06.973134  8783 layer_factory.hpp:77] Creating layer conv1
I0403 12:21:06.973166  8783 net.cpp:91] Creating Layer conv1
I0403 12:21:06.973186  8783 net.cpp:425] conv1 <- data
I0403 12:21:06.973206  8783 net.cpp:399] conv1 -> conv1
I0403 12:21:07.117612  8783 net.cpp:141] Setting up conv1
I0403 12:21:07.117689  8783 net.cpp:148] Top shape: 100 96 55 55 (29040000)
I0403 12:21:07.117707  8783 net.cpp:156] Memory required for data: 177996400
I0403 12:21:07.117738  8783 layer_factory.hpp:77] Creating layer relu1
I0403 12:21:07.117766  8783 net.cpp:91] Creating Layer relu1
I0403 12:21:07.117784  8783 net.cpp:425] relu1 <- conv1
I0403 12:21:07.117804  8783 net.cpp:386] relu1 -> conv1 (in-place)
I0403 12:21:07.118109  8783 net.cpp:141] Setting up relu1
I0403 12:21:07.118136  8783 net.cpp:148] Top shape: 100 96 55 55 (29040000)
I0403 12:21:07.118186  8783 net.cpp:156] Memory required for data: 294156400
I0403 12:21:07.118203  8783 layer_factory.hpp:77] Creating layer norm1
I0403 12:21:07.118232  8783 net.cpp:91] Creating Layer norm1
I0403 12:21:07.118249  8783 net.cpp:425] norm1 <- conv1
I0403 12:21:07.118269  8783 net.cpp:399] norm1 -> norm1
I0403 12:21:07.118582  8783 net.cpp:141] Setting up norm1
I0403 12:21:07.118608  8783 net.cpp:148] Top shape: 100 96 55 55 (29040000)
I0403 12:21:07.118625  8783 net.cpp:156] Memory required for data: 410316400
I0403 12:21:07.118640  8783 layer_factory.hpp:77] Creating layer pool1
I0403 12:21:07.118664  8783 net.cpp:91] Creating Layer pool1
I0403 12:21:07.118681  8783 net.cpp:425] pool1 <- norm1
I0403 12:21:07.118700  8783 net.cpp:399] pool1 -> pool1
I0403 12:21:07.118765  8783 net.cpp:141] Setting up pool1
I0403 12:21:07.118789  8783 net.cpp:148] Top shape: 100 96 27 27 (6998400)
I0403 12:21:07.118804  8783 net.cpp:156] Memory required for data: 438310000
I0403 12:21:07.118818  8783 layer_factory.hpp:77] Creating layer conv2
I0403 12:21:07.118844  8783 net.cpp:91] Creating Layer conv2
I0403 12:21:07.118860  8783 net.cpp:425] conv2 <- pool1
I0403 12:21:07.118876  8783 net.cpp:399] conv2 -> conv2
I0403 12:21:07.134001  8783 net.cpp:141] Setting up conv2
I0403 12:21:07.134057  8783 net.cpp:148] Top shape: 100 256 27 27 (18662400)
I0403 12:21:07.134075  8783 net.cpp:156] Memory required for data: 512959600
I0403 12:21:07.134099  8783 layer_factory.hpp:77] Creating layer relu2
I0403 12:21:07.134119  8783 net.cpp:91] Creating Layer relu2
I0403 12:21:07.134135  8783 net.cpp:425] relu2 <- conv2
I0403 12:21:07.134155  8783 net.cpp:386] relu2 -> conv2 (in-place)
I0403 12:21:07.134444  8783 net.cpp:141] Setting up relu2
I0403 12:21:07.134471  8783 net.cpp:148] Top shape: 100 256 27 27 (18662400)
I0403 12:21:07.134490  8783 net.cpp:156] Memory required for data: 587609200
I0403 12:21:07.134515  8783 layer_factory.hpp:77] Creating layer norm2
I0403 12:21:07.134543  8783 net.cpp:91] Creating Layer norm2
I0403 12:21:07.134560  8783 net.cpp:425] norm2 <- conv2
I0403 12:21:07.134579  8783 net.cpp:399] norm2 -> norm2
I0403 12:21:07.134783  8783 net.cpp:141] Setting up norm2
I0403 12:21:07.134811  8783 net.cpp:148] Top shape: 100 256 27 27 (18662400)
I0403 12:21:07.134827  8783 net.cpp:156] Memory required for data: 662258800
I0403 12:21:07.134842  8783 layer_factory.hpp:77] Creating layer pool2
I0403 12:21:07.134861  8783 net.cpp:91] Creating Layer pool2
I0403 12:21:07.134876  8783 net.cpp:425] pool2 <- norm2
I0403 12:21:07.134919  8783 net.cpp:399] pool2 -> pool2
I0403 12:21:07.134979  8783 net.cpp:141] Setting up pool2
I0403 12:21:07.135002  8783 net.cpp:148] Top shape: 100 256 13 13 (4326400)
I0403 12:21:07.135017  8783 net.cpp:156] Memory required for data: 679564400
I0403 12:21:07.135031  8783 layer_factory.hpp:77] Creating layer conv3
I0403 12:21:07.135056  8783 net.cpp:91] Creating Layer conv3
I0403 12:21:07.135072  8783 net.cpp:425] conv3 <- pool2
I0403 12:21:07.135092  8783 net.cpp:399] conv3 -> conv3
I0403 12:21:07.173853  8783 net.cpp:141] Setting up conv3
I0403 12:21:07.173900  8783 net.cpp:148] Top shape: 100 384 13 13 (6489600)
I0403 12:21:07.173918  8783 net.cpp:156] Memory required for data: 705522800
I0403 12:21:07.173943  8783 layer_factory.hpp:77] Creating layer relu3
I0403 12:21:07.173965  8783 net.cpp:91] Creating Layer relu3
I0403 12:21:07.173982  8783 net.cpp:425] relu3 <- conv3
I0403 12:21:07.174003  8783 net.cpp:386] relu3 -> conv3 (in-place)
I0403 12:21:07.174295  8783 net.cpp:141] Setting up relu3
I0403 12:21:07.174322  8783 net.cpp:148] Top shape: 100 384 13 13 (6489600)
I0403 12:21:07.174337  8783 net.cpp:156] Memory required for data: 731481200
I0403 12:21:07.174352  8783 layer_factory.hpp:77] Creating layer conv4
I0403 12:21:07.174376  8783 net.cpp:91] Creating Layer conv4
I0403 12:21:07.174394  8783 net.cpp:425] conv4 <- conv3
I0403 12:21:07.174414  8783 net.cpp:399] conv4 -> conv4
I0403 12:21:07.204617  8783 net.cpp:141] Setting up conv4
I0403 12:21:07.204694  8783 net.cpp:148] Top shape: 100 384 13 13 (6489600)
I0403 12:21:07.204747  8783 net.cpp:156] Memory required for data: 757439600
I0403 12:21:07.204771  8783 layer_factory.hpp:77] Creating layer relu4
I0403 12:21:07.204792  8783 net.cpp:91] Creating Layer relu4
I0403 12:21:07.204809  8783 net.cpp:425] relu4 <- conv4
I0403 12:21:07.204828  8783 net.cpp:386] relu4 -> conv4 (in-place)
I0403 12:21:07.205179  8783 net.cpp:141] Setting up relu4
I0403 12:21:07.205231  8783 net.cpp:148] Top shape: 100 384 13 13 (6489600)
I0403 12:21:07.205247  8783 net.cpp:156] Memory required for data: 783398000
I0403 12:21:07.205263  8783 layer_factory.hpp:77] Creating layer conv5
I0403 12:21:07.205293  8783 net.cpp:91] Creating Layer conv5
I0403 12:21:07.205312  8783 net.cpp:425] conv5 <- conv4
I0403 12:21:07.205339  8783 net.cpp:399] conv5 -> conv5
I0403 12:21:07.226189  8783 net.cpp:141] Setting up conv5
I0403 12:21:07.226245  8783 net.cpp:148] Top shape: 100 256 13 13 (4326400)
I0403 12:21:07.226263  8783 net.cpp:156] Memory required for data: 800703600
I0403 12:21:07.226287  8783 layer_factory.hpp:77] Creating layer relu5
I0403 12:21:07.226308  8783 net.cpp:91] Creating Layer relu5
I0403 12:21:07.226325  8783 net.cpp:425] relu5 <- conv5
I0403 12:21:07.226344  8783 net.cpp:386] relu5 -> conv5 (in-place)
I0403 12:21:07.226634  8783 net.cpp:141] Setting up relu5
I0403 12:21:07.226661  8783 net.cpp:148] Top shape: 100 256 13 13 (4326400)
I0403 12:21:07.226677  8783 net.cpp:156] Memory required for data: 818009200
I0403 12:21:07.226694  8783 layer_factory.hpp:77] Creating layer pool5
I0403 12:21:07.226718  8783 net.cpp:91] Creating Layer pool5
I0403 12:21:07.226737  8783 net.cpp:425] pool5 <- conv5
I0403 12:21:07.226755  8783 net.cpp:399] pool5 -> pool5
I0403 12:21:07.226815  8783 net.cpp:141] Setting up pool5
I0403 12:21:07.226840  8783 net.cpp:148] Top shape: 100 256 6 6 (921600)
I0403 12:21:07.226855  8783 net.cpp:156] Memory required for data: 821695600
I0403 12:21:07.226869  8783 layer_factory.hpp:77] Creating layer fc6
I0403 12:21:07.226897  8783 net.cpp:91] Creating Layer fc6
I0403 12:21:07.226914  8783 net.cpp:425] fc6 <- pool5
I0403 12:21:07.226935  8783 net.cpp:399] fc6 -> fc6
I0403 12:21:08.785812  8783 net.cpp:141] Setting up fc6
I0403 12:21:08.785881  8783 net.cpp:148] Top shape: 100 4096 (409600)
I0403 12:21:08.785907  8783 net.cpp:156] Memory required for data: 823334000
I0403 12:21:08.785928  8783 layer_factory.hpp:77] Creating layer relu6
I0403 12:21:08.785949  8783 net.cpp:91] Creating Layer relu6
I0403 12:21:08.785967  8783 net.cpp:425] relu6 <- fc6
I0403 12:21:08.785987  8783 net.cpp:386] relu6 -> fc6 (in-place)
I0403 12:21:08.786209  8783 net.cpp:141] Setting up relu6
I0403 12:21:08.786238  8783 net.cpp:148] Top shape: 100 4096 (409600)
I0403 12:21:08.786254  8783 net.cpp:156] Memory required for data: 824972400
I0403 12:21:08.786268  8783 layer_factory.hpp:77] Creating layer drop6
I0403 12:21:08.786288  8783 net.cpp:91] Creating Layer drop6
I0403 12:21:08.786303  8783 net.cpp:425] drop6 <- fc6
I0403 12:21:08.786320  8783 net.cpp:386] drop6 -> fc6 (in-place)
I0403 12:21:08.786372  8783 net.cpp:141] Setting up drop6
I0403 12:21:08.786396  8783 net.cpp:148] Top shape: 100 4096 (409600)
I0403 12:21:08.786409  8783 net.cpp:156] Memory required for data: 826610800
I0403 12:21:08.786423  8783 layer_factory.hpp:77] Creating layer fc7
I0403 12:21:08.786445  8783 net.cpp:91] Creating Layer fc7
I0403 12:21:08.786461  8783 net.cpp:425] fc7 <- fc6
I0403 12:21:08.786484  8783 net.cpp:399] fc7 -> fc7
I0403 12:21:09.471164  8783 net.cpp:141] Setting up fc7
I0403 12:21:09.471242  8783 net.cpp:148] Top shape: 100 4096 (409600)
I0403 12:21:09.471258  8783 net.cpp:156] Memory required for data: 828249200
I0403 12:21:09.471281  8783 layer_factory.hpp:77] Creating layer relu7
I0403 12:21:09.471302  8783 net.cpp:91] Creating Layer relu7
I0403 12:21:09.471318  8783 net.cpp:425] relu7 <- fc7
I0403 12:21:09.471338  8783 net.cpp:386] relu7 -> fc7 (in-place)
I0403 12:21:09.471762  8783 net.cpp:141] Setting up relu7
I0403 12:21:09.471791  8783 net.cpp:148] Top shape: 100 4096 (409600)
I0403 12:21:09.471846  8783 net.cpp:156] Memory required for data: 829887600
I0403 12:21:09.471863  8783 layer_factory.hpp:77] Creating layer drop7
I0403 12:21:09.471881  8783 net.cpp:91] Creating Layer drop7
I0403 12:21:09.471896  8783 net.cpp:425] drop7 <- fc7
I0403 12:21:09.471916  8783 net.cpp:386] drop7 -> fc7 (in-place)
I0403 12:21:09.471961  8783 net.cpp:141] Setting up drop7
I0403 12:21:09.471982  8783 net.cpp:148] Top shape: 100 4096 (409600)
I0403 12:21:09.471997  8783 net.cpp:156] Memory required for data: 831526000
I0403 12:21:09.472009  8783 layer_factory.hpp:77] Creating layer fc8_plantvillage
I0403 12:21:09.472031  8783 net.cpp:91] Creating Layer fc8_plantvillage
I0403 12:21:09.472048  8783 net.cpp:425] fc8_plantvillage <- fc7
I0403 12:21:09.472067  8783 net.cpp:399] fc8_plantvillage -> fc8_plantvillage
I0403 12:21:09.478790  8783 net.cpp:141] Setting up fc8_plantvillage
I0403 12:21:09.478818  8783 net.cpp:148] Top shape: 100 38 (3800)
I0403 12:21:09.478833  8783 net.cpp:156] Memory required for data: 831541200
I0403 12:21:09.478852  8783 layer_factory.hpp:77] Creating layer fc8_plantvillage_fc8_plantvillage_0_split
I0403 12:21:09.478869  8783 net.cpp:91] Creating Layer fc8_plantvillage_fc8_plantvillage_0_split
I0403 12:21:09.478884  8783 net.cpp:425] fc8_plantvillage_fc8_plantvillage_0_split <- fc8_plantvillage
I0403 12:21:09.478904  8783 net.cpp:399] fc8_plantvillage_fc8_plantvillage_0_split -> fc8_plantvillage_fc8_plantvillage_0_split_0
I0403 12:21:09.478924  8783 net.cpp:399] fc8_plantvillage_fc8_plantvillage_0_split -> fc8_plantvillage_fc8_plantvillage_0_split_1
I0403 12:21:09.478945  8783 net.cpp:399] fc8_plantvillage_fc8_plantvillage_0_split -> fc8_plantvillage_fc8_plantvillage_0_split_2
I0403 12:21:09.479022  8783 net.cpp:141] Setting up fc8_plantvillage_fc8_plantvillage_0_split
I0403 12:21:09.479046  8783 net.cpp:148] Top shape: 100 38 (3800)
I0403 12:21:09.479063  8783 net.cpp:148] Top shape: 100 38 (3800)
I0403 12:21:09.479077  8783 net.cpp:148] Top shape: 100 38 (3800)
I0403 12:21:09.479091  8783 net.cpp:156] Memory required for data: 831586800
I0403 12:21:09.479105  8783 layer_factory.hpp:77] Creating layer prob
I0403 12:21:09.479122  8783 net.cpp:91] Creating Layer prob
I0403 12:21:09.479137  8783 net.cpp:425] prob <- fc8_plantvillage_fc8_plantvillage_0_split_0
I0403 12:21:09.479154  8783 net.cpp:399] prob -> prob
I0403 12:21:09.479377  8783 net.cpp:141] Setting up prob
I0403 12:21:09.479404  8783 net.cpp:148] Top shape: 100 38 (3800)
I0403 12:21:09.479419  8783 net.cpp:156] Memory required for data: 831602000
I0403 12:21:09.479434  8783 layer_factory.hpp:77] Creating layer hdf5out
I0403 12:21:09.479452  8783 net.cpp:91] Creating Layer hdf5out
I0403 12:21:09.479468  8783 net.cpp:425] hdf5out <- prob
I0403 12:21:09.479483  8783 net.cpp:425] hdf5out <- label_data_1_split_0
I0403 12:21:09.754884  8783 net.cpp:141] Setting up hdf5out
…
