…
I0403 12:25:28.502270  8889 net.cpp:313] The NetState phase (1) differed from the phase (0) specified by a rule in layer data
I0403 12:25:28.502586  8889 net.cpp:49] Initializing net from parameters: 
state {
  phase: TEST
}
layer {
  name: "data"
  type: "Data"
  top: "data"
  top: "label"
  include {
    phase: TEST
  }
  transform_param {
    crop_size: 227
    mean_file: "/home/mohanty/data/final_dataset/lmdb/grayscale-20-80/mean.binaryproto"
  }
  data_param {
    source: "/home/mohanty/data/final_dataset/lmdb/grayscale-20-80/test_db"
    batch_size: 100
    backend: LMDB
  }
}
layer {
  name: "conv1"
  type: "Convolution"
  bottom: "data"
  top: "conv1"
  param {
    lr_mult: 1
    decay_mult: 1
  }
  param {
    lr_mult: 2
    decay_mult: 0
  }
  convolution_param {
    num_output: 96
    kernel_size: 11
    stride: 4
    weight_filler {
      type: "gaussian"
      std: 0.01
    }
    bias_filler {
      type: "constant"
      value: 0
    }
  }
}
layer {
  name: "relu1"
  type: "ReLU"
  bottom: "conv1"
  top: "conv1"
}
layer {
  name: "norm1"
  type: "LRN"
  bottom: "conv1"
  top: "norm1"
  lrn_param {
    local_size: 5
    alpha: 0.0001
    beta: 0.75
  }
}
layer {
  name: "pool1"
  type: "Pooling"
  bottom: "norm1"
  top: "pool1"
  pooling_param {
    pool: MAX
    kernel_size: 3
    stride: 2
  }
}
layer {
  name: "conv2"
  type: "Convolution"
  bottom: "pool1"
  top: "conv2"
  param {
    lr_mult: 1
    decay_mult: 1
  }
  param {
    lr_mult: 2
    decay_mult: 0
  }
  convolution_param {
    num_output: 256
    pad: 2
    kernel_size: 5
    group: 2
    weight_filler {
      type: "gaussian"
      std: 0.01
    }
    bias_filler {
      type: "constant"
      value: 0.1
    }
  }
}
layer {
  name: "relu2"
  type: "ReLU"
  bottom: "conv2"
  top: "conv2"
}
layer {
  name: "norm2"
  type: "LRN"
  bottom: "conv2"
  top: "norm2"
  lrn_param {
    local_size: 5
    alpha: 0.0001
    beta: 0.75
  }
}
layer {
  name: "pool2"
  type: "Pooling"
  bottom: "norm2"
  top: "pool2"
  pooling_param {
    pool: MAX
    kernel_size: 3
    stride: 2
  }
}
layer {
  name: "conv3"
  type: "Convolution"
  bottom: "pool2"
  top: "conv3"
  param {
    lr_mult: 1
    decay_mult: 1
  }
  param {
    lr_mult: 2
    decay_mult: 0
  }
  convolution_param {
    num_output: 384
    pad: 1
    kernel_size: 3
    weight_filler {
      type: "gaussian"
      std: 0.01
    }
    bias_filler {
      type: "constant"
      value: 0
    }
  }
}
layer {
  name: "relu3"
  type: "ReLU"
  bottom: "conv3"
  top: "conv3"
}
layer {
  name: "conv4"
  type: "Convolution"
  bottom: "conv3"
  top: "conv4"
  param {
    lr_mult: 1
    decay_mult: 1
  }
  param {
    lr_mult: 2
    decay_mult: 0
  }
  convolution_param {
    num_output: 384
    pad: 1
    kernel_size: 3
    group: 2
    weight_filler {
      type: "gaussian"
      std: 0.01
    }
    bias_filler {
      type: "constant"
      value: 0.1
    }
  }
}
layer {
  name: "relu4"
  type: "ReLU"
  bottom: "conv4"
  top: "conv4"
}
layer {
  name: "conv5"
  type: "Convolution"
  bottom: "conv4"
  top: "conv5"
  param {
    lr_mult: 1
    decay_mult: 1
  }
  param {
    lr_mult: 2
    decay_mult: 0
  }
  convolution_param {
    num_output: 256
    pad: 1
    kernel_size: 3
    group: 2
    weight_filler {
      type: "gaussian"
      std: 0.01
    }
    bias_filler {
      type: "constant"
      value: 0.1
    }
  }
}
layer {
  name: "relu5"
  type: "ReLU"
  bottom: "conv5"
  top: "conv5"
}
layer {
  name: "pool5"
  type: "Pooling"
  bottom: "conv5"
  top: "pool5"
  pooling_param {
    pool: MAX
    kernel_size: 3
    stride: 2
  }
}
layer {
  name: "fc6"
  type: "InnerProduct"
  bottom: "pool5"
  top: "fc6"
  param {
    lr_mult: 1
    decay_mult: 1
  }
  param {
    lr_mult: 2
    decay_mult: 0
  }
  inner_product_param {
    num_output: 4096
    weight_filler {
      type: "gaussian"
      std: 0.005
    }
    bias_filler {
      type: "constant"
      value: 0.1
    }
  }
}
layer {
  name: "relu6"
  type: "ReLU"
  bottom: "fc6"
  top: "fc6"
}
layer {
  name: "drop6"
  type: "Dropout"
  bottom: "fc6"
  top: "fc6"
  dropout_param {
    dropout_ratio: 0.5
  }
}
layer {
  name: "fc7"
  type: "InnerProduct"
  bottom: "fc6"
  top: "fc7"
  param {
    lr_mult: 1
    decay_mult: 1
  }
  param {
    lr_mult: 2
    decay_mult: 0
  }
  inner_product_param {
    num_output: 4096
    weight_filler {
      type: "gaussian"
      std: 0.005
    }
    bias_filler {
      type: "constant"
      value: 0.1
    }
  }
}
layer {
  name: "relu7"
  type: "ReLU"
  bottom: "fc7"
  top: "fc7"
}
layer {
  name: "drop7"
  type: "Dropout"
  bottom: "fc7"
  top: "fc7"
  dropout_param {
    dropout_ratio: 0.5
  }
}
layer {
  name: "fc8_plantvillage"
  type: "InnerProduct"
  bottom: "fc7"
  top: "fc8_plantvillage"
  param {
    lr_mult: 1
    decay_mult: 1
  }
  param {
    lr_mult: 2
    decay_mult: 0
  }
  inner_product_param {
    num_output: 38
    weight_filler {
      type: "gaussian"
      std: 0.01
    }
    bias_filler {
      type: "constant"
      value: 0
    }
  }
}
layer {
  name: "prob"
  type: "Softmax"
  bottom: "fc8_plantvillage"
  top: "prob"
  include {
    phase: TEST
  }
}
layer {
  name: "hdf5out"
  type: "HDF5Output"
  bottom: "prob"
  bottom: "label"
  include {
    phase: TEST
  }
  hdf5_output_param {
    file_name: "hdf5_dumps/iter_1785.h5"
  }
}
layer {
  name: "loss"
  type: "SoftmaxWithLoss"
  bottom: "fc8_plantvillage"
  bottom: "label"
  top: "loss"
}
layer {
  name: "accuracy"
  type: "Accuracy"
  bottom: "fc8_plantvillage"
  bottom: "label"
  top: "accuracy"
  include {
    phase: TEST
  }
}
I0403 12:25:28.503135  8889 layer_factory.hpp:77] Creating layer data
I0403 12:25:28.503754  8889 net.cpp:91] Creating Layer data
I0403 12:25:28.503787  8889 net.cpp:399] data -> data
I0403 12:25:28.503837  8889 net.cpp:399] data -> label
I0403 12:25:28.503873  8889 data_transformer.cpp:25] Loading mean file from: /home/mohanty/data/final_dataset/lmdb/grayscale-20-80/mean.binaryproto
I0403 12:25:28.507117  8893 db_lmdb.cpp:38] Opened lmdb /home/mohanty/data/final_dataset/lmdb/grayscale-20-80/test_db
I0403 12:25:28.517565  8889 data_layer.cpp:41] output data size: 100,3,227,227
I0403 12:25:28.632983  8889 net.cpp:141] Setting up data
I0403 12:25:28.633077  8889 net.cpp:148] Top shape: 100 3 227 227 (15458700)
I0403 12:25:28.633100  8889 net.cpp:148] Top shape: 100 (100)
I0403 12:25:28.633114  8889 net.cpp:156] Memory required for data: 61835200
I0403 12:25:28.633142  8889 layer_factory.hpp:77] Creating layer label_data_1_split
I0403 12:25:28.633167  8889 net.cpp:91] Creating Layer label_data_1_split
I0403 12:25:28.633184  8889 net.cpp:425] label_data_1_split <- label
I0403 12:25:28.633215  8889 net.cpp:399] label_data_1_split -> label_data_1_split_0
I0403 12:25:28.633242  8889 net.cpp:399] label_data_1_split -> label_data_1_split_1
I0403 12:25:28.633263  8889 net.cpp:399] label_data_1_split -> label_data_1_split_2
I0403 12:25:28.633327  8889 net.cpp:141] Setting up label_data_1_split
I0403 12:25:28.633349  8889 net.cpp:148] Top shape: 100 (100)
I0403 12:25:28.633364  8889 net.cpp:148] Top shape: 100 (100)
I0403 12:25:28.633380  8889 net.cpp:148] Top shape: 100 (100)
I0403 12:25:28.633394  8889 net.cpp:156] Memory required for data: 61836400
I0403 12:25:28.633409  8889 layer_factory.hpp:77] Creating layer conv1
I0403 12:25:28.633438  8889 net.cpp:91] Creating Layer conv1
I0403 12:25:28.633456  8889 net.cpp:425] conv1 <- data
I0403 12:25:28.633474  8889 net.cpp:399] conv1 -> conv1
I0403 12:25:28.766955  8889 net.cpp:141] Setting up conv1
I0403 12:25:28.767030  8889 net.cpp:148] Top shape: 100 96 55 55 (29040000)
I0403 12:25:28.767047  8889 net.cpp:156] Memory required for data: 177996400
I0403 12:25:28.767079  8889 layer_factory.hpp:77] Creating layer relu1
I0403 12:25:28.767105  8889 net.cpp:91] Creating Layer relu1
I0403 12:25:28.767123  8889 net.cpp:425] relu1 <- conv1
I0403 12:25:28.767143  8889 net.cpp:386] relu1 -> conv1 (in-place)
I0403 12:25:28.767393  8889 net.cpp:141] Setting up relu1
I0403 12:25:28.767419  8889 net.cpp:148] Top shape: 100 96 55 55 (29040000)
I0403 12:25:28.767469  8889 net.cpp:156] Memory required for data: 294156400
I0403 12:25:28.767485  8889 layer_factory.hpp:77] Creating layer norm1
I0403 12:25:28.767513  8889 net.cpp:91] Creating Layer norm1
I0403 12:25:28.767529  8889 net.cpp:425] norm1 <- conv1
I0403 12:25:28.767552  8889 net.cpp:399] norm1 -> norm1
I0403 12:25:28.767854  8889 net.cpp:141] Setting up norm1
I0403 12:25:28.767881  8889 net.cpp:148] Top shape: 100 96 55 55 (29040000)
I0403 12:25:28.767897  8889 net.cpp:156] Memory required for data: 410316400
I0403 12:25:28.767912  8889 layer_factory.hpp:77] Creating layer pool1
I0403 12:25:28.767935  8889 net.cpp:91] Creating Layer pool1
I0403 12:25:28.767951  8889 net.cpp:425] pool1 <- norm1
I0403 12:25:28.767969  8889 net.cpp:399] pool1 -> pool1
I0403 12:25:28.768033  8889 net.cpp:141] Setting up pool1
I0403 12:25:28.768056  8889 net.cpp:148] Top shape: 100 96 27 27 (6998400)
I0403 12:25:28.768071  8889 net.cpp:156] Memory required for data: 438310000
I0403 12:25:28.768085  8889 layer_factory.hpp:77] Creating layer conv2
I0403 12:25:28.768110  8889 net.cpp:91] Creating Layer conv2
I0403 12:25:28.768126  8889 net.cpp:425] conv2 <- pool1
I0403 12:25:28.768144  8889 net.cpp:399] conv2 -> conv2
I0403 12:25:28.782522  8889 net.cpp:141] Setting up conv2
I0403 12:25:28.782567  8889 net.cpp:148] Top shape: 100 256 27 27 (18662400)
I0403 12:25:28.782595  8889 net.cpp:156] Memory required for data: 512959600
I0403 12:25:28.782616  8889 layer_factory.hpp:77] Creating layer relu2
I0403 12:25:28.782635  8889 net.cpp:91] Creating Layer relu2
I0403 12:25:28.782650  8889 net.cpp:425] relu2 <- conv2
I0403 12:25:28.782670  8889 net.cpp:386] relu2 -> conv2 (in-place)
I0403 12:25:28.782943  8889 net.cpp:141] Setting up relu2
I0403 12:25:28.782969  8889 net.cpp:148] Top shape: 100 256 27 27 (18662400)
I0403 12:25:28.782984  8889 net.cpp:156] Memory required for data: 587609200
I0403 12:25:28.782999  8889 layer_factory.hpp:77] Creating layer norm2
I0403 12:25:28.783021  8889 net.cpp:91] Creating Layer norm2
I0403 12:25:28.783037  8889 net.cpp:425] norm2 <- conv2
I0403 12:25:28.783056  8889 net.cpp:399] norm2 -> norm2
I0403 12:25:28.783251  8889 net.cpp:141] Setting up norm2
I0403 12:25:28.783277  8889 net.cpp:148] Top shape: 100 256 27 27 (18662400)
I0403 12:25:28.783293  8889 net.cpp:156] Memory required for data: 662258800
I0403 12:25:28.783308  8889 layer_factory.hpp:77] Creating layer pool2
I0403 12:25:28.783324  8889 net.cpp:91] Creating Layer pool2
I0403 12:25:28.783339  8889 net.cpp:425] pool2 <- norm2
I0403 12:25:28.783359  8889 net.cpp:399] pool2 -> pool2
I0403 12:25:28.783409  8889 net.cpp:141] Setting up pool2
I0403 12:25:28.783432  8889 net.cpp:148] Top shape: 100 256 13 13 (4326400)
I0403 12:25:28.783447  8889 net.cpp:156] Memory required for data: 679564400
I0403 12:25:28.783460  8889 layer_factory.hpp:77] Creating layer conv3
I0403 12:25:28.783483  8889 net.cpp:91] Creating Layer conv3
I0403 12:25:28.783498  8889 net.cpp:425] conv3 <- pool2
I0403 12:25:28.783519  8889 net.cpp:399] conv3 -> conv3
I0403 12:25:28.825412  8889 net.cpp:141] Setting up conv3
I0403 12:25:28.825476  8889 net.cpp:148] Top shape: 100 384 13 13 (6489600)
I0403 12:25:28.825495  8889 net.cpp:156] Memory required for data: 705522800
I0403 12:25:28.825520  8889 layer_factory.hpp:77] Creating layer relu3
I0403 12:25:28.825546  8889 net.cpp:91] Creating Layer relu3
I0403 12:25:28.825563  8889 net.cpp:425] relu3 <- conv3
I0403 12:25:28.825593  8889 net.cpp:386] relu3 -> conv3 (in-place)
I0403 12:25:28.825876  8889 net.cpp:141] Setting up relu3
I0403 12:25:28.825903  8889 net.cpp:148] Top shape: 100 384 13 13 (6489600)
I0403 12:25:28.825918  8889 net.cpp:156] Memory required for data: 731481200
I0403 12:25:28.825933  8889 layer_factory.hpp:77] Creating layer conv4
I0403 12:25:28.825958  8889 net.cpp:91] Creating Layer conv4
I0403 12:25:28.825974  8889 net.cpp:425] conv4 <- conv3
I0403 12:25:28.825996  8889 net.cpp:399] conv4 -> conv4
I0403 12:25:28.854681  8889 net.cpp:141] Setting up conv4
I0403 12:25:28.854728  8889 net.cpp:148] Top shape: 100 384 13 13 (6489600)
I0403 12:25:28.854781  8889 net.cpp:156] Memory required for data: 757439600
I0403 12:25:28.854802  8889 layer_factory.hpp:77] Creating layer relu4
I0403 12:25:28.854822  8889 net.cpp:91] Creating Layer relu4
I0403 12:25:28.854840  8889 net.cpp:425] relu4 <- conv4
I0403 12:25:28.854858  8889 net.cpp:386] relu4 -> conv4 (in-place)
I0403 12:25:28.855129  8889 net.cpp:141] Setting up relu4
I0403 12:25:28.855157  8889 net.cpp:148] Top shape: 100 384 13 13 (6489600)
I0403 12:25:28.855173  8889 net.cpp:156] Memory required for data: 783398000
I0403 12:25:28.855188  8889 layer_factory.hpp:77] Creating layer conv5
I0403 12:25:28.855212  8889 net.cpp:91] Creating Layer conv5
I0403 12:25:28.855228  8889 net.cpp:425] conv5 <- conv4
I0403 12:25:28.855247  8889 net.cpp:399] conv5 -> conv5
I0403 12:25:28.875089  8889 net.cpp:141] Setting up conv5
I0403 12:25:28.875129  8889 net.cpp:148] Top shape: 100 256 13 13 (4326400)
I0403 12:25:28.875147  8889 net.cpp:156] Memory required for data: 800703600
I0403 12:25:28.875170  8889 layer_factory.hpp:77] Creating layer relu5
I0403 12:25:28.875190  8889 net.cpp:91] Creating Layer relu5
I0403 12:25:28.875205  8889 net.cpp:425] relu5 <- conv5
I0403 12:25:28.875224  8889 net.cpp:386] relu5 -> conv5 (in-place)
I0403 12:25:28.875507  8889 net.cpp:141] Setting up relu5
I0403 12:25:28.875546  8889 net.cpp:148] Top shape: 100 256 13 13 (4326400)
I0403 12:25:28.875566  8889 net.cpp:156] Memory required for data: 818009200
I0403 12:25:28.875581  8889 layer_factory.hpp:77] Creating layer pool5
I0403 12:25:28.875604  8889 net.cpp:91] Creating Layer pool5
I0403 12:25:28.875622  8889 net.cpp:425] pool5 <- conv5
I0403 12:25:28.875639  8889 net.cpp:399] pool5 -> pool5
I0403 12:25:28.875699  8889 net.cpp:141] Setting up pool5
I0403 12:25:28.875722  8889 net.cpp:148] Top shape: 100 256 6 6 (921600)
I0403 12:25:28.875736  8889 net.cpp:156] Memory required for data: 821695600
I0403 12:25:28.875751  8889 layer_factory.hpp:77] Creating layer fc6
I0403 12:25:28.875777  8889 net.cpp:91] Creating Layer fc6
I0403 12:25:28.875795  8889 net.cpp:425] fc6 <- pool5
I0403 12:25:28.875815  8889 net.cpp:399] fc6 -> fc6
I0403 12:25:30.451267  8889 net.cpp:141] Setting up fc6
I0403 12:25:30.451346  8889 net.cpp:148] Top shape: 100 4096 (409600)
I0403 12:25:30.451364  8889 net.cpp:156] Memory required for data: 823334000
I0403 12:25:30.451385  8889 layer_factory.hpp:77] Creating layer relu6
I0403 12:25:30.451408  8889 net.cpp:91] Creating Layer relu6
I0403 12:25:30.451426  8889 net.cpp:425] relu6 <- fc6
I0403 12:25:30.451445  8889 net.cpp:386] relu6 -> fc6 (in-place)
I0403 12:25:30.451678  8889 net.cpp:141] Setting up relu6
I0403 12:25:30.451705  8889 net.cpp:148] Top shape: 100 4096 (409600)
I0403 12:25:30.451721  8889 net.cpp:156] Memory required for data: 824972400
I0403 12:25:30.451736  8889 layer_factory.hpp:77] Creating layer drop6
I0403 12:25:30.451756  8889 net.cpp:91] Creating Layer drop6
I0403 12:25:30.451771  8889 net.cpp:425] drop6 <- fc6
I0403 12:25:30.451788  8889 net.cpp:386] drop6 -> fc6 (in-place)
I0403 12:25:30.451839  8889 net.cpp:141] Setting up drop6
I0403 12:25:30.451863  8889 net.cpp:148] Top shape: 100 4096 (409600)
I0403 12:25:30.451877  8889 net.cpp:156] Memory required for data: 826610800
I0403 12:25:30.451891  8889 layer_factory.hpp:77] Creating layer fc7
I0403 12:25:30.451917  8889 net.cpp:91] Creating Layer fc7
I0403 12:25:30.451933  8889 net.cpp:425] fc7 <- fc6
I0403 12:25:30.451954  8889 net.cpp:399] fc7 -> fc7
I0403 12:25:31.148094  8889 net.cpp:141] Setting up fc7
I0403 12:25:31.148138  8889 net.cpp:148] Top shape: 100 4096 (409600)
I0403 12:25:31.148155  8889 net.cpp:156] Memory required for data: 828249200
I0403 12:25:31.148176  8889 layer_factory.hpp:77] Creating layer relu7
I0403 12:25:31.148198  8889 net.cpp:91] Creating Layer relu7
I0403 12:25:31.148216  8889 net.cpp:425] relu7 <- fc7
I0403 12:25:31.148234  8889 net.cpp:386] relu7 -> fc7 (in-place)
I0403 12:25:31.148644  8889 net.cpp:141] Setting up relu7
I0403 12:25:31.148672  8889 net.cpp:148] Top shape: 100 4096 (409600)
I0403 12:25:31.148742  8889 net.cpp:156] Memory required for data: 829887600
I0403 12:25:31.148759  8889 layer_factory.hpp:77] Creating layer drop7
I0403 12:25:31.148778  8889 net.cpp:91] Creating Layer drop7
I0403 12:25:31.148793  8889 net.cpp:425] drop7 <- fc7
I0403 12:25:31.148810  8889 net.cpp:386] drop7 -> fc7 (in-place)
I0403 12:25:31.148855  8889 net.cpp:141] Setting up drop7
I0403 12:25:31.148877  8889 net.cpp:148] Top shape: 100 4096 (409600)
I0403 12:25:31.148903  8889 net.cpp:156] Memory required for data: 831526000
I0403 12:25:31.148919  8889 layer_factory.hpp:77] Creating layer fc8_plantvillage
I0403 12:25:31.148941  8889 net.cpp:91] Creating Layer fc8_plantvillage
I0403 12:25:31.148957  8889 net.cpp:425] fc8_plantvillage <- fc7
I0403 12:25:31.148975  8889 net.cpp:399] fc8_plantvillage -> fc8_plantvillage
I0403 12:25:31.155858  8889 net.cpp:141] Setting up fc8_plantvillage
I0403 12:25:31.155887  8889 net.cpp:148] Top shape: 100 38 (3800)
I0403 12:25:31.155905  8889 net.cpp:156] Memory required for data: 831541200
I0403 12:25:31.155922  8889 layer_factory.hpp:77] Creating layer fc8_plantvillage_fc8_plantvillage_0_split
I0403 12:25:31.155941  8889 net.cpp:91] Creating Layer fc8_plantvillage_fc8_plantvillage_0_split
I0403 12:25:31.155956  8889 net.cpp:425] fc8_plantvillage_fc8_plantvillage_0_split <- fc8_plantvillage
I0403 12:25:31.155975  8889 net.cpp:399] fc8_plantvillage_fc8_plantvillage_0_split -> fc8_plantvillage_fc8_plantvillage_0_split_0
I0403 12:25:31.155997  8889 net.cpp:399] fc8_plantvillage_fc8_plantvillage_0_split -> fc8_plantvillage_fc8_plantvillage_0_split_1
I0403 12:25:31.156016  8889 net.cpp:399] fc8_plantvillage_fc8_plantvillage_0_split -> fc8_plantvillage_fc8_plantvillage_0_split_2
I0403 12:25:31.156095  8889 net.cpp:141] Setting up fc8_plantvillage_fc8_plantvillage_0_split
I0403 12:25:31.156121  8889 net.cpp:148] Top shape: 100 38 (3800)
I0403 12:25:31.156137  8889 net.cpp:148] Top shape: 100 38 (3800)
I0403 12:25:31.156152  8889 net.cpp:148] Top shape: 100 38 (3800)
I0403 12:25:31.156167  8889 net.cpp:156] Memory required for data: 831586800
I0403 12:25:31.156182  8889 layer_factory.hpp:77] Creating layer prob
I0403 12:25:31.156199  8889 net.cpp:91] Creating Layer prob
I0403 12:25:31.156214  8889 net.cpp:425] prob <- fc8_plantvillage_fc8_plantvillage_0_split_0
I0403 12:25:31.156232  8889 net.cpp:399] prob -> prob
I0403 12:25:31.156455  8889 net.cpp:141] Setting up prob
I0403 12:25:31.156484  8889 net.cpp:148] Top shape: 100 38 (3800)
I0403 12:25:31.156502  8889 net.cpp:156] Memory required for data: 831602000
I0403 12:25:31.156517  8889 layer_factory.hpp:77] Creating layer hdf5out
I0403 12:25:31.156534  8889 net.cpp:91] Creating Layer hdf5out
I0403 12:25:31.156555  8889 net.cpp:425] hdf5out <- prob
I0403 12:25:31.156571  8889 net.cpp:425] hdf5out <- label_data_1_split_0
I0403 12:25:31.158679  8889 net.cpp:141] Setting up hdf5out
…
