…
I0403 12:08:03.981796  8477 net.cpp:313] The NetState phase (1) differed from the phase (0) specified by a rule in layer data
I0403 12:08:03.982115  8477 net.cpp:49] Initializing net from parameters: 
state {
  phase: TEST
}
layer {
  name: "data"
  type: "Data"
  top: "data"
  top: "label"
  include {
    phase: TEST
  }
  transform_param {
    crop_size: 227
    mean_file: "/home/mohanty/data/final_dataset/lmdb/grayscale-20-80/mean.binaryproto"
  }
  data_param {
    source: "/home/mohanty/data/final_dataset/lmdb/grayscale-20-80/test_db"
    batch_size: 100
    backend: LMDB
  }
}
layer {
  name: "conv1"
  type: "Convolution"
  bottom: "data"
  top: "conv1"
  param {
    lr_mult: 1
    decay_mult: 1
  }
  param {
    lr_mult: 2
    decay_mult: 0
  }
  convolution_param {
    num_output: 96
    kernel_size: 11
    stride: 4
    weight_filler {
      type: "gaussian"
      std: 0.01
    }
    bias_filler {
      type: "constant"
      value: 0
    }
  }
}
layer {
  name: "relu1"
  type: "ReLU"
  bottom: "conv1"
  top: "conv1"
}
layer {
  name: "norm1"
  type: "LRN"
  bottom: "conv1"
  top: "norm1"
  lrn_param {
    local_size: 5
    alpha: 0.0001
    beta: 0.75
  }
}
layer {
  name: "pool1"
  type: "Pooling"
  bottom: "norm1"
  top: "pool1"
  pooling_param {
    pool: MAX
    kernel_size: 3
    stride: 2
  }
}
layer {
  name: "conv2"
  type: "Convolution"
  bottom: "pool1"
  top: "conv2"
  param {
    lr_mult: 1
    decay_mult: 1
  }
  param {
    lr_mult: 2
    decay_mult: 0
  }
  convolution_param {
    num_output: 256
    pad: 2
    kernel_size: 5
    group: 2
    weight_filler {
      type: "gaussian"
      std: 0.01
    }
    bias_filler {
      type: "constant"
      value: 0.1
    }
  }
}
layer {
  name: "relu2"
  type: "ReLU"
  bottom: "conv2"
  top: "conv2"
}
layer {
  name: "norm2"
  type: "LRN"
  bottom: "conv2"
  top: "norm2"
  lrn_param {
    local_size: 5
    alpha: 0.0001
    beta: 0.75
  }
}
layer {
  name: "pool2"
  type: "Pooling"
  bottom: "norm2"
  top: "pool2"
  pooling_param {
    pool: MAX
    kernel_size: 3
    stride: 2
  }
}
layer {
  name: "conv3"
  type: "Convolution"
  bottom: "pool2"
  top: "conv3"
  param {
    lr_mult: 1
    decay_mult: 1
  }
  param {
    lr_mult: 2
    decay_mult: 0
  }
  convolution_param {
    num_output: 384
    pad: 1
    kernel_size: 3
    weight_filler {
      type: "gaussian"
      std: 0.01
    }
    bias_filler {
      type: "constant"
      value: 0
    }
  }
}
layer {
  name: "relu3"
  type: "ReLU"
  bottom: "conv3"
  top: "conv3"
}
layer {
  name: "conv4"
  type: "Convolution"
  bottom: "conv3"
  top: "conv4"
  param {
    lr_mult: 1
    decay_mult: 1
  }
  param {
    lr_mult: 2
    decay_mult: 0
  }
  convolution_param {
    num_output: 384
    pad: 1
    kernel_size: 3
    group: 2
    weight_filler {
      type: "gaussian"
      std: 0.01
    }
    bias_filler {
      type: "constant"
      value: 0.1
    }
  }
}
layer {
  name: "relu4"
  type: "ReLU"
  bottom: "conv4"
  top: "conv4"
}
layer {
  name: "conv5"
  type: "Convolution"
  bottom: "conv4"
  top: "conv5"
  param {
    lr_mult: 1
    decay_mult: 1
  }
  param {
    lr_mult: 2
    decay_mult: 0
  }
  convolution_param {
    num_output: 256
    pad: 1
    kernel_size: 3
    group: 2
    weight_filler {
      type: "gaussian"
      std: 0.01
    }
    bias_filler {
      type: "constant"
      value: 0.1
    }
  }
}
layer {
  name: "relu5"
  type: "ReLU"
  bottom: "conv5"
  top: "conv5"
}
layer {
  name: "pool5"
  type: "Pooling"
  bottom: "conv5"
  top: "pool5"
  pooling_param {
    pool: MAX
    kernel_size: 3
    stride: 2
  }
}
layer {
  name: "fc6"
  type: "InnerProduct"
  bottom: "pool5"
  top: "fc6"
  param {
    lr_mult: 1
    decay_mult: 1
  }
  param {
    lr_mult: 2
    decay_mult: 0
  }
  inner_product_param {
    num_output: 4096
    weight_filler {
      type: "gaussian"
      std: 0.005
    }
    bias_filler {
      type: "constant"
      value: 0.1
    }
  }
}
layer {
  name: "relu6"
  type: "ReLU"
  bottom: "fc6"
  top: "fc6"
}
layer {
  name: "drop6"
  type: "Dropout"
  bottom: "fc6"
  top: "fc6"
  dropout_param {
    dropout_ratio: 0.5
  }
}
layer {
  name: "fc7"
  type: "InnerProduct"
  bottom: "fc6"
  top: "fc7"
  param {
    lr_mult: 1
    decay_mult: 1
  }
  param {
    lr_mult: 2
    decay_mult: 0
  }
  inner_product_param {
    num_output: 4096
    weight_filler {
      type: "gaussian"
      std: 0.005
    }
    bias_filler {
      type: "constant"
      value: 0.1
    }
  }
}
layer {
  name: "relu7"
  type: "ReLU"
  bottom: "fc7"
  top: "fc7"
}
layer {
  name: "drop7"
  type: "Dropout"
  bottom: "fc7"
  top: "fc7"
  dropout_param {
    dropout_ratio: 0.5
  }
}
layer {
  name: "fc8_plantvillage"
  type: "InnerProduct"
  bottom: "fc7"
  top: "fc8_plantvillage"
  param {
    lr_mult: 1
    decay_mult: 1
  }
  param {
    lr_mult: 2
    decay_mult: 0
  }
  inner_product_param {
    num_output: 38
    weight_filler {
      type: "gaussian"
      std: 0.01
    }
    bias_filler {
      type: "constant"
      value: 0
    }
  }
}
layer {
  name: "prob"
  type: "Softmax"
  bottom: "fc8_plantvillage"
  top: "prob"
  include {
    phase: TEST
  }
}
layer {
  name: "hdf5out"
  type: "HDF5Output"
  bottom: "prob"
  bottom: "label"
  include {
    phase: TEST
  }
  hdf5_output_param {
    file_name: "hdf5_dumps/iter_525.h5"
  }
}
layer {
  name: "loss"
  type: "SoftmaxWithLoss"
  bottom: "fc8_plantvillage"
  bottom: "label"
  top: "loss"
}
layer {
  name: "accuracy"
  type: "Accuracy"
  bottom: "fc8_plantvillage"
  bottom: "label"
  top: "accuracy"
  include {
    phase: TEST
  }
}
I0403 12:08:03.982707  8477 layer_factory.hpp:77] Creating layer data
I0403 12:08:03.983366  8477 net.cpp:91] Creating Layer data
I0403 12:08:03.983398  8477 net.cpp:399] data -> data
I0403 12:08:03.983449  8477 net.cpp:399] data -> label
I0403 12:08:03.983484  8477 data_transformer.cpp:25] Loading mean file from: /home/mohanty/data/final_dataset/lmdb/grayscale-20-80/mean.binaryproto
I0403 12:08:03.986400  8480 db_lmdb.cpp:38] Opened lmdb /home/mohanty/data/final_dataset/lmdb/grayscale-20-80/test_db
I0403 12:08:03.996758  8477 data_layer.cpp:41] output data size: 100,3,227,227
I0403 12:08:04.117707  8477 net.cpp:141] Setting up data
I0403 12:08:04.117801  8477 net.cpp:148] Top shape: 100 3 227 227 (15458700)
I0403 12:08:04.117823  8477 net.cpp:148] Top shape: 100 (100)
I0403 12:08:04.117840  8477 net.cpp:156] Memory required for data: 61835200
I0403 12:08:04.117867  8477 layer_factory.hpp:77] Creating layer label_data_1_split
I0403 12:08:04.117893  8477 net.cpp:91] Creating Layer label_data_1_split
I0403 12:08:04.117910  8477 net.cpp:425] label_data_1_split <- label
I0403 12:08:04.117941  8477 net.cpp:399] label_data_1_split -> label_data_1_split_0
I0403 12:08:04.117969  8477 net.cpp:399] label_data_1_split -> label_data_1_split_1
I0403 12:08:04.117990  8477 net.cpp:399] label_data_1_split -> label_data_1_split_2
I0403 12:08:04.118053  8477 net.cpp:141] Setting up label_data_1_split
I0403 12:08:04.118075  8477 net.cpp:148] Top shape: 100 (100)
I0403 12:08:04.118091  8477 net.cpp:148] Top shape: 100 (100)
I0403 12:08:04.118108  8477 net.cpp:148] Top shape: 100 (100)
I0403 12:08:04.118122  8477 net.cpp:156] Memory required for data: 61836400
I0403 12:08:04.118136  8477 layer_factory.hpp:77] Creating layer conv1
I0403 12:08:04.118168  8477 net.cpp:91] Creating Layer conv1
I0403 12:08:04.118187  8477 net.cpp:425] conv1 <- data
I0403 12:08:04.118206  8477 net.cpp:399] conv1 -> conv1
I0403 12:08:04.256135  8477 net.cpp:141] Setting up conv1
I0403 12:08:04.256214  8477 net.cpp:148] Top shape: 100 96 55 55 (29040000)
I0403 12:08:04.256232  8477 net.cpp:156] Memory required for data: 177996400
I0403 12:08:04.256263  8477 layer_factory.hpp:77] Creating layer relu1
I0403 12:08:04.256290  8477 net.cpp:91] Creating Layer relu1
I0403 12:08:04.256309  8477 net.cpp:425] relu1 <- conv1
I0403 12:08:04.256544  8477 net.cpp:386] relu1 -> conv1 (in-place)
I0403 12:08:04.256834  8477 net.cpp:141] Setting up relu1
I0403 12:08:04.256862  8477 net.cpp:148] Top shape: 100 96 55 55 (29040000)
I0403 12:08:04.256912  8477 net.cpp:156] Memory required for data: 294156400
I0403 12:08:04.256928  8477 layer_factory.hpp:77] Creating layer norm1
I0403 12:08:04.256956  8477 net.cpp:91] Creating Layer norm1
I0403 12:08:04.256974  8477 net.cpp:425] norm1 <- conv1
I0403 12:08:04.256994  8477 net.cpp:399] norm1 -> norm1
I0403 12:08:04.257313  8477 net.cpp:141] Setting up norm1
I0403 12:08:04.257342  8477 net.cpp:148] Top shape: 100 96 55 55 (29040000)
I0403 12:08:04.257359  8477 net.cpp:156] Memory required for data: 410316400
I0403 12:08:04.257375  8477 layer_factory.hpp:77] Creating layer pool1
I0403 12:08:04.257398  8477 net.cpp:91] Creating Layer pool1
I0403 12:08:04.257416  8477 net.cpp:425] pool1 <- norm1
I0403 12:08:04.257432  8477 net.cpp:399] pool1 -> pool1
I0403 12:08:04.257503  8477 net.cpp:141] Setting up pool1
I0403 12:08:04.257532  8477 net.cpp:148] Top shape: 100 96 27 27 (6998400)
I0403 12:08:04.257549  8477 net.cpp:156] Memory required for data: 438310000
I0403 12:08:04.257575  8477 layer_factory.hpp:77] Creating layer conv2
I0403 12:08:04.257601  8477 net.cpp:91] Creating Layer conv2
I0403 12:08:04.257617  8477 net.cpp:425] conv2 <- pool1
I0403 12:08:04.257635  8477 net.cpp:399] conv2 -> conv2
I0403 12:08:04.272594  8477 net.cpp:141] Setting up conv2
I0403 12:08:04.272645  8477 net.cpp:148] Top shape: 100 256 27 27 (18662400)
I0403 12:08:04.272662  8477 net.cpp:156] Memory required for data: 512959600
I0403 12:08:04.272686  8477 layer_factory.hpp:77] Creating layer relu2
I0403 12:08:04.272707  8477 net.cpp:91] Creating Layer relu2
I0403 12:08:04.272725  8477 net.cpp:425] relu2 <- conv2
I0403 12:08:04.272743  8477 net.cpp:386] relu2 -> conv2 (in-place)
I0403 12:08:04.273022  8477 net.cpp:141] Setting up relu2
I0403 12:08:04.273051  8477 net.cpp:148] Top shape: 100 256 27 27 (18662400)
I0403 12:08:04.273066  8477 net.cpp:156] Memory required for data: 587609200
I0403 12:08:04.273082  8477 layer_factory.hpp:77] Creating layer norm2
I0403 12:08:04.273105  8477 net.cpp:91] Creating Layer norm2
I0403 12:08:04.273123  8477 net.cpp:425] norm2 <- conv2
I0403 12:08:04.273143  8477 net.cpp:399] norm2 -> norm2
I0403 12:08:04.273353  8477 net.cpp:141] Setting up norm2
I0403 12:08:04.273380  8477 net.cpp:148] Top shape: 100 256 27 27 (18662400)
I0403 12:08:04.273396  8477 net.cpp:156] Memory required for data: 662258800
I0403 12:08:04.273411  8477 layer_factory.hpp:77] Creating layer pool2
I0403 12:08:04.273429  8477 net.cpp:91] Creating Layer pool2
I0403 12:08:04.273445  8477 net.cpp:425] pool2 <- norm2
I0403 12:08:04.273465  8477 net.cpp:399] pool2 -> pool2
I0403 12:08:04.273526  8477 net.cpp:141] Setting up pool2
I0403 12:08:04.273550  8477 net.cpp:148] Top shape: 100 256 13 13 (4326400)
I0403 12:08:04.273577  8477 net.cpp:156] Memory required for data: 679564400
I0403 12:08:04.273592  8477 layer_factory.hpp:77] Creating layer conv3
I0403 12:08:04.273615  8477 net.cpp:91] Creating Layer conv3
I0403 12:08:04.273633  8477 net.cpp:425] conv3 <- pool2
I0403 12:08:04.273653  8477 net.cpp:399] conv3 -> conv3
I0403 12:08:04.315053  8477 net.cpp:141] Setting up conv3
I0403 12:08:04.315129  8477 net.cpp:148] Top shape: 100 384 13 13 (6489600)
I0403 12:08:04.315146  8477 net.cpp:156] Memory required for data: 705522800
I0403 12:08:04.315176  8477 layer_factory.hpp:77] Creating layer relu3
I0403 12:08:04.315201  8477 net.cpp:91] Creating Layer relu3
I0403 12:08:04.315218  8477 net.cpp:425] relu3 <- conv3
I0403 12:08:04.315237  8477 net.cpp:386] relu3 -> conv3 (in-place)
I0403 12:08:04.315534  8477 net.cpp:141] Setting up relu3
I0403 12:08:04.315562  8477 net.cpp:148] Top shape: 100 384 13 13 (6489600)
I0403 12:08:04.315578  8477 net.cpp:156] Memory required for data: 731481200
I0403 12:08:04.315593  8477 layer_factory.hpp:77] Creating layer conv4
I0403 12:08:04.315620  8477 net.cpp:91] Creating Layer conv4
I0403 12:08:04.315639  8477 net.cpp:425] conv4 <- conv3
I0403 12:08:04.315659  8477 net.cpp:399] conv4 -> conv4
I0403 12:08:04.345479  8477 net.cpp:141] Setting up conv4
I0403 12:08:04.345530  8477 net.cpp:148] Top shape: 100 384 13 13 (6489600)
I0403 12:08:04.345583  8477 net.cpp:156] Memory required for data: 757439600
I0403 12:08:04.345605  8477 layer_factory.hpp:77] Creating layer relu4
I0403 12:08:04.345631  8477 net.cpp:91] Creating Layer relu4
I0403 12:08:04.345649  8477 net.cpp:425] relu4 <- conv4
I0403 12:08:04.345669  8477 net.cpp:386] relu4 -> conv4 (in-place)
I0403 12:08:04.345957  8477 net.cpp:141] Setting up relu4
I0403 12:08:04.345983  8477 net.cpp:148] Top shape: 100 384 13 13 (6489600)
I0403 12:08:04.345999  8477 net.cpp:156] Memory required for data: 783398000
I0403 12:08:04.346014  8477 layer_factory.hpp:77] Creating layer conv5
I0403 12:08:04.346038  8477 net.cpp:91] Creating Layer conv5
I0403 12:08:04.346055  8477 net.cpp:425] conv5 <- conv4
I0403 12:08:04.346076  8477 net.cpp:399] conv5 -> conv5
I0403 12:08:04.366533  8477 net.cpp:141] Setting up conv5
I0403 12:08:04.366587  8477 net.cpp:148] Top shape: 100 256 13 13 (4326400)
I0403 12:08:04.366603  8477 net.cpp:156] Memory required for data: 800703600
I0403 12:08:04.366629  8477 layer_factory.hpp:77] Creating layer relu5
I0403 12:08:04.366654  8477 net.cpp:91] Creating Layer relu5
I0403 12:08:04.366673  8477 net.cpp:425] relu5 <- conv5
I0403 12:08:04.366691  8477 net.cpp:386] relu5 -> conv5 (in-place)
I0403 12:08:04.366983  8477 net.cpp:141] Setting up relu5
I0403 12:08:04.367009  8477 net.cpp:148] Top shape: 100 256 13 13 (4326400)
I0403 12:08:04.367025  8477 net.cpp:156] Memory required for data: 818009200
I0403 12:08:04.367040  8477 layer_factory.hpp:77] Creating layer pool5
I0403 12:08:04.367064  8477 net.cpp:91] Creating Layer pool5
I0403 12:08:04.367080  8477 net.cpp:425] pool5 <- conv5
I0403 12:08:04.367099  8477 net.cpp:399] pool5 -> pool5
I0403 12:08:04.367159  8477 net.cpp:141] Setting up pool5
I0403 12:08:04.367182  8477 net.cpp:148] Top shape: 100 256 6 6 (921600)
I0403 12:08:04.367197  8477 net.cpp:156] Memory required for data: 821695600
I0403 12:08:04.367213  8477 layer_factory.hpp:77] Creating layer fc6
I0403 12:08:04.367240  8477 net.cpp:91] Creating Layer fc6
I0403 12:08:04.367257  8477 net.cpp:425] fc6 <- pool5
I0403 12:08:04.367287  8477 net.cpp:399] fc6 -> fc6
I0403 12:08:05.931918  8477 net.cpp:141] Setting up fc6
I0403 12:08:05.931968  8477 net.cpp:148] Top shape: 100 4096 (409600)
I0403 12:08:05.931985  8477 net.cpp:156] Memory required for data: 823334000
I0403 12:08:05.932006  8477 layer_factory.hpp:77] Creating layer relu6
I0403 12:08:05.932029  8477 net.cpp:91] Creating Layer relu6
I0403 12:08:05.932057  8477 net.cpp:425] relu6 <- fc6
I0403 12:08:05.932077  8477 net.cpp:386] relu6 -> fc6 (in-place)
I0403 12:08:05.932291  8477 net.cpp:141] Setting up relu6
I0403 12:08:05.932314  8477 net.cpp:148] Top shape: 100 4096 (409600)
I0403 12:08:05.932328  8477 net.cpp:156] Memory required for data: 824972400
I0403 12:08:05.932343  8477 layer_factory.hpp:77] Creating layer drop6
I0403 12:08:05.932359  8477 net.cpp:91] Creating Layer drop6
I0403 12:08:05.932374  8477 net.cpp:425] drop6 <- fc6
I0403 12:08:05.932391  8477 net.cpp:386] drop6 -> fc6 (in-place)
I0403 12:08:05.932443  8477 net.cpp:141] Setting up drop6
I0403 12:08:05.932464  8477 net.cpp:148] Top shape: 100 4096 (409600)
I0403 12:08:05.932478  8477 net.cpp:156] Memory required for data: 826610800
I0403 12:08:05.932492  8477 layer_factory.hpp:77] Creating layer fc7
I0403 12:08:05.932517  8477 net.cpp:91] Creating Layer fc7
I0403 12:08:05.932533  8477 net.cpp:425] fc7 <- fc6
I0403 12:08:05.932553  8477 net.cpp:399] fc7 -> fc7
I0403 12:08:06.625108  8477 net.cpp:141] Setting up fc7
I0403 12:08:06.625185  8477 net.cpp:148] Top shape: 100 4096 (409600)
I0403 12:08:06.625201  8477 net.cpp:156] Memory required for data: 828249200
I0403 12:08:06.625222  8477 layer_factory.hpp:77] Creating layer relu7
I0403 12:08:06.625247  8477 net.cpp:91] Creating Layer relu7
I0403 12:08:06.625264  8477 net.cpp:425] relu7 <- fc7
I0403 12:08:06.625284  8477 net.cpp:386] relu7 -> fc7 (in-place)
I0403 12:08:06.625712  8477 net.cpp:141] Setting up relu7
I0403 12:08:06.625738  8477 net.cpp:148] Top shape: 100 4096 (409600)
I0403 12:08:06.625795  8477 net.cpp:156] Memory required for data: 829887600
I0403 12:08:06.625811  8477 layer_factory.hpp:77] Creating layer drop7
I0403 12:08:06.625833  8477 net.cpp:91] Creating Layer drop7
I0403 12:08:06.625849  8477 net.cpp:425] drop7 <- fc7
I0403 12:08:06.625865  8477 net.cpp:386] drop7 -> fc7 (in-place)
I0403 12:08:06.625908  8477 net.cpp:141] Setting up drop7
I0403 12:08:06.625932  8477 net.cpp:148] Top shape: 100 4096 (409600)
I0403 12:08:06.625947  8477 net.cpp:156] Memory required for data: 831526000
I0403 12:08:06.625962  8477 layer_factory.hpp:77] Creating layer fc8_plantvillage
I0403 12:08:06.625982  8477 net.cpp:91] Creating Layer fc8_plantvillage
I0403 12:08:06.625996  8477 net.cpp:425] fc8_plantvillage <- fc7
I0403 12:08:06.626015  8477 net.cpp:399] fc8_plantvillage -> fc8_plantvillage
I0403 12:08:06.632808  8477 net.cpp:141] Setting up fc8_plantvillage
I0403 12:08:06.632836  8477 net.cpp:148] Top shape: 100 38 (3800)
I0403 12:08:06.632851  8477 net.cpp:156] Memory required for data: 831541200
I0403 12:08:06.632869  8477 layer_factory.hpp:77] Creating layer fc8_plantvillage_fc8_plantvillage_0_split
I0403 12:08:06.632889  8477 net.cpp:91] Creating Layer fc8_plantvillage_fc8_plantvillage_0_split
I0403 12:08:06.632905  8477 net.cpp:425] fc8_plantvillage_fc8_plantvillage_0_split <- fc8_plantvillage
I0403 12:08:06.632922  8477 net.cpp:399] fc8_plantvillage_fc8_plantvillage_0_split -> fc8_plantvillage_fc8_plantvillage_0_split_0
I0403 12:08:06.632941  8477 net.cpp:399] fc8_plantvillage_fc8_plantvillage_0_split -> fc8_plantvillage_fc8_plantvillage_0_split_1
I0403 12:08:06.632961  8477 net.cpp:399] fc8_plantvillage_fc8_plantvillage_0_split -> fc8_plantvillage_fc8_plantvillage_0_split_2
I0403 12:08:06.633038  8477 net.cpp:141] Setting up fc8_plantvillage_fc8_plantvillage_0_split
I0403 12:08:06.633060  8477 net.cpp:148] Top shape: 100 38 (3800)
I0403 12:08:06.633075  8477 net.cpp:148] Top shape: 100 38 (3800)
I0403 12:08:06.633090  8477 net.cpp:148] Top shape: 100 38 (3800)
I0403 12:08:06.633105  8477 net.cpp:156] Memory required for data: 831586800
I0403 12:08:06.633118  8477 layer_factory.hpp:77] Creating layer prob
I0403 12:08:06.633136  8477 net.cpp:91] Creating Layer prob
I0403 12:08:06.633152  8477 net.cpp:425] prob <- fc8_plantvillage_fc8_plantvillage_0_split_0
I0403 12:08:06.633170  8477 net.cpp:399] prob -> prob
I0403 12:08:06.633394  8477 net.cpp:141] Setting up prob
I0403 12:08:06.633419  8477 net.cpp:148] Top shape: 100 38 (3800)
I0403 12:08:06.633433  8477 net.cpp:156] Memory required for data: 831602000
I0403 12:08:06.633447  8477 layer_factory.hpp:77] Creating layer hdf5out
I0403 12:08:06.633467  8477 net.cpp:91] Creating Layer hdf5out
I0403 12:08:06.633483  8477 net.cpp:425] hdf5out <- prob
I0403 12:08:06.633499  8477 net.cpp:425] hdf5out <- label_data_1_split_0
I0403 12:08:06.635792  8477 net.cpp:141] Setting up hdf5out
…
