…
I0403 12:45:41.895347  9508 net.cpp:313] The NetState phase (1) differed from the phase (0) specified by a rule in layer data
I0403 12:45:41.895689  9508 net.cpp:49] Initializing net from parameters: 
state {
  phase: TEST
}
layer {
  name: "data"
  type: "Data"
  top: "data"
  top: "label"
  include {
    phase: TEST
  }
  transform_param {
    crop_size: 227
    mean_file: "/home/mohanty/data/final_dataset/lmdb/grayscale-20-80/mean.binaryproto"
  }
  data_param {
    source: "/home/mohanty/data/final_dataset/lmdb/grayscale-20-80/test_db"
    batch_size: 100
    backend: LMDB
  }
}
layer {
  name: "conv1"
  type: "Convolution"
  bottom: "data"
  top: "conv1"
  param {
    lr_mult: 1
    decay_mult: 1
  }
  param {
    lr_mult: 2
    decay_mult: 0
  }
  convolution_param {
    num_output: 96
    kernel_size: 11
    stride: 4
    weight_filler {
      type: "gaussian"
      std: 0.01
    }
    bias_filler {
      type: "constant"
      value: 0
    }
  }
}
layer {
  name: "relu1"
  type: "ReLU"
  bottom: "conv1"
  top: "conv1"
}
layer {
  name: "norm1"
  type: "LRN"
  bottom: "conv1"
  top: "norm1"
  lrn_param {
    local_size: 5
    alpha: 0.0001
    beta: 0.75
  }
}
layer {
  name: "pool1"
  type: "Pooling"
  bottom: "norm1"
  top: "pool1"
  pooling_param {
    pool: MAX
    kernel_size: 3
    stride: 2
  }
}
layer {
  name: "conv2"
  type: "Convolution"
  bottom: "pool1"
  top: "conv2"
  param {
    lr_mult: 1
    decay_mult: 1
  }
  param {
    lr_mult: 2
    decay_mult: 0
  }
  convolution_param {
    num_output: 256
    pad: 2
    kernel_size: 5
    group: 2
    weight_filler {
      type: "gaussian"
      std: 0.01
    }
    bias_filler {
      type: "constant"
      value: 0.1
    }
  }
}
layer {
  name: "relu2"
  type: "ReLU"
  bottom: "conv2"
  top: "conv2"
}
layer {
  name: "norm2"
  type: "LRN"
  bottom: "conv2"
  top: "norm2"
  lrn_param {
    local_size: 5
    alpha: 0.0001
    beta: 0.75
  }
}
layer {
  name: "pool2"
  type: "Pooling"
  bottom: "norm2"
  top: "pool2"
  pooling_param {
    pool: MAX
    kernel_size: 3
    stride: 2
  }
}
layer {
  name: "conv3"
  type: "Convolution"
  bottom: "pool2"
  top: "conv3"
  param {
    lr_mult: 1
    decay_mult: 1
  }
  param {
    lr_mult: 2
    decay_mult: 0
  }
  convolution_param {
    num_output: 384
    pad: 1
    kernel_size: 3
    weight_filler {
      type: "gaussian"
      std: 0.01
    }
    bias_filler {
      type: "constant"
      value: 0
    }
  }
}
layer {
  name: "relu3"
  type: "ReLU"
  bottom: "conv3"
  top: "conv3"
}
layer {
  name: "conv4"
  type: "Convolution"
  bottom: "conv3"
  top: "conv4"
  param {
    lr_mult: 1
    decay_mult: 1
  }
  param {
    lr_mult: 2
    decay_mult: 0
  }
  convolution_param {
    num_output: 384
    pad: 1
    kernel_size: 3
    group: 2
    weight_filler {
      type: "gaussian"
      std: 0.01
    }
    bias_filler {
      type: "constant"
      value: 0.1
    }
  }
}
layer {
  name: "relu4"
  type: "ReLU"
  bottom: "conv4"
  top: "conv4"
}
layer {
  name: "conv5"
  type: "Convolution"
  bottom: "conv4"
  top: "conv5"
  param {
    lr_mult: 1
    decay_mult: 1
  }
  param {
    lr_mult: 2
    decay_mult: 0
  }
  convolution_param {
    num_output: 256
    pad: 1
    kernel_size: 3
    group: 2
    weight_filler {
      type: "gaussian"
      std: 0.01
    }
    bias_filler {
      type: "constant"
      value: 0.1
    }
  }
}
layer {
  name: "relu5"
  type: "ReLU"
  bottom: "conv5"
  top: "conv5"
}
layer {
  name: "pool5"
  type: "Pooling"
  bottom: "conv5"
  top: "pool5"
  pooling_param {
    pool: MAX
    kernel_size: 3
    stride: 2
  }
}
layer {
  name: "fc6"
  type: "InnerProduct"
  bottom: "pool5"
  top: "fc6"
  param {
    lr_mult: 1
    decay_mult: 1
  }
  param {
    lr_mult: 2
    decay_mult: 0
  }
  inner_product_param {
    num_output: 4096
    weight_filler {
      type: "gaussian"
      std: 0.005
    }
    bias_filler {
      type: "constant"
      value: 0.1
    }
  }
}
layer {
  name: "relu6"
  type: "ReLU"
  bottom: "fc6"
  top: "fc6"
}
layer {
  name: "drop6"
  type: "Dropout"
  bottom: "fc6"
  top: "fc6"
  dropout_param {
    dropout_ratio: 0.5
  }
}
layer {
  name: "fc7"
  type: "InnerProduct"
  bottom: "fc6"
  top: "fc7"
  param {
    lr_mult: 1
    decay_mult: 1
  }
  param {
    lr_mult: 2
    decay_mult: 0
  }
  inner_product_param {
    num_output: 4096
    weight_filler {
      type: "gaussian"
      std: 0.005
    }
    bias_filler {
      type: "constant"
      value: 0.1
    }
  }
}
layer {
  name: "relu7"
  type: "ReLU"
  bottom: "fc7"
  top: "fc7"
}
layer {
  name: "drop7"
  type: "Dropout"
  bottom: "fc7"
  top: "fc7"
  dropout_param {
    dropout_ratio: 0.5
  }
}
layer {
  name: "fc8_plantvillage"
  type: "InnerProduct"
  bottom: "fc7"
  top: "fc8_plantvillage"
  param {
    lr_mult: 1
    decay_mult: 1
  }
  param {
    lr_mult: 2
    decay_mult: 0
  }
  inner_product_param {
    num_output: 38
    weight_filler {
      type: "gaussian"
      std: 0.01
    }
    bias_filler {
      type: "constant"
      value: 0
    }
  }
}
layer {
  name: "prob"
  type: "Softmax"
  bottom: "fc8_plantvillage"
  top: "prob"
  include {
    phase: TEST
  }
}
layer {
  name: "hdf5out"
  type: "HDF5Output"
  bottom: "prob"
  bottom: "label"
  include {
    phase: TEST
  }
  hdf5_output_param {
    file_name: "hdf5_dumps/iter_3172.h5"
  }
}
layer {
  name: "loss"
  type: "SoftmaxWithLoss"
  bottom: "fc8_plantvillage"
  bottom: "label"
  top: "loss"
}
layer {
  name: "accuracy"
  type: "Accuracy"
  bottom: "fc8_plantvillage"
  bottom: "label"
  top: "accuracy"
  include {
    phase: TEST
  }
}
I0403 12:45:41.896271  9508 layer_factory.hpp:77] Creating layer data
I0403 12:45:41.896913  9508 net.cpp:91] Creating Layer data
I0403 12:45:41.896944  9508 net.cpp:399] data -> data
I0403 12:45:41.896996  9508 net.cpp:399] data -> label
I0403 12:45:41.897032  9508 data_transformer.cpp:25] Loading mean file from: /home/mohanty/data/final_dataset/lmdb/grayscale-20-80/mean.binaryproto
I0403 12:45:41.899713  9511 db_lmdb.cpp:38] Opened lmdb /home/mohanty/data/final_dataset/lmdb/grayscale-20-80/test_db
I0403 12:45:41.911267  9508 data_layer.cpp:41] output data size: 100,3,227,227
I0403 12:45:42.032735  9508 net.cpp:141] Setting up data
I0403 12:45:42.032829  9508 net.cpp:148] Top shape: 100 3 227 227 (15458700)
I0403 12:45:42.032852  9508 net.cpp:148] Top shape: 100 (100)
I0403 12:45:42.032867  9508 net.cpp:156] Memory required for data: 61835200
I0403 12:45:42.032896  9508 layer_factory.hpp:77] Creating layer label_data_1_split
I0403 12:45:42.032922  9508 net.cpp:91] Creating Layer label_data_1_split
I0403 12:45:42.032939  9508 net.cpp:425] label_data_1_split <- label
I0403 12:45:42.032974  9508 net.cpp:399] label_data_1_split -> label_data_1_split_0
I0403 12:45:42.033000  9508 net.cpp:399] label_data_1_split -> label_data_1_split_1
I0403 12:45:42.033021  9508 net.cpp:399] label_data_1_split -> label_data_1_split_2
I0403 12:45:42.033085  9508 net.cpp:141] Setting up label_data_1_split
I0403 12:45:42.033109  9508 net.cpp:148] Top shape: 100 (100)
I0403 12:45:42.033128  9508 net.cpp:148] Top shape: 100 (100)
I0403 12:45:42.033143  9508 net.cpp:148] Top shape: 100 (100)
I0403 12:45:42.033157  9508 net.cpp:156] Memory required for data: 61836400
I0403 12:45:42.033171  9508 layer_factory.hpp:77] Creating layer conv1
I0403 12:45:42.033202  9508 net.cpp:91] Creating Layer conv1
I0403 12:45:42.033221  9508 net.cpp:425] conv1 <- data
I0403 12:45:42.033241  9508 net.cpp:399] conv1 -> conv1
I0403 12:45:42.173218  9508 net.cpp:141] Setting up conv1
I0403 12:45:42.173295  9508 net.cpp:148] Top shape: 100 96 55 55 (29040000)
I0403 12:45:42.173315  9508 net.cpp:156] Memory required for data: 177996400
I0403 12:45:42.173346  9508 layer_factory.hpp:77] Creating layer relu1
I0403 12:45:42.173373  9508 net.cpp:91] Creating Layer relu1
I0403 12:45:42.173391  9508 net.cpp:425] relu1 <- conv1
I0403 12:45:42.173410  9508 net.cpp:386] relu1 -> conv1 (in-place)
I0403 12:45:42.173672  9508 net.cpp:141] Setting up relu1
I0403 12:45:42.173702  9508 net.cpp:148] Top shape: 100 96 55 55 (29040000)
I0403 12:45:42.173753  9508 net.cpp:156] Memory required for data: 294156400
I0403 12:45:42.173770  9508 layer_factory.hpp:77] Creating layer norm1
I0403 12:45:42.173797  9508 net.cpp:91] Creating Layer norm1
I0403 12:45:42.173815  9508 net.cpp:425] norm1 <- conv1
I0403 12:45:42.173833  9508 net.cpp:399] norm1 -> norm1
I0403 12:45:42.174149  9508 net.cpp:141] Setting up norm1
I0403 12:45:42.174177  9508 net.cpp:148] Top shape: 100 96 55 55 (29040000)
I0403 12:45:42.174193  9508 net.cpp:156] Memory required for data: 410316400
I0403 12:45:42.174208  9508 layer_factory.hpp:77] Creating layer pool1
I0403 12:45:42.174232  9508 net.cpp:91] Creating Layer pool1
I0403 12:45:42.174250  9508 net.cpp:425] pool1 <- norm1
I0403 12:45:42.174268  9508 net.cpp:399] pool1 -> pool1
I0403 12:45:42.174336  9508 net.cpp:141] Setting up pool1
I0403 12:45:42.174362  9508 net.cpp:148] Top shape: 100 96 27 27 (6998400)
I0403 12:45:42.174377  9508 net.cpp:156] Memory required for data: 438310000
I0403 12:45:42.174393  9508 layer_factory.hpp:77] Creating layer conv2
I0403 12:45:42.174418  9508 net.cpp:91] Creating Layer conv2
I0403 12:45:42.174437  9508 net.cpp:425] conv2 <- pool1
I0403 12:45:42.174454  9508 net.cpp:399] conv2 -> conv2
I0403 12:45:42.189680  9508 net.cpp:141] Setting up conv2
I0403 12:45:42.189733  9508 net.cpp:148] Top shape: 100 256 27 27 (18662400)
I0403 12:45:42.189749  9508 net.cpp:156] Memory required for data: 512959600
I0403 12:45:42.189772  9508 layer_factory.hpp:77] Creating layer relu2
I0403 12:45:42.189792  9508 net.cpp:91] Creating Layer relu2
I0403 12:45:42.189808  9508 net.cpp:425] relu2 <- conv2
I0403 12:45:42.189826  9508 net.cpp:386] relu2 -> conv2 (in-place)
I0403 12:45:42.190105  9508 net.cpp:141] Setting up relu2
I0403 12:45:42.190135  9508 net.cpp:148] Top shape: 100 256 27 27 (18662400)
I0403 12:45:42.190150  9508 net.cpp:156] Memory required for data: 587609200
I0403 12:45:42.190166  9508 layer_factory.hpp:77] Creating layer norm2
I0403 12:45:42.190187  9508 net.cpp:91] Creating Layer norm2
I0403 12:45:42.190203  9508 net.cpp:425] norm2 <- conv2
I0403 12:45:42.190222  9508 net.cpp:399] norm2 -> norm2
I0403 12:45:42.190419  9508 net.cpp:141] Setting up norm2
I0403 12:45:42.190446  9508 net.cpp:148] Top shape: 100 256 27 27 (18662400)
I0403 12:45:42.190462  9508 net.cpp:156] Memory required for data: 662258800
I0403 12:45:42.190477  9508 layer_factory.hpp:77] Creating layer pool2
I0403 12:45:42.190496  9508 net.cpp:91] Creating Layer pool2
I0403 12:45:42.190511  9508 net.cpp:425] pool2 <- norm2
I0403 12:45:42.190529  9508 net.cpp:399] pool2 -> pool2
I0403 12:45:42.190588  9508 net.cpp:141] Setting up pool2
I0403 12:45:42.190613  9508 net.cpp:148] Top shape: 100 256 13 13 (4326400)
I0403 12:45:42.190626  9508 net.cpp:156] Memory required for data: 679564400
I0403 12:45:42.190641  9508 layer_factory.hpp:77] Creating layer conv3
I0403 12:45:42.190664  9508 net.cpp:91] Creating Layer conv3
I0403 12:45:42.190680  9508 net.cpp:425] conv3 <- pool2
I0403 12:45:42.190699  9508 net.cpp:399] conv3 -> conv3
I0403 12:45:42.234474  9508 net.cpp:141] Setting up conv3
I0403 12:45:42.234570  9508 net.cpp:148] Top shape: 100 384 13 13 (6489600)
I0403 12:45:42.234591  9508 net.cpp:156] Memory required for data: 705522800
I0403 12:45:42.234623  9508 layer_factory.hpp:77] Creating layer relu3
I0403 12:45:42.234648  9508 net.cpp:91] Creating Layer relu3
I0403 12:45:42.234666  9508 net.cpp:425] relu3 <- conv3
I0403 12:45:42.234686  9508 net.cpp:386] relu3 -> conv3 (in-place)
I0403 12:45:42.234983  9508 net.cpp:141] Setting up relu3
I0403 12:45:42.235013  9508 net.cpp:148] Top shape: 100 384 13 13 (6489600)
I0403 12:45:42.235031  9508 net.cpp:156] Memory required for data: 731481200
I0403 12:45:42.235047  9508 layer_factory.hpp:77] Creating layer conv4
I0403 12:45:42.235071  9508 net.cpp:91] Creating Layer conv4
I0403 12:45:42.235088  9508 net.cpp:425] conv4 <- conv3
I0403 12:45:42.235110  9508 net.cpp:399] conv4 -> conv4
I0403 12:45:42.265817  9508 net.cpp:141] Setting up conv4
I0403 12:45:42.265885  9508 net.cpp:148] Top shape: 100 384 13 13 (6489600)
I0403 12:45:42.265938  9508 net.cpp:156] Memory required for data: 757439600
I0403 12:45:42.265961  9508 layer_factory.hpp:77] Creating layer relu4
I0403 12:45:42.265987  9508 net.cpp:91] Creating Layer relu4
I0403 12:45:42.266007  9508 net.cpp:425] relu4 <- conv4
I0403 12:45:42.266027  9508 net.cpp:386] relu4 -> conv4 (in-place)
I0403 12:45:42.266320  9508 net.cpp:141] Setting up relu4
I0403 12:45:42.266348  9508 net.cpp:148] Top shape: 100 384 13 13 (6489600)
I0403 12:45:42.266366  9508 net.cpp:156] Memory required for data: 783398000
I0403 12:45:42.266381  9508 layer_factory.hpp:77] Creating layer conv5
I0403 12:45:42.266408  9508 net.cpp:91] Creating Layer conv5
I0403 12:45:42.266427  9508 net.cpp:425] conv5 <- conv4
I0403 12:45:42.266448  9508 net.cpp:399] conv5 -> conv5
I0403 12:45:42.287690  9508 net.cpp:141] Setting up conv5
I0403 12:45:42.287725  9508 net.cpp:148] Top shape: 100 256 13 13 (4326400)
I0403 12:45:42.287742  9508 net.cpp:156] Memory required for data: 800703600
I0403 12:45:42.287766  9508 layer_factory.hpp:77] Creating layer relu5
I0403 12:45:42.287804  9508 net.cpp:91] Creating Layer relu5
I0403 12:45:42.287822  9508 net.cpp:425] relu5 <- conv5
I0403 12:45:42.287842  9508 net.cpp:386] relu5 -> conv5 (in-place)
I0403 12:45:42.288143  9508 net.cpp:141] Setting up relu5
I0403 12:45:42.288171  9508 net.cpp:148] Top shape: 100 256 13 13 (4326400)
I0403 12:45:42.288185  9508 net.cpp:156] Memory required for data: 818009200
I0403 12:45:42.288199  9508 layer_factory.hpp:77] Creating layer pool5
I0403 12:45:42.288225  9508 net.cpp:91] Creating Layer pool5
I0403 12:45:42.288242  9508 net.cpp:425] pool5 <- conv5
I0403 12:45:42.288264  9508 net.cpp:399] pool5 -> pool5
I0403 12:45:42.288323  9508 net.cpp:141] Setting up pool5
I0403 12:45:42.288347  9508 net.cpp:148] Top shape: 100 256 6 6 (921600)
I0403 12:45:42.288362  9508 net.cpp:156] Memory required for data: 821695600
I0403 12:45:42.288375  9508 layer_factory.hpp:77] Creating layer fc6
I0403 12:45:42.288405  9508 net.cpp:91] Creating Layer fc6
I0403 12:45:42.288424  9508 net.cpp:425] fc6 <- pool5
I0403 12:45:42.288441  9508 net.cpp:399] fc6 -> fc6
I0403 12:45:43.903705  9508 net.cpp:141] Setting up fc6
I0403 12:45:43.903785  9508 net.cpp:148] Top shape: 100 4096 (409600)
I0403 12:45:43.903802  9508 net.cpp:156] Memory required for data: 823334000
I0403 12:45:43.903825  9508 layer_factory.hpp:77] Creating layer relu6
I0403 12:45:43.903847  9508 net.cpp:91] Creating Layer relu6
I0403 12:45:43.903897  9508 net.cpp:425] relu6 <- fc6
I0403 12:45:43.903918  9508 net.cpp:386] relu6 -> fc6 (in-place)
I0403 12:45:43.904171  9508 net.cpp:141] Setting up relu6
I0403 12:45:43.904197  9508 net.cpp:148] Top shape: 100 4096 (409600)
I0403 12:45:43.904213  9508 net.cpp:156] Memory required for data: 824972400
I0403 12:45:43.904227  9508 layer_factory.hpp:77] Creating layer drop6
I0403 12:45:43.904249  9508 net.cpp:91] Creating Layer drop6
I0403 12:45:43.904264  9508 net.cpp:425] drop6 <- fc6
I0403 12:45:43.904283  9508 net.cpp:386] drop6 -> fc6 (in-place)
I0403 12:45:43.904336  9508 net.cpp:141] Setting up drop6
I0403 12:45:43.904361  9508 net.cpp:148] Top shape: 100 4096 (409600)
I0403 12:45:43.904376  9508 net.cpp:156] Memory required for data: 826610800
I0403 12:45:43.904389  9508 layer_factory.hpp:77] Creating layer fc7
I0403 12:45:43.904409  9508 net.cpp:91] Creating Layer fc7
I0403 12:45:43.904424  9508 net.cpp:425] fc7 <- fc6
I0403 12:45:43.904448  9508 net.cpp:399] fc7 -> fc7
I0403 12:45:44.609275  9508 net.cpp:141] Setting up fc7
I0403 12:45:44.609320  9508 net.cpp:148] Top shape: 100 4096 (409600)
I0403 12:45:44.609338  9508 net.cpp:156] Memory required for data: 828249200
I0403 12:45:44.609359  9508 layer_factory.hpp:77] Creating layer relu7
I0403 12:45:44.609381  9508 net.cpp:91] Creating Layer relu7
I0403 12:45:44.609398  9508 net.cpp:425] relu7 <- fc7
I0403 12:45:44.609417  9508 net.cpp:386] relu7 -> fc7 (in-place)
I0403 12:45:44.609822  9508 net.cpp:141] Setting up relu7
I0403 12:45:44.609849  9508 net.cpp:148] Top shape: 100 4096 (409600)
I0403 12:45:44.609905  9508 net.cpp:156] Memory required for data: 829887600
I0403 12:45:44.609921  9508 layer_factory.hpp:77] Creating layer drop7
I0403 12:45:44.609942  9508 net.cpp:91] Creating Layer drop7
I0403 12:45:44.609958  9508 net.cpp:425] drop7 <- fc7
I0403 12:45:44.609977  9508 net.cpp:386] drop7 -> fc7 (in-place)
I0403 12:45:44.610020  9508 net.cpp:141] Setting up drop7
I0403 12:45:44.610043  9508 net.cpp:148] Top shape: 100 4096 (409600)
I0403 12:45:44.610056  9508 net.cpp:156] Memory required for data: 831526000
I0403 12:45:44.610083  9508 layer_factory.hpp:77] Creating layer fc8_plantvillage
I0403 12:45:44.610105  9508 net.cpp:91] Creating Layer fc8_plantvillage
I0403 12:45:44.610123  9508 net.cpp:425] fc8_plantvillage <- fc7
I0403 12:45:44.610141  9508 net.cpp:399] fc8_plantvillage -> fc8_plantvillage
I0403 12:45:44.617064  9508 net.cpp:141] Setting up fc8_plantvillage
I0403 12:45:44.617096  9508 net.cpp:148] Top shape: 100 38 (3800)
I0403 12:45:44.617113  9508 net.cpp:156] Memory required for data: 831541200
I0403 12:45:44.617132  9508 layer_factory.hpp:77] Creating layer fc8_plantvillage_fc8_plantvillage_0_split
I0403 12:45:44.617154  9508 net.cpp:91] Creating Layer fc8_plantvillage_fc8_plantvillage_0_split
I0403 12:45:44.617169  9508 net.cpp:425] fc8_plantvillage_fc8_plantvillage_0_split <- fc8_plantvillage
I0403 12:45:44.617187  9508 net.cpp:399] fc8_plantvillage_fc8_plantvillage_0_split -> fc8_plantvillage_fc8_plantvillage_0_split_0
I0403 12:45:44.617207  9508 net.cpp:399] fc8_plantvillage_fc8_plantvillage_0_split -> fc8_plantvillage_fc8_plantvillage_0_split_1
I0403 12:45:44.617229  9508 net.cpp:399] fc8_plantvillage_fc8_plantvillage_0_split -> fc8_plantvillage_fc8_plantvillage_0_split_2
I0403 12:45:44.617306  9508 net.cpp:141] Setting up fc8_plantvillage_fc8_plantvillage_0_split
I0403 12:45:44.617331  9508 net.cpp:148] Top shape: 100 38 (3800)
I0403 12:45:44.617347  9508 net.cpp:148] Top shape: 100 38 (3800)
I0403 12:45:44.617362  9508 net.cpp:148] Top shape: 100 38 (3800)
I0403 12:45:44.617374  9508 net.cpp:156] Memory required for data: 831586800
I0403 12:45:44.617389  9508 layer_factory.hpp:77] Creating layer prob
I0403 12:45:44.617410  9508 net.cpp:91] Creating Layer prob
I0403 12:45:44.617425  9508 net.cpp:425] prob <- fc8_plantvillage_fc8_plantvillage_0_split_0
I0403 12:45:44.617444  9508 net.cpp:399] prob -> prob
I0403 12:45:44.617672  9508 net.cpp:141] Setting up prob
I0403 12:45:44.617698  9508 net.cpp:148] Top shape: 100 38 (3800)
I0403 12:45:44.617713  9508 net.cpp:156] Memory required for data: 831602000
I0403 12:45:44.617727  9508 layer_factory.hpp:77] Creating layer hdf5out
I0403 12:45:44.617748  9508 net.cpp:91] Creating Layer hdf5out
I0403 12:45:44.617765  9508 net.cpp:425] hdf5out <- prob
I0403 12:45:44.617780  9508 net.cpp:425] hdf5out <- label_data_1_split_0
I0403 12:45:44.620193  9508 net.cpp:141] Setting up hdf5out
…
