…
I0403 12:22:33.675133  8813 net.cpp:313] The NetState phase (1) differed from the phase (0) specified by a rule in layer data
I0403 12:22:33.675459  8813 net.cpp:49] Initializing net from parameters: 
state {
  phase: TEST
}
layer {
  name: "data"
  type: "Data"
  top: "data"
  top: "label"
  include {
    phase: TEST
  }
  transform_param {
    crop_size: 227
    mean_file: "/home/mohanty/data/final_dataset/lmdb/grayscale-20-80/mean.binaryproto"
  }
  data_param {
    source: "/home/mohanty/data/final_dataset/lmdb/grayscale-20-80/test_db"
    batch_size: 100
    backend: LMDB
  }
}
layer {
  name: "conv1"
  type: "Convolution"
  bottom: "data"
  top: "conv1"
  param {
    lr_mult: 1
    decay_mult: 1
  }
  param {
    lr_mult: 2
    decay_mult: 0
  }
  convolution_param {
    num_output: 96
    kernel_size: 11
    stride: 4
    weight_filler {
      type: "gaussian"
      std: 0.01
    }
    bias_filler {
      type: "constant"
      value: 0
    }
  }
}
layer {
  name: "relu1"
  type: "ReLU"
  bottom: "conv1"
  top: "conv1"
}
layer {
  name: "norm1"
  type: "LRN"
  bottom: "conv1"
  top: "norm1"
  lrn_param {
    local_size: 5
    alpha: 0.0001
    beta: 0.75
  }
}
layer {
  name: "pool1"
  type: "Pooling"
  bottom: "norm1"
  top: "pool1"
  pooling_param {
    pool: MAX
    kernel_size: 3
    stride: 2
  }
}
layer {
  name: "conv2"
  type: "Convolution"
  bottom: "pool1"
  top: "conv2"
  param {
    lr_mult: 1
    decay_mult: 1
  }
  param {
    lr_mult: 2
    decay_mult: 0
  }
  convolution_param {
    num_output: 256
    pad: 2
    kernel_size: 5
    group: 2
    weight_filler {
      type: "gaussian"
      std: 0.01
    }
    bias_filler {
      type: "constant"
      value: 0.1
    }
  }
}
layer {
  name: "relu2"
  type: "ReLU"
  bottom: "conv2"
  top: "conv2"
}
layer {
  name: "norm2"
  type: "LRN"
  bottom: "conv2"
  top: "norm2"
  lrn_param {
    local_size: 5
    alpha: 0.0001
    beta: 0.75
  }
}
layer {
  name: "pool2"
  type: "Pooling"
  bottom: "norm2"
  top: "pool2"
  pooling_param {
    pool: MAX
    kernel_size: 3
    stride: 2
  }
}
layer {
  name: "conv3"
  type: "Convolution"
  bottom: "pool2"
  top: "conv3"
  param {
    lr_mult: 1
    decay_mult: 1
  }
  param {
    lr_mult: 2
    decay_mult: 0
  }
  convolution_param {
    num_output: 384
    pad: 1
    kernel_size: 3
    weight_filler {
      type: "gaussian"
      std: 0.01
    }
    bias_filler {
      type: "constant"
      value: 0
    }
  }
}
layer {
  name: "relu3"
  type: "ReLU"
  bottom: "conv3"
  top: "conv3"
}
layer {
  name: "conv4"
  type: "Convolution"
  bottom: "conv3"
  top: "conv4"
  param {
    lr_mult: 1
    decay_mult: 1
  }
  param {
    lr_mult: 2
    decay_mult: 0
  }
  convolution_param {
    num_output: 384
    pad: 1
    kernel_size: 3
    group: 2
    weight_filler {
      type: "gaussian"
      std: 0.01
    }
    bias_filler {
      type: "constant"
      value: 0.1
    }
  }
}
layer {
  name: "relu4"
  type: "ReLU"
  bottom: "conv4"
  top: "conv4"
}
layer {
  name: "conv5"
  type: "Convolution"
  bottom: "conv4"
  top: "conv5"
  param {
    lr_mult: 1
    decay_mult: 1
  }
  param {
    lr_mult: 2
    decay_mult: 0
  }
  convolution_param {
    num_output: 256
    pad: 1
    kernel_size: 3
    group: 2
    weight_filler {
      type: "gaussian"
      std: 0.01
    }
    bias_filler {
      type: "constant"
      value: 0.1
    }
  }
}
layer {
  name: "relu5"
  type: "ReLU"
  bottom: "conv5"
  top: "conv5"
}
layer {
  name: "pool5"
  type: "Pooling"
  bottom: "conv5"
  top: "pool5"
  pooling_param {
    pool: MAX
    kernel_size: 3
    stride: 2
  }
}
layer {
  name: "fc6"
  type: "InnerProduct"
  bottom: "pool5"
  top: "fc6"
  param {
    lr_mult: 1
    decay_mult: 1
  }
  param {
    lr_mult: 2
    decay_mult: 0
  }
  inner_product_param {
    num_output: 4096
    weight_filler {
      type: "gaussian"
      std: 0.005
    }
    bias_filler {
      type: "constant"
      value: 0.1
    }
  }
}
layer {
  name: "relu6"
  type: "ReLU"
  bottom: "fc6"
  top: "fc6"
}
layer {
  name: "drop6"
  type: "Dropout"
  bottom: "fc6"
  top: "fc6"
  dropout_param {
    dropout_ratio: 0.5
  }
}
layer {
  name: "fc7"
  type: "InnerProduct"
  bottom: "fc6"
  top: "fc7"
  param {
    lr_mult: 1
    decay_mult: 1
  }
  param {
    lr_mult: 2
    decay_mult: 0
  }
  inner_product_param {
    num_output: 4096
    weight_filler {
      type: "gaussian"
      std: 0.005
    }
    bias_filler {
      type: "constant"
      value: 0.1
    }
  }
}
layer {
  name: "relu7"
  type: "ReLU"
  bottom: "fc7"
  top: "fc7"
}
layer {
  name: "drop7"
  type: "Dropout"
  bottom: "fc7"
  top: "fc7"
  dropout_param {
    dropout_ratio: 0.5
  }
}
layer {
  name: "fc8_plantvillage"
  type: "InnerProduct"
  bottom: "fc7"
  top: "fc8_plantvillage"
  param {
    lr_mult: 1
    decay_mult: 1
  }
  param {
    lr_mult: 2
    decay_mult: 0
  }
  inner_product_param {
    num_output: 38
    weight_filler {
      type: "gaussian"
      std: 0.01
    }
    bias_filler {
      type: "constant"
      value: 0
    }
  }
}
layer {
  name: "prob"
  type: "Softmax"
  bottom: "fc8_plantvillage"
  top: "prob"
  include {
    phase: TEST
  }
}
layer {
  name: "hdf5out"
  type: "HDF5Output"
  bottom: "prob"
  bottom: "label"
  include {
    phase: TEST
  }
  hdf5_output_param {
    file_name: "hdf5_dumps/iter_1575.h5"
  }
}
layer {
  name: "loss"
  type: "SoftmaxWithLoss"
  bottom: "fc8_plantvillage"
  bottom: "label"
  top: "loss"
}
layer {
  name: "accuracy"
  type: "Accuracy"
  bottom: "fc8_plantvillage"
  bottom: "label"
  top: "accuracy"
  include {
    phase: TEST
  }
}
I0403 12:22:33.676031  8813 layer_factory.hpp:77] Creating layer data
I0403 12:22:33.676702  8813 net.cpp:91] Creating Layer data
I0403 12:22:33.676733  8813 net.cpp:399] data -> data
I0403 12:22:33.676785  8813 net.cpp:399] data -> label
I0403 12:22:33.676823  8813 data_transformer.cpp:25] Loading mean file from: /home/mohanty/data/final_dataset/lmdb/grayscale-20-80/mean.binaryproto
I0403 12:22:33.680122  8816 db_lmdb.cpp:38] Opened lmdb /home/mohanty/data/final_dataset/lmdb/grayscale-20-80/test_db
I0403 12:22:33.691071  8813 data_layer.cpp:41] output data size: 100,3,227,227
I0403 12:22:33.810554  8813 net.cpp:141] Setting up data
I0403 12:22:33.810647  8813 net.cpp:148] Top shape: 100 3 227 227 (15458700)
I0403 12:22:33.810669  8813 net.cpp:148] Top shape: 100 (100)
I0403 12:22:33.810685  8813 net.cpp:156] Memory required for data: 61835200
I0403 12:22:33.810714  8813 layer_factory.hpp:77] Creating layer label_data_1_split
I0403 12:22:33.810739  8813 net.cpp:91] Creating Layer label_data_1_split
I0403 12:22:33.810757  8813 net.cpp:425] label_data_1_split <- label
I0403 12:22:33.810789  8813 net.cpp:399] label_data_1_split -> label_data_1_split_0
I0403 12:22:33.810817  8813 net.cpp:399] label_data_1_split -> label_data_1_split_1
I0403 12:22:33.810838  8813 net.cpp:399] label_data_1_split -> label_data_1_split_2
I0403 12:22:33.810902  8813 net.cpp:141] Setting up label_data_1_split
I0403 12:22:33.810925  8813 net.cpp:148] Top shape: 100 (100)
I0403 12:22:33.810942  8813 net.cpp:148] Top shape: 100 (100)
I0403 12:22:33.810959  8813 net.cpp:148] Top shape: 100 (100)
I0403 12:22:33.810973  8813 net.cpp:156] Memory required for data: 61836400
I0403 12:22:33.810988  8813 layer_factory.hpp:77] Creating layer conv1
I0403 12:22:33.811019  8813 net.cpp:91] Creating Layer conv1
I0403 12:22:33.811038  8813 net.cpp:425] conv1 <- data
I0403 12:22:33.811058  8813 net.cpp:399] conv1 -> conv1
I0403 12:22:33.954126  8813 net.cpp:141] Setting up conv1
I0403 12:22:33.954213  8813 net.cpp:148] Top shape: 100 96 55 55 (29040000)
I0403 12:22:33.954232  8813 net.cpp:156] Memory required for data: 177996400
I0403 12:22:33.954263  8813 layer_factory.hpp:77] Creating layer relu1
I0403 12:22:33.954290  8813 net.cpp:91] Creating Layer relu1
I0403 12:22:33.954309  8813 net.cpp:425] relu1 <- conv1
I0403 12:22:33.954327  8813 net.cpp:386] relu1 -> conv1 (in-place)
I0403 12:22:33.954617  8813 net.cpp:141] Setting up relu1
I0403 12:22:33.954643  8813 net.cpp:148] Top shape: 100 96 55 55 (29040000)
I0403 12:22:33.954691  8813 net.cpp:156] Memory required for data: 294156400
I0403 12:22:33.954707  8813 layer_factory.hpp:77] Creating layer norm1
I0403 12:22:33.954732  8813 net.cpp:91] Creating Layer norm1
I0403 12:22:33.954751  8813 net.cpp:425] norm1 <- conv1
I0403 12:22:33.954767  8813 net.cpp:399] norm1 -> norm1
I0403 12:22:33.955080  8813 net.cpp:141] Setting up norm1
I0403 12:22:33.955106  8813 net.cpp:148] Top shape: 100 96 55 55 (29040000)
I0403 12:22:33.955121  8813 net.cpp:156] Memory required for data: 410316400
I0403 12:22:33.955137  8813 layer_factory.hpp:77] Creating layer pool1
I0403 12:22:33.955159  8813 net.cpp:91] Creating Layer pool1
I0403 12:22:33.955175  8813 net.cpp:425] pool1 <- norm1
I0403 12:22:33.955193  8813 net.cpp:399] pool1 -> pool1
I0403 12:22:33.955258  8813 net.cpp:141] Setting up pool1
I0403 12:22:33.955281  8813 net.cpp:148] Top shape: 100 96 27 27 (6998400)
I0403 12:22:33.955298  8813 net.cpp:156] Memory required for data: 438310000
I0403 12:22:33.955313  8813 layer_factory.hpp:77] Creating layer conv2
I0403 12:22:33.955338  8813 net.cpp:91] Creating Layer conv2
I0403 12:22:33.955353  8813 net.cpp:425] conv2 <- pool1
I0403 12:22:33.955370  8813 net.cpp:399] conv2 -> conv2
I0403 12:22:33.970387  8813 net.cpp:141] Setting up conv2
I0403 12:22:33.970432  8813 net.cpp:148] Top shape: 100 256 27 27 (18662400)
I0403 12:22:33.970448  8813 net.cpp:156] Memory required for data: 512959600
I0403 12:22:33.970469  8813 layer_factory.hpp:77] Creating layer relu2
I0403 12:22:33.970489  8813 net.cpp:91] Creating Layer relu2
I0403 12:22:33.970505  8813 net.cpp:425] relu2 <- conv2
I0403 12:22:33.970522  8813 net.cpp:386] relu2 -> conv2 (in-place)
I0403 12:22:33.970835  8813 net.cpp:141] Setting up relu2
I0403 12:22:33.970863  8813 net.cpp:148] Top shape: 100 256 27 27 (18662400)
I0403 12:22:33.970880  8813 net.cpp:156] Memory required for data: 587609200
I0403 12:22:33.970895  8813 layer_factory.hpp:77] Creating layer norm2
I0403 12:22:33.970916  8813 net.cpp:91] Creating Layer norm2
I0403 12:22:33.970932  8813 net.cpp:425] norm2 <- conv2
I0403 12:22:33.970950  8813 net.cpp:399] norm2 -> norm2
I0403 12:22:33.971140  8813 net.cpp:141] Setting up norm2
I0403 12:22:33.971166  8813 net.cpp:148] Top shape: 100 256 27 27 (18662400)
I0403 12:22:33.971181  8813 net.cpp:156] Memory required for data: 662258800
I0403 12:22:33.971195  8813 layer_factory.hpp:77] Creating layer pool2
I0403 12:22:33.971215  8813 net.cpp:91] Creating Layer pool2
I0403 12:22:33.971230  8813 net.cpp:425] pool2 <- norm2
I0403 12:22:33.971246  8813 net.cpp:399] pool2 -> pool2
I0403 12:22:33.971297  8813 net.cpp:141] Setting up pool2
I0403 12:22:33.971319  8813 net.cpp:148] Top shape: 100 256 13 13 (4326400)
I0403 12:22:33.971333  8813 net.cpp:156] Memory required for data: 679564400
I0403 12:22:33.971349  8813 layer_factory.hpp:77] Creating layer conv3
I0403 12:22:33.971369  8813 net.cpp:91] Creating Layer conv3
I0403 12:22:33.971385  8813 net.cpp:425] conv3 <- pool2
I0403 12:22:33.971402  8813 net.cpp:399] conv3 -> conv3
I0403 12:22:34.010571  8813 net.cpp:141] Setting up conv3
I0403 12:22:34.010648  8813 net.cpp:148] Top shape: 100 384 13 13 (6489600)
I0403 12:22:34.010665  8813 net.cpp:156] Memory required for data: 705522800
I0403 12:22:34.010691  8813 layer_factory.hpp:77] Creating layer relu3
I0403 12:22:34.010715  8813 net.cpp:91] Creating Layer relu3
I0403 12:22:34.010733  8813 net.cpp:425] relu3 <- conv3
I0403 12:22:34.010752  8813 net.cpp:386] relu3 -> conv3 (in-place)
I0403 12:22:34.011062  8813 net.cpp:141] Setting up relu3
I0403 12:22:34.011092  8813 net.cpp:148] Top shape: 100 384 13 13 (6489600)
I0403 12:22:34.011108  8813 net.cpp:156] Memory required for data: 731481200
I0403 12:22:34.011123  8813 layer_factory.hpp:77] Creating layer conv4
I0403 12:22:34.011148  8813 net.cpp:91] Creating Layer conv4
I0403 12:22:34.011167  8813 net.cpp:425] conv4 <- conv3
I0403 12:22:34.011184  8813 net.cpp:399] conv4 -> conv4
I0403 12:22:34.041849  8813 net.cpp:141] Setting up conv4
I0403 12:22:34.041920  8813 net.cpp:148] Top shape: 100 384 13 13 (6489600)
I0403 12:22:34.041971  8813 net.cpp:156] Memory required for data: 757439600
I0403 12:22:34.041993  8813 layer_factory.hpp:77] Creating layer relu4
I0403 12:22:34.042021  8813 net.cpp:91] Creating Layer relu4
I0403 12:22:34.042038  8813 net.cpp:425] relu4 <- conv4
I0403 12:22:34.042057  8813 net.cpp:386] relu4 -> conv4 (in-place)
I0403 12:22:34.042342  8813 net.cpp:141] Setting up relu4
I0403 12:22:34.042369  8813 net.cpp:148] Top shape: 100 384 13 13 (6489600)
I0403 12:22:34.042384  8813 net.cpp:156] Memory required for data: 783398000
I0403 12:22:34.042399  8813 layer_factory.hpp:77] Creating layer conv5
I0403 12:22:34.042426  8813 net.cpp:91] Creating Layer conv5
I0403 12:22:34.042443  8813 net.cpp:425] conv5 <- conv4
I0403 12:22:34.042464  8813 net.cpp:399] conv5 -> conv5
I0403 12:22:34.064280  8813 net.cpp:141] Setting up conv5
I0403 12:22:34.064340  8813 net.cpp:148] Top shape: 100 256 13 13 (4326400)
I0403 12:22:34.064357  8813 net.cpp:156] Memory required for data: 800703600
I0403 12:22:34.064383  8813 layer_factory.hpp:77] Creating layer relu5
I0403 12:22:34.064410  8813 net.cpp:91] Creating Layer relu5
I0403 12:22:34.064429  8813 net.cpp:425] relu5 <- conv5
I0403 12:22:34.064448  8813 net.cpp:386] relu5 -> conv5 (in-place)
I0403 12:22:34.064857  8813 net.cpp:141] Setting up relu5
I0403 12:22:34.064888  8813 net.cpp:148] Top shape: 100 256 13 13 (4326400)
I0403 12:22:34.064904  8813 net.cpp:156] Memory required for data: 818009200
I0403 12:22:34.064919  8813 layer_factory.hpp:77] Creating layer pool5
I0403 12:22:34.064940  8813 net.cpp:91] Creating Layer pool5
I0403 12:22:34.064956  8813 net.cpp:425] pool5 <- conv5
I0403 12:22:34.064977  8813 net.cpp:399] pool5 -> pool5
I0403 12:22:34.065039  8813 net.cpp:141] Setting up pool5
I0403 12:22:34.065065  8813 net.cpp:148] Top shape: 100 256 6 6 (921600)
I0403 12:22:34.065081  8813 net.cpp:156] Memory required for data: 821695600
I0403 12:22:34.065095  8813 layer_factory.hpp:77] Creating layer fc6
I0403 12:22:34.065122  8813 net.cpp:91] Creating Layer fc6
I0403 12:22:34.065140  8813 net.cpp:425] fc6 <- pool5
I0403 12:22:34.065158  8813 net.cpp:399] fc6 -> fc6
I0403 12:22:35.621964  8813 net.cpp:141] Setting up fc6
I0403 12:22:35.622041  8813 net.cpp:148] Top shape: 100 4096 (409600)
I0403 12:22:35.622057  8813 net.cpp:156] Memory required for data: 823334000
I0403 12:22:35.622077  8813 layer_factory.hpp:77] Creating layer relu6
I0403 12:22:35.622102  8813 net.cpp:91] Creating Layer relu6
I0403 12:22:35.622119  8813 net.cpp:425] relu6 <- fc6
I0403 12:22:35.622138  8813 net.cpp:386] relu6 -> fc6 (in-place)
I0403 12:22:35.622366  8813 net.cpp:141] Setting up relu6
I0403 12:22:35.622392  8813 net.cpp:148] Top shape: 100 4096 (409600)
I0403 12:22:35.622409  8813 net.cpp:156] Memory required for data: 824972400
I0403 12:22:35.622423  8813 layer_factory.hpp:77] Creating layer drop6
I0403 12:22:35.622442  8813 net.cpp:91] Creating Layer drop6
I0403 12:22:35.622457  8813 net.cpp:425] drop6 <- fc6
I0403 12:22:35.622473  8813 net.cpp:386] drop6 -> fc6 (in-place)
I0403 12:22:35.622527  8813 net.cpp:141] Setting up drop6
I0403 12:22:35.622565  8813 net.cpp:148] Top shape: 100 4096 (409600)
I0403 12:22:35.622580  8813 net.cpp:156] Memory required for data: 826610800
I0403 12:22:35.622593  8813 layer_factory.hpp:77] Creating layer fc7
I0403 12:22:35.622616  8813 net.cpp:91] Creating Layer fc7
I0403 12:22:35.622632  8813 net.cpp:425] fc7 <- fc6
I0403 12:22:35.622649  8813 net.cpp:399] fc7 -> fc7
I0403 12:22:36.305693  8813 net.cpp:141] Setting up fc7
I0403 12:22:36.305774  8813 net.cpp:148] Top shape: 100 4096 (409600)
I0403 12:22:36.305790  8813 net.cpp:156] Memory required for data: 828249200
I0403 12:22:36.305811  8813 layer_factory.hpp:77] Creating layer relu7
I0403 12:22:36.305833  8813 net.cpp:91] Creating Layer relu7
I0403 12:22:36.305851  8813 net.cpp:425] relu7 <- fc7
I0403 12:22:36.305871  8813 net.cpp:386] relu7 -> fc7 (in-place)
I0403 12:22:36.306289  8813 net.cpp:141] Setting up relu7
I0403 12:22:36.306318  8813 net.cpp:148] Top shape: 100 4096 (409600)
I0403 12:22:36.306375  8813 net.cpp:156] Memory required for data: 829887600
I0403 12:22:36.306391  8813 layer_factory.hpp:77] Creating layer drop7
I0403 12:22:36.306409  8813 net.cpp:91] Creating Layer drop7
I0403 12:22:36.306424  8813 net.cpp:425] drop7 <- fc7
I0403 12:22:36.306442  8813 net.cpp:386] drop7 -> fc7 (in-place)
I0403 12:22:36.306488  8813 net.cpp:141] Setting up drop7
I0403 12:22:36.306509  8813 net.cpp:148] Top shape: 100 4096 (409600)
I0403 12:22:36.306524  8813 net.cpp:156] Memory required for data: 831526000
I0403 12:22:36.306540  8813 layer_factory.hpp:77] Creating layer fc8_plantvillage
I0403 12:22:36.306563  8813 net.cpp:91] Creating Layer fc8_plantvillage
I0403 12:22:36.306581  8813 net.cpp:425] fc8_plantvillage <- fc7
I0403 12:22:36.306597  8813 net.cpp:399] fc8_plantvillage -> fc8_plantvillage
I0403 12:22:36.313294  8813 net.cpp:141] Setting up fc8_plantvillage
I0403 12:22:36.313323  8813 net.cpp:148] Top shape: 100 38 (3800)
I0403 12:22:36.313338  8813 net.cpp:156] Memory required for data: 831541200
I0403 12:22:36.313355  8813 layer_factory.hpp:77] Creating layer fc8_plantvillage_fc8_plantvillage_0_split
I0403 12:22:36.313375  8813 net.cpp:91] Creating Layer fc8_plantvillage_fc8_plantvillage_0_split
I0403 12:22:36.313391  8813 net.cpp:425] fc8_plantvillage_fc8_plantvillage_0_split <- fc8_plantvillage
I0403 12:22:36.313410  8813 net.cpp:399] fc8_plantvillage_fc8_plantvillage_0_split -> fc8_plantvillage_fc8_plantvillage_0_split_0
I0403 12:22:36.313431  8813 net.cpp:399] fc8_plantvillage_fc8_plantvillage_0_split -> fc8_plantvillage_fc8_plantvillage_0_split_1
I0403 12:22:36.313449  8813 net.cpp:399] fc8_plantvillage_fc8_plantvillage_0_split -> fc8_plantvillage_fc8_plantvillage_0_split_2
I0403 12:22:36.313527  8813 net.cpp:141] Setting up fc8_plantvillage_fc8_plantvillage_0_split
I0403 12:22:36.313555  8813 net.cpp:148] Top shape: 100 38 (3800)
I0403 12:22:36.313571  8813 net.cpp:148] Top shape: 100 38 (3800)
I0403 12:22:36.313586  8813 net.cpp:148] Top shape: 100 38 (3800)
I0403 12:22:36.313599  8813 net.cpp:156] Memory required for data: 831586800
I0403 12:22:36.313613  8813 layer_factory.hpp:77] Creating layer prob
I0403 12:22:36.313633  8813 net.cpp:91] Creating Layer prob
I0403 12:22:36.313649  8813 net.cpp:425] prob <- fc8_plantvillage_fc8_plantvillage_0_split_0
I0403 12:22:36.313666  8813 net.cpp:399] prob -> prob
I0403 12:22:36.313896  8813 net.cpp:141] Setting up prob
I0403 12:22:36.313925  8813 net.cpp:148] Top shape: 100 38 (3800)
I0403 12:22:36.313941  8813 net.cpp:156] Memory required for data: 831602000
I0403 12:22:36.313954  8813 layer_factory.hpp:77] Creating layer hdf5out
I0403 12:22:36.313972  8813 net.cpp:91] Creating Layer hdf5out
I0403 12:22:36.313987  8813 net.cpp:425] hdf5out <- prob
I0403 12:22:36.314002  8813 net.cpp:425] hdf5out <- label_data_1_split_0
I0403 12:22:36.582190  8813 net.cpp:141] Setting up hdf5out
…
