…
I0403 12:41:23.866503  9281 net.cpp:313] The NetState phase (1) differed from the phase (0) specified by a rule in layer data
I0403 12:41:23.866816  9281 net.cpp:49] Initializing net from parameters: 
state {
  phase: TEST
}
layer {
  name: "data"
  type: "Data"
  top: "data"
  top: "label"
  include {
    phase: TEST
  }
  transform_param {
    crop_size: 227
    mean_file: "/home/mohanty/data/final_dataset/lmdb/grayscale-20-80/mean.binaryproto"
  }
  data_param {
    source: "/home/mohanty/data/final_dataset/lmdb/grayscale-20-80/test_db"
    batch_size: 100
    backend: LMDB
  }
}
layer {
  name: "conv1"
  type: "Convolution"
  bottom: "data"
  top: "conv1"
  param {
    lr_mult: 1
    decay_mult: 1
  }
  param {
    lr_mult: 2
    decay_mult: 0
  }
  convolution_param {
    num_output: 96
    kernel_size: 11
    stride: 4
    weight_filler {
      type: "gaussian"
      std: 0.01
    }
    bias_filler {
      type: "constant"
      value: 0
    }
  }
}
layer {
  name: "relu1"
  type: "ReLU"
  bottom: "conv1"
  top: "conv1"
}
layer {
  name: "norm1"
  type: "LRN"
  bottom: "conv1"
  top: "norm1"
  lrn_param {
    local_size: 5
    alpha: 0.0001
    beta: 0.75
  }
}
layer {
  name: "pool1"
  type: "Pooling"
  bottom: "norm1"
  top: "pool1"
  pooling_param {
    pool: MAX
    kernel_size: 3
    stride: 2
  }
}
layer {
  name: "conv2"
  type: "Convolution"
  bottom: "pool1"
  top: "conv2"
  param {
    lr_mult: 1
    decay_mult: 1
  }
  param {
    lr_mult: 2
    decay_mult: 0
  }
  convolution_param {
    num_output: 256
    pad: 2
    kernel_size: 5
    group: 2
    weight_filler {
      type: "gaussian"
      std: 0.01
    }
    bias_filler {
      type: "constant"
      value: 0.1
    }
  }
}
layer {
  name: "relu2"
  type: "ReLU"
  bottom: "conv2"
  top: "conv2"
}
layer {
  name: "norm2"
  type: "LRN"
  bottom: "conv2"
  top: "norm2"
  lrn_param {
    local_size: 5
    alpha: 0.0001
    beta: 0.75
  }
}
layer {
  name: "pool2"
  type: "Pooling"
  bottom: "norm2"
  top: "pool2"
  pooling_param {
    pool: MAX
    kernel_size: 3
    stride: 2
  }
}
layer {
  name: "conv3"
  type: "Convolution"
  bottom: "pool2"
  top: "conv3"
  param {
    lr_mult: 1
    decay_mult: 1
  }
  param {
    lr_mult: 2
    decay_mult: 0
  }
  convolution_param {
    num_output: 384
    pad: 1
    kernel_size: 3
    weight_filler {
      type: "gaussian"
      std: 0.01
    }
    bias_filler {
      type: "constant"
      value: 0
    }
  }
}
layer {
  name: "relu3"
  type: "ReLU"
  bottom: "conv3"
  top: "conv3"
}
layer {
  name: "conv4"
  type: "Convolution"
  bottom: "conv3"
  top: "conv4"
  param {
    lr_mult: 1
    decay_mult: 1
  }
  param {
    lr_mult: 2
    decay_mult: 0
  }
  convolution_param {
    num_output: 384
    pad: 1
    kernel_size: 3
    group: 2
    weight_filler {
      type: "gaussian"
      std: 0.01
    }
    bias_filler {
      type: "constant"
      value: 0.1
    }
  }
}
layer {
  name: "relu4"
  type: "ReLU"
  bottom: "conv4"
  top: "conv4"
}
layer {
  name: "conv5"
  type: "Convolution"
  bottom: "conv4"
  top: "conv5"
  param {
    lr_mult: 1
    decay_mult: 1
  }
  param {
    lr_mult: 2
    decay_mult: 0
  }
  convolution_param {
    num_output: 256
    pad: 1
    kernel_size: 3
    group: 2
    weight_filler {
      type: "gaussian"
      std: 0.01
    }
    bias_filler {
      type: "constant"
      value: 0.1
    }
  }
}
layer {
  name: "relu5"
  type: "ReLU"
  bottom: "conv5"
  top: "conv5"
}
layer {
  name: "pool5"
  type: "Pooling"
  bottom: "conv5"
  top: "pool5"
  pooling_param {
    pool: MAX
    kernel_size: 3
    stride: 2
  }
}
layer {
  name: "fc6"
  type: "InnerProduct"
  bottom: "pool5"
  top: "fc6"
  param {
    lr_mult: 1
    decay_mult: 1
  }
  param {
    lr_mult: 2
    decay_mult: 0
  }
  inner_product_param {
    num_output: 4096
    weight_filler {
      type: "gaussian"
      std: 0.005
    }
    bias_filler {
      type: "constant"
      value: 0.1
    }
  }
}
layer {
  name: "relu6"
  type: "ReLU"
  bottom: "fc6"
  top: "fc6"
}
layer {
  name: "drop6"
  type: "Dropout"
  bottom: "fc6"
  top: "fc6"
  dropout_param {
    dropout_ratio: 0.5
  }
}
layer {
  name: "fc7"
  type: "InnerProduct"
  bottom: "fc6"
  top: "fc7"
  param {
    lr_mult: 1
    decay_mult: 1
  }
  param {
    lr_mult: 2
    decay_mult: 0
  }
  inner_product_param {
    num_output: 4096
    weight_filler {
      type: "gaussian"
      std: 0.005
    }
    bias_filler {
      type: "constant"
      value: 0.1
    }
  }
}
layer {
  name: "relu7"
  type: "ReLU"
  bottom: "fc7"
  top: "fc7"
}
layer {
  name: "drop7"
  type: "Dropout"
  bottom: "fc7"
  top: "fc7"
  dropout_param {
    dropout_ratio: 0.5
  }
}
layer {
  name: "fc8_plantvillage"
  type: "InnerProduct"
  bottom: "fc7"
  top: "fc8_plantvillage"
  param {
    lr_mult: 1
    decay_mult: 1
  }
  param {
    lr_mult: 2
    decay_mult: 0
  }
  inner_product_param {
    num_output: 38
    weight_filler {
      type: "gaussian"
      std: 0.01
    }
    bias_filler {
      type: "constant"
      value: 0
    }
  }
}
layer {
  name: "prob"
  type: "Softmax"
  bottom: "fc8_plantvillage"
  top: "prob"
  include {
    phase: TEST
  }
}
layer {
  name: "hdf5out"
  type: "HDF5Output"
  bottom: "prob"
  bottom: "label"
  include {
    phase: TEST
  }
  hdf5_output_param {
    file_name: "hdf5_dumps/iter_2940.h5"
  }
}
layer {
  name: "loss"
  type: "SoftmaxWithLoss"
  bottom: "fc8_plantvillage"
  bottom: "label"
  top: "loss"
}
layer {
  name: "accuracy"
  type: "Accuracy"
  bottom: "fc8_plantvillage"
  bottom: "label"
  top: "accuracy"
  include {
    phase: TEST
  }
}
I0403 12:41:23.867419  9281 layer_factory.hpp:77] Creating layer data
I0403 12:41:23.868082  9281 net.cpp:91] Creating Layer data
I0403 12:41:23.868114  9281 net.cpp:399] data -> data
I0403 12:41:23.868165  9281 net.cpp:399] data -> label
I0403 12:41:23.868201  9281 data_transformer.cpp:25] Loading mean file from: /home/mohanty/data/final_dataset/lmdb/grayscale-20-80/mean.binaryproto
I0403 12:41:23.871091  9284 db_lmdb.cpp:38] Opened lmdb /home/mohanty/data/final_dataset/lmdb/grayscale-20-80/test_db
I0403 12:41:23.882243  9281 data_layer.cpp:41] output data size: 100,3,227,227
I0403 12:41:23.999276  9281 net.cpp:141] Setting up data
I0403 12:41:23.999369  9281 net.cpp:148] Top shape: 100 3 227 227 (15458700)
I0403 12:41:23.999393  9281 net.cpp:148] Top shape: 100 (100)
I0403 12:41:23.999409  9281 net.cpp:156] Memory required for data: 61835200
I0403 12:41:23.999439  9281 layer_factory.hpp:77] Creating layer label_data_1_split
I0403 12:41:23.999466  9281 net.cpp:91] Creating Layer label_data_1_split
I0403 12:41:23.999485  9281 net.cpp:425] label_data_1_split <- label
I0403 12:41:23.999517  9281 net.cpp:399] label_data_1_split -> label_data_1_split_0
I0403 12:41:23.999549  9281 net.cpp:399] label_data_1_split -> label_data_1_split_1
I0403 12:41:23.999572  9281 net.cpp:399] label_data_1_split -> label_data_1_split_2
I0403 12:41:23.999639  9281 net.cpp:141] Setting up label_data_1_split
I0403 12:41:23.999662  9281 net.cpp:148] Top shape: 100 (100)
I0403 12:41:23.999678  9281 net.cpp:148] Top shape: 100 (100)
I0403 12:41:23.999694  9281 net.cpp:148] Top shape: 100 (100)
I0403 12:41:23.999709  9281 net.cpp:156] Memory required for data: 61836400
I0403 12:41:23.999723  9281 layer_factory.hpp:77] Creating layer conv1
I0403 12:41:23.999754  9281 net.cpp:91] Creating Layer conv1
I0403 12:41:23.999773  9281 net.cpp:425] conv1 <- data
I0403 12:41:23.999793  9281 net.cpp:399] conv1 -> conv1
I0403 12:41:24.139299  9281 net.cpp:141] Setting up conv1
I0403 12:41:24.139377  9281 net.cpp:148] Top shape: 100 96 55 55 (29040000)
I0403 12:41:24.139395  9281 net.cpp:156] Memory required for data: 177996400
I0403 12:41:24.139426  9281 layer_factory.hpp:77] Creating layer relu1
I0403 12:41:24.139456  9281 net.cpp:91] Creating Layer relu1
I0403 12:41:24.139474  9281 net.cpp:425] relu1 <- conv1
I0403 12:41:24.139494  9281 net.cpp:386] relu1 -> conv1 (in-place)
I0403 12:41:24.139767  9281 net.cpp:141] Setting up relu1
I0403 12:41:24.139796  9281 net.cpp:148] Top shape: 100 96 55 55 (29040000)
I0403 12:41:24.139847  9281 net.cpp:156] Memory required for data: 294156400
I0403 12:41:24.139863  9281 layer_factory.hpp:77] Creating layer norm1
I0403 12:41:24.139891  9281 net.cpp:91] Creating Layer norm1
I0403 12:41:24.139910  9281 net.cpp:425] norm1 <- conv1
I0403 12:41:24.139930  9281 net.cpp:399] norm1 -> norm1
I0403 12:41:24.140249  9281 net.cpp:141] Setting up norm1
I0403 12:41:24.140277  9281 net.cpp:148] Top shape: 100 96 55 55 (29040000)
I0403 12:41:24.140295  9281 net.cpp:156] Memory required for data: 410316400
I0403 12:41:24.140311  9281 layer_factory.hpp:77] Creating layer pool1
I0403 12:41:24.140334  9281 net.cpp:91] Creating Layer pool1
I0403 12:41:24.140352  9281 net.cpp:425] pool1 <- norm1
I0403 12:41:24.140370  9281 net.cpp:399] pool1 -> pool1
I0403 12:41:24.140439  9281 net.cpp:141] Setting up pool1
I0403 12:41:24.140465  9281 net.cpp:148] Top shape: 100 96 27 27 (6998400)
I0403 12:41:24.140480  9281 net.cpp:156] Memory required for data: 438310000
I0403 12:41:24.140496  9281 layer_factory.hpp:77] Creating layer conv2
I0403 12:41:24.140563  9281 net.cpp:91] Creating Layer conv2
I0403 12:41:24.140581  9281 net.cpp:425] conv2 <- pool1
I0403 12:41:24.140600  9281 net.cpp:399] conv2 -> conv2
I0403 12:41:24.156321  9281 net.cpp:141] Setting up conv2
I0403 12:41:24.156371  9281 net.cpp:148] Top shape: 100 256 27 27 (18662400)
I0403 12:41:24.156390  9281 net.cpp:156] Memory required for data: 512959600
I0403 12:41:24.156414  9281 layer_factory.hpp:77] Creating layer relu2
I0403 12:41:24.156435  9281 net.cpp:91] Creating Layer relu2
I0403 12:41:24.156456  9281 net.cpp:425] relu2 <- conv2
I0403 12:41:24.156476  9281 net.cpp:386] relu2 -> conv2 (in-place)
I0403 12:41:24.156769  9281 net.cpp:141] Setting up relu2
I0403 12:41:24.156796  9281 net.cpp:148] Top shape: 100 256 27 27 (18662400)
I0403 12:41:24.156812  9281 net.cpp:156] Memory required for data: 587609200
I0403 12:41:24.156828  9281 layer_factory.hpp:77] Creating layer norm2
I0403 12:41:24.156852  9281 net.cpp:91] Creating Layer norm2
I0403 12:41:24.156872  9281 net.cpp:425] norm2 <- conv2
I0403 12:41:24.156891  9281 net.cpp:399] norm2 -> norm2
I0403 12:41:24.157099  9281 net.cpp:141] Setting up norm2
I0403 12:41:24.157126  9281 net.cpp:148] Top shape: 100 256 27 27 (18662400)
I0403 12:41:24.157153  9281 net.cpp:156] Memory required for data: 662258800
I0403 12:41:24.157168  9281 layer_factory.hpp:77] Creating layer pool2
I0403 12:41:24.157187  9281 net.cpp:91] Creating Layer pool2
I0403 12:41:24.157202  9281 net.cpp:425] pool2 <- norm2
I0403 12:41:24.157223  9281 net.cpp:399] pool2 -> pool2
I0403 12:41:24.157289  9281 net.cpp:141] Setting up pool2
I0403 12:41:24.157315  9281 net.cpp:148] Top shape: 100 256 13 13 (4326400)
I0403 12:41:24.157331  9281 net.cpp:156] Memory required for data: 679564400
I0403 12:41:24.157346  9281 layer_factory.hpp:77] Creating layer conv3
I0403 12:41:24.157373  9281 net.cpp:91] Creating Layer conv3
I0403 12:41:24.157392  9281 net.cpp:425] conv3 <- pool2
I0403 12:41:24.157412  9281 net.cpp:399] conv3 -> conv3
I0403 12:41:24.197523  9281 net.cpp:141] Setting up conv3
I0403 12:41:24.197607  9281 net.cpp:148] Top shape: 100 384 13 13 (6489600)
I0403 12:41:24.197625  9281 net.cpp:156] Memory required for data: 705522800
I0403 12:41:24.197652  9281 layer_factory.hpp:77] Creating layer relu3
I0403 12:41:24.197676  9281 net.cpp:91] Creating Layer relu3
I0403 12:41:24.197695  9281 net.cpp:425] relu3 <- conv3
I0403 12:41:24.197716  9281 net.cpp:386] relu3 -> conv3 (in-place)
I0403 12:41:24.198041  9281 net.cpp:141] Setting up relu3
I0403 12:41:24.198070  9281 net.cpp:148] Top shape: 100 384 13 13 (6489600)
I0403 12:41:24.198086  9281 net.cpp:156] Memory required for data: 731481200
I0403 12:41:24.198101  9281 layer_factory.hpp:77] Creating layer conv4
I0403 12:41:24.198127  9281 net.cpp:91] Creating Layer conv4
I0403 12:41:24.198146  9281 net.cpp:425] conv4 <- conv3
I0403 12:41:24.198168  9281 net.cpp:399] conv4 -> conv4
I0403 12:41:24.229243  9281 net.cpp:141] Setting up conv4
I0403 12:41:24.229305  9281 net.cpp:148] Top shape: 100 384 13 13 (6489600)
I0403 12:41:24.229357  9281 net.cpp:156] Memory required for data: 757439600
I0403 12:41:24.229379  9281 layer_factory.hpp:77] Creating layer relu4
I0403 12:41:24.229403  9281 net.cpp:91] Creating Layer relu4
I0403 12:41:24.229420  9281 net.cpp:425] relu4 <- conv4
I0403 12:41:24.229444  9281 net.cpp:386] relu4 -> conv4 (in-place)
I0403 12:41:24.229740  9281 net.cpp:141] Setting up relu4
I0403 12:41:24.229768  9281 net.cpp:148] Top shape: 100 384 13 13 (6489600)
I0403 12:41:24.229784  9281 net.cpp:156] Memory required for data: 783398000
I0403 12:41:24.229799  9281 layer_factory.hpp:77] Creating layer conv5
I0403 12:41:24.229826  9281 net.cpp:91] Creating Layer conv5
I0403 12:41:24.229846  9281 net.cpp:425] conv5 <- conv4
I0403 12:41:24.229867  9281 net.cpp:399] conv5 -> conv5
I0403 12:41:24.251436  9281 net.cpp:141] Setting up conv5
I0403 12:41:24.251497  9281 net.cpp:148] Top shape: 100 256 13 13 (4326400)
I0403 12:41:24.251515  9281 net.cpp:156] Memory required for data: 800703600
I0403 12:41:24.251554  9281 layer_factory.hpp:77] Creating layer relu5
I0403 12:41:24.251579  9281 net.cpp:91] Creating Layer relu5
I0403 12:41:24.251596  9281 net.cpp:425] relu5 <- conv5
I0403 12:41:24.251618  9281 net.cpp:386] relu5 -> conv5 (in-place)
I0403 12:41:24.251916  9281 net.cpp:141] Setting up relu5
I0403 12:41:24.251945  9281 net.cpp:148] Top shape: 100 256 13 13 (4326400)
I0403 12:41:24.251960  9281 net.cpp:156] Memory required for data: 818009200
I0403 12:41:24.251976  9281 layer_factory.hpp:77] Creating layer pool5
I0403 12:41:24.252002  9281 net.cpp:91] Creating Layer pool5
I0403 12:41:24.252019  9281 net.cpp:425] pool5 <- conv5
I0403 12:41:24.252038  9281 net.cpp:399] pool5 -> pool5
I0403 12:41:24.252100  9281 net.cpp:141] Setting up pool5
I0403 12:41:24.252123  9281 net.cpp:148] Top shape: 100 256 6 6 (921600)
I0403 12:41:24.252138  9281 net.cpp:156] Memory required for data: 821695600
I0403 12:41:24.252152  9281 layer_factory.hpp:77] Creating layer fc6
I0403 12:41:24.252179  9281 net.cpp:91] Creating Layer fc6
I0403 12:41:24.252198  9281 net.cpp:425] fc6 <- pool5
I0403 12:41:24.252218  9281 net.cpp:399] fc6 -> fc6
I0403 12:41:25.836560  9281 net.cpp:141] Setting up fc6
I0403 12:41:25.836639  9281 net.cpp:148] Top shape: 100 4096 (409600)
I0403 12:41:25.836657  9281 net.cpp:156] Memory required for data: 823334000
I0403 12:41:25.836678  9281 layer_factory.hpp:77] Creating layer relu6
I0403 12:41:25.836699  9281 net.cpp:91] Creating Layer relu6
I0403 12:41:25.836715  9281 net.cpp:425] relu6 <- fc6
I0403 12:41:25.836735  9281 net.cpp:386] relu6 -> fc6 (in-place)
I0403 12:41:25.836954  9281 net.cpp:141] Setting up relu6
I0403 12:41:25.836979  9281 net.cpp:148] Top shape: 100 4096 (409600)
I0403 12:41:25.836994  9281 net.cpp:156] Memory required for data: 824972400
I0403 12:41:25.837008  9281 layer_factory.hpp:77] Creating layer drop6
I0403 12:41:25.837025  9281 net.cpp:91] Creating Layer drop6
I0403 12:41:25.837040  9281 net.cpp:425] drop6 <- fc6
I0403 12:41:25.837059  9281 net.cpp:386] drop6 -> fc6 (in-place)
I0403 12:41:25.837110  9281 net.cpp:141] Setting up drop6
I0403 12:41:25.837136  9281 net.cpp:148] Top shape: 100 4096 (409600)
I0403 12:41:25.837152  9281 net.cpp:156] Memory required for data: 826610800
I0403 12:41:25.837165  9281 layer_factory.hpp:77] Creating layer fc7
I0403 12:41:25.837185  9281 net.cpp:91] Creating Layer fc7
I0403 12:41:25.837200  9281 net.cpp:425] fc7 <- fc6
I0403 12:41:25.837219  9281 net.cpp:399] fc7 -> fc7
I0403 12:41:26.522732  9281 net.cpp:141] Setting up fc7
I0403 12:41:26.522797  9281 net.cpp:148] Top shape: 100 4096 (409600)
I0403 12:41:26.522814  9281 net.cpp:156] Memory required for data: 828249200
I0403 12:41:26.522833  9281 layer_factory.hpp:77] Creating layer relu7
I0403 12:41:26.522855  9281 net.cpp:91] Creating Layer relu7
I0403 12:41:26.522872  9281 net.cpp:425] relu7 <- fc7
I0403 12:41:26.522893  9281 net.cpp:386] relu7 -> fc7 (in-place)
I0403 12:41:26.523288  9281 net.cpp:141] Setting up relu7
I0403 12:41:26.523314  9281 net.cpp:148] Top shape: 100 4096 (409600)
I0403 12:41:26.523386  9281 net.cpp:156] Memory required for data: 829887600
I0403 12:41:26.523403  9281 layer_factory.hpp:77] Creating layer drop7
I0403 12:41:26.523422  9281 net.cpp:91] Creating Layer drop7
I0403 12:41:26.523437  9281 net.cpp:425] drop7 <- fc7
I0403 12:41:26.523457  9281 net.cpp:386] drop7 -> fc7 (in-place)
I0403 12:41:26.523500  9281 net.cpp:141] Setting up drop7
I0403 12:41:26.523526  9281 net.cpp:148] Top shape: 100 4096 (409600)
I0403 12:41:26.523547  9281 net.cpp:156] Memory required for data: 831526000
I0403 12:41:26.523562  9281 layer_factory.hpp:77] Creating layer fc8_plantvillage
I0403 12:41:26.523592  9281 net.cpp:91] Creating Layer fc8_plantvillage
I0403 12:41:26.523608  9281 net.cpp:425] fc8_plantvillage <- fc7
I0403 12:41:26.523628  9281 net.cpp:399] fc8_plantvillage -> fc8_plantvillage
I0403 12:41:26.530571  9281 net.cpp:141] Setting up fc8_plantvillage
I0403 12:41:26.530599  9281 net.cpp:148] Top shape: 100 38 (3800)
I0403 12:41:26.530614  9281 net.cpp:156] Memory required for data: 831541200
I0403 12:41:26.530632  9281 layer_factory.hpp:77] Creating layer fc8_plantvillage_fc8_plantvillage_0_split
I0403 12:41:26.530650  9281 net.cpp:91] Creating Layer fc8_plantvillage_fc8_plantvillage_0_split
I0403 12:41:26.530669  9281 net.cpp:425] fc8_plantvillage_fc8_plantvillage_0_split <- fc8_plantvillage
I0403 12:41:26.530686  9281 net.cpp:399] fc8_plantvillage_fc8_plantvillage_0_split -> fc8_plantvillage_fc8_plantvillage_0_split_0
I0403 12:41:26.530706  9281 net.cpp:399] fc8_plantvillage_fc8_plantvillage_0_split -> fc8_plantvillage_fc8_plantvillage_0_split_1
I0403 12:41:26.530725  9281 net.cpp:399] fc8_plantvillage_fc8_plantvillage_0_split -> fc8_plantvillage_fc8_plantvillage_0_split_2
I0403 12:41:26.530802  9281 net.cpp:141] Setting up fc8_plantvillage_fc8_plantvillage_0_split
I0403 12:41:26.530827  9281 net.cpp:148] Top shape: 100 38 (3800)
I0403 12:41:26.530843  9281 net.cpp:148] Top shape: 100 38 (3800)
I0403 12:41:26.530858  9281 net.cpp:148] Top shape: 100 38 (3800)
I0403 12:41:26.530871  9281 net.cpp:156] Memory required for data: 831586800
I0403 12:41:26.530885  9281 layer_factory.hpp:77] Creating layer prob
I0403 12:41:26.530905  9281 net.cpp:91] Creating Layer prob
I0403 12:41:26.530918  9281 net.cpp:425] prob <- fc8_plantvillage_fc8_plantvillage_0_split_0
I0403 12:41:26.530936  9281 net.cpp:399] prob -> prob
I0403 12:41:26.531158  9281 net.cpp:141] Setting up prob
I0403 12:41:26.531183  9281 net.cpp:148] Top shape: 100 38 (3800)
I0403 12:41:26.531198  9281 net.cpp:156] Memory required for data: 831602000
I0403 12:41:26.531211  9281 layer_factory.hpp:77] Creating layer hdf5out
I0403 12:41:26.531230  9281 net.cpp:91] Creating Layer hdf5out
I0403 12:41:26.531246  9281 net.cpp:425] hdf5out <- prob
I0403 12:41:26.531262  9281 net.cpp:425] hdf5out <- label_data_1_split_0
I0403 12:41:26.533468  9281 net.cpp:141] Setting up hdf5out
…
