…
I0403 12:28:21.608893  8949 net.cpp:313] The NetState phase (1) differed from the phase (0) specified by a rule in layer data
I0403 12:28:21.609189  8949 net.cpp:49] Initializing net from parameters: 
state {
  phase: TEST
}
layer {
  name: "data"
  type: "Data"
  top: "data"
  top: "label"
  include {
    phase: TEST
  }
  transform_param {
    crop_size: 227
    mean_file: "/home/mohanty/data/final_dataset/lmdb/grayscale-20-80/mean.binaryproto"
  }
  data_param {
    source: "/home/mohanty/data/final_dataset/lmdb/grayscale-20-80/test_db"
    batch_size: 100
    backend: LMDB
  }
}
layer {
  name: "conv1"
  type: "Convolution"
  bottom: "data"
  top: "conv1"
  param {
    lr_mult: 1
    decay_mult: 1
  }
  param {
    lr_mult: 2
    decay_mult: 0
  }
  convolution_param {
    num_output: 96
    kernel_size: 11
    stride: 4
    weight_filler {
      type: "gaussian"
      std: 0.01
    }
    bias_filler {
      type: "constant"
      value: 0
    }
  }
}
layer {
  name: "relu1"
  type: "ReLU"
  bottom: "conv1"
  top: "conv1"
}
layer {
  name: "norm1"
  type: "LRN"
  bottom: "conv1"
  top: "norm1"
  lrn_param {
    local_size: 5
    alpha: 0.0001
    beta: 0.75
  }
}
layer {
  name: "pool1"
  type: "Pooling"
  bottom: "norm1"
  top: "pool1"
  pooling_param {
    pool: MAX
    kernel_size: 3
    stride: 2
  }
}
layer {
  name: "conv2"
  type: "Convolution"
  bottom: "pool1"
  top: "conv2"
  param {
    lr_mult: 1
    decay_mult: 1
  }
  param {
    lr_mult: 2
    decay_mult: 0
  }
  convolution_param {
    num_output: 256
    pad: 2
    kernel_size: 5
    group: 2
    weight_filler {
      type: "gaussian"
      std: 0.01
    }
    bias_filler {
      type: "constant"
      value: 0.1
    }
  }
}
layer {
  name: "relu2"
  type: "ReLU"
  bottom: "conv2"
  top: "conv2"
}
layer {
  name: "norm2"
  type: "LRN"
  bottom: "conv2"
  top: "norm2"
  lrn_param {
    local_size: 5
    alpha: 0.0001
    beta: 0.75
  }
}
layer {
  name: "pool2"
  type: "Pooling"
  bottom: "norm2"
  top: "pool2"
  pooling_param {
    pool: MAX
    kernel_size: 3
    stride: 2
  }
}
layer {
  name: "conv3"
  type: "Convolution"
  bottom: "pool2"
  top: "conv3"
  param {
    lr_mult: 1
    decay_mult: 1
  }
  param {
    lr_mult: 2
    decay_mult: 0
  }
  convolution_param {
    num_output: 384
    pad: 1
    kernel_size: 3
    weight_filler {
      type: "gaussian"
      std: 0.01
    }
    bias_filler {
      type: "constant"
      value: 0
    }
  }
}
layer {
  name: "relu3"
  type: "ReLU"
  bottom: "conv3"
  top: "conv3"
}
layer {
  name: "conv4"
  type: "Convolution"
  bottom: "conv3"
  top: "conv4"
  param {
    lr_mult: 1
    decay_mult: 1
  }
  param {
    lr_mult: 2
    decay_mult: 0
  }
  convolution_param {
    num_output: 384
    pad: 1
    kernel_size: 3
    group: 2
    weight_filler {
      type: "gaussian"
      std: 0.01
    }
    bias_filler {
      type: "constant"
      value: 0.1
    }
  }
}
layer {
  name: "relu4"
  type: "ReLU"
  bottom: "conv4"
  top: "conv4"
}
layer {
  name: "conv5"
  type: "Convolution"
  bottom: "conv4"
  top: "conv5"
  param {
    lr_mult: 1
    decay_mult: 1
  }
  param {
    lr_mult: 2
    decay_mult: 0
  }
  convolution_param {
    num_output: 256
    pad: 1
    kernel_size: 3
    group: 2
    weight_filler {
      type: "gaussian"
      std: 0.01
    }
    bias_filler {
      type: "constant"
      value: 0.1
    }
  }
}
layer {
  name: "relu5"
  type: "ReLU"
  bottom: "conv5"
  top: "conv5"
}
layer {
  name: "pool5"
  type: "Pooling"
  bottom: "conv5"
  top: "pool5"
  pooling_param {
    pool: MAX
    kernel_size: 3
    stride: 2
  }
}
layer {
  name: "fc6"
  type: "InnerProduct"
  bottom: "pool5"
  top: "fc6"
  param {
    lr_mult: 1
    decay_mult: 1
  }
  param {
    lr_mult: 2
    decay_mult: 0
  }
  inner_product_param {
    num_output: 4096
    weight_filler {
      type: "gaussian"
      std: 0.005
    }
    bias_filler {
      type: "constant"
      value: 0.1
    }
  }
}
layer {
  name: "relu6"
  type: "ReLU"
  bottom: "fc6"
  top: "fc6"
}
layer {
  name: "drop6"
  type: "Dropout"
  bottom: "fc6"
  top: "fc6"
  dropout_param {
    dropout_ratio: 0.5
  }
}
layer {
  name: "fc7"
  type: "InnerProduct"
  bottom: "fc6"
  top: "fc7"
  param {
    lr_mult: 1
    decay_mult: 1
  }
  param {
    lr_mult: 2
    decay_mult: 0
  }
  inner_product_param {
    num_output: 4096
    weight_filler {
      type: "gaussian"
      std: 0.005
    }
    bias_filler {
      type: "constant"
      value: 0.1
    }
  }
}
layer {
  name: "relu7"
  type: "ReLU"
  bottom: "fc7"
  top: "fc7"
}
layer {
  name: "drop7"
  type: "Dropout"
  bottom: "fc7"
  top: "fc7"
  dropout_param {
    dropout_ratio: 0.5
  }
}
layer {
  name: "fc8_plantvillage"
  type: "InnerProduct"
  bottom: "fc7"
  top: "fc8_plantvillage"
  param {
    lr_mult: 1
    decay_mult: 1
  }
  param {
    lr_mult: 2
    decay_mult: 0
  }
  inner_product_param {
    num_output: 38
    weight_filler {
      type: "gaussian"
      std: 0.01
    }
    bias_filler {
      type: "constant"
      value: 0
    }
  }
}
layer {
  name: "prob"
  type: "Softmax"
  bottom: "fc8_plantvillage"
  top: "prob"
  include {
    phase: TEST
  }
}
layer {
  name: "hdf5out"
  type: "HDF5Output"
  bottom: "prob"
  bottom: "label"
  include {
    phase: TEST
  }
  hdf5_output_param {
    file_name: "hdf5_dumps/iter_1995.h5"
  }
}
layer {
  name: "loss"
  type: "SoftmaxWithLoss"
  bottom: "fc8_plantvillage"
  bottom: "label"
  top: "loss"
}
layer {
  name: "accuracy"
  type: "Accuracy"
  bottom: "fc8_plantvillage"
  bottom: "label"
  top: "accuracy"
  include {
    phase: TEST
  }
}
I0403 12:28:21.609792  8949 layer_factory.hpp:77] Creating layer data
I0403 12:28:21.610443  8949 net.cpp:91] Creating Layer data
I0403 12:28:21.610476  8949 net.cpp:399] data -> data
I0403 12:28:21.610530  8949 net.cpp:399] data -> label
I0403 12:28:21.610569  8949 data_transformer.cpp:25] Loading mean file from: /home/mohanty/data/final_dataset/lmdb/grayscale-20-80/mean.binaryproto
I0403 12:28:21.613217  8952 db_lmdb.cpp:38] Opened lmdb /home/mohanty/data/final_dataset/lmdb/grayscale-20-80/test_db
I0403 12:28:21.624321  8949 data_layer.cpp:41] output data size: 100,3,227,227
I0403 12:28:21.742328  8949 net.cpp:141] Setting up data
I0403 12:28:21.742403  8949 net.cpp:148] Top shape: 100 3 227 227 (15458700)
I0403 12:28:21.742426  8949 net.cpp:148] Top shape: 100 (100)
I0403 12:28:21.742442  8949 net.cpp:156] Memory required for data: 61835200
I0403 12:28:21.742470  8949 layer_factory.hpp:77] Creating layer label_data_1_split
I0403 12:28:21.742496  8949 net.cpp:91] Creating Layer label_data_1_split
I0403 12:28:21.742519  8949 net.cpp:425] label_data_1_split <- label
I0403 12:28:21.742552  8949 net.cpp:399] label_data_1_split -> label_data_1_split_0
I0403 12:28:21.742590  8949 net.cpp:399] label_data_1_split -> label_data_1_split_1
I0403 12:28:21.742610  8949 net.cpp:399] label_data_1_split -> label_data_1_split_2
I0403 12:28:21.742687  8949 net.cpp:141] Setting up label_data_1_split
I0403 12:28:21.742709  8949 net.cpp:148] Top shape: 100 (100)
I0403 12:28:21.742727  8949 net.cpp:148] Top shape: 100 (100)
I0403 12:28:21.742741  8949 net.cpp:148] Top shape: 100 (100)
I0403 12:28:21.742755  8949 net.cpp:156] Memory required for data: 61836400
I0403 12:28:21.742770  8949 layer_factory.hpp:77] Creating layer conv1
I0403 12:28:21.742800  8949 net.cpp:91] Creating Layer conv1
I0403 12:28:21.742818  8949 net.cpp:425] conv1 <- data
I0403 12:28:21.742837  8949 net.cpp:399] conv1 -> conv1
I0403 12:28:21.882398  8949 net.cpp:141] Setting up conv1
I0403 12:28:21.882441  8949 net.cpp:148] Top shape: 100 96 55 55 (29040000)
I0403 12:28:21.882459  8949 net.cpp:156] Memory required for data: 177996400
I0403 12:28:21.882490  8949 layer_factory.hpp:77] Creating layer relu1
I0403 12:28:21.882522  8949 net.cpp:91] Creating Layer relu1
I0403 12:28:21.882542  8949 net.cpp:425] relu1 <- conv1
I0403 12:28:21.882562  8949 net.cpp:386] relu1 -> conv1 (in-place)
I0403 12:28:21.882836  8949 net.cpp:141] Setting up relu1
I0403 12:28:21.882863  8949 net.cpp:148] Top shape: 100 96 55 55 (29040000)
I0403 12:28:21.882915  8949 net.cpp:156] Memory required for data: 294156400
I0403 12:28:21.882930  8949 layer_factory.hpp:77] Creating layer norm1
I0403 12:28:21.882957  8949 net.cpp:91] Creating Layer norm1
I0403 12:28:21.882977  8949 net.cpp:425] norm1 <- conv1
I0403 12:28:21.882997  8949 net.cpp:399] norm1 -> norm1
I0403 12:28:21.883333  8949 net.cpp:141] Setting up norm1
I0403 12:28:21.883363  8949 net.cpp:148] Top shape: 100 96 55 55 (29040000)
I0403 12:28:21.883404  8949 net.cpp:156] Memory required for data: 410316400
I0403 12:28:21.883438  8949 layer_factory.hpp:77] Creating layer pool1
I0403 12:28:21.883462  8949 net.cpp:91] Creating Layer pool1
I0403 12:28:21.883481  8949 net.cpp:425] pool1 <- norm1
I0403 12:28:21.883502  8949 net.cpp:399] pool1 -> pool1
I0403 12:28:21.883586  8949 net.cpp:141] Setting up pool1
I0403 12:28:21.883611  8949 net.cpp:148] Top shape: 100 96 27 27 (6998400)
I0403 12:28:21.883627  8949 net.cpp:156] Memory required for data: 438310000
I0403 12:28:21.883643  8949 layer_factory.hpp:77] Creating layer conv2
I0403 12:28:21.883672  8949 net.cpp:91] Creating Layer conv2
I0403 12:28:21.883690  8949 net.cpp:425] conv2 <- pool1
I0403 12:28:21.883709  8949 net.cpp:399] conv2 -> conv2
I0403 12:28:21.899402  8949 net.cpp:141] Setting up conv2
I0403 12:28:21.899454  8949 net.cpp:148] Top shape: 100 256 27 27 (18662400)
I0403 12:28:21.899472  8949 net.cpp:156] Memory required for data: 512959600
I0403 12:28:21.899497  8949 layer_factory.hpp:77] Creating layer relu2
I0403 12:28:21.899523  8949 net.cpp:91] Creating Layer relu2
I0403 12:28:21.899540  8949 net.cpp:425] relu2 <- conv2
I0403 12:28:21.899572  8949 net.cpp:386] relu2 -> conv2 (in-place)
I0403 12:28:21.899866  8949 net.cpp:141] Setting up relu2
I0403 12:28:21.899895  8949 net.cpp:148] Top shape: 100 256 27 27 (18662400)
I0403 12:28:21.899911  8949 net.cpp:156] Memory required for data: 587609200
I0403 12:28:21.899926  8949 layer_factory.hpp:77] Creating layer norm2
I0403 12:28:21.899950  8949 net.cpp:91] Creating Layer norm2
I0403 12:28:21.899968  8949 net.cpp:425] norm2 <- conv2
I0403 12:28:21.899987  8949 net.cpp:399] norm2 -> norm2
I0403 12:28:21.900200  8949 net.cpp:141] Setting up norm2
I0403 12:28:21.900228  8949 net.cpp:148] Top shape: 100 256 27 27 (18662400)
I0403 12:28:21.900243  8949 net.cpp:156] Memory required for data: 662258800
I0403 12:28:21.900257  8949 layer_factory.hpp:77] Creating layer pool2
I0403 12:28:21.900276  8949 net.cpp:91] Creating Layer pool2
I0403 12:28:21.900292  8949 net.cpp:425] pool2 <- norm2
I0403 12:28:21.900313  8949 net.cpp:399] pool2 -> pool2
I0403 12:28:21.900368  8949 net.cpp:141] Setting up pool2
I0403 12:28:21.900395  8949 net.cpp:148] Top shape: 100 256 13 13 (4326400)
I0403 12:28:21.900411  8949 net.cpp:156] Memory required for data: 679564400
I0403 12:28:21.900427  8949 layer_factory.hpp:77] Creating layer conv3
I0403 12:28:21.900451  8949 net.cpp:91] Creating Layer conv3
I0403 12:28:21.900468  8949 net.cpp:425] conv3 <- pool2
I0403 12:28:21.900488  8949 net.cpp:399] conv3 -> conv3
I0403 12:28:21.940153  8949 net.cpp:141] Setting up conv3
I0403 12:28:21.940256  8949 net.cpp:148] Top shape: 100 384 13 13 (6489600)
I0403 12:28:21.940275  8949 net.cpp:156] Memory required for data: 705522800
I0403 12:28:21.940301  8949 layer_factory.hpp:77] Creating layer relu3
I0403 12:28:21.940325  8949 net.cpp:91] Creating Layer relu3
I0403 12:28:21.940342  8949 net.cpp:425] relu3 <- conv3
I0403 12:28:21.940366  8949 net.cpp:386] relu3 -> conv3 (in-place)
I0403 12:28:21.940673  8949 net.cpp:141] Setting up relu3
I0403 12:28:21.940702  8949 net.cpp:148] Top shape: 100 384 13 13 (6489600)
I0403 12:28:21.940721  8949 net.cpp:156] Memory required for data: 731481200
I0403 12:28:21.940737  8949 layer_factory.hpp:77] Creating layer conv4
I0403 12:28:21.940762  8949 net.cpp:91] Creating Layer conv4
I0403 12:28:21.940781  8949 net.cpp:425] conv4 <- conv3
I0403 12:28:21.940804  8949 net.cpp:399] conv4 -> conv4
I0403 12:28:21.971891  8949 net.cpp:141] Setting up conv4
I0403 12:28:21.971967  8949 net.cpp:148] Top shape: 100 384 13 13 (6489600)
I0403 12:28:21.972019  8949 net.cpp:156] Memory required for data: 757439600
I0403 12:28:21.972043  8949 layer_factory.hpp:77] Creating layer relu4
I0403 12:28:21.972066  8949 net.cpp:91] Creating Layer relu4
I0403 12:28:21.972084  8949 net.cpp:425] relu4 <- conv4
I0403 12:28:21.972107  8949 net.cpp:386] relu4 -> conv4 (in-place)
I0403 12:28:21.972398  8949 net.cpp:141] Setting up relu4
I0403 12:28:21.972429  8949 net.cpp:148] Top shape: 100 384 13 13 (6489600)
I0403 12:28:21.972446  8949 net.cpp:156] Memory required for data: 783398000
I0403 12:28:21.972462  8949 layer_factory.hpp:77] Creating layer conv5
I0403 12:28:21.972489  8949 net.cpp:91] Creating Layer conv5
I0403 12:28:21.972512  8949 net.cpp:425] conv5 <- conv4
I0403 12:28:21.972537  8949 net.cpp:399] conv5 -> conv5
I0403 12:28:21.993763  8949 net.cpp:141] Setting up conv5
I0403 12:28:21.993823  8949 net.cpp:148] Top shape: 100 256 13 13 (4326400)
I0403 12:28:21.993839  8949 net.cpp:156] Memory required for data: 800703600
I0403 12:28:21.993865  8949 layer_factory.hpp:77] Creating layer relu5
I0403 12:28:21.993888  8949 net.cpp:91] Creating Layer relu5
I0403 12:28:21.993906  8949 net.cpp:425] relu5 <- conv5
I0403 12:28:21.993927  8949 net.cpp:386] relu5 -> conv5 (in-place)
I0403 12:28:21.994220  8949 net.cpp:141] Setting up relu5
I0403 12:28:21.994248  8949 net.cpp:148] Top shape: 100 256 13 13 (4326400)
I0403 12:28:21.994267  8949 net.cpp:156] Memory required for data: 818009200
I0403 12:28:21.994282  8949 layer_factory.hpp:77] Creating layer pool5
I0403 12:28:21.994307  8949 net.cpp:91] Creating Layer pool5
I0403 12:28:21.994326  8949 net.cpp:425] pool5 <- conv5
I0403 12:28:21.994345  8949 net.cpp:399] pool5 -> pool5
I0403 12:28:21.994411  8949 net.cpp:141] Setting up pool5
I0403 12:28:21.994436  8949 net.cpp:148] Top shape: 100 256 6 6 (921600)
I0403 12:28:21.994452  8949 net.cpp:156] Memory required for data: 821695600
I0403 12:28:21.994467  8949 layer_factory.hpp:77] Creating layer fc6
I0403 12:28:21.994494  8949 net.cpp:91] Creating Layer fc6
I0403 12:28:21.994524  8949 net.cpp:425] fc6 <- pool5
I0403 12:28:21.994549  8949 net.cpp:399] fc6 -> fc6
I0403 12:28:23.547785  8949 net.cpp:141] Setting up fc6
I0403 12:28:23.547863  8949 net.cpp:148] Top shape: 100 4096 (409600)
I0403 12:28:23.547878  8949 net.cpp:156] Memory required for data: 823334000
I0403 12:28:23.547899  8949 layer_factory.hpp:77] Creating layer relu6
I0403 12:28:23.547922  8949 net.cpp:91] Creating Layer relu6
I0403 12:28:23.547940  8949 net.cpp:425] relu6 <- fc6
I0403 12:28:23.547958  8949 net.cpp:386] relu6 -> fc6 (in-place)
I0403 12:28:23.548176  8949 net.cpp:141] Setting up relu6
I0403 12:28:23.548202  8949 net.cpp:148] Top shape: 100 4096 (409600)
I0403 12:28:23.548216  8949 net.cpp:156] Memory required for data: 824972400
I0403 12:28:23.548230  8949 layer_factory.hpp:77] Creating layer drop6
I0403 12:28:23.548250  8949 net.cpp:91] Creating Layer drop6
I0403 12:28:23.548265  8949 net.cpp:425] drop6 <- fc6
I0403 12:28:23.548285  8949 net.cpp:386] drop6 -> fc6 (in-place)
I0403 12:28:23.548336  8949 net.cpp:141] Setting up drop6
I0403 12:28:23.548367  8949 net.cpp:148] Top shape: 100 4096 (409600)
I0403 12:28:23.548383  8949 net.cpp:156] Memory required for data: 826610800
I0403 12:28:23.548398  8949 layer_factory.hpp:77] Creating layer fc7
I0403 12:28:23.548418  8949 net.cpp:91] Creating Layer fc7
I0403 12:28:23.548432  8949 net.cpp:425] fc7 <- fc6
I0403 12:28:23.548452  8949 net.cpp:399] fc7 -> fc7
I0403 12:28:24.233062  8949 net.cpp:141] Setting up fc7
I0403 12:28:24.233144  8949 net.cpp:148] Top shape: 100 4096 (409600)
I0403 12:28:24.233160  8949 net.cpp:156] Memory required for data: 828249200
I0403 12:28:24.233181  8949 layer_factory.hpp:77] Creating layer relu7
I0403 12:28:24.233204  8949 net.cpp:91] Creating Layer relu7
I0403 12:28:24.233222  8949 net.cpp:425] relu7 <- fc7
I0403 12:28:24.233243  8949 net.cpp:386] relu7 -> fc7 (in-place)
I0403 12:28:24.233670  8949 net.cpp:141] Setting up relu7
I0403 12:28:24.233697  8949 net.cpp:148] Top shape: 100 4096 (409600)
I0403 12:28:24.233754  8949 net.cpp:156] Memory required for data: 829887600
I0403 12:28:24.233769  8949 layer_factory.hpp:77] Creating layer drop7
I0403 12:28:24.233788  8949 net.cpp:91] Creating Layer drop7
I0403 12:28:24.233803  8949 net.cpp:425] drop7 <- fc7
I0403 12:28:24.233822  8949 net.cpp:386] drop7 -> fc7 (in-place)
I0403 12:28:24.233875  8949 net.cpp:141] Setting up drop7
I0403 12:28:24.233901  8949 net.cpp:148] Top shape: 100 4096 (409600)
I0403 12:28:24.233916  8949 net.cpp:156] Memory required for data: 831526000
I0403 12:28:24.233929  8949 layer_factory.hpp:77] Creating layer fc8_plantvillage
I0403 12:28:24.233949  8949 net.cpp:91] Creating Layer fc8_plantvillage
I0403 12:28:24.233964  8949 net.cpp:425] fc8_plantvillage <- fc7
I0403 12:28:24.233984  8949 net.cpp:399] fc8_plantvillage -> fc8_plantvillage
I0403 12:28:24.240702  8949 net.cpp:141] Setting up fc8_plantvillage
I0403 12:28:24.240731  8949 net.cpp:148] Top shape: 100 38 (3800)
I0403 12:28:24.240749  8949 net.cpp:156] Memory required for data: 831541200
I0403 12:28:24.240769  8949 layer_factory.hpp:77] Creating layer fc8_plantvillage_fc8_plantvillage_0_split
I0403 12:28:24.240787  8949 net.cpp:91] Creating Layer fc8_plantvillage_fc8_plantvillage_0_split
I0403 12:28:24.240803  8949 net.cpp:425] fc8_plantvillage_fc8_plantvillage_0_split <- fc8_plantvillage
I0403 12:28:24.240823  8949 net.cpp:399] fc8_plantvillage_fc8_plantvillage_0_split -> fc8_plantvillage_fc8_plantvillage_0_split_0
I0403 12:28:24.240842  8949 net.cpp:399] fc8_plantvillage_fc8_plantvillage_0_split -> fc8_plantvillage_fc8_plantvillage_0_split_1
I0403 12:28:24.240864  8949 net.cpp:399] fc8_plantvillage_fc8_plantvillage_0_split -> fc8_plantvillage_fc8_plantvillage_0_split_2
I0403 12:28:24.240947  8949 net.cpp:141] Setting up fc8_plantvillage_fc8_plantvillage_0_split
I0403 12:28:24.240975  8949 net.cpp:148] Top shape: 100 38 (3800)
I0403 12:28:24.240993  8949 net.cpp:148] Top shape: 100 38 (3800)
I0403 12:28:24.241008  8949 net.cpp:148] Top shape: 100 38 (3800)
I0403 12:28:24.241021  8949 net.cpp:156] Memory required for data: 831586800
I0403 12:28:24.241036  8949 layer_factory.hpp:77] Creating layer prob
I0403 12:28:24.241055  8949 net.cpp:91] Creating Layer prob
I0403 12:28:24.241070  8949 net.cpp:425] prob <- fc8_plantvillage_fc8_plantvillage_0_split_0
I0403 12:28:24.241087  8949 net.cpp:399] prob -> prob
I0403 12:28:24.241312  8949 net.cpp:141] Setting up prob
I0403 12:28:24.241338  8949 net.cpp:148] Top shape: 100 38 (3800)
I0403 12:28:24.241353  8949 net.cpp:156] Memory required for data: 831602000
I0403 12:28:24.241367  8949 layer_factory.hpp:77] Creating layer hdf5out
I0403 12:28:24.241386  8949 net.cpp:91] Creating Layer hdf5out
I0403 12:28:24.241401  8949 net.cpp:425] hdf5out <- prob
I0403 12:28:24.241416  8949 net.cpp:425] hdf5out <- label_data_1_split_0
I0403 12:28:24.243917  8949 net.cpp:141] Setting up hdf5out
…
