…
I0403 12:12:23.849710  8576 net.cpp:313] The NetState phase (1) differed from the phase (0) specified by a rule in layer data
I0403 12:12:23.850013  8576 net.cpp:49] Initializing net from parameters: 
state {
  phase: TEST
}
layer {
  name: "data"
  type: "Data"
  top: "data"
  top: "label"
  include {
    phase: TEST
  }
  transform_param {
    crop_size: 227
    mean_file: "/home/mohanty/data/final_dataset/lmdb/grayscale-20-80/mean.binaryproto"
  }
  data_param {
    source: "/home/mohanty/data/final_dataset/lmdb/grayscale-20-80/test_db"
    batch_size: 100
    backend: LMDB
  }
}
layer {
  name: "conv1"
  type: "Convolution"
  bottom: "data"
  top: "conv1"
  param {
    lr_mult: 1
    decay_mult: 1
  }
  param {
    lr_mult: 2
    decay_mult: 0
  }
  convolution_param {
    num_output: 96
    kernel_size: 11
    stride: 4
    weight_filler {
      type: "gaussian"
      std: 0.01
    }
    bias_filler {
      type: "constant"
      value: 0
    }
  }
}
layer {
  name: "relu1"
  type: "ReLU"
  bottom: "conv1"
  top: "conv1"
}
layer {
  name: "norm1"
  type: "LRN"
  bottom: "conv1"
  top: "norm1"
  lrn_param {
    local_size: 5
    alpha: 0.0001
    beta: 0.75
  }
}
layer {
  name: "pool1"
  type: "Pooling"
  bottom: "norm1"
  top: "pool1"
  pooling_param {
    pool: MAX
    kernel_size: 3
    stride: 2
  }
}
layer {
  name: "conv2"
  type: "Convolution"
  bottom: "pool1"
  top: "conv2"
  param {
    lr_mult: 1
    decay_mult: 1
  }
  param {
    lr_mult: 2
    decay_mult: 0
  }
  convolution_param {
    num_output: 256
    pad: 2
    kernel_size: 5
    group: 2
    weight_filler {
      type: "gaussian"
      std: 0.01
    }
    bias_filler {
      type: "constant"
      value: 0.1
    }
  }
}
layer {
  name: "relu2"
  type: "ReLU"
  bottom: "conv2"
  top: "conv2"
}
layer {
  name: "norm2"
  type: "LRN"
  bottom: "conv2"
  top: "norm2"
  lrn_param {
    local_size: 5
    alpha: 0.0001
    beta: 0.75
  }
}
layer {
  name: "pool2"
  type: "Pooling"
  bottom: "norm2"
  top: "pool2"
  pooling_param {
    pool: MAX
    kernel_size: 3
    stride: 2
  }
}
layer {
  name: "conv3"
  type: "Convolution"
  bottom: "pool2"
  top: "conv3"
  param {
    lr_mult: 1
    decay_mult: 1
  }
  param {
    lr_mult: 2
    decay_mult: 0
  }
  convolution_param {
    num_output: 384
    pad: 1
    kernel_size: 3
    weight_filler {
      type: "gaussian"
      std: 0.01
    }
    bias_filler {
      type: "constant"
      value: 0
    }
  }
}
layer {
  name: "relu3"
  type: "ReLU"
  bottom: "conv3"
  top: "conv3"
}
layer {
  name: "conv4"
  type: "Convolution"
  bottom: "conv3"
  top: "conv4"
  param {
    lr_mult: 1
    decay_mult: 1
  }
  param {
    lr_mult: 2
    decay_mult: 0
  }
  convolution_param {
    num_output: 384
    pad: 1
    kernel_size: 3
    group: 2
    weight_filler {
      type: "gaussian"
      std: 0.01
    }
    bias_filler {
      type: "constant"
      value: 0.1
    }
  }
}
layer {
  name: "relu4"
  type: "ReLU"
  bottom: "conv4"
  top: "conv4"
}
layer {
  name: "conv5"
  type: "Convolution"
  bottom: "conv4"
  top: "conv5"
  param {
    lr_mult: 1
    decay_mult: 1
  }
  param {
    lr_mult: 2
    decay_mult: 0
  }
  convolution_param {
    num_output: 256
    pad: 1
    kernel_size: 3
    group: 2
    weight_filler {
      type: "gaussian"
      std: 0.01
    }
    bias_filler {
      type: "constant"
      value: 0.1
    }
  }
}
layer {
  name: "relu5"
  type: "ReLU"
  bottom: "conv5"
  top: "conv5"
}
layer {
  name: "pool5"
  type: "Pooling"
  bottom: "conv5"
  top: "pool5"
  pooling_param {
    pool: MAX
    kernel_size: 3
    stride: 2
  }
}
layer {
  name: "fc6"
  type: "InnerProduct"
  bottom: "pool5"
  top: "fc6"
  param {
    lr_mult: 1
    decay_mult: 1
  }
  param {
    lr_mult: 2
    decay_mult: 0
  }
  inner_product_param {
    num_output: 4096
    weight_filler {
      type: "gaussian"
      std: 0.005
    }
    bias_filler {
      type: "constant"
      value: 0.1
    }
  }
}
layer {
  name: "relu6"
  type: "ReLU"
  bottom: "fc6"
  top: "fc6"
}
layer {
  name: "drop6"
  type: "Dropout"
  bottom: "fc6"
  top: "fc6"
  dropout_param {
    dropout_ratio: 0.5
  }
}
layer {
  name: "fc7"
  type: "InnerProduct"
  bottom: "fc6"
  top: "fc7"
  param {
    lr_mult: 1
    decay_mult: 1
  }
  param {
    lr_mult: 2
    decay_mult: 0
  }
  inner_product_param {
    num_output: 4096
    weight_filler {
      type: "gaussian"
      std: 0.005
    }
    bias_filler {
      type: "constant"
      value: 0.1
    }
  }
}
layer {
  name: "relu7"
  type: "ReLU"
  bottom: "fc7"
  top: "fc7"
}
layer {
  name: "drop7"
  type: "Dropout"
  bottom: "fc7"
  top: "fc7"
  dropout_param {
    dropout_ratio: 0.5
  }
}
layer {
  name: "fc8_plantvillage"
  type: "InnerProduct"
  bottom: "fc7"
  top: "fc8_plantvillage"
  param {
    lr_mult: 1
    decay_mult: 1
  }
  param {
    lr_mult: 2
    decay_mult: 0
  }
  inner_product_param {
    num_output: 38
    weight_filler {
      type: "gaussian"
      std: 0.01
    }
    bias_filler {
      type: "constant"
      value: 0
    }
  }
}
layer {
  name: "prob"
  type: "Softmax"
  bottom: "fc8_plantvillage"
  top: "prob"
  include {
    phase: TEST
  }
}
layer {
  name: "hdf5out"
  type: "HDF5Output"
  bottom: "prob"
  bottom: "label"
  include {
    phase: TEST
  }
  hdf5_output_param {
    file_name: "hdf5_dumps/iter_840.h5"
  }
}
layer {
  name: "loss"
  type: "SoftmaxWithLoss"
  bottom: "fc8_plantvillage"
  bottom: "label"
  top: "loss"
}
layer {
  name: "accuracy"
  type: "Accuracy"
  bottom: "fc8_plantvillage"
  bottom: "label"
  top: "accuracy"
  include {
    phase: TEST
  }
}
I0403 12:12:23.850585  8576 layer_factory.hpp:77] Creating layer data
I0403 12:12:23.851212  8576 net.cpp:91] Creating Layer data
I0403 12:12:23.851244  8576 net.cpp:399] data -> data
I0403 12:12:23.851297  8576 net.cpp:399] data -> label
I0403 12:12:23.851333  8576 data_transformer.cpp:25] Loading mean file from: /home/mohanty/data/final_dataset/lmdb/grayscale-20-80/mean.binaryproto
I0403 12:12:23.854207  8580 db_lmdb.cpp:38] Opened lmdb /home/mohanty/data/final_dataset/lmdb/grayscale-20-80/test_db
I0403 12:12:23.865478  8576 data_layer.cpp:41] output data size: 100,3,227,227
I0403 12:12:23.985546  8576 net.cpp:141] Setting up data
I0403 12:12:23.985643  8576 net.cpp:148] Top shape: 100 3 227 227 (15458700)
I0403 12:12:23.985666  8576 net.cpp:148] Top shape: 100 (100)
I0403 12:12:23.985679  8576 net.cpp:156] Memory required for data: 61835200
I0403 12:12:23.985707  8576 layer_factory.hpp:77] Creating layer label_data_1_split
I0403 12:12:23.985733  8576 net.cpp:91] Creating Layer label_data_1_split
I0403 12:12:23.985750  8576 net.cpp:425] label_data_1_split <- label
I0403 12:12:23.985782  8576 net.cpp:399] label_data_1_split -> label_data_1_split_0
I0403 12:12:23.985810  8576 net.cpp:399] label_data_1_split -> label_data_1_split_1
I0403 12:12:23.985829  8576 net.cpp:399] label_data_1_split -> label_data_1_split_2
I0403 12:12:23.985894  8576 net.cpp:141] Setting up label_data_1_split
I0403 12:12:23.985918  8576 net.cpp:148] Top shape: 100 (100)
I0403 12:12:23.985934  8576 net.cpp:148] Top shape: 100 (100)
I0403 12:12:23.985949  8576 net.cpp:148] Top shape: 100 (100)
I0403 12:12:23.985962  8576 net.cpp:156] Memory required for data: 61836400
I0403 12:12:23.985976  8576 layer_factory.hpp:77] Creating layer conv1
I0403 12:12:23.986007  8576 net.cpp:91] Creating Layer conv1
I0403 12:12:23.986026  8576 net.cpp:425] conv1 <- data
I0403 12:12:23.986044  8576 net.cpp:399] conv1 -> conv1
I0403 12:12:24.124984  8576 net.cpp:141] Setting up conv1
I0403 12:12:24.125062  8576 net.cpp:148] Top shape: 100 96 55 55 (29040000)
I0403 12:12:24.125079  8576 net.cpp:156] Memory required for data: 177996400
I0403 12:12:24.125110  8576 layer_factory.hpp:77] Creating layer relu1
I0403 12:12:24.125138  8576 net.cpp:91] Creating Layer relu1
I0403 12:12:24.125156  8576 net.cpp:425] relu1 <- conv1
I0403 12:12:24.125174  8576 net.cpp:386] relu1 -> conv1 (in-place)
I0403 12:12:24.125428  8576 net.cpp:141] Setting up relu1
I0403 12:12:24.125454  8576 net.cpp:148] Top shape: 100 96 55 55 (29040000)
I0403 12:12:24.125502  8576 net.cpp:156] Memory required for data: 294156400
I0403 12:12:24.125524  8576 layer_factory.hpp:77] Creating layer norm1
I0403 12:12:24.125551  8576 net.cpp:91] Creating Layer norm1
I0403 12:12:24.125567  8576 net.cpp:425] norm1 <- conv1
I0403 12:12:24.125584  8576 net.cpp:399] norm1 -> norm1
I0403 12:12:24.125891  8576 net.cpp:141] Setting up norm1
I0403 12:12:24.125918  8576 net.cpp:148] Top shape: 100 96 55 55 (29040000)
I0403 12:12:24.125933  8576 net.cpp:156] Memory required for data: 410316400
I0403 12:12:24.125947  8576 layer_factory.hpp:77] Creating layer pool1
I0403 12:12:24.125969  8576 net.cpp:91] Creating Layer pool1
I0403 12:12:24.125987  8576 net.cpp:425] pool1 <- norm1
I0403 12:12:24.126003  8576 net.cpp:399] pool1 -> pool1
I0403 12:12:24.126068  8576 net.cpp:141] Setting up pool1
I0403 12:12:24.126091  8576 net.cpp:148] Top shape: 100 96 27 27 (6998400)
I0403 12:12:24.126106  8576 net.cpp:156] Memory required for data: 438310000
I0403 12:12:24.126119  8576 layer_factory.hpp:77] Creating layer conv2
I0403 12:12:24.126142  8576 net.cpp:91] Creating Layer conv2
I0403 12:12:24.126158  8576 net.cpp:425] conv2 <- pool1
I0403 12:12:24.126175  8576 net.cpp:399] conv2 -> conv2
I0403 12:12:24.141218  8576 net.cpp:141] Setting up conv2
I0403 12:12:24.141273  8576 net.cpp:148] Top shape: 100 256 27 27 (18662400)
I0403 12:12:24.141289  8576 net.cpp:156] Memory required for data: 512959600
I0403 12:12:24.141311  8576 layer_factory.hpp:77] Creating layer relu2
I0403 12:12:24.141335  8576 net.cpp:91] Creating Layer relu2
I0403 12:12:24.141352  8576 net.cpp:425] relu2 <- conv2
I0403 12:12:24.141371  8576 net.cpp:386] relu2 -> conv2 (in-place)
I0403 12:12:24.141669  8576 net.cpp:141] Setting up relu2
I0403 12:12:24.141695  8576 net.cpp:148] Top shape: 100 256 27 27 (18662400)
I0403 12:12:24.141710  8576 net.cpp:156] Memory required for data: 587609200
I0403 12:12:24.141726  8576 layer_factory.hpp:77] Creating layer norm2
I0403 12:12:24.141749  8576 net.cpp:91] Creating Layer norm2
I0403 12:12:24.141767  8576 net.cpp:425] norm2 <- conv2
I0403 12:12:24.141787  8576 net.cpp:399] norm2 -> norm2
I0403 12:12:24.141995  8576 net.cpp:141] Setting up norm2
I0403 12:12:24.142021  8576 net.cpp:148] Top shape: 100 256 27 27 (18662400)
I0403 12:12:24.142036  8576 net.cpp:156] Memory required for data: 662258800
I0403 12:12:24.142050  8576 layer_factory.hpp:77] Creating layer pool2
I0403 12:12:24.142068  8576 net.cpp:91] Creating Layer pool2
I0403 12:12:24.142087  8576 net.cpp:425] pool2 <- norm2
I0403 12:12:24.142105  8576 net.cpp:399] pool2 -> pool2
I0403 12:12:24.142158  8576 net.cpp:141] Setting up pool2
I0403 12:12:24.142181  8576 net.cpp:148] Top shape: 100 256 13 13 (4326400)
I0403 12:12:24.142196  8576 net.cpp:156] Memory required for data: 679564400
I0403 12:12:24.142212  8576 layer_factory.hpp:77] Creating layer conv3
I0403 12:12:24.142237  8576 net.cpp:91] Creating Layer conv3
I0403 12:12:24.142254  8576 net.cpp:425] conv3 <- pool2
I0403 12:12:24.142283  8576 net.cpp:399] conv3 -> conv3
I0403 12:12:24.182400  8576 net.cpp:141] Setting up conv3
I0403 12:12:24.182479  8576 net.cpp:148] Top shape: 100 384 13 13 (6489600)
I0403 12:12:24.182497  8576 net.cpp:156] Memory required for data: 705522800
I0403 12:12:24.182528  8576 layer_factory.hpp:77] Creating layer relu3
I0403 12:12:24.182556  8576 net.cpp:91] Creating Layer relu3
I0403 12:12:24.182575  8576 net.cpp:425] relu3 <- conv3
I0403 12:12:24.182595  8576 net.cpp:386] relu3 -> conv3 (in-place)
I0403 12:12:24.182878  8576 net.cpp:141] Setting up relu3
I0403 12:12:24.182904  8576 net.cpp:148] Top shape: 100 384 13 13 (6489600)
I0403 12:12:24.182920  8576 net.cpp:156] Memory required for data: 731481200
I0403 12:12:24.182935  8576 layer_factory.hpp:77] Creating layer conv4
I0403 12:12:24.182961  8576 net.cpp:91] Creating Layer conv4
I0403 12:12:24.182978  8576 net.cpp:425] conv4 <- conv3
I0403 12:12:24.183001  8576 net.cpp:399] conv4 -> conv4
I0403 12:12:24.212785  8576 net.cpp:141] Setting up conv4
I0403 12:12:24.212853  8576 net.cpp:148] Top shape: 100 384 13 13 (6489600)
I0403 12:12:24.212906  8576 net.cpp:156] Memory required for data: 757439600
I0403 12:12:24.212929  8576 layer_factory.hpp:77] Creating layer relu4
I0403 12:12:24.212949  8576 net.cpp:91] Creating Layer relu4
I0403 12:12:24.212966  8576 net.cpp:425] relu4 <- conv4
I0403 12:12:24.212988  8576 net.cpp:386] relu4 -> conv4 (in-place)
I0403 12:12:24.213273  8576 net.cpp:141] Setting up relu4
I0403 12:12:24.213299  8576 net.cpp:148] Top shape: 100 384 13 13 (6489600)
I0403 12:12:24.213315  8576 net.cpp:156] Memory required for data: 783398000
I0403 12:12:24.213330  8576 layer_factory.hpp:77] Creating layer conv5
I0403 12:12:24.213358  8576 net.cpp:91] Creating Layer conv5
I0403 12:12:24.213376  8576 net.cpp:425] conv5 <- conv4
I0403 12:12:24.213400  8576 net.cpp:399] conv5 -> conv5
I0403 12:12:24.233983  8576 net.cpp:141] Setting up conv5
I0403 12:12:24.234038  8576 net.cpp:148] Top shape: 100 256 13 13 (4326400)
I0403 12:12:24.234055  8576 net.cpp:156] Memory required for data: 800703600
I0403 12:12:24.234081  8576 layer_factory.hpp:77] Creating layer relu5
I0403 12:12:24.234104  8576 net.cpp:91] Creating Layer relu5
I0403 12:12:24.234122  8576 net.cpp:425] relu5 <- conv5
I0403 12:12:24.234140  8576 net.cpp:386] relu5 -> conv5 (in-place)
I0403 12:12:24.234431  8576 net.cpp:141] Setting up relu5
I0403 12:12:24.234459  8576 net.cpp:148] Top shape: 100 256 13 13 (4326400)
I0403 12:12:24.234475  8576 net.cpp:156] Memory required for data: 818009200
I0403 12:12:24.234496  8576 layer_factory.hpp:77] Creating layer pool5
I0403 12:12:24.234529  8576 net.cpp:91] Creating Layer pool5
I0403 12:12:24.234549  8576 net.cpp:425] pool5 <- conv5
I0403 12:12:24.234566  8576 net.cpp:399] pool5 -> pool5
I0403 12:12:24.234630  8576 net.cpp:141] Setting up pool5
I0403 12:12:24.234654  8576 net.cpp:148] Top shape: 100 256 6 6 (921600)
I0403 12:12:24.234668  8576 net.cpp:156] Memory required for data: 821695600
I0403 12:12:24.234683  8576 layer_factory.hpp:77] Creating layer fc6
I0403 12:12:24.234712  8576 net.cpp:91] Creating Layer fc6
I0403 12:12:24.234730  8576 net.cpp:425] fc6 <- pool5
I0403 12:12:24.234748  8576 net.cpp:399] fc6 -> fc6
I0403 12:12:25.789818  8576 net.cpp:141] Setting up fc6
I0403 12:12:25.789897  8576 net.cpp:148] Top shape: 100 4096 (409600)
I0403 12:12:25.789913  8576 net.cpp:156] Memory required for data: 823334000
I0403 12:12:25.789934  8576 layer_factory.hpp:77] Creating layer relu6
I0403 12:12:25.789957  8576 net.cpp:91] Creating Layer relu6
I0403 12:12:25.789973  8576 net.cpp:425] relu6 <- fc6
I0403 12:12:25.789994  8576 net.cpp:386] relu6 -> fc6 (in-place)
I0403 12:12:25.790222  8576 net.cpp:141] Setting up relu6
I0403 12:12:25.790247  8576 net.cpp:148] Top shape: 100 4096 (409600)
I0403 12:12:25.790261  8576 net.cpp:156] Memory required for data: 824972400
I0403 12:12:25.790277  8576 layer_factory.hpp:77] Creating layer drop6
I0403 12:12:25.790294  8576 net.cpp:91] Creating Layer drop6
I0403 12:12:25.790313  8576 net.cpp:425] drop6 <- fc6
I0403 12:12:25.790330  8576 net.cpp:386] drop6 -> fc6 (in-place)
I0403 12:12:25.790380  8576 net.cpp:141] Setting up drop6
I0403 12:12:25.790405  8576 net.cpp:148] Top shape: 100 4096 (409600)
I0403 12:12:25.790421  8576 net.cpp:156] Memory required for data: 826610800
I0403 12:12:25.790434  8576 layer_factory.hpp:77] Creating layer fc7
I0403 12:12:25.790453  8576 net.cpp:91] Creating Layer fc7
I0403 12:12:25.790468  8576 net.cpp:425] fc7 <- fc6
I0403 12:12:25.790488  8576 net.cpp:399] fc7 -> fc7
I0403 12:12:26.474946  8576 net.cpp:141] Setting up fc7
I0403 12:12:26.474987  8576 net.cpp:148] Top shape: 100 4096 (409600)
I0403 12:12:26.475003  8576 net.cpp:156] Memory required for data: 828249200
I0403 12:12:26.475023  8576 layer_factory.hpp:77] Creating layer relu7
I0403 12:12:26.475044  8576 net.cpp:91] Creating Layer relu7
I0403 12:12:26.475059  8576 net.cpp:425] relu7 <- fc7
I0403 12:12:26.475080  8576 net.cpp:386] relu7 -> fc7 (in-place)
I0403 12:12:26.475502  8576 net.cpp:141] Setting up relu7
I0403 12:12:26.475533  8576 net.cpp:148] Top shape: 100 4096 (409600)
I0403 12:12:26.475600  8576 net.cpp:156] Memory required for data: 829887600
I0403 12:12:26.475615  8576 layer_factory.hpp:77] Creating layer drop7
I0403 12:12:26.475635  8576 net.cpp:91] Creating Layer drop7
I0403 12:12:26.475649  8576 net.cpp:425] drop7 <- fc7
I0403 12:12:26.475668  8576 net.cpp:386] drop7 -> fc7 (in-place)
I0403 12:12:26.475710  8576 net.cpp:141] Setting up drop7
I0403 12:12:26.475733  8576 net.cpp:148] Top shape: 100 4096 (409600)
I0403 12:12:26.475749  8576 net.cpp:156] Memory required for data: 831526000
I0403 12:12:26.475762  8576 layer_factory.hpp:77] Creating layer fc8_plantvillage
I0403 12:12:26.475781  8576 net.cpp:91] Creating Layer fc8_plantvillage
I0403 12:12:26.475796  8576 net.cpp:425] fc8_plantvillage <- fc7
I0403 12:12:26.475816  8576 net.cpp:399] fc8_plantvillage -> fc8_plantvillage
I0403 12:12:26.482499  8576 net.cpp:141] Setting up fc8_plantvillage
I0403 12:12:26.482533  8576 net.cpp:148] Top shape: 100 38 (3800)
I0403 12:12:26.482549  8576 net.cpp:156] Memory required for data: 831541200
I0403 12:12:26.482566  8576 layer_factory.hpp:77] Creating layer fc8_plantvillage_fc8_plantvillage_0_split
I0403 12:12:26.482588  8576 net.cpp:91] Creating Layer fc8_plantvillage_fc8_plantvillage_0_split
I0403 12:12:26.482604  8576 net.cpp:425] fc8_plantvillage_fc8_plantvillage_0_split <- fc8_plantvillage
I0403 12:12:26.482620  8576 net.cpp:399] fc8_plantvillage_fc8_plantvillage_0_split -> fc8_plantvillage_fc8_plantvillage_0_split_0
I0403 12:12:26.482640  8576 net.cpp:399] fc8_plantvillage_fc8_plantvillage_0_split -> fc8_plantvillage_fc8_plantvillage_0_split_1
I0403 12:12:26.482659  8576 net.cpp:399] fc8_plantvillage_fc8_plantvillage_0_split -> fc8_plantvillage_fc8_plantvillage_0_split_2
I0403 12:12:26.482738  8576 net.cpp:141] Setting up fc8_plantvillage_fc8_plantvillage_0_split
I0403 12:12:26.482761  8576 net.cpp:148] Top shape: 100 38 (3800)
I0403 12:12:26.482776  8576 net.cpp:148] Top shape: 100 38 (3800)
I0403 12:12:26.482791  8576 net.cpp:148] Top shape: 100 38 (3800)
I0403 12:12:26.482805  8576 net.cpp:156] Memory required for data: 831586800
I0403 12:12:26.482818  8576 layer_factory.hpp:77] Creating layer prob
I0403 12:12:26.482836  8576 net.cpp:91] Creating Layer prob
I0403 12:12:26.482851  8576 net.cpp:425] prob <- fc8_plantvillage_fc8_plantvillage_0_split_0
I0403 12:12:26.482868  8576 net.cpp:399] prob -> prob
I0403 12:12:26.483099  8576 net.cpp:141] Setting up prob
I0403 12:12:26.483125  8576 net.cpp:148] Top shape: 100 38 (3800)
I0403 12:12:26.483139  8576 net.cpp:156] Memory required for data: 831602000
I0403 12:12:26.483153  8576 layer_factory.hpp:77] Creating layer hdf5out
I0403 12:12:26.483171  8576 net.cpp:91] Creating Layer hdf5out
I0403 12:12:26.483186  8576 net.cpp:425] hdf5out <- prob
I0403 12:12:26.483202  8576 net.cpp:425] hdf5out <- label_data_1_split_0
I0403 12:12:27.834395  8576 net.cpp:141] Setting up hdf5out
…
