…
I0403 12:32:41.433600  9047 net.cpp:313] The NetState phase (1) differed from the phase (0) specified by a rule in layer data
I0403 12:32:41.433903  9047 net.cpp:49] Initializing net from parameters: 
state {
  phase: TEST
}
layer {
  name: "data"
  type: "Data"
  top: "data"
  top: "label"
  include {
    phase: TEST
  }
  transform_param {
    crop_size: 227
    mean_file: "/home/mohanty/data/final_dataset/lmdb/grayscale-20-80/mean.binaryproto"
  }
  data_param {
    source: "/home/mohanty/data/final_dataset/lmdb/grayscale-20-80/test_db"
    batch_size: 100
    backend: LMDB
  }
}
layer {
  name: "conv1"
  type: "Convolution"
  bottom: "data"
  top: "conv1"
  param {
    lr_mult: 1
    decay_mult: 1
  }
  param {
    lr_mult: 2
    decay_mult: 0
  }
  convolution_param {
    num_output: 96
    kernel_size: 11
    stride: 4
    weight_filler {
      type: "gaussian"
      std: 0.01
    }
    bias_filler {
      type: "constant"
      value: 0
    }
  }
}
layer {
  name: "relu1"
  type: "ReLU"
  bottom: "conv1"
  top: "conv1"
}
layer {
  name: "norm1"
  type: "LRN"
  bottom: "conv1"
  top: "norm1"
  lrn_param {
    local_size: 5
    alpha: 0.0001
    beta: 0.75
  }
}
layer {
  name: "pool1"
  type: "Pooling"
  bottom: "norm1"
  top: "pool1"
  pooling_param {
    pool: MAX
    kernel_size: 3
    stride: 2
  }
}
layer {
  name: "conv2"
  type: "Convolution"
  bottom: "pool1"
  top: "conv2"
  param {
    lr_mult: 1
    decay_mult: 1
  }
  param {
    lr_mult: 2
    decay_mult: 0
  }
  convolution_param {
    num_output: 256
    pad: 2
    kernel_size: 5
    group: 2
    weight_filler {
      type: "gaussian"
      std: 0.01
    }
    bias_filler {
      type: "constant"
      value: 0.1
    }
  }
}
layer {
  name: "relu2"
  type: "ReLU"
  bottom: "conv2"
  top: "conv2"
}
layer {
  name: "norm2"
  type: "LRN"
  bottom: "conv2"
  top: "norm2"
  lrn_param {
    local_size: 5
    alpha: 0.0001
    beta: 0.75
  }
}
layer {
  name: "pool2"
  type: "Pooling"
  bottom: "norm2"
  top: "pool2"
  pooling_param {
    pool: MAX
    kernel_size: 3
    stride: 2
  }
}
layer {
  name: "conv3"
  type: "Convolution"
  bottom: "pool2"
  top: "conv3"
  param {
    lr_mult: 1
    decay_mult: 1
  }
  param {
    lr_mult: 2
    decay_mult: 0
  }
  convolution_param {
    num_output: 384
    pad: 1
    kernel_size: 3
    weight_filler {
      type: "gaussian"
      std: 0.01
    }
    bias_filler {
      type: "constant"
      value: 0
    }
  }
}
layer {
  name: "relu3"
  type: "ReLU"
  bottom: "conv3"
  top: "conv3"
}
layer {
  name: "conv4"
  type: "Convolution"
  bottom: "conv3"
  top: "conv4"
  param {
    lr_mult: 1
    decay_mult: 1
  }
  param {
    lr_mult: 2
    decay_mult: 0
  }
  convolution_param {
    num_output: 384
    pad: 1
    kernel_size: 3
    group: 2
    weight_filler {
      type: "gaussian"
      std: 0.01
    }
    bias_filler {
      type: "constant"
      value: 0.1
    }
  }
}
layer {
  name: "relu4"
  type: "ReLU"
  bottom: "conv4"
  top: "conv4"
}
layer {
  name: "conv5"
  type: "Convolution"
  bottom: "conv4"
  top: "conv5"
  param {
    lr_mult: 1
    decay_mult: 1
  }
  param {
    lr_mult: 2
    decay_mult: 0
  }
  convolution_param {
    num_output: 256
    pad: 1
    kernel_size: 3
    group: 2
    weight_filler {
      type: "gaussian"
      std: 0.01
    }
    bias_filler {
      type: "constant"
      value: 0.1
    }
  }
}
layer {
  name: "relu5"
  type: "ReLU"
  bottom: "conv5"
  top: "conv5"
}
layer {
  name: "pool5"
  type: "Pooling"
  bottom: "conv5"
  top: "pool5"
  pooling_param {
    pool: MAX
    kernel_size: 3
    stride: 2
  }
}
layer {
  name: "fc6"
  type: "InnerProduct"
  bottom: "pool5"
  top: "fc6"
  param {
    lr_mult: 1
    decay_mult: 1
  }
  param {
    lr_mult: 2
    decay_mult: 0
  }
  inner_product_param {
    num_output: 4096
    weight_filler {
      type: "gaussian"
      std: 0.005
    }
    bias_filler {
      type: "constant"
      value: 0.1
    }
  }
}
layer {
  name: "relu6"
  type: "ReLU"
  bottom: "fc6"
  top: "fc6"
}
layer {
  name: "drop6"
  type: "Dropout"
  bottom: "fc6"
  top: "fc6"
  dropout_param {
    dropout_ratio: 0.5
  }
}
layer {
  name: "fc7"
  type: "InnerProduct"
  bottom: "fc6"
  top: "fc7"
  param {
    lr_mult: 1
    decay_mult: 1
  }
  param {
    lr_mult: 2
    decay_mult: 0
  }
  inner_product_param {
    num_output: 4096
    weight_filler {
      type: "gaussian"
      std: 0.005
    }
    bias_filler {
      type: "constant"
      value: 0.1
    }
  }
}
layer {
  name: "relu7"
  type: "ReLU"
  bottom: "fc7"
  top: "fc7"
}
layer {
  name: "drop7"
  type: "Dropout"
  bottom: "fc7"
  top: "fc7"
  dropout_param {
    dropout_ratio: 0.5
  }
}
layer {
  name: "fc8_plantvillage"
  type: "InnerProduct"
  bottom: "fc7"
  top: "fc8_plantvillage"
  param {
    lr_mult: 1
    decay_mult: 1
  }
  param {
    lr_mult: 2
    decay_mult: 0
  }
  inner_product_param {
    num_output: 38
    weight_filler {
      type: "gaussian"
      std: 0.01
    }
    bias_filler {
      type: "constant"
      value: 0
    }
  }
}
layer {
  name: "prob"
  type: "Softmax"
  bottom: "fc8_plantvillage"
  top: "prob"
  include {
    phase: TEST
  }
}
layer {
  name: "hdf5out"
  type: "HDF5Output"
  bottom: "prob"
  bottom: "label"
  include {
    phase: TEST
  }
  hdf5_output_param {
    file_name: "hdf5_dumps/iter_2310.h5"
  }
}
layer {
  name: "loss"
  type: "SoftmaxWithLoss"
  bottom: "fc8_plantvillage"
  bottom: "label"
  top: "loss"
}
layer {
  name: "accuracy"
  type: "Accuracy"
  bottom: "fc8_plantvillage"
  bottom: "label"
  top: "accuracy"
  include {
    phase: TEST
  }
}
I0403 12:32:41.434551  9047 layer_factory.hpp:77] Creating layer data
I0403 12:32:41.435220  9047 net.cpp:91] Creating Layer data
I0403 12:32:41.435250  9047 net.cpp:399] data -> data
I0403 12:32:41.435302  9047 net.cpp:399] data -> label
I0403 12:32:41.435339  9047 data_transformer.cpp:25] Loading mean file from: /home/mohanty/data/final_dataset/lmdb/grayscale-20-80/mean.binaryproto
I0403 12:32:41.438622  9050 db_lmdb.cpp:38] Opened lmdb /home/mohanty/data/final_dataset/lmdb/grayscale-20-80/test_db
I0403 12:32:41.457777  9047 data_layer.cpp:41] output data size: 100,3,227,227
I0403 12:32:41.574178  9047 net.cpp:141] Setting up data
I0403 12:32:41.574273  9047 net.cpp:148] Top shape: 100 3 227 227 (15458700)
I0403 12:32:41.574296  9047 net.cpp:148] Top shape: 100 (100)
I0403 12:32:41.574311  9047 net.cpp:156] Memory required for data: 61835200
I0403 12:32:41.574339  9047 layer_factory.hpp:77] Creating layer label_data_1_split
I0403 12:32:41.574364  9047 net.cpp:91] Creating Layer label_data_1_split
I0403 12:32:41.574383  9047 net.cpp:425] label_data_1_split <- label
I0403 12:32:41.574415  9047 net.cpp:399] label_data_1_split -> label_data_1_split_0
I0403 12:32:41.574443  9047 net.cpp:399] label_data_1_split -> label_data_1_split_1
I0403 12:32:41.574462  9047 net.cpp:399] label_data_1_split -> label_data_1_split_2
I0403 12:32:41.574527  9047 net.cpp:141] Setting up label_data_1_split
I0403 12:32:41.574560  9047 net.cpp:148] Top shape: 100 (100)
I0403 12:32:41.574579  9047 net.cpp:148] Top shape: 100 (100)
I0403 12:32:41.574596  9047 net.cpp:148] Top shape: 100 (100)
I0403 12:32:41.574610  9047 net.cpp:156] Memory required for data: 61836400
I0403 12:32:41.574625  9047 layer_factory.hpp:77] Creating layer conv1
I0403 12:32:41.574656  9047 net.cpp:91] Creating Layer conv1
I0403 12:32:41.574676  9047 net.cpp:425] conv1 <- data
I0403 12:32:41.574694  9047 net.cpp:399] conv1 -> conv1
I0403 12:32:41.716003  9047 net.cpp:141] Setting up conv1
I0403 12:32:41.716083  9047 net.cpp:148] Top shape: 100 96 55 55 (29040000)
I0403 12:32:41.716101  9047 net.cpp:156] Memory required for data: 177996400
I0403 12:32:41.716132  9047 layer_factory.hpp:77] Creating layer relu1
I0403 12:32:41.716161  9047 net.cpp:91] Creating Layer relu1
I0403 12:32:41.716179  9047 net.cpp:425] relu1 <- conv1
I0403 12:32:41.716198  9047 net.cpp:386] relu1 -> conv1 (in-place)
I0403 12:32:41.716483  9047 net.cpp:141] Setting up relu1
I0403 12:32:41.716512  9047 net.cpp:148] Top shape: 100 96 55 55 (29040000)
I0403 12:32:41.716567  9047 net.cpp:156] Memory required for data: 294156400
I0403 12:32:41.716584  9047 layer_factory.hpp:77] Creating layer norm1
I0403 12:32:41.716612  9047 net.cpp:91] Creating Layer norm1
I0403 12:32:41.716630  9047 net.cpp:425] norm1 <- conv1
I0403 12:32:41.716650  9047 net.cpp:399] norm1 -> norm1
I0403 12:32:41.716961  9047 net.cpp:141] Setting up norm1
I0403 12:32:41.716989  9047 net.cpp:148] Top shape: 100 96 55 55 (29040000)
I0403 12:32:41.717005  9047 net.cpp:156] Memory required for data: 410316400
I0403 12:32:41.717021  9047 layer_factory.hpp:77] Creating layer pool1
I0403 12:32:41.717044  9047 net.cpp:91] Creating Layer pool1
I0403 12:32:41.717061  9047 net.cpp:425] pool1 <- norm1
I0403 12:32:41.717080  9047 net.cpp:399] pool1 -> pool1
I0403 12:32:41.717147  9047 net.cpp:141] Setting up pool1
I0403 12:32:41.717171  9047 net.cpp:148] Top shape: 100 96 27 27 (6998400)
I0403 12:32:41.717186  9047 net.cpp:156] Memory required for data: 438310000
I0403 12:32:41.717202  9047 layer_factory.hpp:77] Creating layer conv2
I0403 12:32:41.717227  9047 net.cpp:91] Creating Layer conv2
I0403 12:32:41.717244  9047 net.cpp:425] conv2 <- pool1
I0403 12:32:41.717264  9047 net.cpp:399] conv2 -> conv2
I0403 12:32:41.732784  9047 net.cpp:141] Setting up conv2
I0403 12:32:41.732838  9047 net.cpp:148] Top shape: 100 256 27 27 (18662400)
I0403 12:32:41.732856  9047 net.cpp:156] Memory required for data: 512959600
I0403 12:32:41.732878  9047 layer_factory.hpp:77] Creating layer relu2
I0403 12:32:41.732899  9047 net.cpp:91] Creating Layer relu2
I0403 12:32:41.732916  9047 net.cpp:425] relu2 <- conv2
I0403 12:32:41.732935  9047 net.cpp:386] relu2 -> conv2 (in-place)
I0403 12:32:41.733204  9047 net.cpp:141] Setting up relu2
I0403 12:32:41.733232  9047 net.cpp:148] Top shape: 100 256 27 27 (18662400)
I0403 12:32:41.733247  9047 net.cpp:156] Memory required for data: 587609200
I0403 12:32:41.733265  9047 layer_factory.hpp:77] Creating layer norm2
I0403 12:32:41.733288  9047 net.cpp:91] Creating Layer norm2
I0403 12:32:41.733304  9047 net.cpp:425] norm2 <- conv2
I0403 12:32:41.733348  9047 net.cpp:399] norm2 -> norm2
I0403 12:32:41.733554  9047 net.cpp:141] Setting up norm2
I0403 12:32:41.733580  9047 net.cpp:148] Top shape: 100 256 27 27 (18662400)
I0403 12:32:41.733597  9047 net.cpp:156] Memory required for data: 662258800
I0403 12:32:41.733610  9047 layer_factory.hpp:77] Creating layer pool2
I0403 12:32:41.733631  9047 net.cpp:91] Creating Layer pool2
I0403 12:32:41.733649  9047 net.cpp:425] pool2 <- norm2
I0403 12:32:41.733665  9047 net.cpp:399] pool2 -> pool2
I0403 12:32:41.733719  9047 net.cpp:141] Setting up pool2
I0403 12:32:41.733742  9047 net.cpp:148] Top shape: 100 256 13 13 (4326400)
I0403 12:32:41.733757  9047 net.cpp:156] Memory required for data: 679564400
I0403 12:32:41.733772  9047 layer_factory.hpp:77] Creating layer conv3
I0403 12:32:41.733795  9047 net.cpp:91] Creating Layer conv3
I0403 12:32:41.733814  9047 net.cpp:425] conv3 <- pool2
I0403 12:32:41.733834  9047 net.cpp:399] conv3 -> conv3
I0403 12:32:41.773900  9047 net.cpp:141] Setting up conv3
I0403 12:32:41.773974  9047 net.cpp:148] Top shape: 100 384 13 13 (6489600)
I0403 12:32:41.773994  9047 net.cpp:156] Memory required for data: 705522800
I0403 12:32:41.774020  9047 layer_factory.hpp:77] Creating layer relu3
I0403 12:32:41.774044  9047 net.cpp:91] Creating Layer relu3
I0403 12:32:41.774061  9047 net.cpp:425] relu3 <- conv3
I0403 12:32:41.774081  9047 net.cpp:386] relu3 -> conv3 (in-place)
I0403 12:32:41.774366  9047 net.cpp:141] Setting up relu3
I0403 12:32:41.774396  9047 net.cpp:148] Top shape: 100 384 13 13 (6489600)
I0403 12:32:41.774413  9047 net.cpp:156] Memory required for data: 731481200
I0403 12:32:41.774428  9047 layer_factory.hpp:77] Creating layer conv4
I0403 12:32:41.774454  9047 net.cpp:91] Creating Layer conv4
I0403 12:32:41.774472  9047 net.cpp:425] conv4 <- conv3
I0403 12:32:41.774492  9047 net.cpp:399] conv4 -> conv4
I0403 12:32:41.805847  9047 net.cpp:141] Setting up conv4
I0403 12:32:41.805887  9047 net.cpp:148] Top shape: 100 384 13 13 (6489600)
I0403 12:32:41.805934  9047 net.cpp:156] Memory required for data: 757439600
I0403 12:32:41.805958  9047 layer_factory.hpp:77] Creating layer relu4
I0403 12:32:41.805981  9047 net.cpp:91] Creating Layer relu4
I0403 12:32:41.806000  9047 net.cpp:425] relu4 <- conv4
I0403 12:32:41.806020  9047 net.cpp:386] relu4 -> conv4 (in-place)
I0403 12:32:41.806324  9047 net.cpp:141] Setting up relu4
I0403 12:32:41.806350  9047 net.cpp:148] Top shape: 100 384 13 13 (6489600)
I0403 12:32:41.806378  9047 net.cpp:156] Memory required for data: 783398000
I0403 12:32:41.806393  9047 layer_factory.hpp:77] Creating layer conv5
I0403 12:32:41.806418  9047 net.cpp:91] Creating Layer conv5
I0403 12:32:41.806437  9047 net.cpp:425] conv5 <- conv4
I0403 12:32:41.806458  9047 net.cpp:399] conv5 -> conv5
I0403 12:32:41.827872  9047 net.cpp:141] Setting up conv5
I0403 12:32:41.827930  9047 net.cpp:148] Top shape: 100 256 13 13 (4326400)
I0403 12:32:41.827946  9047 net.cpp:156] Memory required for data: 800703600
I0403 12:32:41.827971  9047 layer_factory.hpp:77] Creating layer relu5
I0403 12:32:41.827998  9047 net.cpp:91] Creating Layer relu5
I0403 12:32:41.828016  9047 net.cpp:425] relu5 <- conv5
I0403 12:32:41.828035  9047 net.cpp:386] relu5 -> conv5 (in-place)
I0403 12:32:41.828344  9047 net.cpp:141] Setting up relu5
I0403 12:32:41.828373  9047 net.cpp:148] Top shape: 100 256 13 13 (4326400)
I0403 12:32:41.828389  9047 net.cpp:156] Memory required for data: 818009200
I0403 12:32:41.828404  9047 layer_factory.hpp:77] Creating layer pool5
I0403 12:32:41.828425  9047 net.cpp:91] Creating Layer pool5
I0403 12:32:41.828441  9047 net.cpp:425] pool5 <- conv5
I0403 12:32:41.828462  9047 net.cpp:399] pool5 -> pool5
I0403 12:32:41.828522  9047 net.cpp:141] Setting up pool5
I0403 12:32:41.828553  9047 net.cpp:148] Top shape: 100 256 6 6 (921600)
I0403 12:32:41.828570  9047 net.cpp:156] Memory required for data: 821695600
I0403 12:32:41.828584  9047 layer_factory.hpp:77] Creating layer fc6
I0403 12:32:41.828611  9047 net.cpp:91] Creating Layer fc6
I0403 12:32:41.828629  9047 net.cpp:425] fc6 <- pool5
I0403 12:32:41.828649  9047 net.cpp:399] fc6 -> fc6
I0403 12:32:43.385839  9047 net.cpp:141] Setting up fc6
I0403 12:32:43.385892  9047 net.cpp:148] Top shape: 100 4096 (409600)
I0403 12:32:43.385908  9047 net.cpp:156] Memory required for data: 823334000
I0403 12:32:43.385928  9047 layer_factory.hpp:77] Creating layer relu6
I0403 12:32:43.385952  9047 net.cpp:91] Creating Layer relu6
I0403 12:32:43.385969  9047 net.cpp:425] relu6 <- fc6
I0403 12:32:43.385988  9047 net.cpp:386] relu6 -> fc6 (in-place)
I0403 12:32:43.386212  9047 net.cpp:141] Setting up relu6
I0403 12:32:43.386237  9047 net.cpp:148] Top shape: 100 4096 (409600)
I0403 12:32:43.386252  9047 net.cpp:156] Memory required for data: 824972400
I0403 12:32:43.386266  9047 layer_factory.hpp:77] Creating layer drop6
I0403 12:32:43.386287  9047 net.cpp:91] Creating Layer drop6
I0403 12:32:43.386301  9047 net.cpp:425] drop6 <- fc6
I0403 12:32:43.386318  9047 net.cpp:386] drop6 -> fc6 (in-place)
I0403 12:32:43.386369  9047 net.cpp:141] Setting up drop6
I0403 12:32:43.386390  9047 net.cpp:148] Top shape: 100 4096 (409600)
I0403 12:32:43.386404  9047 net.cpp:156] Memory required for data: 826610800
I0403 12:32:43.386418  9047 layer_factory.hpp:77] Creating layer fc7
I0403 12:32:43.386440  9047 net.cpp:91] Creating Layer fc7
I0403 12:32:43.386454  9047 net.cpp:425] fc7 <- fc6
I0403 12:32:43.386471  9047 net.cpp:399] fc7 -> fc7
I0403 12:32:44.071053  9047 net.cpp:141] Setting up fc7
I0403 12:32:44.071135  9047 net.cpp:148] Top shape: 100 4096 (409600)
I0403 12:32:44.071152  9047 net.cpp:156] Memory required for data: 828249200
I0403 12:32:44.071174  9047 layer_factory.hpp:77] Creating layer relu7
I0403 12:32:44.071197  9047 net.cpp:91] Creating Layer relu7
I0403 12:32:44.071215  9047 net.cpp:425] relu7 <- fc7
I0403 12:32:44.071235  9047 net.cpp:386] relu7 -> fc7 (in-place)
I0403 12:32:44.071666  9047 net.cpp:141] Setting up relu7
I0403 12:32:44.071694  9047 net.cpp:148] Top shape: 100 4096 (409600)
I0403 12:32:44.071751  9047 net.cpp:156] Memory required for data: 829887600
I0403 12:32:44.071768  9047 layer_factory.hpp:77] Creating layer drop7
I0403 12:32:44.071786  9047 net.cpp:91] Creating Layer drop7
I0403 12:32:44.071801  9047 net.cpp:425] drop7 <- fc7
I0403 12:32:44.071817  9047 net.cpp:386] drop7 -> fc7 (in-place)
I0403 12:32:44.071862  9047 net.cpp:141] Setting up drop7
I0403 12:32:44.071884  9047 net.cpp:148] Top shape: 100 4096 (409600)
I0403 12:32:44.071898  9047 net.cpp:156] Memory required for data: 831526000
I0403 12:32:44.071913  9047 layer_factory.hpp:77] Creating layer fc8_plantvillage
I0403 12:32:44.071934  9047 net.cpp:91] Creating Layer fc8_plantvillage
I0403 12:32:44.071950  9047 net.cpp:425] fc8_plantvillage <- fc7
I0403 12:32:44.071967  9047 net.cpp:399] fc8_plantvillage -> fc8_plantvillage
I0403 12:32:44.078692  9047 net.cpp:141] Setting up fc8_plantvillage
I0403 12:32:44.078721  9047 net.cpp:148] Top shape: 100 38 (3800)
I0403 12:32:44.078737  9047 net.cpp:156] Memory required for data: 831541200
I0403 12:32:44.078754  9047 layer_factory.hpp:77] Creating layer fc8_plantvillage_fc8_plantvillage_0_split
I0403 12:32:44.078774  9047 net.cpp:91] Creating Layer fc8_plantvillage_fc8_plantvillage_0_split
I0403 12:32:44.078790  9047 net.cpp:425] fc8_plantvillage_fc8_plantvillage_0_split <- fc8_plantvillage
I0403 12:32:44.078807  9047 net.cpp:399] fc8_plantvillage_fc8_plantvillage_0_split -> fc8_plantvillage_fc8_plantvillage_0_split_0
I0403 12:32:44.078830  9047 net.cpp:399] fc8_plantvillage_fc8_plantvillage_0_split -> fc8_plantvillage_fc8_plantvillage_0_split_1
I0403 12:32:44.078850  9047 net.cpp:399] fc8_plantvillage_fc8_plantvillage_0_split -> fc8_plantvillage_fc8_plantvillage_0_split_2
I0403 12:32:44.078927  9047 net.cpp:141] Setting up fc8_plantvillage_fc8_plantvillage_0_split
I0403 12:32:44.078950  9047 net.cpp:148] Top shape: 100 38 (3800)
I0403 12:32:44.078966  9047 net.cpp:148] Top shape: 100 38 (3800)
I0403 12:32:44.078982  9047 net.cpp:148] Top shape: 100 38 (3800)
I0403 12:32:44.078996  9047 net.cpp:156] Memory required for data: 831586800
I0403 12:32:44.079010  9047 layer_factory.hpp:77] Creating layer prob
I0403 12:32:44.079030  9047 net.cpp:91] Creating Layer prob
I0403 12:32:44.079046  9047 net.cpp:425] prob <- fc8_plantvillage_fc8_plantvillage_0_split_0
I0403 12:32:44.079064  9047 net.cpp:399] prob -> prob
I0403 12:32:44.079291  9047 net.cpp:141] Setting up prob
I0403 12:32:44.079315  9047 net.cpp:148] Top shape: 100 38 (3800)
I0403 12:32:44.079330  9047 net.cpp:156] Memory required for data: 831602000
I0403 12:32:44.079344  9047 layer_factory.hpp:77] Creating layer hdf5out
I0403 12:32:44.079365  9047 net.cpp:91] Creating Layer hdf5out
I0403 12:32:44.079381  9047 net.cpp:425] hdf5out <- prob
I0403 12:32:44.079397  9047 net.cpp:425] hdf5out <- label_data_1_split_0
I0403 12:32:44.081923  9047 net.cpp:141] Setting up hdf5out
…
