…
I0403 12:02:15.253042  8351 net.cpp:313] The NetState phase (1) differed from the phase (0) specified by a rule in layer data
I0403 12:02:15.253468  8351 net.cpp:49] Initializing net from parameters: 
state {
  phase: TEST
}
layer {
  name: "data"
  type: "Data"
  top: "data"
  top: "label"
  include {
    phase: TEST
  }
  transform_param {
    crop_size: 227
    mean_file: "/home/mohanty/data/final_dataset/lmdb/grayscale-20-80/mean.binaryproto"
  }
  data_param {
    source: "/home/mohanty/data/final_dataset/lmdb/grayscale-20-80/test_db"
    batch_size: 100
    backend: LMDB
  }
}
layer {
  name: "conv1"
  type: "Convolution"
  bottom: "data"
  top: "conv1"
  param {
    lr_mult: 1
    decay_mult: 1
  }
  param {
    lr_mult: 2
    decay_mult: 0
  }
  convolution_param {
    num_output: 96
    kernel_size: 11
    stride: 4
    weight_filler {
      type: "gaussian"
      std: 0.01
    }
    bias_filler {
      type: "constant"
      value: 0
    }
  }
}
layer {
  name: "relu1"
  type: "ReLU"
  bottom: "conv1"
  top: "conv1"
}
layer {
  name: "norm1"
  type: "LRN"
  bottom: "conv1"
  top: "norm1"
  lrn_param {
    local_size: 5
    alpha: 0.0001
    beta: 0.75
  }
}
layer {
  name: "pool1"
  type: "Pooling"
  bottom: "norm1"
  top: "pool1"
  pooling_param {
    pool: MAX
    kernel_size: 3
    stride: 2
  }
}
layer {
  name: "conv2"
  type: "Convolution"
  bottom: "pool1"
  top: "conv2"
  param {
    lr_mult: 1
    decay_mult: 1
  }
  param {
    lr_mult: 2
    decay_mult: 0
  }
  convolution_param {
    num_output: 256
    pad: 2
    kernel_size: 5
    group: 2
    weight_filler {
      type: "gaussian"
      std: 0.01
    }
    bias_filler {
      type: "constant"
      value: 0.1
    }
  }
}
layer {
  name: "relu2"
  type: "ReLU"
  bottom: "conv2"
  top: "conv2"
}
layer {
  name: "norm2"
  type: "LRN"
  bottom: "conv2"
  top: "norm2"
  lrn_param {
    local_size: 5
    alpha: 0.0001
    beta: 0.75
  }
}
layer {
  name: "pool2"
  type: "Pooling"
  bottom: "norm2"
  top: "pool2"
  pooling_param {
    pool: MAX
    kernel_size: 3
    stride: 2
  }
}
layer {
  name: "conv3"
  type: "Convolution"
  bottom: "pool2"
  top: "conv3"
  param {
    lr_mult: 1
    decay_mult: 1
  }
  param {
    lr_mult: 2
    decay_mult: 0
  }
  convolution_param {
    num_output: 384
    pad: 1
    kernel_size: 3
    weight_filler {
      type: "gaussian"
      std: 0.01
    }
    bias_filler {
      type: "constant"
      value: 0
    }
  }
}
layer {
  name: "relu3"
  type: "ReLU"
  bottom: "conv3"
  top: "conv3"
}
layer {
  name: "conv4"
  type: "Convolution"
  bottom: "conv3"
  top: "conv4"
  param {
    lr_mult: 1
    decay_mult: 1
  }
  param {
    lr_mult: 2
    decay_mult: 0
  }
  convolution_param {
    num_output: 384
    pad: 1
    kernel_size: 3
    group: 2
    weight_filler {
      type: "gaussian"
      std: 0.01
    }
    bias_filler {
      type: "constant"
      value: 0.1
    }
  }
}
layer {
  name: "relu4"
  type: "ReLU"
  bottom: "conv4"
  top: "conv4"
}
layer {
  name: "conv5"
  type: "Convolution"
  bottom: "conv4"
  top: "conv5"
  param {
    lr_mult: 1
    decay_mult: 1
  }
  param {
    lr_mult: 2
    decay_mult: 0
  }
  convolution_param {
    num_output: 256
    pad: 1
    kernel_size: 3
    group: 2
    weight_filler {
      type: "gaussian"
      std: 0.01
    }
    bias_filler {
      type: "constant"
      value: 0.1
    }
  }
}
layer {
  name: "relu5"
  type: "ReLU"
  bottom: "conv5"
  top: "conv5"
}
layer {
  name: "pool5"
  type: "Pooling"
  bottom: "conv5"
  top: "pool5"
  pooling_param {
    pool: MAX
    kernel_size: 3
    stride: 2
  }
}
layer {
  name: "fc6"
  type: "InnerProduct"
  bottom: "pool5"
  top: "fc6"
  param {
    lr_mult: 1
    decay_mult: 1
  }
  param {
    lr_mult: 2
    decay_mult: 0
  }
  inner_product_param {
    num_output: 4096
    weight_filler {
      type: "gaussian"
      std: 0.005
    }
    bias_filler {
      type: "constant"
      value: 0.1
    }
  }
}
layer {
  name: "relu6"
  type: "ReLU"
  bottom: "fc6"
  top: "fc6"
}
layer {
  name: "drop6"
  type: "Dropout"
  bottom: "fc6"
  top: "fc6"
  dropout_param {
    dropout_ratio: 0.5
  }
}
layer {
  name: "fc7"
  type: "InnerProduct"
  bottom: "fc6"
  top: "fc7"
  param {
    lr_mult: 1
    decay_mult: 1
  }
  param {
    lr_mult: 2
    decay_mult: 0
  }
  inner_product_param {
    num_output: 4096
    weight_filler {
      type: "gaussian"
      std: 0.005
    }
    bias_filler {
      type: "constant"
      value: 0.1
    }
  }
}
layer {
  name: "relu7"
  type: "ReLU"
  bottom: "fc7"
  top: "fc7"
}
layer {
  name: "drop7"
  type: "Dropout"
  bottom: "fc7"
  top: "fc7"
  dropout_param {
    dropout_ratio: 0.5
  }
}
layer {
  name: "fc8_plantvillage"
  type: "InnerProduct"
  bottom: "fc7"
  top: "fc8_plantvillage"
  param {
    lr_mult: 1
    decay_mult: 1
  }
  param {
    lr_mult: 2
    decay_mult: 0
  }
  inner_product_param {
    num_output: 38
    weight_filler {
      type: "gaussian"
      std: 0.01
    }
    bias_filler {
      type: "constant"
      value: 0
    }
  }
}
layer {
  name: "prob"
  type: "Softmax"
  bottom: "fc8_plantvillage"
  top: "prob"
  include {
    phase: TEST
  }
}
layer {
  name: "hdf5out"
  type: "HDF5Output"
  bottom: "prob"
  bottom: "label"
  include {
    phase: TEST
  }
  hdf5_output_param {
    file_name: "hdf5_dumps/iter_105.h5"
  }
}
layer {
  name: "loss"
  type: "SoftmaxWithLoss"
  bottom: "fc8_plantvillage"
  bottom: "label"
  top: "loss"
}
layer {
  name: "accuracy"
  type: "Accuracy"
  bottom: "fc8_plantvillage"
  bottom: "label"
  top: "accuracy"
  include {
    phase: TEST
  }
}
I0403 12:02:15.254169  8351 layer_factory.hpp:77] Creating layer data
I0403 12:02:15.255336  8351 net.cpp:91] Creating Layer data
I0403 12:02:15.255376  8351 net.cpp:399] data -> data
I0403 12:02:15.255429  8351 net.cpp:399] data -> label
I0403 12:02:15.255472  8351 data_transformer.cpp:25] Loading mean file from: /home/mohanty/data/final_dataset/lmdb/grayscale-20-80/mean.binaryproto
I0403 12:02:15.302007  8359 db_lmdb.cpp:38] Opened lmdb /home/mohanty/data/final_dataset/lmdb/grayscale-20-80/test_db
I0403 12:02:15.305680  8351 data_layer.cpp:41] output data size: 100,3,227,227
I0403 12:02:15.444227  8351 net.cpp:141] Setting up data
I0403 12:02:15.444363  8351 net.cpp:148] Top shape: 100 3 227 227 (15458700)
I0403 12:02:15.444391  8351 net.cpp:148] Top shape: 100 (100)
I0403 12:02:15.444409  8351 net.cpp:156] Memory required for data: 61835200
I0403 12:02:15.444443  8351 layer_factory.hpp:77] Creating layer label_data_1_split
I0403 12:02:15.444474  8351 net.cpp:91] Creating Layer label_data_1_split
I0403 12:02:15.444494  8351 net.cpp:425] label_data_1_split <- label
I0403 12:02:15.444532  8351 net.cpp:399] label_data_1_split -> label_data_1_split_0
I0403 12:02:15.444578  8351 net.cpp:399] label_data_1_split -> label_data_1_split_1
I0403 12:02:15.444604  8351 net.cpp:399] label_data_1_split -> label_data_1_split_2
I0403 12:02:15.444681  8351 net.cpp:141] Setting up label_data_1_split
I0403 12:02:15.444707  8351 net.cpp:148] Top shape: 100 (100)
I0403 12:02:15.444726  8351 net.cpp:148] Top shape: 100 (100)
I0403 12:02:15.444746  8351 net.cpp:148] Top shape: 100 (100)
I0403 12:02:15.444762  8351 net.cpp:156] Memory required for data: 61836400
I0403 12:02:15.444779  8351 layer_factory.hpp:77] Creating layer conv1
I0403 12:02:15.444831  8351 net.cpp:91] Creating Layer conv1
I0403 12:02:15.444854  8351 net.cpp:425] conv1 <- data
I0403 12:02:15.444876  8351 net.cpp:399] conv1 -> conv1
I0403 12:02:17.687655  8351 net.cpp:141] Setting up conv1
I0403 12:02:17.687722  8351 net.cpp:148] Top shape: 100 96 55 55 (29040000)
I0403 12:02:17.687743  8351 net.cpp:156] Memory required for data: 177996400
I0403 12:02:17.687777  8351 layer_factory.hpp:77] Creating layer relu1
I0403 12:02:17.687811  8351 net.cpp:91] Creating Layer relu1
I0403 12:02:17.687834  8351 net.cpp:425] relu1 <- conv1
I0403 12:02:17.687856  8351 net.cpp:386] relu1 -> conv1 (in-place)
I0403 12:02:17.688174  8351 net.cpp:141] Setting up relu1
I0403 12:02:17.688207  8351 net.cpp:148] Top shape: 100 96 55 55 (29040000)
I0403 12:02:17.688258  8351 net.cpp:156] Memory required for data: 294156400
I0403 12:02:17.688278  8351 layer_factory.hpp:77] Creating layer norm1
I0403 12:02:17.688313  8351 net.cpp:91] Creating Layer norm1
I0403 12:02:17.688334  8351 net.cpp:425] norm1 <- conv1
I0403 12:02:17.688355  8351 net.cpp:399] norm1 -> norm1
I0403 12:02:17.688745  8351 net.cpp:141] Setting up norm1
I0403 12:02:17.688781  8351 net.cpp:148] Top shape: 100 96 55 55 (29040000)
I0403 12:02:17.688801  8351 net.cpp:156] Memory required for data: 410316400
I0403 12:02:17.688818  8351 layer_factory.hpp:77] Creating layer pool1
I0403 12:02:17.688844  8351 net.cpp:91] Creating Layer pool1
I0403 12:02:17.688864  8351 net.cpp:425] pool1 <- norm1
I0403 12:02:17.688884  8351 net.cpp:399] pool1 -> pool1
I0403 12:02:17.689023  8351 net.cpp:141] Setting up pool1
I0403 12:02:17.689054  8351 net.cpp:148] Top shape: 100 96 27 27 (6998400)
I0403 12:02:17.689072  8351 net.cpp:156] Memory required for data: 438310000
I0403 12:02:17.689090  8351 layer_factory.hpp:77] Creating layer conv2
I0403 12:02:17.689121  8351 net.cpp:91] Creating Layer conv2
I0403 12:02:17.689141  8351 net.cpp:425] conv2 <- pool1
I0403 12:02:17.689165  8351 net.cpp:399] conv2 -> conv2
I0403 12:02:17.707391  8351 net.cpp:141] Setting up conv2
I0403 12:02:17.707438  8351 net.cpp:148] Top shape: 100 256 27 27 (18662400)
I0403 12:02:17.707458  8351 net.cpp:156] Memory required for data: 512959600
I0403 12:02:17.707484  8351 layer_factory.hpp:77] Creating layer relu2
I0403 12:02:17.707514  8351 net.cpp:91] Creating Layer relu2
I0403 12:02:17.707535  8351 net.cpp:425] relu2 <- conv2
I0403 12:02:17.707562  8351 net.cpp:386] relu2 -> conv2 (in-place)
I0403 12:02:17.707890  8351 net.cpp:141] Setting up relu2
I0403 12:02:17.707926  8351 net.cpp:148] Top shape: 100 256 27 27 (18662400)
I0403 12:02:17.707947  8351 net.cpp:156] Memory required for data: 587609200
I0403 12:02:17.708014  8351 layer_factory.hpp:77] Creating layer norm2
I0403 12:02:17.708050  8351 net.cpp:91] Creating Layer norm2
I0403 12:02:17.708071  8351 net.cpp:425] norm2 <- conv2
I0403 12:02:17.708092  8351 net.cpp:399] norm2 -> norm2
I0403 12:02:17.708331  8351 net.cpp:141] Setting up norm2
I0403 12:02:17.708361  8351 net.cpp:148] Top shape: 100 256 27 27 (18662400)
I0403 12:02:17.708379  8351 net.cpp:156] Memory required for data: 662258800
I0403 12:02:17.708396  8351 layer_factory.hpp:77] Creating layer pool2
I0403 12:02:17.708420  8351 net.cpp:91] Creating Layer pool2
I0403 12:02:17.708439  8351 net.cpp:425] pool2 <- norm2
I0403 12:02:17.708459  8351 net.cpp:399] pool2 -> pool2
I0403 12:02:17.708523  8351 net.cpp:141] Setting up pool2
I0403 12:02:17.708555  8351 net.cpp:148] Top shape: 100 256 13 13 (4326400)
I0403 12:02:17.708573  8351 net.cpp:156] Memory required for data: 679564400
I0403 12:02:17.708591  8351 layer_factory.hpp:77] Creating layer conv3
I0403 12:02:17.708618  8351 net.cpp:91] Creating Layer conv3
I0403 12:02:17.708638  8351 net.cpp:425] conv3 <- pool2
I0403 12:02:17.708663  8351 net.cpp:399] conv3 -> conv3
I0403 12:02:17.755338  8351 net.cpp:141] Setting up conv3
I0403 12:02:17.755389  8351 net.cpp:148] Top shape: 100 384 13 13 (6489600)
I0403 12:02:17.755410  8351 net.cpp:156] Memory required for data: 705522800
I0403 12:02:17.755441  8351 layer_factory.hpp:77] Creating layer relu3
I0403 12:02:17.755467  8351 net.cpp:91] Creating Layer relu3
I0403 12:02:17.755487  8351 net.cpp:425] relu3 <- conv3
I0403 12:02:17.755508  8351 net.cpp:386] relu3 -> conv3 (in-place)
I0403 12:02:17.755841  8351 net.cpp:141] Setting up relu3
I0403 12:02:17.755878  8351 net.cpp:148] Top shape: 100 384 13 13 (6489600)
I0403 12:02:17.755899  8351 net.cpp:156] Memory required for data: 731481200
I0403 12:02:17.755918  8351 layer_factory.hpp:77] Creating layer conv4
I0403 12:02:17.755945  8351 net.cpp:91] Creating Layer conv4
I0403 12:02:17.755966  8351 net.cpp:425] conv4 <- conv3
I0403 12:02:17.755988  8351 net.cpp:399] conv4 -> conv4
I0403 12:02:17.792070  8351 net.cpp:141] Setting up conv4
I0403 12:02:17.792115  8351 net.cpp:148] Top shape: 100 384 13 13 (6489600)
I0403 12:02:17.792160  8351 net.cpp:156] Memory required for data: 757439600
I0403 12:02:17.792186  8351 layer_factory.hpp:77] Creating layer relu4
I0403 12:02:17.792214  8351 net.cpp:91] Creating Layer relu4
I0403 12:02:17.792235  8351 net.cpp:425] relu4 <- conv4
I0403 12:02:17.792258  8351 net.cpp:386] relu4 -> conv4 (in-place)
I0403 12:02:17.792592  8351 net.cpp:141] Setting up relu4
I0403 12:02:17.792623  8351 net.cpp:148] Top shape: 100 384 13 13 (6489600)
I0403 12:02:17.792642  8351 net.cpp:156] Memory required for data: 783398000
I0403 12:02:17.792660  8351 layer_factory.hpp:77] Creating layer conv5
I0403 12:02:17.792690  8351 net.cpp:91] Creating Layer conv5
I0403 12:02:17.792711  8351 net.cpp:425] conv5 <- conv4
I0403 12:02:17.792737  8351 net.cpp:399] conv5 -> conv5
I0403 12:02:17.817780  8351 net.cpp:141] Setting up conv5
I0403 12:02:17.817874  8351 net.cpp:148] Top shape: 100 256 13 13 (4326400)
I0403 12:02:17.817894  8351 net.cpp:156] Memory required for data: 800703600
I0403 12:02:17.817926  8351 layer_factory.hpp:77] Creating layer relu5
I0403 12:02:17.817960  8351 net.cpp:91] Creating Layer relu5
I0403 12:02:17.817983  8351 net.cpp:425] relu5 <- conv5
I0403 12:02:17.818007  8351 net.cpp:386] relu5 -> conv5 (in-place)
I0403 12:02:17.818343  8351 net.cpp:141] Setting up relu5
I0403 12:02:17.818378  8351 net.cpp:148] Top shape: 100 256 13 13 (4326400)
I0403 12:02:17.818398  8351 net.cpp:156] Memory required for data: 818009200
I0403 12:02:17.818415  8351 layer_factory.hpp:77] Creating layer pool5
I0403 12:02:17.818442  8351 net.cpp:91] Creating Layer pool5
I0403 12:02:17.818461  8351 net.cpp:425] pool5 <- conv5
I0403 12:02:17.818486  8351 net.cpp:399] pool5 -> pool5
I0403 12:02:17.818564  8351 net.cpp:141] Setting up pool5
I0403 12:02:17.818595  8351 net.cpp:148] Top shape: 100 256 6 6 (921600)
I0403 12:02:17.818614  8351 net.cpp:156] Memory required for data: 821695600
I0403 12:02:17.818631  8351 layer_factory.hpp:77] Creating layer fc6
I0403 12:02:17.818663  8351 net.cpp:91] Creating Layer fc6
I0403 12:02:17.818684  8351 net.cpp:425] fc6 <- pool5
I0403 12:02:17.818709  8351 net.cpp:399] fc6 -> fc6
I0403 12:02:19.385365  8351 net.cpp:141] Setting up fc6
I0403 12:02:19.385426  8351 net.cpp:148] Top shape: 100 4096 (409600)
I0403 12:02:19.385442  8351 net.cpp:156] Memory required for data: 823334000
I0403 12:02:19.385462  8351 layer_factory.hpp:77] Creating layer relu6
I0403 12:02:19.385485  8351 net.cpp:91] Creating Layer relu6
I0403 12:02:19.385504  8351 net.cpp:425] relu6 <- fc6
I0403 12:02:19.385522  8351 net.cpp:386] relu6 -> fc6 (in-place)
I0403 12:02:19.385747  8351 net.cpp:141] Setting up relu6
I0403 12:02:19.385771  8351 net.cpp:148] Top shape: 100 4096 (409600)
I0403 12:02:19.385787  8351 net.cpp:156] Memory required for data: 824972400
I0403 12:02:19.385800  8351 layer_factory.hpp:77] Creating layer drop6
I0403 12:02:19.385821  8351 net.cpp:91] Creating Layer drop6
I0403 12:02:19.385838  8351 net.cpp:425] drop6 <- fc6
I0403 12:02:19.385854  8351 net.cpp:386] drop6 -> fc6 (in-place)
I0403 12:02:19.385902  8351 net.cpp:141] Setting up drop6
I0403 12:02:19.385924  8351 net.cpp:148] Top shape: 100 4096 (409600)
I0403 12:02:19.385938  8351 net.cpp:156] Memory required for data: 826610800
I0403 12:02:19.385952  8351 layer_factory.hpp:77] Creating layer fc7
I0403 12:02:19.385973  8351 net.cpp:91] Creating Layer fc7
I0403 12:02:19.385988  8351 net.cpp:425] fc7 <- fc6
I0403 12:02:19.386006  8351 net.cpp:399] fc7 -> fc7
I0403 12:02:20.049962  8351 net.cpp:141] Setting up fc7
I0403 12:02:20.050004  8351 net.cpp:148] Top shape: 100 4096 (409600)
I0403 12:02:20.050021  8351 net.cpp:156] Memory required for data: 828249200
I0403 12:02:20.050040  8351 layer_factory.hpp:77] Creating layer relu7
I0403 12:02:20.050060  8351 net.cpp:91] Creating Layer relu7
I0403 12:02:20.050076  8351 net.cpp:425] relu7 <- fc7
I0403 12:02:20.050091  8351 net.cpp:386] relu7 -> fc7 (in-place)
I0403 12:02:20.050426  8351 net.cpp:141] Setting up relu7
I0403 12:02:20.050453  8351 net.cpp:148] Top shape: 100 4096 (409600)
I0403 12:02:20.050485  8351 net.cpp:156] Memory required for data: 829887600
I0403 12:02:20.050501  8351 layer_factory.hpp:77] Creating layer drop7
I0403 12:02:20.050519  8351 net.cpp:91] Creating Layer drop7
I0403 12:02:20.050534  8351 net.cpp:425] drop7 <- fc7
I0403 12:02:20.050555  8351 net.cpp:386] drop7 -> fc7 (in-place)
I0403 12:02:20.050597  8351 net.cpp:141] Setting up drop7
I0403 12:02:20.050619  8351 net.cpp:148] Top shape: 100 4096 (409600)
I0403 12:02:20.050633  8351 net.cpp:156] Memory required for data: 831526000
I0403 12:02:20.050647  8351 layer_factory.hpp:77] Creating layer fc8_plantvillage
I0403 12:02:20.050668  8351 net.cpp:91] Creating Layer fc8_plantvillage
I0403 12:02:20.050683  8351 net.cpp:425] fc8_plantvillage <- fc7
I0403 12:02:20.050700  8351 net.cpp:399] fc8_plantvillage -> fc8_plantvillage
I0403 12:02:20.057379  8351 net.cpp:141] Setting up fc8_plantvillage
I0403 12:02:20.057406  8351 net.cpp:148] Top shape: 100 38 (3800)
I0403 12:02:20.057421  8351 net.cpp:156] Memory required for data: 831541200
I0403 12:02:20.057438  8351 layer_factory.hpp:77] Creating layer fc8_plantvillage_fc8_plantvillage_0_split
I0403 12:02:20.057458  8351 net.cpp:91] Creating Layer fc8_plantvillage_fc8_plantvillage_0_split
I0403 12:02:20.057474  8351 net.cpp:425] fc8_plantvillage_fc8_plantvillage_0_split <- fc8_plantvillage
I0403 12:02:20.057492  8351 net.cpp:399] fc8_plantvillage_fc8_plantvillage_0_split -> fc8_plantvillage_fc8_plantvillage_0_split_0
I0403 12:02:20.057514  8351 net.cpp:399] fc8_plantvillage_fc8_plantvillage_0_split -> fc8_plantvillage_fc8_plantvillage_0_split_1
I0403 12:02:20.057533  8351 net.cpp:399] fc8_plantvillage_fc8_plantvillage_0_split -> fc8_plantvillage_fc8_plantvillage_0_split_2
I0403 12:02:20.057608  8351 net.cpp:141] Setting up fc8_plantvillage_fc8_plantvillage_0_split
I0403 12:02:20.057631  8351 net.cpp:148] Top shape: 100 38 (3800)
I0403 12:02:20.057646  8351 net.cpp:148] Top shape: 100 38 (3800)
I0403 12:02:20.057662  8351 net.cpp:148] Top shape: 100 38 (3800)
I0403 12:02:20.057682  8351 net.cpp:156] Memory required for data: 831586800
I0403 12:02:20.057696  8351 layer_factory.hpp:77] Creating layer prob
I0403 12:02:20.057715  8351 net.cpp:91] Creating Layer prob
I0403 12:02:20.057735  8351 net.cpp:425] prob <- fc8_plantvillage_fc8_plantvillage_0_split_0
I0403 12:02:20.057754  8351 net.cpp:399] prob -> prob
I0403 12:02:20.057970  8351 net.cpp:141] Setting up prob
I0403 12:02:20.057993  8351 net.cpp:148] Top shape: 100 38 (3800)
I0403 12:02:20.058017  8351 net.cpp:156] Memory required for data: 831602000
I0403 12:02:20.058032  8351 layer_factory.hpp:77] Creating layer hdf5out
I0403 12:02:20.058058  8351 net.cpp:91] Creating Layer hdf5out
I0403 12:02:20.058074  8351 net.cpp:425] hdf5out <- prob
I0403 12:02:20.058089  8351 net.cpp:425] hdf5out <- label_data_1_split_0
I0403 12:02:20.071293  8351 net.cpp:141] Setting up hdf5out
…
