…
I0403 02:30:37.040086  2204 net.cpp:313] The NetState phase (0) differed from the phase (1) specified by a rule in layer accuracy
I0403 02:30:37.040930  2204 net.cpp:49] Initializing net from parameters: 
state {
  phase: TRAIN
}
layer {
  name: "data"
  type: "Data"
  top: "data"
  top: "label"
  include {
    phase: TRAIN
  }
  transform_param {
    mirror: true
    crop_size: 227
    mean_file: "/home/mohanty/data/final_dataset/lmdb/segmented-50-50/mean.binaryproto"
  }
  data_param {
    source: "/home/mohanty/data/final_dataset/lmdb/segmented-50-50/train_db"
    batch_size: 100
    backend: LMDB
  }
}
layer {
  name: "conv1"
  type: "Convolution"
  bottom: "data"
  top: "conv1"
  param {
    lr_mult: 1
    decay_mult: 1
  }
  param {
    lr_mult: 2
    decay_mult: 0
  }
  convolution_param {
    num_output: 96
    kernel_size: 11
    stride: 4
    weight_filler {
      type: "gaussian"
      std: 0.01
    }
    bias_filler {
      type: "constant"
      value: 0
    }
  }
}
layer {
  name: "relu1"
  type: "ReLU"
  bottom: "conv1"
  top: "conv1"
}
layer {
  name: "norm1"
  type: "LRN"
  bottom: "conv1"
  top: "norm1"
  lrn_param {
    local_size: 5
    alpha: 0.0001
    beta: 0.75
  }
}
layer {
  name: "pool1"
  type: "Pooling"
  bottom: "norm1"
  top: "pool1"
  pooling_param {
    pool: MAX
    kernel_size: 3
    stride: 2
  }
}
layer {
  name: "conv2"
  type: "Convolution"
  bottom: "pool1"
  top: "conv2"
  param {
    lr_mult: 1
    decay_mult: 1
  }
  param {
    lr_mult: 2
    decay_mult: 0
  }
  convolution_param {
    num_output: 256
    pad: 2
    kernel_size: 5
    group: 2
    weight_filler {
      type: "gaussian"
      std: 0.01
    }
    bias_filler {
      type: "constant"
      value: 0.1
    }
  }
}
layer {
  name: "relu2"
  type: "ReLU"
  bottom: "conv2"
  top: "conv2"
}
layer {
  name: "norm2"
  type: "LRN"
  bottom: "conv2"
  top: "norm2"
  lrn_param {
    local_size: 5
    alpha: 0.0001
    beta: 0.75
  }
}
layer {
  name: "pool2"
  type: "Pooling"
  bottom: "norm2"
  top: "pool2"
  pooling_param {
    pool: MAX
    kernel_size: 3
    stride: 2
  }
}
layer {
  name: "conv3"
  type: "Convolution"
  bottom: "pool2"
  top: "conv3"
  param {
    lr_mult: 1
    decay_mult: 1
  }
  param {
    lr_mult: 2
    decay_mult: 0
  }
  convolution_param {
    num_output: 384
    pad: 1
    kernel_size: 3
    weight_filler {
      type: "gaussian"
      std: 0.01
    }
    bias_filler {
      type: "constant"
      value: 0
    }
  }
}
layer {
  name: "relu3"
  type: "ReLU"
  bottom: "conv3"
  top: "conv3"
}
layer {
  name: "conv4"
  type: "Convolution"
  bottom: "conv3"
  top: "conv4"
  param {
    lr_mult: 1
    decay_mult: 1
  }
  param {
    lr_mult: 2
    decay_mult: 0
  }
  convolution_param {
    num_output: 384
    pad: 1
    kernel_size: 3
    group: 2
    weight_filler {
      type: "gaussian"
      std: 0.01
    }
    bias_filler {
      type: "constant"
      value: 0.1
    }
  }
}
layer {
  name: "relu4"
  type: "ReLU"
  bottom: "conv4"
  top: "conv4"
}
layer {
  name: "conv5"
  type: "Convolution"
  bottom: "conv4"
  top: "conv5"
  param {
    lr_mult: 1
    decay_mult: 1
  }
  param {
    lr_mult: 2
    decay_mult: 0
  }
  convolution_param {
    num_output: 256
    pad: 1
    kernel_size: 3
    group: 2
    weight_filler {
      type: "gaussian"
      std: 0.01
    }
    bias_filler {
      type: "constant"
      value: 0.1
    }
  }
}
layer {
  name: "relu5"
  type: "ReLU"
  bottom: "conv5"
  top: "conv5"
}
layer {
  name: "pool5"
  type: "Pooling"
  bottom: "conv5"
  top: "pool5"
  pooling_param {
    pool: MAX
    kernel_size: 3
    stride: 2
  }
}
layer {
  name: "fc6"
  type: "InnerProduct"
  bottom: "pool5"
  top: "fc6"
  param {
    lr_mult: 1
    decay_mult: 1
  }
  param {
    lr_mult: 2
    decay_mult: 0
  }
  inner_product_param {
    num_output: 4096
    weight_filler {
      type: "gaussian"
      std: 0.005
    }
    bias_filler {
      type: "constant"
      value: 0.1
    }
  }
}
layer {
  name: "relu6"
  type: "ReLU"
  bottom: "fc6"
  top: "fc6"
}
layer {
  name: "drop6"
  type: "Dropout"
  bottom: "fc6"
  top: "fc6"
  dropout_param {
    dropout_ratio: 0.5
  }
}
layer {
  name: "fc7"
  type: "InnerProduct"
  bottom: "fc6"
  top: "fc7"
  param {
    lr_mult: 1
    decay_mult: 1
  }
  param {
    lr_mult: 2
    decay_mult: 0
  }
  inner_product_param {
    num_output: 4096
    weight_filler {
      type: "gaussian"
      std: 0.005
    }
    bias_filler {
      type: "constant"
      value: 0.1
    }
  }
}
layer {
  name: "relu7"
  type: "ReLU"
  bottom: "fc7"
  top: "fc7"
}
layer {
  name: "drop7"
  type: "Dropout"
  bottom: "fc7"
  top: "fc7"
  dropout_param {
    dropout_ratio: 0.5
  }
}
layer {
  name: "fc8_plantvillage"
  type: "InnerProduct"
  bottom: "fc7"
  top: "fc8_plantvillage"
  param {
    lr_mult: 1
    decay_mult: 1
  }
  param {
    lr_mult: 2
    decay_mult: 0
  }
  inner_product_param {
    num_output: 38
    weight_filler {
      type: "gaussian"
      std: 0.01
    }
    bias_filler {
      type: "constant"
      value: 0
    }
  }
}
layer {
  name: "loss"
  type: "SoftmaxWithLoss"
  bottom: "fc8_plantvillage"
  bottom: "label"
  top: "loss"
}
I0403 02:30:37.043359  2204 layer_factory.hpp:77] Creating layer data
I0403 02:30:37.044390  2204 net.cpp:91] Creating Layer data
I0403 02:30:37.044479  2204 net.cpp:399] data -> data
I0403 02:30:37.044600  2204 net.cpp:399] data -> label
I0403 02:30:37.044667  2204 data_transformer.cpp:25] Loading mean file from: /home/mohanty/data/final_dataset/lmdb/segmented-50-50/mean.binaryproto
I0403 02:30:37.077095  2210 db_lmdb.cpp:38] Opened lmdb /home/mohanty/data/final_dataset/lmdb/segmented-50-50/train_db
I0403 02:30:37.089654  2204 data_layer.cpp:41] output data size: 100,3,227,227
I0403 02:30:37.231173  2204 net.cpp:141] Setting up data
I0403 02:30:37.231295  2204 net.cpp:148] Top shape: 100 3 227 227 (15458700)
I0403 02:30:37.231323  2204 net.cpp:148] Top shape: 100 (100)
I0403 02:30:37.231340  2204 net.cpp:156] Memory required for data: 61835200
I0403 02:30:37.231376  2204 layer_factory.hpp:77] Creating layer conv1
I0403 02:30:37.231431  2204 net.cpp:91] Creating Layer conv1
I0403 02:30:37.231461  2204 net.cpp:425] conv1 <- data
I0403 02:30:37.231497  2204 net.cpp:399] conv1 -> conv1
I0403 02:30:37.241098  2204 net.cpp:141] Setting up conv1
I0403 02:30:37.241137  2204 net.cpp:148] Top shape: 100 96 55 55 (29040000)
I0403 02:30:37.241156  2204 net.cpp:156] Memory required for data: 177995200
I0403 02:30:37.241199  2204 layer_factory.hpp:77] Creating layer relu1
I0403 02:30:37.241231  2204 net.cpp:91] Creating Layer relu1
I0403 02:30:37.241251  2204 net.cpp:425] relu1 <- conv1
I0403 02:30:37.241274  2204 net.cpp:386] relu1 -> conv1 (in-place)
I0403 02:30:37.241322  2204 net.cpp:141] Setting up relu1
I0403 02:30:37.241358  2204 net.cpp:148] Top shape: 100 96 55 55 (29040000)
I0403 02:30:37.241397  2204 net.cpp:156] Memory required for data: 294155200
I0403 02:30:37.241417  2204 layer_factory.hpp:77] Creating layer norm1
I0403 02:30:37.241451  2204 net.cpp:91] Creating Layer norm1
I0403 02:30:37.241524  2204 net.cpp:425] norm1 <- conv1
I0403 02:30:37.241549  2204 net.cpp:399] norm1 -> norm1
I0403 02:30:37.241618  2204 net.cpp:141] Setting up norm1
I0403 02:30:37.241667  2204 net.cpp:148] Top shape: 100 96 55 55 (29040000)
I0403 02:30:37.241714  2204 net.cpp:156] Memory required for data: 410315200
I0403 02:30:37.241770  2204 layer_factory.hpp:77] Creating layer pool1
I0403 02:30:37.241827  2204 net.cpp:91] Creating Layer pool1
I0403 02:30:37.241873  2204 net.cpp:425] pool1 <- norm1
I0403 02:30:37.241925  2204 net.cpp:399] pool1 -> pool1
I0403 02:30:37.241996  2204 net.cpp:141] Setting up pool1
I0403 02:30:37.242024  2204 net.cpp:148] Top shape: 100 96 27 27 (6998400)
I0403 02:30:37.242041  2204 net.cpp:156] Memory required for data: 438308800
I0403 02:30:37.242058  2204 layer_factory.hpp:77] Creating layer conv2
I0403 02:30:37.242085  2204 net.cpp:91] Creating Layer conv2
I0403 02:30:37.242105  2204 net.cpp:425] conv2 <- pool1
I0403 02:30:37.242130  2204 net.cpp:399] conv2 -> conv2
I0403 02:30:37.242563  2212 blocking_queue.cpp:50] Waiting for data
I0403 02:30:37.257823  2204 net.cpp:141] Setting up conv2
I0403 02:30:37.257861  2204 net.cpp:148] Top shape: 100 256 27 27 (18662400)
I0403 02:30:37.257880  2204 net.cpp:156] Memory required for data: 512958400
I0403 02:30:37.257906  2204 layer_factory.hpp:77] Creating layer relu2
I0403 02:30:37.257931  2204 net.cpp:91] Creating Layer relu2
I0403 02:30:37.257951  2204 net.cpp:425] relu2 <- conv2
I0403 02:30:37.257972  2204 net.cpp:386] relu2 -> conv2 (in-place)
I0403 02:30:37.257994  2204 net.cpp:141] Setting up relu2
I0403 02:30:37.258015  2204 net.cpp:148] Top shape: 100 256 27 27 (18662400)
I0403 02:30:37.258033  2204 net.cpp:156] Memory required for data: 587608000
I0403 02:30:37.258049  2204 layer_factory.hpp:77] Creating layer norm2
I0403 02:30:37.258071  2204 net.cpp:91] Creating Layer norm2
I0403 02:30:37.258092  2204 net.cpp:425] norm2 <- conv2
I0403 02:30:37.258114  2204 net.cpp:399] norm2 -> norm2
I0403 02:30:37.258173  2204 net.cpp:141] Setting up norm2
I0403 02:30:37.258200  2204 net.cpp:148] Top shape: 100 256 27 27 (18662400)
I0403 02:30:37.258219  2204 net.cpp:156] Memory required for data: 662257600
I0403 02:30:37.258237  2204 layer_factory.hpp:77] Creating layer pool2
I0403 02:30:37.258262  2204 net.cpp:91] Creating Layer pool2
I0403 02:30:37.258282  2204 net.cpp:425] pool2 <- norm2
I0403 02:30:37.258303  2204 net.cpp:399] pool2 -> pool2
I0403 02:30:37.258358  2204 net.cpp:141] Setting up pool2
I0403 02:30:37.258384  2204 net.cpp:148] Top shape: 100 256 13 13 (4326400)
I0403 02:30:37.258404  2204 net.cpp:156] Memory required for data: 679563200
I0403 02:30:37.258420  2204 layer_factory.hpp:77] Creating layer conv3
I0403 02:30:37.258445  2204 net.cpp:91] Creating Layer conv3
I0403 02:30:37.258466  2204 net.cpp:425] conv3 <- pool2
I0403 02:30:37.258488  2204 net.cpp:399] conv3 -> conv3
I0403 02:30:37.300122  2204 net.cpp:141] Setting up conv3
I0403 02:30:37.300163  2204 net.cpp:148] Top shape: 100 384 13 13 (6489600)
I0403 02:30:37.300184  2204 net.cpp:156] Memory required for data: 705521600
I0403 02:30:37.300209  2204 layer_factory.hpp:77] Creating layer relu3
I0403 02:30:37.300231  2204 net.cpp:91] Creating Layer relu3
I0403 02:30:37.300251  2204 net.cpp:425] relu3 <- conv3
I0403 02:30:37.300273  2204 net.cpp:386] relu3 -> conv3 (in-place)
I0403 02:30:37.300297  2204 net.cpp:141] Setting up relu3
I0403 02:30:37.300318  2204 net.cpp:148] Top shape: 100 384 13 13 (6489600)
I0403 02:30:37.300335  2204 net.cpp:156] Memory required for data: 731480000
I0403 02:30:37.300353  2204 layer_factory.hpp:77] Creating layer conv4
I0403 02:30:37.300377  2204 net.cpp:91] Creating Layer conv4
I0403 02:30:37.300397  2204 net.cpp:425] conv4 <- conv3
I0403 02:30:37.300421  2204 net.cpp:399] conv4 -> conv4
I0403 02:30:37.331774  2204 net.cpp:141] Setting up conv4
I0403 02:30:37.331812  2204 net.cpp:148] Top shape: 100 384 13 13 (6489600)
I0403 02:30:37.331832  2204 net.cpp:156] Memory required for data: 757438400
I0403 02:30:37.331876  2204 layer_factory.hpp:77] Creating layer relu4
I0403 02:30:37.331899  2204 net.cpp:91] Creating Layer relu4
I0403 02:30:37.331918  2204 net.cpp:425] relu4 <- conv4
I0403 02:30:37.331939  2204 net.cpp:386] relu4 -> conv4 (in-place)
I0403 02:30:37.331962  2204 net.cpp:141] Setting up relu4
I0403 02:30:37.331982  2204 net.cpp:148] Top shape: 100 384 13 13 (6489600)
I0403 02:30:37.332000  2204 net.cpp:156] Memory required for data: 783396800
I0403 02:30:37.332017  2204 layer_factory.hpp:77] Creating layer conv5
I0403 02:30:37.332043  2204 net.cpp:91] Creating Layer conv5
I0403 02:30:37.332062  2204 net.cpp:425] conv5 <- conv4
I0403 02:30:37.332087  2204 net.cpp:399] conv5 -> conv5
I0403 02:30:37.353099  2204 net.cpp:141] Setting up conv5
I0403 02:30:37.353137  2204 net.cpp:148] Top shape: 100 256 13 13 (4326400)
I0403 02:30:37.353157  2204 net.cpp:156] Memory required for data: 800702400
I0403 02:30:37.353183  2204 layer_factory.hpp:77] Creating layer relu5
I0403 02:30:37.353206  2204 net.cpp:91] Creating Layer relu5
I0403 02:30:37.353225  2204 net.cpp:425] relu5 <- conv5
I0403 02:30:37.353246  2204 net.cpp:386] relu5 -> conv5 (in-place)
I0403 02:30:37.353271  2204 net.cpp:141] Setting up relu5
I0403 02:30:37.353291  2204 net.cpp:148] Top shape: 100 256 13 13 (4326400)
I0403 02:30:37.353308  2204 net.cpp:156] Memory required for data: 818008000
I0403 02:30:37.353327  2204 layer_factory.hpp:77] Creating layer pool5
I0403 02:30:37.353348  2204 net.cpp:91] Creating Layer pool5
I0403 02:30:37.353366  2204 net.cpp:425] pool5 <- conv5
I0403 02:30:37.353387  2204 net.cpp:399] pool5 -> pool5
I0403 02:30:37.353446  2204 net.cpp:141] Setting up pool5
I0403 02:30:37.353476  2204 net.cpp:148] Top shape: 100 256 6 6 (921600)
I0403 02:30:37.353493  2204 net.cpp:156] Memory required for data: 821694400
I0403 02:30:37.353513  2204 layer_factory.hpp:77] Creating layer fc6
I0403 02:30:37.353562  2204 net.cpp:91] Creating Layer fc6
I0403 02:30:37.353586  2204 net.cpp:425] fc6 <- pool5
I0403 02:30:37.353612  2204 net.cpp:399] fc6 -> fc6
I0403 02:30:38.871573  2204 net.cpp:141] Setting up fc6
I0403 02:30:38.871678  2204 net.cpp:148] Top shape: 100 4096 (409600)
I0403 02:30:38.871693  2204 net.cpp:156] Memory required for data: 823332800
I0403 02:30:38.871716  2204 layer_factory.hpp:77] Creating layer relu6
I0403 02:30:38.871737  2204 net.cpp:91] Creating Layer relu6
I0403 02:30:38.871753  2204 net.cpp:425] relu6 <- fc6
I0403 02:30:38.871779  2204 net.cpp:386] relu6 -> fc6 (in-place)
I0403 02:30:38.871803  2204 net.cpp:141] Setting up relu6
I0403 02:30:38.871819  2204 net.cpp:148] Top shape: 100 4096 (409600)
I0403 02:30:38.871831  2204 net.cpp:156] Memory required for data: 824971200
I0403 02:30:38.871843  2204 layer_factory.hpp:77] Creating layer drop6
I0403 02:30:38.871898  2204 net.cpp:91] Creating Layer drop6
I0403 02:30:38.871917  2204 net.cpp:425] drop6 <- fc6
I0403 02:30:38.871935  2204 net.cpp:386] drop6 -> fc6 (in-place)
I0403 02:30:38.871992  2204 net.cpp:141] Setting up drop6
I0403 02:30:38.872014  2204 net.cpp:148] Top shape: 100 4096 (409600)
I0403 02:30:38.872026  2204 net.cpp:156] Memory required for data: 826609600
I0403 02:30:38.872041  2204 layer_factory.hpp:77] Creating layer fc7
I0403 02:30:38.872063  2204 net.cpp:91] Creating Layer fc7
I0403 02:30:38.872078  2204 net.cpp:425] fc7 <- fc6
I0403 02:30:38.872095  2204 net.cpp:399] fc7 -> fc7
I0403 02:30:39.473186  2204 net.cpp:141] Setting up fc7
I0403 02:30:39.473283  2204 net.cpp:148] Top shape: 100 4096 (409600)
I0403 02:30:39.473299  2204 net.cpp:156] Memory required for data: 828248000
I0403 02:30:39.473320  2204 layer_factory.hpp:77] Creating layer relu7
I0403 02:30:39.473343  2204 net.cpp:91] Creating Layer relu7
I0403 02:30:39.473358  2204 net.cpp:425] relu7 <- fc7
I0403 02:30:39.473377  2204 net.cpp:386] relu7 -> fc7 (in-place)
I0403 02:30:39.473398  2204 net.cpp:141] Setting up relu7
I0403 02:30:39.473414  2204 net.cpp:148] Top shape: 100 4096 (409600)
I0403 02:30:39.473426  2204 net.cpp:156] Memory required for data: 829886400
I0403 02:30:39.473439  2204 layer_factory.hpp:77] Creating layer drop7
I0403 02:30:39.473497  2204 net.cpp:91] Creating Layer drop7
I0403 02:30:39.473515  2204 net.cpp:425] drop7 <- fc7
I0403 02:30:39.473541  2204 net.cpp:386] drop7 -> fc7 (in-place)
I0403 02:30:39.473578  2204 net.cpp:141] Setting up drop7
I0403 02:30:39.473600  2204 net.cpp:148] Top shape: 100 4096 (409600)
I0403 02:30:39.473614  2204 net.cpp:156] Memory required for data: 831524800
I0403 02:30:39.473626  2204 layer_factory.hpp:77] Creating layer fc8_plantvillage
I0403 02:30:39.473646  2204 net.cpp:91] Creating Layer fc8_plantvillage
I0403 02:30:39.473660  2204 net.cpp:425] fc8_plantvillage <- fc7
I0403 02:30:39.473680  2204 net.cpp:399] fc8_plantvillage -> fc8_plantvillage
I0403 02:30:39.479648  2204 net.cpp:141] Setting up fc8_plantvillage
I0403 02:30:39.479676  2204 net.cpp:148] Top shape: 100 38 (3800)
I0403 02:30:39.479691  2204 net.cpp:156] Memory required for data: 831540000
I0403 02:30:39.479707  2204 layer_factory.hpp:77] Creating layer loss
I0403 02:30:39.479754  2204 net.cpp:91] Creating Layer loss
I0403 02:30:39.479775  2204 net.cpp:425] loss <- fc8_plantvillage
I0403 02:30:39.479791  2204 net.cpp:425] loss <- label
I0403 02:30:39.479815  2204 net.cpp:399] loss -> loss
I0403 02:30:39.479851  2204 layer_factory.hpp:77] Creating layer loss
…
I0403 02:30:39.481586  2204 net.cpp:313] The NetState phase (1) differed from the phase (0) specified by a rule in layer data
I0403 02:30:39.482223  2204 net.cpp:49] Initializing net from parameters: 
state {
  phase: TEST
}
layer {
  name: "data"
  type: "Data"
  top: "data"
  top: "label"
  include {
    phase: TEST
  }
  transform_param {
    crop_size: 227
    mean_file: "/home/mohanty/data/final_dataset/lmdb/segmented-50-50/mean.binaryproto"
  }
  data_param {
    source: "/home/mohanty/data/final_dataset/lmdb/segmented-50-50/test_db"
    batch_size: 100
    backend: LMDB
  }
}
layer {
  name: "conv1"
  type: "Convolution"
  bottom: "data"
  top: "conv1"
  param {
    lr_mult: 1
    decay_mult: 1
  }
  param {
    lr_mult: 2
    decay_mult: 0
  }
  convolution_param {
    num_output: 96
    kernel_size: 11
    stride: 4
    weight_filler {
      type: "gaussian"
      std: 0.01
    }
    bias_filler {
      type: "constant"
      value: 0
    }
  }
}
layer {
  name: "relu1"
  type: "ReLU"
  bottom: "conv1"
  top: "conv1"
}
layer {
  name: "norm1"
  type: "LRN"
  bottom: "conv1"
  top: "norm1"
  lrn_param {
    local_size: 5
    alpha: 0.0001
    beta: 0.75
  }
}
layer {
  name: "pool1"
  type: "Pooling"
  bottom: "norm1"
  top: "pool1"
  pooling_param {
    pool: MAX
    kernel_size: 3
    stride: 2
  }
}
layer {
  name: "conv2"
  type: "Convolution"
  bottom: "pool1"
  top: "conv2"
  param {
    lr_mult: 1
    decay_mult: 1
  }
  param {
    lr_mult: 2
    decay_mult: 0
  }
  convolution_param {
    num_output: 256
    pad: 2
    kernel_size: 5
    group: 2
    weight_filler {
      type: "gaussian"
      std: 0.01
    }
    bias_filler {
      type: "constant"
      value: 0.1
    }
  }
}
layer {
  name: "relu2"
  type: "ReLU"
  bottom: "conv2"
  top: "conv2"
}
layer {
  name: "norm2"
  type: "LRN"
  bottom: "conv2"
  top: "norm2"
  lrn_param {
    local_size: 5
    alpha: 0.0001
    beta: 0.75
  }
}
layer {
  name: "pool2"
  type: "Pooling"
  bottom: "norm2"
  top: "pool2"
  pooling_param {
    pool: MAX
    kernel_size: 3
    stride: 2
  }
}
layer {
  name: "conv3"
  type: "Convolution"
  bottom: "pool2"
  top: "conv3"
  param {
    lr_mult: 1
    decay_mult: 1
  }
  param {
    lr_mult: 2
    decay_mult: 0
  }
  convolution_param {
    num_output: 384
    pad: 1
    kernel_size: 3
    weight_filler {
      type: "gaussian"
      std: 0.01
    }
    bias_filler {
      type: "constant"
      value: 0
    }
  }
}
layer {
  name: "relu3"
  type: "ReLU"
  bottom: "conv3"
  top: "conv3"
}
layer {
  name: "conv4"
  type: "Convolution"
  bottom: "conv3"
  top: "conv4"
  param {
    lr_mult: 1
    decay_mult: 1
  }
  param {
    lr_mult: 2
    decay_mult: 0
  }
  convolution_param {
    num_output: 384
    pad: 1
    kernel_size: 3
    group: 2
    weight_filler {
      type: "gaussian"
      std: 0.01
    }
    bias_filler {
      type: "constant"
      value: 0.1
    }
  }
}
layer {
  name: "relu4"
  type: "ReLU"
  bottom: "conv4"
  top: "conv4"
}
layer {
  name: "conv5"
  type: "Convolution"
  bottom: "conv4"
  top: "conv5"
  param {
    lr_mult: 1
    decay_mult: 1
  }
  param {
    lr_mult: 2
    decay_mult: 0
  }
  convolution_param {
    num_output: 256
    pad: 1
    kernel_size: 3
    group: 2
    weight_filler {
      type: "gaussian"
      std: 0.01
    }
    bias_filler {
      type: "constant"
      value: 0.1
    }
  }
}
layer {
  name: "relu5"
  type: "ReLU"
  bottom: "conv5"
  top: "conv5"
}
layer {
  name: "pool5"
  type: "Pooling"
  bottom: "conv5"
  top: "pool5"
  pooling_param {
    pool: MAX
    kernel_size: 3
    stride: 2
  }
}
layer {
  name: "fc6"
  type: "InnerProduct"
  bottom: "pool5"
  top: "fc6"
  param {
    lr_mult: 1
    decay_mult: 1
  }
  param {
    lr_mult: 2
    decay_mult: 0
  }
  inner_product_param {
    num_output: 4096
    weight_filler {
      type: "gaussian"
      std: 0.005
    }
    bias_filler {
      type: "constant"
      value: 0.1
    }
  }
}
layer {
  name: "relu6"
  type: "ReLU"
  bottom: "fc6"
  top: "fc6"
}
layer {
  name: "drop6"
  type: "Dropout"
  bottom: "fc6"
  top: "fc6"
  dropout_param {
    dropout_ratio: 0.5
  }
}
layer {
  name: "fc7"
  type: "InnerProduct"
  bottom: "fc6"
  top: "fc7"
  param {
    lr_mult: 1
    decay_mult: 1
  }
  param {
    lr_mult: 2
    decay_mult: 0
  }
  inner_product_param {
    num_output: 4096
    weight_filler {
      type: "gaussian"
      std: 0.005
    }
    bias_filler {
      type: "constant"
      value: 0.1
    }
  }
}
layer {
  name: "relu7"
  type: "ReLU"
  bottom: "fc7"
  top: "fc7"
}
layer {
  name: "drop7"
  type: "Dropout"
  bottom: "fc7"
  top: "fc7"
  dropout_param {
    dropout_ratio: 0.5
  }
}
layer {
  name: "fc8_plantvillage"
  type: "InnerProduct"
  bottom: "fc7"
  top: "fc8_plantvillage"
  param {
    lr_mult: 1
    decay_mult: 1
  }
  param {
    lr_mult: 2
    decay_mult: 0
  }
  inner_product_param {
    num_output: 38
    weight_filler {
      type: "gaussian"
      std: 0.01
    }
    bias_filler {
      type: "constant"
      value: 0
    }
  }
}
layer {
  name: "loss"
  type: "SoftmaxWithLoss"
  bottom: "fc8_plantvillage"
  bottom: "label"
  top: "loss"
}
layer {
  name: "accuracy"
  type: "Accuracy"
  bottom: "fc8_plantvillage"
  bottom: "label"
  top: "accuracy"
  include {
    phase: TEST
  }
}
I0403 02:30:39.482393  2204 layer_factory.hpp:77] Creating layer data
I0403 02:30:39.482555  2204 net.cpp:91] Creating Layer data
I0403 02:30:39.482580  2204 net.cpp:399] data -> data
I0403 02:30:39.482605  2204 net.cpp:399] data -> label
I0403 02:30:39.482628  2204 data_transformer.cpp:25] Loading mean file from: /home/mohanty/data/final_dataset/lmdb/segmented-50-50/mean.binaryproto
I0403 02:30:39.504396  2214 db_lmdb.cpp:38] Opened lmdb /home/mohanty/data/final_dataset/lmdb/segmented-50-50/test_db
I0403 02:30:39.507378  2204 data_layer.cpp:41] output data size: 100,3,227,227
I0403 02:30:39.653698  2204 net.cpp:141] Setting up data
I0403 02:30:39.653777  2204 net.cpp:148] Top shape: 100 3 227 227 (15458700)
I0403 02:30:39.653803  2204 net.cpp:148] Top shape: 100 (100)
I0403 02:30:39.653820  2204 net.cpp:156] Memory required for data: 61835200
I0403 02:30:39.653839  2204 layer_factory.hpp:77] Creating layer label_data_1_split
I0403 02:30:39.653869  2204 net.cpp:91] Creating Layer label_data_1_split
I0403 02:30:39.653887  2204 net.cpp:425] label_data_1_split <- label
I0403 02:30:39.653908  2204 net.cpp:399] label_data_1_split -> label_data_1_split_0
I0403 02:30:39.653934  2204 net.cpp:399] label_data_1_split -> label_data_1_split_1
I0403 02:30:39.653992  2204 net.cpp:141] Setting up label_data_1_split
I0403 02:30:39.654018  2204 net.cpp:148] Top shape: 100 (100)
I0403 02:30:39.654034  2204 net.cpp:148] Top shape: 100 (100)
I0403 02:30:39.654049  2204 net.cpp:156] Memory required for data: 61836000
I0403 02:30:39.654064  2204 layer_factory.hpp:77] Creating layer conv1
I0403 02:30:39.654091  2204 net.cpp:91] Creating Layer conv1
I0403 02:30:39.654110  2204 net.cpp:425] conv1 <- data
I0403 02:30:39.654132  2204 net.cpp:399] conv1 -> conv1
I0403 02:30:39.655750  2204 net.cpp:141] Setting up conv1
I0403 02:30:39.655777  2204 net.cpp:148] Top shape: 100 96 55 55 (29040000)
I0403 02:30:39.655798  2204 net.cpp:156] Memory required for data: 177996000
I0403 02:30:39.655823  2204 layer_factory.hpp:77] Creating layer relu1
I0403 02:30:39.655844  2204 net.cpp:91] Creating Layer relu1
I0403 02:30:39.655861  2204 net.cpp:425] relu1 <- conv1
I0403 02:30:39.655879  2204 net.cpp:386] relu1 -> conv1 (in-place)
I0403 02:30:39.655899  2204 net.cpp:141] Setting up relu1
I0403 02:30:39.655915  2204 net.cpp:148] Top shape: 100 96 55 55 (29040000)
I0403 02:30:39.655930  2204 net.cpp:156] Memory required for data: 294156000
I0403 02:30:39.655944  2204 layer_factory.hpp:77] Creating layer norm1
I0403 02:30:39.655966  2204 net.cpp:91] Creating Layer norm1
I0403 02:30:39.655982  2204 net.cpp:425] norm1 <- conv1
I0403 02:30:39.655999  2204 net.cpp:399] norm1 -> norm1
I0403 02:30:39.661799  2204 net.cpp:141] Setting up norm1
I0403 02:30:39.661839  2204 net.cpp:148] Top shape: 100 96 55 55 (29040000)
I0403 02:30:39.661856  2204 net.cpp:156] Memory required for data: 410316000
I0403 02:30:39.661871  2204 layer_factory.hpp:77] Creating layer pool1
I0403 02:30:39.661892  2204 net.cpp:91] Creating Layer pool1
I0403 02:30:39.661908  2204 net.cpp:425] pool1 <- norm1
I0403 02:30:39.661927  2204 net.cpp:399] pool1 -> pool1
I0403 02:30:39.661979  2204 net.cpp:141] Setting up pool1
I0403 02:30:39.662003  2204 net.cpp:148] Top shape: 100 96 27 27 (6998400)
I0403 02:30:39.662017  2204 net.cpp:156] Memory required for data: 438309600
I0403 02:30:39.662062  2204 layer_factory.hpp:77] Creating layer conv2
I0403 02:30:39.662086  2204 net.cpp:91] Creating Layer conv2
I0403 02:30:39.662103  2204 net.cpp:425] conv2 <- pool1
I0403 02:30:39.662123  2204 net.cpp:399] conv2 -> conv2
I0403 02:30:39.674777  2204 net.cpp:141] Setting up conv2
I0403 02:30:39.674819  2204 net.cpp:148] Top shape: 100 256 27 27 (18662400)
I0403 02:30:39.674849  2204 net.cpp:156] Memory required for data: 512959200
I0403 02:30:39.674870  2204 layer_factory.hpp:77] Creating layer relu2
I0403 02:30:39.674888  2204 net.cpp:91] Creating Layer relu2
I0403 02:30:39.674904  2204 net.cpp:425] relu2 <- conv2
I0403 02:30:39.674921  2204 net.cpp:386] relu2 -> conv2 (in-place)
I0403 02:30:39.674939  2204 net.cpp:141] Setting up relu2
I0403 02:30:39.674960  2204 net.cpp:148] Top shape: 100 256 27 27 (18662400)
I0403 02:30:39.674981  2204 net.cpp:156] Memory required for data: 587608800
I0403 02:30:39.674995  2204 layer_factory.hpp:77] Creating layer norm2
I0403 02:30:39.675014  2204 net.cpp:91] Creating Layer norm2
I0403 02:30:39.675029  2204 net.cpp:425] norm2 <- conv2
I0403 02:30:39.675046  2204 net.cpp:399] norm2 -> norm2
I0403 02:30:39.675094  2204 net.cpp:141] Setting up norm2
I0403 02:30:39.675117  2204 net.cpp:148] Top shape: 100 256 27 27 (18662400)
I0403 02:30:39.675130  2204 net.cpp:156] Memory required for data: 662258400
I0403 02:30:39.675145  2204 layer_factory.hpp:77] Creating layer pool2
I0403 02:30:39.675163  2204 net.cpp:91] Creating Layer pool2
I0403 02:30:39.675176  2204 net.cpp:425] pool2 <- norm2
I0403 02:30:39.675194  2204 net.cpp:399] pool2 -> pool2
I0403 02:30:39.675238  2204 net.cpp:141] Setting up pool2
I0403 02:30:39.675259  2204 net.cpp:148] Top shape: 100 256 13 13 (4326400)
I0403 02:30:39.675273  2204 net.cpp:156] Memory required for data: 679564000
I0403 02:30:39.675288  2204 layer_factory.hpp:77] Creating layer conv3
I0403 02:30:39.675309  2204 net.cpp:91] Creating Layer conv3
I0403 02:30:39.675325  2204 net.cpp:425] conv3 <- pool2
I0403 02:30:39.675343  2204 net.cpp:399] conv3 -> conv3
I0403 02:30:39.709532  2204 net.cpp:141] Setting up conv3
I0403 02:30:39.709592  2204 net.cpp:148] Top shape: 100 384 13 13 (6489600)
I0403 02:30:39.709609  2204 net.cpp:156] Memory required for data: 705522400
I0403 02:30:39.709633  2204 layer_factory.hpp:77] Creating layer relu3
I0403 02:30:39.709656  2204 net.cpp:91] Creating Layer relu3
I0403 02:30:39.709673  2204 net.cpp:425] relu3 <- conv3
I0403 02:30:39.709692  2204 net.cpp:386] relu3 -> conv3 (in-place)
I0403 02:30:39.709710  2204 net.cpp:141] Setting up relu3
I0403 02:30:39.709728  2204 net.cpp:148] Top shape: 100 384 13 13 (6489600)
I0403 02:30:39.709740  2204 net.cpp:156] Memory required for data: 731480800
I0403 02:30:39.709754  2204 layer_factory.hpp:77] Creating layer conv4
I0403 02:30:39.709776  2204 net.cpp:91] Creating Layer conv4
I0403 02:30:39.709796  2204 net.cpp:425] conv4 <- conv3
I0403 02:30:39.709816  2204 net.cpp:399] conv4 -> conv4
I0403 02:30:39.735549  2204 net.cpp:141] Setting up conv4
I0403 02:30:39.735589  2204 net.cpp:148] Top shape: 100 384 13 13 (6489600)
I0403 02:30:39.735605  2204 net.cpp:156] Memory required for data: 757439200
I0403 02:30:39.735621  2204 layer_factory.hpp:77] Creating layer relu4
I0403 02:30:39.735641  2204 net.cpp:91] Creating Layer relu4
I0403 02:30:39.735656  2204 net.cpp:425] relu4 <- conv4
I0403 02:30:39.735677  2204 net.cpp:386] relu4 -> conv4 (in-place)
I0403 02:30:39.735704  2204 net.cpp:141] Setting up relu4
I0403 02:30:39.735726  2204 net.cpp:148] Top shape: 100 384 13 13 (6489600)
I0403 02:30:39.735740  2204 net.cpp:156] Memory required for data: 783397600
I0403 02:30:39.735754  2204 layer_factory.hpp:77] Creating layer conv5
I0403 02:30:39.735775  2204 net.cpp:91] Creating Layer conv5
I0403 02:30:39.735795  2204 net.cpp:425] conv5 <- conv4
I0403 02:30:39.735815  2204 net.cpp:399] conv5 -> conv5
I0403 02:30:39.752692  2204 net.cpp:141] Setting up conv5
I0403 02:30:39.752724  2204 net.cpp:148] Top shape: 100 256 13 13 (4326400)
I0403 02:30:39.752768  2204 net.cpp:156] Memory required for data: 800703200
I0403 02:30:39.752794  2204 layer_factory.hpp:77] Creating layer relu5
I0403 02:30:39.752813  2204 net.cpp:91] Creating Layer relu5
I0403 02:30:39.752830  2204 net.cpp:425] relu5 <- conv5
I0403 02:30:39.752846  2204 net.cpp:386] relu5 -> conv5 (in-place)
I0403 02:30:39.752864  2204 net.cpp:141] Setting up relu5
I0403 02:30:39.752881  2204 net.cpp:148] Top shape: 100 256 13 13 (4326400)
I0403 02:30:39.752892  2204 net.cpp:156] Memory required for data: 818008800
I0403 02:30:39.752907  2204 layer_factory.hpp:77] Creating layer pool5
I0403 02:30:39.752926  2204 net.cpp:91] Creating Layer pool5
I0403 02:30:39.752941  2204 net.cpp:425] pool5 <- conv5
I0403 02:30:39.752961  2204 net.cpp:399] pool5 -> pool5
I0403 02:30:39.753013  2204 net.cpp:141] Setting up pool5
I0403 02:30:39.753036  2204 net.cpp:148] Top shape: 100 256 6 6 (921600)
I0403 02:30:39.753051  2204 net.cpp:156] Memory required for data: 821695200
I0403 02:30:39.753063  2204 layer_factory.hpp:77] Creating layer fc6
I0403 02:30:39.753085  2204 net.cpp:91] Creating Layer fc6
I0403 02:30:39.753101  2204 net.cpp:425] fc6 <- pool5
I0403 02:30:39.753121  2204 net.cpp:399] fc6 -> fc6
I0403 02:30:41.191951  2204 net.cpp:141] Setting up fc6
I0403 02:30:41.192059  2204 net.cpp:148] Top shape: 100 4096 (409600)
I0403 02:30:41.192075  2204 net.cpp:156] Memory required for data: 823333600
I0403 02:30:41.192097  2204 layer_factory.hpp:77] Creating layer relu6
I0403 02:30:41.192122  2204 net.cpp:91] Creating Layer relu6
I0403 02:30:41.192139  2204 net.cpp:425] relu6 <- fc6
I0403 02:30:41.192162  2204 net.cpp:386] relu6 -> fc6 (in-place)
I0403 02:30:41.192183  2204 net.cpp:141] Setting up relu6
I0403 02:30:41.192200  2204 net.cpp:148] Top shape: 100 4096 (409600)
I0403 02:30:41.192214  2204 net.cpp:156] Memory required for data: 824972000
I0403 02:30:41.192227  2204 layer_factory.hpp:77] Creating layer drop6
I0403 02:30:41.192245  2204 net.cpp:91] Creating Layer drop6
I0403 02:30:41.192260  2204 net.cpp:425] drop6 <- fc6
I0403 02:30:41.192278  2204 net.cpp:386] drop6 -> fc6 (in-place)
I0403 02:30:41.192318  2204 net.cpp:141] Setting up drop6
I0403 02:30:41.192340  2204 net.cpp:148] Top shape: 100 4096 (409600)
I0403 02:30:41.192354  2204 net.cpp:156] Memory required for data: 826610400
I0403 02:30:41.192368  2204 layer_factory.hpp:77] Creating layer fc7
I0403 02:30:41.192402  2204 net.cpp:91] Creating Layer fc7
I0403 02:30:41.192419  2204 net.cpp:425] fc7 <- fc6
I0403 02:30:41.192435  2204 net.cpp:399] fc7 -> fc7
I0403 02:30:41.809087  2204 net.cpp:141] Setting up fc7
I0403 02:30:41.809185  2204 net.cpp:148] Top shape: 100 4096 (409600)
I0403 02:30:41.809201  2204 net.cpp:156] Memory required for data: 828248800
I0403 02:30:41.809222  2204 layer_factory.hpp:77] Creating layer relu7
I0403 02:30:41.809247  2204 net.cpp:91] Creating Layer relu7
I0403 02:30:41.809262  2204 net.cpp:425] relu7 <- fc7
I0403 02:30:41.809280  2204 net.cpp:386] relu7 -> fc7 (in-place)
I0403 02:30:41.809301  2204 net.cpp:141] Setting up relu7
I0403 02:30:41.809317  2204 net.cpp:148] Top shape: 100 4096 (409600)
I0403 02:30:41.809330  2204 net.cpp:156] Memory required for data: 829887200
I0403 02:30:41.809343  2204 layer_factory.hpp:77] Creating layer drop7
I0403 02:30:41.809360  2204 net.cpp:91] Creating Layer drop7
I0403 02:30:41.809375  2204 net.cpp:425] drop7 <- fc7
I0403 02:30:41.809392  2204 net.cpp:386] drop7 -> fc7 (in-place)
I0403 02:30:41.809429  2204 net.cpp:141] Setting up drop7
I0403 02:30:41.809451  2204 net.cpp:148] Top shape: 100 4096 (409600)
I0403 02:30:41.809465  2204 net.cpp:156] Memory required for data: 831525600
I0403 02:30:41.809479  2204 layer_factory.hpp:77] Creating layer fc8_plantvillage
I0403 02:30:41.809499  2204 net.cpp:91] Creating Layer fc8_plantvillage
I0403 02:30:41.809514  2204 net.cpp:425] fc8_plantvillage <- fc7
I0403 02:30:41.809533  2204 net.cpp:399] fc8_plantvillage -> fc8_plantvillage
I0403 02:30:41.815513  2204 net.cpp:141] Setting up fc8_plantvillage
I0403 02:30:41.815541  2204 net.cpp:148] Top shape: 100 38 (3800)
I0403 02:30:41.815608  2204 net.cpp:156] Memory required for data: 831540800
I0403 02:30:41.815626  2204 layer_factory.hpp:77] Creating layer fc8_plantvillage_fc8_plantvillage_0_split
I0403 02:30:41.815645  2204 net.cpp:91] Creating Layer fc8_plantvillage_fc8_plantvillage_0_split
I0403 02:30:41.815665  2204 net.cpp:425] fc8_plantvillage_fc8_plantvillage_0_split <- fc8_plantvillage
I0403 02:30:41.815681  2204 net.cpp:399] fc8_plantvillage_fc8_plantvillage_0_split -> fc8_plantvillage_fc8_plantvillage_0_split_0
I0403 02:30:41.815701  2204 net.cpp:399] fc8_plantvillage_fc8_plantvillage_0_split -> fc8_plantvillage_fc8_plantvillage_0_split_1
I0403 02:30:41.815752  2204 net.cpp:141] Setting up fc8_plantvillage_fc8_plantvillage_0_split
I0403 02:30:41.815773  2204 net.cpp:148] Top shape: 100 38 (3800)
I0403 02:30:41.815788  2204 net.cpp:148] Top shape: 100 38 (3800)
I0403 02:30:41.815814  2204 net.cpp:156] Memory required for data: 831571200
I0403 02:30:41.815829  2204 layer_factory.hpp:77] Creating layer loss
I0403 02:30:41.815845  2204 net.cpp:91] Creating Layer loss
I0403 02:30:41.815860  2204 net.cpp:425] loss <- fc8_plantvillage_fc8_plantvillage_0_split_0
I0403 02:30:41.815876  2204 net.cpp:425] loss <- label_data_1_split_0
I0403 02:30:41.815892  2204 net.cpp:399] loss -> loss
…
