…
I0403 07:31:03.185860 29785 net.cpp:313] The NetState phase (0) differed from the phase (1) specified by a rule in layer accuracy
I0403 07:31:03.187335 29785 net.cpp:49] Initializing net from parameters: 
state {
  phase: TRAIN
}
layer {
  name: "data"
  type: "Data"
  top: "data"
  top: "label"
  include {
    phase: TRAIN
  }
  transform_param {
    mirror: true
    crop_size: 227
    mean_file: "/home/mohanty/data/final_dataset/lmdb/color-60-40/mean.binaryproto"
  }
  data_param {
    source: "/home/mohanty/data/final_dataset/lmdb/color-60-40/train_db"
    batch_size: 100
    backend: LMDB
  }
}
layer {
  name: "conv1"
  type: "Convolution"
  bottom: "data"
  top: "conv1"
  param {
    lr_mult: 1
    decay_mult: 1
  }
  param {
    lr_mult: 2
    decay_mult: 0
  }
  convolution_param {
    num_output: 96
    kernel_size: 11
    stride: 4
    weight_filler {
      type: "gaussian"
      std: 0.01
    }
    bias_filler {
      type: "constant"
      value: 0
    }
  }
}
layer {
  name: "relu1"
  type: "ReLU"
  bottom: "conv1"
  top: "conv1"
}
layer {
  name: "norm1"
  type: "LRN"
  bottom: "conv1"
  top: "norm1"
  lrn_param {
    local_size: 5
    alpha: 0.0001
    beta: 0.75
  }
}
layer {
  name: "pool1"
  type: "Pooling"
  bottom: "norm1"
  top: "pool1"
  pooling_param {
    pool: MAX
    kernel_size: 3
    stride: 2
  }
}
layer {
  name: "conv2"
  type: "Convolution"
  bottom: "pool1"
  top: "conv2"
  param {
    lr_mult: 1
    decay_mult: 1
  }
  param {
    lr_mult: 2
    decay_mult: 0
  }
  convolution_param {
    num_output: 256
    pad: 2
    kernel_size: 5
    group: 2
    weight_filler {
      type: "gaussian"
      std: 0.01
    }
    bias_filler {
      type: "constant"
      value: 0.1
    }
  }
}
layer {
  name: "relu2"
  type: "ReLU"
  bottom: "conv2"
  top: "conv2"
}
layer {
  name: "norm2"
  type: "LRN"
  bottom: "conv2"
  top: "norm2"
  lrn_param {
    local_size: 5
    alpha: 0.0001
    beta: 0.75
  }
}
layer {
  name: "pool2"
  type: "Pooling"
  bottom: "norm2"
  top: "pool2"
  pooling_param {
    pool: MAX
    kernel_size: 3
    stride: 2
  }
}
layer {
  name: "conv3"
  type: "Convolution"
  bottom: "pool2"
  top: "conv3"
  param {
    lr_mult: 1
    decay_mult: 1
  }
  param {
    lr_mult: 2
    decay_mult: 0
  }
  convolution_param {
    num_output: 384
    pad: 1
    kernel_size: 3
    weight_filler {
      type: "gaussian"
      std: 0.01
    }
    bias_filler {
      type: "constant"
      value: 0
    }
  }
}
layer {
  name: "relu3"
  type: "ReLU"
  bottom: "conv3"
  top: "conv3"
}
layer {
  name: "conv4"
  type: "Convolution"
  bottom: "conv3"
  top: "conv4"
  param {
    lr_mult: 1
    decay_mult: 1
  }
  param {
    lr_mult: 2
    decay_mult: 0
  }
  convolution_param {
    num_output: 384
    pad: 1
    kernel_size: 3
    group: 2
    weight_filler {
      type: "gaussian"
      std: 0.01
    }
    bias_filler {
      type: "constant"
      value: 0.1
    }
  }
}
layer {
  name: "relu4"
  type: "ReLU"
  bottom: "conv4"
  top: "conv4"
}
layer {
  name: "conv5"
  type: "Convolution"
  bottom: "conv4"
  top: "conv5"
  param {
    lr_mult: 1
    decay_mult: 1
  }
  param {
    lr_mult: 2
    decay_mult: 0
  }
  convolution_param {
    num_output: 256
    pad: 1
    kernel_size: 3
    group: 2
    weight_filler {
      type: "gaussian"
      std: 0.01
    }
    bias_filler {
      type: "constant"
      value: 0.1
    }
  }
}
layer {
  name: "relu5"
  type: "ReLU"
  bottom: "conv5"
  top: "conv5"
}
layer {
  name: "pool5"
  type: "Pooling"
  bottom: "conv5"
  top: "pool5"
  pooling_param {
    pool: MAX
    kernel_size: 3
    stride: 2
  }
}
layer {
  name: "fc6"
  type: "InnerProduct"
  bottom: "pool5"
  top: "fc6"
  param {
    lr_mult: 1
    decay_mult: 1
  }
  param {
    lr_mult: 2
    decay_mult: 0
  }
  inner_product_param {
    num_output: 4096
    weight_filler {
      type: "gaussian"
      std: 0.005
    }
    bias_filler {
      type: "constant"
      value: 0.1
    }
  }
}
layer {
  name: "relu6"
  type: "ReLU"
  bottom: "fc6"
  top: "fc6"
}
layer {
  name: "drop6"
  type: "Dropout"
  bottom: "fc6"
  top: "fc6"
  dropout_param {
    dropout_ratio: 0.5
  }
}
layer {
  name: "fc7"
  type: "InnerProduct"
  bottom: "fc6"
  top: "fc7"
  param {
    lr_mult: 1
    decay_mult: 1
  }
  param {
    lr_mult: 2
    decay_mult: 0
  }
  inner_product_param {
    num_output: 4096
    weight_filler {
      type: "gaussian"
      std: 0.005
    }
    bias_filler {
      type: "constant"
      value: 0.1
    }
  }
}
layer {
  name: "relu7"
  type: "ReLU"
  bottom: "fc7"
  top: "fc7"
}
layer {
  name: "drop7"
  type: "Dropout"
  bottom: "fc7"
  top: "fc7"
  dropout_param {
    dropout_ratio: 0.5
  }
}
layer {
  name: "fc8_plantvillage"
  type: "InnerProduct"
  bottom: "fc7"
  top: "fc8_plantvillage"
  param {
    lr_mult: 1
    decay_mult: 1
  }
  param {
    lr_mult: 2
    decay_mult: 0
  }
  inner_product_param {
    num_output: 38
    weight_filler {
      type: "gaussian"
      std: 0.01
    }
    bias_filler {
      type: "constant"
      value: 0
    }
  }
}
layer {
  name: "loss"
  type: "SoftmaxWithLoss"
  bottom: "fc8_plantvillage"
  bottom: "label"
  top: "loss"
}
I0403 07:31:03.187808 29785 layer_factory.hpp:77] Creating layer data
I0403 07:31:03.188503 29785 net.cpp:91] Creating Layer data
I0403 07:31:03.188539 29785 net.cpp:399] data -> data
I0403 07:31:03.188594 29785 net.cpp:399] data -> label
I0403 07:31:03.188632 29785 data_transformer.cpp:25] Loading mean file from: /home/mohanty/data/final_dataset/lmdb/color-60-40/mean.binaryproto
I0403 07:31:03.282030 29788 db_lmdb.cpp:38] Opened lmdb /home/mohanty/data/final_dataset/lmdb/color-60-40/train_db
I0403 07:31:03.348959 29785 data_layer.cpp:41] output data size: 100,3,227,227
I0403 07:31:03.466367 29785 net.cpp:141] Setting up data
I0403 07:31:03.466455 29785 net.cpp:148] Top shape: 100 3 227 227 (15458700)
I0403 07:31:03.466476 29785 net.cpp:148] Top shape: 100 (100)
I0403 07:31:03.466495 29785 net.cpp:156] Memory required for data: 61835200
I0403 07:31:03.466526 29785 layer_factory.hpp:77] Creating layer conv1
I0403 07:31:03.466570 29785 net.cpp:91] Creating Layer conv1
I0403 07:31:03.466594 29785 net.cpp:425] conv1 <- data
I0403 07:31:03.466627 29785 net.cpp:399] conv1 -> conv1
I0403 07:31:03.469344 29785 net.cpp:141] Setting up conv1
I0403 07:31:03.469377 29785 net.cpp:148] Top shape: 100 96 55 55 (29040000)
I0403 07:31:03.469395 29785 net.cpp:156] Memory required for data: 177995200
I0403 07:31:03.469432 29785 layer_factory.hpp:77] Creating layer relu1
I0403 07:31:03.469461 29785 net.cpp:91] Creating Layer relu1
I0403 07:31:03.469480 29785 net.cpp:425] relu1 <- conv1
I0403 07:31:03.469499 29785 net.cpp:386] relu1 -> conv1 (in-place)
I0403 07:31:03.469526 29785 net.cpp:141] Setting up relu1
I0403 07:31:03.469547 29785 net.cpp:148] Top shape: 100 96 55 55 (29040000)
I0403 07:31:03.469563 29785 net.cpp:156] Memory required for data: 294155200
I0403 07:31:03.469578 29785 layer_factory.hpp:77] Creating layer norm1
I0403 07:31:03.469597 29785 net.cpp:91] Creating Layer norm1
I0403 07:31:03.469648 29785 net.cpp:425] norm1 <- conv1
I0403 07:31:03.469668 29785 net.cpp:399] norm1 -> norm1
I0403 07:31:03.475389 29785 net.cpp:141] Setting up norm1
I0403 07:31:03.475426 29785 net.cpp:148] Top shape: 100 96 55 55 (29040000)
I0403 07:31:03.475443 29785 net.cpp:156] Memory required for data: 410315200
I0403 07:31:03.475460 29785 layer_factory.hpp:77] Creating layer pool1
I0403 07:31:03.475481 29785 net.cpp:91] Creating Layer pool1
I0403 07:31:03.475500 29785 net.cpp:425] pool1 <- norm1
I0403 07:31:03.475520 29785 net.cpp:399] pool1 -> pool1
I0403 07:31:03.475584 29785 net.cpp:141] Setting up pool1
I0403 07:31:03.475610 29785 net.cpp:148] Top shape: 100 96 27 27 (6998400)
I0403 07:31:03.475627 29785 net.cpp:156] Memory required for data: 438308800
I0403 07:31:03.475643 29785 layer_factory.hpp:77] Creating layer conv2
I0403 07:31:03.475667 29785 net.cpp:91] Creating Layer conv2
I0403 07:31:03.475685 29785 net.cpp:425] conv2 <- pool1
I0403 07:31:03.475705 29785 net.cpp:399] conv2 -> conv2
I0403 07:31:03.477262 29790 blocking_queue.cpp:50] Waiting for data
I0403 07:31:03.492971 29785 net.cpp:141] Setting up conv2
I0403 07:31:03.493003 29785 net.cpp:148] Top shape: 100 256 27 27 (18662400)
I0403 07:31:03.493021 29785 net.cpp:156] Memory required for data: 512958400
I0403 07:31:03.493043 29785 layer_factory.hpp:77] Creating layer relu2
I0403 07:31:03.493064 29785 net.cpp:91] Creating Layer relu2
I0403 07:31:03.493088 29785 net.cpp:425] relu2 <- conv2
I0403 07:31:03.493106 29785 net.cpp:386] relu2 -> conv2 (in-place)
I0403 07:31:03.493127 29785 net.cpp:141] Setting up relu2
I0403 07:31:03.493145 29785 net.cpp:148] Top shape: 100 256 27 27 (18662400)
I0403 07:31:03.493160 29785 net.cpp:156] Memory required for data: 587608000
I0403 07:31:03.493175 29785 layer_factory.hpp:77] Creating layer norm2
I0403 07:31:03.493194 29785 net.cpp:91] Creating Layer norm2
I0403 07:31:03.493211 29785 net.cpp:425] norm2 <- conv2
I0403 07:31:03.493229 29785 net.cpp:399] norm2 -> norm2
I0403 07:31:03.493275 29785 net.cpp:141] Setting up norm2
I0403 07:31:03.493299 29785 net.cpp:148] Top shape: 100 256 27 27 (18662400)
I0403 07:31:03.493312 29785 net.cpp:156] Memory required for data: 662257600
I0403 07:31:03.493329 29785 layer_factory.hpp:77] Creating layer pool2
I0403 07:31:03.493348 29785 net.cpp:91] Creating Layer pool2
I0403 07:31:03.493365 29785 net.cpp:425] pool2 <- norm2
I0403 07:31:03.493383 29785 net.cpp:399] pool2 -> pool2
I0403 07:31:03.493428 29785 net.cpp:141] Setting up pool2
I0403 07:31:03.493450 29785 net.cpp:148] Top shape: 100 256 13 13 (4326400)
I0403 07:31:03.493466 29785 net.cpp:156] Memory required for data: 679563200
I0403 07:31:03.493481 29785 layer_factory.hpp:77] Creating layer conv3
I0403 07:31:03.493505 29785 net.cpp:91] Creating Layer conv3
I0403 07:31:03.493522 29785 net.cpp:425] conv3 <- pool2
I0403 07:31:03.493542 29785 net.cpp:399] conv3 -> conv3
I0403 07:31:03.527570 29785 net.cpp:141] Setting up conv3
I0403 07:31:03.527603 29785 net.cpp:148] Top shape: 100 384 13 13 (6489600)
I0403 07:31:03.527621 29785 net.cpp:156] Memory required for data: 705521600
I0403 07:31:03.527643 29785 layer_factory.hpp:77] Creating layer relu3
I0403 07:31:03.527664 29785 net.cpp:91] Creating Layer relu3
I0403 07:31:03.527683 29785 net.cpp:425] relu3 <- conv3
I0403 07:31:03.527700 29785 net.cpp:386] relu3 -> conv3 (in-place)
I0403 07:31:03.527720 29785 net.cpp:141] Setting up relu3
I0403 07:31:03.527739 29785 net.cpp:148] Top shape: 100 384 13 13 (6489600)
I0403 07:31:03.527755 29785 net.cpp:156] Memory required for data: 731480000
I0403 07:31:03.527770 29785 layer_factory.hpp:77] Creating layer conv4
I0403 07:31:03.527791 29785 net.cpp:91] Creating Layer conv4
I0403 07:31:03.527809 29785 net.cpp:425] conv4 <- conv3
I0403 07:31:03.527828 29785 net.cpp:399] conv4 -> conv4
I0403 07:31:03.554026 29785 net.cpp:141] Setting up conv4
I0403 07:31:03.554060 29785 net.cpp:148] Top shape: 100 384 13 13 (6489600)
I0403 07:31:03.554081 29785 net.cpp:156] Memory required for data: 757438400
I0403 07:31:03.554128 29785 layer_factory.hpp:77] Creating layer relu4
I0403 07:31:03.554150 29785 net.cpp:91] Creating Layer relu4
I0403 07:31:03.554167 29785 net.cpp:425] relu4 <- conv4
I0403 07:31:03.554186 29785 net.cpp:386] relu4 -> conv4 (in-place)
I0403 07:31:03.554206 29785 net.cpp:141] Setting up relu4
I0403 07:31:03.554225 29785 net.cpp:148] Top shape: 100 384 13 13 (6489600)
I0403 07:31:03.554240 29785 net.cpp:156] Memory required for data: 783396800
I0403 07:31:03.554255 29785 layer_factory.hpp:77] Creating layer conv5
I0403 07:31:03.554277 29785 net.cpp:91] Creating Layer conv5
I0403 07:31:03.554296 29785 net.cpp:425] conv5 <- conv4
I0403 07:31:03.554316 29785 net.cpp:399] conv5 -> conv5
I0403 07:31:03.571478 29785 net.cpp:141] Setting up conv5
I0403 07:31:03.571509 29785 net.cpp:148] Top shape: 100 256 13 13 (4326400)
I0403 07:31:03.571527 29785 net.cpp:156] Memory required for data: 800702400
I0403 07:31:03.571548 29785 layer_factory.hpp:77] Creating layer relu5
I0403 07:31:03.571568 29785 net.cpp:91] Creating Layer relu5
I0403 07:31:03.571585 29785 net.cpp:425] relu5 <- conv5
I0403 07:31:03.571615 29785 net.cpp:386] relu5 -> conv5 (in-place)
I0403 07:31:03.571633 29785 net.cpp:141] Setting up relu5
I0403 07:31:03.571650 29785 net.cpp:148] Top shape: 100 256 13 13 (4326400)
I0403 07:31:03.571665 29785 net.cpp:156] Memory required for data: 818008000
I0403 07:31:03.571691 29785 layer_factory.hpp:77] Creating layer pool5
I0403 07:31:03.571712 29785 net.cpp:91] Creating Layer pool5
I0403 07:31:03.571732 29785 net.cpp:425] pool5 <- conv5
I0403 07:31:03.571749 29785 net.cpp:399] pool5 -> pool5
I0403 07:31:03.571799 29785 net.cpp:141] Setting up pool5
I0403 07:31:03.571820 29785 net.cpp:148] Top shape: 100 256 6 6 (921600)
I0403 07:31:03.571835 29785 net.cpp:156] Memory required for data: 821694400
I0403 07:31:03.571851 29785 layer_factory.hpp:77] Creating layer fc6
I0403 07:31:03.571878 29785 net.cpp:91] Creating Layer fc6
I0403 07:31:03.571897 29785 net.cpp:425] fc6 <- pool5
I0403 07:31:03.571915 29785 net.cpp:399] fc6 -> fc6
I0403 07:31:04.965812 29785 net.cpp:141] Setting up fc6
I0403 07:31:04.965894 29785 net.cpp:148] Top shape: 100 4096 (409600)
I0403 07:31:04.965910 29785 net.cpp:156] Memory required for data: 823332800
I0403 07:31:04.965934 29785 layer_factory.hpp:77] Creating layer relu6
I0403 07:31:04.965960 29785 net.cpp:91] Creating Layer relu6
I0403 07:31:04.965976 29785 net.cpp:425] relu6 <- fc6
I0403 07:31:04.966001 29785 net.cpp:386] relu6 -> fc6 (in-place)
I0403 07:31:04.966023 29785 net.cpp:141] Setting up relu6
I0403 07:31:04.966042 29785 net.cpp:148] Top shape: 100 4096 (409600)
I0403 07:31:04.966055 29785 net.cpp:156] Memory required for data: 824971200
I0403 07:31:04.966070 29785 layer_factory.hpp:77] Creating layer drop6
I0403 07:31:04.966109 29785 net.cpp:91] Creating Layer drop6
I0403 07:31:04.966127 29785 net.cpp:425] drop6 <- fc6
I0403 07:31:04.966145 29785 net.cpp:386] drop6 -> fc6 (in-place)
I0403 07:31:04.966190 29785 net.cpp:141] Setting up drop6
I0403 07:31:04.966213 29785 net.cpp:148] Top shape: 100 4096 (409600)
I0403 07:31:04.966228 29785 net.cpp:156] Memory required for data: 826609600
I0403 07:31:04.966243 29785 layer_factory.hpp:77] Creating layer fc7
I0403 07:31:04.966262 29785 net.cpp:91] Creating Layer fc7
I0403 07:31:04.966279 29785 net.cpp:425] fc7 <- fc6
I0403 07:31:04.966296 29785 net.cpp:399] fc7 -> fc7
I0403 07:31:05.571027 29785 net.cpp:141] Setting up fc7
I0403 07:31:05.571115 29785 net.cpp:148] Top shape: 100 4096 (409600)
I0403 07:31:05.571132 29785 net.cpp:156] Memory required for data: 828248000
I0403 07:31:05.571154 29785 layer_factory.hpp:77] Creating layer relu7
I0403 07:31:05.571178 29785 net.cpp:91] Creating Layer relu7
I0403 07:31:05.571195 29785 net.cpp:425] relu7 <- fc7
I0403 07:31:05.571216 29785 net.cpp:386] relu7 -> fc7 (in-place)
I0403 07:31:05.571240 29785 net.cpp:141] Setting up relu7
I0403 07:31:05.571257 29785 net.cpp:148] Top shape: 100 4096 (409600)
I0403 07:31:05.571271 29785 net.cpp:156] Memory required for data: 829886400
I0403 07:31:05.571285 29785 layer_factory.hpp:77] Creating layer drop7
I0403 07:31:05.571354 29785 net.cpp:91] Creating Layer drop7
I0403 07:31:05.571372 29785 net.cpp:425] drop7 <- fc7
I0403 07:31:05.571391 29785 net.cpp:386] drop7 -> fc7 (in-place)
I0403 07:31:05.571430 29785 net.cpp:141] Setting up drop7
I0403 07:31:05.571452 29785 net.cpp:148] Top shape: 100 4096 (409600)
I0403 07:31:05.571468 29785 net.cpp:156] Memory required for data: 831524800
I0403 07:31:05.571482 29785 layer_factory.hpp:77] Creating layer fc8_plantvillage
I0403 07:31:05.571506 29785 net.cpp:91] Creating Layer fc8_plantvillage
I0403 07:31:05.571521 29785 net.cpp:425] fc8_plantvillage <- fc7
I0403 07:31:05.571540 29785 net.cpp:399] fc8_plantvillage -> fc8_plantvillage
I0403 07:31:05.577740 29785 net.cpp:141] Setting up fc8_plantvillage
I0403 07:31:05.577769 29785 net.cpp:148] Top shape: 100 38 (3800)
I0403 07:31:05.577785 29785 net.cpp:156] Memory required for data: 831540000
I0403 07:31:05.577802 29785 layer_factory.hpp:77] Creating layer loss
I0403 07:31:05.577826 29785 net.cpp:91] Creating Layer loss
I0403 07:31:05.577843 29785 net.cpp:425] loss <- fc8_plantvillage
I0403 07:31:05.577859 29785 net.cpp:425] loss <- label
I0403 07:31:05.577879 29785 net.cpp:399] loss -> loss
I0403 07:31:05.577908 29785 layer_factory.hpp:77] Creating layer loss
…
I0403 07:31:05.579586 29785 net.cpp:313] The NetState phase (1) differed from the phase (0) specified by a rule in layer data
I0403 07:31:05.580217 29785 net.cpp:49] Initializing net from parameters: 
state {
  phase: TEST
}
layer {
  name: "data"
  type: "Data"
  top: "data"
  top: "label"
  include {
    phase: TEST
  }
  transform_param {
    crop_size: 227
    mean_file: "/home/mohanty/data/final_dataset/lmdb/color-60-40/mean.binaryproto"
  }
  data_param {
    source: "/home/mohanty/data/final_dataset/lmdb/color-60-40/test_db"
    batch_size: 100
    backend: LMDB
  }
}
layer {
  name: "conv1"
  type: "Convolution"
  bottom: "data"
  top: "conv1"
  param {
    lr_mult: 1
    decay_mult: 1
  }
  param {
    lr_mult: 2
    decay_mult: 0
  }
  convolution_param {
    num_output: 96
    kernel_size: 11
    stride: 4
    weight_filler {
      type: "gaussian"
      std: 0.01
    }
    bias_filler {
      type: "constant"
      value: 0
    }
  }
}
layer {
  name: "relu1"
  type: "ReLU"
  bottom: "conv1"
  top: "conv1"
}
layer {
  name: "norm1"
  type: "LRN"
  bottom: "conv1"
  top: "norm1"
  lrn_param {
    local_size: 5
    alpha: 0.0001
    beta: 0.75
  }
}
layer {
  name: "pool1"
  type: "Pooling"
  bottom: "norm1"
  top: "pool1"
  pooling_param {
    pool: MAX
    kernel_size: 3
    stride: 2
  }
}
layer {
  name: "conv2"
  type: "Convolution"
  bottom: "pool1"
  top: "conv2"
  param {
    lr_mult: 1
    decay_mult: 1
  }
  param {
    lr_mult: 2
    decay_mult: 0
  }
  convolution_param {
    num_output: 256
    pad: 2
    kernel_size: 5
    group: 2
    weight_filler {
      type: "gaussian"
      std: 0.01
    }
    bias_filler {
      type: "constant"
      value: 0.1
    }
  }
}
layer {
  name: "relu2"
  type: "ReLU"
  bottom: "conv2"
  top: "conv2"
}
layer {
  name: "norm2"
  type: "LRN"
  bottom: "conv2"
  top: "norm2"
  lrn_param {
    local_size: 5
    alpha: 0.0001
    beta: 0.75
  }
}
layer {
  name: "pool2"
  type: "Pooling"
  bottom: "norm2"
  top: "pool2"
  pooling_param {
    pool: MAX
    kernel_size: 3
    stride: 2
  }
}
layer {
  name: "conv3"
  type: "Convolution"
  bottom: "pool2"
  top: "conv3"
  param {
    lr_mult: 1
    decay_mult: 1
  }
  param {
    lr_mult: 2
    decay_mult: 0
  }
  convolution_param {
    num_output: 384
    pad: 1
    kernel_size: 3
    weight_filler {
      type: "gaussian"
      std: 0.01
    }
    bias_filler {
      type: "constant"
      value: 0
    }
  }
}
layer {
  name: "relu3"
  type: "ReLU"
  bottom: "conv3"
  top: "conv3"
}
layer {
  name: "conv4"
  type: "Convolution"
  bottom: "conv3"
  top: "conv4"
  param {
    lr_mult: 1
    decay_mult: 1
  }
  param {
    lr_mult: 2
    decay_mult: 0
  }
  convolution_param {
    num_output: 384
    pad: 1
    kernel_size: 3
    group: 2
    weight_filler {
      type: "gaussian"
      std: 0.01
    }
    bias_filler {
      type: "constant"
      value: 0.1
    }
  }
}
layer {
  name: "relu4"
  type: "ReLU"
  bottom: "conv4"
  top: "conv4"
}
layer {
  name: "conv5"
  type: "Convolution"
  bottom: "conv4"
  top: "conv5"
  param {
    lr_mult: 1
    decay_mult: 1
  }
  param {
    lr_mult: 2
    decay_mult: 0
  }
  convolution_param {
    num_output: 256
    pad: 1
    kernel_size: 3
    group: 2
    weight_filler {
      type: "gaussian"
      std: 0.01
    }
    bias_filler {
      type: "constant"
      value: 0.1
    }
  }
}
layer {
  name: "relu5"
  type: "ReLU"
  bottom: "conv5"
  top: "conv5"
}
layer {
  name: "pool5"
  type: "Pooling"
  bottom: "conv5"
  top: "pool5"
  pooling_param {
    pool: MAX
    kernel_size: 3
    stride: 2
  }
}
layer {
  name: "fc6"
  type: "InnerProduct"
  bottom: "pool5"
  top: "fc6"
  param {
    lr_mult: 1
    decay_mult: 1
  }
  param {
    lr_mult: 2
    decay_mult: 0
  }
  inner_product_param {
    num_output: 4096
    weight_filler {
      type: "gaussian"
      std: 0.005
    }
    bias_filler {
      type: "constant"
      value: 0.1
    }
  }
}
layer {
  name: "relu6"
  type: "ReLU"
  bottom: "fc6"
  top: "fc6"
}
layer {
  name: "drop6"
  type: "Dropout"
  bottom: "fc6"
  top: "fc6"
  dropout_param {
    dropout_ratio: 0.5
  }
}
layer {
  name: "fc7"
  type: "InnerProduct"
  bottom: "fc6"
  top: "fc7"
  param {
    lr_mult: 1
    decay_mult: 1
  }
  param {
    lr_mult: 2
    decay_mult: 0
  }
  inner_product_param {
    num_output: 4096
    weight_filler {
      type: "gaussian"
      std: 0.005
    }
    bias_filler {
      type: "constant"
      value: 0.1
    }
  }
}
layer {
  name: "relu7"
  type: "ReLU"
  bottom: "fc7"
  top: "fc7"
}
layer {
  name: "drop7"
  type: "Dropout"
  bottom: "fc7"
  top: "fc7"
  dropout_param {
    dropout_ratio: 0.5
  }
}
layer {
  name: "fc8_plantvillage"
  type: "InnerProduct"
  bottom: "fc7"
  top: "fc8_plantvillage"
  param {
    lr_mult: 1
    decay_mult: 1
  }
  param {
    lr_mult: 2
    decay_mult: 0
  }
  inner_product_param {
    num_output: 38
    weight_filler {
      type: "gaussian"
      std: 0.01
    }
    bias_filler {
      type: "constant"
      value: 0
    }
  }
}
layer {
  name: "loss"
  type: "SoftmaxWithLoss"
  bottom: "fc8_plantvillage"
  bottom: "label"
  top: "loss"
}
layer {
  name: "accuracy"
  type: "Accuracy"
  bottom: "fc8_plantvillage"
  bottom: "label"
  top: "accuracy"
  include {
    phase: TEST
  }
}
I0403 07:31:05.580374 29785 layer_factory.hpp:77] Creating layer data
I0403 07:31:05.580538 29785 net.cpp:91] Creating Layer data
I0403 07:31:05.580565 29785 net.cpp:399] data -> data
I0403 07:31:05.580590 29785 net.cpp:399] data -> label
I0403 07:31:05.580616 29785 data_transformer.cpp:25] Loading mean file from: /home/mohanty/data/final_dataset/lmdb/color-60-40/mean.binaryproto
I0403 07:31:05.656731 29791 db_lmdb.cpp:38] Opened lmdb /home/mohanty/data/final_dataset/lmdb/color-60-40/test_db
I0403 07:31:05.698138 29785 data_layer.cpp:41] output data size: 100,3,227,227
I0403 07:31:05.843577 29785 net.cpp:141] Setting up data
I0403 07:31:05.843652 29785 net.cpp:148] Top shape: 100 3 227 227 (15458700)
I0403 07:31:05.843679 29785 net.cpp:148] Top shape: 100 (100)
I0403 07:31:05.843708 29785 net.cpp:156] Memory required for data: 61835200
I0403 07:31:05.843731 29785 layer_factory.hpp:77] Creating layer label_data_1_split
I0403 07:31:05.843765 29785 net.cpp:91] Creating Layer label_data_1_split
I0403 07:31:05.843788 29785 net.cpp:425] label_data_1_split <- label
I0403 07:31:05.843818 29785 net.cpp:399] label_data_1_split -> label_data_1_split_0
I0403 07:31:05.843850 29785 net.cpp:399] label_data_1_split -> label_data_1_split_1
I0403 07:31:05.843914 29785 net.cpp:141] Setting up label_data_1_split
I0403 07:31:05.843941 29785 net.cpp:148] Top shape: 100 (100)
I0403 07:31:05.843966 29785 net.cpp:148] Top shape: 100 (100)
I0403 07:31:05.843997 29785 net.cpp:156] Memory required for data: 61836000
I0403 07:31:05.844018 29785 layer_factory.hpp:77] Creating layer conv1
I0403 07:31:05.844055 29785 net.cpp:91] Creating Layer conv1
I0403 07:31:05.844074 29785 net.cpp:425] conv1 <- data
I0403 07:31:05.844099 29785 net.cpp:399] conv1 -> conv1
I0403 07:31:05.845742 29785 net.cpp:141] Setting up conv1
I0403 07:31:05.845774 29785 net.cpp:148] Top shape: 100 96 55 55 (29040000)
I0403 07:31:05.845796 29785 net.cpp:156] Memory required for data: 177996000
I0403 07:31:05.845825 29785 layer_factory.hpp:77] Creating layer relu1
I0403 07:31:05.845850 29785 net.cpp:91] Creating Layer relu1
I0403 07:31:05.845873 29785 net.cpp:425] relu1 <- conv1
I0403 07:31:05.845893 29785 net.cpp:386] relu1 -> conv1 (in-place)
I0403 07:31:05.845917 29785 net.cpp:141] Setting up relu1
I0403 07:31:05.845940 29785 net.cpp:148] Top shape: 100 96 55 55 (29040000)
I0403 07:31:05.845962 29785 net.cpp:156] Memory required for data: 294156000
I0403 07:31:05.845979 29785 layer_factory.hpp:77] Creating layer norm1
I0403 07:31:05.846001 29785 net.cpp:91] Creating Layer norm1
I0403 07:31:05.846024 29785 net.cpp:425] norm1 <- conv1
I0403 07:31:05.846047 29785 net.cpp:399] norm1 -> norm1
I0403 07:31:05.846107 29785 net.cpp:141] Setting up norm1
I0403 07:31:05.846139 29785 net.cpp:148] Top shape: 100 96 55 55 (29040000)
I0403 07:31:05.846159 29785 net.cpp:156] Memory required for data: 410316000
I0403 07:31:05.846179 29785 layer_factory.hpp:77] Creating layer pool1
I0403 07:31:05.846209 29785 net.cpp:91] Creating Layer pool1
I0403 07:31:05.846226 29785 net.cpp:425] pool1 <- norm1
I0403 07:31:05.846249 29785 net.cpp:399] pool1 -> pool1
I0403 07:31:05.846304 29785 net.cpp:141] Setting up pool1
I0403 07:31:05.846330 29785 net.cpp:148] Top shape: 100 96 27 27 (6998400)
I0403 07:31:05.846351 29785 net.cpp:156] Memory required for data: 438309600
I0403 07:31:05.846406 29785 layer_factory.hpp:77] Creating layer conv2
I0403 07:31:05.846433 29785 net.cpp:91] Creating Layer conv2
I0403 07:31:05.846457 29785 net.cpp:425] conv2 <- pool1
I0403 07:31:05.846485 29785 net.cpp:399] conv2 -> conv2
I0403 07:31:05.859127 29785 net.cpp:141] Setting up conv2
I0403 07:31:05.859161 29785 net.cpp:148] Top shape: 100 256 27 27 (18662400)
I0403 07:31:05.859177 29785 net.cpp:156] Memory required for data: 512959200
I0403 07:31:05.859201 29785 layer_factory.hpp:77] Creating layer relu2
I0403 07:31:05.859221 29785 net.cpp:91] Creating Layer relu2
I0403 07:31:05.859238 29785 net.cpp:425] relu2 <- conv2
I0403 07:31:05.859257 29785 net.cpp:386] relu2 -> conv2 (in-place)
I0403 07:31:05.859278 29785 net.cpp:141] Setting up relu2
I0403 07:31:05.859297 29785 net.cpp:148] Top shape: 100 256 27 27 (18662400)
I0403 07:31:05.859311 29785 net.cpp:156] Memory required for data: 587608800
I0403 07:31:05.859326 29785 layer_factory.hpp:77] Creating layer norm2
I0403 07:31:05.859346 29785 net.cpp:91] Creating Layer norm2
I0403 07:31:05.859364 29785 net.cpp:425] norm2 <- conv2
I0403 07:31:05.859382 29785 net.cpp:399] norm2 -> norm2
I0403 07:31:05.859433 29785 net.cpp:141] Setting up norm2
I0403 07:31:05.859457 29785 net.cpp:148] Top shape: 100 256 27 27 (18662400)
I0403 07:31:05.859472 29785 net.cpp:156] Memory required for data: 662258400
I0403 07:31:05.859488 29785 layer_factory.hpp:77] Creating layer pool2
I0403 07:31:05.859506 29785 net.cpp:91] Creating Layer pool2
I0403 07:31:05.859524 29785 net.cpp:425] pool2 <- norm2
I0403 07:31:05.859541 29785 net.cpp:399] pool2 -> pool2
I0403 07:31:05.859589 29785 net.cpp:141] Setting up pool2
I0403 07:31:05.859612 29785 net.cpp:148] Top shape: 100 256 13 13 (4326400)
I0403 07:31:05.859627 29785 net.cpp:156] Memory required for data: 679564000
I0403 07:31:05.859645 29785 layer_factory.hpp:77] Creating layer conv3
I0403 07:31:05.859671 29785 net.cpp:91] Creating Layer conv3
I0403 07:31:05.859695 29785 net.cpp:425] conv3 <- pool2
I0403 07:31:05.859715 29785 net.cpp:399] conv3 -> conv3
I0403 07:31:05.895934 29785 net.cpp:141] Setting up conv3
I0403 07:31:05.895987 29785 net.cpp:148] Top shape: 100 384 13 13 (6489600)
I0403 07:31:05.896005 29785 net.cpp:156] Memory required for data: 705522400
I0403 07:31:05.896033 29785 layer_factory.hpp:77] Creating layer relu3
I0403 07:31:05.896059 29785 net.cpp:91] Creating Layer relu3
I0403 07:31:05.896078 29785 net.cpp:425] relu3 <- conv3
I0403 07:31:05.896098 29785 net.cpp:386] relu3 -> conv3 (in-place)
I0403 07:31:05.896133 29785 net.cpp:141] Setting up relu3
I0403 07:31:05.896155 29785 net.cpp:148] Top shape: 100 384 13 13 (6489600)
I0403 07:31:05.896172 29785 net.cpp:156] Memory required for data: 731480800
I0403 07:31:05.896188 29785 layer_factory.hpp:77] Creating layer conv4
I0403 07:31:05.896214 29785 net.cpp:91] Creating Layer conv4
I0403 07:31:05.896230 29785 net.cpp:425] conv4 <- conv3
I0403 07:31:05.896252 29785 net.cpp:399] conv4 -> conv4
I0403 07:31:05.923517 29785 net.cpp:141] Setting up conv4
I0403 07:31:05.923554 29785 net.cpp:148] Top shape: 100 384 13 13 (6489600)
I0403 07:31:05.923571 29785 net.cpp:156] Memory required for data: 757439200
I0403 07:31:05.923591 29785 layer_factory.hpp:77] Creating layer relu4
I0403 07:31:05.923614 29785 net.cpp:91] Creating Layer relu4
I0403 07:31:05.923631 29785 net.cpp:425] relu4 <- conv4
I0403 07:31:05.923651 29785 net.cpp:386] relu4 -> conv4 (in-place)
I0403 07:31:05.923672 29785 net.cpp:141] Setting up relu4
I0403 07:31:05.923691 29785 net.cpp:148] Top shape: 100 384 13 13 (6489600)
I0403 07:31:05.923708 29785 net.cpp:156] Memory required for data: 783397600
I0403 07:31:05.923724 29785 layer_factory.hpp:77] Creating layer conv5
I0403 07:31:05.923748 29785 net.cpp:91] Creating Layer conv5
I0403 07:31:05.923765 29785 net.cpp:425] conv5 <- conv4
I0403 07:31:05.923785 29785 net.cpp:399] conv5 -> conv5
I0403 07:31:05.942044 29785 net.cpp:141] Setting up conv5
I0403 07:31:05.942076 29785 net.cpp:148] Top shape: 100 256 13 13 (4326400)
I0403 07:31:05.942095 29785 net.cpp:156] Memory required for data: 800703200
I0403 07:31:05.942159 29785 layer_factory.hpp:77] Creating layer relu5
I0403 07:31:05.942185 29785 net.cpp:91] Creating Layer relu5
I0403 07:31:05.942205 29785 net.cpp:425] relu5 <- conv5
I0403 07:31:05.942226 29785 net.cpp:386] relu5 -> conv5 (in-place)
I0403 07:31:05.942252 29785 net.cpp:141] Setting up relu5
I0403 07:31:05.942277 29785 net.cpp:148] Top shape: 100 256 13 13 (4326400)
I0403 07:31:05.942299 29785 net.cpp:156] Memory required for data: 818008800
I0403 07:31:05.942322 29785 layer_factory.hpp:77] Creating layer pool5
I0403 07:31:05.942349 29785 net.cpp:91] Creating Layer pool5
I0403 07:31:05.942378 29785 net.cpp:425] pool5 <- conv5
I0403 07:31:05.942400 29785 net.cpp:399] pool5 -> pool5
I0403 07:31:05.942461 29785 net.cpp:141] Setting up pool5
I0403 07:31:05.942487 29785 net.cpp:148] Top shape: 100 256 6 6 (921600)
I0403 07:31:05.942503 29785 net.cpp:156] Memory required for data: 821695200
I0403 07:31:05.942520 29785 layer_factory.hpp:77] Creating layer fc6
I0403 07:31:05.942543 29785 net.cpp:91] Creating Layer fc6
I0403 07:31:05.942560 29785 net.cpp:425] fc6 <- pool5
I0403 07:31:05.942584 29785 net.cpp:399] fc6 -> fc6
I0403 07:31:07.393555 29785 net.cpp:141] Setting up fc6
I0403 07:31:07.393635 29785 net.cpp:148] Top shape: 100 4096 (409600)
I0403 07:31:07.393651 29785 net.cpp:156] Memory required for data: 823333600
I0403 07:31:07.393674 29785 layer_factory.hpp:77] Creating layer relu6
I0403 07:31:07.393700 29785 net.cpp:91] Creating Layer relu6
I0403 07:31:07.393718 29785 net.cpp:425] relu6 <- fc6
I0403 07:31:07.393740 29785 net.cpp:386] relu6 -> fc6 (in-place)
I0403 07:31:07.393764 29785 net.cpp:141] Setting up relu6
I0403 07:31:07.393781 29785 net.cpp:148] Top shape: 100 4096 (409600)
I0403 07:31:07.393795 29785 net.cpp:156] Memory required for data: 824972000
I0403 07:31:07.393810 29785 layer_factory.hpp:77] Creating layer drop6
I0403 07:31:07.393831 29785 net.cpp:91] Creating Layer drop6
I0403 07:31:07.393846 29785 net.cpp:425] drop6 <- fc6
I0403 07:31:07.393863 29785 net.cpp:386] drop6 -> fc6 (in-place)
I0403 07:31:07.393906 29785 net.cpp:141] Setting up drop6
I0403 07:31:07.393928 29785 net.cpp:148] Top shape: 100 4096 (409600)
I0403 07:31:07.393942 29785 net.cpp:156] Memory required for data: 826610400
I0403 07:31:07.393957 29785 layer_factory.hpp:77] Creating layer fc7
I0403 07:31:07.393977 29785 net.cpp:91] Creating Layer fc7
I0403 07:31:07.393992 29785 net.cpp:425] fc7 <- fc6
I0403 07:31:07.394011 29785 net.cpp:399] fc7 -> fc7
I0403 07:31:08.002835 29785 net.cpp:141] Setting up fc7
I0403 07:31:08.002917 29785 net.cpp:148] Top shape: 100 4096 (409600)
I0403 07:31:08.002933 29785 net.cpp:156] Memory required for data: 828248800
I0403 07:31:08.002956 29785 layer_factory.hpp:77] Creating layer relu7
I0403 07:31:08.002981 29785 net.cpp:91] Creating Layer relu7
I0403 07:31:08.003000 29785 net.cpp:425] relu7 <- fc7
I0403 07:31:08.003023 29785 net.cpp:386] relu7 -> fc7 (in-place)
I0403 07:31:08.003046 29785 net.cpp:141] Setting up relu7
I0403 07:31:08.003065 29785 net.cpp:148] Top shape: 100 4096 (409600)
I0403 07:31:08.003079 29785 net.cpp:156] Memory required for data: 829887200
I0403 07:31:08.003093 29785 layer_factory.hpp:77] Creating layer drop7
I0403 07:31:08.003114 29785 net.cpp:91] Creating Layer drop7
I0403 07:31:08.003132 29785 net.cpp:425] drop7 <- fc7
I0403 07:31:08.003152 29785 net.cpp:386] drop7 -> fc7 (in-place)
I0403 07:31:08.003193 29785 net.cpp:141] Setting up drop7
I0403 07:31:08.003216 29785 net.cpp:148] Top shape: 100 4096 (409600)
I0403 07:31:08.003229 29785 net.cpp:156] Memory required for data: 831525600
I0403 07:31:08.003243 29785 layer_factory.hpp:77] Creating layer fc8_plantvillage
I0403 07:31:08.003265 29785 net.cpp:91] Creating Layer fc8_plantvillage
I0403 07:31:08.003283 29785 net.cpp:425] fc8_plantvillage <- fc7
I0403 07:31:08.003301 29785 net.cpp:399] fc8_plantvillage -> fc8_plantvillage
I0403 07:31:08.009294 29785 net.cpp:141] Setting up fc8_plantvillage
I0403 07:31:08.009323 29785 net.cpp:148] Top shape: 100 38 (3800)
I0403 07:31:08.009383 29785 net.cpp:156] Memory required for data: 831540800
I0403 07:31:08.009403 29785 layer_factory.hpp:77] Creating layer fc8_plantvillage_fc8_plantvillage_0_split
I0403 07:31:08.009423 29785 net.cpp:91] Creating Layer fc8_plantvillage_fc8_plantvillage_0_split
I0403 07:31:08.009440 29785 net.cpp:425] fc8_plantvillage_fc8_plantvillage_0_split <- fc8_plantvillage
I0403 07:31:08.009461 29785 net.cpp:399] fc8_plantvillage_fc8_plantvillage_0_split -> fc8_plantvillage_fc8_plantvillage_0_split_0
I0403 07:31:08.009484 29785 net.cpp:399] fc8_plantvillage_fc8_plantvillage_0_split -> fc8_plantvillage_fc8_plantvillage_0_split_1
I0403 07:31:08.009532 29785 net.cpp:141] Setting up fc8_plantvillage_fc8_plantvillage_0_split
I0403 07:31:08.009557 29785 net.cpp:148] Top shape: 100 38 (3800)
I0403 07:31:08.009574 29785 net.cpp:148] Top shape: 100 38 (3800)
I0403 07:31:08.009589 29785 net.cpp:156] Memory required for data: 831571200
I0403 07:31:08.009604 29785 layer_factory.hpp:77] Creating layer loss
I0403 07:31:08.009635 29785 net.cpp:91] Creating Layer loss
I0403 07:31:08.009650 29785 net.cpp:425] loss <- fc8_plantvillage_fc8_plantvillage_0_split_0
I0403 07:31:08.009666 29785 net.cpp:425] loss <- label_data_1_split_0
I0403 07:31:08.009683 29785 net.cpp:399] loss -> loss
…
