…
I0403 05:23:34.533341  2705 net.cpp:313] The NetState phase (0) differed from the phase (1) specified by a rule in layer accuracy
I0403 05:23:34.534978  2705 net.cpp:49] Initializing net from parameters: 
state {
  phase: TRAIN
}
layer {
  name: "data"
  type: "Data"
  top: "data"
  top: "label"
  include {
    phase: TRAIN
  }
  transform_param {
    mirror: true
    crop_size: 227
    mean_file: "/home/mohanty/data/final_dataset/lmdb/grayscale-60-40/mean.binaryproto"
  }
  data_param {
    source: "/home/mohanty/data/final_dataset/lmdb/grayscale-60-40/train_db"
    batch_size: 100
    backend: LMDB
  }
}
layer {
  name: "conv1"
  type: "Convolution"
  bottom: "data"
  top: "conv1"
  param {
    lr_mult: 1
    decay_mult: 1
  }
  param {
    lr_mult: 2
    decay_mult: 0
  }
  convolution_param {
    num_output: 96
    kernel_size: 11
    stride: 4
    weight_filler {
      type: "gaussian"
      std: 0.01
    }
    bias_filler {
      type: "constant"
      value: 0
    }
  }
}
layer {
  name: "relu1"
  type: "ReLU"
  bottom: "conv1"
  top: "conv1"
}
layer {
  name: "norm1"
  type: "LRN"
  bottom: "conv1"
  top: "norm1"
  lrn_param {
    local_size: 5
    alpha: 0.0001
    beta: 0.75
  }
}
layer {
  name: "pool1"
  type: "Pooling"
  bottom: "norm1"
  top: "pool1"
  pooling_param {
    pool: MAX
    kernel_size: 3
    stride: 2
  }
}
layer {
  name: "conv2"
  type: "Convolution"
  bottom: "pool1"
  top: "conv2"
  param {
    lr_mult: 1
    decay_mult: 1
  }
  param {
    lr_mult: 2
    decay_mult: 0
  }
  convolution_param {
    num_output: 256
    pad: 2
    kernel_size: 5
    group: 2
    weight_filler {
      type: "gaussian"
      std: 0.01
    }
    bias_filler {
      type: "constant"
      value: 0.1
    }
  }
}
layer {
  name: "relu2"
  type: "ReLU"
  bottom: "conv2"
  top: "conv2"
}
layer {
  name: "norm2"
  type: "LRN"
  bottom: "conv2"
  top: "norm2"
  lrn_param {
    local_size: 5
    alpha: 0.0001
    beta: 0.75
  }
}
layer {
  name: "pool2"
  type: "Pooling"
  bottom: "norm2"
  top: "pool2"
  pooling_param {
    pool: MAX
    kernel_size: 3
    stride: 2
  }
}
layer {
  name: "conv3"
  type: "Convolution"
  bottom: "pool2"
  top: "conv3"
  param {
    lr_mult: 1
    decay_mult: 1
  }
  param {
    lr_mult: 2
    decay_mult: 0
  }
  convolution_param {
    num_output: 384
    pad: 1
    kernel_size: 3
    weight_filler {
      type: "gaussian"
      std: 0.01
    }
    bias_filler {
      type: "constant"
      value: 0
    }
  }
}
layer {
  name: "relu3"
  type: "ReLU"
  bottom: "conv3"
  top: "conv3"
}
layer {
  name: "conv4"
  type: "Convolution"
  bottom: "conv3"
  top: "conv4"
  param {
    lr_mult: 1
    decay_mult: 1
  }
  param {
    lr_mult: 2
    decay_mult: 0
  }
  convolution_param {
    num_output: 384
    pad: 1
    kernel_size: 3
    group: 2
    weight_filler {
      type: "gaussian"
      std: 0.01
    }
    bias_filler {
      type: "constant"
      value: 0.1
    }
  }
}
layer {
  name: "relu4"
  type: "ReLU"
  bottom: "conv4"
  top: "conv4"
}
layer {
  name: "conv5"
  type: "Convolution"
  bottom: "conv4"
  top: "conv5"
  param {
    lr_mult: 1
    decay_mult: 1
  }
  param {
    lr_mult: 2
    decay_mult: 0
  }
  convolution_param {
    num_output: 256
    pad: 1
    kernel_size: 3
    group: 2
    weight_filler {
      type: "gaussian"
      std: 0.01
    }
    bias_filler {
      type: "constant"
      value: 0.1
    }
  }
}
layer {
  name: "relu5"
  type: "ReLU"
  bottom: "conv5"
  top: "conv5"
}
layer {
  name: "pool5"
  type: "Pooling"
  bottom: "conv5"
  top: "pool5"
  pooling_param {
    pool: MAX
    kernel_size: 3
    stride: 2
  }
}
layer {
  name: "fc6"
  type: "InnerProduct"
  bottom: "pool5"
  top: "fc6"
  param {
    lr_mult: 1
    decay_mult: 1
  }
  param {
    lr_mult: 2
    decay_mult: 0
  }
  inner_product_param {
    num_output: 4096
    weight_filler {
      type: "gaussian"
      std: 0.005
    }
    bias_filler {
      type: "constant"
      value: 0.1
    }
  }
}
layer {
  name: "relu6"
  type: "ReLU"
  bottom: "fc6"
  top: "fc6"
}
layer {
  name: "drop6"
  type: "Dropout"
  bottom: "fc6"
  top: "fc6"
  dropout_param {
    dropout_ratio: 0.5
  }
}
layer {
  name: "fc7"
  type: "InnerProduct"
  bottom: "fc6"
  top: "fc7"
  param {
    lr_mult: 1
    decay_mult: 1
  }
  param {
    lr_mult: 2
    decay_mult: 0
  }
  inner_product_param {
    num_output: 4096
    weight_filler {
      type: "gaussian"
      std: 0.005
    }
    bias_filler {
      type: "constant"
      value: 0.1
    }
  }
}
layer {
  name: "relu7"
  type: "ReLU"
  bottom: "fc7"
  top: "fc7"
}
layer {
  name: "drop7"
  type: "Dropout"
  bottom: "fc7"
  top: "fc7"
  dropout_param {
    dropout_ratio: 0.5
  }
}
layer {
  name: "fc8_plantvillage"
  type: "InnerProduct"
  bottom: "fc7"
  top: "fc8_plantvillage"
  param {
    lr_mult: 1
    decay_mult: 1
  }
  param {
    lr_mult: 2
    decay_mult: 0
  }
  inner_product_param {
    num_output: 38
    weight_filler {
      type: "gaussian"
      std: 0.01
    }
    bias_filler {
      type: "constant"
      value: 0
    }
  }
}
layer {
  name: "loss"
  type: "SoftmaxWithLoss"
  bottom: "fc8_plantvillage"
  bottom: "label"
  top: "loss"
}
I0403 05:23:34.556051  2705 layer_factory.hpp:77] Creating layer data
I0403 05:23:34.557772  2705 net.cpp:91] Creating Layer data
I0403 05:23:34.557869  2705 net.cpp:399] data -> data
I0403 05:23:34.557988  2705 net.cpp:399] data -> label
I0403 05:23:34.558069  2705 data_transformer.cpp:25] Loading mean file from: /home/mohanty/data/final_dataset/lmdb/grayscale-60-40/mean.binaryproto
I0403 05:23:34.614886  2709 db_lmdb.cpp:38] Opened lmdb /home/mohanty/data/final_dataset/lmdb/grayscale-60-40/train_db
I0403 05:23:34.666079  2705 data_layer.cpp:41] output data size: 100,3,227,227
I0403 05:23:34.792299  2705 net.cpp:141] Setting up data
I0403 05:23:34.792418  2705 net.cpp:148] Top shape: 100 3 227 227 (15458700)
I0403 05:23:34.792443  2705 net.cpp:148] Top shape: 100 (100)
I0403 05:23:34.792459  2705 net.cpp:156] Memory required for data: 61835200
I0403 05:23:34.792491  2705 layer_factory.hpp:77] Creating layer conv1
I0403 05:23:34.792538  2705 net.cpp:91] Creating Layer conv1
I0403 05:23:34.792562  2705 net.cpp:425] conv1 <- data
I0403 05:23:34.792593  2705 net.cpp:399] conv1 -> conv1
I0403 05:23:34.795341  2705 net.cpp:141] Setting up conv1
I0403 05:23:34.795378  2705 net.cpp:148] Top shape: 100 96 55 55 (29040000)
I0403 05:23:34.795395  2705 net.cpp:156] Memory required for data: 177995200
I0403 05:23:34.795433  2705 layer_factory.hpp:77] Creating layer relu1
I0403 05:23:34.795461  2705 net.cpp:91] Creating Layer relu1
I0403 05:23:34.795480  2705 net.cpp:425] relu1 <- conv1
I0403 05:23:34.795497  2705 net.cpp:386] relu1 -> conv1 (in-place)
I0403 05:23:34.795521  2705 net.cpp:141] Setting up relu1
I0403 05:23:34.795542  2705 net.cpp:148] Top shape: 100 96 55 55 (29040000)
I0403 05:23:34.795557  2705 net.cpp:156] Memory required for data: 294155200
I0403 05:23:34.795572  2705 layer_factory.hpp:77] Creating layer norm1
I0403 05:23:34.795624  2705 net.cpp:91] Creating Layer norm1
I0403 05:23:34.795642  2705 net.cpp:425] norm1 <- conv1
I0403 05:23:34.795660  2705 net.cpp:399] norm1 -> norm1
I0403 05:23:34.801297  2705 net.cpp:141] Setting up norm1
I0403 05:23:34.801337  2705 net.cpp:148] Top shape: 100 96 55 55 (29040000)
I0403 05:23:34.801362  2705 net.cpp:156] Memory required for data: 410315200
I0403 05:23:34.801379  2705 layer_factory.hpp:77] Creating layer pool1
I0403 05:23:34.801401  2705 net.cpp:91] Creating Layer pool1
I0403 05:23:34.801419  2705 net.cpp:425] pool1 <- norm1
I0403 05:23:34.801437  2705 net.cpp:399] pool1 -> pool1
I0403 05:23:34.801501  2705 net.cpp:141] Setting up pool1
I0403 05:23:34.801528  2705 net.cpp:148] Top shape: 100 96 27 27 (6998400)
I0403 05:23:34.801544  2705 net.cpp:156] Memory required for data: 438308800
I0403 05:23:34.801559  2705 layer_factory.hpp:77] Creating layer conv2
I0403 05:23:34.801583  2705 net.cpp:91] Creating Layer conv2
I0403 05:23:34.801599  2705 net.cpp:425] conv2 <- pool1
I0403 05:23:34.801620  2705 net.cpp:399] conv2 -> conv2
I0403 05:23:34.803073  2710 blocking_queue.cpp:50] Waiting for data
I0403 05:23:34.818804  2705 net.cpp:141] Setting up conv2
I0403 05:23:34.818835  2705 net.cpp:148] Top shape: 100 256 27 27 (18662400)
I0403 05:23:34.818851  2705 net.cpp:156] Memory required for data: 512958400
I0403 05:23:34.818874  2705 layer_factory.hpp:77] Creating layer relu2
I0403 05:23:34.818894  2705 net.cpp:91] Creating Layer relu2
I0403 05:23:34.818910  2705 net.cpp:425] relu2 <- conv2
I0403 05:23:34.818928  2705 net.cpp:386] relu2 -> conv2 (in-place)
I0403 05:23:34.818946  2705 net.cpp:141] Setting up relu2
I0403 05:23:34.818964  2705 net.cpp:148] Top shape: 100 256 27 27 (18662400)
I0403 05:23:34.818979  2705 net.cpp:156] Memory required for data: 587608000
I0403 05:23:34.818992  2705 layer_factory.hpp:77] Creating layer norm2
I0403 05:23:34.819010  2705 net.cpp:91] Creating Layer norm2
I0403 05:23:34.819025  2705 net.cpp:425] norm2 <- conv2
I0403 05:23:34.819043  2705 net.cpp:399] norm2 -> norm2
I0403 05:23:34.819089  2705 net.cpp:141] Setting up norm2
I0403 05:23:34.819113  2705 net.cpp:148] Top shape: 100 256 27 27 (18662400)
I0403 05:23:34.819126  2705 net.cpp:156] Memory required for data: 662257600
I0403 05:23:34.819140  2705 layer_factory.hpp:77] Creating layer pool2
I0403 05:23:34.819160  2705 net.cpp:91] Creating Layer pool2
I0403 05:23:34.819176  2705 net.cpp:425] pool2 <- norm2
I0403 05:23:34.819195  2705 net.cpp:399] pool2 -> pool2
I0403 05:23:34.819238  2705 net.cpp:141] Setting up pool2
I0403 05:23:34.819260  2705 net.cpp:148] Top shape: 100 256 13 13 (4326400)
I0403 05:23:34.819275  2705 net.cpp:156] Memory required for data: 679563200
I0403 05:23:34.819289  2705 layer_factory.hpp:77] Creating layer conv3
I0403 05:23:34.819316  2705 net.cpp:91] Creating Layer conv3
I0403 05:23:34.819332  2705 net.cpp:425] conv3 <- pool2
I0403 05:23:34.819360  2705 net.cpp:399] conv3 -> conv3
I0403 05:23:34.853493  2705 net.cpp:141] Setting up conv3
I0403 05:23:34.853534  2705 net.cpp:148] Top shape: 100 384 13 13 (6489600)
I0403 05:23:34.853550  2705 net.cpp:156] Memory required for data: 705521600
I0403 05:23:34.853569  2705 layer_factory.hpp:77] Creating layer relu3
I0403 05:23:34.853588  2705 net.cpp:91] Creating Layer relu3
I0403 05:23:34.853605  2705 net.cpp:425] relu3 <- conv3
I0403 05:23:34.853621  2705 net.cpp:386] relu3 -> conv3 (in-place)
I0403 05:23:34.853638  2705 net.cpp:141] Setting up relu3
I0403 05:23:34.853654  2705 net.cpp:148] Top shape: 100 384 13 13 (6489600)
I0403 05:23:34.853668  2705 net.cpp:156] Memory required for data: 731480000
I0403 05:23:34.853682  2705 layer_factory.hpp:77] Creating layer conv4
I0403 05:23:34.853703  2705 net.cpp:91] Creating Layer conv4
I0403 05:23:34.853718  2705 net.cpp:425] conv4 <- conv3
I0403 05:23:34.853736  2705 net.cpp:399] conv4 -> conv4
I0403 05:23:34.878628  2705 net.cpp:141] Setting up conv4
I0403 05:23:34.878659  2705 net.cpp:148] Top shape: 100 384 13 13 (6489600)
I0403 05:23:34.878675  2705 net.cpp:156] Memory required for data: 757438400
I0403 05:23:34.878708  2705 layer_factory.hpp:77] Creating layer relu4
I0403 05:23:34.878728  2705 net.cpp:91] Creating Layer relu4
I0403 05:23:34.878743  2705 net.cpp:425] relu4 <- conv4
I0403 05:23:34.878761  2705 net.cpp:386] relu4 -> conv4 (in-place)
I0403 05:23:34.878777  2705 net.cpp:141] Setting up relu4
I0403 05:23:34.878793  2705 net.cpp:148] Top shape: 100 384 13 13 (6489600)
I0403 05:23:34.878808  2705 net.cpp:156] Memory required for data: 783396800
I0403 05:23:34.878820  2705 layer_factory.hpp:77] Creating layer conv5
I0403 05:23:34.878850  2705 net.cpp:91] Creating Layer conv5
I0403 05:23:34.878866  2705 net.cpp:425] conv5 <- conv4
I0403 05:23:34.878885  2705 net.cpp:399] conv5 -> conv5
I0403 05:23:34.895726  2705 net.cpp:141] Setting up conv5
I0403 05:23:34.895757  2705 net.cpp:148] Top shape: 100 256 13 13 (4326400)
I0403 05:23:34.895771  2705 net.cpp:156] Memory required for data: 800702400
I0403 05:23:34.895792  2705 layer_factory.hpp:77] Creating layer relu5
I0403 05:23:34.895812  2705 net.cpp:91] Creating Layer relu5
I0403 05:23:34.895826  2705 net.cpp:425] relu5 <- conv5
I0403 05:23:34.895843  2705 net.cpp:386] relu5 -> conv5 (in-place)
I0403 05:23:34.895861  2705 net.cpp:141] Setting up relu5
I0403 05:23:34.895877  2705 net.cpp:148] Top shape: 100 256 13 13 (4326400)
I0403 05:23:34.895891  2705 net.cpp:156] Memory required for data: 818008000
I0403 05:23:34.895905  2705 layer_factory.hpp:77] Creating layer pool5
I0403 05:23:34.895921  2705 net.cpp:91] Creating Layer pool5
I0403 05:23:34.895936  2705 net.cpp:425] pool5 <- conv5
I0403 05:23:34.895952  2705 net.cpp:399] pool5 -> pool5
I0403 05:23:34.896003  2705 net.cpp:141] Setting up pool5
I0403 05:23:34.896024  2705 net.cpp:148] Top shape: 100 256 6 6 (921600)
I0403 05:23:34.896039  2705 net.cpp:156] Memory required for data: 821694400
I0403 05:23:34.896052  2705 layer_factory.hpp:77] Creating layer fc6
I0403 05:23:34.896078  2705 net.cpp:91] Creating Layer fc6
I0403 05:23:34.896095  2705 net.cpp:425] fc6 <- pool5
I0403 05:23:34.896113  2705 net.cpp:399] fc6 -> fc6
I0403 05:23:36.325562  2705 net.cpp:141] Setting up fc6
I0403 05:23:36.325659  2705 net.cpp:148] Top shape: 100 4096 (409600)
I0403 05:23:36.325675  2705 net.cpp:156] Memory required for data: 823332800
I0403 05:23:36.325697  2705 layer_factory.hpp:77] Creating layer relu6
I0403 05:23:36.325721  2705 net.cpp:91] Creating Layer relu6
I0403 05:23:36.325736  2705 net.cpp:425] relu6 <- fc6
I0403 05:23:36.325757  2705 net.cpp:386] relu6 -> fc6 (in-place)
I0403 05:23:36.325779  2705 net.cpp:141] Setting up relu6
I0403 05:23:36.325795  2705 net.cpp:148] Top shape: 100 4096 (409600)
I0403 05:23:36.325809  2705 net.cpp:156] Memory required for data: 824971200
I0403 05:23:36.325822  2705 layer_factory.hpp:77] Creating layer drop6
I0403 05:23:36.325847  2705 net.cpp:91] Creating Layer drop6
I0403 05:23:36.325863  2705 net.cpp:425] drop6 <- fc6
I0403 05:23:36.325880  2705 net.cpp:386] drop6 -> fc6 (in-place)
I0403 05:23:36.325924  2705 net.cpp:141] Setting up drop6
I0403 05:23:36.325945  2705 net.cpp:148] Top shape: 100 4096 (409600)
I0403 05:23:36.325960  2705 net.cpp:156] Memory required for data: 826609600
I0403 05:23:36.325974  2705 layer_factory.hpp:77] Creating layer fc7
I0403 05:23:36.325997  2705 net.cpp:91] Creating Layer fc7
I0403 05:23:36.326014  2705 net.cpp:425] fc7 <- fc6
I0403 05:23:36.326031  2705 net.cpp:399] fc7 -> fc7
I0403 05:23:36.956950  2705 net.cpp:141] Setting up fc7
I0403 05:23:36.957046  2705 net.cpp:148] Top shape: 100 4096 (409600)
I0403 05:23:36.957062  2705 net.cpp:156] Memory required for data: 828248000
I0403 05:23:36.957084  2705 layer_factory.hpp:77] Creating layer relu7
I0403 05:23:36.957110  2705 net.cpp:91] Creating Layer relu7
I0403 05:23:36.957129  2705 net.cpp:425] relu7 <- fc7
I0403 05:23:36.957147  2705 net.cpp:386] relu7 -> fc7 (in-place)
I0403 05:23:36.957168  2705 net.cpp:141] Setting up relu7
I0403 05:23:36.957203  2705 net.cpp:148] Top shape: 100 4096 (409600)
I0403 05:23:36.957239  2705 net.cpp:156] Memory required for data: 829886400
I0403 05:23:36.957288  2705 layer_factory.hpp:77] Creating layer drop7
I0403 05:23:36.957325  2705 net.cpp:91] Creating Layer drop7
I0403 05:23:36.957342  2705 net.cpp:425] drop7 <- fc7
I0403 05:23:36.957362  2705 net.cpp:386] drop7 -> fc7 (in-place)
I0403 05:23:36.957401  2705 net.cpp:141] Setting up drop7
I0403 05:23:36.957434  2705 net.cpp:148] Top shape: 100 4096 (409600)
I0403 05:23:36.957453  2705 net.cpp:156] Memory required for data: 831524800
I0403 05:23:36.957468  2705 layer_factory.hpp:77] Creating layer fc8_plantvillage
I0403 05:23:36.957489  2705 net.cpp:91] Creating Layer fc8_plantvillage
I0403 05:23:36.957504  2705 net.cpp:425] fc8_plantvillage <- fc7
I0403 05:23:36.957535  2705 net.cpp:399] fc8_plantvillage -> fc8_plantvillage
I0403 05:23:36.963871  2705 net.cpp:141] Setting up fc8_plantvillage
I0403 05:23:36.963901  2705 net.cpp:148] Top shape: 100 38 (3800)
I0403 05:23:36.963917  2705 net.cpp:156] Memory required for data: 831540000
I0403 05:23:36.963933  2705 layer_factory.hpp:77] Creating layer loss
I0403 05:23:36.963958  2705 net.cpp:91] Creating Layer loss
I0403 05:23:36.963974  2705 net.cpp:425] loss <- fc8_plantvillage
I0403 05:23:36.964002  2705 net.cpp:425] loss <- label
I0403 05:23:36.964025  2705 net.cpp:399] loss -> loss
I0403 05:23:36.964051  2705 layer_factory.hpp:77] Creating layer loss
…
I0403 05:23:36.965823  2705 net.cpp:313] The NetState phase (1) differed from the phase (0) specified by a rule in layer data
I0403 05:23:36.966469  2705 net.cpp:49] Initializing net from parameters: 
state {
  phase: TEST
}
layer {
  name: "data"
  type: "Data"
  top: "data"
  top: "label"
  include {
    phase: TEST
  }
  transform_param {
    crop_size: 227
    mean_file: "/home/mohanty/data/final_dataset/lmdb/grayscale-60-40/mean.binaryproto"
  }
  data_param {
    source: "/home/mohanty/data/final_dataset/lmdb/grayscale-60-40/test_db"
    batch_size: 100
    backend: LMDB
  }
}
layer {
  name: "conv1"
  type: "Convolution"
  bottom: "data"
  top: "conv1"
  param {
    lr_mult: 1
    decay_mult: 1
  }
  param {
    lr_mult: 2
    decay_mult: 0
  }
  convolution_param {
    num_output: 96
    kernel_size: 11
    stride: 4
    weight_filler {
      type: "gaussian"
      std: 0.01
    }
    bias_filler {
      type: "constant"
      value: 0
    }
  }
}
layer {
  name: "relu1"
  type: "ReLU"
  bottom: "conv1"
  top: "conv1"
}
layer {
  name: "norm1"
  type: "LRN"
  bottom: "conv1"
  top: "norm1"
  lrn_param {
    local_size: 5
    alpha: 0.0001
    beta: 0.75
  }
}
layer {
  name: "pool1"
  type: "Pooling"
  bottom: "norm1"
  top: "pool1"
  pooling_param {
    pool: MAX
    kernel_size: 3
    stride: 2
  }
}
layer {
  name: "conv2"
  type: "Convolution"
  bottom: "pool1"
  top: "conv2"
  param {
    lr_mult: 1
    decay_mult: 1
  }
  param {
    lr_mult: 2
    decay_mult: 0
  }
  convolution_param {
    num_output: 256
    pad: 2
    kernel_size: 5
    group: 2
    weight_filler {
      type: "gaussian"
      std: 0.01
    }
    bias_filler {
      type: "constant"
      value: 0.1
    }
  }
}
layer {
  name: "relu2"
  type: "ReLU"
  bottom: "conv2"
  top: "conv2"
}
layer {
  name: "norm2"
  type: "LRN"
  bottom: "conv2"
  top: "norm2"
  lrn_param {
    local_size: 5
    alpha: 0.0001
    beta: 0.75
  }
}
layer {
  name: "pool2"
  type: "Pooling"
  bottom: "norm2"
  top: "pool2"
  pooling_param {
    pool: MAX
    kernel_size: 3
    stride: 2
  }
}
layer {
  name: "conv3"
  type: "Convolution"
  bottom: "pool2"
  top: "conv3"
  param {
    lr_mult: 1
    decay_mult: 1
  }
  param {
    lr_mult: 2
    decay_mult: 0
  }
  convolution_param {
    num_output: 384
    pad: 1
    kernel_size: 3
    weight_filler {
      type: "gaussian"
      std: 0.01
    }
    bias_filler {
      type: "constant"
      value: 0
    }
  }
}
layer {
  name: "relu3"
  type: "ReLU"
  bottom: "conv3"
  top: "conv3"
}
layer {
  name: "conv4"
  type: "Convolution"
  bottom: "conv3"
  top: "conv4"
  param {
    lr_mult: 1
    decay_mult: 1
  }
  param {
    lr_mult: 2
    decay_mult: 0
  }
  convolution_param {
    num_output: 384
    pad: 1
    kernel_size: 3
    group: 2
    weight_filler {
      type: "gaussian"
      std: 0.01
    }
    bias_filler {
      type: "constant"
      value: 0.1
    }
  }
}
layer {
  name: "relu4"
  type: "ReLU"
  bottom: "conv4"
  top: "conv4"
}
layer {
  name: "conv5"
  type: "Convolution"
  bottom: "conv4"
  top: "conv5"
  param {
    lr_mult: 1
    decay_mult: 1
  }
  param {
    lr_mult: 2
    decay_mult: 0
  }
  convolution_param {
    num_output: 256
    pad: 1
    kernel_size: 3
    group: 2
    weight_filler {
      type: "gaussian"
      std: 0.01
    }
    bias_filler {
      type: "constant"
      value: 0.1
    }
  }
}
layer {
  name: "relu5"
  type: "ReLU"
  bottom: "conv5"
  top: "conv5"
}
layer {
  name: "pool5"
  type: "Pooling"
  bottom: "conv5"
  top: "pool5"
  pooling_param {
    pool: MAX
    kernel_size: 3
    stride: 2
  }
}
layer {
  name: "fc6"
  type: "InnerProduct"
  bottom: "pool5"
  top: "fc6"
  param {
    lr_mult: 1
    decay_mult: 1
  }
  param {
    lr_mult: 2
    decay_mult: 0
  }
  inner_product_param {
    num_output: 4096
    weight_filler {
      type: "gaussian"
      std: 0.005
    }
    bias_filler {
      type: "constant"
      value: 0.1
    }
  }
}
layer {
  name: "relu6"
  type: "ReLU"
  bottom: "fc6"
  top: "fc6"
}
layer {
  name: "drop6"
  type: "Dropout"
  bottom: "fc6"
  top: "fc6"
  dropout_param {
    dropout_ratio: 0.5
  }
}
layer {
  name: "fc7"
  type: "InnerProduct"
  bottom: "fc6"
  top: "fc7"
  param {
    lr_mult: 1
    decay_mult: 1
  }
  param {
    lr_mult: 2
    decay_mult: 0
  }
  inner_product_param {
    num_output: 4096
    weight_filler {
      type: "gaussian"
      std: 0.005
    }
    bias_filler {
      type: "constant"
      value: 0.1
    }
  }
}
layer {
  name: "relu7"
  type: "ReLU"
  bottom: "fc7"
  top: "fc7"
}
layer {
  name: "drop7"
  type: "Dropout"
  bottom: "fc7"
  top: "fc7"
  dropout_param {
    dropout_ratio: 0.5
  }
}
layer {
  name: "fc8_plantvillage"
  type: "InnerProduct"
  bottom: "fc7"
  top: "fc8_plantvillage"
  param {
    lr_mult: 1
    decay_mult: 1
  }
  param {
    lr_mult: 2
    decay_mult: 0
  }
  inner_product_param {
    num_output: 38
    weight_filler {
      type: "gaussian"
      std: 0.01
    }
    bias_filler {
      type: "constant"
      value: 0
    }
  }
}
layer {
  name: "loss"
  type: "SoftmaxWithLoss"
  bottom: "fc8_plantvillage"
  bottom: "label"
  top: "loss"
}
layer {
  name: "accuracy"
  type: "Accuracy"
  bottom: "fc8_plantvillage"
  bottom: "label"
  top: "accuracy"
  include {
    phase: TEST
  }
}
I0403 05:23:36.966624  2705 layer_factory.hpp:77] Creating layer data
I0403 05:23:36.966786  2705 net.cpp:91] Creating Layer data
I0403 05:23:36.966814  2705 net.cpp:399] data -> data
I0403 05:23:36.966836  2705 net.cpp:399] data -> label
I0403 05:23:36.966862  2705 data_transformer.cpp:25] Loading mean file from: /home/mohanty/data/final_dataset/lmdb/grayscale-60-40/mean.binaryproto
I0403 05:23:37.033236  2711 db_lmdb.cpp:38] Opened lmdb /home/mohanty/data/final_dataset/lmdb/grayscale-60-40/test_db
I0403 05:23:37.076092  2705 data_layer.cpp:41] output data size: 100,3,227,227
I0403 05:23:37.238639  2705 net.cpp:141] Setting up data
I0403 05:23:37.238714  2705 net.cpp:148] Top shape: 100 3 227 227 (15458700)
I0403 05:23:37.238734  2705 net.cpp:148] Top shape: 100 (100)
I0403 05:23:37.238749  2705 net.cpp:156] Memory required for data: 61835200
I0403 05:23:37.238767  2705 layer_factory.hpp:77] Creating layer label_data_1_split
I0403 05:23:37.238795  2705 net.cpp:91] Creating Layer label_data_1_split
I0403 05:23:37.238811  2705 net.cpp:425] label_data_1_split <- label
I0403 05:23:37.238831  2705 net.cpp:399] label_data_1_split -> label_data_1_split_0
I0403 05:23:37.238854  2705 net.cpp:399] label_data_1_split -> label_data_1_split_1
I0403 05:23:37.238910  2705 net.cpp:141] Setting up label_data_1_split
I0403 05:23:37.238932  2705 net.cpp:148] Top shape: 100 (100)
I0403 05:23:37.238950  2705 net.cpp:148] Top shape: 100 (100)
I0403 05:23:37.238963  2705 net.cpp:156] Memory required for data: 61836000
I0403 05:23:37.238977  2705 layer_factory.hpp:77] Creating layer conv1
I0403 05:23:37.239003  2705 net.cpp:91] Creating Layer conv1
I0403 05:23:37.239019  2705 net.cpp:425] conv1 <- data
I0403 05:23:37.239037  2705 net.cpp:399] conv1 -> conv1
I0403 05:23:37.240586  2705 net.cpp:141] Setting up conv1
I0403 05:23:37.240614  2705 net.cpp:148] Top shape: 100 96 55 55 (29040000)
I0403 05:23:37.240629  2705 net.cpp:156] Memory required for data: 177996000
I0403 05:23:37.240653  2705 layer_factory.hpp:77] Creating layer relu1
I0403 05:23:37.240671  2705 net.cpp:91] Creating Layer relu1
I0403 05:23:37.240686  2705 net.cpp:425] relu1 <- conv1
I0403 05:23:37.240702  2705 net.cpp:386] relu1 -> conv1 (in-place)
I0403 05:23:37.240720  2705 net.cpp:141] Setting up relu1
I0403 05:23:37.240737  2705 net.cpp:148] Top shape: 100 96 55 55 (29040000)
I0403 05:23:37.240752  2705 net.cpp:156] Memory required for data: 294156000
I0403 05:23:37.240767  2705 layer_factory.hpp:77] Creating layer norm1
I0403 05:23:37.240785  2705 net.cpp:91] Creating Layer norm1
I0403 05:23:37.240802  2705 net.cpp:425] norm1 <- conv1
I0403 05:23:37.240818  2705 net.cpp:399] norm1 -> norm1
I0403 05:23:37.240866  2705 net.cpp:141] Setting up norm1
I0403 05:23:37.240888  2705 net.cpp:148] Top shape: 100 96 55 55 (29040000)
I0403 05:23:37.240902  2705 net.cpp:156] Memory required for data: 410316000
I0403 05:23:37.240916  2705 layer_factory.hpp:77] Creating layer pool1
I0403 05:23:37.240936  2705 net.cpp:91] Creating Layer pool1
I0403 05:23:37.240950  2705 net.cpp:425] pool1 <- norm1
I0403 05:23:37.240968  2705 net.cpp:399] pool1 -> pool1
I0403 05:23:37.241017  2705 net.cpp:141] Setting up pool1
I0403 05:23:37.241039  2705 net.cpp:148] Top shape: 100 96 27 27 (6998400)
I0403 05:23:37.241053  2705 net.cpp:156] Memory required for data: 438309600
I0403 05:23:37.241091  2705 layer_factory.hpp:77] Creating layer conv2
I0403 05:23:37.241113  2705 net.cpp:91] Creating Layer conv2
I0403 05:23:37.241130  2705 net.cpp:425] conv2 <- pool1
I0403 05:23:37.241149  2705 net.cpp:399] conv2 -> conv2
I0403 05:23:37.259929  2705 net.cpp:141] Setting up conv2
I0403 05:23:37.259969  2705 net.cpp:148] Top shape: 100 256 27 27 (18662400)
I0403 05:23:37.259989  2705 net.cpp:156] Memory required for data: 512959200
I0403 05:23:37.260010  2705 layer_factory.hpp:77] Creating layer relu2
I0403 05:23:37.260030  2705 net.cpp:91] Creating Layer relu2
I0403 05:23:37.260046  2705 net.cpp:425] relu2 <- conv2
I0403 05:23:37.260063  2705 net.cpp:386] relu2 -> conv2 (in-place)
I0403 05:23:37.260082  2705 net.cpp:141] Setting up relu2
I0403 05:23:37.260099  2705 net.cpp:148] Top shape: 100 256 27 27 (18662400)
I0403 05:23:37.260113  2705 net.cpp:156] Memory required for data: 587608800
I0403 05:23:37.260128  2705 layer_factory.hpp:77] Creating layer norm2
I0403 05:23:37.260148  2705 net.cpp:91] Creating Layer norm2
I0403 05:23:37.260162  2705 net.cpp:425] norm2 <- conv2
I0403 05:23:37.260179  2705 net.cpp:399] norm2 -> norm2
I0403 05:23:37.260228  2705 net.cpp:141] Setting up norm2
I0403 05:23:37.260251  2705 net.cpp:148] Top shape: 100 256 27 27 (18662400)
I0403 05:23:37.260267  2705 net.cpp:156] Memory required for data: 662258400
I0403 05:23:37.260282  2705 layer_factory.hpp:77] Creating layer pool2
I0403 05:23:37.260299  2705 net.cpp:91] Creating Layer pool2
I0403 05:23:37.260314  2705 net.cpp:425] pool2 <- norm2
I0403 05:23:37.260335  2705 net.cpp:399] pool2 -> pool2
I0403 05:23:37.260396  2705 net.cpp:141] Setting up pool2
I0403 05:23:37.260421  2705 net.cpp:148] Top shape: 100 256 13 13 (4326400)
I0403 05:23:37.260437  2705 net.cpp:156] Memory required for data: 679564000
I0403 05:23:37.260452  2705 layer_factory.hpp:77] Creating layer conv3
I0403 05:23:37.260473  2705 net.cpp:91] Creating Layer conv3
I0403 05:23:37.260489  2705 net.cpp:425] conv3 <- pool2
I0403 05:23:37.260507  2705 net.cpp:399] conv3 -> conv3
I0403 05:23:37.296665  2705 net.cpp:141] Setting up conv3
I0403 05:23:37.296732  2705 net.cpp:148] Top shape: 100 384 13 13 (6489600)
I0403 05:23:37.296759  2705 net.cpp:156] Memory required for data: 705522400
I0403 05:23:37.296787  2705 layer_factory.hpp:77] Creating layer relu3
I0403 05:23:37.296814  2705 net.cpp:91] Creating Layer relu3
I0403 05:23:37.296833  2705 net.cpp:425] relu3 <- conv3
I0403 05:23:37.296851  2705 net.cpp:386] relu3 -> conv3 (in-place)
I0403 05:23:37.296872  2705 net.cpp:141] Setting up relu3
I0403 05:23:37.296890  2705 net.cpp:148] Top shape: 100 384 13 13 (6489600)
I0403 05:23:37.296905  2705 net.cpp:156] Memory required for data: 731480800
I0403 05:23:37.296921  2705 layer_factory.hpp:77] Creating layer conv4
I0403 05:23:37.296944  2705 net.cpp:91] Creating Layer conv4
I0403 05:23:37.296960  2705 net.cpp:425] conv4 <- conv3
I0403 05:23:37.296980  2705 net.cpp:399] conv4 -> conv4
I0403 05:23:37.324067  2705 net.cpp:141] Setting up conv4
I0403 05:23:37.324102  2705 net.cpp:148] Top shape: 100 384 13 13 (6489600)
I0403 05:23:37.324118  2705 net.cpp:156] Memory required for data: 757439200
I0403 05:23:37.324139  2705 layer_factory.hpp:77] Creating layer relu4
I0403 05:23:37.324159  2705 net.cpp:91] Creating Layer relu4
I0403 05:23:37.324177  2705 net.cpp:425] relu4 <- conv4
I0403 05:23:37.324194  2705 net.cpp:386] relu4 -> conv4 (in-place)
I0403 05:23:37.324215  2705 net.cpp:141] Setting up relu4
I0403 05:23:37.324234  2705 net.cpp:148] Top shape: 100 384 13 13 (6489600)
I0403 05:23:37.324249  2705 net.cpp:156] Memory required for data: 783397600
I0403 05:23:37.324262  2705 layer_factory.hpp:77] Creating layer conv5
I0403 05:23:37.324285  2705 net.cpp:91] Creating Layer conv5
I0403 05:23:37.324302  2705 net.cpp:425] conv5 <- conv4
I0403 05:23:37.324322  2705 net.cpp:399] conv5 -> conv5
I0403 05:23:37.342170  2705 net.cpp:141] Setting up conv5
I0403 05:23:37.342206  2705 net.cpp:148] Top shape: 100 256 13 13 (4326400)
I0403 05:23:37.342252  2705 net.cpp:156] Memory required for data: 800703200
I0403 05:23:37.342277  2705 layer_factory.hpp:77] Creating layer relu5
I0403 05:23:37.342298  2705 net.cpp:91] Creating Layer relu5
I0403 05:23:37.342314  2705 net.cpp:425] relu5 <- conv5
I0403 05:23:37.342334  2705 net.cpp:386] relu5 -> conv5 (in-place)
I0403 05:23:37.342361  2705 net.cpp:141] Setting up relu5
I0403 05:23:37.342381  2705 net.cpp:148] Top shape: 100 256 13 13 (4326400)
I0403 05:23:37.342396  2705 net.cpp:156] Memory required for data: 818008800
I0403 05:23:37.342411  2705 layer_factory.hpp:77] Creating layer pool5
I0403 05:23:37.342432  2705 net.cpp:91] Creating Layer pool5
I0403 05:23:37.342448  2705 net.cpp:425] pool5 <- conv5
I0403 05:23:37.342470  2705 net.cpp:399] pool5 -> pool5
I0403 05:23:37.342524  2705 net.cpp:141] Setting up pool5
I0403 05:23:37.342546  2705 net.cpp:148] Top shape: 100 256 6 6 (921600)
I0403 05:23:37.342561  2705 net.cpp:156] Memory required for data: 821695200
I0403 05:23:37.342576  2705 layer_factory.hpp:77] Creating layer fc6
I0403 05:23:37.342599  2705 net.cpp:91] Creating Layer fc6
I0403 05:23:37.342617  2705 net.cpp:425] fc6 <- pool5
I0403 05:23:37.342634  2705 net.cpp:399] fc6 -> fc6
I0403 05:23:38.775977  2705 net.cpp:141] Setting up fc6
I0403 05:23:38.776070  2705 net.cpp:148] Top shape: 100 4096 (409600)
I0403 05:23:38.776087  2705 net.cpp:156] Memory required for data: 823333600
I0403 05:23:38.776108  2705 layer_factory.hpp:77] Creating layer relu6
I0403 05:23:38.776130  2705 net.cpp:91] Creating Layer relu6
I0403 05:23:38.776146  2705 net.cpp:425] relu6 <- fc6
I0403 05:23:38.776167  2705 net.cpp:386] relu6 -> fc6 (in-place)
I0403 05:23:38.776188  2705 net.cpp:141] Setting up relu6
I0403 05:23:38.776204  2705 net.cpp:148] Top shape: 100 4096 (409600)
I0403 05:23:38.776217  2705 net.cpp:156] Memory required for data: 824972000
I0403 05:23:38.776232  2705 layer_factory.hpp:77] Creating layer drop6
I0403 05:23:38.776249  2705 net.cpp:91] Creating Layer drop6
I0403 05:23:38.776264  2705 net.cpp:425] drop6 <- fc6
I0403 05:23:38.776279  2705 net.cpp:386] drop6 -> fc6 (in-place)
I0403 05:23:38.776319  2705 net.cpp:141] Setting up drop6
I0403 05:23:38.776340  2705 net.cpp:148] Top shape: 100 4096 (409600)
I0403 05:23:38.776361  2705 net.cpp:156] Memory required for data: 826610400
I0403 05:23:38.776376  2705 layer_factory.hpp:77] Creating layer fc7
I0403 05:23:38.776398  2705 net.cpp:91] Creating Layer fc7
I0403 05:23:38.776414  2705 net.cpp:425] fc7 <- fc6
I0403 05:23:38.776432  2705 net.cpp:399] fc7 -> fc7
I0403 05:23:39.406361  2705 net.cpp:141] Setting up fc7
I0403 05:23:39.406461  2705 net.cpp:148] Top shape: 100 4096 (409600)
I0403 05:23:39.406477  2705 net.cpp:156] Memory required for data: 828248800
I0403 05:23:39.406499  2705 layer_factory.hpp:77] Creating layer relu7
I0403 05:23:39.406525  2705 net.cpp:91] Creating Layer relu7
I0403 05:23:39.406543  2705 net.cpp:425] relu7 <- fc7
I0403 05:23:39.406561  2705 net.cpp:386] relu7 -> fc7 (in-place)
I0403 05:23:39.406581  2705 net.cpp:141] Setting up relu7
I0403 05:23:39.406597  2705 net.cpp:148] Top shape: 100 4096 (409600)
I0403 05:23:39.406610  2705 net.cpp:156] Memory required for data: 829887200
I0403 05:23:39.406625  2705 layer_factory.hpp:77] Creating layer drop7
I0403 05:23:39.406642  2705 net.cpp:91] Creating Layer drop7
I0403 05:23:39.406656  2705 net.cpp:425] drop7 <- fc7
I0403 05:23:39.406674  2705 net.cpp:386] drop7 -> fc7 (in-place)
I0403 05:23:39.406711  2705 net.cpp:141] Setting up drop7
I0403 05:23:39.406733  2705 net.cpp:148] Top shape: 100 4096 (409600)
I0403 05:23:39.406745  2705 net.cpp:156] Memory required for data: 831525600
I0403 05:23:39.406759  2705 layer_factory.hpp:77] Creating layer fc8_plantvillage
I0403 05:23:39.406785  2705 net.cpp:91] Creating Layer fc8_plantvillage
I0403 05:23:39.406801  2705 net.cpp:425] fc8_plantvillage <- fc7
I0403 05:23:39.406818  2705 net.cpp:399] fc8_plantvillage -> fc8_plantvillage
I0403 05:23:39.412989  2705 net.cpp:141] Setting up fc8_plantvillage
I0403 05:23:39.413017  2705 net.cpp:148] Top shape: 100 38 (3800)
I0403 05:23:39.413075  2705 net.cpp:156] Memory required for data: 831540800
I0403 05:23:39.413094  2705 layer_factory.hpp:77] Creating layer fc8_plantvillage_fc8_plantvillage_0_split
I0403 05:23:39.413112  2705 net.cpp:91] Creating Layer fc8_plantvillage_fc8_plantvillage_0_split
I0403 05:23:39.413126  2705 net.cpp:425] fc8_plantvillage_fc8_plantvillage_0_split <- fc8_plantvillage
I0403 05:23:39.413146  2705 net.cpp:399] fc8_plantvillage_fc8_plantvillage_0_split -> fc8_plantvillage_fc8_plantvillage_0_split_0
I0403 05:23:39.413166  2705 net.cpp:399] fc8_plantvillage_fc8_plantvillage_0_split -> fc8_plantvillage_fc8_plantvillage_0_split_1
I0403 05:23:39.413211  2705 net.cpp:141] Setting up fc8_plantvillage_fc8_plantvillage_0_split
I0403 05:23:39.413234  2705 net.cpp:148] Top shape: 100 38 (3800)
I0403 05:23:39.413250  2705 net.cpp:148] Top shape: 100 38 (3800)
I0403 05:23:39.413264  2705 net.cpp:156] Memory required for data: 831571200
I0403 05:23:39.413277  2705 layer_factory.hpp:77] Creating layer loss
I0403 05:23:39.413293  2705 net.cpp:91] Creating Layer loss
I0403 05:23:39.413310  2705 net.cpp:425] loss <- fc8_plantvillage_fc8_plantvillage_0_split_0
I0403 05:23:39.413331  2705 net.cpp:425] loss <- label_data_1_split_0
I0403 05:23:39.413347  2705 net.cpp:399] loss -> loss
…
