…
I0403 15:10:27.888502 31246 net.cpp:313] The NetState phase (1) differed from the phase (0) specified by a rule in layer data
I0403 15:10:27.889642 31246 net.cpp:49] Initializing net from parameters: 
state {
  phase: TEST
}
layer {
  name: "data"
  type: "Data"
  top: "data"
  top: "label"
  include {
    phase: TEST
  }
  transform_param {
    mirror: false
    crop_size: 224
    mean_file: "/home/mohanty/data/final_dataset/lmdb/grayscale-80-20/mean.binaryproto"
  }
  data_param {
    source: "/home/mohanty/data/final_dataset/lmdb/grayscale-80-20/test_db"
    batch_size: 24
    backend: LMDB
  }
}
layer {
  name: "conv1/7x7_s2"
  type: "Convolution"
  bottom: "data"
  top: "conv1/7x7_s2"
  param {
    lr_mult: 1
    decay_mult: 1
  }
  param {
    lr_mult: 2
    decay_mult: 0
  }
  convolution_param {
    num_output: 64
    pad: 3
    kernel_size: 7
    stride: 2
    weight_filler {
      type: "xavier"
      std: 0.1
    }
    bias_filler {
      type: "constant"
      value: 0.2
    }
  }
}
layer {
  name: "conv1/relu_7x7"
  type: "ReLU"
  bottom: "conv1/7x7_s2"
  top: "conv1/7x7_s2"
}
layer {
  name: "pool1/3x3_s2"
  type: "Pooling"
  bottom: "conv1/7x7_s2"
  top: "pool1/3x3_s2"
  pooling_param {
    pool: MAX
    kernel_size: 3
    stride: 2
  }
}
layer {
  name: "pool1/norm1"
  type: "LRN"
  bottom: "pool1/3x3_s2"
  top: "pool1/norm1"
  lrn_param {
    local_size: 5
    alpha: 0.0001
    beta: 0.75
  }
}
layer {
  name: "conv2/3x3_reduce"
  type: "Convolution"
  bottom: "pool1/norm1"
  top: "conv2/3x3_reduce"
  param {
    lr_mult: 1
    decay_mult: 1
  }
  param {
    lr_mult: 2
    decay_mult: 0
  }
  convolution_param {
    num_output: 64
    kernel_size: 1
    weight_filler {
      type: "xavier"
      std: 0.1
    }
    bias_filler {
      type: "constant"
      value: 0.2
    }
  }
}
layer {
  name: "conv2/relu_3x3_reduce"
  type: "ReLU"
  bottom: "conv2/3x3_reduce"
  top: "conv2/3x3_reduce"
}
layer {
  name: "conv2/3x3"
  type: "Convolution"
  bottom: "conv2/3x3_reduce"
  top: "conv2/3x3"
  param {
    lr_mult: 1
    decay_mult: 1
  }
  param {
    lr_mult: 2
    decay_mult: 0
  }
  convolution_param {
    num_output: 192
    pad: 1
    kernel_size: 3
    weight_filler {
      type: "xavier"
      std: 0.03
    }
    bias_filler {
      type: "constant"
      value: 0.2
    }
  }
}
layer {
  name: "conv2/relu_3x3"
  type: "ReLU"
  bottom: "conv2/3x3"
  top: "conv2/3x3"
}
layer {
  name: "conv2/norm2"
  type: "LRN"
  bottom: "conv2/3x3"
  top: "conv2/norm2"
  lrn_param {
    local_size: 5
    alpha: 0.0001
    beta: 0.75
  }
}
layer {
  name: "pool2/3x3_s2"
  type: "Pooling"
  bottom: "conv2/norm2"
  top: "pool2/3x3_s2"
  pooling_param {
    pool: MAX
    kernel_size: 3
    stride: 2
  }
}
layer {
  name: "inception_3a/1x1"
  type: "Convolution"
  bottom: "pool2/3x3_s2"
  top: "inception_3a/1x1"
  param {
    lr_mult: 1
    decay_mult: 1
  }
  param {
    lr_mult: 2
    decay_mult: 0
  }
  convolution_param {
    num_output: 64
    kernel_size: 1
    weight_filler {
      type: "xavier"
      std: 0.03
    }
    bias_filler {
      type: "constant"
      value: 0.2
    }
  }
}
layer {
  name: "inception_3a/relu_1x1"
  type: "ReLU"
  bottom: "inception_3a/1x1"
  top: "inception_3a/1x1"
}
layer {
  name: "inception_3a/3x3_reduce"
  type: "Convolution"
  bottom: "pool2/3x3_s2"
  top: "inception_3a/3x3_reduce"
  param {
    lr_mult: 1
    decay_mult: 1
  }
  param {
    lr_mult: 2
    decay_mult: 0
  }
  convolution_param {
    num_output: 96
    kernel_size: 1
    weight_filler {
      type: "xavier"
      std: 0.09
    }
    bias_filler {
      type: "constant"
      value: 0.2
    }
  }
}
layer {
  name: "inception_3a/relu_3x3_reduce"
  type: "ReLU"
  bottom: "inception_3a/3x3_reduce"
  top: "inception_3a/3x3_reduce"
}
layer {
  name: "inception_3a/3x3"
  type: "Convolution"
  bottom: "inception_3a/3x3_reduce"
  top: "inception_3a/3x3"
  param {
    lr_mult: 1
    decay_mult: 1
  }
  param {
    lr_mult: 2
    decay_mult: 0
  }
  convolution_param {
    num_output: 128
    pad: 1
    kernel_size: 3
    weight_filler {
      type: "xavier"
      std: 0.03
    }
    bias_filler {
      type: "constant"
      value: 0.2
    }
  }
}
layer {
  name: "inception_3a/relu_3x3"
  type: "ReLU"
  bottom: "inception_3a/3x3"
  top: "inception_3a/3x3"
}
layer {
  name: "inception_3a/5x5_reduce"
  type: "Convolution"
  bottom: "pool2/3x3_s2"
  top: "inception_3a/5x5_reduce"
  param {
    lr_mult: 1
    decay_mult: 1
  }
  param {
    lr_mult: 2
    decay_mult: 0
  }
  convolution_param {
    num_output: 16
    kernel_size: 1
    weight_filler {
      type: "xavier"
      std: 0.2
    }
    bias_filler {
      type: "constant"
      value: 0.2
    }
  }
}
layer {
  name: "inception_3a/relu_5x5_reduce"
  type: "ReLU"
  bottom: "inception_3a/5x5_reduce"
  top: "inception_3a/5x5_reduce"
}
layer {
  name: "inception_3a/5x5"
  type: "Convolution"
  bottom: "inception_3a/5x5_reduce"
  top: "inception_3a/5x5"
  param {
    lr_mult: 1
    decay_mult: 1
  }
  param {
    lr_mult: 2
    decay_mult: 0
  }
  convolution_param {
    num_output: 32
    pad: 2
    kernel_size: 5
    weight_filler {
      type: "xavier"
      std: 0.03
    }
    bias_filler {
      type: "constant"
      value: 0.2
    }
  }
}
layer {
  name: "inception_3a/relu_5x5"
  type: "ReLU"
  bottom: "inception_3a/5x5"
  top: "inception_3a/5x5"
}
layer {
  name: "inception_3a/pool"
  type: "Pooling"
  bottom: "pool2/3x3_s2"
  top: "inception_3a/pool"
  pooling_param {
    pool: MAX
    kernel_size: 3
    stride: 1
    pad: 1
  }
}
layer {
  name: "inception_3a/pool_proj"
  type: "Convolution"
  bottom: "inception_3a/pool"
  top: "inception_3a/pool_proj"
  param {
    lr_mult: 1
    decay_mult: 1
  }
  param {
    lr_mult: 2
    decay_mult: 0
  }
  convolution_param {
    num_output: 32
    kernel_size: 1
    weight_filler {
      type: "xavier"
      std: 0.1
    }
    bias_filler {
      type: "constant"
      value: 0.2
    }
  }
}
layer {
  name: "inception_3a/relu_pool_proj"
  type: "ReLU"
  bottom: "inception_3a/pool_proj"
  top: "inception_3a/pool_proj"
}
layer {
  name: "inception_3a/output"
  type: "Concat"
  bottom: "inception_3a/1x1"
  bottom: "inception_3a/3x3"
  bottom: "inception_3a/5x5"
  bottom: "inception_3a/pool_proj"
  top: "inception_3a/output"
}
layer {
  name: "inception_3b/1x1"
  type: "Convolution"
  bottom: "inception_3a/output"
  top: "inception_3b/1x1"
  param {
    lr_mult: 1
    decay_mult: 1
  }
  param {
    lr_mult: 2
    decay_mult: 0
  }
  convolution_param {
    num_output: 128
    kernel_size: 1
    weight_filler {
      type: "xavier"
      std: 0.03
    }
    bias_filler {
      type: "constant"
      value: 0.2
    }
  }
}
layer {
  name: "inception_3b/relu_1x1"
  type: "ReLU"
  bottom: "inception_3b/1x1"
  top: "inception_3b/1x1"
}
layer {
  name: "inception_3b/3x3_reduce"
  type: "Convolution"
  bottom: "inception_3a/output"
  top: "inception_3b/3x3_reduce"
  param {
    lr_mult: 1
    decay_mult: 1
  }
  param {
    lr_mult: 2
    decay_mult: 0
  }
  convolution_param {
    num_output: 128
    kernel_size: 1
    weight_filler {
      type: "xavier"
      std: 0.09
    }
    bias_filler {
      type: "constant"
      value: 0.2
    }
  }
}
layer {
  name: "inception_3b/relu_3x3_reduce"
  type: "ReLU"
  bottom: "inception_3b/3x3_reduce"
  top: "inception_3b/3x3_reduce"
}
layer {
  name: "inception_3b/3x3"
  type: "Convolution"
  bottom: "inception_3b/3x3_reduce"
  top: "inception_3b/3x3"
  param {
    lr_mult: 1
    decay_mult: 1
  }
  param {
    lr_mult: 2
    decay_mult: 0
  }
  convolution_param {
    num_output: 192
    pad: 1
    kernel_size: 3
    weight_filler {
      type: "xavier"
      std: 0.03
    }
    bias_filler {
      type: "constant"
      value: 0.2
    }
  }
}
layer {
  name: "inception_3b/relu_3x3"
  type: "ReLU"
  bottom: "inception_3b/3x3"
  top: "inception_3b/3x3"
}
layer {
  name: "inception_3b/5x5_reduce"
  type: "Convolution"
  bottom: "inception_3a/output"
  top: "inception_3b/5x5_reduce"
  param {
    lr_mult: 1
    decay_mult: 1
  }
  param {
    lr_mult: 2
    decay_mult: 0
  }
  convolution_param {
    num_output: 32
    kernel_size: 1
    weight_filler {
      type: "xavier"
      std: 0.2
    }
    bias_filler {
      type: "constant"
      value: 0.2
    }
  }
}
layer {
  name: "inception_3b/relu_5x5_reduce"
  type: "ReLU"
  bottom: "inception_3b/5x5_reduce"
  top: "inception_3b/5x5_reduce"
}
layer {
  name: "inception_3b/5x5"
  type: "Convolution"
  bottom: "inception_3b/5x5_reduce"
  top: "inception_3b/5x5"
  param {
    lr_mult: 1
    decay_mult: 1
  }
  param {
    lr_mult: 2
    decay_mult: 0
  }
  convolution_param {
    num_output: 96
    pad: 2
    kernel_size: 5
    weight_filler {
      type: "xavier"
      std: 0.03
    }
    bias_filler {
      type: "constant"
      value: 0.2
    }
  }
}
layer {
  name: "inception_3b/relu_5x5"
  type: "ReLU"
  bottom: "inception_3b/5x5"
  top: "inception_3b/5x5"
}
layer {
  name: "inception_3b/pool"
  type: "Pooling"
  bottom: "inception_3a/output"
  top: "inception_3b/pool"
  pooling_param {
    pool: MAX
    kernel_size: 3
    stride: 1
    pad: 1
  }
}
layer {
  name: "inception_3b/pool_proj"
  type: "Convolution"
  bottom: "inception_3b/pool"
  top: "inception_3b/pool_proj"
  param {
    lr_mult: 1
    decay_mult: 1
  }
  param {
    lr_mult: 2
    decay_mult: 0
  }
  convolution_param {
    num_output: 64
    kernel_size: 1
    weight_filler {
      type: "xavier"
      std: 0.1
    }
    bias_filler {
      type: "constant"
      value: 0.2
    }
  }
}
layer {
  name: "inception_3b/relu_pool_proj"
  type: "ReLU"
  bottom: "inception_3b/pool_proj"
  top: "inception_3b/pool_proj"
}
layer {
  name: "inception_3b/output"
  type: "Concat"
  bottom: "inception_3b/1x1"
  bottom: "inception_3b/3x3"
  bottom: "inception_3b/5x5"
  bottom: "inception_3b/pool_proj"
  top: "inception_3b/output"
}
layer {
  name: "pool3/3x3_s2"
  type: "Pooling"
  bottom: "inception_3b/output"
  top: "pool3/3x3_s2"
  pooling_param {
    pool: MAX
    kernel_size: 3
    stride: 2
  }
}
layer {
  name: "inception_4a/1x1"
  type: "Convolution"
  bottom: "pool3/3x3_s2"
  top: "inception_4a/1x1"
  param {
    lr_mult: 1
    decay_mult: 1
  }
  param {
    lr_mult: 2
    decay_mult: 0
  }
  convolution_param {
    num_output: 192
    kernel_size: 1
    weight_filler {
      type: "xavier"
      std: 0.03
    }
    bias_filler {
      type: "constant"
      value: 0.2
    }
  }
}
layer {
  name: "inception_4a/relu_1x1"
  type: "ReLU"
  bottom: "inception_4a/1x1"
  top: "inception_4a/1x1"
}
layer {
  name: "inception_4a/3x3_reduce"
  type: "Convolution"
  bottom: "pool3/3x3_s2"
  top: "inception_4a/3x3_reduce"
  param {
    lr_mult: 1
    decay_mult: 1
  }
  param {
    lr_mult: 2
    decay_mult: 0
  }
  convolution_param {
    num_output: 96
    kernel_size: 1
    weight_filler {
      type: "xavier"
      std: 0.09
    }
    bias_filler {
      type: "constant"
      value: 0.2
    }
  }
}
layer {
  name: "inception_4a/relu_3x3_reduce"
  type: "ReLU"
  bottom: "inception_4a/3x3_reduce"
  top: "inception_4a/3x3_reduce"
}
layer {
  name: "inception_4a/3x3"
  type: "Convolution"
  bottom: "inception_4a/3x3_reduce"
  top: "inception_4a/3x3"
  param {
    lr_mult: 1
    decay_mult: 1
  }
  param {
    lr_mult: 2
    decay_mult: 0
  }
  convolution_param {
    num_output: 208
    pad: 1
    kernel_size: 3
    weight_filler {
      type: "xavier"
      std: 0.03
    }
    bias_filler {
      type: "constant"
      value: 0.2
    }
  }
}
layer {
  name: "inception_4a/relu_3x3"
  type: "ReLU"
  bottom: "inception_4a/3x3"
  top: "inception_4a/3x3"
}
layer {
  name: "inception_4a/5x5_reduce"
  type: "Convolution"
  bottom: "pool3/3x3_s2"
  top: "inception_4a/5x5_reduce"
  param {
    lr_mult: 1
    decay_mult: 1
  }
  param {
    lr_mult: 2
    decay_mult: 0
  }
  convolution_param {
    num_output: 16
    kernel_size: 1
    weight_filler {
      type: "xavier"
      std: 0.2
    }
    bias_filler {
      type: "constant"
      value: 0.2
    }
  }
}
layer {
  name: "inception_4a/relu_5x5_reduce"
  type: "ReLU"
  bottom: "inception_4a/5x5_reduce"
  top: "inception_4a/5x5_reduce"
}
layer {
  name: "inception_4a/5x5"
  type: "Convolution"
  bottom: "inception_4a/5x5_reduce"
  top: "inception_4a/5x5"
  param {
    lr_mult: 1
    decay_mult: 1
  }
  param {
    lr_mult: 2
    decay_mult: 0
  }
  convolution_param {
    num_output: 48
    pad: 2
    kernel_size: 5
    weight_filler {
      type: "xavier"
      std: 0.03
    }
    bias_filler {
      type: "constant"
      value: 0.2
    }
  }
}
layer {
  name: "inception_4a/relu_5x5"
  type: "ReLU"
  bottom: "inception_4a/5x5"
  top: "inception_4a/5x5"
}
layer {
  name: "inception_4a/pool"
  type: "Pooling"
  bottom: "pool3/3x3_s2"
  top: "inception_4a/pool"
  pooling_param {
    pool: MAX
    kernel_size: 3
    stride: 1
    pad: 1
  }
}
layer {
  name: "inception_4a/pool_proj"
  type: "Convolution"
  bottom: "inception_4a/pool"
  top: "inception_4a/pool_proj"
  param {
    lr_mult: 1
    decay_mult: 1
  }
  param {
    lr_mult: 2
    decay_mult: 0
  }
  convolution_param {
    num_output: 64
    kernel_size: 1
    weight_filler {
      type: "xavier"
      std: 0.1
    }
    bias_filler {
      type: "constant"
      value: 0.2
    }
  }
}
layer {
  name: "inception_4a/relu_pool_proj"
  type: "ReLU"
  bottom: "inception_4a/pool_proj"
  top: "inception_4a/pool_proj"
}
layer {
  name: "inception_4a/output"
  type: "Concat"
  bottom: "inception_4a/1x1"
  bottom: "inception_4a/3x3"
  bottom: "inception_4a/5x5"
  bottom: "inception_4a/pool_proj"
  top: "inception_4a/output"
}
layer {
  name: "loss1/ave_pool"
  type: "Pooling"
  bottom: "inception_4a/output"
  top: "loss1/ave_pool"
  pooling_param {
    pool: AVE
    kernel_size: 5
    stride: 3
  }
}
layer {
  name: "loss1/conv"
  type: "Convolution"
  bottom: "loss1/ave_pool"
  top: "loss1/conv"
  param {
    lr_mult: 1
    decay_mult: 1
  }
  param {
    lr_mult: 2
    decay_mult: 0
  }
  convolution_param {
    num_output: 128
    kernel_size: 1
    weight_filler {
      type: "xavier"
      std: 0.08
    }
    bias_filler {
      type: "constant"
      value: 0.2
    }
  }
}
layer {
  name: "loss1/relu_conv"
  type: "ReLU"
  bottom: "loss1/conv"
  top: "loss1/conv"
}
layer {
  name: "loss1/fc"
  type: "InnerProduct"
  bottom: "loss1/conv"
  top: "loss1/fc"
  param {
    lr_mult: 1
    decay_mult: 1
  }
  param {
    lr_mult: 2
    decay_mult: 0
  }
  inner_product_param {
    num_output: 1024
    weight_filler {
      type: "xavier"
      std: 0.02
    }
    bias_filler {
      type: "constant"
      value: 0.2
    }
  }
}
layer {
  name: "loss1/relu_fc"
  type: "ReLU"
  bottom: "loss1/fc"
  top: "loss1/fc"
}
layer {
  name: "loss1/drop_fc"
  type: "Dropout"
  bottom: "loss1/fc"
  top: "loss1/fc"
  dropout_param {
    dropout_ratio: 0.7
  }
}
layer {
  name: "loss1/classifier_plantvillage"
  type: "InnerProduct"
  bottom: "loss1/fc"
  top: "loss1/classifier_plantvillage"
  param {
    lr_mult: 1
    decay_mult: 1
  }
  param {
    lr_mult: 2
    decay_mult: 0
  }
  inner_product_param {
    num_output: 38
    weight_filler {
      type: "xavier"
      std: 0.0009765625
    }
    bias_filler {
      type: "constant"
      value: 0
    }
  }
}
layer {
  name: "inception_4b/1x1"
  type: "Convolution"
  bottom: "inception_4a/output"
  top: "inception_4b/1x1"
  param {
    lr_mult: 1
    decay_mult: 1
  }
  param {
    lr_mult: 2
    decay_mult: 0
  }
  convolution_param {
    num_output: 160
    kernel_size: 1
    weight_filler {
      type: "xavier"
      std: 0.03
    }
    bias_filler {
      type: "constant"
      value: 0.2
    }
  }
}
layer {
  name: "inception_4b/relu_1x1"
  type: "ReLU"
  bottom: "inception_4b/1x1"
  top: "inception_4b/1x1"
}
layer {
  name: "inception_4b/3x3_reduce"
  type: "Convolution"
  bottom: "inception_4a/output"
  top: "inception_4b/3x3_reduce"
  param {
    lr_mult: 1
    decay_mult: 1
  }
  param {
    lr_mult: 2
    decay_mult: 0
  }
  convolution_param {
    num_output: 112
    kernel_size: 1
    weight_filler {
      type: "xavier"
      std: 0.09
    }
    bias_filler {
      type: "constant"
      value: 0.2
    }
  }
}
layer {
  name: "inception_4b/relu_3x3_reduce"
  type: "ReLU"
  bottom: "inception_4b/3x3_reduce"
  top: "inception_4b/3x3_reduce"
}
layer {
  name: "inception_4b/3x3"
  type: "Convolution"
  bottom: "inception_4b/3x3_reduce"
  top: "inception_4b/3x3"
  param {
    lr_mult: 1
    decay_mult: 1
  }
  param {
    lr_mult: 2
    decay_mult: 0
  }
  convolution_param {
    num_output: 224
    pad: 1
    kernel_size: 3
    weight_filler {
      type: "xavier"
      std: 0.03
    }
    bias_filler {
      type: "constant"
      value: 0.2
    }
  }
}
layer {
  name: "inception_4b/relu_3x3"
  type: "ReLU"
  bottom: "inception_4b/3x3"
  top: "inception_4b/3x3"
}
layer {
  name: "inception_4b/5x5_reduce"
  type: "Convolution"
  bottom: "inception_4a/output"
  top: "inception_4b/5x5_reduce"
  param {
    lr_mult: 1
    decay_mult: 1
  }
  param {
    lr_mult: 2
    decay_mult: 0
  }
  convolution_param {
    num_output: 24
    kernel_size: 1
    weight_filler {
      type: "xavier"
      std: 0.2
    }
    bias_filler {
      type: "constant"
      value: 0.2
    }
  }
}
layer {
  name: "inception_4b/relu_5x5_reduce"
  type: "ReLU"
  bottom: "inception_4b/5x5_reduce"
  top: "inception_4b/5x5_reduce"
}
layer {
  name: "inception_4b/5x5"
  type: "Convolution"
  bottom: "inception_4b/5x5_reduce"
  top: "inception_4b/5x5"
  param {
    lr_mult: 1
    decay_mult: 1
  }
  param {
    lr_mult: 2
    decay_mult: 0
  }
  convolution_param {
    num_output: 64
    pad: 2
    kernel_size: 5
    weight_filler {
      type: "xavier"
      std: 0.03
    }
    bias_filler {
      type: "constant"
      value: 0.2
    }
  }
}
layer {
  name: "inception_4b/relu_5x5"
  type: "ReLU"
  bottom: "inception_4b/5x5"
  top: "inception_4b/5x5"
}
layer {
  name: "inception_4b/pool"
  type: "Pooling"
  bottom: "inception_4a/output"
  top: "inception_4b/pool"
  pooling_param {
    pool: MAX
    kernel_size: 3
    stride: 1
    pad: 1
  }
}
layer {
  name: "inception_4b/pool_proj"
  type: "Convolution"
  bottom: "inception_4b/pool"
  top: "inception_4b/pool_proj"
  param {
    lr_mult: 1
    decay_mult: 1
  }
  param {
    lr_mult: 2
    decay_mult: 0
  }
  convolution_param {
    num_output: 64
    kernel_size: 1
    weight_filler {
      type: "xavier"
      std: 0.1
    }
    bias_filler {
      type: "constant"
      value: 0.2
    }
  }
}
layer {
  name: "inception_4b/relu_pool_proj"
  type: "ReLU"
  bottom: "inception_4b/pool_proj"
  top: "inception_4b/pool_proj"
}
layer {
  name: "inception_4b/output"
  type: "Concat"
  bottom: "inception_4b/1x1"
  bottom: "inception_4b/3x3"
  bottom: "inception_4b/5x5"
  bottom: "inception_4b/pool_proj"
  top: "inception_4b/output"
}
layer {
  name: "inception_4c/1x1"
  type: "Convolution"
  bottom: "inception_4b/output"
  top: "inception_4c/1x1"
  param {
    lr_mult: 1
    decay_mult: 1
  }
  param {
    lr_mult: 2
    decay_mult: 0
  }
  convolution_param {
    num_output: 128
    kernel_size: 1
    weight_filler {
      type: "xavier"
      std: 0.03
    }
    bias_filler {
      type: "constant"
      value: 0.2
    }
  }
}
layer {
  name: "inception_4c/relu_1x1"
  type: "ReLU"
  bottom: "inception_4c/1x1"
  top: "inception_4c/1x1"
}
layer {
  name: "inception_4c/3x3_reduce"
  type: "Convolution"
  bottom: "inception_4b/output"
  top: "inception_4c/3x3_reduce"
  param {
    lr_mult: 1
    decay_mult: 1
  }
  param {
    lr_mult: 2
    decay_mult: 0
  }
  convolution_param {
    num_output: 128
    kernel_size: 1
    weight_filler {
      type: "xavier"
      std: 0.09
    }
    bias_filler {
      type: "constant"
      value: 0.2
    }
  }
}
layer {
  name: "inception_4c/relu_3x3_reduce"
  type: "ReLU"
  bottom: "inception_4c/3x3_reduce"
  top: "inception_4c/3x3_reduce"
}
layer {
  name: "inception_4c/3x3"
  type: "Convolution"
  bottom: "inception_4c/3x3_reduce"
  top: "inception_4c/3x3"
  param {
    lr_mult: 1
    decay_mult: 1
  }
  param {
    lr_mult: 2
    decay_mult: 0
  }
  convolution_param {
    num_output: 256
    pad: 1
    kernel_size: 3
    weight_filler {
      type: "xavier"
      std: 0.03
    }
    bias_filler {
      type: "constant"
      value: 0.2
    }
  }
}
layer {
  name: "inception_4c/relu_3x3"
  type: "ReLU"
  bottom: "inception_4c/3x3"
  top: "inception_4c/3x3"
}
layer {
  name: "inception_4c/5x5_reduce"
  type: "Convolution"
  bottom: "inception_4b/output"
  top: "inception_4c/5x5_reduce"
  param {
    lr_mult: 1
    decay_mult: 1
  }
  param {
    lr_mult: 2
    decay_mult: 0
  }
  convolution_param {
    num_output: 24
    kernel_size: 1
    weight_filler {
      type: "xavier"
      std: 0.2
    }
    bias_filler {
      type: "constant"
      value: 0.2
    }
  }
}
layer {
  name: "inception_4c/relu_5x5_reduce"
  type: "ReLU"
  bottom: "inception_4c/5x5_reduce"
  top: "inception_4c/5x5_reduce"
}
layer {
  name: "inception_4c/5x5"
  type: "Convolution"
  bottom: "inception_4c/5x5_reduce"
  top: "inception_4c/5x5"
  param {
    lr_mult: 1
    decay_mult: 1
  }
  param {
    lr_mult: 2
    decay_mult: 0
  }
  convolution_param {
    num_output: 64
    pad: 2
    kernel_size: 5
    weight_filler {
      type: "xavier"
      std: 0.03
    }
    bias_filler {
      type: "constant"
      value: 0.2
    }
  }
}
layer {
  name: "inception_4c/relu_5x5"
  type: "ReLU"
  bottom: "inception_4c/5x5"
  top: "inception_4c/5x5"
}
layer {
  name: "inception_4c/pool"
  type: "Pooling"
  bottom: "inception_4b/output"
  top: "inception_4c/pool"
  pooling_param {
    pool: MAX
    kernel_size: 3
    stride: 1
    pad: 1
  }
}
layer {
  name: "inception_4c/pool_proj"
  type: "Convolution"
  bottom: "inception_4c/pool"
  top: "inception_4c/pool_proj"
  param {
    lr_mult: 1
    decay_mult: 1
  }
  param {
    lr_mult: 2
    decay_mult: 0
  }
  convolution_param {
    num_output: 64
    kernel_size: 1
    weight_filler {
      type: "xavier"
      std: 0.1
    }
    bias_filler {
      type: "constant"
      value: 0.2
    }
  }
}
layer {
  name: "inception_4c/relu_pool_proj"
  type: "ReLU"
  bottom: "inception_4c/pool_proj"
  top: "inception_4c/pool_proj"
}
layer {
  name: "inception_4c/output"
  type: "Concat"
  bottom: "inception_4c/1x1"
  bottom: "inception_4c/3x3"
  bottom: "inception_4c/5x5"
  bottom: "inception_4c/pool_proj"
  top: "inception_4c/output"
}
layer {
  name: "inception_4d/1x1"
  type: "Convolution"
  bottom: "inception_4c/output"
  top: "inception_4d/1x1"
  param {
    lr_mult: 1
    decay_mult: 1
  }
  param {
    lr_mult: 2
    decay_mult: 0
  }
  convolution_param {
    num_output: 112
    kernel_size: 1
    weight_filler {
      type: "xavier"
      std: 0.03
    }
    bias_filler {
      type: "constant"
      value: 0.2
    }
  }
}
layer {
  name: "inception_4d/relu_1x1"
  type: "ReLU"
  bottom: "inception_4d/1x1"
  top: "inception_4d/1x1"
}
layer {
  name: "inception_4d/3x3_reduce"
  type: "Convolution"
  bottom: "inception_4c/output"
  top: "inception_4d/3x3_reduce"
  param {
    lr_mult: 1
    decay_mult: 1
  }
  param {
    lr_mult: 2
    decay_mult: 0
  }
  convolution_param {
    num_output: 144
    kernel_size: 1
    weight_filler {
      type: "xavier"
      std: 0.09
    }
    bias_filler {
      type: "constant"
      value: 0.2
    }
  }
}
layer {
  name: "inception_4d/relu_3x3_reduce"
  type: "ReLU"
  bottom: "inception_4d/3x3_reduce"
  top: "inception_4d/3x3_reduce"
}
layer {
  name: "inception_4d/3x3"
  type: "Convolution"
  bottom: "inception_4d/3x3_reduce"
  top: "inception_4d/3x3"
  param {
    lr_mult: 1
    decay_mult: 1
  }
  param {
    lr_mult: 2
    decay_mult: 0
  }
  convolution_param {
    num_output: 288
    pad: 1
    kernel_size: 3
    weight_filler {
      type: "xavier"
      std: 0.03
    }
    bias_filler {
      type: "constant"
      value: 0.2
    }
  }
}
layer {
  name: "inception_4d/relu_3x3"
  type: "ReLU"
  bottom: "inception_4d/3x3"
  top: "inception_4d/3x3"
}
layer {
  name: "inception_4d/5x5_reduce"
  type: "Convolution"
  bottom: "inception_4c/output"
  top: "inception_4d/5x5_reduce"
  param {
    lr_mult: 1
    decay_mult: 1
  }
  param {
    lr_mult: 2
    decay_mult: 0
  }
  convolution_param {
    num_output: 32
    kernel_size: 1
    weight_filler {
      type: "xavier"
      std: 0.2
    }
    bias_filler {
      type: "constant"
      value: 0.2
    }
  }
}
layer {
  name: "inception_4d/relu_5x5_reduce"
  type: "ReLU"
  bottom: "inception_4d/5x5_reduce"
  top: "inception_4d/5x5_reduce"
}
layer {
  name: "inception_4d/5x5"
  type: "Convolution"
  bottom: "inception_4d/5x5_reduce"
  top: "inception_4d/5x5"
  param {
    lr_mult: 1
    decay_mult: 1
  }
  param {
    lr_mult: 2
    decay_mult: 0
  }
  convolution_param {
    num_output: 64
    pad: 2
    kernel_size: 5
    weight_filler {
      type: "xavier"
      std: 0.03
    }
    bias_filler {
      type: "constant"
      value: 0.2
    }
  }
}
layer {
  name: "inception_4d/relu_5x5"
  type: "ReLU"
  bottom: "inception_4d/5x5"
  top: "inception_4d/5x5"
}
layer {
  name: "inception_4d/pool"
  type: "Pooling"
  bottom: "inception_4c/output"
  top: "inception_4d/pool"
  pooling_param {
    pool: MAX
    kernel_size: 3
    stride: 1
    pad: 1
  }
}
layer {
  name: "inception_4d/pool_proj"
  type: "Convolution"
  bottom: "inception_4d/pool"
  top: "inception_4d/pool_proj"
  param {
    lr_mult: 1
    decay_mult: 1
  }
  param {
    lr_mult: 2
    decay_mult: 0
  }
  convolution_param {
    num_output: 64
    kernel_size: 1
    weight_filler {
      type: "xavier"
      std: 0.1
    }
    bias_filler {
      type: "constant"
      value: 0.2
    }
  }
}
layer {
  name: "inception_4d/relu_pool_proj"
  type: "ReLU"
  bottom: "inception_4d/pool_proj"
  top: "inception_4d/pool_proj"
}
layer {
  name: "inception_4d/output"
  type: "Concat"
  bottom: "inception_4d/1x1"
  bottom: "inception_4d/3x3"
  bottom: "inception_4d/5x5"
  bottom: "inception_4d/pool_proj"
  top: "inception_4d/output"
}
layer {
  name: "loss2/ave_pool"
  type: "Pooling"
  bottom: "inception_4d/output"
  top: "loss2/ave_pool"
  pooling_param {
    pool: AVE
    kernel_size: 5
    stride: 3
  }
}
layer {
  name: "loss2/conv"
  type: "Convolution"
  bottom: "loss2/ave_pool"
  top: "loss2/conv"
  param {
    lr_mult: 1
    decay_mult: 1
  }
  param {
    lr_mult: 2
    decay_mult: 0
  }
  convolution_param {
    num_output: 128
    kernel_size: 1
    weight_filler {
      type: "xavier"
      std: 0.08
    }
    bias_filler {
      type: "constant"
      value: 0.2
    }
  }
}
layer {
  name: "loss2/relu_conv"
  type: "ReLU"
  bottom: "loss2/conv"
  top: "loss2/conv"
}
layer {
  name: "loss2/fc"
  type: "InnerProduct"
  bottom: "loss2/conv"
  top: "loss2/fc"
  param {
    lr_mult: 1
    decay_mult: 1
  }
  param {
    lr_mult: 2
    decay_mult: 0
  }
  inner_product_param {
    num_output: 1024
    weight_filler {
      type: "xavier"
      std: 0.02
    }
    bias_filler {
      type: "constant"
      value: 0.2
    }
  }
}
layer {
  name: "loss2/relu_fc"
  type: "ReLU"
  bottom: "loss2/fc"
  top: "loss2/fc"
}
layer {
  name: "loss2/drop_fc"
  type: "Dropout"
  bottom: "loss2/fc"
  top: "loss2/fc"
  dropout_param {
    dropout_ratio: 0.7
  }
}
layer {
  name: "loss2/classifier_plantvillage"
  type: "InnerProduct"
  bottom: "loss2/fc"
  top: "loss2/classifier_plantvillage"
  param {
    lr_mult: 1
    decay_mult: 1
  }
  param {
    lr_mult: 2
    decay_mult: 0
  }
  inner_product_param {
    num_output: 38
    weight_filler {
      type: "xavier"
      std: 0.0009765625
    }
    bias_filler {
      type: "constant"
      value: 0
    }
  }
}
layer {
  name: "inception_4e/1x1"
  type: "Convolution"
  bottom: "inception_4d/output"
  top: "inception_4e/1x1"
  param {
    lr_mult: 1
    decay_mult: 1
  }
  param {
    lr_mult: 2
    decay_mult: 0
  }
  convolution_param {
    num_output: 256
    kernel_size: 1
    weight_filler {
      type: "xavier"
      std: 0.03
    }
    bias_filler {
      type: "constant"
      value: 0.2
    }
  }
}
layer {
  name: "inception_4e/relu_1x1"
  type: "ReLU"
  bottom: "inception_4e/1x1"
  top: "inception_4e/1x1"
}
layer {
  name: "inception_4e/3x3_reduce"
  type: "Convolution"
  bottom: "inception_4d/output"
  top: "inception_4e/3x3_reduce"
  param {
    lr_mult: 1
    decay_mult: 1
  }
  param {
    lr_mult: 2
    decay_mult: 0
  }
  convolution_param {
    num_output: 160
    kernel_size: 1
    weight_filler {
      type: "xavier"
      std: 0.09
    }
    bias_filler {
      type: "constant"
      value: 0.2
    }
  }
}
layer {
  name: "inception_4e/relu_3x3_reduce"
  type: "ReLU"
  bottom: "inception_4e/3x3_reduce"
  top: "inception_4e/3x3_reduce"
}
layer {
  name: "inception_4e/3x3"
  type: "Convolution"
  bottom: "inception_4e/3x3_reduce"
  top: "inception_4e/3x3"
  param {
    lr_mult: 1
    decay_mult: 1
  }
  param {
    lr_mult: 2
    decay_mult: 0
  }
  convolution_param {
    num_output: 320
    pad: 1
    kernel_size: 3
    weight_filler {
      type: "xavier"
      std: 0.03
    }
    bias_filler {
      type: "constant"
      value: 0.2
    }
  }
}
layer {
  name: "inception_4e/relu_3x3"
  type: "ReLU"
  bottom: "inception_4e/3x3"
  top: "inception_4e/3x3"
}
layer {
  name: "inception_4e/5x5_reduce"
  type: "Convolution"
  bottom: "inception_4d/output"
  top: "inception_4e/5x5_reduce"
  param {
    lr_mult: 1
    decay_mult: 1
  }
  param {
    lr_mult: 2
    decay_mult: 0
  }
  convolution_param {
    num_output: 32
    kernel_size: 1
    weight_filler {
      type: "xavier"
      std: 0.2
    }
    bias_filler {
      type: "constant"
      value: 0.2
    }
  }
}
layer {
  name: "inception_4e/relu_5x5_reduce"
  type: "ReLU"
  bottom: "inception_4e/5x5_reduce"
  top: "inception_4e/5x5_reduce"
}
layer {
  name: "inception_4e/5x5"
  type: "Convolution"
  bottom: "inception_4e/5x5_reduce"
  top: "inception_4e/
I0403 15:10:27.890913 31246 layer_factory.hpp:77] Creating layer data
I0403 15:10:27.891499 31246 net.cpp:91] Creating Layer data
I0403 15:10:27.891527 31246 net.cpp:399] data -> data
I0403 15:10:27.891592 31246 net.cpp:399] data -> label
I0403 15:10:27.891629 31246 data_transformer.cpp:25] Loading mean file from: /home/mohanty/data/final_dataset/lmdb/grayscale-80-20/mean.binaryproto
I0403 15:10:27.894188 31254 db_lmdb.cpp:38] Opened lmdb /home/mohanty/data/final_dataset/lmdb/grayscale-80-20/test_db
I0403 15:10:27.905043 31246 data_layer.cpp:41] output data size: 24,3,224,224
I0403 15:10:27.932157 31246 net.cpp:141] Setting up data
I0403 15:10:27.932235 31246 net.cpp:148] Top shape: 24 3 224 224 (3612672)
I0403 15:10:27.932258 31246 net.cpp:148] Top shape: 24 (24)
I0403 15:10:27.932274 31246 net.cpp:156] Memory required for data: 14450784
I0403 15:10:27.932304 31246 layer_factory.hpp:77] Creating layer label_data_1_split
I0403 15:10:27.932330 31246 net.cpp:91] Creating Layer label_data_1_split
I0403 15:10:27.932348 31246 net.cpp:425] label_data_1_split <- label
I0403 15:10:27.932381 31246 net.cpp:399] label_data_1_split -> label_data_1_split_0
I0403 15:10:27.932410 31246 net.cpp:399] label_data_1_split -> label_data_1_split_1
I0403 15:10:27.932431 31246 net.cpp:399] label_data_1_split -> label_data_1_split_2
I0403 15:10:27.932452 31246 net.cpp:399] label_data_1_split -> label_data_1_split_3
I0403 15:10:27.932471 31246 net.cpp:399] label_data_1_split -> label_data_1_split_4
I0403 15:10:27.932489 31246 net.cpp:399] label_data_1_split -> label_data_1_split_5
I0403 15:10:27.932507 31246 net.cpp:399] label_data_1_split -> label_data_1_split_6
I0403 15:10:27.932528 31246 net.cpp:399] label_data_1_split -> label_data_1_split_7
I0403 15:10:27.932550 31246 net.cpp:399] label_data_1_split -> label_data_1_split_8
I0403 15:10:27.932571 31246 net.cpp:399] label_data_1_split -> label_data_1_split_9
I0403 15:10:27.932683 31246 net.cpp:141] Setting up label_data_1_split
I0403 15:10:27.932705 31246 net.cpp:148] Top shape: 24 (24)
I0403 15:10:27.932721 31246 net.cpp:148] Top shape: 24 (24)
I0403 15:10:27.932737 31246 net.cpp:148] Top shape: 24 (24)
I0403 15:10:27.932754 31246 net.cpp:148] Top shape: 24 (24)
I0403 15:10:27.932768 31246 net.cpp:148] Top shape: 24 (24)
I0403 15:10:27.932785 31246 net.cpp:148] Top shape: 24 (24)
I0403 15:10:27.932799 31246 net.cpp:148] Top shape: 24 (24)
I0403 15:10:27.932814 31246 net.cpp:148] Top shape: 24 (24)
I0403 15:10:27.932831 31246 net.cpp:148] Top shape: 24 (24)
I0403 15:10:27.932845 31246 net.cpp:148] Top shape: 24 (24)
I0403 15:10:27.932883 31246 net.cpp:156] Memory required for data: 14451744
I0403 15:10:27.932898 31246 layer_factory.hpp:77] Creating layer conv1/7x7_s2
I0403 15:10:27.932930 31246 net.cpp:91] Creating Layer conv1/7x7_s2
I0403 15:10:27.932947 31246 net.cpp:425] conv1/7x7_s2 <- data
I0403 15:10:27.932966 31246 net.cpp:399] conv1/7x7_s2 -> conv1/7x7_s2
I0403 15:10:28.070165 31246 net.cpp:141] Setting up conv1/7x7_s2
I0403 15:10:28.070252 31246 net.cpp:148] Top shape: 24 64 112 112 (19267584)
I0403 15:10:28.070271 31246 net.cpp:156] Memory required for data: 91522080
I0403 15:10:28.070315 31246 layer_factory.hpp:77] Creating layer conv1/relu_7x7
I0403 15:10:28.070348 31246 net.cpp:91] Creating Layer conv1/relu_7x7
I0403 15:10:28.070368 31246 net.cpp:425] conv1/relu_7x7 <- conv1/7x7_s2
I0403 15:10:28.070387 31246 net.cpp:386] conv1/relu_7x7 -> conv1/7x7_s2 (in-place)
I0403 15:10:28.070713 31246 net.cpp:141] Setting up conv1/relu_7x7
I0403 15:10:28.070740 31246 net.cpp:148] Top shape: 24 64 112 112 (19267584)
I0403 15:10:28.070756 31246 net.cpp:156] Memory required for data: 168592416
I0403 15:10:28.070772 31246 layer_factory.hpp:77] Creating layer pool1/3x3_s2
I0403 15:10:28.070798 31246 net.cpp:91] Creating Layer pool1/3x3_s2
I0403 15:10:28.070816 31246 net.cpp:425] pool1/3x3_s2 <- conv1/7x7_s2
I0403 15:10:28.070837 31246 net.cpp:399] pool1/3x3_s2 -> pool1/3x3_s2
I0403 15:10:28.070919 31246 net.cpp:141] Setting up pool1/3x3_s2
I0403 15:10:28.070945 31246 net.cpp:148] Top shape: 24 64 56 56 (4816896)
I0403 15:10:28.070961 31246 net.cpp:156] Memory required for data: 187860000
I0403 15:10:28.070976 31246 layer_factory.hpp:77] Creating layer pool1/norm1
I0403 15:10:28.071002 31246 net.cpp:91] Creating Layer pool1/norm1
I0403 15:10:28.071020 31246 net.cpp:425] pool1/norm1 <- pool1/3x3_s2
I0403 15:10:28.071040 31246 net.cpp:399] pool1/norm1 -> pool1/norm1
I0403 15:10:28.071348 31246 net.cpp:141] Setting up pool1/norm1
I0403 15:10:28.071375 31246 net.cpp:148] Top shape: 24 64 56 56 (4816896)
I0403 15:10:28.071391 31246 net.cpp:156] Memory required for data: 207127584
I0403 15:10:28.071406 31246 layer_factory.hpp:77] Creating layer conv2/3x3_reduce
I0403 15:10:28.071435 31246 net.cpp:91] Creating Layer conv2/3x3_reduce
I0403 15:10:28.071454 31246 net.cpp:425] conv2/3x3_reduce <- pool1/norm1
I0403 15:10:28.071475 31246 net.cpp:399] conv2/3x3_reduce -> conv2/3x3_reduce
I0403 15:10:28.072947 31246 net.cpp:141] Setting up conv2/3x3_reduce
I0403 15:10:28.072978 31246 net.cpp:148] Top shape: 24 64 56 56 (4816896)
I0403 15:10:28.072994 31246 net.cpp:156] Memory required for data: 226395168
I0403 15:10:28.073016 31246 layer_factory.hpp:77] Creating layer conv2/relu_3x3_reduce
I0403 15:10:28.073037 31246 net.cpp:91] Creating Layer conv2/relu_3x3_reduce
I0403 15:10:28.073055 31246 net.cpp:425] conv2/relu_3x3_reduce <- conv2/3x3_reduce
I0403 15:10:28.073071 31246 net.cpp:386] conv2/relu_3x3_reduce -> conv2/3x3_reduce (in-place)
I0403 15:10:28.073343 31246 net.cpp:141] Setting up conv2/relu_3x3_reduce
I0403 15:10:28.073370 31246 net.cpp:148] Top shape: 24 64 56 56 (4816896)
I0403 15:10:28.073385 31246 net.cpp:156] Memory required for data: 245662752
I0403 15:10:28.073401 31246 layer_factory.hpp:77] Creating layer conv2/3x3
I0403 15:10:28.073428 31246 net.cpp:91] Creating Layer conv2/3x3
I0403 15:10:28.073446 31246 net.cpp:425] conv2/3x3 <- conv2/3x3_reduce
I0403 15:10:28.073467 31246 net.cpp:399] conv2/3x3 -> conv2/3x3
I0403 15:10:28.075881 31246 net.cpp:141] Setting up conv2/3x3
I0403 15:10:28.075916 31246 net.cpp:148] Top shape: 24 192 56 56 (14450688)
I0403 15:10:28.075932 31246 net.cpp:156] Memory required for data: 303465504
I0403 15:10:28.075954 31246 layer_factory.hpp:77] Creating layer conv2/relu_3x3
I0403 15:10:28.075974 31246 net.cpp:91] Creating Layer conv2/relu_3x3
I0403 15:10:28.075992 31246 net.cpp:425] conv2/relu_3x3 <- conv2/3x3
I0403 15:10:28.076012 31246 net.cpp:386] conv2/relu_3x3 -> conv2/3x3 (in-place)
I0403 15:10:28.076194 31246 net.cpp:141] Setting up conv2/relu_3x3
I0403 15:10:28.076220 31246 net.cpp:148] Top shape: 24 192 56 56 (14450688)
I0403 15:10:28.076259 31246 net.cpp:156] Memory required for data: 361268256
I0403 15:10:28.076277 31246 layer_factory.hpp:77] Creating layer conv2/norm2
I0403 15:10:28.076297 31246 net.cpp:91] Creating Layer conv2/norm2
I0403 15:10:28.076314 31246 net.cpp:425] conv2/norm2 <- conv2/3x3
I0403 15:10:28.076333 31246 net.cpp:399] conv2/norm2 -> conv2/norm2
I0403 15:10:28.076655 31246 net.cpp:141] Setting up conv2/norm2
I0403 15:10:28.076683 31246 net.cpp:148] Top shape: 24 192 56 56 (14450688)
I0403 15:10:28.076699 31246 net.cpp:156] Memory required for data: 419071008
I0403 15:10:28.076714 31246 layer_factory.hpp:77] Creating layer pool2/3x3_s2
I0403 15:10:28.076735 31246 net.cpp:91] Creating Layer pool2/3x3_s2
I0403 15:10:28.076751 31246 net.cpp:425] pool2/3x3_s2 <- conv2/norm2
I0403 15:10:28.076771 31246 net.cpp:399] pool2/3x3_s2 -> pool2/3x3_s2
I0403 15:10:28.076824 31246 net.cpp:141] Setting up pool2/3x3_s2
I0403 15:10:28.076849 31246 net.cpp:148] Top shape: 24 192 28 28 (3612672)
I0403 15:10:28.076864 31246 net.cpp:156] Memory required for data: 433521696
I0403 15:10:28.076879 31246 layer_factory.hpp:77] Creating layer pool2/3x3_s2_pool2/3x3_s2_0_split
I0403 15:10:28.076897 31246 net.cpp:91] Creating Layer pool2/3x3_s2_pool2/3x3_s2_0_split
I0403 15:10:28.076913 31246 net.cpp:425] pool2/3x3_s2_pool2/3x3_s2_0_split <- pool2/3x3_s2
I0403 15:10:28.076933 31246 net.cpp:399] pool2/3x3_s2_pool2/3x3_s2_0_split -> pool2/3x3_s2_pool2/3x3_s2_0_split_0
I0403 15:10:28.076953 31246 net.cpp:399] pool2/3x3_s2_pool2/3x3_s2_0_split -> pool2/3x3_s2_pool2/3x3_s2_0_split_1
I0403 15:10:28.076974 31246 net.cpp:399] pool2/3x3_s2_pool2/3x3_s2_0_split -> pool2/3x3_s2_pool2/3x3_s2_0_split_2
I0403 15:10:28.076994 31246 net.cpp:399] pool2/3x3_s2_pool2/3x3_s2_0_split -> pool2/3x3_s2_pool2/3x3_s2_0_split_3
I0403 15:10:28.077066 31246 net.cpp:141] Setting up pool2/3x3_s2_pool2/3x3_s2_0_split
I0403 15:10:28.077090 31246 net.cpp:148] Top shape: 24 192 28 28 (3612672)
I0403 15:10:28.077105 31246 net.cpp:148] Top shape: 24 192 28 28 (3612672)
I0403 15:10:28.077121 31246 net.cpp:148] Top shape: 24 192 28 28 (3612672)
I0403 15:10:28.077137 31246 net.cpp:148] Top shape: 24 192 28 28 (3612672)
I0403 15:10:28.077152 31246 net.cpp:156] Memory required for data: 491324448
I0403 15:10:28.077167 31246 layer_factory.hpp:77] Creating layer inception_3a/1x1
I0403 15:10:28.077190 31246 net.cpp:91] Creating Layer inception_3a/1x1
I0403 15:10:28.077208 31246 net.cpp:425] inception_3a/1x1 <- pool2/3x3_s2_pool2/3x3_s2_0_split_0
I0403 15:10:28.077229 31246 net.cpp:399] inception_3a/1x1 -> inception_3a/1x1
I0403 15:10:28.078860 31246 net.cpp:141] Setting up inception_3a/1x1
I0403 15:10:28.078893 31246 net.cpp:148] Top shape: 24 64 28 28 (1204224)
I0403 15:10:28.078910 31246 net.cpp:156] Memory required for data: 496141344
I0403 15:10:28.078932 31246 layer_factory.hpp:77] Creating layer inception_3a/relu_1x1
I0403 15:10:28.078951 31246 net.cpp:91] Creating Layer inception_3a/relu_1x1
I0403 15:10:28.078968 31246 net.cpp:425] inception_3a/relu_1x1 <- inception_3a/1x1
I0403 15:10:28.078984 31246 net.cpp:386] inception_3a/relu_1x1 -> inception_3a/1x1 (in-place)
I0403 15:10:28.079226 31246 net.cpp:141] Setting up inception_3a/relu_1x1
I0403 15:10:28.079255 31246 net.cpp:148] Top shape: 24 64 28 28 (1204224)
I0403 15:10:28.079272 31246 net.cpp:156] Memory required for data: 500958240
I0403 15:10:28.079287 31246 layer_factory.hpp:77] Creating layer inception_3a/3x3_reduce
I0403 15:10:28.079309 31246 net.cpp:91] Creating Layer inception_3a/3x3_reduce
I0403 15:10:28.079327 31246 net.cpp:425] inception_3a/3x3_reduce <- pool2/3x3_s2_pool2/3x3_s2_0_split_1
I0403 15:10:28.079346 31246 net.cpp:399] inception_3a/3x3_reduce -> inception_3a/3x3_reduce
I0403 15:10:28.081176 31246 net.cpp:141] Setting up inception_3a/3x3_reduce
I0403 15:10:28.081207 31246 net.cpp:148] Top shape: 24 96 28 28 (1806336)
I0403 15:10:28.081223 31246 net.cpp:156] Memory required for data: 508183584
I0403 15:10:28.081248 31246 layer_factory.hpp:77] Creating layer inception_3a/relu_3x3_reduce
I0403 15:10:28.081286 31246 net.cpp:91] Creating Layer inception_3a/relu_3x3_reduce
I0403 15:10:28.081305 31246 net.cpp:425] inception_3a/relu_3x3_reduce <- inception_3a/3x3_reduce
I0403 15:10:28.081326 31246 net.cpp:386] inception_3a/relu_3x3_reduce -> inception_3a/3x3_reduce (in-place)
I0403 15:10:28.081524 31246 net.cpp:141] Setting up inception_3a/relu_3x3_reduce
I0403 15:10:28.081552 31246 net.cpp:148] Top shape: 24 96 28 28 (1806336)
I0403 15:10:28.081567 31246 net.cpp:156] Memory required for data: 515408928
I0403 15:10:28.081583 31246 layer_factory.hpp:77] Creating layer inception_3a/3x3
I0403 15:10:28.081605 31246 net.cpp:91] Creating Layer inception_3a/3x3
I0403 15:10:28.081624 31246 net.cpp:425] inception_3a/3x3 <- inception_3a/3x3_reduce
I0403 15:10:28.081647 31246 net.cpp:399] inception_3a/3x3 -> inception_3a/3x3
I0403 15:10:28.083413 31246 net.cpp:141] Setting up inception_3a/3x3
I0403 15:10:28.083447 31246 net.cpp:148] Top shape: 24 128 28 28 (2408448)
I0403 15:10:28.083467 31246 net.cpp:156] Memory required for data: 525042720
I0403 15:10:28.083487 31246 layer_factory.hpp:77] Creating layer inception_3a/relu_3x3
I0403 15:10:28.083509 31246 net.cpp:91] Creating Layer inception_3a/relu_3x3
I0403 15:10:28.083528 31246 net.cpp:425] inception_3a/relu_3x3 <- inception_3a/3x3
I0403 15:10:28.083549 31246 net.cpp:386] inception_3a/relu_3x3 -> inception_3a/3x3 (in-place)
I0403 15:10:28.083835 31246 net.cpp:141] Setting up inception_3a/relu_3x3
I0403 15:10:28.083866 31246 net.cpp:148] Top shape: 24 128 28 28 (2408448)
I0403 15:10:28.083883 31246 net.cpp:156] Memory required for data: 534676512
I0403 15:10:28.083899 31246 layer_factory.hpp:77] Creating layer inception_3a/5x5_reduce
I0403 15:10:28.083921 31246 net.cpp:91] Creating Layer inception_3a/5x5_reduce
I0403 15:10:28.083940 31246 net.cpp:425] inception_3a/5x5_reduce <- pool2/3x3_s2_pool2/3x3_s2_0_split_2
I0403 15:10:28.083961 31246 net.cpp:399] inception_3a/5x5_reduce -> inception_3a/5x5_reduce
I0403 15:10:28.085050 31246 net.cpp:141] Setting up inception_3a/5x5_reduce
I0403 15:10:28.085085 31246 net.cpp:148] Top shape: 24 16 28 28 (301056)
I0403 15:10:28.085101 31246 net.cpp:156] Memory required for data: 535880736
I0403 15:10:28.085121 31246 layer_factory.hpp:77] Creating layer inception_3a/relu_5x5_reduce
I0403 15:10:28.085141 31246 net.cpp:91] Creating Layer inception_3a/relu_5x5_reduce
I0403 15:10:28.085158 31246 net.cpp:425] inception_3a/relu_5x5_reduce <- inception_3a/5x5_reduce
I0403 15:10:28.085180 31246 net.cpp:386] inception_3a/relu_5x5_reduce -> inception_3a/5x5_reduce (in-place)
I0403 15:10:28.085494 31246 net.cpp:141] Setting up inception_3a/relu_5x5_reduce
I0403 15:10:28.085528 31246 net.cpp:148] Top shape: 24 16 28 28 (301056)
I0403 15:10:28.085546 31246 net.cpp:156] Memory required for data: 537084960
I0403 15:10:28.085561 31246 layer_factory.hpp:77] Creating layer inception_3a/5x5
I0403 15:10:28.085587 31246 net.cpp:91] Creating Layer inception_3a/5x5
I0403 15:10:28.085605 31246 net.cpp:425] inception_3a/5x5 <- inception_3a/5x5_reduce
I0403 15:10:28.085628 31246 net.cpp:399] inception_3a/5x5 -> inception_3a/5x5
I0403 15:10:28.086781 31246 net.cpp:141] Setting up inception_3a/5x5
I0403 15:10:28.086818 31246 net.cpp:148] Top shape: 24 32 28 28 (602112)
I0403 15:10:28.086836 31246 net.cpp:156] Memory required for data: 539493408
I0403 15:10:28.086858 31246 layer_factory.hpp:77] Creating layer inception_3a/relu_5x5
I0403 15:10:28.086877 31246 net.cpp:91] Creating Layer inception_3a/relu_5x5
I0403 15:10:28.086895 31246 net.cpp:425] inception_3a/relu_5x5 <- inception_3a/5x5
I0403 15:10:28.086913 31246 net.cpp:386] inception_3a/relu_5x5 -> inception_3a/5x5 (in-place)
I0403 15:10:28.087098 31246 net.cpp:141] Setting up inception_3a/relu_5x5
I0403 15:10:28.087126 31246 net.cpp:148] Top shape: 24 32 28 28 (602112)
I0403 15:10:28.087141 31246 net.cpp:156] Memory required for data: 541901856
I0403 15:10:28.087159 31246 layer_factory.hpp:77] Creating layer inception_3a/pool
I0403 15:10:28.087178 31246 net.cpp:91] Creating Layer inception_3a/pool
I0403 15:10:28.087211 31246 net.cpp:425] inception_3a/pool <- pool2/3x3_s2_pool2/3x3_s2_0_split_3
I0403 15:10:28.087234 31246 net.cpp:399] inception_3a/pool -> inception_3a/pool
I0403 15:10:28.087303 31246 net.cpp:141] Setting up inception_3a/pool
I0403 15:10:28.087342 31246 net.cpp:148] Top shape: 24 192 28 28 (3612672)
I0403 15:10:28.087369 31246 net.cpp:156] Memory required for data: 556352544
I0403 15:10:28.087385 31246 layer_factory.hpp:77] Creating layer inception_3a/pool_proj
I0403 15:10:28.087412 31246 net.cpp:91] Creating Layer inception_3a/pool_proj
I0403 15:10:28.087432 31246 net.cpp:425] inception_3a/pool_proj <- inception_3a/pool
I0403 15:10:28.087457 31246 net.cpp:399] inception_3a/pool_proj -> inception_3a/pool_proj
I0403 15:10:28.088474 31246 net.cpp:141] Setting up inception_3a/pool_proj
I0403 15:10:28.088508 31246 net.cpp:148] Top shape: 24 32 28 28 (602112)
I0403 15:10:28.088533 31246 net.cpp:156] Memory required for data: 558760992
I0403 15:10:28.088567 31246 layer_factory.hpp:77] Creating layer inception_3a/relu_pool_proj
I0403 15:10:28.088590 31246 net.cpp:91] Creating Layer inception_3a/relu_pool_proj
I0403 15:10:28.088608 31246 net.cpp:425] inception_3a/relu_pool_proj <- inception_3a/pool_proj
I0403 15:10:28.088630 31246 net.cpp:386] inception_3a/relu_pool_proj -> inception_3a/pool_proj (in-place)
I0403 15:10:28.088922 31246 net.cpp:141] Setting up inception_3a/relu_pool_proj
I0403 15:10:28.088958 31246 net.cpp:148] Top shape: 24 32 28 28 (602112)
I0403 15:10:28.088976 31246 net.cpp:156] Memory required for data: 561169440
I0403 15:10:28.088994 31246 layer_factory.hpp:77] Creating layer inception_3a/output
I0403 15:10:28.089032 31246 net.cpp:91] Creating Layer inception_3a/output
I0403 15:10:28.089056 31246 net.cpp:425] inception_3a/output <- inception_3a/1x1
I0403 15:10:28.089076 31246 net.cpp:425] inception_3a/output <- inception_3a/3x3
I0403 15:10:28.089097 31246 net.cpp:425] inception_3a/output <- inception_3a/5x5
I0403 15:10:28.089118 31246 net.cpp:425] inception_3a/output <- inception_3a/pool_proj
I0403 15:10:28.089136 31246 net.cpp:399] inception_3a/output -> inception_3a/output
I0403 15:10:28.089192 31246 net.cpp:141] Setting up inception_3a/output
I0403 15:10:28.089222 31246 net.cpp:148] Top shape: 24 256 28 28 (4816896)
I0403 15:10:28.089246 31246 net.cpp:156] Memory required for data: 580437024
I0403 15:10:28.089262 31246 layer_factory.hpp:77] Creating layer inception_3a/output_inception_3a/output_0_split
I0403 15:10:28.089298 31246 net.cpp:91] Creating Layer inception_3a/output_inception_3a/output_0_split
I0403 15:10:28.089325 31246 net.cpp:425] inception_3a/output_inception_3a/output_0_split <- inception_3a/output
I0403 15:10:28.089356 31246 net.cpp:399] inception_3a/output_inception_3a/output_0_split -> inception_3a/output_inception_3a/output_0_split_0
I0403 15:10:28.089380 31246 net.cpp:399] inception_3a/output_inception_3a/output_0_split -> inception_3a/output_inception_3a/output_0_split_1
I0403 15:10:28.089409 31246 net.cpp:399] inception_3a/output_inception_3a/output_0_split -> inception_3a/output_inception_3a/output_0_split_2
I0403 15:10:28.089437 31246 net.cpp:399] inception_3a/output_inception_3a/output_0_split -> inception_3a/output_inception_3a/output_0_split_3
I0403 15:10:28.089541 31246 net.cpp:141] Setting up inception_3a/output_inception_3a/output_0_split
I0403 15:10:28.089572 31246 net.cpp:148] Top shape: 24 256 28 28 (4816896)
I0403 15:10:28.089596 31246 net.cpp:148] Top shape: 24 256 28 28 (4816896)
I0403 15:10:28.089622 31246 net.cpp:148] Top shape: 24 256 28 28 (4816896)
I0403 15:10:28.089642 31246 net.cpp:148] Top shape: 24 256 28 28 (4816896)
I0403 15:10:28.089663 31246 net.cpp:156] Memory required for data: 657507360
I0403 15:10:28.089679 31246 layer_factory.hpp:77] Creating layer inception_3b/1x1
I0403 15:10:28.089712 31246 net.cpp:91] Creating Layer inception_3b/1x1
I0403 15:10:28.089733 31246 net.cpp:425] inception_3b/1x1 <- inception_3a/output_inception_3a/output_0_split_0
I0403 15:10:28.089761 31246 net.cpp:399] inception_3b/1x1 -> inception_3b/1x1
I0403 15:10:28.090948 31246 net.cpp:141] Setting up inception_3b/1x1
I0403 15:10:28.090991 31246 net.cpp:148] Top shape: 24 128 28 28 (2408448)
I0403 15:10:28.091009 31246 net.cpp:156] Memory required for data: 667141152
I0403 15:10:28.091028 31246 layer_factory.hpp:77] Creating layer inception_3b/relu_1x1
I0403 15:10:28.091058 31246 net.cpp:91] Creating Layer inception_3b/relu_1x1
I0403 15:10:28.091078 31246 net.cpp:425] inception_3b/relu_1x1 <- inception_3b/1x1
I0403 15:10:28.091097 31246 net.cpp:386] inception_3b/relu_1x1 -> inception_3b/1x1 (in-place)
I0403 15:10:28.091289 31246 net.cpp:141] Setting up inception_3b/relu_1x1
I0403 15:10:28.091320 31246 net.cpp:148] Top shape: 24 128 28 28 (2408448)
I0403 15:10:28.091344 31246 net.cpp:156] Memory required for data: 676774944
I0403 15:10:28.091367 31246 layer_factory.hpp:77] Creating layer inception_3b/3x3_reduce
I0403 15:10:28.091399 31246 net.cpp:91] Creating Layer inception_3b/3x3_reduce
I0403 15:10:28.091424 31246 net.cpp:425] inception_3b/3x3_reduce <- inception_3a/output_inception_3a/output_0_split_1
I0403 15:10:28.091451 31246 net.cpp:399] inception_3b/3x3_reduce -> inception_3b/3x3_reduce
I0403 15:10:28.092656 31246 net.cpp:141] Setting up inception_3b/3x3_reduce
I0403 15:10:28.092691 31246 net.cpp:148] Top shape: 24 128 28 28 (2408448)
I0403 15:10:28.092716 31246 net.cpp:156] Memory required for data: 686408736
I0403 15:10:28.092741 31246 layer_factory.hpp:77] Creating layer inception_3b/relu_3x3_reduce
I0403 15:10:28.092764 31246 net.cpp:91] Creating Layer inception_3b/relu_3x3_reduce
I0403 15:10:28.092789 31246 net.cpp:425] inception_3b/relu_3x3_reduce <- inception_3b/3x3_reduce
I0403 15:10:28.092813 31246 net.cpp:386] inception_3b/relu_3x3_reduce -> inception_3b/3x3_reduce (in-place)
I0403 15:10:28.092996 31246 net.cpp:141] Setting up inception_3b/relu_3x3_reduce
I0403 15:10:28.093029 31246 net.cpp:148] Top shape: 24 128 28 28 (2408448)
I0403 15:10:28.093051 31246 net.cpp:156] Memory required for data: 696042528
I0403 15:10:28.093073 31246 layer_factory.hpp:77] Creating layer inception_3b/3x3
I0403 15:10:28.093103 31246 net.cpp:91] Creating Layer inception_3b/3x3
I0403 15:10:28.093129 31246 net.cpp:425] inception_3b/3x3 <- inception_3b/3x3_reduce
I0403 15:10:28.093155 31246 net.cpp:399] inception_3b/3x3 -> inception_3b/3x3
I0403 15:10:28.096226 31246 net.cpp:141] Setting up inception_3b/3x3
I0403 15:10:28.096264 31246 net.cpp:148] Top shape: 24 192 28 28 (3612672)
I0403 15:10:28.096292 31246 net.cpp:156] Memory required for data: 710493216
I0403 15:10:28.096313 31246 layer_factory.hpp:77] Creating layer inception_3b/relu_3x3
I0403 15:10:28.096339 31246 net.cpp:91] Creating Layer inception_3b/relu_3x3
I0403 15:10:28.096364 31246 net.cpp:425] inception_3b/relu_3x3 <- inception_3b/3x3
I0403 15:10:28.096385 31246 net.cpp:386] inception_3b/relu_3x3 -> inception_3b/3x3 (in-place)
I0403 15:10:28.096685 31246 net.cpp:141] Setting up inception_3b/relu_3x3
I0403 15:10:28.096725 31246 net.cpp:148] Top shape: 24 192 28 28 (3612672)
I0403 15:10:28.096745 31246 net.cpp:156] Memory required for data: 724943904
I0403 15:10:28.096768 31246 layer_factory.hpp:77] Creating layer inception_3b/5x5_reduce
I0403 15:10:28.096793 31246 net.cpp:91] Creating Layer inception_3b/5x5_reduce
I0403 15:10:28.096818 31246 net.cpp:425] inception_3b/5x5_reduce <- inception_3a/output_inception_3a/output_0_split_2
I0403 15:10:28.096843 31246 net.cpp:399] inception_3b/5x5_reduce -> inception_3b/5x5_reduce
I0403 15:10:28.097885 31246 net.cpp:141] Setting up inception_3b/5x5_reduce
I0403 15:10:28.097923 31246 net.cpp:148] Top shape: 24 32 28 28 (602112)
I0403 15:10:28.097944 31246 net.cpp:156] Memory required for data: 727352352
I0403 15:10:28.097970 31246 layer_factory.hpp:77] Creating layer inception_3b/relu_5x5_reduce
I0403 15:10:28.097998 31246 net.cpp:91] Creating Layer inception_3b/relu_5x5_reduce
I0403 15:10:28.098021 31246 net.cpp:425] inception_3b/relu_5x5_reduce <- inception_3b/5x5_reduce
I0403 15:10:28.098047 31246 net.cpp:386] inception_3b/relu_5x5_reduce -> inception_3b/5x5_reduce (in-place)
I0403 15:10:28.098255 31246 net.cpp:141] Setting up inception_3b/relu_5x5_reduce
I0403 15:10:28.098287 31246 net.cpp:148] Top shape: 24 32 28 28 (602112)
I0403 15:10:28.098309 31246 net.cpp:156] Memory required for data: 729760800
I0403 15:10:28.098326 31246 layer_factory.hpp:77] Creating layer inception_3b/5x5
I0403 15:10:28.098358 31246 net.cpp:91] Creating Layer inception_3b/5x5
I0403 15:10:28.098386 31246 net.cpp:425] inception_3b/5x5 <- inception_3b/5x5_reduce
I0403 15:10:28.098412 31246 net.cpp:399] inception_3b/5x5 -> inception_3b/5x5
I0403 15:10:28.100462 31246 net.cpp:141] Setting up inception_3b/5x5
I0403 15:10:28.100492 31246 net.cpp:148] Top shape: 24 96 28 28 (1806336)
I0403 15:10:28.100513 31246 net.cpp:156] Memory required for data: 736986144
I0403 15:10:28.100533 31246 layer_factory.hpp:77] Creating layer inception_3b/relu_5x5
I0403 15:10:28.100555 31246 net.cpp:91] Creating Layer inception_3b/relu_5x5
I0403 15:10:28.100574 31246 net.cpp:425] inception_3b/relu_5x5 <- inception_3b/5x5
I0403 15:10:28.100592 31246 net.cpp:386] inception_3b/relu_5x5 -> inception_3b/5x5 (in-place)
I0403 15:10:28.100788 31246 net.cpp:141] Setting up inception_3b/relu_5x5
I0403 15:10:28.100813 31246 net.cpp:148] Top shape: 24 96 28 28 (1806336)
I0403 15:10:28.100828 31246 net.cpp:156] Memory required for data: 744211488
I0403 15:10:28.100843 31246 layer_factory.hpp:77] Creating layer inception_3b/pool
I0403 15:10:28.100862 31246 net.cpp:91] Creating Layer inception_3b/pool
I0403 15:10:28.100878 31246 net.cpp:425] inception_3b/pool <- inception_3a/output_inception_3a/output_0_split_3
I0403 15:10:28.100898 31246 net.cpp:399] inception_3b/pool -> inception_3b/pool
I0403 15:10:28.100953 31246 net.cpp:141] Setting up inception_3b/pool
I0403 15:10:28.100976 31246 net.cpp:148] Top shape: 24 256 28 28 (4816896)
I0403 15:10:28.100992 31246 net.cpp:156] Memory required for data: 763479072
I0403 15:10:28.101007 31246 layer_factory.hpp:77] Creating layer inception_3b/pool_proj
I0403 15:10:28.101030 31246 net.cpp:91] Creating Layer inception_3b/pool_proj
I0403 15:10:28.101047 31246 net.cpp:425] inception_3b/pool_proj <- inception_3b/pool
I0403 15:10:28.101068 31246 net.cpp:399] inception_3b/pool_proj -> inception_3b/pool_proj
I0403 15:10:28.102164 31246 net.cpp:141] Setting up inception_3b/pool_proj
I0403 15:10:28.102202 31246 net.cpp:148] Top shape: 24 64 28 28 (1204224)
I0403 15:10:28.102221 31246 net.cpp:156] Memory required for data: 768295968
I0403 15:10:28.102248 31246 layer_factory.hpp:77] Creating layer inception_3b/relu_pool_proj
I0403 15:10:28.102277 31246 net.cpp:91] Creating Layer inception_3b/relu_pool_proj
I0403 15:10:28.102293 31246 net.cpp:425] inception_3b/relu_pool_proj <- inception_3b/pool_proj
I0403 15:10:28.102329 31246 net.cpp:386] inception_3b/relu_pool_proj -> inception_3b/pool_proj (in-place)
I0403 15:10:28.102736 31246 net.cpp:141] Setting up inception_3b/relu_pool_proj
I0403 15:10:28.102768 31246 net.cpp:148] Top shape: 24 64 28 28 (1204224)
I0403 15:10:28.102792 31246 net.cpp:156] Memory required for data: 773112864
I0403 15:10:28.102809 31246 layer_factory.hpp:77] Creating layer inception_3b/output
I0403 15:10:28.102831 31246 net.cpp:91] Creating Layer inception_3b/output
I0403 15:10:28.102851 31246 net.cpp:425] inception_3b/output <- inception_3b/1x1
I0403 15:10:28.102875 31246 net.cpp:425] inception_3b/output <- inception_3b/3x3
I0403 15:10:28.102895 31246 net.cpp:425] inception_3b/output <- inception_3b/5x5
I0403 15:10:28.102918 31246 net.cpp:425] inception_3b/output <- inception_3b/pool_proj
I0403 15:10:28.102941 31246 net.cpp:399] inception_3b/output -> inception_3b/output
I0403 15:10:28.102993 31246 net.cpp:141] Setting up inception_3b/output
I0403 15:10:28.103024 31246 net.cpp:148] Top shape: 24 480 28 28 (9031680)
I0403 15:10:28.103044 31246 net.cpp:156] Memory required for data: 809239584
I0403 15:10:28.103060 31246 layer_factory.hpp:77] Creating layer pool3/3x3_s2
I0403 15:10:28.103085 31246 net.cpp:91] Creating Layer pool3/3x3_s2
I0403 15:10:28.103102 31246 net.cpp:425] pool3/3x3_s2 <- inception_3b/output
I0403 15:10:28.103142 31246 net.cpp:399] pool3/3x3_s2 -> pool3/3x3_s2
I0403 15:10:28.103210 31246 net.cpp:141] Setting up pool3/3x3_s2
I0403 15:10:28.103241 31246 net.cpp:148] Top shape: 24 480 14 14 (2257920)
I0403 15:10:28.103261 31246 net.cpp:156] Memory required for data: 818271264
I0403 15:10:28.103284 31246 layer_factory.hpp:77] Creating layer pool3/3x3_s2_pool3/3x3_s2_0_split
I0403 15:10:28.103307 31246 net.cpp:91] Creating Layer pool3/3x3_s2_pool3/3x3_s2_0_split
I0403 15:10:28.103324 31246 net.cpp:425] pool3/3x3_s2_pool3/3x3_s2_0_split <- pool3/3x3_s2
I0403 15:10:28.103348 31246 net.cpp:399] pool3/3x3_s2_pool3/3x3_s2_0_split -> pool3/3x3_s2_pool3/3x3_s2_0_split_0
I0403 15:10:28.103373 31246 net.cpp:399] pool3/3x3_s2_pool3/3x3_s2_0_split -> pool3/3x3_s2_pool3/3x3_s2_0_split_1
I0403 15:10:28.103395 31246 net.cpp:399] pool3/3x3_s2_pool3/3x3_s2_0_split -> pool3/3x3_s2_pool3/3x3_s2_0_split_2
I0403 15:10:28.103425 31246 net.cpp:399] pool3/3x3_s2_pool3/3x3_s2_0_split -> pool3/3x3_s2_pool3/3x3_s2_0_split_3
I0403 15:10:28.103514 31246 net.cpp:141] Setting up pool3/3x3_s2_pool3/3x3_s2_0_split
I0403 15:10:28.103545 31246 net.cpp:148] Top shape: 24 480 14 14 (2257920)
I0403 15:10:28.103562 31246 net.cpp:148] Top shape: 24 480 14 14 (2257920)
I0403 15:10:28.103587 31246 net.cpp:148] Top shape: 24 480 14 14 (2257920)
I0403 15:10:28.103606 31246 net.cpp:148] Top shape: 24 480 14 14 (2257920)
I0403 15:10:28.103626 31246 net.cpp:156] Memory required for data: 854397984
I0403 15:10:28.103649 31246 layer_factory.hpp:77] Creating layer inception_4a/1x1
I0403 15:10:28.103674 31246 net.cpp:91] Creating Layer inception_4a/1x1
I0403 15:10:28.103694 31246 net.cpp:425] inception_4a/1x1 <- pool3/3x3_s2_pool3/3x3_s2_0_split_0
I0403 15:10:28.103724 31246 net.cpp:399] inception_4a/1x1 -> inception_4a/1x1
I0403 15:10:28.105334 31246 net.cpp:141] Setting up inception_4a/1x1
I0403 15:10:28.105363 31246 net.cpp:148] Top shape: 24 192 14 14 (903168)
I0403 15:10:28.105379 31246 net.cpp:156] Memory required for data: 858010656
I0403 15:10:28.105397 31246 layer_factory.hpp:77] Creating layer inception_4a/relu_1x1
I0403 15:10:28.105419 31246 net.cpp:91] Creating Layer inception_4a/relu_1x1
I0403 15:10:28.105437 31246 net.cpp:425] inception_4a/relu_1x1 <- inception_4a/1x1
I0403 15:10:28.105454 31246 net.cpp:386] inception_4a/relu_1x1 -> inception_4a/1x1 (in-place)
I0403 15:10:28.105638 31246 net.cpp:141] Setting up inception_4a/relu_1x1
I0403 15:10:28.105664 31246 net.cpp:148] Top shape: 24 192 14 14 (903168)
I0403 15:10:28.105679 31246 net.cpp:156] Memory required for data: 861623328
I0403 15:10:28.105693 31246 layer_factory.hpp:77] Creating layer inception_4a/3x3_reduce
I0403 15:10:28.105718 31246 net.cpp:91] Creating Layer inception_4a/3x3_reduce
I0403 15:10:28.105736 31246 net.cpp:425] inception_4a/3x3_reduce <- pool3/3x3_s2_pool3/3x3_s2_0_split_1
I0403 15:10:28.105756 31246 net.cpp:399] inception_4a/3x3_reduce -> inception_4a/3x3_reduce
I0403 15:10:28.107053 31246 net.cpp:141] Setting up inception_4a/3x3_reduce
I0403 15:10:28.107081 31246 net.cpp:148] Top shape: 24 96 14 14 (451584)
I0403 15:10:28.107098 31246 net.cpp:156] Memory required for data: 863429664
I0403 15:10:28.107125 31246 layer_factory.hpp:77] Creating layer inception_4a/relu_3x3_reduce
I0403 15:10:28.107144 31246 net.cpp:91] Creating Layer inception_4a/relu_3x3_reduce
I0403 15:10:28.107161 31246 net.cpp:425] inception_4a/relu_3x3_reduce <- inception_4a/3x3_reduce
I0403 15:10:28.107182 31246 net.cpp:386] inception_4a/relu_3x3_reduce -> inception_4a/3x3_reduce (in-place)
I0403 15:10:28.107357 31246 net.cpp:141] Setting up inception_4a/relu_3x3_reduce
I0403 15:10:28.107381 31246 net.cpp:148] Top shape: 24 96 14 14 (451584)
I0403 15:10:28.107396 31246 net.cpp:156] Memory required for data: 865236000
I0403 15:10:28.107411 31246 layer_factory.hpp:77] Creating layer inception_4a/3x3
I0403 15:10:28.107434 31246 net.cpp:91] Creating Layer inception_4a/3x3
I0403 15:10:28.107452 31246 net.cpp:425] inception_4a/3x3 <- inception_4a/3x3_reduce
I0403 15:10:28.107477 31246 net.cpp:399] inception_4a/3x3 -> inception_4a/3x3
I0403 15:10:28.110224 31246 net.cpp:141] Setting up inception_4a/3x3
I0403 15:10:28.110254 31246 net.cpp:148] Top shape: 24 208 14 14 (978432)
I0403 15:10:28.110270 31246 net.cpp:156] Memory required for data: 869149728
I0403 15:10:28.110290 31246 layer_factory.hpp:77] Creating layer inception_4a/relu_3x3
I0403 15:10:28.110311 31246 net.cpp:91] Creating Layer inception_4a/relu_3x3
I0403 15:10:28.110327 31246 net.cpp:425] inception_4a/relu_3x3 <- inception_4a/3x3
I0403 15:10:28.110344 31246 net.cpp:386] inception_4a/relu_3x3 -> inception_4a/3x3 (in-place)
I0403 15:10:28.110636 31246 net.cpp:141] Setting up inception_4a/relu_3x3
I0403 15:10:28.110663 31246 net.cpp:148] Top shape: 24 208 14 14 (978432)
I0403 15:10:28.110679 31246 net.cpp:156] Memory required for data: 873063456
I0403 15:10:28.110695 31246 layer_factory.hpp:77] Creating layer inception_4a/5x5_reduce
I0403 15:10:28.110719 31246 net.cpp:91] Creating Layer inception_4a/5x5_reduce
I0403 15:10:28.110738 31246 net.cpp:425] inception_4a/5x5_reduce <- pool3/3x3_s2_pool3/3x3_s2_0_split_2
I0403 15:10:28.110759 31246 net.cpp:399] inception_4a/5x5_reduce -> inception_4a/5x5_reduce
I0403 15:10:28.111809 31246 net.cpp:141] Setting up inception_4a/5x5_reduce
I0403 15:10:28.111840 31246 net.cpp:148] Top shape: 24 16 14 14 (75264)
I0403 15:10:28.111856 31246 net.cpp:156] Memory required for data: 873364512
I0403 15:10:28.111876 31246 layer_factory.hpp:77] Creating layer inception_4a/relu_5x5_reduce
I0403 15:10:28.111894 31246 net.cpp:91] Creating Layer inception_4a/relu_5x5_reduce
I0403 15:10:28.111912 31246 net.cpp:425] inception_4a/relu_5x5_reduce <- inception_4a/5x5_reduce
I0403 15:10:28.111928 31246 net.cpp:386] inception_4a/relu_5x5_reduce -> inception_4a/5x5_reduce (in-place)
I0403 15:10:28.112115 31246 net.cpp:141] Setting up inception_4a/relu_5x5_reduce
I0403 15:10:28.112141 31246 net.cpp:148] Top shape: 24 16 14 14 (75264)
I0403 15:10:28.112156 31246 net.cpp:156] Memory required for data: 873665568
I0403 15:10:28.112172 31246 layer_factory.hpp:77] Creating layer inception_4a/5x5
I0403 15:10:28.112195 31246 net.cpp:91] Creating Layer inception_4a/5x5
I0403 15:10:28.112212 31246 net.cpp:425] inception_4a/5x5 <- inception_4a/5x5_reduce
I0403 15:10:28.112234 31246 net.cpp:399] inception_4a/5x5 -> inception_4a/5x5
I0403 15:10:28.113348 31246 net.cpp:141] Setting up inception_4a/5x5
I0403 15:10:28.113375 31246 net.cpp:148] Top shape: 24 48 14 14 (225792)
I0403 15:10:28.113392 31246 net.cpp:156] Memory required for data: 874568736
I0403 15:10:28.113411 31246 layer_factory.hpp:77] Creating layer inception_4a/relu_5x5
I0403 15:10:28.113430 31246 net.cpp:91] Creating Layer inception_4a/relu_5x5
I0403 15:10:28.113445 31246 net.cpp:425] inception_4a/relu_5x5 <- inception_4a/5x5
I0403 15:10:28.113466 31246 net.cpp:386] inception_4a/relu_5x5 -> inception_4a/5x5 (in-place)
I0403 15:10:28.113654 31246 net.cpp:141] Setting up inception_4a/relu_5x5
I0403 15:10:28.113680 31246 net.cpp:148] Top shape: 24 48 14 14 (225792)
I0403 15:10:28.113695 31246 net.cpp:156] Memory required for data: 875471904
I0403 15:10:28.113711 31246 layer_factory.hpp:77] Creating layer inception_4a/pool
I0403 15:10:28.113732 31246 net.cpp:91] Creating Layer inception_4a/pool
I0403 15:10:28.113749 31246 net.cpp:425] inception_4a/pool <- pool3/3x3_s2_pool3/3x3_s2_0_split_3
I0403 15:10:28.113767 31246 net.cpp:399] inception_4a/pool -> inception_4a/pool
I0403 15:10:28.113831 31246 net.cpp:141] Setting up inception_4a/pool
I0403 15:10:28.113854 31246 net.cpp:148] Top shape: 24 480 14 14 (2257920)
I0403 15:10:28.113869 31246 net.cpp:156] Memory required for data: 884503584
I0403 15:10:28.113884 31246 layer_factory.hpp:77] Creating layer inception_4a/pool_proj
I0403 15:10:28.113908 31246 net.cpp:91] Creating Layer inception_4a/pool_proj
I0403 15:10:28.113925 31246 net.cpp:425] inception_4a/pool_proj <- inception_4a/pool
I0403 15:10:28.113946 31246 net.cpp:399] inception_4a/pool_proj -> inception_4a/pool_proj
I0403 15:10:28.115149 31246 net.cpp:141] Setting up inception_4a/pool_proj
I0403 15:10:28.115187 31246 net.cpp:148] Top shape: 24 64 14 14 (301056)
I0403 15:10:28.115226 31246 net.cpp:156] Memory required for data: 885707808
I0403 15:10:28.115248 31246 layer_factory.hpp:77] Creating layer inception_4a/relu_pool_proj
I0403 15:10:28.115270 31246 net.cpp:91] Creating Layer inception_4a/relu_pool_proj
I0403 15:10:28.115288 31246 net.cpp:425] inception_4a/relu_pool_proj <- inception_4a/pool_proj
I0403 15:10:28.115305 31246 net.cpp:386] inception_4a/relu_pool_proj -> inception_4a/pool_proj (in-place)
I0403 15:10:28.115602 31246 net.cpp:141] Setting up inception_4a/relu_pool_proj
I0403 15:10:28.115628 31246 net.cpp:148] Top shape: 24 64 14 14 (301056)
I0403 15:10:28.115644 31246 net.cpp:156] Memory required for data: 886912032
I0403 15:10:28.115660 31246 layer_factory.hpp:77] Creating layer inception_4a/output
I0403 15:10:28.115679 31246 net.cpp:91] Creating Layer inception_4a/output
I0403 15:10:28.115694 31246 net.cpp:425] inception_4a/output <- inception_4a/1x1
I0403 15:10:28.115711 31246 net.cpp:425] inception_4a/output <- inception_4a/3x3
I0403 15:10:28.115728 31246 net.cpp:425] inception_4a/output <- inception_4a/5x5
I0403 15:10:28.115744 31246 net.cpp:425] inception_4a/output <- inception_4a/pool_proj
I0403 15:10:28.115764 31246 net.cpp:399] inception_4a/output -> inception_4a/output
I0403 15:10:28.115810 31246 net.cpp:141] Setting up inception_4a/output
I0403 15:10:28.115836 31246 net.cpp:148] Top shape: 24 512 14 14 (2408448)
I0403 15:10:28.115851 31246 net.cpp:156] Memory required for data: 896545824
I0403 15:10:28.115866 31246 layer_factory.hpp:77] Creating layer inception_4a/output_inception_4a/output_0_split
I0403 15:10:28.115885 31246 net.cpp:91] Creating Layer inception_4a/output_inception_4a/output_0_split
I0403 15:10:28.115900 31246 net.cpp:425] inception_4a/output_inception_4a/output_0_split <- inception_4a/output
I0403 15:10:28.115921 31246 net.cpp:399] inception_4a/output_inception_4a/output_0_split -> inception_4a/output_inception_4a/output_0_split_0
I0403 15:10:28.115942 31246 net.cpp:399] inception_4a/output_inception_4a/output_0_split -> inception_4a/output_inception_4a/output_0_split_1
I0403 15:10:28.115965 31246 net.cpp:399] inception_4a/output_inception_4a/output_0_split -> inception_4a/output_inception_4a/output_0_split_2
I0403 15:10:28.115988 31246 net.cpp:399] inception_4a/output_inception_4a/output_0_split -> inception_4a/output_inception_4a/output_0_split_3
I0403 15:10:28.116013 31246 net.cpp:399] inception_4a/output_inception_4a/output_0_split -> inception_4a/output_inception_4a/output_0_split_4
I0403 15:10:28.116106 31246 net.cpp:141] Setting up inception_4a/output_inception_4a/output_0_split
I0403 15:10:28.116132 31246 net.cpp:148] Top shape: 24 512 14 14 (2408448)
I0403 15:10:28.116150 31246 net.cpp:148] Top shape: 24 512 14 14 (2408448)
I0403 15:10:28.116168 31246 net.cpp:148] Top shape: 24 512 14 14 (2408448)
I0403 15:10:28.116184 31246 net.cpp:148] Top shape: 24 512 14 14 (2408448)
I0403 15:10:28.116199 31246 net.cpp:148] Top shape: 24 512 14 14 (2408448)
I0403 15:10:28.116214 31246 net.cpp:156] Memory required for data: 944714784
I0403 15:10:28.116230 31246 layer_factory.hpp:77] Creating layer loss1/ave_pool
I0403 15:10:28.116247 31246 net.cpp:91] Creating Layer loss1/ave_pool
I0403 15:10:28.116262 31246 net.cpp:425] loss1/ave_pool <- inception_4a/output_inception_4a/output_0_split_0
I0403 15:10:28.116281 31246 net.cpp:399] loss1/ave_pool -> loss1/ave_pool
I0403 15:10:28.116494 31246 net.cpp:141] Setting up loss1/ave_pool
I0403 15:10:28.116525 31246 net.cpp:148] Top shape: 24 512 4 4 (196608)
I0403 15:10:28.116541 31246 net.cpp:156] Memory required for data: 945501216
I0403 15:10:28.116557 31246 layer_factory.hpp:77] Creating layer loss1/conv
I0403 15:10:28.116580 31246 net.cpp:91] Creating Layer loss1/conv
I0403 15:10:28.116598 31246 net.cpp:425] loss1/conv <- loss1/ave_pool
I0403 15:10:28.116619 31246 net.cpp:399] loss1/conv -> loss1/conv
I0403 15:10:28.118067 31246 net.cpp:141] Setting up loss1/conv
I0403 15:10:28.118098 31246 net.cpp:148] Top shape: 24 128 4 4 (49152)
I0403 15:10:28.118129 31246 net.cpp:156] Memory required for data: 945697824
I0403 15:10:28.118150 31246 layer_factory.hpp:77] Creating layer loss1/relu_conv
I0403 15:10:28.118170 31246 net.cpp:91] Creating Layer loss1/relu_conv
I0403 15:10:28.118185 31246 net.cpp:425] loss1/relu_conv <- loss1/conv
I0403 15:10:28.118203 31246 net.cpp:386] loss1/relu_conv -> loss1/conv (in-place)
I0403 15:10:28.118494 31246 net.cpp:141] Setting up loss1/relu_conv
I0403 15:10:28.118530 31246 net.cpp:148] Top shape: 24 128 4 4 (49152)
I0403 15:10:28.118557 31246 net.cpp:156] Memory required for data: 945894432
I0403 15:10:28.118572 31246 layer_factory.hpp:77] Creating layer loss1/fc
I0403 15:10:28.118602 31246 net.cpp:91] Creating Layer loss1/fc
I0403 15:10:28.118619 31246 net.cpp:425] loss1/fc <- loss1/conv
I0403 15:10:28.118641 31246 net.cpp:399] loss1/fc -> loss1/fc
I0403 15:10:28.137172 31246 net.cpp:141] Setting up loss1/fc
I0403 15:10:28.137256 31246 net.cpp:148] Top shape: 24 1024 (24576)
I0403 15:10:28.137317 31246 net.cpp:156] Memory required for data: 945992736
I0403 15:10:28.137367 31246 layer_factory.hpp:77] Creating layer loss1/relu_fc
I0403 15:10:28.137401 31246 net.cpp:91] Creating Layer loss1/relu_fc
I0403 15:10:28.137436 31246 net.cpp:425] loss1/relu_fc <- loss1/fc
I0403 15:10:28.137462 31246 net.cpp:386] loss1/relu_fc -> loss1/fc (in-place)
I0403 15:10:28.137676 31246 net.cpp:141] Setting up loss1/relu_fc
I0403 15:10:28.137707 31246 net.cpp:148] Top shape: 24 1024 (24576)
I0403 15:10:28.137724 31246 net.cpp:156] Memory required for data: 946091040
I0403 15:10:28.137745 31246 layer_factory.hpp:77] Creating layer loss1/drop_fc
I0403 15:10:28.137779 31246 net.cpp:91] Creating Layer loss1/drop_fc
I0403 15:10:28.137804 31246 net.cpp:425] loss1/drop_fc <- loss1/fc
I0403 15:10:28.137830 31246 net.cpp:386] loss1/drop_fc -> loss1/fc (in-place)
I0403 15:10:28.137888 31246 net.cpp:141] Setting up loss1/drop_fc
I0403 15:10:28.137919 31246 net.cpp:148] Top shape: 24 1024 (24576)
I0403 15:10:28.137943 31246 net.cpp:156] Memory required for data: 946189344
I0403 15:10:28.137959 31246 layer_factory.hpp:77] Creating layer loss1/classifier_plantvillage
I0403 15:10:28.137984 31246 net.cpp:91] Creating Layer loss1/classifier_plantvillage
I0403 15:10:28.138005 31246 net.cpp:425] loss1/classifier_plantvillage <- loss1/fc
I0403 15:10:28.138034 31246 net.cpp:399] loss1/classifier_plantvillage -> loss1/classifier_plantvillage
I0403 15:10:28.139005 31246 net.cpp:141] Setting up loss1/classifier_plantvillage
I0403 15:10:28.139042 31246 net.cpp:148] Top shape: 24 38 (912)
I0403 15:10:28.139068 31246 net.cpp:156] Memory required for data: 946192992
I0403 15:10:28.139091 31246 layer_factory.hpp:77] Creating layer loss1/classifier_plantvillage_loss1/classifier_plantvillage_0_split
I0403 15:10:28.139114 31246 net.cpp:91] Creating Layer loss1/classifier_plantvillage_loss1/classifier_plantvillage_0_split
I0403 15:10:28.139139 31246 net.cpp:425] loss1/classifier_plantvillage_loss1/classifier_plantvillage_0_split <- loss1/classifier_plantvillage
I0403 15:10:28.139163 31246 net.cpp:399] loss1/classifier_plantvillage_loss1/classifier_plantvillage_0_split -> loss1/classifier_plantvillage_loss1/classifier_plantvillage_0_split_0
I0403 15:10:28.139186 31246 net.cpp:399] loss1/classifier_plantvillage_loss1/classifier_plantvillage_0_split -> loss1/classifier_plantvillage_loss1/classifier_plantvillage_0_split_1
I0403 15:10:28.139206 31246 net.cpp:399] loss1/classifier_plantvillage_loss1/classifier_plantvillage_0_split -> loss1/classifier_plantvillage_loss1/classifier_plantvillage_0_split_2
I0403 15:10:28.139277 31246 net.cpp:141] Setting up loss1/classifier_plantvillage_loss1/classifier_plantvillage_0_split
I0403 15:10:28.139303 31246 net.cpp:148] Top shape: 24 38 (912)
I0403 15:10:28.139328 31246 net.cpp:148] Top shape: 24 38 (912)
I0403 15:10:28.139344 31246 net.cpp:148] Top shape: 24 38 (912)
I0403 15:10:28.139359 31246 net.cpp:156] Memory required for data: 946203936
I0403 15:10:28.139374 31246 layer_factory.hpp:77] Creating layer inception_4b/1x1
I0403 15:10:28.139402 31246 net.cpp:91] Creating Layer inception_4b/1x1
I0403 15:10:28.139437 31246 net.cpp:425] inception_4b/1x1 <- inception_4a/output_inception_4a/output_0_split_1
I0403 15:10:28.139467 31246 net.cpp:399] inception_4b/1x1 -> inception_4b/1x1
I0403 15:10:28.141232 31246 net.cpp:141] Setting up inception_4b/1x1
I0403 15:10:28.141269 31246 net.cpp:148] Top shape: 24 160 14 14 (752640)
I0403 15:10:28.141294 31246 net.cpp:156] Memory required for data: 949214496
I0403 15:10:28.141321 31246 layer_factory.hpp:77] Creating layer inception_4b/relu_1x1
I0403 15:10:28.141345 31246 net.cpp:91] Creating Layer inception_4b/relu_1x1
I0403 15:10:28.141363 31246 net.cpp:425] inception_4b/relu_1x1 <- inception_4b/1x1
I0403 15:10:28.141386 31246 net.cpp:386] inception_4b/relu_1x1 -> inception_4b/1x1 (in-place)
I0403 15:10:28.141590 31246 net.cpp:141] Setting up inception_4b/relu_1x1
I0403 15:10:28.141646 31246 net.cpp:148] Top shape: 24 160 14 14 (752640)
I0403 15:10:28.141705 31246 net.cpp:156] Memory required for data: 952225056
I0403 15:10:28.141736 31246 layer_factory.hpp:77] Creating layer inception_4b/3x3_reduce
I0403 15:10:28.141762 31246 net.cpp:91] Creating Layer inception_4b/3x3_reduce
I0403 15:10:28.141790 31246 net.cpp:425] inception_4b/3x3_reduce <- inception_4a/output_inception_4a/output_0_split_2
I0403 15:10:28.141813 31246 net.cpp:399] inception_4b/3x3_reduce -> inception_4b/3x3_reduce
I0403 15:10:28.143250 31246 net.cpp:141] Setting up inception_4b/3x3_reduce
I0403 15:10:28.143285 31246 net.cpp:148] Top shape: 24 112 14 14 (526848)
I0403 15:10:28.143302 31246 net.cpp:156] Memory required for data: 954332448
I0403 15:10:28.143322 31246 layer_factory.hpp:77] Creating layer inception_4b/relu_3x3_reduce
I0403 15:10:28.143343 31246 net.cpp:91] Creating Layer inception_4b/relu_3x3_reduce
I0403 15:10:28.143360 31246 net.cpp:425] inception_4b/relu_3x3_reduce <- inception_4b/3x3_reduce
I0403 15:10:28.143381 31246 net.cpp:386] inception_4b/relu_3x3_reduce -> inception_4b/3x3_reduce (in-place)
I0403 15:10:28.143684 31246 net.cpp:141] Setting up inception_4b/relu_3x3_reduce
I0403 15:10:28.143714 31246 net.cpp:148] Top shape: 24 112 14 14 (526848)
I0403 15:10:28.143730 31246 net.cpp:156] Memory required for data: 956439840
I0403 15:10:28.143746 31246 layer_factory.hpp:77] Creating layer inception_4b/3x3
I0403 15:10:28.143772 31246 net.cpp:91] Creating Layer inception_4b/3x3
I0403 15:10:28.143795 31246 net.cpp:425] inception_4b/3x3 <- inception_4b/3x3_reduce
I0403 15:10:28.143831 31246 net.cpp:399] inception_4b/3x3 -> inception_4b/3x3
I0403 15:10:28.146998 31246 net.cpp:141] Setting up inception_4b/3x3
I0403 15:10:28.147039 31246 net.cpp:148] Top shape: 24 224 14 14 (1053696)
I0403 15:10:28.147063 31246 net.cpp:156] Memory required for data: 960654624
I0403 15:10:28.147083 31246 layer_factory.hpp:77] Creating layer inception_4b/relu_3x3
I0403 15:10:28.147115 31246 net.cpp:91] Creating Layer inception_4b/relu_3x3
I0403 15:10:28.147136 31246 net.cpp:425] inception_4b/relu_3x3 <- inception_4b/3x3
I0403 15:10:28.147157 31246 net.cpp:386] inception_4b/relu_3x3 -> inception_4b/3x3 (in-place)
I0403 15:10:28.147362 31246 net.cpp:141] Setting up inception_4b/relu_3x3
I0403 15:10:28.147395 31246 net.cpp:148] Top shape: 24 224 14 14 (1053696)
I0403 15:10:28.147418 31246 net.cpp:156] Memory required for data: 964869408
I0403 15:10:28.147449 31246 layer_factory.hpp:77] Creating layer inception_4b/5x5_reduce
I0403 15:10:28.147478 31246 net.cpp:91] Creating Layer inception_4b/5x5_reduce
I0403 15:10:28.147506 31246 net.cpp:425] inception_4b/5x5_reduce <- inception_4a/output_inception_4a/output_0_split_3
I0403 15:10:28.147533 31246 net.cpp:399] inception_4b/5x5_reduce -> inception_4b/5x5_reduce
I0403 15:10:28.148689 31246 net.cpp:141] Setting up inception_4b/5x5_reduce
I0403 15:10:28.148722 31246 net.cpp:148] Top shape: 24 24 14 14 (112896)
I0403 15:10:28.148739 31246 net.cpp:156] Memory required for data: 965320992
I0403 15:10:28.148759 31246 layer_factory.hpp:77] Creating layer inception_4b/relu_5x5_reduce
I0403 15:10:28.148787 31246 net.cpp:91] Creating Layer inception_4b/relu_5x5_reduce
I0403 15:10:28.148818 31246 net.cpp:425] inception_4b/relu_5x5_reduce <- inception_4b/5x5_reduce
I0403 15:10:28.148840 31246 net.cpp:386] inception_4b/relu_5x5_reduce -> inception_4b/5x5_reduce (in-place)
I0403 15:10:28.149039 31246 net.cpp:141] Setting up inception_4b/relu_5x5_reduce
I0403 15:10:28.149066 31246 net.cpp:148] Top shape: 24 24 14 14 (112896)
I0403 15:10:28.149082 31246 net.cpp:156] Memory required for data: 965772576
I0403 15:10:28.149103 31246 layer_factory.hpp:77] Creating layer inception_4b/5x5
I0403 15:10:28.149128 31246 net.cpp:91] Creating Layer inception_4b/5x5
I0403 15:10:28.149147 31246 net.cpp:425] inception_4b/5x5 <- inception_4b/5x5_reduce
I0403 15:10:28.149169 31246 net.cpp:399] inception_4b/5x5 -> inception_4b/5x5
I0403 15:10:28.150478 31246 net.cpp:141] Setting up inception_4b/5x5
I0403 15:10:28.150523 31246 net.cpp:148] Top shape: 24 64 14 14 (301056)
I0403 15:10:28.150555 31246 net.cpp:156] Memory required for data: 966976800
I0403 15:10:28.150583 31246 layer_factory.hpp:77] Creating layer inception_4b/relu_5x5
I0403 15:10:28.150609 31246 net.cpp:91] Creating Layer inception_4b/relu_5x5
I0403 15:10:28.150632 31246 net.cpp:425] inception_4b/relu_5x5 <- inception_4b/5x5
I0403 15:10:28.150660 31246 net.cpp:386] inception_4b/relu_5x5 -> inception_4b/5x5 (in-place)
I0403 15:10:28.150969 31246 net.cpp:141] Setting up inception_4b/relu_5x5
I0403 15:10:28.151005 31246 net.cpp:148] Top shape: 24 64 14 14 (301056)
I0403 15:10:28.151034 31246 net.cpp:156] Memory required for data: 968181024
I0403 15:10:28.151052 31246 layer_factory.hpp:77] Creating layer inception_4b/pool
I0403 15:10:28.151079 31246 net.cpp:91] Creating Layer inception_4b/pool
I0403 15:10:28.151105 31246 net.cpp:425] inception_4b/pool <- inception_4a/output_inception_4a/output_0_split_4
I0403 15:10:28.151132 31246 net.cpp:399] inception_4b/pool -> inception_4b/pool
I0403 15:10:28.151211 31246 net.cpp:141] Setting up inception_4b/pool
I0403 15:10:28.151244 31246 net.cpp:148] Top shape: 24 512 14 14 (2408448)
I0403 15:10:28.151269 31246 net.cpp:156] Memory required for data: 977814816
I0403 15:10:28.151298 31246 layer_factory.hpp:77] Creating layer inception_4b/pool_proj
I0403 15:10:28.151326 31246 net.cpp:91] Creating Layer inception_4b/pool_proj
I0403 15:10:28.151355 31246 net.cpp:425] inception_4b/pool_proj <- inception_4b/pool
I0403 15:10:28.151381 31246 net.cpp:399] inception_4b/pool_proj -> inception_4b/pool_proj
I0403 15:10:28.152675 31246 net.cpp:141] Setting up inception_4b/pool_proj
I0403 15:10:28.152714 31246 net.cpp:148] Top shape: 24 64 14 14 (301056)
I0403 15:10:28.152737 31246 net.cpp:156] Memory required for data: 979019040
I0403 15:10:28.152766 31246 layer_factory.hpp:77] Creating layer inception_4b/relu_pool_proj
I0403 15:10:28.152798 31246 net.cpp:91] Creating Layer inception_4b/relu_pool_proj
I0403 15:10:28.152818 31246 net.cpp:425] inception_4b/relu_pool_proj <- inception_4b/pool_proj
I0403 15:10:28.152837 31246 net.cpp:386] inception_4b/relu_pool_proj -> inception_4b/pool_proj (in-place)
I0403 15:10:28.153035 31246 net.cpp:141] Setting up inception_4b/relu_pool_proj
I0403 15:10:28.153064 31246 net.cpp:148] Top shape: 24 64 14 14 (301056)
I0403 15:10:28.153079 31246 net.cpp:156] Memory required for data: 980223264
I0403 15:10:28.153095 31246 layer_factory.hpp:77] Creating layer inception_4b/output
I0403 15:10:28.153115 31246 net.cpp:91] Creating Layer inception_4b/output
I0403 15:10:28.153132 31246 net.cpp:425] inception_4b/output <- inception_4b/1x1
I0403 15:10:28.153151 31246 net.cpp:425] inception_4b/output <- inception_4b/3x3
I0403 15:10:28.153167 31246 net.cpp:425] inception_4b/output <- inception_4b/5x5
I0403 15:10:28.153185 31246 net.cpp:425] inception_4b/output <- inception_4b/pool_proj
I0403 15:10:28.153208 31246 net.cpp:399] inception_4b/output -> inception_4b/output
I0403 15:10:28.153265 31246 net.cpp:141] Setting up inception_4b/output
I0403 15:10:28.153303 31246 net.cpp:148] Top shape: 24 512 14 14 (2408448)
I0403 15:10:28.153324 31246 net.cpp:156] Memory required for data: 989857056
I0403 15:10:28.153360 31246 layer_factory.hpp:77] Creating layer inception_4b/output_inception_4b/output_0_split
I0403 15:10:28.153381 31246 net.cpp:91] Creating Layer inception_4b/output_inception_4b/output_0_split
I0403 15:10:28.153405 31246 net.cpp:425] inception_4b/output_inception_4b/output_0_split <- inception_4b/output
I0403 15:10:28.153432 31246 net.cpp:399] inception_4b/output_inception_4b/output_0_split -> inception_4b/output_inception_4b/output_0_split_0
I0403 15:10:28.153460 31246 net.cpp:399] inception_4b/output_inception_4b/output_0_split -> inception_4b/output_inception_4b/output_0_split_1
I0403 15:10:28.153491 31246 net.cpp:399] inception_4b/output_inception_4b/output_0_split -> inception_4b/output_inception_4b/output_0_split_2
I0403 15:10:28.153530 31246 net.cpp:399] inception_4b/output_inception_4b/output_0_split -> inception_4b/output_inception_4b/output_0_split_3
I0403 15:10:28.153630 31246 net.cpp:141] Setting up inception_4b/output_inception_4b/output_0_split
I0403 15:10:28.153662 31246 net.cpp:148] Top shape: 24 512 14 14 (2408448)
I0403 15:10:28.153683 31246 net.cpp:148] Top shape: 24 512 14 14 (2408448)
I0403 15:10:28.153708 31246 net.cpp:148] Top shape: 24 512 14 14 (2408448)
I0403 15:10:28.153731 31246 net.cpp:148] Top shape: 24 512 14 14 (2408448)
I0403 15:10:28.153753 31246 net.cpp:156] Memory required for data: 1028392224
I0403 15:10:28.153769 31246 layer_factory.hpp:77] Creating layer inception_4c/1x1
I0403 15:10:28.153803 31246 net.cpp:91] Creating Layer inception_4c/1x1
I0403 15:10:28.153827 31246 net.cpp:425] inception_4c/1x1 <- inception_4b/output_inception_4b/output_0_split_0
I0403 15:10:28.153854 31246 net.cpp:399] inception_4c/1x1 -> inception_4c/1x1
I0403 15:10:28.155398 31246 net.cpp:141] Setting up inception_4c/1x1
I0403 15:10:28.155436 31246 net.cpp:148] Top shape: 24 128 14 14 (602112)
I0403 15:10:28.155462 31246 net.cpp:156] Memory required for data: 1030800672
I0403 15:10:28.155483 31246 layer_factory.hpp:77] Creating layer inception_4c/relu_1x1
I0403 15:10:28.155514 31246 net.cpp:91] Creating Layer inception_4c/relu_1x1
I0403 15:10:28.155539 31246 net.cpp:425] inception_4c/relu_1x1 <- inception_4c/1x1
I0403 15:10:28.155575 31246 net.cpp:386] inception_4c/relu_1x1 -> inception_4c/1x1 (in-place)
I0403 15:10:28.155771 31246 net.cpp:141] Setting up inception_4c/relu_1x1
I0403 15:10:28.155804 31246 net.cpp:148] Top shape: 24 128 14 14 (602112)
I0403 15:10:28.155827 31246 net.cpp:156] Memory required for data: 1033209120
I0403 15:10:28.155846 31246 layer_factory.hpp:77] Creating layer inception_4c/3x3_reduce
I0403 15:10:28.155881 31246 net.cpp:91] Creating Layer inception_4c/3x3_reduce
I0403 15:10:28.155908 31246 net.cpp:425] inception_4c/3x3_reduce <- inception_4b/output_inception_4b/output_0_split_1
I0403 15:10:28.155933 31246 net.cpp:399] inception_4c/3x3_reduce -> inception_4c/3x3_reduce
I0403 15:10:28.158004 31246 net.cpp:141] Setting up inception_4c/3x3_reduce
I0403 15:10:28.158043 31246 net.cpp:148] Top shape: 24 128 14 14 (602112)
I0403 15:10:28.158061 31246 net.cpp:156] Memory required for data: 1035617568
I0403 15:10:28.158083 31246 layer_factory.hpp:77] Creating layer inception_4c/relu_3x3_reduce
I0403 15:10:28.158123 31246 net.cpp:91] Creating Layer inception_4c/relu_3x3_reduce
I0403 15:10:28.158151 31246 net.cpp:425] inception_4c/relu_3x3_reduce <- inception_4c/3x3_reduce
I0403 15:10:28.158172 31246 net.cpp:386] inception_4c/relu_3x3_reduce -> inception_4c/3x3_reduce (in-place)
I0403 15:10:28.158483 31246 net.cpp:141] Setting up inception_4c/relu_3x3_reduce
I0403 15:10:28.158529 31246 net.cpp:148] Top shape: 24 128 14 14 (602112)
I0403 15:10:28.158558 31246 net.cpp:156] Memory required for data: 1038026016
I0403 15:10:28.158579 31246 layer_factory.hpp:77] Creating layer inception_4c/3x3
I0403 15:10:28.158609 31246 net.cpp:91] Creating Layer inception_4c/3x3
I0403 15:10:28.158639 31246 net.cpp:425] inception_4c/3x3 <- inception_4c/3x3_reduce
I0403 15:10:28.158661 31246 net.cpp:399] inception_4c/3x3 -> inception_4c/3x3
I0403 15:10:28.162490 31246 net.cpp:141] Setting up inception_4c/3x3
I0403 15:10:28.162544 31246 net.cpp:148] Top shape: 24 256 14 14 (1204224)
I0403 15:10:28.162564 31246 net.cpp:156] Memory required for data: 1042842912
I0403 15:10:28.162603 31246 layer_factory.hpp:77] Creating layer inception_4c/relu_3x3
I0403 15:10:28.162626 31246 net.cpp:91] Creating Layer inception_4c/relu_3x3
I0403 15:10:28.162652 31246 net.cpp:425] inception_4c/relu_3x3 <- inception_4c/3x3
I0403 15:10:28.162672 31246 net.cpp:386] inception_4c/relu_3x3 -> inception_4c/3x3 (in-place)
I0403 15:10:28.162874 31246 net.cpp:141] Setting up inception_4c/relu_3x3
I0403 15:10:28.162907 31246 net.cpp:148] Top shape: 24 256 14 14 (1204224)
I0403 15:10:28.162926 31246 net.cpp:156] Memory required for data: 1047659808
I0403 15:10:28.162941 31246 layer_factory.hpp:77] Creating layer inception_4c/5x5_reduce
I0403 15:10:28.162966 31246 net.cpp:91] Creating Layer inception_4c/5x5_reduce
I0403 15:10:28.162992 31246 net.cpp:425] inception_4c/5x5_reduce <- inception_4b/output_inception_4b/output_0_split_2
I0403 15:10:28.163017 31246 net.cpp:399] inception_4c/5x5_reduce -> inception_4c/5x5_reduce
I0403 15:10:28.164177 31246 net.cpp:141] Setting up inception_4c/5x5_reduce
I0403 15:10:28.164214 31246 net.cpp:148] Top shape: 24 24 14 14 (112896)
I0403 15:10:28.164235 31246 net.cpp:156] Memory required for data: 1048111392
I0403 15:10:28.164263 31246 layer_factory.hpp:77] Creating layer inception_4c/relu_5x5_reduce
I0403 15:10:28.164286 31246 net.cpp:91] Creating Layer inception_4c/relu_5x5_reduce
I0403 15:10:28.164304 31246 net.cpp:425] inception_4c/relu_5x5_reduce <- inception_4c/5x5_reduce
I0403 15:10:28.164324 31246 net.cpp:386] inception_4c/relu_5x5_reduce -> inception_4c/5x5_reduce (in-place)
I0403 15:10:28.164549 31246 net.cpp:141] Setting up inception_4c/relu_5x5_reduce
I0403 15:10:28.164583 31246 net.cpp:148] Top shape: 24 24 14 14 (112896)
I0403 15:10:28.164602 31246 net.cpp:156] Memory required for data: 1048562976
I0403 15:10:28.164623 31246 layer_factory.hpp:77] Creating layer inception_4c/5x5
I0403 15:10:28.164652 31246 net.cpp:91] Creating Layer inception_4c/5x5
I0403 15:10:28.164677 31246 net.cpp:425] inception_4c/5x5 <- inception_4c/5x5_reduce
I0403 15:10:28.164706 31246 net.cpp:399] inception_4c/5x5 -> inception_4c/5x5
I0403 15:10:28.166035 31246 net.cpp:141] Setting up inception_4c/5x5
I0403 15:10:28.166071 31246 net.cpp:148] Top shape: 24 64 14 14 (301056)
I0403 15:10:28.166088 31246 net.cpp:156] Memory required for data: 1049767200
I0403 15:10:28.166107 31246 layer_factory.hpp:77] Creating layer inception_4c/relu_5x5
I0403 15:10:28.166137 31246 net.cpp:91] Creating Layer inception_4c/relu_5x5
I0403 15:10:28.166155 31246 net.cpp:425] inception_4c/relu_5x5 <- inception_4c/5x5
I0403 15:10:28.166177 31246 net.cpp:386] inception_4c/relu_5x5 -> inception_4c/5x5 (in-place)
I0403 15:10:28.166488 31246 net.cpp:141] Setting up inception_4c/relu_5x5
I0403 15:10:28.166527 31246 net.cpp:148] Top shape: 24 64 14 14 (301056)
I0403 15:10:28.166551 31246 net.cpp:156] Memory required for data: 1050971424
I0403 15:10:28.166574 31246 layer_factory.hpp:77] Creating layer inception_4c/pool
I0403 15:10:28.166595 31246 net.cpp:91] Creating Layer inception_4c/pool
I0403 15:10:28.166618 31246 net.cpp:425] inception_4c/pool <- inception_4b/output_inception_4b/output_0_split_3
I0403 15:10:28.166647 31246 net.cpp:399] inception_4c/pool -> inception_4c/pool
I0403 15:10:28.166718 31246 net.cpp:141] Setting up inception_4c/pool
I0403 15:10:28.166749 31246 net.cpp:148] Top shape: 24 512 14 14 (2408448)
I0403 15:10:28.166767 31246 net.cpp:156] Memory required for data: 1060605216
I0403 15:10:28.166785 31246 layer_factory.hpp:77] Creating layer inception_4c/pool_proj
I0403 15:10:28.166811 31246 net.cpp:91] Creating Layer inception_4c/pool_proj
I0403 15:10:28.166836 31246 net.cpp:425] inception_4c/pool_proj <- inception_4c/pool
I0403 15:10:28.166857 31246 net.cpp:399] inception_4c/pool_proj -> inception_4c/pool_proj
I0403 15:10:28.168164 31246 net.cpp:141] Setting up inception_4c/pool_proj
I0403 15:10:28.168202 31246 net.cpp:148] Top shape: 24 64 14 14 (301056)
I0403 15:10:28.168234 31246 net.cpp:156] Memory required for data: 1061809440
I0403 15:10:28.168261 31246 layer_factory.hpp:77] Creating layer inception_4c/relu_pool_proj
I0403 15:10:28.168284 31246 net.cpp:91] Creating Layer inception_4c/relu_pool_proj
I0403 15:10:28.168304 31246 net.cpp:425] inception_4c/relu_pool_proj <- inception_4c/pool_proj
I0403 15:10:28.168323 31246 net.cpp:386] inception_4c/relu_pool_proj -> inception_4c/pool_proj (in-place)
I0403 15:10:28.168524 31246 net.cpp:141] Setting up inception_4c/relu_pool_proj
I0403 15:10:28.168552 31246 net.cpp:148] Top shape: 24 64 14 14 (301056)
I0403 15:10:28.168577 31246 net.cpp:156] Memory required for data: 1063013664
I0403 15:10:28.168599 31246 layer_factory.hpp:77] Creating layer inception_4c/output
I0403 15:10:28.168625 31246 net.cpp:91] Creating Layer inception_4c/output
I0403 15:10:28.168645 31246 net.cpp:425] inception_4c/output <- inception_4c/1x1
I0403 15:10:28.168665 31246 net.cpp:425] inception_4c/output <- inception_4c/3x3
I0403 15:10:28.168683 31246 net.cpp:425] inception_4c/output <- inception_4c/5x5
I0403 15:10:28.168700 31246 net.cpp:425] inception_4c/output <- inception_4c/pool_proj
I0403 15:10:28.168726 31246 net.cpp:399] inception_4c/output -> inception_4c/output
I0403 15:10:28.168783 31246 net.cpp:141] Setting up inception_4c/output
I0403 15:10:28.168819 31246 net.cpp:148] Top shape: 24 512 14 14 (2408448)
I0403 15:10:28.168840 31246 net.cpp:156] Memory required for data: 1072647456
I0403 15:10:28.168862 31246 layer_factory.hpp:77] Creating layer inception_4c/output_inception_4c/output_0_split
I0403 15:10:28.168887 31246 net.cpp:91] Creating Layer inception_4c/output_inception_4c/output_0_split
I0403 15:10:28.168906 31246 net.cpp:425] inception_4c/output_inception_4c/output_0_split <- inception_4c/output
I0403 15:10:28.168925 31246 net.cpp:399] inception_4c/output_inception_4c/output_0_split -> inception_4c/output_inception_4c/output_0_split_0
I0403 15:10:28.168956 31246 net.cpp:399] inception_4c/output_inception_4c/output_0_split -> inception_4c/output_inception_4c/output_0_split_1
I0403 15:10:28.168977 31246 net.cpp:399] inception_4c/output_inception_4c/output_0_split -> inception_4c/output_inception_4c/output_0_split_2
I0403 15:10:28.169005 31246 net.cpp:399] inception_4c/output_inception_4c/output_0_split -> inception_4c/output_inception_4c/output_0_split_3
I0403 15:10:28.169097 31246 net.cpp:141] Setting up inception_4c/output_inception_4c/output_0_split
I0403 15:10:28.169129 31246 net.cpp:148] Top shape: 24 512 14 14 (2408448)
I0403 15:10:28.169150 31246 net.cpp:148] Top shape: 24 512 14 14 (2408448)
I0403 15:10:28.169173 31246 net.cpp:148] Top shape: 24 512 14 14 (2408448)
I0403 15:10:28.169193 31246 net.cpp:148] Top shape: 24 512 14 14 (2408448)
I0403 15:10:28.169209 31246 net.cpp:156] Memory required for data: 1111182624
I0403 15:10:28.169225 31246 layer_factory.hpp:77] Creating layer inception_4d/1x1
I0403 15:10:28.169253 31246 net.cpp:91] Creating Layer inception_4d/1x1
I0403 15:10:28.169275 31246 net.cpp:425] inception_4d/1x1 <- inception_4c/output_inception_4c/output_0_split_0
I0403 15:10:28.169306 31246 net.cpp:399] inception_4d/1x1 -> inception_4d/1x1
I0403 15:10:28.170788 31246 net.cpp:141] Setting up inception_4d/1x1
I0403 15:10:28.170820 31246 net.cpp:148] Top shape: 24 112 14 14 (526848)
I0403 15:10:28.170841 31246 net.cpp:156] Memory required for data: 1113290016
I0403 15:10:28.170869 31246 layer_factory.hpp:77] Creating layer inception_4d/relu_1x1
I0403 15:10:28.170899 31246 net.cpp:91] Creating Layer inception_4d/relu_1x1
I0403 15:10:28.170924 31246 net.cpp:425] inception_4d/relu_1x1 <- inception_4d/1x1
I0403 15:10:28.170948 31246 net.cpp:386] inception_4d/relu_1x1 -> inception_4d/1x1 (in-place)
I0403 15:10:28.171145 31246 net.cpp:141] Setting up inception_4d/relu_1x1
I0403 15:10:28.171178 31246 net.cpp:148] Top shape: 24 112 14 14 (526848)
I0403 15:10:28.171198 31246 net.cpp:156] Memory required for data: 1115397408
I0403 15:10:28.171221 31246 layer_factory.hpp:77] Creating layer inception_4d/3x3_reduce
I0403 15:10:28.171267 31246 net.cpp:91] Creating Layer inception_4d/3x3_reduce
I0403 15:10:28.171291 31246 net.cpp:425] inception_4d/3x3_reduce <- inception_4c/output_inception_4c/output_0_split_1
I0403 15:10:28.171317 31246 net.cpp:399] inception_4d/3x3_reduce -> inception_4d/3x3_reduce
I0403 15:10:28.172926 31246 net.cpp:141] Setting up inception_4d/3x3_reduce
I0403 15:10:28.172955 31246 net.cpp:148] Top shape: 24 144 14 14 (677376)
I0403 15:10:28.172971 31246 net.cpp:156] Memory required for data: 1118106912
I0403 15:10:28.172991 31246 layer_factory.hpp:77] Creating layer inception_4d/relu_3x3_reduce
I0403 15:10:28.173008 31246 net.cpp:91] Creating Layer inception_4d/relu_3x3_reduce
I0403 15:10:28.173024 31246 net.cpp:425] inception_4d/relu_3x3_reduce <- inception_4d/3x3_reduce
I0403 15:10:28.173046 31246 net.cpp:386] inception_4d/relu_3x3_reduce -> inception_4d/3x3_reduce (in-place)
I0403 15:10:28.173353 31246 net.cpp:141] Setting up inception_4d/relu_3x3_reduce
I0403 15:10:28.173385 31246 net.cpp:148] Top shape: 24 144 14 14 (677376)
I0403 15:10:28.173409 31246 net.cpp:156] Memory required for data: 1120816416
I0403 15:10:28.173430 31246 layer_factory.hpp:77] Creating layer inception_4d/3x3
I0403 15:10:28.173465 31246 net.cpp:91] Creating Layer inception_4d/3x3
I0403 15:10:28.173491 31246 net.cpp:425] inception_4d/3x3 <- inception_4d/3x3_reduce
I0403 15:10:28.173521 31246 net.cpp:399] inception_4d/3x3 -> inception_4d/3x3
I0403 15:10:28.178071 31246 net.cpp:141] Setting up inception_4d/3x3
I0403 15:10:28.178107 31246 net.cpp:148] Top shape: 24 288 14 14 (1354752)
I0403 15:10:28.178128 31246 net.cpp:156] Memory required for data: 1126235424
I0403 15:10:28.178153 31246 layer_factory.hpp:77] Creating layer inception_4d/relu_3x3
I0403 15:10:28.178182 31246 net.cpp:91] Creating Layer inception_4d/relu_3x3
I0403 15:10:28.178202 31246 net.cpp:425] inception_4d/relu_3x3 <- inception_4d/3x3
I0403 15:10:28.178225 31246 net.cpp:386] inception_4d/relu_3x3 -> inception_4d/3x3 (in-place)
I0403 15:10:28.178431 31246 net.cpp:141] Setting up inception_4d/relu_3x3
I0403 15:10:28.178464 31246 net.cpp:148] Top shape: 24 288 14 14 (1354752)
I0403 15:10:28.178488 31246 net.cpp:156] Memory required for data: 1131654432
I0403 15:10:28.178514 31246 layer_factory.hpp:77] Creating layer inception_4d/5x5_reduce
I0403 15:10:28.178539 31246 net.cpp:91] Creating Layer inception_4d/5x5_reduce
I0403 15:10:28.178562 31246 net.cpp:425] inception_4d/5x5_reduce <- inception_4c/output_inception_4c/output_0_split_2
I0403 15:10:28.178589 31246 net.cpp:399] inception_4d/5x5_reduce -> inception_4d/5x5_reduce
I0403 15:10:28.179814 31246 net.cpp:141] Setting up inception_4d/5x5_reduce
I0403 15:10:28.179843 31246 net.cpp:148] Top shape: 24 32 14 14 (150528)
I0403 15:10:28.179859 31246 net.cpp:156] Memory required for data: 1132256544
I0403 15:10:28.179878 31246 layer_factory.hpp:77] Creating layer inception_4d/relu_5x5_reduce
I0403 15:10:28.179900 31246 net.cpp:91] Creating Layer inception_4d/relu_5x5_reduce
I0403 15:10:28.179918 31246 net.cpp:425] inception_4d/relu_5x5_reduce <- inception_4d/5x5_reduce
I0403 15:10:28.179935 31246 net.cpp:386] inception_4d/relu_5x5_reduce -> inception_4d/5x5_reduce (in-place)
I0403 15:10:28.180133 31246 net.cpp:141] Setting up inception_4d/relu_5x5_reduce
I0403 15:10:28.180161 31246 net.cpp:148] Top shape: 24 32 14 14 (150528)
I0403 15:10:28.180177 31246 net.cpp:156] Memory required for data: 1132858656
I0403 15:10:28.180192 31246 layer_factory.hpp:77] Creating layer inception_4d/5x5
I0403 15:10:28.180214 31246 net.cpp:91] Creating Layer inception_4d/5x5
I0403 15:10:28.180233 31246 net.cpp:425] inception_4d/5x5 <- inception_4d/5x5_reduce
I0403 15:10:28.180251 31246 net.cpp:399] inception_4d/5x5 -> inception_4d/5x5
I0403 15:10:28.185463 31246 net.cpp:141] Setting up inception_4d/5x5
I0403 15:10:28.205543 31246 net.cpp:148] Top shape: 24 64 14 14 (301056)
I0403 15:10:28.205571 31246 net.cpp:156] Memory required for data: 1134062880
I0403 15:10:28.205595 31246 layer_factory.hpp:77] Creating layer inception_4d/relu_5x5
I0403 15:10:28.205632 31246 net.cpp:91] Creating Layer inception_4d/relu_5x5
I0403 15:10:28.205672 31246 net.cpp:425] inception_4d/relu_5x5 <- inception_4d/5x5
I0403 15:10:28.205703 31246 net.cpp:386] inception_4d/relu_5x5 -> inception_4d/5x5 (in-place)
I0403 15:10:28.206075 31246 net.cpp:141] Setting up inception_4d/relu_5x5
I0403 15:10:28.206131 31246 net.cpp:148] Top shape: 24 64 14 14 (301056)
I0403 15:10:28.206190 31246 net.cpp:156] Memory required for data: 1135267104
I0403 15:10:28.206253 31246 layer_factory.hpp:77] Creating layer inception_4d/pool
I0403 15:10:28.206315 31246 net.cpp:91] Creating Layer inception_4d/pool
I0403 15:10:28.206332 31246 net.cpp:425] inception_4d/pool <- inception_4c/output_inception_4c/output_0_split_3
I0403 15:10:28.206353 31246 net.cpp:399] inception_4d/pool -> inception_4d/pool
I0403 15:10:28.206428 31246 net.cpp:141] Setting up inception_4d/pool
I0403 15:10:28.206454 31246 net.cpp:148] Top shape: 24 512 14 14 (2408448)
I0403 15:10:28.206470 31246 net.cpp:156] Memory required for data: 1144900896
I0403 15:10:28.206485 31246 layer_factory.hpp:77] Creating layer inception_4d/pool_proj
I0403 15:10:28.206511 31246 net.cpp:91] Creating Layer inception_4d/pool_proj
I0403 15:10:28.206528 31246 net.cpp:425] inception_4d/pool_proj <- inception_4d/pool
I0403 15:10:28.206550 31246 net.cpp:399] inception_4d/pool_proj -> inception_4d/pool_proj
I0403 15:10:28.208439 31246 net.cpp:141] Setting up inception_4d/pool_proj
I0403 15:10:28.208472 31246 net.cpp:148] Top shape: 24 64 14 14 (301056)
I0403 15:10:28.208488 31246 net.cpp:156] Memory required for data: 1146105120
I0403 15:10:28.208511 31246 layer_factory.hpp:77] Creating layer inception_4d/relu_pool_proj
I0403 15:10:28.208535 31246 net.cpp:91] Creating Layer inception_4d/relu_pool_proj
I0403 15:10:28.208552 31246 net.cpp:425] inception_4d/relu_pool_proj <- inception_4d/pool_proj
I0403 15:10:28.208571 31246 net.cpp:386] inception_4d/relu_pool_proj -> inception_4d/pool_proj (in-place)
I0403 15:10:28.208847 31246 net.cpp:141] Setting up inception_4d/relu_pool_proj
I0403 15:10:28.208876 31246 net.cpp:148] Top shape: 24 64 14 14 (301056)
I0403 15:10:28.208890 31246 net.cpp:156] Memory required for data: 1147309344
I0403 15:10:28.208906 31246 layer_factory.hpp:77] Creating layer inception_4d/output
I0403 15:10:28.208925 31246 net.cpp:91] Creating Layer inception_4d/output
I0403 15:10:28.208940 31246 net.cpp:425] inception_4d/output <- inception_4d/1x1
I0403 15:10:28.208957 31246 net.cpp:425] inception_4d/output <- inception_4d/3x3
I0403 15:10:28.208974 31246 net.cpp:425] inception_4d/output <- inception_4d/5x5
I0403 15:10:28.208991 31246 net.cpp:425] inception_4d/output <- inception_4d/pool_proj
I0403 15:10:28.209008 31246 net.cpp:399] inception_4d/output -> inception_4d/output
I0403 15:10:28.209060 31246 net.cpp:141] Setting up inception_4d/output
I0403 15:10:28.209085 31246 net.cpp:148] Top shape: 24 528 14 14 (2483712)
I0403 15:10:28.209100 31246 net.cpp:156] Memory required for data: 1157244192
I0403 15:10:28.209115 31246 layer_factory.hpp:77] Creating layer inception_4d/output_inception_4d/output_0_split
I0403 15:10:28.209136 31246 net.cpp:91] Creating Layer inception_4d/output_inception_4d/output_0_split
I0403 15:10:28.209152 31246 net.cpp:425] inception_4d/output_inception_4d/output_0_split <- inception_4d/output
I0403 15:10:28.209170 31246 net.cpp:399] inception_4d/output_inception_4d/output_0_split -> inception_4d/output_inception_4d/output_0_split_0
I0403 15:10:28.209192 31246 net.cpp:399] inception_4d/output_inception_4d/output_0_split -> inception_4d/output_inception_4d/output_0_split_1
I0403 15:10:28.209218 31246 net.cpp:399] inception_4d/output_inception_4d/output_0_split -> inception_4d/output_inception_4d/output_0_split_2
I0403 15:10:28.209239 31246 net.cpp:399] inception_4d/output_inception_4d/output_0_split -> inception_4d/output_inception_4d/output_0_split_3
I0403 15:10:28.209260 31246 net.cpp:399] inception_4d/output_inception_4d/output_0_split -> inception_4d/output_inception_4d/output_0_split_4
I0403 15:10:28.209369 31246 net.cpp:141] Setting up inception_4d/output_inception_4d/output_0_split
I0403 15:10:28.209406 31246 net.cpp:148] Top shape: 24 528 14 14 (2483712)
I0403 15:10:28.209424 31246 net.cpp:148] Top shape: 24 528 14 14 (2483712)
I0403 15:10:28.209444 31246 net.cpp:148] Top shape: 24 528 14 14 (2483712)
I0403 15:10:28.209460 31246 net.cpp:148] Top shape: 24 528 14 14 (2483712)
I0403 15:10:28.209475 31246 net.cpp:148] Top shape: 24 528 14 14 (2483712)
I0403 15:10:28.209489 31246 net.cpp:156] Memory required for data: 1206918432
I0403 15:10:28.209508 31246 layer_factory.hpp:77] Creating layer loss2/ave_pool
I0403 15:10:28.209532 31246 net.cpp:91] Creating Layer loss2/ave_pool
I0403 15:10:28.209548 31246 net.cpp:425] loss2/ave_pool <- inception_4d/output_inception_4d/output_0_split_0
I0403 15:10:28.209568 31246 net.cpp:399] loss2/ave_pool -> loss2/ave_pool
I0403 15:10:28.209904 31246 net.cpp:141] Setting up loss2/ave_pool
I0403 15:10:28.209931 31246 net.cpp:148] Top shape: 24 528 4 4 (202752)
I0403 15:10:28.209947 31246 net.cpp:156] Memory required for data: 1207729440
I0403 15:10:28.209962 31246 layer_factory.hpp:77] Creating layer loss2/conv
I0403 15:10:28.209987 31246 net.cpp:91] Creating Layer loss2/conv
I0403 15:10:28.210005 31246 net.cpp:425] loss2/conv <- loss2/ave_pool
I0403 15:10:28.210026 31246 net.cpp:399] loss2/conv -> loss2/conv
I0403 15:10:28.212045 31246 net.cpp:141] Setting up loss2/conv
I0403 15:10:28.212076 31246 net.cpp:148] Top shape: 24 128 4 4 (49152)
I0403 15:10:28.212092 31246 net.cpp:156] Memory required for data: 1207926048
I0403 15:10:28.212112 31246 layer_factory.hpp:77] Creating layer loss2/relu_conv
I0403 15:10:28.212131 31246 net.cpp:91] Creating Layer loss2/relu_conv
I0403 15:10:28.212148 31246 net.cpp:425] loss2/relu_conv <- loss2/conv
I0403 15:10:28.212169 31246 net.cpp:386] loss2/relu_conv -> loss2/conv (in-place)
I0403 15:10:28.212481 31246 net.cpp:141] Setting up loss2/relu_conv
I0403 15:10:28.212512 31246 net.cpp:148] Top shape: 24 128 4 4 (49152)
I0403 15:10:28.212528 31246 net.cpp:156] Memory required for data: 1208122656
I0403 15:10:28.212543 31246 layer_factory.hpp:77] Creating layer loss2/fc
I0403 15:10:28.212564 31246 net.cpp:91] Creating Layer loss2/fc
I0403 15:10:28.212581 31246 net.cpp:425] loss2/fc <- loss2/conv
I0403 15:10:28.212604 31246 net.cpp:399] loss2/fc -> loss2/fc
I0403 15:10:28.231746 31246 net.cpp:141] Setting up loss2/fc
I0403 15:10:28.231787 31246 net.cpp:148] Top shape: 24 1024 (24576)
I0403 15:10:28.231806 31246 net.cpp:156] Memory required for data: 1208220960
I0403 15:10:28.231825 31246 layer_factory.hpp:77] Creating layer loss2/relu_fc
I0403 15:10:28.231845 31246 net.cpp:91] Creating Layer loss2/relu_fc
I0403 15:10:28.231863 31246 net.cpp:425] loss2/relu_fc <- loss2/fc
I0403 15:10:28.231883 31246 net.cpp:386] loss2/relu_fc -> loss2/fc (in-place)
I0403 15:10:28.232203 31246 net.cpp:141] Setting up loss2/relu_fc
I0403 15:10:28.232233 31246 net.cpp:148] Top shape: 24 1024 (24576)
I0403 15:10:28.232249 31246 net.cpp:156] Memory required for data: 1208319264
I0403 15:10:28.232265 31246 layer_factory.hpp:77] Creating layer loss2/drop_fc
I0403 15:10:28.232285 31246 net.cpp:91] Creating Layer loss2/drop_fc
I0403 15:10:28.232302 31246 net.cpp:425] loss2/drop_fc <- loss2/fc
I0403 15:10:28.232321 31246 net.cpp:386] loss2/drop_fc -> loss2/fc (in-place)
I0403 15:10:28.232375 31246 net.cpp:141] Setting up loss2/drop_fc
I0403 15:10:28.232399 31246 net.cpp:148] Top shape: 24 1024 (24576)
I0403 15:10:28.232414 31246 net.cpp:156] Memory required for data: 1208417568
I0403 15:10:28.232429 31246 layer_factory.hpp:77] Creating layer loss2/classifier_plantvillage
I0403 15:10:28.232451 31246 net.cpp:91] Creating Layer loss2/classifier_plantvillage
I0403 15:10:28.232470 31246 net.cpp:425] loss2/classifier_plantvillage <- loss2/fc
I0403 15:10:28.232488 31246 net.cpp:399] loss2/classifier_plantvillage -> loss2/classifier_plantvillage
I0403 15:10:28.232923 31246 net.cpp:141] Setting up loss2/classifier_plantvillage
I0403 15:10:28.232949 31246 net.cpp:148] Top shape: 24 38 (912)
I0403 15:10:28.232980 31246 net.cpp:156] Memory required for data: 1208421216
I0403 15:10:28.233001 31246 layer_factory.hpp:77] Creating layer loss2/classifier_plantvillage_loss2/classifier_plantvillage_0_split
I0403 15:10:28.233021 31246 net.cpp:91] Creating Layer loss2/classifier_plantvillage_loss2/classifier_plantvillage_0_split
I0403 15:10:28.233036 31246 net.cpp:425] loss2/classifier_plantvillage_loss2/classifier_plantvillage_0_split <- loss2/classifier_plantvillage
I0403 15:10:28.233057 31246 net.cpp:399] loss2/classifier_plantvillage_loss2/classifier_plantvillage_0_split -> loss2/classifier_plantvillage_loss2/classifier_plantvillage_0_split_0
I0403 15:10:28.233079 31246 net.cpp:399] loss2/classifier_plantvillage_loss2/classifier_plantvillage_0_split -> loss2/classifier_plantvillage_loss2/classifier_plantvillage_0_split_1
I0403 15:10:28.233101 31246 net.cpp:399] loss2/classifier_plantvillage_loss2/classifier_plantvillage_0_split -> loss2/classifier_plantvillage_loss2/classifier_plantvillage_0_split_2
I0403 15:10:28.233183 31246 net.cpp:141] Setting up loss2/classifier_plantvillage_loss2/classifier_plantvillage_0_split
I0403 15:10:28.233209 31246 net.cpp:148] Top shape: 24 38 (912)
I0403 15:10:28.233227 31246 net.cpp:148] Top shape: 24 38 (912)
I0403 15:10:28.233243 31246 net.cpp:148] Top shape: 24 38 (912)
I0403 15:10:28.233258 31246 net.cpp:156] Memory required for data: 1208432160
I0403 15:10:28.233276 31246 layer_factory.hpp:77] Creating layer inception_4e/1x1
I0403 15:10:28.233302 31246 net.cpp:91] Creating Layer inception_4e/1x1
I0403 15:10:28.233321 31246 net.cpp:425] inception_4e/1x1 <- inception_4d/output_inception_4d/output_0_split_1
I0403 15:10:28.233340 31246 net.cpp:399] inception_4e/1x1 -> inception_4e/1x1
I0403 15:10:28.235298 31246 net.cpp:141] Setting up inception_4e/1x1
I0403 15:10:28.235327 31246 net.cpp:148] Top shape: 24 256 14 14 (1204224)
I0403 15:10:28.235344 31246 net.cpp:156] Memory required for data: 1213249056
I0403 15:10:28.235363 31246 layer_factory.hpp:77] Creating layer inception_4e/relu_1x1
I0403 15:10:28.235383 31246 net.cpp:91] Creating Layer inception_4e/relu_1x1
I0403 15:10:28.235407 31246 net.cpp:425] inception_4e/relu_1x1 <- inception_4e/1x1
I0403 15:10:28.235425 31246 net.cpp:386] inception_4e/relu_1x1 -> inception_4e/1x1 (in-place)
I0403 15:10:28.235744 31246 net.cpp:141] Setting up inception_4e/relu_1x1
I0403 15:10:28.235772 31246 net.cpp:148] Top shape: 24 256 14 14 (1204224)
I0403 15:10:28.235788 31246 net.cpp:156] Memory required for data: 1218065952
I0403 15:10:28.235805 31246 layer_factory.hpp:77] Creating layer inception_4e/3x3_reduce
I0403 15:10:28.235827 31246 net.cpp:91] Creating Layer inception_4e/3x3_reduce
I0403 15:10:28.235846 31246 net.cpp:425] inception_4e/3x3_reduce <- inception_4d/output_inception_4d/output_0_split_2
I0403 15:10:28.235868 31246 net.cpp:399] inception_4e/3x3_reduce -> inception_4e/3x3_reduce
I0403 15:10:28.238121 31246 net.cpp:141] Setting up inception_4e/3x3_reduce
I0403 15:10:28.238154 31246 net.cpp:148] Top shape: 24 160 14 14 (752640)
I0403 15:10:28.238171 31246 net.cpp:156] Memory required for data: 1221076512
I0403 15:10:28.238191 31246 layer_factory.hpp:77] Creating layer inception_4e/relu_3x3_reduce
I0403 15:10:28.238210 31246 net.cpp:91] Creating Layer inception_4e/relu_3x3_reduce
I0403 15:10:28.238227 31246 net.cpp:425] inception_4e/relu_3x3_reduce <- inception_4e/3x3_reduce
I0403 15:10:28.238250 31246 net.cpp:386] inception_4e/relu_3x3_reduce -> inception_4e/3x3_reduce (in-place)
I0403 15:10:28.238448 31246 net.cpp:141] Setting up inception_4e/relu_3x3_reduce
I0403 15:10:28.238474 31246 net.cpp:148] Top shape: 24 160 14 14 (752640)
I0403 15:10:28.238490 31246 net.cpp:156] Memory required for data: 1224087072
I0403 15:10:28.238510 31246 layer_factory.hpp:77] Creating layer inception_4e/3x3
I0403 15:10:28.238538 31246 net.cpp:91] Creating Layer inception_4e/3x3
I0403 15:10:28.238559 31246 net.cpp:425] inception_4e/3x3 <- inception_4e/3x3_reduce
I0403 15:10:28.238581 31246 net.cpp:399] inception_4e/3x3 -> inception_4e/3x3
I0403 15:10:28.243942 31246 net.cpp:141] Setting up inception_4e/3x3
I0403 15:10:28.243985 31246 net.cpp:148] Top shape: 24 320 14 14 (1505280)
I0403 15:10:28.244004 31246 net.cpp:156] Memory required for data: 1230108192
I0403 15:10:28.244022 31246 layer_factory.hpp:77] Creating layer inception_4e/relu_3x3
I0403 15:10:28.244045 31246 net.cpp:91] Creating Layer inception_4e/relu_3x3
I0403 15:10:28.244061 31246 net.cpp:425] inception_4e/relu_3x3 <- inception_4e/3x3
I0403 15:10:28.244079 31246 net.cpp:386] inception_4e/relu_3x3 -> inception_4e/3x3 (in-place)
I0403 15:10:28.244393 31246 net.cpp:141] Setting up inception_4e/relu_3x3
I0403 15:10:28.244421 31246 net.cpp:148] Top shape: 24 320 14 14 (1505280)
I0403 15:10:28.244436 31246 net.cpp:156] Memory required for data: 1236129312
I0403 15:10:28.244452 31246 layer_factory.hpp:77] Creating layer inception_4e/5x5_reduce
I0403 15:10:28.244478 31246 net.cpp:91] Creating Layer inception_4e/5x5_reduce
I0403 15:10:28.244496 31246 net.cpp:425] inception_4e/5x5_reduce <- inception_4d/output_inception_4d/output_0_split_3
I0403 15:10:28.244524 31246 net.cpp:399] inception_4e/5x5_reduce -> inception_4e/5x5_reduce
I0403 15:10:28.245635 31246 net.cpp:141] Setting up inception_4e/5x5_reduce
I0403 15:10:28.245666 31246 net.cpp:148] Top shape: 24 32 14 14 (150528)
I0403 15:10:28.245682 31246 net.cpp:156] Memory required for data: 1236731424
I0403 15:10:28.245700 31246 layer_factory.hpp:77] Creating layer inception_4e/relu_5x5_reduce
I0403 15:10:28.245719 31246 net.cpp:91] Creating Layer inception_4e/relu_5x5_reduce
I0403 15:10:28.245736 31246 net.cpp:425] inception_4e/relu_5x5_reduce <- inception_4e/5x5_reduce
I0403 15:10:28.245756 31246 net.cpp:386] inception_4e/relu_5x5_reduce -> inception_4e/5x5_reduce (in-place)
I0403 15:10:28.246115 31246 net.cpp:141] Setting up inception_4e/relu_5x5_reduce
I0403 15:10:28.246145 31246 net.cpp:148] Top shape: 24 32 14 14 (150528)
I0403 15:10:28.246161 31246 net.cpp:156] Memory required for data: 1237333536
I0403 15:10:28.246176 31246 layer_factory.hpp:77] Creating layer inception_4e/5x5
I0403 15:10:28.246217 31246 net.cpp:91] Creating Layer inception_4e/5x5
I0403 15:10:28.246237 31246 net.cpp:425] inception_4e/5x5 <- inception_4e/5x5_reduce
I0403 15:10:28.246256 31246 net.cpp:399] inception_4e/5x5 -> inception_4e/5x5
I0403 15:10:28.248160 31246 net.cpp:141] Setting up inception_4e/5x5
I0403 15:10:28.248188 31246 net.cpp:148] Top shape: 24 128 14 14 (602112)
I0403 15:10:28.248205 31246 net.cpp:156] Memory required for data: 1239741984
I0403 15:10:28.248224 31246 layer_factory.hpp:77] Creating layer inception_4e/relu_5x5
I0403 15:10:28.248246 31246 net.cpp:91] Creating Layer inception_4e/relu_5x5
I0403 15:10:28.248265 31246 net.cpp:425] inception_4e/relu_5x5 <- inception_4e/5x5
I0403 15:10:28.248283 31246 net.cpp:386] inception_4e/relu_5x5 -> inception_4e/5x5 (in-place)
I0403 15:10:28.248487 31246 net.cpp:141] Setting up inception_4e/relu_5x5
I0403 15:10:28.248517 31246 net.cpp:148] Top shape: 24 128 14 14 (602112)
I0403 15:10:28.248534 31246 net.cpp:156] Memory required for data: 1242150432
I0403 15:10:28.248550 31246 layer_factory.hpp:77] Creating layer inception_4e/pool
I0403 15:10:28.248569 31246 net.cpp:91] Creating Layer inception_4e/pool
I0403 15:10:28.248585 31246 net.cpp:425] inception_4e/pool <- inception_4d/output_inception_4d/output_0_split_4
I0403 15:10:28.248606 31246 net.cpp:399] inception_4e/pool -> inception_4e/pool
I0403 15:10:28.248682 31246 net.cpp:141] Setting up inception_4e/pool
I0403 15:10:28.248706 31246 net.cpp:148] Top shape: 24 528 14 14 (2483712)
I0403 15:10:28.248721 31246 net.cpp:156] Memory required for data: 1252085280
I0403 15:10:28.248736 31246 layer_factory.hpp:77] Creating layer inception_4e/pool_proj
I0403 15:10:28.248760 31246 net.cpp:91] Creating Layer inception_4e/pool_proj
I0403 15:10:28.248778 31246 net.cpp:425] inception_4e/pool_proj <- inception_4e/pool
I0403 15:10:28.248797 31246 net.cpp:399] inception_4e/pool_proj -> inception_4e/pool_proj
I0403 15:10:28.250360 31246 net.cpp:141] Setting up inception_4e/pool_proj
I0403 15:10:28.250401 31246 net.cpp:148] Top shape: 24 128 14 14 (602112)
I0403 15:10:28.250417 31246 net.cpp:156] Memory required for data: 1254493728
I0403 15:10:28.250437 31246 layer_factory.hpp:77] Creating layer inception_4e/relu_pool_proj
I0403 15:10:28.250458 31246 net.cpp:91] Creating Layer inception_4e/relu_pool_proj
I0403 15:10:28.250476 31246 net.cpp:425] inception_4e/relu_pool_proj <- inception_4e/pool_proj
I0403 15:10:28.250494 31246 net.cpp:386] inception_4e/relu_pool_proj -> inception_4e/pool_proj (in-place)
I0403 15:10:28.250802 31246 net.cpp:141] Setting up inception_4e/relu_pool_proj
I0403 15:10:28.250829 31246 net.cpp:148] Top shape: 24 128 14 14 (602112)
I0403 15:10:28.250844 31246 net.cpp:156] Memory required for data: 1256902176
I0403 15:10:28.250859 31246 layer_factory.hpp:77] Creating layer inception_4e/output
I0403 15:10:28.250880 31246 net.cpp:91] Creating Layer inception_4e/output
I0403 15:10:28.250896 31246 net.cpp:425] inception_4e/output <- inception_4e/1x1
I0403 15:10:28.250915 31246 net.cpp:425] inception_4e/output <- inception_4e/3x3
I0403 15:10:28.250931 31246 net.cpp:425] inception_4e/output <- inception_4e/5x5
I0403 15:10:28.250946 31246 net.cpp:425] inception_4e/output <- inception_4e/pool_proj
I0403 15:10:28.250964 31246 net.cpp:399] inception_4e/output -> inception_4e/output
I0403 15:10:28.251018 31246 net.cpp:141] Setting up inception_4e/output
I0403 15:10:28.251041 31246 net.cpp:148] Top shape: 24 832 14 14 (3913728)
I0403 15:10:28.251055 31246 net.cpp:156] Memory required for data: 1272557088
I0403 15:10:28.251071 31246 layer_factory.hpp:77] Creating layer pool4/3x3_s2
I0403 15:10:28.251090 31246 net.cpp:91] Creating Layer pool4/3x3_s2
I0403 15:10:28.251104 31246 net.cpp:425] pool4/3x3_s2 <- inception_4e/output
I0403 15:10:28.251126 31246 net.cpp:399] pool4/3x3_s2 -> pool4/3x3_s2
I0403 15:10:28.251194 31246 net.cpp:141] Setting up pool4/3x3_s2
I0403 15:10:28.251219 31246 net.cpp:148] Top shape: 24 832 7 7 (978432)
I0403 15:10:28.251233 31246 net.cpp:156] Memory required for data: 1276470816
I0403 15:10:28.251250 31246 layer_factory.hpp:77] Creating layer pool4/3x3_s2_pool4/3x3_s2_0_split
I0403 15:10:28.251282 31246 net.cpp:91] Creating Layer pool4/3x3_s2_pool4/3x3_s2_0_split
I0403 15:10:28.251301 31246 net.cpp:425] pool4/3x3_s2_pool4/3x3_s2_0_split <- pool4/3x3_s2
I0403 15:10:28.251322 31246 net.cpp:399] pool4/3x3_s2_pool4/3x3_s2_0_split -> pool4/3x3_s2_pool4/3x3_s2_0_split_0
I0403 15:10:28.251343 31246 net.cpp:399] pool4/3x3_s2_pool4/3x3_s2_0_split -> pool4/3x3_s2_pool4/3x3_s2_0_split_1
I0403 15:10:28.251365 31246 net.cpp:399] pool4/3x3_s2_pool4/3x3_s2_0_split -> pool4/3x3_s2_pool4/3x3_s2_0_split_2
I0403 15:10:28.251386 31246 net.cpp:399] pool4/3x3_s2_pool4/3x3_s2_0_split -> pool4/3x3_s2_pool4/3x3_s2_0_split_3
I0403 15:10:28.251480 31246 net.cpp:141] Setting up pool4/3x3_s2_pool4/3x3_s2_0_split
I0403 15:10:28.251512 31246 net.cpp:148] Top shape: 24 832 7 7 (978432)
I0403 15:10:28.251530 31246 net.cpp:148] Top shape: 24 832 7 7 (978432)
I0403 15:10:28.251548 31246 net.cpp:148] Top shape: 24 832 7 7 (978432)
I0403 15:10:28.251576 31246 net.cpp:148] Top shape: 24 832 7 7 (978432)
I0403 15:10:28.251591 31246 net.cpp:156] Memory required for data: 1292125728
I0403 15:10:28.251606 31246 layer_factory.hpp:77] Creating layer inception_5a/1x1
I0403 15:10:28.251629 31246 net.cpp:91] Creating Layer inception_5a/1x1
I0403 15:10:28.251647 31246 net.cpp:425] inception_5a/1x1 <- pool4/3x3_s2_pool4/3x3_s2_0_split_0
I0403 15:10:28.251667 31246 net.cpp:399] inception_5a/1x1 -> inception_5a/1x1
I0403 15:10:28.254746 31246 net.cpp:141] Setting up inception_5a/1x1
I0403 15:10:28.254779 31246 net.cpp:148] Top shape: 24 256 7 7 (301056)
I0403 15:10:28.254796 31246 net.cpp:156] Memory required for data: 1293329952
I0403 15:10:28.254817 31246 layer_factory.hpp:77] Creating layer inception_5a/relu_1x1
I0403 15:10:28.254835 31246 net.cpp:91] Creating Layer inception_5a/relu_1x1
I0403 15:10:28.254853 31246 net.cpp:425] inception_5a/relu_1x1 <- inception_5a/1x1
I0403 15:10:28.254870 31246 net.cpp:386] inception_5a/relu_1x1 -> inception_5a/1x1 (in-place)
I0403 15:10:28.255194 31246 net.cpp:141] Setting up inception_5a/relu_1x1
I0403 15:10:28.255223 31246 net.cpp:148] Top shape: 24 256 7 7 (301056)
I0403 15:10:28.255239 31246 net.cpp:156] Memory required for data: 1294534176
I0403 15:10:28.255255 31246 layer_factory.hpp:77] Creating layer inception_5a/3x3_reduce
I0403 15:10:28.255278 31246 net.cpp:91] Creating Layer inception_5a/3x3_reduce
I0403 15:10:28.255297 31246 net.cpp:425] inception_5a/3x3_reduce <- pool4/3x3_s2_pool4/3x3_s2_0_split_1
I0403 15:10:28.255317 31246 net.cpp:399] inception_5a/3x3_reduce -> inception_5a/3x3_reduce
I0403 15:10:28.257858 31246 net.cpp:141] Setting up inception_5a/3x3_reduce
I0403 15:10:28.257889 31246 net.cpp:148] Top shape: 24 160 7 7 (188160)
I0403 15:10:28.257905 31246 net.cpp:156] Memory required for data: 1295286816
I0403 15:10:28.257923 31246 layer_factory.hpp:77] Creating layer inception_5a/relu_3x3_reduce
I0403 15:10:28.257944 31246 net.cpp:91] Creating Layer inception_5a/relu_3x3_reduce
I0403 15:10:28.257962 31246 net.cpp:425] inception_5a/relu_3x3_reduce <- inception_5a/3x3_reduce
I0403 15:10:28.257980 31246 net.cpp:386] inception_5a/relu_3x3_reduce -> inception_5a/3x3_reduce (in-place)
I0403 15:10:28.258179 31246 net.cpp:141] Setting up inception_5a/relu_3x3_reduce
I0403 15:10:28.258208 31246 net.cpp:148] Top shape: 24 160 7 7 (188160)
I0403 15:10:28.258224 31246 net.cpp:156] Memory required for data: 1296039456
I0403 15:10:28.258239 31246 layer_factory.hpp:77] Creating layer inception_5a/3x3
I0403 15:10:28.258265 31246 net.cpp:91] Creating Layer inception_5a/3x3
I0403 15:10:28.258282 31246 net.cpp:425] inception_5a/3x3 <- inception_5a/3x3_reduce
I0403 15:10:28.258303 31246 net.cpp:399] inception_5a/3x3 -> inception_5a/3x3
I0403 15:10:28.263665 31246 net.cpp:141] Setting up inception_5a/3x3
I0403 15:10:28.263700 31246 net.cpp:148] Top shape: 24 320 7 7 (376320)
I0403 15:10:28.263716 31246 net.cpp:156] Memory required for data: 1297544736
I0403 15:10:28.263737 31246 layer_factory.hpp:77] Creating layer inception_5a/relu_3x3
I0403 15:10:28.263756 31246 net.cpp:91] Creating Layer inception_5a/relu_3x3
I0403 15:10:28.263773 31246 net.cpp:425] inception_5a/relu_3x3 <- inception_5a/3x3
I0403 15:10:28.263794 31246 net.cpp:386] inception_5a/relu_3x3 -> inception_5a/3x3 (in-place)
I0403 15:10:28.264117 31246 net.cpp:141] Setting up inception_5a/relu_3x3
I0403 15:10:28.264147 31246 net.cpp:148] Top shape: 24 320 7 7 (376320)
I0403 15:10:28.264163 31246 net.cpp:156] Memory required for data: 1299050016
I0403 15:10:28.264179 31246 layer_factory.hpp:77] Creating layer inception_5a/5x5_reduce
I0403 15:10:28.264204 31246 net.cpp:91] Creating Layer inception_5a/5x5_reduce
I0403 15:10:28.264225 31246 net.cpp:425] inception_5a/5x5_reduce <- pool4/3x3_s2_pool4/3x3_s2_0_split_2
I0403 15:10:28.264245 31246 net.cpp:399] inception_5a/5x5_reduce -> inception_5a/5x5_reduce
I0403 15:10:28.265496 31246 net.cpp:141] Setting up inception_5a/5x5_reduce
I0403 15:10:28.265534 31246 net.cpp:148] Top shape: 24 32 7 7 (37632)
I0403 15:10:28.265552 31246 net.cpp:156] Memory required for data: 1299200544
I0403 15:10:28.265574 31246 layer_factory.hpp:77] Creating layer inception_5a/relu_5x5_reduce
I0403 15:10:28.265594 31246 net.cpp:91] Creating Layer inception_5a/relu_5x5_reduce
I0403 15:10:28.265610 31246 net.cpp:425] inception_5a/relu_5x5_reduce <- inception_5a/5x5_reduce
I0403 15:10:28.265630 31246 net.cpp:386] inception_5a/relu_5x5_reduce -> inception_5a/5x5_reduce (in-place)
I0403 15:10:28.265951 31246 net.cpp:141] Setting up inception_5a/relu_5x5_reduce
I0403 15:10:28.265980 31246 net.cpp:148] Top shape: 24 32 7 7 (37632)
I0403 15:10:28.265995 31246 net.cpp:156] Memory required for data: 1299351072
I0403 15:10:28.266010 31246 layer_factory.hpp:77] Creating layer inception_5a/5x5
I0403 15:10:28.266034 31246 net.cpp:91] Creating Layer inception_5a/5x5
I0403 15:10:28.266052 31246 net.cpp:425] inception_5a/5x5 <- inception_5a/5x5_reduce
I0403 15:10:28.266074 31246 net.cpp:399] inception_5a/5x5 -> inception_5a/5x5
I0403 15:10:28.267915 31246 net.cpp:141] Setting up inception_5a/5x5
I0403 15:10:28.267958 31246 net.cpp:148] Top shape: 24 128 7 7 (150528)
I0403 15:10:28.267976 31246 net.cpp:156] Memory required for data: 1299953184
I0403 15:10:28.267997 31246 layer_factory.hpp:77] Creating layer inception_5a/relu_5x5
I0403 15:10:28.268016 31246 net.cpp:91] Creating Layer inception_5a/relu_5x5
I0403 15:10:28.268033 31246 net.cpp:425] inception_5a/relu_5x5 <- inception_5a/5x5
I0403 15:10:28.268054 31246 net.cpp:386] inception_5a/relu_5x5 -> inception_5a/5x5 (in-place)
I0403 15:10:28.268262 31246 net.cpp:141] Setting up inception_5a/relu_5x5
I0403 15:10:28.268290 31246 net.cpp:148] Top shape: 24 128 7 7 (150528)
I0403 15:10:28.268304 31246 net.cpp:156] Memory required for data: 1300555296
I0403 15:10:28.268321 31246 layer_factory.hpp:77] Creating layer inception_5a/pool
I0403 15:10:28.268339 31246 net.cpp:91] Creating Layer inception_5a/pool
I0403 15:10:28.268357 31246 net.cpp:425] inception_5a/pool <- pool4/3x3_s2_pool4/3x3_s2_0_split_3
I0403 15:10:28.268378 31246 net.cpp:399] inception_5a/pool -> inception_5a/pool
I0403 15:10:28.268453 31246 net.cpp:141] Setting up inception_5a/pool
I0403 15:10:28.268478 31246 net.cpp:148] Top shape: 24 832 7 7 (978432)
I0403 15:10:28.268493 31246 net.cpp:156] Memory required for data: 1304469024
I0403 15:10:28.268514 31246 layer_factory.hpp:77] Creating layer inception_5a/pool_proj
I0403 15:10:28.268542 31246 net.cpp:91] Creating Layer inception_5a/pool_proj
I0403 15:10:28.268559 31246 net.cpp:425] inception_5a/pool_proj <- inception_5a/pool
I0403 15:10:28.268589 31246 net.cpp:399] inception_5a/pool_proj -> inception_5a/pool_proj
I0403 15:10:28.271021 31246 net.cpp:141] Setting up inception_5a/pool_proj
I0403 15:10:28.271054 31246 net.cpp:148] Top shape: 24 128 7 7 (150528)
I0403 15:10:28.271073 31246 net.cpp:156] Memory required for data: 1305071136
I0403 15:10:28.271093 31246 layer_factory.hpp:77] Creating layer inception_5a/relu_pool_proj
I0403 15:10:28.271113 31246 net.cpp:91] Creating Layer inception_5a/relu_pool_proj
I0403 15:10:28.271131 31246 net.cpp:425] inception_5a/relu_pool_proj <- inception_5a/pool_proj
I0403 15:10:28.271148 31246 net.cpp:386] inception_5a/relu_pool_proj -> inception_5a/pool_proj (in-place)
I0403 15:10:28.271463 31246 net.cpp:141] Setting up inception_5a/relu_pool_proj
I0403 15:10:28.271491 31246 net.cpp:148] Top shape: 24 128 7 7 (150528)
I0403 15:10:28.271514 31246 net.cpp:156] Memory required for data: 1305673248
I0403 15:10:28.271533 31246 layer_factory.hpp:77] Creating layer inception_5a/output
I0403 15:10:28.271550 31246 net.cpp:91] Creating Layer inception_5a/output
I0403 15:10:28.271566 31246 net.cpp:425] inception_5a/output <- inception_5a/1x1
I0403 15:10:28.271584 31246 net.cpp:425] inception_5a/output <- inception_5a/3x3
I0403 15:10:28.271601 31246 net.cpp:425] inception_5a/output <- inception_5a/5x5
I0403 15:10:28.271617 31246 net.cpp:425] inception_5a/output <- inception_5a/pool_proj
I0403 15:10:28.271636 31246 net.cpp:399] inception_5a/output -> inception_5a/output
I0403 15:10:28.271690 31246 net.cpp:141] Setting up inception_5a/output
I0403 15:10:28.271715 31246 net.cpp:148] Top shape: 24 832 7 7 (978432)
I0403 15:10:28.271730 31246 net.cpp:156] Memory required for data: 1309586976
I0403 15:10:28.271745 31246 layer_factory.hpp:77] Creating layer inception_5a/output_inception_5a/output_0_split
I0403 15:10:28.271764 31246 net.cpp:91] Creating Layer inception_5a/output_inception_5a/output_0_split
I0403 15:10:28.271780 31246 net.cpp:425] inception_5a/output_inception_5a/output_0_split <- inception_5a/output
I0403 15:10:28.271801 31246 net.cpp:399] inception_5a/output_inception_5a/output_0_split -> inception_5a/output_inception_5a/output_0_split_0
I0403 15:10:28.271822 31246 net.cpp:399] inception_5a/output_inception_5a/output_0_split -> inception_5a/output_inception_5a/output_0_split_1
I0403 15:10:28.271844 31246 net.cpp:399] inception_5a/output_inception_5a/output_0_split -> inception_5a/output_inception_5a/output_0_split_2
I0403 15:10:28.271865 31246 net.cpp:399] inception_5a/output_inception_5a/output_0_split -> inception_5a/output_inception_5a/output_0_split_3
I0403 15:10:28.271986 31246 net.cpp:141] Setting up inception_5a/output_inception_5a/output_0_split
I0403 15:10:28.272012 31246 net.cpp:148] Top shape: 24 832 7 7 (978432)
I0403 15:10:28.272029 31246 net.cpp:148] Top shape: 24 832 7 7 (978432)
I0403 15:10:28.272047 31246 net.cpp:148] Top shape: 24 832 7 7 (978432)
I0403 15:10:28.272063 31246 net.cpp:148] Top shape: 24 832 7 7 (978432)
I0403 15:10:28.272076 31246 net.cpp:156] Memory required for data: 1325241888
I0403 15:10:28.272091 31246 layer_factory.hpp:77] Creating layer inception_5b/1x1
I0403 15:10:28.272115 31246 net.cpp:91] Creating Layer inception_5b/1x1
I0403 15:10:28.272133 31246 net.cpp:425] inception_5b/1x1 <- inception_5a/output_inception_5a/output_0_split_0
I0403 15:10:28.272156 31246 net.cpp:399] inception_5b/1x1 -> inception_5b/1x1
I0403 15:10:28.276304 31246 net.cpp:141] Setting up inception_5b/1x1
I0403 15:10:28.276337 31246 net.cpp:148] Top shape: 24 384 7 7 (451584)
I0403 15:10:28.276355 31246 net.cpp:156] Memory required for data: 1327048224
I0403 15:10:28.276374 31246 layer_factory.hpp:77] Creating layer inception_5b/relu_1x1
I0403 15:10:28.276396 31246 net.cpp:91] Creating Layer inception_5b/relu_1x1
I0403 15:10:28.276415 31246 net.cpp:425] inception_5b/relu_1x1 <- inception_5b/1x1
I0403 15:10:28.276433 31246 net.cpp:386] inception_5b/relu_1x1 -> inception_5b/1x1 (in-place)
I0403 15:10:28.276770 31246 net.cpp:141] Setting up inception_5b/relu_1x1
I0403 15:10:28.276798 31246 net.cpp:148] Top shape: 24 384 7 7 (451584)
I0403 15:10:28.276814 31246 net.cpp:156] Memory required for data: 1328854560
I0403 15:10:28.276830 31246 layer_factory.hpp:77] Creating layer inception_5b/3x3_reduce
I0403 15:10:28.276854 31246 net.cpp:91] Creating Layer inception_5b/3x3_reduce
I0403 15:10:28.276873 31246 net.cpp:425] inception_5b/3x3_reduce <- inception_5a/output_inception_5a/output_0_split_1
I0403 15:10:28.276897 31246 net.cpp:399] inception_5b/3x3_reduce -> inception_5b/3x3_reduce
I0403 15:10:28.279768 31246 net.cpp:141] Setting up inception_5b/3x3_reduce
I0403 15:10:28.279799 31246 net.cpp:148] Top shape: 24 192 7 7 (225792)
I0403 15:10:28.279817 31246 net.cpp:156] Memory required for data: 1329757728
I0403 15:10:28.279837 31246 layer_factory.hpp:77] Creating layer inception_5b/relu_3x3_reduce
I0403 15:10:28.279860 31246 net.cpp:91] Creating Layer inception_5b/relu_3x3_reduce
I0403 15:10:28.279880 31246 net.cpp:425] inception_5b/relu_3x3_reduce <- inception_5b/3x3_reduce
I0403 15:10:28.279898 31246 net.cpp:386] inception_5b/relu_3x3_reduce -> inception_5b/3x3_reduce (in-place)
I0403 15:10:28.280100 31246 net.cpp:141] Setting up inception_5b/relu_3x3_reduce
I0403 15:10:28.280129 31246 net.cpp:148] Top shape: 24 192 7 7 (225792)
I0403 15:10:28.280145 31246 net.cpp:156] Memory required for data: 1330660896
I0403 15:10:28.280161 31246 layer_factory.hpp:77] Creating layer inception_5b/3x3
I0403 15:10:28.280184 31246 net.cpp:91] Creating Layer inception_5b/3x3
I0403 15:10:28.280202 31246 net.cpp:425] inception_5b/3x3 <- inception_5b/3x3_reduce
I0403 15:10:28.280221 31246 net.cpp:399] inception_5b/3x3 -> inception_5b/3x3
I0403 15:10:28.287212 31246 net.cpp:141] Setting up inception_5b/3x3
I0403 15:10:28.287242 31246 net.cpp:148] Top shape: 24 384 7 7 (451584)
I0403 15:10:28.287262 31246 net.cpp:156] Memory required for data: 1332467232
I0403 15:10:28.287282 31246 layer_factory.hpp:77] Creating layer inception_5b/relu_3x3
I0403 15:10:28.287313 31246 net.cpp:91] Creating Layer inception_5b/relu_3x3
I0403 15:10:28.287331 31246 net.cpp:425] inception_5b/relu_3x3 <- inception_5b/3x3
I0403 15:10:28.287349 31246 net.cpp:386] inception_5b/relu_3x3 -> inception_5b/3x3 (in-place)
I0403 15:10:28.287753 31246 net.cpp:141] Setting up inception_5b/relu_3x3
I0403 15:10:28.287781 31246 net.cpp:148] Top shape: 24 384 7 7 (451584)
I0403 15:10:28.287801 31246 net.cpp:156] Memory required for data: 1334273568
I0403 15:10:28.287817 31246 layer_factory.hpp:77] Creating layer inception_5b/5x5_reduce
I0403 15:10:28.287853 31246 net.cpp:91] Creating Layer inception_5b/5x5_reduce
I0403 15:10:28.287873 31246 net.cpp:425] inception_5b/5x5_reduce <- inception_5a/output_inception_5a/output_0_split_2
I0403 15:10:28.287894 31246 net.cpp:399] inception_5b/5x5_reduce -> inception_5b/5x5_reduce
I0403 15:10:28.289222 31246 net.cpp:141] Setting up inception_5b/5x5_reduce
I0403 15:10:28.289250 31246 net.cpp:148] Top shape: 24 48 7 7 (56448)
I0403 15:10:28.289268 31246 net.cpp:156] Memory required for data: 1334499360
I0403 15:10:28.289286 31246 layer_factory.hpp:77] Creating layer inception_5b/relu_5x5_reduce
I0403 15:10:28.289309 31246 net.cpp:91] Creating Layer inception_5b/relu_5x5_reduce
I0403 15:10:28.289326 31246 net.cpp:425] inception_5b/relu_5x5_reduce <- inception_5b/5x5_reduce
I0403 15:10:28.289345 31246 net.cpp:386] inception_5b/relu_5x5_reduce -> inception_5b/5x5_reduce (in-place)
I0403 15:10:28.289742 31246 net.cpp:141] Setting up inception_5b/relu_5x5_reduce
I0403 15:10:28.289770 31246 net.cpp:148] Top shape: 24 48 7 7 (56448)
I0403 15:10:28.289786 31246 net.cpp:156] Memory required for data: 1334725152
I0403 15:10:28.289803 31246 layer_factory.hpp:77] Creating layer inception_5b/5x5
I0403 15:10:28.289822 31246 net.cpp:91] Creating Layer inception_5b/5x5
I0403 15:10:28.289839 31246 net.cpp:425] inception_5b/5x5 <- inception_5b/5x5_reduce
I0403 15:10:28.289857 31246 net.cpp:399] inception_5b/5x5 -> inception_5b/5x5
I0403 15:10:28.291996 31246 net.cpp:141] Setting up inception_5b/5x5
I0403 15:10:28.292027 31246 net.cpp:148] Top shape: 24 128 7 7 (150528)
I0403 15:10:28.292044 31246 net.cpp:156] Memory required for data: 1335327264
I0403 15:10:28.292063 31246 layer_factory.hpp:77] Creating layer inception_5b/relu_5x5
I0403 15:10:28.292083 31246 net.cpp:91] Creating Layer inception_5b/relu_5x5
I0403 15:10:28.292099 31246 net.cpp:425] inception_5b/relu_5x5 <- inception_5b/5x5
I0403 15:10:28.292116 31246 net.cpp:386] inception_5b/relu_5x5 -> inception_5b/5x5 (in-place)
I0403 15:10:28.292321 31246 net.cpp:141] Setting up inception_5b/relu_5x5
I0403 15:10:28.292347 31246 net.cpp:148] Top shape: 24 128 7 7 (150528)
I0403 15:10:28.292362 31246 net.cpp:156] Memory required for data: 1335929376
I0403 15:10:28.292378 31246 layer_factory.hpp:77] Creating layer inception_5b/pool
I0403 15:10:28.292397 31246 net.cpp:91] Creating Layer inception_5b/pool
I0403 15:10:28.292413 31246 net.cpp:425] inception_5b/pool <- inception_5a/output_inception_5a/output_0_split_3
I0403 15:10:28.292434 31246 net.cpp:399] inception_5b/pool -> inception_5b/pool
I0403 15:10:28.292513 31246 net.cpp:141] Setting up inception_5b/pool
I0403 15:10:28.292541 31246 net.cpp:148] Top shape: 24 832 7 7 (978432)
I0403 15:10:28.292556 31246 net.cpp:156] Memory required for data: 1339843104
I0403 15:10:28.292572 31246 layer_factory.hpp:77] Creating layer inception_5b/pool_proj
I0403 15:10:28.292595 31246 net.cpp:91] Creating Layer inception_5b/pool_proj
I0403 15:10:28.292613 31246 net.cpp:425] inception_5b/pool_proj <- inception_5b/pool
I0403 15:10:28.292634 31246 net.cpp:399] inception_5b/pool_proj -> inception_5b/pool_proj
I0403 15:10:28.295032 31246 net.cpp:141] Setting up inception_5b/pool_proj
I0403 15:10:28.295063 31246 net.cpp:148] Top shape: 24 128 7 7 (150528)
I0403 15:10:28.295079 31246 net.cpp:156] Memory required for data: 1340445216
I0403 15:10:28.295099 31246 layer_factory.hpp:77] Creating layer inception_5b/relu_pool_proj
I0403 15:10:28.295120 31246 net.cpp:91] Creating Layer inception_5b/relu_pool_proj
I0403 15:10:28.295138 31246 net.cpp:425] inception_5b/relu_pool_proj <- inception_5b/pool_proj
I0403 15:10:28.295156 31246 net.cpp:386] inception_5b/relu_pool_proj -> inception_5b/pool_proj (in-place)
I0403 15:10:28.295465 31246 net.cpp:141] Setting up inception_5b/relu_pool_proj
I0403 15:10:28.295492 31246 net.cpp:148] Top shape: 24 128 7 7 (150528)
I0403 15:10:28.295513 31246 net.cpp:156] Memory required for data: 1341047328
I0403 15:10:28.295529 31246 layer_factory.hpp:77] Creating layer inception_5b/output
I0403 15:10:28.295550 31246 net.cpp:91] Creating Layer inception_5b/output
I0403 15:10:28.295583 31246 net.cpp:425] inception_5b/output <- inception_5b/1x1
I0403 15:10:28.295600 31246 net.cpp:425] inception_5b/output <- inception_5b/3x3
I0403 15:10:28.295617 31246 net.cpp:425] inception_5b/output <- inception_5b/5x5
I0403 15:10:28.295634 31246 net.cpp:425] inception_5b/output <- inception_5b/pool_proj
I0403 15:10:28.295652 31246 net.cpp:399] inception_5b/output -> inception_5b/output
I0403 15:10:28.295707 31246 net.cpp:141] Setting up inception_5b/output
I0403 15:10:28.295732 31246 net.cpp:148] Top shape: 24 1024 7 7 (1204224)
I0403 15:10:28.295747 31246 net.cpp:156] Memory required for data: 1345864224
I0403 15:10:28.295763 31246 layer_factory.hpp:77] Creating layer pool5/7x7_s1
I0403 15:10:28.295781 31246 net.cpp:91] Creating Layer pool5/7x7_s1
I0403 15:10:28.295797 31246 net.cpp:425] pool5/7x7_s1 <- inception_5b/output
I0403 15:10:28.295819 31246 net.cpp:399] pool5/7x7_s1 -> pool5/7x7_s1
I0403 15:10:28.296047 31246 net.cpp:141] Setting up pool5/7x7_s1
I0403 15:10:28.296075 31246 net.cpp:148] Top shape: 24 1024 1 1 (24576)
I0403 15:10:28.296092 31246 net.cpp:156] Memory required for data: 1345962528
I0403 15:10:28.296108 31246 layer_factory.hpp:77] Creating layer pool5/drop_7x7_s1
I0403 15:10:28.296128 31246 net.cpp:91] Creating Layer pool5/drop_7x7_s1
I0403 15:10:28.296144 31246 net.cpp:425] pool5/drop_7x7_s1 <- pool5/7x7_s1
I0403 15:10:28.296164 31246 net.cpp:386] pool5/drop_7x7_s1 -> pool5/7x7_s1 (in-place)
I0403 15:10:28.296216 31246 net.cpp:141] Setting up pool5/drop_7x7_s1
I0403 15:10:28.296241 31246 net.cpp:148] Top shape: 24 1024 1 1 (24576)
I0403 15:10:28.296254 31246 net.cpp:156] Memory required for data: 1346060832
I0403 15:10:28.296269 31246 layer_factory.hpp:77] Creating layer loss3/classifier_plantvillage
I0403 15:10:28.296293 31246 net.cpp:91] Creating Layer loss3/classifier_plantvillage
I0403 15:10:28.296310 31246 net.cpp:425] loss3/classifier_plantvillage <- pool5/7x7_s1
I0403 15:10:28.296332 31246 net.cpp:399] loss3/classifier_plantvillage -> loss3/classifier_plantvillage
I0403 15:10:28.296777 31246 net.cpp:141] Setting up loss3/classifier_plantvillage
I0403 15:10:28.296802 31246 net.cpp:148] Top shape: 24 38 (912)
I0403 15:10:28.296818 31246 net.cpp:156] Memory required for data: 1346064480
I0403 15:10:28.296838 31246 layer_factory.hpp:77] Creating layer loss3/classifier_plantvillage_loss3/classifier_plantvillage_0_split
I0403 15:10:28.296856 31246 net.cpp:91] Creating Layer loss3/classifier_plantvillage_loss3/classifier_plantvillage_0_split
I0403 15:10:28.296879 31246 net.cpp:425] loss3/classifier_plantvillage_loss3/classifier_plantvillage_0_split <- loss3/classifier_plantvillage
I0403 15:10:28.296897 31246 net.cpp:399] loss3/classifier_plantvillage_loss3/classifier_plantvillage_0_split -> loss3/classifier_plantvillage_loss3/classifier_plantvillage_0_split_0
I0403 15:10:28.296917 31246 net.cpp:399] loss3/classifier_plantvillage_loss3/classifier_plantvillage_0_split -> loss3/classifier_plantvillage_loss3/classifier_plantvillage_0_split_1
I0403 15:10:28.296937 31246 net.cpp:399] loss3/classifier_plantvillage_loss3/classifier_plantvillage_0_split -> loss3/classifier_plantvillage_loss3/classifier_plantvillage_0_split_2
I0403 15:10:28.296958 31246 net.cpp:399] loss3/classifier_plantvillage_loss3/classifier_plantvillage_0_split -> loss3/classifier_plantvillage_loss3/classifier_plantvillage_0_split_3
I0403 15:10:28.297061 31246 net.cpp:141] Setting up loss3/classifier_plantvillage_loss3/classifier_plantvillage_0_split
I0403 15:10:28.297086 31246 net.cpp:148] Top shape: 24 38 (912)
I0403 15:10:28.297102 31246 net.cpp:148] Top shape: 24 38 (912)
I0403 15:10:28.297118 31246 net.cpp:148] Top shape: 24 38 (912)
I0403 15:10:28.297133 31246 net.cpp:148] Top shape: 24 38 (912)
I0403 15:10:28.297147 31246 net.cpp:156] Memory required for data: 1346079072
I0403 15:10:28.297163 31246 layer_factory.hpp:77] Creating layer loss1/loss
I0403 15:10:28.297184 31246 net.cpp:91] Creating Layer loss1/loss
I0403 15:10:28.297202 31246 net.cpp:425] loss1/loss <- loss1/classifier_plantvillage_loss1/classifier_plantvillage_0_split_0
I0403 15:10:28.297235 31246 net.cpp:425] loss1/loss <- label_data_1_split_0
…
