…
I0403 15:06:03.894176 31132 net.cpp:313] The NetState phase (1) differed from the phase (0) specified by a rule in layer data
I0403 15:06:03.895361 31132 net.cpp:49] Initializing net from parameters: 
state {
  phase: TEST
}
layer {
  name: "data"
  type: "Data"
  top: "data"
  top: "label"
  include {
    phase: TEST
  }
  transform_param {
    mirror: false
    crop_size: 224
    mean_file: "/home/mohanty/data/final_dataset/lmdb/grayscale-80-20/mean.binaryproto"
  }
  data_param {
    source: "/home/mohanty/data/final_dataset/lmdb/grayscale-80-20/test_db"
    batch_size: 24
    backend: LMDB
  }
}
layer {
  name: "conv1/7x7_s2"
  type: "Convolution"
  bottom: "data"
  top: "conv1/7x7_s2"
  param {
    lr_mult: 1
    decay_mult: 1
  }
  param {
    lr_mult: 2
    decay_mult: 0
  }
  convolution_param {
    num_output: 64
    pad: 3
    kernel_size: 7
    stride: 2
    weight_filler {
      type: "xavier"
      std: 0.1
    }
    bias_filler {
      type: "constant"
      value: 0.2
    }
  }
}
layer {
  name: "conv1/relu_7x7"
  type: "ReLU"
  bottom: "conv1/7x7_s2"
  top: "conv1/7x7_s2"
}
layer {
  name: "pool1/3x3_s2"
  type: "Pooling"
  bottom: "conv1/7x7_s2"
  top: "pool1/3x3_s2"
  pooling_param {
    pool: MAX
    kernel_size: 3
    stride: 2
  }
}
layer {
  name: "pool1/norm1"
  type: "LRN"
  bottom: "pool1/3x3_s2"
  top: "pool1/norm1"
  lrn_param {
    local_size: 5
    alpha: 0.0001
    beta: 0.75
  }
}
layer {
  name: "conv2/3x3_reduce"
  type: "Convolution"
  bottom: "pool1/norm1"
  top: "conv2/3x3_reduce"
  param {
    lr_mult: 1
    decay_mult: 1
  }
  param {
    lr_mult: 2
    decay_mult: 0
  }
  convolution_param {
    num_output: 64
    kernel_size: 1
    weight_filler {
      type: "xavier"
      std: 0.1
    }
    bias_filler {
      type: "constant"
      value: 0.2
    }
  }
}
layer {
  name: "conv2/relu_3x3_reduce"
  type: "ReLU"
  bottom: "conv2/3x3_reduce"
  top: "conv2/3x3_reduce"
}
layer {
  name: "conv2/3x3"
  type: "Convolution"
  bottom: "conv2/3x3_reduce"
  top: "conv2/3x3"
  param {
    lr_mult: 1
    decay_mult: 1
  }
  param {
    lr_mult: 2
    decay_mult: 0
  }
  convolution_param {
    num_output: 192
    pad: 1
    kernel_size: 3
    weight_filler {
      type: "xavier"
      std: 0.03
    }
    bias_filler {
      type: "constant"
      value: 0.2
    }
  }
}
layer {
  name: "conv2/relu_3x3"
  type: "ReLU"
  bottom: "conv2/3x3"
  top: "conv2/3x3"
}
layer {
  name: "conv2/norm2"
  type: "LRN"
  bottom: "conv2/3x3"
  top: "conv2/norm2"
  lrn_param {
    local_size: 5
    alpha: 0.0001
    beta: 0.75
  }
}
layer {
  name: "pool2/3x3_s2"
  type: "Pooling"
  bottom: "conv2/norm2"
  top: "pool2/3x3_s2"
  pooling_param {
    pool: MAX
    kernel_size: 3
    stride: 2
  }
}
layer {
  name: "inception_3a/1x1"
  type: "Convolution"
  bottom: "pool2/3x3_s2"
  top: "inception_3a/1x1"
  param {
    lr_mult: 1
    decay_mult: 1
  }
  param {
    lr_mult: 2
    decay_mult: 0
  }
  convolution_param {
    num_output: 64
    kernel_size: 1
    weight_filler {
      type: "xavier"
      std: 0.03
    }
    bias_filler {
      type: "constant"
      value: 0.2
    }
  }
}
layer {
  name: "inception_3a/relu_1x1"
  type: "ReLU"
  bottom: "inception_3a/1x1"
  top: "inception_3a/1x1"
}
layer {
  name: "inception_3a/3x3_reduce"
  type: "Convolution"
  bottom: "pool2/3x3_s2"
  top: "inception_3a/3x3_reduce"
  param {
    lr_mult: 1
    decay_mult: 1
  }
  param {
    lr_mult: 2
    decay_mult: 0
  }
  convolution_param {
    num_output: 96
    kernel_size: 1
    weight_filler {
      type: "xavier"
      std: 0.09
    }
    bias_filler {
      type: "constant"
      value: 0.2
    }
  }
}
layer {
  name: "inception_3a/relu_3x3_reduce"
  type: "ReLU"
  bottom: "inception_3a/3x3_reduce"
  top: "inception_3a/3x3_reduce"
}
layer {
  name: "inception_3a/3x3"
  type: "Convolution"
  bottom: "inception_3a/3x3_reduce"
  top: "inception_3a/3x3"
  param {
    lr_mult: 1
    decay_mult: 1
  }
  param {
    lr_mult: 2
    decay_mult: 0
  }
  convolution_param {
    num_output: 128
    pad: 1
    kernel_size: 3
    weight_filler {
      type: "xavier"
      std: 0.03
    }
    bias_filler {
      type: "constant"
      value: 0.2
    }
  }
}
layer {
  name: "inception_3a/relu_3x3"
  type: "ReLU"
  bottom: "inception_3a/3x3"
  top: "inception_3a/3x3"
}
layer {
  name: "inception_3a/5x5_reduce"
  type: "Convolution"
  bottom: "pool2/3x3_s2"
  top: "inception_3a/5x5_reduce"
  param {
    lr_mult: 1
    decay_mult: 1
  }
  param {
    lr_mult: 2
    decay_mult: 0
  }
  convolution_param {
    num_output: 16
    kernel_size: 1
    weight_filler {
      type: "xavier"
      std: 0.2
    }
    bias_filler {
      type: "constant"
      value: 0.2
    }
  }
}
layer {
  name: "inception_3a/relu_5x5_reduce"
  type: "ReLU"
  bottom: "inception_3a/5x5_reduce"
  top: "inception_3a/5x5_reduce"
}
layer {
  name: "inception_3a/5x5"
  type: "Convolution"
  bottom: "inception_3a/5x5_reduce"
  top: "inception_3a/5x5"
  param {
    lr_mult: 1
    decay_mult: 1
  }
  param {
    lr_mult: 2
    decay_mult: 0
  }
  convolution_param {
    num_output: 32
    pad: 2
    kernel_size: 5
    weight_filler {
      type: "xavier"
      std: 0.03
    }
    bias_filler {
      type: "constant"
      value: 0.2
    }
  }
}
layer {
  name: "inception_3a/relu_5x5"
  type: "ReLU"
  bottom: "inception_3a/5x5"
  top: "inception_3a/5x5"
}
layer {
  name: "inception_3a/pool"
  type: "Pooling"
  bottom: "pool2/3x3_s2"
  top: "inception_3a/pool"
  pooling_param {
    pool: MAX
    kernel_size: 3
    stride: 1
    pad: 1
  }
}
layer {
  name: "inception_3a/pool_proj"
  type: "Convolution"
  bottom: "inception_3a/pool"
  top: "inception_3a/pool_proj"
  param {
    lr_mult: 1
    decay_mult: 1
  }
  param {
    lr_mult: 2
    decay_mult: 0
  }
  convolution_param {
    num_output: 32
    kernel_size: 1
    weight_filler {
      type: "xavier"
      std: 0.1
    }
    bias_filler {
      type: "constant"
      value: 0.2
    }
  }
}
layer {
  name: "inception_3a/relu_pool_proj"
  type: "ReLU"
  bottom: "inception_3a/pool_proj"
  top: "inception_3a/pool_proj"
}
layer {
  name: "inception_3a/output"
  type: "Concat"
  bottom: "inception_3a/1x1"
  bottom: "inception_3a/3x3"
  bottom: "inception_3a/5x5"
  bottom: "inception_3a/pool_proj"
  top: "inception_3a/output"
}
layer {
  name: "inception_3b/1x1"
  type: "Convolution"
  bottom: "inception_3a/output"
  top: "inception_3b/1x1"
  param {
    lr_mult: 1
    decay_mult: 1
  }
  param {
    lr_mult: 2
    decay_mult: 0
  }
  convolution_param {
    num_output: 128
    kernel_size: 1
    weight_filler {
      type: "xavier"
      std: 0.03
    }
    bias_filler {
      type: "constant"
      value: 0.2
    }
  }
}
layer {
  name: "inception_3b/relu_1x1"
  type: "ReLU"
  bottom: "inception_3b/1x1"
  top: "inception_3b/1x1"
}
layer {
  name: "inception_3b/3x3_reduce"
  type: "Convolution"
  bottom: "inception_3a/output"
  top: "inception_3b/3x3_reduce"
  param {
    lr_mult: 1
    decay_mult: 1
  }
  param {
    lr_mult: 2
    decay_mult: 0
  }
  convolution_param {
    num_output: 128
    kernel_size: 1
    weight_filler {
      type: "xavier"
      std: 0.09
    }
    bias_filler {
      type: "constant"
      value: 0.2
    }
  }
}
layer {
  name: "inception_3b/relu_3x3_reduce"
  type: "ReLU"
  bottom: "inception_3b/3x3_reduce"
  top: "inception_3b/3x3_reduce"
}
layer {
  name: "inception_3b/3x3"
  type: "Convolution"
  bottom: "inception_3b/3x3_reduce"
  top: "inception_3b/3x3"
  param {
    lr_mult: 1
    decay_mult: 1
  }
  param {
    lr_mult: 2
    decay_mult: 0
  }
  convolution_param {
    num_output: 192
    pad: 1
    kernel_size: 3
    weight_filler {
      type: "xavier"
      std: 0.03
    }
    bias_filler {
      type: "constant"
      value: 0.2
    }
  }
}
layer {
  name: "inception_3b/relu_3x3"
  type: "ReLU"
  bottom: "inception_3b/3x3"
  top: "inception_3b/3x3"
}
layer {
  name: "inception_3b/5x5_reduce"
  type: "Convolution"
  bottom: "inception_3a/output"
  top: "inception_3b/5x5_reduce"
  param {
    lr_mult: 1
    decay_mult: 1
  }
  param {
    lr_mult: 2
    decay_mult: 0
  }
  convolution_param {
    num_output: 32
    kernel_size: 1
    weight_filler {
      type: "xavier"
      std: 0.2
    }
    bias_filler {
      type: "constant"
      value: 0.2
    }
  }
}
layer {
  name: "inception_3b/relu_5x5_reduce"
  type: "ReLU"
  bottom: "inception_3b/5x5_reduce"
  top: "inception_3b/5x5_reduce"
}
layer {
  name: "inception_3b/5x5"
  type: "Convolution"
  bottom: "inception_3b/5x5_reduce"
  top: "inception_3b/5x5"
  param {
    lr_mult: 1
    decay_mult: 1
  }
  param {
    lr_mult: 2
    decay_mult: 0
  }
  convolution_param {
    num_output: 96
    pad: 2
    kernel_size: 5
    weight_filler {
      type: "xavier"
      std: 0.03
    }
    bias_filler {
      type: "constant"
      value: 0.2
    }
  }
}
layer {
  name: "inception_3b/relu_5x5"
  type: "ReLU"
  bottom: "inception_3b/5x5"
  top: "inception_3b/5x5"
}
layer {
  name: "inception_3b/pool"
  type: "Pooling"
  bottom: "inception_3a/output"
  top: "inception_3b/pool"
  pooling_param {
    pool: MAX
    kernel_size: 3
    stride: 1
    pad: 1
  }
}
layer {
  name: "inception_3b/pool_proj"
  type: "Convolution"
  bottom: "inception_3b/pool"
  top: "inception_3b/pool_proj"
  param {
    lr_mult: 1
    decay_mult: 1
  }
  param {
    lr_mult: 2
    decay_mult: 0
  }
  convolution_param {
    num_output: 64
    kernel_size: 1
    weight_filler {
      type: "xavier"
      std: 0.1
    }
    bias_filler {
      type: "constant"
      value: 0.2
    }
  }
}
layer {
  name: "inception_3b/relu_pool_proj"
  type: "ReLU"
  bottom: "inception_3b/pool_proj"
  top: "inception_3b/pool_proj"
}
layer {
  name: "inception_3b/output"
  type: "Concat"
  bottom: "inception_3b/1x1"
  bottom: "inception_3b/3x3"
  bottom: "inception_3b/5x5"
  bottom: "inception_3b/pool_proj"
  top: "inception_3b/output"
}
layer {
  name: "pool3/3x3_s2"
  type: "Pooling"
  bottom: "inception_3b/output"
  top: "pool3/3x3_s2"
  pooling_param {
    pool: MAX
    kernel_size: 3
    stride: 2
  }
}
layer {
  name: "inception_4a/1x1"
  type: "Convolution"
  bottom: "pool3/3x3_s2"
  top: "inception_4a/1x1"
  param {
    lr_mult: 1
    decay_mult: 1
  }
  param {
    lr_mult: 2
    decay_mult: 0
  }
  convolution_param {
    num_output: 192
    kernel_size: 1
    weight_filler {
      type: "xavier"
      std: 0.03
    }
    bias_filler {
      type: "constant"
      value: 0.2
    }
  }
}
layer {
  name: "inception_4a/relu_1x1"
  type: "ReLU"
  bottom: "inception_4a/1x1"
  top: "inception_4a/1x1"
}
layer {
  name: "inception_4a/3x3_reduce"
  type: "Convolution"
  bottom: "pool3/3x3_s2"
  top: "inception_4a/3x3_reduce"
  param {
    lr_mult: 1
    decay_mult: 1
  }
  param {
    lr_mult: 2
    decay_mult: 0
  }
  convolution_param {
    num_output: 96
    kernel_size: 1
    weight_filler {
      type: "xavier"
      std: 0.09
    }
    bias_filler {
      type: "constant"
      value: 0.2
    }
  }
}
layer {
  name: "inception_4a/relu_3x3_reduce"
  type: "ReLU"
  bottom: "inception_4a/3x3_reduce"
  top: "inception_4a/3x3_reduce"
}
layer {
  name: "inception_4a/3x3"
  type: "Convolution"
  bottom: "inception_4a/3x3_reduce"
  top: "inception_4a/3x3"
  param {
    lr_mult: 1
    decay_mult: 1
  }
  param {
    lr_mult: 2
    decay_mult: 0
  }
  convolution_param {
    num_output: 208
    pad: 1
    kernel_size: 3
    weight_filler {
      type: "xavier"
      std: 0.03
    }
    bias_filler {
      type: "constant"
      value: 0.2
    }
  }
}
layer {
  name: "inception_4a/relu_3x3"
  type: "ReLU"
  bottom: "inception_4a/3x3"
  top: "inception_4a/3x3"
}
layer {
  name: "inception_4a/5x5_reduce"
  type: "Convolution"
  bottom: "pool3/3x3_s2"
  top: "inception_4a/5x5_reduce"
  param {
    lr_mult: 1
    decay_mult: 1
  }
  param {
    lr_mult: 2
    decay_mult: 0
  }
  convolution_param {
    num_output: 16
    kernel_size: 1
    weight_filler {
      type: "xavier"
      std: 0.2
    }
    bias_filler {
      type: "constant"
      value: 0.2
    }
  }
}
layer {
  name: "inception_4a/relu_5x5_reduce"
  type: "ReLU"
  bottom: "inception_4a/5x5_reduce"
  top: "inception_4a/5x5_reduce"
}
layer {
  name: "inception_4a/5x5"
  type: "Convolution"
  bottom: "inception_4a/5x5_reduce"
  top: "inception_4a/5x5"
  param {
    lr_mult: 1
    decay_mult: 1
  }
  param {
    lr_mult: 2
    decay_mult: 0
  }
  convolution_param {
    num_output: 48
    pad: 2
    kernel_size: 5
    weight_filler {
      type: "xavier"
      std: 0.03
    }
    bias_filler {
      type: "constant"
      value: 0.2
    }
  }
}
layer {
  name: "inception_4a/relu_5x5"
  type: "ReLU"
  bottom: "inception_4a/5x5"
  top: "inception_4a/5x5"
}
layer {
  name: "inception_4a/pool"
  type: "Pooling"
  bottom: "pool3/3x3_s2"
  top: "inception_4a/pool"
  pooling_param {
    pool: MAX
    kernel_size: 3
    stride: 1
    pad: 1
  }
}
layer {
  name: "inception_4a/pool_proj"
  type: "Convolution"
  bottom: "inception_4a/pool"
  top: "inception_4a/pool_proj"
  param {
    lr_mult: 1
    decay_mult: 1
  }
  param {
    lr_mult: 2
    decay_mult: 0
  }
  convolution_param {
    num_output: 64
    kernel_size: 1
    weight_filler {
      type: "xavier"
      std: 0.1
    }
    bias_filler {
      type: "constant"
      value: 0.2
    }
  }
}
layer {
  name: "inception_4a/relu_pool_proj"
  type: "ReLU"
  bottom: "inception_4a/pool_proj"
  top: "inception_4a/pool_proj"
}
layer {
  name: "inception_4a/output"
  type: "Concat"
  bottom: "inception_4a/1x1"
  bottom: "inception_4a/3x3"
  bottom: "inception_4a/5x5"
  bottom: "inception_4a/pool_proj"
  top: "inception_4a/output"
}
layer {
  name: "loss1/ave_pool"
  type: "Pooling"
  bottom: "inception_4a/output"
  top: "loss1/ave_pool"
  pooling_param {
    pool: AVE
    kernel_size: 5
    stride: 3
  }
}
layer {
  name: "loss1/conv"
  type: "Convolution"
  bottom: "loss1/ave_pool"
  top: "loss1/conv"
  param {
    lr_mult: 1
    decay_mult: 1
  }
  param {
    lr_mult: 2
    decay_mult: 0
  }
  convolution_param {
    num_output: 128
    kernel_size: 1
    weight_filler {
      type: "xavier"
      std: 0.08
    }
    bias_filler {
      type: "constant"
      value: 0.2
    }
  }
}
layer {
  name: "loss1/relu_conv"
  type: "ReLU"
  bottom: "loss1/conv"
  top: "loss1/conv"
}
layer {
  name: "loss1/fc"
  type: "InnerProduct"
  bottom: "loss1/conv"
  top: "loss1/fc"
  param {
    lr_mult: 1
    decay_mult: 1
  }
  param {
    lr_mult: 2
    decay_mult: 0
  }
  inner_product_param {
    num_output: 1024
    weight_filler {
      type: "xavier"
      std: 0.02
    }
    bias_filler {
      type: "constant"
      value: 0.2
    }
  }
}
layer {
  name: "loss1/relu_fc"
  type: "ReLU"
  bottom: "loss1/fc"
  top: "loss1/fc"
}
layer {
  name: "loss1/drop_fc"
  type: "Dropout"
  bottom: "loss1/fc"
  top: "loss1/fc"
  dropout_param {
    dropout_ratio: 0.7
  }
}
layer {
  name: "loss1/classifier_plantvillage"
  type: "InnerProduct"
  bottom: "loss1/fc"
  top: "loss1/classifier_plantvillage"
  param {
    lr_mult: 1
    decay_mult: 1
  }
  param {
    lr_mult: 2
    decay_mult: 0
  }
  inner_product_param {
    num_output: 38
    weight_filler {
      type: "xavier"
      std: 0.0009765625
    }
    bias_filler {
      type: "constant"
      value: 0
    }
  }
}
layer {
  name: "inception_4b/1x1"
  type: "Convolution"
  bottom: "inception_4a/output"
  top: "inception_4b/1x1"
  param {
    lr_mult: 1
    decay_mult: 1
  }
  param {
    lr_mult: 2
    decay_mult: 0
  }
  convolution_param {
    num_output: 160
    kernel_size: 1
    weight_filler {
      type: "xavier"
      std: 0.03
    }
    bias_filler {
      type: "constant"
      value: 0.2
    }
  }
}
layer {
  name: "inception_4b/relu_1x1"
  type: "ReLU"
  bottom: "inception_4b/1x1"
  top: "inception_4b/1x1"
}
layer {
  name: "inception_4b/3x3_reduce"
  type: "Convolution"
  bottom: "inception_4a/output"
  top: "inception_4b/3x3_reduce"
  param {
    lr_mult: 1
    decay_mult: 1
  }
  param {
    lr_mult: 2
    decay_mult: 0
  }
  convolution_param {
    num_output: 112
    kernel_size: 1
    weight_filler {
      type: "xavier"
      std: 0.09
    }
    bias_filler {
      type: "constant"
      value: 0.2
    }
  }
}
layer {
  name: "inception_4b/relu_3x3_reduce"
  type: "ReLU"
  bottom: "inception_4b/3x3_reduce"
  top: "inception_4b/3x3_reduce"
}
layer {
  name: "inception_4b/3x3"
  type: "Convolution"
  bottom: "inception_4b/3x3_reduce"
  top: "inception_4b/3x3"
  param {
    lr_mult: 1
    decay_mult: 1
  }
  param {
    lr_mult: 2
    decay_mult: 0
  }
  convolution_param {
    num_output: 224
    pad: 1
    kernel_size: 3
    weight_filler {
      type: "xavier"
      std: 0.03
    }
    bias_filler {
      type: "constant"
      value: 0.2
    }
  }
}
layer {
  name: "inception_4b/relu_3x3"
  type: "ReLU"
  bottom: "inception_4b/3x3"
  top: "inception_4b/3x3"
}
layer {
  name: "inception_4b/5x5_reduce"
  type: "Convolution"
  bottom: "inception_4a/output"
  top: "inception_4b/5x5_reduce"
  param {
    lr_mult: 1
    decay_mult: 1
  }
  param {
    lr_mult: 2
    decay_mult: 0
  }
  convolution_param {
    num_output: 24
    kernel_size: 1
    weight_filler {
      type: "xavier"
      std: 0.2
    }
    bias_filler {
      type: "constant"
      value: 0.2
    }
  }
}
layer {
  name: "inception_4b/relu_5x5_reduce"
  type: "ReLU"
  bottom: "inception_4b/5x5_reduce"
  top: "inception_4b/5x5_reduce"
}
layer {
  name: "inception_4b/5x5"
  type: "Convolution"
  bottom: "inception_4b/5x5_reduce"
  top: "inception_4b/5x5"
  param {
    lr_mult: 1
    decay_mult: 1
  }
  param {
    lr_mult: 2
    decay_mult: 0
  }
  convolution_param {
    num_output: 64
    pad: 2
    kernel_size: 5
    weight_filler {
      type: "xavier"
      std: 0.03
    }
    bias_filler {
      type: "constant"
      value: 0.2
    }
  }
}
layer {
  name: "inception_4b/relu_5x5"
  type: "ReLU"
  bottom: "inception_4b/5x5"
  top: "inception_4b/5x5"
}
layer {
  name: "inception_4b/pool"
  type: "Pooling"
  bottom: "inception_4a/output"
  top: "inception_4b/pool"
  pooling_param {
    pool: MAX
    kernel_size: 3
    stride: 1
    pad: 1
  }
}
layer {
  name: "inception_4b/pool_proj"
  type: "Convolution"
  bottom: "inception_4b/pool"
  top: "inception_4b/pool_proj"
  param {
    lr_mult: 1
    decay_mult: 1
  }
  param {
    lr_mult: 2
    decay_mult: 0
  }
  convolution_param {
    num_output: 64
    kernel_size: 1
    weight_filler {
      type: "xavier"
      std: 0.1
    }
    bias_filler {
      type: "constant"
      value: 0.2
    }
  }
}
layer {
  name: "inception_4b/relu_pool_proj"
  type: "ReLU"
  bottom: "inception_4b/pool_proj"
  top: "inception_4b/pool_proj"
}
layer {
  name: "inception_4b/output"
  type: "Concat"
  bottom: "inception_4b/1x1"
  bottom: "inception_4b/3x3"
  bottom: "inception_4b/5x5"
  bottom: "inception_4b/pool_proj"
  top: "inception_4b/output"
}
layer {
  name: "inception_4c/1x1"
  type: "Convolution"
  bottom: "inception_4b/output"
  top: "inception_4c/1x1"
  param {
    lr_mult: 1
    decay_mult: 1
  }
  param {
    lr_mult: 2
    decay_mult: 0
  }
  convolution_param {
    num_output: 128
    kernel_size: 1
    weight_filler {
      type: "xavier"
      std: 0.03
    }
    bias_filler {
      type: "constant"
      value: 0.2
    }
  }
}
layer {
  name: "inception_4c/relu_1x1"
  type: "ReLU"
  bottom: "inception_4c/1x1"
  top: "inception_4c/1x1"
}
layer {
  name: "inception_4c/3x3_reduce"
  type: "Convolution"
  bottom: "inception_4b/output"
  top: "inception_4c/3x3_reduce"
  param {
    lr_mult: 1
    decay_mult: 1
  }
  param {
    lr_mult: 2
    decay_mult: 0
  }
  convolution_param {
    num_output: 128
    kernel_size: 1
    weight_filler {
      type: "xavier"
      std: 0.09
    }
    bias_filler {
      type: "constant"
      value: 0.2
    }
  }
}
layer {
  name: "inception_4c/relu_3x3_reduce"
  type: "ReLU"
  bottom: "inception_4c/3x3_reduce"
  top: "inception_4c/3x3_reduce"
}
layer {
  name: "inception_4c/3x3"
  type: "Convolution"
  bottom: "inception_4c/3x3_reduce"
  top: "inception_4c/3x3"
  param {
    lr_mult: 1
    decay_mult: 1
  }
  param {
    lr_mult: 2
    decay_mult: 0
  }
  convolution_param {
    num_output: 256
    pad: 1
    kernel_size: 3
    weight_filler {
      type: "xavier"
      std: 0.03
    }
    bias_filler {
      type: "constant"
      value: 0.2
    }
  }
}
layer {
  name: "inception_4c/relu_3x3"
  type: "ReLU"
  bottom: "inception_4c/3x3"
  top: "inception_4c/3x3"
}
layer {
  name: "inception_4c/5x5_reduce"
  type: "Convolution"
  bottom: "inception_4b/output"
  top: "inception_4c/5x5_reduce"
  param {
    lr_mult: 1
    decay_mult: 1
  }
  param {
    lr_mult: 2
    decay_mult: 0
  }
  convolution_param {
    num_output: 24
    kernel_size: 1
    weight_filler {
      type: "xavier"
      std: 0.2
    }
    bias_filler {
      type: "constant"
      value: 0.2
    }
  }
}
layer {
  name: "inception_4c/relu_5x5_reduce"
  type: "ReLU"
  bottom: "inception_4c/5x5_reduce"
  top: "inception_4c/5x5_reduce"
}
layer {
  name: "inception_4c/5x5"
  type: "Convolution"
  bottom: "inception_4c/5x5_reduce"
  top: "inception_4c/5x5"
  param {
    lr_mult: 1
    decay_mult: 1
  }
  param {
    lr_mult: 2
    decay_mult: 0
  }
  convolution_param {
    num_output: 64
    pad: 2
    kernel_size: 5
    weight_filler {
      type: "xavier"
      std: 0.03
    }
    bias_filler {
      type: "constant"
      value: 0.2
    }
  }
}
layer {
  name: "inception_4c/relu_5x5"
  type: "ReLU"
  bottom: "inception_4c/5x5"
  top: "inception_4c/5x5"
}
layer {
  name: "inception_4c/pool"
  type: "Pooling"
  bottom: "inception_4b/output"
  top: "inception_4c/pool"
  pooling_param {
    pool: MAX
    kernel_size: 3
    stride: 1
    pad: 1
  }
}
layer {
  name: "inception_4c/pool_proj"
  type: "Convolution"
  bottom: "inception_4c/pool"
  top: "inception_4c/pool_proj"
  param {
    lr_mult: 1
    decay_mult: 1
  }
  param {
    lr_mult: 2
    decay_mult: 0
  }
  convolution_param {
    num_output: 64
    kernel_size: 1
    weight_filler {
      type: "xavier"
      std: 0.1
    }
    bias_filler {
      type: "constant"
      value: 0.2
    }
  }
}
layer {
  name: "inception_4c/relu_pool_proj"
  type: "ReLU"
  bottom: "inception_4c/pool_proj"
  top: "inception_4c/pool_proj"
}
layer {
  name: "inception_4c/output"
  type: "Concat"
  bottom: "inception_4c/1x1"
  bottom: "inception_4c/3x3"
  bottom: "inception_4c/5x5"
  bottom: "inception_4c/pool_proj"
  top: "inception_4c/output"
}
layer {
  name: "inception_4d/1x1"
  type: "Convolution"
  bottom: "inception_4c/output"
  top: "inception_4d/1x1"
  param {
    lr_mult: 1
    decay_mult: 1
  }
  param {
    lr_mult: 2
    decay_mult: 0
  }
  convolution_param {
    num_output: 112
    kernel_size: 1
    weight_filler {
      type: "xavier"
      std: 0.03
    }
    bias_filler {
      type: "constant"
      value: 0.2
    }
  }
}
layer {
  name: "inception_4d/relu_1x1"
  type: "ReLU"
  bottom: "inception_4d/1x1"
  top: "inception_4d/1x1"
}
layer {
  name: "inception_4d/3x3_reduce"
  type: "Convolution"
  bottom: "inception_4c/output"
  top: "inception_4d/3x3_reduce"
  param {
    lr_mult: 1
    decay_mult: 1
  }
  param {
    lr_mult: 2
    decay_mult: 0
  }
  convolution_param {
    num_output: 144
    kernel_size: 1
    weight_filler {
      type: "xavier"
      std: 0.09
    }
    bias_filler {
      type: "constant"
      value: 0.2
    }
  }
}
layer {
  name: "inception_4d/relu_3x3_reduce"
  type: "ReLU"
  bottom: "inception_4d/3x3_reduce"
  top: "inception_4d/3x3_reduce"
}
layer {
  name: "inception_4d/3x3"
  type: "Convolution"
  bottom: "inception_4d/3x3_reduce"
  top: "inception_4d/3x3"
  param {
    lr_mult: 1
    decay_mult: 1
  }
  param {
    lr_mult: 2
    decay_mult: 0
  }
  convolution_param {
    num_output: 288
    pad: 1
    kernel_size: 3
    weight_filler {
      type: "xavier"
      std: 0.03
    }
    bias_filler {
      type: "constant"
      value: 0.2
    }
  }
}
layer {
  name: "inception_4d/relu_3x3"
  type: "ReLU"
  bottom: "inception_4d/3x3"
  top: "inception_4d/3x3"
}
layer {
  name: "inception_4d/5x5_reduce"
  type: "Convolution"
  bottom: "inception_4c/output"
  top: "inception_4d/5x5_reduce"
  param {
    lr_mult: 1
    decay_mult: 1
  }
  param {
    lr_mult: 2
    decay_mult: 0
  }
  convolution_param {
    num_output: 32
    kernel_size: 1
    weight_filler {
      type: "xavier"
      std: 0.2
    }
    bias_filler {
      type: "constant"
      value: 0.2
    }
  }
}
layer {
  name: "inception_4d/relu_5x5_reduce"
  type: "ReLU"
  bottom: "inception_4d/5x5_reduce"
  top: "inception_4d/5x5_reduce"
}
layer {
  name: "inception_4d/5x5"
  type: "Convolution"
  bottom: "inception_4d/5x5_reduce"
  top: "inception_4d/5x5"
  param {
    lr_mult: 1
    decay_mult: 1
  }
  param {
    lr_mult: 2
    decay_mult: 0
  }
  convolution_param {
    num_output: 64
    pad: 2
    kernel_size: 5
    weight_filler {
      type: "xavier"
      std: 0.03
    }
    bias_filler {
      type: "constant"
      value: 0.2
    }
  }
}
layer {
  name: "inception_4d/relu_5x5"
  type: "ReLU"
  bottom: "inception_4d/5x5"
  top: "inception_4d/5x5"
}
layer {
  name: "inception_4d/pool"
  type: "Pooling"
  bottom: "inception_4c/output"
  top: "inception_4d/pool"
  pooling_param {
    pool: MAX
    kernel_size: 3
    stride: 1
    pad: 1
  }
}
layer {
  name: "inception_4d/pool_proj"
  type: "Convolution"
  bottom: "inception_4d/pool"
  top: "inception_4d/pool_proj"
  param {
    lr_mult: 1
    decay_mult: 1
  }
  param {
    lr_mult: 2
    decay_mult: 0
  }
  convolution_param {
    num_output: 64
    kernel_size: 1
    weight_filler {
      type: "xavier"
      std: 0.1
    }
    bias_filler {
      type: "constant"
      value: 0.2
    }
  }
}
layer {
  name: "inception_4d/relu_pool_proj"
  type: "ReLU"
  bottom: "inception_4d/pool_proj"
  top: "inception_4d/pool_proj"
}
layer {
  name: "inception_4d/output"
  type: "Concat"
  bottom: "inception_4d/1x1"
  bottom: "inception_4d/3x3"
  bottom: "inception_4d/5x5"
  bottom: "inception_4d/pool_proj"
  top: "inception_4d/output"
}
layer {
  name: "loss2/ave_pool"
  type: "Pooling"
  bottom: "inception_4d/output"
  top: "loss2/ave_pool"
  pooling_param {
    pool: AVE
    kernel_size: 5
    stride: 3
  }
}
layer {
  name: "loss2/conv"
  type: "Convolution"
  bottom: "loss2/ave_pool"
  top: "loss2/conv"
  param {
    lr_mult: 1
    decay_mult: 1
  }
  param {
    lr_mult: 2
    decay_mult: 0
  }
  convolution_param {
    num_output: 128
    kernel_size: 1
    weight_filler {
      type: "xavier"
      std: 0.08
    }
    bias_filler {
      type: "constant"
      value: 0.2
    }
  }
}
layer {
  name: "loss2/relu_conv"
  type: "ReLU"
  bottom: "loss2/conv"
  top: "loss2/conv"
}
layer {
  name: "loss2/fc"
  type: "InnerProduct"
  bottom: "loss2/conv"
  top: "loss2/fc"
  param {
    lr_mult: 1
    decay_mult: 1
  }
  param {
    lr_mult: 2
    decay_mult: 0
  }
  inner_product_param {
    num_output: 1024
    weight_filler {
      type: "xavier"
      std: 0.02
    }
    bias_filler {
      type: "constant"
      value: 0.2
    }
  }
}
layer {
  name: "loss2/relu_fc"
  type: "ReLU"
  bottom: "loss2/fc"
  top: "loss2/fc"
}
layer {
  name: "loss2/drop_fc"
  type: "Dropout"
  bottom: "loss2/fc"
  top: "loss2/fc"
  dropout_param {
    dropout_ratio: 0.7
  }
}
layer {
  name: "loss2/classifier_plantvillage"
  type: "InnerProduct"
  bottom: "loss2/fc"
  top: "loss2/classifier_plantvillage"
  param {
    lr_mult: 1
    decay_mult: 1
  }
  param {
    lr_mult: 2
    decay_mult: 0
  }
  inner_product_param {
    num_output: 38
    weight_filler {
      type: "xavier"
      std: 0.0009765625
    }
    bias_filler {
      type: "constant"
      value: 0
    }
  }
}
layer {
  name: "inception_4e/1x1"
  type: "Convolution"
  bottom: "inception_4d/output"
  top: "inception_4e/1x1"
  param {
    lr_mult: 1
    decay_mult: 1
  }
  param {
    lr_mult: 2
    decay_mult: 0
  }
  convolution_param {
    num_output: 256
    kernel_size: 1
    weight_filler {
      type: "xavier"
      std: 0.03
    }
    bias_filler {
      type: "constant"
      value: 0.2
    }
  }
}
layer {
  name: "inception_4e/relu_1x1"
  type: "ReLU"
  bottom: "inception_4e/1x1"
  top: "inception_4e/1x1"
}
layer {
  name: "inception_4e/3x3_reduce"
  type: "Convolution"
  bottom: "inception_4d/output"
  top: "inception_4e/3x3_reduce"
  param {
    lr_mult: 1
    decay_mult: 1
  }
  param {
    lr_mult: 2
    decay_mult: 0
  }
  convolution_param {
    num_output: 160
    kernel_size: 1
    weight_filler {
      type: "xavier"
      std: 0.09
    }
    bias_filler {
      type: "constant"
      value: 0.2
    }
  }
}
layer {
  name: "inception_4e/relu_3x3_reduce"
  type: "ReLU"
  bottom: "inception_4e/3x3_reduce"
  top: "inception_4e/3x3_reduce"
}
layer {
  name: "inception_4e/3x3"
  type: "Convolution"
  bottom: "inception_4e/3x3_reduce"
  top: "inception_4e/3x3"
  param {
    lr_mult: 1
    decay_mult: 1
  }
  param {
    lr_mult: 2
    decay_mult: 0
  }
  convolution_param {
    num_output: 320
    pad: 1
    kernel_size: 3
    weight_filler {
      type: "xavier"
      std: 0.03
    }
    bias_filler {
      type: "constant"
      value: 0.2
    }
  }
}
layer {
  name: "inception_4e/relu_3x3"
  type: "ReLU"
  bottom: "inception_4e/3x3"
  top: "inception_4e/3x3"
}
layer {
  name: "inception_4e/5x5_reduce"
  type: "Convolution"
  bottom: "inception_4d/output"
  top: "inception_4e/5x5_reduce"
  param {
    lr_mult: 1
    decay_mult: 1
  }
  param {
    lr_mult: 2
    decay_mult: 0
  }
  convolution_param {
    num_output: 32
    kernel_size: 1
    weight_filler {
      type: "xavier"
      std: 0.2
    }
    bias_filler {
      type: "constant"
      value: 0.2
    }
  }
}
layer {
  name: "inception_4e/relu_5x5_reduce"
  type: "ReLU"
  bottom: "inception_4e/5x5_reduce"
  top: "inception_4e/5x5_reduce"
}
layer {
  name: "inception_4e/5x5"
  type: "Convolution"
  bottom: "inception_4e/5x5_reduce"
  top: "inception_4e/
I0403 15:06:03.896755 31132 layer_factory.hpp:77] Creating layer data
I0403 15:06:03.897384 31132 net.cpp:91] Creating Layer data
I0403 15:06:03.897416 31132 net.cpp:399] data -> data
I0403 15:06:03.897476 31132 net.cpp:399] data -> label
I0403 15:06:03.897514 31132 data_transformer.cpp:25] Loading mean file from: /home/mohanty/data/final_dataset/lmdb/grayscale-80-20/mean.binaryproto
I0403 15:06:03.900025 31138 db_lmdb.cpp:38] Opened lmdb /home/mohanty/data/final_dataset/lmdb/grayscale-80-20/test_db
I0403 15:06:03.911978 31132 data_layer.cpp:41] output data size: 24,3,224,224
I0403 15:06:03.939122 31132 net.cpp:141] Setting up data
I0403 15:06:03.939216 31132 net.cpp:148] Top shape: 24 3 224 224 (3612672)
I0403 15:06:03.939240 31132 net.cpp:148] Top shape: 24 (24)
I0403 15:06:03.939256 31132 net.cpp:156] Memory required for data: 14450784
I0403 15:06:03.939286 31132 layer_factory.hpp:77] Creating layer label_data_1_split
I0403 15:06:03.939317 31132 net.cpp:91] Creating Layer label_data_1_split
I0403 15:06:03.939337 31132 net.cpp:425] label_data_1_split <- label
I0403 15:06:03.939373 31132 net.cpp:399] label_data_1_split -> label_data_1_split_0
I0403 15:06:03.939404 31132 net.cpp:399] label_data_1_split -> label_data_1_split_1
I0403 15:06:03.939426 31132 net.cpp:399] label_data_1_split -> label_data_1_split_2
I0403 15:06:03.939451 31132 net.cpp:399] label_data_1_split -> label_data_1_split_3
I0403 15:06:03.939471 31132 net.cpp:399] label_data_1_split -> label_data_1_split_4
I0403 15:06:03.939491 31132 net.cpp:399] label_data_1_split -> label_data_1_split_5
I0403 15:06:03.939510 31132 net.cpp:399] label_data_1_split -> label_data_1_split_6
I0403 15:06:03.939532 31132 net.cpp:399] label_data_1_split -> label_data_1_split_7
I0403 15:06:03.939558 31132 net.cpp:399] label_data_1_split -> label_data_1_split_8
I0403 15:06:03.939579 31132 net.cpp:399] label_data_1_split -> label_data_1_split_9
I0403 15:06:03.939697 31132 net.cpp:141] Setting up label_data_1_split
I0403 15:06:03.939720 31132 net.cpp:148] Top shape: 24 (24)
I0403 15:06:03.939738 31132 net.cpp:148] Top shape: 24 (24)
I0403 15:06:03.939754 31132 net.cpp:148] Top shape: 24 (24)
I0403 15:06:03.939769 31132 net.cpp:148] Top shape: 24 (24)
I0403 15:06:03.939785 31132 net.cpp:148] Top shape: 24 (24)
I0403 15:06:03.939801 31132 net.cpp:148] Top shape: 24 (24)
I0403 15:06:03.939816 31132 net.cpp:148] Top shape: 24 (24)
I0403 15:06:03.939831 31132 net.cpp:148] Top shape: 24 (24)
I0403 15:06:03.939846 31132 net.cpp:148] Top shape: 24 (24)
I0403 15:06:03.939862 31132 net.cpp:148] Top shape: 24 (24)
I0403 15:06:03.939918 31132 net.cpp:156] Memory required for data: 14451744
I0403 15:06:03.939934 31132 layer_factory.hpp:77] Creating layer conv1/7x7_s2
I0403 15:06:03.939968 31132 net.cpp:91] Creating Layer conv1/7x7_s2
I0403 15:06:03.939986 31132 net.cpp:425] conv1/7x7_s2 <- data
I0403 15:06:03.940006 31132 net.cpp:399] conv1/7x7_s2 -> conv1/7x7_s2
I0403 15:06:04.078572 31132 net.cpp:141] Setting up conv1/7x7_s2
I0403 15:06:04.078670 31132 net.cpp:148] Top shape: 24 64 112 112 (19267584)
I0403 15:06:04.078691 31132 net.cpp:156] Memory required for data: 91522080
I0403 15:06:04.078730 31132 layer_factory.hpp:77] Creating layer conv1/relu_7x7
I0403 15:06:04.078766 31132 net.cpp:91] Creating Layer conv1/relu_7x7
I0403 15:06:04.078789 31132 net.cpp:425] conv1/relu_7x7 <- conv1/7x7_s2
I0403 15:06:04.078814 31132 net.cpp:386] conv1/relu_7x7 -> conv1/7x7_s2 (in-place)
I0403 15:06:04.079094 31132 net.cpp:141] Setting up conv1/relu_7x7
I0403 15:06:04.079123 31132 net.cpp:148] Top shape: 24 64 112 112 (19267584)
I0403 15:06:04.079138 31132 net.cpp:156] Memory required for data: 168592416
I0403 15:06:04.079154 31132 layer_factory.hpp:77] Creating layer pool1/3x3_s2
I0403 15:06:04.079180 31132 net.cpp:91] Creating Layer pool1/3x3_s2
I0403 15:06:04.079198 31132 net.cpp:425] pool1/3x3_s2 <- conv1/7x7_s2
I0403 15:06:04.079216 31132 net.cpp:399] pool1/3x3_s2 -> pool1/3x3_s2
I0403 15:06:04.079295 31132 net.cpp:141] Setting up pool1/3x3_s2
I0403 15:06:04.079319 31132 net.cpp:148] Top shape: 24 64 56 56 (4816896)
I0403 15:06:04.079334 31132 net.cpp:156] Memory required for data: 187860000
I0403 15:06:04.079350 31132 layer_factory.hpp:77] Creating layer pool1/norm1
I0403 15:06:04.079376 31132 net.cpp:91] Creating Layer pool1/norm1
I0403 15:06:04.079393 31132 net.cpp:425] pool1/norm1 <- pool1/3x3_s2
I0403 15:06:04.079412 31132 net.cpp:399] pool1/norm1 -> pool1/norm1
I0403 15:06:04.079715 31132 net.cpp:141] Setting up pool1/norm1
I0403 15:06:04.079741 31132 net.cpp:148] Top shape: 24 64 56 56 (4816896)
I0403 15:06:04.079757 31132 net.cpp:156] Memory required for data: 207127584
I0403 15:06:04.079772 31132 layer_factory.hpp:77] Creating layer conv2/3x3_reduce
I0403 15:06:04.079799 31132 net.cpp:91] Creating Layer conv2/3x3_reduce
I0403 15:06:04.079816 31132 net.cpp:425] conv2/3x3_reduce <- pool1/norm1
I0403 15:06:04.079834 31132 net.cpp:399] conv2/3x3_reduce -> conv2/3x3_reduce
I0403 15:06:04.081223 31132 net.cpp:141] Setting up conv2/3x3_reduce
I0403 15:06:04.081254 31132 net.cpp:148] Top shape: 24 64 56 56 (4816896)
I0403 15:06:04.081271 31132 net.cpp:156] Memory required for data: 226395168
I0403 15:06:04.081292 31132 layer_factory.hpp:77] Creating layer conv2/relu_3x3_reduce
I0403 15:06:04.081311 31132 net.cpp:91] Creating Layer conv2/relu_3x3_reduce
I0403 15:06:04.081327 31132 net.cpp:425] conv2/relu_3x3_reduce <- conv2/3x3_reduce
I0403 15:06:04.081346 31132 net.cpp:386] conv2/relu_3x3_reduce -> conv2/3x3_reduce (in-place)
I0403 15:06:04.081607 31132 net.cpp:141] Setting up conv2/relu_3x3_reduce
I0403 15:06:04.081634 31132 net.cpp:148] Top shape: 24 64 56 56 (4816896)
I0403 15:06:04.081650 31132 net.cpp:156] Memory required for data: 245662752
I0403 15:06:04.081665 31132 layer_factory.hpp:77] Creating layer conv2/3x3
I0403 15:06:04.081687 31132 net.cpp:91] Creating Layer conv2/3x3
I0403 15:06:04.081704 31132 net.cpp:425] conv2/3x3 <- conv2/3x3_reduce
I0403 15:06:04.081723 31132 net.cpp:399] conv2/3x3 -> conv2/3x3
I0403 15:06:04.084012 31132 net.cpp:141] Setting up conv2/3x3
I0403 15:06:04.084043 31132 net.cpp:148] Top shape: 24 192 56 56 (14450688)
I0403 15:06:04.084059 31132 net.cpp:156] Memory required for data: 303465504
I0403 15:06:04.084081 31132 layer_factory.hpp:77] Creating layer conv2/relu_3x3
I0403 15:06:04.084101 31132 net.cpp:91] Creating Layer conv2/relu_3x3
I0403 15:06:04.084117 31132 net.cpp:425] conv2/relu_3x3 <- conv2/3x3
I0403 15:06:04.084134 31132 net.cpp:386] conv2/relu_3x3 -> conv2/3x3 (in-place)
I0403 15:06:04.084306 31132 net.cpp:141] Setting up conv2/relu_3x3
I0403 15:06:04.084331 31132 net.cpp:148] Top shape: 24 192 56 56 (14450688)
I0403 15:06:04.084388 31132 net.cpp:156] Memory required for data: 361268256
I0403 15:06:04.084406 31132 layer_factory.hpp:77] Creating layer conv2/norm2
I0403 15:06:04.084427 31132 net.cpp:91] Creating Layer conv2/norm2
I0403 15:06:04.084444 31132 net.cpp:425] conv2/norm2 <- conv2/3x3
I0403 15:06:04.084462 31132 net.cpp:399] conv2/norm2 -> conv2/norm2
I0403 15:06:04.084769 31132 net.cpp:141] Setting up conv2/norm2
I0403 15:06:04.084797 31132 net.cpp:148] Top shape: 24 192 56 56 (14450688)
I0403 15:06:04.084812 31132 net.cpp:156] Memory required for data: 419071008
I0403 15:06:04.084827 31132 layer_factory.hpp:77] Creating layer pool2/3x3_s2
I0403 15:06:04.084846 31132 net.cpp:91] Creating Layer pool2/3x3_s2
I0403 15:06:04.084866 31132 net.cpp:425] pool2/3x3_s2 <- conv2/norm2
I0403 15:06:04.084883 31132 net.cpp:399] pool2/3x3_s2 -> pool2/3x3_s2
I0403 15:06:04.084934 31132 net.cpp:141] Setting up pool2/3x3_s2
I0403 15:06:04.084957 31132 net.cpp:148] Top shape: 24 192 28 28 (3612672)
I0403 15:06:04.084975 31132 net.cpp:156] Memory required for data: 433521696
I0403 15:06:04.084990 31132 layer_factory.hpp:77] Creating layer pool2/3x3_s2_pool2/3x3_s2_0_split
I0403 15:06:04.085010 31132 net.cpp:91] Creating Layer pool2/3x3_s2_pool2/3x3_s2_0_split
I0403 15:06:04.085024 31132 net.cpp:425] pool2/3x3_s2_pool2/3x3_s2_0_split <- pool2/3x3_s2
I0403 15:06:04.085048 31132 net.cpp:399] pool2/3x3_s2_pool2/3x3_s2_0_split -> pool2/3x3_s2_pool2/3x3_s2_0_split_0
I0403 15:06:04.085068 31132 net.cpp:399] pool2/3x3_s2_pool2/3x3_s2_0_split -> pool2/3x3_s2_pool2/3x3_s2_0_split_1
I0403 15:06:04.085089 31132 net.cpp:399] pool2/3x3_s2_pool2/3x3_s2_0_split -> pool2/3x3_s2_pool2/3x3_s2_0_split_2
I0403 15:06:04.085113 31132 net.cpp:399] pool2/3x3_s2_pool2/3x3_s2_0_split -> pool2/3x3_s2_pool2/3x3_s2_0_split_3
I0403 15:06:04.085182 31132 net.cpp:141] Setting up pool2/3x3_s2_pool2/3x3_s2_0_split
I0403 15:06:04.085206 31132 net.cpp:148] Top shape: 24 192 28 28 (3612672)
I0403 15:06:04.085225 31132 net.cpp:148] Top shape: 24 192 28 28 (3612672)
I0403 15:06:04.085242 31132 net.cpp:148] Top shape: 24 192 28 28 (3612672)
I0403 15:06:04.085260 31132 net.cpp:148] Top shape: 24 192 28 28 (3612672)
I0403 15:06:04.085278 31132 net.cpp:156] Memory required for data: 491324448
I0403 15:06:04.085297 31132 layer_factory.hpp:77] Creating layer inception_3a/1x1
I0403 15:06:04.085321 31132 net.cpp:91] Creating Layer inception_3a/1x1
I0403 15:06:04.085340 31132 net.cpp:425] inception_3a/1x1 <- pool2/3x3_s2_pool2/3x3_s2_0_split_0
I0403 15:06:04.085357 31132 net.cpp:399] inception_3a/1x1 -> inception_3a/1x1
I0403 15:06:04.086894 31132 net.cpp:141] Setting up inception_3a/1x1
I0403 15:06:04.086930 31132 net.cpp:148] Top shape: 24 64 28 28 (1204224)
I0403 15:06:04.086946 31132 net.cpp:156] Memory required for data: 496141344
I0403 15:06:04.086966 31132 layer_factory.hpp:77] Creating layer inception_3a/relu_1x1
I0403 15:06:04.086984 31132 net.cpp:91] Creating Layer inception_3a/relu_1x1
I0403 15:06:04.087002 31132 net.cpp:425] inception_3a/relu_1x1 <- inception_3a/1x1
I0403 15:06:04.087021 31132 net.cpp:386] inception_3a/relu_1x1 -> inception_3a/1x1 (in-place)
I0403 15:06:04.087208 31132 net.cpp:141] Setting up inception_3a/relu_1x1
I0403 15:06:04.087232 31132 net.cpp:148] Top shape: 24 64 28 28 (1204224)
I0403 15:06:04.087249 31132 net.cpp:156] Memory required for data: 500958240
I0403 15:06:04.087263 31132 layer_factory.hpp:77] Creating layer inception_3a/3x3_reduce
I0403 15:06:04.087285 31132 net.cpp:91] Creating Layer inception_3a/3x3_reduce
I0403 15:06:04.087303 31132 net.cpp:425] inception_3a/3x3_reduce <- pool2/3x3_s2_pool2/3x3_s2_0_split_1
I0403 15:06:04.087326 31132 net.cpp:399] inception_3a/3x3_reduce -> inception_3a/3x3_reduce
I0403 15:06:04.089079 31132 net.cpp:141] Setting up inception_3a/3x3_reduce
I0403 15:06:04.089112 31132 net.cpp:148] Top shape: 24 96 28 28 (1806336)
I0403 15:06:04.089131 31132 net.cpp:156] Memory required for data: 508183584
I0403 15:06:04.089154 31132 layer_factory.hpp:77] Creating layer inception_3a/relu_3x3_reduce
I0403 15:06:04.089195 31132 net.cpp:91] Creating Layer inception_3a/relu_3x3_reduce
I0403 15:06:04.089215 31132 net.cpp:425] inception_3a/relu_3x3_reduce <- inception_3a/3x3_reduce
I0403 15:06:04.089233 31132 net.cpp:386] inception_3a/relu_3x3_reduce -> inception_3a/3x3_reduce (in-place)
I0403 15:06:04.089423 31132 net.cpp:141] Setting up inception_3a/relu_3x3_reduce
I0403 15:06:04.089449 31132 net.cpp:148] Top shape: 24 96 28 28 (1806336)
I0403 15:06:04.089463 31132 net.cpp:156] Memory required for data: 515408928
I0403 15:06:04.089478 31132 layer_factory.hpp:77] Creating layer inception_3a/3x3
I0403 15:06:04.089505 31132 net.cpp:91] Creating Layer inception_3a/3x3
I0403 15:06:04.089525 31132 net.cpp:425] inception_3a/3x3 <- inception_3a/3x3_reduce
I0403 15:06:04.089551 31132 net.cpp:399] inception_3a/3x3 -> inception_3a/3x3
I0403 15:06:04.091262 31132 net.cpp:141] Setting up inception_3a/3x3
I0403 15:06:04.091295 31132 net.cpp:148] Top shape: 24 128 28 28 (2408448)
I0403 15:06:04.091313 31132 net.cpp:156] Memory required for data: 525042720
I0403 15:06:04.091333 31132 layer_factory.hpp:77] Creating layer inception_3a/relu_3x3
I0403 15:06:04.091351 31132 net.cpp:91] Creating Layer inception_3a/relu_3x3
I0403 15:06:04.091369 31132 net.cpp:425] inception_3a/relu_3x3 <- inception_3a/3x3
I0403 15:06:04.091390 31132 net.cpp:386] inception_3a/relu_3x3 -> inception_3a/3x3 (in-place)
I0403 15:06:04.091684 31132 net.cpp:141] Setting up inception_3a/relu_3x3
I0403 15:06:04.091711 31132 net.cpp:148] Top shape: 24 128 28 28 (2408448)
I0403 15:06:04.091727 31132 net.cpp:156] Memory required for data: 534676512
I0403 15:06:04.091742 31132 layer_factory.hpp:77] Creating layer inception_3a/5x5_reduce
I0403 15:06:04.091764 31132 net.cpp:91] Creating Layer inception_3a/5x5_reduce
I0403 15:06:04.091783 31132 net.cpp:425] inception_3a/5x5_reduce <- pool2/3x3_s2_pool2/3x3_s2_0_split_2
I0403 15:06:04.091804 31132 net.cpp:399] inception_3a/5x5_reduce -> inception_3a/5x5_reduce
I0403 15:06:04.092808 31132 net.cpp:141] Setting up inception_3a/5x5_reduce
I0403 15:06:04.092838 31132 net.cpp:148] Top shape: 24 16 28 28 (301056)
I0403 15:06:04.092854 31132 net.cpp:156] Memory required for data: 535880736
I0403 15:06:04.092871 31132 layer_factory.hpp:77] Creating layer inception_3a/relu_5x5_reduce
I0403 15:06:04.092890 31132 net.cpp:91] Creating Layer inception_3a/relu_5x5_reduce
I0403 15:06:04.092905 31132 net.cpp:425] inception_3a/relu_5x5_reduce <- inception_3a/5x5_reduce
I0403 15:06:04.092926 31132 net.cpp:386] inception_3a/relu_5x5_reduce -> inception_3a/5x5_reduce (in-place)
I0403 15:06:04.093276 31132 net.cpp:141] Setting up inception_3a/relu_5x5_reduce
I0403 15:06:04.093307 31132 net.cpp:148] Top shape: 24 16 28 28 (301056)
I0403 15:06:04.093322 31132 net.cpp:156] Memory required for data: 537084960
I0403 15:06:04.093338 31132 layer_factory.hpp:77] Creating layer inception_3a/5x5
I0403 15:06:04.093360 31132 net.cpp:91] Creating Layer inception_3a/5x5
I0403 15:06:04.093379 31132 net.cpp:425] inception_3a/5x5 <- inception_3a/5x5_reduce
I0403 15:06:04.093400 31132 net.cpp:399] inception_3a/5x5 -> inception_3a/5x5
I0403 15:06:04.094470 31132 net.cpp:141] Setting up inception_3a/5x5
I0403 15:06:04.094498 31132 net.cpp:148] Top shape: 24 32 28 28 (602112)
I0403 15:06:04.094516 31132 net.cpp:156] Memory required for data: 539493408
I0403 15:06:04.094543 31132 layer_factory.hpp:77] Creating layer inception_3a/relu_5x5
I0403 15:06:04.094564 31132 net.cpp:91] Creating Layer inception_3a/relu_5x5
I0403 15:06:04.094581 31132 net.cpp:425] inception_3a/relu_5x5 <- inception_3a/5x5
I0403 15:06:04.094602 31132 net.cpp:386] inception_3a/relu_5x5 -> inception_3a/5x5 (in-place)
I0403 15:06:04.094812 31132 net.cpp:141] Setting up inception_3a/relu_5x5
I0403 15:06:04.094840 31132 net.cpp:148] Top shape: 24 32 28 28 (602112)
I0403 15:06:04.094854 31132 net.cpp:156] Memory required for data: 541901856
I0403 15:06:04.094869 31132 layer_factory.hpp:77] Creating layer inception_3a/pool
I0403 15:06:04.094890 31132 net.cpp:91] Creating Layer inception_3a/pool
I0403 15:06:04.094923 31132 net.cpp:425] inception_3a/pool <- pool2/3x3_s2_pool2/3x3_s2_0_split_3
I0403 15:06:04.094943 31132 net.cpp:399] inception_3a/pool -> inception_3a/pool
I0403 15:06:04.095002 31132 net.cpp:141] Setting up inception_3a/pool
I0403 15:06:04.095027 31132 net.cpp:148] Top shape: 24 192 28 28 (3612672)
I0403 15:06:04.095042 31132 net.cpp:156] Memory required for data: 556352544
I0403 15:06:04.095058 31132 layer_factory.hpp:77] Creating layer inception_3a/pool_proj
I0403 15:06:04.095080 31132 net.cpp:91] Creating Layer inception_3a/pool_proj
I0403 15:06:04.095099 31132 net.cpp:425] inception_3a/pool_proj <- inception_3a/pool
I0403 15:06:04.095134 31132 net.cpp:399] inception_3a/pool_proj -> inception_3a/pool_proj
I0403 15:06:04.096231 31132 net.cpp:141] Setting up inception_3a/pool_proj
I0403 15:06:04.096262 31132 net.cpp:148] Top shape: 24 32 28 28 (602112)
I0403 15:06:04.096282 31132 net.cpp:156] Memory required for data: 558760992
I0403 15:06:04.096307 31132 layer_factory.hpp:77] Creating layer inception_3a/relu_pool_proj
I0403 15:06:04.096328 31132 net.cpp:91] Creating Layer inception_3a/relu_pool_proj
I0403 15:06:04.096345 31132 net.cpp:425] inception_3a/relu_pool_proj <- inception_3a/pool_proj
I0403 15:06:04.096366 31132 net.cpp:386] inception_3a/relu_pool_proj -> inception_3a/pool_proj (in-place)
I0403 15:06:04.096664 31132 net.cpp:141] Setting up inception_3a/relu_pool_proj
I0403 15:06:04.096690 31132 net.cpp:148] Top shape: 24 32 28 28 (602112)
I0403 15:06:04.096704 31132 net.cpp:156] Memory required for data: 561169440
I0403 15:06:04.096719 31132 layer_factory.hpp:77] Creating layer inception_3a/output
I0403 15:06:04.096736 31132 net.cpp:91] Creating Layer inception_3a/output
I0403 15:06:04.096751 31132 net.cpp:425] inception_3a/output <- inception_3a/1x1
I0403 15:06:04.096767 31132 net.cpp:425] inception_3a/output <- inception_3a/3x3
I0403 15:06:04.096783 31132 net.cpp:425] inception_3a/output <- inception_3a/5x5
I0403 15:06:04.096798 31132 net.cpp:425] inception_3a/output <- inception_3a/pool_proj
I0403 15:06:04.096817 31132 net.cpp:399] inception_3a/output -> inception_3a/output
I0403 15:06:04.096864 31132 net.cpp:141] Setting up inception_3a/output
I0403 15:06:04.096889 31132 net.cpp:148] Top shape: 24 256 28 28 (4816896)
I0403 15:06:04.096904 31132 net.cpp:156] Memory required for data: 580437024
I0403 15:06:04.096918 31132 layer_factory.hpp:77] Creating layer inception_3a/output_inception_3a/output_0_split
I0403 15:06:04.096935 31132 net.cpp:91] Creating Layer inception_3a/output_inception_3a/output_0_split
I0403 15:06:04.096951 31132 net.cpp:425] inception_3a/output_inception_3a/output_0_split <- inception_3a/output
I0403 15:06:04.096967 31132 net.cpp:399] inception_3a/output_inception_3a/output_0_split -> inception_3a/output_inception_3a/output_0_split_0
I0403 15:06:04.096987 31132 net.cpp:399] inception_3a/output_inception_3a/output_0_split -> inception_3a/output_inception_3a/output_0_split_1
I0403 15:06:04.097010 31132 net.cpp:399] inception_3a/output_inception_3a/output_0_split -> inception_3a/output_inception_3a/output_0_split_2
I0403 15:06:04.097031 31132 net.cpp:399] inception_3a/output_inception_3a/output_0_split -> inception_3a/output_inception_3a/output_0_split_3
I0403 15:06:04.097105 31132 net.cpp:141] Setting up inception_3a/output_inception_3a/output_0_split
I0403 15:06:04.097128 31132 net.cpp:148] Top shape: 24 256 28 28 (4816896)
I0403 15:06:04.097146 31132 net.cpp:148] Top shape: 24 256 28 28 (4816896)
I0403 15:06:04.097162 31132 net.cpp:148] Top shape: 24 256 28 28 (4816896)
I0403 15:06:04.097177 31132 net.cpp:148] Top shape: 24 256 28 28 (4816896)
I0403 15:06:04.097190 31132 net.cpp:156] Memory required for data: 657507360
I0403 15:06:04.097204 31132 layer_factory.hpp:77] Creating layer inception_3b/1x1
I0403 15:06:04.097228 31132 net.cpp:91] Creating Layer inception_3b/1x1
I0403 15:06:04.097244 31132 net.cpp:425] inception_3b/1x1 <- inception_3a/output_inception_3a/output_0_split_0
I0403 15:06:04.097262 31132 net.cpp:399] inception_3b/1x1 -> inception_3b/1x1
I0403 15:06:04.098438 31132 net.cpp:141] Setting up inception_3b/1x1
I0403 15:06:04.098479 31132 net.cpp:148] Top shape: 24 128 28 28 (2408448)
I0403 15:06:04.098496 31132 net.cpp:156] Memory required for data: 667141152
I0403 15:06:04.098515 31132 layer_factory.hpp:77] Creating layer inception_3b/relu_1x1
I0403 15:06:04.098537 31132 net.cpp:91] Creating Layer inception_3b/relu_1x1
I0403 15:06:04.098556 31132 net.cpp:425] inception_3b/relu_1x1 <- inception_3b/1x1
I0403 15:06:04.098594 31132 net.cpp:386] inception_3b/relu_1x1 -> inception_3b/1x1 (in-place)
I0403 15:06:04.098770 31132 net.cpp:141] Setting up inception_3b/relu_1x1
I0403 15:06:04.098796 31132 net.cpp:148] Top shape: 24 128 28 28 (2408448)
I0403 15:06:04.098810 31132 net.cpp:156] Memory required for data: 676774944
I0403 15:06:04.098825 31132 layer_factory.hpp:77] Creating layer inception_3b/3x3_reduce
I0403 15:06:04.098847 31132 net.cpp:91] Creating Layer inception_3b/3x3_reduce
I0403 15:06:04.098865 31132 net.cpp:425] inception_3b/3x3_reduce <- inception_3a/output_inception_3a/output_0_split_1
I0403 15:06:04.098888 31132 net.cpp:399] inception_3b/3x3_reduce -> inception_3b/3x3_reduce
I0403 15:06:04.100016 31132 net.cpp:141] Setting up inception_3b/3x3_reduce
I0403 15:06:04.100047 31132 net.cpp:148] Top shape: 24 128 28 28 (2408448)
I0403 15:06:04.100064 31132 net.cpp:156] Memory required for data: 686408736
I0403 15:06:04.100083 31132 layer_factory.hpp:77] Creating layer inception_3b/relu_3x3_reduce
I0403 15:06:04.100100 31132 net.cpp:91] Creating Layer inception_3b/relu_3x3_reduce
I0403 15:06:04.100116 31132 net.cpp:425] inception_3b/relu_3x3_reduce <- inception_3b/3x3_reduce
I0403 15:06:04.100132 31132 net.cpp:386] inception_3b/relu_3x3_reduce -> inception_3b/3x3_reduce (in-place)
I0403 15:06:04.100311 31132 net.cpp:141] Setting up inception_3b/relu_3x3_reduce
I0403 15:06:04.100335 31132 net.cpp:148] Top shape: 24 128 28 28 (2408448)
I0403 15:06:04.100349 31132 net.cpp:156] Memory required for data: 696042528
I0403 15:06:04.100364 31132 layer_factory.hpp:77] Creating layer inception_3b/3x3
I0403 15:06:04.100388 31132 net.cpp:91] Creating Layer inception_3b/3x3
I0403 15:06:04.100405 31132 net.cpp:425] inception_3b/3x3 <- inception_3b/3x3_reduce
I0403 15:06:04.100426 31132 net.cpp:399] inception_3b/3x3 -> inception_3b/3x3
I0403 15:06:04.103356 31132 net.cpp:141] Setting up inception_3b/3x3
I0403 15:06:04.103384 31132 net.cpp:148] Top shape: 24 192 28 28 (3612672)
I0403 15:06:04.103405 31132 net.cpp:156] Memory required for data: 710493216
I0403 15:06:04.103423 31132 layer_factory.hpp:77] Creating layer inception_3b/relu_3x3
I0403 15:06:04.103441 31132 net.cpp:91] Creating Layer inception_3b/relu_3x3
I0403 15:06:04.103457 31132 net.cpp:425] inception_3b/relu_3x3 <- inception_3b/3x3
I0403 15:06:04.103477 31132 net.cpp:386] inception_3b/relu_3x3 -> inception_3b/3x3 (in-place)
I0403 15:06:04.103763 31132 net.cpp:141] Setting up inception_3b/relu_3x3
I0403 15:06:04.103790 31132 net.cpp:148] Top shape: 24 192 28 28 (3612672)
I0403 15:06:04.103806 31132 net.cpp:156] Memory required for data: 724943904
I0403 15:06:04.103819 31132 layer_factory.hpp:77] Creating layer inception_3b/5x5_reduce
I0403 15:06:04.103842 31132 net.cpp:91] Creating Layer inception_3b/5x5_reduce
I0403 15:06:04.103858 31132 net.cpp:425] inception_3b/5x5_reduce <- inception_3a/output_inception_3a/output_0_split_2
I0403 15:06:04.103880 31132 net.cpp:399] inception_3b/5x5_reduce -> inception_3b/5x5_reduce
I0403 15:06:04.104882 31132 net.cpp:141] Setting up inception_3b/5x5_reduce
I0403 15:06:04.104909 31132 net.cpp:148] Top shape: 24 32 28 28 (602112)
I0403 15:06:04.104925 31132 net.cpp:156] Memory required for data: 727352352
I0403 15:06:04.104943 31132 layer_factory.hpp:77] Creating layer inception_3b/relu_5x5_reduce
I0403 15:06:04.104960 31132 net.cpp:91] Creating Layer inception_3b/relu_5x5_reduce
I0403 15:06:04.104976 31132 net.cpp:425] inception_3b/relu_5x5_reduce <- inception_3b/5x5_reduce
I0403 15:06:04.104996 31132 net.cpp:386] inception_3b/relu_5x5_reduce -> inception_3b/5x5_reduce (in-place)
I0403 15:06:04.105190 31132 net.cpp:141] Setting up inception_3b/relu_5x5_reduce
I0403 15:06:04.105214 31132 net.cpp:148] Top shape: 24 32 28 28 (602112)
I0403 15:06:04.105228 31132 net.cpp:156] Memory required for data: 729760800
I0403 15:06:04.105243 31132 layer_factory.hpp:77] Creating layer inception_3b/5x5
I0403 15:06:04.105265 31132 net.cpp:91] Creating Layer inception_3b/5x5
I0403 15:06:04.105283 31132 net.cpp:425] inception_3b/5x5 <- inception_3b/5x5_reduce
I0403 15:06:04.105304 31132 net.cpp:399] inception_3b/5x5 -> inception_3b/5x5
I0403 15:06:04.107275 31132 net.cpp:141] Setting up inception_3b/5x5
I0403 15:06:04.107306 31132 net.cpp:148] Top shape: 24 96 28 28 (1806336)
I0403 15:06:04.107323 31132 net.cpp:156] Memory required for data: 736986144
I0403 15:06:04.107342 31132 layer_factory.hpp:77] Creating layer inception_3b/relu_5x5
I0403 15:06:04.107359 31132 net.cpp:91] Creating Layer inception_3b/relu_5x5
I0403 15:06:04.107375 31132 net.cpp:425] inception_3b/relu_5x5 <- inception_3b/5x5
I0403 15:06:04.107394 31132 net.cpp:386] inception_3b/relu_5x5 -> inception_3b/5x5 (in-place)
I0403 15:06:04.107591 31132 net.cpp:141] Setting up inception_3b/relu_5x5
I0403 15:06:04.107617 31132 net.cpp:148] Top shape: 24 96 28 28 (1806336)
I0403 15:06:04.107632 31132 net.cpp:156] Memory required for data: 744211488
I0403 15:06:04.107647 31132 layer_factory.hpp:77] Creating layer inception_3b/pool
I0403 15:06:04.107666 31132 net.cpp:91] Creating Layer inception_3b/pool
I0403 15:06:04.107681 31132 net.cpp:425] inception_3b/pool <- inception_3a/output_inception_3a/output_0_split_3
I0403 15:06:04.107698 31132 net.cpp:399] inception_3b/pool -> inception_3b/pool
I0403 15:06:04.107753 31132 net.cpp:141] Setting up inception_3b/pool
I0403 15:06:04.107779 31132 net.cpp:148] Top shape: 24 256 28 28 (4816896)
I0403 15:06:04.107794 31132 net.cpp:156] Memory required for data: 763479072
I0403 15:06:04.107808 31132 layer_factory.hpp:77] Creating layer inception_3b/pool_proj
I0403 15:06:04.107831 31132 net.cpp:91] Creating Layer inception_3b/pool_proj
I0403 15:06:04.107847 31132 net.cpp:425] inception_3b/pool_proj <- inception_3b/pool
I0403 15:06:04.107866 31132 net.cpp:399] inception_3b/pool_proj -> inception_3b/pool_proj
I0403 15:06:04.108947 31132 net.cpp:141] Setting up inception_3b/pool_proj
I0403 15:06:04.108973 31132 net.cpp:148] Top shape: 24 64 28 28 (1204224)
I0403 15:06:04.108989 31132 net.cpp:156] Memory required for data: 768295968
I0403 15:06:04.109007 31132 layer_factory.hpp:77] Creating layer inception_3b/relu_pool_proj
I0403 15:06:04.109028 31132 net.cpp:91] Creating Layer inception_3b/relu_pool_proj
I0403 15:06:04.109046 31132 net.cpp:425] inception_3b/relu_pool_proj <- inception_3b/pool_proj
I0403 15:06:04.109079 31132 net.cpp:386] inception_3b/relu_pool_proj -> inception_3b/pool_proj (in-place)
I0403 15:06:04.109520 31132 net.cpp:141] Setting up inception_3b/relu_pool_proj
I0403 15:06:04.109567 31132 net.cpp:148] Top shape: 24 64 28 28 (1204224)
I0403 15:06:04.109583 31132 net.cpp:156] Memory required for data: 773112864
I0403 15:06:04.109598 31132 layer_factory.hpp:77] Creating layer inception_3b/output
I0403 15:06:04.109617 31132 net.cpp:91] Creating Layer inception_3b/output
I0403 15:06:04.109642 31132 net.cpp:425] inception_3b/output <- inception_3b/1x1
I0403 15:06:04.109684 31132 net.cpp:425] inception_3b/output <- inception_3b/3x3
I0403 15:06:04.109721 31132 net.cpp:425] inception_3b/output <- inception_3b/5x5
I0403 15:06:04.109757 31132 net.cpp:425] inception_3b/output <- inception_3b/pool_proj
I0403 15:06:04.109794 31132 net.cpp:399] inception_3b/output -> inception_3b/output
I0403 15:06:04.109871 31132 net.cpp:141] Setting up inception_3b/output
I0403 15:06:04.109895 31132 net.cpp:148] Top shape: 24 480 28 28 (9031680)
I0403 15:06:04.109910 31132 net.cpp:156] Memory required for data: 809239584
I0403 15:06:04.109925 31132 layer_factory.hpp:77] Creating layer pool3/3x3_s2
I0403 15:06:04.109941 31132 net.cpp:91] Creating Layer pool3/3x3_s2
I0403 15:06:04.109956 31132 net.cpp:425] pool3/3x3_s2 <- inception_3b/output
I0403 15:06:04.109990 31132 net.cpp:399] pool3/3x3_s2 -> pool3/3x3_s2
I0403 15:06:04.110049 31132 net.cpp:141] Setting up pool3/3x3_s2
I0403 15:06:04.110071 31132 net.cpp:148] Top shape: 24 480 14 14 (2257920)
I0403 15:06:04.110093 31132 net.cpp:156] Memory required for data: 818271264
I0403 15:06:04.110107 31132 layer_factory.hpp:77] Creating layer pool3/3x3_s2_pool3/3x3_s2_0_split
I0403 15:06:04.110126 31132 net.cpp:91] Creating Layer pool3/3x3_s2_pool3/3x3_s2_0_split
I0403 15:06:04.110142 31132 net.cpp:425] pool3/3x3_s2_pool3/3x3_s2_0_split <- pool3/3x3_s2
I0403 15:06:04.110159 31132 net.cpp:399] pool3/3x3_s2_pool3/3x3_s2_0_split -> pool3/3x3_s2_pool3/3x3_s2_0_split_0
I0403 15:06:04.110177 31132 net.cpp:399] pool3/3x3_s2_pool3/3x3_s2_0_split -> pool3/3x3_s2_pool3/3x3_s2_0_split_1
I0403 15:06:04.110200 31132 net.cpp:399] pool3/3x3_s2_pool3/3x3_s2_0_split -> pool3/3x3_s2_pool3/3x3_s2_0_split_2
I0403 15:06:04.110219 31132 net.cpp:399] pool3/3x3_s2_pool3/3x3_s2_0_split -> pool3/3x3_s2_pool3/3x3_s2_0_split_3
I0403 15:06:04.110293 31132 net.cpp:141] Setting up pool3/3x3_s2_pool3/3x3_s2_0_split
I0403 15:06:04.110316 31132 net.cpp:148] Top shape: 24 480 14 14 (2257920)
I0403 15:06:04.110332 31132 net.cpp:148] Top shape: 24 480 14 14 (2257920)
I0403 15:06:04.110347 31132 net.cpp:148] Top shape: 24 480 14 14 (2257920)
I0403 15:06:04.110363 31132 net.cpp:148] Top shape: 24 480 14 14 (2257920)
I0403 15:06:04.110375 31132 net.cpp:156] Memory required for data: 854397984
I0403 15:06:04.110390 31132 layer_factory.hpp:77] Creating layer inception_4a/1x1
I0403 15:06:04.110412 31132 net.cpp:91] Creating Layer inception_4a/1x1
I0403 15:06:04.110430 31132 net.cpp:425] inception_4a/1x1 <- pool3/3x3_s2_pool3/3x3_s2_0_split_0
I0403 15:06:04.110450 31132 net.cpp:399] inception_4a/1x1 -> inception_4a/1x1
I0403 15:06:04.112030 31132 net.cpp:141] Setting up inception_4a/1x1
I0403 15:06:04.112059 31132 net.cpp:148] Top shape: 24 192 14 14 (903168)
I0403 15:06:04.112074 31132 net.cpp:156] Memory required for data: 858010656
I0403 15:06:04.112092 31132 layer_factory.hpp:77] Creating layer inception_4a/relu_1x1
I0403 15:06:04.112113 31132 net.cpp:91] Creating Layer inception_4a/relu_1x1
I0403 15:06:04.112129 31132 net.cpp:425] inception_4a/relu_1x1 <- inception_4a/1x1
I0403 15:06:04.112146 31132 net.cpp:386] inception_4a/relu_1x1 -> inception_4a/1x1 (in-place)
I0403 15:06:04.112323 31132 net.cpp:141] Setting up inception_4a/relu_1x1
I0403 15:06:04.112350 31132 net.cpp:148] Top shape: 24 192 14 14 (903168)
I0403 15:06:04.112365 31132 net.cpp:156] Memory required for data: 861623328
I0403 15:06:04.112380 31132 layer_factory.hpp:77] Creating layer inception_4a/3x3_reduce
I0403 15:06:04.112402 31132 net.cpp:91] Creating Layer inception_4a/3x3_reduce
I0403 15:06:04.112419 31132 net.cpp:425] inception_4a/3x3_reduce <- pool3/3x3_s2_pool3/3x3_s2_0_split_1
I0403 15:06:04.112439 31132 net.cpp:399] inception_4a/3x3_reduce -> inception_4a/3x3_reduce
I0403 15:06:04.113737 31132 net.cpp:141] Setting up inception_4a/3x3_reduce
I0403 15:06:04.113765 31132 net.cpp:148] Top shape: 24 96 14 14 (451584)
I0403 15:06:04.113780 31132 net.cpp:156] Memory required for data: 863429664
I0403 15:06:04.113806 31132 layer_factory.hpp:77] Creating layer inception_4a/relu_3x3_reduce
I0403 15:06:04.113826 31132 net.cpp:91] Creating Layer inception_4a/relu_3x3_reduce
I0403 15:06:04.113842 31132 net.cpp:425] inception_4a/relu_3x3_reduce <- inception_4a/3x3_reduce
I0403 15:06:04.113858 31132 net.cpp:386] inception_4a/relu_3x3_reduce -> inception_4a/3x3_reduce (in-place)
I0403 15:06:04.114032 31132 net.cpp:141] Setting up inception_4a/relu_3x3_reduce
I0403 15:06:04.114056 31132 net.cpp:148] Top shape: 24 96 14 14 (451584)
I0403 15:06:04.114069 31132 net.cpp:156] Memory required for data: 865236000
I0403 15:06:04.114084 31132 layer_factory.hpp:77] Creating layer inception_4a/3x3
I0403 15:06:04.114107 31132 net.cpp:91] Creating Layer inception_4a/3x3
I0403 15:06:04.114123 31132 net.cpp:425] inception_4a/3x3 <- inception_4a/3x3_reduce
I0403 15:06:04.114141 31132 net.cpp:399] inception_4a/3x3 -> inception_4a/3x3
I0403 15:06:04.116740 31132 net.cpp:141] Setting up inception_4a/3x3
I0403 15:06:04.116770 31132 net.cpp:148] Top shape: 24 208 14 14 (978432)
I0403 15:06:04.116786 31132 net.cpp:156] Memory required for data: 869149728
I0403 15:06:04.116804 31132 layer_factory.hpp:77] Creating layer inception_4a/relu_3x3
I0403 15:06:04.116822 31132 net.cpp:91] Creating Layer inception_4a/relu_3x3
I0403 15:06:04.116837 31132 net.cpp:425] inception_4a/relu_3x3 <- inception_4a/3x3
I0403 15:06:04.116853 31132 net.cpp:386] inception_4a/relu_3x3 -> inception_4a/3x3 (in-place)
I0403 15:06:04.117123 31132 net.cpp:141] Setting up inception_4a/relu_3x3
I0403 15:06:04.117151 31132 net.cpp:148] Top shape: 24 208 14 14 (978432)
I0403 15:06:04.117166 31132 net.cpp:156] Memory required for data: 873063456
I0403 15:06:04.117182 31132 layer_factory.hpp:77] Creating layer inception_4a/5x5_reduce
I0403 15:06:04.117211 31132 net.cpp:91] Creating Layer inception_4a/5x5_reduce
I0403 15:06:04.117228 31132 net.cpp:425] inception_4a/5x5_reduce <- pool3/3x3_s2_pool3/3x3_s2_0_split_2
I0403 15:06:04.117246 31132 net.cpp:399] inception_4a/5x5_reduce -> inception_4a/5x5_reduce
I0403 15:06:04.118244 31132 net.cpp:141] Setting up inception_4a/5x5_reduce
I0403 15:06:04.118288 31132 net.cpp:148] Top shape: 24 16 14 14 (75264)
I0403 15:06:04.118324 31132 net.cpp:156] Memory required for data: 873364512
I0403 15:06:04.118361 31132 layer_factory.hpp:77] Creating layer inception_4a/relu_5x5_reduce
I0403 15:06:04.118402 31132 net.cpp:91] Creating Layer inception_4a/relu_5x5_reduce
I0403 15:06:04.118461 31132 net.cpp:425] inception_4a/relu_5x5_reduce <- inception_4a/5x5_reduce
I0403 15:06:04.118492 31132 net.cpp:386] inception_4a/relu_5x5_reduce -> inception_4a/5x5_reduce (in-place)
I0403 15:06:04.118692 31132 net.cpp:141] Setting up inception_4a/relu_5x5_reduce
I0403 15:06:04.118717 31132 net.cpp:148] Top shape: 24 16 14 14 (75264)
I0403 15:06:04.118731 31132 net.cpp:156] Memory required for data: 873665568
I0403 15:06:04.118746 31132 layer_factory.hpp:77] Creating layer inception_4a/5x5
I0403 15:06:04.118767 31132 net.cpp:91] Creating Layer inception_4a/5x5
I0403 15:06:04.118783 31132 net.cpp:425] inception_4a/5x5 <- inception_4a/5x5_reduce
I0403 15:06:04.118803 31132 net.cpp:399] inception_4a/5x5 -> inception_4a/5x5
I0403 15:06:04.119879 31132 net.cpp:141] Setting up inception_4a/5x5
I0403 15:06:04.119906 31132 net.cpp:148] Top shape: 24 48 14 14 (225792)
I0403 15:06:04.119920 31132 net.cpp:156] Memory required for data: 874568736
I0403 15:06:04.119938 31132 layer_factory.hpp:77] Creating layer inception_4a/relu_5x5
I0403 15:06:04.119958 31132 net.cpp:91] Creating Layer inception_4a/relu_5x5
I0403 15:06:04.119974 31132 net.cpp:425] inception_4a/relu_5x5 <- inception_4a/5x5
I0403 15:06:04.119992 31132 net.cpp:386] inception_4a/relu_5x5 -> inception_4a/5x5 (in-place)
I0403 15:06:04.120172 31132 net.cpp:141] Setting up inception_4a/relu_5x5
I0403 15:06:04.120199 31132 net.cpp:148] Top shape: 24 48 14 14 (225792)
I0403 15:06:04.120214 31132 net.cpp:156] Memory required for data: 875471904
I0403 15:06:04.120229 31132 layer_factory.hpp:77] Creating layer inception_4a/pool
I0403 15:06:04.120245 31132 net.cpp:91] Creating Layer inception_4a/pool
I0403 15:06:04.120260 31132 net.cpp:425] inception_4a/pool <- pool3/3x3_s2_pool3/3x3_s2_0_split_3
I0403 15:06:04.120277 31132 net.cpp:399] inception_4a/pool -> inception_4a/pool
I0403 15:06:04.120337 31132 net.cpp:141] Setting up inception_4a/pool
I0403 15:06:04.120362 31132 net.cpp:148] Top shape: 24 480 14 14 (2257920)
I0403 15:06:04.120381 31132 net.cpp:156] Memory required for data: 884503584
I0403 15:06:04.120398 31132 layer_factory.hpp:77] Creating layer inception_4a/pool_proj
I0403 15:06:04.120426 31132 net.cpp:91] Creating Layer inception_4a/pool_proj
I0403 15:06:04.120451 31132 net.cpp:425] inception_4a/pool_proj <- inception_4a/pool
I0403 15:06:04.120487 31132 net.cpp:399] inception_4a/pool_proj -> inception_4a/pool_proj
I0403 15:06:04.121650 31132 net.cpp:141] Setting up inception_4a/pool_proj
I0403 15:06:04.121677 31132 net.cpp:148] Top shape: 24 64 14 14 (301056)
I0403 15:06:04.121708 31132 net.cpp:156] Memory required for data: 885707808
I0403 15:06:04.121726 31132 layer_factory.hpp:77] Creating layer inception_4a/relu_pool_proj
I0403 15:06:04.121749 31132 net.cpp:91] Creating Layer inception_4a/relu_pool_proj
I0403 15:06:04.121765 31132 net.cpp:425] inception_4a/relu_pool_proj <- inception_4a/pool_proj
I0403 15:06:04.121783 31132 net.cpp:386] inception_4a/relu_pool_proj -> inception_4a/pool_proj (in-place)
I0403 15:06:04.122097 31132 net.cpp:141] Setting up inception_4a/relu_pool_proj
I0403 15:06:04.122123 31132 net.cpp:148] Top shape: 24 64 14 14 (301056)
I0403 15:06:04.122138 31132 net.cpp:156] Memory required for data: 886912032
I0403 15:06:04.122153 31132 layer_factory.hpp:77] Creating layer inception_4a/output
I0403 15:06:04.122171 31132 net.cpp:91] Creating Layer inception_4a/output
I0403 15:06:04.122187 31132 net.cpp:425] inception_4a/output <- inception_4a/1x1
I0403 15:06:04.122203 31132 net.cpp:425] inception_4a/output <- inception_4a/3x3
I0403 15:06:04.122218 31132 net.cpp:425] inception_4a/output <- inception_4a/5x5
I0403 15:06:04.122234 31132 net.cpp:425] inception_4a/output <- inception_4a/pool_proj
I0403 15:06:04.122251 31132 net.cpp:399] inception_4a/output -> inception_4a/output
I0403 15:06:04.122294 31132 net.cpp:141] Setting up inception_4a/output
I0403 15:06:04.122316 31132 net.cpp:148] Top shape: 24 512 14 14 (2408448)
I0403 15:06:04.122330 31132 net.cpp:156] Memory required for data: 896545824
I0403 15:06:04.122345 31132 layer_factory.hpp:77] Creating layer inception_4a/output_inception_4a/output_0_split
I0403 15:06:04.122362 31132 net.cpp:91] Creating Layer inception_4a/output_inception_4a/output_0_split
I0403 15:06:04.122377 31132 net.cpp:425] inception_4a/output_inception_4a/output_0_split <- inception_4a/output
I0403 15:06:04.122396 31132 net.cpp:399] inception_4a/output_inception_4a/output_0_split -> inception_4a/output_inception_4a/output_0_split_0
I0403 15:06:04.122416 31132 net.cpp:399] inception_4a/output_inception_4a/output_0_split -> inception_4a/output_inception_4a/output_0_split_1
I0403 15:06:04.122436 31132 net.cpp:399] inception_4a/output_inception_4a/output_0_split -> inception_4a/output_inception_4a/output_0_split_2
I0403 15:06:04.122455 31132 net.cpp:399] inception_4a/output_inception_4a/output_0_split -> inception_4a/output_inception_4a/output_0_split_3
I0403 15:06:04.122473 31132 net.cpp:399] inception_4a/output_inception_4a/output_0_split -> inception_4a/output_inception_4a/output_0_split_4
I0403 15:06:04.122570 31132 net.cpp:141] Setting up inception_4a/output_inception_4a/output_0_split
I0403 15:06:04.122617 31132 net.cpp:148] Top shape: 24 512 14 14 (2408448)
I0403 15:06:04.122656 31132 net.cpp:148] Top shape: 24 512 14 14 (2408448)
I0403 15:06:04.122686 31132 net.cpp:148] Top shape: 24 512 14 14 (2408448)
I0403 15:06:04.122712 31132 net.cpp:148] Top shape: 24 512 14 14 (2408448)
I0403 15:06:04.122728 31132 net.cpp:148] Top shape: 24 512 14 14 (2408448)
I0403 15:06:04.122761 31132 net.cpp:156] Memory required for data: 944714784
I0403 15:06:04.122774 31132 layer_factory.hpp:77] Creating layer loss1/ave_pool
I0403 15:06:04.122792 31132 net.cpp:91] Creating Layer loss1/ave_pool
I0403 15:06:04.122807 31132 net.cpp:425] loss1/ave_pool <- inception_4a/output_inception_4a/output_0_split_0
I0403 15:06:04.122825 31132 net.cpp:399] loss1/ave_pool -> loss1/ave_pool
I0403 15:06:04.123031 31132 net.cpp:141] Setting up loss1/ave_pool
I0403 15:06:04.123082 31132 net.cpp:148] Top shape: 24 512 4 4 (196608)
I0403 15:06:04.123118 31132 net.cpp:156] Memory required for data: 945501216
I0403 15:06:04.123134 31132 layer_factory.hpp:77] Creating layer loss1/conv
I0403 15:06:04.123157 31132 net.cpp:91] Creating Layer loss1/conv
I0403 15:06:04.123172 31132 net.cpp:425] loss1/conv <- loss1/ave_pool
I0403 15:06:04.123217 31132 net.cpp:399] loss1/conv -> loss1/conv
I0403 15:06:04.124627 31132 net.cpp:141] Setting up loss1/conv
I0403 15:06:04.124660 31132 net.cpp:148] Top shape: 24 128 4 4 (49152)
I0403 15:06:04.124689 31132 net.cpp:156] Memory required for data: 945697824
I0403 15:06:04.124709 31132 layer_factory.hpp:77] Creating layer loss1/relu_conv
I0403 15:06:04.124727 31132 net.cpp:91] Creating Layer loss1/relu_conv
I0403 15:06:04.124743 31132 net.cpp:425] loss1/relu_conv <- loss1/conv
I0403 15:06:04.124763 31132 net.cpp:386] loss1/relu_conv -> loss1/conv (in-place)
I0403 15:06:04.125118 31132 net.cpp:141] Setting up loss1/relu_conv
I0403 15:06:04.125159 31132 net.cpp:148] Top shape: 24 128 4 4 (49152)
I0403 15:06:04.125192 31132 net.cpp:156] Memory required for data: 945894432
I0403 15:06:04.125208 31132 layer_factory.hpp:77] Creating layer loss1/fc
I0403 15:06:04.125249 31132 net.cpp:91] Creating Layer loss1/fc
I0403 15:06:04.125277 31132 net.cpp:425] loss1/fc <- loss1/conv
I0403 15:06:04.125298 31132 net.cpp:399] loss1/fc -> loss1/fc
I0403 15:06:04.142948 31132 net.cpp:141] Setting up loss1/fc
I0403 15:06:04.142983 31132 net.cpp:148] Top shape: 24 1024 (24576)
I0403 15:06:04.143000 31132 net.cpp:156] Memory required for data: 945992736
I0403 15:06:04.143018 31132 layer_factory.hpp:77] Creating layer loss1/relu_fc
I0403 15:06:04.143035 31132 net.cpp:91] Creating Layer loss1/relu_fc
I0403 15:06:04.143051 31132 net.cpp:425] loss1/relu_fc <- loss1/fc
I0403 15:06:04.143069 31132 net.cpp:386] loss1/relu_fc -> loss1/fc (in-place)
I0403 15:06:04.143251 31132 net.cpp:141] Setting up loss1/relu_fc
I0403 15:06:04.143276 31132 net.cpp:148] Top shape: 24 1024 (24576)
I0403 15:06:04.143291 31132 net.cpp:156] Memory required for data: 946091040
I0403 15:06:04.143306 31132 layer_factory.hpp:77] Creating layer loss1/drop_fc
I0403 15:06:04.143332 31132 net.cpp:91] Creating Layer loss1/drop_fc
I0403 15:06:04.143347 31132 net.cpp:425] loss1/drop_fc <- loss1/fc
I0403 15:06:04.143364 31132 net.cpp:386] loss1/drop_fc -> loss1/fc (in-place)
I0403 15:06:04.143419 31132 net.cpp:141] Setting up loss1/drop_fc
I0403 15:06:04.143440 31132 net.cpp:148] Top shape: 24 1024 (24576)
I0403 15:06:04.143455 31132 net.cpp:156] Memory required for data: 946189344
I0403 15:06:04.143470 31132 layer_factory.hpp:77] Creating layer loss1/classifier_plantvillage
I0403 15:06:04.143489 31132 net.cpp:91] Creating Layer loss1/classifier_plantvillage
I0403 15:06:04.143507 31132 net.cpp:425] loss1/classifier_plantvillage <- loss1/fc
I0403 15:06:04.143524 31132 net.cpp:399] loss1/classifier_plantvillage -> loss1/classifier_plantvillage
I0403 15:06:04.144487 31132 net.cpp:141] Setting up loss1/classifier_plantvillage
I0403 15:06:04.144516 31132 net.cpp:148] Top shape: 24 38 (912)
I0403 15:06:04.144531 31132 net.cpp:156] Memory required for data: 946192992
I0403 15:06:04.144562 31132 layer_factory.hpp:77] Creating layer loss1/classifier_plantvillage_loss1/classifier_plantvillage_0_split
I0403 15:06:04.144580 31132 net.cpp:91] Creating Layer loss1/classifier_plantvillage_loss1/classifier_plantvillage_0_split
I0403 15:06:04.144595 31132 net.cpp:425] loss1/classifier_plantvillage_loss1/classifier_plantvillage_0_split <- loss1/classifier_plantvillage
I0403 15:06:04.144611 31132 net.cpp:399] loss1/classifier_plantvillage_loss1/classifier_plantvillage_0_split -> loss1/classifier_plantvillage_loss1/classifier_plantvillage_0_split_0
I0403 15:06:04.144630 31132 net.cpp:399] loss1/classifier_plantvillage_loss1/classifier_plantvillage_0_split -> loss1/classifier_plantvillage_loss1/classifier_plantvillage_0_split_1
I0403 15:06:04.144652 31132 net.cpp:399] loss1/classifier_plantvillage_loss1/classifier_plantvillage_0_split -> loss1/classifier_plantvillage_loss1/classifier_plantvillage_0_split_2
I0403 15:06:04.144718 31132 net.cpp:141] Setting up loss1/classifier_plantvillage_loss1/classifier_plantvillage_0_split
I0403 15:06:04.144740 31132 net.cpp:148] Top shape: 24 38 (912)
I0403 15:06:04.144755 31132 net.cpp:148] Top shape: 24 38 (912)
I0403 15:06:04.144770 31132 net.cpp:148] Top shape: 24 38 (912)
I0403 15:06:04.144783 31132 net.cpp:156] Memory required for data: 946203936
I0403 15:06:04.144798 31132 layer_factory.hpp:77] Creating layer inception_4b/1x1
I0403 15:06:04.144816 31132 net.cpp:91] Creating Layer inception_4b/1x1
I0403 15:06:04.144847 31132 net.cpp:425] inception_4b/1x1 <- inception_4a/output_inception_4a/output_0_split_1
I0403 15:06:04.144868 31132 net.cpp:399] inception_4b/1x1 -> inception_4b/1x1
I0403 15:06:04.146473 31132 net.cpp:141] Setting up inception_4b/1x1
I0403 15:06:04.146504 31132 net.cpp:148] Top shape: 24 160 14 14 (752640)
I0403 15:06:04.146519 31132 net.cpp:156] Memory required for data: 949214496
I0403 15:06:04.146541 31132 layer_factory.hpp:77] Creating layer inception_4b/relu_1x1
I0403 15:06:04.146569 31132 net.cpp:91] Creating Layer inception_4b/relu_1x1
I0403 15:06:04.146585 31132 net.cpp:425] inception_4b/relu_1x1 <- inception_4b/1x1
I0403 15:06:04.146605 31132 net.cpp:386] inception_4b/relu_1x1 -> inception_4b/1x1 (in-place)
I0403 15:06:04.146785 31132 net.cpp:141] Setting up inception_4b/relu_1x1
I0403 15:06:04.146808 31132 net.cpp:148] Top shape: 24 160 14 14 (752640)
I0403 15:06:04.146822 31132 net.cpp:156] Memory required for data: 952225056
I0403 15:06:04.146837 31132 layer_factory.hpp:77] Creating layer inception_4b/3x3_reduce
I0403 15:06:04.146859 31132 net.cpp:91] Creating Layer inception_4b/3x3_reduce
I0403 15:06:04.146877 31132 net.cpp:425] inception_4b/3x3_reduce <- inception_4a/output_inception_4a/output_0_split_2
I0403 15:06:04.146898 31132 net.cpp:399] inception_4b/3x3_reduce -> inception_4b/3x3_reduce
I0403 15:06:04.148218 31132 net.cpp:141] Setting up inception_4b/3x3_reduce
I0403 15:06:04.148244 31132 net.cpp:148] Top shape: 24 112 14 14 (526848)
I0403 15:06:04.148259 31132 net.cpp:156] Memory required for data: 954332448
I0403 15:06:04.148277 31132 layer_factory.hpp:77] Creating layer inception_4b/relu_3x3_reduce
I0403 15:06:04.148296 31132 net.cpp:91] Creating Layer inception_4b/relu_3x3_reduce
I0403 15:06:04.148313 31132 net.cpp:425] inception_4b/relu_3x3_reduce <- inception_4b/3x3_reduce
I0403 15:06:04.148329 31132 net.cpp:386] inception_4b/relu_3x3_reduce -> inception_4b/3x3_reduce (in-place)
I0403 15:06:04.148613 31132 net.cpp:141] Setting up inception_4b/relu_3x3_reduce
I0403 15:06:04.148638 31132 net.cpp:148] Top shape: 24 112 14 14 (526848)
I0403 15:06:04.148653 31132 net.cpp:156] Memory required for data: 956439840
I0403 15:06:04.148668 31132 layer_factory.hpp:77] Creating layer inception_4b/3x3
I0403 15:06:04.148689 31132 net.cpp:91] Creating Layer inception_4b/3x3
I0403 15:06:04.148705 31132 net.cpp:425] inception_4b/3x3 <- inception_4b/3x3_reduce
I0403 15:06:04.148725 31132 net.cpp:399] inception_4b/3x3 -> inception_4b/3x3
I0403 15:06:04.151624 31132 net.cpp:141] Setting up inception_4b/3x3
I0403 15:06:04.151653 31132 net.cpp:148] Top shape: 24 224 14 14 (1053696)
I0403 15:06:04.151667 31132 net.cpp:156] Memory required for data: 960654624
I0403 15:06:04.151685 31132 layer_factory.hpp:77] Creating layer inception_4b/relu_3x3
I0403 15:06:04.151705 31132 net.cpp:91] Creating Layer inception_4b/relu_3x3
I0403 15:06:04.151721 31132 net.cpp:425] inception_4b/relu_3x3 <- inception_4b/3x3
I0403 15:06:04.151738 31132 net.cpp:386] inception_4b/relu_3x3 -> inception_4b/3x3 (in-place)
I0403 15:06:04.151917 31132 net.cpp:141] Setting up inception_4b/relu_3x3
I0403 15:06:04.151943 31132 net.cpp:148] Top shape: 24 224 14 14 (1053696)
I0403 15:06:04.151958 31132 net.cpp:156] Memory required for data: 964869408
I0403 15:06:04.151973 31132 layer_factory.hpp:77] Creating layer inception_4b/5x5_reduce
I0403 15:06:04.151993 31132 net.cpp:91] Creating Layer inception_4b/5x5_reduce
I0403 15:06:04.152010 31132 net.cpp:425] inception_4b/5x5_reduce <- inception_4a/output_inception_4a/output_0_split_3
I0403 15:06:04.152029 31132 net.cpp:399] inception_4b/5x5_reduce -> inception_4b/5x5_reduce
I0403 15:06:04.153111 31132 net.cpp:141] Setting up inception_4b/5x5_reduce
I0403 15:06:04.153138 31132 net.cpp:148] Top shape: 24 24 14 14 (112896)
I0403 15:06:04.153152 31132 net.cpp:156] Memory required for data: 965320992
I0403 15:06:04.153170 31132 layer_factory.hpp:77] Creating layer inception_4b/relu_5x5_reduce
I0403 15:06:04.153187 31132 net.cpp:91] Creating Layer inception_4b/relu_5x5_reduce
I0403 15:06:04.153216 31132 net.cpp:425] inception_4b/relu_5x5_reduce <- inception_4b/5x5_reduce
I0403 15:06:04.153237 31132 net.cpp:386] inception_4b/relu_5x5_reduce -> inception_4b/5x5_reduce (in-place)
I0403 15:06:04.153419 31132 net.cpp:141] Setting up inception_4b/relu_5x5_reduce
I0403 15:06:04.153444 31132 net.cpp:148] Top shape: 24 24 14 14 (112896)
I0403 15:06:04.153456 31132 net.cpp:156] Memory required for data: 965772576
I0403 15:06:04.153470 31132 layer_factory.hpp:77] Creating layer inception_4b/5x5
I0403 15:06:04.153491 31132 net.cpp:91] Creating Layer inception_4b/5x5
I0403 15:06:04.153508 31132 net.cpp:425] inception_4b/5x5 <- inception_4b/5x5_reduce
I0403 15:06:04.153529 31132 net.cpp:399] inception_4b/5x5 -> inception_4b/5x5
I0403 15:06:04.154745 31132 net.cpp:141] Setting up inception_4b/5x5
I0403 15:06:04.154773 31132 net.cpp:148] Top shape: 24 64 14 14 (301056)
I0403 15:06:04.154788 31132 net.cpp:156] Memory required for data: 966976800
I0403 15:06:04.154806 31132 layer_factory.hpp:77] Creating layer inception_4b/relu_5x5
I0403 15:06:04.154824 31132 net.cpp:91] Creating Layer inception_4b/relu_5x5
I0403 15:06:04.154839 31132 net.cpp:425] inception_4b/relu_5x5 <- inception_4b/5x5
I0403 15:06:04.154858 31132 net.cpp:386] inception_4b/relu_5x5 -> inception_4b/5x5 (in-place)
I0403 15:06:04.155136 31132 net.cpp:141] Setting up inception_4b/relu_5x5
I0403 15:06:04.155164 31132 net.cpp:148] Top shape: 24 64 14 14 (301056)
I0403 15:06:04.155177 31132 net.cpp:156] Memory required for data: 968181024
I0403 15:06:04.155192 31132 layer_factory.hpp:77] Creating layer inception_4b/pool
I0403 15:06:04.155210 31132 net.cpp:91] Creating Layer inception_4b/pool
I0403 15:06:04.155225 31132 net.cpp:425] inception_4b/pool <- inception_4a/output_inception_4a/output_0_split_4
I0403 15:06:04.155244 31132 net.cpp:399] inception_4b/pool -> inception_4b/pool
I0403 15:06:04.155306 31132 net.cpp:141] Setting up inception_4b/pool
I0403 15:06:04.155329 31132 net.cpp:148] Top shape: 24 512 14 14 (2408448)
I0403 15:06:04.155344 31132 net.cpp:156] Memory required for data: 977814816
I0403 15:06:04.155357 31132 layer_factory.hpp:77] Creating layer inception_4b/pool_proj
I0403 15:06:04.155380 31132 net.cpp:91] Creating Layer inception_4b/pool_proj
I0403 15:06:04.155396 31132 net.cpp:425] inception_4b/pool_proj <- inception_4b/pool
I0403 15:06:04.155414 31132 net.cpp:399] inception_4b/pool_proj -> inception_4b/pool_proj
I0403 15:06:04.156600 31132 net.cpp:141] Setting up inception_4b/pool_proj
I0403 15:06:04.156627 31132 net.cpp:148] Top shape: 24 64 14 14 (301056)
I0403 15:06:04.156646 31132 net.cpp:156] Memory required for data: 979019040
I0403 15:06:04.156663 31132 layer_factory.hpp:77] Creating layer inception_4b/relu_pool_proj
I0403 15:06:04.156680 31132 net.cpp:91] Creating Layer inception_4b/relu_pool_proj
I0403 15:06:04.156695 31132 net.cpp:425] inception_4b/relu_pool_proj <- inception_4b/pool_proj
I0403 15:06:04.156718 31132 net.cpp:386] inception_4b/relu_pool_proj -> inception_4b/pool_proj (in-place)
I0403 15:06:04.156898 31132 net.cpp:141] Setting up inception_4b/relu_pool_proj
I0403 15:06:04.156922 31132 net.cpp:148] Top shape: 24 64 14 14 (301056)
I0403 15:06:04.156941 31132 net.cpp:156] Memory required for data: 980223264
I0403 15:06:04.156955 31132 layer_factory.hpp:77] Creating layer inception_4b/output
I0403 15:06:04.156975 31132 net.cpp:91] Creating Layer inception_4b/output
I0403 15:06:04.156990 31132 net.cpp:425] inception_4b/output <- inception_4b/1x1
I0403 15:06:04.157006 31132 net.cpp:425] inception_4b/output <- inception_4b/3x3
I0403 15:06:04.157021 31132 net.cpp:425] inception_4b/output <- inception_4b/5x5
I0403 15:06:04.157035 31132 net.cpp:425] inception_4b/output <- inception_4b/pool_proj
I0403 15:06:04.157052 31132 net.cpp:399] inception_4b/output -> inception_4b/output
I0403 15:06:04.157094 31132 net.cpp:141] Setting up inception_4b/output
I0403 15:06:04.157119 31132 net.cpp:148] Top shape: 24 512 14 14 (2408448)
I0403 15:06:04.157133 31132 net.cpp:156] Memory required for data: 989857056
I0403 15:06:04.157161 31132 layer_factory.hpp:77] Creating layer inception_4b/output_inception_4b/output_0_split
I0403 15:06:04.157179 31132 net.cpp:91] Creating Layer inception_4b/output_inception_4b/output_0_split
I0403 15:06:04.157193 31132 net.cpp:425] inception_4b/output_inception_4b/output_0_split <- inception_4b/output
I0403 15:06:04.157212 31132 net.cpp:399] inception_4b/output_inception_4b/output_0_split -> inception_4b/output_inception_4b/output_0_split_0
I0403 15:06:04.157232 31132 net.cpp:399] inception_4b/output_inception_4b/output_0_split -> inception_4b/output_inception_4b/output_0_split_1
I0403 15:06:04.157250 31132 net.cpp:399] inception_4b/output_inception_4b/output_0_split -> inception_4b/output_inception_4b/output_0_split_2
I0403 15:06:04.157269 31132 net.cpp:399] inception_4b/output_inception_4b/output_0_split -> inception_4b/output_inception_4b/output_0_split_3
I0403 15:06:04.157347 31132 net.cpp:141] Setting up inception_4b/output_inception_4b/output_0_split
I0403 15:06:04.157371 31132 net.cpp:148] Top shape: 24 512 14 14 (2408448)
I0403 15:06:04.157387 31132 net.cpp:148] Top shape: 24 512 14 14 (2408448)
I0403 15:06:04.157402 31132 net.cpp:148] Top shape: 24 512 14 14 (2408448)
I0403 15:06:04.157416 31132 net.cpp:148] Top shape: 24 512 14 14 (2408448)
I0403 15:06:04.157429 31132 net.cpp:156] Memory required for data: 1028392224
I0403 15:06:04.157444 31132 layer_factory.hpp:77] Creating layer inception_4c/1x1
I0403 15:06:04.157466 31132 net.cpp:91] Creating Layer inception_4c/1x1
I0403 15:06:04.157483 31132 net.cpp:425] inception_4c/1x1 <- inception_4b/output_inception_4b/output_0_split_0
I0403 15:06:04.157501 31132 net.cpp:399] inception_4c/1x1 -> inception_4c/1x1
I0403 15:06:04.158903 31132 net.cpp:141] Setting up inception_4c/1x1
I0403 15:06:04.158957 31132 net.cpp:148] Top shape: 24 128 14 14 (602112)
I0403 15:06:04.158974 31132 net.cpp:156] Memory required for data: 1030800672
I0403 15:06:04.158993 31132 layer_factory.hpp:77] Creating layer inception_4c/relu_1x1
I0403 15:06:04.159039 31132 net.cpp:91] Creating Layer inception_4c/relu_1x1
I0403 15:06:04.159082 31132 net.cpp:425] inception_4c/relu_1x1 <- inception_4c/1x1
I0403 15:06:04.159126 31132 net.cpp:386] inception_4c/relu_1x1 -> inception_4c/1x1 (in-place)
I0403 15:06:04.159332 31132 net.cpp:141] Setting up inception_4c/relu_1x1
I0403 15:06:04.159358 31132 net.cpp:148] Top shape: 24 128 14 14 (602112)
I0403 15:06:04.159373 31132 net.cpp:156] Memory required for data: 1033209120
I0403 15:06:04.159389 31132 layer_factory.hpp:77] Creating layer inception_4c/3x3_reduce
I0403 15:06:04.159409 31132 net.cpp:91] Creating Layer inception_4c/3x3_reduce
I0403 15:06:04.159426 31132 net.cpp:425] inception_4c/3x3_reduce <- inception_4b/output_inception_4b/output_0_split_1
I0403 15:06:04.159445 31132 net.cpp:399] inception_4c/3x3_reduce -> inception_4c/3x3_reduce
I0403 15:06:04.161348 31132 net.cpp:141] Setting up inception_4c/3x3_reduce
I0403 15:06:04.161378 31132 net.cpp:148] Top shape: 24 128 14 14 (602112)
I0403 15:06:04.161394 31132 net.cpp:156] Memory required for data: 1035617568
I0403 15:06:04.161412 31132 layer_factory.hpp:77] Creating layer inception_4c/relu_3x3_reduce
I0403 15:06:04.161429 31132 net.cpp:91] Creating Layer inception_4c/relu_3x3_reduce
I0403 15:06:04.161444 31132 net.cpp:425] inception_4c/relu_3x3_reduce <- inception_4c/3x3_reduce
I0403 15:06:04.161463 31132 net.cpp:386] inception_4c/relu_3x3_reduce -> inception_4c/3x3_reduce (in-place)
I0403 15:06:04.161752 31132 net.cpp:141] Setting up inception_4c/relu_3x3_reduce
I0403 15:06:04.161780 31132 net.cpp:148] Top shape: 24 128 14 14 (602112)
I0403 15:06:04.161795 31132 net.cpp:156] Memory required for data: 1038026016
I0403 15:06:04.161809 31132 layer_factory.hpp:77] Creating layer inception_4c/3x3
I0403 15:06:04.161833 31132 net.cpp:91] Creating Layer inception_4c/3x3
I0403 15:06:04.161849 31132 net.cpp:425] inception_4c/3x3 <- inception_4c/3x3_reduce
I0403 15:06:04.161869 31132 net.cpp:399] inception_4c/3x3 -> inception_4c/3x3
I0403 15:06:04.165434 31132 net.cpp:141] Setting up inception_4c/3x3
I0403 15:06:04.165477 31132 net.cpp:148] Top shape: 24 256 14 14 (1204224)
I0403 15:06:04.165494 31132 net.cpp:156] Memory required for data: 1042842912
I0403 15:06:04.165526 31132 layer_factory.hpp:77] Creating layer inception_4c/relu_3x3
I0403 15:06:04.165552 31132 net.cpp:91] Creating Layer inception_4c/relu_3x3
I0403 15:06:04.165571 31132 net.cpp:425] inception_4c/relu_3x3 <- inception_4c/3x3
I0403 15:06:04.165591 31132 net.cpp:386] inception_4c/relu_3x3 -> inception_4c/3x3 (in-place)
I0403 15:06:04.165774 31132 net.cpp:141] Setting up inception_4c/relu_3x3
I0403 15:06:04.165798 31132 net.cpp:148] Top shape: 24 256 14 14 (1204224)
I0403 15:06:04.165813 31132 net.cpp:156] Memory required for data: 1047659808
I0403 15:06:04.165827 31132 layer_factory.hpp:77] Creating layer inception_4c/5x5_reduce
I0403 15:06:04.165850 31132 net.cpp:91] Creating Layer inception_4c/5x5_reduce
I0403 15:06:04.165866 31132 net.cpp:425] inception_4c/5x5_reduce <- inception_4b/output_inception_4b/output_0_split_2
I0403 15:06:04.165887 31132 net.cpp:399] inception_4c/5x5_reduce -> inception_4c/5x5_reduce
I0403 15:06:04.166954 31132 net.cpp:141] Setting up inception_4c/5x5_reduce
I0403 15:06:04.166982 31132 net.cpp:148] Top shape: 24 24 14 14 (112896)
I0403 15:06:04.166998 31132 net.cpp:156] Memory required for data: 1048111392
I0403 15:06:04.167016 31132 layer_factory.hpp:77] Creating layer inception_4c/relu_5x5_reduce
I0403 15:06:04.167033 31132 net.cpp:91] Creating Layer inception_4c/relu_5x5_reduce
I0403 15:06:04.167049 31132 net.cpp:425] inception_4c/relu_5x5_reduce <- inception_4c/5x5_reduce
I0403 15:06:04.167068 31132 net.cpp:386] inception_4c/relu_5x5_reduce -> inception_4c/5x5_reduce (in-place)
I0403 15:06:04.167254 31132 net.cpp:141] Setting up inception_4c/relu_5x5_reduce
I0403 15:06:04.167279 31132 net.cpp:148] Top shape: 24 24 14 14 (112896)
I0403 15:06:04.167292 31132 net.cpp:156] Memory required for data: 1048562976
I0403 15:06:04.167306 31132 layer_factory.hpp:77] Creating layer inception_4c/5x5
I0403 15:06:04.167327 31132 net.cpp:91] Creating Layer inception_4c/5x5
I0403 15:06:04.167345 31132 net.cpp:425] inception_4c/5x5 <- inception_4c/5x5_reduce
I0403 15:06:04.167364 31132 net.cpp:399] inception_4c/5x5 -> inception_4c/5x5
I0403 15:06:04.168596 31132 net.cpp:141] Setting up inception_4c/5x5
I0403 15:06:04.168623 31132 net.cpp:148] Top shape: 24 64 14 14 (301056)
I0403 15:06:04.168637 31132 net.cpp:156] Memory required for data: 1049767200
I0403 15:06:04.168655 31132 layer_factory.hpp:77] Creating layer inception_4c/relu_5x5
I0403 15:06:04.168675 31132 net.cpp:91] Creating Layer inception_4c/relu_5x5
I0403 15:06:04.168691 31132 net.cpp:425] inception_4c/relu_5x5 <- inception_4c/5x5
I0403 15:06:04.168709 31132 net.cpp:386] inception_4c/relu_5x5 -> inception_4c/5x5 (in-place)
I0403 15:06:04.168994 31132 net.cpp:141] Setting up inception_4c/relu_5x5
I0403 15:06:04.169019 31132 net.cpp:148] Top shape: 24 64 14 14 (301056)
I0403 15:06:04.169035 31132 net.cpp:156] Memory required for data: 1050971424
I0403 15:06:04.169050 31132 layer_factory.hpp:77] Creating layer inception_4c/pool
I0403 15:06:04.169070 31132 net.cpp:91] Creating Layer inception_4c/pool
I0403 15:06:04.169095 31132 net.cpp:425] inception_4c/pool <- inception_4b/output_inception_4b/output_0_split_3
I0403 15:06:04.169142 31132 net.cpp:399] inception_4c/pool -> inception_4c/pool
I0403 15:06:04.169226 31132 net.cpp:141] Setting up inception_4c/pool
I0403 15:06:04.169265 31132 net.cpp:148] Top shape: 24 512 14 14 (2408448)
I0403 15:06:04.169281 31132 net.cpp:156] Memory required for data: 1060605216
I0403 15:06:04.169319 31132 layer_factory.hpp:77] Creating layer inception_4c/pool_proj
I0403 15:06:04.169340 31132 net.cpp:91] Creating Layer inception_4c/pool_proj
I0403 15:06:04.169358 31132 net.cpp:425] inception_4c/pool_proj <- inception_4c/pool
I0403 15:06:04.169378 31132 net.cpp:399] inception_4c/pool_proj -> inception_4c/pool_proj
I0403 15:06:04.170586 31132 net.cpp:141] Setting up inception_4c/pool_proj
I0403 15:06:04.170614 31132 net.cpp:148] Top shape: 24 64 14 14 (301056)
I0403 15:06:04.170642 31132 net.cpp:156] Memory required for data: 1061809440
I0403 15:06:04.170660 31132 layer_factory.hpp:77] Creating layer inception_4c/relu_pool_proj
I0403 15:06:04.170678 31132 net.cpp:91] Creating Layer inception_4c/relu_pool_proj
I0403 15:06:04.170693 31132 net.cpp:425] inception_4c/relu_pool_proj <- inception_4c/pool_proj
I0403 15:06:04.170712 31132 net.cpp:386] inception_4c/relu_pool_proj -> inception_4c/pool_proj (in-place)
I0403 15:06:04.170897 31132 net.cpp:141] Setting up inception_4c/relu_pool_proj
I0403 15:06:04.170928 31132 net.cpp:148] Top shape: 24 64 14 14 (301056)
I0403 15:06:04.170951 31132 net.cpp:156] Memory required for data: 1063013664
I0403 15:06:04.170969 31132 layer_factory.hpp:77] Creating layer inception_4c/output
I0403 15:06:04.171003 31132 net.cpp:91] Creating Layer inception_4c/output
I0403 15:06:04.171049 31132 net.cpp:425] inception_4c/output <- inception_4c/1x1
I0403 15:06:04.171066 31132 net.cpp:425] inception_4c/output <- inception_4c/3x3
I0403 15:06:04.171080 31132 net.cpp:425] inception_4c/output <- inception_4c/5x5
I0403 15:06:04.171097 31132 net.cpp:425] inception_4c/output <- inception_4c/pool_proj
I0403 15:06:04.171113 31132 net.cpp:399] inception_4c/output -> inception_4c/output
I0403 15:06:04.171156 31132 net.cpp:141] Setting up inception_4c/output
I0403 15:06:04.171180 31132 net.cpp:148] Top shape: 24 512 14 14 (2408448)
I0403 15:06:04.171195 31132 net.cpp:156] Memory required for data: 1072647456
I0403 15:06:04.171211 31132 layer_factory.hpp:77] Creating layer inception_4c/output_inception_4c/output_0_split
I0403 15:06:04.171226 31132 net.cpp:91] Creating Layer inception_4c/output_inception_4c/output_0_split
I0403 15:06:04.171241 31132 net.cpp:425] inception_4c/output_inception_4c/output_0_split <- inception_4c/output
I0403 15:06:04.171260 31132 net.cpp:399] inception_4c/output_inception_4c/output_0_split -> inception_4c/output_inception_4c/output_0_split_0
I0403 15:06:04.171279 31132 net.cpp:399] inception_4c/output_inception_4c/output_0_split -> inception_4c/output_inception_4c/output_0_split_1
I0403 15:06:04.171300 31132 net.cpp:399] inception_4c/output_inception_4c/output_0_split -> inception_4c/output_inception_4c/output_0_split_2
I0403 15:06:04.171319 31132 net.cpp:399] inception_4c/output_inception_4c/output_0_split -> inception_4c/output_inception_4c/output_0_split_3
I0403 15:06:04.171401 31132 net.cpp:141] Setting up inception_4c/output_inception_4c/output_0_split
I0403 15:06:04.171428 31132 net.cpp:148] Top shape: 24 512 14 14 (2408448)
I0403 15:06:04.171450 31132 net.cpp:148] Top shape: 24 512 14 14 (2408448)
I0403 15:06:04.171466 31132 net.cpp:148] Top shape: 24 512 14 14 (2408448)
I0403 15:06:04.171514 31132 net.cpp:148] Top shape: 24 512 14 14 (2408448)
I0403 15:06:04.171528 31132 net.cpp:156] Memory required for data: 1111182624
I0403 15:06:04.171546 31132 layer_factory.hpp:77] Creating layer inception_4d/1x1
I0403 15:06:04.171568 31132 net.cpp:91] Creating Layer inception_4d/1x1
I0403 15:06:04.171610 31132 net.cpp:425] inception_4d/1x1 <- inception_4c/output_inception_4c/output_0_split_0
I0403 15:06:04.171649 31132 net.cpp:399] inception_4d/1x1 -> inception_4d/1x1
I0403 15:06:04.173081 31132 net.cpp:141] Setting up inception_4d/1x1
I0403 15:06:04.173118 31132 net.cpp:148] Top shape: 24 112 14 14 (526848)
I0403 15:06:04.173140 31132 net.cpp:156] Memory required for data: 1113290016
I0403 15:06:04.173166 31132 layer_factory.hpp:77] Creating layer inception_4d/relu_1x1
I0403 15:06:04.173207 31132 net.cpp:91] Creating Layer inception_4d/relu_1x1
I0403 15:06:04.173244 31132 net.cpp:425] inception_4d/relu_1x1 <- inception_4d/1x1
I0403 15:06:04.173285 31132 net.cpp:386] inception_4d/relu_1x1 -> inception_4d/1x1 (in-place)
I0403 15:06:04.173473 31132 net.cpp:141] Setting up inception_4d/relu_1x1
I0403 15:06:04.173501 31132 net.cpp:148] Top shape: 24 112 14 14 (526848)
I0403 15:06:04.173524 31132 net.cpp:156] Memory required for data: 1115397408
I0403 15:06:04.173573 31132 layer_factory.hpp:77] Creating layer inception_4d/3x3_reduce
I0403 15:06:04.173626 31132 net.cpp:91] Creating Layer inception_4d/3x3_reduce
I0403 15:06:04.173666 31132 net.cpp:425] inception_4d/3x3_reduce <- inception_4c/output_inception_4c/output_0_split_1
I0403 15:06:04.173712 31132 net.cpp:399] inception_4d/3x3_reduce -> inception_4d/3x3_reduce
I0403 15:06:04.175225 31132 net.cpp:141] Setting up inception_4d/3x3_reduce
I0403 15:06:04.175252 31132 net.cpp:148] Top shape: 24 144 14 14 (677376)
I0403 15:06:04.175266 31132 net.cpp:156] Memory required for data: 1118106912
I0403 15:06:04.175284 31132 layer_factory.hpp:77] Creating layer inception_4d/relu_3x3_reduce
I0403 15:06:04.175304 31132 net.cpp:91] Creating Layer inception_4d/relu_3x3_reduce
I0403 15:06:04.175321 31132 net.cpp:425] inception_4d/relu_3x3_reduce <- inception_4d/3x3_reduce
I0403 15:06:04.175338 31132 net.cpp:386] inception_4d/relu_3x3_reduce -> inception_4d/3x3_reduce (in-place)
I0403 15:06:04.175680 31132 net.cpp:141] Setting up inception_4d/relu_3x3_reduce
I0403 15:06:04.175706 31132 net.cpp:148] Top shape: 24 144 14 14 (677376)
I0403 15:06:04.175720 31132 net.cpp:156] Memory required for data: 1120816416
I0403 15:06:04.175735 31132 layer_factory.hpp:77] Creating layer inception_4d/3x3
I0403 15:06:04.175756 31132 net.cpp:91] Creating Layer inception_4d/3x3
I0403 15:06:04.175775 31132 net.cpp:425] inception_4d/3x3 <- inception_4d/3x3_reduce
I0403 15:06:04.175794 31132 net.cpp:399] inception_4d/3x3 -> inception_4d/3x3
I0403 15:06:04.179951 31132 net.cpp:141] Setting up inception_4d/3x3
I0403 15:06:04.179980 31132 net.cpp:148] Top shape: 24 288 14 14 (1354752)
I0403 15:06:04.179996 31132 net.cpp:156] Memory required for data: 1126235424
I0403 15:06:04.180016 31132 layer_factory.hpp:77] Creating layer inception_4d/relu_3x3
I0403 15:06:04.180033 31132 net.cpp:91] Creating Layer inception_4d/relu_3x3
I0403 15:06:04.180049 31132 net.cpp:425] inception_4d/relu_3x3 <- inception_4d/3x3
I0403 15:06:04.180065 31132 net.cpp:386] inception_4d/relu_3x3 -> inception_4d/3x3 (in-place)
I0403 15:06:04.180249 31132 net.cpp:141] Setting up inception_4d/relu_3x3
I0403 15:06:04.180274 31132 net.cpp:148] Top shape: 24 288 14 14 (1354752)
I0403 15:06:04.180287 31132 net.cpp:156] Memory required for data: 1131654432
I0403 15:06:04.180302 31132 layer_factory.hpp:77] Creating layer inception_4d/5x5_reduce
I0403 15:06:04.180323 31132 net.cpp:91] Creating Layer inception_4d/5x5_reduce
I0403 15:06:04.180341 31132 net.cpp:425] inception_4d/5x5_reduce <- inception_4c/output_inception_4c/output_0_split_2
I0403 15:06:04.180362 31132 net.cpp:399] inception_4d/5x5_reduce -> inception_4d/5x5_reduce
I0403 15:06:04.181488 31132 net.cpp:141] Setting up inception_4d/5x5_reduce
I0403 15:06:04.181519 31132 net.cpp:148] Top shape: 24 32 14 14 (150528)
I0403 15:06:04.181537 31132 net.cpp:156] Memory required for data: 1132256544
I0403 15:06:04.181555 31132 layer_factory.hpp:77] Creating layer inception_4d/relu_5x5_reduce
I0403 15:06:04.181574 31132 net.cpp:91] Creating Layer inception_4d/relu_5x5_reduce
I0403 15:06:04.181591 31132 net.cpp:425] inception_4d/relu_5x5_reduce <- inception_4d/5x5_reduce
I0403 15:06:04.181607 31132 net.cpp:386] inception_4d/relu_5x5_reduce -> inception_4d/5x5_reduce (in-place)
I0403 15:06:04.181797 31132 net.cpp:141] Setting up inception_4d/relu_5x5_reduce
I0403 15:06:04.181820 31132 net.cpp:148] Top shape: 24 32 14 14 (150528)
I0403 15:06:04.181834 31132 net.cpp:156] Memory required for data: 1132858656
I0403 15:06:04.181849 31132 layer_factory.hpp:77] Creating layer inception_4d/5x5
I0403 15:06:04.181871 31132 net.cpp:91] Creating Layer inception_4d/5x5
I0403 15:06:04.181888 31132 net.cpp:425] inception_4d/5x5 <- inception_4d/5x5_reduce
I0403 15:06:04.181908 31132 net.cpp:399] inception_4d/5x5 -> inception_4d/5x5
I0403 15:06:04.183364 31132 net.cpp:141] Setting up inception_4d/5x5
I0403 15:06:04.183392 31132 net.cpp:148] Top shape: 24 64 14 14 (301056)
I0403 15:06:04.183406 31132 net.cpp:156] Memory required for data: 1134062880
I0403 15:06:04.183424 31132 layer_factory.hpp:77] Creating layer inception_4d/relu_5x5
I0403 15:06:04.183461 31132 net.cpp:91] Creating Layer inception_4d/relu_5x5
I0403 15:06:04.183478 31132 net.cpp:425] inception_4d/relu_5x5 <- inception_4d/5x5
I0403 15:06:04.183495 31132 net.cpp:386] inception_4d/relu_5x5 -> inception_4d/5x5 (in-place)
I0403 15:06:04.183799 31132 net.cpp:141] Setting up inception_4d/relu_5x5
I0403 15:06:04.183823 31132 net.cpp:148] Top shape: 24 64 14 14 (301056)
I0403 15:06:04.183838 31132 net.cpp:156] Memory required for data: 1135267104
I0403 15:06:04.183852 31132 layer_factory.hpp:77] Creating layer inception_4d/pool
I0403 15:06:04.183869 31132 net.cpp:91] Creating Layer inception_4d/pool
I0403 15:06:04.183884 31132 net.cpp:425] inception_4d/pool <- inception_4c/output_inception_4c/output_0_split_3
I0403 15:06:04.183903 31132 net.cpp:399] inception_4d/pool -> inception_4d/pool
I0403 15:06:04.183969 31132 net.cpp:141] Setting up inception_4d/pool
I0403 15:06:04.183993 31132 net.cpp:148] Top shape: 24 512 14 14 (2408448)
I0403 15:06:04.184008 31132 net.cpp:156] Memory required for data: 1144900896
I0403 15:06:04.184022 31132 layer_factory.hpp:77] Creating layer inception_4d/pool_proj
I0403 15:06:04.184043 31132 net.cpp:91] Creating Layer inception_4d/pool_proj
I0403 15:06:04.184061 31132 net.cpp:425] inception_4d/pool_proj <- inception_4d/pool
I0403 15:06:04.184078 31132 net.cpp:399] inception_4d/pool_proj -> inception_4d/pool_proj
I0403 15:06:04.185873 31132 net.cpp:141] Setting up inception_4d/pool_proj
I0403 15:06:04.185905 31132 net.cpp:148] Top shape: 24 64 14 14 (301056)
I0403 15:06:04.185921 31132 net.cpp:156] Memory required for data: 1146105120
I0403 15:06:04.185940 31132 layer_factory.hpp:77] Creating layer inception_4d/relu_pool_proj
I0403 15:06:04.185956 31132 net.cpp:91] Creating Layer inception_4d/relu_pool_proj
I0403 15:06:04.185981 31132 net.cpp:425] inception_4d/relu_pool_proj <- inception_4d/pool_proj
I0403 15:06:04.186007 31132 net.cpp:386] inception_4d/relu_pool_proj -> inception_4d/pool_proj (in-place)
I0403 15:06:04.186208 31132 net.cpp:141] Setting up inception_4d/relu_pool_proj
I0403 15:06:04.186233 31132 net.cpp:148] Top shape: 24 64 14 14 (301056)
I0403 15:06:04.186246 31132 net.cpp:156] Memory required for data: 1147309344
I0403 15:06:04.186261 31132 layer_factory.hpp:77] Creating layer inception_4d/output
I0403 15:06:04.186277 31132 net.cpp:91] Creating Layer inception_4d/output
I0403 15:06:04.186293 31132 net.cpp:425] inception_4d/output <- inception_4d/1x1
I0403 15:06:04.186310 31132 net.cpp:425] inception_4d/output <- inception_4d/3x3
I0403 15:06:04.186324 31132 net.cpp:425] inception_4d/output <- inception_4d/5x5
I0403 15:06:04.186339 31132 net.cpp:425] inception_4d/output <- inception_4d/pool_proj
I0403 15:06:04.186357 31132 net.cpp:399] inception_4d/output -> inception_4d/output
I0403 15:06:04.186403 31132 net.cpp:141] Setting up inception_4d/output
I0403 15:06:04.186429 31132 net.cpp:148] Top shape: 24 528 14 14 (2483712)
I0403 15:06:04.186457 31132 net.cpp:156] Memory required for data: 1157244192
I0403 15:06:04.186494 31132 layer_factory.hpp:77] Creating layer inception_4d/output_inception_4d/output_0_split
I0403 15:06:04.186559 31132 net.cpp:91] Creating Layer inception_4d/output_inception_4d/output_0_split
I0403 15:06:04.186609 31132 net.cpp:425] inception_4d/output_inception_4d/output_0_split <- inception_4d/output
I0403 15:06:04.186646 31132 net.cpp:399] inception_4d/output_inception_4d/output_0_split -> inception_4d/output_inception_4d/output_0_split_0
I0403 15:06:04.186699 31132 net.cpp:399] inception_4d/output_inception_4d/output_0_split -> inception_4d/output_inception_4d/output_0_split_1
I0403 15:06:04.186741 31132 net.cpp:399] inception_4d/output_inception_4d/output_0_split -> inception_4d/output_inception_4d/output_0_split_2
I0403 15:06:04.186761 31132 net.cpp:399] inception_4d/output_inception_4d/output_0_split -> inception_4d/output_inception_4d/output_0_split_3
I0403 15:06:04.186781 31132 net.cpp:399] inception_4d/output_inception_4d/output_0_split -> inception_4d/output_inception_4d/output_0_split_4
I0403 15:06:04.186884 31132 net.cpp:141] Setting up inception_4d/output_inception_4d/output_0_split
I0403 15:06:04.186925 31132 net.cpp:148] Top shape: 24 528 14 14 (2483712)
I0403 15:06:04.186944 31132 net.cpp:148] Top shape: 24 528 14 14 (2483712)
I0403 15:06:04.186961 31132 net.cpp:148] Top shape: 24 528 14 14 (2483712)
I0403 15:06:04.186976 31132 net.cpp:148] Top shape: 24 528 14 14 (2483712)
I0403 15:06:04.186991 31132 net.cpp:148] Top shape: 24 528 14 14 (2483712)
I0403 15:06:04.187005 31132 net.cpp:156] Memory required for data: 1206918432
I0403 15:06:04.187018 31132 layer_factory.hpp:77] Creating layer loss2/ave_pool
I0403 15:06:04.187036 31132 net.cpp:91] Creating Layer loss2/ave_pool
I0403 15:06:04.187050 31132 net.cpp:425] loss2/ave_pool <- inception_4d/output_inception_4d/output_0_split_0
I0403 15:06:04.187067 31132 net.cpp:399] loss2/ave_pool -> loss2/ave_pool
I0403 15:06:04.187372 31132 net.cpp:141] Setting up loss2/ave_pool
I0403 15:06:04.187399 31132 net.cpp:148] Top shape: 24 528 4 4 (202752)
I0403 15:06:04.187414 31132 net.cpp:156] Memory required for data: 1207729440
I0403 15:06:04.187429 31132 layer_factory.hpp:77] Creating layer loss2/conv
I0403 15:06:04.187450 31132 net.cpp:91] Creating Layer loss2/conv
I0403 15:06:04.187469 31132 net.cpp:425] loss2/conv <- loss2/ave_pool
I0403 15:06:04.187486 31132 net.cpp:399] loss2/conv -> loss2/conv
I0403 15:06:04.189347 31132 net.cpp:141] Setting up loss2/conv
I0403 15:06:04.189375 31132 net.cpp:148] Top shape: 24 128 4 4 (49152)
I0403 15:06:04.189391 31132 net.cpp:156] Memory required for data: 1207926048
I0403 15:06:04.189409 31132 layer_factory.hpp:77] Creating layer loss2/relu_conv
I0403 15:06:04.189436 31132 net.cpp:91] Creating Layer loss2/relu_conv
I0403 15:06:04.189451 31132 net.cpp:425] loss2/relu_conv <- loss2/conv
I0403 15:06:04.189471 31132 net.cpp:386] loss2/relu_conv -> loss2/conv (in-place)
I0403 15:06:04.189762 31132 net.cpp:141] Setting up loss2/relu_conv
I0403 15:06:04.189787 31132 net.cpp:148] Top shape: 24 128 4 4 (49152)
I0403 15:06:04.189802 31132 net.cpp:156] Memory required for data: 1208122656
I0403 15:06:04.189816 31132 layer_factory.hpp:77] Creating layer loss2/fc
I0403 15:06:04.189834 31132 net.cpp:91] Creating Layer loss2/fc
I0403 15:06:04.189849 31132 net.cpp:425] loss2/fc <- loss2/conv
I0403 15:06:04.189870 31132 net.cpp:399] loss2/fc -> loss2/fc
I0403 15:06:04.206987 31132 net.cpp:141] Setting up loss2/fc
I0403 15:06:04.207033 31132 net.cpp:148] Top shape: 24 1024 (24576)
I0403 15:06:04.207049 31132 net.cpp:156] Memory required for data: 1208220960
I0403 15:06:04.207068 31132 layer_factory.hpp:77] Creating layer loss2/relu_fc
I0403 15:06:04.207113 31132 net.cpp:91] Creating Layer loss2/relu_fc
I0403 15:06:04.207129 31132 net.cpp:425] loss2/relu_fc <- loss2/fc
I0403 15:06:04.207175 31132 net.cpp:386] loss2/relu_fc -> loss2/fc (in-place)
I0403 15:06:04.207468 31132 net.cpp:141] Setting up loss2/relu_fc
I0403 15:06:04.207511 31132 net.cpp:148] Top shape: 24 1024 (24576)
I0403 15:06:04.207562 31132 net.cpp:156] Memory required for data: 1208319264
I0403 15:06:04.207605 31132 layer_factory.hpp:77] Creating layer loss2/drop_fc
I0403 15:06:04.207644 31132 net.cpp:91] Creating Layer loss2/drop_fc
I0403 15:06:04.207689 31132 net.cpp:425] loss2/drop_fc <- loss2/fc
I0403 15:06:04.207729 31132 net.cpp:386] loss2/drop_fc -> loss2/fc (in-place)
I0403 15:06:04.207780 31132 net.cpp:141] Setting up loss2/drop_fc
I0403 15:06:04.207828 31132 net.cpp:148] Top shape: 24 1024 (24576)
I0403 15:06:04.207864 31132 net.cpp:156] Memory required for data: 1208417568
I0403 15:06:04.207878 31132 layer_factory.hpp:77] Creating layer loss2/classifier_plantvillage
I0403 15:06:04.207916 31132 net.cpp:91] Creating Layer loss2/classifier_plantvillage
I0403 15:06:04.207940 31132 net.cpp:425] loss2/classifier_plantvillage <- loss2/fc
I0403 15:06:04.207980 31132 net.cpp:399] loss2/classifier_plantvillage -> loss2/classifier_plantvillage
I0403 15:06:04.208372 31132 net.cpp:141] Setting up loss2/classifier_plantvillage
I0403 15:06:04.208408 31132 net.cpp:148] Top shape: 24 38 (912)
I0403 15:06:04.208439 31132 net.cpp:156] Memory required for data: 1208421216
I0403 15:06:04.208457 31132 layer_factory.hpp:77] Creating layer loss2/classifier_plantvillage_loss2/classifier_plantvillage_0_split
I0403 15:06:04.208475 31132 net.cpp:91] Creating Layer loss2/classifier_plantvillage_loss2/classifier_plantvillage_0_split
I0403 15:06:04.208490 31132 net.cpp:425] loss2/classifier_plantvillage_loss2/classifier_plantvillage_0_split <- loss2/classifier_plantvillage
I0403 15:06:04.208509 31132 net.cpp:399] loss2/classifier_plantvillage_loss2/classifier_plantvillage_0_split -> loss2/classifier_plantvillage_loss2/classifier_plantvillage_0_split_0
I0403 15:06:04.208530 31132 net.cpp:399] loss2/classifier_plantvillage_loss2/classifier_plantvillage_0_split -> loss2/classifier_plantvillage_loss2/classifier_plantvillage_0_split_1
I0403 15:06:04.208554 31132 net.cpp:399] loss2/classifier_plantvillage_loss2/classifier_plantvillage_0_split -> loss2/classifier_plantvillage_loss2/classifier_plantvillage_0_split_2
I0403 15:06:04.208634 31132 net.cpp:141] Setting up loss2/classifier_plantvillage_loss2/classifier_plantvillage_0_split
I0403 15:06:04.208657 31132 net.cpp:148] Top shape: 24 38 (912)
I0403 15:06:04.208672 31132 net.cpp:148] Top shape: 24 38 (912)
I0403 15:06:04.208686 31132 net.cpp:148] Top shape: 24 38 (912)
I0403 15:06:04.208699 31132 net.cpp:156] Memory required for data: 1208432160
I0403 15:06:04.208714 31132 layer_factory.hpp:77] Creating layer inception_4e/1x1
I0403 15:06:04.208734 31132 net.cpp:91] Creating Layer inception_4e/1x1
I0403 15:06:04.208750 31132 net.cpp:425] inception_4e/1x1 <- inception_4d/output_inception_4d/output_0_split_1
I0403 15:06:04.208768 31132 net.cpp:399] inception_4e/1x1 -> inception_4e/1x1
I0403 15:06:04.210554 31132 net.cpp:141] Setting up inception_4e/1x1
I0403 15:06:04.210583 31132 net.cpp:148] Top shape: 24 256 14 14 (1204224)
I0403 15:06:04.210597 31132 net.cpp:156] Memory required for data: 1213249056
I0403 15:06:04.210615 31132 layer_factory.hpp:77] Creating layer inception_4e/relu_1x1
I0403 15:06:04.210634 31132 net.cpp:91] Creating Layer inception_4e/relu_1x1
I0403 15:06:04.210651 31132 net.cpp:425] inception_4e/relu_1x1 <- inception_4e/1x1
I0403 15:06:04.210667 31132 net.cpp:386] inception_4e/relu_1x1 -> inception_4e/1x1 (in-place)
I0403 15:06:04.210959 31132 net.cpp:141] Setting up inception_4e/relu_1x1
I0403 15:06:04.210983 31132 net.cpp:148] Top shape: 24 256 14 14 (1204224)
I0403 15:06:04.210999 31132 net.cpp:156] Memory required for data: 1218065952
I0403 15:06:04.211014 31132 layer_factory.hpp:77] Creating layer inception_4e/3x3_reduce
I0403 15:06:04.211035 31132 net.cpp:91] Creating Layer inception_4e/3x3_reduce
I0403 15:06:04.211051 31132 net.cpp:425] inception_4e/3x3_reduce <- inception_4d/output_inception_4d/output_0_split_2
I0403 15:06:04.211071 31132 net.cpp:399] inception_4e/3x3_reduce -> inception_4e/3x3_reduce
I0403 15:06:04.213358 31132 net.cpp:141] Setting up inception_4e/3x3_reduce
I0403 15:06:04.213387 31132 net.cpp:148] Top shape: 24 160 14 14 (752640)
I0403 15:06:04.213402 31132 net.cpp:156] Memory required for data: 1221076512
I0403 15:06:04.213419 31132 layer_factory.hpp:77] Creating layer inception_4e/relu_3x3_reduce
I0403 15:06:04.213436 31132 net.cpp:91] Creating Layer inception_4e/relu_3x3_reduce
I0403 15:06:04.213454 31132 net.cpp:425] inception_4e/relu_3x3_reduce <- inception_4e/3x3_reduce
I0403 15:06:04.213472 31132 net.cpp:386] inception_4e/relu_3x3_reduce -> inception_4e/3x3_reduce (in-place)
I0403 15:06:04.213662 31132 net.cpp:141] Setting up inception_4e/relu_3x3_reduce
I0403 15:06:04.213687 31132 net.cpp:148] Top shape: 24 160 14 14 (752640)
I0403 15:06:04.213701 31132 net.cpp:156] Memory required for data: 1224087072
I0403 15:06:04.213716 31132 layer_factory.hpp:77] Creating layer inception_4e/3x3
I0403 15:06:04.213737 31132 net.cpp:91] Creating Layer inception_4e/3x3
I0403 15:06:04.213753 31132 net.cpp:425] inception_4e/3x3 <- inception_4e/3x3_reduce
I0403 15:06:04.213773 31132 net.cpp:399] inception_4e/3x3 -> inception_4e/3x3
I0403 15:06:04.218665 31132 net.cpp:141] Setting up inception_4e/3x3
I0403 15:06:04.218708 31132 net.cpp:148] Top shape: 24 320 14 14 (1505280)
I0403 15:06:04.218724 31132 net.cpp:156] Memory required for data: 1230108192
I0403 15:06:04.218744 31132 layer_factory.hpp:77] Creating layer inception_4e/relu_3x3
I0403 15:06:04.218763 31132 net.cpp:91] Creating Layer inception_4e/relu_3x3
I0403 15:06:04.218780 31132 net.cpp:425] inception_4e/relu_3x3 <- inception_4e/3x3
I0403 15:06:04.218798 31132 net.cpp:386] inception_4e/relu_3x3 -> inception_4e/3x3 (in-place)
I0403 15:06:04.219097 31132 net.cpp:141] Setting up inception_4e/relu_3x3
I0403 15:06:04.219125 31132 net.cpp:148] Top shape: 24 320 14 14 (1505280)
I0403 15:06:04.219141 31132 net.cpp:156] Memory required for data: 1236129312
I0403 15:06:04.219156 31132 layer_factory.hpp:77] Creating layer inception_4e/5x5_reduce
I0403 15:06:04.219178 31132 net.cpp:91] Creating Layer inception_4e/5x5_reduce
I0403 15:06:04.219197 31132 net.cpp:425] inception_4e/5x5_reduce <- inception_4d/output_inception_4d/output_0_split_3
I0403 15:06:04.219214 31132 net.cpp:399] inception_4e/5x5_reduce -> inception_4e/5x5_reduce
I0403 15:06:04.220270 31132 net.cpp:141] Setting up inception_4e/5x5_reduce
I0403 15:06:04.220296 31132 net.cpp:148] Top shape: 24 32 14 14 (150528)
I0403 15:06:04.220311 31132 net.cpp:156] Memory required for data: 1236731424
I0403 15:06:04.220329 31132 layer_factory.hpp:77] Creating layer inception_4e/relu_5x5_reduce
I0403 15:06:04.220348 31132 net.cpp:91] Creating Layer inception_4e/relu_5x5_reduce
I0403 15:06:04.220365 31132 net.cpp:425] inception_4e/relu_5x5_reduce <- inception_4e/5x5_reduce
I0403 15:06:04.220381 31132 net.cpp:386] inception_4e/relu_5x5_reduce -> inception_4e/5x5_reduce (in-place)
I0403 15:06:04.220679 31132 net.cpp:141] Setting up inception_4e/relu_5x5_reduce
I0403 15:06:04.220705 31132 net.cpp:148] Top shape: 24 32 14 14 (150528)
I0403 15:06:04.220720 31132 net.cpp:156] Memory required for data: 1237333536
I0403 15:06:04.220733 31132 layer_factory.hpp:77] Creating layer inception_4e/5x5
I0403 15:06:04.220772 31132 net.cpp:91] Creating Layer inception_4e/5x5
I0403 15:06:04.220790 31132 net.cpp:425] inception_4e/5x5 <- inception_4e/5x5_reduce
I0403 15:06:04.220808 31132 net.cpp:399] inception_4e/5x5 -> inception_4e/5x5
I0403 15:06:04.222625 31132 net.cpp:141] Setting up inception_4e/5x5
I0403 15:06:04.222654 31132 net.cpp:148] Top shape: 24 128 14 14 (602112)
I0403 15:06:04.222672 31132 net.cpp:156] Memory required for data: 1239741984
I0403 15:06:04.222692 31132 layer_factory.hpp:77] Creating layer inception_4e/relu_5x5
I0403 15:06:04.222710 31132 net.cpp:91] Creating Layer inception_4e/relu_5x5
I0403 15:06:04.222726 31132 net.cpp:425] inception_4e/relu_5x5 <- inception_4e/5x5
I0403 15:06:04.222746 31132 net.cpp:386] inception_4e/relu_5x5 -> inception_4e/5x5 (in-place)
I0403 15:06:04.222947 31132 net.cpp:141] Setting up inception_4e/relu_5x5
I0403 15:06:04.222971 31132 net.cpp:148] Top shape: 24 128 14 14 (602112)
I0403 15:06:04.222985 31132 net.cpp:156] Memory required for data: 1242150432
I0403 15:06:04.223000 31132 layer_factory.hpp:77] Creating layer inception_4e/pool
I0403 15:06:04.223016 31132 net.cpp:91] Creating Layer inception_4e/pool
I0403 15:06:04.223031 31132 net.cpp:425] inception_4e/pool <- inception_4d/output_inception_4d/output_0_split_4
I0403 15:06:04.223052 31132 net.cpp:399] inception_4e/pool -> inception_4e/pool
I0403 15:06:04.223119 31132 net.cpp:141] Setting up inception_4e/pool
I0403 15:06:04.223142 31132 net.cpp:148] Top shape: 24 528 14 14 (2483712)
I0403 15:06:04.223155 31132 net.cpp:156] Memory required for data: 1252085280
I0403 15:06:04.223170 31132 layer_factory.hpp:77] Creating layer inception_4e/pool_proj
I0403 15:06:04.223191 31132 net.cpp:91] Creating Layer inception_4e/pool_proj
I0403 15:06:04.223208 31132 net.cpp:425] inception_4e/pool_proj <- inception_4e/pool
I0403 15:06:04.223227 31132 net.cpp:399] inception_4e/pool_proj -> inception_4e/pool_proj
I0403 15:06:04.224715 31132 net.cpp:141] Setting up inception_4e/pool_proj
I0403 15:06:04.224756 31132 net.cpp:148] Top shape: 24 128 14 14 (602112)
I0403 15:06:04.224771 31132 net.cpp:156] Memory required for data: 1254493728
I0403 15:06:04.224789 31132 layer_factory.hpp:77] Creating layer inception_4e/relu_pool_proj
I0403 15:06:04.224807 31132 net.cpp:91] Creating Layer inception_4e/relu_pool_proj
I0403 15:06:04.224822 31132 net.cpp:425] inception_4e/relu_pool_proj <- inception_4e/pool_proj
I0403 15:06:04.224841 31132 net.cpp:386] inception_4e/relu_pool_proj -> inception_4e/pool_proj (in-place)
I0403 15:06:04.225129 31132 net.cpp:141] Setting up inception_4e/relu_pool_proj
I0403 15:06:04.225155 31132 net.cpp:148] Top shape: 24 128 14 14 (602112)
I0403 15:06:04.225170 31132 net.cpp:156] Memory required for data: 1256902176
I0403 15:06:04.225184 31132 layer_factory.hpp:77] Creating layer inception_4e/output
I0403 15:06:04.225201 31132 net.cpp:91] Creating Layer inception_4e/output
I0403 15:06:04.225215 31132 net.cpp:425] inception_4e/output <- inception_4e/1x1
I0403 15:06:04.225231 31132 net.cpp:425] inception_4e/output <- inception_4e/3x3
I0403 15:06:04.225247 31132 net.cpp:425] inception_4e/output <- inception_4e/5x5
I0403 15:06:04.225262 31132 net.cpp:425] inception_4e/output <- inception_4e/pool_proj
I0403 15:06:04.225278 31132 net.cpp:399] inception_4e/output -> inception_4e/output
I0403 15:06:04.225329 31132 net.cpp:141] Setting up inception_4e/output
I0403 15:06:04.225353 31132 net.cpp:148] Top shape: 24 832 14 14 (3913728)
I0403 15:06:04.225366 31132 net.cpp:156] Memory required for data: 1272557088
I0403 15:06:04.225380 31132 layer_factory.hpp:77] Creating layer pool4/3x3_s2
I0403 15:06:04.225399 31132 net.cpp:91] Creating Layer pool4/3x3_s2
I0403 15:06:04.225415 31132 net.cpp:425] pool4/3x3_s2 <- inception_4e/output
I0403 15:06:04.225440 31132 net.cpp:399] pool4/3x3_s2 -> pool4/3x3_s2
I0403 15:06:04.225508 31132 net.cpp:141] Setting up pool4/3x3_s2
I0403 15:06:04.225530 31132 net.cpp:148] Top shape: 24 832 7 7 (978432)
I0403 15:06:04.225549 31132 net.cpp:156] Memory required for data: 1276470816
I0403 15:06:04.225564 31132 layer_factory.hpp:77] Creating layer pool4/3x3_s2_pool4/3x3_s2_0_split
I0403 15:06:04.225580 31132 net.cpp:91] Creating Layer pool4/3x3_s2_pool4/3x3_s2_0_split
I0403 15:06:04.225595 31132 net.cpp:425] pool4/3x3_s2_pool4/3x3_s2_0_split <- pool4/3x3_s2
I0403 15:06:04.225615 31132 net.cpp:399] pool4/3x3_s2_pool4/3x3_s2_0_split -> pool4/3x3_s2_pool4/3x3_s2_0_split_0
I0403 15:06:04.225635 31132 net.cpp:399] pool4/3x3_s2_pool4/3x3_s2_0_split -> pool4/3x3_s2_pool4/3x3_s2_0_split_1
I0403 15:06:04.225653 31132 net.cpp:399] pool4/3x3_s2_pool4/3x3_s2_0_split -> pool4/3x3_s2_pool4/3x3_s2_0_split_2
I0403 15:06:04.225672 31132 net.cpp:399] pool4/3x3_s2_pool4/3x3_s2_0_split -> pool4/3x3_s2_pool4/3x3_s2_0_split_3
I0403 15:06:04.225764 31132 net.cpp:141] Setting up pool4/3x3_s2_pool4/3x3_s2_0_split
I0403 15:06:04.225788 31132 net.cpp:148] Top shape: 24 832 7 7 (978432)
I0403 15:06:04.225805 31132 net.cpp:148] Top shape: 24 832 7 7 (978432)
I0403 15:06:04.225821 31132 net.cpp:148] Top shape: 24 832 7 7 (978432)
I0403 15:06:04.225834 31132 net.cpp:148] Top shape: 24 832 7 7 (978432)
I0403 15:06:04.225847 31132 net.cpp:156] Memory required for data: 1292125728
I0403 15:06:04.225862 31132 layer_factory.hpp:77] Creating layer inception_5a/1x1
I0403 15:06:04.225883 31132 net.cpp:91] Creating Layer inception_5a/1x1
I0403 15:06:04.225899 31132 net.cpp:425] inception_5a/1x1 <- pool4/3x3_s2_pool4/3x3_s2_0_split_0
I0403 15:06:04.225917 31132 net.cpp:399] inception_5a/1x1 -> inception_5a/1x1
I0403 15:06:04.228729 31132 net.cpp:141] Setting up inception_5a/1x1
I0403 15:06:04.228760 31132 net.cpp:148] Top shape: 24 256 7 7 (301056)
I0403 15:06:04.228775 31132 net.cpp:156] Memory required for data: 1293329952
I0403 15:06:04.228792 31132 layer_factory.hpp:77] Creating layer inception_5a/relu_1x1
I0403 15:06:04.228809 31132 net.cpp:91] Creating Layer inception_5a/relu_1x1
I0403 15:06:04.228824 31132 net.cpp:425] inception_5a/relu_1x1 <- inception_5a/1x1
I0403 15:06:04.228843 31132 net.cpp:386] inception_5a/relu_1x1 -> inception_5a/1x1 (in-place)
I0403 15:06:04.229156 31132 net.cpp:141] Setting up inception_5a/relu_1x1
I0403 15:06:04.229181 31132 net.cpp:148] Top shape: 24 256 7 7 (301056)
I0403 15:06:04.229195 31132 net.cpp:156] Memory required for data: 1294534176
I0403 15:06:04.229210 31132 layer_factory.hpp:77] Creating layer inception_5a/3x3_reduce
I0403 15:06:04.229233 31132 net.cpp:91] Creating Layer inception_5a/3x3_reduce
I0403 15:06:04.229249 31132 net.cpp:425] inception_5a/3x3_reduce <- pool4/3x3_s2_pool4/3x3_s2_0_split_1
I0403 15:06:04.229269 31132 net.cpp:399] inception_5a/3x3_reduce -> inception_5a/3x3_reduce
I0403 15:06:04.231699 31132 net.cpp:141] Setting up inception_5a/3x3_reduce
I0403 15:06:04.231729 31132 net.cpp:148] Top shape: 24 160 7 7 (188160)
I0403 15:06:04.231744 31132 net.cpp:156] Memory required for data: 1295286816
I0403 15:06:04.231760 31132 layer_factory.hpp:77] Creating layer inception_5a/relu_3x3_reduce
I0403 15:06:04.231781 31132 net.cpp:91] Creating Layer inception_5a/relu_3x3_reduce
I0403 15:06:04.231797 31132 net.cpp:425] inception_5a/relu_3x3_reduce <- inception_5a/3x3_reduce
I0403 15:06:04.231814 31132 net.cpp:386] inception_5a/relu_3x3_reduce -> inception_5a/3x3_reduce (in-place)
I0403 15:06:04.232007 31132 net.cpp:141] Setting up inception_5a/relu_3x3_reduce
I0403 15:06:04.232030 31132 net.cpp:148] Top shape: 24 160 7 7 (188160)
I0403 15:06:04.232045 31132 net.cpp:156] Memory required for data: 1296039456
I0403 15:06:04.232059 31132 layer_factory.hpp:77] Creating layer inception_5a/3x3
I0403 15:06:04.232081 31132 net.cpp:91] Creating Layer inception_5a/3x3
I0403 15:06:04.232098 31132 net.cpp:425] inception_5a/3x3 <- inception_5a/3x3_reduce
I0403 15:06:04.232120 31132 net.cpp:399] inception_5a/3x3 -> inception_5a/3x3
I0403 15:06:04.237078 31132 net.cpp:141] Setting up inception_5a/3x3
I0403 15:06:04.237110 31132 net.cpp:148] Top shape: 24 320 7 7 (376320)
I0403 15:06:04.237126 31132 net.cpp:156] Memory required for data: 1297544736
I0403 15:06:04.237144 31132 layer_factory.hpp:77] Creating layer inception_5a/relu_3x3
I0403 15:06:04.237161 31132 net.cpp:91] Creating Layer inception_5a/relu_3x3
I0403 15:06:04.237176 31132 net.cpp:425] inception_5a/relu_3x3 <- inception_5a/3x3
I0403 15:06:04.237195 31132 net.cpp:386] inception_5a/relu_3x3 -> inception_5a/3x3 (in-place)
I0403 15:06:04.237490 31132 net.cpp:141] Setting up inception_5a/relu_3x3
I0403 15:06:04.237517 31132 net.cpp:148] Top shape: 24 320 7 7 (376320)
I0403 15:06:04.237536 31132 net.cpp:156] Memory required for data: 1299050016
I0403 15:06:04.237551 31132 layer_factory.hpp:77] Creating layer inception_5a/5x5_reduce
I0403 15:06:04.237574 31132 net.cpp:91] Creating Layer inception_5a/5x5_reduce
I0403 15:06:04.237591 31132 net.cpp:425] inception_5a/5x5_reduce <- pool4/3x3_s2_pool4/3x3_s2_0_split_2
I0403 15:06:04.237609 31132 net.cpp:399] inception_5a/5x5_reduce -> inception_5a/5x5_reduce
I0403 15:06:04.238772 31132 net.cpp:141] Setting up inception_5a/5x5_reduce
I0403 15:06:04.238801 31132 net.cpp:148] Top shape: 24 32 7 7 (37632)
I0403 15:06:04.238816 31132 net.cpp:156] Memory required for data: 1299200544
I0403 15:06:04.238833 31132 layer_factory.hpp:77] Creating layer inception_5a/relu_5x5_reduce
I0403 15:06:04.238852 31132 net.cpp:91] Creating Layer inception_5a/relu_5x5_reduce
I0403 15:06:04.238867 31132 net.cpp:425] inception_5a/relu_5x5_reduce <- inception_5a/5x5_reduce
I0403 15:06:04.238885 31132 net.cpp:386] inception_5a/relu_5x5_reduce -> inception_5a/5x5_reduce (in-place)
I0403 15:06:04.239184 31132 net.cpp:141] Setting up inception_5a/relu_5x5_reduce
I0403 15:06:04.239209 31132 net.cpp:148] Top shape: 24 32 7 7 (37632)
I0403 15:06:04.239223 31132 net.cpp:156] Memory required for data: 1299351072
I0403 15:06:04.239238 31132 layer_factory.hpp:77] Creating layer inception_5a/5x5
I0403 15:06:04.239259 31132 net.cpp:91] Creating Layer inception_5a/5x5
I0403 15:06:04.239275 31132 net.cpp:425] inception_5a/5x5 <- inception_5a/5x5_reduce
I0403 15:06:04.239296 31132 net.cpp:399] inception_5a/5x5 -> inception_5a/5x5
I0403 15:06:04.240995 31132 net.cpp:141] Setting up inception_5a/5x5
I0403 15:06:04.241036 31132 net.cpp:148] Top shape: 24 128 7 7 (150528)
I0403 15:06:04.241053 31132 net.cpp:156] Memory required for data: 1299953184
I0403 15:06:04.241071 31132 layer_factory.hpp:77] Creating layer inception_5a/relu_5x5
I0403 15:06:04.241088 31132 net.cpp:91] Creating Layer inception_5a/relu_5x5
I0403 15:06:04.241103 31132 net.cpp:425] inception_5a/relu_5x5 <- inception_5a/5x5
I0403 15:06:04.241122 31132 net.cpp:386] inception_5a/relu_5x5 -> inception_5a/5x5 (in-place)
I0403 15:06:04.241315 31132 net.cpp:141] Setting up inception_5a/relu_5x5
I0403 15:06:04.241339 31132 net.cpp:148] Top shape: 24 128 7 7 (150528)
I0403 15:06:04.241353 31132 net.cpp:156] Memory required for data: 1300555296
I0403 15:06:04.241367 31132 layer_factory.hpp:77] Creating layer inception_5a/pool
I0403 15:06:04.241384 31132 net.cpp:91] Creating Layer inception_5a/pool
I0403 15:06:04.241400 31132 net.cpp:425] inception_5a/pool <- pool4/3x3_s2_pool4/3x3_s2_0_split_3
I0403 15:06:04.241420 31132 net.cpp:399] inception_5a/pool -> inception_5a/pool
I0403 15:06:04.241488 31132 net.cpp:141] Setting up inception_5a/pool
I0403 15:06:04.241511 31132 net.cpp:148] Top shape: 24 832 7 7 (978432)
I0403 15:06:04.241525 31132 net.cpp:156] Memory required for data: 1304469024
I0403 15:06:04.241544 31132 layer_factory.hpp:77] Creating layer inception_5a/pool_proj
I0403 15:06:04.241567 31132 net.cpp:91] Creating Layer inception_5a/pool_proj
I0403 15:06:04.241585 31132 net.cpp:425] inception_5a/pool_proj <- inception_5a/pool
I0403 15:06:04.241602 31132 net.cpp:399] inception_5a/pool_proj -> inception_5a/pool_proj
I0403 15:06:04.243854 31132 net.cpp:141] Setting up inception_5a/pool_proj
I0403 15:06:04.243885 31132 net.cpp:148] Top shape: 24 128 7 7 (150528)
I0403 15:06:04.243901 31132 net.cpp:156] Memory required for data: 1305071136
I0403 15:06:04.243918 31132 layer_factory.hpp:77] Creating layer inception_5a/relu_pool_proj
I0403 15:06:04.243937 31132 net.cpp:91] Creating Layer inception_5a/relu_pool_proj
I0403 15:06:04.243952 31132 net.cpp:425] inception_5a/relu_pool_proj <- inception_5a/pool_proj
I0403 15:06:04.243968 31132 net.cpp:386] inception_5a/relu_pool_proj -> inception_5a/pool_proj (in-place)
I0403 15:06:04.244267 31132 net.cpp:141] Setting up inception_5a/relu_pool_proj
I0403 15:06:04.244307 31132 net.cpp:148] Top shape: 24 128 7 7 (150528)
I0403 15:06:04.244323 31132 net.cpp:156] Memory required for data: 1305673248
I0403 15:06:04.244338 31132 layer_factory.hpp:77] Creating layer inception_5a/output
I0403 15:06:04.244356 31132 net.cpp:91] Creating Layer inception_5a/output
I0403 15:06:04.244371 31132 net.cpp:425] inception_5a/output <- inception_5a/1x1
I0403 15:06:04.244387 31132 net.cpp:425] inception_5a/output <- inception_5a/3x3
I0403 15:06:04.244402 31132 net.cpp:425] inception_5a/output <- inception_5a/5x5
I0403 15:06:04.244418 31132 net.cpp:425] inception_5a/output <- inception_5a/pool_proj
I0403 15:06:04.244434 31132 net.cpp:399] inception_5a/output -> inception_5a/output
I0403 15:06:04.244484 31132 net.cpp:141] Setting up inception_5a/output
I0403 15:06:04.244508 31132 net.cpp:148] Top shape: 24 832 7 7 (978432)
I0403 15:06:04.244521 31132 net.cpp:156] Memory required for data: 1309586976
I0403 15:06:04.244544 31132 layer_factory.hpp:77] Creating layer inception_5a/output_inception_5a/output_0_split
I0403 15:06:04.244568 31132 net.cpp:91] Creating Layer inception_5a/output_inception_5a/output_0_split
I0403 15:06:04.244585 31132 net.cpp:425] inception_5a/output_inception_5a/output_0_split <- inception_5a/output
I0403 15:06:04.244603 31132 net.cpp:399] inception_5a/output_inception_5a/output_0_split -> inception_5a/output_inception_5a/output_0_split_0
I0403 15:06:04.244638 31132 net.cpp:399] inception_5a/output_inception_5a/output_0_split -> inception_5a/output_inception_5a/output_0_split_1
I0403 15:06:04.244675 31132 net.cpp:399] inception_5a/output_inception_5a/output_0_split -> inception_5a/output_inception_5a/output_0_split_2
I0403 15:06:04.244704 31132 net.cpp:399] inception_5a/output_inception_5a/output_0_split -> inception_5a/output_inception_5a/output_0_split_3
I0403 15:06:04.244832 31132 net.cpp:141] Setting up inception_5a/output_inception_5a/output_0_split
I0403 15:06:04.244855 31132 net.cpp:148] Top shape: 24 832 7 7 (978432)
I0403 15:06:04.244870 31132 net.cpp:148] Top shape: 24 832 7 7 (978432)
I0403 15:06:04.244896 31132 net.cpp:148] Top shape: 24 832 7 7 (978432)
I0403 15:06:04.244913 31132 net.cpp:148] Top shape: 24 832 7 7 (978432)
I0403 15:06:04.244951 31132 net.cpp:156] Memory required for data: 1325241888
I0403 15:06:04.244994 31132 layer_factory.hpp:77] Creating layer inception_5b/1x1
I0403 15:06:04.245043 31132 net.cpp:91] Creating Layer inception_5b/1x1
I0403 15:06:04.245074 31132 net.cpp:425] inception_5b/1x1 <- inception_5a/output_inception_5a/output_0_split_0
I0403 15:06:04.245103 31132 net.cpp:399] inception_5b/1x1 -> inception_5b/1x1
I0403 15:06:04.248826 31132 net.cpp:141] Setting up inception_5b/1x1
I0403 15:06:04.248855 31132 net.cpp:148] Top shape: 24 384 7 7 (451584)
I0403 15:06:04.248870 31132 net.cpp:156] Memory required for data: 1327048224
I0403 15:06:04.248888 31132 layer_factory.hpp:77] Creating layer inception_5b/relu_1x1
I0403 15:06:04.248908 31132 net.cpp:91] Creating Layer inception_5b/relu_1x1
I0403 15:06:04.248924 31132 net.cpp:425] inception_5b/relu_1x1 <- inception_5b/1x1
I0403 15:06:04.248941 31132 net.cpp:386] inception_5b/relu_1x1 -> inception_5b/1x1 (in-place)
I0403 15:06:04.249241 31132 net.cpp:141] Setting up inception_5b/relu_1x1
I0403 15:06:04.249267 31132 net.cpp:148] Top shape: 24 384 7 7 (451584)
I0403 15:06:04.249284 31132 net.cpp:156] Memory required for data: 1328854560
I0403 15:06:04.249297 31132 layer_factory.hpp:77] Creating layer inception_5b/3x3_reduce
I0403 15:06:04.249322 31132 net.cpp:91] Creating Layer inception_5b/3x3_reduce
I0403 15:06:04.249339 31132 net.cpp:425] inception_5b/3x3_reduce <- inception_5a/output_inception_5a/output_0_split_1
I0403 15:06:04.249358 31132 net.cpp:399] inception_5b/3x3_reduce -> inception_5b/3x3_reduce
I0403 15:06:04.252032 31132 net.cpp:141] Setting up inception_5b/3x3_reduce
I0403 15:06:04.252082 31132 net.cpp:148] Top shape: 24 192 7 7 (225792)
I0403 15:06:04.252115 31132 net.cpp:156] Memory required for data: 1329757728
I0403 15:06:04.252146 31132 layer_factory.hpp:77] Creating layer inception_5b/relu_3x3_reduce
I0403 15:06:04.252172 31132 net.cpp:91] Creating Layer inception_5b/relu_3x3_reduce
I0403 15:06:04.252187 31132 net.cpp:425] inception_5b/relu_3x3_reduce <- inception_5b/3x3_reduce
I0403 15:06:04.252204 31132 net.cpp:386] inception_5b/relu_3x3_reduce -> inception_5b/3x3_reduce (in-place)
I0403 15:06:04.252395 31132 net.cpp:141] Setting up inception_5b/relu_3x3_reduce
I0403 15:06:04.252420 31132 net.cpp:148] Top shape: 24 192 7 7 (225792)
I0403 15:06:04.252434 31132 net.cpp:156] Memory required for data: 1330660896
I0403 15:06:04.252457 31132 layer_factory.hpp:77] Creating layer inception_5b/3x3
I0403 15:06:04.252480 31132 net.cpp:91] Creating Layer inception_5b/3x3
I0403 15:06:04.252496 31132 net.cpp:425] inception_5b/3x3 <- inception_5b/3x3_reduce
I0403 15:06:04.252517 31132 net.cpp:399] inception_5b/3x3 -> inception_5b/3x3
I0403 15:06:04.259121 31132 net.cpp:141] Setting up inception_5b/3x3
I0403 15:06:04.259152 31132 net.cpp:148] Top shape: 24 384 7 7 (451584)
I0403 15:06:04.259168 31132 net.cpp:156] Memory required for data: 1332467232
I0403 15:06:04.259187 31132 layer_factory.hpp:77] Creating layer inception_5b/relu_3x3
I0403 15:06:04.259204 31132 net.cpp:91] Creating Layer inception_5b/relu_3x3
I0403 15:06:04.259220 31132 net.cpp:425] inception_5b/relu_3x3 <- inception_5b/3x3
I0403 15:06:04.259238 31132 net.cpp:386] inception_5b/relu_3x3 -> inception_5b/3x3 (in-place)
I0403 15:06:04.259537 31132 net.cpp:141] Setting up inception_5b/relu_3x3
I0403 15:06:04.259565 31132 net.cpp:148] Top shape: 24 384 7 7 (451584)
I0403 15:06:04.259582 31132 net.cpp:156] Memory required for data: 1334273568
I0403 15:06:04.259595 31132 layer_factory.hpp:77] Creating layer inception_5b/5x5_reduce
I0403 15:06:04.259631 31132 net.cpp:91] Creating Layer inception_5b/5x5_reduce
I0403 15:06:04.259650 31132 net.cpp:425] inception_5b/5x5_reduce <- inception_5a/output_inception_5a/output_0_split_2
I0403 15:06:04.259670 31132 net.cpp:399] inception_5b/5x5_reduce -> inception_5b/5x5_reduce
I0403 15:06:04.260939 31132 net.cpp:141] Setting up inception_5b/5x5_reduce
I0403 15:06:04.260968 31132 net.cpp:148] Top shape: 24 48 7 7 (56448)
I0403 15:06:04.260984 31132 net.cpp:156] Memory required for data: 1334499360
I0403 15:06:04.261003 31132 layer_factory.hpp:77] Creating layer inception_5b/relu_5x5_reduce
I0403 15:06:04.261020 31132 net.cpp:91] Creating Layer inception_5b/relu_5x5_reduce
I0403 15:06:04.261035 31132 net.cpp:425] inception_5b/relu_5x5_reduce <- inception_5b/5x5_reduce
I0403 15:06:04.261054 31132 net.cpp:386] inception_5b/relu_5x5_reduce -> inception_5b/5x5_reduce (in-place)
I0403 15:06:04.261425 31132 net.cpp:141] Setting up inception_5b/relu_5x5_reduce
I0403 15:06:04.261451 31132 net.cpp:148] Top shape: 24 48 7 7 (56448)
I0403 15:06:04.261466 31132 net.cpp:156] Memory required for data: 1334725152
I0403 15:06:04.261479 31132 layer_factory.hpp:77] Creating layer inception_5b/5x5
I0403 15:06:04.261499 31132 net.cpp:91] Creating Layer inception_5b/5x5
I0403 15:06:04.261518 31132 net.cpp:425] inception_5b/5x5 <- inception_5b/5x5_reduce
I0403 15:06:04.261561 31132 net.cpp:399] inception_5b/5x5 -> inception_5b/5x5
I0403 15:06:04.263604 31132 net.cpp:141] Setting up inception_5b/5x5
I0403 15:06:04.263633 31132 net.cpp:148] Top shape: 24 128 7 7 (150528)
I0403 15:06:04.263648 31132 net.cpp:156] Memory required for data: 1335327264
I0403 15:06:04.263664 31132 layer_factory.hpp:77] Creating layer inception_5b/relu_5x5
I0403 15:06:04.263685 31132 net.cpp:91] Creating Layer inception_5b/relu_5x5
I0403 15:06:04.263701 31132 net.cpp:425] inception_5b/relu_5x5 <- inception_5b/5x5
I0403 15:06:04.263720 31132 net.cpp:386] inception_5b/relu_5x5 -> inception_5b/5x5 (in-place)
I0403 15:06:04.263916 31132 net.cpp:141] Setting up inception_5b/relu_5x5
I0403 15:06:04.263941 31132 net.cpp:148] Top shape: 24 128 7 7 (150528)
I0403 15:06:04.263953 31132 net.cpp:156] Memory required for data: 1335929376
I0403 15:06:04.263967 31132 layer_factory.hpp:77] Creating layer inception_5b/pool
I0403 15:06:04.263986 31132 net.cpp:91] Creating Layer inception_5b/pool
I0403 15:06:04.264003 31132 net.cpp:425] inception_5b/pool <- inception_5a/output_inception_5a/output_0_split_3
I0403 15:06:04.264022 31132 net.cpp:399] inception_5b/pool -> inception_5b/pool
I0403 15:06:04.264093 31132 net.cpp:141] Setting up inception_5b/pool
I0403 15:06:04.264117 31132 net.cpp:148] Top shape: 24 832 7 7 (978432)
I0403 15:06:04.264130 31132 net.cpp:156] Memory required for data: 1339843104
I0403 15:06:04.264144 31132 layer_factory.hpp:77] Creating layer inception_5b/pool_proj
I0403 15:06:04.264165 31132 net.cpp:91] Creating Layer inception_5b/pool_proj
I0403 15:06:04.264181 31132 net.cpp:425] inception_5b/pool_proj <- inception_5b/pool
I0403 15:06:04.264202 31132 net.cpp:399] inception_5b/pool_proj -> inception_5b/pool_proj
I0403 15:06:04.266602 31132 net.cpp:141] Setting up inception_5b/pool_proj
I0403 15:06:04.266633 31132 net.cpp:148] Top shape: 24 128 7 7 (150528)
I0403 15:06:04.266650 31132 net.cpp:156] Memory required for data: 1340445216
I0403 15:06:04.266667 31132 layer_factory.hpp:77] Creating layer inception_5b/relu_pool_proj
I0403 15:06:04.266685 31132 net.cpp:91] Creating Layer inception_5b/relu_pool_proj
I0403 15:06:04.266701 31132 net.cpp:425] inception_5b/relu_pool_proj <- inception_5b/pool_proj
I0403 15:06:04.266721 31132 net.cpp:386] inception_5b/relu_pool_proj -> inception_5b/pool_proj (in-place)
I0403 15:06:04.267015 31132 net.cpp:141] Setting up inception_5b/relu_pool_proj
I0403 15:06:04.267042 31132 net.cpp:148] Top shape: 24 128 7 7 (150528)
I0403 15:06:04.267058 31132 net.cpp:156] Memory required for data: 1341047328
I0403 15:06:04.267072 31132 layer_factory.hpp:77] Creating layer inception_5b/output
I0403 15:06:04.267089 31132 net.cpp:91] Creating Layer inception_5b/output
I0403 15:06:04.267118 31132 net.cpp:425] inception_5b/output <- inception_5b/1x1
I0403 15:06:04.267135 31132 net.cpp:425] inception_5b/output <- inception_5b/3x3
I0403 15:06:04.267151 31132 net.cpp:425] inception_5b/output <- inception_5b/5x5
I0403 15:06:04.267166 31132 net.cpp:425] inception_5b/output <- inception_5b/pool_proj
I0403 15:06:04.267187 31132 net.cpp:399] inception_5b/output -> inception_5b/output
I0403 15:06:04.267238 31132 net.cpp:141] Setting up inception_5b/output
I0403 15:06:04.267261 31132 net.cpp:148] Top shape: 24 1024 7 7 (1204224)
I0403 15:06:04.267276 31132 net.cpp:156] Memory required for data: 1345864224
I0403 15:06:04.267289 31132 layer_factory.hpp:77] Creating layer pool5/7x7_s1
I0403 15:06:04.267309 31132 net.cpp:91] Creating Layer pool5/7x7_s1
I0403 15:06:04.267325 31132 net.cpp:425] pool5/7x7_s1 <- inception_5b/output
I0403 15:06:04.267343 31132 net.cpp:399] pool5/7x7_s1 -> pool5/7x7_s1
I0403 15:06:04.267568 31132 net.cpp:141] Setting up pool5/7x7_s1
I0403 15:06:04.267596 31132 net.cpp:148] Top shape: 24 1024 1 1 (24576)
I0403 15:06:04.267611 31132 net.cpp:156] Memory required for data: 1345962528
I0403 15:06:04.267626 31132 layer_factory.hpp:77] Creating layer pool5/drop_7x7_s1
I0403 15:06:04.267642 31132 net.cpp:91] Creating Layer pool5/drop_7x7_s1
I0403 15:06:04.267657 31132 net.cpp:425] pool5/drop_7x7_s1 <- pool5/7x7_s1
I0403 15:06:04.267676 31132 net.cpp:386] pool5/drop_7x7_s1 -> pool5/7x7_s1 (in-place)
I0403 15:06:04.267725 31132 net.cpp:141] Setting up pool5/drop_7x7_s1
I0403 15:06:04.267747 31132 net.cpp:148] Top shape: 24 1024 1 1 (24576)
I0403 15:06:04.267761 31132 net.cpp:156] Memory required for data: 1346060832
I0403 15:06:04.267776 31132 layer_factory.hpp:77] Creating layer loss3/classifier_plantvillage
I0403 15:06:04.267796 31132 net.cpp:91] Creating Layer loss3/classifier_plantvillage
I0403 15:06:04.267812 31132 net.cpp:425] loss3/classifier_plantvillage <- pool5/7x7_s1
I0403 15:06:04.267832 31132 net.cpp:399] loss3/classifier_plantvillage -> loss3/classifier_plantvillage
I0403 15:06:04.268246 31132 net.cpp:141] Setting up loss3/classifier_plantvillage
I0403 15:06:04.268270 31132 net.cpp:148] Top shape: 24 38 (912)
I0403 15:06:04.268285 31132 net.cpp:156] Memory required for data: 1346064480
I0403 15:06:04.268302 31132 layer_factory.hpp:77] Creating layer loss3/classifier_plantvillage_loss3/classifier_plantvillage_0_split
I0403 15:06:04.268322 31132 net.cpp:91] Creating Layer loss3/classifier_plantvillage_loss3/classifier_plantvillage_0_split
I0403 15:06:04.268339 31132 net.cpp:425] loss3/classifier_plantvillage_loss3/classifier_plantvillage_0_split <- loss3/classifier_plantvillage
I0403 15:06:04.268357 31132 net.cpp:399] loss3/classifier_plantvillage_loss3/classifier_plantvillage_0_split -> loss3/classifier_plantvillage_loss3/classifier_plantvillage_0_split_0
I0403 15:06:04.268375 31132 net.cpp:399] loss3/classifier_plantvillage_loss3/classifier_plantvillage_0_split -> loss3/classifier_plantvillage_loss3/classifier_plantvillage_0_split_1
I0403 15:06:04.268395 31132 net.cpp:399] loss3/classifier_plantvillage_loss3/classifier_plantvillage_0_split -> loss3/classifier_plantvillage_loss3/classifier_plantvillage_0_split_2
I0403 15:06:04.268414 31132 net.cpp:399] loss3/classifier_plantvillage_loss3/classifier_plantvillage_0_split -> loss3/classifier_plantvillage_loss3/classifier_plantvillage_0_split_3
I0403 15:06:04.268512 31132 net.cpp:141] Setting up loss3/classifier_plantvillage_loss3/classifier_plantvillage_0_split
I0403 15:06:04.268537 31132 net.cpp:148] Top shape: 24 38 (912)
I0403 15:06:04.268553 31132 net.cpp:148] Top shape: 24 38 (912)
I0403 15:06:04.268570 31132 net.cpp:148] Top shape: 24 38 (912)
I0403 15:06:04.268585 31132 net.cpp:148] Top shape: 24 38 (912)
I0403 15:06:04.268599 31132 net.cpp:156] Memory required for data: 1346079072
I0403 15:06:04.268612 31132 layer_factory.hpp:77] Creating layer loss1/loss
I0403 15:06:04.268633 31132 net.cpp:91] Creating Layer loss1/loss
I0403 15:06:04.268651 31132 net.cpp:425] loss1/loss <- loss1/classifier_plantvillage_loss1/classifier_plantvillage_0_split_0
I0403 15:06:04.268681 31132 net.cpp:425] loss1/loss <- label_data_1_split_0
…
