…
I0403 15:00:12.441272 30857 net.cpp:313] The NetState phase (1) differed from the phase (0) specified by a rule in layer data
I0403 15:00:12.442481 30857 net.cpp:49] Initializing net from parameters: 
state {
  phase: TEST
}
layer {
  name: "data"
  type: "Data"
  top: "data"
  top: "label"
  include {
    phase: TEST
  }
  transform_param {
    mirror: false
    crop_size: 224
    mean_file: "/home/mohanty/data/final_dataset/lmdb/grayscale-80-20/mean.binaryproto"
  }
  data_param {
    source: "/home/mohanty/data/final_dataset/lmdb/grayscale-80-20/test_db"
    batch_size: 24
    backend: LMDB
  }
}
layer {
  name: "conv1/7x7_s2"
  type: "Convolution"
  bottom: "data"
  top: "conv1/7x7_s2"
  param {
    lr_mult: 1
    decay_mult: 1
  }
  param {
    lr_mult: 2
    decay_mult: 0
  }
  convolution_param {
    num_output: 64
    pad: 3
    kernel_size: 7
    stride: 2
    weight_filler {
      type: "xavier"
      std: 0.1
    }
    bias_filler {
      type: "constant"
      value: 0.2
    }
  }
}
layer {
  name: "conv1/relu_7x7"
  type: "ReLU"
  bottom: "conv1/7x7_s2"
  top: "conv1/7x7_s2"
}
layer {
  name: "pool1/3x3_s2"
  type: "Pooling"
  bottom: "conv1/7x7_s2"
  top: "pool1/3x3_s2"
  pooling_param {
    pool: MAX
    kernel_size: 3
    stride: 2
  }
}
layer {
  name: "pool1/norm1"
  type: "LRN"
  bottom: "pool1/3x3_s2"
  top: "pool1/norm1"
  lrn_param {
    local_size: 5
    alpha: 0.0001
    beta: 0.75
  }
}
layer {
  name: "conv2/3x3_reduce"
  type: "Convolution"
  bottom: "pool1/norm1"
  top: "conv2/3x3_reduce"
  param {
    lr_mult: 1
    decay_mult: 1
  }
  param {
    lr_mult: 2
    decay_mult: 0
  }
  convolution_param {
    num_output: 64
    kernel_size: 1
    weight_filler {
      type: "xavier"
      std: 0.1
    }
    bias_filler {
      type: "constant"
      value: 0.2
    }
  }
}
layer {
  name: "conv2/relu_3x3_reduce"
  type: "ReLU"
  bottom: "conv2/3x3_reduce"
  top: "conv2/3x3_reduce"
}
layer {
  name: "conv2/3x3"
  type: "Convolution"
  bottom: "conv2/3x3_reduce"
  top: "conv2/3x3"
  param {
    lr_mult: 1
    decay_mult: 1
  }
  param {
    lr_mult: 2
    decay_mult: 0
  }
  convolution_param {
    num_output: 192
    pad: 1
    kernel_size: 3
    weight_filler {
      type: "xavier"
      std: 0.03
    }
    bias_filler {
      type: "constant"
      value: 0.2
    }
  }
}
layer {
  name: "conv2/relu_3x3"
  type: "ReLU"
  bottom: "conv2/3x3"
  top: "conv2/3x3"
}
layer {
  name: "conv2/norm2"
  type: "LRN"
  bottom: "conv2/3x3"
  top: "conv2/norm2"
  lrn_param {
    local_size: 5
    alpha: 0.0001
    beta: 0.75
  }
}
layer {
  name: "pool2/3x3_s2"
  type: "Pooling"
  bottom: "conv2/norm2"
  top: "pool2/3x3_s2"
  pooling_param {
    pool: MAX
    kernel_size: 3
    stride: 2
  }
}
layer {
  name: "inception_3a/1x1"
  type: "Convolution"
  bottom: "pool2/3x3_s2"
  top: "inception_3a/1x1"
  param {
    lr_mult: 1
    decay_mult: 1
  }
  param {
    lr_mult: 2
    decay_mult: 0
  }
  convolution_param {
    num_output: 64
    kernel_size: 1
    weight_filler {
      type: "xavier"
      std: 0.03
    }
    bias_filler {
      type: "constant"
      value: 0.2
    }
  }
}
layer {
  name: "inception_3a/relu_1x1"
  type: "ReLU"
  bottom: "inception_3a/1x1"
  top: "inception_3a/1x1"
}
layer {
  name: "inception_3a/3x3_reduce"
  type: "Convolution"
  bottom: "pool2/3x3_s2"
  top: "inception_3a/3x3_reduce"
  param {
    lr_mult: 1
    decay_mult: 1
  }
  param {
    lr_mult: 2
    decay_mult: 0
  }
  convolution_param {
    num_output: 96
    kernel_size: 1
    weight_filler {
      type: "xavier"
      std: 0.09
    }
    bias_filler {
      type: "constant"
      value: 0.2
    }
  }
}
layer {
  name: "inception_3a/relu_3x3_reduce"
  type: "ReLU"
  bottom: "inception_3a/3x3_reduce"
  top: "inception_3a/3x3_reduce"
}
layer {
  name: "inception_3a/3x3"
  type: "Convolution"
  bottom: "inception_3a/3x3_reduce"
  top: "inception_3a/3x3"
  param {
    lr_mult: 1
    decay_mult: 1
  }
  param {
    lr_mult: 2
    decay_mult: 0
  }
  convolution_param {
    num_output: 128
    pad: 1
    kernel_size: 3
    weight_filler {
      type: "xavier"
      std: 0.03
    }
    bias_filler {
      type: "constant"
      value: 0.2
    }
  }
}
layer {
  name: "inception_3a/relu_3x3"
  type: "ReLU"
  bottom: "inception_3a/3x3"
  top: "inception_3a/3x3"
}
layer {
  name: "inception_3a/5x5_reduce"
  type: "Convolution"
  bottom: "pool2/3x3_s2"
  top: "inception_3a/5x5_reduce"
  param {
    lr_mult: 1
    decay_mult: 1
  }
  param {
    lr_mult: 2
    decay_mult: 0
  }
  convolution_param {
    num_output: 16
    kernel_size: 1
    weight_filler {
      type: "xavier"
      std: 0.2
    }
    bias_filler {
      type: "constant"
      value: 0.2
    }
  }
}
layer {
  name: "inception_3a/relu_5x5_reduce"
  type: "ReLU"
  bottom: "inception_3a/5x5_reduce"
  top: "inception_3a/5x5_reduce"
}
layer {
  name: "inception_3a/5x5"
  type: "Convolution"
  bottom: "inception_3a/5x5_reduce"
  top: "inception_3a/5x5"
  param {
    lr_mult: 1
    decay_mult: 1
  }
  param {
    lr_mult: 2
    decay_mult: 0
  }
  convolution_param {
    num_output: 32
    pad: 2
    kernel_size: 5
    weight_filler {
      type: "xavier"
      std: 0.03
    }
    bias_filler {
      type: "constant"
      value: 0.2
    }
  }
}
layer {
  name: "inception_3a/relu_5x5"
  type: "ReLU"
  bottom: "inception_3a/5x5"
  top: "inception_3a/5x5"
}
layer {
  name: "inception_3a/pool"
  type: "Pooling"
  bottom: "pool2/3x3_s2"
  top: "inception_3a/pool"
  pooling_param {
    pool: MAX
    kernel_size: 3
    stride: 1
    pad: 1
  }
}
layer {
  name: "inception_3a/pool_proj"
  type: "Convolution"
  bottom: "inception_3a/pool"
  top: "inception_3a/pool_proj"
  param {
    lr_mult: 1
    decay_mult: 1
  }
  param {
    lr_mult: 2
    decay_mult: 0
  }
  convolution_param {
    num_output: 32
    kernel_size: 1
    weight_filler {
      type: "xavier"
      std: 0.1
    }
    bias_filler {
      type: "constant"
      value: 0.2
    }
  }
}
layer {
  name: "inception_3a/relu_pool_proj"
  type: "ReLU"
  bottom: "inception_3a/pool_proj"
  top: "inception_3a/pool_proj"
}
layer {
  name: "inception_3a/output"
  type: "Concat"
  bottom: "inception_3a/1x1"
  bottom: "inception_3a/3x3"
  bottom: "inception_3a/5x5"
  bottom: "inception_3a/pool_proj"
  top: "inception_3a/output"
}
layer {
  name: "inception_3b/1x1"
  type: "Convolution"
  bottom: "inception_3a/output"
  top: "inception_3b/1x1"
  param {
    lr_mult: 1
    decay_mult: 1
  }
  param {
    lr_mult: 2
    decay_mult: 0
  }
  convolution_param {
    num_output: 128
    kernel_size: 1
    weight_filler {
      type: "xavier"
      std: 0.03
    }
    bias_filler {
      type: "constant"
      value: 0.2
    }
  }
}
layer {
  name: "inception_3b/relu_1x1"
  type: "ReLU"
  bottom: "inception_3b/1x1"
  top: "inception_3b/1x1"
}
layer {
  name: "inception_3b/3x3_reduce"
  type: "Convolution"
  bottom: "inception_3a/output"
  top: "inception_3b/3x3_reduce"
  param {
    lr_mult: 1
    decay_mult: 1
  }
  param {
    lr_mult: 2
    decay_mult: 0
  }
  convolution_param {
    num_output: 128
    kernel_size: 1
    weight_filler {
      type: "xavier"
      std: 0.09
    }
    bias_filler {
      type: "constant"
      value: 0.2
    }
  }
}
layer {
  name: "inception_3b/relu_3x3_reduce"
  type: "ReLU"
  bottom: "inception_3b/3x3_reduce"
  top: "inception_3b/3x3_reduce"
}
layer {
  name: "inception_3b/3x3"
  type: "Convolution"
  bottom: "inception_3b/3x3_reduce"
  top: "inception_3b/3x3"
  param {
    lr_mult: 1
    decay_mult: 1
  }
  param {
    lr_mult: 2
    decay_mult: 0
  }
  convolution_param {
    num_output: 192
    pad: 1
    kernel_size: 3
    weight_filler {
      type: "xavier"
      std: 0.03
    }
    bias_filler {
      type: "constant"
      value: 0.2
    }
  }
}
layer {
  name: "inception_3b/relu_3x3"
  type: "ReLU"
  bottom: "inception_3b/3x3"
  top: "inception_3b/3x3"
}
layer {
  name: "inception_3b/5x5_reduce"
  type: "Convolution"
  bottom: "inception_3a/output"
  top: "inception_3b/5x5_reduce"
  param {
    lr_mult: 1
    decay_mult: 1
  }
  param {
    lr_mult: 2
    decay_mult: 0
  }
  convolution_param {
    num_output: 32
    kernel_size: 1
    weight_filler {
      type: "xavier"
      std: 0.2
    }
    bias_filler {
      type: "constant"
      value: 0.2
    }
  }
}
layer {
  name: "inception_3b/relu_5x5_reduce"
  type: "ReLU"
  bottom: "inception_3b/5x5_reduce"
  top: "inception_3b/5x5_reduce"
}
layer {
  name: "inception_3b/5x5"
  type: "Convolution"
  bottom: "inception_3b/5x5_reduce"
  top: "inception_3b/5x5"
  param {
    lr_mult: 1
    decay_mult: 1
  }
  param {
    lr_mult: 2
    decay_mult: 0
  }
  convolution_param {
    num_output: 96
    pad: 2
    kernel_size: 5
    weight_filler {
      type: "xavier"
      std: 0.03
    }
    bias_filler {
      type: "constant"
      value: 0.2
    }
  }
}
layer {
  name: "inception_3b/relu_5x5"
  type: "ReLU"
  bottom: "inception_3b/5x5"
  top: "inception_3b/5x5"
}
layer {
  name: "inception_3b/pool"
  type: "Pooling"
  bottom: "inception_3a/output"
  top: "inception_3b/pool"
  pooling_param {
    pool: MAX
    kernel_size: 3
    stride: 1
    pad: 1
  }
}
layer {
  name: "inception_3b/pool_proj"
  type: "Convolution"
  bottom: "inception_3b/pool"
  top: "inception_3b/pool_proj"
  param {
    lr_mult: 1
    decay_mult: 1
  }
  param {
    lr_mult: 2
    decay_mult: 0
  }
  convolution_param {
    num_output: 64
    kernel_size: 1
    weight_filler {
      type: "xavier"
      std: 0.1
    }
    bias_filler {
      type: "constant"
      value: 0.2
    }
  }
}
layer {
  name: "inception_3b/relu_pool_proj"
  type: "ReLU"
  bottom: "inception_3b/pool_proj"
  top: "inception_3b/pool_proj"
}
layer {
  name: "inception_3b/output"
  type: "Concat"
  bottom: "inception_3b/1x1"
  bottom: "inception_3b/3x3"
  bottom: "inception_3b/5x5"
  bottom: "inception_3b/pool_proj"
  top: "inception_3b/output"
}
layer {
  name: "pool3/3x3_s2"
  type: "Pooling"
  bottom: "inception_3b/output"
  top: "pool3/3x3_s2"
  pooling_param {
    pool: MAX
    kernel_size: 3
    stride: 2
  }
}
layer {
  name: "inception_4a/1x1"
  type: "Convolution"
  bottom: "pool3/3x3_s2"
  top: "inception_4a/1x1"
  param {
    lr_mult: 1
    decay_mult: 1
  }
  param {
    lr_mult: 2
    decay_mult: 0
  }
  convolution_param {
    num_output: 192
    kernel_size: 1
    weight_filler {
      type: "xavier"
      std: 0.03
    }
    bias_filler {
      type: "constant"
      value: 0.2
    }
  }
}
layer {
  name: "inception_4a/relu_1x1"
  type: "ReLU"
  bottom: "inception_4a/1x1"
  top: "inception_4a/1x1"
}
layer {
  name: "inception_4a/3x3_reduce"
  type: "Convolution"
  bottom: "pool3/3x3_s2"
  top: "inception_4a/3x3_reduce"
  param {
    lr_mult: 1
    decay_mult: 1
  }
  param {
    lr_mult: 2
    decay_mult: 0
  }
  convolution_param {
    num_output: 96
    kernel_size: 1
    weight_filler {
      type: "xavier"
      std: 0.09
    }
    bias_filler {
      type: "constant"
      value: 0.2
    }
  }
}
layer {
  name: "inception_4a/relu_3x3_reduce"
  type: "ReLU"
  bottom: "inception_4a/3x3_reduce"
  top: "inception_4a/3x3_reduce"
}
layer {
  name: "inception_4a/3x3"
  type: "Convolution"
  bottom: "inception_4a/3x3_reduce"
  top: "inception_4a/3x3"
  param {
    lr_mult: 1
    decay_mult: 1
  }
  param {
    lr_mult: 2
    decay_mult: 0
  }
  convolution_param {
    num_output: 208
    pad: 1
    kernel_size: 3
    weight_filler {
      type: "xavier"
      std: 0.03
    }
    bias_filler {
      type: "constant"
      value: 0.2
    }
  }
}
layer {
  name: "inception_4a/relu_3x3"
  type: "ReLU"
  bottom: "inception_4a/3x3"
  top: "inception_4a/3x3"
}
layer {
  name: "inception_4a/5x5_reduce"
  type: "Convolution"
  bottom: "pool3/3x3_s2"
  top: "inception_4a/5x5_reduce"
  param {
    lr_mult: 1
    decay_mult: 1
  }
  param {
    lr_mult: 2
    decay_mult: 0
  }
  convolution_param {
    num_output: 16
    kernel_size: 1
    weight_filler {
      type: "xavier"
      std: 0.2
    }
    bias_filler {
      type: "constant"
      value: 0.2
    }
  }
}
layer {
  name: "inception_4a/relu_5x5_reduce"
  type: "ReLU"
  bottom: "inception_4a/5x5_reduce"
  top: "inception_4a/5x5_reduce"
}
layer {
  name: "inception_4a/5x5"
  type: "Convolution"
  bottom: "inception_4a/5x5_reduce"
  top: "inception_4a/5x5"
  param {
    lr_mult: 1
    decay_mult: 1
  }
  param {
    lr_mult: 2
    decay_mult: 0
  }
  convolution_param {
    num_output: 48
    pad: 2
    kernel_size: 5
    weight_filler {
      type: "xavier"
      std: 0.03
    }
    bias_filler {
      type: "constant"
      value: 0.2
    }
  }
}
layer {
  name: "inception_4a/relu_5x5"
  type: "ReLU"
  bottom: "inception_4a/5x5"
  top: "inception_4a/5x5"
}
layer {
  name: "inception_4a/pool"
  type: "Pooling"
  bottom: "pool3/3x3_s2"
  top: "inception_4a/pool"
  pooling_param {
    pool: MAX
    kernel_size: 3
    stride: 1
    pad: 1
  }
}
layer {
  name: "inception_4a/pool_proj"
  type: "Convolution"
  bottom: "inception_4a/pool"
  top: "inception_4a/pool_proj"
  param {
    lr_mult: 1
    decay_mult: 1
  }
  param {
    lr_mult: 2
    decay_mult: 0
  }
  convolution_param {
    num_output: 64
    kernel_size: 1
    weight_filler {
      type: "xavier"
      std: 0.1
    }
    bias_filler {
      type: "constant"
      value: 0.2
    }
  }
}
layer {
  name: "inception_4a/relu_pool_proj"
  type: "ReLU"
  bottom: "inception_4a/pool_proj"
  top: "inception_4a/pool_proj"
}
layer {
  name: "inception_4a/output"
  type: "Concat"
  bottom: "inception_4a/1x1"
  bottom: "inception_4a/3x3"
  bottom: "inception_4a/5x5"
  bottom: "inception_4a/pool_proj"
  top: "inception_4a/output"
}
layer {
  name: "loss1/ave_pool"
  type: "Pooling"
  bottom: "inception_4a/output"
  top: "loss1/ave_pool"
  pooling_param {
    pool: AVE
    kernel_size: 5
    stride: 3
  }
}
layer {
  name: "loss1/conv"
  type: "Convolution"
  bottom: "loss1/ave_pool"
  top: "loss1/conv"
  param {
    lr_mult: 1
    decay_mult: 1
  }
  param {
    lr_mult: 2
    decay_mult: 0
  }
  convolution_param {
    num_output: 128
    kernel_size: 1
    weight_filler {
      type: "xavier"
      std: 0.08
    }
    bias_filler {
      type: "constant"
      value: 0.2
    }
  }
}
layer {
  name: "loss1/relu_conv"
  type: "ReLU"
  bottom: "loss1/conv"
  top: "loss1/conv"
}
layer {
  name: "loss1/fc"
  type: "InnerProduct"
  bottom: "loss1/conv"
  top: "loss1/fc"
  param {
    lr_mult: 1
    decay_mult: 1
  }
  param {
    lr_mult: 2
    decay_mult: 0
  }
  inner_product_param {
    num_output: 1024
    weight_filler {
      type: "xavier"
      std: 0.02
    }
    bias_filler {
      type: "constant"
      value: 0.2
    }
  }
}
layer {
  name: "loss1/relu_fc"
  type: "ReLU"
  bottom: "loss1/fc"
  top: "loss1/fc"
}
layer {
  name: "loss1/drop_fc"
  type: "Dropout"
  bottom: "loss1/fc"
  top: "loss1/fc"
  dropout_param {
    dropout_ratio: 0.7
  }
}
layer {
  name: "loss1/classifier_plantvillage"
  type: "InnerProduct"
  bottom: "loss1/fc"
  top: "loss1/classifier_plantvillage"
  param {
    lr_mult: 1
    decay_mult: 1
  }
  param {
    lr_mult: 2
    decay_mult: 0
  }
  inner_product_param {
    num_output: 38
    weight_filler {
      type: "xavier"
      std: 0.0009765625
    }
    bias_filler {
      type: "constant"
      value: 0
    }
  }
}
layer {
  name: "inception_4b/1x1"
  type: "Convolution"
  bottom: "inception_4a/output"
  top: "inception_4b/1x1"
  param {
    lr_mult: 1
    decay_mult: 1
  }
  param {
    lr_mult: 2
    decay_mult: 0
  }
  convolution_param {
    num_output: 160
    kernel_size: 1
    weight_filler {
      type: "xavier"
      std: 0.03
    }
    bias_filler {
      type: "constant"
      value: 0.2
    }
  }
}
layer {
  name: "inception_4b/relu_1x1"
  type: "ReLU"
  bottom: "inception_4b/1x1"
  top: "inception_4b/1x1"
}
layer {
  name: "inception_4b/3x3_reduce"
  type: "Convolution"
  bottom: "inception_4a/output"
  top: "inception_4b/3x3_reduce"
  param {
    lr_mult: 1
    decay_mult: 1
  }
  param {
    lr_mult: 2
    decay_mult: 0
  }
  convolution_param {
    num_output: 112
    kernel_size: 1
    weight_filler {
      type: "xavier"
      std: 0.09
    }
    bias_filler {
      type: "constant"
      value: 0.2
    }
  }
}
layer {
  name: "inception_4b/relu_3x3_reduce"
  type: "ReLU"
  bottom: "inception_4b/3x3_reduce"
  top: "inception_4b/3x3_reduce"
}
layer {
  name: "inception_4b/3x3"
  type: "Convolution"
  bottom: "inception_4b/3x3_reduce"
  top: "inception_4b/3x3"
  param {
    lr_mult: 1
    decay_mult: 1
  }
  param {
    lr_mult: 2
    decay_mult: 0
  }
  convolution_param {
    num_output: 224
    pad: 1
    kernel_size: 3
    weight_filler {
      type: "xavier"
      std: 0.03
    }
    bias_filler {
      type: "constant"
      value: 0.2
    }
  }
}
layer {
  name: "inception_4b/relu_3x3"
  type: "ReLU"
  bottom: "inception_4b/3x3"
  top: "inception_4b/3x3"
}
layer {
  name: "inception_4b/5x5_reduce"
  type: "Convolution"
  bottom: "inception_4a/output"
  top: "inception_4b/5x5_reduce"
  param {
    lr_mult: 1
    decay_mult: 1
  }
  param {
    lr_mult: 2
    decay_mult: 0
  }
  convolution_param {
    num_output: 24
    kernel_size: 1
    weight_filler {
      type: "xavier"
      std: 0.2
    }
    bias_filler {
      type: "constant"
      value: 0.2
    }
  }
}
layer {
  name: "inception_4b/relu_5x5_reduce"
  type: "ReLU"
  bottom: "inception_4b/5x5_reduce"
  top: "inception_4b/5x5_reduce"
}
layer {
  name: "inception_4b/5x5"
  type: "Convolution"
  bottom: "inception_4b/5x5_reduce"
  top: "inception_4b/5x5"
  param {
    lr_mult: 1
    decay_mult: 1
  }
  param {
    lr_mult: 2
    decay_mult: 0
  }
  convolution_param {
    num_output: 64
    pad: 2
    kernel_size: 5
    weight_filler {
      type: "xavier"
      std: 0.03
    }
    bias_filler {
      type: "constant"
      value: 0.2
    }
  }
}
layer {
  name: "inception_4b/relu_5x5"
  type: "ReLU"
  bottom: "inception_4b/5x5"
  top: "inception_4b/5x5"
}
layer {
  name: "inception_4b/pool"
  type: "Pooling"
  bottom: "inception_4a/output"
  top: "inception_4b/pool"
  pooling_param {
    pool: MAX
    kernel_size: 3
    stride: 1
    pad: 1
  }
}
layer {
  name: "inception_4b/pool_proj"
  type: "Convolution"
  bottom: "inception_4b/pool"
  top: "inception_4b/pool_proj"
  param {
    lr_mult: 1
    decay_mult: 1
  }
  param {
    lr_mult: 2
    decay_mult: 0
  }
  convolution_param {
    num_output: 64
    kernel_size: 1
    weight_filler {
      type: "xavier"
      std: 0.1
    }
    bias_filler {
      type: "constant"
      value: 0.2
    }
  }
}
layer {
  name: "inception_4b/relu_pool_proj"
  type: "ReLU"
  bottom: "inception_4b/pool_proj"
  top: "inception_4b/pool_proj"
}
layer {
  name: "inception_4b/output"
  type: "Concat"
  bottom: "inception_4b/1x1"
  bottom: "inception_4b/3x3"
  bottom: "inception_4b/5x5"
  bottom: "inception_4b/pool_proj"
  top: "inception_4b/output"
}
layer {
  name: "inception_4c/1x1"
  type: "Convolution"
  bottom: "inception_4b/output"
  top: "inception_4c/1x1"
  param {
    lr_mult: 1
    decay_mult: 1
  }
  param {
    lr_mult: 2
    decay_mult: 0
  }
  convolution_param {
    num_output: 128
    kernel_size: 1
    weight_filler {
      type: "xavier"
      std: 0.03
    }
    bias_filler {
      type: "constant"
      value: 0.2
    }
  }
}
layer {
  name: "inception_4c/relu_1x1"
  type: "ReLU"
  bottom: "inception_4c/1x1"
  top: "inception_4c/1x1"
}
layer {
  name: "inception_4c/3x3_reduce"
  type: "Convolution"
  bottom: "inception_4b/output"
  top: "inception_4c/3x3_reduce"
  param {
    lr_mult: 1
    decay_mult: 1
  }
  param {
    lr_mult: 2
    decay_mult: 0
  }
  convolution_param {
    num_output: 128
    kernel_size: 1
    weight_filler {
      type: "xavier"
      std: 0.09
    }
    bias_filler {
      type: "constant"
      value: 0.2
    }
  }
}
layer {
  name: "inception_4c/relu_3x3_reduce"
  type: "ReLU"
  bottom: "inception_4c/3x3_reduce"
  top: "inception_4c/3x3_reduce"
}
layer {
  name: "inception_4c/3x3"
  type: "Convolution"
  bottom: "inception_4c/3x3_reduce"
  top: "inception_4c/3x3"
  param {
    lr_mult: 1
    decay_mult: 1
  }
  param {
    lr_mult: 2
    decay_mult: 0
  }
  convolution_param {
    num_output: 256
    pad: 1
    kernel_size: 3
    weight_filler {
      type: "xavier"
      std: 0.03
    }
    bias_filler {
      type: "constant"
      value: 0.2
    }
  }
}
layer {
  name: "inception_4c/relu_3x3"
  type: "ReLU"
  bottom: "inception_4c/3x3"
  top: "inception_4c/3x3"
}
layer {
  name: "inception_4c/5x5_reduce"
  type: "Convolution"
  bottom: "inception_4b/output"
  top: "inception_4c/5x5_reduce"
  param {
    lr_mult: 1
    decay_mult: 1
  }
  param {
    lr_mult: 2
    decay_mult: 0
  }
  convolution_param {
    num_output: 24
    kernel_size: 1
    weight_filler {
      type: "xavier"
      std: 0.2
    }
    bias_filler {
      type: "constant"
      value: 0.2
    }
  }
}
layer {
  name: "inception_4c/relu_5x5_reduce"
  type: "ReLU"
  bottom: "inception_4c/5x5_reduce"
  top: "inception_4c/5x5_reduce"
}
layer {
  name: "inception_4c/5x5"
  type: "Convolution"
  bottom: "inception_4c/5x5_reduce"
  top: "inception_4c/5x5"
  param {
    lr_mult: 1
    decay_mult: 1
  }
  param {
    lr_mult: 2
    decay_mult: 0
  }
  convolution_param {
    num_output: 64
    pad: 2
    kernel_size: 5
    weight_filler {
      type: "xavier"
      std: 0.03
    }
    bias_filler {
      type: "constant"
      value: 0.2
    }
  }
}
layer {
  name: "inception_4c/relu_5x5"
  type: "ReLU"
  bottom: "inception_4c/5x5"
  top: "inception_4c/5x5"
}
layer {
  name: "inception_4c/pool"
  type: "Pooling"
  bottom: "inception_4b/output"
  top: "inception_4c/pool"
  pooling_param {
    pool: MAX
    kernel_size: 3
    stride: 1
    pad: 1
  }
}
layer {
  name: "inception_4c/pool_proj"
  type: "Convolution"
  bottom: "inception_4c/pool"
  top: "inception_4c/pool_proj"
  param {
    lr_mult: 1
    decay_mult: 1
  }
  param {
    lr_mult: 2
    decay_mult: 0
  }
  convolution_param {
    num_output: 64
    kernel_size: 1
    weight_filler {
      type: "xavier"
      std: 0.1
    }
    bias_filler {
      type: "constant"
      value: 0.2
    }
  }
}
layer {
  name: "inception_4c/relu_pool_proj"
  type: "ReLU"
  bottom: "inception_4c/pool_proj"
  top: "inception_4c/pool_proj"
}
layer {
  name: "inception_4c/output"
  type: "Concat"
  bottom: "inception_4c/1x1"
  bottom: "inception_4c/3x3"
  bottom: "inception_4c/5x5"
  bottom: "inception_4c/pool_proj"
  top: "inception_4c/output"
}
layer {
  name: "inception_4d/1x1"
  type: "Convolution"
  bottom: "inception_4c/output"
  top: "inception_4d/1x1"
  param {
    lr_mult: 1
    decay_mult: 1
  }
  param {
    lr_mult: 2
    decay_mult: 0
  }
  convolution_param {
    num_output: 112
    kernel_size: 1
    weight_filler {
      type: "xavier"
      std: 0.03
    }
    bias_filler {
      type: "constant"
      value: 0.2
    }
  }
}
layer {
  name: "inception_4d/relu_1x1"
  type: "ReLU"
  bottom: "inception_4d/1x1"
  top: "inception_4d/1x1"
}
layer {
  name: "inception_4d/3x3_reduce"
  type: "Convolution"
  bottom: "inception_4c/output"
  top: "inception_4d/3x3_reduce"
  param {
    lr_mult: 1
    decay_mult: 1
  }
  param {
    lr_mult: 2
    decay_mult: 0
  }
  convolution_param {
    num_output: 144
    kernel_size: 1
    weight_filler {
      type: "xavier"
      std: 0.09
    }
    bias_filler {
      type: "constant"
      value: 0.2
    }
  }
}
layer {
  name: "inception_4d/relu_3x3_reduce"
  type: "ReLU"
  bottom: "inception_4d/3x3_reduce"
  top: "inception_4d/3x3_reduce"
}
layer {
  name: "inception_4d/3x3"
  type: "Convolution"
  bottom: "inception_4d/3x3_reduce"
  top: "inception_4d/3x3"
  param {
    lr_mult: 1
    decay_mult: 1
  }
  param {
    lr_mult: 2
    decay_mult: 0
  }
  convolution_param {
    num_output: 288
    pad: 1
    kernel_size: 3
    weight_filler {
      type: "xavier"
      std: 0.03
    }
    bias_filler {
      type: "constant"
      value: 0.2
    }
  }
}
layer {
  name: "inception_4d/relu_3x3"
  type: "ReLU"
  bottom: "inception_4d/3x3"
  top: "inception_4d/3x3"
}
layer {
  name: "inception_4d/5x5_reduce"
  type: "Convolution"
  bottom: "inception_4c/output"
  top: "inception_4d/5x5_reduce"
  param {
    lr_mult: 1
    decay_mult: 1
  }
  param {
    lr_mult: 2
    decay_mult: 0
  }
  convolution_param {
    num_output: 32
    kernel_size: 1
    weight_filler {
      type: "xavier"
      std: 0.2
    }
    bias_filler {
      type: "constant"
      value: 0.2
    }
  }
}
layer {
  name: "inception_4d/relu_5x5_reduce"
  type: "ReLU"
  bottom: "inception_4d/5x5_reduce"
  top: "inception_4d/5x5_reduce"
}
layer {
  name: "inception_4d/5x5"
  type: "Convolution"
  bottom: "inception_4d/5x5_reduce"
  top: "inception_4d/5x5"
  param {
    lr_mult: 1
    decay_mult: 1
  }
  param {
    lr_mult: 2
    decay_mult: 0
  }
  convolution_param {
    num_output: 64
    pad: 2
    kernel_size: 5
    weight_filler {
      type: "xavier"
      std: 0.03
    }
    bias_filler {
      type: "constant"
      value: 0.2
    }
  }
}
layer {
  name: "inception_4d/relu_5x5"
  type: "ReLU"
  bottom: "inception_4d/5x5"
  top: "inception_4d/5x5"
}
layer {
  name: "inception_4d/pool"
  type: "Pooling"
  bottom: "inception_4c/output"
  top: "inception_4d/pool"
  pooling_param {
    pool: MAX
    kernel_size: 3
    stride: 1
    pad: 1
  }
}
layer {
  name: "inception_4d/pool_proj"
  type: "Convolution"
  bottom: "inception_4d/pool"
  top: "inception_4d/pool_proj"
  param {
    lr_mult: 1
    decay_mult: 1
  }
  param {
    lr_mult: 2
    decay_mult: 0
  }
  convolution_param {
    num_output: 64
    kernel_size: 1
    weight_filler {
      type: "xavier"
      std: 0.1
    }
    bias_filler {
      type: "constant"
      value: 0.2
    }
  }
}
layer {
  name: "inception_4d/relu_pool_proj"
  type: "ReLU"
  bottom: "inception_4d/pool_proj"
  top: "inception_4d/pool_proj"
}
layer {
  name: "inception_4d/output"
  type: "Concat"
  bottom: "inception_4d/1x1"
  bottom: "inception_4d/3x3"
  bottom: "inception_4d/5x5"
  bottom: "inception_4d/pool_proj"
  top: "inception_4d/output"
}
layer {
  name: "loss2/ave_pool"
  type: "Pooling"
  bottom: "inception_4d/output"
  top: "loss2/ave_pool"
  pooling_param {
    pool: AVE
    kernel_size: 5
    stride: 3
  }
}
layer {
  name: "loss2/conv"
  type: "Convolution"
  bottom: "loss2/ave_pool"
  top: "loss2/conv"
  param {
    lr_mult: 1
    decay_mult: 1
  }
  param {
    lr_mult: 2
    decay_mult: 0
  }
  convolution_param {
    num_output: 128
    kernel_size: 1
    weight_filler {
      type: "xavier"
      std: 0.08
    }
    bias_filler {
      type: "constant"
      value: 0.2
    }
  }
}
layer {
  name: "loss2/relu_conv"
  type: "ReLU"
  bottom: "loss2/conv"
  top: "loss2/conv"
}
layer {
  name: "loss2/fc"
  type: "InnerProduct"
  bottom: "loss2/conv"
  top: "loss2/fc"
  param {
    lr_mult: 1
    decay_mult: 1
  }
  param {
    lr_mult: 2
    decay_mult: 0
  }
  inner_product_param {
    num_output: 1024
    weight_filler {
      type: "xavier"
      std: 0.02
    }
    bias_filler {
      type: "constant"
      value: 0.2
    }
  }
}
layer {
  name: "loss2/relu_fc"
  type: "ReLU"
  bottom: "loss2/fc"
  top: "loss2/fc"
}
layer {
  name: "loss2/drop_fc"
  type: "Dropout"
  bottom: "loss2/fc"
  top: "loss2/fc"
  dropout_param {
    dropout_ratio: 0.7
  }
}
layer {
  name: "loss2/classifier_plantvillage"
  type: "InnerProduct"
  bottom: "loss2/fc"
  top: "loss2/classifier_plantvillage"
  param {
    lr_mult: 1
    decay_mult: 1
  }
  param {
    lr_mult: 2
    decay_mult: 0
  }
  inner_product_param {
    num_output: 38
    weight_filler {
      type: "xavier"
      std: 0.0009765625
    }
    bias_filler {
      type: "constant"
      value: 0
    }
  }
}
layer {
  name: "inception_4e/1x1"
  type: "Convolution"
  bottom: "inception_4d/output"
  top: "inception_4e/1x1"
  param {
    lr_mult: 1
    decay_mult: 1
  }
  param {
    lr_mult: 2
    decay_mult: 0
  }
  convolution_param {
    num_output: 256
    kernel_size: 1
    weight_filler {
      type: "xavier"
      std: 0.03
    }
    bias_filler {
      type: "constant"
      value: 0.2
    }
  }
}
layer {
  name: "inception_4e/relu_1x1"
  type: "ReLU"
  bottom: "inception_4e/1x1"
  top: "inception_4e/1x1"
}
layer {
  name: "inception_4e/3x3_reduce"
  type: "Convolution"
  bottom: "inception_4d/output"
  top: "inception_4e/3x3_reduce"
  param {
    lr_mult: 1
    decay_mult: 1
  }
  param {
    lr_mult: 2
    decay_mult: 0
  }
  convolution_param {
    num_output: 160
    kernel_size: 1
    weight_filler {
      type: "xavier"
      std: 0.09
    }
    bias_filler {
      type: "constant"
      value: 0.2
    }
  }
}
layer {
  name: "inception_4e/relu_3x3_reduce"
  type: "ReLU"
  bottom: "inception_4e/3x3_reduce"
  top: "inception_4e/3x3_reduce"
}
layer {
  name: "inception_4e/3x3"
  type: "Convolution"
  bottom: "inception_4e/3x3_reduce"
  top: "inception_4e/3x3"
  param {
    lr_mult: 1
    decay_mult: 1
  }
  param {
    lr_mult: 2
    decay_mult: 0
  }
  convolution_param {
    num_output: 320
    pad: 1
    kernel_size: 3
    weight_filler {
      type: "xavier"
      std: 0.03
    }
    bias_filler {
      type: "constant"
      value: 0.2
    }
  }
}
layer {
  name: "inception_4e/relu_3x3"
  type: "ReLU"
  bottom: "inception_4e/3x3"
  top: "inception_4e/3x3"
}
layer {
  name: "inception_4e/5x5_reduce"
  type: "Convolution"
  bottom: "inception_4d/output"
  top: "inception_4e/5x5_reduce"
  param {
    lr_mult: 1
    decay_mult: 1
  }
  param {
    lr_mult: 2
    decay_mult: 0
  }
  convolution_param {
    num_output: 32
    kernel_size: 1
    weight_filler {
      type: "xavier"
      std: 0.2
    }
    bias_filler {
      type: "constant"
      value: 0.2
    }
  }
}
layer {
  name: "inception_4e/relu_5x5_reduce"
  type: "ReLU"
  bottom: "inception_4e/5x5_reduce"
  top: "inception_4e/5x5_reduce"
}
layer {
  name: "inception_4e/5x5"
  type: "Convolution"
  bottom: "inception_4e/5x5_reduce"
  top: "inception_4e/
I0403 15:00:12.443773 30857 layer_factory.hpp:77] Creating layer data
I0403 15:00:12.444381 30857 net.cpp:91] Creating Layer data
I0403 15:00:12.444411 30857 net.cpp:399] data -> data
I0403 15:00:12.444466 30857 net.cpp:399] data -> label
I0403 15:00:12.444504 30857 data_transformer.cpp:25] Loading mean file from: /home/mohanty/data/final_dataset/lmdb/grayscale-80-20/mean.binaryproto
I0403 15:00:12.452910 30862 db_lmdb.cpp:38] Opened lmdb /home/mohanty/data/final_dataset/lmdb/grayscale-80-20/test_db
I0403 15:00:12.457518 30857 data_layer.cpp:41] output data size: 24,3,224,224
I0403 15:00:12.485059 30857 net.cpp:141] Setting up data
I0403 15:00:12.485155 30857 net.cpp:148] Top shape: 24 3 224 224 (3612672)
I0403 15:00:12.485178 30857 net.cpp:148] Top shape: 24 (24)
I0403 15:00:12.485193 30857 net.cpp:156] Memory required for data: 14450784
I0403 15:00:12.485224 30857 layer_factory.hpp:77] Creating layer label_data_1_split
I0403 15:00:12.485254 30857 net.cpp:91] Creating Layer label_data_1_split
I0403 15:00:12.485273 30857 net.cpp:425] label_data_1_split <- label
I0403 15:00:12.485308 30857 net.cpp:399] label_data_1_split -> label_data_1_split_0
I0403 15:00:12.485338 30857 net.cpp:399] label_data_1_split -> label_data_1_split_1
I0403 15:00:12.485360 30857 net.cpp:399] label_data_1_split -> label_data_1_split_2
I0403 15:00:12.485383 30857 net.cpp:399] label_data_1_split -> label_data_1_split_3
I0403 15:00:12.485402 30857 net.cpp:399] label_data_1_split -> label_data_1_split_4
I0403 15:00:12.485424 30857 net.cpp:399] label_data_1_split -> label_data_1_split_5
I0403 15:00:12.485445 30857 net.cpp:399] label_data_1_split -> label_data_1_split_6
I0403 15:00:12.485466 30857 net.cpp:399] label_data_1_split -> label_data_1_split_7
I0403 15:00:12.485486 30857 net.cpp:399] label_data_1_split -> label_data_1_split_8
I0403 15:00:12.485507 30857 net.cpp:399] label_data_1_split -> label_data_1_split_9
I0403 15:00:12.485628 30857 net.cpp:141] Setting up label_data_1_split
I0403 15:00:12.485653 30857 net.cpp:148] Top shape: 24 (24)
I0403 15:00:12.485671 30857 net.cpp:148] Top shape: 24 (24)
I0403 15:00:12.485687 30857 net.cpp:148] Top shape: 24 (24)
I0403 15:00:12.485703 30857 net.cpp:148] Top shape: 24 (24)
I0403 15:00:12.485723 30857 net.cpp:148] Top shape: 24 (24)
I0403 15:00:12.485740 30857 net.cpp:148] Top shape: 24 (24)
I0403 15:00:12.485755 30857 net.cpp:148] Top shape: 24 (24)
I0403 15:00:12.485772 30857 net.cpp:148] Top shape: 24 (24)
I0403 15:00:12.485788 30857 net.cpp:148] Top shape: 24 (24)
I0403 15:00:12.485805 30857 net.cpp:148] Top shape: 24 (24)
I0403 15:00:12.485851 30857 net.cpp:156] Memory required for data: 14451744
I0403 15:00:12.485867 30857 layer_factory.hpp:77] Creating layer conv1/7x7_s2
I0403 15:00:12.485903 30857 net.cpp:91] Creating Layer conv1/7x7_s2
I0403 15:00:12.485921 30857 net.cpp:425] conv1/7x7_s2 <- data
I0403 15:00:12.485941 30857 net.cpp:399] conv1/7x7_s2 -> conv1/7x7_s2
I0403 15:00:14.710511 30857 net.cpp:141] Setting up conv1/7x7_s2
I0403 15:00:14.710629 30857 net.cpp:148] Top shape: 24 64 112 112 (19267584)
I0403 15:00:14.710646 30857 net.cpp:156] Memory required for data: 91522080
I0403 15:00:14.710680 30857 layer_factory.hpp:77] Creating layer conv1/relu_7x7
I0403 15:00:14.710710 30857 net.cpp:91] Creating Layer conv1/relu_7x7
I0403 15:00:14.710727 30857 net.cpp:425] conv1/relu_7x7 <- conv1/7x7_s2
I0403 15:00:14.710747 30857 net.cpp:386] conv1/relu_7x7 -> conv1/7x7_s2 (in-place)
I0403 15:00:14.711103 30857 net.cpp:141] Setting up conv1/relu_7x7
I0403 15:00:14.711129 30857 net.cpp:148] Top shape: 24 64 112 112 (19267584)
I0403 15:00:14.711144 30857 net.cpp:156] Memory required for data: 168592416
I0403 15:00:14.711159 30857 layer_factory.hpp:77] Creating layer pool1/3x3_s2
I0403 15:00:14.711185 30857 net.cpp:91] Creating Layer pool1/3x3_s2
I0403 15:00:14.711202 30857 net.cpp:425] pool1/3x3_s2 <- conv1/7x7_s2
I0403 15:00:14.711221 30857 net.cpp:399] pool1/3x3_s2 -> pool1/3x3_s2
I0403 15:00:14.711307 30857 net.cpp:141] Setting up pool1/3x3_s2
I0403 15:00:14.711329 30857 net.cpp:148] Top shape: 24 64 56 56 (4816896)
I0403 15:00:14.711344 30857 net.cpp:156] Memory required for data: 187860000
I0403 15:00:14.711364 30857 layer_factory.hpp:77] Creating layer pool1/norm1
I0403 15:00:14.711390 30857 net.cpp:91] Creating Layer pool1/norm1
I0403 15:00:14.711408 30857 net.cpp:425] pool1/norm1 <- pool1/3x3_s2
I0403 15:00:14.711426 30857 net.cpp:399] pool1/norm1 -> pool1/norm1
I0403 15:00:14.711717 30857 net.cpp:141] Setting up pool1/norm1
I0403 15:00:14.711745 30857 net.cpp:148] Top shape: 24 64 56 56 (4816896)
I0403 15:00:14.711767 30857 net.cpp:156] Memory required for data: 207127584
I0403 15:00:14.711782 30857 layer_factory.hpp:77] Creating layer conv2/3x3_reduce
I0403 15:00:14.711808 30857 net.cpp:91] Creating Layer conv2/3x3_reduce
I0403 15:00:14.711824 30857 net.cpp:425] conv2/3x3_reduce <- pool1/norm1
I0403 15:00:14.711843 30857 net.cpp:399] conv2/3x3_reduce -> conv2/3x3_reduce
I0403 15:00:14.717142 30857 net.cpp:141] Setting up conv2/3x3_reduce
I0403 15:00:14.717241 30857 net.cpp:148] Top shape: 24 64 56 56 (4816896)
I0403 15:00:14.717258 30857 net.cpp:156] Memory required for data: 226395168
I0403 15:00:14.717288 30857 layer_factory.hpp:77] Creating layer conv2/relu_3x3_reduce
I0403 15:00:14.717311 30857 net.cpp:91] Creating Layer conv2/relu_3x3_reduce
I0403 15:00:14.717329 30857 net.cpp:425] conv2/relu_3x3_reduce <- conv2/3x3_reduce
I0403 15:00:14.717350 30857 net.cpp:386] conv2/relu_3x3_reduce -> conv2/3x3_reduce (in-place)
I0403 15:00:14.720698 30857 net.cpp:141] Setting up conv2/relu_3x3_reduce
I0403 15:00:14.720803 30857 net.cpp:148] Top shape: 24 64 56 56 (4816896)
I0403 15:00:14.720820 30857 net.cpp:156] Memory required for data: 245662752
I0403 15:00:14.720840 30857 layer_factory.hpp:77] Creating layer conv2/3x3
I0403 15:00:14.720877 30857 net.cpp:91] Creating Layer conv2/3x3
I0403 15:00:14.720896 30857 net.cpp:425] conv2/3x3 <- conv2/3x3_reduce
I0403 15:00:14.720919 30857 net.cpp:399] conv2/3x3 -> conv2/3x3
I0403 15:00:14.723395 30857 net.cpp:141] Setting up conv2/3x3
I0403 15:00:14.723426 30857 net.cpp:148] Top shape: 24 192 56 56 (14450688)
I0403 15:00:14.723443 30857 net.cpp:156] Memory required for data: 303465504
I0403 15:00:14.723465 30857 layer_factory.hpp:77] Creating layer conv2/relu_3x3
I0403 15:00:14.723486 30857 net.cpp:91] Creating Layer conv2/relu_3x3
I0403 15:00:14.723501 30857 net.cpp:425] conv2/relu_3x3 <- conv2/3x3
I0403 15:00:14.723518 30857 net.cpp:386] conv2/relu_3x3 -> conv2/3x3 (in-place)
I0403 15:00:14.723709 30857 net.cpp:141] Setting up conv2/relu_3x3
I0403 15:00:14.723734 30857 net.cpp:148] Top shape: 24 192 56 56 (14450688)
I0403 15:00:14.723788 30857 net.cpp:156] Memory required for data: 361268256
I0403 15:00:14.723801 30857 layer_factory.hpp:77] Creating layer conv2/norm2
I0403 15:00:14.723822 30857 net.cpp:91] Creating Layer conv2/norm2
I0403 15:00:14.723837 30857 net.cpp:425] conv2/norm2 <- conv2/3x3
I0403 15:00:14.723856 30857 net.cpp:399] conv2/norm2 -> conv2/norm2
I0403 15:00:14.724143 30857 net.cpp:141] Setting up conv2/norm2
I0403 15:00:14.724170 30857 net.cpp:148] Top shape: 24 192 56 56 (14450688)
I0403 15:00:14.724185 30857 net.cpp:156] Memory required for data: 419071008
I0403 15:00:14.724200 30857 layer_factory.hpp:77] Creating layer pool2/3x3_s2
I0403 15:00:14.724220 30857 net.cpp:91] Creating Layer pool2/3x3_s2
I0403 15:00:14.724236 30857 net.cpp:425] pool2/3x3_s2 <- conv2/norm2
I0403 15:00:14.724253 30857 net.cpp:399] pool2/3x3_s2 -> pool2/3x3_s2
I0403 15:00:14.724305 30857 net.cpp:141] Setting up pool2/3x3_s2
I0403 15:00:14.724328 30857 net.cpp:148] Top shape: 24 192 28 28 (3612672)
I0403 15:00:14.724342 30857 net.cpp:156] Memory required for data: 433521696
I0403 15:00:14.724356 30857 layer_factory.hpp:77] Creating layer pool2/3x3_s2_pool2/3x3_s2_0_split
I0403 15:00:14.724373 30857 net.cpp:91] Creating Layer pool2/3x3_s2_pool2/3x3_s2_0_split
I0403 15:00:14.724388 30857 net.cpp:425] pool2/3x3_s2_pool2/3x3_s2_0_split <- pool2/3x3_s2
I0403 15:00:14.724406 30857 net.cpp:399] pool2/3x3_s2_pool2/3x3_s2_0_split -> pool2/3x3_s2_pool2/3x3_s2_0_split_0
I0403 15:00:14.724426 30857 net.cpp:399] pool2/3x3_s2_pool2/3x3_s2_0_split -> pool2/3x3_s2_pool2/3x3_s2_0_split_1
I0403 15:00:14.724444 30857 net.cpp:399] pool2/3x3_s2_pool2/3x3_s2_0_split -> pool2/3x3_s2_pool2/3x3_s2_0_split_2
I0403 15:00:14.724462 30857 net.cpp:399] pool2/3x3_s2_pool2/3x3_s2_0_split -> pool2/3x3_s2_pool2/3x3_s2_0_split_3
I0403 15:00:14.724525 30857 net.cpp:141] Setting up pool2/3x3_s2_pool2/3x3_s2_0_split
I0403 15:00:14.724552 30857 net.cpp:148] Top shape: 24 192 28 28 (3612672)
I0403 15:00:14.724570 30857 net.cpp:148] Top shape: 24 192 28 28 (3612672)
I0403 15:00:14.724586 30857 net.cpp:148] Top shape: 24 192 28 28 (3612672)
I0403 15:00:14.724601 30857 net.cpp:148] Top shape: 24 192 28 28 (3612672)
I0403 15:00:14.724614 30857 net.cpp:156] Memory required for data: 491324448
I0403 15:00:14.724627 30857 layer_factory.hpp:77] Creating layer inception_3a/1x1
I0403 15:00:14.724648 30857 net.cpp:91] Creating Layer inception_3a/1x1
I0403 15:00:14.724664 30857 net.cpp:425] inception_3a/1x1 <- pool2/3x3_s2_pool2/3x3_s2_0_split_0
I0403 15:00:14.724683 30857 net.cpp:399] inception_3a/1x1 -> inception_3a/1x1
I0403 15:00:14.726373 30857 net.cpp:141] Setting up inception_3a/1x1
I0403 15:00:14.726404 30857 net.cpp:148] Top shape: 24 64 28 28 (1204224)
I0403 15:00:14.726420 30857 net.cpp:156] Memory required for data: 496141344
I0403 15:00:14.726438 30857 layer_factory.hpp:77] Creating layer inception_3a/relu_1x1
I0403 15:00:14.726456 30857 net.cpp:91] Creating Layer inception_3a/relu_1x1
I0403 15:00:14.726471 30857 net.cpp:425] inception_3a/relu_1x1 <- inception_3a/1x1
I0403 15:00:14.726490 30857 net.cpp:386] inception_3a/relu_1x1 -> inception_3a/1x1 (in-place)
I0403 15:00:14.726661 30857 net.cpp:141] Setting up inception_3a/relu_1x1
I0403 15:00:14.726691 30857 net.cpp:148] Top shape: 24 64 28 28 (1204224)
I0403 15:00:14.726706 30857 net.cpp:156] Memory required for data: 500958240
I0403 15:00:14.726721 30857 layer_factory.hpp:77] Creating layer inception_3a/3x3_reduce
I0403 15:00:14.726739 30857 net.cpp:91] Creating Layer inception_3a/3x3_reduce
I0403 15:00:14.726755 30857 net.cpp:425] inception_3a/3x3_reduce <- pool2/3x3_s2_pool2/3x3_s2_0_split_1
I0403 15:00:14.726778 30857 net.cpp:399] inception_3a/3x3_reduce -> inception_3a/3x3_reduce
I0403 15:00:14.728442 30857 net.cpp:141] Setting up inception_3a/3x3_reduce
I0403 15:00:14.728471 30857 net.cpp:148] Top shape: 24 96 28 28 (1806336)
I0403 15:00:14.728487 30857 net.cpp:156] Memory required for data: 508183584
I0403 15:00:14.728510 30857 layer_factory.hpp:77] Creating layer inception_3a/relu_3x3_reduce
I0403 15:00:14.728549 30857 net.cpp:91] Creating Layer inception_3a/relu_3x3_reduce
I0403 15:00:14.728566 30857 net.cpp:425] inception_3a/relu_3x3_reduce <- inception_3a/3x3_reduce
I0403 15:00:14.728584 30857 net.cpp:386] inception_3a/relu_3x3_reduce -> inception_3a/3x3_reduce (in-place)
I0403 15:00:14.728760 30857 net.cpp:141] Setting up inception_3a/relu_3x3_reduce
I0403 15:00:14.728785 30857 net.cpp:148] Top shape: 24 96 28 28 (1806336)
I0403 15:00:14.728798 30857 net.cpp:156] Memory required for data: 515408928
I0403 15:00:14.728812 30857 layer_factory.hpp:77] Creating layer inception_3a/3x3
I0403 15:00:14.728834 30857 net.cpp:91] Creating Layer inception_3a/3x3
I0403 15:00:14.728852 30857 net.cpp:425] inception_3a/3x3 <- inception_3a/3x3_reduce
I0403 15:00:14.728871 30857 net.cpp:399] inception_3a/3x3 -> inception_3a/3x3
I0403 15:00:14.730470 30857 net.cpp:141] Setting up inception_3a/3x3
I0403 15:00:14.730497 30857 net.cpp:148] Top shape: 24 128 28 28 (2408448)
I0403 15:00:14.730512 30857 net.cpp:156] Memory required for data: 525042720
I0403 15:00:14.730530 30857 layer_factory.hpp:77] Creating layer inception_3a/relu_3x3
I0403 15:00:14.730553 30857 net.cpp:91] Creating Layer inception_3a/relu_3x3
I0403 15:00:14.730571 30857 net.cpp:425] inception_3a/relu_3x3 <- inception_3a/3x3
I0403 15:00:14.730588 30857 net.cpp:386] inception_3a/relu_3x3 -> inception_3a/3x3 (in-place)
I0403 15:00:14.730857 30857 net.cpp:141] Setting up inception_3a/relu_3x3
I0403 15:00:14.730883 30857 net.cpp:148] Top shape: 24 128 28 28 (2408448)
I0403 15:00:14.730898 30857 net.cpp:156] Memory required for data: 534676512
I0403 15:00:14.730916 30857 layer_factory.hpp:77] Creating layer inception_3a/5x5_reduce
I0403 15:00:14.730939 30857 net.cpp:91] Creating Layer inception_3a/5x5_reduce
I0403 15:00:14.730958 30857 net.cpp:425] inception_3a/5x5_reduce <- pool2/3x3_s2_pool2/3x3_s2_0_split_2
I0403 15:00:14.730976 30857 net.cpp:399] inception_3a/5x5_reduce -> inception_3a/5x5_reduce
I0403 15:00:14.731909 30857 net.cpp:141] Setting up inception_3a/5x5_reduce
I0403 15:00:14.731935 30857 net.cpp:148] Top shape: 24 16 28 28 (301056)
I0403 15:00:14.731953 30857 net.cpp:156] Memory required for data: 535880736
I0403 15:00:14.731971 30857 layer_factory.hpp:77] Creating layer inception_3a/relu_5x5_reduce
I0403 15:00:14.731991 30857 net.cpp:91] Creating Layer inception_3a/relu_5x5_reduce
I0403 15:00:14.732007 30857 net.cpp:425] inception_3a/relu_5x5_reduce <- inception_3a/5x5_reduce
I0403 15:00:14.732024 30857 net.cpp:386] inception_3a/relu_5x5_reduce -> inception_3a/5x5_reduce (in-place)
I0403 15:00:14.732312 30857 net.cpp:141] Setting up inception_3a/relu_5x5_reduce
I0403 15:00:14.732341 30857 net.cpp:148] Top shape: 24 16 28 28 (301056)
I0403 15:00:14.732359 30857 net.cpp:156] Memory required for data: 537084960
I0403 15:00:14.732384 30857 layer_factory.hpp:77] Creating layer inception_3a/5x5
I0403 15:00:14.732406 30857 net.cpp:91] Creating Layer inception_3a/5x5
I0403 15:00:14.732422 30857 net.cpp:425] inception_3a/5x5 <- inception_3a/5x5_reduce
I0403 15:00:14.732441 30857 net.cpp:399] inception_3a/5x5 -> inception_3a/5x5
I0403 15:00:14.733435 30857 net.cpp:141] Setting up inception_3a/5x5
I0403 15:00:14.733463 30857 net.cpp:148] Top shape: 24 32 28 28 (602112)
I0403 15:00:14.733477 30857 net.cpp:156] Memory required for data: 539493408
I0403 15:00:14.733495 30857 layer_factory.hpp:77] Creating layer inception_3a/relu_5x5
I0403 15:00:14.733515 30857 net.cpp:91] Creating Layer inception_3a/relu_5x5
I0403 15:00:14.733532 30857 net.cpp:425] inception_3a/relu_5x5 <- inception_3a/5x5
I0403 15:00:14.733554 30857 net.cpp:386] inception_3a/relu_5x5 -> inception_3a/5x5 (in-place)
I0403 15:00:14.733723 30857 net.cpp:141] Setting up inception_3a/relu_5x5
I0403 15:00:14.733750 30857 net.cpp:148] Top shape: 24 32 28 28 (602112)
I0403 15:00:14.733765 30857 net.cpp:156] Memory required for data: 541901856
I0403 15:00:14.733779 30857 layer_factory.hpp:77] Creating layer inception_3a/pool
I0403 15:00:14.733798 30857 net.cpp:91] Creating Layer inception_3a/pool
I0403 15:00:14.733829 30857 net.cpp:425] inception_3a/pool <- pool2/3x3_s2_pool2/3x3_s2_0_split_3
I0403 15:00:14.733846 30857 net.cpp:399] inception_3a/pool -> inception_3a/pool
I0403 15:00:14.733902 30857 net.cpp:141] Setting up inception_3a/pool
I0403 15:00:14.733925 30857 net.cpp:148] Top shape: 24 192 28 28 (3612672)
I0403 15:00:14.733939 30857 net.cpp:156] Memory required for data: 556352544
I0403 15:00:14.733953 30857 layer_factory.hpp:77] Creating layer inception_3a/pool_proj
I0403 15:00:14.733975 30857 net.cpp:91] Creating Layer inception_3a/pool_proj
I0403 15:00:14.733991 30857 net.cpp:425] inception_3a/pool_proj <- inception_3a/pool
I0403 15:00:14.734015 30857 net.cpp:399] inception_3a/pool_proj -> inception_3a/pool_proj
I0403 15:00:14.735002 30857 net.cpp:141] Setting up inception_3a/pool_proj
I0403 15:00:14.735028 30857 net.cpp:148] Top shape: 24 32 28 28 (602112)
I0403 15:00:14.735044 30857 net.cpp:156] Memory required for data: 558760992
I0403 15:00:14.735064 30857 layer_factory.hpp:77] Creating layer inception_3a/relu_pool_proj
I0403 15:00:14.735086 30857 net.cpp:91] Creating Layer inception_3a/relu_pool_proj
I0403 15:00:14.735106 30857 net.cpp:425] inception_3a/relu_pool_proj <- inception_3a/pool_proj
I0403 15:00:14.735123 30857 net.cpp:386] inception_3a/relu_pool_proj -> inception_3a/pool_proj (in-place)
I0403 15:00:14.735388 30857 net.cpp:141] Setting up inception_3a/relu_pool_proj
I0403 15:00:14.735414 30857 net.cpp:148] Top shape: 24 32 28 28 (602112)
I0403 15:00:14.735430 30857 net.cpp:156] Memory required for data: 561169440
I0403 15:00:14.735443 30857 layer_factory.hpp:77] Creating layer inception_3a/output
I0403 15:00:14.735463 30857 net.cpp:91] Creating Layer inception_3a/output
I0403 15:00:14.735479 30857 net.cpp:425] inception_3a/output <- inception_3a/1x1
I0403 15:00:14.735496 30857 net.cpp:425] inception_3a/output <- inception_3a/3x3
I0403 15:00:14.735510 30857 net.cpp:425] inception_3a/output <- inception_3a/5x5
I0403 15:00:14.735527 30857 net.cpp:425] inception_3a/output <- inception_3a/pool_proj
I0403 15:00:14.735548 30857 net.cpp:399] inception_3a/output -> inception_3a/output
I0403 15:00:14.735597 30857 net.cpp:141] Setting up inception_3a/output
I0403 15:00:14.735620 30857 net.cpp:148] Top shape: 24 256 28 28 (4816896)
I0403 15:00:14.735635 30857 net.cpp:156] Memory required for data: 580437024
I0403 15:00:14.735657 30857 layer_factory.hpp:77] Creating layer inception_3a/output_inception_3a/output_0_split
I0403 15:00:14.735676 30857 net.cpp:91] Creating Layer inception_3a/output_inception_3a/output_0_split
I0403 15:00:14.735690 30857 net.cpp:425] inception_3a/output_inception_3a/output_0_split <- inception_3a/output
I0403 15:00:14.735710 30857 net.cpp:399] inception_3a/output_inception_3a/output_0_split -> inception_3a/output_inception_3a/output_0_split_0
I0403 15:00:14.735730 30857 net.cpp:399] inception_3a/output_inception_3a/output_0_split -> inception_3a/output_inception_3a/output_0_split_1
I0403 15:00:14.735754 30857 net.cpp:399] inception_3a/output_inception_3a/output_0_split -> inception_3a/output_inception_3a/output_0_split_2
I0403 15:00:14.735775 30857 net.cpp:399] inception_3a/output_inception_3a/output_0_split -> inception_3a/output_inception_3a/output_0_split_3
I0403 15:00:14.735846 30857 net.cpp:141] Setting up inception_3a/output_inception_3a/output_0_split
I0403 15:00:14.735867 30857 net.cpp:148] Top shape: 24 256 28 28 (4816896)
I0403 15:00:14.735883 30857 net.cpp:148] Top shape: 24 256 28 28 (4816896)
I0403 15:00:14.735899 30857 net.cpp:148] Top shape: 24 256 28 28 (4816896)
I0403 15:00:14.735914 30857 net.cpp:148] Top shape: 24 256 28 28 (4816896)
I0403 15:00:14.735927 30857 net.cpp:156] Memory required for data: 657507360
I0403 15:00:14.735941 30857 layer_factory.hpp:77] Creating layer inception_3b/1x1
I0403 15:00:14.735962 30857 net.cpp:91] Creating Layer inception_3b/1x1
I0403 15:00:14.735980 30857 net.cpp:425] inception_3b/1x1 <- inception_3a/output_inception_3a/output_0_split_0
I0403 15:00:14.735999 30857 net.cpp:399] inception_3b/1x1 -> inception_3b/1x1
I0403 15:00:14.737092 30857 net.cpp:141] Setting up inception_3b/1x1
I0403 15:00:14.737129 30857 net.cpp:148] Top shape: 24 128 28 28 (2408448)
I0403 15:00:14.737145 30857 net.cpp:156] Memory required for data: 667141152
I0403 15:00:14.737164 30857 layer_factory.hpp:77] Creating layer inception_3b/relu_1x1
I0403 15:00:14.737185 30857 net.cpp:91] Creating Layer inception_3b/relu_1x1
I0403 15:00:14.737201 30857 net.cpp:425] inception_3b/relu_1x1 <- inception_3b/1x1
I0403 15:00:14.737218 30857 net.cpp:386] inception_3b/relu_1x1 -> inception_3b/1x1 (in-place)
I0403 15:00:14.737383 30857 net.cpp:141] Setting up inception_3b/relu_1x1
I0403 15:00:14.737407 30857 net.cpp:148] Top shape: 24 128 28 28 (2408448)
I0403 15:00:14.737421 30857 net.cpp:156] Memory required for data: 676774944
I0403 15:00:14.737435 30857 layer_factory.hpp:77] Creating layer inception_3b/3x3_reduce
I0403 15:00:14.737458 30857 net.cpp:91] Creating Layer inception_3b/3x3_reduce
I0403 15:00:14.737475 30857 net.cpp:425] inception_3b/3x3_reduce <- inception_3a/output_inception_3a/output_0_split_1
I0403 15:00:14.737493 30857 net.cpp:399] inception_3b/3x3_reduce -> inception_3b/3x3_reduce
I0403 15:00:14.738605 30857 net.cpp:141] Setting up inception_3b/3x3_reduce
I0403 15:00:14.738632 30857 net.cpp:148] Top shape: 24 128 28 28 (2408448)
I0403 15:00:14.738647 30857 net.cpp:156] Memory required for data: 686408736
I0403 15:00:14.738665 30857 layer_factory.hpp:77] Creating layer inception_3b/relu_3x3_reduce
I0403 15:00:14.738682 30857 net.cpp:91] Creating Layer inception_3b/relu_3x3_reduce
I0403 15:00:14.738698 30857 net.cpp:425] inception_3b/relu_3x3_reduce <- inception_3b/3x3_reduce
I0403 15:00:14.738718 30857 net.cpp:386] inception_3b/relu_3x3_reduce -> inception_3b/3x3_reduce (in-place)
I0403 15:00:14.738883 30857 net.cpp:141] Setting up inception_3b/relu_3x3_reduce
I0403 15:00:14.738915 30857 net.cpp:148] Top shape: 24 128 28 28 (2408448)
I0403 15:00:14.738930 30857 net.cpp:156] Memory required for data: 696042528
I0403 15:00:14.738950 30857 layer_factory.hpp:77] Creating layer inception_3b/3x3
I0403 15:00:14.738975 30857 net.cpp:91] Creating Layer inception_3b/3x3
I0403 15:00:14.738992 30857 net.cpp:425] inception_3b/3x3 <- inception_3b/3x3_reduce
I0403 15:00:14.739012 30857 net.cpp:399] inception_3b/3x3 -> inception_3b/3x3
I0403 15:00:14.741816 30857 net.cpp:141] Setting up inception_3b/3x3
I0403 15:00:14.741843 30857 net.cpp:148] Top shape: 24 192 28 28 (3612672)
I0403 15:00:14.741858 30857 net.cpp:156] Memory required for data: 710493216
I0403 15:00:14.741876 30857 layer_factory.hpp:77] Creating layer inception_3b/relu_3x3
I0403 15:00:14.741897 30857 net.cpp:91] Creating Layer inception_3b/relu_3x3
I0403 15:00:14.741914 30857 net.cpp:425] inception_3b/relu_3x3 <- inception_3b/3x3
I0403 15:00:14.741932 30857 net.cpp:386] inception_3b/relu_3x3 -> inception_3b/3x3 (in-place)
I0403 15:00:14.742207 30857 net.cpp:141] Setting up inception_3b/relu_3x3
I0403 15:00:14.742234 30857 net.cpp:148] Top shape: 24 192 28 28 (3612672)
I0403 15:00:14.742249 30857 net.cpp:156] Memory required for data: 724943904
I0403 15:00:14.742265 30857 layer_factory.hpp:77] Creating layer inception_3b/5x5_reduce
I0403 15:00:14.742295 30857 net.cpp:91] Creating Layer inception_3b/5x5_reduce
I0403 15:00:14.742316 30857 net.cpp:425] inception_3b/5x5_reduce <- inception_3a/output_inception_3a/output_0_split_2
I0403 15:00:14.742334 30857 net.cpp:399] inception_3b/5x5_reduce -> inception_3b/5x5_reduce
I0403 15:00:14.743288 30857 net.cpp:141] Setting up inception_3b/5x5_reduce
I0403 15:00:14.743315 30857 net.cpp:148] Top shape: 24 32 28 28 (602112)
I0403 15:00:14.743332 30857 net.cpp:156] Memory required for data: 727352352
I0403 15:00:14.743352 30857 layer_factory.hpp:77] Creating layer inception_3b/relu_5x5_reduce
I0403 15:00:14.743372 30857 net.cpp:91] Creating Layer inception_3b/relu_5x5_reduce
I0403 15:00:14.743389 30857 net.cpp:425] inception_3b/relu_5x5_reduce <- inception_3b/5x5_reduce
I0403 15:00:14.743407 30857 net.cpp:386] inception_3b/relu_5x5_reduce -> inception_3b/5x5_reduce (in-place)
I0403 15:00:14.743593 30857 net.cpp:141] Setting up inception_3b/relu_5x5_reduce
I0403 15:00:14.743619 30857 net.cpp:148] Top shape: 24 32 28 28 (602112)
I0403 15:00:14.743635 30857 net.cpp:156] Memory required for data: 729760800
I0403 15:00:14.743649 30857 layer_factory.hpp:77] Creating layer inception_3b/5x5
I0403 15:00:14.743674 30857 net.cpp:91] Creating Layer inception_3b/5x5
I0403 15:00:14.743692 30857 net.cpp:425] inception_3b/5x5 <- inception_3b/5x5_reduce
I0403 15:00:14.743710 30857 net.cpp:399] inception_3b/5x5 -> inception_3b/5x5
I0403 15:00:14.745645 30857 net.cpp:141] Setting up inception_3b/5x5
I0403 15:00:14.745676 30857 net.cpp:148] Top shape: 24 96 28 28 (1806336)
I0403 15:00:14.745690 30857 net.cpp:156] Memory required for data: 736986144
I0403 15:00:14.745717 30857 layer_factory.hpp:77] Creating layer inception_3b/relu_5x5
I0403 15:00:14.745734 30857 net.cpp:91] Creating Layer inception_3b/relu_5x5
I0403 15:00:14.745749 30857 net.cpp:425] inception_3b/relu_5x5 <- inception_3b/5x5
I0403 15:00:14.745769 30857 net.cpp:386] inception_3b/relu_5x5 -> inception_3b/5x5 (in-place)
I0403 15:00:14.745955 30857 net.cpp:141] Setting up inception_3b/relu_5x5
I0403 15:00:14.745980 30857 net.cpp:148] Top shape: 24 96 28 28 (1806336)
I0403 15:00:14.745995 30857 net.cpp:156] Memory required for data: 744211488
I0403 15:00:14.746008 30857 layer_factory.hpp:77] Creating layer inception_3b/pool
I0403 15:00:14.746026 30857 net.cpp:91] Creating Layer inception_3b/pool
I0403 15:00:14.746042 30857 net.cpp:425] inception_3b/pool <- inception_3a/output_inception_3a/output_0_split_3
I0403 15:00:14.746060 30857 net.cpp:399] inception_3b/pool -> inception_3b/pool
I0403 15:00:14.746112 30857 net.cpp:141] Setting up inception_3b/pool
I0403 15:00:14.746137 30857 net.cpp:148] Top shape: 24 256 28 28 (4816896)
I0403 15:00:14.746155 30857 net.cpp:156] Memory required for data: 763479072
I0403 15:00:14.746170 30857 layer_factory.hpp:77] Creating layer inception_3b/pool_proj
I0403 15:00:14.746191 30857 net.cpp:91] Creating Layer inception_3b/pool_proj
I0403 15:00:14.746208 30857 net.cpp:425] inception_3b/pool_proj <- inception_3b/pool
I0403 15:00:14.746228 30857 net.cpp:399] inception_3b/pool_proj -> inception_3b/pool_proj
I0403 15:00:14.747239 30857 net.cpp:141] Setting up inception_3b/pool_proj
I0403 15:00:14.747268 30857 net.cpp:148] Top shape: 24 64 28 28 (1204224)
I0403 15:00:14.747284 30857 net.cpp:156] Memory required for data: 768295968
I0403 15:00:14.747313 30857 layer_factory.hpp:77] Creating layer inception_3b/relu_pool_proj
I0403 15:00:14.747330 30857 net.cpp:91] Creating Layer inception_3b/relu_pool_proj
I0403 15:00:14.747346 30857 net.cpp:425] inception_3b/relu_pool_proj <- inception_3b/pool_proj
I0403 15:00:14.747365 30857 net.cpp:386] inception_3b/relu_pool_proj -> inception_3b/pool_proj (in-place)
I0403 15:00:14.747750 30857 net.cpp:141] Setting up inception_3b/relu_pool_proj
I0403 15:00:14.747777 30857 net.cpp:148] Top shape: 24 64 28 28 (1204224)
I0403 15:00:14.747792 30857 net.cpp:156] Memory required for data: 773112864
I0403 15:00:14.747807 30857 layer_factory.hpp:77] Creating layer inception_3b/output
I0403 15:00:14.747824 30857 net.cpp:91] Creating Layer inception_3b/output
I0403 15:00:14.747849 30857 net.cpp:425] inception_3b/output <- inception_3b/1x1
I0403 15:00:14.747865 30857 net.cpp:425] inception_3b/output <- inception_3b/3x3
I0403 15:00:14.747881 30857 net.cpp:425] inception_3b/output <- inception_3b/5x5
I0403 15:00:14.747896 30857 net.cpp:425] inception_3b/output <- inception_3b/pool_proj
I0403 15:00:14.747913 30857 net.cpp:399] inception_3b/output -> inception_3b/output
I0403 15:00:14.747956 30857 net.cpp:141] Setting up inception_3b/output
I0403 15:00:14.747977 30857 net.cpp:148] Top shape: 24 480 28 28 (9031680)
I0403 15:00:14.747992 30857 net.cpp:156] Memory required for data: 809239584
I0403 15:00:14.748006 30857 layer_factory.hpp:77] Creating layer pool3/3x3_s2
I0403 15:00:14.748025 30857 net.cpp:91] Creating Layer pool3/3x3_s2
I0403 15:00:14.748042 30857 net.cpp:425] pool3/3x3_s2 <- inception_3b/output
I0403 15:00:14.748075 30857 net.cpp:399] pool3/3x3_s2 -> pool3/3x3_s2
I0403 15:00:14.748131 30857 net.cpp:141] Setting up pool3/3x3_s2
I0403 15:00:14.748154 30857 net.cpp:148] Top shape: 24 480 14 14 (2257920)
I0403 15:00:14.748168 30857 net.cpp:156] Memory required for data: 818271264
I0403 15:00:14.748183 30857 layer_factory.hpp:77] Creating layer pool3/3x3_s2_pool3/3x3_s2_0_split
I0403 15:00:14.748199 30857 net.cpp:91] Creating Layer pool3/3x3_s2_pool3/3x3_s2_0_split
I0403 15:00:14.748214 30857 net.cpp:425] pool3/3x3_s2_pool3/3x3_s2_0_split <- pool3/3x3_s2
I0403 15:00:14.748232 30857 net.cpp:399] pool3/3x3_s2_pool3/3x3_s2_0_split -> pool3/3x3_s2_pool3/3x3_s2_0_split_0
I0403 15:00:14.748252 30857 net.cpp:399] pool3/3x3_s2_pool3/3x3_s2_0_split -> pool3/3x3_s2_pool3/3x3_s2_0_split_1
I0403 15:00:14.748271 30857 net.cpp:399] pool3/3x3_s2_pool3/3x3_s2_0_split -> pool3/3x3_s2_pool3/3x3_s2_0_split_2
I0403 15:00:14.748291 30857 net.cpp:399] pool3/3x3_s2_pool3/3x3_s2_0_split -> pool3/3x3_s2_pool3/3x3_s2_0_split_3
I0403 15:00:14.748363 30857 net.cpp:141] Setting up pool3/3x3_s2_pool3/3x3_s2_0_split
I0403 15:00:14.748388 30857 net.cpp:148] Top shape: 24 480 14 14 (2257920)
I0403 15:00:14.748404 30857 net.cpp:148] Top shape: 24 480 14 14 (2257920)
I0403 15:00:14.748419 30857 net.cpp:148] Top shape: 24 480 14 14 (2257920)
I0403 15:00:14.748433 30857 net.cpp:148] Top shape: 24 480 14 14 (2257920)
I0403 15:00:14.748447 30857 net.cpp:156] Memory required for data: 854397984
I0403 15:00:14.748462 30857 layer_factory.hpp:77] Creating layer inception_4a/1x1
I0403 15:00:14.748483 30857 net.cpp:91] Creating Layer inception_4a/1x1
I0403 15:00:14.748499 30857 net.cpp:425] inception_4a/1x1 <- pool3/3x3_s2_pool3/3x3_s2_0_split_0
I0403 15:00:14.748518 30857 net.cpp:399] inception_4a/1x1 -> inception_4a/1x1
I0403 15:00:14.750036 30857 net.cpp:141] Setting up inception_4a/1x1
I0403 15:00:14.750064 30857 net.cpp:148] Top shape: 24 192 14 14 (903168)
I0403 15:00:14.750079 30857 net.cpp:156] Memory required for data: 858010656
I0403 15:00:14.750097 30857 layer_factory.hpp:77] Creating layer inception_4a/relu_1x1
I0403 15:00:14.750114 30857 net.cpp:91] Creating Layer inception_4a/relu_1x1
I0403 15:00:14.750130 30857 net.cpp:425] inception_4a/relu_1x1 <- inception_4a/1x1
I0403 15:00:14.750149 30857 net.cpp:386] inception_4a/relu_1x1 -> inception_4a/1x1 (in-place)
I0403 15:00:14.750327 30857 net.cpp:141] Setting up inception_4a/relu_1x1
I0403 15:00:14.750352 30857 net.cpp:148] Top shape: 24 192 14 14 (903168)
I0403 15:00:14.750366 30857 net.cpp:156] Memory required for data: 861623328
I0403 15:00:14.750380 30857 layer_factory.hpp:77] Creating layer inception_4a/3x3_reduce
I0403 15:00:14.750402 30857 net.cpp:91] Creating Layer inception_4a/3x3_reduce
I0403 15:00:14.750419 30857 net.cpp:425] inception_4a/3x3_reduce <- pool3/3x3_s2_pool3/3x3_s2_0_split_1
I0403 15:00:14.750442 30857 net.cpp:399] inception_4a/3x3_reduce -> inception_4a/3x3_reduce
I0403 15:00:14.751690 30857 net.cpp:141] Setting up inception_4a/3x3_reduce
I0403 15:00:14.751720 30857 net.cpp:148] Top shape: 24 96 14 14 (451584)
I0403 15:00:14.751736 30857 net.cpp:156] Memory required for data: 863429664
I0403 15:00:14.751765 30857 layer_factory.hpp:77] Creating layer inception_4a/relu_3x3_reduce
I0403 15:00:14.751786 30857 net.cpp:91] Creating Layer inception_4a/relu_3x3_reduce
I0403 15:00:14.751804 30857 net.cpp:425] inception_4a/relu_3x3_reduce <- inception_4a/3x3_reduce
I0403 15:00:14.751824 30857 net.cpp:386] inception_4a/relu_3x3_reduce -> inception_4a/3x3_reduce (in-place)
I0403 15:00:14.752014 30857 net.cpp:141] Setting up inception_4a/relu_3x3_reduce
I0403 15:00:14.752039 30857 net.cpp:148] Top shape: 24 96 14 14 (451584)
I0403 15:00:14.752054 30857 net.cpp:156] Memory required for data: 865236000
I0403 15:00:14.752069 30857 layer_factory.hpp:77] Creating layer inception_4a/3x3
I0403 15:00:14.752091 30857 net.cpp:91] Creating Layer inception_4a/3x3
I0403 15:00:14.752109 30857 net.cpp:425] inception_4a/3x3 <- inception_4a/3x3_reduce
I0403 15:00:14.752130 30857 net.cpp:399] inception_4a/3x3 -> inception_4a/3x3
I0403 15:00:14.754799 30857 net.cpp:141] Setting up inception_4a/3x3
I0403 15:00:14.754828 30857 net.cpp:148] Top shape: 24 208 14 14 (978432)
I0403 15:00:14.754844 30857 net.cpp:156] Memory required for data: 869149728
I0403 15:00:14.754863 30857 layer_factory.hpp:77] Creating layer inception_4a/relu_3x3
I0403 15:00:14.754884 30857 net.cpp:91] Creating Layer inception_4a/relu_3x3
I0403 15:00:14.754900 30857 net.cpp:425] inception_4a/relu_3x3 <- inception_4a/3x3
I0403 15:00:14.754919 30857 net.cpp:386] inception_4a/relu_3x3 -> inception_4a/3x3 (in-place)
I0403 15:00:14.755200 30857 net.cpp:141] Setting up inception_4a/relu_3x3
I0403 15:00:14.755226 30857 net.cpp:148] Top shape: 24 208 14 14 (978432)
I0403 15:00:14.755241 30857 net.cpp:156] Memory required for data: 873063456
I0403 15:00:14.755256 30857 layer_factory.hpp:77] Creating layer inception_4a/5x5_reduce
I0403 15:00:14.755280 30857 net.cpp:91] Creating Layer inception_4a/5x5_reduce
I0403 15:00:14.755296 30857 net.cpp:425] inception_4a/5x5_reduce <- pool3/3x3_s2_pool3/3x3_s2_0_split_2
I0403 15:00:14.755318 30857 net.cpp:399] inception_4a/5x5_reduce -> inception_4a/5x5_reduce
I0403 15:00:14.756341 30857 net.cpp:141] Setting up inception_4a/5x5_reduce
I0403 15:00:14.756371 30857 net.cpp:148] Top shape: 24 16 14 14 (75264)
I0403 15:00:14.756387 30857 net.cpp:156] Memory required for data: 873364512
I0403 15:00:14.756405 30857 layer_factory.hpp:77] Creating layer inception_4a/relu_5x5_reduce
I0403 15:00:14.756424 30857 net.cpp:91] Creating Layer inception_4a/relu_5x5_reduce
I0403 15:00:14.756441 30857 net.cpp:425] inception_4a/relu_5x5_reduce <- inception_4a/5x5_reduce
I0403 15:00:14.756459 30857 net.cpp:386] inception_4a/relu_5x5_reduce -> inception_4a/5x5_reduce (in-place)
I0403 15:00:14.756636 30857 net.cpp:141] Setting up inception_4a/relu_5x5_reduce
I0403 15:00:14.756664 30857 net.cpp:148] Top shape: 24 16 14 14 (75264)
I0403 15:00:14.756678 30857 net.cpp:156] Memory required for data: 873665568
I0403 15:00:14.756693 30857 layer_factory.hpp:77] Creating layer inception_4a/5x5
I0403 15:00:14.756714 30857 net.cpp:91] Creating Layer inception_4a/5x5
I0403 15:00:14.756732 30857 net.cpp:425] inception_4a/5x5 <- inception_4a/5x5_reduce
I0403 15:00:14.756750 30857 net.cpp:399] inception_4a/5x5 -> inception_4a/5x5
I0403 15:00:14.757808 30857 net.cpp:141] Setting up inception_4a/5x5
I0403 15:00:14.757838 30857 net.cpp:148] Top shape: 24 48 14 14 (225792)
I0403 15:00:14.757853 30857 net.cpp:156] Memory required for data: 874568736
I0403 15:00:14.757871 30857 layer_factory.hpp:77] Creating layer inception_4a/relu_5x5
I0403 15:00:14.757889 30857 net.cpp:91] Creating Layer inception_4a/relu_5x5
I0403 15:00:14.757905 30857 net.cpp:425] inception_4a/relu_5x5 <- inception_4a/5x5
I0403 15:00:14.757923 30857 net.cpp:386] inception_4a/relu_5x5 -> inception_4a/5x5 (in-place)
I0403 15:00:14.758100 30857 net.cpp:141] Setting up inception_4a/relu_5x5
I0403 15:00:14.758123 30857 net.cpp:148] Top shape: 24 48 14 14 (225792)
I0403 15:00:14.758138 30857 net.cpp:156] Memory required for data: 875471904
I0403 15:00:14.758152 30857 layer_factory.hpp:77] Creating layer inception_4a/pool
I0403 15:00:14.758168 30857 net.cpp:91] Creating Layer inception_4a/pool
I0403 15:00:14.758184 30857 net.cpp:425] inception_4a/pool <- pool3/3x3_s2_pool3/3x3_s2_0_split_3
I0403 15:00:14.758204 30857 net.cpp:399] inception_4a/pool -> inception_4a/pool
I0403 15:00:14.758263 30857 net.cpp:141] Setting up inception_4a/pool
I0403 15:00:14.758286 30857 net.cpp:148] Top shape: 24 480 14 14 (2257920)
I0403 15:00:14.758302 30857 net.cpp:156] Memory required for data: 884503584
I0403 15:00:14.758316 30857 layer_factory.hpp:77] Creating layer inception_4a/pool_proj
I0403 15:00:14.758342 30857 net.cpp:91] Creating Layer inception_4a/pool_proj
I0403 15:00:14.758360 30857 net.cpp:425] inception_4a/pool_proj <- inception_4a/pool
I0403 15:00:14.758380 30857 net.cpp:399] inception_4a/pool_proj -> inception_4a/pool_proj
I0403 15:00:14.759510 30857 net.cpp:141] Setting up inception_4a/pool_proj
I0403 15:00:14.759554 30857 net.cpp:148] Top shape: 24 64 14 14 (301056)
I0403 15:00:14.759585 30857 net.cpp:156] Memory required for data: 885707808
I0403 15:00:14.759604 30857 layer_factory.hpp:77] Creating layer inception_4a/relu_pool_proj
I0403 15:00:14.759623 30857 net.cpp:91] Creating Layer inception_4a/relu_pool_proj
I0403 15:00:14.759639 30857 net.cpp:425] inception_4a/relu_pool_proj <- inception_4a/pool_proj
I0403 15:00:14.759661 30857 net.cpp:386] inception_4a/relu_pool_proj -> inception_4a/pool_proj (in-place)
I0403 15:00:14.759938 30857 net.cpp:141] Setting up inception_4a/relu_pool_proj
I0403 15:00:14.759965 30857 net.cpp:148] Top shape: 24 64 14 14 (301056)
I0403 15:00:14.759980 30857 net.cpp:156] Memory required for data: 886912032
I0403 15:00:14.759995 30857 layer_factory.hpp:77] Creating layer inception_4a/output
I0403 15:00:14.760012 30857 net.cpp:91] Creating Layer inception_4a/output
I0403 15:00:14.760027 30857 net.cpp:425] inception_4a/output <- inception_4a/1x1
I0403 15:00:14.760043 30857 net.cpp:425] inception_4a/output <- inception_4a/3x3
I0403 15:00:14.760063 30857 net.cpp:425] inception_4a/output <- inception_4a/5x5
I0403 15:00:14.760081 30857 net.cpp:425] inception_4a/output <- inception_4a/pool_proj
I0403 15:00:14.760102 30857 net.cpp:399] inception_4a/output -> inception_4a/output
I0403 15:00:14.760145 30857 net.cpp:141] Setting up inception_4a/output
I0403 15:00:14.760169 30857 net.cpp:148] Top shape: 24 512 14 14 (2408448)
I0403 15:00:14.760182 30857 net.cpp:156] Memory required for data: 896545824
I0403 15:00:14.760196 30857 layer_factory.hpp:77] Creating layer inception_4a/output_inception_4a/output_0_split
I0403 15:00:14.760215 30857 net.cpp:91] Creating Layer inception_4a/output_inception_4a/output_0_split
I0403 15:00:14.760231 30857 net.cpp:425] inception_4a/output_inception_4a/output_0_split <- inception_4a/output
I0403 15:00:14.760248 30857 net.cpp:399] inception_4a/output_inception_4a/output_0_split -> inception_4a/output_inception_4a/output_0_split_0
I0403 15:00:14.760270 30857 net.cpp:399] inception_4a/output_inception_4a/output_0_split -> inception_4a/output_inception_4a/output_0_split_1
I0403 15:00:14.760290 30857 net.cpp:399] inception_4a/output_inception_4a/output_0_split -> inception_4a/output_inception_4a/output_0_split_2
I0403 15:00:14.760310 30857 net.cpp:399] inception_4a/output_inception_4a/output_0_split -> inception_4a/output_inception_4a/output_0_split_3
I0403 15:00:14.760329 30857 net.cpp:399] inception_4a/output_inception_4a/output_0_split -> inception_4a/output_inception_4a/output_0_split_4
I0403 15:00:14.760418 30857 net.cpp:141] Setting up inception_4a/output_inception_4a/output_0_split
I0403 15:00:14.760442 30857 net.cpp:148] Top shape: 24 512 14 14 (2408448)
I0403 15:00:14.760457 30857 net.cpp:148] Top shape: 24 512 14 14 (2408448)
I0403 15:00:14.760473 30857 net.cpp:148] Top shape: 24 512 14 14 (2408448)
I0403 15:00:14.760489 30857 net.cpp:148] Top shape: 24 512 14 14 (2408448)
I0403 15:00:14.760506 30857 net.cpp:148] Top shape: 24 512 14 14 (2408448)
I0403 15:00:14.760521 30857 net.cpp:156] Memory required for data: 944714784
I0403 15:00:14.760540 30857 layer_factory.hpp:77] Creating layer loss1/ave_pool
I0403 15:00:14.760560 30857 net.cpp:91] Creating Layer loss1/ave_pool
I0403 15:00:14.760577 30857 net.cpp:425] loss1/ave_pool <- inception_4a/output_inception_4a/output_0_split_0
I0403 15:00:14.760594 30857 net.cpp:399] loss1/ave_pool -> loss1/ave_pool
I0403 15:00:14.760799 30857 net.cpp:141] Setting up loss1/ave_pool
I0403 15:00:14.760826 30857 net.cpp:148] Top shape: 24 512 4 4 (196608)
I0403 15:00:14.760841 30857 net.cpp:156] Memory required for data: 945501216
I0403 15:00:14.760856 30857 layer_factory.hpp:77] Creating layer loss1/conv
I0403 15:00:14.760877 30857 net.cpp:91] Creating Layer loss1/conv
I0403 15:00:14.760895 30857 net.cpp:425] loss1/conv <- loss1/ave_pool
I0403 15:00:14.760913 30857 net.cpp:399] loss1/conv -> loss1/conv
I0403 15:00:14.762301 30857 net.cpp:141] Setting up loss1/conv
I0403 15:00:14.762329 30857 net.cpp:148] Top shape: 24 128 4 4 (49152)
I0403 15:00:14.762357 30857 net.cpp:156] Memory required for data: 945697824
I0403 15:00:14.762377 30857 layer_factory.hpp:77] Creating layer loss1/relu_conv
I0403 15:00:14.762397 30857 net.cpp:91] Creating Layer loss1/relu_conv
I0403 15:00:14.762413 30857 net.cpp:425] loss1/relu_conv <- loss1/conv
I0403 15:00:14.762430 30857 net.cpp:386] loss1/relu_conv -> loss1/conv (in-place)
I0403 15:00:14.762712 30857 net.cpp:141] Setting up loss1/relu_conv
I0403 15:00:14.762738 30857 net.cpp:148] Top shape: 24 128 4 4 (49152)
I0403 15:00:14.762753 30857 net.cpp:156] Memory required for data: 945894432
I0403 15:00:14.762768 30857 layer_factory.hpp:77] Creating layer loss1/fc
I0403 15:00:14.762794 30857 net.cpp:91] Creating Layer loss1/fc
I0403 15:00:14.762812 30857 net.cpp:425] loss1/fc <- loss1/conv
I0403 15:00:14.762830 30857 net.cpp:399] loss1/fc -> loss1/fc
I0403 15:00:14.780099 30857 net.cpp:141] Setting up loss1/fc
I0403 15:00:14.780153 30857 net.cpp:148] Top shape: 24 1024 (24576)
I0403 15:00:14.780170 30857 net.cpp:156] Memory required for data: 945992736
I0403 15:00:14.780189 30857 layer_factory.hpp:77] Creating layer loss1/relu_fc
I0403 15:00:14.780208 30857 net.cpp:91] Creating Layer loss1/relu_fc
I0403 15:00:14.780226 30857 net.cpp:425] loss1/relu_fc <- loss1/fc
I0403 15:00:14.780246 30857 net.cpp:386] loss1/relu_fc -> loss1/fc (in-place)
I0403 15:00:14.780433 30857 net.cpp:141] Setting up loss1/relu_fc
I0403 15:00:14.780458 30857 net.cpp:148] Top shape: 24 1024 (24576)
I0403 15:00:14.780472 30857 net.cpp:156] Memory required for data: 946091040
I0403 15:00:14.780488 30857 layer_factory.hpp:77] Creating layer loss1/drop_fc
I0403 15:00:14.780513 30857 net.cpp:91] Creating Layer loss1/drop_fc
I0403 15:00:14.780529 30857 net.cpp:425] loss1/drop_fc <- loss1/fc
I0403 15:00:14.780562 30857 net.cpp:386] loss1/drop_fc -> loss1/fc (in-place)
I0403 15:00:14.780616 30857 net.cpp:141] Setting up loss1/drop_fc
I0403 15:00:14.780642 30857 net.cpp:148] Top shape: 24 1024 (24576)
I0403 15:00:14.780655 30857 net.cpp:156] Memory required for data: 946189344
I0403 15:00:14.780670 30857 layer_factory.hpp:77] Creating layer loss1/classifier_plantvillage
I0403 15:00:14.780689 30857 net.cpp:91] Creating Layer loss1/classifier_plantvillage
I0403 15:00:14.780704 30857 net.cpp:425] loss1/classifier_plantvillage <- loss1/fc
I0403 15:00:14.780725 30857 net.cpp:399] loss1/classifier_plantvillage -> loss1/classifier_plantvillage
I0403 15:00:14.781652 30857 net.cpp:141] Setting up loss1/classifier_plantvillage
I0403 15:00:14.781680 30857 net.cpp:148] Top shape: 24 38 (912)
I0403 15:00:14.781697 30857 net.cpp:156] Memory required for data: 946192992
I0403 15:00:14.781720 30857 layer_factory.hpp:77] Creating layer loss1/classifier_plantvillage_loss1/classifier_plantvillage_0_split
I0403 15:00:14.781739 30857 net.cpp:91] Creating Layer loss1/classifier_plantvillage_loss1/classifier_plantvillage_0_split
I0403 15:00:14.781755 30857 net.cpp:425] loss1/classifier_plantvillage_loss1/classifier_plantvillage_0_split <- loss1/classifier_plantvillage
I0403 15:00:14.781776 30857 net.cpp:399] loss1/classifier_plantvillage_loss1/classifier_plantvillage_0_split -> loss1/classifier_plantvillage_loss1/classifier_plantvillage_0_split_0
I0403 15:00:14.781798 30857 net.cpp:399] loss1/classifier_plantvillage_loss1/classifier_plantvillage_0_split -> loss1/classifier_plantvillage_loss1/classifier_plantvillage_0_split_1
I0403 15:00:14.781818 30857 net.cpp:399] loss1/classifier_plantvillage_loss1/classifier_plantvillage_0_split -> loss1/classifier_plantvillage_loss1/classifier_plantvillage_0_split_2
I0403 15:00:14.781888 30857 net.cpp:141] Setting up loss1/classifier_plantvillage_loss1/classifier_plantvillage_0_split
I0403 15:00:14.781922 30857 net.cpp:148] Top shape: 24 38 (912)
I0403 15:00:14.781937 30857 net.cpp:148] Top shape: 24 38 (912)
I0403 15:00:14.781952 30857 net.cpp:148] Top shape: 24 38 (912)
I0403 15:00:14.781966 30857 net.cpp:156] Memory required for data: 946203936
I0403 15:00:14.781980 30857 layer_factory.hpp:77] Creating layer inception_4b/1x1
I0403 15:00:14.782002 30857 net.cpp:91] Creating Layer inception_4b/1x1
I0403 15:00:14.782035 30857 net.cpp:425] inception_4b/1x1 <- inception_4a/output_inception_4a/output_0_split_1
I0403 15:00:14.782055 30857 net.cpp:399] inception_4b/1x1 -> inception_4b/1x1
I0403 15:00:14.783648 30857 net.cpp:141] Setting up inception_4b/1x1
I0403 15:00:14.783676 30857 net.cpp:148] Top shape: 24 160 14 14 (752640)
I0403 15:00:14.783692 30857 net.cpp:156] Memory required for data: 949214496
I0403 15:00:14.783711 30857 layer_factory.hpp:77] Creating layer inception_4b/relu_1x1
I0403 15:00:14.783730 30857 net.cpp:91] Creating Layer inception_4b/relu_1x1
I0403 15:00:14.783747 30857 net.cpp:425] inception_4b/relu_1x1 <- inception_4b/1x1
I0403 15:00:14.783766 30857 net.cpp:386] inception_4b/relu_1x1 -> inception_4b/1x1 (in-place)
I0403 15:00:14.783937 30857 net.cpp:141] Setting up inception_4b/relu_1x1
I0403 15:00:14.783965 30857 net.cpp:148] Top shape: 24 160 14 14 (752640)
I0403 15:00:14.783980 30857 net.cpp:156] Memory required for data: 952225056
I0403 15:00:14.783995 30857 layer_factory.hpp:77] Creating layer inception_4b/3x3_reduce
I0403 15:00:14.784018 30857 net.cpp:91] Creating Layer inception_4b/3x3_reduce
I0403 15:00:14.784036 30857 net.cpp:425] inception_4b/3x3_reduce <- inception_4a/output_inception_4a/output_0_split_2
I0403 15:00:14.784055 30857 net.cpp:399] inception_4b/3x3_reduce -> inception_4b/3x3_reduce
I0403 15:00:14.785375 30857 net.cpp:141] Setting up inception_4b/3x3_reduce
I0403 15:00:14.785405 30857 net.cpp:148] Top shape: 24 112 14 14 (526848)
I0403 15:00:14.785423 30857 net.cpp:156] Memory required for data: 954332448
I0403 15:00:14.785440 30857 layer_factory.hpp:77] Creating layer inception_4b/relu_3x3_reduce
I0403 15:00:14.785459 30857 net.cpp:91] Creating Layer inception_4b/relu_3x3_reduce
I0403 15:00:14.785475 30857 net.cpp:425] inception_4b/relu_3x3_reduce <- inception_4b/3x3_reduce
I0403 15:00:14.785498 30857 net.cpp:386] inception_4b/relu_3x3_reduce -> inception_4b/3x3_reduce (in-place)
I0403 15:00:14.785781 30857 net.cpp:141] Setting up inception_4b/relu_3x3_reduce
I0403 15:00:14.785809 30857 net.cpp:148] Top shape: 24 112 14 14 (526848)
I0403 15:00:14.785825 30857 net.cpp:156] Memory required for data: 956439840
I0403 15:00:14.785842 30857 layer_factory.hpp:77] Creating layer inception_4b/3x3
I0403 15:00:14.785864 30857 net.cpp:91] Creating Layer inception_4b/3x3
I0403 15:00:14.785881 30857 net.cpp:425] inception_4b/3x3 <- inception_4b/3x3_reduce
I0403 15:00:14.785910 30857 net.cpp:399] inception_4b/3x3 -> inception_4b/3x3
I0403 15:00:14.788820 30857 net.cpp:141] Setting up inception_4b/3x3
I0403 15:00:14.788849 30857 net.cpp:148] Top shape: 24 224 14 14 (1053696)
I0403 15:00:14.788866 30857 net.cpp:156] Memory required for data: 960654624
I0403 15:00:14.788884 30857 layer_factory.hpp:77] Creating layer inception_4b/relu_3x3
I0403 15:00:14.788902 30857 net.cpp:91] Creating Layer inception_4b/relu_3x3
I0403 15:00:14.788918 30857 net.cpp:425] inception_4b/relu_3x3 <- inception_4b/3x3
I0403 15:00:14.788938 30857 net.cpp:386] inception_4b/relu_3x3 -> inception_4b/3x3 (in-place)
I0403 15:00:14.789116 30857 net.cpp:141] Setting up inception_4b/relu_3x3
I0403 15:00:14.789141 30857 net.cpp:148] Top shape: 24 224 14 14 (1053696)
I0403 15:00:14.789155 30857 net.cpp:156] Memory required for data: 964869408
I0403 15:00:14.789170 30857 layer_factory.hpp:77] Creating layer inception_4b/5x5_reduce
I0403 15:00:14.789191 30857 net.cpp:91] Creating Layer inception_4b/5x5_reduce
I0403 15:00:14.789208 30857 net.cpp:425] inception_4b/5x5_reduce <- inception_4a/output_inception_4a/output_0_split_3
I0403 15:00:14.789230 30857 net.cpp:399] inception_4b/5x5_reduce -> inception_4b/5x5_reduce
I0403 15:00:14.790298 30857 net.cpp:141] Setting up inception_4b/5x5_reduce
I0403 15:00:14.790325 30857 net.cpp:148] Top shape: 24 24 14 14 (112896)
I0403 15:00:14.790340 30857 net.cpp:156] Memory required for data: 965320992
I0403 15:00:14.790359 30857 layer_factory.hpp:77] Creating layer inception_4b/relu_5x5_reduce
I0403 15:00:14.790379 30857 net.cpp:91] Creating Layer inception_4b/relu_5x5_reduce
I0403 15:00:14.790408 30857 net.cpp:425] inception_4b/relu_5x5_reduce <- inception_4b/5x5_reduce
I0403 15:00:14.790427 30857 net.cpp:386] inception_4b/relu_5x5_reduce -> inception_4b/5x5_reduce (in-place)
I0403 15:00:14.790611 30857 net.cpp:141] Setting up inception_4b/relu_5x5_reduce
I0403 15:00:14.790637 30857 net.cpp:148] Top shape: 24 24 14 14 (112896)
I0403 15:00:14.790652 30857 net.cpp:156] Memory required for data: 965772576
I0403 15:00:14.790666 30857 layer_factory.hpp:77] Creating layer inception_4b/5x5
I0403 15:00:14.790688 30857 net.cpp:91] Creating Layer inception_4b/5x5
I0403 15:00:14.790704 30857 net.cpp:425] inception_4b/5x5 <- inception_4b/5x5_reduce
I0403 15:00:14.790724 30857 net.cpp:399] inception_4b/5x5 -> inception_4b/5x5
I0403 15:00:14.791909 30857 net.cpp:141] Setting up inception_4b/5x5
I0403 15:00:14.791935 30857 net.cpp:148] Top shape: 24 64 14 14 (301056)
I0403 15:00:14.791950 30857 net.cpp:156] Memory required for data: 966976800
I0403 15:00:14.791970 30857 layer_factory.hpp:77] Creating layer inception_4b/relu_5x5
I0403 15:00:14.791988 30857 net.cpp:91] Creating Layer inception_4b/relu_5x5
I0403 15:00:14.792006 30857 net.cpp:425] inception_4b/relu_5x5 <- inception_4b/5x5
I0403 15:00:14.792022 30857 net.cpp:386] inception_4b/relu_5x5 -> inception_4b/5x5 (in-place)
I0403 15:00:14.792301 30857 net.cpp:141] Setting up inception_4b/relu_5x5
I0403 15:00:14.792327 30857 net.cpp:148] Top shape: 24 64 14 14 (301056)
I0403 15:00:14.792341 30857 net.cpp:156] Memory required for data: 968181024
I0403 15:00:14.792356 30857 layer_factory.hpp:77] Creating layer inception_4b/pool
I0403 15:00:14.792376 30857 net.cpp:91] Creating Layer inception_4b/pool
I0403 15:00:14.792393 30857 net.cpp:425] inception_4b/pool <- inception_4a/output_inception_4a/output_0_split_4
I0403 15:00:14.792412 30857 net.cpp:399] inception_4b/pool -> inception_4b/pool
I0403 15:00:14.792474 30857 net.cpp:141] Setting up inception_4b/pool
I0403 15:00:14.792497 30857 net.cpp:148] Top shape: 24 512 14 14 (2408448)
I0403 15:00:14.792512 30857 net.cpp:156] Memory required for data: 977814816
I0403 15:00:14.792526 30857 layer_factory.hpp:77] Creating layer inception_4b/pool_proj
I0403 15:00:14.792552 30857 net.cpp:91] Creating Layer inception_4b/pool_proj
I0403 15:00:14.792577 30857 net.cpp:425] inception_4b/pool_proj <- inception_4b/pool
I0403 15:00:14.792598 30857 net.cpp:399] inception_4b/pool_proj -> inception_4b/pool_proj
I0403 15:00:14.793762 30857 net.cpp:141] Setting up inception_4b/pool_proj
I0403 15:00:14.793792 30857 net.cpp:148] Top shape: 24 64 14 14 (301056)
I0403 15:00:14.793812 30857 net.cpp:156] Memory required for data: 979019040
I0403 15:00:14.793829 30857 layer_factory.hpp:77] Creating layer inception_4b/relu_pool_proj
I0403 15:00:14.793848 30857 net.cpp:91] Creating Layer inception_4b/relu_pool_proj
I0403 15:00:14.793865 30857 net.cpp:425] inception_4b/relu_pool_proj <- inception_4b/pool_proj
I0403 15:00:14.793882 30857 net.cpp:386] inception_4b/relu_pool_proj -> inception_4b/pool_proj (in-place)
I0403 15:00:14.794059 30857 net.cpp:141] Setting up inception_4b/relu_pool_proj
I0403 15:00:14.794085 30857 net.cpp:148] Top shape: 24 64 14 14 (301056)
I0403 15:00:14.794100 30857 net.cpp:156] Memory required for data: 980223264
I0403 15:00:14.794116 30857 layer_factory.hpp:77] Creating layer inception_4b/output
I0403 15:00:14.794133 30857 net.cpp:91] Creating Layer inception_4b/output
I0403 15:00:14.794150 30857 net.cpp:425] inception_4b/output <- inception_4b/1x1
I0403 15:00:14.794167 30857 net.cpp:425] inception_4b/output <- inception_4b/3x3
I0403 15:00:14.794183 30857 net.cpp:425] inception_4b/output <- inception_4b/5x5
I0403 15:00:14.794199 30857 net.cpp:425] inception_4b/output <- inception_4b/pool_proj
I0403 15:00:14.794219 30857 net.cpp:399] inception_4b/output -> inception_4b/output
I0403 15:00:14.794266 30857 net.cpp:141] Setting up inception_4b/output
I0403 15:00:14.794291 30857 net.cpp:148] Top shape: 24 512 14 14 (2408448)
I0403 15:00:14.794306 30857 net.cpp:156] Memory required for data: 989857056
I0403 15:00:14.794333 30857 layer_factory.hpp:77] Creating layer inception_4b/output_inception_4b/output_0_split
I0403 15:00:14.794353 30857 net.cpp:91] Creating Layer inception_4b/output_inception_4b/output_0_split
I0403 15:00:14.794371 30857 net.cpp:425] inception_4b/output_inception_4b/output_0_split <- inception_4b/output
I0403 15:00:14.794389 30857 net.cpp:399] inception_4b/output_inception_4b/output_0_split -> inception_4b/output_inception_4b/output_0_split_0
I0403 15:00:14.794409 30857 net.cpp:399] inception_4b/output_inception_4b/output_0_split -> inception_4b/output_inception_4b/output_0_split_1
I0403 15:00:14.794428 30857 net.cpp:399] inception_4b/output_inception_4b/output_0_split -> inception_4b/output_inception_4b/output_0_split_2
I0403 15:00:14.794450 30857 net.cpp:399] inception_4b/output_inception_4b/output_0_split -> inception_4b/output_inception_4b/output_0_split_3
I0403 15:00:14.794543 30857 net.cpp:141] Setting up inception_4b/output_inception_4b/output_0_split
I0403 15:00:14.794572 30857 net.cpp:148] Top shape: 24 512 14 14 (2408448)
I0403 15:00:14.794590 30857 net.cpp:148] Top shape: 24 512 14 14 (2408448)
I0403 15:00:14.794606 30857 net.cpp:148] Top shape: 24 512 14 14 (2408448)
I0403 15:00:14.794622 30857 net.cpp:148] Top shape: 24 512 14 14 (2408448)
I0403 15:00:14.794636 30857 net.cpp:156] Memory required for data: 1028392224
I0403 15:00:14.794651 30857 layer_factory.hpp:77] Creating layer inception_4c/1x1
I0403 15:00:14.794674 30857 net.cpp:91] Creating Layer inception_4c/1x1
I0403 15:00:14.794692 30857 net.cpp:425] inception_4c/1x1 <- inception_4b/output_inception_4b/output_0_split_0
I0403 15:00:14.794711 30857 net.cpp:399] inception_4c/1x1 -> inception_4c/1x1
I0403 15:00:14.796106 30857 net.cpp:141] Setting up inception_4c/1x1
I0403 15:00:14.796138 30857 net.cpp:148] Top shape: 24 128 14 14 (602112)
I0403 15:00:14.796152 30857 net.cpp:156] Memory required for data: 1030800672
I0403 15:00:14.796170 30857 layer_factory.hpp:77] Creating layer inception_4c/relu_1x1
I0403 15:00:14.796188 30857 net.cpp:91] Creating Layer inception_4c/relu_1x1
I0403 15:00:14.796205 30857 net.cpp:425] inception_4c/relu_1x1 <- inception_4c/1x1
I0403 15:00:14.796223 30857 net.cpp:386] inception_4c/relu_1x1 -> inception_4c/1x1 (in-place)
I0403 15:00:14.796401 30857 net.cpp:141] Setting up inception_4c/relu_1x1
I0403 15:00:14.796424 30857 net.cpp:148] Top shape: 24 128 14 14 (602112)
I0403 15:00:14.796439 30857 net.cpp:156] Memory required for data: 1033209120
I0403 15:00:14.796453 30857 layer_factory.hpp:77] Creating layer inception_4c/3x3_reduce
I0403 15:00:14.796475 30857 net.cpp:91] Creating Layer inception_4c/3x3_reduce
I0403 15:00:14.796491 30857 net.cpp:425] inception_4c/3x3_reduce <- inception_4b/output_inception_4b/output_0_split_1
I0403 15:00:14.796512 30857 net.cpp:399] inception_4c/3x3_reduce -> inception_4c/3x3_reduce
I0403 15:00:14.798398 30857 net.cpp:141] Setting up inception_4c/3x3_reduce
I0403 15:00:14.798426 30857 net.cpp:148] Top shape: 24 128 14 14 (602112)
I0403 15:00:14.798442 30857 net.cpp:156] Memory required for data: 1035617568
I0403 15:00:14.798460 30857 layer_factory.hpp:77] Creating layer inception_4c/relu_3x3_reduce
I0403 15:00:14.798480 30857 net.cpp:91] Creating Layer inception_4c/relu_3x3_reduce
I0403 15:00:14.798497 30857 net.cpp:425] inception_4c/relu_3x3_reduce <- inception_4c/3x3_reduce
I0403 15:00:14.798516 30857 net.cpp:386] inception_4c/relu_3x3_reduce -> inception_4c/3x3_reduce (in-place)
I0403 15:00:14.798804 30857 net.cpp:141] Setting up inception_4c/relu_3x3_reduce
I0403 15:00:14.798830 30857 net.cpp:148] Top shape: 24 128 14 14 (602112)
I0403 15:00:14.798845 30857 net.cpp:156] Memory required for data: 1038026016
I0403 15:00:14.798858 30857 layer_factory.hpp:77] Creating layer inception_4c/3x3
I0403 15:00:14.798880 30857 net.cpp:91] Creating Layer inception_4c/3x3
I0403 15:00:14.798897 30857 net.cpp:425] inception_4c/3x3 <- inception_4c/3x3_reduce
I0403 15:00:14.798919 30857 net.cpp:399] inception_4c/3x3 -> inception_4c/3x3
I0403 15:00:14.802433 30857 net.cpp:141] Setting up inception_4c/3x3
I0403 15:00:14.802474 30857 net.cpp:148] Top shape: 24 256 14 14 (1204224)
I0403 15:00:14.802489 30857 net.cpp:156] Memory required for data: 1042842912
I0403 15:00:14.802520 30857 layer_factory.hpp:77] Creating layer inception_4c/relu_3x3
I0403 15:00:14.802547 30857 net.cpp:91] Creating Layer inception_4c/relu_3x3
I0403 15:00:14.802564 30857 net.cpp:425] inception_4c/relu_3x3 <- inception_4c/3x3
I0403 15:00:14.802582 30857 net.cpp:386] inception_4c/relu_3x3 -> inception_4c/3x3 (in-place)
I0403 15:00:14.802758 30857 net.cpp:141] Setting up inception_4c/relu_3x3
I0403 15:00:14.802788 30857 net.cpp:148] Top shape: 24 256 14 14 (1204224)
I0403 15:00:14.802803 30857 net.cpp:156] Memory required for data: 1047659808
I0403 15:00:14.802817 30857 layer_factory.hpp:77] Creating layer inception_4c/5x5_reduce
I0403 15:00:14.802841 30857 net.cpp:91] Creating Layer inception_4c/5x5_reduce
I0403 15:00:14.802857 30857 net.cpp:425] inception_4c/5x5_reduce <- inception_4b/output_inception_4b/output_0_split_2
I0403 15:00:14.802880 30857 net.cpp:399] inception_4c/5x5_reduce -> inception_4c/5x5_reduce
I0403 15:00:14.803946 30857 net.cpp:141] Setting up inception_4c/5x5_reduce
I0403 15:00:14.803977 30857 net.cpp:148] Top shape: 24 24 14 14 (112896)
I0403 15:00:14.803992 30857 net.cpp:156] Memory required for data: 1048111392
I0403 15:00:14.804010 30857 layer_factory.hpp:77] Creating layer inception_4c/relu_5x5_reduce
I0403 15:00:14.804031 30857 net.cpp:91] Creating Layer inception_4c/relu_5x5_reduce
I0403 15:00:14.804049 30857 net.cpp:425] inception_4c/relu_5x5_reduce <- inception_4c/5x5_reduce
I0403 15:00:14.804066 30857 net.cpp:386] inception_4c/relu_5x5_reduce -> inception_4c/5x5_reduce (in-place)
I0403 15:00:14.804247 30857 net.cpp:141] Setting up inception_4c/relu_5x5_reduce
I0403 15:00:14.804273 30857 net.cpp:148] Top shape: 24 24 14 14 (112896)
I0403 15:00:14.804288 30857 net.cpp:156] Memory required for data: 1048562976
I0403 15:00:14.804302 30857 layer_factory.hpp:77] Creating layer inception_4c/5x5
I0403 15:00:14.804324 30857 net.cpp:91] Creating Layer inception_4c/5x5
I0403 15:00:14.804342 30857 net.cpp:425] inception_4c/5x5 <- inception_4c/5x5_reduce
I0403 15:00:14.804359 30857 net.cpp:399] inception_4c/5x5 -> inception_4c/5x5
I0403 15:00:14.805606 30857 net.cpp:141] Setting up inception_4c/5x5
I0403 15:00:14.805637 30857 net.cpp:148] Top shape: 24 64 14 14 (301056)
I0403 15:00:14.805654 30857 net.cpp:156] Memory required for data: 1049767200
I0403 15:00:14.805672 30857 layer_factory.hpp:77] Creating layer inception_4c/relu_5x5
I0403 15:00:14.805691 30857 net.cpp:91] Creating Layer inception_4c/relu_5x5
I0403 15:00:14.805706 30857 net.cpp:425] inception_4c/relu_5x5 <- inception_4c/5x5
I0403 15:00:14.805723 30857 net.cpp:386] inception_4c/relu_5x5 -> inception_4c/5x5 (in-place)
I0403 15:00:14.806025 30857 net.cpp:141] Setting up inception_4c/relu_5x5
I0403 15:00:14.806053 30857 net.cpp:148] Top shape: 24 64 14 14 (301056)
I0403 15:00:14.806068 30857 net.cpp:156] Memory required for data: 1050971424
I0403 15:00:14.806083 30857 layer_factory.hpp:77] Creating layer inception_4c/pool
I0403 15:00:14.806100 30857 net.cpp:91] Creating Layer inception_4c/pool
I0403 15:00:14.806116 30857 net.cpp:425] inception_4c/pool <- inception_4b/output_inception_4b/output_0_split_3
I0403 15:00:14.806136 30857 net.cpp:399] inception_4c/pool -> inception_4c/pool
I0403 15:00:14.806200 30857 net.cpp:141] Setting up inception_4c/pool
I0403 15:00:14.806223 30857 net.cpp:148] Top shape: 24 512 14 14 (2408448)
I0403 15:00:14.806237 30857 net.cpp:156] Memory required for data: 1060605216
I0403 15:00:14.806252 30857 layer_factory.hpp:77] Creating layer inception_4c/pool_proj
I0403 15:00:14.806275 30857 net.cpp:91] Creating Layer inception_4c/pool_proj
I0403 15:00:14.806293 30857 net.cpp:425] inception_4c/pool_proj <- inception_4c/pool
I0403 15:00:14.806313 30857 net.cpp:399] inception_4c/pool_proj -> inception_4c/pool_proj
I0403 15:00:14.807500 30857 net.cpp:141] Setting up inception_4c/pool_proj
I0403 15:00:14.807528 30857 net.cpp:148] Top shape: 24 64 14 14 (301056)
I0403 15:00:14.807561 30857 net.cpp:156] Memory required for data: 1061809440
I0403 15:00:14.807581 30857 layer_factory.hpp:77] Creating layer inception_4c/relu_pool_proj
I0403 15:00:14.807602 30857 net.cpp:91] Creating Layer inception_4c/relu_pool_proj
I0403 15:00:14.807620 30857 net.cpp:425] inception_4c/relu_pool_proj <- inception_4c/pool_proj
I0403 15:00:14.807636 30857 net.cpp:386] inception_4c/relu_pool_proj -> inception_4c/pool_proj (in-place)
I0403 15:00:14.807813 30857 net.cpp:141] Setting up inception_4c/relu_pool_proj
I0403 15:00:14.807839 30857 net.cpp:148] Top shape: 24 64 14 14 (301056)
I0403 15:00:14.807855 30857 net.cpp:156] Memory required for data: 1063013664
I0403 15:00:14.807870 30857 layer_factory.hpp:77] Creating layer inception_4c/output
I0403 15:00:14.807888 30857 net.cpp:91] Creating Layer inception_4c/output
I0403 15:00:14.807903 30857 net.cpp:425] inception_4c/output <- inception_4c/1x1
I0403 15:00:14.807919 30857 net.cpp:425] inception_4c/output <- inception_4c/3x3
I0403 15:00:14.807934 30857 net.cpp:425] inception_4c/output <- inception_4c/5x5
I0403 15:00:14.807950 30857 net.cpp:425] inception_4c/output <- inception_4c/pool_proj
I0403 15:00:14.807966 30857 net.cpp:399] inception_4c/output -> inception_4c/output
I0403 15:00:14.808013 30857 net.cpp:141] Setting up inception_4c/output
I0403 15:00:14.808037 30857 net.cpp:148] Top shape: 24 512 14 14 (2408448)
I0403 15:00:14.808050 30857 net.cpp:156] Memory required for data: 1072647456
I0403 15:00:14.808064 30857 layer_factory.hpp:77] Creating layer inception_4c/output_inception_4c/output_0_split
I0403 15:00:14.808084 30857 net.cpp:91] Creating Layer inception_4c/output_inception_4c/output_0_split
I0403 15:00:14.808099 30857 net.cpp:425] inception_4c/output_inception_4c/output_0_split <- inception_4c/output
I0403 15:00:14.808118 30857 net.cpp:399] inception_4c/output_inception_4c/output_0_split -> inception_4c/output_inception_4c/output_0_split_0
I0403 15:00:14.808138 30857 net.cpp:399] inception_4c/output_inception_4c/output_0_split -> inception_4c/output_inception_4c/output_0_split_1
I0403 15:00:14.808158 30857 net.cpp:399] inception_4c/output_inception_4c/output_0_split -> inception_4c/output_inception_4c/output_0_split_2
I0403 15:00:14.808177 30857 net.cpp:399] inception_4c/output_inception_4c/output_0_split -> inception_4c/output_inception_4c/output_0_split_3
I0403 15:00:14.808264 30857 net.cpp:141] Setting up inception_4c/output_inception_4c/output_0_split
I0403 15:00:14.808286 30857 net.cpp:148] Top shape: 24 512 14 14 (2408448)
I0403 15:00:14.808301 30857 net.cpp:148] Top shape: 24 512 14 14 (2408448)
I0403 15:00:14.808317 30857 net.cpp:148] Top shape: 24 512 14 14 (2408448)
I0403 15:00:14.808331 30857 net.cpp:148] Top shape: 24 512 14 14 (2408448)
I0403 15:00:14.808344 30857 net.cpp:156] Memory required for data: 1111182624
I0403 15:00:14.808359 30857 layer_factory.hpp:77] Creating layer inception_4d/1x1
I0403 15:00:14.808380 30857 net.cpp:91] Creating Layer inception_4d/1x1
I0403 15:00:14.808398 30857 net.cpp:425] inception_4d/1x1 <- inception_4c/output_inception_4c/output_0_split_0
I0403 15:00:14.808430 30857 net.cpp:399] inception_4d/1x1 -> inception_4d/1x1
I0403 15:00:14.809814 30857 net.cpp:141] Setting up inception_4d/1x1
I0403 15:00:14.809842 30857 net.cpp:148] Top shape: 24 112 14 14 (526848)
I0403 15:00:14.809857 30857 net.cpp:156] Memory required for data: 1113290016
I0403 15:00:14.809876 30857 layer_factory.hpp:77] Creating layer inception_4d/relu_1x1
I0403 15:00:14.809895 30857 net.cpp:91] Creating Layer inception_4d/relu_1x1
I0403 15:00:14.809911 30857 net.cpp:425] inception_4d/relu_1x1 <- inception_4d/1x1
I0403 15:00:14.809929 30857 net.cpp:386] inception_4d/relu_1x1 -> inception_4d/1x1 (in-place)
I0403 15:00:14.810111 30857 net.cpp:141] Setting up inception_4d/relu_1x1
I0403 15:00:14.810134 30857 net.cpp:148] Top shape: 24 112 14 14 (526848)
I0403 15:00:14.810149 30857 net.cpp:156] Memory required for data: 1115397408
I0403 15:00:14.810163 30857 layer_factory.hpp:77] Creating layer inception_4d/3x3_reduce
I0403 15:00:14.810201 30857 net.cpp:91] Creating Layer inception_4d/3x3_reduce
I0403 15:00:14.810220 30857 net.cpp:425] inception_4d/3x3_reduce <- inception_4c/output_inception_4c/output_0_split_1
I0403 15:00:14.810240 30857 net.cpp:399] inception_4d/3x3_reduce -> inception_4d/3x3_reduce
I0403 15:00:14.811738 30857 net.cpp:141] Setting up inception_4d/3x3_reduce
I0403 15:00:14.811767 30857 net.cpp:148] Top shape: 24 144 14 14 (677376)
I0403 15:00:14.811784 30857 net.cpp:156] Memory required for data: 1118106912
I0403 15:00:14.811813 30857 layer_factory.hpp:77] Creating layer inception_4d/relu_3x3_reduce
I0403 15:00:14.811831 30857 net.cpp:91] Creating Layer inception_4d/relu_3x3_reduce
I0403 15:00:14.811847 30857 net.cpp:425] inception_4d/relu_3x3_reduce <- inception_4d/3x3_reduce
I0403 15:00:14.811867 30857 net.cpp:386] inception_4d/relu_3x3_reduce -> inception_4d/3x3_reduce (in-place)
I0403 15:00:14.812150 30857 net.cpp:141] Setting up inception_4d/relu_3x3_reduce
I0403 15:00:14.812177 30857 net.cpp:148] Top shape: 24 144 14 14 (677376)
I0403 15:00:14.812193 30857 net.cpp:156] Memory required for data: 1120816416
I0403 15:00:14.812207 30857 layer_factory.hpp:77] Creating layer inception_4d/3x3
I0403 15:00:14.812229 30857 net.cpp:91] Creating Layer inception_4d/3x3
I0403 15:00:14.812247 30857 net.cpp:425] inception_4d/3x3 <- inception_4d/3x3_reduce
I0403 15:00:14.812266 30857 net.cpp:399] inception_4d/3x3 -> inception_4d/3x3
I0403 15:00:14.816438 30857 net.cpp:141] Setting up inception_4d/3x3
I0403 15:00:14.816469 30857 net.cpp:148] Top shape: 24 288 14 14 (1354752)
I0403 15:00:14.816485 30857 net.cpp:156] Memory required for data: 1126235424
I0403 15:00:14.816504 30857 layer_factory.hpp:77] Creating layer inception_4d/relu_3x3
I0403 15:00:14.816524 30857 net.cpp:91] Creating Layer inception_4d/relu_3x3
I0403 15:00:14.816545 30857 net.cpp:425] inception_4d/relu_3x3 <- inception_4d/3x3
I0403 15:00:14.816561 30857 net.cpp:386] inception_4d/relu_3x3 -> inception_4d/3x3 (in-place)
I0403 15:00:14.816742 30857 net.cpp:141] Setting up inception_4d/relu_3x3
I0403 15:00:14.816766 30857 net.cpp:148] Top shape: 24 288 14 14 (1354752)
I0403 15:00:14.816781 30857 net.cpp:156] Memory required for data: 1131654432
I0403 15:00:14.816795 30857 layer_factory.hpp:77] Creating layer inception_4d/5x5_reduce
I0403 15:00:14.816817 30857 net.cpp:91] Creating Layer inception_4d/5x5_reduce
I0403 15:00:14.816836 30857 net.cpp:425] inception_4d/5x5_reduce <- inception_4c/output_inception_4c/output_0_split_2
I0403 15:00:14.816861 30857 net.cpp:399] inception_4d/5x5_reduce -> inception_4d/5x5_reduce
I0403 15:00:14.818027 30857 net.cpp:141] Setting up inception_4d/5x5_reduce
I0403 15:00:14.818054 30857 net.cpp:148] Top shape: 24 32 14 14 (150528)
I0403 15:00:14.818069 30857 net.cpp:156] Memory required for data: 1132256544
I0403 15:00:14.818087 30857 layer_factory.hpp:77] Creating layer inception_4d/relu_5x5_reduce
I0403 15:00:14.818105 30857 net.cpp:91] Creating Layer inception_4d/relu_5x5_reduce
I0403 15:00:14.818121 30857 net.cpp:425] inception_4d/relu_5x5_reduce <- inception_4d/5x5_reduce
I0403 15:00:14.818140 30857 net.cpp:386] inception_4d/relu_5x5_reduce -> inception_4d/5x5_reduce (in-place)
I0403 15:00:14.818325 30857 net.cpp:141] Setting up inception_4d/relu_5x5_reduce
I0403 15:00:14.818348 30857 net.cpp:148] Top shape: 24 32 14 14 (150528)
I0403 15:00:14.818362 30857 net.cpp:156] Memory required for data: 1132858656
I0403 15:00:14.818377 30857 layer_factory.hpp:77] Creating layer inception_4d/5x5
I0403 15:00:14.818398 30857 net.cpp:91] Creating Layer inception_4d/5x5
I0403 15:00:14.818415 30857 net.cpp:425] inception_4d/5x5 <- inception_4d/5x5_reduce
I0403 15:00:14.818436 30857 net.cpp:399] inception_4d/5x5 -> inception_4d/5x5
I0403 15:00:14.819890 30857 net.cpp:141] Setting up inception_4d/5x5
I0403 15:00:14.819919 30857 net.cpp:148] Top shape: 24 64 14 14 (301056)
I0403 15:00:14.819936 30857 net.cpp:156] Memory required for data: 1134062880
I0403 15:00:14.819954 30857 layer_factory.hpp:77] Creating layer inception_4d/relu_5x5
I0403 15:00:14.819988 30857 net.cpp:91] Creating Layer inception_4d/relu_5x5
I0403 15:00:14.820003 30857 net.cpp:425] inception_4d/relu_5x5 <- inception_4d/5x5
I0403 15:00:14.820020 30857 net.cpp:386] inception_4d/relu_5x5 -> inception_4d/5x5 (in-place)
I0403 15:00:14.820319 30857 net.cpp:141] Setting up inception_4d/relu_5x5
I0403 15:00:14.820348 30857 net.cpp:148] Top shape: 24 64 14 14 (301056)
I0403 15:00:14.820363 30857 net.cpp:156] Memory required for data: 1135267104
I0403 15:00:14.820377 30857 layer_factory.hpp:77] Creating layer inception_4d/pool
I0403 15:00:14.820395 30857 net.cpp:91] Creating Layer inception_4d/pool
I0403 15:00:14.820411 30857 net.cpp:425] inception_4d/pool <- inception_4c/output_inception_4c/output_0_split_3
I0403 15:00:14.820428 30857 net.cpp:399] inception_4d/pool -> inception_4d/pool
I0403 15:00:14.820495 30857 net.cpp:141] Setting up inception_4d/pool
I0403 15:00:14.820521 30857 net.cpp:148] Top shape: 24 512 14 14 (2408448)
I0403 15:00:14.820539 30857 net.cpp:156] Memory required for data: 1144900896
I0403 15:00:14.820555 30857 layer_factory.hpp:77] Creating layer inception_4d/pool_proj
I0403 15:00:14.820579 30857 net.cpp:91] Creating Layer inception_4d/pool_proj
I0403 15:00:14.820595 30857 net.cpp:425] inception_4d/pool_proj <- inception_4d/pool
I0403 15:00:14.820616 30857 net.cpp:399] inception_4d/pool_proj -> inception_4d/pool_proj
I0403 15:00:14.822494 30857 net.cpp:141] Setting up inception_4d/pool_proj
I0403 15:00:14.822522 30857 net.cpp:148] Top shape: 24 64 14 14 (301056)
I0403 15:00:14.822542 30857 net.cpp:156] Memory required for data: 1146105120
I0403 15:00:14.822561 30857 layer_factory.hpp:77] Creating layer inception_4d/relu_pool_proj
I0403 15:00:14.822583 30857 net.cpp:91] Creating Layer inception_4d/relu_pool_proj
I0403 15:00:14.822600 30857 net.cpp:425] inception_4d/relu_pool_proj <- inception_4d/pool_proj
I0403 15:00:14.822623 30857 net.cpp:386] inception_4d/relu_pool_proj -> inception_4d/pool_proj (in-place)
I0403 15:00:14.822803 30857 net.cpp:141] Setting up inception_4d/relu_pool_proj
I0403 15:00:14.822827 30857 net.cpp:148] Top shape: 24 64 14 14 (301056)
I0403 15:00:14.822842 30857 net.cpp:156] Memory required for data: 1147309344
I0403 15:00:14.822856 30857 layer_factory.hpp:77] Creating layer inception_4d/output
I0403 15:00:14.822875 30857 net.cpp:91] Creating Layer inception_4d/output
I0403 15:00:14.822892 30857 net.cpp:425] inception_4d/output <- inception_4d/1x1
I0403 15:00:14.822909 30857 net.cpp:425] inception_4d/output <- inception_4d/3x3
I0403 15:00:14.822926 30857 net.cpp:425] inception_4d/output <- inception_4d/5x5
I0403 15:00:14.822940 30857 net.cpp:425] inception_4d/output <- inception_4d/pool_proj
I0403 15:00:14.822957 30857 net.cpp:399] inception_4d/output -> inception_4d/output
I0403 15:00:14.823005 30857 net.cpp:141] Setting up inception_4d/output
I0403 15:00:14.823029 30857 net.cpp:148] Top shape: 24 528 14 14 (2483712)
I0403 15:00:14.823042 30857 net.cpp:156] Memory required for data: 1157244192
I0403 15:00:14.823057 30857 layer_factory.hpp:77] Creating layer inception_4d/output_inception_4d/output_0_split
I0403 15:00:14.823074 30857 net.cpp:91] Creating Layer inception_4d/output_inception_4d/output_0_split
I0403 15:00:14.823089 30857 net.cpp:425] inception_4d/output_inception_4d/output_0_split <- inception_4d/output
I0403 15:00:14.823109 30857 net.cpp:399] inception_4d/output_inception_4d/output_0_split -> inception_4d/output_inception_4d/output_0_split_0
I0403 15:00:14.823130 30857 net.cpp:399] inception_4d/output_inception_4d/output_0_split -> inception_4d/output_inception_4d/output_0_split_1
I0403 15:00:14.823151 30857 net.cpp:399] inception_4d/output_inception_4d/output_0_split -> inception_4d/output_inception_4d/output_0_split_2
I0403 15:00:14.823171 30857 net.cpp:399] inception_4d/output_inception_4d/output_0_split -> inception_4d/output_inception_4d/output_0_split_3
I0403 15:00:14.823194 30857 net.cpp:399] inception_4d/output_inception_4d/output_0_split -> inception_4d/output_inception_4d/output_0_split_4
I0403 15:00:14.823292 30857 net.cpp:141] Setting up inception_4d/output_inception_4d/output_0_split
I0403 15:00:14.823326 30857 net.cpp:148] Top shape: 24 528 14 14 (2483712)
I0403 15:00:14.823343 30857 net.cpp:148] Top shape: 24 528 14 14 (2483712)
I0403 15:00:14.823359 30857 net.cpp:148] Top shape: 24 528 14 14 (2483712)
I0403 15:00:14.823374 30857 net.cpp:148] Top shape: 24 528 14 14 (2483712)
I0403 15:00:14.823390 30857 net.cpp:148] Top shape: 24 528 14 14 (2483712)
I0403 15:00:14.823402 30857 net.cpp:156] Memory required for data: 1206918432
I0403 15:00:14.823416 30857 layer_factory.hpp:77] Creating layer loss2/ave_pool
I0403 15:00:14.823433 30857 net.cpp:91] Creating Layer loss2/ave_pool
I0403 15:00:14.823449 30857 net.cpp:425] loss2/ave_pool <- inception_4d/output_inception_4d/output_0_split_0
I0403 15:00:14.823469 30857 net.cpp:399] loss2/ave_pool -> loss2/ave_pool
I0403 15:00:14.823784 30857 net.cpp:141] Setting up loss2/ave_pool
I0403 15:00:14.823815 30857 net.cpp:148] Top shape: 24 528 4 4 (202752)
I0403 15:00:14.823835 30857 net.cpp:156] Memory required for data: 1207729440
I0403 15:00:14.823855 30857 layer_factory.hpp:77] Creating layer loss2/conv
I0403 15:00:14.823884 30857 net.cpp:91] Creating Layer loss2/conv
I0403 15:00:14.823905 30857 net.cpp:425] loss2/conv <- loss2/ave_pool
I0403 15:00:14.823930 30857 net.cpp:399] loss2/conv -> loss2/conv
I0403 15:00:14.825866 30857 net.cpp:141] Setting up loss2/conv
I0403 15:00:14.825896 30857 net.cpp:148] Top shape: 24 128 4 4 (49152)
I0403 15:00:14.825912 30857 net.cpp:156] Memory required for data: 1207926048
I0403 15:00:14.825930 30857 layer_factory.hpp:77] Creating layer loss2/relu_conv
I0403 15:00:14.825949 30857 net.cpp:91] Creating Layer loss2/relu_conv
I0403 15:00:14.825966 30857 net.cpp:425] loss2/relu_conv <- loss2/conv
I0403 15:00:14.825984 30857 net.cpp:386] loss2/relu_conv -> loss2/conv (in-place)
I0403 15:00:14.826273 30857 net.cpp:141] Setting up loss2/relu_conv
I0403 15:00:14.826302 30857 net.cpp:148] Top shape: 24 128 4 4 (49152)
I0403 15:00:14.826316 30857 net.cpp:156] Memory required for data: 1208122656
I0403 15:00:14.826331 30857 layer_factory.hpp:77] Creating layer loss2/fc
I0403 15:00:14.826350 30857 net.cpp:91] Creating Layer loss2/fc
I0403 15:00:14.826367 30857 net.cpp:425] loss2/fc <- loss2/conv
I0403 15:00:14.826388 30857 net.cpp:399] loss2/fc -> loss2/fc
I0403 15:00:14.843744 30857 net.cpp:141] Setting up loss2/fc
I0403 15:00:14.843782 30857 net.cpp:148] Top shape: 24 1024 (24576)
I0403 15:00:14.843798 30857 net.cpp:156] Memory required for data: 1208220960
I0403 15:00:14.843817 30857 layer_factory.hpp:77] Creating layer loss2/relu_fc
I0403 15:00:14.843835 30857 net.cpp:91] Creating Layer loss2/relu_fc
I0403 15:00:14.843852 30857 net.cpp:425] loss2/relu_fc <- loss2/fc
I0403 15:00:14.843871 30857 net.cpp:386] loss2/relu_fc -> loss2/fc (in-place)
I0403 15:00:14.844166 30857 net.cpp:141] Setting up loss2/relu_fc
I0403 15:00:14.844192 30857 net.cpp:148] Top shape: 24 1024 (24576)
I0403 15:00:14.844208 30857 net.cpp:156] Memory required for data: 1208319264
I0403 15:00:14.844221 30857 layer_factory.hpp:77] Creating layer loss2/drop_fc
I0403 15:00:14.844249 30857 net.cpp:91] Creating Layer loss2/drop_fc
I0403 15:00:14.844267 30857 net.cpp:425] loss2/drop_fc <- loss2/fc
I0403 15:00:14.844286 30857 net.cpp:386] loss2/drop_fc -> loss2/fc (in-place)
I0403 15:00:14.844338 30857 net.cpp:141] Setting up loss2/drop_fc
I0403 15:00:14.844362 30857 net.cpp:148] Top shape: 24 1024 (24576)
I0403 15:00:14.844374 30857 net.cpp:156] Memory required for data: 1208417568
I0403 15:00:14.844388 30857 layer_factory.hpp:77] Creating layer loss2/classifier_plantvillage
I0403 15:00:14.844406 30857 net.cpp:91] Creating Layer loss2/classifier_plantvillage
I0403 15:00:14.844421 30857 net.cpp:425] loss2/classifier_plantvillage <- loss2/fc
I0403 15:00:14.844444 30857 net.cpp:399] loss2/classifier_plantvillage -> loss2/classifier_plantvillage
I0403 15:00:14.844841 30857 net.cpp:141] Setting up loss2/classifier_plantvillage
I0403 15:00:14.844866 30857 net.cpp:148] Top shape: 24 38 (912)
I0403 15:00:14.844894 30857 net.cpp:156] Memory required for data: 1208421216
I0403 15:00:14.844913 30857 layer_factory.hpp:77] Creating layer loss2/classifier_plantvillage_loss2/classifier_plantvillage_0_split
I0403 15:00:14.844933 30857 net.cpp:91] Creating Layer loss2/classifier_plantvillage_loss2/classifier_plantvillage_0_split
I0403 15:00:14.844949 30857 net.cpp:425] loss2/classifier_plantvillage_loss2/classifier_plantvillage_0_split <- loss2/classifier_plantvillage
I0403 15:00:14.844969 30857 net.cpp:399] loss2/classifier_plantvillage_loss2/classifier_plantvillage_0_split -> loss2/classifier_plantvillage_loss2/classifier_plantvillage_0_split_0
I0403 15:00:14.844990 30857 net.cpp:399] loss2/classifier_plantvillage_loss2/classifier_plantvillage_0_split -> loss2/classifier_plantvillage_loss2/classifier_plantvillage_0_split_1
I0403 15:00:14.845010 30857 net.cpp:399] loss2/classifier_plantvillage_loss2/classifier_plantvillage_0_split -> loss2/classifier_plantvillage_loss2/classifier_plantvillage_0_split_2
I0403 15:00:14.845083 30857 net.cpp:141] Setting up loss2/classifier_plantvillage_loss2/classifier_plantvillage_0_split
I0403 15:00:14.845106 30857 net.cpp:148] Top shape: 24 38 (912)
I0403 15:00:14.845123 30857 net.cpp:148] Top shape: 24 38 (912)
I0403 15:00:14.845137 30857 net.cpp:148] Top shape: 24 38 (912)
I0403 15:00:14.845151 30857 net.cpp:156] Memory required for data: 1208432160
I0403 15:00:14.845165 30857 layer_factory.hpp:77] Creating layer inception_4e/1x1
I0403 15:00:14.845187 30857 net.cpp:91] Creating Layer inception_4e/1x1
I0403 15:00:14.845206 30857 net.cpp:425] inception_4e/1x1 <- inception_4d/output_inception_4d/output_0_split_1
I0403 15:00:14.845223 30857 net.cpp:399] inception_4e/1x1 -> inception_4e/1x1
I0403 15:00:14.847000 30857 net.cpp:141] Setting up inception_4e/1x1
I0403 15:00:14.847030 30857 net.cpp:148] Top shape: 24 256 14 14 (1204224)
I0403 15:00:14.847046 30857 net.cpp:156] Memory required for data: 1213249056
I0403 15:00:14.847064 30857 layer_factory.hpp:77] Creating layer inception_4e/relu_1x1
I0403 15:00:14.847082 30857 net.cpp:91] Creating Layer inception_4e/relu_1x1
I0403 15:00:14.847098 30857 net.cpp:425] inception_4e/relu_1x1 <- inception_4e/1x1
I0403 15:00:14.847115 30857 net.cpp:386] inception_4e/relu_1x1 -> inception_4e/1x1 (in-place)
I0403 15:00:14.847412 30857 net.cpp:141] Setting up inception_4e/relu_1x1
I0403 15:00:14.847440 30857 net.cpp:148] Top shape: 24 256 14 14 (1204224)
I0403 15:00:14.847457 30857 net.cpp:156] Memory required for data: 1218065952
I0403 15:00:14.847472 30857 layer_factory.hpp:77] Creating layer inception_4e/3x3_reduce
I0403 15:00:14.847493 30857 net.cpp:91] Creating Layer inception_4e/3x3_reduce
I0403 15:00:14.847511 30857 net.cpp:425] inception_4e/3x3_reduce <- inception_4d/output_inception_4d/output_0_split_2
I0403 15:00:14.847529 30857 net.cpp:399] inception_4e/3x3_reduce -> inception_4e/3x3_reduce
I0403 15:00:14.849623 30857 net.cpp:141] Setting up inception_4e/3x3_reduce
I0403 15:00:14.849653 30857 net.cpp:148] Top shape: 24 160 14 14 (752640)
I0403 15:00:14.849668 30857 net.cpp:156] Memory required for data: 1221076512
I0403 15:00:14.849688 30857 layer_factory.hpp:77] Creating layer inception_4e/relu_3x3_reduce
I0403 15:00:14.849707 30857 net.cpp:91] Creating Layer inception_4e/relu_3x3_reduce
I0403 15:00:14.849725 30857 net.cpp:425] inception_4e/relu_3x3_reduce <- inception_4e/3x3_reduce
I0403 15:00:14.849741 30857 net.cpp:386] inception_4e/relu_3x3_reduce -> inception_4e/3x3_reduce (in-place)
I0403 15:00:14.849925 30857 net.cpp:141] Setting up inception_4e/relu_3x3_reduce
I0403 15:00:14.849949 30857 net.cpp:148] Top shape: 24 160 14 14 (752640)
I0403 15:00:14.849964 30857 net.cpp:156] Memory required for data: 1224087072
I0403 15:00:14.849978 30857 layer_factory.hpp:77] Creating layer inception_4e/3x3
I0403 15:00:14.849999 30857 net.cpp:91] Creating Layer inception_4e/3x3
I0403 15:00:14.850018 30857 net.cpp:425] inception_4e/3x3 <- inception_4e/3x3_reduce
I0403 15:00:14.850039 30857 net.cpp:399] inception_4e/3x3 -> inception_4e/3x3
I0403 15:00:14.854909 30857 net.cpp:141] Setting up inception_4e/3x3
I0403 15:00:14.854951 30857 net.cpp:148] Top shape: 24 320 14 14 (1505280)
I0403 15:00:14.854967 30857 net.cpp:156] Memory required for data: 1230108192
I0403 15:00:14.854985 30857 layer_factory.hpp:77] Creating layer inception_4e/relu_3x3
I0403 15:00:14.855003 30857 net.cpp:91] Creating Layer inception_4e/relu_3x3
I0403 15:00:14.855020 30857 net.cpp:425] inception_4e/relu_3x3 <- inception_4e/3x3
I0403 15:00:14.855041 30857 net.cpp:386] inception_4e/relu_3x3 -> inception_4e/3x3 (in-place)
I0403 15:00:14.855337 30857 net.cpp:141] Setting up inception_4e/relu_3x3
I0403 15:00:14.855363 30857 net.cpp:148] Top shape: 24 320 14 14 (1505280)
I0403 15:00:14.855378 30857 net.cpp:156] Memory required for data: 1236129312
I0403 15:00:14.855392 30857 layer_factory.hpp:77] Creating layer inception_4e/5x5_reduce
I0403 15:00:14.855417 30857 net.cpp:91] Creating Layer inception_4e/5x5_reduce
I0403 15:00:14.855434 30857 net.cpp:425] inception_4e/5x5_reduce <- inception_4d/output_inception_4d/output_0_split_3
I0403 15:00:14.855455 30857 net.cpp:399] inception_4e/5x5_reduce -> inception_4e/5x5_reduce
I0403 15:00:14.856508 30857 net.cpp:141] Setting up inception_4e/5x5_reduce
I0403 15:00:14.856540 30857 net.cpp:148] Top shape: 24 32 14 14 (150528)
I0403 15:00:14.856559 30857 net.cpp:156] Memory required for data: 1236731424
I0403 15:00:14.856578 30857 layer_factory.hpp:77] Creating layer inception_4e/relu_5x5_reduce
I0403 15:00:14.856596 30857 net.cpp:91] Creating Layer inception_4e/relu_5x5_reduce
I0403 15:00:14.856612 30857 net.cpp:425] inception_4e/relu_5x5_reduce <- inception_4e/5x5_reduce
I0403 15:00:14.856631 30857 net.cpp:386] inception_4e/relu_5x5_reduce -> inception_4e/5x5_reduce (in-place)
I0403 15:00:14.856922 30857 net.cpp:141] Setting up inception_4e/relu_5x5_reduce
I0403 15:00:14.856950 30857 net.cpp:148] Top shape: 24 32 14 14 (150528)
I0403 15:00:14.856966 30857 net.cpp:156] Memory required for data: 1237333536
I0403 15:00:14.856981 30857 layer_factory.hpp:77] Creating layer inception_4e/5x5
I0403 15:00:14.857019 30857 net.cpp:91] Creating Layer inception_4e/5x5
I0403 15:00:14.857038 30857 net.cpp:425] inception_4e/5x5 <- inception_4e/5x5_reduce
I0403 15:00:14.857059 30857 net.cpp:399] inception_4e/5x5 -> inception_4e/5x5
I0403 15:00:14.858896 30857 net.cpp:141] Setting up inception_4e/5x5
I0403 15:00:14.858924 30857 net.cpp:148] Top shape: 24 128 14 14 (602112)
I0403 15:00:14.858940 30857 net.cpp:156] Memory required for data: 1239741984
I0403 15:00:14.858960 30857 layer_factory.hpp:77] Creating layer inception_4e/relu_5x5
I0403 15:00:14.858981 30857 net.cpp:91] Creating Layer inception_4e/relu_5x5
I0403 15:00:14.859000 30857 net.cpp:425] inception_4e/relu_5x5 <- inception_4e/5x5
I0403 15:00:14.859017 30857 net.cpp:386] inception_4e/relu_5x5 -> inception_4e/5x5 (in-place)
I0403 15:00:14.859213 30857 net.cpp:141] Setting up inception_4e/relu_5x5
I0403 15:00:14.859238 30857 net.cpp:148] Top shape: 24 128 14 14 (602112)
I0403 15:00:14.859252 30857 net.cpp:156] Memory required for data: 1242150432
I0403 15:00:14.859266 30857 layer_factory.hpp:77] Creating layer inception_4e/pool
I0403 15:00:14.859285 30857 net.cpp:91] Creating Layer inception_4e/pool
I0403 15:00:14.859302 30857 net.cpp:425] inception_4e/pool <- inception_4d/output_inception_4d/output_0_split_4
I0403 15:00:14.859321 30857 net.cpp:399] inception_4e/pool -> inception_4e/pool
I0403 15:00:14.859390 30857 net.cpp:141] Setting up inception_4e/pool
I0403 15:00:14.859413 30857 net.cpp:148] Top shape: 24 528 14 14 (2483712)
I0403 15:00:14.859427 30857 net.cpp:156] Memory required for data: 1252085280
I0403 15:00:14.859442 30857 layer_factory.hpp:77] Creating layer inception_4e/pool_proj
I0403 15:00:14.859464 30857 net.cpp:91] Creating Layer inception_4e/pool_proj
I0403 15:00:14.859482 30857 net.cpp:425] inception_4e/pool_proj <- inception_4e/pool
I0403 15:00:14.859501 30857 net.cpp:399] inception_4e/pool_proj -> inception_4e/pool_proj
I0403 15:00:14.860972 30857 net.cpp:141] Setting up inception_4e/pool_proj
I0403 15:00:14.861012 30857 net.cpp:148] Top shape: 24 128 14 14 (602112)
I0403 15:00:14.861033 30857 net.cpp:156] Memory required for data: 1254493728
I0403 15:00:14.861052 30857 layer_factory.hpp:77] Creating layer inception_4e/relu_pool_proj
I0403 15:00:14.861071 30857 net.cpp:91] Creating Layer inception_4e/relu_pool_proj
I0403 15:00:14.861088 30857 net.cpp:425] inception_4e/relu_pool_proj <- inception_4e/pool_proj
I0403 15:00:14.861105 30857 net.cpp:386] inception_4e/relu_pool_proj -> inception_4e/pool_proj (in-place)
I0403 15:00:14.861388 30857 net.cpp:141] Setting up inception_4e/relu_pool_proj
I0403 15:00:14.861414 30857 net.cpp:148] Top shape: 24 128 14 14 (602112)
I0403 15:00:14.861429 30857 net.cpp:156] Memory required for data: 1256902176
I0403 15:00:14.861443 30857 layer_factory.hpp:77] Creating layer inception_4e/output
I0403 15:00:14.861461 30857 net.cpp:91] Creating Layer inception_4e/output
I0403 15:00:14.861476 30857 net.cpp:425] inception_4e/output <- inception_4e/1x1
I0403 15:00:14.861492 30857 net.cpp:425] inception_4e/output <- inception_4e/3x3
I0403 15:00:14.861515 30857 net.cpp:425] inception_4e/output <- inception_4e/5x5
I0403 15:00:14.861531 30857 net.cpp:425] inception_4e/output <- inception_4e/pool_proj
I0403 15:00:14.861552 30857 net.cpp:399] inception_4e/output -> inception_4e/output
I0403 15:00:14.861603 30857 net.cpp:141] Setting up inception_4e/output
I0403 15:00:14.861629 30857 net.cpp:148] Top shape: 24 832 14 14 (3913728)
I0403 15:00:14.861644 30857 net.cpp:156] Memory required for data: 1272557088
I0403 15:00:14.861659 30857 layer_factory.hpp:77] Creating layer pool4/3x3_s2
I0403 15:00:14.861675 30857 net.cpp:91] Creating Layer pool4/3x3_s2
I0403 15:00:14.861690 30857 net.cpp:425] pool4/3x3_s2 <- inception_4e/output
I0403 15:00:14.861711 30857 net.cpp:399] pool4/3x3_s2 -> pool4/3x3_s2
I0403 15:00:14.861776 30857 net.cpp:141] Setting up pool4/3x3_s2
I0403 15:00:14.861799 30857 net.cpp:148] Top shape: 24 832 7 7 (978432)
I0403 15:00:14.861815 30857 net.cpp:156] Memory required for data: 1276470816
I0403 15:00:14.861829 30857 layer_factory.hpp:77] Creating layer pool4/3x3_s2_pool4/3x3_s2_0_split
I0403 15:00:14.861848 30857 net.cpp:91] Creating Layer pool4/3x3_s2_pool4/3x3_s2_0_split
I0403 15:00:14.861872 30857 net.cpp:425] pool4/3x3_s2_pool4/3x3_s2_0_split <- pool4/3x3_s2
I0403 15:00:14.861891 30857 net.cpp:399] pool4/3x3_s2_pool4/3x3_s2_0_split -> pool4/3x3_s2_pool4/3x3_s2_0_split_0
I0403 15:00:14.861909 30857 net.cpp:399] pool4/3x3_s2_pool4/3x3_s2_0_split -> pool4/3x3_s2_pool4/3x3_s2_0_split_1
I0403 15:00:14.861929 30857 net.cpp:399] pool4/3x3_s2_pool4/3x3_s2_0_split -> pool4/3x3_s2_pool4/3x3_s2_0_split_2
I0403 15:00:14.861951 30857 net.cpp:399] pool4/3x3_s2_pool4/3x3_s2_0_split -> pool4/3x3_s2_pool4/3x3_s2_0_split_3
I0403 15:00:14.862046 30857 net.cpp:141] Setting up pool4/3x3_s2_pool4/3x3_s2_0_split
I0403 15:00:14.862069 30857 net.cpp:148] Top shape: 24 832 7 7 (978432)
I0403 15:00:14.862085 30857 net.cpp:148] Top shape: 24 832 7 7 (978432)
I0403 15:00:14.862100 30857 net.cpp:148] Top shape: 24 832 7 7 (978432)
I0403 15:00:14.862115 30857 net.cpp:148] Top shape: 24 832 7 7 (978432)
I0403 15:00:14.862128 30857 net.cpp:156] Memory required for data: 1292125728
I0403 15:00:14.862143 30857 layer_factory.hpp:77] Creating layer inception_5a/1x1
I0403 15:00:14.862164 30857 net.cpp:91] Creating Layer inception_5a/1x1
I0403 15:00:14.862181 30857 net.cpp:425] inception_5a/1x1 <- pool4/3x3_s2_pool4/3x3_s2_0_split_0
I0403 15:00:14.862202 30857 net.cpp:399] inception_5a/1x1 -> inception_5a/1x1
I0403 15:00:14.865001 30857 net.cpp:141] Setting up inception_5a/1x1
I0403 15:00:14.865031 30857 net.cpp:148] Top shape: 24 256 7 7 (301056)
I0403 15:00:14.865047 30857 net.cpp:156] Memory required for data: 1293329952
I0403 15:00:14.865066 30857 layer_factory.hpp:77] Creating layer inception_5a/relu_1x1
I0403 15:00:14.865085 30857 net.cpp:91] Creating Layer inception_5a/relu_1x1
I0403 15:00:14.865102 30857 net.cpp:425] inception_5a/relu_1x1 <- inception_5a/1x1
I0403 15:00:14.865119 30857 net.cpp:386] inception_5a/relu_1x1 -> inception_5a/1x1 (in-place)
I0403 15:00:14.865433 30857 net.cpp:141] Setting up inception_5a/relu_1x1
I0403 15:00:14.865458 30857 net.cpp:148] Top shape: 24 256 7 7 (301056)
I0403 15:00:14.865484 30857 net.cpp:156] Memory required for data: 1294534176
I0403 15:00:14.865521 30857 layer_factory.hpp:77] Creating layer inception_5a/3x3_reduce
I0403 15:00:14.865561 30857 net.cpp:91] Creating Layer inception_5a/3x3_reduce
I0403 15:00:14.865581 30857 net.cpp:425] inception_5a/3x3_reduce <- pool4/3x3_s2_pool4/3x3_s2_0_split_1
I0403 15:00:14.865602 30857 net.cpp:399] inception_5a/3x3_reduce -> inception_5a/3x3_reduce
I0403 15:00:14.868098 30857 net.cpp:141] Setting up inception_5a/3x3_reduce
I0403 15:00:14.868127 30857 net.cpp:148] Top shape: 24 160 7 7 (188160)
I0403 15:00:14.868144 30857 net.cpp:156] Memory required for data: 1295286816
I0403 15:00:14.868163 30857 layer_factory.hpp:77] Creating layer inception_5a/relu_3x3_reduce
I0403 15:00:14.868181 30857 net.cpp:91] Creating Layer inception_5a/relu_3x3_reduce
I0403 15:00:14.868198 30857 net.cpp:425] inception_5a/relu_3x3_reduce <- inception_5a/3x3_reduce
I0403 15:00:14.868217 30857 net.cpp:386] inception_5a/relu_3x3_reduce -> inception_5a/3x3_reduce (in-place)
I0403 15:00:14.868409 30857 net.cpp:141] Setting up inception_5a/relu_3x3_reduce
I0403 15:00:14.868435 30857 net.cpp:148] Top shape: 24 160 7 7 (188160)
I0403 15:00:14.868450 30857 net.cpp:156] Memory required for data: 1296039456
I0403 15:00:14.868468 30857 layer_factory.hpp:77] Creating layer inception_5a/3x3
I0403 15:00:14.868497 30857 net.cpp:91] Creating Layer inception_5a/3x3
I0403 15:00:14.868515 30857 net.cpp:425] inception_5a/3x3 <- inception_5a/3x3_reduce
I0403 15:00:14.868546 30857 net.cpp:399] inception_5a/3x3 -> inception_5a/3x3
I0403 15:00:14.873520 30857 net.cpp:141] Setting up inception_5a/3x3
I0403 15:00:14.873554 30857 net.cpp:148] Top shape: 24 320 7 7 (376320)
I0403 15:00:14.873571 30857 net.cpp:156] Memory required for data: 1297544736
I0403 15:00:14.873589 30857 layer_factory.hpp:77] Creating layer inception_5a/relu_3x3
I0403 15:00:14.873610 30857 net.cpp:91] Creating Layer inception_5a/relu_3x3
I0403 15:00:14.873627 30857 net.cpp:425] inception_5a/relu_3x3 <- inception_5a/3x3
I0403 15:00:14.873644 30857 net.cpp:386] inception_5a/relu_3x3 -> inception_5a/3x3 (in-place)
I0403 15:00:14.873934 30857 net.cpp:141] Setting up inception_5a/relu_3x3
I0403 15:00:14.873963 30857 net.cpp:148] Top shape: 24 320 7 7 (376320)
I0403 15:00:14.873978 30857 net.cpp:156] Memory required for data: 1299050016
I0403 15:00:14.873992 30857 layer_factory.hpp:77] Creating layer inception_5a/5x5_reduce
I0403 15:00:14.874014 30857 net.cpp:91] Creating Layer inception_5a/5x5_reduce
I0403 15:00:14.874032 30857 net.cpp:425] inception_5a/5x5_reduce <- pool4/3x3_s2_pool4/3x3_s2_0_split_2
I0403 15:00:14.874053 30857 net.cpp:399] inception_5a/5x5_reduce -> inception_5a/5x5_reduce
I0403 15:00:14.875213 30857 net.cpp:141] Setting up inception_5a/5x5_reduce
I0403 15:00:14.875244 30857 net.cpp:148] Top shape: 24 32 7 7 (37632)
I0403 15:00:14.875259 30857 net.cpp:156] Memory required for data: 1299200544
I0403 15:00:14.875283 30857 layer_factory.hpp:77] Creating layer inception_5a/relu_5x5_reduce
I0403 15:00:14.875303 30857 net.cpp:91] Creating Layer inception_5a/relu_5x5_reduce
I0403 15:00:14.875320 30857 net.cpp:425] inception_5a/relu_5x5_reduce <- inception_5a/5x5_reduce
I0403 15:00:14.875337 30857 net.cpp:386] inception_5a/relu_5x5_reduce -> inception_5a/5x5_reduce (in-place)
I0403 15:00:14.875643 30857 net.cpp:141] Setting up inception_5a/relu_5x5_reduce
I0403 15:00:14.875669 30857 net.cpp:148] Top shape: 24 32 7 7 (37632)
I0403 15:00:14.875684 30857 net.cpp:156] Memory required for data: 1299351072
I0403 15:00:14.875697 30857 layer_factory.hpp:77] Creating layer inception_5a/5x5
I0403 15:00:14.875722 30857 net.cpp:91] Creating Layer inception_5a/5x5
I0403 15:00:14.875741 30857 net.cpp:425] inception_5a/5x5 <- inception_5a/5x5_reduce
I0403 15:00:14.875759 30857 net.cpp:399] inception_5a/5x5 -> inception_5a/5x5
I0403 15:00:14.877503 30857 net.cpp:141] Setting up inception_5a/5x5
I0403 15:00:14.877555 30857 net.cpp:148] Top shape: 24 128 7 7 (150528)
I0403 15:00:14.877573 30857 net.cpp:156] Memory required for data: 1299953184
I0403 15:00:14.877595 30857 layer_factory.hpp:77] Creating layer inception_5a/relu_5x5
I0403 15:00:14.877619 30857 net.cpp:91] Creating Layer inception_5a/relu_5x5
I0403 15:00:14.877642 30857 net.cpp:425] inception_5a/relu_5x5 <- inception_5a/5x5
I0403 15:00:14.877665 30857 net.cpp:386] inception_5a/relu_5x5 -> inception_5a/5x5 (in-place)
I0403 15:00:14.877867 30857 net.cpp:141] Setting up inception_5a/relu_5x5
I0403 15:00:14.877894 30857 net.cpp:148] Top shape: 24 128 7 7 (150528)
I0403 15:00:14.877909 30857 net.cpp:156] Memory required for data: 1300555296
I0403 15:00:14.877923 30857 layer_factory.hpp:77] Creating layer inception_5a/pool
I0403 15:00:14.877940 30857 net.cpp:91] Creating Layer inception_5a/pool
I0403 15:00:14.877956 30857 net.cpp:425] inception_5a/pool <- pool4/3x3_s2_pool4/3x3_s2_0_split_3
I0403 15:00:14.877976 30857 net.cpp:399] inception_5a/pool -> inception_5a/pool
I0403 15:00:14.878046 30857 net.cpp:141] Setting up inception_5a/pool
I0403 15:00:14.878068 30857 net.cpp:148] Top shape: 24 832 7 7 (978432)
I0403 15:00:14.878082 30857 net.cpp:156] Memory required for data: 1304469024
I0403 15:00:14.878096 30857 layer_factory.hpp:77] Creating layer inception_5a/pool_proj
I0403 15:00:14.878118 30857 net.cpp:91] Creating Layer inception_5a/pool_proj
I0403 15:00:14.878135 30857 net.cpp:425] inception_5a/pool_proj <- inception_5a/pool
I0403 15:00:14.878156 30857 net.cpp:399] inception_5a/pool_proj -> inception_5a/pool_proj
I0403 15:00:14.880414 30857 net.cpp:141] Setting up inception_5a/pool_proj
I0403 15:00:14.880444 30857 net.cpp:148] Top shape: 24 128 7 7 (150528)
I0403 15:00:14.880460 30857 net.cpp:156] Memory required for data: 1305071136
I0403 15:00:14.880476 30857 layer_factory.hpp:77] Creating layer inception_5a/relu_pool_proj
I0403 15:00:14.880497 30857 net.cpp:91] Creating Layer inception_5a/relu_pool_proj
I0403 15:00:14.880513 30857 net.cpp:425] inception_5a/relu_pool_proj <- inception_5a/pool_proj
I0403 15:00:14.880532 30857 net.cpp:386] inception_5a/relu_pool_proj -> inception_5a/pool_proj (in-place)
I0403 15:00:14.880833 30857 net.cpp:141] Setting up inception_5a/relu_pool_proj
I0403 15:00:14.880858 30857 net.cpp:148] Top shape: 24 128 7 7 (150528)
I0403 15:00:14.880873 30857 net.cpp:156] Memory required for data: 1305673248
I0403 15:00:14.880887 30857 layer_factory.hpp:77] Creating layer inception_5a/output
I0403 15:00:14.880904 30857 net.cpp:91] Creating Layer inception_5a/output
I0403 15:00:14.880920 30857 net.cpp:425] inception_5a/output <- inception_5a/1x1
I0403 15:00:14.880938 30857 net.cpp:425] inception_5a/output <- inception_5a/3x3
I0403 15:00:14.880954 30857 net.cpp:425] inception_5a/output <- inception_5a/5x5
I0403 15:00:14.880969 30857 net.cpp:425] inception_5a/output <- inception_5a/pool_proj
I0403 15:00:14.880987 30857 net.cpp:399] inception_5a/output -> inception_5a/output
I0403 15:00:14.881036 30857 net.cpp:141] Setting up inception_5a/output
I0403 15:00:14.881062 30857 net.cpp:148] Top shape: 24 832 7 7 (978432)
I0403 15:00:14.881077 30857 net.cpp:156] Memory required for data: 1309586976
I0403 15:00:14.881090 30857 layer_factory.hpp:77] Creating layer inception_5a/output_inception_5a/output_0_split
I0403 15:00:14.881106 30857 net.cpp:91] Creating Layer inception_5a/output_inception_5a/output_0_split
I0403 15:00:14.881122 30857 net.cpp:425] inception_5a/output_inception_5a/output_0_split <- inception_5a/output
I0403 15:00:14.881141 30857 net.cpp:399] inception_5a/output_inception_5a/output_0_split -> inception_5a/output_inception_5a/output_0_split_0
I0403 15:00:14.881163 30857 net.cpp:399] inception_5a/output_inception_5a/output_0_split -> inception_5a/output_inception_5a/output_0_split_1
I0403 15:00:14.881183 30857 net.cpp:399] inception_5a/output_inception_5a/output_0_split -> inception_5a/output_inception_5a/output_0_split_2
I0403 15:00:14.881202 30857 net.cpp:399] inception_5a/output_inception_5a/output_0_split -> inception_5a/output_inception_5a/output_0_split_3
I0403 15:00:14.881312 30857 net.cpp:141] Setting up inception_5a/output_inception_5a/output_0_split
I0403 15:00:14.881341 30857 net.cpp:148] Top shape: 24 832 7 7 (978432)
I0403 15:00:14.881357 30857 net.cpp:148] Top shape: 24 832 7 7 (978432)
I0403 15:00:14.881373 30857 net.cpp:148] Top shape: 24 832 7 7 (978432)
I0403 15:00:14.881388 30857 net.cpp:148] Top shape: 24 832 7 7 (978432)
I0403 15:00:14.881402 30857 net.cpp:156] Memory required for data: 1325241888
I0403 15:00:14.881417 30857 layer_factory.hpp:77] Creating layer inception_5b/1x1
I0403 15:00:14.881439 30857 net.cpp:91] Creating Layer inception_5b/1x1
I0403 15:00:14.881458 30857 net.cpp:425] inception_5b/1x1 <- inception_5a/output_inception_5a/output_0_split_0
I0403 15:00:14.881475 30857 net.cpp:399] inception_5b/1x1 -> inception_5b/1x1
I0403 15:00:14.885190 30857 net.cpp:141] Setting up inception_5b/1x1
I0403 15:00:14.885221 30857 net.cpp:148] Top shape: 24 384 7 7 (451584)
I0403 15:00:14.885236 30857 net.cpp:156] Memory required for data: 1327048224
I0403 15:00:14.885254 30857 layer_factory.hpp:77] Creating layer inception_5b/relu_1x1
I0403 15:00:14.885272 30857 net.cpp:91] Creating Layer inception_5b/relu_1x1
I0403 15:00:14.885290 30857 net.cpp:425] inception_5b/relu_1x1 <- inception_5b/1x1
I0403 15:00:14.885308 30857 net.cpp:386] inception_5b/relu_1x1 -> inception_5b/1x1 (in-place)
I0403 15:00:14.885612 30857 net.cpp:141] Setting up inception_5b/relu_1x1
I0403 15:00:14.885638 30857 net.cpp:148] Top shape: 24 384 7 7 (451584)
I0403 15:00:14.885653 30857 net.cpp:156] Memory required for data: 1328854560
I0403 15:00:14.885668 30857 layer_factory.hpp:77] Creating layer inception_5b/3x3_reduce
I0403 15:00:14.885689 30857 net.cpp:91] Creating Layer inception_5b/3x3_reduce
I0403 15:00:14.885706 30857 net.cpp:425] inception_5b/3x3_reduce <- inception_5a/output_inception_5a/output_0_split_1
I0403 15:00:14.885728 30857 net.cpp:399] inception_5b/3x3_reduce -> inception_5b/3x3_reduce
I0403 15:00:14.888329 30857 net.cpp:141] Setting up inception_5b/3x3_reduce
I0403 15:00:14.888357 30857 net.cpp:148] Top shape: 24 192 7 7 (225792)
I0403 15:00:14.888373 30857 net.cpp:156] Memory required for data: 1329757728
I0403 15:00:14.888391 30857 layer_factory.hpp:77] Creating layer inception_5b/relu_3x3_reduce
I0403 15:00:14.888408 30857 net.cpp:91] Creating Layer inception_5b/relu_3x3_reduce
I0403 15:00:14.888425 30857 net.cpp:425] inception_5b/relu_3x3_reduce <- inception_5b/3x3_reduce
I0403 15:00:14.888444 30857 net.cpp:386] inception_5b/relu_3x3_reduce -> inception_5b/3x3_reduce (in-place)
I0403 15:00:14.888638 30857 net.cpp:141] Setting up inception_5b/relu_3x3_reduce
I0403 15:00:14.888662 30857 net.cpp:148] Top shape: 24 192 7 7 (225792)
I0403 15:00:14.888676 30857 net.cpp:156] Memory required for data: 1330660896
I0403 15:00:14.888690 30857 layer_factory.hpp:77] Creating layer inception_5b/3x3
I0403 15:00:14.888712 30857 net.cpp:91] Creating Layer inception_5b/3x3
I0403 15:00:14.888730 30857 net.cpp:425] inception_5b/3x3 <- inception_5b/3x3_reduce
I0403 15:00:14.888749 30857 net.cpp:399] inception_5b/3x3 -> inception_5b/3x3
I0403 15:00:14.895323 30857 net.cpp:141] Setting up inception_5b/3x3
I0403 15:00:14.895351 30857 net.cpp:148] Top shape: 24 384 7 7 (451584)
I0403 15:00:14.895366 30857 net.cpp:156] Memory required for data: 1332467232
I0403 15:00:14.895385 30857 layer_factory.hpp:77] Creating layer inception_5b/relu_3x3
I0403 15:00:14.895404 30857 net.cpp:91] Creating Layer inception_5b/relu_3x3
I0403 15:00:14.895421 30857 net.cpp:425] inception_5b/relu_3x3 <- inception_5b/3x3
I0403 15:00:14.895438 30857 net.cpp:386] inception_5b/relu_3x3 -> inception_5b/3x3 (in-place)
I0403 15:00:14.895745 30857 net.cpp:141] Setting up inception_5b/relu_3x3
I0403 15:00:14.895771 30857 net.cpp:148] Top shape: 24 384 7 7 (451584)
I0403 15:00:14.895786 30857 net.cpp:156] Memory required for data: 1334273568
I0403 15:00:14.895799 30857 layer_factory.hpp:77] Creating layer inception_5b/5x5_reduce
I0403 15:00:14.895838 30857 net.cpp:91] Creating Layer inception_5b/5x5_reduce
I0403 15:00:14.895856 30857 net.cpp:425] inception_5b/5x5_reduce <- inception_5a/output_inception_5a/output_0_split_2
I0403 15:00:14.895879 30857 net.cpp:399] inception_5b/5x5_reduce -> inception_5b/5x5_reduce
I0403 15:00:14.897140 30857 net.cpp:141] Setting up inception_5b/5x5_reduce
I0403 15:00:14.897168 30857 net.cpp:148] Top shape: 24 48 7 7 (56448)
I0403 15:00:14.897183 30857 net.cpp:156] Memory required for data: 1334499360
I0403 15:00:14.897202 30857 layer_factory.hpp:77] Creating layer inception_5b/relu_5x5_reduce
I0403 15:00:14.897222 30857 net.cpp:91] Creating Layer inception_5b/relu_5x5_reduce
I0403 15:00:14.897239 30857 net.cpp:425] inception_5b/relu_5x5_reduce <- inception_5b/5x5_reduce
I0403 15:00:14.897256 30857 net.cpp:386] inception_5b/relu_5x5_reduce -> inception_5b/5x5_reduce (in-place)
I0403 15:00:14.897626 30857 net.cpp:141] Setting up inception_5b/relu_5x5_reduce
I0403 15:00:14.897652 30857 net.cpp:148] Top shape: 24 48 7 7 (56448)
I0403 15:00:14.897667 30857 net.cpp:156] Memory required for data: 1334725152
I0403 15:00:14.897682 30857 layer_factory.hpp:77] Creating layer inception_5b/5x5
I0403 15:00:14.897702 30857 net.cpp:91] Creating Layer inception_5b/5x5
I0403 15:00:14.897719 30857 net.cpp:425] inception_5b/5x5 <- inception_5b/5x5_reduce
I0403 15:00:14.897737 30857 net.cpp:399] inception_5b/5x5 -> inception_5b/5x5
I0403 15:00:14.899996 30857 net.cpp:141] Setting up inception_5b/5x5
I0403 15:00:14.900023 30857 net.cpp:148] Top shape: 24 128 7 7 (150528)
I0403 15:00:14.900038 30857 net.cpp:156] Memory required for data: 1335327264
I0403 15:00:14.900055 30857 layer_factory.hpp:77] Creating layer inception_5b/relu_5x5
I0403 15:00:14.900075 30857 net.cpp:91] Creating Layer inception_5b/relu_5x5
I0403 15:00:14.900091 30857 net.cpp:425] inception_5b/relu_5x5 <- inception_5b/5x5
I0403 15:00:14.900110 30857 net.cpp:386] inception_5b/relu_5x5 -> inception_5b/5x5 (in-place)
I0403 15:00:14.900300 30857 net.cpp:141] Setting up inception_5b/relu_5x5
I0403 15:00:14.900326 30857 net.cpp:148] Top shape: 24 128 7 7 (150528)
I0403 15:00:14.900341 30857 net.cpp:156] Memory required for data: 1335929376
I0403 15:00:14.900354 30857 layer_factory.hpp:77] Creating layer inception_5b/pool
I0403 15:00:14.900372 30857 net.cpp:91] Creating Layer inception_5b/pool
I0403 15:00:14.900388 30857 net.cpp:425] inception_5b/pool <- inception_5a/output_inception_5a/output_0_split_3
I0403 15:00:14.900408 30857 net.cpp:399] inception_5b/pool -> inception_5b/pool
I0403 15:00:14.900480 30857 net.cpp:141] Setting up inception_5b/pool
I0403 15:00:14.900503 30857 net.cpp:148] Top shape: 24 832 7 7 (978432)
I0403 15:00:14.900516 30857 net.cpp:156] Memory required for data: 1339843104
I0403 15:00:14.900532 30857 layer_factory.hpp:77] Creating layer inception_5b/pool_proj
I0403 15:00:14.900557 30857 net.cpp:91] Creating Layer inception_5b/pool_proj
I0403 15:00:14.900575 30857 net.cpp:425] inception_5b/pool_proj <- inception_5b/pool
I0403 15:00:14.900596 30857 net.cpp:399] inception_5b/pool_proj -> inception_5b/pool_proj
I0403 15:00:14.902954 30857 net.cpp:141] Setting up inception_5b/pool_proj
I0403 15:00:14.902982 30857 net.cpp:148] Top shape: 24 128 7 7 (150528)
I0403 15:00:14.902998 30857 net.cpp:156] Memory required for data: 1340445216
I0403 15:00:14.903017 30857 layer_factory.hpp:77] Creating layer inception_5b/relu_pool_proj
I0403 15:00:14.903038 30857 net.cpp:91] Creating Layer inception_5b/relu_pool_proj
I0403 15:00:14.903055 30857 net.cpp:425] inception_5b/relu_pool_proj <- inception_5b/pool_proj
I0403 15:00:14.903072 30857 net.cpp:386] inception_5b/relu_pool_proj -> inception_5b/pool_proj (in-place)
I0403 15:00:14.903365 30857 net.cpp:141] Setting up inception_5b/relu_pool_proj
I0403 15:00:14.903394 30857 net.cpp:148] Top shape: 24 128 7 7 (150528)
I0403 15:00:14.903411 30857 net.cpp:156] Memory required for data: 1341047328
I0403 15:00:14.903426 30857 layer_factory.hpp:77] Creating layer inception_5b/output
I0403 15:00:14.903442 30857 net.cpp:91] Creating Layer inception_5b/output
I0403 15:00:14.903475 30857 net.cpp:425] inception_5b/output <- inception_5b/1x1
I0403 15:00:14.903492 30857 net.cpp:425] inception_5b/output <- inception_5b/3x3
I0403 15:00:14.903508 30857 net.cpp:425] inception_5b/output <- inception_5b/5x5
I0403 15:00:14.903524 30857 net.cpp:425] inception_5b/output <- inception_5b/pool_proj
I0403 15:00:14.903553 30857 net.cpp:399] inception_5b/output -> inception_5b/output
I0403 15:00:14.903605 30857 net.cpp:141] Setting up inception_5b/output
I0403 15:00:14.903631 30857 net.cpp:148] Top shape: 24 1024 7 7 (1204224)
I0403 15:00:14.903647 30857 net.cpp:156] Memory required for data: 1345864224
I0403 15:00:14.903662 30857 layer_factory.hpp:77] Creating layer pool5/7x7_s1
I0403 15:00:14.903678 30857 net.cpp:91] Creating Layer pool5/7x7_s1
I0403 15:00:14.903694 30857 net.cpp:425] pool5/7x7_s1 <- inception_5b/output
I0403 15:00:14.903713 30857 net.cpp:399] pool5/7x7_s1 -> pool5/7x7_s1
I0403 15:00:14.903928 30857 net.cpp:141] Setting up pool5/7x7_s1
I0403 15:00:14.903954 30857 net.cpp:148] Top shape: 24 1024 1 1 (24576)
I0403 15:00:14.903967 30857 net.cpp:156] Memory required for data: 1345962528
I0403 15:00:14.903982 30857 layer_factory.hpp:77] Creating layer pool5/drop_7x7_s1
I0403 15:00:14.904001 30857 net.cpp:91] Creating Layer pool5/drop_7x7_s1
I0403 15:00:14.904018 30857 net.cpp:425] pool5/drop_7x7_s1 <- pool5/7x7_s1
I0403 15:00:14.904036 30857 net.cpp:386] pool5/drop_7x7_s1 -> pool5/7x7_s1 (in-place)
I0403 15:00:14.904086 30857 net.cpp:141] Setting up pool5/drop_7x7_s1
I0403 15:00:14.904109 30857 net.cpp:148] Top shape: 24 1024 1 1 (24576)
I0403 15:00:14.904124 30857 net.cpp:156] Memory required for data: 1346060832
I0403 15:00:14.904137 30857 layer_factory.hpp:77] Creating layer loss3/classifier_plantvillage
I0403 15:00:14.904155 30857 net.cpp:91] Creating Layer loss3/classifier_plantvillage
I0403 15:00:14.904173 30857 net.cpp:425] loss3/classifier_plantvillage <- pool5/7x7_s1
I0403 15:00:14.904191 30857 net.cpp:399] loss3/classifier_plantvillage -> loss3/classifier_plantvillage
I0403 15:00:14.904610 30857 net.cpp:141] Setting up loss3/classifier_plantvillage
I0403 15:00:14.904634 30857 net.cpp:148] Top shape: 24 38 (912)
I0403 15:00:14.904649 30857 net.cpp:156] Memory required for data: 1346064480
I0403 15:00:14.904666 30857 layer_factory.hpp:77] Creating layer loss3/classifier_plantvillage_loss3/classifier_plantvillage_0_split
I0403 15:00:14.904685 30857 net.cpp:91] Creating Layer loss3/classifier_plantvillage_loss3/classifier_plantvillage_0_split
I0403 15:00:14.904700 30857 net.cpp:425] loss3/classifier_plantvillage_loss3/classifier_plantvillage_0_split <- loss3/classifier_plantvillage
I0403 15:00:14.904721 30857 net.cpp:399] loss3/classifier_plantvillage_loss3/classifier_plantvillage_0_split -> loss3/classifier_plantvillage_loss3/classifier_plantvillage_0_split_0
I0403 15:00:14.904742 30857 net.cpp:399] loss3/classifier_plantvillage_loss3/classifier_plantvillage_0_split -> loss3/classifier_plantvillage_loss3/classifier_plantvillage_0_split_1
I0403 15:00:14.904762 30857 net.cpp:399] loss3/classifier_plantvillage_loss3/classifier_plantvillage_0_split -> loss3/classifier_plantvillage_loss3/classifier_plantvillage_0_split_2
I0403 15:00:14.904780 30857 net.cpp:399] loss3/classifier_plantvillage_loss3/classifier_plantvillage_0_split -> loss3/classifier_plantvillage_loss3/classifier_plantvillage_0_split_3
I0403 15:00:14.904878 30857 net.cpp:141] Setting up loss3/classifier_plantvillage_loss3/classifier_plantvillage_0_split
I0403 15:00:14.904901 30857 net.cpp:148] Top shape: 24 38 (912)
I0403 15:00:14.904917 30857 net.cpp:148] Top shape: 24 38 (912)
I0403 15:00:14.904932 30857 net.cpp:148] Top shape: 24 38 (912)
I0403 15:00:14.904947 30857 net.cpp:148] Top shape: 24 38 (912)
I0403 15:00:14.904960 30857 net.cpp:156] Memory required for data: 1346079072
I0403 15:00:14.904979 30857 layer_factory.hpp:77] Creating layer loss1/loss
I0403 15:00:14.905009 30857 net.cpp:91] Creating Layer loss1/loss
I0403 15:00:14.905027 30857 net.cpp:425] loss1/loss <- loss1/classifier_plantvillage_loss1/classifier_plantvillage_0_split_0
I0403 15:00:14.905057 30857 net.cpp:425] loss1/loss <- label_data_1_split_0
…
