…
I0403 15:19:57.309723 31484 net.cpp:313] The NetState phase (1) differed from the phase (0) specified by a rule in layer data
I0403 15:19:57.310902 31484 net.cpp:49] Initializing net from parameters: 
state {
  phase: TEST
}
layer {
  name: "data"
  type: "Data"
  top: "data"
  top: "label"
  include {
    phase: TEST
  }
  transform_param {
    mirror: false
    crop_size: 224
    mean_file: "/home/mohanty/data/final_dataset/lmdb/grayscale-80-20/mean.binaryproto"
  }
  data_param {
    source: "/home/mohanty/data/final_dataset/lmdb/grayscale-80-20/test_db"
    batch_size: 24
    backend: LMDB
  }
}
layer {
  name: "conv1/7x7_s2"
  type: "Convolution"
  bottom: "data"
  top: "conv1/7x7_s2"
  param {
    lr_mult: 1
    decay_mult: 1
  }
  param {
    lr_mult: 2
    decay_mult: 0
  }
  convolution_param {
    num_output: 64
    pad: 3
    kernel_size: 7
    stride: 2
    weight_filler {
      type: "xavier"
      std: 0.1
    }
    bias_filler {
      type: "constant"
      value: 0.2
    }
  }
}
layer {
  name: "conv1/relu_7x7"
  type: "ReLU"
  bottom: "conv1/7x7_s2"
  top: "conv1/7x7_s2"
}
layer {
  name: "pool1/3x3_s2"
  type: "Pooling"
  bottom: "conv1/7x7_s2"
  top: "pool1/3x3_s2"
  pooling_param {
    pool: MAX
    kernel_size: 3
    stride: 2
  }
}
layer {
  name: "pool1/norm1"
  type: "LRN"
  bottom: "pool1/3x3_s2"
  top: "pool1/norm1"
  lrn_param {
    local_size: 5
    alpha: 0.0001
    beta: 0.75
  }
}
layer {
  name: "conv2/3x3_reduce"
  type: "Convolution"
  bottom: "pool1/norm1"
  top: "conv2/3x3_reduce"
  param {
    lr_mult: 1
    decay_mult: 1
  }
  param {
    lr_mult: 2
    decay_mult: 0
  }
  convolution_param {
    num_output: 64
    kernel_size: 1
    weight_filler {
      type: "xavier"
      std: 0.1
    }
    bias_filler {
      type: "constant"
      value: 0.2
    }
  }
}
layer {
  name: "conv2/relu_3x3_reduce"
  type: "ReLU"
  bottom: "conv2/3x3_reduce"
  top: "conv2/3x3_reduce"
}
layer {
  name: "conv2/3x3"
  type: "Convolution"
  bottom: "conv2/3x3_reduce"
  top: "conv2/3x3"
  param {
    lr_mult: 1
    decay_mult: 1
  }
  param {
    lr_mult: 2
    decay_mult: 0
  }
  convolution_param {
    num_output: 192
    pad: 1
    kernel_size: 3
    weight_filler {
      type: "xavier"
      std: 0.03
    }
    bias_filler {
      type: "constant"
      value: 0.2
    }
  }
}
layer {
  name: "conv2/relu_3x3"
  type: "ReLU"
  bottom: "conv2/3x3"
  top: "conv2/3x3"
}
layer {
  name: "conv2/norm2"
  type: "LRN"
  bottom: "conv2/3x3"
  top: "conv2/norm2"
  lrn_param {
    local_size: 5
    alpha: 0.0001
    beta: 0.75
  }
}
layer {
  name: "pool2/3x3_s2"
  type: "Pooling"
  bottom: "conv2/norm2"
  top: "pool2/3x3_s2"
  pooling_param {
    pool: MAX
    kernel_size: 3
    stride: 2
  }
}
layer {
  name: "inception_3a/1x1"
  type: "Convolution"
  bottom: "pool2/3x3_s2"
  top: "inception_3a/1x1"
  param {
    lr_mult: 1
    decay_mult: 1
  }
  param {
    lr_mult: 2
    decay_mult: 0
  }
  convolution_param {
    num_output: 64
    kernel_size: 1
    weight_filler {
      type: "xavier"
      std: 0.03
    }
    bias_filler {
      type: "constant"
      value: 0.2
    }
  }
}
layer {
  name: "inception_3a/relu_1x1"
  type: "ReLU"
  bottom: "inception_3a/1x1"
  top: "inception_3a/1x1"
}
layer {
  name: "inception_3a/3x3_reduce"
  type: "Convolution"
  bottom: "pool2/3x3_s2"
  top: "inception_3a/3x3_reduce"
  param {
    lr_mult: 1
    decay_mult: 1
  }
  param {
    lr_mult: 2
    decay_mult: 0
  }
  convolution_param {
    num_output: 96
    kernel_size: 1
    weight_filler {
      type: "xavier"
      std: 0.09
    }
    bias_filler {
      type: "constant"
      value: 0.2
    }
  }
}
layer {
  name: "inception_3a/relu_3x3_reduce"
  type: "ReLU"
  bottom: "inception_3a/3x3_reduce"
  top: "inception_3a/3x3_reduce"
}
layer {
  name: "inception_3a/3x3"
  type: "Convolution"
  bottom: "inception_3a/3x3_reduce"
  top: "inception_3a/3x3"
  param {
    lr_mult: 1
    decay_mult: 1
  }
  param {
    lr_mult: 2
    decay_mult: 0
  }
  convolution_param {
    num_output: 128
    pad: 1
    kernel_size: 3
    weight_filler {
      type: "xavier"
      std: 0.03
    }
    bias_filler {
      type: "constant"
      value: 0.2
    }
  }
}
layer {
  name: "inception_3a/relu_3x3"
  type: "ReLU"
  bottom: "inception_3a/3x3"
  top: "inception_3a/3x3"
}
layer {
  name: "inception_3a/5x5_reduce"
  type: "Convolution"
  bottom: "pool2/3x3_s2"
  top: "inception_3a/5x5_reduce"
  param {
    lr_mult: 1
    decay_mult: 1
  }
  param {
    lr_mult: 2
    decay_mult: 0
  }
  convolution_param {
    num_output: 16
    kernel_size: 1
    weight_filler {
      type: "xavier"
      std: 0.2
    }
    bias_filler {
      type: "constant"
      value: 0.2
    }
  }
}
layer {
  name: "inception_3a/relu_5x5_reduce"
  type: "ReLU"
  bottom: "inception_3a/5x5_reduce"
  top: "inception_3a/5x5_reduce"
}
layer {
  name: "inception_3a/5x5"
  type: "Convolution"
  bottom: "inception_3a/5x5_reduce"
  top: "inception_3a/5x5"
  param {
    lr_mult: 1
    decay_mult: 1
  }
  param {
    lr_mult: 2
    decay_mult: 0
  }
  convolution_param {
    num_output: 32
    pad: 2
    kernel_size: 5
    weight_filler {
      type: "xavier"
      std: 0.03
    }
    bias_filler {
      type: "constant"
      value: 0.2
    }
  }
}
layer {
  name: "inception_3a/relu_5x5"
  type: "ReLU"
  bottom: "inception_3a/5x5"
  top: "inception_3a/5x5"
}
layer {
  name: "inception_3a/pool"
  type: "Pooling"
  bottom: "pool2/3x3_s2"
  top: "inception_3a/pool"
  pooling_param {
    pool: MAX
    kernel_size: 3
    stride: 1
    pad: 1
  }
}
layer {
  name: "inception_3a/pool_proj"
  type: "Convolution"
  bottom: "inception_3a/pool"
  top: "inception_3a/pool_proj"
  param {
    lr_mult: 1
    decay_mult: 1
  }
  param {
    lr_mult: 2
    decay_mult: 0
  }
  convolution_param {
    num_output: 32
    kernel_size: 1
    weight_filler {
      type: "xavier"
      std: 0.1
    }
    bias_filler {
      type: "constant"
      value: 0.2
    }
  }
}
layer {
  name: "inception_3a/relu_pool_proj"
  type: "ReLU"
  bottom: "inception_3a/pool_proj"
  top: "inception_3a/pool_proj"
}
layer {
  name: "inception_3a/output"
  type: "Concat"
  bottom: "inception_3a/1x1"
  bottom: "inception_3a/3x3"
  bottom: "inception_3a/5x5"
  bottom: "inception_3a/pool_proj"
  top: "inception_3a/output"
}
layer {
  name: "inception_3b/1x1"
  type: "Convolution"
  bottom: "inception_3a/output"
  top: "inception_3b/1x1"
  param {
    lr_mult: 1
    decay_mult: 1
  }
  param {
    lr_mult: 2
    decay_mult: 0
  }
  convolution_param {
    num_output: 128
    kernel_size: 1
    weight_filler {
      type: "xavier"
      std: 0.03
    }
    bias_filler {
      type: "constant"
      value: 0.2
    }
  }
}
layer {
  name: "inception_3b/relu_1x1"
  type: "ReLU"
  bottom: "inception_3b/1x1"
  top: "inception_3b/1x1"
}
layer {
  name: "inception_3b/3x3_reduce"
  type: "Convolution"
  bottom: "inception_3a/output"
  top: "inception_3b/3x3_reduce"
  param {
    lr_mult: 1
    decay_mult: 1
  }
  param {
    lr_mult: 2
    decay_mult: 0
  }
  convolution_param {
    num_output: 128
    kernel_size: 1
    weight_filler {
      type: "xavier"
      std: 0.09
    }
    bias_filler {
      type: "constant"
      value: 0.2
    }
  }
}
layer {
  name: "inception_3b/relu_3x3_reduce"
  type: "ReLU"
  bottom: "inception_3b/3x3_reduce"
  top: "inception_3b/3x3_reduce"
}
layer {
  name: "inception_3b/3x3"
  type: "Convolution"
  bottom: "inception_3b/3x3_reduce"
  top: "inception_3b/3x3"
  param {
    lr_mult: 1
    decay_mult: 1
  }
  param {
    lr_mult: 2
    decay_mult: 0
  }
  convolution_param {
    num_output: 192
    pad: 1
    kernel_size: 3
    weight_filler {
      type: "xavier"
      std: 0.03
    }
    bias_filler {
      type: "constant"
      value: 0.2
    }
  }
}
layer {
  name: "inception_3b/relu_3x3"
  type: "ReLU"
  bottom: "inception_3b/3x3"
  top: "inception_3b/3x3"
}
layer {
  name: "inception_3b/5x5_reduce"
  type: "Convolution"
  bottom: "inception_3a/output"
  top: "inception_3b/5x5_reduce"
  param {
    lr_mult: 1
    decay_mult: 1
  }
  param {
    lr_mult: 2
    decay_mult: 0
  }
  convolution_param {
    num_output: 32
    kernel_size: 1
    weight_filler {
      type: "xavier"
      std: 0.2
    }
    bias_filler {
      type: "constant"
      value: 0.2
    }
  }
}
layer {
  name: "inception_3b/relu_5x5_reduce"
  type: "ReLU"
  bottom: "inception_3b/5x5_reduce"
  top: "inception_3b/5x5_reduce"
}
layer {
  name: "inception_3b/5x5"
  type: "Convolution"
  bottom: "inception_3b/5x5_reduce"
  top: "inception_3b/5x5"
  param {
    lr_mult: 1
    decay_mult: 1
  }
  param {
    lr_mult: 2
    decay_mult: 0
  }
  convolution_param {
    num_output: 96
    pad: 2
    kernel_size: 5
    weight_filler {
      type: "xavier"
      std: 0.03
    }
    bias_filler {
      type: "constant"
      value: 0.2
    }
  }
}
layer {
  name: "inception_3b/relu_5x5"
  type: "ReLU"
  bottom: "inception_3b/5x5"
  top: "inception_3b/5x5"
}
layer {
  name: "inception_3b/pool"
  type: "Pooling"
  bottom: "inception_3a/output"
  top: "inception_3b/pool"
  pooling_param {
    pool: MAX
    kernel_size: 3
    stride: 1
    pad: 1
  }
}
layer {
  name: "inception_3b/pool_proj"
  type: "Convolution"
  bottom: "inception_3b/pool"
  top: "inception_3b/pool_proj"
  param {
    lr_mult: 1
    decay_mult: 1
  }
  param {
    lr_mult: 2
    decay_mult: 0
  }
  convolution_param {
    num_output: 64
    kernel_size: 1
    weight_filler {
      type: "xavier"
      std: 0.1
    }
    bias_filler {
      type: "constant"
      value: 0.2
    }
  }
}
layer {
  name: "inception_3b/relu_pool_proj"
  type: "ReLU"
  bottom: "inception_3b/pool_proj"
  top: "inception_3b/pool_proj"
}
layer {
  name: "inception_3b/output"
  type: "Concat"
  bottom: "inception_3b/1x1"
  bottom: "inception_3b/3x3"
  bottom: "inception_3b/5x5"
  bottom: "inception_3b/pool_proj"
  top: "inception_3b/output"
}
layer {
  name: "pool3/3x3_s2"
  type: "Pooling"
  bottom: "inception_3b/output"
  top: "pool3/3x3_s2"
  pooling_param {
    pool: MAX
    kernel_size: 3
    stride: 2
  }
}
layer {
  name: "inception_4a/1x1"
  type: "Convolution"
  bottom: "pool3/3x3_s2"
  top: "inception_4a/1x1"
  param {
    lr_mult: 1
    decay_mult: 1
  }
  param {
    lr_mult: 2
    decay_mult: 0
  }
  convolution_param {
    num_output: 192
    kernel_size: 1
    weight_filler {
      type: "xavier"
      std: 0.03
    }
    bias_filler {
      type: "constant"
      value: 0.2
    }
  }
}
layer {
  name: "inception_4a/relu_1x1"
  type: "ReLU"
  bottom: "inception_4a/1x1"
  top: "inception_4a/1x1"
}
layer {
  name: "inception_4a/3x3_reduce"
  type: "Convolution"
  bottom: "pool3/3x3_s2"
  top: "inception_4a/3x3_reduce"
  param {
    lr_mult: 1
    decay_mult: 1
  }
  param {
    lr_mult: 2
    decay_mult: 0
  }
  convolution_param {
    num_output: 96
    kernel_size: 1
    weight_filler {
      type: "xavier"
      std: 0.09
    }
    bias_filler {
      type: "constant"
      value: 0.2
    }
  }
}
layer {
  name: "inception_4a/relu_3x3_reduce"
  type: "ReLU"
  bottom: "inception_4a/3x3_reduce"
  top: "inception_4a/3x3_reduce"
}
layer {
  name: "inception_4a/3x3"
  type: "Convolution"
  bottom: "inception_4a/3x3_reduce"
  top: "inception_4a/3x3"
  param {
    lr_mult: 1
    decay_mult: 1
  }
  param {
    lr_mult: 2
    decay_mult: 0
  }
  convolution_param {
    num_output: 208
    pad: 1
    kernel_size: 3
    weight_filler {
      type: "xavier"
      std: 0.03
    }
    bias_filler {
      type: "constant"
      value: 0.2
    }
  }
}
layer {
  name: "inception_4a/relu_3x3"
  type: "ReLU"
  bottom: "inception_4a/3x3"
  top: "inception_4a/3x3"
}
layer {
  name: "inception_4a/5x5_reduce"
  type: "Convolution"
  bottom: "pool3/3x3_s2"
  top: "inception_4a/5x5_reduce"
  param {
    lr_mult: 1
    decay_mult: 1
  }
  param {
    lr_mult: 2
    decay_mult: 0
  }
  convolution_param {
    num_output: 16
    kernel_size: 1
    weight_filler {
      type: "xavier"
      std: 0.2
    }
    bias_filler {
      type: "constant"
      value: 0.2
    }
  }
}
layer {
  name: "inception_4a/relu_5x5_reduce"
  type: "ReLU"
  bottom: "inception_4a/5x5_reduce"
  top: "inception_4a/5x5_reduce"
}
layer {
  name: "inception_4a/5x5"
  type: "Convolution"
  bottom: "inception_4a/5x5_reduce"
  top: "inception_4a/5x5"
  param {
    lr_mult: 1
    decay_mult: 1
  }
  param {
    lr_mult: 2
    decay_mult: 0
  }
  convolution_param {
    num_output: 48
    pad: 2
    kernel_size: 5
    weight_filler {
      type: "xavier"
      std: 0.03
    }
    bias_filler {
      type: "constant"
      value: 0.2
    }
  }
}
layer {
  name: "inception_4a/relu_5x5"
  type: "ReLU"
  bottom: "inception_4a/5x5"
  top: "inception_4a/5x5"
}
layer {
  name: "inception_4a/pool"
  type: "Pooling"
  bottom: "pool3/3x3_s2"
  top: "inception_4a/pool"
  pooling_param {
    pool: MAX
    kernel_size: 3
    stride: 1
    pad: 1
  }
}
layer {
  name: "inception_4a/pool_proj"
  type: "Convolution"
  bottom: "inception_4a/pool"
  top: "inception_4a/pool_proj"
  param {
    lr_mult: 1
    decay_mult: 1
  }
  param {
    lr_mult: 2
    decay_mult: 0
  }
  convolution_param {
    num_output: 64
    kernel_size: 1
    weight_filler {
      type: "xavier"
      std: 0.1
    }
    bias_filler {
      type: "constant"
      value: 0.2
    }
  }
}
layer {
  name: "inception_4a/relu_pool_proj"
  type: "ReLU"
  bottom: "inception_4a/pool_proj"
  top: "inception_4a/pool_proj"
}
layer {
  name: "inception_4a/output"
  type: "Concat"
  bottom: "inception_4a/1x1"
  bottom: "inception_4a/3x3"
  bottom: "inception_4a/5x5"
  bottom: "inception_4a/pool_proj"
  top: "inception_4a/output"
}
layer {
  name: "loss1/ave_pool"
  type: "Pooling"
  bottom: "inception_4a/output"
  top: "loss1/ave_pool"
  pooling_param {
    pool: AVE
    kernel_size: 5
    stride: 3
  }
}
layer {
  name: "loss1/conv"
  type: "Convolution"
  bottom: "loss1/ave_pool"
  top: "loss1/conv"
  param {
    lr_mult: 1
    decay_mult: 1
  }
  param {
    lr_mult: 2
    decay_mult: 0
  }
  convolution_param {
    num_output: 128
    kernel_size: 1
    weight_filler {
      type: "xavier"
      std: 0.08
    }
    bias_filler {
      type: "constant"
      value: 0.2
    }
  }
}
layer {
  name: "loss1/relu_conv"
  type: "ReLU"
  bottom: "loss1/conv"
  top: "loss1/conv"
}
layer {
  name: "loss1/fc"
  type: "InnerProduct"
  bottom: "loss1/conv"
  top: "loss1/fc"
  param {
    lr_mult: 1
    decay_mult: 1
  }
  param {
    lr_mult: 2
    decay_mult: 0
  }
  inner_product_param {
    num_output: 1024
    weight_filler {
      type: "xavier"
      std: 0.02
    }
    bias_filler {
      type: "constant"
      value: 0.2
    }
  }
}
layer {
  name: "loss1/relu_fc"
  type: "ReLU"
  bottom: "loss1/fc"
  top: "loss1/fc"
}
layer {
  name: "loss1/drop_fc"
  type: "Dropout"
  bottom: "loss1/fc"
  top: "loss1/fc"
  dropout_param {
    dropout_ratio: 0.7
  }
}
layer {
  name: "loss1/classifier_plantvillage"
  type: "InnerProduct"
  bottom: "loss1/fc"
  top: "loss1/classifier_plantvillage"
  param {
    lr_mult: 1
    decay_mult: 1
  }
  param {
    lr_mult: 2
    decay_mult: 0
  }
  inner_product_param {
    num_output: 38
    weight_filler {
      type: "xavier"
      std: 0.0009765625
    }
    bias_filler {
      type: "constant"
      value: 0
    }
  }
}
layer {
  name: "inception_4b/1x1"
  type: "Convolution"
  bottom: "inception_4a/output"
  top: "inception_4b/1x1"
  param {
    lr_mult: 1
    decay_mult: 1
  }
  param {
    lr_mult: 2
    decay_mult: 0
  }
  convolution_param {
    num_output: 160
    kernel_size: 1
    weight_filler {
      type: "xavier"
      std: 0.03
    }
    bias_filler {
      type: "constant"
      value: 0.2
    }
  }
}
layer {
  name: "inception_4b/relu_1x1"
  type: "ReLU"
  bottom: "inception_4b/1x1"
  top: "inception_4b/1x1"
}
layer {
  name: "inception_4b/3x3_reduce"
  type: "Convolution"
  bottom: "inception_4a/output"
  top: "inception_4b/3x3_reduce"
  param {
    lr_mult: 1
    decay_mult: 1
  }
  param {
    lr_mult: 2
    decay_mult: 0
  }
  convolution_param {
    num_output: 112
    kernel_size: 1
    weight_filler {
      type: "xavier"
      std: 0.09
    }
    bias_filler {
      type: "constant"
      value: 0.2
    }
  }
}
layer {
  name: "inception_4b/relu_3x3_reduce"
  type: "ReLU"
  bottom: "inception_4b/3x3_reduce"
  top: "inception_4b/3x3_reduce"
}
layer {
  name: "inception_4b/3x3"
  type: "Convolution"
  bottom: "inception_4b/3x3_reduce"
  top: "inception_4b/3x3"
  param {
    lr_mult: 1
    decay_mult: 1
  }
  param {
    lr_mult: 2
    decay_mult: 0
  }
  convolution_param {
    num_output: 224
    pad: 1
    kernel_size: 3
    weight_filler {
      type: "xavier"
      std: 0.03
    }
    bias_filler {
      type: "constant"
      value: 0.2
    }
  }
}
layer {
  name: "inception_4b/relu_3x3"
  type: "ReLU"
  bottom: "inception_4b/3x3"
  top: "inception_4b/3x3"
}
layer {
  name: "inception_4b/5x5_reduce"
  type: "Convolution"
  bottom: "inception_4a/output"
  top: "inception_4b/5x5_reduce"
  param {
    lr_mult: 1
    decay_mult: 1
  }
  param {
    lr_mult: 2
    decay_mult: 0
  }
  convolution_param {
    num_output: 24
    kernel_size: 1
    weight_filler {
      type: "xavier"
      std: 0.2
    }
    bias_filler {
      type: "constant"
      value: 0.2
    }
  }
}
layer {
  name: "inception_4b/relu_5x5_reduce"
  type: "ReLU"
  bottom: "inception_4b/5x5_reduce"
  top: "inception_4b/5x5_reduce"
}
layer {
  name: "inception_4b/5x5"
  type: "Convolution"
  bottom: "inception_4b/5x5_reduce"
  top: "inception_4b/5x5"
  param {
    lr_mult: 1
    decay_mult: 1
  }
  param {
    lr_mult: 2
    decay_mult: 0
  }
  convolution_param {
    num_output: 64
    pad: 2
    kernel_size: 5
    weight_filler {
      type: "xavier"
      std: 0.03
    }
    bias_filler {
      type: "constant"
      value: 0.2
    }
  }
}
layer {
  name: "inception_4b/relu_5x5"
  type: "ReLU"
  bottom: "inception_4b/5x5"
  top: "inception_4b/5x5"
}
layer {
  name: "inception_4b/pool"
  type: "Pooling"
  bottom: "inception_4a/output"
  top: "inception_4b/pool"
  pooling_param {
    pool: MAX
    kernel_size: 3
    stride: 1
    pad: 1
  }
}
layer {
  name: "inception_4b/pool_proj"
  type: "Convolution"
  bottom: "inception_4b/pool"
  top: "inception_4b/pool_proj"
  param {
    lr_mult: 1
    decay_mult: 1
  }
  param {
    lr_mult: 2
    decay_mult: 0
  }
  convolution_param {
    num_output: 64
    kernel_size: 1
    weight_filler {
      type: "xavier"
      std: 0.1
    }
    bias_filler {
      type: "constant"
      value: 0.2
    }
  }
}
layer {
  name: "inception_4b/relu_pool_proj"
  type: "ReLU"
  bottom: "inception_4b/pool_proj"
  top: "inception_4b/pool_proj"
}
layer {
  name: "inception_4b/output"
  type: "Concat"
  bottom: "inception_4b/1x1"
  bottom: "inception_4b/3x3"
  bottom: "inception_4b/5x5"
  bottom: "inception_4b/pool_proj"
  top: "inception_4b/output"
}
layer {
  name: "inception_4c/1x1"
  type: "Convolution"
  bottom: "inception_4b/output"
  top: "inception_4c/1x1"
  param {
    lr_mult: 1
    decay_mult: 1
  }
  param {
    lr_mult: 2
    decay_mult: 0
  }
  convolution_param {
    num_output: 128
    kernel_size: 1
    weight_filler {
      type: "xavier"
      std: 0.03
    }
    bias_filler {
      type: "constant"
      value: 0.2
    }
  }
}
layer {
  name: "inception_4c/relu_1x1"
  type: "ReLU"
  bottom: "inception_4c/1x1"
  top: "inception_4c/1x1"
}
layer {
  name: "inception_4c/3x3_reduce"
  type: "Convolution"
  bottom: "inception_4b/output"
  top: "inception_4c/3x3_reduce"
  param {
    lr_mult: 1
    decay_mult: 1
  }
  param {
    lr_mult: 2
    decay_mult: 0
  }
  convolution_param {
    num_output: 128
    kernel_size: 1
    weight_filler {
      type: "xavier"
      std: 0.09
    }
    bias_filler {
      type: "constant"
      value: 0.2
    }
  }
}
layer {
  name: "inception_4c/relu_3x3_reduce"
  type: "ReLU"
  bottom: "inception_4c/3x3_reduce"
  top: "inception_4c/3x3_reduce"
}
layer {
  name: "inception_4c/3x3"
  type: "Convolution"
  bottom: "inception_4c/3x3_reduce"
  top: "inception_4c/3x3"
  param {
    lr_mult: 1
    decay_mult: 1
  }
  param {
    lr_mult: 2
    decay_mult: 0
  }
  convolution_param {
    num_output: 256
    pad: 1
    kernel_size: 3
    weight_filler {
      type: "xavier"
      std: 0.03
    }
    bias_filler {
      type: "constant"
      value: 0.2
    }
  }
}
layer {
  name: "inception_4c/relu_3x3"
  type: "ReLU"
  bottom: "inception_4c/3x3"
  top: "inception_4c/3x3"
}
layer {
  name: "inception_4c/5x5_reduce"
  type: "Convolution"
  bottom: "inception_4b/output"
  top: "inception_4c/5x5_reduce"
  param {
    lr_mult: 1
    decay_mult: 1
  }
  param {
    lr_mult: 2
    decay_mult: 0
  }
  convolution_param {
    num_output: 24
    kernel_size: 1
    weight_filler {
      type: "xavier"
      std: 0.2
    }
    bias_filler {
      type: "constant"
      value: 0.2
    }
  }
}
layer {
  name: "inception_4c/relu_5x5_reduce"
  type: "ReLU"
  bottom: "inception_4c/5x5_reduce"
  top: "inception_4c/5x5_reduce"
}
layer {
  name: "inception_4c/5x5"
  type: "Convolution"
  bottom: "inception_4c/5x5_reduce"
  top: "inception_4c/5x5"
  param {
    lr_mult: 1
    decay_mult: 1
  }
  param {
    lr_mult: 2
    decay_mult: 0
  }
  convolution_param {
    num_output: 64
    pad: 2
    kernel_size: 5
    weight_filler {
      type: "xavier"
      std: 0.03
    }
    bias_filler {
      type: "constant"
      value: 0.2
    }
  }
}
layer {
  name: "inception_4c/relu_5x5"
  type: "ReLU"
  bottom: "inception_4c/5x5"
  top: "inception_4c/5x5"
}
layer {
  name: "inception_4c/pool"
  type: "Pooling"
  bottom: "inception_4b/output"
  top: "inception_4c/pool"
  pooling_param {
    pool: MAX
    kernel_size: 3
    stride: 1
    pad: 1
  }
}
layer {
  name: "inception_4c/pool_proj"
  type: "Convolution"
  bottom: "inception_4c/pool"
  top: "inception_4c/pool_proj"
  param {
    lr_mult: 1
    decay_mult: 1
  }
  param {
    lr_mult: 2
    decay_mult: 0
  }
  convolution_param {
    num_output: 64
    kernel_size: 1
    weight_filler {
      type: "xavier"
      std: 0.1
    }
    bias_filler {
      type: "constant"
      value: 0.2
    }
  }
}
layer {
  name: "inception_4c/relu_pool_proj"
  type: "ReLU"
  bottom: "inception_4c/pool_proj"
  top: "inception_4c/pool_proj"
}
layer {
  name: "inception_4c/output"
  type: "Concat"
  bottom: "inception_4c/1x1"
  bottom: "inception_4c/3x3"
  bottom: "inception_4c/5x5"
  bottom: "inception_4c/pool_proj"
  top: "inception_4c/output"
}
layer {
  name: "inception_4d/1x1"
  type: "Convolution"
  bottom: "inception_4c/output"
  top: "inception_4d/1x1"
  param {
    lr_mult: 1
    decay_mult: 1
  }
  param {
    lr_mult: 2
    decay_mult: 0
  }
  convolution_param {
    num_output: 112
    kernel_size: 1
    weight_filler {
      type: "xavier"
      std: 0.03
    }
    bias_filler {
      type: "constant"
      value: 0.2
    }
  }
}
layer {
  name: "inception_4d/relu_1x1"
  type: "ReLU"
  bottom: "inception_4d/1x1"
  top: "inception_4d/1x1"
}
layer {
  name: "inception_4d/3x3_reduce"
  type: "Convolution"
  bottom: "inception_4c/output"
  top: "inception_4d/3x3_reduce"
  param {
    lr_mult: 1
    decay_mult: 1
  }
  param {
    lr_mult: 2
    decay_mult: 0
  }
  convolution_param {
    num_output: 144
    kernel_size: 1
    weight_filler {
      type: "xavier"
      std: 0.09
    }
    bias_filler {
      type: "constant"
      value: 0.2
    }
  }
}
layer {
  name: "inception_4d/relu_3x3_reduce"
  type: "ReLU"
  bottom: "inception_4d/3x3_reduce"
  top: "inception_4d/3x3_reduce"
}
layer {
  name: "inception_4d/3x3"
  type: "Convolution"
  bottom: "inception_4d/3x3_reduce"
  top: "inception_4d/3x3"
  param {
    lr_mult: 1
    decay_mult: 1
  }
  param {
    lr_mult: 2
    decay_mult: 0
  }
  convolution_param {
    num_output: 288
    pad: 1
    kernel_size: 3
    weight_filler {
      type: "xavier"
      std: 0.03
    }
    bias_filler {
      type: "constant"
      value: 0.2
    }
  }
}
layer {
  name: "inception_4d/relu_3x3"
  type: "ReLU"
  bottom: "inception_4d/3x3"
  top: "inception_4d/3x3"
}
layer {
  name: "inception_4d/5x5_reduce"
  type: "Convolution"
  bottom: "inception_4c/output"
  top: "inception_4d/5x5_reduce"
  param {
    lr_mult: 1
    decay_mult: 1
  }
  param {
    lr_mult: 2
    decay_mult: 0
  }
  convolution_param {
    num_output: 32
    kernel_size: 1
    weight_filler {
      type: "xavier"
      std: 0.2
    }
    bias_filler {
      type: "constant"
      value: 0.2
    }
  }
}
layer {
  name: "inception_4d/relu_5x5_reduce"
  type: "ReLU"
  bottom: "inception_4d/5x5_reduce"
  top: "inception_4d/5x5_reduce"
}
layer {
  name: "inception_4d/5x5"
  type: "Convolution"
  bottom: "inception_4d/5x5_reduce"
  top: "inception_4d/5x5"
  param {
    lr_mult: 1
    decay_mult: 1
  }
  param {
    lr_mult: 2
    decay_mult: 0
  }
  convolution_param {
    num_output: 64
    pad: 2
    kernel_size: 5
    weight_filler {
      type: "xavier"
      std: 0.03
    }
    bias_filler {
      type: "constant"
      value: 0.2
    }
  }
}
layer {
  name: "inception_4d/relu_5x5"
  type: "ReLU"
  bottom: "inception_4d/5x5"
  top: "inception_4d/5x5"
}
layer {
  name: "inception_4d/pool"
  type: "Pooling"
  bottom: "inception_4c/output"
  top: "inception_4d/pool"
  pooling_param {
    pool: MAX
    kernel_size: 3
    stride: 1
    pad: 1
  }
}
layer {
  name: "inception_4d/pool_proj"
  type: "Convolution"
  bottom: "inception_4d/pool"
  top: "inception_4d/pool_proj"
  param {
    lr_mult: 1
    decay_mult: 1
  }
  param {
    lr_mult: 2
    decay_mult: 0
  }
  convolution_param {
    num_output: 64
    kernel_size: 1
    weight_filler {
      type: "xavier"
      std: 0.1
    }
    bias_filler {
      type: "constant"
      value: 0.2
    }
  }
}
layer {
  name: "inception_4d/relu_pool_proj"
  type: "ReLU"
  bottom: "inception_4d/pool_proj"
  top: "inception_4d/pool_proj"
}
layer {
  name: "inception_4d/output"
  type: "Concat"
  bottom: "inception_4d/1x1"
  bottom: "inception_4d/3x3"
  bottom: "inception_4d/5x5"
  bottom: "inception_4d/pool_proj"
  top: "inception_4d/output"
}
layer {
  name: "loss2/ave_pool"
  type: "Pooling"
  bottom: "inception_4d/output"
  top: "loss2/ave_pool"
  pooling_param {
    pool: AVE
    kernel_size: 5
    stride: 3
  }
}
layer {
  name: "loss2/conv"
  type: "Convolution"
  bottom: "loss2/ave_pool"
  top: "loss2/conv"
  param {
    lr_mult: 1
    decay_mult: 1
  }
  param {
    lr_mult: 2
    decay_mult: 0
  }
  convolution_param {
    num_output: 128
    kernel_size: 1
    weight_filler {
      type: "xavier"
      std: 0.08
    }
    bias_filler {
      type: "constant"
      value: 0.2
    }
  }
}
layer {
  name: "loss2/relu_conv"
  type: "ReLU"
  bottom: "loss2/conv"
  top: "loss2/conv"
}
layer {
  name: "loss2/fc"
  type: "InnerProduct"
  bottom: "loss2/conv"
  top: "loss2/fc"
  param {
    lr_mult: 1
    decay_mult: 1
  }
  param {
    lr_mult: 2
    decay_mult: 0
  }
  inner_product_param {
    num_output: 1024
    weight_filler {
      type: "xavier"
      std: 0.02
    }
    bias_filler {
      type: "constant"
      value: 0.2
    }
  }
}
layer {
  name: "loss2/relu_fc"
  type: "ReLU"
  bottom: "loss2/fc"
  top: "loss2/fc"
}
layer {
  name: "loss2/drop_fc"
  type: "Dropout"
  bottom: "loss2/fc"
  top: "loss2/fc"
  dropout_param {
    dropout_ratio: 0.7
  }
}
layer {
  name: "loss2/classifier_plantvillage"
  type: "InnerProduct"
  bottom: "loss2/fc"
  top: "loss2/classifier_plantvillage"
  param {
    lr_mult: 1
    decay_mult: 1
  }
  param {
    lr_mult: 2
    decay_mult: 0
  }
  inner_product_param {
    num_output: 38
    weight_filler {
      type: "xavier"
      std: 0.0009765625
    }
    bias_filler {
      type: "constant"
      value: 0
    }
  }
}
layer {
  name: "inception_4e/1x1"
  type: "Convolution"
  bottom: "inception_4d/output"
  top: "inception_4e/1x1"
  param {
    lr_mult: 1
    decay_mult: 1
  }
  param {
    lr_mult: 2
    decay_mult: 0
  }
  convolution_param {
    num_output: 256
    kernel_size: 1
    weight_filler {
      type: "xavier"
      std: 0.03
    }
    bias_filler {
      type: "constant"
      value: 0.2
    }
  }
}
layer {
  name: "inception_4e/relu_1x1"
  type: "ReLU"
  bottom: "inception_4e/1x1"
  top: "inception_4e/1x1"
}
layer {
  name: "inception_4e/3x3_reduce"
  type: "Convolution"
  bottom: "inception_4d/output"
  top: "inception_4e/3x3_reduce"
  param {
    lr_mult: 1
    decay_mult: 1
  }
  param {
    lr_mult: 2
    decay_mult: 0
  }
  convolution_param {
    num_output: 160
    kernel_size: 1
    weight_filler {
      type: "xavier"
      std: 0.09
    }
    bias_filler {
      type: "constant"
      value: 0.2
    }
  }
}
layer {
  name: "inception_4e/relu_3x3_reduce"
  type: "ReLU"
  bottom: "inception_4e/3x3_reduce"
  top: "inception_4e/3x3_reduce"
}
layer {
  name: "inception_4e/3x3"
  type: "Convolution"
  bottom: "inception_4e/3x3_reduce"
  top: "inception_4e/3x3"
  param {
    lr_mult: 1
    decay_mult: 1
  }
  param {
    lr_mult: 2
    decay_mult: 0
  }
  convolution_param {
    num_output: 320
    pad: 1
    kernel_size: 3
    weight_filler {
      type: "xavier"
      std: 0.03
    }
    bias_filler {
      type: "constant"
      value: 0.2
    }
  }
}
layer {
  name: "inception_4e/relu_3x3"
  type: "ReLU"
  bottom: "inception_4e/3x3"
  top: "inception_4e/3x3"
}
layer {
  name: "inception_4e/5x5_reduce"
  type: "Convolution"
  bottom: "inception_4d/output"
  top: "inception_4e/5x5_reduce"
  param {
    lr_mult: 1
    decay_mult: 1
  }
  param {
    lr_mult: 2
    decay_mult: 0
  }
  convolution_param {
    num_output: 32
    kernel_size: 1
    weight_filler {
      type: "xavier"
      std: 0.2
    }
    bias_filler {
      type: "constant"
      value: 0.2
    }
  }
}
layer {
  name: "inception_4e/relu_5x5_reduce"
  type: "ReLU"
  bottom: "inception_4e/5x5_reduce"
  top: "inception_4e/5x5_reduce"
}
layer {
  name: "inception_4e/5x5"
  type: "Convolution"
  bottom: "inception_4e/5x5_reduce"
  top: "inception_4e/
I0403 15:19:57.312093 31484 layer_factory.hpp:77] Creating layer data
I0403 15:19:57.312707 31484 net.cpp:91] Creating Layer data
I0403 15:19:57.312738 31484 net.cpp:399] data -> data
I0403 15:19:57.312795 31484 net.cpp:399] data -> label
I0403 15:19:57.312836 31484 data_transformer.cpp:25] Loading mean file from: /home/mohanty/data/final_dataset/lmdb/grayscale-80-20/mean.binaryproto
I0403 15:19:57.315271 31487 db_lmdb.cpp:38] Opened lmdb /home/mohanty/data/final_dataset/lmdb/grayscale-80-20/test_db
I0403 15:19:57.326369 31484 data_layer.cpp:41] output data size: 24,3,224,224
I0403 15:19:57.353905 31484 net.cpp:141] Setting up data
I0403 15:19:57.353992 31484 net.cpp:148] Top shape: 24 3 224 224 (3612672)
I0403 15:19:57.354017 31484 net.cpp:148] Top shape: 24 (24)
I0403 15:19:57.354032 31484 net.cpp:156] Memory required for data: 14450784
I0403 15:19:57.354063 31484 layer_factory.hpp:77] Creating layer label_data_1_split
I0403 15:19:57.354094 31484 net.cpp:91] Creating Layer label_data_1_split
I0403 15:19:57.354112 31484 net.cpp:425] label_data_1_split <- label
I0403 15:19:57.354148 31484 net.cpp:399] label_data_1_split -> label_data_1_split_0
I0403 15:19:57.354178 31484 net.cpp:399] label_data_1_split -> label_data_1_split_1
I0403 15:19:57.354199 31484 net.cpp:399] label_data_1_split -> label_data_1_split_2
I0403 15:19:57.354219 31484 net.cpp:399] label_data_1_split -> label_data_1_split_3
I0403 15:19:57.354239 31484 net.cpp:399] label_data_1_split -> label_data_1_split_4
I0403 15:19:57.354259 31484 net.cpp:399] label_data_1_split -> label_data_1_split_5
I0403 15:19:57.354279 31484 net.cpp:399] label_data_1_split -> label_data_1_split_6
I0403 15:19:57.354300 31484 net.cpp:399] label_data_1_split -> label_data_1_split_7
I0403 15:19:57.354318 31484 net.cpp:399] label_data_1_split -> label_data_1_split_8
I0403 15:19:57.354338 31484 net.cpp:399] label_data_1_split -> label_data_1_split_9
I0403 15:19:57.354454 31484 net.cpp:141] Setting up label_data_1_split
I0403 15:19:57.354476 31484 net.cpp:148] Top shape: 24 (24)
I0403 15:19:57.354495 31484 net.cpp:148] Top shape: 24 (24)
I0403 15:19:57.354522 31484 net.cpp:148] Top shape: 24 (24)
I0403 15:19:57.354542 31484 net.cpp:148] Top shape: 24 (24)
I0403 15:19:57.354558 31484 net.cpp:148] Top shape: 24 (24)
I0403 15:19:57.354573 31484 net.cpp:148] Top shape: 24 (24)
I0403 15:19:57.354589 31484 net.cpp:148] Top shape: 24 (24)
I0403 15:19:57.354604 31484 net.cpp:148] Top shape: 24 (24)
I0403 15:19:57.354620 31484 net.cpp:148] Top shape: 24 (24)
I0403 15:19:57.354636 31484 net.cpp:148] Top shape: 24 (24)
I0403 15:19:57.354684 31484 net.cpp:156] Memory required for data: 14451744
I0403 15:19:57.354701 31484 layer_factory.hpp:77] Creating layer conv1/7x7_s2
I0403 15:19:57.354749 31484 net.cpp:91] Creating Layer conv1/7x7_s2
I0403 15:19:57.354769 31484 net.cpp:425] conv1/7x7_s2 <- data
I0403 15:19:57.354789 31484 net.cpp:399] conv1/7x7_s2 -> conv1/7x7_s2
I0403 15:19:57.497432 31484 net.cpp:141] Setting up conv1/7x7_s2
I0403 15:19:57.497524 31484 net.cpp:148] Top shape: 24 64 112 112 (19267584)
I0403 15:19:57.497546 31484 net.cpp:156] Memory required for data: 91522080
I0403 15:19:57.497581 31484 layer_factory.hpp:77] Creating layer conv1/relu_7x7
I0403 15:19:57.497611 31484 net.cpp:91] Creating Layer conv1/relu_7x7
I0403 15:19:57.497628 31484 net.cpp:425] conv1/relu_7x7 <- conv1/7x7_s2
I0403 15:19:57.497648 31484 net.cpp:386] conv1/relu_7x7 -> conv1/7x7_s2 (in-place)
I0403 15:19:57.497901 31484 net.cpp:141] Setting up conv1/relu_7x7
I0403 15:19:57.497927 31484 net.cpp:148] Top shape: 24 64 112 112 (19267584)
I0403 15:19:57.497942 31484 net.cpp:156] Memory required for data: 168592416
I0403 15:19:57.497957 31484 layer_factory.hpp:77] Creating layer pool1/3x3_s2
I0403 15:19:57.497985 31484 net.cpp:91] Creating Layer pool1/3x3_s2
I0403 15:19:57.498003 31484 net.cpp:425] pool1/3x3_s2 <- conv1/7x7_s2
I0403 15:19:57.498021 31484 net.cpp:399] pool1/3x3_s2 -> pool1/3x3_s2
I0403 15:19:57.498096 31484 net.cpp:141] Setting up pool1/3x3_s2
I0403 15:19:57.498121 31484 net.cpp:148] Top shape: 24 64 56 56 (4816896)
I0403 15:19:57.498136 31484 net.cpp:156] Memory required for data: 187860000
I0403 15:19:57.498149 31484 layer_factory.hpp:77] Creating layer pool1/norm1
I0403 15:19:57.498184 31484 net.cpp:91] Creating Layer pool1/norm1
I0403 15:19:57.498201 31484 net.cpp:425] pool1/norm1 <- pool1/3x3_s2
I0403 15:19:57.498219 31484 net.cpp:399] pool1/norm1 -> pool1/norm1
I0403 15:19:57.498523 31484 net.cpp:141] Setting up pool1/norm1
I0403 15:19:57.498569 31484 net.cpp:148] Top shape: 24 64 56 56 (4816896)
I0403 15:19:57.498586 31484 net.cpp:156] Memory required for data: 207127584
I0403 15:19:57.498601 31484 layer_factory.hpp:77] Creating layer conv2/3x3_reduce
I0403 15:19:57.498641 31484 net.cpp:91] Creating Layer conv2/3x3_reduce
I0403 15:19:57.498667 31484 net.cpp:425] conv2/3x3_reduce <- pool1/norm1
I0403 15:19:57.498687 31484 net.cpp:399] conv2/3x3_reduce -> conv2/3x3_reduce
I0403 15:19:57.500098 31484 net.cpp:141] Setting up conv2/3x3_reduce
I0403 15:19:57.500129 31484 net.cpp:148] Top shape: 24 64 56 56 (4816896)
I0403 15:19:57.500149 31484 net.cpp:156] Memory required for data: 226395168
I0403 15:19:57.500174 31484 layer_factory.hpp:77] Creating layer conv2/relu_3x3_reduce
I0403 15:19:57.500193 31484 net.cpp:91] Creating Layer conv2/relu_3x3_reduce
I0403 15:19:57.500211 31484 net.cpp:425] conv2/relu_3x3_reduce <- conv2/3x3_reduce
I0403 15:19:57.500228 31484 net.cpp:386] conv2/relu_3x3_reduce -> conv2/3x3_reduce (in-place)
I0403 15:19:57.500504 31484 net.cpp:141] Setting up conv2/relu_3x3_reduce
I0403 15:19:57.500537 31484 net.cpp:148] Top shape: 24 64 56 56 (4816896)
I0403 15:19:57.500555 31484 net.cpp:156] Memory required for data: 245662752
I0403 15:19:57.500573 31484 layer_factory.hpp:77] Creating layer conv2/3x3
I0403 15:19:57.500598 31484 net.cpp:91] Creating Layer conv2/3x3
I0403 15:19:57.500617 31484 net.cpp:425] conv2/3x3 <- conv2/3x3_reduce
I0403 15:19:57.500639 31484 net.cpp:399] conv2/3x3 -> conv2/3x3
I0403 15:19:57.502987 31484 net.cpp:141] Setting up conv2/3x3
I0403 15:19:57.503020 31484 net.cpp:148] Top shape: 24 192 56 56 (14450688)
I0403 15:19:57.503036 31484 net.cpp:156] Memory required for data: 303465504
I0403 15:19:57.503060 31484 layer_factory.hpp:77] Creating layer conv2/relu_3x3
I0403 15:19:57.503080 31484 net.cpp:91] Creating Layer conv2/relu_3x3
I0403 15:19:57.503096 31484 net.cpp:425] conv2/relu_3x3 <- conv2/3x3
I0403 15:19:57.503115 31484 net.cpp:386] conv2/relu_3x3 -> conv2/3x3 (in-place)
I0403 15:19:57.503306 31484 net.cpp:141] Setting up conv2/relu_3x3
I0403 15:19:57.503335 31484 net.cpp:148] Top shape: 24 192 56 56 (14450688)
I0403 15:19:57.503389 31484 net.cpp:156] Memory required for data: 361268256
I0403 15:19:57.503404 31484 layer_factory.hpp:77] Creating layer conv2/norm2
I0403 15:19:57.503423 31484 net.cpp:91] Creating Layer conv2/norm2
I0403 15:19:57.503461 31484 net.cpp:425] conv2/norm2 <- conv2/3x3
I0403 15:19:57.503487 31484 net.cpp:399] conv2/norm2 -> conv2/norm2
I0403 15:19:57.503825 31484 net.cpp:141] Setting up conv2/norm2
I0403 15:19:57.503862 31484 net.cpp:148] Top shape: 24 192 56 56 (14450688)
I0403 15:19:57.503878 31484 net.cpp:156] Memory required for data: 419071008
I0403 15:19:57.503893 31484 layer_factory.hpp:77] Creating layer pool2/3x3_s2
I0403 15:19:57.503911 31484 net.cpp:91] Creating Layer pool2/3x3_s2
I0403 15:19:57.503931 31484 net.cpp:425] pool2/3x3_s2 <- conv2/norm2
I0403 15:19:57.503948 31484 net.cpp:399] pool2/3x3_s2 -> pool2/3x3_s2
I0403 15:19:57.504007 31484 net.cpp:141] Setting up pool2/3x3_s2
I0403 15:19:57.504030 31484 net.cpp:148] Top shape: 24 192 28 28 (3612672)
I0403 15:19:57.504045 31484 net.cpp:156] Memory required for data: 433521696
I0403 15:19:57.504060 31484 layer_factory.hpp:77] Creating layer pool2/3x3_s2_pool2/3x3_s2_0_split
I0403 15:19:57.504077 31484 net.cpp:91] Creating Layer pool2/3x3_s2_pool2/3x3_s2_0_split
I0403 15:19:57.504092 31484 net.cpp:425] pool2/3x3_s2_pool2/3x3_s2_0_split <- pool2/3x3_s2
I0403 15:19:57.504112 31484 net.cpp:399] pool2/3x3_s2_pool2/3x3_s2_0_split -> pool2/3x3_s2_pool2/3x3_s2_0_split_0
I0403 15:19:57.504133 31484 net.cpp:399] pool2/3x3_s2_pool2/3x3_s2_0_split -> pool2/3x3_s2_pool2/3x3_s2_0_split_1
I0403 15:19:57.504154 31484 net.cpp:399] pool2/3x3_s2_pool2/3x3_s2_0_split -> pool2/3x3_s2_pool2/3x3_s2_0_split_2
I0403 15:19:57.504173 31484 net.cpp:399] pool2/3x3_s2_pool2/3x3_s2_0_split -> pool2/3x3_s2_pool2/3x3_s2_0_split_3
I0403 15:19:57.504245 31484 net.cpp:141] Setting up pool2/3x3_s2_pool2/3x3_s2_0_split
I0403 15:19:57.504267 31484 net.cpp:148] Top shape: 24 192 28 28 (3612672)
I0403 15:19:57.504283 31484 net.cpp:148] Top shape: 24 192 28 28 (3612672)
I0403 15:19:57.504299 31484 net.cpp:148] Top shape: 24 192 28 28 (3612672)
I0403 15:19:57.504315 31484 net.cpp:148] Top shape: 24 192 28 28 (3612672)
I0403 15:19:57.504329 31484 net.cpp:156] Memory required for data: 491324448
I0403 15:19:57.504343 31484 layer_factory.hpp:77] Creating layer inception_3a/1x1
I0403 15:19:57.504367 31484 net.cpp:91] Creating Layer inception_3a/1x1
I0403 15:19:57.504385 31484 net.cpp:425] inception_3a/1x1 <- pool2/3x3_s2_pool2/3x3_s2_0_split_0
I0403 15:19:57.504405 31484 net.cpp:399] inception_3a/1x1 -> inception_3a/1x1
I0403 15:19:57.505976 31484 net.cpp:141] Setting up inception_3a/1x1
I0403 15:19:57.506007 31484 net.cpp:148] Top shape: 24 64 28 28 (1204224)
I0403 15:19:57.506023 31484 net.cpp:156] Memory required for data: 496141344
I0403 15:19:57.506042 31484 layer_factory.hpp:77] Creating layer inception_3a/relu_1x1
I0403 15:19:57.506063 31484 net.cpp:91] Creating Layer inception_3a/relu_1x1
I0403 15:19:57.506081 31484 net.cpp:425] inception_3a/relu_1x1 <- inception_3a/1x1
I0403 15:19:57.506099 31484 net.cpp:386] inception_3a/relu_1x1 -> inception_3a/1x1 (in-place)
I0403 15:19:57.506274 31484 net.cpp:141] Setting up inception_3a/relu_1x1
I0403 15:19:57.506302 31484 net.cpp:148] Top shape: 24 64 28 28 (1204224)
I0403 15:19:57.506319 31484 net.cpp:156] Memory required for data: 500958240
I0403 15:19:57.506333 31484 layer_factory.hpp:77] Creating layer inception_3a/3x3_reduce
I0403 15:19:57.506356 31484 net.cpp:91] Creating Layer inception_3a/3x3_reduce
I0403 15:19:57.506373 31484 net.cpp:425] inception_3a/3x3_reduce <- pool2/3x3_s2_pool2/3x3_s2_0_split_1
I0403 15:19:57.506392 31484 net.cpp:399] inception_3a/3x3_reduce -> inception_3a/3x3_reduce
I0403 15:19:57.508111 31484 net.cpp:141] Setting up inception_3a/3x3_reduce
I0403 15:19:57.508141 31484 net.cpp:148] Top shape: 24 96 28 28 (1806336)
I0403 15:19:57.508157 31484 net.cpp:156] Memory required for data: 508183584
I0403 15:19:57.508180 31484 layer_factory.hpp:77] Creating layer inception_3a/relu_3x3_reduce
I0403 15:19:57.508216 31484 net.cpp:91] Creating Layer inception_3a/relu_3x3_reduce
I0403 15:19:57.508234 31484 net.cpp:425] inception_3a/relu_3x3_reduce <- inception_3a/3x3_reduce
I0403 15:19:57.508251 31484 net.cpp:386] inception_3a/relu_3x3_reduce -> inception_3a/3x3_reduce (in-place)
I0403 15:19:57.508436 31484 net.cpp:141] Setting up inception_3a/relu_3x3_reduce
I0403 15:19:57.508462 31484 net.cpp:148] Top shape: 24 96 28 28 (1806336)
I0403 15:19:57.508477 31484 net.cpp:156] Memory required for data: 515408928
I0403 15:19:57.508492 31484 layer_factory.hpp:77] Creating layer inception_3a/3x3
I0403 15:19:57.508517 31484 net.cpp:91] Creating Layer inception_3a/3x3
I0403 15:19:57.508538 31484 net.cpp:425] inception_3a/3x3 <- inception_3a/3x3_reduce
I0403 15:19:57.508561 31484 net.cpp:399] inception_3a/3x3 -> inception_3a/3x3
I0403 15:19:57.510232 31484 net.cpp:141] Setting up inception_3a/3x3
I0403 15:19:57.510272 31484 net.cpp:148] Top shape: 24 128 28 28 (2408448)
I0403 15:19:57.510288 31484 net.cpp:156] Memory required for data: 525042720
I0403 15:19:57.510306 31484 layer_factory.hpp:77] Creating layer inception_3a/relu_3x3
I0403 15:19:57.510329 31484 net.cpp:91] Creating Layer inception_3a/relu_3x3
I0403 15:19:57.510345 31484 net.cpp:425] inception_3a/relu_3x3 <- inception_3a/3x3
I0403 15:19:57.510363 31484 net.cpp:386] inception_3a/relu_3x3 -> inception_3a/3x3 (in-place)
I0403 15:19:57.510658 31484 net.cpp:141] Setting up inception_3a/relu_3x3
I0403 15:19:57.510704 31484 net.cpp:148] Top shape: 24 128 28 28 (2408448)
I0403 15:19:57.510720 31484 net.cpp:156] Memory required for data: 534676512
I0403 15:19:57.510756 31484 layer_factory.hpp:77] Creating layer inception_3a/5x5_reduce
I0403 15:19:57.510781 31484 net.cpp:91] Creating Layer inception_3a/5x5_reduce
I0403 15:19:57.510799 31484 net.cpp:425] inception_3a/5x5_reduce <- pool2/3x3_s2_pool2/3x3_s2_0_split_2
I0403 15:19:57.510818 31484 net.cpp:399] inception_3a/5x5_reduce -> inception_3a/5x5_reduce
I0403 15:19:57.511788 31484 net.cpp:141] Setting up inception_3a/5x5_reduce
I0403 15:19:57.511821 31484 net.cpp:148] Top shape: 24 16 28 28 (301056)
I0403 15:19:57.511837 31484 net.cpp:156] Memory required for data: 535880736
I0403 15:19:57.511855 31484 layer_factory.hpp:77] Creating layer inception_3a/relu_5x5_reduce
I0403 15:19:57.511873 31484 net.cpp:91] Creating Layer inception_3a/relu_5x5_reduce
I0403 15:19:57.511889 31484 net.cpp:425] inception_3a/relu_5x5_reduce <- inception_3a/5x5_reduce
I0403 15:19:57.511914 31484 net.cpp:386] inception_3a/relu_5x5_reduce -> inception_3a/5x5_reduce (in-place)
I0403 15:19:57.512212 31484 net.cpp:141] Setting up inception_3a/relu_5x5_reduce
I0403 15:19:57.512241 31484 net.cpp:148] Top shape: 24 16 28 28 (301056)
I0403 15:19:57.512259 31484 net.cpp:156] Memory required for data: 537084960
I0403 15:19:57.512274 31484 layer_factory.hpp:77] Creating layer inception_3a/5x5
I0403 15:19:57.512297 31484 net.cpp:91] Creating Layer inception_3a/5x5
I0403 15:19:57.512315 31484 net.cpp:425] inception_3a/5x5 <- inception_3a/5x5_reduce
I0403 15:19:57.512341 31484 net.cpp:399] inception_3a/5x5 -> inception_3a/5x5
I0403 15:19:57.513373 31484 net.cpp:141] Setting up inception_3a/5x5
I0403 15:19:57.513402 31484 net.cpp:148] Top shape: 24 32 28 28 (602112)
I0403 15:19:57.513418 31484 net.cpp:156] Memory required for data: 539493408
I0403 15:19:57.513437 31484 layer_factory.hpp:77] Creating layer inception_3a/relu_5x5
I0403 15:19:57.513459 31484 net.cpp:91] Creating Layer inception_3a/relu_5x5
I0403 15:19:57.513476 31484 net.cpp:425] inception_3a/relu_5x5 <- inception_3a/5x5
I0403 15:19:57.513494 31484 net.cpp:386] inception_3a/relu_5x5 -> inception_3a/5x5 (in-place)
I0403 15:19:57.513674 31484 net.cpp:141] Setting up inception_3a/relu_5x5
I0403 15:19:57.513701 31484 net.cpp:148] Top shape: 24 32 28 28 (602112)
I0403 15:19:57.513717 31484 net.cpp:156] Memory required for data: 541901856
I0403 15:19:57.513733 31484 layer_factory.hpp:77] Creating layer inception_3a/pool
I0403 15:19:57.513751 31484 net.cpp:91] Creating Layer inception_3a/pool
I0403 15:19:57.513783 31484 net.cpp:425] inception_3a/pool <- pool2/3x3_s2_pool2/3x3_s2_0_split_3
I0403 15:19:57.513803 31484 net.cpp:399] inception_3a/pool -> inception_3a/pool
I0403 15:19:57.513862 31484 net.cpp:141] Setting up inception_3a/pool
I0403 15:19:57.513887 31484 net.cpp:148] Top shape: 24 192 28 28 (3612672)
I0403 15:19:57.513902 31484 net.cpp:156] Memory required for data: 556352544
I0403 15:19:57.513916 31484 layer_factory.hpp:77] Creating layer inception_3a/pool_proj
I0403 15:19:57.513938 31484 net.cpp:91] Creating Layer inception_3a/pool_proj
I0403 15:19:57.513957 31484 net.cpp:425] inception_3a/pool_proj <- inception_3a/pool
I0403 15:19:57.513978 31484 net.cpp:399] inception_3a/pool_proj -> inception_3a/pool_proj
I0403 15:19:57.514955 31484 net.cpp:141] Setting up inception_3a/pool_proj
I0403 15:19:57.514984 31484 net.cpp:148] Top shape: 24 32 28 28 (602112)
I0403 15:19:57.515000 31484 net.cpp:156] Memory required for data: 558760992
I0403 15:19:57.515025 31484 layer_factory.hpp:77] Creating layer inception_3a/relu_pool_proj
I0403 15:19:57.515046 31484 net.cpp:91] Creating Layer inception_3a/relu_pool_proj
I0403 15:19:57.515063 31484 net.cpp:425] inception_3a/relu_pool_proj <- inception_3a/pool_proj
I0403 15:19:57.515081 31484 net.cpp:386] inception_3a/relu_pool_proj -> inception_3a/pool_proj (in-place)
I0403 15:19:57.515357 31484 net.cpp:141] Setting up inception_3a/relu_pool_proj
I0403 15:19:57.515383 31484 net.cpp:148] Top shape: 24 32 28 28 (602112)
I0403 15:19:57.515399 31484 net.cpp:156] Memory required for data: 561169440
I0403 15:19:57.515414 31484 layer_factory.hpp:77] Creating layer inception_3a/output
I0403 15:19:57.515435 31484 net.cpp:91] Creating Layer inception_3a/output
I0403 15:19:57.515452 31484 net.cpp:425] inception_3a/output <- inception_3a/1x1
I0403 15:19:57.515470 31484 net.cpp:425] inception_3a/output <- inception_3a/3x3
I0403 15:19:57.515486 31484 net.cpp:425] inception_3a/output <- inception_3a/5x5
I0403 15:19:57.515502 31484 net.cpp:425] inception_3a/output <- inception_3a/pool_proj
I0403 15:19:57.515521 31484 net.cpp:399] inception_3a/output -> inception_3a/output
I0403 15:19:57.515573 31484 net.cpp:141] Setting up inception_3a/output
I0403 15:19:57.515599 31484 net.cpp:148] Top shape: 24 256 28 28 (4816896)
I0403 15:19:57.515614 31484 net.cpp:156] Memory required for data: 580437024
I0403 15:19:57.515627 31484 layer_factory.hpp:77] Creating layer inception_3a/output_inception_3a/output_0_split
I0403 15:19:57.515645 31484 net.cpp:91] Creating Layer inception_3a/output_inception_3a/output_0_split
I0403 15:19:57.515661 31484 net.cpp:425] inception_3a/output_inception_3a/output_0_split <- inception_3a/output
I0403 15:19:57.515681 31484 net.cpp:399] inception_3a/output_inception_3a/output_0_split -> inception_3a/output_inception_3a/output_0_split_0
I0403 15:19:57.515702 31484 net.cpp:399] inception_3a/output_inception_3a/output_0_split -> inception_3a/output_inception_3a/output_0_split_1
I0403 15:19:57.515727 31484 net.cpp:399] inception_3a/output_inception_3a/output_0_split -> inception_3a/output_inception_3a/output_0_split_2
I0403 15:19:57.515748 31484 net.cpp:399] inception_3a/output_inception_3a/output_0_split -> inception_3a/output_inception_3a/output_0_split_3
I0403 15:19:57.515822 31484 net.cpp:141] Setting up inception_3a/output_inception_3a/output_0_split
I0403 15:19:57.515846 31484 net.cpp:148] Top shape: 24 256 28 28 (4816896)
I0403 15:19:57.515862 31484 net.cpp:148] Top shape: 24 256 28 28 (4816896)
I0403 15:19:57.515878 31484 net.cpp:148] Top shape: 24 256 28 28 (4816896)
I0403 15:19:57.515894 31484 net.cpp:148] Top shape: 24 256 28 28 (4816896)
I0403 15:19:57.515908 31484 net.cpp:156] Memory required for data: 657507360
I0403 15:19:57.515923 31484 layer_factory.hpp:77] Creating layer inception_3b/1x1
I0403 15:19:57.515945 31484 net.cpp:91] Creating Layer inception_3b/1x1
I0403 15:19:57.515964 31484 net.cpp:425] inception_3b/1x1 <- inception_3a/output_inception_3a/output_0_split_0
I0403 15:19:57.515985 31484 net.cpp:399] inception_3b/1x1 -> inception_3b/1x1
I0403 15:19:57.517138 31484 net.cpp:141] Setting up inception_3b/1x1
I0403 15:19:57.517179 31484 net.cpp:148] Top shape: 24 128 28 28 (2408448)
I0403 15:19:57.517196 31484 net.cpp:156] Memory required for data: 667141152
I0403 15:19:57.517215 31484 layer_factory.hpp:77] Creating layer inception_3b/relu_1x1
I0403 15:19:57.517236 31484 net.cpp:91] Creating Layer inception_3b/relu_1x1
I0403 15:19:57.517253 31484 net.cpp:425] inception_3b/relu_1x1 <- inception_3b/1x1
I0403 15:19:57.517271 31484 net.cpp:386] inception_3b/relu_1x1 -> inception_3b/1x1 (in-place)
I0403 15:19:57.517452 31484 net.cpp:141] Setting up inception_3b/relu_1x1
I0403 15:19:57.517477 31484 net.cpp:148] Top shape: 24 128 28 28 (2408448)
I0403 15:19:57.517493 31484 net.cpp:156] Memory required for data: 676774944
I0403 15:19:57.517508 31484 layer_factory.hpp:77] Creating layer inception_3b/3x3_reduce
I0403 15:19:57.517531 31484 net.cpp:91] Creating Layer inception_3b/3x3_reduce
I0403 15:19:57.517554 31484 net.cpp:425] inception_3b/3x3_reduce <- inception_3a/output_inception_3a/output_0_split_1
I0403 15:19:57.517576 31484 net.cpp:399] inception_3b/3x3_reduce -> inception_3b/3x3_reduce
I0403 15:19:57.518743 31484 net.cpp:141] Setting up inception_3b/3x3_reduce
I0403 15:19:57.518770 31484 net.cpp:148] Top shape: 24 128 28 28 (2408448)
I0403 15:19:57.518785 31484 net.cpp:156] Memory required for data: 686408736
I0403 15:19:57.518803 31484 layer_factory.hpp:77] Creating layer inception_3b/relu_3x3_reduce
I0403 15:19:57.518823 31484 net.cpp:91] Creating Layer inception_3b/relu_3x3_reduce
I0403 15:19:57.518841 31484 net.cpp:425] inception_3b/relu_3x3_reduce <- inception_3b/3x3_reduce
I0403 15:19:57.518857 31484 net.cpp:386] inception_3b/relu_3x3_reduce -> inception_3b/3x3_reduce (in-place)
I0403 15:19:57.519026 31484 net.cpp:141] Setting up inception_3b/relu_3x3_reduce
I0403 15:19:57.519049 31484 net.cpp:148] Top shape: 24 128 28 28 (2408448)
I0403 15:19:57.519067 31484 net.cpp:156] Memory required for data: 696042528
I0403 15:19:57.519080 31484 layer_factory.hpp:77] Creating layer inception_3b/3x3
I0403 15:19:57.519105 31484 net.cpp:91] Creating Layer inception_3b/3x3
I0403 15:19:57.519124 31484 net.cpp:425] inception_3b/3x3 <- inception_3b/3x3_reduce
I0403 15:19:57.519143 31484 net.cpp:399] inception_3b/3x3 -> inception_3b/3x3
I0403 15:19:57.522063 31484 net.cpp:141] Setting up inception_3b/3x3
I0403 15:19:57.522090 31484 net.cpp:148] Top shape: 24 192 28 28 (3612672)
I0403 15:19:57.522106 31484 net.cpp:156] Memory required for data: 710493216
I0403 15:19:57.522125 31484 layer_factory.hpp:77] Creating layer inception_3b/relu_3x3
I0403 15:19:57.522145 31484 net.cpp:91] Creating Layer inception_3b/relu_3x3
I0403 15:19:57.522161 31484 net.cpp:425] inception_3b/relu_3x3 <- inception_3b/3x3
I0403 15:19:57.522179 31484 net.cpp:386] inception_3b/relu_3x3 -> inception_3b/3x3 (in-place)
I0403 15:19:57.522451 31484 net.cpp:141] Setting up inception_3b/relu_3x3
I0403 15:19:57.522477 31484 net.cpp:148] Top shape: 24 192 28 28 (3612672)
I0403 15:19:57.522492 31484 net.cpp:156] Memory required for data: 724943904
I0403 15:19:57.522507 31484 layer_factory.hpp:77] Creating layer inception_3b/5x5_reduce
I0403 15:19:57.522531 31484 net.cpp:91] Creating Layer inception_3b/5x5_reduce
I0403 15:19:57.522553 31484 net.cpp:425] inception_3b/5x5_reduce <- inception_3a/output_inception_3a/output_0_split_2
I0403 15:19:57.522574 31484 net.cpp:399] inception_3b/5x5_reduce -> inception_3b/5x5_reduce
I0403 15:19:57.523561 31484 net.cpp:141] Setting up inception_3b/5x5_reduce
I0403 15:19:57.523589 31484 net.cpp:148] Top shape: 24 32 28 28 (602112)
I0403 15:19:57.523604 31484 net.cpp:156] Memory required for data: 727352352
I0403 15:19:57.523622 31484 layer_factory.hpp:77] Creating layer inception_3b/relu_5x5_reduce
I0403 15:19:57.523643 31484 net.cpp:91] Creating Layer inception_3b/relu_5x5_reduce
I0403 15:19:57.523659 31484 net.cpp:425] inception_3b/relu_5x5_reduce <- inception_3b/5x5_reduce
I0403 15:19:57.523676 31484 net.cpp:386] inception_3b/relu_5x5_reduce -> inception_3b/5x5_reduce (in-place)
I0403 15:19:57.523864 31484 net.cpp:141] Setting up inception_3b/relu_5x5_reduce
I0403 15:19:57.523890 31484 net.cpp:148] Top shape: 24 32 28 28 (602112)
I0403 15:19:57.523905 31484 net.cpp:156] Memory required for data: 729760800
I0403 15:19:57.523921 31484 layer_factory.hpp:77] Creating layer inception_3b/5x5
I0403 15:19:57.523941 31484 net.cpp:91] Creating Layer inception_3b/5x5
I0403 15:19:57.523958 31484 net.cpp:425] inception_3b/5x5 <- inception_3b/5x5_reduce
I0403 15:19:57.523977 31484 net.cpp:399] inception_3b/5x5 -> inception_3b/5x5
I0403 15:19:57.525933 31484 net.cpp:141] Setting up inception_3b/5x5
I0403 15:19:57.525960 31484 net.cpp:148] Top shape: 24 96 28 28 (1806336)
I0403 15:19:57.525976 31484 net.cpp:156] Memory required for data: 736986144
I0403 15:19:57.525995 31484 layer_factory.hpp:77] Creating layer inception_3b/relu_5x5
I0403 15:19:57.526012 31484 net.cpp:91] Creating Layer inception_3b/relu_5x5
I0403 15:19:57.526028 31484 net.cpp:425] inception_3b/relu_5x5 <- inception_3b/5x5
I0403 15:19:57.526047 31484 net.cpp:386] inception_3b/relu_5x5 -> inception_3b/5x5 (in-place)
I0403 15:19:57.526237 31484 net.cpp:141] Setting up inception_3b/relu_5x5
I0403 15:19:57.526262 31484 net.cpp:148] Top shape: 24 96 28 28 (1806336)
I0403 15:19:57.526278 31484 net.cpp:156] Memory required for data: 744211488
I0403 15:19:57.526291 31484 layer_factory.hpp:77] Creating layer inception_3b/pool
I0403 15:19:57.526309 31484 net.cpp:91] Creating Layer inception_3b/pool
I0403 15:19:57.526325 31484 net.cpp:425] inception_3b/pool <- inception_3a/output_inception_3a/output_0_split_3
I0403 15:19:57.526342 31484 net.cpp:399] inception_3b/pool -> inception_3b/pool
I0403 15:19:57.526398 31484 net.cpp:141] Setting up inception_3b/pool
I0403 15:19:57.526423 31484 net.cpp:148] Top shape: 24 256 28 28 (4816896)
I0403 15:19:57.526438 31484 net.cpp:156] Memory required for data: 763479072
I0403 15:19:57.526453 31484 layer_factory.hpp:77] Creating layer inception_3b/pool_proj
I0403 15:19:57.526474 31484 net.cpp:91] Creating Layer inception_3b/pool_proj
I0403 15:19:57.526491 31484 net.cpp:425] inception_3b/pool_proj <- inception_3b/pool
I0403 15:19:57.526511 31484 net.cpp:399] inception_3b/pool_proj -> inception_3b/pool_proj
I0403 15:19:57.527554 31484 net.cpp:141] Setting up inception_3b/pool_proj
I0403 15:19:57.527585 31484 net.cpp:148] Top shape: 24 64 28 28 (1204224)
I0403 15:19:57.527600 31484 net.cpp:156] Memory required for data: 768295968
I0403 15:19:57.527618 31484 layer_factory.hpp:77] Creating layer inception_3b/relu_pool_proj
I0403 15:19:57.527637 31484 net.cpp:91] Creating Layer inception_3b/relu_pool_proj
I0403 15:19:57.527652 31484 net.cpp:425] inception_3b/relu_pool_proj <- inception_3b/pool_proj
I0403 15:19:57.527673 31484 net.cpp:386] inception_3b/relu_pool_proj -> inception_3b/pool_proj (in-place)
I0403 15:19:57.528062 31484 net.cpp:141] Setting up inception_3b/relu_pool_proj
I0403 15:19:57.528091 31484 net.cpp:148] Top shape: 24 64 28 28 (1204224)
I0403 15:19:57.528107 31484 net.cpp:156] Memory required for data: 773112864
I0403 15:19:57.528122 31484 layer_factory.hpp:77] Creating layer inception_3b/output
I0403 15:19:57.528141 31484 net.cpp:91] Creating Layer inception_3b/output
I0403 15:19:57.528156 31484 net.cpp:425] inception_3b/output <- inception_3b/1x1
I0403 15:19:57.528172 31484 net.cpp:425] inception_3b/output <- inception_3b/3x3
I0403 15:19:57.528187 31484 net.cpp:425] inception_3b/output <- inception_3b/5x5
I0403 15:19:57.528210 31484 net.cpp:425] inception_3b/output <- inception_3b/pool_proj
I0403 15:19:57.528228 31484 net.cpp:399] inception_3b/output -> inception_3b/output
I0403 15:19:57.528272 31484 net.cpp:141] Setting up inception_3b/output
I0403 15:19:57.528295 31484 net.cpp:148] Top shape: 24 480 28 28 (9031680)
I0403 15:19:57.528308 31484 net.cpp:156] Memory required for data: 809239584
I0403 15:19:57.528323 31484 layer_factory.hpp:77] Creating layer pool3/3x3_s2
I0403 15:19:57.528343 31484 net.cpp:91] Creating Layer pool3/3x3_s2
I0403 15:19:57.528359 31484 net.cpp:425] pool3/3x3_s2 <- inception_3b/output
I0403 15:19:57.528391 31484 net.cpp:399] pool3/3x3_s2 -> pool3/3x3_s2
I0403 15:19:57.528451 31484 net.cpp:141] Setting up pool3/3x3_s2
I0403 15:19:57.528475 31484 net.cpp:148] Top shape: 24 480 14 14 (2257920)
I0403 15:19:57.528489 31484 net.cpp:156] Memory required for data: 818271264
I0403 15:19:57.528504 31484 layer_factory.hpp:77] Creating layer pool3/3x3_s2_pool3/3x3_s2_0_split
I0403 15:19:57.528522 31484 net.cpp:91] Creating Layer pool3/3x3_s2_pool3/3x3_s2_0_split
I0403 15:19:57.528539 31484 net.cpp:425] pool3/3x3_s2_pool3/3x3_s2_0_split <- pool3/3x3_s2
I0403 15:19:57.528560 31484 net.cpp:399] pool3/3x3_s2_pool3/3x3_s2_0_split -> pool3/3x3_s2_pool3/3x3_s2_0_split_0
I0403 15:19:57.528581 31484 net.cpp:399] pool3/3x3_s2_pool3/3x3_s2_0_split -> pool3/3x3_s2_pool3/3x3_s2_0_split_1
I0403 15:19:57.528600 31484 net.cpp:399] pool3/3x3_s2_pool3/3x3_s2_0_split -> pool3/3x3_s2_pool3/3x3_s2_0_split_2
I0403 15:19:57.528620 31484 net.cpp:399] pool3/3x3_s2_pool3/3x3_s2_0_split -> pool3/3x3_s2_pool3/3x3_s2_0_split_3
I0403 15:19:57.528693 31484 net.cpp:141] Setting up pool3/3x3_s2_pool3/3x3_s2_0_split
I0403 15:19:57.528718 31484 net.cpp:148] Top shape: 24 480 14 14 (2257920)
I0403 15:19:57.528734 31484 net.cpp:148] Top shape: 24 480 14 14 (2257920)
I0403 15:19:57.528749 31484 net.cpp:148] Top shape: 24 480 14 14 (2257920)
I0403 15:19:57.528765 31484 net.cpp:148] Top shape: 24 480 14 14 (2257920)
I0403 15:19:57.528779 31484 net.cpp:156] Memory required for data: 854397984
I0403 15:19:57.528795 31484 layer_factory.hpp:77] Creating layer inception_4a/1x1
I0403 15:19:57.528816 31484 net.cpp:91] Creating Layer inception_4a/1x1
I0403 15:19:57.528832 31484 net.cpp:425] inception_4a/1x1 <- pool3/3x3_s2_pool3/3x3_s2_0_split_0
I0403 15:19:57.528852 31484 net.cpp:399] inception_4a/1x1 -> inception_4a/1x1
I0403 15:19:57.530438 31484 net.cpp:141] Setting up inception_4a/1x1
I0403 15:19:57.530467 31484 net.cpp:148] Top shape: 24 192 14 14 (903168)
I0403 15:19:57.530483 31484 net.cpp:156] Memory required for data: 858010656
I0403 15:19:57.530501 31484 layer_factory.hpp:77] Creating layer inception_4a/relu_1x1
I0403 15:19:57.530519 31484 net.cpp:91] Creating Layer inception_4a/relu_1x1
I0403 15:19:57.530542 31484 net.cpp:425] inception_4a/relu_1x1 <- inception_4a/1x1
I0403 15:19:57.530563 31484 net.cpp:386] inception_4a/relu_1x1 -> inception_4a/1x1 (in-place)
I0403 15:19:57.530745 31484 net.cpp:141] Setting up inception_4a/relu_1x1
I0403 15:19:57.530769 31484 net.cpp:148] Top shape: 24 192 14 14 (903168)
I0403 15:19:57.530784 31484 net.cpp:156] Memory required for data: 861623328
I0403 15:19:57.530799 31484 layer_factory.hpp:77] Creating layer inception_4a/3x3_reduce
I0403 15:19:57.530822 31484 net.cpp:91] Creating Layer inception_4a/3x3_reduce
I0403 15:19:57.530840 31484 net.cpp:425] inception_4a/3x3_reduce <- pool3/3x3_s2_pool3/3x3_s2_0_split_1
I0403 15:19:57.530861 31484 net.cpp:399] inception_4a/3x3_reduce -> inception_4a/3x3_reduce
I0403 15:19:57.532150 31484 net.cpp:141] Setting up inception_4a/3x3_reduce
I0403 15:19:57.532181 31484 net.cpp:148] Top shape: 24 96 14 14 (451584)
I0403 15:19:57.532197 31484 net.cpp:156] Memory required for data: 863429664
I0403 15:19:57.532225 31484 layer_factory.hpp:77] Creating layer inception_4a/relu_3x3_reduce
I0403 15:19:57.532245 31484 net.cpp:91] Creating Layer inception_4a/relu_3x3_reduce
I0403 15:19:57.532261 31484 net.cpp:425] inception_4a/relu_3x3_reduce <- inception_4a/3x3_reduce
I0403 15:19:57.532279 31484 net.cpp:386] inception_4a/relu_3x3_reduce -> inception_4a/3x3_reduce (in-place)
I0403 15:19:57.532459 31484 net.cpp:141] Setting up inception_4a/relu_3x3_reduce
I0403 15:19:57.532485 31484 net.cpp:148] Top shape: 24 96 14 14 (451584)
I0403 15:19:57.532500 31484 net.cpp:156] Memory required for data: 865236000
I0403 15:19:57.532515 31484 layer_factory.hpp:77] Creating layer inception_4a/3x3
I0403 15:19:57.532541 31484 net.cpp:91] Creating Layer inception_4a/3x3
I0403 15:19:57.532559 31484 net.cpp:425] inception_4a/3x3 <- inception_4a/3x3_reduce
I0403 15:19:57.532582 31484 net.cpp:399] inception_4a/3x3 -> inception_4a/3x3
I0403 15:19:57.535325 31484 net.cpp:141] Setting up inception_4a/3x3
I0403 15:19:57.535353 31484 net.cpp:148] Top shape: 24 208 14 14 (978432)
I0403 15:19:57.535370 31484 net.cpp:156] Memory required for data: 869149728
I0403 15:19:57.535389 31484 layer_factory.hpp:77] Creating layer inception_4a/relu_3x3
I0403 15:19:57.535411 31484 net.cpp:91] Creating Layer inception_4a/relu_3x3
I0403 15:19:57.535429 31484 net.cpp:425] inception_4a/relu_3x3 <- inception_4a/3x3
I0403 15:19:57.535454 31484 net.cpp:386] inception_4a/relu_3x3 -> inception_4a/3x3 (in-place)
I0403 15:19:57.535748 31484 net.cpp:141] Setting up inception_4a/relu_3x3
I0403 15:19:57.535774 31484 net.cpp:148] Top shape: 24 208 14 14 (978432)
I0403 15:19:57.535790 31484 net.cpp:156] Memory required for data: 873063456
I0403 15:19:57.535805 31484 layer_factory.hpp:77] Creating layer inception_4a/5x5_reduce
I0403 15:19:57.535830 31484 net.cpp:91] Creating Layer inception_4a/5x5_reduce
I0403 15:19:57.535846 31484 net.cpp:425] inception_4a/5x5_reduce <- pool3/3x3_s2_pool3/3x3_s2_0_split_2
I0403 15:19:57.535867 31484 net.cpp:399] inception_4a/5x5_reduce -> inception_4a/5x5_reduce
I0403 15:19:57.536903 31484 net.cpp:141] Setting up inception_4a/5x5_reduce
I0403 15:19:57.536931 31484 net.cpp:148] Top shape: 24 16 14 14 (75264)
I0403 15:19:57.536948 31484 net.cpp:156] Memory required for data: 873364512
I0403 15:19:57.536967 31484 layer_factory.hpp:77] Creating layer inception_4a/relu_5x5_reduce
I0403 15:19:57.536988 31484 net.cpp:91] Creating Layer inception_4a/relu_5x5_reduce
I0403 15:19:57.537004 31484 net.cpp:425] inception_4a/relu_5x5_reduce <- inception_4a/5x5_reduce
I0403 15:19:57.537022 31484 net.cpp:386] inception_4a/relu_5x5_reduce -> inception_4a/5x5_reduce (in-place)
I0403 15:19:57.537199 31484 net.cpp:141] Setting up inception_4a/relu_5x5_reduce
I0403 15:19:57.537227 31484 net.cpp:148] Top shape: 24 16 14 14 (75264)
I0403 15:19:57.537243 31484 net.cpp:156] Memory required for data: 873665568
I0403 15:19:57.537258 31484 layer_factory.hpp:77] Creating layer inception_4a/5x5
I0403 15:19:57.537281 31484 net.cpp:91] Creating Layer inception_4a/5x5
I0403 15:19:57.537298 31484 net.cpp:425] inception_4a/5x5 <- inception_4a/5x5_reduce
I0403 15:19:57.537317 31484 net.cpp:399] inception_4a/5x5 -> inception_4a/5x5
I0403 15:19:57.538421 31484 net.cpp:141] Setting up inception_4a/5x5
I0403 15:19:57.538451 31484 net.cpp:148] Top shape: 24 48 14 14 (225792)
I0403 15:19:57.538467 31484 net.cpp:156] Memory required for data: 874568736
I0403 15:19:57.538487 31484 layer_factory.hpp:77] Creating layer inception_4a/relu_5x5
I0403 15:19:57.538506 31484 net.cpp:91] Creating Layer inception_4a/relu_5x5
I0403 15:19:57.538522 31484 net.cpp:425] inception_4a/relu_5x5 <- inception_4a/5x5
I0403 15:19:57.538547 31484 net.cpp:386] inception_4a/relu_5x5 -> inception_4a/5x5 (in-place)
I0403 15:19:57.538728 31484 net.cpp:141] Setting up inception_4a/relu_5x5
I0403 15:19:57.538754 31484 net.cpp:148] Top shape: 24 48 14 14 (225792)
I0403 15:19:57.538769 31484 net.cpp:156] Memory required for data: 875471904
I0403 15:19:57.538784 31484 layer_factory.hpp:77] Creating layer inception_4a/pool
I0403 15:19:57.538803 31484 net.cpp:91] Creating Layer inception_4a/pool
I0403 15:19:57.538818 31484 net.cpp:425] inception_4a/pool <- pool3/3x3_s2_pool3/3x3_s2_0_split_3
I0403 15:19:57.538838 31484 net.cpp:399] inception_4a/pool -> inception_4a/pool
I0403 15:19:57.538902 31484 net.cpp:141] Setting up inception_4a/pool
I0403 15:19:57.538925 31484 net.cpp:148] Top shape: 24 480 14 14 (2257920)
I0403 15:19:57.538940 31484 net.cpp:156] Memory required for data: 884503584
I0403 15:19:57.538955 31484 layer_factory.hpp:77] Creating layer inception_4a/pool_proj
I0403 15:19:57.538981 31484 net.cpp:91] Creating Layer inception_4a/pool_proj
I0403 15:19:57.538998 31484 net.cpp:425] inception_4a/pool_proj <- inception_4a/pool
I0403 15:19:57.539017 31484 net.cpp:399] inception_4a/pool_proj -> inception_4a/pool_proj
I0403 15:19:57.540199 31484 net.cpp:141] Setting up inception_4a/pool_proj
I0403 15:19:57.540230 31484 net.cpp:148] Top shape: 24 64 14 14 (301056)
I0403 15:19:57.540261 31484 net.cpp:156] Memory required for data: 885707808
I0403 15:19:57.540282 31484 layer_factory.hpp:77] Creating layer inception_4a/relu_pool_proj
I0403 15:19:57.540299 31484 net.cpp:91] Creating Layer inception_4a/relu_pool_proj
I0403 15:19:57.540315 31484 net.cpp:425] inception_4a/relu_pool_proj <- inception_4a/pool_proj
I0403 15:19:57.540336 31484 net.cpp:386] inception_4a/relu_pool_proj -> inception_4a/pool_proj (in-place)
I0403 15:19:57.540624 31484 net.cpp:141] Setting up inception_4a/relu_pool_proj
I0403 15:19:57.540654 31484 net.cpp:148] Top shape: 24 64 14 14 (301056)
I0403 15:19:57.540670 31484 net.cpp:156] Memory required for data: 886912032
I0403 15:19:57.540688 31484 layer_factory.hpp:77] Creating layer inception_4a/output
I0403 15:19:57.540706 31484 net.cpp:91] Creating Layer inception_4a/output
I0403 15:19:57.540722 31484 net.cpp:425] inception_4a/output <- inception_4a/1x1
I0403 15:19:57.540740 31484 net.cpp:425] inception_4a/output <- inception_4a/3x3
I0403 15:19:57.540756 31484 net.cpp:425] inception_4a/output <- inception_4a/5x5
I0403 15:19:57.540772 31484 net.cpp:425] inception_4a/output <- inception_4a/pool_proj
I0403 15:19:57.540791 31484 net.cpp:399] inception_4a/output -> inception_4a/output
I0403 15:19:57.540837 31484 net.cpp:141] Setting up inception_4a/output
I0403 15:19:57.540860 31484 net.cpp:148] Top shape: 24 512 14 14 (2408448)
I0403 15:19:57.540875 31484 net.cpp:156] Memory required for data: 896545824
I0403 15:19:57.540889 31484 layer_factory.hpp:77] Creating layer inception_4a/output_inception_4a/output_0_split
I0403 15:19:57.540910 31484 net.cpp:91] Creating Layer inception_4a/output_inception_4a/output_0_split
I0403 15:19:57.540926 31484 net.cpp:425] inception_4a/output_inception_4a/output_0_split <- inception_4a/output
I0403 15:19:57.540945 31484 net.cpp:399] inception_4a/output_inception_4a/output_0_split -> inception_4a/output_inception_4a/output_0_split_0
I0403 15:19:57.540967 31484 net.cpp:399] inception_4a/output_inception_4a/output_0_split -> inception_4a/output_inception_4a/output_0_split_1
I0403 15:19:57.540988 31484 net.cpp:399] inception_4a/output_inception_4a/output_0_split -> inception_4a/output_inception_4a/output_0_split_2
I0403 15:19:57.541009 31484 net.cpp:399] inception_4a/output_inception_4a/output_0_split -> inception_4a/output_inception_4a/output_0_split_3
I0403 15:19:57.541028 31484 net.cpp:399] inception_4a/output_inception_4a/output_0_split -> inception_4a/output_inception_4a/output_0_split_4
I0403 15:19:57.541123 31484 net.cpp:141] Setting up inception_4a/output_inception_4a/output_0_split
I0403 15:19:57.541146 31484 net.cpp:148] Top shape: 24 512 14 14 (2408448)
I0403 15:19:57.541163 31484 net.cpp:148] Top shape: 24 512 14 14 (2408448)
I0403 15:19:57.541179 31484 net.cpp:148] Top shape: 24 512 14 14 (2408448)
I0403 15:19:57.541194 31484 net.cpp:148] Top shape: 24 512 14 14 (2408448)
I0403 15:19:57.541210 31484 net.cpp:148] Top shape: 24 512 14 14 (2408448)
I0403 15:19:57.541224 31484 net.cpp:156] Memory required for data: 944714784
I0403 15:19:57.541239 31484 layer_factory.hpp:77] Creating layer loss1/ave_pool
I0403 15:19:57.541259 31484 net.cpp:91] Creating Layer loss1/ave_pool
I0403 15:19:57.541275 31484 net.cpp:425] loss1/ave_pool <- inception_4a/output_inception_4a/output_0_split_0
I0403 15:19:57.541301 31484 net.cpp:399] loss1/ave_pool -> loss1/ave_pool
I0403 15:19:57.541509 31484 net.cpp:141] Setting up loss1/ave_pool
I0403 15:19:57.541541 31484 net.cpp:148] Top shape: 24 512 4 4 (196608)
I0403 15:19:57.541558 31484 net.cpp:156] Memory required for data: 945501216
I0403 15:19:57.541576 31484 layer_factory.hpp:77] Creating layer loss1/conv
I0403 15:19:57.541599 31484 net.cpp:91] Creating Layer loss1/conv
I0403 15:19:57.541616 31484 net.cpp:425] loss1/conv <- loss1/ave_pool
I0403 15:19:57.541637 31484 net.cpp:399] loss1/conv -> loss1/conv
I0403 15:19:57.543072 31484 net.cpp:141] Setting up loss1/conv
I0403 15:19:57.543102 31484 net.cpp:148] Top shape: 24 128 4 4 (49152)
I0403 15:19:57.543133 31484 net.cpp:156] Memory required for data: 945697824
I0403 15:19:57.543151 31484 layer_factory.hpp:77] Creating layer loss1/relu_conv
I0403 15:19:57.543172 31484 net.cpp:91] Creating Layer loss1/relu_conv
I0403 15:19:57.543190 31484 net.cpp:425] loss1/relu_conv <- loss1/conv
I0403 15:19:57.543207 31484 net.cpp:386] loss1/relu_conv -> loss1/conv (in-place)
I0403 15:19:57.543491 31484 net.cpp:141] Setting up loss1/relu_conv
I0403 15:19:57.543519 31484 net.cpp:148] Top shape: 24 128 4 4 (49152)
I0403 15:19:57.543537 31484 net.cpp:156] Memory required for data: 945894432
I0403 15:19:57.543553 31484 layer_factory.hpp:77] Creating layer loss1/fc
I0403 15:19:57.543582 31484 net.cpp:91] Creating Layer loss1/fc
I0403 15:19:57.543601 31484 net.cpp:425] loss1/fc <- loss1/conv
I0403 15:19:57.543619 31484 net.cpp:399] loss1/fc -> loss1/fc
I0403 15:19:57.561472 31484 net.cpp:141] Setting up loss1/fc
I0403 15:19:57.561511 31484 net.cpp:148] Top shape: 24 1024 (24576)
I0403 15:19:57.561527 31484 net.cpp:156] Memory required for data: 945992736
I0403 15:19:57.561552 31484 layer_factory.hpp:77] Creating layer loss1/relu_fc
I0403 15:19:57.561573 31484 net.cpp:91] Creating Layer loss1/relu_fc
I0403 15:19:57.561589 31484 net.cpp:425] loss1/relu_fc <- loss1/fc
I0403 15:19:57.561607 31484 net.cpp:386] loss1/relu_fc -> loss1/fc (in-place)
I0403 15:19:57.561789 31484 net.cpp:141] Setting up loss1/relu_fc
I0403 15:19:57.561815 31484 net.cpp:148] Top shape: 24 1024 (24576)
I0403 15:19:57.561830 31484 net.cpp:156] Memory required for data: 946091040
I0403 15:19:57.561844 31484 layer_factory.hpp:77] Creating layer loss1/drop_fc
I0403 15:19:57.561869 31484 net.cpp:91] Creating Layer loss1/drop_fc
I0403 15:19:57.561887 31484 net.cpp:425] loss1/drop_fc <- loss1/fc
I0403 15:19:57.561907 31484 net.cpp:386] loss1/drop_fc -> loss1/fc (in-place)
I0403 15:19:57.561959 31484 net.cpp:141] Setting up loss1/drop_fc
I0403 15:19:57.561983 31484 net.cpp:148] Top shape: 24 1024 (24576)
I0403 15:19:57.562000 31484 net.cpp:156] Memory required for data: 946189344
I0403 15:19:57.562016 31484 layer_factory.hpp:77] Creating layer loss1/classifier_plantvillage
I0403 15:19:57.562033 31484 net.cpp:91] Creating Layer loss1/classifier_plantvillage
I0403 15:19:57.562049 31484 net.cpp:425] loss1/classifier_plantvillage <- loss1/fc
I0403 15:19:57.562070 31484 net.cpp:399] loss1/classifier_plantvillage -> loss1/classifier_plantvillage
I0403 15:19:57.562978 31484 net.cpp:141] Setting up loss1/classifier_plantvillage
I0403 15:19:57.563005 31484 net.cpp:148] Top shape: 24 38 (912)
I0403 15:19:57.563020 31484 net.cpp:156] Memory required for data: 946192992
I0403 15:19:57.563038 31484 layer_factory.hpp:77] Creating layer loss1/classifier_plantvillage_loss1/classifier_plantvillage_0_split
I0403 15:19:57.563056 31484 net.cpp:91] Creating Layer loss1/classifier_plantvillage_loss1/classifier_plantvillage_0_split
I0403 15:19:57.563071 31484 net.cpp:425] loss1/classifier_plantvillage_loss1/classifier_plantvillage_0_split <- loss1/classifier_plantvillage
I0403 15:19:57.563091 31484 net.cpp:399] loss1/classifier_plantvillage_loss1/classifier_plantvillage_0_split -> loss1/classifier_plantvillage_loss1/classifier_plantvillage_0_split_0
I0403 15:19:57.563112 31484 net.cpp:399] loss1/classifier_plantvillage_loss1/classifier_plantvillage_0_split -> loss1/classifier_plantvillage_loss1/classifier_plantvillage_0_split_1
I0403 15:19:57.563133 31484 net.cpp:399] loss1/classifier_plantvillage_loss1/classifier_plantvillage_0_split -> loss1/classifier_plantvillage_loss1/classifier_plantvillage_0_split_2
I0403 15:19:57.563200 31484 net.cpp:141] Setting up loss1/classifier_plantvillage_loss1/classifier_plantvillage_0_split
I0403 15:19:57.563222 31484 net.cpp:148] Top shape: 24 38 (912)
I0403 15:19:57.563240 31484 net.cpp:148] Top shape: 24 38 (912)
I0403 15:19:57.563254 31484 net.cpp:148] Top shape: 24 38 (912)
I0403 15:19:57.563267 31484 net.cpp:156] Memory required for data: 946203936
I0403 15:19:57.563282 31484 layer_factory.hpp:77] Creating layer inception_4b/1x1
I0403 15:19:57.563303 31484 net.cpp:91] Creating Layer inception_4b/1x1
I0403 15:19:57.563339 31484 net.cpp:425] inception_4b/1x1 <- inception_4a/output_inception_4a/output_0_split_1
I0403 15:19:57.563359 31484 net.cpp:399] inception_4b/1x1 -> inception_4b/1x1
I0403 15:19:57.564995 31484 net.cpp:141] Setting up inception_4b/1x1
I0403 15:19:57.565023 31484 net.cpp:148] Top shape: 24 160 14 14 (752640)
I0403 15:19:57.565047 31484 net.cpp:156] Memory required for data: 949214496
I0403 15:19:57.565065 31484 layer_factory.hpp:77] Creating layer inception_4b/relu_1x1
I0403 15:19:57.565085 31484 net.cpp:91] Creating Layer inception_4b/relu_1x1
I0403 15:19:57.565101 31484 net.cpp:425] inception_4b/relu_1x1 <- inception_4b/1x1
I0403 15:19:57.565119 31484 net.cpp:386] inception_4b/relu_1x1 -> inception_4b/1x1 (in-place)
I0403 15:19:57.565294 31484 net.cpp:141] Setting up inception_4b/relu_1x1
I0403 15:19:57.565320 31484 net.cpp:148] Top shape: 24 160 14 14 (752640)
I0403 15:19:57.565335 31484 net.cpp:156] Memory required for data: 952225056
I0403 15:19:57.565351 31484 layer_factory.hpp:77] Creating layer inception_4b/3x3_reduce
I0403 15:19:57.565374 31484 net.cpp:91] Creating Layer inception_4b/3x3_reduce
I0403 15:19:57.565392 31484 net.cpp:425] inception_4b/3x3_reduce <- inception_4a/output_inception_4a/output_0_split_2
I0403 15:19:57.565412 31484 net.cpp:399] inception_4b/3x3_reduce -> inception_4b/3x3_reduce
I0403 15:19:57.566756 31484 net.cpp:141] Setting up inception_4b/3x3_reduce
I0403 15:19:57.566787 31484 net.cpp:148] Top shape: 24 112 14 14 (526848)
I0403 15:19:57.566803 31484 net.cpp:156] Memory required for data: 954332448
I0403 15:19:57.566822 31484 layer_factory.hpp:77] Creating layer inception_4b/relu_3x3_reduce
I0403 15:19:57.566840 31484 net.cpp:91] Creating Layer inception_4b/relu_3x3_reduce
I0403 15:19:57.566855 31484 net.cpp:425] inception_4b/relu_3x3_reduce <- inception_4b/3x3_reduce
I0403 15:19:57.566874 31484 net.cpp:386] inception_4b/relu_3x3_reduce -> inception_4b/3x3_reduce (in-place)
I0403 15:19:57.567153 31484 net.cpp:141] Setting up inception_4b/relu_3x3_reduce
I0403 15:19:57.567181 31484 net.cpp:148] Top shape: 24 112 14 14 (526848)
I0403 15:19:57.567198 31484 net.cpp:156] Memory required for data: 956439840
I0403 15:19:57.567212 31484 layer_factory.hpp:77] Creating layer inception_4b/3x3
I0403 15:19:57.567234 31484 net.cpp:91] Creating Layer inception_4b/3x3
I0403 15:19:57.567251 31484 net.cpp:425] inception_4b/3x3 <- inception_4b/3x3_reduce
I0403 15:19:57.567270 31484 net.cpp:399] inception_4b/3x3 -> inception_4b/3x3
I0403 15:19:57.570238 31484 net.cpp:141] Setting up inception_4b/3x3
I0403 15:19:57.570266 31484 net.cpp:148] Top shape: 24 224 14 14 (1053696)
I0403 15:19:57.570282 31484 net.cpp:156] Memory required for data: 960654624
I0403 15:19:57.570300 31484 layer_factory.hpp:77] Creating layer inception_4b/relu_3x3
I0403 15:19:57.570318 31484 net.cpp:91] Creating Layer inception_4b/relu_3x3
I0403 15:19:57.570334 31484 net.cpp:425] inception_4b/relu_3x3 <- inception_4b/3x3
I0403 15:19:57.570354 31484 net.cpp:386] inception_4b/relu_3x3 -> inception_4b/3x3 (in-place)
I0403 15:19:57.570536 31484 net.cpp:141] Setting up inception_4b/relu_3x3
I0403 15:19:57.570561 31484 net.cpp:148] Top shape: 24 224 14 14 (1053696)
I0403 15:19:57.570577 31484 net.cpp:156] Memory required for data: 964869408
I0403 15:19:57.570592 31484 layer_factory.hpp:77] Creating layer inception_4b/5x5_reduce
I0403 15:19:57.570617 31484 net.cpp:91] Creating Layer inception_4b/5x5_reduce
I0403 15:19:57.570636 31484 net.cpp:425] inception_4b/5x5_reduce <- inception_4a/output_inception_4a/output_0_split_3
I0403 15:19:57.570657 31484 net.cpp:399] inception_4b/5x5_reduce -> inception_4b/5x5_reduce
I0403 15:19:57.571727 31484 net.cpp:141] Setting up inception_4b/5x5_reduce
I0403 15:19:57.571755 31484 net.cpp:148] Top shape: 24 24 14 14 (112896)
I0403 15:19:57.571770 31484 net.cpp:156] Memory required for data: 965320992
I0403 15:19:57.571789 31484 layer_factory.hpp:77] Creating layer inception_4b/relu_5x5_reduce
I0403 15:19:57.571810 31484 net.cpp:91] Creating Layer inception_4b/relu_5x5_reduce
I0403 15:19:57.571840 31484 net.cpp:425] inception_4b/relu_5x5_reduce <- inception_4b/5x5_reduce
I0403 15:19:57.571857 31484 net.cpp:386] inception_4b/relu_5x5_reduce -> inception_4b/5x5_reduce (in-place)
I0403 15:19:57.572037 31484 net.cpp:141] Setting up inception_4b/relu_5x5_reduce
I0403 15:19:57.572064 31484 net.cpp:148] Top shape: 24 24 14 14 (112896)
I0403 15:19:57.572078 31484 net.cpp:156] Memory required for data: 965772576
I0403 15:19:57.572093 31484 layer_factory.hpp:77] Creating layer inception_4b/5x5
I0403 15:19:57.572115 31484 net.cpp:91] Creating Layer inception_4b/5x5
I0403 15:19:57.572134 31484 net.cpp:425] inception_4b/5x5 <- inception_4b/5x5_reduce
I0403 15:19:57.572151 31484 net.cpp:399] inception_4b/5x5 -> inception_4b/5x5
I0403 15:19:57.573375 31484 net.cpp:141] Setting up inception_4b/5x5
I0403 15:19:57.573402 31484 net.cpp:148] Top shape: 24 64 14 14 (301056)
I0403 15:19:57.573418 31484 net.cpp:156] Memory required for data: 966976800
I0403 15:19:57.573437 31484 layer_factory.hpp:77] Creating layer inception_4b/relu_5x5
I0403 15:19:57.573457 31484 net.cpp:91] Creating Layer inception_4b/relu_5x5
I0403 15:19:57.573472 31484 net.cpp:425] inception_4b/relu_5x5 <- inception_4b/5x5
I0403 15:19:57.573489 31484 net.cpp:386] inception_4b/relu_5x5 -> inception_4b/5x5 (in-place)
I0403 15:19:57.573776 31484 net.cpp:141] Setting up inception_4b/relu_5x5
I0403 15:19:57.573801 31484 net.cpp:148] Top shape: 24 64 14 14 (301056)
I0403 15:19:57.573817 31484 net.cpp:156] Memory required for data: 968181024
I0403 15:19:57.573832 31484 layer_factory.hpp:77] Creating layer inception_4b/pool
I0403 15:19:57.573853 31484 net.cpp:91] Creating Layer inception_4b/pool
I0403 15:19:57.573868 31484 net.cpp:425] inception_4b/pool <- inception_4a/output_inception_4a/output_0_split_4
I0403 15:19:57.573886 31484 net.cpp:399] inception_4b/pool -> inception_4b/pool
I0403 15:19:57.573953 31484 net.cpp:141] Setting up inception_4b/pool
I0403 15:19:57.573977 31484 net.cpp:148] Top shape: 24 512 14 14 (2408448)
I0403 15:19:57.573992 31484 net.cpp:156] Memory required for data: 977814816
I0403 15:19:57.574007 31484 layer_factory.hpp:77] Creating layer inception_4b/pool_proj
I0403 15:19:57.574028 31484 net.cpp:91] Creating Layer inception_4b/pool_proj
I0403 15:19:57.574044 31484 net.cpp:425] inception_4b/pool_proj <- inception_4b/pool
I0403 15:19:57.574065 31484 net.cpp:399] inception_4b/pool_proj -> inception_4b/pool_proj
I0403 15:19:57.575265 31484 net.cpp:141] Setting up inception_4b/pool_proj
I0403 15:19:57.575292 31484 net.cpp:148] Top shape: 24 64 14 14 (301056)
I0403 15:19:57.575309 31484 net.cpp:156] Memory required for data: 979019040
I0403 15:19:57.575325 31484 layer_factory.hpp:77] Creating layer inception_4b/relu_pool_proj
I0403 15:19:57.575346 31484 net.cpp:91] Creating Layer inception_4b/relu_pool_proj
I0403 15:19:57.575362 31484 net.cpp:425] inception_4b/relu_pool_proj <- inception_4b/pool_proj
I0403 15:19:57.575381 31484 net.cpp:386] inception_4b/relu_pool_proj -> inception_4b/pool_proj (in-place)
I0403 15:19:57.575594 31484 net.cpp:141] Setting up inception_4b/relu_pool_proj
I0403 15:19:57.575623 31484 net.cpp:148] Top shape: 24 64 14 14 (301056)
I0403 15:19:57.575637 31484 net.cpp:156] Memory required for data: 980223264
I0403 15:19:57.575652 31484 layer_factory.hpp:77] Creating layer inception_4b/output
I0403 15:19:57.575670 31484 net.cpp:91] Creating Layer inception_4b/output
I0403 15:19:57.575698 31484 net.cpp:425] inception_4b/output <- inception_4b/1x1
I0403 15:19:57.575714 31484 net.cpp:425] inception_4b/output <- inception_4b/3x3
I0403 15:19:57.575731 31484 net.cpp:425] inception_4b/output <- inception_4b/5x5
I0403 15:19:57.575745 31484 net.cpp:425] inception_4b/output <- inception_4b/pool_proj
I0403 15:19:57.575762 31484 net.cpp:399] inception_4b/output -> inception_4b/output
I0403 15:19:57.575809 31484 net.cpp:141] Setting up inception_4b/output
I0403 15:19:57.575832 31484 net.cpp:148] Top shape: 24 512 14 14 (2408448)
I0403 15:19:57.575847 31484 net.cpp:156] Memory required for data: 989857056
I0403 15:19:57.575886 31484 layer_factory.hpp:77] Creating layer inception_4b/output_inception_4b/output_0_split
I0403 15:19:57.575906 31484 net.cpp:91] Creating Layer inception_4b/output_inception_4b/output_0_split
I0403 15:19:57.575922 31484 net.cpp:425] inception_4b/output_inception_4b/output_0_split <- inception_4b/output
I0403 15:19:57.575939 31484 net.cpp:399] inception_4b/output_inception_4b/output_0_split -> inception_4b/output_inception_4b/output_0_split_0
I0403 15:19:57.575960 31484 net.cpp:399] inception_4b/output_inception_4b/output_0_split -> inception_4b/output_inception_4b/output_0_split_1
I0403 15:19:57.575980 31484 net.cpp:399] inception_4b/output_inception_4b/output_0_split -> inception_4b/output_inception_4b/output_0_split_2
I0403 15:19:57.576004 31484 net.cpp:399] inception_4b/output_inception_4b/output_0_split -> inception_4b/output_inception_4b/output_0_split_3
I0403 15:19:57.576089 31484 net.cpp:141] Setting up inception_4b/output_inception_4b/output_0_split
I0403 15:19:57.576112 31484 net.cpp:148] Top shape: 24 512 14 14 (2408448)
I0403 15:19:57.576128 31484 net.cpp:148] Top shape: 24 512 14 14 (2408448)
I0403 15:19:57.576144 31484 net.cpp:148] Top shape: 24 512 14 14 (2408448)
I0403 15:19:57.576159 31484 net.cpp:148] Top shape: 24 512 14 14 (2408448)
I0403 15:19:57.576174 31484 net.cpp:156] Memory required for data: 1028392224
I0403 15:19:57.576189 31484 layer_factory.hpp:77] Creating layer inception_4c/1x1
I0403 15:19:57.576210 31484 net.cpp:91] Creating Layer inception_4c/1x1
I0403 15:19:57.576226 31484 net.cpp:425] inception_4c/1x1 <- inception_4b/output_inception_4b/output_0_split_0
I0403 15:19:57.576246 31484 net.cpp:399] inception_4c/1x1 -> inception_4c/1x1
I0403 15:19:57.577675 31484 net.cpp:141] Setting up inception_4c/1x1
I0403 15:19:57.577703 31484 net.cpp:148] Top shape: 24 128 14 14 (602112)
I0403 15:19:57.577719 31484 net.cpp:156] Memory required for data: 1030800672
I0403 15:19:57.577738 31484 layer_factory.hpp:77] Creating layer inception_4c/relu_1x1
I0403 15:19:57.577755 31484 net.cpp:91] Creating Layer inception_4c/relu_1x1
I0403 15:19:57.577769 31484 net.cpp:425] inception_4c/relu_1x1 <- inception_4c/1x1
I0403 15:19:57.577791 31484 net.cpp:386] inception_4c/relu_1x1 -> inception_4c/1x1 (in-place)
I0403 15:19:57.577971 31484 net.cpp:141] Setting up inception_4c/relu_1x1
I0403 15:19:57.577996 31484 net.cpp:148] Top shape: 24 128 14 14 (602112)
I0403 15:19:57.578009 31484 net.cpp:156] Memory required for data: 1033209120
I0403 15:19:57.578024 31484 layer_factory.hpp:77] Creating layer inception_4c/3x3_reduce
I0403 15:19:57.578047 31484 net.cpp:91] Creating Layer inception_4c/3x3_reduce
I0403 15:19:57.578063 31484 net.cpp:425] inception_4c/3x3_reduce <- inception_4b/output_inception_4b/output_0_split_1
I0403 15:19:57.578084 31484 net.cpp:399] inception_4c/3x3_reduce -> inception_4c/3x3_reduce
I0403 15:19:57.580039 31484 net.cpp:141] Setting up inception_4c/3x3_reduce
I0403 15:19:57.580066 31484 net.cpp:148] Top shape: 24 128 14 14 (602112)
I0403 15:19:57.580082 31484 net.cpp:156] Memory required for data: 1035617568
I0403 15:19:57.580101 31484 layer_factory.hpp:77] Creating layer inception_4c/relu_3x3_reduce
I0403 15:19:57.580121 31484 net.cpp:91] Creating Layer inception_4c/relu_3x3_reduce
I0403 15:19:57.580138 31484 net.cpp:425] inception_4c/relu_3x3_reduce <- inception_4c/3x3_reduce
I0403 15:19:57.580155 31484 net.cpp:386] inception_4c/relu_3x3_reduce -> inception_4c/3x3_reduce (in-place)
I0403 15:19:57.580441 31484 net.cpp:141] Setting up inception_4c/relu_3x3_reduce
I0403 15:19:57.580467 31484 net.cpp:148] Top shape: 24 128 14 14 (602112)
I0403 15:19:57.580482 31484 net.cpp:156] Memory required for data: 1038026016
I0403 15:19:57.580497 31484 layer_factory.hpp:77] Creating layer inception_4c/3x3
I0403 15:19:57.580520 31484 net.cpp:91] Creating Layer inception_4c/3x3
I0403 15:19:57.580543 31484 net.cpp:425] inception_4c/3x3 <- inception_4c/3x3_reduce
I0403 15:19:57.580565 31484 net.cpp:399] inception_4c/3x3 -> inception_4c/3x3
I0403 15:19:57.584203 31484 net.cpp:141] Setting up inception_4c/3x3
I0403 15:19:57.584244 31484 net.cpp:148] Top shape: 24 256 14 14 (1204224)
I0403 15:19:57.584260 31484 net.cpp:156] Memory required for data: 1042842912
I0403 15:19:57.584291 31484 layer_factory.hpp:77] Creating layer inception_4c/relu_3x3
I0403 15:19:57.584314 31484 net.cpp:91] Creating Layer inception_4c/relu_3x3
I0403 15:19:57.584331 31484 net.cpp:425] inception_4c/relu_3x3 <- inception_4c/3x3
I0403 15:19:57.584347 31484 net.cpp:386] inception_4c/relu_3x3 -> inception_4c/3x3 (in-place)
I0403 15:19:57.584527 31484 net.cpp:141] Setting up inception_4c/relu_3x3
I0403 15:19:57.584561 31484 net.cpp:148] Top shape: 24 256 14 14 (1204224)
I0403 15:19:57.584578 31484 net.cpp:156] Memory required for data: 1047659808
I0403 15:19:57.584592 31484 layer_factory.hpp:77] Creating layer inception_4c/5x5_reduce
I0403 15:19:57.584614 31484 net.cpp:91] Creating Layer inception_4c/5x5_reduce
I0403 15:19:57.584631 31484 net.cpp:425] inception_4c/5x5_reduce <- inception_4b/output_inception_4b/output_0_split_2
I0403 15:19:57.584653 31484 net.cpp:399] inception_4c/5x5_reduce -> inception_4c/5x5_reduce
I0403 15:19:57.585741 31484 net.cpp:141] Setting up inception_4c/5x5_reduce
I0403 15:19:57.585767 31484 net.cpp:148] Top shape: 24 24 14 14 (112896)
I0403 15:19:57.585783 31484 net.cpp:156] Memory required for data: 1048111392
I0403 15:19:57.585803 31484 layer_factory.hpp:77] Creating layer inception_4c/relu_5x5_reduce
I0403 15:19:57.585821 31484 net.cpp:91] Creating Layer inception_4c/relu_5x5_reduce
I0403 15:19:57.585837 31484 net.cpp:425] inception_4c/relu_5x5_reduce <- inception_4c/5x5_reduce
I0403 15:19:57.585855 31484 net.cpp:386] inception_4c/relu_5x5_reduce -> inception_4c/5x5_reduce (in-place)
I0403 15:19:57.586041 31484 net.cpp:141] Setting up inception_4c/relu_5x5_reduce
I0403 15:19:57.586067 31484 net.cpp:148] Top shape: 24 24 14 14 (112896)
I0403 15:19:57.586083 31484 net.cpp:156] Memory required for data: 1048562976
I0403 15:19:57.586098 31484 layer_factory.hpp:77] Creating layer inception_4c/5x5
I0403 15:19:57.586122 31484 net.cpp:91] Creating Layer inception_4c/5x5
I0403 15:19:57.586138 31484 net.cpp:425] inception_4c/5x5 <- inception_4c/5x5_reduce
I0403 15:19:57.586156 31484 net.cpp:399] inception_4c/5x5 -> inception_4c/5x5
I0403 15:19:57.587393 31484 net.cpp:141] Setting up inception_4c/5x5
I0403 15:19:57.587424 31484 net.cpp:148] Top shape: 24 64 14 14 (301056)
I0403 15:19:57.587440 31484 net.cpp:156] Memory required for data: 1049767200
I0403 15:19:57.587458 31484 layer_factory.hpp:77] Creating layer inception_4c/relu_5x5
I0403 15:19:57.587476 31484 net.cpp:91] Creating Layer inception_4c/relu_5x5
I0403 15:19:57.587492 31484 net.cpp:425] inception_4c/relu_5x5 <- inception_4c/5x5
I0403 15:19:57.587510 31484 net.cpp:386] inception_4c/relu_5x5 -> inception_4c/5x5 (in-place)
I0403 15:19:57.587800 31484 net.cpp:141] Setting up inception_4c/relu_5x5
I0403 15:19:57.587829 31484 net.cpp:148] Top shape: 24 64 14 14 (301056)
I0403 15:19:57.587844 31484 net.cpp:156] Memory required for data: 1050971424
I0403 15:19:57.587859 31484 layer_factory.hpp:77] Creating layer inception_4c/pool
I0403 15:19:57.587877 31484 net.cpp:91] Creating Layer inception_4c/pool
I0403 15:19:57.587893 31484 net.cpp:425] inception_4c/pool <- inception_4b/output_inception_4b/output_0_split_3
I0403 15:19:57.587913 31484 net.cpp:399] inception_4c/pool -> inception_4c/pool
I0403 15:19:57.587977 31484 net.cpp:141] Setting up inception_4c/pool
I0403 15:19:57.588001 31484 net.cpp:148] Top shape: 24 512 14 14 (2408448)
I0403 15:19:57.588016 31484 net.cpp:156] Memory required for data: 1060605216
I0403 15:19:57.588029 31484 layer_factory.hpp:77] Creating layer inception_4c/pool_proj
I0403 15:19:57.588053 31484 net.cpp:91] Creating Layer inception_4c/pool_proj
I0403 15:19:57.588070 31484 net.cpp:425] inception_4c/pool_proj <- inception_4c/pool
I0403 15:19:57.588089 31484 net.cpp:399] inception_4c/pool_proj -> inception_4c/pool_proj
I0403 15:19:57.589308 31484 net.cpp:141] Setting up inception_4c/pool_proj
I0403 15:19:57.589336 31484 net.cpp:148] Top shape: 24 64 14 14 (301056)
I0403 15:19:57.589365 31484 net.cpp:156] Memory required for data: 1061809440
I0403 15:19:57.589385 31484 layer_factory.hpp:77] Creating layer inception_4c/relu_pool_proj
I0403 15:19:57.589406 31484 net.cpp:91] Creating Layer inception_4c/relu_pool_proj
I0403 15:19:57.589423 31484 net.cpp:425] inception_4c/relu_pool_proj <- inception_4c/pool_proj
I0403 15:19:57.589440 31484 net.cpp:386] inception_4c/relu_pool_proj -> inception_4c/pool_proj (in-place)
I0403 15:19:57.589628 31484 net.cpp:141] Setting up inception_4c/relu_pool_proj
I0403 15:19:57.589655 31484 net.cpp:148] Top shape: 24 64 14 14 (301056)
I0403 15:19:57.589671 31484 net.cpp:156] Memory required for data: 1063013664
I0403 15:19:57.589685 31484 layer_factory.hpp:77] Creating layer inception_4c/output
I0403 15:19:57.589702 31484 net.cpp:91] Creating Layer inception_4c/output
I0403 15:19:57.589717 31484 net.cpp:425] inception_4c/output <- inception_4c/1x1
I0403 15:19:57.589733 31484 net.cpp:425] inception_4c/output <- inception_4c/3x3
I0403 15:19:57.589750 31484 net.cpp:425] inception_4c/output <- inception_4c/5x5
I0403 15:19:57.589764 31484 net.cpp:425] inception_4c/output <- inception_4c/pool_proj
I0403 15:19:57.589781 31484 net.cpp:399] inception_4c/output -> inception_4c/output
I0403 15:19:57.589829 31484 net.cpp:141] Setting up inception_4c/output
I0403 15:19:57.589853 31484 net.cpp:148] Top shape: 24 512 14 14 (2408448)
I0403 15:19:57.589865 31484 net.cpp:156] Memory required for data: 1072647456
I0403 15:19:57.589879 31484 layer_factory.hpp:77] Creating layer inception_4c/output_inception_4c/output_0_split
I0403 15:19:57.589897 31484 net.cpp:91] Creating Layer inception_4c/output_inception_4c/output_0_split
I0403 15:19:57.589913 31484 net.cpp:425] inception_4c/output_inception_4c/output_0_split <- inception_4c/output
I0403 15:19:57.589929 31484 net.cpp:399] inception_4c/output_inception_4c/output_0_split -> inception_4c/output_inception_4c/output_0_split_0
I0403 15:19:57.589949 31484 net.cpp:399] inception_4c/output_inception_4c/output_0_split -> inception_4c/output_inception_4c/output_0_split_1
I0403 15:19:57.589969 31484 net.cpp:399] inception_4c/output_inception_4c/output_0_split -> inception_4c/output_inception_4c/output_0_split_2
I0403 15:19:57.589988 31484 net.cpp:399] inception_4c/output_inception_4c/output_0_split -> inception_4c/output_inception_4c/output_0_split_3
I0403 15:19:57.590075 31484 net.cpp:141] Setting up inception_4c/output_inception_4c/output_0_split
I0403 15:19:57.590098 31484 net.cpp:148] Top shape: 24 512 14 14 (2408448)
I0403 15:19:57.590114 31484 net.cpp:148] Top shape: 24 512 14 14 (2408448)
I0403 15:19:57.590131 31484 net.cpp:148] Top shape: 24 512 14 14 (2408448)
I0403 15:19:57.590145 31484 net.cpp:148] Top shape: 24 512 14 14 (2408448)
I0403 15:19:57.590159 31484 net.cpp:156] Memory required for data: 1111182624
I0403 15:19:57.590173 31484 layer_factory.hpp:77] Creating layer inception_4d/1x1
I0403 15:19:57.590194 31484 net.cpp:91] Creating Layer inception_4d/1x1
I0403 15:19:57.590211 31484 net.cpp:425] inception_4d/1x1 <- inception_4c/output_inception_4c/output_0_split_0
I0403 15:19:57.590232 31484 net.cpp:399] inception_4d/1x1 -> inception_4d/1x1
I0403 15:19:57.591616 31484 net.cpp:141] Setting up inception_4d/1x1
I0403 15:19:57.591645 31484 net.cpp:148] Top shape: 24 112 14 14 (526848)
I0403 15:19:57.591660 31484 net.cpp:156] Memory required for data: 1113290016
I0403 15:19:57.591677 31484 layer_factory.hpp:77] Creating layer inception_4d/relu_1x1
I0403 15:19:57.591696 31484 net.cpp:91] Creating Layer inception_4d/relu_1x1
I0403 15:19:57.591711 31484 net.cpp:425] inception_4d/relu_1x1 <- inception_4d/1x1
I0403 15:19:57.591730 31484 net.cpp:386] inception_4d/relu_1x1 -> inception_4d/1x1 (in-place)
I0403 15:19:57.591912 31484 net.cpp:141] Setting up inception_4d/relu_1x1
I0403 15:19:57.591936 31484 net.cpp:148] Top shape: 24 112 14 14 (526848)
I0403 15:19:57.591951 31484 net.cpp:156] Memory required for data: 1115397408
I0403 15:19:57.591966 31484 layer_factory.hpp:77] Creating layer inception_4d/3x3_reduce
I0403 15:19:57.592001 31484 net.cpp:91] Creating Layer inception_4d/3x3_reduce
I0403 15:19:57.592020 31484 net.cpp:425] inception_4d/3x3_reduce <- inception_4c/output_inception_4c/output_0_split_1
I0403 15:19:57.592041 31484 net.cpp:399] inception_4d/3x3_reduce -> inception_4d/3x3_reduce
I0403 15:19:57.593571 31484 net.cpp:141] Setting up inception_4d/3x3_reduce
I0403 15:19:57.593603 31484 net.cpp:148] Top shape: 24 144 14 14 (677376)
I0403 15:19:57.593636 31484 net.cpp:156] Memory required for data: 1118106912
I0403 15:19:57.593658 31484 layer_factory.hpp:77] Creating layer inception_4d/relu_3x3_reduce
I0403 15:19:57.593677 31484 net.cpp:91] Creating Layer inception_4d/relu_3x3_reduce
I0403 15:19:57.593699 31484 net.cpp:425] inception_4d/relu_3x3_reduce <- inception_4d/3x3_reduce
I0403 15:19:57.593732 31484 net.cpp:386] inception_4d/relu_3x3_reduce -> inception_4d/3x3_reduce (in-place)
I0403 15:19:57.594054 31484 net.cpp:141] Setting up inception_4d/relu_3x3_reduce
I0403 15:19:57.594104 31484 net.cpp:148] Top shape: 24 144 14 14 (677376)
I0403 15:19:57.594136 31484 net.cpp:156] Memory required for data: 1120816416
I0403 15:19:57.594182 31484 layer_factory.hpp:77] Creating layer inception_4d/3x3
I0403 15:19:57.594228 31484 net.cpp:91] Creating Layer inception_4d/3x3
I0403 15:19:57.594271 31484 net.cpp:425] inception_4d/3x3 <- inception_4d/3x3_reduce
I0403 15:19:57.594316 31484 net.cpp:399] inception_4d/3x3 -> inception_4d/3x3
I0403 15:19:57.598513 31484 net.cpp:141] Setting up inception_4d/3x3
I0403 15:19:57.598546 31484 net.cpp:148] Top shape: 24 288 14 14 (1354752)
I0403 15:19:57.598561 31484 net.cpp:156] Memory required for data: 1126235424
I0403 15:19:57.598578 31484 layer_factory.hpp:77] Creating layer inception_4d/relu_3x3
I0403 15:19:57.598598 31484 net.cpp:91] Creating Layer inception_4d/relu_3x3
I0403 15:19:57.598614 31484 net.cpp:425] inception_4d/relu_3x3 <- inception_4d/3x3
I0403 15:19:57.598631 31484 net.cpp:386] inception_4d/relu_3x3 -> inception_4d/3x3 (in-place)
I0403 15:19:57.598808 31484 net.cpp:141] Setting up inception_4d/relu_3x3
I0403 15:19:57.598831 31484 net.cpp:148] Top shape: 24 288 14 14 (1354752)
I0403 15:19:57.598845 31484 net.cpp:156] Memory required for data: 1131654432
I0403 15:19:57.598860 31484 layer_factory.hpp:77] Creating layer inception_4d/5x5_reduce
I0403 15:19:57.598882 31484 net.cpp:91] Creating Layer inception_4d/5x5_reduce
I0403 15:19:57.598899 31484 net.cpp:425] inception_4d/5x5_reduce <- inception_4c/output_inception_4c/output_0_split_2
I0403 15:19:57.598917 31484 net.cpp:399] inception_4d/5x5_reduce -> inception_4d/5x5_reduce
I0403 15:19:57.600031 31484 net.cpp:141] Setting up inception_4d/5x5_reduce
I0403 15:19:57.600059 31484 net.cpp:148] Top shape: 24 32 14 14 (150528)
I0403 15:19:57.600075 31484 net.cpp:156] Memory required for data: 1132256544
I0403 15:19:57.600091 31484 layer_factory.hpp:77] Creating layer inception_4d/relu_5x5_reduce
I0403 15:19:57.600109 31484 net.cpp:91] Creating Layer inception_4d/relu_5x5_reduce
I0403 15:19:57.600124 31484 net.cpp:425] inception_4d/relu_5x5_reduce <- inception_4d/5x5_reduce
I0403 15:19:57.600143 31484 net.cpp:386] inception_4d/relu_5x5_reduce -> inception_4d/5x5_reduce (in-place)
I0403 15:19:57.600338 31484 net.cpp:141] Setting up inception_4d/relu_5x5_reduce
I0403 15:19:57.600363 31484 net.cpp:148] Top shape: 24 32 14 14 (150528)
I0403 15:19:57.600378 31484 net.cpp:156] Memory required for data: 1132858656
I0403 15:19:57.600392 31484 layer_factory.hpp:77] Creating layer inception_4d/5x5
I0403 15:19:57.600414 31484 net.cpp:91] Creating Layer inception_4d/5x5
I0403 15:19:57.600430 31484 net.cpp:425] inception_4d/5x5 <- inception_4d/5x5_reduce
I0403 15:19:57.600451 31484 net.cpp:399] inception_4d/5x5 -> inception_4d/5x5
I0403 15:19:57.601896 31484 net.cpp:141] Setting up inception_4d/5x5
I0403 15:19:57.601933 31484 net.cpp:148] Top shape: 24 64 14 14 (301056)
I0403 15:19:57.601949 31484 net.cpp:156] Memory required for data: 1134062880
I0403 15:19:57.601969 31484 layer_factory.hpp:77] Creating layer inception_4d/relu_5x5
I0403 15:19:57.602000 31484 net.cpp:91] Creating Layer inception_4d/relu_5x5
I0403 15:19:57.602017 31484 net.cpp:425] inception_4d/relu_5x5 <- inception_4d/5x5
I0403 15:19:57.602033 31484 net.cpp:386] inception_4d/relu_5x5 -> inception_4d/5x5 (in-place)
I0403 15:19:57.602325 31484 net.cpp:141] Setting up inception_4d/relu_5x5
I0403 15:19:57.602354 31484 net.cpp:148] Top shape: 24 64 14 14 (301056)
I0403 15:19:57.602368 31484 net.cpp:156] Memory required for data: 1135267104
I0403 15:19:57.602383 31484 layer_factory.hpp:77] Creating layer inception_4d/pool
I0403 15:19:57.602401 31484 net.cpp:91] Creating Layer inception_4d/pool
I0403 15:19:57.602417 31484 net.cpp:425] inception_4d/pool <- inception_4c/output_inception_4c/output_0_split_3
I0403 15:19:57.602434 31484 net.cpp:399] inception_4d/pool -> inception_4d/pool
I0403 15:19:57.602500 31484 net.cpp:141] Setting up inception_4d/pool
I0403 15:19:57.602524 31484 net.cpp:148] Top shape: 24 512 14 14 (2408448)
I0403 15:19:57.602542 31484 net.cpp:156] Memory required for data: 1144900896
I0403 15:19:57.602557 31484 layer_factory.hpp:77] Creating layer inception_4d/pool_proj
I0403 15:19:57.602579 31484 net.cpp:91] Creating Layer inception_4d/pool_proj
I0403 15:19:57.602596 31484 net.cpp:425] inception_4d/pool_proj <- inception_4d/pool
I0403 15:19:57.602617 31484 net.cpp:399] inception_4d/pool_proj -> inception_4d/pool_proj
I0403 15:19:57.604337 31484 net.cpp:141] Setting up inception_4d/pool_proj
I0403 15:19:57.604365 31484 net.cpp:148] Top shape: 24 64 14 14 (301056)
I0403 15:19:57.604382 31484 net.cpp:156] Memory required for data: 1146105120
I0403 15:19:57.604399 31484 layer_factory.hpp:77] Creating layer inception_4d/relu_pool_proj
I0403 15:19:57.604419 31484 net.cpp:91] Creating Layer inception_4d/relu_pool_proj
I0403 15:19:57.604435 31484 net.cpp:425] inception_4d/relu_pool_proj <- inception_4d/pool_proj
I0403 15:19:57.604452 31484 net.cpp:386] inception_4d/relu_pool_proj -> inception_4d/pool_proj (in-place)
I0403 15:19:57.604645 31484 net.cpp:141] Setting up inception_4d/relu_pool_proj
I0403 15:19:57.604670 31484 net.cpp:148] Top shape: 24 64 14 14 (301056)
I0403 15:19:57.604683 31484 net.cpp:156] Memory required for data: 1147309344
I0403 15:19:57.604698 31484 layer_factory.hpp:77] Creating layer inception_4d/output
I0403 15:19:57.604717 31484 net.cpp:91] Creating Layer inception_4d/output
I0403 15:19:57.604732 31484 net.cpp:425] inception_4d/output <- inception_4d/1x1
I0403 15:19:57.604749 31484 net.cpp:425] inception_4d/output <- inception_4d/3x3
I0403 15:19:57.604764 31484 net.cpp:425] inception_4d/output <- inception_4d/5x5
I0403 15:19:57.604779 31484 net.cpp:425] inception_4d/output <- inception_4d/pool_proj
I0403 15:19:57.604795 31484 net.cpp:399] inception_4d/output -> inception_4d/output
I0403 15:19:57.604843 31484 net.cpp:141] Setting up inception_4d/output
I0403 15:19:57.604866 31484 net.cpp:148] Top shape: 24 528 14 14 (2483712)
I0403 15:19:57.604881 31484 net.cpp:156] Memory required for data: 1157244192
I0403 15:19:57.604893 31484 layer_factory.hpp:77] Creating layer inception_4d/output_inception_4d/output_0_split
I0403 15:19:57.604910 31484 net.cpp:91] Creating Layer inception_4d/output_inception_4d/output_0_split
I0403 15:19:57.604924 31484 net.cpp:425] inception_4d/output_inception_4d/output_0_split <- inception_4d/output
I0403 15:19:57.604944 31484 net.cpp:399] inception_4d/output_inception_4d/output_0_split -> inception_4d/output_inception_4d/output_0_split_0
I0403 15:19:57.604965 31484 net.cpp:399] inception_4d/output_inception_4d/output_0_split -> inception_4d/output_inception_4d/output_0_split_1
I0403 15:19:57.604985 31484 net.cpp:399] inception_4d/output_inception_4d/output_0_split -> inception_4d/output_inception_4d/output_0_split_2
I0403 15:19:57.605015 31484 net.cpp:399] inception_4d/output_inception_4d/output_0_split -> inception_4d/output_inception_4d/output_0_split_3
I0403 15:19:57.605038 31484 net.cpp:399] inception_4d/output_inception_4d/output_0_split -> inception_4d/output_inception_4d/output_0_split_4
I0403 15:19:57.605139 31484 net.cpp:141] Setting up inception_4d/output_inception_4d/output_0_split
I0403 15:19:57.605175 31484 net.cpp:148] Top shape: 24 528 14 14 (2483712)
I0403 15:19:57.605190 31484 net.cpp:148] Top shape: 24 528 14 14 (2483712)
I0403 15:19:57.605206 31484 net.cpp:148] Top shape: 24 528 14 14 (2483712)
I0403 15:19:57.605221 31484 net.cpp:148] Top shape: 24 528 14 14 (2483712)
I0403 15:19:57.605237 31484 net.cpp:148] Top shape: 24 528 14 14 (2483712)
I0403 15:19:57.605249 31484 net.cpp:156] Memory required for data: 1206918432
I0403 15:19:57.605263 31484 layer_factory.hpp:77] Creating layer loss2/ave_pool
I0403 15:19:57.605280 31484 net.cpp:91] Creating Layer loss2/ave_pool
I0403 15:19:57.605295 31484 net.cpp:425] loss2/ave_pool <- inception_4d/output_inception_4d/output_0_split_0
I0403 15:19:57.605315 31484 net.cpp:399] loss2/ave_pool -> loss2/ave_pool
I0403 15:19:57.605638 31484 net.cpp:141] Setting up loss2/ave_pool
I0403 15:19:57.605662 31484 net.cpp:148] Top shape: 24 528 4 4 (202752)
I0403 15:19:57.605677 31484 net.cpp:156] Memory required for data: 1207729440
I0403 15:19:57.605691 31484 layer_factory.hpp:77] Creating layer loss2/conv
I0403 15:19:57.605713 31484 net.cpp:91] Creating Layer loss2/conv
I0403 15:19:57.605729 31484 net.cpp:425] loss2/conv <- loss2/ave_pool
I0403 15:19:57.605749 31484 net.cpp:399] loss2/conv -> loss2/conv
I0403 15:19:57.607609 31484 net.cpp:141] Setting up loss2/conv
I0403 15:19:57.607637 31484 net.cpp:148] Top shape: 24 128 4 4 (49152)
I0403 15:19:57.607653 31484 net.cpp:156] Memory required for data: 1207926048
I0403 15:19:57.607671 31484 layer_factory.hpp:77] Creating layer loss2/relu_conv
I0403 15:19:57.607691 31484 net.cpp:91] Creating Layer loss2/relu_conv
I0403 15:19:57.607707 31484 net.cpp:425] loss2/relu_conv <- loss2/conv
I0403 15:19:57.607722 31484 net.cpp:386] loss2/relu_conv -> loss2/conv (in-place)
I0403 15:19:57.608002 31484 net.cpp:141] Setting up loss2/relu_conv
I0403 15:19:57.608027 31484 net.cpp:148] Top shape: 24 128 4 4 (49152)
I0403 15:19:57.608043 31484 net.cpp:156] Memory required for data: 1208122656
I0403 15:19:57.608057 31484 layer_factory.hpp:77] Creating layer loss2/fc
I0403 15:19:57.608078 31484 net.cpp:91] Creating Layer loss2/fc
I0403 15:19:57.608093 31484 net.cpp:425] loss2/fc <- loss2/conv
I0403 15:19:57.608114 31484 net.cpp:399] loss2/fc -> loss2/fc
I0403 15:19:57.625732 31484 net.cpp:141] Setting up loss2/fc
I0403 15:19:57.625771 31484 net.cpp:148] Top shape: 24 1024 (24576)
I0403 15:19:57.625785 31484 net.cpp:156] Memory required for data: 1208220960
I0403 15:19:57.625805 31484 layer_factory.hpp:77] Creating layer loss2/relu_fc
I0403 15:19:57.625828 31484 net.cpp:91] Creating Layer loss2/relu_fc
I0403 15:19:57.625845 31484 net.cpp:425] loss2/relu_fc <- loss2/fc
I0403 15:19:57.625864 31484 net.cpp:386] loss2/relu_fc -> loss2/fc (in-place)
I0403 15:19:57.626168 31484 net.cpp:141] Setting up loss2/relu_fc
I0403 15:19:57.626194 31484 net.cpp:148] Top shape: 24 1024 (24576)
I0403 15:19:57.626209 31484 net.cpp:156] Memory required for data: 1208319264
I0403 15:19:57.626224 31484 layer_factory.hpp:77] Creating layer loss2/drop_fc
I0403 15:19:57.626242 31484 net.cpp:91] Creating Layer loss2/drop_fc
I0403 15:19:57.626257 31484 net.cpp:425] loss2/drop_fc <- loss2/fc
I0403 15:19:57.626276 31484 net.cpp:386] loss2/drop_fc -> loss2/fc (in-place)
I0403 15:19:57.626328 31484 net.cpp:141] Setting up loss2/drop_fc
I0403 15:19:57.626351 31484 net.cpp:148] Top shape: 24 1024 (24576)
I0403 15:19:57.626365 31484 net.cpp:156] Memory required for data: 1208417568
I0403 15:19:57.626380 31484 layer_factory.hpp:77] Creating layer loss2/classifier_plantvillage
I0403 15:19:57.626399 31484 net.cpp:91] Creating Layer loss2/classifier_plantvillage
I0403 15:19:57.626415 31484 net.cpp:425] loss2/classifier_plantvillage <- loss2/fc
I0403 15:19:57.626435 31484 net.cpp:399] loss2/classifier_plantvillage -> loss2/classifier_plantvillage
I0403 15:19:57.626847 31484 net.cpp:141] Setting up loss2/classifier_plantvillage
I0403 15:19:57.626871 31484 net.cpp:148] Top shape: 24 38 (912)
I0403 15:19:57.626902 31484 net.cpp:156] Memory required for data: 1208421216
I0403 15:19:57.626922 31484 layer_factory.hpp:77] Creating layer loss2/classifier_plantvillage_loss2/classifier_plantvillage_0_split
I0403 15:19:57.626942 31484 net.cpp:91] Creating Layer loss2/classifier_plantvillage_loss2/classifier_plantvillage_0_split
I0403 15:19:57.626960 31484 net.cpp:425] loss2/classifier_plantvillage_loss2/classifier_plantvillage_0_split <- loss2/classifier_plantvillage
I0403 15:19:57.626978 31484 net.cpp:399] loss2/classifier_plantvillage_loss2/classifier_plantvillage_0_split -> loss2/classifier_plantvillage_loss2/classifier_plantvillage_0_split_0
I0403 15:19:57.626999 31484 net.cpp:399] loss2/classifier_plantvillage_loss2/classifier_plantvillage_0_split -> loss2/classifier_plantvillage_loss2/classifier_plantvillage_0_split_1
I0403 15:19:57.627019 31484 net.cpp:399] loss2/classifier_plantvillage_loss2/classifier_plantvillage_0_split -> loss2/classifier_plantvillage_loss2/classifier_plantvillage_0_split_2
I0403 15:19:57.627096 31484 net.cpp:141] Setting up loss2/classifier_plantvillage_loss2/classifier_plantvillage_0_split
I0403 15:19:57.627118 31484 net.cpp:148] Top shape: 24 38 (912)
I0403 15:19:57.627135 31484 net.cpp:148] Top shape: 24 38 (912)
I0403 15:19:57.627151 31484 net.cpp:148] Top shape: 24 38 (912)
I0403 15:19:57.627164 31484 net.cpp:156] Memory required for data: 1208432160
I0403 15:19:57.627178 31484 layer_factory.hpp:77] Creating layer inception_4e/1x1
I0403 15:19:57.627202 31484 net.cpp:91] Creating Layer inception_4e/1x1
I0403 15:19:57.627218 31484 net.cpp:425] inception_4e/1x1 <- inception_4d/output_inception_4d/output_0_split_1
I0403 15:19:57.627238 31484 net.cpp:399] inception_4e/1x1 -> inception_4e/1x1
I0403 15:19:57.629055 31484 net.cpp:141] Setting up inception_4e/1x1
I0403 15:19:57.629084 31484 net.cpp:148] Top shape: 24 256 14 14 (1204224)
I0403 15:19:57.629101 31484 net.cpp:156] Memory required for data: 1213249056
I0403 15:19:57.629118 31484 layer_factory.hpp:77] Creating layer inception_4e/relu_1x1
I0403 15:19:57.629135 31484 net.cpp:91] Creating Layer inception_4e/relu_1x1
I0403 15:19:57.629150 31484 net.cpp:425] inception_4e/relu_1x1 <- inception_4e/1x1
I0403 15:19:57.629168 31484 net.cpp:386] inception_4e/relu_1x1 -> inception_4e/1x1 (in-place)
I0403 15:19:57.629473 31484 net.cpp:141] Setting up inception_4e/relu_1x1
I0403 15:19:57.629501 31484 net.cpp:148] Top shape: 24 256 14 14 (1204224)
I0403 15:19:57.629518 31484 net.cpp:156] Memory required for data: 1218065952
I0403 15:19:57.629533 31484 layer_factory.hpp:77] Creating layer inception_4e/3x3_reduce
I0403 15:19:57.629571 31484 net.cpp:91] Creating Layer inception_4e/3x3_reduce
I0403 15:19:57.629588 31484 net.cpp:425] inception_4e/3x3_reduce <- inception_4d/output_inception_4d/output_0_split_2
I0403 15:19:57.629607 31484 net.cpp:399] inception_4e/3x3_reduce -> inception_4e/3x3_reduce
I0403 15:19:57.631676 31484 net.cpp:141] Setting up inception_4e/3x3_reduce
I0403 15:19:57.631705 31484 net.cpp:148] Top shape: 24 160 14 14 (752640)
I0403 15:19:57.631719 31484 net.cpp:156] Memory required for data: 1221076512
I0403 15:19:57.631737 31484 layer_factory.hpp:77] Creating layer inception_4e/relu_3x3_reduce
I0403 15:19:57.631759 31484 net.cpp:91] Creating Layer inception_4e/relu_3x3_reduce
I0403 15:19:57.631775 31484 net.cpp:425] inception_4e/relu_3x3_reduce <- inception_4e/3x3_reduce
I0403 15:19:57.631791 31484 net.cpp:386] inception_4e/relu_3x3_reduce -> inception_4e/3x3_reduce (in-place)
I0403 15:19:57.631973 31484 net.cpp:141] Setting up inception_4e/relu_3x3_reduce
I0403 15:19:57.631997 31484 net.cpp:148] Top shape: 24 160 14 14 (752640)
I0403 15:19:57.632012 31484 net.cpp:156] Memory required for data: 1224087072
I0403 15:19:57.632026 31484 layer_factory.hpp:77] Creating layer inception_4e/3x3
I0403 15:19:57.632047 31484 net.cpp:91] Creating Layer inception_4e/3x3
I0403 15:19:57.632064 31484 net.cpp:425] inception_4e/3x3 <- inception_4e/3x3_reduce
I0403 15:19:57.632086 31484 net.cpp:399] inception_4e/3x3 -> inception_4e/3x3
I0403 15:19:57.636983 31484 net.cpp:141] Setting up inception_4e/3x3
I0403 15:19:57.637027 31484 net.cpp:148] Top shape: 24 320 14 14 (1505280)
I0403 15:19:57.637042 31484 net.cpp:156] Memory required for data: 1230108192
I0403 15:19:57.637059 31484 layer_factory.hpp:77] Creating layer inception_4e/relu_3x3
I0403 15:19:57.637078 31484 net.cpp:91] Creating Layer inception_4e/relu_3x3
I0403 15:19:57.637092 31484 net.cpp:425] inception_4e/relu_3x3 <- inception_4e/3x3
I0403 15:19:57.637112 31484 net.cpp:386] inception_4e/relu_3x3 -> inception_4e/3x3 (in-place)
I0403 15:19:57.637408 31484 net.cpp:141] Setting up inception_4e/relu_3x3
I0403 15:19:57.637433 31484 net.cpp:148] Top shape: 24 320 14 14 (1505280)
I0403 15:19:57.637447 31484 net.cpp:156] Memory required for data: 1236129312
I0403 15:19:57.637461 31484 layer_factory.hpp:77] Creating layer inception_4e/5x5_reduce
I0403 15:19:57.637485 31484 net.cpp:91] Creating Layer inception_4e/5x5_reduce
I0403 15:19:57.637501 31484 net.cpp:425] inception_4e/5x5_reduce <- inception_4d/output_inception_4d/output_0_split_3
I0403 15:19:57.637522 31484 net.cpp:399] inception_4e/5x5_reduce -> inception_4e/5x5_reduce
I0403 15:19:57.638568 31484 net.cpp:141] Setting up inception_4e/5x5_reduce
I0403 15:19:57.638597 31484 net.cpp:148] Top shape: 24 32 14 14 (150528)
I0403 15:19:57.638612 31484 net.cpp:156] Memory required for data: 1236731424
I0403 15:19:57.638630 31484 layer_factory.hpp:77] Creating layer inception_4e/relu_5x5_reduce
I0403 15:19:57.638648 31484 net.cpp:91] Creating Layer inception_4e/relu_5x5_reduce
I0403 15:19:57.638664 31484 net.cpp:425] inception_4e/relu_5x5_reduce <- inception_4e/5x5_reduce
I0403 15:19:57.638680 31484 net.cpp:386] inception_4e/relu_5x5_reduce -> inception_4e/5x5_reduce (in-place)
I0403 15:19:57.638973 31484 net.cpp:141] Setting up inception_4e/relu_5x5_reduce
I0403 15:19:57.639001 31484 net.cpp:148] Top shape: 24 32 14 14 (150528)
I0403 15:19:57.639024 31484 net.cpp:156] Memory required for data: 1237333536
I0403 15:19:57.639039 31484 layer_factory.hpp:77] Creating layer inception_4e/5x5
I0403 15:19:57.639076 31484 net.cpp:91] Creating Layer inception_4e/5x5
I0403 15:19:57.639094 31484 net.cpp:425] inception_4e/5x5 <- inception_4e/5x5_reduce
I0403 15:19:57.639113 31484 net.cpp:399] inception_4e/5x5 -> inception_4e/5x5
I0403 15:19:57.640987 31484 net.cpp:141] Setting up inception_4e/5x5
I0403 15:19:57.641015 31484 net.cpp:148] Top shape: 24 128 14 14 (602112)
I0403 15:19:57.641029 31484 net.cpp:156] Memory required for data: 1239741984
I0403 15:19:57.641047 31484 layer_factory.hpp:77] Creating layer inception_4e/relu_5x5
I0403 15:19:57.641067 31484 net.cpp:91] Creating Layer inception_4e/relu_5x5
I0403 15:19:57.641083 31484 net.cpp:425] inception_4e/relu_5x5 <- inception_4e/5x5
I0403 15:19:57.641099 31484 net.cpp:386] inception_4e/relu_5x5 -> inception_4e/5x5 (in-place)
I0403 15:19:57.641294 31484 net.cpp:141] Setting up inception_4e/relu_5x5
I0403 15:19:57.641320 31484 net.cpp:148] Top shape: 24 128 14 14 (602112)
I0403 15:19:57.641335 31484 net.cpp:156] Memory required for data: 1242150432
I0403 15:19:57.641350 31484 layer_factory.hpp:77] Creating layer inception_4e/pool
I0403 15:19:57.641367 31484 net.cpp:91] Creating Layer inception_4e/pool
I0403 15:19:57.641382 31484 net.cpp:425] inception_4e/pool <- inception_4d/output_inception_4d/output_0_split_4
I0403 15:19:57.641402 31484 net.cpp:399] inception_4e/pool -> inception_4e/pool
I0403 15:19:57.641479 31484 net.cpp:141] Setting up inception_4e/pool
I0403 15:19:57.641501 31484 net.cpp:148] Top shape: 24 528 14 14 (2483712)
I0403 15:19:57.641516 31484 net.cpp:156] Memory required for data: 1252085280
I0403 15:19:57.641530 31484 layer_factory.hpp:77] Creating layer inception_4e/pool_proj
I0403 15:19:57.641556 31484 net.cpp:91] Creating Layer inception_4e/pool_proj
I0403 15:19:57.641576 31484 net.cpp:425] inception_4e/pool_proj <- inception_4e/pool
I0403 15:19:57.641594 31484 net.cpp:399] inception_4e/pool_proj -> inception_4e/pool_proj
I0403 15:19:57.643077 31484 net.cpp:141] Setting up inception_4e/pool_proj
I0403 15:19:57.643116 31484 net.cpp:148] Top shape: 24 128 14 14 (602112)
I0403 15:19:57.643132 31484 net.cpp:156] Memory required for data: 1254493728
I0403 15:19:57.643151 31484 layer_factory.hpp:77] Creating layer inception_4e/relu_pool_proj
I0403 15:19:57.643172 31484 net.cpp:91] Creating Layer inception_4e/relu_pool_proj
I0403 15:19:57.643187 31484 net.cpp:425] inception_4e/relu_pool_proj <- inception_4e/pool_proj
I0403 15:19:57.643204 31484 net.cpp:386] inception_4e/relu_pool_proj -> inception_4e/pool_proj (in-place)
I0403 15:19:57.643580 31484 net.cpp:141] Setting up inception_4e/relu_pool_proj
I0403 15:19:57.643615 31484 net.cpp:148] Top shape: 24 128 14 14 (602112)
I0403 15:19:57.643632 31484 net.cpp:156] Memory required for data: 1256902176
I0403 15:19:57.643648 31484 layer_factory.hpp:77] Creating layer inception_4e/output
I0403 15:19:57.643666 31484 net.cpp:91] Creating Layer inception_4e/output
I0403 15:19:57.643685 31484 net.cpp:425] inception_4e/output <- inception_4e/1x1
I0403 15:19:57.643702 31484 net.cpp:425] inception_4e/output <- inception_4e/3x3
I0403 15:19:57.643718 31484 net.cpp:425] inception_4e/output <- inception_4e/5x5
I0403 15:19:57.643734 31484 net.cpp:425] inception_4e/output <- inception_4e/pool_proj
I0403 15:19:57.643751 31484 net.cpp:399] inception_4e/output -> inception_4e/output
I0403 15:19:57.643805 31484 net.cpp:141] Setting up inception_4e/output
I0403 15:19:57.643831 31484 net.cpp:148] Top shape: 24 832 14 14 (3913728)
I0403 15:19:57.643846 31484 net.cpp:156] Memory required for data: 1272557088
I0403 15:19:57.643862 31484 layer_factory.hpp:77] Creating layer pool4/3x3_s2
I0403 15:19:57.643879 31484 net.cpp:91] Creating Layer pool4/3x3_s2
I0403 15:19:57.643895 31484 net.cpp:425] pool4/3x3_s2 <- inception_4e/output
I0403 15:19:57.643916 31484 net.cpp:399] pool4/3x3_s2 -> pool4/3x3_s2
I0403 15:19:57.643985 31484 net.cpp:141] Setting up pool4/3x3_s2
I0403 15:19:57.644011 31484 net.cpp:148] Top shape: 24 832 7 7 (978432)
I0403 15:19:57.644026 31484 net.cpp:156] Memory required for data: 1276470816
I0403 15:19:57.644040 31484 layer_factory.hpp:77] Creating layer pool4/3x3_s2_pool4/3x3_s2_0_split
I0403 15:19:57.644057 31484 net.cpp:91] Creating Layer pool4/3x3_s2_pool4/3x3_s2_0_split
I0403 15:19:57.644073 31484 net.cpp:425] pool4/3x3_s2_pool4/3x3_s2_0_split <- pool4/3x3_s2
I0403 15:19:57.644096 31484 net.cpp:399] pool4/3x3_s2_pool4/3x3_s2_0_split -> pool4/3x3_s2_pool4/3x3_s2_0_split_0
I0403 15:19:57.644116 31484 net.cpp:399] pool4/3x3_s2_pool4/3x3_s2_0_split -> pool4/3x3_s2_pool4/3x3_s2_0_split_1
I0403 15:19:57.644139 31484 net.cpp:399] pool4/3x3_s2_pool4/3x3_s2_0_split -> pool4/3x3_s2_pool4/3x3_s2_0_split_2
I0403 15:19:57.644158 31484 net.cpp:399] pool4/3x3_s2_pool4/3x3_s2_0_split -> pool4/3x3_s2_pool4/3x3_s2_0_split_3
I0403 15:19:57.644249 31484 net.cpp:141] Setting up pool4/3x3_s2_pool4/3x3_s2_0_split
I0403 15:19:57.644273 31484 net.cpp:148] Top shape: 24 832 7 7 (978432)
I0403 15:19:57.644289 31484 net.cpp:148] Top shape: 24 832 7 7 (978432)
I0403 15:19:57.644304 31484 net.cpp:148] Top shape: 24 832 7 7 (978432)
I0403 15:19:57.644320 31484 net.cpp:148] Top shape: 24 832 7 7 (978432)
I0403 15:19:57.644335 31484 net.cpp:156] Memory required for data: 1292125728
I0403 15:19:57.644348 31484 layer_factory.hpp:77] Creating layer inception_5a/1x1
I0403 15:19:57.644371 31484 net.cpp:91] Creating Layer inception_5a/1x1
I0403 15:19:57.644397 31484 net.cpp:425] inception_5a/1x1 <- pool4/3x3_s2_pool4/3x3_s2_0_split_0
I0403 15:19:57.644419 31484 net.cpp:399] inception_5a/1x1 -> inception_5a/1x1
I0403 15:19:57.647320 31484 net.cpp:141] Setting up inception_5a/1x1
I0403 15:19:57.647349 31484 net.cpp:148] Top shape: 24 256 7 7 (301056)
I0403 15:19:57.647366 31484 net.cpp:156] Memory required for data: 1293329952
I0403 15:19:57.647384 31484 layer_factory.hpp:77] Creating layer inception_5a/relu_1x1
I0403 15:19:57.647404 31484 net.cpp:91] Creating Layer inception_5a/relu_1x1
I0403 15:19:57.647421 31484 net.cpp:425] inception_5a/relu_1x1 <- inception_5a/1x1
I0403 15:19:57.647439 31484 net.cpp:386] inception_5a/relu_1x1 -> inception_5a/1x1 (in-place)
I0403 15:19:57.647761 31484 net.cpp:141] Setting up inception_5a/relu_1x1
I0403 15:19:57.647788 31484 net.cpp:148] Top shape: 24 256 7 7 (301056)
I0403 15:19:57.647802 31484 net.cpp:156] Memory required for data: 1294534176
I0403 15:19:57.647817 31484 layer_factory.hpp:77] Creating layer inception_5a/3x3_reduce
I0403 15:19:57.647840 31484 net.cpp:91] Creating Layer inception_5a/3x3_reduce
I0403 15:19:57.647860 31484 net.cpp:425] inception_5a/3x3_reduce <- pool4/3x3_s2_pool4/3x3_s2_0_split_1
I0403 15:19:57.647879 31484 net.cpp:399] inception_5a/3x3_reduce -> inception_5a/3x3_reduce
I0403 15:19:57.650365 31484 net.cpp:141] Setting up inception_5a/3x3_reduce
I0403 15:19:57.650394 31484 net.cpp:148] Top shape: 24 160 7 7 (188160)
I0403 15:19:57.650409 31484 net.cpp:156] Memory required for data: 1295286816
I0403 15:19:57.650429 31484 layer_factory.hpp:77] Creating layer inception_5a/relu_3x3_reduce
I0403 15:19:57.650446 31484 net.cpp:91] Creating Layer inception_5a/relu_3x3_reduce
I0403 15:19:57.650466 31484 net.cpp:425] inception_5a/relu_3x3_reduce <- inception_5a/3x3_reduce
I0403 15:19:57.650483 31484 net.cpp:386] inception_5a/relu_3x3_reduce -> inception_5a/3x3_reduce (in-place)
I0403 15:19:57.650745 31484 net.cpp:141] Setting up inception_5a/relu_3x3_reduce
I0403 15:19:57.650771 31484 net.cpp:148] Top shape: 24 160 7 7 (188160)
I0403 15:19:57.650786 31484 net.cpp:156] Memory required for data: 1296039456
I0403 15:19:57.650801 31484 layer_factory.hpp:77] Creating layer inception_5a/3x3
I0403 15:19:57.650823 31484 net.cpp:91] Creating Layer inception_5a/3x3
I0403 15:19:57.650840 31484 net.cpp:425] inception_5a/3x3 <- inception_5a/3x3_reduce
I0403 15:19:57.650862 31484 net.cpp:399] inception_5a/3x3 -> inception_5a/3x3
I0403 15:19:57.655938 31484 net.cpp:141] Setting up inception_5a/3x3
I0403 15:19:57.655968 31484 net.cpp:148] Top shape: 24 320 7 7 (376320)
I0403 15:19:57.655985 31484 net.cpp:156] Memory required for data: 1297544736
I0403 15:19:57.656003 31484 layer_factory.hpp:77] Creating layer inception_5a/relu_3x3
I0403 15:19:57.656024 31484 net.cpp:91] Creating Layer inception_5a/relu_3x3
I0403 15:19:57.656040 31484 net.cpp:425] inception_5a/relu_3x3 <- inception_5a/3x3
I0403 15:19:57.656057 31484 net.cpp:386] inception_5a/relu_3x3 -> inception_5a/3x3 (in-place)
I0403 15:19:57.656358 31484 net.cpp:141] Setting up inception_5a/relu_3x3
I0403 15:19:57.656383 31484 net.cpp:148] Top shape: 24 320 7 7 (376320)
I0403 15:19:57.656399 31484 net.cpp:156] Memory required for data: 1299050016
I0403 15:19:57.656412 31484 layer_factory.hpp:77] Creating layer inception_5a/5x5_reduce
I0403 15:19:57.656435 31484 net.cpp:91] Creating Layer inception_5a/5x5_reduce
I0403 15:19:57.656452 31484 net.cpp:425] inception_5a/5x5_reduce <- pool4/3x3_s2_pool4/3x3_s2_0_split_2
I0403 15:19:57.656473 31484 net.cpp:399] inception_5a/5x5_reduce -> inception_5a/5x5_reduce
I0403 15:19:57.657655 31484 net.cpp:141] Setting up inception_5a/5x5_reduce
I0403 15:19:57.657682 31484 net.cpp:148] Top shape: 24 32 7 7 (37632)
I0403 15:19:57.657698 31484 net.cpp:156] Memory required for data: 1299200544
I0403 15:19:57.657716 31484 layer_factory.hpp:77] Creating layer inception_5a/relu_5x5_reduce
I0403 15:19:57.657737 31484 net.cpp:91] Creating Layer inception_5a/relu_5x5_reduce
I0403 15:19:57.657753 31484 net.cpp:425] inception_5a/relu_5x5_reduce <- inception_5a/5x5_reduce
I0403 15:19:57.657771 31484 net.cpp:386] inception_5a/relu_5x5_reduce -> inception_5a/5x5_reduce (in-place)
I0403 15:19:57.658074 31484 net.cpp:141] Setting up inception_5a/relu_5x5_reduce
I0403 15:19:57.658102 31484 net.cpp:148] Top shape: 24 32 7 7 (37632)
I0403 15:19:57.658116 31484 net.cpp:156] Memory required for data: 1299351072
I0403 15:19:57.658131 31484 layer_factory.hpp:77] Creating layer inception_5a/5x5
I0403 15:19:57.658155 31484 net.cpp:91] Creating Layer inception_5a/5x5
I0403 15:19:57.658174 31484 net.cpp:425] inception_5a/5x5 <- inception_5a/5x5_reduce
I0403 15:19:57.658192 31484 net.cpp:399] inception_5a/5x5 -> inception_5a/5x5
I0403 15:19:57.659920 31484 net.cpp:141] Setting up inception_5a/5x5
I0403 15:19:57.659960 31484 net.cpp:148] Top shape: 24 128 7 7 (150528)
I0403 15:19:57.659976 31484 net.cpp:156] Memory required for data: 1299953184
I0403 15:19:57.659993 31484 layer_factory.hpp:77] Creating layer inception_5a/relu_5x5
I0403 15:19:57.660014 31484 net.cpp:91] Creating Layer inception_5a/relu_5x5
I0403 15:19:57.660032 31484 net.cpp:425] inception_5a/relu_5x5 <- inception_5a/5x5
I0403 15:19:57.660049 31484 net.cpp:386] inception_5a/relu_5x5 -> inception_5a/5x5 (in-place)
I0403 15:19:57.660239 31484 net.cpp:141] Setting up inception_5a/relu_5x5
I0403 15:19:57.660266 31484 net.cpp:148] Top shape: 24 128 7 7 (150528)
I0403 15:19:57.660281 31484 net.cpp:156] Memory required for data: 1300555296
I0403 15:19:57.660296 31484 layer_factory.hpp:77] Creating layer inception_5a/pool
I0403 15:19:57.660313 31484 net.cpp:91] Creating Layer inception_5a/pool
I0403 15:19:57.660329 31484 net.cpp:425] inception_5a/pool <- pool4/3x3_s2_pool4/3x3_s2_0_split_3
I0403 15:19:57.660349 31484 net.cpp:399] inception_5a/pool -> inception_5a/pool
I0403 15:19:57.660420 31484 net.cpp:141] Setting up inception_5a/pool
I0403 15:19:57.660444 31484 net.cpp:148] Top shape: 24 832 7 7 (978432)
I0403 15:19:57.660459 31484 net.cpp:156] Memory required for data: 1304469024
I0403 15:19:57.660472 31484 layer_factory.hpp:77] Creating layer inception_5a/pool_proj
I0403 15:19:57.660495 31484 net.cpp:91] Creating Layer inception_5a/pool_proj
I0403 15:19:57.660516 31484 net.cpp:425] inception_5a/pool_proj <- inception_5a/pool
I0403 15:19:57.660538 31484 net.cpp:399] inception_5a/pool_proj -> inception_5a/pool_proj
I0403 15:19:57.662822 31484 net.cpp:141] Setting up inception_5a/pool_proj
I0403 15:19:57.662853 31484 net.cpp:148] Top shape: 24 128 7 7 (150528)
I0403 15:19:57.662868 31484 net.cpp:156] Memory required for data: 1305071136
I0403 15:19:57.662888 31484 layer_factory.hpp:77] Creating layer inception_5a/relu_pool_proj
I0403 15:19:57.662909 31484 net.cpp:91] Creating Layer inception_5a/relu_pool_proj
I0403 15:19:57.662926 31484 net.cpp:425] inception_5a/relu_pool_proj <- inception_5a/pool_proj
I0403 15:19:57.662943 31484 net.cpp:386] inception_5a/relu_pool_proj -> inception_5a/pool_proj (in-place)
I0403 15:19:57.663247 31484 net.cpp:141] Setting up inception_5a/relu_pool_proj
I0403 15:19:57.663275 31484 net.cpp:148] Top shape: 24 128 7 7 (150528)
I0403 15:19:57.663290 31484 net.cpp:156] Memory required for data: 1305673248
I0403 15:19:57.663305 31484 layer_factory.hpp:77] Creating layer inception_5a/output
I0403 15:19:57.663321 31484 net.cpp:91] Creating Layer inception_5a/output
I0403 15:19:57.663336 31484 net.cpp:425] inception_5a/output <- inception_5a/1x1
I0403 15:19:57.663352 31484 net.cpp:425] inception_5a/output <- inception_5a/3x3
I0403 15:19:57.663369 31484 net.cpp:425] inception_5a/output <- inception_5a/5x5
I0403 15:19:57.663384 31484 net.cpp:425] inception_5a/output <- inception_5a/pool_proj
I0403 15:19:57.663404 31484 net.cpp:399] inception_5a/output -> inception_5a/output
I0403 15:19:57.663457 31484 net.cpp:141] Setting up inception_5a/output
I0403 15:19:57.663480 31484 net.cpp:148] Top shape: 24 832 7 7 (978432)
I0403 15:19:57.663496 31484 net.cpp:156] Memory required for data: 1309586976
I0403 15:19:57.663522 31484 layer_factory.hpp:77] Creating layer inception_5a/output_inception_5a/output_0_split
I0403 15:19:57.663542 31484 net.cpp:91] Creating Layer inception_5a/output_inception_5a/output_0_split
I0403 15:19:57.663557 31484 net.cpp:425] inception_5a/output_inception_5a/output_0_split <- inception_5a/output
I0403 15:19:57.663576 31484 net.cpp:399] inception_5a/output_inception_5a/output_0_split -> inception_5a/output_inception_5a/output_0_split_0
I0403 15:19:57.663597 31484 net.cpp:399] inception_5a/output_inception_5a/output_0_split -> inception_5a/output_inception_5a/output_0_split_1
I0403 15:19:57.663617 31484 net.cpp:399] inception_5a/output_inception_5a/output_0_split -> inception_5a/output_inception_5a/output_0_split_2
I0403 15:19:57.663638 31484 net.cpp:399] inception_5a/output_inception_5a/output_0_split -> inception_5a/output_inception_5a/output_0_split_3
I0403 15:19:57.663751 31484 net.cpp:141] Setting up inception_5a/output_inception_5a/output_0_split
I0403 15:19:57.663774 31484 net.cpp:148] Top shape: 24 832 7 7 (978432)
I0403 15:19:57.663790 31484 net.cpp:148] Top shape: 24 832 7 7 (978432)
I0403 15:19:57.663805 31484 net.cpp:148] Top shape: 24 832 7 7 (978432)
I0403 15:19:57.663820 31484 net.cpp:148] Top shape: 24 832 7 7 (978432)
I0403 15:19:57.663833 31484 net.cpp:156] Memory required for data: 1325241888
I0403 15:19:57.663848 31484 layer_factory.hpp:77] Creating layer inception_5b/1x1
I0403 15:19:57.663872 31484 net.cpp:91] Creating Layer inception_5b/1x1
I0403 15:19:57.663889 31484 net.cpp:425] inception_5b/1x1 <- inception_5a/output_inception_5a/output_0_split_0
I0403 15:19:57.663908 31484 net.cpp:399] inception_5b/1x1 -> inception_5b/1x1
I0403 15:19:57.667681 31484 net.cpp:141] Setting up inception_5b/1x1
I0403 15:19:57.667711 31484 net.cpp:148] Top shape: 24 384 7 7 (451584)
I0403 15:19:57.667727 31484 net.cpp:156] Memory required for data: 1327048224
I0403 15:19:57.667745 31484 layer_factory.hpp:77] Creating layer inception_5b/relu_1x1
I0403 15:19:57.667767 31484 net.cpp:91] Creating Layer inception_5b/relu_1x1
I0403 15:19:57.667783 31484 net.cpp:425] inception_5b/relu_1x1 <- inception_5b/1x1
I0403 15:19:57.667800 31484 net.cpp:386] inception_5b/relu_1x1 -> inception_5b/1x1 (in-place)
I0403 15:19:57.668105 31484 net.cpp:141] Setting up inception_5b/relu_1x1
I0403 15:19:57.668131 31484 net.cpp:148] Top shape: 24 384 7 7 (451584)
I0403 15:19:57.668146 31484 net.cpp:156] Memory required for data: 1328854560
I0403 15:19:57.668161 31484 layer_factory.hpp:77] Creating layer inception_5b/3x3_reduce
I0403 15:19:57.668185 31484 net.cpp:91] Creating Layer inception_5b/3x3_reduce
I0403 15:19:57.668203 31484 net.cpp:425] inception_5b/3x3_reduce <- inception_5a/output_inception_5a/output_0_split_1
I0403 15:19:57.668226 31484 net.cpp:399] inception_5b/3x3_reduce -> inception_5b/3x3_reduce
I0403 15:19:57.670974 31484 net.cpp:141] Setting up inception_5b/3x3_reduce
I0403 15:19:57.671005 31484 net.cpp:148] Top shape: 24 192 7 7 (225792)
I0403 15:19:57.671022 31484 net.cpp:156] Memory required for data: 1329757728
I0403 15:19:57.671041 31484 layer_factory.hpp:77] Creating layer inception_5b/relu_3x3_reduce
I0403 15:19:57.671061 31484 net.cpp:91] Creating Layer inception_5b/relu_3x3_reduce
I0403 15:19:57.671077 31484 net.cpp:425] inception_5b/relu_3x3_reduce <- inception_5b/3x3_reduce
I0403 15:19:57.671097 31484 net.cpp:386] inception_5b/relu_3x3_reduce -> inception_5b/3x3_reduce (in-place)
I0403 15:19:57.671293 31484 net.cpp:141] Setting up inception_5b/relu_3x3_reduce
I0403 15:19:57.671319 31484 net.cpp:148] Top shape: 24 192 7 7 (225792)
I0403 15:19:57.671334 31484 net.cpp:156] Memory required for data: 1330660896
I0403 15:19:57.671347 31484 layer_factory.hpp:77] Creating layer inception_5b/3x3
I0403 15:19:57.671371 31484 net.cpp:91] Creating Layer inception_5b/3x3
I0403 15:19:57.671389 31484 net.cpp:425] inception_5b/3x3 <- inception_5b/3x3_reduce
I0403 15:19:57.671411 31484 net.cpp:399] inception_5b/3x3 -> inception_5b/3x3
I0403 15:19:57.678303 31484 net.cpp:141] Setting up inception_5b/3x3
I0403 15:19:57.678331 31484 net.cpp:148] Top shape: 24 384 7 7 (451584)
I0403 15:19:57.678347 31484 net.cpp:156] Memory required for data: 1332467232
I0403 15:19:57.678365 31484 layer_factory.hpp:77] Creating layer inception_5b/relu_3x3
I0403 15:19:57.678385 31484 net.cpp:91] Creating Layer inception_5b/relu_3x3
I0403 15:19:57.678402 31484 net.cpp:425] inception_5b/relu_3x3 <- inception_5b/3x3
I0403 15:19:57.678419 31484 net.cpp:386] inception_5b/relu_3x3 -> inception_5b/3x3 (in-place)
I0403 15:19:57.678725 31484 net.cpp:141] Setting up inception_5b/relu_3x3
I0403 15:19:57.678752 31484 net.cpp:148] Top shape: 24 384 7 7 (451584)
I0403 15:19:57.678766 31484 net.cpp:156] Memory required for data: 1334273568
I0403 15:19:57.678781 31484 layer_factory.hpp:77] Creating layer inception_5b/5x5_reduce
I0403 15:19:57.678819 31484 net.cpp:91] Creating Layer inception_5b/5x5_reduce
I0403 15:19:57.678838 31484 net.cpp:425] inception_5b/5x5_reduce <- inception_5a/output_inception_5a/output_0_split_2
I0403 15:19:57.678860 31484 net.cpp:399] inception_5b/5x5_reduce -> inception_5b/5x5_reduce
I0403 15:19:57.680136 31484 net.cpp:141] Setting up inception_5b/5x5_reduce
I0403 15:19:57.680165 31484 net.cpp:148] Top shape: 24 48 7 7 (56448)
I0403 15:19:57.680179 31484 net.cpp:156] Memory required for data: 1334499360
I0403 15:19:57.680197 31484 layer_factory.hpp:77] Creating layer inception_5b/relu_5x5_reduce
I0403 15:19:57.680218 31484 net.cpp:91] Creating Layer inception_5b/relu_5x5_reduce
I0403 15:19:57.680235 31484 net.cpp:425] inception_5b/relu_5x5_reduce <- inception_5b/5x5_reduce
I0403 15:19:57.680253 31484 net.cpp:386] inception_5b/relu_5x5_reduce -> inception_5b/5x5_reduce (in-place)
I0403 15:19:57.680658 31484 net.cpp:141] Setting up inception_5b/relu_5x5_reduce
I0403 15:19:57.680685 31484 net.cpp:148] Top shape: 24 48 7 7 (56448)
I0403 15:19:57.680701 31484 net.cpp:156] Memory required for data: 1334725152
I0403 15:19:57.680717 31484 layer_factory.hpp:77] Creating layer inception_5b/5x5
I0403 15:19:57.680738 31484 net.cpp:91] Creating Layer inception_5b/5x5
I0403 15:19:57.680755 31484 net.cpp:425] inception_5b/5x5 <- inception_5b/5x5_reduce
I0403 15:19:57.680775 31484 net.cpp:399] inception_5b/5x5 -> inception_5b/5x5
I0403 15:19:57.682899 31484 net.cpp:141] Setting up inception_5b/5x5
I0403 15:19:57.682929 31484 net.cpp:148] Top shape: 24 128 7 7 (150528)
I0403 15:19:57.682945 31484 net.cpp:156] Memory required for data: 1335327264
I0403 15:19:57.682962 31484 layer_factory.hpp:77] Creating layer inception_5b/relu_5x5
I0403 15:19:57.682983 31484 net.cpp:91] Creating Layer inception_5b/relu_5x5
I0403 15:19:57.683001 31484 net.cpp:425] inception_5b/relu_5x5 <- inception_5b/5x5
I0403 15:19:57.683018 31484 net.cpp:386] inception_5b/relu_5x5 -> inception_5b/5x5 (in-place)
I0403 15:19:57.683218 31484 net.cpp:141] Setting up inception_5b/relu_5x5
I0403 15:19:57.683245 31484 net.cpp:148] Top shape: 24 128 7 7 (150528)
I0403 15:19:57.683261 31484 net.cpp:156] Memory required for data: 1335929376
I0403 15:19:57.683277 31484 layer_factory.hpp:77] Creating layer inception_5b/pool
I0403 15:19:57.683295 31484 net.cpp:91] Creating Layer inception_5b/pool
I0403 15:19:57.683311 31484 net.cpp:425] inception_5b/pool <- inception_5a/output_inception_5a/output_0_split_3
I0403 15:19:57.683332 31484 net.cpp:399] inception_5b/pool -> inception_5b/pool
I0403 15:19:57.683408 31484 net.cpp:141] Setting up inception_5b/pool
I0403 15:19:57.683432 31484 net.cpp:148] Top shape: 24 832 7 7 (978432)
I0403 15:19:57.683447 31484 net.cpp:156] Memory required for data: 1339843104
I0403 15:19:57.683462 31484 layer_factory.hpp:77] Creating layer inception_5b/pool_proj
I0403 15:19:57.683485 31484 net.cpp:91] Creating Layer inception_5b/pool_proj
I0403 15:19:57.683508 31484 net.cpp:425] inception_5b/pool_proj <- inception_5b/pool
I0403 15:19:57.683529 31484 net.cpp:399] inception_5b/pool_proj -> inception_5b/pool_proj
I0403 15:19:57.685930 31484 net.cpp:141] Setting up inception_5b/pool_proj
I0403 15:19:57.685961 31484 net.cpp:148] Top shape: 24 128 7 7 (150528)
I0403 15:19:57.685977 31484 net.cpp:156] Memory required for data: 1340445216
I0403 15:19:57.685997 31484 layer_factory.hpp:77] Creating layer inception_5b/relu_pool_proj
I0403 15:19:57.686017 31484 net.cpp:91] Creating Layer inception_5b/relu_pool_proj
I0403 15:19:57.686034 31484 net.cpp:425] inception_5b/relu_pool_proj <- inception_5b/pool_proj
I0403 15:19:57.686053 31484 net.cpp:386] inception_5b/relu_pool_proj -> inception_5b/pool_proj (in-place)
I0403 15:19:57.686367 31484 net.cpp:141] Setting up inception_5b/relu_pool_proj
I0403 15:19:57.686394 31484 net.cpp:148] Top shape: 24 128 7 7 (150528)
I0403 15:19:57.686409 31484 net.cpp:156] Memory required for data: 1341047328
I0403 15:19:57.686424 31484 layer_factory.hpp:77] Creating layer inception_5b/output
I0403 15:19:57.686445 31484 net.cpp:91] Creating Layer inception_5b/output
I0403 15:19:57.686476 31484 net.cpp:425] inception_5b/output <- inception_5b/1x1
I0403 15:19:57.686496 31484 net.cpp:425] inception_5b/output <- inception_5b/3x3
I0403 15:19:57.686517 31484 net.cpp:425] inception_5b/output <- inception_5b/5x5
I0403 15:19:57.686534 31484 net.cpp:425] inception_5b/output <- inception_5b/pool_proj
I0403 15:19:57.686552 31484 net.cpp:399] inception_5b/output -> inception_5b/output
I0403 15:19:57.686605 31484 net.cpp:141] Setting up inception_5b/output
I0403 15:19:57.686631 31484 net.cpp:148] Top shape: 24 1024 7 7 (1204224)
I0403 15:19:57.686648 31484 net.cpp:156] Memory required for data: 1345864224
I0403 15:19:57.686663 31484 layer_factory.hpp:77] Creating layer pool5/7x7_s1
I0403 15:19:57.686681 31484 net.cpp:91] Creating Layer pool5/7x7_s1
I0403 15:19:57.686697 31484 net.cpp:425] pool5/7x7_s1 <- inception_5b/output
I0403 15:19:57.686717 31484 net.cpp:399] pool5/7x7_s1 -> pool5/7x7_s1
I0403 15:19:57.686941 31484 net.cpp:141] Setting up pool5/7x7_s1
I0403 15:19:57.686967 31484 net.cpp:148] Top shape: 24 1024 1 1 (24576)
I0403 15:19:57.686983 31484 net.cpp:156] Memory required for data: 1345962528
I0403 15:19:57.686998 31484 layer_factory.hpp:77] Creating layer pool5/drop_7x7_s1
I0403 15:19:57.687019 31484 net.cpp:91] Creating Layer pool5/drop_7x7_s1
I0403 15:19:57.687036 31484 net.cpp:425] pool5/drop_7x7_s1 <- pool5/7x7_s1
I0403 15:19:57.687053 31484 net.cpp:386] pool5/drop_7x7_s1 -> pool5/7x7_s1 (in-place)
I0403 15:19:57.687108 31484 net.cpp:141] Setting up pool5/drop_7x7_s1
I0403 15:19:57.687131 31484 net.cpp:148] Top shape: 24 1024 1 1 (24576)
I0403 15:19:57.687145 31484 net.cpp:156] Memory required for data: 1346060832
I0403 15:19:57.687160 31484 layer_factory.hpp:77] Creating layer loss3/classifier_plantvillage
I0403 15:19:57.687181 31484 net.cpp:91] Creating Layer loss3/classifier_plantvillage
I0403 15:19:57.687199 31484 net.cpp:425] loss3/classifier_plantvillage <- pool5/7x7_s1
I0403 15:19:57.687218 31484 net.cpp:399] loss3/classifier_plantvillage -> loss3/classifier_plantvillage
I0403 15:19:57.687665 31484 net.cpp:141] Setting up loss3/classifier_plantvillage
I0403 15:19:57.687690 31484 net.cpp:148] Top shape: 24 38 (912)
I0403 15:19:57.687705 31484 net.cpp:156] Memory required for data: 1346064480
I0403 15:19:57.687724 31484 layer_factory.hpp:77] Creating layer loss3/classifier_plantvillage_loss3/classifier_plantvillage_0_split
I0403 15:19:57.687754 31484 net.cpp:91] Creating Layer loss3/classifier_plantvillage_loss3/classifier_plantvillage_0_split
I0403 15:19:57.687769 31484 net.cpp:425] loss3/classifier_plantvillage_loss3/classifier_plantvillage_0_split <- loss3/classifier_plantvillage
I0403 15:19:57.687789 31484 net.cpp:399] loss3/classifier_plantvillage_loss3/classifier_plantvillage_0_split -> loss3/classifier_plantvillage_loss3/classifier_plantvillage_0_split_0
I0403 15:19:57.687810 31484 net.cpp:399] loss3/classifier_plantvillage_loss3/classifier_plantvillage_0_split -> loss3/classifier_plantvillage_loss3/classifier_plantvillage_0_split_1
I0403 15:19:57.687831 31484 net.cpp:399] loss3/classifier_plantvillage_loss3/classifier_plantvillage_0_split -> loss3/classifier_plantvillage_loss3/classifier_plantvillage_0_split_2
I0403 15:19:57.687851 31484 net.cpp:399] loss3/classifier_plantvillage_loss3/classifier_plantvillage_0_split -> loss3/classifier_plantvillage_loss3/classifier_plantvillage_0_split_3
I0403 15:19:57.687952 31484 net.cpp:141] Setting up loss3/classifier_plantvillage_loss3/classifier_plantvillage_0_split
I0403 15:19:57.687978 31484 net.cpp:148] Top shape: 24 38 (912)
I0403 15:19:57.687995 31484 net.cpp:148] Top shape: 24 38 (912)
I0403 15:19:57.688010 31484 net.cpp:148] Top shape: 24 38 (912)
I0403 15:19:57.688035 31484 net.cpp:148] Top shape: 24 38 (912)
I0403 15:19:57.688050 31484 net.cpp:156] Memory required for data: 1346079072
I0403 15:19:57.688063 31484 layer_factory.hpp:77] Creating layer loss1/loss
I0403 15:19:57.688086 31484 net.cpp:91] Creating Layer loss1/loss
I0403 15:19:57.688107 31484 net.cpp:425] loss1/loss <- loss1/classifier_plantvillage_loss1/classifier_plantvillage_0_split_0
I0403 15:19:57.688141 31484 net.cpp:425] loss1/loss <- label_data_1_split_0
…
