…
I0403 15:08:15.000931 31182 net.cpp:313] The NetState phase (1) differed from the phase (0) specified by a rule in layer data
I0403 15:08:15.002115 31182 net.cpp:49] Initializing net from parameters: 
state {
  phase: TEST
}
layer {
  name: "data"
  type: "Data"
  top: "data"
  top: "label"
  include {
    phase: TEST
  }
  transform_param {
    mirror: false
    crop_size: 224
    mean_file: "/home/mohanty/data/final_dataset/lmdb/grayscale-80-20/mean.binaryproto"
  }
  data_param {
    source: "/home/mohanty/data/final_dataset/lmdb/grayscale-80-20/test_db"
    batch_size: 24
    backend: LMDB
  }
}
layer {
  name: "conv1/7x7_s2"
  type: "Convolution"
  bottom: "data"
  top: "conv1/7x7_s2"
  param {
    lr_mult: 1
    decay_mult: 1
  }
  param {
    lr_mult: 2
    decay_mult: 0
  }
  convolution_param {
    num_output: 64
    pad: 3
    kernel_size: 7
    stride: 2
    weight_filler {
      type: "xavier"
      std: 0.1
    }
    bias_filler {
      type: "constant"
      value: 0.2
    }
  }
}
layer {
  name: "conv1/relu_7x7"
  type: "ReLU"
  bottom: "conv1/7x7_s2"
  top: "conv1/7x7_s2"
}
layer {
  name: "pool1/3x3_s2"
  type: "Pooling"
  bottom: "conv1/7x7_s2"
  top: "pool1/3x3_s2"
  pooling_param {
    pool: MAX
    kernel_size: 3
    stride: 2
  }
}
layer {
  name: "pool1/norm1"
  type: "LRN"
  bottom: "pool1/3x3_s2"
  top: "pool1/norm1"
  lrn_param {
    local_size: 5
    alpha: 0.0001
    beta: 0.75
  }
}
layer {
  name: "conv2/3x3_reduce"
  type: "Convolution"
  bottom: "pool1/norm1"
  top: "conv2/3x3_reduce"
  param {
    lr_mult: 1
    decay_mult: 1
  }
  param {
    lr_mult: 2
    decay_mult: 0
  }
  convolution_param {
    num_output: 64
    kernel_size: 1
    weight_filler {
      type: "xavier"
      std: 0.1
    }
    bias_filler {
      type: "constant"
      value: 0.2
    }
  }
}
layer {
  name: "conv2/relu_3x3_reduce"
  type: "ReLU"
  bottom: "conv2/3x3_reduce"
  top: "conv2/3x3_reduce"
}
layer {
  name: "conv2/3x3"
  type: "Convolution"
  bottom: "conv2/3x3_reduce"
  top: "conv2/3x3"
  param {
    lr_mult: 1
    decay_mult: 1
  }
  param {
    lr_mult: 2
    decay_mult: 0
  }
  convolution_param {
    num_output: 192
    pad: 1
    kernel_size: 3
    weight_filler {
      type: "xavier"
      std: 0.03
    }
    bias_filler {
      type: "constant"
      value: 0.2
    }
  }
}
layer {
  name: "conv2/relu_3x3"
  type: "ReLU"
  bottom: "conv2/3x3"
  top: "conv2/3x3"
}
layer {
  name: "conv2/norm2"
  type: "LRN"
  bottom: "conv2/3x3"
  top: "conv2/norm2"
  lrn_param {
    local_size: 5
    alpha: 0.0001
    beta: 0.75
  }
}
layer {
  name: "pool2/3x3_s2"
  type: "Pooling"
  bottom: "conv2/norm2"
  top: "pool2/3x3_s2"
  pooling_param {
    pool: MAX
    kernel_size: 3
    stride: 2
  }
}
layer {
  name: "inception_3a/1x1"
  type: "Convolution"
  bottom: "pool2/3x3_s2"
  top: "inception_3a/1x1"
  param {
    lr_mult: 1
    decay_mult: 1
  }
  param {
    lr_mult: 2
    decay_mult: 0
  }
  convolution_param {
    num_output: 64
    kernel_size: 1
    weight_filler {
      type: "xavier"
      std: 0.03
    }
    bias_filler {
      type: "constant"
      value: 0.2
    }
  }
}
layer {
  name: "inception_3a/relu_1x1"
  type: "ReLU"
  bottom: "inception_3a/1x1"
  top: "inception_3a/1x1"
}
layer {
  name: "inception_3a/3x3_reduce"
  type: "Convolution"
  bottom: "pool2/3x3_s2"
  top: "inception_3a/3x3_reduce"
  param {
    lr_mult: 1
    decay_mult: 1
  }
  param {
    lr_mult: 2
    decay_mult: 0
  }
  convolution_param {
    num_output: 96
    kernel_size: 1
    weight_filler {
      type: "xavier"
      std: 0.09
    }
    bias_filler {
      type: "constant"
      value: 0.2
    }
  }
}
layer {
  name: "inception_3a/relu_3x3_reduce"
  type: "ReLU"
  bottom: "inception_3a/3x3_reduce"
  top: "inception_3a/3x3_reduce"
}
layer {
  name: "inception_3a/3x3"
  type: "Convolution"
  bottom: "inception_3a/3x3_reduce"
  top: "inception_3a/3x3"
  param {
    lr_mult: 1
    decay_mult: 1
  }
  param {
    lr_mult: 2
    decay_mult: 0
  }
  convolution_param {
    num_output: 128
    pad: 1
    kernel_size: 3
    weight_filler {
      type: "xavier"
      std: 0.03
    }
    bias_filler {
      type: "constant"
      value: 0.2
    }
  }
}
layer {
  name: "inception_3a/relu_3x3"
  type: "ReLU"
  bottom: "inception_3a/3x3"
  top: "inception_3a/3x3"
}
layer {
  name: "inception_3a/5x5_reduce"
  type: "Convolution"
  bottom: "pool2/3x3_s2"
  top: "inception_3a/5x5_reduce"
  param {
    lr_mult: 1
    decay_mult: 1
  }
  param {
    lr_mult: 2
    decay_mult: 0
  }
  convolution_param {
    num_output: 16
    kernel_size: 1
    weight_filler {
      type: "xavier"
      std: 0.2
    }
    bias_filler {
      type: "constant"
      value: 0.2
    }
  }
}
layer {
  name: "inception_3a/relu_5x5_reduce"
  type: "ReLU"
  bottom: "inception_3a/5x5_reduce"
  top: "inception_3a/5x5_reduce"
}
layer {
  name: "inception_3a/5x5"
  type: "Convolution"
  bottom: "inception_3a/5x5_reduce"
  top: "inception_3a/5x5"
  param {
    lr_mult: 1
    decay_mult: 1
  }
  param {
    lr_mult: 2
    decay_mult: 0
  }
  convolution_param {
    num_output: 32
    pad: 2
    kernel_size: 5
    weight_filler {
      type: "xavier"
      std: 0.03
    }
    bias_filler {
      type: "constant"
      value: 0.2
    }
  }
}
layer {
  name: "inception_3a/relu_5x5"
  type: "ReLU"
  bottom: "inception_3a/5x5"
  top: "inception_3a/5x5"
}
layer {
  name: "inception_3a/pool"
  type: "Pooling"
  bottom: "pool2/3x3_s2"
  top: "inception_3a/pool"
  pooling_param {
    pool: MAX
    kernel_size: 3
    stride: 1
    pad: 1
  }
}
layer {
  name: "inception_3a/pool_proj"
  type: "Convolution"
  bottom: "inception_3a/pool"
  top: "inception_3a/pool_proj"
  param {
    lr_mult: 1
    decay_mult: 1
  }
  param {
    lr_mult: 2
    decay_mult: 0
  }
  convolution_param {
    num_output: 32
    kernel_size: 1
    weight_filler {
      type: "xavier"
      std: 0.1
    }
    bias_filler {
      type: "constant"
      value: 0.2
    }
  }
}
layer {
  name: "inception_3a/relu_pool_proj"
  type: "ReLU"
  bottom: "inception_3a/pool_proj"
  top: "inception_3a/pool_proj"
}
layer {
  name: "inception_3a/output"
  type: "Concat"
  bottom: "inception_3a/1x1"
  bottom: "inception_3a/3x3"
  bottom: "inception_3a/5x5"
  bottom: "inception_3a/pool_proj"
  top: "inception_3a/output"
}
layer {
  name: "inception_3b/1x1"
  type: "Convolution"
  bottom: "inception_3a/output"
  top: "inception_3b/1x1"
  param {
    lr_mult: 1
    decay_mult: 1
  }
  param {
    lr_mult: 2
    decay_mult: 0
  }
  convolution_param {
    num_output: 128
    kernel_size: 1
    weight_filler {
      type: "xavier"
      std: 0.03
    }
    bias_filler {
      type: "constant"
      value: 0.2
    }
  }
}
layer {
  name: "inception_3b/relu_1x1"
  type: "ReLU"
  bottom: "inception_3b/1x1"
  top: "inception_3b/1x1"
}
layer {
  name: "inception_3b/3x3_reduce"
  type: "Convolution"
  bottom: "inception_3a/output"
  top: "inception_3b/3x3_reduce"
  param {
    lr_mult: 1
    decay_mult: 1
  }
  param {
    lr_mult: 2
    decay_mult: 0
  }
  convolution_param {
    num_output: 128
    kernel_size: 1
    weight_filler {
      type: "xavier"
      std: 0.09
    }
    bias_filler {
      type: "constant"
      value: 0.2
    }
  }
}
layer {
  name: "inception_3b/relu_3x3_reduce"
  type: "ReLU"
  bottom: "inception_3b/3x3_reduce"
  top: "inception_3b/3x3_reduce"
}
layer {
  name: "inception_3b/3x3"
  type: "Convolution"
  bottom: "inception_3b/3x3_reduce"
  top: "inception_3b/3x3"
  param {
    lr_mult: 1
    decay_mult: 1
  }
  param {
    lr_mult: 2
    decay_mult: 0
  }
  convolution_param {
    num_output: 192
    pad: 1
    kernel_size: 3
    weight_filler {
      type: "xavier"
      std: 0.03
    }
    bias_filler {
      type: "constant"
      value: 0.2
    }
  }
}
layer {
  name: "inception_3b/relu_3x3"
  type: "ReLU"
  bottom: "inception_3b/3x3"
  top: "inception_3b/3x3"
}
layer {
  name: "inception_3b/5x5_reduce"
  type: "Convolution"
  bottom: "inception_3a/output"
  top: "inception_3b/5x5_reduce"
  param {
    lr_mult: 1
    decay_mult: 1
  }
  param {
    lr_mult: 2
    decay_mult: 0
  }
  convolution_param {
    num_output: 32
    kernel_size: 1
    weight_filler {
      type: "xavier"
      std: 0.2
    }
    bias_filler {
      type: "constant"
      value: 0.2
    }
  }
}
layer {
  name: "inception_3b/relu_5x5_reduce"
  type: "ReLU"
  bottom: "inception_3b/5x5_reduce"
  top: "inception_3b/5x5_reduce"
}
layer {
  name: "inception_3b/5x5"
  type: "Convolution"
  bottom: "inception_3b/5x5_reduce"
  top: "inception_3b/5x5"
  param {
    lr_mult: 1
    decay_mult: 1
  }
  param {
    lr_mult: 2
    decay_mult: 0
  }
  convolution_param {
    num_output: 96
    pad: 2
    kernel_size: 5
    weight_filler {
      type: "xavier"
      std: 0.03
    }
    bias_filler {
      type: "constant"
      value: 0.2
    }
  }
}
layer {
  name: "inception_3b/relu_5x5"
  type: "ReLU"
  bottom: "inception_3b/5x5"
  top: "inception_3b/5x5"
}
layer {
  name: "inception_3b/pool"
  type: "Pooling"
  bottom: "inception_3a/output"
  top: "inception_3b/pool"
  pooling_param {
    pool: MAX
    kernel_size: 3
    stride: 1
    pad: 1
  }
}
layer {
  name: "inception_3b/pool_proj"
  type: "Convolution"
  bottom: "inception_3b/pool"
  top: "inception_3b/pool_proj"
  param {
    lr_mult: 1
    decay_mult: 1
  }
  param {
    lr_mult: 2
    decay_mult: 0
  }
  convolution_param {
    num_output: 64
    kernel_size: 1
    weight_filler {
      type: "xavier"
      std: 0.1
    }
    bias_filler {
      type: "constant"
      value: 0.2
    }
  }
}
layer {
  name: "inception_3b/relu_pool_proj"
  type: "ReLU"
  bottom: "inception_3b/pool_proj"
  top: "inception_3b/pool_proj"
}
layer {
  name: "inception_3b/output"
  type: "Concat"
  bottom: "inception_3b/1x1"
  bottom: "inception_3b/3x3"
  bottom: "inception_3b/5x5"
  bottom: "inception_3b/pool_proj"
  top: "inception_3b/output"
}
layer {
  name: "pool3/3x3_s2"
  type: "Pooling"
  bottom: "inception_3b/output"
  top: "pool3/3x3_s2"
  pooling_param {
    pool: MAX
    kernel_size: 3
    stride: 2
  }
}
layer {
  name: "inception_4a/1x1"
  type: "Convolution"
  bottom: "pool3/3x3_s2"
  top: "inception_4a/1x1"
  param {
    lr_mult: 1
    decay_mult: 1
  }
  param {
    lr_mult: 2
    decay_mult: 0
  }
  convolution_param {
    num_output: 192
    kernel_size: 1
    weight_filler {
      type: "xavier"
      std: 0.03
    }
    bias_filler {
      type: "constant"
      value: 0.2
    }
  }
}
layer {
  name: "inception_4a/relu_1x1"
  type: "ReLU"
  bottom: "inception_4a/1x1"
  top: "inception_4a/1x1"
}
layer {
  name: "inception_4a/3x3_reduce"
  type: "Convolution"
  bottom: "pool3/3x3_s2"
  top: "inception_4a/3x3_reduce"
  param {
    lr_mult: 1
    decay_mult: 1
  }
  param {
    lr_mult: 2
    decay_mult: 0
  }
  convolution_param {
    num_output: 96
    kernel_size: 1
    weight_filler {
      type: "xavier"
      std: 0.09
    }
    bias_filler {
      type: "constant"
      value: 0.2
    }
  }
}
layer {
  name: "inception_4a/relu_3x3_reduce"
  type: "ReLU"
  bottom: "inception_4a/3x3_reduce"
  top: "inception_4a/3x3_reduce"
}
layer {
  name: "inception_4a/3x3"
  type: "Convolution"
  bottom: "inception_4a/3x3_reduce"
  top: "inception_4a/3x3"
  param {
    lr_mult: 1
    decay_mult: 1
  }
  param {
    lr_mult: 2
    decay_mult: 0
  }
  convolution_param {
    num_output: 208
    pad: 1
    kernel_size: 3
    weight_filler {
      type: "xavier"
      std: 0.03
    }
    bias_filler {
      type: "constant"
      value: 0.2
    }
  }
}
layer {
  name: "inception_4a/relu_3x3"
  type: "ReLU"
  bottom: "inception_4a/3x3"
  top: "inception_4a/3x3"
}
layer {
  name: "inception_4a/5x5_reduce"
  type: "Convolution"
  bottom: "pool3/3x3_s2"
  top: "inception_4a/5x5_reduce"
  param {
    lr_mult: 1
    decay_mult: 1
  }
  param {
    lr_mult: 2
    decay_mult: 0
  }
  convolution_param {
    num_output: 16
    kernel_size: 1
    weight_filler {
      type: "xavier"
      std: 0.2
    }
    bias_filler {
      type: "constant"
      value: 0.2
    }
  }
}
layer {
  name: "inception_4a/relu_5x5_reduce"
  type: "ReLU"
  bottom: "inception_4a/5x5_reduce"
  top: "inception_4a/5x5_reduce"
}
layer {
  name: "inception_4a/5x5"
  type: "Convolution"
  bottom: "inception_4a/5x5_reduce"
  top: "inception_4a/5x5"
  param {
    lr_mult: 1
    decay_mult: 1
  }
  param {
    lr_mult: 2
    decay_mult: 0
  }
  convolution_param {
    num_output: 48
    pad: 2
    kernel_size: 5
    weight_filler {
      type: "xavier"
      std: 0.03
    }
    bias_filler {
      type: "constant"
      value: 0.2
    }
  }
}
layer {
  name: "inception_4a/relu_5x5"
  type: "ReLU"
  bottom: "inception_4a/5x5"
  top: "inception_4a/5x5"
}
layer {
  name: "inception_4a/pool"
  type: "Pooling"
  bottom: "pool3/3x3_s2"
  top: "inception_4a/pool"
  pooling_param {
    pool: MAX
    kernel_size: 3
    stride: 1
    pad: 1
  }
}
layer {
  name: "inception_4a/pool_proj"
  type: "Convolution"
  bottom: "inception_4a/pool"
  top: "inception_4a/pool_proj"
  param {
    lr_mult: 1
    decay_mult: 1
  }
  param {
    lr_mult: 2
    decay_mult: 0
  }
  convolution_param {
    num_output: 64
    kernel_size: 1
    weight_filler {
      type: "xavier"
      std: 0.1
    }
    bias_filler {
      type: "constant"
      value: 0.2
    }
  }
}
layer {
  name: "inception_4a/relu_pool_proj"
  type: "ReLU"
  bottom: "inception_4a/pool_proj"
  top: "inception_4a/pool_proj"
}
layer {
  name: "inception_4a/output"
  type: "Concat"
  bottom: "inception_4a/1x1"
  bottom: "inception_4a/3x3"
  bottom: "inception_4a/5x5"
  bottom: "inception_4a/pool_proj"
  top: "inception_4a/output"
}
layer {
  name: "loss1/ave_pool"
  type: "Pooling"
  bottom: "inception_4a/output"
  top: "loss1/ave_pool"
  pooling_param {
    pool: AVE
    kernel_size: 5
    stride: 3
  }
}
layer {
  name: "loss1/conv"
  type: "Convolution"
  bottom: "loss1/ave_pool"
  top: "loss1/conv"
  param {
    lr_mult: 1
    decay_mult: 1
  }
  param {
    lr_mult: 2
    decay_mult: 0
  }
  convolution_param {
    num_output: 128
    kernel_size: 1
    weight_filler {
      type: "xavier"
      std: 0.08
    }
    bias_filler {
      type: "constant"
      value: 0.2
    }
  }
}
layer {
  name: "loss1/relu_conv"
  type: "ReLU"
  bottom: "loss1/conv"
  top: "loss1/conv"
}
layer {
  name: "loss1/fc"
  type: "InnerProduct"
  bottom: "loss1/conv"
  top: "loss1/fc"
  param {
    lr_mult: 1
    decay_mult: 1
  }
  param {
    lr_mult: 2
    decay_mult: 0
  }
  inner_product_param {
    num_output: 1024
    weight_filler {
      type: "xavier"
      std: 0.02
    }
    bias_filler {
      type: "constant"
      value: 0.2
    }
  }
}
layer {
  name: "loss1/relu_fc"
  type: "ReLU"
  bottom: "loss1/fc"
  top: "loss1/fc"
}
layer {
  name: "loss1/drop_fc"
  type: "Dropout"
  bottom: "loss1/fc"
  top: "loss1/fc"
  dropout_param {
    dropout_ratio: 0.7
  }
}
layer {
  name: "loss1/classifier_plantvillage"
  type: "InnerProduct"
  bottom: "loss1/fc"
  top: "loss1/classifier_plantvillage"
  param {
    lr_mult: 1
    decay_mult: 1
  }
  param {
    lr_mult: 2
    decay_mult: 0
  }
  inner_product_param {
    num_output: 38
    weight_filler {
      type: "xavier"
      std: 0.0009765625
    }
    bias_filler {
      type: "constant"
      value: 0
    }
  }
}
layer {
  name: "inception_4b/1x1"
  type: "Convolution"
  bottom: "inception_4a/output"
  top: "inception_4b/1x1"
  param {
    lr_mult: 1
    decay_mult: 1
  }
  param {
    lr_mult: 2
    decay_mult: 0
  }
  convolution_param {
    num_output: 160
    kernel_size: 1
    weight_filler {
      type: "xavier"
      std: 0.03
    }
    bias_filler {
      type: "constant"
      value: 0.2
    }
  }
}
layer {
  name: "inception_4b/relu_1x1"
  type: "ReLU"
  bottom: "inception_4b/1x1"
  top: "inception_4b/1x1"
}
layer {
  name: "inception_4b/3x3_reduce"
  type: "Convolution"
  bottom: "inception_4a/output"
  top: "inception_4b/3x3_reduce"
  param {
    lr_mult: 1
    decay_mult: 1
  }
  param {
    lr_mult: 2
    decay_mult: 0
  }
  convolution_param {
    num_output: 112
    kernel_size: 1
    weight_filler {
      type: "xavier"
      std: 0.09
    }
    bias_filler {
      type: "constant"
      value: 0.2
    }
  }
}
layer {
  name: "inception_4b/relu_3x3_reduce"
  type: "ReLU"
  bottom: "inception_4b/3x3_reduce"
  top: "inception_4b/3x3_reduce"
}
layer {
  name: "inception_4b/3x3"
  type: "Convolution"
  bottom: "inception_4b/3x3_reduce"
  top: "inception_4b/3x3"
  param {
    lr_mult: 1
    decay_mult: 1
  }
  param {
    lr_mult: 2
    decay_mult: 0
  }
  convolution_param {
    num_output: 224
    pad: 1
    kernel_size: 3
    weight_filler {
      type: "xavier"
      std: 0.03
    }
    bias_filler {
      type: "constant"
      value: 0.2
    }
  }
}
layer {
  name: "inception_4b/relu_3x3"
  type: "ReLU"
  bottom: "inception_4b/3x3"
  top: "inception_4b/3x3"
}
layer {
  name: "inception_4b/5x5_reduce"
  type: "Convolution"
  bottom: "inception_4a/output"
  top: "inception_4b/5x5_reduce"
  param {
    lr_mult: 1
    decay_mult: 1
  }
  param {
    lr_mult: 2
    decay_mult: 0
  }
  convolution_param {
    num_output: 24
    kernel_size: 1
    weight_filler {
      type: "xavier"
      std: 0.2
    }
    bias_filler {
      type: "constant"
      value: 0.2
    }
  }
}
layer {
  name: "inception_4b/relu_5x5_reduce"
  type: "ReLU"
  bottom: "inception_4b/5x5_reduce"
  top: "inception_4b/5x5_reduce"
}
layer {
  name: "inception_4b/5x5"
  type: "Convolution"
  bottom: "inception_4b/5x5_reduce"
  top: "inception_4b/5x5"
  param {
    lr_mult: 1
    decay_mult: 1
  }
  param {
    lr_mult: 2
    decay_mult: 0
  }
  convolution_param {
    num_output: 64
    pad: 2
    kernel_size: 5
    weight_filler {
      type: "xavier"
      std: 0.03
    }
    bias_filler {
      type: "constant"
      value: 0.2
    }
  }
}
layer {
  name: "inception_4b/relu_5x5"
  type: "ReLU"
  bottom: "inception_4b/5x5"
  top: "inception_4b/5x5"
}
layer {
  name: "inception_4b/pool"
  type: "Pooling"
  bottom: "inception_4a/output"
  top: "inception_4b/pool"
  pooling_param {
    pool: MAX
    kernel_size: 3
    stride: 1
    pad: 1
  }
}
layer {
  name: "inception_4b/pool_proj"
  type: "Convolution"
  bottom: "inception_4b/pool"
  top: "inception_4b/pool_proj"
  param {
    lr_mult: 1
    decay_mult: 1
  }
  param {
    lr_mult: 2
    decay_mult: 0
  }
  convolution_param {
    num_output: 64
    kernel_size: 1
    weight_filler {
      type: "xavier"
      std: 0.1
    }
    bias_filler {
      type: "constant"
      value: 0.2
    }
  }
}
layer {
  name: "inception_4b/relu_pool_proj"
  type: "ReLU"
  bottom: "inception_4b/pool_proj"
  top: "inception_4b/pool_proj"
}
layer {
  name: "inception_4b/output"
  type: "Concat"
  bottom: "inception_4b/1x1"
  bottom: "inception_4b/3x3"
  bottom: "inception_4b/5x5"
  bottom: "inception_4b/pool_proj"
  top: "inception_4b/output"
}
layer {
  name: "inception_4c/1x1"
  type: "Convolution"
  bottom: "inception_4b/output"
  top: "inception_4c/1x1"
  param {
    lr_mult: 1
    decay_mult: 1
  }
  param {
    lr_mult: 2
    decay_mult: 0
  }
  convolution_param {
    num_output: 128
    kernel_size: 1
    weight_filler {
      type: "xavier"
      std: 0.03
    }
    bias_filler {
      type: "constant"
      value: 0.2
    }
  }
}
layer {
  name: "inception_4c/relu_1x1"
  type: "ReLU"
  bottom: "inception_4c/1x1"
  top: "inception_4c/1x1"
}
layer {
  name: "inception_4c/3x3_reduce"
  type: "Convolution"
  bottom: "inception_4b/output"
  top: "inception_4c/3x3_reduce"
  param {
    lr_mult: 1
    decay_mult: 1
  }
  param {
    lr_mult: 2
    decay_mult: 0
  }
  convolution_param {
    num_output: 128
    kernel_size: 1
    weight_filler {
      type: "xavier"
      std: 0.09
    }
    bias_filler {
      type: "constant"
      value: 0.2
    }
  }
}
layer {
  name: "inception_4c/relu_3x3_reduce"
  type: "ReLU"
  bottom: "inception_4c/3x3_reduce"
  top: "inception_4c/3x3_reduce"
}
layer {
  name: "inception_4c/3x3"
  type: "Convolution"
  bottom: "inception_4c/3x3_reduce"
  top: "inception_4c/3x3"
  param {
    lr_mult: 1
    decay_mult: 1
  }
  param {
    lr_mult: 2
    decay_mult: 0
  }
  convolution_param {
    num_output: 256
    pad: 1
    kernel_size: 3
    weight_filler {
      type: "xavier"
      std: 0.03
    }
    bias_filler {
      type: "constant"
      value: 0.2
    }
  }
}
layer {
  name: "inception_4c/relu_3x3"
  type: "ReLU"
  bottom: "inception_4c/3x3"
  top: "inception_4c/3x3"
}
layer {
  name: "inception_4c/5x5_reduce"
  type: "Convolution"
  bottom: "inception_4b/output"
  top: "inception_4c/5x5_reduce"
  param {
    lr_mult: 1
    decay_mult: 1
  }
  param {
    lr_mult: 2
    decay_mult: 0
  }
  convolution_param {
    num_output: 24
    kernel_size: 1
    weight_filler {
      type: "xavier"
      std: 0.2
    }
    bias_filler {
      type: "constant"
      value: 0.2
    }
  }
}
layer {
  name: "inception_4c/relu_5x5_reduce"
  type: "ReLU"
  bottom: "inception_4c/5x5_reduce"
  top: "inception_4c/5x5_reduce"
}
layer {
  name: "inception_4c/5x5"
  type: "Convolution"
  bottom: "inception_4c/5x5_reduce"
  top: "inception_4c/5x5"
  param {
    lr_mult: 1
    decay_mult: 1
  }
  param {
    lr_mult: 2
    decay_mult: 0
  }
  convolution_param {
    num_output: 64
    pad: 2
    kernel_size: 5
    weight_filler {
      type: "xavier"
      std: 0.03
    }
    bias_filler {
      type: "constant"
      value: 0.2
    }
  }
}
layer {
  name: "inception_4c/relu_5x5"
  type: "ReLU"
  bottom: "inception_4c/5x5"
  top: "inception_4c/5x5"
}
layer {
  name: "inception_4c/pool"
  type: "Pooling"
  bottom: "inception_4b/output"
  top: "inception_4c/pool"
  pooling_param {
    pool: MAX
    kernel_size: 3
    stride: 1
    pad: 1
  }
}
layer {
  name: "inception_4c/pool_proj"
  type: "Convolution"
  bottom: "inception_4c/pool"
  top: "inception_4c/pool_proj"
  param {
    lr_mult: 1
    decay_mult: 1
  }
  param {
    lr_mult: 2
    decay_mult: 0
  }
  convolution_param {
    num_output: 64
    kernel_size: 1
    weight_filler {
      type: "xavier"
      std: 0.1
    }
    bias_filler {
      type: "constant"
      value: 0.2
    }
  }
}
layer {
  name: "inception_4c/relu_pool_proj"
  type: "ReLU"
  bottom: "inception_4c/pool_proj"
  top: "inception_4c/pool_proj"
}
layer {
  name: "inception_4c/output"
  type: "Concat"
  bottom: "inception_4c/1x1"
  bottom: "inception_4c/3x3"
  bottom: "inception_4c/5x5"
  bottom: "inception_4c/pool_proj"
  top: "inception_4c/output"
}
layer {
  name: "inception_4d/1x1"
  type: "Convolution"
  bottom: "inception_4c/output"
  top: "inception_4d/1x1"
  param {
    lr_mult: 1
    decay_mult: 1
  }
  param {
    lr_mult: 2
    decay_mult: 0
  }
  convolution_param {
    num_output: 112
    kernel_size: 1
    weight_filler {
      type: "xavier"
      std: 0.03
    }
    bias_filler {
      type: "constant"
      value: 0.2
    }
  }
}
layer {
  name: "inception_4d/relu_1x1"
  type: "ReLU"
  bottom: "inception_4d/1x1"
  top: "inception_4d/1x1"
}
layer {
  name: "inception_4d/3x3_reduce"
  type: "Convolution"
  bottom: "inception_4c/output"
  top: "inception_4d/3x3_reduce"
  param {
    lr_mult: 1
    decay_mult: 1
  }
  param {
    lr_mult: 2
    decay_mult: 0
  }
  convolution_param {
    num_output: 144
    kernel_size: 1
    weight_filler {
      type: "xavier"
      std: 0.09
    }
    bias_filler {
      type: "constant"
      value: 0.2
    }
  }
}
layer {
  name: "inception_4d/relu_3x3_reduce"
  type: "ReLU"
  bottom: "inception_4d/3x3_reduce"
  top: "inception_4d/3x3_reduce"
}
layer {
  name: "inception_4d/3x3"
  type: "Convolution"
  bottom: "inception_4d/3x3_reduce"
  top: "inception_4d/3x3"
  param {
    lr_mult: 1
    decay_mult: 1
  }
  param {
    lr_mult: 2
    decay_mult: 0
  }
  convolution_param {
    num_output: 288
    pad: 1
    kernel_size: 3
    weight_filler {
      type: "xavier"
      std: 0.03
    }
    bias_filler {
      type: "constant"
      value: 0.2
    }
  }
}
layer {
  name: "inception_4d/relu_3x3"
  type: "ReLU"
  bottom: "inception_4d/3x3"
  top: "inception_4d/3x3"
}
layer {
  name: "inception_4d/5x5_reduce"
  type: "Convolution"
  bottom: "inception_4c/output"
  top: "inception_4d/5x5_reduce"
  param {
    lr_mult: 1
    decay_mult: 1
  }
  param {
    lr_mult: 2
    decay_mult: 0
  }
  convolution_param {
    num_output: 32
    kernel_size: 1
    weight_filler {
      type: "xavier"
      std: 0.2
    }
    bias_filler {
      type: "constant"
      value: 0.2
    }
  }
}
layer {
  name: "inception_4d/relu_5x5_reduce"
  type: "ReLU"
  bottom: "inception_4d/5x5_reduce"
  top: "inception_4d/5x5_reduce"
}
layer {
  name: "inception_4d/5x5"
  type: "Convolution"
  bottom: "inception_4d/5x5_reduce"
  top: "inception_4d/5x5"
  param {
    lr_mult: 1
    decay_mult: 1
  }
  param {
    lr_mult: 2
    decay_mult: 0
  }
  convolution_param {
    num_output: 64
    pad: 2
    kernel_size: 5
    weight_filler {
      type: "xavier"
      std: 0.03
    }
    bias_filler {
      type: "constant"
      value: 0.2
    }
  }
}
layer {
  name: "inception_4d/relu_5x5"
  type: "ReLU"
  bottom: "inception_4d/5x5"
  top: "inception_4d/5x5"
}
layer {
  name: "inception_4d/pool"
  type: "Pooling"
  bottom: "inception_4c/output"
  top: "inception_4d/pool"
  pooling_param {
    pool: MAX
    kernel_size: 3
    stride: 1
    pad: 1
  }
}
layer {
  name: "inception_4d/pool_proj"
  type: "Convolution"
  bottom: "inception_4d/pool"
  top: "inception_4d/pool_proj"
  param {
    lr_mult: 1
    decay_mult: 1
  }
  param {
    lr_mult: 2
    decay_mult: 0
  }
  convolution_param {
    num_output: 64
    kernel_size: 1
    weight_filler {
      type: "xavier"
      std: 0.1
    }
    bias_filler {
      type: "constant"
      value: 0.2
    }
  }
}
layer {
  name: "inception_4d/relu_pool_proj"
  type: "ReLU"
  bottom: "inception_4d/pool_proj"
  top: "inception_4d/pool_proj"
}
layer {
  name: "inception_4d/output"
  type: "Concat"
  bottom: "inception_4d/1x1"
  bottom: "inception_4d/3x3"
  bottom: "inception_4d/5x5"
  bottom: "inception_4d/pool_proj"
  top: "inception_4d/output"
}
layer {
  name: "loss2/ave_pool"
  type: "Pooling"
  bottom: "inception_4d/output"
  top: "loss2/ave_pool"
  pooling_param {
    pool: AVE
    kernel_size: 5
    stride: 3
  }
}
layer {
  name: "loss2/conv"
  type: "Convolution"
  bottom: "loss2/ave_pool"
  top: "loss2/conv"
  param {
    lr_mult: 1
    decay_mult: 1
  }
  param {
    lr_mult: 2
    decay_mult: 0
  }
  convolution_param {
    num_output: 128
    kernel_size: 1
    weight_filler {
      type: "xavier"
      std: 0.08
    }
    bias_filler {
      type: "constant"
      value: 0.2
    }
  }
}
layer {
  name: "loss2/relu_conv"
  type: "ReLU"
  bottom: "loss2/conv"
  top: "loss2/conv"
}
layer {
  name: "loss2/fc"
  type: "InnerProduct"
  bottom: "loss2/conv"
  top: "loss2/fc"
  param {
    lr_mult: 1
    decay_mult: 1
  }
  param {
    lr_mult: 2
    decay_mult: 0
  }
  inner_product_param {
    num_output: 1024
    weight_filler {
      type: "xavier"
      std: 0.02
    }
    bias_filler {
      type: "constant"
      value: 0.2
    }
  }
}
layer {
  name: "loss2/relu_fc"
  type: "ReLU"
  bottom: "loss2/fc"
  top: "loss2/fc"
}
layer {
  name: "loss2/drop_fc"
  type: "Dropout"
  bottom: "loss2/fc"
  top: "loss2/fc"
  dropout_param {
    dropout_ratio: 0.7
  }
}
layer {
  name: "loss2/classifier_plantvillage"
  type: "InnerProduct"
  bottom: "loss2/fc"
  top: "loss2/classifier_plantvillage"
  param {
    lr_mult: 1
    decay_mult: 1
  }
  param {
    lr_mult: 2
    decay_mult: 0
  }
  inner_product_param {
    num_output: 38
    weight_filler {
      type: "xavier"
      std: 0.0009765625
    }
    bias_filler {
      type: "constant"
      value: 0
    }
  }
}
layer {
  name: "inception_4e/1x1"
  type: "Convolution"
  bottom: "inception_4d/output"
  top: "inception_4e/1x1"
  param {
    lr_mult: 1
    decay_mult: 1
  }
  param {
    lr_mult: 2
    decay_mult: 0
  }
  convolution_param {
    num_output: 256
    kernel_size: 1
    weight_filler {
      type: "xavier"
      std: 0.03
    }
    bias_filler {
      type: "constant"
      value: 0.2
    }
  }
}
layer {
  name: "inception_4e/relu_1x1"
  type: "ReLU"
  bottom: "inception_4e/1x1"
  top: "inception_4e/1x1"
}
layer {
  name: "inception_4e/3x3_reduce"
  type: "Convolution"
  bottom: "inception_4d/output"
  top: "inception_4e/3x3_reduce"
  param {
    lr_mult: 1
    decay_mult: 1
  }
  param {
    lr_mult: 2
    decay_mult: 0
  }
  convolution_param {
    num_output: 160
    kernel_size: 1
    weight_filler {
      type: "xavier"
      std: 0.09
    }
    bias_filler {
      type: "constant"
      value: 0.2
    }
  }
}
layer {
  name: "inception_4e/relu_3x3_reduce"
  type: "ReLU"
  bottom: "inception_4e/3x3_reduce"
  top: "inception_4e/3x3_reduce"
}
layer {
  name: "inception_4e/3x3"
  type: "Convolution"
  bottom: "inception_4e/3x3_reduce"
  top: "inception_4e/3x3"
  param {
    lr_mult: 1
    decay_mult: 1
  }
  param {
    lr_mult: 2
    decay_mult: 0
  }
  convolution_param {
    num_output: 320
    pad: 1
    kernel_size: 3
    weight_filler {
      type: "xavier"
      std: 0.03
    }
    bias_filler {
      type: "constant"
      value: 0.2
    }
  }
}
layer {
  name: "inception_4e/relu_3x3"
  type: "ReLU"
  bottom: "inception_4e/3x3"
  top: "inception_4e/3x3"
}
layer {
  name: "inception_4e/5x5_reduce"
  type: "Convolution"
  bottom: "inception_4d/output"
  top: "inception_4e/5x5_reduce"
  param {
    lr_mult: 1
    decay_mult: 1
  }
  param {
    lr_mult: 2
    decay_mult: 0
  }
  convolution_param {
    num_output: 32
    kernel_size: 1
    weight_filler {
      type: "xavier"
      std: 0.2
    }
    bias_filler {
      type: "constant"
      value: 0.2
    }
  }
}
layer {
  name: "inception_4e/relu_5x5_reduce"
  type: "ReLU"
  bottom: "inception_4e/5x5_reduce"
  top: "inception_4e/5x5_reduce"
}
layer {
  name: "inception_4e/5x5"
  type: "Convolution"
  bottom: "inception_4e/5x5_reduce"
  top: "inception_4e/
I0403 15:08:15.003506 31182 layer_factory.hpp:77] Creating layer data
I0403 15:08:15.004114 31182 net.cpp:91] Creating Layer data
I0403 15:08:15.004147 31182 net.cpp:399] data -> data
I0403 15:08:15.004204 31182 net.cpp:399] data -> label
I0403 15:08:15.004243 31182 data_transformer.cpp:25] Loading mean file from: /home/mohanty/data/final_dataset/lmdb/grayscale-80-20/mean.binaryproto
I0403 15:08:15.007642 31185 db_lmdb.cpp:38] Opened lmdb /home/mohanty/data/final_dataset/lmdb/grayscale-80-20/test_db
I0403 15:08:15.017904 31182 data_layer.cpp:41] output data size: 24,3,224,224
I0403 15:08:15.045327 31182 net.cpp:141] Setting up data
I0403 15:08:15.045415 31182 net.cpp:148] Top shape: 24 3 224 224 (3612672)
I0403 15:08:15.045440 31182 net.cpp:148] Top shape: 24 (24)
I0403 15:08:15.045457 31182 net.cpp:156] Memory required for data: 14450784
I0403 15:08:15.045490 31182 layer_factory.hpp:77] Creating layer label_data_1_split
I0403 15:08:15.045521 31182 net.cpp:91] Creating Layer label_data_1_split
I0403 15:08:15.045547 31182 net.cpp:425] label_data_1_split <- label
I0403 15:08:15.045584 31182 net.cpp:399] label_data_1_split -> label_data_1_split_0
I0403 15:08:15.045616 31182 net.cpp:399] label_data_1_split -> label_data_1_split_1
I0403 15:08:15.045639 31182 net.cpp:399] label_data_1_split -> label_data_1_split_2
I0403 15:08:15.045660 31182 net.cpp:399] label_data_1_split -> label_data_1_split_3
I0403 15:08:15.045682 31182 net.cpp:399] label_data_1_split -> label_data_1_split_4
I0403 15:08:15.045704 31182 net.cpp:399] label_data_1_split -> label_data_1_split_5
I0403 15:08:15.045727 31182 net.cpp:399] label_data_1_split -> label_data_1_split_6
I0403 15:08:15.045747 31182 net.cpp:399] label_data_1_split -> label_data_1_split_7
I0403 15:08:15.045768 31182 net.cpp:399] label_data_1_split -> label_data_1_split_8
I0403 15:08:15.045789 31182 net.cpp:399] label_data_1_split -> label_data_1_split_9
I0403 15:08:15.045904 31182 net.cpp:141] Setting up label_data_1_split
I0403 15:08:15.045930 31182 net.cpp:148] Top shape: 24 (24)
I0403 15:08:15.045953 31182 net.cpp:148] Top shape: 24 (24)
I0403 15:08:15.045971 31182 net.cpp:148] Top shape: 24 (24)
I0403 15:08:15.045989 31182 net.cpp:148] Top shape: 24 (24)
I0403 15:08:15.046016 31182 net.cpp:148] Top shape: 24 (24)
I0403 15:08:15.046035 31182 net.cpp:148] Top shape: 24 (24)
I0403 15:08:15.046051 31182 net.cpp:148] Top shape: 24 (24)
I0403 15:08:15.046067 31182 net.cpp:148] Top shape: 24 (24)
I0403 15:08:15.046083 31182 net.cpp:148] Top shape: 24 (24)
I0403 15:08:15.046100 31182 net.cpp:148] Top shape: 24 (24)
I0403 15:08:15.046154 31182 net.cpp:156] Memory required for data: 14451744
I0403 15:08:15.046171 31182 layer_factory.hpp:77] Creating layer conv1/7x7_s2
I0403 15:08:15.046207 31182 net.cpp:91] Creating Layer conv1/7x7_s2
I0403 15:08:15.046226 31182 net.cpp:425] conv1/7x7_s2 <- data
I0403 15:08:15.046247 31182 net.cpp:399] conv1/7x7_s2 -> conv1/7x7_s2
I0403 15:08:15.184044 31182 net.cpp:141] Setting up conv1/7x7_s2
I0403 15:08:15.184139 31182 net.cpp:148] Top shape: 24 64 112 112 (19267584)
I0403 15:08:15.184157 31182 net.cpp:156] Memory required for data: 91522080
I0403 15:08:15.184192 31182 layer_factory.hpp:77] Creating layer conv1/relu_7x7
I0403 15:08:15.184221 31182 net.cpp:91] Creating Layer conv1/relu_7x7
I0403 15:08:15.184242 31182 net.cpp:425] conv1/relu_7x7 <- conv1/7x7_s2
I0403 15:08:15.184262 31182 net.cpp:386] conv1/relu_7x7 -> conv1/7x7_s2 (in-place)
I0403 15:08:15.184547 31182 net.cpp:141] Setting up conv1/relu_7x7
I0403 15:08:15.184576 31182 net.cpp:148] Top shape: 24 64 112 112 (19267584)
I0403 15:08:15.184599 31182 net.cpp:156] Memory required for data: 168592416
I0403 15:08:15.184615 31182 layer_factory.hpp:77] Creating layer pool1/3x3_s2
I0403 15:08:15.184645 31182 net.cpp:91] Creating Layer pool1/3x3_s2
I0403 15:08:15.184664 31182 net.cpp:425] pool1/3x3_s2 <- conv1/7x7_s2
I0403 15:08:15.184682 31182 net.cpp:399] pool1/3x3_s2 -> pool1/3x3_s2
I0403 15:08:15.184763 31182 net.cpp:141] Setting up pool1/3x3_s2
I0403 15:08:15.184787 31182 net.cpp:148] Top shape: 24 64 56 56 (4816896)
I0403 15:08:15.184803 31182 net.cpp:156] Memory required for data: 187860000
I0403 15:08:15.184818 31182 layer_factory.hpp:77] Creating layer pool1/norm1
I0403 15:08:15.184846 31182 net.cpp:91] Creating Layer pool1/norm1
I0403 15:08:15.184864 31182 net.cpp:425] pool1/norm1 <- pool1/3x3_s2
I0403 15:08:15.184881 31182 net.cpp:399] pool1/norm1 -> pool1/norm1
I0403 15:08:15.185185 31182 net.cpp:141] Setting up pool1/norm1
I0403 15:08:15.185215 31182 net.cpp:148] Top shape: 24 64 56 56 (4816896)
I0403 15:08:15.185231 31182 net.cpp:156] Memory required for data: 207127584
I0403 15:08:15.185247 31182 layer_factory.hpp:77] Creating layer conv2/3x3_reduce
I0403 15:08:15.185276 31182 net.cpp:91] Creating Layer conv2/3x3_reduce
I0403 15:08:15.185294 31182 net.cpp:425] conv2/3x3_reduce <- pool1/norm1
I0403 15:08:15.185313 31182 net.cpp:399] conv2/3x3_reduce -> conv2/3x3_reduce
I0403 15:08:15.186769 31182 net.cpp:141] Setting up conv2/3x3_reduce
I0403 15:08:15.186797 31182 net.cpp:148] Top shape: 24 64 56 56 (4816896)
I0403 15:08:15.186815 31182 net.cpp:156] Memory required for data: 226395168
I0403 15:08:15.186836 31182 layer_factory.hpp:77] Creating layer conv2/relu_3x3_reduce
I0403 15:08:15.186857 31182 net.cpp:91] Creating Layer conv2/relu_3x3_reduce
I0403 15:08:15.186875 31182 net.cpp:425] conv2/relu_3x3_reduce <- conv2/3x3_reduce
I0403 15:08:15.186895 31182 net.cpp:386] conv2/relu_3x3_reduce -> conv2/3x3_reduce (in-place)
I0403 15:08:15.187171 31182 net.cpp:141] Setting up conv2/relu_3x3_reduce
I0403 15:08:15.187199 31182 net.cpp:148] Top shape: 24 64 56 56 (4816896)
I0403 15:08:15.187216 31182 net.cpp:156] Memory required for data: 245662752
I0403 15:08:15.187230 31182 layer_factory.hpp:77] Creating layer conv2/3x3
I0403 15:08:15.187254 31182 net.cpp:91] Creating Layer conv2/3x3
I0403 15:08:15.187273 31182 net.cpp:425] conv2/3x3 <- conv2/3x3_reduce
I0403 15:08:15.187295 31182 net.cpp:399] conv2/3x3 -> conv2/3x3
I0403 15:08:15.189693 31182 net.cpp:141] Setting up conv2/3x3
I0403 15:08:15.189724 31182 net.cpp:148] Top shape: 24 192 56 56 (14450688)
I0403 15:08:15.189741 31182 net.cpp:156] Memory required for data: 303465504
I0403 15:08:15.189764 31182 layer_factory.hpp:77] Creating layer conv2/relu_3x3
I0403 15:08:15.189785 31182 net.cpp:91] Creating Layer conv2/relu_3x3
I0403 15:08:15.189803 31182 net.cpp:425] conv2/relu_3x3 <- conv2/3x3
I0403 15:08:15.189822 31182 net.cpp:386] conv2/relu_3x3 -> conv2/3x3 (in-place)
I0403 15:08:15.189998 31182 net.cpp:141] Setting up conv2/relu_3x3
I0403 15:08:15.190026 31182 net.cpp:148] Top shape: 24 192 56 56 (14450688)
I0403 15:08:15.190079 31182 net.cpp:156] Memory required for data: 361268256
I0403 15:08:15.190095 31182 layer_factory.hpp:77] Creating layer conv2/norm2
I0403 15:08:15.190114 31182 net.cpp:91] Creating Layer conv2/norm2
I0403 15:08:15.190129 31182 net.cpp:425] conv2/norm2 <- conv2/3x3
I0403 15:08:15.190150 31182 net.cpp:399] conv2/norm2 -> conv2/norm2
I0403 15:08:15.190454 31182 net.cpp:141] Setting up conv2/norm2
I0403 15:08:15.190485 31182 net.cpp:148] Top shape: 24 192 56 56 (14450688)
I0403 15:08:15.190521 31182 net.cpp:156] Memory required for data: 419071008
I0403 15:08:15.190541 31182 layer_factory.hpp:77] Creating layer pool2/3x3_s2
I0403 15:08:15.190560 31182 net.cpp:91] Creating Layer pool2/3x3_s2
I0403 15:08:15.190578 31182 net.cpp:425] pool2/3x3_s2 <- conv2/norm2
I0403 15:08:15.190603 31182 net.cpp:399] pool2/3x3_s2 -> pool2/3x3_s2
I0403 15:08:15.190660 31182 net.cpp:141] Setting up pool2/3x3_s2
I0403 15:08:15.190721 31182 net.cpp:148] Top shape: 24 192 28 28 (3612672)
I0403 15:08:15.190744 31182 net.cpp:156] Memory required for data: 433521696
I0403 15:08:15.190765 31182 layer_factory.hpp:77] Creating layer pool2/3x3_s2_pool2/3x3_s2_0_split
I0403 15:08:15.190811 31182 net.cpp:91] Creating Layer pool2/3x3_s2_pool2/3x3_s2_0_split
I0403 15:08:15.190843 31182 net.cpp:425] pool2/3x3_s2_pool2/3x3_s2_0_split <- pool2/3x3_s2
I0403 15:08:15.190883 31182 net.cpp:399] pool2/3x3_s2_pool2/3x3_s2_0_split -> pool2/3x3_s2_pool2/3x3_s2_0_split_0
I0403 15:08:15.190912 31182 net.cpp:399] pool2/3x3_s2_pool2/3x3_s2_0_split -> pool2/3x3_s2_pool2/3x3_s2_0_split_1
I0403 15:08:15.190942 31182 net.cpp:399] pool2/3x3_s2_pool2/3x3_s2_0_split -> pool2/3x3_s2_pool2/3x3_s2_0_split_2
I0403 15:08:15.190986 31182 net.cpp:399] pool2/3x3_s2_pool2/3x3_s2_0_split -> pool2/3x3_s2_pool2/3x3_s2_0_split_3
I0403 15:08:15.191082 31182 net.cpp:141] Setting up pool2/3x3_s2_pool2/3x3_s2_0_split
I0403 15:08:15.191104 31182 net.cpp:148] Top shape: 24 192 28 28 (3612672)
I0403 15:08:15.191121 31182 net.cpp:148] Top shape: 24 192 28 28 (3612672)
I0403 15:08:15.191138 31182 net.cpp:148] Top shape: 24 192 28 28 (3612672)
I0403 15:08:15.191154 31182 net.cpp:148] Top shape: 24 192 28 28 (3612672)
I0403 15:08:15.191167 31182 net.cpp:156] Memory required for data: 491324448
I0403 15:08:15.191182 31182 layer_factory.hpp:77] Creating layer inception_3a/1x1
I0403 15:08:15.191205 31182 net.cpp:91] Creating Layer inception_3a/1x1
I0403 15:08:15.191222 31182 net.cpp:425] inception_3a/1x1 <- pool2/3x3_s2_pool2/3x3_s2_0_split_0
I0403 15:08:15.191253 31182 net.cpp:399] inception_3a/1x1 -> inception_3a/1x1
I0403 15:08:15.192826 31182 net.cpp:141] Setting up inception_3a/1x1
I0403 15:08:15.192855 31182 net.cpp:148] Top shape: 24 64 28 28 (1204224)
I0403 15:08:15.192873 31182 net.cpp:156] Memory required for data: 496141344
I0403 15:08:15.192893 31182 layer_factory.hpp:77] Creating layer inception_3a/relu_1x1
I0403 15:08:15.192914 31182 net.cpp:91] Creating Layer inception_3a/relu_1x1
I0403 15:08:15.192931 31182 net.cpp:425] inception_3a/relu_1x1 <- inception_3a/1x1
I0403 15:08:15.192950 31182 net.cpp:386] inception_3a/relu_1x1 -> inception_3a/1x1 (in-place)
I0403 15:08:15.193120 31182 net.cpp:141] Setting up inception_3a/relu_1x1
I0403 15:08:15.193145 31182 net.cpp:148] Top shape: 24 64 28 28 (1204224)
I0403 15:08:15.193161 31182 net.cpp:156] Memory required for data: 500958240
I0403 15:08:15.193176 31182 layer_factory.hpp:77] Creating layer inception_3a/3x3_reduce
I0403 15:08:15.193200 31182 net.cpp:91] Creating Layer inception_3a/3x3_reduce
I0403 15:08:15.193218 31182 net.cpp:425] inception_3a/3x3_reduce <- pool2/3x3_s2_pool2/3x3_s2_0_split_1
I0403 15:08:15.193238 31182 net.cpp:399] inception_3a/3x3_reduce -> inception_3a/3x3_reduce
I0403 15:08:15.194968 31182 net.cpp:141] Setting up inception_3a/3x3_reduce
I0403 15:08:15.194998 31182 net.cpp:148] Top shape: 24 96 28 28 (1806336)
I0403 15:08:15.195013 31182 net.cpp:156] Memory required for data: 508183584
I0403 15:08:15.195035 31182 layer_factory.hpp:77] Creating layer inception_3a/relu_3x3_reduce
I0403 15:08:15.195073 31182 net.cpp:91] Creating Layer inception_3a/relu_3x3_reduce
I0403 15:08:15.195092 31182 net.cpp:425] inception_3a/relu_3x3_reduce <- inception_3a/3x3_reduce
I0403 15:08:15.195111 31182 net.cpp:386] inception_3a/relu_3x3_reduce -> inception_3a/3x3_reduce (in-place)
I0403 15:08:15.195291 31182 net.cpp:141] Setting up inception_3a/relu_3x3_reduce
I0403 15:08:15.195315 31182 net.cpp:148] Top shape: 24 96 28 28 (1806336)
I0403 15:08:15.195330 31182 net.cpp:156] Memory required for data: 515408928
I0403 15:08:15.195346 31182 layer_factory.hpp:77] Creating layer inception_3a/3x3
I0403 15:08:15.195369 31182 net.cpp:91] Creating Layer inception_3a/3x3
I0403 15:08:15.195386 31182 net.cpp:425] inception_3a/3x3 <- inception_3a/3x3_reduce
I0403 15:08:15.195410 31182 net.cpp:399] inception_3a/3x3 -> inception_3a/3x3
I0403 15:08:15.198106 31182 net.cpp:141] Setting up inception_3a/3x3
I0403 15:08:15.198135 31182 net.cpp:148] Top shape: 24 128 28 28 (2408448)
I0403 15:08:15.198151 31182 net.cpp:156] Memory required for data: 525042720
I0403 15:08:15.198179 31182 layer_factory.hpp:77] Creating layer inception_3a/relu_3x3
I0403 15:08:15.198199 31182 net.cpp:91] Creating Layer inception_3a/relu_3x3
I0403 15:08:15.198215 31182 net.cpp:425] inception_3a/relu_3x3 <- inception_3a/3x3
I0403 15:08:15.198233 31182 net.cpp:386] inception_3a/relu_3x3 -> inception_3a/3x3 (in-place)
I0403 15:08:15.198503 31182 net.cpp:141] Setting up inception_3a/relu_3x3
I0403 15:08:15.198529 31182 net.cpp:148] Top shape: 24 128 28 28 (2408448)
I0403 15:08:15.198547 31182 net.cpp:156] Memory required for data: 534676512
I0403 15:08:15.198564 31182 layer_factory.hpp:77] Creating layer inception_3a/5x5_reduce
I0403 15:08:15.198587 31182 net.cpp:91] Creating Layer inception_3a/5x5_reduce
I0403 15:08:15.198606 31182 net.cpp:425] inception_3a/5x5_reduce <- pool2/3x3_s2_pool2/3x3_s2_0_split_2
I0403 15:08:15.198626 31182 net.cpp:399] inception_3a/5x5_reduce -> inception_3a/5x5_reduce
I0403 15:08:15.199590 31182 net.cpp:141] Setting up inception_3a/5x5_reduce
I0403 15:08:15.199620 31182 net.cpp:148] Top shape: 24 16 28 28 (301056)
I0403 15:08:15.199645 31182 net.cpp:156] Memory required for data: 535880736
I0403 15:08:15.199664 31182 layer_factory.hpp:77] Creating layer inception_3a/relu_5x5_reduce
I0403 15:08:15.199682 31182 net.cpp:91] Creating Layer inception_3a/relu_5x5_reduce
I0403 15:08:15.199698 31182 net.cpp:425] inception_3a/relu_5x5_reduce <- inception_3a/5x5_reduce
I0403 15:08:15.199715 31182 net.cpp:386] inception_3a/relu_5x5_reduce -> inception_3a/5x5_reduce (in-place)
I0403 15:08:15.200002 31182 net.cpp:141] Setting up inception_3a/relu_5x5_reduce
I0403 15:08:15.200029 31182 net.cpp:148] Top shape: 24 16 28 28 (301056)
I0403 15:08:15.200045 31182 net.cpp:156] Memory required for data: 537084960
I0403 15:08:15.200064 31182 layer_factory.hpp:77] Creating layer inception_3a/5x5
I0403 15:08:15.200088 31182 net.cpp:91] Creating Layer inception_3a/5x5
I0403 15:08:15.200105 31182 net.cpp:425] inception_3a/5x5 <- inception_3a/5x5_reduce
I0403 15:08:15.200124 31182 net.cpp:399] inception_3a/5x5 -> inception_3a/5x5
I0403 15:08:15.201102 31182 net.cpp:141] Setting up inception_3a/5x5
I0403 15:08:15.201129 31182 net.cpp:148] Top shape: 24 32 28 28 (602112)
I0403 15:08:15.201144 31182 net.cpp:156] Memory required for data: 539493408
I0403 15:08:15.201164 31182 layer_factory.hpp:77] Creating layer inception_3a/relu_5x5
I0403 15:08:15.201184 31182 net.cpp:91] Creating Layer inception_3a/relu_5x5
I0403 15:08:15.201200 31182 net.cpp:425] inception_3a/relu_5x5 <- inception_3a/5x5
I0403 15:08:15.201218 31182 net.cpp:386] inception_3a/relu_5x5 -> inception_3a/5x5 (in-place)
I0403 15:08:15.201388 31182 net.cpp:141] Setting up inception_3a/relu_5x5
I0403 15:08:15.201413 31182 net.cpp:148] Top shape: 24 32 28 28 (602112)
I0403 15:08:15.201427 31182 net.cpp:156] Memory required for data: 541901856
I0403 15:08:15.201442 31182 layer_factory.hpp:77] Creating layer inception_3a/pool
I0403 15:08:15.201462 31182 net.cpp:91] Creating Layer inception_3a/pool
I0403 15:08:15.201501 31182 net.cpp:425] inception_3a/pool <- pool2/3x3_s2_pool2/3x3_s2_0_split_3
I0403 15:08:15.201524 31182 net.cpp:399] inception_3a/pool -> inception_3a/pool
I0403 15:08:15.201583 31182 net.cpp:141] Setting up inception_3a/pool
I0403 15:08:15.201606 31182 net.cpp:148] Top shape: 24 192 28 28 (3612672)
I0403 15:08:15.201622 31182 net.cpp:156] Memory required for data: 556352544
I0403 15:08:15.201637 31182 layer_factory.hpp:77] Creating layer inception_3a/pool_proj
I0403 15:08:15.201658 31182 net.cpp:91] Creating Layer inception_3a/pool_proj
I0403 15:08:15.201674 31182 net.cpp:425] inception_3a/pool_proj <- inception_3a/pool
I0403 15:08:15.201695 31182 net.cpp:399] inception_3a/pool_proj -> inception_3a/pool_proj
I0403 15:08:15.202625 31182 net.cpp:141] Setting up inception_3a/pool_proj
I0403 15:08:15.202651 31182 net.cpp:148] Top shape: 24 32 28 28 (602112)
I0403 15:08:15.202666 31182 net.cpp:156] Memory required for data: 558760992
I0403 15:08:15.202689 31182 layer_factory.hpp:77] Creating layer inception_3a/relu_pool_proj
I0403 15:08:15.202710 31182 net.cpp:91] Creating Layer inception_3a/relu_pool_proj
I0403 15:08:15.202726 31182 net.cpp:425] inception_3a/relu_pool_proj <- inception_3a/pool_proj
I0403 15:08:15.202744 31182 net.cpp:386] inception_3a/relu_pool_proj -> inception_3a/pool_proj (in-place)
I0403 15:08:15.203008 31182 net.cpp:141] Setting up inception_3a/relu_pool_proj
I0403 15:08:15.203033 31182 net.cpp:148] Top shape: 24 32 28 28 (602112)
I0403 15:08:15.203048 31182 net.cpp:156] Memory required for data: 561169440
I0403 15:08:15.203063 31182 layer_factory.hpp:77] Creating layer inception_3a/output
I0403 15:08:15.203083 31182 net.cpp:91] Creating Layer inception_3a/output
I0403 15:08:15.203100 31182 net.cpp:425] inception_3a/output <- inception_3a/1x1
I0403 15:08:15.203119 31182 net.cpp:425] inception_3a/output <- inception_3a/3x3
I0403 15:08:15.203135 31182 net.cpp:425] inception_3a/output <- inception_3a/5x5
I0403 15:08:15.203150 31182 net.cpp:425] inception_3a/output <- inception_3a/pool_proj
I0403 15:08:15.203167 31182 net.cpp:399] inception_3a/output -> inception_3a/output
I0403 15:08:15.203214 31182 net.cpp:141] Setting up inception_3a/output
I0403 15:08:15.203238 31182 net.cpp:148] Top shape: 24 256 28 28 (4816896)
I0403 15:08:15.203253 31182 net.cpp:156] Memory required for data: 580437024
I0403 15:08:15.203268 31182 layer_factory.hpp:77] Creating layer inception_3a/output_inception_3a/output_0_split
I0403 15:08:15.203284 31182 net.cpp:91] Creating Layer inception_3a/output_inception_3a/output_0_split
I0403 15:08:15.203299 31182 net.cpp:425] inception_3a/output_inception_3a/output_0_split <- inception_3a/output
I0403 15:08:15.203318 31182 net.cpp:399] inception_3a/output_inception_3a/output_0_split -> inception_3a/output_inception_3a/output_0_split_0
I0403 15:08:15.203339 31182 net.cpp:399] inception_3a/output_inception_3a/output_0_split -> inception_3a/output_inception_3a/output_0_split_1
I0403 15:08:15.203361 31182 net.cpp:399] inception_3a/output_inception_3a/output_0_split -> inception_3a/output_inception_3a/output_0_split_2
I0403 15:08:15.203384 31182 net.cpp:399] inception_3a/output_inception_3a/output_0_split -> inception_3a/output_inception_3a/output_0_split_3
I0403 15:08:15.203457 31182 net.cpp:141] Setting up inception_3a/output_inception_3a/output_0_split
I0403 15:08:15.203480 31182 net.cpp:148] Top shape: 24 256 28 28 (4816896)
I0403 15:08:15.203497 31182 net.cpp:148] Top shape: 24 256 28 28 (4816896)
I0403 15:08:15.203512 31182 net.cpp:148] Top shape: 24 256 28 28 (4816896)
I0403 15:08:15.203528 31182 net.cpp:148] Top shape: 24 256 28 28 (4816896)
I0403 15:08:15.203547 31182 net.cpp:156] Memory required for data: 657507360
I0403 15:08:15.203562 31182 layer_factory.hpp:77] Creating layer inception_3b/1x1
I0403 15:08:15.203586 31182 net.cpp:91] Creating Layer inception_3b/1x1
I0403 15:08:15.203604 31182 net.cpp:425] inception_3b/1x1 <- inception_3a/output_inception_3a/output_0_split_0
I0403 15:08:15.203624 31182 net.cpp:399] inception_3b/1x1 -> inception_3b/1x1
I0403 15:08:15.204725 31182 net.cpp:141] Setting up inception_3b/1x1
I0403 15:08:15.204763 31182 net.cpp:148] Top shape: 24 128 28 28 (2408448)
I0403 15:08:15.204780 31182 net.cpp:156] Memory required for data: 667141152
I0403 15:08:15.204799 31182 layer_factory.hpp:77] Creating layer inception_3b/relu_1x1
I0403 15:08:15.204818 31182 net.cpp:91] Creating Layer inception_3b/relu_1x1
I0403 15:08:15.204833 31182 net.cpp:425] inception_3b/relu_1x1 <- inception_3b/1x1
I0403 15:08:15.204852 31182 net.cpp:386] inception_3b/relu_1x1 -> inception_3b/1x1 (in-place)
I0403 15:08:15.205021 31182 net.cpp:141] Setting up inception_3b/relu_1x1
I0403 15:08:15.205045 31182 net.cpp:148] Top shape: 24 128 28 28 (2408448)
I0403 15:08:15.205060 31182 net.cpp:156] Memory required for data: 676774944
I0403 15:08:15.205075 31182 layer_factory.hpp:77] Creating layer inception_3b/3x3_reduce
I0403 15:08:15.205097 31182 net.cpp:91] Creating Layer inception_3b/3x3_reduce
I0403 15:08:15.205114 31182 net.cpp:425] inception_3b/3x3_reduce <- inception_3a/output_inception_3a/output_0_split_1
I0403 15:08:15.205137 31182 net.cpp:399] inception_3b/3x3_reduce -> inception_3b/3x3_reduce
I0403 15:08:15.206229 31182 net.cpp:141] Setting up inception_3b/3x3_reduce
I0403 15:08:15.206256 31182 net.cpp:148] Top shape: 24 128 28 28 (2408448)
I0403 15:08:15.206272 31182 net.cpp:156] Memory required for data: 686408736
I0403 15:08:15.206290 31182 layer_factory.hpp:77] Creating layer inception_3b/relu_3x3_reduce
I0403 15:08:15.206311 31182 net.cpp:91] Creating Layer inception_3b/relu_3x3_reduce
I0403 15:08:15.206328 31182 net.cpp:425] inception_3b/relu_3x3_reduce <- inception_3b/3x3_reduce
I0403 15:08:15.206346 31182 net.cpp:386] inception_3b/relu_3x3_reduce -> inception_3b/3x3_reduce (in-place)
I0403 15:08:15.206512 31182 net.cpp:141] Setting up inception_3b/relu_3x3_reduce
I0403 15:08:15.206540 31182 net.cpp:148] Top shape: 24 128 28 28 (2408448)
I0403 15:08:15.206557 31182 net.cpp:156] Memory required for data: 696042528
I0403 15:08:15.206573 31182 layer_factory.hpp:77] Creating layer inception_3b/3x3
I0403 15:08:15.206598 31182 net.cpp:91] Creating Layer inception_3b/3x3
I0403 15:08:15.206616 31182 net.cpp:425] inception_3b/3x3 <- inception_3b/3x3_reduce
I0403 15:08:15.206635 31182 net.cpp:399] inception_3b/3x3 -> inception_3b/3x3
I0403 15:08:15.209444 31182 net.cpp:141] Setting up inception_3b/3x3
I0403 15:08:15.209471 31182 net.cpp:148] Top shape: 24 192 28 28 (3612672)
I0403 15:08:15.209486 31182 net.cpp:156] Memory required for data: 710493216
I0403 15:08:15.209506 31182 layer_factory.hpp:77] Creating layer inception_3b/relu_3x3
I0403 15:08:15.209525 31182 net.cpp:91] Creating Layer inception_3b/relu_3x3
I0403 15:08:15.209547 31182 net.cpp:425] inception_3b/relu_3x3 <- inception_3b/3x3
I0403 15:08:15.209565 31182 net.cpp:386] inception_3b/relu_3x3 -> inception_3b/3x3 (in-place)
I0403 15:08:15.209832 31182 net.cpp:141] Setting up inception_3b/relu_3x3
I0403 15:08:15.209858 31182 net.cpp:148] Top shape: 24 192 28 28 (3612672)
I0403 15:08:15.209873 31182 net.cpp:156] Memory required for data: 724943904
I0403 15:08:15.209888 31182 layer_factory.hpp:77] Creating layer inception_3b/5x5_reduce
I0403 15:08:15.209911 31182 net.cpp:91] Creating Layer inception_3b/5x5_reduce
I0403 15:08:15.209928 31182 net.cpp:425] inception_3b/5x5_reduce <- inception_3a/output_inception_3a/output_0_split_2
I0403 15:08:15.209950 31182 net.cpp:399] inception_3b/5x5_reduce -> inception_3b/5x5_reduce
I0403 15:08:15.210906 31182 net.cpp:141] Setting up inception_3b/5x5_reduce
I0403 15:08:15.210934 31182 net.cpp:148] Top shape: 24 32 28 28 (602112)
I0403 15:08:15.210949 31182 net.cpp:156] Memory required for data: 727352352
I0403 15:08:15.210968 31182 layer_factory.hpp:77] Creating layer inception_3b/relu_5x5_reduce
I0403 15:08:15.210988 31182 net.cpp:91] Creating Layer inception_3b/relu_5x5_reduce
I0403 15:08:15.211005 31182 net.cpp:425] inception_3b/relu_5x5_reduce <- inception_3b/5x5_reduce
I0403 15:08:15.211024 31182 net.cpp:386] inception_3b/relu_5x5_reduce -> inception_3b/5x5_reduce (in-place)
I0403 15:08:15.211210 31182 net.cpp:141] Setting up inception_3b/relu_5x5_reduce
I0403 15:08:15.211236 31182 net.cpp:148] Top shape: 24 32 28 28 (602112)
I0403 15:08:15.211252 31182 net.cpp:156] Memory required for data: 729760800
I0403 15:08:15.211267 31182 layer_factory.hpp:77] Creating layer inception_3b/5x5
I0403 15:08:15.211290 31182 net.cpp:91] Creating Layer inception_3b/5x5
I0403 15:08:15.211308 31182 net.cpp:425] inception_3b/5x5 <- inception_3b/5x5_reduce
I0403 15:08:15.211326 31182 net.cpp:399] inception_3b/5x5 -> inception_3b/5x5
I0403 15:08:15.213263 31182 net.cpp:141] Setting up inception_3b/5x5
I0403 15:08:15.213291 31182 net.cpp:148] Top shape: 24 96 28 28 (1806336)
I0403 15:08:15.213307 31182 net.cpp:156] Memory required for data: 736986144
I0403 15:08:15.213327 31182 layer_factory.hpp:77] Creating layer inception_3b/relu_5x5
I0403 15:08:15.213347 31182 net.cpp:91] Creating Layer inception_3b/relu_5x5
I0403 15:08:15.213366 31182 net.cpp:425] inception_3b/relu_5x5 <- inception_3b/5x5
I0403 15:08:15.213383 31182 net.cpp:386] inception_3b/relu_5x5 -> inception_3b/5x5 (in-place)
I0403 15:08:15.213595 31182 net.cpp:141] Setting up inception_3b/relu_5x5
I0403 15:08:15.213620 31182 net.cpp:148] Top shape: 24 96 28 28 (1806336)
I0403 15:08:15.213636 31182 net.cpp:156] Memory required for data: 744211488
I0403 15:08:15.213651 31182 layer_factory.hpp:77] Creating layer inception_3b/pool
I0403 15:08:15.213670 31182 net.cpp:91] Creating Layer inception_3b/pool
I0403 15:08:15.213685 31182 net.cpp:425] inception_3b/pool <- inception_3a/output_inception_3a/output_0_split_3
I0403 15:08:15.213702 31182 net.cpp:399] inception_3b/pool -> inception_3b/pool
I0403 15:08:15.213759 31182 net.cpp:141] Setting up inception_3b/pool
I0403 15:08:15.213783 31182 net.cpp:148] Top shape: 24 256 28 28 (4816896)
I0403 15:08:15.213798 31182 net.cpp:156] Memory required for data: 763479072
I0403 15:08:15.213812 31182 layer_factory.hpp:77] Creating layer inception_3b/pool_proj
I0403 15:08:15.213835 31182 net.cpp:91] Creating Layer inception_3b/pool_proj
I0403 15:08:15.213851 31182 net.cpp:425] inception_3b/pool_proj <- inception_3b/pool
I0403 15:08:15.213872 31182 net.cpp:399] inception_3b/pool_proj -> inception_3b/pool_proj
I0403 15:08:15.214898 31182 net.cpp:141] Setting up inception_3b/pool_proj
I0403 15:08:15.214926 31182 net.cpp:148] Top shape: 24 64 28 28 (1204224)
I0403 15:08:15.214942 31182 net.cpp:156] Memory required for data: 768295968
I0403 15:08:15.214961 31182 layer_factory.hpp:77] Creating layer inception_3b/relu_pool_proj
I0403 15:08:15.214978 31182 net.cpp:91] Creating Layer inception_3b/relu_pool_proj
I0403 15:08:15.214993 31182 net.cpp:425] inception_3b/relu_pool_proj <- inception_3b/pool_proj
I0403 15:08:15.215013 31182 net.cpp:386] inception_3b/relu_pool_proj -> inception_3b/pool_proj (in-place)
I0403 15:08:15.215402 31182 net.cpp:141] Setting up inception_3b/relu_pool_proj
I0403 15:08:15.215431 31182 net.cpp:148] Top shape: 24 64 28 28 (1204224)
I0403 15:08:15.215447 31182 net.cpp:156] Memory required for data: 773112864
I0403 15:08:15.215462 31182 layer_factory.hpp:77] Creating layer inception_3b/output
I0403 15:08:15.215479 31182 net.cpp:91] Creating Layer inception_3b/output
I0403 15:08:15.215494 31182 net.cpp:425] inception_3b/output <- inception_3b/1x1
I0403 15:08:15.215512 31182 net.cpp:425] inception_3b/output <- inception_3b/3x3
I0403 15:08:15.215528 31182 net.cpp:425] inception_3b/output <- inception_3b/5x5
I0403 15:08:15.215548 31182 net.cpp:425] inception_3b/output <- inception_3b/pool_proj
I0403 15:08:15.215566 31182 net.cpp:399] inception_3b/output -> inception_3b/output
I0403 15:08:15.215621 31182 net.cpp:141] Setting up inception_3b/output
I0403 15:08:15.215644 31182 net.cpp:148] Top shape: 24 480 28 28 (9031680)
I0403 15:08:15.215659 31182 net.cpp:156] Memory required for data: 809239584
I0403 15:08:15.215673 31182 layer_factory.hpp:77] Creating layer pool3/3x3_s2
I0403 15:08:15.215692 31182 net.cpp:91] Creating Layer pool3/3x3_s2
I0403 15:08:15.215709 31182 net.cpp:425] pool3/3x3_s2 <- inception_3b/output
I0403 15:08:15.215741 31182 net.cpp:399] pool3/3x3_s2 -> pool3/3x3_s2
I0403 15:08:15.215801 31182 net.cpp:141] Setting up pool3/3x3_s2
I0403 15:08:15.215823 31182 net.cpp:148] Top shape: 24 480 14 14 (2257920)
I0403 15:08:15.215838 31182 net.cpp:156] Memory required for data: 818271264
I0403 15:08:15.215852 31182 layer_factory.hpp:77] Creating layer pool3/3x3_s2_pool3/3x3_s2_0_split
I0403 15:08:15.215869 31182 net.cpp:91] Creating Layer pool3/3x3_s2_pool3/3x3_s2_0_split
I0403 15:08:15.215884 31182 net.cpp:425] pool3/3x3_s2_pool3/3x3_s2_0_split <- pool3/3x3_s2
I0403 15:08:15.215903 31182 net.cpp:399] pool3/3x3_s2_pool3/3x3_s2_0_split -> pool3/3x3_s2_pool3/3x3_s2_0_split_0
I0403 15:08:15.215924 31182 net.cpp:399] pool3/3x3_s2_pool3/3x3_s2_0_split -> pool3/3x3_s2_pool3/3x3_s2_0_split_1
I0403 15:08:15.215944 31182 net.cpp:399] pool3/3x3_s2_pool3/3x3_s2_0_split -> pool3/3x3_s2_pool3/3x3_s2_0_split_2
I0403 15:08:15.215962 31182 net.cpp:399] pool3/3x3_s2_pool3/3x3_s2_0_split -> pool3/3x3_s2_pool3/3x3_s2_0_split_3
I0403 15:08:15.216037 31182 net.cpp:141] Setting up pool3/3x3_s2_pool3/3x3_s2_0_split
I0403 15:08:15.216061 31182 net.cpp:148] Top shape: 24 480 14 14 (2257920)
I0403 15:08:15.216078 31182 net.cpp:148] Top shape: 24 480 14 14 (2257920)
I0403 15:08:15.216094 31182 net.cpp:148] Top shape: 24 480 14 14 (2257920)
I0403 15:08:15.216110 31182 net.cpp:148] Top shape: 24 480 14 14 (2257920)
I0403 15:08:15.216125 31182 net.cpp:156] Memory required for data: 854397984
I0403 15:08:15.216140 31182 layer_factory.hpp:77] Creating layer inception_4a/1x1
I0403 15:08:15.216161 31182 net.cpp:91] Creating Layer inception_4a/1x1
I0403 15:08:15.216178 31182 net.cpp:425] inception_4a/1x1 <- pool3/3x3_s2_pool3/3x3_s2_0_split_0
I0403 15:08:15.216197 31182 net.cpp:399] inception_4a/1x1 -> inception_4a/1x1
I0403 15:08:15.217722 31182 net.cpp:141] Setting up inception_4a/1x1
I0403 15:08:15.217751 31182 net.cpp:148] Top shape: 24 192 14 14 (903168)
I0403 15:08:15.217768 31182 net.cpp:156] Memory required for data: 858010656
I0403 15:08:15.217787 31182 layer_factory.hpp:77] Creating layer inception_4a/relu_1x1
I0403 15:08:15.217804 31182 net.cpp:91] Creating Layer inception_4a/relu_1x1
I0403 15:08:15.217820 31182 net.cpp:425] inception_4a/relu_1x1 <- inception_4a/1x1
I0403 15:08:15.217840 31182 net.cpp:386] inception_4a/relu_1x1 -> inception_4a/1x1 (in-place)
I0403 15:08:15.218013 31182 net.cpp:141] Setting up inception_4a/relu_1x1
I0403 15:08:15.218036 31182 net.cpp:148] Top shape: 24 192 14 14 (903168)
I0403 15:08:15.218051 31182 net.cpp:156] Memory required for data: 861623328
I0403 15:08:15.218066 31182 layer_factory.hpp:77] Creating layer inception_4a/3x3_reduce
I0403 15:08:15.218088 31182 net.cpp:91] Creating Layer inception_4a/3x3_reduce
I0403 15:08:15.218106 31182 net.cpp:425] inception_4a/3x3_reduce <- pool3/3x3_s2_pool3/3x3_s2_0_split_1
I0403 15:08:15.218127 31182 net.cpp:399] inception_4a/3x3_reduce -> inception_4a/3x3_reduce
I0403 15:08:15.219348 31182 net.cpp:141] Setting up inception_4a/3x3_reduce
I0403 15:08:15.219379 31182 net.cpp:148] Top shape: 24 96 14 14 (451584)
I0403 15:08:15.219394 31182 net.cpp:156] Memory required for data: 863429664
I0403 15:08:15.219418 31182 layer_factory.hpp:77] Creating layer inception_4a/relu_3x3_reduce
I0403 15:08:15.219439 31182 net.cpp:91] Creating Layer inception_4a/relu_3x3_reduce
I0403 15:08:15.219455 31182 net.cpp:425] inception_4a/relu_3x3_reduce <- inception_4a/3x3_reduce
I0403 15:08:15.219473 31182 net.cpp:386] inception_4a/relu_3x3_reduce -> inception_4a/3x3_reduce (in-place)
I0403 15:08:15.219655 31182 net.cpp:141] Setting up inception_4a/relu_3x3_reduce
I0403 15:08:15.219678 31182 net.cpp:148] Top shape: 24 96 14 14 (451584)
I0403 15:08:15.219694 31182 net.cpp:156] Memory required for data: 865236000
I0403 15:08:15.219708 31182 layer_factory.hpp:77] Creating layer inception_4a/3x3
I0403 15:08:15.219730 31182 net.cpp:91] Creating Layer inception_4a/3x3
I0403 15:08:15.219748 31182 net.cpp:425] inception_4a/3x3 <- inception_4a/3x3_reduce
I0403 15:08:15.219769 31182 net.cpp:399] inception_4a/3x3 -> inception_4a/3x3
I0403 15:08:15.222357 31182 net.cpp:141] Setting up inception_4a/3x3
I0403 15:08:15.222385 31182 net.cpp:148] Top shape: 24 208 14 14 (978432)
I0403 15:08:15.222400 31182 net.cpp:156] Memory required for data: 869149728
I0403 15:08:15.222419 31182 layer_factory.hpp:77] Creating layer inception_4a/relu_3x3
I0403 15:08:15.222439 31182 net.cpp:91] Creating Layer inception_4a/relu_3x3
I0403 15:08:15.222455 31182 net.cpp:425] inception_4a/relu_3x3 <- inception_4a/3x3
I0403 15:08:15.222473 31182 net.cpp:386] inception_4a/relu_3x3 -> inception_4a/3x3 (in-place)
I0403 15:08:15.222749 31182 net.cpp:141] Setting up inception_4a/relu_3x3
I0403 15:08:15.222774 31182 net.cpp:148] Top shape: 24 208 14 14 (978432)
I0403 15:08:15.222790 31182 net.cpp:156] Memory required for data: 873063456
I0403 15:08:15.222805 31182 layer_factory.hpp:77] Creating layer inception_4a/5x5_reduce
I0403 15:08:15.222827 31182 net.cpp:91] Creating Layer inception_4a/5x5_reduce
I0403 15:08:15.222844 31182 net.cpp:425] inception_4a/5x5_reduce <- pool3/3x3_s2_pool3/3x3_s2_0_split_2
I0403 15:08:15.222865 31182 net.cpp:399] inception_4a/5x5_reduce -> inception_4a/5x5_reduce
I0403 15:08:15.223857 31182 net.cpp:141] Setting up inception_4a/5x5_reduce
I0403 15:08:15.223883 31182 net.cpp:148] Top shape: 24 16 14 14 (75264)
I0403 15:08:15.223899 31182 net.cpp:156] Memory required for data: 873364512
I0403 15:08:15.223917 31182 layer_factory.hpp:77] Creating layer inception_4a/relu_5x5_reduce
I0403 15:08:15.223937 31182 net.cpp:91] Creating Layer inception_4a/relu_5x5_reduce
I0403 15:08:15.223954 31182 net.cpp:425] inception_4a/relu_5x5_reduce <- inception_4a/5x5_reduce
I0403 15:08:15.223973 31182 net.cpp:386] inception_4a/relu_5x5_reduce -> inception_4a/5x5_reduce (in-place)
I0403 15:08:15.224148 31182 net.cpp:141] Setting up inception_4a/relu_5x5_reduce
I0403 15:08:15.224171 31182 net.cpp:148] Top shape: 24 16 14 14 (75264)
I0403 15:08:15.224186 31182 net.cpp:156] Memory required for data: 873665568
I0403 15:08:15.224201 31182 layer_factory.hpp:77] Creating layer inception_4a/5x5
I0403 15:08:15.224225 31182 net.cpp:91] Creating Layer inception_4a/5x5
I0403 15:08:15.224243 31182 net.cpp:425] inception_4a/5x5 <- inception_4a/5x5_reduce
I0403 15:08:15.224262 31182 net.cpp:399] inception_4a/5x5 -> inception_4a/5x5
I0403 15:08:15.225332 31182 net.cpp:141] Setting up inception_4a/5x5
I0403 15:08:15.225359 31182 net.cpp:148] Top shape: 24 48 14 14 (225792)
I0403 15:08:15.225375 31182 net.cpp:156] Memory required for data: 874568736
I0403 15:08:15.225394 31182 layer_factory.hpp:77] Creating layer inception_4a/relu_5x5
I0403 15:08:15.225412 31182 net.cpp:91] Creating Layer inception_4a/relu_5x5
I0403 15:08:15.225428 31182 net.cpp:425] inception_4a/relu_5x5 <- inception_4a/5x5
I0403 15:08:15.225447 31182 net.cpp:386] inception_4a/relu_5x5 -> inception_4a/5x5 (in-place)
I0403 15:08:15.225628 31182 net.cpp:141] Setting up inception_4a/relu_5x5
I0403 15:08:15.225653 31182 net.cpp:148] Top shape: 24 48 14 14 (225792)
I0403 15:08:15.225668 31182 net.cpp:156] Memory required for data: 875471904
I0403 15:08:15.225683 31182 layer_factory.hpp:77] Creating layer inception_4a/pool
I0403 15:08:15.225700 31182 net.cpp:91] Creating Layer inception_4a/pool
I0403 15:08:15.225715 31182 net.cpp:425] inception_4a/pool <- pool3/3x3_s2_pool3/3x3_s2_0_split_3
I0403 15:08:15.225738 31182 net.cpp:399] inception_4a/pool -> inception_4a/pool
I0403 15:08:15.225796 31182 net.cpp:141] Setting up inception_4a/pool
I0403 15:08:15.225821 31182 net.cpp:148] Top shape: 24 480 14 14 (2257920)
I0403 15:08:15.225836 31182 net.cpp:156] Memory required for data: 884503584
I0403 15:08:15.225852 31182 layer_factory.hpp:77] Creating layer inception_4a/pool_proj
I0403 15:08:15.225873 31182 net.cpp:91] Creating Layer inception_4a/pool_proj
I0403 15:08:15.225890 31182 net.cpp:425] inception_4a/pool_proj <- inception_4a/pool
I0403 15:08:15.225908 31182 net.cpp:399] inception_4a/pool_proj -> inception_4a/pool_proj
I0403 15:08:15.227035 31182 net.cpp:141] Setting up inception_4a/pool_proj
I0403 15:08:15.227064 31182 net.cpp:148] Top shape: 24 64 14 14 (301056)
I0403 15:08:15.227093 31182 net.cpp:156] Memory required for data: 885707808
I0403 15:08:15.227120 31182 layer_factory.hpp:77] Creating layer inception_4a/relu_pool_proj
I0403 15:08:15.227138 31182 net.cpp:91] Creating Layer inception_4a/relu_pool_proj
I0403 15:08:15.227154 31182 net.cpp:425] inception_4a/relu_pool_proj <- inception_4a/pool_proj
I0403 15:08:15.227174 31182 net.cpp:386] inception_4a/relu_pool_proj -> inception_4a/pool_proj (in-place)
I0403 15:08:15.227452 31182 net.cpp:141] Setting up inception_4a/relu_pool_proj
I0403 15:08:15.227478 31182 net.cpp:148] Top shape: 24 64 14 14 (301056)
I0403 15:08:15.227494 31182 net.cpp:156] Memory required for data: 886912032
I0403 15:08:15.227509 31182 layer_factory.hpp:77] Creating layer inception_4a/output
I0403 15:08:15.227525 31182 net.cpp:91] Creating Layer inception_4a/output
I0403 15:08:15.227546 31182 net.cpp:425] inception_4a/output <- inception_4a/1x1
I0403 15:08:15.227563 31182 net.cpp:425] inception_4a/output <- inception_4a/3x3
I0403 15:08:15.227579 31182 net.cpp:425] inception_4a/output <- inception_4a/5x5
I0403 15:08:15.227596 31182 net.cpp:425] inception_4a/output <- inception_4a/pool_proj
I0403 15:08:15.227612 31182 net.cpp:399] inception_4a/output -> inception_4a/output
I0403 15:08:15.227658 31182 net.cpp:141] Setting up inception_4a/output
I0403 15:08:15.227680 31182 net.cpp:148] Top shape: 24 512 14 14 (2408448)
I0403 15:08:15.227694 31182 net.cpp:156] Memory required for data: 896545824
I0403 15:08:15.227710 31182 layer_factory.hpp:77] Creating layer inception_4a/output_inception_4a/output_0_split
I0403 15:08:15.227730 31182 net.cpp:91] Creating Layer inception_4a/output_inception_4a/output_0_split
I0403 15:08:15.227747 31182 net.cpp:425] inception_4a/output_inception_4a/output_0_split <- inception_4a/output
I0403 15:08:15.227764 31182 net.cpp:399] inception_4a/output_inception_4a/output_0_split -> inception_4a/output_inception_4a/output_0_split_0
I0403 15:08:15.227784 31182 net.cpp:399] inception_4a/output_inception_4a/output_0_split -> inception_4a/output_inception_4a/output_0_split_1
I0403 15:08:15.227807 31182 net.cpp:399] inception_4a/output_inception_4a/output_0_split -> inception_4a/output_inception_4a/output_0_split_2
I0403 15:08:15.227828 31182 net.cpp:399] inception_4a/output_inception_4a/output_0_split -> inception_4a/output_inception_4a/output_0_split_3
I0403 15:08:15.227848 31182 net.cpp:399] inception_4a/output_inception_4a/output_0_split -> inception_4a/output_inception_4a/output_0_split_4
I0403 15:08:15.227937 31182 net.cpp:141] Setting up inception_4a/output_inception_4a/output_0_split
I0403 15:08:15.227960 31182 net.cpp:148] Top shape: 24 512 14 14 (2408448)
I0403 15:08:15.227977 31182 net.cpp:148] Top shape: 24 512 14 14 (2408448)
I0403 15:08:15.227994 31182 net.cpp:148] Top shape: 24 512 14 14 (2408448)
I0403 15:08:15.228009 31182 net.cpp:148] Top shape: 24 512 14 14 (2408448)
I0403 15:08:15.228024 31182 net.cpp:148] Top shape: 24 512 14 14 (2408448)
I0403 15:08:15.228039 31182 net.cpp:156] Memory required for data: 944714784
I0403 15:08:15.228052 31182 layer_factory.hpp:77] Creating layer loss1/ave_pool
I0403 15:08:15.228072 31182 net.cpp:91] Creating Layer loss1/ave_pool
I0403 15:08:15.228088 31182 net.cpp:425] loss1/ave_pool <- inception_4a/output_inception_4a/output_0_split_0
I0403 15:08:15.228106 31182 net.cpp:399] loss1/ave_pool -> loss1/ave_pool
I0403 15:08:15.228310 31182 net.cpp:141] Setting up loss1/ave_pool
I0403 15:08:15.228335 31182 net.cpp:148] Top shape: 24 512 4 4 (196608)
I0403 15:08:15.228350 31182 net.cpp:156] Memory required for data: 945501216
I0403 15:08:15.228365 31182 layer_factory.hpp:77] Creating layer loss1/conv
I0403 15:08:15.228387 31182 net.cpp:91] Creating Layer loss1/conv
I0403 15:08:15.228405 31182 net.cpp:425] loss1/conv <- loss1/ave_pool
I0403 15:08:15.228426 31182 net.cpp:399] loss1/conv -> loss1/conv
I0403 15:08:15.229799 31182 net.cpp:141] Setting up loss1/conv
I0403 15:08:15.229827 31182 net.cpp:148] Top shape: 24 128 4 4 (49152)
I0403 15:08:15.229857 31182 net.cpp:156] Memory required for data: 945697824
I0403 15:08:15.229877 31182 layer_factory.hpp:77] Creating layer loss1/relu_conv
I0403 15:08:15.229897 31182 net.cpp:91] Creating Layer loss1/relu_conv
I0403 15:08:15.229914 31182 net.cpp:425] loss1/relu_conv <- loss1/conv
I0403 15:08:15.229931 31182 net.cpp:386] loss1/relu_conv -> loss1/conv (in-place)
I0403 15:08:15.230207 31182 net.cpp:141] Setting up loss1/relu_conv
I0403 15:08:15.230233 31182 net.cpp:148] Top shape: 24 128 4 4 (49152)
I0403 15:08:15.230247 31182 net.cpp:156] Memory required for data: 945894432
I0403 15:08:15.230262 31182 layer_factory.hpp:77] Creating layer loss1/fc
I0403 15:08:15.230290 31182 net.cpp:91] Creating Layer loss1/fc
I0403 15:08:15.230307 31182 net.cpp:425] loss1/fc <- loss1/conv
I0403 15:08:15.230326 31182 net.cpp:399] loss1/fc -> loss1/fc
I0403 15:08:15.247467 31182 net.cpp:141] Setting up loss1/fc
I0403 15:08:15.247500 31182 net.cpp:148] Top shape: 24 1024 (24576)
I0403 15:08:15.247517 31182 net.cpp:156] Memory required for data: 945992736
I0403 15:08:15.247541 31182 layer_factory.hpp:77] Creating layer loss1/relu_fc
I0403 15:08:15.247561 31182 net.cpp:91] Creating Layer loss1/relu_fc
I0403 15:08:15.247577 31182 net.cpp:425] loss1/relu_fc <- loss1/fc
I0403 15:08:15.247597 31182 net.cpp:386] loss1/relu_fc -> loss1/fc (in-place)
I0403 15:08:15.247788 31182 net.cpp:141] Setting up loss1/relu_fc
I0403 15:08:15.247812 31182 net.cpp:148] Top shape: 24 1024 (24576)
I0403 15:08:15.247828 31182 net.cpp:156] Memory required for data: 946091040
I0403 15:08:15.247843 31182 layer_factory.hpp:77] Creating layer loss1/drop_fc
I0403 15:08:15.247871 31182 net.cpp:91] Creating Layer loss1/drop_fc
I0403 15:08:15.247889 31182 net.cpp:425] loss1/drop_fc <- loss1/fc
I0403 15:08:15.247906 31182 net.cpp:386] loss1/drop_fc -> loss1/fc (in-place)
I0403 15:08:15.247956 31182 net.cpp:141] Setting up loss1/drop_fc
I0403 15:08:15.247979 31182 net.cpp:148] Top shape: 24 1024 (24576)
I0403 15:08:15.247993 31182 net.cpp:156] Memory required for data: 946189344
I0403 15:08:15.248008 31182 layer_factory.hpp:77] Creating layer loss1/classifier_plantvillage
I0403 15:08:15.248028 31182 net.cpp:91] Creating Layer loss1/classifier_plantvillage
I0403 15:08:15.248046 31182 net.cpp:425] loss1/classifier_plantvillage <- loss1/fc
I0403 15:08:15.248070 31182 net.cpp:399] loss1/classifier_plantvillage -> loss1/classifier_plantvillage
I0403 15:08:15.248949 31182 net.cpp:141] Setting up loss1/classifier_plantvillage
I0403 15:08:15.248975 31182 net.cpp:148] Top shape: 24 38 (912)
I0403 15:08:15.248991 31182 net.cpp:156] Memory required for data: 946192992
I0403 15:08:15.249008 31182 layer_factory.hpp:77] Creating layer loss1/classifier_plantvillage_loss1/classifier_plantvillage_0_split
I0403 15:08:15.249027 31182 net.cpp:91] Creating Layer loss1/classifier_plantvillage_loss1/classifier_plantvillage_0_split
I0403 15:08:15.249042 31182 net.cpp:425] loss1/classifier_plantvillage_loss1/classifier_plantvillage_0_split <- loss1/classifier_plantvillage
I0403 15:08:15.249061 31182 net.cpp:399] loss1/classifier_plantvillage_loss1/classifier_plantvillage_0_split -> loss1/classifier_plantvillage_loss1/classifier_plantvillage_0_split_0
I0403 15:08:15.249083 31182 net.cpp:399] loss1/classifier_plantvillage_loss1/classifier_plantvillage_0_split -> loss1/classifier_plantvillage_loss1/classifier_plantvillage_0_split_1
I0403 15:08:15.249104 31182 net.cpp:399] loss1/classifier_plantvillage_loss1/classifier_plantvillage_0_split -> loss1/classifier_plantvillage_loss1/classifier_plantvillage_0_split_2
I0403 15:08:15.249167 31182 net.cpp:141] Setting up loss1/classifier_plantvillage_loss1/classifier_plantvillage_0_split
I0403 15:08:15.249191 31182 net.cpp:148] Top shape: 24 38 (912)
I0403 15:08:15.249208 31182 net.cpp:148] Top shape: 24 38 (912)
I0403 15:08:15.249224 31182 net.cpp:148] Top shape: 24 38 (912)
I0403 15:08:15.249238 31182 net.cpp:156] Memory required for data: 946203936
I0403 15:08:15.249253 31182 layer_factory.hpp:77] Creating layer inception_4b/1x1
I0403 15:08:15.249274 31182 net.cpp:91] Creating Layer inception_4b/1x1
I0403 15:08:15.249305 31182 net.cpp:425] inception_4b/1x1 <- inception_4a/output_inception_4a/output_0_split_1
I0403 15:08:15.249325 31182 net.cpp:399] inception_4b/1x1 -> inception_4b/1x1
I0403 15:08:15.250921 31182 net.cpp:141] Setting up inception_4b/1x1
I0403 15:08:15.250948 31182 net.cpp:148] Top shape: 24 160 14 14 (752640)
I0403 15:08:15.250963 31182 net.cpp:156] Memory required for data: 949214496
I0403 15:08:15.250982 31182 layer_factory.hpp:77] Creating layer inception_4b/relu_1x1
I0403 15:08:15.251003 31182 net.cpp:91] Creating Layer inception_4b/relu_1x1
I0403 15:08:15.251019 31182 net.cpp:425] inception_4b/relu_1x1 <- inception_4b/1x1
I0403 15:08:15.251036 31182 net.cpp:386] inception_4b/relu_1x1 -> inception_4b/1x1 (in-place)
I0403 15:08:15.251211 31182 net.cpp:141] Setting up inception_4b/relu_1x1
I0403 15:08:15.251235 31182 net.cpp:148] Top shape: 24 160 14 14 (752640)
I0403 15:08:15.251250 31182 net.cpp:156] Memory required for data: 952225056
I0403 15:08:15.251266 31182 layer_factory.hpp:77] Creating layer inception_4b/3x3_reduce
I0403 15:08:15.251288 31182 net.cpp:91] Creating Layer inception_4b/3x3_reduce
I0403 15:08:15.251307 31182 net.cpp:425] inception_4b/3x3_reduce <- inception_4a/output_inception_4a/output_0_split_2
I0403 15:08:15.251325 31182 net.cpp:399] inception_4b/3x3_reduce -> inception_4b/3x3_reduce
I0403 15:08:15.252653 31182 net.cpp:141] Setting up inception_4b/3x3_reduce
I0403 15:08:15.252679 31182 net.cpp:148] Top shape: 24 112 14 14 (526848)
I0403 15:08:15.252694 31182 net.cpp:156] Memory required for data: 954332448
I0403 15:08:15.252713 31182 layer_factory.hpp:77] Creating layer inception_4b/relu_3x3_reduce
I0403 15:08:15.252734 31182 net.cpp:91] Creating Layer inception_4b/relu_3x3_reduce
I0403 15:08:15.252753 31182 net.cpp:425] inception_4b/relu_3x3_reduce <- inception_4b/3x3_reduce
I0403 15:08:15.252769 31182 net.cpp:386] inception_4b/relu_3x3_reduce -> inception_4b/3x3_reduce (in-place)
I0403 15:08:15.253042 31182 net.cpp:141] Setting up inception_4b/relu_3x3_reduce
I0403 15:08:15.253068 31182 net.cpp:148] Top shape: 24 112 14 14 (526848)
I0403 15:08:15.253083 31182 net.cpp:156] Memory required for data: 956439840
I0403 15:08:15.253098 31182 layer_factory.hpp:77] Creating layer inception_4b/3x3
I0403 15:08:15.253121 31182 net.cpp:91] Creating Layer inception_4b/3x3
I0403 15:08:15.253139 31182 net.cpp:425] inception_4b/3x3 <- inception_4b/3x3_reduce
I0403 15:08:15.253159 31182 net.cpp:399] inception_4b/3x3 -> inception_4b/3x3
I0403 15:08:15.256077 31182 net.cpp:141] Setting up inception_4b/3x3
I0403 15:08:15.256106 31182 net.cpp:148] Top shape: 24 224 14 14 (1053696)
I0403 15:08:15.256122 31182 net.cpp:156] Memory required for data: 960654624
I0403 15:08:15.256141 31182 layer_factory.hpp:77] Creating layer inception_4b/relu_3x3
I0403 15:08:15.256160 31182 net.cpp:91] Creating Layer inception_4b/relu_3x3
I0403 15:08:15.256176 31182 net.cpp:425] inception_4b/relu_3x3 <- inception_4b/3x3
I0403 15:08:15.256196 31182 net.cpp:386] inception_4b/relu_3x3 -> inception_4b/3x3 (in-place)
I0403 15:08:15.256372 31182 net.cpp:141] Setting up inception_4b/relu_3x3
I0403 15:08:15.256397 31182 net.cpp:148] Top shape: 24 224 14 14 (1053696)
I0403 15:08:15.256412 31182 net.cpp:156] Memory required for data: 964869408
I0403 15:08:15.256428 31182 layer_factory.hpp:77] Creating layer inception_4b/5x5_reduce
I0403 15:08:15.256450 31182 net.cpp:91] Creating Layer inception_4b/5x5_reduce
I0403 15:08:15.256467 31182 net.cpp:425] inception_4b/5x5_reduce <- inception_4a/output_inception_4a/output_0_split_3
I0403 15:08:15.256489 31182 net.cpp:399] inception_4b/5x5_reduce -> inception_4b/5x5_reduce
I0403 15:08:15.257556 31182 net.cpp:141] Setting up inception_4b/5x5_reduce
I0403 15:08:15.257583 31182 net.cpp:148] Top shape: 24 24 14 14 (112896)
I0403 15:08:15.257598 31182 net.cpp:156] Memory required for data: 965320992
I0403 15:08:15.257624 31182 layer_factory.hpp:77] Creating layer inception_4b/relu_5x5_reduce
I0403 15:08:15.257645 31182 net.cpp:91] Creating Layer inception_4b/relu_5x5_reduce
I0403 15:08:15.257675 31182 net.cpp:425] inception_4b/relu_5x5_reduce <- inception_4b/5x5_reduce
I0403 15:08:15.257694 31182 net.cpp:386] inception_4b/relu_5x5_reduce -> inception_4b/5x5_reduce (in-place)
I0403 15:08:15.257871 31182 net.cpp:141] Setting up inception_4b/relu_5x5_reduce
I0403 15:08:15.257897 31182 net.cpp:148] Top shape: 24 24 14 14 (112896)
I0403 15:08:15.257913 31182 net.cpp:156] Memory required for data: 965772576
I0403 15:08:15.257928 31182 layer_factory.hpp:77] Creating layer inception_4b/5x5
I0403 15:08:15.257951 31182 net.cpp:91] Creating Layer inception_4b/5x5
I0403 15:08:15.257968 31182 net.cpp:425] inception_4b/5x5 <- inception_4b/5x5_reduce
I0403 15:08:15.257987 31182 net.cpp:399] inception_4b/5x5 -> inception_4b/5x5
I0403 15:08:15.259181 31182 net.cpp:141] Setting up inception_4b/5x5
I0403 15:08:15.259208 31182 net.cpp:148] Top shape: 24 64 14 14 (301056)
I0403 15:08:15.259223 31182 net.cpp:156] Memory required for data: 966976800
I0403 15:08:15.259241 31182 layer_factory.hpp:77] Creating layer inception_4b/relu_5x5
I0403 15:08:15.259261 31182 net.cpp:91] Creating Layer inception_4b/relu_5x5
I0403 15:08:15.259279 31182 net.cpp:425] inception_4b/relu_5x5 <- inception_4b/5x5
I0403 15:08:15.259296 31182 net.cpp:386] inception_4b/relu_5x5 -> inception_4b/5x5 (in-place)
I0403 15:08:15.259582 31182 net.cpp:141] Setting up inception_4b/relu_5x5
I0403 15:08:15.259608 31182 net.cpp:148] Top shape: 24 64 14 14 (301056)
I0403 15:08:15.259624 31182 net.cpp:156] Memory required for data: 968181024
I0403 15:08:15.259639 31182 layer_factory.hpp:77] Creating layer inception_4b/pool
I0403 15:08:15.259659 31182 net.cpp:91] Creating Layer inception_4b/pool
I0403 15:08:15.259676 31182 net.cpp:425] inception_4b/pool <- inception_4a/output_inception_4a/output_0_split_4
I0403 15:08:15.259695 31182 net.cpp:399] inception_4b/pool -> inception_4b/pool
I0403 15:08:15.259760 31182 net.cpp:141] Setting up inception_4b/pool
I0403 15:08:15.259784 31182 net.cpp:148] Top shape: 24 512 14 14 (2408448)
I0403 15:08:15.259799 31182 net.cpp:156] Memory required for data: 977814816
I0403 15:08:15.259814 31182 layer_factory.hpp:77] Creating layer inception_4b/pool_proj
I0403 15:08:15.259835 31182 net.cpp:91] Creating Layer inception_4b/pool_proj
I0403 15:08:15.259852 31182 net.cpp:425] inception_4b/pool_proj <- inception_4b/pool
I0403 15:08:15.259873 31182 net.cpp:399] inception_4b/pool_proj -> inception_4b/pool_proj
I0403 15:08:15.261042 31182 net.cpp:141] Setting up inception_4b/pool_proj
I0403 15:08:15.261070 31182 net.cpp:148] Top shape: 24 64 14 14 (301056)
I0403 15:08:15.261085 31182 net.cpp:156] Memory required for data: 979019040
I0403 15:08:15.261102 31182 layer_factory.hpp:77] Creating layer inception_4b/relu_pool_proj
I0403 15:08:15.261123 31182 net.cpp:91] Creating Layer inception_4b/relu_pool_proj
I0403 15:08:15.261140 31182 net.cpp:425] inception_4b/relu_pool_proj <- inception_4b/pool_proj
I0403 15:08:15.261158 31182 net.cpp:386] inception_4b/relu_pool_proj -> inception_4b/pool_proj (in-place)
I0403 15:08:15.261332 31182 net.cpp:141] Setting up inception_4b/relu_pool_proj
I0403 15:08:15.261359 31182 net.cpp:148] Top shape: 24 64 14 14 (301056)
I0403 15:08:15.261374 31182 net.cpp:156] Memory required for data: 980223264
I0403 15:08:15.261390 31182 layer_factory.hpp:77] Creating layer inception_4b/output
I0403 15:08:15.261407 31182 net.cpp:91] Creating Layer inception_4b/output
I0403 15:08:15.261422 31182 net.cpp:425] inception_4b/output <- inception_4b/1x1
I0403 15:08:15.261440 31182 net.cpp:425] inception_4b/output <- inception_4b/3x3
I0403 15:08:15.261456 31182 net.cpp:425] inception_4b/output <- inception_4b/5x5
I0403 15:08:15.261471 31182 net.cpp:425] inception_4b/output <- inception_4b/pool_proj
I0403 15:08:15.261488 31182 net.cpp:399] inception_4b/output -> inception_4b/output
I0403 15:08:15.261538 31182 net.cpp:141] Setting up inception_4b/output
I0403 15:08:15.261561 31182 net.cpp:148] Top shape: 24 512 14 14 (2408448)
I0403 15:08:15.261577 31182 net.cpp:156] Memory required for data: 989857056
I0403 15:08:15.261606 31182 layer_factory.hpp:77] Creating layer inception_4b/output_inception_4b/output_0_split
I0403 15:08:15.261626 31182 net.cpp:91] Creating Layer inception_4b/output_inception_4b/output_0_split
I0403 15:08:15.261641 31182 net.cpp:425] inception_4b/output_inception_4b/output_0_split <- inception_4b/output
I0403 15:08:15.261661 31182 net.cpp:399] inception_4b/output_inception_4b/output_0_split -> inception_4b/output_inception_4b/output_0_split_0
I0403 15:08:15.261682 31182 net.cpp:399] inception_4b/output_inception_4b/output_0_split -> inception_4b/output_inception_4b/output_0_split_1
I0403 15:08:15.261703 31182 net.cpp:399] inception_4b/output_inception_4b/output_0_split -> inception_4b/output_inception_4b/output_0_split_2
I0403 15:08:15.261723 31182 net.cpp:399] inception_4b/output_inception_4b/output_0_split -> inception_4b/output_inception_4b/output_0_split_3
I0403 15:08:15.261806 31182 net.cpp:141] Setting up inception_4b/output_inception_4b/output_0_split
I0403 15:08:15.261829 31182 net.cpp:148] Top shape: 24 512 14 14 (2408448)
I0403 15:08:15.261847 31182 net.cpp:148] Top shape: 24 512 14 14 (2408448)
I0403 15:08:15.261862 31182 net.cpp:148] Top shape: 24 512 14 14 (2408448)
I0403 15:08:15.261878 31182 net.cpp:148] Top shape: 24 512 14 14 (2408448)
I0403 15:08:15.261893 31182 net.cpp:156] Memory required for data: 1028392224
I0403 15:08:15.261906 31182 layer_factory.hpp:77] Creating layer inception_4c/1x1
I0403 15:08:15.261929 31182 net.cpp:91] Creating Layer inception_4c/1x1
I0403 15:08:15.261945 31182 net.cpp:425] inception_4c/1x1 <- inception_4b/output_inception_4b/output_0_split_0
I0403 15:08:15.261966 31182 net.cpp:399] inception_4c/1x1 -> inception_4c/1x1
I0403 15:08:15.263355 31182 net.cpp:141] Setting up inception_4c/1x1
I0403 15:08:15.263384 31182 net.cpp:148] Top shape: 24 128 14 14 (602112)
I0403 15:08:15.263401 31182 net.cpp:156] Memory required for data: 1030800672
I0403 15:08:15.263419 31182 layer_factory.hpp:77] Creating layer inception_4c/relu_1x1
I0403 15:08:15.263437 31182 net.cpp:91] Creating Layer inception_4c/relu_1x1
I0403 15:08:15.263453 31182 net.cpp:425] inception_4c/relu_1x1 <- inception_4c/1x1
I0403 15:08:15.263473 31182 net.cpp:386] inception_4c/relu_1x1 -> inception_4c/1x1 (in-place)
I0403 15:08:15.263654 31182 net.cpp:141] Setting up inception_4c/relu_1x1
I0403 15:08:15.263679 31182 net.cpp:148] Top shape: 24 128 14 14 (602112)
I0403 15:08:15.263694 31182 net.cpp:156] Memory required for data: 1033209120
I0403 15:08:15.263708 31182 layer_factory.hpp:77] Creating layer inception_4c/3x3_reduce
I0403 15:08:15.263731 31182 net.cpp:91] Creating Layer inception_4c/3x3_reduce
I0403 15:08:15.263748 31182 net.cpp:425] inception_4c/3x3_reduce <- inception_4b/output_inception_4b/output_0_split_1
I0403 15:08:15.263769 31182 net.cpp:399] inception_4c/3x3_reduce -> inception_4c/3x3_reduce
I0403 15:08:15.265655 31182 net.cpp:141] Setting up inception_4c/3x3_reduce
I0403 15:08:15.265681 31182 net.cpp:148] Top shape: 24 128 14 14 (602112)
I0403 15:08:15.265697 31182 net.cpp:156] Memory required for data: 1035617568
I0403 15:08:15.265717 31182 layer_factory.hpp:77] Creating layer inception_4c/relu_3x3_reduce
I0403 15:08:15.265736 31182 net.cpp:91] Creating Layer inception_4c/relu_3x3_reduce
I0403 15:08:15.265754 31182 net.cpp:425] inception_4c/relu_3x3_reduce <- inception_4c/3x3_reduce
I0403 15:08:15.265772 31182 net.cpp:386] inception_4c/relu_3x3_reduce -> inception_4c/3x3_reduce (in-place)
I0403 15:08:15.266052 31182 net.cpp:141] Setting up inception_4c/relu_3x3_reduce
I0403 15:08:15.266078 31182 net.cpp:148] Top shape: 24 128 14 14 (602112)
I0403 15:08:15.266094 31182 net.cpp:156] Memory required for data: 1038026016
I0403 15:08:15.266109 31182 layer_factory.hpp:77] Creating layer inception_4c/3x3
I0403 15:08:15.266132 31182 net.cpp:91] Creating Layer inception_4c/3x3
I0403 15:08:15.266149 31182 net.cpp:425] inception_4c/3x3 <- inception_4c/3x3_reduce
I0403 15:08:15.266172 31182 net.cpp:399] inception_4c/3x3 -> inception_4c/3x3
I0403 15:08:15.269696 31182 net.cpp:141] Setting up inception_4c/3x3
I0403 15:08:15.269736 31182 net.cpp:148] Top shape: 24 256 14 14 (1204224)
I0403 15:08:15.269752 31182 net.cpp:156] Memory required for data: 1042842912
I0403 15:08:15.269783 31182 layer_factory.hpp:77] Creating layer inception_4c/relu_3x3
I0403 15:08:15.269804 31182 net.cpp:91] Creating Layer inception_4c/relu_3x3
I0403 15:08:15.269821 31182 net.cpp:425] inception_4c/relu_3x3 <- inception_4c/3x3
I0403 15:08:15.269839 31182 net.cpp:386] inception_4c/relu_3x3 -> inception_4c/3x3 (in-place)
I0403 15:08:15.270015 31182 net.cpp:141] Setting up inception_4c/relu_3x3
I0403 15:08:15.270040 31182 net.cpp:148] Top shape: 24 256 14 14 (1204224)
I0403 15:08:15.270056 31182 net.cpp:156] Memory required for data: 1047659808
I0403 15:08:15.270071 31182 layer_factory.hpp:77] Creating layer inception_4c/5x5_reduce
I0403 15:08:15.270092 31182 net.cpp:91] Creating Layer inception_4c/5x5_reduce
I0403 15:08:15.270109 31182 net.cpp:425] inception_4c/5x5_reduce <- inception_4b/output_inception_4b/output_0_split_2
I0403 15:08:15.270131 31182 net.cpp:399] inception_4c/5x5_reduce -> inception_4c/5x5_reduce
I0403 15:08:15.271188 31182 net.cpp:141] Setting up inception_4c/5x5_reduce
I0403 15:08:15.271214 31182 net.cpp:148] Top shape: 24 24 14 14 (112896)
I0403 15:08:15.271229 31182 net.cpp:156] Memory required for data: 1048111392
I0403 15:08:15.271248 31182 layer_factory.hpp:77] Creating layer inception_4c/relu_5x5_reduce
I0403 15:08:15.271268 31182 net.cpp:91] Creating Layer inception_4c/relu_5x5_reduce
I0403 15:08:15.271284 31182 net.cpp:425] inception_4c/relu_5x5_reduce <- inception_4c/5x5_reduce
I0403 15:08:15.271302 31182 net.cpp:386] inception_4c/relu_5x5_reduce -> inception_4c/5x5_reduce (in-place)
I0403 15:08:15.271477 31182 net.cpp:141] Setting up inception_4c/relu_5x5_reduce
I0403 15:08:15.271504 31182 net.cpp:148] Top shape: 24 24 14 14 (112896)
I0403 15:08:15.271519 31182 net.cpp:156] Memory required for data: 1048562976
I0403 15:08:15.271538 31182 layer_factory.hpp:77] Creating layer inception_4c/5x5
I0403 15:08:15.271561 31182 net.cpp:91] Creating Layer inception_4c/5x5
I0403 15:08:15.271580 31182 net.cpp:425] inception_4c/5x5 <- inception_4c/5x5_reduce
I0403 15:08:15.271600 31182 net.cpp:399] inception_4c/5x5 -> inception_4c/5x5
I0403 15:08:15.272814 31182 net.cpp:141] Setting up inception_4c/5x5
I0403 15:08:15.272842 31182 net.cpp:148] Top shape: 24 64 14 14 (301056)
I0403 15:08:15.272858 31182 net.cpp:156] Memory required for data: 1049767200
I0403 15:08:15.272876 31182 layer_factory.hpp:77] Creating layer inception_4c/relu_5x5
I0403 15:08:15.272894 31182 net.cpp:91] Creating Layer inception_4c/relu_5x5
I0403 15:08:15.272910 31182 net.cpp:425] inception_4c/relu_5x5 <- inception_4c/5x5
I0403 15:08:15.272930 31182 net.cpp:386] inception_4c/relu_5x5 -> inception_4c/5x5 (in-place)
I0403 15:08:15.273216 31182 net.cpp:141] Setting up inception_4c/relu_5x5
I0403 15:08:15.273243 31182 net.cpp:148] Top shape: 24 64 14 14 (301056)
I0403 15:08:15.273258 31182 net.cpp:156] Memory required for data: 1050971424
I0403 15:08:15.273273 31182 layer_factory.hpp:77] Creating layer inception_4c/pool
I0403 15:08:15.273291 31182 net.cpp:91] Creating Layer inception_4c/pool
I0403 15:08:15.273308 31182 net.cpp:425] inception_4c/pool <- inception_4b/output_inception_4b/output_0_split_3
I0403 15:08:15.273327 31182 net.cpp:399] inception_4c/pool -> inception_4c/pool
I0403 15:08:15.273392 31182 net.cpp:141] Setting up inception_4c/pool
I0403 15:08:15.273416 31182 net.cpp:148] Top shape: 24 512 14 14 (2408448)
I0403 15:08:15.273430 31182 net.cpp:156] Memory required for data: 1060605216
I0403 15:08:15.273445 31182 layer_factory.hpp:77] Creating layer inception_4c/pool_proj
I0403 15:08:15.273468 31182 net.cpp:91] Creating Layer inception_4c/pool_proj
I0403 15:08:15.273486 31182 net.cpp:425] inception_4c/pool_proj <- inception_4c/pool
I0403 15:08:15.273507 31182 net.cpp:399] inception_4c/pool_proj -> inception_4c/pool_proj
I0403 15:08:15.274705 31182 net.cpp:141] Setting up inception_4c/pool_proj
I0403 15:08:15.274732 31182 net.cpp:148] Top shape: 24 64 14 14 (301056)
I0403 15:08:15.274760 31182 net.cpp:156] Memory required for data: 1061809440
I0403 15:08:15.274780 31182 layer_factory.hpp:77] Creating layer inception_4c/relu_pool_proj
I0403 15:08:15.274806 31182 net.cpp:91] Creating Layer inception_4c/relu_pool_proj
I0403 15:08:15.274823 31182 net.cpp:425] inception_4c/relu_pool_proj <- inception_4c/pool_proj
I0403 15:08:15.274840 31182 net.cpp:386] inception_4c/relu_pool_proj -> inception_4c/pool_proj (in-place)
I0403 15:08:15.275015 31182 net.cpp:141] Setting up inception_4c/relu_pool_proj
I0403 15:08:15.275041 31182 net.cpp:148] Top shape: 24 64 14 14 (301056)
I0403 15:08:15.275058 31182 net.cpp:156] Memory required for data: 1063013664
I0403 15:08:15.275073 31182 layer_factory.hpp:77] Creating layer inception_4c/output
I0403 15:08:15.275089 31182 net.cpp:91] Creating Layer inception_4c/output
I0403 15:08:15.275104 31182 net.cpp:425] inception_4c/output <- inception_4c/1x1
I0403 15:08:15.275120 31182 net.cpp:425] inception_4c/output <- inception_4c/3x3
I0403 15:08:15.275137 31182 net.cpp:425] inception_4c/output <- inception_4c/5x5
I0403 15:08:15.275153 31182 net.cpp:425] inception_4c/output <- inception_4c/pool_proj
I0403 15:08:15.275171 31182 net.cpp:399] inception_4c/output -> inception_4c/output
I0403 15:08:15.275218 31182 net.cpp:141] Setting up inception_4c/output
I0403 15:08:15.275240 31182 net.cpp:148] Top shape: 24 512 14 14 (2408448)
I0403 15:08:15.275254 31182 net.cpp:156] Memory required for data: 1072647456
I0403 15:08:15.275269 31182 layer_factory.hpp:77] Creating layer inception_4c/output_inception_4c/output_0_split
I0403 15:08:15.275285 31182 net.cpp:91] Creating Layer inception_4c/output_inception_4c/output_0_split
I0403 15:08:15.275301 31182 net.cpp:425] inception_4c/output_inception_4c/output_0_split <- inception_4c/output
I0403 15:08:15.275321 31182 net.cpp:399] inception_4c/output_inception_4c/output_0_split -> inception_4c/output_inception_4c/output_0_split_0
I0403 15:08:15.275344 31182 net.cpp:399] inception_4c/output_inception_4c/output_0_split -> inception_4c/output_inception_4c/output_0_split_1
I0403 15:08:15.275373 31182 net.cpp:399] inception_4c/output_inception_4c/output_0_split -> inception_4c/output_inception_4c/output_0_split_2
I0403 15:08:15.275398 31182 net.cpp:399] inception_4c/output_inception_4c/output_0_split -> inception_4c/output_inception_4c/output_0_split_3
I0403 15:08:15.275482 31182 net.cpp:141] Setting up inception_4c/output_inception_4c/output_0_split
I0403 15:08:15.275517 31182 net.cpp:148] Top shape: 24 512 14 14 (2408448)
I0403 15:08:15.275548 31182 net.cpp:148] Top shape: 24 512 14 14 (2408448)
I0403 15:08:15.275564 31182 net.cpp:148] Top shape: 24 512 14 14 (2408448)
I0403 15:08:15.275583 31182 net.cpp:148] Top shape: 24 512 14 14 (2408448)
I0403 15:08:15.275609 31182 net.cpp:156] Memory required for data: 1111182624
I0403 15:08:15.275631 31182 layer_factory.hpp:77] Creating layer inception_4d/1x1
I0403 15:08:15.275657 31182 net.cpp:91] Creating Layer inception_4d/1x1
I0403 15:08:15.275674 31182 net.cpp:425] inception_4d/1x1 <- inception_4c/output_inception_4c/output_0_split_0
I0403 15:08:15.275696 31182 net.cpp:399] inception_4d/1x1 -> inception_4d/1x1
I0403 15:08:15.277040 31182 net.cpp:141] Setting up inception_4d/1x1
I0403 15:08:15.277068 31182 net.cpp:148] Top shape: 24 112 14 14 (526848)
I0403 15:08:15.277083 31182 net.cpp:156] Memory required for data: 1113290016
I0403 15:08:15.277102 31182 layer_factory.hpp:77] Creating layer inception_4d/relu_1x1
I0403 15:08:15.277120 31182 net.cpp:91] Creating Layer inception_4d/relu_1x1
I0403 15:08:15.277137 31182 net.cpp:425] inception_4d/relu_1x1 <- inception_4d/1x1
I0403 15:08:15.277156 31182 net.cpp:386] inception_4d/relu_1x1 -> inception_4d/1x1 (in-place)
I0403 15:08:15.277334 31182 net.cpp:141] Setting up inception_4d/relu_1x1
I0403 15:08:15.277359 31182 net.cpp:148] Top shape: 24 112 14 14 (526848)
I0403 15:08:15.277374 31182 net.cpp:156] Memory required for data: 1115397408
I0403 15:08:15.277389 31182 layer_factory.hpp:77] Creating layer inception_4d/3x3_reduce
I0403 15:08:15.277423 31182 net.cpp:91] Creating Layer inception_4d/3x3_reduce
I0403 15:08:15.277442 31182 net.cpp:425] inception_4d/3x3_reduce <- inception_4c/output_inception_4c/output_0_split_1
I0403 15:08:15.277463 31182 net.cpp:399] inception_4d/3x3_reduce -> inception_4d/3x3_reduce
I0403 15:08:15.278933 31182 net.cpp:141] Setting up inception_4d/3x3_reduce
I0403 15:08:15.278961 31182 net.cpp:148] Top shape: 24 144 14 14 (677376)
I0403 15:08:15.278977 31182 net.cpp:156] Memory required for data: 1118106912
I0403 15:08:15.278996 31182 layer_factory.hpp:77] Creating layer inception_4d/relu_3x3_reduce
I0403 15:08:15.279014 31182 net.cpp:91] Creating Layer inception_4d/relu_3x3_reduce
I0403 15:08:15.279031 31182 net.cpp:425] inception_4d/relu_3x3_reduce <- inception_4d/3x3_reduce
I0403 15:08:15.279047 31182 net.cpp:386] inception_4d/relu_3x3_reduce -> inception_4d/3x3_reduce (in-place)
I0403 15:08:15.279326 31182 net.cpp:141] Setting up inception_4d/relu_3x3_reduce
I0403 15:08:15.279355 31182 net.cpp:148] Top shape: 24 144 14 14 (677376)
I0403 15:08:15.279371 31182 net.cpp:156] Memory required for data: 1120816416
I0403 15:08:15.279386 31182 layer_factory.hpp:77] Creating layer inception_4d/3x3
I0403 15:08:15.279408 31182 net.cpp:91] Creating Layer inception_4d/3x3
I0403 15:08:15.279425 31182 net.cpp:425] inception_4d/3x3 <- inception_4d/3x3_reduce
I0403 15:08:15.279453 31182 net.cpp:399] inception_4d/3x3 -> inception_4d/3x3
I0403 15:08:15.283596 31182 net.cpp:141] Setting up inception_4d/3x3
I0403 15:08:15.283627 31182 net.cpp:148] Top shape: 24 288 14 14 (1354752)
I0403 15:08:15.283643 31182 net.cpp:156] Memory required for data: 1126235424
I0403 15:08:15.283663 31182 layer_factory.hpp:77] Creating layer inception_4d/relu_3x3
I0403 15:08:15.283680 31182 net.cpp:91] Creating Layer inception_4d/relu_3x3
I0403 15:08:15.283696 31182 net.cpp:425] inception_4d/relu_3x3 <- inception_4d/3x3
I0403 15:08:15.283718 31182 net.cpp:386] inception_4d/relu_3x3 -> inception_4d/3x3 (in-place)
I0403 15:08:15.283898 31182 net.cpp:141] Setting up inception_4d/relu_3x3
I0403 15:08:15.283923 31182 net.cpp:148] Top shape: 24 288 14 14 (1354752)
I0403 15:08:15.283937 31182 net.cpp:156] Memory required for data: 1131654432
I0403 15:08:15.283952 31182 layer_factory.hpp:77] Creating layer inception_4d/5x5_reduce
I0403 15:08:15.283974 31182 net.cpp:91] Creating Layer inception_4d/5x5_reduce
I0403 15:08:15.283993 31182 net.cpp:425] inception_4d/5x5_reduce <- inception_4c/output_inception_4c/output_0_split_2
I0403 15:08:15.284014 31182 net.cpp:399] inception_4d/5x5_reduce -> inception_4d/5x5_reduce
I0403 15:08:15.285128 31182 net.cpp:141] Setting up inception_4d/5x5_reduce
I0403 15:08:15.285156 31182 net.cpp:148] Top shape: 24 32 14 14 (150528)
I0403 15:08:15.285171 31182 net.cpp:156] Memory required for data: 1132256544
I0403 15:08:15.285189 31182 layer_factory.hpp:77] Creating layer inception_4d/relu_5x5_reduce
I0403 15:08:15.285210 31182 net.cpp:91] Creating Layer inception_4d/relu_5x5_reduce
I0403 15:08:15.285228 31182 net.cpp:425] inception_4d/relu_5x5_reduce <- inception_4d/5x5_reduce
I0403 15:08:15.285245 31182 net.cpp:386] inception_4d/relu_5x5_reduce -> inception_4d/5x5_reduce (in-place)
I0403 15:08:15.285430 31182 net.cpp:141] Setting up inception_4d/relu_5x5_reduce
I0403 15:08:15.285454 31182 net.cpp:148] Top shape: 24 32 14 14 (150528)
I0403 15:08:15.285470 31182 net.cpp:156] Memory required for data: 1132858656
I0403 15:08:15.285485 31182 layer_factory.hpp:77] Creating layer inception_4d/5x5
I0403 15:08:15.285506 31182 net.cpp:91] Creating Layer inception_4d/5x5
I0403 15:08:15.285523 31182 net.cpp:425] inception_4d/5x5 <- inception_4d/5x5_reduce
I0403 15:08:15.285549 31182 net.cpp:399] inception_4d/5x5 -> inception_4d/5x5
I0403 15:08:15.286983 31182 net.cpp:141] Setting up inception_4d/5x5
I0403 15:08:15.287009 31182 net.cpp:148] Top shape: 24 64 14 14 (301056)
I0403 15:08:15.287025 31182 net.cpp:156] Memory required for data: 1134062880
I0403 15:08:15.287045 31182 layer_factory.hpp:77] Creating layer inception_4d/relu_5x5
I0403 15:08:15.287080 31182 net.cpp:91] Creating Layer inception_4d/relu_5x5
I0403 15:08:15.287097 31182 net.cpp:425] inception_4d/relu_5x5 <- inception_4d/5x5
I0403 15:08:15.287116 31182 net.cpp:386] inception_4d/relu_5x5 -> inception_4d/5x5 (in-place)
I0403 15:08:15.287410 31182 net.cpp:141] Setting up inception_4d/relu_5x5
I0403 15:08:15.287436 31182 net.cpp:148] Top shape: 24 64 14 14 (301056)
I0403 15:08:15.287452 31182 net.cpp:156] Memory required for data: 1135267104
I0403 15:08:15.287467 31182 layer_factory.hpp:77] Creating layer inception_4d/pool
I0403 15:08:15.287487 31182 net.cpp:91] Creating Layer inception_4d/pool
I0403 15:08:15.287504 31182 net.cpp:425] inception_4d/pool <- inception_4c/output_inception_4c/output_0_split_3
I0403 15:08:15.287523 31182 net.cpp:399] inception_4d/pool -> inception_4d/pool
I0403 15:08:15.287592 31182 net.cpp:141] Setting up inception_4d/pool
I0403 15:08:15.287616 31182 net.cpp:148] Top shape: 24 512 14 14 (2408448)
I0403 15:08:15.287631 31182 net.cpp:156] Memory required for data: 1144900896
I0403 15:08:15.287647 31182 layer_factory.hpp:77] Creating layer inception_4d/pool_proj
I0403 15:08:15.287667 31182 net.cpp:91] Creating Layer inception_4d/pool_proj
I0403 15:08:15.287685 31182 net.cpp:425] inception_4d/pool_proj <- inception_4d/pool
I0403 15:08:15.287706 31182 net.cpp:399] inception_4d/pool_proj -> inception_4d/pool_proj
I0403 15:08:15.289440 31182 net.cpp:141] Setting up inception_4d/pool_proj
I0403 15:08:15.289469 31182 net.cpp:148] Top shape: 24 64 14 14 (301056)
I0403 15:08:15.289485 31182 net.cpp:156] Memory required for data: 1146105120
I0403 15:08:15.289504 31182 layer_factory.hpp:77] Creating layer inception_4d/relu_pool_proj
I0403 15:08:15.289522 31182 net.cpp:91] Creating Layer inception_4d/relu_pool_proj
I0403 15:08:15.289543 31182 net.cpp:425] inception_4d/relu_pool_proj <- inception_4d/pool_proj
I0403 15:08:15.289566 31182 net.cpp:386] inception_4d/relu_pool_proj -> inception_4d/pool_proj (in-place)
I0403 15:08:15.289747 31182 net.cpp:141] Setting up inception_4d/relu_pool_proj
I0403 15:08:15.289772 31182 net.cpp:148] Top shape: 24 64 14 14 (301056)
I0403 15:08:15.289786 31182 net.cpp:156] Memory required for data: 1147309344
I0403 15:08:15.289801 31182 layer_factory.hpp:77] Creating layer inception_4d/output
I0403 15:08:15.289820 31182 net.cpp:91] Creating Layer inception_4d/output
I0403 15:08:15.289836 31182 net.cpp:425] inception_4d/output <- inception_4d/1x1
I0403 15:08:15.289852 31182 net.cpp:425] inception_4d/output <- inception_4d/3x3
I0403 15:08:15.289870 31182 net.cpp:425] inception_4d/output <- inception_4d/5x5
I0403 15:08:15.289885 31182 net.cpp:425] inception_4d/output <- inception_4d/pool_proj
I0403 15:08:15.289903 31182 net.cpp:399] inception_4d/output -> inception_4d/output
I0403 15:08:15.289952 31182 net.cpp:141] Setting up inception_4d/output
I0403 15:08:15.289976 31182 net.cpp:148] Top shape: 24 528 14 14 (2483712)
I0403 15:08:15.289990 31182 net.cpp:156] Memory required for data: 1157244192
I0403 15:08:15.290005 31182 layer_factory.hpp:77] Creating layer inception_4d/output_inception_4d/output_0_split
I0403 15:08:15.290024 31182 net.cpp:91] Creating Layer inception_4d/output_inception_4d/output_0_split
I0403 15:08:15.290040 31182 net.cpp:425] inception_4d/output_inception_4d/output_0_split <- inception_4d/output
I0403 15:08:15.290058 31182 net.cpp:399] inception_4d/output_inception_4d/output_0_split -> inception_4d/output_inception_4d/output_0_split_0
I0403 15:08:15.290079 31182 net.cpp:399] inception_4d/output_inception_4d/output_0_split -> inception_4d/output_inception_4d/output_0_split_1
I0403 15:08:15.290099 31182 net.cpp:399] inception_4d/output_inception_4d/output_0_split -> inception_4d/output_inception_4d/output_0_split_2
I0403 15:08:15.290120 31182 net.cpp:399] inception_4d/output_inception_4d/output_0_split -> inception_4d/output_inception_4d/output_0_split_3
I0403 15:08:15.290139 31182 net.cpp:399] inception_4d/output_inception_4d/output_0_split -> inception_4d/output_inception_4d/output_0_split_4
I0403 15:08:15.290241 31182 net.cpp:141] Setting up inception_4d/output_inception_4d/output_0_split
I0403 15:08:15.290274 31182 net.cpp:148] Top shape: 24 528 14 14 (2483712)
I0403 15:08:15.290294 31182 net.cpp:148] Top shape: 24 528 14 14 (2483712)
I0403 15:08:15.290313 31182 net.cpp:148] Top shape: 24 528 14 14 (2483712)
I0403 15:08:15.290329 31182 net.cpp:148] Top shape: 24 528 14 14 (2483712)
I0403 15:08:15.290344 31182 net.cpp:148] Top shape: 24 528 14 14 (2483712)
I0403 15:08:15.290357 31182 net.cpp:156] Memory required for data: 1206918432
I0403 15:08:15.290372 31182 layer_factory.hpp:77] Creating layer loss2/ave_pool
I0403 15:08:15.290390 31182 net.cpp:91] Creating Layer loss2/ave_pool
I0403 15:08:15.290407 31182 net.cpp:425] loss2/ave_pool <- inception_4d/output_inception_4d/output_0_split_0
I0403 15:08:15.290428 31182 net.cpp:399] loss2/ave_pool -> loss2/ave_pool
I0403 15:08:15.290740 31182 net.cpp:141] Setting up loss2/ave_pool
I0403 15:08:15.290766 31182 net.cpp:148] Top shape: 24 528 4 4 (202752)
I0403 15:08:15.290781 31182 net.cpp:156] Memory required for data: 1207729440
I0403 15:08:15.290796 31182 layer_factory.hpp:77] Creating layer loss2/conv
I0403 15:08:15.290819 31182 net.cpp:91] Creating Layer loss2/conv
I0403 15:08:15.290837 31182 net.cpp:425] loss2/conv <- loss2/ave_pool
I0403 15:08:15.290858 31182 net.cpp:399] loss2/conv -> loss2/conv
I0403 15:08:15.292695 31182 net.cpp:141] Setting up loss2/conv
I0403 15:08:15.292723 31182 net.cpp:148] Top shape: 24 128 4 4 (49152)
I0403 15:08:15.292742 31182 net.cpp:156] Memory required for data: 1207926048
I0403 15:08:15.292760 31182 layer_factory.hpp:77] Creating layer loss2/relu_conv
I0403 15:08:15.292778 31182 net.cpp:91] Creating Layer loss2/relu_conv
I0403 15:08:15.292793 31182 net.cpp:425] loss2/relu_conv <- loss2/conv
I0403 15:08:15.292811 31182 net.cpp:386] loss2/relu_conv -> loss2/conv (in-place)
I0403 15:08:15.293088 31182 net.cpp:141] Setting up loss2/relu_conv
I0403 15:08:15.293117 31182 net.cpp:148] Top shape: 24 128 4 4 (49152)
I0403 15:08:15.293133 31182 net.cpp:156] Memory required for data: 1208122656
I0403 15:08:15.293148 31182 layer_factory.hpp:77] Creating layer loss2/fc
I0403 15:08:15.293165 31182 net.cpp:91] Creating Layer loss2/fc
I0403 15:08:15.293181 31182 net.cpp:425] loss2/fc <- loss2/conv
I0403 15:08:15.293202 31182 net.cpp:399] loss2/fc -> loss2/fc
I0403 15:08:15.310351 31182 net.cpp:141] Setting up loss2/fc
I0403 15:08:15.310385 31182 net.cpp:148] Top shape: 24 1024 (24576)
I0403 15:08:15.310401 31182 net.cpp:156] Memory required for data: 1208220960
I0403 15:08:15.310420 31182 layer_factory.hpp:77] Creating layer loss2/relu_fc
I0403 15:08:15.310441 31182 net.cpp:91] Creating Layer loss2/relu_fc
I0403 15:08:15.310466 31182 net.cpp:425] loss2/relu_fc <- loss2/fc
I0403 15:08:15.310483 31182 net.cpp:386] loss2/relu_fc -> loss2/fc (in-place)
I0403 15:08:15.310782 31182 net.cpp:141] Setting up loss2/relu_fc
I0403 15:08:15.310808 31182 net.cpp:148] Top shape: 24 1024 (24576)
I0403 15:08:15.310823 31182 net.cpp:156] Memory required for data: 1208319264
I0403 15:08:15.310838 31182 layer_factory.hpp:77] Creating layer loss2/drop_fc
I0403 15:08:15.310858 31182 net.cpp:91] Creating Layer loss2/drop_fc
I0403 15:08:15.310875 31182 net.cpp:425] loss2/drop_fc <- loss2/fc
I0403 15:08:15.310892 31182 net.cpp:386] loss2/drop_fc -> loss2/fc (in-place)
I0403 15:08:15.310940 31182 net.cpp:141] Setting up loss2/drop_fc
I0403 15:08:15.310964 31182 net.cpp:148] Top shape: 24 1024 (24576)
I0403 15:08:15.310979 31182 net.cpp:156] Memory required for data: 1208417568
I0403 15:08:15.310994 31182 layer_factory.hpp:77] Creating layer loss2/classifier_plantvillage
I0403 15:08:15.311012 31182 net.cpp:91] Creating Layer loss2/classifier_plantvillage
I0403 15:08:15.311028 31182 net.cpp:425] loss2/classifier_plantvillage <- loss2/fc
I0403 15:08:15.311051 31182 net.cpp:399] loss2/classifier_plantvillage -> loss2/classifier_plantvillage
I0403 15:08:15.311441 31182 net.cpp:141] Setting up loss2/classifier_plantvillage
I0403 15:08:15.311467 31182 net.cpp:148] Top shape: 24 38 (912)
I0403 15:08:15.311498 31182 net.cpp:156] Memory required for data: 1208421216
I0403 15:08:15.311518 31182 layer_factory.hpp:77] Creating layer loss2/classifier_plantvillage_loss2/classifier_plantvillage_0_split
I0403 15:08:15.311540 31182 net.cpp:91] Creating Layer loss2/classifier_plantvillage_loss2/classifier_plantvillage_0_split
I0403 15:08:15.311558 31182 net.cpp:425] loss2/classifier_plantvillage_loss2/classifier_plantvillage_0_split <- loss2/classifier_plantvillage
I0403 15:08:15.311578 31182 net.cpp:399] loss2/classifier_plantvillage_loss2/classifier_plantvillage_0_split -> loss2/classifier_plantvillage_loss2/classifier_plantvillage_0_split_0
I0403 15:08:15.311600 31182 net.cpp:399] loss2/classifier_plantvillage_loss2/classifier_plantvillage_0_split -> loss2/classifier_plantvillage_loss2/classifier_plantvillage_0_split_1
I0403 15:08:15.311621 31182 net.cpp:399] loss2/classifier_plantvillage_loss2/classifier_plantvillage_0_split -> loss2/classifier_plantvillage_loss2/classifier_plantvillage_0_split_2
I0403 15:08:15.311697 31182 net.cpp:141] Setting up loss2/classifier_plantvillage_loss2/classifier_plantvillage_0_split
I0403 15:08:15.311720 31182 net.cpp:148] Top shape: 24 38 (912)
I0403 15:08:15.311736 31182 net.cpp:148] Top shape: 24 38 (912)
I0403 15:08:15.311751 31182 net.cpp:148] Top shape: 24 38 (912)
I0403 15:08:15.311765 31182 net.cpp:156] Memory required for data: 1208432160
I0403 15:08:15.311780 31182 layer_factory.hpp:77] Creating layer inception_4e/1x1
I0403 15:08:15.311802 31182 net.cpp:91] Creating Layer inception_4e/1x1
I0403 15:08:15.311823 31182 net.cpp:425] inception_4e/1x1 <- inception_4d/output_inception_4d/output_0_split_1
I0403 15:08:15.311846 31182 net.cpp:399] inception_4e/1x1 -> inception_4e/1x1
I0403 15:08:15.313614 31182 net.cpp:141] Setting up inception_4e/1x1
I0403 15:08:15.313642 31182 net.cpp:148] Top shape: 24 256 14 14 (1204224)
I0403 15:08:15.313657 31182 net.cpp:156] Memory required for data: 1213249056
I0403 15:08:15.313683 31182 layer_factory.hpp:77] Creating layer inception_4e/relu_1x1
I0403 15:08:15.313701 31182 net.cpp:91] Creating Layer inception_4e/relu_1x1
I0403 15:08:15.313719 31182 net.cpp:425] inception_4e/relu_1x1 <- inception_4e/1x1
I0403 15:08:15.313736 31182 net.cpp:386] inception_4e/relu_1x1 -> inception_4e/1x1 (in-place)
I0403 15:08:15.314028 31182 net.cpp:141] Setting up inception_4e/relu_1x1
I0403 15:08:15.314054 31182 net.cpp:148] Top shape: 24 256 14 14 (1204224)
I0403 15:08:15.314069 31182 net.cpp:156] Memory required for data: 1218065952
I0403 15:08:15.314084 31182 layer_factory.hpp:77] Creating layer inception_4e/3x3_reduce
I0403 15:08:15.314107 31182 net.cpp:91] Creating Layer inception_4e/3x3_reduce
I0403 15:08:15.314126 31182 net.cpp:425] inception_4e/3x3_reduce <- inception_4d/output_inception_4d/output_0_split_2
I0403 15:08:15.314146 31182 net.cpp:399] inception_4e/3x3_reduce -> inception_4e/3x3_reduce
I0403 15:08:15.316220 31182 net.cpp:141] Setting up inception_4e/3x3_reduce
I0403 15:08:15.316248 31182 net.cpp:148] Top shape: 24 160 14 14 (752640)
I0403 15:08:15.316263 31182 net.cpp:156] Memory required for data: 1221076512
I0403 15:08:15.316282 31182 layer_factory.hpp:77] Creating layer inception_4e/relu_3x3_reduce
I0403 15:08:15.316303 31182 net.cpp:91] Creating Layer inception_4e/relu_3x3_reduce
I0403 15:08:15.316320 31182 net.cpp:425] inception_4e/relu_3x3_reduce <- inception_4e/3x3_reduce
I0403 15:08:15.316337 31182 net.cpp:386] inception_4e/relu_3x3_reduce -> inception_4e/3x3_reduce (in-place)
I0403 15:08:15.316519 31182 net.cpp:141] Setting up inception_4e/relu_3x3_reduce
I0403 15:08:15.316550 31182 net.cpp:148] Top shape: 24 160 14 14 (752640)
I0403 15:08:15.316567 31182 net.cpp:156] Memory required for data: 1224087072
I0403 15:08:15.316582 31182 layer_factory.hpp:77] Creating layer inception_4e/3x3
I0403 15:08:15.316604 31182 net.cpp:91] Creating Layer inception_4e/3x3
I0403 15:08:15.316623 31182 net.cpp:425] inception_4e/3x3 <- inception_4e/3x3_reduce
I0403 15:08:15.316642 31182 net.cpp:399] inception_4e/3x3 -> inception_4e/3x3
I0403 15:08:15.321557 31182 net.cpp:141] Setting up inception_4e/3x3
I0403 15:08:15.321601 31182 net.cpp:148] Top shape: 24 320 14 14 (1505280)
I0403 15:08:15.321619 31182 net.cpp:156] Memory required for data: 1230108192
I0403 15:08:15.321638 31182 layer_factory.hpp:77] Creating layer inception_4e/relu_3x3
I0403 15:08:15.321656 31182 net.cpp:91] Creating Layer inception_4e/relu_3x3
I0403 15:08:15.321672 31182 net.cpp:425] inception_4e/relu_3x3 <- inception_4e/3x3
I0403 15:08:15.321692 31182 net.cpp:386] inception_4e/relu_3x3 -> inception_4e/3x3 (in-place)
I0403 15:08:15.321985 31182 net.cpp:141] Setting up inception_4e/relu_3x3
I0403 15:08:15.322010 31182 net.cpp:148] Top shape: 24 320 14 14 (1505280)
I0403 15:08:15.322026 31182 net.cpp:156] Memory required for data: 1236129312
I0403 15:08:15.322041 31182 layer_factory.hpp:77] Creating layer inception_4e/5x5_reduce
I0403 15:08:15.322064 31182 net.cpp:91] Creating Layer inception_4e/5x5_reduce
I0403 15:08:15.322082 31182 net.cpp:425] inception_4e/5x5_reduce <- inception_4d/output_inception_4d/output_0_split_3
I0403 15:08:15.322103 31182 net.cpp:399] inception_4e/5x5_reduce -> inception_4e/5x5_reduce
I0403 15:08:15.323148 31182 net.cpp:141] Setting up inception_4e/5x5_reduce
I0403 15:08:15.323175 31182 net.cpp:148] Top shape: 24 32 14 14 (150528)
I0403 15:08:15.323191 31182 net.cpp:156] Memory required for data: 1236731424
I0403 15:08:15.323210 31182 layer_factory.hpp:77] Creating layer inception_4e/relu_5x5_reduce
I0403 15:08:15.323230 31182 net.cpp:91] Creating Layer inception_4e/relu_5x5_reduce
I0403 15:08:15.323247 31182 net.cpp:425] inception_4e/relu_5x5_reduce <- inception_4e/5x5_reduce
I0403 15:08:15.323264 31182 net.cpp:386] inception_4e/relu_5x5_reduce -> inception_4e/5x5_reduce (in-place)
I0403 15:08:15.323576 31182 net.cpp:141] Setting up inception_4e/relu_5x5_reduce
I0403 15:08:15.323601 31182 net.cpp:148] Top shape: 24 32 14 14 (150528)
I0403 15:08:15.323616 31182 net.cpp:156] Memory required for data: 1237333536
I0403 15:08:15.323632 31182 layer_factory.hpp:77] Creating layer inception_4e/5x5
I0403 15:08:15.323669 31182 net.cpp:91] Creating Layer inception_4e/5x5
I0403 15:08:15.323689 31182 net.cpp:425] inception_4e/5x5 <- inception_4e/5x5_reduce
I0403 15:08:15.323709 31182 net.cpp:399] inception_4e/5x5 -> inception_4e/5x5
I0403 15:08:15.325516 31182 net.cpp:141] Setting up inception_4e/5x5
I0403 15:08:15.325546 31182 net.cpp:148] Top shape: 24 128 14 14 (602112)
I0403 15:08:15.325563 31182 net.cpp:156] Memory required for data: 1239741984
I0403 15:08:15.325582 31182 layer_factory.hpp:77] Creating layer inception_4e/relu_5x5
I0403 15:08:15.325603 31182 net.cpp:91] Creating Layer inception_4e/relu_5x5
I0403 15:08:15.325619 31182 net.cpp:425] inception_4e/relu_5x5 <- inception_4e/5x5
I0403 15:08:15.325636 31182 net.cpp:386] inception_4e/relu_5x5 -> inception_4e/5x5 (in-place)
I0403 15:08:15.325829 31182 net.cpp:141] Setting up inception_4e/relu_5x5
I0403 15:08:15.325855 31182 net.cpp:148] Top shape: 24 128 14 14 (602112)
I0403 15:08:15.325871 31182 net.cpp:156] Memory required for data: 1242150432
I0403 15:08:15.325887 31182 layer_factory.hpp:77] Creating layer inception_4e/pool
I0403 15:08:15.325906 31182 net.cpp:91] Creating Layer inception_4e/pool
I0403 15:08:15.325922 31182 net.cpp:425] inception_4e/pool <- inception_4d/output_inception_4d/output_0_split_4
I0403 15:08:15.325939 31182 net.cpp:399] inception_4e/pool -> inception_4e/pool
I0403 15:08:15.326010 31182 net.cpp:141] Setting up inception_4e/pool
I0403 15:08:15.326035 31182 net.cpp:148] Top shape: 24 528 14 14 (2483712)
I0403 15:08:15.326050 31182 net.cpp:156] Memory required for data: 1252085280
I0403 15:08:15.326063 31182 layer_factory.hpp:77] Creating layer inception_4e/pool_proj
I0403 15:08:15.326086 31182 net.cpp:91] Creating Layer inception_4e/pool_proj
I0403 15:08:15.326102 31182 net.cpp:425] inception_4e/pool_proj <- inception_4e/pool
I0403 15:08:15.326123 31182 net.cpp:399] inception_4e/pool_proj -> inception_4e/pool_proj
I0403 15:08:15.327594 31182 net.cpp:141] Setting up inception_4e/pool_proj
I0403 15:08:15.327633 31182 net.cpp:148] Top shape: 24 128 14 14 (602112)
I0403 15:08:15.327651 31182 net.cpp:156] Memory required for data: 1254493728
I0403 15:08:15.327668 31182 layer_factory.hpp:77] Creating layer inception_4e/relu_pool_proj
I0403 15:08:15.327687 31182 net.cpp:91] Creating Layer inception_4e/relu_pool_proj
I0403 15:08:15.327702 31182 net.cpp:425] inception_4e/relu_pool_proj <- inception_4e/pool_proj
I0403 15:08:15.327723 31182 net.cpp:386] inception_4e/relu_pool_proj -> inception_4e/pool_proj (in-place)
I0403 15:08:15.328011 31182 net.cpp:141] Setting up inception_4e/relu_pool_proj
I0403 15:08:15.328037 31182 net.cpp:148] Top shape: 24 128 14 14 (602112)
I0403 15:08:15.328052 31182 net.cpp:156] Memory required for data: 1256902176
I0403 15:08:15.328066 31182 layer_factory.hpp:77] Creating layer inception_4e/output
I0403 15:08:15.328083 31182 net.cpp:91] Creating Layer inception_4e/output
I0403 15:08:15.328099 31182 net.cpp:425] inception_4e/output <- inception_4e/1x1
I0403 15:08:15.328117 31182 net.cpp:425] inception_4e/output <- inception_4e/3x3
I0403 15:08:15.328133 31182 net.cpp:425] inception_4e/output <- inception_4e/5x5
I0403 15:08:15.328150 31182 net.cpp:425] inception_4e/output <- inception_4e/pool_proj
I0403 15:08:15.328168 31182 net.cpp:399] inception_4e/output -> inception_4e/output
I0403 15:08:15.328218 31182 net.cpp:141] Setting up inception_4e/output
I0403 15:08:15.328244 31182 net.cpp:148] Top shape: 24 832 14 14 (3913728)
I0403 15:08:15.328259 31182 net.cpp:156] Memory required for data: 1272557088
I0403 15:08:15.328275 31182 layer_factory.hpp:77] Creating layer pool4/3x3_s2
I0403 15:08:15.328301 31182 net.cpp:91] Creating Layer pool4/3x3_s2
I0403 15:08:15.328317 31182 net.cpp:425] pool4/3x3_s2 <- inception_4e/output
I0403 15:08:15.328338 31182 net.cpp:399] pool4/3x3_s2 -> pool4/3x3_s2
I0403 15:08:15.328404 31182 net.cpp:141] Setting up pool4/3x3_s2
I0403 15:08:15.328428 31182 net.cpp:148] Top shape: 24 832 7 7 (978432)
I0403 15:08:15.328444 31182 net.cpp:156] Memory required for data: 1276470816
I0403 15:08:15.328459 31182 layer_factory.hpp:77] Creating layer pool4/3x3_s2_pool4/3x3_s2_0_split
I0403 15:08:15.328477 31182 net.cpp:91] Creating Layer pool4/3x3_s2_pool4/3x3_s2_0_split
I0403 15:08:15.328495 31182 net.cpp:425] pool4/3x3_s2_pool4/3x3_s2_0_split <- pool4/3x3_s2
I0403 15:08:15.328511 31182 net.cpp:399] pool4/3x3_s2_pool4/3x3_s2_0_split -> pool4/3x3_s2_pool4/3x3_s2_0_split_0
I0403 15:08:15.328531 31182 net.cpp:399] pool4/3x3_s2_pool4/3x3_s2_0_split -> pool4/3x3_s2_pool4/3x3_s2_0_split_1
I0403 15:08:15.328562 31182 net.cpp:399] pool4/3x3_s2_pool4/3x3_s2_0_split -> pool4/3x3_s2_pool4/3x3_s2_0_split_2
I0403 15:08:15.328583 31182 net.cpp:399] pool4/3x3_s2_pool4/3x3_s2_0_split -> pool4/3x3_s2_pool4/3x3_s2_0_split_3
I0403 15:08:15.328670 31182 net.cpp:141] Setting up pool4/3x3_s2_pool4/3x3_s2_0_split
I0403 15:08:15.328694 31182 net.cpp:148] Top shape: 24 832 7 7 (978432)
I0403 15:08:15.328711 31182 net.cpp:148] Top shape: 24 832 7 7 (978432)
I0403 15:08:15.328727 31182 net.cpp:148] Top shape: 24 832 7 7 (978432)
I0403 15:08:15.328742 31182 net.cpp:148] Top shape: 24 832 7 7 (978432)
I0403 15:08:15.328755 31182 net.cpp:156] Memory required for data: 1292125728
I0403 15:08:15.328770 31182 layer_factory.hpp:77] Creating layer inception_5a/1x1
I0403 15:08:15.328793 31182 net.cpp:91] Creating Layer inception_5a/1x1
I0403 15:08:15.328810 31182 net.cpp:425] inception_5a/1x1 <- pool4/3x3_s2_pool4/3x3_s2_0_split_0
I0403 15:08:15.328831 31182 net.cpp:399] inception_5a/1x1 -> inception_5a/1x1
I0403 15:08:15.331626 31182 net.cpp:141] Setting up inception_5a/1x1
I0403 15:08:15.331655 31182 net.cpp:148] Top shape: 24 256 7 7 (301056)
I0403 15:08:15.331671 31182 net.cpp:156] Memory required for data: 1293329952
I0403 15:08:15.331689 31182 layer_factory.hpp:77] Creating layer inception_5a/relu_1x1
I0403 15:08:15.331710 31182 net.cpp:91] Creating Layer inception_5a/relu_1x1
I0403 15:08:15.331732 31182 net.cpp:425] inception_5a/relu_1x1 <- inception_5a/1x1
I0403 15:08:15.331750 31182 net.cpp:386] inception_5a/relu_1x1 -> inception_5a/1x1 (in-place)
I0403 15:08:15.332079 31182 net.cpp:141] Setting up inception_5a/relu_1x1
I0403 15:08:15.332105 31182 net.cpp:148] Top shape: 24 256 7 7 (301056)
I0403 15:08:15.332120 31182 net.cpp:156] Memory required for data: 1294534176
I0403 15:08:15.332135 31182 layer_factory.hpp:77] Creating layer inception_5a/3x3_reduce
I0403 15:08:15.332159 31182 net.cpp:91] Creating Layer inception_5a/3x3_reduce
I0403 15:08:15.332177 31182 net.cpp:425] inception_5a/3x3_reduce <- pool4/3x3_s2_pool4/3x3_s2_0_split_1
I0403 15:08:15.332201 31182 net.cpp:399] inception_5a/3x3_reduce -> inception_5a/3x3_reduce
I0403 15:08:15.334652 31182 net.cpp:141] Setting up inception_5a/3x3_reduce
I0403 15:08:15.334681 31182 net.cpp:148] Top shape: 24 160 7 7 (188160)
I0403 15:08:15.334697 31182 net.cpp:156] Memory required for data: 1295286816
I0403 15:08:15.334715 31182 layer_factory.hpp:77] Creating layer inception_5a/relu_3x3_reduce
I0403 15:08:15.334733 31182 net.cpp:91] Creating Layer inception_5a/relu_3x3_reduce
I0403 15:08:15.334750 31182 net.cpp:425] inception_5a/relu_3x3_reduce <- inception_5a/3x3_reduce
I0403 15:08:15.334770 31182 net.cpp:386] inception_5a/relu_3x3_reduce -> inception_5a/3x3_reduce (in-place)
I0403 15:08:15.334954 31182 net.cpp:141] Setting up inception_5a/relu_3x3_reduce
I0403 15:08:15.334980 31182 net.cpp:148] Top shape: 24 160 7 7 (188160)
I0403 15:08:15.334995 31182 net.cpp:156] Memory required for data: 1296039456
I0403 15:08:15.335010 31182 layer_factory.hpp:77] Creating layer inception_5a/3x3
I0403 15:08:15.335031 31182 net.cpp:91] Creating Layer inception_5a/3x3
I0403 15:08:15.335048 31182 net.cpp:425] inception_5a/3x3 <- inception_5a/3x3_reduce
I0403 15:08:15.335070 31182 net.cpp:399] inception_5a/3x3 -> inception_5a/3x3
I0403 15:08:15.339995 31182 net.cpp:141] Setting up inception_5a/3x3
I0403 15:08:15.340024 31182 net.cpp:148] Top shape: 24 320 7 7 (376320)
I0403 15:08:15.340040 31182 net.cpp:156] Memory required for data: 1297544736
I0403 15:08:15.340059 31182 layer_factory.hpp:77] Creating layer inception_5a/relu_3x3
I0403 15:08:15.340080 31182 net.cpp:91] Creating Layer inception_5a/relu_3x3
I0403 15:08:15.340097 31182 net.cpp:425] inception_5a/relu_3x3 <- inception_5a/3x3
I0403 15:08:15.340114 31182 net.cpp:386] inception_5a/relu_3x3 -> inception_5a/3x3 (in-place)
I0403 15:08:15.340404 31182 net.cpp:141] Setting up inception_5a/relu_3x3
I0403 15:08:15.340430 31182 net.cpp:148] Top shape: 24 320 7 7 (376320)
I0403 15:08:15.340445 31182 net.cpp:156] Memory required for data: 1299050016
I0403 15:08:15.340461 31182 layer_factory.hpp:77] Creating layer inception_5a/5x5_reduce
I0403 15:08:15.340482 31182 net.cpp:91] Creating Layer inception_5a/5x5_reduce
I0403 15:08:15.340500 31182 net.cpp:425] inception_5a/5x5_reduce <- pool4/3x3_s2_pool4/3x3_s2_0_split_2
I0403 15:08:15.340523 31182 net.cpp:399] inception_5a/5x5_reduce -> inception_5a/5x5_reduce
I0403 15:08:15.341672 31182 net.cpp:141] Setting up inception_5a/5x5_reduce
I0403 15:08:15.341702 31182 net.cpp:148] Top shape: 24 32 7 7 (37632)
I0403 15:08:15.341719 31182 net.cpp:156] Memory required for data: 1299200544
I0403 15:08:15.341738 31182 layer_factory.hpp:77] Creating layer inception_5a/relu_5x5_reduce
I0403 15:08:15.341756 31182 net.cpp:91] Creating Layer inception_5a/relu_5x5_reduce
I0403 15:08:15.341773 31182 net.cpp:425] inception_5a/relu_5x5_reduce <- inception_5a/5x5_reduce
I0403 15:08:15.341789 31182 net.cpp:386] inception_5a/relu_5x5_reduce -> inception_5a/5x5_reduce (in-place)
I0403 15:08:15.342082 31182 net.cpp:141] Setting up inception_5a/relu_5x5_reduce
I0403 15:08:15.342110 31182 net.cpp:148] Top shape: 24 32 7 7 (37632)
I0403 15:08:15.342126 31182 net.cpp:156] Memory required for data: 1299351072
I0403 15:08:15.342141 31182 layer_factory.hpp:77] Creating layer inception_5a/5x5
I0403 15:08:15.342161 31182 net.cpp:91] Creating Layer inception_5a/5x5
I0403 15:08:15.342178 31182 net.cpp:425] inception_5a/5x5 <- inception_5a/5x5_reduce
I0403 15:08:15.342200 31182 net.cpp:399] inception_5a/5x5 -> inception_5a/5x5
I0403 15:08:15.343924 31182 net.cpp:141] Setting up inception_5a/5x5
I0403 15:08:15.343962 31182 net.cpp:148] Top shape: 24 128 7 7 (150528)
I0403 15:08:15.343979 31182 net.cpp:156] Memory required for data: 1299953184
I0403 15:08:15.343997 31182 layer_factory.hpp:77] Creating layer inception_5a/relu_5x5
I0403 15:08:15.344017 31182 net.cpp:91] Creating Layer inception_5a/relu_5x5
I0403 15:08:15.344035 31182 net.cpp:425] inception_5a/relu_5x5 <- inception_5a/5x5
I0403 15:08:15.344053 31182 net.cpp:386] inception_5a/relu_5x5 -> inception_5a/5x5 (in-place)
I0403 15:08:15.344239 31182 net.cpp:141] Setting up inception_5a/relu_5x5
I0403 15:08:15.344267 31182 net.cpp:148] Top shape: 24 128 7 7 (150528)
I0403 15:08:15.344282 31182 net.cpp:156] Memory required for data: 1300555296
I0403 15:08:15.344297 31182 layer_factory.hpp:77] Creating layer inception_5a/pool
I0403 15:08:15.344316 31182 net.cpp:91] Creating Layer inception_5a/pool
I0403 15:08:15.344331 31182 net.cpp:425] inception_5a/pool <- pool4/3x3_s2_pool4/3x3_s2_0_split_3
I0403 15:08:15.344349 31182 net.cpp:399] inception_5a/pool -> inception_5a/pool
I0403 15:08:15.344419 31182 net.cpp:141] Setting up inception_5a/pool
I0403 15:08:15.344442 31182 net.cpp:148] Top shape: 24 832 7 7 (978432)
I0403 15:08:15.344457 31182 net.cpp:156] Memory required for data: 1304469024
I0403 15:08:15.344472 31182 layer_factory.hpp:77] Creating layer inception_5a/pool_proj
I0403 15:08:15.344494 31182 net.cpp:91] Creating Layer inception_5a/pool_proj
I0403 15:08:15.344512 31182 net.cpp:425] inception_5a/pool_proj <- inception_5a/pool
I0403 15:08:15.344537 31182 net.cpp:399] inception_5a/pool_proj -> inception_5a/pool_proj
I0403 15:08:15.346776 31182 net.cpp:141] Setting up inception_5a/pool_proj
I0403 15:08:15.346806 31182 net.cpp:148] Top shape: 24 128 7 7 (150528)
I0403 15:08:15.346822 31182 net.cpp:156] Memory required for data: 1305071136
I0403 15:08:15.346840 31182 layer_factory.hpp:77] Creating layer inception_5a/relu_pool_proj
I0403 15:08:15.346860 31182 net.cpp:91] Creating Layer inception_5a/relu_pool_proj
I0403 15:08:15.346879 31182 net.cpp:425] inception_5a/relu_pool_proj <- inception_5a/pool_proj
I0403 15:08:15.346895 31182 net.cpp:386] inception_5a/relu_pool_proj -> inception_5a/pool_proj (in-place)
I0403 15:08:15.347187 31182 net.cpp:141] Setting up inception_5a/relu_pool_proj
I0403 15:08:15.347211 31182 net.cpp:148] Top shape: 24 128 7 7 (150528)
I0403 15:08:15.347226 31182 net.cpp:156] Memory required for data: 1305673248
I0403 15:08:15.347241 31182 layer_factory.hpp:77] Creating layer inception_5a/output
I0403 15:08:15.347259 31182 net.cpp:91] Creating Layer inception_5a/output
I0403 15:08:15.347275 31182 net.cpp:425] inception_5a/output <- inception_5a/1x1
I0403 15:08:15.347291 31182 net.cpp:425] inception_5a/output <- inception_5a/3x3
I0403 15:08:15.347307 31182 net.cpp:425] inception_5a/output <- inception_5a/5x5
I0403 15:08:15.347324 31182 net.cpp:425] inception_5a/output <- inception_5a/pool_proj
I0403 15:08:15.347344 31182 net.cpp:399] inception_5a/output -> inception_5a/output
I0403 15:08:15.347395 31182 net.cpp:141] Setting up inception_5a/output
I0403 15:08:15.347420 31182 net.cpp:148] Top shape: 24 832 7 7 (978432)
I0403 15:08:15.347435 31182 net.cpp:156] Memory required for data: 1309586976
I0403 15:08:15.347450 31182 layer_factory.hpp:77] Creating layer inception_5a/output_inception_5a/output_0_split
I0403 15:08:15.347468 31182 net.cpp:91] Creating Layer inception_5a/output_inception_5a/output_0_split
I0403 15:08:15.347484 31182 net.cpp:425] inception_5a/output_inception_5a/output_0_split <- inception_5a/output
I0403 15:08:15.347504 31182 net.cpp:399] inception_5a/output_inception_5a/output_0_split -> inception_5a/output_inception_5a/output_0_split_0
I0403 15:08:15.347527 31182 net.cpp:399] inception_5a/output_inception_5a/output_0_split -> inception_5a/output_inception_5a/output_0_split_1
I0403 15:08:15.347551 31182 net.cpp:399] inception_5a/output_inception_5a/output_0_split -> inception_5a/output_inception_5a/output_0_split_2
I0403 15:08:15.347573 31182 net.cpp:399] inception_5a/output_inception_5a/output_0_split -> inception_5a/output_inception_5a/output_0_split_3
I0403 15:08:15.347682 31182 net.cpp:141] Setting up inception_5a/output_inception_5a/output_0_split
I0403 15:08:15.347705 31182 net.cpp:148] Top shape: 24 832 7 7 (978432)
I0403 15:08:15.347724 31182 net.cpp:148] Top shape: 24 832 7 7 (978432)
I0403 15:08:15.347741 31182 net.cpp:148] Top shape: 24 832 7 7 (978432)
I0403 15:08:15.347756 31182 net.cpp:148] Top shape: 24 832 7 7 (978432)
I0403 15:08:15.347770 31182 net.cpp:156] Memory required for data: 1325241888
I0403 15:08:15.347785 31182 layer_factory.hpp:77] Creating layer inception_5b/1x1
I0403 15:08:15.347805 31182 net.cpp:91] Creating Layer inception_5b/1x1
I0403 15:08:15.347821 31182 net.cpp:425] inception_5b/1x1 <- inception_5a/output_inception_5a/output_0_split_0
I0403 15:08:15.347843 31182 net.cpp:399] inception_5b/1x1 -> inception_5b/1x1
I0403 15:08:15.351552 31182 net.cpp:141] Setting up inception_5b/1x1
I0403 15:08:15.351583 31182 net.cpp:148] Top shape: 24 384 7 7 (451584)
I0403 15:08:15.351598 31182 net.cpp:156] Memory required for data: 1327048224
I0403 15:08:15.351616 31182 layer_factory.hpp:77] Creating layer inception_5b/relu_1x1
I0403 15:08:15.351634 31182 net.cpp:91] Creating Layer inception_5b/relu_1x1
I0403 15:08:15.351650 31182 net.cpp:425] inception_5b/relu_1x1 <- inception_5b/1x1
I0403 15:08:15.351671 31182 net.cpp:386] inception_5b/relu_1x1 -> inception_5b/1x1 (in-place)
I0403 15:08:15.351976 31182 net.cpp:141] Setting up inception_5b/relu_1x1
I0403 15:08:15.352002 31182 net.cpp:148] Top shape: 24 384 7 7 (451584)
I0403 15:08:15.352017 31182 net.cpp:156] Memory required for data: 1328854560
I0403 15:08:15.352032 31182 layer_factory.hpp:77] Creating layer inception_5b/3x3_reduce
I0403 15:08:15.352054 31182 net.cpp:91] Creating Layer inception_5b/3x3_reduce
I0403 15:08:15.352072 31182 net.cpp:425] inception_5b/3x3_reduce <- inception_5a/output_inception_5a/output_0_split_1
I0403 15:08:15.352095 31182 net.cpp:399] inception_5b/3x3_reduce -> inception_5b/3x3_reduce
I0403 15:08:15.354707 31182 net.cpp:141] Setting up inception_5b/3x3_reduce
I0403 15:08:15.354737 31182 net.cpp:148] Top shape: 24 192 7 7 (225792)
I0403 15:08:15.354753 31182 net.cpp:156] Memory required for data: 1329757728
I0403 15:08:15.354773 31182 layer_factory.hpp:77] Creating layer inception_5b/relu_3x3_reduce
I0403 15:08:15.354792 31182 net.cpp:91] Creating Layer inception_5b/relu_3x3_reduce
I0403 15:08:15.354810 31182 net.cpp:425] inception_5b/relu_3x3_reduce <- inception_5b/3x3_reduce
I0403 15:08:15.354827 31182 net.cpp:386] inception_5b/relu_3x3_reduce -> inception_5b/3x3_reduce (in-place)
I0403 15:08:15.355031 31182 net.cpp:141] Setting up inception_5b/relu_3x3_reduce
I0403 15:08:15.355057 31182 net.cpp:148] Top shape: 24 192 7 7 (225792)
I0403 15:08:15.355072 31182 net.cpp:156] Memory required for data: 1330660896
I0403 15:08:15.355088 31182 layer_factory.hpp:77] Creating layer inception_5b/3x3
I0403 15:08:15.355110 31182 net.cpp:91] Creating Layer inception_5b/3x3
I0403 15:08:15.355129 31182 net.cpp:425] inception_5b/3x3 <- inception_5b/3x3_reduce
I0403 15:08:15.355162 31182 net.cpp:399] inception_5b/3x3 -> inception_5b/3x3
I0403 15:08:15.361706 31182 net.cpp:141] Setting up inception_5b/3x3
I0403 15:08:15.361733 31182 net.cpp:148] Top shape: 24 384 7 7 (451584)
I0403 15:08:15.361748 31182 net.cpp:156] Memory required for data: 1332467232
I0403 15:08:15.361768 31182 layer_factory.hpp:77] Creating layer inception_5b/relu_3x3
I0403 15:08:15.361788 31182 net.cpp:91] Creating Layer inception_5b/relu_3x3
I0403 15:08:15.361804 31182 net.cpp:425] inception_5b/relu_3x3 <- inception_5b/3x3
I0403 15:08:15.361822 31182 net.cpp:386] inception_5b/relu_3x3 -> inception_5b/3x3 (in-place)
I0403 15:08:15.362112 31182 net.cpp:141] Setting up inception_5b/relu_3x3
I0403 15:08:15.362138 31182 net.cpp:148] Top shape: 24 384 7 7 (451584)
I0403 15:08:15.362152 31182 net.cpp:156] Memory required for data: 1334273568
I0403 15:08:15.362169 31182 layer_factory.hpp:77] Creating layer inception_5b/5x5_reduce
I0403 15:08:15.362206 31182 net.cpp:91] Creating Layer inception_5b/5x5_reduce
I0403 15:08:15.362226 31182 net.cpp:425] inception_5b/5x5_reduce <- inception_5a/output_inception_5a/output_0_split_2
I0403 15:08:15.362249 31182 net.cpp:399] inception_5b/5x5_reduce -> inception_5b/5x5_reduce
I0403 15:08:15.363507 31182 net.cpp:141] Setting up inception_5b/5x5_reduce
I0403 15:08:15.363545 31182 net.cpp:148] Top shape: 24 48 7 7 (56448)
I0403 15:08:15.363564 31182 net.cpp:156] Memory required for data: 1334499360
I0403 15:08:15.363584 31182 layer_factory.hpp:77] Creating layer inception_5b/relu_5x5_reduce
I0403 15:08:15.363607 31182 net.cpp:91] Creating Layer inception_5b/relu_5x5_reduce
I0403 15:08:15.363625 31182 net.cpp:425] inception_5b/relu_5x5_reduce <- inception_5b/5x5_reduce
I0403 15:08:15.363646 31182 net.cpp:386] inception_5b/relu_5x5_reduce -> inception_5b/5x5_reduce (in-place)
I0403 15:08:15.364022 31182 net.cpp:141] Setting up inception_5b/relu_5x5_reduce
I0403 15:08:15.364048 31182 net.cpp:148] Top shape: 24 48 7 7 (56448)
I0403 15:08:15.364066 31182 net.cpp:156] Memory required for data: 1334725152
I0403 15:08:15.364089 31182 layer_factory.hpp:77] Creating layer inception_5b/5x5
I0403 15:08:15.364114 31182 net.cpp:91] Creating Layer inception_5b/5x5
I0403 15:08:15.364130 31182 net.cpp:425] inception_5b/5x5 <- inception_5b/5x5_reduce
I0403 15:08:15.364150 31182 net.cpp:399] inception_5b/5x5 -> inception_5b/5x5
I0403 15:08:15.366169 31182 net.cpp:141] Setting up inception_5b/5x5
I0403 15:08:15.366197 31182 net.cpp:148] Top shape: 24 128 7 7 (150528)
I0403 15:08:15.366212 31182 net.cpp:156] Memory required for data: 1335327264
I0403 15:08:15.366231 31182 layer_factory.hpp:77] Creating layer inception_5b/relu_5x5
I0403 15:08:15.366251 31182 net.cpp:91] Creating Layer inception_5b/relu_5x5
I0403 15:08:15.366271 31182 net.cpp:425] inception_5b/relu_5x5 <- inception_5b/5x5
I0403 15:08:15.366287 31182 net.cpp:386] inception_5b/relu_5x5 -> inception_5b/5x5 (in-place)
I0403 15:08:15.366480 31182 net.cpp:141] Setting up inception_5b/relu_5x5
I0403 15:08:15.366506 31182 net.cpp:148] Top shape: 24 128 7 7 (150528)
I0403 15:08:15.366523 31182 net.cpp:156] Memory required for data: 1335929376
I0403 15:08:15.366541 31182 layer_factory.hpp:77] Creating layer inception_5b/pool
I0403 15:08:15.366561 31182 net.cpp:91] Creating Layer inception_5b/pool
I0403 15:08:15.366580 31182 net.cpp:425] inception_5b/pool <- inception_5a/output_inception_5a/output_0_split_3
I0403 15:08:15.366600 31182 net.cpp:399] inception_5b/pool -> inception_5b/pool
I0403 15:08:15.366672 31182 net.cpp:141] Setting up inception_5b/pool
I0403 15:08:15.366695 31182 net.cpp:148] Top shape: 24 832 7 7 (978432)
I0403 15:08:15.366710 31182 net.cpp:156] Memory required for data: 1339843104
I0403 15:08:15.366725 31182 layer_factory.hpp:77] Creating layer inception_5b/pool_proj
I0403 15:08:15.366747 31182 net.cpp:91] Creating Layer inception_5b/pool_proj
I0403 15:08:15.366765 31182 net.cpp:425] inception_5b/pool_proj <- inception_5b/pool
I0403 15:08:15.366786 31182 net.cpp:399] inception_5b/pool_proj -> inception_5b/pool_proj
I0403 15:08:15.369091 31182 net.cpp:141] Setting up inception_5b/pool_proj
I0403 15:08:15.369120 31182 net.cpp:148] Top shape: 24 128 7 7 (150528)
I0403 15:08:15.369137 31182 net.cpp:156] Memory required for data: 1340445216
I0403 15:08:15.369155 31182 layer_factory.hpp:77] Creating layer inception_5b/relu_pool_proj
I0403 15:08:15.369175 31182 net.cpp:91] Creating Layer inception_5b/relu_pool_proj
I0403 15:08:15.369194 31182 net.cpp:425] inception_5b/relu_pool_proj <- inception_5b/pool_proj
I0403 15:08:15.369210 31182 net.cpp:386] inception_5b/relu_pool_proj -> inception_5b/pool_proj (in-place)
I0403 15:08:15.369510 31182 net.cpp:141] Setting up inception_5b/relu_pool_proj
I0403 15:08:15.369540 31182 net.cpp:148] Top shape: 24 128 7 7 (150528)
I0403 15:08:15.369556 31182 net.cpp:156] Memory required for data: 1341047328
I0403 15:08:15.369575 31182 layer_factory.hpp:77] Creating layer inception_5b/output
I0403 15:08:15.369592 31182 net.cpp:91] Creating Layer inception_5b/output
I0403 15:08:15.369622 31182 net.cpp:425] inception_5b/output <- inception_5b/1x1
I0403 15:08:15.369647 31182 net.cpp:425] inception_5b/output <- inception_5b/3x3
I0403 15:08:15.369663 31182 net.cpp:425] inception_5b/output <- inception_5b/5x5
I0403 15:08:15.369679 31182 net.cpp:425] inception_5b/output <- inception_5b/pool_proj
I0403 15:08:15.369699 31182 net.cpp:399] inception_5b/output -> inception_5b/output
I0403 15:08:15.369753 31182 net.cpp:141] Setting up inception_5b/output
I0403 15:08:15.369777 31182 net.cpp:148] Top shape: 24 1024 7 7 (1204224)
I0403 15:08:15.369792 31182 net.cpp:156] Memory required for data: 1345864224
I0403 15:08:15.369807 31182 layer_factory.hpp:77] Creating layer pool5/7x7_s1
I0403 15:08:15.369824 31182 net.cpp:91] Creating Layer pool5/7x7_s1
I0403 15:08:15.369840 31182 net.cpp:425] pool5/7x7_s1 <- inception_5b/output
I0403 15:08:15.369860 31182 net.cpp:399] pool5/7x7_s1 -> pool5/7x7_s1
I0403 15:08:15.370075 31182 net.cpp:141] Setting up pool5/7x7_s1
I0403 15:08:15.370100 31182 net.cpp:148] Top shape: 24 1024 1 1 (24576)
I0403 15:08:15.370115 31182 net.cpp:156] Memory required for data: 1345962528
I0403 15:08:15.370129 31182 layer_factory.hpp:77] Creating layer pool5/drop_7x7_s1
I0403 15:08:15.370151 31182 net.cpp:91] Creating Layer pool5/drop_7x7_s1
I0403 15:08:15.370167 31182 net.cpp:425] pool5/drop_7x7_s1 <- pool5/7x7_s1
I0403 15:08:15.370185 31182 net.cpp:386] pool5/drop_7x7_s1 -> pool5/7x7_s1 (in-place)
I0403 15:08:15.370236 31182 net.cpp:141] Setting up pool5/drop_7x7_s1
I0403 15:08:15.370260 31182 net.cpp:148] Top shape: 24 1024 1 1 (24576)
I0403 15:08:15.370275 31182 net.cpp:156] Memory required for data: 1346060832
I0403 15:08:15.370290 31182 layer_factory.hpp:77] Creating layer loss3/classifier_plantvillage
I0403 15:08:15.370308 31182 net.cpp:91] Creating Layer loss3/classifier_plantvillage
I0403 15:08:15.370324 31182 net.cpp:425] loss3/classifier_plantvillage <- pool5/7x7_s1
I0403 15:08:15.370345 31182 net.cpp:399] loss3/classifier_plantvillage -> loss3/classifier_plantvillage
I0403 15:08:15.370769 31182 net.cpp:141] Setting up loss3/classifier_plantvillage
I0403 15:08:15.370793 31182 net.cpp:148] Top shape: 24 38 (912)
I0403 15:08:15.370810 31182 net.cpp:156] Memory required for data: 1346064480
I0403 15:08:15.370827 31182 layer_factory.hpp:77] Creating layer loss3/classifier_plantvillage_loss3/classifier_plantvillage_0_split
I0403 15:08:15.370849 31182 net.cpp:91] Creating Layer loss3/classifier_plantvillage_loss3/classifier_plantvillage_0_split
I0403 15:08:15.370867 31182 net.cpp:425] loss3/classifier_plantvillage_loss3/classifier_plantvillage_0_split <- loss3/classifier_plantvillage
I0403 15:08:15.370887 31182 net.cpp:399] loss3/classifier_plantvillage_loss3/classifier_plantvillage_0_split -> loss3/classifier_plantvillage_loss3/classifier_plantvillage_0_split_0
I0403 15:08:15.370908 31182 net.cpp:399] loss3/classifier_plantvillage_loss3/classifier_plantvillage_0_split -> loss3/classifier_plantvillage_loss3/classifier_plantvillage_0_split_1
I0403 15:08:15.370928 31182 net.cpp:399] loss3/classifier_plantvillage_loss3/classifier_plantvillage_0_split -> loss3/classifier_plantvillage_loss3/classifier_plantvillage_0_split_2
I0403 15:08:15.370947 31182 net.cpp:399] loss3/classifier_plantvillage_loss3/classifier_plantvillage_0_split -> loss3/classifier_plantvillage_loss3/classifier_plantvillage_0_split_3
I0403 15:08:15.371047 31182 net.cpp:141] Setting up loss3/classifier_plantvillage_loss3/classifier_plantvillage_0_split
I0403 15:08:15.371070 31182 net.cpp:148] Top shape: 24 38 (912)
I0403 15:08:15.371086 31182 net.cpp:148] Top shape: 24 38 (912)
I0403 15:08:15.371103 31182 net.cpp:148] Top shape: 24 38 (912)
I0403 15:08:15.371117 31182 net.cpp:148] Top shape: 24 38 (912)
I0403 15:08:15.371131 31182 net.cpp:156] Memory required for data: 1346079072
I0403 15:08:15.371163 31182 layer_factory.hpp:77] Creating layer loss1/loss
I0403 15:08:15.371187 31182 net.cpp:91] Creating Layer loss1/loss
I0403 15:08:15.371206 31182 net.cpp:425] loss1/loss <- loss1/classifier_plantvillage_loss1/classifier_plantvillage_0_split_0
I0403 15:08:15.371235 31182 net.cpp:425] loss1/loss <- label_data_1_split_0
…
