…
I0403 15:07:32.090947 31163 net.cpp:313] The NetState phase (1) differed from the phase (0) specified by a rule in layer data
I0403 15:07:32.092118 31163 net.cpp:49] Initializing net from parameters: 
state {
  phase: TEST
}
layer {
  name: "data"
  type: "Data"
  top: "data"
  top: "label"
  include {
    phase: TEST
  }
  transform_param {
    mirror: false
    crop_size: 224
    mean_file: "/home/mohanty/data/final_dataset/lmdb/grayscale-80-20/mean.binaryproto"
  }
  data_param {
    source: "/home/mohanty/data/final_dataset/lmdb/grayscale-80-20/test_db"
    batch_size: 24
    backend: LMDB
  }
}
layer {
  name: "conv1/7x7_s2"
  type: "Convolution"
  bottom: "data"
  top: "conv1/7x7_s2"
  param {
    lr_mult: 1
    decay_mult: 1
  }
  param {
    lr_mult: 2
    decay_mult: 0
  }
  convolution_param {
    num_output: 64
    pad: 3
    kernel_size: 7
    stride: 2
    weight_filler {
      type: "xavier"
      std: 0.1
    }
    bias_filler {
      type: "constant"
      value: 0.2
    }
  }
}
layer {
  name: "conv1/relu_7x7"
  type: "ReLU"
  bottom: "conv1/7x7_s2"
  top: "conv1/7x7_s2"
}
layer {
  name: "pool1/3x3_s2"
  type: "Pooling"
  bottom: "conv1/7x7_s2"
  top: "pool1/3x3_s2"
  pooling_param {
    pool: MAX
    kernel_size: 3
    stride: 2
  }
}
layer {
  name: "pool1/norm1"
  type: "LRN"
  bottom: "pool1/3x3_s2"
  top: "pool1/norm1"
  lrn_param {
    local_size: 5
    alpha: 0.0001
    beta: 0.75
  }
}
layer {
  name: "conv2/3x3_reduce"
  type: "Convolution"
  bottom: "pool1/norm1"
  top: "conv2/3x3_reduce"
  param {
    lr_mult: 1
    decay_mult: 1
  }
  param {
    lr_mult: 2
    decay_mult: 0
  }
  convolution_param {
    num_output: 64
    kernel_size: 1
    weight_filler {
      type: "xavier"
      std: 0.1
    }
    bias_filler {
      type: "constant"
      value: 0.2
    }
  }
}
layer {
  name: "conv2/relu_3x3_reduce"
  type: "ReLU"
  bottom: "conv2/3x3_reduce"
  top: "conv2/3x3_reduce"
}
layer {
  name: "conv2/3x3"
  type: "Convolution"
  bottom: "conv2/3x3_reduce"
  top: "conv2/3x3"
  param {
    lr_mult: 1
    decay_mult: 1
  }
  param {
    lr_mult: 2
    decay_mult: 0
  }
  convolution_param {
    num_output: 192
    pad: 1
    kernel_size: 3
    weight_filler {
      type: "xavier"
      std: 0.03
    }
    bias_filler {
      type: "constant"
      value: 0.2
    }
  }
}
layer {
  name: "conv2/relu_3x3"
  type: "ReLU"
  bottom: "conv2/3x3"
  top: "conv2/3x3"
}
layer {
  name: "conv2/norm2"
  type: "LRN"
  bottom: "conv2/3x3"
  top: "conv2/norm2"
  lrn_param {
    local_size: 5
    alpha: 0.0001
    beta: 0.75
  }
}
layer {
  name: "pool2/3x3_s2"
  type: "Pooling"
  bottom: "conv2/norm2"
  top: "pool2/3x3_s2"
  pooling_param {
    pool: MAX
    kernel_size: 3
    stride: 2
  }
}
layer {
  name: "inception_3a/1x1"
  type: "Convolution"
  bottom: "pool2/3x3_s2"
  top: "inception_3a/1x1"
  param {
    lr_mult: 1
    decay_mult: 1
  }
  param {
    lr_mult: 2
    decay_mult: 0
  }
  convolution_param {
    num_output: 64
    kernel_size: 1
    weight_filler {
      type: "xavier"
      std: 0.03
    }
    bias_filler {
      type: "constant"
      value: 0.2
    }
  }
}
layer {
  name: "inception_3a/relu_1x1"
  type: "ReLU"
  bottom: "inception_3a/1x1"
  top: "inception_3a/1x1"
}
layer {
  name: "inception_3a/3x3_reduce"
  type: "Convolution"
  bottom: "pool2/3x3_s2"
  top: "inception_3a/3x3_reduce"
  param {
    lr_mult: 1
    decay_mult: 1
  }
  param {
    lr_mult: 2
    decay_mult: 0
  }
  convolution_param {
    num_output: 96
    kernel_size: 1
    weight_filler {
      type: "xavier"
      std: 0.09
    }
    bias_filler {
      type: "constant"
      value: 0.2
    }
  }
}
layer {
  name: "inception_3a/relu_3x3_reduce"
  type: "ReLU"
  bottom: "inception_3a/3x3_reduce"
  top: "inception_3a/3x3_reduce"
}
layer {
  name: "inception_3a/3x3"
  type: "Convolution"
  bottom: "inception_3a/3x3_reduce"
  top: "inception_3a/3x3"
  param {
    lr_mult: 1
    decay_mult: 1
  }
  param {
    lr_mult: 2
    decay_mult: 0
  }
  convolution_param {
    num_output: 128
    pad: 1
    kernel_size: 3
    weight_filler {
      type: "xavier"
      std: 0.03
    }
    bias_filler {
      type: "constant"
      value: 0.2
    }
  }
}
layer {
  name: "inception_3a/relu_3x3"
  type: "ReLU"
  bottom: "inception_3a/3x3"
  top: "inception_3a/3x3"
}
layer {
  name: "inception_3a/5x5_reduce"
  type: "Convolution"
  bottom: "pool2/3x3_s2"
  top: "inception_3a/5x5_reduce"
  param {
    lr_mult: 1
    decay_mult: 1
  }
  param {
    lr_mult: 2
    decay_mult: 0
  }
  convolution_param {
    num_output: 16
    kernel_size: 1
    weight_filler {
      type: "xavier"
      std: 0.2
    }
    bias_filler {
      type: "constant"
      value: 0.2
    }
  }
}
layer {
  name: "inception_3a/relu_5x5_reduce"
  type: "ReLU"
  bottom: "inception_3a/5x5_reduce"
  top: "inception_3a/5x5_reduce"
}
layer {
  name: "inception_3a/5x5"
  type: "Convolution"
  bottom: "inception_3a/5x5_reduce"
  top: "inception_3a/5x5"
  param {
    lr_mult: 1
    decay_mult: 1
  }
  param {
    lr_mult: 2
    decay_mult: 0
  }
  convolution_param {
    num_output: 32
    pad: 2
    kernel_size: 5
    weight_filler {
      type: "xavier"
      std: 0.03
    }
    bias_filler {
      type: "constant"
      value: 0.2
    }
  }
}
layer {
  name: "inception_3a/relu_5x5"
  type: "ReLU"
  bottom: "inception_3a/5x5"
  top: "inception_3a/5x5"
}
layer {
  name: "inception_3a/pool"
  type: "Pooling"
  bottom: "pool2/3x3_s2"
  top: "inception_3a/pool"
  pooling_param {
    pool: MAX
    kernel_size: 3
    stride: 1
    pad: 1
  }
}
layer {
  name: "inception_3a/pool_proj"
  type: "Convolution"
  bottom: "inception_3a/pool"
  top: "inception_3a/pool_proj"
  param {
    lr_mult: 1
    decay_mult: 1
  }
  param {
    lr_mult: 2
    decay_mult: 0
  }
  convolution_param {
    num_output: 32
    kernel_size: 1
    weight_filler {
      type: "xavier"
      std: 0.1
    }
    bias_filler {
      type: "constant"
      value: 0.2
    }
  }
}
layer {
  name: "inception_3a/relu_pool_proj"
  type: "ReLU"
  bottom: "inception_3a/pool_proj"
  top: "inception_3a/pool_proj"
}
layer {
  name: "inception_3a/output"
  type: "Concat"
  bottom: "inception_3a/1x1"
  bottom: "inception_3a/3x3"
  bottom: "inception_3a/5x5"
  bottom: "inception_3a/pool_proj"
  top: "inception_3a/output"
}
layer {
  name: "inception_3b/1x1"
  type: "Convolution"
  bottom: "inception_3a/output"
  top: "inception_3b/1x1"
  param {
    lr_mult: 1
    decay_mult: 1
  }
  param {
    lr_mult: 2
    decay_mult: 0
  }
  convolution_param {
    num_output: 128
    kernel_size: 1
    weight_filler {
      type: "xavier"
      std: 0.03
    }
    bias_filler {
      type: "constant"
      value: 0.2
    }
  }
}
layer {
  name: "inception_3b/relu_1x1"
  type: "ReLU"
  bottom: "inception_3b/1x1"
  top: "inception_3b/1x1"
}
layer {
  name: "inception_3b/3x3_reduce"
  type: "Convolution"
  bottom: "inception_3a/output"
  top: "inception_3b/3x3_reduce"
  param {
    lr_mult: 1
    decay_mult: 1
  }
  param {
    lr_mult: 2
    decay_mult: 0
  }
  convolution_param {
    num_output: 128
    kernel_size: 1
    weight_filler {
      type: "xavier"
      std: 0.09
    }
    bias_filler {
      type: "constant"
      value: 0.2
    }
  }
}
layer {
  name: "inception_3b/relu_3x3_reduce"
  type: "ReLU"
  bottom: "inception_3b/3x3_reduce"
  top: "inception_3b/3x3_reduce"
}
layer {
  name: "inception_3b/3x3"
  type: "Convolution"
  bottom: "inception_3b/3x3_reduce"
  top: "inception_3b/3x3"
  param {
    lr_mult: 1
    decay_mult: 1
  }
  param {
    lr_mult: 2
    decay_mult: 0
  }
  convolution_param {
    num_output: 192
    pad: 1
    kernel_size: 3
    weight_filler {
      type: "xavier"
      std: 0.03
    }
    bias_filler {
      type: "constant"
      value: 0.2
    }
  }
}
layer {
  name: "inception_3b/relu_3x3"
  type: "ReLU"
  bottom: "inception_3b/3x3"
  top: "inception_3b/3x3"
}
layer {
  name: "inception_3b/5x5_reduce"
  type: "Convolution"
  bottom: "inception_3a/output"
  top: "inception_3b/5x5_reduce"
  param {
    lr_mult: 1
    decay_mult: 1
  }
  param {
    lr_mult: 2
    decay_mult: 0
  }
  convolution_param {
    num_output: 32
    kernel_size: 1
    weight_filler {
      type: "xavier"
      std: 0.2
    }
    bias_filler {
      type: "constant"
      value: 0.2
    }
  }
}
layer {
  name: "inception_3b/relu_5x5_reduce"
  type: "ReLU"
  bottom: "inception_3b/5x5_reduce"
  top: "inception_3b/5x5_reduce"
}
layer {
  name: "inception_3b/5x5"
  type: "Convolution"
  bottom: "inception_3b/5x5_reduce"
  top: "inception_3b/5x5"
  param {
    lr_mult: 1
    decay_mult: 1
  }
  param {
    lr_mult: 2
    decay_mult: 0
  }
  convolution_param {
    num_output: 96
    pad: 2
    kernel_size: 5
    weight_filler {
      type: "xavier"
      std: 0.03
    }
    bias_filler {
      type: "constant"
      value: 0.2
    }
  }
}
layer {
  name: "inception_3b/relu_5x5"
  type: "ReLU"
  bottom: "inception_3b/5x5"
  top: "inception_3b/5x5"
}
layer {
  name: "inception_3b/pool"
  type: "Pooling"
  bottom: "inception_3a/output"
  top: "inception_3b/pool"
  pooling_param {
    pool: MAX
    kernel_size: 3
    stride: 1
    pad: 1
  }
}
layer {
  name: "inception_3b/pool_proj"
  type: "Convolution"
  bottom: "inception_3b/pool"
  top: "inception_3b/pool_proj"
  param {
    lr_mult: 1
    decay_mult: 1
  }
  param {
    lr_mult: 2
    decay_mult: 0
  }
  convolution_param {
    num_output: 64
    kernel_size: 1
    weight_filler {
      type: "xavier"
      std: 0.1
    }
    bias_filler {
      type: "constant"
      value: 0.2
    }
  }
}
layer {
  name: "inception_3b/relu_pool_proj"
  type: "ReLU"
  bottom: "inception_3b/pool_proj"
  top: "inception_3b/pool_proj"
}
layer {
  name: "inception_3b/output"
  type: "Concat"
  bottom: "inception_3b/1x1"
  bottom: "inception_3b/3x3"
  bottom: "inception_3b/5x5"
  bottom: "inception_3b/pool_proj"
  top: "inception_3b/output"
}
layer {
  name: "pool3/3x3_s2"
  type: "Pooling"
  bottom: "inception_3b/output"
  top: "pool3/3x3_s2"
  pooling_param {
    pool: MAX
    kernel_size: 3
    stride: 2
  }
}
layer {
  name: "inception_4a/1x1"
  type: "Convolution"
  bottom: "pool3/3x3_s2"
  top: "inception_4a/1x1"
  param {
    lr_mult: 1
    decay_mult: 1
  }
  param {
    lr_mult: 2
    decay_mult: 0
  }
  convolution_param {
    num_output: 192
    kernel_size: 1
    weight_filler {
      type: "xavier"
      std: 0.03
    }
    bias_filler {
      type: "constant"
      value: 0.2
    }
  }
}
layer {
  name: "inception_4a/relu_1x1"
  type: "ReLU"
  bottom: "inception_4a/1x1"
  top: "inception_4a/1x1"
}
layer {
  name: "inception_4a/3x3_reduce"
  type: "Convolution"
  bottom: "pool3/3x3_s2"
  top: "inception_4a/3x3_reduce"
  param {
    lr_mult: 1
    decay_mult: 1
  }
  param {
    lr_mult: 2
    decay_mult: 0
  }
  convolution_param {
    num_output: 96
    kernel_size: 1
    weight_filler {
      type: "xavier"
      std: 0.09
    }
    bias_filler {
      type: "constant"
      value: 0.2
    }
  }
}
layer {
  name: "inception_4a/relu_3x3_reduce"
  type: "ReLU"
  bottom: "inception_4a/3x3_reduce"
  top: "inception_4a/3x3_reduce"
}
layer {
  name: "inception_4a/3x3"
  type: "Convolution"
  bottom: "inception_4a/3x3_reduce"
  top: "inception_4a/3x3"
  param {
    lr_mult: 1
    decay_mult: 1
  }
  param {
    lr_mult: 2
    decay_mult: 0
  }
  convolution_param {
    num_output: 208
    pad: 1
    kernel_size: 3
    weight_filler {
      type: "xavier"
      std: 0.03
    }
    bias_filler {
      type: "constant"
      value: 0.2
    }
  }
}
layer {
  name: "inception_4a/relu_3x3"
  type: "ReLU"
  bottom: "inception_4a/3x3"
  top: "inception_4a/3x3"
}
layer {
  name: "inception_4a/5x5_reduce"
  type: "Convolution"
  bottom: "pool3/3x3_s2"
  top: "inception_4a/5x5_reduce"
  param {
    lr_mult: 1
    decay_mult: 1
  }
  param {
    lr_mult: 2
    decay_mult: 0
  }
  convolution_param {
    num_output: 16
    kernel_size: 1
    weight_filler {
      type: "xavier"
      std: 0.2
    }
    bias_filler {
      type: "constant"
      value: 0.2
    }
  }
}
layer {
  name: "inception_4a/relu_5x5_reduce"
  type: "ReLU"
  bottom: "inception_4a/5x5_reduce"
  top: "inception_4a/5x5_reduce"
}
layer {
  name: "inception_4a/5x5"
  type: "Convolution"
  bottom: "inception_4a/5x5_reduce"
  top: "inception_4a/5x5"
  param {
    lr_mult: 1
    decay_mult: 1
  }
  param {
    lr_mult: 2
    decay_mult: 0
  }
  convolution_param {
    num_output: 48
    pad: 2
    kernel_size: 5
    weight_filler {
      type: "xavier"
      std: 0.03
    }
    bias_filler {
      type: "constant"
      value: 0.2
    }
  }
}
layer {
  name: "inception_4a/relu_5x5"
  type: "ReLU"
  bottom: "inception_4a/5x5"
  top: "inception_4a/5x5"
}
layer {
  name: "inception_4a/pool"
  type: "Pooling"
  bottom: "pool3/3x3_s2"
  top: "inception_4a/pool"
  pooling_param {
    pool: MAX
    kernel_size: 3
    stride: 1
    pad: 1
  }
}
layer {
  name: "inception_4a/pool_proj"
  type: "Convolution"
  bottom: "inception_4a/pool"
  top: "inception_4a/pool_proj"
  param {
    lr_mult: 1
    decay_mult: 1
  }
  param {
    lr_mult: 2
    decay_mult: 0
  }
  convolution_param {
    num_output: 64
    kernel_size: 1
    weight_filler {
      type: "xavier"
      std: 0.1
    }
    bias_filler {
      type: "constant"
      value: 0.2
    }
  }
}
layer {
  name: "inception_4a/relu_pool_proj"
  type: "ReLU"
  bottom: "inception_4a/pool_proj"
  top: "inception_4a/pool_proj"
}
layer {
  name: "inception_4a/output"
  type: "Concat"
  bottom: "inception_4a/1x1"
  bottom: "inception_4a/3x3"
  bottom: "inception_4a/5x5"
  bottom: "inception_4a/pool_proj"
  top: "inception_4a/output"
}
layer {
  name: "loss1/ave_pool"
  type: "Pooling"
  bottom: "inception_4a/output"
  top: "loss1/ave_pool"
  pooling_param {
    pool: AVE
    kernel_size: 5
    stride: 3
  }
}
layer {
  name: "loss1/conv"
  type: "Convolution"
  bottom: "loss1/ave_pool"
  top: "loss1/conv"
  param {
    lr_mult: 1
    decay_mult: 1
  }
  param {
    lr_mult: 2
    decay_mult: 0
  }
  convolution_param {
    num_output: 128
    kernel_size: 1
    weight_filler {
      type: "xavier"
      std: 0.08
    }
    bias_filler {
      type: "constant"
      value: 0.2
    }
  }
}
layer {
  name: "loss1/relu_conv"
  type: "ReLU"
  bottom: "loss1/conv"
  top: "loss1/conv"
}
layer {
  name: "loss1/fc"
  type: "InnerProduct"
  bottom: "loss1/conv"
  top: "loss1/fc"
  param {
    lr_mult: 1
    decay_mult: 1
  }
  param {
    lr_mult: 2
    decay_mult: 0
  }
  inner_product_param {
    num_output: 1024
    weight_filler {
      type: "xavier"
      std: 0.02
    }
    bias_filler {
      type: "constant"
      value: 0.2
    }
  }
}
layer {
  name: "loss1/relu_fc"
  type: "ReLU"
  bottom: "loss1/fc"
  top: "loss1/fc"
}
layer {
  name: "loss1/drop_fc"
  type: "Dropout"
  bottom: "loss1/fc"
  top: "loss1/fc"
  dropout_param {
    dropout_ratio: 0.7
  }
}
layer {
  name: "loss1/classifier_plantvillage"
  type: "InnerProduct"
  bottom: "loss1/fc"
  top: "loss1/classifier_plantvillage"
  param {
    lr_mult: 1
    decay_mult: 1
  }
  param {
    lr_mult: 2
    decay_mult: 0
  }
  inner_product_param {
    num_output: 38
    weight_filler {
      type: "xavier"
      std: 0.0009765625
    }
    bias_filler {
      type: "constant"
      value: 0
    }
  }
}
layer {
  name: "inception_4b/1x1"
  type: "Convolution"
  bottom: "inception_4a/output"
  top: "inception_4b/1x1"
  param {
    lr_mult: 1
    decay_mult: 1
  }
  param {
    lr_mult: 2
    decay_mult: 0
  }
  convolution_param {
    num_output: 160
    kernel_size: 1
    weight_filler {
      type: "xavier"
      std: 0.03
    }
    bias_filler {
      type: "constant"
      value: 0.2
    }
  }
}
layer {
  name: "inception_4b/relu_1x1"
  type: "ReLU"
  bottom: "inception_4b/1x1"
  top: "inception_4b/1x1"
}
layer {
  name: "inception_4b/3x3_reduce"
  type: "Convolution"
  bottom: "inception_4a/output"
  top: "inception_4b/3x3_reduce"
  param {
    lr_mult: 1
    decay_mult: 1
  }
  param {
    lr_mult: 2
    decay_mult: 0
  }
  convolution_param {
    num_output: 112
    kernel_size: 1
    weight_filler {
      type: "xavier"
      std: 0.09
    }
    bias_filler {
      type: "constant"
      value: 0.2
    }
  }
}
layer {
  name: "inception_4b/relu_3x3_reduce"
  type: "ReLU"
  bottom: "inception_4b/3x3_reduce"
  top: "inception_4b/3x3_reduce"
}
layer {
  name: "inception_4b/3x3"
  type: "Convolution"
  bottom: "inception_4b/3x3_reduce"
  top: "inception_4b/3x3"
  param {
    lr_mult: 1
    decay_mult: 1
  }
  param {
    lr_mult: 2
    decay_mult: 0
  }
  convolution_param {
    num_output: 224
    pad: 1
    kernel_size: 3
    weight_filler {
      type: "xavier"
      std: 0.03
    }
    bias_filler {
      type: "constant"
      value: 0.2
    }
  }
}
layer {
  name: "inception_4b/relu_3x3"
  type: "ReLU"
  bottom: "inception_4b/3x3"
  top: "inception_4b/3x3"
}
layer {
  name: "inception_4b/5x5_reduce"
  type: "Convolution"
  bottom: "inception_4a/output"
  top: "inception_4b/5x5_reduce"
  param {
    lr_mult: 1
    decay_mult: 1
  }
  param {
    lr_mult: 2
    decay_mult: 0
  }
  convolution_param {
    num_output: 24
    kernel_size: 1
    weight_filler {
      type: "xavier"
      std: 0.2
    }
    bias_filler {
      type: "constant"
      value: 0.2
    }
  }
}
layer {
  name: "inception_4b/relu_5x5_reduce"
  type: "ReLU"
  bottom: "inception_4b/5x5_reduce"
  top: "inception_4b/5x5_reduce"
}
layer {
  name: "inception_4b/5x5"
  type: "Convolution"
  bottom: "inception_4b/5x5_reduce"
  top: "inception_4b/5x5"
  param {
    lr_mult: 1
    decay_mult: 1
  }
  param {
    lr_mult: 2
    decay_mult: 0
  }
  convolution_param {
    num_output: 64
    pad: 2
    kernel_size: 5
    weight_filler {
      type: "xavier"
      std: 0.03
    }
    bias_filler {
      type: "constant"
      value: 0.2
    }
  }
}
layer {
  name: "inception_4b/relu_5x5"
  type: "ReLU"
  bottom: "inception_4b/5x5"
  top: "inception_4b/5x5"
}
layer {
  name: "inception_4b/pool"
  type: "Pooling"
  bottom: "inception_4a/output"
  top: "inception_4b/pool"
  pooling_param {
    pool: MAX
    kernel_size: 3
    stride: 1
    pad: 1
  }
}
layer {
  name: "inception_4b/pool_proj"
  type: "Convolution"
  bottom: "inception_4b/pool"
  top: "inception_4b/pool_proj"
  param {
    lr_mult: 1
    decay_mult: 1
  }
  param {
    lr_mult: 2
    decay_mult: 0
  }
  convolution_param {
    num_output: 64
    kernel_size: 1
    weight_filler {
      type: "xavier"
      std: 0.1
    }
    bias_filler {
      type: "constant"
      value: 0.2
    }
  }
}
layer {
  name: "inception_4b/relu_pool_proj"
  type: "ReLU"
  bottom: "inception_4b/pool_proj"
  top: "inception_4b/pool_proj"
}
layer {
  name: "inception_4b/output"
  type: "Concat"
  bottom: "inception_4b/1x1"
  bottom: "inception_4b/3x3"
  bottom: "inception_4b/5x5"
  bottom: "inception_4b/pool_proj"
  top: "inception_4b/output"
}
layer {
  name: "inception_4c/1x1"
  type: "Convolution"
  bottom: "inception_4b/output"
  top: "inception_4c/1x1"
  param {
    lr_mult: 1
    decay_mult: 1
  }
  param {
    lr_mult: 2
    decay_mult: 0
  }
  convolution_param {
    num_output: 128
    kernel_size: 1
    weight_filler {
      type: "xavier"
      std: 0.03
    }
    bias_filler {
      type: "constant"
      value: 0.2
    }
  }
}
layer {
  name: "inception_4c/relu_1x1"
  type: "ReLU"
  bottom: "inception_4c/1x1"
  top: "inception_4c/1x1"
}
layer {
  name: "inception_4c/3x3_reduce"
  type: "Convolution"
  bottom: "inception_4b/output"
  top: "inception_4c/3x3_reduce"
  param {
    lr_mult: 1
    decay_mult: 1
  }
  param {
    lr_mult: 2
    decay_mult: 0
  }
  convolution_param {
    num_output: 128
    kernel_size: 1
    weight_filler {
      type: "xavier"
      std: 0.09
    }
    bias_filler {
      type: "constant"
      value: 0.2
    }
  }
}
layer {
  name: "inception_4c/relu_3x3_reduce"
  type: "ReLU"
  bottom: "inception_4c/3x3_reduce"
  top: "inception_4c/3x3_reduce"
}
layer {
  name: "inception_4c/3x3"
  type: "Convolution"
  bottom: "inception_4c/3x3_reduce"
  top: "inception_4c/3x3"
  param {
    lr_mult: 1
    decay_mult: 1
  }
  param {
    lr_mult: 2
    decay_mult: 0
  }
  convolution_param {
    num_output: 256
    pad: 1
    kernel_size: 3
    weight_filler {
      type: "xavier"
      std: 0.03
    }
    bias_filler {
      type: "constant"
      value: 0.2
    }
  }
}
layer {
  name: "inception_4c/relu_3x3"
  type: "ReLU"
  bottom: "inception_4c/3x3"
  top: "inception_4c/3x3"
}
layer {
  name: "inception_4c/5x5_reduce"
  type: "Convolution"
  bottom: "inception_4b/output"
  top: "inception_4c/5x5_reduce"
  param {
    lr_mult: 1
    decay_mult: 1
  }
  param {
    lr_mult: 2
    decay_mult: 0
  }
  convolution_param {
    num_output: 24
    kernel_size: 1
    weight_filler {
      type: "xavier"
      std: 0.2
    }
    bias_filler {
      type: "constant"
      value: 0.2
    }
  }
}
layer {
  name: "inception_4c/relu_5x5_reduce"
  type: "ReLU"
  bottom: "inception_4c/5x5_reduce"
  top: "inception_4c/5x5_reduce"
}
layer {
  name: "inception_4c/5x5"
  type: "Convolution"
  bottom: "inception_4c/5x5_reduce"
  top: "inception_4c/5x5"
  param {
    lr_mult: 1
    decay_mult: 1
  }
  param {
    lr_mult: 2
    decay_mult: 0
  }
  convolution_param {
    num_output: 64
    pad: 2
    kernel_size: 5
    weight_filler {
      type: "xavier"
      std: 0.03
    }
    bias_filler {
      type: "constant"
      value: 0.2
    }
  }
}
layer {
  name: "inception_4c/relu_5x5"
  type: "ReLU"
  bottom: "inception_4c/5x5"
  top: "inception_4c/5x5"
}
layer {
  name: "inception_4c/pool"
  type: "Pooling"
  bottom: "inception_4b/output"
  top: "inception_4c/pool"
  pooling_param {
    pool: MAX
    kernel_size: 3
    stride: 1
    pad: 1
  }
}
layer {
  name: "inception_4c/pool_proj"
  type: "Convolution"
  bottom: "inception_4c/pool"
  top: "inception_4c/pool_proj"
  param {
    lr_mult: 1
    decay_mult: 1
  }
  param {
    lr_mult: 2
    decay_mult: 0
  }
  convolution_param {
    num_output: 64
    kernel_size: 1
    weight_filler {
      type: "xavier"
      std: 0.1
    }
    bias_filler {
      type: "constant"
      value: 0.2
    }
  }
}
layer {
  name: "inception_4c/relu_pool_proj"
  type: "ReLU"
  bottom: "inception_4c/pool_proj"
  top: "inception_4c/pool_proj"
}
layer {
  name: "inception_4c/output"
  type: "Concat"
  bottom: "inception_4c/1x1"
  bottom: "inception_4c/3x3"
  bottom: "inception_4c/5x5"
  bottom: "inception_4c/pool_proj"
  top: "inception_4c/output"
}
layer {
  name: "inception_4d/1x1"
  type: "Convolution"
  bottom: "inception_4c/output"
  top: "inception_4d/1x1"
  param {
    lr_mult: 1
    decay_mult: 1
  }
  param {
    lr_mult: 2
    decay_mult: 0
  }
  convolution_param {
    num_output: 112
    kernel_size: 1
    weight_filler {
      type: "xavier"
      std: 0.03
    }
    bias_filler {
      type: "constant"
      value: 0.2
    }
  }
}
layer {
  name: "inception_4d/relu_1x1"
  type: "ReLU"
  bottom: "inception_4d/1x1"
  top: "inception_4d/1x1"
}
layer {
  name: "inception_4d/3x3_reduce"
  type: "Convolution"
  bottom: "inception_4c/output"
  top: "inception_4d/3x3_reduce"
  param {
    lr_mult: 1
    decay_mult: 1
  }
  param {
    lr_mult: 2
    decay_mult: 0
  }
  convolution_param {
    num_output: 144
    kernel_size: 1
    weight_filler {
      type: "xavier"
      std: 0.09
    }
    bias_filler {
      type: "constant"
      value: 0.2
    }
  }
}
layer {
  name: "inception_4d/relu_3x3_reduce"
  type: "ReLU"
  bottom: "inception_4d/3x3_reduce"
  top: "inception_4d/3x3_reduce"
}
layer {
  name: "inception_4d/3x3"
  type: "Convolution"
  bottom: "inception_4d/3x3_reduce"
  top: "inception_4d/3x3"
  param {
    lr_mult: 1
    decay_mult: 1
  }
  param {
    lr_mult: 2
    decay_mult: 0
  }
  convolution_param {
    num_output: 288
    pad: 1
    kernel_size: 3
    weight_filler {
      type: "xavier"
      std: 0.03
    }
    bias_filler {
      type: "constant"
      value: 0.2
    }
  }
}
layer {
  name: "inception_4d/relu_3x3"
  type: "ReLU"
  bottom: "inception_4d/3x3"
  top: "inception_4d/3x3"
}
layer {
  name: "inception_4d/5x5_reduce"
  type: "Convolution"
  bottom: "inception_4c/output"
  top: "inception_4d/5x5_reduce"
  param {
    lr_mult: 1
    decay_mult: 1
  }
  param {
    lr_mult: 2
    decay_mult: 0
  }
  convolution_param {
    num_output: 32
    kernel_size: 1
    weight_filler {
      type: "xavier"
      std: 0.2
    }
    bias_filler {
      type: "constant"
      value: 0.2
    }
  }
}
layer {
  name: "inception_4d/relu_5x5_reduce"
  type: "ReLU"
  bottom: "inception_4d/5x5_reduce"
  top: "inception_4d/5x5_reduce"
}
layer {
  name: "inception_4d/5x5"
  type: "Convolution"
  bottom: "inception_4d/5x5_reduce"
  top: "inception_4d/5x5"
  param {
    lr_mult: 1
    decay_mult: 1
  }
  param {
    lr_mult: 2
    decay_mult: 0
  }
  convolution_param {
    num_output: 64
    pad: 2
    kernel_size: 5
    weight_filler {
      type: "xavier"
      std: 0.03
    }
    bias_filler {
      type: "constant"
      value: 0.2
    }
  }
}
layer {
  name: "inception_4d/relu_5x5"
  type: "ReLU"
  bottom: "inception_4d/5x5"
  top: "inception_4d/5x5"
}
layer {
  name: "inception_4d/pool"
  type: "Pooling"
  bottom: "inception_4c/output"
  top: "inception_4d/pool"
  pooling_param {
    pool: MAX
    kernel_size: 3
    stride: 1
    pad: 1
  }
}
layer {
  name: "inception_4d/pool_proj"
  type: "Convolution"
  bottom: "inception_4d/pool"
  top: "inception_4d/pool_proj"
  param {
    lr_mult: 1
    decay_mult: 1
  }
  param {
    lr_mult: 2
    decay_mult: 0
  }
  convolution_param {
    num_output: 64
    kernel_size: 1
    weight_filler {
      type: "xavier"
      std: 0.1
    }
    bias_filler {
      type: "constant"
      value: 0.2
    }
  }
}
layer {
  name: "inception_4d/relu_pool_proj"
  type: "ReLU"
  bottom: "inception_4d/pool_proj"
  top: "inception_4d/pool_proj"
}
layer {
  name: "inception_4d/output"
  type: "Concat"
  bottom: "inception_4d/1x1"
  bottom: "inception_4d/3x3"
  bottom: "inception_4d/5x5"
  bottom: "inception_4d/pool_proj"
  top: "inception_4d/output"
}
layer {
  name: "loss2/ave_pool"
  type: "Pooling"
  bottom: "inception_4d/output"
  top: "loss2/ave_pool"
  pooling_param {
    pool: AVE
    kernel_size: 5
    stride: 3
  }
}
layer {
  name: "loss2/conv"
  type: "Convolution"
  bottom: "loss2/ave_pool"
  top: "loss2/conv"
  param {
    lr_mult: 1
    decay_mult: 1
  }
  param {
    lr_mult: 2
    decay_mult: 0
  }
  convolution_param {
    num_output: 128
    kernel_size: 1
    weight_filler {
      type: "xavier"
      std: 0.08
    }
    bias_filler {
      type: "constant"
      value: 0.2
    }
  }
}
layer {
  name: "loss2/relu_conv"
  type: "ReLU"
  bottom: "loss2/conv"
  top: "loss2/conv"
}
layer {
  name: "loss2/fc"
  type: "InnerProduct"
  bottom: "loss2/conv"
  top: "loss2/fc"
  param {
    lr_mult: 1
    decay_mult: 1
  }
  param {
    lr_mult: 2
    decay_mult: 0
  }
  inner_product_param {
    num_output: 1024
    weight_filler {
      type: "xavier"
      std: 0.02
    }
    bias_filler {
      type: "constant"
      value: 0.2
    }
  }
}
layer {
  name: "loss2/relu_fc"
  type: "ReLU"
  bottom: "loss2/fc"
  top: "loss2/fc"
}
layer {
  name: "loss2/drop_fc"
  type: "Dropout"
  bottom: "loss2/fc"
  top: "loss2/fc"
  dropout_param {
    dropout_ratio: 0.7
  }
}
layer {
  name: "loss2/classifier_plantvillage"
  type: "InnerProduct"
  bottom: "loss2/fc"
  top: "loss2/classifier_plantvillage"
  param {
    lr_mult: 1
    decay_mult: 1
  }
  param {
    lr_mult: 2
    decay_mult: 0
  }
  inner_product_param {
    num_output: 38
    weight_filler {
      type: "xavier"
      std: 0.0009765625
    }
    bias_filler {
      type: "constant"
      value: 0
    }
  }
}
layer {
  name: "inception_4e/1x1"
  type: "Convolution"
  bottom: "inception_4d/output"
  top: "inception_4e/1x1"
  param {
    lr_mult: 1
    decay_mult: 1
  }
  param {
    lr_mult: 2
    decay_mult: 0
  }
  convolution_param {
    num_output: 256
    kernel_size: 1
    weight_filler {
      type: "xavier"
      std: 0.03
    }
    bias_filler {
      type: "constant"
      value: 0.2
    }
  }
}
layer {
  name: "inception_4e/relu_1x1"
  type: "ReLU"
  bottom: "inception_4e/1x1"
  top: "inception_4e/1x1"
}
layer {
  name: "inception_4e/3x3_reduce"
  type: "Convolution"
  bottom: "inception_4d/output"
  top: "inception_4e/3x3_reduce"
  param {
    lr_mult: 1
    decay_mult: 1
  }
  param {
    lr_mult: 2
    decay_mult: 0
  }
  convolution_param {
    num_output: 160
    kernel_size: 1
    weight_filler {
      type: "xavier"
      std: 0.09
    }
    bias_filler {
      type: "constant"
      value: 0.2
    }
  }
}
layer {
  name: "inception_4e/relu_3x3_reduce"
  type: "ReLU"
  bottom: "inception_4e/3x3_reduce"
  top: "inception_4e/3x3_reduce"
}
layer {
  name: "inception_4e/3x3"
  type: "Convolution"
  bottom: "inception_4e/3x3_reduce"
  top: "inception_4e/3x3"
  param {
    lr_mult: 1
    decay_mult: 1
  }
  param {
    lr_mult: 2
    decay_mult: 0
  }
  convolution_param {
    num_output: 320
    pad: 1
    kernel_size: 3
    weight_filler {
      type: "xavier"
      std: 0.03
    }
    bias_filler {
      type: "constant"
      value: 0.2
    }
  }
}
layer {
  name: "inception_4e/relu_3x3"
  type: "ReLU"
  bottom: "inception_4e/3x3"
  top: "inception_4e/3x3"
}
layer {
  name: "inception_4e/5x5_reduce"
  type: "Convolution"
  bottom: "inception_4d/output"
  top: "inception_4e/5x5_reduce"
  param {
    lr_mult: 1
    decay_mult: 1
  }
  param {
    lr_mult: 2
    decay_mult: 0
  }
  convolution_param {
    num_output: 32
    kernel_size: 1
    weight_filler {
      type: "xavier"
      std: 0.2
    }
    bias_filler {
      type: "constant"
      value: 0.2
    }
  }
}
layer {
  name: "inception_4e/relu_5x5_reduce"
  type: "ReLU"
  bottom: "inception_4e/5x5_reduce"
  top: "inception_4e/5x5_reduce"
}
layer {
  name: "inception_4e/5x5"
  type: "Convolution"
  bottom: "inception_4e/5x5_reduce"
  top: "inception_4e/
I0403 15:07:32.093597 31163 layer_factory.hpp:77] Creating layer data
I0403 15:07:32.094197 31163 net.cpp:91] Creating Layer data
I0403 15:07:32.094225 31163 net.cpp:399] data -> data
I0403 15:07:32.094281 31163 net.cpp:399] data -> label
I0403 15:07:32.094319 31163 data_transformer.cpp:25] Loading mean file from: /home/mohanty/data/final_dataset/lmdb/grayscale-80-20/mean.binaryproto
I0403 15:07:32.097524 31173 db_lmdb.cpp:38] Opened lmdb /home/mohanty/data/final_dataset/lmdb/grayscale-80-20/test_db
I0403 15:07:32.107879 31163 data_layer.cpp:41] output data size: 24,3,224,224
I0403 15:07:32.135264 31163 net.cpp:141] Setting up data
I0403 15:07:32.135340 31163 net.cpp:148] Top shape: 24 3 224 224 (3612672)
I0403 15:07:32.135365 31163 net.cpp:148] Top shape: 24 (24)
I0403 15:07:32.135381 31163 net.cpp:156] Memory required for data: 14450784
I0403 15:07:32.135411 31163 layer_factory.hpp:77] Creating layer label_data_1_split
I0403 15:07:32.135440 31163 net.cpp:91] Creating Layer label_data_1_split
I0403 15:07:32.135460 31163 net.cpp:425] label_data_1_split <- label
I0403 15:07:32.135498 31163 net.cpp:399] label_data_1_split -> label_data_1_split_0
I0403 15:07:32.135526 31163 net.cpp:399] label_data_1_split -> label_data_1_split_1
I0403 15:07:32.135555 31163 net.cpp:399] label_data_1_split -> label_data_1_split_2
I0403 15:07:32.135577 31163 net.cpp:399] label_data_1_split -> label_data_1_split_3
I0403 15:07:32.135598 31163 net.cpp:399] label_data_1_split -> label_data_1_split_4
I0403 15:07:32.135619 31163 net.cpp:399] label_data_1_split -> label_data_1_split_5
I0403 15:07:32.135642 31163 net.cpp:399] label_data_1_split -> label_data_1_split_6
I0403 15:07:32.135661 31163 net.cpp:399] label_data_1_split -> label_data_1_split_7
I0403 15:07:32.135681 31163 net.cpp:399] label_data_1_split -> label_data_1_split_8
I0403 15:07:32.135702 31163 net.cpp:399] label_data_1_split -> label_data_1_split_9
I0403 15:07:32.135820 31163 net.cpp:141] Setting up label_data_1_split
I0403 15:07:32.135848 31163 net.cpp:148] Top shape: 24 (24)
I0403 15:07:32.135865 31163 net.cpp:148] Top shape: 24 (24)
I0403 15:07:32.135882 31163 net.cpp:148] Top shape: 24 (24)
I0403 15:07:32.135900 31163 net.cpp:148] Top shape: 24 (24)
I0403 15:07:32.135916 31163 net.cpp:148] Top shape: 24 (24)
I0403 15:07:32.135933 31163 net.cpp:148] Top shape: 24 (24)
I0403 15:07:32.135949 31163 net.cpp:148] Top shape: 24 (24)
I0403 15:07:32.135967 31163 net.cpp:148] Top shape: 24 (24)
I0403 15:07:32.135982 31163 net.cpp:148] Top shape: 24 (24)
I0403 15:07:32.135998 31163 net.cpp:148] Top shape: 24 (24)
I0403 15:07:32.136036 31163 net.cpp:156] Memory required for data: 14451744
I0403 15:07:32.136052 31163 layer_factory.hpp:77] Creating layer conv1/7x7_s2
I0403 15:07:32.136085 31163 net.cpp:91] Creating Layer conv1/7x7_s2
I0403 15:07:32.136103 31163 net.cpp:425] conv1/7x7_s2 <- data
I0403 15:07:32.136123 31163 net.cpp:399] conv1/7x7_s2 -> conv1/7x7_s2
I0403 15:07:32.277741 31163 net.cpp:141] Setting up conv1/7x7_s2
I0403 15:07:32.277834 31163 net.cpp:148] Top shape: 24 64 112 112 (19267584)
I0403 15:07:32.277853 31163 net.cpp:156] Memory required for data: 91522080
I0403 15:07:32.277889 31163 layer_factory.hpp:77] Creating layer conv1/relu_7x7
I0403 15:07:32.277922 31163 net.cpp:91] Creating Layer conv1/relu_7x7
I0403 15:07:32.277942 31163 net.cpp:425] conv1/relu_7x7 <- conv1/7x7_s2
I0403 15:07:32.277963 31163 net.cpp:386] conv1/relu_7x7 -> conv1/7x7_s2 (in-place)
I0403 15:07:32.278236 31163 net.cpp:141] Setting up conv1/relu_7x7
I0403 15:07:32.278269 31163 net.cpp:148] Top shape: 24 64 112 112 (19267584)
I0403 15:07:32.278286 31163 net.cpp:156] Memory required for data: 168592416
I0403 15:07:32.278303 31163 layer_factory.hpp:77] Creating layer pool1/3x3_s2
I0403 15:07:32.278331 31163 net.cpp:91] Creating Layer pool1/3x3_s2
I0403 15:07:32.278350 31163 net.cpp:425] pool1/3x3_s2 <- conv1/7x7_s2
I0403 15:07:32.278370 31163 net.cpp:399] pool1/3x3_s2 -> pool1/3x3_s2
I0403 15:07:32.278453 31163 net.cpp:141] Setting up pool1/3x3_s2
I0403 15:07:32.278480 31163 net.cpp:148] Top shape: 24 64 56 56 (4816896)
I0403 15:07:32.278496 31163 net.cpp:156] Memory required for data: 187860000
I0403 15:07:32.278512 31163 layer_factory.hpp:77] Creating layer pool1/norm1
I0403 15:07:32.278543 31163 net.cpp:91] Creating Layer pool1/norm1
I0403 15:07:32.278563 31163 net.cpp:425] pool1/norm1 <- pool1/3x3_s2
I0403 15:07:32.278584 31163 net.cpp:399] pool1/norm1 -> pool1/norm1
I0403 15:07:32.278883 31163 net.cpp:141] Setting up pool1/norm1
I0403 15:07:32.278918 31163 net.cpp:148] Top shape: 24 64 56 56 (4816896)
I0403 15:07:32.278939 31163 net.cpp:156] Memory required for data: 207127584
I0403 15:07:32.278964 31163 layer_factory.hpp:77] Creating layer conv2/3x3_reduce
I0403 15:07:32.278995 31163 net.cpp:91] Creating Layer conv2/3x3_reduce
I0403 15:07:32.279063 31163 net.cpp:425] conv2/3x3_reduce <- pool1/norm1
I0403 15:07:32.279094 31163 net.cpp:399] conv2/3x3_reduce -> conv2/3x3_reduce
I0403 15:07:32.280493 31163 net.cpp:141] Setting up conv2/3x3_reduce
I0403 15:07:32.280530 31163 net.cpp:148] Top shape: 24 64 56 56 (4816896)
I0403 15:07:32.280560 31163 net.cpp:156] Memory required for data: 226395168
I0403 15:07:32.280592 31163 layer_factory.hpp:77] Creating layer conv2/relu_3x3_reduce
I0403 15:07:32.280623 31163 net.cpp:91] Creating Layer conv2/relu_3x3_reduce
I0403 15:07:32.280648 31163 net.cpp:425] conv2/relu_3x3_reduce <- conv2/3x3_reduce
I0403 15:07:32.280671 31163 net.cpp:386] conv2/relu_3x3_reduce -> conv2/3x3_reduce (in-place)
I0403 15:07:32.280997 31163 net.cpp:141] Setting up conv2/relu_3x3_reduce
I0403 15:07:32.281030 31163 net.cpp:148] Top shape: 24 64 56 56 (4816896)
I0403 15:07:32.281062 31163 net.cpp:156] Memory required for data: 245662752
I0403 15:07:32.281083 31163 layer_factory.hpp:77] Creating layer conv2/3x3
I0403 15:07:32.281114 31163 net.cpp:91] Creating Layer conv2/3x3
I0403 15:07:32.281138 31163 net.cpp:425] conv2/3x3 <- conv2/3x3_reduce
I0403 15:07:32.281167 31163 net.cpp:399] conv2/3x3 -> conv2/3x3
I0403 15:07:32.283619 31163 net.cpp:141] Setting up conv2/3x3
I0403 15:07:32.283653 31163 net.cpp:148] Top shape: 24 192 56 56 (14450688)
I0403 15:07:32.283671 31163 net.cpp:156] Memory required for data: 303465504
I0403 15:07:32.283696 31163 layer_factory.hpp:77] Creating layer conv2/relu_3x3
I0403 15:07:32.283721 31163 net.cpp:91] Creating Layer conv2/relu_3x3
I0403 15:07:32.283740 31163 net.cpp:425] conv2/relu_3x3 <- conv2/3x3
I0403 15:07:32.283763 31163 net.cpp:386] conv2/relu_3x3 -> conv2/3x3 (in-place)
I0403 15:07:32.283968 31163 net.cpp:141] Setting up conv2/relu_3x3
I0403 15:07:32.284009 31163 net.cpp:148] Top shape: 24 192 56 56 (14450688)
I0403 15:07:32.284072 31163 net.cpp:156] Memory required for data: 361268256
I0403 15:07:32.284096 31163 layer_factory.hpp:77] Creating layer conv2/norm2
I0403 15:07:32.284118 31163 net.cpp:91] Creating Layer conv2/norm2
I0403 15:07:32.284144 31163 net.cpp:425] conv2/norm2 <- conv2/3x3
I0403 15:07:32.284173 31163 net.cpp:399] conv2/norm2 -> conv2/norm2
I0403 15:07:32.284571 31163 net.cpp:141] Setting up conv2/norm2
I0403 15:07:32.284606 31163 net.cpp:148] Top shape: 24 192 56 56 (14450688)
I0403 15:07:32.284631 31163 net.cpp:156] Memory required for data: 419071008
I0403 15:07:32.284651 31163 layer_factory.hpp:77] Creating layer pool2/3x3_s2
I0403 15:07:32.284670 31163 net.cpp:91] Creating Layer pool2/3x3_s2
I0403 15:07:32.284693 31163 net.cpp:425] pool2/3x3_s2 <- conv2/norm2
I0403 15:07:32.284723 31163 net.cpp:399] pool2/3x3_s2 -> pool2/3x3_s2
I0403 15:07:32.284780 31163 net.cpp:141] Setting up pool2/3x3_s2
I0403 15:07:32.284809 31163 net.cpp:148] Top shape: 24 192 28 28 (3612672)
I0403 15:07:32.284833 31163 net.cpp:156] Memory required for data: 433521696
I0403 15:07:32.284857 31163 layer_factory.hpp:77] Creating layer pool2/3x3_s2_pool2/3x3_s2_0_split
I0403 15:07:32.284883 31163 net.cpp:91] Creating Layer pool2/3x3_s2_pool2/3x3_s2_0_split
I0403 15:07:32.284909 31163 net.cpp:425] pool2/3x3_s2_pool2/3x3_s2_0_split <- pool2/3x3_s2
I0403 15:07:32.284937 31163 net.cpp:399] pool2/3x3_s2_pool2/3x3_s2_0_split -> pool2/3x3_s2_pool2/3x3_s2_0_split_0
I0403 15:07:32.284966 31163 net.cpp:399] pool2/3x3_s2_pool2/3x3_s2_0_split -> pool2/3x3_s2_pool2/3x3_s2_0_split_1
I0403 15:07:32.284994 31163 net.cpp:399] pool2/3x3_s2_pool2/3x3_s2_0_split -> pool2/3x3_s2_pool2/3x3_s2_0_split_2
I0403 15:07:32.285017 31163 net.cpp:399] pool2/3x3_s2_pool2/3x3_s2_0_split -> pool2/3x3_s2_pool2/3x3_s2_0_split_3
I0403 15:07:32.285095 31163 net.cpp:141] Setting up pool2/3x3_s2_pool2/3x3_s2_0_split
I0403 15:07:32.285127 31163 net.cpp:148] Top shape: 24 192 28 28 (3612672)
I0403 15:07:32.285151 31163 net.cpp:148] Top shape: 24 192 28 28 (3612672)
I0403 15:07:32.285169 31163 net.cpp:148] Top shape: 24 192 28 28 (3612672)
I0403 15:07:32.285194 31163 net.cpp:148] Top shape: 24 192 28 28 (3612672)
I0403 15:07:32.285215 31163 net.cpp:156] Memory required for data: 491324448
I0403 15:07:32.285240 31163 layer_factory.hpp:77] Creating layer inception_3a/1x1
I0403 15:07:32.285271 31163 net.cpp:91] Creating Layer inception_3a/1x1
I0403 15:07:32.285301 31163 net.cpp:425] inception_3a/1x1 <- pool2/3x3_s2_pool2/3x3_s2_0_split_0
I0403 15:07:32.285328 31163 net.cpp:399] inception_3a/1x1 -> inception_3a/1x1
I0403 15:07:32.287003 31163 net.cpp:141] Setting up inception_3a/1x1
I0403 15:07:32.287036 31163 net.cpp:148] Top shape: 24 64 28 28 (1204224)
I0403 15:07:32.287055 31163 net.cpp:156] Memory required for data: 496141344
I0403 15:07:32.287075 31163 layer_factory.hpp:77] Creating layer inception_3a/relu_1x1
I0403 15:07:32.287097 31163 net.cpp:91] Creating Layer inception_3a/relu_1x1
I0403 15:07:32.287117 31163 net.cpp:425] inception_3a/relu_1x1 <- inception_3a/1x1
I0403 15:07:32.287135 31163 net.cpp:386] inception_3a/relu_1x1 -> inception_3a/1x1 (in-place)
I0403 15:07:32.287325 31163 net.cpp:141] Setting up inception_3a/relu_1x1
I0403 15:07:32.287354 31163 net.cpp:148] Top shape: 24 64 28 28 (1204224)
I0403 15:07:32.287372 31163 net.cpp:156] Memory required for data: 500958240
I0403 15:07:32.287395 31163 layer_factory.hpp:77] Creating layer inception_3a/3x3_reduce
I0403 15:07:32.287420 31163 net.cpp:91] Creating Layer inception_3a/3x3_reduce
I0403 15:07:32.287437 31163 net.cpp:425] inception_3a/3x3_reduce <- pool2/3x3_s2_pool2/3x3_s2_0_split_1
I0403 15:07:32.287458 31163 net.cpp:399] inception_3a/3x3_reduce -> inception_3a/3x3_reduce
I0403 15:07:32.289316 31163 net.cpp:141] Setting up inception_3a/3x3_reduce
I0403 15:07:32.289355 31163 net.cpp:148] Top shape: 24 96 28 28 (1806336)
I0403 15:07:32.289379 31163 net.cpp:156] Memory required for data: 508183584
I0403 15:07:32.289412 31163 layer_factory.hpp:77] Creating layer inception_3a/relu_3x3_reduce
I0403 15:07:32.289460 31163 net.cpp:91] Creating Layer inception_3a/relu_3x3_reduce
I0403 15:07:32.289489 31163 net.cpp:425] inception_3a/relu_3x3_reduce <- inception_3a/3x3_reduce
I0403 15:07:32.289515 31163 net.cpp:386] inception_3a/relu_3x3_reduce -> inception_3a/3x3_reduce (in-place)
I0403 15:07:32.289717 31163 net.cpp:141] Setting up inception_3a/relu_3x3_reduce
I0403 15:07:32.289757 31163 net.cpp:148] Top shape: 24 96 28 28 (1806336)
I0403 15:07:32.289782 31163 net.cpp:156] Memory required for data: 515408928
I0403 15:07:32.289810 31163 layer_factory.hpp:77] Creating layer inception_3a/3x3
I0403 15:07:32.289845 31163 net.cpp:91] Creating Layer inception_3a/3x3
I0403 15:07:32.289870 31163 net.cpp:425] inception_3a/3x3 <- inception_3a/3x3_reduce
I0403 15:07:32.289901 31163 net.cpp:399] inception_3a/3x3 -> inception_3a/3x3
I0403 15:07:32.291651 31163 net.cpp:141] Setting up inception_3a/3x3
I0403 15:07:32.291690 31163 net.cpp:148] Top shape: 24 128 28 28 (2408448)
I0403 15:07:32.291717 31163 net.cpp:156] Memory required for data: 525042720
I0403 15:07:32.291748 31163 layer_factory.hpp:77] Creating layer inception_3a/relu_3x3
I0403 15:07:32.291770 31163 net.cpp:91] Creating Layer inception_3a/relu_3x3
I0403 15:07:32.291795 31163 net.cpp:425] inception_3a/relu_3x3 <- inception_3a/3x3
I0403 15:07:32.291826 31163 net.cpp:386] inception_3a/relu_3x3 -> inception_3a/3x3 (in-place)
I0403 15:07:32.292120 31163 net.cpp:141] Setting up inception_3a/relu_3x3
I0403 15:07:32.292157 31163 net.cpp:148] Top shape: 24 128 28 28 (2408448)
I0403 15:07:32.292182 31163 net.cpp:156] Memory required for data: 534676512
I0403 15:07:32.292207 31163 layer_factory.hpp:77] Creating layer inception_3a/5x5_reduce
I0403 15:07:32.292235 31163 net.cpp:91] Creating Layer inception_3a/5x5_reduce
I0403 15:07:32.292255 31163 net.cpp:425] inception_3a/5x5_reduce <- pool2/3x3_s2_pool2/3x3_s2_0_split_2
I0403 15:07:32.292289 31163 net.cpp:399] inception_3a/5x5_reduce -> inception_3a/5x5_reduce
I0403 15:07:32.293303 31163 net.cpp:141] Setting up inception_3a/5x5_reduce
I0403 15:07:32.293337 31163 net.cpp:148] Top shape: 24 16 28 28 (301056)
I0403 15:07:32.293362 31163 net.cpp:156] Memory required for data: 535880736
I0403 15:07:32.293387 31163 layer_factory.hpp:77] Creating layer inception_3a/relu_5x5_reduce
I0403 15:07:32.293411 31163 net.cpp:91] Creating Layer inception_3a/relu_5x5_reduce
I0403 15:07:32.293437 31163 net.cpp:425] inception_3a/relu_5x5_reduce <- inception_3a/5x5_reduce
I0403 15:07:32.293459 31163 net.cpp:386] inception_3a/relu_5x5_reduce -> inception_3a/5x5_reduce (in-place)
I0403 15:07:32.293787 31163 net.cpp:141] Setting up inception_3a/relu_5x5_reduce
I0403 15:07:32.293817 31163 net.cpp:148] Top shape: 24 16 28 28 (301056)
I0403 15:07:32.293843 31163 net.cpp:156] Memory required for data: 537084960
I0403 15:07:32.293867 31163 layer_factory.hpp:77] Creating layer inception_3a/5x5
I0403 15:07:32.293896 31163 net.cpp:91] Creating Layer inception_3a/5x5
I0403 15:07:32.293922 31163 net.cpp:425] inception_3a/5x5 <- inception_3a/5x5_reduce
I0403 15:07:32.293949 31163 net.cpp:399] inception_3a/5x5 -> inception_3a/5x5
I0403 15:07:32.295022 31163 net.cpp:141] Setting up inception_3a/5x5
I0403 15:07:32.295056 31163 net.cpp:148] Top shape: 24 32 28 28 (602112)
I0403 15:07:32.295083 31163 net.cpp:156] Memory required for data: 539493408
I0403 15:07:32.295104 31163 layer_factory.hpp:77] Creating layer inception_3a/relu_5x5
I0403 15:07:32.295132 31163 net.cpp:91] Creating Layer inception_3a/relu_5x5
I0403 15:07:32.295156 31163 net.cpp:425] inception_3a/relu_5x5 <- inception_3a/5x5
I0403 15:07:32.295183 31163 net.cpp:386] inception_3a/relu_5x5 -> inception_3a/5x5 (in-place)
I0403 15:07:32.295370 31163 net.cpp:141] Setting up inception_3a/relu_5x5
I0403 15:07:32.295399 31163 net.cpp:148] Top shape: 24 32 28 28 (602112)
I0403 15:07:32.295419 31163 net.cpp:156] Memory required for data: 541901856
I0403 15:07:32.295438 31163 layer_factory.hpp:77] Creating layer inception_3a/pool
I0403 15:07:32.295462 31163 net.cpp:91] Creating Layer inception_3a/pool
I0403 15:07:32.295497 31163 net.cpp:425] inception_3a/pool <- pool2/3x3_s2_pool2/3x3_s2_0_split_3
I0403 15:07:32.295529 31163 net.cpp:399] inception_3a/pool -> inception_3a/pool
I0403 15:07:32.295603 31163 net.cpp:141] Setting up inception_3a/pool
I0403 15:07:32.295634 31163 net.cpp:148] Top shape: 24 192 28 28 (3612672)
I0403 15:07:32.295653 31163 net.cpp:156] Memory required for data: 556352544
I0403 15:07:32.295678 31163 layer_factory.hpp:77] Creating layer inception_3a/pool_proj
I0403 15:07:32.295704 31163 net.cpp:91] Creating Layer inception_3a/pool_proj
I0403 15:07:32.295729 31163 net.cpp:425] inception_3a/pool_proj <- inception_3a/pool
I0403 15:07:32.295755 31163 net.cpp:399] inception_3a/pool_proj -> inception_3a/pool_proj
I0403 15:07:32.296772 31163 net.cpp:141] Setting up inception_3a/pool_proj
I0403 15:07:32.296807 31163 net.cpp:148] Top shape: 24 32 28 28 (602112)
I0403 15:07:32.296828 31163 net.cpp:156] Memory required for data: 558760992
I0403 15:07:32.296864 31163 layer_factory.hpp:77] Creating layer inception_3a/relu_pool_proj
I0403 15:07:32.296890 31163 net.cpp:91] Creating Layer inception_3a/relu_pool_proj
I0403 15:07:32.296913 31163 net.cpp:425] inception_3a/relu_pool_proj <- inception_3a/pool_proj
I0403 15:07:32.296933 31163 net.cpp:386] inception_3a/relu_pool_proj -> inception_3a/pool_proj (in-place)
I0403 15:07:32.297226 31163 net.cpp:141] Setting up inception_3a/relu_pool_proj
I0403 15:07:32.297260 31163 net.cpp:148] Top shape: 24 32 28 28 (602112)
I0403 15:07:32.297283 31163 net.cpp:156] Memory required for data: 561169440
I0403 15:07:32.297307 31163 layer_factory.hpp:77] Creating layer inception_3a/output
I0403 15:07:32.297333 31163 net.cpp:91] Creating Layer inception_3a/output
I0403 15:07:32.297353 31163 net.cpp:425] inception_3a/output <- inception_3a/1x1
I0403 15:07:32.297376 31163 net.cpp:425] inception_3a/output <- inception_3a/3x3
I0403 15:07:32.297397 31163 net.cpp:425] inception_3a/output <- inception_3a/5x5
I0403 15:07:32.297415 31163 net.cpp:425] inception_3a/output <- inception_3a/pool_proj
I0403 15:07:32.297432 31163 net.cpp:399] inception_3a/output -> inception_3a/output
I0403 15:07:32.297483 31163 net.cpp:141] Setting up inception_3a/output
I0403 15:07:32.297516 31163 net.cpp:148] Top shape: 24 256 28 28 (4816896)
I0403 15:07:32.297546 31163 net.cpp:156] Memory required for data: 580437024
I0403 15:07:32.297567 31163 layer_factory.hpp:77] Creating layer inception_3a/output_inception_3a/output_0_split
I0403 15:07:32.297593 31163 net.cpp:91] Creating Layer inception_3a/output_inception_3a/output_0_split
I0403 15:07:32.297616 31163 net.cpp:425] inception_3a/output_inception_3a/output_0_split <- inception_3a/output
I0403 15:07:32.297643 31163 net.cpp:399] inception_3a/output_inception_3a/output_0_split -> inception_3a/output_inception_3a/output_0_split_0
I0403 15:07:32.297673 31163 net.cpp:399] inception_3a/output_inception_3a/output_0_split -> inception_3a/output_inception_3a/output_0_split_1
I0403 15:07:32.297708 31163 net.cpp:399] inception_3a/output_inception_3a/output_0_split -> inception_3a/output_inception_3a/output_0_split_2
I0403 15:07:32.297734 31163 net.cpp:399] inception_3a/output_inception_3a/output_0_split -> inception_3a/output_inception_3a/output_0_split_3
I0403 15:07:32.297819 31163 net.cpp:141] Setting up inception_3a/output_inception_3a/output_0_split
I0403 15:07:32.297849 31163 net.cpp:148] Top shape: 24 256 28 28 (4816896)
I0403 15:07:32.297869 31163 net.cpp:148] Top shape: 24 256 28 28 (4816896)
I0403 15:07:32.297894 31163 net.cpp:148] Top shape: 24 256 28 28 (4816896)
I0403 15:07:32.297914 31163 net.cpp:148] Top shape: 24 256 28 28 (4816896)
I0403 15:07:32.297935 31163 net.cpp:156] Memory required for data: 657507360
I0403 15:07:32.297955 31163 layer_factory.hpp:77] Creating layer inception_3b/1x1
I0403 15:07:32.297986 31163 net.cpp:91] Creating Layer inception_3b/1x1
I0403 15:07:32.298012 31163 net.cpp:425] inception_3b/1x1 <- inception_3a/output_inception_3a/output_0_split_0
I0403 15:07:32.298039 31163 net.cpp:399] inception_3b/1x1 -> inception_3b/1x1
I0403 15:07:32.299245 31163 net.cpp:141] Setting up inception_3b/1x1
I0403 15:07:32.299294 31163 net.cpp:148] Top shape: 24 128 28 28 (2408448)
I0403 15:07:32.299315 31163 net.cpp:156] Memory required for data: 667141152
I0403 15:07:32.299336 31163 layer_factory.hpp:77] Creating layer inception_3b/relu_1x1
I0403 15:07:32.299366 31163 net.cpp:91] Creating Layer inception_3b/relu_1x1
I0403 15:07:32.299391 31163 net.cpp:425] inception_3b/relu_1x1 <- inception_3b/1x1
I0403 15:07:32.299413 31163 net.cpp:386] inception_3b/relu_1x1 -> inception_3b/1x1 (in-place)
I0403 15:07:32.299612 31163 net.cpp:141] Setting up inception_3b/relu_1x1
I0403 15:07:32.299649 31163 net.cpp:148] Top shape: 24 128 28 28 (2408448)
I0403 15:07:32.299672 31163 net.cpp:156] Memory required for data: 676774944
I0403 15:07:32.299695 31163 layer_factory.hpp:77] Creating layer inception_3b/3x3_reduce
I0403 15:07:32.299716 31163 net.cpp:91] Creating Layer inception_3b/3x3_reduce
I0403 15:07:32.299741 31163 net.cpp:425] inception_3b/3x3_reduce <- inception_3a/output_inception_3a/output_0_split_1
I0403 15:07:32.299774 31163 net.cpp:399] inception_3b/3x3_reduce -> inception_3b/3x3_reduce
I0403 15:07:32.300972 31163 net.cpp:141] Setting up inception_3b/3x3_reduce
I0403 15:07:32.301009 31163 net.cpp:148] Top shape: 24 128 28 28 (2408448)
I0403 15:07:32.301028 31163 net.cpp:156] Memory required for data: 686408736
I0403 15:07:32.301055 31163 layer_factory.hpp:77] Creating layer inception_3b/relu_3x3_reduce
I0403 15:07:32.301084 31163 net.cpp:91] Creating Layer inception_3b/relu_3x3_reduce
I0403 15:07:32.301110 31163 net.cpp:425] inception_3b/relu_3x3_reduce <- inception_3b/3x3_reduce
I0403 15:07:32.301133 31163 net.cpp:386] inception_3b/relu_3x3_reduce -> inception_3b/3x3_reduce (in-place)
I0403 15:07:32.301323 31163 net.cpp:141] Setting up inception_3b/relu_3x3_reduce
I0403 15:07:32.301358 31163 net.cpp:148] Top shape: 24 128 28 28 (2408448)
I0403 15:07:32.301379 31163 net.cpp:156] Memory required for data: 696042528
I0403 15:07:32.301403 31163 layer_factory.hpp:77] Creating layer inception_3b/3x3
I0403 15:07:32.301436 31163 net.cpp:91] Creating Layer inception_3b/3x3
I0403 15:07:32.301455 31163 net.cpp:425] inception_3b/3x3 <- inception_3b/3x3_reduce
I0403 15:07:32.301484 31163 net.cpp:399] inception_3b/3x3 -> inception_3b/3x3
I0403 15:07:32.308429 31163 net.cpp:141] Setting up inception_3b/3x3
I0403 15:07:32.308471 31163 net.cpp:148] Top shape: 24 192 28 28 (3612672)
I0403 15:07:32.308500 31163 net.cpp:156] Memory required for data: 710493216
I0403 15:07:32.308544 31163 layer_factory.hpp:77] Creating layer inception_3b/relu_3x3
I0403 15:07:32.308574 31163 net.cpp:91] Creating Layer inception_3b/relu_3x3
I0403 15:07:32.308596 31163 net.cpp:425] inception_3b/relu_3x3 <- inception_3b/3x3
I0403 15:07:32.308624 31163 net.cpp:386] inception_3b/relu_3x3 -> inception_3b/3x3 (in-place)
I0403 15:07:32.308928 31163 net.cpp:141] Setting up inception_3b/relu_3x3
I0403 15:07:32.308964 31163 net.cpp:148] Top shape: 24 192 28 28 (3612672)
I0403 15:07:32.308987 31163 net.cpp:156] Memory required for data: 724943904
I0403 15:07:32.309005 31163 layer_factory.hpp:77] Creating layer inception_3b/5x5_reduce
I0403 15:07:32.309031 31163 net.cpp:91] Creating Layer inception_3b/5x5_reduce
I0403 15:07:32.309057 31163 net.cpp:425] inception_3b/5x5_reduce <- inception_3a/output_inception_3a/output_0_split_2
I0403 15:07:32.309087 31163 net.cpp:399] inception_3b/5x5_reduce -> inception_3b/5x5_reduce
I0403 15:07:32.310148 31163 net.cpp:141] Setting up inception_3b/5x5_reduce
I0403 15:07:32.310183 31163 net.cpp:148] Top shape: 24 32 28 28 (602112)
I0403 15:07:32.310206 31163 net.cpp:156] Memory required for data: 727352352
I0403 15:07:32.310235 31163 layer_factory.hpp:77] Creating layer inception_3b/relu_5x5_reduce
I0403 15:07:32.310259 31163 net.cpp:91] Creating Layer inception_3b/relu_5x5_reduce
I0403 15:07:32.310286 31163 net.cpp:425] inception_3b/relu_5x5_reduce <- inception_3b/5x5_reduce
I0403 15:07:32.310309 31163 net.cpp:386] inception_3b/relu_5x5_reduce -> inception_3b/5x5_reduce (in-place)
I0403 15:07:32.310523 31163 net.cpp:141] Setting up inception_3b/relu_5x5_reduce
I0403 15:07:32.310557 31163 net.cpp:148] Top shape: 24 32 28 28 (602112)
I0403 15:07:32.310580 31163 net.cpp:156] Memory required for data: 729760800
I0403 15:07:32.310598 31163 layer_factory.hpp:77] Creating layer inception_3b/5x5
I0403 15:07:32.310623 31163 net.cpp:91] Creating Layer inception_3b/5x5
I0403 15:07:32.310648 31163 net.cpp:425] inception_3b/5x5 <- inception_3b/5x5_reduce
I0403 15:07:32.310669 31163 net.cpp:399] inception_3b/5x5 -> inception_3b/5x5
I0403 15:07:32.312757 31163 net.cpp:141] Setting up inception_3b/5x5
I0403 15:07:32.312788 31163 net.cpp:148] Top shape: 24 96 28 28 (1806336)
I0403 15:07:32.312813 31163 net.cpp:156] Memory required for data: 736986144
I0403 15:07:32.312842 31163 layer_factory.hpp:77] Creating layer inception_3b/relu_5x5
I0403 15:07:32.312871 31163 net.cpp:91] Creating Layer inception_3b/relu_5x5
I0403 15:07:32.312898 31163 net.cpp:425] inception_3b/relu_5x5 <- inception_3b/5x5
I0403 15:07:32.312919 31163 net.cpp:386] inception_3b/relu_5x5 -> inception_3b/5x5 (in-place)
I0403 15:07:32.313132 31163 net.cpp:141] Setting up inception_3b/relu_5x5
I0403 15:07:32.313163 31163 net.cpp:148] Top shape: 24 96 28 28 (1806336)
I0403 15:07:32.313182 31163 net.cpp:156] Memory required for data: 744211488
I0403 15:07:32.313205 31163 layer_factory.hpp:77] Creating layer inception_3b/pool
I0403 15:07:32.313225 31163 net.cpp:91] Creating Layer inception_3b/pool
I0403 15:07:32.313243 31163 net.cpp:425] inception_3b/pool <- inception_3a/output_inception_3a/output_0_split_3
I0403 15:07:32.313269 31163 net.cpp:399] inception_3b/pool -> inception_3b/pool
I0403 15:07:32.313330 31163 net.cpp:141] Setting up inception_3b/pool
I0403 15:07:32.313362 31163 net.cpp:148] Top shape: 24 256 28 28 (4816896)
I0403 15:07:32.313387 31163 net.cpp:156] Memory required for data: 763479072
I0403 15:07:32.313405 31163 layer_factory.hpp:77] Creating layer inception_3b/pool_proj
I0403 15:07:32.313436 31163 net.cpp:91] Creating Layer inception_3b/pool_proj
I0403 15:07:32.313459 31163 net.cpp:425] inception_3b/pool_proj <- inception_3b/pool
I0403 15:07:32.313482 31163 net.cpp:399] inception_3b/pool_proj -> inception_3b/pool_proj
I0403 15:07:32.314612 31163 net.cpp:141] Setting up inception_3b/pool_proj
I0403 15:07:32.314648 31163 net.cpp:148] Top shape: 24 64 28 28 (1204224)
I0403 15:07:32.314672 31163 net.cpp:156] Memory required for data: 768295968
I0403 15:07:32.314702 31163 layer_factory.hpp:77] Creating layer inception_3b/relu_pool_proj
I0403 15:07:32.314723 31163 net.cpp:91] Creating Layer inception_3b/relu_pool_proj
I0403 15:07:32.314744 31163 net.cpp:425] inception_3b/relu_pool_proj <- inception_3b/pool_proj
I0403 15:07:32.314774 31163 net.cpp:386] inception_3b/relu_pool_proj -> inception_3b/pool_proj (in-place)
I0403 15:07:32.315192 31163 net.cpp:141] Setting up inception_3b/relu_pool_proj
I0403 15:07:32.315223 31163 net.cpp:148] Top shape: 24 64 28 28 (1204224)
I0403 15:07:32.315240 31163 net.cpp:156] Memory required for data: 773112864
I0403 15:07:32.315256 31163 layer_factory.hpp:77] Creating layer inception_3b/output
I0403 15:07:32.315275 31163 net.cpp:91] Creating Layer inception_3b/output
I0403 15:07:32.315292 31163 net.cpp:425] inception_3b/output <- inception_3b/1x1
I0403 15:07:32.315310 31163 net.cpp:425] inception_3b/output <- inception_3b/3x3
I0403 15:07:32.315327 31163 net.cpp:425] inception_3b/output <- inception_3b/5x5
I0403 15:07:32.315345 31163 net.cpp:425] inception_3b/output <- inception_3b/pool_proj
I0403 15:07:32.315362 31163 net.cpp:399] inception_3b/output -> inception_3b/output
I0403 15:07:32.315410 31163 net.cpp:141] Setting up inception_3b/output
I0403 15:07:32.315435 31163 net.cpp:148] Top shape: 24 480 28 28 (9031680)
I0403 15:07:32.315450 31163 net.cpp:156] Memory required for data: 809239584
I0403 15:07:32.315466 31163 layer_factory.hpp:77] Creating layer pool3/3x3_s2
I0403 15:07:32.315487 31163 net.cpp:91] Creating Layer pool3/3x3_s2
I0403 15:07:32.315510 31163 net.cpp:425] pool3/3x3_s2 <- inception_3b/output
I0403 15:07:32.315546 31163 net.cpp:399] pool3/3x3_s2 -> pool3/3x3_s2
I0403 15:07:32.315609 31163 net.cpp:141] Setting up pool3/3x3_s2
I0403 15:07:32.315640 31163 net.cpp:148] Top shape: 24 480 14 14 (2257920)
I0403 15:07:32.315660 31163 net.cpp:156] Memory required for data: 818271264
I0403 15:07:32.315680 31163 layer_factory.hpp:77] Creating layer pool3/3x3_s2_pool3/3x3_s2_0_split
I0403 15:07:32.315699 31163 net.cpp:91] Creating Layer pool3/3x3_s2_pool3/3x3_s2_0_split
I0403 15:07:32.315721 31163 net.cpp:425] pool3/3x3_s2_pool3/3x3_s2_0_split <- pool3/3x3_s2
I0403 15:07:32.315754 31163 net.cpp:399] pool3/3x3_s2_pool3/3x3_s2_0_split -> pool3/3x3_s2_pool3/3x3_s2_0_split_0
I0403 15:07:32.315783 31163 net.cpp:399] pool3/3x3_s2_pool3/3x3_s2_0_split -> pool3/3x3_s2_pool3/3x3_s2_0_split_1
I0403 15:07:32.315809 31163 net.cpp:399] pool3/3x3_s2_pool3/3x3_s2_0_split -> pool3/3x3_s2_pool3/3x3_s2_0_split_2
I0403 15:07:32.315834 31163 net.cpp:399] pool3/3x3_s2_pool3/3x3_s2_0_split -> pool3/3x3_s2_pool3/3x3_s2_0_split_3
I0403 15:07:32.315922 31163 net.cpp:141] Setting up pool3/3x3_s2_pool3/3x3_s2_0_split
I0403 15:07:32.315954 31163 net.cpp:148] Top shape: 24 480 14 14 (2257920)
I0403 15:07:32.315973 31163 net.cpp:148] Top shape: 24 480 14 14 (2257920)
I0403 15:07:32.315994 31163 net.cpp:148] Top shape: 24 480 14 14 (2257920)
I0403 15:07:32.316020 31163 net.cpp:148] Top shape: 24 480 14 14 (2257920)
I0403 15:07:32.316040 31163 net.cpp:156] Memory required for data: 854397984
I0403 15:07:32.316061 31163 layer_factory.hpp:77] Creating layer inception_4a/1x1
I0403 15:07:32.316087 31163 net.cpp:91] Creating Layer inception_4a/1x1
I0403 15:07:32.316113 31163 net.cpp:425] inception_4a/1x1 <- pool3/3x3_s2_pool3/3x3_s2_0_split_0
I0403 15:07:32.316138 31163 net.cpp:399] inception_4a/1x1 -> inception_4a/1x1
I0403 15:07:32.317809 31163 net.cpp:141] Setting up inception_4a/1x1
I0403 15:07:32.317839 31163 net.cpp:148] Top shape: 24 192 14 14 (903168)
I0403 15:07:32.317857 31163 net.cpp:156] Memory required for data: 858010656
I0403 15:07:32.317876 31163 layer_factory.hpp:77] Creating layer inception_4a/relu_1x1
I0403 15:07:32.317896 31163 net.cpp:91] Creating Layer inception_4a/relu_1x1
I0403 15:07:32.317914 31163 net.cpp:425] inception_4a/relu_1x1 <- inception_4a/1x1
I0403 15:07:32.317934 31163 net.cpp:386] inception_4a/relu_1x1 -> inception_4a/1x1 (in-place)
I0403 15:07:32.318120 31163 net.cpp:141] Setting up inception_4a/relu_1x1
I0403 15:07:32.318146 31163 net.cpp:148] Top shape: 24 192 14 14 (903168)
I0403 15:07:32.318162 31163 net.cpp:156] Memory required for data: 861623328
I0403 15:07:32.318178 31163 layer_factory.hpp:77] Creating layer inception_4a/3x3_reduce
I0403 15:07:32.318202 31163 net.cpp:91] Creating Layer inception_4a/3x3_reduce
I0403 15:07:32.318220 31163 net.cpp:425] inception_4a/3x3_reduce <- pool3/3x3_s2_pool3/3x3_s2_0_split_1
I0403 15:07:32.318243 31163 net.cpp:399] inception_4a/3x3_reduce -> inception_4a/3x3_reduce
I0403 15:07:32.319602 31163 net.cpp:141] Setting up inception_4a/3x3_reduce
I0403 15:07:32.319636 31163 net.cpp:148] Top shape: 24 96 14 14 (451584)
I0403 15:07:32.319661 31163 net.cpp:156] Memory required for data: 863429664
I0403 15:07:32.319696 31163 layer_factory.hpp:77] Creating layer inception_4a/relu_3x3_reduce
I0403 15:07:32.319725 31163 net.cpp:91] Creating Layer inception_4a/relu_3x3_reduce
I0403 15:07:32.319747 31163 net.cpp:425] inception_4a/relu_3x3_reduce <- inception_4a/3x3_reduce
I0403 15:07:32.319768 31163 net.cpp:386] inception_4a/relu_3x3_reduce -> inception_4a/3x3_reduce (in-place)
I0403 15:07:32.319962 31163 net.cpp:141] Setting up inception_4a/relu_3x3_reduce
I0403 15:07:32.319998 31163 net.cpp:148] Top shape: 24 96 14 14 (451584)
I0403 15:07:32.320016 31163 net.cpp:156] Memory required for data: 865236000
I0403 15:07:32.320034 31163 layer_factory.hpp:77] Creating layer inception_4a/3x3
I0403 15:07:32.320063 31163 net.cpp:91] Creating Layer inception_4a/3x3
I0403 15:07:32.320089 31163 net.cpp:425] inception_4a/3x3 <- inception_4a/3x3_reduce
I0403 15:07:32.320118 31163 net.cpp:399] inception_4a/3x3 -> inception_4a/3x3
I0403 15:07:32.322955 31163 net.cpp:141] Setting up inception_4a/3x3
I0403 15:07:32.322986 31163 net.cpp:148] Top shape: 24 208 14 14 (978432)
I0403 15:07:32.323004 31163 net.cpp:156] Memory required for data: 869149728
I0403 15:07:32.323024 31163 layer_factory.hpp:77] Creating layer inception_4a/relu_3x3
I0403 15:07:32.323045 31163 net.cpp:91] Creating Layer inception_4a/relu_3x3
I0403 15:07:32.323063 31163 net.cpp:425] inception_4a/relu_3x3 <- inception_4a/3x3
I0403 15:07:32.323081 31163 net.cpp:386] inception_4a/relu_3x3 -> inception_4a/3x3 (in-place)
I0403 15:07:32.323374 31163 net.cpp:141] Setting up inception_4a/relu_3x3
I0403 15:07:32.323400 31163 net.cpp:148] Top shape: 24 208 14 14 (978432)
I0403 15:07:32.323417 31163 net.cpp:156] Memory required for data: 873063456
I0403 15:07:32.323433 31163 layer_factory.hpp:77] Creating layer inception_4a/5x5_reduce
I0403 15:07:32.323457 31163 net.cpp:91] Creating Layer inception_4a/5x5_reduce
I0403 15:07:32.323477 31163 net.cpp:425] inception_4a/5x5_reduce <- pool3/3x3_s2_pool3/3x3_s2_0_split_2
I0403 15:07:32.323499 31163 net.cpp:399] inception_4a/5x5_reduce -> inception_4a/5x5_reduce
I0403 15:07:32.324587 31163 net.cpp:141] Setting up inception_4a/5x5_reduce
I0403 15:07:32.324616 31163 net.cpp:148] Top shape: 24 16 14 14 (75264)
I0403 15:07:32.324635 31163 net.cpp:156] Memory required for data: 873364512
I0403 15:07:32.324653 31163 layer_factory.hpp:77] Creating layer inception_4a/relu_5x5_reduce
I0403 15:07:32.324676 31163 net.cpp:91] Creating Layer inception_4a/relu_5x5_reduce
I0403 15:07:32.324693 31163 net.cpp:425] inception_4a/relu_5x5_reduce <- inception_4a/5x5_reduce
I0403 15:07:32.324712 31163 net.cpp:386] inception_4a/relu_5x5_reduce -> inception_4a/5x5_reduce (in-place)
I0403 15:07:32.324901 31163 net.cpp:141] Setting up inception_4a/relu_5x5_reduce
I0403 15:07:32.324930 31163 net.cpp:148] Top shape: 24 16 14 14 (75264)
I0403 15:07:32.324947 31163 net.cpp:156] Memory required for data: 873665568
I0403 15:07:32.324964 31163 layer_factory.hpp:77] Creating layer inception_4a/5x5
I0403 15:07:32.324986 31163 net.cpp:91] Creating Layer inception_4a/5x5
I0403 15:07:32.325004 31163 net.cpp:425] inception_4a/5x5 <- inception_4a/5x5_reduce
I0403 15:07:32.325026 31163 net.cpp:399] inception_4a/5x5 -> inception_4a/5x5
I0403 15:07:32.326164 31163 net.cpp:141] Setting up inception_4a/5x5
I0403 15:07:32.326196 31163 net.cpp:148] Top shape: 24 48 14 14 (225792)
I0403 15:07:32.326213 31163 net.cpp:156] Memory required for data: 874568736
I0403 15:07:32.326233 31163 layer_factory.hpp:77] Creating layer inception_4a/relu_5x5
I0403 15:07:32.326253 31163 net.cpp:91] Creating Layer inception_4a/relu_5x5
I0403 15:07:32.326270 31163 net.cpp:425] inception_4a/relu_5x5 <- inception_4a/5x5
I0403 15:07:32.326292 31163 net.cpp:386] inception_4a/relu_5x5 -> inception_4a/5x5 (in-place)
I0403 15:07:32.326478 31163 net.cpp:141] Setting up inception_4a/relu_5x5
I0403 15:07:32.326509 31163 net.cpp:148] Top shape: 24 48 14 14 (225792)
I0403 15:07:32.326529 31163 net.cpp:156] Memory required for data: 875471904
I0403 15:07:32.326544 31163 layer_factory.hpp:77] Creating layer inception_4a/pool
I0403 15:07:32.326563 31163 net.cpp:91] Creating Layer inception_4a/pool
I0403 15:07:32.326581 31163 net.cpp:425] inception_4a/pool <- pool3/3x3_s2_pool3/3x3_s2_0_split_3
I0403 15:07:32.326602 31163 net.cpp:399] inception_4a/pool -> inception_4a/pool
I0403 15:07:32.326668 31163 net.cpp:141] Setting up inception_4a/pool
I0403 15:07:32.326694 31163 net.cpp:148] Top shape: 24 480 14 14 (2257920)
I0403 15:07:32.326709 31163 net.cpp:156] Memory required for data: 884503584
I0403 15:07:32.326725 31163 layer_factory.hpp:77] Creating layer inception_4a/pool_proj
I0403 15:07:32.326748 31163 net.cpp:91] Creating Layer inception_4a/pool_proj
I0403 15:07:32.326767 31163 net.cpp:425] inception_4a/pool_proj <- inception_4a/pool
I0403 15:07:32.326788 31163 net.cpp:399] inception_4a/pool_proj -> inception_4a/pool_proj
I0403 15:07:32.328022 31163 net.cpp:141] Setting up inception_4a/pool_proj
I0403 15:07:32.328052 31163 net.cpp:148] Top shape: 24 64 14 14 (301056)
I0403 15:07:32.328083 31163 net.cpp:156] Memory required for data: 885707808
I0403 15:07:32.328105 31163 layer_factory.hpp:77] Creating layer inception_4a/relu_pool_proj
I0403 15:07:32.328125 31163 net.cpp:91] Creating Layer inception_4a/relu_pool_proj
I0403 15:07:32.328142 31163 net.cpp:425] inception_4a/relu_pool_proj <- inception_4a/pool_proj
I0403 15:07:32.328164 31163 net.cpp:386] inception_4a/relu_pool_proj -> inception_4a/pool_proj (in-place)
I0403 15:07:32.328465 31163 net.cpp:141] Setting up inception_4a/relu_pool_proj
I0403 15:07:32.328493 31163 net.cpp:148] Top shape: 24 64 14 14 (301056)
I0403 15:07:32.328516 31163 net.cpp:156] Memory required for data: 886912032
I0403 15:07:32.328532 31163 layer_factory.hpp:77] Creating layer inception_4a/output
I0403 15:07:32.328552 31163 net.cpp:91] Creating Layer inception_4a/output
I0403 15:07:32.328574 31163 net.cpp:425] inception_4a/output <- inception_4a/1x1
I0403 15:07:32.328591 31163 net.cpp:425] inception_4a/output <- inception_4a/3x3
I0403 15:07:32.328609 31163 net.cpp:425] inception_4a/output <- inception_4a/5x5
I0403 15:07:32.328626 31163 net.cpp:425] inception_4a/output <- inception_4a/pool_proj
I0403 15:07:32.328647 31163 net.cpp:399] inception_4a/output -> inception_4a/output
I0403 15:07:32.328694 31163 net.cpp:141] Setting up inception_4a/output
I0403 15:07:32.328722 31163 net.cpp:148] Top shape: 24 512 14 14 (2408448)
I0403 15:07:32.328738 31163 net.cpp:156] Memory required for data: 896545824
I0403 15:07:32.328754 31163 layer_factory.hpp:77] Creating layer inception_4a/output_inception_4a/output_0_split
I0403 15:07:32.328773 31163 net.cpp:91] Creating Layer inception_4a/output_inception_4a/output_0_split
I0403 15:07:32.328790 31163 net.cpp:425] inception_4a/output_inception_4a/output_0_split <- inception_4a/output
I0403 15:07:32.328809 31163 net.cpp:399] inception_4a/output_inception_4a/output_0_split -> inception_4a/output_inception_4a/output_0_split_0
I0403 15:07:32.328832 31163 net.cpp:399] inception_4a/output_inception_4a/output_0_split -> inception_4a/output_inception_4a/output_0_split_1
I0403 15:07:32.328855 31163 net.cpp:399] inception_4a/output_inception_4a/output_0_split -> inception_4a/output_inception_4a/output_0_split_2
I0403 15:07:32.328876 31163 net.cpp:399] inception_4a/output_inception_4a/output_0_split -> inception_4a/output_inception_4a/output_0_split_3
I0403 15:07:32.328897 31163 net.cpp:399] inception_4a/output_inception_4a/output_0_split -> inception_4a/output_inception_4a/output_0_split_4
I0403 15:07:32.329005 31163 net.cpp:141] Setting up inception_4a/output_inception_4a/output_0_split
I0403 15:07:32.329030 31163 net.cpp:148] Top shape: 24 512 14 14 (2408448)
I0403 15:07:32.329046 31163 net.cpp:148] Top shape: 24 512 14 14 (2408448)
I0403 15:07:32.329063 31163 net.cpp:148] Top shape: 24 512 14 14 (2408448)
I0403 15:07:32.329080 31163 net.cpp:148] Top shape: 24 512 14 14 (2408448)
I0403 15:07:32.329097 31163 net.cpp:148] Top shape: 24 512 14 14 (2408448)
I0403 15:07:32.329112 31163 net.cpp:156] Memory required for data: 944714784
I0403 15:07:32.329128 31163 layer_factory.hpp:77] Creating layer loss1/ave_pool
I0403 15:07:32.329162 31163 net.cpp:91] Creating Layer loss1/ave_pool
I0403 15:07:32.329183 31163 net.cpp:425] loss1/ave_pool <- inception_4a/output_inception_4a/output_0_split_0
I0403 15:07:32.329203 31163 net.cpp:399] loss1/ave_pool -> loss1/ave_pool
I0403 15:07:32.329426 31163 net.cpp:141] Setting up loss1/ave_pool
I0403 15:07:32.329452 31163 net.cpp:148] Top shape: 24 512 4 4 (196608)
I0403 15:07:32.329468 31163 net.cpp:156] Memory required for data: 945501216
I0403 15:07:32.329485 31163 layer_factory.hpp:77] Creating layer loss1/conv
I0403 15:07:32.329514 31163 net.cpp:91] Creating Layer loss1/conv
I0403 15:07:32.329533 31163 net.cpp:425] loss1/conv <- loss1/ave_pool
I0403 15:07:32.329555 31163 net.cpp:399] loss1/conv -> loss1/conv
I0403 15:07:32.331039 31163 net.cpp:141] Setting up loss1/conv
I0403 15:07:32.331079 31163 net.cpp:148] Top shape: 24 128 4 4 (49152)
I0403 15:07:32.331141 31163 net.cpp:156] Memory required for data: 945697824
I0403 15:07:32.331195 31163 layer_factory.hpp:77] Creating layer loss1/relu_conv
I0403 15:07:32.331238 31163 net.cpp:91] Creating Layer loss1/relu_conv
I0403 15:07:32.331256 31163 net.cpp:425] loss1/relu_conv <- loss1/conv
I0403 15:07:32.331274 31163 net.cpp:386] loss1/relu_conv -> loss1/conv (in-place)
I0403 15:07:32.331599 31163 net.cpp:141] Setting up loss1/relu_conv
I0403 15:07:32.331629 31163 net.cpp:148] Top shape: 24 128 4 4 (49152)
I0403 15:07:32.331645 31163 net.cpp:156] Memory required for data: 945894432
I0403 15:07:32.331660 31163 layer_factory.hpp:77] Creating layer loss1/fc
I0403 15:07:32.331691 31163 net.cpp:91] Creating Layer loss1/fc
I0403 15:07:32.331710 31163 net.cpp:425] loss1/fc <- loss1/conv
I0403 15:07:32.331730 31163 net.cpp:399] loss1/fc -> loss1/fc
I0403 15:07:32.350216 31163 net.cpp:141] Setting up loss1/fc
I0403 15:07:32.350251 31163 net.cpp:148] Top shape: 24 1024 (24576)
I0403 15:07:32.350267 31163 net.cpp:156] Memory required for data: 945992736
I0403 15:07:32.350287 31163 layer_factory.hpp:77] Creating layer loss1/relu_fc
I0403 15:07:32.350306 31163 net.cpp:91] Creating Layer loss1/relu_fc
I0403 15:07:32.350323 31163 net.cpp:425] loss1/relu_fc <- loss1/fc
I0403 15:07:32.350344 31163 net.cpp:386] loss1/relu_fc -> loss1/fc (in-place)
I0403 15:07:32.350544 31163 net.cpp:141] Setting up loss1/relu_fc
I0403 15:07:32.350572 31163 net.cpp:148] Top shape: 24 1024 (24576)
I0403 15:07:32.350589 31163 net.cpp:156] Memory required for data: 946091040
I0403 15:07:32.350605 31163 layer_factory.hpp:77] Creating layer loss1/drop_fc
I0403 15:07:32.350633 31163 net.cpp:91] Creating Layer loss1/drop_fc
I0403 15:07:32.350651 31163 net.cpp:425] loss1/drop_fc <- loss1/fc
I0403 15:07:32.350671 31163 net.cpp:386] loss1/drop_fc -> loss1/fc (in-place)
I0403 15:07:32.350724 31163 net.cpp:141] Setting up loss1/drop_fc
I0403 15:07:32.350751 31163 net.cpp:148] Top shape: 24 1024 (24576)
I0403 15:07:32.350769 31163 net.cpp:156] Memory required for data: 946189344
I0403 15:07:32.350785 31163 layer_factory.hpp:77] Creating layer loss1/classifier_plantvillage
I0403 15:07:32.350803 31163 net.cpp:91] Creating Layer loss1/classifier_plantvillage
I0403 15:07:32.350819 31163 net.cpp:425] loss1/classifier_plantvillage <- loss1/fc
I0403 15:07:32.350841 31163 net.cpp:399] loss1/classifier_plantvillage -> loss1/classifier_plantvillage
I0403 15:07:32.351775 31163 net.cpp:141] Setting up loss1/classifier_plantvillage
I0403 15:07:32.351804 31163 net.cpp:148] Top shape: 24 38 (912)
I0403 15:07:32.351820 31163 net.cpp:156] Memory required for data: 946192992
I0403 15:07:32.351840 31163 layer_factory.hpp:77] Creating layer loss1/classifier_plantvillage_loss1/classifier_plantvillage_0_split
I0403 15:07:32.351861 31163 net.cpp:91] Creating Layer loss1/classifier_plantvillage_loss1/classifier_plantvillage_0_split
I0403 15:07:32.351878 31163 net.cpp:425] loss1/classifier_plantvillage_loss1/classifier_plantvillage_0_split <- loss1/classifier_plantvillage
I0403 15:07:32.351897 31163 net.cpp:399] loss1/classifier_plantvillage_loss1/classifier_plantvillage_0_split -> loss1/classifier_plantvillage_loss1/classifier_plantvillage_0_split_0
I0403 15:07:32.351918 31163 net.cpp:399] loss1/classifier_plantvillage_loss1/classifier_plantvillage_0_split -> loss1/classifier_plantvillage_loss1/classifier_plantvillage_0_split_1
I0403 15:07:32.351938 31163 net.cpp:399] loss1/classifier_plantvillage_loss1/classifier_plantvillage_0_split -> loss1/classifier_plantvillage_loss1/classifier_plantvillage_0_split_2
I0403 15:07:32.352005 31163 net.cpp:141] Setting up loss1/classifier_plantvillage_loss1/classifier_plantvillage_0_split
I0403 15:07:32.352030 31163 net.cpp:148] Top shape: 24 38 (912)
I0403 15:07:32.352047 31163 net.cpp:148] Top shape: 24 38 (912)
I0403 15:07:32.352064 31163 net.cpp:148] Top shape: 24 38 (912)
I0403 15:07:32.352078 31163 net.cpp:156] Memory required for data: 946203936
I0403 15:07:32.352093 31163 layer_factory.hpp:77] Creating layer inception_4b/1x1
I0403 15:07:32.352114 31163 net.cpp:91] Creating Layer inception_4b/1x1
I0403 15:07:32.352147 31163 net.cpp:425] inception_4b/1x1 <- inception_4a/output_inception_4a/output_0_split_1
I0403 15:07:32.352169 31163 net.cpp:399] inception_4b/1x1 -> inception_4b/1x1
I0403 15:07:32.353859 31163 net.cpp:141] Setting up inception_4b/1x1
I0403 15:07:32.353888 31163 net.cpp:148] Top shape: 24 160 14 14 (752640)
I0403 15:07:32.353904 31163 net.cpp:156] Memory required for data: 949214496
I0403 15:07:32.353924 31163 layer_factory.hpp:77] Creating layer inception_4b/relu_1x1
I0403 15:07:32.353945 31163 net.cpp:91] Creating Layer inception_4b/relu_1x1
I0403 15:07:32.353962 31163 net.cpp:425] inception_4b/relu_1x1 <- inception_4b/1x1
I0403 15:07:32.353981 31163 net.cpp:386] inception_4b/relu_1x1 -> inception_4b/1x1 (in-place)
I0403 15:07:32.354164 31163 net.cpp:141] Setting up inception_4b/relu_1x1
I0403 15:07:32.354192 31163 net.cpp:148] Top shape: 24 160 14 14 (752640)
I0403 15:07:32.354212 31163 net.cpp:156] Memory required for data: 952225056
I0403 15:07:32.354228 31163 layer_factory.hpp:77] Creating layer inception_4b/3x3_reduce
I0403 15:07:32.354252 31163 net.cpp:91] Creating Layer inception_4b/3x3_reduce
I0403 15:07:32.354270 31163 net.cpp:425] inception_4b/3x3_reduce <- inception_4a/output_inception_4a/output_0_split_2
I0403 15:07:32.354290 31163 net.cpp:399] inception_4b/3x3_reduce -> inception_4b/3x3_reduce
I0403 15:07:32.355782 31163 net.cpp:141] Setting up inception_4b/3x3_reduce
I0403 15:07:32.355813 31163 net.cpp:148] Top shape: 24 112 14 14 (526848)
I0403 15:07:32.355830 31163 net.cpp:156] Memory required for data: 954332448
I0403 15:07:32.355849 31163 layer_factory.hpp:77] Creating layer inception_4b/relu_3x3_reduce
I0403 15:07:32.355868 31163 net.cpp:91] Creating Layer inception_4b/relu_3x3_reduce
I0403 15:07:32.355885 31163 net.cpp:425] inception_4b/relu_3x3_reduce <- inception_4b/3x3_reduce
I0403 15:07:32.355904 31163 net.cpp:386] inception_4b/relu_3x3_reduce -> inception_4b/3x3_reduce (in-place)
I0403 15:07:32.356195 31163 net.cpp:141] Setting up inception_4b/relu_3x3_reduce
I0403 15:07:32.356225 31163 net.cpp:148] Top shape: 24 112 14 14 (526848)
I0403 15:07:32.356242 31163 net.cpp:156] Memory required for data: 956439840
I0403 15:07:32.356257 31163 layer_factory.hpp:77] Creating layer inception_4b/3x3
I0403 15:07:32.356281 31163 net.cpp:91] Creating Layer inception_4b/3x3
I0403 15:07:32.356299 31163 net.cpp:425] inception_4b/3x3 <- inception_4b/3x3_reduce
I0403 15:07:32.356318 31163 net.cpp:399] inception_4b/3x3 -> inception_4b/3x3
I0403 15:07:32.359387 31163 net.cpp:141] Setting up inception_4b/3x3
I0403 15:07:32.359417 31163 net.cpp:148] Top shape: 24 224 14 14 (1053696)
I0403 15:07:32.359433 31163 net.cpp:156] Memory required for data: 960654624
I0403 15:07:32.359453 31163 layer_factory.hpp:77] Creating layer inception_4b/relu_3x3
I0403 15:07:32.359474 31163 net.cpp:91] Creating Layer inception_4b/relu_3x3
I0403 15:07:32.359491 31163 net.cpp:425] inception_4b/relu_3x3 <- inception_4b/3x3
I0403 15:07:32.359514 31163 net.cpp:386] inception_4b/relu_3x3 -> inception_4b/3x3 (in-place)
I0403 15:07:32.359700 31163 net.cpp:141] Setting up inception_4b/relu_3x3
I0403 15:07:32.359726 31163 net.cpp:148] Top shape: 24 224 14 14 (1053696)
I0403 15:07:32.359741 31163 net.cpp:156] Memory required for data: 964869408
I0403 15:07:32.359756 31163 layer_factory.hpp:77] Creating layer inception_4b/5x5_reduce
I0403 15:07:32.359779 31163 net.cpp:91] Creating Layer inception_4b/5x5_reduce
I0403 15:07:32.359798 31163 net.cpp:425] inception_4b/5x5_reduce <- inception_4a/output_inception_4a/output_0_split_3
I0403 15:07:32.359822 31163 net.cpp:399] inception_4b/5x5_reduce -> inception_4b/5x5_reduce
I0403 15:07:32.361027 31163 net.cpp:141] Setting up inception_4b/5x5_reduce
I0403 15:07:32.361057 31163 net.cpp:148] Top shape: 24 24 14 14 (112896)
I0403 15:07:32.361073 31163 net.cpp:156] Memory required for data: 965320992
I0403 15:07:32.361091 31163 layer_factory.hpp:77] Creating layer inception_4b/relu_5x5_reduce
I0403 15:07:32.361112 31163 net.cpp:91] Creating Layer inception_4b/relu_5x5_reduce
I0403 15:07:32.361145 31163 net.cpp:425] inception_4b/relu_5x5_reduce <- inception_4b/5x5_reduce
I0403 15:07:32.361163 31163 net.cpp:386] inception_4b/relu_5x5_reduce -> inception_4b/5x5_reduce (in-place)
I0403 15:07:32.361351 31163 net.cpp:141] Setting up inception_4b/relu_5x5_reduce
I0403 15:07:32.361377 31163 net.cpp:148] Top shape: 24 24 14 14 (112896)
I0403 15:07:32.361392 31163 net.cpp:156] Memory required for data: 965772576
I0403 15:07:32.361408 31163 layer_factory.hpp:77] Creating layer inception_4b/5x5
I0403 15:07:32.361431 31163 net.cpp:91] Creating Layer inception_4b/5x5
I0403 15:07:32.361449 31163 net.cpp:425] inception_4b/5x5 <- inception_4b/5x5_reduce
I0403 15:07:32.361471 31163 net.cpp:399] inception_4b/5x5 -> inception_4b/5x5
I0403 15:07:32.362746 31163 net.cpp:141] Setting up inception_4b/5x5
I0403 15:07:32.362773 31163 net.cpp:148] Top shape: 24 64 14 14 (301056)
I0403 15:07:32.362792 31163 net.cpp:156] Memory required for data: 966976800
I0403 15:07:32.362812 31163 layer_factory.hpp:77] Creating layer inception_4b/relu_5x5
I0403 15:07:32.362833 31163 net.cpp:91] Creating Layer inception_4b/relu_5x5
I0403 15:07:32.362849 31163 net.cpp:425] inception_4b/relu_5x5 <- inception_4b/5x5
I0403 15:07:32.362867 31163 net.cpp:386] inception_4b/relu_5x5 -> inception_4b/5x5 (in-place)
I0403 15:07:32.363162 31163 net.cpp:141] Setting up inception_4b/relu_5x5
I0403 15:07:32.363188 31163 net.cpp:148] Top shape: 24 64 14 14 (301056)
I0403 15:07:32.363204 31163 net.cpp:156] Memory required for data: 968181024
I0403 15:07:32.363219 31163 layer_factory.hpp:77] Creating layer inception_4b/pool
I0403 15:07:32.363241 31163 net.cpp:91] Creating Layer inception_4b/pool
I0403 15:07:32.363260 31163 net.cpp:425] inception_4b/pool <- inception_4a/output_inception_4a/output_0_split_4
I0403 15:07:32.363281 31163 net.cpp:399] inception_4b/pool -> inception_4b/pool
I0403 15:07:32.363349 31163 net.cpp:141] Setting up inception_4b/pool
I0403 15:07:32.363373 31163 net.cpp:148] Top shape: 24 512 14 14 (2408448)
I0403 15:07:32.363389 31163 net.cpp:156] Memory required for data: 977814816
I0403 15:07:32.363404 31163 layer_factory.hpp:77] Creating layer inception_4b/pool_proj
I0403 15:07:32.363426 31163 net.cpp:91] Creating Layer inception_4b/pool_proj
I0403 15:07:32.363445 31163 net.cpp:425] inception_4b/pool_proj <- inception_4b/pool
I0403 15:07:32.363466 31163 net.cpp:399] inception_4b/pool_proj -> inception_4b/pool_proj
I0403 15:07:32.364720 31163 net.cpp:141] Setting up inception_4b/pool_proj
I0403 15:07:32.364759 31163 net.cpp:148] Top shape: 24 64 14 14 (301056)
I0403 15:07:32.364780 31163 net.cpp:156] Memory required for data: 979019040
I0403 15:07:32.364800 31163 layer_factory.hpp:77] Creating layer inception_4b/relu_pool_proj
I0403 15:07:32.364820 31163 net.cpp:91] Creating Layer inception_4b/relu_pool_proj
I0403 15:07:32.364836 31163 net.cpp:425] inception_4b/relu_pool_proj <- inception_4b/pool_proj
I0403 15:07:32.364855 31163 net.cpp:386] inception_4b/relu_pool_proj -> inception_4b/pool_proj (in-place)
I0403 15:07:32.365041 31163 net.cpp:141] Setting up inception_4b/relu_pool_proj
I0403 15:07:32.365067 31163 net.cpp:148] Top shape: 24 64 14 14 (301056)
I0403 15:07:32.365084 31163 net.cpp:156] Memory required for data: 980223264
I0403 15:07:32.365100 31163 layer_factory.hpp:77] Creating layer inception_4b/output
I0403 15:07:32.365118 31163 net.cpp:91] Creating Layer inception_4b/output
I0403 15:07:32.365134 31163 net.cpp:425] inception_4b/output <- inception_4b/1x1
I0403 15:07:32.365150 31163 net.cpp:425] inception_4b/output <- inception_4b/3x3
I0403 15:07:32.365166 31163 net.cpp:425] inception_4b/output <- inception_4b/5x5
I0403 15:07:32.365183 31163 net.cpp:425] inception_4b/output <- inception_4b/pool_proj
I0403 15:07:32.365202 31163 net.cpp:399] inception_4b/output -> inception_4b/output
I0403 15:07:32.365250 31163 net.cpp:141] Setting up inception_4b/output
I0403 15:07:32.365273 31163 net.cpp:148] Top shape: 24 512 14 14 (2408448)
I0403 15:07:32.365288 31163 net.cpp:156] Memory required for data: 989857056
I0403 15:07:32.365319 31163 layer_factory.hpp:77] Creating layer inception_4b/output_inception_4b/output_0_split
I0403 15:07:32.365339 31163 net.cpp:91] Creating Layer inception_4b/output_inception_4b/output_0_split
I0403 15:07:32.365356 31163 net.cpp:425] inception_4b/output_inception_4b/output_0_split <- inception_4b/output
I0403 15:07:32.365373 31163 net.cpp:399] inception_4b/output_inception_4b/output_0_split -> inception_4b/output_inception_4b/output_0_split_0
I0403 15:07:32.365394 31163 net.cpp:399] inception_4b/output_inception_4b/output_0_split -> inception_4b/output_inception_4b/output_0_split_1
I0403 15:07:32.365418 31163 net.cpp:399] inception_4b/output_inception_4b/output_0_split -> inception_4b/output_inception_4b/output_0_split_2
I0403 15:07:32.365453 31163 net.cpp:399] inception_4b/output_inception_4b/output_0_split -> inception_4b/output_inception_4b/output_0_split_3
I0403 15:07:32.365547 31163 net.cpp:141] Setting up inception_4b/output_inception_4b/output_0_split
I0403 15:07:32.365572 31163 net.cpp:148] Top shape: 24 512 14 14 (2408448)
I0403 15:07:32.365591 31163 net.cpp:148] Top shape: 24 512 14 14 (2408448)
I0403 15:07:32.365607 31163 net.cpp:148] Top shape: 24 512 14 14 (2408448)
I0403 15:07:32.365623 31163 net.cpp:148] Top shape: 24 512 14 14 (2408448)
I0403 15:07:32.365638 31163 net.cpp:156] Memory required for data: 1028392224
I0403 15:07:32.365654 31163 layer_factory.hpp:77] Creating layer inception_4c/1x1
I0403 15:07:32.365679 31163 net.cpp:91] Creating Layer inception_4c/1x1
I0403 15:07:32.365710 31163 net.cpp:425] inception_4c/1x1 <- inception_4b/output_inception_4b/output_0_split_0
I0403 15:07:32.365737 31163 net.cpp:399] inception_4c/1x1 -> inception_4c/1x1
I0403 15:07:32.367321 31163 net.cpp:141] Setting up inception_4c/1x1
I0403 15:07:32.367352 31163 net.cpp:148] Top shape: 24 128 14 14 (602112)
I0403 15:07:32.367370 31163 net.cpp:156] Memory required for data: 1030800672
I0403 15:07:32.367390 31163 layer_factory.hpp:77] Creating layer inception_4c/relu_1x1
I0403 15:07:32.367409 31163 net.cpp:91] Creating Layer inception_4c/relu_1x1
I0403 15:07:32.367425 31163 net.cpp:425] inception_4c/relu_1x1 <- inception_4c/1x1
I0403 15:07:32.367445 31163 net.cpp:386] inception_4c/relu_1x1 -> inception_4c/1x1 (in-place)
I0403 15:07:32.367635 31163 net.cpp:141] Setting up inception_4c/relu_1x1
I0403 15:07:32.367662 31163 net.cpp:148] Top shape: 24 128 14 14 (602112)
I0403 15:07:32.367677 31163 net.cpp:156] Memory required for data: 1033209120
I0403 15:07:32.367693 31163 layer_factory.hpp:77] Creating layer inception_4c/3x3_reduce
I0403 15:07:32.367715 31163 net.cpp:91] Creating Layer inception_4c/3x3_reduce
I0403 15:07:32.367734 31163 net.cpp:425] inception_4c/3x3_reduce <- inception_4b/output_inception_4b/output_0_split_1
I0403 15:07:32.367755 31163 net.cpp:399] inception_4c/3x3_reduce -> inception_4c/3x3_reduce
I0403 15:07:32.369807 31163 net.cpp:141] Setting up inception_4c/3x3_reduce
I0403 15:07:32.369837 31163 net.cpp:148] Top shape: 24 128 14 14 (602112)
I0403 15:07:32.369853 31163 net.cpp:156] Memory required for data: 1035617568
I0403 15:07:32.369873 31163 layer_factory.hpp:77] Creating layer inception_4c/relu_3x3_reduce
I0403 15:07:32.369894 31163 net.cpp:91] Creating Layer inception_4c/relu_3x3_reduce
I0403 15:07:32.369910 31163 net.cpp:425] inception_4c/relu_3x3_reduce <- inception_4c/3x3_reduce
I0403 15:07:32.369930 31163 net.cpp:386] inception_4c/relu_3x3_reduce -> inception_4c/3x3_reduce (in-place)
I0403 15:07:32.370221 31163 net.cpp:141] Setting up inception_4c/relu_3x3_reduce
I0403 15:07:32.370249 31163 net.cpp:148] Top shape: 24 128 14 14 (602112)
I0403 15:07:32.370263 31163 net.cpp:156] Memory required for data: 1038026016
I0403 15:07:32.370278 31163 layer_factory.hpp:77] Creating layer inception_4c/3x3
I0403 15:07:32.370301 31163 net.cpp:91] Creating Layer inception_4c/3x3
I0403 15:07:32.370319 31163 net.cpp:425] inception_4c/3x3 <- inception_4c/3x3_reduce
I0403 15:07:32.370342 31163 net.cpp:399] inception_4c/3x3 -> inception_4c/3x3
I0403 15:07:32.374095 31163 net.cpp:141] Setting up inception_4c/3x3
I0403 15:07:32.374140 31163 net.cpp:148] Top shape: 24 256 14 14 (1204224)
I0403 15:07:32.374156 31163 net.cpp:156] Memory required for data: 1042842912
I0403 15:07:32.374189 31163 layer_factory.hpp:77] Creating layer inception_4c/relu_3x3
I0403 15:07:32.374213 31163 net.cpp:91] Creating Layer inception_4c/relu_3x3
I0403 15:07:32.374230 31163 net.cpp:425] inception_4c/relu_3x3 <- inception_4c/3x3
I0403 15:07:32.374248 31163 net.cpp:386] inception_4c/relu_3x3 -> inception_4c/3x3 (in-place)
I0403 15:07:32.374436 31163 net.cpp:141] Setting up inception_4c/relu_3x3
I0403 15:07:32.374462 31163 net.cpp:148] Top shape: 24 256 14 14 (1204224)
I0403 15:07:32.374477 31163 net.cpp:156] Memory required for data: 1047659808
I0403 15:07:32.374493 31163 layer_factory.hpp:77] Creating layer inception_4c/5x5_reduce
I0403 15:07:32.374524 31163 net.cpp:91] Creating Layer inception_4c/5x5_reduce
I0403 15:07:32.374544 31163 net.cpp:425] inception_4c/5x5_reduce <- inception_4b/output_inception_4b/output_0_split_2
I0403 15:07:32.374565 31163 net.cpp:399] inception_4c/5x5_reduce -> inception_4c/5x5_reduce
I0403 15:07:32.375679 31163 net.cpp:141] Setting up inception_4c/5x5_reduce
I0403 15:07:32.375708 31163 net.cpp:148] Top shape: 24 24 14 14 (112896)
I0403 15:07:32.375725 31163 net.cpp:156] Memory required for data: 1048111392
I0403 15:07:32.375744 31163 layer_factory.hpp:77] Creating layer inception_4c/relu_5x5_reduce
I0403 15:07:32.375766 31163 net.cpp:91] Creating Layer inception_4c/relu_5x5_reduce
I0403 15:07:32.375782 31163 net.cpp:425] inception_4c/relu_5x5_reduce <- inception_4c/5x5_reduce
I0403 15:07:32.375800 31163 net.cpp:386] inception_4c/relu_5x5_reduce -> inception_4c/5x5_reduce (in-place)
I0403 15:07:32.375987 31163 net.cpp:141] Setting up inception_4c/relu_5x5_reduce
I0403 15:07:32.376013 31163 net.cpp:148] Top shape: 24 24 14 14 (112896)
I0403 15:07:32.376029 31163 net.cpp:156] Memory required for data: 1048562976
I0403 15:07:32.376044 31163 layer_factory.hpp:77] Creating layer inception_4c/5x5
I0403 15:07:32.376066 31163 net.cpp:91] Creating Layer inception_4c/5x5
I0403 15:07:32.376085 31163 net.cpp:425] inception_4c/5x5 <- inception_4c/5x5_reduce
I0403 15:07:32.376107 31163 net.cpp:399] inception_4c/5x5 -> inception_4c/5x5
I0403 15:07:32.377393 31163 net.cpp:141] Setting up inception_4c/5x5
I0403 15:07:32.377424 31163 net.cpp:148] Top shape: 24 64 14 14 (301056)
I0403 15:07:32.377440 31163 net.cpp:156] Memory required for data: 1049767200
I0403 15:07:32.377460 31163 layer_factory.hpp:77] Creating layer inception_4c/relu_5x5
I0403 15:07:32.377480 31163 net.cpp:91] Creating Layer inception_4c/relu_5x5
I0403 15:07:32.377496 31163 net.cpp:425] inception_4c/relu_5x5 <- inception_4c/5x5
I0403 15:07:32.377521 31163 net.cpp:386] inception_4c/relu_5x5 -> inception_4c/5x5 (in-place)
I0403 15:07:32.377820 31163 net.cpp:141] Setting up inception_4c/relu_5x5
I0403 15:07:32.377848 31163 net.cpp:148] Top shape: 24 64 14 14 (301056)
I0403 15:07:32.377866 31163 net.cpp:156] Memory required for data: 1050971424
I0403 15:07:32.377882 31163 layer_factory.hpp:77] Creating layer inception_4c/pool
I0403 15:07:32.377900 31163 net.cpp:91] Creating Layer inception_4c/pool
I0403 15:07:32.377917 31163 net.cpp:425] inception_4c/pool <- inception_4b/output_inception_4b/output_0_split_3
I0403 15:07:32.377938 31163 net.cpp:399] inception_4c/pool -> inception_4c/pool
I0403 15:07:32.378005 31163 net.cpp:141] Setting up inception_4c/pool
I0403 15:07:32.378031 31163 net.cpp:148] Top shape: 24 512 14 14 (2408448)
I0403 15:07:32.378048 31163 net.cpp:156] Memory required for data: 1060605216
I0403 15:07:32.378063 31163 layer_factory.hpp:77] Creating layer inception_4c/pool_proj
I0403 15:07:32.378084 31163 net.cpp:91] Creating Layer inception_4c/pool_proj
I0403 15:07:32.378103 31163 net.cpp:425] inception_4c/pool_proj <- inception_4c/pool
I0403 15:07:32.378123 31163 net.cpp:399] inception_4c/pool_proj -> inception_4c/pool_proj
I0403 15:07:32.379472 31163 net.cpp:141] Setting up inception_4c/pool_proj
I0403 15:07:32.379505 31163 net.cpp:148] Top shape: 24 64 14 14 (301056)
I0403 15:07:32.379536 31163 net.cpp:156] Memory required for data: 1061809440
I0403 15:07:32.379556 31163 layer_factory.hpp:77] Creating layer inception_4c/relu_pool_proj
I0403 15:07:32.379582 31163 net.cpp:91] Creating Layer inception_4c/relu_pool_proj
I0403 15:07:32.379600 31163 net.cpp:425] inception_4c/relu_pool_proj <- inception_4c/pool_proj
I0403 15:07:32.379617 31163 net.cpp:386] inception_4c/relu_pool_proj -> inception_4c/pool_proj (in-place)
I0403 15:07:32.379807 31163 net.cpp:141] Setting up inception_4c/relu_pool_proj
I0403 15:07:32.379835 31163 net.cpp:148] Top shape: 24 64 14 14 (301056)
I0403 15:07:32.379853 31163 net.cpp:156] Memory required for data: 1063013664
I0403 15:07:32.379868 31163 layer_factory.hpp:77] Creating layer inception_4c/output
I0403 15:07:32.379886 31163 net.cpp:91] Creating Layer inception_4c/output
I0403 15:07:32.379902 31163 net.cpp:425] inception_4c/output <- inception_4c/1x1
I0403 15:07:32.379920 31163 net.cpp:425] inception_4c/output <- inception_4c/3x3
I0403 15:07:32.379935 31163 net.cpp:425] inception_4c/output <- inception_4c/5x5
I0403 15:07:32.379952 31163 net.cpp:425] inception_4c/output <- inception_4c/pool_proj
I0403 15:07:32.379972 31163 net.cpp:399] inception_4c/output -> inception_4c/output
I0403 15:07:32.380022 31163 net.cpp:141] Setting up inception_4c/output
I0403 15:07:32.380044 31163 net.cpp:148] Top shape: 24 512 14 14 (2408448)
I0403 15:07:32.380059 31163 net.cpp:156] Memory required for data: 1072647456
I0403 15:07:32.380074 31163 layer_factory.hpp:77] Creating layer inception_4c/output_inception_4c/output_0_split
I0403 15:07:32.380095 31163 net.cpp:91] Creating Layer inception_4c/output_inception_4c/output_0_split
I0403 15:07:32.380111 31163 net.cpp:425] inception_4c/output_inception_4c/output_0_split <- inception_4c/output
I0403 15:07:32.380130 31163 net.cpp:399] inception_4c/output_inception_4c/output_0_split -> inception_4c/output_inception_4c/output_0_split_0
I0403 15:07:32.380151 31163 net.cpp:399] inception_4c/output_inception_4c/output_0_split -> inception_4c/output_inception_4c/output_0_split_1
I0403 15:07:32.380177 31163 net.cpp:399] inception_4c/output_inception_4c/output_0_split -> inception_4c/output_inception_4c/output_0_split_2
I0403 15:07:32.380198 31163 net.cpp:399] inception_4c/output_inception_4c/output_0_split -> inception_4c/output_inception_4c/output_0_split_3
I0403 15:07:32.380287 31163 net.cpp:141] Setting up inception_4c/output_inception_4c/output_0_split
I0403 15:07:32.380311 31163 net.cpp:148] Top shape: 24 512 14 14 (2408448)
I0403 15:07:32.380328 31163 net.cpp:148] Top shape: 24 512 14 14 (2408448)
I0403 15:07:32.380344 31163 net.cpp:148] Top shape: 24 512 14 14 (2408448)
I0403 15:07:32.380360 31163 net.cpp:148] Top shape: 24 512 14 14 (2408448)
I0403 15:07:32.380375 31163 net.cpp:156] Memory required for data: 1111182624
I0403 15:07:32.380391 31163 layer_factory.hpp:77] Creating layer inception_4d/1x1
I0403 15:07:32.380414 31163 net.cpp:91] Creating Layer inception_4d/1x1
I0403 15:07:32.380432 31163 net.cpp:425] inception_4d/1x1 <- inception_4c/output_inception_4c/output_0_split_0
I0403 15:07:32.380453 31163 net.cpp:399] inception_4d/1x1 -> inception_4d/1x1
I0403 15:07:32.381889 31163 net.cpp:141] Setting up inception_4d/1x1
I0403 15:07:32.381918 31163 net.cpp:148] Top shape: 24 112 14 14 (526848)
I0403 15:07:32.381934 31163 net.cpp:156] Memory required for data: 1113290016
I0403 15:07:32.381954 31163 layer_factory.hpp:77] Creating layer inception_4d/relu_1x1
I0403 15:07:32.381975 31163 net.cpp:91] Creating Layer inception_4d/relu_1x1
I0403 15:07:32.381994 31163 net.cpp:425] inception_4d/relu_1x1 <- inception_4d/1x1
I0403 15:07:32.382010 31163 net.cpp:386] inception_4d/relu_1x1 -> inception_4d/1x1 (in-place)
I0403 15:07:32.382200 31163 net.cpp:141] Setting up inception_4d/relu_1x1
I0403 15:07:32.382225 31163 net.cpp:148] Top shape: 24 112 14 14 (526848)
I0403 15:07:32.382241 31163 net.cpp:156] Memory required for data: 1115397408
I0403 15:07:32.382256 31163 layer_factory.hpp:77] Creating layer inception_4d/3x3_reduce
I0403 15:07:32.382294 31163 net.cpp:91] Creating Layer inception_4d/3x3_reduce
I0403 15:07:32.382313 31163 net.cpp:425] inception_4d/3x3_reduce <- inception_4c/output_inception_4c/output_0_split_1
I0403 15:07:32.382333 31163 net.cpp:399] inception_4d/3x3_reduce -> inception_4d/3x3_reduce
I0403 15:07:32.383903 31163 net.cpp:141] Setting up inception_4d/3x3_reduce
I0403 15:07:32.383931 31163 net.cpp:148] Top shape: 24 144 14 14 (677376)
I0403 15:07:32.383960 31163 net.cpp:156] Memory required for data: 1118106912
I0403 15:07:32.383980 31163 layer_factory.hpp:77] Creating layer inception_4d/relu_3x3_reduce
I0403 15:07:32.383999 31163 net.cpp:91] Creating Layer inception_4d/relu_3x3_reduce
I0403 15:07:32.384017 31163 net.cpp:425] inception_4d/relu_3x3_reduce <- inception_4d/3x3_reduce
I0403 15:07:32.384039 31163 net.cpp:386] inception_4d/relu_3x3_reduce -> inception_4d/3x3_reduce (in-place)
I0403 15:07:32.384362 31163 net.cpp:141] Setting up inception_4d/relu_3x3_reduce
I0403 15:07:32.384390 31163 net.cpp:148] Top shape: 24 144 14 14 (677376)
I0403 15:07:32.384407 31163 net.cpp:156] Memory required for data: 1120816416
I0403 15:07:32.384423 31163 layer_factory.hpp:77] Creating layer inception_4d/3x3
I0403 15:07:32.384448 31163 net.cpp:91] Creating Layer inception_4d/3x3
I0403 15:07:32.384466 31163 net.cpp:425] inception_4d/3x3 <- inception_4d/3x3_reduce
I0403 15:07:32.384491 31163 net.cpp:399] inception_4d/3x3 -> inception_4d/3x3
I0403 15:07:32.388909 31163 net.cpp:141] Setting up inception_4d/3x3
I0403 15:07:32.388939 31163 net.cpp:148] Top shape: 24 288 14 14 (1354752)
I0403 15:07:32.388955 31163 net.cpp:156] Memory required for data: 1126235424
I0403 15:07:32.388975 31163 layer_factory.hpp:77] Creating layer inception_4d/relu_3x3
I0403 15:07:32.388996 31163 net.cpp:91] Creating Layer inception_4d/relu_3x3
I0403 15:07:32.389015 31163 net.cpp:425] inception_4d/relu_3x3 <- inception_4d/3x3
I0403 15:07:32.389032 31163 net.cpp:386] inception_4d/relu_3x3 -> inception_4d/3x3 (in-place)
I0403 15:07:32.389224 31163 net.cpp:141] Setting up inception_4d/relu_3x3
I0403 15:07:32.389251 31163 net.cpp:148] Top shape: 24 288 14 14 (1354752)
I0403 15:07:32.389267 31163 net.cpp:156] Memory required for data: 1131654432
I0403 15:07:32.389283 31163 layer_factory.hpp:77] Creating layer inception_4d/5x5_reduce
I0403 15:07:32.389304 31163 net.cpp:91] Creating Layer inception_4d/5x5_reduce
I0403 15:07:32.389322 31163 net.cpp:425] inception_4d/5x5_reduce <- inception_4c/output_inception_4c/output_0_split_2
I0403 15:07:32.389343 31163 net.cpp:399] inception_4d/5x5_reduce -> inception_4d/5x5_reduce
I0403 15:07:32.390573 31163 net.cpp:141] Setting up inception_4d/5x5_reduce
I0403 15:07:32.390602 31163 net.cpp:148] Top shape: 24 32 14 14 (150528)
I0403 15:07:32.390619 31163 net.cpp:156] Memory required for data: 1132256544
I0403 15:07:32.390638 31163 layer_factory.hpp:77] Creating layer inception_4d/relu_5x5_reduce
I0403 15:07:32.390660 31163 net.cpp:91] Creating Layer inception_4d/relu_5x5_reduce
I0403 15:07:32.390676 31163 net.cpp:425] inception_4d/relu_5x5_reduce <- inception_4d/5x5_reduce
I0403 15:07:32.390694 31163 net.cpp:386] inception_4d/relu_5x5_reduce -> inception_4d/5x5_reduce (in-place)
I0403 15:07:32.390887 31163 net.cpp:141] Setting up inception_4d/relu_5x5_reduce
I0403 15:07:32.390913 31163 net.cpp:148] Top shape: 24 32 14 14 (150528)
I0403 15:07:32.390928 31163 net.cpp:156] Memory required for data: 1132858656
I0403 15:07:32.390944 31163 layer_factory.hpp:77] Creating layer inception_4d/5x5
I0403 15:07:32.390969 31163 net.cpp:91] Creating Layer inception_4d/5x5
I0403 15:07:32.390987 31163 net.cpp:425] inception_4d/5x5 <- inception_4d/5x5_reduce
I0403 15:07:32.391006 31163 net.cpp:399] inception_4d/5x5 -> inception_4d/5x5
I0403 15:07:32.392599 31163 net.cpp:141] Setting up inception_4d/5x5
I0403 15:07:32.392630 31163 net.cpp:148] Top shape: 24 64 14 14 (301056)
I0403 15:07:32.392647 31163 net.cpp:156] Memory required for data: 1134062880
I0403 15:07:32.392668 31163 layer_factory.hpp:77] Creating layer inception_4d/relu_5x5
I0403 15:07:32.392702 31163 net.cpp:91] Creating Layer inception_4d/relu_5x5
I0403 15:07:32.392719 31163 net.cpp:425] inception_4d/relu_5x5 <- inception_4d/5x5
I0403 15:07:32.392740 31163 net.cpp:386] inception_4d/relu_5x5 -> inception_4d/5x5 (in-place)
I0403 15:07:32.393059 31163 net.cpp:141] Setting up inception_4d/relu_5x5
I0403 15:07:32.393088 31163 net.cpp:148] Top shape: 24 64 14 14 (301056)
I0403 15:07:32.393105 31163 net.cpp:156] Memory required for data: 1135267104
I0403 15:07:32.393122 31163 layer_factory.hpp:77] Creating layer inception_4d/pool
I0403 15:07:32.393141 31163 net.cpp:91] Creating Layer inception_4d/pool
I0403 15:07:32.393157 31163 net.cpp:425] inception_4d/pool <- inception_4c/output_inception_4c/output_0_split_3
I0403 15:07:32.393178 31163 net.cpp:399] inception_4d/pool -> inception_4d/pool
I0403 15:07:32.393247 31163 net.cpp:141] Setting up inception_4d/pool
I0403 15:07:32.393272 31163 net.cpp:148] Top shape: 24 512 14 14 (2408448)
I0403 15:07:32.393287 31163 net.cpp:156] Memory required for data: 1144900896
I0403 15:07:32.393302 31163 layer_factory.hpp:77] Creating layer inception_4d/pool_proj
I0403 15:07:32.393326 31163 net.cpp:91] Creating Layer inception_4d/pool_proj
I0403 15:07:32.393344 31163 net.cpp:425] inception_4d/pool_proj <- inception_4d/pool
I0403 15:07:32.393367 31163 net.cpp:399] inception_4d/pool_proj -> inception_4d/pool_proj
I0403 15:07:32.395201 31163 net.cpp:141] Setting up inception_4d/pool_proj
I0403 15:07:32.395232 31163 net.cpp:148] Top shape: 24 64 14 14 (301056)
I0403 15:07:32.395248 31163 net.cpp:156] Memory required for data: 1146105120
I0403 15:07:32.395268 31163 layer_factory.hpp:77] Creating layer inception_4d/relu_pool_proj
I0403 15:07:32.395290 31163 net.cpp:91] Creating Layer inception_4d/relu_pool_proj
I0403 15:07:32.395308 31163 net.cpp:425] inception_4d/relu_pool_proj <- inception_4d/pool_proj
I0403 15:07:32.395325 31163 net.cpp:386] inception_4d/relu_pool_proj -> inception_4d/pool_proj (in-place)
I0403 15:07:32.395517 31163 net.cpp:141] Setting up inception_4d/relu_pool_proj
I0403 15:07:32.395546 31163 net.cpp:148] Top shape: 24 64 14 14 (301056)
I0403 15:07:32.395561 31163 net.cpp:156] Memory required for data: 1147309344
I0403 15:07:32.395578 31163 layer_factory.hpp:77] Creating layer inception_4d/output
I0403 15:07:32.395596 31163 net.cpp:91] Creating Layer inception_4d/output
I0403 15:07:32.395612 31163 net.cpp:425] inception_4d/output <- inception_4d/1x1
I0403 15:07:32.395629 31163 net.cpp:425] inception_4d/output <- inception_4d/3x3
I0403 15:07:32.395647 31163 net.cpp:425] inception_4d/output <- inception_4d/5x5
I0403 15:07:32.395664 31163 net.cpp:425] inception_4d/output <- inception_4d/pool_proj
I0403 15:07:32.395683 31163 net.cpp:399] inception_4d/output -> inception_4d/output
I0403 15:07:32.395735 31163 net.cpp:141] Setting up inception_4d/output
I0403 15:07:32.395758 31163 net.cpp:148] Top shape: 24 528 14 14 (2483712)
I0403 15:07:32.395773 31163 net.cpp:156] Memory required for data: 1157244192
I0403 15:07:32.395788 31163 layer_factory.hpp:77] Creating layer inception_4d/output_inception_4d/output_0_split
I0403 15:07:32.395809 31163 net.cpp:91] Creating Layer inception_4d/output_inception_4d/output_0_split
I0403 15:07:32.395825 31163 net.cpp:425] inception_4d/output_inception_4d/output_0_split <- inception_4d/output
I0403 15:07:32.395844 31163 net.cpp:399] inception_4d/output_inception_4d/output_0_split -> inception_4d/output_inception_4d/output_0_split_0
I0403 15:07:32.395865 31163 net.cpp:399] inception_4d/output_inception_4d/output_0_split -> inception_4d/output_inception_4d/output_0_split_1
I0403 15:07:32.395886 31163 net.cpp:399] inception_4d/output_inception_4d/output_0_split -> inception_4d/output_inception_4d/output_0_split_2
I0403 15:07:32.395908 31163 net.cpp:399] inception_4d/output_inception_4d/output_0_split -> inception_4d/output_inception_4d/output_0_split_3
I0403 15:07:32.395931 31163 net.cpp:399] inception_4d/output_inception_4d/output_0_split -> inception_4d/output_inception_4d/output_0_split_4
I0403 15:07:32.396044 31163 net.cpp:141] Setting up inception_4d/output_inception_4d/output_0_split
I0403 15:07:32.396081 31163 net.cpp:148] Top shape: 24 528 14 14 (2483712)
I0403 15:07:32.396100 31163 net.cpp:148] Top shape: 24 528 14 14 (2483712)
I0403 15:07:32.396116 31163 net.cpp:148] Top shape: 24 528 14 14 (2483712)
I0403 15:07:32.396132 31163 net.cpp:148] Top shape: 24 528 14 14 (2483712)
I0403 15:07:32.396148 31163 net.cpp:148] Top shape: 24 528 14 14 (2483712)
I0403 15:07:32.396162 31163 net.cpp:156] Memory required for data: 1206918432
I0403 15:07:32.396178 31163 layer_factory.hpp:77] Creating layer loss2/ave_pool
I0403 15:07:32.396196 31163 net.cpp:91] Creating Layer loss2/ave_pool
I0403 15:07:32.396212 31163 net.cpp:425] loss2/ave_pool <- inception_4d/output_inception_4d/output_0_split_0
I0403 15:07:32.396234 31163 net.cpp:399] loss2/ave_pool -> loss2/ave_pool
I0403 15:07:32.396560 31163 net.cpp:141] Setting up loss2/ave_pool
I0403 15:07:32.396589 31163 net.cpp:148] Top shape: 24 528 4 4 (202752)
I0403 15:07:32.396605 31163 net.cpp:156] Memory required for data: 1207729440
I0403 15:07:32.396620 31163 layer_factory.hpp:77] Creating layer loss2/conv
I0403 15:07:32.396643 31163 net.cpp:91] Creating Layer loss2/conv
I0403 15:07:32.396661 31163 net.cpp:425] loss2/conv <- loss2/ave_pool
I0403 15:07:32.396683 31163 net.cpp:399] loss2/conv -> loss2/conv
I0403 15:07:32.398680 31163 net.cpp:141] Setting up loss2/conv
I0403 15:07:32.398713 31163 net.cpp:148] Top shape: 24 128 4 4 (49152)
I0403 15:07:32.398730 31163 net.cpp:156] Memory required for data: 1207926048
I0403 15:07:32.398751 31163 layer_factory.hpp:77] Creating layer loss2/relu_conv
I0403 15:07:32.398769 31163 net.cpp:91] Creating Layer loss2/relu_conv
I0403 15:07:32.398787 31163 net.cpp:425] loss2/relu_conv <- loss2/conv
I0403 15:07:32.398803 31163 net.cpp:386] loss2/relu_conv -> loss2/conv (in-place)
I0403 15:07:32.399102 31163 net.cpp:141] Setting up loss2/relu_conv
I0403 15:07:32.399132 31163 net.cpp:148] Top shape: 24 128 4 4 (49152)
I0403 15:07:32.399148 31163 net.cpp:156] Memory required for data: 1208122656
I0403 15:07:32.399165 31163 layer_factory.hpp:77] Creating layer loss2/fc
I0403 15:07:32.399184 31163 net.cpp:91] Creating Layer loss2/fc
I0403 15:07:32.399201 31163 net.cpp:425] loss2/fc <- loss2/conv
I0403 15:07:32.399222 31163 net.cpp:399] loss2/fc -> loss2/fc
I0403 15:07:32.417664 31163 net.cpp:141] Setting up loss2/fc
I0403 15:07:32.417698 31163 net.cpp:148] Top shape: 24 1024 (24576)
I0403 15:07:32.417714 31163 net.cpp:156] Memory required for data: 1208220960
I0403 15:07:32.417733 31163 layer_factory.hpp:77] Creating layer loss2/relu_fc
I0403 15:07:32.417757 31163 net.cpp:91] Creating Layer loss2/relu_fc
I0403 15:07:32.417775 31163 net.cpp:425] loss2/relu_fc <- loss2/fc
I0403 15:07:32.417793 31163 net.cpp:386] loss2/relu_fc -> loss2/fc (in-place)
I0403 15:07:32.418170 31163 net.cpp:141] Setting up loss2/relu_fc
I0403 15:07:32.418197 31163 net.cpp:148] Top shape: 24 1024 (24576)
I0403 15:07:32.418211 31163 net.cpp:156] Memory required for data: 1208319264
I0403 15:07:32.418227 31163 layer_factory.hpp:77] Creating layer loss2/drop_fc
I0403 15:07:32.418247 31163 net.cpp:91] Creating Layer loss2/drop_fc
I0403 15:07:32.418264 31163 net.cpp:425] loss2/drop_fc <- loss2/fc
I0403 15:07:32.418282 31163 net.cpp:386] loss2/drop_fc -> loss2/fc (in-place)
I0403 15:07:32.418334 31163 net.cpp:141] Setting up loss2/drop_fc
I0403 15:07:32.418357 31163 net.cpp:148] Top shape: 24 1024 (24576)
I0403 15:07:32.418371 31163 net.cpp:156] Memory required for data: 1208417568
I0403 15:07:32.418386 31163 layer_factory.hpp:77] Creating layer loss2/classifier_plantvillage
I0403 15:07:32.418404 31163 net.cpp:91] Creating Layer loss2/classifier_plantvillage
I0403 15:07:32.418424 31163 net.cpp:425] loss2/classifier_plantvillage <- loss2/fc
I0403 15:07:32.418442 31163 net.cpp:399] loss2/classifier_plantvillage -> loss2/classifier_plantvillage
I0403 15:07:32.418859 31163 net.cpp:141] Setting up loss2/classifier_plantvillage
I0403 15:07:32.418884 31163 net.cpp:148] Top shape: 24 38 (912)
I0403 15:07:32.418915 31163 net.cpp:156] Memory required for data: 1208421216
I0403 15:07:32.418936 31163 layer_factory.hpp:77] Creating layer loss2/classifier_plantvillage_loss2/classifier_plantvillage_0_split
I0403 15:07:32.418953 31163 net.cpp:91] Creating Layer loss2/classifier_plantvillage_loss2/classifier_plantvillage_0_split
I0403 15:07:32.418970 31163 net.cpp:425] loss2/classifier_plantvillage_loss2/classifier_plantvillage_0_split <- loss2/classifier_plantvillage
I0403 15:07:32.418990 31163 net.cpp:399] loss2/classifier_plantvillage_loss2/classifier_plantvillage_0_split -> loss2/classifier_plantvillage_loss2/classifier_plantvillage_0_split_0
I0403 15:07:32.419011 31163 net.cpp:399] loss2/classifier_plantvillage_loss2/classifier_plantvillage_0_split -> loss2/classifier_plantvillage_loss2/classifier_plantvillage_0_split_1
I0403 15:07:32.419039 31163 net.cpp:399] loss2/classifier_plantvillage_loss2/classifier_plantvillage_0_split -> loss2/classifier_plantvillage_loss2/classifier_plantvillage_0_split_2
I0403 15:07:32.419127 31163 net.cpp:141] Setting up loss2/classifier_plantvillage_loss2/classifier_plantvillage_0_split
I0403 15:07:32.419159 31163 net.cpp:148] Top shape: 24 38 (912)
I0403 15:07:32.419176 31163 net.cpp:148] Top shape: 24 38 (912)
I0403 15:07:32.419193 31163 net.cpp:148] Top shape: 24 38 (912)
I0403 15:07:32.419220 31163 net.cpp:156] Memory required for data: 1208432160
I0403 15:07:32.419236 31163 layer_factory.hpp:77] Creating layer inception_4e/1x1
I0403 15:07:32.419260 31163 net.cpp:91] Creating Layer inception_4e/1x1
I0403 15:07:32.419306 31163 net.cpp:425] inception_4e/1x1 <- inception_4d/output_inception_4d/output_0_split_1
I0403 15:07:32.419324 31163 net.cpp:399] inception_4e/1x1 -> inception_4e/1x1
I0403 15:07:32.421151 31163 net.cpp:141] Setting up inception_4e/1x1
I0403 15:07:32.421183 31163 net.cpp:148] Top shape: 24 256 14 14 (1204224)
I0403 15:07:32.421200 31163 net.cpp:156] Memory required for data: 1213249056
I0403 15:07:32.421219 31163 layer_factory.hpp:77] Creating layer inception_4e/relu_1x1
I0403 15:07:32.421237 31163 net.cpp:91] Creating Layer inception_4e/relu_1x1
I0403 15:07:32.421253 31163 net.cpp:425] inception_4e/relu_1x1 <- inception_4e/1x1
I0403 15:07:32.421273 31163 net.cpp:386] inception_4e/relu_1x1 -> inception_4e/1x1 (in-place)
I0403 15:07:32.421573 31163 net.cpp:141] Setting up inception_4e/relu_1x1
I0403 15:07:32.421600 31163 net.cpp:148] Top shape: 24 256 14 14 (1204224)
I0403 15:07:32.421617 31163 net.cpp:156] Memory required for data: 1218065952
I0403 15:07:32.421633 31163 layer_factory.hpp:77] Creating layer inception_4e/3x3_reduce
I0403 15:07:32.421655 31163 net.cpp:91] Creating Layer inception_4e/3x3_reduce
I0403 15:07:32.421674 31163 net.cpp:425] inception_4e/3x3_reduce <- inception_4d/output_inception_4d/output_0_split_2
I0403 15:07:32.421692 31163 net.cpp:399] inception_4e/3x3_reduce -> inception_4e/3x3_reduce
I0403 15:07:32.423882 31163 net.cpp:141] Setting up inception_4e/3x3_reduce
I0403 15:07:32.423914 31163 net.cpp:148] Top shape: 24 160 14 14 (752640)
I0403 15:07:32.423931 31163 net.cpp:156] Memory required for data: 1221076512
I0403 15:07:32.423950 31163 layer_factory.hpp:77] Creating layer inception_4e/relu_3x3_reduce
I0403 15:07:32.423969 31163 net.cpp:91] Creating Layer inception_4e/relu_3x3_reduce
I0403 15:07:32.423985 31163 net.cpp:425] inception_4e/relu_3x3_reduce <- inception_4e/3x3_reduce
I0403 15:07:32.424002 31163 net.cpp:386] inception_4e/relu_3x3_reduce -> inception_4e/3x3_reduce (in-place)
I0403 15:07:32.424187 31163 net.cpp:141] Setting up inception_4e/relu_3x3_reduce
I0403 15:07:32.424214 31163 net.cpp:148] Top shape: 24 160 14 14 (752640)
I0403 15:07:32.424231 31163 net.cpp:156] Memory required for data: 1224087072
I0403 15:07:32.424245 31163 layer_factory.hpp:77] Creating layer inception_4e/3x3
I0403 15:07:32.424268 31163 net.cpp:91] Creating Layer inception_4e/3x3
I0403 15:07:32.424286 31163 net.cpp:425] inception_4e/3x3 <- inception_4e/3x3_reduce
I0403 15:07:32.424310 31163 net.cpp:399] inception_4e/3x3 -> inception_4e/3x3
I0403 15:07:32.429322 31163 net.cpp:141] Setting up inception_4e/3x3
I0403 15:07:32.429364 31163 net.cpp:148] Top shape: 24 320 14 14 (1505280)
I0403 15:07:32.429381 31163 net.cpp:156] Memory required for data: 1230108192
I0403 15:07:32.429401 31163 layer_factory.hpp:77] Creating layer inception_4e/relu_3x3
I0403 15:07:32.429419 31163 net.cpp:91] Creating Layer inception_4e/relu_3x3
I0403 15:07:32.429435 31163 net.cpp:425] inception_4e/relu_3x3 <- inception_4e/3x3
I0403 15:07:32.429455 31163 net.cpp:386] inception_4e/relu_3x3 -> inception_4e/3x3 (in-place)
I0403 15:07:32.429759 31163 net.cpp:141] Setting up inception_4e/relu_3x3
I0403 15:07:32.429786 31163 net.cpp:148] Top shape: 24 320 14 14 (1505280)
I0403 15:07:32.429801 31163 net.cpp:156] Memory required for data: 1236129312
I0403 15:07:32.429816 31163 layer_factory.hpp:77] Creating layer inception_4e/5x5_reduce
I0403 15:07:32.429842 31163 net.cpp:91] Creating Layer inception_4e/5x5_reduce
I0403 15:07:32.429860 31163 net.cpp:425] inception_4e/5x5_reduce <- inception_4d/output_inception_4d/output_0_split_3
I0403 15:07:32.429883 31163 net.cpp:399] inception_4e/5x5_reduce -> inception_4e/5x5_reduce
I0403 15:07:32.431020 31163 net.cpp:141] Setting up inception_4e/5x5_reduce
I0403 15:07:32.431051 31163 net.cpp:148] Top shape: 24 32 14 14 (150528)
I0403 15:07:32.431067 31163 net.cpp:156] Memory required for data: 1236731424
I0403 15:07:32.431087 31163 layer_factory.hpp:77] Creating layer inception_4e/relu_5x5_reduce
I0403 15:07:32.431104 31163 net.cpp:91] Creating Layer inception_4e/relu_5x5_reduce
I0403 15:07:32.431120 31163 net.cpp:425] inception_4e/relu_5x5_reduce <- inception_4e/5x5_reduce
I0403 15:07:32.431140 31163 net.cpp:386] inception_4e/relu_5x5_reduce -> inception_4e/5x5_reduce (in-place)
I0403 15:07:32.431435 31163 net.cpp:141] Setting up inception_4e/relu_5x5_reduce
I0403 15:07:32.431463 31163 net.cpp:148] Top shape: 24 32 14 14 (150528)
I0403 15:07:32.431479 31163 net.cpp:156] Memory required for data: 1237333536
I0403 15:07:32.431495 31163 layer_factory.hpp:77] Creating layer inception_4e/5x5
I0403 15:07:32.431540 31163 net.cpp:91] Creating Layer inception_4e/5x5
I0403 15:07:32.431560 31163 net.cpp:425] inception_4e/5x5 <- inception_4e/5x5_reduce
I0403 15:07:32.431581 31163 net.cpp:399] inception_4e/5x5 -> inception_4e/5x5
I0403 15:07:32.433475 31163 net.cpp:141] Setting up inception_4e/5x5
I0403 15:07:32.433508 31163 net.cpp:148] Top shape: 24 128 14 14 (602112)
I0403 15:07:32.433526 31163 net.cpp:156] Memory required for data: 1239741984
I0403 15:07:32.433545 31163 layer_factory.hpp:77] Creating layer inception_4e/relu_5x5
I0403 15:07:32.433567 31163 net.cpp:91] Creating Layer inception_4e/relu_5x5
I0403 15:07:32.433584 31163 net.cpp:425] inception_4e/relu_5x5 <- inception_4e/5x5
I0403 15:07:32.433603 31163 net.cpp:386] inception_4e/relu_5x5 -> inception_4e/5x5 (in-place)
I0403 15:07:32.433799 31163 net.cpp:141] Setting up inception_4e/relu_5x5
I0403 15:07:32.433826 31163 net.cpp:148] Top shape: 24 128 14 14 (602112)
I0403 15:07:32.433842 31163 net.cpp:156] Memory required for data: 1242150432
I0403 15:07:32.433857 31163 layer_factory.hpp:77] Creating layer inception_4e/pool
I0403 15:07:32.433876 31163 net.cpp:91] Creating Layer inception_4e/pool
I0403 15:07:32.433892 31163 net.cpp:425] inception_4e/pool <- inception_4d/output_inception_4d/output_0_split_4
I0403 15:07:32.433912 31163 net.cpp:399] inception_4e/pool -> inception_4e/pool
I0403 15:07:32.433982 31163 net.cpp:141] Setting up inception_4e/pool
I0403 15:07:32.434006 31163 net.cpp:148] Top shape: 24 528 14 14 (2483712)
I0403 15:07:32.434021 31163 net.cpp:156] Memory required for data: 1252085280
I0403 15:07:32.434036 31163 layer_factory.hpp:77] Creating layer inception_4e/pool_proj
I0403 15:07:32.434062 31163 net.cpp:91] Creating Layer inception_4e/pool_proj
I0403 15:07:32.434079 31163 net.cpp:425] inception_4e/pool_proj <- inception_4e/pool
I0403 15:07:32.434099 31163 net.cpp:399] inception_4e/pool_proj -> inception_4e/pool_proj
I0403 15:07:32.435704 31163 net.cpp:141] Setting up inception_4e/pool_proj
I0403 15:07:32.435745 31163 net.cpp:148] Top shape: 24 128 14 14 (602112)
I0403 15:07:32.435762 31163 net.cpp:156] Memory required for data: 1254493728
I0403 15:07:32.435781 31163 layer_factory.hpp:77] Creating layer inception_4e/relu_pool_proj
I0403 15:07:32.435802 31163 net.cpp:91] Creating Layer inception_4e/relu_pool_proj
I0403 15:07:32.435818 31163 net.cpp:425] inception_4e/relu_pool_proj <- inception_4e/pool_proj
I0403 15:07:32.435837 31163 net.cpp:386] inception_4e/relu_pool_proj -> inception_4e/pool_proj (in-place)
I0403 15:07:32.436157 31163 net.cpp:141] Setting up inception_4e/relu_pool_proj
I0403 15:07:32.436183 31163 net.cpp:148] Top shape: 24 128 14 14 (602112)
I0403 15:07:32.436199 31163 net.cpp:156] Memory required for data: 1256902176
I0403 15:07:32.436219 31163 layer_factory.hpp:77] Creating layer inception_4e/output
I0403 15:07:32.436236 31163 net.cpp:91] Creating Layer inception_4e/output
I0403 15:07:32.436252 31163 net.cpp:425] inception_4e/output <- inception_4e/1x1
I0403 15:07:32.436269 31163 net.cpp:425] inception_4e/output <- inception_4e/3x3
I0403 15:07:32.436285 31163 net.cpp:425] inception_4e/output <- inception_4e/5x5
I0403 15:07:32.436301 31163 net.cpp:425] inception_4e/output <- inception_4e/pool_proj
I0403 15:07:32.436321 31163 net.cpp:399] inception_4e/output -> inception_4e/output
I0403 15:07:32.436374 31163 net.cpp:141] Setting up inception_4e/output
I0403 15:07:32.436398 31163 net.cpp:148] Top shape: 24 832 14 14 (3913728)
I0403 15:07:32.436413 31163 net.cpp:156] Memory required for data: 1272557088
I0403 15:07:32.436427 31163 layer_factory.hpp:77] Creating layer pool4/3x3_s2
I0403 15:07:32.436444 31163 net.cpp:91] Creating Layer pool4/3x3_s2
I0403 15:07:32.436460 31163 net.cpp:425] pool4/3x3_s2 <- inception_4e/output
I0403 15:07:32.436481 31163 net.cpp:399] pool4/3x3_s2 -> pool4/3x3_s2
I0403 15:07:32.436553 31163 net.cpp:141] Setting up pool4/3x3_s2
I0403 15:07:32.436578 31163 net.cpp:148] Top shape: 24 832 7 7 (978432)
I0403 15:07:32.436592 31163 net.cpp:156] Memory required for data: 1276470816
I0403 15:07:32.436607 31163 layer_factory.hpp:77] Creating layer pool4/3x3_s2_pool4/3x3_s2_0_split
I0403 15:07:32.436627 31163 net.cpp:91] Creating Layer pool4/3x3_s2_pool4/3x3_s2_0_split
I0403 15:07:32.436645 31163 net.cpp:425] pool4/3x3_s2_pool4/3x3_s2_0_split <- pool4/3x3_s2
I0403 15:07:32.436662 31163 net.cpp:399] pool4/3x3_s2_pool4/3x3_s2_0_split -> pool4/3x3_s2_pool4/3x3_s2_0_split_0
I0403 15:07:32.436684 31163 net.cpp:399] pool4/3x3_s2_pool4/3x3_s2_0_split -> pool4/3x3_s2_pool4/3x3_s2_0_split_1
I0403 15:07:32.436705 31163 net.cpp:399] pool4/3x3_s2_pool4/3x3_s2_0_split -> pool4/3x3_s2_pool4/3x3_s2_0_split_2
I0403 15:07:32.436725 31163 net.cpp:399] pool4/3x3_s2_pool4/3x3_s2_0_split -> pool4/3x3_s2_pool4/3x3_s2_0_split_3
I0403 15:07:32.436816 31163 net.cpp:141] Setting up pool4/3x3_s2_pool4/3x3_s2_0_split
I0403 15:07:32.436841 31163 net.cpp:148] Top shape: 24 832 7 7 (978432)
I0403 15:07:32.436856 31163 net.cpp:148] Top shape: 24 832 7 7 (978432)
I0403 15:07:32.436872 31163 net.cpp:148] Top shape: 24 832 7 7 (978432)
I0403 15:07:32.436887 31163 net.cpp:148] Top shape: 24 832 7 7 (978432)
I0403 15:07:32.436902 31163 net.cpp:156] Memory required for data: 1292125728
I0403 15:07:32.436916 31163 layer_factory.hpp:77] Creating layer inception_5a/1x1
I0403 15:07:32.436939 31163 net.cpp:91] Creating Layer inception_5a/1x1
I0403 15:07:32.436955 31163 net.cpp:425] inception_5a/1x1 <- pool4/3x3_s2_pool4/3x3_s2_0_split_0
I0403 15:07:32.436977 31163 net.cpp:399] inception_5a/1x1 -> inception_5a/1x1
I0403 15:07:32.439976 31163 net.cpp:141] Setting up inception_5a/1x1
I0403 15:07:32.440014 31163 net.cpp:148] Top shape: 24 256 7 7 (301056)
I0403 15:07:32.440037 31163 net.cpp:156] Memory required for data: 1293329952
I0403 15:07:32.440057 31163 layer_factory.hpp:77] Creating layer inception_5a/relu_1x1
I0403 15:07:32.440076 31163 net.cpp:91] Creating Layer inception_5a/relu_1x1
I0403 15:07:32.440093 31163 net.cpp:425] inception_5a/relu_1x1 <- inception_5a/1x1
I0403 15:07:32.440110 31163 net.cpp:386] inception_5a/relu_1x1 -> inception_5a/1x1 (in-place)
I0403 15:07:32.440438 31163 net.cpp:141] Setting up inception_5a/relu_1x1
I0403 15:07:32.440465 31163 net.cpp:148] Top shape: 24 256 7 7 (301056)
I0403 15:07:32.440485 31163 net.cpp:156] Memory required for data: 1294534176
I0403 15:07:32.440501 31163 layer_factory.hpp:77] Creating layer inception_5a/3x3_reduce
I0403 15:07:32.440527 31163 net.cpp:91] Creating Layer inception_5a/3x3_reduce
I0403 15:07:32.440546 31163 net.cpp:425] inception_5a/3x3_reduce <- pool4/3x3_s2_pool4/3x3_s2_0_split_1
I0403 15:07:32.440567 31163 net.cpp:399] inception_5a/3x3_reduce -> inception_5a/3x3_reduce
I0403 15:07:32.443179 31163 net.cpp:141] Setting up inception_5a/3x3_reduce
I0403 15:07:32.443210 31163 net.cpp:148] Top shape: 24 160 7 7 (188160)
I0403 15:07:32.443227 31163 net.cpp:156] Memory required for data: 1295286816
I0403 15:07:32.443246 31163 layer_factory.hpp:77] Creating layer inception_5a/relu_3x3_reduce
I0403 15:07:32.443265 31163 net.cpp:91] Creating Layer inception_5a/relu_3x3_reduce
I0403 15:07:32.443281 31163 net.cpp:425] inception_5a/relu_3x3_reduce <- inception_5a/3x3_reduce
I0403 15:07:32.443302 31163 net.cpp:386] inception_5a/relu_3x3_reduce -> inception_5a/3x3_reduce (in-place)
I0403 15:07:32.443497 31163 net.cpp:141] Setting up inception_5a/relu_3x3_reduce
I0403 15:07:32.443529 31163 net.cpp:148] Top shape: 24 160 7 7 (188160)
I0403 15:07:32.443544 31163 net.cpp:156] Memory required for data: 1296039456
I0403 15:07:32.443560 31163 layer_factory.hpp:77] Creating layer inception_5a/3x3
I0403 15:07:32.443585 31163 net.cpp:91] Creating Layer inception_5a/3x3
I0403 15:07:32.443603 31163 net.cpp:425] inception_5a/3x3 <- inception_5a/3x3_reduce
I0403 15:07:32.443626 31163 net.cpp:399] inception_5a/3x3 -> inception_5a/3x3
I0403 15:07:32.448822 31163 net.cpp:141] Setting up inception_5a/3x3
I0403 15:07:32.448854 31163 net.cpp:148] Top shape: 24 320 7 7 (376320)
I0403 15:07:32.448871 31163 net.cpp:156] Memory required for data: 1297544736
I0403 15:07:32.448892 31163 layer_factory.hpp:77] Creating layer inception_5a/relu_3x3
I0403 15:07:32.448925 31163 net.cpp:91] Creating Layer inception_5a/relu_3x3
I0403 15:07:32.448953 31163 net.cpp:425] inception_5a/relu_3x3 <- inception_5a/3x3
I0403 15:07:32.448972 31163 net.cpp:386] inception_5a/relu_3x3 -> inception_5a/3x3 (in-place)
I0403 15:07:32.449261 31163 net.cpp:141] Setting up inception_5a/relu_3x3
I0403 15:07:32.449286 31163 net.cpp:148] Top shape: 24 320 7 7 (376320)
I0403 15:07:32.449301 31163 net.cpp:156] Memory required for data: 1299050016
I0403 15:07:32.449316 31163 layer_factory.hpp:77] Creating layer inception_5a/5x5_reduce
I0403 15:07:32.449340 31163 net.cpp:91] Creating Layer inception_5a/5x5_reduce
I0403 15:07:32.449357 31163 net.cpp:425] inception_5a/5x5_reduce <- pool4/3x3_s2_pool4/3x3_s2_0_split_2
I0403 15:07:32.449376 31163 net.cpp:399] inception_5a/5x5_reduce -> inception_5a/5x5_reduce
I0403 15:07:32.450557 31163 net.cpp:141] Setting up inception_5a/5x5_reduce
I0403 15:07:32.450587 31163 net.cpp:148] Top shape: 24 32 7 7 (37632)
I0403 15:07:32.450603 31163 net.cpp:156] Memory required for data: 1299200544
I0403 15:07:32.450634 31163 layer_factory.hpp:77] Creating layer inception_5a/relu_5x5_reduce
I0403 15:07:32.450652 31163 net.cpp:91] Creating Layer inception_5a/relu_5x5_reduce
I0403 15:07:32.450669 31163 net.cpp:425] inception_5a/relu_5x5_reduce <- inception_5a/5x5_reduce
I0403 15:07:32.450686 31163 net.cpp:386] inception_5a/relu_5x5_reduce -> inception_5a/5x5_reduce (in-place)
I0403 15:07:32.450996 31163 net.cpp:141] Setting up inception_5a/relu_5x5_reduce
I0403 15:07:32.451025 31163 net.cpp:148] Top shape: 24 32 7 7 (37632)
I0403 15:07:32.451040 31163 net.cpp:156] Memory required for data: 1299351072
I0403 15:07:32.451055 31163 layer_factory.hpp:77] Creating layer inception_5a/5x5
I0403 15:07:32.451076 31163 net.cpp:91] Creating Layer inception_5a/5x5
I0403 15:07:32.451094 31163 net.cpp:425] inception_5a/5x5 <- inception_5a/5x5_reduce
I0403 15:07:32.451113 31163 net.cpp:399] inception_5a/5x5 -> inception_5a/5x5
I0403 15:07:32.452842 31163 net.cpp:141] Setting up inception_5a/5x5
I0403 15:07:32.452883 31163 net.cpp:148] Top shape: 24 128 7 7 (150528)
I0403 15:07:32.452913 31163 net.cpp:156] Memory required for data: 1299953184
I0403 15:07:32.452930 31163 layer_factory.hpp:77] Creating layer inception_5a/relu_5x5
I0403 15:07:32.452951 31163 net.cpp:91] Creating Layer inception_5a/relu_5x5
I0403 15:07:32.452967 31163 net.cpp:425] inception_5a/relu_5x5 <- inception_5a/5x5
I0403 15:07:32.452985 31163 net.cpp:386] inception_5a/relu_5x5 -> inception_5a/5x5 (in-place)
I0403 15:07:32.453171 31163 net.cpp:141] Setting up inception_5a/relu_5x5
I0403 15:07:32.453199 31163 net.cpp:148] Top shape: 24 128 7 7 (150528)
I0403 15:07:32.453214 31163 net.cpp:156] Memory required for data: 1300555296
I0403 15:07:32.453230 31163 layer_factory.hpp:77] Creating layer inception_5a/pool
I0403 15:07:32.453248 31163 net.cpp:91] Creating Layer inception_5a/pool
I0403 15:07:32.453263 31163 net.cpp:425] inception_5a/pool <- pool4/3x3_s2_pool4/3x3_s2_0_split_3
I0403 15:07:32.453284 31163 net.cpp:399] inception_5a/pool -> inception_5a/pool
I0403 15:07:32.453353 31163 net.cpp:141] Setting up inception_5a/pool
I0403 15:07:32.453377 31163 net.cpp:148] Top shape: 24 832 7 7 (978432)
I0403 15:07:32.453392 31163 net.cpp:156] Memory required for data: 1304469024
I0403 15:07:32.453405 31163 layer_factory.hpp:77] Creating layer inception_5a/pool_proj
I0403 15:07:32.453429 31163 net.cpp:91] Creating Layer inception_5a/pool_proj
I0403 15:07:32.453447 31163 net.cpp:425] inception_5a/pool_proj <- inception_5a/pool
I0403 15:07:32.453465 31163 net.cpp:399] inception_5a/pool_proj -> inception_5a/pool_proj
I0403 15:07:32.455823 31163 net.cpp:141] Setting up inception_5a/pool_proj
I0403 15:07:32.455852 31163 net.cpp:148] Top shape: 24 128 7 7 (150528)
I0403 15:07:32.455868 31163 net.cpp:156] Memory required for data: 1305071136
I0403 15:07:32.455888 31163 layer_factory.hpp:77] Creating layer inception_5a/relu_pool_proj
I0403 15:07:32.455909 31163 net.cpp:91] Creating Layer inception_5a/relu_pool_proj
I0403 15:07:32.455926 31163 net.cpp:425] inception_5a/relu_pool_proj <- inception_5a/pool_proj
I0403 15:07:32.455945 31163 net.cpp:386] inception_5a/relu_pool_proj -> inception_5a/pool_proj (in-place)
I0403 15:07:32.456243 31163 net.cpp:141] Setting up inception_5a/relu_pool_proj
I0403 15:07:32.456270 31163 net.cpp:148] Top shape: 24 128 7 7 (150528)
I0403 15:07:32.456285 31163 net.cpp:156] Memory required for data: 1305673248
I0403 15:07:32.456300 31163 layer_factory.hpp:77] Creating layer inception_5a/output
I0403 15:07:32.456321 31163 net.cpp:91] Creating Layer inception_5a/output
I0403 15:07:32.456337 31163 net.cpp:425] inception_5a/output <- inception_5a/1x1
I0403 15:07:32.456354 31163 net.cpp:425] inception_5a/output <- inception_5a/3x3
I0403 15:07:32.456370 31163 net.cpp:425] inception_5a/output <- inception_5a/5x5
I0403 15:07:32.456387 31163 net.cpp:425] inception_5a/output <- inception_5a/pool_proj
I0403 15:07:32.456404 31163 net.cpp:399] inception_5a/output -> inception_5a/output
I0403 15:07:32.456455 31163 net.cpp:141] Setting up inception_5a/output
I0403 15:07:32.456480 31163 net.cpp:148] Top shape: 24 832 7 7 (978432)
I0403 15:07:32.456493 31163 net.cpp:156] Memory required for data: 1309586976
I0403 15:07:32.456514 31163 layer_factory.hpp:77] Creating layer inception_5a/output_inception_5a/output_0_split
I0403 15:07:32.456532 31163 net.cpp:91] Creating Layer inception_5a/output_inception_5a/output_0_split
I0403 15:07:32.456548 31163 net.cpp:425] inception_5a/output_inception_5a/output_0_split <- inception_5a/output
I0403 15:07:32.456568 31163 net.cpp:399] inception_5a/output_inception_5a/output_0_split -> inception_5a/output_inception_5a/output_0_split_0
I0403 15:07:32.456589 31163 net.cpp:399] inception_5a/output_inception_5a/output_0_split -> inception_5a/output_inception_5a/output_0_split_1
I0403 15:07:32.456609 31163 net.cpp:399] inception_5a/output_inception_5a/output_0_split -> inception_5a/output_inception_5a/output_0_split_2
I0403 15:07:32.456629 31163 net.cpp:399] inception_5a/output_inception_5a/output_0_split -> inception_5a/output_inception_5a/output_0_split_3
I0403 15:07:32.456742 31163 net.cpp:141] Setting up inception_5a/output_inception_5a/output_0_split
I0403 15:07:32.456768 31163 net.cpp:148] Top shape: 24 832 7 7 (978432)
I0403 15:07:32.456786 31163 net.cpp:148] Top shape: 24 832 7 7 (978432)
I0403 15:07:32.456802 31163 net.cpp:148] Top shape: 24 832 7 7 (978432)
I0403 15:07:32.456818 31163 net.cpp:148] Top shape: 24 832 7 7 (978432)
I0403 15:07:32.456833 31163 net.cpp:156] Memory required for data: 1325241888
I0403 15:07:32.456848 31163 layer_factory.hpp:77] Creating layer inception_5b/1x1
I0403 15:07:32.456873 31163 net.cpp:91] Creating Layer inception_5b/1x1
I0403 15:07:32.456892 31163 net.cpp:425] inception_5b/1x1 <- inception_5a/output_inception_5a/output_0_split_0
I0403 15:07:32.456910 31163 net.cpp:399] inception_5b/1x1 -> inception_5b/1x1
I0403 15:07:32.460685 31163 net.cpp:141] Setting up inception_5b/1x1
I0403 15:07:32.460714 31163 net.cpp:148] Top shape: 24 384 7 7 (451584)
I0403 15:07:32.460731 31163 net.cpp:156] Memory required for data: 1327048224
I0403 15:07:32.460749 31163 layer_factory.hpp:77] Creating layer inception_5b/relu_1x1
I0403 15:07:32.460768 31163 net.cpp:91] Creating Layer inception_5b/relu_1x1
I0403 15:07:32.460784 31163 net.cpp:425] inception_5b/relu_1x1 <- inception_5b/1x1
I0403 15:07:32.460804 31163 net.cpp:386] inception_5b/relu_1x1 -> inception_5b/1x1 (in-place)
I0403 15:07:32.461112 31163 net.cpp:141] Setting up inception_5b/relu_1x1
I0403 15:07:32.461138 31163 net.cpp:148] Top shape: 24 384 7 7 (451584)
I0403 15:07:32.461153 31163 net.cpp:156] Memory required for data: 1328854560
I0403 15:07:32.461169 31163 layer_factory.hpp:77] Creating layer inception_5b/3x3_reduce
I0403 15:07:32.461191 31163 net.cpp:91] Creating Layer inception_5b/3x3_reduce
I0403 15:07:32.461210 31163 net.cpp:425] inception_5b/3x3_reduce <- inception_5a/output_inception_5a/output_0_split_1
I0403 15:07:32.461232 31163 net.cpp:399] inception_5b/3x3_reduce -> inception_5b/3x3_reduce
I0403 15:07:32.463917 31163 net.cpp:141] Setting up inception_5b/3x3_reduce
I0403 15:07:32.463946 31163 net.cpp:148] Top shape: 24 192 7 7 (225792)
I0403 15:07:32.463963 31163 net.cpp:156] Memory required for data: 1329757728
I0403 15:07:32.463981 31163 layer_factory.hpp:77] Creating layer inception_5b/relu_3x3_reduce
I0403 15:07:32.464002 31163 net.cpp:91] Creating Layer inception_5b/relu_3x3_reduce
I0403 15:07:32.464020 31163 net.cpp:425] inception_5b/relu_3x3_reduce <- inception_5b/3x3_reduce
I0403 15:07:32.464037 31163 net.cpp:386] inception_5b/relu_3x3_reduce -> inception_5b/3x3_reduce (in-place)
I0403 15:07:32.464232 31163 net.cpp:141] Setting up inception_5b/relu_3x3_reduce
I0403 15:07:32.464257 31163 net.cpp:148] Top shape: 24 192 7 7 (225792)
I0403 15:07:32.464272 31163 net.cpp:156] Memory required for data: 1330660896
I0403 15:07:32.464287 31163 layer_factory.hpp:77] Creating layer inception_5b/3x3
I0403 15:07:32.464310 31163 net.cpp:91] Creating Layer inception_5b/3x3
I0403 15:07:32.464329 31163 net.cpp:425] inception_5b/3x3 <- inception_5b/3x3_reduce
I0403 15:07:32.464349 31163 net.cpp:399] inception_5b/3x3 -> inception_5b/3x3
I0403 15:07:32.471083 31163 net.cpp:141] Setting up inception_5b/3x3
I0403 15:07:32.471112 31163 net.cpp:148] Top shape: 24 384 7 7 (451584)
I0403 15:07:32.471127 31163 net.cpp:156] Memory required for data: 1332467232
I0403 15:07:32.471146 31163 layer_factory.hpp:77] Creating layer inception_5b/relu_3x3
I0403 15:07:32.471168 31163 net.cpp:91] Creating Layer inception_5b/relu_3x3
I0403 15:07:32.471185 31163 net.cpp:425] inception_5b/relu_3x3 <- inception_5b/3x3
I0403 15:07:32.471204 31163 net.cpp:386] inception_5b/relu_3x3 -> inception_5b/3x3 (in-place)
I0403 15:07:32.471508 31163 net.cpp:141] Setting up inception_5b/relu_3x3
I0403 15:07:32.471535 31163 net.cpp:148] Top shape: 24 384 7 7 (451584)
I0403 15:07:32.471550 31163 net.cpp:156] Memory required for data: 1334273568
I0403 15:07:32.471568 31163 layer_factory.hpp:77] Creating layer inception_5b/5x5_reduce
I0403 15:07:32.471606 31163 net.cpp:91] Creating Layer inception_5b/5x5_reduce
I0403 15:07:32.471626 31163 net.cpp:425] inception_5b/5x5_reduce <- inception_5a/output_inception_5a/output_0_split_2
I0403 15:07:32.471647 31163 net.cpp:399] inception_5b/5x5_reduce -> inception_5b/5x5_reduce
I0403 15:07:32.472934 31163 net.cpp:141] Setting up inception_5b/5x5_reduce
I0403 15:07:32.472962 31163 net.cpp:148] Top shape: 24 48 7 7 (56448)
I0403 15:07:32.472977 31163 net.cpp:156] Memory required for data: 1334499360
I0403 15:07:32.472996 31163 layer_factory.hpp:77] Creating layer inception_5b/relu_5x5_reduce
I0403 15:07:32.473016 31163 net.cpp:91] Creating Layer inception_5b/relu_5x5_reduce
I0403 15:07:32.473034 31163 net.cpp:425] inception_5b/relu_5x5_reduce <- inception_5b/5x5_reduce
I0403 15:07:32.473052 31163 net.cpp:386] inception_5b/relu_5x5_reduce -> inception_5b/5x5_reduce (in-place)
I0403 15:07:32.473479 31163 net.cpp:141] Setting up inception_5b/relu_5x5_reduce
I0403 15:07:32.473515 31163 net.cpp:148] Top shape: 24 48 7 7 (56448)
I0403 15:07:32.473533 31163 net.cpp:156] Memory required for data: 1334725152
I0403 15:07:32.473548 31163 layer_factory.hpp:77] Creating layer inception_5b/5x5
I0403 15:07:32.473569 31163 net.cpp:91] Creating Layer inception_5b/5x5
I0403 15:07:32.473587 31163 net.cpp:425] inception_5b/5x5 <- inception_5b/5x5_reduce
I0403 15:07:32.473606 31163 net.cpp:399] inception_5b/5x5 -> inception_5b/5x5
I0403 15:07:32.475626 31163 net.cpp:141] Setting up inception_5b/5x5
I0403 15:07:32.475653 31163 net.cpp:148] Top shape: 24 128 7 7 (150528)
I0403 15:07:32.475672 31163 net.cpp:156] Memory required for data: 1335327264
I0403 15:07:32.475690 31163 layer_factory.hpp:77] Creating layer inception_5b/relu_5x5
I0403 15:07:32.475708 31163 net.cpp:91] Creating Layer inception_5b/relu_5x5
I0403 15:07:32.475724 31163 net.cpp:425] inception_5b/relu_5x5 <- inception_5b/5x5
I0403 15:07:32.475741 31163 net.cpp:386] inception_5b/relu_5x5 -> inception_5b/5x5 (in-place)
I0403 15:07:32.475932 31163 net.cpp:141] Setting up inception_5b/relu_5x5
I0403 15:07:32.475960 31163 net.cpp:148] Top shape: 24 128 7 7 (150528)
I0403 15:07:32.475975 31163 net.cpp:156] Memory required for data: 1335929376
I0403 15:07:32.475991 31163 layer_factory.hpp:77] Creating layer inception_5b/pool
I0403 15:07:32.476008 31163 net.cpp:91] Creating Layer inception_5b/pool
I0403 15:07:32.476023 31163 net.cpp:425] inception_5b/pool <- inception_5a/output_inception_5a/output_0_split_3
I0403 15:07:32.476043 31163 net.cpp:399] inception_5b/pool -> inception_5b/pool
I0403 15:07:32.476114 31163 net.cpp:141] Setting up inception_5b/pool
I0403 15:07:32.476140 31163 net.cpp:148] Top shape: 24 832 7 7 (978432)
I0403 15:07:32.476155 31163 net.cpp:156] Memory required for data: 1339843104
I0403 15:07:32.476169 31163 layer_factory.hpp:77] Creating layer inception_5b/pool_proj
I0403 15:07:32.476188 31163 net.cpp:91] Creating Layer inception_5b/pool_proj
I0403 15:07:32.476204 31163 net.cpp:425] inception_5b/pool_proj <- inception_5b/pool
I0403 15:07:32.476224 31163 net.cpp:399] inception_5b/pool_proj -> inception_5b/pool_proj
I0403 15:07:32.478546 31163 net.cpp:141] Setting up inception_5b/pool_proj
I0403 15:07:32.478581 31163 net.cpp:148] Top shape: 24 128 7 7 (150528)
I0403 15:07:32.478597 31163 net.cpp:156] Memory required for data: 1340445216
I0403 15:07:32.478615 31163 layer_factory.hpp:77] Creating layer inception_5b/relu_pool_proj
I0403 15:07:32.478637 31163 net.cpp:91] Creating Layer inception_5b/relu_pool_proj
I0403 15:07:32.478654 31163 net.cpp:425] inception_5b/relu_pool_proj <- inception_5b/pool_proj
I0403 15:07:32.478672 31163 net.cpp:386] inception_5b/relu_pool_proj -> inception_5b/pool_proj (in-place)
I0403 15:07:32.478960 31163 net.cpp:141] Setting up inception_5b/relu_pool_proj
I0403 15:07:32.478986 31163 net.cpp:148] Top shape: 24 128 7 7 (150528)
I0403 15:07:32.479001 31163 net.cpp:156] Memory required for data: 1341047328
I0403 15:07:32.479017 31163 layer_factory.hpp:77] Creating layer inception_5b/output
I0403 15:07:32.479037 31163 net.cpp:91] Creating Layer inception_5b/output
I0403 15:07:32.479065 31163 net.cpp:425] inception_5b/output <- inception_5b/1x1
I0403 15:07:32.479084 31163 net.cpp:425] inception_5b/output <- inception_5b/3x3
I0403 15:07:32.479099 31163 net.cpp:425] inception_5b/output <- inception_5b/5x5
I0403 15:07:32.479115 31163 net.cpp:425] inception_5b/output <- inception_5b/pool_proj
I0403 15:07:32.479132 31163 net.cpp:399] inception_5b/output -> inception_5b/output
I0403 15:07:32.479187 31163 net.cpp:141] Setting up inception_5b/output
I0403 15:07:32.479210 31163 net.cpp:148] Top shape: 24 1024 7 7 (1204224)
I0403 15:07:32.479224 31163 net.cpp:156] Memory required for data: 1345864224
I0403 15:07:32.479238 31163 layer_factory.hpp:77] Creating layer pool5/7x7_s1
I0403 15:07:32.479255 31163 net.cpp:91] Creating Layer pool5/7x7_s1
I0403 15:07:32.479271 31163 net.cpp:425] pool5/7x7_s1 <- inception_5b/output
I0403 15:07:32.479291 31163 net.cpp:399] pool5/7x7_s1 -> pool5/7x7_s1
I0403 15:07:32.479508 31163 net.cpp:141] Setting up pool5/7x7_s1
I0403 15:07:32.479532 31163 net.cpp:148] Top shape: 24 1024 1 1 (24576)
I0403 15:07:32.479547 31163 net.cpp:156] Memory required for data: 1345962528
I0403 15:07:32.479562 31163 layer_factory.hpp:77] Creating layer pool5/drop_7x7_s1
I0403 15:07:32.479583 31163 net.cpp:91] Creating Layer pool5/drop_7x7_s1
I0403 15:07:32.479600 31163 net.cpp:425] pool5/drop_7x7_s1 <- pool5/7x7_s1
I0403 15:07:32.479617 31163 net.cpp:386] pool5/drop_7x7_s1 -> pool5/7x7_s1 (in-place)
I0403 15:07:32.479668 31163 net.cpp:141] Setting up pool5/drop_7x7_s1
I0403 15:07:32.479691 31163 net.cpp:148] Top shape: 24 1024 1 1 (24576)
I0403 15:07:32.479704 31163 net.cpp:156] Memory required for data: 1346060832
I0403 15:07:32.479719 31163 layer_factory.hpp:77] Creating layer loss3/classifier_plantvillage
I0403 15:07:32.479737 31163 net.cpp:91] Creating Layer loss3/classifier_plantvillage
I0403 15:07:32.479753 31163 net.cpp:425] loss3/classifier_plantvillage <- pool5/7x7_s1
I0403 15:07:32.479774 31163 net.cpp:399] loss3/classifier_plantvillage -> loss3/classifier_plantvillage
I0403 15:07:32.480192 31163 net.cpp:141] Setting up loss3/classifier_plantvillage
I0403 15:07:32.480216 31163 net.cpp:148] Top shape: 24 38 (912)
I0403 15:07:32.480231 31163 net.cpp:156] Memory required for data: 1346064480
I0403 15:07:32.480248 31163 layer_factory.hpp:77] Creating layer loss3/classifier_plantvillage_loss3/classifier_plantvillage_0_split
I0403 15:07:32.480267 31163 net.cpp:91] Creating Layer loss3/classifier_plantvillage_loss3/classifier_plantvillage_0_split
I0403 15:07:32.480283 31163 net.cpp:425] loss3/classifier_plantvillage_loss3/classifier_plantvillage_0_split <- loss3/classifier_plantvillage
I0403 15:07:32.480303 31163 net.cpp:399] loss3/classifier_plantvillage_loss3/classifier_plantvillage_0_split -> loss3/classifier_plantvillage_loss3/classifier_plantvillage_0_split_0
I0403 15:07:32.480322 31163 net.cpp:399] loss3/classifier_plantvillage_loss3/classifier_plantvillage_0_split -> loss3/classifier_plantvillage_loss3/classifier_plantvillage_0_split_1
I0403 15:07:32.480342 31163 net.cpp:399] loss3/classifier_plantvillage_loss3/classifier_plantvillage_0_split -> loss3/classifier_plantvillage_loss3/classifier_plantvillage_0_split_2
I0403 15:07:32.480361 31163 net.cpp:399] loss3/classifier_plantvillage_loss3/classifier_plantvillage_0_split -> loss3/classifier_plantvillage_loss3/classifier_plantvillage_0_split_3
I0403 15:07:32.480464 31163 net.cpp:141] Setting up loss3/classifier_plantvillage_loss3/classifier_plantvillage_0_split
I0403 15:07:32.480487 31163 net.cpp:148] Top shape: 24 38 (912)
I0403 15:07:32.480507 31163 net.cpp:148] Top shape: 24 38 (912)
I0403 15:07:32.480525 31163 net.cpp:148] Top shape: 24 38 (912)
I0403 15:07:32.480540 31163 net.cpp:148] Top shape: 24 38 (912)
I0403 15:07:32.480554 31163 net.cpp:156] Memory required for data: 1346079072
I0403 15:07:32.480571 31163 layer_factory.hpp:77] Creating layer loss1/loss
I0403 15:07:32.480592 31163 net.cpp:91] Creating Layer loss1/loss
I0403 15:07:32.480609 31163 net.cpp:425] loss1/loss <- loss1/classifier_plantvillage_loss1/classifier_plantvillage_0_split_0
I0403 15:07:32.480639 31163 net.cpp:425] loss1/loss <- label_data_1_split_0
…
