…
I0403 15:05:18.958963 31116 net.cpp:313] The NetState phase (1) differed from the phase (0) specified by a rule in layer data
I0403 15:05:18.960094 31116 net.cpp:49] Initializing net from parameters: 
state {
  phase: TEST
}
layer {
  name: "data"
  type: "Data"
  top: "data"
  top: "label"
  include {
    phase: TEST
  }
  transform_param {
    mirror: false
    crop_size: 224
    mean_file: "/home/mohanty/data/final_dataset/lmdb/grayscale-80-20/mean.binaryproto"
  }
  data_param {
    source: "/home/mohanty/data/final_dataset/lmdb/grayscale-80-20/test_db"
    batch_size: 24
    backend: LMDB
  }
}
layer {
  name: "conv1/7x7_s2"
  type: "Convolution"
  bottom: "data"
  top: "conv1/7x7_s2"
  param {
    lr_mult: 1
    decay_mult: 1
  }
  param {
    lr_mult: 2
    decay_mult: 0
  }
  convolution_param {
    num_output: 64
    pad: 3
    kernel_size: 7
    stride: 2
    weight_filler {
      type: "xavier"
      std: 0.1
    }
    bias_filler {
      type: "constant"
      value: 0.2
    }
  }
}
layer {
  name: "conv1/relu_7x7"
  type: "ReLU"
  bottom: "conv1/7x7_s2"
  top: "conv1/7x7_s2"
}
layer {
  name: "pool1/3x3_s2"
  type: "Pooling"
  bottom: "conv1/7x7_s2"
  top: "pool1/3x3_s2"
  pooling_param {
    pool: MAX
    kernel_size: 3
    stride: 2
  }
}
layer {
  name: "pool1/norm1"
  type: "LRN"
  bottom: "pool1/3x3_s2"
  top: "pool1/norm1"
  lrn_param {
    local_size: 5
    alpha: 0.0001
    beta: 0.75
  }
}
layer {
  name: "conv2/3x3_reduce"
  type: "Convolution"
  bottom: "pool1/norm1"
  top: "conv2/3x3_reduce"
  param {
    lr_mult: 1
    decay_mult: 1
  }
  param {
    lr_mult: 2
    decay_mult: 0
  }
  convolution_param {
    num_output: 64
    kernel_size: 1
    weight_filler {
      type: "xavier"
      std: 0.1
    }
    bias_filler {
      type: "constant"
      value: 0.2
    }
  }
}
layer {
  name: "conv2/relu_3x3_reduce"
  type: "ReLU"
  bottom: "conv2/3x3_reduce"
  top: "conv2/3x3_reduce"
}
layer {
  name: "conv2/3x3"
  type: "Convolution"
  bottom: "conv2/3x3_reduce"
  top: "conv2/3x3"
  param {
    lr_mult: 1
    decay_mult: 1
  }
  param {
    lr_mult: 2
    decay_mult: 0
  }
  convolution_param {
    num_output: 192
    pad: 1
    kernel_size: 3
    weight_filler {
      type: "xavier"
      std: 0.03
    }
    bias_filler {
      type: "constant"
      value: 0.2
    }
  }
}
layer {
  name: "conv2/relu_3x3"
  type: "ReLU"
  bottom: "conv2/3x3"
  top: "conv2/3x3"
}
layer {
  name: "conv2/norm2"
  type: "LRN"
  bottom: "conv2/3x3"
  top: "conv2/norm2"
  lrn_param {
    local_size: 5
    alpha: 0.0001
    beta: 0.75
  }
}
layer {
  name: "pool2/3x3_s2"
  type: "Pooling"
  bottom: "conv2/norm2"
  top: "pool2/3x3_s2"
  pooling_param {
    pool: MAX
    kernel_size: 3
    stride: 2
  }
}
layer {
  name: "inception_3a/1x1"
  type: "Convolution"
  bottom: "pool2/3x3_s2"
  top: "inception_3a/1x1"
  param {
    lr_mult: 1
    decay_mult: 1
  }
  param {
    lr_mult: 2
    decay_mult: 0
  }
  convolution_param {
    num_output: 64
    kernel_size: 1
    weight_filler {
      type: "xavier"
      std: 0.03
    }
    bias_filler {
      type: "constant"
      value: 0.2
    }
  }
}
layer {
  name: "inception_3a/relu_1x1"
  type: "ReLU"
  bottom: "inception_3a/1x1"
  top: "inception_3a/1x1"
}
layer {
  name: "inception_3a/3x3_reduce"
  type: "Convolution"
  bottom: "pool2/3x3_s2"
  top: "inception_3a/3x3_reduce"
  param {
    lr_mult: 1
    decay_mult: 1
  }
  param {
    lr_mult: 2
    decay_mult: 0
  }
  convolution_param {
    num_output: 96
    kernel_size: 1
    weight_filler {
      type: "xavier"
      std: 0.09
    }
    bias_filler {
      type: "constant"
      value: 0.2
    }
  }
}
layer {
  name: "inception_3a/relu_3x3_reduce"
  type: "ReLU"
  bottom: "inception_3a/3x3_reduce"
  top: "inception_3a/3x3_reduce"
}
layer {
  name: "inception_3a/3x3"
  type: "Convolution"
  bottom: "inception_3a/3x3_reduce"
  top: "inception_3a/3x3"
  param {
    lr_mult: 1
    decay_mult: 1
  }
  param {
    lr_mult: 2
    decay_mult: 0
  }
  convolution_param {
    num_output: 128
    pad: 1
    kernel_size: 3
    weight_filler {
      type: "xavier"
      std: 0.03
    }
    bias_filler {
      type: "constant"
      value: 0.2
    }
  }
}
layer {
  name: "inception_3a/relu_3x3"
  type: "ReLU"
  bottom: "inception_3a/3x3"
  top: "inception_3a/3x3"
}
layer {
  name: "inception_3a/5x5_reduce"
  type: "Convolution"
  bottom: "pool2/3x3_s2"
  top: "inception_3a/5x5_reduce"
  param {
    lr_mult: 1
    decay_mult: 1
  }
  param {
    lr_mult: 2
    decay_mult: 0
  }
  convolution_param {
    num_output: 16
    kernel_size: 1
    weight_filler {
      type: "xavier"
      std: 0.2
    }
    bias_filler {
      type: "constant"
      value: 0.2
    }
  }
}
layer {
  name: "inception_3a/relu_5x5_reduce"
  type: "ReLU"
  bottom: "inception_3a/5x5_reduce"
  top: "inception_3a/5x5_reduce"
}
layer {
  name: "inception_3a/5x5"
  type: "Convolution"
  bottom: "inception_3a/5x5_reduce"
  top: "inception_3a/5x5"
  param {
    lr_mult: 1
    decay_mult: 1
  }
  param {
    lr_mult: 2
    decay_mult: 0
  }
  convolution_param {
    num_output: 32
    pad: 2
    kernel_size: 5
    weight_filler {
      type: "xavier"
      std: 0.03
    }
    bias_filler {
      type: "constant"
      value: 0.2
    }
  }
}
layer {
  name: "inception_3a/relu_5x5"
  type: "ReLU"
  bottom: "inception_3a/5x5"
  top: "inception_3a/5x5"
}
layer {
  name: "inception_3a/pool"
  type: "Pooling"
  bottom: "pool2/3x3_s2"
  top: "inception_3a/pool"
  pooling_param {
    pool: MAX
    kernel_size: 3
    stride: 1
    pad: 1
  }
}
layer {
  name: "inception_3a/pool_proj"
  type: "Convolution"
  bottom: "inception_3a/pool"
  top: "inception_3a/pool_proj"
  param {
    lr_mult: 1
    decay_mult: 1
  }
  param {
    lr_mult: 2
    decay_mult: 0
  }
  convolution_param {
    num_output: 32
    kernel_size: 1
    weight_filler {
      type: "xavier"
      std: 0.1
    }
    bias_filler {
      type: "constant"
      value: 0.2
    }
  }
}
layer {
  name: "inception_3a/relu_pool_proj"
  type: "ReLU"
  bottom: "inception_3a/pool_proj"
  top: "inception_3a/pool_proj"
}
layer {
  name: "inception_3a/output"
  type: "Concat"
  bottom: "inception_3a/1x1"
  bottom: "inception_3a/3x3"
  bottom: "inception_3a/5x5"
  bottom: "inception_3a/pool_proj"
  top: "inception_3a/output"
}
layer {
  name: "inception_3b/1x1"
  type: "Convolution"
  bottom: "inception_3a/output"
  top: "inception_3b/1x1"
  param {
    lr_mult: 1
    decay_mult: 1
  }
  param {
    lr_mult: 2
    decay_mult: 0
  }
  convolution_param {
    num_output: 128
    kernel_size: 1
    weight_filler {
      type: "xavier"
      std: 0.03
    }
    bias_filler {
      type: "constant"
      value: 0.2
    }
  }
}
layer {
  name: "inception_3b/relu_1x1"
  type: "ReLU"
  bottom: "inception_3b/1x1"
  top: "inception_3b/1x1"
}
layer {
  name: "inception_3b/3x3_reduce"
  type: "Convolution"
  bottom: "inception_3a/output"
  top: "inception_3b/3x3_reduce"
  param {
    lr_mult: 1
    decay_mult: 1
  }
  param {
    lr_mult: 2
    decay_mult: 0
  }
  convolution_param {
    num_output: 128
    kernel_size: 1
    weight_filler {
      type: "xavier"
      std: 0.09
    }
    bias_filler {
      type: "constant"
      value: 0.2
    }
  }
}
layer {
  name: "inception_3b/relu_3x3_reduce"
  type: "ReLU"
  bottom: "inception_3b/3x3_reduce"
  top: "inception_3b/3x3_reduce"
}
layer {
  name: "inception_3b/3x3"
  type: "Convolution"
  bottom: "inception_3b/3x3_reduce"
  top: "inception_3b/3x3"
  param {
    lr_mult: 1
    decay_mult: 1
  }
  param {
    lr_mult: 2
    decay_mult: 0
  }
  convolution_param {
    num_output: 192
    pad: 1
    kernel_size: 3
    weight_filler {
      type: "xavier"
      std: 0.03
    }
    bias_filler {
      type: "constant"
      value: 0.2
    }
  }
}
layer {
  name: "inception_3b/relu_3x3"
  type: "ReLU"
  bottom: "inception_3b/3x3"
  top: "inception_3b/3x3"
}
layer {
  name: "inception_3b/5x5_reduce"
  type: "Convolution"
  bottom: "inception_3a/output"
  top: "inception_3b/5x5_reduce"
  param {
    lr_mult: 1
    decay_mult: 1
  }
  param {
    lr_mult: 2
    decay_mult: 0
  }
  convolution_param {
    num_output: 32
    kernel_size: 1
    weight_filler {
      type: "xavier"
      std: 0.2
    }
    bias_filler {
      type: "constant"
      value: 0.2
    }
  }
}
layer {
  name: "inception_3b/relu_5x5_reduce"
  type: "ReLU"
  bottom: "inception_3b/5x5_reduce"
  top: "inception_3b/5x5_reduce"
}
layer {
  name: "inception_3b/5x5"
  type: "Convolution"
  bottom: "inception_3b/5x5_reduce"
  top: "inception_3b/5x5"
  param {
    lr_mult: 1
    decay_mult: 1
  }
  param {
    lr_mult: 2
    decay_mult: 0
  }
  convolution_param {
    num_output: 96
    pad: 2
    kernel_size: 5
    weight_filler {
      type: "xavier"
      std: 0.03
    }
    bias_filler {
      type: "constant"
      value: 0.2
    }
  }
}
layer {
  name: "inception_3b/relu_5x5"
  type: "ReLU"
  bottom: "inception_3b/5x5"
  top: "inception_3b/5x5"
}
layer {
  name: "inception_3b/pool"
  type: "Pooling"
  bottom: "inception_3a/output"
  top: "inception_3b/pool"
  pooling_param {
    pool: MAX
    kernel_size: 3
    stride: 1
    pad: 1
  }
}
layer {
  name: "inception_3b/pool_proj"
  type: "Convolution"
  bottom: "inception_3b/pool"
  top: "inception_3b/pool_proj"
  param {
    lr_mult: 1
    decay_mult: 1
  }
  param {
    lr_mult: 2
    decay_mult: 0
  }
  convolution_param {
    num_output: 64
    kernel_size: 1
    weight_filler {
      type: "xavier"
      std: 0.1
    }
    bias_filler {
      type: "constant"
      value: 0.2
    }
  }
}
layer {
  name: "inception_3b/relu_pool_proj"
  type: "ReLU"
  bottom: "inception_3b/pool_proj"
  top: "inception_3b/pool_proj"
}
layer {
  name: "inception_3b/output"
  type: "Concat"
  bottom: "inception_3b/1x1"
  bottom: "inception_3b/3x3"
  bottom: "inception_3b/5x5"
  bottom: "inception_3b/pool_proj"
  top: "inception_3b/output"
}
layer {
  name: "pool3/3x3_s2"
  type: "Pooling"
  bottom: "inception_3b/output"
  top: "pool3/3x3_s2"
  pooling_param {
    pool: MAX
    kernel_size: 3
    stride: 2
  }
}
layer {
  name: "inception_4a/1x1"
  type: "Convolution"
  bottom: "pool3/3x3_s2"
  top: "inception_4a/1x1"
  param {
    lr_mult: 1
    decay_mult: 1
  }
  param {
    lr_mult: 2
    decay_mult: 0
  }
  convolution_param {
    num_output: 192
    kernel_size: 1
    weight_filler {
      type: "xavier"
      std: 0.03
    }
    bias_filler {
      type: "constant"
      value: 0.2
    }
  }
}
layer {
  name: "inception_4a/relu_1x1"
  type: "ReLU"
  bottom: "inception_4a/1x1"
  top: "inception_4a/1x1"
}
layer {
  name: "inception_4a/3x3_reduce"
  type: "Convolution"
  bottom: "pool3/3x3_s2"
  top: "inception_4a/3x3_reduce"
  param {
    lr_mult: 1
    decay_mult: 1
  }
  param {
    lr_mult: 2
    decay_mult: 0
  }
  convolution_param {
    num_output: 96
    kernel_size: 1
    weight_filler {
      type: "xavier"
      std: 0.09
    }
    bias_filler {
      type: "constant"
      value: 0.2
    }
  }
}
layer {
  name: "inception_4a/relu_3x3_reduce"
  type: "ReLU"
  bottom: "inception_4a/3x3_reduce"
  top: "inception_4a/3x3_reduce"
}
layer {
  name: "inception_4a/3x3"
  type: "Convolution"
  bottom: "inception_4a/3x3_reduce"
  top: "inception_4a/3x3"
  param {
    lr_mult: 1
    decay_mult: 1
  }
  param {
    lr_mult: 2
    decay_mult: 0
  }
  convolution_param {
    num_output: 208
    pad: 1
    kernel_size: 3
    weight_filler {
      type: "xavier"
      std: 0.03
    }
    bias_filler {
      type: "constant"
      value: 0.2
    }
  }
}
layer {
  name: "inception_4a/relu_3x3"
  type: "ReLU"
  bottom: "inception_4a/3x3"
  top: "inception_4a/3x3"
}
layer {
  name: "inception_4a/5x5_reduce"
  type: "Convolution"
  bottom: "pool3/3x3_s2"
  top: "inception_4a/5x5_reduce"
  param {
    lr_mult: 1
    decay_mult: 1
  }
  param {
    lr_mult: 2
    decay_mult: 0
  }
  convolution_param {
    num_output: 16
    kernel_size: 1
    weight_filler {
      type: "xavier"
      std: 0.2
    }
    bias_filler {
      type: "constant"
      value: 0.2
    }
  }
}
layer {
  name: "inception_4a/relu_5x5_reduce"
  type: "ReLU"
  bottom: "inception_4a/5x5_reduce"
  top: "inception_4a/5x5_reduce"
}
layer {
  name: "inception_4a/5x5"
  type: "Convolution"
  bottom: "inception_4a/5x5_reduce"
  top: "inception_4a/5x5"
  param {
    lr_mult: 1
    decay_mult: 1
  }
  param {
    lr_mult: 2
    decay_mult: 0
  }
  convolution_param {
    num_output: 48
    pad: 2
    kernel_size: 5
    weight_filler {
      type: "xavier"
      std: 0.03
    }
    bias_filler {
      type: "constant"
      value: 0.2
    }
  }
}
layer {
  name: "inception_4a/relu_5x5"
  type: "ReLU"
  bottom: "inception_4a/5x5"
  top: "inception_4a/5x5"
}
layer {
  name: "inception_4a/pool"
  type: "Pooling"
  bottom: "pool3/3x3_s2"
  top: "inception_4a/pool"
  pooling_param {
    pool: MAX
    kernel_size: 3
    stride: 1
    pad: 1
  }
}
layer {
  name: "inception_4a/pool_proj"
  type: "Convolution"
  bottom: "inception_4a/pool"
  top: "inception_4a/pool_proj"
  param {
    lr_mult: 1
    decay_mult: 1
  }
  param {
    lr_mult: 2
    decay_mult: 0
  }
  convolution_param {
    num_output: 64
    kernel_size: 1
    weight_filler {
      type: "xavier"
      std: 0.1
    }
    bias_filler {
      type: "constant"
      value: 0.2
    }
  }
}
layer {
  name: "inception_4a/relu_pool_proj"
  type: "ReLU"
  bottom: "inception_4a/pool_proj"
  top: "inception_4a/pool_proj"
}
layer {
  name: "inception_4a/output"
  type: "Concat"
  bottom: "inception_4a/1x1"
  bottom: "inception_4a/3x3"
  bottom: "inception_4a/5x5"
  bottom: "inception_4a/pool_proj"
  top: "inception_4a/output"
}
layer {
  name: "loss1/ave_pool"
  type: "Pooling"
  bottom: "inception_4a/output"
  top: "loss1/ave_pool"
  pooling_param {
    pool: AVE
    kernel_size: 5
    stride: 3
  }
}
layer {
  name: "loss1/conv"
  type: "Convolution"
  bottom: "loss1/ave_pool"
  top: "loss1/conv"
  param {
    lr_mult: 1
    decay_mult: 1
  }
  param {
    lr_mult: 2
    decay_mult: 0
  }
  convolution_param {
    num_output: 128
    kernel_size: 1
    weight_filler {
      type: "xavier"
      std: 0.08
    }
    bias_filler {
      type: "constant"
      value: 0.2
    }
  }
}
layer {
  name: "loss1/relu_conv"
  type: "ReLU"
  bottom: "loss1/conv"
  top: "loss1/conv"
}
layer {
  name: "loss1/fc"
  type: "InnerProduct"
  bottom: "loss1/conv"
  top: "loss1/fc"
  param {
    lr_mult: 1
    decay_mult: 1
  }
  param {
    lr_mult: 2
    decay_mult: 0
  }
  inner_product_param {
    num_output: 1024
    weight_filler {
      type: "xavier"
      std: 0.02
    }
    bias_filler {
      type: "constant"
      value: 0.2
    }
  }
}
layer {
  name: "loss1/relu_fc"
  type: "ReLU"
  bottom: "loss1/fc"
  top: "loss1/fc"
}
layer {
  name: "loss1/drop_fc"
  type: "Dropout"
  bottom: "loss1/fc"
  top: "loss1/fc"
  dropout_param {
    dropout_ratio: 0.7
  }
}
layer {
  name: "loss1/classifier_plantvillage"
  type: "InnerProduct"
  bottom: "loss1/fc"
  top: "loss1/classifier_plantvillage"
  param {
    lr_mult: 1
    decay_mult: 1
  }
  param {
    lr_mult: 2
    decay_mult: 0
  }
  inner_product_param {
    num_output: 38
    weight_filler {
      type: "xavier"
      std: 0.0009765625
    }
    bias_filler {
      type: "constant"
      value: 0
    }
  }
}
layer {
  name: "inception_4b/1x1"
  type: "Convolution"
  bottom: "inception_4a/output"
  top: "inception_4b/1x1"
  param {
    lr_mult: 1
    decay_mult: 1
  }
  param {
    lr_mult: 2
    decay_mult: 0
  }
  convolution_param {
    num_output: 160
    kernel_size: 1
    weight_filler {
      type: "xavier"
      std: 0.03
    }
    bias_filler {
      type: "constant"
      value: 0.2
    }
  }
}
layer {
  name: "inception_4b/relu_1x1"
  type: "ReLU"
  bottom: "inception_4b/1x1"
  top: "inception_4b/1x1"
}
layer {
  name: "inception_4b/3x3_reduce"
  type: "Convolution"
  bottom: "inception_4a/output"
  top: "inception_4b/3x3_reduce"
  param {
    lr_mult: 1
    decay_mult: 1
  }
  param {
    lr_mult: 2
    decay_mult: 0
  }
  convolution_param {
    num_output: 112
    kernel_size: 1
    weight_filler {
      type: "xavier"
      std: 0.09
    }
    bias_filler {
      type: "constant"
      value: 0.2
    }
  }
}
layer {
  name: "inception_4b/relu_3x3_reduce"
  type: "ReLU"
  bottom: "inception_4b/3x3_reduce"
  top: "inception_4b/3x3_reduce"
}
layer {
  name: "inception_4b/3x3"
  type: "Convolution"
  bottom: "inception_4b/3x3_reduce"
  top: "inception_4b/3x3"
  param {
    lr_mult: 1
    decay_mult: 1
  }
  param {
    lr_mult: 2
    decay_mult: 0
  }
  convolution_param {
    num_output: 224
    pad: 1
    kernel_size: 3
    weight_filler {
      type: "xavier"
      std: 0.03
    }
    bias_filler {
      type: "constant"
      value: 0.2
    }
  }
}
layer {
  name: "inception_4b/relu_3x3"
  type: "ReLU"
  bottom: "inception_4b/3x3"
  top: "inception_4b/3x3"
}
layer {
  name: "inception_4b/5x5_reduce"
  type: "Convolution"
  bottom: "inception_4a/output"
  top: "inception_4b/5x5_reduce"
  param {
    lr_mult: 1
    decay_mult: 1
  }
  param {
    lr_mult: 2
    decay_mult: 0
  }
  convolution_param {
    num_output: 24
    kernel_size: 1
    weight_filler {
      type: "xavier"
      std: 0.2
    }
    bias_filler {
      type: "constant"
      value: 0.2
    }
  }
}
layer {
  name: "inception_4b/relu_5x5_reduce"
  type: "ReLU"
  bottom: "inception_4b/5x5_reduce"
  top: "inception_4b/5x5_reduce"
}
layer {
  name: "inception_4b/5x5"
  type: "Convolution"
  bottom: "inception_4b/5x5_reduce"
  top: "inception_4b/5x5"
  param {
    lr_mult: 1
    decay_mult: 1
  }
  param {
    lr_mult: 2
    decay_mult: 0
  }
  convolution_param {
    num_output: 64
    pad: 2
    kernel_size: 5
    weight_filler {
      type: "xavier"
      std: 0.03
    }
    bias_filler {
      type: "constant"
      value: 0.2
    }
  }
}
layer {
  name: "inception_4b/relu_5x5"
  type: "ReLU"
  bottom: "inception_4b/5x5"
  top: "inception_4b/5x5"
}
layer {
  name: "inception_4b/pool"
  type: "Pooling"
  bottom: "inception_4a/output"
  top: "inception_4b/pool"
  pooling_param {
    pool: MAX
    kernel_size: 3
    stride: 1
    pad: 1
  }
}
layer {
  name: "inception_4b/pool_proj"
  type: "Convolution"
  bottom: "inception_4b/pool"
  top: "inception_4b/pool_proj"
  param {
    lr_mult: 1
    decay_mult: 1
  }
  param {
    lr_mult: 2
    decay_mult: 0
  }
  convolution_param {
    num_output: 64
    kernel_size: 1
    weight_filler {
      type: "xavier"
      std: 0.1
    }
    bias_filler {
      type: "constant"
      value: 0.2
    }
  }
}
layer {
  name: "inception_4b/relu_pool_proj"
  type: "ReLU"
  bottom: "inception_4b/pool_proj"
  top: "inception_4b/pool_proj"
}
layer {
  name: "inception_4b/output"
  type: "Concat"
  bottom: "inception_4b/1x1"
  bottom: "inception_4b/3x3"
  bottom: "inception_4b/5x5"
  bottom: "inception_4b/pool_proj"
  top: "inception_4b/output"
}
layer {
  name: "inception_4c/1x1"
  type: "Convolution"
  bottom: "inception_4b/output"
  top: "inception_4c/1x1"
  param {
    lr_mult: 1
    decay_mult: 1
  }
  param {
    lr_mult: 2
    decay_mult: 0
  }
  convolution_param {
    num_output: 128
    kernel_size: 1
    weight_filler {
      type: "xavier"
      std: 0.03
    }
    bias_filler {
      type: "constant"
      value: 0.2
    }
  }
}
layer {
  name: "inception_4c/relu_1x1"
  type: "ReLU"
  bottom: "inception_4c/1x1"
  top: "inception_4c/1x1"
}
layer {
  name: "inception_4c/3x3_reduce"
  type: "Convolution"
  bottom: "inception_4b/output"
  top: "inception_4c/3x3_reduce"
  param {
    lr_mult: 1
    decay_mult: 1
  }
  param {
    lr_mult: 2
    decay_mult: 0
  }
  convolution_param {
    num_output: 128
    kernel_size: 1
    weight_filler {
      type: "xavier"
      std: 0.09
    }
    bias_filler {
      type: "constant"
      value: 0.2
    }
  }
}
layer {
  name: "inception_4c/relu_3x3_reduce"
  type: "ReLU"
  bottom: "inception_4c/3x3_reduce"
  top: "inception_4c/3x3_reduce"
}
layer {
  name: "inception_4c/3x3"
  type: "Convolution"
  bottom: "inception_4c/3x3_reduce"
  top: "inception_4c/3x3"
  param {
    lr_mult: 1
    decay_mult: 1
  }
  param {
    lr_mult: 2
    decay_mult: 0
  }
  convolution_param {
    num_output: 256
    pad: 1
    kernel_size: 3
    weight_filler {
      type: "xavier"
      std: 0.03
    }
    bias_filler {
      type: "constant"
      value: 0.2
    }
  }
}
layer {
  name: "inception_4c/relu_3x3"
  type: "ReLU"
  bottom: "inception_4c/3x3"
  top: "inception_4c/3x3"
}
layer {
  name: "inception_4c/5x5_reduce"
  type: "Convolution"
  bottom: "inception_4b/output"
  top: "inception_4c/5x5_reduce"
  param {
    lr_mult: 1
    decay_mult: 1
  }
  param {
    lr_mult: 2
    decay_mult: 0
  }
  convolution_param {
    num_output: 24
    kernel_size: 1
    weight_filler {
      type: "xavier"
      std: 0.2
    }
    bias_filler {
      type: "constant"
      value: 0.2
    }
  }
}
layer {
  name: "inception_4c/relu_5x5_reduce"
  type: "ReLU"
  bottom: "inception_4c/5x5_reduce"
  top: "inception_4c/5x5_reduce"
}
layer {
  name: "inception_4c/5x5"
  type: "Convolution"
  bottom: "inception_4c/5x5_reduce"
  top: "inception_4c/5x5"
  param {
    lr_mult: 1
    decay_mult: 1
  }
  param {
    lr_mult: 2
    decay_mult: 0
  }
  convolution_param {
    num_output: 64
    pad: 2
    kernel_size: 5
    weight_filler {
      type: "xavier"
      std: 0.03
    }
    bias_filler {
      type: "constant"
      value: 0.2
    }
  }
}
layer {
  name: "inception_4c/relu_5x5"
  type: "ReLU"
  bottom: "inception_4c/5x5"
  top: "inception_4c/5x5"
}
layer {
  name: "inception_4c/pool"
  type: "Pooling"
  bottom: "inception_4b/output"
  top: "inception_4c/pool"
  pooling_param {
    pool: MAX
    kernel_size: 3
    stride: 1
    pad: 1
  }
}
layer {
  name: "inception_4c/pool_proj"
  type: "Convolution"
  bottom: "inception_4c/pool"
  top: "inception_4c/pool_proj"
  param {
    lr_mult: 1
    decay_mult: 1
  }
  param {
    lr_mult: 2
    decay_mult: 0
  }
  convolution_param {
    num_output: 64
    kernel_size: 1
    weight_filler {
      type: "xavier"
      std: 0.1
    }
    bias_filler {
      type: "constant"
      value: 0.2
    }
  }
}
layer {
  name: "inception_4c/relu_pool_proj"
  type: "ReLU"
  bottom: "inception_4c/pool_proj"
  top: "inception_4c/pool_proj"
}
layer {
  name: "inception_4c/output"
  type: "Concat"
  bottom: "inception_4c/1x1"
  bottom: "inception_4c/3x3"
  bottom: "inception_4c/5x5"
  bottom: "inception_4c/pool_proj"
  top: "inception_4c/output"
}
layer {
  name: "inception_4d/1x1"
  type: "Convolution"
  bottom: "inception_4c/output"
  top: "inception_4d/1x1"
  param {
    lr_mult: 1
    decay_mult: 1
  }
  param {
    lr_mult: 2
    decay_mult: 0
  }
  convolution_param {
    num_output: 112
    kernel_size: 1
    weight_filler {
      type: "xavier"
      std: 0.03
    }
    bias_filler {
      type: "constant"
      value: 0.2
    }
  }
}
layer {
  name: "inception_4d/relu_1x1"
  type: "ReLU"
  bottom: "inception_4d/1x1"
  top: "inception_4d/1x1"
}
layer {
  name: "inception_4d/3x3_reduce"
  type: "Convolution"
  bottom: "inception_4c/output"
  top: "inception_4d/3x3_reduce"
  param {
    lr_mult: 1
    decay_mult: 1
  }
  param {
    lr_mult: 2
    decay_mult: 0
  }
  convolution_param {
    num_output: 144
    kernel_size: 1
    weight_filler {
      type: "xavier"
      std: 0.09
    }
    bias_filler {
      type: "constant"
      value: 0.2
    }
  }
}
layer {
  name: "inception_4d/relu_3x3_reduce"
  type: "ReLU"
  bottom: "inception_4d/3x3_reduce"
  top: "inception_4d/3x3_reduce"
}
layer {
  name: "inception_4d/3x3"
  type: "Convolution"
  bottom: "inception_4d/3x3_reduce"
  top: "inception_4d/3x3"
  param {
    lr_mult: 1
    decay_mult: 1
  }
  param {
    lr_mult: 2
    decay_mult: 0
  }
  convolution_param {
    num_output: 288
    pad: 1
    kernel_size: 3
    weight_filler {
      type: "xavier"
      std: 0.03
    }
    bias_filler {
      type: "constant"
      value: 0.2
    }
  }
}
layer {
  name: "inception_4d/relu_3x3"
  type: "ReLU"
  bottom: "inception_4d/3x3"
  top: "inception_4d/3x3"
}
layer {
  name: "inception_4d/5x5_reduce"
  type: "Convolution"
  bottom: "inception_4c/output"
  top: "inception_4d/5x5_reduce"
  param {
    lr_mult: 1
    decay_mult: 1
  }
  param {
    lr_mult: 2
    decay_mult: 0
  }
  convolution_param {
    num_output: 32
    kernel_size: 1
    weight_filler {
      type: "xavier"
      std: 0.2
    }
    bias_filler {
      type: "constant"
      value: 0.2
    }
  }
}
layer {
  name: "inception_4d/relu_5x5_reduce"
  type: "ReLU"
  bottom: "inception_4d/5x5_reduce"
  top: "inception_4d/5x5_reduce"
}
layer {
  name: "inception_4d/5x5"
  type: "Convolution"
  bottom: "inception_4d/5x5_reduce"
  top: "inception_4d/5x5"
  param {
    lr_mult: 1
    decay_mult: 1
  }
  param {
    lr_mult: 2
    decay_mult: 0
  }
  convolution_param {
    num_output: 64
    pad: 2
    kernel_size: 5
    weight_filler {
      type: "xavier"
      std: 0.03
    }
    bias_filler {
      type: "constant"
      value: 0.2
    }
  }
}
layer {
  name: "inception_4d/relu_5x5"
  type: "ReLU"
  bottom: "inception_4d/5x5"
  top: "inception_4d/5x5"
}
layer {
  name: "inception_4d/pool"
  type: "Pooling"
  bottom: "inception_4c/output"
  top: "inception_4d/pool"
  pooling_param {
    pool: MAX
    kernel_size: 3
    stride: 1
    pad: 1
  }
}
layer {
  name: "inception_4d/pool_proj"
  type: "Convolution"
  bottom: "inception_4d/pool"
  top: "inception_4d/pool_proj"
  param {
    lr_mult: 1
    decay_mult: 1
  }
  param {
    lr_mult: 2
    decay_mult: 0
  }
  convolution_param {
    num_output: 64
    kernel_size: 1
    weight_filler {
      type: "xavier"
      std: 0.1
    }
    bias_filler {
      type: "constant"
      value: 0.2
    }
  }
}
layer {
  name: "inception_4d/relu_pool_proj"
  type: "ReLU"
  bottom: "inception_4d/pool_proj"
  top: "inception_4d/pool_proj"
}
layer {
  name: "inception_4d/output"
  type: "Concat"
  bottom: "inception_4d/1x1"
  bottom: "inception_4d/3x3"
  bottom: "inception_4d/5x5"
  bottom: "inception_4d/pool_proj"
  top: "inception_4d/output"
}
layer {
  name: "loss2/ave_pool"
  type: "Pooling"
  bottom: "inception_4d/output"
  top: "loss2/ave_pool"
  pooling_param {
    pool: AVE
    kernel_size: 5
    stride: 3
  }
}
layer {
  name: "loss2/conv"
  type: "Convolution"
  bottom: "loss2/ave_pool"
  top: "loss2/conv"
  param {
    lr_mult: 1
    decay_mult: 1
  }
  param {
    lr_mult: 2
    decay_mult: 0
  }
  convolution_param {
    num_output: 128
    kernel_size: 1
    weight_filler {
      type: "xavier"
      std: 0.08
    }
    bias_filler {
      type: "constant"
      value: 0.2
    }
  }
}
layer {
  name: "loss2/relu_conv"
  type: "ReLU"
  bottom: "loss2/conv"
  top: "loss2/conv"
}
layer {
  name: "loss2/fc"
  type: "InnerProduct"
  bottom: "loss2/conv"
  top: "loss2/fc"
  param {
    lr_mult: 1
    decay_mult: 1
  }
  param {
    lr_mult: 2
    decay_mult: 0
  }
  inner_product_param {
    num_output: 1024
    weight_filler {
      type: "xavier"
      std: 0.02
    }
    bias_filler {
      type: "constant"
      value: 0.2
    }
  }
}
layer {
  name: "loss2/relu_fc"
  type: "ReLU"
  bottom: "loss2/fc"
  top: "loss2/fc"
}
layer {
  name: "loss2/drop_fc"
  type: "Dropout"
  bottom: "loss2/fc"
  top: "loss2/fc"
  dropout_param {
    dropout_ratio: 0.7
  }
}
layer {
  name: "loss2/classifier_plantvillage"
  type: "InnerProduct"
  bottom: "loss2/fc"
  top: "loss2/classifier_plantvillage"
  param {
    lr_mult: 1
    decay_mult: 1
  }
  param {
    lr_mult: 2
    decay_mult: 0
  }
  inner_product_param {
    num_output: 38
    weight_filler {
      type: "xavier"
      std: 0.0009765625
    }
    bias_filler {
      type: "constant"
      value: 0
    }
  }
}
layer {
  name: "inception_4e/1x1"
  type: "Convolution"
  bottom: "inception_4d/output"
  top: "inception_4e/1x1"
  param {
    lr_mult: 1
    decay_mult: 1
  }
  param {
    lr_mult: 2
    decay_mult: 0
  }
  convolution_param {
    num_output: 256
    kernel_size: 1
    weight_filler {
      type: "xavier"
      std: 0.03
    }
    bias_filler {
      type: "constant"
      value: 0.2
    }
  }
}
layer {
  name: "inception_4e/relu_1x1"
  type: "ReLU"
  bottom: "inception_4e/1x1"
  top: "inception_4e/1x1"
}
layer {
  name: "inception_4e/3x3_reduce"
  type: "Convolution"
  bottom: "inception_4d/output"
  top: "inception_4e/3x3_reduce"
  param {
    lr_mult: 1
    decay_mult: 1
  }
  param {
    lr_mult: 2
    decay_mult: 0
  }
  convolution_param {
    num_output: 160
    kernel_size: 1
    weight_filler {
      type: "xavier"
      std: 0.09
    }
    bias_filler {
      type: "constant"
      value: 0.2
    }
  }
}
layer {
  name: "inception_4e/relu_3x3_reduce"
  type: "ReLU"
  bottom: "inception_4e/3x3_reduce"
  top: "inception_4e/3x3_reduce"
}
layer {
  name: "inception_4e/3x3"
  type: "Convolution"
  bottom: "inception_4e/3x3_reduce"
  top: "inception_4e/3x3"
  param {
    lr_mult: 1
    decay_mult: 1
  }
  param {
    lr_mult: 2
    decay_mult: 0
  }
  convolution_param {
    num_output: 320
    pad: 1
    kernel_size: 3
    weight_filler {
      type: "xavier"
      std: 0.03
    }
    bias_filler {
      type: "constant"
      value: 0.2
    }
  }
}
layer {
  name: "inception_4e/relu_3x3"
  type: "ReLU"
  bottom: "inception_4e/3x3"
  top: "inception_4e/3x3"
}
layer {
  name: "inception_4e/5x5_reduce"
  type: "Convolution"
  bottom: "inception_4d/output"
  top: "inception_4e/5x5_reduce"
  param {
    lr_mult: 1
    decay_mult: 1
  }
  param {
    lr_mult: 2
    decay_mult: 0
  }
  convolution_param {
    num_output: 32
    kernel_size: 1
    weight_filler {
      type: "xavier"
      std: 0.2
    }
    bias_filler {
      type: "constant"
      value: 0.2
    }
  }
}
layer {
  name: "inception_4e/relu_5x5_reduce"
  type: "ReLU"
  bottom: "inception_4e/5x5_reduce"
  top: "inception_4e/5x5_reduce"
}
layer {
  name: "inception_4e/5x5"
  type: "Convolution"
  bottom: "inception_4e/5x5_reduce"
  top: "inception_4e/
I0403 15:05:18.961369 31116 layer_factory.hpp:77] Creating layer data
I0403 15:05:18.961962 31116 net.cpp:91] Creating Layer data
I0403 15:05:18.961997 31116 net.cpp:399] data -> data
I0403 15:05:18.962057 31116 net.cpp:399] data -> label
I0403 15:05:18.962095 31116 data_transformer.cpp:25] Loading mean file from: /home/mohanty/data/final_dataset/lmdb/grayscale-80-20/mean.binaryproto
I0403 15:05:18.964577 31118 db_lmdb.cpp:38] Opened lmdb /home/mohanty/data/final_dataset/lmdb/grayscale-80-20/test_db
I0403 15:05:18.975335 31116 data_layer.cpp:41] output data size: 24,3,224,224
I0403 15:05:19.001756 31116 net.cpp:141] Setting up data
I0403 15:05:19.001835 31116 net.cpp:148] Top shape: 24 3 224 224 (3612672)
I0403 15:05:19.001859 31116 net.cpp:148] Top shape: 24 (24)
I0403 15:05:19.001875 31116 net.cpp:156] Memory required for data: 14450784
I0403 15:05:19.001904 31116 layer_factory.hpp:77] Creating layer label_data_1_split
I0403 15:05:19.001935 31116 net.cpp:91] Creating Layer label_data_1_split
I0403 15:05:19.001953 31116 net.cpp:425] label_data_1_split <- label
I0403 15:05:19.001989 31116 net.cpp:399] label_data_1_split -> label_data_1_split_0
I0403 15:05:19.002018 31116 net.cpp:399] label_data_1_split -> label_data_1_split_1
I0403 15:05:19.002039 31116 net.cpp:399] label_data_1_split -> label_data_1_split_2
I0403 15:05:19.002060 31116 net.cpp:399] label_data_1_split -> label_data_1_split_3
I0403 15:05:19.002080 31116 net.cpp:399] label_data_1_split -> label_data_1_split_4
I0403 15:05:19.002101 31116 net.cpp:399] label_data_1_split -> label_data_1_split_5
I0403 15:05:19.002121 31116 net.cpp:399] label_data_1_split -> label_data_1_split_6
I0403 15:05:19.002142 31116 net.cpp:399] label_data_1_split -> label_data_1_split_7
I0403 15:05:19.002161 31116 net.cpp:399] label_data_1_split -> label_data_1_split_8
I0403 15:05:19.002182 31116 net.cpp:399] label_data_1_split -> label_data_1_split_9
I0403 15:05:19.002297 31116 net.cpp:141] Setting up label_data_1_split
I0403 15:05:19.002322 31116 net.cpp:148] Top shape: 24 (24)
I0403 15:05:19.002341 31116 net.cpp:148] Top shape: 24 (24)
I0403 15:05:19.002357 31116 net.cpp:148] Top shape: 24 (24)
I0403 15:05:19.002374 31116 net.cpp:148] Top shape: 24 (24)
I0403 15:05:19.002390 31116 net.cpp:148] Top shape: 24 (24)
I0403 15:05:19.002406 31116 net.cpp:148] Top shape: 24 (24)
I0403 15:05:19.002421 31116 net.cpp:148] Top shape: 24 (24)
I0403 15:05:19.002439 31116 net.cpp:148] Top shape: 24 (24)
I0403 15:05:19.002454 31116 net.cpp:148] Top shape: 24 (24)
I0403 15:05:19.002470 31116 net.cpp:148] Top shape: 24 (24)
I0403 15:05:19.002523 31116 net.cpp:156] Memory required for data: 14451744
I0403 15:05:19.002540 31116 layer_factory.hpp:77] Creating layer conv1/7x7_s2
I0403 15:05:19.002574 31116 net.cpp:91] Creating Layer conv1/7x7_s2
I0403 15:05:19.002593 31116 net.cpp:425] conv1/7x7_s2 <- data
I0403 15:05:19.002612 31116 net.cpp:399] conv1/7x7_s2 -> conv1/7x7_s2
I0403 15:05:19.142643 31116 net.cpp:141] Setting up conv1/7x7_s2
I0403 15:05:19.142737 31116 net.cpp:148] Top shape: 24 64 112 112 (19267584)
I0403 15:05:19.142756 31116 net.cpp:156] Memory required for data: 91522080
I0403 15:05:19.142791 31116 layer_factory.hpp:77] Creating layer conv1/relu_7x7
I0403 15:05:19.142820 31116 net.cpp:91] Creating Layer conv1/relu_7x7
I0403 15:05:19.142839 31116 net.cpp:425] conv1/relu_7x7 <- conv1/7x7_s2
I0403 15:05:19.142877 31116 net.cpp:386] conv1/relu_7x7 -> conv1/7x7_s2 (in-place)
I0403 15:05:19.143137 31116 net.cpp:141] Setting up conv1/relu_7x7
I0403 15:05:19.143182 31116 net.cpp:148] Top shape: 24 64 112 112 (19267584)
I0403 15:05:19.143223 31116 net.cpp:156] Memory required for data: 168592416
I0403 15:05:19.143263 31116 layer_factory.hpp:77] Creating layer pool1/3x3_s2
I0403 15:05:19.143309 31116 net.cpp:91] Creating Layer pool1/3x3_s2
I0403 15:05:19.143335 31116 net.cpp:425] pool1/3x3_s2 <- conv1/7x7_s2
I0403 15:05:19.143368 31116 net.cpp:399] pool1/3x3_s2 -> pool1/3x3_s2
I0403 15:05:19.143455 31116 net.cpp:141] Setting up pool1/3x3_s2
I0403 15:05:19.143481 31116 net.cpp:148] Top shape: 24 64 56 56 (4816896)
I0403 15:05:19.143497 31116 net.cpp:156] Memory required for data: 187860000
I0403 15:05:19.143517 31116 layer_factory.hpp:77] Creating layer pool1/norm1
I0403 15:05:19.143545 31116 net.cpp:91] Creating Layer pool1/norm1
I0403 15:05:19.143563 31116 net.cpp:425] pool1/norm1 <- pool1/3x3_s2
I0403 15:05:19.143581 31116 net.cpp:399] pool1/norm1 -> pool1/norm1
I0403 15:05:19.143867 31116 net.cpp:141] Setting up pool1/norm1
I0403 15:05:19.143895 31116 net.cpp:148] Top shape: 24 64 56 56 (4816896)
I0403 15:05:19.143911 31116 net.cpp:156] Memory required for data: 207127584
I0403 15:05:19.143928 31116 layer_factory.hpp:77] Creating layer conv2/3x3_reduce
I0403 15:05:19.143954 31116 net.cpp:91] Creating Layer conv2/3x3_reduce
I0403 15:05:19.143970 31116 net.cpp:425] conv2/3x3_reduce <- pool1/norm1
I0403 15:05:19.143990 31116 net.cpp:399] conv2/3x3_reduce -> conv2/3x3_reduce
I0403 15:05:19.145391 31116 net.cpp:141] Setting up conv2/3x3_reduce
I0403 15:05:19.145421 31116 net.cpp:148] Top shape: 24 64 56 56 (4816896)
I0403 15:05:19.145437 31116 net.cpp:156] Memory required for data: 226395168
I0403 15:05:19.145462 31116 layer_factory.hpp:77] Creating layer conv2/relu_3x3_reduce
I0403 15:05:19.145483 31116 net.cpp:91] Creating Layer conv2/relu_3x3_reduce
I0403 15:05:19.145499 31116 net.cpp:425] conv2/relu_3x3_reduce <- conv2/3x3_reduce
I0403 15:05:19.145522 31116 net.cpp:386] conv2/relu_3x3_reduce -> conv2/3x3_reduce (in-place)
I0403 15:05:19.145798 31116 net.cpp:141] Setting up conv2/relu_3x3_reduce
I0403 15:05:19.145825 31116 net.cpp:148] Top shape: 24 64 56 56 (4816896)
I0403 15:05:19.145841 31116 net.cpp:156] Memory required for data: 245662752
I0403 15:05:19.145858 31116 layer_factory.hpp:77] Creating layer conv2/3x3
I0403 15:05:19.145881 31116 net.cpp:91] Creating Layer conv2/3x3
I0403 15:05:19.145900 31116 net.cpp:425] conv2/3x3 <- conv2/3x3_reduce
I0403 15:05:19.145921 31116 net.cpp:399] conv2/3x3 -> conv2/3x3
I0403 15:05:19.148296 31116 net.cpp:141] Setting up conv2/3x3
I0403 15:05:19.148334 31116 net.cpp:148] Top shape: 24 192 56 56 (14450688)
I0403 15:05:19.148352 31116 net.cpp:156] Memory required for data: 303465504
I0403 15:05:19.148378 31116 layer_factory.hpp:77] Creating layer conv2/relu_3x3
I0403 15:05:19.148401 31116 net.cpp:91] Creating Layer conv2/relu_3x3
I0403 15:05:19.148417 31116 net.cpp:425] conv2/relu_3x3 <- conv2/3x3
I0403 15:05:19.148435 31116 net.cpp:386] conv2/relu_3x3 -> conv2/3x3 (in-place)
I0403 15:05:19.148622 31116 net.cpp:141] Setting up conv2/relu_3x3
I0403 15:05:19.148650 31116 net.cpp:148] Top shape: 24 192 56 56 (14450688)
I0403 15:05:19.148700 31116 net.cpp:156] Memory required for data: 361268256
I0403 15:05:19.148717 31116 layer_factory.hpp:77] Creating layer conv2/norm2
I0403 15:05:19.148736 31116 net.cpp:91] Creating Layer conv2/norm2
I0403 15:05:19.148752 31116 net.cpp:425] conv2/norm2 <- conv2/3x3
I0403 15:05:19.148774 31116 net.cpp:399] conv2/norm2 -> conv2/norm2
I0403 15:05:19.149086 31116 net.cpp:141] Setting up conv2/norm2
I0403 15:05:19.149114 31116 net.cpp:148] Top shape: 24 192 56 56 (14450688)
I0403 15:05:19.149129 31116 net.cpp:156] Memory required for data: 419071008
I0403 15:05:19.149145 31116 layer_factory.hpp:77] Creating layer pool2/3x3_s2
I0403 15:05:19.149163 31116 net.cpp:91] Creating Layer pool2/3x3_s2
I0403 15:05:19.149179 31116 net.cpp:425] pool2/3x3_s2 <- conv2/norm2
I0403 15:05:19.149200 31116 net.cpp:399] pool2/3x3_s2 -> pool2/3x3_s2
I0403 15:05:19.149255 31116 net.cpp:141] Setting up pool2/3x3_s2
I0403 15:05:19.149279 31116 net.cpp:148] Top shape: 24 192 28 28 (3612672)
I0403 15:05:19.149294 31116 net.cpp:156] Memory required for data: 433521696
I0403 15:05:19.149309 31116 layer_factory.hpp:77] Creating layer pool2/3x3_s2_pool2/3x3_s2_0_split
I0403 15:05:19.149327 31116 net.cpp:91] Creating Layer pool2/3x3_s2_pool2/3x3_s2_0_split
I0403 15:05:19.149343 31116 net.cpp:425] pool2/3x3_s2_pool2/3x3_s2_0_split <- pool2/3x3_s2
I0403 15:05:19.149360 31116 net.cpp:399] pool2/3x3_s2_pool2/3x3_s2_0_split -> pool2/3x3_s2_pool2/3x3_s2_0_split_0
I0403 15:05:19.149384 31116 net.cpp:399] pool2/3x3_s2_pool2/3x3_s2_0_split -> pool2/3x3_s2_pool2/3x3_s2_0_split_1
I0403 15:05:19.149405 31116 net.cpp:399] pool2/3x3_s2_pool2/3x3_s2_0_split -> pool2/3x3_s2_pool2/3x3_s2_0_split_2
I0403 15:05:19.149426 31116 net.cpp:399] pool2/3x3_s2_pool2/3x3_s2_0_split -> pool2/3x3_s2_pool2/3x3_s2_0_split_3
I0403 15:05:19.149499 31116 net.cpp:141] Setting up pool2/3x3_s2_pool2/3x3_s2_0_split
I0403 15:05:19.149528 31116 net.cpp:148] Top shape: 24 192 28 28 (3612672)
I0403 15:05:19.149544 31116 net.cpp:148] Top shape: 24 192 28 28 (3612672)
I0403 15:05:19.149560 31116 net.cpp:148] Top shape: 24 192 28 28 (3612672)
I0403 15:05:19.149579 31116 net.cpp:148] Top shape: 24 192 28 28 (3612672)
I0403 15:05:19.149593 31116 net.cpp:156] Memory required for data: 491324448
I0403 15:05:19.149607 31116 layer_factory.hpp:77] Creating layer inception_3a/1x1
I0403 15:05:19.149632 31116 net.cpp:91] Creating Layer inception_3a/1x1
I0403 15:05:19.149651 31116 net.cpp:425] inception_3a/1x1 <- pool2/3x3_s2_pool2/3x3_s2_0_split_0
I0403 15:05:19.149669 31116 net.cpp:399] inception_3a/1x1 -> inception_3a/1x1
I0403 15:05:19.151278 31116 net.cpp:141] Setting up inception_3a/1x1
I0403 15:05:19.151309 31116 net.cpp:148] Top shape: 24 64 28 28 (1204224)
I0403 15:05:19.151326 31116 net.cpp:156] Memory required for data: 496141344
I0403 15:05:19.151346 31116 layer_factory.hpp:77] Creating layer inception_3a/relu_1x1
I0403 15:05:19.151370 31116 net.cpp:91] Creating Layer inception_3a/relu_1x1
I0403 15:05:19.151388 31116 net.cpp:425] inception_3a/relu_1x1 <- inception_3a/1x1
I0403 15:05:19.151408 31116 net.cpp:386] inception_3a/relu_1x1 -> inception_3a/1x1 (in-place)
I0403 15:05:19.151592 31116 net.cpp:141] Setting up inception_3a/relu_1x1
I0403 15:05:19.151623 31116 net.cpp:148] Top shape: 24 64 28 28 (1204224)
I0403 15:05:19.151639 31116 net.cpp:156] Memory required for data: 500958240
I0403 15:05:19.151655 31116 layer_factory.hpp:77] Creating layer inception_3a/3x3_reduce
I0403 15:05:19.151679 31116 net.cpp:91] Creating Layer inception_3a/3x3_reduce
I0403 15:05:19.151698 31116 net.cpp:425] inception_3a/3x3_reduce <- pool2/3x3_s2_pool2/3x3_s2_0_split_1
I0403 15:05:19.151720 31116 net.cpp:399] inception_3a/3x3_reduce -> inception_3a/3x3_reduce
I0403 15:05:19.153427 31116 net.cpp:141] Setting up inception_3a/3x3_reduce
I0403 15:05:19.153456 31116 net.cpp:148] Top shape: 24 96 28 28 (1806336)
I0403 15:05:19.153472 31116 net.cpp:156] Memory required for data: 508183584
I0403 15:05:19.153497 31116 layer_factory.hpp:77] Creating layer inception_3a/relu_3x3_reduce
I0403 15:05:19.153537 31116 net.cpp:91] Creating Layer inception_3a/relu_3x3_reduce
I0403 15:05:19.153556 31116 net.cpp:425] inception_3a/relu_3x3_reduce <- inception_3a/3x3_reduce
I0403 15:05:19.153578 31116 net.cpp:386] inception_3a/relu_3x3_reduce -> inception_3a/3x3_reduce (in-place)
I0403 15:05:19.153767 31116 net.cpp:141] Setting up inception_3a/relu_3x3_reduce
I0403 15:05:19.153792 31116 net.cpp:148] Top shape: 24 96 28 28 (1806336)
I0403 15:05:19.153807 31116 net.cpp:156] Memory required for data: 515408928
I0403 15:05:19.153831 31116 layer_factory.hpp:77] Creating layer inception_3a/3x3
I0403 15:05:19.153856 31116 net.cpp:91] Creating Layer inception_3a/3x3
I0403 15:05:19.153873 31116 net.cpp:425] inception_3a/3x3 <- inception_3a/3x3_reduce
I0403 15:05:19.153895 31116 net.cpp:399] inception_3a/3x3 -> inception_3a/3x3
I0403 15:05:19.155582 31116 net.cpp:141] Setting up inception_3a/3x3
I0403 15:05:19.155614 31116 net.cpp:148] Top shape: 24 128 28 28 (2408448)
I0403 15:05:19.155632 31116 net.cpp:156] Memory required for data: 525042720
I0403 15:05:19.155652 31116 layer_factory.hpp:77] Creating layer inception_3a/relu_3x3
I0403 15:05:19.155671 31116 net.cpp:91] Creating Layer inception_3a/relu_3x3
I0403 15:05:19.155689 31116 net.cpp:425] inception_3a/relu_3x3 <- inception_3a/3x3
I0403 15:05:19.155709 31116 net.cpp:386] inception_3a/relu_3x3 -> inception_3a/3x3 (in-place)
I0403 15:05:19.155987 31116 net.cpp:141] Setting up inception_3a/relu_3x3
I0403 15:05:19.156014 31116 net.cpp:148] Top shape: 24 128 28 28 (2408448)
I0403 15:05:19.156029 31116 net.cpp:156] Memory required for data: 534676512
I0403 15:05:19.156044 31116 layer_factory.hpp:77] Creating layer inception_3a/5x5_reduce
I0403 15:05:19.156069 31116 net.cpp:91] Creating Layer inception_3a/5x5_reduce
I0403 15:05:19.156087 31116 net.cpp:425] inception_3a/5x5_reduce <- pool2/3x3_s2_pool2/3x3_s2_0_split_2
I0403 15:05:19.156107 31116 net.cpp:399] inception_3a/5x5_reduce -> inception_3a/5x5_reduce
I0403 15:05:19.157083 31116 net.cpp:141] Setting up inception_3a/5x5_reduce
I0403 15:05:19.157111 31116 net.cpp:148] Top shape: 24 16 28 28 (301056)
I0403 15:05:19.157127 31116 net.cpp:156] Memory required for data: 535880736
I0403 15:05:19.157146 31116 layer_factory.hpp:77] Creating layer inception_3a/relu_5x5_reduce
I0403 15:05:19.157166 31116 net.cpp:91] Creating Layer inception_3a/relu_5x5_reduce
I0403 15:05:19.157183 31116 net.cpp:425] inception_3a/relu_5x5_reduce <- inception_3a/5x5_reduce
I0403 15:05:19.157202 31116 net.cpp:386] inception_3a/relu_5x5_reduce -> inception_3a/5x5_reduce (in-place)
I0403 15:05:19.157507 31116 net.cpp:141] Setting up inception_3a/relu_5x5_reduce
I0403 15:05:19.157536 31116 net.cpp:148] Top shape: 24 16 28 28 (301056)
I0403 15:05:19.157565 31116 net.cpp:156] Memory required for data: 537084960
I0403 15:05:19.157580 31116 layer_factory.hpp:77] Creating layer inception_3a/5x5
I0403 15:05:19.157603 31116 net.cpp:91] Creating Layer inception_3a/5x5
I0403 15:05:19.157620 31116 net.cpp:425] inception_3a/5x5 <- inception_3a/5x5_reduce
I0403 15:05:19.157640 31116 net.cpp:399] inception_3a/5x5 -> inception_3a/5x5
I0403 15:05:19.158637 31116 net.cpp:141] Setting up inception_3a/5x5
I0403 15:05:19.158663 31116 net.cpp:148] Top shape: 24 32 28 28 (602112)
I0403 15:05:19.158679 31116 net.cpp:156] Memory required for data: 539493408
I0403 15:05:19.158699 31116 layer_factory.hpp:77] Creating layer inception_3a/relu_5x5
I0403 15:05:19.158720 31116 net.cpp:91] Creating Layer inception_3a/relu_5x5
I0403 15:05:19.158736 31116 net.cpp:425] inception_3a/relu_5x5 <- inception_3a/5x5
I0403 15:05:19.158754 31116 net.cpp:386] inception_3a/relu_5x5 -> inception_3a/5x5 (in-place)
I0403 15:05:19.158923 31116 net.cpp:141] Setting up inception_3a/relu_5x5
I0403 15:05:19.158951 31116 net.cpp:148] Top shape: 24 32 28 28 (602112)
I0403 15:05:19.158967 31116 net.cpp:156] Memory required for data: 541901856
I0403 15:05:19.158982 31116 layer_factory.hpp:77] Creating layer inception_3a/pool
I0403 15:05:19.158999 31116 net.cpp:91] Creating Layer inception_3a/pool
I0403 15:05:19.159029 31116 net.cpp:425] inception_3a/pool <- pool2/3x3_s2_pool2/3x3_s2_0_split_3
I0403 15:05:19.159047 31116 net.cpp:399] inception_3a/pool -> inception_3a/pool
I0403 15:05:19.159104 31116 net.cpp:141] Setting up inception_3a/pool
I0403 15:05:19.159128 31116 net.cpp:148] Top shape: 24 192 28 28 (3612672)
I0403 15:05:19.159143 31116 net.cpp:156] Memory required for data: 556352544
I0403 15:05:19.159157 31116 layer_factory.hpp:77] Creating layer inception_3a/pool_proj
I0403 15:05:19.159179 31116 net.cpp:91] Creating Layer inception_3a/pool_proj
I0403 15:05:19.159198 31116 net.cpp:425] inception_3a/pool_proj <- inception_3a/pool
I0403 15:05:19.159224 31116 net.cpp:399] inception_3a/pool_proj -> inception_3a/pool_proj
I0403 15:05:19.160167 31116 net.cpp:141] Setting up inception_3a/pool_proj
I0403 15:05:19.160195 31116 net.cpp:148] Top shape: 24 32 28 28 (602112)
I0403 15:05:19.160212 31116 net.cpp:156] Memory required for data: 558760992
I0403 15:05:19.160235 31116 layer_factory.hpp:77] Creating layer inception_3a/relu_pool_proj
I0403 15:05:19.160256 31116 net.cpp:91] Creating Layer inception_3a/relu_pool_proj
I0403 15:05:19.160272 31116 net.cpp:425] inception_3a/relu_pool_proj <- inception_3a/pool_proj
I0403 15:05:19.160290 31116 net.cpp:386] inception_3a/relu_pool_proj -> inception_3a/pool_proj (in-place)
I0403 15:05:19.160564 31116 net.cpp:141] Setting up inception_3a/relu_pool_proj
I0403 15:05:19.160591 31116 net.cpp:148] Top shape: 24 32 28 28 (602112)
I0403 15:05:19.160606 31116 net.cpp:156] Memory required for data: 561169440
I0403 15:05:19.160621 31116 layer_factory.hpp:77] Creating layer inception_3a/output
I0403 15:05:19.160641 31116 net.cpp:91] Creating Layer inception_3a/output
I0403 15:05:19.160658 31116 net.cpp:425] inception_3a/output <- inception_3a/1x1
I0403 15:05:19.160676 31116 net.cpp:425] inception_3a/output <- inception_3a/3x3
I0403 15:05:19.160691 31116 net.cpp:425] inception_3a/output <- inception_3a/5x5
I0403 15:05:19.160707 31116 net.cpp:425] inception_3a/output <- inception_3a/pool_proj
I0403 15:05:19.160725 31116 net.cpp:399] inception_3a/output -> inception_3a/output
I0403 15:05:19.160773 31116 net.cpp:141] Setting up inception_3a/output
I0403 15:05:19.160805 31116 net.cpp:148] Top shape: 24 256 28 28 (4816896)
I0403 15:05:19.160820 31116 net.cpp:156] Memory required for data: 580437024
I0403 15:05:19.160835 31116 layer_factory.hpp:77] Creating layer inception_3a/output_inception_3a/output_0_split
I0403 15:05:19.160851 31116 net.cpp:91] Creating Layer inception_3a/output_inception_3a/output_0_split
I0403 15:05:19.160867 31116 net.cpp:425] inception_3a/output_inception_3a/output_0_split <- inception_3a/output
I0403 15:05:19.160887 31116 net.cpp:399] inception_3a/output_inception_3a/output_0_split -> inception_3a/output_inception_3a/output_0_split_0
I0403 15:05:19.160907 31116 net.cpp:399] inception_3a/output_inception_3a/output_0_split -> inception_3a/output_inception_3a/output_0_split_1
I0403 15:05:19.160931 31116 net.cpp:399] inception_3a/output_inception_3a/output_0_split -> inception_3a/output_inception_3a/output_0_split_2
I0403 15:05:19.160953 31116 net.cpp:399] inception_3a/output_inception_3a/output_0_split -> inception_3a/output_inception_3a/output_0_split_3
I0403 15:05:19.161028 31116 net.cpp:141] Setting up inception_3a/output_inception_3a/output_0_split
I0403 15:05:19.161051 31116 net.cpp:148] Top shape: 24 256 28 28 (4816896)
I0403 15:05:19.161068 31116 net.cpp:148] Top shape: 24 256 28 28 (4816896)
I0403 15:05:19.161084 31116 net.cpp:148] Top shape: 24 256 28 28 (4816896)
I0403 15:05:19.161099 31116 net.cpp:148] Top shape: 24 256 28 28 (4816896)
I0403 15:05:19.161113 31116 net.cpp:156] Memory required for data: 657507360
I0403 15:05:19.161128 31116 layer_factory.hpp:77] Creating layer inception_3b/1x1
I0403 15:05:19.161149 31116 net.cpp:91] Creating Layer inception_3b/1x1
I0403 15:05:19.161169 31116 net.cpp:425] inception_3b/1x1 <- inception_3a/output_inception_3a/output_0_split_0
I0403 15:05:19.161188 31116 net.cpp:399] inception_3b/1x1 -> inception_3b/1x1
I0403 15:05:19.162307 31116 net.cpp:141] Setting up inception_3b/1x1
I0403 15:05:19.162345 31116 net.cpp:148] Top shape: 24 128 28 28 (2408448)
I0403 15:05:19.162361 31116 net.cpp:156] Memory required for data: 667141152
I0403 15:05:19.162380 31116 layer_factory.hpp:77] Creating layer inception_3b/relu_1x1
I0403 15:05:19.162402 31116 net.cpp:91] Creating Layer inception_3b/relu_1x1
I0403 15:05:19.162420 31116 net.cpp:425] inception_3b/relu_1x1 <- inception_3b/1x1
I0403 15:05:19.162436 31116 net.cpp:386] inception_3b/relu_1x1 -> inception_3b/1x1 (in-place)
I0403 15:05:19.162626 31116 net.cpp:141] Setting up inception_3b/relu_1x1
I0403 15:05:19.162650 31116 net.cpp:148] Top shape: 24 128 28 28 (2408448)
I0403 15:05:19.162665 31116 net.cpp:156] Memory required for data: 676774944
I0403 15:05:19.162680 31116 layer_factory.hpp:77] Creating layer inception_3b/3x3_reduce
I0403 15:05:19.162705 31116 net.cpp:91] Creating Layer inception_3b/3x3_reduce
I0403 15:05:19.162724 31116 net.cpp:425] inception_3b/3x3_reduce <- inception_3a/output_inception_3a/output_0_split_1
I0403 15:05:19.162742 31116 net.cpp:399] inception_3b/3x3_reduce -> inception_3b/3x3_reduce
I0403 15:05:19.163877 31116 net.cpp:141] Setting up inception_3b/3x3_reduce
I0403 15:05:19.163903 31116 net.cpp:148] Top shape: 24 128 28 28 (2408448)
I0403 15:05:19.163919 31116 net.cpp:156] Memory required for data: 686408736
I0403 15:05:19.163938 31116 layer_factory.hpp:77] Creating layer inception_3b/relu_3x3_reduce
I0403 15:05:19.163956 31116 net.cpp:91] Creating Layer inception_3b/relu_3x3_reduce
I0403 15:05:19.163972 31116 net.cpp:425] inception_3b/relu_3x3_reduce <- inception_3b/3x3_reduce
I0403 15:05:19.163992 31116 net.cpp:386] inception_3b/relu_3x3_reduce -> inception_3b/3x3_reduce (in-place)
I0403 15:05:19.164160 31116 net.cpp:141] Setting up inception_3b/relu_3x3_reduce
I0403 15:05:19.164186 31116 net.cpp:148] Top shape: 24 128 28 28 (2408448)
I0403 15:05:19.164201 31116 net.cpp:156] Memory required for data: 696042528
I0403 15:05:19.164216 31116 layer_factory.hpp:77] Creating layer inception_3b/3x3
I0403 15:05:19.164242 31116 net.cpp:91] Creating Layer inception_3b/3x3
I0403 15:05:19.164260 31116 net.cpp:425] inception_3b/3x3 <- inception_3b/3x3_reduce
I0403 15:05:19.164281 31116 net.cpp:399] inception_3b/3x3 -> inception_3b/3x3
I0403 15:05:19.167165 31116 net.cpp:141] Setting up inception_3b/3x3
I0403 15:05:19.167194 31116 net.cpp:148] Top shape: 24 192 28 28 (3612672)
I0403 15:05:19.167210 31116 net.cpp:156] Memory required for data: 710493216
I0403 15:05:19.167229 31116 layer_factory.hpp:77] Creating layer inception_3b/relu_3x3
I0403 15:05:19.167249 31116 net.cpp:91] Creating Layer inception_3b/relu_3x3
I0403 15:05:19.167266 31116 net.cpp:425] inception_3b/relu_3x3 <- inception_3b/3x3
I0403 15:05:19.167284 31116 net.cpp:386] inception_3b/relu_3x3 -> inception_3b/3x3 (in-place)
I0403 15:05:19.167562 31116 net.cpp:141] Setting up inception_3b/relu_3x3
I0403 15:05:19.167587 31116 net.cpp:148] Top shape: 24 192 28 28 (3612672)
I0403 15:05:19.167603 31116 net.cpp:156] Memory required for data: 724943904
I0403 15:05:19.167618 31116 layer_factory.hpp:77] Creating layer inception_3b/5x5_reduce
I0403 15:05:19.167640 31116 net.cpp:91] Creating Layer inception_3b/5x5_reduce
I0403 15:05:19.167659 31116 net.cpp:425] inception_3b/5x5_reduce <- inception_3a/output_inception_3a/output_0_split_2
I0403 15:05:19.167680 31116 net.cpp:399] inception_3b/5x5_reduce -> inception_3b/5x5_reduce
I0403 15:05:19.168654 31116 net.cpp:141] Setting up inception_3b/5x5_reduce
I0403 15:05:19.168683 31116 net.cpp:148] Top shape: 24 32 28 28 (602112)
I0403 15:05:19.168697 31116 net.cpp:156] Memory required for data: 727352352
I0403 15:05:19.168716 31116 layer_factory.hpp:77] Creating layer inception_3b/relu_5x5_reduce
I0403 15:05:19.168735 31116 net.cpp:91] Creating Layer inception_3b/relu_5x5_reduce
I0403 15:05:19.168753 31116 net.cpp:425] inception_3b/relu_5x5_reduce <- inception_3b/5x5_reduce
I0403 15:05:19.168771 31116 net.cpp:386] inception_3b/relu_5x5_reduce -> inception_3b/5x5_reduce (in-place)
I0403 15:05:19.168962 31116 net.cpp:141] Setting up inception_3b/relu_5x5_reduce
I0403 15:05:19.168989 31116 net.cpp:148] Top shape: 24 32 28 28 (602112)
I0403 15:05:19.169004 31116 net.cpp:156] Memory required for data: 729760800
I0403 15:05:19.169019 31116 layer_factory.hpp:77] Creating layer inception_3b/5x5
I0403 15:05:19.169041 31116 net.cpp:91] Creating Layer inception_3b/5x5
I0403 15:05:19.169059 31116 net.cpp:425] inception_3b/5x5 <- inception_3b/5x5_reduce
I0403 15:05:19.169078 31116 net.cpp:399] inception_3b/5x5 -> inception_3b/5x5
I0403 15:05:19.171051 31116 net.cpp:141] Setting up inception_3b/5x5
I0403 15:05:19.171082 31116 net.cpp:148] Top shape: 24 96 28 28 (1806336)
I0403 15:05:19.171097 31116 net.cpp:156] Memory required for data: 736986144
I0403 15:05:19.171115 31116 layer_factory.hpp:77] Creating layer inception_3b/relu_5x5
I0403 15:05:19.171133 31116 net.cpp:91] Creating Layer inception_3b/relu_5x5
I0403 15:05:19.171149 31116 net.cpp:425] inception_3b/relu_5x5 <- inception_3b/5x5
I0403 15:05:19.171169 31116 net.cpp:386] inception_3b/relu_5x5 -> inception_3b/5x5 (in-place)
I0403 15:05:19.171361 31116 net.cpp:141] Setting up inception_3b/relu_5x5
I0403 15:05:19.171386 31116 net.cpp:148] Top shape: 24 96 28 28 (1806336)
I0403 15:05:19.171402 31116 net.cpp:156] Memory required for data: 744211488
I0403 15:05:19.171417 31116 layer_factory.hpp:77] Creating layer inception_3b/pool
I0403 15:05:19.171434 31116 net.cpp:91] Creating Layer inception_3b/pool
I0403 15:05:19.171452 31116 net.cpp:425] inception_3b/pool <- inception_3a/output_inception_3a/output_0_split_3
I0403 15:05:19.171469 31116 net.cpp:399] inception_3b/pool -> inception_3b/pool
I0403 15:05:19.171530 31116 net.cpp:141] Setting up inception_3b/pool
I0403 15:05:19.171552 31116 net.cpp:148] Top shape: 24 256 28 28 (4816896)
I0403 15:05:19.171569 31116 net.cpp:156] Memory required for data: 763479072
I0403 15:05:19.171584 31116 layer_factory.hpp:77] Creating layer inception_3b/pool_proj
I0403 15:05:19.171607 31116 net.cpp:91] Creating Layer inception_3b/pool_proj
I0403 15:05:19.171624 31116 net.cpp:425] inception_3b/pool_proj <- inception_3b/pool
I0403 15:05:19.171644 31116 net.cpp:399] inception_3b/pool_proj -> inception_3b/pool_proj
I0403 15:05:19.172684 31116 net.cpp:141] Setting up inception_3b/pool_proj
I0403 15:05:19.172714 31116 net.cpp:148] Top shape: 24 64 28 28 (1204224)
I0403 15:05:19.172730 31116 net.cpp:156] Memory required for data: 768295968
I0403 15:05:19.172749 31116 layer_factory.hpp:77] Creating layer inception_3b/relu_pool_proj
I0403 15:05:19.172767 31116 net.cpp:91] Creating Layer inception_3b/relu_pool_proj
I0403 15:05:19.172783 31116 net.cpp:425] inception_3b/relu_pool_proj <- inception_3b/pool_proj
I0403 15:05:19.172803 31116 net.cpp:386] inception_3b/relu_pool_proj -> inception_3b/pool_proj (in-place)
I0403 15:05:19.173192 31116 net.cpp:141] Setting up inception_3b/relu_pool_proj
I0403 15:05:19.173220 31116 net.cpp:148] Top shape: 24 64 28 28 (1204224)
I0403 15:05:19.173236 31116 net.cpp:156] Memory required for data: 773112864
I0403 15:05:19.173251 31116 layer_factory.hpp:77] Creating layer inception_3b/output
I0403 15:05:19.173269 31116 net.cpp:91] Creating Layer inception_3b/output
I0403 15:05:19.173285 31116 net.cpp:425] inception_3b/output <- inception_3b/1x1
I0403 15:05:19.173302 31116 net.cpp:425] inception_3b/output <- inception_3b/3x3
I0403 15:05:19.173318 31116 net.cpp:425] inception_3b/output <- inception_3b/5x5
I0403 15:05:19.173333 31116 net.cpp:425] inception_3b/output <- inception_3b/pool_proj
I0403 15:05:19.173352 31116 net.cpp:399] inception_3b/output -> inception_3b/output
I0403 15:05:19.173395 31116 net.cpp:141] Setting up inception_3b/output
I0403 15:05:19.173419 31116 net.cpp:148] Top shape: 24 480 28 28 (9031680)
I0403 15:05:19.173434 31116 net.cpp:156] Memory required for data: 809239584
I0403 15:05:19.173449 31116 layer_factory.hpp:77] Creating layer pool3/3x3_s2
I0403 15:05:19.173468 31116 net.cpp:91] Creating Layer pool3/3x3_s2
I0403 15:05:19.173485 31116 net.cpp:425] pool3/3x3_s2 <- inception_3b/output
I0403 15:05:19.173521 31116 net.cpp:399] pool3/3x3_s2 -> pool3/3x3_s2
I0403 15:05:19.173583 31116 net.cpp:141] Setting up pool3/3x3_s2
I0403 15:05:19.173606 31116 net.cpp:148] Top shape: 24 480 14 14 (2257920)
I0403 15:05:19.173621 31116 net.cpp:156] Memory required for data: 818271264
I0403 15:05:19.173636 31116 layer_factory.hpp:77] Creating layer pool3/3x3_s2_pool3/3x3_s2_0_split
I0403 15:05:19.173652 31116 net.cpp:91] Creating Layer pool3/3x3_s2_pool3/3x3_s2_0_split
I0403 15:05:19.173667 31116 net.cpp:425] pool3/3x3_s2_pool3/3x3_s2_0_split <- pool3/3x3_s2
I0403 15:05:19.173686 31116 net.cpp:399] pool3/3x3_s2_pool3/3x3_s2_0_split -> pool3/3x3_s2_pool3/3x3_s2_0_split_0
I0403 15:05:19.173707 31116 net.cpp:399] pool3/3x3_s2_pool3/3x3_s2_0_split -> pool3/3x3_s2_pool3/3x3_s2_0_split_1
I0403 15:05:19.173727 31116 net.cpp:399] pool3/3x3_s2_pool3/3x3_s2_0_split -> pool3/3x3_s2_pool3/3x3_s2_0_split_2
I0403 15:05:19.173746 31116 net.cpp:399] pool3/3x3_s2_pool3/3x3_s2_0_split -> pool3/3x3_s2_pool3/3x3_s2_0_split_3
I0403 15:05:19.173820 31116 net.cpp:141] Setting up pool3/3x3_s2_pool3/3x3_s2_0_split
I0403 15:05:19.173846 31116 net.cpp:148] Top shape: 24 480 14 14 (2257920)
I0403 15:05:19.173862 31116 net.cpp:148] Top shape: 24 480 14 14 (2257920)
I0403 15:05:19.173877 31116 net.cpp:148] Top shape: 24 480 14 14 (2257920)
I0403 15:05:19.173893 31116 net.cpp:148] Top shape: 24 480 14 14 (2257920)
I0403 15:05:19.173907 31116 net.cpp:156] Memory required for data: 854397984
I0403 15:05:19.173921 31116 layer_factory.hpp:77] Creating layer inception_4a/1x1
I0403 15:05:19.173943 31116 net.cpp:91] Creating Layer inception_4a/1x1
I0403 15:05:19.173960 31116 net.cpp:425] inception_4a/1x1 <- pool3/3x3_s2_pool3/3x3_s2_0_split_0
I0403 15:05:19.173979 31116 net.cpp:399] inception_4a/1x1 -> inception_4a/1x1
I0403 15:05:19.175547 31116 net.cpp:141] Setting up inception_4a/1x1
I0403 15:05:19.175576 31116 net.cpp:148] Top shape: 24 192 14 14 (903168)
I0403 15:05:19.175592 31116 net.cpp:156] Memory required for data: 858010656
I0403 15:05:19.175611 31116 layer_factory.hpp:77] Creating layer inception_4a/relu_1x1
I0403 15:05:19.175629 31116 net.cpp:91] Creating Layer inception_4a/relu_1x1
I0403 15:05:19.175645 31116 net.cpp:425] inception_4a/relu_1x1 <- inception_4a/1x1
I0403 15:05:19.175664 31116 net.cpp:386] inception_4a/relu_1x1 -> inception_4a/1x1 (in-place)
I0403 15:05:19.175843 31116 net.cpp:141] Setting up inception_4a/relu_1x1
I0403 15:05:19.175868 31116 net.cpp:148] Top shape: 24 192 14 14 (903168)
I0403 15:05:19.175881 31116 net.cpp:156] Memory required for data: 861623328
I0403 15:05:19.175896 31116 layer_factory.hpp:77] Creating layer inception_4a/3x3_reduce
I0403 15:05:19.175920 31116 net.cpp:91] Creating Layer inception_4a/3x3_reduce
I0403 15:05:19.175936 31116 net.cpp:425] inception_4a/3x3_reduce <- pool3/3x3_s2_pool3/3x3_s2_0_split_1
I0403 15:05:19.175957 31116 net.cpp:399] inception_4a/3x3_reduce -> inception_4a/3x3_reduce
I0403 15:05:19.177224 31116 net.cpp:141] Setting up inception_4a/3x3_reduce
I0403 15:05:19.177253 31116 net.cpp:148] Top shape: 24 96 14 14 (451584)
I0403 15:05:19.177269 31116 net.cpp:156] Memory required for data: 863429664
I0403 15:05:19.177295 31116 layer_factory.hpp:77] Creating layer inception_4a/relu_3x3_reduce
I0403 15:05:19.177314 31116 net.cpp:91] Creating Layer inception_4a/relu_3x3_reduce
I0403 15:05:19.177331 31116 net.cpp:425] inception_4a/relu_3x3_reduce <- inception_4a/3x3_reduce
I0403 15:05:19.177348 31116 net.cpp:386] inception_4a/relu_3x3_reduce -> inception_4a/3x3_reduce (in-place)
I0403 15:05:19.177532 31116 net.cpp:141] Setting up inception_4a/relu_3x3_reduce
I0403 15:05:19.177557 31116 net.cpp:148] Top shape: 24 96 14 14 (451584)
I0403 15:05:19.177572 31116 net.cpp:156] Memory required for data: 865236000
I0403 15:05:19.177587 31116 layer_factory.hpp:77] Creating layer inception_4a/3x3
I0403 15:05:19.177609 31116 net.cpp:91] Creating Layer inception_4a/3x3
I0403 15:05:19.177626 31116 net.cpp:425] inception_4a/3x3 <- inception_4a/3x3_reduce
I0403 15:05:19.177647 31116 net.cpp:399] inception_4a/3x3 -> inception_4a/3x3
I0403 15:05:19.180306 31116 net.cpp:141] Setting up inception_4a/3x3
I0403 15:05:19.180335 31116 net.cpp:148] Top shape: 24 208 14 14 (978432)
I0403 15:05:19.180351 31116 net.cpp:156] Memory required for data: 869149728
I0403 15:05:19.180369 31116 layer_factory.hpp:77] Creating layer inception_4a/relu_3x3
I0403 15:05:19.180390 31116 net.cpp:91] Creating Layer inception_4a/relu_3x3
I0403 15:05:19.180408 31116 net.cpp:425] inception_4a/relu_3x3 <- inception_4a/3x3
I0403 15:05:19.180424 31116 net.cpp:386] inception_4a/relu_3x3 -> inception_4a/3x3 (in-place)
I0403 15:05:19.180708 31116 net.cpp:141] Setting up inception_4a/relu_3x3
I0403 15:05:19.180735 31116 net.cpp:148] Top shape: 24 208 14 14 (978432)
I0403 15:05:19.180750 31116 net.cpp:156] Memory required for data: 873063456
I0403 15:05:19.180766 31116 layer_factory.hpp:77] Creating layer inception_4a/5x5_reduce
I0403 15:05:19.180788 31116 net.cpp:91] Creating Layer inception_4a/5x5_reduce
I0403 15:05:19.180814 31116 net.cpp:425] inception_4a/5x5_reduce <- pool3/3x3_s2_pool3/3x3_s2_0_split_2
I0403 15:05:19.180835 31116 net.cpp:399] inception_4a/5x5_reduce -> inception_4a/5x5_reduce
I0403 15:05:19.181841 31116 net.cpp:141] Setting up inception_4a/5x5_reduce
I0403 15:05:19.181869 31116 net.cpp:148] Top shape: 24 16 14 14 (75264)
I0403 15:05:19.181885 31116 net.cpp:156] Memory required for data: 873364512
I0403 15:05:19.181912 31116 layer_factory.hpp:77] Creating layer inception_4a/relu_5x5_reduce
I0403 15:05:19.181933 31116 net.cpp:91] Creating Layer inception_4a/relu_5x5_reduce
I0403 15:05:19.181951 31116 net.cpp:425] inception_4a/relu_5x5_reduce <- inception_4a/5x5_reduce
I0403 15:05:19.181968 31116 net.cpp:386] inception_4a/relu_5x5_reduce -> inception_4a/5x5_reduce (in-place)
I0403 15:05:19.182140 31116 net.cpp:141] Setting up inception_4a/relu_5x5_reduce
I0403 15:05:19.182168 31116 net.cpp:148] Top shape: 24 16 14 14 (75264)
I0403 15:05:19.182184 31116 net.cpp:156] Memory required for data: 873665568
I0403 15:05:19.182200 31116 layer_factory.hpp:77] Creating layer inception_4a/5x5
I0403 15:05:19.182222 31116 net.cpp:91] Creating Layer inception_4a/5x5
I0403 15:05:19.182240 31116 net.cpp:425] inception_4a/5x5 <- inception_4a/5x5_reduce
I0403 15:05:19.182258 31116 net.cpp:399] inception_4a/5x5 -> inception_4a/5x5
I0403 15:05:19.183329 31116 net.cpp:141] Setting up inception_4a/5x5
I0403 15:05:19.183359 31116 net.cpp:148] Top shape: 24 48 14 14 (225792)
I0403 15:05:19.183375 31116 net.cpp:156] Memory required for data: 874568736
I0403 15:05:19.183398 31116 layer_factory.hpp:77] Creating layer inception_4a/relu_5x5
I0403 15:05:19.183421 31116 net.cpp:91] Creating Layer inception_4a/relu_5x5
I0403 15:05:19.183437 31116 net.cpp:425] inception_4a/relu_5x5 <- inception_4a/5x5
I0403 15:05:19.183459 31116 net.cpp:386] inception_4a/relu_5x5 -> inception_4a/5x5 (in-place)
I0403 15:05:19.183641 31116 net.cpp:141] Setting up inception_4a/relu_5x5
I0403 15:05:19.183667 31116 net.cpp:148] Top shape: 24 48 14 14 (225792)
I0403 15:05:19.183682 31116 net.cpp:156] Memory required for data: 875471904
I0403 15:05:19.183696 31116 layer_factory.hpp:77] Creating layer inception_4a/pool
I0403 15:05:19.183714 31116 net.cpp:91] Creating Layer inception_4a/pool
I0403 15:05:19.183729 31116 net.cpp:425] inception_4a/pool <- pool3/3x3_s2_pool3/3x3_s2_0_split_3
I0403 15:05:19.183775 31116 net.cpp:399] inception_4a/pool -> inception_4a/pool
I0403 15:05:19.183854 31116 net.cpp:141] Setting up inception_4a/pool
I0403 15:05:19.183897 31116 net.cpp:148] Top shape: 24 480 14 14 (2257920)
I0403 15:05:19.183936 31116 net.cpp:156] Memory required for data: 884503584
I0403 15:05:19.183972 31116 layer_factory.hpp:77] Creating layer inception_4a/pool_proj
I0403 15:05:19.184017 31116 net.cpp:91] Creating Layer inception_4a/pool_proj
I0403 15:05:19.184037 31116 net.cpp:425] inception_4a/pool_proj <- inception_4a/pool
I0403 15:05:19.184056 31116 net.cpp:399] inception_4a/pool_proj -> inception_4a/pool_proj
I0403 15:05:19.185204 31116 net.cpp:141] Setting up inception_4a/pool_proj
I0403 15:05:19.185235 31116 net.cpp:148] Top shape: 24 64 14 14 (301056)
I0403 15:05:19.185276 31116 net.cpp:156] Memory required for data: 885707808
I0403 15:05:19.185297 31116 layer_factory.hpp:77] Creating layer inception_4a/relu_pool_proj
I0403 15:05:19.185317 31116 net.cpp:91] Creating Layer inception_4a/relu_pool_proj
I0403 15:05:19.185333 31116 net.cpp:425] inception_4a/relu_pool_proj <- inception_4a/pool_proj
I0403 15:05:19.185353 31116 net.cpp:386] inception_4a/relu_pool_proj -> inception_4a/pool_proj (in-place)
I0403 15:05:19.185637 31116 net.cpp:141] Setting up inception_4a/relu_pool_proj
I0403 15:05:19.185667 31116 net.cpp:148] Top shape: 24 64 14 14 (301056)
I0403 15:05:19.185681 31116 net.cpp:156] Memory required for data: 886912032
I0403 15:05:19.185696 31116 layer_factory.hpp:77] Creating layer inception_4a/output
I0403 15:05:19.185714 31116 net.cpp:91] Creating Layer inception_4a/output
I0403 15:05:19.185729 31116 net.cpp:425] inception_4a/output <- inception_4a/1x1
I0403 15:05:19.185746 31116 net.cpp:425] inception_4a/output <- inception_4a/3x3
I0403 15:05:19.185762 31116 net.cpp:425] inception_4a/output <- inception_4a/5x5
I0403 15:05:19.185778 31116 net.cpp:425] inception_4a/output <- inception_4a/pool_proj
I0403 15:05:19.185797 31116 net.cpp:399] inception_4a/output -> inception_4a/output
I0403 15:05:19.185842 31116 net.cpp:141] Setting up inception_4a/output
I0403 15:05:19.185864 31116 net.cpp:148] Top shape: 24 512 14 14 (2408448)
I0403 15:05:19.185879 31116 net.cpp:156] Memory required for data: 896545824
I0403 15:05:19.185894 31116 layer_factory.hpp:77] Creating layer inception_4a/output_inception_4a/output_0_split
I0403 15:05:19.185914 31116 net.cpp:91] Creating Layer inception_4a/output_inception_4a/output_0_split
I0403 15:05:19.185931 31116 net.cpp:425] inception_4a/output_inception_4a/output_0_split <- inception_4a/output
I0403 15:05:19.185950 31116 net.cpp:399] inception_4a/output_inception_4a/output_0_split -> inception_4a/output_inception_4a/output_0_split_0
I0403 15:05:19.185972 31116 net.cpp:399] inception_4a/output_inception_4a/output_0_split -> inception_4a/output_inception_4a/output_0_split_1
I0403 15:05:19.185992 31116 net.cpp:399] inception_4a/output_inception_4a/output_0_split -> inception_4a/output_inception_4a/output_0_split_2
I0403 15:05:19.186013 31116 net.cpp:399] inception_4a/output_inception_4a/output_0_split -> inception_4a/output_inception_4a/output_0_split_3
I0403 15:05:19.186033 31116 net.cpp:399] inception_4a/output_inception_4a/output_0_split -> inception_4a/output_inception_4a/output_0_split_4
I0403 15:05:19.186123 31116 net.cpp:141] Setting up inception_4a/output_inception_4a/output_0_split
I0403 15:05:19.186147 31116 net.cpp:148] Top shape: 24 512 14 14 (2408448)
I0403 15:05:19.186164 31116 net.cpp:148] Top shape: 24 512 14 14 (2408448)
I0403 15:05:19.186179 31116 net.cpp:148] Top shape: 24 512 14 14 (2408448)
I0403 15:05:19.186195 31116 net.cpp:148] Top shape: 24 512 14 14 (2408448)
I0403 15:05:19.186210 31116 net.cpp:148] Top shape: 24 512 14 14 (2408448)
I0403 15:05:19.186223 31116 net.cpp:156] Memory required for data: 944714784
I0403 15:05:19.186239 31116 layer_factory.hpp:77] Creating layer loss1/ave_pool
I0403 15:05:19.186261 31116 net.cpp:91] Creating Layer loss1/ave_pool
I0403 15:05:19.186278 31116 net.cpp:425] loss1/ave_pool <- inception_4a/output_inception_4a/output_0_split_0
I0403 15:05:19.186296 31116 net.cpp:399] loss1/ave_pool -> loss1/ave_pool
I0403 15:05:19.186499 31116 net.cpp:141] Setting up loss1/ave_pool
I0403 15:05:19.186532 31116 net.cpp:148] Top shape: 24 512 4 4 (196608)
I0403 15:05:19.186547 31116 net.cpp:156] Memory required for data: 945501216
I0403 15:05:19.186563 31116 layer_factory.hpp:77] Creating layer loss1/conv
I0403 15:05:19.186585 31116 net.cpp:91] Creating Layer loss1/conv
I0403 15:05:19.186602 31116 net.cpp:425] loss1/conv <- loss1/ave_pool
I0403 15:05:19.186620 31116 net.cpp:399] loss1/conv -> loss1/conv
I0403 15:05:19.188001 31116 net.cpp:141] Setting up loss1/conv
I0403 15:05:19.188030 31116 net.cpp:148] Top shape: 24 128 4 4 (49152)
I0403 15:05:19.188058 31116 net.cpp:156] Memory required for data: 945697824
I0403 15:05:19.188078 31116 layer_factory.hpp:77] Creating layer loss1/relu_conv
I0403 15:05:19.188100 31116 net.cpp:91] Creating Layer loss1/relu_conv
I0403 15:05:19.188117 31116 net.cpp:425] loss1/relu_conv <- loss1/conv
I0403 15:05:19.188135 31116 net.cpp:386] loss1/relu_conv -> loss1/conv (in-place)
I0403 15:05:19.188419 31116 net.cpp:141] Setting up loss1/relu_conv
I0403 15:05:19.188446 31116 net.cpp:148] Top shape: 24 128 4 4 (49152)
I0403 15:05:19.188460 31116 net.cpp:156] Memory required for data: 945894432
I0403 15:05:19.188475 31116 layer_factory.hpp:77] Creating layer loss1/fc
I0403 15:05:19.188505 31116 net.cpp:91] Creating Layer loss1/fc
I0403 15:05:19.188525 31116 net.cpp:425] loss1/fc <- loss1/conv
I0403 15:05:19.188544 31116 net.cpp:399] loss1/fc -> loss1/fc
I0403 15:05:19.206156 31116 net.cpp:141] Setting up loss1/fc
I0403 15:05:19.206189 31116 net.cpp:148] Top shape: 24 1024 (24576)
I0403 15:05:19.206205 31116 net.cpp:156] Memory required for data: 945992736
I0403 15:05:19.206224 31116 layer_factory.hpp:77] Creating layer loss1/relu_fc
I0403 15:05:19.206243 31116 net.cpp:91] Creating Layer loss1/relu_fc
I0403 15:05:19.206259 31116 net.cpp:425] loss1/relu_fc <- loss1/fc
I0403 15:05:19.206279 31116 net.cpp:386] loss1/relu_fc -> loss1/fc (in-place)
I0403 15:05:19.206465 31116 net.cpp:141] Setting up loss1/relu_fc
I0403 15:05:19.206490 31116 net.cpp:148] Top shape: 24 1024 (24576)
I0403 15:05:19.206509 31116 net.cpp:156] Memory required for data: 946091040
I0403 15:05:19.206526 31116 layer_factory.hpp:77] Creating layer loss1/drop_fc
I0403 15:05:19.206552 31116 net.cpp:91] Creating Layer loss1/drop_fc
I0403 15:05:19.206571 31116 net.cpp:425] loss1/drop_fc <- loss1/fc
I0403 15:05:19.206591 31116 net.cpp:386] loss1/drop_fc -> loss1/fc (in-place)
I0403 15:05:19.206643 31116 net.cpp:141] Setting up loss1/drop_fc
I0403 15:05:19.206670 31116 net.cpp:148] Top shape: 24 1024 (24576)
I0403 15:05:19.206686 31116 net.cpp:156] Memory required for data: 946189344
I0403 15:05:19.206701 31116 layer_factory.hpp:77] Creating layer loss1/classifier_plantvillage
I0403 15:05:19.206720 31116 net.cpp:91] Creating Layer loss1/classifier_plantvillage
I0403 15:05:19.206737 31116 net.cpp:425] loss1/classifier_plantvillage <- loss1/fc
I0403 15:05:19.206758 31116 net.cpp:399] loss1/classifier_plantvillage -> loss1/classifier_plantvillage
I0403 15:05:19.207662 31116 net.cpp:141] Setting up loss1/classifier_plantvillage
I0403 15:05:19.207691 31116 net.cpp:148] Top shape: 24 38 (912)
I0403 15:05:19.207706 31116 net.cpp:156] Memory required for data: 946192992
I0403 15:05:19.207726 31116 layer_factory.hpp:77] Creating layer loss1/classifier_plantvillage_loss1/classifier_plantvillage_0_split
I0403 15:05:19.207744 31116 net.cpp:91] Creating Layer loss1/classifier_plantvillage_loss1/classifier_plantvillage_0_split
I0403 15:05:19.207762 31116 net.cpp:425] loss1/classifier_plantvillage_loss1/classifier_plantvillage_0_split <- loss1/classifier_plantvillage
I0403 15:05:19.207782 31116 net.cpp:399] loss1/classifier_plantvillage_loss1/classifier_plantvillage_0_split -> loss1/classifier_plantvillage_loss1/classifier_plantvillage_0_split_0
I0403 15:05:19.207803 31116 net.cpp:399] loss1/classifier_plantvillage_loss1/classifier_plantvillage_0_split -> loss1/classifier_plantvillage_loss1/classifier_plantvillage_0_split_1
I0403 15:05:19.207823 31116 net.cpp:399] loss1/classifier_plantvillage_loss1/classifier_plantvillage_0_split -> loss1/classifier_plantvillage_loss1/classifier_plantvillage_0_split_2
I0403 15:05:19.207892 31116 net.cpp:141] Setting up loss1/classifier_plantvillage_loss1/classifier_plantvillage_0_split
I0403 15:05:19.207916 31116 net.cpp:148] Top shape: 24 38 (912)
I0403 15:05:19.207931 31116 net.cpp:148] Top shape: 24 38 (912)
I0403 15:05:19.207948 31116 net.cpp:148] Top shape: 24 38 (912)
I0403 15:05:19.207962 31116 net.cpp:156] Memory required for data: 946203936
I0403 15:05:19.207978 31116 layer_factory.hpp:77] Creating layer inception_4b/1x1
I0403 15:05:19.207999 31116 net.cpp:91] Creating Layer inception_4b/1x1
I0403 15:05:19.208034 31116 net.cpp:425] inception_4b/1x1 <- inception_4a/output_inception_4a/output_0_split_1
I0403 15:05:19.208055 31116 net.cpp:399] inception_4b/1x1 -> inception_4b/1x1
I0403 15:05:19.209698 31116 net.cpp:141] Setting up inception_4b/1x1
I0403 15:05:19.209727 31116 net.cpp:148] Top shape: 24 160 14 14 (752640)
I0403 15:05:19.209743 31116 net.cpp:156] Memory required for data: 949214496
I0403 15:05:19.209761 31116 layer_factory.hpp:77] Creating layer inception_4b/relu_1x1
I0403 15:05:19.209781 31116 net.cpp:91] Creating Layer inception_4b/relu_1x1
I0403 15:05:19.209799 31116 net.cpp:425] inception_4b/relu_1x1 <- inception_4b/1x1
I0403 15:05:19.209816 31116 net.cpp:386] inception_4b/relu_1x1 -> inception_4b/1x1 (in-place)
I0403 15:05:19.209996 31116 net.cpp:141] Setting up inception_4b/relu_1x1
I0403 15:05:19.210023 31116 net.cpp:148] Top shape: 24 160 14 14 (752640)
I0403 15:05:19.210039 31116 net.cpp:156] Memory required for data: 952225056
I0403 15:05:19.210055 31116 layer_factory.hpp:77] Creating layer inception_4b/3x3_reduce
I0403 15:05:19.210078 31116 net.cpp:91] Creating Layer inception_4b/3x3_reduce
I0403 15:05:19.210095 31116 net.cpp:425] inception_4b/3x3_reduce <- inception_4a/output_inception_4a/output_0_split_2
I0403 15:05:19.210114 31116 net.cpp:399] inception_4b/3x3_reduce -> inception_4b/3x3_reduce
I0403 15:05:19.211454 31116 net.cpp:141] Setting up inception_4b/3x3_reduce
I0403 15:05:19.211485 31116 net.cpp:148] Top shape: 24 112 14 14 (526848)
I0403 15:05:19.211505 31116 net.cpp:156] Memory required for data: 954332448
I0403 15:05:19.211525 31116 layer_factory.hpp:77] Creating layer inception_4b/relu_3x3_reduce
I0403 15:05:19.211544 31116 net.cpp:91] Creating Layer inception_4b/relu_3x3_reduce
I0403 15:05:19.211560 31116 net.cpp:425] inception_4b/relu_3x3_reduce <- inception_4b/3x3_reduce
I0403 15:05:19.211578 31116 net.cpp:386] inception_4b/relu_3x3_reduce -> inception_4b/3x3_reduce (in-place)
I0403 15:05:19.211858 31116 net.cpp:141] Setting up inception_4b/relu_3x3_reduce
I0403 15:05:19.211886 31116 net.cpp:148] Top shape: 24 112 14 14 (526848)
I0403 15:05:19.211902 31116 net.cpp:156] Memory required for data: 956439840
I0403 15:05:19.211916 31116 layer_factory.hpp:77] Creating layer inception_4b/3x3
I0403 15:05:19.211940 31116 net.cpp:91] Creating Layer inception_4b/3x3
I0403 15:05:19.211957 31116 net.cpp:425] inception_4b/3x3 <- inception_4b/3x3_reduce
I0403 15:05:19.211977 31116 net.cpp:399] inception_4b/3x3 -> inception_4b/3x3
I0403 15:05:19.214968 31116 net.cpp:141] Setting up inception_4b/3x3
I0403 15:05:19.214998 31116 net.cpp:148] Top shape: 24 224 14 14 (1053696)
I0403 15:05:19.215013 31116 net.cpp:156] Memory required for data: 960654624
I0403 15:05:19.215031 31116 layer_factory.hpp:77] Creating layer inception_4b/relu_3x3
I0403 15:05:19.215050 31116 net.cpp:91] Creating Layer inception_4b/relu_3x3
I0403 15:05:19.215066 31116 net.cpp:425] inception_4b/relu_3x3 <- inception_4b/3x3
I0403 15:05:19.215086 31116 net.cpp:386] inception_4b/relu_3x3 -> inception_4b/3x3 (in-place)
I0403 15:05:19.215266 31116 net.cpp:141] Setting up inception_4b/relu_3x3
I0403 15:05:19.215291 31116 net.cpp:148] Top shape: 24 224 14 14 (1053696)
I0403 15:05:19.215306 31116 net.cpp:156] Memory required for data: 964869408
I0403 15:05:19.215320 31116 layer_factory.hpp:77] Creating layer inception_4b/5x5_reduce
I0403 15:05:19.215343 31116 net.cpp:91] Creating Layer inception_4b/5x5_reduce
I0403 15:05:19.215360 31116 net.cpp:425] inception_4b/5x5_reduce <- inception_4a/output_inception_4a/output_0_split_3
I0403 15:05:19.215384 31116 net.cpp:399] inception_4b/5x5_reduce -> inception_4b/5x5_reduce
I0403 15:05:19.216459 31116 net.cpp:141] Setting up inception_4b/5x5_reduce
I0403 15:05:19.216486 31116 net.cpp:148] Top shape: 24 24 14 14 (112896)
I0403 15:05:19.216506 31116 net.cpp:156] Memory required for data: 965320992
I0403 15:05:19.216526 31116 layer_factory.hpp:77] Creating layer inception_4b/relu_5x5_reduce
I0403 15:05:19.216547 31116 net.cpp:91] Creating Layer inception_4b/relu_5x5_reduce
I0403 15:05:19.216579 31116 net.cpp:425] inception_4b/relu_5x5_reduce <- inception_4b/5x5_reduce
I0403 15:05:19.216598 31116 net.cpp:386] inception_4b/relu_5x5_reduce -> inception_4b/5x5_reduce (in-place)
I0403 15:05:19.216781 31116 net.cpp:141] Setting up inception_4b/relu_5x5_reduce
I0403 15:05:19.216809 31116 net.cpp:148] Top shape: 24 24 14 14 (112896)
I0403 15:05:19.216823 31116 net.cpp:156] Memory required for data: 965772576
I0403 15:05:19.216840 31116 layer_factory.hpp:77] Creating layer inception_4b/5x5
I0403 15:05:19.216861 31116 net.cpp:91] Creating Layer inception_4b/5x5
I0403 15:05:19.216879 31116 net.cpp:425] inception_4b/5x5 <- inception_4b/5x5_reduce
I0403 15:05:19.216899 31116 net.cpp:399] inception_4b/5x5 -> inception_4b/5x5
I0403 15:05:19.218119 31116 net.cpp:141] Setting up inception_4b/5x5
I0403 15:05:19.218147 31116 net.cpp:148] Top shape: 24 64 14 14 (301056)
I0403 15:05:19.218163 31116 net.cpp:156] Memory required for data: 966976800
I0403 15:05:19.218181 31116 layer_factory.hpp:77] Creating layer inception_4b/relu_5x5
I0403 15:05:19.218202 31116 net.cpp:91] Creating Layer inception_4b/relu_5x5
I0403 15:05:19.218219 31116 net.cpp:425] inception_4b/relu_5x5 <- inception_4b/5x5
I0403 15:05:19.218237 31116 net.cpp:386] inception_4b/relu_5x5 -> inception_4b/5x5 (in-place)
I0403 15:05:19.218536 31116 net.cpp:141] Setting up inception_4b/relu_5x5
I0403 15:05:19.218562 31116 net.cpp:148] Top shape: 24 64 14 14 (301056)
I0403 15:05:19.218577 31116 net.cpp:156] Memory required for data: 968181024
I0403 15:05:19.218591 31116 layer_factory.hpp:77] Creating layer inception_4b/pool
I0403 15:05:19.218614 31116 net.cpp:91] Creating Layer inception_4b/pool
I0403 15:05:19.218631 31116 net.cpp:425] inception_4b/pool <- inception_4a/output_inception_4a/output_0_split_4
I0403 15:05:19.218649 31116 net.cpp:399] inception_4b/pool -> inception_4b/pool
I0403 15:05:19.218713 31116 net.cpp:141] Setting up inception_4b/pool
I0403 15:05:19.218735 31116 net.cpp:148] Top shape: 24 512 14 14 (2408448)
I0403 15:05:19.218750 31116 net.cpp:156] Memory required for data: 977814816
I0403 15:05:19.218765 31116 layer_factory.hpp:77] Creating layer inception_4b/pool_proj
I0403 15:05:19.218786 31116 net.cpp:91] Creating Layer inception_4b/pool_proj
I0403 15:05:19.218803 31116 net.cpp:425] inception_4b/pool_proj <- inception_4b/pool
I0403 15:05:19.218823 31116 net.cpp:399] inception_4b/pool_proj -> inception_4b/pool_proj
I0403 15:05:19.219981 31116 net.cpp:141] Setting up inception_4b/pool_proj
I0403 15:05:19.220007 31116 net.cpp:148] Top shape: 24 64 14 14 (301056)
I0403 15:05:19.220022 31116 net.cpp:156] Memory required for data: 979019040
I0403 15:05:19.220041 31116 layer_factory.hpp:77] Creating layer inception_4b/relu_pool_proj
I0403 15:05:19.220060 31116 net.cpp:91] Creating Layer inception_4b/relu_pool_proj
I0403 15:05:19.220077 31116 net.cpp:425] inception_4b/relu_pool_proj <- inception_4b/pool_proj
I0403 15:05:19.220093 31116 net.cpp:386] inception_4b/relu_pool_proj -> inception_4b/pool_proj (in-place)
I0403 15:05:19.220266 31116 net.cpp:141] Setting up inception_4b/relu_pool_proj
I0403 15:05:19.220293 31116 net.cpp:148] Top shape: 24 64 14 14 (301056)
I0403 15:05:19.220309 31116 net.cpp:156] Memory required for data: 980223264
I0403 15:05:19.220324 31116 layer_factory.hpp:77] Creating layer inception_4b/output
I0403 15:05:19.220340 31116 net.cpp:91] Creating Layer inception_4b/output
I0403 15:05:19.220355 31116 net.cpp:425] inception_4b/output <- inception_4b/1x1
I0403 15:05:19.220371 31116 net.cpp:425] inception_4b/output <- inception_4b/3x3
I0403 15:05:19.220386 31116 net.cpp:425] inception_4b/output <- inception_4b/5x5
I0403 15:05:19.220402 31116 net.cpp:425] inception_4b/output <- inception_4b/pool_proj
I0403 15:05:19.220417 31116 net.cpp:399] inception_4b/output -> inception_4b/output
I0403 15:05:19.220463 31116 net.cpp:141] Setting up inception_4b/output
I0403 15:05:19.220486 31116 net.cpp:148] Top shape: 24 512 14 14 (2408448)
I0403 15:05:19.220500 31116 net.cpp:156] Memory required for data: 989857056
I0403 15:05:19.220533 31116 layer_factory.hpp:77] Creating layer inception_4b/output_inception_4b/output_0_split
I0403 15:05:19.220553 31116 net.cpp:91] Creating Layer inception_4b/output_inception_4b/output_0_split
I0403 15:05:19.220571 31116 net.cpp:425] inception_4b/output_inception_4b/output_0_split <- inception_4b/output
I0403 15:05:19.220589 31116 net.cpp:399] inception_4b/output_inception_4b/output_0_split -> inception_4b/output_inception_4b/output_0_split_0
I0403 15:05:19.220608 31116 net.cpp:399] inception_4b/output_inception_4b/output_0_split -> inception_4b/output_inception_4b/output_0_split_1
I0403 15:05:19.220628 31116 net.cpp:399] inception_4b/output_inception_4b/output_0_split -> inception_4b/output_inception_4b/output_0_split_2
I0403 15:05:19.220649 31116 net.cpp:399] inception_4b/output_inception_4b/output_0_split -> inception_4b/output_inception_4b/output_0_split_3
I0403 15:05:19.220732 31116 net.cpp:141] Setting up inception_4b/output_inception_4b/output_0_split
I0403 15:05:19.220755 31116 net.cpp:148] Top shape: 24 512 14 14 (2408448)
I0403 15:05:19.220772 31116 net.cpp:148] Top shape: 24 512 14 14 (2408448)
I0403 15:05:19.220787 31116 net.cpp:148] Top shape: 24 512 14 14 (2408448)
I0403 15:05:19.220801 31116 net.cpp:148] Top shape: 24 512 14 14 (2408448)
I0403 15:05:19.220814 31116 net.cpp:156] Memory required for data: 1028392224
I0403 15:05:19.220829 31116 layer_factory.hpp:77] Creating layer inception_4c/1x1
I0403 15:05:19.220852 31116 net.cpp:91] Creating Layer inception_4c/1x1
I0403 15:05:19.220870 31116 net.cpp:425] inception_4c/1x1 <- inception_4b/output_inception_4b/output_0_split_0
I0403 15:05:19.220891 31116 net.cpp:399] inception_4c/1x1 -> inception_4c/1x1
I0403 15:05:19.222280 31116 net.cpp:141] Setting up inception_4c/1x1
I0403 15:05:19.222311 31116 net.cpp:148] Top shape: 24 128 14 14 (602112)
I0403 15:05:19.222326 31116 net.cpp:156] Memory required for data: 1030800672
I0403 15:05:19.222344 31116 layer_factory.hpp:77] Creating layer inception_4c/relu_1x1
I0403 15:05:19.222362 31116 net.cpp:91] Creating Layer inception_4c/relu_1x1
I0403 15:05:19.222378 31116 net.cpp:425] inception_4c/relu_1x1 <- inception_4c/1x1
I0403 15:05:19.222398 31116 net.cpp:386] inception_4c/relu_1x1 -> inception_4c/1x1 (in-place)
I0403 15:05:19.222576 31116 net.cpp:141] Setting up inception_4c/relu_1x1
I0403 15:05:19.222600 31116 net.cpp:148] Top shape: 24 128 14 14 (602112)
I0403 15:05:19.222615 31116 net.cpp:156] Memory required for data: 1033209120
I0403 15:05:19.222630 31116 layer_factory.hpp:77] Creating layer inception_4c/3x3_reduce
I0403 15:05:19.222652 31116 net.cpp:91] Creating Layer inception_4c/3x3_reduce
I0403 15:05:19.222669 31116 net.cpp:425] inception_4c/3x3_reduce <- inception_4b/output_inception_4b/output_0_split_1
I0403 15:05:19.222692 31116 net.cpp:399] inception_4c/3x3_reduce -> inception_4c/3x3_reduce
I0403 15:05:19.224592 31116 net.cpp:141] Setting up inception_4c/3x3_reduce
I0403 15:05:19.224620 31116 net.cpp:148] Top shape: 24 128 14 14 (602112)
I0403 15:05:19.224635 31116 net.cpp:156] Memory required for data: 1035617568
I0403 15:05:19.224663 31116 layer_factory.hpp:77] Creating layer inception_4c/relu_3x3_reduce
I0403 15:05:19.224684 31116 net.cpp:91] Creating Layer inception_4c/relu_3x3_reduce
I0403 15:05:19.224699 31116 net.cpp:425] inception_4c/relu_3x3_reduce <- inception_4c/3x3_reduce
I0403 15:05:19.224716 31116 net.cpp:386] inception_4c/relu_3x3_reduce -> inception_4c/3x3_reduce (in-place)
I0403 15:05:19.224990 31116 net.cpp:141] Setting up inception_4c/relu_3x3_reduce
I0403 15:05:19.225015 31116 net.cpp:148] Top shape: 24 128 14 14 (602112)
I0403 15:05:19.225030 31116 net.cpp:156] Memory required for data: 1038026016
I0403 15:05:19.225044 31116 layer_factory.hpp:77] Creating layer inception_4c/3x3
I0403 15:05:19.225067 31116 net.cpp:91] Creating Layer inception_4c/3x3
I0403 15:05:19.225083 31116 net.cpp:425] inception_4c/3x3 <- inception_4c/3x3_reduce
I0403 15:05:19.225105 31116 net.cpp:399] inception_4c/3x3 -> inception_4c/3x3
I0403 15:05:19.228606 31116 net.cpp:141] Setting up inception_4c/3x3
I0403 15:05:19.228654 31116 net.cpp:148] Top shape: 24 256 14 14 (1204224)
I0403 15:05:19.228672 31116 net.cpp:156] Memory required for data: 1042842912
I0403 15:05:19.228703 31116 layer_factory.hpp:77] Creating layer inception_4c/relu_3x3
I0403 15:05:19.228724 31116 net.cpp:91] Creating Layer inception_4c/relu_3x3
I0403 15:05:19.228740 31116 net.cpp:425] inception_4c/relu_3x3 <- inception_4c/3x3
I0403 15:05:19.228757 31116 net.cpp:386] inception_4c/relu_3x3 -> inception_4c/3x3 (in-place)
I0403 15:05:19.228936 31116 net.cpp:141] Setting up inception_4c/relu_3x3
I0403 15:05:19.228960 31116 net.cpp:148] Top shape: 24 256 14 14 (1204224)
I0403 15:05:19.228976 31116 net.cpp:156] Memory required for data: 1047659808
I0403 15:05:19.229001 31116 layer_factory.hpp:77] Creating layer inception_4c/5x5_reduce
I0403 15:05:19.229023 31116 net.cpp:91] Creating Layer inception_4c/5x5_reduce
I0403 15:05:19.229040 31116 net.cpp:425] inception_4c/5x5_reduce <- inception_4b/output_inception_4b/output_0_split_2
I0403 15:05:19.229063 31116 net.cpp:399] inception_4c/5x5_reduce -> inception_4c/5x5_reduce
I0403 15:05:19.230126 31116 net.cpp:141] Setting up inception_4c/5x5_reduce
I0403 15:05:19.230152 31116 net.cpp:148] Top shape: 24 24 14 14 (112896)
I0403 15:05:19.230167 31116 net.cpp:156] Memory required for data: 1048111392
I0403 15:05:19.230185 31116 layer_factory.hpp:77] Creating layer inception_4c/relu_5x5_reduce
I0403 15:05:19.230204 31116 net.cpp:91] Creating Layer inception_4c/relu_5x5_reduce
I0403 15:05:19.230221 31116 net.cpp:425] inception_4c/relu_5x5_reduce <- inception_4c/5x5_reduce
I0403 15:05:19.230238 31116 net.cpp:386] inception_4c/relu_5x5_reduce -> inception_4c/5x5_reduce (in-place)
I0403 15:05:19.230417 31116 net.cpp:141] Setting up inception_4c/relu_5x5_reduce
I0403 15:05:19.230443 31116 net.cpp:148] Top shape: 24 24 14 14 (112896)
I0403 15:05:19.230459 31116 net.cpp:156] Memory required for data: 1048562976
I0403 15:05:19.230474 31116 layer_factory.hpp:77] Creating layer inception_4c/5x5
I0403 15:05:19.230495 31116 net.cpp:91] Creating Layer inception_4c/5x5
I0403 15:05:19.230517 31116 net.cpp:425] inception_4c/5x5 <- inception_4c/5x5_reduce
I0403 15:05:19.230536 31116 net.cpp:399] inception_4c/5x5 -> inception_4c/5x5
I0403 15:05:19.231747 31116 net.cpp:141] Setting up inception_4c/5x5
I0403 15:05:19.231776 31116 net.cpp:148] Top shape: 24 64 14 14 (301056)
I0403 15:05:19.231792 31116 net.cpp:156] Memory required for data: 1049767200
I0403 15:05:19.231811 31116 layer_factory.hpp:77] Creating layer inception_4c/relu_5x5
I0403 15:05:19.231828 31116 net.cpp:91] Creating Layer inception_4c/relu_5x5
I0403 15:05:19.231844 31116 net.cpp:425] inception_4c/relu_5x5 <- inception_4c/5x5
I0403 15:05:19.231864 31116 net.cpp:386] inception_4c/relu_5x5 -> inception_4c/5x5 (in-place)
I0403 15:05:19.232146 31116 net.cpp:141] Setting up inception_4c/relu_5x5
I0403 15:05:19.232172 31116 net.cpp:148] Top shape: 24 64 14 14 (301056)
I0403 15:05:19.232188 31116 net.cpp:156] Memory required for data: 1050971424
I0403 15:05:19.232203 31116 layer_factory.hpp:77] Creating layer inception_4c/pool
I0403 15:05:19.232220 31116 net.cpp:91] Creating Layer inception_4c/pool
I0403 15:05:19.232236 31116 net.cpp:425] inception_4c/pool <- inception_4b/output_inception_4b/output_0_split_3
I0403 15:05:19.232255 31116 net.cpp:399] inception_4c/pool -> inception_4c/pool
I0403 15:05:19.232319 31116 net.cpp:141] Setting up inception_4c/pool
I0403 15:05:19.232342 31116 net.cpp:148] Top shape: 24 512 14 14 (2408448)
I0403 15:05:19.232357 31116 net.cpp:156] Memory required for data: 1060605216
I0403 15:05:19.232372 31116 layer_factory.hpp:77] Creating layer inception_4c/pool_proj
I0403 15:05:19.232393 31116 net.cpp:91] Creating Layer inception_4c/pool_proj
I0403 15:05:19.232411 31116 net.cpp:425] inception_4c/pool_proj <- inception_4c/pool
I0403 15:05:19.232429 31116 net.cpp:399] inception_4c/pool_proj -> inception_4c/pool_proj
I0403 15:05:19.233614 31116 net.cpp:141] Setting up inception_4c/pool_proj
I0403 15:05:19.233641 31116 net.cpp:148] Top shape: 24 64 14 14 (301056)
I0403 15:05:19.233670 31116 net.cpp:156] Memory required for data: 1061809440
I0403 15:05:19.233690 31116 layer_factory.hpp:77] Creating layer inception_4c/relu_pool_proj
I0403 15:05:19.233710 31116 net.cpp:91] Creating Layer inception_4c/relu_pool_proj
I0403 15:05:19.233726 31116 net.cpp:425] inception_4c/relu_pool_proj <- inception_4c/pool_proj
I0403 15:05:19.233742 31116 net.cpp:386] inception_4c/relu_pool_proj -> inception_4c/pool_proj (in-place)
I0403 15:05:19.233927 31116 net.cpp:141] Setting up inception_4c/relu_pool_proj
I0403 15:05:19.233952 31116 net.cpp:148] Top shape: 24 64 14 14 (301056)
I0403 15:05:19.233968 31116 net.cpp:156] Memory required for data: 1063013664
I0403 15:05:19.233983 31116 layer_factory.hpp:77] Creating layer inception_4c/output
I0403 15:05:19.233999 31116 net.cpp:91] Creating Layer inception_4c/output
I0403 15:05:19.234014 31116 net.cpp:425] inception_4c/output <- inception_4c/1x1
I0403 15:05:19.234030 31116 net.cpp:425] inception_4c/output <- inception_4c/3x3
I0403 15:05:19.234045 31116 net.cpp:425] inception_4c/output <- inception_4c/5x5
I0403 15:05:19.234061 31116 net.cpp:425] inception_4c/output <- inception_4c/pool_proj
I0403 15:05:19.234078 31116 net.cpp:399] inception_4c/output -> inception_4c/output
I0403 15:05:19.234124 31116 net.cpp:141] Setting up inception_4c/output
I0403 15:05:19.234146 31116 net.cpp:148] Top shape: 24 512 14 14 (2408448)
I0403 15:05:19.234160 31116 net.cpp:156] Memory required for data: 1072647456
I0403 15:05:19.234175 31116 layer_factory.hpp:77] Creating layer inception_4c/output_inception_4c/output_0_split
I0403 15:05:19.234194 31116 net.cpp:91] Creating Layer inception_4c/output_inception_4c/output_0_split
I0403 15:05:19.234210 31116 net.cpp:425] inception_4c/output_inception_4c/output_0_split <- inception_4c/output
I0403 15:05:19.234226 31116 net.cpp:399] inception_4c/output_inception_4c/output_0_split -> inception_4c/output_inception_4c/output_0_split_0
I0403 15:05:19.234246 31116 net.cpp:399] inception_4c/output_inception_4c/output_0_split -> inception_4c/output_inception_4c/output_0_split_1
I0403 15:05:19.234266 31116 net.cpp:399] inception_4c/output_inception_4c/output_0_split -> inception_4c/output_inception_4c/output_0_split_2
I0403 15:05:19.234285 31116 net.cpp:399] inception_4c/output_inception_4c/output_0_split -> inception_4c/output_inception_4c/output_0_split_3
I0403 15:05:19.234369 31116 net.cpp:141] Setting up inception_4c/output_inception_4c/output_0_split
I0403 15:05:19.234391 31116 net.cpp:148] Top shape: 24 512 14 14 (2408448)
I0403 15:05:19.234406 31116 net.cpp:148] Top shape: 24 512 14 14 (2408448)
I0403 15:05:19.234421 31116 net.cpp:148] Top shape: 24 512 14 14 (2408448)
I0403 15:05:19.234436 31116 net.cpp:148] Top shape: 24 512 14 14 (2408448)
I0403 15:05:19.234450 31116 net.cpp:156] Memory required for data: 1111182624
I0403 15:05:19.234464 31116 layer_factory.hpp:77] Creating layer inception_4d/1x1
I0403 15:05:19.234485 31116 net.cpp:91] Creating Layer inception_4d/1x1
I0403 15:05:19.234513 31116 net.cpp:425] inception_4d/1x1 <- inception_4c/output_inception_4c/output_0_split_0
I0403 15:05:19.234537 31116 net.cpp:399] inception_4d/1x1 -> inception_4d/1x1
I0403 15:05:19.235883 31116 net.cpp:141] Setting up inception_4d/1x1
I0403 15:05:19.235910 31116 net.cpp:148] Top shape: 24 112 14 14 (526848)
I0403 15:05:19.235925 31116 net.cpp:156] Memory required for data: 1113290016
I0403 15:05:19.235944 31116 layer_factory.hpp:77] Creating layer inception_4d/relu_1x1
I0403 15:05:19.235970 31116 net.cpp:91] Creating Layer inception_4d/relu_1x1
I0403 15:05:19.235985 31116 net.cpp:425] inception_4d/relu_1x1 <- inception_4d/1x1
I0403 15:05:19.236004 31116 net.cpp:386] inception_4d/relu_1x1 -> inception_4d/1x1 (in-place)
I0403 15:05:19.236184 31116 net.cpp:141] Setting up inception_4d/relu_1x1
I0403 15:05:19.236208 31116 net.cpp:148] Top shape: 24 112 14 14 (526848)
I0403 15:05:19.236222 31116 net.cpp:156] Memory required for data: 1115397408
I0403 15:05:19.236238 31116 layer_factory.hpp:77] Creating layer inception_4d/3x3_reduce
I0403 15:05:19.236273 31116 net.cpp:91] Creating Layer inception_4d/3x3_reduce
I0403 15:05:19.236289 31116 net.cpp:425] inception_4d/3x3_reduce <- inception_4c/output_inception_4c/output_0_split_1
I0403 15:05:19.236310 31116 net.cpp:399] inception_4d/3x3_reduce -> inception_4d/3x3_reduce
I0403 15:05:19.237787 31116 net.cpp:141] Setting up inception_4d/3x3_reduce
I0403 15:05:19.237818 31116 net.cpp:148] Top shape: 24 144 14 14 (677376)
I0403 15:05:19.237834 31116 net.cpp:156] Memory required for data: 1118106912
I0403 15:05:19.237854 31116 layer_factory.hpp:77] Creating layer inception_4d/relu_3x3_reduce
I0403 15:05:19.237871 31116 net.cpp:91] Creating Layer inception_4d/relu_3x3_reduce
I0403 15:05:19.237889 31116 net.cpp:425] inception_4d/relu_3x3_reduce <- inception_4d/3x3_reduce
I0403 15:05:19.237908 31116 net.cpp:386] inception_4d/relu_3x3_reduce -> inception_4d/3x3_reduce (in-place)
I0403 15:05:19.238193 31116 net.cpp:141] Setting up inception_4d/relu_3x3_reduce
I0403 15:05:19.238219 31116 net.cpp:148] Top shape: 24 144 14 14 (677376)
I0403 15:05:19.238235 31116 net.cpp:156] Memory required for data: 1120816416
I0403 15:05:19.238250 31116 layer_factory.hpp:77] Creating layer inception_4d/3x3
I0403 15:05:19.238272 31116 net.cpp:91] Creating Layer inception_4d/3x3
I0403 15:05:19.238288 31116 net.cpp:425] inception_4d/3x3 <- inception_4d/3x3_reduce
I0403 15:05:19.238307 31116 net.cpp:399] inception_4d/3x3 -> inception_4d/3x3
I0403 15:05:19.242427 31116 net.cpp:141] Setting up inception_4d/3x3
I0403 15:05:19.242456 31116 net.cpp:148] Top shape: 24 288 14 14 (1354752)
I0403 15:05:19.242472 31116 net.cpp:156] Memory required for data: 1126235424
I0403 15:05:19.242491 31116 layer_factory.hpp:77] Creating layer inception_4d/relu_3x3
I0403 15:05:19.242514 31116 net.cpp:91] Creating Layer inception_4d/relu_3x3
I0403 15:05:19.242533 31116 net.cpp:425] inception_4d/relu_3x3 <- inception_4d/3x3
I0403 15:05:19.242550 31116 net.cpp:386] inception_4d/relu_3x3 -> inception_4d/3x3 (in-place)
I0403 15:05:19.242727 31116 net.cpp:141] Setting up inception_4d/relu_3x3
I0403 15:05:19.242751 31116 net.cpp:148] Top shape: 24 288 14 14 (1354752)
I0403 15:05:19.242766 31116 net.cpp:156] Memory required for data: 1131654432
I0403 15:05:19.242780 31116 layer_factory.hpp:77] Creating layer inception_4d/5x5_reduce
I0403 15:05:19.242805 31116 net.cpp:91] Creating Layer inception_4d/5x5_reduce
I0403 15:05:19.242821 31116 net.cpp:425] inception_4d/5x5_reduce <- inception_4c/output_inception_4c/output_0_split_2
I0403 15:05:19.242840 31116 net.cpp:399] inception_4d/5x5_reduce -> inception_4d/5x5_reduce
I0403 15:05:19.243959 31116 net.cpp:141] Setting up inception_4d/5x5_reduce
I0403 15:05:19.243988 31116 net.cpp:148] Top shape: 24 32 14 14 (150528)
I0403 15:05:19.244002 31116 net.cpp:156] Memory required for data: 1132256544
I0403 15:05:19.244020 31116 layer_factory.hpp:77] Creating layer inception_4d/relu_5x5_reduce
I0403 15:05:19.244038 31116 net.cpp:91] Creating Layer inception_4d/relu_5x5_reduce
I0403 15:05:19.244055 31116 net.cpp:425] inception_4d/relu_5x5_reduce <- inception_4d/5x5_reduce
I0403 15:05:19.244073 31116 net.cpp:386] inception_4d/relu_5x5_reduce -> inception_4d/5x5_reduce (in-place)
I0403 15:05:19.244258 31116 net.cpp:141] Setting up inception_4d/relu_5x5_reduce
I0403 15:05:19.244282 31116 net.cpp:148] Top shape: 24 32 14 14 (150528)
I0403 15:05:19.244297 31116 net.cpp:156] Memory required for data: 1132858656
I0403 15:05:19.244312 31116 layer_factory.hpp:77] Creating layer inception_4d/5x5
I0403 15:05:19.244333 31116 net.cpp:91] Creating Layer inception_4d/5x5
I0403 15:05:19.244351 31116 net.cpp:425] inception_4d/5x5 <- inception_4d/5x5_reduce
I0403 15:05:19.244372 31116 net.cpp:399] inception_4d/5x5 -> inception_4d/5x5
I0403 15:05:19.245826 31116 net.cpp:141] Setting up inception_4d/5x5
I0403 15:05:19.245859 31116 net.cpp:148] Top shape: 24 64 14 14 (301056)
I0403 15:05:19.245875 31116 net.cpp:156] Memory required for data: 1134062880
I0403 15:05:19.245894 31116 layer_factory.hpp:77] Creating layer inception_4d/relu_5x5
I0403 15:05:19.245925 31116 net.cpp:91] Creating Layer inception_4d/relu_5x5
I0403 15:05:19.245942 31116 net.cpp:425] inception_4d/relu_5x5 <- inception_4d/5x5
I0403 15:05:19.245959 31116 net.cpp:386] inception_4d/relu_5x5 -> inception_4d/5x5 (in-place)
I0403 15:05:19.246253 31116 net.cpp:141] Setting up inception_4d/relu_5x5
I0403 15:05:19.246279 31116 net.cpp:148] Top shape: 24 64 14 14 (301056)
I0403 15:05:19.246295 31116 net.cpp:156] Memory required for data: 1135267104
I0403 15:05:19.246310 31116 layer_factory.hpp:77] Creating layer inception_4d/pool
I0403 15:05:19.246327 31116 net.cpp:91] Creating Layer inception_4d/pool
I0403 15:05:19.246343 31116 net.cpp:425] inception_4d/pool <- inception_4c/output_inception_4c/output_0_split_3
I0403 15:05:19.246361 31116 net.cpp:399] inception_4d/pool -> inception_4d/pool
I0403 15:05:19.246425 31116 net.cpp:141] Setting up inception_4d/pool
I0403 15:05:19.246448 31116 net.cpp:148] Top shape: 24 512 14 14 (2408448)
I0403 15:05:19.246464 31116 net.cpp:156] Memory required for data: 1144900896
I0403 15:05:19.246479 31116 layer_factory.hpp:77] Creating layer inception_4d/pool_proj
I0403 15:05:19.246500 31116 net.cpp:91] Creating Layer inception_4d/pool_proj
I0403 15:05:19.246520 31116 net.cpp:425] inception_4d/pool_proj <- inception_4d/pool
I0403 15:05:19.246542 31116 net.cpp:399] inception_4d/pool_proj -> inception_4d/pool_proj
I0403 15:05:19.248255 31116 net.cpp:141] Setting up inception_4d/pool_proj
I0403 15:05:19.248286 31116 net.cpp:148] Top shape: 24 64 14 14 (301056)
I0403 15:05:19.248301 31116 net.cpp:156] Memory required for data: 1146105120
I0403 15:05:19.248318 31116 layer_factory.hpp:77] Creating layer inception_4d/relu_pool_proj
I0403 15:05:19.248337 31116 net.cpp:91] Creating Layer inception_4d/relu_pool_proj
I0403 15:05:19.248354 31116 net.cpp:425] inception_4d/relu_pool_proj <- inception_4d/pool_proj
I0403 15:05:19.248371 31116 net.cpp:386] inception_4d/relu_pool_proj -> inception_4d/pool_proj (in-place)
I0403 15:05:19.248554 31116 net.cpp:141] Setting up inception_4d/relu_pool_proj
I0403 15:05:19.248580 31116 net.cpp:148] Top shape: 24 64 14 14 (301056)
I0403 15:05:19.248594 31116 net.cpp:156] Memory required for data: 1147309344
I0403 15:05:19.248610 31116 layer_factory.hpp:77] Creating layer inception_4d/output
I0403 15:05:19.248628 31116 net.cpp:91] Creating Layer inception_4d/output
I0403 15:05:19.248644 31116 net.cpp:425] inception_4d/output <- inception_4d/1x1
I0403 15:05:19.248661 31116 net.cpp:425] inception_4d/output <- inception_4d/3x3
I0403 15:05:19.248677 31116 net.cpp:425] inception_4d/output <- inception_4d/5x5
I0403 15:05:19.248692 31116 net.cpp:425] inception_4d/output <- inception_4d/pool_proj
I0403 15:05:19.248709 31116 net.cpp:399] inception_4d/output -> inception_4d/output
I0403 15:05:19.248757 31116 net.cpp:141] Setting up inception_4d/output
I0403 15:05:19.248780 31116 net.cpp:148] Top shape: 24 528 14 14 (2483712)
I0403 15:05:19.248795 31116 net.cpp:156] Memory required for data: 1157244192
I0403 15:05:19.248810 31116 layer_factory.hpp:77] Creating layer inception_4d/output_inception_4d/output_0_split
I0403 15:05:19.248826 31116 net.cpp:91] Creating Layer inception_4d/output_inception_4d/output_0_split
I0403 15:05:19.248841 31116 net.cpp:425] inception_4d/output_inception_4d/output_0_split <- inception_4d/output
I0403 15:05:19.248860 31116 net.cpp:399] inception_4d/output_inception_4d/output_0_split -> inception_4d/output_inception_4d/output_0_split_0
I0403 15:05:19.248881 31116 net.cpp:399] inception_4d/output_inception_4d/output_0_split -> inception_4d/output_inception_4d/output_0_split_1
I0403 15:05:19.248903 31116 net.cpp:399] inception_4d/output_inception_4d/output_0_split -> inception_4d/output_inception_4d/output_0_split_2
I0403 15:05:19.248922 31116 net.cpp:399] inception_4d/output_inception_4d/output_0_split -> inception_4d/output_inception_4d/output_0_split_3
I0403 15:05:19.248946 31116 net.cpp:399] inception_4d/output_inception_4d/output_0_split -> inception_4d/output_inception_4d/output_0_split_4
I0403 15:05:19.249044 31116 net.cpp:141] Setting up inception_4d/output_inception_4d/output_0_split
I0403 15:05:19.249079 31116 net.cpp:148] Top shape: 24 528 14 14 (2483712)
I0403 15:05:19.249096 31116 net.cpp:148] Top shape: 24 528 14 14 (2483712)
I0403 15:05:19.249111 31116 net.cpp:148] Top shape: 24 528 14 14 (2483712)
I0403 15:05:19.249127 31116 net.cpp:148] Top shape: 24 528 14 14 (2483712)
I0403 15:05:19.249142 31116 net.cpp:148] Top shape: 24 528 14 14 (2483712)
I0403 15:05:19.249155 31116 net.cpp:156] Memory required for data: 1206918432
I0403 15:05:19.249176 31116 layer_factory.hpp:77] Creating layer loss2/ave_pool
I0403 15:05:19.249194 31116 net.cpp:91] Creating Layer loss2/ave_pool
I0403 15:05:19.249209 31116 net.cpp:425] loss2/ave_pool <- inception_4d/output_inception_4d/output_0_split_0
I0403 15:05:19.249230 31116 net.cpp:399] loss2/ave_pool -> loss2/ave_pool
I0403 15:05:19.249538 31116 net.cpp:141] Setting up loss2/ave_pool
I0403 15:05:19.249563 31116 net.cpp:148] Top shape: 24 528 4 4 (202752)
I0403 15:05:19.249578 31116 net.cpp:156] Memory required for data: 1207729440
I0403 15:05:19.249593 31116 layer_factory.hpp:77] Creating layer loss2/conv
I0403 15:05:19.249617 31116 net.cpp:91] Creating Layer loss2/conv
I0403 15:05:19.249635 31116 net.cpp:425] loss2/conv <- loss2/ave_pool
I0403 15:05:19.249655 31116 net.cpp:399] loss2/conv -> loss2/conv
I0403 15:05:19.251490 31116 net.cpp:141] Setting up loss2/conv
I0403 15:05:19.251523 31116 net.cpp:148] Top shape: 24 128 4 4 (49152)
I0403 15:05:19.251538 31116 net.cpp:156] Memory required for data: 1207926048
I0403 15:05:19.251556 31116 layer_factory.hpp:77] Creating layer loss2/relu_conv
I0403 15:05:19.251579 31116 net.cpp:91] Creating Layer loss2/relu_conv
I0403 15:05:19.251595 31116 net.cpp:425] loss2/relu_conv <- loss2/conv
I0403 15:05:19.251612 31116 net.cpp:386] loss2/relu_conv -> loss2/conv (in-place)
I0403 15:05:19.251890 31116 net.cpp:141] Setting up loss2/relu_conv
I0403 15:05:19.251916 31116 net.cpp:148] Top shape: 24 128 4 4 (49152)
I0403 15:05:19.251931 31116 net.cpp:156] Memory required for data: 1208122656
I0403 15:05:19.251945 31116 layer_factory.hpp:77] Creating layer loss2/fc
I0403 15:05:19.251966 31116 net.cpp:91] Creating Layer loss2/fc
I0403 15:05:19.251982 31116 net.cpp:425] loss2/fc <- loss2/conv
I0403 15:05:19.252004 31116 net.cpp:399] loss2/fc -> loss2/fc
I0403 15:05:19.269119 31116 net.cpp:141] Setting up loss2/fc
I0403 15:05:19.269151 31116 net.cpp:148] Top shape: 24 1024 (24576)
I0403 15:05:19.269167 31116 net.cpp:156] Memory required for data: 1208220960
I0403 15:05:19.269186 31116 layer_factory.hpp:77] Creating layer loss2/relu_fc
I0403 15:05:19.269207 31116 net.cpp:91] Creating Layer loss2/relu_fc
I0403 15:05:19.269222 31116 net.cpp:425] loss2/relu_fc <- loss2/fc
I0403 15:05:19.269245 31116 net.cpp:386] loss2/relu_fc -> loss2/fc (in-place)
I0403 15:05:19.269542 31116 net.cpp:141] Setting up loss2/relu_fc
I0403 15:05:19.269568 31116 net.cpp:148] Top shape: 24 1024 (24576)
I0403 15:05:19.269582 31116 net.cpp:156] Memory required for data: 1208319264
I0403 15:05:19.269598 31116 layer_factory.hpp:77] Creating layer loss2/drop_fc
I0403 15:05:19.269615 31116 net.cpp:91] Creating Layer loss2/drop_fc
I0403 15:05:19.269631 31116 net.cpp:425] loss2/drop_fc <- loss2/fc
I0403 15:05:19.269650 31116 net.cpp:386] loss2/drop_fc -> loss2/fc (in-place)
I0403 15:05:19.269701 31116 net.cpp:141] Setting up loss2/drop_fc
I0403 15:05:19.269728 31116 net.cpp:148] Top shape: 24 1024 (24576)
I0403 15:05:19.269742 31116 net.cpp:156] Memory required for data: 1208417568
I0403 15:05:19.269757 31116 layer_factory.hpp:77] Creating layer loss2/classifier_plantvillage
I0403 15:05:19.269774 31116 net.cpp:91] Creating Layer loss2/classifier_plantvillage
I0403 15:05:19.269790 31116 net.cpp:425] loss2/classifier_plantvillage <- loss2/fc
I0403 15:05:19.269811 31116 net.cpp:399] loss2/classifier_plantvillage -> loss2/classifier_plantvillage
I0403 15:05:19.270205 31116 net.cpp:141] Setting up loss2/classifier_plantvillage
I0403 15:05:19.270231 31116 net.cpp:148] Top shape: 24 38 (912)
I0403 15:05:19.270262 31116 net.cpp:156] Memory required for data: 1208421216
I0403 15:05:19.270280 31116 layer_factory.hpp:77] Creating layer loss2/classifier_plantvillage_loss2/classifier_plantvillage_0_split
I0403 15:05:19.270301 31116 net.cpp:91] Creating Layer loss2/classifier_plantvillage_loss2/classifier_plantvillage_0_split
I0403 15:05:19.270318 31116 net.cpp:425] loss2/classifier_plantvillage_loss2/classifier_plantvillage_0_split <- loss2/classifier_plantvillage
I0403 15:05:19.270339 31116 net.cpp:399] loss2/classifier_plantvillage_loss2/classifier_plantvillage_0_split -> loss2/classifier_plantvillage_loss2/classifier_plantvillage_0_split_0
I0403 15:05:19.270359 31116 net.cpp:399] loss2/classifier_plantvillage_loss2/classifier_plantvillage_0_split -> loss2/classifier_plantvillage_loss2/classifier_plantvillage_0_split_1
I0403 15:05:19.270377 31116 net.cpp:399] loss2/classifier_plantvillage_loss2/classifier_plantvillage_0_split -> loss2/classifier_plantvillage_loss2/classifier_plantvillage_0_split_2
I0403 15:05:19.270452 31116 net.cpp:141] Setting up loss2/classifier_plantvillage_loss2/classifier_plantvillage_0_split
I0403 15:05:19.270474 31116 net.cpp:148] Top shape: 24 38 (912)
I0403 15:05:19.270490 31116 net.cpp:148] Top shape: 24 38 (912)
I0403 15:05:19.270509 31116 net.cpp:148] Top shape: 24 38 (912)
I0403 15:05:19.270524 31116 net.cpp:156] Memory required for data: 1208432160
I0403 15:05:19.270539 31116 layer_factory.hpp:77] Creating layer inception_4e/1x1
I0403 15:05:19.270560 31116 net.cpp:91] Creating Layer inception_4e/1x1
I0403 15:05:19.270578 31116 net.cpp:425] inception_4e/1x1 <- inception_4d/output_inception_4d/output_0_split_1
I0403 15:05:19.270597 31116 net.cpp:399] inception_4e/1x1 -> inception_4e/1x1
I0403 15:05:19.272356 31116 net.cpp:141] Setting up inception_4e/1x1
I0403 15:05:19.272385 31116 net.cpp:148] Top shape: 24 256 14 14 (1204224)
I0403 15:05:19.272400 31116 net.cpp:156] Memory required for data: 1213249056
I0403 15:05:19.272419 31116 layer_factory.hpp:77] Creating layer inception_4e/relu_1x1
I0403 15:05:19.272438 31116 net.cpp:91] Creating Layer inception_4e/relu_1x1
I0403 15:05:19.272454 31116 net.cpp:425] inception_4e/relu_1x1 <- inception_4e/1x1
I0403 15:05:19.272469 31116 net.cpp:386] inception_4e/relu_1x1 -> inception_4e/1x1 (in-place)
I0403 15:05:19.272763 31116 net.cpp:141] Setting up inception_4e/relu_1x1
I0403 15:05:19.272790 31116 net.cpp:148] Top shape: 24 256 14 14 (1204224)
I0403 15:05:19.272806 31116 net.cpp:156] Memory required for data: 1218065952
I0403 15:05:19.272821 31116 layer_factory.hpp:77] Creating layer inception_4e/3x3_reduce
I0403 15:05:19.272842 31116 net.cpp:91] Creating Layer inception_4e/3x3_reduce
I0403 15:05:19.272860 31116 net.cpp:425] inception_4e/3x3_reduce <- inception_4d/output_inception_4d/output_0_split_2
I0403 15:05:19.272878 31116 net.cpp:399] inception_4e/3x3_reduce -> inception_4e/3x3_reduce
I0403 15:05:19.274952 31116 net.cpp:141] Setting up inception_4e/3x3_reduce
I0403 15:05:19.274981 31116 net.cpp:148] Top shape: 24 160 14 14 (752640)
I0403 15:05:19.274996 31116 net.cpp:156] Memory required for data: 1221076512
I0403 15:05:19.275013 31116 layer_factory.hpp:77] Creating layer inception_4e/relu_3x3_reduce
I0403 15:05:19.275032 31116 net.cpp:91] Creating Layer inception_4e/relu_3x3_reduce
I0403 15:05:19.275049 31116 net.cpp:425] inception_4e/relu_3x3_reduce <- inception_4e/3x3_reduce
I0403 15:05:19.275066 31116 net.cpp:386] inception_4e/relu_3x3_reduce -> inception_4e/3x3_reduce (in-place)
I0403 15:05:19.275248 31116 net.cpp:141] Setting up inception_4e/relu_3x3_reduce
I0403 15:05:19.275272 31116 net.cpp:148] Top shape: 24 160 14 14 (752640)
I0403 15:05:19.275286 31116 net.cpp:156] Memory required for data: 1224087072
I0403 15:05:19.275301 31116 layer_factory.hpp:77] Creating layer inception_4e/3x3
I0403 15:05:19.275322 31116 net.cpp:91] Creating Layer inception_4e/3x3
I0403 15:05:19.275339 31116 net.cpp:425] inception_4e/3x3 <- inception_4e/3x3_reduce
I0403 15:05:19.275362 31116 net.cpp:399] inception_4e/3x3 -> inception_4e/3x3
I0403 15:05:19.280412 31116 net.cpp:141] Setting up inception_4e/3x3
I0403 15:05:19.280453 31116 net.cpp:148] Top shape: 24 320 14 14 (1505280)
I0403 15:05:19.280469 31116 net.cpp:156] Memory required for data: 1230108192
I0403 15:05:19.280488 31116 layer_factory.hpp:77] Creating layer inception_4e/relu_3x3
I0403 15:05:19.280511 31116 net.cpp:91] Creating Layer inception_4e/relu_3x3
I0403 15:05:19.280529 31116 net.cpp:425] inception_4e/relu_3x3 <- inception_4e/3x3
I0403 15:05:19.280549 31116 net.cpp:386] inception_4e/relu_3x3 -> inception_4e/3x3 (in-place)
I0403 15:05:19.280841 31116 net.cpp:141] Setting up inception_4e/relu_3x3
I0403 15:05:19.280867 31116 net.cpp:148] Top shape: 24 320 14 14 (1505280)
I0403 15:05:19.280890 31116 net.cpp:156] Memory required for data: 1236129312
I0403 15:05:19.280905 31116 layer_factory.hpp:77] Creating layer inception_4e/5x5_reduce
I0403 15:05:19.280928 31116 net.cpp:91] Creating Layer inception_4e/5x5_reduce
I0403 15:05:19.280946 31116 net.cpp:425] inception_4e/5x5_reduce <- inception_4d/output_inception_4d/output_0_split_3
I0403 15:05:19.280968 31116 net.cpp:399] inception_4e/5x5_reduce -> inception_4e/5x5_reduce
I0403 15:05:19.282008 31116 net.cpp:141] Setting up inception_4e/5x5_reduce
I0403 15:05:19.282037 31116 net.cpp:148] Top shape: 24 32 14 14 (150528)
I0403 15:05:19.282052 31116 net.cpp:156] Memory required for data: 1236731424
I0403 15:05:19.282071 31116 layer_factory.hpp:77] Creating layer inception_4e/relu_5x5_reduce
I0403 15:05:19.282089 31116 net.cpp:91] Creating Layer inception_4e/relu_5x5_reduce
I0403 15:05:19.282105 31116 net.cpp:425] inception_4e/relu_5x5_reduce <- inception_4e/5x5_reduce
I0403 15:05:19.282122 31116 net.cpp:386] inception_4e/relu_5x5_reduce -> inception_4e/5x5_reduce (in-place)
I0403 15:05:19.282419 31116 net.cpp:141] Setting up inception_4e/relu_5x5_reduce
I0403 15:05:19.282446 31116 net.cpp:148] Top shape: 24 32 14 14 (150528)
I0403 15:05:19.282469 31116 net.cpp:156] Memory required for data: 1237333536
I0403 15:05:19.282483 31116 layer_factory.hpp:77] Creating layer inception_4e/5x5
I0403 15:05:19.282524 31116 net.cpp:91] Creating Layer inception_4e/5x5
I0403 15:05:19.282549 31116 net.cpp:425] inception_4e/5x5 <- inception_4e/5x5_reduce
I0403 15:05:19.282572 31116 net.cpp:399] inception_4e/5x5 -> inception_4e/5x5
I0403 15:05:19.284379 31116 net.cpp:141] Setting up inception_4e/5x5
I0403 15:05:19.284405 31116 net.cpp:148] Top shape: 24 128 14 14 (602112)
I0403 15:05:19.284420 31116 net.cpp:156] Memory required for data: 1239741984
I0403 15:05:19.284438 31116 layer_factory.hpp:77] Creating layer inception_4e/relu_5x5
I0403 15:05:19.284458 31116 net.cpp:91] Creating Layer inception_4e/relu_5x5
I0403 15:05:19.284476 31116 net.cpp:425] inception_4e/relu_5x5 <- inception_4e/5x5
I0403 15:05:19.284493 31116 net.cpp:386] inception_4e/relu_5x5 -> inception_4e/5x5 (in-place)
I0403 15:05:19.284698 31116 net.cpp:141] Setting up inception_4e/relu_5x5
I0403 15:05:19.284724 31116 net.cpp:148] Top shape: 24 128 14 14 (602112)
I0403 15:05:19.284739 31116 net.cpp:156] Memory required for data: 1242150432
I0403 15:05:19.284754 31116 layer_factory.hpp:77] Creating layer inception_4e/pool
I0403 15:05:19.284772 31116 net.cpp:91] Creating Layer inception_4e/pool
I0403 15:05:19.284787 31116 net.cpp:425] inception_4e/pool <- inception_4d/output_inception_4d/output_0_split_4
I0403 15:05:19.284808 31116 net.cpp:399] inception_4e/pool -> inception_4e/pool
I0403 15:05:19.284875 31116 net.cpp:141] Setting up inception_4e/pool
I0403 15:05:19.284898 31116 net.cpp:148] Top shape: 24 528 14 14 (2483712)
I0403 15:05:19.284914 31116 net.cpp:156] Memory required for data: 1252085280
I0403 15:05:19.284927 31116 layer_factory.hpp:77] Creating layer inception_4e/pool_proj
I0403 15:05:19.284948 31116 net.cpp:91] Creating Layer inception_4e/pool_proj
I0403 15:05:19.284965 31116 net.cpp:425] inception_4e/pool_proj <- inception_4e/pool
I0403 15:05:19.284986 31116 net.cpp:399] inception_4e/pool_proj -> inception_4e/pool_proj
I0403 15:05:19.286456 31116 net.cpp:141] Setting up inception_4e/pool_proj
I0403 15:05:19.286494 31116 net.cpp:148] Top shape: 24 128 14 14 (602112)
I0403 15:05:19.286514 31116 net.cpp:156] Memory required for data: 1254493728
I0403 15:05:19.286533 31116 layer_factory.hpp:77] Creating layer inception_4e/relu_pool_proj
I0403 15:05:19.286553 31116 net.cpp:91] Creating Layer inception_4e/relu_pool_proj
I0403 15:05:19.286571 31116 net.cpp:425] inception_4e/relu_pool_proj <- inception_4e/pool_proj
I0403 15:05:19.286589 31116 net.cpp:386] inception_4e/relu_pool_proj -> inception_4e/pool_proj (in-place)
I0403 15:05:19.286878 31116 net.cpp:141] Setting up inception_4e/relu_pool_proj
I0403 15:05:19.286903 31116 net.cpp:148] Top shape: 24 128 14 14 (602112)
I0403 15:05:19.286918 31116 net.cpp:156] Memory required for data: 1256902176
I0403 15:05:19.286932 31116 layer_factory.hpp:77] Creating layer inception_4e/output
I0403 15:05:19.286950 31116 net.cpp:91] Creating Layer inception_4e/output
I0403 15:05:19.286965 31116 net.cpp:425] inception_4e/output <- inception_4e/1x1
I0403 15:05:19.286985 31116 net.cpp:425] inception_4e/output <- inception_4e/3x3
I0403 15:05:19.287001 31116 net.cpp:425] inception_4e/output <- inception_4e/5x5
I0403 15:05:19.287017 31116 net.cpp:425] inception_4e/output <- inception_4e/pool_proj
I0403 15:05:19.287034 31116 net.cpp:399] inception_4e/output -> inception_4e/output
I0403 15:05:19.287081 31116 net.cpp:141] Setting up inception_4e/output
I0403 15:05:19.287106 31116 net.cpp:148] Top shape: 24 832 14 14 (3913728)
I0403 15:05:19.287122 31116 net.cpp:156] Memory required for data: 1272557088
I0403 15:05:19.287137 31116 layer_factory.hpp:77] Creating layer pool4/3x3_s2
I0403 15:05:19.287153 31116 net.cpp:91] Creating Layer pool4/3x3_s2
I0403 15:05:19.287168 31116 net.cpp:425] pool4/3x3_s2 <- inception_4e/output
I0403 15:05:19.287189 31116 net.cpp:399] pool4/3x3_s2 -> pool4/3x3_s2
I0403 15:05:19.287253 31116 net.cpp:141] Setting up pool4/3x3_s2
I0403 15:05:19.287279 31116 net.cpp:148] Top shape: 24 832 7 7 (978432)
I0403 15:05:19.287294 31116 net.cpp:156] Memory required for data: 1276470816
I0403 15:05:19.287309 31116 layer_factory.hpp:77] Creating layer pool4/3x3_s2_pool4/3x3_s2_0_split
I0403 15:05:19.287325 31116 net.cpp:91] Creating Layer pool4/3x3_s2_pool4/3x3_s2_0_split
I0403 15:05:19.287341 31116 net.cpp:425] pool4/3x3_s2_pool4/3x3_s2_0_split <- pool4/3x3_s2
I0403 15:05:19.287358 31116 net.cpp:399] pool4/3x3_s2_pool4/3x3_s2_0_split -> pool4/3x3_s2_pool4/3x3_s2_0_split_0
I0403 15:05:19.287377 31116 net.cpp:399] pool4/3x3_s2_pool4/3x3_s2_0_split -> pool4/3x3_s2_pool4/3x3_s2_0_split_1
I0403 15:05:19.287398 31116 net.cpp:399] pool4/3x3_s2_pool4/3x3_s2_0_split -> pool4/3x3_s2_pool4/3x3_s2_0_split_2
I0403 15:05:19.287418 31116 net.cpp:399] pool4/3x3_s2_pool4/3x3_s2_0_split -> pool4/3x3_s2_pool4/3x3_s2_0_split_3
I0403 15:05:19.287511 31116 net.cpp:141] Setting up pool4/3x3_s2_pool4/3x3_s2_0_split
I0403 15:05:19.287534 31116 net.cpp:148] Top shape: 24 832 7 7 (978432)
I0403 15:05:19.287551 31116 net.cpp:148] Top shape: 24 832 7 7 (978432)
I0403 15:05:19.287567 31116 net.cpp:148] Top shape: 24 832 7 7 (978432)
I0403 15:05:19.287582 31116 net.cpp:148] Top shape: 24 832 7 7 (978432)
I0403 15:05:19.287596 31116 net.cpp:156] Memory required for data: 1292125728
I0403 15:05:19.287611 31116 layer_factory.hpp:77] Creating layer inception_5a/1x1
I0403 15:05:19.287632 31116 net.cpp:91] Creating Layer inception_5a/1x1
I0403 15:05:19.287649 31116 net.cpp:425] inception_5a/1x1 <- pool4/3x3_s2_pool4/3x3_s2_0_split_0
I0403 15:05:19.287670 31116 net.cpp:399] inception_5a/1x1 -> inception_5a/1x1
I0403 15:05:19.290447 31116 net.cpp:141] Setting up inception_5a/1x1
I0403 15:05:19.290475 31116 net.cpp:148] Top shape: 24 256 7 7 (301056)
I0403 15:05:19.290491 31116 net.cpp:156] Memory required for data: 1293329952
I0403 15:05:19.290514 31116 layer_factory.hpp:77] Creating layer inception_5a/relu_1x1
I0403 15:05:19.290535 31116 net.cpp:91] Creating Layer inception_5a/relu_1x1
I0403 15:05:19.290552 31116 net.cpp:425] inception_5a/relu_1x1 <- inception_5a/1x1
I0403 15:05:19.290570 31116 net.cpp:386] inception_5a/relu_1x1 -> inception_5a/1x1 (in-place)
I0403 15:05:19.290875 31116 net.cpp:141] Setting up inception_5a/relu_1x1
I0403 15:05:19.290900 31116 net.cpp:148] Top shape: 24 256 7 7 (301056)
I0403 15:05:19.290915 31116 net.cpp:156] Memory required for data: 1294534176
I0403 15:05:19.290930 31116 layer_factory.hpp:77] Creating layer inception_5a/3x3_reduce
I0403 15:05:19.290954 31116 net.cpp:91] Creating Layer inception_5a/3x3_reduce
I0403 15:05:19.290973 31116 net.cpp:425] inception_5a/3x3_reduce <- pool4/3x3_s2_pool4/3x3_s2_0_split_1
I0403 15:05:19.290992 31116 net.cpp:399] inception_5a/3x3_reduce -> inception_5a/3x3_reduce
I0403 15:05:19.293378 31116 net.cpp:141] Setting up inception_5a/3x3_reduce
I0403 15:05:19.293406 31116 net.cpp:148] Top shape: 24 160 7 7 (188160)
I0403 15:05:19.293421 31116 net.cpp:156] Memory required for data: 1295286816
I0403 15:05:19.293438 31116 layer_factory.hpp:77] Creating layer inception_5a/relu_3x3_reduce
I0403 15:05:19.293457 31116 net.cpp:91] Creating Layer inception_5a/relu_3x3_reduce
I0403 15:05:19.293475 31116 net.cpp:425] inception_5a/relu_3x3_reduce <- inception_5a/3x3_reduce
I0403 15:05:19.293494 31116 net.cpp:386] inception_5a/relu_3x3_reduce -> inception_5a/3x3_reduce (in-place)
I0403 15:05:19.293681 31116 net.cpp:141] Setting up inception_5a/relu_3x3_reduce
I0403 15:05:19.293705 31116 net.cpp:148] Top shape: 24 160 7 7 (188160)
I0403 15:05:19.293720 31116 net.cpp:156] Memory required for data: 1296039456
I0403 15:05:19.293735 31116 layer_factory.hpp:77] Creating layer inception_5a/3x3
I0403 15:05:19.293757 31116 net.cpp:91] Creating Layer inception_5a/3x3
I0403 15:05:19.293774 31116 net.cpp:425] inception_5a/3x3 <- inception_5a/3x3_reduce
I0403 15:05:19.293869 31116 net.cpp:399] inception_5a/3x3 -> inception_5a/3x3
I0403 15:05:19.298774 31116 net.cpp:141] Setting up inception_5a/3x3
I0403 15:05:19.298804 31116 net.cpp:148] Top shape: 24 320 7 7 (376320)
I0403 15:05:19.298820 31116 net.cpp:156] Memory required for data: 1297544736
I0403 15:05:19.298838 31116 layer_factory.hpp:77] Creating layer inception_5a/relu_3x3
I0403 15:05:19.298858 31116 net.cpp:91] Creating Layer inception_5a/relu_3x3
I0403 15:05:19.298876 31116 net.cpp:425] inception_5a/relu_3x3 <- inception_5a/3x3
I0403 15:05:19.298893 31116 net.cpp:386] inception_5a/relu_3x3 -> inception_5a/3x3 (in-place)
I0403 15:05:19.299190 31116 net.cpp:141] Setting up inception_5a/relu_3x3
I0403 15:05:19.299216 31116 net.cpp:148] Top shape: 24 320 7 7 (376320)
I0403 15:05:19.299229 31116 net.cpp:156] Memory required for data: 1299050016
I0403 15:05:19.299243 31116 layer_factory.hpp:77] Creating layer inception_5a/5x5_reduce
I0403 15:05:19.299266 31116 net.cpp:91] Creating Layer inception_5a/5x5_reduce
I0403 15:05:19.299283 31116 net.cpp:425] inception_5a/5x5_reduce <- pool4/3x3_s2_pool4/3x3_s2_0_split_2
I0403 15:05:19.299305 31116 net.cpp:399] inception_5a/5x5_reduce -> inception_5a/5x5_reduce
I0403 15:05:19.300447 31116 net.cpp:141] Setting up inception_5a/5x5_reduce
I0403 15:05:19.300474 31116 net.cpp:148] Top shape: 24 32 7 7 (37632)
I0403 15:05:19.300489 31116 net.cpp:156] Memory required for data: 1299200544
I0403 15:05:19.300511 31116 layer_factory.hpp:77] Creating layer inception_5a/relu_5x5_reduce
I0403 15:05:19.300532 31116 net.cpp:91] Creating Layer inception_5a/relu_5x5_reduce
I0403 15:05:19.300549 31116 net.cpp:425] inception_5a/relu_5x5_reduce <- inception_5a/5x5_reduce
I0403 15:05:19.300566 31116 net.cpp:386] inception_5a/relu_5x5_reduce -> inception_5a/5x5_reduce (in-place)
I0403 15:05:19.300863 31116 net.cpp:141] Setting up inception_5a/relu_5x5_reduce
I0403 15:05:19.300889 31116 net.cpp:148] Top shape: 24 32 7 7 (37632)
I0403 15:05:19.300904 31116 net.cpp:156] Memory required for data: 1299351072
I0403 15:05:19.300917 31116 layer_factory.hpp:77] Creating layer inception_5a/5x5
I0403 15:05:19.300940 31116 net.cpp:91] Creating Layer inception_5a/5x5
I0403 15:05:19.300957 31116 net.cpp:425] inception_5a/5x5 <- inception_5a/5x5_reduce
I0403 15:05:19.300976 31116 net.cpp:399] inception_5a/5x5 -> inception_5a/5x5
I0403 15:05:19.302647 31116 net.cpp:141] Setting up inception_5a/5x5
I0403 15:05:19.302685 31116 net.cpp:148] Top shape: 24 128 7 7 (150528)
I0403 15:05:19.302700 31116 net.cpp:156] Memory required for data: 1299953184
I0403 15:05:19.302718 31116 layer_factory.hpp:77] Creating layer inception_5a/relu_5x5
I0403 15:05:19.302737 31116 net.cpp:91] Creating Layer inception_5a/relu_5x5
I0403 15:05:19.302754 31116 net.cpp:425] inception_5a/relu_5x5 <- inception_5a/5x5
I0403 15:05:19.302772 31116 net.cpp:386] inception_5a/relu_5x5 -> inception_5a/5x5 (in-place)
I0403 15:05:19.302958 31116 net.cpp:141] Setting up inception_5a/relu_5x5
I0403 15:05:19.302984 31116 net.cpp:148] Top shape: 24 128 7 7 (150528)
I0403 15:05:19.303000 31116 net.cpp:156] Memory required for data: 1300555296
I0403 15:05:19.303014 31116 layer_factory.hpp:77] Creating layer inception_5a/pool
I0403 15:05:19.303031 31116 net.cpp:91] Creating Layer inception_5a/pool
I0403 15:05:19.303047 31116 net.cpp:425] inception_5a/pool <- pool4/3x3_s2_pool4/3x3_s2_0_split_3
I0403 15:05:19.303067 31116 net.cpp:399] inception_5a/pool -> inception_5a/pool
I0403 15:05:19.303134 31116 net.cpp:141] Setting up inception_5a/pool
I0403 15:05:19.303158 31116 net.cpp:148] Top shape: 24 832 7 7 (978432)
I0403 15:05:19.303171 31116 net.cpp:156] Memory required for data: 1304469024
I0403 15:05:19.303186 31116 layer_factory.hpp:77] Creating layer inception_5a/pool_proj
I0403 15:05:19.303207 31116 net.cpp:91] Creating Layer inception_5a/pool_proj
I0403 15:05:19.303225 31116 net.cpp:425] inception_5a/pool_proj <- inception_5a/pool
I0403 15:05:19.303246 31116 net.cpp:399] inception_5a/pool_proj -> inception_5a/pool_proj
I0403 15:05:19.305470 31116 net.cpp:141] Setting up inception_5a/pool_proj
I0403 15:05:19.305500 31116 net.cpp:148] Top shape: 24 128 7 7 (150528)
I0403 15:05:19.305519 31116 net.cpp:156] Memory required for data: 1305071136
I0403 15:05:19.305537 31116 layer_factory.hpp:77] Creating layer inception_5a/relu_pool_proj
I0403 15:05:19.305557 31116 net.cpp:91] Creating Layer inception_5a/relu_pool_proj
I0403 15:05:19.305577 31116 net.cpp:425] inception_5a/relu_pool_proj <- inception_5a/pool_proj
I0403 15:05:19.305594 31116 net.cpp:386] inception_5a/relu_pool_proj -> inception_5a/pool_proj (in-place)
I0403 15:05:19.305882 31116 net.cpp:141] Setting up inception_5a/relu_pool_proj
I0403 15:05:19.305907 31116 net.cpp:148] Top shape: 24 128 7 7 (150528)
I0403 15:05:19.305922 31116 net.cpp:156] Memory required for data: 1305673248
I0403 15:05:19.305938 31116 layer_factory.hpp:77] Creating layer inception_5a/output
I0403 15:05:19.305954 31116 net.cpp:91] Creating Layer inception_5a/output
I0403 15:05:19.305969 31116 net.cpp:425] inception_5a/output <- inception_5a/1x1
I0403 15:05:19.305985 31116 net.cpp:425] inception_5a/output <- inception_5a/3x3
I0403 15:05:19.306001 31116 net.cpp:425] inception_5a/output <- inception_5a/5x5
I0403 15:05:19.306017 31116 net.cpp:425] inception_5a/output <- inception_5a/pool_proj
I0403 15:05:19.306036 31116 net.cpp:399] inception_5a/output -> inception_5a/output
I0403 15:05:19.306087 31116 net.cpp:141] Setting up inception_5a/output
I0403 15:05:19.306110 31116 net.cpp:148] Top shape: 24 832 7 7 (978432)
I0403 15:05:19.306125 31116 net.cpp:156] Memory required for data: 1309586976
I0403 15:05:19.306140 31116 layer_factory.hpp:77] Creating layer inception_5a/output_inception_5a/output_0_split
I0403 15:05:19.306156 31116 net.cpp:91] Creating Layer inception_5a/output_inception_5a/output_0_split
I0403 15:05:19.306172 31116 net.cpp:425] inception_5a/output_inception_5a/output_0_split <- inception_5a/output
I0403 15:05:19.306191 31116 net.cpp:399] inception_5a/output_inception_5a/output_0_split -> inception_5a/output_inception_5a/output_0_split_0
I0403 15:05:19.306212 31116 net.cpp:399] inception_5a/output_inception_5a/output_0_split -> inception_5a/output_inception_5a/output_0_split_1
I0403 15:05:19.306231 31116 net.cpp:399] inception_5a/output_inception_5a/output_0_split -> inception_5a/output_inception_5a/output_0_split_2
I0403 15:05:19.306252 31116 net.cpp:399] inception_5a/output_inception_5a/output_0_split -> inception_5a/output_inception_5a/output_0_split_3
I0403 15:05:19.306361 31116 net.cpp:141] Setting up inception_5a/output_inception_5a/output_0_split
I0403 15:05:19.306385 31116 net.cpp:148] Top shape: 24 832 7 7 (978432)
I0403 15:05:19.306401 31116 net.cpp:148] Top shape: 24 832 7 7 (978432)
I0403 15:05:19.306416 31116 net.cpp:148] Top shape: 24 832 7 7 (978432)
I0403 15:05:19.306432 31116 net.cpp:148] Top shape: 24 832 7 7 (978432)
I0403 15:05:19.306445 31116 net.cpp:156] Memory required for data: 1325241888
I0403 15:05:19.306460 31116 layer_factory.hpp:77] Creating layer inception_5b/1x1
I0403 15:05:19.306483 31116 net.cpp:91] Creating Layer inception_5b/1x1
I0403 15:05:19.306500 31116 net.cpp:425] inception_5b/1x1 <- inception_5a/output_inception_5a/output_0_split_0
I0403 15:05:19.306524 31116 net.cpp:399] inception_5b/1x1 -> inception_5b/1x1
I0403 15:05:19.310181 31116 net.cpp:141] Setting up inception_5b/1x1
I0403 15:05:19.310210 31116 net.cpp:148] Top shape: 24 384 7 7 (451584)
I0403 15:05:19.310225 31116 net.cpp:156] Memory required for data: 1327048224
I0403 15:05:19.310243 31116 layer_factory.hpp:77] Creating layer inception_5b/relu_1x1
I0403 15:05:19.310263 31116 net.cpp:91] Creating Layer inception_5b/relu_1x1
I0403 15:05:19.310281 31116 net.cpp:425] inception_5b/relu_1x1 <- inception_5b/1x1
I0403 15:05:19.310299 31116 net.cpp:386] inception_5b/relu_1x1 -> inception_5b/1x1 (in-place)
I0403 15:05:19.310603 31116 net.cpp:141] Setting up inception_5b/relu_1x1
I0403 15:05:19.310628 31116 net.cpp:148] Top shape: 24 384 7 7 (451584)
I0403 15:05:19.310643 31116 net.cpp:156] Memory required for data: 1328854560
I0403 15:05:19.310658 31116 layer_factory.hpp:77] Creating layer inception_5b/3x3_reduce
I0403 15:05:19.310679 31116 net.cpp:91] Creating Layer inception_5b/3x3_reduce
I0403 15:05:19.310696 31116 net.cpp:425] inception_5b/3x3_reduce <- inception_5a/output_inception_5a/output_0_split_1
I0403 15:05:19.310719 31116 net.cpp:399] inception_5b/3x3_reduce -> inception_5b/3x3_reduce
I0403 15:05:19.313308 31116 net.cpp:141] Setting up inception_5b/3x3_reduce
I0403 15:05:19.313336 31116 net.cpp:148] Top shape: 24 192 7 7 (225792)
I0403 15:05:19.313352 31116 net.cpp:156] Memory required for data: 1329757728
I0403 15:05:19.313370 31116 layer_factory.hpp:77] Creating layer inception_5b/relu_3x3_reduce
I0403 15:05:19.313387 31116 net.cpp:91] Creating Layer inception_5b/relu_3x3_reduce
I0403 15:05:19.313403 31116 net.cpp:425] inception_5b/relu_3x3_reduce <- inception_5b/3x3_reduce
I0403 15:05:19.313423 31116 net.cpp:386] inception_5b/relu_3x3_reduce -> inception_5b/3x3_reduce (in-place)
I0403 15:05:19.313616 31116 net.cpp:141] Setting up inception_5b/relu_3x3_reduce
I0403 15:05:19.313642 31116 net.cpp:148] Top shape: 24 192 7 7 (225792)
I0403 15:05:19.313655 31116 net.cpp:156] Memory required for data: 1330660896
I0403 15:05:19.313670 31116 layer_factory.hpp:77] Creating layer inception_5b/3x3
I0403 15:05:19.313691 31116 net.cpp:91] Creating Layer inception_5b/3x3
I0403 15:05:19.313709 31116 net.cpp:425] inception_5b/3x3 <- inception_5b/3x3_reduce
I0403 15:05:19.313730 31116 net.cpp:399] inception_5b/3x3 -> inception_5b/3x3
I0403 15:05:19.320322 31116 net.cpp:141] Setting up inception_5b/3x3
I0403 15:05:19.320350 31116 net.cpp:148] Top shape: 24 384 7 7 (451584)
I0403 15:05:19.320366 31116 net.cpp:156] Memory required for data: 1332467232
I0403 15:05:19.320386 31116 layer_factory.hpp:77] Creating layer inception_5b/relu_3x3
I0403 15:05:19.320406 31116 net.cpp:91] Creating Layer inception_5b/relu_3x3
I0403 15:05:19.320425 31116 net.cpp:425] inception_5b/relu_3x3 <- inception_5b/3x3
I0403 15:05:19.320441 31116 net.cpp:386] inception_5b/relu_3x3 -> inception_5b/3x3 (in-place)
I0403 15:05:19.320741 31116 net.cpp:141] Setting up inception_5b/relu_3x3
I0403 15:05:19.320767 31116 net.cpp:148] Top shape: 24 384 7 7 (451584)
I0403 15:05:19.320781 31116 net.cpp:156] Memory required for data: 1334273568
I0403 15:05:19.320796 31116 layer_factory.hpp:77] Creating layer inception_5b/5x5_reduce
I0403 15:05:19.320832 31116 net.cpp:91] Creating Layer inception_5b/5x5_reduce
I0403 15:05:19.320850 31116 net.cpp:425] inception_5b/5x5_reduce <- inception_5a/output_inception_5a/output_0_split_2
I0403 15:05:19.320873 31116 net.cpp:399] inception_5b/5x5_reduce -> inception_5b/5x5_reduce
I0403 15:05:19.322118 31116 net.cpp:141] Setting up inception_5b/5x5_reduce
I0403 15:05:19.322145 31116 net.cpp:148] Top shape: 24 48 7 7 (56448)
I0403 15:05:19.322160 31116 net.cpp:156] Memory required for data: 1334499360
I0403 15:05:19.322178 31116 layer_factory.hpp:77] Creating layer inception_5b/relu_5x5_reduce
I0403 15:05:19.322198 31116 net.cpp:91] Creating Layer inception_5b/relu_5x5_reduce
I0403 15:05:19.322214 31116 net.cpp:425] inception_5b/relu_5x5_reduce <- inception_5b/5x5_reduce
I0403 15:05:19.322232 31116 net.cpp:386] inception_5b/relu_5x5_reduce -> inception_5b/5x5_reduce (in-place)
I0403 15:05:19.322602 31116 net.cpp:141] Setting up inception_5b/relu_5x5_reduce
I0403 15:05:19.322628 31116 net.cpp:148] Top shape: 24 48 7 7 (56448)
I0403 15:05:19.322643 31116 net.cpp:156] Memory required for data: 1334725152
I0403 15:05:19.322656 31116 layer_factory.hpp:77] Creating layer inception_5b/5x5
I0403 15:05:19.322676 31116 net.cpp:91] Creating Layer inception_5b/5x5
I0403 15:05:19.322695 31116 net.cpp:425] inception_5b/5x5 <- inception_5b/5x5_reduce
I0403 15:05:19.322713 31116 net.cpp:399] inception_5b/5x5 -> inception_5b/5x5
I0403 15:05:19.324717 31116 net.cpp:141] Setting up inception_5b/5x5
I0403 15:05:19.324744 31116 net.cpp:148] Top shape: 24 128 7 7 (150528)
I0403 15:05:19.324759 31116 net.cpp:156] Memory required for data: 1335327264
I0403 15:05:19.324777 31116 layer_factory.hpp:77] Creating layer inception_5b/relu_5x5
I0403 15:05:19.324797 31116 net.cpp:91] Creating Layer inception_5b/relu_5x5
I0403 15:05:19.324815 31116 net.cpp:425] inception_5b/relu_5x5 <- inception_5b/5x5
I0403 15:05:19.324831 31116 net.cpp:386] inception_5b/relu_5x5 -> inception_5b/5x5 (in-place)
I0403 15:05:19.325021 31116 net.cpp:141] Setting up inception_5b/relu_5x5
I0403 15:05:19.325047 31116 net.cpp:148] Top shape: 24 128 7 7 (150528)
I0403 15:05:19.325062 31116 net.cpp:156] Memory required for data: 1335929376
I0403 15:05:19.325078 31116 layer_factory.hpp:77] Creating layer inception_5b/pool
I0403 15:05:19.325094 31116 net.cpp:91] Creating Layer inception_5b/pool
I0403 15:05:19.325110 31116 net.cpp:425] inception_5b/pool <- inception_5a/output_inception_5a/output_0_split_3
I0403 15:05:19.325130 31116 net.cpp:399] inception_5b/pool -> inception_5b/pool
I0403 15:05:19.325201 31116 net.cpp:141] Setting up inception_5b/pool
I0403 15:05:19.325224 31116 net.cpp:148] Top shape: 24 832 7 7 (978432)
I0403 15:05:19.325239 31116 net.cpp:156] Memory required for data: 1339843104
I0403 15:05:19.325253 31116 layer_factory.hpp:77] Creating layer inception_5b/pool_proj
I0403 15:05:19.325275 31116 net.cpp:91] Creating Layer inception_5b/pool_proj
I0403 15:05:19.325294 31116 net.cpp:425] inception_5b/pool_proj <- inception_5b/pool
I0403 15:05:19.325312 31116 net.cpp:399] inception_5b/pool_proj -> inception_5b/pool_proj
I0403 15:05:19.327572 31116 net.cpp:141] Setting up inception_5b/pool_proj
I0403 15:05:19.327600 31116 net.cpp:148] Top shape: 24 128 7 7 (150528)
I0403 15:05:19.327615 31116 net.cpp:156] Memory required for data: 1340445216
I0403 15:05:19.327633 31116 layer_factory.hpp:77] Creating layer inception_5b/relu_pool_proj
I0403 15:05:19.327654 31116 net.cpp:91] Creating Layer inception_5b/relu_pool_proj
I0403 15:05:19.327671 31116 net.cpp:425] inception_5b/relu_pool_proj <- inception_5b/pool_proj
I0403 15:05:19.327687 31116 net.cpp:386] inception_5b/relu_pool_proj -> inception_5b/pool_proj (in-place)
I0403 15:05:19.327980 31116 net.cpp:141] Setting up inception_5b/relu_pool_proj
I0403 15:05:19.328006 31116 net.cpp:148] Top shape: 24 128 7 7 (150528)
I0403 15:05:19.328021 31116 net.cpp:156] Memory required for data: 1341047328
I0403 15:05:19.328035 31116 layer_factory.hpp:77] Creating layer inception_5b/output
I0403 15:05:19.328054 31116 net.cpp:91] Creating Layer inception_5b/output
I0403 15:05:19.328083 31116 net.cpp:425] inception_5b/output <- inception_5b/1x1
I0403 15:05:19.328101 31116 net.cpp:425] inception_5b/output <- inception_5b/3x3
I0403 15:05:19.328117 31116 net.cpp:425] inception_5b/output <- inception_5b/5x5
I0403 15:05:19.328133 31116 net.cpp:425] inception_5b/output <- inception_5b/pool_proj
I0403 15:05:19.328150 31116 net.cpp:399] inception_5b/output -> inception_5b/output
I0403 15:05:19.328200 31116 net.cpp:141] Setting up inception_5b/output
I0403 15:05:19.328227 31116 net.cpp:148] Top shape: 24 1024 7 7 (1204224)
I0403 15:05:19.328241 31116 net.cpp:156] Memory required for data: 1345864224
I0403 15:05:19.328256 31116 layer_factory.hpp:77] Creating layer pool5/7x7_s1
I0403 15:05:19.328272 31116 net.cpp:91] Creating Layer pool5/7x7_s1
I0403 15:05:19.328289 31116 net.cpp:425] pool5/7x7_s1 <- inception_5b/output
I0403 15:05:19.328307 31116 net.cpp:399] pool5/7x7_s1 -> pool5/7x7_s1
I0403 15:05:19.328523 31116 net.cpp:141] Setting up pool5/7x7_s1
I0403 15:05:19.328548 31116 net.cpp:148] Top shape: 24 1024 1 1 (24576)
I0403 15:05:19.328563 31116 net.cpp:156] Memory required for data: 1345962528
I0403 15:05:19.328577 31116 layer_factory.hpp:77] Creating layer pool5/drop_7x7_s1
I0403 15:05:19.328598 31116 net.cpp:91] Creating Layer pool5/drop_7x7_s1
I0403 15:05:19.328613 31116 net.cpp:425] pool5/drop_7x7_s1 <- pool5/7x7_s1
I0403 15:05:19.328631 31116 net.cpp:386] pool5/drop_7x7_s1 -> pool5/7x7_s1 (in-place)
I0403 15:05:19.328681 31116 net.cpp:141] Setting up pool5/drop_7x7_s1
I0403 15:05:19.328704 31116 net.cpp:148] Top shape: 24 1024 1 1 (24576)
I0403 15:05:19.328718 31116 net.cpp:156] Memory required for data: 1346060832
I0403 15:05:19.328733 31116 layer_factory.hpp:77] Creating layer loss3/classifier_plantvillage
I0403 15:05:19.328752 31116 net.cpp:91] Creating Layer loss3/classifier_plantvillage
I0403 15:05:19.328770 31116 net.cpp:425] loss3/classifier_plantvillage <- pool5/7x7_s1
I0403 15:05:19.328789 31116 net.cpp:399] loss3/classifier_plantvillage -> loss3/classifier_plantvillage
I0403 15:05:19.329205 31116 net.cpp:141] Setting up loss3/classifier_plantvillage
I0403 15:05:19.329228 31116 net.cpp:148] Top shape: 24 38 (912)
I0403 15:05:19.329242 31116 net.cpp:156] Memory required for data: 1346064480
I0403 15:05:19.329260 31116 layer_factory.hpp:77] Creating layer loss3/classifier_plantvillage_loss3/classifier_plantvillage_0_split
I0403 15:05:19.329278 31116 net.cpp:91] Creating Layer loss3/classifier_plantvillage_loss3/classifier_plantvillage_0_split
I0403 15:05:19.329294 31116 net.cpp:425] loss3/classifier_plantvillage_loss3/classifier_plantvillage_0_split <- loss3/classifier_plantvillage
I0403 15:05:19.329316 31116 net.cpp:399] loss3/classifier_plantvillage_loss3/classifier_plantvillage_0_split -> loss3/classifier_plantvillage_loss3/classifier_plantvillage_0_split_0
I0403 15:05:19.329336 31116 net.cpp:399] loss3/classifier_plantvillage_loss3/classifier_plantvillage_0_split -> loss3/classifier_plantvillage_loss3/classifier_plantvillage_0_split_1
I0403 15:05:19.329355 31116 net.cpp:399] loss3/classifier_plantvillage_loss3/classifier_plantvillage_0_split -> loss3/classifier_plantvillage_loss3/classifier_plantvillage_0_split_2
I0403 15:05:19.329375 31116 net.cpp:399] loss3/classifier_plantvillage_loss3/classifier_plantvillage_0_split -> loss3/classifier_plantvillage_loss3/classifier_plantvillage_0_split_3
I0403 15:05:19.329473 31116 net.cpp:141] Setting up loss3/classifier_plantvillage_loss3/classifier_plantvillage_0_split
I0403 15:05:19.329496 31116 net.cpp:148] Top shape: 24 38 (912)
I0403 15:05:19.329517 31116 net.cpp:148] Top shape: 24 38 (912)
I0403 15:05:19.329532 31116 net.cpp:148] Top shape: 24 38 (912)
I0403 15:05:19.329548 31116 net.cpp:148] Top shape: 24 38 (912)
I0403 15:05:19.329562 31116 net.cpp:156] Memory required for data: 1346079072
I0403 15:05:19.329577 31116 layer_factory.hpp:77] Creating layer loss1/loss
I0403 15:05:19.329602 31116 net.cpp:91] Creating Layer loss1/loss
I0403 15:05:19.329618 31116 net.cpp:425] loss1/loss <- loss1/classifier_plantvillage_loss1/classifier_plantvillage_0_split_0
I0403 15:05:19.329648 31116 net.cpp:425] loss1/loss <- label_data_1_split_0
…
