…
I0403 15:14:05.723546 31328 net.cpp:313] The NetState phase (1) differed from the phase (0) specified by a rule in layer data
I0403 15:14:05.724829 31328 net.cpp:49] Initializing net from parameters: 
state {
  phase: TEST
}
layer {
  name: "data"
  type: "Data"
  top: "data"
  top: "label"
  include {
    phase: TEST
  }
  transform_param {
    mirror: false
    crop_size: 224
    mean_file: "/home/mohanty/data/final_dataset/lmdb/grayscale-80-20/mean.binaryproto"
  }
  data_param {
    source: "/home/mohanty/data/final_dataset/lmdb/grayscale-80-20/test_db"
    batch_size: 24
    backend: LMDB
  }
}
layer {
  name: "conv1/7x7_s2"
  type: "Convolution"
  bottom: "data"
  top: "conv1/7x7_s2"
  param {
    lr_mult: 1
    decay_mult: 1
  }
  param {
    lr_mult: 2
    decay_mult: 0
  }
  convolution_param {
    num_output: 64
    pad: 3
    kernel_size: 7
    stride: 2
    weight_filler {
      type: "xavier"
      std: 0.1
    }
    bias_filler {
      type: "constant"
      value: 0.2
    }
  }
}
layer {
  name: "conv1/relu_7x7"
  type: "ReLU"
  bottom: "conv1/7x7_s2"
  top: "conv1/7x7_s2"
}
layer {
  name: "pool1/3x3_s2"
  type: "Pooling"
  bottom: "conv1/7x7_s2"
  top: "pool1/3x3_s2"
  pooling_param {
    pool: MAX
    kernel_size: 3
    stride: 2
  }
}
layer {
  name: "pool1/norm1"
  type: "LRN"
  bottom: "pool1/3x3_s2"
  top: "pool1/norm1"
  lrn_param {
    local_size: 5
    alpha: 0.0001
    beta: 0.75
  }
}
layer {
  name: "conv2/3x3_reduce"
  type: "Convolution"
  bottom: "pool1/norm1"
  top: "conv2/3x3_reduce"
  param {
    lr_mult: 1
    decay_mult: 1
  }
  param {
    lr_mult: 2
    decay_mult: 0
  }
  convolution_param {
    num_output: 64
    kernel_size: 1
    weight_filler {
      type: "xavier"
      std: 0.1
    }
    bias_filler {
      type: "constant"
      value: 0.2
    }
  }
}
layer {
  name: "conv2/relu_3x3_reduce"
  type: "ReLU"
  bottom: "conv2/3x3_reduce"
  top: "conv2/3x3_reduce"
}
layer {
  name: "conv2/3x3"
  type: "Convolution"
  bottom: "conv2/3x3_reduce"
  top: "conv2/3x3"
  param {
    lr_mult: 1
    decay_mult: 1
  }
  param {
    lr_mult: 2
    decay_mult: 0
  }
  convolution_param {
    num_output: 192
    pad: 1
    kernel_size: 3
    weight_filler {
      type: "xavier"
      std: 0.03
    }
    bias_filler {
      type: "constant"
      value: 0.2
    }
  }
}
layer {
  name: "conv2/relu_3x3"
  type: "ReLU"
  bottom: "conv2/3x3"
  top: "conv2/3x3"
}
layer {
  name: "conv2/norm2"
  type: "LRN"
  bottom: "conv2/3x3"
  top: "conv2/norm2"
  lrn_param {
    local_size: 5
    alpha: 0.0001
    beta: 0.75
  }
}
layer {
  name: "pool2/3x3_s2"
  type: "Pooling"
  bottom: "conv2/norm2"
  top: "pool2/3x3_s2"
  pooling_param {
    pool: MAX
    kernel_size: 3
    stride: 2
  }
}
layer {
  name: "inception_3a/1x1"
  type: "Convolution"
  bottom: "pool2/3x3_s2"
  top: "inception_3a/1x1"
  param {
    lr_mult: 1
    decay_mult: 1
  }
  param {
    lr_mult: 2
    decay_mult: 0
  }
  convolution_param {
    num_output: 64
    kernel_size: 1
    weight_filler {
      type: "xavier"
      std: 0.03
    }
    bias_filler {
      type: "constant"
      value: 0.2
    }
  }
}
layer {
  name: "inception_3a/relu_1x1"
  type: "ReLU"
  bottom: "inception_3a/1x1"
  top: "inception_3a/1x1"
}
layer {
  name: "inception_3a/3x3_reduce"
  type: "Convolution"
  bottom: "pool2/3x3_s2"
  top: "inception_3a/3x3_reduce"
  param {
    lr_mult: 1
    decay_mult: 1
  }
  param {
    lr_mult: 2
    decay_mult: 0
  }
  convolution_param {
    num_output: 96
    kernel_size: 1
    weight_filler {
      type: "xavier"
      std: 0.09
    }
    bias_filler {
      type: "constant"
      value: 0.2
    }
  }
}
layer {
  name: "inception_3a/relu_3x3_reduce"
  type: "ReLU"
  bottom: "inception_3a/3x3_reduce"
  top: "inception_3a/3x3_reduce"
}
layer {
  name: "inception_3a/3x3"
  type: "Convolution"
  bottom: "inception_3a/3x3_reduce"
  top: "inception_3a/3x3"
  param {
    lr_mult: 1
    decay_mult: 1
  }
  param {
    lr_mult: 2
    decay_mult: 0
  }
  convolution_param {
    num_output: 128
    pad: 1
    kernel_size: 3
    weight_filler {
      type: "xavier"
      std: 0.03
    }
    bias_filler {
      type: "constant"
      value: 0.2
    }
  }
}
layer {
  name: "inception_3a/relu_3x3"
  type: "ReLU"
  bottom: "inception_3a/3x3"
  top: "inception_3a/3x3"
}
layer {
  name: "inception_3a/5x5_reduce"
  type: "Convolution"
  bottom: "pool2/3x3_s2"
  top: "inception_3a/5x5_reduce"
  param {
    lr_mult: 1
    decay_mult: 1
  }
  param {
    lr_mult: 2
    decay_mult: 0
  }
  convolution_param {
    num_output: 16
    kernel_size: 1
    weight_filler {
      type: "xavier"
      std: 0.2
    }
    bias_filler {
      type: "constant"
      value: 0.2
    }
  }
}
layer {
  name: "inception_3a/relu_5x5_reduce"
  type: "ReLU"
  bottom: "inception_3a/5x5_reduce"
  top: "inception_3a/5x5_reduce"
}
layer {
  name: "inception_3a/5x5"
  type: "Convolution"
  bottom: "inception_3a/5x5_reduce"
  top: "inception_3a/5x5"
  param {
    lr_mult: 1
    decay_mult: 1
  }
  param {
    lr_mult: 2
    decay_mult: 0
  }
  convolution_param {
    num_output: 32
    pad: 2
    kernel_size: 5
    weight_filler {
      type: "xavier"
      std: 0.03
    }
    bias_filler {
      type: "constant"
      value: 0.2
    }
  }
}
layer {
  name: "inception_3a/relu_5x5"
  type: "ReLU"
  bottom: "inception_3a/5x5"
  top: "inception_3a/5x5"
}
layer {
  name: "inception_3a/pool"
  type: "Pooling"
  bottom: "pool2/3x3_s2"
  top: "inception_3a/pool"
  pooling_param {
    pool: MAX
    kernel_size: 3
    stride: 1
    pad: 1
  }
}
layer {
  name: "inception_3a/pool_proj"
  type: "Convolution"
  bottom: "inception_3a/pool"
  top: "inception_3a/pool_proj"
  param {
    lr_mult: 1
    decay_mult: 1
  }
  param {
    lr_mult: 2
    decay_mult: 0
  }
  convolution_param {
    num_output: 32
    kernel_size: 1
    weight_filler {
      type: "xavier"
      std: 0.1
    }
    bias_filler {
      type: "constant"
      value: 0.2
    }
  }
}
layer {
  name: "inception_3a/relu_pool_proj"
  type: "ReLU"
  bottom: "inception_3a/pool_proj"
  top: "inception_3a/pool_proj"
}
layer {
  name: "inception_3a/output"
  type: "Concat"
  bottom: "inception_3a/1x1"
  bottom: "inception_3a/3x3"
  bottom: "inception_3a/5x5"
  bottom: "inception_3a/pool_proj"
  top: "inception_3a/output"
}
layer {
  name: "inception_3b/1x1"
  type: "Convolution"
  bottom: "inception_3a/output"
  top: "inception_3b/1x1"
  param {
    lr_mult: 1
    decay_mult: 1
  }
  param {
    lr_mult: 2
    decay_mult: 0
  }
  convolution_param {
    num_output: 128
    kernel_size: 1
    weight_filler {
      type: "xavier"
      std: 0.03
    }
    bias_filler {
      type: "constant"
      value: 0.2
    }
  }
}
layer {
  name: "inception_3b/relu_1x1"
  type: "ReLU"
  bottom: "inception_3b/1x1"
  top: "inception_3b/1x1"
}
layer {
  name: "inception_3b/3x3_reduce"
  type: "Convolution"
  bottom: "inception_3a/output"
  top: "inception_3b/3x3_reduce"
  param {
    lr_mult: 1
    decay_mult: 1
  }
  param {
    lr_mult: 2
    decay_mult: 0
  }
  convolution_param {
    num_output: 128
    kernel_size: 1
    weight_filler {
      type: "xavier"
      std: 0.09
    }
    bias_filler {
      type: "constant"
      value: 0.2
    }
  }
}
layer {
  name: "inception_3b/relu_3x3_reduce"
  type: "ReLU"
  bottom: "inception_3b/3x3_reduce"
  top: "inception_3b/3x3_reduce"
}
layer {
  name: "inception_3b/3x3"
  type: "Convolution"
  bottom: "inception_3b/3x3_reduce"
  top: "inception_3b/3x3"
  param {
    lr_mult: 1
    decay_mult: 1
  }
  param {
    lr_mult: 2
    decay_mult: 0
  }
  convolution_param {
    num_output: 192
    pad: 1
    kernel_size: 3
    weight_filler {
      type: "xavier"
      std: 0.03
    }
    bias_filler {
      type: "constant"
      value: 0.2
    }
  }
}
layer {
  name: "inception_3b/relu_3x3"
  type: "ReLU"
  bottom: "inception_3b/3x3"
  top: "inception_3b/3x3"
}
layer {
  name: "inception_3b/5x5_reduce"
  type: "Convolution"
  bottom: "inception_3a/output"
  top: "inception_3b/5x5_reduce"
  param {
    lr_mult: 1
    decay_mult: 1
  }
  param {
    lr_mult: 2
    decay_mult: 0
  }
  convolution_param {
    num_output: 32
    kernel_size: 1
    weight_filler {
      type: "xavier"
      std: 0.2
    }
    bias_filler {
      type: "constant"
      value: 0.2
    }
  }
}
layer {
  name: "inception_3b/relu_5x5_reduce"
  type: "ReLU"
  bottom: "inception_3b/5x5_reduce"
  top: "inception_3b/5x5_reduce"
}
layer {
  name: "inception_3b/5x5"
  type: "Convolution"
  bottom: "inception_3b/5x5_reduce"
  top: "inception_3b/5x5"
  param {
    lr_mult: 1
    decay_mult: 1
  }
  param {
    lr_mult: 2
    decay_mult: 0
  }
  convolution_param {
    num_output: 96
    pad: 2
    kernel_size: 5
    weight_filler {
      type: "xavier"
      std: 0.03
    }
    bias_filler {
      type: "constant"
      value: 0.2
    }
  }
}
layer {
  name: "inception_3b/relu_5x5"
  type: "ReLU"
  bottom: "inception_3b/5x5"
  top: "inception_3b/5x5"
}
layer {
  name: "inception_3b/pool"
  type: "Pooling"
  bottom: "inception_3a/output"
  top: "inception_3b/pool"
  pooling_param {
    pool: MAX
    kernel_size: 3
    stride: 1
    pad: 1
  }
}
layer {
  name: "inception_3b/pool_proj"
  type: "Convolution"
  bottom: "inception_3b/pool"
  top: "inception_3b/pool_proj"
  param {
    lr_mult: 1
    decay_mult: 1
  }
  param {
    lr_mult: 2
    decay_mult: 0
  }
  convolution_param {
    num_output: 64
    kernel_size: 1
    weight_filler {
      type: "xavier"
      std: 0.1
    }
    bias_filler {
      type: "constant"
      value: 0.2
    }
  }
}
layer {
  name: "inception_3b/relu_pool_proj"
  type: "ReLU"
  bottom: "inception_3b/pool_proj"
  top: "inception_3b/pool_proj"
}
layer {
  name: "inception_3b/output"
  type: "Concat"
  bottom: "inception_3b/1x1"
  bottom: "inception_3b/3x3"
  bottom: "inception_3b/5x5"
  bottom: "inception_3b/pool_proj"
  top: "inception_3b/output"
}
layer {
  name: "pool3/3x3_s2"
  type: "Pooling"
  bottom: "inception_3b/output"
  top: "pool3/3x3_s2"
  pooling_param {
    pool: MAX
    kernel_size: 3
    stride: 2
  }
}
layer {
  name: "inception_4a/1x1"
  type: "Convolution"
  bottom: "pool3/3x3_s2"
  top: "inception_4a/1x1"
  param {
    lr_mult: 1
    decay_mult: 1
  }
  param {
    lr_mult: 2
    decay_mult: 0
  }
  convolution_param {
    num_output: 192
    kernel_size: 1
    weight_filler {
      type: "xavier"
      std: 0.03
    }
    bias_filler {
      type: "constant"
      value: 0.2
    }
  }
}
layer {
  name: "inception_4a/relu_1x1"
  type: "ReLU"
  bottom: "inception_4a/1x1"
  top: "inception_4a/1x1"
}
layer {
  name: "inception_4a/3x3_reduce"
  type: "Convolution"
  bottom: "pool3/3x3_s2"
  top: "inception_4a/3x3_reduce"
  param {
    lr_mult: 1
    decay_mult: 1
  }
  param {
    lr_mult: 2
    decay_mult: 0
  }
  convolution_param {
    num_output: 96
    kernel_size: 1
    weight_filler {
      type: "xavier"
      std: 0.09
    }
    bias_filler {
      type: "constant"
      value: 0.2
    }
  }
}
layer {
  name: "inception_4a/relu_3x3_reduce"
  type: "ReLU"
  bottom: "inception_4a/3x3_reduce"
  top: "inception_4a/3x3_reduce"
}
layer {
  name: "inception_4a/3x3"
  type: "Convolution"
  bottom: "inception_4a/3x3_reduce"
  top: "inception_4a/3x3"
  param {
    lr_mult: 1
    decay_mult: 1
  }
  param {
    lr_mult: 2
    decay_mult: 0
  }
  convolution_param {
    num_output: 208
    pad: 1
    kernel_size: 3
    weight_filler {
      type: "xavier"
      std: 0.03
    }
    bias_filler {
      type: "constant"
      value: 0.2
    }
  }
}
layer {
  name: "inception_4a/relu_3x3"
  type: "ReLU"
  bottom: "inception_4a/3x3"
  top: "inception_4a/3x3"
}
layer {
  name: "inception_4a/5x5_reduce"
  type: "Convolution"
  bottom: "pool3/3x3_s2"
  top: "inception_4a/5x5_reduce"
  param {
    lr_mult: 1
    decay_mult: 1
  }
  param {
    lr_mult: 2
    decay_mult: 0
  }
  convolution_param {
    num_output: 16
    kernel_size: 1
    weight_filler {
      type: "xavier"
      std: 0.2
    }
    bias_filler {
      type: "constant"
      value: 0.2
    }
  }
}
layer {
  name: "inception_4a/relu_5x5_reduce"
  type: "ReLU"
  bottom: "inception_4a/5x5_reduce"
  top: "inception_4a/5x5_reduce"
}
layer {
  name: "inception_4a/5x5"
  type: "Convolution"
  bottom: "inception_4a/5x5_reduce"
  top: "inception_4a/5x5"
  param {
    lr_mult: 1
    decay_mult: 1
  }
  param {
    lr_mult: 2
    decay_mult: 0
  }
  convolution_param {
    num_output: 48
    pad: 2
    kernel_size: 5
    weight_filler {
      type: "xavier"
      std: 0.03
    }
    bias_filler {
      type: "constant"
      value: 0.2
    }
  }
}
layer {
  name: "inception_4a/relu_5x5"
  type: "ReLU"
  bottom: "inception_4a/5x5"
  top: "inception_4a/5x5"
}
layer {
  name: "inception_4a/pool"
  type: "Pooling"
  bottom: "pool3/3x3_s2"
  top: "inception_4a/pool"
  pooling_param {
    pool: MAX
    kernel_size: 3
    stride: 1
    pad: 1
  }
}
layer {
  name: "inception_4a/pool_proj"
  type: "Convolution"
  bottom: "inception_4a/pool"
  top: "inception_4a/pool_proj"
  param {
    lr_mult: 1
    decay_mult: 1
  }
  param {
    lr_mult: 2
    decay_mult: 0
  }
  convolution_param {
    num_output: 64
    kernel_size: 1
    weight_filler {
      type: "xavier"
      std: 0.1
    }
    bias_filler {
      type: "constant"
      value: 0.2
    }
  }
}
layer {
  name: "inception_4a/relu_pool_proj"
  type: "ReLU"
  bottom: "inception_4a/pool_proj"
  top: "inception_4a/pool_proj"
}
layer {
  name: "inception_4a/output"
  type: "Concat"
  bottom: "inception_4a/1x1"
  bottom: "inception_4a/3x3"
  bottom: "inception_4a/5x5"
  bottom: "inception_4a/pool_proj"
  top: "inception_4a/output"
}
layer {
  name: "loss1/ave_pool"
  type: "Pooling"
  bottom: "inception_4a/output"
  top: "loss1/ave_pool"
  pooling_param {
    pool: AVE
    kernel_size: 5
    stride: 3
  }
}
layer {
  name: "loss1/conv"
  type: "Convolution"
  bottom: "loss1/ave_pool"
  top: "loss1/conv"
  param {
    lr_mult: 1
    decay_mult: 1
  }
  param {
    lr_mult: 2
    decay_mult: 0
  }
  convolution_param {
    num_output: 128
    kernel_size: 1
    weight_filler {
      type: "xavier"
      std: 0.08
    }
    bias_filler {
      type: "constant"
      value: 0.2
    }
  }
}
layer {
  name: "loss1/relu_conv"
  type: "ReLU"
  bottom: "loss1/conv"
  top: "loss1/conv"
}
layer {
  name: "loss1/fc"
  type: "InnerProduct"
  bottom: "loss1/conv"
  top: "loss1/fc"
  param {
    lr_mult: 1
    decay_mult: 1
  }
  param {
    lr_mult: 2
    decay_mult: 0
  }
  inner_product_param {
    num_output: 1024
    weight_filler {
      type: "xavier"
      std: 0.02
    }
    bias_filler {
      type: "constant"
      value: 0.2
    }
  }
}
layer {
  name: "loss1/relu_fc"
  type: "ReLU"
  bottom: "loss1/fc"
  top: "loss1/fc"
}
layer {
  name: "loss1/drop_fc"
  type: "Dropout"
  bottom: "loss1/fc"
  top: "loss1/fc"
  dropout_param {
    dropout_ratio: 0.7
  }
}
layer {
  name: "loss1/classifier_plantvillage"
  type: "InnerProduct"
  bottom: "loss1/fc"
  top: "loss1/classifier_plantvillage"
  param {
    lr_mult: 1
    decay_mult: 1
  }
  param {
    lr_mult: 2
    decay_mult: 0
  }
  inner_product_param {
    num_output: 38
    weight_filler {
      type: "xavier"
      std: 0.0009765625
    }
    bias_filler {
      type: "constant"
      value: 0
    }
  }
}
layer {
  name: "inception_4b/1x1"
  type: "Convolution"
  bottom: "inception_4a/output"
  top: "inception_4b/1x1"
  param {
    lr_mult: 1
    decay_mult: 1
  }
  param {
    lr_mult: 2
    decay_mult: 0
  }
  convolution_param {
    num_output: 160
    kernel_size: 1
    weight_filler {
      type: "xavier"
      std: 0.03
    }
    bias_filler {
      type: "constant"
      value: 0.2
    }
  }
}
layer {
  name: "inception_4b/relu_1x1"
  type: "ReLU"
  bottom: "inception_4b/1x1"
  top: "inception_4b/1x1"
}
layer {
  name: "inception_4b/3x3_reduce"
  type: "Convolution"
  bottom: "inception_4a/output"
  top: "inception_4b/3x3_reduce"
  param {
    lr_mult: 1
    decay_mult: 1
  }
  param {
    lr_mult: 2
    decay_mult: 0
  }
  convolution_param {
    num_output: 112
    kernel_size: 1
    weight_filler {
      type: "xavier"
      std: 0.09
    }
    bias_filler {
      type: "constant"
      value: 0.2
    }
  }
}
layer {
  name: "inception_4b/relu_3x3_reduce"
  type: "ReLU"
  bottom: "inception_4b/3x3_reduce"
  top: "inception_4b/3x3_reduce"
}
layer {
  name: "inception_4b/3x3"
  type: "Convolution"
  bottom: "inception_4b/3x3_reduce"
  top: "inception_4b/3x3"
  param {
    lr_mult: 1
    decay_mult: 1
  }
  param {
    lr_mult: 2
    decay_mult: 0
  }
  convolution_param {
    num_output: 224
    pad: 1
    kernel_size: 3
    weight_filler {
      type: "xavier"
      std: 0.03
    }
    bias_filler {
      type: "constant"
      value: 0.2
    }
  }
}
layer {
  name: "inception_4b/relu_3x3"
  type: "ReLU"
  bottom: "inception_4b/3x3"
  top: "inception_4b/3x3"
}
layer {
  name: "inception_4b/5x5_reduce"
  type: "Convolution"
  bottom: "inception_4a/output"
  top: "inception_4b/5x5_reduce"
  param {
    lr_mult: 1
    decay_mult: 1
  }
  param {
    lr_mult: 2
    decay_mult: 0
  }
  convolution_param {
    num_output: 24
    kernel_size: 1
    weight_filler {
      type: "xavier"
      std: 0.2
    }
    bias_filler {
      type: "constant"
      value: 0.2
    }
  }
}
layer {
  name: "inception_4b/relu_5x5_reduce"
  type: "ReLU"
  bottom: "inception_4b/5x5_reduce"
  top: "inception_4b/5x5_reduce"
}
layer {
  name: "inception_4b/5x5"
  type: "Convolution"
  bottom: "inception_4b/5x5_reduce"
  top: "inception_4b/5x5"
  param {
    lr_mult: 1
    decay_mult: 1
  }
  param {
    lr_mult: 2
    decay_mult: 0
  }
  convolution_param {
    num_output: 64
    pad: 2
    kernel_size: 5
    weight_filler {
      type: "xavier"
      std: 0.03
    }
    bias_filler {
      type: "constant"
      value: 0.2
    }
  }
}
layer {
  name: "inception_4b/relu_5x5"
  type: "ReLU"
  bottom: "inception_4b/5x5"
  top: "inception_4b/5x5"
}
layer {
  name: "inception_4b/pool"
  type: "Pooling"
  bottom: "inception_4a/output"
  top: "inception_4b/pool"
  pooling_param {
    pool: MAX
    kernel_size: 3
    stride: 1
    pad: 1
  }
}
layer {
  name: "inception_4b/pool_proj"
  type: "Convolution"
  bottom: "inception_4b/pool"
  top: "inception_4b/pool_proj"
  param {
    lr_mult: 1
    decay_mult: 1
  }
  param {
    lr_mult: 2
    decay_mult: 0
  }
  convolution_param {
    num_output: 64
    kernel_size: 1
    weight_filler {
      type: "xavier"
      std: 0.1
    }
    bias_filler {
      type: "constant"
      value: 0.2
    }
  }
}
layer {
  name: "inception_4b/relu_pool_proj"
  type: "ReLU"
  bottom: "inception_4b/pool_proj"
  top: "inception_4b/pool_proj"
}
layer {
  name: "inception_4b/output"
  type: "Concat"
  bottom: "inception_4b/1x1"
  bottom: "inception_4b/3x3"
  bottom: "inception_4b/5x5"
  bottom: "inception_4b/pool_proj"
  top: "inception_4b/output"
}
layer {
  name: "inception_4c/1x1"
  type: "Convolution"
  bottom: "inception_4b/output"
  top: "inception_4c/1x1"
  param {
    lr_mult: 1
    decay_mult: 1
  }
  param {
    lr_mult: 2
    decay_mult: 0
  }
  convolution_param {
    num_output: 128
    kernel_size: 1
    weight_filler {
      type: "xavier"
      std: 0.03
    }
    bias_filler {
      type: "constant"
      value: 0.2
    }
  }
}
layer {
  name: "inception_4c/relu_1x1"
  type: "ReLU"
  bottom: "inception_4c/1x1"
  top: "inception_4c/1x1"
}
layer {
  name: "inception_4c/3x3_reduce"
  type: "Convolution"
  bottom: "inception_4b/output"
  top: "inception_4c/3x3_reduce"
  param {
    lr_mult: 1
    decay_mult: 1
  }
  param {
    lr_mult: 2
    decay_mult: 0
  }
  convolution_param {
    num_output: 128
    kernel_size: 1
    weight_filler {
      type: "xavier"
      std: 0.09
    }
    bias_filler {
      type: "constant"
      value: 0.2
    }
  }
}
layer {
  name: "inception_4c/relu_3x3_reduce"
  type: "ReLU"
  bottom: "inception_4c/3x3_reduce"
  top: "inception_4c/3x3_reduce"
}
layer {
  name: "inception_4c/3x3"
  type: "Convolution"
  bottom: "inception_4c/3x3_reduce"
  top: "inception_4c/3x3"
  param {
    lr_mult: 1
    decay_mult: 1
  }
  param {
    lr_mult: 2
    decay_mult: 0
  }
  convolution_param {
    num_output: 256
    pad: 1
    kernel_size: 3
    weight_filler {
      type: "xavier"
      std: 0.03
    }
    bias_filler {
      type: "constant"
      value: 0.2
    }
  }
}
layer {
  name: "inception_4c/relu_3x3"
  type: "ReLU"
  bottom: "inception_4c/3x3"
  top: "inception_4c/3x3"
}
layer {
  name: "inception_4c/5x5_reduce"
  type: "Convolution"
  bottom: "inception_4b/output"
  top: "inception_4c/5x5_reduce"
  param {
    lr_mult: 1
    decay_mult: 1
  }
  param {
    lr_mult: 2
    decay_mult: 0
  }
  convolution_param {
    num_output: 24
    kernel_size: 1
    weight_filler {
      type: "xavier"
      std: 0.2
    }
    bias_filler {
      type: "constant"
      value: 0.2
    }
  }
}
layer {
  name: "inception_4c/relu_5x5_reduce"
  type: "ReLU"
  bottom: "inception_4c/5x5_reduce"
  top: "inception_4c/5x5_reduce"
}
layer {
  name: "inception_4c/5x5"
  type: "Convolution"
  bottom: "inception_4c/5x5_reduce"
  top: "inception_4c/5x5"
  param {
    lr_mult: 1
    decay_mult: 1
  }
  param {
    lr_mult: 2
    decay_mult: 0
  }
  convolution_param {
    num_output: 64
    pad: 2
    kernel_size: 5
    weight_filler {
      type: "xavier"
      std: 0.03
    }
    bias_filler {
      type: "constant"
      value: 0.2
    }
  }
}
layer {
  name: "inception_4c/relu_5x5"
  type: "ReLU"
  bottom: "inception_4c/5x5"
  top: "inception_4c/5x5"
}
layer {
  name: "inception_4c/pool"
  type: "Pooling"
  bottom: "inception_4b/output"
  top: "inception_4c/pool"
  pooling_param {
    pool: MAX
    kernel_size: 3
    stride: 1
    pad: 1
  }
}
layer {
  name: "inception_4c/pool_proj"
  type: "Convolution"
  bottom: "inception_4c/pool"
  top: "inception_4c/pool_proj"
  param {
    lr_mult: 1
    decay_mult: 1
  }
  param {
    lr_mult: 2
    decay_mult: 0
  }
  convolution_param {
    num_output: 64
    kernel_size: 1
    weight_filler {
      type: "xavier"
      std: 0.1
    }
    bias_filler {
      type: "constant"
      value: 0.2
    }
  }
}
layer {
  name: "inception_4c/relu_pool_proj"
  type: "ReLU"
  bottom: "inception_4c/pool_proj"
  top: "inception_4c/pool_proj"
}
layer {
  name: "inception_4c/output"
  type: "Concat"
  bottom: "inception_4c/1x1"
  bottom: "inception_4c/3x3"
  bottom: "inception_4c/5x5"
  bottom: "inception_4c/pool_proj"
  top: "inception_4c/output"
}
layer {
  name: "inception_4d/1x1"
  type: "Convolution"
  bottom: "inception_4c/output"
  top: "inception_4d/1x1"
  param {
    lr_mult: 1
    decay_mult: 1
  }
  param {
    lr_mult: 2
    decay_mult: 0
  }
  convolution_param {
    num_output: 112
    kernel_size: 1
    weight_filler {
      type: "xavier"
      std: 0.03
    }
    bias_filler {
      type: "constant"
      value: 0.2
    }
  }
}
layer {
  name: "inception_4d/relu_1x1"
  type: "ReLU"
  bottom: "inception_4d/1x1"
  top: "inception_4d/1x1"
}
layer {
  name: "inception_4d/3x3_reduce"
  type: "Convolution"
  bottom: "inception_4c/output"
  top: "inception_4d/3x3_reduce"
  param {
    lr_mult: 1
    decay_mult: 1
  }
  param {
    lr_mult: 2
    decay_mult: 0
  }
  convolution_param {
    num_output: 144
    kernel_size: 1
    weight_filler {
      type: "xavier"
      std: 0.09
    }
    bias_filler {
      type: "constant"
      value: 0.2
    }
  }
}
layer {
  name: "inception_4d/relu_3x3_reduce"
  type: "ReLU"
  bottom: "inception_4d/3x3_reduce"
  top: "inception_4d/3x3_reduce"
}
layer {
  name: "inception_4d/3x3"
  type: "Convolution"
  bottom: "inception_4d/3x3_reduce"
  top: "inception_4d/3x3"
  param {
    lr_mult: 1
    decay_mult: 1
  }
  param {
    lr_mult: 2
    decay_mult: 0
  }
  convolution_param {
    num_output: 288
    pad: 1
    kernel_size: 3
    weight_filler {
      type: "xavier"
      std: 0.03
    }
    bias_filler {
      type: "constant"
      value: 0.2
    }
  }
}
layer {
  name: "inception_4d/relu_3x3"
  type: "ReLU"
  bottom: "inception_4d/3x3"
  top: "inception_4d/3x3"
}
layer {
  name: "inception_4d/5x5_reduce"
  type: "Convolution"
  bottom: "inception_4c/output"
  top: "inception_4d/5x5_reduce"
  param {
    lr_mult: 1
    decay_mult: 1
  }
  param {
    lr_mult: 2
    decay_mult: 0
  }
  convolution_param {
    num_output: 32
    kernel_size: 1
    weight_filler {
      type: "xavier"
      std: 0.2
    }
    bias_filler {
      type: "constant"
      value: 0.2
    }
  }
}
layer {
  name: "inception_4d/relu_5x5_reduce"
  type: "ReLU"
  bottom: "inception_4d/5x5_reduce"
  top: "inception_4d/5x5_reduce"
}
layer {
  name: "inception_4d/5x5"
  type: "Convolution"
  bottom: "inception_4d/5x5_reduce"
  top: "inception_4d/5x5"
  param {
    lr_mult: 1
    decay_mult: 1
  }
  param {
    lr_mult: 2
    decay_mult: 0
  }
  convolution_param {
    num_output: 64
    pad: 2
    kernel_size: 5
    weight_filler {
      type: "xavier"
      std: 0.03
    }
    bias_filler {
      type: "constant"
      value: 0.2
    }
  }
}
layer {
  name: "inception_4d/relu_5x5"
  type: "ReLU"
  bottom: "inception_4d/5x5"
  top: "inception_4d/5x5"
}
layer {
  name: "inception_4d/pool"
  type: "Pooling"
  bottom: "inception_4c/output"
  top: "inception_4d/pool"
  pooling_param {
    pool: MAX
    kernel_size: 3
    stride: 1
    pad: 1
  }
}
layer {
  name: "inception_4d/pool_proj"
  type: "Convolution"
  bottom: "inception_4d/pool"
  top: "inception_4d/pool_proj"
  param {
    lr_mult: 1
    decay_mult: 1
  }
  param {
    lr_mult: 2
    decay_mult: 0
  }
  convolution_param {
    num_output: 64
    kernel_size: 1
    weight_filler {
      type: "xavier"
      std: 0.1
    }
    bias_filler {
      type: "constant"
      value: 0.2
    }
  }
}
layer {
  name: "inception_4d/relu_pool_proj"
  type: "ReLU"
  bottom: "inception_4d/pool_proj"
  top: "inception_4d/pool_proj"
}
layer {
  name: "inception_4d/output"
  type: "Concat"
  bottom: "inception_4d/1x1"
  bottom: "inception_4d/3x3"
  bottom: "inception_4d/5x5"
  bottom: "inception_4d/pool_proj"
  top: "inception_4d/output"
}
layer {
  name: "loss2/ave_pool"
  type: "Pooling"
  bottom: "inception_4d/output"
  top: "loss2/ave_pool"
  pooling_param {
    pool: AVE
    kernel_size: 5
    stride: 3
  }
}
layer {
  name: "loss2/conv"
  type: "Convolution"
  bottom: "loss2/ave_pool"
  top: "loss2/conv"
  param {
    lr_mult: 1
    decay_mult: 1
  }
  param {
    lr_mult: 2
    decay_mult: 0
  }
  convolution_param {
    num_output: 128
    kernel_size: 1
    weight_filler {
      type: "xavier"
      std: 0.08
    }
    bias_filler {
      type: "constant"
      value: 0.2
    }
  }
}
layer {
  name: "loss2/relu_conv"
  type: "ReLU"
  bottom: "loss2/conv"
  top: "loss2/conv"
}
layer {
  name: "loss2/fc"
  type: "InnerProduct"
  bottom: "loss2/conv"
  top: "loss2/fc"
  param {
    lr_mult: 1
    decay_mult: 1
  }
  param {
    lr_mult: 2
    decay_mult: 0
  }
  inner_product_param {
    num_output: 1024
    weight_filler {
      type: "xavier"
      std: 0.02
    }
    bias_filler {
      type: "constant"
      value: 0.2
    }
  }
}
layer {
  name: "loss2/relu_fc"
  type: "ReLU"
  bottom: "loss2/fc"
  top: "loss2/fc"
}
layer {
  name: "loss2/drop_fc"
  type: "Dropout"
  bottom: "loss2/fc"
  top: "loss2/fc"
  dropout_param {
    dropout_ratio: 0.7
  }
}
layer {
  name: "loss2/classifier_plantvillage"
  type: "InnerProduct"
  bottom: "loss2/fc"
  top: "loss2/classifier_plantvillage"
  param {
    lr_mult: 1
    decay_mult: 1
  }
  param {
    lr_mult: 2
    decay_mult: 0
  }
  inner_product_param {
    num_output: 38
    weight_filler {
      type: "xavier"
      std: 0.0009765625
    }
    bias_filler {
      type: "constant"
      value: 0
    }
  }
}
layer {
  name: "inception_4e/1x1"
  type: "Convolution"
  bottom: "inception_4d/output"
  top: "inception_4e/1x1"
  param {
    lr_mult: 1
    decay_mult: 1
  }
  param {
    lr_mult: 2
    decay_mult: 0
  }
  convolution_param {
    num_output: 256
    kernel_size: 1
    weight_filler {
      type: "xavier"
      std: 0.03
    }
    bias_filler {
      type: "constant"
      value: 0.2
    }
  }
}
layer {
  name: "inception_4e/relu_1x1"
  type: "ReLU"
  bottom: "inception_4e/1x1"
  top: "inception_4e/1x1"
}
layer {
  name: "inception_4e/3x3_reduce"
  type: "Convolution"
  bottom: "inception_4d/output"
  top: "inception_4e/3x3_reduce"
  param {
    lr_mult: 1
    decay_mult: 1
  }
  param {
    lr_mult: 2
    decay_mult: 0
  }
  convolution_param {
    num_output: 160
    kernel_size: 1
    weight_filler {
      type: "xavier"
      std: 0.09
    }
    bias_filler {
      type: "constant"
      value: 0.2
    }
  }
}
layer {
  name: "inception_4e/relu_3x3_reduce"
  type: "ReLU"
  bottom: "inception_4e/3x3_reduce"
  top: "inception_4e/3x3_reduce"
}
layer {
  name: "inception_4e/3x3"
  type: "Convolution"
  bottom: "inception_4e/3x3_reduce"
  top: "inception_4e/3x3"
  param {
    lr_mult: 1
    decay_mult: 1
  }
  param {
    lr_mult: 2
    decay_mult: 0
  }
  convolution_param {
    num_output: 320
    pad: 1
    kernel_size: 3
    weight_filler {
      type: "xavier"
      std: 0.03
    }
    bias_filler {
      type: "constant"
      value: 0.2
    }
  }
}
layer {
  name: "inception_4e/relu_3x3"
  type: "ReLU"
  bottom: "inception_4e/3x3"
  top: "inception_4e/3x3"
}
layer {
  name: "inception_4e/5x5_reduce"
  type: "Convolution"
  bottom: "inception_4d/output"
  top: "inception_4e/5x5_reduce"
  param {
    lr_mult: 1
    decay_mult: 1
  }
  param {
    lr_mult: 2
    decay_mult: 0
  }
  convolution_param {
    num_output: 32
    kernel_size: 1
    weight_filler {
      type: "xavier"
      std: 0.2
    }
    bias_filler {
      type: "constant"
      value: 0.2
    }
  }
}
layer {
  name: "inception_4e/relu_5x5_reduce"
  type: "ReLU"
  bottom: "inception_4e/5x5_reduce"
  top: "inception_4e/5x5_reduce"
}
layer {
  name: "inception_4e/5x5"
  type: "Convolution"
  bottom: "inception_4e/5x5_reduce"
  top: "inception_4e/
I0403 15:14:05.726089 31328 layer_factory.hpp:77] Creating layer data
I0403 15:14:05.726727 31328 net.cpp:91] Creating Layer data
I0403 15:14:05.726760 31328 net.cpp:399] data -> data
I0403 15:14:05.726819 31328 net.cpp:399] data -> label
I0403 15:14:05.726858 31328 data_transformer.cpp:25] Loading mean file from: /home/mohanty/data/final_dataset/lmdb/grayscale-80-20/mean.binaryproto
I0403 15:14:05.733636 31330 db_lmdb.cpp:38] Opened lmdb /home/mohanty/data/final_dataset/lmdb/grayscale-80-20/test_db
I0403 15:14:05.746608 31328 data_layer.cpp:41] output data size: 24,3,224,224
I0403 15:14:05.774144 31328 net.cpp:141] Setting up data
I0403 15:14:05.774230 31328 net.cpp:148] Top shape: 24 3 224 224 (3612672)
I0403 15:14:05.774253 31328 net.cpp:148] Top shape: 24 (24)
I0403 15:14:05.774292 31328 net.cpp:156] Memory required for data: 14450784
I0403 15:14:05.774336 31328 layer_factory.hpp:77] Creating layer label_data_1_split
I0403 15:14:05.774369 31328 net.cpp:91] Creating Layer label_data_1_split
I0403 15:14:05.774395 31328 net.cpp:425] label_data_1_split <- label
I0403 15:14:05.774438 31328 net.cpp:399] label_data_1_split -> label_data_1_split_0
I0403 15:14:05.774488 31328 net.cpp:399] label_data_1_split -> label_data_1_split_1
I0403 15:14:05.774530 31328 net.cpp:399] label_data_1_split -> label_data_1_split_2
I0403 15:14:05.774595 31328 net.cpp:399] label_data_1_split -> label_data_1_split_3
I0403 15:14:05.774626 31328 net.cpp:399] label_data_1_split -> label_data_1_split_4
I0403 15:14:05.774652 31328 net.cpp:399] label_data_1_split -> label_data_1_split_5
I0403 15:14:05.774724 31328 net.cpp:399] label_data_1_split -> label_data_1_split_6
I0403 15:14:05.774791 31328 net.cpp:399] label_data_1_split -> label_data_1_split_7
I0403 15:14:05.774821 31328 net.cpp:399] label_data_1_split -> label_data_1_split_8
I0403 15:14:05.774847 31328 net.cpp:399] label_data_1_split -> label_data_1_split_9
I0403 15:14:05.774967 31328 net.cpp:141] Setting up label_data_1_split
I0403 15:14:05.774992 31328 net.cpp:148] Top shape: 24 (24)
I0403 15:14:05.775009 31328 net.cpp:148] Top shape: 24 (24)
I0403 15:14:05.775025 31328 net.cpp:148] Top shape: 24 (24)
I0403 15:14:05.775041 31328 net.cpp:148] Top shape: 24 (24)
I0403 15:14:05.775058 31328 net.cpp:148] Top shape: 24 (24)
I0403 15:14:05.775073 31328 net.cpp:148] Top shape: 24 (24)
I0403 15:14:05.775110 31328 net.cpp:148] Top shape: 24 (24)
I0403 15:14:05.775125 31328 net.cpp:148] Top shape: 24 (24)
I0403 15:14:05.775140 31328 net.cpp:148] Top shape: 24 (24)
I0403 15:14:05.775156 31328 net.cpp:148] Top shape: 24 (24)
I0403 15:14:05.775209 31328 net.cpp:156] Memory required for data: 14451744
I0403 15:14:05.775239 31328 layer_factory.hpp:77] Creating layer conv1/7x7_s2
I0403 15:14:05.775301 31328 net.cpp:91] Creating Layer conv1/7x7_s2
I0403 15:14:05.775364 31328 net.cpp:425] conv1/7x7_s2 <- data
I0403 15:14:05.775406 31328 net.cpp:399] conv1/7x7_s2 -> conv1/7x7_s2
I0403 15:14:05.911886 31328 net.cpp:141] Setting up conv1/7x7_s2
I0403 15:14:05.911977 31328 net.cpp:148] Top shape: 24 64 112 112 (19267584)
I0403 15:14:05.911993 31328 net.cpp:156] Memory required for data: 91522080
I0403 15:14:05.912027 31328 layer_factory.hpp:77] Creating layer conv1/relu_7x7
I0403 15:14:05.912056 31328 net.cpp:91] Creating Layer conv1/relu_7x7
I0403 15:14:05.912075 31328 net.cpp:425] conv1/relu_7x7 <- conv1/7x7_s2
I0403 15:14:05.912094 31328 net.cpp:386] conv1/relu_7x7 -> conv1/7x7_s2 (in-place)
I0403 15:14:05.912353 31328 net.cpp:141] Setting up conv1/relu_7x7
I0403 15:14:05.912379 31328 net.cpp:148] Top shape: 24 64 112 112 (19267584)
I0403 15:14:05.912395 31328 net.cpp:156] Memory required for data: 168592416
I0403 15:14:05.912410 31328 layer_factory.hpp:77] Creating layer pool1/3x3_s2
I0403 15:14:05.912436 31328 net.cpp:91] Creating Layer pool1/3x3_s2
I0403 15:14:05.912452 31328 net.cpp:425] pool1/3x3_s2 <- conv1/7x7_s2
I0403 15:14:05.912470 31328 net.cpp:399] pool1/3x3_s2 -> pool1/3x3_s2
I0403 15:14:05.912549 31328 net.cpp:141] Setting up pool1/3x3_s2
I0403 15:14:05.912575 31328 net.cpp:148] Top shape: 24 64 56 56 (4816896)
I0403 15:14:05.912588 31328 net.cpp:156] Memory required for data: 187860000
I0403 15:14:05.912602 31328 layer_factory.hpp:77] Creating layer pool1/norm1
I0403 15:14:05.912627 31328 net.cpp:91] Creating Layer pool1/norm1
I0403 15:14:05.912644 31328 net.cpp:425] pool1/norm1 <- pool1/3x3_s2
I0403 15:14:05.912662 31328 net.cpp:399] pool1/norm1 -> pool1/norm1
I0403 15:14:05.912955 31328 net.cpp:141] Setting up pool1/norm1
I0403 15:14:05.912981 31328 net.cpp:148] Top shape: 24 64 56 56 (4816896)
I0403 15:14:05.912997 31328 net.cpp:156] Memory required for data: 207127584
I0403 15:14:05.913012 31328 layer_factory.hpp:77] Creating layer conv2/3x3_reduce
I0403 15:14:05.913038 31328 net.cpp:91] Creating Layer conv2/3x3_reduce
I0403 15:14:05.913053 31328 net.cpp:425] conv2/3x3_reduce <- pool1/norm1
I0403 15:14:05.913070 31328 net.cpp:399] conv2/3x3_reduce -> conv2/3x3_reduce
I0403 15:14:05.914403 31328 net.cpp:141] Setting up conv2/3x3_reduce
I0403 15:14:05.914434 31328 net.cpp:148] Top shape: 24 64 56 56 (4816896)
I0403 15:14:05.914451 31328 net.cpp:156] Memory required for data: 226395168
I0403 15:14:05.914472 31328 layer_factory.hpp:77] Creating layer conv2/relu_3x3_reduce
I0403 15:14:05.914490 31328 net.cpp:91] Creating Layer conv2/relu_3x3_reduce
I0403 15:14:05.914516 31328 net.cpp:425] conv2/relu_3x3_reduce <- conv2/3x3_reduce
I0403 15:14:05.914536 31328 net.cpp:386] conv2/relu_3x3_reduce -> conv2/3x3_reduce (in-place)
I0403 15:14:05.914786 31328 net.cpp:141] Setting up conv2/relu_3x3_reduce
I0403 15:14:05.914813 31328 net.cpp:148] Top shape: 24 64 56 56 (4816896)
I0403 15:14:05.914826 31328 net.cpp:156] Memory required for data: 245662752
I0403 15:14:05.914841 31328 layer_factory.hpp:77] Creating layer conv2/3x3
I0403 15:14:05.914863 31328 net.cpp:91] Creating Layer conv2/3x3
I0403 15:14:05.914880 31328 net.cpp:425] conv2/3x3 <- conv2/3x3_reduce
I0403 15:14:05.914897 31328 net.cpp:399] conv2/3x3 -> conv2/3x3
I0403 15:14:05.917160 31328 net.cpp:141] Setting up conv2/3x3
I0403 15:14:05.917193 31328 net.cpp:148] Top shape: 24 192 56 56 (14450688)
I0403 15:14:05.917212 31328 net.cpp:156] Memory required for data: 303465504
I0403 15:14:05.917233 31328 layer_factory.hpp:77] Creating layer conv2/relu_3x3
I0403 15:14:05.917253 31328 net.cpp:91] Creating Layer conv2/relu_3x3
I0403 15:14:05.917268 31328 net.cpp:425] conv2/relu_3x3 <- conv2/3x3
I0403 15:14:05.917286 31328 net.cpp:386] conv2/relu_3x3 -> conv2/3x3 (in-place)
I0403 15:14:05.917461 31328 net.cpp:141] Setting up conv2/relu_3x3
I0403 15:14:05.917487 31328 net.cpp:148] Top shape: 24 192 56 56 (14450688)
I0403 15:14:05.917537 31328 net.cpp:156] Memory required for data: 361268256
I0403 15:14:05.917553 31328 layer_factory.hpp:77] Creating layer conv2/norm2
I0403 15:14:05.917575 31328 net.cpp:91] Creating Layer conv2/norm2
I0403 15:14:05.917593 31328 net.cpp:425] conv2/norm2 <- conv2/3x3
I0403 15:14:05.917609 31328 net.cpp:399] conv2/norm2 -> conv2/norm2
I0403 15:14:05.917940 31328 net.cpp:141] Setting up conv2/norm2
I0403 15:14:05.917969 31328 net.cpp:148] Top shape: 24 192 56 56 (14450688)
I0403 15:14:05.917984 31328 net.cpp:156] Memory required for data: 419071008
I0403 15:14:05.917999 31328 layer_factory.hpp:77] Creating layer pool2/3x3_s2
I0403 15:14:05.918020 31328 net.cpp:91] Creating Layer pool2/3x3_s2
I0403 15:14:05.918035 31328 net.cpp:425] pool2/3x3_s2 <- conv2/norm2
I0403 15:14:05.918053 31328 net.cpp:399] pool2/3x3_s2 -> pool2/3x3_s2
I0403 15:14:05.918105 31328 net.cpp:141] Setting up pool2/3x3_s2
I0403 15:14:05.918128 31328 net.cpp:148] Top shape: 24 192 28 28 (3612672)
I0403 15:14:05.918143 31328 net.cpp:156] Memory required for data: 433521696
I0403 15:14:05.918156 31328 layer_factory.hpp:77] Creating layer pool2/3x3_s2_pool2/3x3_s2_0_split
I0403 15:14:05.918176 31328 net.cpp:91] Creating Layer pool2/3x3_s2_pool2/3x3_s2_0_split
I0403 15:14:05.918192 31328 net.cpp:425] pool2/3x3_s2_pool2/3x3_s2_0_split <- pool2/3x3_s2
I0403 15:14:05.918210 31328 net.cpp:399] pool2/3x3_s2_pool2/3x3_s2_0_split -> pool2/3x3_s2_pool2/3x3_s2_0_split_0
I0403 15:14:05.918227 31328 net.cpp:399] pool2/3x3_s2_pool2/3x3_s2_0_split -> pool2/3x3_s2_pool2/3x3_s2_0_split_1
I0403 15:14:05.918247 31328 net.cpp:399] pool2/3x3_s2_pool2/3x3_s2_0_split -> pool2/3x3_s2_pool2/3x3_s2_0_split_2
I0403 15:14:05.918267 31328 net.cpp:399] pool2/3x3_s2_pool2/3x3_s2_0_split -> pool2/3x3_s2_pool2/3x3_s2_0_split_3
I0403 15:14:05.918340 31328 net.cpp:141] Setting up pool2/3x3_s2_pool2/3x3_s2_0_split
I0403 15:14:05.918362 31328 net.cpp:148] Top shape: 24 192 28 28 (3612672)
I0403 15:14:05.918380 31328 net.cpp:148] Top shape: 24 192 28 28 (3612672)
I0403 15:14:05.918396 31328 net.cpp:148] Top shape: 24 192 28 28 (3612672)
I0403 15:14:05.918411 31328 net.cpp:148] Top shape: 24 192 28 28 (3612672)
I0403 15:14:05.918424 31328 net.cpp:156] Memory required for data: 491324448
I0403 15:14:05.918438 31328 layer_factory.hpp:77] Creating layer inception_3a/1x1
I0403 15:14:05.918462 31328 net.cpp:91] Creating Layer inception_3a/1x1
I0403 15:14:05.918480 31328 net.cpp:425] inception_3a/1x1 <- pool2/3x3_s2_pool2/3x3_s2_0_split_0
I0403 15:14:05.918501 31328 net.cpp:399] inception_3a/1x1 -> inception_3a/1x1
I0403 15:14:05.920025 31328 net.cpp:141] Setting up inception_3a/1x1
I0403 15:14:05.920058 31328 net.cpp:148] Top shape: 24 64 28 28 (1204224)
I0403 15:14:05.920073 31328 net.cpp:156] Memory required for data: 496141344
I0403 15:14:05.920092 31328 layer_factory.hpp:77] Creating layer inception_3a/relu_1x1
I0403 15:14:05.920110 31328 net.cpp:91] Creating Layer inception_3a/relu_1x1
I0403 15:14:05.920126 31328 net.cpp:425] inception_3a/relu_1x1 <- inception_3a/1x1
I0403 15:14:05.920143 31328 net.cpp:386] inception_3a/relu_1x1 -> inception_3a/1x1 (in-place)
I0403 15:14:05.920320 31328 net.cpp:141] Setting up inception_3a/relu_1x1
I0403 15:14:05.920346 31328 net.cpp:148] Top shape: 24 64 28 28 (1204224)
I0403 15:14:05.920359 31328 net.cpp:156] Memory required for data: 500958240
I0403 15:14:05.920374 31328 layer_factory.hpp:77] Creating layer inception_3a/3x3_reduce
I0403 15:14:05.920397 31328 net.cpp:91] Creating Layer inception_3a/3x3_reduce
I0403 15:14:05.920413 31328 net.cpp:425] inception_3a/3x3_reduce <- pool2/3x3_s2_pool2/3x3_s2_0_split_1
I0403 15:14:05.920433 31328 net.cpp:399] inception_3a/3x3_reduce -> inception_3a/3x3_reduce
I0403 15:14:05.922116 31328 net.cpp:141] Setting up inception_3a/3x3_reduce
I0403 15:14:05.922147 31328 net.cpp:148] Top shape: 24 96 28 28 (1806336)
I0403 15:14:05.922164 31328 net.cpp:156] Memory required for data: 508183584
I0403 15:14:05.922185 31328 layer_factory.hpp:77] Creating layer inception_3a/relu_3x3_reduce
I0403 15:14:05.922221 31328 net.cpp:91] Creating Layer inception_3a/relu_3x3_reduce
I0403 15:14:05.922250 31328 net.cpp:425] inception_3a/relu_3x3_reduce <- inception_3a/3x3_reduce
I0403 15:14:05.922268 31328 net.cpp:386] inception_3a/relu_3x3_reduce -> inception_3a/3x3_reduce (in-place)
I0403 15:14:05.922447 31328 net.cpp:141] Setting up inception_3a/relu_3x3_reduce
I0403 15:14:05.922472 31328 net.cpp:148] Top shape: 24 96 28 28 (1806336)
I0403 15:14:05.922485 31328 net.cpp:156] Memory required for data: 515408928
I0403 15:14:05.922499 31328 layer_factory.hpp:77] Creating layer inception_3a/3x3
I0403 15:14:05.922528 31328 net.cpp:91] Creating Layer inception_3a/3x3
I0403 15:14:05.922555 31328 net.cpp:425] inception_3a/3x3 <- inception_3a/3x3_reduce
I0403 15:14:05.922574 31328 net.cpp:399] inception_3a/3x3 -> inception_3a/3x3
I0403 15:14:05.924207 31328 net.cpp:141] Setting up inception_3a/3x3
I0403 15:14:05.924235 31328 net.cpp:148] Top shape: 24 128 28 28 (2408448)
I0403 15:14:05.924250 31328 net.cpp:156] Memory required for data: 525042720
I0403 15:14:05.924269 31328 layer_factory.hpp:77] Creating layer inception_3a/relu_3x3
I0403 15:14:05.924286 31328 net.cpp:91] Creating Layer inception_3a/relu_3x3
I0403 15:14:05.924301 31328 net.cpp:425] inception_3a/relu_3x3 <- inception_3a/3x3
I0403 15:14:05.924320 31328 net.cpp:386] inception_3a/relu_3x3 -> inception_3a/3x3 (in-place)
I0403 15:14:05.924608 31328 net.cpp:141] Setting up inception_3a/relu_3x3
I0403 15:14:05.924634 31328 net.cpp:148] Top shape: 24 128 28 28 (2408448)
I0403 15:14:05.924649 31328 net.cpp:156] Memory required for data: 534676512
I0403 15:14:05.924664 31328 layer_factory.hpp:77] Creating layer inception_3a/5x5_reduce
I0403 15:14:05.924686 31328 net.cpp:91] Creating Layer inception_3a/5x5_reduce
I0403 15:14:05.924703 31328 net.cpp:425] inception_3a/5x5_reduce <- pool2/3x3_s2_pool2/3x3_s2_0_split_2
I0403 15:14:05.924726 31328 net.cpp:399] inception_3a/5x5_reduce -> inception_3a/5x5_reduce
I0403 15:14:05.925689 31328 net.cpp:141] Setting up inception_3a/5x5_reduce
I0403 15:14:05.925717 31328 net.cpp:148] Top shape: 24 16 28 28 (301056)
I0403 15:14:05.925732 31328 net.cpp:156] Memory required for data: 535880736
I0403 15:14:05.925750 31328 layer_factory.hpp:77] Creating layer inception_3a/relu_5x5_reduce
I0403 15:14:05.925768 31328 net.cpp:91] Creating Layer inception_3a/relu_5x5_reduce
I0403 15:14:05.925783 31328 net.cpp:425] inception_3a/relu_5x5_reduce <- inception_3a/5x5_reduce
I0403 15:14:05.925802 31328 net.cpp:386] inception_3a/relu_5x5_reduce -> inception_3a/5x5_reduce (in-place)
I0403 15:14:05.926108 31328 net.cpp:141] Setting up inception_3a/relu_5x5_reduce
I0403 15:14:05.926134 31328 net.cpp:148] Top shape: 24 16 28 28 (301056)
I0403 15:14:05.926149 31328 net.cpp:156] Memory required for data: 537084960
I0403 15:14:05.926164 31328 layer_factory.hpp:77] Creating layer inception_3a/5x5
I0403 15:14:05.926187 31328 net.cpp:91] Creating Layer inception_3a/5x5
I0403 15:14:05.926203 31328 net.cpp:425] inception_3a/5x5 <- inception_3a/5x5_reduce
I0403 15:14:05.926224 31328 net.cpp:399] inception_3a/5x5 -> inception_3a/5x5
I0403 15:14:05.927232 31328 net.cpp:141] Setting up inception_3a/5x5
I0403 15:14:05.927263 31328 net.cpp:148] Top shape: 24 32 28 28 (602112)
I0403 15:14:05.927279 31328 net.cpp:156] Memory required for data: 539493408
I0403 15:14:05.927297 31328 layer_factory.hpp:77] Creating layer inception_3a/relu_5x5
I0403 15:14:05.927314 31328 net.cpp:91] Creating Layer inception_3a/relu_5x5
I0403 15:14:05.927330 31328 net.cpp:425] inception_3a/relu_5x5 <- inception_3a/5x5
I0403 15:14:05.927347 31328 net.cpp:386] inception_3a/relu_5x5 -> inception_3a/5x5 (in-place)
I0403 15:14:05.927525 31328 net.cpp:141] Setting up inception_3a/relu_5x5
I0403 15:14:05.927549 31328 net.cpp:148] Top shape: 24 32 28 28 (602112)
I0403 15:14:05.927563 31328 net.cpp:156] Memory required for data: 541901856
I0403 15:14:05.927577 31328 layer_factory.hpp:77] Creating layer inception_3a/pool
I0403 15:14:05.927595 31328 net.cpp:91] Creating Layer inception_3a/pool
I0403 15:14:05.927626 31328 net.cpp:425] inception_3a/pool <- pool2/3x3_s2_pool2/3x3_s2_0_split_3
I0403 15:14:05.927645 31328 net.cpp:399] inception_3a/pool -> inception_3a/pool
I0403 15:14:05.927706 31328 net.cpp:141] Setting up inception_3a/pool
I0403 15:14:05.927728 31328 net.cpp:148] Top shape: 24 192 28 28 (3612672)
I0403 15:14:05.927743 31328 net.cpp:156] Memory required for data: 556352544
I0403 15:14:05.927757 31328 layer_factory.hpp:77] Creating layer inception_3a/pool_proj
I0403 15:14:05.927779 31328 net.cpp:91] Creating Layer inception_3a/pool_proj
I0403 15:14:05.927796 31328 net.cpp:425] inception_3a/pool_proj <- inception_3a/pool
I0403 15:14:05.927817 31328 net.cpp:399] inception_3a/pool_proj -> inception_3a/pool_proj
I0403 15:14:05.928777 31328 net.cpp:141] Setting up inception_3a/pool_proj
I0403 15:14:05.928804 31328 net.cpp:148] Top shape: 24 32 28 28 (602112)
I0403 15:14:05.928819 31328 net.cpp:156] Memory required for data: 558760992
I0403 15:14:05.928843 31328 layer_factory.hpp:77] Creating layer inception_3a/relu_pool_proj
I0403 15:14:05.928863 31328 net.cpp:91] Creating Layer inception_3a/relu_pool_proj
I0403 15:14:05.928879 31328 net.cpp:425] inception_3a/relu_pool_proj <- inception_3a/pool_proj
I0403 15:14:05.928897 31328 net.cpp:386] inception_3a/relu_pool_proj -> inception_3a/pool_proj (in-place)
I0403 15:14:05.929170 31328 net.cpp:141] Setting up inception_3a/relu_pool_proj
I0403 15:14:05.929196 31328 net.cpp:148] Top shape: 24 32 28 28 (602112)
I0403 15:14:05.929210 31328 net.cpp:156] Memory required for data: 561169440
I0403 15:14:05.929225 31328 layer_factory.hpp:77] Creating layer inception_3a/output
I0403 15:14:05.929242 31328 net.cpp:91] Creating Layer inception_3a/output
I0403 15:14:05.929257 31328 net.cpp:425] inception_3a/output <- inception_3a/1x1
I0403 15:14:05.929273 31328 net.cpp:425] inception_3a/output <- inception_3a/3x3
I0403 15:14:05.929288 31328 net.cpp:425] inception_3a/output <- inception_3a/5x5
I0403 15:14:05.929304 31328 net.cpp:425] inception_3a/output <- inception_3a/pool_proj
I0403 15:14:05.929323 31328 net.cpp:399] inception_3a/output -> inception_3a/output
I0403 15:14:05.929369 31328 net.cpp:141] Setting up inception_3a/output
I0403 15:14:05.929395 31328 net.cpp:148] Top shape: 24 256 28 28 (4816896)
I0403 15:14:05.929410 31328 net.cpp:156] Memory required for data: 580437024
I0403 15:14:05.929425 31328 layer_factory.hpp:77] Creating layer inception_3a/output_inception_3a/output_0_split
I0403 15:14:05.929440 31328 net.cpp:91] Creating Layer inception_3a/output_inception_3a/output_0_split
I0403 15:14:05.929455 31328 net.cpp:425] inception_3a/output_inception_3a/output_0_split <- inception_3a/output
I0403 15:14:05.929472 31328 net.cpp:399] inception_3a/output_inception_3a/output_0_split -> inception_3a/output_inception_3a/output_0_split_0
I0403 15:14:05.929491 31328 net.cpp:399] inception_3a/output_inception_3a/output_0_split -> inception_3a/output_inception_3a/output_0_split_1
I0403 15:14:05.929519 31328 net.cpp:399] inception_3a/output_inception_3a/output_0_split -> inception_3a/output_inception_3a/output_0_split_2
I0403 15:14:05.929541 31328 net.cpp:399] inception_3a/output_inception_3a/output_0_split -> inception_3a/output_inception_3a/output_0_split_3
I0403 15:14:05.929615 31328 net.cpp:141] Setting up inception_3a/output_inception_3a/output_0_split
I0403 15:14:05.929639 31328 net.cpp:148] Top shape: 24 256 28 28 (4816896)
I0403 15:14:05.929656 31328 net.cpp:148] Top shape: 24 256 28 28 (4816896)
I0403 15:14:05.929672 31328 net.cpp:148] Top shape: 24 256 28 28 (4816896)
I0403 15:14:05.929687 31328 net.cpp:148] Top shape: 24 256 28 28 (4816896)
I0403 15:14:05.929700 31328 net.cpp:156] Memory required for data: 657507360
I0403 15:14:05.929714 31328 layer_factory.hpp:77] Creating layer inception_3b/1x1
I0403 15:14:05.929735 31328 net.cpp:91] Creating Layer inception_3b/1x1
I0403 15:14:05.929754 31328 net.cpp:425] inception_3b/1x1 <- inception_3a/output_inception_3a/output_0_split_0
I0403 15:14:05.929771 31328 net.cpp:399] inception_3b/1x1 -> inception_3b/1x1
I0403 15:14:05.930902 31328 net.cpp:141] Setting up inception_3b/1x1
I0403 15:14:05.930941 31328 net.cpp:148] Top shape: 24 128 28 28 (2408448)
I0403 15:14:05.930956 31328 net.cpp:156] Memory required for data: 667141152
I0403 15:14:05.930975 31328 layer_factory.hpp:77] Creating layer inception_3b/relu_1x1
I0403 15:14:05.930995 31328 net.cpp:91] Creating Layer inception_3b/relu_1x1
I0403 15:14:05.931012 31328 net.cpp:425] inception_3b/relu_1x1 <- inception_3b/1x1
I0403 15:14:05.931030 31328 net.cpp:386] inception_3b/relu_1x1 -> inception_3b/1x1 (in-place)
I0403 15:14:05.931206 31328 net.cpp:141] Setting up inception_3b/relu_1x1
I0403 15:14:05.931231 31328 net.cpp:148] Top shape: 24 128 28 28 (2408448)
I0403 15:14:05.931246 31328 net.cpp:156] Memory required for data: 676774944
I0403 15:14:05.931259 31328 layer_factory.hpp:77] Creating layer inception_3b/3x3_reduce
I0403 15:14:05.931282 31328 net.cpp:91] Creating Layer inception_3b/3x3_reduce
I0403 15:14:05.931298 31328 net.cpp:425] inception_3b/3x3_reduce <- inception_3a/output_inception_3a/output_0_split_1
I0403 15:14:05.931319 31328 net.cpp:399] inception_3b/3x3_reduce -> inception_3b/3x3_reduce
I0403 15:14:05.932432 31328 net.cpp:141] Setting up inception_3b/3x3_reduce
I0403 15:14:05.932462 31328 net.cpp:148] Top shape: 24 128 28 28 (2408448)
I0403 15:14:05.932478 31328 net.cpp:156] Memory required for data: 686408736
I0403 15:14:05.932497 31328 layer_factory.hpp:77] Creating layer inception_3b/relu_3x3_reduce
I0403 15:14:05.932519 31328 net.cpp:91] Creating Layer inception_3b/relu_3x3_reduce
I0403 15:14:05.932535 31328 net.cpp:425] inception_3b/relu_3x3_reduce <- inception_3b/3x3_reduce
I0403 15:14:05.932554 31328 net.cpp:386] inception_3b/relu_3x3_reduce -> inception_3b/3x3_reduce (in-place)
I0403 15:14:05.932725 31328 net.cpp:141] Setting up inception_3b/relu_3x3_reduce
I0403 15:14:05.932751 31328 net.cpp:148] Top shape: 24 128 28 28 (2408448)
I0403 15:14:05.932766 31328 net.cpp:156] Memory required for data: 696042528
I0403 15:14:05.932781 31328 layer_factory.hpp:77] Creating layer inception_3b/3x3
I0403 15:14:05.932806 31328 net.cpp:91] Creating Layer inception_3b/3x3
I0403 15:14:05.932822 31328 net.cpp:425] inception_3b/3x3 <- inception_3b/3x3_reduce
I0403 15:14:05.932843 31328 net.cpp:399] inception_3b/3x3 -> inception_3b/3x3
I0403 15:14:05.935727 31328 net.cpp:141] Setting up inception_3b/3x3
I0403 15:14:05.935756 31328 net.cpp:148] Top shape: 24 192 28 28 (3612672)
I0403 15:14:05.935772 31328 net.cpp:156] Memory required for data: 710493216
I0403 15:14:05.935791 31328 layer_factory.hpp:77] Creating layer inception_3b/relu_3x3
I0403 15:14:05.935807 31328 net.cpp:91] Creating Layer inception_3b/relu_3x3
I0403 15:14:05.935822 31328 net.cpp:425] inception_3b/relu_3x3 <- inception_3b/3x3
I0403 15:14:05.935842 31328 net.cpp:386] inception_3b/relu_3x3 -> inception_3b/3x3 (in-place)
I0403 15:14:05.936117 31328 net.cpp:141] Setting up inception_3b/relu_3x3
I0403 15:14:05.936154 31328 net.cpp:148] Top shape: 24 192 28 28 (3612672)
I0403 15:14:05.936169 31328 net.cpp:156] Memory required for data: 724943904
I0403 15:14:05.936183 31328 layer_factory.hpp:77] Creating layer inception_3b/5x5_reduce
I0403 15:14:05.936219 31328 net.cpp:91] Creating Layer inception_3b/5x5_reduce
I0403 15:14:05.936242 31328 net.cpp:425] inception_3b/5x5_reduce <- inception_3a/output_inception_3a/output_0_split_2
I0403 15:14:05.936272 31328 net.cpp:399] inception_3b/5x5_reduce -> inception_3b/5x5_reduce
I0403 15:14:05.937258 31328 net.cpp:141] Setting up inception_3b/5x5_reduce
I0403 15:14:05.937288 31328 net.cpp:148] Top shape: 24 32 28 28 (602112)
I0403 15:14:05.937302 31328 net.cpp:156] Memory required for data: 727352352
I0403 15:14:05.937320 31328 layer_factory.hpp:77] Creating layer inception_3b/relu_5x5_reduce
I0403 15:14:05.937337 31328 net.cpp:91] Creating Layer inception_3b/relu_5x5_reduce
I0403 15:14:05.937353 31328 net.cpp:425] inception_3b/relu_5x5_reduce <- inception_3b/5x5_reduce
I0403 15:14:05.937373 31328 net.cpp:386] inception_3b/relu_5x5_reduce -> inception_3b/5x5_reduce (in-place)
I0403 15:14:05.937567 31328 net.cpp:141] Setting up inception_3b/relu_5x5_reduce
I0403 15:14:05.937592 31328 net.cpp:148] Top shape: 24 32 28 28 (602112)
I0403 15:14:05.937608 31328 net.cpp:156] Memory required for data: 729760800
I0403 15:14:05.937623 31328 layer_factory.hpp:77] Creating layer inception_3b/5x5
I0403 15:14:05.937646 31328 net.cpp:91] Creating Layer inception_3b/5x5
I0403 15:14:05.937664 31328 net.cpp:425] inception_3b/5x5 <- inception_3b/5x5_reduce
I0403 15:14:05.937683 31328 net.cpp:399] inception_3b/5x5 -> inception_3b/5x5
I0403 15:14:05.939684 31328 net.cpp:141] Setting up inception_3b/5x5
I0403 15:14:05.939718 31328 net.cpp:148] Top shape: 24 96 28 28 (1806336)
I0403 15:14:05.939734 31328 net.cpp:156] Memory required for data: 736986144
I0403 15:14:05.939754 31328 layer_factory.hpp:77] Creating layer inception_3b/relu_5x5
I0403 15:14:05.939772 31328 net.cpp:91] Creating Layer inception_3b/relu_5x5
I0403 15:14:05.939790 31328 net.cpp:425] inception_3b/relu_5x5 <- inception_3b/5x5
I0403 15:14:05.939806 31328 net.cpp:386] inception_3b/relu_5x5 -> inception_3b/5x5 (in-place)
I0403 15:14:05.940014 31328 net.cpp:141] Setting up inception_3b/relu_5x5
I0403 15:14:05.940039 31328 net.cpp:148] Top shape: 24 96 28 28 (1806336)
I0403 15:14:05.940054 31328 net.cpp:156] Memory required for data: 744211488
I0403 15:14:05.940069 31328 layer_factory.hpp:77] Creating layer inception_3b/pool
I0403 15:14:05.940086 31328 net.cpp:91] Creating Layer inception_3b/pool
I0403 15:14:05.940104 31328 net.cpp:425] inception_3b/pool <- inception_3a/output_inception_3a/output_0_split_3
I0403 15:14:05.940121 31328 net.cpp:399] inception_3b/pool -> inception_3b/pool
I0403 15:14:05.940176 31328 net.cpp:141] Setting up inception_3b/pool
I0403 15:14:05.940203 31328 net.cpp:148] Top shape: 24 256 28 28 (4816896)
I0403 15:14:05.940218 31328 net.cpp:156] Memory required for data: 763479072
I0403 15:14:05.940234 31328 layer_factory.hpp:77] Creating layer inception_3b/pool_proj
I0403 15:14:05.940255 31328 net.cpp:91] Creating Layer inception_3b/pool_proj
I0403 15:14:05.940273 31328 net.cpp:425] inception_3b/pool_proj <- inception_3b/pool
I0403 15:14:05.940290 31328 net.cpp:399] inception_3b/pool_proj -> inception_3b/pool_proj
I0403 15:14:05.941376 31328 net.cpp:141] Setting up inception_3b/pool_proj
I0403 15:14:05.941404 31328 net.cpp:148] Top shape: 24 64 28 28 (1204224)
I0403 15:14:05.941419 31328 net.cpp:156] Memory required for data: 768295968
I0403 15:14:05.941438 31328 layer_factory.hpp:77] Creating layer inception_3b/relu_pool_proj
I0403 15:14:05.941458 31328 net.cpp:91] Creating Layer inception_3b/relu_pool_proj
I0403 15:14:05.941475 31328 net.cpp:425] inception_3b/relu_pool_proj <- inception_3b/pool_proj
I0403 15:14:05.941493 31328 net.cpp:386] inception_3b/relu_pool_proj -> inception_3b/pool_proj (in-place)
I0403 15:14:05.941910 31328 net.cpp:141] Setting up inception_3b/relu_pool_proj
I0403 15:14:05.941936 31328 net.cpp:148] Top shape: 24 64 28 28 (1204224)
I0403 15:14:05.941951 31328 net.cpp:156] Memory required for data: 773112864
I0403 15:14:05.941967 31328 layer_factory.hpp:77] Creating layer inception_3b/output
I0403 15:14:05.941984 31328 net.cpp:91] Creating Layer inception_3b/output
I0403 15:14:05.942001 31328 net.cpp:425] inception_3b/output <- inception_3b/1x1
I0403 15:14:05.942018 31328 net.cpp:425] inception_3b/output <- inception_3b/3x3
I0403 15:14:05.942034 31328 net.cpp:425] inception_3b/output <- inception_3b/5x5
I0403 15:14:05.942049 31328 net.cpp:425] inception_3b/output <- inception_3b/pool_proj
I0403 15:14:05.942068 31328 net.cpp:399] inception_3b/output -> inception_3b/output
I0403 15:14:05.942112 31328 net.cpp:141] Setting up inception_3b/output
I0403 15:14:05.942138 31328 net.cpp:148] Top shape: 24 480 28 28 (9031680)
I0403 15:14:05.942153 31328 net.cpp:156] Memory required for data: 809239584
I0403 15:14:05.942168 31328 layer_factory.hpp:77] Creating layer pool3/3x3_s2
I0403 15:14:05.942185 31328 net.cpp:91] Creating Layer pool3/3x3_s2
I0403 15:14:05.942201 31328 net.cpp:425] pool3/3x3_s2 <- inception_3b/output
I0403 15:14:05.942236 31328 net.cpp:399] pool3/3x3_s2 -> pool3/3x3_s2
I0403 15:14:05.942296 31328 net.cpp:141] Setting up pool3/3x3_s2
I0403 15:14:05.942320 31328 net.cpp:148] Top shape: 24 480 14 14 (2257920)
I0403 15:14:05.942334 31328 net.cpp:156] Memory required for data: 818271264
I0403 15:14:05.942348 31328 layer_factory.hpp:77] Creating layer pool3/3x3_s2_pool3/3x3_s2_0_split
I0403 15:14:05.942368 31328 net.cpp:91] Creating Layer pool3/3x3_s2_pool3/3x3_s2_0_split
I0403 15:14:05.942384 31328 net.cpp:425] pool3/3x3_s2_pool3/3x3_s2_0_split <- pool3/3x3_s2
I0403 15:14:05.942401 31328 net.cpp:399] pool3/3x3_s2_pool3/3x3_s2_0_split -> pool3/3x3_s2_pool3/3x3_s2_0_split_0
I0403 15:14:05.942420 31328 net.cpp:399] pool3/3x3_s2_pool3/3x3_s2_0_split -> pool3/3x3_s2_pool3/3x3_s2_0_split_1
I0403 15:14:05.942442 31328 net.cpp:399] pool3/3x3_s2_pool3/3x3_s2_0_split -> pool3/3x3_s2_pool3/3x3_s2_0_split_2
I0403 15:14:05.942462 31328 net.cpp:399] pool3/3x3_s2_pool3/3x3_s2_0_split -> pool3/3x3_s2_pool3/3x3_s2_0_split_3
I0403 15:14:05.942543 31328 net.cpp:141] Setting up pool3/3x3_s2_pool3/3x3_s2_0_split
I0403 15:14:05.942567 31328 net.cpp:148] Top shape: 24 480 14 14 (2257920)
I0403 15:14:05.942582 31328 net.cpp:148] Top shape: 24 480 14 14 (2257920)
I0403 15:14:05.942597 31328 net.cpp:148] Top shape: 24 480 14 14 (2257920)
I0403 15:14:05.942613 31328 net.cpp:148] Top shape: 24 480 14 14 (2257920)
I0403 15:14:05.942626 31328 net.cpp:156] Memory required for data: 854397984
I0403 15:14:05.942641 31328 layer_factory.hpp:77] Creating layer inception_4a/1x1
I0403 15:14:05.942663 31328 net.cpp:91] Creating Layer inception_4a/1x1
I0403 15:14:05.942680 31328 net.cpp:425] inception_4a/1x1 <- pool3/3x3_s2_pool3/3x3_s2_0_split_0
I0403 15:14:05.942701 31328 net.cpp:399] inception_4a/1x1 -> inception_4a/1x1
I0403 15:14:05.944301 31328 net.cpp:141] Setting up inception_4a/1x1
I0403 15:14:05.944329 31328 net.cpp:148] Top shape: 24 192 14 14 (903168)
I0403 15:14:05.944345 31328 net.cpp:156] Memory required for data: 858010656
I0403 15:14:05.944363 31328 layer_factory.hpp:77] Creating layer inception_4a/relu_1x1
I0403 15:14:05.944385 31328 net.cpp:91] Creating Layer inception_4a/relu_1x1
I0403 15:14:05.944401 31328 net.cpp:425] inception_4a/relu_1x1 <- inception_4a/1x1
I0403 15:14:05.944417 31328 net.cpp:386] inception_4a/relu_1x1 -> inception_4a/1x1 (in-place)
I0403 15:14:05.944608 31328 net.cpp:141] Setting up inception_4a/relu_1x1
I0403 15:14:05.944636 31328 net.cpp:148] Top shape: 24 192 14 14 (903168)
I0403 15:14:05.944653 31328 net.cpp:156] Memory required for data: 861623328
I0403 15:14:05.944667 31328 layer_factory.hpp:77] Creating layer inception_4a/3x3_reduce
I0403 15:14:05.944690 31328 net.cpp:91] Creating Layer inception_4a/3x3_reduce
I0403 15:14:05.944708 31328 net.cpp:425] inception_4a/3x3_reduce <- pool3/3x3_s2_pool3/3x3_s2_0_split_1
I0403 15:14:05.944727 31328 net.cpp:399] inception_4a/3x3_reduce -> inception_4a/3x3_reduce
I0403 15:14:05.946018 31328 net.cpp:141] Setting up inception_4a/3x3_reduce
I0403 15:14:05.946046 31328 net.cpp:148] Top shape: 24 96 14 14 (451584)
I0403 15:14:05.946063 31328 net.cpp:156] Memory required for data: 863429664
I0403 15:14:05.946089 31328 layer_factory.hpp:77] Creating layer inception_4a/relu_3x3_reduce
I0403 15:14:05.946110 31328 net.cpp:91] Creating Layer inception_4a/relu_3x3_reduce
I0403 15:14:05.946127 31328 net.cpp:425] inception_4a/relu_3x3_reduce <- inception_4a/3x3_reduce
I0403 15:14:05.946146 31328 net.cpp:386] inception_4a/relu_3x3_reduce -> inception_4a/3x3_reduce (in-place)
I0403 15:14:05.946324 31328 net.cpp:141] Setting up inception_4a/relu_3x3_reduce
I0403 15:14:05.946351 31328 net.cpp:148] Top shape: 24 96 14 14 (451584)
I0403 15:14:05.946364 31328 net.cpp:156] Memory required for data: 865236000
I0403 15:14:05.946380 31328 layer_factory.hpp:77] Creating layer inception_4a/3x3
I0403 15:14:05.946404 31328 net.cpp:91] Creating Layer inception_4a/3x3
I0403 15:14:05.946421 31328 net.cpp:425] inception_4a/3x3 <- inception_4a/3x3_reduce
I0403 15:14:05.946441 31328 net.cpp:399] inception_4a/3x3 -> inception_4a/3x3
I0403 15:14:05.949172 31328 net.cpp:141] Setting up inception_4a/3x3
I0403 15:14:05.949204 31328 net.cpp:148] Top shape: 24 208 14 14 (978432)
I0403 15:14:05.949220 31328 net.cpp:156] Memory required for data: 869149728
I0403 15:14:05.949239 31328 layer_factory.hpp:77] Creating layer inception_4a/relu_3x3
I0403 15:14:05.949257 31328 net.cpp:91] Creating Layer inception_4a/relu_3x3
I0403 15:14:05.949273 31328 net.cpp:425] inception_4a/relu_3x3 <- inception_4a/3x3
I0403 15:14:05.949290 31328 net.cpp:386] inception_4a/relu_3x3 -> inception_4a/3x3 (in-place)
I0403 15:14:05.949579 31328 net.cpp:141] Setting up inception_4a/relu_3x3
I0403 15:14:05.949607 31328 net.cpp:148] Top shape: 24 208 14 14 (978432)
I0403 15:14:05.949623 31328 net.cpp:156] Memory required for data: 873063456
I0403 15:14:05.949640 31328 layer_factory.hpp:77] Creating layer inception_4a/5x5_reduce
I0403 15:14:05.949661 31328 net.cpp:91] Creating Layer inception_4a/5x5_reduce
I0403 15:14:05.949679 31328 net.cpp:425] inception_4a/5x5_reduce <- pool3/3x3_s2_pool3/3x3_s2_0_split_2
I0403 15:14:05.949697 31328 net.cpp:399] inception_4a/5x5_reduce -> inception_4a/5x5_reduce
I0403 15:14:05.950736 31328 net.cpp:141] Setting up inception_4a/5x5_reduce
I0403 15:14:05.950767 31328 net.cpp:148] Top shape: 24 16 14 14 (75264)
I0403 15:14:05.950783 31328 net.cpp:156] Memory required for data: 873364512
I0403 15:14:05.950808 31328 layer_factory.hpp:77] Creating layer inception_4a/relu_5x5_reduce
I0403 15:14:05.950826 31328 net.cpp:91] Creating Layer inception_4a/relu_5x5_reduce
I0403 15:14:05.950842 31328 net.cpp:425] inception_4a/relu_5x5_reduce <- inception_4a/5x5_reduce
I0403 15:14:05.950862 31328 net.cpp:386] inception_4a/relu_5x5_reduce -> inception_4a/5x5_reduce (in-place)
I0403 15:14:05.951043 31328 net.cpp:141] Setting up inception_4a/relu_5x5_reduce
I0403 15:14:05.951068 31328 net.cpp:148] Top shape: 24 16 14 14 (75264)
I0403 15:14:05.951083 31328 net.cpp:156] Memory required for data: 873665568
I0403 15:14:05.951098 31328 layer_factory.hpp:77] Creating layer inception_4a/5x5
I0403 15:14:05.951120 31328 net.cpp:91] Creating Layer inception_4a/5x5
I0403 15:14:05.951138 31328 net.cpp:425] inception_4a/5x5 <- inception_4a/5x5_reduce
I0403 15:14:05.951159 31328 net.cpp:399] inception_4a/5x5 -> inception_4a/5x5
I0403 15:14:05.952257 31328 net.cpp:141] Setting up inception_4a/5x5
I0403 15:14:05.952286 31328 net.cpp:148] Top shape: 24 48 14 14 (225792)
I0403 15:14:05.952301 31328 net.cpp:156] Memory required for data: 874568736
I0403 15:14:05.952319 31328 layer_factory.hpp:77] Creating layer inception_4a/relu_5x5
I0403 15:14:05.952337 31328 net.cpp:91] Creating Layer inception_4a/relu_5x5
I0403 15:14:05.952353 31328 net.cpp:425] inception_4a/relu_5x5 <- inception_4a/5x5
I0403 15:14:05.952373 31328 net.cpp:386] inception_4a/relu_5x5 -> inception_4a/5x5 (in-place)
I0403 15:14:05.952556 31328 net.cpp:141] Setting up inception_4a/relu_5x5
I0403 15:14:05.952582 31328 net.cpp:148] Top shape: 24 48 14 14 (225792)
I0403 15:14:05.952603 31328 net.cpp:156] Memory required for data: 875471904
I0403 15:14:05.952618 31328 layer_factory.hpp:77] Creating layer inception_4a/pool
I0403 15:14:05.952638 31328 net.cpp:91] Creating Layer inception_4a/pool
I0403 15:14:05.952654 31328 net.cpp:425] inception_4a/pool <- pool3/3x3_s2_pool3/3x3_s2_0_split_3
I0403 15:14:05.952673 31328 net.cpp:399] inception_4a/pool -> inception_4a/pool
I0403 15:14:05.952736 31328 net.cpp:141] Setting up inception_4a/pool
I0403 15:14:05.952760 31328 net.cpp:148] Top shape: 24 480 14 14 (2257920)
I0403 15:14:05.952775 31328 net.cpp:156] Memory required for data: 884503584
I0403 15:14:05.952790 31328 layer_factory.hpp:77] Creating layer inception_4a/pool_proj
I0403 15:14:05.952811 31328 net.cpp:91] Creating Layer inception_4a/pool_proj
I0403 15:14:05.952828 31328 net.cpp:425] inception_4a/pool_proj <- inception_4a/pool
I0403 15:14:05.952849 31328 net.cpp:399] inception_4a/pool_proj -> inception_4a/pool_proj
I0403 15:14:05.954031 31328 net.cpp:141] Setting up inception_4a/pool_proj
I0403 15:14:05.954061 31328 net.cpp:148] Top shape: 24 64 14 14 (301056)
I0403 15:14:05.954102 31328 net.cpp:156] Memory required for data: 885707808
I0403 15:14:05.954121 31328 layer_factory.hpp:77] Creating layer inception_4a/relu_pool_proj
I0403 15:14:05.954143 31328 net.cpp:91] Creating Layer inception_4a/relu_pool_proj
I0403 15:14:05.954160 31328 net.cpp:425] inception_4a/relu_pool_proj <- inception_4a/pool_proj
I0403 15:14:05.954177 31328 net.cpp:386] inception_4a/relu_pool_proj -> inception_4a/pool_proj (in-place)
I0403 15:14:05.954468 31328 net.cpp:141] Setting up inception_4a/relu_pool_proj
I0403 15:14:05.954493 31328 net.cpp:148] Top shape: 24 64 14 14 (301056)
I0403 15:14:05.954521 31328 net.cpp:156] Memory required for data: 886912032
I0403 15:14:05.954538 31328 layer_factory.hpp:77] Creating layer inception_4a/output
I0403 15:14:05.954557 31328 net.cpp:91] Creating Layer inception_4a/output
I0403 15:14:05.954574 31328 net.cpp:425] inception_4a/output <- inception_4a/1x1
I0403 15:14:05.954593 31328 net.cpp:425] inception_4a/output <- inception_4a/3x3
I0403 15:14:05.954610 31328 net.cpp:425] inception_4a/output <- inception_4a/5x5
I0403 15:14:05.954627 31328 net.cpp:425] inception_4a/output <- inception_4a/pool_proj
I0403 15:14:05.954644 31328 net.cpp:399] inception_4a/output -> inception_4a/output
I0403 15:14:05.954692 31328 net.cpp:141] Setting up inception_4a/output
I0403 15:14:05.954715 31328 net.cpp:148] Top shape: 24 512 14 14 (2408448)
I0403 15:14:05.954730 31328 net.cpp:156] Memory required for data: 896545824
I0403 15:14:05.954744 31328 layer_factory.hpp:77] Creating layer inception_4a/output_inception_4a/output_0_split
I0403 15:14:05.954762 31328 net.cpp:91] Creating Layer inception_4a/output_inception_4a/output_0_split
I0403 15:14:05.954778 31328 net.cpp:425] inception_4a/output_inception_4a/output_0_split <- inception_4a/output
I0403 15:14:05.954799 31328 net.cpp:399] inception_4a/output_inception_4a/output_0_split -> inception_4a/output_inception_4a/output_0_split_0
I0403 15:14:05.954819 31328 net.cpp:399] inception_4a/output_inception_4a/output_0_split -> inception_4a/output_inception_4a/output_0_split_1
I0403 15:14:05.954841 31328 net.cpp:399] inception_4a/output_inception_4a/output_0_split -> inception_4a/output_inception_4a/output_0_split_2
I0403 15:14:05.954862 31328 net.cpp:399] inception_4a/output_inception_4a/output_0_split -> inception_4a/output_inception_4a/output_0_split_3
I0403 15:14:05.954882 31328 net.cpp:399] inception_4a/output_inception_4a/output_0_split -> inception_4a/output_inception_4a/output_0_split_4
I0403 15:14:05.954975 31328 net.cpp:141] Setting up inception_4a/output_inception_4a/output_0_split
I0403 15:14:05.955001 31328 net.cpp:148] Top shape: 24 512 14 14 (2408448)
I0403 15:14:05.955018 31328 net.cpp:148] Top shape: 24 512 14 14 (2408448)
I0403 15:14:05.955034 31328 net.cpp:148] Top shape: 24 512 14 14 (2408448)
I0403 15:14:05.955049 31328 net.cpp:148] Top shape: 24 512 14 14 (2408448)
I0403 15:14:05.955063 31328 net.cpp:148] Top shape: 24 512 14 14 (2408448)
I0403 15:14:05.955077 31328 net.cpp:156] Memory required for data: 944714784
I0403 15:14:05.955091 31328 layer_factory.hpp:77] Creating layer loss1/ave_pool
I0403 15:14:05.955109 31328 net.cpp:91] Creating Layer loss1/ave_pool
I0403 15:14:05.955126 31328 net.cpp:425] loss1/ave_pool <- inception_4a/output_inception_4a/output_0_split_0
I0403 15:14:05.955144 31328 net.cpp:399] loss1/ave_pool -> loss1/ave_pool
I0403 15:14:05.955355 31328 net.cpp:141] Setting up loss1/ave_pool
I0403 15:14:05.955399 31328 net.cpp:148] Top shape: 24 512 4 4 (196608)
I0403 15:14:05.955415 31328 net.cpp:156] Memory required for data: 945501216
I0403 15:14:05.955430 31328 layer_factory.hpp:77] Creating layer loss1/conv
I0403 15:14:05.955452 31328 net.cpp:91] Creating Layer loss1/conv
I0403 15:14:05.955481 31328 net.cpp:425] loss1/conv <- loss1/ave_pool
I0403 15:14:05.955525 31328 net.cpp:399] loss1/conv -> loss1/conv
I0403 15:14:05.956970 31328 net.cpp:141] Setting up loss1/conv
I0403 15:14:05.957002 31328 net.cpp:148] Top shape: 24 128 4 4 (49152)
I0403 15:14:05.957036 31328 net.cpp:156] Memory required for data: 945697824
I0403 15:14:05.957056 31328 layer_factory.hpp:77] Creating layer loss1/relu_conv
I0403 15:14:05.957074 31328 net.cpp:91] Creating Layer loss1/relu_conv
I0403 15:14:05.957089 31328 net.cpp:425] loss1/relu_conv <- loss1/conv
I0403 15:14:05.957106 31328 net.cpp:386] loss1/relu_conv -> loss1/conv (in-place)
I0403 15:14:05.957393 31328 net.cpp:141] Setting up loss1/relu_conv
I0403 15:14:05.957422 31328 net.cpp:148] Top shape: 24 128 4 4 (49152)
I0403 15:14:05.957438 31328 net.cpp:156] Memory required for data: 945894432
I0403 15:14:05.957453 31328 layer_factory.hpp:77] Creating layer loss1/fc
I0403 15:14:05.957479 31328 net.cpp:91] Creating Layer loss1/fc
I0403 15:14:05.957496 31328 net.cpp:425] loss1/fc <- loss1/conv
I0403 15:14:05.957523 31328 net.cpp:399] loss1/fc -> loss1/fc
I0403 15:14:05.975137 31328 net.cpp:141] Setting up loss1/fc
I0403 15:14:05.975169 31328 net.cpp:148] Top shape: 24 1024 (24576)
I0403 15:14:05.975185 31328 net.cpp:156] Memory required for data: 945992736
I0403 15:14:05.975203 31328 layer_factory.hpp:77] Creating layer loss1/relu_fc
I0403 15:14:05.975224 31328 net.cpp:91] Creating Layer loss1/relu_fc
I0403 15:14:05.975239 31328 net.cpp:425] loss1/relu_fc <- loss1/fc
I0403 15:14:05.975256 31328 net.cpp:386] loss1/relu_fc -> loss1/fc (in-place)
I0403 15:14:05.975437 31328 net.cpp:141] Setting up loss1/relu_fc
I0403 15:14:05.975463 31328 net.cpp:148] Top shape: 24 1024 (24576)
I0403 15:14:05.975479 31328 net.cpp:156] Memory required for data: 946091040
I0403 15:14:05.975493 31328 layer_factory.hpp:77] Creating layer loss1/drop_fc
I0403 15:14:05.975522 31328 net.cpp:91] Creating Layer loss1/drop_fc
I0403 15:14:05.975541 31328 net.cpp:425] loss1/drop_fc <- loss1/fc
I0403 15:14:05.975558 31328 net.cpp:386] loss1/drop_fc -> loss1/fc (in-place)
I0403 15:14:05.975613 31328 net.cpp:141] Setting up loss1/drop_fc
I0403 15:14:05.975636 31328 net.cpp:148] Top shape: 24 1024 (24576)
I0403 15:14:05.975649 31328 net.cpp:156] Memory required for data: 946189344
I0403 15:14:05.975663 31328 layer_factory.hpp:77] Creating layer loss1/classifier_plantvillage
I0403 15:14:05.975684 31328 net.cpp:91] Creating Layer loss1/classifier_plantvillage
I0403 15:14:05.975700 31328 net.cpp:425] loss1/classifier_plantvillage <- loss1/fc
I0403 15:14:05.975718 31328 net.cpp:399] loss1/classifier_plantvillage -> loss1/classifier_plantvillage
I0403 15:14:05.976601 31328 net.cpp:141] Setting up loss1/classifier_plantvillage
I0403 15:14:05.976631 31328 net.cpp:148] Top shape: 24 38 (912)
I0403 15:14:05.976645 31328 net.cpp:156] Memory required for data: 946192992
I0403 15:14:05.976663 31328 layer_factory.hpp:77] Creating layer loss1/classifier_plantvillage_loss1/classifier_plantvillage_0_split
I0403 15:14:05.976680 31328 net.cpp:91] Creating Layer loss1/classifier_plantvillage_loss1/classifier_plantvillage_0_split
I0403 15:14:05.976696 31328 net.cpp:425] loss1/classifier_plantvillage_loss1/classifier_plantvillage_0_split <- loss1/classifier_plantvillage
I0403 15:14:05.976712 31328 net.cpp:399] loss1/classifier_plantvillage_loss1/classifier_plantvillage_0_split -> loss1/classifier_plantvillage_loss1/classifier_plantvillage_0_split_0
I0403 15:14:05.976732 31328 net.cpp:399] loss1/classifier_plantvillage_loss1/classifier_plantvillage_0_split -> loss1/classifier_plantvillage_loss1/classifier_plantvillage_0_split_1
I0403 15:14:05.976750 31328 net.cpp:399] loss1/classifier_plantvillage_loss1/classifier_plantvillage_0_split -> loss1/classifier_plantvillage_loss1/classifier_plantvillage_0_split_2
I0403 15:14:05.976814 31328 net.cpp:141] Setting up loss1/classifier_plantvillage_loss1/classifier_plantvillage_0_split
I0403 15:14:05.976836 31328 net.cpp:148] Top shape: 24 38 (912)
I0403 15:14:05.976852 31328 net.cpp:148] Top shape: 24 38 (912)
I0403 15:14:05.976866 31328 net.cpp:148] Top shape: 24 38 (912)
I0403 15:14:05.976879 31328 net.cpp:156] Memory required for data: 946203936
I0403 15:14:05.976892 31328 layer_factory.hpp:77] Creating layer inception_4b/1x1
I0403 15:14:05.976912 31328 net.cpp:91] Creating Layer inception_4b/1x1
I0403 15:14:05.976943 31328 net.cpp:425] inception_4b/1x1 <- inception_4a/output_inception_4a/output_0_split_1
I0403 15:14:05.976964 31328 net.cpp:399] inception_4b/1x1 -> inception_4b/1x1
I0403 15:14:05.978552 31328 net.cpp:141] Setting up inception_4b/1x1
I0403 15:14:05.978585 31328 net.cpp:148] Top shape: 24 160 14 14 (752640)
I0403 15:14:05.978600 31328 net.cpp:156] Memory required for data: 949214496
I0403 15:14:05.978618 31328 layer_factory.hpp:77] Creating layer inception_4b/relu_1x1
I0403 15:14:05.978636 31328 net.cpp:91] Creating Layer inception_4b/relu_1x1
I0403 15:14:05.978651 31328 net.cpp:425] inception_4b/relu_1x1 <- inception_4b/1x1
I0403 15:14:05.978667 31328 net.cpp:386] inception_4b/relu_1x1 -> inception_4b/1x1 (in-place)
I0403 15:14:05.978840 31328 net.cpp:141] Setting up inception_4b/relu_1x1
I0403 15:14:05.978864 31328 net.cpp:148] Top shape: 24 160 14 14 (752640)
I0403 15:14:05.978878 31328 net.cpp:156] Memory required for data: 952225056
I0403 15:14:05.978893 31328 layer_factory.hpp:77] Creating layer inception_4b/3x3_reduce
I0403 15:14:05.978914 31328 net.cpp:91] Creating Layer inception_4b/3x3_reduce
I0403 15:14:05.978930 31328 net.cpp:425] inception_4b/3x3_reduce <- inception_4a/output_inception_4a/output_0_split_2
I0403 15:14:05.978950 31328 net.cpp:399] inception_4b/3x3_reduce -> inception_4b/3x3_reduce
I0403 15:14:05.980247 31328 net.cpp:141] Setting up inception_4b/3x3_reduce
I0403 15:14:05.980273 31328 net.cpp:148] Top shape: 24 112 14 14 (526848)
I0403 15:14:05.980288 31328 net.cpp:156] Memory required for data: 954332448
I0403 15:14:05.980305 31328 layer_factory.hpp:77] Creating layer inception_4b/relu_3x3_reduce
I0403 15:14:05.980324 31328 net.cpp:91] Creating Layer inception_4b/relu_3x3_reduce
I0403 15:14:05.980342 31328 net.cpp:425] inception_4b/relu_3x3_reduce <- inception_4b/3x3_reduce
I0403 15:14:05.980358 31328 net.cpp:386] inception_4b/relu_3x3_reduce -> inception_4b/3x3_reduce (in-place)
I0403 15:14:05.980634 31328 net.cpp:141] Setting up inception_4b/relu_3x3_reduce
I0403 15:14:05.980659 31328 net.cpp:148] Top shape: 24 112 14 14 (526848)
I0403 15:14:05.980674 31328 net.cpp:156] Memory required for data: 956439840
I0403 15:14:05.980689 31328 layer_factory.hpp:77] Creating layer inception_4b/3x3
I0403 15:14:05.980710 31328 net.cpp:91] Creating Layer inception_4b/3x3
I0403 15:14:05.980726 31328 net.cpp:425] inception_4b/3x3 <- inception_4b/3x3_reduce
I0403 15:14:05.980748 31328 net.cpp:399] inception_4b/3x3 -> inception_4b/3x3
I0403 15:14:05.983623 31328 net.cpp:141] Setting up inception_4b/3x3
I0403 15:14:05.983652 31328 net.cpp:148] Top shape: 24 224 14 14 (1053696)
I0403 15:14:05.983667 31328 net.cpp:156] Memory required for data: 960654624
I0403 15:14:05.983685 31328 layer_factory.hpp:77] Creating layer inception_4b/relu_3x3
I0403 15:14:05.983705 31328 net.cpp:91] Creating Layer inception_4b/relu_3x3
I0403 15:14:05.983721 31328 net.cpp:425] inception_4b/relu_3x3 <- inception_4b/3x3
I0403 15:14:05.983737 31328 net.cpp:386] inception_4b/relu_3x3 -> inception_4b/3x3 (in-place)
I0403 15:14:05.983911 31328 net.cpp:141] Setting up inception_4b/relu_3x3
I0403 15:14:05.983937 31328 net.cpp:148] Top shape: 24 224 14 14 (1053696)
I0403 15:14:05.983952 31328 net.cpp:156] Memory required for data: 964869408
I0403 15:14:05.983966 31328 layer_factory.hpp:77] Creating layer inception_4b/5x5_reduce
I0403 15:14:05.983988 31328 net.cpp:91] Creating Layer inception_4b/5x5_reduce
I0403 15:14:05.984004 31328 net.cpp:425] inception_4b/5x5_reduce <- inception_4a/output_inception_4a/output_0_split_3
I0403 15:14:05.984022 31328 net.cpp:399] inception_4b/5x5_reduce -> inception_4b/5x5_reduce
I0403 15:14:05.985076 31328 net.cpp:141] Setting up inception_4b/5x5_reduce
I0403 15:14:05.985105 31328 net.cpp:148] Top shape: 24 24 14 14 (112896)
I0403 15:14:05.985121 31328 net.cpp:156] Memory required for data: 965320992
I0403 15:14:05.985139 31328 layer_factory.hpp:77] Creating layer inception_4b/relu_5x5_reduce
I0403 15:14:05.985157 31328 net.cpp:91] Creating Layer inception_4b/relu_5x5_reduce
I0403 15:14:05.985186 31328 net.cpp:425] inception_4b/relu_5x5_reduce <- inception_4b/5x5_reduce
I0403 15:14:05.985208 31328 net.cpp:386] inception_4b/relu_5x5_reduce -> inception_4b/5x5_reduce (in-place)
I0403 15:14:05.985380 31328 net.cpp:141] Setting up inception_4b/relu_5x5_reduce
I0403 15:14:05.985405 31328 net.cpp:148] Top shape: 24 24 14 14 (112896)
I0403 15:14:05.985419 31328 net.cpp:156] Memory required for data: 965772576
I0403 15:14:05.985433 31328 layer_factory.hpp:77] Creating layer inception_4b/5x5
I0403 15:14:05.985455 31328 net.cpp:91] Creating Layer inception_4b/5x5
I0403 15:14:05.985472 31328 net.cpp:425] inception_4b/5x5 <- inception_4b/5x5_reduce
I0403 15:14:05.985492 31328 net.cpp:399] inception_4b/5x5 -> inception_4b/5x5
I0403 15:14:05.986764 31328 net.cpp:141] Setting up inception_4b/5x5
I0403 15:14:05.986794 31328 net.cpp:148] Top shape: 24 64 14 14 (301056)
I0403 15:14:05.986810 31328 net.cpp:156] Memory required for data: 966976800
I0403 15:14:05.986829 31328 layer_factory.hpp:77] Creating layer inception_4b/relu_5x5
I0403 15:14:05.986845 31328 net.cpp:91] Creating Layer inception_4b/relu_5x5
I0403 15:14:05.986861 31328 net.cpp:425] inception_4b/relu_5x5 <- inception_4b/5x5
I0403 15:14:05.986878 31328 net.cpp:386] inception_4b/relu_5x5 -> inception_4b/5x5 (in-place)
I0403 15:14:05.987161 31328 net.cpp:141] Setting up inception_4b/relu_5x5
I0403 15:14:05.987190 31328 net.cpp:148] Top shape: 24 64 14 14 (301056)
I0403 15:14:05.987205 31328 net.cpp:156] Memory required for data: 968181024
I0403 15:14:05.987221 31328 layer_factory.hpp:77] Creating layer inception_4b/pool
I0403 15:14:05.987238 31328 net.cpp:91] Creating Layer inception_4b/pool
I0403 15:14:05.987253 31328 net.cpp:425] inception_4b/pool <- inception_4a/output_inception_4a/output_0_split_4
I0403 15:14:05.987277 31328 net.cpp:399] inception_4b/pool -> inception_4b/pool
I0403 15:14:05.987341 31328 net.cpp:141] Setting up inception_4b/pool
I0403 15:14:05.987365 31328 net.cpp:148] Top shape: 24 512 14 14 (2408448)
I0403 15:14:05.987380 31328 net.cpp:156] Memory required for data: 977814816
I0403 15:14:05.987393 31328 layer_factory.hpp:77] Creating layer inception_4b/pool_proj
I0403 15:14:05.987416 31328 net.cpp:91] Creating Layer inception_4b/pool_proj
I0403 15:14:05.987433 31328 net.cpp:425] inception_4b/pool_proj <- inception_4b/pool
I0403 15:14:05.987452 31328 net.cpp:399] inception_4b/pool_proj -> inception_4b/pool_proj
I0403 15:14:05.988653 31328 net.cpp:141] Setting up inception_4b/pool_proj
I0403 15:14:05.988682 31328 net.cpp:148] Top shape: 24 64 14 14 (301056)
I0403 15:14:05.988695 31328 net.cpp:156] Memory required for data: 979019040
I0403 15:14:05.988713 31328 layer_factory.hpp:77] Creating layer inception_4b/relu_pool_proj
I0403 15:14:05.988731 31328 net.cpp:91] Creating Layer inception_4b/relu_pool_proj
I0403 15:14:05.988747 31328 net.cpp:425] inception_4b/relu_pool_proj <- inception_4b/pool_proj
I0403 15:14:05.988767 31328 net.cpp:386] inception_4b/relu_pool_proj -> inception_4b/pool_proj (in-place)
I0403 15:14:05.988946 31328 net.cpp:141] Setting up inception_4b/relu_pool_proj
I0403 15:14:05.988971 31328 net.cpp:148] Top shape: 24 64 14 14 (301056)
I0403 15:14:05.988986 31328 net.cpp:156] Memory required for data: 980223264
I0403 15:14:05.989001 31328 layer_factory.hpp:77] Creating layer inception_4b/output
I0403 15:14:05.989017 31328 net.cpp:91] Creating Layer inception_4b/output
I0403 15:14:05.989035 31328 net.cpp:425] inception_4b/output <- inception_4b/1x1
I0403 15:14:05.989053 31328 net.cpp:425] inception_4b/output <- inception_4b/3x3
I0403 15:14:05.989068 31328 net.cpp:425] inception_4b/output <- inception_4b/5x5
I0403 15:14:05.989083 31328 net.cpp:425] inception_4b/output <- inception_4b/pool_proj
I0403 15:14:05.989099 31328 net.cpp:399] inception_4b/output -> inception_4b/output
I0403 15:14:05.989145 31328 net.cpp:141] Setting up inception_4b/output
I0403 15:14:05.989169 31328 net.cpp:148] Top shape: 24 512 14 14 (2408448)
I0403 15:14:05.989184 31328 net.cpp:156] Memory required for data: 989857056
I0403 15:14:05.989212 31328 layer_factory.hpp:77] Creating layer inception_4b/output_inception_4b/output_0_split
I0403 15:14:05.989231 31328 net.cpp:91] Creating Layer inception_4b/output_inception_4b/output_0_split
I0403 15:14:05.989246 31328 net.cpp:425] inception_4b/output_inception_4b/output_0_split <- inception_4b/output
I0403 15:14:05.989265 31328 net.cpp:399] inception_4b/output_inception_4b/output_0_split -> inception_4b/output_inception_4b/output_0_split_0
I0403 15:14:05.989287 31328 net.cpp:399] inception_4b/output_inception_4b/output_0_split -> inception_4b/output_inception_4b/output_0_split_1
I0403 15:14:05.989307 31328 net.cpp:399] inception_4b/output_inception_4b/output_0_split -> inception_4b/output_inception_4b/output_0_split_2
I0403 15:14:05.989327 31328 net.cpp:399] inception_4b/output_inception_4b/output_0_split -> inception_4b/output_inception_4b/output_0_split_3
I0403 15:14:05.989406 31328 net.cpp:141] Setting up inception_4b/output_inception_4b/output_0_split
I0403 15:14:05.989433 31328 net.cpp:148] Top shape: 24 512 14 14 (2408448)
I0403 15:14:05.989449 31328 net.cpp:148] Top shape: 24 512 14 14 (2408448)
I0403 15:14:05.989464 31328 net.cpp:148] Top shape: 24 512 14 14 (2408448)
I0403 15:14:05.989480 31328 net.cpp:148] Top shape: 24 512 14 14 (2408448)
I0403 15:14:05.989493 31328 net.cpp:156] Memory required for data: 1028392224
I0403 15:14:05.989512 31328 layer_factory.hpp:77] Creating layer inception_4c/1x1
I0403 15:14:05.989537 31328 net.cpp:91] Creating Layer inception_4c/1x1
I0403 15:14:05.989553 31328 net.cpp:425] inception_4c/1x1 <- inception_4b/output_inception_4b/output_0_split_0
I0403 15:14:05.989573 31328 net.cpp:399] inception_4c/1x1 -> inception_4c/1x1
I0403 15:14:05.991004 31328 net.cpp:141] Setting up inception_4c/1x1
I0403 15:14:05.991032 31328 net.cpp:148] Top shape: 24 128 14 14 (602112)
I0403 15:14:05.991047 31328 net.cpp:156] Memory required for data: 1030800672
I0403 15:14:05.991065 31328 layer_factory.hpp:77] Creating layer inception_4c/relu_1x1
I0403 15:14:05.991086 31328 net.cpp:91] Creating Layer inception_4c/relu_1x1
I0403 15:14:05.991101 31328 net.cpp:425] inception_4c/relu_1x1 <- inception_4c/1x1
I0403 15:14:05.991118 31328 net.cpp:386] inception_4c/relu_1x1 -> inception_4c/1x1 (in-place)
I0403 15:14:05.991299 31328 net.cpp:141] Setting up inception_4c/relu_1x1
I0403 15:14:05.991324 31328 net.cpp:148] Top shape: 24 128 14 14 (602112)
I0403 15:14:05.991338 31328 net.cpp:156] Memory required for data: 1033209120
I0403 15:14:05.991353 31328 layer_factory.hpp:77] Creating layer inception_4c/3x3_reduce
I0403 15:14:05.991376 31328 net.cpp:91] Creating Layer inception_4c/3x3_reduce
I0403 15:14:05.991394 31328 net.cpp:425] inception_4c/3x3_reduce <- inception_4b/output_inception_4b/output_0_split_1
I0403 15:14:05.991412 31328 net.cpp:399] inception_4c/3x3_reduce -> inception_4c/3x3_reduce
I0403 15:14:05.993337 31328 net.cpp:141] Setting up inception_4c/3x3_reduce
I0403 15:14:05.993368 31328 net.cpp:148] Top shape: 24 128 14 14 (602112)
I0403 15:14:05.993384 31328 net.cpp:156] Memory required for data: 1035617568
I0403 15:14:05.993402 31328 layer_factory.hpp:77] Creating layer inception_4c/relu_3x3_reduce
I0403 15:14:05.993420 31328 net.cpp:91] Creating Layer inception_4c/relu_3x3_reduce
I0403 15:14:05.993437 31328 net.cpp:425] inception_4c/relu_3x3_reduce <- inception_4c/3x3_reduce
I0403 15:14:05.993455 31328 net.cpp:386] inception_4c/relu_3x3_reduce -> inception_4c/3x3_reduce (in-place)
I0403 15:14:05.993743 31328 net.cpp:141] Setting up inception_4c/relu_3x3_reduce
I0403 15:14:05.993772 31328 net.cpp:148] Top shape: 24 128 14 14 (602112)
I0403 15:14:05.993788 31328 net.cpp:156] Memory required for data: 1038026016
I0403 15:14:05.993803 31328 layer_factory.hpp:77] Creating layer inception_4c/3x3
I0403 15:14:05.993826 31328 net.cpp:91] Creating Layer inception_4c/3x3
I0403 15:14:05.993844 31328 net.cpp:425] inception_4c/3x3 <- inception_4c/3x3_reduce
I0403 15:14:05.993862 31328 net.cpp:399] inception_4c/3x3 -> inception_4c/3x3
I0403 15:14:05.997457 31328 net.cpp:141] Setting up inception_4c/3x3
I0403 15:14:05.997498 31328 net.cpp:148] Top shape: 24 256 14 14 (1204224)
I0403 15:14:05.997519 31328 net.cpp:156] Memory required for data: 1042842912
I0403 15:14:05.997552 31328 layer_factory.hpp:77] Creating layer inception_4c/relu_3x3
I0403 15:14:05.997575 31328 net.cpp:91] Creating Layer inception_4c/relu_3x3
I0403 15:14:05.997591 31328 net.cpp:425] inception_4c/relu_3x3 <- inception_4c/3x3
I0403 15:14:05.997609 31328 net.cpp:386] inception_4c/relu_3x3 -> inception_4c/3x3 (in-place)
I0403 15:14:05.997787 31328 net.cpp:141] Setting up inception_4c/relu_3x3
I0403 15:14:05.997813 31328 net.cpp:148] Top shape: 24 256 14 14 (1204224)
I0403 15:14:05.997829 31328 net.cpp:156] Memory required for data: 1047659808
I0403 15:14:05.997844 31328 layer_factory.hpp:77] Creating layer inception_4c/5x5_reduce
I0403 15:14:05.997867 31328 net.cpp:91] Creating Layer inception_4c/5x5_reduce
I0403 15:14:05.997884 31328 net.cpp:425] inception_4c/5x5_reduce <- inception_4b/output_inception_4b/output_0_split_2
I0403 15:14:05.997905 31328 net.cpp:399] inception_4c/5x5_reduce -> inception_4c/5x5_reduce
I0403 15:14:05.998981 31328 net.cpp:141] Setting up inception_4c/5x5_reduce
I0403 15:14:05.999011 31328 net.cpp:148] Top shape: 24 24 14 14 (112896)
I0403 15:14:05.999027 31328 net.cpp:156] Memory required for data: 1048111392
I0403 15:14:05.999045 31328 layer_factory.hpp:77] Creating layer inception_4c/relu_5x5_reduce
I0403 15:14:05.999063 31328 net.cpp:91] Creating Layer inception_4c/relu_5x5_reduce
I0403 15:14:05.999078 31328 net.cpp:425] inception_4c/relu_5x5_reduce <- inception_4c/5x5_reduce
I0403 15:14:05.999097 31328 net.cpp:386] inception_4c/relu_5x5_reduce -> inception_4c/5x5_reduce (in-place)
I0403 15:14:05.999282 31328 net.cpp:141] Setting up inception_4c/relu_5x5_reduce
I0403 15:14:05.999306 31328 net.cpp:148] Top shape: 24 24 14 14 (112896)
I0403 15:14:05.999321 31328 net.cpp:156] Memory required for data: 1048562976
I0403 15:14:05.999336 31328 layer_factory.hpp:77] Creating layer inception_4c/5x5
I0403 15:14:05.999357 31328 net.cpp:91] Creating Layer inception_4c/5x5
I0403 15:14:05.999374 31328 net.cpp:425] inception_4c/5x5 <- inception_4c/5x5_reduce
I0403 15:14:05.999393 31328 net.cpp:399] inception_4c/5x5 -> inception_4c/5x5
I0403 15:14:06.000669 31328 net.cpp:141] Setting up inception_4c/5x5
I0403 15:14:06.000697 31328 net.cpp:148] Top shape: 24 64 14 14 (301056)
I0403 15:14:06.000712 31328 net.cpp:156] Memory required for data: 1049767200
I0403 15:14:06.000731 31328 layer_factory.hpp:77] Creating layer inception_4c/relu_5x5
I0403 15:14:06.000752 31328 net.cpp:91] Creating Layer inception_4c/relu_5x5
I0403 15:14:06.000769 31328 net.cpp:425] inception_4c/relu_5x5 <- inception_4c/5x5
I0403 15:14:06.000787 31328 net.cpp:386] inception_4c/relu_5x5 -> inception_4c/5x5 (in-place)
I0403 15:14:06.001086 31328 net.cpp:141] Setting up inception_4c/relu_5x5
I0403 15:14:06.001113 31328 net.cpp:148] Top shape: 24 64 14 14 (301056)
I0403 15:14:06.001128 31328 net.cpp:156] Memory required for data: 1050971424
I0403 15:14:06.001143 31328 layer_factory.hpp:77] Creating layer inception_4c/pool
I0403 15:14:06.001163 31328 net.cpp:91] Creating Layer inception_4c/pool
I0403 15:14:06.001180 31328 net.cpp:425] inception_4c/pool <- inception_4b/output_inception_4b/output_0_split_3
I0403 15:14:06.001199 31328 net.cpp:399] inception_4c/pool -> inception_4c/pool
I0403 15:14:06.001267 31328 net.cpp:141] Setting up inception_4c/pool
I0403 15:14:06.001291 31328 net.cpp:148] Top shape: 24 512 14 14 (2408448)
I0403 15:14:06.001307 31328 net.cpp:156] Memory required for data: 1060605216
I0403 15:14:06.001320 31328 layer_factory.hpp:77] Creating layer inception_4c/pool_proj
I0403 15:14:06.001343 31328 net.cpp:91] Creating Layer inception_4c/pool_proj
I0403 15:14:06.001360 31328 net.cpp:425] inception_4c/pool_proj <- inception_4c/pool
I0403 15:14:06.001382 31328 net.cpp:399] inception_4c/pool_proj -> inception_4c/pool_proj
I0403 15:14:06.002650 31328 net.cpp:141] Setting up inception_4c/pool_proj
I0403 15:14:06.002678 31328 net.cpp:148] Top shape: 24 64 14 14 (301056)
I0403 15:14:06.002708 31328 net.cpp:156] Memory required for data: 1061809440
I0403 15:14:06.002728 31328 layer_factory.hpp:77] Creating layer inception_4c/relu_pool_proj
I0403 15:14:06.002746 31328 net.cpp:91] Creating Layer inception_4c/relu_pool_proj
I0403 15:14:06.002763 31328 net.cpp:425] inception_4c/relu_pool_proj <- inception_4c/pool_proj
I0403 15:14:06.002784 31328 net.cpp:386] inception_4c/relu_pool_proj -> inception_4c/pool_proj (in-place)
I0403 15:14:06.002985 31328 net.cpp:141] Setting up inception_4c/relu_pool_proj
I0403 15:14:06.003010 31328 net.cpp:148] Top shape: 24 64 14 14 (301056)
I0403 15:14:06.003024 31328 net.cpp:156] Memory required for data: 1063013664
I0403 15:14:06.003038 31328 layer_factory.hpp:77] Creating layer inception_4c/output
I0403 15:14:06.003056 31328 net.cpp:91] Creating Layer inception_4c/output
I0403 15:14:06.003070 31328 net.cpp:425] inception_4c/output <- inception_4c/1x1
I0403 15:14:06.003087 31328 net.cpp:425] inception_4c/output <- inception_4c/3x3
I0403 15:14:06.003105 31328 net.cpp:425] inception_4c/output <- inception_4c/5x5
I0403 15:14:06.003120 31328 net.cpp:425] inception_4c/output <- inception_4c/pool_proj
I0403 15:14:06.003137 31328 net.cpp:399] inception_4c/output -> inception_4c/output
I0403 15:14:06.003182 31328 net.cpp:141] Setting up inception_4c/output
I0403 15:14:06.003207 31328 net.cpp:148] Top shape: 24 512 14 14 (2408448)
I0403 15:14:06.003222 31328 net.cpp:156] Memory required for data: 1072647456
I0403 15:14:06.003237 31328 layer_factory.hpp:77] Creating layer inception_4c/output_inception_4c/output_0_split
I0403 15:14:06.003253 31328 net.cpp:91] Creating Layer inception_4c/output_inception_4c/output_0_split
I0403 15:14:06.003268 31328 net.cpp:425] inception_4c/output_inception_4c/output_0_split <- inception_4c/output
I0403 15:14:06.003288 31328 net.cpp:399] inception_4c/output_inception_4c/output_0_split -> inception_4c/output_inception_4c/output_0_split_0
I0403 15:14:06.003309 31328 net.cpp:399] inception_4c/output_inception_4c/output_0_split -> inception_4c/output_inception_4c/output_0_split_1
I0403 15:14:06.003329 31328 net.cpp:399] inception_4c/output_inception_4c/output_0_split -> inception_4c/output_inception_4c/output_0_split_2
I0403 15:14:06.003347 31328 net.cpp:399] inception_4c/output_inception_4c/output_0_split -> inception_4c/output_inception_4c/output_0_split_3
I0403 15:14:06.003432 31328 net.cpp:141] Setting up inception_4c/output_inception_4c/output_0_split
I0403 15:14:06.003456 31328 net.cpp:148] Top shape: 24 512 14 14 (2408448)
I0403 15:14:06.003473 31328 net.cpp:148] Top shape: 24 512 14 14 (2408448)
I0403 15:14:06.003489 31328 net.cpp:148] Top shape: 24 512 14 14 (2408448)
I0403 15:14:06.003507 31328 net.cpp:148] Top shape: 24 512 14 14 (2408448)
I0403 15:14:06.003535 31328 net.cpp:156] Memory required for data: 1111182624
I0403 15:14:06.003548 31328 layer_factory.hpp:77] Creating layer inception_4d/1x1
I0403 15:14:06.003569 31328 net.cpp:91] Creating Layer inception_4d/1x1
I0403 15:14:06.003585 31328 net.cpp:425] inception_4d/1x1 <- inception_4c/output_inception_4c/output_0_split_0
I0403 15:14:06.003607 31328 net.cpp:399] inception_4d/1x1 -> inception_4d/1x1
I0403 15:14:06.005087 31328 net.cpp:141] Setting up inception_4d/1x1
I0403 15:14:06.005115 31328 net.cpp:148] Top shape: 24 112 14 14 (526848)
I0403 15:14:06.005132 31328 net.cpp:156] Memory required for data: 1113290016
I0403 15:14:06.005151 31328 layer_factory.hpp:77] Creating layer inception_4d/relu_1x1
I0403 15:14:06.005167 31328 net.cpp:91] Creating Layer inception_4d/relu_1x1
I0403 15:14:06.005182 31328 net.cpp:425] inception_4d/relu_1x1 <- inception_4d/1x1
I0403 15:14:06.005198 31328 net.cpp:386] inception_4d/relu_1x1 -> inception_4d/1x1 (in-place)
I0403 15:14:06.005375 31328 net.cpp:141] Setting up inception_4d/relu_1x1
I0403 15:14:06.005401 31328 net.cpp:148] Top shape: 24 112 14 14 (526848)
I0403 15:14:06.005415 31328 net.cpp:156] Memory required for data: 1115397408
I0403 15:14:06.005430 31328 layer_factory.hpp:77] Creating layer inception_4d/3x3_reduce
I0403 15:14:06.005465 31328 net.cpp:91] Creating Layer inception_4d/3x3_reduce
I0403 15:14:06.005482 31328 net.cpp:425] inception_4d/3x3_reduce <- inception_4c/output_inception_4c/output_0_split_1
I0403 15:14:06.005501 31328 net.cpp:399] inception_4d/3x3_reduce -> inception_4d/3x3_reduce
I0403 15:14:06.007036 31328 net.cpp:141] Setting up inception_4d/3x3_reduce
I0403 15:14:06.007063 31328 net.cpp:148] Top shape: 24 144 14 14 (677376)
I0403 15:14:06.007077 31328 net.cpp:156] Memory required for data: 1118106912
I0403 15:14:06.007096 31328 layer_factory.hpp:77] Creating layer inception_4d/relu_3x3_reduce
I0403 15:14:06.007114 31328 net.cpp:91] Creating Layer inception_4d/relu_3x3_reduce
I0403 15:14:06.007131 31328 net.cpp:425] inception_4d/relu_3x3_reduce <- inception_4d/3x3_reduce
I0403 15:14:06.007148 31328 net.cpp:386] inception_4d/relu_3x3_reduce -> inception_4d/3x3_reduce (in-place)
I0403 15:14:06.007429 31328 net.cpp:141] Setting up inception_4d/relu_3x3_reduce
I0403 15:14:06.007455 31328 net.cpp:148] Top shape: 24 144 14 14 (677376)
I0403 15:14:06.007469 31328 net.cpp:156] Memory required for data: 1120816416
I0403 15:14:06.007484 31328 layer_factory.hpp:77] Creating layer inception_4d/3x3
I0403 15:14:06.007509 31328 net.cpp:91] Creating Layer inception_4d/3x3
I0403 15:14:06.007539 31328 net.cpp:425] inception_4d/3x3 <- inception_4d/3x3_reduce
I0403 15:14:06.007560 31328 net.cpp:399] inception_4d/3x3 -> inception_4d/3x3
I0403 15:14:06.011772 31328 net.cpp:141] Setting up inception_4d/3x3
I0403 15:14:06.011800 31328 net.cpp:148] Top shape: 24 288 14 14 (1354752)
I0403 15:14:06.011814 31328 net.cpp:156] Memory required for data: 1126235424
I0403 15:14:06.011832 31328 layer_factory.hpp:77] Creating layer inception_4d/relu_3x3
I0403 15:14:06.011852 31328 net.cpp:91] Creating Layer inception_4d/relu_3x3
I0403 15:14:06.011868 31328 net.cpp:425] inception_4d/relu_3x3 <- inception_4d/3x3
I0403 15:14:06.011884 31328 net.cpp:386] inception_4d/relu_3x3 -> inception_4d/3x3 (in-place)
I0403 15:14:06.012064 31328 net.cpp:141] Setting up inception_4d/relu_3x3
I0403 15:14:06.012328 31328 net.cpp:148] Top shape: 24 288 14 14 (1354752)
I0403 15:14:06.012346 31328 net.cpp:156] Memory required for data: 1131654432
I0403 15:14:06.012361 31328 layer_factory.hpp:77] Creating layer inception_4d/5x5_reduce
I0403 15:14:06.012382 31328 net.cpp:91] Creating Layer inception_4d/5x5_reduce
I0403 15:14:06.012399 31328 net.cpp:425] inception_4d/5x5_reduce <- inception_4c/output_inception_4c/output_0_split_2
I0403 15:14:06.012419 31328 net.cpp:399] inception_4d/5x5_reduce -> inception_4d/5x5_reduce
I0403 15:14:06.013545 31328 net.cpp:141] Setting up inception_4d/5x5_reduce
I0403 15:14:06.013576 31328 net.cpp:148] Top shape: 24 32 14 14 (150528)
I0403 15:14:06.013592 31328 net.cpp:156] Memory required for data: 1132256544
I0403 15:14:06.013609 31328 layer_factory.hpp:77] Creating layer inception_4d/relu_5x5_reduce
I0403 15:14:06.013628 31328 net.cpp:91] Creating Layer inception_4d/relu_5x5_reduce
I0403 15:14:06.013643 31328 net.cpp:425] inception_4d/relu_5x5_reduce <- inception_4d/5x5_reduce
I0403 15:14:06.013659 31328 net.cpp:386] inception_4d/relu_5x5_reduce -> inception_4d/5x5_reduce (in-place)
I0403 15:14:06.013841 31328 net.cpp:141] Setting up inception_4d/relu_5x5_reduce
I0403 15:14:06.013866 31328 net.cpp:148] Top shape: 24 32 14 14 (150528)
I0403 15:14:06.013881 31328 net.cpp:156] Memory required for data: 1132858656
I0403 15:14:06.013895 31328 layer_factory.hpp:77] Creating layer inception_4d/5x5
I0403 15:14:06.013916 31328 net.cpp:91] Creating Layer inception_4d/5x5
I0403 15:14:06.013933 31328 net.cpp:425] inception_4d/5x5 <- inception_4d/5x5_reduce
I0403 15:14:06.013952 31328 net.cpp:399] inception_4d/5x5 -> inception_4d/5x5
I0403 15:14:06.015398 31328 net.cpp:141] Setting up inception_4d/5x5
I0403 15:14:06.015425 31328 net.cpp:148] Top shape: 24 64 14 14 (301056)
I0403 15:14:06.015440 31328 net.cpp:156] Memory required for data: 1134062880
I0403 15:14:06.015457 31328 layer_factory.hpp:77] Creating layer inception_4d/relu_5x5
I0403 15:14:06.015491 31328 net.cpp:91] Creating Layer inception_4d/relu_5x5
I0403 15:14:06.015516 31328 net.cpp:425] inception_4d/relu_5x5 <- inception_4d/5x5
I0403 15:14:06.015533 31328 net.cpp:386] inception_4d/relu_5x5 -> inception_4d/5x5 (in-place)
I0403 15:14:06.015830 31328 net.cpp:141] Setting up inception_4d/relu_5x5
I0403 15:14:06.015854 31328 net.cpp:148] Top shape: 24 64 14 14 (301056)
I0403 15:14:06.015868 31328 net.cpp:156] Memory required for data: 1135267104
I0403 15:14:06.015883 31328 layer_factory.hpp:77] Creating layer inception_4d/pool
I0403 15:14:06.015900 31328 net.cpp:91] Creating Layer inception_4d/pool
I0403 15:14:06.015915 31328 net.cpp:425] inception_4d/pool <- inception_4c/output_inception_4c/output_0_split_3
I0403 15:14:06.015934 31328 net.cpp:399] inception_4d/pool -> inception_4d/pool
I0403 15:14:06.015998 31328 net.cpp:141] Setting up inception_4d/pool
I0403 15:14:06.016023 31328 net.cpp:148] Top shape: 24 512 14 14 (2408448)
I0403 15:14:06.016038 31328 net.cpp:156] Memory required for data: 1144900896
I0403 15:14:06.016052 31328 layer_factory.hpp:77] Creating layer inception_4d/pool_proj
I0403 15:14:06.016073 31328 net.cpp:91] Creating Layer inception_4d/pool_proj
I0403 15:14:06.016090 31328 net.cpp:425] inception_4d/pool_proj <- inception_4d/pool
I0403 15:14:06.016108 31328 net.cpp:399] inception_4d/pool_proj -> inception_4d/pool_proj
I0403 15:14:06.017838 31328 net.cpp:141] Setting up inception_4d/pool_proj
I0403 15:14:06.017866 31328 net.cpp:148] Top shape: 24 64 14 14 (301056)
I0403 15:14:06.017880 31328 net.cpp:156] Memory required for data: 1146105120
I0403 15:14:06.017899 31328 layer_factory.hpp:77] Creating layer inception_4d/relu_pool_proj
I0403 15:14:06.017918 31328 net.cpp:91] Creating Layer inception_4d/relu_pool_proj
I0403 15:14:06.017935 31328 net.cpp:425] inception_4d/relu_pool_proj <- inception_4d/pool_proj
I0403 15:14:06.017951 31328 net.cpp:386] inception_4d/relu_pool_proj -> inception_4d/pool_proj (in-place)
I0403 15:14:06.018134 31328 net.cpp:141] Setting up inception_4d/relu_pool_proj
I0403 15:14:06.018158 31328 net.cpp:148] Top shape: 24 64 14 14 (301056)
I0403 15:14:06.018172 31328 net.cpp:156] Memory required for data: 1147309344
I0403 15:14:06.018185 31328 layer_factory.hpp:77] Creating layer inception_4d/output
I0403 15:14:06.018201 31328 net.cpp:91] Creating Layer inception_4d/output
I0403 15:14:06.018216 31328 net.cpp:425] inception_4d/output <- inception_4d/1x1
I0403 15:14:06.018231 31328 net.cpp:425] inception_4d/output <- inception_4d/3x3
I0403 15:14:06.018246 31328 net.cpp:425] inception_4d/output <- inception_4d/5x5
I0403 15:14:06.018261 31328 net.cpp:425] inception_4d/output <- inception_4d/pool_proj
I0403 15:14:06.018280 31328 net.cpp:399] inception_4d/output -> inception_4d/output
I0403 15:14:06.018324 31328 net.cpp:141] Setting up inception_4d/output
I0403 15:14:06.018349 31328 net.cpp:148] Top shape: 24 528 14 14 (2483712)
I0403 15:14:06.018363 31328 net.cpp:156] Memory required for data: 1157244192
I0403 15:14:06.018378 31328 layer_factory.hpp:77] Creating layer inception_4d/output_inception_4d/output_0_split
I0403 15:14:06.018393 31328 net.cpp:91] Creating Layer inception_4d/output_inception_4d/output_0_split
I0403 15:14:06.018409 31328 net.cpp:425] inception_4d/output_inception_4d/output_0_split <- inception_4d/output
I0403 15:14:06.018424 31328 net.cpp:399] inception_4d/output_inception_4d/output_0_split -> inception_4d/output_inception_4d/output_0_split_0
I0403 15:14:06.018445 31328 net.cpp:399] inception_4d/output_inception_4d/output_0_split -> inception_4d/output_inception_4d/output_0_split_1
I0403 15:14:06.018465 31328 net.cpp:399] inception_4d/output_inception_4d/output_0_split -> inception_4d/output_inception_4d/output_0_split_2
I0403 15:14:06.018486 31328 net.cpp:399] inception_4d/output_inception_4d/output_0_split -> inception_4d/output_inception_4d/output_0_split_3
I0403 15:14:06.018507 31328 net.cpp:399] inception_4d/output_inception_4d/output_0_split -> inception_4d/output_inception_4d/output_0_split_4
I0403 15:14:06.018609 31328 net.cpp:141] Setting up inception_4d/output_inception_4d/output_0_split
I0403 15:14:06.018642 31328 net.cpp:148] Top shape: 24 528 14 14 (2483712)
I0403 15:14:06.018658 31328 net.cpp:148] Top shape: 24 528 14 14 (2483712)
I0403 15:14:06.018673 31328 net.cpp:148] Top shape: 24 528 14 14 (2483712)
I0403 15:14:06.018687 31328 net.cpp:148] Top shape: 24 528 14 14 (2483712)
I0403 15:14:06.018702 31328 net.cpp:148] Top shape: 24 528 14 14 (2483712)
I0403 15:14:06.018715 31328 net.cpp:156] Memory required for data: 1206918432
I0403 15:14:06.018728 31328 layer_factory.hpp:77] Creating layer loss2/ave_pool
I0403 15:14:06.018748 31328 net.cpp:91] Creating Layer loss2/ave_pool
I0403 15:14:06.018764 31328 net.cpp:425] loss2/ave_pool <- inception_4d/output_inception_4d/output_0_split_0
I0403 15:14:06.018780 31328 net.cpp:399] loss2/ave_pool -> loss2/ave_pool
I0403 15:14:06.019091 31328 net.cpp:141] Setting up loss2/ave_pool
I0403 15:14:06.019117 31328 net.cpp:148] Top shape: 24 528 4 4 (202752)
I0403 15:14:06.019131 31328 net.cpp:156] Memory required for data: 1207729440
I0403 15:14:06.019146 31328 layer_factory.hpp:77] Creating layer loss2/conv
I0403 15:14:06.019170 31328 net.cpp:91] Creating Layer loss2/conv
I0403 15:14:06.019187 31328 net.cpp:425] loss2/conv <- loss2/ave_pool
I0403 15:14:06.019207 31328 net.cpp:399] loss2/conv -> loss2/conv
I0403 15:14:06.021117 31328 net.cpp:141] Setting up loss2/conv
I0403 15:14:06.021147 31328 net.cpp:148] Top shape: 24 128 4 4 (49152)
I0403 15:14:06.021162 31328 net.cpp:156] Memory required for data: 1207926048
I0403 15:14:06.021180 31328 layer_factory.hpp:77] Creating layer loss2/relu_conv
I0403 15:14:06.021199 31328 net.cpp:91] Creating Layer loss2/relu_conv
I0403 15:14:06.021215 31328 net.cpp:425] loss2/relu_conv <- loss2/conv
I0403 15:14:06.021234 31328 net.cpp:386] loss2/relu_conv -> loss2/conv (in-place)
I0403 15:14:06.021523 31328 net.cpp:141] Setting up loss2/relu_conv
I0403 15:14:06.021550 31328 net.cpp:148] Top shape: 24 128 4 4 (49152)
I0403 15:14:06.021565 31328 net.cpp:156] Memory required for data: 1208122656
I0403 15:14:06.021580 31328 layer_factory.hpp:77] Creating layer loss2/fc
I0403 15:14:06.021600 31328 net.cpp:91] Creating Layer loss2/fc
I0403 15:14:06.021615 31328 net.cpp:425] loss2/fc <- loss2/conv
I0403 15:14:06.021636 31328 net.cpp:399] loss2/fc -> loss2/fc
I0403 15:14:06.039293 31328 net.cpp:141] Setting up loss2/fc
I0403 15:14:06.039325 31328 net.cpp:148] Top shape: 24 1024 (24576)
I0403 15:14:06.039340 31328 net.cpp:156] Memory required for data: 1208220960
I0403 15:14:06.039360 31328 layer_factory.hpp:77] Creating layer loss2/relu_fc
I0403 15:14:06.039377 31328 net.cpp:91] Creating Layer loss2/relu_fc
I0403 15:14:06.039392 31328 net.cpp:425] loss2/relu_fc <- loss2/fc
I0403 15:14:06.039408 31328 net.cpp:386] loss2/relu_fc -> loss2/fc (in-place)
I0403 15:14:06.039705 31328 net.cpp:141] Setting up loss2/relu_fc
I0403 15:14:06.039732 31328 net.cpp:148] Top shape: 24 1024 (24576)
I0403 15:14:06.039748 31328 net.cpp:156] Memory required for data: 1208319264
I0403 15:14:06.039762 31328 layer_factory.hpp:77] Creating layer loss2/drop_fc
I0403 15:14:06.039780 31328 net.cpp:91] Creating Layer loss2/drop_fc
I0403 15:14:06.039795 31328 net.cpp:425] loss2/drop_fc <- loss2/fc
I0403 15:14:06.039813 31328 net.cpp:386] loss2/drop_fc -> loss2/fc (in-place)
I0403 15:14:06.039862 31328 net.cpp:141] Setting up loss2/drop_fc
I0403 15:14:06.039885 31328 net.cpp:148] Top shape: 24 1024 (24576)
I0403 15:14:06.039897 31328 net.cpp:156] Memory required for data: 1208417568
I0403 15:14:06.039911 31328 layer_factory.hpp:77] Creating layer loss2/classifier_plantvillage
I0403 15:14:06.039932 31328 net.cpp:91] Creating Layer loss2/classifier_plantvillage
I0403 15:14:06.039947 31328 net.cpp:425] loss2/classifier_plantvillage <- loss2/fc
I0403 15:14:06.039964 31328 net.cpp:399] loss2/classifier_plantvillage -> loss2/classifier_plantvillage
I0403 15:14:06.040361 31328 net.cpp:141] Setting up loss2/classifier_plantvillage
I0403 15:14:06.040385 31328 net.cpp:148] Top shape: 24 38 (912)
I0403 15:14:06.040413 31328 net.cpp:156] Memory required for data: 1208421216
I0403 15:14:06.040431 31328 layer_factory.hpp:77] Creating layer loss2/classifier_plantvillage_loss2/classifier_plantvillage_0_split
I0403 15:14:06.040449 31328 net.cpp:91] Creating Layer loss2/classifier_plantvillage_loss2/classifier_plantvillage_0_split
I0403 15:14:06.040464 31328 net.cpp:425] loss2/classifier_plantvillage_loss2/classifier_plantvillage_0_split <- loss2/classifier_plantvillage
I0403 15:14:06.040488 31328 net.cpp:399] loss2/classifier_plantvillage_loss2/classifier_plantvillage_0_split -> loss2/classifier_plantvillage_loss2/classifier_plantvillage_0_split_0
I0403 15:14:06.040511 31328 net.cpp:399] loss2/classifier_plantvillage_loss2/classifier_plantvillage_0_split -> loss2/classifier_plantvillage_loss2/classifier_plantvillage_0_split_1
I0403 15:14:06.040532 31328 net.cpp:399] loss2/classifier_plantvillage_loss2/classifier_plantvillage_0_split -> loss2/classifier_plantvillage_loss2/classifier_plantvillage_0_split_2
I0403 15:14:06.040609 31328 net.cpp:141] Setting up loss2/classifier_plantvillage_loss2/classifier_plantvillage_0_split
I0403 15:14:06.040632 31328 net.cpp:148] Top shape: 24 38 (912)
I0403 15:14:06.040647 31328 net.cpp:148] Top shape: 24 38 (912)
I0403 15:14:06.040662 31328 net.cpp:148] Top shape: 24 38 (912)
I0403 15:14:06.040674 31328 net.cpp:156] Memory required for data: 1208432160
I0403 15:14:06.040688 31328 layer_factory.hpp:77] Creating layer inception_4e/1x1
I0403 15:14:06.040710 31328 net.cpp:91] Creating Layer inception_4e/1x1
I0403 15:14:06.040727 31328 net.cpp:425] inception_4e/1x1 <- inception_4d/output_inception_4d/output_0_split_1
I0403 15:14:06.040745 31328 net.cpp:399] inception_4e/1x1 -> inception_4e/1x1
I0403 15:14:06.042516 31328 net.cpp:141] Setting up inception_4e/1x1
I0403 15:14:06.042543 31328 net.cpp:148] Top shape: 24 256 14 14 (1204224)
I0403 15:14:06.042558 31328 net.cpp:156] Memory required for data: 1213249056
I0403 15:14:06.042577 31328 layer_factory.hpp:77] Creating layer inception_4e/relu_1x1
I0403 15:14:06.042598 31328 net.cpp:91] Creating Layer inception_4e/relu_1x1
I0403 15:14:06.042614 31328 net.cpp:425] inception_4e/relu_1x1 <- inception_4e/1x1
I0403 15:14:06.042630 31328 net.cpp:386] inception_4e/relu_1x1 -> inception_4e/1x1 (in-place)
I0403 15:14:06.042919 31328 net.cpp:141] Setting up inception_4e/relu_1x1
I0403 15:14:06.042944 31328 net.cpp:148] Top shape: 24 256 14 14 (1204224)
I0403 15:14:06.042959 31328 net.cpp:156] Memory required for data: 1218065952
I0403 15:14:06.042973 31328 layer_factory.hpp:77] Creating layer inception_4e/3x3_reduce
I0403 15:14:06.042995 31328 net.cpp:91] Creating Layer inception_4e/3x3_reduce
I0403 15:14:06.043011 31328 net.cpp:425] inception_4e/3x3_reduce <- inception_4d/output_inception_4d/output_0_split_2
I0403 15:14:06.043031 31328 net.cpp:399] inception_4e/3x3_reduce -> inception_4e/3x3_reduce
I0403 15:14:06.045137 31328 net.cpp:141] Setting up inception_4e/3x3_reduce
I0403 15:14:06.045166 31328 net.cpp:148] Top shape: 24 160 14 14 (752640)
I0403 15:14:06.045181 31328 net.cpp:156] Memory required for data: 1221076512
I0403 15:14:06.045198 31328 layer_factory.hpp:77] Creating layer inception_4e/relu_3x3_reduce
I0403 15:14:06.045217 31328 net.cpp:91] Creating Layer inception_4e/relu_3x3_reduce
I0403 15:14:06.045231 31328 net.cpp:425] inception_4e/relu_3x3_reduce <- inception_4e/3x3_reduce
I0403 15:14:06.045249 31328 net.cpp:386] inception_4e/relu_3x3_reduce -> inception_4e/3x3_reduce (in-place)
I0403 15:14:06.045433 31328 net.cpp:141] Setting up inception_4e/relu_3x3_reduce
I0403 15:14:06.045456 31328 net.cpp:148] Top shape: 24 160 14 14 (752640)
I0403 15:14:06.045470 31328 net.cpp:156] Memory required for data: 1224087072
I0403 15:14:06.045485 31328 layer_factory.hpp:77] Creating layer inception_4e/3x3
I0403 15:14:06.045509 31328 net.cpp:91] Creating Layer inception_4e/3x3
I0403 15:14:06.045527 31328 net.cpp:425] inception_4e/3x3 <- inception_4e/3x3_reduce
I0403 15:14:06.045547 31328 net.cpp:399] inception_4e/3x3 -> inception_4e/3x3
I0403 15:14:06.050401 31328 net.cpp:141] Setting up inception_4e/3x3
I0403 15:14:06.050441 31328 net.cpp:148] Top shape: 24 320 14 14 (1505280)
I0403 15:14:06.050457 31328 net.cpp:156] Memory required for data: 1230108192
I0403 15:14:06.050475 31328 layer_factory.hpp:77] Creating layer inception_4e/relu_3x3
I0403 15:14:06.050496 31328 net.cpp:91] Creating Layer inception_4e/relu_3x3
I0403 15:14:06.050518 31328 net.cpp:425] inception_4e/relu_3x3 <- inception_4e/3x3
I0403 15:14:06.050534 31328 net.cpp:386] inception_4e/relu_3x3 -> inception_4e/3x3 (in-place)
I0403 15:14:06.050832 31328 net.cpp:141] Setting up inception_4e/relu_3x3
I0403 15:14:06.050859 31328 net.cpp:148] Top shape: 24 320 14 14 (1505280)
I0403 15:14:06.050873 31328 net.cpp:156] Memory required for data: 1236129312
I0403 15:14:06.050889 31328 layer_factory.hpp:77] Creating layer inception_4e/5x5_reduce
I0403 15:14:06.050907 31328 net.cpp:91] Creating Layer inception_4e/5x5_reduce
I0403 15:14:06.050923 31328 net.cpp:425] inception_4e/5x5_reduce <- inception_4d/output_inception_4d/output_0_split_3
I0403 15:14:06.050945 31328 net.cpp:399] inception_4e/5x5_reduce -> inception_4e/5x5_reduce
I0403 15:14:06.051995 31328 net.cpp:141] Setting up inception_4e/5x5_reduce
I0403 15:14:06.052022 31328 net.cpp:148] Top shape: 24 32 14 14 (150528)
I0403 15:14:06.052037 31328 net.cpp:156] Memory required for data: 1236731424
I0403 15:14:06.052054 31328 layer_factory.hpp:77] Creating layer inception_4e/relu_5x5_reduce
I0403 15:14:06.052072 31328 net.cpp:91] Creating Layer inception_4e/relu_5x5_reduce
I0403 15:14:06.052089 31328 net.cpp:425] inception_4e/relu_5x5_reduce <- inception_4e/5x5_reduce
I0403 15:14:06.052108 31328 net.cpp:386] inception_4e/relu_5x5_reduce -> inception_4e/5x5_reduce (in-place)
I0403 15:14:06.052397 31328 net.cpp:141] Setting up inception_4e/relu_5x5_reduce
I0403 15:14:06.052423 31328 net.cpp:148] Top shape: 24 32 14 14 (150528)
I0403 15:14:06.052436 31328 net.cpp:156] Memory required for data: 1237333536
I0403 15:14:06.052450 31328 layer_factory.hpp:77] Creating layer inception_4e/5x5
I0403 15:14:06.052489 31328 net.cpp:91] Creating Layer inception_4e/5x5
I0403 15:14:06.052511 31328 net.cpp:425] inception_4e/5x5 <- inception_4e/5x5_reduce
I0403 15:14:06.052532 31328 net.cpp:399] inception_4e/5x5 -> inception_4e/5x5
I0403 15:14:06.054329 31328 net.cpp:141] Setting up inception_4e/5x5
I0403 15:14:06.054358 31328 net.cpp:148] Top shape: 24 128 14 14 (602112)
I0403 15:14:06.054375 31328 net.cpp:156] Memory required for data: 1239741984
I0403 15:14:06.054394 31328 layer_factory.hpp:77] Creating layer inception_4e/relu_5x5
I0403 15:14:06.054410 31328 net.cpp:91] Creating Layer inception_4e/relu_5x5
I0403 15:14:06.054426 31328 net.cpp:425] inception_4e/relu_5x5 <- inception_4e/5x5
I0403 15:14:06.054445 31328 net.cpp:386] inception_4e/relu_5x5 -> inception_4e/5x5 (in-place)
I0403 15:14:06.054648 31328 net.cpp:141] Setting up inception_4e/relu_5x5
I0403 15:14:06.054673 31328 net.cpp:148] Top shape: 24 128 14 14 (602112)
I0403 15:14:06.054687 31328 net.cpp:156] Memory required for data: 1242150432
I0403 15:14:06.054700 31328 layer_factory.hpp:77] Creating layer inception_4e/pool
I0403 15:14:06.054718 31328 net.cpp:91] Creating Layer inception_4e/pool
I0403 15:14:06.054733 31328 net.cpp:425] inception_4e/pool <- inception_4d/output_inception_4d/output_0_split_4
I0403 15:14:06.054752 31328 net.cpp:399] inception_4e/pool -> inception_4e/pool
I0403 15:14:06.054823 31328 net.cpp:141] Setting up inception_4e/pool
I0403 15:14:06.054847 31328 net.cpp:148] Top shape: 24 528 14 14 (2483712)
I0403 15:14:06.054860 31328 net.cpp:156] Memory required for data: 1252085280
I0403 15:14:06.054873 31328 layer_factory.hpp:77] Creating layer inception_4e/pool_proj
I0403 15:14:06.054896 31328 net.cpp:91] Creating Layer inception_4e/pool_proj
I0403 15:14:06.054913 31328 net.cpp:425] inception_4e/pool_proj <- inception_4e/pool
I0403 15:14:06.054931 31328 net.cpp:399] inception_4e/pool_proj -> inception_4e/pool_proj
I0403 15:14:06.056394 31328 net.cpp:141] Setting up inception_4e/pool_proj
I0403 15:14:06.056434 31328 net.cpp:148] Top shape: 24 128 14 14 (602112)
I0403 15:14:06.056449 31328 net.cpp:156] Memory required for data: 1254493728
I0403 15:14:06.056468 31328 layer_factory.hpp:77] Creating layer inception_4e/relu_pool_proj
I0403 15:14:06.056484 31328 net.cpp:91] Creating Layer inception_4e/relu_pool_proj
I0403 15:14:06.056499 31328 net.cpp:425] inception_4e/relu_pool_proj <- inception_4e/pool_proj
I0403 15:14:06.056522 31328 net.cpp:386] inception_4e/relu_pool_proj -> inception_4e/pool_proj (in-place)
I0403 15:14:06.056807 31328 net.cpp:141] Setting up inception_4e/relu_pool_proj
I0403 15:14:06.056835 31328 net.cpp:148] Top shape: 24 128 14 14 (602112)
I0403 15:14:06.056851 31328 net.cpp:156] Memory required for data: 1256902176
I0403 15:14:06.056865 31328 layer_factory.hpp:77] Creating layer inception_4e/output
I0403 15:14:06.056882 31328 net.cpp:91] Creating Layer inception_4e/output
I0403 15:14:06.056896 31328 net.cpp:425] inception_4e/output <- inception_4e/1x1
I0403 15:14:06.056912 31328 net.cpp:425] inception_4e/output <- inception_4e/3x3
I0403 15:14:06.056927 31328 net.cpp:425] inception_4e/output <- inception_4e/5x5
I0403 15:14:06.056949 31328 net.cpp:425] inception_4e/output <- inception_4e/pool_proj
I0403 15:14:06.056967 31328 net.cpp:399] inception_4e/output -> inception_4e/output
I0403 15:14:06.057016 31328 net.cpp:141] Setting up inception_4e/output
I0403 15:14:06.057039 31328 net.cpp:148] Top shape: 24 832 14 14 (3913728)
I0403 15:14:06.057052 31328 net.cpp:156] Memory required for data: 1272557088
I0403 15:14:06.057065 31328 layer_factory.hpp:77] Creating layer pool4/3x3_s2
I0403 15:14:06.057085 31328 net.cpp:91] Creating Layer pool4/3x3_s2
I0403 15:14:06.057101 31328 net.cpp:425] pool4/3x3_s2 <- inception_4e/output
I0403 15:14:06.057117 31328 net.cpp:399] pool4/3x3_s2 -> pool4/3x3_s2
I0403 15:14:06.057184 31328 net.cpp:141] Setting up pool4/3x3_s2
I0403 15:14:06.057207 31328 net.cpp:148] Top shape: 24 832 7 7 (978432)
I0403 15:14:06.057221 31328 net.cpp:156] Memory required for data: 1276470816
I0403 15:14:06.057241 31328 layer_factory.hpp:77] Creating layer pool4/3x3_s2_pool4/3x3_s2_0_split
I0403 15:14:06.057260 31328 net.cpp:91] Creating Layer pool4/3x3_s2_pool4/3x3_s2_0_split
I0403 15:14:06.057276 31328 net.cpp:425] pool4/3x3_s2_pool4/3x3_s2_0_split <- pool4/3x3_s2
I0403 15:14:06.057293 31328 net.cpp:399] pool4/3x3_s2_pool4/3x3_s2_0_split -> pool4/3x3_s2_pool4/3x3_s2_0_split_0
I0403 15:14:06.057313 31328 net.cpp:399] pool4/3x3_s2_pool4/3x3_s2_0_split -> pool4/3x3_s2_pool4/3x3_s2_0_split_1
I0403 15:14:06.057332 31328 net.cpp:399] pool4/3x3_s2_pool4/3x3_s2_0_split -> pool4/3x3_s2_pool4/3x3_s2_0_split_2
I0403 15:14:06.057353 31328 net.cpp:399] pool4/3x3_s2_pool4/3x3_s2_0_split -> pool4/3x3_s2_pool4/3x3_s2_0_split_3
I0403 15:14:06.057440 31328 net.cpp:141] Setting up pool4/3x3_s2_pool4/3x3_s2_0_split
I0403 15:14:06.057463 31328 net.cpp:148] Top shape: 24 832 7 7 (978432)
I0403 15:14:06.057479 31328 net.cpp:148] Top shape: 24 832 7 7 (978432)
I0403 15:14:06.057493 31328 net.cpp:148] Top shape: 24 832 7 7 (978432)
I0403 15:14:06.057513 31328 net.cpp:148] Top shape: 24 832 7 7 (978432)
I0403 15:14:06.057528 31328 net.cpp:156] Memory required for data: 1292125728
I0403 15:14:06.057543 31328 layer_factory.hpp:77] Creating layer inception_5a/1x1
I0403 15:14:06.057565 31328 net.cpp:91] Creating Layer inception_5a/1x1
I0403 15:14:06.057582 31328 net.cpp:425] inception_5a/1x1 <- pool4/3x3_s2_pool4/3x3_s2_0_split_0
I0403 15:14:06.057600 31328 net.cpp:399] inception_5a/1x1 -> inception_5a/1x1
I0403 15:14:06.060494 31328 net.cpp:141] Setting up inception_5a/1x1
I0403 15:14:06.060531 31328 net.cpp:148] Top shape: 24 256 7 7 (301056)
I0403 15:14:06.060546 31328 net.cpp:156] Memory required for data: 1293329952
I0403 15:14:06.060564 31328 layer_factory.hpp:77] Creating layer inception_5a/relu_1x1
I0403 15:14:06.060581 31328 net.cpp:91] Creating Layer inception_5a/relu_1x1
I0403 15:14:06.060598 31328 net.cpp:425] inception_5a/relu_1x1 <- inception_5a/1x1
I0403 15:14:06.060617 31328 net.cpp:386] inception_5a/relu_1x1 -> inception_5a/1x1 (in-place)
I0403 15:14:06.060925 31328 net.cpp:141] Setting up inception_5a/relu_1x1
I0403 15:14:06.060950 31328 net.cpp:148] Top shape: 24 256 7 7 (301056)
I0403 15:14:06.060964 31328 net.cpp:156] Memory required for data: 1294534176
I0403 15:14:06.060979 31328 layer_factory.hpp:77] Creating layer inception_5a/3x3_reduce
I0403 15:14:06.061002 31328 net.cpp:91] Creating Layer inception_5a/3x3_reduce
I0403 15:14:06.061018 31328 net.cpp:425] inception_5a/3x3_reduce <- pool4/3x3_s2_pool4/3x3_s2_0_split_1
I0403 15:14:06.061039 31328 net.cpp:399] inception_5a/3x3_reduce -> inception_5a/3x3_reduce
I0403 15:14:06.063443 31328 net.cpp:141] Setting up inception_5a/3x3_reduce
I0403 15:14:06.063472 31328 net.cpp:148] Top shape: 24 160 7 7 (188160)
I0403 15:14:06.063488 31328 net.cpp:156] Memory required for data: 1295286816
I0403 15:14:06.063510 31328 layer_factory.hpp:77] Creating layer inception_5a/relu_3x3_reduce
I0403 15:14:06.063531 31328 net.cpp:91] Creating Layer inception_5a/relu_3x3_reduce
I0403 15:14:06.063549 31328 net.cpp:425] inception_5a/relu_3x3_reduce <- inception_5a/3x3_reduce
I0403 15:14:06.063565 31328 net.cpp:386] inception_5a/relu_3x3_reduce -> inception_5a/3x3_reduce (in-place)
I0403 15:14:06.063747 31328 net.cpp:141] Setting up inception_5a/relu_3x3_reduce
I0403 15:14:06.063773 31328 net.cpp:148] Top shape: 24 160 7 7 (188160)
I0403 15:14:06.063787 31328 net.cpp:156] Memory required for data: 1296039456
I0403 15:14:06.063802 31328 layer_factory.hpp:77] Creating layer inception_5a/3x3
I0403 15:14:06.063823 31328 net.cpp:91] Creating Layer inception_5a/3x3
I0403 15:14:06.063840 31328 net.cpp:425] inception_5a/3x3 <- inception_5a/3x3_reduce
I0403 15:14:06.063860 31328 net.cpp:399] inception_5a/3x3 -> inception_5a/3x3
I0403 15:14:06.068768 31328 net.cpp:141] Setting up inception_5a/3x3
I0403 15:14:06.068799 31328 net.cpp:148] Top shape: 24 320 7 7 (376320)
I0403 15:14:06.068815 31328 net.cpp:156] Memory required for data: 1297544736
I0403 15:14:06.068833 31328 layer_factory.hpp:77] Creating layer inception_5a/relu_3x3
I0403 15:14:06.068851 31328 net.cpp:91] Creating Layer inception_5a/relu_3x3
I0403 15:14:06.068866 31328 net.cpp:425] inception_5a/relu_3x3 <- inception_5a/3x3
I0403 15:14:06.068886 31328 net.cpp:386] inception_5a/relu_3x3 -> inception_5a/3x3 (in-place)
I0403 15:14:06.069174 31328 net.cpp:141] Setting up inception_5a/relu_3x3
I0403 15:14:06.069210 31328 net.cpp:148] Top shape: 24 320 7 7 (376320)
I0403 15:14:06.069227 31328 net.cpp:156] Memory required for data: 1299050016
I0403 15:14:06.069244 31328 layer_factory.hpp:77] Creating layer inception_5a/5x5_reduce
I0403 15:14:06.069267 31328 net.cpp:91] Creating Layer inception_5a/5x5_reduce
I0403 15:14:06.069284 31328 net.cpp:425] inception_5a/5x5_reduce <- pool4/3x3_s2_pool4/3x3_s2_0_split_2
I0403 15:14:06.069303 31328 net.cpp:399] inception_5a/5x5_reduce -> inception_5a/5x5_reduce
I0403 15:14:06.070446 31328 net.cpp:141] Setting up inception_5a/5x5_reduce
I0403 15:14:06.070475 31328 net.cpp:148] Top shape: 24 32 7 7 (37632)
I0403 15:14:06.070492 31328 net.cpp:156] Memory required for data: 1299200544
I0403 15:14:06.070513 31328 layer_factory.hpp:77] Creating layer inception_5a/relu_5x5_reduce
I0403 15:14:06.070531 31328 net.cpp:91] Creating Layer inception_5a/relu_5x5_reduce
I0403 15:14:06.070546 31328 net.cpp:425] inception_5a/relu_5x5_reduce <- inception_5a/5x5_reduce
I0403 15:14:06.070565 31328 net.cpp:386] inception_5a/relu_5x5_reduce -> inception_5a/5x5_reduce (in-place)
I0403 15:14:06.070878 31328 net.cpp:141] Setting up inception_5a/relu_5x5_reduce
I0403 15:14:06.070904 31328 net.cpp:148] Top shape: 24 32 7 7 (37632)
I0403 15:14:06.070919 31328 net.cpp:156] Memory required for data: 1299351072
I0403 15:14:06.070933 31328 layer_factory.hpp:77] Creating layer inception_5a/5x5
I0403 15:14:06.070966 31328 net.cpp:91] Creating Layer inception_5a/5x5
I0403 15:14:06.070993 31328 net.cpp:425] inception_5a/5x5 <- inception_5a/5x5_reduce
I0403 15:14:06.071014 31328 net.cpp:399] inception_5a/5x5 -> inception_5a/5x5
I0403 15:14:06.072697 31328 net.cpp:141] Setting up inception_5a/5x5
I0403 15:14:06.072739 31328 net.cpp:148] Top shape: 24 128 7 7 (150528)
I0403 15:14:06.072756 31328 net.cpp:156] Memory required for data: 1299953184
I0403 15:14:06.072773 31328 layer_factory.hpp:77] Creating layer inception_5a/relu_5x5
I0403 15:14:06.072790 31328 net.cpp:91] Creating Layer inception_5a/relu_5x5
I0403 15:14:06.072806 31328 net.cpp:425] inception_5a/relu_5x5 <- inception_5a/5x5
I0403 15:14:06.072825 31328 net.cpp:386] inception_5a/relu_5x5 -> inception_5a/5x5 (in-place)
I0403 15:14:06.073011 31328 net.cpp:141] Setting up inception_5a/relu_5x5
I0403 15:14:06.073035 31328 net.cpp:148] Top shape: 24 128 7 7 (150528)
I0403 15:14:06.073050 31328 net.cpp:156] Memory required for data: 1300555296
I0403 15:14:06.073063 31328 layer_factory.hpp:77] Creating layer inception_5a/pool
I0403 15:14:06.073081 31328 net.cpp:91] Creating Layer inception_5a/pool
I0403 15:14:06.073096 31328 net.cpp:425] inception_5a/pool <- pool4/3x3_s2_pool4/3x3_s2_0_split_3
I0403 15:14:06.073115 31328 net.cpp:399] inception_5a/pool -> inception_5a/pool
I0403 15:14:06.073184 31328 net.cpp:141] Setting up inception_5a/pool
I0403 15:14:06.073206 31328 net.cpp:148] Top shape: 24 832 7 7 (978432)
I0403 15:14:06.073220 31328 net.cpp:156] Memory required for data: 1304469024
I0403 15:14:06.073235 31328 layer_factory.hpp:77] Creating layer inception_5a/pool_proj
I0403 15:14:06.073257 31328 net.cpp:91] Creating Layer inception_5a/pool_proj
I0403 15:14:06.073274 31328 net.cpp:425] inception_5a/pool_proj <- inception_5a/pool
I0403 15:14:06.073292 31328 net.cpp:399] inception_5a/pool_proj -> inception_5a/pool_proj
I0403 15:14:06.075532 31328 net.cpp:141] Setting up inception_5a/pool_proj
I0403 15:14:06.075562 31328 net.cpp:148] Top shape: 24 128 7 7 (150528)
I0403 15:14:06.075580 31328 net.cpp:156] Memory required for data: 1305071136
I0403 15:14:06.075598 31328 layer_factory.hpp:77] Creating layer inception_5a/relu_pool_proj
I0403 15:14:06.075615 31328 net.cpp:91] Creating Layer inception_5a/relu_pool_proj
I0403 15:14:06.075630 31328 net.cpp:425] inception_5a/relu_pool_proj <- inception_5a/pool_proj
I0403 15:14:06.075647 31328 net.cpp:386] inception_5a/relu_pool_proj -> inception_5a/pool_proj (in-place)
I0403 15:14:06.075939 31328 net.cpp:141] Setting up inception_5a/relu_pool_proj
I0403 15:14:06.075966 31328 net.cpp:148] Top shape: 24 128 7 7 (150528)
I0403 15:14:06.075981 31328 net.cpp:156] Memory required for data: 1305673248
I0403 15:14:06.075995 31328 layer_factory.hpp:77] Creating layer inception_5a/output
I0403 15:14:06.076012 31328 net.cpp:91] Creating Layer inception_5a/output
I0403 15:14:06.076027 31328 net.cpp:425] inception_5a/output <- inception_5a/1x1
I0403 15:14:06.076045 31328 net.cpp:425] inception_5a/output <- inception_5a/3x3
I0403 15:14:06.076059 31328 net.cpp:425] inception_5a/output <- inception_5a/5x5
I0403 15:14:06.076074 31328 net.cpp:425] inception_5a/output <- inception_5a/pool_proj
I0403 15:14:06.076091 31328 net.cpp:399] inception_5a/output -> inception_5a/output
I0403 15:14:06.076140 31328 net.cpp:141] Setting up inception_5a/output
I0403 15:14:06.076164 31328 net.cpp:148] Top shape: 24 832 7 7 (978432)
I0403 15:14:06.076177 31328 net.cpp:156] Memory required for data: 1309586976
I0403 15:14:06.076191 31328 layer_factory.hpp:77] Creating layer inception_5a/output_inception_5a/output_0_split
I0403 15:14:06.076210 31328 net.cpp:91] Creating Layer inception_5a/output_inception_5a/output_0_split
I0403 15:14:06.076225 31328 net.cpp:425] inception_5a/output_inception_5a/output_0_split <- inception_5a/output
I0403 15:14:06.076242 31328 net.cpp:399] inception_5a/output_inception_5a/output_0_split -> inception_5a/output_inception_5a/output_0_split_0
I0403 15:14:06.076261 31328 net.cpp:399] inception_5a/output_inception_5a/output_0_split -> inception_5a/output_inception_5a/output_0_split_1
I0403 15:14:06.076283 31328 net.cpp:399] inception_5a/output_inception_5a/output_0_split -> inception_5a/output_inception_5a/output_0_split_2
I0403 15:14:06.076303 31328 net.cpp:399] inception_5a/output_inception_5a/output_0_split -> inception_5a/output_inception_5a/output_0_split_3
I0403 15:14:06.076413 31328 net.cpp:141] Setting up inception_5a/output_inception_5a/output_0_split
I0403 15:14:06.076437 31328 net.cpp:148] Top shape: 24 832 7 7 (978432)
I0403 15:14:06.076452 31328 net.cpp:148] Top shape: 24 832 7 7 (978432)
I0403 15:14:06.076467 31328 net.cpp:148] Top shape: 24 832 7 7 (978432)
I0403 15:14:06.076481 31328 net.cpp:148] Top shape: 24 832 7 7 (978432)
I0403 15:14:06.076494 31328 net.cpp:156] Memory required for data: 1325241888
I0403 15:14:06.076527 31328 layer_factory.hpp:77] Creating layer inception_5b/1x1
I0403 15:14:06.076550 31328 net.cpp:91] Creating Layer inception_5b/1x1
I0403 15:14:06.076570 31328 net.cpp:425] inception_5b/1x1 <- inception_5a/output_inception_5a/output_0_split_0
I0403 15:14:06.076603 31328 net.cpp:399] inception_5b/1x1 -> inception_5b/1x1
I0403 15:14:06.080423 31328 net.cpp:141] Setting up inception_5b/1x1
I0403 15:14:06.080453 31328 net.cpp:148] Top shape: 24 384 7 7 (451584)
I0403 15:14:06.080469 31328 net.cpp:156] Memory required for data: 1327048224
I0403 15:14:06.080488 31328 layer_factory.hpp:77] Creating layer inception_5b/relu_1x1
I0403 15:14:06.080513 31328 net.cpp:91] Creating Layer inception_5b/relu_1x1
I0403 15:14:06.080531 31328 net.cpp:425] inception_5b/relu_1x1 <- inception_5b/1x1
I0403 15:14:06.080549 31328 net.cpp:386] inception_5b/relu_1x1 -> inception_5b/1x1 (in-place)
I0403 15:14:06.080855 31328 net.cpp:141] Setting up inception_5b/relu_1x1
I0403 15:14:06.080880 31328 net.cpp:148] Top shape: 24 384 7 7 (451584)
I0403 15:14:06.080895 31328 net.cpp:156] Memory required for data: 1328854560
I0403 15:14:06.080909 31328 layer_factory.hpp:77] Creating layer inception_5b/3x3_reduce
I0403 15:14:06.080935 31328 net.cpp:91] Creating Layer inception_5b/3x3_reduce
I0403 15:14:06.080951 31328 net.cpp:425] inception_5b/3x3_reduce <- inception_5a/output_inception_5a/output_0_split_1
I0403 15:14:06.080971 31328 net.cpp:399] inception_5b/3x3_reduce -> inception_5b/3x3_reduce
I0403 15:14:06.083648 31328 net.cpp:141] Setting up inception_5b/3x3_reduce
I0403 15:14:06.083679 31328 net.cpp:148] Top shape: 24 192 7 7 (225792)
I0403 15:14:06.083696 31328 net.cpp:156] Memory required for data: 1329757728
I0403 15:14:06.083714 31328 layer_factory.hpp:77] Creating layer inception_5b/relu_3x3_reduce
I0403 15:14:06.083731 31328 net.cpp:91] Creating Layer inception_5b/relu_3x3_reduce
I0403 15:14:06.083747 31328 net.cpp:425] inception_5b/relu_3x3_reduce <- inception_5b/3x3_reduce
I0403 15:14:06.083765 31328 net.cpp:386] inception_5b/relu_3x3_reduce -> inception_5b/3x3_reduce (in-place)
I0403 15:14:06.083956 31328 net.cpp:141] Setting up inception_5b/relu_3x3_reduce
I0403 15:14:06.083984 31328 net.cpp:148] Top shape: 24 192 7 7 (225792)
I0403 15:14:06.083999 31328 net.cpp:156] Memory required for data: 1330660896
I0403 15:14:06.084014 31328 layer_factory.hpp:77] Creating layer inception_5b/3x3
I0403 15:14:06.084035 31328 net.cpp:91] Creating Layer inception_5b/3x3
I0403 15:14:06.084053 31328 net.cpp:425] inception_5b/3x3 <- inception_5b/3x3_reduce
I0403 15:14:06.084074 31328 net.cpp:399] inception_5b/3x3 -> inception_5b/3x3
I0403 15:14:06.090809 31328 net.cpp:141] Setting up inception_5b/3x3
I0403 15:14:06.090840 31328 net.cpp:148] Top shape: 24 384 7 7 (451584)
I0403 15:14:06.090857 31328 net.cpp:156] Memory required for data: 1332467232
I0403 15:14:06.090875 31328 layer_factory.hpp:77] Creating layer inception_5b/relu_3x3
I0403 15:14:06.090893 31328 net.cpp:91] Creating Layer inception_5b/relu_3x3
I0403 15:14:06.090909 31328 net.cpp:425] inception_5b/relu_3x3 <- inception_5b/3x3
I0403 15:14:06.090925 31328 net.cpp:386] inception_5b/relu_3x3 -> inception_5b/3x3 (in-place)
I0403 15:14:06.091233 31328 net.cpp:141] Setting up inception_5b/relu_3x3
I0403 15:14:06.091261 31328 net.cpp:148] Top shape: 24 384 7 7 (451584)
I0403 15:14:06.091276 31328 net.cpp:156] Memory required for data: 1334273568
I0403 15:14:06.091291 31328 layer_factory.hpp:77] Creating layer inception_5b/5x5_reduce
I0403 15:14:06.091328 31328 net.cpp:91] Creating Layer inception_5b/5x5_reduce
I0403 15:14:06.091347 31328 net.cpp:425] inception_5b/5x5_reduce <- inception_5a/output_inception_5a/output_0_split_2
I0403 15:14:06.091367 31328 net.cpp:399] inception_5b/5x5_reduce -> inception_5b/5x5_reduce
I0403 15:14:06.092667 31328 net.cpp:141] Setting up inception_5b/5x5_reduce
I0403 15:14:06.092694 31328 net.cpp:148] Top shape: 24 48 7 7 (56448)
I0403 15:14:06.092710 31328 net.cpp:156] Memory required for data: 1334499360
I0403 15:14:06.092730 31328 layer_factory.hpp:77] Creating layer inception_5b/relu_5x5_reduce
I0403 15:14:06.092749 31328 net.cpp:91] Creating Layer inception_5b/relu_5x5_reduce
I0403 15:14:06.092764 31328 net.cpp:425] inception_5b/relu_5x5_reduce <- inception_5b/5x5_reduce
I0403 15:14:06.092782 31328 net.cpp:386] inception_5b/relu_5x5_reduce -> inception_5b/5x5_reduce (in-place)
I0403 15:14:06.093165 31328 net.cpp:141] Setting up inception_5b/relu_5x5_reduce
I0403 15:14:06.093191 31328 net.cpp:148] Top shape: 24 48 7 7 (56448)
I0403 15:14:06.093206 31328 net.cpp:156] Memory required for data: 1334725152
I0403 15:14:06.093221 31328 layer_factory.hpp:77] Creating layer inception_5b/5x5
I0403 15:14:06.093241 31328 net.cpp:91] Creating Layer inception_5b/5x5
I0403 15:14:06.093258 31328 net.cpp:425] inception_5b/5x5 <- inception_5b/5x5_reduce
I0403 15:14:06.093277 31328 net.cpp:399] inception_5b/5x5 -> inception_5b/5x5
I0403 15:14:06.095419 31328 net.cpp:141] Setting up inception_5b/5x5
I0403 15:14:06.095448 31328 net.cpp:148] Top shape: 24 128 7 7 (150528)
I0403 15:14:06.095463 31328 net.cpp:156] Memory required for data: 1335327264
I0403 15:14:06.095479 31328 layer_factory.hpp:77] Creating layer inception_5b/relu_5x5
I0403 15:14:06.095497 31328 net.cpp:91] Creating Layer inception_5b/relu_5x5
I0403 15:14:06.095518 31328 net.cpp:425] inception_5b/relu_5x5 <- inception_5b/5x5
I0403 15:14:06.095540 31328 net.cpp:386] inception_5b/relu_5x5 -> inception_5b/5x5 (in-place)
I0403 15:14:06.095729 31328 net.cpp:141] Setting up inception_5b/relu_5x5
I0403 15:14:06.095753 31328 net.cpp:148] Top shape: 24 128 7 7 (150528)
I0403 15:14:06.095767 31328 net.cpp:156] Memory required for data: 1335929376
I0403 15:14:06.095782 31328 layer_factory.hpp:77] Creating layer inception_5b/pool
I0403 15:14:06.095801 31328 net.cpp:91] Creating Layer inception_5b/pool
I0403 15:14:06.095818 31328 net.cpp:425] inception_5b/pool <- inception_5a/output_inception_5a/output_0_split_3
I0403 15:14:06.095834 31328 net.cpp:399] inception_5b/pool -> inception_5b/pool
I0403 15:14:06.095906 31328 net.cpp:141] Setting up inception_5b/pool
I0403 15:14:06.095929 31328 net.cpp:148] Top shape: 24 832 7 7 (978432)
I0403 15:14:06.095943 31328 net.cpp:156] Memory required for data: 1339843104
I0403 15:14:06.095957 31328 layer_factory.hpp:77] Creating layer inception_5b/pool_proj
I0403 15:14:06.095978 31328 net.cpp:91] Creating Layer inception_5b/pool_proj
I0403 15:14:06.095994 31328 net.cpp:425] inception_5b/pool_proj <- inception_5b/pool
I0403 15:14:06.096014 31328 net.cpp:399] inception_5b/pool_proj -> inception_5b/pool_proj
I0403 15:14:06.098278 31328 net.cpp:141] Setting up inception_5b/pool_proj
I0403 15:14:06.098307 31328 net.cpp:148] Top shape: 24 128 7 7 (150528)
I0403 15:14:06.098323 31328 net.cpp:156] Memory required for data: 1340445216
I0403 15:14:06.098341 31328 layer_factory.hpp:77] Creating layer inception_5b/relu_pool_proj
I0403 15:14:06.098359 31328 net.cpp:91] Creating Layer inception_5b/relu_pool_proj
I0403 15:14:06.098374 31328 net.cpp:425] inception_5b/relu_pool_proj <- inception_5b/pool_proj
I0403 15:14:06.098392 31328 net.cpp:386] inception_5b/relu_pool_proj -> inception_5b/pool_proj (in-place)
I0403 15:14:06.098690 31328 net.cpp:141] Setting up inception_5b/relu_pool_proj
I0403 15:14:06.098718 31328 net.cpp:148] Top shape: 24 128 7 7 (150528)
I0403 15:14:06.098733 31328 net.cpp:156] Memory required for data: 1341047328
I0403 15:14:06.098748 31328 layer_factory.hpp:77] Creating layer inception_5b/output
I0403 15:14:06.098764 31328 net.cpp:91] Creating Layer inception_5b/output
I0403 15:14:06.098793 31328 net.cpp:425] inception_5b/output <- inception_5b/1x1
I0403 15:14:06.098810 31328 net.cpp:425] inception_5b/output <- inception_5b/3x3
I0403 15:14:06.098826 31328 net.cpp:425] inception_5b/output <- inception_5b/5x5
I0403 15:14:06.098841 31328 net.cpp:425] inception_5b/output <- inception_5b/pool_proj
I0403 15:14:06.098857 31328 net.cpp:399] inception_5b/output -> inception_5b/output
I0403 15:14:06.098909 31328 net.cpp:141] Setting up inception_5b/output
I0403 15:14:06.098932 31328 net.cpp:148] Top shape: 24 1024 7 7 (1204224)
I0403 15:14:06.098945 31328 net.cpp:156] Memory required for data: 1345864224
I0403 15:14:06.098959 31328 layer_factory.hpp:77] Creating layer pool5/7x7_s1
I0403 15:14:06.098978 31328 net.cpp:91] Creating Layer pool5/7x7_s1
I0403 15:14:06.098994 31328 net.cpp:425] pool5/7x7_s1 <- inception_5b/output
I0403 15:14:06.099011 31328 net.cpp:399] pool5/7x7_s1 -> pool5/7x7_s1
I0403 15:14:06.099221 31328 net.cpp:141] Setting up pool5/7x7_s1
I0403 15:14:06.099247 31328 net.cpp:148] Top shape: 24 1024 1 1 (24576)
I0403 15:14:06.099261 31328 net.cpp:156] Memory required for data: 1345962528
I0403 15:14:06.099275 31328 layer_factory.hpp:77] Creating layer pool5/drop_7x7_s1
I0403 15:14:06.099293 31328 net.cpp:91] Creating Layer pool5/drop_7x7_s1
I0403 15:14:06.099308 31328 net.cpp:425] pool5/drop_7x7_s1 <- pool5/7x7_s1
I0403 15:14:06.099326 31328 net.cpp:386] pool5/drop_7x7_s1 -> pool5/7x7_s1 (in-place)
I0403 15:14:06.099375 31328 net.cpp:141] Setting up pool5/drop_7x7_s1
I0403 15:14:06.099396 31328 net.cpp:148] Top shape: 24 1024 1 1 (24576)
I0403 15:14:06.099411 31328 net.cpp:156] Memory required for data: 1346060832
I0403 15:14:06.099424 31328 layer_factory.hpp:77] Creating layer loss3/classifier_plantvillage
I0403 15:14:06.099444 31328 net.cpp:91] Creating Layer loss3/classifier_plantvillage
I0403 15:14:06.099459 31328 net.cpp:425] loss3/classifier_plantvillage <- pool5/7x7_s1
I0403 15:14:06.099479 31328 net.cpp:399] loss3/classifier_plantvillage -> loss3/classifier_plantvillage
I0403 15:14:06.099898 31328 net.cpp:141] Setting up loss3/classifier_plantvillage
I0403 15:14:06.099921 31328 net.cpp:148] Top shape: 24 38 (912)
I0403 15:14:06.099936 31328 net.cpp:156] Memory required for data: 1346064480
I0403 15:14:06.099952 31328 layer_factory.hpp:77] Creating layer loss3/classifier_plantvillage_loss3/classifier_plantvillage_0_split
I0403 15:14:06.099972 31328 net.cpp:91] Creating Layer loss3/classifier_plantvillage_loss3/classifier_plantvillage_0_split
I0403 15:14:06.099988 31328 net.cpp:425] loss3/classifier_plantvillage_loss3/classifier_plantvillage_0_split <- loss3/classifier_plantvillage
I0403 15:14:06.100005 31328 net.cpp:399] loss3/classifier_plantvillage_loss3/classifier_plantvillage_0_split -> loss3/classifier_plantvillage_loss3/classifier_plantvillage_0_split_0
I0403 15:14:06.100024 31328 net.cpp:399] loss3/classifier_plantvillage_loss3/classifier_plantvillage_0_split -> loss3/classifier_plantvillage_loss3/classifier_plantvillage_0_split_1
I0403 15:14:06.100044 31328 net.cpp:399] loss3/classifier_plantvillage_loss3/classifier_plantvillage_0_split -> loss3/classifier_plantvillage_loss3/classifier_plantvillage_0_split_2
I0403 15:14:06.100062 31328 net.cpp:399] loss3/classifier_plantvillage_loss3/classifier_plantvillage_0_split -> loss3/classifier_plantvillage_loss3/classifier_plantvillage_0_split_3
I0403 15:14:06.100159 31328 net.cpp:141] Setting up loss3/classifier_plantvillage_loss3/classifier_plantvillage_0_split
I0403 15:14:06.100183 31328 net.cpp:148] Top shape: 24 38 (912)
I0403 15:14:06.100198 31328 net.cpp:148] Top shape: 24 38 (912)
I0403 15:14:06.100213 31328 net.cpp:148] Top shape: 24 38 (912)
I0403 15:14:06.100226 31328 net.cpp:148] Top shape: 24 38 (912)
I0403 15:14:06.100239 31328 net.cpp:156] Memory required for data: 1346079072
I0403 15:14:06.100253 31328 layer_factory.hpp:77] Creating layer loss1/loss
I0403 15:14:06.100275 31328 net.cpp:91] Creating Layer loss1/loss
I0403 15:14:06.100291 31328 net.cpp:425] loss1/loss <- loss1/classifier_plantvillage_loss1/classifier_plantvillage_0_split_0
I0403 15:14:06.100319 31328 net.cpp:425] loss1/loss <- label_data_1_split_0
…
