…
I0403 15:03:51.487206 30974 net.cpp:313] The NetState phase (1) differed from the phase (0) specified by a rule in layer data
I0403 15:03:51.488368 30974 net.cpp:49] Initializing net from parameters: 
state {
  phase: TEST
}
layer {
  name: "data"
  type: "Data"
  top: "data"
  top: "label"
  include {
    phase: TEST
  }
  transform_param {
    mirror: false
    crop_size: 224
    mean_file: "/home/mohanty/data/final_dataset/lmdb/grayscale-80-20/mean.binaryproto"
  }
  data_param {
    source: "/home/mohanty/data/final_dataset/lmdb/grayscale-80-20/test_db"
    batch_size: 24
    backend: LMDB
  }
}
layer {
  name: "conv1/7x7_s2"
  type: "Convolution"
  bottom: "data"
  top: "conv1/7x7_s2"
  param {
    lr_mult: 1
    decay_mult: 1
  }
  param {
    lr_mult: 2
    decay_mult: 0
  }
  convolution_param {
    num_output: 64
    pad: 3
    kernel_size: 7
    stride: 2
    weight_filler {
      type: "xavier"
      std: 0.1
    }
    bias_filler {
      type: "constant"
      value: 0.2
    }
  }
}
layer {
  name: "conv1/relu_7x7"
  type: "ReLU"
  bottom: "conv1/7x7_s2"
  top: "conv1/7x7_s2"
}
layer {
  name: "pool1/3x3_s2"
  type: "Pooling"
  bottom: "conv1/7x7_s2"
  top: "pool1/3x3_s2"
  pooling_param {
    pool: MAX
    kernel_size: 3
    stride: 2
  }
}
layer {
  name: "pool1/norm1"
  type: "LRN"
  bottom: "pool1/3x3_s2"
  top: "pool1/norm1"
  lrn_param {
    local_size: 5
    alpha: 0.0001
    beta: 0.75
  }
}
layer {
  name: "conv2/3x3_reduce"
  type: "Convolution"
  bottom: "pool1/norm1"
  top: "conv2/3x3_reduce"
  param {
    lr_mult: 1
    decay_mult: 1
  }
  param {
    lr_mult: 2
    decay_mult: 0
  }
  convolution_param {
    num_output: 64
    kernel_size: 1
    weight_filler {
      type: "xavier"
      std: 0.1
    }
    bias_filler {
      type: "constant"
      value: 0.2
    }
  }
}
layer {
  name: "conv2/relu_3x3_reduce"
  type: "ReLU"
  bottom: "conv2/3x3_reduce"
  top: "conv2/3x3_reduce"
}
layer {
  name: "conv2/3x3"
  type: "Convolution"
  bottom: "conv2/3x3_reduce"
  top: "conv2/3x3"
  param {
    lr_mult: 1
    decay_mult: 1
  }
  param {
    lr_mult: 2
    decay_mult: 0
  }
  convolution_param {
    num_output: 192
    pad: 1
    kernel_size: 3
    weight_filler {
      type: "xavier"
      std: 0.03
    }
    bias_filler {
      type: "constant"
      value: 0.2
    }
  }
}
layer {
  name: "conv2/relu_3x3"
  type: "ReLU"
  bottom: "conv2/3x3"
  top: "conv2/3x3"
}
layer {
  name: "conv2/norm2"
  type: "LRN"
  bottom: "conv2/3x3"
  top: "conv2/norm2"
  lrn_param {
    local_size: 5
    alpha: 0.0001
    beta: 0.75
  }
}
layer {
  name: "pool2/3x3_s2"
  type: "Pooling"
  bottom: "conv2/norm2"
  top: "pool2/3x3_s2"
  pooling_param {
    pool: MAX
    kernel_size: 3
    stride: 2
  }
}
layer {
  name: "inception_3a/1x1"
  type: "Convolution"
  bottom: "pool2/3x3_s2"
  top: "inception_3a/1x1"
  param {
    lr_mult: 1
    decay_mult: 1
  }
  param {
    lr_mult: 2
    decay_mult: 0
  }
  convolution_param {
    num_output: 64
    kernel_size: 1
    weight_filler {
      type: "xavier"
      std: 0.03
    }
    bias_filler {
      type: "constant"
      value: 0.2
    }
  }
}
layer {
  name: "inception_3a/relu_1x1"
  type: "ReLU"
  bottom: "inception_3a/1x1"
  top: "inception_3a/1x1"
}
layer {
  name: "inception_3a/3x3_reduce"
  type: "Convolution"
  bottom: "pool2/3x3_s2"
  top: "inception_3a/3x3_reduce"
  param {
    lr_mult: 1
    decay_mult: 1
  }
  param {
    lr_mult: 2
    decay_mult: 0
  }
  convolution_param {
    num_output: 96
    kernel_size: 1
    weight_filler {
      type: "xavier"
      std: 0.09
    }
    bias_filler {
      type: "constant"
      value: 0.2
    }
  }
}
layer {
  name: "inception_3a/relu_3x3_reduce"
  type: "ReLU"
  bottom: "inception_3a/3x3_reduce"
  top: "inception_3a/3x3_reduce"
}
layer {
  name: "inception_3a/3x3"
  type: "Convolution"
  bottom: "inception_3a/3x3_reduce"
  top: "inception_3a/3x3"
  param {
    lr_mult: 1
    decay_mult: 1
  }
  param {
    lr_mult: 2
    decay_mult: 0
  }
  convolution_param {
    num_output: 128
    pad: 1
    kernel_size: 3
    weight_filler {
      type: "xavier"
      std: 0.03
    }
    bias_filler {
      type: "constant"
      value: 0.2
    }
  }
}
layer {
  name: "inception_3a/relu_3x3"
  type: "ReLU"
  bottom: "inception_3a/3x3"
  top: "inception_3a/3x3"
}
layer {
  name: "inception_3a/5x5_reduce"
  type: "Convolution"
  bottom: "pool2/3x3_s2"
  top: "inception_3a/5x5_reduce"
  param {
    lr_mult: 1
    decay_mult: 1
  }
  param {
    lr_mult: 2
    decay_mult: 0
  }
  convolution_param {
    num_output: 16
    kernel_size: 1
    weight_filler {
      type: "xavier"
      std: 0.2
    }
    bias_filler {
      type: "constant"
      value: 0.2
    }
  }
}
layer {
  name: "inception_3a/relu_5x5_reduce"
  type: "ReLU"
  bottom: "inception_3a/5x5_reduce"
  top: "inception_3a/5x5_reduce"
}
layer {
  name: "inception_3a/5x5"
  type: "Convolution"
  bottom: "inception_3a/5x5_reduce"
  top: "inception_3a/5x5"
  param {
    lr_mult: 1
    decay_mult: 1
  }
  param {
    lr_mult: 2
    decay_mult: 0
  }
  convolution_param {
    num_output: 32
    pad: 2
    kernel_size: 5
    weight_filler {
      type: "xavier"
      std: 0.03
    }
    bias_filler {
      type: "constant"
      value: 0.2
    }
  }
}
layer {
  name: "inception_3a/relu_5x5"
  type: "ReLU"
  bottom: "inception_3a/5x5"
  top: "inception_3a/5x5"
}
layer {
  name: "inception_3a/pool"
  type: "Pooling"
  bottom: "pool2/3x3_s2"
  top: "inception_3a/pool"
  pooling_param {
    pool: MAX
    kernel_size: 3
    stride: 1
    pad: 1
  }
}
layer {
  name: "inception_3a/pool_proj"
  type: "Convolution"
  bottom: "inception_3a/pool"
  top: "inception_3a/pool_proj"
  param {
    lr_mult: 1
    decay_mult: 1
  }
  param {
    lr_mult: 2
    decay_mult: 0
  }
  convolution_param {
    num_output: 32
    kernel_size: 1
    weight_filler {
      type: "xavier"
      std: 0.1
    }
    bias_filler {
      type: "constant"
      value: 0.2
    }
  }
}
layer {
  name: "inception_3a/relu_pool_proj"
  type: "ReLU"
  bottom: "inception_3a/pool_proj"
  top: "inception_3a/pool_proj"
}
layer {
  name: "inception_3a/output"
  type: "Concat"
  bottom: "inception_3a/1x1"
  bottom: "inception_3a/3x3"
  bottom: "inception_3a/5x5"
  bottom: "inception_3a/pool_proj"
  top: "inception_3a/output"
}
layer {
  name: "inception_3b/1x1"
  type: "Convolution"
  bottom: "inception_3a/output"
  top: "inception_3b/1x1"
  param {
    lr_mult: 1
    decay_mult: 1
  }
  param {
    lr_mult: 2
    decay_mult: 0
  }
  convolution_param {
    num_output: 128
    kernel_size: 1
    weight_filler {
      type: "xavier"
      std: 0.03
    }
    bias_filler {
      type: "constant"
      value: 0.2
    }
  }
}
layer {
  name: "inception_3b/relu_1x1"
  type: "ReLU"
  bottom: "inception_3b/1x1"
  top: "inception_3b/1x1"
}
layer {
  name: "inception_3b/3x3_reduce"
  type: "Convolution"
  bottom: "inception_3a/output"
  top: "inception_3b/3x3_reduce"
  param {
    lr_mult: 1
    decay_mult: 1
  }
  param {
    lr_mult: 2
    decay_mult: 0
  }
  convolution_param {
    num_output: 128
    kernel_size: 1
    weight_filler {
      type: "xavier"
      std: 0.09
    }
    bias_filler {
      type: "constant"
      value: 0.2
    }
  }
}
layer {
  name: "inception_3b/relu_3x3_reduce"
  type: "ReLU"
  bottom: "inception_3b/3x3_reduce"
  top: "inception_3b/3x3_reduce"
}
layer {
  name: "inception_3b/3x3"
  type: "Convolution"
  bottom: "inception_3b/3x3_reduce"
  top: "inception_3b/3x3"
  param {
    lr_mult: 1
    decay_mult: 1
  }
  param {
    lr_mult: 2
    decay_mult: 0
  }
  convolution_param {
    num_output: 192
    pad: 1
    kernel_size: 3
    weight_filler {
      type: "xavier"
      std: 0.03
    }
    bias_filler {
      type: "constant"
      value: 0.2
    }
  }
}
layer {
  name: "inception_3b/relu_3x3"
  type: "ReLU"
  bottom: "inception_3b/3x3"
  top: "inception_3b/3x3"
}
layer {
  name: "inception_3b/5x5_reduce"
  type: "Convolution"
  bottom: "inception_3a/output"
  top: "inception_3b/5x5_reduce"
  param {
    lr_mult: 1
    decay_mult: 1
  }
  param {
    lr_mult: 2
    decay_mult: 0
  }
  convolution_param {
    num_output: 32
    kernel_size: 1
    weight_filler {
      type: "xavier"
      std: 0.2
    }
    bias_filler {
      type: "constant"
      value: 0.2
    }
  }
}
layer {
  name: "inception_3b/relu_5x5_reduce"
  type: "ReLU"
  bottom: "inception_3b/5x5_reduce"
  top: "inception_3b/5x5_reduce"
}
layer {
  name: "inception_3b/5x5"
  type: "Convolution"
  bottom: "inception_3b/5x5_reduce"
  top: "inception_3b/5x5"
  param {
    lr_mult: 1
    decay_mult: 1
  }
  param {
    lr_mult: 2
    decay_mult: 0
  }
  convolution_param {
    num_output: 96
    pad: 2
    kernel_size: 5
    weight_filler {
      type: "xavier"
      std: 0.03
    }
    bias_filler {
      type: "constant"
      value: 0.2
    }
  }
}
layer {
  name: "inception_3b/relu_5x5"
  type: "ReLU"
  bottom: "inception_3b/5x5"
  top: "inception_3b/5x5"
}
layer {
  name: "inception_3b/pool"
  type: "Pooling"
  bottom: "inception_3a/output"
  top: "inception_3b/pool"
  pooling_param {
    pool: MAX
    kernel_size: 3
    stride: 1
    pad: 1
  }
}
layer {
  name: "inception_3b/pool_proj"
  type: "Convolution"
  bottom: "inception_3b/pool"
  top: "inception_3b/pool_proj"
  param {
    lr_mult: 1
    decay_mult: 1
  }
  param {
    lr_mult: 2
    decay_mult: 0
  }
  convolution_param {
    num_output: 64
    kernel_size: 1
    weight_filler {
      type: "xavier"
      std: 0.1
    }
    bias_filler {
      type: "constant"
      value: 0.2
    }
  }
}
layer {
  name: "inception_3b/relu_pool_proj"
  type: "ReLU"
  bottom: "inception_3b/pool_proj"
  top: "inception_3b/pool_proj"
}
layer {
  name: "inception_3b/output"
  type: "Concat"
  bottom: "inception_3b/1x1"
  bottom: "inception_3b/3x3"
  bottom: "inception_3b/5x5"
  bottom: "inception_3b/pool_proj"
  top: "inception_3b/output"
}
layer {
  name: "pool3/3x3_s2"
  type: "Pooling"
  bottom: "inception_3b/output"
  top: "pool3/3x3_s2"
  pooling_param {
    pool: MAX
    kernel_size: 3
    stride: 2
  }
}
layer {
  name: "inception_4a/1x1"
  type: "Convolution"
  bottom: "pool3/3x3_s2"
  top: "inception_4a/1x1"
  param {
    lr_mult: 1
    decay_mult: 1
  }
  param {
    lr_mult: 2
    decay_mult: 0
  }
  convolution_param {
    num_output: 192
    kernel_size: 1
    weight_filler {
      type: "xavier"
      std: 0.03
    }
    bias_filler {
      type: "constant"
      value: 0.2
    }
  }
}
layer {
  name: "inception_4a/relu_1x1"
  type: "ReLU"
  bottom: "inception_4a/1x1"
  top: "inception_4a/1x1"
}
layer {
  name: "inception_4a/3x3_reduce"
  type: "Convolution"
  bottom: "pool3/3x3_s2"
  top: "inception_4a/3x3_reduce"
  param {
    lr_mult: 1
    decay_mult: 1
  }
  param {
    lr_mult: 2
    decay_mult: 0
  }
  convolution_param {
    num_output: 96
    kernel_size: 1
    weight_filler {
      type: "xavier"
      std: 0.09
    }
    bias_filler {
      type: "constant"
      value: 0.2
    }
  }
}
layer {
  name: "inception_4a/relu_3x3_reduce"
  type: "ReLU"
  bottom: "inception_4a/3x3_reduce"
  top: "inception_4a/3x3_reduce"
}
layer {
  name: "inception_4a/3x3"
  type: "Convolution"
  bottom: "inception_4a/3x3_reduce"
  top: "inception_4a/3x3"
  param {
    lr_mult: 1
    decay_mult: 1
  }
  param {
    lr_mult: 2
    decay_mult: 0
  }
  convolution_param {
    num_output: 208
    pad: 1
    kernel_size: 3
    weight_filler {
      type: "xavier"
      std: 0.03
    }
    bias_filler {
      type: "constant"
      value: 0.2
    }
  }
}
layer {
  name: "inception_4a/relu_3x3"
  type: "ReLU"
  bottom: "inception_4a/3x3"
  top: "inception_4a/3x3"
}
layer {
  name: "inception_4a/5x5_reduce"
  type: "Convolution"
  bottom: "pool3/3x3_s2"
  top: "inception_4a/5x5_reduce"
  param {
    lr_mult: 1
    decay_mult: 1
  }
  param {
    lr_mult: 2
    decay_mult: 0
  }
  convolution_param {
    num_output: 16
    kernel_size: 1
    weight_filler {
      type: "xavier"
      std: 0.2
    }
    bias_filler {
      type: "constant"
      value: 0.2
    }
  }
}
layer {
  name: "inception_4a/relu_5x5_reduce"
  type: "ReLU"
  bottom: "inception_4a/5x5_reduce"
  top: "inception_4a/5x5_reduce"
}
layer {
  name: "inception_4a/5x5"
  type: "Convolution"
  bottom: "inception_4a/5x5_reduce"
  top: "inception_4a/5x5"
  param {
    lr_mult: 1
    decay_mult: 1
  }
  param {
    lr_mult: 2
    decay_mult: 0
  }
  convolution_param {
    num_output: 48
    pad: 2
    kernel_size: 5
    weight_filler {
      type: "xavier"
      std: 0.03
    }
    bias_filler {
      type: "constant"
      value: 0.2
    }
  }
}
layer {
  name: "inception_4a/relu_5x5"
  type: "ReLU"
  bottom: "inception_4a/5x5"
  top: "inception_4a/5x5"
}
layer {
  name: "inception_4a/pool"
  type: "Pooling"
  bottom: "pool3/3x3_s2"
  top: "inception_4a/pool"
  pooling_param {
    pool: MAX
    kernel_size: 3
    stride: 1
    pad: 1
  }
}
layer {
  name: "inception_4a/pool_proj"
  type: "Convolution"
  bottom: "inception_4a/pool"
  top: "inception_4a/pool_proj"
  param {
    lr_mult: 1
    decay_mult: 1
  }
  param {
    lr_mult: 2
    decay_mult: 0
  }
  convolution_param {
    num_output: 64
    kernel_size: 1
    weight_filler {
      type: "xavier"
      std: 0.1
    }
    bias_filler {
      type: "constant"
      value: 0.2
    }
  }
}
layer {
  name: "inception_4a/relu_pool_proj"
  type: "ReLU"
  bottom: "inception_4a/pool_proj"
  top: "inception_4a/pool_proj"
}
layer {
  name: "inception_4a/output"
  type: "Concat"
  bottom: "inception_4a/1x1"
  bottom: "inception_4a/3x3"
  bottom: "inception_4a/5x5"
  bottom: "inception_4a/pool_proj"
  top: "inception_4a/output"
}
layer {
  name: "loss1/ave_pool"
  type: "Pooling"
  bottom: "inception_4a/output"
  top: "loss1/ave_pool"
  pooling_param {
    pool: AVE
    kernel_size: 5
    stride: 3
  }
}
layer {
  name: "loss1/conv"
  type: "Convolution"
  bottom: "loss1/ave_pool"
  top: "loss1/conv"
  param {
    lr_mult: 1
    decay_mult: 1
  }
  param {
    lr_mult: 2
    decay_mult: 0
  }
  convolution_param {
    num_output: 128
    kernel_size: 1
    weight_filler {
      type: "xavier"
      std: 0.08
    }
    bias_filler {
      type: "constant"
      value: 0.2
    }
  }
}
layer {
  name: "loss1/relu_conv"
  type: "ReLU"
  bottom: "loss1/conv"
  top: "loss1/conv"
}
layer {
  name: "loss1/fc"
  type: "InnerProduct"
  bottom: "loss1/conv"
  top: "loss1/fc"
  param {
    lr_mult: 1
    decay_mult: 1
  }
  param {
    lr_mult: 2
    decay_mult: 0
  }
  inner_product_param {
    num_output: 1024
    weight_filler {
      type: "xavier"
      std: 0.02
    }
    bias_filler {
      type: "constant"
      value: 0.2
    }
  }
}
layer {
  name: "loss1/relu_fc"
  type: "ReLU"
  bottom: "loss1/fc"
  top: "loss1/fc"
}
layer {
  name: "loss1/drop_fc"
  type: "Dropout"
  bottom: "loss1/fc"
  top: "loss1/fc"
  dropout_param {
    dropout_ratio: 0.7
  }
}
layer {
  name: "loss1/classifier_plantvillage"
  type: "InnerProduct"
  bottom: "loss1/fc"
  top: "loss1/classifier_plantvillage"
  param {
    lr_mult: 1
    decay_mult: 1
  }
  param {
    lr_mult: 2
    decay_mult: 0
  }
  inner_product_param {
    num_output: 38
    weight_filler {
      type: "xavier"
      std: 0.0009765625
    }
    bias_filler {
      type: "constant"
      value: 0
    }
  }
}
layer {
  name: "inception_4b/1x1"
  type: "Convolution"
  bottom: "inception_4a/output"
  top: "inception_4b/1x1"
  param {
    lr_mult: 1
    decay_mult: 1
  }
  param {
    lr_mult: 2
    decay_mult: 0
  }
  convolution_param {
    num_output: 160
    kernel_size: 1
    weight_filler {
      type: "xavier"
      std: 0.03
    }
    bias_filler {
      type: "constant"
      value: 0.2
    }
  }
}
layer {
  name: "inception_4b/relu_1x1"
  type: "ReLU"
  bottom: "inception_4b/1x1"
  top: "inception_4b/1x1"
}
layer {
  name: "inception_4b/3x3_reduce"
  type: "Convolution"
  bottom: "inception_4a/output"
  top: "inception_4b/3x3_reduce"
  param {
    lr_mult: 1
    decay_mult: 1
  }
  param {
    lr_mult: 2
    decay_mult: 0
  }
  convolution_param {
    num_output: 112
    kernel_size: 1
    weight_filler {
      type: "xavier"
      std: 0.09
    }
    bias_filler {
      type: "constant"
      value: 0.2
    }
  }
}
layer {
  name: "inception_4b/relu_3x3_reduce"
  type: "ReLU"
  bottom: "inception_4b/3x3_reduce"
  top: "inception_4b/3x3_reduce"
}
layer {
  name: "inception_4b/3x3"
  type: "Convolution"
  bottom: "inception_4b/3x3_reduce"
  top: "inception_4b/3x3"
  param {
    lr_mult: 1
    decay_mult: 1
  }
  param {
    lr_mult: 2
    decay_mult: 0
  }
  convolution_param {
    num_output: 224
    pad: 1
    kernel_size: 3
    weight_filler {
      type: "xavier"
      std: 0.03
    }
    bias_filler {
      type: "constant"
      value: 0.2
    }
  }
}
layer {
  name: "inception_4b/relu_3x3"
  type: "ReLU"
  bottom: "inception_4b/3x3"
  top: "inception_4b/3x3"
}
layer {
  name: "inception_4b/5x5_reduce"
  type: "Convolution"
  bottom: "inception_4a/output"
  top: "inception_4b/5x5_reduce"
  param {
    lr_mult: 1
    decay_mult: 1
  }
  param {
    lr_mult: 2
    decay_mult: 0
  }
  convolution_param {
    num_output: 24
    kernel_size: 1
    weight_filler {
      type: "xavier"
      std: 0.2
    }
    bias_filler {
      type: "constant"
      value: 0.2
    }
  }
}
layer {
  name: "inception_4b/relu_5x5_reduce"
  type: "ReLU"
  bottom: "inception_4b/5x5_reduce"
  top: "inception_4b/5x5_reduce"
}
layer {
  name: "inception_4b/5x5"
  type: "Convolution"
  bottom: "inception_4b/5x5_reduce"
  top: "inception_4b/5x5"
  param {
    lr_mult: 1
    decay_mult: 1
  }
  param {
    lr_mult: 2
    decay_mult: 0
  }
  convolution_param {
    num_output: 64
    pad: 2
    kernel_size: 5
    weight_filler {
      type: "xavier"
      std: 0.03
    }
    bias_filler {
      type: "constant"
      value: 0.2
    }
  }
}
layer {
  name: "inception_4b/relu_5x5"
  type: "ReLU"
  bottom: "inception_4b/5x5"
  top: "inception_4b/5x5"
}
layer {
  name: "inception_4b/pool"
  type: "Pooling"
  bottom: "inception_4a/output"
  top: "inception_4b/pool"
  pooling_param {
    pool: MAX
    kernel_size: 3
    stride: 1
    pad: 1
  }
}
layer {
  name: "inception_4b/pool_proj"
  type: "Convolution"
  bottom: "inception_4b/pool"
  top: "inception_4b/pool_proj"
  param {
    lr_mult: 1
    decay_mult: 1
  }
  param {
    lr_mult: 2
    decay_mult: 0
  }
  convolution_param {
    num_output: 64
    kernel_size: 1
    weight_filler {
      type: "xavier"
      std: 0.1
    }
    bias_filler {
      type: "constant"
      value: 0.2
    }
  }
}
layer {
  name: "inception_4b/relu_pool_proj"
  type: "ReLU"
  bottom: "inception_4b/pool_proj"
  top: "inception_4b/pool_proj"
}
layer {
  name: "inception_4b/output"
  type: "Concat"
  bottom: "inception_4b/1x1"
  bottom: "inception_4b/3x3"
  bottom: "inception_4b/5x5"
  bottom: "inception_4b/pool_proj"
  top: "inception_4b/output"
}
layer {
  name: "inception_4c/1x1"
  type: "Convolution"
  bottom: "inception_4b/output"
  top: "inception_4c/1x1"
  param {
    lr_mult: 1
    decay_mult: 1
  }
  param {
    lr_mult: 2
    decay_mult: 0
  }
  convolution_param {
    num_output: 128
    kernel_size: 1
    weight_filler {
      type: "xavier"
      std: 0.03
    }
    bias_filler {
      type: "constant"
      value: 0.2
    }
  }
}
layer {
  name: "inception_4c/relu_1x1"
  type: "ReLU"
  bottom: "inception_4c/1x1"
  top: "inception_4c/1x1"
}
layer {
  name: "inception_4c/3x3_reduce"
  type: "Convolution"
  bottom: "inception_4b/output"
  top: "inception_4c/3x3_reduce"
  param {
    lr_mult: 1
    decay_mult: 1
  }
  param {
    lr_mult: 2
    decay_mult: 0
  }
  convolution_param {
    num_output: 128
    kernel_size: 1
    weight_filler {
      type: "xavier"
      std: 0.09
    }
    bias_filler {
      type: "constant"
      value: 0.2
    }
  }
}
layer {
  name: "inception_4c/relu_3x3_reduce"
  type: "ReLU"
  bottom: "inception_4c/3x3_reduce"
  top: "inception_4c/3x3_reduce"
}
layer {
  name: "inception_4c/3x3"
  type: "Convolution"
  bottom: "inception_4c/3x3_reduce"
  top: "inception_4c/3x3"
  param {
    lr_mult: 1
    decay_mult: 1
  }
  param {
    lr_mult: 2
    decay_mult: 0
  }
  convolution_param {
    num_output: 256
    pad: 1
    kernel_size: 3
    weight_filler {
      type: "xavier"
      std: 0.03
    }
    bias_filler {
      type: "constant"
      value: 0.2
    }
  }
}
layer {
  name: "inception_4c/relu_3x3"
  type: "ReLU"
  bottom: "inception_4c/3x3"
  top: "inception_4c/3x3"
}
layer {
  name: "inception_4c/5x5_reduce"
  type: "Convolution"
  bottom: "inception_4b/output"
  top: "inception_4c/5x5_reduce"
  param {
    lr_mult: 1
    decay_mult: 1
  }
  param {
    lr_mult: 2
    decay_mult: 0
  }
  convolution_param {
    num_output: 24
    kernel_size: 1
    weight_filler {
      type: "xavier"
      std: 0.2
    }
    bias_filler {
      type: "constant"
      value: 0.2
    }
  }
}
layer {
  name: "inception_4c/relu_5x5_reduce"
  type: "ReLU"
  bottom: "inception_4c/5x5_reduce"
  top: "inception_4c/5x5_reduce"
}
layer {
  name: "inception_4c/5x5"
  type: "Convolution"
  bottom: "inception_4c/5x5_reduce"
  top: "inception_4c/5x5"
  param {
    lr_mult: 1
    decay_mult: 1
  }
  param {
    lr_mult: 2
    decay_mult: 0
  }
  convolution_param {
    num_output: 64
    pad: 2
    kernel_size: 5
    weight_filler {
      type: "xavier"
      std: 0.03
    }
    bias_filler {
      type: "constant"
      value: 0.2
    }
  }
}
layer {
  name: "inception_4c/relu_5x5"
  type: "ReLU"
  bottom: "inception_4c/5x5"
  top: "inception_4c/5x5"
}
layer {
  name: "inception_4c/pool"
  type: "Pooling"
  bottom: "inception_4b/output"
  top: "inception_4c/pool"
  pooling_param {
    pool: MAX
    kernel_size: 3
    stride: 1
    pad: 1
  }
}
layer {
  name: "inception_4c/pool_proj"
  type: "Convolution"
  bottom: "inception_4c/pool"
  top: "inception_4c/pool_proj"
  param {
    lr_mult: 1
    decay_mult: 1
  }
  param {
    lr_mult: 2
    decay_mult: 0
  }
  convolution_param {
    num_output: 64
    kernel_size: 1
    weight_filler {
      type: "xavier"
      std: 0.1
    }
    bias_filler {
      type: "constant"
      value: 0.2
    }
  }
}
layer {
  name: "inception_4c/relu_pool_proj"
  type: "ReLU"
  bottom: "inception_4c/pool_proj"
  top: "inception_4c/pool_proj"
}
layer {
  name: "inception_4c/output"
  type: "Concat"
  bottom: "inception_4c/1x1"
  bottom: "inception_4c/3x3"
  bottom: "inception_4c/5x5"
  bottom: "inception_4c/pool_proj"
  top: "inception_4c/output"
}
layer {
  name: "inception_4d/1x1"
  type: "Convolution"
  bottom: "inception_4c/output"
  top: "inception_4d/1x1"
  param {
    lr_mult: 1
    decay_mult: 1
  }
  param {
    lr_mult: 2
    decay_mult: 0
  }
  convolution_param {
    num_output: 112
    kernel_size: 1
    weight_filler {
      type: "xavier"
      std: 0.03
    }
    bias_filler {
      type: "constant"
      value: 0.2
    }
  }
}
layer {
  name: "inception_4d/relu_1x1"
  type: "ReLU"
  bottom: "inception_4d/1x1"
  top: "inception_4d/1x1"
}
layer {
  name: "inception_4d/3x3_reduce"
  type: "Convolution"
  bottom: "inception_4c/output"
  top: "inception_4d/3x3_reduce"
  param {
    lr_mult: 1
    decay_mult: 1
  }
  param {
    lr_mult: 2
    decay_mult: 0
  }
  convolution_param {
    num_output: 144
    kernel_size: 1
    weight_filler {
      type: "xavier"
      std: 0.09
    }
    bias_filler {
      type: "constant"
      value: 0.2
    }
  }
}
layer {
  name: "inception_4d/relu_3x3_reduce"
  type: "ReLU"
  bottom: "inception_4d/3x3_reduce"
  top: "inception_4d/3x3_reduce"
}
layer {
  name: "inception_4d/3x3"
  type: "Convolution"
  bottom: "inception_4d/3x3_reduce"
  top: "inception_4d/3x3"
  param {
    lr_mult: 1
    decay_mult: 1
  }
  param {
    lr_mult: 2
    decay_mult: 0
  }
  convolution_param {
    num_output: 288
    pad: 1
    kernel_size: 3
    weight_filler {
      type: "xavier"
      std: 0.03
    }
    bias_filler {
      type: "constant"
      value: 0.2
    }
  }
}
layer {
  name: "inception_4d/relu_3x3"
  type: "ReLU"
  bottom: "inception_4d/3x3"
  top: "inception_4d/3x3"
}
layer {
  name: "inception_4d/5x5_reduce"
  type: "Convolution"
  bottom: "inception_4c/output"
  top: "inception_4d/5x5_reduce"
  param {
    lr_mult: 1
    decay_mult: 1
  }
  param {
    lr_mult: 2
    decay_mult: 0
  }
  convolution_param {
    num_output: 32
    kernel_size: 1
    weight_filler {
      type: "xavier"
      std: 0.2
    }
    bias_filler {
      type: "constant"
      value: 0.2
    }
  }
}
layer {
  name: "inception_4d/relu_5x5_reduce"
  type: "ReLU"
  bottom: "inception_4d/5x5_reduce"
  top: "inception_4d/5x5_reduce"
}
layer {
  name: "inception_4d/5x5"
  type: "Convolution"
  bottom: "inception_4d/5x5_reduce"
  top: "inception_4d/5x5"
  param {
    lr_mult: 1
    decay_mult: 1
  }
  param {
    lr_mult: 2
    decay_mult: 0
  }
  convolution_param {
    num_output: 64
    pad: 2
    kernel_size: 5
    weight_filler {
      type: "xavier"
      std: 0.03
    }
    bias_filler {
      type: "constant"
      value: 0.2
    }
  }
}
layer {
  name: "inception_4d/relu_5x5"
  type: "ReLU"
  bottom: "inception_4d/5x5"
  top: "inception_4d/5x5"
}
layer {
  name: "inception_4d/pool"
  type: "Pooling"
  bottom: "inception_4c/output"
  top: "inception_4d/pool"
  pooling_param {
    pool: MAX
    kernel_size: 3
    stride: 1
    pad: 1
  }
}
layer {
  name: "inception_4d/pool_proj"
  type: "Convolution"
  bottom: "inception_4d/pool"
  top: "inception_4d/pool_proj"
  param {
    lr_mult: 1
    decay_mult: 1
  }
  param {
    lr_mult: 2
    decay_mult: 0
  }
  convolution_param {
    num_output: 64
    kernel_size: 1
    weight_filler {
      type: "xavier"
      std: 0.1
    }
    bias_filler {
      type: "constant"
      value: 0.2
    }
  }
}
layer {
  name: "inception_4d/relu_pool_proj"
  type: "ReLU"
  bottom: "inception_4d/pool_proj"
  top: "inception_4d/pool_proj"
}
layer {
  name: "inception_4d/output"
  type: "Concat"
  bottom: "inception_4d/1x1"
  bottom: "inception_4d/3x3"
  bottom: "inception_4d/5x5"
  bottom: "inception_4d/pool_proj"
  top: "inception_4d/output"
}
layer {
  name: "loss2/ave_pool"
  type: "Pooling"
  bottom: "inception_4d/output"
  top: "loss2/ave_pool"
  pooling_param {
    pool: AVE
    kernel_size: 5
    stride: 3
  }
}
layer {
  name: "loss2/conv"
  type: "Convolution"
  bottom: "loss2/ave_pool"
  top: "loss2/conv"
  param {
    lr_mult: 1
    decay_mult: 1
  }
  param {
    lr_mult: 2
    decay_mult: 0
  }
  convolution_param {
    num_output: 128
    kernel_size: 1
    weight_filler {
      type: "xavier"
      std: 0.08
    }
    bias_filler {
      type: "constant"
      value: 0.2
    }
  }
}
layer {
  name: "loss2/relu_conv"
  type: "ReLU"
  bottom: "loss2/conv"
  top: "loss2/conv"
}
layer {
  name: "loss2/fc"
  type: "InnerProduct"
  bottom: "loss2/conv"
  top: "loss2/fc"
  param {
    lr_mult: 1
    decay_mult: 1
  }
  param {
    lr_mult: 2
    decay_mult: 0
  }
  inner_product_param {
    num_output: 1024
    weight_filler {
      type: "xavier"
      std: 0.02
    }
    bias_filler {
      type: "constant"
      value: 0.2
    }
  }
}
layer {
  name: "loss2/relu_fc"
  type: "ReLU"
  bottom: "loss2/fc"
  top: "loss2/fc"
}
layer {
  name: "loss2/drop_fc"
  type: "Dropout"
  bottom: "loss2/fc"
  top: "loss2/fc"
  dropout_param {
    dropout_ratio: 0.7
  }
}
layer {
  name: "loss2/classifier_plantvillage"
  type: "InnerProduct"
  bottom: "loss2/fc"
  top: "loss2/classifier_plantvillage"
  param {
    lr_mult: 1
    decay_mult: 1
  }
  param {
    lr_mult: 2
    decay_mult: 0
  }
  inner_product_param {
    num_output: 38
    weight_filler {
      type: "xavier"
      std: 0.0009765625
    }
    bias_filler {
      type: "constant"
      value: 0
    }
  }
}
layer {
  name: "inception_4e/1x1"
  type: "Convolution"
  bottom: "inception_4d/output"
  top: "inception_4e/1x1"
  param {
    lr_mult: 1
    decay_mult: 1
  }
  param {
    lr_mult: 2
    decay_mult: 0
  }
  convolution_param {
    num_output: 256
    kernel_size: 1
    weight_filler {
      type: "xavier"
      std: 0.03
    }
    bias_filler {
      type: "constant"
      value: 0.2
    }
  }
}
layer {
  name: "inception_4e/relu_1x1"
  type: "ReLU"
  bottom: "inception_4e/1x1"
  top: "inception_4e/1x1"
}
layer {
  name: "inception_4e/3x3_reduce"
  type: "Convolution"
  bottom: "inception_4d/output"
  top: "inception_4e/3x3_reduce"
  param {
    lr_mult: 1
    decay_mult: 1
  }
  param {
    lr_mult: 2
    decay_mult: 0
  }
  convolution_param {
    num_output: 160
    kernel_size: 1
    weight_filler {
      type: "xavier"
      std: 0.09
    }
    bias_filler {
      type: "constant"
      value: 0.2
    }
  }
}
layer {
  name: "inception_4e/relu_3x3_reduce"
  type: "ReLU"
  bottom: "inception_4e/3x3_reduce"
  top: "inception_4e/3x3_reduce"
}
layer {
  name: "inception_4e/3x3"
  type: "Convolution"
  bottom: "inception_4e/3x3_reduce"
  top: "inception_4e/3x3"
  param {
    lr_mult: 1
    decay_mult: 1
  }
  param {
    lr_mult: 2
    decay_mult: 0
  }
  convolution_param {
    num_output: 320
    pad: 1
    kernel_size: 3
    weight_filler {
      type: "xavier"
      std: 0.03
    }
    bias_filler {
      type: "constant"
      value: 0.2
    }
  }
}
layer {
  name: "inception_4e/relu_3x3"
  type: "ReLU"
  bottom: "inception_4e/3x3"
  top: "inception_4e/3x3"
}
layer {
  name: "inception_4e/5x5_reduce"
  type: "Convolution"
  bottom: "inception_4d/output"
  top: "inception_4e/5x5_reduce"
  param {
    lr_mult: 1
    decay_mult: 1
  }
  param {
    lr_mult: 2
    decay_mult: 0
  }
  convolution_param {
    num_output: 32
    kernel_size: 1
    weight_filler {
      type: "xavier"
      std: 0.2
    }
    bias_filler {
      type: "constant"
      value: 0.2
    }
  }
}
layer {
  name: "inception_4e/relu_5x5_reduce"
  type: "ReLU"
  bottom: "inception_4e/5x5_reduce"
  top: "inception_4e/5x5_reduce"
}
layer {
  name: "inception_4e/5x5"
  type: "Convolution"
  bottom: "inception_4e/5x5_reduce"
  top: "inception_4e/
I0403 15:03:51.489682 30974 layer_factory.hpp:77] Creating layer data
I0403 15:03:51.490295 30974 net.cpp:91] Creating Layer data
I0403 15:03:51.490329 30974 net.cpp:399] data -> data
I0403 15:03:51.490387 30974 net.cpp:399] data -> label
I0403 15:03:51.490430 30974 data_transformer.cpp:25] Loading mean file from: /home/mohanty/data/final_dataset/lmdb/grayscale-80-20/mean.binaryproto
I0403 15:03:51.493404 30976 db_lmdb.cpp:38] Opened lmdb /home/mohanty/data/final_dataset/lmdb/grayscale-80-20/test_db
I0403 15:03:51.503880 30974 data_layer.cpp:41] output data size: 24,3,224,224
I0403 15:03:51.531260 30974 net.cpp:141] Setting up data
I0403 15:03:51.531352 30974 net.cpp:148] Top shape: 24 3 224 224 (3612672)
I0403 15:03:51.531375 30974 net.cpp:148] Top shape: 24 (24)
I0403 15:03:51.531391 30974 net.cpp:156] Memory required for data: 14450784
I0403 15:03:51.531422 30974 layer_factory.hpp:77] Creating layer label_data_1_split
I0403 15:03:51.531450 30974 net.cpp:91] Creating Layer label_data_1_split
I0403 15:03:51.531469 30974 net.cpp:425] label_data_1_split <- label
I0403 15:03:51.531507 30974 net.cpp:399] label_data_1_split -> label_data_1_split_0
I0403 15:03:51.531538 30974 net.cpp:399] label_data_1_split -> label_data_1_split_1
I0403 15:03:51.531560 30974 net.cpp:399] label_data_1_split -> label_data_1_split_2
I0403 15:03:51.531581 30974 net.cpp:399] label_data_1_split -> label_data_1_split_3
I0403 15:03:51.531601 30974 net.cpp:399] label_data_1_split -> label_data_1_split_4
I0403 15:03:51.531620 30974 net.cpp:399] label_data_1_split -> label_data_1_split_5
I0403 15:03:51.531641 30974 net.cpp:399] label_data_1_split -> label_data_1_split_6
I0403 15:03:51.531661 30974 net.cpp:399] label_data_1_split -> label_data_1_split_7
I0403 15:03:51.531682 30974 net.cpp:399] label_data_1_split -> label_data_1_split_8
I0403 15:03:51.531702 30974 net.cpp:399] label_data_1_split -> label_data_1_split_9
I0403 15:03:51.531818 30974 net.cpp:141] Setting up label_data_1_split
I0403 15:03:51.531842 30974 net.cpp:148] Top shape: 24 (24)
I0403 15:03:51.531859 30974 net.cpp:148] Top shape: 24 (24)
I0403 15:03:51.531875 30974 net.cpp:148] Top shape: 24 (24)
I0403 15:03:51.531891 30974 net.cpp:148] Top shape: 24 (24)
I0403 15:03:51.531908 30974 net.cpp:148] Top shape: 24 (24)
I0403 15:03:51.531924 30974 net.cpp:148] Top shape: 24 (24)
I0403 15:03:51.531939 30974 net.cpp:148] Top shape: 24 (24)
I0403 15:03:51.531955 30974 net.cpp:148] Top shape: 24 (24)
I0403 15:03:51.531971 30974 net.cpp:148] Top shape: 24 (24)
I0403 15:03:51.531988 30974 net.cpp:148] Top shape: 24 (24)
I0403 15:03:51.532040 30974 net.cpp:156] Memory required for data: 14451744
I0403 15:03:51.532057 30974 layer_factory.hpp:77] Creating layer conv1/7x7_s2
I0403 15:03:51.532091 30974 net.cpp:91] Creating Layer conv1/7x7_s2
I0403 15:03:51.532110 30974 net.cpp:425] conv1/7x7_s2 <- data
I0403 15:03:51.532130 30974 net.cpp:399] conv1/7x7_s2 -> conv1/7x7_s2
I0403 15:03:51.676347 30974 net.cpp:141] Setting up conv1/7x7_s2
I0403 15:03:51.676429 30974 net.cpp:148] Top shape: 24 64 112 112 (19267584)
I0403 15:03:51.676446 30974 net.cpp:156] Memory required for data: 91522080
I0403 15:03:51.676482 30974 layer_factory.hpp:77] Creating layer conv1/relu_7x7
I0403 15:03:51.676515 30974 net.cpp:91] Creating Layer conv1/relu_7x7
I0403 15:03:51.676534 30974 net.cpp:425] conv1/relu_7x7 <- conv1/7x7_s2
I0403 15:03:51.676554 30974 net.cpp:386] conv1/relu_7x7 -> conv1/7x7_s2 (in-place)
I0403 15:03:51.676810 30974 net.cpp:141] Setting up conv1/relu_7x7
I0403 15:03:51.676836 30974 net.cpp:148] Top shape: 24 64 112 112 (19267584)
I0403 15:03:51.676852 30974 net.cpp:156] Memory required for data: 168592416
I0403 15:03:51.676867 30974 layer_factory.hpp:77] Creating layer pool1/3x3_s2
I0403 15:03:51.676893 30974 net.cpp:91] Creating Layer pool1/3x3_s2
I0403 15:03:51.676910 30974 net.cpp:425] pool1/3x3_s2 <- conv1/7x7_s2
I0403 15:03:51.676929 30974 net.cpp:399] pool1/3x3_s2 -> pool1/3x3_s2
I0403 15:03:51.677005 30974 net.cpp:141] Setting up pool1/3x3_s2
I0403 15:03:51.677028 30974 net.cpp:148] Top shape: 24 64 56 56 (4816896)
I0403 15:03:51.677043 30974 net.cpp:156] Memory required for data: 187860000
I0403 15:03:51.677059 30974 layer_factory.hpp:77] Creating layer pool1/norm1
I0403 15:03:51.677096 30974 net.cpp:91] Creating Layer pool1/norm1
I0403 15:03:51.677115 30974 net.cpp:425] pool1/norm1 <- pool1/3x3_s2
I0403 15:03:51.677134 30974 net.cpp:399] pool1/norm1 -> pool1/norm1
I0403 15:03:51.677417 30974 net.cpp:141] Setting up pool1/norm1
I0403 15:03:51.677443 30974 net.cpp:148] Top shape: 24 64 56 56 (4816896)
I0403 15:03:51.677459 30974 net.cpp:156] Memory required for data: 207127584
I0403 15:03:51.677474 30974 layer_factory.hpp:77] Creating layer conv2/3x3_reduce
I0403 15:03:51.677500 30974 net.cpp:91] Creating Layer conv2/3x3_reduce
I0403 15:03:51.677522 30974 net.cpp:425] conv2/3x3_reduce <- pool1/norm1
I0403 15:03:51.677541 30974 net.cpp:399] conv2/3x3_reduce -> conv2/3x3_reduce
I0403 15:03:51.678886 30974 net.cpp:141] Setting up conv2/3x3_reduce
I0403 15:03:51.678916 30974 net.cpp:148] Top shape: 24 64 56 56 (4816896)
I0403 15:03:51.678935 30974 net.cpp:156] Memory required for data: 226395168
I0403 15:03:51.678956 30974 layer_factory.hpp:77] Creating layer conv2/relu_3x3_reduce
I0403 15:03:51.678977 30974 net.cpp:91] Creating Layer conv2/relu_3x3_reduce
I0403 15:03:51.678993 30974 net.cpp:425] conv2/relu_3x3_reduce <- conv2/3x3_reduce
I0403 15:03:51.679011 30974 net.cpp:386] conv2/relu_3x3_reduce -> conv2/3x3_reduce (in-place)
I0403 15:03:51.679258 30974 net.cpp:141] Setting up conv2/relu_3x3_reduce
I0403 15:03:51.679286 30974 net.cpp:148] Top shape: 24 64 56 56 (4816896)
I0403 15:03:51.679302 30974 net.cpp:156] Memory required for data: 245662752
I0403 15:03:51.679319 30974 layer_factory.hpp:77] Creating layer conv2/3x3
I0403 15:03:51.679342 30974 net.cpp:91] Creating Layer conv2/3x3
I0403 15:03:51.679359 30974 net.cpp:425] conv2/3x3 <- conv2/3x3_reduce
I0403 15:03:51.679378 30974 net.cpp:399] conv2/3x3 -> conv2/3x3
I0403 15:03:51.681632 30974 net.cpp:141] Setting up conv2/3x3
I0403 15:03:51.681664 30974 net.cpp:148] Top shape: 24 192 56 56 (14450688)
I0403 15:03:51.681681 30974 net.cpp:156] Memory required for data: 303465504
I0403 15:03:51.681704 30974 layer_factory.hpp:77] Creating layer conv2/relu_3x3
I0403 15:03:51.681722 30974 net.cpp:91] Creating Layer conv2/relu_3x3
I0403 15:03:51.681737 30974 net.cpp:425] conv2/relu_3x3 <- conv2/3x3
I0403 15:03:51.681756 30974 net.cpp:386] conv2/relu_3x3 -> conv2/3x3 (in-place)
I0403 15:03:51.681933 30974 net.cpp:141] Setting up conv2/relu_3x3
I0403 15:03:51.681958 30974 net.cpp:148] Top shape: 24 192 56 56 (14450688)
I0403 15:03:51.682013 30974 net.cpp:156] Memory required for data: 361268256
I0403 15:03:51.682029 30974 layer_factory.hpp:77] Creating layer conv2/norm2
I0403 15:03:51.682049 30974 net.cpp:91] Creating Layer conv2/norm2
I0403 15:03:51.682066 30974 net.cpp:425] conv2/norm2 <- conv2/3x3
I0403 15:03:51.682085 30974 net.cpp:399] conv2/norm2 -> conv2/norm2
I0403 15:03:51.682386 30974 net.cpp:141] Setting up conv2/norm2
I0403 15:03:51.682412 30974 net.cpp:148] Top shape: 24 192 56 56 (14450688)
I0403 15:03:51.682427 30974 net.cpp:156] Memory required for data: 419071008
I0403 15:03:51.682442 30974 layer_factory.hpp:77] Creating layer pool2/3x3_s2
I0403 15:03:51.682462 30974 net.cpp:91] Creating Layer pool2/3x3_s2
I0403 15:03:51.682478 30974 net.cpp:425] pool2/3x3_s2 <- conv2/norm2
I0403 15:03:51.682497 30974 net.cpp:399] pool2/3x3_s2 -> pool2/3x3_s2
I0403 15:03:51.682554 30974 net.cpp:141] Setting up pool2/3x3_s2
I0403 15:03:51.682579 30974 net.cpp:148] Top shape: 24 192 28 28 (3612672)
I0403 15:03:51.682595 30974 net.cpp:156] Memory required for data: 433521696
I0403 15:03:51.682610 30974 layer_factory.hpp:77] Creating layer pool2/3x3_s2_pool2/3x3_s2_0_split
I0403 15:03:51.682626 30974 net.cpp:91] Creating Layer pool2/3x3_s2_pool2/3x3_s2_0_split
I0403 15:03:51.682641 30974 net.cpp:425] pool2/3x3_s2_pool2/3x3_s2_0_split <- pool2/3x3_s2
I0403 15:03:51.682660 30974 net.cpp:399] pool2/3x3_s2_pool2/3x3_s2_0_split -> pool2/3x3_s2_pool2/3x3_s2_0_split_0
I0403 15:03:51.682682 30974 net.cpp:399] pool2/3x3_s2_pool2/3x3_s2_0_split -> pool2/3x3_s2_pool2/3x3_s2_0_split_1
I0403 15:03:51.682701 30974 net.cpp:399] pool2/3x3_s2_pool2/3x3_s2_0_split -> pool2/3x3_s2_pool2/3x3_s2_0_split_2
I0403 15:03:51.682720 30974 net.cpp:399] pool2/3x3_s2_pool2/3x3_s2_0_split -> pool2/3x3_s2_pool2/3x3_s2_0_split_3
I0403 15:03:51.682792 30974 net.cpp:141] Setting up pool2/3x3_s2_pool2/3x3_s2_0_split
I0403 15:03:51.682816 30974 net.cpp:148] Top shape: 24 192 28 28 (3612672)
I0403 15:03:51.682833 30974 net.cpp:148] Top shape: 24 192 28 28 (3612672)
I0403 15:03:51.682849 30974 net.cpp:148] Top shape: 24 192 28 28 (3612672)
I0403 15:03:51.682865 30974 net.cpp:148] Top shape: 24 192 28 28 (3612672)
I0403 15:03:51.682879 30974 net.cpp:156] Memory required for data: 491324448
I0403 15:03:51.682893 30974 layer_factory.hpp:77] Creating layer inception_3a/1x1
I0403 15:03:51.682915 30974 net.cpp:91] Creating Layer inception_3a/1x1
I0403 15:03:51.682932 30974 net.cpp:425] inception_3a/1x1 <- pool2/3x3_s2_pool2/3x3_s2_0_split_0
I0403 15:03:51.682951 30974 net.cpp:399] inception_3a/1x1 -> inception_3a/1x1
I0403 15:03:51.684461 30974 net.cpp:141] Setting up inception_3a/1x1
I0403 15:03:51.684490 30974 net.cpp:148] Top shape: 24 64 28 28 (1204224)
I0403 15:03:51.684517 30974 net.cpp:156] Memory required for data: 496141344
I0403 15:03:51.684540 30974 layer_factory.hpp:77] Creating layer inception_3a/relu_1x1
I0403 15:03:51.684561 30974 net.cpp:91] Creating Layer inception_3a/relu_1x1
I0403 15:03:51.684579 30974 net.cpp:425] inception_3a/relu_1x1 <- inception_3a/1x1
I0403 15:03:51.684598 30974 net.cpp:386] inception_3a/relu_1x1 -> inception_3a/1x1 (in-place)
I0403 15:03:51.684769 30974 net.cpp:141] Setting up inception_3a/relu_1x1
I0403 15:03:51.684794 30974 net.cpp:148] Top shape: 24 64 28 28 (1204224)
I0403 15:03:51.684809 30974 net.cpp:156] Memory required for data: 500958240
I0403 15:03:51.684824 30974 layer_factory.hpp:77] Creating layer inception_3a/3x3_reduce
I0403 15:03:51.684849 30974 net.cpp:91] Creating Layer inception_3a/3x3_reduce
I0403 15:03:51.684866 30974 net.cpp:425] inception_3a/3x3_reduce <- pool2/3x3_s2_pool2/3x3_s2_0_split_1
I0403 15:03:51.684887 30974 net.cpp:399] inception_3a/3x3_reduce -> inception_3a/3x3_reduce
I0403 15:03:51.686564 30974 net.cpp:141] Setting up inception_3a/3x3_reduce
I0403 15:03:51.686601 30974 net.cpp:148] Top shape: 24 96 28 28 (1806336)
I0403 15:03:51.686617 30974 net.cpp:156] Memory required for data: 508183584
I0403 15:03:51.686640 30974 layer_factory.hpp:77] Creating layer inception_3a/relu_3x3_reduce
I0403 15:03:51.686674 30974 net.cpp:91] Creating Layer inception_3a/relu_3x3_reduce
I0403 15:03:51.686691 30974 net.cpp:425] inception_3a/relu_3x3_reduce <- inception_3a/3x3_reduce
I0403 15:03:51.686712 30974 net.cpp:386] inception_3a/relu_3x3_reduce -> inception_3a/3x3_reduce (in-place)
I0403 15:03:51.686892 30974 net.cpp:141] Setting up inception_3a/relu_3x3_reduce
I0403 15:03:51.686916 30974 net.cpp:148] Top shape: 24 96 28 28 (1806336)
I0403 15:03:51.686931 30974 net.cpp:156] Memory required for data: 515408928
I0403 15:03:51.686946 30974 layer_factory.hpp:77] Creating layer inception_3a/3x3
I0403 15:03:51.686969 30974 net.cpp:91] Creating Layer inception_3a/3x3
I0403 15:03:51.686987 30974 net.cpp:425] inception_3a/3x3 <- inception_3a/3x3_reduce
I0403 15:03:51.687008 30974 net.cpp:399] inception_3a/3x3 -> inception_3a/3x3
I0403 15:03:51.688640 30974 net.cpp:141] Setting up inception_3a/3x3
I0403 15:03:51.688670 30974 net.cpp:148] Top shape: 24 128 28 28 (2408448)
I0403 15:03:51.688688 30974 net.cpp:156] Memory required for data: 525042720
I0403 15:03:51.688707 30974 layer_factory.hpp:77] Creating layer inception_3a/relu_3x3
I0403 15:03:51.688725 30974 net.cpp:91] Creating Layer inception_3a/relu_3x3
I0403 15:03:51.688741 30974 net.cpp:425] inception_3a/relu_3x3 <- inception_3a/3x3
I0403 15:03:51.688761 30974 net.cpp:386] inception_3a/relu_3x3 -> inception_3a/3x3 (in-place)
I0403 15:03:51.689038 30974 net.cpp:141] Setting up inception_3a/relu_3x3
I0403 15:03:51.689065 30974 net.cpp:148] Top shape: 24 128 28 28 (2408448)
I0403 15:03:51.689082 30974 net.cpp:156] Memory required for data: 534676512
I0403 15:03:51.689097 30974 layer_factory.hpp:77] Creating layer inception_3a/5x5_reduce
I0403 15:03:51.689119 30974 net.cpp:91] Creating Layer inception_3a/5x5_reduce
I0403 15:03:51.689143 30974 net.cpp:425] inception_3a/5x5_reduce <- pool2/3x3_s2_pool2/3x3_s2_0_split_2
I0403 15:03:51.689162 30974 net.cpp:399] inception_3a/5x5_reduce -> inception_3a/5x5_reduce
I0403 15:03:51.690099 30974 net.cpp:141] Setting up inception_3a/5x5_reduce
I0403 15:03:51.690129 30974 net.cpp:148] Top shape: 24 16 28 28 (301056)
I0403 15:03:51.690145 30974 net.cpp:156] Memory required for data: 535880736
I0403 15:03:51.690165 30974 layer_factory.hpp:77] Creating layer inception_3a/relu_5x5_reduce
I0403 15:03:51.690182 30974 net.cpp:91] Creating Layer inception_3a/relu_5x5_reduce
I0403 15:03:51.690197 30974 net.cpp:425] inception_3a/relu_5x5_reduce <- inception_3a/5x5_reduce
I0403 15:03:51.690217 30974 net.cpp:386] inception_3a/relu_5x5_reduce -> inception_3a/5x5_reduce (in-place)
I0403 15:03:51.690533 30974 net.cpp:141] Setting up inception_3a/relu_5x5_reduce
I0403 15:03:51.690572 30974 net.cpp:148] Top shape: 24 16 28 28 (301056)
I0403 15:03:51.690587 30974 net.cpp:156] Memory required for data: 537084960
I0403 15:03:51.690603 30974 layer_factory.hpp:77] Creating layer inception_3a/5x5
I0403 15:03:51.690624 30974 net.cpp:91] Creating Layer inception_3a/5x5
I0403 15:03:51.690642 30974 net.cpp:425] inception_3a/5x5 <- inception_3a/5x5_reduce
I0403 15:03:51.690662 30974 net.cpp:399] inception_3a/5x5 -> inception_3a/5x5
I0403 15:03:51.691650 30974 net.cpp:141] Setting up inception_3a/5x5
I0403 15:03:51.691679 30974 net.cpp:148] Top shape: 24 32 28 28 (602112)
I0403 15:03:51.691696 30974 net.cpp:156] Memory required for data: 539493408
I0403 15:03:51.691715 30974 layer_factory.hpp:77] Creating layer inception_3a/relu_5x5
I0403 15:03:51.691733 30974 net.cpp:91] Creating Layer inception_3a/relu_5x5
I0403 15:03:51.691750 30974 net.cpp:425] inception_3a/relu_5x5 <- inception_3a/5x5
I0403 15:03:51.691769 30974 net.cpp:386] inception_3a/relu_5x5 -> inception_3a/5x5 (in-place)
I0403 15:03:51.691941 30974 net.cpp:141] Setting up inception_3a/relu_5x5
I0403 15:03:51.691965 30974 net.cpp:148] Top shape: 24 32 28 28 (602112)
I0403 15:03:51.691979 30974 net.cpp:156] Memory required for data: 541901856
I0403 15:03:51.691994 30974 layer_factory.hpp:77] Creating layer inception_3a/pool
I0403 15:03:51.692011 30974 net.cpp:91] Creating Layer inception_3a/pool
I0403 15:03:51.692040 30974 net.cpp:425] inception_3a/pool <- pool2/3x3_s2_pool2/3x3_s2_0_split_3
I0403 15:03:51.692061 30974 net.cpp:399] inception_3a/pool -> inception_3a/pool
I0403 15:03:51.692117 30974 net.cpp:141] Setting up inception_3a/pool
I0403 15:03:51.692142 30974 net.cpp:148] Top shape: 24 192 28 28 (3612672)
I0403 15:03:51.692157 30974 net.cpp:156] Memory required for data: 556352544
I0403 15:03:51.692172 30974 layer_factory.hpp:77] Creating layer inception_3a/pool_proj
I0403 15:03:51.692196 30974 net.cpp:91] Creating Layer inception_3a/pool_proj
I0403 15:03:51.692214 30974 net.cpp:425] inception_3a/pool_proj <- inception_3a/pool
I0403 15:03:51.692232 30974 net.cpp:399] inception_3a/pool_proj -> inception_3a/pool_proj
I0403 15:03:51.693174 30974 net.cpp:141] Setting up inception_3a/pool_proj
I0403 15:03:51.693203 30974 net.cpp:148] Top shape: 24 32 28 28 (602112)
I0403 15:03:51.693219 30974 net.cpp:156] Memory required for data: 558760992
I0403 15:03:51.693243 30974 layer_factory.hpp:77] Creating layer inception_3a/relu_pool_proj
I0403 15:03:51.693262 30974 net.cpp:91] Creating Layer inception_3a/relu_pool_proj
I0403 15:03:51.693279 30974 net.cpp:425] inception_3a/relu_pool_proj <- inception_3a/pool_proj
I0403 15:03:51.693298 30974 net.cpp:386] inception_3a/relu_pool_proj -> inception_3a/pool_proj (in-place)
I0403 15:03:51.693574 30974 net.cpp:141] Setting up inception_3a/relu_pool_proj
I0403 15:03:51.693603 30974 net.cpp:148] Top shape: 24 32 28 28 (602112)
I0403 15:03:51.693619 30974 net.cpp:156] Memory required for data: 561169440
I0403 15:03:51.693634 30974 layer_factory.hpp:77] Creating layer inception_3a/output
I0403 15:03:51.693652 30974 net.cpp:91] Creating Layer inception_3a/output
I0403 15:03:51.693668 30974 net.cpp:425] inception_3a/output <- inception_3a/1x1
I0403 15:03:51.693684 30974 net.cpp:425] inception_3a/output <- inception_3a/3x3
I0403 15:03:51.693701 30974 net.cpp:425] inception_3a/output <- inception_3a/5x5
I0403 15:03:51.693718 30974 net.cpp:425] inception_3a/output <- inception_3a/pool_proj
I0403 15:03:51.693738 30974 net.cpp:399] inception_3a/output -> inception_3a/output
I0403 15:03:51.693785 30974 net.cpp:141] Setting up inception_3a/output
I0403 15:03:51.693807 30974 net.cpp:148] Top shape: 24 256 28 28 (4816896)
I0403 15:03:51.693822 30974 net.cpp:156] Memory required for data: 580437024
I0403 15:03:51.693837 30974 layer_factory.hpp:77] Creating layer inception_3a/output_inception_3a/output_0_split
I0403 15:03:51.693857 30974 net.cpp:91] Creating Layer inception_3a/output_inception_3a/output_0_split
I0403 15:03:51.693873 30974 net.cpp:425] inception_3a/output_inception_3a/output_0_split <- inception_3a/output
I0403 15:03:51.693892 30974 net.cpp:399] inception_3a/output_inception_3a/output_0_split -> inception_3a/output_inception_3a/output_0_split_0
I0403 15:03:51.693910 30974 net.cpp:399] inception_3a/output_inception_3a/output_0_split -> inception_3a/output_inception_3a/output_0_split_1
I0403 15:03:51.693934 30974 net.cpp:399] inception_3a/output_inception_3a/output_0_split -> inception_3a/output_inception_3a/output_0_split_2
I0403 15:03:51.693954 30974 net.cpp:399] inception_3a/output_inception_3a/output_0_split -> inception_3a/output_inception_3a/output_0_split_3
I0403 15:03:51.694026 30974 net.cpp:141] Setting up inception_3a/output_inception_3a/output_0_split
I0403 15:03:51.694051 30974 net.cpp:148] Top shape: 24 256 28 28 (4816896)
I0403 15:03:51.694068 30974 net.cpp:148] Top shape: 24 256 28 28 (4816896)
I0403 15:03:51.694085 30974 net.cpp:148] Top shape: 24 256 28 28 (4816896)
I0403 15:03:51.694100 30974 net.cpp:148] Top shape: 24 256 28 28 (4816896)
I0403 15:03:51.694114 30974 net.cpp:156] Memory required for data: 657507360
I0403 15:03:51.694129 30974 layer_factory.hpp:77] Creating layer inception_3b/1x1
I0403 15:03:51.694151 30974 net.cpp:91] Creating Layer inception_3b/1x1
I0403 15:03:51.694169 30974 net.cpp:425] inception_3b/1x1 <- inception_3a/output_inception_3a/output_0_split_0
I0403 15:03:51.694187 30974 net.cpp:399] inception_3b/1x1 -> inception_3b/1x1
I0403 15:03:51.695303 30974 net.cpp:141] Setting up inception_3b/1x1
I0403 15:03:51.695343 30974 net.cpp:148] Top shape: 24 128 28 28 (2408448)
I0403 15:03:51.695358 30974 net.cpp:156] Memory required for data: 667141152
I0403 15:03:51.695379 30974 layer_factory.hpp:77] Creating layer inception_3b/relu_1x1
I0403 15:03:51.695399 30974 net.cpp:91] Creating Layer inception_3b/relu_1x1
I0403 15:03:51.695415 30974 net.cpp:425] inception_3b/relu_1x1 <- inception_3b/1x1
I0403 15:03:51.695432 30974 net.cpp:386] inception_3b/relu_1x1 -> inception_3b/1x1 (in-place)
I0403 15:03:51.695605 30974 net.cpp:141] Setting up inception_3b/relu_1x1
I0403 15:03:51.695631 30974 net.cpp:148] Top shape: 24 128 28 28 (2408448)
I0403 15:03:51.695647 30974 net.cpp:156] Memory required for data: 676774944
I0403 15:03:51.695662 30974 layer_factory.hpp:77] Creating layer inception_3b/3x3_reduce
I0403 15:03:51.695683 30974 net.cpp:91] Creating Layer inception_3b/3x3_reduce
I0403 15:03:51.695700 30974 net.cpp:425] inception_3b/3x3_reduce <- inception_3a/output_inception_3a/output_0_split_1
I0403 15:03:51.695719 30974 net.cpp:399] inception_3b/3x3_reduce -> inception_3b/3x3_reduce
I0403 15:03:51.696815 30974 net.cpp:141] Setting up inception_3b/3x3_reduce
I0403 15:03:51.696841 30974 net.cpp:148] Top shape: 24 128 28 28 (2408448)
I0403 15:03:51.696856 30974 net.cpp:156] Memory required for data: 686408736
I0403 15:03:51.696878 30974 layer_factory.hpp:77] Creating layer inception_3b/relu_3x3_reduce
I0403 15:03:51.696898 30974 net.cpp:91] Creating Layer inception_3b/relu_3x3_reduce
I0403 15:03:51.696915 30974 net.cpp:425] inception_3b/relu_3x3_reduce <- inception_3b/3x3_reduce
I0403 15:03:51.696933 30974 net.cpp:386] inception_3b/relu_3x3_reduce -> inception_3b/3x3_reduce (in-place)
I0403 15:03:51.697096 30974 net.cpp:141] Setting up inception_3b/relu_3x3_reduce
I0403 15:03:51.697121 30974 net.cpp:148] Top shape: 24 128 28 28 (2408448)
I0403 15:03:51.697136 30974 net.cpp:156] Memory required for data: 696042528
I0403 15:03:51.697151 30974 layer_factory.hpp:77] Creating layer inception_3b/3x3
I0403 15:03:51.697175 30974 net.cpp:91] Creating Layer inception_3b/3x3
I0403 15:03:51.697192 30974 net.cpp:425] inception_3b/3x3 <- inception_3b/3x3_reduce
I0403 15:03:51.697212 30974 net.cpp:399] inception_3b/3x3 -> inception_3b/3x3
I0403 15:03:51.700078 30974 net.cpp:141] Setting up inception_3b/3x3
I0403 15:03:51.700108 30974 net.cpp:148] Top shape: 24 192 28 28 (3612672)
I0403 15:03:51.700124 30974 net.cpp:156] Memory required for data: 710493216
I0403 15:03:51.700142 30974 layer_factory.hpp:77] Creating layer inception_3b/relu_3x3
I0403 15:03:51.700160 30974 net.cpp:91] Creating Layer inception_3b/relu_3x3
I0403 15:03:51.700176 30974 net.cpp:425] inception_3b/relu_3x3 <- inception_3b/3x3
I0403 15:03:51.700194 30974 net.cpp:386] inception_3b/relu_3x3 -> inception_3b/3x3 (in-place)
I0403 15:03:51.700464 30974 net.cpp:141] Setting up inception_3b/relu_3x3
I0403 15:03:51.700491 30974 net.cpp:148] Top shape: 24 192 28 28 (3612672)
I0403 15:03:51.700515 30974 net.cpp:156] Memory required for data: 724943904
I0403 15:03:51.700532 30974 layer_factory.hpp:77] Creating layer inception_3b/5x5_reduce
I0403 15:03:51.700565 30974 net.cpp:91] Creating Layer inception_3b/5x5_reduce
I0403 15:03:51.700582 30974 net.cpp:425] inception_3b/5x5_reduce <- inception_3a/output_inception_3a/output_0_split_2
I0403 15:03:51.700600 30974 net.cpp:399] inception_3b/5x5_reduce -> inception_3b/5x5_reduce
I0403 15:03:51.701556 30974 net.cpp:141] Setting up inception_3b/5x5_reduce
I0403 15:03:51.701586 30974 net.cpp:148] Top shape: 24 32 28 28 (602112)
I0403 15:03:51.701601 30974 net.cpp:156] Memory required for data: 727352352
I0403 15:03:51.701619 30974 layer_factory.hpp:77] Creating layer inception_3b/relu_5x5_reduce
I0403 15:03:51.701638 30974 net.cpp:91] Creating Layer inception_3b/relu_5x5_reduce
I0403 15:03:51.701653 30974 net.cpp:425] inception_3b/relu_5x5_reduce <- inception_3b/5x5_reduce
I0403 15:03:51.701673 30974 net.cpp:386] inception_3b/relu_5x5_reduce -> inception_3b/5x5_reduce (in-place)
I0403 15:03:51.701853 30974 net.cpp:141] Setting up inception_3b/relu_5x5_reduce
I0403 15:03:51.701877 30974 net.cpp:148] Top shape: 24 32 28 28 (602112)
I0403 15:03:51.701892 30974 net.cpp:156] Memory required for data: 729760800
I0403 15:03:51.701907 30974 layer_factory.hpp:77] Creating layer inception_3b/5x5
I0403 15:03:51.701931 30974 net.cpp:91] Creating Layer inception_3b/5x5
I0403 15:03:51.701948 30974 net.cpp:425] inception_3b/5x5 <- inception_3b/5x5_reduce
I0403 15:03:51.701968 30974 net.cpp:399] inception_3b/5x5 -> inception_3b/5x5
I0403 15:03:51.703874 30974 net.cpp:141] Setting up inception_3b/5x5
I0403 15:03:51.703902 30974 net.cpp:148] Top shape: 24 96 28 28 (1806336)
I0403 15:03:51.703917 30974 net.cpp:156] Memory required for data: 736986144
I0403 15:03:51.703936 30974 layer_factory.hpp:77] Creating layer inception_3b/relu_5x5
I0403 15:03:51.703956 30974 net.cpp:91] Creating Layer inception_3b/relu_5x5
I0403 15:03:51.703972 30974 net.cpp:425] inception_3b/relu_5x5 <- inception_3b/5x5
I0403 15:03:51.703989 30974 net.cpp:386] inception_3b/relu_5x5 -> inception_3b/5x5 (in-place)
I0403 15:03:51.704170 30974 net.cpp:141] Setting up inception_3b/relu_5x5
I0403 15:03:51.704195 30974 net.cpp:148] Top shape: 24 96 28 28 (1806336)
I0403 15:03:51.704210 30974 net.cpp:156] Memory required for data: 744211488
I0403 15:03:51.704224 30974 layer_factory.hpp:77] Creating layer inception_3b/pool
I0403 15:03:51.704241 30974 net.cpp:91] Creating Layer inception_3b/pool
I0403 15:03:51.704255 30974 net.cpp:425] inception_3b/pool <- inception_3a/output_inception_3a/output_0_split_3
I0403 15:03:51.704273 30974 net.cpp:399] inception_3b/pool -> inception_3b/pool
I0403 15:03:51.704325 30974 net.cpp:141] Setting up inception_3b/pool
I0403 15:03:51.704346 30974 net.cpp:148] Top shape: 24 256 28 28 (4816896)
I0403 15:03:51.704361 30974 net.cpp:156] Memory required for data: 763479072
I0403 15:03:51.704375 30974 layer_factory.hpp:77] Creating layer inception_3b/pool_proj
I0403 15:03:51.704397 30974 net.cpp:91] Creating Layer inception_3b/pool_proj
I0403 15:03:51.704416 30974 net.cpp:425] inception_3b/pool_proj <- inception_3b/pool
I0403 15:03:51.704433 30974 net.cpp:399] inception_3b/pool_proj -> inception_3b/pool_proj
I0403 15:03:51.705469 30974 net.cpp:141] Setting up inception_3b/pool_proj
I0403 15:03:51.705497 30974 net.cpp:148] Top shape: 24 64 28 28 (1204224)
I0403 15:03:51.705518 30974 net.cpp:156] Memory required for data: 768295968
I0403 15:03:51.705538 30974 layer_factory.hpp:77] Creating layer inception_3b/relu_pool_proj
I0403 15:03:51.705567 30974 net.cpp:91] Creating Layer inception_3b/relu_pool_proj
I0403 15:03:51.705584 30974 net.cpp:425] inception_3b/relu_pool_proj <- inception_3b/pool_proj
I0403 15:03:51.705602 30974 net.cpp:386] inception_3b/relu_pool_proj -> inception_3b/pool_proj (in-place)
I0403 15:03:51.705986 30974 net.cpp:141] Setting up inception_3b/relu_pool_proj
I0403 15:03:51.706012 30974 net.cpp:148] Top shape: 24 64 28 28 (1204224)
I0403 15:03:51.706027 30974 net.cpp:156] Memory required for data: 773112864
I0403 15:03:51.706042 30974 layer_factory.hpp:77] Creating layer inception_3b/output
I0403 15:03:51.706059 30974 net.cpp:91] Creating Layer inception_3b/output
I0403 15:03:51.706074 30974 net.cpp:425] inception_3b/output <- inception_3b/1x1
I0403 15:03:51.706090 30974 net.cpp:425] inception_3b/output <- inception_3b/3x3
I0403 15:03:51.706105 30974 net.cpp:425] inception_3b/output <- inception_3b/5x5
I0403 15:03:51.706121 30974 net.cpp:425] inception_3b/output <- inception_3b/pool_proj
I0403 15:03:51.706140 30974 net.cpp:399] inception_3b/output -> inception_3b/output
I0403 15:03:51.706181 30974 net.cpp:141] Setting up inception_3b/output
I0403 15:03:51.706205 30974 net.cpp:148] Top shape: 24 480 28 28 (9031680)
I0403 15:03:51.706220 30974 net.cpp:156] Memory required for data: 809239584
I0403 15:03:51.706234 30974 layer_factory.hpp:77] Creating layer pool3/3x3_s2
I0403 15:03:51.706251 30974 net.cpp:91] Creating Layer pool3/3x3_s2
I0403 15:03:51.706266 30974 net.cpp:425] pool3/3x3_s2 <- inception_3b/output
I0403 15:03:51.706300 30974 net.cpp:399] pool3/3x3_s2 -> pool3/3x3_s2
I0403 15:03:51.706354 30974 net.cpp:141] Setting up pool3/3x3_s2
I0403 15:03:51.706377 30974 net.cpp:148] Top shape: 24 480 14 14 (2257920)
I0403 15:03:51.706392 30974 net.cpp:156] Memory required for data: 818271264
I0403 15:03:51.706405 30974 layer_factory.hpp:77] Creating layer pool3/3x3_s2_pool3/3x3_s2_0_split
I0403 15:03:51.706424 30974 net.cpp:91] Creating Layer pool3/3x3_s2_pool3/3x3_s2_0_split
I0403 15:03:51.706440 30974 net.cpp:425] pool3/3x3_s2_pool3/3x3_s2_0_split <- pool3/3x3_s2
I0403 15:03:51.706456 30974 net.cpp:399] pool3/3x3_s2_pool3/3x3_s2_0_split -> pool3/3x3_s2_pool3/3x3_s2_0_split_0
I0403 15:03:51.706475 30974 net.cpp:399] pool3/3x3_s2_pool3/3x3_s2_0_split -> pool3/3x3_s2_pool3/3x3_s2_0_split_1
I0403 15:03:51.706495 30974 net.cpp:399] pool3/3x3_s2_pool3/3x3_s2_0_split -> pool3/3x3_s2_pool3/3x3_s2_0_split_2
I0403 15:03:51.706518 30974 net.cpp:399] pool3/3x3_s2_pool3/3x3_s2_0_split -> pool3/3x3_s2_pool3/3x3_s2_0_split_3
I0403 15:03:51.706593 30974 net.cpp:141] Setting up pool3/3x3_s2_pool3/3x3_s2_0_split
I0403 15:03:51.706615 30974 net.cpp:148] Top shape: 24 480 14 14 (2257920)
I0403 15:03:51.706630 30974 net.cpp:148] Top shape: 24 480 14 14 (2257920)
I0403 15:03:51.706645 30974 net.cpp:148] Top shape: 24 480 14 14 (2257920)
I0403 15:03:51.706660 30974 net.cpp:148] Top shape: 24 480 14 14 (2257920)
I0403 15:03:51.706675 30974 net.cpp:156] Memory required for data: 854397984
I0403 15:03:51.706688 30974 layer_factory.hpp:77] Creating layer inception_4a/1x1
I0403 15:03:51.706710 30974 net.cpp:91] Creating Layer inception_4a/1x1
I0403 15:03:51.706727 30974 net.cpp:425] inception_4a/1x1 <- pool3/3x3_s2_pool3/3x3_s2_0_split_0
I0403 15:03:51.706748 30974 net.cpp:399] inception_4a/1x1 -> inception_4a/1x1
I0403 15:03:51.708284 30974 net.cpp:141] Setting up inception_4a/1x1
I0403 15:03:51.708312 30974 net.cpp:148] Top shape: 24 192 14 14 (903168)
I0403 15:03:51.708326 30974 net.cpp:156] Memory required for data: 858010656
I0403 15:03:51.708345 30974 layer_factory.hpp:77] Creating layer inception_4a/relu_1x1
I0403 15:03:51.708364 30974 net.cpp:91] Creating Layer inception_4a/relu_1x1
I0403 15:03:51.708381 30974 net.cpp:425] inception_4a/relu_1x1 <- inception_4a/1x1
I0403 15:03:51.708397 30974 net.cpp:386] inception_4a/relu_1x1 -> inception_4a/1x1 (in-place)
I0403 15:03:51.708575 30974 net.cpp:141] Setting up inception_4a/relu_1x1
I0403 15:03:51.708600 30974 net.cpp:148] Top shape: 24 192 14 14 (903168)
I0403 15:03:51.708616 30974 net.cpp:156] Memory required for data: 861623328
I0403 15:03:51.708631 30974 layer_factory.hpp:77] Creating layer inception_4a/3x3_reduce
I0403 15:03:51.708649 30974 net.cpp:91] Creating Layer inception_4a/3x3_reduce
I0403 15:03:51.708665 30974 net.cpp:425] inception_4a/3x3_reduce <- pool3/3x3_s2_pool3/3x3_s2_0_split_1
I0403 15:03:51.708688 30974 net.cpp:399] inception_4a/3x3_reduce -> inception_4a/3x3_reduce
I0403 15:03:51.709903 30974 net.cpp:141] Setting up inception_4a/3x3_reduce
I0403 15:03:51.709929 30974 net.cpp:148] Top shape: 24 96 14 14 (451584)
I0403 15:03:51.709944 30974 net.cpp:156] Memory required for data: 863429664
I0403 15:03:51.709969 30974 layer_factory.hpp:77] Creating layer inception_4a/relu_3x3_reduce
I0403 15:03:51.709987 30974 net.cpp:91] Creating Layer inception_4a/relu_3x3_reduce
I0403 15:03:51.710003 30974 net.cpp:425] inception_4a/relu_3x3_reduce <- inception_4a/3x3_reduce
I0403 15:03:51.710022 30974 net.cpp:386] inception_4a/relu_3x3_reduce -> inception_4a/3x3_reduce (in-place)
I0403 15:03:51.710191 30974 net.cpp:141] Setting up inception_4a/relu_3x3_reduce
I0403 15:03:51.710214 30974 net.cpp:148] Top shape: 24 96 14 14 (451584)
I0403 15:03:51.710228 30974 net.cpp:156] Memory required for data: 865236000
I0403 15:03:51.710242 30974 layer_factory.hpp:77] Creating layer inception_4a/3x3
I0403 15:03:51.710264 30974 net.cpp:91] Creating Layer inception_4a/3x3
I0403 15:03:51.710281 30974 net.cpp:425] inception_4a/3x3 <- inception_4a/3x3_reduce
I0403 15:03:51.710301 30974 net.cpp:399] inception_4a/3x3 -> inception_4a/3x3
I0403 15:03:51.712882 30974 net.cpp:141] Setting up inception_4a/3x3
I0403 15:03:51.712910 30974 net.cpp:148] Top shape: 24 208 14 14 (978432)
I0403 15:03:51.712924 30974 net.cpp:156] Memory required for data: 869149728
I0403 15:03:51.712942 30974 layer_factory.hpp:77] Creating layer inception_4a/relu_3x3
I0403 15:03:51.712965 30974 net.cpp:91] Creating Layer inception_4a/relu_3x3
I0403 15:03:51.712981 30974 net.cpp:425] inception_4a/relu_3x3 <- inception_4a/3x3
I0403 15:03:51.712998 30974 net.cpp:386] inception_4a/relu_3x3 -> inception_4a/3x3 (in-place)
I0403 15:03:51.713269 30974 net.cpp:141] Setting up inception_4a/relu_3x3
I0403 15:03:51.713294 30974 net.cpp:148] Top shape: 24 208 14 14 (978432)
I0403 15:03:51.713310 30974 net.cpp:156] Memory required for data: 873063456
I0403 15:03:51.713325 30974 layer_factory.hpp:77] Creating layer inception_4a/5x5_reduce
I0403 15:03:51.713348 30974 net.cpp:91] Creating Layer inception_4a/5x5_reduce
I0403 15:03:51.713366 30974 net.cpp:425] inception_4a/5x5_reduce <- pool3/3x3_s2_pool3/3x3_s2_0_split_2
I0403 15:03:51.713384 30974 net.cpp:399] inception_4a/5x5_reduce -> inception_4a/5x5_reduce
I0403 15:03:51.714364 30974 net.cpp:141] Setting up inception_4a/5x5_reduce
I0403 15:03:51.714393 30974 net.cpp:148] Top shape: 24 16 14 14 (75264)
I0403 15:03:51.714408 30974 net.cpp:156] Memory required for data: 873364512
I0403 15:03:51.714426 30974 layer_factory.hpp:77] Creating layer inception_4a/relu_5x5_reduce
I0403 15:03:51.714444 30974 net.cpp:91] Creating Layer inception_4a/relu_5x5_reduce
I0403 15:03:51.714460 30974 net.cpp:425] inception_4a/relu_5x5_reduce <- inception_4a/5x5_reduce
I0403 15:03:51.714478 30974 net.cpp:386] inception_4a/relu_5x5_reduce -> inception_4a/5x5_reduce (in-place)
I0403 15:03:51.714661 30974 net.cpp:141] Setting up inception_4a/relu_5x5_reduce
I0403 15:03:51.714686 30974 net.cpp:148] Top shape: 24 16 14 14 (75264)
I0403 15:03:51.714700 30974 net.cpp:156] Memory required for data: 873665568
I0403 15:03:51.714716 30974 layer_factory.hpp:77] Creating layer inception_4a/5x5
I0403 15:03:51.714737 30974 net.cpp:91] Creating Layer inception_4a/5x5
I0403 15:03:51.714754 30974 net.cpp:425] inception_4a/5x5 <- inception_4a/5x5_reduce
I0403 15:03:51.714776 30974 net.cpp:399] inception_4a/5x5 -> inception_4a/5x5
I0403 15:03:51.715836 30974 net.cpp:141] Setting up inception_4a/5x5
I0403 15:03:51.715862 30974 net.cpp:148] Top shape: 24 48 14 14 (225792)
I0403 15:03:51.715878 30974 net.cpp:156] Memory required for data: 874568736
I0403 15:03:51.715895 30974 layer_factory.hpp:77] Creating layer inception_4a/relu_5x5
I0403 15:03:51.715914 30974 net.cpp:91] Creating Layer inception_4a/relu_5x5
I0403 15:03:51.715931 30974 net.cpp:425] inception_4a/relu_5x5 <- inception_4a/5x5
I0403 15:03:51.715948 30974 net.cpp:386] inception_4a/relu_5x5 -> inception_4a/5x5 (in-place)
I0403 15:03:51.716120 30974 net.cpp:141] Setting up inception_4a/relu_5x5
I0403 15:03:51.716152 30974 net.cpp:148] Top shape: 24 48 14 14 (225792)
I0403 15:03:51.716166 30974 net.cpp:156] Memory required for data: 875471904
I0403 15:03:51.716182 30974 layer_factory.hpp:77] Creating layer inception_4a/pool
I0403 15:03:51.716203 30974 net.cpp:91] Creating Layer inception_4a/pool
I0403 15:03:51.716219 30974 net.cpp:425] inception_4a/pool <- pool3/3x3_s2_pool3/3x3_s2_0_split_3
I0403 15:03:51.716236 30974 net.cpp:399] inception_4a/pool -> inception_4a/pool
I0403 15:03:51.716308 30974 net.cpp:141] Setting up inception_4a/pool
I0403 15:03:51.716331 30974 net.cpp:148] Top shape: 24 480 14 14 (2257920)
I0403 15:03:51.716346 30974 net.cpp:156] Memory required for data: 884503584
I0403 15:03:51.716361 30974 layer_factory.hpp:77] Creating layer inception_4a/pool_proj
I0403 15:03:51.716384 30974 net.cpp:91] Creating Layer inception_4a/pool_proj
I0403 15:03:51.716401 30974 net.cpp:425] inception_4a/pool_proj <- inception_4a/pool
I0403 15:03:51.716423 30974 net.cpp:399] inception_4a/pool_proj -> inception_4a/pool_proj
I0403 15:03:51.717568 30974 net.cpp:141] Setting up inception_4a/pool_proj
I0403 15:03:51.717595 30974 net.cpp:148] Top shape: 24 64 14 14 (301056)
I0403 15:03:51.717625 30974 net.cpp:156] Memory required for data: 885707808
I0403 15:03:51.717644 30974 layer_factory.hpp:77] Creating layer inception_4a/relu_pool_proj
I0403 15:03:51.717665 30974 net.cpp:91] Creating Layer inception_4a/relu_pool_proj
I0403 15:03:51.717681 30974 net.cpp:425] inception_4a/relu_pool_proj <- inception_4a/pool_proj
I0403 15:03:51.717699 30974 net.cpp:386] inception_4a/relu_pool_proj -> inception_4a/pool_proj (in-place)
I0403 15:03:51.717974 30974 net.cpp:141] Setting up inception_4a/relu_pool_proj
I0403 15:03:51.717999 30974 net.cpp:148] Top shape: 24 64 14 14 (301056)
I0403 15:03:51.718014 30974 net.cpp:156] Memory required for data: 886912032
I0403 15:03:51.718029 30974 layer_factory.hpp:77] Creating layer inception_4a/output
I0403 15:03:51.718045 30974 net.cpp:91] Creating Layer inception_4a/output
I0403 15:03:51.718060 30974 net.cpp:425] inception_4a/output <- inception_4a/1x1
I0403 15:03:51.718078 30974 net.cpp:425] inception_4a/output <- inception_4a/3x3
I0403 15:03:51.718096 30974 net.cpp:425] inception_4a/output <- inception_4a/5x5
I0403 15:03:51.718111 30974 net.cpp:425] inception_4a/output <- inception_4a/pool_proj
I0403 15:03:51.718127 30974 net.cpp:399] inception_4a/output -> inception_4a/output
I0403 15:03:51.718168 30974 net.cpp:141] Setting up inception_4a/output
I0403 15:03:51.718194 30974 net.cpp:148] Top shape: 24 512 14 14 (2408448)
I0403 15:03:51.718207 30974 net.cpp:156] Memory required for data: 896545824
I0403 15:03:51.718222 30974 layer_factory.hpp:77] Creating layer inception_4a/output_inception_4a/output_0_split
I0403 15:03:51.718245 30974 net.cpp:91] Creating Layer inception_4a/output_inception_4a/output_0_split
I0403 15:03:51.718260 30974 net.cpp:425] inception_4a/output_inception_4a/output_0_split <- inception_4a/output
I0403 15:03:51.718278 30974 net.cpp:399] inception_4a/output_inception_4a/output_0_split -> inception_4a/output_inception_4a/output_0_split_0
I0403 15:03:51.718298 30974 net.cpp:399] inception_4a/output_inception_4a/output_0_split -> inception_4a/output_inception_4a/output_0_split_1
I0403 15:03:51.718318 30974 net.cpp:399] inception_4a/output_inception_4a/output_0_split -> inception_4a/output_inception_4a/output_0_split_2
I0403 15:03:51.718338 30974 net.cpp:399] inception_4a/output_inception_4a/output_0_split -> inception_4a/output_inception_4a/output_0_split_3
I0403 15:03:51.718358 30974 net.cpp:399] inception_4a/output_inception_4a/output_0_split -> inception_4a/output_inception_4a/output_0_split_4
I0403 15:03:51.718446 30974 net.cpp:141] Setting up inception_4a/output_inception_4a/output_0_split
I0403 15:03:51.718468 30974 net.cpp:148] Top shape: 24 512 14 14 (2408448)
I0403 15:03:51.718487 30974 net.cpp:148] Top shape: 24 512 14 14 (2408448)
I0403 15:03:51.718507 30974 net.cpp:148] Top shape: 24 512 14 14 (2408448)
I0403 15:03:51.718523 30974 net.cpp:148] Top shape: 24 512 14 14 (2408448)
I0403 15:03:51.718539 30974 net.cpp:148] Top shape: 24 512 14 14 (2408448)
I0403 15:03:51.718554 30974 net.cpp:156] Memory required for data: 944714784
I0403 15:03:51.718569 30974 layer_factory.hpp:77] Creating layer loss1/ave_pool
I0403 15:03:51.718586 30974 net.cpp:91] Creating Layer loss1/ave_pool
I0403 15:03:51.718600 30974 net.cpp:425] loss1/ave_pool <- inception_4a/output_inception_4a/output_0_split_0
I0403 15:03:51.718621 30974 net.cpp:399] loss1/ave_pool -> loss1/ave_pool
I0403 15:03:51.718824 30974 net.cpp:141] Setting up loss1/ave_pool
I0403 15:03:51.718849 30974 net.cpp:148] Top shape: 24 512 4 4 (196608)
I0403 15:03:51.718864 30974 net.cpp:156] Memory required for data: 945501216
I0403 15:03:51.718878 30974 layer_factory.hpp:77] Creating layer loss1/conv
I0403 15:03:51.718900 30974 net.cpp:91] Creating Layer loss1/conv
I0403 15:03:51.718916 30974 net.cpp:425] loss1/conv <- loss1/ave_pool
I0403 15:03:51.718936 30974 net.cpp:399] loss1/conv -> loss1/conv
I0403 15:03:51.720288 30974 net.cpp:141] Setting up loss1/conv
I0403 15:03:51.720314 30974 net.cpp:148] Top shape: 24 128 4 4 (49152)
I0403 15:03:51.720343 30974 net.cpp:156] Memory required for data: 945697824
I0403 15:03:51.720362 30974 layer_factory.hpp:77] Creating layer loss1/relu_conv
I0403 15:03:51.720382 30974 net.cpp:91] Creating Layer loss1/relu_conv
I0403 15:03:51.720398 30974 net.cpp:425] loss1/relu_conv <- loss1/conv
I0403 15:03:51.720414 30974 net.cpp:386] loss1/relu_conv -> loss1/conv (in-place)
I0403 15:03:51.720693 30974 net.cpp:141] Setting up loss1/relu_conv
I0403 15:03:51.720720 30974 net.cpp:148] Top shape: 24 128 4 4 (49152)
I0403 15:03:51.720734 30974 net.cpp:156] Memory required for data: 945894432
I0403 15:03:51.720748 30974 layer_factory.hpp:77] Creating layer loss1/fc
I0403 15:03:51.720774 30974 net.cpp:91] Creating Layer loss1/fc
I0403 15:03:51.720793 30974 net.cpp:425] loss1/fc <- loss1/conv
I0403 15:03:51.720813 30974 net.cpp:399] loss1/fc -> loss1/fc
I0403 15:03:51.738065 30974 net.cpp:141] Setting up loss1/fc
I0403 15:03:51.738096 30974 net.cpp:148] Top shape: 24 1024 (24576)
I0403 15:03:51.738112 30974 net.cpp:156] Memory required for data: 945992736
I0403 15:03:51.738131 30974 layer_factory.hpp:77] Creating layer loss1/relu_fc
I0403 15:03:51.738149 30974 net.cpp:91] Creating Layer loss1/relu_fc
I0403 15:03:51.738164 30974 net.cpp:425] loss1/relu_fc <- loss1/fc
I0403 15:03:51.738183 30974 net.cpp:386] loss1/relu_fc -> loss1/fc (in-place)
I0403 15:03:51.738384 30974 net.cpp:141] Setting up loss1/relu_fc
I0403 15:03:51.738410 30974 net.cpp:148] Top shape: 24 1024 (24576)
I0403 15:03:51.738425 30974 net.cpp:156] Memory required for data: 946091040
I0403 15:03:51.738441 30974 layer_factory.hpp:77] Creating layer loss1/drop_fc
I0403 15:03:51.738466 30974 net.cpp:91] Creating Layer loss1/drop_fc
I0403 15:03:51.738484 30974 net.cpp:425] loss1/drop_fc <- loss1/fc
I0403 15:03:51.738510 30974 net.cpp:386] loss1/drop_fc -> loss1/fc (in-place)
I0403 15:03:51.738576 30974 net.cpp:141] Setting up loss1/drop_fc
I0403 15:03:51.738600 30974 net.cpp:148] Top shape: 24 1024 (24576)
I0403 15:03:51.738613 30974 net.cpp:156] Memory required for data: 946189344
I0403 15:03:51.738628 30974 layer_factory.hpp:77] Creating layer loss1/classifier_plantvillage
I0403 15:03:51.738646 30974 net.cpp:91] Creating Layer loss1/classifier_plantvillage
I0403 15:03:51.738661 30974 net.cpp:425] loss1/classifier_plantvillage <- loss1/fc
I0403 15:03:51.738682 30974 net.cpp:399] loss1/classifier_plantvillage -> loss1/classifier_plantvillage
I0403 15:03:51.739567 30974 net.cpp:141] Setting up loss1/classifier_plantvillage
I0403 15:03:51.739593 30974 net.cpp:148] Top shape: 24 38 (912)
I0403 15:03:51.739609 30974 net.cpp:156] Memory required for data: 946192992
I0403 15:03:51.739627 30974 layer_factory.hpp:77] Creating layer loss1/classifier_plantvillage_loss1/classifier_plantvillage_0_split
I0403 15:03:51.739647 30974 net.cpp:91] Creating Layer loss1/classifier_plantvillage_loss1/classifier_plantvillage_0_split
I0403 15:03:51.739663 30974 net.cpp:425] loss1/classifier_plantvillage_loss1/classifier_plantvillage_0_split <- loss1/classifier_plantvillage
I0403 15:03:51.739681 30974 net.cpp:399] loss1/classifier_plantvillage_loss1/classifier_plantvillage_0_split -> loss1/classifier_plantvillage_loss1/classifier_plantvillage_0_split_0
I0403 15:03:51.739701 30974 net.cpp:399] loss1/classifier_plantvillage_loss1/classifier_plantvillage_0_split -> loss1/classifier_plantvillage_loss1/classifier_plantvillage_0_split_1
I0403 15:03:51.739719 30974 net.cpp:399] loss1/classifier_plantvillage_loss1/classifier_plantvillage_0_split -> loss1/classifier_plantvillage_loss1/classifier_plantvillage_0_split_2
I0403 15:03:51.739787 30974 net.cpp:141] Setting up loss1/classifier_plantvillage_loss1/classifier_plantvillage_0_split
I0403 15:03:51.739810 30974 net.cpp:148] Top shape: 24 38 (912)
I0403 15:03:51.739826 30974 net.cpp:148] Top shape: 24 38 (912)
I0403 15:03:51.739841 30974 net.cpp:148] Top shape: 24 38 (912)
I0403 15:03:51.739855 30974 net.cpp:156] Memory required for data: 946203936
I0403 15:03:51.739869 30974 layer_factory.hpp:77] Creating layer inception_4b/1x1
I0403 15:03:51.739892 30974 net.cpp:91] Creating Layer inception_4b/1x1
I0403 15:03:51.739924 30974 net.cpp:425] inception_4b/1x1 <- inception_4a/output_inception_4a/output_0_split_1
I0403 15:03:51.739943 30974 net.cpp:399] inception_4b/1x1 -> inception_4b/1x1
I0403 15:03:51.741554 30974 net.cpp:141] Setting up inception_4b/1x1
I0403 15:03:51.741582 30974 net.cpp:148] Top shape: 24 160 14 14 (752640)
I0403 15:03:51.741600 30974 net.cpp:156] Memory required for data: 949214496
I0403 15:03:51.741621 30974 layer_factory.hpp:77] Creating layer inception_4b/relu_1x1
I0403 15:03:51.741641 30974 net.cpp:91] Creating Layer inception_4b/relu_1x1
I0403 15:03:51.741657 30974 net.cpp:425] inception_4b/relu_1x1 <- inception_4b/1x1
I0403 15:03:51.741673 30974 net.cpp:386] inception_4b/relu_1x1 -> inception_4b/1x1 (in-place)
I0403 15:03:51.741852 30974 net.cpp:141] Setting up inception_4b/relu_1x1
I0403 15:03:51.741875 30974 net.cpp:148] Top shape: 24 160 14 14 (752640)
I0403 15:03:51.741890 30974 net.cpp:156] Memory required for data: 952225056
I0403 15:03:51.741905 30974 layer_factory.hpp:77] Creating layer inception_4b/3x3_reduce
I0403 15:03:51.741930 30974 net.cpp:91] Creating Layer inception_4b/3x3_reduce
I0403 15:03:51.741947 30974 net.cpp:425] inception_4b/3x3_reduce <- inception_4a/output_inception_4a/output_0_split_2
I0403 15:03:51.741968 30974 net.cpp:399] inception_4b/3x3_reduce -> inception_4b/3x3_reduce
I0403 15:03:51.743315 30974 net.cpp:141] Setting up inception_4b/3x3_reduce
I0403 15:03:51.743341 30974 net.cpp:148] Top shape: 24 112 14 14 (526848)
I0403 15:03:51.743357 30974 net.cpp:156] Memory required for data: 954332448
I0403 15:03:51.743374 30974 layer_factory.hpp:77] Creating layer inception_4b/relu_3x3_reduce
I0403 15:03:51.743392 30974 net.cpp:91] Creating Layer inception_4b/relu_3x3_reduce
I0403 15:03:51.743407 30974 net.cpp:425] inception_4b/relu_3x3_reduce <- inception_4b/3x3_reduce
I0403 15:03:51.743427 30974 net.cpp:386] inception_4b/relu_3x3_reduce -> inception_4b/3x3_reduce (in-place)
I0403 15:03:51.743705 30974 net.cpp:141] Setting up inception_4b/relu_3x3_reduce
I0403 15:03:51.743734 30974 net.cpp:148] Top shape: 24 112 14 14 (526848)
I0403 15:03:51.743749 30974 net.cpp:156] Memory required for data: 956439840
I0403 15:03:51.743764 30974 layer_factory.hpp:77] Creating layer inception_4b/3x3
I0403 15:03:51.743787 30974 net.cpp:91] Creating Layer inception_4b/3x3
I0403 15:03:51.743803 30974 net.cpp:425] inception_4b/3x3 <- inception_4b/3x3_reduce
I0403 15:03:51.743824 30974 net.cpp:399] inception_4b/3x3 -> inception_4b/3x3
I0403 15:03:51.746723 30974 net.cpp:141] Setting up inception_4b/3x3
I0403 15:03:51.746752 30974 net.cpp:148] Top shape: 24 224 14 14 (1053696)
I0403 15:03:51.746767 30974 net.cpp:156] Memory required for data: 960654624
I0403 15:03:51.746785 30974 layer_factory.hpp:77] Creating layer inception_4b/relu_3x3
I0403 15:03:51.746805 30974 net.cpp:91] Creating Layer inception_4b/relu_3x3
I0403 15:03:51.746822 30974 net.cpp:425] inception_4b/relu_3x3 <- inception_4b/3x3
I0403 15:03:51.746840 30974 net.cpp:386] inception_4b/relu_3x3 -> inception_4b/3x3 (in-place)
I0403 15:03:51.747019 30974 net.cpp:141] Setting up inception_4b/relu_3x3
I0403 15:03:51.747045 30974 net.cpp:148] Top shape: 24 224 14 14 (1053696)
I0403 15:03:51.747059 30974 net.cpp:156] Memory required for data: 964869408
I0403 15:03:51.747073 30974 layer_factory.hpp:77] Creating layer inception_4b/5x5_reduce
I0403 15:03:51.747095 30974 net.cpp:91] Creating Layer inception_4b/5x5_reduce
I0403 15:03:51.747112 30974 net.cpp:425] inception_4b/5x5_reduce <- inception_4a/output_inception_4a/output_0_split_3
I0403 15:03:51.747130 30974 net.cpp:399] inception_4b/5x5_reduce -> inception_4b/5x5_reduce
I0403 15:03:51.748193 30974 net.cpp:141] Setting up inception_4b/5x5_reduce
I0403 15:03:51.748221 30974 net.cpp:148] Top shape: 24 24 14 14 (112896)
I0403 15:03:51.748237 30974 net.cpp:156] Memory required for data: 965320992
I0403 15:03:51.748256 30974 layer_factory.hpp:77] Creating layer inception_4b/relu_5x5_reduce
I0403 15:03:51.748275 30974 net.cpp:91] Creating Layer inception_4b/relu_5x5_reduce
I0403 15:03:51.748303 30974 net.cpp:425] inception_4b/relu_5x5_reduce <- inception_4b/5x5_reduce
I0403 15:03:51.748324 30974 net.cpp:386] inception_4b/relu_5x5_reduce -> inception_4b/5x5_reduce (in-place)
I0403 15:03:51.748509 30974 net.cpp:141] Setting up inception_4b/relu_5x5_reduce
I0403 15:03:51.748534 30974 net.cpp:148] Top shape: 24 24 14 14 (112896)
I0403 15:03:51.748548 30974 net.cpp:156] Memory required for data: 965772576
I0403 15:03:51.748564 30974 layer_factory.hpp:77] Creating layer inception_4b/5x5
I0403 15:03:51.748585 30974 net.cpp:91] Creating Layer inception_4b/5x5
I0403 15:03:51.748602 30974 net.cpp:425] inception_4b/5x5 <- inception_4b/5x5_reduce
I0403 15:03:51.748622 30974 net.cpp:399] inception_4b/5x5 -> inception_4b/5x5
I0403 15:03:51.749846 30974 net.cpp:141] Setting up inception_4b/5x5
I0403 15:03:51.749873 30974 net.cpp:148] Top shape: 24 64 14 14 (301056)
I0403 15:03:51.749888 30974 net.cpp:156] Memory required for data: 966976800
I0403 15:03:51.749907 30974 layer_factory.hpp:77] Creating layer inception_4b/relu_5x5
I0403 15:03:51.749927 30974 net.cpp:91] Creating Layer inception_4b/relu_5x5
I0403 15:03:51.749943 30974 net.cpp:425] inception_4b/relu_5x5 <- inception_4b/5x5
I0403 15:03:51.749959 30974 net.cpp:386] inception_4b/relu_5x5 -> inception_4b/5x5 (in-place)
I0403 15:03:51.750241 30974 net.cpp:141] Setting up inception_4b/relu_5x5
I0403 15:03:51.750265 30974 net.cpp:148] Top shape: 24 64 14 14 (301056)
I0403 15:03:51.750280 30974 net.cpp:156] Memory required for data: 968181024
I0403 15:03:51.750294 30974 layer_factory.hpp:77] Creating layer inception_4b/pool
I0403 15:03:51.750314 30974 net.cpp:91] Creating Layer inception_4b/pool
I0403 15:03:51.750331 30974 net.cpp:425] inception_4b/pool <- inception_4a/output_inception_4a/output_0_split_4
I0403 15:03:51.750351 30974 net.cpp:399] inception_4b/pool -> inception_4b/pool
I0403 15:03:51.750412 30974 net.cpp:141] Setting up inception_4b/pool
I0403 15:03:51.750435 30974 net.cpp:148] Top shape: 24 512 14 14 (2408448)
I0403 15:03:51.750449 30974 net.cpp:156] Memory required for data: 977814816
I0403 15:03:51.750463 30974 layer_factory.hpp:77] Creating layer inception_4b/pool_proj
I0403 15:03:51.750485 30974 net.cpp:91] Creating Layer inception_4b/pool_proj
I0403 15:03:51.750506 30974 net.cpp:425] inception_4b/pool_proj <- inception_4b/pool
I0403 15:03:51.750527 30974 net.cpp:399] inception_4b/pool_proj -> inception_4b/pool_proj
I0403 15:03:51.751685 30974 net.cpp:141] Setting up inception_4b/pool_proj
I0403 15:03:51.751714 30974 net.cpp:148] Top shape: 24 64 14 14 (301056)
I0403 15:03:51.751731 30974 net.cpp:156] Memory required for data: 979019040
I0403 15:03:51.751749 30974 layer_factory.hpp:77] Creating layer inception_4b/relu_pool_proj
I0403 15:03:51.751766 30974 net.cpp:91] Creating Layer inception_4b/relu_pool_proj
I0403 15:03:51.751781 30974 net.cpp:425] inception_4b/relu_pool_proj <- inception_4b/pool_proj
I0403 15:03:51.751801 30974 net.cpp:386] inception_4b/relu_pool_proj -> inception_4b/pool_proj (in-place)
I0403 15:03:51.751974 30974 net.cpp:141] Setting up inception_4b/relu_pool_proj
I0403 15:03:51.751998 30974 net.cpp:148] Top shape: 24 64 14 14 (301056)
I0403 15:03:51.752013 30974 net.cpp:156] Memory required for data: 980223264
I0403 15:03:51.752027 30974 layer_factory.hpp:77] Creating layer inception_4b/output
I0403 15:03:51.752044 30974 net.cpp:91] Creating Layer inception_4b/output
I0403 15:03:51.752058 30974 net.cpp:425] inception_4b/output <- inception_4b/1x1
I0403 15:03:51.752074 30974 net.cpp:425] inception_4b/output <- inception_4b/3x3
I0403 15:03:51.752090 30974 net.cpp:425] inception_4b/output <- inception_4b/5x5
I0403 15:03:51.752105 30974 net.cpp:425] inception_4b/output <- inception_4b/pool_proj
I0403 15:03:51.752123 30974 net.cpp:399] inception_4b/output -> inception_4b/output
I0403 15:03:51.752168 30974 net.cpp:141] Setting up inception_4b/output
I0403 15:03:51.752192 30974 net.cpp:148] Top shape: 24 512 14 14 (2408448)
I0403 15:03:51.752208 30974 net.cpp:156] Memory required for data: 989857056
I0403 15:03:51.752236 30974 layer_factory.hpp:77] Creating layer inception_4b/output_inception_4b/output_0_split
I0403 15:03:51.752254 30974 net.cpp:91] Creating Layer inception_4b/output_inception_4b/output_0_split
I0403 15:03:51.752269 30974 net.cpp:425] inception_4b/output_inception_4b/output_0_split <- inception_4b/output
I0403 15:03:51.752285 30974 net.cpp:399] inception_4b/output_inception_4b/output_0_split -> inception_4b/output_inception_4b/output_0_split_0
I0403 15:03:51.752306 30974 net.cpp:399] inception_4b/output_inception_4b/output_0_split -> inception_4b/output_inception_4b/output_0_split_1
I0403 15:03:51.752326 30974 net.cpp:399] inception_4b/output_inception_4b/output_0_split -> inception_4b/output_inception_4b/output_0_split_2
I0403 15:03:51.752347 30974 net.cpp:399] inception_4b/output_inception_4b/output_0_split -> inception_4b/output_inception_4b/output_0_split_3
I0403 15:03:51.752427 30974 net.cpp:141] Setting up inception_4b/output_inception_4b/output_0_split
I0403 15:03:51.752449 30974 net.cpp:148] Top shape: 24 512 14 14 (2408448)
I0403 15:03:51.752465 30974 net.cpp:148] Top shape: 24 512 14 14 (2408448)
I0403 15:03:51.752480 30974 net.cpp:148] Top shape: 24 512 14 14 (2408448)
I0403 15:03:51.752496 30974 net.cpp:148] Top shape: 24 512 14 14 (2408448)
I0403 15:03:51.752513 30974 net.cpp:156] Memory required for data: 1028392224
I0403 15:03:51.752528 30974 layer_factory.hpp:77] Creating layer inception_4c/1x1
I0403 15:03:51.752552 30974 net.cpp:91] Creating Layer inception_4c/1x1
I0403 15:03:51.752569 30974 net.cpp:425] inception_4c/1x1 <- inception_4b/output_inception_4b/output_0_split_0
I0403 15:03:51.752588 30974 net.cpp:399] inception_4c/1x1 -> inception_4c/1x1
I0403 15:03:51.753979 30974 net.cpp:141] Setting up inception_4c/1x1
I0403 15:03:51.754007 30974 net.cpp:148] Top shape: 24 128 14 14 (602112)
I0403 15:03:51.754022 30974 net.cpp:156] Memory required for data: 1030800672
I0403 15:03:51.754040 30974 layer_factory.hpp:77] Creating layer inception_4c/relu_1x1
I0403 15:03:51.754058 30974 net.cpp:91] Creating Layer inception_4c/relu_1x1
I0403 15:03:51.754073 30974 net.cpp:425] inception_4c/relu_1x1 <- inception_4c/1x1
I0403 15:03:51.754092 30974 net.cpp:386] inception_4c/relu_1x1 -> inception_4c/1x1 (in-place)
I0403 15:03:51.754268 30974 net.cpp:141] Setting up inception_4c/relu_1x1
I0403 15:03:51.754292 30974 net.cpp:148] Top shape: 24 128 14 14 (602112)
I0403 15:03:51.754307 30974 net.cpp:156] Memory required for data: 1033209120
I0403 15:03:51.754322 30974 layer_factory.hpp:77] Creating layer inception_4c/3x3_reduce
I0403 15:03:51.754343 30974 net.cpp:91] Creating Layer inception_4c/3x3_reduce
I0403 15:03:51.754360 30974 net.cpp:425] inception_4c/3x3_reduce <- inception_4b/output_inception_4b/output_0_split_1
I0403 15:03:51.754380 30974 net.cpp:399] inception_4c/3x3_reduce -> inception_4c/3x3_reduce
I0403 15:03:51.756285 30974 net.cpp:141] Setting up inception_4c/3x3_reduce
I0403 15:03:51.756316 30974 net.cpp:148] Top shape: 24 128 14 14 (602112)
I0403 15:03:51.756333 30974 net.cpp:156] Memory required for data: 1035617568
I0403 15:03:51.756352 30974 layer_factory.hpp:77] Creating layer inception_4c/relu_3x3_reduce
I0403 15:03:51.756371 30974 net.cpp:91] Creating Layer inception_4c/relu_3x3_reduce
I0403 15:03:51.756386 30974 net.cpp:425] inception_4c/relu_3x3_reduce <- inception_4c/3x3_reduce
I0403 15:03:51.756404 30974 net.cpp:386] inception_4c/relu_3x3_reduce -> inception_4c/3x3_reduce (in-place)
I0403 15:03:51.756706 30974 net.cpp:141] Setting up inception_4c/relu_3x3_reduce
I0403 15:03:51.756733 30974 net.cpp:148] Top shape: 24 128 14 14 (602112)
I0403 15:03:51.756749 30974 net.cpp:156] Memory required for data: 1038026016
I0403 15:03:51.756764 30974 layer_factory.hpp:77] Creating layer inception_4c/3x3
I0403 15:03:51.756788 30974 net.cpp:91] Creating Layer inception_4c/3x3
I0403 15:03:51.756804 30974 net.cpp:425] inception_4c/3x3 <- inception_4c/3x3_reduce
I0403 15:03:51.756824 30974 net.cpp:399] inception_4c/3x3 -> inception_4c/3x3
I0403 15:03:51.760326 30974 net.cpp:141] Setting up inception_4c/3x3
I0403 15:03:51.760368 30974 net.cpp:148] Top shape: 24 256 14 14 (1204224)
I0403 15:03:51.760385 30974 net.cpp:156] Memory required for data: 1042842912
I0403 15:03:51.760416 30974 layer_factory.hpp:77] Creating layer inception_4c/relu_3x3
I0403 15:03:51.760437 30974 net.cpp:91] Creating Layer inception_4c/relu_3x3
I0403 15:03:51.760452 30974 net.cpp:425] inception_4c/relu_3x3 <- inception_4c/3x3
I0403 15:03:51.760471 30974 net.cpp:386] inception_4c/relu_3x3 -> inception_4c/3x3 (in-place)
I0403 15:03:51.760650 30974 net.cpp:141] Setting up inception_4c/relu_3x3
I0403 15:03:51.760679 30974 net.cpp:148] Top shape: 24 256 14 14 (1204224)
I0403 15:03:51.760694 30974 net.cpp:156] Memory required for data: 1047659808
I0403 15:03:51.760709 30974 layer_factory.hpp:77] Creating layer inception_4c/5x5_reduce
I0403 15:03:51.760730 30974 net.cpp:91] Creating Layer inception_4c/5x5_reduce
I0403 15:03:51.760747 30974 net.cpp:425] inception_4c/5x5_reduce <- inception_4b/output_inception_4b/output_0_split_2
I0403 15:03:51.760766 30974 net.cpp:399] inception_4c/5x5_reduce -> inception_4c/5x5_reduce
I0403 15:03:51.761838 30974 net.cpp:141] Setting up inception_4c/5x5_reduce
I0403 15:03:51.761868 30974 net.cpp:148] Top shape: 24 24 14 14 (112896)
I0403 15:03:51.761883 30974 net.cpp:156] Memory required for data: 1048111392
I0403 15:03:51.761901 30974 layer_factory.hpp:77] Creating layer inception_4c/relu_5x5_reduce
I0403 15:03:51.761919 30974 net.cpp:91] Creating Layer inception_4c/relu_5x5_reduce
I0403 15:03:51.761935 30974 net.cpp:425] inception_4c/relu_5x5_reduce <- inception_4c/5x5_reduce
I0403 15:03:51.761951 30974 net.cpp:386] inception_4c/relu_5x5_reduce -> inception_4c/5x5_reduce (in-place)
I0403 15:03:51.762131 30974 net.cpp:141] Setting up inception_4c/relu_5x5_reduce
I0403 15:03:51.762154 30974 net.cpp:148] Top shape: 24 24 14 14 (112896)
I0403 15:03:51.762169 30974 net.cpp:156] Memory required for data: 1048562976
I0403 15:03:51.762184 30974 layer_factory.hpp:77] Creating layer inception_4c/5x5
I0403 15:03:51.762205 30974 net.cpp:91] Creating Layer inception_4c/5x5
I0403 15:03:51.762223 30974 net.cpp:425] inception_4c/5x5 <- inception_4c/5x5_reduce
I0403 15:03:51.762243 30974 net.cpp:399] inception_4c/5x5 -> inception_4c/5x5
I0403 15:03:51.763459 30974 net.cpp:141] Setting up inception_4c/5x5
I0403 15:03:51.763486 30974 net.cpp:148] Top shape: 24 64 14 14 (301056)
I0403 15:03:51.763501 30974 net.cpp:156] Memory required for data: 1049767200
I0403 15:03:51.763523 30974 layer_factory.hpp:77] Creating layer inception_4c/relu_5x5
I0403 15:03:51.763542 30974 net.cpp:91] Creating Layer inception_4c/relu_5x5
I0403 15:03:51.763557 30974 net.cpp:425] inception_4c/relu_5x5 <- inception_4c/5x5
I0403 15:03:51.763578 30974 net.cpp:386] inception_4c/relu_5x5 -> inception_4c/5x5 (in-place)
I0403 15:03:51.763862 30974 net.cpp:141] Setting up inception_4c/relu_5x5
I0403 15:03:51.763886 30974 net.cpp:148] Top shape: 24 64 14 14 (301056)
I0403 15:03:51.763901 30974 net.cpp:156] Memory required for data: 1050971424
I0403 15:03:51.763916 30974 layer_factory.hpp:77] Creating layer inception_4c/pool
I0403 15:03:51.763934 30974 net.cpp:91] Creating Layer inception_4c/pool
I0403 15:03:51.763948 30974 net.cpp:425] inception_4c/pool <- inception_4b/output_inception_4b/output_0_split_3
I0403 15:03:51.763968 30974 net.cpp:399] inception_4c/pool -> inception_4c/pool
I0403 15:03:51.764031 30974 net.cpp:141] Setting up inception_4c/pool
I0403 15:03:51.764055 30974 net.cpp:148] Top shape: 24 512 14 14 (2408448)
I0403 15:03:51.764068 30974 net.cpp:156] Memory required for data: 1060605216
I0403 15:03:51.764083 30974 layer_factory.hpp:77] Creating layer inception_4c/pool_proj
I0403 15:03:51.764108 30974 net.cpp:91] Creating Layer inception_4c/pool_proj
I0403 15:03:51.764127 30974 net.cpp:425] inception_4c/pool_proj <- inception_4c/pool
I0403 15:03:51.764144 30974 net.cpp:399] inception_4c/pool_proj -> inception_4c/pool_proj
I0403 15:03:51.765348 30974 net.cpp:141] Setting up inception_4c/pool_proj
I0403 15:03:51.765377 30974 net.cpp:148] Top shape: 24 64 14 14 (301056)
I0403 15:03:51.765405 30974 net.cpp:156] Memory required for data: 1061809440
I0403 15:03:51.765424 30974 layer_factory.hpp:77] Creating layer inception_4c/relu_pool_proj
I0403 15:03:51.765444 30974 net.cpp:91] Creating Layer inception_4c/relu_pool_proj
I0403 15:03:51.765460 30974 net.cpp:425] inception_4c/relu_pool_proj <- inception_4c/pool_proj
I0403 15:03:51.765478 30974 net.cpp:386] inception_4c/relu_pool_proj -> inception_4c/pool_proj (in-place)
I0403 15:03:51.765661 30974 net.cpp:141] Setting up inception_4c/relu_pool_proj
I0403 15:03:51.765684 30974 net.cpp:148] Top shape: 24 64 14 14 (301056)
I0403 15:03:51.765699 30974 net.cpp:156] Memory required for data: 1063013664
I0403 15:03:51.765713 30974 layer_factory.hpp:77] Creating layer inception_4c/output
I0403 15:03:51.765730 30974 net.cpp:91] Creating Layer inception_4c/output
I0403 15:03:51.765744 30974 net.cpp:425] inception_4c/output <- inception_4c/1x1
I0403 15:03:51.765760 30974 net.cpp:425] inception_4c/output <- inception_4c/3x3
I0403 15:03:51.765776 30974 net.cpp:425] inception_4c/output <- inception_4c/5x5
I0403 15:03:51.765792 30974 net.cpp:425] inception_4c/output <- inception_4c/pool_proj
I0403 15:03:51.765810 30974 net.cpp:399] inception_4c/output -> inception_4c/output
I0403 15:03:51.765856 30974 net.cpp:141] Setting up inception_4c/output
I0403 15:03:51.765882 30974 net.cpp:148] Top shape: 24 512 14 14 (2408448)
I0403 15:03:51.765902 30974 net.cpp:156] Memory required for data: 1072647456
I0403 15:03:51.765915 30974 layer_factory.hpp:77] Creating layer inception_4c/output_inception_4c/output_0_split
I0403 15:03:51.765931 30974 net.cpp:91] Creating Layer inception_4c/output_inception_4c/output_0_split
I0403 15:03:51.765946 30974 net.cpp:425] inception_4c/output_inception_4c/output_0_split <- inception_4c/output
I0403 15:03:51.765964 30974 net.cpp:399] inception_4c/output_inception_4c/output_0_split -> inception_4c/output_inception_4c/output_0_split_0
I0403 15:03:51.765985 30974 net.cpp:399] inception_4c/output_inception_4c/output_0_split -> inception_4c/output_inception_4c/output_0_split_1
I0403 15:03:51.766005 30974 net.cpp:399] inception_4c/output_inception_4c/output_0_split -> inception_4c/output_inception_4c/output_0_split_2
I0403 15:03:51.766026 30974 net.cpp:399] inception_4c/output_inception_4c/output_0_split -> inception_4c/output_inception_4c/output_0_split_3
I0403 15:03:51.766110 30974 net.cpp:141] Setting up inception_4c/output_inception_4c/output_0_split
I0403 15:03:51.766132 30974 net.cpp:148] Top shape: 24 512 14 14 (2408448)
I0403 15:03:51.766149 30974 net.cpp:148] Top shape: 24 512 14 14 (2408448)
I0403 15:03:51.766163 30974 net.cpp:148] Top shape: 24 512 14 14 (2408448)
I0403 15:03:51.766180 30974 net.cpp:148] Top shape: 24 512 14 14 (2408448)
I0403 15:03:51.766192 30974 net.cpp:156] Memory required for data: 1111182624
I0403 15:03:51.766206 30974 layer_factory.hpp:77] Creating layer inception_4d/1x1
I0403 15:03:51.766227 30974 net.cpp:91] Creating Layer inception_4d/1x1
I0403 15:03:51.766244 30974 net.cpp:425] inception_4d/1x1 <- inception_4c/output_inception_4c/output_0_split_0
I0403 15:03:51.766278 30974 net.cpp:399] inception_4d/1x1 -> inception_4d/1x1
I0403 15:03:51.767645 30974 net.cpp:141] Setting up inception_4d/1x1
I0403 15:03:51.767673 30974 net.cpp:148] Top shape: 24 112 14 14 (526848)
I0403 15:03:51.767688 30974 net.cpp:156] Memory required for data: 1113290016
I0403 15:03:51.767705 30974 layer_factory.hpp:77] Creating layer inception_4d/relu_1x1
I0403 15:03:51.767725 30974 net.cpp:91] Creating Layer inception_4d/relu_1x1
I0403 15:03:51.767742 30974 net.cpp:425] inception_4d/relu_1x1 <- inception_4d/1x1
I0403 15:03:51.767758 30974 net.cpp:386] inception_4d/relu_1x1 -> inception_4d/1x1 (in-place)
I0403 15:03:51.767937 30974 net.cpp:141] Setting up inception_4d/relu_1x1
I0403 15:03:51.767963 30974 net.cpp:148] Top shape: 24 112 14 14 (526848)
I0403 15:03:51.767979 30974 net.cpp:156] Memory required for data: 1115397408
I0403 15:03:51.767994 30974 layer_factory.hpp:77] Creating layer inception_4d/3x3_reduce
I0403 15:03:51.768031 30974 net.cpp:91] Creating Layer inception_4d/3x3_reduce
I0403 15:03:51.768049 30974 net.cpp:425] inception_4d/3x3_reduce <- inception_4c/output_inception_4c/output_0_split_1
I0403 15:03:51.768069 30974 net.cpp:399] inception_4d/3x3_reduce -> inception_4d/3x3_reduce
I0403 15:03:51.769578 30974 net.cpp:141] Setting up inception_4d/3x3_reduce
I0403 15:03:51.769605 30974 net.cpp:148] Top shape: 24 144 14 14 (677376)
I0403 15:03:51.769620 30974 net.cpp:156] Memory required for data: 1118106912
I0403 15:03:51.769639 30974 layer_factory.hpp:77] Creating layer inception_4d/relu_3x3_reduce
I0403 15:03:51.769666 30974 net.cpp:91] Creating Layer inception_4d/relu_3x3_reduce
I0403 15:03:51.769682 30974 net.cpp:425] inception_4d/relu_3x3_reduce <- inception_4d/3x3_reduce
I0403 15:03:51.769700 30974 net.cpp:386] inception_4d/relu_3x3_reduce -> inception_4d/3x3_reduce (in-place)
I0403 15:03:51.769981 30974 net.cpp:141] Setting up inception_4d/relu_3x3_reduce
I0403 15:03:51.770007 30974 net.cpp:148] Top shape: 24 144 14 14 (677376)
I0403 15:03:51.770021 30974 net.cpp:156] Memory required for data: 1120816416
I0403 15:03:51.770036 30974 layer_factory.hpp:77] Creating layer inception_4d/3x3
I0403 15:03:51.770057 30974 net.cpp:91] Creating Layer inception_4d/3x3
I0403 15:03:51.770074 30974 net.cpp:425] inception_4d/3x3 <- inception_4d/3x3_reduce
I0403 15:03:51.770095 30974 net.cpp:399] inception_4d/3x3 -> inception_4d/3x3
I0403 15:03:51.774274 30974 net.cpp:141] Setting up inception_4d/3x3
I0403 15:03:51.774302 30974 net.cpp:148] Top shape: 24 288 14 14 (1354752)
I0403 15:03:51.774318 30974 net.cpp:156] Memory required for data: 1126235424
I0403 15:03:51.774336 30974 layer_factory.hpp:77] Creating layer inception_4d/relu_3x3
I0403 15:03:51.774356 30974 net.cpp:91] Creating Layer inception_4d/relu_3x3
I0403 15:03:51.774374 30974 net.cpp:425] inception_4d/relu_3x3 <- inception_4d/3x3
I0403 15:03:51.774390 30974 net.cpp:386] inception_4d/relu_3x3 -> inception_4d/3x3 (in-place)
I0403 15:03:51.774580 30974 net.cpp:141] Setting up inception_4d/relu_3x3
I0403 15:03:51.774605 30974 net.cpp:148] Top shape: 24 288 14 14 (1354752)
I0403 15:03:51.774621 30974 net.cpp:156] Memory required for data: 1131654432
I0403 15:03:51.774636 30974 layer_factory.hpp:77] Creating layer inception_4d/5x5_reduce
I0403 15:03:51.774657 30974 net.cpp:91] Creating Layer inception_4d/5x5_reduce
I0403 15:03:51.774674 30974 net.cpp:425] inception_4d/5x5_reduce <- inception_4c/output_inception_4c/output_0_split_2
I0403 15:03:51.774693 30974 net.cpp:399] inception_4d/5x5_reduce -> inception_4d/5x5_reduce
I0403 15:03:51.775830 30974 net.cpp:141] Setting up inception_4d/5x5_reduce
I0403 15:03:51.775857 30974 net.cpp:148] Top shape: 24 32 14 14 (150528)
I0403 15:03:51.775872 30974 net.cpp:156] Memory required for data: 1132256544
I0403 15:03:51.775890 30974 layer_factory.hpp:77] Creating layer inception_4d/relu_5x5_reduce
I0403 15:03:51.775910 30974 net.cpp:91] Creating Layer inception_4d/relu_5x5_reduce
I0403 15:03:51.775928 30974 net.cpp:425] inception_4d/relu_5x5_reduce <- inception_4d/5x5_reduce
I0403 15:03:51.775944 30974 net.cpp:386] inception_4d/relu_5x5_reduce -> inception_4d/5x5_reduce (in-place)
I0403 15:03:51.776124 30974 net.cpp:141] Setting up inception_4d/relu_5x5_reduce
I0403 15:03:51.776151 30974 net.cpp:148] Top shape: 24 32 14 14 (150528)
I0403 15:03:51.776166 30974 net.cpp:156] Memory required for data: 1132858656
I0403 15:03:51.776181 30974 layer_factory.hpp:77] Creating layer inception_4d/5x5
I0403 15:03:51.776203 30974 net.cpp:91] Creating Layer inception_4d/5x5
I0403 15:03:51.776221 30974 net.cpp:425] inception_4d/5x5 <- inception_4d/5x5_reduce
I0403 15:03:51.776238 30974 net.cpp:399] inception_4d/5x5 -> inception_4d/5x5
I0403 15:03:51.777693 30974 net.cpp:141] Setting up inception_4d/5x5
I0403 15:03:51.777719 30974 net.cpp:148] Top shape: 24 64 14 14 (301056)
I0403 15:03:51.777736 30974 net.cpp:156] Memory required for data: 1134062880
I0403 15:03:51.777755 30974 layer_factory.hpp:77] Creating layer inception_4d/relu_5x5
I0403 15:03:51.777787 30974 net.cpp:91] Creating Layer inception_4d/relu_5x5
I0403 15:03:51.777804 30974 net.cpp:425] inception_4d/relu_5x5 <- inception_4d/5x5
I0403 15:03:51.777824 30974 net.cpp:386] inception_4d/relu_5x5 -> inception_4d/5x5 (in-place)
I0403 15:03:51.778122 30974 net.cpp:141] Setting up inception_4d/relu_5x5
I0403 15:03:51.778147 30974 net.cpp:148] Top shape: 24 64 14 14 (301056)
I0403 15:03:51.778162 30974 net.cpp:156] Memory required for data: 1135267104
I0403 15:03:51.778177 30974 layer_factory.hpp:77] Creating layer inception_4d/pool
I0403 15:03:51.778194 30974 net.cpp:91] Creating Layer inception_4d/pool
I0403 15:03:51.778210 30974 net.cpp:425] inception_4d/pool <- inception_4c/output_inception_4c/output_0_split_3
I0403 15:03:51.778230 30974 net.cpp:399] inception_4d/pool -> inception_4d/pool
I0403 15:03:51.778295 30974 net.cpp:141] Setting up inception_4d/pool
I0403 15:03:51.778318 30974 net.cpp:148] Top shape: 24 512 14 14 (2408448)
I0403 15:03:51.778332 30974 net.cpp:156] Memory required for data: 1144900896
I0403 15:03:51.778347 30974 layer_factory.hpp:77] Creating layer inception_4d/pool_proj
I0403 15:03:51.778369 30974 net.cpp:91] Creating Layer inception_4d/pool_proj
I0403 15:03:51.778388 30974 net.cpp:425] inception_4d/pool_proj <- inception_4d/pool
I0403 15:03:51.778405 30974 net.cpp:399] inception_4d/pool_proj -> inception_4d/pool_proj
I0403 15:03:51.780130 30974 net.cpp:141] Setting up inception_4d/pool_proj
I0403 15:03:51.780158 30974 net.cpp:148] Top shape: 24 64 14 14 (301056)
I0403 15:03:51.780174 30974 net.cpp:156] Memory required for data: 1146105120
I0403 15:03:51.780192 30974 layer_factory.hpp:77] Creating layer inception_4d/relu_pool_proj
I0403 15:03:51.780212 30974 net.cpp:91] Creating Layer inception_4d/relu_pool_proj
I0403 15:03:51.780230 30974 net.cpp:425] inception_4d/relu_pool_proj <- inception_4d/pool_proj
I0403 15:03:51.780246 30974 net.cpp:386] inception_4d/relu_pool_proj -> inception_4d/pool_proj (in-place)
I0403 15:03:51.780426 30974 net.cpp:141] Setting up inception_4d/relu_pool_proj
I0403 15:03:51.780452 30974 net.cpp:148] Top shape: 24 64 14 14 (301056)
I0403 15:03:51.780467 30974 net.cpp:156] Memory required for data: 1147309344
I0403 15:03:51.780481 30974 layer_factory.hpp:77] Creating layer inception_4d/output
I0403 15:03:51.780498 30974 net.cpp:91] Creating Layer inception_4d/output
I0403 15:03:51.780519 30974 net.cpp:425] inception_4d/output <- inception_4d/1x1
I0403 15:03:51.780535 30974 net.cpp:425] inception_4d/output <- inception_4d/3x3
I0403 15:03:51.780551 30974 net.cpp:425] inception_4d/output <- inception_4d/5x5
I0403 15:03:51.780567 30974 net.cpp:425] inception_4d/output <- inception_4d/pool_proj
I0403 15:03:51.780586 30974 net.cpp:399] inception_4d/output -> inception_4d/output
I0403 15:03:51.780632 30974 net.cpp:141] Setting up inception_4d/output
I0403 15:03:51.780653 30974 net.cpp:148] Top shape: 24 528 14 14 (2483712)
I0403 15:03:51.780668 30974 net.cpp:156] Memory required for data: 1157244192
I0403 15:03:51.780683 30974 layer_factory.hpp:77] Creating layer inception_4d/output_inception_4d/output_0_split
I0403 15:03:51.780702 30974 net.cpp:91] Creating Layer inception_4d/output_inception_4d/output_0_split
I0403 15:03:51.780719 30974 net.cpp:425] inception_4d/output_inception_4d/output_0_split <- inception_4d/output
I0403 15:03:51.780736 30974 net.cpp:399] inception_4d/output_inception_4d/output_0_split -> inception_4d/output_inception_4d/output_0_split_0
I0403 15:03:51.780755 30974 net.cpp:399] inception_4d/output_inception_4d/output_0_split -> inception_4d/output_inception_4d/output_0_split_1
I0403 15:03:51.780779 30974 net.cpp:399] inception_4d/output_inception_4d/output_0_split -> inception_4d/output_inception_4d/output_0_split_2
I0403 15:03:51.780800 30974 net.cpp:399] inception_4d/output_inception_4d/output_0_split -> inception_4d/output_inception_4d/output_0_split_3
I0403 15:03:51.780822 30974 net.cpp:399] inception_4d/output_inception_4d/output_0_split -> inception_4d/output_inception_4d/output_0_split_4
I0403 15:03:51.780920 30974 net.cpp:141] Setting up inception_4d/output_inception_4d/output_0_split
I0403 15:03:51.780956 30974 net.cpp:148] Top shape: 24 528 14 14 (2483712)
I0403 15:03:51.780972 30974 net.cpp:148] Top shape: 24 528 14 14 (2483712)
I0403 15:03:51.780987 30974 net.cpp:148] Top shape: 24 528 14 14 (2483712)
I0403 15:03:51.781002 30974 net.cpp:148] Top shape: 24 528 14 14 (2483712)
I0403 15:03:51.781016 30974 net.cpp:148] Top shape: 24 528 14 14 (2483712)
I0403 15:03:51.781029 30974 net.cpp:156] Memory required for data: 1206918432
I0403 15:03:51.781044 30974 layer_factory.hpp:77] Creating layer loss2/ave_pool
I0403 15:03:51.781064 30974 net.cpp:91] Creating Layer loss2/ave_pool
I0403 15:03:51.781080 30974 net.cpp:425] loss2/ave_pool <- inception_4d/output_inception_4d/output_0_split_0
I0403 15:03:51.781098 30974 net.cpp:399] loss2/ave_pool -> loss2/ave_pool
I0403 15:03:51.781409 30974 net.cpp:141] Setting up loss2/ave_pool
I0403 15:03:51.781435 30974 net.cpp:148] Top shape: 24 528 4 4 (202752)
I0403 15:03:51.781450 30974 net.cpp:156] Memory required for data: 1207729440
I0403 15:03:51.781464 30974 layer_factory.hpp:77] Creating layer loss2/conv
I0403 15:03:51.781486 30974 net.cpp:91] Creating Layer loss2/conv
I0403 15:03:51.781507 30974 net.cpp:425] loss2/conv <- loss2/ave_pool
I0403 15:03:51.781528 30974 net.cpp:399] loss2/conv -> loss2/conv
I0403 15:03:51.783383 30974 net.cpp:141] Setting up loss2/conv
I0403 15:03:51.783413 30974 net.cpp:148] Top shape: 24 128 4 4 (49152)
I0403 15:03:51.783430 30974 net.cpp:156] Memory required for data: 1207926048
I0403 15:03:51.783450 30974 layer_factory.hpp:77] Creating layer loss2/relu_conv
I0403 15:03:51.783469 30974 net.cpp:91] Creating Layer loss2/relu_conv
I0403 15:03:51.783485 30974 net.cpp:425] loss2/relu_conv <- loss2/conv
I0403 15:03:51.783515 30974 net.cpp:386] loss2/relu_conv -> loss2/conv (in-place)
I0403 15:03:51.783810 30974 net.cpp:141] Setting up loss2/relu_conv
I0403 15:03:51.783838 30974 net.cpp:148] Top shape: 24 128 4 4 (49152)
I0403 15:03:51.783854 30974 net.cpp:156] Memory required for data: 1208122656
I0403 15:03:51.783869 30974 layer_factory.hpp:77] Creating layer loss2/fc
I0403 15:03:51.783887 30974 net.cpp:91] Creating Layer loss2/fc
I0403 15:03:51.783902 30974 net.cpp:425] loss2/fc <- loss2/conv
I0403 15:03:51.783923 30974 net.cpp:399] loss2/fc -> loss2/fc
I0403 15:03:51.801110 30974 net.cpp:141] Setting up loss2/fc
I0403 15:03:51.801141 30974 net.cpp:148] Top shape: 24 1024 (24576)
I0403 15:03:51.801157 30974 net.cpp:156] Memory required for data: 1208220960
I0403 15:03:51.801175 30974 layer_factory.hpp:77] Creating layer loss2/relu_fc
I0403 15:03:51.801198 30974 net.cpp:91] Creating Layer loss2/relu_fc
I0403 15:03:51.801214 30974 net.cpp:425] loss2/relu_fc <- loss2/fc
I0403 15:03:51.801231 30974 net.cpp:386] loss2/relu_fc -> loss2/fc (in-place)
I0403 15:03:51.801529 30974 net.cpp:141] Setting up loss2/relu_fc
I0403 15:03:51.801554 30974 net.cpp:148] Top shape: 24 1024 (24576)
I0403 15:03:51.801571 30974 net.cpp:156] Memory required for data: 1208319264
I0403 15:03:51.801586 30974 layer_factory.hpp:77] Creating layer loss2/drop_fc
I0403 15:03:51.801606 30974 net.cpp:91] Creating Layer loss2/drop_fc
I0403 15:03:51.801622 30974 net.cpp:425] loss2/drop_fc <- loss2/fc
I0403 15:03:51.801640 30974 net.cpp:386] loss2/drop_fc -> loss2/fc (in-place)
I0403 15:03:51.801689 30974 net.cpp:141] Setting up loss2/drop_fc
I0403 15:03:51.801712 30974 net.cpp:148] Top shape: 24 1024 (24576)
I0403 15:03:51.801725 30974 net.cpp:156] Memory required for data: 1208417568
I0403 15:03:51.801740 30974 layer_factory.hpp:77] Creating layer loss2/classifier_plantvillage
I0403 15:03:51.801761 30974 net.cpp:91] Creating Layer loss2/classifier_plantvillage
I0403 15:03:51.801779 30974 net.cpp:425] loss2/classifier_plantvillage <- loss2/fc
I0403 15:03:51.801796 30974 net.cpp:399] loss2/classifier_plantvillage -> loss2/classifier_plantvillage
I0403 15:03:51.802191 30974 net.cpp:141] Setting up loss2/classifier_plantvillage
I0403 15:03:51.802217 30974 net.cpp:148] Top shape: 24 38 (912)
I0403 15:03:51.802247 30974 net.cpp:156] Memory required for data: 1208421216
I0403 15:03:51.802265 30974 layer_factory.hpp:77] Creating layer loss2/classifier_plantvillage_loss2/classifier_plantvillage_0_split
I0403 15:03:51.802284 30974 net.cpp:91] Creating Layer loss2/classifier_plantvillage_loss2/classifier_plantvillage_0_split
I0403 15:03:51.802299 30974 net.cpp:425] loss2/classifier_plantvillage_loss2/classifier_plantvillage_0_split <- loss2/classifier_plantvillage
I0403 15:03:51.802320 30974 net.cpp:399] loss2/classifier_plantvillage_loss2/classifier_plantvillage_0_split -> loss2/classifier_plantvillage_loss2/classifier_plantvillage_0_split_0
I0403 15:03:51.802340 30974 net.cpp:399] loss2/classifier_plantvillage_loss2/classifier_plantvillage_0_split -> loss2/classifier_plantvillage_loss2/classifier_plantvillage_0_split_1
I0403 15:03:51.802359 30974 net.cpp:399] loss2/classifier_plantvillage_loss2/classifier_plantvillage_0_split -> loss2/classifier_plantvillage_loss2/classifier_plantvillage_0_split_2
I0403 15:03:51.802434 30974 net.cpp:141] Setting up loss2/classifier_plantvillage_loss2/classifier_plantvillage_0_split
I0403 15:03:51.802459 30974 net.cpp:148] Top shape: 24 38 (912)
I0403 15:03:51.802475 30974 net.cpp:148] Top shape: 24 38 (912)
I0403 15:03:51.802491 30974 net.cpp:148] Top shape: 24 38 (912)
I0403 15:03:51.802510 30974 net.cpp:156] Memory required for data: 1208432160
I0403 15:03:51.802525 30974 layer_factory.hpp:77] Creating layer inception_4e/1x1
I0403 15:03:51.802546 30974 net.cpp:91] Creating Layer inception_4e/1x1
I0403 15:03:51.802561 30974 net.cpp:425] inception_4e/1x1 <- inception_4d/output_inception_4d/output_0_split_1
I0403 15:03:51.802580 30974 net.cpp:399] inception_4e/1x1 -> inception_4e/1x1
I0403 15:03:51.804388 30974 net.cpp:141] Setting up inception_4e/1x1
I0403 15:03:51.804414 30974 net.cpp:148] Top shape: 24 256 14 14 (1204224)
I0403 15:03:51.804430 30974 net.cpp:156] Memory required for data: 1213249056
I0403 15:03:51.804446 30974 layer_factory.hpp:77] Creating layer inception_4e/relu_1x1
I0403 15:03:51.804464 30974 net.cpp:91] Creating Layer inception_4e/relu_1x1
I0403 15:03:51.804481 30974 net.cpp:425] inception_4e/relu_1x1 <- inception_4e/1x1
I0403 15:03:51.804498 30974 net.cpp:386] inception_4e/relu_1x1 -> inception_4e/1x1 (in-place)
I0403 15:03:51.804795 30974 net.cpp:141] Setting up inception_4e/relu_1x1
I0403 15:03:51.804818 30974 net.cpp:148] Top shape: 24 256 14 14 (1204224)
I0403 15:03:51.804833 30974 net.cpp:156] Memory required for data: 1218065952
I0403 15:03:51.804848 30974 layer_factory.hpp:77] Creating layer inception_4e/3x3_reduce
I0403 15:03:51.804870 30974 net.cpp:91] Creating Layer inception_4e/3x3_reduce
I0403 15:03:51.804888 30974 net.cpp:425] inception_4e/3x3_reduce <- inception_4d/output_inception_4d/output_0_split_2
I0403 15:03:51.804908 30974 net.cpp:399] inception_4e/3x3_reduce -> inception_4e/3x3_reduce
I0403 15:03:51.806998 30974 net.cpp:141] Setting up inception_4e/3x3_reduce
I0403 15:03:51.807026 30974 net.cpp:148] Top shape: 24 160 14 14 (752640)
I0403 15:03:51.807044 30974 net.cpp:156] Memory required for data: 1221076512
I0403 15:03:51.807061 30974 layer_factory.hpp:77] Creating layer inception_4e/relu_3x3_reduce
I0403 15:03:51.807080 30974 net.cpp:91] Creating Layer inception_4e/relu_3x3_reduce
I0403 15:03:51.807096 30974 net.cpp:425] inception_4e/relu_3x3_reduce <- inception_4e/3x3_reduce
I0403 15:03:51.807114 30974 net.cpp:386] inception_4e/relu_3x3_reduce -> inception_4e/3x3_reduce (in-place)
I0403 15:03:51.807293 30974 net.cpp:141] Setting up inception_4e/relu_3x3_reduce
I0403 15:03:51.807317 30974 net.cpp:148] Top shape: 24 160 14 14 (752640)
I0403 15:03:51.807332 30974 net.cpp:156] Memory required for data: 1224087072
I0403 15:03:51.807346 30974 layer_factory.hpp:77] Creating layer inception_4e/3x3
I0403 15:03:51.807368 30974 net.cpp:91] Creating Layer inception_4e/3x3
I0403 15:03:51.807385 30974 net.cpp:425] inception_4e/3x3 <- inception_4e/3x3_reduce
I0403 15:03:51.807406 30974 net.cpp:399] inception_4e/3x3 -> inception_4e/3x3
I0403 15:03:51.812528 30974 net.cpp:141] Setting up inception_4e/3x3
I0403 15:03:51.812568 30974 net.cpp:148] Top shape: 24 320 14 14 (1505280)
I0403 15:03:51.812584 30974 net.cpp:156] Memory required for data: 1230108192
I0403 15:03:51.812602 30974 layer_factory.hpp:77] Creating layer inception_4e/relu_3x3
I0403 15:03:51.812623 30974 net.cpp:91] Creating Layer inception_4e/relu_3x3
I0403 15:03:51.812638 30974 net.cpp:425] inception_4e/relu_3x3 <- inception_4e/3x3
I0403 15:03:51.812655 30974 net.cpp:386] inception_4e/relu_3x3 -> inception_4e/3x3 (in-place)
I0403 15:03:51.812947 30974 net.cpp:141] Setting up inception_4e/relu_3x3
I0403 15:03:51.812973 30974 net.cpp:148] Top shape: 24 320 14 14 (1505280)
I0403 15:03:51.812988 30974 net.cpp:156] Memory required for data: 1236129312
I0403 15:03:51.813002 30974 layer_factory.hpp:77] Creating layer inception_4e/5x5_reduce
I0403 15:03:51.813025 30974 net.cpp:91] Creating Layer inception_4e/5x5_reduce
I0403 15:03:51.813043 30974 net.cpp:425] inception_4e/5x5_reduce <- inception_4d/output_inception_4d/output_0_split_3
I0403 15:03:51.813066 30974 net.cpp:399] inception_4e/5x5_reduce -> inception_4e/5x5_reduce
I0403 15:03:51.814107 30974 net.cpp:141] Setting up inception_4e/5x5_reduce
I0403 15:03:51.814133 30974 net.cpp:148] Top shape: 24 32 14 14 (150528)
I0403 15:03:51.814148 30974 net.cpp:156] Memory required for data: 1236731424
I0403 15:03:51.814167 30974 layer_factory.hpp:77] Creating layer inception_4e/relu_5x5_reduce
I0403 15:03:51.814184 30974 net.cpp:91] Creating Layer inception_4e/relu_5x5_reduce
I0403 15:03:51.814200 30974 net.cpp:425] inception_4e/relu_5x5_reduce <- inception_4e/5x5_reduce
I0403 15:03:51.814218 30974 net.cpp:386] inception_4e/relu_5x5_reduce -> inception_4e/5x5_reduce (in-place)
I0403 15:03:51.814523 30974 net.cpp:141] Setting up inception_4e/relu_5x5_reduce
I0403 15:03:51.814548 30974 net.cpp:148] Top shape: 24 32 14 14 (150528)
I0403 15:03:51.814564 30974 net.cpp:156] Memory required for data: 1237333536
I0403 15:03:51.814581 30974 layer_factory.hpp:77] Creating layer inception_4e/5x5
I0403 15:03:51.814621 30974 net.cpp:91] Creating Layer inception_4e/5x5
I0403 15:03:51.814640 30974 net.cpp:425] inception_4e/5x5 <- inception_4e/5x5_reduce
I0403 15:03:51.814659 30974 net.cpp:399] inception_4e/5x5 -> inception_4e/5x5
I0403 15:03:51.816562 30974 net.cpp:141] Setting up inception_4e/5x5
I0403 15:03:51.816593 30974 net.cpp:148] Top shape: 24 128 14 14 (602112)
I0403 15:03:51.816611 30974 net.cpp:156] Memory required for data: 1239741984
I0403 15:03:51.816630 30974 layer_factory.hpp:77] Creating layer inception_4e/relu_5x5
I0403 15:03:51.816648 30974 net.cpp:91] Creating Layer inception_4e/relu_5x5
I0403 15:03:51.816663 30974 net.cpp:425] inception_4e/relu_5x5 <- inception_4e/5x5
I0403 15:03:51.816680 30974 net.cpp:386] inception_4e/relu_5x5 -> inception_4e/5x5 (in-place)
I0403 15:03:51.816890 30974 net.cpp:141] Setting up inception_4e/relu_5x5
I0403 15:03:51.816915 30974 net.cpp:148] Top shape: 24 128 14 14 (602112)
I0403 15:03:51.816929 30974 net.cpp:156] Memory required for data: 1242150432
I0403 15:03:51.816944 30974 layer_factory.hpp:77] Creating layer inception_4e/pool
I0403 15:03:51.816962 30974 net.cpp:91] Creating Layer inception_4e/pool
I0403 15:03:51.816977 30974 net.cpp:425] inception_4e/pool <- inception_4d/output_inception_4d/output_0_split_4
I0403 15:03:51.816997 30974 net.cpp:399] inception_4e/pool -> inception_4e/pool
I0403 15:03:51.817064 30974 net.cpp:141] Setting up inception_4e/pool
I0403 15:03:51.817088 30974 net.cpp:148] Top shape: 24 528 14 14 (2483712)
I0403 15:03:51.817103 30974 net.cpp:156] Memory required for data: 1252085280
I0403 15:03:51.817118 30974 layer_factory.hpp:77] Creating layer inception_4e/pool_proj
I0403 15:03:51.817139 30974 net.cpp:91] Creating Layer inception_4e/pool_proj
I0403 15:03:51.817157 30974 net.cpp:425] inception_4e/pool_proj <- inception_4e/pool
I0403 15:03:51.817174 30974 net.cpp:399] inception_4e/pool_proj -> inception_4e/pool_proj
I0403 15:03:51.818651 30974 net.cpp:141] Setting up inception_4e/pool_proj
I0403 15:03:51.818689 30974 net.cpp:148] Top shape: 24 128 14 14 (602112)
I0403 15:03:51.818711 30974 net.cpp:156] Memory required for data: 1254493728
I0403 15:03:51.818732 30974 layer_factory.hpp:77] Creating layer inception_4e/relu_pool_proj
I0403 15:03:51.818750 30974 net.cpp:91] Creating Layer inception_4e/relu_pool_proj
I0403 15:03:51.818766 30974 net.cpp:425] inception_4e/relu_pool_proj <- inception_4e/pool_proj
I0403 15:03:51.818783 30974 net.cpp:386] inception_4e/relu_pool_proj -> inception_4e/pool_proj (in-place)
I0403 15:03:51.819070 30974 net.cpp:141] Setting up inception_4e/relu_pool_proj
I0403 15:03:51.819095 30974 net.cpp:148] Top shape: 24 128 14 14 (602112)
I0403 15:03:51.819114 30974 net.cpp:156] Memory required for data: 1256902176
I0403 15:03:51.819129 30974 layer_factory.hpp:77] Creating layer inception_4e/output
I0403 15:03:51.819146 30974 net.cpp:91] Creating Layer inception_4e/output
I0403 15:03:51.819161 30974 net.cpp:425] inception_4e/output <- inception_4e/1x1
I0403 15:03:51.819178 30974 net.cpp:425] inception_4e/output <- inception_4e/3x3
I0403 15:03:51.819195 30974 net.cpp:425] inception_4e/output <- inception_4e/5x5
I0403 15:03:51.819211 30974 net.cpp:425] inception_4e/output <- inception_4e/pool_proj
I0403 15:03:51.819227 30974 net.cpp:399] inception_4e/output -> inception_4e/output
I0403 15:03:51.819279 30974 net.cpp:141] Setting up inception_4e/output
I0403 15:03:51.819303 30974 net.cpp:148] Top shape: 24 832 14 14 (3913728)
I0403 15:03:51.819316 30974 net.cpp:156] Memory required for data: 1272557088
I0403 15:03:51.819332 30974 layer_factory.hpp:77] Creating layer pool4/3x3_s2
I0403 15:03:51.819350 30974 net.cpp:91] Creating Layer pool4/3x3_s2
I0403 15:03:51.819367 30974 net.cpp:425] pool4/3x3_s2 <- inception_4e/output
I0403 15:03:51.819386 30974 net.cpp:399] pool4/3x3_s2 -> pool4/3x3_s2
I0403 15:03:51.819450 30974 net.cpp:141] Setting up pool4/3x3_s2
I0403 15:03:51.819473 30974 net.cpp:148] Top shape: 24 832 7 7 (978432)
I0403 15:03:51.819489 30974 net.cpp:156] Memory required for data: 1276470816
I0403 15:03:51.819506 30974 layer_factory.hpp:77] Creating layer pool4/3x3_s2_pool4/3x3_s2_0_split
I0403 15:03:51.819525 30974 net.cpp:91] Creating Layer pool4/3x3_s2_pool4/3x3_s2_0_split
I0403 15:03:51.819540 30974 net.cpp:425] pool4/3x3_s2_pool4/3x3_s2_0_split <- pool4/3x3_s2
I0403 15:03:51.819560 30974 net.cpp:399] pool4/3x3_s2_pool4/3x3_s2_0_split -> pool4/3x3_s2_pool4/3x3_s2_0_split_0
I0403 15:03:51.819581 30974 net.cpp:399] pool4/3x3_s2_pool4/3x3_s2_0_split -> pool4/3x3_s2_pool4/3x3_s2_0_split_1
I0403 15:03:51.819602 30974 net.cpp:399] pool4/3x3_s2_pool4/3x3_s2_0_split -> pool4/3x3_s2_pool4/3x3_s2_0_split_2
I0403 15:03:51.819622 30974 net.cpp:399] pool4/3x3_s2_pool4/3x3_s2_0_split -> pool4/3x3_s2_pool4/3x3_s2_0_split_3
I0403 15:03:51.819710 30974 net.cpp:141] Setting up pool4/3x3_s2_pool4/3x3_s2_0_split
I0403 15:03:51.819733 30974 net.cpp:148] Top shape: 24 832 7 7 (978432)
I0403 15:03:51.819748 30974 net.cpp:148] Top shape: 24 832 7 7 (978432)
I0403 15:03:51.819764 30974 net.cpp:148] Top shape: 24 832 7 7 (978432)
I0403 15:03:51.819779 30974 net.cpp:148] Top shape: 24 832 7 7 (978432)
I0403 15:03:51.819792 30974 net.cpp:156] Memory required for data: 1292125728
I0403 15:03:51.819808 30974 layer_factory.hpp:77] Creating layer inception_5a/1x1
I0403 15:03:51.819830 30974 net.cpp:91] Creating Layer inception_5a/1x1
I0403 15:03:51.819847 30974 net.cpp:425] inception_5a/1x1 <- pool4/3x3_s2_pool4/3x3_s2_0_split_0
I0403 15:03:51.819865 30974 net.cpp:399] inception_5a/1x1 -> inception_5a/1x1
I0403 15:03:51.822708 30974 net.cpp:141] Setting up inception_5a/1x1
I0403 15:03:51.822741 30974 net.cpp:148] Top shape: 24 256 7 7 (301056)
I0403 15:03:51.822757 30974 net.cpp:156] Memory required for data: 1293329952
I0403 15:03:51.822775 30974 layer_factory.hpp:77] Creating layer inception_5a/relu_1x1
I0403 15:03:51.822794 30974 net.cpp:91] Creating Layer inception_5a/relu_1x1
I0403 15:03:51.822824 30974 net.cpp:425] inception_5a/relu_1x1 <- inception_5a/1x1
I0403 15:03:51.822841 30974 net.cpp:386] inception_5a/relu_1x1 -> inception_5a/1x1 (in-place)
I0403 15:03:51.823149 30974 net.cpp:141] Setting up inception_5a/relu_1x1
I0403 15:03:51.823185 30974 net.cpp:148] Top shape: 24 256 7 7 (301056)
I0403 15:03:51.823200 30974 net.cpp:156] Memory required for data: 1294534176
I0403 15:03:51.823218 30974 layer_factory.hpp:77] Creating layer inception_5a/3x3_reduce
I0403 15:03:51.823243 30974 net.cpp:91] Creating Layer inception_5a/3x3_reduce
I0403 15:03:51.823262 30974 net.cpp:425] inception_5a/3x3_reduce <- pool4/3x3_s2_pool4/3x3_s2_0_split_1
I0403 15:03:51.823282 30974 net.cpp:399] inception_5a/3x3_reduce -> inception_5a/3x3_reduce
I0403 15:03:51.825727 30974 net.cpp:141] Setting up inception_5a/3x3_reduce
I0403 15:03:51.825757 30974 net.cpp:148] Top shape: 24 160 7 7 (188160)
I0403 15:03:51.825773 30974 net.cpp:156] Memory required for data: 1295286816
I0403 15:03:51.825793 30974 layer_factory.hpp:77] Creating layer inception_5a/relu_3x3_reduce
I0403 15:03:51.825825 30974 net.cpp:91] Creating Layer inception_5a/relu_3x3_reduce
I0403 15:03:51.825842 30974 net.cpp:425] inception_5a/relu_3x3_reduce <- inception_5a/3x3_reduce
I0403 15:03:51.825860 30974 net.cpp:386] inception_5a/relu_3x3_reduce -> inception_5a/3x3_reduce (in-place)
I0403 15:03:51.826050 30974 net.cpp:141] Setting up inception_5a/relu_3x3_reduce
I0403 15:03:51.826076 30974 net.cpp:148] Top shape: 24 160 7 7 (188160)
I0403 15:03:51.826091 30974 net.cpp:156] Memory required for data: 1296039456
I0403 15:03:51.826105 30974 layer_factory.hpp:77] Creating layer inception_5a/3x3
I0403 15:03:51.826128 30974 net.cpp:91] Creating Layer inception_5a/3x3
I0403 15:03:51.826145 30974 net.cpp:425] inception_5a/3x3 <- inception_5a/3x3_reduce
I0403 15:03:51.826164 30974 net.cpp:399] inception_5a/3x3 -> inception_5a/3x3
I0403 15:03:51.831049 30974 net.cpp:141] Setting up inception_5a/3x3
I0403 15:03:51.831082 30974 net.cpp:148] Top shape: 24 320 7 7 (376320)
I0403 15:03:51.831100 30974 net.cpp:156] Memory required for data: 1297544736
I0403 15:03:51.831130 30974 layer_factory.hpp:77] Creating layer inception_5a/relu_3x3
I0403 15:03:51.831151 30974 net.cpp:91] Creating Layer inception_5a/relu_3x3
I0403 15:03:51.831166 30974 net.cpp:425] inception_5a/relu_3x3 <- inception_5a/3x3
I0403 15:03:51.831183 30974 net.cpp:386] inception_5a/relu_3x3 -> inception_5a/3x3 (in-place)
I0403 15:03:51.831471 30974 net.cpp:141] Setting up inception_5a/relu_3x3
I0403 15:03:51.831498 30974 net.cpp:148] Top shape: 24 320 7 7 (376320)
I0403 15:03:51.831519 30974 net.cpp:156] Memory required for data: 1299050016
I0403 15:03:51.831535 30974 layer_factory.hpp:77] Creating layer inception_5a/5x5_reduce
I0403 15:03:51.831558 30974 net.cpp:91] Creating Layer inception_5a/5x5_reduce
I0403 15:03:51.831578 30974 net.cpp:425] inception_5a/5x5_reduce <- pool4/3x3_s2_pool4/3x3_s2_0_split_2
I0403 15:03:51.831596 30974 net.cpp:399] inception_5a/5x5_reduce -> inception_5a/5x5_reduce
I0403 15:03:51.832744 30974 net.cpp:141] Setting up inception_5a/5x5_reduce
I0403 15:03:51.832774 30974 net.cpp:148] Top shape: 24 32 7 7 (37632)
I0403 15:03:51.832790 30974 net.cpp:156] Memory required for data: 1299200544
I0403 15:03:51.832810 30974 layer_factory.hpp:77] Creating layer inception_5a/relu_5x5_reduce
I0403 15:03:51.832828 30974 net.cpp:91] Creating Layer inception_5a/relu_5x5_reduce
I0403 15:03:51.832844 30974 net.cpp:425] inception_5a/relu_5x5_reduce <- inception_5a/5x5_reduce
I0403 15:03:51.832861 30974 net.cpp:386] inception_5a/relu_5x5_reduce -> inception_5a/5x5_reduce (in-place)
I0403 15:03:51.833158 30974 net.cpp:141] Setting up inception_5a/relu_5x5_reduce
I0403 15:03:51.833185 30974 net.cpp:148] Top shape: 24 32 7 7 (37632)
I0403 15:03:51.833201 30974 net.cpp:156] Memory required for data: 1299351072
I0403 15:03:51.833216 30974 layer_factory.hpp:77] Creating layer inception_5a/5x5
I0403 15:03:51.833238 30974 net.cpp:91] Creating Layer inception_5a/5x5
I0403 15:03:51.833256 30974 net.cpp:425] inception_5a/5x5 <- inception_5a/5x5_reduce
I0403 15:03:51.833276 30974 net.cpp:399] inception_5a/5x5 -> inception_5a/5x5
I0403 15:03:51.839841 30974 net.cpp:141] Setting up inception_5a/5x5
I0403 15:03:51.839881 30974 net.cpp:148] Top shape: 24 128 7 7 (150528)
I0403 15:03:51.839898 30974 net.cpp:156] Memory required for data: 1299953184
I0403 15:03:51.839917 30974 layer_factory.hpp:77] Creating layer inception_5a/relu_5x5
I0403 15:03:51.839936 30974 net.cpp:91] Creating Layer inception_5a/relu_5x5
I0403 15:03:51.839951 30974 net.cpp:425] inception_5a/relu_5x5 <- inception_5a/5x5
I0403 15:03:51.839967 30974 net.cpp:386] inception_5a/relu_5x5 -> inception_5a/5x5 (in-place)
I0403 15:03:51.840157 30974 net.cpp:141] Setting up inception_5a/relu_5x5
I0403 15:03:51.840181 30974 net.cpp:148] Top shape: 24 128 7 7 (150528)
I0403 15:03:51.840196 30974 net.cpp:156] Memory required for data: 1300555296
I0403 15:03:51.840211 30974 layer_factory.hpp:77] Creating layer inception_5a/pool
I0403 15:03:51.840229 30974 net.cpp:91] Creating Layer inception_5a/pool
I0403 15:03:51.840243 30974 net.cpp:425] inception_5a/pool <- pool4/3x3_s2_pool4/3x3_s2_0_split_3
I0403 15:03:51.840263 30974 net.cpp:399] inception_5a/pool -> inception_5a/pool
I0403 15:03:51.840332 30974 net.cpp:141] Setting up inception_5a/pool
I0403 15:03:51.840356 30974 net.cpp:148] Top shape: 24 832 7 7 (978432)
I0403 15:03:51.840371 30974 net.cpp:156] Memory required for data: 1304469024
I0403 15:03:51.840386 30974 layer_factory.hpp:77] Creating layer inception_5a/pool_proj
I0403 15:03:51.840407 30974 net.cpp:91] Creating Layer inception_5a/pool_proj
I0403 15:03:51.840423 30974 net.cpp:425] inception_5a/pool_proj <- inception_5a/pool
I0403 15:03:51.840442 30974 net.cpp:399] inception_5a/pool_proj -> inception_5a/pool_proj
I0403 15:03:51.842725 30974 net.cpp:141] Setting up inception_5a/pool_proj
I0403 15:03:51.842754 30974 net.cpp:148] Top shape: 24 128 7 7 (150528)
I0403 15:03:51.842770 30974 net.cpp:156] Memory required for data: 1305071136
I0403 15:03:51.842788 30974 layer_factory.hpp:77] Creating layer inception_5a/relu_pool_proj
I0403 15:03:51.842808 30974 net.cpp:91] Creating Layer inception_5a/relu_pool_proj
I0403 15:03:51.842825 30974 net.cpp:425] inception_5a/relu_pool_proj <- inception_5a/pool_proj
I0403 15:03:51.842842 30974 net.cpp:386] inception_5a/relu_pool_proj -> inception_5a/pool_proj (in-place)
I0403 15:03:51.843132 30974 net.cpp:141] Setting up inception_5a/relu_pool_proj
I0403 15:03:51.843157 30974 net.cpp:148] Top shape: 24 128 7 7 (150528)
I0403 15:03:51.843171 30974 net.cpp:156] Memory required for data: 1305673248
I0403 15:03:51.843186 30974 layer_factory.hpp:77] Creating layer inception_5a/output
I0403 15:03:51.843205 30974 net.cpp:91] Creating Layer inception_5a/output
I0403 15:03:51.843222 30974 net.cpp:425] inception_5a/output <- inception_5a/1x1
I0403 15:03:51.843240 30974 net.cpp:425] inception_5a/output <- inception_5a/3x3
I0403 15:03:51.843255 30974 net.cpp:425] inception_5a/output <- inception_5a/5x5
I0403 15:03:51.843271 30974 net.cpp:425] inception_5a/output <- inception_5a/pool_proj
I0403 15:03:51.843286 30974 net.cpp:399] inception_5a/output -> inception_5a/output
I0403 15:03:51.843338 30974 net.cpp:141] Setting up inception_5a/output
I0403 15:03:51.843360 30974 net.cpp:148] Top shape: 24 832 7 7 (978432)
I0403 15:03:51.843374 30974 net.cpp:156] Memory required for data: 1309586976
I0403 15:03:51.843389 30974 layer_factory.hpp:77] Creating layer inception_5a/output_inception_5a/output_0_split
I0403 15:03:51.843405 30974 net.cpp:91] Creating Layer inception_5a/output_inception_5a/output_0_split
I0403 15:03:51.843420 30974 net.cpp:425] inception_5a/output_inception_5a/output_0_split <- inception_5a/output
I0403 15:03:51.843438 30974 net.cpp:399] inception_5a/output_inception_5a/output_0_split -> inception_5a/output_inception_5a/output_0_split_0
I0403 15:03:51.843459 30974 net.cpp:399] inception_5a/output_inception_5a/output_0_split -> inception_5a/output_inception_5a/output_0_split_1
I0403 15:03:51.843479 30974 net.cpp:399] inception_5a/output_inception_5a/output_0_split -> inception_5a/output_inception_5a/output_0_split_2
I0403 15:03:51.843498 30974 net.cpp:399] inception_5a/output_inception_5a/output_0_split -> inception_5a/output_inception_5a/output_0_split_3
I0403 15:03:51.843611 30974 net.cpp:141] Setting up inception_5a/output_inception_5a/output_0_split
I0403 15:03:51.843637 30974 net.cpp:148] Top shape: 24 832 7 7 (978432)
I0403 15:03:51.843654 30974 net.cpp:148] Top shape: 24 832 7 7 (978432)
I0403 15:03:51.843669 30974 net.cpp:148] Top shape: 24 832 7 7 (978432)
I0403 15:03:51.843684 30974 net.cpp:148] Top shape: 24 832 7 7 (978432)
I0403 15:03:51.843698 30974 net.cpp:156] Memory required for data: 1325241888
I0403 15:03:51.843711 30974 layer_factory.hpp:77] Creating layer inception_5b/1x1
I0403 15:03:51.843734 30974 net.cpp:91] Creating Layer inception_5b/1x1
I0403 15:03:51.843750 30974 net.cpp:425] inception_5b/1x1 <- inception_5a/output_inception_5a/output_0_split_0
I0403 15:03:51.843770 30974 net.cpp:399] inception_5b/1x1 -> inception_5b/1x1
I0403 15:03:51.847450 30974 net.cpp:141] Setting up inception_5b/1x1
I0403 15:03:51.847481 30974 net.cpp:148] Top shape: 24 384 7 7 (451584)
I0403 15:03:51.847497 30974 net.cpp:156] Memory required for data: 1327048224
I0403 15:03:51.847522 30974 layer_factory.hpp:77] Creating layer inception_5b/relu_1x1
I0403 15:03:51.847543 30974 net.cpp:91] Creating Layer inception_5b/relu_1x1
I0403 15:03:51.847560 30974 net.cpp:425] inception_5b/relu_1x1 <- inception_5b/1x1
I0403 15:03:51.847580 30974 net.cpp:386] inception_5b/relu_1x1 -> inception_5b/1x1 (in-place)
I0403 15:03:51.847878 30974 net.cpp:141] Setting up inception_5b/relu_1x1
I0403 15:03:51.847913 30974 net.cpp:148] Top shape: 24 384 7 7 (451584)
I0403 15:03:51.847929 30974 net.cpp:156] Memory required for data: 1328854560
I0403 15:03:51.847942 30974 layer_factory.hpp:77] Creating layer inception_5b/3x3_reduce
I0403 15:03:51.847967 30974 net.cpp:91] Creating Layer inception_5b/3x3_reduce
I0403 15:03:51.847985 30974 net.cpp:425] inception_5b/3x3_reduce <- inception_5a/output_inception_5a/output_0_split_1
I0403 15:03:51.848006 30974 net.cpp:399] inception_5b/3x3_reduce -> inception_5b/3x3_reduce
I0403 15:03:51.850603 30974 net.cpp:141] Setting up inception_5b/3x3_reduce
I0403 15:03:51.850632 30974 net.cpp:148] Top shape: 24 192 7 7 (225792)
I0403 15:03:51.850649 30974 net.cpp:156] Memory required for data: 1329757728
I0403 15:03:51.850667 30974 layer_factory.hpp:77] Creating layer inception_5b/relu_3x3_reduce
I0403 15:03:51.850687 30974 net.cpp:91] Creating Layer inception_5b/relu_3x3_reduce
I0403 15:03:51.850704 30974 net.cpp:425] inception_5b/relu_3x3_reduce <- inception_5b/3x3_reduce
I0403 15:03:51.850723 30974 net.cpp:386] inception_5b/relu_3x3_reduce -> inception_5b/3x3_reduce (in-place)
I0403 15:03:51.850909 30974 net.cpp:141] Setting up inception_5b/relu_3x3_reduce
I0403 15:03:51.850935 30974 net.cpp:148] Top shape: 24 192 7 7 (225792)
I0403 15:03:51.850951 30974 net.cpp:156] Memory required for data: 1330660896
I0403 15:03:51.850966 30974 layer_factory.hpp:77] Creating layer inception_5b/3x3
I0403 15:03:51.850987 30974 net.cpp:91] Creating Layer inception_5b/3x3
I0403 15:03:51.851004 30974 net.cpp:425] inception_5b/3x3 <- inception_5b/3x3_reduce
I0403 15:03:51.851022 30974 net.cpp:399] inception_5b/3x3 -> inception_5b/3x3
I0403 15:03:51.857625 30974 net.cpp:141] Setting up inception_5b/3x3
I0403 15:03:51.857653 30974 net.cpp:148] Top shape: 24 384 7 7 (451584)
I0403 15:03:51.857669 30974 net.cpp:156] Memory required for data: 1332467232
I0403 15:03:51.857691 30974 layer_factory.hpp:77] Creating layer inception_5b/relu_3x3
I0403 15:03:51.857712 30974 net.cpp:91] Creating Layer inception_5b/relu_3x3
I0403 15:03:51.857728 30974 net.cpp:425] inception_5b/relu_3x3 <- inception_5b/3x3
I0403 15:03:51.857746 30974 net.cpp:386] inception_5b/relu_3x3 -> inception_5b/3x3 (in-place)
I0403 15:03:51.858041 30974 net.cpp:141] Setting up inception_5b/relu_3x3
I0403 15:03:51.858065 30974 net.cpp:148] Top shape: 24 384 7 7 (451584)
I0403 15:03:51.858080 30974 net.cpp:156] Memory required for data: 1334273568
I0403 15:03:51.858094 30974 layer_factory.hpp:77] Creating layer inception_5b/5x5_reduce
I0403 15:03:51.858134 30974 net.cpp:91] Creating Layer inception_5b/5x5_reduce
I0403 15:03:51.858151 30974 net.cpp:425] inception_5b/5x5_reduce <- inception_5a/output_inception_5a/output_0_split_2
I0403 15:03:51.858170 30974 net.cpp:399] inception_5b/5x5_reduce -> inception_5b/5x5_reduce
I0403 15:03:51.859441 30974 net.cpp:141] Setting up inception_5b/5x5_reduce
I0403 15:03:51.859468 30974 net.cpp:148] Top shape: 24 48 7 7 (56448)
I0403 15:03:51.859488 30974 net.cpp:156] Memory required for data: 1334499360
I0403 15:03:51.859509 30974 layer_factory.hpp:77] Creating layer inception_5b/relu_5x5_reduce
I0403 15:03:51.859529 30974 net.cpp:91] Creating Layer inception_5b/relu_5x5_reduce
I0403 15:03:51.859544 30974 net.cpp:425] inception_5b/relu_5x5_reduce <- inception_5b/5x5_reduce
I0403 15:03:51.859560 30974 net.cpp:386] inception_5b/relu_5x5_reduce -> inception_5b/5x5_reduce (in-place)
I0403 15:03:51.859927 30974 net.cpp:141] Setting up inception_5b/relu_5x5_reduce
I0403 15:03:51.859952 30974 net.cpp:148] Top shape: 24 48 7 7 (56448)
I0403 15:03:51.859967 30974 net.cpp:156] Memory required for data: 1334725152
I0403 15:03:51.859982 30974 layer_factory.hpp:77] Creating layer inception_5b/5x5
I0403 15:03:51.860002 30974 net.cpp:91] Creating Layer inception_5b/5x5
I0403 15:03:51.860019 30974 net.cpp:425] inception_5b/5x5 <- inception_5b/5x5_reduce
I0403 15:03:51.860038 30974 net.cpp:399] inception_5b/5x5 -> inception_5b/5x5
I0403 15:03:51.862066 30974 net.cpp:141] Setting up inception_5b/5x5
I0403 15:03:51.862095 30974 net.cpp:148] Top shape: 24 128 7 7 (150528)
I0403 15:03:51.862112 30974 net.cpp:156] Memory required for data: 1335327264
I0403 15:03:51.862129 30974 layer_factory.hpp:77] Creating layer inception_5b/relu_5x5
I0403 15:03:51.862148 30974 net.cpp:91] Creating Layer inception_5b/relu_5x5
I0403 15:03:51.862162 30974 net.cpp:425] inception_5b/relu_5x5 <- inception_5b/5x5
I0403 15:03:51.862181 30974 net.cpp:386] inception_5b/relu_5x5 -> inception_5b/5x5 (in-place)
I0403 15:03:51.862372 30974 net.cpp:141] Setting up inception_5b/relu_5x5
I0403 15:03:51.862396 30974 net.cpp:148] Top shape: 24 128 7 7 (150528)
I0403 15:03:51.862411 30974 net.cpp:156] Memory required for data: 1335929376
I0403 15:03:51.862424 30974 layer_factory.hpp:77] Creating layer inception_5b/pool
I0403 15:03:51.862442 30974 net.cpp:91] Creating Layer inception_5b/pool
I0403 15:03:51.862457 30974 net.cpp:425] inception_5b/pool <- inception_5a/output_inception_5a/output_0_split_3
I0403 15:03:51.862476 30974 net.cpp:399] inception_5b/pool -> inception_5b/pool
I0403 15:03:51.862552 30974 net.cpp:141] Setting up inception_5b/pool
I0403 15:03:51.862577 30974 net.cpp:148] Top shape: 24 832 7 7 (978432)
I0403 15:03:51.862591 30974 net.cpp:156] Memory required for data: 1339843104
I0403 15:03:51.862606 30974 layer_factory.hpp:77] Creating layer inception_5b/pool_proj
I0403 15:03:51.862627 30974 net.cpp:91] Creating Layer inception_5b/pool_proj
I0403 15:03:51.862644 30974 net.cpp:425] inception_5b/pool_proj <- inception_5b/pool
I0403 15:03:51.862664 30974 net.cpp:399] inception_5b/pool_proj -> inception_5b/pool_proj
I0403 15:03:51.864913 30974 net.cpp:141] Setting up inception_5b/pool_proj
I0403 15:03:51.864948 30974 net.cpp:148] Top shape: 24 128 7 7 (150528)
I0403 15:03:51.864964 30974 net.cpp:156] Memory required for data: 1340445216
I0403 15:03:51.864982 30974 layer_factory.hpp:77] Creating layer inception_5b/relu_pool_proj
I0403 15:03:51.865000 30974 net.cpp:91] Creating Layer inception_5b/relu_pool_proj
I0403 15:03:51.865015 30974 net.cpp:425] inception_5b/relu_pool_proj <- inception_5b/pool_proj
I0403 15:03:51.865037 30974 net.cpp:386] inception_5b/relu_pool_proj -> inception_5b/pool_proj (in-place)
I0403 15:03:51.865329 30974 net.cpp:141] Setting up inception_5b/relu_pool_proj
I0403 15:03:51.865357 30974 net.cpp:148] Top shape: 24 128 7 7 (150528)
I0403 15:03:51.865372 30974 net.cpp:156] Memory required for data: 1341047328
I0403 15:03:51.865387 30974 layer_factory.hpp:77] Creating layer inception_5b/output
I0403 15:03:51.865406 30974 net.cpp:91] Creating Layer inception_5b/output
I0403 15:03:51.865434 30974 net.cpp:425] inception_5b/output <- inception_5b/1x1
I0403 15:03:51.865452 30974 net.cpp:425] inception_5b/output <- inception_5b/3x3
I0403 15:03:51.865468 30974 net.cpp:425] inception_5b/output <- inception_5b/5x5
I0403 15:03:51.865483 30974 net.cpp:425] inception_5b/output <- inception_5b/pool_proj
I0403 15:03:51.865505 30974 net.cpp:399] inception_5b/output -> inception_5b/output
I0403 15:03:51.865559 30974 net.cpp:141] Setting up inception_5b/output
I0403 15:03:51.865583 30974 net.cpp:148] Top shape: 24 1024 7 7 (1204224)
I0403 15:03:51.865598 30974 net.cpp:156] Memory required for data: 1345864224
I0403 15:03:51.865613 30974 layer_factory.hpp:77] Creating layer pool5/7x7_s1
I0403 15:03:51.865633 30974 net.cpp:91] Creating Layer pool5/7x7_s1
I0403 15:03:51.865649 30974 net.cpp:425] pool5/7x7_s1 <- inception_5b/output
I0403 15:03:51.865667 30974 net.cpp:399] pool5/7x7_s1 -> pool5/7x7_s1
I0403 15:03:51.865880 30974 net.cpp:141] Setting up pool5/7x7_s1
I0403 15:03:51.865906 30974 net.cpp:148] Top shape: 24 1024 1 1 (24576)
I0403 15:03:51.865921 30974 net.cpp:156] Memory required for data: 1345962528
I0403 15:03:51.865936 30974 layer_factory.hpp:77] Creating layer pool5/drop_7x7_s1
I0403 15:03:51.865953 30974 net.cpp:91] Creating Layer pool5/drop_7x7_s1
I0403 15:03:51.865969 30974 net.cpp:425] pool5/drop_7x7_s1 <- pool5/7x7_s1
I0403 15:03:51.865986 30974 net.cpp:386] pool5/drop_7x7_s1 -> pool5/7x7_s1 (in-place)
I0403 15:03:51.866036 30974 net.cpp:141] Setting up pool5/drop_7x7_s1
I0403 15:03:51.866060 30974 net.cpp:148] Top shape: 24 1024 1 1 (24576)
I0403 15:03:51.866073 30974 net.cpp:156] Memory required for data: 1346060832
I0403 15:03:51.866087 30974 layer_factory.hpp:77] Creating layer loss3/classifier_plantvillage
I0403 15:03:51.866111 30974 net.cpp:91] Creating Layer loss3/classifier_plantvillage
I0403 15:03:51.866127 30974 net.cpp:425] loss3/classifier_plantvillage <- pool5/7x7_s1
I0403 15:03:51.866144 30974 net.cpp:399] loss3/classifier_plantvillage -> loss3/classifier_plantvillage
I0403 15:03:51.866565 30974 net.cpp:141] Setting up loss3/classifier_plantvillage
I0403 15:03:51.866590 30974 net.cpp:148] Top shape: 24 38 (912)
I0403 15:03:51.866605 30974 net.cpp:156] Memory required for data: 1346064480
I0403 15:03:51.866621 30974 layer_factory.hpp:77] Creating layer loss3/classifier_plantvillage_loss3/classifier_plantvillage_0_split
I0403 15:03:51.866639 30974 net.cpp:91] Creating Layer loss3/classifier_plantvillage_loss3/classifier_plantvillage_0_split
I0403 15:03:51.866655 30974 net.cpp:425] loss3/classifier_plantvillage_loss3/classifier_plantvillage_0_split <- loss3/classifier_plantvillage
I0403 15:03:51.866675 30974 net.cpp:399] loss3/classifier_plantvillage_loss3/classifier_plantvillage_0_split -> loss3/classifier_plantvillage_loss3/classifier_plantvillage_0_split_0
I0403 15:03:51.866695 30974 net.cpp:399] loss3/classifier_plantvillage_loss3/classifier_plantvillage_0_split -> loss3/classifier_plantvillage_loss3/classifier_plantvillage_0_split_1
I0403 15:03:51.866715 30974 net.cpp:399] loss3/classifier_plantvillage_loss3/classifier_plantvillage_0_split -> loss3/classifier_plantvillage_loss3/classifier_plantvillage_0_split_2
I0403 15:03:51.866735 30974 net.cpp:399] loss3/classifier_plantvillage_loss3/classifier_plantvillage_0_split -> loss3/classifier_plantvillage_loss3/classifier_plantvillage_0_split_3
I0403 15:03:51.866839 30974 net.cpp:141] Setting up loss3/classifier_plantvillage_loss3/classifier_plantvillage_0_split
I0403 15:03:51.866863 30974 net.cpp:148] Top shape: 24 38 (912)
I0403 15:03:51.866878 30974 net.cpp:148] Top shape: 24 38 (912)
I0403 15:03:51.866894 30974 net.cpp:148] Top shape: 24 38 (912)
I0403 15:03:51.866909 30974 net.cpp:148] Top shape: 24 38 (912)
I0403 15:03:51.866921 30974 net.cpp:156] Memory required for data: 1346079072
I0403 15:03:51.866936 30974 layer_factory.hpp:77] Creating layer loss1/loss
I0403 15:03:51.866958 30974 net.cpp:91] Creating Layer loss1/loss
I0403 15:03:51.866976 30974 net.cpp:425] loss1/loss <- loss1/classifier_plantvillage_loss1/classifier_plantvillage_0_split_0
I0403 15:03:51.867005 30974 net.cpp:425] loss1/loss <- label_data_1_split_0
…
