…
I0403 15:15:33.642802 31372 net.cpp:313] The NetState phase (1) differed from the phase (0) specified by a rule in layer data
I0403 15:15:33.643947 31372 net.cpp:49] Initializing net from parameters: 
state {
  phase: TEST
}
layer {
  name: "data"
  type: "Data"
  top: "data"
  top: "label"
  include {
    phase: TEST
  }
  transform_param {
    mirror: false
    crop_size: 224
    mean_file: "/home/mohanty/data/final_dataset/lmdb/grayscale-80-20/mean.binaryproto"
  }
  data_param {
    source: "/home/mohanty/data/final_dataset/lmdb/grayscale-80-20/test_db"
    batch_size: 24
    backend: LMDB
  }
}
layer {
  name: "conv1/7x7_s2"
  type: "Convolution"
  bottom: "data"
  top: "conv1/7x7_s2"
  param {
    lr_mult: 1
    decay_mult: 1
  }
  param {
    lr_mult: 2
    decay_mult: 0
  }
  convolution_param {
    num_output: 64
    pad: 3
    kernel_size: 7
    stride: 2
    weight_filler {
      type: "xavier"
      std: 0.1
    }
    bias_filler {
      type: "constant"
      value: 0.2
    }
  }
}
layer {
  name: "conv1/relu_7x7"
  type: "ReLU"
  bottom: "conv1/7x7_s2"
  top: "conv1/7x7_s2"
}
layer {
  name: "pool1/3x3_s2"
  type: "Pooling"
  bottom: "conv1/7x7_s2"
  top: "pool1/3x3_s2"
  pooling_param {
    pool: MAX
    kernel_size: 3
    stride: 2
  }
}
layer {
  name: "pool1/norm1"
  type: "LRN"
  bottom: "pool1/3x3_s2"
  top: "pool1/norm1"
  lrn_param {
    local_size: 5
    alpha: 0.0001
    beta: 0.75
  }
}
layer {
  name: "conv2/3x3_reduce"
  type: "Convolution"
  bottom: "pool1/norm1"
  top: "conv2/3x3_reduce"
  param {
    lr_mult: 1
    decay_mult: 1
  }
  param {
    lr_mult: 2
    decay_mult: 0
  }
  convolution_param {
    num_output: 64
    kernel_size: 1
    weight_filler {
      type: "xavier"
      std: 0.1
    }
    bias_filler {
      type: "constant"
      value: 0.2
    }
  }
}
layer {
  name: "conv2/relu_3x3_reduce"
  type: "ReLU"
  bottom: "conv2/3x3_reduce"
  top: "conv2/3x3_reduce"
}
layer {
  name: "conv2/3x3"
  type: "Convolution"
  bottom: "conv2/3x3_reduce"
  top: "conv2/3x3"
  param {
    lr_mult: 1
    decay_mult: 1
  }
  param {
    lr_mult: 2
    decay_mult: 0
  }
  convolution_param {
    num_output: 192
    pad: 1
    kernel_size: 3
    weight_filler {
      type: "xavier"
      std: 0.03
    }
    bias_filler {
      type: "constant"
      value: 0.2
    }
  }
}
layer {
  name: "conv2/relu_3x3"
  type: "ReLU"
  bottom: "conv2/3x3"
  top: "conv2/3x3"
}
layer {
  name: "conv2/norm2"
  type: "LRN"
  bottom: "conv2/3x3"
  top: "conv2/norm2"
  lrn_param {
    local_size: 5
    alpha: 0.0001
    beta: 0.75
  }
}
layer {
  name: "pool2/3x3_s2"
  type: "Pooling"
  bottom: "conv2/norm2"
  top: "pool2/3x3_s2"
  pooling_param {
    pool: MAX
    kernel_size: 3
    stride: 2
  }
}
layer {
  name: "inception_3a/1x1"
  type: "Convolution"
  bottom: "pool2/3x3_s2"
  top: "inception_3a/1x1"
  param {
    lr_mult: 1
    decay_mult: 1
  }
  param {
    lr_mult: 2
    decay_mult: 0
  }
  convolution_param {
    num_output: 64
    kernel_size: 1
    weight_filler {
      type: "xavier"
      std: 0.03
    }
    bias_filler {
      type: "constant"
      value: 0.2
    }
  }
}
layer {
  name: "inception_3a/relu_1x1"
  type: "ReLU"
  bottom: "inception_3a/1x1"
  top: "inception_3a/1x1"
}
layer {
  name: "inception_3a/3x3_reduce"
  type: "Convolution"
  bottom: "pool2/3x3_s2"
  top: "inception_3a/3x3_reduce"
  param {
    lr_mult: 1
    decay_mult: 1
  }
  param {
    lr_mult: 2
    decay_mult: 0
  }
  convolution_param {
    num_output: 96
    kernel_size: 1
    weight_filler {
      type: "xavier"
      std: 0.09
    }
    bias_filler {
      type: "constant"
      value: 0.2
    }
  }
}
layer {
  name: "inception_3a/relu_3x3_reduce"
  type: "ReLU"
  bottom: "inception_3a/3x3_reduce"
  top: "inception_3a/3x3_reduce"
}
layer {
  name: "inception_3a/3x3"
  type: "Convolution"
  bottom: "inception_3a/3x3_reduce"
  top: "inception_3a/3x3"
  param {
    lr_mult: 1
    decay_mult: 1
  }
  param {
    lr_mult: 2
    decay_mult: 0
  }
  convolution_param {
    num_output: 128
    pad: 1
    kernel_size: 3
    weight_filler {
      type: "xavier"
      std: 0.03
    }
    bias_filler {
      type: "constant"
      value: 0.2
    }
  }
}
layer {
  name: "inception_3a/relu_3x3"
  type: "ReLU"
  bottom: "inception_3a/3x3"
  top: "inception_3a/3x3"
}
layer {
  name: "inception_3a/5x5_reduce"
  type: "Convolution"
  bottom: "pool2/3x3_s2"
  top: "inception_3a/5x5_reduce"
  param {
    lr_mult: 1
    decay_mult: 1
  }
  param {
    lr_mult: 2
    decay_mult: 0
  }
  convolution_param {
    num_output: 16
    kernel_size: 1
    weight_filler {
      type: "xavier"
      std: 0.2
    }
    bias_filler {
      type: "constant"
      value: 0.2
    }
  }
}
layer {
  name: "inception_3a/relu_5x5_reduce"
  type: "ReLU"
  bottom: "inception_3a/5x5_reduce"
  top: "inception_3a/5x5_reduce"
}
layer {
  name: "inception_3a/5x5"
  type: "Convolution"
  bottom: "inception_3a/5x5_reduce"
  top: "inception_3a/5x5"
  param {
    lr_mult: 1
    decay_mult: 1
  }
  param {
    lr_mult: 2
    decay_mult: 0
  }
  convolution_param {
    num_output: 32
    pad: 2
    kernel_size: 5
    weight_filler {
      type: "xavier"
      std: 0.03
    }
    bias_filler {
      type: "constant"
      value: 0.2
    }
  }
}
layer {
  name: "inception_3a/relu_5x5"
  type: "ReLU"
  bottom: "inception_3a/5x5"
  top: "inception_3a/5x5"
}
layer {
  name: "inception_3a/pool"
  type: "Pooling"
  bottom: "pool2/3x3_s2"
  top: "inception_3a/pool"
  pooling_param {
    pool: MAX
    kernel_size: 3
    stride: 1
    pad: 1
  }
}
layer {
  name: "inception_3a/pool_proj"
  type: "Convolution"
  bottom: "inception_3a/pool"
  top: "inception_3a/pool_proj"
  param {
    lr_mult: 1
    decay_mult: 1
  }
  param {
    lr_mult: 2
    decay_mult: 0
  }
  convolution_param {
    num_output: 32
    kernel_size: 1
    weight_filler {
      type: "xavier"
      std: 0.1
    }
    bias_filler {
      type: "constant"
      value: 0.2
    }
  }
}
layer {
  name: "inception_3a/relu_pool_proj"
  type: "ReLU"
  bottom: "inception_3a/pool_proj"
  top: "inception_3a/pool_proj"
}
layer {
  name: "inception_3a/output"
  type: "Concat"
  bottom: "inception_3a/1x1"
  bottom: "inception_3a/3x3"
  bottom: "inception_3a/5x5"
  bottom: "inception_3a/pool_proj"
  top: "inception_3a/output"
}
layer {
  name: "inception_3b/1x1"
  type: "Convolution"
  bottom: "inception_3a/output"
  top: "inception_3b/1x1"
  param {
    lr_mult: 1
    decay_mult: 1
  }
  param {
    lr_mult: 2
    decay_mult: 0
  }
  convolution_param {
    num_output: 128
    kernel_size: 1
    weight_filler {
      type: "xavier"
      std: 0.03
    }
    bias_filler {
      type: "constant"
      value: 0.2
    }
  }
}
layer {
  name: "inception_3b/relu_1x1"
  type: "ReLU"
  bottom: "inception_3b/1x1"
  top: "inception_3b/1x1"
}
layer {
  name: "inception_3b/3x3_reduce"
  type: "Convolution"
  bottom: "inception_3a/output"
  top: "inception_3b/3x3_reduce"
  param {
    lr_mult: 1
    decay_mult: 1
  }
  param {
    lr_mult: 2
    decay_mult: 0
  }
  convolution_param {
    num_output: 128
    kernel_size: 1
    weight_filler {
      type: "xavier"
      std: 0.09
    }
    bias_filler {
      type: "constant"
      value: 0.2
    }
  }
}
layer {
  name: "inception_3b/relu_3x3_reduce"
  type: "ReLU"
  bottom: "inception_3b/3x3_reduce"
  top: "inception_3b/3x3_reduce"
}
layer {
  name: "inception_3b/3x3"
  type: "Convolution"
  bottom: "inception_3b/3x3_reduce"
  top: "inception_3b/3x3"
  param {
    lr_mult: 1
    decay_mult: 1
  }
  param {
    lr_mult: 2
    decay_mult: 0
  }
  convolution_param {
    num_output: 192
    pad: 1
    kernel_size: 3
    weight_filler {
      type: "xavier"
      std: 0.03
    }
    bias_filler {
      type: "constant"
      value: 0.2
    }
  }
}
layer {
  name: "inception_3b/relu_3x3"
  type: "ReLU"
  bottom: "inception_3b/3x3"
  top: "inception_3b/3x3"
}
layer {
  name: "inception_3b/5x5_reduce"
  type: "Convolution"
  bottom: "inception_3a/output"
  top: "inception_3b/5x5_reduce"
  param {
    lr_mult: 1
    decay_mult: 1
  }
  param {
    lr_mult: 2
    decay_mult: 0
  }
  convolution_param {
    num_output: 32
    kernel_size: 1
    weight_filler {
      type: "xavier"
      std: 0.2
    }
    bias_filler {
      type: "constant"
      value: 0.2
    }
  }
}
layer {
  name: "inception_3b/relu_5x5_reduce"
  type: "ReLU"
  bottom: "inception_3b/5x5_reduce"
  top: "inception_3b/5x5_reduce"
}
layer {
  name: "inception_3b/5x5"
  type: "Convolution"
  bottom: "inception_3b/5x5_reduce"
  top: "inception_3b/5x5"
  param {
    lr_mult: 1
    decay_mult: 1
  }
  param {
    lr_mult: 2
    decay_mult: 0
  }
  convolution_param {
    num_output: 96
    pad: 2
    kernel_size: 5
    weight_filler {
      type: "xavier"
      std: 0.03
    }
    bias_filler {
      type: "constant"
      value: 0.2
    }
  }
}
layer {
  name: "inception_3b/relu_5x5"
  type: "ReLU"
  bottom: "inception_3b/5x5"
  top: "inception_3b/5x5"
}
layer {
  name: "inception_3b/pool"
  type: "Pooling"
  bottom: "inception_3a/output"
  top: "inception_3b/pool"
  pooling_param {
    pool: MAX
    kernel_size: 3
    stride: 1
    pad: 1
  }
}
layer {
  name: "inception_3b/pool_proj"
  type: "Convolution"
  bottom: "inception_3b/pool"
  top: "inception_3b/pool_proj"
  param {
    lr_mult: 1
    decay_mult: 1
  }
  param {
    lr_mult: 2
    decay_mult: 0
  }
  convolution_param {
    num_output: 64
    kernel_size: 1
    weight_filler {
      type: "xavier"
      std: 0.1
    }
    bias_filler {
      type: "constant"
      value: 0.2
    }
  }
}
layer {
  name: "inception_3b/relu_pool_proj"
  type: "ReLU"
  bottom: "inception_3b/pool_proj"
  top: "inception_3b/pool_proj"
}
layer {
  name: "inception_3b/output"
  type: "Concat"
  bottom: "inception_3b/1x1"
  bottom: "inception_3b/3x3"
  bottom: "inception_3b/5x5"
  bottom: "inception_3b/pool_proj"
  top: "inception_3b/output"
}
layer {
  name: "pool3/3x3_s2"
  type: "Pooling"
  bottom: "inception_3b/output"
  top: "pool3/3x3_s2"
  pooling_param {
    pool: MAX
    kernel_size: 3
    stride: 2
  }
}
layer {
  name: "inception_4a/1x1"
  type: "Convolution"
  bottom: "pool3/3x3_s2"
  top: "inception_4a/1x1"
  param {
    lr_mult: 1
    decay_mult: 1
  }
  param {
    lr_mult: 2
    decay_mult: 0
  }
  convolution_param {
    num_output: 192
    kernel_size: 1
    weight_filler {
      type: "xavier"
      std: 0.03
    }
    bias_filler {
      type: "constant"
      value: 0.2
    }
  }
}
layer {
  name: "inception_4a/relu_1x1"
  type: "ReLU"
  bottom: "inception_4a/1x1"
  top: "inception_4a/1x1"
}
layer {
  name: "inception_4a/3x3_reduce"
  type: "Convolution"
  bottom: "pool3/3x3_s2"
  top: "inception_4a/3x3_reduce"
  param {
    lr_mult: 1
    decay_mult: 1
  }
  param {
    lr_mult: 2
    decay_mult: 0
  }
  convolution_param {
    num_output: 96
    kernel_size: 1
    weight_filler {
      type: "xavier"
      std: 0.09
    }
    bias_filler {
      type: "constant"
      value: 0.2
    }
  }
}
layer {
  name: "inception_4a/relu_3x3_reduce"
  type: "ReLU"
  bottom: "inception_4a/3x3_reduce"
  top: "inception_4a/3x3_reduce"
}
layer {
  name: "inception_4a/3x3"
  type: "Convolution"
  bottom: "inception_4a/3x3_reduce"
  top: "inception_4a/3x3"
  param {
    lr_mult: 1
    decay_mult: 1
  }
  param {
    lr_mult: 2
    decay_mult: 0
  }
  convolution_param {
    num_output: 208
    pad: 1
    kernel_size: 3
    weight_filler {
      type: "xavier"
      std: 0.03
    }
    bias_filler {
      type: "constant"
      value: 0.2
    }
  }
}
layer {
  name: "inception_4a/relu_3x3"
  type: "ReLU"
  bottom: "inception_4a/3x3"
  top: "inception_4a/3x3"
}
layer {
  name: "inception_4a/5x5_reduce"
  type: "Convolution"
  bottom: "pool3/3x3_s2"
  top: "inception_4a/5x5_reduce"
  param {
    lr_mult: 1
    decay_mult: 1
  }
  param {
    lr_mult: 2
    decay_mult: 0
  }
  convolution_param {
    num_output: 16
    kernel_size: 1
    weight_filler {
      type: "xavier"
      std: 0.2
    }
    bias_filler {
      type: "constant"
      value: 0.2
    }
  }
}
layer {
  name: "inception_4a/relu_5x5_reduce"
  type: "ReLU"
  bottom: "inception_4a/5x5_reduce"
  top: "inception_4a/5x5_reduce"
}
layer {
  name: "inception_4a/5x5"
  type: "Convolution"
  bottom: "inception_4a/5x5_reduce"
  top: "inception_4a/5x5"
  param {
    lr_mult: 1
    decay_mult: 1
  }
  param {
    lr_mult: 2
    decay_mult: 0
  }
  convolution_param {
    num_output: 48
    pad: 2
    kernel_size: 5
    weight_filler {
      type: "xavier"
      std: 0.03
    }
    bias_filler {
      type: "constant"
      value: 0.2
    }
  }
}
layer {
  name: "inception_4a/relu_5x5"
  type: "ReLU"
  bottom: "inception_4a/5x5"
  top: "inception_4a/5x5"
}
layer {
  name: "inception_4a/pool"
  type: "Pooling"
  bottom: "pool3/3x3_s2"
  top: "inception_4a/pool"
  pooling_param {
    pool: MAX
    kernel_size: 3
    stride: 1
    pad: 1
  }
}
layer {
  name: "inception_4a/pool_proj"
  type: "Convolution"
  bottom: "inception_4a/pool"
  top: "inception_4a/pool_proj"
  param {
    lr_mult: 1
    decay_mult: 1
  }
  param {
    lr_mult: 2
    decay_mult: 0
  }
  convolution_param {
    num_output: 64
    kernel_size: 1
    weight_filler {
      type: "xavier"
      std: 0.1
    }
    bias_filler {
      type: "constant"
      value: 0.2
    }
  }
}
layer {
  name: "inception_4a/relu_pool_proj"
  type: "ReLU"
  bottom: "inception_4a/pool_proj"
  top: "inception_4a/pool_proj"
}
layer {
  name: "inception_4a/output"
  type: "Concat"
  bottom: "inception_4a/1x1"
  bottom: "inception_4a/3x3"
  bottom: "inception_4a/5x5"
  bottom: "inception_4a/pool_proj"
  top: "inception_4a/output"
}
layer {
  name: "loss1/ave_pool"
  type: "Pooling"
  bottom: "inception_4a/output"
  top: "loss1/ave_pool"
  pooling_param {
    pool: AVE
    kernel_size: 5
    stride: 3
  }
}
layer {
  name: "loss1/conv"
  type: "Convolution"
  bottom: "loss1/ave_pool"
  top: "loss1/conv"
  param {
    lr_mult: 1
    decay_mult: 1
  }
  param {
    lr_mult: 2
    decay_mult: 0
  }
  convolution_param {
    num_output: 128
    kernel_size: 1
    weight_filler {
      type: "xavier"
      std: 0.08
    }
    bias_filler {
      type: "constant"
      value: 0.2
    }
  }
}
layer {
  name: "loss1/relu_conv"
  type: "ReLU"
  bottom: "loss1/conv"
  top: "loss1/conv"
}
layer {
  name: "loss1/fc"
  type: "InnerProduct"
  bottom: "loss1/conv"
  top: "loss1/fc"
  param {
    lr_mult: 1
    decay_mult: 1
  }
  param {
    lr_mult: 2
    decay_mult: 0
  }
  inner_product_param {
    num_output: 1024
    weight_filler {
      type: "xavier"
      std: 0.02
    }
    bias_filler {
      type: "constant"
      value: 0.2
    }
  }
}
layer {
  name: "loss1/relu_fc"
  type: "ReLU"
  bottom: "loss1/fc"
  top: "loss1/fc"
}
layer {
  name: "loss1/drop_fc"
  type: "Dropout"
  bottom: "loss1/fc"
  top: "loss1/fc"
  dropout_param {
    dropout_ratio: 0.7
  }
}
layer {
  name: "loss1/classifier_plantvillage"
  type: "InnerProduct"
  bottom: "loss1/fc"
  top: "loss1/classifier_plantvillage"
  param {
    lr_mult: 1
    decay_mult: 1
  }
  param {
    lr_mult: 2
    decay_mult: 0
  }
  inner_product_param {
    num_output: 38
    weight_filler {
      type: "xavier"
      std: 0.0009765625
    }
    bias_filler {
      type: "constant"
      value: 0
    }
  }
}
layer {
  name: "inception_4b/1x1"
  type: "Convolution"
  bottom: "inception_4a/output"
  top: "inception_4b/1x1"
  param {
    lr_mult: 1
    decay_mult: 1
  }
  param {
    lr_mult: 2
    decay_mult: 0
  }
  convolution_param {
    num_output: 160
    kernel_size: 1
    weight_filler {
      type: "xavier"
      std: 0.03
    }
    bias_filler {
      type: "constant"
      value: 0.2
    }
  }
}
layer {
  name: "inception_4b/relu_1x1"
  type: "ReLU"
  bottom: "inception_4b/1x1"
  top: "inception_4b/1x1"
}
layer {
  name: "inception_4b/3x3_reduce"
  type: "Convolution"
  bottom: "inception_4a/output"
  top: "inception_4b/3x3_reduce"
  param {
    lr_mult: 1
    decay_mult: 1
  }
  param {
    lr_mult: 2
    decay_mult: 0
  }
  convolution_param {
    num_output: 112
    kernel_size: 1
    weight_filler {
      type: "xavier"
      std: 0.09
    }
    bias_filler {
      type: "constant"
      value: 0.2
    }
  }
}
layer {
  name: "inception_4b/relu_3x3_reduce"
  type: "ReLU"
  bottom: "inception_4b/3x3_reduce"
  top: "inception_4b/3x3_reduce"
}
layer {
  name: "inception_4b/3x3"
  type: "Convolution"
  bottom: "inception_4b/3x3_reduce"
  top: "inception_4b/3x3"
  param {
    lr_mult: 1
    decay_mult: 1
  }
  param {
    lr_mult: 2
    decay_mult: 0
  }
  convolution_param {
    num_output: 224
    pad: 1
    kernel_size: 3
    weight_filler {
      type: "xavier"
      std: 0.03
    }
    bias_filler {
      type: "constant"
      value: 0.2
    }
  }
}
layer {
  name: "inception_4b/relu_3x3"
  type: "ReLU"
  bottom: "inception_4b/3x3"
  top: "inception_4b/3x3"
}
layer {
  name: "inception_4b/5x5_reduce"
  type: "Convolution"
  bottom: "inception_4a/output"
  top: "inception_4b/5x5_reduce"
  param {
    lr_mult: 1
    decay_mult: 1
  }
  param {
    lr_mult: 2
    decay_mult: 0
  }
  convolution_param {
    num_output: 24
    kernel_size: 1
    weight_filler {
      type: "xavier"
      std: 0.2
    }
    bias_filler {
      type: "constant"
      value: 0.2
    }
  }
}
layer {
  name: "inception_4b/relu_5x5_reduce"
  type: "ReLU"
  bottom: "inception_4b/5x5_reduce"
  top: "inception_4b/5x5_reduce"
}
layer {
  name: "inception_4b/5x5"
  type: "Convolution"
  bottom: "inception_4b/5x5_reduce"
  top: "inception_4b/5x5"
  param {
    lr_mult: 1
    decay_mult: 1
  }
  param {
    lr_mult: 2
    decay_mult: 0
  }
  convolution_param {
    num_output: 64
    pad: 2
    kernel_size: 5
    weight_filler {
      type: "xavier"
      std: 0.03
    }
    bias_filler {
      type: "constant"
      value: 0.2
    }
  }
}
layer {
  name: "inception_4b/relu_5x5"
  type: "ReLU"
  bottom: "inception_4b/5x5"
  top: "inception_4b/5x5"
}
layer {
  name: "inception_4b/pool"
  type: "Pooling"
  bottom: "inception_4a/output"
  top: "inception_4b/pool"
  pooling_param {
    pool: MAX
    kernel_size: 3
    stride: 1
    pad: 1
  }
}
layer {
  name: "inception_4b/pool_proj"
  type: "Convolution"
  bottom: "inception_4b/pool"
  top: "inception_4b/pool_proj"
  param {
    lr_mult: 1
    decay_mult: 1
  }
  param {
    lr_mult: 2
    decay_mult: 0
  }
  convolution_param {
    num_output: 64
    kernel_size: 1
    weight_filler {
      type: "xavier"
      std: 0.1
    }
    bias_filler {
      type: "constant"
      value: 0.2
    }
  }
}
layer {
  name: "inception_4b/relu_pool_proj"
  type: "ReLU"
  bottom: "inception_4b/pool_proj"
  top: "inception_4b/pool_proj"
}
layer {
  name: "inception_4b/output"
  type: "Concat"
  bottom: "inception_4b/1x1"
  bottom: "inception_4b/3x3"
  bottom: "inception_4b/5x5"
  bottom: "inception_4b/pool_proj"
  top: "inception_4b/output"
}
layer {
  name: "inception_4c/1x1"
  type: "Convolution"
  bottom: "inception_4b/output"
  top: "inception_4c/1x1"
  param {
    lr_mult: 1
    decay_mult: 1
  }
  param {
    lr_mult: 2
    decay_mult: 0
  }
  convolution_param {
    num_output: 128
    kernel_size: 1
    weight_filler {
      type: "xavier"
      std: 0.03
    }
    bias_filler {
      type: "constant"
      value: 0.2
    }
  }
}
layer {
  name: "inception_4c/relu_1x1"
  type: "ReLU"
  bottom: "inception_4c/1x1"
  top: "inception_4c/1x1"
}
layer {
  name: "inception_4c/3x3_reduce"
  type: "Convolution"
  bottom: "inception_4b/output"
  top: "inception_4c/3x3_reduce"
  param {
    lr_mult: 1
    decay_mult: 1
  }
  param {
    lr_mult: 2
    decay_mult: 0
  }
  convolution_param {
    num_output: 128
    kernel_size: 1
    weight_filler {
      type: "xavier"
      std: 0.09
    }
    bias_filler {
      type: "constant"
      value: 0.2
    }
  }
}
layer {
  name: "inception_4c/relu_3x3_reduce"
  type: "ReLU"
  bottom: "inception_4c/3x3_reduce"
  top: "inception_4c/3x3_reduce"
}
layer {
  name: "inception_4c/3x3"
  type: "Convolution"
  bottom: "inception_4c/3x3_reduce"
  top: "inception_4c/3x3"
  param {
    lr_mult: 1
    decay_mult: 1
  }
  param {
    lr_mult: 2
    decay_mult: 0
  }
  convolution_param {
    num_output: 256
    pad: 1
    kernel_size: 3
    weight_filler {
      type: "xavier"
      std: 0.03
    }
    bias_filler {
      type: "constant"
      value: 0.2
    }
  }
}
layer {
  name: "inception_4c/relu_3x3"
  type: "ReLU"
  bottom: "inception_4c/3x3"
  top: "inception_4c/3x3"
}
layer {
  name: "inception_4c/5x5_reduce"
  type: "Convolution"
  bottom: "inception_4b/output"
  top: "inception_4c/5x5_reduce"
  param {
    lr_mult: 1
    decay_mult: 1
  }
  param {
    lr_mult: 2
    decay_mult: 0
  }
  convolution_param {
    num_output: 24
    kernel_size: 1
    weight_filler {
      type: "xavier"
      std: 0.2
    }
    bias_filler {
      type: "constant"
      value: 0.2
    }
  }
}
layer {
  name: "inception_4c/relu_5x5_reduce"
  type: "ReLU"
  bottom: "inception_4c/5x5_reduce"
  top: "inception_4c/5x5_reduce"
}
layer {
  name: "inception_4c/5x5"
  type: "Convolution"
  bottom: "inception_4c/5x5_reduce"
  top: "inception_4c/5x5"
  param {
    lr_mult: 1
    decay_mult: 1
  }
  param {
    lr_mult: 2
    decay_mult: 0
  }
  convolution_param {
    num_output: 64
    pad: 2
    kernel_size: 5
    weight_filler {
      type: "xavier"
      std: 0.03
    }
    bias_filler {
      type: "constant"
      value: 0.2
    }
  }
}
layer {
  name: "inception_4c/relu_5x5"
  type: "ReLU"
  bottom: "inception_4c/5x5"
  top: "inception_4c/5x5"
}
layer {
  name: "inception_4c/pool"
  type: "Pooling"
  bottom: "inception_4b/output"
  top: "inception_4c/pool"
  pooling_param {
    pool: MAX
    kernel_size: 3
    stride: 1
    pad: 1
  }
}
layer {
  name: "inception_4c/pool_proj"
  type: "Convolution"
  bottom: "inception_4c/pool"
  top: "inception_4c/pool_proj"
  param {
    lr_mult: 1
    decay_mult: 1
  }
  param {
    lr_mult: 2
    decay_mult: 0
  }
  convolution_param {
    num_output: 64
    kernel_size: 1
    weight_filler {
      type: "xavier"
      std: 0.1
    }
    bias_filler {
      type: "constant"
      value: 0.2
    }
  }
}
layer {
  name: "inception_4c/relu_pool_proj"
  type: "ReLU"
  bottom: "inception_4c/pool_proj"
  top: "inception_4c/pool_proj"
}
layer {
  name: "inception_4c/output"
  type: "Concat"
  bottom: "inception_4c/1x1"
  bottom: "inception_4c/3x3"
  bottom: "inception_4c/5x5"
  bottom: "inception_4c/pool_proj"
  top: "inception_4c/output"
}
layer {
  name: "inception_4d/1x1"
  type: "Convolution"
  bottom: "inception_4c/output"
  top: "inception_4d/1x1"
  param {
    lr_mult: 1
    decay_mult: 1
  }
  param {
    lr_mult: 2
    decay_mult: 0
  }
  convolution_param {
    num_output: 112
    kernel_size: 1
    weight_filler {
      type: "xavier"
      std: 0.03
    }
    bias_filler {
      type: "constant"
      value: 0.2
    }
  }
}
layer {
  name: "inception_4d/relu_1x1"
  type: "ReLU"
  bottom: "inception_4d/1x1"
  top: "inception_4d/1x1"
}
layer {
  name: "inception_4d/3x3_reduce"
  type: "Convolution"
  bottom: "inception_4c/output"
  top: "inception_4d/3x3_reduce"
  param {
    lr_mult: 1
    decay_mult: 1
  }
  param {
    lr_mult: 2
    decay_mult: 0
  }
  convolution_param {
    num_output: 144
    kernel_size: 1
    weight_filler {
      type: "xavier"
      std: 0.09
    }
    bias_filler {
      type: "constant"
      value: 0.2
    }
  }
}
layer {
  name: "inception_4d/relu_3x3_reduce"
  type: "ReLU"
  bottom: "inception_4d/3x3_reduce"
  top: "inception_4d/3x3_reduce"
}
layer {
  name: "inception_4d/3x3"
  type: "Convolution"
  bottom: "inception_4d/3x3_reduce"
  top: "inception_4d/3x3"
  param {
    lr_mult: 1
    decay_mult: 1
  }
  param {
    lr_mult: 2
    decay_mult: 0
  }
  convolution_param {
    num_output: 288
    pad: 1
    kernel_size: 3
    weight_filler {
      type: "xavier"
      std: 0.03
    }
    bias_filler {
      type: "constant"
      value: 0.2
    }
  }
}
layer {
  name: "inception_4d/relu_3x3"
  type: "ReLU"
  bottom: "inception_4d/3x3"
  top: "inception_4d/3x3"
}
layer {
  name: "inception_4d/5x5_reduce"
  type: "Convolution"
  bottom: "inception_4c/output"
  top: "inception_4d/5x5_reduce"
  param {
    lr_mult: 1
    decay_mult: 1
  }
  param {
    lr_mult: 2
    decay_mult: 0
  }
  convolution_param {
    num_output: 32
    kernel_size: 1
    weight_filler {
      type: "xavier"
      std: 0.2
    }
    bias_filler {
      type: "constant"
      value: 0.2
    }
  }
}
layer {
  name: "inception_4d/relu_5x5_reduce"
  type: "ReLU"
  bottom: "inception_4d/5x5_reduce"
  top: "inception_4d/5x5_reduce"
}
layer {
  name: "inception_4d/5x5"
  type: "Convolution"
  bottom: "inception_4d/5x5_reduce"
  top: "inception_4d/5x5"
  param {
    lr_mult: 1
    decay_mult: 1
  }
  param {
    lr_mult: 2
    decay_mult: 0
  }
  convolution_param {
    num_output: 64
    pad: 2
    kernel_size: 5
    weight_filler {
      type: "xavier"
      std: 0.03
    }
    bias_filler {
      type: "constant"
      value: 0.2
    }
  }
}
layer {
  name: "inception_4d/relu_5x5"
  type: "ReLU"
  bottom: "inception_4d/5x5"
  top: "inception_4d/5x5"
}
layer {
  name: "inception_4d/pool"
  type: "Pooling"
  bottom: "inception_4c/output"
  top: "inception_4d/pool"
  pooling_param {
    pool: MAX
    kernel_size: 3
    stride: 1
    pad: 1
  }
}
layer {
  name: "inception_4d/pool_proj"
  type: "Convolution"
  bottom: "inception_4d/pool"
  top: "inception_4d/pool_proj"
  param {
    lr_mult: 1
    decay_mult: 1
  }
  param {
    lr_mult: 2
    decay_mult: 0
  }
  convolution_param {
    num_output: 64
    kernel_size: 1
    weight_filler {
      type: "xavier"
      std: 0.1
    }
    bias_filler {
      type: "constant"
      value: 0.2
    }
  }
}
layer {
  name: "inception_4d/relu_pool_proj"
  type: "ReLU"
  bottom: "inception_4d/pool_proj"
  top: "inception_4d/pool_proj"
}
layer {
  name: "inception_4d/output"
  type: "Concat"
  bottom: "inception_4d/1x1"
  bottom: "inception_4d/3x3"
  bottom: "inception_4d/5x5"
  bottom: "inception_4d/pool_proj"
  top: "inception_4d/output"
}
layer {
  name: "loss2/ave_pool"
  type: "Pooling"
  bottom: "inception_4d/output"
  top: "loss2/ave_pool"
  pooling_param {
    pool: AVE
    kernel_size: 5
    stride: 3
  }
}
layer {
  name: "loss2/conv"
  type: "Convolution"
  bottom: "loss2/ave_pool"
  top: "loss2/conv"
  param {
    lr_mult: 1
    decay_mult: 1
  }
  param {
    lr_mult: 2
    decay_mult: 0
  }
  convolution_param {
    num_output: 128
    kernel_size: 1
    weight_filler {
      type: "xavier"
      std: 0.08
    }
    bias_filler {
      type: "constant"
      value: 0.2
    }
  }
}
layer {
  name: "loss2/relu_conv"
  type: "ReLU"
  bottom: "loss2/conv"
  top: "loss2/conv"
}
layer {
  name: "loss2/fc"
  type: "InnerProduct"
  bottom: "loss2/conv"
  top: "loss2/fc"
  param {
    lr_mult: 1
    decay_mult: 1
  }
  param {
    lr_mult: 2
    decay_mult: 0
  }
  inner_product_param {
    num_output: 1024
    weight_filler {
      type: "xavier"
      std: 0.02
    }
    bias_filler {
      type: "constant"
      value: 0.2
    }
  }
}
layer {
  name: "loss2/relu_fc"
  type: "ReLU"
  bottom: "loss2/fc"
  top: "loss2/fc"
}
layer {
  name: "loss2/drop_fc"
  type: "Dropout"
  bottom: "loss2/fc"
  top: "loss2/fc"
  dropout_param {
    dropout_ratio: 0.7
  }
}
layer {
  name: "loss2/classifier_plantvillage"
  type: "InnerProduct"
  bottom: "loss2/fc"
  top: "loss2/classifier_plantvillage"
  param {
    lr_mult: 1
    decay_mult: 1
  }
  param {
    lr_mult: 2
    decay_mult: 0
  }
  inner_product_param {
    num_output: 38
    weight_filler {
      type: "xavier"
      std: 0.0009765625
    }
    bias_filler {
      type: "constant"
      value: 0
    }
  }
}
layer {
  name: "inception_4e/1x1"
  type: "Convolution"
  bottom: "inception_4d/output"
  top: "inception_4e/1x1"
  param {
    lr_mult: 1
    decay_mult: 1
  }
  param {
    lr_mult: 2
    decay_mult: 0
  }
  convolution_param {
    num_output: 256
    kernel_size: 1
    weight_filler {
      type: "xavier"
      std: 0.03
    }
    bias_filler {
      type: "constant"
      value: 0.2
    }
  }
}
layer {
  name: "inception_4e/relu_1x1"
  type: "ReLU"
  bottom: "inception_4e/1x1"
  top: "inception_4e/1x1"
}
layer {
  name: "inception_4e/3x3_reduce"
  type: "Convolution"
  bottom: "inception_4d/output"
  top: "inception_4e/3x3_reduce"
  param {
    lr_mult: 1
    decay_mult: 1
  }
  param {
    lr_mult: 2
    decay_mult: 0
  }
  convolution_param {
    num_output: 160
    kernel_size: 1
    weight_filler {
      type: "xavier"
      std: 0.09
    }
    bias_filler {
      type: "constant"
      value: 0.2
    }
  }
}
layer {
  name: "inception_4e/relu_3x3_reduce"
  type: "ReLU"
  bottom: "inception_4e/3x3_reduce"
  top: "inception_4e/3x3_reduce"
}
layer {
  name: "inception_4e/3x3"
  type: "Convolution"
  bottom: "inception_4e/3x3_reduce"
  top: "inception_4e/3x3"
  param {
    lr_mult: 1
    decay_mult: 1
  }
  param {
    lr_mult: 2
    decay_mult: 0
  }
  convolution_param {
    num_output: 320
    pad: 1
    kernel_size: 3
    weight_filler {
      type: "xavier"
      std: 0.03
    }
    bias_filler {
      type: "constant"
      value: 0.2
    }
  }
}
layer {
  name: "inception_4e/relu_3x3"
  type: "ReLU"
  bottom: "inception_4e/3x3"
  top: "inception_4e/3x3"
}
layer {
  name: "inception_4e/5x5_reduce"
  type: "Convolution"
  bottom: "inception_4d/output"
  top: "inception_4e/5x5_reduce"
  param {
    lr_mult: 1
    decay_mult: 1
  }
  param {
    lr_mult: 2
    decay_mult: 0
  }
  convolution_param {
    num_output: 32
    kernel_size: 1
    weight_filler {
      type: "xavier"
      std: 0.2
    }
    bias_filler {
      type: "constant"
      value: 0.2
    }
  }
}
layer {
  name: "inception_4e/relu_5x5_reduce"
  type: "ReLU"
  bottom: "inception_4e/5x5_reduce"
  top: "inception_4e/5x5_reduce"
}
layer {
  name: "inception_4e/5x5"
  type: "Convolution"
  bottom: "inception_4e/5x5_reduce"
  top: "inception_4e/
I0403 15:15:33.645237 31372 layer_factory.hpp:77] Creating layer data
I0403 15:15:33.645824 31372 net.cpp:91] Creating Layer data
I0403 15:15:33.645858 31372 net.cpp:399] data -> data
I0403 15:15:33.645915 31372 net.cpp:399] data -> label
I0403 15:15:33.645951 31372 data_transformer.cpp:25] Loading mean file from: /home/mohanty/data/final_dataset/lmdb/grayscale-80-20/mean.binaryproto
I0403 15:15:33.649338 31374 db_lmdb.cpp:38] Opened lmdb /home/mohanty/data/final_dataset/lmdb/grayscale-80-20/test_db
I0403 15:15:33.659641 31372 data_layer.cpp:41] output data size: 24,3,224,224
I0403 15:15:33.686636 31372 net.cpp:141] Setting up data
I0403 15:15:33.686728 31372 net.cpp:148] Top shape: 24 3 224 224 (3612672)
I0403 15:15:33.686751 31372 net.cpp:148] Top shape: 24 (24)
I0403 15:15:33.686767 31372 net.cpp:156] Memory required for data: 14450784
I0403 15:15:33.686797 31372 layer_factory.hpp:77] Creating layer label_data_1_split
I0403 15:15:33.686826 31372 net.cpp:91] Creating Layer label_data_1_split
I0403 15:15:33.686844 31372 net.cpp:425] label_data_1_split <- label
I0403 15:15:33.686879 31372 net.cpp:399] label_data_1_split -> label_data_1_split_0
I0403 15:15:33.686908 31372 net.cpp:399] label_data_1_split -> label_data_1_split_1
I0403 15:15:33.686928 31372 net.cpp:399] label_data_1_split -> label_data_1_split_2
I0403 15:15:33.686949 31372 net.cpp:399] label_data_1_split -> label_data_1_split_3
I0403 15:15:33.686969 31372 net.cpp:399] label_data_1_split -> label_data_1_split_4
I0403 15:15:33.686987 31372 net.cpp:399] label_data_1_split -> label_data_1_split_5
I0403 15:15:33.687006 31372 net.cpp:399] label_data_1_split -> label_data_1_split_6
I0403 15:15:33.687026 31372 net.cpp:399] label_data_1_split -> label_data_1_split_7
I0403 15:15:33.687044 31372 net.cpp:399] label_data_1_split -> label_data_1_split_8
I0403 15:15:33.687065 31372 net.cpp:399] label_data_1_split -> label_data_1_split_9
I0403 15:15:33.687182 31372 net.cpp:141] Setting up label_data_1_split
I0403 15:15:33.687206 31372 net.cpp:148] Top shape: 24 (24)
I0403 15:15:33.687222 31372 net.cpp:148] Top shape: 24 (24)
I0403 15:15:33.687237 31372 net.cpp:148] Top shape: 24 (24)
I0403 15:15:33.687252 31372 net.cpp:148] Top shape: 24 (24)
I0403 15:15:33.687268 31372 net.cpp:148] Top shape: 24 (24)
I0403 15:15:33.687283 31372 net.cpp:148] Top shape: 24 (24)
I0403 15:15:33.687297 31372 net.cpp:148] Top shape: 24 (24)
I0403 15:15:33.687312 31372 net.cpp:148] Top shape: 24 (24)
I0403 15:15:33.687326 31372 net.cpp:148] Top shape: 24 (24)
I0403 15:15:33.687342 31372 net.cpp:148] Top shape: 24 (24)
I0403 15:15:33.687382 31372 net.cpp:156] Memory required for data: 14451744
I0403 15:15:33.687398 31372 layer_factory.hpp:77] Creating layer conv1/7x7_s2
I0403 15:15:33.687433 31372 net.cpp:91] Creating Layer conv1/7x7_s2
I0403 15:15:33.687450 31372 net.cpp:425] conv1/7x7_s2 <- data
I0403 15:15:33.687469 31372 net.cpp:399] conv1/7x7_s2 -> conv1/7x7_s2
I0403 15:15:33.829440 31372 net.cpp:141] Setting up conv1/7x7_s2
I0403 15:15:33.829519 31372 net.cpp:148] Top shape: 24 64 112 112 (19267584)
I0403 15:15:33.829538 31372 net.cpp:156] Memory required for data: 91522080
I0403 15:15:33.829572 31372 layer_factory.hpp:77] Creating layer conv1/relu_7x7
I0403 15:15:33.829602 31372 net.cpp:91] Creating Layer conv1/relu_7x7
I0403 15:15:33.829622 31372 net.cpp:425] conv1/relu_7x7 <- conv1/7x7_s2
I0403 15:15:33.829641 31372 net.cpp:386] conv1/relu_7x7 -> conv1/7x7_s2 (in-place)
I0403 15:15:33.829908 31372 net.cpp:141] Setting up conv1/relu_7x7
I0403 15:15:33.829936 31372 net.cpp:148] Top shape: 24 64 112 112 (19267584)
I0403 15:15:33.829952 31372 net.cpp:156] Memory required for data: 168592416
I0403 15:15:33.829967 31372 layer_factory.hpp:77] Creating layer pool1/3x3_s2
I0403 15:15:33.829993 31372 net.cpp:91] Creating Layer pool1/3x3_s2
I0403 15:15:33.830010 31372 net.cpp:425] pool1/3x3_s2 <- conv1/7x7_s2
I0403 15:15:33.830029 31372 net.cpp:399] pool1/3x3_s2 -> pool1/3x3_s2
I0403 15:15:33.830106 31372 net.cpp:141] Setting up pool1/3x3_s2
I0403 15:15:33.830130 31372 net.cpp:148] Top shape: 24 64 56 56 (4816896)
I0403 15:15:33.830147 31372 net.cpp:156] Memory required for data: 187860000
I0403 15:15:33.830160 31372 layer_factory.hpp:77] Creating layer pool1/norm1
I0403 15:15:33.830186 31372 net.cpp:91] Creating Layer pool1/norm1
I0403 15:15:33.830204 31372 net.cpp:425] pool1/norm1 <- pool1/3x3_s2
I0403 15:15:33.830221 31372 net.cpp:399] pool1/norm1 -> pool1/norm1
I0403 15:15:33.830531 31372 net.cpp:141] Setting up pool1/norm1
I0403 15:15:33.830559 31372 net.cpp:148] Top shape: 24 64 56 56 (4816896)
I0403 15:15:33.830576 31372 net.cpp:156] Memory required for data: 207127584
I0403 15:15:33.830591 31372 layer_factory.hpp:77] Creating layer conv2/3x3_reduce
I0403 15:15:33.830618 31372 net.cpp:91] Creating Layer conv2/3x3_reduce
I0403 15:15:33.830636 31372 net.cpp:425] conv2/3x3_reduce <- pool1/norm1
I0403 15:15:33.830653 31372 net.cpp:399] conv2/3x3_reduce -> conv2/3x3_reduce
I0403 15:15:33.831992 31372 net.cpp:141] Setting up conv2/3x3_reduce
I0403 15:15:33.832022 31372 net.cpp:148] Top shape: 24 64 56 56 (4816896)
I0403 15:15:33.832038 31372 net.cpp:156] Memory required for data: 226395168
I0403 15:15:33.832059 31372 layer_factory.hpp:77] Creating layer conv2/relu_3x3_reduce
I0403 15:15:33.832082 31372 net.cpp:91] Creating Layer conv2/relu_3x3_reduce
I0403 15:15:33.832099 31372 net.cpp:425] conv2/relu_3x3_reduce <- conv2/3x3_reduce
I0403 15:15:33.832116 31372 net.cpp:386] conv2/relu_3x3_reduce -> conv2/3x3_reduce (in-place)
I0403 15:15:33.832372 31372 net.cpp:141] Setting up conv2/relu_3x3_reduce
I0403 15:15:33.832401 31372 net.cpp:148] Top shape: 24 64 56 56 (4816896)
I0403 15:15:33.832415 31372 net.cpp:156] Memory required for data: 245662752
I0403 15:15:33.832432 31372 layer_factory.hpp:77] Creating layer conv2/3x3
I0403 15:15:33.832453 31372 net.cpp:91] Creating Layer conv2/3x3
I0403 15:15:33.832469 31372 net.cpp:425] conv2/3x3 <- conv2/3x3_reduce
I0403 15:15:33.832489 31372 net.cpp:399] conv2/3x3 -> conv2/3x3
I0403 15:15:33.834770 31372 net.cpp:141] Setting up conv2/3x3
I0403 15:15:33.834800 31372 net.cpp:148] Top shape: 24 192 56 56 (14450688)
I0403 15:15:33.834817 31372 net.cpp:156] Memory required for data: 303465504
I0403 15:15:33.834838 31372 layer_factory.hpp:77] Creating layer conv2/relu_3x3
I0403 15:15:33.834857 31372 net.cpp:91] Creating Layer conv2/relu_3x3
I0403 15:15:33.834873 31372 net.cpp:425] conv2/relu_3x3 <- conv2/3x3
I0403 15:15:33.834889 31372 net.cpp:386] conv2/relu_3x3 -> conv2/3x3 (in-place)
I0403 15:15:33.835049 31372 net.cpp:141] Setting up conv2/relu_3x3
I0403 15:15:33.835073 31372 net.cpp:148] Top shape: 24 192 56 56 (14450688)
I0403 15:15:33.835114 31372 net.cpp:156] Memory required for data: 361268256
I0403 15:15:33.835129 31372 layer_factory.hpp:77] Creating layer conv2/norm2
I0403 15:15:33.835147 31372 net.cpp:91] Creating Layer conv2/norm2
I0403 15:15:33.835163 31372 net.cpp:425] conv2/norm2 <- conv2/3x3
I0403 15:15:33.835181 31372 net.cpp:399] conv2/norm2 -> conv2/norm2
I0403 15:15:33.835464 31372 net.cpp:141] Setting up conv2/norm2
I0403 15:15:33.835490 31372 net.cpp:148] Top shape: 24 192 56 56 (14450688)
I0403 15:15:33.835510 31372 net.cpp:156] Memory required for data: 419071008
I0403 15:15:33.835526 31372 layer_factory.hpp:77] Creating layer pool2/3x3_s2
I0403 15:15:33.835544 31372 net.cpp:91] Creating Layer pool2/3x3_s2
I0403 15:15:33.835561 31372 net.cpp:425] pool2/3x3_s2 <- conv2/norm2
I0403 15:15:33.835579 31372 net.cpp:399] pool2/3x3_s2 -> pool2/3x3_s2
I0403 15:15:33.835628 31372 net.cpp:141] Setting up pool2/3x3_s2
I0403 15:15:33.835650 31372 net.cpp:148] Top shape: 24 192 28 28 (3612672)
I0403 15:15:33.835665 31372 net.cpp:156] Memory required for data: 433521696
I0403 15:15:33.835680 31372 layer_factory.hpp:77] Creating layer pool2/3x3_s2_pool2/3x3_s2_0_split
I0403 15:15:33.835696 31372 net.cpp:91] Creating Layer pool2/3x3_s2_pool2/3x3_s2_0_split
I0403 15:15:33.835711 31372 net.cpp:425] pool2/3x3_s2_pool2/3x3_s2_0_split <- pool2/3x3_s2
I0403 15:15:33.835728 31372 net.cpp:399] pool2/3x3_s2_pool2/3x3_s2_0_split -> pool2/3x3_s2_pool2/3x3_s2_0_split_0
I0403 15:15:33.835747 31372 net.cpp:399] pool2/3x3_s2_pool2/3x3_s2_0_split -> pool2/3x3_s2_pool2/3x3_s2_0_split_1
I0403 15:15:33.835767 31372 net.cpp:399] pool2/3x3_s2_pool2/3x3_s2_0_split -> pool2/3x3_s2_pool2/3x3_s2_0_split_2
I0403 15:15:33.835785 31372 net.cpp:399] pool2/3x3_s2_pool2/3x3_s2_0_split -> pool2/3x3_s2_pool2/3x3_s2_0_split_3
I0403 15:15:33.835849 31372 net.cpp:141] Setting up pool2/3x3_s2_pool2/3x3_s2_0_split
I0403 15:15:33.835870 31372 net.cpp:148] Top shape: 24 192 28 28 (3612672)
I0403 15:15:33.835886 31372 net.cpp:148] Top shape: 24 192 28 28 (3612672)
I0403 15:15:33.835902 31372 net.cpp:148] Top shape: 24 192 28 28 (3612672)
I0403 15:15:33.835917 31372 net.cpp:148] Top shape: 24 192 28 28 (3612672)
I0403 15:15:33.835930 31372 net.cpp:156] Memory required for data: 491324448
I0403 15:15:33.835944 31372 layer_factory.hpp:77] Creating layer inception_3a/1x1
I0403 15:15:33.835964 31372 net.cpp:91] Creating Layer inception_3a/1x1
I0403 15:15:33.835980 31372 net.cpp:425] inception_3a/1x1 <- pool2/3x3_s2_pool2/3x3_s2_0_split_0
I0403 15:15:33.835999 31372 net.cpp:399] inception_3a/1x1 -> inception_3a/1x1
I0403 15:15:33.837443 31372 net.cpp:141] Setting up inception_3a/1x1
I0403 15:15:33.837472 31372 net.cpp:148] Top shape: 24 64 28 28 (1204224)
I0403 15:15:33.837487 31372 net.cpp:156] Memory required for data: 496141344
I0403 15:15:33.837510 31372 layer_factory.hpp:77] Creating layer inception_3a/relu_1x1
I0403 15:15:33.837529 31372 net.cpp:91] Creating Layer inception_3a/relu_1x1
I0403 15:15:33.837545 31372 net.cpp:425] inception_3a/relu_1x1 <- inception_3a/1x1
I0403 15:15:33.837564 31372 net.cpp:386] inception_3a/relu_1x1 -> inception_3a/1x1 (in-place)
I0403 15:15:33.837736 31372 net.cpp:141] Setting up inception_3a/relu_1x1
I0403 15:15:33.837762 31372 net.cpp:148] Top shape: 24 64 28 28 (1204224)
I0403 15:15:33.837776 31372 net.cpp:156] Memory required for data: 500958240
I0403 15:15:33.837791 31372 layer_factory.hpp:77] Creating layer inception_3a/3x3_reduce
I0403 15:15:33.837812 31372 net.cpp:91] Creating Layer inception_3a/3x3_reduce
I0403 15:15:33.837831 31372 net.cpp:425] inception_3a/3x3_reduce <- pool2/3x3_s2_pool2/3x3_s2_0_split_1
I0403 15:15:33.837851 31372 net.cpp:399] inception_3a/3x3_reduce -> inception_3a/3x3_reduce
I0403 15:15:33.839526 31372 net.cpp:141] Setting up inception_3a/3x3_reduce
I0403 15:15:33.839555 31372 net.cpp:148] Top shape: 24 96 28 28 (1806336)
I0403 15:15:33.839573 31372 net.cpp:156] Memory required for data: 508183584
I0403 15:15:33.839601 31372 layer_factory.hpp:77] Creating layer inception_3a/relu_3x3_reduce
I0403 15:15:33.839638 31372 net.cpp:91] Creating Layer inception_3a/relu_3x3_reduce
I0403 15:15:33.839656 31372 net.cpp:425] inception_3a/relu_3x3_reduce <- inception_3a/3x3_reduce
I0403 15:15:33.839674 31372 net.cpp:386] inception_3a/relu_3x3_reduce -> inception_3a/3x3_reduce (in-place)
I0403 15:15:33.839849 31372 net.cpp:141] Setting up inception_3a/relu_3x3_reduce
I0403 15:15:33.839874 31372 net.cpp:148] Top shape: 24 96 28 28 (1806336)
I0403 15:15:33.839889 31372 net.cpp:156] Memory required for data: 515408928
I0403 15:15:33.839903 31372 layer_factory.hpp:77] Creating layer inception_3a/3x3
I0403 15:15:33.839926 31372 net.cpp:91] Creating Layer inception_3a/3x3
I0403 15:15:33.839941 31372 net.cpp:425] inception_3a/3x3 <- inception_3a/3x3_reduce
I0403 15:15:33.839962 31372 net.cpp:399] inception_3a/3x3 -> inception_3a/3x3
I0403 15:15:33.841631 31372 net.cpp:141] Setting up inception_3a/3x3
I0403 15:15:33.841660 31372 net.cpp:148] Top shape: 24 128 28 28 (2408448)
I0403 15:15:33.841675 31372 net.cpp:156] Memory required for data: 525042720
I0403 15:15:33.841694 31372 layer_factory.hpp:77] Creating layer inception_3a/relu_3x3
I0403 15:15:33.841714 31372 net.cpp:91] Creating Layer inception_3a/relu_3x3
I0403 15:15:33.841732 31372 net.cpp:425] inception_3a/relu_3x3 <- inception_3a/3x3
I0403 15:15:33.841748 31372 net.cpp:386] inception_3a/relu_3x3 -> inception_3a/3x3 (in-place)
I0403 15:15:33.842020 31372 net.cpp:141] Setting up inception_3a/relu_3x3
I0403 15:15:33.842046 31372 net.cpp:148] Top shape: 24 128 28 28 (2408448)
I0403 15:15:33.842061 31372 net.cpp:156] Memory required for data: 534676512
I0403 15:15:33.842075 31372 layer_factory.hpp:77] Creating layer inception_3a/5x5_reduce
I0403 15:15:33.842097 31372 net.cpp:91] Creating Layer inception_3a/5x5_reduce
I0403 15:15:33.842114 31372 net.cpp:425] inception_3a/5x5_reduce <- pool2/3x3_s2_pool2/3x3_s2_0_split_2
I0403 15:15:33.842134 31372 net.cpp:399] inception_3a/5x5_reduce -> inception_3a/5x5_reduce
I0403 15:15:33.843096 31372 net.cpp:141] Setting up inception_3a/5x5_reduce
I0403 15:15:33.843124 31372 net.cpp:148] Top shape: 24 16 28 28 (301056)
I0403 15:15:33.843139 31372 net.cpp:156] Memory required for data: 535880736
I0403 15:15:33.843158 31372 layer_factory.hpp:77] Creating layer inception_3a/relu_5x5_reduce
I0403 15:15:33.843178 31372 net.cpp:91] Creating Layer inception_3a/relu_5x5_reduce
I0403 15:15:33.843195 31372 net.cpp:425] inception_3a/relu_5x5_reduce <- inception_3a/5x5_reduce
I0403 15:15:33.843212 31372 net.cpp:386] inception_3a/relu_5x5_reduce -> inception_3a/5x5_reduce (in-place)
I0403 15:15:33.843514 31372 net.cpp:141] Setting up inception_3a/relu_5x5_reduce
I0403 15:15:33.843544 31372 net.cpp:148] Top shape: 24 16 28 28 (301056)
I0403 15:15:33.843559 31372 net.cpp:156] Memory required for data: 537084960
I0403 15:15:33.843575 31372 layer_factory.hpp:77] Creating layer inception_3a/5x5
I0403 15:15:33.843596 31372 net.cpp:91] Creating Layer inception_3a/5x5
I0403 15:15:33.843613 31372 net.cpp:425] inception_3a/5x5 <- inception_3a/5x5_reduce
I0403 15:15:33.843632 31372 net.cpp:399] inception_3a/5x5 -> inception_3a/5x5
I0403 15:15:33.844650 31372 net.cpp:141] Setting up inception_3a/5x5
I0403 15:15:33.844676 31372 net.cpp:148] Top shape: 24 32 28 28 (602112)
I0403 15:15:33.844691 31372 net.cpp:156] Memory required for data: 539493408
I0403 15:15:33.844710 31372 layer_factory.hpp:77] Creating layer inception_3a/relu_5x5
I0403 15:15:33.844730 31372 net.cpp:91] Creating Layer inception_3a/relu_5x5
I0403 15:15:33.844748 31372 net.cpp:425] inception_3a/relu_5x5 <- inception_3a/5x5
I0403 15:15:33.844764 31372 net.cpp:386] inception_3a/relu_5x5 -> inception_3a/5x5 (in-place)
I0403 15:15:33.844936 31372 net.cpp:141] Setting up inception_3a/relu_5x5
I0403 15:15:33.844960 31372 net.cpp:148] Top shape: 24 32 28 28 (602112)
I0403 15:15:33.844975 31372 net.cpp:156] Memory required for data: 541901856
I0403 15:15:33.844990 31372 layer_factory.hpp:77] Creating layer inception_3a/pool
I0403 15:15:33.845010 31372 net.cpp:91] Creating Layer inception_3a/pool
I0403 15:15:33.845039 31372 net.cpp:425] inception_3a/pool <- pool2/3x3_s2_pool2/3x3_s2_0_split_3
I0403 15:15:33.845058 31372 net.cpp:399] inception_3a/pool -> inception_3a/pool
I0403 15:15:33.845115 31372 net.cpp:141] Setting up inception_3a/pool
I0403 15:15:33.845139 31372 net.cpp:148] Top shape: 24 192 28 28 (3612672)
I0403 15:15:33.845154 31372 net.cpp:156] Memory required for data: 556352544
I0403 15:15:33.845167 31372 layer_factory.hpp:77] Creating layer inception_3a/pool_proj
I0403 15:15:33.845188 31372 net.cpp:91] Creating Layer inception_3a/pool_proj
I0403 15:15:33.845206 31372 net.cpp:425] inception_3a/pool_proj <- inception_3a/pool
I0403 15:15:33.845227 31372 net.cpp:399] inception_3a/pool_proj -> inception_3a/pool_proj
I0403 15:15:33.846181 31372 net.cpp:141] Setting up inception_3a/pool_proj
I0403 15:15:33.846212 31372 net.cpp:148] Top shape: 24 32 28 28 (602112)
I0403 15:15:33.846228 31372 net.cpp:156] Memory required for data: 558760992
I0403 15:15:33.846251 31372 layer_factory.hpp:77] Creating layer inception_3a/relu_pool_proj
I0403 15:15:33.846272 31372 net.cpp:91] Creating Layer inception_3a/relu_pool_proj
I0403 15:15:33.846288 31372 net.cpp:425] inception_3a/relu_pool_proj <- inception_3a/pool_proj
I0403 15:15:33.846304 31372 net.cpp:386] inception_3a/relu_pool_proj -> inception_3a/pool_proj (in-place)
I0403 15:15:33.846581 31372 net.cpp:141] Setting up inception_3a/relu_pool_proj
I0403 15:15:33.846607 31372 net.cpp:148] Top shape: 24 32 28 28 (602112)
I0403 15:15:33.846622 31372 net.cpp:156] Memory required for data: 561169440
I0403 15:15:33.846637 31372 layer_factory.hpp:77] Creating layer inception_3a/output
I0403 15:15:33.846657 31372 net.cpp:91] Creating Layer inception_3a/output
I0403 15:15:33.846671 31372 net.cpp:425] inception_3a/output <- inception_3a/1x1
I0403 15:15:33.846688 31372 net.cpp:425] inception_3a/output <- inception_3a/3x3
I0403 15:15:33.846704 31372 net.cpp:425] inception_3a/output <- inception_3a/5x5
I0403 15:15:33.846719 31372 net.cpp:425] inception_3a/output <- inception_3a/pool_proj
I0403 15:15:33.846736 31372 net.cpp:399] inception_3a/output -> inception_3a/output
I0403 15:15:33.846784 31372 net.cpp:141] Setting up inception_3a/output
I0403 15:15:33.846807 31372 net.cpp:148] Top shape: 24 256 28 28 (4816896)
I0403 15:15:33.846822 31372 net.cpp:156] Memory required for data: 580437024
I0403 15:15:33.846837 31372 layer_factory.hpp:77] Creating layer inception_3a/output_inception_3a/output_0_split
I0403 15:15:33.846853 31372 net.cpp:91] Creating Layer inception_3a/output_inception_3a/output_0_split
I0403 15:15:33.846868 31372 net.cpp:425] inception_3a/output_inception_3a/output_0_split <- inception_3a/output
I0403 15:15:33.846886 31372 net.cpp:399] inception_3a/output_inception_3a/output_0_split -> inception_3a/output_inception_3a/output_0_split_0
I0403 15:15:33.846906 31372 net.cpp:399] inception_3a/output_inception_3a/output_0_split -> inception_3a/output_inception_3a/output_0_split_1
I0403 15:15:33.846930 31372 net.cpp:399] inception_3a/output_inception_3a/output_0_split -> inception_3a/output_inception_3a/output_0_split_2
I0403 15:15:33.846949 31372 net.cpp:399] inception_3a/output_inception_3a/output_0_split -> inception_3a/output_inception_3a/output_0_split_3
I0403 15:15:33.847024 31372 net.cpp:141] Setting up inception_3a/output_inception_3a/output_0_split
I0403 15:15:33.847046 31372 net.cpp:148] Top shape: 24 256 28 28 (4816896)
I0403 15:15:33.847064 31372 net.cpp:148] Top shape: 24 256 28 28 (4816896)
I0403 15:15:33.847079 31372 net.cpp:148] Top shape: 24 256 28 28 (4816896)
I0403 15:15:33.847095 31372 net.cpp:148] Top shape: 24 256 28 28 (4816896)
I0403 15:15:33.847107 31372 net.cpp:156] Memory required for data: 657507360
I0403 15:15:33.847121 31372 layer_factory.hpp:77] Creating layer inception_3b/1x1
I0403 15:15:33.847143 31372 net.cpp:91] Creating Layer inception_3b/1x1
I0403 15:15:33.847159 31372 net.cpp:425] inception_3b/1x1 <- inception_3a/output_inception_3a/output_0_split_0
I0403 15:15:33.847180 31372 net.cpp:399] inception_3b/1x1 -> inception_3b/1x1
I0403 15:15:33.848302 31372 net.cpp:141] Setting up inception_3b/1x1
I0403 15:15:33.848341 31372 net.cpp:148] Top shape: 24 128 28 28 (2408448)
I0403 15:15:33.848357 31372 net.cpp:156] Memory required for data: 667141152
I0403 15:15:33.848376 31372 layer_factory.hpp:77] Creating layer inception_3b/relu_1x1
I0403 15:15:33.848394 31372 net.cpp:91] Creating Layer inception_3b/relu_1x1
I0403 15:15:33.848410 31372 net.cpp:425] inception_3b/relu_1x1 <- inception_3b/1x1
I0403 15:15:33.848430 31372 net.cpp:386] inception_3b/relu_1x1 -> inception_3b/1x1 (in-place)
I0403 15:15:33.848608 31372 net.cpp:141] Setting up inception_3b/relu_1x1
I0403 15:15:33.848633 31372 net.cpp:148] Top shape: 24 128 28 28 (2408448)
I0403 15:15:33.848647 31372 net.cpp:156] Memory required for data: 676774944
I0403 15:15:33.848662 31372 layer_factory.hpp:77] Creating layer inception_3b/3x3_reduce
I0403 15:15:33.848685 31372 net.cpp:91] Creating Layer inception_3b/3x3_reduce
I0403 15:15:33.848701 31372 net.cpp:425] inception_3b/3x3_reduce <- inception_3a/output_inception_3a/output_0_split_1
I0403 15:15:33.848722 31372 net.cpp:399] inception_3b/3x3_reduce -> inception_3b/3x3_reduce
I0403 15:15:33.849850 31372 net.cpp:141] Setting up inception_3b/3x3_reduce
I0403 15:15:33.849879 31372 net.cpp:148] Top shape: 24 128 28 28 (2408448)
I0403 15:15:33.849894 31372 net.cpp:156] Memory required for data: 686408736
I0403 15:15:33.849911 31372 layer_factory.hpp:77] Creating layer inception_3b/relu_3x3_reduce
I0403 15:15:33.849930 31372 net.cpp:91] Creating Layer inception_3b/relu_3x3_reduce
I0403 15:15:33.849948 31372 net.cpp:425] inception_3b/relu_3x3_reduce <- inception_3b/3x3_reduce
I0403 15:15:33.849966 31372 net.cpp:386] inception_3b/relu_3x3_reduce -> inception_3b/3x3_reduce (in-place)
I0403 15:15:33.850134 31372 net.cpp:141] Setting up inception_3b/relu_3x3_reduce
I0403 15:15:33.850159 31372 net.cpp:148] Top shape: 24 128 28 28 (2408448)
I0403 15:15:33.850173 31372 net.cpp:156] Memory required for data: 696042528
I0403 15:15:33.850188 31372 layer_factory.hpp:77] Creating layer inception_3b/3x3
I0403 15:15:33.850214 31372 net.cpp:91] Creating Layer inception_3b/3x3
I0403 15:15:33.850242 31372 net.cpp:425] inception_3b/3x3 <- inception_3b/3x3_reduce
I0403 15:15:33.850265 31372 net.cpp:399] inception_3b/3x3 -> inception_3b/3x3
I0403 15:15:33.853160 31372 net.cpp:141] Setting up inception_3b/3x3
I0403 15:15:33.853189 31372 net.cpp:148] Top shape: 24 192 28 28 (3612672)
I0403 15:15:33.853205 31372 net.cpp:156] Memory required for data: 710493216
I0403 15:15:33.853224 31372 layer_factory.hpp:77] Creating layer inception_3b/relu_3x3
I0403 15:15:33.853243 31372 net.cpp:91] Creating Layer inception_3b/relu_3x3
I0403 15:15:33.853260 31372 net.cpp:425] inception_3b/relu_3x3 <- inception_3b/3x3
I0403 15:15:33.853277 31372 net.cpp:386] inception_3b/relu_3x3 -> inception_3b/3x3 (in-place)
I0403 15:15:33.853559 31372 net.cpp:141] Setting up inception_3b/relu_3x3
I0403 15:15:33.853585 31372 net.cpp:148] Top shape: 24 192 28 28 (3612672)
I0403 15:15:33.853600 31372 net.cpp:156] Memory required for data: 724943904
I0403 15:15:33.853615 31372 layer_factory.hpp:77] Creating layer inception_3b/5x5_reduce
I0403 15:15:33.853637 31372 net.cpp:91] Creating Layer inception_3b/5x5_reduce
I0403 15:15:33.853654 31372 net.cpp:425] inception_3b/5x5_reduce <- inception_3a/output_inception_3a/output_0_split_2
I0403 15:15:33.853675 31372 net.cpp:399] inception_3b/5x5_reduce -> inception_3b/5x5_reduce
I0403 15:15:33.854660 31372 net.cpp:141] Setting up inception_3b/5x5_reduce
I0403 15:15:33.854687 31372 net.cpp:148] Top shape: 24 32 28 28 (602112)
I0403 15:15:33.854703 31372 net.cpp:156] Memory required for data: 727352352
I0403 15:15:33.854720 31372 layer_factory.hpp:77] Creating layer inception_3b/relu_5x5_reduce
I0403 15:15:33.854742 31372 net.cpp:91] Creating Layer inception_3b/relu_5x5_reduce
I0403 15:15:33.854758 31372 net.cpp:425] inception_3b/relu_5x5_reduce <- inception_3b/5x5_reduce
I0403 15:15:33.854775 31372 net.cpp:386] inception_3b/relu_5x5_reduce -> inception_3b/5x5_reduce (in-place)
I0403 15:15:33.854964 31372 net.cpp:141] Setting up inception_3b/relu_5x5_reduce
I0403 15:15:33.854990 31372 net.cpp:148] Top shape: 24 32 28 28 (602112)
I0403 15:15:33.855003 31372 net.cpp:156] Memory required for data: 729760800
I0403 15:15:33.855018 31372 layer_factory.hpp:77] Creating layer inception_3b/5x5
I0403 15:15:33.855041 31372 net.cpp:91] Creating Layer inception_3b/5x5
I0403 15:15:33.855058 31372 net.cpp:425] inception_3b/5x5 <- inception_3b/5x5_reduce
I0403 15:15:33.855077 31372 net.cpp:399] inception_3b/5x5 -> inception_3b/5x5
I0403 15:15:33.857076 31372 net.cpp:141] Setting up inception_3b/5x5
I0403 15:15:33.857105 31372 net.cpp:148] Top shape: 24 96 28 28 (1806336)
I0403 15:15:33.857121 31372 net.cpp:156] Memory required for data: 736986144
I0403 15:15:33.857139 31372 layer_factory.hpp:77] Creating layer inception_3b/relu_5x5
I0403 15:15:33.857156 31372 net.cpp:91] Creating Layer inception_3b/relu_5x5
I0403 15:15:33.857172 31372 net.cpp:425] inception_3b/relu_5x5 <- inception_3b/5x5
I0403 15:15:33.857192 31372 net.cpp:386] inception_3b/relu_5x5 -> inception_3b/5x5 (in-place)
I0403 15:15:33.857380 31372 net.cpp:141] Setting up inception_3b/relu_5x5
I0403 15:15:33.857404 31372 net.cpp:148] Top shape: 24 96 28 28 (1806336)
I0403 15:15:33.857420 31372 net.cpp:156] Memory required for data: 744211488
I0403 15:15:33.857435 31372 layer_factory.hpp:77] Creating layer inception_3b/pool
I0403 15:15:33.857452 31372 net.cpp:91] Creating Layer inception_3b/pool
I0403 15:15:33.857467 31372 net.cpp:425] inception_3b/pool <- inception_3a/output_inception_3a/output_0_split_3
I0403 15:15:33.857486 31372 net.cpp:399] inception_3b/pool -> inception_3b/pool
I0403 15:15:33.857545 31372 net.cpp:141] Setting up inception_3b/pool
I0403 15:15:33.857569 31372 net.cpp:148] Top shape: 24 256 28 28 (4816896)
I0403 15:15:33.857583 31372 net.cpp:156] Memory required for data: 763479072
I0403 15:15:33.857597 31372 layer_factory.hpp:77] Creating layer inception_3b/pool_proj
I0403 15:15:33.857620 31372 net.cpp:91] Creating Layer inception_3b/pool_proj
I0403 15:15:33.857635 31372 net.cpp:425] inception_3b/pool_proj <- inception_3b/pool
I0403 15:15:33.857656 31372 net.cpp:399] inception_3b/pool_proj -> inception_3b/pool_proj
I0403 15:15:33.858710 31372 net.cpp:141] Setting up inception_3b/pool_proj
I0403 15:15:33.858739 31372 net.cpp:148] Top shape: 24 64 28 28 (1204224)
I0403 15:15:33.858755 31372 net.cpp:156] Memory required for data: 768295968
I0403 15:15:33.858774 31372 layer_factory.hpp:77] Creating layer inception_3b/relu_pool_proj
I0403 15:15:33.858793 31372 net.cpp:91] Creating Layer inception_3b/relu_pool_proj
I0403 15:15:33.858808 31372 net.cpp:425] inception_3b/relu_pool_proj <- inception_3b/pool_proj
I0403 15:15:33.858826 31372 net.cpp:386] inception_3b/relu_pool_proj -> inception_3b/pool_proj (in-place)
I0403 15:15:33.859228 31372 net.cpp:141] Setting up inception_3b/relu_pool_proj
I0403 15:15:33.859254 31372 net.cpp:148] Top shape: 24 64 28 28 (1204224)
I0403 15:15:33.859272 31372 net.cpp:156] Memory required for data: 773112864
I0403 15:15:33.859287 31372 layer_factory.hpp:77] Creating layer inception_3b/output
I0403 15:15:33.859304 31372 net.cpp:91] Creating Layer inception_3b/output
I0403 15:15:33.859319 31372 net.cpp:425] inception_3b/output <- inception_3b/1x1
I0403 15:15:33.859335 31372 net.cpp:425] inception_3b/output <- inception_3b/3x3
I0403 15:15:33.859351 31372 net.cpp:425] inception_3b/output <- inception_3b/5x5
I0403 15:15:33.859367 31372 net.cpp:425] inception_3b/output <- inception_3b/pool_proj
I0403 15:15:33.859383 31372 net.cpp:399] inception_3b/output -> inception_3b/output
I0403 15:15:33.859431 31372 net.cpp:141] Setting up inception_3b/output
I0403 15:15:33.859453 31372 net.cpp:148] Top shape: 24 480 28 28 (9031680)
I0403 15:15:33.859467 31372 net.cpp:156] Memory required for data: 809239584
I0403 15:15:33.859483 31372 layer_factory.hpp:77] Creating layer pool3/3x3_s2
I0403 15:15:33.859505 31372 net.cpp:91] Creating Layer pool3/3x3_s2
I0403 15:15:33.859522 31372 net.cpp:425] pool3/3x3_s2 <- inception_3b/output
I0403 15:15:33.859555 31372 net.cpp:399] pool3/3x3_s2 -> pool3/3x3_s2
I0403 15:15:33.859614 31372 net.cpp:141] Setting up pool3/3x3_s2
I0403 15:15:33.859637 31372 net.cpp:148] Top shape: 24 480 14 14 (2257920)
I0403 15:15:33.859652 31372 net.cpp:156] Memory required for data: 818271264
I0403 15:15:33.859666 31372 layer_factory.hpp:77] Creating layer pool3/3x3_s2_pool3/3x3_s2_0_split
I0403 15:15:33.859683 31372 net.cpp:91] Creating Layer pool3/3x3_s2_pool3/3x3_s2_0_split
I0403 15:15:33.859697 31372 net.cpp:425] pool3/3x3_s2_pool3/3x3_s2_0_split <- pool3/3x3_s2
I0403 15:15:33.859715 31372 net.cpp:399] pool3/3x3_s2_pool3/3x3_s2_0_split -> pool3/3x3_s2_pool3/3x3_s2_0_split_0
I0403 15:15:33.859742 31372 net.cpp:399] pool3/3x3_s2_pool3/3x3_s2_0_split -> pool3/3x3_s2_pool3/3x3_s2_0_split_1
I0403 15:15:33.859762 31372 net.cpp:399] pool3/3x3_s2_pool3/3x3_s2_0_split -> pool3/3x3_s2_pool3/3x3_s2_0_split_2
I0403 15:15:33.859781 31372 net.cpp:399] pool3/3x3_s2_pool3/3x3_s2_0_split -> pool3/3x3_s2_pool3/3x3_s2_0_split_3
I0403 15:15:33.859856 31372 net.cpp:141] Setting up pool3/3x3_s2_pool3/3x3_s2_0_split
I0403 15:15:33.859879 31372 net.cpp:148] Top shape: 24 480 14 14 (2257920)
I0403 15:15:33.859895 31372 net.cpp:148] Top shape: 24 480 14 14 (2257920)
I0403 15:15:33.859910 31372 net.cpp:148] Top shape: 24 480 14 14 (2257920)
I0403 15:15:33.859925 31372 net.cpp:148] Top shape: 24 480 14 14 (2257920)
I0403 15:15:33.859938 31372 net.cpp:156] Memory required for data: 854397984
I0403 15:15:33.859952 31372 layer_factory.hpp:77] Creating layer inception_4a/1x1
I0403 15:15:33.859975 31372 net.cpp:91] Creating Layer inception_4a/1x1
I0403 15:15:33.859992 31372 net.cpp:425] inception_4a/1x1 <- pool3/3x3_s2_pool3/3x3_s2_0_split_0
I0403 15:15:33.860010 31372 net.cpp:399] inception_4a/1x1 -> inception_4a/1x1
I0403 15:15:33.861564 31372 net.cpp:141] Setting up inception_4a/1x1
I0403 15:15:33.861595 31372 net.cpp:148] Top shape: 24 192 14 14 (903168)
I0403 15:15:33.861611 31372 net.cpp:156] Memory required for data: 858010656
I0403 15:15:33.861630 31372 layer_factory.hpp:77] Creating layer inception_4a/relu_1x1
I0403 15:15:33.861649 31372 net.cpp:91] Creating Layer inception_4a/relu_1x1
I0403 15:15:33.861663 31372 net.cpp:425] inception_4a/relu_1x1 <- inception_4a/1x1
I0403 15:15:33.861682 31372 net.cpp:386] inception_4a/relu_1x1 -> inception_4a/1x1 (in-place)
I0403 15:15:33.861857 31372 net.cpp:141] Setting up inception_4a/relu_1x1
I0403 15:15:33.861882 31372 net.cpp:148] Top shape: 24 192 14 14 (903168)
I0403 15:15:33.861896 31372 net.cpp:156] Memory required for data: 861623328
I0403 15:15:33.861912 31372 layer_factory.hpp:77] Creating layer inception_4a/3x3_reduce
I0403 15:15:33.861933 31372 net.cpp:91] Creating Layer inception_4a/3x3_reduce
I0403 15:15:33.861949 31372 net.cpp:425] inception_4a/3x3_reduce <- pool3/3x3_s2_pool3/3x3_s2_0_split_1
I0403 15:15:33.861977 31372 net.cpp:399] inception_4a/3x3_reduce -> inception_4a/3x3_reduce
I0403 15:15:33.863240 31372 net.cpp:141] Setting up inception_4a/3x3_reduce
I0403 15:15:33.863278 31372 net.cpp:148] Top shape: 24 96 14 14 (451584)
I0403 15:15:33.863294 31372 net.cpp:156] Memory required for data: 863429664
I0403 15:15:33.863317 31372 layer_factory.hpp:77] Creating layer inception_4a/relu_3x3_reduce
I0403 15:15:33.863337 31372 net.cpp:91] Creating Layer inception_4a/relu_3x3_reduce
I0403 15:15:33.863353 31372 net.cpp:425] inception_4a/relu_3x3_reduce <- inception_4a/3x3_reduce
I0403 15:15:33.863371 31372 net.cpp:386] inception_4a/relu_3x3_reduce -> inception_4a/3x3_reduce (in-place)
I0403 15:15:33.863553 31372 net.cpp:141] Setting up inception_4a/relu_3x3_reduce
I0403 15:15:33.863579 31372 net.cpp:148] Top shape: 24 96 14 14 (451584)
I0403 15:15:33.863593 31372 net.cpp:156] Memory required for data: 865236000
I0403 15:15:33.863608 31372 layer_factory.hpp:77] Creating layer inception_4a/3x3
I0403 15:15:33.863629 31372 net.cpp:91] Creating Layer inception_4a/3x3
I0403 15:15:33.863646 31372 net.cpp:425] inception_4a/3x3 <- inception_4a/3x3_reduce
I0403 15:15:33.863667 31372 net.cpp:399] inception_4a/3x3 -> inception_4a/3x3
I0403 15:15:33.866330 31372 net.cpp:141] Setting up inception_4a/3x3
I0403 15:15:33.866358 31372 net.cpp:148] Top shape: 24 208 14 14 (978432)
I0403 15:15:33.866374 31372 net.cpp:156] Memory required for data: 869149728
I0403 15:15:33.866391 31372 layer_factory.hpp:77] Creating layer inception_4a/relu_3x3
I0403 15:15:33.866411 31372 net.cpp:91] Creating Layer inception_4a/relu_3x3
I0403 15:15:33.866427 31372 net.cpp:425] inception_4a/relu_3x3 <- inception_4a/3x3
I0403 15:15:33.866444 31372 net.cpp:386] inception_4a/relu_3x3 -> inception_4a/3x3 (in-place)
I0403 15:15:33.866724 31372 net.cpp:141] Setting up inception_4a/relu_3x3
I0403 15:15:33.866750 31372 net.cpp:148] Top shape: 24 208 14 14 (978432)
I0403 15:15:33.866765 31372 net.cpp:156] Memory required for data: 873063456
I0403 15:15:33.866780 31372 layer_factory.hpp:77] Creating layer inception_4a/5x5_reduce
I0403 15:15:33.866802 31372 net.cpp:91] Creating Layer inception_4a/5x5_reduce
I0403 15:15:33.866819 31372 net.cpp:425] inception_4a/5x5_reduce <- pool3/3x3_s2_pool3/3x3_s2_0_split_2
I0403 15:15:33.866842 31372 net.cpp:399] inception_4a/5x5_reduce -> inception_4a/5x5_reduce
I0403 15:15:33.867854 31372 net.cpp:141] Setting up inception_4a/5x5_reduce
I0403 15:15:33.867882 31372 net.cpp:148] Top shape: 24 16 14 14 (75264)
I0403 15:15:33.867897 31372 net.cpp:156] Memory required for data: 873364512
I0403 15:15:33.867914 31372 layer_factory.hpp:77] Creating layer inception_4a/relu_5x5_reduce
I0403 15:15:33.867938 31372 net.cpp:91] Creating Layer inception_4a/relu_5x5_reduce
I0403 15:15:33.867954 31372 net.cpp:425] inception_4a/relu_5x5_reduce <- inception_4a/5x5_reduce
I0403 15:15:33.867970 31372 net.cpp:386] inception_4a/relu_5x5_reduce -> inception_4a/5x5_reduce (in-place)
I0403 15:15:33.868149 31372 net.cpp:141] Setting up inception_4a/relu_5x5_reduce
I0403 15:15:33.868173 31372 net.cpp:148] Top shape: 24 16 14 14 (75264)
I0403 15:15:33.868187 31372 net.cpp:156] Memory required for data: 873665568
I0403 15:15:33.868202 31372 layer_factory.hpp:77] Creating layer inception_4a/5x5
I0403 15:15:33.868226 31372 net.cpp:91] Creating Layer inception_4a/5x5
I0403 15:15:33.868242 31372 net.cpp:425] inception_4a/5x5 <- inception_4a/5x5_reduce
I0403 15:15:33.868262 31372 net.cpp:399] inception_4a/5x5 -> inception_4a/5x5
I0403 15:15:33.869338 31372 net.cpp:141] Setting up inception_4a/5x5
I0403 15:15:33.869366 31372 net.cpp:148] Top shape: 24 48 14 14 (225792)
I0403 15:15:33.869382 31372 net.cpp:156] Memory required for data: 874568736
I0403 15:15:33.869401 31372 layer_factory.hpp:77] Creating layer inception_4a/relu_5x5
I0403 15:15:33.869420 31372 net.cpp:91] Creating Layer inception_4a/relu_5x5
I0403 15:15:33.869434 31372 net.cpp:425] inception_4a/relu_5x5 <- inception_4a/5x5
I0403 15:15:33.869460 31372 net.cpp:386] inception_4a/relu_5x5 -> inception_4a/5x5 (in-place)
I0403 15:15:33.869642 31372 net.cpp:141] Setting up inception_4a/relu_5x5
I0403 15:15:33.869670 31372 net.cpp:148] Top shape: 24 48 14 14 (225792)
I0403 15:15:33.869686 31372 net.cpp:156] Memory required for data: 875471904
I0403 15:15:33.869701 31372 layer_factory.hpp:77] Creating layer inception_4a/pool
I0403 15:15:33.869719 31372 net.cpp:91] Creating Layer inception_4a/pool
I0403 15:15:33.869735 31372 net.cpp:425] inception_4a/pool <- pool3/3x3_s2_pool3/3x3_s2_0_split_3
I0403 15:15:33.869753 31372 net.cpp:399] inception_4a/pool -> inception_4a/pool
I0403 15:15:33.869813 31372 net.cpp:141] Setting up inception_4a/pool
I0403 15:15:33.869838 31372 net.cpp:148] Top shape: 24 480 14 14 (2257920)
I0403 15:15:33.869853 31372 net.cpp:156] Memory required for data: 884503584
I0403 15:15:33.869869 31372 layer_factory.hpp:77] Creating layer inception_4a/pool_proj
I0403 15:15:33.869889 31372 net.cpp:91] Creating Layer inception_4a/pool_proj
I0403 15:15:33.869904 31372 net.cpp:425] inception_4a/pool_proj <- inception_4a/pool
I0403 15:15:33.869925 31372 net.cpp:399] inception_4a/pool_proj -> inception_4a/pool_proj
I0403 15:15:33.871081 31372 net.cpp:141] Setting up inception_4a/pool_proj
I0403 15:15:33.871112 31372 net.cpp:148] Top shape: 24 64 14 14 (301056)
I0403 15:15:33.871142 31372 net.cpp:156] Memory required for data: 885707808
I0403 15:15:33.871161 31372 layer_factory.hpp:77] Creating layer inception_4a/relu_pool_proj
I0403 15:15:33.871179 31372 net.cpp:91] Creating Layer inception_4a/relu_pool_proj
I0403 15:15:33.871194 31372 net.cpp:425] inception_4a/relu_pool_proj <- inception_4a/pool_proj
I0403 15:15:33.871212 31372 net.cpp:386] inception_4a/relu_pool_proj -> inception_4a/pool_proj (in-place)
I0403 15:15:33.871498 31372 net.cpp:141] Setting up inception_4a/relu_pool_proj
I0403 15:15:33.871531 31372 net.cpp:148] Top shape: 24 64 14 14 (301056)
I0403 15:15:33.871546 31372 net.cpp:156] Memory required for data: 886912032
I0403 15:15:33.871562 31372 layer_factory.hpp:77] Creating layer inception_4a/output
I0403 15:15:33.871579 31372 net.cpp:91] Creating Layer inception_4a/output
I0403 15:15:33.871595 31372 net.cpp:425] inception_4a/output <- inception_4a/1x1
I0403 15:15:33.871611 31372 net.cpp:425] inception_4a/output <- inception_4a/3x3
I0403 15:15:33.871628 31372 net.cpp:425] inception_4a/output <- inception_4a/5x5
I0403 15:15:33.871644 31372 net.cpp:425] inception_4a/output <- inception_4a/pool_proj
I0403 15:15:33.871660 31372 net.cpp:399] inception_4a/output -> inception_4a/output
I0403 15:15:33.871706 31372 net.cpp:141] Setting up inception_4a/output
I0403 15:15:33.871729 31372 net.cpp:148] Top shape: 24 512 14 14 (2408448)
I0403 15:15:33.871743 31372 net.cpp:156] Memory required for data: 896545824
I0403 15:15:33.871757 31372 layer_factory.hpp:77] Creating layer inception_4a/output_inception_4a/output_0_split
I0403 15:15:33.871778 31372 net.cpp:91] Creating Layer inception_4a/output_inception_4a/output_0_split
I0403 15:15:33.871793 31372 net.cpp:425] inception_4a/output_inception_4a/output_0_split <- inception_4a/output
I0403 15:15:33.871810 31372 net.cpp:399] inception_4a/output_inception_4a/output_0_split -> inception_4a/output_inception_4a/output_0_split_0
I0403 15:15:33.871829 31372 net.cpp:399] inception_4a/output_inception_4a/output_0_split -> inception_4a/output_inception_4a/output_0_split_1
I0403 15:15:33.871850 31372 net.cpp:399] inception_4a/output_inception_4a/output_0_split -> inception_4a/output_inception_4a/output_0_split_2
I0403 15:15:33.871872 31372 net.cpp:399] inception_4a/output_inception_4a/output_0_split -> inception_4a/output_inception_4a/output_0_split_3
I0403 15:15:33.871892 31372 net.cpp:399] inception_4a/output_inception_4a/output_0_split -> inception_4a/output_inception_4a/output_0_split_4
I0403 15:15:33.871984 31372 net.cpp:141] Setting up inception_4a/output_inception_4a/output_0_split
I0403 15:15:33.872006 31372 net.cpp:148] Top shape: 24 512 14 14 (2408448)
I0403 15:15:33.872023 31372 net.cpp:148] Top shape: 24 512 14 14 (2408448)
I0403 15:15:33.872038 31372 net.cpp:148] Top shape: 24 512 14 14 (2408448)
I0403 15:15:33.872053 31372 net.cpp:148] Top shape: 24 512 14 14 (2408448)
I0403 15:15:33.872068 31372 net.cpp:148] Top shape: 24 512 14 14 (2408448)
I0403 15:15:33.872081 31372 net.cpp:156] Memory required for data: 944714784
I0403 15:15:33.872097 31372 layer_factory.hpp:77] Creating layer loss1/ave_pool
I0403 15:15:33.872117 31372 net.cpp:91] Creating Layer loss1/ave_pool
I0403 15:15:33.872131 31372 net.cpp:425] loss1/ave_pool <- inception_4a/output_inception_4a/output_0_split_0
I0403 15:15:33.872149 31372 net.cpp:399] loss1/ave_pool -> loss1/ave_pool
I0403 15:15:33.872355 31372 net.cpp:141] Setting up loss1/ave_pool
I0403 15:15:33.872383 31372 net.cpp:148] Top shape: 24 512 4 4 (196608)
I0403 15:15:33.872398 31372 net.cpp:156] Memory required for data: 945501216
I0403 15:15:33.872413 31372 layer_factory.hpp:77] Creating layer loss1/conv
I0403 15:15:33.872436 31372 net.cpp:91] Creating Layer loss1/conv
I0403 15:15:33.872452 31372 net.cpp:425] loss1/conv <- loss1/ave_pool
I0403 15:15:33.872470 31372 net.cpp:399] loss1/conv -> loss1/conv
I0403 15:15:33.873878 31372 net.cpp:141] Setting up loss1/conv
I0403 15:15:33.873906 31372 net.cpp:148] Top shape: 24 128 4 4 (49152)
I0403 15:15:33.873935 31372 net.cpp:156] Memory required for data: 945697824
I0403 15:15:33.873955 31372 layer_factory.hpp:77] Creating layer loss1/relu_conv
I0403 15:15:33.873976 31372 net.cpp:91] Creating Layer loss1/relu_conv
I0403 15:15:33.873992 31372 net.cpp:425] loss1/relu_conv <- loss1/conv
I0403 15:15:33.874009 31372 net.cpp:386] loss1/relu_conv -> loss1/conv (in-place)
I0403 15:15:33.874299 31372 net.cpp:141] Setting up loss1/relu_conv
I0403 15:15:33.874325 31372 net.cpp:148] Top shape: 24 128 4 4 (49152)
I0403 15:15:33.874339 31372 net.cpp:156] Memory required for data: 945894432
I0403 15:15:33.874354 31372 layer_factory.hpp:77] Creating layer loss1/fc
I0403 15:15:33.874380 31372 net.cpp:91] Creating Layer loss1/fc
I0403 15:15:33.874398 31372 net.cpp:425] loss1/fc <- loss1/conv
I0403 15:15:33.874416 31372 net.cpp:399] loss1/fc -> loss1/fc
I0403 15:15:33.891651 31372 net.cpp:141] Setting up loss1/fc
I0403 15:15:33.891690 31372 net.cpp:148] Top shape: 24 1024 (24576)
I0403 15:15:33.891705 31372 net.cpp:156] Memory required for data: 945992736
I0403 15:15:33.891722 31372 layer_factory.hpp:77] Creating layer loss1/relu_fc
I0403 15:15:33.891741 31372 net.cpp:91] Creating Layer loss1/relu_fc
I0403 15:15:33.891757 31372 net.cpp:425] loss1/relu_fc <- loss1/fc
I0403 15:15:33.891774 31372 net.cpp:386] loss1/relu_fc -> loss1/fc (in-place)
I0403 15:15:33.891954 31372 net.cpp:141] Setting up loss1/relu_fc
I0403 15:15:33.891978 31372 net.cpp:148] Top shape: 24 1024 (24576)
I0403 15:15:33.891993 31372 net.cpp:156] Memory required for data: 946091040
I0403 15:15:33.892007 31372 layer_factory.hpp:77] Creating layer loss1/drop_fc
I0403 15:15:33.892032 31372 net.cpp:91] Creating Layer loss1/drop_fc
I0403 15:15:33.892050 31372 net.cpp:425] loss1/drop_fc <- loss1/fc
I0403 15:15:33.892068 31372 net.cpp:386] loss1/drop_fc -> loss1/fc (in-place)
I0403 15:15:33.892119 31372 net.cpp:141] Setting up loss1/drop_fc
I0403 15:15:33.892141 31372 net.cpp:148] Top shape: 24 1024 (24576)
I0403 15:15:33.892156 31372 net.cpp:156] Memory required for data: 946189344
I0403 15:15:33.892179 31372 layer_factory.hpp:77] Creating layer loss1/classifier_plantvillage
I0403 15:15:33.892201 31372 net.cpp:91] Creating Layer loss1/classifier_plantvillage
I0403 15:15:33.892217 31372 net.cpp:425] loss1/classifier_plantvillage <- loss1/fc
I0403 15:15:33.892237 31372 net.cpp:399] loss1/classifier_plantvillage -> loss1/classifier_plantvillage
I0403 15:15:33.893121 31372 net.cpp:141] Setting up loss1/classifier_plantvillage
I0403 15:15:33.893148 31372 net.cpp:148] Top shape: 24 38 (912)
I0403 15:15:33.893164 31372 net.cpp:156] Memory required for data: 946192992
I0403 15:15:33.893182 31372 layer_factory.hpp:77] Creating layer loss1/classifier_plantvillage_loss1/classifier_plantvillage_0_split
I0403 15:15:33.893198 31372 net.cpp:91] Creating Layer loss1/classifier_plantvillage_loss1/classifier_plantvillage_0_split
I0403 15:15:33.893213 31372 net.cpp:425] loss1/classifier_plantvillage_loss1/classifier_plantvillage_0_split <- loss1/classifier_plantvillage
I0403 15:15:33.893232 31372 net.cpp:399] loss1/classifier_plantvillage_loss1/classifier_plantvillage_0_split -> loss1/classifier_plantvillage_loss1/classifier_plantvillage_0_split_0
I0403 15:15:33.893251 31372 net.cpp:399] loss1/classifier_plantvillage_loss1/classifier_plantvillage_0_split -> loss1/classifier_plantvillage_loss1/classifier_plantvillage_0_split_1
I0403 15:15:33.893270 31372 net.cpp:399] loss1/classifier_plantvillage_loss1/classifier_plantvillage_0_split -> loss1/classifier_plantvillage_loss1/classifier_plantvillage_0_split_2
I0403 15:15:33.893334 31372 net.cpp:141] Setting up loss1/classifier_plantvillage_loss1/classifier_plantvillage_0_split
I0403 15:15:33.893357 31372 net.cpp:148] Top shape: 24 38 (912)
I0403 15:15:33.893371 31372 net.cpp:148] Top shape: 24 38 (912)
I0403 15:15:33.893386 31372 net.cpp:148] Top shape: 24 38 (912)
I0403 15:15:33.893399 31372 net.cpp:156] Memory required for data: 946203936
I0403 15:15:33.893412 31372 layer_factory.hpp:77] Creating layer inception_4b/1x1
I0403 15:15:33.893435 31372 net.cpp:91] Creating Layer inception_4b/1x1
I0403 15:15:33.893465 31372 net.cpp:425] inception_4b/1x1 <- inception_4a/output_inception_4a/output_0_split_1
I0403 15:15:33.893484 31372 net.cpp:399] inception_4b/1x1 -> inception_4b/1x1
I0403 15:15:33.895097 31372 net.cpp:141] Setting up inception_4b/1x1
I0403 15:15:33.895124 31372 net.cpp:148] Top shape: 24 160 14 14 (752640)
I0403 15:15:33.895139 31372 net.cpp:156] Memory required for data: 949214496
I0403 15:15:33.895158 31372 layer_factory.hpp:77] Creating layer inception_4b/relu_1x1
I0403 15:15:33.895177 31372 net.cpp:91] Creating Layer inception_4b/relu_1x1
I0403 15:15:33.895193 31372 net.cpp:425] inception_4b/relu_1x1 <- inception_4b/1x1
I0403 15:15:33.895210 31372 net.cpp:386] inception_4b/relu_1x1 -> inception_4b/1x1 (in-place)
I0403 15:15:33.895382 31372 net.cpp:141] Setting up inception_4b/relu_1x1
I0403 15:15:33.895407 31372 net.cpp:148] Top shape: 24 160 14 14 (752640)
I0403 15:15:33.895421 31372 net.cpp:156] Memory required for data: 952225056
I0403 15:15:33.895436 31372 layer_factory.hpp:77] Creating layer inception_4b/3x3_reduce
I0403 15:15:33.895458 31372 net.cpp:91] Creating Layer inception_4b/3x3_reduce
I0403 15:15:33.895474 31372 net.cpp:425] inception_4b/3x3_reduce <- inception_4a/output_inception_4a/output_0_split_2
I0403 15:15:33.895493 31372 net.cpp:399] inception_4b/3x3_reduce -> inception_4b/3x3_reduce
I0403 15:15:33.896812 31372 net.cpp:141] Setting up inception_4b/3x3_reduce
I0403 15:15:33.896838 31372 net.cpp:148] Top shape: 24 112 14 14 (526848)
I0403 15:15:33.896853 31372 net.cpp:156] Memory required for data: 954332448
I0403 15:15:33.896872 31372 layer_factory.hpp:77] Creating layer inception_4b/relu_3x3_reduce
I0403 15:15:33.896893 31372 net.cpp:91] Creating Layer inception_4b/relu_3x3_reduce
I0403 15:15:33.896908 31372 net.cpp:425] inception_4b/relu_3x3_reduce <- inception_4b/3x3_reduce
I0403 15:15:33.896925 31372 net.cpp:386] inception_4b/relu_3x3_reduce -> inception_4b/3x3_reduce (in-place)
I0403 15:15:33.897202 31372 net.cpp:141] Setting up inception_4b/relu_3x3_reduce
I0403 15:15:33.897228 31372 net.cpp:148] Top shape: 24 112 14 14 (526848)
I0403 15:15:33.897243 31372 net.cpp:156] Memory required for data: 956439840
I0403 15:15:33.897256 31372 layer_factory.hpp:77] Creating layer inception_4b/3x3
I0403 15:15:33.897277 31372 net.cpp:91] Creating Layer inception_4b/3x3
I0403 15:15:33.897295 31372 net.cpp:425] inception_4b/3x3 <- inception_4b/3x3_reduce
I0403 15:15:33.897315 31372 net.cpp:399] inception_4b/3x3 -> inception_4b/3x3
I0403 15:15:33.900199 31372 net.cpp:141] Setting up inception_4b/3x3
I0403 15:15:33.900229 31372 net.cpp:148] Top shape: 24 224 14 14 (1053696)
I0403 15:15:33.900246 31372 net.cpp:156] Memory required for data: 960654624
I0403 15:15:33.900264 31372 layer_factory.hpp:77] Creating layer inception_4b/relu_3x3
I0403 15:15:33.900281 31372 net.cpp:91] Creating Layer inception_4b/relu_3x3
I0403 15:15:33.900296 31372 net.cpp:425] inception_4b/relu_3x3 <- inception_4b/3x3
I0403 15:15:33.900315 31372 net.cpp:386] inception_4b/relu_3x3 -> inception_4b/3x3 (in-place)
I0403 15:15:33.900491 31372 net.cpp:141] Setting up inception_4b/relu_3x3
I0403 15:15:33.900519 31372 net.cpp:148] Top shape: 24 224 14 14 (1053696)
I0403 15:15:33.900534 31372 net.cpp:156] Memory required for data: 964869408
I0403 15:15:33.900548 31372 layer_factory.hpp:77] Creating layer inception_4b/5x5_reduce
I0403 15:15:33.900570 31372 net.cpp:91] Creating Layer inception_4b/5x5_reduce
I0403 15:15:33.900586 31372 net.cpp:425] inception_4b/5x5_reduce <- inception_4a/output_inception_4a/output_0_split_3
I0403 15:15:33.900609 31372 net.cpp:399] inception_4b/5x5_reduce -> inception_4b/5x5_reduce
I0403 15:15:33.901671 31372 net.cpp:141] Setting up inception_4b/5x5_reduce
I0403 15:15:33.901698 31372 net.cpp:148] Top shape: 24 24 14 14 (112896)
I0403 15:15:33.901712 31372 net.cpp:156] Memory required for data: 965320992
I0403 15:15:33.901731 31372 layer_factory.hpp:77] Creating layer inception_4b/relu_5x5_reduce
I0403 15:15:33.901752 31372 net.cpp:91] Creating Layer inception_4b/relu_5x5_reduce
I0403 15:15:33.901782 31372 net.cpp:425] inception_4b/relu_5x5_reduce <- inception_4b/5x5_reduce
I0403 15:15:33.901800 31372 net.cpp:386] inception_4b/relu_5x5_reduce -> inception_4b/5x5_reduce (in-place)
I0403 15:15:33.901978 31372 net.cpp:141] Setting up inception_4b/relu_5x5_reduce
I0403 15:15:33.902004 31372 net.cpp:148] Top shape: 24 24 14 14 (112896)
I0403 15:15:33.902019 31372 net.cpp:156] Memory required for data: 965772576
I0403 15:15:33.902034 31372 layer_factory.hpp:77] Creating layer inception_4b/5x5
I0403 15:15:33.902055 31372 net.cpp:91] Creating Layer inception_4b/5x5
I0403 15:15:33.902072 31372 net.cpp:425] inception_4b/5x5 <- inception_4b/5x5_reduce
I0403 15:15:33.902092 31372 net.cpp:399] inception_4b/5x5 -> inception_4b/5x5
I0403 15:15:33.903327 31372 net.cpp:141] Setting up inception_4b/5x5
I0403 15:15:33.903353 31372 net.cpp:148] Top shape: 24 64 14 14 (301056)
I0403 15:15:33.903368 31372 net.cpp:156] Memory required for data: 966976800
I0403 15:15:33.903385 31372 layer_factory.hpp:77] Creating layer inception_4b/relu_5x5
I0403 15:15:33.903406 31372 net.cpp:91] Creating Layer inception_4b/relu_5x5
I0403 15:15:33.903424 31372 net.cpp:425] inception_4b/relu_5x5 <- inception_4b/5x5
I0403 15:15:33.903439 31372 net.cpp:386] inception_4b/relu_5x5 -> inception_4b/5x5 (in-place)
I0403 15:15:33.903739 31372 net.cpp:141] Setting up inception_4b/relu_5x5
I0403 15:15:33.903765 31372 net.cpp:148] Top shape: 24 64 14 14 (301056)
I0403 15:15:33.903780 31372 net.cpp:156] Memory required for data: 968181024
I0403 15:15:33.903795 31372 layer_factory.hpp:77] Creating layer inception_4b/pool
I0403 15:15:33.903815 31372 net.cpp:91] Creating Layer inception_4b/pool
I0403 15:15:33.903832 31372 net.cpp:425] inception_4b/pool <- inception_4a/output_inception_4a/output_0_split_4
I0403 15:15:33.903851 31372 net.cpp:399] inception_4b/pool -> inception_4b/pool
I0403 15:15:33.903914 31372 net.cpp:141] Setting up inception_4b/pool
I0403 15:15:33.903939 31372 net.cpp:148] Top shape: 24 512 14 14 (2408448)
I0403 15:15:33.903952 31372 net.cpp:156] Memory required for data: 977814816
I0403 15:15:33.903967 31372 layer_factory.hpp:77] Creating layer inception_4b/pool_proj
I0403 15:15:33.903988 31372 net.cpp:91] Creating Layer inception_4b/pool_proj
I0403 15:15:33.904006 31372 net.cpp:425] inception_4b/pool_proj <- inception_4b/pool
I0403 15:15:33.904026 31372 net.cpp:399] inception_4b/pool_proj -> inception_4b/pool_proj
I0403 15:15:33.905241 31372 net.cpp:141] Setting up inception_4b/pool_proj
I0403 15:15:33.905269 31372 net.cpp:148] Top shape: 24 64 14 14 (301056)
I0403 15:15:33.905284 31372 net.cpp:156] Memory required for data: 979019040
I0403 15:15:33.905303 31372 layer_factory.hpp:77] Creating layer inception_4b/relu_pool_proj
I0403 15:15:33.905324 31372 net.cpp:91] Creating Layer inception_4b/relu_pool_proj
I0403 15:15:33.905341 31372 net.cpp:425] inception_4b/relu_pool_proj <- inception_4b/pool_proj
I0403 15:15:33.905359 31372 net.cpp:386] inception_4b/relu_pool_proj -> inception_4b/pool_proj (in-place)
I0403 15:15:33.905547 31372 net.cpp:141] Setting up inception_4b/relu_pool_proj
I0403 15:15:33.905575 31372 net.cpp:148] Top shape: 24 64 14 14 (301056)
I0403 15:15:33.905588 31372 net.cpp:156] Memory required for data: 980223264
I0403 15:15:33.905603 31372 layer_factory.hpp:77] Creating layer inception_4b/output
I0403 15:15:33.905622 31372 net.cpp:91] Creating Layer inception_4b/output
I0403 15:15:33.905638 31372 net.cpp:425] inception_4b/output <- inception_4b/1x1
I0403 15:15:33.905655 31372 net.cpp:425] inception_4b/output <- inception_4b/3x3
I0403 15:15:33.905671 31372 net.cpp:425] inception_4b/output <- inception_4b/5x5
I0403 15:15:33.905688 31372 net.cpp:425] inception_4b/output <- inception_4b/pool_proj
I0403 15:15:33.905704 31372 net.cpp:399] inception_4b/output -> inception_4b/output
I0403 15:15:33.905750 31372 net.cpp:141] Setting up inception_4b/output
I0403 15:15:33.905773 31372 net.cpp:148] Top shape: 24 512 14 14 (2408448)
I0403 15:15:33.905787 31372 net.cpp:156] Memory required for data: 989857056
I0403 15:15:33.905817 31372 layer_factory.hpp:77] Creating layer inception_4b/output_inception_4b/output_0_split
I0403 15:15:33.905834 31372 net.cpp:91] Creating Layer inception_4b/output_inception_4b/output_0_split
I0403 15:15:33.905849 31372 net.cpp:425] inception_4b/output_inception_4b/output_0_split <- inception_4b/output
I0403 15:15:33.905869 31372 net.cpp:399] inception_4b/output_inception_4b/output_0_split -> inception_4b/output_inception_4b/output_0_split_0
I0403 15:15:33.905891 31372 net.cpp:399] inception_4b/output_inception_4b/output_0_split -> inception_4b/output_inception_4b/output_0_split_1
I0403 15:15:33.905911 31372 net.cpp:399] inception_4b/output_inception_4b/output_0_split -> inception_4b/output_inception_4b/output_0_split_2
I0403 15:15:33.905930 31372 net.cpp:399] inception_4b/output_inception_4b/output_0_split -> inception_4b/output_inception_4b/output_0_split_3
I0403 15:15:33.906018 31372 net.cpp:141] Setting up inception_4b/output_inception_4b/output_0_split
I0403 15:15:33.906041 31372 net.cpp:148] Top shape: 24 512 14 14 (2408448)
I0403 15:15:33.906057 31372 net.cpp:148] Top shape: 24 512 14 14 (2408448)
I0403 15:15:33.906072 31372 net.cpp:148] Top shape: 24 512 14 14 (2408448)
I0403 15:15:33.906087 31372 net.cpp:148] Top shape: 24 512 14 14 (2408448)
I0403 15:15:33.906101 31372 net.cpp:156] Memory required for data: 1028392224
I0403 15:15:33.906116 31372 layer_factory.hpp:77] Creating layer inception_4c/1x1
I0403 15:15:33.906136 31372 net.cpp:91] Creating Layer inception_4c/1x1
I0403 15:15:33.906153 31372 net.cpp:425] inception_4c/1x1 <- inception_4b/output_inception_4b/output_0_split_0
I0403 15:15:33.906174 31372 net.cpp:399] inception_4c/1x1 -> inception_4c/1x1
I0403 15:15:33.907613 31372 net.cpp:141] Setting up inception_4c/1x1
I0403 15:15:33.907644 31372 net.cpp:148] Top shape: 24 128 14 14 (602112)
I0403 15:15:33.907660 31372 net.cpp:156] Memory required for data: 1030800672
I0403 15:15:33.907678 31372 layer_factory.hpp:77] Creating layer inception_4c/relu_1x1
I0403 15:15:33.907697 31372 net.cpp:91] Creating Layer inception_4c/relu_1x1
I0403 15:15:33.907712 31372 net.cpp:425] inception_4c/relu_1x1 <- inception_4c/1x1
I0403 15:15:33.907732 31372 net.cpp:386] inception_4c/relu_1x1 -> inception_4c/1x1 (in-place)
I0403 15:15:33.907917 31372 net.cpp:141] Setting up inception_4c/relu_1x1
I0403 15:15:33.907940 31372 net.cpp:148] Top shape: 24 128 14 14 (602112)
I0403 15:15:33.907956 31372 net.cpp:156] Memory required for data: 1033209120
I0403 15:15:33.907971 31372 layer_factory.hpp:77] Creating layer inception_4c/3x3_reduce
I0403 15:15:33.907994 31372 net.cpp:91] Creating Layer inception_4c/3x3_reduce
I0403 15:15:33.908011 31372 net.cpp:425] inception_4c/3x3_reduce <- inception_4b/output_inception_4b/output_0_split_1
I0403 15:15:33.908031 31372 net.cpp:399] inception_4c/3x3_reduce -> inception_4c/3x3_reduce
I0403 15:15:33.909971 31372 net.cpp:141] Setting up inception_4c/3x3_reduce
I0403 15:15:33.910001 31372 net.cpp:148] Top shape: 24 128 14 14 (602112)
I0403 15:15:33.910017 31372 net.cpp:156] Memory required for data: 1035617568
I0403 15:15:33.910034 31372 layer_factory.hpp:77] Creating layer inception_4c/relu_3x3_reduce
I0403 15:15:33.910053 31372 net.cpp:91] Creating Layer inception_4c/relu_3x3_reduce
I0403 15:15:33.910068 31372 net.cpp:425] inception_4c/relu_3x3_reduce <- inception_4c/3x3_reduce
I0403 15:15:33.910087 31372 net.cpp:386] inception_4c/relu_3x3_reduce -> inception_4c/3x3_reduce (in-place)
I0403 15:15:33.910374 31372 net.cpp:141] Setting up inception_4c/relu_3x3_reduce
I0403 15:15:33.910400 31372 net.cpp:148] Top shape: 24 128 14 14 (602112)
I0403 15:15:33.910415 31372 net.cpp:156] Memory required for data: 1038026016
I0403 15:15:33.910430 31372 layer_factory.hpp:77] Creating layer inception_4c/3x3
I0403 15:15:33.910454 31372 net.cpp:91] Creating Layer inception_4c/3x3
I0403 15:15:33.910471 31372 net.cpp:425] inception_4c/3x3 <- inception_4c/3x3_reduce
I0403 15:15:33.910493 31372 net.cpp:399] inception_4c/3x3 -> inception_4c/3x3
I0403 15:15:33.914103 31372 net.cpp:141] Setting up inception_4c/3x3
I0403 15:15:33.914145 31372 net.cpp:148] Top shape: 24 256 14 14 (1204224)
I0403 15:15:33.914161 31372 net.cpp:156] Memory required for data: 1042842912
I0403 15:15:33.914193 31372 layer_factory.hpp:77] Creating layer inception_4c/relu_3x3
I0403 15:15:33.914216 31372 net.cpp:91] Creating Layer inception_4c/relu_3x3
I0403 15:15:33.914232 31372 net.cpp:425] inception_4c/relu_3x3 <- inception_4c/3x3
I0403 15:15:33.914249 31372 net.cpp:386] inception_4c/relu_3x3 -> inception_4c/3x3 (in-place)
I0403 15:15:33.914433 31372 net.cpp:141] Setting up inception_4c/relu_3x3
I0403 15:15:33.914458 31372 net.cpp:148] Top shape: 24 256 14 14 (1204224)
I0403 15:15:33.914472 31372 net.cpp:156] Memory required for data: 1047659808
I0403 15:15:33.914487 31372 layer_factory.hpp:77] Creating layer inception_4c/5x5_reduce
I0403 15:15:33.914518 31372 net.cpp:91] Creating Layer inception_4c/5x5_reduce
I0403 15:15:33.914538 31372 net.cpp:425] inception_4c/5x5_reduce <- inception_4b/output_inception_4b/output_0_split_2
I0403 15:15:33.914561 31372 net.cpp:399] inception_4c/5x5_reduce -> inception_4c/5x5_reduce
I0403 15:15:33.915654 31372 net.cpp:141] Setting up inception_4c/5x5_reduce
I0403 15:15:33.915683 31372 net.cpp:148] Top shape: 24 24 14 14 (112896)
I0403 15:15:33.915699 31372 net.cpp:156] Memory required for data: 1048111392
I0403 15:15:33.915716 31372 layer_factory.hpp:77] Creating layer inception_4c/relu_5x5_reduce
I0403 15:15:33.915737 31372 net.cpp:91] Creating Layer inception_4c/relu_5x5_reduce
I0403 15:15:33.915755 31372 net.cpp:425] inception_4c/relu_5x5_reduce <- inception_4c/5x5_reduce
I0403 15:15:33.915771 31372 net.cpp:386] inception_4c/relu_5x5_reduce -> inception_4c/5x5_reduce (in-place)
I0403 15:15:33.915958 31372 net.cpp:141] Setting up inception_4c/relu_5x5_reduce
I0403 15:15:33.915985 31372 net.cpp:148] Top shape: 24 24 14 14 (112896)
I0403 15:15:33.916000 31372 net.cpp:156] Memory required for data: 1048562976
I0403 15:15:33.916015 31372 layer_factory.hpp:77] Creating layer inception_4c/5x5
I0403 15:15:33.916036 31372 net.cpp:91] Creating Layer inception_4c/5x5
I0403 15:15:33.916054 31372 net.cpp:425] inception_4c/5x5 <- inception_4c/5x5_reduce
I0403 15:15:33.916072 31372 net.cpp:399] inception_4c/5x5 -> inception_4c/5x5
I0403 15:15:33.917315 31372 net.cpp:141] Setting up inception_4c/5x5
I0403 15:15:33.917342 31372 net.cpp:148] Top shape: 24 64 14 14 (301056)
I0403 15:15:33.917358 31372 net.cpp:156] Memory required for data: 1049767200
I0403 15:15:33.917376 31372 layer_factory.hpp:77] Creating layer inception_4c/relu_5x5
I0403 15:15:33.917397 31372 net.cpp:91] Creating Layer inception_4c/relu_5x5
I0403 15:15:33.917413 31372 net.cpp:425] inception_4c/relu_5x5 <- inception_4c/5x5
I0403 15:15:33.917431 31372 net.cpp:386] inception_4c/relu_5x5 -> inception_4c/5x5 (in-place)
I0403 15:15:33.917727 31372 net.cpp:141] Setting up inception_4c/relu_5x5
I0403 15:15:33.917753 31372 net.cpp:148] Top shape: 24 64 14 14 (301056)
I0403 15:15:33.917768 31372 net.cpp:156] Memory required for data: 1050971424
I0403 15:15:33.917783 31372 layer_factory.hpp:77] Creating layer inception_4c/pool
I0403 15:15:33.917803 31372 net.cpp:91] Creating Layer inception_4c/pool
I0403 15:15:33.917819 31372 net.cpp:425] inception_4c/pool <- inception_4b/output_inception_4b/output_0_split_3
I0403 15:15:33.917836 31372 net.cpp:399] inception_4c/pool -> inception_4c/pool
I0403 15:15:33.917903 31372 net.cpp:141] Setting up inception_4c/pool
I0403 15:15:33.917927 31372 net.cpp:148] Top shape: 24 512 14 14 (2408448)
I0403 15:15:33.917942 31372 net.cpp:156] Memory required for data: 1060605216
I0403 15:15:33.917956 31372 layer_factory.hpp:77] Creating layer inception_4c/pool_proj
I0403 15:15:33.917978 31372 net.cpp:91] Creating Layer inception_4c/pool_proj
I0403 15:15:33.917994 31372 net.cpp:425] inception_4c/pool_proj <- inception_4c/pool
I0403 15:15:33.918015 31372 net.cpp:399] inception_4c/pool_proj -> inception_4c/pool_proj
I0403 15:15:33.919236 31372 net.cpp:141] Setting up inception_4c/pool_proj
I0403 15:15:33.919278 31372 net.cpp:148] Top shape: 24 64 14 14 (301056)
I0403 15:15:33.919308 31372 net.cpp:156] Memory required for data: 1061809440
I0403 15:15:33.919329 31372 layer_factory.hpp:77] Creating layer inception_4c/relu_pool_proj
I0403 15:15:33.919350 31372 net.cpp:91] Creating Layer inception_4c/relu_pool_proj
I0403 15:15:33.919368 31372 net.cpp:425] inception_4c/relu_pool_proj <- inception_4c/pool_proj
I0403 15:15:33.919386 31372 net.cpp:386] inception_4c/relu_pool_proj -> inception_4c/pool_proj (in-place)
I0403 15:15:33.919595 31372 net.cpp:141] Setting up inception_4c/relu_pool_proj
I0403 15:15:33.919620 31372 net.cpp:148] Top shape: 24 64 14 14 (301056)
I0403 15:15:33.919634 31372 net.cpp:156] Memory required for data: 1063013664
I0403 15:15:33.919648 31372 layer_factory.hpp:77] Creating layer inception_4c/output
I0403 15:15:33.919668 31372 net.cpp:91] Creating Layer inception_4c/output
I0403 15:15:33.919683 31372 net.cpp:425] inception_4c/output <- inception_4c/1x1
I0403 15:15:33.919700 31372 net.cpp:425] inception_4c/output <- inception_4c/3x3
I0403 15:15:33.919716 31372 net.cpp:425] inception_4c/output <- inception_4c/5x5
I0403 15:15:33.919733 31372 net.cpp:425] inception_4c/output <- inception_4c/pool_proj
I0403 15:15:33.919749 31372 net.cpp:399] inception_4c/output -> inception_4c/output
I0403 15:15:33.919796 31372 net.cpp:141] Setting up inception_4c/output
I0403 15:15:33.919819 31372 net.cpp:148] Top shape: 24 512 14 14 (2408448)
I0403 15:15:33.919833 31372 net.cpp:156] Memory required for data: 1072647456
I0403 15:15:33.919847 31372 layer_factory.hpp:77] Creating layer inception_4c/output_inception_4c/output_0_split
I0403 15:15:33.919864 31372 net.cpp:91] Creating Layer inception_4c/output_inception_4c/output_0_split
I0403 15:15:33.919880 31372 net.cpp:425] inception_4c/output_inception_4c/output_0_split <- inception_4c/output
I0403 15:15:33.919900 31372 net.cpp:399] inception_4c/output_inception_4c/output_0_split -> inception_4c/output_inception_4c/output_0_split_0
I0403 15:15:33.919921 31372 net.cpp:399] inception_4c/output_inception_4c/output_0_split -> inception_4c/output_inception_4c/output_0_split_1
I0403 15:15:33.919940 31372 net.cpp:399] inception_4c/output_inception_4c/output_0_split -> inception_4c/output_inception_4c/output_0_split_2
I0403 15:15:33.919960 31372 net.cpp:399] inception_4c/output_inception_4c/output_0_split -> inception_4c/output_inception_4c/output_0_split_3
I0403 15:15:33.920048 31372 net.cpp:141] Setting up inception_4c/output_inception_4c/output_0_split
I0403 15:15:33.920073 31372 net.cpp:148] Top shape: 24 512 14 14 (2408448)
I0403 15:15:33.920088 31372 net.cpp:148] Top shape: 24 512 14 14 (2408448)
I0403 15:15:33.920102 31372 net.cpp:148] Top shape: 24 512 14 14 (2408448)
I0403 15:15:33.920117 31372 net.cpp:148] Top shape: 24 512 14 14 (2408448)
I0403 15:15:33.920130 31372 net.cpp:156] Memory required for data: 1111182624
I0403 15:15:33.920145 31372 layer_factory.hpp:77] Creating layer inception_4d/1x1
I0403 15:15:33.920166 31372 net.cpp:91] Creating Layer inception_4d/1x1
I0403 15:15:33.920183 31372 net.cpp:425] inception_4d/1x1 <- inception_4c/output_inception_4c/output_0_split_0
I0403 15:15:33.920203 31372 net.cpp:399] inception_4d/1x1 -> inception_4d/1x1
I0403 15:15:33.921603 31372 net.cpp:141] Setting up inception_4d/1x1
I0403 15:15:33.921664 31372 net.cpp:148] Top shape: 24 112 14 14 (526848)
I0403 15:15:33.921684 31372 net.cpp:156] Memory required for data: 1113290016
I0403 15:15:33.921702 31372 layer_factory.hpp:77] Creating layer inception_4d/relu_1x1
I0403 15:15:33.921721 31372 net.cpp:91] Creating Layer inception_4d/relu_1x1
I0403 15:15:33.921738 31372 net.cpp:425] inception_4d/relu_1x1 <- inception_4d/1x1
I0403 15:15:33.921757 31372 net.cpp:386] inception_4d/relu_1x1 -> inception_4d/1x1 (in-place)
I0403 15:15:33.921942 31372 net.cpp:141] Setting up inception_4d/relu_1x1
I0403 15:15:33.921967 31372 net.cpp:148] Top shape: 24 112 14 14 (526848)
I0403 15:15:33.921980 31372 net.cpp:156] Memory required for data: 1115397408
I0403 15:15:33.921995 31372 layer_factory.hpp:77] Creating layer inception_4d/3x3_reduce
I0403 15:15:33.922031 31372 net.cpp:91] Creating Layer inception_4d/3x3_reduce
I0403 15:15:33.922049 31372 net.cpp:425] inception_4d/3x3_reduce <- inception_4c/output_inception_4c/output_0_split_1
I0403 15:15:33.922070 31372 net.cpp:399] inception_4d/3x3_reduce -> inception_4d/3x3_reduce
I0403 15:15:33.923581 31372 net.cpp:141] Setting up inception_4d/3x3_reduce
I0403 15:15:33.923611 31372 net.cpp:148] Top shape: 24 144 14 14 (677376)
I0403 15:15:33.923627 31372 net.cpp:156] Memory required for data: 1118106912
I0403 15:15:33.923645 31372 layer_factory.hpp:77] Creating layer inception_4d/relu_3x3_reduce
I0403 15:15:33.923663 31372 net.cpp:91] Creating Layer inception_4d/relu_3x3_reduce
I0403 15:15:33.923679 31372 net.cpp:425] inception_4d/relu_3x3_reduce <- inception_4d/3x3_reduce
I0403 15:15:33.923696 31372 net.cpp:386] inception_4d/relu_3x3_reduce -> inception_4d/3x3_reduce (in-place)
I0403 15:15:33.923991 31372 net.cpp:141] Setting up inception_4d/relu_3x3_reduce
I0403 15:15:33.924020 31372 net.cpp:148] Top shape: 24 144 14 14 (677376)
I0403 15:15:33.924034 31372 net.cpp:156] Memory required for data: 1120816416
I0403 15:15:33.924049 31372 layer_factory.hpp:77] Creating layer inception_4d/3x3
I0403 15:15:33.924072 31372 net.cpp:91] Creating Layer inception_4d/3x3
I0403 15:15:33.924088 31372 net.cpp:425] inception_4d/3x3 <- inception_4d/3x3_reduce
I0403 15:15:33.924108 31372 net.cpp:399] inception_4d/3x3 -> inception_4d/3x3
I0403 15:15:33.928366 31372 net.cpp:141] Setting up inception_4d/3x3
I0403 15:15:33.928396 31372 net.cpp:148] Top shape: 24 288 14 14 (1354752)
I0403 15:15:33.928412 31372 net.cpp:156] Memory required for data: 1126235424
I0403 15:15:33.928431 31372 layer_factory.hpp:77] Creating layer inception_4d/relu_3x3
I0403 15:15:33.928448 31372 net.cpp:91] Creating Layer inception_4d/relu_3x3
I0403 15:15:33.928464 31372 net.cpp:425] inception_4d/relu_3x3 <- inception_4d/3x3
I0403 15:15:33.928484 31372 net.cpp:386] inception_4d/relu_3x3 -> inception_4d/3x3 (in-place)
I0403 15:15:33.928673 31372 net.cpp:141] Setting up inception_4d/relu_3x3
I0403 15:15:33.928696 31372 net.cpp:148] Top shape: 24 288 14 14 (1354752)
I0403 15:15:33.928711 31372 net.cpp:156] Memory required for data: 1131654432
I0403 15:15:33.928726 31372 layer_factory.hpp:77] Creating layer inception_4d/5x5_reduce
I0403 15:15:33.928748 31372 net.cpp:91] Creating Layer inception_4d/5x5_reduce
I0403 15:15:33.928766 31372 net.cpp:425] inception_4d/5x5_reduce <- inception_4c/output_inception_4c/output_0_split_2
I0403 15:15:33.928786 31372 net.cpp:399] inception_4d/5x5_reduce -> inception_4d/5x5_reduce
I0403 15:15:33.929932 31372 net.cpp:141] Setting up inception_4d/5x5_reduce
I0403 15:15:33.929960 31372 net.cpp:148] Top shape: 24 32 14 14 (150528)
I0403 15:15:33.929975 31372 net.cpp:156] Memory required for data: 1132256544
I0403 15:15:33.929993 31372 layer_factory.hpp:77] Creating layer inception_4d/relu_5x5_reduce
I0403 15:15:33.930012 31372 net.cpp:91] Creating Layer inception_4d/relu_5x5_reduce
I0403 15:15:33.930028 31372 net.cpp:425] inception_4d/relu_5x5_reduce <- inception_4d/5x5_reduce
I0403 15:15:33.930048 31372 net.cpp:386] inception_4d/relu_5x5_reduce -> inception_4d/5x5_reduce (in-place)
I0403 15:15:33.930234 31372 net.cpp:141] Setting up inception_4d/relu_5x5_reduce
I0403 15:15:33.930258 31372 net.cpp:148] Top shape: 24 32 14 14 (150528)
I0403 15:15:33.930274 31372 net.cpp:156] Memory required for data: 1132858656
I0403 15:15:33.930289 31372 layer_factory.hpp:77] Creating layer inception_4d/5x5
I0403 15:15:33.930310 31372 net.cpp:91] Creating Layer inception_4d/5x5
I0403 15:15:33.930328 31372 net.cpp:425] inception_4d/5x5 <- inception_4d/5x5_reduce
I0403 15:15:33.930348 31372 net.cpp:399] inception_4d/5x5 -> inception_4d/5x5
I0403 15:15:33.931824 31372 net.cpp:141] Setting up inception_4d/5x5
I0403 15:15:33.931852 31372 net.cpp:148] Top shape: 24 64 14 14 (301056)
I0403 15:15:33.931869 31372 net.cpp:156] Memory required for data: 1134062880
I0403 15:15:33.931887 31372 layer_factory.hpp:77] Creating layer inception_4d/relu_5x5
I0403 15:15:33.931924 31372 net.cpp:91] Creating Layer inception_4d/relu_5x5
I0403 15:15:33.931942 31372 net.cpp:425] inception_4d/relu_5x5 <- inception_4d/5x5
I0403 15:15:33.931960 31372 net.cpp:386] inception_4d/relu_5x5 -> inception_4d/5x5 (in-place)
I0403 15:15:33.932263 31372 net.cpp:141] Setting up inception_4d/relu_5x5
I0403 15:15:33.932289 31372 net.cpp:148] Top shape: 24 64 14 14 (301056)
I0403 15:15:33.932304 31372 net.cpp:156] Memory required for data: 1135267104
I0403 15:15:33.932319 31372 layer_factory.hpp:77] Creating layer inception_4d/pool
I0403 15:15:33.932339 31372 net.cpp:91] Creating Layer inception_4d/pool
I0403 15:15:33.932356 31372 net.cpp:425] inception_4d/pool <- inception_4c/output_inception_4c/output_0_split_3
I0403 15:15:33.932374 31372 net.cpp:399] inception_4d/pool -> inception_4d/pool
I0403 15:15:33.932441 31372 net.cpp:141] Setting up inception_4d/pool
I0403 15:15:33.932466 31372 net.cpp:148] Top shape: 24 512 14 14 (2408448)
I0403 15:15:33.932479 31372 net.cpp:156] Memory required for data: 1144900896
I0403 15:15:33.932494 31372 layer_factory.hpp:77] Creating layer inception_4d/pool_proj
I0403 15:15:33.932521 31372 net.cpp:91] Creating Layer inception_4d/pool_proj
I0403 15:15:33.932539 31372 net.cpp:425] inception_4d/pool_proj <- inception_4d/pool
I0403 15:15:33.932560 31372 net.cpp:399] inception_4d/pool_proj -> inception_4d/pool_proj
I0403 15:15:33.934326 31372 net.cpp:141] Setting up inception_4d/pool_proj
I0403 15:15:33.934355 31372 net.cpp:148] Top shape: 24 64 14 14 (301056)
I0403 15:15:33.934370 31372 net.cpp:156] Memory required for data: 1146105120
I0403 15:15:33.934388 31372 layer_factory.hpp:77] Creating layer inception_4d/relu_pool_proj
I0403 15:15:33.934407 31372 net.cpp:91] Creating Layer inception_4d/relu_pool_proj
I0403 15:15:33.934423 31372 net.cpp:425] inception_4d/relu_pool_proj <- inception_4d/pool_proj
I0403 15:15:33.934442 31372 net.cpp:386] inception_4d/relu_pool_proj -> inception_4d/pool_proj (in-place)
I0403 15:15:33.934640 31372 net.cpp:141] Setting up inception_4d/relu_pool_proj
I0403 15:15:33.934666 31372 net.cpp:148] Top shape: 24 64 14 14 (301056)
I0403 15:15:33.934681 31372 net.cpp:156] Memory required for data: 1147309344
I0403 15:15:33.934696 31372 layer_factory.hpp:77] Creating layer inception_4d/output
I0403 15:15:33.934716 31372 net.cpp:91] Creating Layer inception_4d/output
I0403 15:15:33.934733 31372 net.cpp:425] inception_4d/output <- inception_4d/1x1
I0403 15:15:33.934749 31372 net.cpp:425] inception_4d/output <- inception_4d/3x3
I0403 15:15:33.934765 31372 net.cpp:425] inception_4d/output <- inception_4d/5x5
I0403 15:15:33.934782 31372 net.cpp:425] inception_4d/output <- inception_4d/pool_proj
I0403 15:15:33.934798 31372 net.cpp:399] inception_4d/output -> inception_4d/output
I0403 15:15:33.934847 31372 net.cpp:141] Setting up inception_4d/output
I0403 15:15:33.934870 31372 net.cpp:148] Top shape: 24 528 14 14 (2483712)
I0403 15:15:33.934885 31372 net.cpp:156] Memory required for data: 1157244192
I0403 15:15:33.934900 31372 layer_factory.hpp:77] Creating layer inception_4d/output_inception_4d/output_0_split
I0403 15:15:33.934917 31372 net.cpp:91] Creating Layer inception_4d/output_inception_4d/output_0_split
I0403 15:15:33.934932 31372 net.cpp:425] inception_4d/output_inception_4d/output_0_split <- inception_4d/output
I0403 15:15:33.934952 31372 net.cpp:399] inception_4d/output_inception_4d/output_0_split -> inception_4d/output_inception_4d/output_0_split_0
I0403 15:15:33.934973 31372 net.cpp:399] inception_4d/output_inception_4d/output_0_split -> inception_4d/output_inception_4d/output_0_split_1
I0403 15:15:33.934995 31372 net.cpp:399] inception_4d/output_inception_4d/output_0_split -> inception_4d/output_inception_4d/output_0_split_2
I0403 15:15:33.935015 31372 net.cpp:399] inception_4d/output_inception_4d/output_0_split -> inception_4d/output_inception_4d/output_0_split_3
I0403 15:15:33.935034 31372 net.cpp:399] inception_4d/output_inception_4d/output_0_split -> inception_4d/output_inception_4d/output_0_split_4
I0403 15:15:33.935137 31372 net.cpp:141] Setting up inception_4d/output_inception_4d/output_0_split
I0403 15:15:33.935173 31372 net.cpp:148] Top shape: 24 528 14 14 (2483712)
I0403 15:15:33.935192 31372 net.cpp:148] Top shape: 24 528 14 14 (2483712)
I0403 15:15:33.935209 31372 net.cpp:148] Top shape: 24 528 14 14 (2483712)
I0403 15:15:33.935225 31372 net.cpp:148] Top shape: 24 528 14 14 (2483712)
I0403 15:15:33.935240 31372 net.cpp:148] Top shape: 24 528 14 14 (2483712)
I0403 15:15:33.935253 31372 net.cpp:156] Memory required for data: 1206918432
I0403 15:15:33.935268 31372 layer_factory.hpp:77] Creating layer loss2/ave_pool
I0403 15:15:33.935286 31372 net.cpp:91] Creating Layer loss2/ave_pool
I0403 15:15:33.935302 31372 net.cpp:425] loss2/ave_pool <- inception_4d/output_inception_4d/output_0_split_0
I0403 15:15:33.935323 31372 net.cpp:399] loss2/ave_pool -> loss2/ave_pool
I0403 15:15:33.935642 31372 net.cpp:141] Setting up loss2/ave_pool
I0403 15:15:33.935668 31372 net.cpp:148] Top shape: 24 528 4 4 (202752)
I0403 15:15:33.935683 31372 net.cpp:156] Memory required for data: 1207729440
I0403 15:15:33.935698 31372 layer_factory.hpp:77] Creating layer loss2/conv
I0403 15:15:33.935721 31372 net.cpp:91] Creating Layer loss2/conv
I0403 15:15:33.935739 31372 net.cpp:425] loss2/conv <- loss2/ave_pool
I0403 15:15:33.935760 31372 net.cpp:399] loss2/conv -> loss2/conv
I0403 15:15:33.937681 31372 net.cpp:141] Setting up loss2/conv
I0403 15:15:33.937710 31372 net.cpp:148] Top shape: 24 128 4 4 (49152)
I0403 15:15:33.937726 31372 net.cpp:156] Memory required for data: 1207926048
I0403 15:15:33.937744 31372 layer_factory.hpp:77] Creating layer loss2/relu_conv
I0403 15:15:33.937764 31372 net.cpp:91] Creating Layer loss2/relu_conv
I0403 15:15:33.937782 31372 net.cpp:425] loss2/relu_conv <- loss2/conv
I0403 15:15:33.937798 31372 net.cpp:386] loss2/relu_conv -> loss2/conv (in-place)
I0403 15:15:33.938087 31372 net.cpp:141] Setting up loss2/relu_conv
I0403 15:15:33.938113 31372 net.cpp:148] Top shape: 24 128 4 4 (49152)
I0403 15:15:33.938138 31372 net.cpp:156] Memory required for data: 1208122656
I0403 15:15:33.938153 31372 layer_factory.hpp:77] Creating layer loss2/fc
I0403 15:15:33.938175 31372 net.cpp:91] Creating Layer loss2/fc
I0403 15:15:33.938192 31372 net.cpp:425] loss2/fc <- loss2/conv
I0403 15:15:33.938213 31372 net.cpp:399] loss2/fc -> loss2/fc
I0403 15:15:33.955862 31372 net.cpp:141] Setting up loss2/fc
I0403 15:15:33.955896 31372 net.cpp:148] Top shape: 24 1024 (24576)
I0403 15:15:33.955911 31372 net.cpp:156] Memory required for data: 1208220960
I0403 15:15:33.955929 31372 layer_factory.hpp:77] Creating layer loss2/relu_fc
I0403 15:15:33.955947 31372 net.cpp:91] Creating Layer loss2/relu_fc
I0403 15:15:33.955962 31372 net.cpp:425] loss2/relu_fc <- loss2/fc
I0403 15:15:33.955981 31372 net.cpp:386] loss2/relu_fc -> loss2/fc (in-place)
I0403 15:15:33.956274 31372 net.cpp:141] Setting up loss2/relu_fc
I0403 15:15:33.956300 31372 net.cpp:148] Top shape: 24 1024 (24576)
I0403 15:15:33.956315 31372 net.cpp:156] Memory required for data: 1208319264
I0403 15:15:33.956328 31372 layer_factory.hpp:77] Creating layer loss2/drop_fc
I0403 15:15:33.956346 31372 net.cpp:91] Creating Layer loss2/drop_fc
I0403 15:15:33.956362 31372 net.cpp:425] loss2/drop_fc <- loss2/fc
I0403 15:15:33.956379 31372 net.cpp:386] loss2/drop_fc -> loss2/fc (in-place)
I0403 15:15:33.956428 31372 net.cpp:141] Setting up loss2/drop_fc
I0403 15:15:33.956452 31372 net.cpp:148] Top shape: 24 1024 (24576)
I0403 15:15:33.956467 31372 net.cpp:156] Memory required for data: 1208417568
I0403 15:15:33.956482 31372 layer_factory.hpp:77] Creating layer loss2/classifier_plantvillage
I0403 15:15:33.956501 31372 net.cpp:91] Creating Layer loss2/classifier_plantvillage
I0403 15:15:33.956522 31372 net.cpp:425] loss2/classifier_plantvillage <- loss2/fc
I0403 15:15:33.956543 31372 net.cpp:399] loss2/classifier_plantvillage -> loss2/classifier_plantvillage
I0403 15:15:33.956933 31372 net.cpp:141] Setting up loss2/classifier_plantvillage
I0403 15:15:33.956969 31372 net.cpp:148] Top shape: 24 38 (912)
I0403 15:15:33.956997 31372 net.cpp:156] Memory required for data: 1208421216
I0403 15:15:33.957015 31372 layer_factory.hpp:77] Creating layer loss2/classifier_plantvillage_loss2/classifier_plantvillage_0_split
I0403 15:15:33.957032 31372 net.cpp:91] Creating Layer loss2/classifier_plantvillage_loss2/classifier_plantvillage_0_split
I0403 15:15:33.957048 31372 net.cpp:425] loss2/classifier_plantvillage_loss2/classifier_plantvillage_0_split <- loss2/classifier_plantvillage
I0403 15:15:33.957065 31372 net.cpp:399] loss2/classifier_plantvillage_loss2/classifier_plantvillage_0_split -> loss2/classifier_plantvillage_loss2/classifier_plantvillage_0_split_0
I0403 15:15:33.957084 31372 net.cpp:399] loss2/classifier_plantvillage_loss2/classifier_plantvillage_0_split -> loss2/classifier_plantvillage_loss2/classifier_plantvillage_0_split_1
I0403 15:15:33.957108 31372 net.cpp:399] loss2/classifier_plantvillage_loss2/classifier_plantvillage_0_split -> loss2/classifier_plantvillage_loss2/classifier_plantvillage_0_split_2
I0403 15:15:33.957185 31372 net.cpp:141] Setting up loss2/classifier_plantvillage_loss2/classifier_plantvillage_0_split
I0403 15:15:33.957207 31372 net.cpp:148] Top shape: 24 38 (912)
I0403 15:15:33.957223 31372 net.cpp:148] Top shape: 24 38 (912)
I0403 15:15:33.957237 31372 net.cpp:148] Top shape: 24 38 (912)
I0403 15:15:33.957252 31372 net.cpp:156] Memory required for data: 1208432160
I0403 15:15:33.957265 31372 layer_factory.hpp:77] Creating layer inception_4e/1x1
I0403 15:15:33.957284 31372 net.cpp:91] Creating Layer inception_4e/1x1
I0403 15:15:33.957301 31372 net.cpp:425] inception_4e/1x1 <- inception_4d/output_inception_4d/output_0_split_1
I0403 15:15:33.957320 31372 net.cpp:399] inception_4e/1x1 -> inception_4e/1x1
I0403 15:15:33.959086 31372 net.cpp:141] Setting up inception_4e/1x1
I0403 15:15:33.959113 31372 net.cpp:148] Top shape: 24 256 14 14 (1204224)
I0403 15:15:33.959130 31372 net.cpp:156] Memory required for data: 1213249056
I0403 15:15:33.959147 31372 layer_factory.hpp:77] Creating layer inception_4e/relu_1x1
I0403 15:15:33.959167 31372 net.cpp:91] Creating Layer inception_4e/relu_1x1
I0403 15:15:33.959183 31372 net.cpp:425] inception_4e/relu_1x1 <- inception_4e/1x1
I0403 15:15:33.959200 31372 net.cpp:386] inception_4e/relu_1x1 -> inception_4e/1x1 (in-place)
I0403 15:15:33.959486 31372 net.cpp:141] Setting up inception_4e/relu_1x1
I0403 15:15:33.959514 31372 net.cpp:148] Top shape: 24 256 14 14 (1204224)
I0403 15:15:33.959530 31372 net.cpp:156] Memory required for data: 1218065952
I0403 15:15:33.959545 31372 layer_factory.hpp:77] Creating layer inception_4e/3x3_reduce
I0403 15:15:33.959571 31372 net.cpp:91] Creating Layer inception_4e/3x3_reduce
I0403 15:15:33.959589 31372 net.cpp:425] inception_4e/3x3_reduce <- inception_4d/output_inception_4d/output_0_split_2
I0403 15:15:33.959606 31372 net.cpp:399] inception_4e/3x3_reduce -> inception_4e/3x3_reduce
I0403 15:15:33.961673 31372 net.cpp:141] Setting up inception_4e/3x3_reduce
I0403 15:15:33.961700 31372 net.cpp:148] Top shape: 24 160 14 14 (752640)
I0403 15:15:33.961716 31372 net.cpp:156] Memory required for data: 1221076512
I0403 15:15:33.961735 31372 layer_factory.hpp:77] Creating layer inception_4e/relu_3x3_reduce
I0403 15:15:33.961755 31372 net.cpp:91] Creating Layer inception_4e/relu_3x3_reduce
I0403 15:15:33.961771 31372 net.cpp:425] inception_4e/relu_3x3_reduce <- inception_4e/3x3_reduce
I0403 15:15:33.961787 31372 net.cpp:386] inception_4e/relu_3x3_reduce -> inception_4e/3x3_reduce (in-place)
I0403 15:15:33.961968 31372 net.cpp:141] Setting up inception_4e/relu_3x3_reduce
I0403 15:15:33.961994 31372 net.cpp:148] Top shape: 24 160 14 14 (752640)
I0403 15:15:33.962009 31372 net.cpp:156] Memory required for data: 1224087072
I0403 15:15:33.962024 31372 layer_factory.hpp:77] Creating layer inception_4e/3x3
I0403 15:15:33.962045 31372 net.cpp:91] Creating Layer inception_4e/3x3
I0403 15:15:33.962061 31372 net.cpp:425] inception_4e/3x3 <- inception_4e/3x3_reduce
I0403 15:15:33.962080 31372 net.cpp:399] inception_4e/3x3 -> inception_4e/3x3
I0403 15:15:33.966950 31372 net.cpp:141] Setting up inception_4e/3x3
I0403 15:15:33.966991 31372 net.cpp:148] Top shape: 24 320 14 14 (1505280)
I0403 15:15:33.967007 31372 net.cpp:156] Memory required for data: 1230108192
I0403 15:15:33.967025 31372 layer_factory.hpp:77] Creating layer inception_4e/relu_3x3
I0403 15:15:33.967042 31372 net.cpp:91] Creating Layer inception_4e/relu_3x3
I0403 15:15:33.967058 31372 net.cpp:425] inception_4e/relu_3x3 <- inception_4e/3x3
I0403 15:15:33.967077 31372 net.cpp:386] inception_4e/relu_3x3 -> inception_4e/3x3 (in-place)
I0403 15:15:33.967368 31372 net.cpp:141] Setting up inception_4e/relu_3x3
I0403 15:15:33.967396 31372 net.cpp:148] Top shape: 24 320 14 14 (1505280)
I0403 15:15:33.967411 31372 net.cpp:156] Memory required for data: 1236129312
I0403 15:15:33.967424 31372 layer_factory.hpp:77] Creating layer inception_4e/5x5_reduce
I0403 15:15:33.967447 31372 net.cpp:91] Creating Layer inception_4e/5x5_reduce
I0403 15:15:33.967464 31372 net.cpp:425] inception_4e/5x5_reduce <- inception_4d/output_inception_4d/output_0_split_3
I0403 15:15:33.967485 31372 net.cpp:399] inception_4e/5x5_reduce -> inception_4e/5x5_reduce
I0403 15:15:33.968525 31372 net.cpp:141] Setting up inception_4e/5x5_reduce
I0403 15:15:33.968552 31372 net.cpp:148] Top shape: 24 32 14 14 (150528)
I0403 15:15:33.968567 31372 net.cpp:156] Memory required for data: 1236731424
I0403 15:15:33.968585 31372 layer_factory.hpp:77] Creating layer inception_4e/relu_5x5_reduce
I0403 15:15:33.968603 31372 net.cpp:91] Creating Layer inception_4e/relu_5x5_reduce
I0403 15:15:33.968619 31372 net.cpp:425] inception_4e/relu_5x5_reduce <- inception_4e/5x5_reduce
I0403 15:15:33.968636 31372 net.cpp:386] inception_4e/relu_5x5_reduce -> inception_4e/5x5_reduce (in-place)
I0403 15:15:33.968924 31372 net.cpp:141] Setting up inception_4e/relu_5x5_reduce
I0403 15:15:33.968950 31372 net.cpp:148] Top shape: 24 32 14 14 (150528)
I0403 15:15:33.968964 31372 net.cpp:156] Memory required for data: 1237333536
I0403 15:15:33.968978 31372 layer_factory.hpp:77] Creating layer inception_4e/5x5
I0403 15:15:33.969015 31372 net.cpp:91] Creating Layer inception_4e/5x5
I0403 15:15:33.969034 31372 net.cpp:425] inception_4e/5x5 <- inception_4e/5x5_reduce
I0403 15:15:33.969055 31372 net.cpp:399] inception_4e/5x5 -> inception_4e/5x5
I0403 15:15:33.970854 31372 net.cpp:141] Setting up inception_4e/5x5
I0403 15:15:33.970880 31372 net.cpp:148] Top shape: 24 128 14 14 (602112)
I0403 15:15:33.970895 31372 net.cpp:156] Memory required for data: 1239741984
I0403 15:15:33.970912 31372 layer_factory.hpp:77] Creating layer inception_4e/relu_5x5
I0403 15:15:33.970929 31372 net.cpp:91] Creating Layer inception_4e/relu_5x5
I0403 15:15:33.970945 31372 net.cpp:425] inception_4e/relu_5x5 <- inception_4e/5x5
I0403 15:15:33.970964 31372 net.cpp:386] inception_4e/relu_5x5 -> inception_4e/5x5 (in-place)
I0403 15:15:33.971158 31372 net.cpp:141] Setting up inception_4e/relu_5x5
I0403 15:15:33.971181 31372 net.cpp:148] Top shape: 24 128 14 14 (602112)
I0403 15:15:33.971196 31372 net.cpp:156] Memory required for data: 1242150432
I0403 15:15:33.971210 31372 layer_factory.hpp:77] Creating layer inception_4e/pool
I0403 15:15:33.971230 31372 net.cpp:91] Creating Layer inception_4e/pool
I0403 15:15:33.971246 31372 net.cpp:425] inception_4e/pool <- inception_4d/output_inception_4d/output_0_split_4
I0403 15:15:33.971263 31372 net.cpp:399] inception_4e/pool -> inception_4e/pool
I0403 15:15:33.971331 31372 net.cpp:141] Setting up inception_4e/pool
I0403 15:15:33.971355 31372 net.cpp:148] Top shape: 24 528 14 14 (2483712)
I0403 15:15:33.971369 31372 net.cpp:156] Memory required for data: 1252085280
I0403 15:15:33.971384 31372 layer_factory.hpp:77] Creating layer inception_4e/pool_proj
I0403 15:15:33.971405 31372 net.cpp:91] Creating Layer inception_4e/pool_proj
I0403 15:15:33.971422 31372 net.cpp:425] inception_4e/pool_proj <- inception_4e/pool
I0403 15:15:33.971442 31372 net.cpp:399] inception_4e/pool_proj -> inception_4e/pool_proj
I0403 15:15:33.972986 31372 net.cpp:141] Setting up inception_4e/pool_proj
I0403 15:15:33.973024 31372 net.cpp:148] Top shape: 24 128 14 14 (602112)
I0403 15:15:33.973039 31372 net.cpp:156] Memory required for data: 1254493728
I0403 15:15:33.973057 31372 layer_factory.hpp:77] Creating layer inception_4e/relu_pool_proj
I0403 15:15:33.973073 31372 net.cpp:91] Creating Layer inception_4e/relu_pool_proj
I0403 15:15:33.973089 31372 net.cpp:425] inception_4e/relu_pool_proj <- inception_4e/pool_proj
I0403 15:15:33.973109 31372 net.cpp:386] inception_4e/relu_pool_proj -> inception_4e/pool_proj (in-place)
I0403 15:15:33.973395 31372 net.cpp:141] Setting up inception_4e/relu_pool_proj
I0403 15:15:33.973422 31372 net.cpp:148] Top shape: 24 128 14 14 (602112)
I0403 15:15:33.973435 31372 net.cpp:156] Memory required for data: 1256902176
I0403 15:15:33.973449 31372 layer_factory.hpp:77] Creating layer inception_4e/output
I0403 15:15:33.973466 31372 net.cpp:91] Creating Layer inception_4e/output
I0403 15:15:33.973480 31372 net.cpp:425] inception_4e/output <- inception_4e/1x1
I0403 15:15:33.973496 31372 net.cpp:425] inception_4e/output <- inception_4e/3x3
I0403 15:15:33.973516 31372 net.cpp:425] inception_4e/output <- inception_4e/5x5
I0403 15:15:33.973533 31372 net.cpp:425] inception_4e/output <- inception_4e/pool_proj
I0403 15:15:33.973551 31372 net.cpp:399] inception_4e/output -> inception_4e/output
I0403 15:15:33.973608 31372 net.cpp:141] Setting up inception_4e/output
I0403 15:15:33.973634 31372 net.cpp:148] Top shape: 24 832 14 14 (3913728)
I0403 15:15:33.973647 31372 net.cpp:156] Memory required for data: 1272557088
I0403 15:15:33.973662 31372 layer_factory.hpp:77] Creating layer pool4/3x3_s2
I0403 15:15:33.973680 31372 net.cpp:91] Creating Layer pool4/3x3_s2
I0403 15:15:33.973693 31372 net.cpp:425] pool4/3x3_s2 <- inception_4e/output
I0403 15:15:33.973711 31372 net.cpp:399] pool4/3x3_s2 -> pool4/3x3_s2
I0403 15:15:33.973778 31372 net.cpp:141] Setting up pool4/3x3_s2
I0403 15:15:33.973799 31372 net.cpp:148] Top shape: 24 832 7 7 (978432)
I0403 15:15:33.973814 31372 net.cpp:156] Memory required for data: 1276470816
I0403 15:15:33.973827 31372 layer_factory.hpp:77] Creating layer pool4/3x3_s2_pool4/3x3_s2_0_split
I0403 15:15:33.973845 31372 net.cpp:91] Creating Layer pool4/3x3_s2_pool4/3x3_s2_0_split
I0403 15:15:33.973860 31372 net.cpp:425] pool4/3x3_s2_pool4/3x3_s2_0_split <- pool4/3x3_s2
I0403 15:15:33.973877 31372 net.cpp:399] pool4/3x3_s2_pool4/3x3_s2_0_split -> pool4/3x3_s2_pool4/3x3_s2_0_split_0
I0403 15:15:33.973896 31372 net.cpp:399] pool4/3x3_s2_pool4/3x3_s2_0_split -> pool4/3x3_s2_pool4/3x3_s2_0_split_1
I0403 15:15:33.973915 31372 net.cpp:399] pool4/3x3_s2_pool4/3x3_s2_0_split -> pool4/3x3_s2_pool4/3x3_s2_0_split_2
I0403 15:15:33.973937 31372 net.cpp:399] pool4/3x3_s2_pool4/3x3_s2_0_split -> pool4/3x3_s2_pool4/3x3_s2_0_split_3
I0403 15:15:33.974026 31372 net.cpp:141] Setting up pool4/3x3_s2_pool4/3x3_s2_0_split
I0403 15:15:33.974048 31372 net.cpp:148] Top shape: 24 832 7 7 (978432)
I0403 15:15:33.974064 31372 net.cpp:148] Top shape: 24 832 7 7 (978432)
I0403 15:15:33.974078 31372 net.cpp:148] Top shape: 24 832 7 7 (978432)
I0403 15:15:33.974093 31372 net.cpp:148] Top shape: 24 832 7 7 (978432)
I0403 15:15:33.974107 31372 net.cpp:156] Memory required for data: 1292125728
I0403 15:15:33.974120 31372 layer_factory.hpp:77] Creating layer inception_5a/1x1
I0403 15:15:33.974141 31372 net.cpp:91] Creating Layer inception_5a/1x1
I0403 15:15:33.974158 31372 net.cpp:425] inception_5a/1x1 <- pool4/3x3_s2_pool4/3x3_s2_0_split_0
I0403 15:15:33.974177 31372 net.cpp:399] inception_5a/1x1 -> inception_5a/1x1
I0403 15:15:33.976969 31372 net.cpp:141] Setting up inception_5a/1x1
I0403 15:15:33.976996 31372 net.cpp:148] Top shape: 24 256 7 7 (301056)
I0403 15:15:33.977012 31372 net.cpp:156] Memory required for data: 1293329952
I0403 15:15:33.977030 31372 layer_factory.hpp:77] Creating layer inception_5a/relu_1x1
I0403 15:15:33.977051 31372 net.cpp:91] Creating Layer inception_5a/relu_1x1
I0403 15:15:33.977066 31372 net.cpp:425] inception_5a/relu_1x1 <- inception_5a/1x1
I0403 15:15:33.977083 31372 net.cpp:386] inception_5a/relu_1x1 -> inception_5a/1x1 (in-place)
I0403 15:15:33.977393 31372 net.cpp:141] Setting up inception_5a/relu_1x1
I0403 15:15:33.977419 31372 net.cpp:148] Top shape: 24 256 7 7 (301056)
I0403 15:15:33.977434 31372 net.cpp:156] Memory required for data: 1294534176
I0403 15:15:33.977449 31372 layer_factory.hpp:77] Creating layer inception_5a/3x3_reduce
I0403 15:15:33.977470 31372 net.cpp:91] Creating Layer inception_5a/3x3_reduce
I0403 15:15:33.977488 31372 net.cpp:425] inception_5a/3x3_reduce <- pool4/3x3_s2_pool4/3x3_s2_0_split_1
I0403 15:15:33.977512 31372 net.cpp:399] inception_5a/3x3_reduce -> inception_5a/3x3_reduce
I0403 15:15:33.980197 31372 net.cpp:141] Setting up inception_5a/3x3_reduce
I0403 15:15:33.980232 31372 net.cpp:148] Top shape: 24 160 7 7 (188160)
I0403 15:15:33.980249 31372 net.cpp:156] Memory required for data: 1295286816
I0403 15:15:33.980268 31372 layer_factory.hpp:77] Creating layer inception_5a/relu_3x3_reduce
I0403 15:15:33.980288 31372 net.cpp:91] Creating Layer inception_5a/relu_3x3_reduce
I0403 15:15:33.980304 31372 net.cpp:425] inception_5a/relu_3x3_reduce <- inception_5a/3x3_reduce
I0403 15:15:33.980324 31372 net.cpp:386] inception_5a/relu_3x3_reduce -> inception_5a/3x3_reduce (in-place)
I0403 15:15:33.980520 31372 net.cpp:141] Setting up inception_5a/relu_3x3_reduce
I0403 15:15:33.980551 31372 net.cpp:148] Top shape: 24 160 7 7 (188160)
I0403 15:15:33.980566 31372 net.cpp:156] Memory required for data: 1296039456
I0403 15:15:33.980581 31372 layer_factory.hpp:77] Creating layer inception_5a/3x3
I0403 15:15:33.980604 31372 net.cpp:91] Creating Layer inception_5a/3x3
I0403 15:15:33.980622 31372 net.cpp:425] inception_5a/3x3 <- inception_5a/3x3_reduce
I0403 15:15:33.980643 31372 net.cpp:399] inception_5a/3x3 -> inception_5a/3x3
I0403 15:15:33.985704 31372 net.cpp:141] Setting up inception_5a/3x3
I0403 15:15:33.985735 31372 net.cpp:148] Top shape: 24 320 7 7 (376320)
I0403 15:15:33.985750 31372 net.cpp:156] Memory required for data: 1297544736
I0403 15:15:33.985769 31372 layer_factory.hpp:77] Creating layer inception_5a/relu_3x3
I0403 15:15:33.985790 31372 net.cpp:91] Creating Layer inception_5a/relu_3x3
I0403 15:15:33.985807 31372 net.cpp:425] inception_5a/relu_3x3 <- inception_5a/3x3
I0403 15:15:33.985824 31372 net.cpp:386] inception_5a/relu_3x3 -> inception_5a/3x3 (in-place)
I0403 15:15:33.986124 31372 net.cpp:141] Setting up inception_5a/relu_3x3
I0403 15:15:33.986151 31372 net.cpp:148] Top shape: 24 320 7 7 (376320)
I0403 15:15:33.986166 31372 net.cpp:156] Memory required for data: 1299050016
I0403 15:15:33.986181 31372 layer_factory.hpp:77] Creating layer inception_5a/5x5_reduce
I0403 15:15:33.986202 31372 net.cpp:91] Creating Layer inception_5a/5x5_reduce
I0403 15:15:33.986220 31372 net.cpp:425] inception_5a/5x5_reduce <- pool4/3x3_s2_pool4/3x3_s2_0_split_2
I0403 15:15:33.986243 31372 net.cpp:399] inception_5a/5x5_reduce -> inception_5a/5x5_reduce
I0403 15:15:33.987424 31372 net.cpp:141] Setting up inception_5a/5x5_reduce
I0403 15:15:33.987457 31372 net.cpp:148] Top shape: 24 32 7 7 (37632)
I0403 15:15:33.987473 31372 net.cpp:156] Memory required for data: 1299200544
I0403 15:15:33.987491 31372 layer_factory.hpp:77] Creating layer inception_5a/relu_5x5_reduce
I0403 15:15:33.987509 31372 net.cpp:91] Creating Layer inception_5a/relu_5x5_reduce
I0403 15:15:33.987525 31372 net.cpp:425] inception_5a/relu_5x5_reduce <- inception_5a/5x5_reduce
I0403 15:15:33.987547 31372 net.cpp:386] inception_5a/relu_5x5_reduce -> inception_5a/5x5_reduce (in-place)
I0403 15:15:33.987853 31372 net.cpp:141] Setting up inception_5a/relu_5x5_reduce
I0403 15:15:33.987879 31372 net.cpp:148] Top shape: 24 32 7 7 (37632)
I0403 15:15:33.987893 31372 net.cpp:156] Memory required for data: 1299351072
I0403 15:15:33.987908 31372 layer_factory.hpp:77] Creating layer inception_5a/5x5
I0403 15:15:33.987931 31372 net.cpp:91] Creating Layer inception_5a/5x5
I0403 15:15:33.987948 31372 net.cpp:425] inception_5a/5x5 <- inception_5a/5x5_reduce
I0403 15:15:33.987970 31372 net.cpp:399] inception_5a/5x5 -> inception_5a/5x5
I0403 15:15:33.989706 31372 net.cpp:141] Setting up inception_5a/5x5
I0403 15:15:33.989748 31372 net.cpp:148] Top shape: 24 128 7 7 (150528)
I0403 15:15:33.989764 31372 net.cpp:156] Memory required for data: 1299953184
I0403 15:15:33.989784 31372 layer_factory.hpp:77] Creating layer inception_5a/relu_5x5
I0403 15:15:33.989804 31372 net.cpp:91] Creating Layer inception_5a/relu_5x5
I0403 15:15:33.989820 31372 net.cpp:425] inception_5a/relu_5x5 <- inception_5a/5x5
I0403 15:15:33.989838 31372 net.cpp:386] inception_5a/relu_5x5 -> inception_5a/5x5 (in-place)
I0403 15:15:33.990032 31372 net.cpp:141] Setting up inception_5a/relu_5x5
I0403 15:15:33.990059 31372 net.cpp:148] Top shape: 24 128 7 7 (150528)
I0403 15:15:33.990074 31372 net.cpp:156] Memory required for data: 1300555296
I0403 15:15:33.990089 31372 layer_factory.hpp:77] Creating layer inception_5a/pool
I0403 15:15:33.990106 31372 net.cpp:91] Creating Layer inception_5a/pool
I0403 15:15:33.990121 31372 net.cpp:425] inception_5a/pool <- pool4/3x3_s2_pool4/3x3_s2_0_split_3
I0403 15:15:33.990139 31372 net.cpp:399] inception_5a/pool -> inception_5a/pool
I0403 15:15:33.990211 31372 net.cpp:141] Setting up inception_5a/pool
I0403 15:15:33.990236 31372 net.cpp:148] Top shape: 24 832 7 7 (978432)
I0403 15:15:33.990252 31372 net.cpp:156] Memory required for data: 1304469024
I0403 15:15:33.990268 31372 layer_factory.hpp:77] Creating layer inception_5a/pool_proj
I0403 15:15:33.990289 31372 net.cpp:91] Creating Layer inception_5a/pool_proj
I0403 15:15:33.990306 31372 net.cpp:425] inception_5a/pool_proj <- inception_5a/pool
I0403 15:15:33.990327 31372 net.cpp:399] inception_5a/pool_proj -> inception_5a/pool_proj
I0403 15:15:33.992631 31372 net.cpp:141] Setting up inception_5a/pool_proj
I0403 15:15:33.992660 31372 net.cpp:148] Top shape: 24 128 7 7 (150528)
I0403 15:15:33.992676 31372 net.cpp:156] Memory required for data: 1305071136
I0403 15:15:33.992694 31372 layer_factory.hpp:77] Creating layer inception_5a/relu_pool_proj
I0403 15:15:33.992712 31372 net.cpp:91] Creating Layer inception_5a/relu_pool_proj
I0403 15:15:33.992733 31372 net.cpp:425] inception_5a/relu_pool_proj <- inception_5a/pool_proj
I0403 15:15:33.992750 31372 net.cpp:386] inception_5a/relu_pool_proj -> inception_5a/pool_proj (in-place)
I0403 15:15:33.993049 31372 net.cpp:141] Setting up inception_5a/relu_pool_proj
I0403 15:15:33.993077 31372 net.cpp:148] Top shape: 24 128 7 7 (150528)
I0403 15:15:33.993091 31372 net.cpp:156] Memory required for data: 1305673248
I0403 15:15:33.993105 31372 layer_factory.hpp:77] Creating layer inception_5a/output
I0403 15:15:33.993124 31372 net.cpp:91] Creating Layer inception_5a/output
I0403 15:15:33.993139 31372 net.cpp:425] inception_5a/output <- inception_5a/1x1
I0403 15:15:33.993155 31372 net.cpp:425] inception_5a/output <- inception_5a/3x3
I0403 15:15:33.993172 31372 net.cpp:425] inception_5a/output <- inception_5a/5x5
I0403 15:15:33.993188 31372 net.cpp:425] inception_5a/output <- inception_5a/pool_proj
I0403 15:15:33.993207 31372 net.cpp:399] inception_5a/output -> inception_5a/output
I0403 15:15:33.993257 31372 net.cpp:141] Setting up inception_5a/output
I0403 15:15:33.993283 31372 net.cpp:148] Top shape: 24 832 7 7 (978432)
I0403 15:15:33.993299 31372 net.cpp:156] Memory required for data: 1309586976
I0403 15:15:33.993314 31372 layer_factory.hpp:77] Creating layer inception_5a/output_inception_5a/output_0_split
I0403 15:15:33.993332 31372 net.cpp:91] Creating Layer inception_5a/output_inception_5a/output_0_split
I0403 15:15:33.993348 31372 net.cpp:425] inception_5a/output_inception_5a/output_0_split <- inception_5a/output
I0403 15:15:33.993366 31372 net.cpp:399] inception_5a/output_inception_5a/output_0_split -> inception_5a/output_inception_5a/output_0_split_0
I0403 15:15:33.993391 31372 net.cpp:399] inception_5a/output_inception_5a/output_0_split -> inception_5a/output_inception_5a/output_0_split_1
I0403 15:15:33.993412 31372 net.cpp:399] inception_5a/output_inception_5a/output_0_split -> inception_5a/output_inception_5a/output_0_split_2
I0403 15:15:33.993432 31372 net.cpp:399] inception_5a/output_inception_5a/output_0_split -> inception_5a/output_inception_5a/output_0_split_3
I0403 15:15:33.993551 31372 net.cpp:141] Setting up inception_5a/output_inception_5a/output_0_split
I0403 15:15:33.993576 31372 net.cpp:148] Top shape: 24 832 7 7 (978432)
I0403 15:15:33.993592 31372 net.cpp:148] Top shape: 24 832 7 7 (978432)
I0403 15:15:33.993607 31372 net.cpp:148] Top shape: 24 832 7 7 (978432)
I0403 15:15:33.993621 31372 net.cpp:148] Top shape: 24 832 7 7 (978432)
I0403 15:15:33.993635 31372 net.cpp:156] Memory required for data: 1325241888
I0403 15:15:33.993650 31372 layer_factory.hpp:77] Creating layer inception_5b/1x1
I0403 15:15:33.993674 31372 net.cpp:91] Creating Layer inception_5b/1x1
I0403 15:15:33.993690 31372 net.cpp:425] inception_5b/1x1 <- inception_5a/output_inception_5a/output_0_split_0
I0403 15:15:33.993711 31372 net.cpp:399] inception_5b/1x1 -> inception_5b/1x1
I0403 15:15:33.997607 31372 net.cpp:141] Setting up inception_5b/1x1
I0403 15:15:33.997637 31372 net.cpp:148] Top shape: 24 384 7 7 (451584)
I0403 15:15:33.997654 31372 net.cpp:156] Memory required for data: 1327048224
I0403 15:15:33.997673 31372 layer_factory.hpp:77] Creating layer inception_5b/relu_1x1
I0403 15:15:33.997692 31372 net.cpp:91] Creating Layer inception_5b/relu_1x1
I0403 15:15:33.997709 31372 net.cpp:425] inception_5b/relu_1x1 <- inception_5b/1x1
I0403 15:15:33.997730 31372 net.cpp:386] inception_5b/relu_1x1 -> inception_5b/1x1 (in-place)
I0403 15:15:33.998047 31372 net.cpp:141] Setting up inception_5b/relu_1x1
I0403 15:15:33.998073 31372 net.cpp:148] Top shape: 24 384 7 7 (451584)
I0403 15:15:33.998090 31372 net.cpp:156] Memory required for data: 1328854560
I0403 15:15:33.998105 31372 layer_factory.hpp:77] Creating layer inception_5b/3x3_reduce
I0403 15:15:33.998127 31372 net.cpp:91] Creating Layer inception_5b/3x3_reduce
I0403 15:15:33.998145 31372 net.cpp:425] inception_5b/3x3_reduce <- inception_5a/output_inception_5a/output_0_split_1
I0403 15:15:33.998168 31372 net.cpp:399] inception_5b/3x3_reduce -> inception_5b/3x3_reduce
I0403 15:15:34.000926 31372 net.cpp:141] Setting up inception_5b/3x3_reduce
I0403 15:15:34.000958 31372 net.cpp:148] Top shape: 24 192 7 7 (225792)
I0403 15:15:34.000974 31372 net.cpp:156] Memory required for data: 1329757728
I0403 15:15:34.000993 31372 layer_factory.hpp:77] Creating layer inception_5b/relu_3x3_reduce
I0403 15:15:34.001013 31372 net.cpp:91] Creating Layer inception_5b/relu_3x3_reduce
I0403 15:15:34.001030 31372 net.cpp:425] inception_5b/relu_3x3_reduce <- inception_5b/3x3_reduce
I0403 15:15:34.001050 31372 net.cpp:386] inception_5b/relu_3x3_reduce -> inception_5b/3x3_reduce (in-place)
I0403 15:15:34.001247 31372 net.cpp:141] Setting up inception_5b/relu_3x3_reduce
I0403 15:15:34.001274 31372 net.cpp:148] Top shape: 24 192 7 7 (225792)
I0403 15:15:34.001289 31372 net.cpp:156] Memory required for data: 1330660896
I0403 15:15:34.001304 31372 layer_factory.hpp:77] Creating layer inception_5b/3x3
I0403 15:15:34.001327 31372 net.cpp:91] Creating Layer inception_5b/3x3
I0403 15:15:34.001344 31372 net.cpp:425] inception_5b/3x3 <- inception_5b/3x3_reduce
I0403 15:15:34.001368 31372 net.cpp:399] inception_5b/3x3 -> inception_5b/3x3
I0403 15:15:34.008218 31372 net.cpp:141] Setting up inception_5b/3x3
I0403 15:15:34.008249 31372 net.cpp:148] Top shape: 24 384 7 7 (451584)
I0403 15:15:34.008263 31372 net.cpp:156] Memory required for data: 1332467232
I0403 15:15:34.008281 31372 layer_factory.hpp:77] Creating layer inception_5b/relu_3x3
I0403 15:15:34.008301 31372 net.cpp:91] Creating Layer inception_5b/relu_3x3
I0403 15:15:34.008318 31372 net.cpp:425] inception_5b/relu_3x3 <- inception_5b/3x3
I0403 15:15:34.008335 31372 net.cpp:386] inception_5b/relu_3x3 -> inception_5b/3x3 (in-place)
I0403 15:15:34.008642 31372 net.cpp:141] Setting up inception_5b/relu_3x3
I0403 15:15:34.008668 31372 net.cpp:148] Top shape: 24 384 7 7 (451584)
I0403 15:15:34.008683 31372 net.cpp:156] Memory required for data: 1334273568
I0403 15:15:34.008697 31372 layer_factory.hpp:77] Creating layer inception_5b/5x5_reduce
I0403 15:15:34.008734 31372 net.cpp:91] Creating Layer inception_5b/5x5_reduce
I0403 15:15:34.008754 31372 net.cpp:425] inception_5b/5x5_reduce <- inception_5a/output_inception_5a/output_0_split_2
I0403 15:15:34.008775 31372 net.cpp:399] inception_5b/5x5_reduce -> inception_5b/5x5_reduce
I0403 15:15:34.010056 31372 net.cpp:141] Setting up inception_5b/5x5_reduce
I0403 15:15:34.010085 31372 net.cpp:148] Top shape: 24 48 7 7 (56448)
I0403 15:15:34.010102 31372 net.cpp:156] Memory required for data: 1334499360
I0403 15:15:34.010118 31372 layer_factory.hpp:77] Creating layer inception_5b/relu_5x5_reduce
I0403 15:15:34.010136 31372 net.cpp:91] Creating Layer inception_5b/relu_5x5_reduce
I0403 15:15:34.010152 31372 net.cpp:425] inception_5b/relu_5x5_reduce <- inception_5b/5x5_reduce
I0403 15:15:34.010171 31372 net.cpp:386] inception_5b/relu_5x5_reduce -> inception_5b/5x5_reduce (in-place)
I0403 15:15:34.010560 31372 net.cpp:141] Setting up inception_5b/relu_5x5_reduce
I0403 15:15:34.010586 31372 net.cpp:148] Top shape: 24 48 7 7 (56448)
I0403 15:15:34.010606 31372 net.cpp:156] Memory required for data: 1334725152
I0403 15:15:34.010619 31372 layer_factory.hpp:77] Creating layer inception_5b/5x5
I0403 15:15:34.010640 31372 net.cpp:91] Creating Layer inception_5b/5x5
I0403 15:15:34.010656 31372 net.cpp:425] inception_5b/5x5 <- inception_5b/5x5_reduce
I0403 15:15:34.010675 31372 net.cpp:399] inception_5b/5x5 -> inception_5b/5x5
I0403 15:15:34.012768 31372 net.cpp:141] Setting up inception_5b/5x5
I0403 15:15:34.012796 31372 net.cpp:148] Top shape: 24 128 7 7 (150528)
I0403 15:15:34.012811 31372 net.cpp:156] Memory required for data: 1335327264
I0403 15:15:34.012831 31372 layer_factory.hpp:77] Creating layer inception_5b/relu_5x5
I0403 15:15:34.012851 31372 net.cpp:91] Creating Layer inception_5b/relu_5x5
I0403 15:15:34.012869 31372 net.cpp:425] inception_5b/relu_5x5 <- inception_5b/5x5
I0403 15:15:34.012887 31372 net.cpp:386] inception_5b/relu_5x5 -> inception_5b/5x5 (in-place)
I0403 15:15:34.013083 31372 net.cpp:141] Setting up inception_5b/relu_5x5
I0403 15:15:34.013108 31372 net.cpp:148] Top shape: 24 128 7 7 (150528)
I0403 15:15:34.013123 31372 net.cpp:156] Memory required for data: 1335929376
I0403 15:15:34.013139 31372 layer_factory.hpp:77] Creating layer inception_5b/pool
I0403 15:15:34.013159 31372 net.cpp:91] Creating Layer inception_5b/pool
I0403 15:15:34.013175 31372 net.cpp:425] inception_5b/pool <- inception_5a/output_inception_5a/output_0_split_3
I0403 15:15:34.013192 31372 net.cpp:399] inception_5b/pool -> inception_5b/pool
I0403 15:15:34.013267 31372 net.cpp:141] Setting up inception_5b/pool
I0403 15:15:34.013291 31372 net.cpp:148] Top shape: 24 832 7 7 (978432)
I0403 15:15:34.013306 31372 net.cpp:156] Memory required for data: 1339843104
I0403 15:15:34.013321 31372 layer_factory.hpp:77] Creating layer inception_5b/pool_proj
I0403 15:15:34.013342 31372 net.cpp:91] Creating Layer inception_5b/pool_proj
I0403 15:15:34.013360 31372 net.cpp:425] inception_5b/pool_proj <- inception_5b/pool
I0403 15:15:34.013381 31372 net.cpp:399] inception_5b/pool_proj -> inception_5b/pool_proj
I0403 15:15:34.015717 31372 net.cpp:141] Setting up inception_5b/pool_proj
I0403 15:15:34.015748 31372 net.cpp:148] Top shape: 24 128 7 7 (150528)
I0403 15:15:34.015764 31372 net.cpp:156] Memory required for data: 1340445216
I0403 15:15:34.015782 31372 layer_factory.hpp:77] Creating layer inception_5b/relu_pool_proj
I0403 15:15:34.015800 31372 net.cpp:91] Creating Layer inception_5b/relu_pool_proj
I0403 15:15:34.015816 31372 net.cpp:425] inception_5b/relu_pool_proj <- inception_5b/pool_proj
I0403 15:15:34.015836 31372 net.cpp:386] inception_5b/relu_pool_proj -> inception_5b/pool_proj (in-place)
I0403 15:15:34.016139 31372 net.cpp:141] Setting up inception_5b/relu_pool_proj
I0403 15:15:34.016166 31372 net.cpp:148] Top shape: 24 128 7 7 (150528)
I0403 15:15:34.016181 31372 net.cpp:156] Memory required for data: 1341047328
I0403 15:15:34.016196 31372 layer_factory.hpp:77] Creating layer inception_5b/output
I0403 15:15:34.016213 31372 net.cpp:91] Creating Layer inception_5b/output
I0403 15:15:34.016244 31372 net.cpp:425] inception_5b/output <- inception_5b/1x1
I0403 15:15:34.016261 31372 net.cpp:425] inception_5b/output <- inception_5b/3x3
I0403 15:15:34.016278 31372 net.cpp:425] inception_5b/output <- inception_5b/5x5
I0403 15:15:34.016295 31372 net.cpp:425] inception_5b/output <- inception_5b/pool_proj
I0403 15:15:34.016314 31372 net.cpp:399] inception_5b/output -> inception_5b/output
I0403 15:15:34.016366 31372 net.cpp:141] Setting up inception_5b/output
I0403 15:15:34.016392 31372 net.cpp:148] Top shape: 24 1024 7 7 (1204224)
I0403 15:15:34.016407 31372 net.cpp:156] Memory required for data: 1345864224
I0403 15:15:34.016422 31372 layer_factory.hpp:77] Creating layer pool5/7x7_s1
I0403 15:15:34.016440 31372 net.cpp:91] Creating Layer pool5/7x7_s1
I0403 15:15:34.016456 31372 net.cpp:425] pool5/7x7_s1 <- inception_5b/output
I0403 15:15:34.016475 31372 net.cpp:399] pool5/7x7_s1 -> pool5/7x7_s1
I0403 15:15:34.016700 31372 net.cpp:141] Setting up pool5/7x7_s1
I0403 15:15:34.016726 31372 net.cpp:148] Top shape: 24 1024 1 1 (24576)
I0403 15:15:34.016741 31372 net.cpp:156] Memory required for data: 1345962528
I0403 15:15:34.016755 31372 layer_factory.hpp:77] Creating layer pool5/drop_7x7_s1
I0403 15:15:34.016773 31372 net.cpp:91] Creating Layer pool5/drop_7x7_s1
I0403 15:15:34.016789 31372 net.cpp:425] pool5/drop_7x7_s1 <- pool5/7x7_s1
I0403 15:15:34.016809 31372 net.cpp:386] pool5/drop_7x7_s1 -> pool5/7x7_s1 (in-place)
I0403 15:15:34.016861 31372 net.cpp:141] Setting up pool5/drop_7x7_s1
I0403 15:15:34.016885 31372 net.cpp:148] Top shape: 24 1024 1 1 (24576)
I0403 15:15:34.016899 31372 net.cpp:156] Memory required for data: 1346060832
I0403 15:15:34.016913 31372 layer_factory.hpp:77] Creating layer loss3/classifier_plantvillage
I0403 15:15:34.016933 31372 net.cpp:91] Creating Layer loss3/classifier_plantvillage
I0403 15:15:34.016948 31372 net.cpp:425] loss3/classifier_plantvillage <- pool5/7x7_s1
I0403 15:15:34.016969 31372 net.cpp:399] loss3/classifier_plantvillage -> loss3/classifier_plantvillage
I0403 15:15:34.017397 31372 net.cpp:141] Setting up loss3/classifier_plantvillage
I0403 15:15:34.017434 31372 net.cpp:148] Top shape: 24 38 (912)
I0403 15:15:34.017448 31372 net.cpp:156] Memory required for data: 1346064480
I0403 15:15:34.017469 31372 layer_factory.hpp:77] Creating layer loss3/classifier_plantvillage_loss3/classifier_plantvillage_0_split
I0403 15:15:34.017494 31372 net.cpp:91] Creating Layer loss3/classifier_plantvillage_loss3/classifier_plantvillage_0_split
I0403 15:15:34.017513 31372 net.cpp:425] loss3/classifier_plantvillage_loss3/classifier_plantvillage_0_split <- loss3/classifier_plantvillage
I0403 15:15:34.017536 31372 net.cpp:399] loss3/classifier_plantvillage_loss3/classifier_plantvillage_0_split -> loss3/classifier_plantvillage_loss3/classifier_plantvillage_0_split_0
I0403 15:15:34.017560 31372 net.cpp:399] loss3/classifier_plantvillage_loss3/classifier_plantvillage_0_split -> loss3/classifier_plantvillage_loss3/classifier_plantvillage_0_split_1
I0403 15:15:34.017581 31372 net.cpp:399] loss3/classifier_plantvillage_loss3/classifier_plantvillage_0_split -> loss3/classifier_plantvillage_loss3/classifier_plantvillage_0_split_2
I0403 15:15:34.017601 31372 net.cpp:399] loss3/classifier_plantvillage_loss3/classifier_plantvillage_0_split -> loss3/classifier_plantvillage_loss3/classifier_plantvillage_0_split_3
I0403 15:15:34.017704 31372 net.cpp:141] Setting up loss3/classifier_plantvillage_loss3/classifier_plantvillage_0_split
I0403 15:15:34.017726 31372 net.cpp:148] Top shape: 24 38 (912)
I0403 15:15:34.017773 31372 net.cpp:148] Top shape: 24 38 (912)
I0403 15:15:34.017813 31372 net.cpp:148] Top shape: 24 38 (912)
I0403 15:15:34.017848 31372 net.cpp:148] Top shape: 24 38 (912)
I0403 15:15:34.017874 31372 net.cpp:156] Memory required for data: 1346079072
I0403 15:15:34.017892 31372 layer_factory.hpp:77] Creating layer loss1/loss
I0403 15:15:34.017920 31372 net.cpp:91] Creating Layer loss1/loss
I0403 15:15:34.017949 31372 net.cpp:425] loss1/loss <- loss1/classifier_plantvillage_loss1/classifier_plantvillage_0_split_0
I0403 15:15:34.017993 31372 net.cpp:425] loss1/loss <- label_data_1_split_0
…
