…
I0403 14:59:28.907133 30837 net.cpp:313] The NetState phase (1) differed from the phase (0) specified by a rule in layer data
I0403 14:59:28.908299 30837 net.cpp:49] Initializing net from parameters: 
state {
  phase: TEST
}
layer {
  name: "data"
  type: "Data"
  top: "data"
  top: "label"
  include {
    phase: TEST
  }
  transform_param {
    mirror: false
    crop_size: 224
    mean_file: "/home/mohanty/data/final_dataset/lmdb/grayscale-80-20/mean.binaryproto"
  }
  data_param {
    source: "/home/mohanty/data/final_dataset/lmdb/grayscale-80-20/test_db"
    batch_size: 24
    backend: LMDB
  }
}
layer {
  name: "conv1/7x7_s2"
  type: "Convolution"
  bottom: "data"
  top: "conv1/7x7_s2"
  param {
    lr_mult: 1
    decay_mult: 1
  }
  param {
    lr_mult: 2
    decay_mult: 0
  }
  convolution_param {
    num_output: 64
    pad: 3
    kernel_size: 7
    stride: 2
    weight_filler {
      type: "xavier"
      std: 0.1
    }
    bias_filler {
      type: "constant"
      value: 0.2
    }
  }
}
layer {
  name: "conv1/relu_7x7"
  type: "ReLU"
  bottom: "conv1/7x7_s2"
  top: "conv1/7x7_s2"
}
layer {
  name: "pool1/3x3_s2"
  type: "Pooling"
  bottom: "conv1/7x7_s2"
  top: "pool1/3x3_s2"
  pooling_param {
    pool: MAX
    kernel_size: 3
    stride: 2
  }
}
layer {
  name: "pool1/norm1"
  type: "LRN"
  bottom: "pool1/3x3_s2"
  top: "pool1/norm1"
  lrn_param {
    local_size: 5
    alpha: 0.0001
    beta: 0.75
  }
}
layer {
  name: "conv2/3x3_reduce"
  type: "Convolution"
  bottom: "pool1/norm1"
  top: "conv2/3x3_reduce"
  param {
    lr_mult: 1
    decay_mult: 1
  }
  param {
    lr_mult: 2
    decay_mult: 0
  }
  convolution_param {
    num_output: 64
    kernel_size: 1
    weight_filler {
      type: "xavier"
      std: 0.1
    }
    bias_filler {
      type: "constant"
      value: 0.2
    }
  }
}
layer {
  name: "conv2/relu_3x3_reduce"
  type: "ReLU"
  bottom: "conv2/3x3_reduce"
  top: "conv2/3x3_reduce"
}
layer {
  name: "conv2/3x3"
  type: "Convolution"
  bottom: "conv2/3x3_reduce"
  top: "conv2/3x3"
  param {
    lr_mult: 1
    decay_mult: 1
  }
  param {
    lr_mult: 2
    decay_mult: 0
  }
  convolution_param {
    num_output: 192
    pad: 1
    kernel_size: 3
    weight_filler {
      type: "xavier"
      std: 0.03
    }
    bias_filler {
      type: "constant"
      value: 0.2
    }
  }
}
layer {
  name: "conv2/relu_3x3"
  type: "ReLU"
  bottom: "conv2/3x3"
  top: "conv2/3x3"
}
layer {
  name: "conv2/norm2"
  type: "LRN"
  bottom: "conv2/3x3"
  top: "conv2/norm2"
  lrn_param {
    local_size: 5
    alpha: 0.0001
    beta: 0.75
  }
}
layer {
  name: "pool2/3x3_s2"
  type: "Pooling"
  bottom: "conv2/norm2"
  top: "pool2/3x3_s2"
  pooling_param {
    pool: MAX
    kernel_size: 3
    stride: 2
  }
}
layer {
  name: "inception_3a/1x1"
  type: "Convolution"
  bottom: "pool2/3x3_s2"
  top: "inception_3a/1x1"
  param {
    lr_mult: 1
    decay_mult: 1
  }
  param {
    lr_mult: 2
    decay_mult: 0
  }
  convolution_param {
    num_output: 64
    kernel_size: 1
    weight_filler {
      type: "xavier"
      std: 0.03
    }
    bias_filler {
      type: "constant"
      value: 0.2
    }
  }
}
layer {
  name: "inception_3a/relu_1x1"
  type: "ReLU"
  bottom: "inception_3a/1x1"
  top: "inception_3a/1x1"
}
layer {
  name: "inception_3a/3x3_reduce"
  type: "Convolution"
  bottom: "pool2/3x3_s2"
  top: "inception_3a/3x3_reduce"
  param {
    lr_mult: 1
    decay_mult: 1
  }
  param {
    lr_mult: 2
    decay_mult: 0
  }
  convolution_param {
    num_output: 96
    kernel_size: 1
    weight_filler {
      type: "xavier"
      std: 0.09
    }
    bias_filler {
      type: "constant"
      value: 0.2
    }
  }
}
layer {
  name: "inception_3a/relu_3x3_reduce"
  type: "ReLU"
  bottom: "inception_3a/3x3_reduce"
  top: "inception_3a/3x3_reduce"
}
layer {
  name: "inception_3a/3x3"
  type: "Convolution"
  bottom: "inception_3a/3x3_reduce"
  top: "inception_3a/3x3"
  param {
    lr_mult: 1
    decay_mult: 1
  }
  param {
    lr_mult: 2
    decay_mult: 0
  }
  convolution_param {
    num_output: 128
    pad: 1
    kernel_size: 3
    weight_filler {
      type: "xavier"
      std: 0.03
    }
    bias_filler {
      type: "constant"
      value: 0.2
    }
  }
}
layer {
  name: "inception_3a/relu_3x3"
  type: "ReLU"
  bottom: "inception_3a/3x3"
  top: "inception_3a/3x3"
}
layer {
  name: "inception_3a/5x5_reduce"
  type: "Convolution"
  bottom: "pool2/3x3_s2"
  top: "inception_3a/5x5_reduce"
  param {
    lr_mult: 1
    decay_mult: 1
  }
  param {
    lr_mult: 2
    decay_mult: 0
  }
  convolution_param {
    num_output: 16
    kernel_size: 1
    weight_filler {
      type: "xavier"
      std: 0.2
    }
    bias_filler {
      type: "constant"
      value: 0.2
    }
  }
}
layer {
  name: "inception_3a/relu_5x5_reduce"
  type: "ReLU"
  bottom: "inception_3a/5x5_reduce"
  top: "inception_3a/5x5_reduce"
}
layer {
  name: "inception_3a/5x5"
  type: "Convolution"
  bottom: "inception_3a/5x5_reduce"
  top: "inception_3a/5x5"
  param {
    lr_mult: 1
    decay_mult: 1
  }
  param {
    lr_mult: 2
    decay_mult: 0
  }
  convolution_param {
    num_output: 32
    pad: 2
    kernel_size: 5
    weight_filler {
      type: "xavier"
      std: 0.03
    }
    bias_filler {
      type: "constant"
      value: 0.2
    }
  }
}
layer {
  name: "inception_3a/relu_5x5"
  type: "ReLU"
  bottom: "inception_3a/5x5"
  top: "inception_3a/5x5"
}
layer {
  name: "inception_3a/pool"
  type: "Pooling"
  bottom: "pool2/3x3_s2"
  top: "inception_3a/pool"
  pooling_param {
    pool: MAX
    kernel_size: 3
    stride: 1
    pad: 1
  }
}
layer {
  name: "inception_3a/pool_proj"
  type: "Convolution"
  bottom: "inception_3a/pool"
  top: "inception_3a/pool_proj"
  param {
    lr_mult: 1
    decay_mult: 1
  }
  param {
    lr_mult: 2
    decay_mult: 0
  }
  convolution_param {
    num_output: 32
    kernel_size: 1
    weight_filler {
      type: "xavier"
      std: 0.1
    }
    bias_filler {
      type: "constant"
      value: 0.2
    }
  }
}
layer {
  name: "inception_3a/relu_pool_proj"
  type: "ReLU"
  bottom: "inception_3a/pool_proj"
  top: "inception_3a/pool_proj"
}
layer {
  name: "inception_3a/output"
  type: "Concat"
  bottom: "inception_3a/1x1"
  bottom: "inception_3a/3x3"
  bottom: "inception_3a/5x5"
  bottom: "inception_3a/pool_proj"
  top: "inception_3a/output"
}
layer {
  name: "inception_3b/1x1"
  type: "Convolution"
  bottom: "inception_3a/output"
  top: "inception_3b/1x1"
  param {
    lr_mult: 1
    decay_mult: 1
  }
  param {
    lr_mult: 2
    decay_mult: 0
  }
  convolution_param {
    num_output: 128
    kernel_size: 1
    weight_filler {
      type: "xavier"
      std: 0.03
    }
    bias_filler {
      type: "constant"
      value: 0.2
    }
  }
}
layer {
  name: "inception_3b/relu_1x1"
  type: "ReLU"
  bottom: "inception_3b/1x1"
  top: "inception_3b/1x1"
}
layer {
  name: "inception_3b/3x3_reduce"
  type: "Convolution"
  bottom: "inception_3a/output"
  top: "inception_3b/3x3_reduce"
  param {
    lr_mult: 1
    decay_mult: 1
  }
  param {
    lr_mult: 2
    decay_mult: 0
  }
  convolution_param {
    num_output: 128
    kernel_size: 1
    weight_filler {
      type: "xavier"
      std: 0.09
    }
    bias_filler {
      type: "constant"
      value: 0.2
    }
  }
}
layer {
  name: "inception_3b/relu_3x3_reduce"
  type: "ReLU"
  bottom: "inception_3b/3x3_reduce"
  top: "inception_3b/3x3_reduce"
}
layer {
  name: "inception_3b/3x3"
  type: "Convolution"
  bottom: "inception_3b/3x3_reduce"
  top: "inception_3b/3x3"
  param {
    lr_mult: 1
    decay_mult: 1
  }
  param {
    lr_mult: 2
    decay_mult: 0
  }
  convolution_param {
    num_output: 192
    pad: 1
    kernel_size: 3
    weight_filler {
      type: "xavier"
      std: 0.03
    }
    bias_filler {
      type: "constant"
      value: 0.2
    }
  }
}
layer {
  name: "inception_3b/relu_3x3"
  type: "ReLU"
  bottom: "inception_3b/3x3"
  top: "inception_3b/3x3"
}
layer {
  name: "inception_3b/5x5_reduce"
  type: "Convolution"
  bottom: "inception_3a/output"
  top: "inception_3b/5x5_reduce"
  param {
    lr_mult: 1
    decay_mult: 1
  }
  param {
    lr_mult: 2
    decay_mult: 0
  }
  convolution_param {
    num_output: 32
    kernel_size: 1
    weight_filler {
      type: "xavier"
      std: 0.2
    }
    bias_filler {
      type: "constant"
      value: 0.2
    }
  }
}
layer {
  name: "inception_3b/relu_5x5_reduce"
  type: "ReLU"
  bottom: "inception_3b/5x5_reduce"
  top: "inception_3b/5x5_reduce"
}
layer {
  name: "inception_3b/5x5"
  type: "Convolution"
  bottom: "inception_3b/5x5_reduce"
  top: "inception_3b/5x5"
  param {
    lr_mult: 1
    decay_mult: 1
  }
  param {
    lr_mult: 2
    decay_mult: 0
  }
  convolution_param {
    num_output: 96
    pad: 2
    kernel_size: 5
    weight_filler {
      type: "xavier"
      std: 0.03
    }
    bias_filler {
      type: "constant"
      value: 0.2
    }
  }
}
layer {
  name: "inception_3b/relu_5x5"
  type: "ReLU"
  bottom: "inception_3b/5x5"
  top: "inception_3b/5x5"
}
layer {
  name: "inception_3b/pool"
  type: "Pooling"
  bottom: "inception_3a/output"
  top: "inception_3b/pool"
  pooling_param {
    pool: MAX
    kernel_size: 3
    stride: 1
    pad: 1
  }
}
layer {
  name: "inception_3b/pool_proj"
  type: "Convolution"
  bottom: "inception_3b/pool"
  top: "inception_3b/pool_proj"
  param {
    lr_mult: 1
    decay_mult: 1
  }
  param {
    lr_mult: 2
    decay_mult: 0
  }
  convolution_param {
    num_output: 64
    kernel_size: 1
    weight_filler {
      type: "xavier"
      std: 0.1
    }
    bias_filler {
      type: "constant"
      value: 0.2
    }
  }
}
layer {
  name: "inception_3b/relu_pool_proj"
  type: "ReLU"
  bottom: "inception_3b/pool_proj"
  top: "inception_3b/pool_proj"
}
layer {
  name: "inception_3b/output"
  type: "Concat"
  bottom: "inception_3b/1x1"
  bottom: "inception_3b/3x3"
  bottom: "inception_3b/5x5"
  bottom: "inception_3b/pool_proj"
  top: "inception_3b/output"
}
layer {
  name: "pool3/3x3_s2"
  type: "Pooling"
  bottom: "inception_3b/output"
  top: "pool3/3x3_s2"
  pooling_param {
    pool: MAX
    kernel_size: 3
    stride: 2
  }
}
layer {
  name: "inception_4a/1x1"
  type: "Convolution"
  bottom: "pool3/3x3_s2"
  top: "inception_4a/1x1"
  param {
    lr_mult: 1
    decay_mult: 1
  }
  param {
    lr_mult: 2
    decay_mult: 0
  }
  convolution_param {
    num_output: 192
    kernel_size: 1
    weight_filler {
      type: "xavier"
      std: 0.03
    }
    bias_filler {
      type: "constant"
      value: 0.2
    }
  }
}
layer {
  name: "inception_4a/relu_1x1"
  type: "ReLU"
  bottom: "inception_4a/1x1"
  top: "inception_4a/1x1"
}
layer {
  name: "inception_4a/3x3_reduce"
  type: "Convolution"
  bottom: "pool3/3x3_s2"
  top: "inception_4a/3x3_reduce"
  param {
    lr_mult: 1
    decay_mult: 1
  }
  param {
    lr_mult: 2
    decay_mult: 0
  }
  convolution_param {
    num_output: 96
    kernel_size: 1
    weight_filler {
      type: "xavier"
      std: 0.09
    }
    bias_filler {
      type: "constant"
      value: 0.2
    }
  }
}
layer {
  name: "inception_4a/relu_3x3_reduce"
  type: "ReLU"
  bottom: "inception_4a/3x3_reduce"
  top: "inception_4a/3x3_reduce"
}
layer {
  name: "inception_4a/3x3"
  type: "Convolution"
  bottom: "inception_4a/3x3_reduce"
  top: "inception_4a/3x3"
  param {
    lr_mult: 1
    decay_mult: 1
  }
  param {
    lr_mult: 2
    decay_mult: 0
  }
  convolution_param {
    num_output: 208
    pad: 1
    kernel_size: 3
    weight_filler {
      type: "xavier"
      std: 0.03
    }
    bias_filler {
      type: "constant"
      value: 0.2
    }
  }
}
layer {
  name: "inception_4a/relu_3x3"
  type: "ReLU"
  bottom: "inception_4a/3x3"
  top: "inception_4a/3x3"
}
layer {
  name: "inception_4a/5x5_reduce"
  type: "Convolution"
  bottom: "pool3/3x3_s2"
  top: "inception_4a/5x5_reduce"
  param {
    lr_mult: 1
    decay_mult: 1
  }
  param {
    lr_mult: 2
    decay_mult: 0
  }
  convolution_param {
    num_output: 16
    kernel_size: 1
    weight_filler {
      type: "xavier"
      std: 0.2
    }
    bias_filler {
      type: "constant"
      value: 0.2
    }
  }
}
layer {
  name: "inception_4a/relu_5x5_reduce"
  type: "ReLU"
  bottom: "inception_4a/5x5_reduce"
  top: "inception_4a/5x5_reduce"
}
layer {
  name: "inception_4a/5x5"
  type: "Convolution"
  bottom: "inception_4a/5x5_reduce"
  top: "inception_4a/5x5"
  param {
    lr_mult: 1
    decay_mult: 1
  }
  param {
    lr_mult: 2
    decay_mult: 0
  }
  convolution_param {
    num_output: 48
    pad: 2
    kernel_size: 5
    weight_filler {
      type: "xavier"
      std: 0.03
    }
    bias_filler {
      type: "constant"
      value: 0.2
    }
  }
}
layer {
  name: "inception_4a/relu_5x5"
  type: "ReLU"
  bottom: "inception_4a/5x5"
  top: "inception_4a/5x5"
}
layer {
  name: "inception_4a/pool"
  type: "Pooling"
  bottom: "pool3/3x3_s2"
  top: "inception_4a/pool"
  pooling_param {
    pool: MAX
    kernel_size: 3
    stride: 1
    pad: 1
  }
}
layer {
  name: "inception_4a/pool_proj"
  type: "Convolution"
  bottom: "inception_4a/pool"
  top: "inception_4a/pool_proj"
  param {
    lr_mult: 1
    decay_mult: 1
  }
  param {
    lr_mult: 2
    decay_mult: 0
  }
  convolution_param {
    num_output: 64
    kernel_size: 1
    weight_filler {
      type: "xavier"
      std: 0.1
    }
    bias_filler {
      type: "constant"
      value: 0.2
    }
  }
}
layer {
  name: "inception_4a/relu_pool_proj"
  type: "ReLU"
  bottom: "inception_4a/pool_proj"
  top: "inception_4a/pool_proj"
}
layer {
  name: "inception_4a/output"
  type: "Concat"
  bottom: "inception_4a/1x1"
  bottom: "inception_4a/3x3"
  bottom: "inception_4a/5x5"
  bottom: "inception_4a/pool_proj"
  top: "inception_4a/output"
}
layer {
  name: "loss1/ave_pool"
  type: "Pooling"
  bottom: "inception_4a/output"
  top: "loss1/ave_pool"
  pooling_param {
    pool: AVE
    kernel_size: 5
    stride: 3
  }
}
layer {
  name: "loss1/conv"
  type: "Convolution"
  bottom: "loss1/ave_pool"
  top: "loss1/conv"
  param {
    lr_mult: 1
    decay_mult: 1
  }
  param {
    lr_mult: 2
    decay_mult: 0
  }
  convolution_param {
    num_output: 128
    kernel_size: 1
    weight_filler {
      type: "xavier"
      std: 0.08
    }
    bias_filler {
      type: "constant"
      value: 0.2
    }
  }
}
layer {
  name: "loss1/relu_conv"
  type: "ReLU"
  bottom: "loss1/conv"
  top: "loss1/conv"
}
layer {
  name: "loss1/fc"
  type: "InnerProduct"
  bottom: "loss1/conv"
  top: "loss1/fc"
  param {
    lr_mult: 1
    decay_mult: 1
  }
  param {
    lr_mult: 2
    decay_mult: 0
  }
  inner_product_param {
    num_output: 1024
    weight_filler {
      type: "xavier"
      std: 0.02
    }
    bias_filler {
      type: "constant"
      value: 0.2
    }
  }
}
layer {
  name: "loss1/relu_fc"
  type: "ReLU"
  bottom: "loss1/fc"
  top: "loss1/fc"
}
layer {
  name: "loss1/drop_fc"
  type: "Dropout"
  bottom: "loss1/fc"
  top: "loss1/fc"
  dropout_param {
    dropout_ratio: 0.7
  }
}
layer {
  name: "loss1/classifier_plantvillage"
  type: "InnerProduct"
  bottom: "loss1/fc"
  top: "loss1/classifier_plantvillage"
  param {
    lr_mult: 1
    decay_mult: 1
  }
  param {
    lr_mult: 2
    decay_mult: 0
  }
  inner_product_param {
    num_output: 38
    weight_filler {
      type: "xavier"
      std: 0.0009765625
    }
    bias_filler {
      type: "constant"
      value: 0
    }
  }
}
layer {
  name: "inception_4b/1x1"
  type: "Convolution"
  bottom: "inception_4a/output"
  top: "inception_4b/1x1"
  param {
    lr_mult: 1
    decay_mult: 1
  }
  param {
    lr_mult: 2
    decay_mult: 0
  }
  convolution_param {
    num_output: 160
    kernel_size: 1
    weight_filler {
      type: "xavier"
      std: 0.03
    }
    bias_filler {
      type: "constant"
      value: 0.2
    }
  }
}
layer {
  name: "inception_4b/relu_1x1"
  type: "ReLU"
  bottom: "inception_4b/1x1"
  top: "inception_4b/1x1"
}
layer {
  name: "inception_4b/3x3_reduce"
  type: "Convolution"
  bottom: "inception_4a/output"
  top: "inception_4b/3x3_reduce"
  param {
    lr_mult: 1
    decay_mult: 1
  }
  param {
    lr_mult: 2
    decay_mult: 0
  }
  convolution_param {
    num_output: 112
    kernel_size: 1
    weight_filler {
      type: "xavier"
      std: 0.09
    }
    bias_filler {
      type: "constant"
      value: 0.2
    }
  }
}
layer {
  name: "inception_4b/relu_3x3_reduce"
  type: "ReLU"
  bottom: "inception_4b/3x3_reduce"
  top: "inception_4b/3x3_reduce"
}
layer {
  name: "inception_4b/3x3"
  type: "Convolution"
  bottom: "inception_4b/3x3_reduce"
  top: "inception_4b/3x3"
  param {
    lr_mult: 1
    decay_mult: 1
  }
  param {
    lr_mult: 2
    decay_mult: 0
  }
  convolution_param {
    num_output: 224
    pad: 1
    kernel_size: 3
    weight_filler {
      type: "xavier"
      std: 0.03
    }
    bias_filler {
      type: "constant"
      value: 0.2
    }
  }
}
layer {
  name: "inception_4b/relu_3x3"
  type: "ReLU"
  bottom: "inception_4b/3x3"
  top: "inception_4b/3x3"
}
layer {
  name: "inception_4b/5x5_reduce"
  type: "Convolution"
  bottom: "inception_4a/output"
  top: "inception_4b/5x5_reduce"
  param {
    lr_mult: 1
    decay_mult: 1
  }
  param {
    lr_mult: 2
    decay_mult: 0
  }
  convolution_param {
    num_output: 24
    kernel_size: 1
    weight_filler {
      type: "xavier"
      std: 0.2
    }
    bias_filler {
      type: "constant"
      value: 0.2
    }
  }
}
layer {
  name: "inception_4b/relu_5x5_reduce"
  type: "ReLU"
  bottom: "inception_4b/5x5_reduce"
  top: "inception_4b/5x5_reduce"
}
layer {
  name: "inception_4b/5x5"
  type: "Convolution"
  bottom: "inception_4b/5x5_reduce"
  top: "inception_4b/5x5"
  param {
    lr_mult: 1
    decay_mult: 1
  }
  param {
    lr_mult: 2
    decay_mult: 0
  }
  convolution_param {
    num_output: 64
    pad: 2
    kernel_size: 5
    weight_filler {
      type: "xavier"
      std: 0.03
    }
    bias_filler {
      type: "constant"
      value: 0.2
    }
  }
}
layer {
  name: "inception_4b/relu_5x5"
  type: "ReLU"
  bottom: "inception_4b/5x5"
  top: "inception_4b/5x5"
}
layer {
  name: "inception_4b/pool"
  type: "Pooling"
  bottom: "inception_4a/output"
  top: "inception_4b/pool"
  pooling_param {
    pool: MAX
    kernel_size: 3
    stride: 1
    pad: 1
  }
}
layer {
  name: "inception_4b/pool_proj"
  type: "Convolution"
  bottom: "inception_4b/pool"
  top: "inception_4b/pool_proj"
  param {
    lr_mult: 1
    decay_mult: 1
  }
  param {
    lr_mult: 2
    decay_mult: 0
  }
  convolution_param {
    num_output: 64
    kernel_size: 1
    weight_filler {
      type: "xavier"
      std: 0.1
    }
    bias_filler {
      type: "constant"
      value: 0.2
    }
  }
}
layer {
  name: "inception_4b/relu_pool_proj"
  type: "ReLU"
  bottom: "inception_4b/pool_proj"
  top: "inception_4b/pool_proj"
}
layer {
  name: "inception_4b/output"
  type: "Concat"
  bottom: "inception_4b/1x1"
  bottom: "inception_4b/3x3"
  bottom: "inception_4b/5x5"
  bottom: "inception_4b/pool_proj"
  top: "inception_4b/output"
}
layer {
  name: "inception_4c/1x1"
  type: "Convolution"
  bottom: "inception_4b/output"
  top: "inception_4c/1x1"
  param {
    lr_mult: 1
    decay_mult: 1
  }
  param {
    lr_mult: 2
    decay_mult: 0
  }
  convolution_param {
    num_output: 128
    kernel_size: 1
    weight_filler {
      type: "xavier"
      std: 0.03
    }
    bias_filler {
      type: "constant"
      value: 0.2
    }
  }
}
layer {
  name: "inception_4c/relu_1x1"
  type: "ReLU"
  bottom: "inception_4c/1x1"
  top: "inception_4c/1x1"
}
layer {
  name: "inception_4c/3x3_reduce"
  type: "Convolution"
  bottom: "inception_4b/output"
  top: "inception_4c/3x3_reduce"
  param {
    lr_mult: 1
    decay_mult: 1
  }
  param {
    lr_mult: 2
    decay_mult: 0
  }
  convolution_param {
    num_output: 128
    kernel_size: 1
    weight_filler {
      type: "xavier"
      std: 0.09
    }
    bias_filler {
      type: "constant"
      value: 0.2
    }
  }
}
layer {
  name: "inception_4c/relu_3x3_reduce"
  type: "ReLU"
  bottom: "inception_4c/3x3_reduce"
  top: "inception_4c/3x3_reduce"
}
layer {
  name: "inception_4c/3x3"
  type: "Convolution"
  bottom: "inception_4c/3x3_reduce"
  top: "inception_4c/3x3"
  param {
    lr_mult: 1
    decay_mult: 1
  }
  param {
    lr_mult: 2
    decay_mult: 0
  }
  convolution_param {
    num_output: 256
    pad: 1
    kernel_size: 3
    weight_filler {
      type: "xavier"
      std: 0.03
    }
    bias_filler {
      type: "constant"
      value: 0.2
    }
  }
}
layer {
  name: "inception_4c/relu_3x3"
  type: "ReLU"
  bottom: "inception_4c/3x3"
  top: "inception_4c/3x3"
}
layer {
  name: "inception_4c/5x5_reduce"
  type: "Convolution"
  bottom: "inception_4b/output"
  top: "inception_4c/5x5_reduce"
  param {
    lr_mult: 1
    decay_mult: 1
  }
  param {
    lr_mult: 2
    decay_mult: 0
  }
  convolution_param {
    num_output: 24
    kernel_size: 1
    weight_filler {
      type: "xavier"
      std: 0.2
    }
    bias_filler {
      type: "constant"
      value: 0.2
    }
  }
}
layer {
  name: "inception_4c/relu_5x5_reduce"
  type: "ReLU"
  bottom: "inception_4c/5x5_reduce"
  top: "inception_4c/5x5_reduce"
}
layer {
  name: "inception_4c/5x5"
  type: "Convolution"
  bottom: "inception_4c/5x5_reduce"
  top: "inception_4c/5x5"
  param {
    lr_mult: 1
    decay_mult: 1
  }
  param {
    lr_mult: 2
    decay_mult: 0
  }
  convolution_param {
    num_output: 64
    pad: 2
    kernel_size: 5
    weight_filler {
      type: "xavier"
      std: 0.03
    }
    bias_filler {
      type: "constant"
      value: 0.2
    }
  }
}
layer {
  name: "inception_4c/relu_5x5"
  type: "ReLU"
  bottom: "inception_4c/5x5"
  top: "inception_4c/5x5"
}
layer {
  name: "inception_4c/pool"
  type: "Pooling"
  bottom: "inception_4b/output"
  top: "inception_4c/pool"
  pooling_param {
    pool: MAX
    kernel_size: 3
    stride: 1
    pad: 1
  }
}
layer {
  name: "inception_4c/pool_proj"
  type: "Convolution"
  bottom: "inception_4c/pool"
  top: "inception_4c/pool_proj"
  param {
    lr_mult: 1
    decay_mult: 1
  }
  param {
    lr_mult: 2
    decay_mult: 0
  }
  convolution_param {
    num_output: 64
    kernel_size: 1
    weight_filler {
      type: "xavier"
      std: 0.1
    }
    bias_filler {
      type: "constant"
      value: 0.2
    }
  }
}
layer {
  name: "inception_4c/relu_pool_proj"
  type: "ReLU"
  bottom: "inception_4c/pool_proj"
  top: "inception_4c/pool_proj"
}
layer {
  name: "inception_4c/output"
  type: "Concat"
  bottom: "inception_4c/1x1"
  bottom: "inception_4c/3x3"
  bottom: "inception_4c/5x5"
  bottom: "inception_4c/pool_proj"
  top: "inception_4c/output"
}
layer {
  name: "inception_4d/1x1"
  type: "Convolution"
  bottom: "inception_4c/output"
  top: "inception_4d/1x1"
  param {
    lr_mult: 1
    decay_mult: 1
  }
  param {
    lr_mult: 2
    decay_mult: 0
  }
  convolution_param {
    num_output: 112
    kernel_size: 1
    weight_filler {
      type: "xavier"
      std: 0.03
    }
    bias_filler {
      type: "constant"
      value: 0.2
    }
  }
}
layer {
  name: "inception_4d/relu_1x1"
  type: "ReLU"
  bottom: "inception_4d/1x1"
  top: "inception_4d/1x1"
}
layer {
  name: "inception_4d/3x3_reduce"
  type: "Convolution"
  bottom: "inception_4c/output"
  top: "inception_4d/3x3_reduce"
  param {
    lr_mult: 1
    decay_mult: 1
  }
  param {
    lr_mult: 2
    decay_mult: 0
  }
  convolution_param {
    num_output: 144
    kernel_size: 1
    weight_filler {
      type: "xavier"
      std: 0.09
    }
    bias_filler {
      type: "constant"
      value: 0.2
    }
  }
}
layer {
  name: "inception_4d/relu_3x3_reduce"
  type: "ReLU"
  bottom: "inception_4d/3x3_reduce"
  top: "inception_4d/3x3_reduce"
}
layer {
  name: "inception_4d/3x3"
  type: "Convolution"
  bottom: "inception_4d/3x3_reduce"
  top: "inception_4d/3x3"
  param {
    lr_mult: 1
    decay_mult: 1
  }
  param {
    lr_mult: 2
    decay_mult: 0
  }
  convolution_param {
    num_output: 288
    pad: 1
    kernel_size: 3
    weight_filler {
      type: "xavier"
      std: 0.03
    }
    bias_filler {
      type: "constant"
      value: 0.2
    }
  }
}
layer {
  name: "inception_4d/relu_3x3"
  type: "ReLU"
  bottom: "inception_4d/3x3"
  top: "inception_4d/3x3"
}
layer {
  name: "inception_4d/5x5_reduce"
  type: "Convolution"
  bottom: "inception_4c/output"
  top: "inception_4d/5x5_reduce"
  param {
    lr_mult: 1
    decay_mult: 1
  }
  param {
    lr_mult: 2
    decay_mult: 0
  }
  convolution_param {
    num_output: 32
    kernel_size: 1
    weight_filler {
      type: "xavier"
      std: 0.2
    }
    bias_filler {
      type: "constant"
      value: 0.2
    }
  }
}
layer {
  name: "inception_4d/relu_5x5_reduce"
  type: "ReLU"
  bottom: "inception_4d/5x5_reduce"
  top: "inception_4d/5x5_reduce"
}
layer {
  name: "inception_4d/5x5"
  type: "Convolution"
  bottom: "inception_4d/5x5_reduce"
  top: "inception_4d/5x5"
  param {
    lr_mult: 1
    decay_mult: 1
  }
  param {
    lr_mult: 2
    decay_mult: 0
  }
  convolution_param {
    num_output: 64
    pad: 2
    kernel_size: 5
    weight_filler {
      type: "xavier"
      std: 0.03
    }
    bias_filler {
      type: "constant"
      value: 0.2
    }
  }
}
layer {
  name: "inception_4d/relu_5x5"
  type: "ReLU"
  bottom: "inception_4d/5x5"
  top: "inception_4d/5x5"
}
layer {
  name: "inception_4d/pool"
  type: "Pooling"
  bottom: "inception_4c/output"
  top: "inception_4d/pool"
  pooling_param {
    pool: MAX
    kernel_size: 3
    stride: 1
    pad: 1
  }
}
layer {
  name: "inception_4d/pool_proj"
  type: "Convolution"
  bottom: "inception_4d/pool"
  top: "inception_4d/pool_proj"
  param {
    lr_mult: 1
    decay_mult: 1
  }
  param {
    lr_mult: 2
    decay_mult: 0
  }
  convolution_param {
    num_output: 64
    kernel_size: 1
    weight_filler {
      type: "xavier"
      std: 0.1
    }
    bias_filler {
      type: "constant"
      value: 0.2
    }
  }
}
layer {
  name: "inception_4d/relu_pool_proj"
  type: "ReLU"
  bottom: "inception_4d/pool_proj"
  top: "inception_4d/pool_proj"
}
layer {
  name: "inception_4d/output"
  type: "Concat"
  bottom: "inception_4d/1x1"
  bottom: "inception_4d/3x3"
  bottom: "inception_4d/5x5"
  bottom: "inception_4d/pool_proj"
  top: "inception_4d/output"
}
layer {
  name: "loss2/ave_pool"
  type: "Pooling"
  bottom: "inception_4d/output"
  top: "loss2/ave_pool"
  pooling_param {
    pool: AVE
    kernel_size: 5
    stride: 3
  }
}
layer {
  name: "loss2/conv"
  type: "Convolution"
  bottom: "loss2/ave_pool"
  top: "loss2/conv"
  param {
    lr_mult: 1
    decay_mult: 1
  }
  param {
    lr_mult: 2
    decay_mult: 0
  }
  convolution_param {
    num_output: 128
    kernel_size: 1
    weight_filler {
      type: "xavier"
      std: 0.08
    }
    bias_filler {
      type: "constant"
      value: 0.2
    }
  }
}
layer {
  name: "loss2/relu_conv"
  type: "ReLU"
  bottom: "loss2/conv"
  top: "loss2/conv"
}
layer {
  name: "loss2/fc"
  type: "InnerProduct"
  bottom: "loss2/conv"
  top: "loss2/fc"
  param {
    lr_mult: 1
    decay_mult: 1
  }
  param {
    lr_mult: 2
    decay_mult: 0
  }
  inner_product_param {
    num_output: 1024
    weight_filler {
      type: "xavier"
      std: 0.02
    }
    bias_filler {
      type: "constant"
      value: 0.2
    }
  }
}
layer {
  name: "loss2/relu_fc"
  type: "ReLU"
  bottom: "loss2/fc"
  top: "loss2/fc"
}
layer {
  name: "loss2/drop_fc"
  type: "Dropout"
  bottom: "loss2/fc"
  top: "loss2/fc"
  dropout_param {
    dropout_ratio: 0.7
  }
}
layer {
  name: "loss2/classifier_plantvillage"
  type: "InnerProduct"
  bottom: "loss2/fc"
  top: "loss2/classifier_plantvillage"
  param {
    lr_mult: 1
    decay_mult: 1
  }
  param {
    lr_mult: 2
    decay_mult: 0
  }
  inner_product_param {
    num_output: 38
    weight_filler {
      type: "xavier"
      std: 0.0009765625
    }
    bias_filler {
      type: "constant"
      value: 0
    }
  }
}
layer {
  name: "inception_4e/1x1"
  type: "Convolution"
  bottom: "inception_4d/output"
  top: "inception_4e/1x1"
  param {
    lr_mult: 1
    decay_mult: 1
  }
  param {
    lr_mult: 2
    decay_mult: 0
  }
  convolution_param {
    num_output: 256
    kernel_size: 1
    weight_filler {
      type: "xavier"
      std: 0.03
    }
    bias_filler {
      type: "constant"
      value: 0.2
    }
  }
}
layer {
  name: "inception_4e/relu_1x1"
  type: "ReLU"
  bottom: "inception_4e/1x1"
  top: "inception_4e/1x1"
}
layer {
  name: "inception_4e/3x3_reduce"
  type: "Convolution"
  bottom: "inception_4d/output"
  top: "inception_4e/3x3_reduce"
  param {
    lr_mult: 1
    decay_mult: 1
  }
  param {
    lr_mult: 2
    decay_mult: 0
  }
  convolution_param {
    num_output: 160
    kernel_size: 1
    weight_filler {
      type: "xavier"
      std: 0.09
    }
    bias_filler {
      type: "constant"
      value: 0.2
    }
  }
}
layer {
  name: "inception_4e/relu_3x3_reduce"
  type: "ReLU"
  bottom: "inception_4e/3x3_reduce"
  top: "inception_4e/3x3_reduce"
}
layer {
  name: "inception_4e/3x3"
  type: "Convolution"
  bottom: "inception_4e/3x3_reduce"
  top: "inception_4e/3x3"
  param {
    lr_mult: 1
    decay_mult: 1
  }
  param {
    lr_mult: 2
    decay_mult: 0
  }
  convolution_param {
    num_output: 320
    pad: 1
    kernel_size: 3
    weight_filler {
      type: "xavier"
      std: 0.03
    }
    bias_filler {
      type: "constant"
      value: 0.2
    }
  }
}
layer {
  name: "inception_4e/relu_3x3"
  type: "ReLU"
  bottom: "inception_4e/3x3"
  top: "inception_4e/3x3"
}
layer {
  name: "inception_4e/5x5_reduce"
  type: "Convolution"
  bottom: "inception_4d/output"
  top: "inception_4e/5x5_reduce"
  param {
    lr_mult: 1
    decay_mult: 1
  }
  param {
    lr_mult: 2
    decay_mult: 0
  }
  convolution_param {
    num_output: 32
    kernel_size: 1
    weight_filler {
      type: "xavier"
      std: 0.2
    }
    bias_filler {
      type: "constant"
      value: 0.2
    }
  }
}
layer {
  name: "inception_4e/relu_5x5_reduce"
  type: "ReLU"
  bottom: "inception_4e/5x5_reduce"
  top: "inception_4e/5x5_reduce"
}
layer {
  name: "inception_4e/5x5"
  type: "Convolution"
  bottom: "inception_4e/5x5_reduce"
  top: "inception_4e/
I0403 14:59:28.909623 30837 layer_factory.hpp:77] Creating layer data
I0403 14:59:28.910230 30837 net.cpp:91] Creating Layer data
I0403 14:59:28.910260 30837 net.cpp:399] data -> data
I0403 14:59:28.910320 30837 net.cpp:399] data -> label
I0403 14:59:28.910359 30837 data_transformer.cpp:25] Loading mean file from: /home/mohanty/data/final_dataset/lmdb/grayscale-80-20/mean.binaryproto
I0403 14:59:28.966425 30842 db_lmdb.cpp:38] Opened lmdb /home/mohanty/data/final_dataset/lmdb/grayscale-80-20/test_db
I0403 14:59:29.020469 30837 data_layer.cpp:41] output data size: 24,3,224,224
I0403 14:59:29.049221 30837 net.cpp:141] Setting up data
I0403 14:59:29.049305 30837 net.cpp:148] Top shape: 24 3 224 224 (3612672)
I0403 14:59:29.049330 30837 net.cpp:148] Top shape: 24 (24)
I0403 14:59:29.049350 30837 net.cpp:156] Memory required for data: 14450784
I0403 14:59:29.049381 30837 layer_factory.hpp:77] Creating layer label_data_1_split
I0403 14:59:29.049410 30837 net.cpp:91] Creating Layer label_data_1_split
I0403 14:59:29.049443 30837 net.cpp:425] label_data_1_split <- label
I0403 14:59:29.049499 30837 net.cpp:399] label_data_1_split -> label_data_1_split_0
I0403 14:59:29.049530 30837 net.cpp:399] label_data_1_split -> label_data_1_split_1
I0403 14:59:29.049589 30837 net.cpp:399] label_data_1_split -> label_data_1_split_2
I0403 14:59:29.049614 30837 net.cpp:399] label_data_1_split -> label_data_1_split_3
I0403 14:59:29.049657 30837 net.cpp:399] label_data_1_split -> label_data_1_split_4
I0403 14:59:29.049679 30837 net.cpp:399] label_data_1_split -> label_data_1_split_5
I0403 14:59:29.049707 30837 net.cpp:399] label_data_1_split -> label_data_1_split_6
I0403 14:59:29.049728 30837 net.cpp:399] label_data_1_split -> label_data_1_split_7
I0403 14:59:29.049748 30837 net.cpp:399] label_data_1_split -> label_data_1_split_8
I0403 14:59:29.049768 30837 net.cpp:399] label_data_1_split -> label_data_1_split_9
I0403 14:59:29.049892 30837 net.cpp:141] Setting up label_data_1_split
I0403 14:59:29.049916 30837 net.cpp:148] Top shape: 24 (24)
I0403 14:59:29.049934 30837 net.cpp:148] Top shape: 24 (24)
I0403 14:59:29.049950 30837 net.cpp:148] Top shape: 24 (24)
I0403 14:59:29.049968 30837 net.cpp:148] Top shape: 24 (24)
I0403 14:59:29.049983 30837 net.cpp:148] Top shape: 24 (24)
I0403 14:59:29.049998 30837 net.cpp:148] Top shape: 24 (24)
I0403 14:59:29.050014 30837 net.cpp:148] Top shape: 24 (24)
I0403 14:59:29.050031 30837 net.cpp:148] Top shape: 24 (24)
I0403 14:59:29.050071 30837 net.cpp:148] Top shape: 24 (24)
I0403 14:59:29.050101 30837 net.cpp:148] Top shape: 24 (24)
I0403 14:59:29.050166 30837 net.cpp:156] Memory required for data: 14451744
I0403 14:59:29.050187 30837 layer_factory.hpp:77] Creating layer conv1/7x7_s2
I0403 14:59:29.050231 30837 net.cpp:91] Creating Layer conv1/7x7_s2
I0403 14:59:29.050271 30837 net.cpp:425] conv1/7x7_s2 <- data
I0403 14:59:29.050292 30837 net.cpp:399] conv1/7x7_s2 -> conv1/7x7_s2
I0403 14:59:29.196425 30837 net.cpp:141] Setting up conv1/7x7_s2
I0403 14:59:29.196507 30837 net.cpp:148] Top shape: 24 64 112 112 (19267584)
I0403 14:59:29.196524 30837 net.cpp:156] Memory required for data: 91522080
I0403 14:59:29.196566 30837 layer_factory.hpp:77] Creating layer conv1/relu_7x7
I0403 14:59:29.196598 30837 net.cpp:91] Creating Layer conv1/relu_7x7
I0403 14:59:29.196616 30837 net.cpp:425] conv1/relu_7x7 <- conv1/7x7_s2
I0403 14:59:29.196636 30837 net.cpp:386] conv1/relu_7x7 -> conv1/7x7_s2 (in-place)
I0403 14:59:29.196897 30837 net.cpp:141] Setting up conv1/relu_7x7
I0403 14:59:29.196925 30837 net.cpp:148] Top shape: 24 64 112 112 (19267584)
I0403 14:59:29.196940 30837 net.cpp:156] Memory required for data: 168592416
I0403 14:59:29.196956 30837 layer_factory.hpp:77] Creating layer pool1/3x3_s2
I0403 14:59:29.196984 30837 net.cpp:91] Creating Layer pool1/3x3_s2
I0403 14:59:29.197002 30837 net.cpp:425] pool1/3x3_s2 <- conv1/7x7_s2
I0403 14:59:29.197021 30837 net.cpp:399] pool1/3x3_s2 -> pool1/3x3_s2
I0403 14:59:29.197099 30837 net.cpp:141] Setting up pool1/3x3_s2
I0403 14:59:29.197124 30837 net.cpp:148] Top shape: 24 64 56 56 (4816896)
I0403 14:59:29.197139 30837 net.cpp:156] Memory required for data: 187860000
I0403 14:59:29.197154 30837 layer_factory.hpp:77] Creating layer pool1/norm1
I0403 14:59:29.197178 30837 net.cpp:91] Creating Layer pool1/norm1
I0403 14:59:29.197196 30837 net.cpp:425] pool1/norm1 <- pool1/3x3_s2
I0403 14:59:29.197213 30837 net.cpp:399] pool1/norm1 -> pool1/norm1
I0403 14:59:29.197502 30837 net.cpp:141] Setting up pool1/norm1
I0403 14:59:29.197530 30837 net.cpp:148] Top shape: 24 64 56 56 (4816896)
I0403 14:59:29.197554 30837 net.cpp:156] Memory required for data: 207127584
I0403 14:59:29.197573 30837 layer_factory.hpp:77] Creating layer conv2/3x3_reduce
I0403 14:59:29.197600 30837 net.cpp:91] Creating Layer conv2/3x3_reduce
I0403 14:59:29.197618 30837 net.cpp:425] conv2/3x3_reduce <- pool1/norm1
I0403 14:59:29.197638 30837 net.cpp:399] conv2/3x3_reduce -> conv2/3x3_reduce
I0403 14:59:29.199128 30837 net.cpp:141] Setting up conv2/3x3_reduce
I0403 14:59:29.199163 30837 net.cpp:148] Top shape: 24 64 56 56 (4816896)
I0403 14:59:29.199179 30837 net.cpp:156] Memory required for data: 226395168
I0403 14:59:29.199201 30837 layer_factory.hpp:77] Creating layer conv2/relu_3x3_reduce
I0403 14:59:29.199223 30837 net.cpp:91] Creating Layer conv2/relu_3x3_reduce
I0403 14:59:29.199239 30837 net.cpp:425] conv2/relu_3x3_reduce <- conv2/3x3_reduce
I0403 14:59:29.199255 30837 net.cpp:386] conv2/relu_3x3_reduce -> conv2/3x3_reduce (in-place)
I0403 14:59:29.199518 30837 net.cpp:141] Setting up conv2/relu_3x3_reduce
I0403 14:59:29.199545 30837 net.cpp:148] Top shape: 24 64 56 56 (4816896)
I0403 14:59:29.199560 30837 net.cpp:156] Memory required for data: 245662752
I0403 14:59:29.199578 30837 layer_factory.hpp:77] Creating layer conv2/3x3
I0403 14:59:29.199600 30837 net.cpp:91] Creating Layer conv2/3x3
I0403 14:59:29.199617 30837 net.cpp:425] conv2/3x3 <- conv2/3x3_reduce
I0403 14:59:29.199636 30837 net.cpp:399] conv2/3x3 -> conv2/3x3
I0403 14:59:29.202186 30837 net.cpp:141] Setting up conv2/3x3
I0403 14:59:29.202216 30837 net.cpp:148] Top shape: 24 192 56 56 (14450688)
I0403 14:59:29.202232 30837 net.cpp:156] Memory required for data: 303465504
I0403 14:59:29.202255 30837 layer_factory.hpp:77] Creating layer conv2/relu_3x3
I0403 14:59:29.202276 30837 net.cpp:91] Creating Layer conv2/relu_3x3
I0403 14:59:29.202293 30837 net.cpp:425] conv2/relu_3x3 <- conv2/3x3
I0403 14:59:29.202311 30837 net.cpp:386] conv2/relu_3x3 -> conv2/3x3 (in-place)
I0403 14:59:29.202489 30837 net.cpp:141] Setting up conv2/relu_3x3
I0403 14:59:29.202522 30837 net.cpp:148] Top shape: 24 192 56 56 (14450688)
I0403 14:59:29.202579 30837 net.cpp:156] Memory required for data: 361268256
I0403 14:59:29.202595 30837 layer_factory.hpp:77] Creating layer conv2/norm2
I0403 14:59:29.202615 30837 net.cpp:91] Creating Layer conv2/norm2
I0403 14:59:29.202630 30837 net.cpp:425] conv2/norm2 <- conv2/3x3
I0403 14:59:29.202651 30837 net.cpp:399] conv2/norm2 -> conv2/norm2
I0403 14:59:29.202966 30837 net.cpp:141] Setting up conv2/norm2
I0403 14:59:29.202993 30837 net.cpp:148] Top shape: 24 192 56 56 (14450688)
I0403 14:59:29.203009 30837 net.cpp:156] Memory required for data: 419071008
I0403 14:59:29.203023 30837 layer_factory.hpp:77] Creating layer pool2/3x3_s2
I0403 14:59:29.203042 30837 net.cpp:91] Creating Layer pool2/3x3_s2
I0403 14:59:29.203058 30837 net.cpp:425] pool2/3x3_s2 <- conv2/norm2
I0403 14:59:29.203078 30837 net.cpp:399] pool2/3x3_s2 -> pool2/3x3_s2
I0403 14:59:29.203132 30837 net.cpp:141] Setting up pool2/3x3_s2
I0403 14:59:29.203157 30837 net.cpp:148] Top shape: 24 192 28 28 (3612672)
I0403 14:59:29.203173 30837 net.cpp:156] Memory required for data: 433521696
I0403 14:59:29.203188 30837 layer_factory.hpp:77] Creating layer pool2/3x3_s2_pool2/3x3_s2_0_split
I0403 14:59:29.203205 30837 net.cpp:91] Creating Layer pool2/3x3_s2_pool2/3x3_s2_0_split
I0403 14:59:29.203222 30837 net.cpp:425] pool2/3x3_s2_pool2/3x3_s2_0_split <- pool2/3x3_s2
I0403 14:59:29.203239 30837 net.cpp:399] pool2/3x3_s2_pool2/3x3_s2_0_split -> pool2/3x3_s2_pool2/3x3_s2_0_split_0
I0403 14:59:29.203261 30837 net.cpp:399] pool2/3x3_s2_pool2/3x3_s2_0_split -> pool2/3x3_s2_pool2/3x3_s2_0_split_1
I0403 14:59:29.203282 30837 net.cpp:399] pool2/3x3_s2_pool2/3x3_s2_0_split -> pool2/3x3_s2_pool2/3x3_s2_0_split_2
I0403 14:59:29.203301 30837 net.cpp:399] pool2/3x3_s2_pool2/3x3_s2_0_split -> pool2/3x3_s2_pool2/3x3_s2_0_split_3
I0403 14:59:29.203377 30837 net.cpp:141] Setting up pool2/3x3_s2_pool2/3x3_s2_0_split
I0403 14:59:29.203400 30837 net.cpp:148] Top shape: 24 192 28 28 (3612672)
I0403 14:59:29.203416 30837 net.cpp:148] Top shape: 24 192 28 28 (3612672)
I0403 14:59:29.203433 30837 net.cpp:148] Top shape: 24 192 28 28 (3612672)
I0403 14:59:29.203449 30837 net.cpp:148] Top shape: 24 192 28 28 (3612672)
I0403 14:59:29.203462 30837 net.cpp:156] Memory required for data: 491324448
I0403 14:59:29.203477 30837 layer_factory.hpp:77] Creating layer inception_3a/1x1
I0403 14:59:29.203500 30837 net.cpp:91] Creating Layer inception_3a/1x1
I0403 14:59:29.203521 30837 net.cpp:425] inception_3a/1x1 <- pool2/3x3_s2_pool2/3x3_s2_0_split_0
I0403 14:59:29.203629 30837 net.cpp:399] inception_3a/1x1 -> inception_3a/1x1
I0403 14:59:29.205222 30837 net.cpp:141] Setting up inception_3a/1x1
I0403 14:59:29.205255 30837 net.cpp:148] Top shape: 24 64 28 28 (1204224)
I0403 14:59:29.205271 30837 net.cpp:156] Memory required for data: 496141344
I0403 14:59:29.205291 30837 layer_factory.hpp:77] Creating layer inception_3a/relu_1x1
I0403 14:59:29.205309 30837 net.cpp:91] Creating Layer inception_3a/relu_1x1
I0403 14:59:29.205325 30837 net.cpp:425] inception_3a/relu_1x1 <- inception_3a/1x1
I0403 14:59:29.205428 30837 net.cpp:386] inception_3a/relu_1x1 -> inception_3a/1x1 (in-place)
I0403 14:59:29.205620 30837 net.cpp:141] Setting up inception_3a/relu_1x1
I0403 14:59:29.205646 30837 net.cpp:148] Top shape: 24 64 28 28 (1204224)
I0403 14:59:29.205659 30837 net.cpp:156] Memory required for data: 500958240
I0403 14:59:29.205674 30837 layer_factory.hpp:77] Creating layer inception_3a/3x3_reduce
I0403 14:59:29.205698 30837 net.cpp:91] Creating Layer inception_3a/3x3_reduce
I0403 14:59:29.205714 30837 net.cpp:425] inception_3a/3x3_reduce <- pool2/3x3_s2_pool2/3x3_s2_0_split_1
I0403 14:59:29.205735 30837 net.cpp:399] inception_3a/3x3_reduce -> inception_3a/3x3_reduce
I0403 14:59:29.207577 30837 net.cpp:141] Setting up inception_3a/3x3_reduce
I0403 14:59:29.207608 30837 net.cpp:148] Top shape: 24 96 28 28 (1806336)
I0403 14:59:29.207624 30837 net.cpp:156] Memory required for data: 508183584
I0403 14:59:29.207648 30837 layer_factory.hpp:77] Creating layer inception_3a/relu_3x3_reduce
I0403 14:59:29.207687 30837 net.cpp:91] Creating Layer inception_3a/relu_3x3_reduce
I0403 14:59:29.207707 30837 net.cpp:425] inception_3a/relu_3x3_reduce <- inception_3a/3x3_reduce
I0403 14:59:29.207726 30837 net.cpp:386] inception_3a/relu_3x3_reduce -> inception_3a/3x3_reduce (in-place)
I0403 14:59:29.207914 30837 net.cpp:141] Setting up inception_3a/relu_3x3_reduce
I0403 14:59:29.207942 30837 net.cpp:148] Top shape: 24 96 28 28 (1806336)
I0403 14:59:29.207957 30837 net.cpp:156] Memory required for data: 515408928
I0403 14:59:29.207973 30837 layer_factory.hpp:77] Creating layer inception_3a/3x3
I0403 14:59:29.207996 30837 net.cpp:91] Creating Layer inception_3a/3x3
I0403 14:59:29.208015 30837 net.cpp:425] inception_3a/3x3 <- inception_3a/3x3_reduce
I0403 14:59:29.208036 30837 net.cpp:399] inception_3a/3x3 -> inception_3a/3x3
I0403 14:59:29.209717 30837 net.cpp:141] Setting up inception_3a/3x3
I0403 14:59:29.209745 30837 net.cpp:148] Top shape: 24 128 28 28 (2408448)
I0403 14:59:29.209760 30837 net.cpp:156] Memory required for data: 525042720
I0403 14:59:29.209779 30837 layer_factory.hpp:77] Creating layer inception_3a/relu_3x3
I0403 14:59:29.209802 30837 net.cpp:91] Creating Layer inception_3a/relu_3x3
I0403 14:59:29.209820 30837 net.cpp:425] inception_3a/relu_3x3 <- inception_3a/3x3
I0403 14:59:29.209837 30837 net.cpp:386] inception_3a/relu_3x3 -> inception_3a/3x3 (in-place)
I0403 14:59:29.210114 30837 net.cpp:141] Setting up inception_3a/relu_3x3
I0403 14:59:29.210140 30837 net.cpp:148] Top shape: 24 128 28 28 (2408448)
I0403 14:59:29.210156 30837 net.cpp:156] Memory required for data: 534676512
I0403 14:59:29.210170 30837 layer_factory.hpp:77] Creating layer inception_3a/5x5_reduce
I0403 14:59:29.210193 30837 net.cpp:91] Creating Layer inception_3a/5x5_reduce
I0403 14:59:29.210211 30837 net.cpp:425] inception_3a/5x5_reduce <- pool2/3x3_s2_pool2/3x3_s2_0_split_2
I0403 14:59:29.210233 30837 net.cpp:399] inception_3a/5x5_reduce -> inception_3a/5x5_reduce
I0403 14:59:29.211208 30837 net.cpp:141] Setting up inception_3a/5x5_reduce
I0403 14:59:29.211237 30837 net.cpp:148] Top shape: 24 16 28 28 (301056)
I0403 14:59:29.211252 30837 net.cpp:156] Memory required for data: 535880736
I0403 14:59:29.211271 30837 layer_factory.hpp:77] Creating layer inception_3a/relu_5x5_reduce
I0403 14:59:29.211292 30837 net.cpp:91] Creating Layer inception_3a/relu_5x5_reduce
I0403 14:59:29.211309 30837 net.cpp:425] inception_3a/relu_5x5_reduce <- inception_3a/5x5_reduce
I0403 14:59:29.211326 30837 net.cpp:386] inception_3a/relu_5x5_reduce -> inception_3a/5x5_reduce (in-place)
I0403 14:59:29.211637 30837 net.cpp:141] Setting up inception_3a/relu_5x5_reduce
I0403 14:59:29.211665 30837 net.cpp:148] Top shape: 24 16 28 28 (301056)
I0403 14:59:29.211681 30837 net.cpp:156] Memory required for data: 537084960
I0403 14:59:29.211696 30837 layer_factory.hpp:77] Creating layer inception_3a/5x5
I0403 14:59:29.211719 30837 net.cpp:91] Creating Layer inception_3a/5x5
I0403 14:59:29.211736 30837 net.cpp:425] inception_3a/5x5 <- inception_3a/5x5_reduce
I0403 14:59:29.211755 30837 net.cpp:399] inception_3a/5x5 -> inception_3a/5x5
I0403 14:59:29.212784 30837 net.cpp:141] Setting up inception_3a/5x5
I0403 14:59:29.212811 30837 net.cpp:148] Top shape: 24 32 28 28 (602112)
I0403 14:59:29.212826 30837 net.cpp:156] Memory required for data: 539493408
I0403 14:59:29.212844 30837 layer_factory.hpp:77] Creating layer inception_3a/relu_5x5
I0403 14:59:29.212865 30837 net.cpp:91] Creating Layer inception_3a/relu_5x5
I0403 14:59:29.212882 30837 net.cpp:425] inception_3a/relu_5x5 <- inception_3a/5x5
I0403 14:59:29.212899 30837 net.cpp:386] inception_3a/relu_5x5 -> inception_3a/5x5 (in-place)
I0403 14:59:29.213073 30837 net.cpp:141] Setting up inception_3a/relu_5x5
I0403 14:59:29.213100 30837 net.cpp:148] Top shape: 24 32 28 28 (602112)
I0403 14:59:29.213115 30837 net.cpp:156] Memory required for data: 541901856
I0403 14:59:29.213130 30837 layer_factory.hpp:77] Creating layer inception_3a/pool
I0403 14:59:29.213148 30837 net.cpp:91] Creating Layer inception_3a/pool
I0403 14:59:29.213178 30837 net.cpp:425] inception_3a/pool <- pool2/3x3_s2_pool2/3x3_s2_0_split_3
I0403 14:59:29.213198 30837 net.cpp:399] inception_3a/pool -> inception_3a/pool
I0403 14:59:29.213258 30837 net.cpp:141] Setting up inception_3a/pool
I0403 14:59:29.213280 30837 net.cpp:148] Top shape: 24 192 28 28 (3612672)
I0403 14:59:29.213295 30837 net.cpp:156] Memory required for data: 556352544
I0403 14:59:29.213310 30837 layer_factory.hpp:77] Creating layer inception_3a/pool_proj
I0403 14:59:29.213332 30837 net.cpp:91] Creating Layer inception_3a/pool_proj
I0403 14:59:29.213349 30837 net.cpp:425] inception_3a/pool_proj <- inception_3a/pool
I0403 14:59:29.213371 30837 net.cpp:399] inception_3a/pool_proj -> inception_3a/pool_proj
I0403 14:59:29.214352 30837 net.cpp:141] Setting up inception_3a/pool_proj
I0403 14:59:29.214380 30837 net.cpp:148] Top shape: 24 32 28 28 (602112)
I0403 14:59:29.214396 30837 net.cpp:156] Memory required for data: 558760992
I0403 14:59:29.214418 30837 layer_factory.hpp:77] Creating layer inception_3a/relu_pool_proj
I0403 14:59:29.214439 30837 net.cpp:91] Creating Layer inception_3a/relu_pool_proj
I0403 14:59:29.214457 30837 net.cpp:425] inception_3a/relu_pool_proj <- inception_3a/pool_proj
I0403 14:59:29.214474 30837 net.cpp:386] inception_3a/relu_pool_proj -> inception_3a/pool_proj (in-place)
I0403 14:59:29.214766 30837 net.cpp:141] Setting up inception_3a/relu_pool_proj
I0403 14:59:29.214792 30837 net.cpp:148] Top shape: 24 32 28 28 (602112)
I0403 14:59:29.214807 30837 net.cpp:156] Memory required for data: 561169440
I0403 14:59:29.214823 30837 layer_factory.hpp:77] Creating layer inception_3a/output
I0403 14:59:29.214841 30837 net.cpp:91] Creating Layer inception_3a/output
I0403 14:59:29.214856 30837 net.cpp:425] inception_3a/output <- inception_3a/1x1
I0403 14:59:29.214875 30837 net.cpp:425] inception_3a/output <- inception_3a/3x3
I0403 14:59:29.214892 30837 net.cpp:425] inception_3a/output <- inception_3a/5x5
I0403 14:59:29.214910 30837 net.cpp:425] inception_3a/output <- inception_3a/pool_proj
I0403 14:59:29.214926 30837 net.cpp:399] inception_3a/output -> inception_3a/output
I0403 14:59:29.214977 30837 net.cpp:141] Setting up inception_3a/output
I0403 14:59:29.215000 30837 net.cpp:148] Top shape: 24 256 28 28 (4816896)
I0403 14:59:29.215015 30837 net.cpp:156] Memory required for data: 580437024
I0403 14:59:29.215029 30837 layer_factory.hpp:77] Creating layer inception_3a/output_inception_3a/output_0_split
I0403 14:59:29.215047 30837 net.cpp:91] Creating Layer inception_3a/output_inception_3a/output_0_split
I0403 14:59:29.215064 30837 net.cpp:425] inception_3a/output_inception_3a/output_0_split <- inception_3a/output
I0403 14:59:29.215083 30837 net.cpp:399] inception_3a/output_inception_3a/output_0_split -> inception_3a/output_inception_3a/output_0_split_0
I0403 14:59:29.215103 30837 net.cpp:399] inception_3a/output_inception_3a/output_0_split -> inception_3a/output_inception_3a/output_0_split_1
I0403 14:59:29.215126 30837 net.cpp:399] inception_3a/output_inception_3a/output_0_split -> inception_3a/output_inception_3a/output_0_split_2
I0403 14:59:29.215149 30837 net.cpp:399] inception_3a/output_inception_3a/output_0_split -> inception_3a/output_inception_3a/output_0_split_3
I0403 14:59:29.215226 30837 net.cpp:141] Setting up inception_3a/output_inception_3a/output_0_split
I0403 14:59:29.215250 30837 net.cpp:148] Top shape: 24 256 28 28 (4816896)
I0403 14:59:29.215268 30837 net.cpp:148] Top shape: 24 256 28 28 (4816896)
I0403 14:59:29.215286 30837 net.cpp:148] Top shape: 24 256 28 28 (4816896)
I0403 14:59:29.215301 30837 net.cpp:148] Top shape: 24 256 28 28 (4816896)
I0403 14:59:29.215315 30837 net.cpp:156] Memory required for data: 657507360
I0403 14:59:29.215330 30837 layer_factory.hpp:77] Creating layer inception_3b/1x1
I0403 14:59:29.215353 30837 net.cpp:91] Creating Layer inception_3b/1x1
I0403 14:59:29.215371 30837 net.cpp:425] inception_3b/1x1 <- inception_3a/output_inception_3a/output_0_split_0
I0403 14:59:29.215392 30837 net.cpp:399] inception_3b/1x1 -> inception_3b/1x1
I0403 14:59:29.216548 30837 net.cpp:141] Setting up inception_3b/1x1
I0403 14:59:29.216588 30837 net.cpp:148] Top shape: 24 128 28 28 (2408448)
I0403 14:59:29.216604 30837 net.cpp:156] Memory required for data: 667141152
I0403 14:59:29.216622 30837 layer_factory.hpp:77] Creating layer inception_3b/relu_1x1
I0403 14:59:29.216641 30837 net.cpp:91] Creating Layer inception_3b/relu_1x1
I0403 14:59:29.216661 30837 net.cpp:425] inception_3b/relu_1x1 <- inception_3b/1x1
I0403 14:59:29.216678 30837 net.cpp:386] inception_3b/relu_1x1 -> inception_3b/1x1 (in-place)
I0403 14:59:29.216852 30837 net.cpp:141] Setting up inception_3b/relu_1x1
I0403 14:59:29.216877 30837 net.cpp:148] Top shape: 24 128 28 28 (2408448)
I0403 14:59:29.216892 30837 net.cpp:156] Memory required for data: 676774944
I0403 14:59:29.216907 30837 layer_factory.hpp:77] Creating layer inception_3b/3x3_reduce
I0403 14:59:29.216931 30837 net.cpp:91] Creating Layer inception_3b/3x3_reduce
I0403 14:59:29.216948 30837 net.cpp:425] inception_3b/3x3_reduce <- inception_3a/output_inception_3a/output_0_split_1
I0403 14:59:29.216969 30837 net.cpp:399] inception_3b/3x3_reduce -> inception_3b/3x3_reduce
I0403 14:59:29.218130 30837 net.cpp:141] Setting up inception_3b/3x3_reduce
I0403 14:59:29.218158 30837 net.cpp:148] Top shape: 24 128 28 28 (2408448)
I0403 14:59:29.218174 30837 net.cpp:156] Memory required for data: 686408736
I0403 14:59:29.218194 30837 layer_factory.hpp:77] Creating layer inception_3b/relu_3x3_reduce
I0403 14:59:29.218211 30837 net.cpp:91] Creating Layer inception_3b/relu_3x3_reduce
I0403 14:59:29.218228 30837 net.cpp:425] inception_3b/relu_3x3_reduce <- inception_3b/3x3_reduce
I0403 14:59:29.218247 30837 net.cpp:386] inception_3b/relu_3x3_reduce -> inception_3b/3x3_reduce (in-place)
I0403 14:59:29.218425 30837 net.cpp:141] Setting up inception_3b/relu_3x3_reduce
I0403 14:59:29.218449 30837 net.cpp:148] Top shape: 24 128 28 28 (2408448)
I0403 14:59:29.218466 30837 net.cpp:156] Memory required for data: 696042528
I0403 14:59:29.218480 30837 layer_factory.hpp:77] Creating layer inception_3b/3x3
I0403 14:59:29.218511 30837 net.cpp:91] Creating Layer inception_3b/3x3
I0403 14:59:29.218530 30837 net.cpp:425] inception_3b/3x3 <- inception_3b/3x3_reduce
I0403 14:59:29.218550 30837 net.cpp:399] inception_3b/3x3 -> inception_3b/3x3
I0403 14:59:29.221526 30837 net.cpp:141] Setting up inception_3b/3x3
I0403 14:59:29.221557 30837 net.cpp:148] Top shape: 24 192 28 28 (3612672)
I0403 14:59:29.221575 30837 net.cpp:156] Memory required for data: 710493216
I0403 14:59:29.221593 30837 layer_factory.hpp:77] Creating layer inception_3b/relu_3x3
I0403 14:59:29.221614 30837 net.cpp:91] Creating Layer inception_3b/relu_3x3
I0403 14:59:29.221632 30837 net.cpp:425] inception_3b/relu_3x3 <- inception_3b/3x3
I0403 14:59:29.221648 30837 net.cpp:386] inception_3b/relu_3x3 -> inception_3b/3x3 (in-place)
I0403 14:59:29.221926 30837 net.cpp:141] Setting up inception_3b/relu_3x3
I0403 14:59:29.221953 30837 net.cpp:148] Top shape: 24 192 28 28 (3612672)
I0403 14:59:29.221968 30837 net.cpp:156] Memory required for data: 724943904
I0403 14:59:29.221983 30837 layer_factory.hpp:77] Creating layer inception_3b/5x5_reduce
I0403 14:59:29.222007 30837 net.cpp:91] Creating Layer inception_3b/5x5_reduce
I0403 14:59:29.222025 30837 net.cpp:425] inception_3b/5x5_reduce <- inception_3a/output_inception_3a/output_0_split_2
I0403 14:59:29.222048 30837 net.cpp:399] inception_3b/5x5_reduce -> inception_3b/5x5_reduce
I0403 14:59:29.223053 30837 net.cpp:141] Setting up inception_3b/5x5_reduce
I0403 14:59:29.223083 30837 net.cpp:148] Top shape: 24 32 28 28 (602112)
I0403 14:59:29.223098 30837 net.cpp:156] Memory required for data: 727352352
I0403 14:59:29.223115 30837 layer_factory.hpp:77] Creating layer inception_3b/relu_5x5_reduce
I0403 14:59:29.223139 30837 net.cpp:91] Creating Layer inception_3b/relu_5x5_reduce
I0403 14:59:29.223155 30837 net.cpp:425] inception_3b/relu_5x5_reduce <- inception_3b/5x5_reduce
I0403 14:59:29.223173 30837 net.cpp:386] inception_3b/relu_5x5_reduce -> inception_3b/5x5_reduce (in-place)
I0403 14:59:29.223367 30837 net.cpp:141] Setting up inception_3b/relu_5x5_reduce
I0403 14:59:29.223394 30837 net.cpp:148] Top shape: 24 32 28 28 (602112)
I0403 14:59:29.223410 30837 net.cpp:156] Memory required for data: 729760800
I0403 14:59:29.223425 30837 layer_factory.hpp:77] Creating layer inception_3b/5x5
I0403 14:59:29.223448 30837 net.cpp:91] Creating Layer inception_3b/5x5
I0403 14:59:29.223465 30837 net.cpp:425] inception_3b/5x5 <- inception_3b/5x5_reduce
I0403 14:59:29.223484 30837 net.cpp:399] inception_3b/5x5 -> inception_3b/5x5
I0403 14:59:29.229830 30837 net.cpp:141] Setting up inception_3b/5x5
I0403 14:59:29.229861 30837 net.cpp:148] Top shape: 24 96 28 28 (1806336)
I0403 14:59:29.229877 30837 net.cpp:156] Memory required for data: 736986144
I0403 14:59:29.229897 30837 layer_factory.hpp:77] Creating layer inception_3b/relu_5x5
I0403 14:59:29.229917 30837 net.cpp:91] Creating Layer inception_3b/relu_5x5
I0403 14:59:29.229933 30837 net.cpp:425] inception_3b/relu_5x5 <- inception_3b/5x5
I0403 14:59:29.229953 30837 net.cpp:386] inception_3b/relu_5x5 -> inception_3b/5x5 (in-place)
I0403 14:59:29.230149 30837 net.cpp:141] Setting up inception_3b/relu_5x5
I0403 14:59:29.230175 30837 net.cpp:148] Top shape: 24 96 28 28 (1806336)
I0403 14:59:29.230190 30837 net.cpp:156] Memory required for data: 744211488
I0403 14:59:29.230204 30837 layer_factory.hpp:77] Creating layer inception_3b/pool
I0403 14:59:29.230223 30837 net.cpp:91] Creating Layer inception_3b/pool
I0403 14:59:29.230239 30837 net.cpp:425] inception_3b/pool <- inception_3a/output_inception_3a/output_0_split_3
I0403 14:59:29.230257 30837 net.cpp:399] inception_3b/pool -> inception_3b/pool
I0403 14:59:29.230314 30837 net.cpp:141] Setting up inception_3b/pool
I0403 14:59:29.230337 30837 net.cpp:148] Top shape: 24 256 28 28 (4816896)
I0403 14:59:29.230352 30837 net.cpp:156] Memory required for data: 763479072
I0403 14:59:29.230367 30837 layer_factory.hpp:77] Creating layer inception_3b/pool_proj
I0403 14:59:29.230391 30837 net.cpp:91] Creating Layer inception_3b/pool_proj
I0403 14:59:29.230408 30837 net.cpp:425] inception_3b/pool_proj <- inception_3b/pool
I0403 14:59:29.230429 30837 net.cpp:399] inception_3b/pool_proj -> inception_3b/pool_proj
I0403 14:59:29.231508 30837 net.cpp:141] Setting up inception_3b/pool_proj
I0403 14:59:29.231540 30837 net.cpp:148] Top shape: 24 64 28 28 (1204224)
I0403 14:59:29.231556 30837 net.cpp:156] Memory required for data: 768295968
I0403 14:59:29.231576 30837 layer_factory.hpp:77] Creating layer inception_3b/relu_pool_proj
I0403 14:59:29.231598 30837 net.cpp:91] Creating Layer inception_3b/relu_pool_proj
I0403 14:59:29.231616 30837 net.cpp:425] inception_3b/relu_pool_proj <- inception_3b/pool_proj
I0403 14:59:29.231634 30837 net.cpp:386] inception_3b/relu_pool_proj -> inception_3b/pool_proj (in-place)
I0403 14:59:29.232067 30837 net.cpp:141] Setting up inception_3b/relu_pool_proj
I0403 14:59:29.232095 30837 net.cpp:148] Top shape: 24 64 28 28 (1204224)
I0403 14:59:29.232110 30837 net.cpp:156] Memory required for data: 773112864
I0403 14:59:29.232125 30837 layer_factory.hpp:77] Creating layer inception_3b/output
I0403 14:59:29.232146 30837 net.cpp:91] Creating Layer inception_3b/output
I0403 14:59:29.232161 30837 net.cpp:425] inception_3b/output <- inception_3b/1x1
I0403 14:59:29.232178 30837 net.cpp:425] inception_3b/output <- inception_3b/3x3
I0403 14:59:29.232195 30837 net.cpp:425] inception_3b/output <- inception_3b/5x5
I0403 14:59:29.232211 30837 net.cpp:425] inception_3b/output <- inception_3b/pool_proj
I0403 14:59:29.232229 30837 net.cpp:399] inception_3b/output -> inception_3b/output
I0403 14:59:29.232275 30837 net.cpp:141] Setting up inception_3b/output
I0403 14:59:29.232298 30837 net.cpp:148] Top shape: 24 480 28 28 (9031680)
I0403 14:59:29.232313 30837 net.cpp:156] Memory required for data: 809239584
I0403 14:59:29.232328 30837 layer_factory.hpp:77] Creating layer pool3/3x3_s2
I0403 14:59:29.232347 30837 net.cpp:91] Creating Layer pool3/3x3_s2
I0403 14:59:29.232362 30837 net.cpp:425] pool3/3x3_s2 <- inception_3b/output
I0403 14:59:29.232398 30837 net.cpp:399] pool3/3x3_s2 -> pool3/3x3_s2
I0403 14:59:29.232458 30837 net.cpp:141] Setting up pool3/3x3_s2
I0403 14:59:29.232481 30837 net.cpp:148] Top shape: 24 480 14 14 (2257920)
I0403 14:59:29.232496 30837 net.cpp:156] Memory required for data: 818271264
I0403 14:59:29.232517 30837 layer_factory.hpp:77] Creating layer pool3/3x3_s2_pool3/3x3_s2_0_split
I0403 14:59:29.232538 30837 net.cpp:91] Creating Layer pool3/3x3_s2_pool3/3x3_s2_0_split
I0403 14:59:29.232554 30837 net.cpp:425] pool3/3x3_s2_pool3/3x3_s2_0_split <- pool3/3x3_s2
I0403 14:59:29.232573 30837 net.cpp:399] pool3/3x3_s2_pool3/3x3_s2_0_split -> pool3/3x3_s2_pool3/3x3_s2_0_split_0
I0403 14:59:29.232594 30837 net.cpp:399] pool3/3x3_s2_pool3/3x3_s2_0_split -> pool3/3x3_s2_pool3/3x3_s2_0_split_1
I0403 14:59:29.232614 30837 net.cpp:399] pool3/3x3_s2_pool3/3x3_s2_0_split -> pool3/3x3_s2_pool3/3x3_s2_0_split_2
I0403 14:59:29.232633 30837 net.cpp:399] pool3/3x3_s2_pool3/3x3_s2_0_split -> pool3/3x3_s2_pool3/3x3_s2_0_split_3
I0403 14:59:29.232709 30837 net.cpp:141] Setting up pool3/3x3_s2_pool3/3x3_s2_0_split
I0403 14:59:29.232735 30837 net.cpp:148] Top shape: 24 480 14 14 (2257920)
I0403 14:59:29.232753 30837 net.cpp:148] Top shape: 24 480 14 14 (2257920)
I0403 14:59:29.232769 30837 net.cpp:148] Top shape: 24 480 14 14 (2257920)
I0403 14:59:29.232784 30837 net.cpp:148] Top shape: 24 480 14 14 (2257920)
I0403 14:59:29.232798 30837 net.cpp:156] Memory required for data: 854397984
I0403 14:59:29.232813 30837 layer_factory.hpp:77] Creating layer inception_4a/1x1
I0403 14:59:29.232837 30837 net.cpp:91] Creating Layer inception_4a/1x1
I0403 14:59:29.232856 30837 net.cpp:425] inception_4a/1x1 <- pool3/3x3_s2_pool3/3x3_s2_0_split_0
I0403 14:59:29.232874 30837 net.cpp:399] inception_4a/1x1 -> inception_4a/1x1
I0403 14:59:29.234473 30837 net.cpp:141] Setting up inception_4a/1x1
I0403 14:59:29.234519 30837 net.cpp:148] Top shape: 24 192 14 14 (903168)
I0403 14:59:29.234539 30837 net.cpp:156] Memory required for data: 858010656
I0403 14:59:29.234557 30837 layer_factory.hpp:77] Creating layer inception_4a/relu_1x1
I0403 14:59:29.234577 30837 net.cpp:91] Creating Layer inception_4a/relu_1x1
I0403 14:59:29.234593 30837 net.cpp:425] inception_4a/relu_1x1 <- inception_4a/1x1
I0403 14:59:29.234613 30837 net.cpp:386] inception_4a/relu_1x1 -> inception_4a/1x1 (in-place)
I0403 14:59:29.234791 30837 net.cpp:141] Setting up inception_4a/relu_1x1
I0403 14:59:29.234817 30837 net.cpp:148] Top shape: 24 192 14 14 (903168)
I0403 14:59:29.234833 30837 net.cpp:156] Memory required for data: 861623328
I0403 14:59:29.234848 30837 layer_factory.hpp:77] Creating layer inception_4a/3x3_reduce
I0403 14:59:29.234870 30837 net.cpp:91] Creating Layer inception_4a/3x3_reduce
I0403 14:59:29.234889 30837 net.cpp:425] inception_4a/3x3_reduce <- pool3/3x3_s2_pool3/3x3_s2_0_split_1
I0403 14:59:29.234910 30837 net.cpp:399] inception_4a/3x3_reduce -> inception_4a/3x3_reduce
I0403 14:59:29.236207 30837 net.cpp:141] Setting up inception_4a/3x3_reduce
I0403 14:59:29.236238 30837 net.cpp:148] Top shape: 24 96 14 14 (451584)
I0403 14:59:29.236254 30837 net.cpp:156] Memory required for data: 863429664
I0403 14:59:29.236279 30837 layer_factory.hpp:77] Creating layer inception_4a/relu_3x3_reduce
I0403 14:59:29.236299 30837 net.cpp:91] Creating Layer inception_4a/relu_3x3_reduce
I0403 14:59:29.236315 30837 net.cpp:425] inception_4a/relu_3x3_reduce <- inception_4a/3x3_reduce
I0403 14:59:29.236332 30837 net.cpp:386] inception_4a/relu_3x3_reduce -> inception_4a/3x3_reduce (in-place)
I0403 14:59:29.236515 30837 net.cpp:141] Setting up inception_4a/relu_3x3_reduce
I0403 14:59:29.236541 30837 net.cpp:148] Top shape: 24 96 14 14 (451584)
I0403 14:59:29.236554 30837 net.cpp:156] Memory required for data: 865236000
I0403 14:59:29.236570 30837 layer_factory.hpp:77] Creating layer inception_4a/3x3
I0403 14:59:29.236593 30837 net.cpp:91] Creating Layer inception_4a/3x3
I0403 14:59:29.236610 30837 net.cpp:425] inception_4a/3x3 <- inception_4a/3x3_reduce
I0403 14:59:29.236631 30837 net.cpp:399] inception_4a/3x3 -> inception_4a/3x3
I0403 14:59:29.239358 30837 net.cpp:141] Setting up inception_4a/3x3
I0403 14:59:29.239389 30837 net.cpp:148] Top shape: 24 208 14 14 (978432)
I0403 14:59:29.239405 30837 net.cpp:156] Memory required for data: 869149728
I0403 14:59:29.239423 30837 layer_factory.hpp:77] Creating layer inception_4a/relu_3x3
I0403 14:59:29.239442 30837 net.cpp:91] Creating Layer inception_4a/relu_3x3
I0403 14:59:29.239459 30837 net.cpp:425] inception_4a/relu_3x3 <- inception_4a/3x3
I0403 14:59:29.239480 30837 net.cpp:386] inception_4a/relu_3x3 -> inception_4a/3x3 (in-place)
I0403 14:59:29.239766 30837 net.cpp:141] Setting up inception_4a/relu_3x3
I0403 14:59:29.239794 30837 net.cpp:148] Top shape: 24 208 14 14 (978432)
I0403 14:59:29.239809 30837 net.cpp:156] Memory required for data: 873063456
I0403 14:59:29.239823 30837 layer_factory.hpp:77] Creating layer inception_4a/5x5_reduce
I0403 14:59:29.239846 30837 net.cpp:91] Creating Layer inception_4a/5x5_reduce
I0403 14:59:29.239864 30837 net.cpp:425] inception_4a/5x5_reduce <- pool3/3x3_s2_pool3/3x3_s2_0_split_2
I0403 14:59:29.239886 30837 net.cpp:399] inception_4a/5x5_reduce -> inception_4a/5x5_reduce
I0403 14:59:29.240922 30837 net.cpp:141] Setting up inception_4a/5x5_reduce
I0403 14:59:29.240949 30837 net.cpp:148] Top shape: 24 16 14 14 (75264)
I0403 14:59:29.240965 30837 net.cpp:156] Memory required for data: 873364512
I0403 14:59:29.240983 30837 layer_factory.hpp:77] Creating layer inception_4a/relu_5x5_reduce
I0403 14:59:29.241004 30837 net.cpp:91] Creating Layer inception_4a/relu_5x5_reduce
I0403 14:59:29.241021 30837 net.cpp:425] inception_4a/relu_5x5_reduce <- inception_4a/5x5_reduce
I0403 14:59:29.241039 30837 net.cpp:386] inception_4a/relu_5x5_reduce -> inception_4a/5x5_reduce (in-place)
I0403 14:59:29.241215 30837 net.cpp:141] Setting up inception_4a/relu_5x5_reduce
I0403 14:59:29.241243 30837 net.cpp:148] Top shape: 24 16 14 14 (75264)
I0403 14:59:29.241260 30837 net.cpp:156] Memory required for data: 873665568
I0403 14:59:29.241274 30837 layer_factory.hpp:77] Creating layer inception_4a/5x5
I0403 14:59:29.241296 30837 net.cpp:91] Creating Layer inception_4a/5x5
I0403 14:59:29.241312 30837 net.cpp:425] inception_4a/5x5 <- inception_4a/5x5_reduce
I0403 14:59:29.241335 30837 net.cpp:399] inception_4a/5x5 -> inception_4a/5x5
I0403 14:59:29.242434 30837 net.cpp:141] Setting up inception_4a/5x5
I0403 14:59:29.242461 30837 net.cpp:148] Top shape: 24 48 14 14 (225792)
I0403 14:59:29.242477 30837 net.cpp:156] Memory required for data: 874568736
I0403 14:59:29.242496 30837 layer_factory.hpp:77] Creating layer inception_4a/relu_5x5
I0403 14:59:29.242522 30837 net.cpp:91] Creating Layer inception_4a/relu_5x5
I0403 14:59:29.242540 30837 net.cpp:425] inception_4a/relu_5x5 <- inception_4a/5x5
I0403 14:59:29.242558 30837 net.cpp:386] inception_4a/relu_5x5 -> inception_4a/5x5 (in-place)
I0403 14:59:29.242738 30837 net.cpp:141] Setting up inception_4a/relu_5x5
I0403 14:59:29.242763 30837 net.cpp:148] Top shape: 24 48 14 14 (225792)
I0403 14:59:29.242779 30837 net.cpp:156] Memory required for data: 875471904
I0403 14:59:29.242794 30837 layer_factory.hpp:77] Creating layer inception_4a/pool
I0403 14:59:29.242811 30837 net.cpp:91] Creating Layer inception_4a/pool
I0403 14:59:29.242827 30837 net.cpp:425] inception_4a/pool <- pool3/3x3_s2_pool3/3x3_s2_0_split_3
I0403 14:59:29.242847 30837 net.cpp:399] inception_4a/pool -> inception_4a/pool
I0403 14:59:29.242909 30837 net.cpp:141] Setting up inception_4a/pool
I0403 14:59:29.242933 30837 net.cpp:148] Top shape: 24 480 14 14 (2257920)
I0403 14:59:29.242947 30837 net.cpp:156] Memory required for data: 884503584
I0403 14:59:29.242962 30837 layer_factory.hpp:77] Creating layer inception_4a/pool_proj
I0403 14:59:29.242986 30837 net.cpp:91] Creating Layer inception_4a/pool_proj
I0403 14:59:29.243005 30837 net.cpp:425] inception_4a/pool_proj <- inception_4a/pool
I0403 14:59:29.243023 30837 net.cpp:399] inception_4a/pool_proj -> inception_4a/pool_proj
I0403 14:59:29.244206 30837 net.cpp:141] Setting up inception_4a/pool_proj
I0403 14:59:29.244243 30837 net.cpp:148] Top shape: 24 64 14 14 (301056)
I0403 14:59:29.244274 30837 net.cpp:156] Memory required for data: 885707808
I0403 14:59:29.244293 30837 layer_factory.hpp:77] Creating layer inception_4a/relu_pool_proj
I0403 14:59:29.244313 30837 net.cpp:91] Creating Layer inception_4a/relu_pool_proj
I0403 14:59:29.244329 30837 net.cpp:425] inception_4a/relu_pool_proj <- inception_4a/pool_proj
I0403 14:59:29.244349 30837 net.cpp:386] inception_4a/relu_pool_proj -> inception_4a/pool_proj (in-place)
I0403 14:59:29.244647 30837 net.cpp:141] Setting up inception_4a/relu_pool_proj
I0403 14:59:29.244674 30837 net.cpp:148] Top shape: 24 64 14 14 (301056)
I0403 14:59:29.244690 30837 net.cpp:156] Memory required for data: 886912032
I0403 14:59:29.244706 30837 layer_factory.hpp:77] Creating layer inception_4a/output
I0403 14:59:29.244724 30837 net.cpp:91] Creating Layer inception_4a/output
I0403 14:59:29.244740 30837 net.cpp:425] inception_4a/output <- inception_4a/1x1
I0403 14:59:29.244757 30837 net.cpp:425] inception_4a/output <- inception_4a/3x3
I0403 14:59:29.244773 30837 net.cpp:425] inception_4a/output <- inception_4a/5x5
I0403 14:59:29.244789 30837 net.cpp:425] inception_4a/output <- inception_4a/pool_proj
I0403 14:59:29.244812 30837 net.cpp:399] inception_4a/output -> inception_4a/output
I0403 14:59:29.244858 30837 net.cpp:141] Setting up inception_4a/output
I0403 14:59:29.244881 30837 net.cpp:148] Top shape: 24 512 14 14 (2408448)
I0403 14:59:29.244896 30837 net.cpp:156] Memory required for data: 896545824
I0403 14:59:29.244910 30837 layer_factory.hpp:77] Creating layer inception_4a/output_inception_4a/output_0_split
I0403 14:59:29.244931 30837 net.cpp:91] Creating Layer inception_4a/output_inception_4a/output_0_split
I0403 14:59:29.244949 30837 net.cpp:425] inception_4a/output_inception_4a/output_0_split <- inception_4a/output
I0403 14:59:29.244967 30837 net.cpp:399] inception_4a/output_inception_4a/output_0_split -> inception_4a/output_inception_4a/output_0_split_0
I0403 14:59:29.244987 30837 net.cpp:399] inception_4a/output_inception_4a/output_0_split -> inception_4a/output_inception_4a/output_0_split_1
I0403 14:59:29.245010 30837 net.cpp:399] inception_4a/output_inception_4a/output_0_split -> inception_4a/output_inception_4a/output_0_split_2
I0403 14:59:29.245031 30837 net.cpp:399] inception_4a/output_inception_4a/output_0_split -> inception_4a/output_inception_4a/output_0_split_3
I0403 14:59:29.245050 30837 net.cpp:399] inception_4a/output_inception_4a/output_0_split -> inception_4a/output_inception_4a/output_0_split_4
I0403 14:59:29.245144 30837 net.cpp:141] Setting up inception_4a/output_inception_4a/output_0_split
I0403 14:59:29.245168 30837 net.cpp:148] Top shape: 24 512 14 14 (2408448)
I0403 14:59:29.245185 30837 net.cpp:148] Top shape: 24 512 14 14 (2408448)
I0403 14:59:29.245203 30837 net.cpp:148] Top shape: 24 512 14 14 (2408448)
I0403 14:59:29.245218 30837 net.cpp:148] Top shape: 24 512 14 14 (2408448)
I0403 14:59:29.245234 30837 net.cpp:148] Top shape: 24 512 14 14 (2408448)
I0403 14:59:29.245249 30837 net.cpp:156] Memory required for data: 944714784
I0403 14:59:29.245263 30837 layer_factory.hpp:77] Creating layer loss1/ave_pool
I0403 14:59:29.245280 30837 net.cpp:91] Creating Layer loss1/ave_pool
I0403 14:59:29.245296 30837 net.cpp:425] loss1/ave_pool <- inception_4a/output_inception_4a/output_0_split_0
I0403 14:59:29.245317 30837 net.cpp:399] loss1/ave_pool -> loss1/ave_pool
I0403 14:59:29.245532 30837 net.cpp:141] Setting up loss1/ave_pool
I0403 14:59:29.245560 30837 net.cpp:148] Top shape: 24 512 4 4 (196608)
I0403 14:59:29.245578 30837 net.cpp:156] Memory required for data: 945501216
I0403 14:59:29.245592 30837 layer_factory.hpp:77] Creating layer loss1/conv
I0403 14:59:29.245615 30837 net.cpp:91] Creating Layer loss1/conv
I0403 14:59:29.245632 30837 net.cpp:425] loss1/conv <- loss1/ave_pool
I0403 14:59:29.245651 30837 net.cpp:399] loss1/conv -> loss1/conv
I0403 14:59:29.247143 30837 net.cpp:141] Setting up loss1/conv
I0403 14:59:29.247172 30837 net.cpp:148] Top shape: 24 128 4 4 (49152)
I0403 14:59:29.247202 30837 net.cpp:156] Memory required for data: 945697824
I0403 14:59:29.247222 30837 layer_factory.hpp:77] Creating layer loss1/relu_conv
I0403 14:59:29.247241 30837 net.cpp:91] Creating Layer loss1/relu_conv
I0403 14:59:29.247258 30837 net.cpp:425] loss1/relu_conv <- loss1/conv
I0403 14:59:29.247278 30837 net.cpp:386] loss1/relu_conv -> loss1/conv (in-place)
I0403 14:59:29.247575 30837 net.cpp:141] Setting up loss1/relu_conv
I0403 14:59:29.247601 30837 net.cpp:148] Top shape: 24 128 4 4 (49152)
I0403 14:59:29.247617 30837 net.cpp:156] Memory required for data: 945894432
I0403 14:59:29.247632 30837 layer_factory.hpp:77] Creating layer loss1/fc
I0403 14:59:29.247656 30837 net.cpp:91] Creating Layer loss1/fc
I0403 14:59:29.247673 30837 net.cpp:425] loss1/fc <- loss1/conv
I0403 14:59:29.247694 30837 net.cpp:399] loss1/fc -> loss1/fc
I0403 14:59:29.265660 30837 net.cpp:141] Setting up loss1/fc
I0403 14:59:29.265693 30837 net.cpp:148] Top shape: 24 1024 (24576)
I0403 14:59:29.265710 30837 net.cpp:156] Memory required for data: 945992736
I0403 14:59:29.265741 30837 layer_factory.hpp:77] Creating layer loss1/relu_fc
I0403 14:59:29.265759 30837 net.cpp:91] Creating Layer loss1/relu_fc
I0403 14:59:29.265774 30837 net.cpp:425] loss1/relu_fc <- loss1/fc
I0403 14:59:29.265791 30837 net.cpp:386] loss1/relu_fc -> loss1/fc (in-place)
I0403 14:59:29.265977 30837 net.cpp:141] Setting up loss1/relu_fc
I0403 14:59:29.266001 30837 net.cpp:148] Top shape: 24 1024 (24576)
I0403 14:59:29.266016 30837 net.cpp:156] Memory required for data: 946091040
I0403 14:59:29.266031 30837 layer_factory.hpp:77] Creating layer loss1/drop_fc
I0403 14:59:29.266057 30837 net.cpp:91] Creating Layer loss1/drop_fc
I0403 14:59:29.266074 30837 net.cpp:425] loss1/drop_fc <- loss1/fc
I0403 14:59:29.266093 30837 net.cpp:386] loss1/drop_fc -> loss1/fc (in-place)
I0403 14:59:29.266146 30837 net.cpp:141] Setting up loss1/drop_fc
I0403 14:59:29.266170 30837 net.cpp:148] Top shape: 24 1024 (24576)
I0403 14:59:29.266190 30837 net.cpp:156] Memory required for data: 946189344
I0403 14:59:29.266206 30837 layer_factory.hpp:77] Creating layer loss1/classifier_plantvillage
I0403 14:59:29.266223 30837 net.cpp:91] Creating Layer loss1/classifier_plantvillage
I0403 14:59:29.266239 30837 net.cpp:425] loss1/classifier_plantvillage <- loss1/fc
I0403 14:59:29.266258 30837 net.cpp:399] loss1/classifier_plantvillage -> loss1/classifier_plantvillage
I0403 14:59:29.267168 30837 net.cpp:141] Setting up loss1/classifier_plantvillage
I0403 14:59:29.267195 30837 net.cpp:148] Top shape: 24 38 (912)
I0403 14:59:29.267210 30837 net.cpp:156] Memory required for data: 946192992
I0403 14:59:29.267228 30837 layer_factory.hpp:77] Creating layer loss1/classifier_plantvillage_loss1/classifier_plantvillage_0_split
I0403 14:59:29.267246 30837 net.cpp:91] Creating Layer loss1/classifier_plantvillage_loss1/classifier_plantvillage_0_split
I0403 14:59:29.267261 30837 net.cpp:425] loss1/classifier_plantvillage_loss1/classifier_plantvillage_0_split <- loss1/classifier_plantvillage
I0403 14:59:29.267282 30837 net.cpp:399] loss1/classifier_plantvillage_loss1/classifier_plantvillage_0_split -> loss1/classifier_plantvillage_loss1/classifier_plantvillage_0_split_0
I0403 14:59:29.267302 30837 net.cpp:399] loss1/classifier_plantvillage_loss1/classifier_plantvillage_0_split -> loss1/classifier_plantvillage_loss1/classifier_plantvillage_0_split_1
I0403 14:59:29.267323 30837 net.cpp:399] loss1/classifier_plantvillage_loss1/classifier_plantvillage_0_split -> loss1/classifier_plantvillage_loss1/classifier_plantvillage_0_split_2
I0403 14:59:29.267386 30837 net.cpp:141] Setting up loss1/classifier_plantvillage_loss1/classifier_plantvillage_0_split
I0403 14:59:29.267410 30837 net.cpp:148] Top shape: 24 38 (912)
I0403 14:59:29.267424 30837 net.cpp:148] Top shape: 24 38 (912)
I0403 14:59:29.267441 30837 net.cpp:148] Top shape: 24 38 (912)
I0403 14:59:29.267453 30837 net.cpp:156] Memory required for data: 946203936
I0403 14:59:29.267468 30837 layer_factory.hpp:77] Creating layer inception_4b/1x1
I0403 14:59:29.267493 30837 net.cpp:91] Creating Layer inception_4b/1x1
I0403 14:59:29.267529 30837 net.cpp:425] inception_4b/1x1 <- inception_4a/output_inception_4a/output_0_split_1
I0403 14:59:29.267550 30837 net.cpp:399] inception_4b/1x1 -> inception_4b/1x1
I0403 14:59:29.269175 30837 net.cpp:141] Setting up inception_4b/1x1
I0403 14:59:29.269204 30837 net.cpp:148] Top shape: 24 160 14 14 (752640)
I0403 14:59:29.269220 30837 net.cpp:156] Memory required for data: 949214496
I0403 14:59:29.269239 30837 layer_factory.hpp:77] Creating layer inception_4b/relu_1x1
I0403 14:59:29.269260 30837 net.cpp:91] Creating Layer inception_4b/relu_1x1
I0403 14:59:29.269279 30837 net.cpp:425] inception_4b/relu_1x1 <- inception_4b/1x1
I0403 14:59:29.269297 30837 net.cpp:386] inception_4b/relu_1x1 -> inception_4b/1x1 (in-place)
I0403 14:59:29.269470 30837 net.cpp:141] Setting up inception_4b/relu_1x1
I0403 14:59:29.269495 30837 net.cpp:148] Top shape: 24 160 14 14 (752640)
I0403 14:59:29.269518 30837 net.cpp:156] Memory required for data: 952225056
I0403 14:59:29.269533 30837 layer_factory.hpp:77] Creating layer inception_4b/3x3_reduce
I0403 14:59:29.269553 30837 net.cpp:91] Creating Layer inception_4b/3x3_reduce
I0403 14:59:29.269572 30837 net.cpp:425] inception_4b/3x3_reduce <- inception_4a/output_inception_4a/output_0_split_2
I0403 14:59:29.269593 30837 net.cpp:399] inception_4b/3x3_reduce -> inception_4b/3x3_reduce
I0403 14:59:29.270933 30837 net.cpp:141] Setting up inception_4b/3x3_reduce
I0403 14:59:29.270961 30837 net.cpp:148] Top shape: 24 112 14 14 (526848)
I0403 14:59:29.270977 30837 net.cpp:156] Memory required for data: 954332448
I0403 14:59:29.270993 30837 layer_factory.hpp:77] Creating layer inception_4b/relu_3x3_reduce
I0403 14:59:29.271014 30837 net.cpp:91] Creating Layer inception_4b/relu_3x3_reduce
I0403 14:59:29.271030 30837 net.cpp:425] inception_4b/relu_3x3_reduce <- inception_4b/3x3_reduce
I0403 14:59:29.271047 30837 net.cpp:386] inception_4b/relu_3x3_reduce -> inception_4b/3x3_reduce (in-place)
I0403 14:59:29.271325 30837 net.cpp:141] Setting up inception_4b/relu_3x3_reduce
I0403 14:59:29.271350 30837 net.cpp:148] Top shape: 24 112 14 14 (526848)
I0403 14:59:29.271370 30837 net.cpp:156] Memory required for data: 956439840
I0403 14:59:29.271385 30837 layer_factory.hpp:77] Creating layer inception_4b/3x3
I0403 14:59:29.271407 30837 net.cpp:91] Creating Layer inception_4b/3x3
I0403 14:59:29.271425 30837 net.cpp:425] inception_4b/3x3 <- inception_4b/3x3_reduce
I0403 14:59:29.271446 30837 net.cpp:399] inception_4b/3x3 -> inception_4b/3x3
I0403 14:59:29.274408 30837 net.cpp:141] Setting up inception_4b/3x3
I0403 14:59:29.274440 30837 net.cpp:148] Top shape: 24 224 14 14 (1053696)
I0403 14:59:29.274454 30837 net.cpp:156] Memory required for data: 960654624
I0403 14:59:29.274472 30837 layer_factory.hpp:77] Creating layer inception_4b/relu_3x3
I0403 14:59:29.274492 30837 net.cpp:91] Creating Layer inception_4b/relu_3x3
I0403 14:59:29.274519 30837 net.cpp:425] inception_4b/relu_3x3 <- inception_4b/3x3
I0403 14:59:29.274544 30837 net.cpp:386] inception_4b/relu_3x3 -> inception_4b/3x3 (in-place)
I0403 14:59:29.274725 30837 net.cpp:141] Setting up inception_4b/relu_3x3
I0403 14:59:29.274750 30837 net.cpp:148] Top shape: 24 224 14 14 (1053696)
I0403 14:59:29.274765 30837 net.cpp:156] Memory required for data: 964869408
I0403 14:59:29.274780 30837 layer_factory.hpp:77] Creating layer inception_4b/5x5_reduce
I0403 14:59:29.274802 30837 net.cpp:91] Creating Layer inception_4b/5x5_reduce
I0403 14:59:29.274821 30837 net.cpp:425] inception_4b/5x5_reduce <- inception_4a/output_inception_4a/output_0_split_3
I0403 14:59:29.274840 30837 net.cpp:399] inception_4b/5x5_reduce -> inception_4b/5x5_reduce
I0403 14:59:29.275907 30837 net.cpp:141] Setting up inception_4b/5x5_reduce
I0403 14:59:29.275934 30837 net.cpp:148] Top shape: 24 24 14 14 (112896)
I0403 14:59:29.275950 30837 net.cpp:156] Memory required for data: 965320992
I0403 14:59:29.275969 30837 layer_factory.hpp:77] Creating layer inception_4b/relu_5x5_reduce
I0403 14:59:29.275988 30837 net.cpp:91] Creating Layer inception_4b/relu_5x5_reduce
I0403 14:59:29.276020 30837 net.cpp:425] inception_4b/relu_5x5_reduce <- inception_4b/5x5_reduce
I0403 14:59:29.276038 30837 net.cpp:386] inception_4b/relu_5x5_reduce -> inception_4b/5x5_reduce (in-place)
I0403 14:59:29.276216 30837 net.cpp:141] Setting up inception_4b/relu_5x5_reduce
I0403 14:59:29.276245 30837 net.cpp:148] Top shape: 24 24 14 14 (112896)
I0403 14:59:29.276262 30837 net.cpp:156] Memory required for data: 965772576
I0403 14:59:29.276278 30837 layer_factory.hpp:77] Creating layer inception_4b/5x5
I0403 14:59:29.276300 30837 net.cpp:91] Creating Layer inception_4b/5x5
I0403 14:59:29.276317 30837 net.cpp:425] inception_4b/5x5 <- inception_4b/5x5_reduce
I0403 14:59:29.276335 30837 net.cpp:399] inception_4b/5x5 -> inception_4b/5x5
I0403 14:59:29.277555 30837 net.cpp:141] Setting up inception_4b/5x5
I0403 14:59:29.277583 30837 net.cpp:148] Top shape: 24 64 14 14 (301056)
I0403 14:59:29.277598 30837 net.cpp:156] Memory required for data: 966976800
I0403 14:59:29.277616 30837 layer_factory.hpp:77] Creating layer inception_4b/relu_5x5
I0403 14:59:29.277637 30837 net.cpp:91] Creating Layer inception_4b/relu_5x5
I0403 14:59:29.277653 30837 net.cpp:425] inception_4b/relu_5x5 <- inception_4b/5x5
I0403 14:59:29.277670 30837 net.cpp:386] inception_4b/relu_5x5 -> inception_4b/5x5 (in-place)
I0403 14:59:29.277954 30837 net.cpp:141] Setting up inception_4b/relu_5x5
I0403 14:59:29.277981 30837 net.cpp:148] Top shape: 24 64 14 14 (301056)
I0403 14:59:29.277994 30837 net.cpp:156] Memory required for data: 968181024
I0403 14:59:29.278009 30837 layer_factory.hpp:77] Creating layer inception_4b/pool
I0403 14:59:29.278028 30837 net.cpp:91] Creating Layer inception_4b/pool
I0403 14:59:29.278043 30837 net.cpp:425] inception_4b/pool <- inception_4a/output_inception_4a/output_0_split_4
I0403 14:59:29.278066 30837 net.cpp:399] inception_4b/pool -> inception_4b/pool
I0403 14:59:29.278131 30837 net.cpp:141] Setting up inception_4b/pool
I0403 14:59:29.278154 30837 net.cpp:148] Top shape: 24 512 14 14 (2408448)
I0403 14:59:29.278169 30837 net.cpp:156] Memory required for data: 977814816
I0403 14:59:29.278184 30837 layer_factory.hpp:77] Creating layer inception_4b/pool_proj
I0403 14:59:29.278208 30837 net.cpp:91] Creating Layer inception_4b/pool_proj
I0403 14:59:29.278224 30837 net.cpp:425] inception_4b/pool_proj <- inception_4b/pool
I0403 14:59:29.278244 30837 net.cpp:399] inception_4b/pool_proj -> inception_4b/pool_proj
I0403 14:59:29.279438 30837 net.cpp:141] Setting up inception_4b/pool_proj
I0403 14:59:29.279464 30837 net.cpp:148] Top shape: 24 64 14 14 (301056)
I0403 14:59:29.279479 30837 net.cpp:156] Memory required for data: 979019040
I0403 14:59:29.279496 30837 layer_factory.hpp:77] Creating layer inception_4b/relu_pool_proj
I0403 14:59:29.279525 30837 net.cpp:91] Creating Layer inception_4b/relu_pool_proj
I0403 14:59:29.279546 30837 net.cpp:425] inception_4b/relu_pool_proj <- inception_4b/pool_proj
I0403 14:59:29.279562 30837 net.cpp:386] inception_4b/relu_pool_proj -> inception_4b/pool_proj (in-place)
I0403 14:59:29.279739 30837 net.cpp:141] Setting up inception_4b/relu_pool_proj
I0403 14:59:29.279765 30837 net.cpp:148] Top shape: 24 64 14 14 (301056)
I0403 14:59:29.279781 30837 net.cpp:156] Memory required for data: 980223264
I0403 14:59:29.279796 30837 layer_factory.hpp:77] Creating layer inception_4b/output
I0403 14:59:29.279813 30837 net.cpp:91] Creating Layer inception_4b/output
I0403 14:59:29.279827 30837 net.cpp:425] inception_4b/output <- inception_4b/1x1
I0403 14:59:29.279844 30837 net.cpp:425] inception_4b/output <- inception_4b/3x3
I0403 14:59:29.279860 30837 net.cpp:425] inception_4b/output <- inception_4b/5x5
I0403 14:59:29.279875 30837 net.cpp:425] inception_4b/output <- inception_4b/pool_proj
I0403 14:59:29.279891 30837 net.cpp:399] inception_4b/output -> inception_4b/output
I0403 14:59:29.279938 30837 net.cpp:141] Setting up inception_4b/output
I0403 14:59:29.279961 30837 net.cpp:148] Top shape: 24 512 14 14 (2408448)
I0403 14:59:29.279975 30837 net.cpp:156] Memory required for data: 989857056
I0403 14:59:29.280007 30837 layer_factory.hpp:77] Creating layer inception_4b/output_inception_4b/output_0_split
I0403 14:59:29.280027 30837 net.cpp:91] Creating Layer inception_4b/output_inception_4b/output_0_split
I0403 14:59:29.280042 30837 net.cpp:425] inception_4b/output_inception_4b/output_0_split <- inception_4b/output
I0403 14:59:29.280060 30837 net.cpp:399] inception_4b/output_inception_4b/output_0_split -> inception_4b/output_inception_4b/output_0_split_0
I0403 14:59:29.280078 30837 net.cpp:399] inception_4b/output_inception_4b/output_0_split -> inception_4b/output_inception_4b/output_0_split_1
I0403 14:59:29.280098 30837 net.cpp:399] inception_4b/output_inception_4b/output_0_split -> inception_4b/output_inception_4b/output_0_split_2
I0403 14:59:29.280118 30837 net.cpp:399] inception_4b/output_inception_4b/output_0_split -> inception_4b/output_inception_4b/output_0_split_3
I0403 14:59:29.280202 30837 net.cpp:141] Setting up inception_4b/output_inception_4b/output_0_split
I0403 14:59:29.280225 30837 net.cpp:148] Top shape: 24 512 14 14 (2408448)
I0403 14:59:29.280241 30837 net.cpp:148] Top shape: 24 512 14 14 (2408448)
I0403 14:59:29.280256 30837 net.cpp:148] Top shape: 24 512 14 14 (2408448)
I0403 14:59:29.280272 30837 net.cpp:148] Top shape: 24 512 14 14 (2408448)
I0403 14:59:29.280285 30837 net.cpp:156] Memory required for data: 1028392224
I0403 14:59:29.280300 30837 layer_factory.hpp:77] Creating layer inception_4c/1x1
I0403 14:59:29.280321 30837 net.cpp:91] Creating Layer inception_4c/1x1
I0403 14:59:29.280339 30837 net.cpp:425] inception_4c/1x1 <- inception_4b/output_inception_4b/output_0_split_0
I0403 14:59:29.280359 30837 net.cpp:399] inception_4c/1x1 -> inception_4c/1x1
I0403 14:59:29.281790 30837 net.cpp:141] Setting up inception_4c/1x1
I0403 14:59:29.281822 30837 net.cpp:148] Top shape: 24 128 14 14 (602112)
I0403 14:59:29.281838 30837 net.cpp:156] Memory required for data: 1030800672
I0403 14:59:29.281857 30837 layer_factory.hpp:77] Creating layer inception_4c/relu_1x1
I0403 14:59:29.281875 30837 net.cpp:91] Creating Layer inception_4c/relu_1x1
I0403 14:59:29.281890 30837 net.cpp:425] inception_4c/relu_1x1 <- inception_4c/1x1
I0403 14:59:29.281908 30837 net.cpp:386] inception_4c/relu_1x1 -> inception_4c/1x1 (in-place)
I0403 14:59:29.282086 30837 net.cpp:141] Setting up inception_4c/relu_1x1
I0403 14:59:29.282111 30837 net.cpp:148] Top shape: 24 128 14 14 (602112)
I0403 14:59:29.282125 30837 net.cpp:156] Memory required for data: 1033209120
I0403 14:59:29.282140 30837 layer_factory.hpp:77] Creating layer inception_4c/3x3_reduce
I0403 14:59:29.282162 30837 net.cpp:91] Creating Layer inception_4c/3x3_reduce
I0403 14:59:29.282179 30837 net.cpp:425] inception_4c/3x3_reduce <- inception_4b/output_inception_4b/output_0_split_1
I0403 14:59:29.282202 30837 net.cpp:399] inception_4c/3x3_reduce -> inception_4c/3x3_reduce
I0403 14:59:29.284138 30837 net.cpp:141] Setting up inception_4c/3x3_reduce
I0403 14:59:29.284168 30837 net.cpp:148] Top shape: 24 128 14 14 (602112)
I0403 14:59:29.284183 30837 net.cpp:156] Memory required for data: 1035617568
I0403 14:59:29.284201 30837 layer_factory.hpp:77] Creating layer inception_4c/relu_3x3_reduce
I0403 14:59:29.284221 30837 net.cpp:91] Creating Layer inception_4c/relu_3x3_reduce
I0403 14:59:29.284245 30837 net.cpp:425] inception_4c/relu_3x3_reduce <- inception_4c/3x3_reduce
I0403 14:59:29.284261 30837 net.cpp:386] inception_4c/relu_3x3_reduce -> inception_4c/3x3_reduce (in-place)
I0403 14:59:29.284555 30837 net.cpp:141] Setting up inception_4c/relu_3x3_reduce
I0403 14:59:29.284582 30837 net.cpp:148] Top shape: 24 128 14 14 (602112)
I0403 14:59:29.284597 30837 net.cpp:156] Memory required for data: 1038026016
I0403 14:59:29.284611 30837 layer_factory.hpp:77] Creating layer inception_4c/3x3
I0403 14:59:29.284633 30837 net.cpp:91] Creating Layer inception_4c/3x3
I0403 14:59:29.284651 30837 net.cpp:425] inception_4c/3x3 <- inception_4c/3x3_reduce
I0403 14:59:29.284672 30837 net.cpp:399] inception_4c/3x3 -> inception_4c/3x3
I0403 14:59:29.288264 30837 net.cpp:141] Setting up inception_4c/3x3
I0403 14:59:29.288308 30837 net.cpp:148] Top shape: 24 256 14 14 (1204224)
I0403 14:59:29.288326 30837 net.cpp:156] Memory required for data: 1042842912
I0403 14:59:29.288357 30837 layer_factory.hpp:77] Creating layer inception_4c/relu_3x3
I0403 14:59:29.288378 30837 net.cpp:91] Creating Layer inception_4c/relu_3x3
I0403 14:59:29.288395 30837 net.cpp:425] inception_4c/relu_3x3 <- inception_4c/3x3
I0403 14:59:29.288413 30837 net.cpp:386] inception_4c/relu_3x3 -> inception_4c/3x3 (in-place)
I0403 14:59:29.288595 30837 net.cpp:141] Setting up inception_4c/relu_3x3
I0403 14:59:29.288621 30837 net.cpp:148] Top shape: 24 256 14 14 (1204224)
I0403 14:59:29.288635 30837 net.cpp:156] Memory required for data: 1047659808
I0403 14:59:29.288650 30837 layer_factory.hpp:77] Creating layer inception_4c/5x5_reduce
I0403 14:59:29.288672 30837 net.cpp:91] Creating Layer inception_4c/5x5_reduce
I0403 14:59:29.288689 30837 net.cpp:425] inception_4c/5x5_reduce <- inception_4b/output_inception_4b/output_0_split_2
I0403 14:59:29.288710 30837 net.cpp:399] inception_4c/5x5_reduce -> inception_4c/5x5_reduce
I0403 14:59:29.289793 30837 net.cpp:141] Setting up inception_4c/5x5_reduce
I0403 14:59:29.289820 30837 net.cpp:148] Top shape: 24 24 14 14 (112896)
I0403 14:59:29.289835 30837 net.cpp:156] Memory required for data: 1048111392
I0403 14:59:29.289854 30837 layer_factory.hpp:77] Creating layer inception_4c/relu_5x5_reduce
I0403 14:59:29.289875 30837 net.cpp:91] Creating Layer inception_4c/relu_5x5_reduce
I0403 14:59:29.289891 30837 net.cpp:425] inception_4c/relu_5x5_reduce <- inception_4c/5x5_reduce
I0403 14:59:29.289907 30837 net.cpp:386] inception_4c/relu_5x5_reduce -> inception_4c/5x5_reduce (in-place)
I0403 14:59:29.290091 30837 net.cpp:141] Setting up inception_4c/relu_5x5_reduce
I0403 14:59:29.290115 30837 net.cpp:148] Top shape: 24 24 14 14 (112896)
I0403 14:59:29.290129 30837 net.cpp:156] Memory required for data: 1048562976
I0403 14:59:29.290143 30837 layer_factory.hpp:77] Creating layer inception_4c/5x5
I0403 14:59:29.290166 30837 net.cpp:91] Creating Layer inception_4c/5x5
I0403 14:59:29.290184 30837 net.cpp:425] inception_4c/5x5 <- inception_4c/5x5_reduce
I0403 14:59:29.290202 30837 net.cpp:399] inception_4c/5x5 -> inception_4c/5x5
I0403 14:59:29.291437 30837 net.cpp:141] Setting up inception_4c/5x5
I0403 14:59:29.291466 30837 net.cpp:148] Top shape: 24 64 14 14 (301056)
I0403 14:59:29.291482 30837 net.cpp:156] Memory required for data: 1049767200
I0403 14:59:29.291499 30837 layer_factory.hpp:77] Creating layer inception_4c/relu_5x5
I0403 14:59:29.291522 30837 net.cpp:91] Creating Layer inception_4c/relu_5x5
I0403 14:59:29.291539 30837 net.cpp:425] inception_4c/relu_5x5 <- inception_4c/5x5
I0403 14:59:29.291556 30837 net.cpp:386] inception_4c/relu_5x5 -> inception_4c/5x5 (in-place)
I0403 14:59:29.291846 30837 net.cpp:141] Setting up inception_4c/relu_5x5
I0403 14:59:29.291874 30837 net.cpp:148] Top shape: 24 64 14 14 (301056)
I0403 14:59:29.291898 30837 net.cpp:156] Memory required for data: 1050971424
I0403 14:59:29.291913 30837 layer_factory.hpp:77] Creating layer inception_4c/pool
I0403 14:59:29.291930 30837 net.cpp:91] Creating Layer inception_4c/pool
I0403 14:59:29.291946 30837 net.cpp:425] inception_4c/pool <- inception_4b/output_inception_4b/output_0_split_3
I0403 14:59:29.291965 30837 net.cpp:399] inception_4c/pool -> inception_4c/pool
I0403 14:59:29.292032 30837 net.cpp:141] Setting up inception_4c/pool
I0403 14:59:29.292055 30837 net.cpp:148] Top shape: 24 512 14 14 (2408448)
I0403 14:59:29.292070 30837 net.cpp:156] Memory required for data: 1060605216
I0403 14:59:29.292084 30837 layer_factory.hpp:77] Creating layer inception_4c/pool_proj
I0403 14:59:29.292106 30837 net.cpp:91] Creating Layer inception_4c/pool_proj
I0403 14:59:29.292124 30837 net.cpp:425] inception_4c/pool_proj <- inception_4c/pool
I0403 14:59:29.292145 30837 net.cpp:399] inception_4c/pool_proj -> inception_4c/pool_proj
I0403 14:59:29.293372 30837 net.cpp:141] Setting up inception_4c/pool_proj
I0403 14:59:29.293401 30837 net.cpp:148] Top shape: 24 64 14 14 (301056)
I0403 14:59:29.293429 30837 net.cpp:156] Memory required for data: 1061809440
I0403 14:59:29.293448 30837 layer_factory.hpp:77] Creating layer inception_4c/relu_pool_proj
I0403 14:59:29.293470 30837 net.cpp:91] Creating Layer inception_4c/relu_pool_proj
I0403 14:59:29.293488 30837 net.cpp:425] inception_4c/relu_pool_proj <- inception_4c/pool_proj
I0403 14:59:29.293509 30837 net.cpp:386] inception_4c/relu_pool_proj -> inception_4c/pool_proj (in-place)
I0403 14:59:29.293690 30837 net.cpp:141] Setting up inception_4c/relu_pool_proj
I0403 14:59:29.293717 30837 net.cpp:148] Top shape: 24 64 14 14 (301056)
I0403 14:59:29.293733 30837 net.cpp:156] Memory required for data: 1063013664
I0403 14:59:29.293748 30837 layer_factory.hpp:77] Creating layer inception_4c/output
I0403 14:59:29.293771 30837 net.cpp:91] Creating Layer inception_4c/output
I0403 14:59:29.293786 30837 net.cpp:425] inception_4c/output <- inception_4c/1x1
I0403 14:59:29.293802 30837 net.cpp:425] inception_4c/output <- inception_4c/3x3
I0403 14:59:29.293817 30837 net.cpp:425] inception_4c/output <- inception_4c/5x5
I0403 14:59:29.293833 30837 net.cpp:425] inception_4c/output <- inception_4c/pool_proj
I0403 14:59:29.293849 30837 net.cpp:399] inception_4c/output -> inception_4c/output
I0403 14:59:29.293897 30837 net.cpp:141] Setting up inception_4c/output
I0403 14:59:29.293920 30837 net.cpp:148] Top shape: 24 512 14 14 (2408448)
I0403 14:59:29.293936 30837 net.cpp:156] Memory required for data: 1072647456
I0403 14:59:29.293951 30837 layer_factory.hpp:77] Creating layer inception_4c/output_inception_4c/output_0_split
I0403 14:59:29.293969 30837 net.cpp:91] Creating Layer inception_4c/output_inception_4c/output_0_split
I0403 14:59:29.293984 30837 net.cpp:425] inception_4c/output_inception_4c/output_0_split <- inception_4c/output
I0403 14:59:29.294001 30837 net.cpp:399] inception_4c/output_inception_4c/output_0_split -> inception_4c/output_inception_4c/output_0_split_0
I0403 14:59:29.294021 30837 net.cpp:399] inception_4c/output_inception_4c/output_0_split -> inception_4c/output_inception_4c/output_0_split_1
I0403 14:59:29.294041 30837 net.cpp:399] inception_4c/output_inception_4c/output_0_split -> inception_4c/output_inception_4c/output_0_split_2
I0403 14:59:29.294061 30837 net.cpp:399] inception_4c/output_inception_4c/output_0_split -> inception_4c/output_inception_4c/output_0_split_3
I0403 14:59:29.294147 30837 net.cpp:141] Setting up inception_4c/output_inception_4c/output_0_split
I0403 14:59:29.294169 30837 net.cpp:148] Top shape: 24 512 14 14 (2408448)
I0403 14:59:29.294185 30837 net.cpp:148] Top shape: 24 512 14 14 (2408448)
I0403 14:59:29.294201 30837 net.cpp:148] Top shape: 24 512 14 14 (2408448)
I0403 14:59:29.294216 30837 net.cpp:148] Top shape: 24 512 14 14 (2408448)
I0403 14:59:29.294229 30837 net.cpp:156] Memory required for data: 1111182624
I0403 14:59:29.294245 30837 layer_factory.hpp:77] Creating layer inception_4d/1x1
I0403 14:59:29.294267 30837 net.cpp:91] Creating Layer inception_4d/1x1
I0403 14:59:29.294286 30837 net.cpp:425] inception_4d/1x1 <- inception_4c/output_inception_4c/output_0_split_0
I0403 14:59:29.294306 30837 net.cpp:399] inception_4d/1x1 -> inception_4d/1x1
I0403 14:59:29.295706 30837 net.cpp:141] Setting up inception_4d/1x1
I0403 14:59:29.295734 30837 net.cpp:148] Top shape: 24 112 14 14 (526848)
I0403 14:59:29.295749 30837 net.cpp:156] Memory required for data: 1113290016
I0403 14:59:29.295768 30837 layer_factory.hpp:77] Creating layer inception_4d/relu_1x1
I0403 14:59:29.295785 30837 net.cpp:91] Creating Layer inception_4d/relu_1x1
I0403 14:59:29.295801 30837 net.cpp:425] inception_4d/relu_1x1 <- inception_4d/1x1
I0403 14:59:29.295820 30837 net.cpp:386] inception_4d/relu_1x1 -> inception_4d/1x1 (in-place)
I0403 14:59:29.296003 30837 net.cpp:141] Setting up inception_4d/relu_1x1
I0403 14:59:29.296027 30837 net.cpp:148] Top shape: 24 112 14 14 (526848)
I0403 14:59:29.296042 30837 net.cpp:156] Memory required for data: 1115397408
I0403 14:59:29.296056 30837 layer_factory.hpp:77] Creating layer inception_4d/3x3_reduce
I0403 14:59:29.296093 30837 net.cpp:91] Creating Layer inception_4d/3x3_reduce
I0403 14:59:29.296111 30837 net.cpp:425] inception_4d/3x3_reduce <- inception_4c/output_inception_4c/output_0_split_1
I0403 14:59:29.296133 30837 net.cpp:399] inception_4d/3x3_reduce -> inception_4d/3x3_reduce
I0403 14:59:29.297646 30837 net.cpp:141] Setting up inception_4d/3x3_reduce
I0403 14:59:29.297677 30837 net.cpp:148] Top shape: 24 144 14 14 (677376)
I0403 14:59:29.297693 30837 net.cpp:156] Memory required for data: 1118106912
I0403 14:59:29.297710 30837 layer_factory.hpp:77] Creating layer inception_4d/relu_3x3_reduce
I0403 14:59:29.297729 30837 net.cpp:91] Creating Layer inception_4d/relu_3x3_reduce
I0403 14:59:29.297744 30837 net.cpp:425] inception_4d/relu_3x3_reduce <- inception_4d/3x3_reduce
I0403 14:59:29.297763 30837 net.cpp:386] inception_4d/relu_3x3_reduce -> inception_4d/3x3_reduce (in-place)
I0403 14:59:29.298051 30837 net.cpp:141] Setting up inception_4d/relu_3x3_reduce
I0403 14:59:29.298080 30837 net.cpp:148] Top shape: 24 144 14 14 (677376)
I0403 14:59:29.298095 30837 net.cpp:156] Memory required for data: 1120816416
I0403 14:59:29.298110 30837 layer_factory.hpp:77] Creating layer inception_4d/3x3
I0403 14:59:29.298132 30837 net.cpp:91] Creating Layer inception_4d/3x3
I0403 14:59:29.298149 30837 net.cpp:425] inception_4d/3x3 <- inception_4d/3x3_reduce
I0403 14:59:29.298167 30837 net.cpp:399] inception_4d/3x3 -> inception_4d/3x3
I0403 14:59:29.302433 30837 net.cpp:141] Setting up inception_4d/3x3
I0403 14:59:29.302461 30837 net.cpp:148] Top shape: 24 288 14 14 (1354752)
I0403 14:59:29.302477 30837 net.cpp:156] Memory required for data: 1126235424
I0403 14:59:29.302495 30837 layer_factory.hpp:77] Creating layer inception_4d/relu_3x3
I0403 14:59:29.302517 30837 net.cpp:91] Creating Layer inception_4d/relu_3x3
I0403 14:59:29.302537 30837 net.cpp:425] inception_4d/relu_3x3 <- inception_4d/3x3
I0403 14:59:29.302556 30837 net.cpp:386] inception_4d/relu_3x3 -> inception_4d/3x3 (in-place)
I0403 14:59:29.302739 30837 net.cpp:141] Setting up inception_4d/relu_3x3
I0403 14:59:29.302764 30837 net.cpp:148] Top shape: 24 288 14 14 (1354752)
I0403 14:59:29.302778 30837 net.cpp:156] Memory required for data: 1131654432
I0403 14:59:29.302793 30837 layer_factory.hpp:77] Creating layer inception_4d/5x5_reduce
I0403 14:59:29.302815 30837 net.cpp:91] Creating Layer inception_4d/5x5_reduce
I0403 14:59:29.302834 30837 net.cpp:425] inception_4d/5x5_reduce <- inception_4c/output_inception_4c/output_0_split_2
I0403 14:59:29.302855 30837 net.cpp:399] inception_4d/5x5_reduce -> inception_4d/5x5_reduce
I0403 14:59:29.303999 30837 net.cpp:141] Setting up inception_4d/5x5_reduce
I0403 14:59:29.304026 30837 net.cpp:148] Top shape: 24 32 14 14 (150528)
I0403 14:59:29.304041 30837 net.cpp:156] Memory required for data: 1132256544
I0403 14:59:29.304059 30837 layer_factory.hpp:77] Creating layer inception_4d/relu_5x5_reduce
I0403 14:59:29.304077 30837 net.cpp:91] Creating Layer inception_4d/relu_5x5_reduce
I0403 14:59:29.304093 30837 net.cpp:425] inception_4d/relu_5x5_reduce <- inception_4d/5x5_reduce
I0403 14:59:29.304112 30837 net.cpp:386] inception_4d/relu_5x5_reduce -> inception_4d/5x5_reduce (in-place)
I0403 14:59:29.304296 30837 net.cpp:141] Setting up inception_4d/relu_5x5_reduce
I0403 14:59:29.304322 30837 net.cpp:148] Top shape: 24 32 14 14 (150528)
I0403 14:59:29.304335 30837 net.cpp:156] Memory required for data: 1132858656
I0403 14:59:29.304349 30837 layer_factory.hpp:77] Creating layer inception_4d/5x5
I0403 14:59:29.304371 30837 net.cpp:91] Creating Layer inception_4d/5x5
I0403 14:59:29.304388 30837 net.cpp:425] inception_4d/5x5 <- inception_4d/5x5_reduce
I0403 14:59:29.304410 30837 net.cpp:399] inception_4d/5x5 -> inception_4d/5x5
I0403 14:59:29.305897 30837 net.cpp:141] Setting up inception_4d/5x5
I0403 14:59:29.305925 30837 net.cpp:148] Top shape: 24 64 14 14 (301056)
I0403 14:59:29.305940 30837 net.cpp:156] Memory required for data: 1134062880
I0403 14:59:29.305958 30837 layer_factory.hpp:77] Creating layer inception_4d/relu_5x5
I0403 14:59:29.305995 30837 net.cpp:91] Creating Layer inception_4d/relu_5x5
I0403 14:59:29.306012 30837 net.cpp:425] inception_4d/relu_5x5 <- inception_4d/5x5
I0403 14:59:29.306030 30837 net.cpp:386] inception_4d/relu_5x5 -> inception_4d/5x5 (in-place)
I0403 14:59:29.306327 30837 net.cpp:141] Setting up inception_4d/relu_5x5
I0403 14:59:29.306354 30837 net.cpp:148] Top shape: 24 64 14 14 (301056)
I0403 14:59:29.306368 30837 net.cpp:156] Memory required for data: 1135267104
I0403 14:59:29.306383 30837 layer_factory.hpp:77] Creating layer inception_4d/pool
I0403 14:59:29.306402 30837 net.cpp:91] Creating Layer inception_4d/pool
I0403 14:59:29.306419 30837 net.cpp:425] inception_4d/pool <- inception_4c/output_inception_4c/output_0_split_3
I0403 14:59:29.306438 30837 net.cpp:399] inception_4d/pool -> inception_4d/pool
I0403 14:59:29.306512 30837 net.cpp:141] Setting up inception_4d/pool
I0403 14:59:29.306536 30837 net.cpp:148] Top shape: 24 512 14 14 (2408448)
I0403 14:59:29.306551 30837 net.cpp:156] Memory required for data: 1144900896
I0403 14:59:29.306565 30837 layer_factory.hpp:77] Creating layer inception_4d/pool_proj
I0403 14:59:29.306587 30837 net.cpp:91] Creating Layer inception_4d/pool_proj
I0403 14:59:29.306605 30837 net.cpp:425] inception_4d/pool_proj <- inception_4d/pool
I0403 14:59:29.306625 30837 net.cpp:399] inception_4d/pool_proj -> inception_4d/pool_proj
I0403 14:59:29.308396 30837 net.cpp:141] Setting up inception_4d/pool_proj
I0403 14:59:29.308426 30837 net.cpp:148] Top shape: 24 64 14 14 (301056)
I0403 14:59:29.308441 30837 net.cpp:156] Memory required for data: 1146105120
I0403 14:59:29.308459 30837 layer_factory.hpp:77] Creating layer inception_4d/relu_pool_proj
I0403 14:59:29.308477 30837 net.cpp:91] Creating Layer inception_4d/relu_pool_proj
I0403 14:59:29.308497 30837 net.cpp:425] inception_4d/relu_pool_proj <- inception_4d/pool_proj
I0403 14:59:29.308519 30837 net.cpp:386] inception_4d/relu_pool_proj -> inception_4d/pool_proj (in-place)
I0403 14:59:29.308701 30837 net.cpp:141] Setting up inception_4d/relu_pool_proj
I0403 14:59:29.308727 30837 net.cpp:148] Top shape: 24 64 14 14 (301056)
I0403 14:59:29.308747 30837 net.cpp:156] Memory required for data: 1147309344
I0403 14:59:29.308761 30837 layer_factory.hpp:77] Creating layer inception_4d/output
I0403 14:59:29.308780 30837 net.cpp:91] Creating Layer inception_4d/output
I0403 14:59:29.308797 30837 net.cpp:425] inception_4d/output <- inception_4d/1x1
I0403 14:59:29.308814 30837 net.cpp:425] inception_4d/output <- inception_4d/3x3
I0403 14:59:29.308830 30837 net.cpp:425] inception_4d/output <- inception_4d/5x5
I0403 14:59:29.308846 30837 net.cpp:425] inception_4d/output <- inception_4d/pool_proj
I0403 14:59:29.308863 30837 net.cpp:399] inception_4d/output -> inception_4d/output
I0403 14:59:29.308912 30837 net.cpp:141] Setting up inception_4d/output
I0403 14:59:29.308935 30837 net.cpp:148] Top shape: 24 528 14 14 (2483712)
I0403 14:59:29.308950 30837 net.cpp:156] Memory required for data: 1157244192
I0403 14:59:29.308964 30837 layer_factory.hpp:77] Creating layer inception_4d/output_inception_4d/output_0_split
I0403 14:59:29.308982 30837 net.cpp:91] Creating Layer inception_4d/output_inception_4d/output_0_split
I0403 14:59:29.308997 30837 net.cpp:425] inception_4d/output_inception_4d/output_0_split <- inception_4d/output
I0403 14:59:29.309017 30837 net.cpp:399] inception_4d/output_inception_4d/output_0_split -> inception_4d/output_inception_4d/output_0_split_0
I0403 14:59:29.309038 30837 net.cpp:399] inception_4d/output_inception_4d/output_0_split -> inception_4d/output_inception_4d/output_0_split_1
I0403 14:59:29.309059 30837 net.cpp:399] inception_4d/output_inception_4d/output_0_split -> inception_4d/output_inception_4d/output_0_split_2
I0403 14:59:29.309079 30837 net.cpp:399] inception_4d/output_inception_4d/output_0_split -> inception_4d/output_inception_4d/output_0_split_3
I0403 14:59:29.309098 30837 net.cpp:399] inception_4d/output_inception_4d/output_0_split -> inception_4d/output_inception_4d/output_0_split_4
I0403 14:59:29.309202 30837 net.cpp:141] Setting up inception_4d/output_inception_4d/output_0_split
I0403 14:59:29.309237 30837 net.cpp:148] Top shape: 24 528 14 14 (2483712)
I0403 14:59:29.309254 30837 net.cpp:148] Top shape: 24 528 14 14 (2483712)
I0403 14:59:29.309270 30837 net.cpp:148] Top shape: 24 528 14 14 (2483712)
I0403 14:59:29.309285 30837 net.cpp:148] Top shape: 24 528 14 14 (2483712)
I0403 14:59:29.309300 30837 net.cpp:148] Top shape: 24 528 14 14 (2483712)
I0403 14:59:29.309314 30837 net.cpp:156] Memory required for data: 1206918432
I0403 14:59:29.309329 30837 layer_factory.hpp:77] Creating layer loss2/ave_pool
I0403 14:59:29.309346 30837 net.cpp:91] Creating Layer loss2/ave_pool
I0403 14:59:29.309362 30837 net.cpp:425] loss2/ave_pool <- inception_4d/output_inception_4d/output_0_split_0
I0403 14:59:29.309387 30837 net.cpp:399] loss2/ave_pool -> loss2/ave_pool
I0403 14:59:29.309706 30837 net.cpp:141] Setting up loss2/ave_pool
I0403 14:59:29.309733 30837 net.cpp:148] Top shape: 24 528 4 4 (202752)
I0403 14:59:29.309748 30837 net.cpp:156] Memory required for data: 1207729440
I0403 14:59:29.309763 30837 layer_factory.hpp:77] Creating layer loss2/conv
I0403 14:59:29.309784 30837 net.cpp:91] Creating Layer loss2/conv
I0403 14:59:29.309801 30837 net.cpp:425] loss2/conv <- loss2/ave_pool
I0403 14:59:29.309823 30837 net.cpp:399] loss2/conv -> loss2/conv
I0403 14:59:29.311722 30837 net.cpp:141] Setting up loss2/conv
I0403 14:59:29.311751 30837 net.cpp:148] Top shape: 24 128 4 4 (49152)
I0403 14:59:29.311766 30837 net.cpp:156] Memory required for data: 1207926048
I0403 14:59:29.311784 30837 layer_factory.hpp:77] Creating layer loss2/relu_conv
I0403 14:59:29.311805 30837 net.cpp:91] Creating Layer loss2/relu_conv
I0403 14:59:29.311823 30837 net.cpp:425] loss2/relu_conv <- loss2/conv
I0403 14:59:29.311841 30837 net.cpp:386] loss2/relu_conv -> loss2/conv (in-place)
I0403 14:59:29.312127 30837 net.cpp:141] Setting up loss2/relu_conv
I0403 14:59:29.312153 30837 net.cpp:148] Top shape: 24 128 4 4 (49152)
I0403 14:59:29.312168 30837 net.cpp:156] Memory required for data: 1208122656
I0403 14:59:29.312182 30837 layer_factory.hpp:77] Creating layer loss2/fc
I0403 14:59:29.312204 30837 net.cpp:91] Creating Layer loss2/fc
I0403 14:59:29.312221 30837 net.cpp:425] loss2/fc <- loss2/conv
I0403 14:59:29.312242 30837 net.cpp:399] loss2/fc -> loss2/fc
I0403 14:59:29.329942 30837 net.cpp:141] Setting up loss2/fc
I0403 14:59:29.329975 30837 net.cpp:148] Top shape: 24 1024 (24576)
I0403 14:59:29.329991 30837 net.cpp:156] Memory required for data: 1208220960
I0403 14:59:29.330010 30837 layer_factory.hpp:77] Creating layer loss2/relu_fc
I0403 14:59:29.330029 30837 net.cpp:91] Creating Layer loss2/relu_fc
I0403 14:59:29.330044 30837 net.cpp:425] loss2/relu_fc <- loss2/fc
I0403 14:59:29.330063 30837 net.cpp:386] loss2/relu_fc -> loss2/fc (in-place)
I0403 14:59:29.330359 30837 net.cpp:141] Setting up loss2/relu_fc
I0403 14:59:29.330385 30837 net.cpp:148] Top shape: 24 1024 (24576)
I0403 14:59:29.330400 30837 net.cpp:156] Memory required for data: 1208319264
I0403 14:59:29.330415 30837 layer_factory.hpp:77] Creating layer loss2/drop_fc
I0403 14:59:29.330433 30837 net.cpp:91] Creating Layer loss2/drop_fc
I0403 14:59:29.330449 30837 net.cpp:425] loss2/drop_fc <- loss2/fc
I0403 14:59:29.330469 30837 net.cpp:386] loss2/drop_fc -> loss2/fc (in-place)
I0403 14:59:29.330521 30837 net.cpp:141] Setting up loss2/drop_fc
I0403 14:59:29.330548 30837 net.cpp:148] Top shape: 24 1024 (24576)
I0403 14:59:29.330561 30837 net.cpp:156] Memory required for data: 1208417568
I0403 14:59:29.330579 30837 layer_factory.hpp:77] Creating layer loss2/classifier_plantvillage
I0403 14:59:29.330596 30837 net.cpp:91] Creating Layer loss2/classifier_plantvillage
I0403 14:59:29.330612 30837 net.cpp:425] loss2/classifier_plantvillage <- loss2/fc
I0403 14:59:29.330633 30837 net.cpp:399] loss2/classifier_plantvillage -> loss2/classifier_plantvillage
I0403 14:59:29.331034 30837 net.cpp:141] Setting up loss2/classifier_plantvillage
I0403 14:59:29.331059 30837 net.cpp:148] Top shape: 24 38 (912)
I0403 14:59:29.331091 30837 net.cpp:156] Memory required for data: 1208421216
I0403 14:59:29.331110 30837 layer_factory.hpp:77] Creating layer loss2/classifier_plantvillage_loss2/classifier_plantvillage_0_split
I0403 14:59:29.331131 30837 net.cpp:91] Creating Layer loss2/classifier_plantvillage_loss2/classifier_plantvillage_0_split
I0403 14:59:29.331147 30837 net.cpp:425] loss2/classifier_plantvillage_loss2/classifier_plantvillage_0_split <- loss2/classifier_plantvillage
I0403 14:59:29.331166 30837 net.cpp:399] loss2/classifier_plantvillage_loss2/classifier_plantvillage_0_split -> loss2/classifier_plantvillage_loss2/classifier_plantvillage_0_split_0
I0403 14:59:29.331189 30837 net.cpp:399] loss2/classifier_plantvillage_loss2/classifier_plantvillage_0_split -> loss2/classifier_plantvillage_loss2/classifier_plantvillage_0_split_1
I0403 14:59:29.331209 30837 net.cpp:399] loss2/classifier_plantvillage_loss2/classifier_plantvillage_0_split -> loss2/classifier_plantvillage_loss2/classifier_plantvillage_0_split_2
I0403 14:59:29.331287 30837 net.cpp:141] Setting up loss2/classifier_plantvillage_loss2/classifier_plantvillage_0_split
I0403 14:59:29.331310 30837 net.cpp:148] Top shape: 24 38 (912)
I0403 14:59:29.331326 30837 net.cpp:148] Top shape: 24 38 (912)
I0403 14:59:29.331342 30837 net.cpp:148] Top shape: 24 38 (912)
I0403 14:59:29.331357 30837 net.cpp:156] Memory required for data: 1208432160
I0403 14:59:29.331370 30837 layer_factory.hpp:77] Creating layer inception_4e/1x1
I0403 14:59:29.331393 30837 net.cpp:91] Creating Layer inception_4e/1x1
I0403 14:59:29.331410 30837 net.cpp:425] inception_4e/1x1 <- inception_4d/output_inception_4d/output_0_split_1
I0403 14:59:29.331431 30837 net.cpp:399] inception_4e/1x1 -> inception_4e/1x1
I0403 14:59:29.333256 30837 net.cpp:141] Setting up inception_4e/1x1
I0403 14:59:29.333286 30837 net.cpp:148] Top shape: 24 256 14 14 (1204224)
I0403 14:59:29.333302 30837 net.cpp:156] Memory required for data: 1213249056
I0403 14:59:29.333319 30837 layer_factory.hpp:77] Creating layer inception_4e/relu_1x1
I0403 14:59:29.333338 30837 net.cpp:91] Creating Layer inception_4e/relu_1x1
I0403 14:59:29.333353 30837 net.cpp:425] inception_4e/relu_1x1 <- inception_4e/1x1
I0403 14:59:29.333370 30837 net.cpp:386] inception_4e/relu_1x1 -> inception_4e/1x1 (in-place)
I0403 14:59:29.333670 30837 net.cpp:141] Setting up inception_4e/relu_1x1
I0403 14:59:29.333699 30837 net.cpp:148] Top shape: 24 256 14 14 (1204224)
I0403 14:59:29.333714 30837 net.cpp:156] Memory required for data: 1218065952
I0403 14:59:29.333729 30837 layer_factory.hpp:77] Creating layer inception_4e/3x3_reduce
I0403 14:59:29.333750 30837 net.cpp:91] Creating Layer inception_4e/3x3_reduce
I0403 14:59:29.333766 30837 net.cpp:425] inception_4e/3x3_reduce <- inception_4d/output_inception_4d/output_0_split_2
I0403 14:59:29.333787 30837 net.cpp:399] inception_4e/3x3_reduce -> inception_4e/3x3_reduce
I0403 14:59:29.335922 30837 net.cpp:141] Setting up inception_4e/3x3_reduce
I0403 14:59:29.335950 30837 net.cpp:148] Top shape: 24 160 14 14 (752640)
I0403 14:59:29.335966 30837 net.cpp:156] Memory required for data: 1221076512
I0403 14:59:29.335984 30837 layer_factory.hpp:77] Creating layer inception_4e/relu_3x3_reduce
I0403 14:59:29.336004 30837 net.cpp:91] Creating Layer inception_4e/relu_3x3_reduce
I0403 14:59:29.336021 30837 net.cpp:425] inception_4e/relu_3x3_reduce <- inception_4e/3x3_reduce
I0403 14:59:29.336038 30837 net.cpp:386] inception_4e/relu_3x3_reduce -> inception_4e/3x3_reduce (in-place)
I0403 14:59:29.336223 30837 net.cpp:141] Setting up inception_4e/relu_3x3_reduce
I0403 14:59:29.336251 30837 net.cpp:148] Top shape: 24 160 14 14 (752640)
I0403 14:59:29.336266 30837 net.cpp:156] Memory required for data: 1224087072
I0403 14:59:29.336282 30837 layer_factory.hpp:77] Creating layer inception_4e/3x3
I0403 14:59:29.336303 30837 net.cpp:91] Creating Layer inception_4e/3x3
I0403 14:59:29.336320 30837 net.cpp:425] inception_4e/3x3 <- inception_4e/3x3_reduce
I0403 14:59:29.336339 30837 net.cpp:399] inception_4e/3x3 -> inception_4e/3x3
I0403 14:59:29.341383 30837 net.cpp:141] Setting up inception_4e/3x3
I0403 14:59:29.341428 30837 net.cpp:148] Top shape: 24 320 14 14 (1505280)
I0403 14:59:29.341446 30837 net.cpp:156] Memory required for data: 1230108192
I0403 14:59:29.341465 30837 layer_factory.hpp:77] Creating layer inception_4e/relu_3x3
I0403 14:59:29.341485 30837 net.cpp:91] Creating Layer inception_4e/relu_3x3
I0403 14:59:29.341506 30837 net.cpp:425] inception_4e/relu_3x3 <- inception_4e/3x3
I0403 14:59:29.341526 30837 net.cpp:386] inception_4e/relu_3x3 -> inception_4e/3x3 (in-place)
I0403 14:59:29.341835 30837 net.cpp:141] Setting up inception_4e/relu_3x3
I0403 14:59:29.341861 30837 net.cpp:148] Top shape: 24 320 14 14 (1505280)
I0403 14:59:29.341876 30837 net.cpp:156] Memory required for data: 1236129312
I0403 14:59:29.341889 30837 layer_factory.hpp:77] Creating layer inception_4e/5x5_reduce
I0403 14:59:29.341913 30837 net.cpp:91] Creating Layer inception_4e/5x5_reduce
I0403 14:59:29.341931 30837 net.cpp:425] inception_4e/5x5_reduce <- inception_4d/output_inception_4d/output_0_split_3
I0403 14:59:29.341953 30837 net.cpp:399] inception_4e/5x5_reduce -> inception_4e/5x5_reduce
I0403 14:59:29.343032 30837 net.cpp:141] Setting up inception_4e/5x5_reduce
I0403 14:59:29.343060 30837 net.cpp:148] Top shape: 24 32 14 14 (150528)
I0403 14:59:29.343075 30837 net.cpp:156] Memory required for data: 1236731424
I0403 14:59:29.343092 30837 layer_factory.hpp:77] Creating layer inception_4e/relu_5x5_reduce
I0403 14:59:29.343112 30837 net.cpp:91] Creating Layer inception_4e/relu_5x5_reduce
I0403 14:59:29.343129 30837 net.cpp:425] inception_4e/relu_5x5_reduce <- inception_4e/5x5_reduce
I0403 14:59:29.343147 30837 net.cpp:386] inception_4e/relu_5x5_reduce -> inception_4e/5x5_reduce (in-place)
I0403 14:59:29.343447 30837 net.cpp:141] Setting up inception_4e/relu_5x5_reduce
I0403 14:59:29.343473 30837 net.cpp:148] Top shape: 24 32 14 14 (150528)
I0403 14:59:29.343488 30837 net.cpp:156] Memory required for data: 1237333536
I0403 14:59:29.343513 30837 layer_factory.hpp:77] Creating layer inception_4e/5x5
I0403 14:59:29.343555 30837 net.cpp:91] Creating Layer inception_4e/5x5
I0403 14:59:29.343575 30837 net.cpp:425] inception_4e/5x5 <- inception_4e/5x5_reduce
I0403 14:59:29.343596 30837 net.cpp:399] inception_4e/5x5 -> inception_4e/5x5
I0403 14:59:29.345448 30837 net.cpp:141] Setting up inception_4e/5x5
I0403 14:59:29.345476 30837 net.cpp:148] Top shape: 24 128 14 14 (602112)
I0403 14:59:29.345491 30837 net.cpp:156] Memory required for data: 1239741984
I0403 14:59:29.345515 30837 layer_factory.hpp:77] Creating layer inception_4e/relu_5x5
I0403 14:59:29.345536 30837 net.cpp:91] Creating Layer inception_4e/relu_5x5
I0403 14:59:29.345553 30837 net.cpp:425] inception_4e/relu_5x5 <- inception_4e/5x5
I0403 14:59:29.345572 30837 net.cpp:386] inception_4e/relu_5x5 -> inception_4e/5x5 (in-place)
I0403 14:59:29.345767 30837 net.cpp:141] Setting up inception_4e/relu_5x5
I0403 14:59:29.345793 30837 net.cpp:148] Top shape: 24 128 14 14 (602112)
I0403 14:59:29.345808 30837 net.cpp:156] Memory required for data: 1242150432
I0403 14:59:29.345821 30837 layer_factory.hpp:77] Creating layer inception_4e/pool
I0403 14:59:29.345844 30837 net.cpp:91] Creating Layer inception_4e/pool
I0403 14:59:29.345860 30837 net.cpp:425] inception_4e/pool <- inception_4d/output_inception_4d/output_0_split_4
I0403 14:59:29.345876 30837 net.cpp:399] inception_4e/pool -> inception_4e/pool
I0403 14:59:29.345948 30837 net.cpp:141] Setting up inception_4e/pool
I0403 14:59:29.345971 30837 net.cpp:148] Top shape: 24 528 14 14 (2483712)
I0403 14:59:29.345986 30837 net.cpp:156] Memory required for data: 1252085280
I0403 14:59:29.346000 30837 layer_factory.hpp:77] Creating layer inception_4e/pool_proj
I0403 14:59:29.346022 30837 net.cpp:91] Creating Layer inception_4e/pool_proj
I0403 14:59:29.346040 30837 net.cpp:425] inception_4e/pool_proj <- inception_4e/pool
I0403 14:59:29.346060 30837 net.cpp:399] inception_4e/pool_proj -> inception_4e/pool_proj
I0403 14:59:29.347605 30837 net.cpp:141] Setting up inception_4e/pool_proj
I0403 14:59:29.347647 30837 net.cpp:148] Top shape: 24 128 14 14 (602112)
I0403 14:59:29.347663 30837 net.cpp:156] Memory required for data: 1254493728
I0403 14:59:29.347681 30837 layer_factory.hpp:77] Creating layer inception_4e/relu_pool_proj
I0403 14:59:29.347702 30837 net.cpp:91] Creating Layer inception_4e/relu_pool_proj
I0403 14:59:29.347718 30837 net.cpp:425] inception_4e/relu_pool_proj <- inception_4e/pool_proj
I0403 14:59:29.347735 30837 net.cpp:386] inception_4e/relu_pool_proj -> inception_4e/pool_proj (in-place)
I0403 14:59:29.348026 30837 net.cpp:141] Setting up inception_4e/relu_pool_proj
I0403 14:59:29.348052 30837 net.cpp:148] Top shape: 24 128 14 14 (602112)
I0403 14:59:29.348067 30837 net.cpp:156] Memory required for data: 1256902176
I0403 14:59:29.348081 30837 layer_factory.hpp:77] Creating layer inception_4e/output
I0403 14:59:29.348099 30837 net.cpp:91] Creating Layer inception_4e/output
I0403 14:59:29.348114 30837 net.cpp:425] inception_4e/output <- inception_4e/1x1
I0403 14:59:29.348131 30837 net.cpp:425] inception_4e/output <- inception_4e/3x3
I0403 14:59:29.348147 30837 net.cpp:425] inception_4e/output <- inception_4e/5x5
I0403 14:59:29.348163 30837 net.cpp:425] inception_4e/output <- inception_4e/pool_proj
I0403 14:59:29.348183 30837 net.cpp:399] inception_4e/output -> inception_4e/output
I0403 14:59:29.348233 30837 net.cpp:141] Setting up inception_4e/output
I0403 14:59:29.348258 30837 net.cpp:148] Top shape: 24 832 14 14 (3913728)
I0403 14:59:29.348274 30837 net.cpp:156] Memory required for data: 1272557088
I0403 14:59:29.348289 30837 layer_factory.hpp:77] Creating layer pool4/3x3_s2
I0403 14:59:29.348306 30837 net.cpp:91] Creating Layer pool4/3x3_s2
I0403 14:59:29.348322 30837 net.cpp:425] pool4/3x3_s2 <- inception_4e/output
I0403 14:59:29.348345 30837 net.cpp:399] pool4/3x3_s2 -> pool4/3x3_s2
I0403 14:59:29.348412 30837 net.cpp:141] Setting up pool4/3x3_s2
I0403 14:59:29.348435 30837 net.cpp:148] Top shape: 24 832 7 7 (978432)
I0403 14:59:29.348449 30837 net.cpp:156] Memory required for data: 1276470816
I0403 14:59:29.348464 30837 layer_factory.hpp:77] Creating layer pool4/3x3_s2_pool4/3x3_s2_0_split
I0403 14:59:29.348484 30837 net.cpp:91] Creating Layer pool4/3x3_s2_pool4/3x3_s2_0_split
I0403 14:59:29.348510 30837 net.cpp:425] pool4/3x3_s2_pool4/3x3_s2_0_split <- pool4/3x3_s2
I0403 14:59:29.348529 30837 net.cpp:399] pool4/3x3_s2_pool4/3x3_s2_0_split -> pool4/3x3_s2_pool4/3x3_s2_0_split_0
I0403 14:59:29.348549 30837 net.cpp:399] pool4/3x3_s2_pool4/3x3_s2_0_split -> pool4/3x3_s2_pool4/3x3_s2_0_split_1
I0403 14:59:29.348569 30837 net.cpp:399] pool4/3x3_s2_pool4/3x3_s2_0_split -> pool4/3x3_s2_pool4/3x3_s2_0_split_2
I0403 14:59:29.348592 30837 net.cpp:399] pool4/3x3_s2_pool4/3x3_s2_0_split -> pool4/3x3_s2_pool4/3x3_s2_0_split_3
I0403 14:59:29.348686 30837 net.cpp:141] Setting up pool4/3x3_s2_pool4/3x3_s2_0_split
I0403 14:59:29.348709 30837 net.cpp:148] Top shape: 24 832 7 7 (978432)
I0403 14:59:29.348726 30837 net.cpp:148] Top shape: 24 832 7 7 (978432)
I0403 14:59:29.348742 30837 net.cpp:148] Top shape: 24 832 7 7 (978432)
I0403 14:59:29.348757 30837 net.cpp:148] Top shape: 24 832 7 7 (978432)
I0403 14:59:29.348770 30837 net.cpp:156] Memory required for data: 1292125728
I0403 14:59:29.348784 30837 layer_factory.hpp:77] Creating layer inception_5a/1x1
I0403 14:59:29.348806 30837 net.cpp:91] Creating Layer inception_5a/1x1
I0403 14:59:29.348824 30837 net.cpp:425] inception_5a/1x1 <- pool4/3x3_s2_pool4/3x3_s2_0_split_0
I0403 14:59:29.348845 30837 net.cpp:399] inception_5a/1x1 -> inception_5a/1x1
I0403 14:59:29.351717 30837 net.cpp:141] Setting up inception_5a/1x1
I0403 14:59:29.351747 30837 net.cpp:148] Top shape: 24 256 7 7 (301056)
I0403 14:59:29.351763 30837 net.cpp:156] Memory required for data: 1293329952
I0403 14:59:29.351780 30837 layer_factory.hpp:77] Creating layer inception_5a/relu_1x1
I0403 14:59:29.351801 30837 net.cpp:91] Creating Layer inception_5a/relu_1x1
I0403 14:59:29.351819 30837 net.cpp:425] inception_5a/relu_1x1 <- inception_5a/1x1
I0403 14:59:29.351835 30837 net.cpp:386] inception_5a/relu_1x1 -> inception_5a/1x1 (in-place)
I0403 14:59:29.352150 30837 net.cpp:141] Setting up inception_5a/relu_1x1
I0403 14:59:29.352175 30837 net.cpp:148] Top shape: 24 256 7 7 (301056)
I0403 14:59:29.352190 30837 net.cpp:156] Memory required for data: 1294534176
I0403 14:59:29.352205 30837 layer_factory.hpp:77] Creating layer inception_5a/3x3_reduce
I0403 14:59:29.352227 30837 net.cpp:91] Creating Layer inception_5a/3x3_reduce
I0403 14:59:29.352246 30837 net.cpp:425] inception_5a/3x3_reduce <- pool4/3x3_s2_pool4/3x3_s2_0_split_1
I0403 14:59:29.352279 30837 net.cpp:399] inception_5a/3x3_reduce -> inception_5a/3x3_reduce
I0403 14:59:29.354789 30837 net.cpp:141] Setting up inception_5a/3x3_reduce
I0403 14:59:29.354820 30837 net.cpp:148] Top shape: 24 160 7 7 (188160)
I0403 14:59:29.354835 30837 net.cpp:156] Memory required for data: 1295286816
I0403 14:59:29.354854 30837 layer_factory.hpp:77] Creating layer inception_5a/relu_3x3_reduce
I0403 14:59:29.354872 30837 net.cpp:91] Creating Layer inception_5a/relu_3x3_reduce
I0403 14:59:29.354889 30837 net.cpp:425] inception_5a/relu_3x3_reduce <- inception_5a/3x3_reduce
I0403 14:59:29.354908 30837 net.cpp:386] inception_5a/relu_3x3_reduce -> inception_5a/3x3_reduce (in-place)
I0403 14:59:29.355095 30837 net.cpp:141] Setting up inception_5a/relu_3x3_reduce
I0403 14:59:29.355120 30837 net.cpp:148] Top shape: 24 160 7 7 (188160)
I0403 14:59:29.355135 30837 net.cpp:156] Memory required for data: 1296039456
I0403 14:59:29.355149 30837 layer_factory.hpp:77] Creating layer inception_5a/3x3
I0403 14:59:29.355172 30837 net.cpp:91] Creating Layer inception_5a/3x3
I0403 14:59:29.355190 30837 net.cpp:425] inception_5a/3x3 <- inception_5a/3x3_reduce
I0403 14:59:29.355212 30837 net.cpp:399] inception_5a/3x3 -> inception_5a/3x3
I0403 14:59:29.360334 30837 net.cpp:141] Setting up inception_5a/3x3
I0403 14:59:29.360363 30837 net.cpp:148] Top shape: 24 320 7 7 (376320)
I0403 14:59:29.360379 30837 net.cpp:156] Memory required for data: 1297544736
I0403 14:59:29.360397 30837 layer_factory.hpp:77] Creating layer inception_5a/relu_3x3
I0403 14:59:29.360417 30837 net.cpp:91] Creating Layer inception_5a/relu_3x3
I0403 14:59:29.360435 30837 net.cpp:425] inception_5a/relu_3x3 <- inception_5a/3x3
I0403 14:59:29.360451 30837 net.cpp:386] inception_5a/relu_3x3 -> inception_5a/3x3 (in-place)
I0403 14:59:29.360751 30837 net.cpp:141] Setting up inception_5a/relu_3x3
I0403 14:59:29.360777 30837 net.cpp:148] Top shape: 24 320 7 7 (376320)
I0403 14:59:29.360792 30837 net.cpp:156] Memory required for data: 1299050016
I0403 14:59:29.360807 30837 layer_factory.hpp:77] Creating layer inception_5a/5x5_reduce
I0403 14:59:29.360831 30837 net.cpp:91] Creating Layer inception_5a/5x5_reduce
I0403 14:59:29.360847 30837 net.cpp:425] inception_5a/5x5_reduce <- pool4/3x3_s2_pool4/3x3_s2_0_split_2
I0403 14:59:29.360868 30837 net.cpp:399] inception_5a/5x5_reduce -> inception_5a/5x5_reduce
I0403 14:59:29.362047 30837 net.cpp:141] Setting up inception_5a/5x5_reduce
I0403 14:59:29.362076 30837 net.cpp:148] Top shape: 24 32 7 7 (37632)
I0403 14:59:29.362092 30837 net.cpp:156] Memory required for data: 1299200544
I0403 14:59:29.362110 30837 layer_factory.hpp:77] Creating layer inception_5a/relu_5x5_reduce
I0403 14:59:29.362133 30837 net.cpp:91] Creating Layer inception_5a/relu_5x5_reduce
I0403 14:59:29.362149 30837 net.cpp:425] inception_5a/relu_5x5_reduce <- inception_5a/5x5_reduce
I0403 14:59:29.362166 30837 net.cpp:386] inception_5a/relu_5x5_reduce -> inception_5a/5x5_reduce (in-place)
I0403 14:59:29.362468 30837 net.cpp:141] Setting up inception_5a/relu_5x5_reduce
I0403 14:59:29.362493 30837 net.cpp:148] Top shape: 24 32 7 7 (37632)
I0403 14:59:29.362511 30837 net.cpp:156] Memory required for data: 1299351072
I0403 14:59:29.362529 30837 layer_factory.hpp:77] Creating layer inception_5a/5x5
I0403 14:59:29.362551 30837 net.cpp:91] Creating Layer inception_5a/5x5
I0403 14:59:29.362571 30837 net.cpp:425] inception_5a/5x5 <- inception_5a/5x5_reduce
I0403 14:59:29.362591 30837 net.cpp:399] inception_5a/5x5 -> inception_5a/5x5
I0403 14:59:29.364328 30837 net.cpp:141] Setting up inception_5a/5x5
I0403 14:59:29.364367 30837 net.cpp:148] Top shape: 24 128 7 7 (150528)
I0403 14:59:29.364383 30837 net.cpp:156] Memory required for data: 1299953184
I0403 14:59:29.364401 30837 layer_factory.hpp:77] Creating layer inception_5a/relu_5x5
I0403 14:59:29.364423 30837 net.cpp:91] Creating Layer inception_5a/relu_5x5
I0403 14:59:29.364440 30837 net.cpp:425] inception_5a/relu_5x5 <- inception_5a/5x5
I0403 14:59:29.364459 30837 net.cpp:386] inception_5a/relu_5x5 -> inception_5a/5x5 (in-place)
I0403 14:59:29.364655 30837 net.cpp:141] Setting up inception_5a/relu_5x5
I0403 14:59:29.364680 30837 net.cpp:148] Top shape: 24 128 7 7 (150528)
I0403 14:59:29.364693 30837 net.cpp:156] Memory required for data: 1300555296
I0403 14:59:29.364708 30837 layer_factory.hpp:77] Creating layer inception_5a/pool
I0403 14:59:29.364727 30837 net.cpp:91] Creating Layer inception_5a/pool
I0403 14:59:29.364744 30837 net.cpp:425] inception_5a/pool <- pool4/3x3_s2_pool4/3x3_s2_0_split_3
I0403 14:59:29.364763 30837 net.cpp:399] inception_5a/pool -> inception_5a/pool
I0403 14:59:29.364833 30837 net.cpp:141] Setting up inception_5a/pool
I0403 14:59:29.364857 30837 net.cpp:148] Top shape: 24 832 7 7 (978432)
I0403 14:59:29.364871 30837 net.cpp:156] Memory required for data: 1304469024
I0403 14:59:29.364886 30837 layer_factory.hpp:77] Creating layer inception_5a/pool_proj
I0403 14:59:29.364907 30837 net.cpp:91] Creating Layer inception_5a/pool_proj
I0403 14:59:29.364924 30837 net.cpp:425] inception_5a/pool_proj <- inception_5a/pool
I0403 14:59:29.364948 30837 net.cpp:399] inception_5a/pool_proj -> inception_5a/pool_proj
I0403 14:59:29.367243 30837 net.cpp:141] Setting up inception_5a/pool_proj
I0403 14:59:29.367272 30837 net.cpp:148] Top shape: 24 128 7 7 (150528)
I0403 14:59:29.367287 30837 net.cpp:156] Memory required for data: 1305071136
I0403 14:59:29.367306 30837 layer_factory.hpp:77] Creating layer inception_5a/relu_pool_proj
I0403 14:59:29.367324 30837 net.cpp:91] Creating Layer inception_5a/relu_pool_proj
I0403 14:59:29.367341 30837 net.cpp:425] inception_5a/relu_pool_proj <- inception_5a/pool_proj
I0403 14:59:29.367362 30837 net.cpp:386] inception_5a/relu_pool_proj -> inception_5a/pool_proj (in-place)
I0403 14:59:29.367662 30837 net.cpp:141] Setting up inception_5a/relu_pool_proj
I0403 14:59:29.367689 30837 net.cpp:148] Top shape: 24 128 7 7 (150528)
I0403 14:59:29.367703 30837 net.cpp:156] Memory required for data: 1305673248
I0403 14:59:29.367718 30837 layer_factory.hpp:77] Creating layer inception_5a/output
I0403 14:59:29.367735 30837 net.cpp:91] Creating Layer inception_5a/output
I0403 14:59:29.367751 30837 net.cpp:425] inception_5a/output <- inception_5a/1x1
I0403 14:59:29.367769 30837 net.cpp:425] inception_5a/output <- inception_5a/3x3
I0403 14:59:29.367784 30837 net.cpp:425] inception_5a/output <- inception_5a/5x5
I0403 14:59:29.367800 30837 net.cpp:425] inception_5a/output <- inception_5a/pool_proj
I0403 14:59:29.367820 30837 net.cpp:399] inception_5a/output -> inception_5a/output
I0403 14:59:29.367871 30837 net.cpp:141] Setting up inception_5a/output
I0403 14:59:29.367897 30837 net.cpp:148] Top shape: 24 832 7 7 (978432)
I0403 14:59:29.367913 30837 net.cpp:156] Memory required for data: 1309586976
I0403 14:59:29.367928 30837 layer_factory.hpp:77] Creating layer inception_5a/output_inception_5a/output_0_split
I0403 14:59:29.367944 30837 net.cpp:91] Creating Layer inception_5a/output_inception_5a/output_0_split
I0403 14:59:29.367967 30837 net.cpp:425] inception_5a/output_inception_5a/output_0_split <- inception_5a/output
I0403 14:59:29.367985 30837 net.cpp:399] inception_5a/output_inception_5a/output_0_split -> inception_5a/output_inception_5a/output_0_split_0
I0403 14:59:29.368007 30837 net.cpp:399] inception_5a/output_inception_5a/output_0_split -> inception_5a/output_inception_5a/output_0_split_1
I0403 14:59:29.368028 30837 net.cpp:399] inception_5a/output_inception_5a/output_0_split -> inception_5a/output_inception_5a/output_0_split_2
I0403 14:59:29.368049 30837 net.cpp:399] inception_5a/output_inception_5a/output_0_split -> inception_5a/output_inception_5a/output_0_split_3
I0403 14:59:29.368163 30837 net.cpp:141] Setting up inception_5a/output_inception_5a/output_0_split
I0403 14:59:29.368186 30837 net.cpp:148] Top shape: 24 832 7 7 (978432)
I0403 14:59:29.368203 30837 net.cpp:148] Top shape: 24 832 7 7 (978432)
I0403 14:59:29.368218 30837 net.cpp:148] Top shape: 24 832 7 7 (978432)
I0403 14:59:29.368233 30837 net.cpp:148] Top shape: 24 832 7 7 (978432)
I0403 14:59:29.368247 30837 net.cpp:156] Memory required for data: 1325241888
I0403 14:59:29.368263 30837 layer_factory.hpp:77] Creating layer inception_5b/1x1
I0403 14:59:29.368286 30837 net.cpp:91] Creating Layer inception_5b/1x1
I0403 14:59:29.368304 30837 net.cpp:425] inception_5b/1x1 <- inception_5a/output_inception_5a/output_0_split_0
I0403 14:59:29.368324 30837 net.cpp:399] inception_5b/1x1 -> inception_5b/1x1
I0403 14:59:29.372125 30837 net.cpp:141] Setting up inception_5b/1x1
I0403 14:59:29.372159 30837 net.cpp:148] Top shape: 24 384 7 7 (451584)
I0403 14:59:29.372175 30837 net.cpp:156] Memory required for data: 1327048224
I0403 14:59:29.372195 30837 layer_factory.hpp:77] Creating layer inception_5b/relu_1x1
I0403 14:59:29.372212 30837 net.cpp:91] Creating Layer inception_5b/relu_1x1
I0403 14:59:29.372228 30837 net.cpp:425] inception_5b/relu_1x1 <- inception_5b/1x1
I0403 14:59:29.372248 30837 net.cpp:386] inception_5b/relu_1x1 -> inception_5b/1x1 (in-place)
I0403 14:59:29.372565 30837 net.cpp:141] Setting up inception_5b/relu_1x1
I0403 14:59:29.372593 30837 net.cpp:148] Top shape: 24 384 7 7 (451584)
I0403 14:59:29.372609 30837 net.cpp:156] Memory required for data: 1328854560
I0403 14:59:29.372624 30837 layer_factory.hpp:77] Creating layer inception_5b/3x3_reduce
I0403 14:59:29.372649 30837 net.cpp:91] Creating Layer inception_5b/3x3_reduce
I0403 14:59:29.372668 30837 net.cpp:425] inception_5b/3x3_reduce <- inception_5a/output_inception_5a/output_0_split_1
I0403 14:59:29.372690 30837 net.cpp:399] inception_5b/3x3_reduce -> inception_5b/3x3_reduce
I0403 14:59:29.375378 30837 net.cpp:141] Setting up inception_5b/3x3_reduce
I0403 14:59:29.375416 30837 net.cpp:148] Top shape: 24 192 7 7 (225792)
I0403 14:59:29.375432 30837 net.cpp:156] Memory required for data: 1329757728
I0403 14:59:29.375450 30837 layer_factory.hpp:77] Creating layer inception_5b/relu_3x3_reduce
I0403 14:59:29.375468 30837 net.cpp:91] Creating Layer inception_5b/relu_3x3_reduce
I0403 14:59:29.375485 30837 net.cpp:425] inception_5b/relu_3x3_reduce <- inception_5b/3x3_reduce
I0403 14:59:29.375509 30837 net.cpp:386] inception_5b/relu_3x3_reduce -> inception_5b/3x3_reduce (in-place)
I0403 14:59:29.375704 30837 net.cpp:141] Setting up inception_5b/relu_3x3_reduce
I0403 14:59:29.375730 30837 net.cpp:148] Top shape: 24 192 7 7 (225792)
I0403 14:59:29.375743 30837 net.cpp:156] Memory required for data: 1330660896
I0403 14:59:29.375758 30837 layer_factory.hpp:77] Creating layer inception_5b/3x3
I0403 14:59:29.375780 30837 net.cpp:91] Creating Layer inception_5b/3x3
I0403 14:59:29.375797 30837 net.cpp:425] inception_5b/3x3 <- inception_5b/3x3_reduce
I0403 14:59:29.375819 30837 net.cpp:399] inception_5b/3x3 -> inception_5b/3x3
I0403 14:59:29.382556 30837 net.cpp:141] Setting up inception_5b/3x3
I0403 14:59:29.382586 30837 net.cpp:148] Top shape: 24 384 7 7 (451584)
I0403 14:59:29.382602 30837 net.cpp:156] Memory required for data: 1332467232
I0403 14:59:29.382621 30837 layer_factory.hpp:77] Creating layer inception_5b/relu_3x3
I0403 14:59:29.382638 30837 net.cpp:91] Creating Layer inception_5b/relu_3x3
I0403 14:59:29.382654 30837 net.cpp:425] inception_5b/relu_3x3 <- inception_5b/3x3
I0403 14:59:29.382673 30837 net.cpp:386] inception_5b/relu_3x3 -> inception_5b/3x3 (in-place)
I0403 14:59:29.382973 30837 net.cpp:141] Setting up inception_5b/relu_3x3
I0403 14:59:29.382999 30837 net.cpp:148] Top shape: 24 384 7 7 (451584)
I0403 14:59:29.383020 30837 net.cpp:156] Memory required for data: 1334273568
I0403 14:59:29.383035 30837 layer_factory.hpp:77] Creating layer inception_5b/5x5_reduce
I0403 14:59:29.383072 30837 net.cpp:91] Creating Layer inception_5b/5x5_reduce
I0403 14:59:29.383091 30837 net.cpp:425] inception_5b/5x5_reduce <- inception_5a/output_inception_5a/output_0_split_2
I0403 14:59:29.383113 30837 net.cpp:399] inception_5b/5x5_reduce -> inception_5b/5x5_reduce
I0403 14:59:29.384400 30837 net.cpp:141] Setting up inception_5b/5x5_reduce
I0403 14:59:29.384429 30837 net.cpp:148] Top shape: 24 48 7 7 (56448)
I0403 14:59:29.384445 30837 net.cpp:156] Memory required for data: 1334499360
I0403 14:59:29.384464 30837 layer_factory.hpp:77] Creating layer inception_5b/relu_5x5_reduce
I0403 14:59:29.384485 30837 net.cpp:91] Creating Layer inception_5b/relu_5x5_reduce
I0403 14:59:29.384500 30837 net.cpp:425] inception_5b/relu_5x5_reduce <- inception_5b/5x5_reduce
I0403 14:59:29.384531 30837 net.cpp:386] inception_5b/relu_5x5_reduce -> inception_5b/5x5_reduce (in-place)
I0403 14:59:29.384907 30837 net.cpp:141] Setting up inception_5b/relu_5x5_reduce
I0403 14:59:29.384933 30837 net.cpp:148] Top shape: 24 48 7 7 (56448)
I0403 14:59:29.384948 30837 net.cpp:156] Memory required for data: 1334725152
I0403 14:59:29.384963 30837 layer_factory.hpp:77] Creating layer inception_5b/5x5
I0403 14:59:29.384984 30837 net.cpp:91] Creating Layer inception_5b/5x5
I0403 14:59:29.385000 30837 net.cpp:425] inception_5b/5x5 <- inception_5b/5x5_reduce
I0403 14:59:29.385020 30837 net.cpp:399] inception_5b/5x5 -> inception_5b/5x5
I0403 14:59:29.387090 30837 net.cpp:141] Setting up inception_5b/5x5
I0403 14:59:29.387117 30837 net.cpp:148] Top shape: 24 128 7 7 (150528)
I0403 14:59:29.387133 30837 net.cpp:156] Memory required for data: 1335327264
I0403 14:59:29.387151 30837 layer_factory.hpp:77] Creating layer inception_5b/relu_5x5
I0403 14:59:29.387171 30837 net.cpp:91] Creating Layer inception_5b/relu_5x5
I0403 14:59:29.387188 30837 net.cpp:425] inception_5b/relu_5x5 <- inception_5b/5x5
I0403 14:59:29.387205 30837 net.cpp:386] inception_5b/relu_5x5 -> inception_5b/5x5 (in-place)
I0403 14:59:29.387398 30837 net.cpp:141] Setting up inception_5b/relu_5x5
I0403 14:59:29.387423 30837 net.cpp:148] Top shape: 24 128 7 7 (150528)
I0403 14:59:29.387439 30837 net.cpp:156] Memory required for data: 1335929376
I0403 14:59:29.387454 30837 layer_factory.hpp:77] Creating layer inception_5b/pool
I0403 14:59:29.387472 30837 net.cpp:91] Creating Layer inception_5b/pool
I0403 14:59:29.387488 30837 net.cpp:425] inception_5b/pool <- inception_5a/output_inception_5a/output_0_split_3
I0403 14:59:29.387511 30837 net.cpp:399] inception_5b/pool -> inception_5b/pool
I0403 14:59:29.387588 30837 net.cpp:141] Setting up inception_5b/pool
I0403 14:59:29.387611 30837 net.cpp:148] Top shape: 24 832 7 7 (978432)
I0403 14:59:29.387625 30837 net.cpp:156] Memory required for data: 1339843104
I0403 14:59:29.387640 30837 layer_factory.hpp:77] Creating layer inception_5b/pool_proj
I0403 14:59:29.387662 30837 net.cpp:91] Creating Layer inception_5b/pool_proj
I0403 14:59:29.387681 30837 net.cpp:425] inception_5b/pool_proj <- inception_5b/pool
I0403 14:59:29.387701 30837 net.cpp:399] inception_5b/pool_proj -> inception_5b/pool_proj
I0403 14:59:29.390022 30837 net.cpp:141] Setting up inception_5b/pool_proj
I0403 14:59:29.390051 30837 net.cpp:148] Top shape: 24 128 7 7 (150528)
I0403 14:59:29.390067 30837 net.cpp:156] Memory required for data: 1340445216
I0403 14:59:29.390085 30837 layer_factory.hpp:77] Creating layer inception_5b/relu_pool_proj
I0403 14:59:29.390106 30837 net.cpp:91] Creating Layer inception_5b/relu_pool_proj
I0403 14:59:29.390122 30837 net.cpp:425] inception_5b/relu_pool_proj <- inception_5b/pool_proj
I0403 14:59:29.390141 30837 net.cpp:386] inception_5b/relu_pool_proj -> inception_5b/pool_proj (in-place)
I0403 14:59:29.390437 30837 net.cpp:141] Setting up inception_5b/relu_pool_proj
I0403 14:59:29.390463 30837 net.cpp:148] Top shape: 24 128 7 7 (150528)
I0403 14:59:29.390477 30837 net.cpp:156] Memory required for data: 1341047328
I0403 14:59:29.390492 30837 layer_factory.hpp:77] Creating layer inception_5b/output
I0403 14:59:29.390514 30837 net.cpp:91] Creating Layer inception_5b/output
I0403 14:59:29.390544 30837 net.cpp:425] inception_5b/output <- inception_5b/1x1
I0403 14:59:29.390563 30837 net.cpp:425] inception_5b/output <- inception_5b/3x3
I0403 14:59:29.390579 30837 net.cpp:425] inception_5b/output <- inception_5b/5x5
I0403 14:59:29.390595 30837 net.cpp:425] inception_5b/output <- inception_5b/pool_proj
I0403 14:59:29.390616 30837 net.cpp:399] inception_5b/output -> inception_5b/output
I0403 14:59:29.390672 30837 net.cpp:141] Setting up inception_5b/output
I0403 14:59:29.390698 30837 net.cpp:148] Top shape: 24 1024 7 7 (1204224)
I0403 14:59:29.390713 30837 net.cpp:156] Memory required for data: 1345864224
I0403 14:59:29.390728 30837 layer_factory.hpp:77] Creating layer pool5/7x7_s1
I0403 14:59:29.390746 30837 net.cpp:91] Creating Layer pool5/7x7_s1
I0403 14:59:29.390763 30837 net.cpp:425] pool5/7x7_s1 <- inception_5b/output
I0403 14:59:29.390784 30837 net.cpp:399] pool5/7x7_s1 -> pool5/7x7_s1
I0403 14:59:29.391000 30837 net.cpp:141] Setting up pool5/7x7_s1
I0403 14:59:29.391024 30837 net.cpp:148] Top shape: 24 1024 1 1 (24576)
I0403 14:59:29.391038 30837 net.cpp:156] Memory required for data: 1345962528
I0403 14:59:29.391053 30837 layer_factory.hpp:77] Creating layer pool5/drop_7x7_s1
I0403 14:59:29.391073 30837 net.cpp:91] Creating Layer pool5/drop_7x7_s1
I0403 14:59:29.391089 30837 net.cpp:425] pool5/drop_7x7_s1 <- pool5/7x7_s1
I0403 14:59:29.391106 30837 net.cpp:386] pool5/drop_7x7_s1 -> pool5/7x7_s1 (in-place)
I0403 14:59:29.391157 30837 net.cpp:141] Setting up pool5/drop_7x7_s1
I0403 14:59:29.391185 30837 net.cpp:148] Top shape: 24 1024 1 1 (24576)
I0403 14:59:29.391199 30837 net.cpp:156] Memory required for data: 1346060832
I0403 14:59:29.391213 30837 layer_factory.hpp:77] Creating layer loss3/classifier_plantvillage
I0403 14:59:29.391232 30837 net.cpp:91] Creating Layer loss3/classifier_plantvillage
I0403 14:59:29.391248 30837 net.cpp:425] loss3/classifier_plantvillage <- pool5/7x7_s1
I0403 14:59:29.391268 30837 net.cpp:399] loss3/classifier_plantvillage -> loss3/classifier_plantvillage
I0403 14:59:29.391705 30837 net.cpp:141] Setting up loss3/classifier_plantvillage
I0403 14:59:29.391731 30837 net.cpp:148] Top shape: 24 38 (912)
I0403 14:59:29.391744 30837 net.cpp:156] Memory required for data: 1346064480
I0403 14:59:29.391762 30837 layer_factory.hpp:77] Creating layer loss3/classifier_plantvillage_loss3/classifier_plantvillage_0_split
I0403 14:59:29.391780 30837 net.cpp:91] Creating Layer loss3/classifier_plantvillage_loss3/classifier_plantvillage_0_split
I0403 14:59:29.391796 30837 net.cpp:425] loss3/classifier_plantvillage_loss3/classifier_plantvillage_0_split <- loss3/classifier_plantvillage
I0403 14:59:29.391813 30837 net.cpp:399] loss3/classifier_plantvillage_loss3/classifier_plantvillage_0_split -> loss3/classifier_plantvillage_loss3/classifier_plantvillage_0_split_0
I0403 14:59:29.391836 30837 net.cpp:399] loss3/classifier_plantvillage_loss3/classifier_plantvillage_0_split -> loss3/classifier_plantvillage_loss3/classifier_plantvillage_0_split_1
I0403 14:59:29.391858 30837 net.cpp:399] loss3/classifier_plantvillage_loss3/classifier_plantvillage_0_split -> loss3/classifier_plantvillage_loss3/classifier_plantvillage_0_split_2
I0403 14:59:29.391878 30837 net.cpp:399] loss3/classifier_plantvillage_loss3/classifier_plantvillage_0_split -> loss3/classifier_plantvillage_loss3/classifier_plantvillage_0_split_3
I0403 14:59:29.391980 30837 net.cpp:141] Setting up loss3/classifier_plantvillage_loss3/classifier_plantvillage_0_split
I0403 14:59:29.392004 30837 net.cpp:148] Top shape: 24 38 (912)
I0403 14:59:29.392019 30837 net.cpp:148] Top shape: 24 38 (912)
I0403 14:59:29.392033 30837 net.cpp:148] Top shape: 24 38 (912)
I0403 14:59:29.392048 30837 net.cpp:148] Top shape: 24 38 (912)
I0403 14:59:29.392062 30837 net.cpp:156] Memory required for data: 1346079072
I0403 14:59:29.392076 30837 layer_factory.hpp:77] Creating layer loss1/loss
I0403 14:59:29.392102 30837 net.cpp:91] Creating Layer loss1/loss
I0403 14:59:29.392118 30837 net.cpp:425] loss1/loss <- loss1/classifier_plantvillage_loss1/classifier_plantvillage_0_split_0
I0403 14:59:29.392149 30837 net.cpp:425] loss1/loss <- label_data_1_split_0
…
