…
I0403 15:03:06.293377 30954 net.cpp:313] The NetState phase (1) differed from the phase (0) specified by a rule in layer data
I0403 15:03:06.294651 30954 net.cpp:49] Initializing net from parameters: 
state {
  phase: TEST
}
layer {
  name: "data"
  type: "Data"
  top: "data"
  top: "label"
  include {
    phase: TEST
  }
  transform_param {
    mirror: false
    crop_size: 224
    mean_file: "/home/mohanty/data/final_dataset/lmdb/grayscale-80-20/mean.binaryproto"
  }
  data_param {
    source: "/home/mohanty/data/final_dataset/lmdb/grayscale-80-20/test_db"
    batch_size: 24
    backend: LMDB
  }
}
layer {
  name: "conv1/7x7_s2"
  type: "Convolution"
  bottom: "data"
  top: "conv1/7x7_s2"
  param {
    lr_mult: 1
    decay_mult: 1
  }
  param {
    lr_mult: 2
    decay_mult: 0
  }
  convolution_param {
    num_output: 64
    pad: 3
    kernel_size: 7
    stride: 2
    weight_filler {
      type: "xavier"
      std: 0.1
    }
    bias_filler {
      type: "constant"
      value: 0.2
    }
  }
}
layer {
  name: "conv1/relu_7x7"
  type: "ReLU"
  bottom: "conv1/7x7_s2"
  top: "conv1/7x7_s2"
}
layer {
  name: "pool1/3x3_s2"
  type: "Pooling"
  bottom: "conv1/7x7_s2"
  top: "pool1/3x3_s2"
  pooling_param {
    pool: MAX
    kernel_size: 3
    stride: 2
  }
}
layer {
  name: "pool1/norm1"
  type: "LRN"
  bottom: "pool1/3x3_s2"
  top: "pool1/norm1"
  lrn_param {
    local_size: 5
    alpha: 0.0001
    beta: 0.75
  }
}
layer {
  name: "conv2/3x3_reduce"
  type: "Convolution"
  bottom: "pool1/norm1"
  top: "conv2/3x3_reduce"
  param {
    lr_mult: 1
    decay_mult: 1
  }
  param {
    lr_mult: 2
    decay_mult: 0
  }
  convolution_param {
    num_output: 64
    kernel_size: 1
    weight_filler {
      type: "xavier"
      std: 0.1
    }
    bias_filler {
      type: "constant"
      value: 0.2
    }
  }
}
layer {
  name: "conv2/relu_3x3_reduce"
  type: "ReLU"
  bottom: "conv2/3x3_reduce"
  top: "conv2/3x3_reduce"
}
layer {
  name: "conv2/3x3"
  type: "Convolution"
  bottom: "conv2/3x3_reduce"
  top: "conv2/3x3"
  param {
    lr_mult: 1
    decay_mult: 1
  }
  param {
    lr_mult: 2
    decay_mult: 0
  }
  convolution_param {
    num_output: 192
    pad: 1
    kernel_size: 3
    weight_filler {
      type: "xavier"
      std: 0.03
    }
    bias_filler {
      type: "constant"
      value: 0.2
    }
  }
}
layer {
  name: "conv2/relu_3x3"
  type: "ReLU"
  bottom: "conv2/3x3"
  top: "conv2/3x3"
}
layer {
  name: "conv2/norm2"
  type: "LRN"
  bottom: "conv2/3x3"
  top: "conv2/norm2"
  lrn_param {
    local_size: 5
    alpha: 0.0001
    beta: 0.75
  }
}
layer {
  name: "pool2/3x3_s2"
  type: "Pooling"
  bottom: "conv2/norm2"
  top: "pool2/3x3_s2"
  pooling_param {
    pool: MAX
    kernel_size: 3
    stride: 2
  }
}
layer {
  name: "inception_3a/1x1"
  type: "Convolution"
  bottom: "pool2/3x3_s2"
  top: "inception_3a/1x1"
  param {
    lr_mult: 1
    decay_mult: 1
  }
  param {
    lr_mult: 2
    decay_mult: 0
  }
  convolution_param {
    num_output: 64
    kernel_size: 1
    weight_filler {
      type: "xavier"
      std: 0.03
    }
    bias_filler {
      type: "constant"
      value: 0.2
    }
  }
}
layer {
  name: "inception_3a/relu_1x1"
  type: "ReLU"
  bottom: "inception_3a/1x1"
  top: "inception_3a/1x1"
}
layer {
  name: "inception_3a/3x3_reduce"
  type: "Convolution"
  bottom: "pool2/3x3_s2"
  top: "inception_3a/3x3_reduce"
  param {
    lr_mult: 1
    decay_mult: 1
  }
  param {
    lr_mult: 2
    decay_mult: 0
  }
  convolution_param {
    num_output: 96
    kernel_size: 1
    weight_filler {
      type: "xavier"
      std: 0.09
    }
    bias_filler {
      type: "constant"
      value: 0.2
    }
  }
}
layer {
  name: "inception_3a/relu_3x3_reduce"
  type: "ReLU"
  bottom: "inception_3a/3x3_reduce"
  top: "inception_3a/3x3_reduce"
}
layer {
  name: "inception_3a/3x3"
  type: "Convolution"
  bottom: "inception_3a/3x3_reduce"
  top: "inception_3a/3x3"
  param {
    lr_mult: 1
    decay_mult: 1
  }
  param {
    lr_mult: 2
    decay_mult: 0
  }
  convolution_param {
    num_output: 128
    pad: 1
    kernel_size: 3
    weight_filler {
      type: "xavier"
      std: 0.03
    }
    bias_filler {
      type: "constant"
      value: 0.2
    }
  }
}
layer {
  name: "inception_3a/relu_3x3"
  type: "ReLU"
  bottom: "inception_3a/3x3"
  top: "inception_3a/3x3"
}
layer {
  name: "inception_3a/5x5_reduce"
  type: "Convolution"
  bottom: "pool2/3x3_s2"
  top: "inception_3a/5x5_reduce"
  param {
    lr_mult: 1
    decay_mult: 1
  }
  param {
    lr_mult: 2
    decay_mult: 0
  }
  convolution_param {
    num_output: 16
    kernel_size: 1
    weight_filler {
      type: "xavier"
      std: 0.2
    }
    bias_filler {
      type: "constant"
      value: 0.2
    }
  }
}
layer {
  name: "inception_3a/relu_5x5_reduce"
  type: "ReLU"
  bottom: "inception_3a/5x5_reduce"
  top: "inception_3a/5x5_reduce"
}
layer {
  name: "inception_3a/5x5"
  type: "Convolution"
  bottom: "inception_3a/5x5_reduce"
  top: "inception_3a/5x5"
  param {
    lr_mult: 1
    decay_mult: 1
  }
  param {
    lr_mult: 2
    decay_mult: 0
  }
  convolution_param {
    num_output: 32
    pad: 2
    kernel_size: 5
    weight_filler {
      type: "xavier"
      std: 0.03
    }
    bias_filler {
      type: "constant"
      value: 0.2
    }
  }
}
layer {
  name: "inception_3a/relu_5x5"
  type: "ReLU"
  bottom: "inception_3a/5x5"
  top: "inception_3a/5x5"
}
layer {
  name: "inception_3a/pool"
  type: "Pooling"
  bottom: "pool2/3x3_s2"
  top: "inception_3a/pool"
  pooling_param {
    pool: MAX
    kernel_size: 3
    stride: 1
    pad: 1
  }
}
layer {
  name: "inception_3a/pool_proj"
  type: "Convolution"
  bottom: "inception_3a/pool"
  top: "inception_3a/pool_proj"
  param {
    lr_mult: 1
    decay_mult: 1
  }
  param {
    lr_mult: 2
    decay_mult: 0
  }
  convolution_param {
    num_output: 32
    kernel_size: 1
    weight_filler {
      type: "xavier"
      std: 0.1
    }
    bias_filler {
      type: "constant"
      value: 0.2
    }
  }
}
layer {
  name: "inception_3a/relu_pool_proj"
  type: "ReLU"
  bottom: "inception_3a/pool_proj"
  top: "inception_3a/pool_proj"
}
layer {
  name: "inception_3a/output"
  type: "Concat"
  bottom: "inception_3a/1x1"
  bottom: "inception_3a/3x3"
  bottom: "inception_3a/5x5"
  bottom: "inception_3a/pool_proj"
  top: "inception_3a/output"
}
layer {
  name: "inception_3b/1x1"
  type: "Convolution"
  bottom: "inception_3a/output"
  top: "inception_3b/1x1"
  param {
    lr_mult: 1
    decay_mult: 1
  }
  param {
    lr_mult: 2
    decay_mult: 0
  }
  convolution_param {
    num_output: 128
    kernel_size: 1
    weight_filler {
      type: "xavier"
      std: 0.03
    }
    bias_filler {
      type: "constant"
      value: 0.2
    }
  }
}
layer {
  name: "inception_3b/relu_1x1"
  type: "ReLU"
  bottom: "inception_3b/1x1"
  top: "inception_3b/1x1"
}
layer {
  name: "inception_3b/3x3_reduce"
  type: "Convolution"
  bottom: "inception_3a/output"
  top: "inception_3b/3x3_reduce"
  param {
    lr_mult: 1
    decay_mult: 1
  }
  param {
    lr_mult: 2
    decay_mult: 0
  }
  convolution_param {
    num_output: 128
    kernel_size: 1
    weight_filler {
      type: "xavier"
      std: 0.09
    }
    bias_filler {
      type: "constant"
      value: 0.2
    }
  }
}
layer {
  name: "inception_3b/relu_3x3_reduce"
  type: "ReLU"
  bottom: "inception_3b/3x3_reduce"
  top: "inception_3b/3x3_reduce"
}
layer {
  name: "inception_3b/3x3"
  type: "Convolution"
  bottom: "inception_3b/3x3_reduce"
  top: "inception_3b/3x3"
  param {
    lr_mult: 1
    decay_mult: 1
  }
  param {
    lr_mult: 2
    decay_mult: 0
  }
  convolution_param {
    num_output: 192
    pad: 1
    kernel_size: 3
    weight_filler {
      type: "xavier"
      std: 0.03
    }
    bias_filler {
      type: "constant"
      value: 0.2
    }
  }
}
layer {
  name: "inception_3b/relu_3x3"
  type: "ReLU"
  bottom: "inception_3b/3x3"
  top: "inception_3b/3x3"
}
layer {
  name: "inception_3b/5x5_reduce"
  type: "Convolution"
  bottom: "inception_3a/output"
  top: "inception_3b/5x5_reduce"
  param {
    lr_mult: 1
    decay_mult: 1
  }
  param {
    lr_mult: 2
    decay_mult: 0
  }
  convolution_param {
    num_output: 32
    kernel_size: 1
    weight_filler {
      type: "xavier"
      std: 0.2
    }
    bias_filler {
      type: "constant"
      value: 0.2
    }
  }
}
layer {
  name: "inception_3b/relu_5x5_reduce"
  type: "ReLU"
  bottom: "inception_3b/5x5_reduce"
  top: "inception_3b/5x5_reduce"
}
layer {
  name: "inception_3b/5x5"
  type: "Convolution"
  bottom: "inception_3b/5x5_reduce"
  top: "inception_3b/5x5"
  param {
    lr_mult: 1
    decay_mult: 1
  }
  param {
    lr_mult: 2
    decay_mult: 0
  }
  convolution_param {
    num_output: 96
    pad: 2
    kernel_size: 5
    weight_filler {
      type: "xavier"
      std: 0.03
    }
    bias_filler {
      type: "constant"
      value: 0.2
    }
  }
}
layer {
  name: "inception_3b/relu_5x5"
  type: "ReLU"
  bottom: "inception_3b/5x5"
  top: "inception_3b/5x5"
}
layer {
  name: "inception_3b/pool"
  type: "Pooling"
  bottom: "inception_3a/output"
  top: "inception_3b/pool"
  pooling_param {
    pool: MAX
    kernel_size: 3
    stride: 1
    pad: 1
  }
}
layer {
  name: "inception_3b/pool_proj"
  type: "Convolution"
  bottom: "inception_3b/pool"
  top: "inception_3b/pool_proj"
  param {
    lr_mult: 1
    decay_mult: 1
  }
  param {
    lr_mult: 2
    decay_mult: 0
  }
  convolution_param {
    num_output: 64
    kernel_size: 1
    weight_filler {
      type: "xavier"
      std: 0.1
    }
    bias_filler {
      type: "constant"
      value: 0.2
    }
  }
}
layer {
  name: "inception_3b/relu_pool_proj"
  type: "ReLU"
  bottom: "inception_3b/pool_proj"
  top: "inception_3b/pool_proj"
}
layer {
  name: "inception_3b/output"
  type: "Concat"
  bottom: "inception_3b/1x1"
  bottom: "inception_3b/3x3"
  bottom: "inception_3b/5x5"
  bottom: "inception_3b/pool_proj"
  top: "inception_3b/output"
}
layer {
  name: "pool3/3x3_s2"
  type: "Pooling"
  bottom: "inception_3b/output"
  top: "pool3/3x3_s2"
  pooling_param {
    pool: MAX
    kernel_size: 3
    stride: 2
  }
}
layer {
  name: "inception_4a/1x1"
  type: "Convolution"
  bottom: "pool3/3x3_s2"
  top: "inception_4a/1x1"
  param {
    lr_mult: 1
    decay_mult: 1
  }
  param {
    lr_mult: 2
    decay_mult: 0
  }
  convolution_param {
    num_output: 192
    kernel_size: 1
    weight_filler {
      type: "xavier"
      std: 0.03
    }
    bias_filler {
      type: "constant"
      value: 0.2
    }
  }
}
layer {
  name: "inception_4a/relu_1x1"
  type: "ReLU"
  bottom: "inception_4a/1x1"
  top: "inception_4a/1x1"
}
layer {
  name: "inception_4a/3x3_reduce"
  type: "Convolution"
  bottom: "pool3/3x3_s2"
  top: "inception_4a/3x3_reduce"
  param {
    lr_mult: 1
    decay_mult: 1
  }
  param {
    lr_mult: 2
    decay_mult: 0
  }
  convolution_param {
    num_output: 96
    kernel_size: 1
    weight_filler {
      type: "xavier"
      std: 0.09
    }
    bias_filler {
      type: "constant"
      value: 0.2
    }
  }
}
layer {
  name: "inception_4a/relu_3x3_reduce"
  type: "ReLU"
  bottom: "inception_4a/3x3_reduce"
  top: "inception_4a/3x3_reduce"
}
layer {
  name: "inception_4a/3x3"
  type: "Convolution"
  bottom: "inception_4a/3x3_reduce"
  top: "inception_4a/3x3"
  param {
    lr_mult: 1
    decay_mult: 1
  }
  param {
    lr_mult: 2
    decay_mult: 0
  }
  convolution_param {
    num_output: 208
    pad: 1
    kernel_size: 3
    weight_filler {
      type: "xavier"
      std: 0.03
    }
    bias_filler {
      type: "constant"
      value: 0.2
    }
  }
}
layer {
  name: "inception_4a/relu_3x3"
  type: "ReLU"
  bottom: "inception_4a/3x3"
  top: "inception_4a/3x3"
}
layer {
  name: "inception_4a/5x5_reduce"
  type: "Convolution"
  bottom: "pool3/3x3_s2"
  top: "inception_4a/5x5_reduce"
  param {
    lr_mult: 1
    decay_mult: 1
  }
  param {
    lr_mult: 2
    decay_mult: 0
  }
  convolution_param {
    num_output: 16
    kernel_size: 1
    weight_filler {
      type: "xavier"
      std: 0.2
    }
    bias_filler {
      type: "constant"
      value: 0.2
    }
  }
}
layer {
  name: "inception_4a/relu_5x5_reduce"
  type: "ReLU"
  bottom: "inception_4a/5x5_reduce"
  top: "inception_4a/5x5_reduce"
}
layer {
  name: "inception_4a/5x5"
  type: "Convolution"
  bottom: "inception_4a/5x5_reduce"
  top: "inception_4a/5x5"
  param {
    lr_mult: 1
    decay_mult: 1
  }
  param {
    lr_mult: 2
    decay_mult: 0
  }
  convolution_param {
    num_output: 48
    pad: 2
    kernel_size: 5
    weight_filler {
      type: "xavier"
      std: 0.03
    }
    bias_filler {
      type: "constant"
      value: 0.2
    }
  }
}
layer {
  name: "inception_4a/relu_5x5"
  type: "ReLU"
  bottom: "inception_4a/5x5"
  top: "inception_4a/5x5"
}
layer {
  name: "inception_4a/pool"
  type: "Pooling"
  bottom: "pool3/3x3_s2"
  top: "inception_4a/pool"
  pooling_param {
    pool: MAX
    kernel_size: 3
    stride: 1
    pad: 1
  }
}
layer {
  name: "inception_4a/pool_proj"
  type: "Convolution"
  bottom: "inception_4a/pool"
  top: "inception_4a/pool_proj"
  param {
    lr_mult: 1
    decay_mult: 1
  }
  param {
    lr_mult: 2
    decay_mult: 0
  }
  convolution_param {
    num_output: 64
    kernel_size: 1
    weight_filler {
      type: "xavier"
      std: 0.1
    }
    bias_filler {
      type: "constant"
      value: 0.2
    }
  }
}
layer {
  name: "inception_4a/relu_pool_proj"
  type: "ReLU"
  bottom: "inception_4a/pool_proj"
  top: "inception_4a/pool_proj"
}
layer {
  name: "inception_4a/output"
  type: "Concat"
  bottom: "inception_4a/1x1"
  bottom: "inception_4a/3x3"
  bottom: "inception_4a/5x5"
  bottom: "inception_4a/pool_proj"
  top: "inception_4a/output"
}
layer {
  name: "loss1/ave_pool"
  type: "Pooling"
  bottom: "inception_4a/output"
  top: "loss1/ave_pool"
  pooling_param {
    pool: AVE
    kernel_size: 5
    stride: 3
  }
}
layer {
  name: "loss1/conv"
  type: "Convolution"
  bottom: "loss1/ave_pool"
  top: "loss1/conv"
  param {
    lr_mult: 1
    decay_mult: 1
  }
  param {
    lr_mult: 2
    decay_mult: 0
  }
  convolution_param {
    num_output: 128
    kernel_size: 1
    weight_filler {
      type: "xavier"
      std: 0.08
    }
    bias_filler {
      type: "constant"
      value: 0.2
    }
  }
}
layer {
  name: "loss1/relu_conv"
  type: "ReLU"
  bottom: "loss1/conv"
  top: "loss1/conv"
}
layer {
  name: "loss1/fc"
  type: "InnerProduct"
  bottom: "loss1/conv"
  top: "loss1/fc"
  param {
    lr_mult: 1
    decay_mult: 1
  }
  param {
    lr_mult: 2
    decay_mult: 0
  }
  inner_product_param {
    num_output: 1024
    weight_filler {
      type: "xavier"
      std: 0.02
    }
    bias_filler {
      type: "constant"
      value: 0.2
    }
  }
}
layer {
  name: "loss1/relu_fc"
  type: "ReLU"
  bottom: "loss1/fc"
  top: "loss1/fc"
}
layer {
  name: "loss1/drop_fc"
  type: "Dropout"
  bottom: "loss1/fc"
  top: "loss1/fc"
  dropout_param {
    dropout_ratio: 0.7
  }
}
layer {
  name: "loss1/classifier_plantvillage"
  type: "InnerProduct"
  bottom: "loss1/fc"
  top: "loss1/classifier_plantvillage"
  param {
    lr_mult: 1
    decay_mult: 1
  }
  param {
    lr_mult: 2
    decay_mult: 0
  }
  inner_product_param {
    num_output: 38
    weight_filler {
      type: "xavier"
      std: 0.0009765625
    }
    bias_filler {
      type: "constant"
      value: 0
    }
  }
}
layer {
  name: "inception_4b/1x1"
  type: "Convolution"
  bottom: "inception_4a/output"
  top: "inception_4b/1x1"
  param {
    lr_mult: 1
    decay_mult: 1
  }
  param {
    lr_mult: 2
    decay_mult: 0
  }
  convolution_param {
    num_output: 160
    kernel_size: 1
    weight_filler {
      type: "xavier"
      std: 0.03
    }
    bias_filler {
      type: "constant"
      value: 0.2
    }
  }
}
layer {
  name: "inception_4b/relu_1x1"
  type: "ReLU"
  bottom: "inception_4b/1x1"
  top: "inception_4b/1x1"
}
layer {
  name: "inception_4b/3x3_reduce"
  type: "Convolution"
  bottom: "inception_4a/output"
  top: "inception_4b/3x3_reduce"
  param {
    lr_mult: 1
    decay_mult: 1
  }
  param {
    lr_mult: 2
    decay_mult: 0
  }
  convolution_param {
    num_output: 112
    kernel_size: 1
    weight_filler {
      type: "xavier"
      std: 0.09
    }
    bias_filler {
      type: "constant"
      value: 0.2
    }
  }
}
layer {
  name: "inception_4b/relu_3x3_reduce"
  type: "ReLU"
  bottom: "inception_4b/3x3_reduce"
  top: "inception_4b/3x3_reduce"
}
layer {
  name: "inception_4b/3x3"
  type: "Convolution"
  bottom: "inception_4b/3x3_reduce"
  top: "inception_4b/3x3"
  param {
    lr_mult: 1
    decay_mult: 1
  }
  param {
    lr_mult: 2
    decay_mult: 0
  }
  convolution_param {
    num_output: 224
    pad: 1
    kernel_size: 3
    weight_filler {
      type: "xavier"
      std: 0.03
    }
    bias_filler {
      type: "constant"
      value: 0.2
    }
  }
}
layer {
  name: "inception_4b/relu_3x3"
  type: "ReLU"
  bottom: "inception_4b/3x3"
  top: "inception_4b/3x3"
}
layer {
  name: "inception_4b/5x5_reduce"
  type: "Convolution"
  bottom: "inception_4a/output"
  top: "inception_4b/5x5_reduce"
  param {
    lr_mult: 1
    decay_mult: 1
  }
  param {
    lr_mult: 2
    decay_mult: 0
  }
  convolution_param {
    num_output: 24
    kernel_size: 1
    weight_filler {
      type: "xavier"
      std: 0.2
    }
    bias_filler {
      type: "constant"
      value: 0.2
    }
  }
}
layer {
  name: "inception_4b/relu_5x5_reduce"
  type: "ReLU"
  bottom: "inception_4b/5x5_reduce"
  top: "inception_4b/5x5_reduce"
}
layer {
  name: "inception_4b/5x5"
  type: "Convolution"
  bottom: "inception_4b/5x5_reduce"
  top: "inception_4b/5x5"
  param {
    lr_mult: 1
    decay_mult: 1
  }
  param {
    lr_mult: 2
    decay_mult: 0
  }
  convolution_param {
    num_output: 64
    pad: 2
    kernel_size: 5
    weight_filler {
      type: "xavier"
      std: 0.03
    }
    bias_filler {
      type: "constant"
      value: 0.2
    }
  }
}
layer {
  name: "inception_4b/relu_5x5"
  type: "ReLU"
  bottom: "inception_4b/5x5"
  top: "inception_4b/5x5"
}
layer {
  name: "inception_4b/pool"
  type: "Pooling"
  bottom: "inception_4a/output"
  top: "inception_4b/pool"
  pooling_param {
    pool: MAX
    kernel_size: 3
    stride: 1
    pad: 1
  }
}
layer {
  name: "inception_4b/pool_proj"
  type: "Convolution"
  bottom: "inception_4b/pool"
  top: "inception_4b/pool_proj"
  param {
    lr_mult: 1
    decay_mult: 1
  }
  param {
    lr_mult: 2
    decay_mult: 0
  }
  convolution_param {
    num_output: 64
    kernel_size: 1
    weight_filler {
      type: "xavier"
      std: 0.1
    }
    bias_filler {
      type: "constant"
      value: 0.2
    }
  }
}
layer {
  name: "inception_4b/relu_pool_proj"
  type: "ReLU"
  bottom: "inception_4b/pool_proj"
  top: "inception_4b/pool_proj"
}
layer {
  name: "inception_4b/output"
  type: "Concat"
  bottom: "inception_4b/1x1"
  bottom: "inception_4b/3x3"
  bottom: "inception_4b/5x5"
  bottom: "inception_4b/pool_proj"
  top: "inception_4b/output"
}
layer {
  name: "inception_4c/1x1"
  type: "Convolution"
  bottom: "inception_4b/output"
  top: "inception_4c/1x1"
  param {
    lr_mult: 1
    decay_mult: 1
  }
  param {
    lr_mult: 2
    decay_mult: 0
  }
  convolution_param {
    num_output: 128
    kernel_size: 1
    weight_filler {
      type: "xavier"
      std: 0.03
    }
    bias_filler {
      type: "constant"
      value: 0.2
    }
  }
}
layer {
  name: "inception_4c/relu_1x1"
  type: "ReLU"
  bottom: "inception_4c/1x1"
  top: "inception_4c/1x1"
}
layer {
  name: "inception_4c/3x3_reduce"
  type: "Convolution"
  bottom: "inception_4b/output"
  top: "inception_4c/3x3_reduce"
  param {
    lr_mult: 1
    decay_mult: 1
  }
  param {
    lr_mult: 2
    decay_mult: 0
  }
  convolution_param {
    num_output: 128
    kernel_size: 1
    weight_filler {
      type: "xavier"
      std: 0.09
    }
    bias_filler {
      type: "constant"
      value: 0.2
    }
  }
}
layer {
  name: "inception_4c/relu_3x3_reduce"
  type: "ReLU"
  bottom: "inception_4c/3x3_reduce"
  top: "inception_4c/3x3_reduce"
}
layer {
  name: "inception_4c/3x3"
  type: "Convolution"
  bottom: "inception_4c/3x3_reduce"
  top: "inception_4c/3x3"
  param {
    lr_mult: 1
    decay_mult: 1
  }
  param {
    lr_mult: 2
    decay_mult: 0
  }
  convolution_param {
    num_output: 256
    pad: 1
    kernel_size: 3
    weight_filler {
      type: "xavier"
      std: 0.03
    }
    bias_filler {
      type: "constant"
      value: 0.2
    }
  }
}
layer {
  name: "inception_4c/relu_3x3"
  type: "ReLU"
  bottom: "inception_4c/3x3"
  top: "inception_4c/3x3"
}
layer {
  name: "inception_4c/5x5_reduce"
  type: "Convolution"
  bottom: "inception_4b/output"
  top: "inception_4c/5x5_reduce"
  param {
    lr_mult: 1
    decay_mult: 1
  }
  param {
    lr_mult: 2
    decay_mult: 0
  }
  convolution_param {
    num_output: 24
    kernel_size: 1
    weight_filler {
      type: "xavier"
      std: 0.2
    }
    bias_filler {
      type: "constant"
      value: 0.2
    }
  }
}
layer {
  name: "inception_4c/relu_5x5_reduce"
  type: "ReLU"
  bottom: "inception_4c/5x5_reduce"
  top: "inception_4c/5x5_reduce"
}
layer {
  name: "inception_4c/5x5"
  type: "Convolution"
  bottom: "inception_4c/5x5_reduce"
  top: "inception_4c/5x5"
  param {
    lr_mult: 1
    decay_mult: 1
  }
  param {
    lr_mult: 2
    decay_mult: 0
  }
  convolution_param {
    num_output: 64
    pad: 2
    kernel_size: 5
    weight_filler {
      type: "xavier"
      std: 0.03
    }
    bias_filler {
      type: "constant"
      value: 0.2
    }
  }
}
layer {
  name: "inception_4c/relu_5x5"
  type: "ReLU"
  bottom: "inception_4c/5x5"
  top: "inception_4c/5x5"
}
layer {
  name: "inception_4c/pool"
  type: "Pooling"
  bottom: "inception_4b/output"
  top: "inception_4c/pool"
  pooling_param {
    pool: MAX
    kernel_size: 3
    stride: 1
    pad: 1
  }
}
layer {
  name: "inception_4c/pool_proj"
  type: "Convolution"
  bottom: "inception_4c/pool"
  top: "inception_4c/pool_proj"
  param {
    lr_mult: 1
    decay_mult: 1
  }
  param {
    lr_mult: 2
    decay_mult: 0
  }
  convolution_param {
    num_output: 64
    kernel_size: 1
    weight_filler {
      type: "xavier"
      std: 0.1
    }
    bias_filler {
      type: "constant"
      value: 0.2
    }
  }
}
layer {
  name: "inception_4c/relu_pool_proj"
  type: "ReLU"
  bottom: "inception_4c/pool_proj"
  top: "inception_4c/pool_proj"
}
layer {
  name: "inception_4c/output"
  type: "Concat"
  bottom: "inception_4c/1x1"
  bottom: "inception_4c/3x3"
  bottom: "inception_4c/5x5"
  bottom: "inception_4c/pool_proj"
  top: "inception_4c/output"
}
layer {
  name: "inception_4d/1x1"
  type: "Convolution"
  bottom: "inception_4c/output"
  top: "inception_4d/1x1"
  param {
    lr_mult: 1
    decay_mult: 1
  }
  param {
    lr_mult: 2
    decay_mult: 0
  }
  convolution_param {
    num_output: 112
    kernel_size: 1
    weight_filler {
      type: "xavier"
      std: 0.03
    }
    bias_filler {
      type: "constant"
      value: 0.2
    }
  }
}
layer {
  name: "inception_4d/relu_1x1"
  type: "ReLU"
  bottom: "inception_4d/1x1"
  top: "inception_4d/1x1"
}
layer {
  name: "inception_4d/3x3_reduce"
  type: "Convolution"
  bottom: "inception_4c/output"
  top: "inception_4d/3x3_reduce"
  param {
    lr_mult: 1
    decay_mult: 1
  }
  param {
    lr_mult: 2
    decay_mult: 0
  }
  convolution_param {
    num_output: 144
    kernel_size: 1
    weight_filler {
      type: "xavier"
      std: 0.09
    }
    bias_filler {
      type: "constant"
      value: 0.2
    }
  }
}
layer {
  name: "inception_4d/relu_3x3_reduce"
  type: "ReLU"
  bottom: "inception_4d/3x3_reduce"
  top: "inception_4d/3x3_reduce"
}
layer {
  name: "inception_4d/3x3"
  type: "Convolution"
  bottom: "inception_4d/3x3_reduce"
  top: "inception_4d/3x3"
  param {
    lr_mult: 1
    decay_mult: 1
  }
  param {
    lr_mult: 2
    decay_mult: 0
  }
  convolution_param {
    num_output: 288
    pad: 1
    kernel_size: 3
    weight_filler {
      type: "xavier"
      std: 0.03
    }
    bias_filler {
      type: "constant"
      value: 0.2
    }
  }
}
layer {
  name: "inception_4d/relu_3x3"
  type: "ReLU"
  bottom: "inception_4d/3x3"
  top: "inception_4d/3x3"
}
layer {
  name: "inception_4d/5x5_reduce"
  type: "Convolution"
  bottom: "inception_4c/output"
  top: "inception_4d/5x5_reduce"
  param {
    lr_mult: 1
    decay_mult: 1
  }
  param {
    lr_mult: 2
    decay_mult: 0
  }
  convolution_param {
    num_output: 32
    kernel_size: 1
    weight_filler {
      type: "xavier"
      std: 0.2
    }
    bias_filler {
      type: "constant"
      value: 0.2
    }
  }
}
layer {
  name: "inception_4d/relu_5x5_reduce"
  type: "ReLU"
  bottom: "inception_4d/5x5_reduce"
  top: "inception_4d/5x5_reduce"
}
layer {
  name: "inception_4d/5x5"
  type: "Convolution"
  bottom: "inception_4d/5x5_reduce"
  top: "inception_4d/5x5"
  param {
    lr_mult: 1
    decay_mult: 1
  }
  param {
    lr_mult: 2
    decay_mult: 0
  }
  convolution_param {
    num_output: 64
    pad: 2
    kernel_size: 5
    weight_filler {
      type: "xavier"
      std: 0.03
    }
    bias_filler {
      type: "constant"
      value: 0.2
    }
  }
}
layer {
  name: "inception_4d/relu_5x5"
  type: "ReLU"
  bottom: "inception_4d/5x5"
  top: "inception_4d/5x5"
}
layer {
  name: "inception_4d/pool"
  type: "Pooling"
  bottom: "inception_4c/output"
  top: "inception_4d/pool"
  pooling_param {
    pool: MAX
    kernel_size: 3
    stride: 1
    pad: 1
  }
}
layer {
  name: "inception_4d/pool_proj"
  type: "Convolution"
  bottom: "inception_4d/pool"
  top: "inception_4d/pool_proj"
  param {
    lr_mult: 1
    decay_mult: 1
  }
  param {
    lr_mult: 2
    decay_mult: 0
  }
  convolution_param {
    num_output: 64
    kernel_size: 1
    weight_filler {
      type: "xavier"
      std: 0.1
    }
    bias_filler {
      type: "constant"
      value: 0.2
    }
  }
}
layer {
  name: "inception_4d/relu_pool_proj"
  type: "ReLU"
  bottom: "inception_4d/pool_proj"
  top: "inception_4d/pool_proj"
}
layer {
  name: "inception_4d/output"
  type: "Concat"
  bottom: "inception_4d/1x1"
  bottom: "inception_4d/3x3"
  bottom: "inception_4d/5x5"
  bottom: "inception_4d/pool_proj"
  top: "inception_4d/output"
}
layer {
  name: "loss2/ave_pool"
  type: "Pooling"
  bottom: "inception_4d/output"
  top: "loss2/ave_pool"
  pooling_param {
    pool: AVE
    kernel_size: 5
    stride: 3
  }
}
layer {
  name: "loss2/conv"
  type: "Convolution"
  bottom: "loss2/ave_pool"
  top: "loss2/conv"
  param {
    lr_mult: 1
    decay_mult: 1
  }
  param {
    lr_mult: 2
    decay_mult: 0
  }
  convolution_param {
    num_output: 128
    kernel_size: 1
    weight_filler {
      type: "xavier"
      std: 0.08
    }
    bias_filler {
      type: "constant"
      value: 0.2
    }
  }
}
layer {
  name: "loss2/relu_conv"
  type: "ReLU"
  bottom: "loss2/conv"
  top: "loss2/conv"
}
layer {
  name: "loss2/fc"
  type: "InnerProduct"
  bottom: "loss2/conv"
  top: "loss2/fc"
  param {
    lr_mult: 1
    decay_mult: 1
  }
  param {
    lr_mult: 2
    decay_mult: 0
  }
  inner_product_param {
    num_output: 1024
    weight_filler {
      type: "xavier"
      std: 0.02
    }
    bias_filler {
      type: "constant"
      value: 0.2
    }
  }
}
layer {
  name: "loss2/relu_fc"
  type: "ReLU"
  bottom: "loss2/fc"
  top: "loss2/fc"
}
layer {
  name: "loss2/drop_fc"
  type: "Dropout"
  bottom: "loss2/fc"
  top: "loss2/fc"
  dropout_param {
    dropout_ratio: 0.7
  }
}
layer {
  name: "loss2/classifier_plantvillage"
  type: "InnerProduct"
  bottom: "loss2/fc"
  top: "loss2/classifier_plantvillage"
  param {
    lr_mult: 1
    decay_mult: 1
  }
  param {
    lr_mult: 2
    decay_mult: 0
  }
  inner_product_param {
    num_output: 38
    weight_filler {
      type: "xavier"
      std: 0.0009765625
    }
    bias_filler {
      type: "constant"
      value: 0
    }
  }
}
layer {
  name: "inception_4e/1x1"
  type: "Convolution"
  bottom: "inception_4d/output"
  top: "inception_4e/1x1"
  param {
    lr_mult: 1
    decay_mult: 1
  }
  param {
    lr_mult: 2
    decay_mult: 0
  }
  convolution_param {
    num_output: 256
    kernel_size: 1
    weight_filler {
      type: "xavier"
      std: 0.03
    }
    bias_filler {
      type: "constant"
      value: 0.2
    }
  }
}
layer {
  name: "inception_4e/relu_1x1"
  type: "ReLU"
  bottom: "inception_4e/1x1"
  top: "inception_4e/1x1"
}
layer {
  name: "inception_4e/3x3_reduce"
  type: "Convolution"
  bottom: "inception_4d/output"
  top: "inception_4e/3x3_reduce"
  param {
    lr_mult: 1
    decay_mult: 1
  }
  param {
    lr_mult: 2
    decay_mult: 0
  }
  convolution_param {
    num_output: 160
    kernel_size: 1
    weight_filler {
      type: "xavier"
      std: 0.09
    }
    bias_filler {
      type: "constant"
      value: 0.2
    }
  }
}
layer {
  name: "inception_4e/relu_3x3_reduce"
  type: "ReLU"
  bottom: "inception_4e/3x3_reduce"
  top: "inception_4e/3x3_reduce"
}
layer {
  name: "inception_4e/3x3"
  type: "Convolution"
  bottom: "inception_4e/3x3_reduce"
  top: "inception_4e/3x3"
  param {
    lr_mult: 1
    decay_mult: 1
  }
  param {
    lr_mult: 2
    decay_mult: 0
  }
  convolution_param {
    num_output: 320
    pad: 1
    kernel_size: 3
    weight_filler {
      type: "xavier"
      std: 0.03
    }
    bias_filler {
      type: "constant"
      value: 0.2
    }
  }
}
layer {
  name: "inception_4e/relu_3x3"
  type: "ReLU"
  bottom: "inception_4e/3x3"
  top: "inception_4e/3x3"
}
layer {
  name: "inception_4e/5x5_reduce"
  type: "Convolution"
  bottom: "inception_4d/output"
  top: "inception_4e/5x5_reduce"
  param {
    lr_mult: 1
    decay_mult: 1
  }
  param {
    lr_mult: 2
    decay_mult: 0
  }
  convolution_param {
    num_output: 32
    kernel_size: 1
    weight_filler {
      type: "xavier"
      std: 0.2
    }
    bias_filler {
      type: "constant"
      value: 0.2
    }
  }
}
layer {
  name: "inception_4e/relu_5x5_reduce"
  type: "ReLU"
  bottom: "inception_4e/5x5_reduce"
  top: "inception_4e/5x5_reduce"
}
layer {
  name: "inception_4e/5x5"
  type: "Convolution"
  bottom: "inception_4e/5x5_reduce"
  top: "inception_4e/
I0403 15:03:06.295974 30954 layer_factory.hpp:77] Creating layer data
I0403 15:03:06.296645 30954 net.cpp:91] Creating Layer data
I0403 15:03:06.296680 30954 net.cpp:399] data -> data
I0403 15:03:06.296741 30954 net.cpp:399] data -> label
I0403 15:03:06.296782 30954 data_transformer.cpp:25] Loading mean file from: /home/mohanty/data/final_dataset/lmdb/grayscale-80-20/mean.binaryproto
I0403 15:03:06.346312 30956 db_lmdb.cpp:38] Opened lmdb /home/mohanty/data/final_dataset/lmdb/grayscale-80-20/test_db
I0403 15:03:06.349620 30954 data_layer.cpp:41] output data size: 24,3,224,224
I0403 15:03:06.377955 30954 net.cpp:141] Setting up data
I0403 15:03:06.378047 30954 net.cpp:148] Top shape: 24 3 224 224 (3612672)
I0403 15:03:06.378072 30954 net.cpp:148] Top shape: 24 (24)
I0403 15:03:06.378089 30954 net.cpp:156] Memory required for data: 14450784
I0403 15:03:06.378118 30954 layer_factory.hpp:77] Creating layer label_data_1_split
I0403 15:03:06.378149 30954 net.cpp:91] Creating Layer label_data_1_split
I0403 15:03:06.378168 30954 net.cpp:425] label_data_1_split <- label
I0403 15:03:06.378201 30954 net.cpp:399] label_data_1_split -> label_data_1_split_0
I0403 15:03:06.378232 30954 net.cpp:399] label_data_1_split -> label_data_1_split_1
I0403 15:03:06.378254 30954 net.cpp:399] label_data_1_split -> label_data_1_split_2
I0403 15:03:06.378278 30954 net.cpp:399] label_data_1_split -> label_data_1_split_3
I0403 15:03:06.378298 30954 net.cpp:399] label_data_1_split -> label_data_1_split_4
I0403 15:03:06.378317 30954 net.cpp:399] label_data_1_split -> label_data_1_split_5
I0403 15:03:06.378337 30954 net.cpp:399] label_data_1_split -> label_data_1_split_6
I0403 15:03:06.378360 30954 net.cpp:399] label_data_1_split -> label_data_1_split_7
I0403 15:03:06.378381 30954 net.cpp:399] label_data_1_split -> label_data_1_split_8
I0403 15:03:06.378402 30954 net.cpp:399] label_data_1_split -> label_data_1_split_9
I0403 15:03:06.378554 30954 net.cpp:141] Setting up label_data_1_split
I0403 15:03:06.378581 30954 net.cpp:148] Top shape: 24 (24)
I0403 15:03:06.378599 30954 net.cpp:148] Top shape: 24 (24)
I0403 15:03:06.378617 30954 net.cpp:148] Top shape: 24 (24)
I0403 15:03:06.378634 30954 net.cpp:148] Top shape: 24 (24)
I0403 15:03:06.378651 30954 net.cpp:148] Top shape: 24 (24)
I0403 15:03:06.378667 30954 net.cpp:148] Top shape: 24 (24)
I0403 15:03:06.378684 30954 net.cpp:148] Top shape: 24 (24)
I0403 15:03:06.378700 30954 net.cpp:148] Top shape: 24 (24)
I0403 15:03:06.378717 30954 net.cpp:148] Top shape: 24 (24)
I0403 15:03:06.378736 30954 net.cpp:148] Top shape: 24 (24)
I0403 15:03:06.378775 30954 net.cpp:156] Memory required for data: 14451744
I0403 15:03:06.378793 30954 layer_factory.hpp:77] Creating layer conv1/7x7_s2
I0403 15:03:06.378829 30954 net.cpp:91] Creating Layer conv1/7x7_s2
I0403 15:03:06.378847 30954 net.cpp:425] conv1/7x7_s2 <- data
I0403 15:03:06.378867 30954 net.cpp:399] conv1/7x7_s2 -> conv1/7x7_s2
I0403 15:03:08.630908 30954 net.cpp:141] Setting up conv1/7x7_s2
I0403 15:03:08.631008 30954 net.cpp:148] Top shape: 24 64 112 112 (19267584)
I0403 15:03:08.631026 30954 net.cpp:156] Memory required for data: 91522080
I0403 15:03:08.631062 30954 layer_factory.hpp:77] Creating layer conv1/relu_7x7
I0403 15:03:08.631091 30954 net.cpp:91] Creating Layer conv1/relu_7x7
I0403 15:03:08.631109 30954 net.cpp:425] conv1/relu_7x7 <- conv1/7x7_s2
I0403 15:03:08.631129 30954 net.cpp:386] conv1/relu_7x7 -> conv1/7x7_s2 (in-place)
I0403 15:03:08.631521 30954 net.cpp:141] Setting up conv1/relu_7x7
I0403 15:03:08.631548 30954 net.cpp:148] Top shape: 24 64 112 112 (19267584)
I0403 15:03:08.631566 30954 net.cpp:156] Memory required for data: 168592416
I0403 15:03:08.631580 30954 layer_factory.hpp:77] Creating layer pool1/3x3_s2
I0403 15:03:08.631608 30954 net.cpp:91] Creating Layer pool1/3x3_s2
I0403 15:03:08.631624 30954 net.cpp:425] pool1/3x3_s2 <- conv1/7x7_s2
I0403 15:03:08.631644 30954 net.cpp:399] pool1/3x3_s2 -> pool1/3x3_s2
I0403 15:03:08.631721 30954 net.cpp:141] Setting up pool1/3x3_s2
I0403 15:03:08.631745 30954 net.cpp:148] Top shape: 24 64 56 56 (4816896)
I0403 15:03:08.631760 30954 net.cpp:156] Memory required for data: 187860000
I0403 15:03:08.631775 30954 layer_factory.hpp:77] Creating layer pool1/norm1
I0403 15:03:08.631801 30954 net.cpp:91] Creating Layer pool1/norm1
I0403 15:03:08.631819 30954 net.cpp:425] pool1/norm1 <- pool1/3x3_s2
I0403 15:03:08.631836 30954 net.cpp:399] pool1/norm1 -> pool1/norm1
I0403 15:03:08.637635 30954 net.cpp:141] Setting up pool1/norm1
I0403 15:03:08.637742 30954 net.cpp:148] Top shape: 24 64 56 56 (4816896)
I0403 15:03:08.637759 30954 net.cpp:156] Memory required for data: 207127584
I0403 15:03:08.637778 30954 layer_factory.hpp:77] Creating layer conv2/3x3_reduce
I0403 15:03:08.637811 30954 net.cpp:91] Creating Layer conv2/3x3_reduce
I0403 15:03:08.637830 30954 net.cpp:425] conv2/3x3_reduce <- pool1/norm1
I0403 15:03:08.637852 30954 net.cpp:399] conv2/3x3_reduce -> conv2/3x3_reduce
I0403 15:03:08.644876 30954 net.cpp:141] Setting up conv2/3x3_reduce
I0403 15:03:08.644976 30954 net.cpp:148] Top shape: 24 64 56 56 (4816896)
I0403 15:03:08.644994 30954 net.cpp:156] Memory required for data: 226395168
I0403 15:03:08.645025 30954 layer_factory.hpp:77] Creating layer conv2/relu_3x3_reduce
I0403 15:03:08.645050 30954 net.cpp:91] Creating Layer conv2/relu_3x3_reduce
I0403 15:03:08.645066 30954 net.cpp:425] conv2/relu_3x3_reduce <- conv2/3x3_reduce
I0403 15:03:08.645088 30954 net.cpp:386] conv2/relu_3x3_reduce -> conv2/3x3_reduce (in-place)
I0403 15:03:08.645445 30954 net.cpp:141] Setting up conv2/relu_3x3_reduce
I0403 15:03:08.645470 30954 net.cpp:148] Top shape: 24 64 56 56 (4816896)
I0403 15:03:08.645485 30954 net.cpp:156] Memory required for data: 245662752
I0403 15:03:08.645500 30954 layer_factory.hpp:77] Creating layer conv2/3x3
I0403 15:03:08.645536 30954 net.cpp:91] Creating Layer conv2/3x3
I0403 15:03:08.645553 30954 net.cpp:425] conv2/3x3 <- conv2/3x3_reduce
I0403 15:03:08.645573 30954 net.cpp:399] conv2/3x3 -> conv2/3x3
I0403 15:03:08.653213 30954 net.cpp:141] Setting up conv2/3x3
I0403 15:03:08.653311 30954 net.cpp:148] Top shape: 24 192 56 56 (14450688)
I0403 15:03:08.653327 30954 net.cpp:156] Memory required for data: 303465504
I0403 15:03:08.653355 30954 layer_factory.hpp:77] Creating layer conv2/relu_3x3
I0403 15:03:08.653429 30954 net.cpp:91] Creating Layer conv2/relu_3x3
I0403 15:03:08.653447 30954 net.cpp:425] conv2/relu_3x3 <- conv2/3x3
I0403 15:03:08.653470 30954 net.cpp:386] conv2/relu_3x3 -> conv2/3x3 (in-place)
I0403 15:03:08.653650 30954 net.cpp:141] Setting up conv2/relu_3x3
I0403 15:03:08.653676 30954 net.cpp:148] Top shape: 24 192 56 56 (14450688)
I0403 15:03:08.653730 30954 net.cpp:156] Memory required for data: 361268256
I0403 15:03:08.653746 30954 layer_factory.hpp:77] Creating layer conv2/norm2
I0403 15:03:08.653767 30954 net.cpp:91] Creating Layer conv2/norm2
I0403 15:03:08.653782 30954 net.cpp:425] conv2/norm2 <- conv2/3x3
I0403 15:03:08.653802 30954 net.cpp:399] conv2/norm2 -> conv2/norm2
I0403 15:03:08.659332 30954 net.cpp:141] Setting up conv2/norm2
I0403 15:03:08.659430 30954 net.cpp:148] Top shape: 24 192 56 56 (14450688)
I0403 15:03:08.659446 30954 net.cpp:156] Memory required for data: 419071008
I0403 15:03:08.659464 30954 layer_factory.hpp:77] Creating layer pool2/3x3_s2
I0403 15:03:08.659490 30954 net.cpp:91] Creating Layer pool2/3x3_s2
I0403 15:03:08.659528 30954 net.cpp:425] pool2/3x3_s2 <- conv2/norm2
I0403 15:03:08.659555 30954 net.cpp:399] pool2/3x3_s2 -> pool2/3x3_s2
I0403 15:03:08.659618 30954 net.cpp:141] Setting up pool2/3x3_s2
I0403 15:03:08.659641 30954 net.cpp:148] Top shape: 24 192 28 28 (3612672)
I0403 15:03:08.659656 30954 net.cpp:156] Memory required for data: 433521696
I0403 15:03:08.659670 30954 layer_factory.hpp:77] Creating layer pool2/3x3_s2_pool2/3x3_s2_0_split
I0403 15:03:08.659689 30954 net.cpp:91] Creating Layer pool2/3x3_s2_pool2/3x3_s2_0_split
I0403 15:03:08.659705 30954 net.cpp:425] pool2/3x3_s2_pool2/3x3_s2_0_split <- pool2/3x3_s2
I0403 15:03:08.659723 30954 net.cpp:399] pool2/3x3_s2_pool2/3x3_s2_0_split -> pool2/3x3_s2_pool2/3x3_s2_0_split_0
I0403 15:03:08.659747 30954 net.cpp:399] pool2/3x3_s2_pool2/3x3_s2_0_split -> pool2/3x3_s2_pool2/3x3_s2_0_split_1
I0403 15:03:08.659767 30954 net.cpp:399] pool2/3x3_s2_pool2/3x3_s2_0_split -> pool2/3x3_s2_pool2/3x3_s2_0_split_2
I0403 15:03:08.659786 30954 net.cpp:399] pool2/3x3_s2_pool2/3x3_s2_0_split -> pool2/3x3_s2_pool2/3x3_s2_0_split_3
I0403 15:03:08.659854 30954 net.cpp:141] Setting up pool2/3x3_s2_pool2/3x3_s2_0_split
I0403 15:03:08.659876 30954 net.cpp:148] Top shape: 24 192 28 28 (3612672)
I0403 15:03:08.659893 30954 net.cpp:148] Top shape: 24 192 28 28 (3612672)
I0403 15:03:08.659909 30954 net.cpp:148] Top shape: 24 192 28 28 (3612672)
I0403 15:03:08.659924 30954 net.cpp:148] Top shape: 24 192 28 28 (3612672)
I0403 15:03:08.659937 30954 net.cpp:156] Memory required for data: 491324448
I0403 15:03:08.659951 30954 layer_factory.hpp:77] Creating layer inception_3a/1x1
I0403 15:03:08.659981 30954 net.cpp:91] Creating Layer inception_3a/1x1
I0403 15:03:08.659996 30954 net.cpp:425] inception_3a/1x1 <- pool2/3x3_s2_pool2/3x3_s2_0_split_0
I0403 15:03:08.660017 30954 net.cpp:399] inception_3a/1x1 -> inception_3a/1x1
I0403 15:03:08.667321 30954 net.cpp:141] Setting up inception_3a/1x1
I0403 15:03:08.667417 30954 net.cpp:148] Top shape: 24 64 28 28 (1204224)
I0403 15:03:08.667433 30954 net.cpp:156] Memory required for data: 496141344
I0403 15:03:08.667456 30954 layer_factory.hpp:77] Creating layer inception_3a/relu_1x1
I0403 15:03:08.667481 30954 net.cpp:91] Creating Layer inception_3a/relu_1x1
I0403 15:03:08.667507 30954 net.cpp:425] inception_3a/relu_1x1 <- inception_3a/1x1
I0403 15:03:08.667527 30954 net.cpp:386] inception_3a/relu_1x1 -> inception_3a/1x1 (in-place)
I0403 15:03:08.667700 30954 net.cpp:141] Setting up inception_3a/relu_1x1
I0403 15:03:08.667723 30954 net.cpp:148] Top shape: 24 64 28 28 (1204224)
I0403 15:03:08.667738 30954 net.cpp:156] Memory required for data: 500958240
I0403 15:03:08.667753 30954 layer_factory.hpp:77] Creating layer inception_3a/3x3_reduce
I0403 15:03:08.667783 30954 net.cpp:91] Creating Layer inception_3a/3x3_reduce
I0403 15:03:08.667798 30954 net.cpp:425] inception_3a/3x3_reduce <- pool2/3x3_s2_pool2/3x3_s2_0_split_1
I0403 15:03:08.667819 30954 net.cpp:399] inception_3a/3x3_reduce -> inception_3a/3x3_reduce
I0403 15:03:08.674513 30954 net.cpp:141] Setting up inception_3a/3x3_reduce
I0403 15:03:08.674609 30954 net.cpp:148] Top shape: 24 96 28 28 (1806336)
I0403 15:03:08.674626 30954 net.cpp:156] Memory required for data: 508183584
I0403 15:03:08.674654 30954 layer_factory.hpp:77] Creating layer inception_3a/relu_3x3_reduce
I0403 15:03:08.674724 30954 net.cpp:91] Creating Layer inception_3a/relu_3x3_reduce
I0403 15:03:08.674746 30954 net.cpp:425] inception_3a/relu_3x3_reduce <- inception_3a/3x3_reduce
I0403 15:03:08.674764 30954 net.cpp:386] inception_3a/relu_3x3_reduce -> inception_3a/3x3_reduce (in-place)
I0403 15:03:08.674949 30954 net.cpp:141] Setting up inception_3a/relu_3x3_reduce
I0403 15:03:08.674973 30954 net.cpp:148] Top shape: 24 96 28 28 (1806336)
I0403 15:03:08.674988 30954 net.cpp:156] Memory required for data: 515408928
I0403 15:03:08.675003 30954 layer_factory.hpp:77] Creating layer inception_3a/3x3
I0403 15:03:08.675029 30954 net.cpp:91] Creating Layer inception_3a/3x3
I0403 15:03:08.675045 30954 net.cpp:425] inception_3a/3x3 <- inception_3a/3x3_reduce
I0403 15:03:08.675066 30954 net.cpp:399] inception_3a/3x3 -> inception_3a/3x3
I0403 15:03:08.681160 30954 net.cpp:141] Setting up inception_3a/3x3
I0403 15:03:08.681257 30954 net.cpp:148] Top shape: 24 128 28 28 (2408448)
I0403 15:03:08.681274 30954 net.cpp:156] Memory required for data: 525042720
I0403 15:03:08.681298 30954 layer_factory.hpp:77] Creating layer inception_3a/relu_3x3
I0403 15:03:08.681324 30954 net.cpp:91] Creating Layer inception_3a/relu_3x3
I0403 15:03:08.681344 30954 net.cpp:425] inception_3a/relu_3x3 <- inception_3a/3x3
I0403 15:03:08.681362 30954 net.cpp:386] inception_3a/relu_3x3 -> inception_3a/3x3 (in-place)
I0403 15:03:08.681763 30954 net.cpp:141] Setting up inception_3a/relu_3x3
I0403 15:03:08.681789 30954 net.cpp:148] Top shape: 24 128 28 28 (2408448)
I0403 15:03:08.681804 30954 net.cpp:156] Memory required for data: 534676512
I0403 15:03:08.681819 30954 layer_factory.hpp:77] Creating layer inception_3a/5x5_reduce
I0403 15:03:08.681849 30954 net.cpp:91] Creating Layer inception_3a/5x5_reduce
I0403 15:03:08.681866 30954 net.cpp:425] inception_3a/5x5_reduce <- pool2/3x3_s2_pool2/3x3_s2_0_split_2
I0403 15:03:08.681887 30954 net.cpp:399] inception_3a/5x5_reduce -> inception_3a/5x5_reduce
I0403 15:03:08.686849 30954 net.cpp:141] Setting up inception_3a/5x5_reduce
I0403 15:03:08.686957 30954 net.cpp:148] Top shape: 24 16 28 28 (301056)
I0403 15:03:08.686974 30954 net.cpp:156] Memory required for data: 535880736
I0403 15:03:08.686996 30954 layer_factory.hpp:77] Creating layer inception_3a/relu_5x5_reduce
I0403 15:03:08.687023 30954 net.cpp:91] Creating Layer inception_3a/relu_5x5_reduce
I0403 15:03:08.687041 30954 net.cpp:425] inception_3a/relu_5x5_reduce <- inception_3a/5x5_reduce
I0403 15:03:08.687062 30954 net.cpp:386] inception_3a/relu_5x5_reduce -> inception_3a/5x5_reduce (in-place)
I0403 15:03:08.687697 30954 net.cpp:141] Setting up inception_3a/relu_5x5_reduce
I0403 15:03:08.687726 30954 net.cpp:148] Top shape: 24 16 28 28 (301056)
I0403 15:03:08.687741 30954 net.cpp:156] Memory required for data: 537084960
I0403 15:03:08.687757 30954 layer_factory.hpp:77] Creating layer inception_3a/5x5
I0403 15:03:08.687783 30954 net.cpp:91] Creating Layer inception_3a/5x5
I0403 15:03:08.687800 30954 net.cpp:425] inception_3a/5x5 <- inception_3a/5x5_reduce
I0403 15:03:08.687819 30954 net.cpp:399] inception_3a/5x5 -> inception_3a/5x5
I0403 15:03:08.691963 30954 net.cpp:141] Setting up inception_3a/5x5
I0403 15:03:08.692059 30954 net.cpp:148] Top shape: 24 32 28 28 (602112)
I0403 15:03:08.692075 30954 net.cpp:156] Memory required for data: 539493408
I0403 15:03:08.692100 30954 layer_factory.hpp:77] Creating layer inception_3a/relu_5x5
I0403 15:03:08.692126 30954 net.cpp:91] Creating Layer inception_3a/relu_5x5
I0403 15:03:08.692145 30954 net.cpp:425] inception_3a/relu_5x5 <- inception_3a/5x5
I0403 15:03:08.692165 30954 net.cpp:386] inception_3a/relu_5x5 -> inception_3a/5x5 (in-place)
I0403 15:03:08.692338 30954 net.cpp:141] Setting up inception_3a/relu_5x5
I0403 15:03:08.692363 30954 net.cpp:148] Top shape: 24 32 28 28 (602112)
I0403 15:03:08.692376 30954 net.cpp:156] Memory required for data: 541901856
I0403 15:03:08.692391 30954 layer_factory.hpp:77] Creating layer inception_3a/pool
I0403 15:03:08.692414 30954 net.cpp:91] Creating Layer inception_3a/pool
I0403 15:03:08.692472 30954 net.cpp:425] inception_3a/pool <- pool2/3x3_s2_pool2/3x3_s2_0_split_3
I0403 15:03:08.692490 30954 net.cpp:399] inception_3a/pool -> inception_3a/pool
I0403 15:03:08.692555 30954 net.cpp:141] Setting up inception_3a/pool
I0403 15:03:08.692580 30954 net.cpp:148] Top shape: 24 192 28 28 (3612672)
I0403 15:03:08.692595 30954 net.cpp:156] Memory required for data: 556352544
I0403 15:03:08.692608 30954 layer_factory.hpp:77] Creating layer inception_3a/pool_proj
I0403 15:03:08.692636 30954 net.cpp:91] Creating Layer inception_3a/pool_proj
I0403 15:03:08.692653 30954 net.cpp:425] inception_3a/pool_proj <- inception_3a/pool
I0403 15:03:08.692674 30954 net.cpp:399] inception_3a/pool_proj -> inception_3a/pool_proj
I0403 15:03:08.693622 30954 net.cpp:141] Setting up inception_3a/pool_proj
I0403 15:03:08.693652 30954 net.cpp:148] Top shape: 24 32 28 28 (602112)
I0403 15:03:08.693668 30954 net.cpp:156] Memory required for data: 558760992
I0403 15:03:08.693692 30954 layer_factory.hpp:77] Creating layer inception_3a/relu_pool_proj
I0403 15:03:08.693713 30954 net.cpp:91] Creating Layer inception_3a/relu_pool_proj
I0403 15:03:08.693729 30954 net.cpp:425] inception_3a/relu_pool_proj <- inception_3a/pool_proj
I0403 15:03:08.693745 30954 net.cpp:386] inception_3a/relu_pool_proj -> inception_3a/pool_proj (in-place)
I0403 15:03:08.694010 30954 net.cpp:141] Setting up inception_3a/relu_pool_proj
I0403 15:03:08.694036 30954 net.cpp:148] Top shape: 24 32 28 28 (602112)
I0403 15:03:08.694051 30954 net.cpp:156] Memory required for data: 561169440
I0403 15:03:08.694067 30954 layer_factory.hpp:77] Creating layer inception_3a/output
I0403 15:03:08.694083 30954 net.cpp:91] Creating Layer inception_3a/output
I0403 15:03:08.694103 30954 net.cpp:425] inception_3a/output <- inception_3a/1x1
I0403 15:03:08.694118 30954 net.cpp:425] inception_3a/output <- inception_3a/3x3
I0403 15:03:08.694140 30954 net.cpp:425] inception_3a/output <- inception_3a/5x5
I0403 15:03:08.694156 30954 net.cpp:425] inception_3a/output <- inception_3a/pool_proj
I0403 15:03:08.694172 30954 net.cpp:399] inception_3a/output -> inception_3a/output
I0403 15:03:08.694217 30954 net.cpp:141] Setting up inception_3a/output
I0403 15:03:08.694242 30954 net.cpp:148] Top shape: 24 256 28 28 (4816896)
I0403 15:03:08.694257 30954 net.cpp:156] Memory required for data: 580437024
I0403 15:03:08.694272 30954 layer_factory.hpp:77] Creating layer inception_3a/output_inception_3a/output_0_split
I0403 15:03:08.694289 30954 net.cpp:91] Creating Layer inception_3a/output_inception_3a/output_0_split
I0403 15:03:08.694303 30954 net.cpp:425] inception_3a/output_inception_3a/output_0_split <- inception_3a/output
I0403 15:03:08.694322 30954 net.cpp:399] inception_3a/output_inception_3a/output_0_split -> inception_3a/output_inception_3a/output_0_split_0
I0403 15:03:08.694342 30954 net.cpp:399] inception_3a/output_inception_3a/output_0_split -> inception_3a/output_inception_3a/output_0_split_1
I0403 15:03:08.694365 30954 net.cpp:399] inception_3a/output_inception_3a/output_0_split -> inception_3a/output_inception_3a/output_0_split_2
I0403 15:03:08.694383 30954 net.cpp:399] inception_3a/output_inception_3a/output_0_split -> inception_3a/output_inception_3a/output_0_split_3
I0403 15:03:08.694460 30954 net.cpp:141] Setting up inception_3a/output_inception_3a/output_0_split
I0403 15:03:08.694483 30954 net.cpp:148] Top shape: 24 256 28 28 (4816896)
I0403 15:03:08.694499 30954 net.cpp:148] Top shape: 24 256 28 28 (4816896)
I0403 15:03:08.694533 30954 net.cpp:148] Top shape: 24 256 28 28 (4816896)
I0403 15:03:08.694550 30954 net.cpp:148] Top shape: 24 256 28 28 (4816896)
I0403 15:03:08.694562 30954 net.cpp:156] Memory required for data: 657507360
I0403 15:03:08.694578 30954 layer_factory.hpp:77] Creating layer inception_3b/1x1
I0403 15:03:08.694599 30954 net.cpp:91] Creating Layer inception_3b/1x1
I0403 15:03:08.694617 30954 net.cpp:425] inception_3b/1x1 <- inception_3a/output_inception_3a/output_0_split_0
I0403 15:03:08.694636 30954 net.cpp:399] inception_3b/1x1 -> inception_3b/1x1
I0403 15:03:08.695749 30954 net.cpp:141] Setting up inception_3b/1x1
I0403 15:03:08.695787 30954 net.cpp:148] Top shape: 24 128 28 28 (2408448)
I0403 15:03:08.695803 30954 net.cpp:156] Memory required for data: 667141152
I0403 15:03:08.695822 30954 layer_factory.hpp:77] Creating layer inception_3b/relu_1x1
I0403 15:03:08.695839 30954 net.cpp:91] Creating Layer inception_3b/relu_1x1
I0403 15:03:08.695853 30954 net.cpp:425] inception_3b/relu_1x1 <- inception_3b/1x1
I0403 15:03:08.695873 30954 net.cpp:386] inception_3b/relu_1x1 -> inception_3b/1x1 (in-place)
I0403 15:03:08.696043 30954 net.cpp:141] Setting up inception_3b/relu_1x1
I0403 15:03:08.696068 30954 net.cpp:148] Top shape: 24 128 28 28 (2408448)
I0403 15:03:08.696081 30954 net.cpp:156] Memory required for data: 676774944
I0403 15:03:08.696096 30954 layer_factory.hpp:77] Creating layer inception_3b/3x3_reduce
I0403 15:03:08.696118 30954 net.cpp:91] Creating Layer inception_3b/3x3_reduce
I0403 15:03:08.696135 30954 net.cpp:425] inception_3b/3x3_reduce <- inception_3a/output_inception_3a/output_0_split_1
I0403 15:03:08.696156 30954 net.cpp:399] inception_3b/3x3_reduce -> inception_3b/3x3_reduce
I0403 15:03:08.697270 30954 net.cpp:141] Setting up inception_3b/3x3_reduce
I0403 15:03:08.697299 30954 net.cpp:148] Top shape: 24 128 28 28 (2408448)
I0403 15:03:08.697315 30954 net.cpp:156] Memory required for data: 686408736
I0403 15:03:08.697335 30954 layer_factory.hpp:77] Creating layer inception_3b/relu_3x3_reduce
I0403 15:03:08.697352 30954 net.cpp:91] Creating Layer inception_3b/relu_3x3_reduce
I0403 15:03:08.697366 30954 net.cpp:425] inception_3b/relu_3x3_reduce <- inception_3b/3x3_reduce
I0403 15:03:08.697386 30954 net.cpp:386] inception_3b/relu_3x3_reduce -> inception_3b/3x3_reduce (in-place)
I0403 15:03:08.697554 30954 net.cpp:141] Setting up inception_3b/relu_3x3_reduce
I0403 15:03:08.697581 30954 net.cpp:148] Top shape: 24 128 28 28 (2408448)
I0403 15:03:08.697595 30954 net.cpp:156] Memory required for data: 696042528
I0403 15:03:08.697609 30954 layer_factory.hpp:77] Creating layer inception_3b/3x3
I0403 15:03:08.697636 30954 net.cpp:91] Creating Layer inception_3b/3x3
I0403 15:03:08.697654 30954 net.cpp:425] inception_3b/3x3 <- inception_3b/3x3_reduce
I0403 15:03:08.697671 30954 net.cpp:399] inception_3b/3x3 -> inception_3b/3x3
I0403 15:03:08.700520 30954 net.cpp:141] Setting up inception_3b/3x3
I0403 15:03:08.700548 30954 net.cpp:148] Top shape: 24 192 28 28 (3612672)
I0403 15:03:08.700564 30954 net.cpp:156] Memory required for data: 710493216
I0403 15:03:08.700584 30954 layer_factory.hpp:77] Creating layer inception_3b/relu_3x3
I0403 15:03:08.700608 30954 net.cpp:91] Creating Layer inception_3b/relu_3x3
I0403 15:03:08.700623 30954 net.cpp:425] inception_3b/relu_3x3 <- inception_3b/3x3
I0403 15:03:08.700640 30954 net.cpp:386] inception_3b/relu_3x3 -> inception_3b/3x3 (in-place)
I0403 15:03:08.700902 30954 net.cpp:141] Setting up inception_3b/relu_3x3
I0403 15:03:08.700927 30954 net.cpp:148] Top shape: 24 192 28 28 (3612672)
I0403 15:03:08.700944 30954 net.cpp:156] Memory required for data: 724943904
I0403 15:03:08.700963 30954 layer_factory.hpp:77] Creating layer inception_3b/5x5_reduce
I0403 15:03:08.700987 30954 net.cpp:91] Creating Layer inception_3b/5x5_reduce
I0403 15:03:08.701004 30954 net.cpp:425] inception_3b/5x5_reduce <- inception_3a/output_inception_3a/output_0_split_2
I0403 15:03:08.701025 30954 net.cpp:399] inception_3b/5x5_reduce -> inception_3b/5x5_reduce
I0403 15:03:08.701974 30954 net.cpp:141] Setting up inception_3b/5x5_reduce
I0403 15:03:08.702002 30954 net.cpp:148] Top shape: 24 32 28 28 (602112)
I0403 15:03:08.702018 30954 net.cpp:156] Memory required for data: 727352352
I0403 15:03:08.702035 30954 layer_factory.hpp:77] Creating layer inception_3b/relu_5x5_reduce
I0403 15:03:08.702055 30954 net.cpp:91] Creating Layer inception_3b/relu_5x5_reduce
I0403 15:03:08.702070 30954 net.cpp:425] inception_3b/relu_5x5_reduce <- inception_3b/5x5_reduce
I0403 15:03:08.702087 30954 net.cpp:386] inception_3b/relu_5x5_reduce -> inception_3b/5x5_reduce (in-place)
I0403 15:03:08.702270 30954 net.cpp:141] Setting up inception_3b/relu_5x5_reduce
I0403 15:03:08.702294 30954 net.cpp:148] Top shape: 24 32 28 28 (602112)
I0403 15:03:08.702308 30954 net.cpp:156] Memory required for data: 729760800
I0403 15:03:08.702323 30954 layer_factory.hpp:77] Creating layer inception_3b/5x5
I0403 15:03:08.702347 30954 net.cpp:91] Creating Layer inception_3b/5x5
I0403 15:03:08.702363 30954 net.cpp:425] inception_3b/5x5 <- inception_3b/5x5_reduce
I0403 15:03:08.702380 30954 net.cpp:399] inception_3b/5x5 -> inception_3b/5x5
I0403 15:03:08.704283 30954 net.cpp:141] Setting up inception_3b/5x5
I0403 15:03:08.704313 30954 net.cpp:148] Top shape: 24 96 28 28 (1806336)
I0403 15:03:08.704329 30954 net.cpp:156] Memory required for data: 736986144
I0403 15:03:08.704347 30954 layer_factory.hpp:77] Creating layer inception_3b/relu_5x5
I0403 15:03:08.704365 30954 net.cpp:91] Creating Layer inception_3b/relu_5x5
I0403 15:03:08.704381 30954 net.cpp:425] inception_3b/relu_5x5 <- inception_3b/5x5
I0403 15:03:08.704401 30954 net.cpp:386] inception_3b/relu_5x5 -> inception_3b/5x5 (in-place)
I0403 15:03:08.704588 30954 net.cpp:141] Setting up inception_3b/relu_5x5
I0403 15:03:08.704613 30954 net.cpp:148] Top shape: 24 96 28 28 (1806336)
I0403 15:03:08.704628 30954 net.cpp:156] Memory required for data: 744211488
I0403 15:03:08.704643 30954 layer_factory.hpp:77] Creating layer inception_3b/pool
I0403 15:03:08.704661 30954 net.cpp:91] Creating Layer inception_3b/pool
I0403 15:03:08.704677 30954 net.cpp:425] inception_3b/pool <- inception_3a/output_inception_3a/output_0_split_3
I0403 15:03:08.704699 30954 net.cpp:399] inception_3b/pool -> inception_3b/pool
I0403 15:03:08.704758 30954 net.cpp:141] Setting up inception_3b/pool
I0403 15:03:08.704782 30954 net.cpp:148] Top shape: 24 256 28 28 (4816896)
I0403 15:03:08.704795 30954 net.cpp:156] Memory required for data: 763479072
I0403 15:03:08.704809 30954 layer_factory.hpp:77] Creating layer inception_3b/pool_proj
I0403 15:03:08.704831 30954 net.cpp:91] Creating Layer inception_3b/pool_proj
I0403 15:03:08.704849 30954 net.cpp:425] inception_3b/pool_proj <- inception_3b/pool
I0403 15:03:08.704869 30954 net.cpp:399] inception_3b/pool_proj -> inception_3b/pool_proj
I0403 15:03:08.705929 30954 net.cpp:141] Setting up inception_3b/pool_proj
I0403 15:03:08.705974 30954 net.cpp:148] Top shape: 24 64 28 28 (1204224)
I0403 15:03:08.706004 30954 net.cpp:156] Memory required for data: 768295968
I0403 15:03:08.706048 30954 layer_factory.hpp:77] Creating layer inception_3b/relu_pool_proj
I0403 15:03:08.706086 30954 net.cpp:91] Creating Layer inception_3b/relu_pool_proj
I0403 15:03:08.706113 30954 net.cpp:425] inception_3b/relu_pool_proj <- inception_3b/pool_proj
I0403 15:03:08.706163 30954 net.cpp:386] inception_3b/relu_pool_proj -> inception_3b/pool_proj (in-place)
I0403 15:03:08.706583 30954 net.cpp:141] Setting up inception_3b/relu_pool_proj
I0403 15:03:08.706609 30954 net.cpp:148] Top shape: 24 64 28 28 (1204224)
I0403 15:03:08.706624 30954 net.cpp:156] Memory required for data: 773112864
I0403 15:03:08.706640 30954 layer_factory.hpp:77] Creating layer inception_3b/output
I0403 15:03:08.706660 30954 net.cpp:91] Creating Layer inception_3b/output
I0403 15:03:08.706676 30954 net.cpp:425] inception_3b/output <- inception_3b/1x1
I0403 15:03:08.706692 30954 net.cpp:425] inception_3b/output <- inception_3b/3x3
I0403 15:03:08.706708 30954 net.cpp:425] inception_3b/output <- inception_3b/5x5
I0403 15:03:08.706724 30954 net.cpp:425] inception_3b/output <- inception_3b/pool_proj
I0403 15:03:08.706740 30954 net.cpp:399] inception_3b/output -> inception_3b/output
I0403 15:03:08.706785 30954 net.cpp:141] Setting up inception_3b/output
I0403 15:03:08.706809 30954 net.cpp:148] Top shape: 24 480 28 28 (9031680)
I0403 15:03:08.706822 30954 net.cpp:156] Memory required for data: 809239584
I0403 15:03:08.706837 30954 layer_factory.hpp:77] Creating layer pool3/3x3_s2
I0403 15:03:08.706854 30954 net.cpp:91] Creating Layer pool3/3x3_s2
I0403 15:03:08.706871 30954 net.cpp:425] pool3/3x3_s2 <- inception_3b/output
I0403 15:03:08.706905 30954 net.cpp:399] pool3/3x3_s2 -> pool3/3x3_s2
I0403 15:03:08.706964 30954 net.cpp:141] Setting up pool3/3x3_s2
I0403 15:03:08.706989 30954 net.cpp:148] Top shape: 24 480 14 14 (2257920)
I0403 15:03:08.707002 30954 net.cpp:156] Memory required for data: 818271264
I0403 15:03:08.707017 30954 layer_factory.hpp:77] Creating layer pool3/3x3_s2_pool3/3x3_s2_0_split
I0403 15:03:08.707034 30954 net.cpp:91] Creating Layer pool3/3x3_s2_pool3/3x3_s2_0_split
I0403 15:03:08.707048 30954 net.cpp:425] pool3/3x3_s2_pool3/3x3_s2_0_split <- pool3/3x3_s2
I0403 15:03:08.707064 30954 net.cpp:399] pool3/3x3_s2_pool3/3x3_s2_0_split -> pool3/3x3_s2_pool3/3x3_s2_0_split_0
I0403 15:03:08.707087 30954 net.cpp:399] pool3/3x3_s2_pool3/3x3_s2_0_split -> pool3/3x3_s2_pool3/3x3_s2_0_split_1
I0403 15:03:08.707108 30954 net.cpp:399] pool3/3x3_s2_pool3/3x3_s2_0_split -> pool3/3x3_s2_pool3/3x3_s2_0_split_2
I0403 15:03:08.707128 30954 net.cpp:399] pool3/3x3_s2_pool3/3x3_s2_0_split -> pool3/3x3_s2_pool3/3x3_s2_0_split_3
I0403 15:03:08.707203 30954 net.cpp:141] Setting up pool3/3x3_s2_pool3/3x3_s2_0_split
I0403 15:03:08.707227 30954 net.cpp:148] Top shape: 24 480 14 14 (2257920)
I0403 15:03:08.707243 30954 net.cpp:148] Top shape: 24 480 14 14 (2257920)
I0403 15:03:08.707260 30954 net.cpp:148] Top shape: 24 480 14 14 (2257920)
I0403 15:03:08.707280 30954 net.cpp:148] Top shape: 24 480 14 14 (2257920)
I0403 15:03:08.707296 30954 net.cpp:156] Memory required for data: 854397984
I0403 15:03:08.707310 30954 layer_factory.hpp:77] Creating layer inception_4a/1x1
I0403 15:03:08.707334 30954 net.cpp:91] Creating Layer inception_4a/1x1
I0403 15:03:08.707351 30954 net.cpp:425] inception_4a/1x1 <- pool3/3x3_s2_pool3/3x3_s2_0_split_0
I0403 15:03:08.707371 30954 net.cpp:399] inception_4a/1x1 -> inception_4a/1x1
I0403 15:03:08.708978 30954 net.cpp:141] Setting up inception_4a/1x1
I0403 15:03:08.709007 30954 net.cpp:148] Top shape: 24 192 14 14 (903168)
I0403 15:03:08.709024 30954 net.cpp:156] Memory required for data: 858010656
I0403 15:03:08.709043 30954 layer_factory.hpp:77] Creating layer inception_4a/relu_1x1
I0403 15:03:08.709060 30954 net.cpp:91] Creating Layer inception_4a/relu_1x1
I0403 15:03:08.709076 30954 net.cpp:425] inception_4a/relu_1x1 <- inception_4a/1x1
I0403 15:03:08.709095 30954 net.cpp:386] inception_4a/relu_1x1 -> inception_4a/1x1 (in-place)
I0403 15:03:08.709270 30954 net.cpp:141] Setting up inception_4a/relu_1x1
I0403 15:03:08.709295 30954 net.cpp:148] Top shape: 24 192 14 14 (903168)
I0403 15:03:08.709308 30954 net.cpp:156] Memory required for data: 861623328
I0403 15:03:08.709323 30954 layer_factory.hpp:77] Creating layer inception_4a/3x3_reduce
I0403 15:03:08.709345 30954 net.cpp:91] Creating Layer inception_4a/3x3_reduce
I0403 15:03:08.709362 30954 net.cpp:425] inception_4a/3x3_reduce <- pool3/3x3_s2_pool3/3x3_s2_0_split_1
I0403 15:03:08.709383 30954 net.cpp:399] inception_4a/3x3_reduce -> inception_4a/3x3_reduce
I0403 15:03:08.710726 30954 net.cpp:141] Setting up inception_4a/3x3_reduce
I0403 15:03:08.710757 30954 net.cpp:148] Top shape: 24 96 14 14 (451584)
I0403 15:03:08.710773 30954 net.cpp:156] Memory required for data: 863429664
I0403 15:03:08.710795 30954 layer_factory.hpp:77] Creating layer inception_4a/relu_3x3_reduce
I0403 15:03:08.710816 30954 net.cpp:91] Creating Layer inception_4a/relu_3x3_reduce
I0403 15:03:08.710834 30954 net.cpp:425] inception_4a/relu_3x3_reduce <- inception_4a/3x3_reduce
I0403 15:03:08.710851 30954 net.cpp:386] inception_4a/relu_3x3_reduce -> inception_4a/3x3_reduce (in-place)
I0403 15:03:08.711029 30954 net.cpp:141] Setting up inception_4a/relu_3x3_reduce
I0403 15:03:08.711053 30954 net.cpp:148] Top shape: 24 96 14 14 (451584)
I0403 15:03:08.711068 30954 net.cpp:156] Memory required for data: 865236000
I0403 15:03:08.711086 30954 layer_factory.hpp:77] Creating layer inception_4a/3x3
I0403 15:03:08.711109 30954 net.cpp:91] Creating Layer inception_4a/3x3
I0403 15:03:08.711127 30954 net.cpp:425] inception_4a/3x3 <- inception_4a/3x3_reduce
I0403 15:03:08.711148 30954 net.cpp:399] inception_4a/3x3 -> inception_4a/3x3
I0403 15:03:08.713822 30954 net.cpp:141] Setting up inception_4a/3x3
I0403 15:03:08.713852 30954 net.cpp:148] Top shape: 24 208 14 14 (978432)
I0403 15:03:08.713867 30954 net.cpp:156] Memory required for data: 869149728
I0403 15:03:08.713886 30954 layer_factory.hpp:77] Creating layer inception_4a/relu_3x3
I0403 15:03:08.713904 30954 net.cpp:91] Creating Layer inception_4a/relu_3x3
I0403 15:03:08.713920 30954 net.cpp:425] inception_4a/relu_3x3 <- inception_4a/3x3
I0403 15:03:08.713939 30954 net.cpp:386] inception_4a/relu_3x3 -> inception_4a/3x3 (in-place)
I0403 15:03:08.714217 30954 net.cpp:141] Setting up inception_4a/relu_3x3
I0403 15:03:08.714243 30954 net.cpp:148] Top shape: 24 208 14 14 (978432)
I0403 15:03:08.714258 30954 net.cpp:156] Memory required for data: 873063456
I0403 15:03:08.714273 30954 layer_factory.hpp:77] Creating layer inception_4a/5x5_reduce
I0403 15:03:08.714298 30954 net.cpp:91] Creating Layer inception_4a/5x5_reduce
I0403 15:03:08.714318 30954 net.cpp:425] inception_4a/5x5_reduce <- pool3/3x3_s2_pool3/3x3_s2_0_split_2
I0403 15:03:08.714339 30954 net.cpp:399] inception_4a/5x5_reduce -> inception_4a/5x5_reduce
I0403 15:03:08.715353 30954 net.cpp:141] Setting up inception_4a/5x5_reduce
I0403 15:03:08.715379 30954 net.cpp:148] Top shape: 24 16 14 14 (75264)
I0403 15:03:08.715395 30954 net.cpp:156] Memory required for data: 873364512
I0403 15:03:08.715415 30954 layer_factory.hpp:77] Creating layer inception_4a/relu_5x5_reduce
I0403 15:03:08.715435 30954 net.cpp:91] Creating Layer inception_4a/relu_5x5_reduce
I0403 15:03:08.715452 30954 net.cpp:425] inception_4a/relu_5x5_reduce <- inception_4a/5x5_reduce
I0403 15:03:08.715469 30954 net.cpp:386] inception_4a/relu_5x5_reduce -> inception_4a/5x5_reduce (in-place)
I0403 15:03:08.715651 30954 net.cpp:141] Setting up inception_4a/relu_5x5_reduce
I0403 15:03:08.715677 30954 net.cpp:148] Top shape: 24 16 14 14 (75264)
I0403 15:03:08.715692 30954 net.cpp:156] Memory required for data: 873665568
I0403 15:03:08.715705 30954 layer_factory.hpp:77] Creating layer inception_4a/5x5
I0403 15:03:08.715728 30954 net.cpp:91] Creating Layer inception_4a/5x5
I0403 15:03:08.715747 30954 net.cpp:425] inception_4a/5x5 <- inception_4a/5x5_reduce
I0403 15:03:08.715766 30954 net.cpp:399] inception_4a/5x5 -> inception_4a/5x5
I0403 15:03:08.716845 30954 net.cpp:141] Setting up inception_4a/5x5
I0403 15:03:08.716873 30954 net.cpp:148] Top shape: 24 48 14 14 (225792)
I0403 15:03:08.716888 30954 net.cpp:156] Memory required for data: 874568736
I0403 15:03:08.716907 30954 layer_factory.hpp:77] Creating layer inception_4a/relu_5x5
I0403 15:03:08.716928 30954 net.cpp:91] Creating Layer inception_4a/relu_5x5
I0403 15:03:08.716943 30954 net.cpp:425] inception_4a/relu_5x5 <- inception_4a/5x5
I0403 15:03:08.716959 30954 net.cpp:386] inception_4a/relu_5x5 -> inception_4a/5x5 (in-place)
I0403 15:03:08.717136 30954 net.cpp:141] Setting up inception_4a/relu_5x5
I0403 15:03:08.717162 30954 net.cpp:148] Top shape: 24 48 14 14 (225792)
I0403 15:03:08.717178 30954 net.cpp:156] Memory required for data: 875471904
I0403 15:03:08.717195 30954 layer_factory.hpp:77] Creating layer inception_4a/pool
I0403 15:03:08.717211 30954 net.cpp:91] Creating Layer inception_4a/pool
I0403 15:03:08.717226 30954 net.cpp:425] inception_4a/pool <- pool3/3x3_s2_pool3/3x3_s2_0_split_3
I0403 15:03:08.717247 30954 net.cpp:399] inception_4a/pool -> inception_4a/pool
I0403 15:03:08.717308 30954 net.cpp:141] Setting up inception_4a/pool
I0403 15:03:08.717330 30954 net.cpp:148] Top shape: 24 480 14 14 (2257920)
I0403 15:03:08.717345 30954 net.cpp:156] Memory required for data: 884503584
I0403 15:03:08.717360 30954 layer_factory.hpp:77] Creating layer inception_4a/pool_proj
I0403 15:03:08.717384 30954 net.cpp:91] Creating Layer inception_4a/pool_proj
I0403 15:03:08.717401 30954 net.cpp:425] inception_4a/pool_proj <- inception_4a/pool
I0403 15:03:08.717422 30954 net.cpp:399] inception_4a/pool_proj -> inception_4a/pool_proj
I0403 15:03:08.718585 30954 net.cpp:141] Setting up inception_4a/pool_proj
I0403 15:03:08.718616 30954 net.cpp:148] Top shape: 24 64 14 14 (301056)
I0403 15:03:08.718648 30954 net.cpp:156] Memory required for data: 885707808
I0403 15:03:08.718672 30954 layer_factory.hpp:77] Creating layer inception_4a/relu_pool_proj
I0403 15:03:08.718689 30954 net.cpp:91] Creating Layer inception_4a/relu_pool_proj
I0403 15:03:08.718705 30954 net.cpp:425] inception_4a/relu_pool_proj <- inception_4a/pool_proj
I0403 15:03:08.718722 30954 net.cpp:386] inception_4a/relu_pool_proj -> inception_4a/pool_proj (in-place)
I0403 15:03:08.719002 30954 net.cpp:141] Setting up inception_4a/relu_pool_proj
I0403 15:03:08.719032 30954 net.cpp:148] Top shape: 24 64 14 14 (301056)
I0403 15:03:08.719046 30954 net.cpp:156] Memory required for data: 886912032
I0403 15:03:08.719063 30954 layer_factory.hpp:77] Creating layer inception_4a/output
I0403 15:03:08.719079 30954 net.cpp:91] Creating Layer inception_4a/output
I0403 15:03:08.719094 30954 net.cpp:425] inception_4a/output <- inception_4a/1x1
I0403 15:03:08.719111 30954 net.cpp:425] inception_4a/output <- inception_4a/3x3
I0403 15:03:08.719127 30954 net.cpp:425] inception_4a/output <- inception_4a/5x5
I0403 15:03:08.719143 30954 net.cpp:425] inception_4a/output <- inception_4a/pool_proj
I0403 15:03:08.719161 30954 net.cpp:399] inception_4a/output -> inception_4a/output
I0403 15:03:08.719205 30954 net.cpp:141] Setting up inception_4a/output
I0403 15:03:08.719228 30954 net.cpp:148] Top shape: 24 512 14 14 (2408448)
I0403 15:03:08.719244 30954 net.cpp:156] Memory required for data: 896545824
I0403 15:03:08.719259 30954 layer_factory.hpp:77] Creating layer inception_4a/output_inception_4a/output_0_split
I0403 15:03:08.719277 30954 net.cpp:91] Creating Layer inception_4a/output_inception_4a/output_0_split
I0403 15:03:08.719302 30954 net.cpp:425] inception_4a/output_inception_4a/output_0_split <- inception_4a/output
I0403 15:03:08.719321 30954 net.cpp:399] inception_4a/output_inception_4a/output_0_split -> inception_4a/output_inception_4a/output_0_split_0
I0403 15:03:08.719342 30954 net.cpp:399] inception_4a/output_inception_4a/output_0_split -> inception_4a/output_inception_4a/output_0_split_1
I0403 15:03:08.719364 30954 net.cpp:399] inception_4a/output_inception_4a/output_0_split -> inception_4a/output_inception_4a/output_0_split_2
I0403 15:03:08.719384 30954 net.cpp:399] inception_4a/output_inception_4a/output_0_split -> inception_4a/output_inception_4a/output_0_split_3
I0403 15:03:08.719408 30954 net.cpp:399] inception_4a/output_inception_4a/output_0_split -> inception_4a/output_inception_4a/output_0_split_4
I0403 15:03:08.719507 30954 net.cpp:141] Setting up inception_4a/output_inception_4a/output_0_split
I0403 15:03:08.719533 30954 net.cpp:148] Top shape: 24 512 14 14 (2408448)
I0403 15:03:08.719552 30954 net.cpp:148] Top shape: 24 512 14 14 (2408448)
I0403 15:03:08.719573 30954 net.cpp:148] Top shape: 24 512 14 14 (2408448)
I0403 15:03:08.719588 30954 net.cpp:148] Top shape: 24 512 14 14 (2408448)
I0403 15:03:08.719605 30954 net.cpp:148] Top shape: 24 512 14 14 (2408448)
I0403 15:03:08.719620 30954 net.cpp:156] Memory required for data: 944714784
I0403 15:03:08.719635 30954 layer_factory.hpp:77] Creating layer loss1/ave_pool
I0403 15:03:08.719655 30954 net.cpp:91] Creating Layer loss1/ave_pool
I0403 15:03:08.719671 30954 net.cpp:425] loss1/ave_pool <- inception_4a/output_inception_4a/output_0_split_0
I0403 15:03:08.719689 30954 net.cpp:399] loss1/ave_pool -> loss1/ave_pool
I0403 15:03:08.719897 30954 net.cpp:141] Setting up loss1/ave_pool
I0403 15:03:08.719923 30954 net.cpp:148] Top shape: 24 512 4 4 (196608)
I0403 15:03:08.719938 30954 net.cpp:156] Memory required for data: 945501216
I0403 15:03:08.719954 30954 layer_factory.hpp:77] Creating layer loss1/conv
I0403 15:03:08.719975 30954 net.cpp:91] Creating Layer loss1/conv
I0403 15:03:08.719992 30954 net.cpp:425] loss1/conv <- loss1/ave_pool
I0403 15:03:08.720010 30954 net.cpp:399] loss1/conv -> loss1/conv
I0403 15:03:08.721415 30954 net.cpp:141] Setting up loss1/conv
I0403 15:03:08.721443 30954 net.cpp:148] Top shape: 24 128 4 4 (49152)
I0403 15:03:08.721472 30954 net.cpp:156] Memory required for data: 945697824
I0403 15:03:08.721493 30954 layer_factory.hpp:77] Creating layer loss1/relu_conv
I0403 15:03:08.721515 30954 net.cpp:91] Creating Layer loss1/relu_conv
I0403 15:03:08.721535 30954 net.cpp:425] loss1/relu_conv <- loss1/conv
I0403 15:03:08.721552 30954 net.cpp:386] loss1/relu_conv -> loss1/conv (in-place)
I0403 15:03:08.721830 30954 net.cpp:141] Setting up loss1/relu_conv
I0403 15:03:08.721860 30954 net.cpp:148] Top shape: 24 128 4 4 (49152)
I0403 15:03:08.721876 30954 net.cpp:156] Memory required for data: 945894432
I0403 15:03:08.721890 30954 layer_factory.hpp:77] Creating layer loss1/fc
I0403 15:03:08.721915 30954 net.cpp:91] Creating Layer loss1/fc
I0403 15:03:08.721935 30954 net.cpp:425] loss1/fc <- loss1/conv
I0403 15:03:08.721954 30954 net.cpp:399] loss1/fc -> loss1/fc
I0403 15:03:08.739289 30954 net.cpp:141] Setting up loss1/fc
I0403 15:03:08.739341 30954 net.cpp:148] Top shape: 24 1024 (24576)
I0403 15:03:08.739356 30954 net.cpp:156] Memory required for data: 945992736
I0403 15:03:08.739379 30954 layer_factory.hpp:77] Creating layer loss1/relu_fc
I0403 15:03:08.739403 30954 net.cpp:91] Creating Layer loss1/relu_fc
I0403 15:03:08.739419 30954 net.cpp:425] loss1/relu_fc <- loss1/fc
I0403 15:03:08.739436 30954 net.cpp:386] loss1/relu_fc -> loss1/fc (in-place)
I0403 15:03:08.739631 30954 net.cpp:141] Setting up loss1/relu_fc
I0403 15:03:08.739656 30954 net.cpp:148] Top shape: 24 1024 (24576)
I0403 15:03:08.739670 30954 net.cpp:156] Memory required for data: 946091040
I0403 15:03:08.739684 30954 layer_factory.hpp:77] Creating layer loss1/drop_fc
I0403 15:03:08.739709 30954 net.cpp:91] Creating Layer loss1/drop_fc
I0403 15:03:08.739727 30954 net.cpp:425] loss1/drop_fc <- loss1/fc
I0403 15:03:08.739744 30954 net.cpp:386] loss1/drop_fc -> loss1/fc (in-place)
I0403 15:03:08.739796 30954 net.cpp:141] Setting up loss1/drop_fc
I0403 15:03:08.739819 30954 net.cpp:148] Top shape: 24 1024 (24576)
I0403 15:03:08.739832 30954 net.cpp:156] Memory required for data: 946189344
I0403 15:03:08.739847 30954 layer_factory.hpp:77] Creating layer loss1/classifier_plantvillage
I0403 15:03:08.739868 30954 net.cpp:91] Creating Layer loss1/classifier_plantvillage
I0403 15:03:08.739884 30954 net.cpp:425] loss1/classifier_plantvillage <- loss1/fc
I0403 15:03:08.739904 30954 net.cpp:399] loss1/classifier_plantvillage -> loss1/classifier_plantvillage
I0403 15:03:08.740789 30954 net.cpp:141] Setting up loss1/classifier_plantvillage
I0403 15:03:08.740818 30954 net.cpp:148] Top shape: 24 38 (912)
I0403 15:03:08.740835 30954 net.cpp:156] Memory required for data: 946192992
I0403 15:03:08.740854 30954 layer_factory.hpp:77] Creating layer loss1/classifier_plantvillage_loss1/classifier_plantvillage_0_split
I0403 15:03:08.740871 30954 net.cpp:91] Creating Layer loss1/classifier_plantvillage_loss1/classifier_plantvillage_0_split
I0403 15:03:08.740886 30954 net.cpp:425] loss1/classifier_plantvillage_loss1/classifier_plantvillage_0_split <- loss1/classifier_plantvillage
I0403 15:03:08.740906 30954 net.cpp:399] loss1/classifier_plantvillage_loss1/classifier_plantvillage_0_split -> loss1/classifier_plantvillage_loss1/classifier_plantvillage_0_split_0
I0403 15:03:08.740926 30954 net.cpp:399] loss1/classifier_plantvillage_loss1/classifier_plantvillage_0_split -> loss1/classifier_plantvillage_loss1/classifier_plantvillage_0_split_1
I0403 15:03:08.740947 30954 net.cpp:399] loss1/classifier_plantvillage_loss1/classifier_plantvillage_0_split -> loss1/classifier_plantvillage_loss1/classifier_plantvillage_0_split_2
I0403 15:03:08.741010 30954 net.cpp:141] Setting up loss1/classifier_plantvillage_loss1/classifier_plantvillage_0_split
I0403 15:03:08.741032 30954 net.cpp:148] Top shape: 24 38 (912)
I0403 15:03:08.741049 30954 net.cpp:148] Top shape: 24 38 (912)
I0403 15:03:08.741063 30954 net.cpp:148] Top shape: 24 38 (912)
I0403 15:03:08.741077 30954 net.cpp:156] Memory required for data: 946203936
I0403 15:03:08.741091 30954 layer_factory.hpp:77] Creating layer inception_4b/1x1
I0403 15:03:08.741114 30954 net.cpp:91] Creating Layer inception_4b/1x1
I0403 15:03:08.741150 30954 net.cpp:425] inception_4b/1x1 <- inception_4a/output_inception_4a/output_0_split_1
I0403 15:03:08.741169 30954 net.cpp:399] inception_4b/1x1 -> inception_4b/1x1
I0403 15:03:08.742777 30954 net.cpp:141] Setting up inception_4b/1x1
I0403 15:03:08.742805 30954 net.cpp:148] Top shape: 24 160 14 14 (752640)
I0403 15:03:08.742820 30954 net.cpp:156] Memory required for data: 949214496
I0403 15:03:08.742840 30954 layer_factory.hpp:77] Creating layer inception_4b/relu_1x1
I0403 15:03:08.742858 30954 net.cpp:91] Creating Layer inception_4b/relu_1x1
I0403 15:03:08.742876 30954 net.cpp:425] inception_4b/relu_1x1 <- inception_4b/1x1
I0403 15:03:08.742892 30954 net.cpp:386] inception_4b/relu_1x1 -> inception_4b/1x1 (in-place)
I0403 15:03:08.743063 30954 net.cpp:141] Setting up inception_4b/relu_1x1
I0403 15:03:08.743088 30954 net.cpp:148] Top shape: 24 160 14 14 (752640)
I0403 15:03:08.743101 30954 net.cpp:156] Memory required for data: 952225056
I0403 15:03:08.743116 30954 layer_factory.hpp:77] Creating layer inception_4b/3x3_reduce
I0403 15:03:08.743137 30954 net.cpp:91] Creating Layer inception_4b/3x3_reduce
I0403 15:03:08.743154 30954 net.cpp:425] inception_4b/3x3_reduce <- inception_4a/output_inception_4a/output_0_split_2
I0403 15:03:08.743175 30954 net.cpp:399] inception_4b/3x3_reduce -> inception_4b/3x3_reduce
I0403 15:03:08.744482 30954 net.cpp:141] Setting up inception_4b/3x3_reduce
I0403 15:03:08.744518 30954 net.cpp:148] Top shape: 24 112 14 14 (526848)
I0403 15:03:08.744536 30954 net.cpp:156] Memory required for data: 954332448
I0403 15:03:08.744554 30954 layer_factory.hpp:77] Creating layer inception_4b/relu_3x3_reduce
I0403 15:03:08.744575 30954 net.cpp:91] Creating Layer inception_4b/relu_3x3_reduce
I0403 15:03:08.744591 30954 net.cpp:425] inception_4b/relu_3x3_reduce <- inception_4b/3x3_reduce
I0403 15:03:08.744609 30954 net.cpp:386] inception_4b/relu_3x3_reduce -> inception_4b/3x3_reduce (in-place)
I0403 15:03:08.744884 30954 net.cpp:141] Setting up inception_4b/relu_3x3_reduce
I0403 15:03:08.744910 30954 net.cpp:148] Top shape: 24 112 14 14 (526848)
I0403 15:03:08.744925 30954 net.cpp:156] Memory required for data: 956439840
I0403 15:03:08.744938 30954 layer_factory.hpp:77] Creating layer inception_4b/3x3
I0403 15:03:08.744959 30954 net.cpp:91] Creating Layer inception_4b/3x3
I0403 15:03:08.744976 30954 net.cpp:425] inception_4b/3x3 <- inception_4b/3x3_reduce
I0403 15:03:08.744997 30954 net.cpp:399] inception_4b/3x3 -> inception_4b/3x3
I0403 15:03:08.747972 30954 net.cpp:141] Setting up inception_4b/3x3
I0403 15:03:08.748006 30954 net.cpp:148] Top shape: 24 224 14 14 (1053696)
I0403 15:03:08.748023 30954 net.cpp:156] Memory required for data: 960654624
I0403 15:03:08.748042 30954 layer_factory.hpp:77] Creating layer inception_4b/relu_3x3
I0403 15:03:08.748060 30954 net.cpp:91] Creating Layer inception_4b/relu_3x3
I0403 15:03:08.748075 30954 net.cpp:425] inception_4b/relu_3x3 <- inception_4b/3x3
I0403 15:03:08.748095 30954 net.cpp:386] inception_4b/relu_3x3 -> inception_4b/3x3 (in-place)
I0403 15:03:08.748275 30954 net.cpp:141] Setting up inception_4b/relu_3x3
I0403 15:03:08.748299 30954 net.cpp:148] Top shape: 24 224 14 14 (1053696)
I0403 15:03:08.748314 30954 net.cpp:156] Memory required for data: 964869408
I0403 15:03:08.748328 30954 layer_factory.hpp:77] Creating layer inception_4b/5x5_reduce
I0403 15:03:08.748353 30954 net.cpp:91] Creating Layer inception_4b/5x5_reduce
I0403 15:03:08.748371 30954 net.cpp:425] inception_4b/5x5_reduce <- inception_4a/output_inception_4a/output_0_split_3
I0403 15:03:08.748394 30954 net.cpp:399] inception_4b/5x5_reduce -> inception_4b/5x5_reduce
I0403 15:03:08.749477 30954 net.cpp:141] Setting up inception_4b/5x5_reduce
I0403 15:03:08.749508 30954 net.cpp:148] Top shape: 24 24 14 14 (112896)
I0403 15:03:08.749526 30954 net.cpp:156] Memory required for data: 965320992
I0403 15:03:08.749546 30954 layer_factory.hpp:77] Creating layer inception_4b/relu_5x5_reduce
I0403 15:03:08.749565 30954 net.cpp:91] Creating Layer inception_4b/relu_5x5_reduce
I0403 15:03:08.749596 30954 net.cpp:425] inception_4b/relu_5x5_reduce <- inception_4b/5x5_reduce
I0403 15:03:08.749615 30954 net.cpp:386] inception_4b/relu_5x5_reduce -> inception_4b/5x5_reduce (in-place)
I0403 15:03:08.749802 30954 net.cpp:141] Setting up inception_4b/relu_5x5_reduce
I0403 15:03:08.749830 30954 net.cpp:148] Top shape: 24 24 14 14 (112896)
I0403 15:03:08.749845 30954 net.cpp:156] Memory required for data: 965772576
I0403 15:03:08.749861 30954 layer_factory.hpp:77] Creating layer inception_4b/5x5
I0403 15:03:08.749881 30954 net.cpp:91] Creating Layer inception_4b/5x5
I0403 15:03:08.749897 30954 net.cpp:425] inception_4b/5x5 <- inception_4b/5x5_reduce
I0403 15:03:08.749917 30954 net.cpp:399] inception_4b/5x5 -> inception_4b/5x5
I0403 15:03:08.751147 30954 net.cpp:141] Setting up inception_4b/5x5
I0403 15:03:08.751174 30954 net.cpp:148] Top shape: 24 64 14 14 (301056)
I0403 15:03:08.751190 30954 net.cpp:156] Memory required for data: 966976800
I0403 15:03:08.751211 30954 layer_factory.hpp:77] Creating layer inception_4b/relu_5x5
I0403 15:03:08.751235 30954 net.cpp:91] Creating Layer inception_4b/relu_5x5
I0403 15:03:08.751250 30954 net.cpp:425] inception_4b/relu_5x5 <- inception_4b/5x5
I0403 15:03:08.751267 30954 net.cpp:386] inception_4b/relu_5x5 -> inception_4b/5x5 (in-place)
I0403 15:03:08.751556 30954 net.cpp:141] Setting up inception_4b/relu_5x5
I0403 15:03:08.751586 30954 net.cpp:148] Top shape: 24 64 14 14 (301056)
I0403 15:03:08.751602 30954 net.cpp:156] Memory required for data: 968181024
I0403 15:03:08.751617 30954 layer_factory.hpp:77] Creating layer inception_4b/pool
I0403 15:03:08.751636 30954 net.cpp:91] Creating Layer inception_4b/pool
I0403 15:03:08.751653 30954 net.cpp:425] inception_4b/pool <- inception_4a/output_inception_4a/output_0_split_4
I0403 15:03:08.751675 30954 net.cpp:399] inception_4b/pool -> inception_4b/pool
I0403 15:03:08.751739 30954 net.cpp:141] Setting up inception_4b/pool
I0403 15:03:08.751767 30954 net.cpp:148] Top shape: 24 512 14 14 (2408448)
I0403 15:03:08.751782 30954 net.cpp:156] Memory required for data: 977814816
I0403 15:03:08.751797 30954 layer_factory.hpp:77] Creating layer inception_4b/pool_proj
I0403 15:03:08.751818 30954 net.cpp:91] Creating Layer inception_4b/pool_proj
I0403 15:03:08.751834 30954 net.cpp:425] inception_4b/pool_proj <- inception_4b/pool
I0403 15:03:08.751854 30954 net.cpp:399] inception_4b/pool_proj -> inception_4b/pool_proj
I0403 15:03:08.753046 30954 net.cpp:141] Setting up inception_4b/pool_proj
I0403 15:03:08.753073 30954 net.cpp:148] Top shape: 24 64 14 14 (301056)
I0403 15:03:08.753089 30954 net.cpp:156] Memory required for data: 979019040
I0403 15:03:08.753108 30954 layer_factory.hpp:77] Creating layer inception_4b/relu_pool_proj
I0403 15:03:08.753129 30954 net.cpp:91] Creating Layer inception_4b/relu_pool_proj
I0403 15:03:08.753146 30954 net.cpp:425] inception_4b/relu_pool_proj <- inception_4b/pool_proj
I0403 15:03:08.753164 30954 net.cpp:386] inception_4b/relu_pool_proj -> inception_4b/pool_proj (in-place)
I0403 15:03:08.753345 30954 net.cpp:141] Setting up inception_4b/relu_pool_proj
I0403 15:03:08.753370 30954 net.cpp:148] Top shape: 24 64 14 14 (301056)
I0403 15:03:08.753384 30954 net.cpp:156] Memory required for data: 980223264
I0403 15:03:08.753399 30954 layer_factory.hpp:77] Creating layer inception_4b/output
I0403 15:03:08.753418 30954 net.cpp:91] Creating Layer inception_4b/output
I0403 15:03:08.753434 30954 net.cpp:425] inception_4b/output <- inception_4b/1x1
I0403 15:03:08.753451 30954 net.cpp:425] inception_4b/output <- inception_4b/3x3
I0403 15:03:08.753466 30954 net.cpp:425] inception_4b/output <- inception_4b/5x5
I0403 15:03:08.753482 30954 net.cpp:425] inception_4b/output <- inception_4b/pool_proj
I0403 15:03:08.753499 30954 net.cpp:399] inception_4b/output -> inception_4b/output
I0403 15:03:08.753552 30954 net.cpp:141] Setting up inception_4b/output
I0403 15:03:08.753577 30954 net.cpp:148] Top shape: 24 512 14 14 (2408448)
I0403 15:03:08.753592 30954 net.cpp:156] Memory required for data: 989857056
I0403 15:03:08.753621 30954 layer_factory.hpp:77] Creating layer inception_4b/output_inception_4b/output_0_split
I0403 15:03:08.753639 30954 net.cpp:91] Creating Layer inception_4b/output_inception_4b/output_0_split
I0403 15:03:08.753654 30954 net.cpp:425] inception_4b/output_inception_4b/output_0_split <- inception_4b/output
I0403 15:03:08.753674 30954 net.cpp:399] inception_4b/output_inception_4b/output_0_split -> inception_4b/output_inception_4b/output_0_split_0
I0403 15:03:08.753695 30954 net.cpp:399] inception_4b/output_inception_4b/output_0_split -> inception_4b/output_inception_4b/output_0_split_1
I0403 15:03:08.753715 30954 net.cpp:399] inception_4b/output_inception_4b/output_0_split -> inception_4b/output_inception_4b/output_0_split_2
I0403 15:03:08.753733 30954 net.cpp:399] inception_4b/output_inception_4b/output_0_split -> inception_4b/output_inception_4b/output_0_split_3
I0403 15:03:08.753818 30954 net.cpp:141] Setting up inception_4b/output_inception_4b/output_0_split
I0403 15:03:08.753842 30954 net.cpp:148] Top shape: 24 512 14 14 (2408448)
I0403 15:03:08.753857 30954 net.cpp:148] Top shape: 24 512 14 14 (2408448)
I0403 15:03:08.753873 30954 net.cpp:148] Top shape: 24 512 14 14 (2408448)
I0403 15:03:08.753888 30954 net.cpp:148] Top shape: 24 512 14 14 (2408448)
I0403 15:03:08.753901 30954 net.cpp:156] Memory required for data: 1028392224
I0403 15:03:08.753916 30954 layer_factory.hpp:77] Creating layer inception_4c/1x1
I0403 15:03:08.753938 30954 net.cpp:91] Creating Layer inception_4c/1x1
I0403 15:03:08.753954 30954 net.cpp:425] inception_4c/1x1 <- inception_4b/output_inception_4b/output_0_split_0
I0403 15:03:08.753975 30954 net.cpp:399] inception_4c/1x1 -> inception_4c/1x1
I0403 15:03:08.755424 30954 net.cpp:141] Setting up inception_4c/1x1
I0403 15:03:08.755452 30954 net.cpp:148] Top shape: 24 128 14 14 (602112)
I0403 15:03:08.755470 30954 net.cpp:156] Memory required for data: 1030800672
I0403 15:03:08.755488 30954 layer_factory.hpp:77] Creating layer inception_4c/relu_1x1
I0403 15:03:08.755516 30954 net.cpp:91] Creating Layer inception_4c/relu_1x1
I0403 15:03:08.755533 30954 net.cpp:425] inception_4c/relu_1x1 <- inception_4c/1x1
I0403 15:03:08.755550 30954 net.cpp:386] inception_4c/relu_1x1 -> inception_4c/1x1 (in-place)
I0403 15:03:08.755735 30954 net.cpp:141] Setting up inception_4c/relu_1x1
I0403 15:03:08.755760 30954 net.cpp:148] Top shape: 24 128 14 14 (602112)
I0403 15:03:08.755775 30954 net.cpp:156] Memory required for data: 1033209120
I0403 15:03:08.755789 30954 layer_factory.hpp:77] Creating layer inception_4c/3x3_reduce
I0403 15:03:08.755811 30954 net.cpp:91] Creating Layer inception_4c/3x3_reduce
I0403 15:03:08.755828 30954 net.cpp:425] inception_4c/3x3_reduce <- inception_4b/output_inception_4b/output_0_split_1
I0403 15:03:08.755851 30954 net.cpp:399] inception_4c/3x3_reduce -> inception_4c/3x3_reduce
I0403 15:03:08.757813 30954 net.cpp:141] Setting up inception_4c/3x3_reduce
I0403 15:03:08.757843 30954 net.cpp:148] Top shape: 24 128 14 14 (602112)
I0403 15:03:08.757859 30954 net.cpp:156] Memory required for data: 1035617568
I0403 15:03:08.757879 30954 layer_factory.hpp:77] Creating layer inception_4c/relu_3x3_reduce
I0403 15:03:08.757897 30954 net.cpp:91] Creating Layer inception_4c/relu_3x3_reduce
I0403 15:03:08.757913 30954 net.cpp:425] inception_4c/relu_3x3_reduce <- inception_4c/3x3_reduce
I0403 15:03:08.757932 30954 net.cpp:386] inception_4c/relu_3x3_reduce -> inception_4c/3x3_reduce (in-place)
I0403 15:03:08.758219 30954 net.cpp:141] Setting up inception_4c/relu_3x3_reduce
I0403 15:03:08.758245 30954 net.cpp:148] Top shape: 24 128 14 14 (602112)
I0403 15:03:08.758261 30954 net.cpp:156] Memory required for data: 1038026016
I0403 15:03:08.758276 30954 layer_factory.hpp:77] Creating layer inception_4c/3x3
I0403 15:03:08.758303 30954 net.cpp:91] Creating Layer inception_4c/3x3
I0403 15:03:08.758322 30954 net.cpp:425] inception_4c/3x3 <- inception_4c/3x3_reduce
I0403 15:03:08.758343 30954 net.cpp:399] inception_4c/3x3 -> inception_4c/3x3
I0403 15:03:08.761953 30954 net.cpp:141] Setting up inception_4c/3x3
I0403 15:03:08.761998 30954 net.cpp:148] Top shape: 24 256 14 14 (1204224)
I0403 15:03:08.762015 30954 net.cpp:156] Memory required for data: 1042842912
I0403 15:03:08.762048 30954 layer_factory.hpp:77] Creating layer inception_4c/relu_3x3
I0403 15:03:08.762069 30954 net.cpp:91] Creating Layer inception_4c/relu_3x3
I0403 15:03:08.762086 30954 net.cpp:425] inception_4c/relu_3x3 <- inception_4c/3x3
I0403 15:03:08.762104 30954 net.cpp:386] inception_4c/relu_3x3 -> inception_4c/3x3 (in-place)
I0403 15:03:08.762284 30954 net.cpp:141] Setting up inception_4c/relu_3x3
I0403 15:03:08.762310 30954 net.cpp:148] Top shape: 24 256 14 14 (1204224)
I0403 15:03:08.762325 30954 net.cpp:156] Memory required for data: 1047659808
I0403 15:03:08.762341 30954 layer_factory.hpp:77] Creating layer inception_4c/5x5_reduce
I0403 15:03:08.762363 30954 net.cpp:91] Creating Layer inception_4c/5x5_reduce
I0403 15:03:08.762382 30954 net.cpp:425] inception_4c/5x5_reduce <- inception_4b/output_inception_4b/output_0_split_2
I0403 15:03:08.762403 30954 net.cpp:399] inception_4c/5x5_reduce -> inception_4c/5x5_reduce
I0403 15:03:08.763494 30954 net.cpp:141] Setting up inception_4c/5x5_reduce
I0403 15:03:08.763525 30954 net.cpp:148] Top shape: 24 24 14 14 (112896)
I0403 15:03:08.763541 30954 net.cpp:156] Memory required for data: 1048111392
I0403 15:03:08.763562 30954 layer_factory.hpp:77] Creating layer inception_4c/relu_5x5_reduce
I0403 15:03:08.763583 30954 net.cpp:91] Creating Layer inception_4c/relu_5x5_reduce
I0403 15:03:08.763600 30954 net.cpp:425] inception_4c/relu_5x5_reduce <- inception_4c/5x5_reduce
I0403 15:03:08.763617 30954 net.cpp:386] inception_4c/relu_5x5_reduce -> inception_4c/5x5_reduce (in-place)
I0403 15:03:08.763802 30954 net.cpp:141] Setting up inception_4c/relu_5x5_reduce
I0403 15:03:08.763825 30954 net.cpp:148] Top shape: 24 24 14 14 (112896)
I0403 15:03:08.763844 30954 net.cpp:156] Memory required for data: 1048562976
I0403 15:03:08.763859 30954 layer_factory.hpp:77] Creating layer inception_4c/5x5
I0403 15:03:08.763878 30954 net.cpp:91] Creating Layer inception_4c/5x5
I0403 15:03:08.763893 30954 net.cpp:425] inception_4c/5x5 <- inception_4c/5x5_reduce
I0403 15:03:08.763914 30954 net.cpp:399] inception_4c/5x5 -> inception_4c/5x5
I0403 15:03:08.765179 30954 net.cpp:141] Setting up inception_4c/5x5
I0403 15:03:08.765208 30954 net.cpp:148] Top shape: 24 64 14 14 (301056)
I0403 15:03:08.765223 30954 net.cpp:156] Memory required for data: 1049767200
I0403 15:03:08.765241 30954 layer_factory.hpp:77] Creating layer inception_4c/relu_5x5
I0403 15:03:08.765261 30954 net.cpp:91] Creating Layer inception_4c/relu_5x5
I0403 15:03:08.765280 30954 net.cpp:425] inception_4c/relu_5x5 <- inception_4c/5x5
I0403 15:03:08.765296 30954 net.cpp:386] inception_4c/relu_5x5 -> inception_4c/5x5 (in-place)
I0403 15:03:08.765604 30954 net.cpp:141] Setting up inception_4c/relu_5x5
I0403 15:03:08.765630 30954 net.cpp:148] Top shape: 24 64 14 14 (301056)
I0403 15:03:08.765646 30954 net.cpp:156] Memory required for data: 1050971424
I0403 15:03:08.765661 30954 layer_factory.hpp:77] Creating layer inception_4c/pool
I0403 15:03:08.765682 30954 net.cpp:91] Creating Layer inception_4c/pool
I0403 15:03:08.765700 30954 net.cpp:425] inception_4c/pool <- inception_4b/output_inception_4b/output_0_split_3
I0403 15:03:08.765718 30954 net.cpp:399] inception_4c/pool -> inception_4c/pool
I0403 15:03:08.765786 30954 net.cpp:141] Setting up inception_4c/pool
I0403 15:03:08.765822 30954 net.cpp:148] Top shape: 24 512 14 14 (2408448)
I0403 15:03:08.765846 30954 net.cpp:156] Memory required for data: 1060605216
I0403 15:03:08.765889 30954 layer_factory.hpp:77] Creating layer inception_4c/pool_proj
I0403 15:03:08.765914 30954 net.cpp:91] Creating Layer inception_4c/pool_proj
I0403 15:03:08.765944 30954 net.cpp:425] inception_4c/pool_proj <- inception_4c/pool
I0403 15:03:08.765964 30954 net.cpp:399] inception_4c/pool_proj -> inception_4c/pool_proj
I0403 15:03:08.767169 30954 net.cpp:141] Setting up inception_4c/pool_proj
I0403 15:03:08.767197 30954 net.cpp:148] Top shape: 24 64 14 14 (301056)
I0403 15:03:08.767225 30954 net.cpp:156] Memory required for data: 1061809440
I0403 15:03:08.767246 30954 layer_factory.hpp:77] Creating layer inception_4c/relu_pool_proj
I0403 15:03:08.767266 30954 net.cpp:91] Creating Layer inception_4c/relu_pool_proj
I0403 15:03:08.767282 30954 net.cpp:425] inception_4c/relu_pool_proj <- inception_4c/pool_proj
I0403 15:03:08.767297 30954 net.cpp:386] inception_4c/relu_pool_proj -> inception_4c/pool_proj (in-place)
I0403 15:03:08.767477 30954 net.cpp:141] Setting up inception_4c/relu_pool_proj
I0403 15:03:08.767500 30954 net.cpp:148] Top shape: 24 64 14 14 (301056)
I0403 15:03:08.767520 30954 net.cpp:156] Memory required for data: 1063013664
I0403 15:03:08.767535 30954 layer_factory.hpp:77] Creating layer inception_4c/output
I0403 15:03:08.767554 30954 net.cpp:91] Creating Layer inception_4c/output
I0403 15:03:08.767571 30954 net.cpp:425] inception_4c/output <- inception_4c/1x1
I0403 15:03:08.767587 30954 net.cpp:425] inception_4c/output <- inception_4c/3x3
I0403 15:03:08.767602 30954 net.cpp:425] inception_4c/output <- inception_4c/5x5
I0403 15:03:08.767618 30954 net.cpp:425] inception_4c/output <- inception_4c/pool_proj
I0403 15:03:08.767635 30954 net.cpp:399] inception_4c/output -> inception_4c/output
I0403 15:03:08.767681 30954 net.cpp:141] Setting up inception_4c/output
I0403 15:03:08.767704 30954 net.cpp:148] Top shape: 24 512 14 14 (2408448)
I0403 15:03:08.767719 30954 net.cpp:156] Memory required for data: 1072647456
I0403 15:03:08.767732 30954 layer_factory.hpp:77] Creating layer inception_4c/output_inception_4c/output_0_split
I0403 15:03:08.767748 30954 net.cpp:91] Creating Layer inception_4c/output_inception_4c/output_0_split
I0403 15:03:08.767763 30954 net.cpp:425] inception_4c/output_inception_4c/output_0_split <- inception_4c/output
I0403 15:03:08.767782 30954 net.cpp:399] inception_4c/output_inception_4c/output_0_split -> inception_4c/output_inception_4c/output_0_split_0
I0403 15:03:08.767803 30954 net.cpp:399] inception_4c/output_inception_4c/output_0_split -> inception_4c/output_inception_4c/output_0_split_1
I0403 15:03:08.767822 30954 net.cpp:399] inception_4c/output_inception_4c/output_0_split -> inception_4c/output_inception_4c/output_0_split_2
I0403 15:03:08.767843 30954 net.cpp:399] inception_4c/output_inception_4c/output_0_split -> inception_4c/output_inception_4c/output_0_split_3
I0403 15:03:08.767927 30954 net.cpp:141] Setting up inception_4c/output_inception_4c/output_0_split
I0403 15:03:08.767952 30954 net.cpp:148] Top shape: 24 512 14 14 (2408448)
I0403 15:03:08.767969 30954 net.cpp:148] Top shape: 24 512 14 14 (2408448)
I0403 15:03:08.767985 30954 net.cpp:148] Top shape: 24 512 14 14 (2408448)
I0403 15:03:08.768000 30954 net.cpp:148] Top shape: 24 512 14 14 (2408448)
I0403 15:03:08.768013 30954 net.cpp:156] Memory required for data: 1111182624
I0403 15:03:08.768028 30954 layer_factory.hpp:77] Creating layer inception_4d/1x1
I0403 15:03:08.768049 30954 net.cpp:91] Creating Layer inception_4d/1x1
I0403 15:03:08.768065 30954 net.cpp:425] inception_4d/1x1 <- inception_4c/output_inception_4c/output_0_split_0
I0403 15:03:08.768085 30954 net.cpp:399] inception_4d/1x1 -> inception_4d/1x1
I0403 15:03:08.769424 30954 net.cpp:141] Setting up inception_4d/1x1
I0403 15:03:08.769457 30954 net.cpp:148] Top shape: 24 112 14 14 (526848)
I0403 15:03:08.769474 30954 net.cpp:156] Memory required for data: 1113290016
I0403 15:03:08.769492 30954 layer_factory.hpp:77] Creating layer inception_4d/relu_1x1
I0403 15:03:08.769515 30954 net.cpp:91] Creating Layer inception_4d/relu_1x1
I0403 15:03:08.769531 30954 net.cpp:425] inception_4d/relu_1x1 <- inception_4d/1x1
I0403 15:03:08.769551 30954 net.cpp:386] inception_4d/relu_1x1 -> inception_4d/1x1 (in-place)
I0403 15:03:08.769729 30954 net.cpp:141] Setting up inception_4d/relu_1x1
I0403 15:03:08.769754 30954 net.cpp:148] Top shape: 24 112 14 14 (526848)
I0403 15:03:08.769772 30954 net.cpp:156] Memory required for data: 1115397408
I0403 15:03:08.769790 30954 layer_factory.hpp:77] Creating layer inception_4d/3x3_reduce
I0403 15:03:08.769826 30954 net.cpp:91] Creating Layer inception_4d/3x3_reduce
I0403 15:03:08.769845 30954 net.cpp:425] inception_4d/3x3_reduce <- inception_4c/output_inception_4c/output_0_split_1
I0403 15:03:08.769865 30954 net.cpp:399] inception_4d/3x3_reduce -> inception_4d/3x3_reduce
I0403 15:03:08.771343 30954 net.cpp:141] Setting up inception_4d/3x3_reduce
I0403 15:03:08.771373 30954 net.cpp:148] Top shape: 24 144 14 14 (677376)
I0403 15:03:08.771389 30954 net.cpp:156] Memory required for data: 1118106912
I0403 15:03:08.771407 30954 layer_factory.hpp:77] Creating layer inception_4d/relu_3x3_reduce
I0403 15:03:08.771425 30954 net.cpp:91] Creating Layer inception_4d/relu_3x3_reduce
I0403 15:03:08.771441 30954 net.cpp:425] inception_4d/relu_3x3_reduce <- inception_4d/3x3_reduce
I0403 15:03:08.771457 30954 net.cpp:386] inception_4d/relu_3x3_reduce -> inception_4d/3x3_reduce (in-place)
I0403 15:03:08.771754 30954 net.cpp:141] Setting up inception_4d/relu_3x3_reduce
I0403 15:03:08.771780 30954 net.cpp:148] Top shape: 24 144 14 14 (677376)
I0403 15:03:08.771796 30954 net.cpp:156] Memory required for data: 1120816416
I0403 15:03:08.771811 30954 layer_factory.hpp:77] Creating layer inception_4d/3x3
I0403 15:03:08.771832 30954 net.cpp:91] Creating Layer inception_4d/3x3
I0403 15:03:08.771848 30954 net.cpp:425] inception_4d/3x3 <- inception_4d/3x3_reduce
I0403 15:03:08.771868 30954 net.cpp:399] inception_4d/3x3 -> inception_4d/3x3
I0403 15:03:08.776056 30954 net.cpp:141] Setting up inception_4d/3x3
I0403 15:03:08.776087 30954 net.cpp:148] Top shape: 24 288 14 14 (1354752)
I0403 15:03:08.776103 30954 net.cpp:156] Memory required for data: 1126235424
I0403 15:03:08.776123 30954 layer_factory.hpp:77] Creating layer inception_4d/relu_3x3
I0403 15:03:08.776140 30954 net.cpp:91] Creating Layer inception_4d/relu_3x3
I0403 15:03:08.776157 30954 net.cpp:425] inception_4d/relu_3x3 <- inception_4d/3x3
I0403 15:03:08.776176 30954 net.cpp:386] inception_4d/relu_3x3 -> inception_4d/3x3 (in-place)
I0403 15:03:08.776353 30954 net.cpp:141] Setting up inception_4d/relu_3x3
I0403 15:03:08.776377 30954 net.cpp:148] Top shape: 24 288 14 14 (1354752)
I0403 15:03:08.776391 30954 net.cpp:156] Memory required for data: 1131654432
I0403 15:03:08.776407 30954 layer_factory.hpp:77] Creating layer inception_4d/5x5_reduce
I0403 15:03:08.776428 30954 net.cpp:91] Creating Layer inception_4d/5x5_reduce
I0403 15:03:08.776444 30954 net.cpp:425] inception_4d/5x5_reduce <- inception_4c/output_inception_4c/output_0_split_2
I0403 15:03:08.776464 30954 net.cpp:399] inception_4d/5x5_reduce -> inception_4d/5x5_reduce
I0403 15:03:08.777595 30954 net.cpp:141] Setting up inception_4d/5x5_reduce
I0403 15:03:08.777624 30954 net.cpp:148] Top shape: 24 32 14 14 (150528)
I0403 15:03:08.777640 30954 net.cpp:156] Memory required for data: 1132256544
I0403 15:03:08.777658 30954 layer_factory.hpp:77] Creating layer inception_4d/relu_5x5_reduce
I0403 15:03:08.777676 30954 net.cpp:91] Creating Layer inception_4d/relu_5x5_reduce
I0403 15:03:08.777693 30954 net.cpp:425] inception_4d/relu_5x5_reduce <- inception_4d/5x5_reduce
I0403 15:03:08.777711 30954 net.cpp:386] inception_4d/relu_5x5_reduce -> inception_4d/5x5_reduce (in-place)
I0403 15:03:08.777894 30954 net.cpp:141] Setting up inception_4d/relu_5x5_reduce
I0403 15:03:08.777918 30954 net.cpp:148] Top shape: 24 32 14 14 (150528)
I0403 15:03:08.777932 30954 net.cpp:156] Memory required for data: 1132858656
I0403 15:03:08.777947 30954 layer_factory.hpp:77] Creating layer inception_4d/5x5
I0403 15:03:08.777968 30954 net.cpp:91] Creating Layer inception_4d/5x5
I0403 15:03:08.777986 30954 net.cpp:425] inception_4d/5x5 <- inception_4d/5x5_reduce
I0403 15:03:08.778007 30954 net.cpp:399] inception_4d/5x5 -> inception_4d/5x5
I0403 15:03:08.779446 30954 net.cpp:141] Setting up inception_4d/5x5
I0403 15:03:08.779474 30954 net.cpp:148] Top shape: 24 64 14 14 (301056)
I0403 15:03:08.779489 30954 net.cpp:156] Memory required for data: 1134062880
I0403 15:03:08.779511 30954 layer_factory.hpp:77] Creating layer inception_4d/relu_5x5
I0403 15:03:08.779546 30954 net.cpp:91] Creating Layer inception_4d/relu_5x5
I0403 15:03:08.779563 30954 net.cpp:425] inception_4d/relu_5x5 <- inception_4d/5x5
I0403 15:03:08.779580 30954 net.cpp:386] inception_4d/relu_5x5 -> inception_4d/5x5 (in-place)
I0403 15:03:08.779873 30954 net.cpp:141] Setting up inception_4d/relu_5x5
I0403 15:03:08.779898 30954 net.cpp:148] Top shape: 24 64 14 14 (301056)
I0403 15:03:08.779913 30954 net.cpp:156] Memory required for data: 1135267104
I0403 15:03:08.779928 30954 layer_factory.hpp:77] Creating layer inception_4d/pool
I0403 15:03:08.779947 30954 net.cpp:91] Creating Layer inception_4d/pool
I0403 15:03:08.779963 30954 net.cpp:425] inception_4d/pool <- inception_4c/output_inception_4c/output_0_split_3
I0403 15:03:08.779981 30954 net.cpp:399] inception_4d/pool -> inception_4d/pool
I0403 15:03:08.780047 30954 net.cpp:141] Setting up inception_4d/pool
I0403 15:03:08.780071 30954 net.cpp:148] Top shape: 24 512 14 14 (2408448)
I0403 15:03:08.780084 30954 net.cpp:156] Memory required for data: 1144900896
I0403 15:03:08.780098 30954 layer_factory.hpp:77] Creating layer inception_4d/pool_proj
I0403 15:03:08.780120 30954 net.cpp:91] Creating Layer inception_4d/pool_proj
I0403 15:03:08.780138 30954 net.cpp:425] inception_4d/pool_proj <- inception_4d/pool
I0403 15:03:08.780156 30954 net.cpp:399] inception_4d/pool_proj -> inception_4d/pool_proj
I0403 15:03:08.782004 30954 net.cpp:141] Setting up inception_4d/pool_proj
I0403 15:03:08.782034 30954 net.cpp:148] Top shape: 24 64 14 14 (301056)
I0403 15:03:08.782052 30954 net.cpp:156] Memory required for data: 1146105120
I0403 15:03:08.782071 30954 layer_factory.hpp:77] Creating layer inception_4d/relu_pool_proj
I0403 15:03:08.782089 30954 net.cpp:91] Creating Layer inception_4d/relu_pool_proj
I0403 15:03:08.782106 30954 net.cpp:425] inception_4d/relu_pool_proj <- inception_4d/pool_proj
I0403 15:03:08.782125 30954 net.cpp:386] inception_4d/relu_pool_proj -> inception_4d/pool_proj (in-place)
I0403 15:03:08.782313 30954 net.cpp:141] Setting up inception_4d/relu_pool_proj
I0403 15:03:08.782340 30954 net.cpp:148] Top shape: 24 64 14 14 (301056)
I0403 15:03:08.782354 30954 net.cpp:156] Memory required for data: 1147309344
I0403 15:03:08.782368 30954 layer_factory.hpp:77] Creating layer inception_4d/output
I0403 15:03:08.782388 30954 net.cpp:91] Creating Layer inception_4d/output
I0403 15:03:08.782404 30954 net.cpp:425] inception_4d/output <- inception_4d/1x1
I0403 15:03:08.782421 30954 net.cpp:425] inception_4d/output <- inception_4d/3x3
I0403 15:03:08.782438 30954 net.cpp:425] inception_4d/output <- inception_4d/5x5
I0403 15:03:08.782454 30954 net.cpp:425] inception_4d/output <- inception_4d/pool_proj
I0403 15:03:08.782471 30954 net.cpp:399] inception_4d/output -> inception_4d/output
I0403 15:03:08.782522 30954 net.cpp:141] Setting up inception_4d/output
I0403 15:03:08.782548 30954 net.cpp:148] Top shape: 24 528 14 14 (2483712)
I0403 15:03:08.782564 30954 net.cpp:156] Memory required for data: 1157244192
I0403 15:03:08.782580 30954 layer_factory.hpp:77] Creating layer inception_4d/output_inception_4d/output_0_split
I0403 15:03:08.782598 30954 net.cpp:91] Creating Layer inception_4d/output_inception_4d/output_0_split
I0403 15:03:08.782613 30954 net.cpp:425] inception_4d/output_inception_4d/output_0_split <- inception_4d/output
I0403 15:03:08.782631 30954 net.cpp:399] inception_4d/output_inception_4d/output_0_split -> inception_4d/output_inception_4d/output_0_split_0
I0403 15:03:08.782652 30954 net.cpp:399] inception_4d/output_inception_4d/output_0_split -> inception_4d/output_inception_4d/output_0_split_1
I0403 15:03:08.782673 30954 net.cpp:399] inception_4d/output_inception_4d/output_0_split -> inception_4d/output_inception_4d/output_0_split_2
I0403 15:03:08.782693 30954 net.cpp:399] inception_4d/output_inception_4d/output_0_split -> inception_4d/output_inception_4d/output_0_split_3
I0403 15:03:08.782714 30954 net.cpp:399] inception_4d/output_inception_4d/output_0_split -> inception_4d/output_inception_4d/output_0_split_4
I0403 15:03:08.782819 30954 net.cpp:141] Setting up inception_4d/output_inception_4d/output_0_split
I0403 15:03:08.782855 30954 net.cpp:148] Top shape: 24 528 14 14 (2483712)
I0403 15:03:08.782873 30954 net.cpp:148] Top shape: 24 528 14 14 (2483712)
I0403 15:03:08.782891 30954 net.cpp:148] Top shape: 24 528 14 14 (2483712)
I0403 15:03:08.782907 30954 net.cpp:148] Top shape: 24 528 14 14 (2483712)
I0403 15:03:08.782922 30954 net.cpp:148] Top shape: 24 528 14 14 (2483712)
I0403 15:03:08.782938 30954 net.cpp:156] Memory required for data: 1206918432
I0403 15:03:08.782951 30954 layer_factory.hpp:77] Creating layer loss2/ave_pool
I0403 15:03:08.782974 30954 net.cpp:91] Creating Layer loss2/ave_pool
I0403 15:03:08.782990 30954 net.cpp:425] loss2/ave_pool <- inception_4d/output_inception_4d/output_0_split_0
I0403 15:03:08.783011 30954 net.cpp:399] loss2/ave_pool -> loss2/ave_pool
I0403 15:03:08.783325 30954 net.cpp:141] Setting up loss2/ave_pool
I0403 15:03:08.783351 30954 net.cpp:148] Top shape: 24 528 4 4 (202752)
I0403 15:03:08.783367 30954 net.cpp:156] Memory required for data: 1207729440
I0403 15:03:08.783382 30954 layer_factory.hpp:77] Creating layer loss2/conv
I0403 15:03:08.783404 30954 net.cpp:91] Creating Layer loss2/conv
I0403 15:03:08.783421 30954 net.cpp:425] loss2/conv <- loss2/ave_pool
I0403 15:03:08.783442 30954 net.cpp:399] loss2/conv -> loss2/conv
I0403 15:03:08.785351 30954 net.cpp:141] Setting up loss2/conv
I0403 15:03:08.785380 30954 net.cpp:148] Top shape: 24 128 4 4 (49152)
I0403 15:03:08.785398 30954 net.cpp:156] Memory required for data: 1207926048
I0403 15:03:08.785418 30954 layer_factory.hpp:77] Creating layer loss2/relu_conv
I0403 15:03:08.785439 30954 net.cpp:91] Creating Layer loss2/relu_conv
I0403 15:03:08.785456 30954 net.cpp:425] loss2/relu_conv <- loss2/conv
I0403 15:03:08.785473 30954 net.cpp:386] loss2/relu_conv -> loss2/conv (in-place)
I0403 15:03:08.785768 30954 net.cpp:141] Setting up loss2/relu_conv
I0403 15:03:08.785794 30954 net.cpp:148] Top shape: 24 128 4 4 (49152)
I0403 15:03:08.785809 30954 net.cpp:156] Memory required for data: 1208122656
I0403 15:03:08.785823 30954 layer_factory.hpp:77] Creating layer loss2/fc
I0403 15:03:08.785845 30954 net.cpp:91] Creating Layer loss2/fc
I0403 15:03:08.785861 30954 net.cpp:425] loss2/fc <- loss2/conv
I0403 15:03:08.785881 30954 net.cpp:399] loss2/fc -> loss2/fc
I0403 15:03:08.803618 30954 net.cpp:141] Setting up loss2/fc
I0403 15:03:08.803660 30954 net.cpp:148] Top shape: 24 1024 (24576)
I0403 15:03:08.803676 30954 net.cpp:156] Memory required for data: 1208220960
I0403 15:03:08.803696 30954 layer_factory.hpp:77] Creating layer loss2/relu_fc
I0403 15:03:08.803714 30954 net.cpp:91] Creating Layer loss2/relu_fc
I0403 15:03:08.803730 30954 net.cpp:425] loss2/relu_fc <- loss2/fc
I0403 15:03:08.803750 30954 net.cpp:386] loss2/relu_fc -> loss2/fc (in-place)
I0403 15:03:08.804049 30954 net.cpp:141] Setting up loss2/relu_fc
I0403 15:03:08.804075 30954 net.cpp:148] Top shape: 24 1024 (24576)
I0403 15:03:08.804090 30954 net.cpp:156] Memory required for data: 1208319264
I0403 15:03:08.804105 30954 layer_factory.hpp:77] Creating layer loss2/drop_fc
I0403 15:03:08.804123 30954 net.cpp:91] Creating Layer loss2/drop_fc
I0403 15:03:08.804139 30954 net.cpp:425] loss2/drop_fc <- loss2/fc
I0403 15:03:08.804158 30954 net.cpp:386] loss2/drop_fc -> loss2/fc (in-place)
I0403 15:03:08.804206 30954 net.cpp:141] Setting up loss2/drop_fc
I0403 15:03:08.804232 30954 net.cpp:148] Top shape: 24 1024 (24576)
I0403 15:03:08.804247 30954 net.cpp:156] Memory required for data: 1208417568
I0403 15:03:08.804262 30954 layer_factory.hpp:77] Creating layer loss2/classifier_plantvillage
I0403 15:03:08.804280 30954 net.cpp:91] Creating Layer loss2/classifier_plantvillage
I0403 15:03:08.804296 30954 net.cpp:425] loss2/classifier_plantvillage <- loss2/fc
I0403 15:03:08.804318 30954 net.cpp:399] loss2/classifier_plantvillage -> loss2/classifier_plantvillage
I0403 15:03:08.804724 30954 net.cpp:141] Setting up loss2/classifier_plantvillage
I0403 15:03:08.804772 30954 net.cpp:148] Top shape: 24 38 (912)
I0403 15:03:08.804812 30954 net.cpp:156] Memory required for data: 1208421216
I0403 15:03:08.804841 30954 layer_factory.hpp:77] Creating layer loss2/classifier_plantvillage_loss2/classifier_plantvillage_0_split
I0403 15:03:08.804860 30954 net.cpp:91] Creating Layer loss2/classifier_plantvillage_loss2/classifier_plantvillage_0_split
I0403 15:03:08.804875 30954 net.cpp:425] loss2/classifier_plantvillage_loss2/classifier_plantvillage_0_split <- loss2/classifier_plantvillage
I0403 15:03:08.804893 30954 net.cpp:399] loss2/classifier_plantvillage_loss2/classifier_plantvillage_0_split -> loss2/classifier_plantvillage_loss2/classifier_plantvillage_0_split_0
I0403 15:03:08.804913 30954 net.cpp:399] loss2/classifier_plantvillage_loss2/classifier_plantvillage_0_split -> loss2/classifier_plantvillage_loss2/classifier_plantvillage_0_split_1
I0403 15:03:08.804932 30954 net.cpp:399] loss2/classifier_plantvillage_loss2/classifier_plantvillage_0_split -> loss2/classifier_plantvillage_loss2/classifier_plantvillage_0_split_2
I0403 15:03:08.805007 30954 net.cpp:141] Setting up loss2/classifier_plantvillage_loss2/classifier_plantvillage_0_split
I0403 15:03:08.805030 30954 net.cpp:148] Top shape: 24 38 (912)
I0403 15:03:08.805045 30954 net.cpp:148] Top shape: 24 38 (912)
I0403 15:03:08.805060 30954 net.cpp:148] Top shape: 24 38 (912)
I0403 15:03:08.805074 30954 net.cpp:156] Memory required for data: 1208432160
I0403 15:03:08.805088 30954 layer_factory.hpp:77] Creating layer inception_4e/1x1
I0403 15:03:08.805109 30954 net.cpp:91] Creating Layer inception_4e/1x1
I0403 15:03:08.805133 30954 net.cpp:425] inception_4e/1x1 <- inception_4d/output_inception_4d/output_0_split_1
I0403 15:03:08.805155 30954 net.cpp:399] inception_4e/1x1 -> inception_4e/1x1
I0403 15:03:08.806934 30954 net.cpp:141] Setting up inception_4e/1x1
I0403 15:03:08.806962 30954 net.cpp:148] Top shape: 24 256 14 14 (1204224)
I0403 15:03:08.806977 30954 net.cpp:156] Memory required for data: 1213249056
I0403 15:03:08.806994 30954 layer_factory.hpp:77] Creating layer inception_4e/relu_1x1
I0403 15:03:08.807014 30954 net.cpp:91] Creating Layer inception_4e/relu_1x1
I0403 15:03:08.807030 30954 net.cpp:425] inception_4e/relu_1x1 <- inception_4e/1x1
I0403 15:03:08.807046 30954 net.cpp:386] inception_4e/relu_1x1 -> inception_4e/1x1 (in-place)
I0403 15:03:08.807337 30954 net.cpp:141] Setting up inception_4e/relu_1x1
I0403 15:03:08.807361 30954 net.cpp:148] Top shape: 24 256 14 14 (1204224)
I0403 15:03:08.807376 30954 net.cpp:156] Memory required for data: 1218065952
I0403 15:03:08.807390 30954 layer_factory.hpp:77] Creating layer inception_4e/3x3_reduce
I0403 15:03:08.807415 30954 net.cpp:91] Creating Layer inception_4e/3x3_reduce
I0403 15:03:08.807431 30954 net.cpp:425] inception_4e/3x3_reduce <- inception_4d/output_inception_4d/output_0_split_2
I0403 15:03:08.807449 30954 net.cpp:399] inception_4e/3x3_reduce -> inception_4e/3x3_reduce
I0403 15:03:08.809592 30954 net.cpp:141] Setting up inception_4e/3x3_reduce
I0403 15:03:08.809622 30954 net.cpp:148] Top shape: 24 160 14 14 (752640)
I0403 15:03:08.809638 30954 net.cpp:156] Memory required for data: 1221076512
I0403 15:03:08.809655 30954 layer_factory.hpp:77] Creating layer inception_4e/relu_3x3_reduce
I0403 15:03:08.809675 30954 net.cpp:91] Creating Layer inception_4e/relu_3x3_reduce
I0403 15:03:08.809691 30954 net.cpp:425] inception_4e/relu_3x3_reduce <- inception_4e/3x3_reduce
I0403 15:03:08.809708 30954 net.cpp:386] inception_4e/relu_3x3_reduce -> inception_4e/3x3_reduce (in-place)
I0403 15:03:08.809892 30954 net.cpp:141] Setting up inception_4e/relu_3x3_reduce
I0403 15:03:08.809916 30954 net.cpp:148] Top shape: 24 160 14 14 (752640)
I0403 15:03:08.809931 30954 net.cpp:156] Memory required for data: 1224087072
I0403 15:03:08.809945 30954 layer_factory.hpp:77] Creating layer inception_4e/3x3
I0403 15:03:08.809969 30954 net.cpp:91] Creating Layer inception_4e/3x3
I0403 15:03:08.809986 30954 net.cpp:425] inception_4e/3x3 <- inception_4e/3x3_reduce
I0403 15:03:08.810005 30954 net.cpp:399] inception_4e/3x3 -> inception_4e/3x3
I0403 15:03:08.814944 30954 net.cpp:141] Setting up inception_4e/3x3
I0403 15:03:08.814990 30954 net.cpp:148] Top shape: 24 320 14 14 (1505280)
I0403 15:03:08.815008 30954 net.cpp:156] Memory required for data: 1230108192
I0403 15:03:08.815028 30954 layer_factory.hpp:77] Creating layer inception_4e/relu_3x3
I0403 15:03:08.815047 30954 net.cpp:91] Creating Layer inception_4e/relu_3x3
I0403 15:03:08.815064 30954 net.cpp:425] inception_4e/relu_3x3 <- inception_4e/3x3
I0403 15:03:08.815083 30954 net.cpp:386] inception_4e/relu_3x3 -> inception_4e/3x3 (in-place)
I0403 15:03:08.815376 30954 net.cpp:141] Setting up inception_4e/relu_3x3
I0403 15:03:08.815403 30954 net.cpp:148] Top shape: 24 320 14 14 (1505280)
I0403 15:03:08.815419 30954 net.cpp:156] Memory required for data: 1236129312
I0403 15:03:08.815433 30954 layer_factory.hpp:77] Creating layer inception_4e/5x5_reduce
I0403 15:03:08.815456 30954 net.cpp:91] Creating Layer inception_4e/5x5_reduce
I0403 15:03:08.815474 30954 net.cpp:425] inception_4e/5x5_reduce <- inception_4d/output_inception_4d/output_0_split_3
I0403 15:03:08.815492 30954 net.cpp:399] inception_4e/5x5_reduce -> inception_4e/5x5_reduce
I0403 15:03:08.816552 30954 net.cpp:141] Setting up inception_4e/5x5_reduce
I0403 15:03:08.816581 30954 net.cpp:148] Top shape: 24 32 14 14 (150528)
I0403 15:03:08.816596 30954 net.cpp:156] Memory required for data: 1236731424
I0403 15:03:08.816614 30954 layer_factory.hpp:77] Creating layer inception_4e/relu_5x5_reduce
I0403 15:03:08.816637 30954 net.cpp:91] Creating Layer inception_4e/relu_5x5_reduce
I0403 15:03:08.816654 30954 net.cpp:425] inception_4e/relu_5x5_reduce <- inception_4e/5x5_reduce
I0403 15:03:08.816670 30954 net.cpp:386] inception_4e/relu_5x5_reduce -> inception_4e/5x5_reduce (in-place)
I0403 15:03:08.816965 30954 net.cpp:141] Setting up inception_4e/relu_5x5_reduce
I0403 15:03:08.816990 30954 net.cpp:148] Top shape: 24 32 14 14 (150528)
I0403 15:03:08.817005 30954 net.cpp:156] Memory required for data: 1237333536
I0403 15:03:08.817020 30954 layer_factory.hpp:77] Creating layer inception_4e/5x5
I0403 15:03:08.817059 30954 net.cpp:91] Creating Layer inception_4e/5x5
I0403 15:03:08.817077 30954 net.cpp:425] inception_4e/5x5 <- inception_4e/5x5_reduce
I0403 15:03:08.817098 30954 net.cpp:399] inception_4e/5x5 -> inception_4e/5x5
I0403 15:03:08.819000 30954 net.cpp:141] Setting up inception_4e/5x5
I0403 15:03:08.819028 30954 net.cpp:148] Top shape: 24 128 14 14 (602112)
I0403 15:03:08.819043 30954 net.cpp:156] Memory required for data: 1239741984
I0403 15:03:08.819062 30954 layer_factory.hpp:77] Creating layer inception_4e/relu_5x5
I0403 15:03:08.819080 30954 net.cpp:91] Creating Layer inception_4e/relu_5x5
I0403 15:03:08.819095 30954 net.cpp:425] inception_4e/relu_5x5 <- inception_4e/5x5
I0403 15:03:08.819114 30954 net.cpp:386] inception_4e/relu_5x5 -> inception_4e/5x5 (in-place)
I0403 15:03:08.819308 30954 net.cpp:141] Setting up inception_4e/relu_5x5
I0403 15:03:08.819336 30954 net.cpp:148] Top shape: 24 128 14 14 (602112)
I0403 15:03:08.819355 30954 net.cpp:156] Memory required for data: 1242150432
I0403 15:03:08.819376 30954 layer_factory.hpp:77] Creating layer inception_4e/pool
I0403 15:03:08.819419 30954 net.cpp:91] Creating Layer inception_4e/pool
I0403 15:03:08.819442 30954 net.cpp:425] inception_4e/pool <- inception_4d/output_inception_4d/output_0_split_4
I0403 15:03:08.819461 30954 net.cpp:399] inception_4e/pool -> inception_4e/pool
I0403 15:03:08.819550 30954 net.cpp:141] Setting up inception_4e/pool
I0403 15:03:08.819582 30954 net.cpp:148] Top shape: 24 528 14 14 (2483712)
I0403 15:03:08.819597 30954 net.cpp:156] Memory required for data: 1252085280
I0403 15:03:08.819612 30954 layer_factory.hpp:77] Creating layer inception_4e/pool_proj
I0403 15:03:08.819633 30954 net.cpp:91] Creating Layer inception_4e/pool_proj
I0403 15:03:08.819650 30954 net.cpp:425] inception_4e/pool_proj <- inception_4e/pool
I0403 15:03:08.819671 30954 net.cpp:399] inception_4e/pool_proj -> inception_4e/pool_proj
I0403 15:03:08.821210 30954 net.cpp:141] Setting up inception_4e/pool_proj
I0403 15:03:08.821256 30954 net.cpp:148] Top shape: 24 128 14 14 (602112)
I0403 15:03:08.821275 30954 net.cpp:156] Memory required for data: 1254493728
I0403 15:03:08.821305 30954 layer_factory.hpp:77] Creating layer inception_4e/relu_pool_proj
I0403 15:03:08.821326 30954 net.cpp:91] Creating Layer inception_4e/relu_pool_proj
I0403 15:03:08.821342 30954 net.cpp:425] inception_4e/relu_pool_proj <- inception_4e/pool_proj
I0403 15:03:08.821362 30954 net.cpp:386] inception_4e/relu_pool_proj -> inception_4e/pool_proj (in-place)
I0403 15:03:08.821661 30954 net.cpp:141] Setting up inception_4e/relu_pool_proj
I0403 15:03:08.821692 30954 net.cpp:148] Top shape: 24 128 14 14 (602112)
I0403 15:03:08.821715 30954 net.cpp:156] Memory required for data: 1256902176
I0403 15:03:08.821733 30954 layer_factory.hpp:77] Creating layer inception_4e/output
I0403 15:03:08.821755 30954 net.cpp:91] Creating Layer inception_4e/output
I0403 15:03:08.821790 30954 net.cpp:425] inception_4e/output <- inception_4e/1x1
I0403 15:03:08.821830 30954 net.cpp:425] inception_4e/output <- inception_4e/3x3
I0403 15:03:08.821861 30954 net.cpp:425] inception_4e/output <- inception_4e/5x5
I0403 15:03:08.821882 30954 net.cpp:425] inception_4e/output <- inception_4e/pool_proj
I0403 15:03:08.821902 30954 net.cpp:399] inception_4e/output -> inception_4e/output
I0403 15:03:08.821956 30954 net.cpp:141] Setting up inception_4e/output
I0403 15:03:08.821987 30954 net.cpp:148] Top shape: 24 832 14 14 (3913728)
I0403 15:03:08.822006 30954 net.cpp:156] Memory required for data: 1272557088
I0403 15:03:08.822024 30954 layer_factory.hpp:77] Creating layer pool4/3x3_s2
I0403 15:03:08.822046 30954 net.cpp:91] Creating Layer pool4/3x3_s2
I0403 15:03:08.822080 30954 net.cpp:425] pool4/3x3_s2 <- inception_4e/output
I0403 15:03:08.822099 30954 net.cpp:399] pool4/3x3_s2 -> pool4/3x3_s2
I0403 15:03:08.822170 30954 net.cpp:141] Setting up pool4/3x3_s2
I0403 15:03:08.822193 30954 net.cpp:148] Top shape: 24 832 7 7 (978432)
I0403 15:03:08.822207 30954 net.cpp:156] Memory required for data: 1276470816
I0403 15:03:08.822221 30954 layer_factory.hpp:77] Creating layer pool4/3x3_s2_pool4/3x3_s2_0_split
I0403 15:03:08.822237 30954 net.cpp:91] Creating Layer pool4/3x3_s2_pool4/3x3_s2_0_split
I0403 15:03:08.822252 30954 net.cpp:425] pool4/3x3_s2_pool4/3x3_s2_0_split <- pool4/3x3_s2
I0403 15:03:08.822271 30954 net.cpp:399] pool4/3x3_s2_pool4/3x3_s2_0_split -> pool4/3x3_s2_pool4/3x3_s2_0_split_0
I0403 15:03:08.822291 30954 net.cpp:399] pool4/3x3_s2_pool4/3x3_s2_0_split -> pool4/3x3_s2_pool4/3x3_s2_0_split_1
I0403 15:03:08.822310 30954 net.cpp:399] pool4/3x3_s2_pool4/3x3_s2_0_split -> pool4/3x3_s2_pool4/3x3_s2_0_split_2
I0403 15:03:08.822335 30954 net.cpp:399] pool4/3x3_s2_pool4/3x3_s2_0_split -> pool4/3x3_s2_pool4/3x3_s2_0_split_3
I0403 15:03:08.822443 30954 net.cpp:141] Setting up pool4/3x3_s2_pool4/3x3_s2_0_split
I0403 15:03:08.822474 30954 net.cpp:148] Top shape: 24 832 7 7 (978432)
I0403 15:03:08.822507 30954 net.cpp:148] Top shape: 24 832 7 7 (978432)
I0403 15:03:08.822540 30954 net.cpp:148] Top shape: 24 832 7 7 (978432)
I0403 15:03:08.822562 30954 net.cpp:148] Top shape: 24 832 7 7 (978432)
I0403 15:03:08.822578 30954 net.cpp:156] Memory required for data: 1292125728
I0403 15:03:08.822595 30954 layer_factory.hpp:77] Creating layer inception_5a/1x1
I0403 15:03:08.822623 30954 net.cpp:91] Creating Layer inception_5a/1x1
I0403 15:03:08.822644 30954 net.cpp:425] inception_5a/1x1 <- pool4/3x3_s2_pool4/3x3_s2_0_split_0
I0403 15:03:08.822667 30954 net.cpp:399] inception_5a/1x1 -> inception_5a/1x1
I0403 15:03:08.825660 30954 net.cpp:141] Setting up inception_5a/1x1
I0403 15:03:08.825690 30954 net.cpp:148] Top shape: 24 256 7 7 (301056)
I0403 15:03:08.825705 30954 net.cpp:156] Memory required for data: 1293329952
I0403 15:03:08.825722 30954 layer_factory.hpp:77] Creating layer inception_5a/relu_1x1
I0403 15:03:08.825743 30954 net.cpp:91] Creating Layer inception_5a/relu_1x1
I0403 15:03:08.825759 30954 net.cpp:425] inception_5a/relu_1x1 <- inception_5a/1x1
I0403 15:03:08.825776 30954 net.cpp:386] inception_5a/relu_1x1 -> inception_5a/1x1 (in-place)
I0403 15:03:08.826081 30954 net.cpp:141] Setting up inception_5a/relu_1x1
I0403 15:03:08.826107 30954 net.cpp:148] Top shape: 24 256 7 7 (301056)
I0403 15:03:08.826120 30954 net.cpp:156] Memory required for data: 1294534176
I0403 15:03:08.826135 30954 layer_factory.hpp:77] Creating layer inception_5a/3x3_reduce
I0403 15:03:08.826158 30954 net.cpp:91] Creating Layer inception_5a/3x3_reduce
I0403 15:03:08.826174 30954 net.cpp:425] inception_5a/3x3_reduce <- pool4/3x3_s2_pool4/3x3_s2_0_split_1
I0403 15:03:08.826194 30954 net.cpp:399] inception_5a/3x3_reduce -> inception_5a/3x3_reduce
I0403 15:03:08.828642 30954 net.cpp:141] Setting up inception_5a/3x3_reduce
I0403 15:03:08.828672 30954 net.cpp:148] Top shape: 24 160 7 7 (188160)
I0403 15:03:08.828690 30954 net.cpp:156] Memory required for data: 1295286816
I0403 15:03:08.828707 30954 layer_factory.hpp:77] Creating layer inception_5a/relu_3x3_reduce
I0403 15:03:08.828725 30954 net.cpp:91] Creating Layer inception_5a/relu_3x3_reduce
I0403 15:03:08.828742 30954 net.cpp:425] inception_5a/relu_3x3_reduce <- inception_5a/3x3_reduce
I0403 15:03:08.828761 30954 net.cpp:386] inception_5a/relu_3x3_reduce -> inception_5a/3x3_reduce (in-place)
I0403 15:03:08.828944 30954 net.cpp:141] Setting up inception_5a/relu_3x3_reduce
I0403 15:03:08.828969 30954 net.cpp:148] Top shape: 24 160 7 7 (188160)
I0403 15:03:08.828982 30954 net.cpp:156] Memory required for data: 1296039456
I0403 15:03:08.828997 30954 layer_factory.hpp:77] Creating layer inception_5a/3x3
I0403 15:03:08.829020 30954 net.cpp:91] Creating Layer inception_5a/3x3
I0403 15:03:08.829035 30954 net.cpp:425] inception_5a/3x3 <- inception_5a/3x3_reduce
I0403 15:03:08.829056 30954 net.cpp:399] inception_5a/3x3 -> inception_5a/3x3
I0403 15:03:08.833998 30954 net.cpp:141] Setting up inception_5a/3x3
I0403 15:03:08.834028 30954 net.cpp:148] Top shape: 24 320 7 7 (376320)
I0403 15:03:08.834043 30954 net.cpp:156] Memory required for data: 1297544736
I0403 15:03:08.834061 30954 layer_factory.hpp:77] Creating layer inception_5a/relu_3x3
I0403 15:03:08.834081 30954 net.cpp:91] Creating Layer inception_5a/relu_3x3
I0403 15:03:08.834098 30954 net.cpp:425] inception_5a/relu_3x3 <- inception_5a/3x3
I0403 15:03:08.834115 30954 net.cpp:386] inception_5a/relu_3x3 -> inception_5a/3x3 (in-place)
I0403 15:03:08.834400 30954 net.cpp:141] Setting up inception_5a/relu_3x3
I0403 15:03:08.834431 30954 net.cpp:148] Top shape: 24 320 7 7 (376320)
I0403 15:03:08.834449 30954 net.cpp:156] Memory required for data: 1299050016
I0403 15:03:08.834465 30954 layer_factory.hpp:77] Creating layer inception_5a/5x5_reduce
I0403 15:03:08.834494 30954 net.cpp:91] Creating Layer inception_5a/5x5_reduce
I0403 15:03:08.834525 30954 net.cpp:425] inception_5a/5x5_reduce <- pool4/3x3_s2_pool4/3x3_s2_0_split_2
I0403 15:03:08.834553 30954 net.cpp:399] inception_5a/5x5_reduce -> inception_5a/5x5_reduce
I0403 15:03:08.835702 30954 net.cpp:141] Setting up inception_5a/5x5_reduce
I0403 15:03:08.835738 30954 net.cpp:148] Top shape: 24 32 7 7 (37632)
I0403 15:03:08.835762 30954 net.cpp:156] Memory required for data: 1299200544
I0403 15:03:08.835788 30954 layer_factory.hpp:77] Creating layer inception_5a/relu_5x5_reduce
I0403 15:03:08.835808 30954 net.cpp:91] Creating Layer inception_5a/relu_5x5_reduce
I0403 15:03:08.835827 30954 net.cpp:425] inception_5a/relu_5x5_reduce <- inception_5a/5x5_reduce
I0403 15:03:08.835849 30954 net.cpp:386] inception_5a/relu_5x5_reduce -> inception_5a/5x5_reduce (in-place)
I0403 15:03:08.836143 30954 net.cpp:141] Setting up inception_5a/relu_5x5_reduce
I0403 15:03:08.836174 30954 net.cpp:148] Top shape: 24 32 7 7 (37632)
I0403 15:03:08.836194 30954 net.cpp:156] Memory required for data: 1299351072
I0403 15:03:08.836212 30954 layer_factory.hpp:77] Creating layer inception_5a/5x5
I0403 15:03:08.836238 30954 net.cpp:91] Creating Layer inception_5a/5x5
I0403 15:03:08.836269 30954 net.cpp:425] inception_5a/5x5 <- inception_5a/5x5_reduce
I0403 15:03:08.836292 30954 net.cpp:399] inception_5a/5x5 -> inception_5a/5x5
I0403 15:03:08.837990 30954 net.cpp:141] Setting up inception_5a/5x5
I0403 15:03:08.838030 30954 net.cpp:148] Top shape: 24 128 7 7 (150528)
I0403 15:03:08.838045 30954 net.cpp:156] Memory required for data: 1299953184
I0403 15:03:08.838066 30954 layer_factory.hpp:77] Creating layer inception_5a/relu_5x5
I0403 15:03:08.838088 30954 net.cpp:91] Creating Layer inception_5a/relu_5x5
I0403 15:03:08.838106 30954 net.cpp:425] inception_5a/relu_5x5 <- inception_5a/5x5
I0403 15:03:08.838126 30954 net.cpp:386] inception_5a/relu_5x5 -> inception_5a/5x5 (in-place)
I0403 15:03:08.838316 30954 net.cpp:141] Setting up inception_5a/relu_5x5
I0403 15:03:08.838351 30954 net.cpp:148] Top shape: 24 128 7 7 (150528)
I0403 15:03:08.838369 30954 net.cpp:156] Memory required for data: 1300555296
I0403 15:03:08.838385 30954 layer_factory.hpp:77] Creating layer inception_5a/pool
I0403 15:03:08.838405 30954 net.cpp:91] Creating Layer inception_5a/pool
I0403 15:03:08.838421 30954 net.cpp:425] inception_5a/pool <- pool4/3x3_s2_pool4/3x3_s2_0_split_3
I0403 15:03:08.838439 30954 net.cpp:399] inception_5a/pool -> inception_5a/pool
I0403 15:03:08.838517 30954 net.cpp:141] Setting up inception_5a/pool
I0403 15:03:08.838549 30954 net.cpp:148] Top shape: 24 832 7 7 (978432)
I0403 15:03:08.838568 30954 net.cpp:156] Memory required for data: 1304469024
I0403 15:03:08.838582 30954 layer_factory.hpp:77] Creating layer inception_5a/pool_proj
I0403 15:03:08.838606 30954 net.cpp:91] Creating Layer inception_5a/pool_proj
I0403 15:03:08.838629 30954 net.cpp:425] inception_5a/pool_proj <- inception_5a/pool
I0403 15:03:08.838655 30954 net.cpp:399] inception_5a/pool_proj -> inception_5a/pool_proj
I0403 15:03:08.840898 30954 net.cpp:141] Setting up inception_5a/pool_proj
I0403 15:03:08.840927 30954 net.cpp:148] Top shape: 24 128 7 7 (150528)
I0403 15:03:08.840944 30954 net.cpp:156] Memory required for data: 1305071136
I0403 15:03:08.840961 30954 layer_factory.hpp:77] Creating layer inception_5a/relu_pool_proj
I0403 15:03:08.840978 30954 net.cpp:91] Creating Layer inception_5a/relu_pool_proj
I0403 15:03:08.840994 30954 net.cpp:425] inception_5a/relu_pool_proj <- inception_5a/pool_proj
I0403 15:03:08.841013 30954 net.cpp:386] inception_5a/relu_pool_proj -> inception_5a/pool_proj (in-place)
I0403 15:03:08.841303 30954 net.cpp:141] Setting up inception_5a/relu_pool_proj
I0403 15:03:08.841328 30954 net.cpp:148] Top shape: 24 128 7 7 (150528)
I0403 15:03:08.841343 30954 net.cpp:156] Memory required for data: 1305673248
I0403 15:03:08.841358 30954 layer_factory.hpp:77] Creating layer inception_5a/output
I0403 15:03:08.841375 30954 net.cpp:91] Creating Layer inception_5a/output
I0403 15:03:08.841390 30954 net.cpp:425] inception_5a/output <- inception_5a/1x1
I0403 15:03:08.841405 30954 net.cpp:425] inception_5a/output <- inception_5a/3x3
I0403 15:03:08.841421 30954 net.cpp:425] inception_5a/output <- inception_5a/5x5
I0403 15:03:08.841437 30954 net.cpp:425] inception_5a/output <- inception_5a/pool_proj
I0403 15:03:08.841456 30954 net.cpp:399] inception_5a/output -> inception_5a/output
I0403 15:03:08.841509 30954 net.cpp:141] Setting up inception_5a/output
I0403 15:03:08.841536 30954 net.cpp:148] Top shape: 24 832 7 7 (978432)
I0403 15:03:08.841550 30954 net.cpp:156] Memory required for data: 1309586976
I0403 15:03:08.841564 30954 layer_factory.hpp:77] Creating layer inception_5a/output_inception_5a/output_0_split
I0403 15:03:08.841590 30954 net.cpp:91] Creating Layer inception_5a/output_inception_5a/output_0_split
I0403 15:03:08.841605 30954 net.cpp:425] inception_5a/output_inception_5a/output_0_split <- inception_5a/output
I0403 15:03:08.841622 30954 net.cpp:399] inception_5a/output_inception_5a/output_0_split -> inception_5a/output_inception_5a/output_0_split_0
I0403 15:03:08.841645 30954 net.cpp:399] inception_5a/output_inception_5a/output_0_split -> inception_5a/output_inception_5a/output_0_split_1
I0403 15:03:08.841665 30954 net.cpp:399] inception_5a/output_inception_5a/output_0_split -> inception_5a/output_inception_5a/output_0_split_2
I0403 15:03:08.841684 30954 net.cpp:399] inception_5a/output_inception_5a/output_0_split -> inception_5a/output_inception_5a/output_0_split_3
I0403 15:03:08.841791 30954 net.cpp:141] Setting up inception_5a/output_inception_5a/output_0_split
I0403 15:03:08.841814 30954 net.cpp:148] Top shape: 24 832 7 7 (978432)
I0403 15:03:08.841830 30954 net.cpp:148] Top shape: 24 832 7 7 (978432)
I0403 15:03:08.841845 30954 net.cpp:148] Top shape: 24 832 7 7 (978432)
I0403 15:03:08.841861 30954 net.cpp:148] Top shape: 24 832 7 7 (978432)
I0403 15:03:08.841873 30954 net.cpp:156] Memory required for data: 1325241888
I0403 15:03:08.841887 30954 layer_factory.hpp:77] Creating layer inception_5b/1x1
I0403 15:03:08.841910 30954 net.cpp:91] Creating Layer inception_5b/1x1
I0403 15:03:08.841927 30954 net.cpp:425] inception_5b/1x1 <- inception_5a/output_inception_5a/output_0_split_0
I0403 15:03:08.841946 30954 net.cpp:399] inception_5b/1x1 -> inception_5b/1x1
I0403 15:03:08.845659 30954 net.cpp:141] Setting up inception_5b/1x1
I0403 15:03:08.845693 30954 net.cpp:148] Top shape: 24 384 7 7 (451584)
I0403 15:03:08.845710 30954 net.cpp:156] Memory required for data: 1327048224
I0403 15:03:08.845732 30954 layer_factory.hpp:77] Creating layer inception_5b/relu_1x1
I0403 15:03:08.845751 30954 net.cpp:91] Creating Layer inception_5b/relu_1x1
I0403 15:03:08.845774 30954 net.cpp:425] inception_5b/relu_1x1 <- inception_5b/1x1
I0403 15:03:08.845796 30954 net.cpp:386] inception_5b/relu_1x1 -> inception_5b/1x1 (in-place)
I0403 15:03:08.846102 30954 net.cpp:141] Setting up inception_5b/relu_1x1
I0403 15:03:08.846129 30954 net.cpp:148] Top shape: 24 384 7 7 (451584)
I0403 15:03:08.846144 30954 net.cpp:156] Memory required for data: 1328854560
I0403 15:03:08.846166 30954 layer_factory.hpp:77] Creating layer inception_5b/3x3_reduce
I0403 15:03:08.846189 30954 net.cpp:91] Creating Layer inception_5b/3x3_reduce
I0403 15:03:08.846206 30954 net.cpp:425] inception_5b/3x3_reduce <- inception_5a/output_inception_5a/output_0_split_1
I0403 15:03:08.846227 30954 net.cpp:399] inception_5b/3x3_reduce -> inception_5b/3x3_reduce
I0403 15:03:08.848863 30954 net.cpp:141] Setting up inception_5b/3x3_reduce
I0403 15:03:08.848894 30954 net.cpp:148] Top shape: 24 192 7 7 (225792)
I0403 15:03:08.848912 30954 net.cpp:156] Memory required for data: 1329757728
I0403 15:03:08.848938 30954 layer_factory.hpp:77] Creating layer inception_5b/relu_3x3_reduce
I0403 15:03:08.848956 30954 net.cpp:91] Creating Layer inception_5b/relu_3x3_reduce
I0403 15:03:08.848973 30954 net.cpp:425] inception_5b/relu_3x3_reduce <- inception_5b/3x3_reduce
I0403 15:03:08.848991 30954 net.cpp:386] inception_5b/relu_3x3_reduce -> inception_5b/3x3_reduce (in-place)
I0403 15:03:08.849176 30954 net.cpp:141] Setting up inception_5b/relu_3x3_reduce
I0403 15:03:08.849200 30954 net.cpp:148] Top shape: 24 192 7 7 (225792)
I0403 15:03:08.849215 30954 net.cpp:156] Memory required for data: 1330660896
I0403 15:03:08.849230 30954 layer_factory.hpp:77] Creating layer inception_5b/3x3
I0403 15:03:08.849251 30954 net.cpp:91] Creating Layer inception_5b/3x3
I0403 15:03:08.849268 30954 net.cpp:425] inception_5b/3x3 <- inception_5b/3x3_reduce
I0403 15:03:08.849290 30954 net.cpp:399] inception_5b/3x3 -> inception_5b/3x3
I0403 15:03:08.855957 30954 net.cpp:141] Setting up inception_5b/3x3
I0403 15:03:08.855989 30954 net.cpp:148] Top shape: 24 384 7 7 (451584)
I0403 15:03:08.856005 30954 net.cpp:156] Memory required for data: 1332467232
I0403 15:03:08.856024 30954 layer_factory.hpp:77] Creating layer inception_5b/relu_3x3
I0403 15:03:08.856043 30954 net.cpp:91] Creating Layer inception_5b/relu_3x3
I0403 15:03:08.856068 30954 net.cpp:425] inception_5b/relu_3x3 <- inception_5b/3x3
I0403 15:03:08.856088 30954 net.cpp:386] inception_5b/relu_3x3 -> inception_5b/3x3 (in-place)
I0403 15:03:08.856394 30954 net.cpp:141] Setting up inception_5b/relu_3x3
I0403 15:03:08.856420 30954 net.cpp:148] Top shape: 24 384 7 7 (451584)
I0403 15:03:08.856434 30954 net.cpp:156] Memory required for data: 1334273568
I0403 15:03:08.856448 30954 layer_factory.hpp:77] Creating layer inception_5b/5x5_reduce
I0403 15:03:08.856485 30954 net.cpp:91] Creating Layer inception_5b/5x5_reduce
I0403 15:03:08.856508 30954 net.cpp:425] inception_5b/5x5_reduce <- inception_5a/output_inception_5a/output_0_split_2
I0403 15:03:08.856531 30954 net.cpp:399] inception_5b/5x5_reduce -> inception_5b/5x5_reduce
I0403 15:03:08.857826 30954 net.cpp:141] Setting up inception_5b/5x5_reduce
I0403 15:03:08.857853 30954 net.cpp:148] Top shape: 24 48 7 7 (56448)
I0403 15:03:08.857868 30954 net.cpp:156] Memory required for data: 1334499360
I0403 15:03:08.857887 30954 layer_factory.hpp:77] Creating layer inception_5b/relu_5x5_reduce
I0403 15:03:08.857904 30954 net.cpp:91] Creating Layer inception_5b/relu_5x5_reduce
I0403 15:03:08.857920 30954 net.cpp:425] inception_5b/relu_5x5_reduce <- inception_5b/5x5_reduce
I0403 15:03:08.857939 30954 net.cpp:386] inception_5b/relu_5x5_reduce -> inception_5b/5x5_reduce (in-place)
I0403 15:03:08.858304 30954 net.cpp:141] Setting up inception_5b/relu_5x5_reduce
I0403 15:03:08.858330 30954 net.cpp:148] Top shape: 24 48 7 7 (56448)
I0403 15:03:08.858345 30954 net.cpp:156] Memory required for data: 1334725152
I0403 15:03:08.858361 30954 layer_factory.hpp:77] Creating layer inception_5b/5x5
I0403 15:03:08.858379 30954 net.cpp:91] Creating Layer inception_5b/5x5
I0403 15:03:08.858395 30954 net.cpp:425] inception_5b/5x5 <- inception_5b/5x5_reduce
I0403 15:03:08.858413 30954 net.cpp:399] inception_5b/5x5 -> inception_5b/5x5
I0403 15:03:08.860427 30954 net.cpp:141] Setting up inception_5b/5x5
I0403 15:03:08.860455 30954 net.cpp:148] Top shape: 24 128 7 7 (150528)
I0403 15:03:08.860471 30954 net.cpp:156] Memory required for data: 1335327264
I0403 15:03:08.860488 30954 layer_factory.hpp:77] Creating layer inception_5b/relu_5x5
I0403 15:03:08.860512 30954 net.cpp:91] Creating Layer inception_5b/relu_5x5
I0403 15:03:08.860530 30954 net.cpp:425] inception_5b/relu_5x5 <- inception_5b/5x5
I0403 15:03:08.860548 30954 net.cpp:386] inception_5b/relu_5x5 -> inception_5b/5x5 (in-place)
I0403 15:03:08.860738 30954 net.cpp:141] Setting up inception_5b/relu_5x5
I0403 15:03:08.860761 30954 net.cpp:148] Top shape: 24 128 7 7 (150528)
I0403 15:03:08.860775 30954 net.cpp:156] Memory required for data: 1335929376
I0403 15:03:08.860790 30954 layer_factory.hpp:77] Creating layer inception_5b/pool
I0403 15:03:08.860810 30954 net.cpp:91] Creating Layer inception_5b/pool
I0403 15:03:08.860826 30954 net.cpp:425] inception_5b/pool <- inception_5a/output_inception_5a/output_0_split_3
I0403 15:03:08.860844 30954 net.cpp:399] inception_5b/pool -> inception_5b/pool
I0403 15:03:08.860916 30954 net.cpp:141] Setting up inception_5b/pool
I0403 15:03:08.860939 30954 net.cpp:148] Top shape: 24 832 7 7 (978432)
I0403 15:03:08.860954 30954 net.cpp:156] Memory required for data: 1339843104
I0403 15:03:08.860967 30954 layer_factory.hpp:77] Creating layer inception_5b/pool_proj
I0403 15:03:08.860988 30954 net.cpp:91] Creating Layer inception_5b/pool_proj
I0403 15:03:08.861006 30954 net.cpp:425] inception_5b/pool_proj <- inception_5b/pool
I0403 15:03:08.861026 30954 net.cpp:399] inception_5b/pool_proj -> inception_5b/pool_proj
I0403 15:03:08.863289 30954 net.cpp:141] Setting up inception_5b/pool_proj
I0403 15:03:08.863317 30954 net.cpp:148] Top shape: 24 128 7 7 (150528)
I0403 15:03:08.863333 30954 net.cpp:156] Memory required for data: 1340445216
I0403 15:03:08.863351 30954 layer_factory.hpp:77] Creating layer inception_5b/relu_pool_proj
I0403 15:03:08.863369 30954 net.cpp:91] Creating Layer inception_5b/relu_pool_proj
I0403 15:03:08.863384 30954 net.cpp:425] inception_5b/relu_pool_proj <- inception_5b/pool_proj
I0403 15:03:08.863404 30954 net.cpp:386] inception_5b/relu_pool_proj -> inception_5b/pool_proj (in-place)
I0403 15:03:08.863703 30954 net.cpp:141] Setting up inception_5b/relu_pool_proj
I0403 15:03:08.863729 30954 net.cpp:148] Top shape: 24 128 7 7 (150528)
I0403 15:03:08.863742 30954 net.cpp:156] Memory required for data: 1341047328
I0403 15:03:08.863757 30954 layer_factory.hpp:77] Creating layer inception_5b/output
I0403 15:03:08.863775 30954 net.cpp:91] Creating Layer inception_5b/output
I0403 15:03:08.863803 30954 net.cpp:425] inception_5b/output <- inception_5b/1x1
I0403 15:03:08.863819 30954 net.cpp:425] inception_5b/output <- inception_5b/3x3
I0403 15:03:08.863836 30954 net.cpp:425] inception_5b/output <- inception_5b/5x5
I0403 15:03:08.863852 30954 net.cpp:425] inception_5b/output <- inception_5b/pool_proj
I0403 15:03:08.863870 30954 net.cpp:399] inception_5b/output -> inception_5b/output
I0403 15:03:08.863920 30954 net.cpp:141] Setting up inception_5b/output
I0403 15:03:08.863945 30954 net.cpp:148] Top shape: 24 1024 7 7 (1204224)
I0403 15:03:08.863961 30954 net.cpp:156] Memory required for data: 1345864224
I0403 15:03:08.863976 30954 layer_factory.hpp:77] Creating layer pool5/7x7_s1
I0403 15:03:08.863994 30954 net.cpp:91] Creating Layer pool5/7x7_s1
I0403 15:03:08.864009 30954 net.cpp:425] pool5/7x7_s1 <- inception_5b/output
I0403 15:03:08.864027 30954 net.cpp:399] pool5/7x7_s1 -> pool5/7x7_s1
I0403 15:03:08.864241 30954 net.cpp:141] Setting up pool5/7x7_s1
I0403 15:03:08.864266 30954 net.cpp:148] Top shape: 24 1024 1 1 (24576)
I0403 15:03:08.864280 30954 net.cpp:156] Memory required for data: 1345962528
I0403 15:03:08.864295 30954 layer_factory.hpp:77] Creating layer pool5/drop_7x7_s1
I0403 15:03:08.864311 30954 net.cpp:91] Creating Layer pool5/drop_7x7_s1
I0403 15:03:08.864327 30954 net.cpp:425] pool5/drop_7x7_s1 <- pool5/7x7_s1
I0403 15:03:08.864346 30954 net.cpp:386] pool5/drop_7x7_s1 -> pool5/7x7_s1 (in-place)
I0403 15:03:08.864397 30954 net.cpp:141] Setting up pool5/drop_7x7_s1
I0403 15:03:08.864421 30954 net.cpp:148] Top shape: 24 1024 1 1 (24576)
I0403 15:03:08.864436 30954 net.cpp:156] Memory required for data: 1346060832
I0403 15:03:08.864450 30954 layer_factory.hpp:77] Creating layer loss3/classifier_plantvillage
I0403 15:03:08.864470 30954 net.cpp:91] Creating Layer loss3/classifier_plantvillage
I0403 15:03:08.864485 30954 net.cpp:425] loss3/classifier_plantvillage <- pool5/7x7_s1
I0403 15:03:08.864514 30954 net.cpp:399] loss3/classifier_plantvillage -> loss3/classifier_plantvillage
I0403 15:03:08.864934 30954 net.cpp:141] Setting up loss3/classifier_plantvillage
I0403 15:03:08.864959 30954 net.cpp:148] Top shape: 24 38 (912)
I0403 15:03:08.864972 30954 net.cpp:156] Memory required for data: 1346064480
I0403 15:03:08.864990 30954 layer_factory.hpp:77] Creating layer loss3/classifier_plantvillage_loss3/classifier_plantvillage_0_split
I0403 15:03:08.865010 30954 net.cpp:91] Creating Layer loss3/classifier_plantvillage_loss3/classifier_plantvillage_0_split
I0403 15:03:08.865027 30954 net.cpp:425] loss3/classifier_plantvillage_loss3/classifier_plantvillage_0_split <- loss3/classifier_plantvillage
I0403 15:03:08.865044 30954 net.cpp:399] loss3/classifier_plantvillage_loss3/classifier_plantvillage_0_split -> loss3/classifier_plantvillage_loss3/classifier_plantvillage_0_split_0
I0403 15:03:08.865067 30954 net.cpp:399] loss3/classifier_plantvillage_loss3/classifier_plantvillage_0_split -> loss3/classifier_plantvillage_loss3/classifier_plantvillage_0_split_1
I0403 15:03:08.865087 30954 net.cpp:399] loss3/classifier_plantvillage_loss3/classifier_plantvillage_0_split -> loss3/classifier_plantvillage_loss3/classifier_plantvillage_0_split_2
I0403 15:03:08.865105 30954 net.cpp:399] loss3/classifier_plantvillage_loss3/classifier_plantvillage_0_split -> loss3/classifier_plantvillage_loss3/classifier_plantvillage_0_split_3
I0403 15:03:08.865203 30954 net.cpp:141] Setting up loss3/classifier_plantvillage_loss3/classifier_plantvillage_0_split
I0403 15:03:08.865226 30954 net.cpp:148] Top shape: 24 38 (912)
I0403 15:03:08.865242 30954 net.cpp:148] Top shape: 24 38 (912)
I0403 15:03:08.865257 30954 net.cpp:148] Top shape: 24 38 (912)
I0403 15:03:08.865272 30954 net.cpp:148] Top shape: 24 38 (912)
I0403 15:03:08.865285 30954 net.cpp:156] Memory required for data: 1346079072
I0403 15:03:08.865300 30954 layer_factory.hpp:77] Creating layer loss1/loss
I0403 15:03:08.865322 30954 net.cpp:91] Creating Layer loss1/loss
I0403 15:03:08.865339 30954 net.cpp:425] loss1/loss <- loss1/classifier_plantvillage_loss1/classifier_plantvillage_0_split_0
I0403 15:03:08.865377 30954 net.cpp:425] loss1/loss <- label_data_1_split_0
…
