…
I0403 15:18:29.568670 31435 net.cpp:313] The NetState phase (1) differed from the phase (0) specified by a rule in layer data
I0403 15:18:29.569830 31435 net.cpp:49] Initializing net from parameters: 
state {
  phase: TEST
}
layer {
  name: "data"
  type: "Data"
  top: "data"
  top: "label"
  include {
    phase: TEST
  }
  transform_param {
    mirror: false
    crop_size: 224
    mean_file: "/home/mohanty/data/final_dataset/lmdb/grayscale-80-20/mean.binaryproto"
  }
  data_param {
    source: "/home/mohanty/data/final_dataset/lmdb/grayscale-80-20/test_db"
    batch_size: 24
    backend: LMDB
  }
}
layer {
  name: "conv1/7x7_s2"
  type: "Convolution"
  bottom: "data"
  top: "conv1/7x7_s2"
  param {
    lr_mult: 1
    decay_mult: 1
  }
  param {
    lr_mult: 2
    decay_mult: 0
  }
  convolution_param {
    num_output: 64
    pad: 3
    kernel_size: 7
    stride: 2
    weight_filler {
      type: "xavier"
      std: 0.1
    }
    bias_filler {
      type: "constant"
      value: 0.2
    }
  }
}
layer {
  name: "conv1/relu_7x7"
  type: "ReLU"
  bottom: "conv1/7x7_s2"
  top: "conv1/7x7_s2"
}
layer {
  name: "pool1/3x3_s2"
  type: "Pooling"
  bottom: "conv1/7x7_s2"
  top: "pool1/3x3_s2"
  pooling_param {
    pool: MAX
    kernel_size: 3
    stride: 2
  }
}
layer {
  name: "pool1/norm1"
  type: "LRN"
  bottom: "pool1/3x3_s2"
  top: "pool1/norm1"
  lrn_param {
    local_size: 5
    alpha: 0.0001
    beta: 0.75
  }
}
layer {
  name: "conv2/3x3_reduce"
  type: "Convolution"
  bottom: "pool1/norm1"
  top: "conv2/3x3_reduce"
  param {
    lr_mult: 1
    decay_mult: 1
  }
  param {
    lr_mult: 2
    decay_mult: 0
  }
  convolution_param {
    num_output: 64
    kernel_size: 1
    weight_filler {
      type: "xavier"
      std: 0.1
    }
    bias_filler {
      type: "constant"
      value: 0.2
    }
  }
}
layer {
  name: "conv2/relu_3x3_reduce"
  type: "ReLU"
  bottom: "conv2/3x3_reduce"
  top: "conv2/3x3_reduce"
}
layer {
  name: "conv2/3x3"
  type: "Convolution"
  bottom: "conv2/3x3_reduce"
  top: "conv2/3x3"
  param {
    lr_mult: 1
    decay_mult: 1
  }
  param {
    lr_mult: 2
    decay_mult: 0
  }
  convolution_param {
    num_output: 192
    pad: 1
    kernel_size: 3
    weight_filler {
      type: "xavier"
      std: 0.03
    }
    bias_filler {
      type: "constant"
      value: 0.2
    }
  }
}
layer {
  name: "conv2/relu_3x3"
  type: "ReLU"
  bottom: "conv2/3x3"
  top: "conv2/3x3"
}
layer {
  name: "conv2/norm2"
  type: "LRN"
  bottom: "conv2/3x3"
  top: "conv2/norm2"
  lrn_param {
    local_size: 5
    alpha: 0.0001
    beta: 0.75
  }
}
layer {
  name: "pool2/3x3_s2"
  type: "Pooling"
  bottom: "conv2/norm2"
  top: "pool2/3x3_s2"
  pooling_param {
    pool: MAX
    kernel_size: 3
    stride: 2
  }
}
layer {
  name: "inception_3a/1x1"
  type: "Convolution"
  bottom: "pool2/3x3_s2"
  top: "inception_3a/1x1"
  param {
    lr_mult: 1
    decay_mult: 1
  }
  param {
    lr_mult: 2
    decay_mult: 0
  }
  convolution_param {
    num_output: 64
    kernel_size: 1
    weight_filler {
      type: "xavier"
      std: 0.03
    }
    bias_filler {
      type: "constant"
      value: 0.2
    }
  }
}
layer {
  name: "inception_3a/relu_1x1"
  type: "ReLU"
  bottom: "inception_3a/1x1"
  top: "inception_3a/1x1"
}
layer {
  name: "inception_3a/3x3_reduce"
  type: "Convolution"
  bottom: "pool2/3x3_s2"
  top: "inception_3a/3x3_reduce"
  param {
    lr_mult: 1
    decay_mult: 1
  }
  param {
    lr_mult: 2
    decay_mult: 0
  }
  convolution_param {
    num_output: 96
    kernel_size: 1
    weight_filler {
      type: "xavier"
      std: 0.09
    }
    bias_filler {
      type: "constant"
      value: 0.2
    }
  }
}
layer {
  name: "inception_3a/relu_3x3_reduce"
  type: "ReLU"
  bottom: "inception_3a/3x3_reduce"
  top: "inception_3a/3x3_reduce"
}
layer {
  name: "inception_3a/3x3"
  type: "Convolution"
  bottom: "inception_3a/3x3_reduce"
  top: "inception_3a/3x3"
  param {
    lr_mult: 1
    decay_mult: 1
  }
  param {
    lr_mult: 2
    decay_mult: 0
  }
  convolution_param {
    num_output: 128
    pad: 1
    kernel_size: 3
    weight_filler {
      type: "xavier"
      std: 0.03
    }
    bias_filler {
      type: "constant"
      value: 0.2
    }
  }
}
layer {
  name: "inception_3a/relu_3x3"
  type: "ReLU"
  bottom: "inception_3a/3x3"
  top: "inception_3a/3x3"
}
layer {
  name: "inception_3a/5x5_reduce"
  type: "Convolution"
  bottom: "pool2/3x3_s2"
  top: "inception_3a/5x5_reduce"
  param {
    lr_mult: 1
    decay_mult: 1
  }
  param {
    lr_mult: 2
    decay_mult: 0
  }
  convolution_param {
    num_output: 16
    kernel_size: 1
    weight_filler {
      type: "xavier"
      std: 0.2
    }
    bias_filler {
      type: "constant"
      value: 0.2
    }
  }
}
layer {
  name: "inception_3a/relu_5x5_reduce"
  type: "ReLU"
  bottom: "inception_3a/5x5_reduce"
  top: "inception_3a/5x5_reduce"
}
layer {
  name: "inception_3a/5x5"
  type: "Convolution"
  bottom: "inception_3a/5x5_reduce"
  top: "inception_3a/5x5"
  param {
    lr_mult: 1
    decay_mult: 1
  }
  param {
    lr_mult: 2
    decay_mult: 0
  }
  convolution_param {
    num_output: 32
    pad: 2
    kernel_size: 5
    weight_filler {
      type: "xavier"
      std: 0.03
    }
    bias_filler {
      type: "constant"
      value: 0.2
    }
  }
}
layer {
  name: "inception_3a/relu_5x5"
  type: "ReLU"
  bottom: "inception_3a/5x5"
  top: "inception_3a/5x5"
}
layer {
  name: "inception_3a/pool"
  type: "Pooling"
  bottom: "pool2/3x3_s2"
  top: "inception_3a/pool"
  pooling_param {
    pool: MAX
    kernel_size: 3
    stride: 1
    pad: 1
  }
}
layer {
  name: "inception_3a/pool_proj"
  type: "Convolution"
  bottom: "inception_3a/pool"
  top: "inception_3a/pool_proj"
  param {
    lr_mult: 1
    decay_mult: 1
  }
  param {
    lr_mult: 2
    decay_mult: 0
  }
  convolution_param {
    num_output: 32
    kernel_size: 1
    weight_filler {
      type: "xavier"
      std: 0.1
    }
    bias_filler {
      type: "constant"
      value: 0.2
    }
  }
}
layer {
  name: "inception_3a/relu_pool_proj"
  type: "ReLU"
  bottom: "inception_3a/pool_proj"
  top: "inception_3a/pool_proj"
}
layer {
  name: "inception_3a/output"
  type: "Concat"
  bottom: "inception_3a/1x1"
  bottom: "inception_3a/3x3"
  bottom: "inception_3a/5x5"
  bottom: "inception_3a/pool_proj"
  top: "inception_3a/output"
}
layer {
  name: "inception_3b/1x1"
  type: "Convolution"
  bottom: "inception_3a/output"
  top: "inception_3b/1x1"
  param {
    lr_mult: 1
    decay_mult: 1
  }
  param {
    lr_mult: 2
    decay_mult: 0
  }
  convolution_param {
    num_output: 128
    kernel_size: 1
    weight_filler {
      type: "xavier"
      std: 0.03
    }
    bias_filler {
      type: "constant"
      value: 0.2
    }
  }
}
layer {
  name: "inception_3b/relu_1x1"
  type: "ReLU"
  bottom: "inception_3b/1x1"
  top: "inception_3b/1x1"
}
layer {
  name: "inception_3b/3x3_reduce"
  type: "Convolution"
  bottom: "inception_3a/output"
  top: "inception_3b/3x3_reduce"
  param {
    lr_mult: 1
    decay_mult: 1
  }
  param {
    lr_mult: 2
    decay_mult: 0
  }
  convolution_param {
    num_output: 128
    kernel_size: 1
    weight_filler {
      type: "xavier"
      std: 0.09
    }
    bias_filler {
      type: "constant"
      value: 0.2
    }
  }
}
layer {
  name: "inception_3b/relu_3x3_reduce"
  type: "ReLU"
  bottom: "inception_3b/3x3_reduce"
  top: "inception_3b/3x3_reduce"
}
layer {
  name: "inception_3b/3x3"
  type: "Convolution"
  bottom: "inception_3b/3x3_reduce"
  top: "inception_3b/3x3"
  param {
    lr_mult: 1
    decay_mult: 1
  }
  param {
    lr_mult: 2
    decay_mult: 0
  }
  convolution_param {
    num_output: 192
    pad: 1
    kernel_size: 3
    weight_filler {
      type: "xavier"
      std: 0.03
    }
    bias_filler {
      type: "constant"
      value: 0.2
    }
  }
}
layer {
  name: "inception_3b/relu_3x3"
  type: "ReLU"
  bottom: "inception_3b/3x3"
  top: "inception_3b/3x3"
}
layer {
  name: "inception_3b/5x5_reduce"
  type: "Convolution"
  bottom: "inception_3a/output"
  top: "inception_3b/5x5_reduce"
  param {
    lr_mult: 1
    decay_mult: 1
  }
  param {
    lr_mult: 2
    decay_mult: 0
  }
  convolution_param {
    num_output: 32
    kernel_size: 1
    weight_filler {
      type: "xavier"
      std: 0.2
    }
    bias_filler {
      type: "constant"
      value: 0.2
    }
  }
}
layer {
  name: "inception_3b/relu_5x5_reduce"
  type: "ReLU"
  bottom: "inception_3b/5x5_reduce"
  top: "inception_3b/5x5_reduce"
}
layer {
  name: "inception_3b/5x5"
  type: "Convolution"
  bottom: "inception_3b/5x5_reduce"
  top: "inception_3b/5x5"
  param {
    lr_mult: 1
    decay_mult: 1
  }
  param {
    lr_mult: 2
    decay_mult: 0
  }
  convolution_param {
    num_output: 96
    pad: 2
    kernel_size: 5
    weight_filler {
      type: "xavier"
      std: 0.03
    }
    bias_filler {
      type: "constant"
      value: 0.2
    }
  }
}
layer {
  name: "inception_3b/relu_5x5"
  type: "ReLU"
  bottom: "inception_3b/5x5"
  top: "inception_3b/5x5"
}
layer {
  name: "inception_3b/pool"
  type: "Pooling"
  bottom: "inception_3a/output"
  top: "inception_3b/pool"
  pooling_param {
    pool: MAX
    kernel_size: 3
    stride: 1
    pad: 1
  }
}
layer {
  name: "inception_3b/pool_proj"
  type: "Convolution"
  bottom: "inception_3b/pool"
  top: "inception_3b/pool_proj"
  param {
    lr_mult: 1
    decay_mult: 1
  }
  param {
    lr_mult: 2
    decay_mult: 0
  }
  convolution_param {
    num_output: 64
    kernel_size: 1
    weight_filler {
      type: "xavier"
      std: 0.1
    }
    bias_filler {
      type: "constant"
      value: 0.2
    }
  }
}
layer {
  name: "inception_3b/relu_pool_proj"
  type: "ReLU"
  bottom: "inception_3b/pool_proj"
  top: "inception_3b/pool_proj"
}
layer {
  name: "inception_3b/output"
  type: "Concat"
  bottom: "inception_3b/1x1"
  bottom: "inception_3b/3x3"
  bottom: "inception_3b/5x5"
  bottom: "inception_3b/pool_proj"
  top: "inception_3b/output"
}
layer {
  name: "pool3/3x3_s2"
  type: "Pooling"
  bottom: "inception_3b/output"
  top: "pool3/3x3_s2"
  pooling_param {
    pool: MAX
    kernel_size: 3
    stride: 2
  }
}
layer {
  name: "inception_4a/1x1"
  type: "Convolution"
  bottom: "pool3/3x3_s2"
  top: "inception_4a/1x1"
  param {
    lr_mult: 1
    decay_mult: 1
  }
  param {
    lr_mult: 2
    decay_mult: 0
  }
  convolution_param {
    num_output: 192
    kernel_size: 1
    weight_filler {
      type: "xavier"
      std: 0.03
    }
    bias_filler {
      type: "constant"
      value: 0.2
    }
  }
}
layer {
  name: "inception_4a/relu_1x1"
  type: "ReLU"
  bottom: "inception_4a/1x1"
  top: "inception_4a/1x1"
}
layer {
  name: "inception_4a/3x3_reduce"
  type: "Convolution"
  bottom: "pool3/3x3_s2"
  top: "inception_4a/3x3_reduce"
  param {
    lr_mult: 1
    decay_mult: 1
  }
  param {
    lr_mult: 2
    decay_mult: 0
  }
  convolution_param {
    num_output: 96
    kernel_size: 1
    weight_filler {
      type: "xavier"
      std: 0.09
    }
    bias_filler {
      type: "constant"
      value: 0.2
    }
  }
}
layer {
  name: "inception_4a/relu_3x3_reduce"
  type: "ReLU"
  bottom: "inception_4a/3x3_reduce"
  top: "inception_4a/3x3_reduce"
}
layer {
  name: "inception_4a/3x3"
  type: "Convolution"
  bottom: "inception_4a/3x3_reduce"
  top: "inception_4a/3x3"
  param {
    lr_mult: 1
    decay_mult: 1
  }
  param {
    lr_mult: 2
    decay_mult: 0
  }
  convolution_param {
    num_output: 208
    pad: 1
    kernel_size: 3
    weight_filler {
      type: "xavier"
      std: 0.03
    }
    bias_filler {
      type: "constant"
      value: 0.2
    }
  }
}
layer {
  name: "inception_4a/relu_3x3"
  type: "ReLU"
  bottom: "inception_4a/3x3"
  top: "inception_4a/3x3"
}
layer {
  name: "inception_4a/5x5_reduce"
  type: "Convolution"
  bottom: "pool3/3x3_s2"
  top: "inception_4a/5x5_reduce"
  param {
    lr_mult: 1
    decay_mult: 1
  }
  param {
    lr_mult: 2
    decay_mult: 0
  }
  convolution_param {
    num_output: 16
    kernel_size: 1
    weight_filler {
      type: "xavier"
      std: 0.2
    }
    bias_filler {
      type: "constant"
      value: 0.2
    }
  }
}
layer {
  name: "inception_4a/relu_5x5_reduce"
  type: "ReLU"
  bottom: "inception_4a/5x5_reduce"
  top: "inception_4a/5x5_reduce"
}
layer {
  name: "inception_4a/5x5"
  type: "Convolution"
  bottom: "inception_4a/5x5_reduce"
  top: "inception_4a/5x5"
  param {
    lr_mult: 1
    decay_mult: 1
  }
  param {
    lr_mult: 2
    decay_mult: 0
  }
  convolution_param {
    num_output: 48
    pad: 2
    kernel_size: 5
    weight_filler {
      type: "xavier"
      std: 0.03
    }
    bias_filler {
      type: "constant"
      value: 0.2
    }
  }
}
layer {
  name: "inception_4a/relu_5x5"
  type: "ReLU"
  bottom: "inception_4a/5x5"
  top: "inception_4a/5x5"
}
layer {
  name: "inception_4a/pool"
  type: "Pooling"
  bottom: "pool3/3x3_s2"
  top: "inception_4a/pool"
  pooling_param {
    pool: MAX
    kernel_size: 3
    stride: 1
    pad: 1
  }
}
layer {
  name: "inception_4a/pool_proj"
  type: "Convolution"
  bottom: "inception_4a/pool"
  top: "inception_4a/pool_proj"
  param {
    lr_mult: 1
    decay_mult: 1
  }
  param {
    lr_mult: 2
    decay_mult: 0
  }
  convolution_param {
    num_output: 64
    kernel_size: 1
    weight_filler {
      type: "xavier"
      std: 0.1
    }
    bias_filler {
      type: "constant"
      value: 0.2
    }
  }
}
layer {
  name: "inception_4a/relu_pool_proj"
  type: "ReLU"
  bottom: "inception_4a/pool_proj"
  top: "inception_4a/pool_proj"
}
layer {
  name: "inception_4a/output"
  type: "Concat"
  bottom: "inception_4a/1x1"
  bottom: "inception_4a/3x3"
  bottom: "inception_4a/5x5"
  bottom: "inception_4a/pool_proj"
  top: "inception_4a/output"
}
layer {
  name: "loss1/ave_pool"
  type: "Pooling"
  bottom: "inception_4a/output"
  top: "loss1/ave_pool"
  pooling_param {
    pool: AVE
    kernel_size: 5
    stride: 3
  }
}
layer {
  name: "loss1/conv"
  type: "Convolution"
  bottom: "loss1/ave_pool"
  top: "loss1/conv"
  param {
    lr_mult: 1
    decay_mult: 1
  }
  param {
    lr_mult: 2
    decay_mult: 0
  }
  convolution_param {
    num_output: 128
    kernel_size: 1
    weight_filler {
      type: "xavier"
      std: 0.08
    }
    bias_filler {
      type: "constant"
      value: 0.2
    }
  }
}
layer {
  name: "loss1/relu_conv"
  type: "ReLU"
  bottom: "loss1/conv"
  top: "loss1/conv"
}
layer {
  name: "loss1/fc"
  type: "InnerProduct"
  bottom: "loss1/conv"
  top: "loss1/fc"
  param {
    lr_mult: 1
    decay_mult: 1
  }
  param {
    lr_mult: 2
    decay_mult: 0
  }
  inner_product_param {
    num_output: 1024
    weight_filler {
      type: "xavier"
      std: 0.02
    }
    bias_filler {
      type: "constant"
      value: 0.2
    }
  }
}
layer {
  name: "loss1/relu_fc"
  type: "ReLU"
  bottom: "loss1/fc"
  top: "loss1/fc"
}
layer {
  name: "loss1/drop_fc"
  type: "Dropout"
  bottom: "loss1/fc"
  top: "loss1/fc"
  dropout_param {
    dropout_ratio: 0.7
  }
}
layer {
  name: "loss1/classifier_plantvillage"
  type: "InnerProduct"
  bottom: "loss1/fc"
  top: "loss1/classifier_plantvillage"
  param {
    lr_mult: 1
    decay_mult: 1
  }
  param {
    lr_mult: 2
    decay_mult: 0
  }
  inner_product_param {
    num_output: 38
    weight_filler {
      type: "xavier"
      std: 0.0009765625
    }
    bias_filler {
      type: "constant"
      value: 0
    }
  }
}
layer {
  name: "inception_4b/1x1"
  type: "Convolution"
  bottom: "inception_4a/output"
  top: "inception_4b/1x1"
  param {
    lr_mult: 1
    decay_mult: 1
  }
  param {
    lr_mult: 2
    decay_mult: 0
  }
  convolution_param {
    num_output: 160
    kernel_size: 1
    weight_filler {
      type: "xavier"
      std: 0.03
    }
    bias_filler {
      type: "constant"
      value: 0.2
    }
  }
}
layer {
  name: "inception_4b/relu_1x1"
  type: "ReLU"
  bottom: "inception_4b/1x1"
  top: "inception_4b/1x1"
}
layer {
  name: "inception_4b/3x3_reduce"
  type: "Convolution"
  bottom: "inception_4a/output"
  top: "inception_4b/3x3_reduce"
  param {
    lr_mult: 1
    decay_mult: 1
  }
  param {
    lr_mult: 2
    decay_mult: 0
  }
  convolution_param {
    num_output: 112
    kernel_size: 1
    weight_filler {
      type: "xavier"
      std: 0.09
    }
    bias_filler {
      type: "constant"
      value: 0.2
    }
  }
}
layer {
  name: "inception_4b/relu_3x3_reduce"
  type: "ReLU"
  bottom: "inception_4b/3x3_reduce"
  top: "inception_4b/3x3_reduce"
}
layer {
  name: "inception_4b/3x3"
  type: "Convolution"
  bottom: "inception_4b/3x3_reduce"
  top: "inception_4b/3x3"
  param {
    lr_mult: 1
    decay_mult: 1
  }
  param {
    lr_mult: 2
    decay_mult: 0
  }
  convolution_param {
    num_output: 224
    pad: 1
    kernel_size: 3
    weight_filler {
      type: "xavier"
      std: 0.03
    }
    bias_filler {
      type: "constant"
      value: 0.2
    }
  }
}
layer {
  name: "inception_4b/relu_3x3"
  type: "ReLU"
  bottom: "inception_4b/3x3"
  top: "inception_4b/3x3"
}
layer {
  name: "inception_4b/5x5_reduce"
  type: "Convolution"
  bottom: "inception_4a/output"
  top: "inception_4b/5x5_reduce"
  param {
    lr_mult: 1
    decay_mult: 1
  }
  param {
    lr_mult: 2
    decay_mult: 0
  }
  convolution_param {
    num_output: 24
    kernel_size: 1
    weight_filler {
      type: "xavier"
      std: 0.2
    }
    bias_filler {
      type: "constant"
      value: 0.2
    }
  }
}
layer {
  name: "inception_4b/relu_5x5_reduce"
  type: "ReLU"
  bottom: "inception_4b/5x5_reduce"
  top: "inception_4b/5x5_reduce"
}
layer {
  name: "inception_4b/5x5"
  type: "Convolution"
  bottom: "inception_4b/5x5_reduce"
  top: "inception_4b/5x5"
  param {
    lr_mult: 1
    decay_mult: 1
  }
  param {
    lr_mult: 2
    decay_mult: 0
  }
  convolution_param {
    num_output: 64
    pad: 2
    kernel_size: 5
    weight_filler {
      type: "xavier"
      std: 0.03
    }
    bias_filler {
      type: "constant"
      value: 0.2
    }
  }
}
layer {
  name: "inception_4b/relu_5x5"
  type: "ReLU"
  bottom: "inception_4b/5x5"
  top: "inception_4b/5x5"
}
layer {
  name: "inception_4b/pool"
  type: "Pooling"
  bottom: "inception_4a/output"
  top: "inception_4b/pool"
  pooling_param {
    pool: MAX
    kernel_size: 3
    stride: 1
    pad: 1
  }
}
layer {
  name: "inception_4b/pool_proj"
  type: "Convolution"
  bottom: "inception_4b/pool"
  top: "inception_4b/pool_proj"
  param {
    lr_mult: 1
    decay_mult: 1
  }
  param {
    lr_mult: 2
    decay_mult: 0
  }
  convolution_param {
    num_output: 64
    kernel_size: 1
    weight_filler {
      type: "xavier"
      std: 0.1
    }
    bias_filler {
      type: "constant"
      value: 0.2
    }
  }
}
layer {
  name: "inception_4b/relu_pool_proj"
  type: "ReLU"
  bottom: "inception_4b/pool_proj"
  top: "inception_4b/pool_proj"
}
layer {
  name: "inception_4b/output"
  type: "Concat"
  bottom: "inception_4b/1x1"
  bottom: "inception_4b/3x3"
  bottom: "inception_4b/5x5"
  bottom: "inception_4b/pool_proj"
  top: "inception_4b/output"
}
layer {
  name: "inception_4c/1x1"
  type: "Convolution"
  bottom: "inception_4b/output"
  top: "inception_4c/1x1"
  param {
    lr_mult: 1
    decay_mult: 1
  }
  param {
    lr_mult: 2
    decay_mult: 0
  }
  convolution_param {
    num_output: 128
    kernel_size: 1
    weight_filler {
      type: "xavier"
      std: 0.03
    }
    bias_filler {
      type: "constant"
      value: 0.2
    }
  }
}
layer {
  name: "inception_4c/relu_1x1"
  type: "ReLU"
  bottom: "inception_4c/1x1"
  top: "inception_4c/1x1"
}
layer {
  name: "inception_4c/3x3_reduce"
  type: "Convolution"
  bottom: "inception_4b/output"
  top: "inception_4c/3x3_reduce"
  param {
    lr_mult: 1
    decay_mult: 1
  }
  param {
    lr_mult: 2
    decay_mult: 0
  }
  convolution_param {
    num_output: 128
    kernel_size: 1
    weight_filler {
      type: "xavier"
      std: 0.09
    }
    bias_filler {
      type: "constant"
      value: 0.2
    }
  }
}
layer {
  name: "inception_4c/relu_3x3_reduce"
  type: "ReLU"
  bottom: "inception_4c/3x3_reduce"
  top: "inception_4c/3x3_reduce"
}
layer {
  name: "inception_4c/3x3"
  type: "Convolution"
  bottom: "inception_4c/3x3_reduce"
  top: "inception_4c/3x3"
  param {
    lr_mult: 1
    decay_mult: 1
  }
  param {
    lr_mult: 2
    decay_mult: 0
  }
  convolution_param {
    num_output: 256
    pad: 1
    kernel_size: 3
    weight_filler {
      type: "xavier"
      std: 0.03
    }
    bias_filler {
      type: "constant"
      value: 0.2
    }
  }
}
layer {
  name: "inception_4c/relu_3x3"
  type: "ReLU"
  bottom: "inception_4c/3x3"
  top: "inception_4c/3x3"
}
layer {
  name: "inception_4c/5x5_reduce"
  type: "Convolution"
  bottom: "inception_4b/output"
  top: "inception_4c/5x5_reduce"
  param {
    lr_mult: 1
    decay_mult: 1
  }
  param {
    lr_mult: 2
    decay_mult: 0
  }
  convolution_param {
    num_output: 24
    kernel_size: 1
    weight_filler {
      type: "xavier"
      std: 0.2
    }
    bias_filler {
      type: "constant"
      value: 0.2
    }
  }
}
layer {
  name: "inception_4c/relu_5x5_reduce"
  type: "ReLU"
  bottom: "inception_4c/5x5_reduce"
  top: "inception_4c/5x5_reduce"
}
layer {
  name: "inception_4c/5x5"
  type: "Convolution"
  bottom: "inception_4c/5x5_reduce"
  top: "inception_4c/5x5"
  param {
    lr_mult: 1
    decay_mult: 1
  }
  param {
    lr_mult: 2
    decay_mult: 0
  }
  convolution_param {
    num_output: 64
    pad: 2
    kernel_size: 5
    weight_filler {
      type: "xavier"
      std: 0.03
    }
    bias_filler {
      type: "constant"
      value: 0.2
    }
  }
}
layer {
  name: "inception_4c/relu_5x5"
  type: "ReLU"
  bottom: "inception_4c/5x5"
  top: "inception_4c/5x5"
}
layer {
  name: "inception_4c/pool"
  type: "Pooling"
  bottom: "inception_4b/output"
  top: "inception_4c/pool"
  pooling_param {
    pool: MAX
    kernel_size: 3
    stride: 1
    pad: 1
  }
}
layer {
  name: "inception_4c/pool_proj"
  type: "Convolution"
  bottom: "inception_4c/pool"
  top: "inception_4c/pool_proj"
  param {
    lr_mult: 1
    decay_mult: 1
  }
  param {
    lr_mult: 2
    decay_mult: 0
  }
  convolution_param {
    num_output: 64
    kernel_size: 1
    weight_filler {
      type: "xavier"
      std: 0.1
    }
    bias_filler {
      type: "constant"
      value: 0.2
    }
  }
}
layer {
  name: "inception_4c/relu_pool_proj"
  type: "ReLU"
  bottom: "inception_4c/pool_proj"
  top: "inception_4c/pool_proj"
}
layer {
  name: "inception_4c/output"
  type: "Concat"
  bottom: "inception_4c/1x1"
  bottom: "inception_4c/3x3"
  bottom: "inception_4c/5x5"
  bottom: "inception_4c/pool_proj"
  top: "inception_4c/output"
}
layer {
  name: "inception_4d/1x1"
  type: "Convolution"
  bottom: "inception_4c/output"
  top: "inception_4d/1x1"
  param {
    lr_mult: 1
    decay_mult: 1
  }
  param {
    lr_mult: 2
    decay_mult: 0
  }
  convolution_param {
    num_output: 112
    kernel_size: 1
    weight_filler {
      type: "xavier"
      std: 0.03
    }
    bias_filler {
      type: "constant"
      value: 0.2
    }
  }
}
layer {
  name: "inception_4d/relu_1x1"
  type: "ReLU"
  bottom: "inception_4d/1x1"
  top: "inception_4d/1x1"
}
layer {
  name: "inception_4d/3x3_reduce"
  type: "Convolution"
  bottom: "inception_4c/output"
  top: "inception_4d/3x3_reduce"
  param {
    lr_mult: 1
    decay_mult: 1
  }
  param {
    lr_mult: 2
    decay_mult: 0
  }
  convolution_param {
    num_output: 144
    kernel_size: 1
    weight_filler {
      type: "xavier"
      std: 0.09
    }
    bias_filler {
      type: "constant"
      value: 0.2
    }
  }
}
layer {
  name: "inception_4d/relu_3x3_reduce"
  type: "ReLU"
  bottom: "inception_4d/3x3_reduce"
  top: "inception_4d/3x3_reduce"
}
layer {
  name: "inception_4d/3x3"
  type: "Convolution"
  bottom: "inception_4d/3x3_reduce"
  top: "inception_4d/3x3"
  param {
    lr_mult: 1
    decay_mult: 1
  }
  param {
    lr_mult: 2
    decay_mult: 0
  }
  convolution_param {
    num_output: 288
    pad: 1
    kernel_size: 3
    weight_filler {
      type: "xavier"
      std: 0.03
    }
    bias_filler {
      type: "constant"
      value: 0.2
    }
  }
}
layer {
  name: "inception_4d/relu_3x3"
  type: "ReLU"
  bottom: "inception_4d/3x3"
  top: "inception_4d/3x3"
}
layer {
  name: "inception_4d/5x5_reduce"
  type: "Convolution"
  bottom: "inception_4c/output"
  top: "inception_4d/5x5_reduce"
  param {
    lr_mult: 1
    decay_mult: 1
  }
  param {
    lr_mult: 2
    decay_mult: 0
  }
  convolution_param {
    num_output: 32
    kernel_size: 1
    weight_filler {
      type: "xavier"
      std: 0.2
    }
    bias_filler {
      type: "constant"
      value: 0.2
    }
  }
}
layer {
  name: "inception_4d/relu_5x5_reduce"
  type: "ReLU"
  bottom: "inception_4d/5x5_reduce"
  top: "inception_4d/5x5_reduce"
}
layer {
  name: "inception_4d/5x5"
  type: "Convolution"
  bottom: "inception_4d/5x5_reduce"
  top: "inception_4d/5x5"
  param {
    lr_mult: 1
    decay_mult: 1
  }
  param {
    lr_mult: 2
    decay_mult: 0
  }
  convolution_param {
    num_output: 64
    pad: 2
    kernel_size: 5
    weight_filler {
      type: "xavier"
      std: 0.03
    }
    bias_filler {
      type: "constant"
      value: 0.2
    }
  }
}
layer {
  name: "inception_4d/relu_5x5"
  type: "ReLU"
  bottom: "inception_4d/5x5"
  top: "inception_4d/5x5"
}
layer {
  name: "inception_4d/pool"
  type: "Pooling"
  bottom: "inception_4c/output"
  top: "inception_4d/pool"
  pooling_param {
    pool: MAX
    kernel_size: 3
    stride: 1
    pad: 1
  }
}
layer {
  name: "inception_4d/pool_proj"
  type: "Convolution"
  bottom: "inception_4d/pool"
  top: "inception_4d/pool_proj"
  param {
    lr_mult: 1
    decay_mult: 1
  }
  param {
    lr_mult: 2
    decay_mult: 0
  }
  convolution_param {
    num_output: 64
    kernel_size: 1
    weight_filler {
      type: "xavier"
      std: 0.1
    }
    bias_filler {
      type: "constant"
      value: 0.2
    }
  }
}
layer {
  name: "inception_4d/relu_pool_proj"
  type: "ReLU"
  bottom: "inception_4d/pool_proj"
  top: "inception_4d/pool_proj"
}
layer {
  name: "inception_4d/output"
  type: "Concat"
  bottom: "inception_4d/1x1"
  bottom: "inception_4d/3x3"
  bottom: "inception_4d/5x5"
  bottom: "inception_4d/pool_proj"
  top: "inception_4d/output"
}
layer {
  name: "loss2/ave_pool"
  type: "Pooling"
  bottom: "inception_4d/output"
  top: "loss2/ave_pool"
  pooling_param {
    pool: AVE
    kernel_size: 5
    stride: 3
  }
}
layer {
  name: "loss2/conv"
  type: "Convolution"
  bottom: "loss2/ave_pool"
  top: "loss2/conv"
  param {
    lr_mult: 1
    decay_mult: 1
  }
  param {
    lr_mult: 2
    decay_mult: 0
  }
  convolution_param {
    num_output: 128
    kernel_size: 1
    weight_filler {
      type: "xavier"
      std: 0.08
    }
    bias_filler {
      type: "constant"
      value: 0.2
    }
  }
}
layer {
  name: "loss2/relu_conv"
  type: "ReLU"
  bottom: "loss2/conv"
  top: "loss2/conv"
}
layer {
  name: "loss2/fc"
  type: "InnerProduct"
  bottom: "loss2/conv"
  top: "loss2/fc"
  param {
    lr_mult: 1
    decay_mult: 1
  }
  param {
    lr_mult: 2
    decay_mult: 0
  }
  inner_product_param {
    num_output: 1024
    weight_filler {
      type: "xavier"
      std: 0.02
    }
    bias_filler {
      type: "constant"
      value: 0.2
    }
  }
}
layer {
  name: "loss2/relu_fc"
  type: "ReLU"
  bottom: "loss2/fc"
  top: "loss2/fc"
}
layer {
  name: "loss2/drop_fc"
  type: "Dropout"
  bottom: "loss2/fc"
  top: "loss2/fc"
  dropout_param {
    dropout_ratio: 0.7
  }
}
layer {
  name: "loss2/classifier_plantvillage"
  type: "InnerProduct"
  bottom: "loss2/fc"
  top: "loss2/classifier_plantvillage"
  param {
    lr_mult: 1
    decay_mult: 1
  }
  param {
    lr_mult: 2
    decay_mult: 0
  }
  inner_product_param {
    num_output: 38
    weight_filler {
      type: "xavier"
      std: 0.0009765625
    }
    bias_filler {
      type: "constant"
      value: 0
    }
  }
}
layer {
  name: "inception_4e/1x1"
  type: "Convolution"
  bottom: "inception_4d/output"
  top: "inception_4e/1x1"
  param {
    lr_mult: 1
    decay_mult: 1
  }
  param {
    lr_mult: 2
    decay_mult: 0
  }
  convolution_param {
    num_output: 256
    kernel_size: 1
    weight_filler {
      type: "xavier"
      std: 0.03
    }
    bias_filler {
      type: "constant"
      value: 0.2
    }
  }
}
layer {
  name: "inception_4e/relu_1x1"
  type: "ReLU"
  bottom: "inception_4e/1x1"
  top: "inception_4e/1x1"
}
layer {
  name: "inception_4e/3x3_reduce"
  type: "Convolution"
  bottom: "inception_4d/output"
  top: "inception_4e/3x3_reduce"
  param {
    lr_mult: 1
    decay_mult: 1
  }
  param {
    lr_mult: 2
    decay_mult: 0
  }
  convolution_param {
    num_output: 160
    kernel_size: 1
    weight_filler {
      type: "xavier"
      std: 0.09
    }
    bias_filler {
      type: "constant"
      value: 0.2
    }
  }
}
layer {
  name: "inception_4e/relu_3x3_reduce"
  type: "ReLU"
  bottom: "inception_4e/3x3_reduce"
  top: "inception_4e/3x3_reduce"
}
layer {
  name: "inception_4e/3x3"
  type: "Convolution"
  bottom: "inception_4e/3x3_reduce"
  top: "inception_4e/3x3"
  param {
    lr_mult: 1
    decay_mult: 1
  }
  param {
    lr_mult: 2
    decay_mult: 0
  }
  convolution_param {
    num_output: 320
    pad: 1
    kernel_size: 3
    weight_filler {
      type: "xavier"
      std: 0.03
    }
    bias_filler {
      type: "constant"
      value: 0.2
    }
  }
}
layer {
  name: "inception_4e/relu_3x3"
  type: "ReLU"
  bottom: "inception_4e/3x3"
  top: "inception_4e/3x3"
}
layer {
  name: "inception_4e/5x5_reduce"
  type: "Convolution"
  bottom: "inception_4d/output"
  top: "inception_4e/5x5_reduce"
  param {
    lr_mult: 1
    decay_mult: 1
  }
  param {
    lr_mult: 2
    decay_mult: 0
  }
  convolution_param {
    num_output: 32
    kernel_size: 1
    weight_filler {
      type: "xavier"
      std: 0.2
    }
    bias_filler {
      type: "constant"
      value: 0.2
    }
  }
}
layer {
  name: "inception_4e/relu_5x5_reduce"
  type: "ReLU"
  bottom: "inception_4e/5x5_reduce"
  top: "inception_4e/5x5_reduce"
}
layer {
  name: "inception_4e/5x5"
  type: "Convolution"
  bottom: "inception_4e/5x5_reduce"
  top: "inception_4e/
I0403 15:18:29.571164 31435 layer_factory.hpp:77] Creating layer data
I0403 15:18:29.571777 31435 net.cpp:91] Creating Layer data
I0403 15:18:29.571811 31435 net.cpp:399] data -> data
I0403 15:18:29.571871 31435 net.cpp:399] data -> label
I0403 15:18:29.571908 31435 data_transformer.cpp:25] Loading mean file from: /home/mohanty/data/final_dataset/lmdb/grayscale-80-20/mean.binaryproto
I0403 15:18:29.574906 31439 db_lmdb.cpp:38] Opened lmdb /home/mohanty/data/final_dataset/lmdb/grayscale-80-20/test_db
I0403 15:18:29.585022 31435 data_layer.cpp:41] output data size: 24,3,224,224
I0403 15:18:29.611672 31435 net.cpp:141] Setting up data
I0403 15:18:29.611752 31435 net.cpp:148] Top shape: 24 3 224 224 (3612672)
I0403 15:18:29.611775 31435 net.cpp:148] Top shape: 24 (24)
I0403 15:18:29.611791 31435 net.cpp:156] Memory required for data: 14450784
I0403 15:18:29.611824 31435 layer_factory.hpp:77] Creating layer label_data_1_split
I0403 15:18:29.611853 31435 net.cpp:91] Creating Layer label_data_1_split
I0403 15:18:29.611871 31435 net.cpp:425] label_data_1_split <- label
I0403 15:18:29.611906 31435 net.cpp:399] label_data_1_split -> label_data_1_split_0
I0403 15:18:29.611935 31435 net.cpp:399] label_data_1_split -> label_data_1_split_1
I0403 15:18:29.611956 31435 net.cpp:399] label_data_1_split -> label_data_1_split_2
I0403 15:18:29.611979 31435 net.cpp:399] label_data_1_split -> label_data_1_split_3
I0403 15:18:29.611999 31435 net.cpp:399] label_data_1_split -> label_data_1_split_4
I0403 15:18:29.612018 31435 net.cpp:399] label_data_1_split -> label_data_1_split_5
I0403 15:18:29.612037 31435 net.cpp:399] label_data_1_split -> label_data_1_split_6
I0403 15:18:29.612058 31435 net.cpp:399] label_data_1_split -> label_data_1_split_7
I0403 15:18:29.612078 31435 net.cpp:399] label_data_1_split -> label_data_1_split_8
I0403 15:18:29.612098 31435 net.cpp:399] label_data_1_split -> label_data_1_split_9
I0403 15:18:29.612211 31435 net.cpp:141] Setting up label_data_1_split
I0403 15:18:29.612236 31435 net.cpp:148] Top shape: 24 (24)
I0403 15:18:29.612257 31435 net.cpp:148] Top shape: 24 (24)
I0403 15:18:29.612273 31435 net.cpp:148] Top shape: 24 (24)
I0403 15:18:29.612289 31435 net.cpp:148] Top shape: 24 (24)
I0403 15:18:29.612305 31435 net.cpp:148] Top shape: 24 (24)
I0403 15:18:29.612321 31435 net.cpp:148] Top shape: 24 (24)
I0403 15:18:29.612337 31435 net.cpp:148] Top shape: 24 (24)
I0403 15:18:29.612354 31435 net.cpp:148] Top shape: 24 (24)
I0403 15:18:29.612368 31435 net.cpp:148] Top shape: 24 (24)
I0403 15:18:29.612385 31435 net.cpp:148] Top shape: 24 (24)
I0403 15:18:29.612432 31435 net.cpp:156] Memory required for data: 14451744
I0403 15:18:29.612447 31435 layer_factory.hpp:77] Creating layer conv1/7x7_s2
I0403 15:18:29.612480 31435 net.cpp:91] Creating Layer conv1/7x7_s2
I0403 15:18:29.612499 31435 net.cpp:425] conv1/7x7_s2 <- data
I0403 15:18:29.612519 31435 net.cpp:399] conv1/7x7_s2 -> conv1/7x7_s2
I0403 15:18:29.750658 31435 net.cpp:141] Setting up conv1/7x7_s2
I0403 15:18:29.750735 31435 net.cpp:148] Top shape: 24 64 112 112 (19267584)
I0403 15:18:29.750751 31435 net.cpp:156] Memory required for data: 91522080
I0403 15:18:29.750787 31435 layer_factory.hpp:77] Creating layer conv1/relu_7x7
I0403 15:18:29.750815 31435 net.cpp:91] Creating Layer conv1/relu_7x7
I0403 15:18:29.750834 31435 net.cpp:425] conv1/relu_7x7 <- conv1/7x7_s2
I0403 15:18:29.750854 31435 net.cpp:386] conv1/relu_7x7 -> conv1/7x7_s2 (in-place)
I0403 15:18:29.751144 31435 net.cpp:141] Setting up conv1/relu_7x7
I0403 15:18:29.751173 31435 net.cpp:148] Top shape: 24 64 112 112 (19267584)
I0403 15:18:29.751188 31435 net.cpp:156] Memory required for data: 168592416
I0403 15:18:29.751202 31435 layer_factory.hpp:77] Creating layer pool1/3x3_s2
I0403 15:18:29.751229 31435 net.cpp:91] Creating Layer pool1/3x3_s2
I0403 15:18:29.751246 31435 net.cpp:425] pool1/3x3_s2 <- conv1/7x7_s2
I0403 15:18:29.751265 31435 net.cpp:399] pool1/3x3_s2 -> pool1/3x3_s2
I0403 15:18:29.751338 31435 net.cpp:141] Setting up pool1/3x3_s2
I0403 15:18:29.751361 31435 net.cpp:148] Top shape: 24 64 56 56 (4816896)
I0403 15:18:29.751376 31435 net.cpp:156] Memory required for data: 187860000
I0403 15:18:29.751390 31435 layer_factory.hpp:77] Creating layer pool1/norm1
I0403 15:18:29.751416 31435 net.cpp:91] Creating Layer pool1/norm1
I0403 15:18:29.751432 31435 net.cpp:425] pool1/norm1 <- pool1/3x3_s2
I0403 15:18:29.751451 31435 net.cpp:399] pool1/norm1 -> pool1/norm1
I0403 15:18:29.751762 31435 net.cpp:141] Setting up pool1/norm1
I0403 15:18:29.751790 31435 net.cpp:148] Top shape: 24 64 56 56 (4816896)
I0403 15:18:29.751804 31435 net.cpp:156] Memory required for data: 207127584
I0403 15:18:29.751819 31435 layer_factory.hpp:77] Creating layer conv2/3x3_reduce
I0403 15:18:29.751847 31435 net.cpp:91] Creating Layer conv2/3x3_reduce
I0403 15:18:29.751865 31435 net.cpp:425] conv2/3x3_reduce <- pool1/norm1
I0403 15:18:29.751886 31435 net.cpp:399] conv2/3x3_reduce -> conv2/3x3_reduce
I0403 15:18:29.753342 31435 net.cpp:141] Setting up conv2/3x3_reduce
I0403 15:18:29.753374 31435 net.cpp:148] Top shape: 24 64 56 56 (4816896)
I0403 15:18:29.753391 31435 net.cpp:156] Memory required for data: 226395168
I0403 15:18:29.753412 31435 layer_factory.hpp:77] Creating layer conv2/relu_3x3_reduce
I0403 15:18:29.753430 31435 net.cpp:91] Creating Layer conv2/relu_3x3_reduce
I0403 15:18:29.753446 31435 net.cpp:425] conv2/relu_3x3_reduce <- conv2/3x3_reduce
I0403 15:18:29.753465 31435 net.cpp:386] conv2/relu_3x3_reduce -> conv2/3x3_reduce (in-place)
I0403 15:18:29.753737 31435 net.cpp:141] Setting up conv2/relu_3x3_reduce
I0403 15:18:29.753764 31435 net.cpp:148] Top shape: 24 64 56 56 (4816896)
I0403 15:18:29.753779 31435 net.cpp:156] Memory required for data: 245662752
I0403 15:18:29.753794 31435 layer_factory.hpp:77] Creating layer conv2/3x3
I0403 15:18:29.753819 31435 net.cpp:91] Creating Layer conv2/3x3
I0403 15:18:29.753836 31435 net.cpp:425] conv2/3x3 <- conv2/3x3_reduce
I0403 15:18:29.753860 31435 net.cpp:399] conv2/3x3 -> conv2/3x3
I0403 15:18:29.756161 31435 net.cpp:141] Setting up conv2/3x3
I0403 15:18:29.756193 31435 net.cpp:148] Top shape: 24 192 56 56 (14450688)
I0403 15:18:29.756211 31435 net.cpp:156] Memory required for data: 303465504
I0403 15:18:29.756234 31435 layer_factory.hpp:77] Creating layer conv2/relu_3x3
I0403 15:18:29.756255 31435 net.cpp:91] Creating Layer conv2/relu_3x3
I0403 15:18:29.756275 31435 net.cpp:425] conv2/relu_3x3 <- conv2/3x3
I0403 15:18:29.756294 31435 net.cpp:386] conv2/relu_3x3 -> conv2/3x3 (in-place)
I0403 15:18:29.756466 31435 net.cpp:141] Setting up conv2/relu_3x3
I0403 15:18:29.756490 31435 net.cpp:148] Top shape: 24 192 56 56 (14450688)
I0403 15:18:29.756541 31435 net.cpp:156] Memory required for data: 361268256
I0403 15:18:29.756558 31435 layer_factory.hpp:77] Creating layer conv2/norm2
I0403 15:18:29.756580 31435 net.cpp:91] Creating Layer conv2/norm2
I0403 15:18:29.756597 31435 net.cpp:425] conv2/norm2 <- conv2/3x3
I0403 15:18:29.756615 31435 net.cpp:399] conv2/norm2 -> conv2/norm2
I0403 15:18:29.756916 31435 net.cpp:141] Setting up conv2/norm2
I0403 15:18:29.756944 31435 net.cpp:148] Top shape: 24 192 56 56 (14450688)
I0403 15:18:29.756960 31435 net.cpp:156] Memory required for data: 419071008
I0403 15:18:29.756975 31435 layer_factory.hpp:77] Creating layer pool2/3x3_s2
I0403 15:18:29.756992 31435 net.cpp:91] Creating Layer pool2/3x3_s2
I0403 15:18:29.757007 31435 net.cpp:425] pool2/3x3_s2 <- conv2/norm2
I0403 15:18:29.757030 31435 net.cpp:399] pool2/3x3_s2 -> pool2/3x3_s2
I0403 15:18:29.757081 31435 net.cpp:141] Setting up pool2/3x3_s2
I0403 15:18:29.757104 31435 net.cpp:148] Top shape: 24 192 28 28 (3612672)
I0403 15:18:29.757118 31435 net.cpp:156] Memory required for data: 433521696
I0403 15:18:29.757133 31435 layer_factory.hpp:77] Creating layer pool2/3x3_s2_pool2/3x3_s2_0_split
I0403 15:18:29.757153 31435 net.cpp:91] Creating Layer pool2/3x3_s2_pool2/3x3_s2_0_split
I0403 15:18:29.757169 31435 net.cpp:425] pool2/3x3_s2_pool2/3x3_s2_0_split <- pool2/3x3_s2
I0403 15:18:29.757185 31435 net.cpp:399] pool2/3x3_s2_pool2/3x3_s2_0_split -> pool2/3x3_s2_pool2/3x3_s2_0_split_0
I0403 15:18:29.757203 31435 net.cpp:399] pool2/3x3_s2_pool2/3x3_s2_0_split -> pool2/3x3_s2_pool2/3x3_s2_0_split_1
I0403 15:18:29.757223 31435 net.cpp:399] pool2/3x3_s2_pool2/3x3_s2_0_split -> pool2/3x3_s2_pool2/3x3_s2_0_split_2
I0403 15:18:29.757244 31435 net.cpp:399] pool2/3x3_s2_pool2/3x3_s2_0_split -> pool2/3x3_s2_pool2/3x3_s2_0_split_3
I0403 15:18:29.757314 31435 net.cpp:141] Setting up pool2/3x3_s2_pool2/3x3_s2_0_split
I0403 15:18:29.757338 31435 net.cpp:148] Top shape: 24 192 28 28 (3612672)
I0403 15:18:29.757354 31435 net.cpp:148] Top shape: 24 192 28 28 (3612672)
I0403 15:18:29.757369 31435 net.cpp:148] Top shape: 24 192 28 28 (3612672)
I0403 15:18:29.757385 31435 net.cpp:148] Top shape: 24 192 28 28 (3612672)
I0403 15:18:29.757397 31435 net.cpp:156] Memory required for data: 491324448
I0403 15:18:29.757412 31435 layer_factory.hpp:77] Creating layer inception_3a/1x1
I0403 15:18:29.757433 31435 net.cpp:91] Creating Layer inception_3a/1x1
I0403 15:18:29.757450 31435 net.cpp:425] inception_3a/1x1 <- pool2/3x3_s2_pool2/3x3_s2_0_split_0
I0403 15:18:29.757472 31435 net.cpp:399] inception_3a/1x1 -> inception_3a/1x1
I0403 15:18:29.758988 31435 net.cpp:141] Setting up inception_3a/1x1
I0403 15:18:29.759018 31435 net.cpp:148] Top shape: 24 64 28 28 (1204224)
I0403 15:18:29.759034 31435 net.cpp:156] Memory required for data: 496141344
I0403 15:18:29.759053 31435 layer_factory.hpp:77] Creating layer inception_3a/relu_1x1
I0403 15:18:29.759071 31435 net.cpp:91] Creating Layer inception_3a/relu_1x1
I0403 15:18:29.759088 31435 net.cpp:425] inception_3a/relu_1x1 <- inception_3a/1x1
I0403 15:18:29.759106 31435 net.cpp:386] inception_3a/relu_1x1 -> inception_3a/1x1 (in-place)
I0403 15:18:29.759279 31435 net.cpp:141] Setting up inception_3a/relu_1x1
I0403 15:18:29.759304 31435 net.cpp:148] Top shape: 24 64 28 28 (1204224)
I0403 15:18:29.759318 31435 net.cpp:156] Memory required for data: 500958240
I0403 15:18:29.759333 31435 layer_factory.hpp:77] Creating layer inception_3a/3x3_reduce
I0403 15:18:29.759356 31435 net.cpp:91] Creating Layer inception_3a/3x3_reduce
I0403 15:18:29.759373 31435 net.cpp:425] inception_3a/3x3_reduce <- pool2/3x3_s2_pool2/3x3_s2_0_split_1
I0403 15:18:29.759394 31435 net.cpp:399] inception_3a/3x3_reduce -> inception_3a/3x3_reduce
I0403 15:18:29.761076 31435 net.cpp:141] Setting up inception_3a/3x3_reduce
I0403 15:18:29.761106 31435 net.cpp:148] Top shape: 24 96 28 28 (1806336)
I0403 15:18:29.761121 31435 net.cpp:156] Memory required for data: 508183584
I0403 15:18:29.761142 31435 layer_factory.hpp:77] Creating layer inception_3a/relu_3x3_reduce
I0403 15:18:29.761179 31435 net.cpp:91] Creating Layer inception_3a/relu_3x3_reduce
I0403 15:18:29.761198 31435 net.cpp:425] inception_3a/relu_3x3_reduce <- inception_3a/3x3_reduce
I0403 15:18:29.761214 31435 net.cpp:386] inception_3a/relu_3x3_reduce -> inception_3a/3x3_reduce (in-place)
I0403 15:18:29.761394 31435 net.cpp:141] Setting up inception_3a/relu_3x3_reduce
I0403 15:18:29.761420 31435 net.cpp:148] Top shape: 24 96 28 28 (1806336)
I0403 15:18:29.761435 31435 net.cpp:156] Memory required for data: 515408928
I0403 15:18:29.761451 31435 layer_factory.hpp:77] Creating layer inception_3a/3x3
I0403 15:18:29.761473 31435 net.cpp:91] Creating Layer inception_3a/3x3
I0403 15:18:29.761490 31435 net.cpp:425] inception_3a/3x3 <- inception_3a/3x3_reduce
I0403 15:18:29.761508 31435 net.cpp:399] inception_3a/3x3 -> inception_3a/3x3
I0403 15:18:29.763137 31435 net.cpp:141] Setting up inception_3a/3x3
I0403 15:18:29.763165 31435 net.cpp:148] Top shape: 24 128 28 28 (2408448)
I0403 15:18:29.763181 31435 net.cpp:156] Memory required for data: 525042720
I0403 15:18:29.763200 31435 layer_factory.hpp:77] Creating layer inception_3a/relu_3x3
I0403 15:18:29.763218 31435 net.cpp:91] Creating Layer inception_3a/relu_3x3
I0403 15:18:29.763234 31435 net.cpp:425] inception_3a/relu_3x3 <- inception_3a/3x3
I0403 15:18:29.763252 31435 net.cpp:386] inception_3a/relu_3x3 -> inception_3a/3x3 (in-place)
I0403 15:18:29.763526 31435 net.cpp:141] Setting up inception_3a/relu_3x3
I0403 15:18:29.763556 31435 net.cpp:148] Top shape: 24 128 28 28 (2408448)
I0403 15:18:29.763574 31435 net.cpp:156] Memory required for data: 534676512
I0403 15:18:29.763589 31435 layer_factory.hpp:77] Creating layer inception_3a/5x5_reduce
I0403 15:18:29.763612 31435 net.cpp:91] Creating Layer inception_3a/5x5_reduce
I0403 15:18:29.763628 31435 net.cpp:425] inception_3a/5x5_reduce <- pool2/3x3_s2_pool2/3x3_s2_0_split_2
I0403 15:18:29.763648 31435 net.cpp:399] inception_3a/5x5_reduce -> inception_3a/5x5_reduce
I0403 15:18:29.764607 31435 net.cpp:141] Setting up inception_3a/5x5_reduce
I0403 15:18:29.764634 31435 net.cpp:148] Top shape: 24 16 28 28 (301056)
I0403 15:18:29.764650 31435 net.cpp:156] Memory required for data: 535880736
I0403 15:18:29.764669 31435 layer_factory.hpp:77] Creating layer inception_3a/relu_5x5_reduce
I0403 15:18:29.764689 31435 net.cpp:91] Creating Layer inception_3a/relu_5x5_reduce
I0403 15:18:29.764705 31435 net.cpp:425] inception_3a/relu_5x5_reduce <- inception_3a/5x5_reduce
I0403 15:18:29.764722 31435 net.cpp:386] inception_3a/relu_5x5_reduce -> inception_3a/5x5_reduce (in-place)
I0403 15:18:29.765017 31435 net.cpp:141] Setting up inception_3a/relu_5x5_reduce
I0403 15:18:29.765043 31435 net.cpp:148] Top shape: 24 16 28 28 (301056)
I0403 15:18:29.765058 31435 net.cpp:156] Memory required for data: 537084960
I0403 15:18:29.765074 31435 layer_factory.hpp:77] Creating layer inception_3a/5x5
I0403 15:18:29.765096 31435 net.cpp:91] Creating Layer inception_3a/5x5
I0403 15:18:29.765113 31435 net.cpp:425] inception_3a/5x5 <- inception_3a/5x5_reduce
I0403 15:18:29.765131 31435 net.cpp:399] inception_3a/5x5 -> inception_3a/5x5
I0403 15:18:29.766137 31435 net.cpp:141] Setting up inception_3a/5x5
I0403 15:18:29.766165 31435 net.cpp:148] Top shape: 24 32 28 28 (602112)
I0403 15:18:29.766180 31435 net.cpp:156] Memory required for data: 539493408
I0403 15:18:29.766199 31435 layer_factory.hpp:77] Creating layer inception_3a/relu_5x5
I0403 15:18:29.766217 31435 net.cpp:91] Creating Layer inception_3a/relu_5x5
I0403 15:18:29.766233 31435 net.cpp:425] inception_3a/relu_5x5 <- inception_3a/5x5
I0403 15:18:29.766252 31435 net.cpp:386] inception_3a/relu_5x5 -> inception_3a/5x5 (in-place)
I0403 15:18:29.766424 31435 net.cpp:141] Setting up inception_3a/relu_5x5
I0403 15:18:29.766449 31435 net.cpp:148] Top shape: 24 32 28 28 (602112)
I0403 15:18:29.766464 31435 net.cpp:156] Memory required for data: 541901856
I0403 15:18:29.766479 31435 layer_factory.hpp:77] Creating layer inception_3a/pool
I0403 15:18:29.766500 31435 net.cpp:91] Creating Layer inception_3a/pool
I0403 15:18:29.766530 31435 net.cpp:425] inception_3a/pool <- pool2/3x3_s2_pool2/3x3_s2_0_split_3
I0403 15:18:29.766553 31435 net.cpp:399] inception_3a/pool -> inception_3a/pool
I0403 15:18:29.766613 31435 net.cpp:141] Setting up inception_3a/pool
I0403 15:18:29.766638 31435 net.cpp:148] Top shape: 24 192 28 28 (3612672)
I0403 15:18:29.766651 31435 net.cpp:156] Memory required for data: 556352544
I0403 15:18:29.766666 31435 layer_factory.hpp:77] Creating layer inception_3a/pool_proj
I0403 15:18:29.766688 31435 net.cpp:91] Creating Layer inception_3a/pool_proj
I0403 15:18:29.766705 31435 net.cpp:425] inception_3a/pool_proj <- inception_3a/pool
I0403 15:18:29.766726 31435 net.cpp:399] inception_3a/pool_proj -> inception_3a/pool_proj
I0403 15:18:29.767690 31435 net.cpp:141] Setting up inception_3a/pool_proj
I0403 15:18:29.767720 31435 net.cpp:148] Top shape: 24 32 28 28 (602112)
I0403 15:18:29.767736 31435 net.cpp:156] Memory required for data: 558760992
I0403 15:18:29.767757 31435 layer_factory.hpp:77] Creating layer inception_3a/relu_pool_proj
I0403 15:18:29.767779 31435 net.cpp:91] Creating Layer inception_3a/relu_pool_proj
I0403 15:18:29.767796 31435 net.cpp:425] inception_3a/relu_pool_proj <- inception_3a/pool_proj
I0403 15:18:29.767812 31435 net.cpp:386] inception_3a/relu_pool_proj -> inception_3a/pool_proj (in-place)
I0403 15:18:29.768087 31435 net.cpp:141] Setting up inception_3a/relu_pool_proj
I0403 15:18:29.768113 31435 net.cpp:148] Top shape: 24 32 28 28 (602112)
I0403 15:18:29.768128 31435 net.cpp:156] Memory required for data: 561169440
I0403 15:18:29.768143 31435 layer_factory.hpp:77] Creating layer inception_3a/output
I0403 15:18:29.768162 31435 net.cpp:91] Creating Layer inception_3a/output
I0403 15:18:29.768177 31435 net.cpp:425] inception_3a/output <- inception_3a/1x1
I0403 15:18:29.768193 31435 net.cpp:425] inception_3a/output <- inception_3a/3x3
I0403 15:18:29.768208 31435 net.cpp:425] inception_3a/output <- inception_3a/5x5
I0403 15:18:29.768224 31435 net.cpp:425] inception_3a/output <- inception_3a/pool_proj
I0403 15:18:29.768251 31435 net.cpp:399] inception_3a/output -> inception_3a/output
I0403 15:18:29.768299 31435 net.cpp:141] Setting up inception_3a/output
I0403 15:18:29.768324 31435 net.cpp:148] Top shape: 24 256 28 28 (4816896)
I0403 15:18:29.768340 31435 net.cpp:156] Memory required for data: 580437024
I0403 15:18:29.768354 31435 layer_factory.hpp:77] Creating layer inception_3a/output_inception_3a/output_0_split
I0403 15:18:29.768371 31435 net.cpp:91] Creating Layer inception_3a/output_inception_3a/output_0_split
I0403 15:18:29.768386 31435 net.cpp:425] inception_3a/output_inception_3a/output_0_split <- inception_3a/output
I0403 15:18:29.768404 31435 net.cpp:399] inception_3a/output_inception_3a/output_0_split -> inception_3a/output_inception_3a/output_0_split_0
I0403 15:18:29.768425 31435 net.cpp:399] inception_3a/output_inception_3a/output_0_split -> inception_3a/output_inception_3a/output_0_split_1
I0403 15:18:29.768447 31435 net.cpp:399] inception_3a/output_inception_3a/output_0_split -> inception_3a/output_inception_3a/output_0_split_2
I0403 15:18:29.768468 31435 net.cpp:399] inception_3a/output_inception_3a/output_0_split -> inception_3a/output_inception_3a/output_0_split_3
I0403 15:18:29.768553 31435 net.cpp:141] Setting up inception_3a/output_inception_3a/output_0_split
I0403 15:18:29.768579 31435 net.cpp:148] Top shape: 24 256 28 28 (4816896)
I0403 15:18:29.768597 31435 net.cpp:148] Top shape: 24 256 28 28 (4816896)
I0403 15:18:29.768615 31435 net.cpp:148] Top shape: 24 256 28 28 (4816896)
I0403 15:18:29.768630 31435 net.cpp:148] Top shape: 24 256 28 28 (4816896)
I0403 15:18:29.768643 31435 net.cpp:156] Memory required for data: 657507360
I0403 15:18:29.768657 31435 layer_factory.hpp:77] Creating layer inception_3b/1x1
I0403 15:18:29.768679 31435 net.cpp:91] Creating Layer inception_3b/1x1
I0403 15:18:29.768697 31435 net.cpp:425] inception_3b/1x1 <- inception_3a/output_inception_3a/output_0_split_0
I0403 15:18:29.768718 31435 net.cpp:399] inception_3b/1x1 -> inception_3b/1x1
I0403 15:18:29.769835 31435 net.cpp:141] Setting up inception_3b/1x1
I0403 15:18:29.769887 31435 net.cpp:148] Top shape: 24 128 28 28 (2408448)
I0403 15:18:29.769906 31435 net.cpp:156] Memory required for data: 667141152
I0403 15:18:29.769937 31435 layer_factory.hpp:77] Creating layer inception_3b/relu_1x1
I0403 15:18:29.769973 31435 net.cpp:91] Creating Layer inception_3b/relu_1x1
I0403 15:18:29.770004 31435 net.cpp:425] inception_3b/relu_1x1 <- inception_3b/1x1
I0403 15:18:29.770036 31435 net.cpp:386] inception_3b/relu_1x1 -> inception_3b/1x1 (in-place)
I0403 15:18:29.770234 31435 net.cpp:141] Setting up inception_3b/relu_1x1
I0403 15:18:29.770261 31435 net.cpp:148] Top shape: 24 128 28 28 (2408448)
I0403 15:18:29.770275 31435 net.cpp:156] Memory required for data: 676774944
I0403 15:18:29.770289 31435 layer_factory.hpp:77] Creating layer inception_3b/3x3_reduce
I0403 15:18:29.770321 31435 net.cpp:91] Creating Layer inception_3b/3x3_reduce
I0403 15:18:29.770340 31435 net.cpp:425] inception_3b/3x3_reduce <- inception_3a/output_inception_3a/output_0_split_1
I0403 15:18:29.770360 31435 net.cpp:399] inception_3b/3x3_reduce -> inception_3b/3x3_reduce
I0403 15:18:29.771478 31435 net.cpp:141] Setting up inception_3b/3x3_reduce
I0403 15:18:29.771508 31435 net.cpp:148] Top shape: 24 128 28 28 (2408448)
I0403 15:18:29.771525 31435 net.cpp:156] Memory required for data: 686408736
I0403 15:18:29.771548 31435 layer_factory.hpp:77] Creating layer inception_3b/relu_3x3_reduce
I0403 15:18:29.771567 31435 net.cpp:91] Creating Layer inception_3b/relu_3x3_reduce
I0403 15:18:29.771584 31435 net.cpp:425] inception_3b/relu_3x3_reduce <- inception_3b/3x3_reduce
I0403 15:18:29.771602 31435 net.cpp:386] inception_3b/relu_3x3_reduce -> inception_3b/3x3_reduce (in-place)
I0403 15:18:29.771772 31435 net.cpp:141] Setting up inception_3b/relu_3x3_reduce
I0403 15:18:29.771797 31435 net.cpp:148] Top shape: 24 128 28 28 (2408448)
I0403 15:18:29.771811 31435 net.cpp:156] Memory required for data: 696042528
I0403 15:18:29.771826 31435 layer_factory.hpp:77] Creating layer inception_3b/3x3
I0403 15:18:29.771852 31435 net.cpp:91] Creating Layer inception_3b/3x3
I0403 15:18:29.771872 31435 net.cpp:425] inception_3b/3x3 <- inception_3b/3x3_reduce
I0403 15:18:29.771890 31435 net.cpp:399] inception_3b/3x3 -> inception_3b/3x3
I0403 15:18:29.774777 31435 net.cpp:141] Setting up inception_3b/3x3
I0403 15:18:29.774806 31435 net.cpp:148] Top shape: 24 192 28 28 (3612672)
I0403 15:18:29.774822 31435 net.cpp:156] Memory required for data: 710493216
I0403 15:18:29.774840 31435 layer_factory.hpp:77] Creating layer inception_3b/relu_3x3
I0403 15:18:29.774859 31435 net.cpp:91] Creating Layer inception_3b/relu_3x3
I0403 15:18:29.774874 31435 net.cpp:425] inception_3b/relu_3x3 <- inception_3b/3x3
I0403 15:18:29.774894 31435 net.cpp:386] inception_3b/relu_3x3 -> inception_3b/3x3 (in-place)
I0403 15:18:29.775166 31435 net.cpp:141] Setting up inception_3b/relu_3x3
I0403 15:18:29.775197 31435 net.cpp:148] Top shape: 24 192 28 28 (3612672)
I0403 15:18:29.775210 31435 net.cpp:156] Memory required for data: 724943904
I0403 15:18:29.775225 31435 layer_factory.hpp:77] Creating layer inception_3b/5x5_reduce
I0403 15:18:29.775260 31435 net.cpp:91] Creating Layer inception_3b/5x5_reduce
I0403 15:18:29.775280 31435 net.cpp:425] inception_3b/5x5_reduce <- inception_3a/output_inception_3a/output_0_split_2
I0403 15:18:29.775303 31435 net.cpp:399] inception_3b/5x5_reduce -> inception_3b/5x5_reduce
I0403 15:18:29.776300 31435 net.cpp:141] Setting up inception_3b/5x5_reduce
I0403 15:18:29.776327 31435 net.cpp:148] Top shape: 24 32 28 28 (602112)
I0403 15:18:29.776343 31435 net.cpp:156] Memory required for data: 727352352
I0403 15:18:29.776361 31435 layer_factory.hpp:77] Creating layer inception_3b/relu_5x5_reduce
I0403 15:18:29.776381 31435 net.cpp:91] Creating Layer inception_3b/relu_5x5_reduce
I0403 15:18:29.776396 31435 net.cpp:425] inception_3b/relu_5x5_reduce <- inception_3b/5x5_reduce
I0403 15:18:29.776417 31435 net.cpp:386] inception_3b/relu_5x5_reduce -> inception_3b/5x5_reduce (in-place)
I0403 15:18:29.776608 31435 net.cpp:141] Setting up inception_3b/relu_5x5_reduce
I0403 15:18:29.776633 31435 net.cpp:148] Top shape: 24 32 28 28 (602112)
I0403 15:18:29.776648 31435 net.cpp:156] Memory required for data: 729760800
I0403 15:18:29.776664 31435 layer_factory.hpp:77] Creating layer inception_3b/5x5
I0403 15:18:29.776686 31435 net.cpp:91] Creating Layer inception_3b/5x5
I0403 15:18:29.776703 31435 net.cpp:425] inception_3b/5x5 <- inception_3b/5x5_reduce
I0403 15:18:29.776724 31435 net.cpp:399] inception_3b/5x5 -> inception_3b/5x5
I0403 15:18:29.778674 31435 net.cpp:141] Setting up inception_3b/5x5
I0403 15:18:29.778705 31435 net.cpp:148] Top shape: 24 96 28 28 (1806336)
I0403 15:18:29.778722 31435 net.cpp:156] Memory required for data: 736986144
I0403 15:18:29.778740 31435 layer_factory.hpp:77] Creating layer inception_3b/relu_5x5
I0403 15:18:29.778759 31435 net.cpp:91] Creating Layer inception_3b/relu_5x5
I0403 15:18:29.778774 31435 net.cpp:425] inception_3b/relu_5x5 <- inception_3b/5x5
I0403 15:18:29.778794 31435 net.cpp:386] inception_3b/relu_5x5 -> inception_3b/5x5 (in-place)
I0403 15:18:29.778982 31435 net.cpp:141] Setting up inception_3b/relu_5x5
I0403 15:18:29.779007 31435 net.cpp:148] Top shape: 24 96 28 28 (1806336)
I0403 15:18:29.779022 31435 net.cpp:156] Memory required for data: 744211488
I0403 15:18:29.779036 31435 layer_factory.hpp:77] Creating layer inception_3b/pool
I0403 15:18:29.779054 31435 net.cpp:91] Creating Layer inception_3b/pool
I0403 15:18:29.779070 31435 net.cpp:425] inception_3b/pool <- inception_3a/output_inception_3a/output_0_split_3
I0403 15:18:29.779088 31435 net.cpp:399] inception_3b/pool -> inception_3b/pool
I0403 15:18:29.779145 31435 net.cpp:141] Setting up inception_3b/pool
I0403 15:18:29.779168 31435 net.cpp:148] Top shape: 24 256 28 28 (4816896)
I0403 15:18:29.779183 31435 net.cpp:156] Memory required for data: 763479072
I0403 15:18:29.779197 31435 layer_factory.hpp:77] Creating layer inception_3b/pool_proj
I0403 15:18:29.779219 31435 net.cpp:91] Creating Layer inception_3b/pool_proj
I0403 15:18:29.779237 31435 net.cpp:425] inception_3b/pool_proj <- inception_3b/pool
I0403 15:18:29.779258 31435 net.cpp:399] inception_3b/pool_proj -> inception_3b/pool_proj
I0403 15:18:29.780313 31435 net.cpp:141] Setting up inception_3b/pool_proj
I0403 15:18:29.780342 31435 net.cpp:148] Top shape: 24 64 28 28 (1204224)
I0403 15:18:29.780357 31435 net.cpp:156] Memory required for data: 768295968
I0403 15:18:29.780376 31435 layer_factory.hpp:77] Creating layer inception_3b/relu_pool_proj
I0403 15:18:29.780397 31435 net.cpp:91] Creating Layer inception_3b/relu_pool_proj
I0403 15:18:29.780414 31435 net.cpp:425] inception_3b/relu_pool_proj <- inception_3b/pool_proj
I0403 15:18:29.780432 31435 net.cpp:386] inception_3b/relu_pool_proj -> inception_3b/pool_proj (in-place)
I0403 15:18:29.780848 31435 net.cpp:141] Setting up inception_3b/relu_pool_proj
I0403 15:18:29.780879 31435 net.cpp:148] Top shape: 24 64 28 28 (1204224)
I0403 15:18:29.780894 31435 net.cpp:156] Memory required for data: 773112864
I0403 15:18:29.780908 31435 layer_factory.hpp:77] Creating layer inception_3b/output
I0403 15:18:29.780926 31435 net.cpp:91] Creating Layer inception_3b/output
I0403 15:18:29.780941 31435 net.cpp:425] inception_3b/output <- inception_3b/1x1
I0403 15:18:29.780959 31435 net.cpp:425] inception_3b/output <- inception_3b/3x3
I0403 15:18:29.780977 31435 net.cpp:425] inception_3b/output <- inception_3b/5x5
I0403 15:18:29.780992 31435 net.cpp:425] inception_3b/output <- inception_3b/pool_proj
I0403 15:18:29.781008 31435 net.cpp:399] inception_3b/output -> inception_3b/output
I0403 15:18:29.781054 31435 net.cpp:141] Setting up inception_3b/output
I0403 15:18:29.781076 31435 net.cpp:148] Top shape: 24 480 28 28 (9031680)
I0403 15:18:29.781091 31435 net.cpp:156] Memory required for data: 809239584
I0403 15:18:29.781105 31435 layer_factory.hpp:77] Creating layer pool3/3x3_s2
I0403 15:18:29.781123 31435 net.cpp:91] Creating Layer pool3/3x3_s2
I0403 15:18:29.781138 31435 net.cpp:425] pool3/3x3_s2 <- inception_3b/output
I0403 15:18:29.781173 31435 net.cpp:399] pool3/3x3_s2 -> pool3/3x3_s2
I0403 15:18:29.781231 31435 net.cpp:141] Setting up pool3/3x3_s2
I0403 15:18:29.781255 31435 net.cpp:148] Top shape: 24 480 14 14 (2257920)
I0403 15:18:29.781270 31435 net.cpp:156] Memory required for data: 818271264
I0403 15:18:29.781283 31435 layer_factory.hpp:77] Creating layer pool3/3x3_s2_pool3/3x3_s2_0_split
I0403 15:18:29.781303 31435 net.cpp:91] Creating Layer pool3/3x3_s2_pool3/3x3_s2_0_split
I0403 15:18:29.781319 31435 net.cpp:425] pool3/3x3_s2_pool3/3x3_s2_0_split <- pool3/3x3_s2
I0403 15:18:29.781337 31435 net.cpp:399] pool3/3x3_s2_pool3/3x3_s2_0_split -> pool3/3x3_s2_pool3/3x3_s2_0_split_0
I0403 15:18:29.781358 31435 net.cpp:399] pool3/3x3_s2_pool3/3x3_s2_0_split -> pool3/3x3_s2_pool3/3x3_s2_0_split_1
I0403 15:18:29.781378 31435 net.cpp:399] pool3/3x3_s2_pool3/3x3_s2_0_split -> pool3/3x3_s2_pool3/3x3_s2_0_split_2
I0403 15:18:29.781395 31435 net.cpp:399] pool3/3x3_s2_pool3/3x3_s2_0_split -> pool3/3x3_s2_pool3/3x3_s2_0_split_3
I0403 15:18:29.781469 31435 net.cpp:141] Setting up pool3/3x3_s2_pool3/3x3_s2_0_split
I0403 15:18:29.781491 31435 net.cpp:148] Top shape: 24 480 14 14 (2257920)
I0403 15:18:29.781507 31435 net.cpp:148] Top shape: 24 480 14 14 (2257920)
I0403 15:18:29.781523 31435 net.cpp:148] Top shape: 24 480 14 14 (2257920)
I0403 15:18:29.781543 31435 net.cpp:148] Top shape: 24 480 14 14 (2257920)
I0403 15:18:29.781558 31435 net.cpp:156] Memory required for data: 854397984
I0403 15:18:29.781574 31435 layer_factory.hpp:77] Creating layer inception_4a/1x1
I0403 15:18:29.781596 31435 net.cpp:91] Creating Layer inception_4a/1x1
I0403 15:18:29.781613 31435 net.cpp:425] inception_4a/1x1 <- pool3/3x3_s2_pool3/3x3_s2_0_split_0
I0403 15:18:29.781635 31435 net.cpp:399] inception_4a/1x1 -> inception_4a/1x1
I0403 15:18:29.783197 31435 net.cpp:141] Setting up inception_4a/1x1
I0403 15:18:29.783226 31435 net.cpp:148] Top shape: 24 192 14 14 (903168)
I0403 15:18:29.783243 31435 net.cpp:156] Memory required for data: 858010656
I0403 15:18:29.783264 31435 layer_factory.hpp:77] Creating layer inception_4a/relu_1x1
I0403 15:18:29.783282 31435 net.cpp:91] Creating Layer inception_4a/relu_1x1
I0403 15:18:29.783298 31435 net.cpp:425] inception_4a/relu_1x1 <- inception_4a/1x1
I0403 15:18:29.783314 31435 net.cpp:386] inception_4a/relu_1x1 -> inception_4a/1x1 (in-place)
I0403 15:18:29.783491 31435 net.cpp:141] Setting up inception_4a/relu_1x1
I0403 15:18:29.783519 31435 net.cpp:148] Top shape: 24 192 14 14 (903168)
I0403 15:18:29.783542 31435 net.cpp:156] Memory required for data: 861623328
I0403 15:18:29.783560 31435 layer_factory.hpp:77] Creating layer inception_4a/3x3_reduce
I0403 15:18:29.783583 31435 net.cpp:91] Creating Layer inception_4a/3x3_reduce
I0403 15:18:29.783601 31435 net.cpp:425] inception_4a/3x3_reduce <- pool3/3x3_s2_pool3/3x3_s2_0_split_1
I0403 15:18:29.783622 31435 net.cpp:399] inception_4a/3x3_reduce -> inception_4a/3x3_reduce
I0403 15:18:29.784898 31435 net.cpp:141] Setting up inception_4a/3x3_reduce
I0403 15:18:29.784924 31435 net.cpp:148] Top shape: 24 96 14 14 (451584)
I0403 15:18:29.784940 31435 net.cpp:156] Memory required for data: 863429664
I0403 15:18:29.784966 31435 layer_factory.hpp:77] Creating layer inception_4a/relu_3x3_reduce
I0403 15:18:29.784986 31435 net.cpp:91] Creating Layer inception_4a/relu_3x3_reduce
I0403 15:18:29.785003 31435 net.cpp:425] inception_4a/relu_3x3_reduce <- inception_4a/3x3_reduce
I0403 15:18:29.785020 31435 net.cpp:386] inception_4a/relu_3x3_reduce -> inception_4a/3x3_reduce (in-place)
I0403 15:18:29.785193 31435 net.cpp:141] Setting up inception_4a/relu_3x3_reduce
I0403 15:18:29.785220 31435 net.cpp:148] Top shape: 24 96 14 14 (451584)
I0403 15:18:29.785235 31435 net.cpp:156] Memory required for data: 865236000
I0403 15:18:29.785249 31435 layer_factory.hpp:77] Creating layer inception_4a/3x3
I0403 15:18:29.785271 31435 net.cpp:91] Creating Layer inception_4a/3x3
I0403 15:18:29.785289 31435 net.cpp:425] inception_4a/3x3 <- inception_4a/3x3_reduce
I0403 15:18:29.785307 31435 net.cpp:399] inception_4a/3x3 -> inception_4a/3x3
I0403 15:18:29.787960 31435 net.cpp:141] Setting up inception_4a/3x3
I0403 15:18:29.787988 31435 net.cpp:148] Top shape: 24 208 14 14 (978432)
I0403 15:18:29.788005 31435 net.cpp:156] Memory required for data: 869149728
I0403 15:18:29.788023 31435 layer_factory.hpp:77] Creating layer inception_4a/relu_3x3
I0403 15:18:29.788041 31435 net.cpp:91] Creating Layer inception_4a/relu_3x3
I0403 15:18:29.788058 31435 net.cpp:425] inception_4a/relu_3x3 <- inception_4a/3x3
I0403 15:18:29.788076 31435 net.cpp:386] inception_4a/relu_3x3 -> inception_4a/3x3 (in-place)
I0403 15:18:29.788358 31435 net.cpp:141] Setting up inception_4a/relu_3x3
I0403 15:18:29.788384 31435 net.cpp:148] Top shape: 24 208 14 14 (978432)
I0403 15:18:29.788400 31435 net.cpp:156] Memory required for data: 873063456
I0403 15:18:29.788415 31435 layer_factory.hpp:77] Creating layer inception_4a/5x5_reduce
I0403 15:18:29.788437 31435 net.cpp:91] Creating Layer inception_4a/5x5_reduce
I0403 15:18:29.788455 31435 net.cpp:425] inception_4a/5x5_reduce <- pool3/3x3_s2_pool3/3x3_s2_0_split_2
I0403 15:18:29.788478 31435 net.cpp:399] inception_4a/5x5_reduce -> inception_4a/5x5_reduce
I0403 15:18:29.789510 31435 net.cpp:141] Setting up inception_4a/5x5_reduce
I0403 15:18:29.789541 31435 net.cpp:148] Top shape: 24 16 14 14 (75264)
I0403 15:18:29.789572 31435 net.cpp:156] Memory required for data: 873364512
I0403 15:18:29.789590 31435 layer_factory.hpp:77] Creating layer inception_4a/relu_5x5_reduce
I0403 15:18:29.789608 31435 net.cpp:91] Creating Layer inception_4a/relu_5x5_reduce
I0403 15:18:29.789624 31435 net.cpp:425] inception_4a/relu_5x5_reduce <- inception_4a/5x5_reduce
I0403 15:18:29.789644 31435 net.cpp:386] inception_4a/relu_5x5_reduce -> inception_4a/5x5_reduce (in-place)
I0403 15:18:29.789821 31435 net.cpp:141] Setting up inception_4a/relu_5x5_reduce
I0403 15:18:29.789846 31435 net.cpp:148] Top shape: 24 16 14 14 (75264)
I0403 15:18:29.789861 31435 net.cpp:156] Memory required for data: 873665568
I0403 15:18:29.789876 31435 layer_factory.hpp:77] Creating layer inception_4a/5x5
I0403 15:18:29.789899 31435 net.cpp:91] Creating Layer inception_4a/5x5
I0403 15:18:29.789916 31435 net.cpp:425] inception_4a/5x5 <- inception_4a/5x5_reduce
I0403 15:18:29.789937 31435 net.cpp:399] inception_4a/5x5 -> inception_4a/5x5
I0403 15:18:29.791014 31435 net.cpp:141] Setting up inception_4a/5x5
I0403 15:18:29.791041 31435 net.cpp:148] Top shape: 24 48 14 14 (225792)
I0403 15:18:29.791056 31435 net.cpp:156] Memory required for data: 874568736
I0403 15:18:29.791074 31435 layer_factory.hpp:77] Creating layer inception_4a/relu_5x5
I0403 15:18:29.791095 31435 net.cpp:91] Creating Layer inception_4a/relu_5x5
I0403 15:18:29.791111 31435 net.cpp:425] inception_4a/relu_5x5 <- inception_4a/5x5
I0403 15:18:29.791128 31435 net.cpp:386] inception_4a/relu_5x5 -> inception_4a/5x5 (in-place)
I0403 15:18:29.791303 31435 net.cpp:141] Setting up inception_4a/relu_5x5
I0403 15:18:29.791332 31435 net.cpp:148] Top shape: 24 48 14 14 (225792)
I0403 15:18:29.791347 31435 net.cpp:156] Memory required for data: 875471904
I0403 15:18:29.791362 31435 layer_factory.hpp:77] Creating layer inception_4a/pool
I0403 15:18:29.791379 31435 net.cpp:91] Creating Layer inception_4a/pool
I0403 15:18:29.791394 31435 net.cpp:425] inception_4a/pool <- pool3/3x3_s2_pool3/3x3_s2_0_split_3
I0403 15:18:29.791411 31435 net.cpp:399] inception_4a/pool -> inception_4a/pool
I0403 15:18:29.791476 31435 net.cpp:141] Setting up inception_4a/pool
I0403 15:18:29.791499 31435 net.cpp:148] Top shape: 24 480 14 14 (2257920)
I0403 15:18:29.791513 31435 net.cpp:156] Memory required for data: 884503584
I0403 15:18:29.791528 31435 layer_factory.hpp:77] Creating layer inception_4a/pool_proj
I0403 15:18:29.791555 31435 net.cpp:91] Creating Layer inception_4a/pool_proj
I0403 15:18:29.791575 31435 net.cpp:425] inception_4a/pool_proj <- inception_4a/pool
I0403 15:18:29.791595 31435 net.cpp:399] inception_4a/pool_proj -> inception_4a/pool_proj
I0403 15:18:29.792753 31435 net.cpp:141] Setting up inception_4a/pool_proj
I0403 15:18:29.792781 31435 net.cpp:148] Top shape: 24 64 14 14 (301056)
I0403 15:18:29.792812 31435 net.cpp:156] Memory required for data: 885707808
I0403 15:18:29.792831 31435 layer_factory.hpp:77] Creating layer inception_4a/relu_pool_proj
I0403 15:18:29.792852 31435 net.cpp:91] Creating Layer inception_4a/relu_pool_proj
I0403 15:18:29.792870 31435 net.cpp:425] inception_4a/relu_pool_proj <- inception_4a/pool_proj
I0403 15:18:29.792886 31435 net.cpp:386] inception_4a/relu_pool_proj -> inception_4a/pool_proj (in-place)
I0403 15:18:29.793165 31435 net.cpp:141] Setting up inception_4a/relu_pool_proj
I0403 15:18:29.793191 31435 net.cpp:148] Top shape: 24 64 14 14 (301056)
I0403 15:18:29.793206 31435 net.cpp:156] Memory required for data: 886912032
I0403 15:18:29.793221 31435 layer_factory.hpp:77] Creating layer inception_4a/output
I0403 15:18:29.793241 31435 net.cpp:91] Creating Layer inception_4a/output
I0403 15:18:29.793256 31435 net.cpp:425] inception_4a/output <- inception_4a/1x1
I0403 15:18:29.793273 31435 net.cpp:425] inception_4a/output <- inception_4a/3x3
I0403 15:18:29.793289 31435 net.cpp:425] inception_4a/output <- inception_4a/5x5
I0403 15:18:29.793305 31435 net.cpp:425] inception_4a/output <- inception_4a/pool_proj
I0403 15:18:29.793323 31435 net.cpp:399] inception_4a/output -> inception_4a/output
I0403 15:18:29.793368 31435 net.cpp:141] Setting up inception_4a/output
I0403 15:18:29.793391 31435 net.cpp:148] Top shape: 24 512 14 14 (2408448)
I0403 15:18:29.793406 31435 net.cpp:156] Memory required for data: 896545824
I0403 15:18:29.793421 31435 layer_factory.hpp:77] Creating layer inception_4a/output_inception_4a/output_0_split
I0403 15:18:29.793437 31435 net.cpp:91] Creating Layer inception_4a/output_inception_4a/output_0_split
I0403 15:18:29.793452 31435 net.cpp:425] inception_4a/output_inception_4a/output_0_split <- inception_4a/output
I0403 15:18:29.793474 31435 net.cpp:399] inception_4a/output_inception_4a/output_0_split -> inception_4a/output_inception_4a/output_0_split_0
I0403 15:18:29.793495 31435 net.cpp:399] inception_4a/output_inception_4a/output_0_split -> inception_4a/output_inception_4a/output_0_split_1
I0403 15:18:29.793516 31435 net.cpp:399] inception_4a/output_inception_4a/output_0_split -> inception_4a/output_inception_4a/output_0_split_2
I0403 15:18:29.793546 31435 net.cpp:399] inception_4a/output_inception_4a/output_0_split -> inception_4a/output_inception_4a/output_0_split_3
I0403 15:18:29.793572 31435 net.cpp:399] inception_4a/output_inception_4a/output_0_split -> inception_4a/output_inception_4a/output_0_split_4
I0403 15:18:29.793665 31435 net.cpp:141] Setting up inception_4a/output_inception_4a/output_0_split
I0403 15:18:29.793689 31435 net.cpp:148] Top shape: 24 512 14 14 (2408448)
I0403 15:18:29.793705 31435 net.cpp:148] Top shape: 24 512 14 14 (2408448)
I0403 15:18:29.793720 31435 net.cpp:148] Top shape: 24 512 14 14 (2408448)
I0403 15:18:29.793736 31435 net.cpp:148] Top shape: 24 512 14 14 (2408448)
I0403 15:18:29.793752 31435 net.cpp:148] Top shape: 24 512 14 14 (2408448)
I0403 15:18:29.793766 31435 net.cpp:156] Memory required for data: 944714784
I0403 15:18:29.793781 31435 layer_factory.hpp:77] Creating layer loss1/ave_pool
I0403 15:18:29.793797 31435 net.cpp:91] Creating Layer loss1/ave_pool
I0403 15:18:29.793812 31435 net.cpp:425] loss1/ave_pool <- inception_4a/output_inception_4a/output_0_split_0
I0403 15:18:29.793833 31435 net.cpp:399] loss1/ave_pool -> loss1/ave_pool
I0403 15:18:29.794047 31435 net.cpp:141] Setting up loss1/ave_pool
I0403 15:18:29.794073 31435 net.cpp:148] Top shape: 24 512 4 4 (196608)
I0403 15:18:29.794088 31435 net.cpp:156] Memory required for data: 945501216
I0403 15:18:29.794103 31435 layer_factory.hpp:77] Creating layer loss1/conv
I0403 15:18:29.794126 31435 net.cpp:91] Creating Layer loss1/conv
I0403 15:18:29.794144 31435 net.cpp:425] loss1/conv <- loss1/ave_pool
I0403 15:18:29.794163 31435 net.cpp:399] loss1/conv -> loss1/conv
I0403 15:18:29.795564 31435 net.cpp:141] Setting up loss1/conv
I0403 15:18:29.795594 31435 net.cpp:148] Top shape: 24 128 4 4 (49152)
I0403 15:18:29.795625 31435 net.cpp:156] Memory required for data: 945697824
I0403 15:18:29.795645 31435 layer_factory.hpp:77] Creating layer loss1/relu_conv
I0403 15:18:29.795680 31435 net.cpp:91] Creating Layer loss1/relu_conv
I0403 15:18:29.795696 31435 net.cpp:425] loss1/relu_conv <- loss1/conv
I0403 15:18:29.795717 31435 net.cpp:386] loss1/relu_conv -> loss1/conv (in-place)
I0403 15:18:29.795995 31435 net.cpp:141] Setting up loss1/relu_conv
I0403 15:18:29.796022 31435 net.cpp:148] Top shape: 24 128 4 4 (49152)
I0403 15:18:29.796037 31435 net.cpp:156] Memory required for data: 945894432
I0403 15:18:29.796052 31435 layer_factory.hpp:77] Creating layer loss1/fc
I0403 15:18:29.796077 31435 net.cpp:91] Creating Layer loss1/fc
I0403 15:18:29.796093 31435 net.cpp:425] loss1/fc <- loss1/conv
I0403 15:18:29.796114 31435 net.cpp:399] loss1/fc -> loss1/fc
I0403 15:18:29.813755 31435 net.cpp:141] Setting up loss1/fc
I0403 15:18:29.813793 31435 net.cpp:148] Top shape: 24 1024 (24576)
I0403 15:18:29.813810 31435 net.cpp:156] Memory required for data: 945992736
I0403 15:18:29.813830 31435 layer_factory.hpp:77] Creating layer loss1/relu_fc
I0403 15:18:29.813850 31435 net.cpp:91] Creating Layer loss1/relu_fc
I0403 15:18:29.813868 31435 net.cpp:425] loss1/relu_fc <- loss1/fc
I0403 15:18:29.813885 31435 net.cpp:386] loss1/relu_fc -> loss1/fc (in-place)
I0403 15:18:29.814074 31435 net.cpp:141] Setting up loss1/relu_fc
I0403 15:18:29.814100 31435 net.cpp:148] Top shape: 24 1024 (24576)
I0403 15:18:29.814116 31435 net.cpp:156] Memory required for data: 946091040
I0403 15:18:29.814131 31435 layer_factory.hpp:77] Creating layer loss1/drop_fc
I0403 15:18:29.814158 31435 net.cpp:91] Creating Layer loss1/drop_fc
I0403 15:18:29.814177 31435 net.cpp:425] loss1/drop_fc <- loss1/fc
I0403 15:18:29.814196 31435 net.cpp:386] loss1/drop_fc -> loss1/fc (in-place)
I0403 15:18:29.814249 31435 net.cpp:141] Setting up loss1/drop_fc
I0403 15:18:29.814271 31435 net.cpp:148] Top shape: 24 1024 (24576)
I0403 15:18:29.814286 31435 net.cpp:156] Memory required for data: 946189344
I0403 15:18:29.814301 31435 layer_factory.hpp:77] Creating layer loss1/classifier_plantvillage
I0403 15:18:29.814327 31435 net.cpp:91] Creating Layer loss1/classifier_plantvillage
I0403 15:18:29.814343 31435 net.cpp:425] loss1/classifier_plantvillage <- loss1/fc
I0403 15:18:29.814362 31435 net.cpp:399] loss1/classifier_plantvillage -> loss1/classifier_plantvillage
I0403 15:18:29.815284 31435 net.cpp:141] Setting up loss1/classifier_plantvillage
I0403 15:18:29.815315 31435 net.cpp:148] Top shape: 24 38 (912)
I0403 15:18:29.815330 31435 net.cpp:156] Memory required for data: 946192992
I0403 15:18:29.815347 31435 layer_factory.hpp:77] Creating layer loss1/classifier_plantvillage_loss1/classifier_plantvillage_0_split
I0403 15:18:29.815366 31435 net.cpp:91] Creating Layer loss1/classifier_plantvillage_loss1/classifier_plantvillage_0_split
I0403 15:18:29.815382 31435 net.cpp:425] loss1/classifier_plantvillage_loss1/classifier_plantvillage_0_split <- loss1/classifier_plantvillage
I0403 15:18:29.815398 31435 net.cpp:399] loss1/classifier_plantvillage_loss1/classifier_plantvillage_0_split -> loss1/classifier_plantvillage_loss1/classifier_plantvillage_0_split_0
I0403 15:18:29.815420 31435 net.cpp:399] loss1/classifier_plantvillage_loss1/classifier_plantvillage_0_split -> loss1/classifier_plantvillage_loss1/classifier_plantvillage_0_split_1
I0403 15:18:29.815440 31435 net.cpp:399] loss1/classifier_plantvillage_loss1/classifier_plantvillage_0_split -> loss1/classifier_plantvillage_loss1/classifier_plantvillage_0_split_2
I0403 15:18:29.815506 31435 net.cpp:141] Setting up loss1/classifier_plantvillage_loss1/classifier_plantvillage_0_split
I0403 15:18:29.815529 31435 net.cpp:148] Top shape: 24 38 (912)
I0403 15:18:29.815549 31435 net.cpp:148] Top shape: 24 38 (912)
I0403 15:18:29.815565 31435 net.cpp:148] Top shape: 24 38 (912)
I0403 15:18:29.815579 31435 net.cpp:156] Memory required for data: 946203936
I0403 15:18:29.815593 31435 layer_factory.hpp:77] Creating layer inception_4b/1x1
I0403 15:18:29.815613 31435 net.cpp:91] Creating Layer inception_4b/1x1
I0403 15:18:29.815647 31435 net.cpp:425] inception_4b/1x1 <- inception_4a/output_inception_4a/output_0_split_1
I0403 15:18:29.815670 31435 net.cpp:399] inception_4b/1x1 -> inception_4b/1x1
I0403 15:18:29.817306 31435 net.cpp:141] Setting up inception_4b/1x1
I0403 15:18:29.817334 31435 net.cpp:148] Top shape: 24 160 14 14 (752640)
I0403 15:18:29.817350 31435 net.cpp:156] Memory required for data: 949214496
I0403 15:18:29.817369 31435 layer_factory.hpp:77] Creating layer inception_4b/relu_1x1
I0403 15:18:29.817387 31435 net.cpp:91] Creating Layer inception_4b/relu_1x1
I0403 15:18:29.817404 31435 net.cpp:425] inception_4b/relu_1x1 <- inception_4b/1x1
I0403 15:18:29.817422 31435 net.cpp:386] inception_4b/relu_1x1 -> inception_4b/1x1 (in-place)
I0403 15:18:29.817607 31435 net.cpp:141] Setting up inception_4b/relu_1x1
I0403 15:18:29.817633 31435 net.cpp:148] Top shape: 24 160 14 14 (752640)
I0403 15:18:29.817648 31435 net.cpp:156] Memory required for data: 952225056
I0403 15:18:29.817663 31435 layer_factory.hpp:77] Creating layer inception_4b/3x3_reduce
I0403 15:18:29.817685 31435 net.cpp:91] Creating Layer inception_4b/3x3_reduce
I0403 15:18:29.817703 31435 net.cpp:425] inception_4b/3x3_reduce <- inception_4a/output_inception_4a/output_0_split_2
I0403 15:18:29.817724 31435 net.cpp:399] inception_4b/3x3_reduce -> inception_4b/3x3_reduce
I0403 15:18:29.819079 31435 net.cpp:141] Setting up inception_4b/3x3_reduce
I0403 15:18:29.819108 31435 net.cpp:148] Top shape: 24 112 14 14 (526848)
I0403 15:18:29.819123 31435 net.cpp:156] Memory required for data: 954332448
I0403 15:18:29.819141 31435 layer_factory.hpp:77] Creating layer inception_4b/relu_3x3_reduce
I0403 15:18:29.819162 31435 net.cpp:91] Creating Layer inception_4b/relu_3x3_reduce
I0403 15:18:29.819180 31435 net.cpp:425] inception_4b/relu_3x3_reduce <- inception_4b/3x3_reduce
I0403 15:18:29.819197 31435 net.cpp:386] inception_4b/relu_3x3_reduce -> inception_4b/3x3_reduce (in-place)
I0403 15:18:29.819478 31435 net.cpp:141] Setting up inception_4b/relu_3x3_reduce
I0403 15:18:29.819504 31435 net.cpp:148] Top shape: 24 112 14 14 (526848)
I0403 15:18:29.819519 31435 net.cpp:156] Memory required for data: 956439840
I0403 15:18:29.819540 31435 layer_factory.hpp:77] Creating layer inception_4b/3x3
I0403 15:18:29.819574 31435 net.cpp:91] Creating Layer inception_4b/3x3
I0403 15:18:29.819593 31435 net.cpp:425] inception_4b/3x3 <- inception_4b/3x3_reduce
I0403 15:18:29.819614 31435 net.cpp:399] inception_4b/3x3 -> inception_4b/3x3
I0403 15:18:29.822546 31435 net.cpp:141] Setting up inception_4b/3x3
I0403 15:18:29.822578 31435 net.cpp:148] Top shape: 24 224 14 14 (1053696)
I0403 15:18:29.822594 31435 net.cpp:156] Memory required for data: 960654624
I0403 15:18:29.822613 31435 layer_factory.hpp:77] Creating layer inception_4b/relu_3x3
I0403 15:18:29.822630 31435 net.cpp:91] Creating Layer inception_4b/relu_3x3
I0403 15:18:29.822645 31435 net.cpp:425] inception_4b/relu_3x3 <- inception_4b/3x3
I0403 15:18:29.822662 31435 net.cpp:386] inception_4b/relu_3x3 -> inception_4b/3x3 (in-place)
I0403 15:18:29.822842 31435 net.cpp:141] Setting up inception_4b/relu_3x3
I0403 15:18:29.822866 31435 net.cpp:148] Top shape: 24 224 14 14 (1053696)
I0403 15:18:29.822880 31435 net.cpp:156] Memory required for data: 964869408
I0403 15:18:29.822895 31435 layer_factory.hpp:77] Creating layer inception_4b/5x5_reduce
I0403 15:18:29.822917 31435 net.cpp:91] Creating Layer inception_4b/5x5_reduce
I0403 15:18:29.822934 31435 net.cpp:425] inception_4b/5x5_reduce <- inception_4a/output_inception_4a/output_0_split_3
I0403 15:18:29.822954 31435 net.cpp:399] inception_4b/5x5_reduce -> inception_4b/5x5_reduce
I0403 15:18:29.824005 31435 net.cpp:141] Setting up inception_4b/5x5_reduce
I0403 15:18:29.824033 31435 net.cpp:148] Top shape: 24 24 14 14 (112896)
I0403 15:18:29.824048 31435 net.cpp:156] Memory required for data: 965320992
I0403 15:18:29.824065 31435 layer_factory.hpp:77] Creating layer inception_4b/relu_5x5_reduce
I0403 15:18:29.824085 31435 net.cpp:91] Creating Layer inception_4b/relu_5x5_reduce
I0403 15:18:29.824115 31435 net.cpp:425] inception_4b/relu_5x5_reduce <- inception_4b/5x5_reduce
I0403 15:18:29.824133 31435 net.cpp:386] inception_4b/relu_5x5_reduce -> inception_4b/5x5_reduce (in-place)
I0403 15:18:29.824309 31435 net.cpp:141] Setting up inception_4b/relu_5x5_reduce
I0403 15:18:29.824333 31435 net.cpp:148] Top shape: 24 24 14 14 (112896)
I0403 15:18:29.824347 31435 net.cpp:156] Memory required for data: 965772576
I0403 15:18:29.824362 31435 layer_factory.hpp:77] Creating layer inception_4b/5x5
I0403 15:18:29.824383 31435 net.cpp:91] Creating Layer inception_4b/5x5
I0403 15:18:29.824401 31435 net.cpp:425] inception_4b/5x5 <- inception_4b/5x5_reduce
I0403 15:18:29.824419 31435 net.cpp:399] inception_4b/5x5 -> inception_4b/5x5
I0403 15:18:29.825621 31435 net.cpp:141] Setting up inception_4b/5x5
I0403 15:18:29.825649 31435 net.cpp:148] Top shape: 24 64 14 14 (301056)
I0403 15:18:29.825664 31435 net.cpp:156] Memory required for data: 966976800
I0403 15:18:29.825681 31435 layer_factory.hpp:77] Creating layer inception_4b/relu_5x5
I0403 15:18:29.825698 31435 net.cpp:91] Creating Layer inception_4b/relu_5x5
I0403 15:18:29.825714 31435 net.cpp:425] inception_4b/relu_5x5 <- inception_4b/5x5
I0403 15:18:29.825733 31435 net.cpp:386] inception_4b/relu_5x5 -> inception_4b/5x5 (in-place)
I0403 15:18:29.826010 31435 net.cpp:141] Setting up inception_4b/relu_5x5
I0403 15:18:29.826036 31435 net.cpp:148] Top shape: 24 64 14 14 (301056)
I0403 15:18:29.826050 31435 net.cpp:156] Memory required for data: 968181024
I0403 15:18:29.826066 31435 layer_factory.hpp:77] Creating layer inception_4b/pool
I0403 15:18:29.826084 31435 net.cpp:91] Creating Layer inception_4b/pool
I0403 15:18:29.826099 31435 net.cpp:425] inception_4b/pool <- inception_4a/output_inception_4a/output_0_split_4
I0403 15:18:29.826123 31435 net.cpp:399] inception_4b/pool -> inception_4b/pool
I0403 15:18:29.826186 31435 net.cpp:141] Setting up inception_4b/pool
I0403 15:18:29.826210 31435 net.cpp:148] Top shape: 24 512 14 14 (2408448)
I0403 15:18:29.826223 31435 net.cpp:156] Memory required for data: 977814816
I0403 15:18:29.826237 31435 layer_factory.hpp:77] Creating layer inception_4b/pool_proj
I0403 15:18:29.826261 31435 net.cpp:91] Creating Layer inception_4b/pool_proj
I0403 15:18:29.826277 31435 net.cpp:425] inception_4b/pool_proj <- inception_4b/pool
I0403 15:18:29.826294 31435 net.cpp:399] inception_4b/pool_proj -> inception_4b/pool_proj
I0403 15:18:29.827469 31435 net.cpp:141] Setting up inception_4b/pool_proj
I0403 15:18:29.827497 31435 net.cpp:148] Top shape: 24 64 14 14 (301056)
I0403 15:18:29.827512 31435 net.cpp:156] Memory required for data: 979019040
I0403 15:18:29.827529 31435 layer_factory.hpp:77] Creating layer inception_4b/relu_pool_proj
I0403 15:18:29.827582 31435 net.cpp:91] Creating Layer inception_4b/relu_pool_proj
I0403 15:18:29.827600 31435 net.cpp:425] inception_4b/relu_pool_proj <- inception_4b/pool_proj
I0403 15:18:29.827620 31435 net.cpp:386] inception_4b/relu_pool_proj -> inception_4b/pool_proj (in-place)
I0403 15:18:29.827796 31435 net.cpp:141] Setting up inception_4b/relu_pool_proj
I0403 15:18:29.827826 31435 net.cpp:148] Top shape: 24 64 14 14 (301056)
I0403 15:18:29.827841 31435 net.cpp:156] Memory required for data: 980223264
I0403 15:18:29.827857 31435 layer_factory.hpp:77] Creating layer inception_4b/output
I0403 15:18:29.827875 31435 net.cpp:91] Creating Layer inception_4b/output
I0403 15:18:29.827893 31435 net.cpp:425] inception_4b/output <- inception_4b/1x1
I0403 15:18:29.827908 31435 net.cpp:425] inception_4b/output <- inception_4b/3x3
I0403 15:18:29.827924 31435 net.cpp:425] inception_4b/output <- inception_4b/5x5
I0403 15:18:29.827939 31435 net.cpp:425] inception_4b/output <- inception_4b/pool_proj
I0403 15:18:29.827955 31435 net.cpp:399] inception_4b/output -> inception_4b/output
I0403 15:18:29.828001 31435 net.cpp:141] Setting up inception_4b/output
I0403 15:18:29.828022 31435 net.cpp:148] Top shape: 24 512 14 14 (2408448)
I0403 15:18:29.828037 31435 net.cpp:156] Memory required for data: 989857056
I0403 15:18:29.828064 31435 layer_factory.hpp:77] Creating layer inception_4b/output_inception_4b/output_0_split
I0403 15:18:29.828083 31435 net.cpp:91] Creating Layer inception_4b/output_inception_4b/output_0_split
I0403 15:18:29.828097 31435 net.cpp:425] inception_4b/output_inception_4b/output_0_split <- inception_4b/output
I0403 15:18:29.828116 31435 net.cpp:399] inception_4b/output_inception_4b/output_0_split -> inception_4b/output_inception_4b/output_0_split_0
I0403 15:18:29.828136 31435 net.cpp:399] inception_4b/output_inception_4b/output_0_split -> inception_4b/output_inception_4b/output_0_split_1
I0403 15:18:29.828156 31435 net.cpp:399] inception_4b/output_inception_4b/output_0_split -> inception_4b/output_inception_4b/output_0_split_2
I0403 15:18:29.828176 31435 net.cpp:399] inception_4b/output_inception_4b/output_0_split -> inception_4b/output_inception_4b/output_0_split_3
I0403 15:18:29.828254 31435 net.cpp:141] Setting up inception_4b/output_inception_4b/output_0_split
I0403 15:18:29.828279 31435 net.cpp:148] Top shape: 24 512 14 14 (2408448)
I0403 15:18:29.828296 31435 net.cpp:148] Top shape: 24 512 14 14 (2408448)
I0403 15:18:29.828311 31435 net.cpp:148] Top shape: 24 512 14 14 (2408448)
I0403 15:18:29.828326 31435 net.cpp:148] Top shape: 24 512 14 14 (2408448)
I0403 15:18:29.828339 31435 net.cpp:156] Memory required for data: 1028392224
I0403 15:18:29.828353 31435 layer_factory.hpp:77] Creating layer inception_4c/1x1
I0403 15:18:29.828374 31435 net.cpp:91] Creating Layer inception_4c/1x1
I0403 15:18:29.828392 31435 net.cpp:425] inception_4c/1x1 <- inception_4b/output_inception_4b/output_0_split_0
I0403 15:18:29.828413 31435 net.cpp:399] inception_4c/1x1 -> inception_4c/1x1
I0403 15:18:29.829824 31435 net.cpp:141] Setting up inception_4c/1x1
I0403 15:18:29.829851 31435 net.cpp:148] Top shape: 24 128 14 14 (602112)
I0403 15:18:29.829866 31435 net.cpp:156] Memory required for data: 1030800672
I0403 15:18:29.829885 31435 layer_factory.hpp:77] Creating layer inception_4c/relu_1x1
I0403 15:18:29.829906 31435 net.cpp:91] Creating Layer inception_4c/relu_1x1
I0403 15:18:29.829922 31435 net.cpp:425] inception_4c/relu_1x1 <- inception_4c/1x1
I0403 15:18:29.829938 31435 net.cpp:386] inception_4c/relu_1x1 -> inception_4c/1x1 (in-place)
I0403 15:18:29.830116 31435 net.cpp:141] Setting up inception_4c/relu_1x1
I0403 15:18:29.830143 31435 net.cpp:148] Top shape: 24 128 14 14 (602112)
I0403 15:18:29.830158 31435 net.cpp:156] Memory required for data: 1033209120
I0403 15:18:29.830173 31435 layer_factory.hpp:77] Creating layer inception_4c/3x3_reduce
I0403 15:18:29.830194 31435 net.cpp:91] Creating Layer inception_4c/3x3_reduce
I0403 15:18:29.830211 31435 net.cpp:425] inception_4c/3x3_reduce <- inception_4b/output_inception_4b/output_0_split_1
I0403 15:18:29.830229 31435 net.cpp:399] inception_4c/3x3_reduce -> inception_4c/3x3_reduce
I0403 15:18:29.832121 31435 net.cpp:141] Setting up inception_4c/3x3_reduce
I0403 15:18:29.832151 31435 net.cpp:148] Top shape: 24 128 14 14 (602112)
I0403 15:18:29.832167 31435 net.cpp:156] Memory required for data: 1035617568
I0403 15:18:29.832185 31435 layer_factory.hpp:77] Creating layer inception_4c/relu_3x3_reduce
I0403 15:18:29.832202 31435 net.cpp:91] Creating Layer inception_4c/relu_3x3_reduce
I0403 15:18:29.832218 31435 net.cpp:425] inception_4c/relu_3x3_reduce <- inception_4c/3x3_reduce
I0403 15:18:29.832237 31435 net.cpp:386] inception_4c/relu_3x3_reduce -> inception_4c/3x3_reduce (in-place)
I0403 15:18:29.832516 31435 net.cpp:141] Setting up inception_4c/relu_3x3_reduce
I0403 15:18:29.832547 31435 net.cpp:148] Top shape: 24 128 14 14 (602112)
I0403 15:18:29.832563 31435 net.cpp:156] Memory required for data: 1038026016
I0403 15:18:29.832578 31435 layer_factory.hpp:77] Creating layer inception_4c/3x3
I0403 15:18:29.832600 31435 net.cpp:91] Creating Layer inception_4c/3x3
I0403 15:18:29.832618 31435 net.cpp:425] inception_4c/3x3 <- inception_4c/3x3_reduce
I0403 15:18:29.832638 31435 net.cpp:399] inception_4c/3x3 -> inception_4c/3x3
I0403 15:18:29.836143 31435 net.cpp:141] Setting up inception_4c/3x3
I0403 15:18:29.836184 31435 net.cpp:148] Top shape: 24 256 14 14 (1204224)
I0403 15:18:29.836199 31435 net.cpp:156] Memory required for data: 1042842912
I0403 15:18:29.836230 31435 layer_factory.hpp:77] Creating layer inception_4c/relu_3x3
I0403 15:18:29.836251 31435 net.cpp:91] Creating Layer inception_4c/relu_3x3
I0403 15:18:29.836266 31435 net.cpp:425] inception_4c/relu_3x3 <- inception_4c/3x3
I0403 15:18:29.836283 31435 net.cpp:386] inception_4c/relu_3x3 -> inception_4c/3x3 (in-place)
I0403 15:18:29.836463 31435 net.cpp:141] Setting up inception_4c/relu_3x3
I0403 15:18:29.836488 31435 net.cpp:148] Top shape: 24 256 14 14 (1204224)
I0403 15:18:29.836501 31435 net.cpp:156] Memory required for data: 1047659808
I0403 15:18:29.836516 31435 layer_factory.hpp:77] Creating layer inception_4c/5x5_reduce
I0403 15:18:29.836541 31435 net.cpp:91] Creating Layer inception_4c/5x5_reduce
I0403 15:18:29.836560 31435 net.cpp:425] inception_4c/5x5_reduce <- inception_4b/output_inception_4b/output_0_split_2
I0403 15:18:29.836583 31435 net.cpp:399] inception_4c/5x5_reduce -> inception_4c/5x5_reduce
I0403 15:18:29.837646 31435 net.cpp:141] Setting up inception_4c/5x5_reduce
I0403 15:18:29.837674 31435 net.cpp:148] Top shape: 24 24 14 14 (112896)
I0403 15:18:29.837688 31435 net.cpp:156] Memory required for data: 1048111392
I0403 15:18:29.837707 31435 layer_factory.hpp:77] Creating layer inception_4c/relu_5x5_reduce
I0403 15:18:29.837726 31435 net.cpp:91] Creating Layer inception_4c/relu_5x5_reduce
I0403 15:18:29.837743 31435 net.cpp:425] inception_4c/relu_5x5_reduce <- inception_4c/5x5_reduce
I0403 15:18:29.837759 31435 net.cpp:386] inception_4c/relu_5x5_reduce -> inception_4c/5x5_reduce (in-place)
I0403 15:18:29.837939 31435 net.cpp:141] Setting up inception_4c/relu_5x5_reduce
I0403 15:18:29.837962 31435 net.cpp:148] Top shape: 24 24 14 14 (112896)
I0403 15:18:29.837976 31435 net.cpp:156] Memory required for data: 1048562976
I0403 15:18:29.837990 31435 layer_factory.hpp:77] Creating layer inception_4c/5x5
I0403 15:18:29.838012 31435 net.cpp:91] Creating Layer inception_4c/5x5
I0403 15:18:29.838028 31435 net.cpp:425] inception_4c/5x5 <- inception_4c/5x5_reduce
I0403 15:18:29.838048 31435 net.cpp:399] inception_4c/5x5 -> inception_4c/5x5
I0403 15:18:29.839257 31435 net.cpp:141] Setting up inception_4c/5x5
I0403 15:18:29.839283 31435 net.cpp:148] Top shape: 24 64 14 14 (301056)
I0403 15:18:29.839298 31435 net.cpp:156] Memory required for data: 1049767200
I0403 15:18:29.839316 31435 layer_factory.hpp:77] Creating layer inception_4c/relu_5x5
I0403 15:18:29.839336 31435 net.cpp:91] Creating Layer inception_4c/relu_5x5
I0403 15:18:29.839352 31435 net.cpp:425] inception_4c/relu_5x5 <- inception_4c/5x5
I0403 15:18:29.839368 31435 net.cpp:386] inception_4c/relu_5x5 -> inception_4c/5x5 (in-place)
I0403 15:18:29.839653 31435 net.cpp:141] Setting up inception_4c/relu_5x5
I0403 15:18:29.839679 31435 net.cpp:148] Top shape: 24 64 14 14 (301056)
I0403 15:18:29.839694 31435 net.cpp:156] Memory required for data: 1050971424
I0403 15:18:29.839707 31435 layer_factory.hpp:77] Creating layer inception_4c/pool
I0403 15:18:29.839726 31435 net.cpp:91] Creating Layer inception_4c/pool
I0403 15:18:29.839743 31435 net.cpp:425] inception_4c/pool <- inception_4b/output_inception_4b/output_0_split_3
I0403 15:18:29.839761 31435 net.cpp:399] inception_4c/pool -> inception_4c/pool
I0403 15:18:29.839824 31435 net.cpp:141] Setting up inception_4c/pool
I0403 15:18:29.839848 31435 net.cpp:148] Top shape: 24 512 14 14 (2408448)
I0403 15:18:29.839862 31435 net.cpp:156] Memory required for data: 1060605216
I0403 15:18:29.839876 31435 layer_factory.hpp:77] Creating layer inception_4c/pool_proj
I0403 15:18:29.839896 31435 net.cpp:91] Creating Layer inception_4c/pool_proj
I0403 15:18:29.839913 31435 net.cpp:425] inception_4c/pool_proj <- inception_4c/pool
I0403 15:18:29.839933 31435 net.cpp:399] inception_4c/pool_proj -> inception_4c/pool_proj
I0403 15:18:29.841133 31435 net.cpp:141] Setting up inception_4c/pool_proj
I0403 15:18:29.841161 31435 net.cpp:148] Top shape: 24 64 14 14 (301056)
I0403 15:18:29.841192 31435 net.cpp:156] Memory required for data: 1061809440
I0403 15:18:29.841210 31435 layer_factory.hpp:77] Creating layer inception_4c/relu_pool_proj
I0403 15:18:29.841228 31435 net.cpp:91] Creating Layer inception_4c/relu_pool_proj
I0403 15:18:29.841243 31435 net.cpp:425] inception_4c/relu_pool_proj <- inception_4c/pool_proj
I0403 15:18:29.841262 31435 net.cpp:386] inception_4c/relu_pool_proj -> inception_4c/pool_proj (in-place)
I0403 15:18:29.841444 31435 net.cpp:141] Setting up inception_4c/relu_pool_proj
I0403 15:18:29.841467 31435 net.cpp:148] Top shape: 24 64 14 14 (301056)
I0403 15:18:29.841481 31435 net.cpp:156] Memory required for data: 1063013664
I0403 15:18:29.841495 31435 layer_factory.hpp:77] Creating layer inception_4c/output
I0403 15:18:29.841514 31435 net.cpp:91] Creating Layer inception_4c/output
I0403 15:18:29.841531 31435 net.cpp:425] inception_4c/output <- inception_4c/1x1
I0403 15:18:29.841552 31435 net.cpp:425] inception_4c/output <- inception_4c/3x3
I0403 15:18:29.841567 31435 net.cpp:425] inception_4c/output <- inception_4c/5x5
I0403 15:18:29.841581 31435 net.cpp:425] inception_4c/output <- inception_4c/pool_proj
I0403 15:18:29.841598 31435 net.cpp:399] inception_4c/output -> inception_4c/output
I0403 15:18:29.841645 31435 net.cpp:141] Setting up inception_4c/output
I0403 15:18:29.841668 31435 net.cpp:148] Top shape: 24 512 14 14 (2408448)
I0403 15:18:29.841682 31435 net.cpp:156] Memory required for data: 1072647456
I0403 15:18:29.841696 31435 layer_factory.hpp:77] Creating layer inception_4c/output_inception_4c/output_0_split
I0403 15:18:29.841713 31435 net.cpp:91] Creating Layer inception_4c/output_inception_4c/output_0_split
I0403 15:18:29.841727 31435 net.cpp:425] inception_4c/output_inception_4c/output_0_split <- inception_4c/output
I0403 15:18:29.841747 31435 net.cpp:399] inception_4c/output_inception_4c/output_0_split -> inception_4c/output_inception_4c/output_0_split_0
I0403 15:18:29.841765 31435 net.cpp:399] inception_4c/output_inception_4c/output_0_split -> inception_4c/output_inception_4c/output_0_split_1
I0403 15:18:29.841784 31435 net.cpp:399] inception_4c/output_inception_4c/output_0_split -> inception_4c/output_inception_4c/output_0_split_2
I0403 15:18:29.841804 31435 net.cpp:399] inception_4c/output_inception_4c/output_0_split -> inception_4c/output_inception_4c/output_0_split_3
I0403 15:18:29.841886 31435 net.cpp:141] Setting up inception_4c/output_inception_4c/output_0_split
I0403 15:18:29.841909 31435 net.cpp:148] Top shape: 24 512 14 14 (2408448)
I0403 15:18:29.841925 31435 net.cpp:148] Top shape: 24 512 14 14 (2408448)
I0403 15:18:29.841940 31435 net.cpp:148] Top shape: 24 512 14 14 (2408448)
I0403 15:18:29.841955 31435 net.cpp:148] Top shape: 24 512 14 14 (2408448)
I0403 15:18:29.841969 31435 net.cpp:156] Memory required for data: 1111182624
I0403 15:18:29.841982 31435 layer_factory.hpp:77] Creating layer inception_4d/1x1
I0403 15:18:29.842005 31435 net.cpp:91] Creating Layer inception_4d/1x1
I0403 15:18:29.842021 31435 net.cpp:425] inception_4d/1x1 <- inception_4c/output_inception_4c/output_0_split_0
I0403 15:18:29.842041 31435 net.cpp:399] inception_4d/1x1 -> inception_4d/1x1
I0403 15:18:29.843413 31435 net.cpp:141] Setting up inception_4d/1x1
I0403 15:18:29.843442 31435 net.cpp:148] Top shape: 24 112 14 14 (526848)
I0403 15:18:29.843458 31435 net.cpp:156] Memory required for data: 1113290016
I0403 15:18:29.843477 31435 layer_factory.hpp:77] Creating layer inception_4d/relu_1x1
I0403 15:18:29.843494 31435 net.cpp:91] Creating Layer inception_4d/relu_1x1
I0403 15:18:29.843509 31435 net.cpp:425] inception_4d/relu_1x1 <- inception_4d/1x1
I0403 15:18:29.843525 31435 net.cpp:386] inception_4d/relu_1x1 -> inception_4d/1x1 (in-place)
I0403 15:18:29.843719 31435 net.cpp:141] Setting up inception_4d/relu_1x1
I0403 15:18:29.843742 31435 net.cpp:148] Top shape: 24 112 14 14 (526848)
I0403 15:18:29.843757 31435 net.cpp:156] Memory required for data: 1115397408
I0403 15:18:29.843771 31435 layer_factory.hpp:77] Creating layer inception_4d/3x3_reduce
I0403 15:18:29.843806 31435 net.cpp:91] Creating Layer inception_4d/3x3_reduce
I0403 15:18:29.843824 31435 net.cpp:425] inception_4d/3x3_reduce <- inception_4c/output_inception_4c/output_0_split_1
I0403 15:18:29.843845 31435 net.cpp:399] inception_4d/3x3_reduce -> inception_4d/3x3_reduce
I0403 15:18:29.845343 31435 net.cpp:141] Setting up inception_4d/3x3_reduce
I0403 15:18:29.845371 31435 net.cpp:148] Top shape: 24 144 14 14 (677376)
I0403 15:18:29.845386 31435 net.cpp:156] Memory required for data: 1118106912
I0403 15:18:29.845404 31435 layer_factory.hpp:77] Creating layer inception_4d/relu_3x3_reduce
I0403 15:18:29.845423 31435 net.cpp:91] Creating Layer inception_4d/relu_3x3_reduce
I0403 15:18:29.845439 31435 net.cpp:425] inception_4d/relu_3x3_reduce <- inception_4d/3x3_reduce
I0403 15:18:29.845455 31435 net.cpp:386] inception_4d/relu_3x3_reduce -> inception_4d/3x3_reduce (in-place)
I0403 15:18:29.845746 31435 net.cpp:141] Setting up inception_4d/relu_3x3_reduce
I0403 15:18:29.845770 31435 net.cpp:148] Top shape: 24 144 14 14 (677376)
I0403 15:18:29.845785 31435 net.cpp:156] Memory required for data: 1120816416
I0403 15:18:29.845799 31435 layer_factory.hpp:77] Creating layer inception_4d/3x3
I0403 15:18:29.845823 31435 net.cpp:91] Creating Layer inception_4d/3x3
I0403 15:18:29.845839 31435 net.cpp:425] inception_4d/3x3 <- inception_4d/3x3_reduce
I0403 15:18:29.845857 31435 net.cpp:399] inception_4d/3x3 -> inception_4d/3x3
I0403 15:18:29.849997 31435 net.cpp:141] Setting up inception_4d/3x3
I0403 15:18:29.850028 31435 net.cpp:148] Top shape: 24 288 14 14 (1354752)
I0403 15:18:29.850042 31435 net.cpp:156] Memory required for data: 1126235424
I0403 15:18:29.850060 31435 layer_factory.hpp:77] Creating layer inception_4d/relu_3x3
I0403 15:18:29.850080 31435 net.cpp:91] Creating Layer inception_4d/relu_3x3
I0403 15:18:29.850105 31435 net.cpp:425] inception_4d/relu_3x3 <- inception_4d/3x3
I0403 15:18:29.850123 31435 net.cpp:386] inception_4d/relu_3x3 -> inception_4d/3x3 (in-place)
I0403 15:18:29.850304 31435 net.cpp:141] Setting up inception_4d/relu_3x3
I0403 15:18:29.850328 31435 net.cpp:148] Top shape: 24 288 14 14 (1354752)
I0403 15:18:29.850342 31435 net.cpp:156] Memory required for data: 1131654432
I0403 15:18:29.850356 31435 layer_factory.hpp:77] Creating layer inception_4d/5x5_reduce
I0403 15:18:29.850378 31435 net.cpp:91] Creating Layer inception_4d/5x5_reduce
I0403 15:18:29.850395 31435 net.cpp:425] inception_4d/5x5_reduce <- inception_4c/output_inception_4c/output_0_split_2
I0403 15:18:29.850416 31435 net.cpp:399] inception_4d/5x5_reduce -> inception_4d/5x5_reduce
I0403 15:18:29.851539 31435 net.cpp:141] Setting up inception_4d/5x5_reduce
I0403 15:18:29.851568 31435 net.cpp:148] Top shape: 24 32 14 14 (150528)
I0403 15:18:29.851584 31435 net.cpp:156] Memory required for data: 1132256544
I0403 15:18:29.851601 31435 layer_factory.hpp:77] Creating layer inception_4d/relu_5x5_reduce
I0403 15:18:29.851619 31435 net.cpp:91] Creating Layer inception_4d/relu_5x5_reduce
I0403 15:18:29.851635 31435 net.cpp:425] inception_4d/relu_5x5_reduce <- inception_4d/5x5_reduce
I0403 15:18:29.851655 31435 net.cpp:386] inception_4d/relu_5x5_reduce -> inception_4d/5x5_reduce (in-place)
I0403 15:18:29.851840 31435 net.cpp:141] Setting up inception_4d/relu_5x5_reduce
I0403 15:18:29.851863 31435 net.cpp:148] Top shape: 24 32 14 14 (150528)
I0403 15:18:29.851877 31435 net.cpp:156] Memory required for data: 1132858656
I0403 15:18:29.851892 31435 layer_factory.hpp:77] Creating layer inception_4d/5x5
I0403 15:18:29.851913 31435 net.cpp:91] Creating Layer inception_4d/5x5
I0403 15:18:29.851932 31435 net.cpp:425] inception_4d/5x5 <- inception_4d/5x5_reduce
I0403 15:18:29.851951 31435 net.cpp:399] inception_4d/5x5 -> inception_4d/5x5
I0403 15:18:29.853385 31435 net.cpp:141] Setting up inception_4d/5x5
I0403 15:18:29.853412 31435 net.cpp:148] Top shape: 24 64 14 14 (301056)
I0403 15:18:29.853427 31435 net.cpp:156] Memory required for data: 1134062880
I0403 15:18:29.853446 31435 layer_factory.hpp:77] Creating layer inception_4d/relu_5x5
I0403 15:18:29.853479 31435 net.cpp:91] Creating Layer inception_4d/relu_5x5
I0403 15:18:29.853497 31435 net.cpp:425] inception_4d/relu_5x5 <- inception_4d/5x5
I0403 15:18:29.853513 31435 net.cpp:386] inception_4d/relu_5x5 -> inception_4d/5x5 (in-place)
I0403 15:18:29.853807 31435 net.cpp:141] Setting up inception_4d/relu_5x5
I0403 15:18:29.853833 31435 net.cpp:148] Top shape: 24 64 14 14 (301056)
I0403 15:18:29.853848 31435 net.cpp:156] Memory required for data: 1135267104
I0403 15:18:29.853863 31435 layer_factory.hpp:77] Creating layer inception_4d/pool
I0403 15:18:29.853883 31435 net.cpp:91] Creating Layer inception_4d/pool
I0403 15:18:29.853899 31435 net.cpp:425] inception_4d/pool <- inception_4c/output_inception_4c/output_0_split_3
I0403 15:18:29.853916 31435 net.cpp:399] inception_4d/pool -> inception_4d/pool
I0403 15:18:29.853981 31435 net.cpp:141] Setting up inception_4d/pool
I0403 15:18:29.854003 31435 net.cpp:148] Top shape: 24 512 14 14 (2408448)
I0403 15:18:29.854017 31435 net.cpp:156] Memory required for data: 1144900896
I0403 15:18:29.854032 31435 layer_factory.hpp:77] Creating layer inception_4d/pool_proj
I0403 15:18:29.854053 31435 net.cpp:91] Creating Layer inception_4d/pool_proj
I0403 15:18:29.854070 31435 net.cpp:425] inception_4d/pool_proj <- inception_4d/pool
I0403 15:18:29.854090 31435 net.cpp:399] inception_4d/pool_proj -> inception_4d/pool_proj
I0403 15:18:29.855826 31435 net.cpp:141] Setting up inception_4d/pool_proj
I0403 15:18:29.855859 31435 net.cpp:148] Top shape: 24 64 14 14 (301056)
I0403 15:18:29.855875 31435 net.cpp:156] Memory required for data: 1146105120
I0403 15:18:29.855893 31435 layer_factory.hpp:77] Creating layer inception_4d/relu_pool_proj
I0403 15:18:29.855911 31435 net.cpp:91] Creating Layer inception_4d/relu_pool_proj
I0403 15:18:29.855927 31435 net.cpp:425] inception_4d/relu_pool_proj <- inception_4d/pool_proj
I0403 15:18:29.855947 31435 net.cpp:386] inception_4d/relu_pool_proj -> inception_4d/pool_proj (in-place)
I0403 15:18:29.856127 31435 net.cpp:141] Setting up inception_4d/relu_pool_proj
I0403 15:18:29.856150 31435 net.cpp:148] Top shape: 24 64 14 14 (301056)
I0403 15:18:29.856164 31435 net.cpp:156] Memory required for data: 1147309344
I0403 15:18:29.856179 31435 layer_factory.hpp:77] Creating layer inception_4d/output
I0403 15:18:29.856195 31435 net.cpp:91] Creating Layer inception_4d/output
I0403 15:18:29.856210 31435 net.cpp:425] inception_4d/output <- inception_4d/1x1
I0403 15:18:29.856226 31435 net.cpp:425] inception_4d/output <- inception_4d/3x3
I0403 15:18:29.856241 31435 net.cpp:425] inception_4d/output <- inception_4d/5x5
I0403 15:18:29.856256 31435 net.cpp:425] inception_4d/output <- inception_4d/pool_proj
I0403 15:18:29.856274 31435 net.cpp:399] inception_4d/output -> inception_4d/output
I0403 15:18:29.856320 31435 net.cpp:141] Setting up inception_4d/output
I0403 15:18:29.856346 31435 net.cpp:148] Top shape: 24 528 14 14 (2483712)
I0403 15:18:29.856360 31435 net.cpp:156] Memory required for data: 1157244192
I0403 15:18:29.856374 31435 layer_factory.hpp:77] Creating layer inception_4d/output_inception_4d/output_0_split
I0403 15:18:29.856391 31435 net.cpp:91] Creating Layer inception_4d/output_inception_4d/output_0_split
I0403 15:18:29.856405 31435 net.cpp:425] inception_4d/output_inception_4d/output_0_split <- inception_4d/output
I0403 15:18:29.856426 31435 net.cpp:399] inception_4d/output_inception_4d/output_0_split -> inception_4d/output_inception_4d/output_0_split_0
I0403 15:18:29.856446 31435 net.cpp:399] inception_4d/output_inception_4d/output_0_split -> inception_4d/output_inception_4d/output_0_split_1
I0403 15:18:29.856467 31435 net.cpp:399] inception_4d/output_inception_4d/output_0_split -> inception_4d/output_inception_4d/output_0_split_2
I0403 15:18:29.856485 31435 net.cpp:399] inception_4d/output_inception_4d/output_0_split -> inception_4d/output_inception_4d/output_0_split_3
I0403 15:18:29.856504 31435 net.cpp:399] inception_4d/output_inception_4d/output_0_split -> inception_4d/output_inception_4d/output_0_split_4
I0403 15:18:29.856607 31435 net.cpp:141] Setting up inception_4d/output_inception_4d/output_0_split
I0403 15:18:29.856650 31435 net.cpp:148] Top shape: 24 528 14 14 (2483712)
I0403 15:18:29.856667 31435 net.cpp:148] Top shape: 24 528 14 14 (2483712)
I0403 15:18:29.856683 31435 net.cpp:148] Top shape: 24 528 14 14 (2483712)
I0403 15:18:29.856698 31435 net.cpp:148] Top shape: 24 528 14 14 (2483712)
I0403 15:18:29.856714 31435 net.cpp:148] Top shape: 24 528 14 14 (2483712)
I0403 15:18:29.856727 31435 net.cpp:156] Memory required for data: 1206918432
I0403 15:18:29.856741 31435 layer_factory.hpp:77] Creating layer loss2/ave_pool
I0403 15:18:29.856758 31435 net.cpp:91] Creating Layer loss2/ave_pool
I0403 15:18:29.856773 31435 net.cpp:425] loss2/ave_pool <- inception_4d/output_inception_4d/output_0_split_0
I0403 15:18:29.856791 31435 net.cpp:399] loss2/ave_pool -> loss2/ave_pool
I0403 15:18:29.857098 31435 net.cpp:141] Setting up loss2/ave_pool
I0403 15:18:29.857125 31435 net.cpp:148] Top shape: 24 528 4 4 (202752)
I0403 15:18:29.857141 31435 net.cpp:156] Memory required for data: 1207729440
I0403 15:18:29.857156 31435 layer_factory.hpp:77] Creating layer loss2/conv
I0403 15:18:29.857177 31435 net.cpp:91] Creating Layer loss2/conv
I0403 15:18:29.857194 31435 net.cpp:425] loss2/conv <- loss2/ave_pool
I0403 15:18:29.857213 31435 net.cpp:399] loss2/conv -> loss2/conv
I0403 15:18:29.859091 31435 net.cpp:141] Setting up loss2/conv
I0403 15:18:29.859119 31435 net.cpp:148] Top shape: 24 128 4 4 (49152)
I0403 15:18:29.859134 31435 net.cpp:156] Memory required for data: 1207926048
I0403 15:18:29.859153 31435 layer_factory.hpp:77] Creating layer loss2/relu_conv
I0403 15:18:29.859172 31435 net.cpp:91] Creating Layer loss2/relu_conv
I0403 15:18:29.859189 31435 net.cpp:425] loss2/relu_conv <- loss2/conv
I0403 15:18:29.859206 31435 net.cpp:386] loss2/relu_conv -> loss2/conv (in-place)
I0403 15:18:29.859484 31435 net.cpp:141] Setting up loss2/relu_conv
I0403 15:18:29.859509 31435 net.cpp:148] Top shape: 24 128 4 4 (49152)
I0403 15:18:29.859524 31435 net.cpp:156] Memory required for data: 1208122656
I0403 15:18:29.859542 31435 layer_factory.hpp:77] Creating layer loss2/fc
I0403 15:18:29.859563 31435 net.cpp:91] Creating Layer loss2/fc
I0403 15:18:29.859583 31435 net.cpp:425] loss2/fc <- loss2/conv
I0403 15:18:29.859601 31435 net.cpp:399] loss2/fc -> loss2/fc
I0403 15:18:29.876726 31435 net.cpp:141] Setting up loss2/fc
I0403 15:18:29.876757 31435 net.cpp:148] Top shape: 24 1024 (24576)
I0403 15:18:29.876780 31435 net.cpp:156] Memory required for data: 1208220960
I0403 15:18:29.876797 31435 layer_factory.hpp:77] Creating layer loss2/relu_fc
I0403 15:18:29.876816 31435 net.cpp:91] Creating Layer loss2/relu_fc
I0403 15:18:29.876832 31435 net.cpp:425] loss2/relu_fc <- loss2/fc
I0403 15:18:29.876849 31435 net.cpp:386] loss2/relu_fc -> loss2/fc (in-place)
I0403 15:18:29.877137 31435 net.cpp:141] Setting up loss2/relu_fc
I0403 15:18:29.877163 31435 net.cpp:148] Top shape: 24 1024 (24576)
I0403 15:18:29.877178 31435 net.cpp:156] Memory required for data: 1208319264
I0403 15:18:29.877193 31435 layer_factory.hpp:77] Creating layer loss2/drop_fc
I0403 15:18:29.877212 31435 net.cpp:91] Creating Layer loss2/drop_fc
I0403 15:18:29.877228 31435 net.cpp:425] loss2/drop_fc <- loss2/fc
I0403 15:18:29.877246 31435 net.cpp:386] loss2/drop_fc -> loss2/fc (in-place)
I0403 15:18:29.877293 31435 net.cpp:141] Setting up loss2/drop_fc
I0403 15:18:29.877321 31435 net.cpp:148] Top shape: 24 1024 (24576)
I0403 15:18:29.877336 31435 net.cpp:156] Memory required for data: 1208417568
I0403 15:18:29.877351 31435 layer_factory.hpp:77] Creating layer loss2/classifier_plantvillage
I0403 15:18:29.877368 31435 net.cpp:91] Creating Layer loss2/classifier_plantvillage
I0403 15:18:29.877383 31435 net.cpp:425] loss2/classifier_plantvillage <- loss2/fc
I0403 15:18:29.877404 31435 net.cpp:399] loss2/classifier_plantvillage -> loss2/classifier_plantvillage
I0403 15:18:29.877800 31435 net.cpp:141] Setting up loss2/classifier_plantvillage
I0403 15:18:29.877833 31435 net.cpp:148] Top shape: 24 38 (912)
I0403 15:18:29.877863 31435 net.cpp:156] Memory required for data: 1208421216
I0403 15:18:29.877882 31435 layer_factory.hpp:77] Creating layer loss2/classifier_plantvillage_loss2/classifier_plantvillage_0_split
I0403 15:18:29.877902 31435 net.cpp:91] Creating Layer loss2/classifier_plantvillage_loss2/classifier_plantvillage_0_split
I0403 15:18:29.877918 31435 net.cpp:425] loss2/classifier_plantvillage_loss2/classifier_plantvillage_0_split <- loss2/classifier_plantvillage
I0403 15:18:29.877935 31435 net.cpp:399] loss2/classifier_plantvillage_loss2/classifier_plantvillage_0_split -> loss2/classifier_plantvillage_loss2/classifier_plantvillage_0_split_0
I0403 15:18:29.877954 31435 net.cpp:399] loss2/classifier_plantvillage_loss2/classifier_plantvillage_0_split -> loss2/classifier_plantvillage_loss2/classifier_plantvillage_0_split_1
I0403 15:18:29.877974 31435 net.cpp:399] loss2/classifier_plantvillage_loss2/classifier_plantvillage_0_split -> loss2/classifier_plantvillage_loss2/classifier_plantvillage_0_split_2
I0403 15:18:29.878051 31435 net.cpp:141] Setting up loss2/classifier_plantvillage_loss2/classifier_plantvillage_0_split
I0403 15:18:29.878074 31435 net.cpp:148] Top shape: 24 38 (912)
I0403 15:18:29.878090 31435 net.cpp:148] Top shape: 24 38 (912)
I0403 15:18:29.878115 31435 net.cpp:148] Top shape: 24 38 (912)
I0403 15:18:29.878129 31435 net.cpp:156] Memory required for data: 1208432160
I0403 15:18:29.878142 31435 layer_factory.hpp:77] Creating layer inception_4e/1x1
I0403 15:18:29.878165 31435 net.cpp:91] Creating Layer inception_4e/1x1
I0403 15:18:29.878181 31435 net.cpp:425] inception_4e/1x1 <- inception_4d/output_inception_4d/output_0_split_1
I0403 15:18:29.878199 31435 net.cpp:399] inception_4e/1x1 -> inception_4e/1x1
I0403 15:18:29.880008 31435 net.cpp:141] Setting up inception_4e/1x1
I0403 15:18:29.880035 31435 net.cpp:148] Top shape: 24 256 14 14 (1204224)
I0403 15:18:29.880050 31435 net.cpp:156] Memory required for data: 1213249056
I0403 15:18:29.880069 31435 layer_factory.hpp:77] Creating layer inception_4e/relu_1x1
I0403 15:18:29.880089 31435 net.cpp:91] Creating Layer inception_4e/relu_1x1
I0403 15:18:29.880105 31435 net.cpp:425] inception_4e/relu_1x1 <- inception_4e/1x1
I0403 15:18:29.880121 31435 net.cpp:386] inception_4e/relu_1x1 -> inception_4e/1x1 (in-place)
I0403 15:18:29.880410 31435 net.cpp:141] Setting up inception_4e/relu_1x1
I0403 15:18:29.880436 31435 net.cpp:148] Top shape: 24 256 14 14 (1204224)
I0403 15:18:29.880450 31435 net.cpp:156] Memory required for data: 1218065952
I0403 15:18:29.880465 31435 layer_factory.hpp:77] Creating layer inception_4e/3x3_reduce
I0403 15:18:29.880486 31435 net.cpp:91] Creating Layer inception_4e/3x3_reduce
I0403 15:18:29.880503 31435 net.cpp:425] inception_4e/3x3_reduce <- inception_4d/output_inception_4d/output_0_split_2
I0403 15:18:29.880523 31435 net.cpp:399] inception_4e/3x3_reduce -> inception_4e/3x3_reduce
I0403 15:18:29.882599 31435 net.cpp:141] Setting up inception_4e/3x3_reduce
I0403 15:18:29.882627 31435 net.cpp:148] Top shape: 24 160 14 14 (752640)
I0403 15:18:29.882642 31435 net.cpp:156] Memory required for data: 1221076512
I0403 15:18:29.882659 31435 layer_factory.hpp:77] Creating layer inception_4e/relu_3x3_reduce
I0403 15:18:29.882680 31435 net.cpp:91] Creating Layer inception_4e/relu_3x3_reduce
I0403 15:18:29.882696 31435 net.cpp:425] inception_4e/relu_3x3_reduce <- inception_4e/3x3_reduce
I0403 15:18:29.882714 31435 net.cpp:386] inception_4e/relu_3x3_reduce -> inception_4e/3x3_reduce (in-place)
I0403 15:18:29.882894 31435 net.cpp:141] Setting up inception_4e/relu_3x3_reduce
I0403 15:18:29.882918 31435 net.cpp:148] Top shape: 24 160 14 14 (752640)
I0403 15:18:29.882936 31435 net.cpp:156] Memory required for data: 1224087072
I0403 15:18:29.882951 31435 layer_factory.hpp:77] Creating layer inception_4e/3x3
I0403 15:18:29.882969 31435 net.cpp:91] Creating Layer inception_4e/3x3
I0403 15:18:29.882985 31435 net.cpp:425] inception_4e/3x3 <- inception_4e/3x3_reduce
I0403 15:18:29.883005 31435 net.cpp:399] inception_4e/3x3 -> inception_4e/3x3
I0403 15:18:29.887908 31435 net.cpp:141] Setting up inception_4e/3x3
I0403 15:18:29.887953 31435 net.cpp:148] Top shape: 24 320 14 14 (1505280)
I0403 15:18:29.887970 31435 net.cpp:156] Memory required for data: 1230108192
I0403 15:18:29.887989 31435 layer_factory.hpp:77] Creating layer inception_4e/relu_3x3
I0403 15:18:29.888007 31435 net.cpp:91] Creating Layer inception_4e/relu_3x3
I0403 15:18:29.888023 31435 net.cpp:425] inception_4e/relu_3x3 <- inception_4e/3x3
I0403 15:18:29.888041 31435 net.cpp:386] inception_4e/relu_3x3 -> inception_4e/3x3 (in-place)
I0403 15:18:29.888339 31435 net.cpp:141] Setting up inception_4e/relu_3x3
I0403 15:18:29.888366 31435 net.cpp:148] Top shape: 24 320 14 14 (1505280)
I0403 15:18:29.888382 31435 net.cpp:156] Memory required for data: 1236129312
I0403 15:18:29.888397 31435 layer_factory.hpp:77] Creating layer inception_4e/5x5_reduce
I0403 15:18:29.888419 31435 net.cpp:91] Creating Layer inception_4e/5x5_reduce
I0403 15:18:29.888437 31435 net.cpp:425] inception_4e/5x5_reduce <- inception_4d/output_inception_4d/output_0_split_3
I0403 15:18:29.888454 31435 net.cpp:399] inception_4e/5x5_reduce -> inception_4e/5x5_reduce
I0403 15:18:29.889529 31435 net.cpp:141] Setting up inception_4e/5x5_reduce
I0403 15:18:29.889572 31435 net.cpp:148] Top shape: 24 32 14 14 (150528)
I0403 15:18:29.889587 31435 net.cpp:156] Memory required for data: 1236731424
I0403 15:18:29.889605 31435 layer_factory.hpp:77] Creating layer inception_4e/relu_5x5_reduce
I0403 15:18:29.889626 31435 net.cpp:91] Creating Layer inception_4e/relu_5x5_reduce
I0403 15:18:29.889642 31435 net.cpp:425] inception_4e/relu_5x5_reduce <- inception_4e/5x5_reduce
I0403 15:18:29.889657 31435 net.cpp:386] inception_4e/relu_5x5_reduce -> inception_4e/5x5_reduce (in-place)
I0403 15:18:29.889951 31435 net.cpp:141] Setting up inception_4e/relu_5x5_reduce
I0403 15:18:29.889977 31435 net.cpp:148] Top shape: 24 32 14 14 (150528)
I0403 15:18:29.889992 31435 net.cpp:156] Memory required for data: 1237333536
I0403 15:18:29.890007 31435 layer_factory.hpp:77] Creating layer inception_4e/5x5
I0403 15:18:29.890044 31435 net.cpp:91] Creating Layer inception_4e/5x5
I0403 15:18:29.890063 31435 net.cpp:425] inception_4e/5x5 <- inception_4e/5x5_reduce
I0403 15:18:29.890081 31435 net.cpp:399] inception_4e/5x5 -> inception_4e/5x5
I0403 15:18:29.891897 31435 net.cpp:141] Setting up inception_4e/5x5
I0403 15:18:29.891927 31435 net.cpp:148] Top shape: 24 128 14 14 (602112)
I0403 15:18:29.891943 31435 net.cpp:156] Memory required for data: 1239741984
I0403 15:18:29.891963 31435 layer_factory.hpp:77] Creating layer inception_4e/relu_5x5
I0403 15:18:29.891979 31435 net.cpp:91] Creating Layer inception_4e/relu_5x5
I0403 15:18:29.891994 31435 net.cpp:425] inception_4e/relu_5x5 <- inception_4e/5x5
I0403 15:18:29.892014 31435 net.cpp:386] inception_4e/relu_5x5 -> inception_4e/5x5 (in-place)
I0403 15:18:29.892206 31435 net.cpp:141] Setting up inception_4e/relu_5x5
I0403 15:18:29.892231 31435 net.cpp:148] Top shape: 24 128 14 14 (602112)
I0403 15:18:29.892246 31435 net.cpp:156] Memory required for data: 1242150432
I0403 15:18:29.892261 31435 layer_factory.hpp:77] Creating layer inception_4e/pool
I0403 15:18:29.892279 31435 net.cpp:91] Creating Layer inception_4e/pool
I0403 15:18:29.892295 31435 net.cpp:425] inception_4e/pool <- inception_4d/output_inception_4d/output_0_split_4
I0403 15:18:29.892313 31435 net.cpp:399] inception_4e/pool -> inception_4e/pool
I0403 15:18:29.892390 31435 net.cpp:141] Setting up inception_4e/pool
I0403 15:18:29.892413 31435 net.cpp:148] Top shape: 24 528 14 14 (2483712)
I0403 15:18:29.892427 31435 net.cpp:156] Memory required for data: 1252085280
I0403 15:18:29.892442 31435 layer_factory.hpp:77] Creating layer inception_4e/pool_proj
I0403 15:18:29.892464 31435 net.cpp:91] Creating Layer inception_4e/pool_proj
I0403 15:18:29.892482 31435 net.cpp:425] inception_4e/pool_proj <- inception_4e/pool
I0403 15:18:29.892501 31435 net.cpp:399] inception_4e/pool_proj -> inception_4e/pool_proj
I0403 15:18:29.893971 31435 net.cpp:141] Setting up inception_4e/pool_proj
I0403 15:18:29.894011 31435 net.cpp:148] Top shape: 24 128 14 14 (602112)
I0403 15:18:29.894028 31435 net.cpp:156] Memory required for data: 1254493728
I0403 15:18:29.894047 31435 layer_factory.hpp:77] Creating layer inception_4e/relu_pool_proj
I0403 15:18:29.894064 31435 net.cpp:91] Creating Layer inception_4e/relu_pool_proj
I0403 15:18:29.894079 31435 net.cpp:425] inception_4e/relu_pool_proj <- inception_4e/pool_proj
I0403 15:18:29.894098 31435 net.cpp:386] inception_4e/relu_pool_proj -> inception_4e/pool_proj (in-place)
I0403 15:18:29.894390 31435 net.cpp:141] Setting up inception_4e/relu_pool_proj
I0403 15:18:29.894418 31435 net.cpp:148] Top shape: 24 128 14 14 (602112)
I0403 15:18:29.894433 31435 net.cpp:156] Memory required for data: 1256902176
I0403 15:18:29.894448 31435 layer_factory.hpp:77] Creating layer inception_4e/output
I0403 15:18:29.894465 31435 net.cpp:91] Creating Layer inception_4e/output
I0403 15:18:29.894480 31435 net.cpp:425] inception_4e/output <- inception_4e/1x1
I0403 15:18:29.894496 31435 net.cpp:425] inception_4e/output <- inception_4e/3x3
I0403 15:18:29.894512 31435 net.cpp:425] inception_4e/output <- inception_4e/5x5
I0403 15:18:29.894527 31435 net.cpp:425] inception_4e/output <- inception_4e/pool_proj
I0403 15:18:29.894557 31435 net.cpp:399] inception_4e/output -> inception_4e/output
I0403 15:18:29.894609 31435 net.cpp:141] Setting up inception_4e/output
I0403 15:18:29.894632 31435 net.cpp:148] Top shape: 24 832 14 14 (3913728)
I0403 15:18:29.894646 31435 net.cpp:156] Memory required for data: 1272557088
I0403 15:18:29.894660 31435 layer_factory.hpp:77] Creating layer pool4/3x3_s2
I0403 15:18:29.894680 31435 net.cpp:91] Creating Layer pool4/3x3_s2
I0403 15:18:29.894696 31435 net.cpp:425] pool4/3x3_s2 <- inception_4e/output
I0403 15:18:29.894714 31435 net.cpp:399] pool4/3x3_s2 -> pool4/3x3_s2
I0403 15:18:29.894779 31435 net.cpp:141] Setting up pool4/3x3_s2
I0403 15:18:29.894803 31435 net.cpp:148] Top shape: 24 832 7 7 (978432)
I0403 15:18:29.894817 31435 net.cpp:156] Memory required for data: 1276470816
I0403 15:18:29.894831 31435 layer_factory.hpp:77] Creating layer pool4/3x3_s2_pool4/3x3_s2_0_split
I0403 15:18:29.894847 31435 net.cpp:91] Creating Layer pool4/3x3_s2_pool4/3x3_s2_0_split
I0403 15:18:29.894862 31435 net.cpp:425] pool4/3x3_s2_pool4/3x3_s2_0_split <- pool4/3x3_s2
I0403 15:18:29.894884 31435 net.cpp:399] pool4/3x3_s2_pool4/3x3_s2_0_split -> pool4/3x3_s2_pool4/3x3_s2_0_split_0
I0403 15:18:29.894904 31435 net.cpp:399] pool4/3x3_s2_pool4/3x3_s2_0_split -> pool4/3x3_s2_pool4/3x3_s2_0_split_1
I0403 15:18:29.894923 31435 net.cpp:399] pool4/3x3_s2_pool4/3x3_s2_0_split -> pool4/3x3_s2_pool4/3x3_s2_0_split_2
I0403 15:18:29.894942 31435 net.cpp:399] pool4/3x3_s2_pool4/3x3_s2_0_split -> pool4/3x3_s2_pool4/3x3_s2_0_split_3
I0403 15:18:29.895030 31435 net.cpp:141] Setting up pool4/3x3_s2_pool4/3x3_s2_0_split
I0403 15:18:29.895053 31435 net.cpp:148] Top shape: 24 832 7 7 (978432)
I0403 15:18:29.895068 31435 net.cpp:148] Top shape: 24 832 7 7 (978432)
I0403 15:18:29.895084 31435 net.cpp:148] Top shape: 24 832 7 7 (978432)
I0403 15:18:29.895098 31435 net.cpp:148] Top shape: 24 832 7 7 (978432)
I0403 15:18:29.895112 31435 net.cpp:156] Memory required for data: 1292125728
I0403 15:18:29.895126 31435 layer_factory.hpp:77] Creating layer inception_5a/1x1
I0403 15:18:29.895148 31435 net.cpp:91] Creating Layer inception_5a/1x1
I0403 15:18:29.895164 31435 net.cpp:425] inception_5a/1x1 <- pool4/3x3_s2_pool4/3x3_s2_0_split_0
I0403 15:18:29.895184 31435 net.cpp:399] inception_5a/1x1 -> inception_5a/1x1
I0403 15:18:29.898005 31435 net.cpp:141] Setting up inception_5a/1x1
I0403 15:18:29.898033 31435 net.cpp:148] Top shape: 24 256 7 7 (301056)
I0403 15:18:29.898048 31435 net.cpp:156] Memory required for data: 1293329952
I0403 15:18:29.898066 31435 layer_factory.hpp:77] Creating layer inception_5a/relu_1x1
I0403 15:18:29.898083 31435 net.cpp:91] Creating Layer inception_5a/relu_1x1
I0403 15:18:29.898098 31435 net.cpp:425] inception_5a/relu_1x1 <- inception_5a/1x1
I0403 15:18:29.898118 31435 net.cpp:386] inception_5a/relu_1x1 -> inception_5a/1x1 (in-place)
I0403 15:18:29.898422 31435 net.cpp:141] Setting up inception_5a/relu_1x1
I0403 15:18:29.898447 31435 net.cpp:148] Top shape: 24 256 7 7 (301056)
I0403 15:18:29.898463 31435 net.cpp:156] Memory required for data: 1294534176
I0403 15:18:29.898476 31435 layer_factory.hpp:77] Creating layer inception_5a/3x3_reduce
I0403 15:18:29.898497 31435 net.cpp:91] Creating Layer inception_5a/3x3_reduce
I0403 15:18:29.898515 31435 net.cpp:425] inception_5a/3x3_reduce <- pool4/3x3_s2_pool4/3x3_s2_0_split_1
I0403 15:18:29.898540 31435 net.cpp:399] inception_5a/3x3_reduce -> inception_5a/3x3_reduce
I0403 15:18:29.900936 31435 net.cpp:141] Setting up inception_5a/3x3_reduce
I0403 15:18:29.900966 31435 net.cpp:148] Top shape: 24 160 7 7 (188160)
I0403 15:18:29.900981 31435 net.cpp:156] Memory required for data: 1295286816
I0403 15:18:29.901000 31435 layer_factory.hpp:77] Creating layer inception_5a/relu_3x3_reduce
I0403 15:18:29.901017 31435 net.cpp:91] Creating Layer inception_5a/relu_3x3_reduce
I0403 15:18:29.901033 31435 net.cpp:425] inception_5a/relu_3x3_reduce <- inception_5a/3x3_reduce
I0403 15:18:29.901052 31435 net.cpp:386] inception_5a/relu_3x3_reduce -> inception_5a/3x3_reduce (in-place)
I0403 15:18:29.901237 31435 net.cpp:141] Setting up inception_5a/relu_3x3_reduce
I0403 15:18:29.901263 31435 net.cpp:148] Top shape: 24 160 7 7 (188160)
I0403 15:18:29.901278 31435 net.cpp:156] Memory required for data: 1296039456
I0403 15:18:29.901291 31435 layer_factory.hpp:77] Creating layer inception_5a/3x3
I0403 15:18:29.901314 31435 net.cpp:91] Creating Layer inception_5a/3x3
I0403 15:18:29.901330 31435 net.cpp:425] inception_5a/3x3 <- inception_5a/3x3_reduce
I0403 15:18:29.901351 31435 net.cpp:399] inception_5a/3x3 -> inception_5a/3x3
I0403 15:18:29.906829 31435 net.cpp:141] Setting up inception_5a/3x3
I0403 15:18:29.906858 31435 net.cpp:148] Top shape: 24 320 7 7 (376320)
I0403 15:18:29.906874 31435 net.cpp:156] Memory required for data: 1297544736
I0403 15:18:29.906893 31435 layer_factory.hpp:77] Creating layer inception_5a/relu_3x3
I0403 15:18:29.906913 31435 net.cpp:91] Creating Layer inception_5a/relu_3x3
I0403 15:18:29.906929 31435 net.cpp:425] inception_5a/relu_3x3 <- inception_5a/3x3
I0403 15:18:29.906952 31435 net.cpp:386] inception_5a/relu_3x3 -> inception_5a/3x3 (in-place)
I0403 15:18:29.907245 31435 net.cpp:141] Setting up inception_5a/relu_3x3
I0403 15:18:29.907271 31435 net.cpp:148] Top shape: 24 320 7 7 (376320)
I0403 15:18:29.907286 31435 net.cpp:156] Memory required for data: 1299050016
I0403 15:18:29.907300 31435 layer_factory.hpp:77] Creating layer inception_5a/5x5_reduce
I0403 15:18:29.907323 31435 net.cpp:91] Creating Layer inception_5a/5x5_reduce
I0403 15:18:29.907341 31435 net.cpp:425] inception_5a/5x5_reduce <- pool4/3x3_s2_pool4/3x3_s2_0_split_2
I0403 15:18:29.907361 31435 net.cpp:399] inception_5a/5x5_reduce -> inception_5a/5x5_reduce
I0403 15:18:29.908520 31435 net.cpp:141] Setting up inception_5a/5x5_reduce
I0403 15:18:29.908552 31435 net.cpp:148] Top shape: 24 32 7 7 (37632)
I0403 15:18:29.908571 31435 net.cpp:156] Memory required for data: 1299200544
I0403 15:18:29.908588 31435 layer_factory.hpp:77] Creating layer inception_5a/relu_5x5_reduce
I0403 15:18:29.908608 31435 net.cpp:91] Creating Layer inception_5a/relu_5x5_reduce
I0403 15:18:29.908624 31435 net.cpp:425] inception_5a/relu_5x5_reduce <- inception_5a/5x5_reduce
I0403 15:18:29.908641 31435 net.cpp:386] inception_5a/relu_5x5_reduce -> inception_5a/5x5_reduce (in-place)
I0403 15:18:29.908934 31435 net.cpp:141] Setting up inception_5a/relu_5x5_reduce
I0403 15:18:29.908959 31435 net.cpp:148] Top shape: 24 32 7 7 (37632)
I0403 15:18:29.908974 31435 net.cpp:156] Memory required for data: 1299351072
I0403 15:18:29.908988 31435 layer_factory.hpp:77] Creating layer inception_5a/5x5
I0403 15:18:29.909010 31435 net.cpp:91] Creating Layer inception_5a/5x5
I0403 15:18:29.909027 31435 net.cpp:425] inception_5a/5x5 <- inception_5a/5x5_reduce
I0403 15:18:29.909047 31435 net.cpp:399] inception_5a/5x5 -> inception_5a/5x5
I0403 15:18:29.910740 31435 net.cpp:141] Setting up inception_5a/5x5
I0403 15:18:29.910781 31435 net.cpp:148] Top shape: 24 128 7 7 (150528)
I0403 15:18:29.910797 31435 net.cpp:156] Memory required for data: 1299953184
I0403 15:18:29.910815 31435 layer_factory.hpp:77] Creating layer inception_5a/relu_5x5
I0403 15:18:29.910835 31435 net.cpp:91] Creating Layer inception_5a/relu_5x5
I0403 15:18:29.910853 31435 net.cpp:425] inception_5a/relu_5x5 <- inception_5a/5x5
I0403 15:18:29.910871 31435 net.cpp:386] inception_5a/relu_5x5 -> inception_5a/5x5 (in-place)
I0403 15:18:29.911061 31435 net.cpp:141] Setting up inception_5a/relu_5x5
I0403 15:18:29.911084 31435 net.cpp:148] Top shape: 24 128 7 7 (150528)
I0403 15:18:29.911098 31435 net.cpp:156] Memory required for data: 1300555296
I0403 15:18:29.911113 31435 layer_factory.hpp:77] Creating layer inception_5a/pool
I0403 15:18:29.911133 31435 net.cpp:91] Creating Layer inception_5a/pool
I0403 15:18:29.911149 31435 net.cpp:425] inception_5a/pool <- pool4/3x3_s2_pool4/3x3_s2_0_split_3
I0403 15:18:29.911166 31435 net.cpp:399] inception_5a/pool -> inception_5a/pool
I0403 15:18:29.911236 31435 net.cpp:141] Setting up inception_5a/pool
I0403 15:18:29.911258 31435 net.cpp:148] Top shape: 24 832 7 7 (978432)
I0403 15:18:29.911273 31435 net.cpp:156] Memory required for data: 1304469024
I0403 15:18:29.911286 31435 layer_factory.hpp:77] Creating layer inception_5a/pool_proj
I0403 15:18:29.911309 31435 net.cpp:91] Creating Layer inception_5a/pool_proj
I0403 15:18:29.911325 31435 net.cpp:425] inception_5a/pool_proj <- inception_5a/pool
I0403 15:18:29.911345 31435 net.cpp:399] inception_5a/pool_proj -> inception_5a/pool_proj
I0403 15:18:29.913590 31435 net.cpp:141] Setting up inception_5a/pool_proj
I0403 15:18:29.913619 31435 net.cpp:148] Top shape: 24 128 7 7 (150528)
I0403 15:18:29.913633 31435 net.cpp:156] Memory required for data: 1305071136
I0403 15:18:29.913651 31435 layer_factory.hpp:77] Creating layer inception_5a/relu_pool_proj
I0403 15:18:29.913669 31435 net.cpp:91] Creating Layer inception_5a/relu_pool_proj
I0403 15:18:29.913686 31435 net.cpp:425] inception_5a/relu_pool_proj <- inception_5a/pool_proj
I0403 15:18:29.913704 31435 net.cpp:386] inception_5a/relu_pool_proj -> inception_5a/pool_proj (in-place)
I0403 15:18:29.913995 31435 net.cpp:141] Setting up inception_5a/relu_pool_proj
I0403 15:18:29.914021 31435 net.cpp:148] Top shape: 24 128 7 7 (150528)
I0403 15:18:29.914036 31435 net.cpp:156] Memory required for data: 1305673248
I0403 15:18:29.914049 31435 layer_factory.hpp:77] Creating layer inception_5a/output
I0403 15:18:29.914067 31435 net.cpp:91] Creating Layer inception_5a/output
I0403 15:18:29.914082 31435 net.cpp:425] inception_5a/output <- inception_5a/1x1
I0403 15:18:29.914098 31435 net.cpp:425] inception_5a/output <- inception_5a/3x3
I0403 15:18:29.914113 31435 net.cpp:425] inception_5a/output <- inception_5a/5x5
I0403 15:18:29.914127 31435 net.cpp:425] inception_5a/output <- inception_5a/pool_proj
I0403 15:18:29.914146 31435 net.cpp:399] inception_5a/output -> inception_5a/output
I0403 15:18:29.914196 31435 net.cpp:141] Setting up inception_5a/output
I0403 15:18:29.914218 31435 net.cpp:148] Top shape: 24 832 7 7 (978432)
I0403 15:18:29.914235 31435 net.cpp:156] Memory required for data: 1309586976
I0403 15:18:29.914249 31435 layer_factory.hpp:77] Creating layer inception_5a/output_inception_5a/output_0_split
I0403 15:18:29.914266 31435 net.cpp:91] Creating Layer inception_5a/output_inception_5a/output_0_split
I0403 15:18:29.914281 31435 net.cpp:425] inception_5a/output_inception_5a/output_0_split <- inception_5a/output
I0403 15:18:29.914299 31435 net.cpp:399] inception_5a/output_inception_5a/output_0_split -> inception_5a/output_inception_5a/output_0_split_0
I0403 15:18:29.914316 31435 net.cpp:399] inception_5a/output_inception_5a/output_0_split -> inception_5a/output_inception_5a/output_0_split_1
I0403 15:18:29.914335 31435 net.cpp:399] inception_5a/output_inception_5a/output_0_split -> inception_5a/output_inception_5a/output_0_split_2
I0403 15:18:29.914356 31435 net.cpp:399] inception_5a/output_inception_5a/output_0_split -> inception_5a/output_inception_5a/output_0_split_3
I0403 15:18:29.914466 31435 net.cpp:141] Setting up inception_5a/output_inception_5a/output_0_split
I0403 15:18:29.914489 31435 net.cpp:148] Top shape: 24 832 7 7 (978432)
I0403 15:18:29.914506 31435 net.cpp:148] Top shape: 24 832 7 7 (978432)
I0403 15:18:29.914521 31435 net.cpp:148] Top shape: 24 832 7 7 (978432)
I0403 15:18:29.914546 31435 net.cpp:148] Top shape: 24 832 7 7 (978432)
I0403 15:18:29.914562 31435 net.cpp:156] Memory required for data: 1325241888
I0403 15:18:29.914579 31435 layer_factory.hpp:77] Creating layer inception_5b/1x1
I0403 15:18:29.914604 31435 net.cpp:91] Creating Layer inception_5b/1x1
I0403 15:18:29.914621 31435 net.cpp:425] inception_5b/1x1 <- inception_5a/output_inception_5a/output_0_split_0
I0403 15:18:29.914641 31435 net.cpp:399] inception_5b/1x1 -> inception_5b/1x1
I0403 15:18:29.918329 31435 net.cpp:141] Setting up inception_5b/1x1
I0403 15:18:29.918360 31435 net.cpp:148] Top shape: 24 384 7 7 (451584)
I0403 15:18:29.918376 31435 net.cpp:156] Memory required for data: 1327048224
I0403 15:18:29.918395 31435 layer_factory.hpp:77] Creating layer inception_5b/relu_1x1
I0403 15:18:29.918412 31435 net.cpp:91] Creating Layer inception_5b/relu_1x1
I0403 15:18:29.918427 31435 net.cpp:425] inception_5b/relu_1x1 <- inception_5b/1x1
I0403 15:18:29.918447 31435 net.cpp:386] inception_5b/relu_1x1 -> inception_5b/1x1 (in-place)
I0403 15:18:29.918753 31435 net.cpp:141] Setting up inception_5b/relu_1x1
I0403 15:18:29.918781 31435 net.cpp:148] Top shape: 24 384 7 7 (451584)
I0403 15:18:29.918797 31435 net.cpp:156] Memory required for data: 1328854560
I0403 15:18:29.918812 31435 layer_factory.hpp:77] Creating layer inception_5b/3x3_reduce
I0403 15:18:29.918833 31435 net.cpp:91] Creating Layer inception_5b/3x3_reduce
I0403 15:18:29.918850 31435 net.cpp:425] inception_5b/3x3_reduce <- inception_5a/output_inception_5a/output_0_split_1
I0403 15:18:29.918869 31435 net.cpp:399] inception_5b/3x3_reduce -> inception_5b/3x3_reduce
I0403 15:18:29.921510 31435 net.cpp:141] Setting up inception_5b/3x3_reduce
I0403 15:18:29.921545 31435 net.cpp:148] Top shape: 24 192 7 7 (225792)
I0403 15:18:29.921562 31435 net.cpp:156] Memory required for data: 1329757728
I0403 15:18:29.921581 31435 layer_factory.hpp:77] Creating layer inception_5b/relu_3x3_reduce
I0403 15:18:29.921599 31435 net.cpp:91] Creating Layer inception_5b/relu_3x3_reduce
I0403 15:18:29.921615 31435 net.cpp:425] inception_5b/relu_3x3_reduce <- inception_5b/3x3_reduce
I0403 15:18:29.921633 31435 net.cpp:386] inception_5b/relu_3x3_reduce -> inception_5b/3x3_reduce (in-place)
I0403 15:18:29.921821 31435 net.cpp:141] Setting up inception_5b/relu_3x3_reduce
I0403 15:18:29.921849 31435 net.cpp:148] Top shape: 24 192 7 7 (225792)
I0403 15:18:29.921867 31435 net.cpp:156] Memory required for data: 1330660896
I0403 15:18:29.921881 31435 layer_factory.hpp:77] Creating layer inception_5b/3x3
I0403 15:18:29.921902 31435 net.cpp:91] Creating Layer inception_5b/3x3
I0403 15:18:29.921919 31435 net.cpp:425] inception_5b/3x3 <- inception_5b/3x3_reduce
I0403 15:18:29.921941 31435 net.cpp:399] inception_5b/3x3 -> inception_5b/3x3
I0403 15:18:29.928486 31435 net.cpp:141] Setting up inception_5b/3x3
I0403 15:18:29.928515 31435 net.cpp:148] Top shape: 24 384 7 7 (451584)
I0403 15:18:29.928532 31435 net.cpp:156] Memory required for data: 1332467232
I0403 15:18:29.928555 31435 layer_factory.hpp:77] Creating layer inception_5b/relu_3x3
I0403 15:18:29.928573 31435 net.cpp:91] Creating Layer inception_5b/relu_3x3
I0403 15:18:29.928589 31435 net.cpp:425] inception_5b/relu_3x3 <- inception_5b/3x3
I0403 15:18:29.928608 31435 net.cpp:386] inception_5b/relu_3x3 -> inception_5b/3x3 (in-place)
I0403 15:18:29.928901 31435 net.cpp:141] Setting up inception_5b/relu_3x3
I0403 15:18:29.928926 31435 net.cpp:148] Top shape: 24 384 7 7 (451584)
I0403 15:18:29.928941 31435 net.cpp:156] Memory required for data: 1334273568
I0403 15:18:29.928956 31435 layer_factory.hpp:77] Creating layer inception_5b/5x5_reduce
I0403 15:18:29.928994 31435 net.cpp:91] Creating Layer inception_5b/5x5_reduce
I0403 15:18:29.929013 31435 net.cpp:425] inception_5b/5x5_reduce <- inception_5a/output_inception_5a/output_0_split_2
I0403 15:18:29.929034 31435 net.cpp:399] inception_5b/5x5_reduce -> inception_5b/5x5_reduce
I0403 15:18:29.930275 31435 net.cpp:141] Setting up inception_5b/5x5_reduce
I0403 15:18:29.930305 31435 net.cpp:148] Top shape: 24 48 7 7 (56448)
I0403 15:18:29.930321 31435 net.cpp:156] Memory required for data: 1334499360
I0403 15:18:29.930340 31435 layer_factory.hpp:77] Creating layer inception_5b/relu_5x5_reduce
I0403 15:18:29.930357 31435 net.cpp:91] Creating Layer inception_5b/relu_5x5_reduce
I0403 15:18:29.930373 31435 net.cpp:425] inception_5b/relu_5x5_reduce <- inception_5b/5x5_reduce
I0403 15:18:29.930392 31435 net.cpp:386] inception_5b/relu_5x5_reduce -> inception_5b/5x5_reduce (in-place)
I0403 15:18:29.930759 31435 net.cpp:141] Setting up inception_5b/relu_5x5_reduce
I0403 15:18:29.930785 31435 net.cpp:148] Top shape: 24 48 7 7 (56448)
I0403 15:18:29.930800 31435 net.cpp:156] Memory required for data: 1334725152
I0403 15:18:29.930814 31435 layer_factory.hpp:77] Creating layer inception_5b/5x5
I0403 15:18:29.930835 31435 net.cpp:91] Creating Layer inception_5b/5x5
I0403 15:18:29.930850 31435 net.cpp:425] inception_5b/5x5 <- inception_5b/5x5_reduce
I0403 15:18:29.930868 31435 net.cpp:399] inception_5b/5x5 -> inception_5b/5x5
I0403 15:18:29.932874 31435 net.cpp:141] Setting up inception_5b/5x5
I0403 15:18:29.932901 31435 net.cpp:148] Top shape: 24 128 7 7 (150528)
I0403 15:18:29.932916 31435 net.cpp:156] Memory required for data: 1335327264
I0403 15:18:29.932935 31435 layer_factory.hpp:77] Creating layer inception_5b/relu_5x5
I0403 15:18:29.932952 31435 net.cpp:91] Creating Layer inception_5b/relu_5x5
I0403 15:18:29.932968 31435 net.cpp:425] inception_5b/relu_5x5 <- inception_5b/5x5
I0403 15:18:29.932987 31435 net.cpp:386] inception_5b/relu_5x5 -> inception_5b/5x5 (in-place)
I0403 15:18:29.933177 31435 net.cpp:141] Setting up inception_5b/relu_5x5
I0403 15:18:29.933202 31435 net.cpp:148] Top shape: 24 128 7 7 (150528)
I0403 15:18:29.933217 31435 net.cpp:156] Memory required for data: 1335929376
I0403 15:18:29.933230 31435 layer_factory.hpp:77] Creating layer inception_5b/pool
I0403 15:18:29.933249 31435 net.cpp:91] Creating Layer inception_5b/pool
I0403 15:18:29.933266 31435 net.cpp:425] inception_5b/pool <- inception_5a/output_inception_5a/output_0_split_3
I0403 15:18:29.933284 31435 net.cpp:399] inception_5b/pool -> inception_5b/pool
I0403 15:18:29.933356 31435 net.cpp:141] Setting up inception_5b/pool
I0403 15:18:29.933378 31435 net.cpp:148] Top shape: 24 832 7 7 (978432)
I0403 15:18:29.933393 31435 net.cpp:156] Memory required for data: 1339843104
I0403 15:18:29.933406 31435 layer_factory.hpp:77] Creating layer inception_5b/pool_proj
I0403 15:18:29.933429 31435 net.cpp:91] Creating Layer inception_5b/pool_proj
I0403 15:18:29.933444 31435 net.cpp:425] inception_5b/pool_proj <- inception_5b/pool
I0403 15:18:29.933465 31435 net.cpp:399] inception_5b/pool_proj -> inception_5b/pool_proj
I0403 15:18:29.935745 31435 net.cpp:141] Setting up inception_5b/pool_proj
I0403 15:18:29.935775 31435 net.cpp:148] Top shape: 24 128 7 7 (150528)
I0403 15:18:29.935792 31435 net.cpp:156] Memory required for data: 1340445216
I0403 15:18:29.935811 31435 layer_factory.hpp:77] Creating layer inception_5b/relu_pool_proj
I0403 15:18:29.935828 31435 net.cpp:91] Creating Layer inception_5b/relu_pool_proj
I0403 15:18:29.935843 31435 net.cpp:425] inception_5b/relu_pool_proj <- inception_5b/pool_proj
I0403 15:18:29.935863 31435 net.cpp:386] inception_5b/relu_pool_proj -> inception_5b/pool_proj (in-place)
I0403 15:18:29.936156 31435 net.cpp:141] Setting up inception_5b/relu_pool_proj
I0403 15:18:29.936184 31435 net.cpp:148] Top shape: 24 128 7 7 (150528)
I0403 15:18:29.936200 31435 net.cpp:156] Memory required for data: 1341047328
I0403 15:18:29.936214 31435 layer_factory.hpp:77] Creating layer inception_5b/output
I0403 15:18:29.936231 31435 net.cpp:91] Creating Layer inception_5b/output
I0403 15:18:29.936261 31435 net.cpp:425] inception_5b/output <- inception_5b/1x1
I0403 15:18:29.936280 31435 net.cpp:425] inception_5b/output <- inception_5b/3x3
I0403 15:18:29.936295 31435 net.cpp:425] inception_5b/output <- inception_5b/5x5
I0403 15:18:29.936311 31435 net.cpp:425] inception_5b/output <- inception_5b/pool_proj
I0403 15:18:29.936329 31435 net.cpp:399] inception_5b/output -> inception_5b/output
I0403 15:18:29.936379 31435 net.cpp:141] Setting up inception_5b/output
I0403 15:18:29.936403 31435 net.cpp:148] Top shape: 24 1024 7 7 (1204224)
I0403 15:18:29.936417 31435 net.cpp:156] Memory required for data: 1345864224
I0403 15:18:29.936431 31435 layer_factory.hpp:77] Creating layer pool5/7x7_s1
I0403 15:18:29.936451 31435 net.cpp:91] Creating Layer pool5/7x7_s1
I0403 15:18:29.936467 31435 net.cpp:425] pool5/7x7_s1 <- inception_5b/output
I0403 15:18:29.936486 31435 net.cpp:399] pool5/7x7_s1 -> pool5/7x7_s1
I0403 15:18:29.936703 31435 net.cpp:141] Setting up pool5/7x7_s1
I0403 15:18:29.936728 31435 net.cpp:148] Top shape: 24 1024 1 1 (24576)
I0403 15:18:29.936743 31435 net.cpp:156] Memory required for data: 1345962528
I0403 15:18:29.936756 31435 layer_factory.hpp:77] Creating layer pool5/drop_7x7_s1
I0403 15:18:29.936774 31435 net.cpp:91] Creating Layer pool5/drop_7x7_s1
I0403 15:18:29.936789 31435 net.cpp:425] pool5/drop_7x7_s1 <- pool5/7x7_s1
I0403 15:18:29.936807 31435 net.cpp:386] pool5/drop_7x7_s1 -> pool5/7x7_s1 (in-place)
I0403 15:18:29.936856 31435 net.cpp:141] Setting up pool5/drop_7x7_s1
I0403 15:18:29.936880 31435 net.cpp:148] Top shape: 24 1024 1 1 (24576)
I0403 15:18:29.936894 31435 net.cpp:156] Memory required for data: 1346060832
I0403 15:18:29.936909 31435 layer_factory.hpp:77] Creating layer loss3/classifier_plantvillage
I0403 15:18:29.936928 31435 net.cpp:91] Creating Layer loss3/classifier_plantvillage
I0403 15:18:29.936944 31435 net.cpp:425] loss3/classifier_plantvillage <- pool5/7x7_s1
I0403 15:18:29.936962 31435 net.cpp:399] loss3/classifier_plantvillage -> loss3/classifier_plantvillage
I0403 15:18:29.937377 31435 net.cpp:141] Setting up loss3/classifier_plantvillage
I0403 15:18:29.937405 31435 net.cpp:148] Top shape: 24 38 (912)
I0403 15:18:29.937420 31435 net.cpp:156] Memory required for data: 1346064480
I0403 15:18:29.937438 31435 layer_factory.hpp:77] Creating layer loss3/classifier_plantvillage_loss3/classifier_plantvillage_0_split
I0403 15:18:29.937455 31435 net.cpp:91] Creating Layer loss3/classifier_plantvillage_loss3/classifier_plantvillage_0_split
I0403 15:18:29.937470 31435 net.cpp:425] loss3/classifier_plantvillage_loss3/classifier_plantvillage_0_split <- loss3/classifier_plantvillage
I0403 15:18:29.937486 31435 net.cpp:399] loss3/classifier_plantvillage_loss3/classifier_plantvillage_0_split -> loss3/classifier_plantvillage_loss3/classifier_plantvillage_0_split_0
I0403 15:18:29.937505 31435 net.cpp:399] loss3/classifier_plantvillage_loss3/classifier_plantvillage_0_split -> loss3/classifier_plantvillage_loss3/classifier_plantvillage_0_split_1
I0403 15:18:29.937527 31435 net.cpp:399] loss3/classifier_plantvillage_loss3/classifier_plantvillage_0_split -> loss3/classifier_plantvillage_loss3/classifier_plantvillage_0_split_2
I0403 15:18:29.937553 31435 net.cpp:399] loss3/classifier_plantvillage_loss3/classifier_plantvillage_0_split -> loss3/classifier_plantvillage_loss3/classifier_plantvillage_0_split_3
I0403 15:18:29.937654 31435 net.cpp:141] Setting up loss3/classifier_plantvillage_loss3/classifier_plantvillage_0_split
I0403 15:18:29.937676 31435 net.cpp:148] Top shape: 24 38 (912)
I0403 15:18:29.937692 31435 net.cpp:148] Top shape: 24 38 (912)
I0403 15:18:29.937706 31435 net.cpp:148] Top shape: 24 38 (912)
I0403 15:18:29.937721 31435 net.cpp:148] Top shape: 24 38 (912)
I0403 15:18:29.937734 31435 net.cpp:156] Memory required for data: 1346079072
I0403 15:18:29.937748 31435 layer_factory.hpp:77] Creating layer loss1/loss
I0403 15:18:29.937770 31435 net.cpp:91] Creating Layer loss1/loss
I0403 15:18:29.937788 31435 net.cpp:425] loss1/loss <- loss1/classifier_plantvillage_loss1/classifier_plantvillage_0_split_0
I0403 15:18:29.937819 31435 net.cpp:425] loss1/loss <- label_data_1_split_0
…
