…
I0403 15:20:42.292562 31501 net.cpp:313] The NetState phase (1) differed from the phase (0) specified by a rule in layer data
I0403 15:20:42.293738 31501 net.cpp:49] Initializing net from parameters: 
state {
  phase: TEST
}
layer {
  name: "data"
  type: "Data"
  top: "data"
  top: "label"
  include {
    phase: TEST
  }
  transform_param {
    mirror: false
    crop_size: 224
    mean_file: "/home/mohanty/data/final_dataset/lmdb/grayscale-80-20/mean.binaryproto"
  }
  data_param {
    source: "/home/mohanty/data/final_dataset/lmdb/grayscale-80-20/test_db"
    batch_size: 24
    backend: LMDB
  }
}
layer {
  name: "conv1/7x7_s2"
  type: "Convolution"
  bottom: "data"
  top: "conv1/7x7_s2"
  param {
    lr_mult: 1
    decay_mult: 1
  }
  param {
    lr_mult: 2
    decay_mult: 0
  }
  convolution_param {
    num_output: 64
    pad: 3
    kernel_size: 7
    stride: 2
    weight_filler {
      type: "xavier"
      std: 0.1
    }
    bias_filler {
      type: "constant"
      value: 0.2
    }
  }
}
layer {
  name: "conv1/relu_7x7"
  type: "ReLU"
  bottom: "conv1/7x7_s2"
  top: "conv1/7x7_s2"
}
layer {
  name: "pool1/3x3_s2"
  type: "Pooling"
  bottom: "conv1/7x7_s2"
  top: "pool1/3x3_s2"
  pooling_param {
    pool: MAX
    kernel_size: 3
    stride: 2
  }
}
layer {
  name: "pool1/norm1"
  type: "LRN"
  bottom: "pool1/3x3_s2"
  top: "pool1/norm1"
  lrn_param {
    local_size: 5
    alpha: 0.0001
    beta: 0.75
  }
}
layer {
  name: "conv2/3x3_reduce"
  type: "Convolution"
  bottom: "pool1/norm1"
  top: "conv2/3x3_reduce"
  param {
    lr_mult: 1
    decay_mult: 1
  }
  param {
    lr_mult: 2
    decay_mult: 0
  }
  convolution_param {
    num_output: 64
    kernel_size: 1
    weight_filler {
      type: "xavier"
      std: 0.1
    }
    bias_filler {
      type: "constant"
      value: 0.2
    }
  }
}
layer {
  name: "conv2/relu_3x3_reduce"
  type: "ReLU"
  bottom: "conv2/3x3_reduce"
  top: "conv2/3x3_reduce"
}
layer {
  name: "conv2/3x3"
  type: "Convolution"
  bottom: "conv2/3x3_reduce"
  top: "conv2/3x3"
  param {
    lr_mult: 1
    decay_mult: 1
  }
  param {
    lr_mult: 2
    decay_mult: 0
  }
  convolution_param {
    num_output: 192
    pad: 1
    kernel_size: 3
    weight_filler {
      type: "xavier"
      std: 0.03
    }
    bias_filler {
      type: "constant"
      value: 0.2
    }
  }
}
layer {
  name: "conv2/relu_3x3"
  type: "ReLU"
  bottom: "conv2/3x3"
  top: "conv2/3x3"
}
layer {
  name: "conv2/norm2"
  type: "LRN"
  bottom: "conv2/3x3"
  top: "conv2/norm2"
  lrn_param {
    local_size: 5
    alpha: 0.0001
    beta: 0.75
  }
}
layer {
  name: "pool2/3x3_s2"
  type: "Pooling"
  bottom: "conv2/norm2"
  top: "pool2/3x3_s2"
  pooling_param {
    pool: MAX
    kernel_size: 3
    stride: 2
  }
}
layer {
  name: "inception_3a/1x1"
  type: "Convolution"
  bottom: "pool2/3x3_s2"
  top: "inception_3a/1x1"
  param {
    lr_mult: 1
    decay_mult: 1
  }
  param {
    lr_mult: 2
    decay_mult: 0
  }
  convolution_param {
    num_output: 64
    kernel_size: 1
    weight_filler {
      type: "xavier"
      std: 0.03
    }
    bias_filler {
      type: "constant"
      value: 0.2
    }
  }
}
layer {
  name: "inception_3a/relu_1x1"
  type: "ReLU"
  bottom: "inception_3a/1x1"
  top: "inception_3a/1x1"
}
layer {
  name: "inception_3a/3x3_reduce"
  type: "Convolution"
  bottom: "pool2/3x3_s2"
  top: "inception_3a/3x3_reduce"
  param {
    lr_mult: 1
    decay_mult: 1
  }
  param {
    lr_mult: 2
    decay_mult: 0
  }
  convolution_param {
    num_output: 96
    kernel_size: 1
    weight_filler {
      type: "xavier"
      std: 0.09
    }
    bias_filler {
      type: "constant"
      value: 0.2
    }
  }
}
layer {
  name: "inception_3a/relu_3x3_reduce"
  type: "ReLU"
  bottom: "inception_3a/3x3_reduce"
  top: "inception_3a/3x3_reduce"
}
layer {
  name: "inception_3a/3x3"
  type: "Convolution"
  bottom: "inception_3a/3x3_reduce"
  top: "inception_3a/3x3"
  param {
    lr_mult: 1
    decay_mult: 1
  }
  param {
    lr_mult: 2
    decay_mult: 0
  }
  convolution_param {
    num_output: 128
    pad: 1
    kernel_size: 3
    weight_filler {
      type: "xavier"
      std: 0.03
    }
    bias_filler {
      type: "constant"
      value: 0.2
    }
  }
}
layer {
  name: "inception_3a/relu_3x3"
  type: "ReLU"
  bottom: "inception_3a/3x3"
  top: "inception_3a/3x3"
}
layer {
  name: "inception_3a/5x5_reduce"
  type: "Convolution"
  bottom: "pool2/3x3_s2"
  top: "inception_3a/5x5_reduce"
  param {
    lr_mult: 1
    decay_mult: 1
  }
  param {
    lr_mult: 2
    decay_mult: 0
  }
  convolution_param {
    num_output: 16
    kernel_size: 1
    weight_filler {
      type: "xavier"
      std: 0.2
    }
    bias_filler {
      type: "constant"
      value: 0.2
    }
  }
}
layer {
  name: "inception_3a/relu_5x5_reduce"
  type: "ReLU"
  bottom: "inception_3a/5x5_reduce"
  top: "inception_3a/5x5_reduce"
}
layer {
  name: "inception_3a/5x5"
  type: "Convolution"
  bottom: "inception_3a/5x5_reduce"
  top: "inception_3a/5x5"
  param {
    lr_mult: 1
    decay_mult: 1
  }
  param {
    lr_mult: 2
    decay_mult: 0
  }
  convolution_param {
    num_output: 32
    pad: 2
    kernel_size: 5
    weight_filler {
      type: "xavier"
      std: 0.03
    }
    bias_filler {
      type: "constant"
      value: 0.2
    }
  }
}
layer {
  name: "inception_3a/relu_5x5"
  type: "ReLU"
  bottom: "inception_3a/5x5"
  top: "inception_3a/5x5"
}
layer {
  name: "inception_3a/pool"
  type: "Pooling"
  bottom: "pool2/3x3_s2"
  top: "inception_3a/pool"
  pooling_param {
    pool: MAX
    kernel_size: 3
    stride: 1
    pad: 1
  }
}
layer {
  name: "inception_3a/pool_proj"
  type: "Convolution"
  bottom: "inception_3a/pool"
  top: "inception_3a/pool_proj"
  param {
    lr_mult: 1
    decay_mult: 1
  }
  param {
    lr_mult: 2
    decay_mult: 0
  }
  convolution_param {
    num_output: 32
    kernel_size: 1
    weight_filler {
      type: "xavier"
      std: 0.1
    }
    bias_filler {
      type: "constant"
      value: 0.2
    }
  }
}
layer {
  name: "inception_3a/relu_pool_proj"
  type: "ReLU"
  bottom: "inception_3a/pool_proj"
  top: "inception_3a/pool_proj"
}
layer {
  name: "inception_3a/output"
  type: "Concat"
  bottom: "inception_3a/1x1"
  bottom: "inception_3a/3x3"
  bottom: "inception_3a/5x5"
  bottom: "inception_3a/pool_proj"
  top: "inception_3a/output"
}
layer {
  name: "inception_3b/1x1"
  type: "Convolution"
  bottom: "inception_3a/output"
  top: "inception_3b/1x1"
  param {
    lr_mult: 1
    decay_mult: 1
  }
  param {
    lr_mult: 2
    decay_mult: 0
  }
  convolution_param {
    num_output: 128
    kernel_size: 1
    weight_filler {
      type: "xavier"
      std: 0.03
    }
    bias_filler {
      type: "constant"
      value: 0.2
    }
  }
}
layer {
  name: "inception_3b/relu_1x1"
  type: "ReLU"
  bottom: "inception_3b/1x1"
  top: "inception_3b/1x1"
}
layer {
  name: "inception_3b/3x3_reduce"
  type: "Convolution"
  bottom: "inception_3a/output"
  top: "inception_3b/3x3_reduce"
  param {
    lr_mult: 1
    decay_mult: 1
  }
  param {
    lr_mult: 2
    decay_mult: 0
  }
  convolution_param {
    num_output: 128
    kernel_size: 1
    weight_filler {
      type: "xavier"
      std: 0.09
    }
    bias_filler {
      type: "constant"
      value: 0.2
    }
  }
}
layer {
  name: "inception_3b/relu_3x3_reduce"
  type: "ReLU"
  bottom: "inception_3b/3x3_reduce"
  top: "inception_3b/3x3_reduce"
}
layer {
  name: "inception_3b/3x3"
  type: "Convolution"
  bottom: "inception_3b/3x3_reduce"
  top: "inception_3b/3x3"
  param {
    lr_mult: 1
    decay_mult: 1
  }
  param {
    lr_mult: 2
    decay_mult: 0
  }
  convolution_param {
    num_output: 192
    pad: 1
    kernel_size: 3
    weight_filler {
      type: "xavier"
      std: 0.03
    }
    bias_filler {
      type: "constant"
      value: 0.2
    }
  }
}
layer {
  name: "inception_3b/relu_3x3"
  type: "ReLU"
  bottom: "inception_3b/3x3"
  top: "inception_3b/3x3"
}
layer {
  name: "inception_3b/5x5_reduce"
  type: "Convolution"
  bottom: "inception_3a/output"
  top: "inception_3b/5x5_reduce"
  param {
    lr_mult: 1
    decay_mult: 1
  }
  param {
    lr_mult: 2
    decay_mult: 0
  }
  convolution_param {
    num_output: 32
    kernel_size: 1
    weight_filler {
      type: "xavier"
      std: 0.2
    }
    bias_filler {
      type: "constant"
      value: 0.2
    }
  }
}
layer {
  name: "inception_3b/relu_5x5_reduce"
  type: "ReLU"
  bottom: "inception_3b/5x5_reduce"
  top: "inception_3b/5x5_reduce"
}
layer {
  name: "inception_3b/5x5"
  type: "Convolution"
  bottom: "inception_3b/5x5_reduce"
  top: "inception_3b/5x5"
  param {
    lr_mult: 1
    decay_mult: 1
  }
  param {
    lr_mult: 2
    decay_mult: 0
  }
  convolution_param {
    num_output: 96
    pad: 2
    kernel_size: 5
    weight_filler {
      type: "xavier"
      std: 0.03
    }
    bias_filler {
      type: "constant"
      value: 0.2
    }
  }
}
layer {
  name: "inception_3b/relu_5x5"
  type: "ReLU"
  bottom: "inception_3b/5x5"
  top: "inception_3b/5x5"
}
layer {
  name: "inception_3b/pool"
  type: "Pooling"
  bottom: "inception_3a/output"
  top: "inception_3b/pool"
  pooling_param {
    pool: MAX
    kernel_size: 3
    stride: 1
    pad: 1
  }
}
layer {
  name: "inception_3b/pool_proj"
  type: "Convolution"
  bottom: "inception_3b/pool"
  top: "inception_3b/pool_proj"
  param {
    lr_mult: 1
    decay_mult: 1
  }
  param {
    lr_mult: 2
    decay_mult: 0
  }
  convolution_param {
    num_output: 64
    kernel_size: 1
    weight_filler {
      type: "xavier"
      std: 0.1
    }
    bias_filler {
      type: "constant"
      value: 0.2
    }
  }
}
layer {
  name: "inception_3b/relu_pool_proj"
  type: "ReLU"
  bottom: "inception_3b/pool_proj"
  top: "inception_3b/pool_proj"
}
layer {
  name: "inception_3b/output"
  type: "Concat"
  bottom: "inception_3b/1x1"
  bottom: "inception_3b/3x3"
  bottom: "inception_3b/5x5"
  bottom: "inception_3b/pool_proj"
  top: "inception_3b/output"
}
layer {
  name: "pool3/3x3_s2"
  type: "Pooling"
  bottom: "inception_3b/output"
  top: "pool3/3x3_s2"
  pooling_param {
    pool: MAX
    kernel_size: 3
    stride: 2
  }
}
layer {
  name: "inception_4a/1x1"
  type: "Convolution"
  bottom: "pool3/3x3_s2"
  top: "inception_4a/1x1"
  param {
    lr_mult: 1
    decay_mult: 1
  }
  param {
    lr_mult: 2
    decay_mult: 0
  }
  convolution_param {
    num_output: 192
    kernel_size: 1
    weight_filler {
      type: "xavier"
      std: 0.03
    }
    bias_filler {
      type: "constant"
      value: 0.2
    }
  }
}
layer {
  name: "inception_4a/relu_1x1"
  type: "ReLU"
  bottom: "inception_4a/1x1"
  top: "inception_4a/1x1"
}
layer {
  name: "inception_4a/3x3_reduce"
  type: "Convolution"
  bottom: "pool3/3x3_s2"
  top: "inception_4a/3x3_reduce"
  param {
    lr_mult: 1
    decay_mult: 1
  }
  param {
    lr_mult: 2
    decay_mult: 0
  }
  convolution_param {
    num_output: 96
    kernel_size: 1
    weight_filler {
      type: "xavier"
      std: 0.09
    }
    bias_filler {
      type: "constant"
      value: 0.2
    }
  }
}
layer {
  name: "inception_4a/relu_3x3_reduce"
  type: "ReLU"
  bottom: "inception_4a/3x3_reduce"
  top: "inception_4a/3x3_reduce"
}
layer {
  name: "inception_4a/3x3"
  type: "Convolution"
  bottom: "inception_4a/3x3_reduce"
  top: "inception_4a/3x3"
  param {
    lr_mult: 1
    decay_mult: 1
  }
  param {
    lr_mult: 2
    decay_mult: 0
  }
  convolution_param {
    num_output: 208
    pad: 1
    kernel_size: 3
    weight_filler {
      type: "xavier"
      std: 0.03
    }
    bias_filler {
      type: "constant"
      value: 0.2
    }
  }
}
layer {
  name: "inception_4a/relu_3x3"
  type: "ReLU"
  bottom: "inception_4a/3x3"
  top: "inception_4a/3x3"
}
layer {
  name: "inception_4a/5x5_reduce"
  type: "Convolution"
  bottom: "pool3/3x3_s2"
  top: "inception_4a/5x5_reduce"
  param {
    lr_mult: 1
    decay_mult: 1
  }
  param {
    lr_mult: 2
    decay_mult: 0
  }
  convolution_param {
    num_output: 16
    kernel_size: 1
    weight_filler {
      type: "xavier"
      std: 0.2
    }
    bias_filler {
      type: "constant"
      value: 0.2
    }
  }
}
layer {
  name: "inception_4a/relu_5x5_reduce"
  type: "ReLU"
  bottom: "inception_4a/5x5_reduce"
  top: "inception_4a/5x5_reduce"
}
layer {
  name: "inception_4a/5x5"
  type: "Convolution"
  bottom: "inception_4a/5x5_reduce"
  top: "inception_4a/5x5"
  param {
    lr_mult: 1
    decay_mult: 1
  }
  param {
    lr_mult: 2
    decay_mult: 0
  }
  convolution_param {
    num_output: 48
    pad: 2
    kernel_size: 5
    weight_filler {
      type: "xavier"
      std: 0.03
    }
    bias_filler {
      type: "constant"
      value: 0.2
    }
  }
}
layer {
  name: "inception_4a/relu_5x5"
  type: "ReLU"
  bottom: "inception_4a/5x5"
  top: "inception_4a/5x5"
}
layer {
  name: "inception_4a/pool"
  type: "Pooling"
  bottom: "pool3/3x3_s2"
  top: "inception_4a/pool"
  pooling_param {
    pool: MAX
    kernel_size: 3
    stride: 1
    pad: 1
  }
}
layer {
  name: "inception_4a/pool_proj"
  type: "Convolution"
  bottom: "inception_4a/pool"
  top: "inception_4a/pool_proj"
  param {
    lr_mult: 1
    decay_mult: 1
  }
  param {
    lr_mult: 2
    decay_mult: 0
  }
  convolution_param {
    num_output: 64
    kernel_size: 1
    weight_filler {
      type: "xavier"
      std: 0.1
    }
    bias_filler {
      type: "constant"
      value: 0.2
    }
  }
}
layer {
  name: "inception_4a/relu_pool_proj"
  type: "ReLU"
  bottom: "inception_4a/pool_proj"
  top: "inception_4a/pool_proj"
}
layer {
  name: "inception_4a/output"
  type: "Concat"
  bottom: "inception_4a/1x1"
  bottom: "inception_4a/3x3"
  bottom: "inception_4a/5x5"
  bottom: "inception_4a/pool_proj"
  top: "inception_4a/output"
}
layer {
  name: "loss1/ave_pool"
  type: "Pooling"
  bottom: "inception_4a/output"
  top: "loss1/ave_pool"
  pooling_param {
    pool: AVE
    kernel_size: 5
    stride: 3
  }
}
layer {
  name: "loss1/conv"
  type: "Convolution"
  bottom: "loss1/ave_pool"
  top: "loss1/conv"
  param {
    lr_mult: 1
    decay_mult: 1
  }
  param {
    lr_mult: 2
    decay_mult: 0
  }
  convolution_param {
    num_output: 128
    kernel_size: 1
    weight_filler {
      type: "xavier"
      std: 0.08
    }
    bias_filler {
      type: "constant"
      value: 0.2
    }
  }
}
layer {
  name: "loss1/relu_conv"
  type: "ReLU"
  bottom: "loss1/conv"
  top: "loss1/conv"
}
layer {
  name: "loss1/fc"
  type: "InnerProduct"
  bottom: "loss1/conv"
  top: "loss1/fc"
  param {
    lr_mult: 1
    decay_mult: 1
  }
  param {
    lr_mult: 2
    decay_mult: 0
  }
  inner_product_param {
    num_output: 1024
    weight_filler {
      type: "xavier"
      std: 0.02
    }
    bias_filler {
      type: "constant"
      value: 0.2
    }
  }
}
layer {
  name: "loss1/relu_fc"
  type: "ReLU"
  bottom: "loss1/fc"
  top: "loss1/fc"
}
layer {
  name: "loss1/drop_fc"
  type: "Dropout"
  bottom: "loss1/fc"
  top: "loss1/fc"
  dropout_param {
    dropout_ratio: 0.7
  }
}
layer {
  name: "loss1/classifier_plantvillage"
  type: "InnerProduct"
  bottom: "loss1/fc"
  top: "loss1/classifier_plantvillage"
  param {
    lr_mult: 1
    decay_mult: 1
  }
  param {
    lr_mult: 2
    decay_mult: 0
  }
  inner_product_param {
    num_output: 38
    weight_filler {
      type: "xavier"
      std: 0.0009765625
    }
    bias_filler {
      type: "constant"
      value: 0
    }
  }
}
layer {
  name: "inception_4b/1x1"
  type: "Convolution"
  bottom: "inception_4a/output"
  top: "inception_4b/1x1"
  param {
    lr_mult: 1
    decay_mult: 1
  }
  param {
    lr_mult: 2
    decay_mult: 0
  }
  convolution_param {
    num_output: 160
    kernel_size: 1
    weight_filler {
      type: "xavier"
      std: 0.03
    }
    bias_filler {
      type: "constant"
      value: 0.2
    }
  }
}
layer {
  name: "inception_4b/relu_1x1"
  type: "ReLU"
  bottom: "inception_4b/1x1"
  top: "inception_4b/1x1"
}
layer {
  name: "inception_4b/3x3_reduce"
  type: "Convolution"
  bottom: "inception_4a/output"
  top: "inception_4b/3x3_reduce"
  param {
    lr_mult: 1
    decay_mult: 1
  }
  param {
    lr_mult: 2
    decay_mult: 0
  }
  convolution_param {
    num_output: 112
    kernel_size: 1
    weight_filler {
      type: "xavier"
      std: 0.09
    }
    bias_filler {
      type: "constant"
      value: 0.2
    }
  }
}
layer {
  name: "inception_4b/relu_3x3_reduce"
  type: "ReLU"
  bottom: "inception_4b/3x3_reduce"
  top: "inception_4b/3x3_reduce"
}
layer {
  name: "inception_4b/3x3"
  type: "Convolution"
  bottom: "inception_4b/3x3_reduce"
  top: "inception_4b/3x3"
  param {
    lr_mult: 1
    decay_mult: 1
  }
  param {
    lr_mult: 2
    decay_mult: 0
  }
  convolution_param {
    num_output: 224
    pad: 1
    kernel_size: 3
    weight_filler {
      type: "xavier"
      std: 0.03
    }
    bias_filler {
      type: "constant"
      value: 0.2
    }
  }
}
layer {
  name: "inception_4b/relu_3x3"
  type: "ReLU"
  bottom: "inception_4b/3x3"
  top: "inception_4b/3x3"
}
layer {
  name: "inception_4b/5x5_reduce"
  type: "Convolution"
  bottom: "inception_4a/output"
  top: "inception_4b/5x5_reduce"
  param {
    lr_mult: 1
    decay_mult: 1
  }
  param {
    lr_mult: 2
    decay_mult: 0
  }
  convolution_param {
    num_output: 24
    kernel_size: 1
    weight_filler {
      type: "xavier"
      std: 0.2
    }
    bias_filler {
      type: "constant"
      value: 0.2
    }
  }
}
layer {
  name: "inception_4b/relu_5x5_reduce"
  type: "ReLU"
  bottom: "inception_4b/5x5_reduce"
  top: "inception_4b/5x5_reduce"
}
layer {
  name: "inception_4b/5x5"
  type: "Convolution"
  bottom: "inception_4b/5x5_reduce"
  top: "inception_4b/5x5"
  param {
    lr_mult: 1
    decay_mult: 1
  }
  param {
    lr_mult: 2
    decay_mult: 0
  }
  convolution_param {
    num_output: 64
    pad: 2
    kernel_size: 5
    weight_filler {
      type: "xavier"
      std: 0.03
    }
    bias_filler {
      type: "constant"
      value: 0.2
    }
  }
}
layer {
  name: "inception_4b/relu_5x5"
  type: "ReLU"
  bottom: "inception_4b/5x5"
  top: "inception_4b/5x5"
}
layer {
  name: "inception_4b/pool"
  type: "Pooling"
  bottom: "inception_4a/output"
  top: "inception_4b/pool"
  pooling_param {
    pool: MAX
    kernel_size: 3
    stride: 1
    pad: 1
  }
}
layer {
  name: "inception_4b/pool_proj"
  type: "Convolution"
  bottom: "inception_4b/pool"
  top: "inception_4b/pool_proj"
  param {
    lr_mult: 1
    decay_mult: 1
  }
  param {
    lr_mult: 2
    decay_mult: 0
  }
  convolution_param {
    num_output: 64
    kernel_size: 1
    weight_filler {
      type: "xavier"
      std: 0.1
    }
    bias_filler {
      type: "constant"
      value: 0.2
    }
  }
}
layer {
  name: "inception_4b/relu_pool_proj"
  type: "ReLU"
  bottom: "inception_4b/pool_proj"
  top: "inception_4b/pool_proj"
}
layer {
  name: "inception_4b/output"
  type: "Concat"
  bottom: "inception_4b/1x1"
  bottom: "inception_4b/3x3"
  bottom: "inception_4b/5x5"
  bottom: "inception_4b/pool_proj"
  top: "inception_4b/output"
}
layer {
  name: "inception_4c/1x1"
  type: "Convolution"
  bottom: "inception_4b/output"
  top: "inception_4c/1x1"
  param {
    lr_mult: 1
    decay_mult: 1
  }
  param {
    lr_mult: 2
    decay_mult: 0
  }
  convolution_param {
    num_output: 128
    kernel_size: 1
    weight_filler {
      type: "xavier"
      std: 0.03
    }
    bias_filler {
      type: "constant"
      value: 0.2
    }
  }
}
layer {
  name: "inception_4c/relu_1x1"
  type: "ReLU"
  bottom: "inception_4c/1x1"
  top: "inception_4c/1x1"
}
layer {
  name: "inception_4c/3x3_reduce"
  type: "Convolution"
  bottom: "inception_4b/output"
  top: "inception_4c/3x3_reduce"
  param {
    lr_mult: 1
    decay_mult: 1
  }
  param {
    lr_mult: 2
    decay_mult: 0
  }
  convolution_param {
    num_output: 128
    kernel_size: 1
    weight_filler {
      type: "xavier"
      std: 0.09
    }
    bias_filler {
      type: "constant"
      value: 0.2
    }
  }
}
layer {
  name: "inception_4c/relu_3x3_reduce"
  type: "ReLU"
  bottom: "inception_4c/3x3_reduce"
  top: "inception_4c/3x3_reduce"
}
layer {
  name: "inception_4c/3x3"
  type: "Convolution"
  bottom: "inception_4c/3x3_reduce"
  top: "inception_4c/3x3"
  param {
    lr_mult: 1
    decay_mult: 1
  }
  param {
    lr_mult: 2
    decay_mult: 0
  }
  convolution_param {
    num_output: 256
    pad: 1
    kernel_size: 3
    weight_filler {
      type: "xavier"
      std: 0.03
    }
    bias_filler {
      type: "constant"
      value: 0.2
    }
  }
}
layer {
  name: "inception_4c/relu_3x3"
  type: "ReLU"
  bottom: "inception_4c/3x3"
  top: "inception_4c/3x3"
}
layer {
  name: "inception_4c/5x5_reduce"
  type: "Convolution"
  bottom: "inception_4b/output"
  top: "inception_4c/5x5_reduce"
  param {
    lr_mult: 1
    decay_mult: 1
  }
  param {
    lr_mult: 2
    decay_mult: 0
  }
  convolution_param {
    num_output: 24
    kernel_size: 1
    weight_filler {
      type: "xavier"
      std: 0.2
    }
    bias_filler {
      type: "constant"
      value: 0.2
    }
  }
}
layer {
  name: "inception_4c/relu_5x5_reduce"
  type: "ReLU"
  bottom: "inception_4c/5x5_reduce"
  top: "inception_4c/5x5_reduce"
}
layer {
  name: "inception_4c/5x5"
  type: "Convolution"
  bottom: "inception_4c/5x5_reduce"
  top: "inception_4c/5x5"
  param {
    lr_mult: 1
    decay_mult: 1
  }
  param {
    lr_mult: 2
    decay_mult: 0
  }
  convolution_param {
    num_output: 64
    pad: 2
    kernel_size: 5
    weight_filler {
      type: "xavier"
      std: 0.03
    }
    bias_filler {
      type: "constant"
      value: 0.2
    }
  }
}
layer {
  name: "inception_4c/relu_5x5"
  type: "ReLU"
  bottom: "inception_4c/5x5"
  top: "inception_4c/5x5"
}
layer {
  name: "inception_4c/pool"
  type: "Pooling"
  bottom: "inception_4b/output"
  top: "inception_4c/pool"
  pooling_param {
    pool: MAX
    kernel_size: 3
    stride: 1
    pad: 1
  }
}
layer {
  name: "inception_4c/pool_proj"
  type: "Convolution"
  bottom: "inception_4c/pool"
  top: "inception_4c/pool_proj"
  param {
    lr_mult: 1
    decay_mult: 1
  }
  param {
    lr_mult: 2
    decay_mult: 0
  }
  convolution_param {
    num_output: 64
    kernel_size: 1
    weight_filler {
      type: "xavier"
      std: 0.1
    }
    bias_filler {
      type: "constant"
      value: 0.2
    }
  }
}
layer {
  name: "inception_4c/relu_pool_proj"
  type: "ReLU"
  bottom: "inception_4c/pool_proj"
  top: "inception_4c/pool_proj"
}
layer {
  name: "inception_4c/output"
  type: "Concat"
  bottom: "inception_4c/1x1"
  bottom: "inception_4c/3x3"
  bottom: "inception_4c/5x5"
  bottom: "inception_4c/pool_proj"
  top: "inception_4c/output"
}
layer {
  name: "inception_4d/1x1"
  type: "Convolution"
  bottom: "inception_4c/output"
  top: "inception_4d/1x1"
  param {
    lr_mult: 1
    decay_mult: 1
  }
  param {
    lr_mult: 2
    decay_mult: 0
  }
  convolution_param {
    num_output: 112
    kernel_size: 1
    weight_filler {
      type: "xavier"
      std: 0.03
    }
    bias_filler {
      type: "constant"
      value: 0.2
    }
  }
}
layer {
  name: "inception_4d/relu_1x1"
  type: "ReLU"
  bottom: "inception_4d/1x1"
  top: "inception_4d/1x1"
}
layer {
  name: "inception_4d/3x3_reduce"
  type: "Convolution"
  bottom: "inception_4c/output"
  top: "inception_4d/3x3_reduce"
  param {
    lr_mult: 1
    decay_mult: 1
  }
  param {
    lr_mult: 2
    decay_mult: 0
  }
  convolution_param {
    num_output: 144
    kernel_size: 1
    weight_filler {
      type: "xavier"
      std: 0.09
    }
    bias_filler {
      type: "constant"
      value: 0.2
    }
  }
}
layer {
  name: "inception_4d/relu_3x3_reduce"
  type: "ReLU"
  bottom: "inception_4d/3x3_reduce"
  top: "inception_4d/3x3_reduce"
}
layer {
  name: "inception_4d/3x3"
  type: "Convolution"
  bottom: "inception_4d/3x3_reduce"
  top: "inception_4d/3x3"
  param {
    lr_mult: 1
    decay_mult: 1
  }
  param {
    lr_mult: 2
    decay_mult: 0
  }
  convolution_param {
    num_output: 288
    pad: 1
    kernel_size: 3
    weight_filler {
      type: "xavier"
      std: 0.03
    }
    bias_filler {
      type: "constant"
      value: 0.2
    }
  }
}
layer {
  name: "inception_4d/relu_3x3"
  type: "ReLU"
  bottom: "inception_4d/3x3"
  top: "inception_4d/3x3"
}
layer {
  name: "inception_4d/5x5_reduce"
  type: "Convolution"
  bottom: "inception_4c/output"
  top: "inception_4d/5x5_reduce"
  param {
    lr_mult: 1
    decay_mult: 1
  }
  param {
    lr_mult: 2
    decay_mult: 0
  }
  convolution_param {
    num_output: 32
    kernel_size: 1
    weight_filler {
      type: "xavier"
      std: 0.2
    }
    bias_filler {
      type: "constant"
      value: 0.2
    }
  }
}
layer {
  name: "inception_4d/relu_5x5_reduce"
  type: "ReLU"
  bottom: "inception_4d/5x5_reduce"
  top: "inception_4d/5x5_reduce"
}
layer {
  name: "inception_4d/5x5"
  type: "Convolution"
  bottom: "inception_4d/5x5_reduce"
  top: "inception_4d/5x5"
  param {
    lr_mult: 1
    decay_mult: 1
  }
  param {
    lr_mult: 2
    decay_mult: 0
  }
  convolution_param {
    num_output: 64
    pad: 2
    kernel_size: 5
    weight_filler {
      type: "xavier"
      std: 0.03
    }
    bias_filler {
      type: "constant"
      value: 0.2
    }
  }
}
layer {
  name: "inception_4d/relu_5x5"
  type: "ReLU"
  bottom: "inception_4d/5x5"
  top: "inception_4d/5x5"
}
layer {
  name: "inception_4d/pool"
  type: "Pooling"
  bottom: "inception_4c/output"
  top: "inception_4d/pool"
  pooling_param {
    pool: MAX
    kernel_size: 3
    stride: 1
    pad: 1
  }
}
layer {
  name: "inception_4d/pool_proj"
  type: "Convolution"
  bottom: "inception_4d/pool"
  top: "inception_4d/pool_proj"
  param {
    lr_mult: 1
    decay_mult: 1
  }
  param {
    lr_mult: 2
    decay_mult: 0
  }
  convolution_param {
    num_output: 64
    kernel_size: 1
    weight_filler {
      type: "xavier"
      std: 0.1
    }
    bias_filler {
      type: "constant"
      value: 0.2
    }
  }
}
layer {
  name: "inception_4d/relu_pool_proj"
  type: "ReLU"
  bottom: "inception_4d/pool_proj"
  top: "inception_4d/pool_proj"
}
layer {
  name: "inception_4d/output"
  type: "Concat"
  bottom: "inception_4d/1x1"
  bottom: "inception_4d/3x3"
  bottom: "inception_4d/5x5"
  bottom: "inception_4d/pool_proj"
  top: "inception_4d/output"
}
layer {
  name: "loss2/ave_pool"
  type: "Pooling"
  bottom: "inception_4d/output"
  top: "loss2/ave_pool"
  pooling_param {
    pool: AVE
    kernel_size: 5
    stride: 3
  }
}
layer {
  name: "loss2/conv"
  type: "Convolution"
  bottom: "loss2/ave_pool"
  top: "loss2/conv"
  param {
    lr_mult: 1
    decay_mult: 1
  }
  param {
    lr_mult: 2
    decay_mult: 0
  }
  convolution_param {
    num_output: 128
    kernel_size: 1
    weight_filler {
      type: "xavier"
      std: 0.08
    }
    bias_filler {
      type: "constant"
      value: 0.2
    }
  }
}
layer {
  name: "loss2/relu_conv"
  type: "ReLU"
  bottom: "loss2/conv"
  top: "loss2/conv"
}
layer {
  name: "loss2/fc"
  type: "InnerProduct"
  bottom: "loss2/conv"
  top: "loss2/fc"
  param {
    lr_mult: 1
    decay_mult: 1
  }
  param {
    lr_mult: 2
    decay_mult: 0
  }
  inner_product_param {
    num_output: 1024
    weight_filler {
      type: "xavier"
      std: 0.02
    }
    bias_filler {
      type: "constant"
      value: 0.2
    }
  }
}
layer {
  name: "loss2/relu_fc"
  type: "ReLU"
  bottom: "loss2/fc"
  top: "loss2/fc"
}
layer {
  name: "loss2/drop_fc"
  type: "Dropout"
  bottom: "loss2/fc"
  top: "loss2/fc"
  dropout_param {
    dropout_ratio: 0.7
  }
}
layer {
  name: "loss2/classifier_plantvillage"
  type: "InnerProduct"
  bottom: "loss2/fc"
  top: "loss2/classifier_plantvillage"
  param {
    lr_mult: 1
    decay_mult: 1
  }
  param {
    lr_mult: 2
    decay_mult: 0
  }
  inner_product_param {
    num_output: 38
    weight_filler {
      type: "xavier"
      std: 0.0009765625
    }
    bias_filler {
      type: "constant"
      value: 0
    }
  }
}
layer {
  name: "inception_4e/1x1"
  type: "Convolution"
  bottom: "inception_4d/output"
  top: "inception_4e/1x1"
  param {
    lr_mult: 1
    decay_mult: 1
  }
  param {
    lr_mult: 2
    decay_mult: 0
  }
  convolution_param {
    num_output: 256
    kernel_size: 1
    weight_filler {
      type: "xavier"
      std: 0.03
    }
    bias_filler {
      type: "constant"
      value: 0.2
    }
  }
}
layer {
  name: "inception_4e/relu_1x1"
  type: "ReLU"
  bottom: "inception_4e/1x1"
  top: "inception_4e/1x1"
}
layer {
  name: "inception_4e/3x3_reduce"
  type: "Convolution"
  bottom: "inception_4d/output"
  top: "inception_4e/3x3_reduce"
  param {
    lr_mult: 1
    decay_mult: 1
  }
  param {
    lr_mult: 2
    decay_mult: 0
  }
  convolution_param {
    num_output: 160
    kernel_size: 1
    weight_filler {
      type: "xavier"
      std: 0.09
    }
    bias_filler {
      type: "constant"
      value: 0.2
    }
  }
}
layer {
  name: "inception_4e/relu_3x3_reduce"
  type: "ReLU"
  bottom: "inception_4e/3x3_reduce"
  top: "inception_4e/3x3_reduce"
}
layer {
  name: "inception_4e/3x3"
  type: "Convolution"
  bottom: "inception_4e/3x3_reduce"
  top: "inception_4e/3x3"
  param {
    lr_mult: 1
    decay_mult: 1
  }
  param {
    lr_mult: 2
    decay_mult: 0
  }
  convolution_param {
    num_output: 320
    pad: 1
    kernel_size: 3
    weight_filler {
      type: "xavier"
      std: 0.03
    }
    bias_filler {
      type: "constant"
      value: 0.2
    }
  }
}
layer {
  name: "inception_4e/relu_3x3"
  type: "ReLU"
  bottom: "inception_4e/3x3"
  top: "inception_4e/3x3"
}
layer {
  name: "inception_4e/5x5_reduce"
  type: "Convolution"
  bottom: "inception_4d/output"
  top: "inception_4e/5x5_reduce"
  param {
    lr_mult: 1
    decay_mult: 1
  }
  param {
    lr_mult: 2
    decay_mult: 0
  }
  convolution_param {
    num_output: 32
    kernel_size: 1
    weight_filler {
      type: "xavier"
      std: 0.2
    }
    bias_filler {
      type: "constant"
      value: 0.2
    }
  }
}
layer {
  name: "inception_4e/relu_5x5_reduce"
  type: "ReLU"
  bottom: "inception_4e/5x5_reduce"
  top: "inception_4e/5x5_reduce"
}
layer {
  name: "inception_4e/5x5"
  type: "Convolution"
  bottom: "inception_4e/5x5_reduce"
  top: "inception_4e/
I0403 15:20:42.295064 31501 layer_factory.hpp:77] Creating layer data
I0403 15:20:42.295706 31501 net.cpp:91] Creating Layer data
I0403 15:20:42.295738 31501 net.cpp:399] data -> data
I0403 15:20:42.295796 31501 net.cpp:399] data -> label
I0403 15:20:42.295837 31501 data_transformer.cpp:25] Loading mean file from: /home/mohanty/data/final_dataset/lmdb/grayscale-80-20/mean.binaryproto
I0403 15:20:42.310758 31507 db_lmdb.cpp:38] Opened lmdb /home/mohanty/data/final_dataset/lmdb/grayscale-80-20/test_db
I0403 15:20:42.316038 31501 data_layer.cpp:41] output data size: 24,3,224,224
I0403 15:20:42.343719 31501 net.cpp:141] Setting up data
I0403 15:20:42.343799 31501 net.cpp:148] Top shape: 24 3 224 224 (3612672)
I0403 15:20:42.343822 31501 net.cpp:148] Top shape: 24 (24)
I0403 15:20:42.343840 31501 net.cpp:156] Memory required for data: 14450784
I0403 15:20:42.343868 31501 layer_factory.hpp:77] Creating layer label_data_1_split
I0403 15:20:42.343896 31501 net.cpp:91] Creating Layer label_data_1_split
I0403 15:20:42.343914 31501 net.cpp:425] label_data_1_split <- label
I0403 15:20:42.343945 31501 net.cpp:399] label_data_1_split -> label_data_1_split_0
I0403 15:20:42.343973 31501 net.cpp:399] label_data_1_split -> label_data_1_split_1
I0403 15:20:42.343994 31501 net.cpp:399] label_data_1_split -> label_data_1_split_2
I0403 15:20:42.344015 31501 net.cpp:399] label_data_1_split -> label_data_1_split_3
I0403 15:20:42.344034 31501 net.cpp:399] label_data_1_split -> label_data_1_split_4
I0403 15:20:42.344054 31501 net.cpp:399] label_data_1_split -> label_data_1_split_5
I0403 15:20:42.344074 31501 net.cpp:399] label_data_1_split -> label_data_1_split_6
I0403 15:20:42.344095 31501 net.cpp:399] label_data_1_split -> label_data_1_split_7
I0403 15:20:42.344115 31501 net.cpp:399] label_data_1_split -> label_data_1_split_8
I0403 15:20:42.344136 31501 net.cpp:399] label_data_1_split -> label_data_1_split_9
I0403 15:20:42.344255 31501 net.cpp:141] Setting up label_data_1_split
I0403 15:20:42.344280 31501 net.cpp:148] Top shape: 24 (24)
I0403 15:20:42.344296 31501 net.cpp:148] Top shape: 24 (24)
I0403 15:20:42.344316 31501 net.cpp:148] Top shape: 24 (24)
I0403 15:20:42.344333 31501 net.cpp:148] Top shape: 24 (24)
I0403 15:20:42.344350 31501 net.cpp:148] Top shape: 24 (24)
I0403 15:20:42.344367 31501 net.cpp:148] Top shape: 24 (24)
I0403 15:20:42.344383 31501 net.cpp:148] Top shape: 24 (24)
I0403 15:20:42.344398 31501 net.cpp:148] Top shape: 24 (24)
I0403 15:20:42.344415 31501 net.cpp:148] Top shape: 24 (24)
I0403 15:20:42.344432 31501 net.cpp:148] Top shape: 24 (24)
I0403 15:20:42.344472 31501 net.cpp:156] Memory required for data: 14451744
I0403 15:20:42.344490 31501 layer_factory.hpp:77] Creating layer conv1/7x7_s2
I0403 15:20:42.344527 31501 net.cpp:91] Creating Layer conv1/7x7_s2
I0403 15:20:42.344545 31501 net.cpp:425] conv1/7x7_s2 <- data
I0403 15:20:42.344565 31501 net.cpp:399] conv1/7x7_s2 -> conv1/7x7_s2
I0403 15:20:42.485088 31501 net.cpp:141] Setting up conv1/7x7_s2
I0403 15:20:42.485188 31501 net.cpp:148] Top shape: 24 64 112 112 (19267584)
I0403 15:20:42.485206 31501 net.cpp:156] Memory required for data: 91522080
I0403 15:20:42.485242 31501 layer_factory.hpp:77] Creating layer conv1/relu_7x7
I0403 15:20:42.485272 31501 net.cpp:91] Creating Layer conv1/relu_7x7
I0403 15:20:42.485292 31501 net.cpp:425] conv1/relu_7x7 <- conv1/7x7_s2
I0403 15:20:42.485321 31501 net.cpp:386] conv1/relu_7x7 -> conv1/7x7_s2 (in-place)
I0403 15:20:42.485626 31501 net.cpp:141] Setting up conv1/relu_7x7
I0403 15:20:42.485657 31501 net.cpp:148] Top shape: 24 64 112 112 (19267584)
I0403 15:20:42.485676 31501 net.cpp:156] Memory required for data: 168592416
I0403 15:20:42.485692 31501 layer_factory.hpp:77] Creating layer pool1/3x3_s2
I0403 15:20:42.485721 31501 net.cpp:91] Creating Layer pool1/3x3_s2
I0403 15:20:42.485740 31501 net.cpp:425] pool1/3x3_s2 <- conv1/7x7_s2
I0403 15:20:42.485765 31501 net.cpp:399] pool1/3x3_s2 -> pool1/3x3_s2
I0403 15:20:42.485855 31501 net.cpp:141] Setting up pool1/3x3_s2
I0403 15:20:42.485882 31501 net.cpp:148] Top shape: 24 64 56 56 (4816896)
I0403 15:20:42.485898 31501 net.cpp:156] Memory required for data: 187860000
I0403 15:20:42.485913 31501 layer_factory.hpp:77] Creating layer pool1/norm1
I0403 15:20:42.485942 31501 net.cpp:91] Creating Layer pool1/norm1
I0403 15:20:42.485961 31501 net.cpp:425] pool1/norm1 <- pool1/3x3_s2
I0403 15:20:42.485980 31501 net.cpp:399] pool1/norm1 -> pool1/norm1
I0403 15:20:42.486340 31501 net.cpp:141] Setting up pool1/norm1
I0403 15:20:42.486368 31501 net.cpp:148] Top shape: 24 64 56 56 (4816896)
I0403 15:20:42.486385 31501 net.cpp:156] Memory required for data: 207127584
I0403 15:20:42.486402 31501 layer_factory.hpp:77] Creating layer conv2/3x3_reduce
I0403 15:20:42.486433 31501 net.cpp:91] Creating Layer conv2/3x3_reduce
I0403 15:20:42.486451 31501 net.cpp:425] conv2/3x3_reduce <- pool1/norm1
I0403 15:20:42.486476 31501 net.cpp:399] conv2/3x3_reduce -> conv2/3x3_reduce
I0403 15:20:42.487984 31501 net.cpp:141] Setting up conv2/3x3_reduce
I0403 15:20:42.488076 31501 net.cpp:148] Top shape: 24 64 56 56 (4816896)
I0403 15:20:42.488098 31501 net.cpp:156] Memory required for data: 226395168
I0403 15:20:42.488122 31501 layer_factory.hpp:77] Creating layer conv2/relu_3x3_reduce
I0403 15:20:42.488142 31501 net.cpp:91] Creating Layer conv2/relu_3x3_reduce
I0403 15:20:42.488158 31501 net.cpp:425] conv2/relu_3x3_reduce <- conv2/3x3_reduce
I0403 15:20:42.488176 31501 net.cpp:386] conv2/relu_3x3_reduce -> conv2/3x3_reduce (in-place)
I0403 15:20:42.488467 31501 net.cpp:141] Setting up conv2/relu_3x3_reduce
I0403 15:20:42.488498 31501 net.cpp:148] Top shape: 24 64 56 56 (4816896)
I0403 15:20:42.488514 31501 net.cpp:156] Memory required for data: 245662752
I0403 15:20:42.488531 31501 layer_factory.hpp:77] Creating layer conv2/3x3
I0403 15:20:42.488566 31501 net.cpp:91] Creating Layer conv2/3x3
I0403 15:20:42.488586 31501 net.cpp:425] conv2/3x3 <- conv2/3x3_reduce
I0403 15:20:42.488615 31501 net.cpp:399] conv2/3x3 -> conv2/3x3
I0403 15:20:42.491097 31501 net.cpp:141] Setting up conv2/3x3
I0403 15:20:42.491132 31501 net.cpp:148] Top shape: 24 192 56 56 (14450688)
I0403 15:20:42.491150 31501 net.cpp:156] Memory required for data: 303465504
I0403 15:20:42.491173 31501 layer_factory.hpp:77] Creating layer conv2/relu_3x3
I0403 15:20:42.491194 31501 net.cpp:91] Creating Layer conv2/relu_3x3
I0403 15:20:42.491210 31501 net.cpp:425] conv2/relu_3x3 <- conv2/3x3
I0403 15:20:42.491232 31501 net.cpp:386] conv2/relu_3x3 -> conv2/3x3 (in-place)
I0403 15:20:42.491452 31501 net.cpp:141] Setting up conv2/relu_3x3
I0403 15:20:42.491479 31501 net.cpp:148] Top shape: 24 192 56 56 (14450688)
I0403 15:20:42.491541 31501 net.cpp:156] Memory required for data: 361268256
I0403 15:20:42.491559 31501 layer_factory.hpp:77] Creating layer conv2/norm2
I0403 15:20:42.491583 31501 net.cpp:91] Creating Layer conv2/norm2
I0403 15:20:42.491601 31501 net.cpp:425] conv2/norm2 <- conv2/3x3
I0403 15:20:42.491621 31501 net.cpp:399] conv2/norm2 -> conv2/norm2
I0403 15:20:42.491945 31501 net.cpp:141] Setting up conv2/norm2
I0403 15:20:42.491976 31501 net.cpp:148] Top shape: 24 192 56 56 (14450688)
I0403 15:20:42.491993 31501 net.cpp:156] Memory required for data: 419071008
I0403 15:20:42.492009 31501 layer_factory.hpp:77] Creating layer pool2/3x3_s2
I0403 15:20:42.492027 31501 net.cpp:91] Creating Layer pool2/3x3_s2
I0403 15:20:42.492044 31501 net.cpp:425] pool2/3x3_s2 <- conv2/norm2
I0403 15:20:42.492063 31501 net.cpp:399] pool2/3x3_s2 -> pool2/3x3_s2
I0403 15:20:42.492136 31501 net.cpp:141] Setting up pool2/3x3_s2
I0403 15:20:42.492162 31501 net.cpp:148] Top shape: 24 192 28 28 (3612672)
I0403 15:20:42.492178 31501 net.cpp:156] Memory required for data: 433521696
I0403 15:20:42.492194 31501 layer_factory.hpp:77] Creating layer pool2/3x3_s2_pool2/3x3_s2_0_split
I0403 15:20:42.492214 31501 net.cpp:91] Creating Layer pool2/3x3_s2_pool2/3x3_s2_0_split
I0403 15:20:42.492233 31501 net.cpp:425] pool2/3x3_s2_pool2/3x3_s2_0_split <- pool2/3x3_s2
I0403 15:20:42.492254 31501 net.cpp:399] pool2/3x3_s2_pool2/3x3_s2_0_split -> pool2/3x3_s2_pool2/3x3_s2_0_split_0
I0403 15:20:42.492277 31501 net.cpp:399] pool2/3x3_s2_pool2/3x3_s2_0_split -> pool2/3x3_s2_pool2/3x3_s2_0_split_1
I0403 15:20:42.492300 31501 net.cpp:399] pool2/3x3_s2_pool2/3x3_s2_0_split -> pool2/3x3_s2_pool2/3x3_s2_0_split_2
I0403 15:20:42.492321 31501 net.cpp:399] pool2/3x3_s2_pool2/3x3_s2_0_split -> pool2/3x3_s2_pool2/3x3_s2_0_split_3
I0403 15:20:42.492400 31501 net.cpp:141] Setting up pool2/3x3_s2_pool2/3x3_s2_0_split
I0403 15:20:42.492424 31501 net.cpp:148] Top shape: 24 192 28 28 (3612672)
I0403 15:20:42.492442 31501 net.cpp:148] Top shape: 24 192 28 28 (3612672)
I0403 15:20:42.492458 31501 net.cpp:148] Top shape: 24 192 28 28 (3612672)
I0403 15:20:42.492475 31501 net.cpp:148] Top shape: 24 192 28 28 (3612672)
I0403 15:20:42.492489 31501 net.cpp:156] Memory required for data: 491324448
I0403 15:20:42.492506 31501 layer_factory.hpp:77] Creating layer inception_3a/1x1
I0403 15:20:42.492529 31501 net.cpp:91] Creating Layer inception_3a/1x1
I0403 15:20:42.492552 31501 net.cpp:425] inception_3a/1x1 <- pool2/3x3_s2_pool2/3x3_s2_0_split_0
I0403 15:20:42.492578 31501 net.cpp:399] inception_3a/1x1 -> inception_3a/1x1
I0403 15:20:42.494267 31501 net.cpp:141] Setting up inception_3a/1x1
I0403 15:20:42.494302 31501 net.cpp:148] Top shape: 24 64 28 28 (1204224)
I0403 15:20:42.494319 31501 net.cpp:156] Memory required for data: 496141344
I0403 15:20:42.494339 31501 layer_factory.hpp:77] Creating layer inception_3a/relu_1x1
I0403 15:20:42.494359 31501 net.cpp:91] Creating Layer inception_3a/relu_1x1
I0403 15:20:42.494377 31501 net.cpp:425] inception_3a/relu_1x1 <- inception_3a/1x1
I0403 15:20:42.494398 31501 net.cpp:386] inception_3a/relu_1x1 -> inception_3a/1x1 (in-place)
I0403 15:20:42.494597 31501 net.cpp:141] Setting up inception_3a/relu_1x1
I0403 15:20:42.494629 31501 net.cpp:148] Top shape: 24 64 28 28 (1204224)
I0403 15:20:42.494647 31501 net.cpp:156] Memory required for data: 500958240
I0403 15:20:42.494664 31501 layer_factory.hpp:77] Creating layer inception_3a/3x3_reduce
I0403 15:20:42.494691 31501 net.cpp:91] Creating Layer inception_3a/3x3_reduce
I0403 15:20:42.494714 31501 net.cpp:425] inception_3a/3x3_reduce <- pool2/3x3_s2_pool2/3x3_s2_0_split_1
I0403 15:20:42.494738 31501 net.cpp:399] inception_3a/3x3_reduce -> inception_3a/3x3_reduce
I0403 15:20:42.496606 31501 net.cpp:141] Setting up inception_3a/3x3_reduce
I0403 15:20:42.496641 31501 net.cpp:148] Top shape: 24 96 28 28 (1806336)
I0403 15:20:42.496660 31501 net.cpp:156] Memory required for data: 508183584
I0403 15:20:42.496682 31501 layer_factory.hpp:77] Creating layer inception_3a/relu_3x3_reduce
I0403 15:20:42.496721 31501 net.cpp:91] Creating Layer inception_3a/relu_3x3_reduce
I0403 15:20:42.496740 31501 net.cpp:425] inception_3a/relu_3x3_reduce <- inception_3a/3x3_reduce
I0403 15:20:42.496762 31501 net.cpp:386] inception_3a/relu_3x3_reduce -> inception_3a/3x3_reduce (in-place)
I0403 15:20:42.496964 31501 net.cpp:141] Setting up inception_3a/relu_3x3_reduce
I0403 15:20:42.496992 31501 net.cpp:148] Top shape: 24 96 28 28 (1806336)
I0403 15:20:42.497009 31501 net.cpp:156] Memory required for data: 515408928
I0403 15:20:42.497025 31501 layer_factory.hpp:77] Creating layer inception_3a/3x3
I0403 15:20:42.497047 31501 net.cpp:91] Creating Layer inception_3a/3x3
I0403 15:20:42.497066 31501 net.cpp:425] inception_3a/3x3 <- inception_3a/3x3_reduce
I0403 15:20:42.497087 31501 net.cpp:399] inception_3a/3x3 -> inception_3a/3x3
I0403 15:20:42.498837 31501 net.cpp:141] Setting up inception_3a/3x3
I0403 15:20:42.498872 31501 net.cpp:148] Top shape: 24 128 28 28 (2408448)
I0403 15:20:42.498890 31501 net.cpp:156] Memory required for data: 525042720
I0403 15:20:42.498910 31501 layer_factory.hpp:77] Creating layer inception_3a/relu_3x3
I0403 15:20:42.498932 31501 net.cpp:91] Creating Layer inception_3a/relu_3x3
I0403 15:20:42.498950 31501 net.cpp:425] inception_3a/relu_3x3 <- inception_3a/3x3
I0403 15:20:42.498972 31501 net.cpp:386] inception_3a/relu_3x3 -> inception_3a/3x3 (in-place)
I0403 15:20:42.499263 31501 net.cpp:141] Setting up inception_3a/relu_3x3
I0403 15:20:42.499292 31501 net.cpp:148] Top shape: 24 128 28 28 (2408448)
I0403 15:20:42.499311 31501 net.cpp:156] Memory required for data: 534676512
I0403 15:20:42.499327 31501 layer_factory.hpp:77] Creating layer inception_3a/5x5_reduce
I0403 15:20:42.499351 31501 net.cpp:91] Creating Layer inception_3a/5x5_reduce
I0403 15:20:42.499369 31501 net.cpp:425] inception_3a/5x5_reduce <- pool2/3x3_s2_pool2/3x3_s2_0_split_2
I0403 15:20:42.499392 31501 net.cpp:399] inception_3a/5x5_reduce -> inception_3a/5x5_reduce
I0403 15:20:42.500416 31501 net.cpp:141] Setting up inception_3a/5x5_reduce
I0403 15:20:42.500445 31501 net.cpp:148] Top shape: 24 16 28 28 (301056)
I0403 15:20:42.500461 31501 net.cpp:156] Memory required for data: 535880736
I0403 15:20:42.500481 31501 layer_factory.hpp:77] Creating layer inception_3a/relu_5x5_reduce
I0403 15:20:42.500504 31501 net.cpp:91] Creating Layer inception_3a/relu_5x5_reduce
I0403 15:20:42.500521 31501 net.cpp:425] inception_3a/relu_5x5_reduce <- inception_3a/5x5_reduce
I0403 15:20:42.500545 31501 net.cpp:386] inception_3a/relu_5x5_reduce -> inception_3a/5x5_reduce (in-place)
I0403 15:20:42.500860 31501 net.cpp:141] Setting up inception_3a/relu_5x5_reduce
I0403 15:20:42.500888 31501 net.cpp:148] Top shape: 24 16 28 28 (301056)
I0403 15:20:42.500903 31501 net.cpp:156] Memory required for data: 537084960
I0403 15:20:42.500919 31501 layer_factory.hpp:77] Creating layer inception_3a/5x5
I0403 15:20:42.500943 31501 net.cpp:91] Creating Layer inception_3a/5x5
I0403 15:20:42.500962 31501 net.cpp:425] inception_3a/5x5 <- inception_3a/5x5_reduce
I0403 15:20:42.500985 31501 net.cpp:399] inception_3a/5x5 -> inception_3a/5x5
I0403 15:20:42.502075 31501 net.cpp:141] Setting up inception_3a/5x5
I0403 15:20:42.502107 31501 net.cpp:148] Top shape: 24 32 28 28 (602112)
I0403 15:20:42.502125 31501 net.cpp:156] Memory required for data: 539493408
I0403 15:20:42.502146 31501 layer_factory.hpp:77] Creating layer inception_3a/relu_5x5
I0403 15:20:42.502166 31501 net.cpp:91] Creating Layer inception_3a/relu_5x5
I0403 15:20:42.502182 31501 net.cpp:425] inception_3a/relu_5x5 <- inception_3a/5x5
I0403 15:20:42.502203 31501 net.cpp:386] inception_3a/relu_5x5 -> inception_3a/5x5 (in-place)
I0403 15:20:42.502393 31501 net.cpp:141] Setting up inception_3a/relu_5x5
I0403 15:20:42.502432 31501 net.cpp:148] Top shape: 24 32 28 28 (602112)
I0403 15:20:42.502473 31501 net.cpp:156] Memory required for data: 541901856
I0403 15:20:42.502493 31501 layer_factory.hpp:77] Creating layer inception_3a/pool
I0403 15:20:42.502514 31501 net.cpp:91] Creating Layer inception_3a/pool
I0403 15:20:42.502550 31501 net.cpp:425] inception_3a/pool <- pool2/3x3_s2_pool2/3x3_s2_0_split_3
I0403 15:20:42.502573 31501 net.cpp:399] inception_3a/pool -> inception_3a/pool
I0403 15:20:42.502635 31501 net.cpp:141] Setting up inception_3a/pool
I0403 15:20:42.502660 31501 net.cpp:148] Top shape: 24 192 28 28 (3612672)
I0403 15:20:42.502676 31501 net.cpp:156] Memory required for data: 556352544
I0403 15:20:42.502691 31501 layer_factory.hpp:77] Creating layer inception_3a/pool_proj
I0403 15:20:42.502719 31501 net.cpp:91] Creating Layer inception_3a/pool_proj
I0403 15:20:42.502739 31501 net.cpp:425] inception_3a/pool_proj <- inception_3a/pool
I0403 15:20:42.502760 31501 net.cpp:399] inception_3a/pool_proj -> inception_3a/pool_proj
I0403 15:20:42.503850 31501 net.cpp:141] Setting up inception_3a/pool_proj
I0403 15:20:42.503878 31501 net.cpp:148] Top shape: 24 32 28 28 (602112)
I0403 15:20:42.503895 31501 net.cpp:156] Memory required for data: 558760992
I0403 15:20:42.503918 31501 layer_factory.hpp:77] Creating layer inception_3a/relu_pool_proj
I0403 15:20:42.503940 31501 net.cpp:91] Creating Layer inception_3a/relu_pool_proj
I0403 15:20:42.503957 31501 net.cpp:425] inception_3a/relu_pool_proj <- inception_3a/pool_proj
I0403 15:20:42.503976 31501 net.cpp:386] inception_3a/relu_pool_proj -> inception_3a/pool_proj (in-place)
I0403 15:20:42.504256 31501 net.cpp:141] Setting up inception_3a/relu_pool_proj
I0403 15:20:42.504286 31501 net.cpp:148] Top shape: 24 32 28 28 (602112)
I0403 15:20:42.504302 31501 net.cpp:156] Memory required for data: 561169440
I0403 15:20:42.504317 31501 layer_factory.hpp:77] Creating layer inception_3a/output
I0403 15:20:42.504335 31501 net.cpp:91] Creating Layer inception_3a/output
I0403 15:20:42.504351 31501 net.cpp:425] inception_3a/output <- inception_3a/1x1
I0403 15:20:42.504369 31501 net.cpp:425] inception_3a/output <- inception_3a/3x3
I0403 15:20:42.504386 31501 net.cpp:425] inception_3a/output <- inception_3a/5x5
I0403 15:20:42.504402 31501 net.cpp:425] inception_3a/output <- inception_3a/pool_proj
I0403 15:20:42.504421 31501 net.cpp:399] inception_3a/output -> inception_3a/output
I0403 15:20:42.504470 31501 net.cpp:141] Setting up inception_3a/output
I0403 15:20:42.504493 31501 net.cpp:148] Top shape: 24 256 28 28 (4816896)
I0403 15:20:42.504509 31501 net.cpp:156] Memory required for data: 580437024
I0403 15:20:42.504524 31501 layer_factory.hpp:77] Creating layer inception_3a/output_inception_3a/output_0_split
I0403 15:20:42.504556 31501 net.cpp:91] Creating Layer inception_3a/output_inception_3a/output_0_split
I0403 15:20:42.504576 31501 net.cpp:425] inception_3a/output_inception_3a/output_0_split <- inception_3a/output
I0403 15:20:42.504595 31501 net.cpp:399] inception_3a/output_inception_3a/output_0_split -> inception_3a/output_inception_3a/output_0_split_0
I0403 15:20:42.504619 31501 net.cpp:399] inception_3a/output_inception_3a/output_0_split -> inception_3a/output_inception_3a/output_0_split_1
I0403 15:20:42.504643 31501 net.cpp:399] inception_3a/output_inception_3a/output_0_split -> inception_3a/output_inception_3a/output_0_split_2
I0403 15:20:42.504665 31501 net.cpp:399] inception_3a/output_inception_3a/output_0_split -> inception_3a/output_inception_3a/output_0_split_3
I0403 15:20:42.504740 31501 net.cpp:141] Setting up inception_3a/output_inception_3a/output_0_split
I0403 15:20:42.504765 31501 net.cpp:148] Top shape: 24 256 28 28 (4816896)
I0403 15:20:42.504783 31501 net.cpp:148] Top shape: 24 256 28 28 (4816896)
I0403 15:20:42.504809 31501 net.cpp:148] Top shape: 24 256 28 28 (4816896)
I0403 15:20:42.504825 31501 net.cpp:148] Top shape: 24 256 28 28 (4816896)
I0403 15:20:42.504839 31501 net.cpp:156] Memory required for data: 657507360
I0403 15:20:42.504854 31501 layer_factory.hpp:77] Creating layer inception_3b/1x1
I0403 15:20:42.504878 31501 net.cpp:91] Creating Layer inception_3b/1x1
I0403 15:20:42.504896 31501 net.cpp:425] inception_3b/1x1 <- inception_3a/output_inception_3a/output_0_split_0
I0403 15:20:42.504916 31501 net.cpp:399] inception_3b/1x1 -> inception_3b/1x1
I0403 15:20:42.506139 31501 net.cpp:141] Setting up inception_3b/1x1
I0403 15:20:42.506186 31501 net.cpp:148] Top shape: 24 128 28 28 (2408448)
I0403 15:20:42.506204 31501 net.cpp:156] Memory required for data: 667141152
I0403 15:20:42.506223 31501 layer_factory.hpp:77] Creating layer inception_3b/relu_1x1
I0403 15:20:42.506242 31501 net.cpp:91] Creating Layer inception_3b/relu_1x1
I0403 15:20:42.506271 31501 net.cpp:425] inception_3b/relu_1x1 <- inception_3b/1x1
I0403 15:20:42.506294 31501 net.cpp:386] inception_3b/relu_1x1 -> inception_3b/1x1 (in-place)
I0403 15:20:42.506505 31501 net.cpp:141] Setting up inception_3b/relu_1x1
I0403 15:20:42.506536 31501 net.cpp:148] Top shape: 24 128 28 28 (2408448)
I0403 15:20:42.506553 31501 net.cpp:156] Memory required for data: 676774944
I0403 15:20:42.506570 31501 layer_factory.hpp:77] Creating layer inception_3b/3x3_reduce
I0403 15:20:42.506594 31501 net.cpp:91] Creating Layer inception_3b/3x3_reduce
I0403 15:20:42.506613 31501 net.cpp:425] inception_3b/3x3_reduce <- inception_3a/output_inception_3a/output_0_split_1
I0403 15:20:42.506635 31501 net.cpp:399] inception_3b/3x3_reduce -> inception_3b/3x3_reduce
I0403 15:20:42.507848 31501 net.cpp:141] Setting up inception_3b/3x3_reduce
I0403 15:20:42.507877 31501 net.cpp:148] Top shape: 24 128 28 28 (2408448)
I0403 15:20:42.507894 31501 net.cpp:156] Memory required for data: 686408736
I0403 15:20:42.507915 31501 layer_factory.hpp:77] Creating layer inception_3b/relu_3x3_reduce
I0403 15:20:42.507935 31501 net.cpp:91] Creating Layer inception_3b/relu_3x3_reduce
I0403 15:20:42.507951 31501 net.cpp:425] inception_3b/relu_3x3_reduce <- inception_3b/3x3_reduce
I0403 15:20:42.507969 31501 net.cpp:386] inception_3b/relu_3x3_reduce -> inception_3b/3x3_reduce (in-place)
I0403 15:20:42.508155 31501 net.cpp:141] Setting up inception_3b/relu_3x3_reduce
I0403 15:20:42.508200 31501 net.cpp:148] Top shape: 24 128 28 28 (2408448)
I0403 15:20:42.508239 31501 net.cpp:156] Memory required for data: 696042528
I0403 15:20:42.508273 31501 layer_factory.hpp:77] Creating layer inception_3b/3x3
I0403 15:20:42.508301 31501 net.cpp:91] Creating Layer inception_3b/3x3
I0403 15:20:42.508321 31501 net.cpp:425] inception_3b/3x3 <- inception_3b/3x3_reduce
I0403 15:20:42.508340 31501 net.cpp:399] inception_3b/3x3 -> inception_3b/3x3
I0403 15:20:42.511358 31501 net.cpp:141] Setting up inception_3b/3x3
I0403 15:20:42.511390 31501 net.cpp:148] Top shape: 24 192 28 28 (3612672)
I0403 15:20:42.511406 31501 net.cpp:156] Memory required for data: 710493216
I0403 15:20:42.511425 31501 layer_factory.hpp:77] Creating layer inception_3b/relu_3x3
I0403 15:20:42.511443 31501 net.cpp:91] Creating Layer inception_3b/relu_3x3
I0403 15:20:42.511459 31501 net.cpp:425] inception_3b/relu_3x3 <- inception_3b/3x3
I0403 15:20:42.511479 31501 net.cpp:386] inception_3b/relu_3x3 -> inception_3b/3x3 (in-place)
I0403 15:20:42.511773 31501 net.cpp:141] Setting up inception_3b/relu_3x3
I0403 15:20:42.511802 31501 net.cpp:148] Top shape: 24 192 28 28 (3612672)
I0403 15:20:42.511818 31501 net.cpp:156] Memory required for data: 724943904
I0403 15:20:42.511833 31501 layer_factory.hpp:77] Creating layer inception_3b/5x5_reduce
I0403 15:20:42.511857 31501 net.cpp:91] Creating Layer inception_3b/5x5_reduce
I0403 15:20:42.511874 31501 net.cpp:425] inception_3b/5x5_reduce <- inception_3a/output_inception_3a/output_0_split_2
I0403 15:20:42.511895 31501 net.cpp:399] inception_3b/5x5_reduce -> inception_3b/5x5_reduce
I0403 15:20:42.512977 31501 net.cpp:141] Setting up inception_3b/5x5_reduce
I0403 15:20:42.513031 31501 net.cpp:148] Top shape: 24 32 28 28 (602112)
I0403 15:20:42.513056 31501 net.cpp:156] Memory required for data: 727352352
I0403 15:20:42.513082 31501 layer_factory.hpp:77] Creating layer inception_3b/relu_5x5_reduce
I0403 15:20:42.513125 31501 net.cpp:91] Creating Layer inception_3b/relu_5x5_reduce
I0403 15:20:42.513166 31501 net.cpp:425] inception_3b/relu_5x5_reduce <- inception_3b/5x5_reduce
I0403 15:20:42.513206 31501 net.cpp:386] inception_3b/relu_5x5_reduce -> inception_3b/5x5_reduce (in-place)
I0403 15:20:42.513401 31501 net.cpp:141] Setting up inception_3b/relu_5x5_reduce
I0403 15:20:42.513425 31501 net.cpp:148] Top shape: 24 32 28 28 (602112)
I0403 15:20:42.513440 31501 net.cpp:156] Memory required for data: 729760800
I0403 15:20:42.513455 31501 layer_factory.hpp:77] Creating layer inception_3b/5x5
I0403 15:20:42.513478 31501 net.cpp:91] Creating Layer inception_3b/5x5
I0403 15:20:42.513494 31501 net.cpp:425] inception_3b/5x5 <- inception_3b/5x5_reduce
I0403 15:20:42.513516 31501 net.cpp:399] inception_3b/5x5 -> inception_3b/5x5
I0403 15:20:42.515493 31501 net.cpp:141] Setting up inception_3b/5x5
I0403 15:20:42.515522 31501 net.cpp:148] Top shape: 24 96 28 28 (1806336)
I0403 15:20:42.515552 31501 net.cpp:156] Memory required for data: 736986144
I0403 15:20:42.515573 31501 layer_factory.hpp:77] Creating layer inception_3b/relu_5x5
I0403 15:20:42.515593 31501 net.cpp:91] Creating Layer inception_3b/relu_5x5
I0403 15:20:42.515610 31501 net.cpp:425] inception_3b/relu_5x5 <- inception_3b/5x5
I0403 15:20:42.515627 31501 net.cpp:386] inception_3b/relu_5x5 -> inception_3b/5x5 (in-place)
I0403 15:20:42.515822 31501 net.cpp:141] Setting up inception_3b/relu_5x5
I0403 15:20:42.515857 31501 net.cpp:148] Top shape: 24 96 28 28 (1806336)
I0403 15:20:42.515882 31501 net.cpp:156] Memory required for data: 744211488
I0403 15:20:42.515918 31501 layer_factory.hpp:77] Creating layer inception_3b/pool
I0403 15:20:42.515954 31501 net.cpp:91] Creating Layer inception_3b/pool
I0403 15:20:42.515970 31501 net.cpp:425] inception_3b/pool <- inception_3a/output_inception_3a/output_0_split_3
I0403 15:20:42.515990 31501 net.cpp:399] inception_3b/pool -> inception_3b/pool
I0403 15:20:42.516047 31501 net.cpp:141] Setting up inception_3b/pool
I0403 15:20:42.516069 31501 net.cpp:148] Top shape: 24 256 28 28 (4816896)
I0403 15:20:42.516083 31501 net.cpp:156] Memory required for data: 763479072
I0403 15:20:42.516098 31501 layer_factory.hpp:77] Creating layer inception_3b/pool_proj
I0403 15:20:42.516122 31501 net.cpp:91] Creating Layer inception_3b/pool_proj
I0403 15:20:42.516165 31501 net.cpp:425] inception_3b/pool_proj <- inception_3b/pool
I0403 15:20:42.516211 31501 net.cpp:399] inception_3b/pool_proj -> inception_3b/pool_proj
I0403 15:20:42.517292 31501 net.cpp:141] Setting up inception_3b/pool_proj
I0403 15:20:42.517319 31501 net.cpp:148] Top shape: 24 64 28 28 (1204224)
I0403 15:20:42.517334 31501 net.cpp:156] Memory required for data: 768295968
I0403 15:20:42.517354 31501 layer_factory.hpp:77] Creating layer inception_3b/relu_pool_proj
I0403 15:20:42.517374 31501 net.cpp:91] Creating Layer inception_3b/relu_pool_proj
I0403 15:20:42.517391 31501 net.cpp:425] inception_3b/relu_pool_proj <- inception_3b/pool_proj
I0403 15:20:42.517410 31501 net.cpp:386] inception_3b/relu_pool_proj -> inception_3b/pool_proj (in-place)
I0403 15:20:42.517904 31501 net.cpp:141] Setting up inception_3b/relu_pool_proj
I0403 15:20:42.517937 31501 net.cpp:148] Top shape: 24 64 28 28 (1204224)
I0403 15:20:42.517954 31501 net.cpp:156] Memory required for data: 773112864
I0403 15:20:42.517987 31501 layer_factory.hpp:77] Creating layer inception_3b/output
I0403 15:20:42.518021 31501 net.cpp:91] Creating Layer inception_3b/output
I0403 15:20:42.518046 31501 net.cpp:425] inception_3b/output <- inception_3b/1x1
I0403 15:20:42.518088 31501 net.cpp:425] inception_3b/output <- inception_3b/3x3
I0403 15:20:42.518126 31501 net.cpp:425] inception_3b/output <- inception_3b/5x5
I0403 15:20:42.518168 31501 net.cpp:425] inception_3b/output <- inception_3b/pool_proj
I0403 15:20:42.518213 31501 net.cpp:399] inception_3b/output -> inception_3b/output
I0403 15:20:42.518270 31501 net.cpp:141] Setting up inception_3b/output
I0403 15:20:42.518296 31501 net.cpp:148] Top shape: 24 480 28 28 (9031680)
I0403 15:20:42.518339 31501 net.cpp:156] Memory required for data: 809239584
I0403 15:20:42.518375 31501 layer_factory.hpp:77] Creating layer pool3/3x3_s2
I0403 15:20:42.518419 31501 net.cpp:91] Creating Layer pool3/3x3_s2
I0403 15:20:42.518460 31501 net.cpp:425] pool3/3x3_s2 <- inception_3b/output
I0403 15:20:42.518506 31501 net.cpp:399] pool3/3x3_s2 -> pool3/3x3_s2
I0403 15:20:42.518587 31501 net.cpp:141] Setting up pool3/3x3_s2
I0403 15:20:42.518631 31501 net.cpp:148] Top shape: 24 480 14 14 (2257920)
I0403 15:20:42.518647 31501 net.cpp:156] Memory required for data: 818271264
I0403 15:20:42.518662 31501 layer_factory.hpp:77] Creating layer pool3/3x3_s2_pool3/3x3_s2_0_split
I0403 15:20:42.518682 31501 net.cpp:91] Creating Layer pool3/3x3_s2_pool3/3x3_s2_0_split
I0403 15:20:42.518705 31501 net.cpp:425] pool3/3x3_s2_pool3/3x3_s2_0_split <- pool3/3x3_s2
I0403 15:20:42.518728 31501 net.cpp:399] pool3/3x3_s2_pool3/3x3_s2_0_split -> pool3/3x3_s2_pool3/3x3_s2_0_split_0
I0403 15:20:42.518764 31501 net.cpp:399] pool3/3x3_s2_pool3/3x3_s2_0_split -> pool3/3x3_s2_pool3/3x3_s2_0_split_1
I0403 15:20:42.518795 31501 net.cpp:399] pool3/3x3_s2_pool3/3x3_s2_0_split -> pool3/3x3_s2_pool3/3x3_s2_0_split_2
I0403 15:20:42.518823 31501 net.cpp:399] pool3/3x3_s2_pool3/3x3_s2_0_split -> pool3/3x3_s2_pool3/3x3_s2_0_split_3
I0403 15:20:42.518926 31501 net.cpp:141] Setting up pool3/3x3_s2_pool3/3x3_s2_0_split
I0403 15:20:42.518962 31501 net.cpp:148] Top shape: 24 480 14 14 (2257920)
I0403 15:20:42.518980 31501 net.cpp:148] Top shape: 24 480 14 14 (2257920)
I0403 15:20:42.518995 31501 net.cpp:148] Top shape: 24 480 14 14 (2257920)
I0403 15:20:42.519011 31501 net.cpp:148] Top shape: 24 480 14 14 (2257920)
I0403 15:20:42.519023 31501 net.cpp:156] Memory required for data: 854397984
I0403 15:20:42.519038 31501 layer_factory.hpp:77] Creating layer inception_4a/1x1
I0403 15:20:42.519062 31501 net.cpp:91] Creating Layer inception_4a/1x1
I0403 15:20:42.519078 31501 net.cpp:425] inception_4a/1x1 <- pool3/3x3_s2_pool3/3x3_s2_0_split_0
I0403 15:20:42.519100 31501 net.cpp:399] inception_4a/1x1 -> inception_4a/1x1
I0403 15:20:42.520678 31501 net.cpp:141] Setting up inception_4a/1x1
I0403 15:20:42.520707 31501 net.cpp:148] Top shape: 24 192 14 14 (903168)
I0403 15:20:42.520722 31501 net.cpp:156] Memory required for data: 858010656
I0403 15:20:42.520741 31501 layer_factory.hpp:77] Creating layer inception_4a/relu_1x1
I0403 15:20:42.520762 31501 net.cpp:91] Creating Layer inception_4a/relu_1x1
I0403 15:20:42.520779 31501 net.cpp:425] inception_4a/relu_1x1 <- inception_4a/1x1
I0403 15:20:42.520797 31501 net.cpp:386] inception_4a/relu_1x1 -> inception_4a/1x1 (in-place)
I0403 15:20:42.520974 31501 net.cpp:141] Setting up inception_4a/relu_1x1
I0403 15:20:42.521003 31501 net.cpp:148] Top shape: 24 192 14 14 (903168)
I0403 15:20:42.521018 31501 net.cpp:156] Memory required for data: 861623328
I0403 15:20:42.521034 31501 layer_factory.hpp:77] Creating layer inception_4a/3x3_reduce
I0403 15:20:42.521057 31501 net.cpp:91] Creating Layer inception_4a/3x3_reduce
I0403 15:20:42.521075 31501 net.cpp:425] inception_4a/3x3_reduce <- pool3/3x3_s2_pool3/3x3_s2_0_split_1
I0403 15:20:42.521095 31501 net.cpp:399] inception_4a/3x3_reduce -> inception_4a/3x3_reduce
I0403 15:20:42.522428 31501 net.cpp:141] Setting up inception_4a/3x3_reduce
I0403 15:20:42.522457 31501 net.cpp:148] Top shape: 24 96 14 14 (451584)
I0403 15:20:42.522475 31501 net.cpp:156] Memory required for data: 863429664
I0403 15:20:42.522500 31501 layer_factory.hpp:77] Creating layer inception_4a/relu_3x3_reduce
I0403 15:20:42.522519 31501 net.cpp:91] Creating Layer inception_4a/relu_3x3_reduce
I0403 15:20:42.522541 31501 net.cpp:425] inception_4a/relu_3x3_reduce <- inception_4a/3x3_reduce
I0403 15:20:42.522562 31501 net.cpp:386] inception_4a/relu_3x3_reduce -> inception_4a/3x3_reduce (in-place)
I0403 15:20:42.522755 31501 net.cpp:141] Setting up inception_4a/relu_3x3_reduce
I0403 15:20:42.522783 31501 net.cpp:148] Top shape: 24 96 14 14 (451584)
I0403 15:20:42.522799 31501 net.cpp:156] Memory required for data: 865236000
I0403 15:20:42.522814 31501 layer_factory.hpp:77] Creating layer inception_4a/3x3
I0403 15:20:42.522836 31501 net.cpp:91] Creating Layer inception_4a/3x3
I0403 15:20:42.522855 31501 net.cpp:425] inception_4a/3x3 <- inception_4a/3x3_reduce
I0403 15:20:42.522874 31501 net.cpp:399] inception_4a/3x3 -> inception_4a/3x3
I0403 15:20:42.525650 31501 net.cpp:141] Setting up inception_4a/3x3
I0403 15:20:42.525681 31501 net.cpp:148] Top shape: 24 208 14 14 (978432)
I0403 15:20:42.525699 31501 net.cpp:156] Memory required for data: 869149728
I0403 15:20:42.525719 31501 layer_factory.hpp:77] Creating layer inception_4a/relu_3x3
I0403 15:20:42.525738 31501 net.cpp:91] Creating Layer inception_4a/relu_3x3
I0403 15:20:42.525754 31501 net.cpp:425] inception_4a/relu_3x3 <- inception_4a/3x3
I0403 15:20:42.525775 31501 net.cpp:386] inception_4a/relu_3x3 -> inception_4a/3x3 (in-place)
I0403 15:20:42.526113 31501 net.cpp:141] Setting up inception_4a/relu_3x3
I0403 15:20:42.526142 31501 net.cpp:148] Top shape: 24 208 14 14 (978432)
I0403 15:20:42.526160 31501 net.cpp:156] Memory required for data: 873063456
I0403 15:20:42.526175 31501 layer_factory.hpp:77] Creating layer inception_4a/5x5_reduce
I0403 15:20:42.526198 31501 net.cpp:91] Creating Layer inception_4a/5x5_reduce
I0403 15:20:42.526216 31501 net.cpp:425] inception_4a/5x5_reduce <- pool3/3x3_s2_pool3/3x3_s2_0_split_2
I0403 15:20:42.526237 31501 net.cpp:399] inception_4a/5x5_reduce -> inception_4a/5x5_reduce
I0403 15:20:42.527346 31501 net.cpp:141] Setting up inception_4a/5x5_reduce
I0403 15:20:42.527381 31501 net.cpp:148] Top shape: 24 16 14 14 (75264)
I0403 15:20:42.527398 31501 net.cpp:156] Memory required for data: 873364512
I0403 15:20:42.527418 31501 layer_factory.hpp:77] Creating layer inception_4a/relu_5x5_reduce
I0403 15:20:42.527436 31501 net.cpp:91] Creating Layer inception_4a/relu_5x5_reduce
I0403 15:20:42.527453 31501 net.cpp:425] inception_4a/relu_5x5_reduce <- inception_4a/5x5_reduce
I0403 15:20:42.527473 31501 net.cpp:386] inception_4a/relu_5x5_reduce -> inception_4a/5x5_reduce (in-place)
I0403 15:20:42.527664 31501 net.cpp:141] Setting up inception_4a/relu_5x5_reduce
I0403 15:20:42.527690 31501 net.cpp:148] Top shape: 24 16 14 14 (75264)
I0403 15:20:42.527714 31501 net.cpp:156] Memory required for data: 873665568
I0403 15:20:42.527729 31501 layer_factory.hpp:77] Creating layer inception_4a/5x5
I0403 15:20:42.527752 31501 net.cpp:91] Creating Layer inception_4a/5x5
I0403 15:20:42.527770 31501 net.cpp:425] inception_4a/5x5 <- inception_4a/5x5_reduce
I0403 15:20:42.527791 31501 net.cpp:399] inception_4a/5x5 -> inception_4a/5x5
I0403 15:20:42.529053 31501 net.cpp:141] Setting up inception_4a/5x5
I0403 15:20:42.529098 31501 net.cpp:148] Top shape: 24 48 14 14 (225792)
I0403 15:20:42.529132 31501 net.cpp:156] Memory required for data: 874568736
I0403 15:20:42.529166 31501 layer_factory.hpp:77] Creating layer inception_4a/relu_5x5
I0403 15:20:42.529211 31501 net.cpp:91] Creating Layer inception_4a/relu_5x5
I0403 15:20:42.529228 31501 net.cpp:425] inception_4a/relu_5x5 <- inception_4a/5x5
I0403 15:20:42.529247 31501 net.cpp:386] inception_4a/relu_5x5 -> inception_4a/5x5 (in-place)
I0403 15:20:42.529433 31501 net.cpp:141] Setting up inception_4a/relu_5x5
I0403 15:20:42.529481 31501 net.cpp:148] Top shape: 24 48 14 14 (225792)
I0403 15:20:42.529528 31501 net.cpp:156] Memory required for data: 875471904
I0403 15:20:42.529572 31501 layer_factory.hpp:77] Creating layer inception_4a/pool
I0403 15:20:42.529620 31501 net.cpp:91] Creating Layer inception_4a/pool
I0403 15:20:42.529638 31501 net.cpp:425] inception_4a/pool <- pool3/3x3_s2_pool3/3x3_s2_0_split_3
I0403 15:20:42.529657 31501 net.cpp:399] inception_4a/pool -> inception_4a/pool
I0403 15:20:42.529745 31501 net.cpp:141] Setting up inception_4a/pool
I0403 15:20:42.529783 31501 net.cpp:148] Top shape: 24 480 14 14 (2257920)
I0403 15:20:42.529820 31501 net.cpp:156] Memory required for data: 884503584
I0403 15:20:42.529846 31501 layer_factory.hpp:77] Creating layer inception_4a/pool_proj
I0403 15:20:42.529870 31501 net.cpp:91] Creating Layer inception_4a/pool_proj
I0403 15:20:42.529888 31501 net.cpp:425] inception_4a/pool_proj <- inception_4a/pool
I0403 15:20:42.529909 31501 net.cpp:399] inception_4a/pool_proj -> inception_4a/pool_proj
I0403 15:20:42.531112 31501 net.cpp:141] Setting up inception_4a/pool_proj
I0403 15:20:42.531142 31501 net.cpp:148] Top shape: 24 64 14 14 (301056)
I0403 15:20:42.531175 31501 net.cpp:156] Memory required for data: 885707808
I0403 15:20:42.531196 31501 layer_factory.hpp:77] Creating layer inception_4a/relu_pool_proj
I0403 15:20:42.531219 31501 net.cpp:91] Creating Layer inception_4a/relu_pool_proj
I0403 15:20:42.531237 31501 net.cpp:425] inception_4a/relu_pool_proj <- inception_4a/pool_proj
I0403 15:20:42.531255 31501 net.cpp:386] inception_4a/relu_pool_proj -> inception_4a/pool_proj (in-place)
I0403 15:20:42.531556 31501 net.cpp:141] Setting up inception_4a/relu_pool_proj
I0403 15:20:42.531585 31501 net.cpp:148] Top shape: 24 64 14 14 (301056)
I0403 15:20:42.531627 31501 net.cpp:156] Memory required for data: 886912032
I0403 15:20:42.531649 31501 layer_factory.hpp:77] Creating layer inception_4a/output
I0403 15:20:42.531678 31501 net.cpp:91] Creating Layer inception_4a/output
I0403 15:20:42.531718 31501 net.cpp:425] inception_4a/output <- inception_4a/1x1
I0403 15:20:42.531757 31501 net.cpp:425] inception_4a/output <- inception_4a/3x3
I0403 15:20:42.531800 31501 net.cpp:425] inception_4a/output <- inception_4a/5x5
I0403 15:20:42.531816 31501 net.cpp:425] inception_4a/output <- inception_4a/pool_proj
I0403 15:20:42.531852 31501 net.cpp:399] inception_4a/output -> inception_4a/output
I0403 15:20:42.531906 31501 net.cpp:141] Setting up inception_4a/output
I0403 15:20:42.531954 31501 net.cpp:148] Top shape: 24 512 14 14 (2408448)
I0403 15:20:42.531997 31501 net.cpp:156] Memory required for data: 896545824
I0403 15:20:42.532043 31501 layer_factory.hpp:77] Creating layer inception_4a/output_inception_4a/output_0_split
I0403 15:20:42.532091 31501 net.cpp:91] Creating Layer inception_4a/output_inception_4a/output_0_split
I0403 15:20:42.532127 31501 net.cpp:425] inception_4a/output_inception_4a/output_0_split <- inception_4a/output
I0403 15:20:42.532173 31501 net.cpp:399] inception_4a/output_inception_4a/output_0_split -> inception_4a/output_inception_4a/output_0_split_0
I0403 15:20:42.532217 31501 net.cpp:399] inception_4a/output_inception_4a/output_0_split -> inception_4a/output_inception_4a/output_0_split_1
I0403 15:20:42.532258 31501 net.cpp:399] inception_4a/output_inception_4a/output_0_split -> inception_4a/output_inception_4a/output_0_split_2
I0403 15:20:42.532301 31501 net.cpp:399] inception_4a/output_inception_4a/output_0_split -> inception_4a/output_inception_4a/output_0_split_3
I0403 15:20:42.532346 31501 net.cpp:399] inception_4a/output_inception_4a/output_0_split -> inception_4a/output_inception_4a/output_0_split_4
I0403 15:20:42.532438 31501 net.cpp:141] Setting up inception_4a/output_inception_4a/output_0_split
I0403 15:20:42.532482 31501 net.cpp:148] Top shape: 24 512 14 14 (2408448)
I0403 15:20:42.532521 31501 net.cpp:148] Top shape: 24 512 14 14 (2408448)
I0403 15:20:42.532553 31501 net.cpp:148] Top shape: 24 512 14 14 (2408448)
I0403 15:20:42.532584 31501 net.cpp:148] Top shape: 24 512 14 14 (2408448)
I0403 15:20:42.532601 31501 net.cpp:148] Top shape: 24 512 14 14 (2408448)
I0403 15:20:42.532636 31501 net.cpp:156] Memory required for data: 944714784
I0403 15:20:42.532678 31501 layer_factory.hpp:77] Creating layer loss1/ave_pool
I0403 15:20:42.532704 31501 net.cpp:91] Creating Layer loss1/ave_pool
I0403 15:20:42.532721 31501 net.cpp:425] loss1/ave_pool <- inception_4a/output_inception_4a/output_0_split_0
I0403 15:20:42.532740 31501 net.cpp:399] loss1/ave_pool -> loss1/ave_pool
I0403 15:20:42.532951 31501 net.cpp:141] Setting up loss1/ave_pool
I0403 15:20:42.532977 31501 net.cpp:148] Top shape: 24 512 4 4 (196608)
I0403 15:20:42.532992 31501 net.cpp:156] Memory required for data: 945501216
I0403 15:20:42.533007 31501 layer_factory.hpp:77] Creating layer loss1/conv
I0403 15:20:42.533030 31501 net.cpp:91] Creating Layer loss1/conv
I0403 15:20:42.533047 31501 net.cpp:425] loss1/conv <- loss1/ave_pool
I0403 15:20:42.533068 31501 net.cpp:399] loss1/conv -> loss1/conv
I0403 15:20:42.534471 31501 net.cpp:141] Setting up loss1/conv
I0403 15:20:42.534502 31501 net.cpp:148] Top shape: 24 128 4 4 (49152)
I0403 15:20:42.534557 31501 net.cpp:156] Memory required for data: 945697824
I0403 15:20:42.534608 31501 layer_factory.hpp:77] Creating layer loss1/relu_conv
I0403 15:20:42.534649 31501 net.cpp:91] Creating Layer loss1/relu_conv
I0403 15:20:42.534695 31501 net.cpp:425] loss1/relu_conv <- loss1/conv
I0403 15:20:42.534746 31501 net.cpp:386] loss1/relu_conv -> loss1/conv (in-place)
I0403 15:20:42.535054 31501 net.cpp:141] Setting up loss1/relu_conv
I0403 15:20:42.535084 31501 net.cpp:148] Top shape: 24 128 4 4 (49152)
I0403 15:20:42.535099 31501 net.cpp:156] Memory required for data: 945894432
I0403 15:20:42.535115 31501 layer_factory.hpp:77] Creating layer loss1/fc
I0403 15:20:42.535138 31501 net.cpp:91] Creating Layer loss1/fc
I0403 15:20:42.535156 31501 net.cpp:425] loss1/fc <- loss1/conv
I0403 15:20:42.535177 31501 net.cpp:399] loss1/fc -> loss1/fc
I0403 15:20:42.553071 31501 net.cpp:141] Setting up loss1/fc
I0403 15:20:42.553104 31501 net.cpp:148] Top shape: 24 1024 (24576)
I0403 15:20:42.553120 31501 net.cpp:156] Memory required for data: 945992736
I0403 15:20:42.553139 31501 layer_factory.hpp:77] Creating layer loss1/relu_fc
I0403 15:20:42.553160 31501 net.cpp:91] Creating Layer loss1/relu_fc
I0403 15:20:42.553177 31501 net.cpp:425] loss1/relu_fc <- loss1/fc
I0403 15:20:42.553195 31501 net.cpp:386] loss1/relu_fc -> loss1/fc (in-place)
I0403 15:20:42.553383 31501 net.cpp:141] Setting up loss1/relu_fc
I0403 15:20:42.553411 31501 net.cpp:148] Top shape: 24 1024 (24576)
I0403 15:20:42.553426 31501 net.cpp:156] Memory required for data: 946091040
I0403 15:20:42.553442 31501 layer_factory.hpp:77] Creating layer loss1/drop_fc
I0403 15:20:42.553468 31501 net.cpp:91] Creating Layer loss1/drop_fc
I0403 15:20:42.553485 31501 net.cpp:425] loss1/drop_fc <- loss1/fc
I0403 15:20:42.553503 31501 net.cpp:386] loss1/drop_fc -> loss1/fc (in-place)
I0403 15:20:42.553561 31501 net.cpp:141] Setting up loss1/drop_fc
I0403 15:20:42.553585 31501 net.cpp:148] Top shape: 24 1024 (24576)
I0403 15:20:42.553599 31501 net.cpp:156] Memory required for data: 946189344
I0403 15:20:42.553625 31501 layer_factory.hpp:77] Creating layer loss1/classifier_plantvillage
I0403 15:20:42.553643 31501 net.cpp:91] Creating Layer loss1/classifier_plantvillage
I0403 15:20:42.553659 31501 net.cpp:425] loss1/classifier_plantvillage <- loss1/fc
I0403 15:20:42.553681 31501 net.cpp:399] loss1/classifier_plantvillage -> loss1/classifier_plantvillage
I0403 15:20:42.554616 31501 net.cpp:141] Setting up loss1/classifier_plantvillage
I0403 15:20:42.554646 31501 net.cpp:148] Top shape: 24 38 (912)
I0403 15:20:42.554661 31501 net.cpp:156] Memory required for data: 946192992
I0403 15:20:42.554679 31501 layer_factory.hpp:77] Creating layer loss1/classifier_plantvillage_loss1/classifier_plantvillage_0_split
I0403 15:20:42.554699 31501 net.cpp:91] Creating Layer loss1/classifier_plantvillage_loss1/classifier_plantvillage_0_split
I0403 15:20:42.554716 31501 net.cpp:425] loss1/classifier_plantvillage_loss1/classifier_plantvillage_0_split <- loss1/classifier_plantvillage
I0403 15:20:42.554734 31501 net.cpp:399] loss1/classifier_plantvillage_loss1/classifier_plantvillage_0_split -> loss1/classifier_plantvillage_loss1/classifier_plantvillage_0_split_0
I0403 15:20:42.554755 31501 net.cpp:399] loss1/classifier_plantvillage_loss1/classifier_plantvillage_0_split -> loss1/classifier_plantvillage_loss1/classifier_plantvillage_0_split_1
I0403 15:20:42.554780 31501 net.cpp:399] loss1/classifier_plantvillage_loss1/classifier_plantvillage_0_split -> loss1/classifier_plantvillage_loss1/classifier_plantvillage_0_split_2
I0403 15:20:42.554846 31501 net.cpp:141] Setting up loss1/classifier_plantvillage_loss1/classifier_plantvillage_0_split
I0403 15:20:42.554868 31501 net.cpp:148] Top shape: 24 38 (912)
I0403 15:20:42.554884 31501 net.cpp:148] Top shape: 24 38 (912)
I0403 15:20:42.554899 31501 net.cpp:148] Top shape: 24 38 (912)
I0403 15:20:42.554913 31501 net.cpp:156] Memory required for data: 946203936
I0403 15:20:42.554926 31501 layer_factory.hpp:77] Creating layer inception_4b/1x1
I0403 15:20:42.554949 31501 net.cpp:91] Creating Layer inception_4b/1x1
I0403 15:20:42.554982 31501 net.cpp:425] inception_4b/1x1 <- inception_4a/output_inception_4a/output_0_split_1
I0403 15:20:42.555002 31501 net.cpp:399] inception_4b/1x1 -> inception_4b/1x1
I0403 15:20:42.556664 31501 net.cpp:141] Setting up inception_4b/1x1
I0403 15:20:42.556695 31501 net.cpp:148] Top shape: 24 160 14 14 (752640)
I0403 15:20:42.556712 31501 net.cpp:156] Memory required for data: 949214496
I0403 15:20:42.556731 31501 layer_factory.hpp:77] Creating layer inception_4b/relu_1x1
I0403 15:20:42.556749 31501 net.cpp:91] Creating Layer inception_4b/relu_1x1
I0403 15:20:42.556766 31501 net.cpp:425] inception_4b/relu_1x1 <- inception_4b/1x1
I0403 15:20:42.556785 31501 net.cpp:386] inception_4b/relu_1x1 -> inception_4b/1x1 (in-place)
I0403 15:20:42.556968 31501 net.cpp:141] Setting up inception_4b/relu_1x1
I0403 15:20:42.556993 31501 net.cpp:148] Top shape: 24 160 14 14 (752640)
I0403 15:20:42.557008 31501 net.cpp:156] Memory required for data: 952225056
I0403 15:20:42.557024 31501 layer_factory.hpp:77] Creating layer inception_4b/3x3_reduce
I0403 15:20:42.557047 31501 net.cpp:91] Creating Layer inception_4b/3x3_reduce
I0403 15:20:42.557065 31501 net.cpp:425] inception_4b/3x3_reduce <- inception_4a/output_inception_4a/output_0_split_2
I0403 15:20:42.557087 31501 net.cpp:399] inception_4b/3x3_reduce -> inception_4b/3x3_reduce
I0403 15:20:42.558437 31501 net.cpp:141] Setting up inception_4b/3x3_reduce
I0403 15:20:42.558465 31501 net.cpp:148] Top shape: 24 112 14 14 (526848)
I0403 15:20:42.558481 31501 net.cpp:156] Memory required for data: 954332448
I0403 15:20:42.558500 31501 layer_factory.hpp:77] Creating layer inception_4b/relu_3x3_reduce
I0403 15:20:42.558518 31501 net.cpp:91] Creating Layer inception_4b/relu_3x3_reduce
I0403 15:20:42.558538 31501 net.cpp:425] inception_4b/relu_3x3_reduce <- inception_4b/3x3_reduce
I0403 15:20:42.558559 31501 net.cpp:386] inception_4b/relu_3x3_reduce -> inception_4b/3x3_reduce (in-place)
I0403 15:20:42.558847 31501 net.cpp:141] Setting up inception_4b/relu_3x3_reduce
I0403 15:20:42.558873 31501 net.cpp:148] Top shape: 24 112 14 14 (526848)
I0403 15:20:42.558888 31501 net.cpp:156] Memory required for data: 956439840
I0403 15:20:42.558903 31501 layer_factory.hpp:77] Creating layer inception_4b/3x3
I0403 15:20:42.558926 31501 net.cpp:91] Creating Layer inception_4b/3x3
I0403 15:20:42.558944 31501 net.cpp:425] inception_4b/3x3 <- inception_4b/3x3_reduce
I0403 15:20:42.558966 31501 net.cpp:399] inception_4b/3x3 -> inception_4b/3x3
I0403 15:20:42.561946 31501 net.cpp:141] Setting up inception_4b/3x3
I0403 15:20:42.561975 31501 net.cpp:148] Top shape: 24 224 14 14 (1053696)
I0403 15:20:42.561990 31501 net.cpp:156] Memory required for data: 960654624
I0403 15:20:42.562010 31501 layer_factory.hpp:77] Creating layer inception_4b/relu_3x3
I0403 15:20:42.562031 31501 net.cpp:91] Creating Layer inception_4b/relu_3x3
I0403 15:20:42.562047 31501 net.cpp:425] inception_4b/relu_3x3 <- inception_4b/3x3
I0403 15:20:42.562065 31501 net.cpp:386] inception_4b/relu_3x3 -> inception_4b/3x3 (in-place)
I0403 15:20:42.562250 31501 net.cpp:141] Setting up inception_4b/relu_3x3
I0403 15:20:42.562278 31501 net.cpp:148] Top shape: 24 224 14 14 (1053696)
I0403 15:20:42.562294 31501 net.cpp:156] Memory required for data: 964869408
I0403 15:20:42.562307 31501 layer_factory.hpp:77] Creating layer inception_4b/5x5_reduce
I0403 15:20:42.562330 31501 net.cpp:91] Creating Layer inception_4b/5x5_reduce
I0403 15:20:42.562346 31501 net.cpp:425] inception_4b/5x5_reduce <- inception_4a/output_inception_4a/output_0_split_3
I0403 15:20:42.562366 31501 net.cpp:399] inception_4b/5x5_reduce -> inception_4b/5x5_reduce
I0403 15:20:42.563473 31501 net.cpp:141] Setting up inception_4b/5x5_reduce
I0403 15:20:42.563501 31501 net.cpp:148] Top shape: 24 24 14 14 (112896)
I0403 15:20:42.563518 31501 net.cpp:156] Memory required for data: 965320992
I0403 15:20:42.563540 31501 layer_factory.hpp:77] Creating layer inception_4b/relu_5x5_reduce
I0403 15:20:42.563560 31501 net.cpp:91] Creating Layer inception_4b/relu_5x5_reduce
I0403 15:20:42.563591 31501 net.cpp:425] inception_4b/relu_5x5_reduce <- inception_4b/5x5_reduce
I0403 15:20:42.563614 31501 net.cpp:386] inception_4b/relu_5x5_reduce -> inception_4b/5x5_reduce (in-place)
I0403 15:20:42.563803 31501 net.cpp:141] Setting up inception_4b/relu_5x5_reduce
I0403 15:20:42.563828 31501 net.cpp:148] Top shape: 24 24 14 14 (112896)
I0403 15:20:42.563843 31501 net.cpp:156] Memory required for data: 965772576
I0403 15:20:42.563858 31501 layer_factory.hpp:77] Creating layer inception_4b/5x5
I0403 15:20:42.563881 31501 net.cpp:91] Creating Layer inception_4b/5x5
I0403 15:20:42.563908 31501 net.cpp:425] inception_4b/5x5 <- inception_4b/5x5_reduce
I0403 15:20:42.563930 31501 net.cpp:399] inception_4b/5x5 -> inception_4b/5x5
I0403 15:20:42.565168 31501 net.cpp:141] Setting up inception_4b/5x5
I0403 15:20:42.565217 31501 net.cpp:148] Top shape: 24 64 14 14 (301056)
I0403 15:20:42.565258 31501 net.cpp:156] Memory required for data: 966976800
I0403 15:20:42.565305 31501 layer_factory.hpp:77] Creating layer inception_4b/relu_5x5
I0403 15:20:42.565343 31501 net.cpp:91] Creating Layer inception_4b/relu_5x5
I0403 15:20:42.565368 31501 net.cpp:425] inception_4b/relu_5x5 <- inception_4b/5x5
I0403 15:20:42.565397 31501 net.cpp:386] inception_4b/relu_5x5 -> inception_4b/5x5 (in-place)
I0403 15:20:42.565690 31501 net.cpp:141] Setting up inception_4b/relu_5x5
I0403 15:20:42.565726 31501 net.cpp:148] Top shape: 24 64 14 14 (301056)
I0403 15:20:42.565770 31501 net.cpp:156] Memory required for data: 968181024
I0403 15:20:42.565804 31501 layer_factory.hpp:77] Creating layer inception_4b/pool
I0403 15:20:42.565824 31501 net.cpp:91] Creating Layer inception_4b/pool
I0403 15:20:42.565840 31501 net.cpp:425] inception_4b/pool <- inception_4a/output_inception_4a/output_0_split_4
I0403 15:20:42.565861 31501 net.cpp:399] inception_4b/pool -> inception_4b/pool
I0403 15:20:42.565930 31501 net.cpp:141] Setting up inception_4b/pool
I0403 15:20:42.565968 31501 net.cpp:148] Top shape: 24 512 14 14 (2408448)
I0403 15:20:42.566000 31501 net.cpp:156] Memory required for data: 977814816
I0403 15:20:42.566047 31501 layer_factory.hpp:77] Creating layer inception_4b/pool_proj
I0403 15:20:42.566069 31501 net.cpp:91] Creating Layer inception_4b/pool_proj
I0403 15:20:42.566087 31501 net.cpp:425] inception_4b/pool_proj <- inception_4b/pool
I0403 15:20:42.566108 31501 net.cpp:399] inception_4b/pool_proj -> inception_4b/pool_proj
I0403 15:20:42.567333 31501 net.cpp:141] Setting up inception_4b/pool_proj
I0403 15:20:42.567365 31501 net.cpp:148] Top shape: 24 64 14 14 (301056)
I0403 15:20:42.567405 31501 net.cpp:156] Memory required for data: 979019040
I0403 15:20:42.567446 31501 layer_factory.hpp:77] Creating layer inception_4b/relu_pool_proj
I0403 15:20:42.567487 31501 net.cpp:91] Creating Layer inception_4b/relu_pool_proj
I0403 15:20:42.567515 31501 net.cpp:425] inception_4b/relu_pool_proj <- inception_4b/pool_proj
I0403 15:20:42.567543 31501 net.cpp:386] inception_4b/relu_pool_proj -> inception_4b/pool_proj (in-place)
I0403 15:20:42.567734 31501 net.cpp:141] Setting up inception_4b/relu_pool_proj
I0403 15:20:42.567760 31501 net.cpp:148] Top shape: 24 64 14 14 (301056)
I0403 15:20:42.567780 31501 net.cpp:156] Memory required for data: 980223264
I0403 15:20:42.567806 31501 layer_factory.hpp:77] Creating layer inception_4b/output
I0403 15:20:42.567834 31501 net.cpp:91] Creating Layer inception_4b/output
I0403 15:20:42.567849 31501 net.cpp:425] inception_4b/output <- inception_4b/1x1
I0403 15:20:42.567867 31501 net.cpp:425] inception_4b/output <- inception_4b/3x3
I0403 15:20:42.567883 31501 net.cpp:425] inception_4b/output <- inception_4b/5x5
I0403 15:20:42.567900 31501 net.cpp:425] inception_4b/output <- inception_4b/pool_proj
I0403 15:20:42.567919 31501 net.cpp:399] inception_4b/output -> inception_4b/output
I0403 15:20:42.567967 31501 net.cpp:141] Setting up inception_4b/output
I0403 15:20:42.567991 31501 net.cpp:148] Top shape: 24 512 14 14 (2408448)
I0403 15:20:42.568004 31501 net.cpp:156] Memory required for data: 989857056
I0403 15:20:42.568032 31501 layer_factory.hpp:77] Creating layer inception_4b/output_inception_4b/output_0_split
I0403 15:20:42.568050 31501 net.cpp:91] Creating Layer inception_4b/output_inception_4b/output_0_split
I0403 15:20:42.568065 31501 net.cpp:425] inception_4b/output_inception_4b/output_0_split <- inception_4b/output
I0403 15:20:42.568085 31501 net.cpp:399] inception_4b/output_inception_4b/output_0_split -> inception_4b/output_inception_4b/output_0_split_0
I0403 15:20:42.568128 31501 net.cpp:399] inception_4b/output_inception_4b/output_0_split -> inception_4b/output_inception_4b/output_0_split_1
I0403 15:20:42.568148 31501 net.cpp:399] inception_4b/output_inception_4b/output_0_split -> inception_4b/output_inception_4b/output_0_split_2
I0403 15:20:42.568168 31501 net.cpp:399] inception_4b/output_inception_4b/output_0_split -> inception_4b/output_inception_4b/output_0_split_3
I0403 15:20:42.568249 31501 net.cpp:141] Setting up inception_4b/output_inception_4b/output_0_split
I0403 15:20:42.568274 31501 net.cpp:148] Top shape: 24 512 14 14 (2408448)
I0403 15:20:42.568291 31501 net.cpp:148] Top shape: 24 512 14 14 (2408448)
I0403 15:20:42.568316 31501 net.cpp:148] Top shape: 24 512 14 14 (2408448)
I0403 15:20:42.568331 31501 net.cpp:148] Top shape: 24 512 14 14 (2408448)
I0403 15:20:42.568346 31501 net.cpp:156] Memory required for data: 1028392224
I0403 15:20:42.568361 31501 layer_factory.hpp:77] Creating layer inception_4c/1x1
I0403 15:20:42.568382 31501 net.cpp:91] Creating Layer inception_4c/1x1
I0403 15:20:42.568399 31501 net.cpp:425] inception_4c/1x1 <- inception_4b/output_inception_4b/output_0_split_0
I0403 15:20:42.568418 31501 net.cpp:399] inception_4c/1x1 -> inception_4c/1x1
I0403 15:20:42.569831 31501 net.cpp:141] Setting up inception_4c/1x1
I0403 15:20:42.569859 31501 net.cpp:148] Top shape: 24 128 14 14 (602112)
I0403 15:20:42.569875 31501 net.cpp:156] Memory required for data: 1030800672
I0403 15:20:42.569892 31501 layer_factory.hpp:77] Creating layer inception_4c/relu_1x1
I0403 15:20:42.569913 31501 net.cpp:91] Creating Layer inception_4c/relu_1x1
I0403 15:20:42.569929 31501 net.cpp:425] inception_4c/relu_1x1 <- inception_4c/1x1
I0403 15:20:42.569947 31501 net.cpp:386] inception_4c/relu_1x1 -> inception_4c/1x1 (in-place)
I0403 15:20:42.570127 31501 net.cpp:141] Setting up inception_4c/relu_1x1
I0403 15:20:42.570153 31501 net.cpp:148] Top shape: 24 128 14 14 (602112)
I0403 15:20:42.570169 31501 net.cpp:156] Memory required for data: 1033209120
I0403 15:20:42.570183 31501 layer_factory.hpp:77] Creating layer inception_4c/3x3_reduce
I0403 15:20:42.570205 31501 net.cpp:91] Creating Layer inception_4c/3x3_reduce
I0403 15:20:42.570221 31501 net.cpp:425] inception_4c/3x3_reduce <- inception_4b/output_inception_4b/output_0_split_1
I0403 15:20:42.570240 31501 net.cpp:399] inception_4c/3x3_reduce -> inception_4c/3x3_reduce
I0403 15:20:42.572149 31501 net.cpp:141] Setting up inception_4c/3x3_reduce
I0403 15:20:42.572178 31501 net.cpp:148] Top shape: 24 128 14 14 (602112)
I0403 15:20:42.572196 31501 net.cpp:156] Memory required for data: 1035617568
I0403 15:20:42.572214 31501 layer_factory.hpp:77] Creating layer inception_4c/relu_3x3_reduce
I0403 15:20:42.572232 31501 net.cpp:91] Creating Layer inception_4c/relu_3x3_reduce
I0403 15:20:42.572247 31501 net.cpp:425] inception_4c/relu_3x3_reduce <- inception_4c/3x3_reduce
I0403 15:20:42.572265 31501 net.cpp:386] inception_4c/relu_3x3_reduce -> inception_4c/3x3_reduce (in-place)
I0403 15:20:42.572551 31501 net.cpp:141] Setting up inception_4c/relu_3x3_reduce
I0403 15:20:42.572579 31501 net.cpp:148] Top shape: 24 128 14 14 (602112)
I0403 15:20:42.572604 31501 net.cpp:156] Memory required for data: 1038026016
I0403 15:20:42.572619 31501 layer_factory.hpp:77] Creating layer inception_4c/3x3
I0403 15:20:42.572643 31501 net.cpp:91] Creating Layer inception_4c/3x3
I0403 15:20:42.572659 31501 net.cpp:425] inception_4c/3x3 <- inception_4c/3x3_reduce
I0403 15:20:42.572677 31501 net.cpp:399] inception_4c/3x3 -> inception_4c/3x3
I0403 15:20:42.576300 31501 net.cpp:141] Setting up inception_4c/3x3
I0403 15:20:42.576360 31501 net.cpp:148] Top shape: 24 256 14 14 (1204224)
I0403 15:20:42.576390 31501 net.cpp:156] Memory required for data: 1042842912
I0403 15:20:42.576422 31501 layer_factory.hpp:77] Creating layer inception_4c/relu_3x3
I0403 15:20:42.576450 31501 net.cpp:91] Creating Layer inception_4c/relu_3x3
I0403 15:20:42.576467 31501 net.cpp:425] inception_4c/relu_3x3 <- inception_4c/3x3
I0403 15:20:42.576486 31501 net.cpp:386] inception_4c/relu_3x3 -> inception_4c/3x3 (in-place)
I0403 15:20:42.576683 31501 net.cpp:141] Setting up inception_4c/relu_3x3
I0403 15:20:42.576731 31501 net.cpp:148] Top shape: 24 256 14 14 (1204224)
I0403 15:20:42.576747 31501 net.cpp:156] Memory required for data: 1047659808
I0403 15:20:42.576762 31501 layer_factory.hpp:77] Creating layer inception_4c/5x5_reduce
I0403 15:20:42.576786 31501 net.cpp:91] Creating Layer inception_4c/5x5_reduce
I0403 15:20:42.576802 31501 net.cpp:425] inception_4c/5x5_reduce <- inception_4b/output_inception_4b/output_0_split_2
I0403 15:20:42.576824 31501 net.cpp:399] inception_4c/5x5_reduce -> inception_4c/5x5_reduce
I0403 15:20:42.578029 31501 net.cpp:141] Setting up inception_4c/5x5_reduce
I0403 15:20:42.578061 31501 net.cpp:148] Top shape: 24 24 14 14 (112896)
I0403 15:20:42.578090 31501 net.cpp:156] Memory required for data: 1048111392
I0403 15:20:42.578114 31501 layer_factory.hpp:77] Creating layer inception_4c/relu_5x5_reduce
I0403 15:20:42.578133 31501 net.cpp:91] Creating Layer inception_4c/relu_5x5_reduce
I0403 15:20:42.578157 31501 net.cpp:425] inception_4c/relu_5x5_reduce <- inception_4c/5x5_reduce
I0403 15:20:42.578188 31501 net.cpp:386] inception_4c/relu_5x5_reduce -> inception_4c/5x5_reduce (in-place)
I0403 15:20:42.578395 31501 net.cpp:141] Setting up inception_4c/relu_5x5_reduce
I0403 15:20:42.578420 31501 net.cpp:148] Top shape: 24 24 14 14 (112896)
I0403 15:20:42.578435 31501 net.cpp:156] Memory required for data: 1048562976
I0403 15:20:42.578450 31501 layer_factory.hpp:77] Creating layer inception_4c/5x5
I0403 15:20:42.578472 31501 net.cpp:91] Creating Layer inception_4c/5x5
I0403 15:20:42.578490 31501 net.cpp:425] inception_4c/5x5 <- inception_4c/5x5_reduce
I0403 15:20:42.578521 31501 net.cpp:399] inception_4c/5x5 -> inception_4c/5x5
I0403 15:20:42.579809 31501 net.cpp:141] Setting up inception_4c/5x5
I0403 15:20:42.579848 31501 net.cpp:148] Top shape: 24 64 14 14 (301056)
I0403 15:20:42.579862 31501 net.cpp:156] Memory required for data: 1049767200
I0403 15:20:42.579881 31501 layer_factory.hpp:77] Creating layer inception_4c/relu_5x5
I0403 15:20:42.579901 31501 net.cpp:91] Creating Layer inception_4c/relu_5x5
I0403 15:20:42.579918 31501 net.cpp:425] inception_4c/relu_5x5 <- inception_4c/5x5
I0403 15:20:42.579936 31501 net.cpp:386] inception_4c/relu_5x5 -> inception_4c/5x5 (in-place)
I0403 15:20:42.580225 31501 net.cpp:141] Setting up inception_4c/relu_5x5
I0403 15:20:42.580252 31501 net.cpp:148] Top shape: 24 64 14 14 (301056)
I0403 15:20:42.580267 31501 net.cpp:156] Memory required for data: 1050971424
I0403 15:20:42.580282 31501 layer_factory.hpp:77] Creating layer inception_4c/pool
I0403 15:20:42.580299 31501 net.cpp:91] Creating Layer inception_4c/pool
I0403 15:20:42.580315 31501 net.cpp:425] inception_4c/pool <- inception_4b/output_inception_4b/output_0_split_3
I0403 15:20:42.580337 31501 net.cpp:399] inception_4c/pool -> inception_4c/pool
I0403 15:20:42.580404 31501 net.cpp:141] Setting up inception_4c/pool
I0403 15:20:42.580454 31501 net.cpp:148] Top shape: 24 512 14 14 (2408448)
I0403 15:20:42.580488 31501 net.cpp:156] Memory required for data: 1060605216
I0403 15:20:42.580531 31501 layer_factory.hpp:77] Creating layer inception_4c/pool_proj
I0403 15:20:42.580585 31501 net.cpp:91] Creating Layer inception_4c/pool_proj
I0403 15:20:42.580608 31501 net.cpp:425] inception_4c/pool_proj <- inception_4c/pool
I0403 15:20:42.580633 31501 net.cpp:399] inception_4c/pool_proj -> inception_4c/pool_proj
I0403 15:20:42.581907 31501 net.cpp:141] Setting up inception_4c/pool_proj
I0403 15:20:42.581938 31501 net.cpp:148] Top shape: 24 64 14 14 (301056)
I0403 15:20:42.581969 31501 net.cpp:156] Memory required for data: 1061809440
I0403 15:20:42.581987 31501 layer_factory.hpp:77] Creating layer inception_4c/relu_pool_proj
I0403 15:20:42.582006 31501 net.cpp:91] Creating Layer inception_4c/relu_pool_proj
I0403 15:20:42.582022 31501 net.cpp:425] inception_4c/relu_pool_proj <- inception_4c/pool_proj
I0403 15:20:42.582043 31501 net.cpp:386] inception_4c/relu_pool_proj -> inception_4c/pool_proj (in-place)
I0403 15:20:42.582231 31501 net.cpp:141] Setting up inception_4c/relu_pool_proj
I0403 15:20:42.582259 31501 net.cpp:148] Top shape: 24 64 14 14 (301056)
I0403 15:20:42.582276 31501 net.cpp:156] Memory required for data: 1063013664
I0403 15:20:42.582290 31501 layer_factory.hpp:77] Creating layer inception_4c/output
I0403 15:20:42.582307 31501 net.cpp:91] Creating Layer inception_4c/output
I0403 15:20:42.582324 31501 net.cpp:425] inception_4c/output <- inception_4c/1x1
I0403 15:20:42.582340 31501 net.cpp:425] inception_4c/output <- inception_4c/3x3
I0403 15:20:42.582356 31501 net.cpp:425] inception_4c/output <- inception_4c/5x5
I0403 15:20:42.582371 31501 net.cpp:425] inception_4c/output <- inception_4c/pool_proj
I0403 15:20:42.582391 31501 net.cpp:399] inception_4c/output -> inception_4c/output
I0403 15:20:42.582442 31501 net.cpp:141] Setting up inception_4c/output
I0403 15:20:42.582464 31501 net.cpp:148] Top shape: 24 512 14 14 (2408448)
I0403 15:20:42.582479 31501 net.cpp:156] Memory required for data: 1072647456
I0403 15:20:42.582494 31501 layer_factory.hpp:77] Creating layer inception_4c/output_inception_4c/output_0_split
I0403 15:20:42.582511 31501 net.cpp:91] Creating Layer inception_4c/output_inception_4c/output_0_split
I0403 15:20:42.582527 31501 net.cpp:425] inception_4c/output_inception_4c/output_0_split <- inception_4c/output
I0403 15:20:42.582556 31501 net.cpp:399] inception_4c/output_inception_4c/output_0_split -> inception_4c/output_inception_4c/output_0_split_0
I0403 15:20:42.582578 31501 net.cpp:399] inception_4c/output_inception_4c/output_0_split -> inception_4c/output_inception_4c/output_0_split_1
I0403 15:20:42.582598 31501 net.cpp:399] inception_4c/output_inception_4c/output_0_split -> inception_4c/output_inception_4c/output_0_split_2
I0403 15:20:42.582618 31501 net.cpp:399] inception_4c/output_inception_4c/output_0_split -> inception_4c/output_inception_4c/output_0_split_3
I0403 15:20:42.582705 31501 net.cpp:141] Setting up inception_4c/output_inception_4c/output_0_split
I0403 15:20:42.582749 31501 net.cpp:148] Top shape: 24 512 14 14 (2408448)
I0403 15:20:42.582787 31501 net.cpp:148] Top shape: 24 512 14 14 (2408448)
I0403 15:20:42.582820 31501 net.cpp:148] Top shape: 24 512 14 14 (2408448)
I0403 15:20:42.582855 31501 net.cpp:148] Top shape: 24 512 14 14 (2408448)
I0403 15:20:42.582870 31501 net.cpp:156] Memory required for data: 1111182624
I0403 15:20:42.582901 31501 layer_factory.hpp:77] Creating layer inception_4d/1x1
I0403 15:20:42.582924 31501 net.cpp:91] Creating Layer inception_4d/1x1
I0403 15:20:42.582942 31501 net.cpp:425] inception_4d/1x1 <- inception_4c/output_inception_4c/output_0_split_0
I0403 15:20:42.582962 31501 net.cpp:399] inception_4d/1x1 -> inception_4d/1x1
I0403 15:20:42.584362 31501 net.cpp:141] Setting up inception_4d/1x1
I0403 15:20:42.584390 31501 net.cpp:148] Top shape: 24 112 14 14 (526848)
I0403 15:20:42.584406 31501 net.cpp:156] Memory required for data: 1113290016
I0403 15:20:42.584424 31501 layer_factory.hpp:77] Creating layer inception_4d/relu_1x1
I0403 15:20:42.584445 31501 net.cpp:91] Creating Layer inception_4d/relu_1x1
I0403 15:20:42.584462 31501 net.cpp:425] inception_4d/relu_1x1 <- inception_4d/1x1
I0403 15:20:42.584481 31501 net.cpp:386] inception_4d/relu_1x1 -> inception_4d/1x1 (in-place)
I0403 15:20:42.584681 31501 net.cpp:141] Setting up inception_4d/relu_1x1
I0403 15:20:42.584705 31501 net.cpp:148] Top shape: 24 112 14 14 (526848)
I0403 15:20:42.584720 31501 net.cpp:156] Memory required for data: 1115397408
I0403 15:20:42.584734 31501 layer_factory.hpp:77] Creating layer inception_4d/3x3_reduce
I0403 15:20:42.584770 31501 net.cpp:91] Creating Layer inception_4d/3x3_reduce
I0403 15:20:42.584789 31501 net.cpp:425] inception_4d/3x3_reduce <- inception_4c/output_inception_4c/output_0_split_1
I0403 15:20:42.584811 31501 net.cpp:399] inception_4d/3x3_reduce -> inception_4d/3x3_reduce
I0403 15:20:42.586340 31501 net.cpp:141] Setting up inception_4d/3x3_reduce
I0403 15:20:42.586369 31501 net.cpp:148] Top shape: 24 144 14 14 (677376)
I0403 15:20:42.586385 31501 net.cpp:156] Memory required for data: 1118106912
I0403 15:20:42.586403 31501 layer_factory.hpp:77] Creating layer inception_4d/relu_3x3_reduce
I0403 15:20:42.586424 31501 net.cpp:91] Creating Layer inception_4d/relu_3x3_reduce
I0403 15:20:42.586441 31501 net.cpp:425] inception_4d/relu_3x3_reduce <- inception_4d/3x3_reduce
I0403 15:20:42.586459 31501 net.cpp:386] inception_4d/relu_3x3_reduce -> inception_4d/3x3_reduce (in-place)
I0403 15:20:42.586768 31501 net.cpp:141] Setting up inception_4d/relu_3x3_reduce
I0403 15:20:42.586794 31501 net.cpp:148] Top shape: 24 144 14 14 (677376)
I0403 15:20:42.586810 31501 net.cpp:156] Memory required for data: 1120816416
I0403 15:20:42.586825 31501 layer_factory.hpp:77] Creating layer inception_4d/3x3
I0403 15:20:42.586858 31501 net.cpp:91] Creating Layer inception_4d/3x3
I0403 15:20:42.586875 31501 net.cpp:425] inception_4d/3x3 <- inception_4d/3x3_reduce
I0403 15:20:42.586896 31501 net.cpp:399] inception_4d/3x3 -> inception_4d/3x3
I0403 15:20:42.591166 31501 net.cpp:141] Setting up inception_4d/3x3
I0403 15:20:42.591198 31501 net.cpp:148] Top shape: 24 288 14 14 (1354752)
I0403 15:20:42.591215 31501 net.cpp:156] Memory required for data: 1126235424
I0403 15:20:42.591234 31501 layer_factory.hpp:77] Creating layer inception_4d/relu_3x3
I0403 15:20:42.591253 31501 net.cpp:91] Creating Layer inception_4d/relu_3x3
I0403 15:20:42.591269 31501 net.cpp:425] inception_4d/relu_3x3 <- inception_4d/3x3
I0403 15:20:42.591286 31501 net.cpp:386] inception_4d/relu_3x3 -> inception_4d/3x3 (in-place)
I0403 15:20:42.591498 31501 net.cpp:141] Setting up inception_4d/relu_3x3
I0403 15:20:42.591524 31501 net.cpp:148] Top shape: 24 288 14 14 (1354752)
I0403 15:20:42.591545 31501 net.cpp:156] Memory required for data: 1131654432
I0403 15:20:42.591564 31501 layer_factory.hpp:77] Creating layer inception_4d/5x5_reduce
I0403 15:20:42.591588 31501 net.cpp:91] Creating Layer inception_4d/5x5_reduce
I0403 15:20:42.591604 31501 net.cpp:425] inception_4d/5x5_reduce <- inception_4c/output_inception_4c/output_0_split_2
I0403 15:20:42.591626 31501 net.cpp:399] inception_4d/5x5_reduce -> inception_4d/5x5_reduce
I0403 15:20:42.592787 31501 net.cpp:141] Setting up inception_4d/5x5_reduce
I0403 15:20:42.592835 31501 net.cpp:148] Top shape: 24 32 14 14 (150528)
I0403 15:20:42.592874 31501 net.cpp:156] Memory required for data: 1132256544
I0403 15:20:42.592910 31501 layer_factory.hpp:77] Creating layer inception_4d/relu_5x5_reduce
I0403 15:20:42.592931 31501 net.cpp:91] Creating Layer inception_4d/relu_5x5_reduce
I0403 15:20:42.592948 31501 net.cpp:425] inception_4d/relu_5x5_reduce <- inception_4d/5x5_reduce
I0403 15:20:42.592967 31501 net.cpp:386] inception_4d/relu_5x5_reduce -> inception_4d/5x5_reduce (in-place)
I0403 15:20:42.593154 31501 net.cpp:141] Setting up inception_4d/relu_5x5_reduce
I0403 15:20:42.593179 31501 net.cpp:148] Top shape: 24 32 14 14 (150528)
I0403 15:20:42.593196 31501 net.cpp:156] Memory required for data: 1132858656
I0403 15:20:42.593228 31501 layer_factory.hpp:77] Creating layer inception_4d/5x5
I0403 15:20:42.593273 31501 net.cpp:91] Creating Layer inception_4d/5x5
I0403 15:20:42.593302 31501 net.cpp:425] inception_4d/5x5 <- inception_4d/5x5_reduce
I0403 15:20:42.593332 31501 net.cpp:399] inception_4d/5x5 -> inception_4d/5x5
I0403 15:20:42.594861 31501 net.cpp:141] Setting up inception_4d/5x5
I0403 15:20:42.594913 31501 net.cpp:148] Top shape: 24 64 14 14 (301056)
I0403 15:20:42.594961 31501 net.cpp:156] Memory required for data: 1134062880
I0403 15:20:42.595019 31501 layer_factory.hpp:77] Creating layer inception_4d/relu_5x5
I0403 15:20:42.595080 31501 net.cpp:91] Creating Layer inception_4d/relu_5x5
I0403 15:20:42.595124 31501 net.cpp:425] inception_4d/relu_5x5 <- inception_4d/5x5
I0403 15:20:42.595146 31501 net.cpp:386] inception_4d/relu_5x5 -> inception_4d/5x5 (in-place)
I0403 15:20:42.595463 31501 net.cpp:141] Setting up inception_4d/relu_5x5
I0403 15:20:42.595509 31501 net.cpp:148] Top shape: 24 64 14 14 (301056)
I0403 15:20:42.595525 31501 net.cpp:156] Memory required for data: 1135267104
I0403 15:20:42.595546 31501 layer_factory.hpp:77] Creating layer inception_4d/pool
I0403 15:20:42.595571 31501 net.cpp:91] Creating Layer inception_4d/pool
I0403 15:20:42.595608 31501 net.cpp:425] inception_4d/pool <- inception_4c/output_inception_4c/output_0_split_3
I0403 15:20:42.595650 31501 net.cpp:399] inception_4d/pool -> inception_4d/pool
I0403 15:20:42.595720 31501 net.cpp:141] Setting up inception_4d/pool
I0403 15:20:42.595762 31501 net.cpp:148] Top shape: 24 512 14 14 (2408448)
I0403 15:20:42.595804 31501 net.cpp:156] Memory required for data: 1144900896
I0403 15:20:42.595829 31501 layer_factory.hpp:77] Creating layer inception_4d/pool_proj
I0403 15:20:42.595852 31501 net.cpp:91] Creating Layer inception_4d/pool_proj
I0403 15:20:42.595870 31501 net.cpp:425] inception_4d/pool_proj <- inception_4d/pool
I0403 15:20:42.595888 31501 net.cpp:399] inception_4d/pool_proj -> inception_4d/pool_proj
I0403 15:20:42.597710 31501 net.cpp:141] Setting up inception_4d/pool_proj
I0403 15:20:42.597743 31501 net.cpp:148] Top shape: 24 64 14 14 (301056)
I0403 15:20:42.597759 31501 net.cpp:156] Memory required for data: 1146105120
I0403 15:20:42.597779 31501 layer_factory.hpp:77] Creating layer inception_4d/relu_pool_proj
I0403 15:20:42.597805 31501 net.cpp:91] Creating Layer inception_4d/relu_pool_proj
I0403 15:20:42.597821 31501 net.cpp:425] inception_4d/relu_pool_proj <- inception_4d/pool_proj
I0403 15:20:42.597856 31501 net.cpp:386] inception_4d/relu_pool_proj -> inception_4d/pool_proj (in-place)
I0403 15:20:42.598057 31501 net.cpp:141] Setting up inception_4d/relu_pool_proj
I0403 15:20:42.598083 31501 net.cpp:148] Top shape: 24 64 14 14 (301056)
I0403 15:20:42.598098 31501 net.cpp:156] Memory required for data: 1147309344
I0403 15:20:42.598112 31501 layer_factory.hpp:77] Creating layer inception_4d/output
I0403 15:20:42.598129 31501 net.cpp:91] Creating Layer inception_4d/output
I0403 15:20:42.598145 31501 net.cpp:425] inception_4d/output <- inception_4d/1x1
I0403 15:20:42.598161 31501 net.cpp:425] inception_4d/output <- inception_4d/3x3
I0403 15:20:42.598179 31501 net.cpp:425] inception_4d/output <- inception_4d/5x5
I0403 15:20:42.598194 31501 net.cpp:425] inception_4d/output <- inception_4d/pool_proj
I0403 15:20:42.598214 31501 net.cpp:399] inception_4d/output -> inception_4d/output
I0403 15:20:42.598261 31501 net.cpp:141] Setting up inception_4d/output
I0403 15:20:42.598284 31501 net.cpp:148] Top shape: 24 528 14 14 (2483712)
I0403 15:20:42.598299 31501 net.cpp:156] Memory required for data: 1157244192
I0403 15:20:42.598314 31501 layer_factory.hpp:77] Creating layer inception_4d/output_inception_4d/output_0_split
I0403 15:20:42.598333 31501 net.cpp:91] Creating Layer inception_4d/output_inception_4d/output_0_split
I0403 15:20:42.598350 31501 net.cpp:425] inception_4d/output_inception_4d/output_0_split <- inception_4d/output
I0403 15:20:42.598371 31501 net.cpp:399] inception_4d/output_inception_4d/output_0_split -> inception_4d/output_inception_4d/output_0_split_0
I0403 15:20:42.598392 31501 net.cpp:399] inception_4d/output_inception_4d/output_0_split -> inception_4d/output_inception_4d/output_0_split_1
I0403 15:20:42.598412 31501 net.cpp:399] inception_4d/output_inception_4d/output_0_split -> inception_4d/output_inception_4d/output_0_split_2
I0403 15:20:42.598433 31501 net.cpp:399] inception_4d/output_inception_4d/output_0_split -> inception_4d/output_inception_4d/output_0_split_3
I0403 15:20:42.598453 31501 net.cpp:399] inception_4d/output_inception_4d/output_0_split -> inception_4d/output_inception_4d/output_0_split_4
I0403 15:20:42.598572 31501 net.cpp:141] Setting up inception_4d/output_inception_4d/output_0_split
I0403 15:20:42.598609 31501 net.cpp:148] Top shape: 24 528 14 14 (2483712)
I0403 15:20:42.598626 31501 net.cpp:148] Top shape: 24 528 14 14 (2483712)
I0403 15:20:42.598644 31501 net.cpp:148] Top shape: 24 528 14 14 (2483712)
I0403 15:20:42.598659 31501 net.cpp:148] Top shape: 24 528 14 14 (2483712)
I0403 15:20:42.598675 31501 net.cpp:148] Top shape: 24 528 14 14 (2483712)
I0403 15:20:42.598688 31501 net.cpp:156] Memory required for data: 1206918432
I0403 15:20:42.598702 31501 layer_factory.hpp:77] Creating layer loss2/ave_pool
I0403 15:20:42.598722 31501 net.cpp:91] Creating Layer loss2/ave_pool
I0403 15:20:42.598739 31501 net.cpp:425] loss2/ave_pool <- inception_4d/output_inception_4d/output_0_split_0
I0403 15:20:42.598758 31501 net.cpp:399] loss2/ave_pool -> loss2/ave_pool
I0403 15:20:42.599079 31501 net.cpp:141] Setting up loss2/ave_pool
I0403 15:20:42.599108 31501 net.cpp:148] Top shape: 24 528 4 4 (202752)
I0403 15:20:42.599124 31501 net.cpp:156] Memory required for data: 1207729440
I0403 15:20:42.599139 31501 layer_factory.hpp:77] Creating layer loss2/conv
I0403 15:20:42.599162 31501 net.cpp:91] Creating Layer loss2/conv
I0403 15:20:42.599180 31501 net.cpp:425] loss2/conv <- loss2/ave_pool
I0403 15:20:42.599200 31501 net.cpp:399] loss2/conv -> loss2/conv
I0403 15:20:42.601128 31501 net.cpp:141] Setting up loss2/conv
I0403 15:20:42.601157 31501 net.cpp:148] Top shape: 24 128 4 4 (49152)
I0403 15:20:42.601173 31501 net.cpp:156] Memory required for data: 1207926048
I0403 15:20:42.601192 31501 layer_factory.hpp:77] Creating layer loss2/relu_conv
I0403 15:20:42.601213 31501 net.cpp:91] Creating Layer loss2/relu_conv
I0403 15:20:42.601232 31501 net.cpp:425] loss2/relu_conv <- loss2/conv
I0403 15:20:42.601249 31501 net.cpp:386] loss2/relu_conv -> loss2/conv (in-place)
I0403 15:20:42.601557 31501 net.cpp:141] Setting up loss2/relu_conv
I0403 15:20:42.601584 31501 net.cpp:148] Top shape: 24 128 4 4 (49152)
I0403 15:20:42.601599 31501 net.cpp:156] Memory required for data: 1208122656
I0403 15:20:42.601614 31501 layer_factory.hpp:77] Creating layer loss2/fc
I0403 15:20:42.601637 31501 net.cpp:91] Creating Layer loss2/fc
I0403 15:20:42.601655 31501 net.cpp:425] loss2/fc <- loss2/conv
I0403 15:20:42.601673 31501 net.cpp:399] loss2/fc -> loss2/fc
I0403 15:20:42.619406 31501 net.cpp:141] Setting up loss2/fc
I0403 15:20:42.619438 31501 net.cpp:148] Top shape: 24 1024 (24576)
I0403 15:20:42.619454 31501 net.cpp:156] Memory required for data: 1208220960
I0403 15:20:42.619472 31501 layer_factory.hpp:77] Creating layer loss2/relu_fc
I0403 15:20:42.619491 31501 net.cpp:91] Creating Layer loss2/relu_fc
I0403 15:20:42.619508 31501 net.cpp:425] loss2/relu_fc <- loss2/fc
I0403 15:20:42.619529 31501 net.cpp:386] loss2/relu_fc -> loss2/fc (in-place)
I0403 15:20:42.619834 31501 net.cpp:141] Setting up loss2/relu_fc
I0403 15:20:42.619863 31501 net.cpp:148] Top shape: 24 1024 (24576)
I0403 15:20:42.619877 31501 net.cpp:156] Memory required for data: 1208319264
I0403 15:20:42.619892 31501 layer_factory.hpp:77] Creating layer loss2/drop_fc
I0403 15:20:42.619910 31501 net.cpp:91] Creating Layer loss2/drop_fc
I0403 15:20:42.619926 31501 net.cpp:425] loss2/drop_fc <- loss2/fc
I0403 15:20:42.619946 31501 net.cpp:386] loss2/drop_fc -> loss2/fc (in-place)
I0403 15:20:42.619993 31501 net.cpp:141] Setting up loss2/drop_fc
I0403 15:20:42.620015 31501 net.cpp:148] Top shape: 24 1024 (24576)
I0403 15:20:42.620029 31501 net.cpp:156] Memory required for data: 1208417568
I0403 15:20:42.620043 31501 layer_factory.hpp:77] Creating layer loss2/classifier_plantvillage
I0403 15:20:42.620064 31501 net.cpp:91] Creating Layer loss2/classifier_plantvillage
I0403 15:20:42.620081 31501 net.cpp:425] loss2/classifier_plantvillage <- loss2/fc
I0403 15:20:42.620101 31501 net.cpp:399] loss2/classifier_plantvillage -> loss2/classifier_plantvillage
I0403 15:20:42.620493 31501 net.cpp:141] Setting up loss2/classifier_plantvillage
I0403 15:20:42.620517 31501 net.cpp:148] Top shape: 24 38 (912)
I0403 15:20:42.620553 31501 net.cpp:156] Memory required for data: 1208421216
I0403 15:20:42.620574 31501 layer_factory.hpp:77] Creating layer loss2/classifier_plantvillage_loss2/classifier_plantvillage_0_split
I0403 15:20:42.620592 31501 net.cpp:91] Creating Layer loss2/classifier_plantvillage_loss2/classifier_plantvillage_0_split
I0403 15:20:42.620611 31501 net.cpp:425] loss2/classifier_plantvillage_loss2/classifier_plantvillage_0_split <- loss2/classifier_plantvillage
I0403 15:20:42.620630 31501 net.cpp:399] loss2/classifier_plantvillage_loss2/classifier_plantvillage_0_split -> loss2/classifier_plantvillage_loss2/classifier_plantvillage_0_split_0
I0403 15:20:42.620648 31501 net.cpp:399] loss2/classifier_plantvillage_loss2/classifier_plantvillage_0_split -> loss2/classifier_plantvillage_loss2/classifier_plantvillage_0_split_1
I0403 15:20:42.620668 31501 net.cpp:399] loss2/classifier_plantvillage_loss2/classifier_plantvillage_0_split -> loss2/classifier_plantvillage_loss2/classifier_plantvillage_0_split_2
I0403 15:20:42.620744 31501 net.cpp:141] Setting up loss2/classifier_plantvillage_loss2/classifier_plantvillage_0_split
I0403 15:20:42.620767 31501 net.cpp:148] Top shape: 24 38 (912)
I0403 15:20:42.620784 31501 net.cpp:148] Top shape: 24 38 (912)
I0403 15:20:42.620800 31501 net.cpp:148] Top shape: 24 38 (912)
I0403 15:20:42.620812 31501 net.cpp:156] Memory required for data: 1208432160
I0403 15:20:42.620826 31501 layer_factory.hpp:77] Creating layer inception_4e/1x1
I0403 15:20:42.620846 31501 net.cpp:91] Creating Layer inception_4e/1x1
I0403 15:20:42.620863 31501 net.cpp:425] inception_4e/1x1 <- inception_4d/output_inception_4d/output_0_split_1
I0403 15:20:42.620884 31501 net.cpp:399] inception_4e/1x1 -> inception_4e/1x1
I0403 15:20:42.622675 31501 net.cpp:141] Setting up inception_4e/1x1
I0403 15:20:42.622702 31501 net.cpp:148] Top shape: 24 256 14 14 (1204224)
I0403 15:20:42.622717 31501 net.cpp:156] Memory required for data: 1213249056
I0403 15:20:42.622735 31501 layer_factory.hpp:77] Creating layer inception_4e/relu_1x1
I0403 15:20:42.622756 31501 net.cpp:91] Creating Layer inception_4e/relu_1x1
I0403 15:20:42.622772 31501 net.cpp:425] inception_4e/relu_1x1 <- inception_4e/1x1
I0403 15:20:42.622789 31501 net.cpp:386] inception_4e/relu_1x1 -> inception_4e/1x1 (in-place)
I0403 15:20:42.623080 31501 net.cpp:141] Setting up inception_4e/relu_1x1
I0403 15:20:42.623105 31501 net.cpp:148] Top shape: 24 256 14 14 (1204224)
I0403 15:20:42.623119 31501 net.cpp:156] Memory required for data: 1218065952
I0403 15:20:42.623134 31501 layer_factory.hpp:77] Creating layer inception_4e/3x3_reduce
I0403 15:20:42.623157 31501 net.cpp:91] Creating Layer inception_4e/3x3_reduce
I0403 15:20:42.623173 31501 net.cpp:425] inception_4e/3x3_reduce <- inception_4d/output_inception_4d/output_0_split_2
I0403 15:20:42.623194 31501 net.cpp:399] inception_4e/3x3_reduce -> inception_4e/3x3_reduce
I0403 15:20:42.625296 31501 net.cpp:141] Setting up inception_4e/3x3_reduce
I0403 15:20:42.625324 31501 net.cpp:148] Top shape: 24 160 14 14 (752640)
I0403 15:20:42.625339 31501 net.cpp:156] Memory required for data: 1221076512
I0403 15:20:42.625357 31501 layer_factory.hpp:77] Creating layer inception_4e/relu_3x3_reduce
I0403 15:20:42.625375 31501 net.cpp:91] Creating Layer inception_4e/relu_3x3_reduce
I0403 15:20:42.625391 31501 net.cpp:425] inception_4e/relu_3x3_reduce <- inception_4e/3x3_reduce
I0403 15:20:42.625411 31501 net.cpp:386] inception_4e/relu_3x3_reduce -> inception_4e/3x3_reduce (in-place)
I0403 15:20:42.625602 31501 net.cpp:141] Setting up inception_4e/relu_3x3_reduce
I0403 15:20:42.625627 31501 net.cpp:148] Top shape: 24 160 14 14 (752640)
I0403 15:20:42.625641 31501 net.cpp:156] Memory required for data: 1224087072
I0403 15:20:42.625656 31501 layer_factory.hpp:77] Creating layer inception_4e/3x3
I0403 15:20:42.625677 31501 net.cpp:91] Creating Layer inception_4e/3x3
I0403 15:20:42.625694 31501 net.cpp:425] inception_4e/3x3 <- inception_4e/3x3_reduce
I0403 15:20:42.625715 31501 net.cpp:399] inception_4e/3x3 -> inception_4e/3x3
I0403 15:20:42.630827 31501 net.cpp:141] Setting up inception_4e/3x3
I0403 15:20:42.630867 31501 net.cpp:148] Top shape: 24 320 14 14 (1505280)
I0403 15:20:42.630884 31501 net.cpp:156] Memory required for data: 1230108192
I0403 15:20:42.630903 31501 layer_factory.hpp:77] Creating layer inception_4e/relu_3x3
I0403 15:20:42.630924 31501 net.cpp:91] Creating Layer inception_4e/relu_3x3
I0403 15:20:42.630941 31501 net.cpp:425] inception_4e/relu_3x3 <- inception_4e/3x3
I0403 15:20:42.630959 31501 net.cpp:386] inception_4e/relu_3x3 -> inception_4e/3x3 (in-place)
I0403 15:20:42.631265 31501 net.cpp:141] Setting up inception_4e/relu_3x3
I0403 15:20:42.631291 31501 net.cpp:148] Top shape: 24 320 14 14 (1505280)
I0403 15:20:42.631307 31501 net.cpp:156] Memory required for data: 1236129312
I0403 15:20:42.631322 31501 layer_factory.hpp:77] Creating layer inception_4e/5x5_reduce
I0403 15:20:42.631347 31501 net.cpp:91] Creating Layer inception_4e/5x5_reduce
I0403 15:20:42.631364 31501 net.cpp:425] inception_4e/5x5_reduce <- inception_4d/output_inception_4d/output_0_split_3
I0403 15:20:42.631405 31501 net.cpp:399] inception_4e/5x5_reduce -> inception_4e/5x5_reduce
I0403 15:20:42.632530 31501 net.cpp:141] Setting up inception_4e/5x5_reduce
I0403 15:20:42.632570 31501 net.cpp:148] Top shape: 24 32 14 14 (150528)
I0403 15:20:42.632612 31501 net.cpp:156] Memory required for data: 1236731424
I0403 15:20:42.632640 31501 layer_factory.hpp:77] Creating layer inception_4e/relu_5x5_reduce
I0403 15:20:42.632678 31501 net.cpp:91] Creating Layer inception_4e/relu_5x5_reduce
I0403 15:20:42.632719 31501 net.cpp:425] inception_4e/relu_5x5_reduce <- inception_4e/5x5_reduce
I0403 15:20:42.632746 31501 net.cpp:386] inception_4e/relu_5x5_reduce -> inception_4e/5x5_reduce (in-place)
I0403 15:20:42.633059 31501 net.cpp:141] Setting up inception_4e/relu_5x5_reduce
I0403 15:20:42.633085 31501 net.cpp:148] Top shape: 24 32 14 14 (150528)
I0403 15:20:42.633100 31501 net.cpp:156] Memory required for data: 1237333536
I0403 15:20:42.633116 31501 layer_factory.hpp:77] Creating layer inception_4e/5x5
I0403 15:20:42.633152 31501 net.cpp:91] Creating Layer inception_4e/5x5
I0403 15:20:42.633172 31501 net.cpp:425] inception_4e/5x5 <- inception_4e/5x5_reduce
I0403 15:20:42.633191 31501 net.cpp:399] inception_4e/5x5 -> inception_4e/5x5
I0403 15:20:42.635072 31501 net.cpp:141] Setting up inception_4e/5x5
I0403 15:20:42.635103 31501 net.cpp:148] Top shape: 24 128 14 14 (602112)
I0403 15:20:42.635119 31501 net.cpp:156] Memory required for data: 1239741984
I0403 15:20:42.635139 31501 layer_factory.hpp:77] Creating layer inception_4e/relu_5x5
I0403 15:20:42.635157 31501 net.cpp:91] Creating Layer inception_4e/relu_5x5
I0403 15:20:42.635174 31501 net.cpp:425] inception_4e/relu_5x5 <- inception_4e/5x5
I0403 15:20:42.635193 31501 net.cpp:386] inception_4e/relu_5x5 -> inception_4e/5x5 (in-place)
I0403 15:20:42.635396 31501 net.cpp:141] Setting up inception_4e/relu_5x5
I0403 15:20:42.635422 31501 net.cpp:148] Top shape: 24 128 14 14 (602112)
I0403 15:20:42.635437 31501 net.cpp:156] Memory required for data: 1242150432
I0403 15:20:42.635452 31501 layer_factory.hpp:77] Creating layer inception_4e/pool
I0403 15:20:42.635470 31501 net.cpp:91] Creating Layer inception_4e/pool
I0403 15:20:42.635486 31501 net.cpp:425] inception_4e/pool <- inception_4d/output_inception_4d/output_0_split_4
I0403 15:20:42.635507 31501 net.cpp:399] inception_4e/pool -> inception_4e/pool
I0403 15:20:42.635594 31501 net.cpp:141] Setting up inception_4e/pool
I0403 15:20:42.635620 31501 net.cpp:148] Top shape: 24 528 14 14 (2483712)
I0403 15:20:42.635635 31501 net.cpp:156] Memory required for data: 1252085280
I0403 15:20:42.635650 31501 layer_factory.hpp:77] Creating layer inception_4e/pool_proj
I0403 15:20:42.635673 31501 net.cpp:91] Creating Layer inception_4e/pool_proj
I0403 15:20:42.635691 31501 net.cpp:425] inception_4e/pool_proj <- inception_4e/pool
I0403 15:20:42.635713 31501 net.cpp:399] inception_4e/pool_proj -> inception_4e/pool_proj
I0403 15:20:42.637336 31501 net.cpp:141] Setting up inception_4e/pool_proj
I0403 15:20:42.637378 31501 net.cpp:148] Top shape: 24 128 14 14 (602112)
I0403 15:20:42.637395 31501 net.cpp:156] Memory required for data: 1254493728
I0403 15:20:42.637414 31501 layer_factory.hpp:77] Creating layer inception_4e/relu_pool_proj
I0403 15:20:42.637433 31501 net.cpp:91] Creating Layer inception_4e/relu_pool_proj
I0403 15:20:42.637449 31501 net.cpp:425] inception_4e/relu_pool_proj <- inception_4e/pool_proj
I0403 15:20:42.637466 31501 net.cpp:386] inception_4e/relu_pool_proj -> inception_4e/pool_proj (in-place)
I0403 15:20:42.637778 31501 net.cpp:141] Setting up inception_4e/relu_pool_proj
I0403 15:20:42.637809 31501 net.cpp:148] Top shape: 24 128 14 14 (602112)
I0403 15:20:42.637823 31501 net.cpp:156] Memory required for data: 1256902176
I0403 15:20:42.637840 31501 layer_factory.hpp:77] Creating layer inception_4e/output
I0403 15:20:42.637856 31501 net.cpp:91] Creating Layer inception_4e/output
I0403 15:20:42.637872 31501 net.cpp:425] inception_4e/output <- inception_4e/1x1
I0403 15:20:42.637889 31501 net.cpp:425] inception_4e/output <- inception_4e/3x3
I0403 15:20:42.637913 31501 net.cpp:425] inception_4e/output <- inception_4e/5x5
I0403 15:20:42.637938 31501 net.cpp:425] inception_4e/output <- inception_4e/pool_proj
I0403 15:20:42.637959 31501 net.cpp:399] inception_4e/output -> inception_4e/output
I0403 15:20:42.638025 31501 net.cpp:141] Setting up inception_4e/output
I0403 15:20:42.638067 31501 net.cpp:148] Top shape: 24 832 14 14 (3913728)
I0403 15:20:42.638092 31501 net.cpp:156] Memory required for data: 1272557088
I0403 15:20:42.638109 31501 layer_factory.hpp:77] Creating layer pool4/3x3_s2
I0403 15:20:42.638128 31501 net.cpp:91] Creating Layer pool4/3x3_s2
I0403 15:20:42.638145 31501 net.cpp:425] pool4/3x3_s2 <- inception_4e/output
I0403 15:20:42.638164 31501 net.cpp:399] pool4/3x3_s2 -> pool4/3x3_s2
I0403 15:20:42.638233 31501 net.cpp:141] Setting up pool4/3x3_s2
I0403 15:20:42.638257 31501 net.cpp:148] Top shape: 24 832 7 7 (978432)
I0403 15:20:42.638272 31501 net.cpp:156] Memory required for data: 1276470816
I0403 15:20:42.638285 31501 layer_factory.hpp:77] Creating layer pool4/3x3_s2_pool4/3x3_s2_0_split
I0403 15:20:42.638303 31501 net.cpp:91] Creating Layer pool4/3x3_s2_pool4/3x3_s2_0_split
I0403 15:20:42.638317 31501 net.cpp:425] pool4/3x3_s2_pool4/3x3_s2_0_split <- pool4/3x3_s2
I0403 15:20:42.638337 31501 net.cpp:399] pool4/3x3_s2_pool4/3x3_s2_0_split -> pool4/3x3_s2_pool4/3x3_s2_0_split_0
I0403 15:20:42.638360 31501 net.cpp:399] pool4/3x3_s2_pool4/3x3_s2_0_split -> pool4/3x3_s2_pool4/3x3_s2_0_split_1
I0403 15:20:42.638380 31501 net.cpp:399] pool4/3x3_s2_pool4/3x3_s2_0_split -> pool4/3x3_s2_pool4/3x3_s2_0_split_2
I0403 15:20:42.638398 31501 net.cpp:399] pool4/3x3_s2_pool4/3x3_s2_0_split -> pool4/3x3_s2_pool4/3x3_s2_0_split_3
I0403 15:20:42.638490 31501 net.cpp:141] Setting up pool4/3x3_s2_pool4/3x3_s2_0_split
I0403 15:20:42.638515 31501 net.cpp:148] Top shape: 24 832 7 7 (978432)
I0403 15:20:42.638532 31501 net.cpp:148] Top shape: 24 832 7 7 (978432)
I0403 15:20:42.638553 31501 net.cpp:148] Top shape: 24 832 7 7 (978432)
I0403 15:20:42.638571 31501 net.cpp:148] Top shape: 24 832 7 7 (978432)
I0403 15:20:42.638584 31501 net.cpp:156] Memory required for data: 1292125728
I0403 15:20:42.638598 31501 layer_factory.hpp:77] Creating layer inception_5a/1x1
I0403 15:20:42.638620 31501 net.cpp:91] Creating Layer inception_5a/1x1
I0403 15:20:42.638638 31501 net.cpp:425] inception_5a/1x1 <- pool4/3x3_s2_pool4/3x3_s2_0_split_0
I0403 15:20:42.638658 31501 net.cpp:399] inception_5a/1x1 -> inception_5a/1x1
I0403 15:20:42.641541 31501 net.cpp:141] Setting up inception_5a/1x1
I0403 15:20:42.641571 31501 net.cpp:148] Top shape: 24 256 7 7 (301056)
I0403 15:20:42.641588 31501 net.cpp:156] Memory required for data: 1293329952
I0403 15:20:42.641616 31501 layer_factory.hpp:77] Creating layer inception_5a/relu_1x1
I0403 15:20:42.641634 31501 net.cpp:91] Creating Layer inception_5a/relu_1x1
I0403 15:20:42.641650 31501 net.cpp:425] inception_5a/relu_1x1 <- inception_5a/1x1
I0403 15:20:42.641671 31501 net.cpp:386] inception_5a/relu_1x1 -> inception_5a/1x1 (in-place)
I0403 15:20:42.641986 31501 net.cpp:141] Setting up inception_5a/relu_1x1
I0403 15:20:42.642014 31501 net.cpp:148] Top shape: 24 256 7 7 (301056)
I0403 15:20:42.642031 31501 net.cpp:156] Memory required for data: 1294534176
I0403 15:20:42.642046 31501 layer_factory.hpp:77] Creating layer inception_5a/3x3_reduce
I0403 15:20:42.642069 31501 net.cpp:91] Creating Layer inception_5a/3x3_reduce
I0403 15:20:42.642088 31501 net.cpp:425] inception_5a/3x3_reduce <- pool4/3x3_s2_pool4/3x3_s2_0_split_1
I0403 15:20:42.642107 31501 net.cpp:399] inception_5a/3x3_reduce -> inception_5a/3x3_reduce
I0403 15:20:42.644613 31501 net.cpp:141] Setting up inception_5a/3x3_reduce
I0403 15:20:42.644644 31501 net.cpp:148] Top shape: 24 160 7 7 (188160)
I0403 15:20:42.644660 31501 net.cpp:156] Memory required for data: 1295286816
I0403 15:20:42.644685 31501 layer_factory.hpp:77] Creating layer inception_5a/relu_3x3_reduce
I0403 15:20:42.644709 31501 net.cpp:91] Creating Layer inception_5a/relu_3x3_reduce
I0403 15:20:42.644726 31501 net.cpp:425] inception_5a/relu_3x3_reduce <- inception_5a/3x3_reduce
I0403 15:20:42.644743 31501 net.cpp:386] inception_5a/relu_3x3_reduce -> inception_5a/3x3_reduce (in-place)
I0403 15:20:42.644953 31501 net.cpp:141] Setting up inception_5a/relu_3x3_reduce
I0403 15:20:42.644999 31501 net.cpp:148] Top shape: 24 160 7 7 (188160)
I0403 15:20:42.645035 31501 net.cpp:156] Memory required for data: 1296039456
I0403 15:20:42.645051 31501 layer_factory.hpp:77] Creating layer inception_5a/3x3
I0403 15:20:42.645074 31501 net.cpp:91] Creating Layer inception_5a/3x3
I0403 15:20:42.645114 31501 net.cpp:425] inception_5a/3x3 <- inception_5a/3x3_reduce
I0403 15:20:42.645133 31501 net.cpp:399] inception_5a/3x3 -> inception_5a/3x3
I0403 15:20:42.650143 31501 net.cpp:141] Setting up inception_5a/3x3
I0403 15:20:42.650189 31501 net.cpp:148] Top shape: 24 320 7 7 (376320)
I0403 15:20:42.650214 31501 net.cpp:156] Memory required for data: 1297544736
I0403 15:20:42.650252 31501 layer_factory.hpp:77] Creating layer inception_5a/relu_3x3
I0403 15:20:42.650270 31501 net.cpp:91] Creating Layer inception_5a/relu_3x3
I0403 15:20:42.650286 31501 net.cpp:425] inception_5a/relu_3x3 <- inception_5a/3x3
I0403 15:20:42.650318 31501 net.cpp:386] inception_5a/relu_3x3 -> inception_5a/3x3 (in-place)
I0403 15:20:42.650620 31501 net.cpp:141] Setting up inception_5a/relu_3x3
I0403 15:20:42.650653 31501 net.cpp:148] Top shape: 24 320 7 7 (376320)
I0403 15:20:42.650671 31501 net.cpp:156] Memory required for data: 1299050016
I0403 15:20:42.650696 31501 layer_factory.hpp:77] Creating layer inception_5a/5x5_reduce
I0403 15:20:42.650749 31501 net.cpp:91] Creating Layer inception_5a/5x5_reduce
I0403 15:20:42.650768 31501 net.cpp:425] inception_5a/5x5_reduce <- pool4/3x3_s2_pool4/3x3_s2_0_split_2
I0403 15:20:42.650789 31501 net.cpp:399] inception_5a/5x5_reduce -> inception_5a/5x5_reduce
I0403 15:20:42.651942 31501 net.cpp:141] Setting up inception_5a/5x5_reduce
I0403 15:20:42.651973 31501 net.cpp:148] Top shape: 24 32 7 7 (37632)
I0403 15:20:42.651989 31501 net.cpp:156] Memory required for data: 1299200544
I0403 15:20:42.652007 31501 layer_factory.hpp:77] Creating layer inception_5a/relu_5x5_reduce
I0403 15:20:42.652025 31501 net.cpp:91] Creating Layer inception_5a/relu_5x5_reduce
I0403 15:20:42.652045 31501 net.cpp:425] inception_5a/relu_5x5_reduce <- inception_5a/5x5_reduce
I0403 15:20:42.652062 31501 net.cpp:386] inception_5a/relu_5x5_reduce -> inception_5a/5x5_reduce (in-place)
I0403 15:20:42.652359 31501 net.cpp:141] Setting up inception_5a/relu_5x5_reduce
I0403 15:20:42.652384 31501 net.cpp:148] Top shape: 24 32 7 7 (37632)
I0403 15:20:42.652397 31501 net.cpp:156] Memory required for data: 1299351072
I0403 15:20:42.652412 31501 layer_factory.hpp:77] Creating layer inception_5a/5x5
I0403 15:20:42.652444 31501 net.cpp:91] Creating Layer inception_5a/5x5
I0403 15:20:42.652462 31501 net.cpp:425] inception_5a/5x5 <- inception_5a/5x5_reduce
I0403 15:20:42.652482 31501 net.cpp:399] inception_5a/5x5 -> inception_5a/5x5
I0403 15:20:42.654247 31501 net.cpp:141] Setting up inception_5a/5x5
I0403 15:20:42.654299 31501 net.cpp:148] Top shape: 24 128 7 7 (150528)
I0403 15:20:42.654314 31501 net.cpp:156] Memory required for data: 1299953184
I0403 15:20:42.654337 31501 layer_factory.hpp:77] Creating layer inception_5a/relu_5x5
I0403 15:20:42.654356 31501 net.cpp:91] Creating Layer inception_5a/relu_5x5
I0403 15:20:42.654372 31501 net.cpp:425] inception_5a/relu_5x5 <- inception_5a/5x5
I0403 15:20:42.654393 31501 net.cpp:386] inception_5a/relu_5x5 -> inception_5a/5x5 (in-place)
I0403 15:20:42.654608 31501 net.cpp:141] Setting up inception_5a/relu_5x5
I0403 15:20:42.654636 31501 net.cpp:148] Top shape: 24 128 7 7 (150528)
I0403 15:20:42.654651 31501 net.cpp:156] Memory required for data: 1300555296
I0403 15:20:42.654666 31501 layer_factory.hpp:77] Creating layer inception_5a/pool
I0403 15:20:42.654685 31501 net.cpp:91] Creating Layer inception_5a/pool
I0403 15:20:42.654702 31501 net.cpp:425] inception_5a/pool <- pool4/3x3_s2_pool4/3x3_s2_0_split_3
I0403 15:20:42.654721 31501 net.cpp:399] inception_5a/pool -> inception_5a/pool
I0403 15:20:42.654793 31501 net.cpp:141] Setting up inception_5a/pool
I0403 15:20:42.654817 31501 net.cpp:148] Top shape: 24 832 7 7 (978432)
I0403 15:20:42.654832 31501 net.cpp:156] Memory required for data: 1304469024
I0403 15:20:42.654847 31501 layer_factory.hpp:77] Creating layer inception_5a/pool_proj
I0403 15:20:42.654870 31501 net.cpp:91] Creating Layer inception_5a/pool_proj
I0403 15:20:42.654886 31501 net.cpp:425] inception_5a/pool_proj <- inception_5a/pool
I0403 15:20:42.654908 31501 net.cpp:399] inception_5a/pool_proj -> inception_5a/pool_proj
I0403 15:20:42.657251 31501 net.cpp:141] Setting up inception_5a/pool_proj
I0403 15:20:42.657284 31501 net.cpp:148] Top shape: 24 128 7 7 (150528)
I0403 15:20:42.657299 31501 net.cpp:156] Memory required for data: 1305071136
I0403 15:20:42.657318 31501 layer_factory.hpp:77] Creating layer inception_5a/relu_pool_proj
I0403 15:20:42.657336 31501 net.cpp:91] Creating Layer inception_5a/relu_pool_proj
I0403 15:20:42.657351 31501 net.cpp:425] inception_5a/relu_pool_proj <- inception_5a/pool_proj
I0403 15:20:42.657402 31501 net.cpp:386] inception_5a/relu_pool_proj -> inception_5a/pool_proj (in-place)
I0403 15:20:42.657729 31501 net.cpp:141] Setting up inception_5a/relu_pool_proj
I0403 15:20:42.657760 31501 net.cpp:148] Top shape: 24 128 7 7 (150528)
I0403 15:20:42.657778 31501 net.cpp:156] Memory required for data: 1305673248
I0403 15:20:42.657793 31501 layer_factory.hpp:77] Creating layer inception_5a/output
I0403 15:20:42.657810 31501 net.cpp:91] Creating Layer inception_5a/output
I0403 15:20:42.657825 31501 net.cpp:425] inception_5a/output <- inception_5a/1x1
I0403 15:20:42.657842 31501 net.cpp:425] inception_5a/output <- inception_5a/3x3
I0403 15:20:42.657860 31501 net.cpp:425] inception_5a/output <- inception_5a/5x5
I0403 15:20:42.657876 31501 net.cpp:425] inception_5a/output <- inception_5a/pool_proj
I0403 15:20:42.657892 31501 net.cpp:399] inception_5a/output -> inception_5a/output
I0403 15:20:42.657943 31501 net.cpp:141] Setting up inception_5a/output
I0403 15:20:42.657966 31501 net.cpp:148] Top shape: 24 832 7 7 (978432)
I0403 15:20:42.657980 31501 net.cpp:156] Memory required for data: 1309586976
I0403 15:20:42.657995 31501 layer_factory.hpp:77] Creating layer inception_5a/output_inception_5a/output_0_split
I0403 15:20:42.658012 31501 net.cpp:91] Creating Layer inception_5a/output_inception_5a/output_0_split
I0403 15:20:42.658028 31501 net.cpp:425] inception_5a/output_inception_5a/output_0_split <- inception_5a/output
I0403 15:20:42.658048 31501 net.cpp:399] inception_5a/output_inception_5a/output_0_split -> inception_5a/output_inception_5a/output_0_split_0
I0403 15:20:42.658071 31501 net.cpp:399] inception_5a/output_inception_5a/output_0_split -> inception_5a/output_inception_5a/output_0_split_1
I0403 15:20:42.658092 31501 net.cpp:399] inception_5a/output_inception_5a/output_0_split -> inception_5a/output_inception_5a/output_0_split_2
I0403 15:20:42.658115 31501 net.cpp:399] inception_5a/output_inception_5a/output_0_split -> inception_5a/output_inception_5a/output_0_split_3
I0403 15:20:42.658227 31501 net.cpp:141] Setting up inception_5a/output_inception_5a/output_0_split
I0403 15:20:42.658252 31501 net.cpp:148] Top shape: 24 832 7 7 (978432)
I0403 15:20:42.658267 31501 net.cpp:148] Top shape: 24 832 7 7 (978432)
I0403 15:20:42.658282 31501 net.cpp:148] Top shape: 24 832 7 7 (978432)
I0403 15:20:42.658298 31501 net.cpp:148] Top shape: 24 832 7 7 (978432)
I0403 15:20:42.658311 31501 net.cpp:156] Memory required for data: 1325241888
I0403 15:20:42.658326 31501 layer_factory.hpp:77] Creating layer inception_5b/1x1
I0403 15:20:42.658349 31501 net.cpp:91] Creating Layer inception_5b/1x1
I0403 15:20:42.658366 31501 net.cpp:425] inception_5b/1x1 <- inception_5a/output_inception_5a/output_0_split_0
I0403 15:20:42.658387 31501 net.cpp:399] inception_5b/1x1 -> inception_5b/1x1
I0403 15:20:42.662209 31501 net.cpp:141] Setting up inception_5b/1x1
I0403 15:20:42.662238 31501 net.cpp:148] Top shape: 24 384 7 7 (451584)
I0403 15:20:42.662257 31501 net.cpp:156] Memory required for data: 1327048224
I0403 15:20:42.662276 31501 layer_factory.hpp:77] Creating layer inception_5b/relu_1x1
I0403 15:20:42.662294 31501 net.cpp:91] Creating Layer inception_5b/relu_1x1
I0403 15:20:42.662312 31501 net.cpp:425] inception_5b/relu_1x1 <- inception_5b/1x1
I0403 15:20:42.662328 31501 net.cpp:386] inception_5b/relu_1x1 -> inception_5b/1x1 (in-place)
I0403 15:20:42.662647 31501 net.cpp:141] Setting up inception_5b/relu_1x1
I0403 15:20:42.662691 31501 net.cpp:148] Top shape: 24 384 7 7 (451584)
I0403 15:20:42.662727 31501 net.cpp:156] Memory required for data: 1328854560
I0403 15:20:42.662763 31501 layer_factory.hpp:77] Creating layer inception_5b/3x3_reduce
I0403 15:20:42.662791 31501 net.cpp:91] Creating Layer inception_5b/3x3_reduce
I0403 15:20:42.662825 31501 net.cpp:425] inception_5b/3x3_reduce <- inception_5a/output_inception_5a/output_0_split_1
I0403 15:20:42.662868 31501 net.cpp:399] inception_5b/3x3_reduce -> inception_5b/3x3_reduce
I0403 15:20:42.665593 31501 net.cpp:141] Setting up inception_5b/3x3_reduce
I0403 15:20:42.665623 31501 net.cpp:148] Top shape: 24 192 7 7 (225792)
I0403 15:20:42.665640 31501 net.cpp:156] Memory required for data: 1329757728
I0403 15:20:42.665658 31501 layer_factory.hpp:77] Creating layer inception_5b/relu_3x3_reduce
I0403 15:20:42.665679 31501 net.cpp:91] Creating Layer inception_5b/relu_3x3_reduce
I0403 15:20:42.665696 31501 net.cpp:425] inception_5b/relu_3x3_reduce <- inception_5b/3x3_reduce
I0403 15:20:42.665714 31501 net.cpp:386] inception_5b/relu_3x3_reduce -> inception_5b/3x3_reduce (in-place)
I0403 15:20:42.665910 31501 net.cpp:141] Setting up inception_5b/relu_3x3_reduce
I0403 15:20:42.665935 31501 net.cpp:148] Top shape: 24 192 7 7 (225792)
I0403 15:20:42.665949 31501 net.cpp:156] Memory required for data: 1330660896
I0403 15:20:42.665963 31501 layer_factory.hpp:77] Creating layer inception_5b/3x3
I0403 15:20:42.665985 31501 net.cpp:91] Creating Layer inception_5b/3x3
I0403 15:20:42.666003 31501 net.cpp:425] inception_5b/3x3 <- inception_5b/3x3_reduce
I0403 15:20:42.666026 31501 net.cpp:399] inception_5b/3x3 -> inception_5b/3x3
I0403 15:20:42.672832 31501 net.cpp:141] Setting up inception_5b/3x3
I0403 15:20:42.672863 31501 net.cpp:148] Top shape: 24 384 7 7 (451584)
I0403 15:20:42.672880 31501 net.cpp:156] Memory required for data: 1332467232
I0403 15:20:42.672899 31501 layer_factory.hpp:77] Creating layer inception_5b/relu_3x3
I0403 15:20:42.672917 31501 net.cpp:91] Creating Layer inception_5b/relu_3x3
I0403 15:20:42.672933 31501 net.cpp:425] inception_5b/relu_3x3 <- inception_5b/3x3
I0403 15:20:42.672953 31501 net.cpp:386] inception_5b/relu_3x3 -> inception_5b/3x3 (in-place)
I0403 15:20:42.673249 31501 net.cpp:141] Setting up inception_5b/relu_3x3
I0403 15:20:42.673275 31501 net.cpp:148] Top shape: 24 384 7 7 (451584)
I0403 15:20:42.673291 31501 net.cpp:156] Memory required for data: 1334273568
I0403 15:20:42.673311 31501 layer_factory.hpp:77] Creating layer inception_5b/5x5_reduce
I0403 15:20:42.673349 31501 net.cpp:91] Creating Layer inception_5b/5x5_reduce
I0403 15:20:42.673367 31501 net.cpp:425] inception_5b/5x5_reduce <- inception_5a/output_inception_5a/output_0_split_2
I0403 15:20:42.673387 31501 net.cpp:399] inception_5b/5x5_reduce -> inception_5b/5x5_reduce
I0403 15:20:42.674746 31501 net.cpp:141] Setting up inception_5b/5x5_reduce
I0403 15:20:42.674777 31501 net.cpp:148] Top shape: 24 48 7 7 (56448)
I0403 15:20:42.674793 31501 net.cpp:156] Memory required for data: 1334499360
I0403 15:20:42.674810 31501 layer_factory.hpp:77] Creating layer inception_5b/relu_5x5_reduce
I0403 15:20:42.674829 31501 net.cpp:91] Creating Layer inception_5b/relu_5x5_reduce
I0403 15:20:42.674845 31501 net.cpp:425] inception_5b/relu_5x5_reduce <- inception_5b/5x5_reduce
I0403 15:20:42.674862 31501 net.cpp:386] inception_5b/relu_5x5_reduce -> inception_5b/5x5_reduce (in-place)
I0403 15:20:42.675257 31501 net.cpp:141] Setting up inception_5b/relu_5x5_reduce
I0403 15:20:42.675284 31501 net.cpp:148] Top shape: 24 48 7 7 (56448)
I0403 15:20:42.675299 31501 net.cpp:156] Memory required for data: 1334725152
I0403 15:20:42.675313 31501 layer_factory.hpp:77] Creating layer inception_5b/5x5
I0403 15:20:42.675355 31501 net.cpp:91] Creating Layer inception_5b/5x5
I0403 15:20:42.675398 31501 net.cpp:425] inception_5b/5x5 <- inception_5b/5x5_reduce
I0403 15:20:42.675454 31501 net.cpp:399] inception_5b/5x5 -> inception_5b/5x5
I0403 15:20:42.677500 31501 net.cpp:141] Setting up inception_5b/5x5
I0403 15:20:42.677531 31501 net.cpp:148] Top shape: 24 128 7 7 (150528)
I0403 15:20:42.677561 31501 net.cpp:156] Memory required for data: 1335327264
I0403 15:20:42.677580 31501 layer_factory.hpp:77] Creating layer inception_5b/relu_5x5
I0403 15:20:42.677599 31501 net.cpp:91] Creating Layer inception_5b/relu_5x5
I0403 15:20:42.677616 31501 net.cpp:425] inception_5b/relu_5x5 <- inception_5b/5x5
I0403 15:20:42.677636 31501 net.cpp:386] inception_5b/relu_5x5 -> inception_5b/5x5 (in-place)
I0403 15:20:42.677831 31501 net.cpp:141] Setting up inception_5b/relu_5x5
I0403 15:20:42.677863 31501 net.cpp:148] Top shape: 24 128 7 7 (150528)
I0403 15:20:42.677877 31501 net.cpp:156] Memory required for data: 1335929376
I0403 15:20:42.677892 31501 layer_factory.hpp:77] Creating layer inception_5b/pool
I0403 15:20:42.677909 31501 net.cpp:91] Creating Layer inception_5b/pool
I0403 15:20:42.677924 31501 net.cpp:425] inception_5b/pool <- inception_5a/output_inception_5a/output_0_split_3
I0403 15:20:42.677944 31501 net.cpp:399] inception_5b/pool -> inception_5b/pool
I0403 15:20:42.678016 31501 net.cpp:141] Setting up inception_5b/pool
I0403 15:20:42.678040 31501 net.cpp:148] Top shape: 24 832 7 7 (978432)
I0403 15:20:42.678053 31501 net.cpp:156] Memory required for data: 1339843104
I0403 15:20:42.678067 31501 layer_factory.hpp:77] Creating layer inception_5b/pool_proj
I0403 15:20:42.678088 31501 net.cpp:91] Creating Layer inception_5b/pool_proj
I0403 15:20:42.678105 31501 net.cpp:425] inception_5b/pool_proj <- inception_5b/pool
I0403 15:20:42.678127 31501 net.cpp:399] inception_5b/pool_proj -> inception_5b/pool_proj
I0403 15:20:42.680434 31501 net.cpp:141] Setting up inception_5b/pool_proj
I0403 15:20:42.680466 31501 net.cpp:148] Top shape: 24 128 7 7 (150528)
I0403 15:20:42.680485 31501 net.cpp:156] Memory required for data: 1340445216
I0403 15:20:42.680503 31501 layer_factory.hpp:77] Creating layer inception_5b/relu_pool_proj
I0403 15:20:42.680522 31501 net.cpp:91] Creating Layer inception_5b/relu_pool_proj
I0403 15:20:42.680543 31501 net.cpp:425] inception_5b/relu_pool_proj <- inception_5b/pool_proj
I0403 15:20:42.680562 31501 net.cpp:386] inception_5b/relu_pool_proj -> inception_5b/pool_proj (in-place)
I0403 15:20:42.680881 31501 net.cpp:141] Setting up inception_5b/relu_pool_proj
I0403 15:20:42.680909 31501 net.cpp:148] Top shape: 24 128 7 7 (150528)
I0403 15:20:42.680925 31501 net.cpp:156] Memory required for data: 1341047328
I0403 15:20:42.680941 31501 layer_factory.hpp:77] Creating layer inception_5b/output
I0403 15:20:42.680959 31501 net.cpp:91] Creating Layer inception_5b/output
I0403 15:20:42.680991 31501 net.cpp:425] inception_5b/output <- inception_5b/1x1
I0403 15:20:42.681010 31501 net.cpp:425] inception_5b/output <- inception_5b/3x3
I0403 15:20:42.681026 31501 net.cpp:425] inception_5b/output <- inception_5b/5x5
I0403 15:20:42.681043 31501 net.cpp:425] inception_5b/output <- inception_5b/pool_proj
I0403 15:20:42.681061 31501 net.cpp:399] inception_5b/output -> inception_5b/output
I0403 15:20:42.681114 31501 net.cpp:141] Setting up inception_5b/output
I0403 15:20:42.681138 31501 net.cpp:148] Top shape: 24 1024 7 7 (1204224)
I0403 15:20:42.681154 31501 net.cpp:156] Memory required for data: 1345864224
I0403 15:20:42.681169 31501 layer_factory.hpp:77] Creating layer pool5/7x7_s1
I0403 15:20:42.681187 31501 net.cpp:91] Creating Layer pool5/7x7_s1
I0403 15:20:42.681205 31501 net.cpp:425] pool5/7x7_s1 <- inception_5b/output
I0403 15:20:42.681223 31501 net.cpp:399] pool5/7x7_s1 -> pool5/7x7_s1
I0403 15:20:42.681445 31501 net.cpp:141] Setting up pool5/7x7_s1
I0403 15:20:42.681470 31501 net.cpp:148] Top shape: 24 1024 1 1 (24576)
I0403 15:20:42.681486 31501 net.cpp:156] Memory required for data: 1345962528
I0403 15:20:42.681501 31501 layer_factory.hpp:77] Creating layer pool5/drop_7x7_s1
I0403 15:20:42.681519 31501 net.cpp:91] Creating Layer pool5/drop_7x7_s1
I0403 15:20:42.681540 31501 net.cpp:425] pool5/drop_7x7_s1 <- pool5/7x7_s1
I0403 15:20:42.681561 31501 net.cpp:386] pool5/drop_7x7_s1 -> pool5/7x7_s1 (in-place)
I0403 15:20:42.681618 31501 net.cpp:141] Setting up pool5/drop_7x7_s1
I0403 15:20:42.681641 31501 net.cpp:148] Top shape: 24 1024 1 1 (24576)
I0403 15:20:42.681659 31501 net.cpp:156] Memory required for data: 1346060832
I0403 15:20:42.681674 31501 layer_factory.hpp:77] Creating layer loss3/classifier_plantvillage
I0403 15:20:42.681694 31501 net.cpp:91] Creating Layer loss3/classifier_plantvillage
I0403 15:20:42.681711 31501 net.cpp:425] loss3/classifier_plantvillage <- pool5/7x7_s1
I0403 15:20:42.681731 31501 net.cpp:399] loss3/classifier_plantvillage -> loss3/classifier_plantvillage
I0403 15:20:42.682160 31501 net.cpp:141] Setting up loss3/classifier_plantvillage
I0403 15:20:42.682185 31501 net.cpp:148] Top shape: 24 38 (912)
I0403 15:20:42.682199 31501 net.cpp:156] Memory required for data: 1346064480
I0403 15:20:42.682217 31501 layer_factory.hpp:77] Creating layer loss3/classifier_plantvillage_loss3/classifier_plantvillage_0_split
I0403 15:20:42.682235 31501 net.cpp:91] Creating Layer loss3/classifier_plantvillage_loss3/classifier_plantvillage_0_split
I0403 15:20:42.682251 31501 net.cpp:425] loss3/classifier_plantvillage_loss3/classifier_plantvillage_0_split <- loss3/classifier_plantvillage
I0403 15:20:42.682272 31501 net.cpp:399] loss3/classifier_plantvillage_loss3/classifier_plantvillage_0_split -> loss3/classifier_plantvillage_loss3/classifier_plantvillage_0_split_0
I0403 15:20:42.682293 31501 net.cpp:399] loss3/classifier_plantvillage_loss3/classifier_plantvillage_0_split -> loss3/classifier_plantvillage_loss3/classifier_plantvillage_0_split_1
I0403 15:20:42.682314 31501 net.cpp:399] loss3/classifier_plantvillage_loss3/classifier_plantvillage_0_split -> loss3/classifier_plantvillage_loss3/classifier_plantvillage_0_split_2
I0403 15:20:42.682338 31501 net.cpp:399] loss3/classifier_plantvillage_loss3/classifier_plantvillage_0_split -> loss3/classifier_plantvillage_loss3/classifier_plantvillage_0_split_3
I0403 15:20:42.682442 31501 net.cpp:141] Setting up loss3/classifier_plantvillage_loss3/classifier_plantvillage_0_split
I0403 15:20:42.682466 31501 net.cpp:148] Top shape: 24 38 (912)
I0403 15:20:42.682482 31501 net.cpp:148] Top shape: 24 38 (912)
I0403 15:20:42.682497 31501 net.cpp:148] Top shape: 24 38 (912)
I0403 15:20:42.682512 31501 net.cpp:148] Top shape: 24 38 (912)
I0403 15:20:42.682526 31501 net.cpp:156] Memory required for data: 1346079072
I0403 15:20:42.682554 31501 layer_factory.hpp:77] Creating layer loss1/loss
I0403 15:20:42.682579 31501 net.cpp:91] Creating Layer loss1/loss
I0403 15:20:42.682596 31501 net.cpp:425] loss1/loss <- loss1/classifier_plantvillage_loss1/classifier_plantvillage_0_split_0
I0403 15:20:42.682627 31501 net.cpp:425] loss1/loss <- label_data_1_split_0
…
