…
I0403 15:17:46.634223 31423 net.cpp:313] The NetState phase (1) differed from the phase (0) specified by a rule in layer data
I0403 15:17:46.635361 31423 net.cpp:49] Initializing net from parameters: 
state {
  phase: TEST
}
layer {
  name: "data"
  type: "Data"
  top: "data"
  top: "label"
  include {
    phase: TEST
  }
  transform_param {
    mirror: false
    crop_size: 224
    mean_file: "/home/mohanty/data/final_dataset/lmdb/grayscale-80-20/mean.binaryproto"
  }
  data_param {
    source: "/home/mohanty/data/final_dataset/lmdb/grayscale-80-20/test_db"
    batch_size: 24
    backend: LMDB
  }
}
layer {
  name: "conv1/7x7_s2"
  type: "Convolution"
  bottom: "data"
  top: "conv1/7x7_s2"
  param {
    lr_mult: 1
    decay_mult: 1
  }
  param {
    lr_mult: 2
    decay_mult: 0
  }
  convolution_param {
    num_output: 64
    pad: 3
    kernel_size: 7
    stride: 2
    weight_filler {
      type: "xavier"
      std: 0.1
    }
    bias_filler {
      type: "constant"
      value: 0.2
    }
  }
}
layer {
  name: "conv1/relu_7x7"
  type: "ReLU"
  bottom: "conv1/7x7_s2"
  top: "conv1/7x7_s2"
}
layer {
  name: "pool1/3x3_s2"
  type: "Pooling"
  bottom: "conv1/7x7_s2"
  top: "pool1/3x3_s2"
  pooling_param {
    pool: MAX
    kernel_size: 3
    stride: 2
  }
}
layer {
  name: "pool1/norm1"
  type: "LRN"
  bottom: "pool1/3x3_s2"
  top: "pool1/norm1"
  lrn_param {
    local_size: 5
    alpha: 0.0001
    beta: 0.75
  }
}
layer {
  name: "conv2/3x3_reduce"
  type: "Convolution"
  bottom: "pool1/norm1"
  top: "conv2/3x3_reduce"
  param {
    lr_mult: 1
    decay_mult: 1
  }
  param {
    lr_mult: 2
    decay_mult: 0
  }
  convolution_param {
    num_output: 64
    kernel_size: 1
    weight_filler {
      type: "xavier"
      std: 0.1
    }
    bias_filler {
      type: "constant"
      value: 0.2
    }
  }
}
layer {
  name: "conv2/relu_3x3_reduce"
  type: "ReLU"
  bottom: "conv2/3x3_reduce"
  top: "conv2/3x3_reduce"
}
layer {
  name: "conv2/3x3"
  type: "Convolution"
  bottom: "conv2/3x3_reduce"
  top: "conv2/3x3"
  param {
    lr_mult: 1
    decay_mult: 1
  }
  param {
    lr_mult: 2
    decay_mult: 0
  }
  convolution_param {
    num_output: 192
    pad: 1
    kernel_size: 3
    weight_filler {
      type: "xavier"
      std: 0.03
    }
    bias_filler {
      type: "constant"
      value: 0.2
    }
  }
}
layer {
  name: "conv2/relu_3x3"
  type: "ReLU"
  bottom: "conv2/3x3"
  top: "conv2/3x3"
}
layer {
  name: "conv2/norm2"
  type: "LRN"
  bottom: "conv2/3x3"
  top: "conv2/norm2"
  lrn_param {
    local_size: 5
    alpha: 0.0001
    beta: 0.75
  }
}
layer {
  name: "pool2/3x3_s2"
  type: "Pooling"
  bottom: "conv2/norm2"
  top: "pool2/3x3_s2"
  pooling_param {
    pool: MAX
    kernel_size: 3
    stride: 2
  }
}
layer {
  name: "inception_3a/1x1"
  type: "Convolution"
  bottom: "pool2/3x3_s2"
  top: "inception_3a/1x1"
  param {
    lr_mult: 1
    decay_mult: 1
  }
  param {
    lr_mult: 2
    decay_mult: 0
  }
  convolution_param {
    num_output: 64
    kernel_size: 1
    weight_filler {
      type: "xavier"
      std: 0.03
    }
    bias_filler {
      type: "constant"
      value: 0.2
    }
  }
}
layer {
  name: "inception_3a/relu_1x1"
  type: "ReLU"
  bottom: "inception_3a/1x1"
  top: "inception_3a/1x1"
}
layer {
  name: "inception_3a/3x3_reduce"
  type: "Convolution"
  bottom: "pool2/3x3_s2"
  top: "inception_3a/3x3_reduce"
  param {
    lr_mult: 1
    decay_mult: 1
  }
  param {
    lr_mult: 2
    decay_mult: 0
  }
  convolution_param {
    num_output: 96
    kernel_size: 1
    weight_filler {
      type: "xavier"
      std: 0.09
    }
    bias_filler {
      type: "constant"
      value: 0.2
    }
  }
}
layer {
  name: "inception_3a/relu_3x3_reduce"
  type: "ReLU"
  bottom: "inception_3a/3x3_reduce"
  top: "inception_3a/3x3_reduce"
}
layer {
  name: "inception_3a/3x3"
  type: "Convolution"
  bottom: "inception_3a/3x3_reduce"
  top: "inception_3a/3x3"
  param {
    lr_mult: 1
    decay_mult: 1
  }
  param {
    lr_mult: 2
    decay_mult: 0
  }
  convolution_param {
    num_output: 128
    pad: 1
    kernel_size: 3
    weight_filler {
      type: "xavier"
      std: 0.03
    }
    bias_filler {
      type: "constant"
      value: 0.2
    }
  }
}
layer {
  name: "inception_3a/relu_3x3"
  type: "ReLU"
  bottom: "inception_3a/3x3"
  top: "inception_3a/3x3"
}
layer {
  name: "inception_3a/5x5_reduce"
  type: "Convolution"
  bottom: "pool2/3x3_s2"
  top: "inception_3a/5x5_reduce"
  param {
    lr_mult: 1
    decay_mult: 1
  }
  param {
    lr_mult: 2
    decay_mult: 0
  }
  convolution_param {
    num_output: 16
    kernel_size: 1
    weight_filler {
      type: "xavier"
      std: 0.2
    }
    bias_filler {
      type: "constant"
      value: 0.2
    }
  }
}
layer {
  name: "inception_3a/relu_5x5_reduce"
  type: "ReLU"
  bottom: "inception_3a/5x5_reduce"
  top: "inception_3a/5x5_reduce"
}
layer {
  name: "inception_3a/5x5"
  type: "Convolution"
  bottom: "inception_3a/5x5_reduce"
  top: "inception_3a/5x5"
  param {
    lr_mult: 1
    decay_mult: 1
  }
  param {
    lr_mult: 2
    decay_mult: 0
  }
  convolution_param {
    num_output: 32
    pad: 2
    kernel_size: 5
    weight_filler {
      type: "xavier"
      std: 0.03
    }
    bias_filler {
      type: "constant"
      value: 0.2
    }
  }
}
layer {
  name: "inception_3a/relu_5x5"
  type: "ReLU"
  bottom: "inception_3a/5x5"
  top: "inception_3a/5x5"
}
layer {
  name: "inception_3a/pool"
  type: "Pooling"
  bottom: "pool2/3x3_s2"
  top: "inception_3a/pool"
  pooling_param {
    pool: MAX
    kernel_size: 3
    stride: 1
    pad: 1
  }
}
layer {
  name: "inception_3a/pool_proj"
  type: "Convolution"
  bottom: "inception_3a/pool"
  top: "inception_3a/pool_proj"
  param {
    lr_mult: 1
    decay_mult: 1
  }
  param {
    lr_mult: 2
    decay_mult: 0
  }
  convolution_param {
    num_output: 32
    kernel_size: 1
    weight_filler {
      type: "xavier"
      std: 0.1
    }
    bias_filler {
      type: "constant"
      value: 0.2
    }
  }
}
layer {
  name: "inception_3a/relu_pool_proj"
  type: "ReLU"
  bottom: "inception_3a/pool_proj"
  top: "inception_3a/pool_proj"
}
layer {
  name: "inception_3a/output"
  type: "Concat"
  bottom: "inception_3a/1x1"
  bottom: "inception_3a/3x3"
  bottom: "inception_3a/5x5"
  bottom: "inception_3a/pool_proj"
  top: "inception_3a/output"
}
layer {
  name: "inception_3b/1x1"
  type: "Convolution"
  bottom: "inception_3a/output"
  top: "inception_3b/1x1"
  param {
    lr_mult: 1
    decay_mult: 1
  }
  param {
    lr_mult: 2
    decay_mult: 0
  }
  convolution_param {
    num_output: 128
    kernel_size: 1
    weight_filler {
      type: "xavier"
      std: 0.03
    }
    bias_filler {
      type: "constant"
      value: 0.2
    }
  }
}
layer {
  name: "inception_3b/relu_1x1"
  type: "ReLU"
  bottom: "inception_3b/1x1"
  top: "inception_3b/1x1"
}
layer {
  name: "inception_3b/3x3_reduce"
  type: "Convolution"
  bottom: "inception_3a/output"
  top: "inception_3b/3x3_reduce"
  param {
    lr_mult: 1
    decay_mult: 1
  }
  param {
    lr_mult: 2
    decay_mult: 0
  }
  convolution_param {
    num_output: 128
    kernel_size: 1
    weight_filler {
      type: "xavier"
      std: 0.09
    }
    bias_filler {
      type: "constant"
      value: 0.2
    }
  }
}
layer {
  name: "inception_3b/relu_3x3_reduce"
  type: "ReLU"
  bottom: "inception_3b/3x3_reduce"
  top: "inception_3b/3x3_reduce"
}
layer {
  name: "inception_3b/3x3"
  type: "Convolution"
  bottom: "inception_3b/3x3_reduce"
  top: "inception_3b/3x3"
  param {
    lr_mult: 1
    decay_mult: 1
  }
  param {
    lr_mult: 2
    decay_mult: 0
  }
  convolution_param {
    num_output: 192
    pad: 1
    kernel_size: 3
    weight_filler {
      type: "xavier"
      std: 0.03
    }
    bias_filler {
      type: "constant"
      value: 0.2
    }
  }
}
layer {
  name: "inception_3b/relu_3x3"
  type: "ReLU"
  bottom: "inception_3b/3x3"
  top: "inception_3b/3x3"
}
layer {
  name: "inception_3b/5x5_reduce"
  type: "Convolution"
  bottom: "inception_3a/output"
  top: "inception_3b/5x5_reduce"
  param {
    lr_mult: 1
    decay_mult: 1
  }
  param {
    lr_mult: 2
    decay_mult: 0
  }
  convolution_param {
    num_output: 32
    kernel_size: 1
    weight_filler {
      type: "xavier"
      std: 0.2
    }
    bias_filler {
      type: "constant"
      value: 0.2
    }
  }
}
layer {
  name: "inception_3b/relu_5x5_reduce"
  type: "ReLU"
  bottom: "inception_3b/5x5_reduce"
  top: "inception_3b/5x5_reduce"
}
layer {
  name: "inception_3b/5x5"
  type: "Convolution"
  bottom: "inception_3b/5x5_reduce"
  top: "inception_3b/5x5"
  param {
    lr_mult: 1
    decay_mult: 1
  }
  param {
    lr_mult: 2
    decay_mult: 0
  }
  convolution_param {
    num_output: 96
    pad: 2
    kernel_size: 5
    weight_filler {
      type: "xavier"
      std: 0.03
    }
    bias_filler {
      type: "constant"
      value: 0.2
    }
  }
}
layer {
  name: "inception_3b/relu_5x5"
  type: "ReLU"
  bottom: "inception_3b/5x5"
  top: "inception_3b/5x5"
}
layer {
  name: "inception_3b/pool"
  type: "Pooling"
  bottom: "inception_3a/output"
  top: "inception_3b/pool"
  pooling_param {
    pool: MAX
    kernel_size: 3
    stride: 1
    pad: 1
  }
}
layer {
  name: "inception_3b/pool_proj"
  type: "Convolution"
  bottom: "inception_3b/pool"
  top: "inception_3b/pool_proj"
  param {
    lr_mult: 1
    decay_mult: 1
  }
  param {
    lr_mult: 2
    decay_mult: 0
  }
  convolution_param {
    num_output: 64
    kernel_size: 1
    weight_filler {
      type: "xavier"
      std: 0.1
    }
    bias_filler {
      type: "constant"
      value: 0.2
    }
  }
}
layer {
  name: "inception_3b/relu_pool_proj"
  type: "ReLU"
  bottom: "inception_3b/pool_proj"
  top: "inception_3b/pool_proj"
}
layer {
  name: "inception_3b/output"
  type: "Concat"
  bottom: "inception_3b/1x1"
  bottom: "inception_3b/3x3"
  bottom: "inception_3b/5x5"
  bottom: "inception_3b/pool_proj"
  top: "inception_3b/output"
}
layer {
  name: "pool3/3x3_s2"
  type: "Pooling"
  bottom: "inception_3b/output"
  top: "pool3/3x3_s2"
  pooling_param {
    pool: MAX
    kernel_size: 3
    stride: 2
  }
}
layer {
  name: "inception_4a/1x1"
  type: "Convolution"
  bottom: "pool3/3x3_s2"
  top: "inception_4a/1x1"
  param {
    lr_mult: 1
    decay_mult: 1
  }
  param {
    lr_mult: 2
    decay_mult: 0
  }
  convolution_param {
    num_output: 192
    kernel_size: 1
    weight_filler {
      type: "xavier"
      std: 0.03
    }
    bias_filler {
      type: "constant"
      value: 0.2
    }
  }
}
layer {
  name: "inception_4a/relu_1x1"
  type: "ReLU"
  bottom: "inception_4a/1x1"
  top: "inception_4a/1x1"
}
layer {
  name: "inception_4a/3x3_reduce"
  type: "Convolution"
  bottom: "pool3/3x3_s2"
  top: "inception_4a/3x3_reduce"
  param {
    lr_mult: 1
    decay_mult: 1
  }
  param {
    lr_mult: 2
    decay_mult: 0
  }
  convolution_param {
    num_output: 96
    kernel_size: 1
    weight_filler {
      type: "xavier"
      std: 0.09
    }
    bias_filler {
      type: "constant"
      value: 0.2
    }
  }
}
layer {
  name: "inception_4a/relu_3x3_reduce"
  type: "ReLU"
  bottom: "inception_4a/3x3_reduce"
  top: "inception_4a/3x3_reduce"
}
layer {
  name: "inception_4a/3x3"
  type: "Convolution"
  bottom: "inception_4a/3x3_reduce"
  top: "inception_4a/3x3"
  param {
    lr_mult: 1
    decay_mult: 1
  }
  param {
    lr_mult: 2
    decay_mult: 0
  }
  convolution_param {
    num_output: 208
    pad: 1
    kernel_size: 3
    weight_filler {
      type: "xavier"
      std: 0.03
    }
    bias_filler {
      type: "constant"
      value: 0.2
    }
  }
}
layer {
  name: "inception_4a/relu_3x3"
  type: "ReLU"
  bottom: "inception_4a/3x3"
  top: "inception_4a/3x3"
}
layer {
  name: "inception_4a/5x5_reduce"
  type: "Convolution"
  bottom: "pool3/3x3_s2"
  top: "inception_4a/5x5_reduce"
  param {
    lr_mult: 1
    decay_mult: 1
  }
  param {
    lr_mult: 2
    decay_mult: 0
  }
  convolution_param {
    num_output: 16
    kernel_size: 1
    weight_filler {
      type: "xavier"
      std: 0.2
    }
    bias_filler {
      type: "constant"
      value: 0.2
    }
  }
}
layer {
  name: "inception_4a/relu_5x5_reduce"
  type: "ReLU"
  bottom: "inception_4a/5x5_reduce"
  top: "inception_4a/5x5_reduce"
}
layer {
  name: "inception_4a/5x5"
  type: "Convolution"
  bottom: "inception_4a/5x5_reduce"
  top: "inception_4a/5x5"
  param {
    lr_mult: 1
    decay_mult: 1
  }
  param {
    lr_mult: 2
    decay_mult: 0
  }
  convolution_param {
    num_output: 48
    pad: 2
    kernel_size: 5
    weight_filler {
      type: "xavier"
      std: 0.03
    }
    bias_filler {
      type: "constant"
      value: 0.2
    }
  }
}
layer {
  name: "inception_4a/relu_5x5"
  type: "ReLU"
  bottom: "inception_4a/5x5"
  top: "inception_4a/5x5"
}
layer {
  name: "inception_4a/pool"
  type: "Pooling"
  bottom: "pool3/3x3_s2"
  top: "inception_4a/pool"
  pooling_param {
    pool: MAX
    kernel_size: 3
    stride: 1
    pad: 1
  }
}
layer {
  name: "inception_4a/pool_proj"
  type: "Convolution"
  bottom: "inception_4a/pool"
  top: "inception_4a/pool_proj"
  param {
    lr_mult: 1
    decay_mult: 1
  }
  param {
    lr_mult: 2
    decay_mult: 0
  }
  convolution_param {
    num_output: 64
    kernel_size: 1
    weight_filler {
      type: "xavier"
      std: 0.1
    }
    bias_filler {
      type: "constant"
      value: 0.2
    }
  }
}
layer {
  name: "inception_4a/relu_pool_proj"
  type: "ReLU"
  bottom: "inception_4a/pool_proj"
  top: "inception_4a/pool_proj"
}
layer {
  name: "inception_4a/output"
  type: "Concat"
  bottom: "inception_4a/1x1"
  bottom: "inception_4a/3x3"
  bottom: "inception_4a/5x5"
  bottom: "inception_4a/pool_proj"
  top: "inception_4a/output"
}
layer {
  name: "loss1/ave_pool"
  type: "Pooling"
  bottom: "inception_4a/output"
  top: "loss1/ave_pool"
  pooling_param {
    pool: AVE
    kernel_size: 5
    stride: 3
  }
}
layer {
  name: "loss1/conv"
  type: "Convolution"
  bottom: "loss1/ave_pool"
  top: "loss1/conv"
  param {
    lr_mult: 1
    decay_mult: 1
  }
  param {
    lr_mult: 2
    decay_mult: 0
  }
  convolution_param {
    num_output: 128
    kernel_size: 1
    weight_filler {
      type: "xavier"
      std: 0.08
    }
    bias_filler {
      type: "constant"
      value: 0.2
    }
  }
}
layer {
  name: "loss1/relu_conv"
  type: "ReLU"
  bottom: "loss1/conv"
  top: "loss1/conv"
}
layer {
  name: "loss1/fc"
  type: "InnerProduct"
  bottom: "loss1/conv"
  top: "loss1/fc"
  param {
    lr_mult: 1
    decay_mult: 1
  }
  param {
    lr_mult: 2
    decay_mult: 0
  }
  inner_product_param {
    num_output: 1024
    weight_filler {
      type: "xavier"
      std: 0.02
    }
    bias_filler {
      type: "constant"
      value: 0.2
    }
  }
}
layer {
  name: "loss1/relu_fc"
  type: "ReLU"
  bottom: "loss1/fc"
  top: "loss1/fc"
}
layer {
  name: "loss1/drop_fc"
  type: "Dropout"
  bottom: "loss1/fc"
  top: "loss1/fc"
  dropout_param {
    dropout_ratio: 0.7
  }
}
layer {
  name: "loss1/classifier_plantvillage"
  type: "InnerProduct"
  bottom: "loss1/fc"
  top: "loss1/classifier_plantvillage"
  param {
    lr_mult: 1
    decay_mult: 1
  }
  param {
    lr_mult: 2
    decay_mult: 0
  }
  inner_product_param {
    num_output: 38
    weight_filler {
      type: "xavier"
      std: 0.0009765625
    }
    bias_filler {
      type: "constant"
      value: 0
    }
  }
}
layer {
  name: "inception_4b/1x1"
  type: "Convolution"
  bottom: "inception_4a/output"
  top: "inception_4b/1x1"
  param {
    lr_mult: 1
    decay_mult: 1
  }
  param {
    lr_mult: 2
    decay_mult: 0
  }
  convolution_param {
    num_output: 160
    kernel_size: 1
    weight_filler {
      type: "xavier"
      std: 0.03
    }
    bias_filler {
      type: "constant"
      value: 0.2
    }
  }
}
layer {
  name: "inception_4b/relu_1x1"
  type: "ReLU"
  bottom: "inception_4b/1x1"
  top: "inception_4b/1x1"
}
layer {
  name: "inception_4b/3x3_reduce"
  type: "Convolution"
  bottom: "inception_4a/output"
  top: "inception_4b/3x3_reduce"
  param {
    lr_mult: 1
    decay_mult: 1
  }
  param {
    lr_mult: 2
    decay_mult: 0
  }
  convolution_param {
    num_output: 112
    kernel_size: 1
    weight_filler {
      type: "xavier"
      std: 0.09
    }
    bias_filler {
      type: "constant"
      value: 0.2
    }
  }
}
layer {
  name: "inception_4b/relu_3x3_reduce"
  type: "ReLU"
  bottom: "inception_4b/3x3_reduce"
  top: "inception_4b/3x3_reduce"
}
layer {
  name: "inception_4b/3x3"
  type: "Convolution"
  bottom: "inception_4b/3x3_reduce"
  top: "inception_4b/3x3"
  param {
    lr_mult: 1
    decay_mult: 1
  }
  param {
    lr_mult: 2
    decay_mult: 0
  }
  convolution_param {
    num_output: 224
    pad: 1
    kernel_size: 3
    weight_filler {
      type: "xavier"
      std: 0.03
    }
    bias_filler {
      type: "constant"
      value: 0.2
    }
  }
}
layer {
  name: "inception_4b/relu_3x3"
  type: "ReLU"
  bottom: "inception_4b/3x3"
  top: "inception_4b/3x3"
}
layer {
  name: "inception_4b/5x5_reduce"
  type: "Convolution"
  bottom: "inception_4a/output"
  top: "inception_4b/5x5_reduce"
  param {
    lr_mult: 1
    decay_mult: 1
  }
  param {
    lr_mult: 2
    decay_mult: 0
  }
  convolution_param {
    num_output: 24
    kernel_size: 1
    weight_filler {
      type: "xavier"
      std: 0.2
    }
    bias_filler {
      type: "constant"
      value: 0.2
    }
  }
}
layer {
  name: "inception_4b/relu_5x5_reduce"
  type: "ReLU"
  bottom: "inception_4b/5x5_reduce"
  top: "inception_4b/5x5_reduce"
}
layer {
  name: "inception_4b/5x5"
  type: "Convolution"
  bottom: "inception_4b/5x5_reduce"
  top: "inception_4b/5x5"
  param {
    lr_mult: 1
    decay_mult: 1
  }
  param {
    lr_mult: 2
    decay_mult: 0
  }
  convolution_param {
    num_output: 64
    pad: 2
    kernel_size: 5
    weight_filler {
      type: "xavier"
      std: 0.03
    }
    bias_filler {
      type: "constant"
      value: 0.2
    }
  }
}
layer {
  name: "inception_4b/relu_5x5"
  type: "ReLU"
  bottom: "inception_4b/5x5"
  top: "inception_4b/5x5"
}
layer {
  name: "inception_4b/pool"
  type: "Pooling"
  bottom: "inception_4a/output"
  top: "inception_4b/pool"
  pooling_param {
    pool: MAX
    kernel_size: 3
    stride: 1
    pad: 1
  }
}
layer {
  name: "inception_4b/pool_proj"
  type: "Convolution"
  bottom: "inception_4b/pool"
  top: "inception_4b/pool_proj"
  param {
    lr_mult: 1
    decay_mult: 1
  }
  param {
    lr_mult: 2
    decay_mult: 0
  }
  convolution_param {
    num_output: 64
    kernel_size: 1
    weight_filler {
      type: "xavier"
      std: 0.1
    }
    bias_filler {
      type: "constant"
      value: 0.2
    }
  }
}
layer {
  name: "inception_4b/relu_pool_proj"
  type: "ReLU"
  bottom: "inception_4b/pool_proj"
  top: "inception_4b/pool_proj"
}
layer {
  name: "inception_4b/output"
  type: "Concat"
  bottom: "inception_4b/1x1"
  bottom: "inception_4b/3x3"
  bottom: "inception_4b/5x5"
  bottom: "inception_4b/pool_proj"
  top: "inception_4b/output"
}
layer {
  name: "inception_4c/1x1"
  type: "Convolution"
  bottom: "inception_4b/output"
  top: "inception_4c/1x1"
  param {
    lr_mult: 1
    decay_mult: 1
  }
  param {
    lr_mult: 2
    decay_mult: 0
  }
  convolution_param {
    num_output: 128
    kernel_size: 1
    weight_filler {
      type: "xavier"
      std: 0.03
    }
    bias_filler {
      type: "constant"
      value: 0.2
    }
  }
}
layer {
  name: "inception_4c/relu_1x1"
  type: "ReLU"
  bottom: "inception_4c/1x1"
  top: "inception_4c/1x1"
}
layer {
  name: "inception_4c/3x3_reduce"
  type: "Convolution"
  bottom: "inception_4b/output"
  top: "inception_4c/3x3_reduce"
  param {
    lr_mult: 1
    decay_mult: 1
  }
  param {
    lr_mult: 2
    decay_mult: 0
  }
  convolution_param {
    num_output: 128
    kernel_size: 1
    weight_filler {
      type: "xavier"
      std: 0.09
    }
    bias_filler {
      type: "constant"
      value: 0.2
    }
  }
}
layer {
  name: "inception_4c/relu_3x3_reduce"
  type: "ReLU"
  bottom: "inception_4c/3x3_reduce"
  top: "inception_4c/3x3_reduce"
}
layer {
  name: "inception_4c/3x3"
  type: "Convolution"
  bottom: "inception_4c/3x3_reduce"
  top: "inception_4c/3x3"
  param {
    lr_mult: 1
    decay_mult: 1
  }
  param {
    lr_mult: 2
    decay_mult: 0
  }
  convolution_param {
    num_output: 256
    pad: 1
    kernel_size: 3
    weight_filler {
      type: "xavier"
      std: 0.03
    }
    bias_filler {
      type: "constant"
      value: 0.2
    }
  }
}
layer {
  name: "inception_4c/relu_3x3"
  type: "ReLU"
  bottom: "inception_4c/3x3"
  top: "inception_4c/3x3"
}
layer {
  name: "inception_4c/5x5_reduce"
  type: "Convolution"
  bottom: "inception_4b/output"
  top: "inception_4c/5x5_reduce"
  param {
    lr_mult: 1
    decay_mult: 1
  }
  param {
    lr_mult: 2
    decay_mult: 0
  }
  convolution_param {
    num_output: 24
    kernel_size: 1
    weight_filler {
      type: "xavier"
      std: 0.2
    }
    bias_filler {
      type: "constant"
      value: 0.2
    }
  }
}
layer {
  name: "inception_4c/relu_5x5_reduce"
  type: "ReLU"
  bottom: "inception_4c/5x5_reduce"
  top: "inception_4c/5x5_reduce"
}
layer {
  name: "inception_4c/5x5"
  type: "Convolution"
  bottom: "inception_4c/5x5_reduce"
  top: "inception_4c/5x5"
  param {
    lr_mult: 1
    decay_mult: 1
  }
  param {
    lr_mult: 2
    decay_mult: 0
  }
  convolution_param {
    num_output: 64
    pad: 2
    kernel_size: 5
    weight_filler {
      type: "xavier"
      std: 0.03
    }
    bias_filler {
      type: "constant"
      value: 0.2
    }
  }
}
layer {
  name: "inception_4c/relu_5x5"
  type: "ReLU"
  bottom: "inception_4c/5x5"
  top: "inception_4c/5x5"
}
layer {
  name: "inception_4c/pool"
  type: "Pooling"
  bottom: "inception_4b/output"
  top: "inception_4c/pool"
  pooling_param {
    pool: MAX
    kernel_size: 3
    stride: 1
    pad: 1
  }
}
layer {
  name: "inception_4c/pool_proj"
  type: "Convolution"
  bottom: "inception_4c/pool"
  top: "inception_4c/pool_proj"
  param {
    lr_mult: 1
    decay_mult: 1
  }
  param {
    lr_mult: 2
    decay_mult: 0
  }
  convolution_param {
    num_output: 64
    kernel_size: 1
    weight_filler {
      type: "xavier"
      std: 0.1
    }
    bias_filler {
      type: "constant"
      value: 0.2
    }
  }
}
layer {
  name: "inception_4c/relu_pool_proj"
  type: "ReLU"
  bottom: "inception_4c/pool_proj"
  top: "inception_4c/pool_proj"
}
layer {
  name: "inception_4c/output"
  type: "Concat"
  bottom: "inception_4c/1x1"
  bottom: "inception_4c/3x3"
  bottom: "inception_4c/5x5"
  bottom: "inception_4c/pool_proj"
  top: "inception_4c/output"
}
layer {
  name: "inception_4d/1x1"
  type: "Convolution"
  bottom: "inception_4c/output"
  top: "inception_4d/1x1"
  param {
    lr_mult: 1
    decay_mult: 1
  }
  param {
    lr_mult: 2
    decay_mult: 0
  }
  convolution_param {
    num_output: 112
    kernel_size: 1
    weight_filler {
      type: "xavier"
      std: 0.03
    }
    bias_filler {
      type: "constant"
      value: 0.2
    }
  }
}
layer {
  name: "inception_4d/relu_1x1"
  type: "ReLU"
  bottom: "inception_4d/1x1"
  top: "inception_4d/1x1"
}
layer {
  name: "inception_4d/3x3_reduce"
  type: "Convolution"
  bottom: "inception_4c/output"
  top: "inception_4d/3x3_reduce"
  param {
    lr_mult: 1
    decay_mult: 1
  }
  param {
    lr_mult: 2
    decay_mult: 0
  }
  convolution_param {
    num_output: 144
    kernel_size: 1
    weight_filler {
      type: "xavier"
      std: 0.09
    }
    bias_filler {
      type: "constant"
      value: 0.2
    }
  }
}
layer {
  name: "inception_4d/relu_3x3_reduce"
  type: "ReLU"
  bottom: "inception_4d/3x3_reduce"
  top: "inception_4d/3x3_reduce"
}
layer {
  name: "inception_4d/3x3"
  type: "Convolution"
  bottom: "inception_4d/3x3_reduce"
  top: "inception_4d/3x3"
  param {
    lr_mult: 1
    decay_mult: 1
  }
  param {
    lr_mult: 2
    decay_mult: 0
  }
  convolution_param {
    num_output: 288
    pad: 1
    kernel_size: 3
    weight_filler {
      type: "xavier"
      std: 0.03
    }
    bias_filler {
      type: "constant"
      value: 0.2
    }
  }
}
layer {
  name: "inception_4d/relu_3x3"
  type: "ReLU"
  bottom: "inception_4d/3x3"
  top: "inception_4d/3x3"
}
layer {
  name: "inception_4d/5x5_reduce"
  type: "Convolution"
  bottom: "inception_4c/output"
  top: "inception_4d/5x5_reduce"
  param {
    lr_mult: 1
    decay_mult: 1
  }
  param {
    lr_mult: 2
    decay_mult: 0
  }
  convolution_param {
    num_output: 32
    kernel_size: 1
    weight_filler {
      type: "xavier"
      std: 0.2
    }
    bias_filler {
      type: "constant"
      value: 0.2
    }
  }
}
layer {
  name: "inception_4d/relu_5x5_reduce"
  type: "ReLU"
  bottom: "inception_4d/5x5_reduce"
  top: "inception_4d/5x5_reduce"
}
layer {
  name: "inception_4d/5x5"
  type: "Convolution"
  bottom: "inception_4d/5x5_reduce"
  top: "inception_4d/5x5"
  param {
    lr_mult: 1
    decay_mult: 1
  }
  param {
    lr_mult: 2
    decay_mult: 0
  }
  convolution_param {
    num_output: 64
    pad: 2
    kernel_size: 5
    weight_filler {
      type: "xavier"
      std: 0.03
    }
    bias_filler {
      type: "constant"
      value: 0.2
    }
  }
}
layer {
  name: "inception_4d/relu_5x5"
  type: "ReLU"
  bottom: "inception_4d/5x5"
  top: "inception_4d/5x5"
}
layer {
  name: "inception_4d/pool"
  type: "Pooling"
  bottom: "inception_4c/output"
  top: "inception_4d/pool"
  pooling_param {
    pool: MAX
    kernel_size: 3
    stride: 1
    pad: 1
  }
}
layer {
  name: "inception_4d/pool_proj"
  type: "Convolution"
  bottom: "inception_4d/pool"
  top: "inception_4d/pool_proj"
  param {
    lr_mult: 1
    decay_mult: 1
  }
  param {
    lr_mult: 2
    decay_mult: 0
  }
  convolution_param {
    num_output: 64
    kernel_size: 1
    weight_filler {
      type: "xavier"
      std: 0.1
    }
    bias_filler {
      type: "constant"
      value: 0.2
    }
  }
}
layer {
  name: "inception_4d/relu_pool_proj"
  type: "ReLU"
  bottom: "inception_4d/pool_proj"
  top: "inception_4d/pool_proj"
}
layer {
  name: "inception_4d/output"
  type: "Concat"
  bottom: "inception_4d/1x1"
  bottom: "inception_4d/3x3"
  bottom: "inception_4d/5x5"
  bottom: "inception_4d/pool_proj"
  top: "inception_4d/output"
}
layer {
  name: "loss2/ave_pool"
  type: "Pooling"
  bottom: "inception_4d/output"
  top: "loss2/ave_pool"
  pooling_param {
    pool: AVE
    kernel_size: 5
    stride: 3
  }
}
layer {
  name: "loss2/conv"
  type: "Convolution"
  bottom: "loss2/ave_pool"
  top: "loss2/conv"
  param {
    lr_mult: 1
    decay_mult: 1
  }
  param {
    lr_mult: 2
    decay_mult: 0
  }
  convolution_param {
    num_output: 128
    kernel_size: 1
    weight_filler {
      type: "xavier"
      std: 0.08
    }
    bias_filler {
      type: "constant"
      value: 0.2
    }
  }
}
layer {
  name: "loss2/relu_conv"
  type: "ReLU"
  bottom: "loss2/conv"
  top: "loss2/conv"
}
layer {
  name: "loss2/fc"
  type: "InnerProduct"
  bottom: "loss2/conv"
  top: "loss2/fc"
  param {
    lr_mult: 1
    decay_mult: 1
  }
  param {
    lr_mult: 2
    decay_mult: 0
  }
  inner_product_param {
    num_output: 1024
    weight_filler {
      type: "xavier"
      std: 0.02
    }
    bias_filler {
      type: "constant"
      value: 0.2
    }
  }
}
layer {
  name: "loss2/relu_fc"
  type: "ReLU"
  bottom: "loss2/fc"
  top: "loss2/fc"
}
layer {
  name: "loss2/drop_fc"
  type: "Dropout"
  bottom: "loss2/fc"
  top: "loss2/fc"
  dropout_param {
    dropout_ratio: 0.7
  }
}
layer {
  name: "loss2/classifier_plantvillage"
  type: "InnerProduct"
  bottom: "loss2/fc"
  top: "loss2/classifier_plantvillage"
  param {
    lr_mult: 1
    decay_mult: 1
  }
  param {
    lr_mult: 2
    decay_mult: 0
  }
  inner_product_param {
    num_output: 38
    weight_filler {
      type: "xavier"
      std: 0.0009765625
    }
    bias_filler {
      type: "constant"
      value: 0
    }
  }
}
layer {
  name: "inception_4e/1x1"
  type: "Convolution"
  bottom: "inception_4d/output"
  top: "inception_4e/1x1"
  param {
    lr_mult: 1
    decay_mult: 1
  }
  param {
    lr_mult: 2
    decay_mult: 0
  }
  convolution_param {
    num_output: 256
    kernel_size: 1
    weight_filler {
      type: "xavier"
      std: 0.03
    }
    bias_filler {
      type: "constant"
      value: 0.2
    }
  }
}
layer {
  name: "inception_4e/relu_1x1"
  type: "ReLU"
  bottom: "inception_4e/1x1"
  top: "inception_4e/1x1"
}
layer {
  name: "inception_4e/3x3_reduce"
  type: "Convolution"
  bottom: "inception_4d/output"
  top: "inception_4e/3x3_reduce"
  param {
    lr_mult: 1
    decay_mult: 1
  }
  param {
    lr_mult: 2
    decay_mult: 0
  }
  convolution_param {
    num_output: 160
    kernel_size: 1
    weight_filler {
      type: "xavier"
      std: 0.09
    }
    bias_filler {
      type: "constant"
      value: 0.2
    }
  }
}
layer {
  name: "inception_4e/relu_3x3_reduce"
  type: "ReLU"
  bottom: "inception_4e/3x3_reduce"
  top: "inception_4e/3x3_reduce"
}
layer {
  name: "inception_4e/3x3"
  type: "Convolution"
  bottom: "inception_4e/3x3_reduce"
  top: "inception_4e/3x3"
  param {
    lr_mult: 1
    decay_mult: 1
  }
  param {
    lr_mult: 2
    decay_mult: 0
  }
  convolution_param {
    num_output: 320
    pad: 1
    kernel_size: 3
    weight_filler {
      type: "xavier"
      std: 0.03
    }
    bias_filler {
      type: "constant"
      value: 0.2
    }
  }
}
layer {
  name: "inception_4e/relu_3x3"
  type: "ReLU"
  bottom: "inception_4e/3x3"
  top: "inception_4e/3x3"
}
layer {
  name: "inception_4e/5x5_reduce"
  type: "Convolution"
  bottom: "inception_4d/output"
  top: "inception_4e/5x5_reduce"
  param {
    lr_mult: 1
    decay_mult: 1
  }
  param {
    lr_mult: 2
    decay_mult: 0
  }
  convolution_param {
    num_output: 32
    kernel_size: 1
    weight_filler {
      type: "xavier"
      std: 0.2
    }
    bias_filler {
      type: "constant"
      value: 0.2
    }
  }
}
layer {
  name: "inception_4e/relu_5x5_reduce"
  type: "ReLU"
  bottom: "inception_4e/5x5_reduce"
  top: "inception_4e/5x5_reduce"
}
layer {
  name: "inception_4e/5x5"
  type: "Convolution"
  bottom: "inception_4e/5x5_reduce"
  top: "inception_4e/
I0403 15:17:46.636628 31423 layer_factory.hpp:77] Creating layer data
I0403 15:17:46.637228 31423 net.cpp:91] Creating Layer data
I0403 15:17:46.637259 31423 net.cpp:399] data -> data
I0403 15:17:46.637311 31423 net.cpp:399] data -> label
I0403 15:17:46.637351 31423 data_transformer.cpp:25] Loading mean file from: /home/mohanty/data/final_dataset/lmdb/grayscale-80-20/mean.binaryproto
I0403 15:17:46.641118 31428 db_lmdb.cpp:38] Opened lmdb /home/mohanty/data/final_dataset/lmdb/grayscale-80-20/test_db
I0403 15:17:46.650563 31423 data_layer.cpp:41] output data size: 24,3,224,224
I0403 15:17:46.677462 31423 net.cpp:141] Setting up data
I0403 15:17:46.677541 31423 net.cpp:148] Top shape: 24 3 224 224 (3612672)
I0403 15:17:46.677567 31423 net.cpp:148] Top shape: 24 (24)
I0403 15:17:46.677582 31423 net.cpp:156] Memory required for data: 14450784
I0403 15:17:46.677611 31423 layer_factory.hpp:77] Creating layer label_data_1_split
I0403 15:17:46.677639 31423 net.cpp:91] Creating Layer label_data_1_split
I0403 15:17:46.677659 31423 net.cpp:425] label_data_1_split <- label
I0403 15:17:46.677693 31423 net.cpp:399] label_data_1_split -> label_data_1_split_0
I0403 15:17:46.677721 31423 net.cpp:399] label_data_1_split -> label_data_1_split_1
I0403 15:17:46.677742 31423 net.cpp:399] label_data_1_split -> label_data_1_split_2
I0403 15:17:46.677762 31423 net.cpp:399] label_data_1_split -> label_data_1_split_3
I0403 15:17:46.677783 31423 net.cpp:399] label_data_1_split -> label_data_1_split_4
I0403 15:17:46.677801 31423 net.cpp:399] label_data_1_split -> label_data_1_split_5
I0403 15:17:46.677820 31423 net.cpp:399] label_data_1_split -> label_data_1_split_6
I0403 15:17:46.677839 31423 net.cpp:399] label_data_1_split -> label_data_1_split_7
I0403 15:17:46.677857 31423 net.cpp:399] label_data_1_split -> label_data_1_split_8
I0403 15:17:46.677876 31423 net.cpp:399] label_data_1_split -> label_data_1_split_9
I0403 15:17:46.677989 31423 net.cpp:141] Setting up label_data_1_split
I0403 15:17:46.678011 31423 net.cpp:148] Top shape: 24 (24)
I0403 15:17:46.678028 31423 net.cpp:148] Top shape: 24 (24)
I0403 15:17:46.678043 31423 net.cpp:148] Top shape: 24 (24)
I0403 15:17:46.678058 31423 net.cpp:148] Top shape: 24 (24)
I0403 15:17:46.678072 31423 net.cpp:148] Top shape: 24 (24)
I0403 15:17:46.678087 31423 net.cpp:148] Top shape: 24 (24)
I0403 15:17:46.678102 31423 net.cpp:148] Top shape: 24 (24)
I0403 15:17:46.678117 31423 net.cpp:148] Top shape: 24 (24)
I0403 15:17:46.678133 31423 net.cpp:148] Top shape: 24 (24)
I0403 15:17:46.678148 31423 net.cpp:148] Top shape: 24 (24)
I0403 15:17:46.678189 31423 net.cpp:156] Memory required for data: 14451744
I0403 15:17:46.678205 31423 layer_factory.hpp:77] Creating layer conv1/7x7_s2
I0403 15:17:46.678236 31423 net.cpp:91] Creating Layer conv1/7x7_s2
I0403 15:17:46.678256 31423 net.cpp:425] conv1/7x7_s2 <- data
I0403 15:17:46.678273 31423 net.cpp:399] conv1/7x7_s2 -> conv1/7x7_s2
I0403 15:17:46.815723 31423 net.cpp:141] Setting up conv1/7x7_s2
I0403 15:17:46.815804 31423 net.cpp:148] Top shape: 24 64 112 112 (19267584)
I0403 15:17:46.815822 31423 net.cpp:156] Memory required for data: 91522080
I0403 15:17:46.815855 31423 layer_factory.hpp:77] Creating layer conv1/relu_7x7
I0403 15:17:46.815892 31423 net.cpp:91] Creating Layer conv1/relu_7x7
I0403 15:17:46.815917 31423 net.cpp:425] conv1/relu_7x7 <- conv1/7x7_s2
I0403 15:17:46.815951 31423 net.cpp:386] conv1/relu_7x7 -> conv1/7x7_s2 (in-place)
I0403 15:17:46.816218 31423 net.cpp:141] Setting up conv1/relu_7x7
I0403 15:17:46.816254 31423 net.cpp:148] Top shape: 24 64 112 112 (19267584)
I0403 15:17:46.816278 31423 net.cpp:156] Memory required for data: 168592416
I0403 15:17:46.816308 31423 layer_factory.hpp:77] Creating layer pool1/3x3_s2
I0403 15:17:46.816342 31423 net.cpp:91] Creating Layer pool1/3x3_s2
I0403 15:17:46.816370 31423 net.cpp:425] pool1/3x3_s2 <- conv1/7x7_s2
I0403 15:17:46.816390 31423 net.cpp:399] pool1/3x3_s2 -> pool1/3x3_s2
I0403 15:17:46.816467 31423 net.cpp:141] Setting up pool1/3x3_s2
I0403 15:17:46.816500 31423 net.cpp:148] Top shape: 24 64 56 56 (4816896)
I0403 15:17:46.816515 31423 net.cpp:156] Memory required for data: 187860000
I0403 15:17:46.816550 31423 layer_factory.hpp:77] Creating layer pool1/norm1
I0403 15:17:46.816581 31423 net.cpp:91] Creating Layer pool1/norm1
I0403 15:17:46.816608 31423 net.cpp:425] pool1/norm1 <- pool1/3x3_s2
I0403 15:17:46.816632 31423 net.cpp:399] pool1/norm1 -> pool1/norm1
I0403 15:17:46.816963 31423 net.cpp:141] Setting up pool1/norm1
I0403 15:17:46.816998 31423 net.cpp:148] Top shape: 24 64 56 56 (4816896)
I0403 15:17:46.817016 31423 net.cpp:156] Memory required for data: 207127584
I0403 15:17:46.817044 31423 layer_factory.hpp:77] Creating layer conv2/3x3_reduce
I0403 15:17:46.817078 31423 net.cpp:91] Creating Layer conv2/3x3_reduce
I0403 15:17:46.817104 31423 net.cpp:425] conv2/3x3_reduce <- pool1/norm1
I0403 15:17:46.817127 31423 net.cpp:399] conv2/3x3_reduce -> conv2/3x3_reduce
I0403 15:17:46.818603 31423 net.cpp:141] Setting up conv2/3x3_reduce
I0403 15:17:46.818645 31423 net.cpp:148] Top shape: 24 64 56 56 (4816896)
I0403 15:17:46.818668 31423 net.cpp:156] Memory required for data: 226395168
I0403 15:17:46.818696 31423 layer_factory.hpp:77] Creating layer conv2/relu_3x3_reduce
I0403 15:17:46.818718 31423 net.cpp:91] Creating Layer conv2/relu_3x3_reduce
I0403 15:17:46.818740 31423 net.cpp:425] conv2/relu_3x3_reduce <- conv2/3x3_reduce
I0403 15:17:46.818761 31423 net.cpp:386] conv2/relu_3x3_reduce -> conv2/3x3_reduce (in-place)
I0403 15:17:46.819037 31423 net.cpp:141] Setting up conv2/relu_3x3_reduce
I0403 15:17:46.819073 31423 net.cpp:148] Top shape: 24 64 56 56 (4816896)
I0403 15:17:46.819093 31423 net.cpp:156] Memory required for data: 245662752
I0403 15:17:46.819118 31423 layer_factory.hpp:77] Creating layer conv2/3x3
I0403 15:17:46.819141 31423 net.cpp:91] Creating Layer conv2/3x3
I0403 15:17:46.819164 31423 net.cpp:425] conv2/3x3 <- conv2/3x3_reduce
I0403 15:17:46.819191 31423 net.cpp:399] conv2/3x3 -> conv2/3x3
I0403 15:17:46.821557 31423 net.cpp:141] Setting up conv2/3x3
I0403 15:17:46.821599 31423 net.cpp:148] Top shape: 24 192 56 56 (14450688)
I0403 15:17:46.821624 31423 net.cpp:156] Memory required for data: 303465504
I0403 15:17:46.821647 31423 layer_factory.hpp:77] Creating layer conv2/relu_3x3
I0403 15:17:46.821668 31423 net.cpp:91] Creating Layer conv2/relu_3x3
I0403 15:17:46.821692 31423 net.cpp:425] conv2/relu_3x3 <- conv2/3x3
I0403 15:17:46.821715 31423 net.cpp:386] conv2/relu_3x3 -> conv2/3x3 (in-place)
I0403 15:17:46.821900 31423 net.cpp:141] Setting up conv2/relu_3x3
I0403 15:17:46.821933 31423 net.cpp:148] Top shape: 24 192 56 56 (14450688)
I0403 15:17:46.821984 31423 net.cpp:156] Memory required for data: 361268256
I0403 15:17:46.822000 31423 layer_factory.hpp:77] Creating layer conv2/norm2
I0403 15:17:46.822021 31423 net.cpp:91] Creating Layer conv2/norm2
I0403 15:17:46.822037 31423 net.cpp:425] conv2/norm2 <- conv2/3x3
I0403 15:17:46.822057 31423 net.cpp:399] conv2/norm2 -> conv2/norm2
I0403 15:17:46.822412 31423 net.cpp:141] Setting up conv2/norm2
I0403 15:17:46.822448 31423 net.cpp:148] Top shape: 24 192 56 56 (14450688)
I0403 15:17:46.822473 31423 net.cpp:156] Memory required for data: 419071008
I0403 15:17:46.822492 31423 layer_factory.hpp:77] Creating layer pool2/3x3_s2
I0403 15:17:46.822515 31423 net.cpp:91] Creating Layer pool2/3x3_s2
I0403 15:17:46.822542 31423 net.cpp:425] pool2/3x3_s2 <- conv2/norm2
I0403 15:17:46.822564 31423 net.cpp:399] pool2/3x3_s2 -> pool2/3x3_s2
I0403 15:17:46.822626 31423 net.cpp:141] Setting up pool2/3x3_s2
I0403 15:17:46.822659 31423 net.cpp:148] Top shape: 24 192 28 28 (3612672)
I0403 15:17:46.822676 31423 net.cpp:156] Memory required for data: 433521696
I0403 15:17:46.822700 31423 layer_factory.hpp:77] Creating layer pool2/3x3_s2_pool2/3x3_s2_0_split
I0403 15:17:46.822727 31423 net.cpp:91] Creating Layer pool2/3x3_s2_pool2/3x3_s2_0_split
I0403 15:17:46.822752 31423 net.cpp:425] pool2/3x3_s2_pool2/3x3_s2_0_split <- pool2/3x3_s2
I0403 15:17:46.822772 31423 net.cpp:399] pool2/3x3_s2_pool2/3x3_s2_0_split -> pool2/3x3_s2_pool2/3x3_s2_0_split_0
I0403 15:17:46.822803 31423 net.cpp:399] pool2/3x3_s2_pool2/3x3_s2_0_split -> pool2/3x3_s2_pool2/3x3_s2_0_split_1
I0403 15:17:46.822835 31423 net.cpp:399] pool2/3x3_s2_pool2/3x3_s2_0_split -> pool2/3x3_s2_pool2/3x3_s2_0_split_2
I0403 15:17:46.822866 31423 net.cpp:399] pool2/3x3_s2_pool2/3x3_s2_0_split -> pool2/3x3_s2_pool2/3x3_s2_0_split_3
I0403 15:17:46.822952 31423 net.cpp:141] Setting up pool2/3x3_s2_pool2/3x3_s2_0_split
I0403 15:17:46.822986 31423 net.cpp:148] Top shape: 24 192 28 28 (3612672)
I0403 15:17:46.823014 31423 net.cpp:148] Top shape: 24 192 28 28 (3612672)
I0403 15:17:46.823034 31423 net.cpp:148] Top shape: 24 192 28 28 (3612672)
I0403 15:17:46.823058 31423 net.cpp:148] Top shape: 24 192 28 28 (3612672)
I0403 15:17:46.823079 31423 net.cpp:156] Memory required for data: 491324448
I0403 15:17:46.823103 31423 layer_factory.hpp:77] Creating layer inception_3a/1x1
I0403 15:17:46.823134 31423 net.cpp:91] Creating Layer inception_3a/1x1
I0403 15:17:46.823163 31423 net.cpp:425] inception_3a/1x1 <- pool2/3x3_s2_pool2/3x3_s2_0_split_0
I0403 15:17:46.823194 31423 net.cpp:399] inception_3a/1x1 -> inception_3a/1x1
I0403 15:17:46.824779 31423 net.cpp:141] Setting up inception_3a/1x1
I0403 15:17:46.824815 31423 net.cpp:148] Top shape: 24 64 28 28 (1204224)
I0403 15:17:46.824836 31423 net.cpp:156] Memory required for data: 496141344
I0403 15:17:46.824856 31423 layer_factory.hpp:77] Creating layer inception_3a/relu_1x1
I0403 15:17:46.824880 31423 net.cpp:91] Creating Layer inception_3a/relu_1x1
I0403 15:17:46.824900 31423 net.cpp:425] inception_3a/relu_1x1 <- inception_3a/1x1
I0403 15:17:46.824928 31423 net.cpp:386] inception_3a/relu_1x1 -> inception_3a/1x1 (in-place)
I0403 15:17:46.825110 31423 net.cpp:141] Setting up inception_3a/relu_1x1
I0403 15:17:46.825151 31423 net.cpp:148] Top shape: 24 64 28 28 (1204224)
I0403 15:17:46.825208 31423 net.cpp:156] Memory required for data: 500958240
I0403 15:17:46.825256 31423 layer_factory.hpp:77] Creating layer inception_3a/3x3_reduce
I0403 15:17:46.825294 31423 net.cpp:91] Creating Layer inception_3a/3x3_reduce
I0403 15:17:46.825320 31423 net.cpp:425] inception_3a/3x3_reduce <- pool2/3x3_s2_pool2/3x3_s2_0_split_1
I0403 15:17:46.825342 31423 net.cpp:399] inception_3a/3x3_reduce -> inception_3a/3x3_reduce
I0403 15:17:46.827069 31423 net.cpp:141] Setting up inception_3a/3x3_reduce
I0403 15:17:46.827105 31423 net.cpp:148] Top shape: 24 96 28 28 (1806336)
I0403 15:17:46.827122 31423 net.cpp:156] Memory required for data: 508183584
I0403 15:17:46.827144 31423 layer_factory.hpp:77] Creating layer inception_3a/relu_3x3_reduce
I0403 15:17:46.827181 31423 net.cpp:91] Creating Layer inception_3a/relu_3x3_reduce
I0403 15:17:46.827200 31423 net.cpp:425] inception_3a/relu_3x3_reduce <- inception_3a/3x3_reduce
I0403 15:17:46.827219 31423 net.cpp:386] inception_3a/relu_3x3_reduce -> inception_3a/3x3_reduce (in-place)
I0403 15:17:46.827402 31423 net.cpp:141] Setting up inception_3a/relu_3x3_reduce
I0403 15:17:46.827430 31423 net.cpp:148] Top shape: 24 96 28 28 (1806336)
I0403 15:17:46.827446 31423 net.cpp:156] Memory required for data: 515408928
I0403 15:17:46.827461 31423 layer_factory.hpp:77] Creating layer inception_3a/3x3
I0403 15:17:46.827484 31423 net.cpp:91] Creating Layer inception_3a/3x3
I0403 15:17:46.827502 31423 net.cpp:425] inception_3a/3x3 <- inception_3a/3x3_reduce
I0403 15:17:46.827522 31423 net.cpp:399] inception_3a/3x3 -> inception_3a/3x3
I0403 15:17:46.829283 31423 net.cpp:141] Setting up inception_3a/3x3
I0403 15:17:46.829314 31423 net.cpp:148] Top shape: 24 128 28 28 (2408448)
I0403 15:17:46.829330 31423 net.cpp:156] Memory required for data: 525042720
I0403 15:17:46.829350 31423 layer_factory.hpp:77] Creating layer inception_3a/relu_3x3
I0403 15:17:46.829368 31423 net.cpp:91] Creating Layer inception_3a/relu_3x3
I0403 15:17:46.829385 31423 net.cpp:425] inception_3a/relu_3x3 <- inception_3a/3x3
I0403 15:17:46.829406 31423 net.cpp:386] inception_3a/relu_3x3 -> inception_3a/3x3 (in-place)
I0403 15:17:46.829699 31423 net.cpp:141] Setting up inception_3a/relu_3x3
I0403 15:17:46.829726 31423 net.cpp:148] Top shape: 24 128 28 28 (2408448)
I0403 15:17:46.829742 31423 net.cpp:156] Memory required for data: 534676512
I0403 15:17:46.829758 31423 layer_factory.hpp:77] Creating layer inception_3a/5x5_reduce
I0403 15:17:46.829782 31423 net.cpp:91] Creating Layer inception_3a/5x5_reduce
I0403 15:17:46.829802 31423 net.cpp:425] inception_3a/5x5_reduce <- pool2/3x3_s2_pool2/3x3_s2_0_split_2
I0403 15:17:46.829823 31423 net.cpp:399] inception_3a/5x5_reduce -> inception_3a/5x5_reduce
I0403 15:17:46.830832 31423 net.cpp:141] Setting up inception_3a/5x5_reduce
I0403 15:17:46.830862 31423 net.cpp:148] Top shape: 24 16 28 28 (301056)
I0403 15:17:46.830879 31423 net.cpp:156] Memory required for data: 535880736
I0403 15:17:46.830899 31423 layer_factory.hpp:77] Creating layer inception_3a/relu_5x5_reduce
I0403 15:17:46.830920 31423 net.cpp:91] Creating Layer inception_3a/relu_5x5_reduce
I0403 15:17:46.830938 31423 net.cpp:425] inception_3a/relu_5x5_reduce <- inception_3a/5x5_reduce
I0403 15:17:46.830956 31423 net.cpp:386] inception_3a/relu_5x5_reduce -> inception_3a/5x5_reduce (in-place)
I0403 15:17:46.831274 31423 net.cpp:141] Setting up inception_3a/relu_5x5_reduce
I0403 15:17:46.831300 31423 net.cpp:148] Top shape: 24 16 28 28 (301056)
I0403 15:17:46.831316 31423 net.cpp:156] Memory required for data: 537084960
I0403 15:17:46.831331 31423 layer_factory.hpp:77] Creating layer inception_3a/5x5
I0403 15:17:46.831356 31423 net.cpp:91] Creating Layer inception_3a/5x5
I0403 15:17:46.831373 31423 net.cpp:425] inception_3a/5x5 <- inception_3a/5x5_reduce
I0403 15:17:46.831396 31423 net.cpp:399] inception_3a/5x5 -> inception_3a/5x5
I0403 15:17:46.832470 31423 net.cpp:141] Setting up inception_3a/5x5
I0403 15:17:46.832500 31423 net.cpp:148] Top shape: 24 32 28 28 (602112)
I0403 15:17:46.832516 31423 net.cpp:156] Memory required for data: 539493408
I0403 15:17:46.832540 31423 layer_factory.hpp:77] Creating layer inception_3a/relu_5x5
I0403 15:17:46.832561 31423 net.cpp:91] Creating Layer inception_3a/relu_5x5
I0403 15:17:46.832578 31423 net.cpp:425] inception_3a/relu_5x5 <- inception_3a/5x5
I0403 15:17:46.832599 31423 net.cpp:386] inception_3a/relu_5x5 -> inception_3a/5x5 (in-place)
I0403 15:17:46.832783 31423 net.cpp:141] Setting up inception_3a/relu_5x5
I0403 15:17:46.832809 31423 net.cpp:148] Top shape: 24 32 28 28 (602112)
I0403 15:17:46.832824 31423 net.cpp:156] Memory required for data: 541901856
I0403 15:17:46.832840 31423 layer_factory.hpp:77] Creating layer inception_3a/pool
I0403 15:17:46.832862 31423 net.cpp:91] Creating Layer inception_3a/pool
I0403 15:17:46.832893 31423 net.cpp:425] inception_3a/pool <- pool2/3x3_s2_pool2/3x3_s2_0_split_3
I0403 15:17:46.832913 31423 net.cpp:399] inception_3a/pool -> inception_3a/pool
I0403 15:17:46.832974 31423 net.cpp:141] Setting up inception_3a/pool
I0403 15:17:46.832998 31423 net.cpp:148] Top shape: 24 192 28 28 (3612672)
I0403 15:17:46.833014 31423 net.cpp:156] Memory required for data: 556352544
I0403 15:17:46.833029 31423 layer_factory.hpp:77] Creating layer inception_3a/pool_proj
I0403 15:17:46.833052 31423 net.cpp:91] Creating Layer inception_3a/pool_proj
I0403 15:17:46.833070 31423 net.cpp:425] inception_3a/pool_proj <- inception_3a/pool
I0403 15:17:46.833091 31423 net.cpp:399] inception_3a/pool_proj -> inception_3a/pool_proj
I0403 15:17:46.834106 31423 net.cpp:141] Setting up inception_3a/pool_proj
I0403 15:17:46.834138 31423 net.cpp:148] Top shape: 24 32 28 28 (602112)
I0403 15:17:46.834156 31423 net.cpp:156] Memory required for data: 558760992
I0403 15:17:46.834179 31423 layer_factory.hpp:77] Creating layer inception_3a/relu_pool_proj
I0403 15:17:46.834200 31423 net.cpp:91] Creating Layer inception_3a/relu_pool_proj
I0403 15:17:46.834218 31423 net.cpp:425] inception_3a/relu_pool_proj <- inception_3a/pool_proj
I0403 15:17:46.834236 31423 net.cpp:386] inception_3a/relu_pool_proj -> inception_3a/pool_proj (in-place)
I0403 15:17:46.834522 31423 net.cpp:141] Setting up inception_3a/relu_pool_proj
I0403 15:17:46.834561 31423 net.cpp:148] Top shape: 24 32 28 28 (602112)
I0403 15:17:46.834578 31423 net.cpp:156] Memory required for data: 561169440
I0403 15:17:46.834595 31423 layer_factory.hpp:77] Creating layer inception_3a/output
I0403 15:17:46.834614 31423 net.cpp:91] Creating Layer inception_3a/output
I0403 15:17:46.834630 31423 net.cpp:425] inception_3a/output <- inception_3a/1x1
I0403 15:17:46.834647 31423 net.cpp:425] inception_3a/output <- inception_3a/3x3
I0403 15:17:46.834663 31423 net.cpp:425] inception_3a/output <- inception_3a/5x5
I0403 15:17:46.834681 31423 net.cpp:425] inception_3a/output <- inception_3a/pool_proj
I0403 15:17:46.834702 31423 net.cpp:399] inception_3a/output -> inception_3a/output
I0403 15:17:46.834749 31423 net.cpp:141] Setting up inception_3a/output
I0403 15:17:46.834777 31423 net.cpp:148] Top shape: 24 256 28 28 (4816896)
I0403 15:17:46.834794 31423 net.cpp:156] Memory required for data: 580437024
I0403 15:17:46.834808 31423 layer_factory.hpp:77] Creating layer inception_3a/output_inception_3a/output_0_split
I0403 15:17:46.834826 31423 net.cpp:91] Creating Layer inception_3a/output_inception_3a/output_0_split
I0403 15:17:46.834842 31423 net.cpp:425] inception_3a/output_inception_3a/output_0_split <- inception_3a/output
I0403 15:17:46.834861 31423 net.cpp:399] inception_3a/output_inception_3a/output_0_split -> inception_3a/output_inception_3a/output_0_split_0
I0403 15:17:46.834883 31423 net.cpp:399] inception_3a/output_inception_3a/output_0_split -> inception_3a/output_inception_3a/output_0_split_1
I0403 15:17:46.834906 31423 net.cpp:399] inception_3a/output_inception_3a/output_0_split -> inception_3a/output_inception_3a/output_0_split_2
I0403 15:17:46.834928 31423 net.cpp:399] inception_3a/output_inception_3a/output_0_split -> inception_3a/output_inception_3a/output_0_split_3
I0403 15:17:46.835005 31423 net.cpp:141] Setting up inception_3a/output_inception_3a/output_0_split
I0403 15:17:46.835031 31423 net.cpp:148] Top shape: 24 256 28 28 (4816896)
I0403 15:17:46.835049 31423 net.cpp:148] Top shape: 24 256 28 28 (4816896)
I0403 15:17:46.835068 31423 net.cpp:148] Top shape: 24 256 28 28 (4816896)
I0403 15:17:46.835084 31423 net.cpp:148] Top shape: 24 256 28 28 (4816896)
I0403 15:17:46.835098 31423 net.cpp:156] Memory required for data: 657507360
I0403 15:17:46.835114 31423 layer_factory.hpp:77] Creating layer inception_3b/1x1
I0403 15:17:46.835137 31423 net.cpp:91] Creating Layer inception_3b/1x1
I0403 15:17:46.835155 31423 net.cpp:425] inception_3b/1x1 <- inception_3a/output_inception_3a/output_0_split_0
I0403 15:17:46.835175 31423 net.cpp:399] inception_3b/1x1 -> inception_3b/1x1
I0403 15:17:46.836365 31423 net.cpp:141] Setting up inception_3b/1x1
I0403 15:17:46.836408 31423 net.cpp:148] Top shape: 24 128 28 28 (2408448)
I0403 15:17:46.836426 31423 net.cpp:156] Memory required for data: 667141152
I0403 15:17:46.836446 31423 layer_factory.hpp:77] Creating layer inception_3b/relu_1x1
I0403 15:17:46.836464 31423 net.cpp:91] Creating Layer inception_3b/relu_1x1
I0403 15:17:46.836482 31423 net.cpp:425] inception_3b/relu_1x1 <- inception_3b/1x1
I0403 15:17:46.836501 31423 net.cpp:386] inception_3b/relu_1x1 -> inception_3b/1x1 (in-place)
I0403 15:17:46.836688 31423 net.cpp:141] Setting up inception_3b/relu_1x1
I0403 15:17:46.836716 31423 net.cpp:148] Top shape: 24 128 28 28 (2408448)
I0403 15:17:46.836732 31423 net.cpp:156] Memory required for data: 676774944
I0403 15:17:46.836747 31423 layer_factory.hpp:77] Creating layer inception_3b/3x3_reduce
I0403 15:17:46.836771 31423 net.cpp:91] Creating Layer inception_3b/3x3_reduce
I0403 15:17:46.836789 31423 net.cpp:425] inception_3b/3x3_reduce <- inception_3a/output_inception_3a/output_0_split_1
I0403 15:17:46.836812 31423 net.cpp:399] inception_3b/3x3_reduce -> inception_3b/3x3_reduce
I0403 15:17:46.838001 31423 net.cpp:141] Setting up inception_3b/3x3_reduce
I0403 15:17:46.838033 31423 net.cpp:148] Top shape: 24 128 28 28 (2408448)
I0403 15:17:46.838052 31423 net.cpp:156] Memory required for data: 686408736
I0403 15:17:46.838069 31423 layer_factory.hpp:77] Creating layer inception_3b/relu_3x3_reduce
I0403 15:17:46.838089 31423 net.cpp:91] Creating Layer inception_3b/relu_3x3_reduce
I0403 15:17:46.838105 31423 net.cpp:425] inception_3b/relu_3x3_reduce <- inception_3b/3x3_reduce
I0403 15:17:46.838124 31423 net.cpp:386] inception_3b/relu_3x3_reduce -> inception_3b/3x3_reduce (in-place)
I0403 15:17:46.838310 31423 net.cpp:141] Setting up inception_3b/relu_3x3_reduce
I0403 15:17:46.838335 31423 net.cpp:148] Top shape: 24 128 28 28 (2408448)
I0403 15:17:46.838351 31423 net.cpp:156] Memory required for data: 696042528
I0403 15:17:46.838366 31423 layer_factory.hpp:77] Creating layer inception_3b/3x3
I0403 15:17:46.838394 31423 net.cpp:91] Creating Layer inception_3b/3x3
I0403 15:17:46.838414 31423 net.cpp:425] inception_3b/3x3 <- inception_3b/3x3_reduce
I0403 15:17:46.838436 31423 net.cpp:399] inception_3b/3x3 -> inception_3b/3x3
I0403 15:17:46.841511 31423 net.cpp:141] Setting up inception_3b/3x3
I0403 15:17:46.841552 31423 net.cpp:148] Top shape: 24 192 28 28 (3612672)
I0403 15:17:46.841578 31423 net.cpp:156] Memory required for data: 710493216
I0403 15:17:46.841605 31423 layer_factory.hpp:77] Creating layer inception_3b/relu_3x3
I0403 15:17:46.841631 31423 net.cpp:91] Creating Layer inception_3b/relu_3x3
I0403 15:17:46.841655 31423 net.cpp:425] inception_3b/relu_3x3 <- inception_3b/3x3
I0403 15:17:46.841676 31423 net.cpp:386] inception_3b/relu_3x3 -> inception_3b/3x3 (in-place)
I0403 15:17:46.841971 31423 net.cpp:141] Setting up inception_3b/relu_3x3
I0403 15:17:46.842000 31423 net.cpp:148] Top shape: 24 192 28 28 (3612672)
I0403 15:17:46.842015 31423 net.cpp:156] Memory required for data: 724943904
I0403 15:17:46.842047 31423 layer_factory.hpp:77] Creating layer inception_3b/5x5_reduce
I0403 15:17:46.842072 31423 net.cpp:91] Creating Layer inception_3b/5x5_reduce
I0403 15:17:46.842098 31423 net.cpp:425] inception_3b/5x5_reduce <- inception_3a/output_inception_3a/output_0_split_2
I0403 15:17:46.842123 31423 net.cpp:399] inception_3b/5x5_reduce -> inception_3b/5x5_reduce
I0403 15:17:46.843171 31423 net.cpp:141] Setting up inception_3b/5x5_reduce
I0403 15:17:46.843210 31423 net.cpp:148] Top shape: 24 32 28 28 (602112)
I0403 15:17:46.843237 31423 net.cpp:156] Memory required for data: 727352352
I0403 15:17:46.843261 31423 layer_factory.hpp:77] Creating layer inception_3b/relu_5x5_reduce
I0403 15:17:46.843283 31423 net.cpp:91] Creating Layer inception_3b/relu_5x5_reduce
I0403 15:17:46.843302 31423 net.cpp:425] inception_3b/relu_5x5_reduce <- inception_3b/5x5_reduce
I0403 15:17:46.843330 31423 net.cpp:386] inception_3b/relu_5x5_reduce -> inception_3b/5x5_reduce (in-place)
I0403 15:17:46.843546 31423 net.cpp:141] Setting up inception_3b/relu_5x5_reduce
I0403 15:17:46.843577 31423 net.cpp:148] Top shape: 24 32 28 28 (602112)
I0403 15:17:46.843597 31423 net.cpp:156] Memory required for data: 729760800
I0403 15:17:46.843618 31423 layer_factory.hpp:77] Creating layer inception_3b/5x5
I0403 15:17:46.843650 31423 net.cpp:91] Creating Layer inception_3b/5x5
I0403 15:17:46.843674 31423 net.cpp:425] inception_3b/5x5 <- inception_3b/5x5_reduce
I0403 15:17:46.843703 31423 net.cpp:399] inception_3b/5x5 -> inception_3b/5x5
I0403 15:17:46.845798 31423 net.cpp:141] Setting up inception_3b/5x5
I0403 15:17:46.845850 31423 net.cpp:148] Top shape: 24 96 28 28 (1806336)
I0403 15:17:46.845897 31423 net.cpp:156] Memory required for data: 736986144
I0403 15:17:46.845917 31423 layer_factory.hpp:77] Creating layer inception_3b/relu_5x5
I0403 15:17:46.845943 31423 net.cpp:91] Creating Layer inception_3b/relu_5x5
I0403 15:17:46.845963 31423 net.cpp:425] inception_3b/relu_5x5 <- inception_3b/5x5
I0403 15:17:46.845981 31423 net.cpp:386] inception_3b/relu_5x5 -> inception_3b/5x5 (in-place)
I0403 15:17:46.846189 31423 net.cpp:141] Setting up inception_3b/relu_5x5
I0403 15:17:46.846216 31423 net.cpp:148] Top shape: 24 96 28 28 (1806336)
I0403 15:17:46.846235 31423 net.cpp:156] Memory required for data: 744211488
I0403 15:17:46.846256 31423 layer_factory.hpp:77] Creating layer inception_3b/pool
I0403 15:17:46.846276 31423 net.cpp:91] Creating Layer inception_3b/pool
I0403 15:17:46.846302 31423 net.cpp:425] inception_3b/pool <- inception_3a/output_inception_3a/output_0_split_3
I0403 15:17:46.846328 31423 net.cpp:399] inception_3b/pool -> inception_3b/pool
I0403 15:17:46.846387 31423 net.cpp:141] Setting up inception_3b/pool
I0403 15:17:46.846421 31423 net.cpp:148] Top shape: 24 256 28 28 (4816896)
I0403 15:17:46.846441 31423 net.cpp:156] Memory required for data: 763479072
I0403 15:17:46.846460 31423 layer_factory.hpp:77] Creating layer inception_3b/pool_proj
I0403 15:17:46.846492 31423 net.cpp:91] Creating Layer inception_3b/pool_proj
I0403 15:17:46.846509 31423 net.cpp:425] inception_3b/pool_proj <- inception_3b/pool
I0403 15:17:46.846529 31423 net.cpp:399] inception_3b/pool_proj -> inception_3b/pool_proj
I0403 15:17:46.847650 31423 net.cpp:141] Setting up inception_3b/pool_proj
I0403 15:17:46.847678 31423 net.cpp:148] Top shape: 24 64 28 28 (1204224)
I0403 15:17:46.847695 31423 net.cpp:156] Memory required for data: 768295968
I0403 15:17:46.847715 31423 layer_factory.hpp:77] Creating layer inception_3b/relu_pool_proj
I0403 15:17:46.847738 31423 net.cpp:91] Creating Layer inception_3b/relu_pool_proj
I0403 15:17:46.847755 31423 net.cpp:425] inception_3b/relu_pool_proj <- inception_3b/pool_proj
I0403 15:17:46.847774 31423 net.cpp:386] inception_3b/relu_pool_proj -> inception_3b/pool_proj (in-place)
I0403 15:17:46.848194 31423 net.cpp:141] Setting up inception_3b/relu_pool_proj
I0403 15:17:46.848223 31423 net.cpp:148] Top shape: 24 64 28 28 (1204224)
I0403 15:17:46.848240 31423 net.cpp:156] Memory required for data: 773112864
I0403 15:17:46.848256 31423 layer_factory.hpp:77] Creating layer inception_3b/output
I0403 15:17:46.848275 31423 net.cpp:91] Creating Layer inception_3b/output
I0403 15:17:46.848291 31423 net.cpp:425] inception_3b/output <- inception_3b/1x1
I0403 15:17:46.848310 31423 net.cpp:425] inception_3b/output <- inception_3b/3x3
I0403 15:17:46.848328 31423 net.cpp:425] inception_3b/output <- inception_3b/5x5
I0403 15:17:46.848345 31423 net.cpp:425] inception_3b/output <- inception_3b/pool_proj
I0403 15:17:46.848366 31423 net.cpp:399] inception_3b/output -> inception_3b/output
I0403 15:17:46.848417 31423 net.cpp:141] Setting up inception_3b/output
I0403 15:17:46.848441 31423 net.cpp:148] Top shape: 24 480 28 28 (9031680)
I0403 15:17:46.848456 31423 net.cpp:156] Memory required for data: 809239584
I0403 15:17:46.848471 31423 layer_factory.hpp:77] Creating layer pool3/3x3_s2
I0403 15:17:46.848489 31423 net.cpp:91] Creating Layer pool3/3x3_s2
I0403 15:17:46.848510 31423 net.cpp:425] pool3/3x3_s2 <- inception_3b/output
I0403 15:17:46.848562 31423 net.cpp:399] pool3/3x3_s2 -> pool3/3x3_s2
I0403 15:17:46.848625 31423 net.cpp:141] Setting up pool3/3x3_s2
I0403 15:17:46.848649 31423 net.cpp:148] Top shape: 24 480 14 14 (2257920)
I0403 15:17:46.848664 31423 net.cpp:156] Memory required for data: 818271264
I0403 15:17:46.848680 31423 layer_factory.hpp:77] Creating layer pool3/3x3_s2_pool3/3x3_s2_0_split
I0403 15:17:46.848701 31423 net.cpp:91] Creating Layer pool3/3x3_s2_pool3/3x3_s2_0_split
I0403 15:17:46.848717 31423 net.cpp:425] pool3/3x3_s2_pool3/3x3_s2_0_split <- pool3/3x3_s2
I0403 15:17:46.848737 31423 net.cpp:399] pool3/3x3_s2_pool3/3x3_s2_0_split -> pool3/3x3_s2_pool3/3x3_s2_0_split_0
I0403 15:17:46.848758 31423 net.cpp:399] pool3/3x3_s2_pool3/3x3_s2_0_split -> pool3/3x3_s2_pool3/3x3_s2_0_split_1
I0403 15:17:46.848779 31423 net.cpp:399] pool3/3x3_s2_pool3/3x3_s2_0_split -> pool3/3x3_s2_pool3/3x3_s2_0_split_2
I0403 15:17:46.848800 31423 net.cpp:399] pool3/3x3_s2_pool3/3x3_s2_0_split -> pool3/3x3_s2_pool3/3x3_s2_0_split_3
I0403 15:17:46.848878 31423 net.cpp:141] Setting up pool3/3x3_s2_pool3/3x3_s2_0_split
I0403 15:17:46.848901 31423 net.cpp:148] Top shape: 24 480 14 14 (2257920)
I0403 15:17:46.848918 31423 net.cpp:148] Top shape: 24 480 14 14 (2257920)
I0403 15:17:46.848935 31423 net.cpp:148] Top shape: 24 480 14 14 (2257920)
I0403 15:17:46.848951 31423 net.cpp:148] Top shape: 24 480 14 14 (2257920)
I0403 15:17:46.848965 31423 net.cpp:156] Memory required for data: 854397984
I0403 15:17:46.848981 31423 layer_factory.hpp:77] Creating layer inception_4a/1x1
I0403 15:17:46.849004 31423 net.cpp:91] Creating Layer inception_4a/1x1
I0403 15:17:46.849022 31423 net.cpp:425] inception_4a/1x1 <- pool3/3x3_s2_pool3/3x3_s2_0_split_0
I0403 15:17:46.849043 31423 net.cpp:399] inception_4a/1x1 -> inception_4a/1x1
I0403 15:17:46.850703 31423 net.cpp:141] Setting up inception_4a/1x1
I0403 15:17:46.850736 31423 net.cpp:148] Top shape: 24 192 14 14 (903168)
I0403 15:17:46.850761 31423 net.cpp:156] Memory required for data: 858010656
I0403 15:17:46.850787 31423 layer_factory.hpp:77] Creating layer inception_4a/relu_1x1
I0403 15:17:46.850816 31423 net.cpp:91] Creating Layer inception_4a/relu_1x1
I0403 15:17:46.850834 31423 net.cpp:425] inception_4a/relu_1x1 <- inception_4a/1x1
I0403 15:17:46.850854 31423 net.cpp:386] inception_4a/relu_1x1 -> inception_4a/1x1 (in-place)
I0403 15:17:46.851047 31423 net.cpp:141] Setting up inception_4a/relu_1x1
I0403 15:17:46.851080 31423 net.cpp:148] Top shape: 24 192 14 14 (903168)
I0403 15:17:46.851115 31423 net.cpp:156] Memory required for data: 861623328
I0403 15:17:46.851132 31423 layer_factory.hpp:77] Creating layer inception_4a/3x3_reduce
I0403 15:17:46.851161 31423 net.cpp:91] Creating Layer inception_4a/3x3_reduce
I0403 15:17:46.851184 31423 net.cpp:425] inception_4a/3x3_reduce <- pool3/3x3_s2_pool3/3x3_s2_0_split_1
I0403 15:17:46.851213 31423 net.cpp:399] inception_4a/3x3_reduce -> inception_4a/3x3_reduce
I0403 15:17:46.852558 31423 net.cpp:141] Setting up inception_4a/3x3_reduce
I0403 15:17:46.852587 31423 net.cpp:148] Top shape: 24 96 14 14 (451584)
I0403 15:17:46.852603 31423 net.cpp:156] Memory required for data: 863429664
I0403 15:17:46.852629 31423 layer_factory.hpp:77] Creating layer inception_4a/relu_3x3_reduce
I0403 15:17:46.852653 31423 net.cpp:91] Creating Layer inception_4a/relu_3x3_reduce
I0403 15:17:46.852670 31423 net.cpp:425] inception_4a/relu_3x3_reduce <- inception_4a/3x3_reduce
I0403 15:17:46.852689 31423 net.cpp:386] inception_4a/relu_3x3_reduce -> inception_4a/3x3_reduce (in-place)
I0403 15:17:46.852877 31423 net.cpp:141] Setting up inception_4a/relu_3x3_reduce
I0403 15:17:46.852905 31423 net.cpp:148] Top shape: 24 96 14 14 (451584)
I0403 15:17:46.852921 31423 net.cpp:156] Memory required for data: 865236000
I0403 15:17:46.852937 31423 layer_factory.hpp:77] Creating layer inception_4a/3x3
I0403 15:17:46.852959 31423 net.cpp:91] Creating Layer inception_4a/3x3
I0403 15:17:46.852979 31423 net.cpp:425] inception_4a/3x3 <- inception_4a/3x3_reduce
I0403 15:17:46.852998 31423 net.cpp:399] inception_4a/3x3 -> inception_4a/3x3
I0403 15:17:46.855830 31423 net.cpp:141] Setting up inception_4a/3x3
I0403 15:17:46.855871 31423 net.cpp:148] Top shape: 24 208 14 14 (978432)
I0403 15:17:46.855896 31423 net.cpp:156] Memory required for data: 869149728
I0403 15:17:46.855917 31423 layer_factory.hpp:77] Creating layer inception_4a/relu_3x3
I0403 15:17:46.855943 31423 net.cpp:91] Creating Layer inception_4a/relu_3x3
I0403 15:17:46.855964 31423 net.cpp:425] inception_4a/relu_3x3 <- inception_4a/3x3
I0403 15:17:46.855998 31423 net.cpp:386] inception_4a/relu_3x3 -> inception_4a/3x3 (in-place)
I0403 15:17:46.856299 31423 net.cpp:141] Setting up inception_4a/relu_3x3
I0403 15:17:46.856336 31423 net.cpp:148] Top shape: 24 208 14 14 (978432)
I0403 15:17:46.856356 31423 net.cpp:156] Memory required for data: 873063456
I0403 15:17:46.856382 31423 layer_factory.hpp:77] Creating layer inception_4a/5x5_reduce
I0403 15:17:46.856417 31423 net.cpp:91] Creating Layer inception_4a/5x5_reduce
I0403 15:17:46.856451 31423 net.cpp:425] inception_4a/5x5_reduce <- pool3/3x3_s2_pool3/3x3_s2_0_split_2
I0403 15:17:46.856477 31423 net.cpp:399] inception_4a/5x5_reduce -> inception_4a/5x5_reduce
I0403 15:17:46.857553 31423 net.cpp:141] Setting up inception_4a/5x5_reduce
I0403 15:17:46.857583 31423 net.cpp:148] Top shape: 24 16 14 14 (75264)
I0403 15:17:46.857599 31423 net.cpp:156] Memory required for data: 873364512
I0403 15:17:46.857617 31423 layer_factory.hpp:77] Creating layer inception_4a/relu_5x5_reduce
I0403 15:17:46.857637 31423 net.cpp:91] Creating Layer inception_4a/relu_5x5_reduce
I0403 15:17:46.857653 31423 net.cpp:425] inception_4a/relu_5x5_reduce <- inception_4a/5x5_reduce
I0403 15:17:46.857677 31423 net.cpp:386] inception_4a/relu_5x5_reduce -> inception_4a/5x5_reduce (in-place)
I0403 15:17:46.857864 31423 net.cpp:141] Setting up inception_4a/relu_5x5_reduce
I0403 15:17:46.857890 31423 net.cpp:148] Top shape: 24 16 14 14 (75264)
I0403 15:17:46.857906 31423 net.cpp:156] Memory required for data: 873665568
I0403 15:17:46.857923 31423 layer_factory.hpp:77] Creating layer inception_4a/5x5
I0403 15:17:46.857945 31423 net.cpp:91] Creating Layer inception_4a/5x5
I0403 15:17:46.857964 31423 net.cpp:425] inception_4a/5x5 <- inception_4a/5x5_reduce
I0403 15:17:46.857985 31423 net.cpp:399] inception_4a/5x5 -> inception_4a/5x5
I0403 15:17:46.859120 31423 net.cpp:141] Setting up inception_4a/5x5
I0403 15:17:46.859149 31423 net.cpp:148] Top shape: 24 48 14 14 (225792)
I0403 15:17:46.859165 31423 net.cpp:156] Memory required for data: 874568736
I0403 15:17:46.859185 31423 layer_factory.hpp:77] Creating layer inception_4a/relu_5x5
I0403 15:17:46.859206 31423 net.cpp:91] Creating Layer inception_4a/relu_5x5
I0403 15:17:46.859223 31423 net.cpp:425] inception_4a/relu_5x5 <- inception_4a/5x5
I0403 15:17:46.859241 31423 net.cpp:386] inception_4a/relu_5x5 -> inception_4a/5x5 (in-place)
I0403 15:17:46.859427 31423 net.cpp:141] Setting up inception_4a/relu_5x5
I0403 15:17:46.859455 31423 net.cpp:148] Top shape: 24 48 14 14 (225792)
I0403 15:17:46.859472 31423 net.cpp:156] Memory required for data: 875471904
I0403 15:17:46.859488 31423 layer_factory.hpp:77] Creating layer inception_4a/pool
I0403 15:17:46.859506 31423 net.cpp:91] Creating Layer inception_4a/pool
I0403 15:17:46.859522 31423 net.cpp:425] inception_4a/pool <- pool3/3x3_s2_pool3/3x3_s2_0_split_3
I0403 15:17:46.859545 31423 net.cpp:399] inception_4a/pool -> inception_4a/pool
I0403 15:17:46.859611 31423 net.cpp:141] Setting up inception_4a/pool
I0403 15:17:46.859637 31423 net.cpp:148] Top shape: 24 480 14 14 (2257920)
I0403 15:17:46.859652 31423 net.cpp:156] Memory required for data: 884503584
I0403 15:17:46.859666 31423 layer_factory.hpp:77] Creating layer inception_4a/pool_proj
I0403 15:17:46.859689 31423 net.cpp:91] Creating Layer inception_4a/pool_proj
I0403 15:17:46.859709 31423 net.cpp:425] inception_4a/pool_proj <- inception_4a/pool
I0403 15:17:46.859730 31423 net.cpp:399] inception_4a/pool_proj -> inception_4a/pool_proj
I0403 15:17:46.860949 31423 net.cpp:141] Setting up inception_4a/pool_proj
I0403 15:17:46.860978 31423 net.cpp:148] Top shape: 24 64 14 14 (301056)
I0403 15:17:46.861011 31423 net.cpp:156] Memory required for data: 885707808
I0403 15:17:46.861030 31423 layer_factory.hpp:77] Creating layer inception_4a/relu_pool_proj
I0403 15:17:46.861052 31423 net.cpp:91] Creating Layer inception_4a/relu_pool_proj
I0403 15:17:46.861069 31423 net.cpp:425] inception_4a/relu_pool_proj <- inception_4a/pool_proj
I0403 15:17:46.861086 31423 net.cpp:386] inception_4a/relu_pool_proj -> inception_4a/pool_proj (in-place)
I0403 15:17:46.861379 31423 net.cpp:141] Setting up inception_4a/relu_pool_proj
I0403 15:17:46.861405 31423 net.cpp:148] Top shape: 24 64 14 14 (301056)
I0403 15:17:46.861420 31423 net.cpp:156] Memory required for data: 886912032
I0403 15:17:46.861435 31423 layer_factory.hpp:77] Creating layer inception_4a/output
I0403 15:17:46.861455 31423 net.cpp:91] Creating Layer inception_4a/output
I0403 15:17:46.861471 31423 net.cpp:425] inception_4a/output <- inception_4a/1x1
I0403 15:17:46.861488 31423 net.cpp:425] inception_4a/output <- inception_4a/3x3
I0403 15:17:46.861505 31423 net.cpp:425] inception_4a/output <- inception_4a/5x5
I0403 15:17:46.861521 31423 net.cpp:425] inception_4a/output <- inception_4a/pool_proj
I0403 15:17:46.861542 31423 net.cpp:399] inception_4a/output -> inception_4a/output
I0403 15:17:46.861589 31423 net.cpp:141] Setting up inception_4a/output
I0403 15:17:46.861613 31423 net.cpp:148] Top shape: 24 512 14 14 (2408448)
I0403 15:17:46.861629 31423 net.cpp:156] Memory required for data: 896545824
I0403 15:17:46.861644 31423 layer_factory.hpp:77] Creating layer inception_4a/output_inception_4a/output_0_split
I0403 15:17:46.861661 31423 net.cpp:91] Creating Layer inception_4a/output_inception_4a/output_0_split
I0403 15:17:46.861676 31423 net.cpp:425] inception_4a/output_inception_4a/output_0_split <- inception_4a/output
I0403 15:17:46.861696 31423 net.cpp:399] inception_4a/output_inception_4a/output_0_split -> inception_4a/output_inception_4a/output_0_split_0
I0403 15:17:46.861718 31423 net.cpp:399] inception_4a/output_inception_4a/output_0_split -> inception_4a/output_inception_4a/output_0_split_1
I0403 15:17:46.861739 31423 net.cpp:399] inception_4a/output_inception_4a/output_0_split -> inception_4a/output_inception_4a/output_0_split_2
I0403 15:17:46.861760 31423 net.cpp:399] inception_4a/output_inception_4a/output_0_split -> inception_4a/output_inception_4a/output_0_split_3
I0403 15:17:46.861783 31423 net.cpp:399] inception_4a/output_inception_4a/output_0_split -> inception_4a/output_inception_4a/output_0_split_4
I0403 15:17:46.861876 31423 net.cpp:141] Setting up inception_4a/output_inception_4a/output_0_split
I0403 15:17:46.861899 31423 net.cpp:148] Top shape: 24 512 14 14 (2408448)
I0403 15:17:46.861917 31423 net.cpp:148] Top shape: 24 512 14 14 (2408448)
I0403 15:17:46.861932 31423 net.cpp:148] Top shape: 24 512 14 14 (2408448)
I0403 15:17:46.861948 31423 net.cpp:148] Top shape: 24 512 14 14 (2408448)
I0403 15:17:46.861963 31423 net.cpp:148] Top shape: 24 512 14 14 (2408448)
I0403 15:17:46.861976 31423 net.cpp:156] Memory required for data: 944714784
I0403 15:17:46.861997 31423 layer_factory.hpp:77] Creating layer loss1/ave_pool
I0403 15:17:46.862015 31423 net.cpp:91] Creating Layer loss1/ave_pool
I0403 15:17:46.862031 31423 net.cpp:425] loss1/ave_pool <- inception_4a/output_inception_4a/output_0_split_0
I0403 15:17:46.862051 31423 net.cpp:399] loss1/ave_pool -> loss1/ave_pool
I0403 15:17:46.862260 31423 net.cpp:141] Setting up loss1/ave_pool
I0403 15:17:46.862287 31423 net.cpp:148] Top shape: 24 512 4 4 (196608)
I0403 15:17:46.862301 31423 net.cpp:156] Memory required for data: 945501216
I0403 15:17:46.862316 31423 layer_factory.hpp:77] Creating layer loss1/conv
I0403 15:17:46.862340 31423 net.cpp:91] Creating Layer loss1/conv
I0403 15:17:46.862365 31423 net.cpp:425] loss1/conv <- loss1/ave_pool
I0403 15:17:46.862387 31423 net.cpp:399] loss1/conv -> loss1/conv
I0403 15:17:46.863824 31423 net.cpp:141] Setting up loss1/conv
I0403 15:17:46.863857 31423 net.cpp:148] Top shape: 24 128 4 4 (49152)
I0403 15:17:46.863896 31423 net.cpp:156] Memory required for data: 945697824
I0403 15:17:46.863917 31423 layer_factory.hpp:77] Creating layer loss1/relu_conv
I0403 15:17:46.863935 31423 net.cpp:91] Creating Layer loss1/relu_conv
I0403 15:17:46.863952 31423 net.cpp:425] loss1/relu_conv <- loss1/conv
I0403 15:17:46.863972 31423 net.cpp:386] loss1/relu_conv -> loss1/conv (in-place)
I0403 15:17:46.864264 31423 net.cpp:141] Setting up loss1/relu_conv
I0403 15:17:46.864291 31423 net.cpp:148] Top shape: 24 128 4 4 (49152)
I0403 15:17:46.864306 31423 net.cpp:156] Memory required for data: 945894432
I0403 15:17:46.864322 31423 layer_factory.hpp:77] Creating layer loss1/fc
I0403 15:17:46.864352 31423 net.cpp:91] Creating Layer loss1/fc
I0403 15:17:46.864372 31423 net.cpp:425] loss1/fc <- loss1/conv
I0403 15:17:46.864392 31423 net.cpp:399] loss1/fc -> loss1/fc
I0403 15:17:46.882387 31423 net.cpp:141] Setting up loss1/fc
I0403 15:17:46.882429 31423 net.cpp:148] Top shape: 24 1024 (24576)
I0403 15:17:46.882447 31423 net.cpp:156] Memory required for data: 945992736
I0403 15:17:46.882465 31423 layer_factory.hpp:77] Creating layer loss1/relu_fc
I0403 15:17:46.882490 31423 net.cpp:91] Creating Layer loss1/relu_fc
I0403 15:17:46.882510 31423 net.cpp:425] loss1/relu_fc <- loss1/fc
I0403 15:17:46.882540 31423 net.cpp:386] loss1/relu_fc -> loss1/fc (in-place)
I0403 15:17:46.882743 31423 net.cpp:141] Setting up loss1/relu_fc
I0403 15:17:46.882771 31423 net.cpp:148] Top shape: 24 1024 (24576)
I0403 15:17:46.882791 31423 net.cpp:156] Memory required for data: 946091040
I0403 15:17:46.882814 31423 layer_factory.hpp:77] Creating layer loss1/drop_fc
I0403 15:17:46.882844 31423 net.cpp:91] Creating Layer loss1/drop_fc
I0403 15:17:46.882869 31423 net.cpp:425] loss1/drop_fc <- loss1/fc
I0403 15:17:46.882895 31423 net.cpp:386] loss1/drop_fc -> loss1/fc (in-place)
I0403 15:17:46.882967 31423 net.cpp:141] Setting up loss1/drop_fc
I0403 15:17:46.882997 31423 net.cpp:148] Top shape: 24 1024 (24576)
I0403 15:17:46.883011 31423 net.cpp:156] Memory required for data: 946189344
I0403 15:17:46.883025 31423 layer_factory.hpp:77] Creating layer loss1/classifier_plantvillage
I0403 15:17:46.883047 31423 net.cpp:91] Creating Layer loss1/classifier_plantvillage
I0403 15:17:46.883064 31423 net.cpp:425] loss1/classifier_plantvillage <- loss1/fc
I0403 15:17:46.883080 31423 net.cpp:399] loss1/classifier_plantvillage -> loss1/classifier_plantvillage
I0403 15:17:46.884004 31423 net.cpp:141] Setting up loss1/classifier_plantvillage
I0403 15:17:46.884039 31423 net.cpp:148] Top shape: 24 38 (912)
I0403 15:17:46.884055 31423 net.cpp:156] Memory required for data: 946192992
I0403 15:17:46.884073 31423 layer_factory.hpp:77] Creating layer loss1/classifier_plantvillage_loss1/classifier_plantvillage_0_split
I0403 15:17:46.884099 31423 net.cpp:91] Creating Layer loss1/classifier_plantvillage_loss1/classifier_plantvillage_0_split
I0403 15:17:46.884121 31423 net.cpp:425] loss1/classifier_plantvillage_loss1/classifier_plantvillage_0_split <- loss1/classifier_plantvillage
I0403 15:17:46.884146 31423 net.cpp:399] loss1/classifier_plantvillage_loss1/classifier_plantvillage_0_split -> loss1/classifier_plantvillage_loss1/classifier_plantvillage_0_split_0
I0403 15:17:46.884167 31423 net.cpp:399] loss1/classifier_plantvillage_loss1/classifier_plantvillage_0_split -> loss1/classifier_plantvillage_loss1/classifier_plantvillage_0_split_1
I0403 15:17:46.884210 31423 net.cpp:399] loss1/classifier_plantvillage_loss1/classifier_plantvillage_0_split -> loss1/classifier_plantvillage_loss1/classifier_plantvillage_0_split_2
I0403 15:17:46.884282 31423 net.cpp:141] Setting up loss1/classifier_plantvillage_loss1/classifier_plantvillage_0_split
I0403 15:17:46.884320 31423 net.cpp:148] Top shape: 24 38 (912)
I0403 15:17:46.884344 31423 net.cpp:148] Top shape: 24 38 (912)
I0403 15:17:46.884368 31423 net.cpp:148] Top shape: 24 38 (912)
I0403 15:17:46.884384 31423 net.cpp:156] Memory required for data: 946203936
I0403 15:17:46.884407 31423 layer_factory.hpp:77] Creating layer inception_4b/1x1
I0403 15:17:46.884435 31423 net.cpp:91] Creating Layer inception_4b/1x1
I0403 15:17:46.884482 31423 net.cpp:425] inception_4b/1x1 <- inception_4a/output_inception_4a/output_0_split_1
I0403 15:17:46.884526 31423 net.cpp:399] inception_4b/1x1 -> inception_4b/1x1
I0403 15:17:46.886255 31423 net.cpp:141] Setting up inception_4b/1x1
I0403 15:17:46.886312 31423 net.cpp:148] Top shape: 24 160 14 14 (752640)
I0403 15:17:46.886333 31423 net.cpp:156] Memory required for data: 949214496
I0403 15:17:46.886360 31423 layer_factory.hpp:77] Creating layer inception_4b/relu_1x1
I0403 15:17:46.886379 31423 net.cpp:91] Creating Layer inception_4b/relu_1x1
I0403 15:17:46.886396 31423 net.cpp:425] inception_4b/relu_1x1 <- inception_4b/1x1
I0403 15:17:46.886421 31423 net.cpp:386] inception_4b/relu_1x1 -> inception_4b/1x1 (in-place)
I0403 15:17:46.886623 31423 net.cpp:141] Setting up inception_4b/relu_1x1
I0403 15:17:46.886669 31423 net.cpp:148] Top shape: 24 160 14 14 (752640)
I0403 15:17:46.886703 31423 net.cpp:156] Memory required for data: 952225056
I0403 15:17:46.886759 31423 layer_factory.hpp:77] Creating layer inception_4b/3x3_reduce
I0403 15:17:46.886798 31423 net.cpp:91] Creating Layer inception_4b/3x3_reduce
I0403 15:17:46.886828 31423 net.cpp:425] inception_4b/3x3_reduce <- inception_4a/output_inception_4a/output_0_split_2
I0403 15:17:46.886853 31423 net.cpp:399] inception_4b/3x3_reduce -> inception_4b/3x3_reduce
I0403 15:17:46.888252 31423 net.cpp:141] Setting up inception_4b/3x3_reduce
I0403 15:17:46.888283 31423 net.cpp:148] Top shape: 24 112 14 14 (526848)
I0403 15:17:46.888300 31423 net.cpp:156] Memory required for data: 954332448
I0403 15:17:46.888319 31423 layer_factory.hpp:77] Creating layer inception_4b/relu_3x3_reduce
I0403 15:17:46.888342 31423 net.cpp:91] Creating Layer inception_4b/relu_3x3_reduce
I0403 15:17:46.888365 31423 net.cpp:425] inception_4b/relu_3x3_reduce <- inception_4b/3x3_reduce
I0403 15:17:46.888391 31423 net.cpp:386] inception_4b/relu_3x3_reduce -> inception_4b/3x3_reduce (in-place)
I0403 15:17:46.888684 31423 net.cpp:141] Setting up inception_4b/relu_3x3_reduce
I0403 15:17:46.888721 31423 net.cpp:148] Top shape: 24 112 14 14 (526848)
I0403 15:17:46.888736 31423 net.cpp:156] Memory required for data: 956439840
I0403 15:17:46.888751 31423 layer_factory.hpp:77] Creating layer inception_4b/3x3
I0403 15:17:46.888773 31423 net.cpp:91] Creating Layer inception_4b/3x3
I0403 15:17:46.888792 31423 net.cpp:425] inception_4b/3x3 <- inception_4b/3x3_reduce
I0403 15:17:46.888813 31423 net.cpp:399] inception_4b/3x3 -> inception_4b/3x3
I0403 15:17:46.891849 31423 net.cpp:141] Setting up inception_4b/3x3
I0403 15:17:46.891882 31423 net.cpp:148] Top shape: 24 224 14 14 (1053696)
I0403 15:17:46.891912 31423 net.cpp:156] Memory required for data: 960654624
I0403 15:17:46.891942 31423 layer_factory.hpp:77] Creating layer inception_4b/relu_3x3
I0403 15:17:46.891959 31423 net.cpp:91] Creating Layer inception_4b/relu_3x3
I0403 15:17:46.891974 31423 net.cpp:425] inception_4b/relu_3x3 <- inception_4b/3x3
I0403 15:17:46.891993 31423 net.cpp:386] inception_4b/relu_3x3 -> inception_4b/3x3 (in-place)
I0403 15:17:46.892169 31423 net.cpp:141] Setting up inception_4b/relu_3x3
I0403 15:17:46.892197 31423 net.cpp:148] Top shape: 24 224 14 14 (1053696)
I0403 15:17:46.892213 31423 net.cpp:156] Memory required for data: 964869408
I0403 15:17:46.892227 31423 layer_factory.hpp:77] Creating layer inception_4b/5x5_reduce
I0403 15:17:46.892251 31423 net.cpp:91] Creating Layer inception_4b/5x5_reduce
I0403 15:17:46.892285 31423 net.cpp:425] inception_4b/5x5_reduce <- inception_4a/output_inception_4a/output_0_split_3
I0403 15:17:46.892313 31423 net.cpp:399] inception_4b/5x5_reduce -> inception_4b/5x5_reduce
I0403 15:17:46.893393 31423 net.cpp:141] Setting up inception_4b/5x5_reduce
I0403 15:17:46.893429 31423 net.cpp:148] Top shape: 24 24 14 14 (112896)
I0403 15:17:46.893447 31423 net.cpp:156] Memory required for data: 965320992
I0403 15:17:46.893465 31423 layer_factory.hpp:77] Creating layer inception_4b/relu_5x5_reduce
I0403 15:17:46.893483 31423 net.cpp:91] Creating Layer inception_4b/relu_5x5_reduce
I0403 15:17:46.893519 31423 net.cpp:425] inception_4b/relu_5x5_reduce <- inception_4b/5x5_reduce
I0403 15:17:46.893550 31423 net.cpp:386] inception_4b/relu_5x5_reduce -> inception_4b/5x5_reduce (in-place)
I0403 15:17:46.893762 31423 net.cpp:141] Setting up inception_4b/relu_5x5_reduce
I0403 15:17:46.893790 31423 net.cpp:148] Top shape: 24 24 14 14 (112896)
I0403 15:17:46.893812 31423 net.cpp:156] Memory required for data: 965772576
I0403 15:17:46.893832 31423 layer_factory.hpp:77] Creating layer inception_4b/5x5
I0403 15:17:46.893863 31423 net.cpp:91] Creating Layer inception_4b/5x5
I0403 15:17:46.893896 31423 net.cpp:425] inception_4b/5x5 <- inception_4b/5x5_reduce
I0403 15:17:46.893924 31423 net.cpp:399] inception_4b/5x5 -> inception_4b/5x5
I0403 15:17:46.895148 31423 net.cpp:141] Setting up inception_4b/5x5
I0403 15:17:46.895184 31423 net.cpp:148] Top shape: 24 64 14 14 (301056)
I0403 15:17:46.895201 31423 net.cpp:156] Memory required for data: 966976800
I0403 15:17:46.895226 31423 layer_factory.hpp:77] Creating layer inception_4b/relu_5x5
I0403 15:17:46.895248 31423 net.cpp:91] Creating Layer inception_4b/relu_5x5
I0403 15:17:46.895272 31423 net.cpp:425] inception_4b/relu_5x5 <- inception_4b/5x5
I0403 15:17:46.895300 31423 net.cpp:386] inception_4b/relu_5x5 -> inception_4b/5x5 (in-place)
I0403 15:17:46.895599 31423 net.cpp:141] Setting up inception_4b/relu_5x5
I0403 15:17:46.895632 31423 net.cpp:148] Top shape: 24 64 14 14 (301056)
I0403 15:17:46.895648 31423 net.cpp:156] Memory required for data: 968181024
I0403 15:17:46.895663 31423 layer_factory.hpp:77] Creating layer inception_4b/pool
I0403 15:17:46.895685 31423 net.cpp:91] Creating Layer inception_4b/pool
I0403 15:17:46.895707 31423 net.cpp:425] inception_4b/pool <- inception_4a/output_inception_4a/output_0_split_4
I0403 15:17:46.895735 31423 net.cpp:399] inception_4b/pool -> inception_4b/pool
I0403 15:17:46.895799 31423 net.cpp:141] Setting up inception_4b/pool
I0403 15:17:46.895831 31423 net.cpp:148] Top shape: 24 512 14 14 (2408448)
I0403 15:17:46.895846 31423 net.cpp:156] Memory required for data: 977814816
I0403 15:17:46.895864 31423 layer_factory.hpp:77] Creating layer inception_4b/pool_proj
I0403 15:17:46.895889 31423 net.cpp:91] Creating Layer inception_4b/pool_proj
I0403 15:17:46.895917 31423 net.cpp:425] inception_4b/pool_proj <- inception_4b/pool
I0403 15:17:46.895942 31423 net.cpp:399] inception_4b/pool_proj -> inception_4b/pool_proj
I0403 15:17:46.897127 31423 net.cpp:141] Setting up inception_4b/pool_proj
I0403 15:17:46.897161 31423 net.cpp:148] Top shape: 24 64 14 14 (301056)
I0403 15:17:46.897179 31423 net.cpp:156] Memory required for data: 979019040
I0403 15:17:46.897199 31423 layer_factory.hpp:77] Creating layer inception_4b/relu_pool_proj
I0403 15:17:46.897225 31423 net.cpp:91] Creating Layer inception_4b/relu_pool_proj
I0403 15:17:46.897248 31423 net.cpp:425] inception_4b/relu_pool_proj <- inception_4b/pool_proj
I0403 15:17:46.897277 31423 net.cpp:386] inception_4b/relu_pool_proj -> inception_4b/pool_proj (in-place)
I0403 15:17:46.897457 31423 net.cpp:141] Setting up inception_4b/relu_pool_proj
I0403 15:17:46.897485 31423 net.cpp:148] Top shape: 24 64 14 14 (301056)
I0403 15:17:46.897505 31423 net.cpp:156] Memory required for data: 980223264
I0403 15:17:46.897526 31423 layer_factory.hpp:77] Creating layer inception_4b/output
I0403 15:17:46.897563 31423 net.cpp:91] Creating Layer inception_4b/output
I0403 15:17:46.897598 31423 net.cpp:425] inception_4b/output <- inception_4b/1x1
I0403 15:17:46.897621 31423 net.cpp:425] inception_4b/output <- inception_4b/3x3
I0403 15:17:46.897642 31423 net.cpp:425] inception_4b/output <- inception_4b/5x5
I0403 15:17:46.897665 31423 net.cpp:425] inception_4b/output <- inception_4b/pool_proj
I0403 15:17:46.897687 31423 net.cpp:399] inception_4b/output -> inception_4b/output
I0403 15:17:46.897737 31423 net.cpp:141] Setting up inception_4b/output
I0403 15:17:46.897766 31423 net.cpp:148] Top shape: 24 512 14 14 (2408448)
I0403 15:17:46.897781 31423 net.cpp:156] Memory required for data: 989857056
I0403 15:17:46.897816 31423 layer_factory.hpp:77] Creating layer inception_4b/output_inception_4b/output_0_split
I0403 15:17:46.897835 31423 net.cpp:91] Creating Layer inception_4b/output_inception_4b/output_0_split
I0403 15:17:46.897856 31423 net.cpp:425] inception_4b/output_inception_4b/output_0_split <- inception_4b/output
I0403 15:17:46.897881 31423 net.cpp:399] inception_4b/output_inception_4b/output_0_split -> inception_4b/output_inception_4b/output_0_split_0
I0403 15:17:46.897907 31423 net.cpp:399] inception_4b/output_inception_4b/output_0_split -> inception_4b/output_inception_4b/output_0_split_1
I0403 15:17:46.897933 31423 net.cpp:399] inception_4b/output_inception_4b/output_0_split -> inception_4b/output_inception_4b/output_0_split_2
I0403 15:17:46.897959 31423 net.cpp:399] inception_4b/output_inception_4b/output_0_split -> inception_4b/output_inception_4b/output_0_split_3
I0403 15:17:46.898041 31423 net.cpp:141] Setting up inception_4b/output_inception_4b/output_0_split
I0403 15:17:46.898074 31423 net.cpp:148] Top shape: 24 512 14 14 (2408448)
I0403 15:17:46.898097 31423 net.cpp:148] Top shape: 24 512 14 14 (2408448)
I0403 15:17:46.898118 31423 net.cpp:148] Top shape: 24 512 14 14 (2408448)
I0403 15:17:46.898143 31423 net.cpp:148] Top shape: 24 512 14 14 (2408448)
I0403 15:17:46.898161 31423 net.cpp:156] Memory required for data: 1028392224
I0403 15:17:46.898182 31423 layer_factory.hpp:77] Creating layer inception_4c/1x1
I0403 15:17:46.898211 31423 net.cpp:91] Creating Layer inception_4c/1x1
I0403 15:17:46.898236 31423 net.cpp:425] inception_4c/1x1 <- inception_4b/output_inception_4b/output_0_split_0
I0403 15:17:46.898265 31423 net.cpp:399] inception_4c/1x1 -> inception_4c/1x1
I0403 15:17:46.899680 31423 net.cpp:141] Setting up inception_4c/1x1
I0403 15:17:46.899708 31423 net.cpp:148] Top shape: 24 128 14 14 (602112)
I0403 15:17:46.899724 31423 net.cpp:156] Memory required for data: 1030800672
I0403 15:17:46.899754 31423 layer_factory.hpp:77] Creating layer inception_4c/relu_1x1
I0403 15:17:46.899783 31423 net.cpp:91] Creating Layer inception_4c/relu_1x1
I0403 15:17:46.899813 31423 net.cpp:425] inception_4c/relu_1x1 <- inception_4c/1x1
I0403 15:17:46.899832 31423 net.cpp:386] inception_4c/relu_1x1 -> inception_4c/1x1 (in-place)
I0403 15:17:46.900012 31423 net.cpp:141] Setting up inception_4c/relu_1x1
I0403 15:17:46.900038 31423 net.cpp:148] Top shape: 24 128 14 14 (602112)
I0403 15:17:46.900058 31423 net.cpp:156] Memory required for data: 1033209120
I0403 15:17:46.900084 31423 layer_factory.hpp:77] Creating layer inception_4c/3x3_reduce
I0403 15:17:46.900106 31423 net.cpp:91] Creating Layer inception_4c/3x3_reduce
I0403 15:17:46.900123 31423 net.cpp:425] inception_4c/3x3_reduce <- inception_4b/output_inception_4b/output_0_split_1
I0403 15:17:46.900143 31423 net.cpp:399] inception_4c/3x3_reduce -> inception_4c/3x3_reduce
I0403 15:17:46.902312 31423 net.cpp:141] Setting up inception_4c/3x3_reduce
I0403 15:17:46.902344 31423 net.cpp:148] Top shape: 24 128 14 14 (602112)
I0403 15:17:46.902360 31423 net.cpp:156] Memory required for data: 1035617568
I0403 15:17:46.902379 31423 layer_factory.hpp:77] Creating layer inception_4c/relu_3x3_reduce
I0403 15:17:46.902397 31423 net.cpp:91] Creating Layer inception_4c/relu_3x3_reduce
I0403 15:17:46.902413 31423 net.cpp:425] inception_4c/relu_3x3_reduce <- inception_4c/3x3_reduce
I0403 15:17:46.902432 31423 net.cpp:386] inception_4c/relu_3x3_reduce -> inception_4c/3x3_reduce (in-place)
I0403 15:17:46.902719 31423 net.cpp:141] Setting up inception_4c/relu_3x3_reduce
I0403 15:17:46.902747 31423 net.cpp:148] Top shape: 24 128 14 14 (602112)
I0403 15:17:46.902763 31423 net.cpp:156] Memory required for data: 1038026016
I0403 15:17:46.902778 31423 layer_factory.hpp:77] Creating layer inception_4c/3x3
I0403 15:17:46.902802 31423 net.cpp:91] Creating Layer inception_4c/3x3
I0403 15:17:46.902820 31423 net.cpp:425] inception_4c/3x3 <- inception_4c/3x3_reduce
I0403 15:17:46.902839 31423 net.cpp:399] inception_4c/3x3 -> inception_4c/3x3
I0403 15:17:46.906504 31423 net.cpp:141] Setting up inception_4c/3x3
I0403 15:17:46.906555 31423 net.cpp:148] Top shape: 24 256 14 14 (1204224)
I0403 15:17:46.906580 31423 net.cpp:156] Memory required for data: 1042842912
I0403 15:17:46.906617 31423 layer_factory.hpp:77] Creating layer inception_4c/relu_3x3
I0403 15:17:46.906641 31423 net.cpp:91] Creating Layer inception_4c/relu_3x3
I0403 15:17:46.906674 31423 net.cpp:425] inception_4c/relu_3x3 <- inception_4c/3x3
I0403 15:17:46.906694 31423 net.cpp:386] inception_4c/relu_3x3 -> inception_4c/3x3 (in-place)
I0403 15:17:46.906875 31423 net.cpp:141] Setting up inception_4c/relu_3x3
I0403 15:17:46.906900 31423 net.cpp:148] Top shape: 24 256 14 14 (1204224)
I0403 15:17:46.906915 31423 net.cpp:156] Memory required for data: 1047659808
I0403 15:17:46.906935 31423 layer_factory.hpp:77] Creating layer inception_4c/5x5_reduce
I0403 15:17:46.906961 31423 net.cpp:91] Creating Layer inception_4c/5x5_reduce
I0403 15:17:46.906978 31423 net.cpp:425] inception_4c/5x5_reduce <- inception_4b/output_inception_4b/output_0_split_2
I0403 15:17:46.907001 31423 net.cpp:399] inception_4c/5x5_reduce -> inception_4c/5x5_reduce
I0403 15:17:46.908085 31423 net.cpp:141] Setting up inception_4c/5x5_reduce
I0403 15:17:46.908114 31423 net.cpp:148] Top shape: 24 24 14 14 (112896)
I0403 15:17:46.908130 31423 net.cpp:156] Memory required for data: 1048111392
I0403 15:17:46.908149 31423 layer_factory.hpp:77] Creating layer inception_4c/relu_5x5_reduce
I0403 15:17:46.908167 31423 net.cpp:91] Creating Layer inception_4c/relu_5x5_reduce
I0403 15:17:46.908184 31423 net.cpp:425] inception_4c/relu_5x5_reduce <- inception_4c/5x5_reduce
I0403 15:17:46.908215 31423 net.cpp:386] inception_4c/relu_5x5_reduce -> inception_4c/5x5_reduce (in-place)
I0403 15:17:46.908403 31423 net.cpp:141] Setting up inception_4c/relu_5x5_reduce
I0403 15:17:46.908433 31423 net.cpp:148] Top shape: 24 24 14 14 (112896)
I0403 15:17:46.908453 31423 net.cpp:156] Memory required for data: 1048562976
I0403 15:17:46.908475 31423 layer_factory.hpp:77] Creating layer inception_4c/5x5
I0403 15:17:46.908502 31423 net.cpp:91] Creating Layer inception_4c/5x5
I0403 15:17:46.908526 31423 net.cpp:425] inception_4c/5x5 <- inception_4c/5x5_reduce
I0403 15:17:46.908558 31423 net.cpp:399] inception_4c/5x5 -> inception_4c/5x5
I0403 15:17:46.909808 31423 net.cpp:141] Setting up inception_4c/5x5
I0403 15:17:46.909842 31423 net.cpp:148] Top shape: 24 64 14 14 (301056)
I0403 15:17:46.909857 31423 net.cpp:156] Memory required for data: 1049767200
I0403 15:17:46.909876 31423 layer_factory.hpp:77] Creating layer inception_4c/relu_5x5
I0403 15:17:46.909901 31423 net.cpp:91] Creating Layer inception_4c/relu_5x5
I0403 15:17:46.909922 31423 net.cpp:425] inception_4c/relu_5x5 <- inception_4c/5x5
I0403 15:17:46.909941 31423 net.cpp:386] inception_4c/relu_5x5 -> inception_4c/5x5 (in-place)
I0403 15:17:46.910233 31423 net.cpp:141] Setting up inception_4c/relu_5x5
I0403 15:17:46.910264 31423 net.cpp:148] Top shape: 24 64 14 14 (301056)
I0403 15:17:46.910286 31423 net.cpp:156] Memory required for data: 1050971424
I0403 15:17:46.910310 31423 layer_factory.hpp:77] Creating layer inception_4c/pool
I0403 15:17:46.910336 31423 net.cpp:91] Creating Layer inception_4c/pool
I0403 15:17:46.910356 31423 net.cpp:425] inception_4c/pool <- inception_4b/output_inception_4b/output_0_split_3
I0403 15:17:46.910374 31423 net.cpp:399] inception_4c/pool -> inception_4c/pool
I0403 15:17:46.910444 31423 net.cpp:141] Setting up inception_4c/pool
I0403 15:17:46.910472 31423 net.cpp:148] Top shape: 24 512 14 14 (2408448)
I0403 15:17:46.910495 31423 net.cpp:156] Memory required for data: 1060605216
I0403 15:17:46.910516 31423 layer_factory.hpp:77] Creating layer inception_4c/pool_proj
I0403 15:17:46.910548 31423 net.cpp:91] Creating Layer inception_4c/pool_proj
I0403 15:17:46.910576 31423 net.cpp:425] inception_4c/pool_proj <- inception_4c/pool
I0403 15:17:46.910603 31423 net.cpp:399] inception_4c/pool_proj -> inception_4c/pool_proj
I0403 15:17:46.911814 31423 net.cpp:141] Setting up inception_4c/pool_proj
I0403 15:17:46.911849 31423 net.cpp:148] Top shape: 24 64 14 14 (301056)
I0403 15:17:46.911882 31423 net.cpp:156] Memory required for data: 1061809440
I0403 15:17:46.911911 31423 layer_factory.hpp:77] Creating layer inception_4c/relu_pool_proj
I0403 15:17:46.911933 31423 net.cpp:91] Creating Layer inception_4c/relu_pool_proj
I0403 15:17:46.911954 31423 net.cpp:425] inception_4c/relu_pool_proj <- inception_4c/pool_proj
I0403 15:17:46.911978 31423 net.cpp:386] inception_4c/relu_pool_proj -> inception_4c/pool_proj (in-place)
I0403 15:17:46.912164 31423 net.cpp:141] Setting up inception_4c/relu_pool_proj
I0403 15:17:46.912192 31423 net.cpp:148] Top shape: 24 64 14 14 (301056)
I0403 15:17:46.912207 31423 net.cpp:156] Memory required for data: 1063013664
I0403 15:17:46.912221 31423 layer_factory.hpp:77] Creating layer inception_4c/output
I0403 15:17:46.912246 31423 net.cpp:91] Creating Layer inception_4c/output
I0403 15:17:46.912271 31423 net.cpp:425] inception_4c/output <- inception_4c/1x1
I0403 15:17:46.912292 31423 net.cpp:425] inception_4c/output <- inception_4c/3x3
I0403 15:17:46.912312 31423 net.cpp:425] inception_4c/output <- inception_4c/5x5
I0403 15:17:46.912333 31423 net.cpp:425] inception_4c/output <- inception_4c/pool_proj
I0403 15:17:46.912358 31423 net.cpp:399] inception_4c/output -> inception_4c/output
I0403 15:17:46.912407 31423 net.cpp:141] Setting up inception_4c/output
I0403 15:17:46.912436 31423 net.cpp:148] Top shape: 24 512 14 14 (2408448)
I0403 15:17:46.912452 31423 net.cpp:156] Memory required for data: 1072647456
I0403 15:17:46.912472 31423 layer_factory.hpp:77] Creating layer inception_4c/output_inception_4c/output_0_split
I0403 15:17:46.912497 31423 net.cpp:91] Creating Layer inception_4c/output_inception_4c/output_0_split
I0403 15:17:46.912518 31423 net.cpp:425] inception_4c/output_inception_4c/output_0_split <- inception_4c/output
I0403 15:17:46.912547 31423 net.cpp:399] inception_4c/output_inception_4c/output_0_split -> inception_4c/output_inception_4c/output_0_split_0
I0403 15:17:46.912577 31423 net.cpp:399] inception_4c/output_inception_4c/output_0_split -> inception_4c/output_inception_4c/output_0_split_1
I0403 15:17:46.912603 31423 net.cpp:399] inception_4c/output_inception_4c/output_0_split -> inception_4c/output_inception_4c/output_0_split_2
I0403 15:17:46.912632 31423 net.cpp:399] inception_4c/output_inception_4c/output_0_split -> inception_4c/output_inception_4c/output_0_split_3
I0403 15:17:46.912720 31423 net.cpp:141] Setting up inception_4c/output_inception_4c/output_0_split
I0403 15:17:46.912747 31423 net.cpp:148] Top shape: 24 512 14 14 (2408448)
I0403 15:17:46.938652 31423 net.cpp:148] Top shape: 24 512 14 14 (2408448)
I0403 15:17:46.938724 31423 net.cpp:148] Top shape: 24 512 14 14 (2408448)
I0403 15:17:46.938745 31423 net.cpp:148] Top shape: 24 512 14 14 (2408448)
I0403 15:17:46.938761 31423 net.cpp:156] Memory required for data: 1111182624
I0403 15:17:46.938776 31423 layer_factory.hpp:77] Creating layer inception_4d/1x1
I0403 15:17:46.938814 31423 net.cpp:91] Creating Layer inception_4d/1x1
I0403 15:17:46.938840 31423 net.cpp:425] inception_4d/1x1 <- inception_4c/output_inception_4c/output_0_split_0
I0403 15:17:46.938860 31423 net.cpp:399] inception_4d/1x1 -> inception_4d/1x1
I0403 15:17:46.940362 31423 net.cpp:141] Setting up inception_4d/1x1
I0403 15:17:46.940399 31423 net.cpp:148] Top shape: 24 112 14 14 (526848)
I0403 15:17:46.940423 31423 net.cpp:156] Memory required for data: 1113290016
I0403 15:17:46.940443 31423 layer_factory.hpp:77] Creating layer inception_4d/relu_1x1
I0403 15:17:46.940461 31423 net.cpp:91] Creating Layer inception_4d/relu_1x1
I0403 15:17:46.940482 31423 net.cpp:425] inception_4d/relu_1x1 <- inception_4d/1x1
I0403 15:17:46.940500 31423 net.cpp:386] inception_4d/relu_1x1 -> inception_4d/1x1 (in-place)
I0403 15:17:46.940706 31423 net.cpp:141] Setting up inception_4d/relu_1x1
I0403 15:17:46.940737 31423 net.cpp:148] Top shape: 24 112 14 14 (526848)
I0403 15:17:46.940752 31423 net.cpp:156] Memory required for data: 1115397408
I0403 15:17:46.940785 31423 layer_factory.hpp:77] Creating layer inception_4d/3x3_reduce
I0403 15:17:46.940846 31423 net.cpp:91] Creating Layer inception_4d/3x3_reduce
I0403 15:17:46.940873 31423 net.cpp:425] inception_4d/3x3_reduce <- inception_4c/output_inception_4c/output_0_split_1
I0403 15:17:46.940897 31423 net.cpp:399] inception_4d/3x3_reduce -> inception_4d/3x3_reduce
I0403 15:17:46.942430 31423 net.cpp:141] Setting up inception_4d/3x3_reduce
I0403 15:17:46.942466 31423 net.cpp:148] Top shape: 24 144 14 14 (677376)
I0403 15:17:46.942487 31423 net.cpp:156] Memory required for data: 1118106912
I0403 15:17:46.942512 31423 layer_factory.hpp:77] Creating layer inception_4d/relu_3x3_reduce
I0403 15:17:46.942543 31423 net.cpp:91] Creating Layer inception_4d/relu_3x3_reduce
I0403 15:17:46.942569 31423 net.cpp:425] inception_4d/relu_3x3_reduce <- inception_4d/3x3_reduce
I0403 15:17:46.942591 31423 net.cpp:386] inception_4d/relu_3x3_reduce -> inception_4d/3x3_reduce (in-place)
I0403 15:17:46.942901 31423 net.cpp:141] Setting up inception_4d/relu_3x3_reduce
I0403 15:17:46.942932 31423 net.cpp:148] Top shape: 24 144 14 14 (677376)
I0403 15:17:46.942957 31423 net.cpp:156] Memory required for data: 1120816416
I0403 15:17:46.942980 31423 layer_factory.hpp:77] Creating layer inception_4d/3x3
I0403 15:17:46.943016 31423 net.cpp:91] Creating Layer inception_4d/3x3
I0403 15:17:46.943038 31423 net.cpp:425] inception_4d/3x3 <- inception_4d/3x3_reduce
I0403 15:17:46.943065 31423 net.cpp:399] inception_4d/3x3 -> inception_4d/3x3
I0403 15:17:46.947371 31423 net.cpp:141] Setting up inception_4d/3x3
I0403 15:17:46.947405 31423 net.cpp:148] Top shape: 24 288 14 14 (1354752)
I0403 15:17:46.947427 31423 net.cpp:156] Memory required for data: 1126235424
I0403 15:17:46.947450 31423 layer_factory.hpp:77] Creating layer inception_4d/relu_3x3
I0403 15:17:46.947476 31423 net.cpp:91] Creating Layer inception_4d/relu_3x3
I0403 15:17:46.947495 31423 net.cpp:425] inception_4d/relu_3x3 <- inception_4d/3x3
I0403 15:17:46.947530 31423 net.cpp:386] inception_4d/relu_3x3 -> inception_4d/3x3 (in-place)
I0403 15:17:46.947722 31423 net.cpp:141] Setting up inception_4d/relu_3x3
I0403 15:17:46.947752 31423 net.cpp:148] Top shape: 24 288 14 14 (1354752)
I0403 15:17:46.947772 31423 net.cpp:156] Memory required for data: 1131654432
I0403 15:17:46.947789 31423 layer_factory.hpp:77] Creating layer inception_4d/5x5_reduce
I0403 15:17:46.947818 31423 net.cpp:91] Creating Layer inception_4d/5x5_reduce
I0403 15:17:46.947835 31423 net.cpp:425] inception_4d/5x5_reduce <- inception_4c/output_inception_4c/output_0_split_2
I0403 15:17:46.947859 31423 net.cpp:399] inception_4d/5x5_reduce -> inception_4d/5x5_reduce
I0403 15:17:46.949007 31423 net.cpp:141] Setting up inception_4d/5x5_reduce
I0403 15:17:46.949040 31423 net.cpp:148] Top shape: 24 32 14 14 (150528)
I0403 15:17:46.949065 31423 net.cpp:156] Memory required for data: 1132256544
I0403 15:17:46.949090 31423 layer_factory.hpp:77] Creating layer inception_4d/relu_5x5_reduce
I0403 15:17:46.949110 31423 net.cpp:91] Creating Layer inception_4d/relu_5x5_reduce
I0403 15:17:46.949126 31423 net.cpp:425] inception_4d/relu_5x5_reduce <- inception_4d/5x5_reduce
I0403 15:17:46.949146 31423 net.cpp:386] inception_4d/relu_5x5_reduce -> inception_4d/5x5_reduce (in-place)
I0403 15:17:46.949342 31423 net.cpp:141] Setting up inception_4d/relu_5x5_reduce
I0403 15:17:46.949372 31423 net.cpp:148] Top shape: 24 32 14 14 (150528)
I0403 15:17:46.949389 31423 net.cpp:156] Memory required for data: 1132858656
I0403 15:17:46.949406 31423 layer_factory.hpp:77] Creating layer inception_4d/5x5
I0403 15:17:46.949431 31423 net.cpp:91] Creating Layer inception_4d/5x5
I0403 15:17:46.949456 31423 net.cpp:425] inception_4d/5x5 <- inception_4d/5x5_reduce
I0403 15:17:46.949483 31423 net.cpp:399] inception_4d/5x5 -> inception_4d/5x5
I0403 15:17:46.950958 31423 net.cpp:141] Setting up inception_4d/5x5
I0403 15:17:46.950992 31423 net.cpp:148] Top shape: 24 64 14 14 (301056)
I0403 15:17:46.951011 31423 net.cpp:156] Memory required for data: 1134062880
I0403 15:17:46.951036 31423 layer_factory.hpp:77] Creating layer inception_4d/relu_5x5
I0403 15:17:46.951079 31423 net.cpp:91] Creating Layer inception_4d/relu_5x5
I0403 15:17:46.951102 31423 net.cpp:425] inception_4d/relu_5x5 <- inception_4d/5x5
I0403 15:17:46.951128 31423 net.cpp:386] inception_4d/relu_5x5 -> inception_4d/5x5 (in-place)
I0403 15:17:46.951434 31423 net.cpp:141] Setting up inception_4d/relu_5x5
I0403 15:17:46.951469 31423 net.cpp:148] Top shape: 24 64 14 14 (301056)
I0403 15:17:46.951493 31423 net.cpp:156] Memory required for data: 1135267104
I0403 15:17:46.951513 31423 layer_factory.hpp:77] Creating layer inception_4d/pool
I0403 15:17:46.951530 31423 net.cpp:91] Creating Layer inception_4d/pool
I0403 15:17:46.951558 31423 net.cpp:425] inception_4d/pool <- inception_4c/output_inception_4c/output_0_split_3
I0403 15:17:46.951586 31423 net.cpp:399] inception_4d/pool -> inception_4d/pool
I0403 15:17:46.951658 31423 net.cpp:141] Setting up inception_4d/pool
I0403 15:17:46.951690 31423 net.cpp:148] Top shape: 24 512 14 14 (2408448)
I0403 15:17:46.951725 31423 net.cpp:156] Memory required for data: 1144900896
I0403 15:17:46.951745 31423 layer_factory.hpp:77] Creating layer inception_4d/pool_proj
I0403 15:17:46.951792 31423 net.cpp:91] Creating Layer inception_4d/pool_proj
I0403 15:17:46.951812 31423 net.cpp:425] inception_4d/pool_proj <- inception_4d/pool
I0403 15:17:46.951850 31423 net.cpp:399] inception_4d/pool_proj -> inception_4d/pool_proj
I0403 15:17:46.953697 31423 net.cpp:141] Setting up inception_4d/pool_proj
I0403 15:17:46.953737 31423 net.cpp:148] Top shape: 24 64 14 14 (301056)
I0403 15:17:46.953760 31423 net.cpp:156] Memory required for data: 1146105120
I0403 15:17:46.953783 31423 layer_factory.hpp:77] Creating layer inception_4d/relu_pool_proj
I0403 15:17:46.953807 31423 net.cpp:91] Creating Layer inception_4d/relu_pool_proj
I0403 15:17:46.953830 31423 net.cpp:425] inception_4d/relu_pool_proj <- inception_4d/pool_proj
I0403 15:17:46.953856 31423 net.cpp:386] inception_4d/relu_pool_proj -> inception_4d/pool_proj (in-place)
I0403 15:17:46.954047 31423 net.cpp:141] Setting up inception_4d/relu_pool_proj
I0403 15:17:46.954077 31423 net.cpp:148] Top shape: 24 64 14 14 (301056)
I0403 15:17:46.954097 31423 net.cpp:156] Memory required for data: 1147309344
I0403 15:17:46.954118 31423 layer_factory.hpp:77] Creating layer inception_4d/output
I0403 15:17:46.954141 31423 net.cpp:91] Creating Layer inception_4d/output
I0403 15:17:46.954161 31423 net.cpp:425] inception_4d/output <- inception_4d/1x1
I0403 15:17:46.954181 31423 net.cpp:425] inception_4d/output <- inception_4d/3x3
I0403 15:17:46.954200 31423 net.cpp:425] inception_4d/output <- inception_4d/5x5
I0403 15:17:46.954216 31423 net.cpp:425] inception_4d/output <- inception_4d/pool_proj
I0403 15:17:46.954236 31423 net.cpp:399] inception_4d/output -> inception_4d/output
I0403 15:17:46.954290 31423 net.cpp:141] Setting up inception_4d/output
I0403 15:17:46.954316 31423 net.cpp:148] Top shape: 24 528 14 14 (2483712)
I0403 15:17:46.954339 31423 net.cpp:156] Memory required for data: 1157244192
I0403 15:17:46.954360 31423 layer_factory.hpp:77] Creating layer inception_4d/output_inception_4d/output_0_split
I0403 15:17:46.954385 31423 net.cpp:91] Creating Layer inception_4d/output_inception_4d/output_0_split
I0403 15:17:46.954402 31423 net.cpp:425] inception_4d/output_inception_4d/output_0_split <- inception_4d/output
I0403 15:17:46.954421 31423 net.cpp:399] inception_4d/output_inception_4d/output_0_split -> inception_4d/output_inception_4d/output_0_split_0
I0403 15:17:46.954442 31423 net.cpp:399] inception_4d/output_inception_4d/output_0_split -> inception_4d/output_inception_4d/output_0_split_1
I0403 15:17:46.954462 31423 net.cpp:399] inception_4d/output_inception_4d/output_0_split -> inception_4d/output_inception_4d/output_0_split_2
I0403 15:17:46.954481 31423 net.cpp:399] inception_4d/output_inception_4d/output_0_split -> inception_4d/output_inception_4d/output_0_split_3
I0403 15:17:46.954501 31423 net.cpp:399] inception_4d/output_inception_4d/output_0_split -> inception_4d/output_inception_4d/output_0_split_4
I0403 15:17:46.954617 31423 net.cpp:141] Setting up inception_4d/output_inception_4d/output_0_split
I0403 15:17:46.954654 31423 net.cpp:148] Top shape: 24 528 14 14 (2483712)
I0403 15:17:46.954671 31423 net.cpp:148] Top shape: 24 528 14 14 (2483712)
I0403 15:17:46.954687 31423 net.cpp:148] Top shape: 24 528 14 14 (2483712)
I0403 15:17:46.954702 31423 net.cpp:148] Top shape: 24 528 14 14 (2483712)
I0403 15:17:46.954717 31423 net.cpp:148] Top shape: 24 528 14 14 (2483712)
I0403 15:17:46.954731 31423 net.cpp:156] Memory required for data: 1206918432
I0403 15:17:46.954746 31423 layer_factory.hpp:77] Creating layer loss2/ave_pool
I0403 15:17:46.954763 31423 net.cpp:91] Creating Layer loss2/ave_pool
I0403 15:17:46.954778 31423 net.cpp:425] loss2/ave_pool <- inception_4d/output_inception_4d/output_0_split_0
I0403 15:17:46.954797 31423 net.cpp:399] loss2/ave_pool -> loss2/ave_pool
I0403 15:17:46.955112 31423 net.cpp:141] Setting up loss2/ave_pool
I0403 15:17:46.955144 31423 net.cpp:148] Top shape: 24 528 4 4 (202752)
I0403 15:17:46.955168 31423 net.cpp:156] Memory required for data: 1207729440
I0403 15:17:46.955193 31423 layer_factory.hpp:77] Creating layer loss2/conv
I0403 15:17:46.955224 31423 net.cpp:91] Creating Layer loss2/conv
I0403 15:17:46.955245 31423 net.cpp:425] loss2/conv <- loss2/ave_pool
I0403 15:17:46.955265 31423 net.cpp:399] loss2/conv -> loss2/conv
I0403 15:17:46.957165 31423 net.cpp:141] Setting up loss2/conv
I0403 15:17:46.957201 31423 net.cpp:148] Top shape: 24 128 4 4 (49152)
I0403 15:17:46.957216 31423 net.cpp:156] Memory required for data: 1207926048
I0403 15:17:46.957240 31423 layer_factory.hpp:77] Creating layer loss2/relu_conv
I0403 15:17:46.957262 31423 net.cpp:91] Creating Layer loss2/relu_conv
I0403 15:17:46.957278 31423 net.cpp:425] loss2/relu_conv <- loss2/conv
I0403 15:17:46.957294 31423 net.cpp:386] loss2/relu_conv -> loss2/conv (in-place)
I0403 15:17:46.957588 31423 net.cpp:141] Setting up loss2/relu_conv
I0403 15:17:46.957620 31423 net.cpp:148] Top shape: 24 128 4 4 (49152)
I0403 15:17:46.957638 31423 net.cpp:156] Memory required for data: 1208122656
I0403 15:17:46.957660 31423 layer_factory.hpp:77] Creating layer loss2/fc
I0403 15:17:46.957690 31423 net.cpp:91] Creating Layer loss2/fc
I0403 15:17:46.957711 31423 net.cpp:425] loss2/fc <- loss2/conv
I0403 15:17:46.957738 31423 net.cpp:399] loss2/fc -> loss2/fc
I0403 15:17:46.975442 31423 net.cpp:141] Setting up loss2/fc
I0403 15:17:46.980754 31423 net.cpp:148] Top shape: 24 1024 (24576)
I0403 15:17:46.980782 31423 net.cpp:156] Memory required for data: 1208220960
I0403 15:17:46.980805 31423 layer_factory.hpp:77] Creating layer loss2/relu_fc
I0403 15:17:46.980831 31423 net.cpp:91] Creating Layer loss2/relu_fc
I0403 15:17:46.980854 31423 net.cpp:425] loss2/relu_fc <- loss2/fc
I0403 15:17:46.980882 31423 net.cpp:386] loss2/relu_fc -> loss2/fc (in-place)
I0403 15:17:46.981194 31423 net.cpp:141] Setting up loss2/relu_fc
I0403 15:17:46.981225 31423 net.cpp:148] Top shape: 24 1024 (24576)
I0403 15:17:46.981240 31423 net.cpp:156] Memory required for data: 1208319264
I0403 15:17:46.981257 31423 layer_factory.hpp:77] Creating layer loss2/drop_fc
I0403 15:17:46.981279 31423 net.cpp:91] Creating Layer loss2/drop_fc
I0403 15:17:46.981302 31423 net.cpp:425] loss2/drop_fc <- loss2/fc
I0403 15:17:46.981323 31423 net.cpp:386] loss2/drop_fc -> loss2/fc (in-place)
I0403 15:17:46.981377 31423 net.cpp:141] Setting up loss2/drop_fc
I0403 15:17:46.981405 31423 net.cpp:148] Top shape: 24 1024 (24576)
I0403 15:17:46.981425 31423 net.cpp:156] Memory required for data: 1208417568
I0403 15:17:46.981447 31423 layer_factory.hpp:77] Creating layer loss2/classifier_plantvillage
I0403 15:17:46.981470 31423 net.cpp:91] Creating Layer loss2/classifier_plantvillage
I0403 15:17:46.981493 31423 net.cpp:425] loss2/classifier_plantvillage <- loss2/fc
I0403 15:17:46.981520 31423 net.cpp:399] loss2/classifier_plantvillage -> loss2/classifier_plantvillage
I0403 15:17:46.981936 31423 net.cpp:141] Setting up loss2/classifier_plantvillage
I0403 15:17:46.981964 31423 net.cpp:148] Top shape: 24 38 (912)
I0403 15:17:46.982000 31423 net.cpp:156] Memory required for data: 1208421216
I0403 15:17:46.982026 31423 layer_factory.hpp:77] Creating layer loss2/classifier_plantvillage_loss2/classifier_plantvillage_0_split
I0403 15:17:46.982045 31423 net.cpp:91] Creating Layer loss2/classifier_plantvillage_loss2/classifier_plantvillage_0_split
I0403 15:17:46.982069 31423 net.cpp:425] loss2/classifier_plantvillage_loss2/classifier_plantvillage_0_split <- loss2/classifier_plantvillage
I0403 15:17:46.982091 31423 net.cpp:399] loss2/classifier_plantvillage_loss2/classifier_plantvillage_0_split -> loss2/classifier_plantvillage_loss2/classifier_plantvillage_0_split_0
I0403 15:17:46.982118 31423 net.cpp:399] loss2/classifier_plantvillage_loss2/classifier_plantvillage_0_split -> loss2/classifier_plantvillage_loss2/classifier_plantvillage_0_split_1
I0403 15:17:46.982146 31423 net.cpp:399] loss2/classifier_plantvillage_loss2/classifier_plantvillage_0_split -> loss2/classifier_plantvillage_loss2/classifier_plantvillage_0_split_2
I0403 15:17:46.982235 31423 net.cpp:141] Setting up loss2/classifier_plantvillage_loss2/classifier_plantvillage_0_split
I0403 15:17:46.982267 31423 net.cpp:148] Top shape: 24 38 (912)
I0403 15:17:46.982287 31423 net.cpp:148] Top shape: 24 38 (912)
I0403 15:17:46.982313 31423 net.cpp:148] Top shape: 24 38 (912)
I0403 15:17:46.982331 31423 net.cpp:156] Memory required for data: 1208432160
I0403 15:17:46.982347 31423 layer_factory.hpp:77] Creating layer inception_4e/1x1
I0403 15:17:46.982372 31423 net.cpp:91] Creating Layer inception_4e/1x1
I0403 15:17:46.982396 31423 net.cpp:425] inception_4e/1x1 <- inception_4d/output_inception_4d/output_0_split_1
I0403 15:17:46.982419 31423 net.cpp:399] inception_4e/1x1 -> inception_4e/1x1
I0403 15:17:46.984352 31423 net.cpp:141] Setting up inception_4e/1x1
I0403 15:17:46.984382 31423 net.cpp:148] Top shape: 24 256 14 14 (1204224)
I0403 15:17:46.984397 31423 net.cpp:156] Memory required for data: 1213249056
I0403 15:17:46.984421 31423 layer_factory.hpp:77] Creating layer inception_4e/relu_1x1
I0403 15:17:46.984441 31423 net.cpp:91] Creating Layer inception_4e/relu_1x1
I0403 15:17:46.984457 31423 net.cpp:425] inception_4e/relu_1x1 <- inception_4e/1x1
I0403 15:17:46.984475 31423 net.cpp:386] inception_4e/relu_1x1 -> inception_4e/1x1 (in-place)
I0403 15:17:46.984787 31423 net.cpp:141] Setting up inception_4e/relu_1x1
I0403 15:17:46.984814 31423 net.cpp:148] Top shape: 24 256 14 14 (1204224)
I0403 15:17:46.984829 31423 net.cpp:156] Memory required for data: 1218065952
I0403 15:17:46.984844 31423 layer_factory.hpp:77] Creating layer inception_4e/3x3_reduce
I0403 15:17:46.984868 31423 net.cpp:91] Creating Layer inception_4e/3x3_reduce
I0403 15:17:46.984886 31423 net.cpp:425] inception_4e/3x3_reduce <- inception_4d/output_inception_4d/output_0_split_2
I0403 15:17:46.984907 31423 net.cpp:399] inception_4e/3x3_reduce -> inception_4e/3x3_reduce
I0403 15:17:46.987118 31423 net.cpp:141] Setting up inception_4e/3x3_reduce
I0403 15:17:46.987149 31423 net.cpp:148] Top shape: 24 160 14 14 (752640)
I0403 15:17:46.987165 31423 net.cpp:156] Memory required for data: 1221076512
I0403 15:17:46.987185 31423 layer_factory.hpp:77] Creating layer inception_4e/relu_3x3_reduce
I0403 15:17:46.987202 31423 net.cpp:91] Creating Layer inception_4e/relu_3x3_reduce
I0403 15:17:46.987220 31423 net.cpp:425] inception_4e/relu_3x3_reduce <- inception_4e/3x3_reduce
I0403 15:17:46.987239 31423 net.cpp:386] inception_4e/relu_3x3_reduce -> inception_4e/3x3_reduce (in-place)
I0403 15:17:46.987433 31423 net.cpp:141] Setting up inception_4e/relu_3x3_reduce
I0403 15:17:46.987459 31423 net.cpp:148] Top shape: 24 160 14 14 (752640)
I0403 15:17:46.987473 31423 net.cpp:156] Memory required for data: 1224087072
I0403 15:17:46.987489 31423 layer_factory.hpp:77] Creating layer inception_4e/3x3
I0403 15:17:46.987512 31423 net.cpp:91] Creating Layer inception_4e/3x3
I0403 15:17:46.987529 31423 net.cpp:425] inception_4e/3x3 <- inception_4e/3x3_reduce
I0403 15:17:46.987555 31423 net.cpp:399] inception_4e/3x3 -> inception_4e/3x3
I0403 15:17:46.992804 31423 net.cpp:141] Setting up inception_4e/3x3
I0403 15:17:46.992848 31423 net.cpp:148] Top shape: 24 320 14 14 (1505280)
I0403 15:17:46.992866 31423 net.cpp:156] Memory required for data: 1230108192
I0403 15:17:46.992884 31423 layer_factory.hpp:77] Creating layer inception_4e/relu_3x3
I0403 15:17:46.992905 31423 net.cpp:91] Creating Layer inception_4e/relu_3x3
I0403 15:17:46.992923 31423 net.cpp:425] inception_4e/relu_3x3 <- inception_4e/3x3
I0403 15:17:46.992941 31423 net.cpp:386] inception_4e/relu_3x3 -> inception_4e/3x3 (in-place)
I0403 15:17:46.993365 31423 net.cpp:141] Setting up inception_4e/relu_3x3
I0403 15:17:46.993396 31423 net.cpp:148] Top shape: 24 320 14 14 (1505280)
I0403 15:17:46.993410 31423 net.cpp:156] Memory required for data: 1236129312
I0403 15:17:46.993427 31423 layer_factory.hpp:77] Creating layer inception_4e/5x5_reduce
I0403 15:17:46.993453 31423 net.cpp:91] Creating Layer inception_4e/5x5_reduce
I0403 15:17:46.993470 31423 net.cpp:425] inception_4e/5x5_reduce <- inception_4d/output_inception_4d/output_0_split_3
I0403 15:17:46.993490 31423 net.cpp:399] inception_4e/5x5_reduce -> inception_4e/5x5_reduce
I0403 15:17:46.994619 31423 net.cpp:141] Setting up inception_4e/5x5_reduce
I0403 15:17:46.994647 31423 net.cpp:148] Top shape: 24 32 14 14 (150528)
I0403 15:17:46.994663 31423 net.cpp:156] Memory required for data: 1236731424
I0403 15:17:46.994683 31423 layer_factory.hpp:77] Creating layer inception_4e/relu_5x5_reduce
I0403 15:17:46.994704 31423 net.cpp:91] Creating Layer inception_4e/relu_5x5_reduce
I0403 15:17:46.994721 31423 net.cpp:425] inception_4e/relu_5x5_reduce <- inception_4e/5x5_reduce
I0403 15:17:46.994740 31423 net.cpp:386] inception_4e/relu_5x5_reduce -> inception_4e/5x5_reduce (in-place)
I0403 15:17:46.995048 31423 net.cpp:141] Setting up inception_4e/relu_5x5_reduce
I0403 15:17:46.995075 31423 net.cpp:148] Top shape: 24 32 14 14 (150528)
I0403 15:17:46.995090 31423 net.cpp:156] Memory required for data: 1237333536
I0403 15:17:46.995105 31423 layer_factory.hpp:77] Creating layer inception_4e/5x5
I0403 15:17:46.995146 31423 net.cpp:91] Creating Layer inception_4e/5x5
I0403 15:17:46.995164 31423 net.cpp:425] inception_4e/5x5 <- inception_4e/5x5_reduce
I0403 15:17:46.995184 31423 net.cpp:399] inception_4e/5x5 -> inception_4e/5x5
I0403 15:17:46.997090 31423 net.cpp:141] Setting up inception_4e/5x5
I0403 15:17:46.997122 31423 net.cpp:148] Top shape: 24 128 14 14 (602112)
I0403 15:17:46.997138 31423 net.cpp:156] Memory required for data: 1239741984
I0403 15:17:46.997158 31423 layer_factory.hpp:77] Creating layer inception_4e/relu_5x5
I0403 15:17:46.997175 31423 net.cpp:91] Creating Layer inception_4e/relu_5x5
I0403 15:17:46.997192 31423 net.cpp:425] inception_4e/relu_5x5 <- inception_4e/5x5
I0403 15:17:46.997211 31423 net.cpp:386] inception_4e/relu_5x5 -> inception_4e/5x5 (in-place)
I0403 15:17:46.997417 31423 net.cpp:141] Setting up inception_4e/relu_5x5
I0403 15:17:46.997442 31423 net.cpp:148] Top shape: 24 128 14 14 (602112)
I0403 15:17:46.997457 31423 net.cpp:156] Memory required for data: 1242150432
I0403 15:17:46.997473 31423 layer_factory.hpp:77] Creating layer inception_4e/pool
I0403 15:17:46.997491 31423 net.cpp:91] Creating Layer inception_4e/pool
I0403 15:17:46.997506 31423 net.cpp:425] inception_4e/pool <- inception_4d/output_inception_4d/output_0_split_4
I0403 15:17:46.997526 31423 net.cpp:399] inception_4e/pool -> inception_4e/pool
I0403 15:17:46.997604 31423 net.cpp:141] Setting up inception_4e/pool
I0403 15:17:46.997629 31423 net.cpp:148] Top shape: 24 528 14 14 (2483712)
I0403 15:17:46.997645 31423 net.cpp:156] Memory required for data: 1252085280
I0403 15:17:46.997660 31423 layer_factory.hpp:77] Creating layer inception_4e/pool_proj
I0403 15:17:46.997694 31423 net.cpp:91] Creating Layer inception_4e/pool_proj
I0403 15:17:46.997711 31423 net.cpp:425] inception_4e/pool_proj <- inception_4e/pool
I0403 15:17:46.997732 31423 net.cpp:399] inception_4e/pool_proj -> inception_4e/pool_proj
I0403 15:17:46.999296 31423 net.cpp:141] Setting up inception_4e/pool_proj
I0403 15:17:46.999341 31423 net.cpp:148] Top shape: 24 128 14 14 (602112)
I0403 15:17:46.999359 31423 net.cpp:156] Memory required for data: 1254493728
I0403 15:17:46.999378 31423 layer_factory.hpp:77] Creating layer inception_4e/relu_pool_proj
I0403 15:17:46.999397 31423 net.cpp:91] Creating Layer inception_4e/relu_pool_proj
I0403 15:17:46.999414 31423 net.cpp:425] inception_4e/relu_pool_proj <- inception_4e/pool_proj
I0403 15:17:46.999434 31423 net.cpp:386] inception_4e/relu_pool_proj -> inception_4e/pool_proj (in-place)
I0403 15:17:46.999889 31423 net.cpp:141] Setting up inception_4e/relu_pool_proj
I0403 15:17:46.999918 31423 net.cpp:148] Top shape: 24 128 14 14 (602112)
I0403 15:17:46.999935 31423 net.cpp:156] Memory required for data: 1256902176
I0403 15:17:46.999950 31423 layer_factory.hpp:77] Creating layer inception_4e/output
I0403 15:17:46.999969 31423 net.cpp:91] Creating Layer inception_4e/output
I0403 15:17:46.999984 31423 net.cpp:425] inception_4e/output <- inception_4e/1x1
I0403 15:17:47.000001 31423 net.cpp:425] inception_4e/output <- inception_4e/3x3
I0403 15:17:47.000018 31423 net.cpp:425] inception_4e/output <- inception_4e/5x5
I0403 15:17:47.000035 31423 net.cpp:425] inception_4e/output <- inception_4e/pool_proj
I0403 15:17:47.000054 31423 net.cpp:399] inception_4e/output -> inception_4e/output
I0403 15:17:47.000107 31423 net.cpp:141] Setting up inception_4e/output
I0403 15:17:47.000130 31423 net.cpp:148] Top shape: 24 832 14 14 (3913728)
I0403 15:17:47.000145 31423 net.cpp:156] Memory required for data: 1272557088
I0403 15:17:47.000160 31423 layer_factory.hpp:77] Creating layer pool4/3x3_s2
I0403 15:17:47.000180 31423 net.cpp:91] Creating Layer pool4/3x3_s2
I0403 15:17:47.000196 31423 net.cpp:425] pool4/3x3_s2 <- inception_4e/output
I0403 15:17:47.000216 31423 net.cpp:399] pool4/3x3_s2 -> pool4/3x3_s2
I0403 15:17:47.000285 31423 net.cpp:141] Setting up pool4/3x3_s2
I0403 15:17:47.000313 31423 net.cpp:148] Top shape: 24 832 7 7 (978432)
I0403 15:17:47.000327 31423 net.cpp:156] Memory required for data: 1276470816
I0403 15:17:47.000342 31423 layer_factory.hpp:77] Creating layer pool4/3x3_s2_pool4/3x3_s2_0_split
I0403 15:17:47.000360 31423 net.cpp:91] Creating Layer pool4/3x3_s2_pool4/3x3_s2_0_split
I0403 15:17:47.000375 31423 net.cpp:425] pool4/3x3_s2_pool4/3x3_s2_0_split <- pool4/3x3_s2
I0403 15:17:47.000396 31423 net.cpp:399] pool4/3x3_s2_pool4/3x3_s2_0_split -> pool4/3x3_s2_pool4/3x3_s2_0_split_0
I0403 15:17:47.000416 31423 net.cpp:399] pool4/3x3_s2_pool4/3x3_s2_0_split -> pool4/3x3_s2_pool4/3x3_s2_0_split_1
I0403 15:17:47.000435 31423 net.cpp:399] pool4/3x3_s2_pool4/3x3_s2_0_split -> pool4/3x3_s2_pool4/3x3_s2_0_split_2
I0403 15:17:47.000457 31423 net.cpp:399] pool4/3x3_s2_pool4/3x3_s2_0_split -> pool4/3x3_s2_pool4/3x3_s2_0_split_3
I0403 15:17:47.000558 31423 net.cpp:141] Setting up pool4/3x3_s2_pool4/3x3_s2_0_split
I0403 15:17:47.000582 31423 net.cpp:148] Top shape: 24 832 7 7 (978432)
I0403 15:17:47.000599 31423 net.cpp:148] Top shape: 24 832 7 7 (978432)
I0403 15:17:47.000615 31423 net.cpp:148] Top shape: 24 832 7 7 (978432)
I0403 15:17:47.000630 31423 net.cpp:148] Top shape: 24 832 7 7 (978432)
I0403 15:17:47.000644 31423 net.cpp:156] Memory required for data: 1292125728
I0403 15:17:47.000659 31423 layer_factory.hpp:77] Creating layer inception_5a/1x1
I0403 15:17:47.000682 31423 net.cpp:91] Creating Layer inception_5a/1x1
I0403 15:17:47.000700 31423 net.cpp:425] inception_5a/1x1 <- pool4/3x3_s2_pool4/3x3_s2_0_split_0
I0403 15:17:47.000722 31423 net.cpp:399] inception_5a/1x1 -> inception_5a/1x1
I0403 15:17:47.003684 31423 net.cpp:141] Setting up inception_5a/1x1
I0403 15:17:47.003713 31423 net.cpp:148] Top shape: 24 256 7 7 (301056)
I0403 15:17:47.003729 31423 net.cpp:156] Memory required for data: 1293329952
I0403 15:17:47.003748 31423 layer_factory.hpp:77] Creating layer inception_5a/relu_1x1
I0403 15:17:47.003767 31423 net.cpp:91] Creating Layer inception_5a/relu_1x1
I0403 15:17:47.003782 31423 net.cpp:425] inception_5a/relu_1x1 <- inception_5a/1x1
I0403 15:17:47.003803 31423 net.cpp:386] inception_5a/relu_1x1 -> inception_5a/1x1 (in-place)
I0403 15:17:47.004124 31423 net.cpp:141] Setting up inception_5a/relu_1x1
I0403 15:17:47.004151 31423 net.cpp:148] Top shape: 24 256 7 7 (301056)
I0403 15:17:47.004168 31423 net.cpp:156] Memory required for data: 1294534176
I0403 15:17:47.004182 31423 layer_factory.hpp:77] Creating layer inception_5a/3x3_reduce
I0403 15:17:47.004205 31423 net.cpp:91] Creating Layer inception_5a/3x3_reduce
I0403 15:17:47.004223 31423 net.cpp:425] inception_5a/3x3_reduce <- pool4/3x3_s2_pool4/3x3_s2_0_split_1
I0403 15:17:47.004245 31423 net.cpp:399] inception_5a/3x3_reduce -> inception_5a/3x3_reduce
I0403 15:17:47.006796 31423 net.cpp:141] Setting up inception_5a/3x3_reduce
I0403 15:17:47.006827 31423 net.cpp:148] Top shape: 24 160 7 7 (188160)
I0403 15:17:47.006844 31423 net.cpp:156] Memory required for data: 1295286816
I0403 15:17:47.006862 31423 layer_factory.hpp:77] Creating layer inception_5a/relu_3x3_reduce
I0403 15:17:47.006883 31423 net.cpp:91] Creating Layer inception_5a/relu_3x3_reduce
I0403 15:17:47.006901 31423 net.cpp:425] inception_5a/relu_3x3_reduce <- inception_5a/3x3_reduce
I0403 15:17:47.006919 31423 net.cpp:386] inception_5a/relu_3x3_reduce -> inception_5a/3x3_reduce (in-place)
I0403 15:17:47.007117 31423 net.cpp:141] Setting up inception_5a/relu_3x3_reduce
I0403 15:17:47.007141 31423 net.cpp:148] Top shape: 24 160 7 7 (188160)
I0403 15:17:47.007156 31423 net.cpp:156] Memory required for data: 1296039456
I0403 15:17:47.007172 31423 layer_factory.hpp:77] Creating layer inception_5a/3x3
I0403 15:17:47.007195 31423 net.cpp:91] Creating Layer inception_5a/3x3
I0403 15:17:47.007213 31423 net.cpp:425] inception_5a/3x3 <- inception_5a/3x3_reduce
I0403 15:17:47.007236 31423 net.cpp:399] inception_5a/3x3 -> inception_5a/3x3
I0403 15:17:47.012465 31423 net.cpp:141] Setting up inception_5a/3x3
I0403 15:17:47.012498 31423 net.cpp:148] Top shape: 24 320 7 7 (376320)
I0403 15:17:47.012519 31423 net.cpp:156] Memory required for data: 1297544736
I0403 15:17:47.012550 31423 layer_factory.hpp:77] Creating layer inception_5a/relu_3x3
I0403 15:17:47.012570 31423 net.cpp:91] Creating Layer inception_5a/relu_3x3
I0403 15:17:47.012589 31423 net.cpp:425] inception_5a/relu_3x3 <- inception_5a/3x3
I0403 15:17:47.012610 31423 net.cpp:386] inception_5a/relu_3x3 -> inception_5a/3x3 (in-place)
I0403 15:17:47.012919 31423 net.cpp:141] Setting up inception_5a/relu_3x3
I0403 15:17:47.012948 31423 net.cpp:148] Top shape: 24 320 7 7 (376320)
I0403 15:17:47.012964 31423 net.cpp:156] Memory required for data: 1299050016
I0403 15:17:47.012979 31423 layer_factory.hpp:77] Creating layer inception_5a/5x5_reduce
I0403 15:17:47.013002 31423 net.cpp:91] Creating Layer inception_5a/5x5_reduce
I0403 15:17:47.013020 31423 net.cpp:425] inception_5a/5x5_reduce <- pool4/3x3_s2_pool4/3x3_s2_0_split_2
I0403 15:17:47.013042 31423 net.cpp:399] inception_5a/5x5_reduce -> inception_5a/5x5_reduce
I0403 15:17:47.014266 31423 net.cpp:141] Setting up inception_5a/5x5_reduce
I0403 15:17:47.014298 31423 net.cpp:148] Top shape: 24 32 7 7 (37632)
I0403 15:17:47.014315 31423 net.cpp:156] Memory required for data: 1299200544
I0403 15:17:47.014333 31423 layer_factory.hpp:77] Creating layer inception_5a/relu_5x5_reduce
I0403 15:17:47.014353 31423 net.cpp:91] Creating Layer inception_5a/relu_5x5_reduce
I0403 15:17:47.014369 31423 net.cpp:425] inception_5a/relu_5x5_reduce <- inception_5a/5x5_reduce
I0403 15:17:47.014389 31423 net.cpp:386] inception_5a/relu_5x5_reduce -> inception_5a/5x5_reduce (in-place)
I0403 15:17:47.014703 31423 net.cpp:141] Setting up inception_5a/relu_5x5_reduce
I0403 15:17:47.014730 31423 net.cpp:148] Top shape: 24 32 7 7 (37632)
I0403 15:17:47.014746 31423 net.cpp:156] Memory required for data: 1299351072
I0403 15:17:47.014768 31423 layer_factory.hpp:77] Creating layer inception_5a/5x5
I0403 15:17:47.014796 31423 net.cpp:91] Creating Layer inception_5a/5x5
I0403 15:17:47.014816 31423 net.cpp:425] inception_5a/5x5 <- inception_5a/5x5_reduce
I0403 15:17:47.014837 31423 net.cpp:399] inception_5a/5x5 -> inception_5a/5x5
I0403 15:17:47.016669 31423 net.cpp:141] Setting up inception_5a/5x5
I0403 15:17:47.016713 31423 net.cpp:148] Top shape: 24 128 7 7 (150528)
I0403 15:17:47.016731 31423 net.cpp:156] Memory required for data: 1299953184
I0403 15:17:47.016749 31423 layer_factory.hpp:77] Creating layer inception_5a/relu_5x5
I0403 15:17:47.016767 31423 net.cpp:91] Creating Layer inception_5a/relu_5x5
I0403 15:17:47.016791 31423 net.cpp:425] inception_5a/relu_5x5 <- inception_5a/5x5
I0403 15:17:47.016814 31423 net.cpp:386] inception_5a/relu_5x5 -> inception_5a/5x5 (in-place)
I0403 15:17:47.017014 31423 net.cpp:141] Setting up inception_5a/relu_5x5
I0403 15:17:47.017040 31423 net.cpp:148] Top shape: 24 128 7 7 (150528)
I0403 15:17:47.017055 31423 net.cpp:156] Memory required for data: 1300555296
I0403 15:17:47.017071 31423 layer_factory.hpp:77] Creating layer inception_5a/pool
I0403 15:17:47.017088 31423 net.cpp:91] Creating Layer inception_5a/pool
I0403 15:17:47.017104 31423 net.cpp:425] inception_5a/pool <- pool4/3x3_s2_pool4/3x3_s2_0_split_3
I0403 15:17:47.017124 31423 net.cpp:399] inception_5a/pool -> inception_5a/pool
I0403 15:17:47.017199 31423 net.cpp:141] Setting up inception_5a/pool
I0403 15:17:47.017225 31423 net.cpp:148] Top shape: 24 832 7 7 (978432)
I0403 15:17:47.017240 31423 net.cpp:156] Memory required for data: 1304469024
I0403 15:17:47.017253 31423 layer_factory.hpp:77] Creating layer inception_5a/pool_proj
I0403 15:17:47.017276 31423 net.cpp:91] Creating Layer inception_5a/pool_proj
I0403 15:17:47.017293 31423 net.cpp:425] inception_5a/pool_proj <- inception_5a/pool
I0403 15:17:47.017315 31423 net.cpp:399] inception_5a/pool_proj -> inception_5a/pool_proj
I0403 15:17:47.019685 31423 net.cpp:141] Setting up inception_5a/pool_proj
I0403 15:17:47.019718 31423 net.cpp:148] Top shape: 24 128 7 7 (150528)
I0403 15:17:47.019736 31423 net.cpp:156] Memory required for data: 1305071136
I0403 15:17:47.019754 31423 layer_factory.hpp:77] Creating layer inception_5a/relu_pool_proj
I0403 15:17:47.019773 31423 net.cpp:91] Creating Layer inception_5a/relu_pool_proj
I0403 15:17:47.019790 31423 net.cpp:425] inception_5a/relu_pool_proj <- inception_5a/pool_proj
I0403 15:17:47.019810 31423 net.cpp:386] inception_5a/relu_pool_proj -> inception_5a/pool_proj (in-place)
I0403 15:17:47.020115 31423 net.cpp:141] Setting up inception_5a/relu_pool_proj
I0403 15:17:47.020145 31423 net.cpp:148] Top shape: 24 128 7 7 (150528)
I0403 15:17:47.020162 31423 net.cpp:156] Memory required for data: 1305673248
I0403 15:17:47.020177 31423 layer_factory.hpp:77] Creating layer inception_5a/output
I0403 15:17:47.020195 31423 net.cpp:91] Creating Layer inception_5a/output
I0403 15:17:47.020210 31423 net.cpp:425] inception_5a/output <- inception_5a/1x1
I0403 15:17:47.020227 31423 net.cpp:425] inception_5a/output <- inception_5a/3x3
I0403 15:17:47.020243 31423 net.cpp:425] inception_5a/output <- inception_5a/5x5
I0403 15:17:47.020261 31423 net.cpp:425] inception_5a/output <- inception_5a/pool_proj
I0403 15:17:47.020277 31423 net.cpp:399] inception_5a/output -> inception_5a/output
I0403 15:17:47.020330 31423 net.cpp:141] Setting up inception_5a/output
I0403 15:17:47.020354 31423 net.cpp:148] Top shape: 24 832 7 7 (978432)
I0403 15:17:47.020371 31423 net.cpp:156] Memory required for data: 1309586976
I0403 15:17:47.020390 31423 layer_factory.hpp:77] Creating layer inception_5a/output_inception_5a/output_0_split
I0403 15:17:47.020409 31423 net.cpp:91] Creating Layer inception_5a/output_inception_5a/output_0_split
I0403 15:17:47.020426 31423 net.cpp:425] inception_5a/output_inception_5a/output_0_split <- inception_5a/output
I0403 15:17:47.020443 31423 net.cpp:399] inception_5a/output_inception_5a/output_0_split -> inception_5a/output_inception_5a/output_0_split_0
I0403 15:17:47.020463 31423 net.cpp:399] inception_5a/output_inception_5a/output_0_split -> inception_5a/output_inception_5a/output_0_split_1
I0403 15:17:47.020483 31423 net.cpp:399] inception_5a/output_inception_5a/output_0_split -> inception_5a/output_inception_5a/output_0_split_2
I0403 15:17:47.020509 31423 net.cpp:399] inception_5a/output_inception_5a/output_0_split -> inception_5a/output_inception_5a/output_0_split_3
I0403 15:17:47.020630 31423 net.cpp:141] Setting up inception_5a/output_inception_5a/output_0_split
I0403 15:17:47.020654 31423 net.cpp:148] Top shape: 24 832 7 7 (978432)
I0403 15:17:47.020671 31423 net.cpp:148] Top shape: 24 832 7 7 (978432)
I0403 15:17:47.020687 31423 net.cpp:148] Top shape: 24 832 7 7 (978432)
I0403 15:17:47.020702 31423 net.cpp:148] Top shape: 24 832 7 7 (978432)
I0403 15:17:47.020716 31423 net.cpp:156] Memory required for data: 1325241888
I0403 15:17:47.020738 31423 layer_factory.hpp:77] Creating layer inception_5b/1x1
I0403 15:17:47.020766 31423 net.cpp:91] Creating Layer inception_5b/1x1
I0403 15:17:47.020788 31423 net.cpp:425] inception_5b/1x1 <- inception_5a/output_inception_5a/output_0_split_0
I0403 15:17:47.020813 31423 net.cpp:399] inception_5b/1x1 -> inception_5b/1x1
I0403 15:17:47.024783 31423 net.cpp:141] Setting up inception_5b/1x1
I0403 15:17:47.024829 31423 net.cpp:148] Top shape: 24 384 7 7 (451584)
I0403 15:17:47.024873 31423 net.cpp:156] Memory required for data: 1327048224
I0403 15:17:47.024893 31423 layer_factory.hpp:77] Creating layer inception_5b/relu_1x1
I0403 15:17:47.024916 31423 net.cpp:91] Creating Layer inception_5b/relu_1x1
I0403 15:17:47.025030 31423 net.cpp:425] inception_5b/relu_1x1 <- inception_5b/1x1
I0403 15:17:47.025066 31423 net.cpp:386] inception_5b/relu_1x1 -> inception_5b/1x1 (in-place)
I0403 15:17:47.025599 31423 net.cpp:141] Setting up inception_5b/relu_1x1
I0403 15:17:47.025627 31423 net.cpp:148] Top shape: 24 384 7 7 (451584)
I0403 15:17:47.025655 31423 net.cpp:156] Memory required for data: 1328854560
I0403 15:17:47.025671 31423 layer_factory.hpp:77] Creating layer inception_5b/3x3_reduce
I0403 15:17:47.025699 31423 net.cpp:91] Creating Layer inception_5b/3x3_reduce
I0403 15:17:47.025718 31423 net.cpp:425] inception_5b/3x3_reduce <- inception_5a/output_inception_5a/output_0_split_1
I0403 15:17:47.025739 31423 net.cpp:399] inception_5b/3x3_reduce -> inception_5b/3x3_reduce
I0403 15:17:47.028573 31423 net.cpp:141] Setting up inception_5b/3x3_reduce
I0403 15:17:47.028606 31423 net.cpp:148] Top shape: 24 192 7 7 (225792)
I0403 15:17:47.028625 31423 net.cpp:156] Memory required for data: 1329757728
I0403 15:17:47.028643 31423 layer_factory.hpp:77] Creating layer inception_5b/relu_3x3_reduce
I0403 15:17:47.028662 31423 net.cpp:91] Creating Layer inception_5b/relu_3x3_reduce
I0403 15:17:47.028689 31423 net.cpp:425] inception_5b/relu_3x3_reduce <- inception_5b/3x3_reduce
I0403 15:17:47.028707 31423 net.cpp:386] inception_5b/relu_3x3_reduce -> inception_5b/3x3_reduce (in-place)
I0403 15:17:47.028905 31423 net.cpp:141] Setting up inception_5b/relu_3x3_reduce
I0403 15:17:47.028931 31423 net.cpp:148] Top shape: 24 192 7 7 (225792)
I0403 15:17:47.028946 31423 net.cpp:156] Memory required for data: 1330660896
I0403 15:17:47.028961 31423 layer_factory.hpp:77] Creating layer inception_5b/3x3
I0403 15:17:47.028983 31423 net.cpp:91] Creating Layer inception_5b/3x3
I0403 15:17:47.029002 31423 net.cpp:425] inception_5b/3x3 <- inception_5b/3x3_reduce
I0403 15:17:47.029024 31423 net.cpp:399] inception_5b/3x3 -> inception_5b/3x3
I0403 15:17:47.035974 31423 net.cpp:141] Setting up inception_5b/3x3
I0403 15:17:47.036007 31423 net.cpp:148] Top shape: 24 384 7 7 (451584)
I0403 15:17:47.036025 31423 net.cpp:156] Memory required for data: 1332467232
I0403 15:17:47.036043 31423 layer_factory.hpp:77] Creating layer inception_5b/relu_3x3
I0403 15:17:47.036062 31423 net.cpp:91] Creating Layer inception_5b/relu_3x3
I0403 15:17:47.036080 31423 net.cpp:425] inception_5b/relu_3x3 <- inception_5b/3x3
I0403 15:17:47.036100 31423 net.cpp:386] inception_5b/relu_3x3 -> inception_5b/3x3 (in-place)
I0403 15:17:47.036406 31423 net.cpp:141] Setting up inception_5b/relu_3x3
I0403 15:17:47.036435 31423 net.cpp:148] Top shape: 24 384 7 7 (451584)
I0403 15:17:47.036451 31423 net.cpp:156] Memory required for data: 1334273568
I0403 15:17:47.036468 31423 layer_factory.hpp:77] Creating layer inception_5b/5x5_reduce
I0403 15:17:47.036505 31423 net.cpp:91] Creating Layer inception_5b/5x5_reduce
I0403 15:17:47.036525 31423 net.cpp:425] inception_5b/5x5_reduce <- inception_5a/output_inception_5a/output_0_split_2
I0403 15:17:47.036550 31423 net.cpp:399] inception_5b/5x5_reduce -> inception_5b/5x5_reduce
I0403 15:17:47.037879 31423 net.cpp:141] Setting up inception_5b/5x5_reduce
I0403 15:17:47.037914 31423 net.cpp:148] Top shape: 24 48 7 7 (56448)
I0403 15:17:47.037931 31423 net.cpp:156] Memory required for data: 1334499360
I0403 15:17:47.037950 31423 layer_factory.hpp:77] Creating layer inception_5b/relu_5x5_reduce
I0403 15:17:47.037968 31423 net.cpp:91] Creating Layer inception_5b/relu_5x5_reduce
I0403 15:17:47.037986 31423 net.cpp:425] inception_5b/relu_5x5_reduce <- inception_5b/5x5_reduce
I0403 15:17:47.038007 31423 net.cpp:386] inception_5b/relu_5x5_reduce -> inception_5b/5x5_reduce (in-place)
I0403 15:17:47.038393 31423 net.cpp:141] Setting up inception_5b/relu_5x5_reduce
I0403 15:17:47.038419 31423 net.cpp:148] Top shape: 24 48 7 7 (56448)
I0403 15:17:47.038435 31423 net.cpp:156] Memory required for data: 1334725152
I0403 15:17:47.038450 31423 layer_factory.hpp:77] Creating layer inception_5b/5x5
I0403 15:17:47.038470 31423 net.cpp:91] Creating Layer inception_5b/5x5
I0403 15:17:47.038488 31423 net.cpp:425] inception_5b/5x5 <- inception_5b/5x5_reduce
I0403 15:17:47.038507 31423 net.cpp:399] inception_5b/5x5 -> inception_5b/5x5
I0403 15:17:47.040643 31423 net.cpp:141] Setting up inception_5b/5x5
I0403 15:17:47.040671 31423 net.cpp:148] Top shape: 24 128 7 7 (150528)
I0403 15:17:47.040688 31423 net.cpp:156] Memory required for data: 1335327264
I0403 15:17:47.040706 31423 layer_factory.hpp:77] Creating layer inception_5b/relu_5x5
I0403 15:17:47.040725 31423 net.cpp:91] Creating Layer inception_5b/relu_5x5
I0403 15:17:47.040742 31423 net.cpp:425] inception_5b/relu_5x5 <- inception_5b/5x5
I0403 15:17:47.040763 31423 net.cpp:386] inception_5b/relu_5x5 -> inception_5b/5x5 (in-place)
I0403 15:17:47.040967 31423 net.cpp:141] Setting up inception_5b/relu_5x5
I0403 15:17:47.040993 31423 net.cpp:148] Top shape: 24 128 7 7 (150528)
I0403 15:17:47.041008 31423 net.cpp:156] Memory required for data: 1335929376
I0403 15:17:47.041024 31423 layer_factory.hpp:77] Creating layer inception_5b/pool
I0403 15:17:47.041044 31423 net.cpp:91] Creating Layer inception_5b/pool
I0403 15:17:47.041062 31423 net.cpp:425] inception_5b/pool <- inception_5a/output_inception_5a/output_0_split_3
I0403 15:17:47.041081 31423 net.cpp:399] inception_5b/pool -> inception_5b/pool
I0403 15:17:47.041157 31423 net.cpp:141] Setting up inception_5b/pool
I0403 15:17:47.041182 31423 net.cpp:148] Top shape: 24 832 7 7 (978432)
I0403 15:17:47.041196 31423 net.cpp:156] Memory required for data: 1339843104
I0403 15:17:47.041211 31423 layer_factory.hpp:77] Creating layer inception_5b/pool_proj
I0403 15:17:47.041234 31423 net.cpp:91] Creating Layer inception_5b/pool_proj
I0403 15:17:47.041251 31423 net.cpp:425] inception_5b/pool_proj <- inception_5b/pool
I0403 15:17:47.041272 31423 net.cpp:399] inception_5b/pool_proj -> inception_5b/pool_proj
I0403 15:17:47.043678 31423 net.cpp:141] Setting up inception_5b/pool_proj
I0403 15:17:47.043711 31423 net.cpp:148] Top shape: 24 128 7 7 (150528)
I0403 15:17:47.043728 31423 net.cpp:156] Memory required for data: 1340445216
I0403 15:17:47.043746 31423 layer_factory.hpp:77] Creating layer inception_5b/relu_pool_proj
I0403 15:17:47.043766 31423 net.cpp:91] Creating Layer inception_5b/relu_pool_proj
I0403 15:17:47.043781 31423 net.cpp:425] inception_5b/relu_pool_proj <- inception_5b/pool_proj
I0403 15:17:47.043802 31423 net.cpp:386] inception_5b/relu_pool_proj -> inception_5b/pool_proj (in-place)
I0403 15:17:47.044113 31423 net.cpp:141] Setting up inception_5b/relu_pool_proj
I0403 15:17:47.044142 31423 net.cpp:148] Top shape: 24 128 7 7 (150528)
I0403 15:17:47.044159 31423 net.cpp:156] Memory required for data: 1341047328
I0403 15:17:47.044174 31423 layer_factory.hpp:77] Creating layer inception_5b/output
I0403 15:17:47.044193 31423 net.cpp:91] Creating Layer inception_5b/output
I0403 15:17:47.044224 31423 net.cpp:425] inception_5b/output <- inception_5b/1x1
I0403 15:17:47.044242 31423 net.cpp:425] inception_5b/output <- inception_5b/3x3
I0403 15:17:47.044258 31423 net.cpp:425] inception_5b/output <- inception_5b/5x5
I0403 15:17:47.044275 31423 net.cpp:425] inception_5b/output <- inception_5b/pool_proj
I0403 15:17:47.044294 31423 net.cpp:399] inception_5b/output -> inception_5b/output
I0403 15:17:47.044348 31423 net.cpp:141] Setting up inception_5b/output
I0403 15:17:47.044373 31423 net.cpp:148] Top shape: 24 1024 7 7 (1204224)
I0403 15:17:47.044387 31423 net.cpp:156] Memory required for data: 1345864224
I0403 15:17:47.044402 31423 layer_factory.hpp:77] Creating layer pool5/7x7_s1
I0403 15:17:47.044426 31423 net.cpp:91] Creating Layer pool5/7x7_s1
I0403 15:17:47.044443 31423 net.cpp:425] pool5/7x7_s1 <- inception_5b/output
I0403 15:17:47.044462 31423 net.cpp:399] pool5/7x7_s1 -> pool5/7x7_s1
I0403 15:17:47.044699 31423 net.cpp:141] Setting up pool5/7x7_s1
I0403 15:17:47.044726 31423 net.cpp:148] Top shape: 24 1024 1 1 (24576)
I0403 15:17:47.044741 31423 net.cpp:156] Memory required for data: 1345962528
I0403 15:17:47.044756 31423 layer_factory.hpp:77] Creating layer pool5/drop_7x7_s1
I0403 15:17:47.044775 31423 net.cpp:91] Creating Layer pool5/drop_7x7_s1
I0403 15:17:47.044790 31423 net.cpp:425] pool5/drop_7x7_s1 <- pool5/7x7_s1
I0403 15:17:47.044811 31423 net.cpp:386] pool5/drop_7x7_s1 -> pool5/7x7_s1 (in-place)
I0403 15:17:47.044862 31423 net.cpp:141] Setting up pool5/drop_7x7_s1
I0403 15:17:47.044886 31423 net.cpp:148] Top shape: 24 1024 1 1 (24576)
I0403 15:17:47.044900 31423 net.cpp:156] Memory required for data: 1346060832
I0403 15:17:47.044915 31423 layer_factory.hpp:77] Creating layer loss3/classifier_plantvillage
I0403 15:17:47.044937 31423 net.cpp:91] Creating Layer loss3/classifier_plantvillage
I0403 15:17:47.044955 31423 net.cpp:425] loss3/classifier_plantvillage <- pool5/7x7_s1
I0403 15:17:47.044975 31423 net.cpp:399] loss3/classifier_plantvillage -> loss3/classifier_plantvillage
I0403 15:17:47.045418 31423 net.cpp:141] Setting up loss3/classifier_plantvillage
I0403 15:17:47.045445 31423 net.cpp:148] Top shape: 24 38 (912)
I0403 15:17:47.045461 31423 net.cpp:156] Memory required for data: 1346064480
I0403 15:17:47.045480 31423 layer_factory.hpp:77] Creating layer loss3/classifier_plantvillage_loss3/classifier_plantvillage_0_split
I0403 15:17:47.045498 31423 net.cpp:91] Creating Layer loss3/classifier_plantvillage_loss3/classifier_plantvillage_0_split
I0403 15:17:47.045514 31423 net.cpp:425] loss3/classifier_plantvillage_loss3/classifier_plantvillage_0_split <- loss3/classifier_plantvillage
I0403 15:17:47.045532 31423 net.cpp:399] loss3/classifier_plantvillage_loss3/classifier_plantvillage_0_split -> loss3/classifier_plantvillage_loss3/classifier_plantvillage_0_split_0
I0403 15:17:47.045558 31423 net.cpp:399] loss3/classifier_plantvillage_loss3/classifier_plantvillage_0_split -> loss3/classifier_plantvillage_loss3/classifier_plantvillage_0_split_1
I0403 15:17:47.045580 31423 net.cpp:399] loss3/classifier_plantvillage_loss3/classifier_plantvillage_0_split -> loss3/classifier_plantvillage_loss3/classifier_plantvillage_0_split_2
I0403 15:17:47.045603 31423 net.cpp:399] loss3/classifier_plantvillage_loss3/classifier_plantvillage_0_split -> loss3/classifier_plantvillage_loss3/classifier_plantvillage_0_split_3
I0403 15:17:47.045707 31423 net.cpp:141] Setting up loss3/classifier_plantvillage_loss3/classifier_plantvillage_0_split
I0403 15:17:47.045732 31423 net.cpp:148] Top shape: 24 38 (912)
I0403 15:17:47.045748 31423 net.cpp:148] Top shape: 24 38 (912)
I0403 15:17:47.045764 31423 net.cpp:148] Top shape: 24 38 (912)
I0403 15:17:47.045780 31423 net.cpp:148] Top shape: 24 38 (912)
I0403 15:17:47.045794 31423 net.cpp:156] Memory required for data: 1346079072
I0403 15:17:47.045809 31423 layer_factory.hpp:77] Creating layer loss1/loss
I0403 15:17:47.045831 31423 net.cpp:91] Creating Layer loss1/loss
I0403 15:17:47.045848 31423 net.cpp:425] loss1/loss <- loss1/classifier_plantvillage_loss1/classifier_plantvillage_0_split_0
I0403 15:17:47.045881 31423 net.cpp:425] loss1/loss <- label_data_1_split_0
…
