…
I0403 15:04:36.055889 31102 net.cpp:313] The NetState phase (1) differed from the phase (0) specified by a rule in layer data
I0403 15:04:36.057056 31102 net.cpp:49] Initializing net from parameters: 
state {
  phase: TEST
}
layer {
  name: "data"
  type: "Data"
  top: "data"
  top: "label"
  include {
    phase: TEST
  }
  transform_param {
    mirror: false
    crop_size: 224
    mean_file: "/home/mohanty/data/final_dataset/lmdb/grayscale-80-20/mean.binaryproto"
  }
  data_param {
    source: "/home/mohanty/data/final_dataset/lmdb/grayscale-80-20/test_db"
    batch_size: 24
    backend: LMDB
  }
}
layer {
  name: "conv1/7x7_s2"
  type: "Convolution"
  bottom: "data"
  top: "conv1/7x7_s2"
  param {
    lr_mult: 1
    decay_mult: 1
  }
  param {
    lr_mult: 2
    decay_mult: 0
  }
  convolution_param {
    num_output: 64
    pad: 3
    kernel_size: 7
    stride: 2
    weight_filler {
      type: "xavier"
      std: 0.1
    }
    bias_filler {
      type: "constant"
      value: 0.2
    }
  }
}
layer {
  name: "conv1/relu_7x7"
  type: "ReLU"
  bottom: "conv1/7x7_s2"
  top: "conv1/7x7_s2"
}
layer {
  name: "pool1/3x3_s2"
  type: "Pooling"
  bottom: "conv1/7x7_s2"
  top: "pool1/3x3_s2"
  pooling_param {
    pool: MAX
    kernel_size: 3
    stride: 2
  }
}
layer {
  name: "pool1/norm1"
  type: "LRN"
  bottom: "pool1/3x3_s2"
  top: "pool1/norm1"
  lrn_param {
    local_size: 5
    alpha: 0.0001
    beta: 0.75
  }
}
layer {
  name: "conv2/3x3_reduce"
  type: "Convolution"
  bottom: "pool1/norm1"
  top: "conv2/3x3_reduce"
  param {
    lr_mult: 1
    decay_mult: 1
  }
  param {
    lr_mult: 2
    decay_mult: 0
  }
  convolution_param {
    num_output: 64
    kernel_size: 1
    weight_filler {
      type: "xavier"
      std: 0.1
    }
    bias_filler {
      type: "constant"
      value: 0.2
    }
  }
}
layer {
  name: "conv2/relu_3x3_reduce"
  type: "ReLU"
  bottom: "conv2/3x3_reduce"
  top: "conv2/3x3_reduce"
}
layer {
  name: "conv2/3x3"
  type: "Convolution"
  bottom: "conv2/3x3_reduce"
  top: "conv2/3x3"
  param {
    lr_mult: 1
    decay_mult: 1
  }
  param {
    lr_mult: 2
    decay_mult: 0
  }
  convolution_param {
    num_output: 192
    pad: 1
    kernel_size: 3
    weight_filler {
      type: "xavier"
      std: 0.03
    }
    bias_filler {
      type: "constant"
      value: 0.2
    }
  }
}
layer {
  name: "conv2/relu_3x3"
  type: "ReLU"
  bottom: "conv2/3x3"
  top: "conv2/3x3"
}
layer {
  name: "conv2/norm2"
  type: "LRN"
  bottom: "conv2/3x3"
  top: "conv2/norm2"
  lrn_param {
    local_size: 5
    alpha: 0.0001
    beta: 0.75
  }
}
layer {
  name: "pool2/3x3_s2"
  type: "Pooling"
  bottom: "conv2/norm2"
  top: "pool2/3x3_s2"
  pooling_param {
    pool: MAX
    kernel_size: 3
    stride: 2
  }
}
layer {
  name: "inception_3a/1x1"
  type: "Convolution"
  bottom: "pool2/3x3_s2"
  top: "inception_3a/1x1"
  param {
    lr_mult: 1
    decay_mult: 1
  }
  param {
    lr_mult: 2
    decay_mult: 0
  }
  convolution_param {
    num_output: 64
    kernel_size: 1
    weight_filler {
      type: "xavier"
      std: 0.03
    }
    bias_filler {
      type: "constant"
      value: 0.2
    }
  }
}
layer {
  name: "inception_3a/relu_1x1"
  type: "ReLU"
  bottom: "inception_3a/1x1"
  top: "inception_3a/1x1"
}
layer {
  name: "inception_3a/3x3_reduce"
  type: "Convolution"
  bottom: "pool2/3x3_s2"
  top: "inception_3a/3x3_reduce"
  param {
    lr_mult: 1
    decay_mult: 1
  }
  param {
    lr_mult: 2
    decay_mult: 0
  }
  convolution_param {
    num_output: 96
    kernel_size: 1
    weight_filler {
      type: "xavier"
      std: 0.09
    }
    bias_filler {
      type: "constant"
      value: 0.2
    }
  }
}
layer {
  name: "inception_3a/relu_3x3_reduce"
  type: "ReLU"
  bottom: "inception_3a/3x3_reduce"
  top: "inception_3a/3x3_reduce"
}
layer {
  name: "inception_3a/3x3"
  type: "Convolution"
  bottom: "inception_3a/3x3_reduce"
  top: "inception_3a/3x3"
  param {
    lr_mult: 1
    decay_mult: 1
  }
  param {
    lr_mult: 2
    decay_mult: 0
  }
  convolution_param {
    num_output: 128
    pad: 1
    kernel_size: 3
    weight_filler {
      type: "xavier"
      std: 0.03
    }
    bias_filler {
      type: "constant"
      value: 0.2
    }
  }
}
layer {
  name: "inception_3a/relu_3x3"
  type: "ReLU"
  bottom: "inception_3a/3x3"
  top: "inception_3a/3x3"
}
layer {
  name: "inception_3a/5x5_reduce"
  type: "Convolution"
  bottom: "pool2/3x3_s2"
  top: "inception_3a/5x5_reduce"
  param {
    lr_mult: 1
    decay_mult: 1
  }
  param {
    lr_mult: 2
    decay_mult: 0
  }
  convolution_param {
    num_output: 16
    kernel_size: 1
    weight_filler {
      type: "xavier"
      std: 0.2
    }
    bias_filler {
      type: "constant"
      value: 0.2
    }
  }
}
layer {
  name: "inception_3a/relu_5x5_reduce"
  type: "ReLU"
  bottom: "inception_3a/5x5_reduce"
  top: "inception_3a/5x5_reduce"
}
layer {
  name: "inception_3a/5x5"
  type: "Convolution"
  bottom: "inception_3a/5x5_reduce"
  top: "inception_3a/5x5"
  param {
    lr_mult: 1
    decay_mult: 1
  }
  param {
    lr_mult: 2
    decay_mult: 0
  }
  convolution_param {
    num_output: 32
    pad: 2
    kernel_size: 5
    weight_filler {
      type: "xavier"
      std: 0.03
    }
    bias_filler {
      type: "constant"
      value: 0.2
    }
  }
}
layer {
  name: "inception_3a/relu_5x5"
  type: "ReLU"
  bottom: "inception_3a/5x5"
  top: "inception_3a/5x5"
}
layer {
  name: "inception_3a/pool"
  type: "Pooling"
  bottom: "pool2/3x3_s2"
  top: "inception_3a/pool"
  pooling_param {
    pool: MAX
    kernel_size: 3
    stride: 1
    pad: 1
  }
}
layer {
  name: "inception_3a/pool_proj"
  type: "Convolution"
  bottom: "inception_3a/pool"
  top: "inception_3a/pool_proj"
  param {
    lr_mult: 1
    decay_mult: 1
  }
  param {
    lr_mult: 2
    decay_mult: 0
  }
  convolution_param {
    num_output: 32
    kernel_size: 1
    weight_filler {
      type: "xavier"
      std: 0.1
    }
    bias_filler {
      type: "constant"
      value: 0.2
    }
  }
}
layer {
  name: "inception_3a/relu_pool_proj"
  type: "ReLU"
  bottom: "inception_3a/pool_proj"
  top: "inception_3a/pool_proj"
}
layer {
  name: "inception_3a/output"
  type: "Concat"
  bottom: "inception_3a/1x1"
  bottom: "inception_3a/3x3"
  bottom: "inception_3a/5x5"
  bottom: "inception_3a/pool_proj"
  top: "inception_3a/output"
}
layer {
  name: "inception_3b/1x1"
  type: "Convolution"
  bottom: "inception_3a/output"
  top: "inception_3b/1x1"
  param {
    lr_mult: 1
    decay_mult: 1
  }
  param {
    lr_mult: 2
    decay_mult: 0
  }
  convolution_param {
    num_output: 128
    kernel_size: 1
    weight_filler {
      type: "xavier"
      std: 0.03
    }
    bias_filler {
      type: "constant"
      value: 0.2
    }
  }
}
layer {
  name: "inception_3b/relu_1x1"
  type: "ReLU"
  bottom: "inception_3b/1x1"
  top: "inception_3b/1x1"
}
layer {
  name: "inception_3b/3x3_reduce"
  type: "Convolution"
  bottom: "inception_3a/output"
  top: "inception_3b/3x3_reduce"
  param {
    lr_mult: 1
    decay_mult: 1
  }
  param {
    lr_mult: 2
    decay_mult: 0
  }
  convolution_param {
    num_output: 128
    kernel_size: 1
    weight_filler {
      type: "xavier"
      std: 0.09
    }
    bias_filler {
      type: "constant"
      value: 0.2
    }
  }
}
layer {
  name: "inception_3b/relu_3x3_reduce"
  type: "ReLU"
  bottom: "inception_3b/3x3_reduce"
  top: "inception_3b/3x3_reduce"
}
layer {
  name: "inception_3b/3x3"
  type: "Convolution"
  bottom: "inception_3b/3x3_reduce"
  top: "inception_3b/3x3"
  param {
    lr_mult: 1
    decay_mult: 1
  }
  param {
    lr_mult: 2
    decay_mult: 0
  }
  convolution_param {
    num_output: 192
    pad: 1
    kernel_size: 3
    weight_filler {
      type: "xavier"
      std: 0.03
    }
    bias_filler {
      type: "constant"
      value: 0.2
    }
  }
}
layer {
  name: "inception_3b/relu_3x3"
  type: "ReLU"
  bottom: "inception_3b/3x3"
  top: "inception_3b/3x3"
}
layer {
  name: "inception_3b/5x5_reduce"
  type: "Convolution"
  bottom: "inception_3a/output"
  top: "inception_3b/5x5_reduce"
  param {
    lr_mult: 1
    decay_mult: 1
  }
  param {
    lr_mult: 2
    decay_mult: 0
  }
  convolution_param {
    num_output: 32
    kernel_size: 1
    weight_filler {
      type: "xavier"
      std: 0.2
    }
    bias_filler {
      type: "constant"
      value: 0.2
    }
  }
}
layer {
  name: "inception_3b/relu_5x5_reduce"
  type: "ReLU"
  bottom: "inception_3b/5x5_reduce"
  top: "inception_3b/5x5_reduce"
}
layer {
  name: "inception_3b/5x5"
  type: "Convolution"
  bottom: "inception_3b/5x5_reduce"
  top: "inception_3b/5x5"
  param {
    lr_mult: 1
    decay_mult: 1
  }
  param {
    lr_mult: 2
    decay_mult: 0
  }
  convolution_param {
    num_output: 96
    pad: 2
    kernel_size: 5
    weight_filler {
      type: "xavier"
      std: 0.03
    }
    bias_filler {
      type: "constant"
      value: 0.2
    }
  }
}
layer {
  name: "inception_3b/relu_5x5"
  type: "ReLU"
  bottom: "inception_3b/5x5"
  top: "inception_3b/5x5"
}
layer {
  name: "inception_3b/pool"
  type: "Pooling"
  bottom: "inception_3a/output"
  top: "inception_3b/pool"
  pooling_param {
    pool: MAX
    kernel_size: 3
    stride: 1
    pad: 1
  }
}
layer {
  name: "inception_3b/pool_proj"
  type: "Convolution"
  bottom: "inception_3b/pool"
  top: "inception_3b/pool_proj"
  param {
    lr_mult: 1
    decay_mult: 1
  }
  param {
    lr_mult: 2
    decay_mult: 0
  }
  convolution_param {
    num_output: 64
    kernel_size: 1
    weight_filler {
      type: "xavier"
      std: 0.1
    }
    bias_filler {
      type: "constant"
      value: 0.2
    }
  }
}
layer {
  name: "inception_3b/relu_pool_proj"
  type: "ReLU"
  bottom: "inception_3b/pool_proj"
  top: "inception_3b/pool_proj"
}
layer {
  name: "inception_3b/output"
  type: "Concat"
  bottom: "inception_3b/1x1"
  bottom: "inception_3b/3x3"
  bottom: "inception_3b/5x5"
  bottom: "inception_3b/pool_proj"
  top: "inception_3b/output"
}
layer {
  name: "pool3/3x3_s2"
  type: "Pooling"
  bottom: "inception_3b/output"
  top: "pool3/3x3_s2"
  pooling_param {
    pool: MAX
    kernel_size: 3
    stride: 2
  }
}
layer {
  name: "inception_4a/1x1"
  type: "Convolution"
  bottom: "pool3/3x3_s2"
  top: "inception_4a/1x1"
  param {
    lr_mult: 1
    decay_mult: 1
  }
  param {
    lr_mult: 2
    decay_mult: 0
  }
  convolution_param {
    num_output: 192
    kernel_size: 1
    weight_filler {
      type: "xavier"
      std: 0.03
    }
    bias_filler {
      type: "constant"
      value: 0.2
    }
  }
}
layer {
  name: "inception_4a/relu_1x1"
  type: "ReLU"
  bottom: "inception_4a/1x1"
  top: "inception_4a/1x1"
}
layer {
  name: "inception_4a/3x3_reduce"
  type: "Convolution"
  bottom: "pool3/3x3_s2"
  top: "inception_4a/3x3_reduce"
  param {
    lr_mult: 1
    decay_mult: 1
  }
  param {
    lr_mult: 2
    decay_mult: 0
  }
  convolution_param {
    num_output: 96
    kernel_size: 1
    weight_filler {
      type: "xavier"
      std: 0.09
    }
    bias_filler {
      type: "constant"
      value: 0.2
    }
  }
}
layer {
  name: "inception_4a/relu_3x3_reduce"
  type: "ReLU"
  bottom: "inception_4a/3x3_reduce"
  top: "inception_4a/3x3_reduce"
}
layer {
  name: "inception_4a/3x3"
  type: "Convolution"
  bottom: "inception_4a/3x3_reduce"
  top: "inception_4a/3x3"
  param {
    lr_mult: 1
    decay_mult: 1
  }
  param {
    lr_mult: 2
    decay_mult: 0
  }
  convolution_param {
    num_output: 208
    pad: 1
    kernel_size: 3
    weight_filler {
      type: "xavier"
      std: 0.03
    }
    bias_filler {
      type: "constant"
      value: 0.2
    }
  }
}
layer {
  name: "inception_4a/relu_3x3"
  type: "ReLU"
  bottom: "inception_4a/3x3"
  top: "inception_4a/3x3"
}
layer {
  name: "inception_4a/5x5_reduce"
  type: "Convolution"
  bottom: "pool3/3x3_s2"
  top: "inception_4a/5x5_reduce"
  param {
    lr_mult: 1
    decay_mult: 1
  }
  param {
    lr_mult: 2
    decay_mult: 0
  }
  convolution_param {
    num_output: 16
    kernel_size: 1
    weight_filler {
      type: "xavier"
      std: 0.2
    }
    bias_filler {
      type: "constant"
      value: 0.2
    }
  }
}
layer {
  name: "inception_4a/relu_5x5_reduce"
  type: "ReLU"
  bottom: "inception_4a/5x5_reduce"
  top: "inception_4a/5x5_reduce"
}
layer {
  name: "inception_4a/5x5"
  type: "Convolution"
  bottom: "inception_4a/5x5_reduce"
  top: "inception_4a/5x5"
  param {
    lr_mult: 1
    decay_mult: 1
  }
  param {
    lr_mult: 2
    decay_mult: 0
  }
  convolution_param {
    num_output: 48
    pad: 2
    kernel_size: 5
    weight_filler {
      type: "xavier"
      std: 0.03
    }
    bias_filler {
      type: "constant"
      value: 0.2
    }
  }
}
layer {
  name: "inception_4a/relu_5x5"
  type: "ReLU"
  bottom: "inception_4a/5x5"
  top: "inception_4a/5x5"
}
layer {
  name: "inception_4a/pool"
  type: "Pooling"
  bottom: "pool3/3x3_s2"
  top: "inception_4a/pool"
  pooling_param {
    pool: MAX
    kernel_size: 3
    stride: 1
    pad: 1
  }
}
layer {
  name: "inception_4a/pool_proj"
  type: "Convolution"
  bottom: "inception_4a/pool"
  top: "inception_4a/pool_proj"
  param {
    lr_mult: 1
    decay_mult: 1
  }
  param {
    lr_mult: 2
    decay_mult: 0
  }
  convolution_param {
    num_output: 64
    kernel_size: 1
    weight_filler {
      type: "xavier"
      std: 0.1
    }
    bias_filler {
      type: "constant"
      value: 0.2
    }
  }
}
layer {
  name: "inception_4a/relu_pool_proj"
  type: "ReLU"
  bottom: "inception_4a/pool_proj"
  top: "inception_4a/pool_proj"
}
layer {
  name: "inception_4a/output"
  type: "Concat"
  bottom: "inception_4a/1x1"
  bottom: "inception_4a/3x3"
  bottom: "inception_4a/5x5"
  bottom: "inception_4a/pool_proj"
  top: "inception_4a/output"
}
layer {
  name: "loss1/ave_pool"
  type: "Pooling"
  bottom: "inception_4a/output"
  top: "loss1/ave_pool"
  pooling_param {
    pool: AVE
    kernel_size: 5
    stride: 3
  }
}
layer {
  name: "loss1/conv"
  type: "Convolution"
  bottom: "loss1/ave_pool"
  top: "loss1/conv"
  param {
    lr_mult: 1
    decay_mult: 1
  }
  param {
    lr_mult: 2
    decay_mult: 0
  }
  convolution_param {
    num_output: 128
    kernel_size: 1
    weight_filler {
      type: "xavier"
      std: 0.08
    }
    bias_filler {
      type: "constant"
      value: 0.2
    }
  }
}
layer {
  name: "loss1/relu_conv"
  type: "ReLU"
  bottom: "loss1/conv"
  top: "loss1/conv"
}
layer {
  name: "loss1/fc"
  type: "InnerProduct"
  bottom: "loss1/conv"
  top: "loss1/fc"
  param {
    lr_mult: 1
    decay_mult: 1
  }
  param {
    lr_mult: 2
    decay_mult: 0
  }
  inner_product_param {
    num_output: 1024
    weight_filler {
      type: "xavier"
      std: 0.02
    }
    bias_filler {
      type: "constant"
      value: 0.2
    }
  }
}
layer {
  name: "loss1/relu_fc"
  type: "ReLU"
  bottom: "loss1/fc"
  top: "loss1/fc"
}
layer {
  name: "loss1/drop_fc"
  type: "Dropout"
  bottom: "loss1/fc"
  top: "loss1/fc"
  dropout_param {
    dropout_ratio: 0.7
  }
}
layer {
  name: "loss1/classifier_plantvillage"
  type: "InnerProduct"
  bottom: "loss1/fc"
  top: "loss1/classifier_plantvillage"
  param {
    lr_mult: 1
    decay_mult: 1
  }
  param {
    lr_mult: 2
    decay_mult: 0
  }
  inner_product_param {
    num_output: 38
    weight_filler {
      type: "xavier"
      std: 0.0009765625
    }
    bias_filler {
      type: "constant"
      value: 0
    }
  }
}
layer {
  name: "inception_4b/1x1"
  type: "Convolution"
  bottom: "inception_4a/output"
  top: "inception_4b/1x1"
  param {
    lr_mult: 1
    decay_mult: 1
  }
  param {
    lr_mult: 2
    decay_mult: 0
  }
  convolution_param {
    num_output: 160
    kernel_size: 1
    weight_filler {
      type: "xavier"
      std: 0.03
    }
    bias_filler {
      type: "constant"
      value: 0.2
    }
  }
}
layer {
  name: "inception_4b/relu_1x1"
  type: "ReLU"
  bottom: "inception_4b/1x1"
  top: "inception_4b/1x1"
}
layer {
  name: "inception_4b/3x3_reduce"
  type: "Convolution"
  bottom: "inception_4a/output"
  top: "inception_4b/3x3_reduce"
  param {
    lr_mult: 1
    decay_mult: 1
  }
  param {
    lr_mult: 2
    decay_mult: 0
  }
  convolution_param {
    num_output: 112
    kernel_size: 1
    weight_filler {
      type: "xavier"
      std: 0.09
    }
    bias_filler {
      type: "constant"
      value: 0.2
    }
  }
}
layer {
  name: "inception_4b/relu_3x3_reduce"
  type: "ReLU"
  bottom: "inception_4b/3x3_reduce"
  top: "inception_4b/3x3_reduce"
}
layer {
  name: "inception_4b/3x3"
  type: "Convolution"
  bottom: "inception_4b/3x3_reduce"
  top: "inception_4b/3x3"
  param {
    lr_mult: 1
    decay_mult: 1
  }
  param {
    lr_mult: 2
    decay_mult: 0
  }
  convolution_param {
    num_output: 224
    pad: 1
    kernel_size: 3
    weight_filler {
      type: "xavier"
      std: 0.03
    }
    bias_filler {
      type: "constant"
      value: 0.2
    }
  }
}
layer {
  name: "inception_4b/relu_3x3"
  type: "ReLU"
  bottom: "inception_4b/3x3"
  top: "inception_4b/3x3"
}
layer {
  name: "inception_4b/5x5_reduce"
  type: "Convolution"
  bottom: "inception_4a/output"
  top: "inception_4b/5x5_reduce"
  param {
    lr_mult: 1
    decay_mult: 1
  }
  param {
    lr_mult: 2
    decay_mult: 0
  }
  convolution_param {
    num_output: 24
    kernel_size: 1
    weight_filler {
      type: "xavier"
      std: 0.2
    }
    bias_filler {
      type: "constant"
      value: 0.2
    }
  }
}
layer {
  name: "inception_4b/relu_5x5_reduce"
  type: "ReLU"
  bottom: "inception_4b/5x5_reduce"
  top: "inception_4b/5x5_reduce"
}
layer {
  name: "inception_4b/5x5"
  type: "Convolution"
  bottom: "inception_4b/5x5_reduce"
  top: "inception_4b/5x5"
  param {
    lr_mult: 1
    decay_mult: 1
  }
  param {
    lr_mult: 2
    decay_mult: 0
  }
  convolution_param {
    num_output: 64
    pad: 2
    kernel_size: 5
    weight_filler {
      type: "xavier"
      std: 0.03
    }
    bias_filler {
      type: "constant"
      value: 0.2
    }
  }
}
layer {
  name: "inception_4b/relu_5x5"
  type: "ReLU"
  bottom: "inception_4b/5x5"
  top: "inception_4b/5x5"
}
layer {
  name: "inception_4b/pool"
  type: "Pooling"
  bottom: "inception_4a/output"
  top: "inception_4b/pool"
  pooling_param {
    pool: MAX
    kernel_size: 3
    stride: 1
    pad: 1
  }
}
layer {
  name: "inception_4b/pool_proj"
  type: "Convolution"
  bottom: "inception_4b/pool"
  top: "inception_4b/pool_proj"
  param {
    lr_mult: 1
    decay_mult: 1
  }
  param {
    lr_mult: 2
    decay_mult: 0
  }
  convolution_param {
    num_output: 64
    kernel_size: 1
    weight_filler {
      type: "xavier"
      std: 0.1
    }
    bias_filler {
      type: "constant"
      value: 0.2
    }
  }
}
layer {
  name: "inception_4b/relu_pool_proj"
  type: "ReLU"
  bottom: "inception_4b/pool_proj"
  top: "inception_4b/pool_proj"
}
layer {
  name: "inception_4b/output"
  type: "Concat"
  bottom: "inception_4b/1x1"
  bottom: "inception_4b/3x3"
  bottom: "inception_4b/5x5"
  bottom: "inception_4b/pool_proj"
  top: "inception_4b/output"
}
layer {
  name: "inception_4c/1x1"
  type: "Convolution"
  bottom: "inception_4b/output"
  top: "inception_4c/1x1"
  param {
    lr_mult: 1
    decay_mult: 1
  }
  param {
    lr_mult: 2
    decay_mult: 0
  }
  convolution_param {
    num_output: 128
    kernel_size: 1
    weight_filler {
      type: "xavier"
      std: 0.03
    }
    bias_filler {
      type: "constant"
      value: 0.2
    }
  }
}
layer {
  name: "inception_4c/relu_1x1"
  type: "ReLU"
  bottom: "inception_4c/1x1"
  top: "inception_4c/1x1"
}
layer {
  name: "inception_4c/3x3_reduce"
  type: "Convolution"
  bottom: "inception_4b/output"
  top: "inception_4c/3x3_reduce"
  param {
    lr_mult: 1
    decay_mult: 1
  }
  param {
    lr_mult: 2
    decay_mult: 0
  }
  convolution_param {
    num_output: 128
    kernel_size: 1
    weight_filler {
      type: "xavier"
      std: 0.09
    }
    bias_filler {
      type: "constant"
      value: 0.2
    }
  }
}
layer {
  name: "inception_4c/relu_3x3_reduce"
  type: "ReLU"
  bottom: "inception_4c/3x3_reduce"
  top: "inception_4c/3x3_reduce"
}
layer {
  name: "inception_4c/3x3"
  type: "Convolution"
  bottom: "inception_4c/3x3_reduce"
  top: "inception_4c/3x3"
  param {
    lr_mult: 1
    decay_mult: 1
  }
  param {
    lr_mult: 2
    decay_mult: 0
  }
  convolution_param {
    num_output: 256
    pad: 1
    kernel_size: 3
    weight_filler {
      type: "xavier"
      std: 0.03
    }
    bias_filler {
      type: "constant"
      value: 0.2
    }
  }
}
layer {
  name: "inception_4c/relu_3x3"
  type: "ReLU"
  bottom: "inception_4c/3x3"
  top: "inception_4c/3x3"
}
layer {
  name: "inception_4c/5x5_reduce"
  type: "Convolution"
  bottom: "inception_4b/output"
  top: "inception_4c/5x5_reduce"
  param {
    lr_mult: 1
    decay_mult: 1
  }
  param {
    lr_mult: 2
    decay_mult: 0
  }
  convolution_param {
    num_output: 24
    kernel_size: 1
    weight_filler {
      type: "xavier"
      std: 0.2
    }
    bias_filler {
      type: "constant"
      value: 0.2
    }
  }
}
layer {
  name: "inception_4c/relu_5x5_reduce"
  type: "ReLU"
  bottom: "inception_4c/5x5_reduce"
  top: "inception_4c/5x5_reduce"
}
layer {
  name: "inception_4c/5x5"
  type: "Convolution"
  bottom: "inception_4c/5x5_reduce"
  top: "inception_4c/5x5"
  param {
    lr_mult: 1
    decay_mult: 1
  }
  param {
    lr_mult: 2
    decay_mult: 0
  }
  convolution_param {
    num_output: 64
    pad: 2
    kernel_size: 5
    weight_filler {
      type: "xavier"
      std: 0.03
    }
    bias_filler {
      type: "constant"
      value: 0.2
    }
  }
}
layer {
  name: "inception_4c/relu_5x5"
  type: "ReLU"
  bottom: "inception_4c/5x5"
  top: "inception_4c/5x5"
}
layer {
  name: "inception_4c/pool"
  type: "Pooling"
  bottom: "inception_4b/output"
  top: "inception_4c/pool"
  pooling_param {
    pool: MAX
    kernel_size: 3
    stride: 1
    pad: 1
  }
}
layer {
  name: "inception_4c/pool_proj"
  type: "Convolution"
  bottom: "inception_4c/pool"
  top: "inception_4c/pool_proj"
  param {
    lr_mult: 1
    decay_mult: 1
  }
  param {
    lr_mult: 2
    decay_mult: 0
  }
  convolution_param {
    num_output: 64
    kernel_size: 1
    weight_filler {
      type: "xavier"
      std: 0.1
    }
    bias_filler {
      type: "constant"
      value: 0.2
    }
  }
}
layer {
  name: "inception_4c/relu_pool_proj"
  type: "ReLU"
  bottom: "inception_4c/pool_proj"
  top: "inception_4c/pool_proj"
}
layer {
  name: "inception_4c/output"
  type: "Concat"
  bottom: "inception_4c/1x1"
  bottom: "inception_4c/3x3"
  bottom: "inception_4c/5x5"
  bottom: "inception_4c/pool_proj"
  top: "inception_4c/output"
}
layer {
  name: "inception_4d/1x1"
  type: "Convolution"
  bottom: "inception_4c/output"
  top: "inception_4d/1x1"
  param {
    lr_mult: 1
    decay_mult: 1
  }
  param {
    lr_mult: 2
    decay_mult: 0
  }
  convolution_param {
    num_output: 112
    kernel_size: 1
    weight_filler {
      type: "xavier"
      std: 0.03
    }
    bias_filler {
      type: "constant"
      value: 0.2
    }
  }
}
layer {
  name: "inception_4d/relu_1x1"
  type: "ReLU"
  bottom: "inception_4d/1x1"
  top: "inception_4d/1x1"
}
layer {
  name: "inception_4d/3x3_reduce"
  type: "Convolution"
  bottom: "inception_4c/output"
  top: "inception_4d/3x3_reduce"
  param {
    lr_mult: 1
    decay_mult: 1
  }
  param {
    lr_mult: 2
    decay_mult: 0
  }
  convolution_param {
    num_output: 144
    kernel_size: 1
    weight_filler {
      type: "xavier"
      std: 0.09
    }
    bias_filler {
      type: "constant"
      value: 0.2
    }
  }
}
layer {
  name: "inception_4d/relu_3x3_reduce"
  type: "ReLU"
  bottom: "inception_4d/3x3_reduce"
  top: "inception_4d/3x3_reduce"
}
layer {
  name: "inception_4d/3x3"
  type: "Convolution"
  bottom: "inception_4d/3x3_reduce"
  top: "inception_4d/3x3"
  param {
    lr_mult: 1
    decay_mult: 1
  }
  param {
    lr_mult: 2
    decay_mult: 0
  }
  convolution_param {
    num_output: 288
    pad: 1
    kernel_size: 3
    weight_filler {
      type: "xavier"
      std: 0.03
    }
    bias_filler {
      type: "constant"
      value: 0.2
    }
  }
}
layer {
  name: "inception_4d/relu_3x3"
  type: "ReLU"
  bottom: "inception_4d/3x3"
  top: "inception_4d/3x3"
}
layer {
  name: "inception_4d/5x5_reduce"
  type: "Convolution"
  bottom: "inception_4c/output"
  top: "inception_4d/5x5_reduce"
  param {
    lr_mult: 1
    decay_mult: 1
  }
  param {
    lr_mult: 2
    decay_mult: 0
  }
  convolution_param {
    num_output: 32
    kernel_size: 1
    weight_filler {
      type: "xavier"
      std: 0.2
    }
    bias_filler {
      type: "constant"
      value: 0.2
    }
  }
}
layer {
  name: "inception_4d/relu_5x5_reduce"
  type: "ReLU"
  bottom: "inception_4d/5x5_reduce"
  top: "inception_4d/5x5_reduce"
}
layer {
  name: "inception_4d/5x5"
  type: "Convolution"
  bottom: "inception_4d/5x5_reduce"
  top: "inception_4d/5x5"
  param {
    lr_mult: 1
    decay_mult: 1
  }
  param {
    lr_mult: 2
    decay_mult: 0
  }
  convolution_param {
    num_output: 64
    pad: 2
    kernel_size: 5
    weight_filler {
      type: "xavier"
      std: 0.03
    }
    bias_filler {
      type: "constant"
      value: 0.2
    }
  }
}
layer {
  name: "inception_4d/relu_5x5"
  type: "ReLU"
  bottom: "inception_4d/5x5"
  top: "inception_4d/5x5"
}
layer {
  name: "inception_4d/pool"
  type: "Pooling"
  bottom: "inception_4c/output"
  top: "inception_4d/pool"
  pooling_param {
    pool: MAX
    kernel_size: 3
    stride: 1
    pad: 1
  }
}
layer {
  name: "inception_4d/pool_proj"
  type: "Convolution"
  bottom: "inception_4d/pool"
  top: "inception_4d/pool_proj"
  param {
    lr_mult: 1
    decay_mult: 1
  }
  param {
    lr_mult: 2
    decay_mult: 0
  }
  convolution_param {
    num_output: 64
    kernel_size: 1
    weight_filler {
      type: "xavier"
      std: 0.1
    }
    bias_filler {
      type: "constant"
      value: 0.2
    }
  }
}
layer {
  name: "inception_4d/relu_pool_proj"
  type: "ReLU"
  bottom: "inception_4d/pool_proj"
  top: "inception_4d/pool_proj"
}
layer {
  name: "inception_4d/output"
  type: "Concat"
  bottom: "inception_4d/1x1"
  bottom: "inception_4d/3x3"
  bottom: "inception_4d/5x5"
  bottom: "inception_4d/pool_proj"
  top: "inception_4d/output"
}
layer {
  name: "loss2/ave_pool"
  type: "Pooling"
  bottom: "inception_4d/output"
  top: "loss2/ave_pool"
  pooling_param {
    pool: AVE
    kernel_size: 5
    stride: 3
  }
}
layer {
  name: "loss2/conv"
  type: "Convolution"
  bottom: "loss2/ave_pool"
  top: "loss2/conv"
  param {
    lr_mult: 1
    decay_mult: 1
  }
  param {
    lr_mult: 2
    decay_mult: 0
  }
  convolution_param {
    num_output: 128
    kernel_size: 1
    weight_filler {
      type: "xavier"
      std: 0.08
    }
    bias_filler {
      type: "constant"
      value: 0.2
    }
  }
}
layer {
  name: "loss2/relu_conv"
  type: "ReLU"
  bottom: "loss2/conv"
  top: "loss2/conv"
}
layer {
  name: "loss2/fc"
  type: "InnerProduct"
  bottom: "loss2/conv"
  top: "loss2/fc"
  param {
    lr_mult: 1
    decay_mult: 1
  }
  param {
    lr_mult: 2
    decay_mult: 0
  }
  inner_product_param {
    num_output: 1024
    weight_filler {
      type: "xavier"
      std: 0.02
    }
    bias_filler {
      type: "constant"
      value: 0.2
    }
  }
}
layer {
  name: "loss2/relu_fc"
  type: "ReLU"
  bottom: "loss2/fc"
  top: "loss2/fc"
}
layer {
  name: "loss2/drop_fc"
  type: "Dropout"
  bottom: "loss2/fc"
  top: "loss2/fc"
  dropout_param {
    dropout_ratio: 0.7
  }
}
layer {
  name: "loss2/classifier_plantvillage"
  type: "InnerProduct"
  bottom: "loss2/fc"
  top: "loss2/classifier_plantvillage"
  param {
    lr_mult: 1
    decay_mult: 1
  }
  param {
    lr_mult: 2
    decay_mult: 0
  }
  inner_product_param {
    num_output: 38
    weight_filler {
      type: "xavier"
      std: 0.0009765625
    }
    bias_filler {
      type: "constant"
      value: 0
    }
  }
}
layer {
  name: "inception_4e/1x1"
  type: "Convolution"
  bottom: "inception_4d/output"
  top: "inception_4e/1x1"
  param {
    lr_mult: 1
    decay_mult: 1
  }
  param {
    lr_mult: 2
    decay_mult: 0
  }
  convolution_param {
    num_output: 256
    kernel_size: 1
    weight_filler {
      type: "xavier"
      std: 0.03
    }
    bias_filler {
      type: "constant"
      value: 0.2
    }
  }
}
layer {
  name: "inception_4e/relu_1x1"
  type: "ReLU"
  bottom: "inception_4e/1x1"
  top: "inception_4e/1x1"
}
layer {
  name: "inception_4e/3x3_reduce"
  type: "Convolution"
  bottom: "inception_4d/output"
  top: "inception_4e/3x3_reduce"
  param {
    lr_mult: 1
    decay_mult: 1
  }
  param {
    lr_mult: 2
    decay_mult: 0
  }
  convolution_param {
    num_output: 160
    kernel_size: 1
    weight_filler {
      type: "xavier"
      std: 0.09
    }
    bias_filler {
      type: "constant"
      value: 0.2
    }
  }
}
layer {
  name: "inception_4e/relu_3x3_reduce"
  type: "ReLU"
  bottom: "inception_4e/3x3_reduce"
  top: "inception_4e/3x3_reduce"
}
layer {
  name: "inception_4e/3x3"
  type: "Convolution"
  bottom: "inception_4e/3x3_reduce"
  top: "inception_4e/3x3"
  param {
    lr_mult: 1
    decay_mult: 1
  }
  param {
    lr_mult: 2
    decay_mult: 0
  }
  convolution_param {
    num_output: 320
    pad: 1
    kernel_size: 3
    weight_filler {
      type: "xavier"
      std: 0.03
    }
    bias_filler {
      type: "constant"
      value: 0.2
    }
  }
}
layer {
  name: "inception_4e/relu_3x3"
  type: "ReLU"
  bottom: "inception_4e/3x3"
  top: "inception_4e/3x3"
}
layer {
  name: "inception_4e/5x5_reduce"
  type: "Convolution"
  bottom: "inception_4d/output"
  top: "inception_4e/5x5_reduce"
  param {
    lr_mult: 1
    decay_mult: 1
  }
  param {
    lr_mult: 2
    decay_mult: 0
  }
  convolution_param {
    num_output: 32
    kernel_size: 1
    weight_filler {
      type: "xavier"
      std: 0.2
    }
    bias_filler {
      type: "constant"
      value: 0.2
    }
  }
}
layer {
  name: "inception_4e/relu_5x5_reduce"
  type: "ReLU"
  bottom: "inception_4e/5x5_reduce"
  top: "inception_4e/5x5_reduce"
}
layer {
  name: "inception_4e/5x5"
  type: "Convolution"
  bottom: "inception_4e/5x5_reduce"
  top: "inception_4e/
I0403 15:04:36.058441 31102 layer_factory.hpp:77] Creating layer data
I0403 15:04:36.059075 31102 net.cpp:91] Creating Layer data
I0403 15:04:36.059123 31102 net.cpp:399] data -> data
I0403 15:04:36.059208 31102 net.cpp:399] data -> label
I0403 15:04:36.059250 31102 data_transformer.cpp:25] Loading mean file from: /home/mohanty/data/final_dataset/lmdb/grayscale-80-20/mean.binaryproto
I0403 15:04:36.061970 31107 db_lmdb.cpp:38] Opened lmdb /home/mohanty/data/final_dataset/lmdb/grayscale-80-20/test_db
I0403 15:04:36.072806 31102 data_layer.cpp:41] output data size: 24,3,224,224
I0403 15:04:36.099694 31102 net.cpp:141] Setting up data
I0403 15:04:36.099773 31102 net.cpp:148] Top shape: 24 3 224 224 (3612672)
I0403 15:04:36.099797 31102 net.cpp:148] Top shape: 24 (24)
I0403 15:04:36.099812 31102 net.cpp:156] Memory required for data: 14450784
I0403 15:04:36.099840 31102 layer_factory.hpp:77] Creating layer label_data_1_split
I0403 15:04:36.099869 31102 net.cpp:91] Creating Layer label_data_1_split
I0403 15:04:36.099886 31102 net.cpp:425] label_data_1_split <- label
I0403 15:04:36.099920 31102 net.cpp:399] label_data_1_split -> label_data_1_split_0
I0403 15:04:36.099947 31102 net.cpp:399] label_data_1_split -> label_data_1_split_1
I0403 15:04:36.099968 31102 net.cpp:399] label_data_1_split -> label_data_1_split_2
I0403 15:04:36.099990 31102 net.cpp:399] label_data_1_split -> label_data_1_split_3
I0403 15:04:36.100010 31102 net.cpp:399] label_data_1_split -> label_data_1_split_4
I0403 15:04:36.100030 31102 net.cpp:399] label_data_1_split -> label_data_1_split_5
I0403 15:04:36.100050 31102 net.cpp:399] label_data_1_split -> label_data_1_split_6
I0403 15:04:36.100071 31102 net.cpp:399] label_data_1_split -> label_data_1_split_7
I0403 15:04:36.100091 31102 net.cpp:399] label_data_1_split -> label_data_1_split_8
I0403 15:04:36.100111 31102 net.cpp:399] label_data_1_split -> label_data_1_split_9
I0403 15:04:36.100225 31102 net.cpp:141] Setting up label_data_1_split
I0403 15:04:36.100249 31102 net.cpp:148] Top shape: 24 (24)
I0403 15:04:36.100265 31102 net.cpp:148] Top shape: 24 (24)
I0403 15:04:36.100281 31102 net.cpp:148] Top shape: 24 (24)
I0403 15:04:36.100296 31102 net.cpp:148] Top shape: 24 (24)
I0403 15:04:36.100312 31102 net.cpp:148] Top shape: 24 (24)
I0403 15:04:36.100327 31102 net.cpp:148] Top shape: 24 (24)
I0403 15:04:36.100342 31102 net.cpp:148] Top shape: 24 (24)
I0403 15:04:36.100358 31102 net.cpp:148] Top shape: 24 (24)
I0403 15:04:36.100373 31102 net.cpp:148] Top shape: 24 (24)
I0403 15:04:36.100389 31102 net.cpp:148] Top shape: 24 (24)
I0403 15:04:36.100430 31102 net.cpp:156] Memory required for data: 14451744
I0403 15:04:36.100446 31102 layer_factory.hpp:77] Creating layer conv1/7x7_s2
I0403 15:04:36.100478 31102 net.cpp:91] Creating Layer conv1/7x7_s2
I0403 15:04:36.100497 31102 net.cpp:425] conv1/7x7_s2 <- data
I0403 15:04:36.100517 31102 net.cpp:399] conv1/7x7_s2 -> conv1/7x7_s2
I0403 15:04:36.236495 31102 net.cpp:141] Setting up conv1/7x7_s2
I0403 15:04:36.236570 31102 net.cpp:148] Top shape: 24 64 112 112 (19267584)
I0403 15:04:36.236588 31102 net.cpp:156] Memory required for data: 91522080
I0403 15:04:36.236624 31102 layer_factory.hpp:77] Creating layer conv1/relu_7x7
I0403 15:04:36.236650 31102 net.cpp:91] Creating Layer conv1/relu_7x7
I0403 15:04:36.236670 31102 net.cpp:425] conv1/relu_7x7 <- conv1/7x7_s2
I0403 15:04:36.236690 31102 net.cpp:386] conv1/relu_7x7 -> conv1/7x7_s2 (in-place)
I0403 15:04:36.236955 31102 net.cpp:141] Setting up conv1/relu_7x7
I0403 15:04:36.236981 31102 net.cpp:148] Top shape: 24 64 112 112 (19267584)
I0403 15:04:36.236996 31102 net.cpp:156] Memory required for data: 168592416
I0403 15:04:36.237012 31102 layer_factory.hpp:77] Creating layer pool1/3x3_s2
I0403 15:04:36.237038 31102 net.cpp:91] Creating Layer pool1/3x3_s2
I0403 15:04:36.237056 31102 net.cpp:425] pool1/3x3_s2 <- conv1/7x7_s2
I0403 15:04:36.237076 31102 net.cpp:399] pool1/3x3_s2 -> pool1/3x3_s2
I0403 15:04:36.237151 31102 net.cpp:141] Setting up pool1/3x3_s2
I0403 15:04:36.237175 31102 net.cpp:148] Top shape: 24 64 56 56 (4816896)
I0403 15:04:36.237190 31102 net.cpp:156] Memory required for data: 187860000
I0403 15:04:36.237205 31102 layer_factory.hpp:77] Creating layer pool1/norm1
I0403 15:04:36.237229 31102 net.cpp:91] Creating Layer pool1/norm1
I0403 15:04:36.237247 31102 net.cpp:425] pool1/norm1 <- pool1/3x3_s2
I0403 15:04:36.237264 31102 net.cpp:399] pool1/norm1 -> pool1/norm1
I0403 15:04:36.237556 31102 net.cpp:141] Setting up pool1/norm1
I0403 15:04:36.237584 31102 net.cpp:148] Top shape: 24 64 56 56 (4816896)
I0403 15:04:36.237601 31102 net.cpp:156] Memory required for data: 207127584
I0403 15:04:36.237615 31102 layer_factory.hpp:77] Creating layer conv2/3x3_reduce
I0403 15:04:36.237642 31102 net.cpp:91] Creating Layer conv2/3x3_reduce
I0403 15:04:36.237658 31102 net.cpp:425] conv2/3x3_reduce <- pool1/norm1
I0403 15:04:36.237675 31102 net.cpp:399] conv2/3x3_reduce -> conv2/3x3_reduce
I0403 15:04:36.238992 31102 net.cpp:141] Setting up conv2/3x3_reduce
I0403 15:04:36.239023 31102 net.cpp:148] Top shape: 24 64 56 56 (4816896)
I0403 15:04:36.239040 31102 net.cpp:156] Memory required for data: 226395168
I0403 15:04:36.239061 31102 layer_factory.hpp:77] Creating layer conv2/relu_3x3_reduce
I0403 15:04:36.239079 31102 net.cpp:91] Creating Layer conv2/relu_3x3_reduce
I0403 15:04:36.239095 31102 net.cpp:425] conv2/relu_3x3_reduce <- conv2/3x3_reduce
I0403 15:04:36.239116 31102 net.cpp:386] conv2/relu_3x3_reduce -> conv2/3x3_reduce (in-place)
I0403 15:04:36.239387 31102 net.cpp:141] Setting up conv2/relu_3x3_reduce
I0403 15:04:36.239416 31102 net.cpp:148] Top shape: 24 64 56 56 (4816896)
I0403 15:04:36.239433 31102 net.cpp:156] Memory required for data: 245662752
I0403 15:04:36.239447 31102 layer_factory.hpp:77] Creating layer conv2/3x3
I0403 15:04:36.239471 31102 net.cpp:91] Creating Layer conv2/3x3
I0403 15:04:36.239490 31102 net.cpp:425] conv2/3x3 <- conv2/3x3_reduce
I0403 15:04:36.239511 31102 net.cpp:399] conv2/3x3 -> conv2/3x3
I0403 15:04:36.241822 31102 net.cpp:141] Setting up conv2/3x3
I0403 15:04:36.241858 31102 net.cpp:148] Top shape: 24 192 56 56 (14450688)
I0403 15:04:36.241875 31102 net.cpp:156] Memory required for data: 303465504
I0403 15:04:36.241897 31102 layer_factory.hpp:77] Creating layer conv2/relu_3x3
I0403 15:04:36.241916 31102 net.cpp:91] Creating Layer conv2/relu_3x3
I0403 15:04:36.241932 31102 net.cpp:425] conv2/relu_3x3 <- conv2/3x3
I0403 15:04:36.241952 31102 net.cpp:386] conv2/relu_3x3 -> conv2/3x3 (in-place)
I0403 15:04:36.242131 31102 net.cpp:141] Setting up conv2/relu_3x3
I0403 15:04:36.242157 31102 net.cpp:148] Top shape: 24 192 56 56 (14450688)
I0403 15:04:36.242208 31102 net.cpp:156] Memory required for data: 361268256
I0403 15:04:36.242223 31102 layer_factory.hpp:77] Creating layer conv2/norm2
I0403 15:04:36.242244 31102 net.cpp:91] Creating Layer conv2/norm2
I0403 15:04:36.242259 31102 net.cpp:425] conv2/norm2 <- conv2/3x3
I0403 15:04:36.242277 31102 net.cpp:399] conv2/norm2 -> conv2/norm2
I0403 15:04:36.242585 31102 net.cpp:141] Setting up conv2/norm2
I0403 15:04:36.242615 31102 net.cpp:148] Top shape: 24 192 56 56 (14450688)
I0403 15:04:36.242640 31102 net.cpp:156] Memory required for data: 419071008
I0403 15:04:36.242655 31102 layer_factory.hpp:77] Creating layer pool2/3x3_s2
I0403 15:04:36.242672 31102 net.cpp:91] Creating Layer pool2/3x3_s2
I0403 15:04:36.242691 31102 net.cpp:425] pool2/3x3_s2 <- conv2/norm2
I0403 15:04:36.242709 31102 net.cpp:399] pool2/3x3_s2 -> pool2/3x3_s2
I0403 15:04:36.242763 31102 net.cpp:141] Setting up pool2/3x3_s2
I0403 15:04:36.242786 31102 net.cpp:148] Top shape: 24 192 28 28 (3612672)
I0403 15:04:36.242801 31102 net.cpp:156] Memory required for data: 433521696
I0403 15:04:36.242816 31102 layer_factory.hpp:77] Creating layer pool2/3x3_s2_pool2/3x3_s2_0_split
I0403 15:04:36.242835 31102 net.cpp:91] Creating Layer pool2/3x3_s2_pool2/3x3_s2_0_split
I0403 15:04:36.242849 31102 net.cpp:425] pool2/3x3_s2_pool2/3x3_s2_0_split <- pool2/3x3_s2
I0403 15:04:36.242871 31102 net.cpp:399] pool2/3x3_s2_pool2/3x3_s2_0_split -> pool2/3x3_s2_pool2/3x3_s2_0_split_0
I0403 15:04:36.242892 31102 net.cpp:399] pool2/3x3_s2_pool2/3x3_s2_0_split -> pool2/3x3_s2_pool2/3x3_s2_0_split_1
I0403 15:04:36.242913 31102 net.cpp:399] pool2/3x3_s2_pool2/3x3_s2_0_split -> pool2/3x3_s2_pool2/3x3_s2_0_split_2
I0403 15:04:36.242935 31102 net.cpp:399] pool2/3x3_s2_pool2/3x3_s2_0_split -> pool2/3x3_s2_pool2/3x3_s2_0_split_3
I0403 15:04:36.243013 31102 net.cpp:141] Setting up pool2/3x3_s2_pool2/3x3_s2_0_split
I0403 15:04:36.243036 31102 net.cpp:148] Top shape: 24 192 28 28 (3612672)
I0403 15:04:36.243053 31102 net.cpp:148] Top shape: 24 192 28 28 (3612672)
I0403 15:04:36.243069 31102 net.cpp:148] Top shape: 24 192 28 28 (3612672)
I0403 15:04:36.243085 31102 net.cpp:148] Top shape: 24 192 28 28 (3612672)
I0403 15:04:36.243098 31102 net.cpp:156] Memory required for data: 491324448
I0403 15:04:36.243113 31102 layer_factory.hpp:77] Creating layer inception_3a/1x1
I0403 15:04:36.243136 31102 net.cpp:91] Creating Layer inception_3a/1x1
I0403 15:04:36.243154 31102 net.cpp:425] inception_3a/1x1 <- pool2/3x3_s2_pool2/3x3_s2_0_split_0
I0403 15:04:36.243175 31102 net.cpp:399] inception_3a/1x1 -> inception_3a/1x1
I0403 15:04:36.244779 31102 net.cpp:141] Setting up inception_3a/1x1
I0403 15:04:36.244812 31102 net.cpp:148] Top shape: 24 64 28 28 (1204224)
I0403 15:04:36.244833 31102 net.cpp:156] Memory required for data: 496141344
I0403 15:04:36.244853 31102 layer_factory.hpp:77] Creating layer inception_3a/relu_1x1
I0403 15:04:36.244873 31102 net.cpp:91] Creating Layer inception_3a/relu_1x1
I0403 15:04:36.244889 31102 net.cpp:425] inception_3a/relu_1x1 <- inception_3a/1x1
I0403 15:04:36.244909 31102 net.cpp:386] inception_3a/relu_1x1 -> inception_3a/1x1 (in-place)
I0403 15:04:36.245090 31102 net.cpp:141] Setting up inception_3a/relu_1x1
I0403 15:04:36.245116 31102 net.cpp:148] Top shape: 24 64 28 28 (1204224)
I0403 15:04:36.245132 31102 net.cpp:156] Memory required for data: 500958240
I0403 15:04:36.245148 31102 layer_factory.hpp:77] Creating layer inception_3a/3x3_reduce
I0403 15:04:36.245173 31102 net.cpp:91] Creating Layer inception_3a/3x3_reduce
I0403 15:04:36.245192 31102 net.cpp:425] inception_3a/3x3_reduce <- pool2/3x3_s2_pool2/3x3_s2_0_split_1
I0403 15:04:36.245213 31102 net.cpp:399] inception_3a/3x3_reduce -> inception_3a/3x3_reduce
I0403 15:04:36.246901 31102 net.cpp:141] Setting up inception_3a/3x3_reduce
I0403 15:04:36.246935 31102 net.cpp:148] Top shape: 24 96 28 28 (1806336)
I0403 15:04:36.246953 31102 net.cpp:156] Memory required for data: 508183584
I0403 15:04:36.246985 31102 layer_factory.hpp:77] Creating layer inception_3a/relu_3x3_reduce
I0403 15:04:36.247027 31102 net.cpp:91] Creating Layer inception_3a/relu_3x3_reduce
I0403 15:04:36.247052 31102 net.cpp:425] inception_3a/relu_3x3_reduce <- inception_3a/3x3_reduce
I0403 15:04:36.247077 31102 net.cpp:386] inception_3a/relu_3x3_reduce -> inception_3a/3x3_reduce (in-place)
I0403 15:04:36.247267 31102 net.cpp:141] Setting up inception_3a/relu_3x3_reduce
I0403 15:04:36.247300 31102 net.cpp:148] Top shape: 24 96 28 28 (1806336)
I0403 15:04:36.247323 31102 net.cpp:156] Memory required for data: 515408928
I0403 15:04:36.247342 31102 layer_factory.hpp:77] Creating layer inception_3a/3x3
I0403 15:04:36.247365 31102 net.cpp:91] Creating Layer inception_3a/3x3
I0403 15:04:36.247386 31102 net.cpp:425] inception_3a/3x3 <- inception_3a/3x3_reduce
I0403 15:04:36.247419 31102 net.cpp:399] inception_3a/3x3 -> inception_3a/3x3
I0403 15:04:36.249073 31102 net.cpp:141] Setting up inception_3a/3x3
I0403 15:04:36.249119 31102 net.cpp:148] Top shape: 24 128 28 28 (2408448)
I0403 15:04:36.249136 31102 net.cpp:156] Memory required for data: 525042720
I0403 15:04:36.249157 31102 layer_factory.hpp:77] Creating layer inception_3a/relu_3x3
I0403 15:04:36.249186 31102 net.cpp:91] Creating Layer inception_3a/relu_3x3
I0403 15:04:36.249215 31102 net.cpp:425] inception_3a/relu_3x3 <- inception_3a/3x3
I0403 15:04:36.249243 31102 net.cpp:386] inception_3a/relu_3x3 -> inception_3a/3x3 (in-place)
I0403 15:04:36.249537 31102 net.cpp:141] Setting up inception_3a/relu_3x3
I0403 15:04:36.249564 31102 net.cpp:148] Top shape: 24 128 28 28 (2408448)
I0403 15:04:36.249584 31102 net.cpp:156] Memory required for data: 534676512
I0403 15:04:36.249603 31102 layer_factory.hpp:77] Creating layer inception_3a/5x5_reduce
I0403 15:04:36.249627 31102 net.cpp:91] Creating Layer inception_3a/5x5_reduce
I0403 15:04:36.249644 31102 net.cpp:425] inception_3a/5x5_reduce <- pool2/3x3_s2_pool2/3x3_s2_0_split_2
I0403 15:04:36.249666 31102 net.cpp:399] inception_3a/5x5_reduce -> inception_3a/5x5_reduce
I0403 15:04:36.250644 31102 net.cpp:141] Setting up inception_3a/5x5_reduce
I0403 15:04:36.250679 31102 net.cpp:148] Top shape: 24 16 28 28 (301056)
I0403 15:04:36.250702 31102 net.cpp:156] Memory required for data: 535880736
I0403 15:04:36.250741 31102 layer_factory.hpp:77] Creating layer inception_3a/relu_5x5_reduce
I0403 15:04:36.250767 31102 net.cpp:91] Creating Layer inception_3a/relu_5x5_reduce
I0403 15:04:36.250785 31102 net.cpp:425] inception_3a/relu_5x5_reduce <- inception_3a/5x5_reduce
I0403 15:04:36.250808 31102 net.cpp:386] inception_3a/relu_5x5_reduce -> inception_3a/5x5_reduce (in-place)
I0403 15:04:36.251108 31102 net.cpp:141] Setting up inception_3a/relu_5x5_reduce
I0403 15:04:36.251143 31102 net.cpp:148] Top shape: 24 16 28 28 (301056)
I0403 15:04:36.251159 31102 net.cpp:156] Memory required for data: 537084960
I0403 15:04:36.251174 31102 layer_factory.hpp:77] Creating layer inception_3a/5x5
I0403 15:04:36.251204 31102 net.cpp:91] Creating Layer inception_3a/5x5
I0403 15:04:36.251222 31102 net.cpp:425] inception_3a/5x5 <- inception_3a/5x5_reduce
I0403 15:04:36.251245 31102 net.cpp:399] inception_3a/5x5 -> inception_3a/5x5
I0403 15:04:36.252295 31102 net.cpp:141] Setting up inception_3a/5x5
I0403 15:04:36.252326 31102 net.cpp:148] Top shape: 24 32 28 28 (602112)
I0403 15:04:36.252343 31102 net.cpp:156] Memory required for data: 539493408
I0403 15:04:36.252363 31102 layer_factory.hpp:77] Creating layer inception_3a/relu_5x5
I0403 15:04:36.252385 31102 net.cpp:91] Creating Layer inception_3a/relu_5x5
I0403 15:04:36.252403 31102 net.cpp:425] inception_3a/relu_5x5 <- inception_3a/5x5
I0403 15:04:36.252424 31102 net.cpp:386] inception_3a/relu_5x5 -> inception_3a/5x5 (in-place)
I0403 15:04:36.252609 31102 net.cpp:141] Setting up inception_3a/relu_5x5
I0403 15:04:36.252635 31102 net.cpp:148] Top shape: 24 32 28 28 (602112)
I0403 15:04:36.252650 31102 net.cpp:156] Memory required for data: 541901856
I0403 15:04:36.252665 31102 layer_factory.hpp:77] Creating layer inception_3a/pool
I0403 15:04:36.252683 31102 net.cpp:91] Creating Layer inception_3a/pool
I0403 15:04:36.252714 31102 net.cpp:425] inception_3a/pool <- pool2/3x3_s2_pool2/3x3_s2_0_split_3
I0403 15:04:36.252735 31102 net.cpp:399] inception_3a/pool -> inception_3a/pool
I0403 15:04:36.252795 31102 net.cpp:141] Setting up inception_3a/pool
I0403 15:04:36.252820 31102 net.cpp:148] Top shape: 24 192 28 28 (3612672)
I0403 15:04:36.252835 31102 net.cpp:156] Memory required for data: 556352544
I0403 15:04:36.252851 31102 layer_factory.hpp:77] Creating layer inception_3a/pool_proj
I0403 15:04:36.252876 31102 net.cpp:91] Creating Layer inception_3a/pool_proj
I0403 15:04:36.252893 31102 net.cpp:425] inception_3a/pool_proj <- inception_3a/pool
I0403 15:04:36.252912 31102 net.cpp:399] inception_3a/pool_proj -> inception_3a/pool_proj
I0403 15:04:36.253913 31102 net.cpp:141] Setting up inception_3a/pool_proj
I0403 15:04:36.253950 31102 net.cpp:148] Top shape: 24 32 28 28 (602112)
I0403 15:04:36.253975 31102 net.cpp:156] Memory required for data: 558760992
I0403 15:04:36.254001 31102 layer_factory.hpp:77] Creating layer inception_3a/relu_pool_proj
I0403 15:04:36.254034 31102 net.cpp:91] Creating Layer inception_3a/relu_pool_proj
I0403 15:04:36.254060 31102 net.cpp:425] inception_3a/relu_pool_proj <- inception_3a/pool_proj
I0403 15:04:36.254087 31102 net.cpp:386] inception_3a/relu_pool_proj -> inception_3a/pool_proj (in-place)
I0403 15:04:36.254381 31102 net.cpp:141] Setting up inception_3a/relu_pool_proj
I0403 15:04:36.254413 31102 net.cpp:148] Top shape: 24 32 28 28 (602112)
I0403 15:04:36.254434 31102 net.cpp:156] Memory required for data: 561169440
I0403 15:04:36.254456 31102 layer_factory.hpp:77] Creating layer inception_3a/output
I0403 15:04:36.254482 31102 net.cpp:91] Creating Layer inception_3a/output
I0403 15:04:36.254504 31102 net.cpp:425] inception_3a/output <- inception_3a/1x1
I0403 15:04:36.254525 31102 net.cpp:425] inception_3a/output <- inception_3a/3x3
I0403 15:04:36.254562 31102 net.cpp:425] inception_3a/output <- inception_3a/5x5
I0403 15:04:36.254587 31102 net.cpp:425] inception_3a/output <- inception_3a/pool_proj
I0403 15:04:36.254614 31102 net.cpp:399] inception_3a/output -> inception_3a/output
I0403 15:04:36.254672 31102 net.cpp:141] Setting up inception_3a/output
I0403 15:04:36.254703 31102 net.cpp:148] Top shape: 24 256 28 28 (4816896)
I0403 15:04:36.254722 31102 net.cpp:156] Memory required for data: 580437024
I0403 15:04:36.254742 31102 layer_factory.hpp:77] Creating layer inception_3a/output_inception_3a/output_0_split
I0403 15:04:36.254768 31102 net.cpp:91] Creating Layer inception_3a/output_inception_3a/output_0_split
I0403 15:04:36.254794 31102 net.cpp:425] inception_3a/output_inception_3a/output_0_split <- inception_3a/output
I0403 15:04:36.254819 31102 net.cpp:399] inception_3a/output_inception_3a/output_0_split -> inception_3a/output_inception_3a/output_0_split_0
I0403 15:04:36.254844 31102 net.cpp:399] inception_3a/output_inception_3a/output_0_split -> inception_3a/output_inception_3a/output_0_split_1
I0403 15:04:36.254870 31102 net.cpp:399] inception_3a/output_inception_3a/output_0_split -> inception_3a/output_inception_3a/output_0_split_2
I0403 15:04:36.254899 31102 net.cpp:399] inception_3a/output_inception_3a/output_0_split -> inception_3a/output_inception_3a/output_0_split_3
I0403 15:04:36.254979 31102 net.cpp:141] Setting up inception_3a/output_inception_3a/output_0_split
I0403 15:04:36.255012 31102 net.cpp:148] Top shape: 24 256 28 28 (4816896)
I0403 15:04:36.255038 31102 net.cpp:148] Top shape: 24 256 28 28 (4816896)
I0403 15:04:36.255059 31102 net.cpp:148] Top shape: 24 256 28 28 (4816896)
I0403 15:04:36.255084 31102 net.cpp:148] Top shape: 24 256 28 28 (4816896)
I0403 15:04:36.255100 31102 net.cpp:156] Memory required for data: 657507360
I0403 15:04:36.255125 31102 layer_factory.hpp:77] Creating layer inception_3b/1x1
I0403 15:04:36.255151 31102 net.cpp:91] Creating Layer inception_3b/1x1
I0403 15:04:36.255177 31102 net.cpp:425] inception_3b/1x1 <- inception_3a/output_inception_3a/output_0_split_0
I0403 15:04:36.255205 31102 net.cpp:399] inception_3b/1x1 -> inception_3b/1x1
I0403 15:04:36.256383 31102 net.cpp:141] Setting up inception_3b/1x1
I0403 15:04:36.256461 31102 net.cpp:148] Top shape: 24 128 28 28 (2408448)
I0403 15:04:36.256485 31102 net.cpp:156] Memory required for data: 667141152
I0403 15:04:36.256505 31102 layer_factory.hpp:77] Creating layer inception_3b/relu_1x1
I0403 15:04:36.256531 31102 net.cpp:91] Creating Layer inception_3b/relu_1x1
I0403 15:04:36.256559 31102 net.cpp:425] inception_3b/relu_1x1 <- inception_3b/1x1
I0403 15:04:36.256582 31102 net.cpp:386] inception_3b/relu_1x1 -> inception_3b/1x1 (in-place)
I0403 15:04:36.256770 31102 net.cpp:141] Setting up inception_3b/relu_1x1
I0403 15:04:36.256799 31102 net.cpp:148] Top shape: 24 128 28 28 (2408448)
I0403 15:04:36.256822 31102 net.cpp:156] Memory required for data: 676774944
I0403 15:04:36.256844 31102 layer_factory.hpp:77] Creating layer inception_3b/3x3_reduce
I0403 15:04:36.256872 31102 net.cpp:91] Creating Layer inception_3b/3x3_reduce
I0403 15:04:36.256898 31102 net.cpp:425] inception_3b/3x3_reduce <- inception_3a/output_inception_3a/output_0_split_1
I0403 15:04:36.256922 31102 net.cpp:399] inception_3b/3x3_reduce -> inception_3b/3x3_reduce
I0403 15:04:36.258095 31102 net.cpp:141] Setting up inception_3b/3x3_reduce
I0403 15:04:36.258126 31102 net.cpp:148] Top shape: 24 128 28 28 (2408448)
I0403 15:04:36.258141 31102 net.cpp:156] Memory required for data: 686408736
I0403 15:04:36.258162 31102 layer_factory.hpp:77] Creating layer inception_3b/relu_3x3_reduce
I0403 15:04:36.258179 31102 net.cpp:91] Creating Layer inception_3b/relu_3x3_reduce
I0403 15:04:36.258196 31102 net.cpp:425] inception_3b/relu_3x3_reduce <- inception_3b/3x3_reduce
I0403 15:04:36.258219 31102 net.cpp:386] inception_3b/relu_3x3_reduce -> inception_3b/3x3_reduce (in-place)
I0403 15:04:36.258399 31102 net.cpp:141] Setting up inception_3b/relu_3x3_reduce
I0403 15:04:36.258424 31102 net.cpp:148] Top shape: 24 128 28 28 (2408448)
I0403 15:04:36.258440 31102 net.cpp:156] Memory required for data: 696042528
I0403 15:04:36.258455 31102 layer_factory.hpp:77] Creating layer inception_3b/3x3
I0403 15:04:36.258483 31102 net.cpp:91] Creating Layer inception_3b/3x3
I0403 15:04:36.258502 31102 net.cpp:425] inception_3b/3x3 <- inception_3b/3x3_reduce
I0403 15:04:36.258522 31102 net.cpp:399] inception_3b/3x3 -> inception_3b/3x3
I0403 15:04:36.261502 31102 net.cpp:141] Setting up inception_3b/3x3
I0403 15:04:36.261545 31102 net.cpp:148] Top shape: 24 192 28 28 (3612672)
I0403 15:04:36.261575 31102 net.cpp:156] Memory required for data: 710493216
I0403 15:04:36.261598 31102 layer_factory.hpp:77] Creating layer inception_3b/relu_3x3
I0403 15:04:36.261628 31102 net.cpp:91] Creating Layer inception_3b/relu_3x3
I0403 15:04:36.261651 31102 net.cpp:425] inception_3b/relu_3x3 <- inception_3b/3x3
I0403 15:04:36.261682 31102 net.cpp:386] inception_3b/relu_3x3 -> inception_3b/3x3 (in-place)
I0403 15:04:36.261997 31102 net.cpp:141] Setting up inception_3b/relu_3x3
I0403 15:04:36.262047 31102 net.cpp:148] Top shape: 24 192 28 28 (3612672)
I0403 15:04:36.262070 31102 net.cpp:156] Memory required for data: 724943904
I0403 15:04:36.262090 31102 layer_factory.hpp:77] Creating layer inception_3b/5x5_reduce
I0403 15:04:36.262125 31102 net.cpp:91] Creating Layer inception_3b/5x5_reduce
I0403 15:04:36.262148 31102 net.cpp:425] inception_3b/5x5_reduce <- inception_3a/output_inception_3a/output_0_split_2
I0403 15:04:36.262177 31102 net.cpp:399] inception_3b/5x5_reduce -> inception_3b/5x5_reduce
I0403 15:04:36.263231 31102 net.cpp:141] Setting up inception_3b/5x5_reduce
I0403 15:04:36.263262 31102 net.cpp:148] Top shape: 24 32 28 28 (602112)
I0403 15:04:36.263279 31102 net.cpp:156] Memory required for data: 727352352
I0403 15:04:36.263299 31102 layer_factory.hpp:77] Creating layer inception_3b/relu_5x5_reduce
I0403 15:04:36.263319 31102 net.cpp:91] Creating Layer inception_3b/relu_5x5_reduce
I0403 15:04:36.263335 31102 net.cpp:425] inception_3b/relu_5x5_reduce <- inception_3b/5x5_reduce
I0403 15:04:36.263355 31102 net.cpp:386] inception_3b/relu_5x5_reduce -> inception_3b/5x5_reduce (in-place)
I0403 15:04:36.263569 31102 net.cpp:141] Setting up inception_3b/relu_5x5_reduce
I0403 15:04:36.263597 31102 net.cpp:148] Top shape: 24 32 28 28 (602112)
I0403 15:04:36.263612 31102 net.cpp:156] Memory required for data: 729760800
I0403 15:04:36.263628 31102 layer_factory.hpp:77] Creating layer inception_3b/5x5
I0403 15:04:36.263653 31102 net.cpp:91] Creating Layer inception_3b/5x5
I0403 15:04:36.263670 31102 net.cpp:425] inception_3b/5x5 <- inception_3b/5x5_reduce
I0403 15:04:36.263694 31102 net.cpp:399] inception_3b/5x5 -> inception_3b/5x5
I0403 15:04:36.265766 31102 net.cpp:141] Setting up inception_3b/5x5
I0403 15:04:36.265797 31102 net.cpp:148] Top shape: 24 96 28 28 (1806336)
I0403 15:04:36.265813 31102 net.cpp:156] Memory required for data: 736986144
I0403 15:04:36.265833 31102 layer_factory.hpp:77] Creating layer inception_3b/relu_5x5
I0403 15:04:36.265854 31102 net.cpp:91] Creating Layer inception_3b/relu_5x5
I0403 15:04:36.265872 31102 net.cpp:425] inception_3b/relu_5x5 <- inception_3b/5x5
I0403 15:04:36.265892 31102 net.cpp:386] inception_3b/relu_5x5 -> inception_3b/5x5 (in-place)
I0403 15:04:36.266099 31102 net.cpp:141] Setting up inception_3b/relu_5x5
I0403 15:04:36.266126 31102 net.cpp:148] Top shape: 24 96 28 28 (1806336)
I0403 15:04:36.266142 31102 net.cpp:156] Memory required for data: 744211488
I0403 15:04:36.266158 31102 layer_factory.hpp:77] Creating layer inception_3b/pool
I0403 15:04:36.266177 31102 net.cpp:91] Creating Layer inception_3b/pool
I0403 15:04:36.266194 31102 net.cpp:425] inception_3b/pool <- inception_3a/output_inception_3a/output_0_split_3
I0403 15:04:36.266214 31102 net.cpp:399] inception_3b/pool -> inception_3b/pool
I0403 15:04:36.266274 31102 net.cpp:141] Setting up inception_3b/pool
I0403 15:04:36.266299 31102 net.cpp:148] Top shape: 24 256 28 28 (4816896)
I0403 15:04:36.266314 31102 net.cpp:156] Memory required for data: 763479072
I0403 15:04:36.266330 31102 layer_factory.hpp:77] Creating layer inception_3b/pool_proj
I0403 15:04:36.266355 31102 net.cpp:91] Creating Layer inception_3b/pool_proj
I0403 15:04:36.266374 31102 net.cpp:425] inception_3b/pool_proj <- inception_3b/pool
I0403 15:04:36.266394 31102 net.cpp:399] inception_3b/pool_proj -> inception_3b/pool_proj
I0403 15:04:36.267510 31102 net.cpp:141] Setting up inception_3b/pool_proj
I0403 15:04:36.267544 31102 net.cpp:148] Top shape: 24 64 28 28 (1204224)
I0403 15:04:36.267561 31102 net.cpp:156] Memory required for data: 768295968
I0403 15:04:36.267582 31102 layer_factory.hpp:77] Creating layer inception_3b/relu_pool_proj
I0403 15:04:36.267604 31102 net.cpp:91] Creating Layer inception_3b/relu_pool_proj
I0403 15:04:36.267623 31102 net.cpp:425] inception_3b/relu_pool_proj <- inception_3b/pool_proj
I0403 15:04:36.267642 31102 net.cpp:386] inception_3b/relu_pool_proj -> inception_3b/pool_proj (in-place)
I0403 15:04:36.268059 31102 net.cpp:141] Setting up inception_3b/relu_pool_proj
I0403 15:04:36.268087 31102 net.cpp:148] Top shape: 24 64 28 28 (1204224)
I0403 15:04:36.268102 31102 net.cpp:156] Memory required for data: 773112864
I0403 15:04:36.268118 31102 layer_factory.hpp:77] Creating layer inception_3b/output
I0403 15:04:36.268137 31102 net.cpp:91] Creating Layer inception_3b/output
I0403 15:04:36.268154 31102 net.cpp:425] inception_3b/output <- inception_3b/1x1
I0403 15:04:36.268172 31102 net.cpp:425] inception_3b/output <- inception_3b/3x3
I0403 15:04:36.268193 31102 net.cpp:425] inception_3b/output <- inception_3b/5x5
I0403 15:04:36.268209 31102 net.cpp:425] inception_3b/output <- inception_3b/pool_proj
I0403 15:04:36.268227 31102 net.cpp:399] inception_3b/output -> inception_3b/output
I0403 15:04:36.268273 31102 net.cpp:141] Setting up inception_3b/output
I0403 15:04:36.268301 31102 net.cpp:148] Top shape: 24 480 28 28 (9031680)
I0403 15:04:36.268317 31102 net.cpp:156] Memory required for data: 809239584
I0403 15:04:36.268333 31102 layer_factory.hpp:77] Creating layer pool3/3x3_s2
I0403 15:04:36.268352 31102 net.cpp:91] Creating Layer pool3/3x3_s2
I0403 15:04:36.268368 31102 net.cpp:425] pool3/3x3_s2 <- inception_3b/output
I0403 15:04:36.268405 31102 net.cpp:399] pool3/3x3_s2 -> pool3/3x3_s2
I0403 15:04:36.268471 31102 net.cpp:141] Setting up pool3/3x3_s2
I0403 15:04:36.268496 31102 net.cpp:148] Top shape: 24 480 14 14 (2257920)
I0403 15:04:36.268512 31102 net.cpp:156] Memory required for data: 818271264
I0403 15:04:36.268527 31102 layer_factory.hpp:77] Creating layer pool3/3x3_s2_pool3/3x3_s2_0_split
I0403 15:04:36.268553 31102 net.cpp:91] Creating Layer pool3/3x3_s2_pool3/3x3_s2_0_split
I0403 15:04:36.268573 31102 net.cpp:425] pool3/3x3_s2_pool3/3x3_s2_0_split <- pool3/3x3_s2
I0403 15:04:36.268590 31102 net.cpp:399] pool3/3x3_s2_pool3/3x3_s2_0_split -> pool3/3x3_s2_pool3/3x3_s2_0_split_0
I0403 15:04:36.268611 31102 net.cpp:399] pool3/3x3_s2_pool3/3x3_s2_0_split -> pool3/3x3_s2_pool3/3x3_s2_0_split_1
I0403 15:04:36.268632 31102 net.cpp:399] pool3/3x3_s2_pool3/3x3_s2_0_split -> pool3/3x3_s2_pool3/3x3_s2_0_split_2
I0403 15:04:36.268656 31102 net.cpp:399] pool3/3x3_s2_pool3/3x3_s2_0_split -> pool3/3x3_s2_pool3/3x3_s2_0_split_3
I0403 15:04:36.268739 31102 net.cpp:141] Setting up pool3/3x3_s2_pool3/3x3_s2_0_split
I0403 15:04:36.268764 31102 net.cpp:148] Top shape: 24 480 14 14 (2257920)
I0403 15:04:36.268782 31102 net.cpp:148] Top shape: 24 480 14 14 (2257920)
I0403 15:04:36.268798 31102 net.cpp:148] Top shape: 24 480 14 14 (2257920)
I0403 15:04:36.268815 31102 net.cpp:148] Top shape: 24 480 14 14 (2257920)
I0403 15:04:36.268829 31102 net.cpp:156] Memory required for data: 854397984
I0403 15:04:36.268844 31102 layer_factory.hpp:77] Creating layer inception_4a/1x1
I0403 15:04:36.268869 31102 net.cpp:91] Creating Layer inception_4a/1x1
I0403 15:04:36.268888 31102 net.cpp:425] inception_4a/1x1 <- pool3/3x3_s2_pool3/3x3_s2_0_split_0
I0403 15:04:36.268911 31102 net.cpp:399] inception_4a/1x1 -> inception_4a/1x1
I0403 15:04:36.270575 31102 net.cpp:141] Setting up inception_4a/1x1
I0403 15:04:36.270603 31102 net.cpp:148] Top shape: 24 192 14 14 (903168)
I0403 15:04:36.270619 31102 net.cpp:156] Memory required for data: 858010656
I0403 15:04:36.270639 31102 layer_factory.hpp:77] Creating layer inception_4a/relu_1x1
I0403 15:04:36.270661 31102 net.cpp:91] Creating Layer inception_4a/relu_1x1
I0403 15:04:36.270679 31102 net.cpp:425] inception_4a/relu_1x1 <- inception_4a/1x1
I0403 15:04:36.270697 31102 net.cpp:386] inception_4a/relu_1x1 -> inception_4a/1x1 (in-place)
I0403 15:04:36.270885 31102 net.cpp:141] Setting up inception_4a/relu_1x1
I0403 15:04:36.270915 31102 net.cpp:148] Top shape: 24 192 14 14 (903168)
I0403 15:04:36.270932 31102 net.cpp:156] Memory required for data: 861623328
I0403 15:04:36.270948 31102 layer_factory.hpp:77] Creating layer inception_4a/3x3_reduce
I0403 15:04:36.270972 31102 net.cpp:91] Creating Layer inception_4a/3x3_reduce
I0403 15:04:36.270990 31102 net.cpp:425] inception_4a/3x3_reduce <- pool3/3x3_s2_pool3/3x3_s2_0_split_1
I0403 15:04:36.271010 31102 net.cpp:399] inception_4a/3x3_reduce -> inception_4a/3x3_reduce
I0403 15:04:36.272361 31102 net.cpp:141] Setting up inception_4a/3x3_reduce
I0403 15:04:36.272390 31102 net.cpp:148] Top shape: 24 96 14 14 (451584)
I0403 15:04:36.272406 31102 net.cpp:156] Memory required for data: 863429664
I0403 15:04:36.272433 31102 layer_factory.hpp:77] Creating layer inception_4a/relu_3x3_reduce
I0403 15:04:36.272454 31102 net.cpp:91] Creating Layer inception_4a/relu_3x3_reduce
I0403 15:04:36.272470 31102 net.cpp:425] inception_4a/relu_3x3_reduce <- inception_4a/3x3_reduce
I0403 15:04:36.272490 31102 net.cpp:386] inception_4a/relu_3x3_reduce -> inception_4a/3x3_reduce (in-place)
I0403 15:04:36.272686 31102 net.cpp:141] Setting up inception_4a/relu_3x3_reduce
I0403 15:04:36.272716 31102 net.cpp:148] Top shape: 24 96 14 14 (451584)
I0403 15:04:36.272732 31102 net.cpp:156] Memory required for data: 865236000
I0403 15:04:36.272753 31102 layer_factory.hpp:77] Creating layer inception_4a/3x3
I0403 15:04:36.272778 31102 net.cpp:91] Creating Layer inception_4a/3x3
I0403 15:04:36.272799 31102 net.cpp:425] inception_4a/3x3 <- inception_4a/3x3_reduce
I0403 15:04:36.272819 31102 net.cpp:399] inception_4a/3x3 -> inception_4a/3x3
I0403 15:04:36.275667 31102 net.cpp:141] Setting up inception_4a/3x3
I0403 15:04:36.275702 31102 net.cpp:148] Top shape: 24 208 14 14 (978432)
I0403 15:04:36.275720 31102 net.cpp:156] Memory required for data: 869149728
I0403 15:04:36.275741 31102 layer_factory.hpp:77] Creating layer inception_4a/relu_3x3
I0403 15:04:36.275760 31102 net.cpp:91] Creating Layer inception_4a/relu_3x3
I0403 15:04:36.275779 31102 net.cpp:425] inception_4a/relu_3x3 <- inception_4a/3x3
I0403 15:04:36.275799 31102 net.cpp:386] inception_4a/relu_3x3 -> inception_4a/3x3 (in-place)
I0403 15:04:36.276092 31102 net.cpp:141] Setting up inception_4a/relu_3x3
I0403 15:04:36.276123 31102 net.cpp:148] Top shape: 24 208 14 14 (978432)
I0403 15:04:36.276139 31102 net.cpp:156] Memory required for data: 873063456
I0403 15:04:36.276155 31102 layer_factory.hpp:77] Creating layer inception_4a/5x5_reduce
I0403 15:04:36.276181 31102 net.cpp:91] Creating Layer inception_4a/5x5_reduce
I0403 15:04:36.276201 31102 net.cpp:425] inception_4a/5x5_reduce <- pool3/3x3_s2_pool3/3x3_s2_0_split_2
I0403 15:04:36.276221 31102 net.cpp:399] inception_4a/5x5_reduce -> inception_4a/5x5_reduce
I0403 15:04:36.277307 31102 net.cpp:141] Setting up inception_4a/5x5_reduce
I0403 15:04:36.277338 31102 net.cpp:148] Top shape: 24 16 14 14 (75264)
I0403 15:04:36.277354 31102 net.cpp:156] Memory required for data: 873364512
I0403 15:04:36.277374 31102 layer_factory.hpp:77] Creating layer inception_4a/relu_5x5_reduce
I0403 15:04:36.277395 31102 net.cpp:91] Creating Layer inception_4a/relu_5x5_reduce
I0403 15:04:36.277411 31102 net.cpp:425] inception_4a/relu_5x5_reduce <- inception_4a/5x5_reduce
I0403 15:04:36.277432 31102 net.cpp:386] inception_4a/relu_5x5_reduce -> inception_4a/5x5_reduce (in-place)
I0403 15:04:36.277638 31102 net.cpp:141] Setting up inception_4a/relu_5x5_reduce
I0403 15:04:36.277668 31102 net.cpp:148] Top shape: 24 16 14 14 (75264)
I0403 15:04:36.277684 31102 net.cpp:156] Memory required for data: 873665568
I0403 15:04:36.277710 31102 layer_factory.hpp:77] Creating layer inception_4a/5x5
I0403 15:04:36.277734 31102 net.cpp:91] Creating Layer inception_4a/5x5
I0403 15:04:36.277755 31102 net.cpp:425] inception_4a/5x5 <- inception_4a/5x5_reduce
I0403 15:04:36.277778 31102 net.cpp:399] inception_4a/5x5 -> inception_4a/5x5
I0403 15:04:36.278937 31102 net.cpp:141] Setting up inception_4a/5x5
I0403 15:04:36.278966 31102 net.cpp:148] Top shape: 24 48 14 14 (225792)
I0403 15:04:36.278982 31102 net.cpp:156] Memory required for data: 874568736
I0403 15:04:36.279001 31102 layer_factory.hpp:77] Creating layer inception_4a/relu_5x5
I0403 15:04:36.279024 31102 net.cpp:91] Creating Layer inception_4a/relu_5x5
I0403 15:04:36.279047 31102 net.cpp:425] inception_4a/relu_5x5 <- inception_4a/5x5
I0403 15:04:36.279067 31102 net.cpp:386] inception_4a/relu_5x5 -> inception_4a/5x5 (in-place)
I0403 15:04:36.279258 31102 net.cpp:141] Setting up inception_4a/relu_5x5
I0403 15:04:36.279284 31102 net.cpp:148] Top shape: 24 48 14 14 (225792)
I0403 15:04:36.279300 31102 net.cpp:156] Memory required for data: 875471904
I0403 15:04:36.279316 31102 layer_factory.hpp:77] Creating layer inception_4a/pool
I0403 15:04:36.279341 31102 net.cpp:91] Creating Layer inception_4a/pool
I0403 15:04:36.279364 31102 net.cpp:425] inception_4a/pool <- pool3/3x3_s2_pool3/3x3_s2_0_split_3
I0403 15:04:36.279384 31102 net.cpp:399] inception_4a/pool -> inception_4a/pool
I0403 15:04:36.279453 31102 net.cpp:141] Setting up inception_4a/pool
I0403 15:04:36.279481 31102 net.cpp:148] Top shape: 24 480 14 14 (2257920)
I0403 15:04:36.279502 31102 net.cpp:156] Memory required for data: 884503584
I0403 15:04:36.279523 31102 layer_factory.hpp:77] Creating layer inception_4a/pool_proj
I0403 15:04:36.279559 31102 net.cpp:91] Creating Layer inception_4a/pool_proj
I0403 15:04:36.279587 31102 net.cpp:425] inception_4a/pool_proj <- inception_4a/pool
I0403 15:04:36.279618 31102 net.cpp:399] inception_4a/pool_proj -> inception_4a/pool_proj
I0403 15:04:36.280860 31102 net.cpp:141] Setting up inception_4a/pool_proj
I0403 15:04:36.280903 31102 net.cpp:148] Top shape: 24 64 14 14 (301056)
I0403 15:04:36.280946 31102 net.cpp:156] Memory required for data: 885707808
I0403 15:04:36.280974 31102 layer_factory.hpp:77] Creating layer inception_4a/relu_pool_proj
I0403 15:04:36.281004 31102 net.cpp:91] Creating Layer inception_4a/relu_pool_proj
I0403 15:04:36.281031 31102 net.cpp:425] inception_4a/relu_pool_proj <- inception_4a/pool_proj
I0403 15:04:36.281055 31102 net.cpp:386] inception_4a/relu_pool_proj -> inception_4a/pool_proj (in-place)
I0403 15:04:36.281359 31102 net.cpp:141] Setting up inception_4a/relu_pool_proj
I0403 15:04:36.281396 31102 net.cpp:148] Top shape: 24 64 14 14 (301056)
I0403 15:04:36.281419 31102 net.cpp:156] Memory required for data: 886912032
I0403 15:04:36.281438 31102 layer_factory.hpp:77] Creating layer inception_4a/output
I0403 15:04:36.281467 31102 net.cpp:91] Creating Layer inception_4a/output
I0403 15:04:36.281494 31102 net.cpp:425] inception_4a/output <- inception_4a/1x1
I0403 15:04:36.281517 31102 net.cpp:425] inception_4a/output <- inception_4a/3x3
I0403 15:04:36.281556 31102 net.cpp:425] inception_4a/output <- inception_4a/5x5
I0403 15:04:36.281581 31102 net.cpp:425] inception_4a/output <- inception_4a/pool_proj
I0403 15:04:36.281606 31102 net.cpp:399] inception_4a/output -> inception_4a/output
I0403 15:04:36.281661 31102 net.cpp:141] Setting up inception_4a/output
I0403 15:04:36.281689 31102 net.cpp:148] Top shape: 24 512 14 14 (2408448)
I0403 15:04:36.281713 31102 net.cpp:156] Memory required for data: 896545824
I0403 15:04:36.281730 31102 layer_factory.hpp:77] Creating layer inception_4a/output_inception_4a/output_0_split
I0403 15:04:36.281759 31102 net.cpp:91] Creating Layer inception_4a/output_inception_4a/output_0_split
I0403 15:04:36.281782 31102 net.cpp:425] inception_4a/output_inception_4a/output_0_split <- inception_4a/output
I0403 15:04:36.281808 31102 net.cpp:399] inception_4a/output_inception_4a/output_0_split -> inception_4a/output_inception_4a/output_0_split_0
I0403 15:04:36.281834 31102 net.cpp:399] inception_4a/output_inception_4a/output_0_split -> inception_4a/output_inception_4a/output_0_split_1
I0403 15:04:36.281860 31102 net.cpp:399] inception_4a/output_inception_4a/output_0_split -> inception_4a/output_inception_4a/output_0_split_2
I0403 15:04:36.281888 31102 net.cpp:399] inception_4a/output_inception_4a/output_0_split -> inception_4a/output_inception_4a/output_0_split_3
I0403 15:04:36.281916 31102 net.cpp:399] inception_4a/output_inception_4a/output_0_split -> inception_4a/output_inception_4a/output_0_split_4
I0403 15:04:36.282024 31102 net.cpp:141] Setting up inception_4a/output_inception_4a/output_0_split
I0403 15:04:36.282057 31102 net.cpp:148] Top shape: 24 512 14 14 (2408448)
I0403 15:04:36.282085 31102 net.cpp:148] Top shape: 24 512 14 14 (2408448)
I0403 15:04:36.282109 31102 net.cpp:148] Top shape: 24 512 14 14 (2408448)
I0403 15:04:36.282129 31102 net.cpp:148] Top shape: 24 512 14 14 (2408448)
I0403 15:04:36.282151 31102 net.cpp:148] Top shape: 24 512 14 14 (2408448)
I0403 15:04:36.282168 31102 net.cpp:156] Memory required for data: 944714784
I0403 15:04:36.282193 31102 layer_factory.hpp:77] Creating layer loss1/ave_pool
I0403 15:04:36.282219 31102 net.cpp:91] Creating Layer loss1/ave_pool
I0403 15:04:36.282244 31102 net.cpp:425] loss1/ave_pool <- inception_4a/output_inception_4a/output_0_split_0
I0403 15:04:36.282269 31102 net.cpp:399] loss1/ave_pool -> loss1/ave_pool
I0403 15:04:36.282496 31102 net.cpp:141] Setting up loss1/ave_pool
I0403 15:04:36.282528 31102 net.cpp:148] Top shape: 24 512 4 4 (196608)
I0403 15:04:36.282555 31102 net.cpp:156] Memory required for data: 945501216
I0403 15:04:36.282572 31102 layer_factory.hpp:77] Creating layer loss1/conv
I0403 15:04:36.282598 31102 net.cpp:91] Creating Layer loss1/conv
I0403 15:04:36.282624 31102 net.cpp:425] loss1/conv <- loss1/ave_pool
I0403 15:04:36.282649 31102 net.cpp:399] loss1/conv -> loss1/conv
I0403 15:04:36.284157 31102 net.cpp:141] Setting up loss1/conv
I0403 15:04:36.284194 31102 net.cpp:148] Top shape: 24 128 4 4 (49152)
I0403 15:04:36.284230 31102 net.cpp:156] Memory required for data: 945697824
I0403 15:04:36.284260 31102 layer_factory.hpp:77] Creating layer loss1/relu_conv
I0403 15:04:36.284286 31102 net.cpp:91] Creating Layer loss1/relu_conv
I0403 15:04:36.284318 31102 net.cpp:425] loss1/relu_conv <- loss1/conv
I0403 15:04:36.284345 31102 net.cpp:386] loss1/relu_conv -> loss1/conv (in-place)
I0403 15:04:36.284664 31102 net.cpp:141] Setting up loss1/relu_conv
I0403 15:04:36.284703 31102 net.cpp:148] Top shape: 24 128 4 4 (49152)
I0403 15:04:36.284721 31102 net.cpp:156] Memory required for data: 945894432
I0403 15:04:36.284746 31102 layer_factory.hpp:77] Creating layer loss1/fc
I0403 15:04:36.284782 31102 net.cpp:91] Creating Layer loss1/fc
I0403 15:04:36.284809 31102 net.cpp:425] loss1/fc <- loss1/conv
I0403 15:04:36.284839 31102 net.cpp:399] loss1/fc -> loss1/fc
I0403 15:04:36.303313 31102 net.cpp:141] Setting up loss1/fc
I0403 15:04:36.303351 31102 net.cpp:148] Top shape: 24 1024 (24576)
I0403 15:04:36.303369 31102 net.cpp:156] Memory required for data: 945992736
I0403 15:04:36.303391 31102 layer_factory.hpp:77] Creating layer loss1/relu_fc
I0403 15:04:36.303414 31102 net.cpp:91] Creating Layer loss1/relu_fc
I0403 15:04:36.303434 31102 net.cpp:425] loss1/relu_fc <- loss1/fc
I0403 15:04:36.303455 31102 net.cpp:386] loss1/relu_fc -> loss1/fc (in-place)
I0403 15:04:36.303680 31102 net.cpp:141] Setting up loss1/relu_fc
I0403 15:04:36.303717 31102 net.cpp:148] Top shape: 24 1024 (24576)
I0403 15:04:36.303741 31102 net.cpp:156] Memory required for data: 946091040
I0403 15:04:36.303760 31102 layer_factory.hpp:77] Creating layer loss1/drop_fc
I0403 15:04:36.303794 31102 net.cpp:91] Creating Layer loss1/drop_fc
I0403 15:04:36.303825 31102 net.cpp:425] loss1/drop_fc <- loss1/fc
I0403 15:04:36.303848 31102 net.cpp:386] loss1/drop_fc -> loss1/fc (in-place)
I0403 15:04:36.303913 31102 net.cpp:141] Setting up loss1/drop_fc
I0403 15:04:36.303946 31102 net.cpp:148] Top shape: 24 1024 (24576)
I0403 15:04:36.303964 31102 net.cpp:156] Memory required for data: 946189344
I0403 15:04:36.303992 31102 layer_factory.hpp:77] Creating layer loss1/classifier_plantvillage
I0403 15:04:36.304023 31102 net.cpp:91] Creating Layer loss1/classifier_plantvillage
I0403 15:04:36.304050 31102 net.cpp:425] loss1/classifier_plantvillage <- loss1/fc
I0403 15:04:36.304074 31102 net.cpp:399] loss1/classifier_plantvillage -> loss1/classifier_plantvillage
I0403 15:04:36.305048 31102 net.cpp:141] Setting up loss1/classifier_plantvillage
I0403 15:04:36.305086 31102 net.cpp:148] Top shape: 24 38 (912)
I0403 15:04:36.305112 31102 net.cpp:156] Memory required for data: 946192992
I0403 15:04:36.305142 31102 layer_factory.hpp:77] Creating layer loss1/classifier_plantvillage_loss1/classifier_plantvillage_0_split
I0403 15:04:36.305173 31102 net.cpp:91] Creating Layer loss1/classifier_plantvillage_loss1/classifier_plantvillage_0_split
I0403 15:04:36.305194 31102 net.cpp:425] loss1/classifier_plantvillage_loss1/classifier_plantvillage_0_split <- loss1/classifier_plantvillage
I0403 15:04:36.305219 31102 net.cpp:399] loss1/classifier_plantvillage_loss1/classifier_plantvillage_0_split -> loss1/classifier_plantvillage_loss1/classifier_plantvillage_0_split_0
I0403 15:04:36.305250 31102 net.cpp:399] loss1/classifier_plantvillage_loss1/classifier_plantvillage_0_split -> loss1/classifier_plantvillage_loss1/classifier_plantvillage_0_split_1
I0403 15:04:36.305284 31102 net.cpp:399] loss1/classifier_plantvillage_loss1/classifier_plantvillage_0_split -> loss1/classifier_plantvillage_loss1/classifier_plantvillage_0_split_2
I0403 15:04:36.305361 31102 net.cpp:141] Setting up loss1/classifier_plantvillage_loss1/classifier_plantvillage_0_split
I0403 15:04:36.305402 31102 net.cpp:148] Top shape: 24 38 (912)
I0403 15:04:36.305428 31102 net.cpp:148] Top shape: 24 38 (912)
I0403 15:04:36.305456 31102 net.cpp:148] Top shape: 24 38 (912)
I0403 15:04:36.305479 31102 net.cpp:156] Memory required for data: 946203936
I0403 15:04:36.305500 31102 layer_factory.hpp:77] Creating layer inception_4b/1x1
I0403 15:04:36.305536 31102 net.cpp:91] Creating Layer inception_4b/1x1
I0403 15:04:36.305578 31102 net.cpp:425] inception_4b/1x1 <- inception_4a/output_inception_4a/output_0_split_1
I0403 15:04:36.305606 31102 net.cpp:399] inception_4b/1x1 -> inception_4b/1x1
I0403 15:04:36.307359 31102 net.cpp:141] Setting up inception_4b/1x1
I0403 15:04:36.307392 31102 net.cpp:148] Top shape: 24 160 14 14 (752640)
I0403 15:04:36.307410 31102 net.cpp:156] Memory required for data: 949214496
I0403 15:04:36.307430 31102 layer_factory.hpp:77] Creating layer inception_4b/relu_1x1
I0403 15:04:36.307451 31102 net.cpp:91] Creating Layer inception_4b/relu_1x1
I0403 15:04:36.307468 31102 net.cpp:425] inception_4b/relu_1x1 <- inception_4b/1x1
I0403 15:04:36.307492 31102 net.cpp:386] inception_4b/relu_1x1 -> inception_4b/1x1 (in-place)
I0403 15:04:36.307689 31102 net.cpp:141] Setting up inception_4b/relu_1x1
I0403 15:04:36.307718 31102 net.cpp:148] Top shape: 24 160 14 14 (752640)
I0403 15:04:36.307735 31102 net.cpp:156] Memory required for data: 952225056
I0403 15:04:36.307751 31102 layer_factory.hpp:77] Creating layer inception_4b/3x3_reduce
I0403 15:04:36.307776 31102 net.cpp:91] Creating Layer inception_4b/3x3_reduce
I0403 15:04:36.307796 31102 net.cpp:425] inception_4b/3x3_reduce <- inception_4a/output_inception_4a/output_0_split_2
I0403 15:04:36.307818 31102 net.cpp:399] inception_4b/3x3_reduce -> inception_4b/3x3_reduce
I0403 15:04:36.309248 31102 net.cpp:141] Setting up inception_4b/3x3_reduce
I0403 15:04:36.309278 31102 net.cpp:148] Top shape: 24 112 14 14 (526848)
I0403 15:04:36.309295 31102 net.cpp:156] Memory required for data: 954332448
I0403 15:04:36.309315 31102 layer_factory.hpp:77] Creating layer inception_4b/relu_3x3_reduce
I0403 15:04:36.309335 31102 net.cpp:91] Creating Layer inception_4b/relu_3x3_reduce
I0403 15:04:36.309353 31102 net.cpp:425] inception_4b/relu_3x3_reduce <- inception_4b/3x3_reduce
I0403 15:04:36.309375 31102 net.cpp:386] inception_4b/relu_3x3_reduce -> inception_4b/3x3_reduce (in-place)
I0403 15:04:36.309680 31102 net.cpp:141] Setting up inception_4b/relu_3x3_reduce
I0403 15:04:36.309710 31102 net.cpp:148] Top shape: 24 112 14 14 (526848)
I0403 15:04:36.309728 31102 net.cpp:156] Memory required for data: 956439840
I0403 15:04:36.309746 31102 layer_factory.hpp:77] Creating layer inception_4b/3x3
I0403 15:04:36.309772 31102 net.cpp:91] Creating Layer inception_4b/3x3
I0403 15:04:36.309793 31102 net.cpp:425] inception_4b/3x3 <- inception_4b/3x3_reduce
I0403 15:04:36.309824 31102 net.cpp:399] inception_4b/3x3 -> inception_4b/3x3
I0403 15:04:36.312989 31102 net.cpp:141] Setting up inception_4b/3x3
I0403 15:04:36.313020 31102 net.cpp:148] Top shape: 24 224 14 14 (1053696)
I0403 15:04:36.313037 31102 net.cpp:156] Memory required for data: 960654624
I0403 15:04:36.313056 31102 layer_factory.hpp:77] Creating layer inception_4b/relu_3x3
I0403 15:04:36.313077 31102 net.cpp:91] Creating Layer inception_4b/relu_3x3
I0403 15:04:36.313097 31102 net.cpp:425] inception_4b/relu_3x3 <- inception_4b/3x3
I0403 15:04:36.313115 31102 net.cpp:386] inception_4b/relu_3x3 -> inception_4b/3x3 (in-place)
I0403 15:04:36.313308 31102 net.cpp:141] Setting up inception_4b/relu_3x3
I0403 15:04:36.313344 31102 net.cpp:148] Top shape: 24 224 14 14 (1053696)
I0403 15:04:36.313367 31102 net.cpp:156] Memory required for data: 964869408
I0403 15:04:36.313391 31102 layer_factory.hpp:77] Creating layer inception_4b/5x5_reduce
I0403 15:04:36.313419 31102 net.cpp:91] Creating Layer inception_4b/5x5_reduce
I0403 15:04:36.313446 31102 net.cpp:425] inception_4b/5x5_reduce <- inception_4a/output_inception_4a/output_0_split_3
I0403 15:04:36.313477 31102 net.cpp:399] inception_4b/5x5_reduce -> inception_4b/5x5_reduce
I0403 15:04:36.314656 31102 net.cpp:141] Setting up inception_4b/5x5_reduce
I0403 15:04:36.314693 31102 net.cpp:148] Top shape: 24 24 14 14 (112896)
I0403 15:04:36.314718 31102 net.cpp:156] Memory required for data: 965320992
I0403 15:04:36.314739 31102 layer_factory.hpp:77] Creating layer inception_4b/relu_5x5_reduce
I0403 15:04:36.314764 31102 net.cpp:91] Creating Layer inception_4b/relu_5x5_reduce
I0403 15:04:36.314805 31102 net.cpp:425] inception_4b/relu_5x5_reduce <- inception_4b/5x5_reduce
I0403 15:04:36.314833 31102 net.cpp:386] inception_4b/relu_5x5_reduce -> inception_4b/5x5_reduce (in-place)
I0403 15:04:36.315043 31102 net.cpp:141] Setting up inception_4b/relu_5x5_reduce
I0403 15:04:36.315081 31102 net.cpp:148] Top shape: 24 24 14 14 (112896)
I0403 15:04:36.315099 31102 net.cpp:156] Memory required for data: 965772576
I0403 15:04:36.315119 31102 layer_factory.hpp:77] Creating layer inception_4b/5x5
I0403 15:04:36.315150 31102 net.cpp:91] Creating Layer inception_4b/5x5
I0403 15:04:36.315181 31102 net.cpp:425] inception_4b/5x5 <- inception_4b/5x5_reduce
I0403 15:04:36.315212 31102 net.cpp:399] inception_4b/5x5 -> inception_4b/5x5
I0403 15:04:36.316530 31102 net.cpp:141] Setting up inception_4b/5x5
I0403 15:04:36.316572 31102 net.cpp:148] Top shape: 24 64 14 14 (301056)
I0403 15:04:36.316592 31102 net.cpp:156] Memory required for data: 966976800
I0403 15:04:36.316619 31102 layer_factory.hpp:77] Creating layer inception_4b/relu_5x5
I0403 15:04:36.316648 31102 net.cpp:91] Creating Layer inception_4b/relu_5x5
I0403 15:04:36.316669 31102 net.cpp:425] inception_4b/relu_5x5 <- inception_4b/5x5
I0403 15:04:36.316699 31102 net.cpp:386] inception_4b/relu_5x5 -> inception_4b/5x5 (in-place)
I0403 15:04:36.317016 31102 net.cpp:141] Setting up inception_4b/relu_5x5
I0403 15:04:36.317052 31102 net.cpp:148] Top shape: 24 64 14 14 (301056)
I0403 15:04:36.317075 31102 net.cpp:156] Memory required for data: 968181024
I0403 15:04:36.317100 31102 layer_factory.hpp:77] Creating layer inception_4b/pool
I0403 15:04:36.317126 31102 net.cpp:91] Creating Layer inception_4b/pool
I0403 15:04:36.317147 31102 net.cpp:425] inception_4b/pool <- inception_4a/output_inception_4a/output_0_split_4
I0403 15:04:36.317178 31102 net.cpp:399] inception_4b/pool -> inception_4b/pool
I0403 15:04:36.317252 31102 net.cpp:141] Setting up inception_4b/pool
I0403 15:04:36.317283 31102 net.cpp:148] Top shape: 24 512 14 14 (2408448)
I0403 15:04:36.317306 31102 net.cpp:156] Memory required for data: 977814816
I0403 15:04:36.317328 31102 layer_factory.hpp:77] Creating layer inception_4b/pool_proj
I0403 15:04:36.317358 31102 net.cpp:91] Creating Layer inception_4b/pool_proj
I0403 15:04:36.317384 31102 net.cpp:425] inception_4b/pool_proj <- inception_4b/pool
I0403 15:04:36.317410 31102 net.cpp:399] inception_4b/pool_proj -> inception_4b/pool_proj
I0403 15:04:36.318711 31102 net.cpp:141] Setting up inception_4b/pool_proj
I0403 15:04:36.318753 31102 net.cpp:148] Top shape: 24 64 14 14 (301056)
I0403 15:04:36.318773 31102 net.cpp:156] Memory required for data: 979019040
I0403 15:04:36.318799 31102 layer_factory.hpp:77] Creating layer inception_4b/relu_pool_proj
I0403 15:04:36.318822 31102 net.cpp:91] Creating Layer inception_4b/relu_pool_proj
I0403 15:04:36.318843 31102 net.cpp:425] inception_4b/relu_pool_proj <- inception_4b/pool_proj
I0403 15:04:36.318871 31102 net.cpp:386] inception_4b/relu_pool_proj -> inception_4b/pool_proj (in-place)
I0403 15:04:36.319078 31102 net.cpp:141] Setting up inception_4b/relu_pool_proj
I0403 15:04:36.319114 31102 net.cpp:148] Top shape: 24 64 14 14 (301056)
I0403 15:04:36.319138 31102 net.cpp:156] Memory required for data: 980223264
I0403 15:04:36.319159 31102 layer_factory.hpp:77] Creating layer inception_4b/output
I0403 15:04:36.319185 31102 net.cpp:91] Creating Layer inception_4b/output
I0403 15:04:36.319206 31102 net.cpp:425] inception_4b/output <- inception_4b/1x1
I0403 15:04:36.319226 31102 net.cpp:425] inception_4b/output <- inception_4b/3x3
I0403 15:04:36.319253 31102 net.cpp:425] inception_4b/output <- inception_4b/5x5
I0403 15:04:36.319278 31102 net.cpp:425] inception_4b/output <- inception_4b/pool_proj
I0403 15:04:36.319309 31102 net.cpp:399] inception_4b/output -> inception_4b/output
I0403 15:04:36.319363 31102 net.cpp:141] Setting up inception_4b/output
I0403 15:04:36.319396 31102 net.cpp:148] Top shape: 24 512 14 14 (2408448)
I0403 15:04:36.319416 31102 net.cpp:156] Memory required for data: 989857056
I0403 15:04:36.319450 31102 layer_factory.hpp:77] Creating layer inception_4b/output_inception_4b/output_0_split
I0403 15:04:36.319480 31102 net.cpp:91] Creating Layer inception_4b/output_inception_4b/output_0_split
I0403 15:04:36.319502 31102 net.cpp:425] inception_4b/output_inception_4b/output_0_split <- inception_4b/output
I0403 15:04:36.319525 31102 net.cpp:399] inception_4b/output_inception_4b/output_0_split -> inception_4b/output_inception_4b/output_0_split_0
I0403 15:04:36.319555 31102 net.cpp:399] inception_4b/output_inception_4b/output_0_split -> inception_4b/output_inception_4b/output_0_split_1
I0403 15:04:36.319583 31102 net.cpp:399] inception_4b/output_inception_4b/output_0_split -> inception_4b/output_inception_4b/output_0_split_2
I0403 15:04:36.319610 31102 net.cpp:399] inception_4b/output_inception_4b/output_0_split -> inception_4b/output_inception_4b/output_0_split_3
I0403 15:04:36.319706 31102 net.cpp:141] Setting up inception_4b/output_inception_4b/output_0_split
I0403 15:04:36.319746 31102 net.cpp:148] Top shape: 24 512 14 14 (2408448)
I0403 15:04:36.319767 31102 net.cpp:148] Top shape: 24 512 14 14 (2408448)
I0403 15:04:36.319788 31102 net.cpp:148] Top shape: 24 512 14 14 (2408448)
I0403 15:04:36.319808 31102 net.cpp:148] Top shape: 24 512 14 14 (2408448)
I0403 15:04:36.319828 31102 net.cpp:156] Memory required for data: 1028392224
I0403 15:04:36.319849 31102 layer_factory.hpp:77] Creating layer inception_4c/1x1
I0403 15:04:36.319881 31102 net.cpp:91] Creating Layer inception_4c/1x1
I0403 15:04:36.319905 31102 net.cpp:425] inception_4c/1x1 <- inception_4b/output_inception_4b/output_0_split_0
I0403 15:04:36.319932 31102 net.cpp:399] inception_4c/1x1 -> inception_4c/1x1
I0403 15:04:36.321466 31102 net.cpp:141] Setting up inception_4c/1x1
I0403 15:04:36.321514 31102 net.cpp:148] Top shape: 24 128 14 14 (602112)
I0403 15:04:36.321575 31102 net.cpp:156] Memory required for data: 1030800672
I0403 15:04:36.321619 31102 layer_factory.hpp:77] Creating layer inception_4c/relu_1x1
I0403 15:04:36.321652 31102 net.cpp:91] Creating Layer inception_4c/relu_1x1
I0403 15:04:36.321681 31102 net.cpp:425] inception_4c/relu_1x1 <- inception_4c/1x1
I0403 15:04:36.321702 31102 net.cpp:386] inception_4c/relu_1x1 -> inception_4c/1x1 (in-place)
I0403 15:04:36.321908 31102 net.cpp:141] Setting up inception_4c/relu_1x1
I0403 15:04:36.321941 31102 net.cpp:148] Top shape: 24 128 14 14 (602112)
I0403 15:04:36.321964 31102 net.cpp:156] Memory required for data: 1033209120
I0403 15:04:36.321987 31102 layer_factory.hpp:77] Creating layer inception_4c/3x3_reduce
I0403 15:04:36.322013 31102 net.cpp:91] Creating Layer inception_4c/3x3_reduce
I0403 15:04:36.322038 31102 net.cpp:425] inception_4c/3x3_reduce <- inception_4b/output_inception_4b/output_0_split_1
I0403 15:04:36.322067 31102 net.cpp:399] inception_4c/3x3_reduce -> inception_4c/3x3_reduce
I0403 15:04:36.324139 31102 net.cpp:141] Setting up inception_4c/3x3_reduce
I0403 15:04:36.324179 31102 net.cpp:148] Top shape: 24 128 14 14 (602112)
I0403 15:04:36.324200 31102 net.cpp:156] Memory required for data: 1035617568
I0403 15:04:36.324230 31102 layer_factory.hpp:77] Creating layer inception_4c/relu_3x3_reduce
I0403 15:04:36.324252 31102 net.cpp:91] Creating Layer inception_4c/relu_3x3_reduce
I0403 15:04:36.324270 31102 net.cpp:425] inception_4c/relu_3x3_reduce <- inception_4c/3x3_reduce
I0403 15:04:36.324297 31102 net.cpp:386] inception_4c/relu_3x3_reduce -> inception_4c/3x3_reduce (in-place)
I0403 15:04:36.324620 31102 net.cpp:141] Setting up inception_4c/relu_3x3_reduce
I0403 15:04:36.324656 31102 net.cpp:148] Top shape: 24 128 14 14 (602112)
I0403 15:04:36.324678 31102 net.cpp:156] Memory required for data: 1038026016
I0403 15:04:36.324702 31102 layer_factory.hpp:77] Creating layer inception_4c/3x3
I0403 15:04:36.324728 31102 net.cpp:91] Creating Layer inception_4c/3x3
I0403 15:04:36.324754 31102 net.cpp:425] inception_4c/3x3 <- inception_4c/3x3_reduce
I0403 15:04:36.324781 31102 net.cpp:399] inception_4c/3x3 -> inception_4c/3x3
I0403 15:04:36.328625 31102 net.cpp:141] Setting up inception_4c/3x3
I0403 15:04:36.328675 31102 net.cpp:148] Top shape: 24 256 14 14 (1204224)
I0403 15:04:36.328699 31102 net.cpp:156] Memory required for data: 1042842912
I0403 15:04:36.328740 31102 layer_factory.hpp:77] Creating layer inception_4c/relu_3x3
I0403 15:04:36.328773 31102 net.cpp:91] Creating Layer inception_4c/relu_3x3
I0403 15:04:36.328790 31102 net.cpp:425] inception_4c/relu_3x3 <- inception_4c/3x3
I0403 15:04:36.328817 31102 net.cpp:386] inception_4c/relu_3x3 -> inception_4c/3x3 (in-place)
I0403 15:04:36.329020 31102 net.cpp:141] Setting up inception_4c/relu_3x3
I0403 15:04:36.329053 31102 net.cpp:148] Top shape: 24 256 14 14 (1204224)
I0403 15:04:36.329078 31102 net.cpp:156] Memory required for data: 1047659808
I0403 15:04:36.329102 31102 layer_factory.hpp:77] Creating layer inception_4c/5x5_reduce
I0403 15:04:36.329133 31102 net.cpp:91] Creating Layer inception_4c/5x5_reduce
I0403 15:04:36.329159 31102 net.cpp:425] inception_4c/5x5_reduce <- inception_4b/output_inception_4b/output_0_split_2
I0403 15:04:36.329183 31102 net.cpp:399] inception_4c/5x5_reduce -> inception_4c/5x5_reduce
I0403 15:04:36.330351 31102 net.cpp:141] Setting up inception_4c/5x5_reduce
I0403 15:04:36.330386 31102 net.cpp:148] Top shape: 24 24 14 14 (112896)
I0403 15:04:36.330411 31102 net.cpp:156] Memory required for data: 1048111392
I0403 15:04:36.330440 31102 layer_factory.hpp:77] Creating layer inception_4c/relu_5x5_reduce
I0403 15:04:36.330461 31102 net.cpp:91] Creating Layer inception_4c/relu_5x5_reduce
I0403 15:04:36.330484 31102 net.cpp:425] inception_4c/relu_5x5_reduce <- inception_4c/5x5_reduce
I0403 15:04:36.330513 31102 net.cpp:386] inception_4c/relu_5x5_reduce -> inception_4c/5x5_reduce (in-place)
I0403 15:04:36.330716 31102 net.cpp:141] Setting up inception_4c/relu_5x5_reduce
I0403 15:04:36.330744 31102 net.cpp:148] Top shape: 24 24 14 14 (112896)
I0403 15:04:36.330760 31102 net.cpp:156] Memory required for data: 1048562976
I0403 15:04:36.330777 31102 layer_factory.hpp:77] Creating layer inception_4c/5x5
I0403 15:04:36.330801 31102 net.cpp:91] Creating Layer inception_4c/5x5
I0403 15:04:36.330819 31102 net.cpp:425] inception_4c/5x5 <- inception_4c/5x5_reduce
I0403 15:04:36.330840 31102 net.cpp:399] inception_4c/5x5 -> inception_4c/5x5
I0403 15:04:36.332175 31102 net.cpp:141] Setting up inception_4c/5x5
I0403 15:04:36.332208 31102 net.cpp:148] Top shape: 24 64 14 14 (301056)
I0403 15:04:36.332231 31102 net.cpp:156] Memory required for data: 1049767200
I0403 15:04:36.332257 31102 layer_factory.hpp:77] Creating layer inception_4c/relu_5x5
I0403 15:04:36.332288 31102 net.cpp:91] Creating Layer inception_4c/relu_5x5
I0403 15:04:36.332307 31102 net.cpp:425] inception_4c/relu_5x5 <- inception_4c/5x5
I0403 15:04:36.332326 31102 net.cpp:386] inception_4c/relu_5x5 -> inception_4c/5x5 (in-place)
I0403 15:04:36.332645 31102 net.cpp:141] Setting up inception_4c/relu_5x5
I0403 15:04:36.332677 31102 net.cpp:148] Top shape: 24 64 14 14 (301056)
I0403 15:04:36.332697 31102 net.cpp:156] Memory required for data: 1050971424
I0403 15:04:36.332721 31102 layer_factory.hpp:77] Creating layer inception_4c/pool
I0403 15:04:36.332741 31102 net.cpp:91] Creating Layer inception_4c/pool
I0403 15:04:36.332762 31102 net.cpp:425] inception_4c/pool <- inception_4b/output_inception_4b/output_0_split_3
I0403 15:04:36.332792 31102 net.cpp:399] inception_4c/pool -> inception_4c/pool
I0403 15:04:36.332873 31102 net.cpp:141] Setting up inception_4c/pool
I0403 15:04:36.332906 31102 net.cpp:148] Top shape: 24 512 14 14 (2408448)
I0403 15:04:36.332928 31102 net.cpp:156] Memory required for data: 1060605216
I0403 15:04:36.332952 31102 layer_factory.hpp:77] Creating layer inception_4c/pool_proj
I0403 15:04:36.332984 31102 net.cpp:91] Creating Layer inception_4c/pool_proj
I0403 15:04:36.333010 31102 net.cpp:425] inception_4c/pool_proj <- inception_4c/pool
I0403 15:04:36.333036 31102 net.cpp:399] inception_4c/pool_proj -> inception_4c/pool_proj
I0403 15:04:36.334355 31102 net.cpp:141] Setting up inception_4c/pool_proj
I0403 15:04:36.334394 31102 net.cpp:148] Top shape: 24 64 14 14 (301056)
I0403 15:04:36.334427 31102 net.cpp:156] Memory required for data: 1061809440
I0403 15:04:36.334452 31102 layer_factory.hpp:77] Creating layer inception_4c/relu_pool_proj
I0403 15:04:36.334477 31102 net.cpp:91] Creating Layer inception_4c/relu_pool_proj
I0403 15:04:36.334503 31102 net.cpp:425] inception_4c/relu_pool_proj <- inception_4c/pool_proj
I0403 15:04:36.334527 31102 net.cpp:386] inception_4c/relu_pool_proj -> inception_4c/pool_proj (in-place)
I0403 15:04:36.334741 31102 net.cpp:141] Setting up inception_4c/relu_pool_proj
I0403 15:04:36.334769 31102 net.cpp:148] Top shape: 24 64 14 14 (301056)
I0403 15:04:36.334784 31102 net.cpp:156] Memory required for data: 1063013664
I0403 15:04:36.334800 31102 layer_factory.hpp:77] Creating layer inception_4c/output
I0403 15:04:36.334818 31102 net.cpp:91] Creating Layer inception_4c/output
I0403 15:04:36.334836 31102 net.cpp:425] inception_4c/output <- inception_4c/1x1
I0403 15:04:36.334853 31102 net.cpp:425] inception_4c/output <- inception_4c/3x3
I0403 15:04:36.334870 31102 net.cpp:425] inception_4c/output <- inception_4c/5x5
I0403 15:04:36.334888 31102 net.cpp:425] inception_4c/output <- inception_4c/pool_proj
I0403 15:04:36.334909 31102 net.cpp:399] inception_4c/output -> inception_4c/output
I0403 15:04:36.334970 31102 net.cpp:141] Setting up inception_4c/output
I0403 15:04:36.335000 31102 net.cpp:148] Top shape: 24 512 14 14 (2408448)
I0403 15:04:36.335026 31102 net.cpp:156] Memory required for data: 1072647456
I0403 15:04:36.335048 31102 layer_factory.hpp:77] Creating layer inception_4c/output_inception_4c/output_0_split
I0403 15:04:36.335070 31102 net.cpp:91] Creating Layer inception_4c/output_inception_4c/output_0_split
I0403 15:04:36.335088 31102 net.cpp:425] inception_4c/output_inception_4c/output_0_split <- inception_4c/output
I0403 15:04:36.335115 31102 net.cpp:399] inception_4c/output_inception_4c/output_0_split -> inception_4c/output_inception_4c/output_0_split_0
I0403 15:04:36.335140 31102 net.cpp:399] inception_4c/output_inception_4c/output_0_split -> inception_4c/output_inception_4c/output_0_split_1
I0403 15:04:36.335170 31102 net.cpp:399] inception_4c/output_inception_4c/output_0_split -> inception_4c/output_inception_4c/output_0_split_2
I0403 15:04:36.335193 31102 net.cpp:399] inception_4c/output_inception_4c/output_0_split -> inception_4c/output_inception_4c/output_0_split_3
I0403 15:04:36.335292 31102 net.cpp:141] Setting up inception_4c/output_inception_4c/output_0_split
I0403 15:04:36.335324 31102 net.cpp:148] Top shape: 24 512 14 14 (2408448)
I0403 15:04:36.335342 31102 net.cpp:148] Top shape: 24 512 14 14 (2408448)
I0403 15:04:36.335360 31102 net.cpp:148] Top shape: 24 512 14 14 (2408448)
I0403 15:04:36.335382 31102 net.cpp:148] Top shape: 24 512 14 14 (2408448)
I0403 15:04:36.335404 31102 net.cpp:156] Memory required for data: 1111182624
I0403 15:04:36.335427 31102 layer_factory.hpp:77] Creating layer inception_4d/1x1
I0403 15:04:36.335451 31102 net.cpp:91] Creating Layer inception_4d/1x1
I0403 15:04:36.335469 31102 net.cpp:425] inception_4d/1x1 <- inception_4c/output_inception_4c/output_0_split_0
I0403 15:04:36.335489 31102 net.cpp:399] inception_4d/1x1 -> inception_4d/1x1
I0403 15:04:36.336974 31102 net.cpp:141] Setting up inception_4d/1x1
I0403 15:04:36.337004 31102 net.cpp:148] Top shape: 24 112 14 14 (526848)
I0403 15:04:36.337020 31102 net.cpp:156] Memory required for data: 1113290016
I0403 15:04:36.337040 31102 layer_factory.hpp:77] Creating layer inception_4d/relu_1x1
I0403 15:04:36.337062 31102 net.cpp:91] Creating Layer inception_4d/relu_1x1
I0403 15:04:36.337080 31102 net.cpp:425] inception_4d/relu_1x1 <- inception_4d/1x1
I0403 15:04:36.337098 31102 net.cpp:386] inception_4d/relu_1x1 -> inception_4d/1x1 (in-place)
I0403 15:04:36.337298 31102 net.cpp:141] Setting up inception_4d/relu_1x1
I0403 15:04:36.337329 31102 net.cpp:148] Top shape: 24 112 14 14 (526848)
I0403 15:04:36.337352 31102 net.cpp:156] Memory required for data: 1115397408
I0403 15:04:36.337376 31102 layer_factory.hpp:77] Creating layer inception_4d/3x3_reduce
I0403 15:04:36.337424 31102 net.cpp:91] Creating Layer inception_4d/3x3_reduce
I0403 15:04:36.337450 31102 net.cpp:425] inception_4d/3x3_reduce <- inception_4c/output_inception_4c/output_0_split_1
I0403 15:04:36.337487 31102 net.cpp:399] inception_4d/3x3_reduce -> inception_4d/3x3_reduce
I0403 15:04:36.339115 31102 net.cpp:141] Setting up inception_4d/3x3_reduce
I0403 15:04:36.339151 31102 net.cpp:148] Top shape: 24 144 14 14 (677376)
I0403 15:04:36.339175 31102 net.cpp:156] Memory required for data: 1118106912
I0403 15:04:36.339197 31102 layer_factory.hpp:77] Creating layer inception_4d/relu_3x3_reduce
I0403 15:04:36.339226 31102 net.cpp:91] Creating Layer inception_4d/relu_3x3_reduce
I0403 15:04:36.339252 31102 net.cpp:425] inception_4d/relu_3x3_reduce <- inception_4d/3x3_reduce
I0403 15:04:36.339278 31102 net.cpp:386] inception_4d/relu_3x3_reduce -> inception_4d/3x3_reduce (in-place)
I0403 15:04:36.339601 31102 net.cpp:141] Setting up inception_4d/relu_3x3_reduce
I0403 15:04:36.339629 31102 net.cpp:148] Top shape: 24 144 14 14 (677376)
I0403 15:04:36.339645 31102 net.cpp:156] Memory required for data: 1120816416
I0403 15:04:36.339661 31102 layer_factory.hpp:77] Creating layer inception_4d/3x3
I0403 15:04:36.339686 31102 net.cpp:91] Creating Layer inception_4d/3x3
I0403 15:04:36.339705 31102 net.cpp:425] inception_4d/3x3 <- inception_4d/3x3_reduce
I0403 15:04:36.339730 31102 net.cpp:399] inception_4d/3x3 -> inception_4d/3x3
I0403 15:04:36.360517 31102 net.cpp:141] Setting up inception_4d/3x3
I0403 15:04:36.360561 31102 net.cpp:148] Top shape: 24 288 14 14 (1354752)
I0403 15:04:36.360587 31102 net.cpp:156] Memory required for data: 1126235424
I0403 15:04:36.360615 31102 layer_factory.hpp:77] Creating layer inception_4d/relu_3x3
I0403 15:04:36.360637 31102 net.cpp:91] Creating Layer inception_4d/relu_3x3
I0403 15:04:36.360657 31102 net.cpp:425] inception_4d/relu_3x3 <- inception_4d/3x3
I0403 15:04:36.360680 31102 net.cpp:386] inception_4d/relu_3x3 -> inception_4d/3x3 (in-place)
I0403 15:04:36.360895 31102 net.cpp:141] Setting up inception_4d/relu_3x3
I0403 15:04:36.360929 31102 net.cpp:148] Top shape: 24 288 14 14 (1354752)
I0403 15:04:36.360946 31102 net.cpp:156] Memory required for data: 1131654432
I0403 15:04:36.360962 31102 layer_factory.hpp:77] Creating layer inception_4d/5x5_reduce
I0403 15:04:36.360993 31102 net.cpp:91] Creating Layer inception_4d/5x5_reduce
I0403 15:04:36.361013 31102 net.cpp:425] inception_4d/5x5_reduce <- inception_4c/output_inception_4c/output_0_split_2
I0403 15:04:36.361042 31102 net.cpp:399] inception_4d/5x5_reduce -> inception_4d/5x5_reduce
I0403 15:04:36.362277 31102 net.cpp:141] Setting up inception_4d/5x5_reduce
I0403 15:04:36.362311 31102 net.cpp:148] Top shape: 24 32 14 14 (150528)
I0403 15:04:36.362331 31102 net.cpp:156] Memory required for data: 1132256544
I0403 15:04:36.362355 31102 layer_factory.hpp:77] Creating layer inception_4d/relu_5x5_reduce
I0403 15:04:36.362385 31102 net.cpp:91] Creating Layer inception_4d/relu_5x5_reduce
I0403 15:04:36.362403 31102 net.cpp:425] inception_4d/relu_5x5_reduce <- inception_4d/5x5_reduce
I0403 15:04:36.362426 31102 net.cpp:386] inception_4d/relu_5x5_reduce -> inception_4d/5x5_reduce (in-place)
I0403 15:04:36.362643 31102 net.cpp:141] Setting up inception_4d/relu_5x5_reduce
I0403 15:04:36.362675 31102 net.cpp:148] Top shape: 24 32 14 14 (150528)
I0403 15:04:36.362699 31102 net.cpp:156] Memory required for data: 1132858656
I0403 15:04:36.362723 31102 layer_factory.hpp:77] Creating layer inception_4d/5x5
I0403 15:04:36.362753 31102 net.cpp:91] Creating Layer inception_4d/5x5
I0403 15:04:36.362782 31102 net.cpp:425] inception_4d/5x5 <- inception_4d/5x5_reduce
I0403 15:04:36.362813 31102 net.cpp:399] inception_4d/5x5 -> inception_4d/5x5
I0403 15:04:36.364409 31102 net.cpp:141] Setting up inception_4d/5x5
I0403 15:04:36.364439 31102 net.cpp:148] Top shape: 24 64 14 14 (301056)
I0403 15:04:36.364455 31102 net.cpp:156] Memory required for data: 1134062880
I0403 15:04:36.364475 31102 layer_factory.hpp:77] Creating layer inception_4d/relu_5x5
I0403 15:04:36.364511 31102 net.cpp:91] Creating Layer inception_4d/relu_5x5
I0403 15:04:36.364528 31102 net.cpp:425] inception_4d/relu_5x5 <- inception_4d/5x5
I0403 15:04:36.364565 31102 net.cpp:386] inception_4d/relu_5x5 -> inception_4d/5x5 (in-place)
I0403 15:04:36.364897 31102 net.cpp:141] Setting up inception_4d/relu_5x5
I0403 15:04:36.364933 31102 net.cpp:148] Top shape: 24 64 14 14 (301056)
I0403 15:04:36.364955 31102 net.cpp:156] Memory required for data: 1135267104
I0403 15:04:36.364972 31102 layer_factory.hpp:77] Creating layer inception_4d/pool
I0403 15:04:36.365000 31102 net.cpp:91] Creating Layer inception_4d/pool
I0403 15:04:36.365026 31102 net.cpp:425] inception_4d/pool <- inception_4c/output_inception_4c/output_0_split_3
I0403 15:04:36.365053 31102 net.cpp:399] inception_4d/pool -> inception_4d/pool
I0403 15:04:36.365131 31102 net.cpp:141] Setting up inception_4d/pool
I0403 15:04:36.365164 31102 net.cpp:148] Top shape: 24 512 14 14 (2408448)
I0403 15:04:36.365188 31102 net.cpp:156] Memory required for data: 1144900896
I0403 15:04:36.365206 31102 layer_factory.hpp:77] Creating layer inception_4d/pool_proj
I0403 15:04:36.365237 31102 net.cpp:91] Creating Layer inception_4d/pool_proj
I0403 15:04:36.365262 31102 net.cpp:425] inception_4d/pool_proj <- inception_4d/pool
I0403 15:04:36.365285 31102 net.cpp:399] inception_4d/pool_proj -> inception_4d/pool_proj
I0403 15:04:36.367179 31102 net.cpp:141] Setting up inception_4d/pool_proj
I0403 15:04:36.367220 31102 net.cpp:148] Top shape: 24 64 14 14 (301056)
I0403 15:04:36.367245 31102 net.cpp:156] Memory required for data: 1146105120
I0403 15:04:36.367267 31102 layer_factory.hpp:77] Creating layer inception_4d/relu_pool_proj
I0403 15:04:36.367296 31102 net.cpp:91] Creating Layer inception_4d/relu_pool_proj
I0403 15:04:36.367317 31102 net.cpp:425] inception_4d/relu_pool_proj <- inception_4d/pool_proj
I0403 15:04:36.367343 31102 net.cpp:386] inception_4d/relu_pool_proj -> inception_4d/pool_proj (in-place)
I0403 15:04:36.367558 31102 net.cpp:141] Setting up inception_4d/relu_pool_proj
I0403 15:04:36.367593 31102 net.cpp:148] Top shape: 24 64 14 14 (301056)
I0403 15:04:36.367614 31102 net.cpp:156] Memory required for data: 1147309344
I0403 15:04:36.367635 31102 layer_factory.hpp:77] Creating layer inception_4d/output
I0403 15:04:36.367656 31102 net.cpp:91] Creating Layer inception_4d/output
I0403 15:04:36.367677 31102 net.cpp:425] inception_4d/output <- inception_4d/1x1
I0403 15:04:36.367699 31102 net.cpp:425] inception_4d/output <- inception_4d/3x3
I0403 15:04:36.367725 31102 net.cpp:425] inception_4d/output <- inception_4d/5x5
I0403 15:04:36.367745 31102 net.cpp:425] inception_4d/output <- inception_4d/pool_proj
I0403 15:04:36.367771 31102 net.cpp:399] inception_4d/output -> inception_4d/output
I0403 15:04:36.367826 31102 net.cpp:141] Setting up inception_4d/output
I0403 15:04:36.367857 31102 net.cpp:148] Top shape: 24 528 14 14 (2483712)
I0403 15:04:36.367877 31102 net.cpp:156] Memory required for data: 1157244192
I0403 15:04:36.367897 31102 layer_factory.hpp:77] Creating layer inception_4d/output_inception_4d/output_0_split
I0403 15:04:36.367925 31102 net.cpp:91] Creating Layer inception_4d/output_inception_4d/output_0_split
I0403 15:04:36.367951 31102 net.cpp:425] inception_4d/output_inception_4d/output_0_split <- inception_4d/output
I0403 15:04:36.367985 31102 net.cpp:399] inception_4d/output_inception_4d/output_0_split -> inception_4d/output_inception_4d/output_0_split_0
I0403 15:04:36.368008 31102 net.cpp:399] inception_4d/output_inception_4d/output_0_split -> inception_4d/output_inception_4d/output_0_split_1
I0403 15:04:36.368039 31102 net.cpp:399] inception_4d/output_inception_4d/output_0_split -> inception_4d/output_inception_4d/output_0_split_2
I0403 15:04:36.368062 31102 net.cpp:399] inception_4d/output_inception_4d/output_0_split -> inception_4d/output_inception_4d/output_0_split_3
I0403 15:04:36.368084 31102 net.cpp:399] inception_4d/output_inception_4d/output_0_split -> inception_4d/output_inception_4d/output_0_split_4
I0403 15:04:36.368196 31102 net.cpp:141] Setting up inception_4d/output_inception_4d/output_0_split
I0403 15:04:36.368233 31102 net.cpp:148] Top shape: 24 528 14 14 (2483712)
I0403 15:04:36.368252 31102 net.cpp:148] Top shape: 24 528 14 14 (2483712)
I0403 15:04:36.368268 31102 net.cpp:148] Top shape: 24 528 14 14 (2483712)
I0403 15:04:36.368283 31102 net.cpp:148] Top shape: 24 528 14 14 (2483712)
I0403 15:04:36.368300 31102 net.cpp:148] Top shape: 24 528 14 14 (2483712)
I0403 15:04:36.368314 31102 net.cpp:156] Memory required for data: 1206918432
I0403 15:04:36.368330 31102 layer_factory.hpp:77] Creating layer loss2/ave_pool
I0403 15:04:36.368352 31102 net.cpp:91] Creating Layer loss2/ave_pool
I0403 15:04:36.368371 31102 net.cpp:425] loss2/ave_pool <- inception_4d/output_inception_4d/output_0_split_0
I0403 15:04:36.368391 31102 net.cpp:399] loss2/ave_pool -> loss2/ave_pool
I0403 15:04:36.368731 31102 net.cpp:141] Setting up loss2/ave_pool
I0403 15:04:36.368760 31102 net.cpp:148] Top shape: 24 528 4 4 (202752)
I0403 15:04:36.368777 31102 net.cpp:156] Memory required for data: 1207729440
I0403 15:04:36.368793 31102 layer_factory.hpp:77] Creating layer loss2/conv
I0403 15:04:36.368818 31102 net.cpp:91] Creating Layer loss2/conv
I0403 15:04:36.368836 31102 net.cpp:425] loss2/conv <- loss2/ave_pool
I0403 15:04:36.368856 31102 net.cpp:399] loss2/conv -> loss2/conv
I0403 15:04:36.370889 31102 net.cpp:141] Setting up loss2/conv
I0403 15:04:36.370919 31102 net.cpp:148] Top shape: 24 128 4 4 (49152)
I0403 15:04:36.370936 31102 net.cpp:156] Memory required for data: 1207926048
I0403 15:04:36.370956 31102 layer_factory.hpp:77] Creating layer loss2/relu_conv
I0403 15:04:36.370978 31102 net.cpp:91] Creating Layer loss2/relu_conv
I0403 15:04:36.370996 31102 net.cpp:425] loss2/relu_conv <- loss2/conv
I0403 15:04:36.371016 31102 net.cpp:386] loss2/relu_conv -> loss2/conv (in-place)
I0403 15:04:36.371321 31102 net.cpp:141] Setting up loss2/relu_conv
I0403 15:04:36.371351 31102 net.cpp:148] Top shape: 24 128 4 4 (49152)
I0403 15:04:36.371366 31102 net.cpp:156] Memory required for data: 1208122656
I0403 15:04:36.371382 31102 layer_factory.hpp:77] Creating layer loss2/fc
I0403 15:04:36.371407 31102 net.cpp:91] Creating Layer loss2/fc
I0403 15:04:36.371424 31102 net.cpp:425] loss2/fc <- loss2/conv
I0403 15:04:36.371443 31102 net.cpp:399] loss2/fc -> loss2/fc
I0403 15:04:36.390144 31102 net.cpp:141] Setting up loss2/fc
I0403 15:04:36.390180 31102 net.cpp:148] Top shape: 24 1024 (24576)
I0403 15:04:36.390197 31102 net.cpp:156] Memory required for data: 1208220960
I0403 15:04:36.390218 31102 layer_factory.hpp:77] Creating layer loss2/relu_fc
I0403 15:04:36.390238 31102 net.cpp:91] Creating Layer loss2/relu_fc
I0403 15:04:36.390254 31102 net.cpp:425] loss2/relu_fc <- loss2/fc
I0403 15:04:36.390275 31102 net.cpp:386] loss2/relu_fc -> loss2/fc (in-place)
I0403 15:04:36.390599 31102 net.cpp:141] Setting up loss2/relu_fc
I0403 15:04:36.390629 31102 net.cpp:148] Top shape: 24 1024 (24576)
I0403 15:04:36.390646 31102 net.cpp:156] Memory required for data: 1208319264
I0403 15:04:36.390663 31102 layer_factory.hpp:77] Creating layer loss2/drop_fc
I0403 15:04:36.390683 31102 net.cpp:91] Creating Layer loss2/drop_fc
I0403 15:04:36.390700 31102 net.cpp:425] loss2/drop_fc <- loss2/fc
I0403 15:04:36.390722 31102 net.cpp:386] loss2/drop_fc -> loss2/fc (in-place)
I0403 15:04:36.390774 31102 net.cpp:141] Setting up loss2/drop_fc
I0403 15:04:36.390799 31102 net.cpp:148] Top shape: 24 1024 (24576)
I0403 15:04:36.390815 31102 net.cpp:156] Memory required for data: 1208417568
I0403 15:04:36.390830 31102 layer_factory.hpp:77] Creating layer loss2/classifier_plantvillage
I0403 15:04:36.390853 31102 net.cpp:91] Creating Layer loss2/classifier_plantvillage
I0403 15:04:36.390872 31102 net.cpp:425] loss2/classifier_plantvillage <- loss2/fc
I0403 15:04:36.390893 31102 net.cpp:399] loss2/classifier_plantvillage -> loss2/classifier_plantvillage
I0403 15:04:36.391325 31102 net.cpp:141] Setting up loss2/classifier_plantvillage
I0403 15:04:36.391352 31102 net.cpp:148] Top shape: 24 38 (912)
I0403 15:04:36.391386 31102 net.cpp:156] Memory required for data: 1208421216
I0403 15:04:36.391405 31102 layer_factory.hpp:77] Creating layer loss2/classifier_plantvillage_loss2/classifier_plantvillage_0_split
I0403 15:04:36.391427 31102 net.cpp:91] Creating Layer loss2/classifier_plantvillage_loss2/classifier_plantvillage_0_split
I0403 15:04:36.391453 31102 net.cpp:425] loss2/classifier_plantvillage_loss2/classifier_plantvillage_0_split <- loss2/classifier_plantvillage
I0403 15:04:36.391471 31102 net.cpp:399] loss2/classifier_plantvillage_loss2/classifier_plantvillage_0_split -> loss2/classifier_plantvillage_loss2/classifier_plantvillage_0_split_0
I0403 15:04:36.391494 31102 net.cpp:399] loss2/classifier_plantvillage_loss2/classifier_plantvillage_0_split -> loss2/classifier_plantvillage_loss2/classifier_plantvillage_0_split_1
I0403 15:04:36.391516 31102 net.cpp:399] loss2/classifier_plantvillage_loss2/classifier_plantvillage_0_split -> loss2/classifier_plantvillage_loss2/classifier_plantvillage_0_split_2
I0403 15:04:36.391607 31102 net.cpp:141] Setting up loss2/classifier_plantvillage_loss2/classifier_plantvillage_0_split
I0403 15:04:36.391633 31102 net.cpp:148] Top shape: 24 38 (912)
I0403 15:04:36.391649 31102 net.cpp:148] Top shape: 24 38 (912)
I0403 15:04:36.391665 31102 net.cpp:148] Top shape: 24 38 (912)
I0403 15:04:36.391680 31102 net.cpp:156] Memory required for data: 1208432160
I0403 15:04:36.391696 31102 layer_factory.hpp:77] Creating layer inception_4e/1x1
I0403 15:04:36.391718 31102 net.cpp:91] Creating Layer inception_4e/1x1
I0403 15:04:36.391736 31102 net.cpp:425] inception_4e/1x1 <- inception_4d/output_inception_4d/output_0_split_1
I0403 15:04:36.391758 31102 net.cpp:399] inception_4e/1x1 -> inception_4e/1x1
I0403 15:04:36.393721 31102 net.cpp:141] Setting up inception_4e/1x1
I0403 15:04:36.393753 31102 net.cpp:148] Top shape: 24 256 14 14 (1204224)
I0403 15:04:36.393769 31102 net.cpp:156] Memory required for data: 1213249056
I0403 15:04:36.393790 31102 layer_factory.hpp:77] Creating layer inception_4e/relu_1x1
I0403 15:04:36.393812 31102 net.cpp:91] Creating Layer inception_4e/relu_1x1
I0403 15:04:36.393831 31102 net.cpp:425] inception_4e/relu_1x1 <- inception_4e/1x1
I0403 15:04:36.393851 31102 net.cpp:386] inception_4e/relu_1x1 -> inception_4e/1x1 (in-place)
I0403 15:04:36.394176 31102 net.cpp:141] Setting up inception_4e/relu_1x1
I0403 15:04:36.394204 31102 net.cpp:148] Top shape: 24 256 14 14 (1204224)
I0403 15:04:36.394222 31102 net.cpp:156] Memory required for data: 1218065952
I0403 15:04:36.394237 31102 layer_factory.hpp:77] Creating layer inception_4e/3x3_reduce
I0403 15:04:36.394261 31102 net.cpp:91] Creating Layer inception_4e/3x3_reduce
I0403 15:04:36.394280 31102 net.cpp:425] inception_4e/3x3_reduce <- inception_4d/output_inception_4d/output_0_split_2
I0403 15:04:36.394302 31102 net.cpp:399] inception_4e/3x3_reduce -> inception_4e/3x3_reduce
I0403 15:04:36.396590 31102 net.cpp:141] Setting up inception_4e/3x3_reduce
I0403 15:04:36.396622 31102 net.cpp:148] Top shape: 24 160 14 14 (752640)
I0403 15:04:36.396641 31102 net.cpp:156] Memory required for data: 1221076512
I0403 15:04:36.396661 31102 layer_factory.hpp:77] Creating layer inception_4e/relu_3x3_reduce
I0403 15:04:36.396682 31102 net.cpp:91] Creating Layer inception_4e/relu_3x3_reduce
I0403 15:04:36.396699 31102 net.cpp:425] inception_4e/relu_3x3_reduce <- inception_4e/3x3_reduce
I0403 15:04:36.396721 31102 net.cpp:386] inception_4e/relu_3x3_reduce -> inception_4e/3x3_reduce (in-place)
I0403 15:04:36.396925 31102 net.cpp:141] Setting up inception_4e/relu_3x3_reduce
I0403 15:04:36.396952 31102 net.cpp:148] Top shape: 24 160 14 14 (752640)
I0403 15:04:36.396968 31102 net.cpp:156] Memory required for data: 1224087072
I0403 15:04:36.396984 31102 layer_factory.hpp:77] Creating layer inception_4e/3x3
I0403 15:04:36.397007 31102 net.cpp:91] Creating Layer inception_4e/3x3
I0403 15:04:36.397027 31102 net.cpp:425] inception_4e/3x3 <- inception_4e/3x3_reduce
I0403 15:04:36.397052 31102 net.cpp:399] inception_4e/3x3 -> inception_4e/3x3
I0403 15:04:36.402432 31102 net.cpp:141] Setting up inception_4e/3x3
I0403 15:04:36.402475 31102 net.cpp:148] Top shape: 24 320 14 14 (1505280)
I0403 15:04:36.402493 31102 net.cpp:156] Memory required for data: 1230108192
I0403 15:04:36.402513 31102 layer_factory.hpp:77] Creating layer inception_4e/relu_3x3
I0403 15:04:36.402540 31102 net.cpp:91] Creating Layer inception_4e/relu_3x3
I0403 15:04:36.402560 31102 net.cpp:425] inception_4e/relu_3x3 <- inception_4e/3x3
I0403 15:04:36.402581 31102 net.cpp:386] inception_4e/relu_3x3 -> inception_4e/3x3 (in-place)
I0403 15:04:36.402906 31102 net.cpp:141] Setting up inception_4e/relu_3x3
I0403 15:04:36.402935 31102 net.cpp:148] Top shape: 24 320 14 14 (1505280)
I0403 15:04:36.402951 31102 net.cpp:156] Memory required for data: 1236129312
I0403 15:04:36.402966 31102 layer_factory.hpp:77] Creating layer inception_4e/5x5_reduce
I0403 15:04:36.402995 31102 net.cpp:91] Creating Layer inception_4e/5x5_reduce
I0403 15:04:36.403014 31102 net.cpp:425] inception_4e/5x5_reduce <- inception_4d/output_inception_4d/output_0_split_3
I0403 15:04:36.403034 31102 net.cpp:399] inception_4e/5x5_reduce -> inception_4e/5x5_reduce
I0403 15:04:36.404201 31102 net.cpp:141] Setting up inception_4e/5x5_reduce
I0403 15:04:36.404232 31102 net.cpp:148] Top shape: 24 32 14 14 (150528)
I0403 15:04:36.404247 31102 net.cpp:156] Memory required for data: 1236731424
I0403 15:04:36.404268 31102 layer_factory.hpp:77] Creating layer inception_4e/relu_5x5_reduce
I0403 15:04:36.404286 31102 net.cpp:91] Creating Layer inception_4e/relu_5x5_reduce
I0403 15:04:36.404304 31102 net.cpp:425] inception_4e/relu_5x5_reduce <- inception_4e/5x5_reduce
I0403 15:04:36.404325 31102 net.cpp:386] inception_4e/relu_5x5_reduce -> inception_4e/5x5_reduce (in-place)
I0403 15:04:36.404660 31102 net.cpp:141] Setting up inception_4e/relu_5x5_reduce
I0403 15:04:36.404688 31102 net.cpp:148] Top shape: 24 32 14 14 (150528)
I0403 15:04:36.404706 31102 net.cpp:156] Memory required for data: 1237333536
I0403 15:04:36.404721 31102 layer_factory.hpp:77] Creating layer inception_4e/5x5
I0403 15:04:36.404760 31102 net.cpp:91] Creating Layer inception_4e/5x5
I0403 15:04:36.404780 31102 net.cpp:425] inception_4e/5x5 <- inception_4e/5x5_reduce
I0403 15:04:36.404803 31102 net.cpp:399] inception_4e/5x5 -> inception_4e/5x5
I0403 15:04:36.406854 31102 net.cpp:141] Setting up inception_4e/5x5
I0403 15:04:36.406888 31102 net.cpp:148] Top shape: 24 128 14 14 (602112)
I0403 15:04:36.406913 31102 net.cpp:156] Memory required for data: 1239741984
I0403 15:04:36.406962 31102 layer_factory.hpp:77] Creating layer inception_4e/relu_5x5
I0403 15:04:36.407004 31102 net.cpp:91] Creating Layer inception_4e/relu_5x5
I0403 15:04:36.407042 31102 net.cpp:425] inception_4e/relu_5x5 <- inception_4e/5x5
I0403 15:04:36.407085 31102 net.cpp:386] inception_4e/relu_5x5 -> inception_4e/5x5 (in-place)
I0403 15:04:36.407310 31102 net.cpp:141] Setting up inception_4e/relu_5x5
I0403 15:04:36.407340 31102 net.cpp:148] Top shape: 24 128 14 14 (602112)
I0403 15:04:36.407354 31102 net.cpp:156] Memory required for data: 1242150432
I0403 15:04:36.407371 31102 layer_factory.hpp:77] Creating layer inception_4e/pool
I0403 15:04:36.407389 31102 net.cpp:91] Creating Layer inception_4e/pool
I0403 15:04:36.407409 31102 net.cpp:425] inception_4e/pool <- inception_4d/output_inception_4d/output_0_split_4
I0403 15:04:36.407433 31102 net.cpp:399] inception_4e/pool -> inception_4e/pool
I0403 15:04:36.407511 31102 net.cpp:141] Setting up inception_4e/pool
I0403 15:04:36.407541 31102 net.cpp:148] Top shape: 24 528 14 14 (2483712)
I0403 15:04:36.407557 31102 net.cpp:156] Memory required for data: 1252085280
I0403 15:04:36.407575 31102 layer_factory.hpp:77] Creating layer inception_4e/pool_proj
I0403 15:04:36.407599 31102 net.cpp:91] Creating Layer inception_4e/pool_proj
I0403 15:04:36.407618 31102 net.cpp:425] inception_4e/pool_proj <- inception_4e/pool
I0403 15:04:36.407639 31102 net.cpp:399] inception_4e/pool_proj -> inception_4e/pool_proj
I0403 15:04:36.409268 31102 net.cpp:141] Setting up inception_4e/pool_proj
I0403 15:04:36.409313 31102 net.cpp:148] Top shape: 24 128 14 14 (602112)
I0403 15:04:36.409330 31102 net.cpp:156] Memory required for data: 1254493728
I0403 15:04:36.409350 31102 layer_factory.hpp:77] Creating layer inception_4e/relu_pool_proj
I0403 15:04:36.409369 31102 net.cpp:91] Creating Layer inception_4e/relu_pool_proj
I0403 15:04:36.409386 31102 net.cpp:425] inception_4e/relu_pool_proj <- inception_4e/pool_proj
I0403 15:04:36.409404 31102 net.cpp:386] inception_4e/relu_pool_proj -> inception_4e/pool_proj (in-place)
I0403 15:04:36.409730 31102 net.cpp:141] Setting up inception_4e/relu_pool_proj
I0403 15:04:36.409761 31102 net.cpp:148] Top shape: 24 128 14 14 (602112)
I0403 15:04:36.409778 31102 net.cpp:156] Memory required for data: 1256902176
I0403 15:04:36.409795 31102 layer_factory.hpp:77] Creating layer inception_4e/output
I0403 15:04:36.409813 31102 net.cpp:91] Creating Layer inception_4e/output
I0403 15:04:36.409829 31102 net.cpp:425] inception_4e/output <- inception_4e/1x1
I0403 15:04:36.409847 31102 net.cpp:425] inception_4e/output <- inception_4e/3x3
I0403 15:04:36.409863 31102 net.cpp:425] inception_4e/output <- inception_4e/5x5
I0403 15:04:36.409880 31102 net.cpp:425] inception_4e/output <- inception_4e/pool_proj
I0403 15:04:36.409899 31102 net.cpp:399] inception_4e/output -> inception_4e/output
I0403 15:04:36.409955 31102 net.cpp:141] Setting up inception_4e/output
I0403 15:04:36.409979 31102 net.cpp:148] Top shape: 24 832 14 14 (3913728)
I0403 15:04:36.409996 31102 net.cpp:156] Memory required for data: 1272557088
I0403 15:04:36.410011 31102 layer_factory.hpp:77] Creating layer pool4/3x3_s2
I0403 15:04:36.410032 31102 net.cpp:91] Creating Layer pool4/3x3_s2
I0403 15:04:36.410049 31102 net.cpp:425] pool4/3x3_s2 <- inception_4e/output
I0403 15:04:36.410068 31102 net.cpp:399] pool4/3x3_s2 -> pool4/3x3_s2
I0403 15:04:36.410142 31102 net.cpp:141] Setting up pool4/3x3_s2
I0403 15:04:36.410167 31102 net.cpp:148] Top shape: 24 832 7 7 (978432)
I0403 15:04:36.410183 31102 net.cpp:156] Memory required for data: 1276470816
I0403 15:04:36.410198 31102 layer_factory.hpp:77] Creating layer pool4/3x3_s2_pool4/3x3_s2_0_split
I0403 15:04:36.410218 31102 net.cpp:91] Creating Layer pool4/3x3_s2_pool4/3x3_s2_0_split
I0403 15:04:36.410234 31102 net.cpp:425] pool4/3x3_s2_pool4/3x3_s2_0_split <- pool4/3x3_s2
I0403 15:04:36.410255 31102 net.cpp:399] pool4/3x3_s2_pool4/3x3_s2_0_split -> pool4/3x3_s2_pool4/3x3_s2_0_split_0
I0403 15:04:36.410277 31102 net.cpp:399] pool4/3x3_s2_pool4/3x3_s2_0_split -> pool4/3x3_s2_pool4/3x3_s2_0_split_1
I0403 15:04:36.410300 31102 net.cpp:399] pool4/3x3_s2_pool4/3x3_s2_0_split -> pool4/3x3_s2_pool4/3x3_s2_0_split_2
I0403 15:04:36.410321 31102 net.cpp:399] pool4/3x3_s2_pool4/3x3_s2_0_split -> pool4/3x3_s2_pool4/3x3_s2_0_split_3
I0403 15:04:36.410420 31102 net.cpp:141] Setting up pool4/3x3_s2_pool4/3x3_s2_0_split
I0403 15:04:36.410449 31102 net.cpp:148] Top shape: 24 832 7 7 (978432)
I0403 15:04:36.410475 31102 net.cpp:148] Top shape: 24 832 7 7 (978432)
I0403 15:04:36.410493 31102 net.cpp:148] Top shape: 24 832 7 7 (978432)
I0403 15:04:36.410509 31102 net.cpp:148] Top shape: 24 832 7 7 (978432)
I0403 15:04:36.410524 31102 net.cpp:156] Memory required for data: 1292125728
I0403 15:04:36.410544 31102 layer_factory.hpp:77] Creating layer inception_5a/1x1
I0403 15:04:36.410569 31102 net.cpp:91] Creating Layer inception_5a/1x1
I0403 15:04:36.410588 31102 net.cpp:425] inception_5a/1x1 <- pool4/3x3_s2_pool4/3x3_s2_0_split_0
I0403 15:04:36.410609 31102 net.cpp:399] inception_5a/1x1 -> inception_5a/1x1
I0403 15:04:36.413677 31102 net.cpp:141] Setting up inception_5a/1x1
I0403 15:04:36.413709 31102 net.cpp:148] Top shape: 24 256 7 7 (301056)
I0403 15:04:36.413727 31102 net.cpp:156] Memory required for data: 1293329952
I0403 15:04:36.413748 31102 layer_factory.hpp:77] Creating layer inception_5a/relu_1x1
I0403 15:04:36.413768 31102 net.cpp:91] Creating Layer inception_5a/relu_1x1
I0403 15:04:36.413785 31102 net.cpp:425] inception_5a/relu_1x1 <- inception_5a/1x1
I0403 15:04:36.413805 31102 net.cpp:386] inception_5a/relu_1x1 -> inception_5a/1x1 (in-place)
I0403 15:04:36.414146 31102 net.cpp:141] Setting up inception_5a/relu_1x1
I0403 15:04:36.414177 31102 net.cpp:148] Top shape: 24 256 7 7 (301056)
I0403 15:04:36.414194 31102 net.cpp:156] Memory required for data: 1294534176
I0403 15:04:36.414211 31102 layer_factory.hpp:77] Creating layer inception_5a/3x3_reduce
I0403 15:04:36.414235 31102 net.cpp:91] Creating Layer inception_5a/3x3_reduce
I0403 15:04:36.414253 31102 net.cpp:425] inception_5a/3x3_reduce <- pool4/3x3_s2_pool4/3x3_s2_0_split_1
I0403 15:04:36.414276 31102 net.cpp:399] inception_5a/3x3_reduce -> inception_5a/3x3_reduce
I0403 15:04:36.424978 31102 net.cpp:141] Setting up inception_5a/3x3_reduce
I0403 15:04:36.425009 31102 net.cpp:148] Top shape: 24 160 7 7 (188160)
I0403 15:04:36.425029 31102 net.cpp:156] Memory required for data: 1295286816
I0403 15:04:36.425050 31102 layer_factory.hpp:77] Creating layer inception_5a/relu_3x3_reduce
I0403 15:04:36.425071 31102 net.cpp:91] Creating Layer inception_5a/relu_3x3_reduce
I0403 15:04:36.425087 31102 net.cpp:425] inception_5a/relu_3x3_reduce <- inception_5a/3x3_reduce
I0403 15:04:36.425112 31102 net.cpp:386] inception_5a/relu_3x3_reduce -> inception_5a/3x3_reduce (in-place)
I0403 15:04:36.425328 31102 net.cpp:141] Setting up inception_5a/relu_3x3_reduce
I0403 15:04:36.425357 31102 net.cpp:148] Top shape: 24 160 7 7 (188160)
I0403 15:04:36.425374 31102 net.cpp:156] Memory required for data: 1296039456
I0403 15:04:36.425390 31102 layer_factory.hpp:77] Creating layer inception_5a/3x3
I0403 15:04:36.425415 31102 net.cpp:91] Creating Layer inception_5a/3x3
I0403 15:04:36.425433 31102 net.cpp:425] inception_5a/3x3 <- inception_5a/3x3_reduce
I0403 15:04:36.425453 31102 net.cpp:399] inception_5a/3x3 -> inception_5a/3x3
I0403 15:04:36.430835 31102 net.cpp:141] Setting up inception_5a/3x3
I0403 15:04:36.430866 31102 net.cpp:148] Top shape: 24 320 7 7 (376320)
I0403 15:04:36.430882 31102 net.cpp:156] Memory required for data: 1297544736
I0403 15:04:36.430903 31102 layer_factory.hpp:77] Creating layer inception_5a/relu_3x3
I0403 15:04:36.430922 31102 net.cpp:91] Creating Layer inception_5a/relu_3x3
I0403 15:04:36.430940 31102 net.cpp:425] inception_5a/relu_3x3 <- inception_5a/3x3
I0403 15:04:36.430961 31102 net.cpp:386] inception_5a/relu_3x3 -> inception_5a/3x3 (in-place)
I0403 15:04:36.431282 31102 net.cpp:141] Setting up inception_5a/relu_3x3
I0403 15:04:36.431311 31102 net.cpp:148] Top shape: 24 320 7 7 (376320)
I0403 15:04:36.431327 31102 net.cpp:156] Memory required for data: 1299050016
I0403 15:04:36.431344 31102 layer_factory.hpp:77] Creating layer inception_5a/5x5_reduce
I0403 15:04:36.431368 31102 net.cpp:91] Creating Layer inception_5a/5x5_reduce
I0403 15:04:36.431386 31102 net.cpp:425] inception_5a/5x5_reduce <- pool4/3x3_s2_pool4/3x3_s2_0_split_2
I0403 15:04:36.431411 31102 net.cpp:399] inception_5a/5x5_reduce -> inception_5a/5x5_reduce
I0403 15:04:36.432687 31102 net.cpp:141] Setting up inception_5a/5x5_reduce
I0403 15:04:36.432720 31102 net.cpp:148] Top shape: 24 32 7 7 (37632)
I0403 15:04:36.432737 31102 net.cpp:156] Memory required for data: 1299200544
I0403 15:04:36.432757 31102 layer_factory.hpp:77] Creating layer inception_5a/relu_5x5_reduce
I0403 15:04:36.432778 31102 net.cpp:91] Creating Layer inception_5a/relu_5x5_reduce
I0403 15:04:36.432797 31102 net.cpp:425] inception_5a/relu_5x5_reduce <- inception_5a/5x5_reduce
I0403 15:04:36.432816 31102 net.cpp:386] inception_5a/relu_5x5_reduce -> inception_5a/5x5_reduce (in-place)
I0403 15:04:36.433136 31102 net.cpp:141] Setting up inception_5a/relu_5x5_reduce
I0403 15:04:36.433164 31102 net.cpp:148] Top shape: 24 32 7 7 (37632)
I0403 15:04:36.433181 31102 net.cpp:156] Memory required for data: 1299351072
I0403 15:04:36.433197 31102 layer_factory.hpp:77] Creating layer inception_5a/5x5
I0403 15:04:36.433220 31102 net.cpp:91] Creating Layer inception_5a/5x5
I0403 15:04:36.433239 31102 net.cpp:425] inception_5a/5x5 <- inception_5a/5x5_reduce
I0403 15:04:36.433262 31102 net.cpp:399] inception_5a/5x5 -> inception_5a/5x5
I0403 15:04:36.444432 31102 net.cpp:141] Setting up inception_5a/5x5
I0403 15:04:36.444476 31102 net.cpp:148] Top shape: 24 128 7 7 (150528)
I0403 15:04:36.444494 31102 net.cpp:156] Memory required for data: 1299953184
I0403 15:04:36.444514 31102 layer_factory.hpp:77] Creating layer inception_5a/relu_5x5
I0403 15:04:36.444545 31102 net.cpp:91] Creating Layer inception_5a/relu_5x5
I0403 15:04:36.444566 31102 net.cpp:425] inception_5a/relu_5x5 <- inception_5a/5x5
I0403 15:04:36.444588 31102 net.cpp:386] inception_5a/relu_5x5 -> inception_5a/5x5 (in-place)
I0403 15:04:36.444805 31102 net.cpp:141] Setting up inception_5a/relu_5x5
I0403 15:04:36.444833 31102 net.cpp:148] Top shape: 24 128 7 7 (150528)
I0403 15:04:36.444849 31102 net.cpp:156] Memory required for data: 1300555296
I0403 15:04:36.444864 31102 layer_factory.hpp:77] Creating layer inception_5a/pool
I0403 15:04:36.444886 31102 net.cpp:91] Creating Layer inception_5a/pool
I0403 15:04:36.444903 31102 net.cpp:425] inception_5a/pool <- pool4/3x3_s2_pool4/3x3_s2_0_split_3
I0403 15:04:36.444931 31102 net.cpp:399] inception_5a/pool -> inception_5a/pool
I0403 15:04:36.445009 31102 net.cpp:141] Setting up inception_5a/pool
I0403 15:04:36.445035 31102 net.cpp:148] Top shape: 24 832 7 7 (978432)
I0403 15:04:36.445050 31102 net.cpp:156] Memory required for data: 1304469024
I0403 15:04:36.445065 31102 layer_factory.hpp:77] Creating layer inception_5a/pool_proj
I0403 15:04:36.445091 31102 net.cpp:91] Creating Layer inception_5a/pool_proj
I0403 15:04:36.445108 31102 net.cpp:425] inception_5a/pool_proj <- inception_5a/pool
I0403 15:04:36.445132 31102 net.cpp:399] inception_5a/pool_proj -> inception_5a/pool_proj
I0403 15:04:36.447587 31102 net.cpp:141] Setting up inception_5a/pool_proj
I0403 15:04:36.447620 31102 net.cpp:148] Top shape: 24 128 7 7 (150528)
I0403 15:04:36.447638 31102 net.cpp:156] Memory required for data: 1305071136
I0403 15:04:36.447659 31102 layer_factory.hpp:77] Creating layer inception_5a/relu_pool_proj
I0403 15:04:36.447677 31102 net.cpp:91] Creating Layer inception_5a/relu_pool_proj
I0403 15:04:36.447695 31102 net.cpp:425] inception_5a/relu_pool_proj <- inception_5a/pool_proj
I0403 15:04:36.447716 31102 net.cpp:386] inception_5a/relu_pool_proj -> inception_5a/pool_proj (in-place)
I0403 15:04:36.448035 31102 net.cpp:141] Setting up inception_5a/relu_pool_proj
I0403 15:04:36.448065 31102 net.cpp:148] Top shape: 24 128 7 7 (150528)
I0403 15:04:36.448081 31102 net.cpp:156] Memory required for data: 1305673248
I0403 15:04:36.448097 31102 layer_factory.hpp:77] Creating layer inception_5a/output
I0403 15:04:36.448117 31102 net.cpp:91] Creating Layer inception_5a/output
I0403 15:04:36.448133 31102 net.cpp:425] inception_5a/output <- inception_5a/1x1
I0403 15:04:36.448153 31102 net.cpp:425] inception_5a/output <- inception_5a/3x3
I0403 15:04:36.448169 31102 net.cpp:425] inception_5a/output <- inception_5a/5x5
I0403 15:04:36.448187 31102 net.cpp:425] inception_5a/output <- inception_5a/pool_proj
I0403 15:04:36.448205 31102 net.cpp:399] inception_5a/output -> inception_5a/output
I0403 15:04:36.448261 31102 net.cpp:141] Setting up inception_5a/output
I0403 15:04:36.448287 31102 net.cpp:148] Top shape: 24 832 7 7 (978432)
I0403 15:04:36.448302 31102 net.cpp:156] Memory required for data: 1309586976
I0403 15:04:36.448318 31102 layer_factory.hpp:77] Creating layer inception_5a/output_inception_5a/output_0_split
I0403 15:04:36.448335 31102 net.cpp:91] Creating Layer inception_5a/output_inception_5a/output_0_split
I0403 15:04:36.448353 31102 net.cpp:425] inception_5a/output_inception_5a/output_0_split <- inception_5a/output
I0403 15:04:36.448374 31102 net.cpp:399] inception_5a/output_inception_5a/output_0_split -> inception_5a/output_inception_5a/output_0_split_0
I0403 15:04:36.448396 31102 net.cpp:399] inception_5a/output_inception_5a/output_0_split -> inception_5a/output_inception_5a/output_0_split_1
I0403 15:04:36.448421 31102 net.cpp:399] inception_5a/output_inception_5a/output_0_split -> inception_5a/output_inception_5a/output_0_split_2
I0403 15:04:36.448447 31102 net.cpp:399] inception_5a/output_inception_5a/output_0_split -> inception_5a/output_inception_5a/output_0_split_3
I0403 15:04:36.448576 31102 net.cpp:141] Setting up inception_5a/output_inception_5a/output_0_split
I0403 15:04:36.448602 31102 net.cpp:148] Top shape: 24 832 7 7 (978432)
I0403 15:04:36.448621 31102 net.cpp:148] Top shape: 24 832 7 7 (978432)
I0403 15:04:36.448637 31102 net.cpp:148] Top shape: 24 832 7 7 (978432)
I0403 15:04:36.448652 31102 net.cpp:148] Top shape: 24 832 7 7 (978432)
I0403 15:04:36.448667 31102 net.cpp:156] Memory required for data: 1325241888
I0403 15:04:36.448683 31102 layer_factory.hpp:77] Creating layer inception_5b/1x1
I0403 15:04:36.448705 31102 net.cpp:91] Creating Layer inception_5b/1x1
I0403 15:04:36.448724 31102 net.cpp:425] inception_5b/1x1 <- inception_5a/output_inception_5a/output_0_split_0
I0403 15:04:36.448747 31102 net.cpp:399] inception_5b/1x1 -> inception_5b/1x1
I0403 15:04:36.452904 31102 net.cpp:141] Setting up inception_5b/1x1
I0403 15:04:36.452937 31102 net.cpp:148] Top shape: 24 384 7 7 (451584)
I0403 15:04:36.452956 31102 net.cpp:156] Memory required for data: 1327048224
I0403 15:04:36.452976 31102 layer_factory.hpp:77] Creating layer inception_5b/relu_1x1
I0403 15:04:36.452996 31102 net.cpp:91] Creating Layer inception_5b/relu_1x1
I0403 15:04:36.453013 31102 net.cpp:425] inception_5b/relu_1x1 <- inception_5b/1x1
I0403 15:04:36.453032 31102 net.cpp:386] inception_5b/relu_1x1 -> inception_5b/1x1 (in-place)
I0403 15:04:36.453366 31102 net.cpp:141] Setting up inception_5b/relu_1x1
I0403 15:04:36.453394 31102 net.cpp:148] Top shape: 24 384 7 7 (451584)
I0403 15:04:36.453414 31102 net.cpp:156] Memory required for data: 1328854560
I0403 15:04:36.453430 31102 layer_factory.hpp:77] Creating layer inception_5b/3x3_reduce
I0403 15:04:36.453451 31102 net.cpp:91] Creating Layer inception_5b/3x3_reduce
I0403 15:04:36.453469 31102 net.cpp:425] inception_5b/3x3_reduce <- inception_5a/output_inception_5a/output_0_split_1
I0403 15:04:36.453492 31102 net.cpp:399] inception_5b/3x3_reduce -> inception_5b/3x3_reduce
I0403 15:04:36.456370 31102 net.cpp:141] Setting up inception_5b/3x3_reduce
I0403 15:04:36.456403 31102 net.cpp:148] Top shape: 24 192 7 7 (225792)
I0403 15:04:36.456419 31102 net.cpp:156] Memory required for data: 1329757728
I0403 15:04:36.456439 31102 layer_factory.hpp:77] Creating layer inception_5b/relu_3x3_reduce
I0403 15:04:36.456461 31102 net.cpp:91] Creating Layer inception_5b/relu_3x3_reduce
I0403 15:04:36.456480 31102 net.cpp:425] inception_5b/relu_3x3_reduce <- inception_5b/3x3_reduce
I0403 15:04:36.456499 31102 net.cpp:386] inception_5b/relu_3x3_reduce -> inception_5b/3x3_reduce (in-place)
I0403 15:04:36.456717 31102 net.cpp:141] Setting up inception_5b/relu_3x3_reduce
I0403 15:04:36.456744 31102 net.cpp:148] Top shape: 24 192 7 7 (225792)
I0403 15:04:36.456761 31102 net.cpp:156] Memory required for data: 1330660896
I0403 15:04:36.456780 31102 layer_factory.hpp:77] Creating layer inception_5b/3x3
I0403 15:04:36.456805 31102 net.cpp:91] Creating Layer inception_5b/3x3
I0403 15:04:36.456828 31102 net.cpp:425] inception_5b/3x3 <- inception_5b/3x3_reduce
I0403 15:04:36.456853 31102 net.cpp:399] inception_5b/3x3 -> inception_5b/3x3
I0403 15:04:36.463996 31102 net.cpp:141] Setting up inception_5b/3x3
I0403 15:04:36.464030 31102 net.cpp:148] Top shape: 24 384 7 7 (451584)
I0403 15:04:36.464046 31102 net.cpp:156] Memory required for data: 1332467232
I0403 15:04:36.464066 31102 layer_factory.hpp:77] Creating layer inception_5b/relu_3x3
I0403 15:04:36.464085 31102 net.cpp:91] Creating Layer inception_5b/relu_3x3
I0403 15:04:36.464102 31102 net.cpp:425] inception_5b/relu_3x3 <- inception_5b/3x3
I0403 15:04:36.464123 31102 net.cpp:386] inception_5b/relu_3x3 -> inception_5b/3x3 (in-place)
I0403 15:04:36.464475 31102 net.cpp:141] Setting up inception_5b/relu_3x3
I0403 15:04:36.464506 31102 net.cpp:148] Top shape: 24 384 7 7 (451584)
I0403 15:04:36.464524 31102 net.cpp:156] Memory required for data: 1334273568
I0403 15:04:36.464552 31102 layer_factory.hpp:77] Creating layer inception_5b/5x5_reduce
I0403 15:04:36.464596 31102 net.cpp:91] Creating Layer inception_5b/5x5_reduce
I0403 15:04:36.464615 31102 net.cpp:425] inception_5b/5x5_reduce <- inception_5a/output_inception_5a/output_0_split_2
I0403 15:04:36.464637 31102 net.cpp:399] inception_5b/5x5_reduce -> inception_5b/5x5_reduce
I0403 15:04:36.466024 31102 net.cpp:141] Setting up inception_5b/5x5_reduce
I0403 15:04:36.466058 31102 net.cpp:148] Top shape: 24 48 7 7 (56448)
I0403 15:04:36.466074 31102 net.cpp:156] Memory required for data: 1334499360
I0403 15:04:36.466094 31102 layer_factory.hpp:77] Creating layer inception_5b/relu_5x5_reduce
I0403 15:04:36.466114 31102 net.cpp:91] Creating Layer inception_5b/relu_5x5_reduce
I0403 15:04:36.466131 31102 net.cpp:425] inception_5b/relu_5x5_reduce <- inception_5b/5x5_reduce
I0403 15:04:36.466150 31102 net.cpp:386] inception_5b/relu_5x5_reduce -> inception_5b/5x5_reduce (in-place)
I0403 15:04:36.466620 31102 net.cpp:141] Setting up inception_5b/relu_5x5_reduce
I0403 15:04:36.466650 31102 net.cpp:148] Top shape: 24 48 7 7 (56448)
I0403 15:04:36.466665 31102 net.cpp:156] Memory required for data: 1334725152
I0403 15:04:36.466681 31102 layer_factory.hpp:77] Creating layer inception_5b/5x5
I0403 15:04:36.466703 31102 net.cpp:91] Creating Layer inception_5b/5x5
I0403 15:04:36.466722 31102 net.cpp:425] inception_5b/5x5 <- inception_5b/5x5_reduce
I0403 15:04:36.466742 31102 net.cpp:399] inception_5b/5x5 -> inception_5b/5x5
I0403 15:04:36.468963 31102 net.cpp:141] Setting up inception_5b/5x5
I0403 15:04:36.468996 31102 net.cpp:148] Top shape: 24 128 7 7 (150528)
I0403 15:04:36.469012 31102 net.cpp:156] Memory required for data: 1335327264
I0403 15:04:36.469033 31102 layer_factory.hpp:77] Creating layer inception_5b/relu_5x5
I0403 15:04:36.469053 31102 net.cpp:91] Creating Layer inception_5b/relu_5x5
I0403 15:04:36.469069 31102 net.cpp:425] inception_5b/relu_5x5 <- inception_5b/5x5
I0403 15:04:36.469090 31102 net.cpp:386] inception_5b/relu_5x5 -> inception_5b/5x5 (in-place)
I0403 15:04:36.469305 31102 net.cpp:141] Setting up inception_5b/relu_5x5
I0403 15:04:36.469332 31102 net.cpp:148] Top shape: 24 128 7 7 (150528)
I0403 15:04:36.469348 31102 net.cpp:156] Memory required for data: 1335929376
I0403 15:04:36.469364 31102 layer_factory.hpp:77] Creating layer inception_5b/pool
I0403 15:04:36.469384 31102 net.cpp:91] Creating Layer inception_5b/pool
I0403 15:04:36.469401 31102 net.cpp:425] inception_5b/pool <- inception_5a/output_inception_5a/output_0_split_3
I0403 15:04:36.469424 31102 net.cpp:399] inception_5b/pool -> inception_5b/pool
I0403 15:04:36.469503 31102 net.cpp:141] Setting up inception_5b/pool
I0403 15:04:36.469529 31102 net.cpp:148] Top shape: 24 832 7 7 (978432)
I0403 15:04:36.469552 31102 net.cpp:156] Memory required for data: 1339843104
I0403 15:04:36.469570 31102 layer_factory.hpp:77] Creating layer inception_5b/pool_proj
I0403 15:04:36.469594 31102 net.cpp:91] Creating Layer inception_5b/pool_proj
I0403 15:04:36.469614 31102 net.cpp:425] inception_5b/pool_proj <- inception_5b/pool
I0403 15:04:36.469636 31102 net.cpp:399] inception_5b/pool_proj -> inception_5b/pool_proj
I0403 15:04:36.472131 31102 net.cpp:141] Setting up inception_5b/pool_proj
I0403 15:04:36.472165 31102 net.cpp:148] Top shape: 24 128 7 7 (150528)
I0403 15:04:36.472182 31102 net.cpp:156] Memory required for data: 1340445216
I0403 15:04:36.472203 31102 layer_factory.hpp:77] Creating layer inception_5b/relu_pool_proj
I0403 15:04:36.472223 31102 net.cpp:91] Creating Layer inception_5b/relu_pool_proj
I0403 15:04:36.472239 31102 net.cpp:425] inception_5b/relu_pool_proj <- inception_5b/pool_proj
I0403 15:04:36.472257 31102 net.cpp:386] inception_5b/relu_pool_proj -> inception_5b/pool_proj (in-place)
I0403 15:04:36.472659 31102 net.cpp:141] Setting up inception_5b/relu_pool_proj
I0403 15:04:36.472690 31102 net.cpp:148] Top shape: 24 128 7 7 (150528)
I0403 15:04:36.472707 31102 net.cpp:156] Memory required for data: 1341047328
I0403 15:04:36.472723 31102 layer_factory.hpp:77] Creating layer inception_5b/output
I0403 15:04:36.472743 31102 net.cpp:91] Creating Layer inception_5b/output
I0403 15:04:36.472774 31102 net.cpp:425] inception_5b/output <- inception_5b/1x1
I0403 15:04:36.472793 31102 net.cpp:425] inception_5b/output <- inception_5b/3x3
I0403 15:04:36.472811 31102 net.cpp:425] inception_5b/output <- inception_5b/5x5
I0403 15:04:36.472828 31102 net.cpp:425] inception_5b/output <- inception_5b/pool_proj
I0403 15:04:36.472847 31102 net.cpp:399] inception_5b/output -> inception_5b/output
I0403 15:04:36.472904 31102 net.cpp:141] Setting up inception_5b/output
I0403 15:04:36.472930 31102 net.cpp:148] Top shape: 24 1024 7 7 (1204224)
I0403 15:04:36.472946 31102 net.cpp:156] Memory required for data: 1345864224
I0403 15:04:36.472962 31102 layer_factory.hpp:77] Creating layer pool5/7x7_s1
I0403 15:04:36.472985 31102 net.cpp:91] Creating Layer pool5/7x7_s1
I0403 15:04:36.473002 31102 net.cpp:425] pool5/7x7_s1 <- inception_5b/output
I0403 15:04:36.473021 31102 net.cpp:399] pool5/7x7_s1 -> pool5/7x7_s1
I0403 15:04:36.473261 31102 net.cpp:141] Setting up pool5/7x7_s1
I0403 15:04:36.473289 31102 net.cpp:148] Top shape: 24 1024 1 1 (24576)
I0403 15:04:36.473305 31102 net.cpp:156] Memory required for data: 1345962528
I0403 15:04:36.473321 31102 layer_factory.hpp:77] Creating layer pool5/drop_7x7_s1
I0403 15:04:36.473341 31102 net.cpp:91] Creating Layer pool5/drop_7x7_s1
I0403 15:04:36.473357 31102 net.cpp:425] pool5/drop_7x7_s1 <- pool5/7x7_s1
I0403 15:04:36.473378 31102 net.cpp:386] pool5/drop_7x7_s1 -> pool5/7x7_s1 (in-place)
I0403 15:04:36.473433 31102 net.cpp:141] Setting up pool5/drop_7x7_s1
I0403 15:04:36.473458 31102 net.cpp:148] Top shape: 24 1024 1 1 (24576)
I0403 15:04:36.473476 31102 net.cpp:156] Memory required for data: 1346060832
I0403 15:04:36.473491 31102 layer_factory.hpp:77] Creating layer loss3/classifier_plantvillage
I0403 15:04:36.473513 31102 net.cpp:91] Creating Layer loss3/classifier_plantvillage
I0403 15:04:36.473531 31102 net.cpp:425] loss3/classifier_plantvillage <- pool5/7x7_s1
I0403 15:04:36.473558 31102 net.cpp:399] loss3/classifier_plantvillage -> loss3/classifier_plantvillage
I0403 15:04:36.474017 31102 net.cpp:141] Setting up loss3/classifier_plantvillage
I0403 15:04:36.474045 31102 net.cpp:148] Top shape: 24 38 (912)
I0403 15:04:36.474059 31102 net.cpp:156] Memory required for data: 1346064480
I0403 15:04:36.474079 31102 layer_factory.hpp:77] Creating layer loss3/classifier_plantvillage_loss3/classifier_plantvillage_0_split
I0403 15:04:36.474102 31102 net.cpp:91] Creating Layer loss3/classifier_plantvillage_loss3/classifier_plantvillage_0_split
I0403 15:04:36.474119 31102 net.cpp:425] loss3/classifier_plantvillage_loss3/classifier_plantvillage_0_split <- loss3/classifier_plantvillage
I0403 15:04:36.474139 31102 net.cpp:399] loss3/classifier_plantvillage_loss3/classifier_plantvillage_0_split -> loss3/classifier_plantvillage_loss3/classifier_plantvillage_0_split_0
I0403 15:04:36.474161 31102 net.cpp:399] loss3/classifier_plantvillage_loss3/classifier_plantvillage_0_split -> loss3/classifier_plantvillage_loss3/classifier_plantvillage_0_split_1
I0403 15:04:36.474184 31102 net.cpp:399] loss3/classifier_plantvillage_loss3/classifier_plantvillage_0_split -> loss3/classifier_plantvillage_loss3/classifier_plantvillage_0_split_2
I0403 15:04:36.474208 31102 net.cpp:399] loss3/classifier_plantvillage_loss3/classifier_plantvillage_0_split -> loss3/classifier_plantvillage_loss3/classifier_plantvillage_0_split_3
I0403 15:04:36.474319 31102 net.cpp:141] Setting up loss3/classifier_plantvillage_loss3/classifier_plantvillage_0_split
I0403 15:04:36.474344 31102 net.cpp:148] Top shape: 24 38 (912)
I0403 15:04:36.474362 31102 net.cpp:148] Top shape: 24 38 (912)
I0403 15:04:36.474380 31102 net.cpp:148] Top shape: 24 38 (912)
I0403 15:04:36.474395 31102 net.cpp:148] Top shape: 24 38 (912)
I0403 15:04:36.474409 31102 net.cpp:156] Memory required for data: 1346079072
I0403 15:04:36.474426 31102 layer_factory.hpp:77] Creating layer loss1/loss
I0403 15:04:36.474448 31102 net.cpp:91] Creating Layer loss1/loss
I0403 15:04:36.474467 31102 net.cpp:425] loss1/loss <- loss1/classifier_plantvillage_loss1/classifier_plantvillage_0_split_0
I0403 15:04:36.474500 31102 net.cpp:425] loss1/loss <- label_data_1_split_0
…
