…
I0403 15:11:56.120713 31282 net.cpp:313] The NetState phase (1) differed from the phase (0) specified by a rule in layer data
I0403 15:11:56.121872 31282 net.cpp:49] Initializing net from parameters: 
state {
  phase: TEST
}
layer {
  name: "data"
  type: "Data"
  top: "data"
  top: "label"
  include {
    phase: TEST
  }
  transform_param {
    mirror: false
    crop_size: 224
    mean_file: "/home/mohanty/data/final_dataset/lmdb/grayscale-80-20/mean.binaryproto"
  }
  data_param {
    source: "/home/mohanty/data/final_dataset/lmdb/grayscale-80-20/test_db"
    batch_size: 24
    backend: LMDB
  }
}
layer {
  name: "conv1/7x7_s2"
  type: "Convolution"
  bottom: "data"
  top: "conv1/7x7_s2"
  param {
    lr_mult: 1
    decay_mult: 1
  }
  param {
    lr_mult: 2
    decay_mult: 0
  }
  convolution_param {
    num_output: 64
    pad: 3
    kernel_size: 7
    stride: 2
    weight_filler {
      type: "xavier"
      std: 0.1
    }
    bias_filler {
      type: "constant"
      value: 0.2
    }
  }
}
layer {
  name: "conv1/relu_7x7"
  type: "ReLU"
  bottom: "conv1/7x7_s2"
  top: "conv1/7x7_s2"
}
layer {
  name: "pool1/3x3_s2"
  type: "Pooling"
  bottom: "conv1/7x7_s2"
  top: "pool1/3x3_s2"
  pooling_param {
    pool: MAX
    kernel_size: 3
    stride: 2
  }
}
layer {
  name: "pool1/norm1"
  type: "LRN"
  bottom: "pool1/3x3_s2"
  top: "pool1/norm1"
  lrn_param {
    local_size: 5
    alpha: 0.0001
    beta: 0.75
  }
}
layer {
  name: "conv2/3x3_reduce"
  type: "Convolution"
  bottom: "pool1/norm1"
  top: "conv2/3x3_reduce"
  param {
    lr_mult: 1
    decay_mult: 1
  }
  param {
    lr_mult: 2
    decay_mult: 0
  }
  convolution_param {
    num_output: 64
    kernel_size: 1
    weight_filler {
      type: "xavier"
      std: 0.1
    }
    bias_filler {
      type: "constant"
      value: 0.2
    }
  }
}
layer {
  name: "conv2/relu_3x3_reduce"
  type: "ReLU"
  bottom: "conv2/3x3_reduce"
  top: "conv2/3x3_reduce"
}
layer {
  name: "conv2/3x3"
  type: "Convolution"
  bottom: "conv2/3x3_reduce"
  top: "conv2/3x3"
  param {
    lr_mult: 1
    decay_mult: 1
  }
  param {
    lr_mult: 2
    decay_mult: 0
  }
  convolution_param {
    num_output: 192
    pad: 1
    kernel_size: 3
    weight_filler {
      type: "xavier"
      std: 0.03
    }
    bias_filler {
      type: "constant"
      value: 0.2
    }
  }
}
layer {
  name: "conv2/relu_3x3"
  type: "ReLU"
  bottom: "conv2/3x3"
  top: "conv2/3x3"
}
layer {
  name: "conv2/norm2"
  type: "LRN"
  bottom: "conv2/3x3"
  top: "conv2/norm2"
  lrn_param {
    local_size: 5
    alpha: 0.0001
    beta: 0.75
  }
}
layer {
  name: "pool2/3x3_s2"
  type: "Pooling"
  bottom: "conv2/norm2"
  top: "pool2/3x3_s2"
  pooling_param {
    pool: MAX
    kernel_size: 3
    stride: 2
  }
}
layer {
  name: "inception_3a/1x1"
  type: "Convolution"
  bottom: "pool2/3x3_s2"
  top: "inception_3a/1x1"
  param {
    lr_mult: 1
    decay_mult: 1
  }
  param {
    lr_mult: 2
    decay_mult: 0
  }
  convolution_param {
    num_output: 64
    kernel_size: 1
    weight_filler {
      type: "xavier"
      std: 0.03
    }
    bias_filler {
      type: "constant"
      value: 0.2
    }
  }
}
layer {
  name: "inception_3a/relu_1x1"
  type: "ReLU"
  bottom: "inception_3a/1x1"
  top: "inception_3a/1x1"
}
layer {
  name: "inception_3a/3x3_reduce"
  type: "Convolution"
  bottom: "pool2/3x3_s2"
  top: "inception_3a/3x3_reduce"
  param {
    lr_mult: 1
    decay_mult: 1
  }
  param {
    lr_mult: 2
    decay_mult: 0
  }
  convolution_param {
    num_output: 96
    kernel_size: 1
    weight_filler {
      type: "xavier"
      std: 0.09
    }
    bias_filler {
      type: "constant"
      value: 0.2
    }
  }
}
layer {
  name: "inception_3a/relu_3x3_reduce"
  type: "ReLU"
  bottom: "inception_3a/3x3_reduce"
  top: "inception_3a/3x3_reduce"
}
layer {
  name: "inception_3a/3x3"
  type: "Convolution"
  bottom: "inception_3a/3x3_reduce"
  top: "inception_3a/3x3"
  param {
    lr_mult: 1
    decay_mult: 1
  }
  param {
    lr_mult: 2
    decay_mult: 0
  }
  convolution_param {
    num_output: 128
    pad: 1
    kernel_size: 3
    weight_filler {
      type: "xavier"
      std: 0.03
    }
    bias_filler {
      type: "constant"
      value: 0.2
    }
  }
}
layer {
  name: "inception_3a/relu_3x3"
  type: "ReLU"
  bottom: "inception_3a/3x3"
  top: "inception_3a/3x3"
}
layer {
  name: "inception_3a/5x5_reduce"
  type: "Convolution"
  bottom: "pool2/3x3_s2"
  top: "inception_3a/5x5_reduce"
  param {
    lr_mult: 1
    decay_mult: 1
  }
  param {
    lr_mult: 2
    decay_mult: 0
  }
  convolution_param {
    num_output: 16
    kernel_size: 1
    weight_filler {
      type: "xavier"
      std: 0.2
    }
    bias_filler {
      type: "constant"
      value: 0.2
    }
  }
}
layer {
  name: "inception_3a/relu_5x5_reduce"
  type: "ReLU"
  bottom: "inception_3a/5x5_reduce"
  top: "inception_3a/5x5_reduce"
}
layer {
  name: "inception_3a/5x5"
  type: "Convolution"
  bottom: "inception_3a/5x5_reduce"
  top: "inception_3a/5x5"
  param {
    lr_mult: 1
    decay_mult: 1
  }
  param {
    lr_mult: 2
    decay_mult: 0
  }
  convolution_param {
    num_output: 32
    pad: 2
    kernel_size: 5
    weight_filler {
      type: "xavier"
      std: 0.03
    }
    bias_filler {
      type: "constant"
      value: 0.2
    }
  }
}
layer {
  name: "inception_3a/relu_5x5"
  type: "ReLU"
  bottom: "inception_3a/5x5"
  top: "inception_3a/5x5"
}
layer {
  name: "inception_3a/pool"
  type: "Pooling"
  bottom: "pool2/3x3_s2"
  top: "inception_3a/pool"
  pooling_param {
    pool: MAX
    kernel_size: 3
    stride: 1
    pad: 1
  }
}
layer {
  name: "inception_3a/pool_proj"
  type: "Convolution"
  bottom: "inception_3a/pool"
  top: "inception_3a/pool_proj"
  param {
    lr_mult: 1
    decay_mult: 1
  }
  param {
    lr_mult: 2
    decay_mult: 0
  }
  convolution_param {
    num_output: 32
    kernel_size: 1
    weight_filler {
      type: "xavier"
      std: 0.1
    }
    bias_filler {
      type: "constant"
      value: 0.2
    }
  }
}
layer {
  name: "inception_3a/relu_pool_proj"
  type: "ReLU"
  bottom: "inception_3a/pool_proj"
  top: "inception_3a/pool_proj"
}
layer {
  name: "inception_3a/output"
  type: "Concat"
  bottom: "inception_3a/1x1"
  bottom: "inception_3a/3x3"
  bottom: "inception_3a/5x5"
  bottom: "inception_3a/pool_proj"
  top: "inception_3a/output"
}
layer {
  name: "inception_3b/1x1"
  type: "Convolution"
  bottom: "inception_3a/output"
  top: "inception_3b/1x1"
  param {
    lr_mult: 1
    decay_mult: 1
  }
  param {
    lr_mult: 2
    decay_mult: 0
  }
  convolution_param {
    num_output: 128
    kernel_size: 1
    weight_filler {
      type: "xavier"
      std: 0.03
    }
    bias_filler {
      type: "constant"
      value: 0.2
    }
  }
}
layer {
  name: "inception_3b/relu_1x1"
  type: "ReLU"
  bottom: "inception_3b/1x1"
  top: "inception_3b/1x1"
}
layer {
  name: "inception_3b/3x3_reduce"
  type: "Convolution"
  bottom: "inception_3a/output"
  top: "inception_3b/3x3_reduce"
  param {
    lr_mult: 1
    decay_mult: 1
  }
  param {
    lr_mult: 2
    decay_mult: 0
  }
  convolution_param {
    num_output: 128
    kernel_size: 1
    weight_filler {
      type: "xavier"
      std: 0.09
    }
    bias_filler {
      type: "constant"
      value: 0.2
    }
  }
}
layer {
  name: "inception_3b/relu_3x3_reduce"
  type: "ReLU"
  bottom: "inception_3b/3x3_reduce"
  top: "inception_3b/3x3_reduce"
}
layer {
  name: "inception_3b/3x3"
  type: "Convolution"
  bottom: "inception_3b/3x3_reduce"
  top: "inception_3b/3x3"
  param {
    lr_mult: 1
    decay_mult: 1
  }
  param {
    lr_mult: 2
    decay_mult: 0
  }
  convolution_param {
    num_output: 192
    pad: 1
    kernel_size: 3
    weight_filler {
      type: "xavier"
      std: 0.03
    }
    bias_filler {
      type: "constant"
      value: 0.2
    }
  }
}
layer {
  name: "inception_3b/relu_3x3"
  type: "ReLU"
  bottom: "inception_3b/3x3"
  top: "inception_3b/3x3"
}
layer {
  name: "inception_3b/5x5_reduce"
  type: "Convolution"
  bottom: "inception_3a/output"
  top: "inception_3b/5x5_reduce"
  param {
    lr_mult: 1
    decay_mult: 1
  }
  param {
    lr_mult: 2
    decay_mult: 0
  }
  convolution_param {
    num_output: 32
    kernel_size: 1
    weight_filler {
      type: "xavier"
      std: 0.2
    }
    bias_filler {
      type: "constant"
      value: 0.2
    }
  }
}
layer {
  name: "inception_3b/relu_5x5_reduce"
  type: "ReLU"
  bottom: "inception_3b/5x5_reduce"
  top: "inception_3b/5x5_reduce"
}
layer {
  name: "inception_3b/5x5"
  type: "Convolution"
  bottom: "inception_3b/5x5_reduce"
  top: "inception_3b/5x5"
  param {
    lr_mult: 1
    decay_mult: 1
  }
  param {
    lr_mult: 2
    decay_mult: 0
  }
  convolution_param {
    num_output: 96
    pad: 2
    kernel_size: 5
    weight_filler {
      type: "xavier"
      std: 0.03
    }
    bias_filler {
      type: "constant"
      value: 0.2
    }
  }
}
layer {
  name: "inception_3b/relu_5x5"
  type: "ReLU"
  bottom: "inception_3b/5x5"
  top: "inception_3b/5x5"
}
layer {
  name: "inception_3b/pool"
  type: "Pooling"
  bottom: "inception_3a/output"
  top: "inception_3b/pool"
  pooling_param {
    pool: MAX
    kernel_size: 3
    stride: 1
    pad: 1
  }
}
layer {
  name: "inception_3b/pool_proj"
  type: "Convolution"
  bottom: "inception_3b/pool"
  top: "inception_3b/pool_proj"
  param {
    lr_mult: 1
    decay_mult: 1
  }
  param {
    lr_mult: 2
    decay_mult: 0
  }
  convolution_param {
    num_output: 64
    kernel_size: 1
    weight_filler {
      type: "xavier"
      std: 0.1
    }
    bias_filler {
      type: "constant"
      value: 0.2
    }
  }
}
layer {
  name: "inception_3b/relu_pool_proj"
  type: "ReLU"
  bottom: "inception_3b/pool_proj"
  top: "inception_3b/pool_proj"
}
layer {
  name: "inception_3b/output"
  type: "Concat"
  bottom: "inception_3b/1x1"
  bottom: "inception_3b/3x3"
  bottom: "inception_3b/5x5"
  bottom: "inception_3b/pool_proj"
  top: "inception_3b/output"
}
layer {
  name: "pool3/3x3_s2"
  type: "Pooling"
  bottom: "inception_3b/output"
  top: "pool3/3x3_s2"
  pooling_param {
    pool: MAX
    kernel_size: 3
    stride: 2
  }
}
layer {
  name: "inception_4a/1x1"
  type: "Convolution"
  bottom: "pool3/3x3_s2"
  top: "inception_4a/1x1"
  param {
    lr_mult: 1
    decay_mult: 1
  }
  param {
    lr_mult: 2
    decay_mult: 0
  }
  convolution_param {
    num_output: 192
    kernel_size: 1
    weight_filler {
      type: "xavier"
      std: 0.03
    }
    bias_filler {
      type: "constant"
      value: 0.2
    }
  }
}
layer {
  name: "inception_4a/relu_1x1"
  type: "ReLU"
  bottom: "inception_4a/1x1"
  top: "inception_4a/1x1"
}
layer {
  name: "inception_4a/3x3_reduce"
  type: "Convolution"
  bottom: "pool3/3x3_s2"
  top: "inception_4a/3x3_reduce"
  param {
    lr_mult: 1
    decay_mult: 1
  }
  param {
    lr_mult: 2
    decay_mult: 0
  }
  convolution_param {
    num_output: 96
    kernel_size: 1
    weight_filler {
      type: "xavier"
      std: 0.09
    }
    bias_filler {
      type: "constant"
      value: 0.2
    }
  }
}
layer {
  name: "inception_4a/relu_3x3_reduce"
  type: "ReLU"
  bottom: "inception_4a/3x3_reduce"
  top: "inception_4a/3x3_reduce"
}
layer {
  name: "inception_4a/3x3"
  type: "Convolution"
  bottom: "inception_4a/3x3_reduce"
  top: "inception_4a/3x3"
  param {
    lr_mult: 1
    decay_mult: 1
  }
  param {
    lr_mult: 2
    decay_mult: 0
  }
  convolution_param {
    num_output: 208
    pad: 1
    kernel_size: 3
    weight_filler {
      type: "xavier"
      std: 0.03
    }
    bias_filler {
      type: "constant"
      value: 0.2
    }
  }
}
layer {
  name: "inception_4a/relu_3x3"
  type: "ReLU"
  bottom: "inception_4a/3x3"
  top: "inception_4a/3x3"
}
layer {
  name: "inception_4a/5x5_reduce"
  type: "Convolution"
  bottom: "pool3/3x3_s2"
  top: "inception_4a/5x5_reduce"
  param {
    lr_mult: 1
    decay_mult: 1
  }
  param {
    lr_mult: 2
    decay_mult: 0
  }
  convolution_param {
    num_output: 16
    kernel_size: 1
    weight_filler {
      type: "xavier"
      std: 0.2
    }
    bias_filler {
      type: "constant"
      value: 0.2
    }
  }
}
layer {
  name: "inception_4a/relu_5x5_reduce"
  type: "ReLU"
  bottom: "inception_4a/5x5_reduce"
  top: "inception_4a/5x5_reduce"
}
layer {
  name: "inception_4a/5x5"
  type: "Convolution"
  bottom: "inception_4a/5x5_reduce"
  top: "inception_4a/5x5"
  param {
    lr_mult: 1
    decay_mult: 1
  }
  param {
    lr_mult: 2
    decay_mult: 0
  }
  convolution_param {
    num_output: 48
    pad: 2
    kernel_size: 5
    weight_filler {
      type: "xavier"
      std: 0.03
    }
    bias_filler {
      type: "constant"
      value: 0.2
    }
  }
}
layer {
  name: "inception_4a/relu_5x5"
  type: "ReLU"
  bottom: "inception_4a/5x5"
  top: "inception_4a/5x5"
}
layer {
  name: "inception_4a/pool"
  type: "Pooling"
  bottom: "pool3/3x3_s2"
  top: "inception_4a/pool"
  pooling_param {
    pool: MAX
    kernel_size: 3
    stride: 1
    pad: 1
  }
}
layer {
  name: "inception_4a/pool_proj"
  type: "Convolution"
  bottom: "inception_4a/pool"
  top: "inception_4a/pool_proj"
  param {
    lr_mult: 1
    decay_mult: 1
  }
  param {
    lr_mult: 2
    decay_mult: 0
  }
  convolution_param {
    num_output: 64
    kernel_size: 1
    weight_filler {
      type: "xavier"
      std: 0.1
    }
    bias_filler {
      type: "constant"
      value: 0.2
    }
  }
}
layer {
  name: "inception_4a/relu_pool_proj"
  type: "ReLU"
  bottom: "inception_4a/pool_proj"
  top: "inception_4a/pool_proj"
}
layer {
  name: "inception_4a/output"
  type: "Concat"
  bottom: "inception_4a/1x1"
  bottom: "inception_4a/3x3"
  bottom: "inception_4a/5x5"
  bottom: "inception_4a/pool_proj"
  top: "inception_4a/output"
}
layer {
  name: "loss1/ave_pool"
  type: "Pooling"
  bottom: "inception_4a/output"
  top: "loss1/ave_pool"
  pooling_param {
    pool: AVE
    kernel_size: 5
    stride: 3
  }
}
layer {
  name: "loss1/conv"
  type: "Convolution"
  bottom: "loss1/ave_pool"
  top: "loss1/conv"
  param {
    lr_mult: 1
    decay_mult: 1
  }
  param {
    lr_mult: 2
    decay_mult: 0
  }
  convolution_param {
    num_output: 128
    kernel_size: 1
    weight_filler {
      type: "xavier"
      std: 0.08
    }
    bias_filler {
      type: "constant"
      value: 0.2
    }
  }
}
layer {
  name: "loss1/relu_conv"
  type: "ReLU"
  bottom: "loss1/conv"
  top: "loss1/conv"
}
layer {
  name: "loss1/fc"
  type: "InnerProduct"
  bottom: "loss1/conv"
  top: "loss1/fc"
  param {
    lr_mult: 1
    decay_mult: 1
  }
  param {
    lr_mult: 2
    decay_mult: 0
  }
  inner_product_param {
    num_output: 1024
    weight_filler {
      type: "xavier"
      std: 0.02
    }
    bias_filler {
      type: "constant"
      value: 0.2
    }
  }
}
layer {
  name: "loss1/relu_fc"
  type: "ReLU"
  bottom: "loss1/fc"
  top: "loss1/fc"
}
layer {
  name: "loss1/drop_fc"
  type: "Dropout"
  bottom: "loss1/fc"
  top: "loss1/fc"
  dropout_param {
    dropout_ratio: 0.7
  }
}
layer {
  name: "loss1/classifier_plantvillage"
  type: "InnerProduct"
  bottom: "loss1/fc"
  top: "loss1/classifier_plantvillage"
  param {
    lr_mult: 1
    decay_mult: 1
  }
  param {
    lr_mult: 2
    decay_mult: 0
  }
  inner_product_param {
    num_output: 38
    weight_filler {
      type: "xavier"
      std: 0.0009765625
    }
    bias_filler {
      type: "constant"
      value: 0
    }
  }
}
layer {
  name: "inception_4b/1x1"
  type: "Convolution"
  bottom: "inception_4a/output"
  top: "inception_4b/1x1"
  param {
    lr_mult: 1
    decay_mult: 1
  }
  param {
    lr_mult: 2
    decay_mult: 0
  }
  convolution_param {
    num_output: 160
    kernel_size: 1
    weight_filler {
      type: "xavier"
      std: 0.03
    }
    bias_filler {
      type: "constant"
      value: 0.2
    }
  }
}
layer {
  name: "inception_4b/relu_1x1"
  type: "ReLU"
  bottom: "inception_4b/1x1"
  top: "inception_4b/1x1"
}
layer {
  name: "inception_4b/3x3_reduce"
  type: "Convolution"
  bottom: "inception_4a/output"
  top: "inception_4b/3x3_reduce"
  param {
    lr_mult: 1
    decay_mult: 1
  }
  param {
    lr_mult: 2
    decay_mult: 0
  }
  convolution_param {
    num_output: 112
    kernel_size: 1
    weight_filler {
      type: "xavier"
      std: 0.09
    }
    bias_filler {
      type: "constant"
      value: 0.2
    }
  }
}
layer {
  name: "inception_4b/relu_3x3_reduce"
  type: "ReLU"
  bottom: "inception_4b/3x3_reduce"
  top: "inception_4b/3x3_reduce"
}
layer {
  name: "inception_4b/3x3"
  type: "Convolution"
  bottom: "inception_4b/3x3_reduce"
  top: "inception_4b/3x3"
  param {
    lr_mult: 1
    decay_mult: 1
  }
  param {
    lr_mult: 2
    decay_mult: 0
  }
  convolution_param {
    num_output: 224
    pad: 1
    kernel_size: 3
    weight_filler {
      type: "xavier"
      std: 0.03
    }
    bias_filler {
      type: "constant"
      value: 0.2
    }
  }
}
layer {
  name: "inception_4b/relu_3x3"
  type: "ReLU"
  bottom: "inception_4b/3x3"
  top: "inception_4b/3x3"
}
layer {
  name: "inception_4b/5x5_reduce"
  type: "Convolution"
  bottom: "inception_4a/output"
  top: "inception_4b/5x5_reduce"
  param {
    lr_mult: 1
    decay_mult: 1
  }
  param {
    lr_mult: 2
    decay_mult: 0
  }
  convolution_param {
    num_output: 24
    kernel_size: 1
    weight_filler {
      type: "xavier"
      std: 0.2
    }
    bias_filler {
      type: "constant"
      value: 0.2
    }
  }
}
layer {
  name: "inception_4b/relu_5x5_reduce"
  type: "ReLU"
  bottom: "inception_4b/5x5_reduce"
  top: "inception_4b/5x5_reduce"
}
layer {
  name: "inception_4b/5x5"
  type: "Convolution"
  bottom: "inception_4b/5x5_reduce"
  top: "inception_4b/5x5"
  param {
    lr_mult: 1
    decay_mult: 1
  }
  param {
    lr_mult: 2
    decay_mult: 0
  }
  convolution_param {
    num_output: 64
    pad: 2
    kernel_size: 5
    weight_filler {
      type: "xavier"
      std: 0.03
    }
    bias_filler {
      type: "constant"
      value: 0.2
    }
  }
}
layer {
  name: "inception_4b/relu_5x5"
  type: "ReLU"
  bottom: "inception_4b/5x5"
  top: "inception_4b/5x5"
}
layer {
  name: "inception_4b/pool"
  type: "Pooling"
  bottom: "inception_4a/output"
  top: "inception_4b/pool"
  pooling_param {
    pool: MAX
    kernel_size: 3
    stride: 1
    pad: 1
  }
}
layer {
  name: "inception_4b/pool_proj"
  type: "Convolution"
  bottom: "inception_4b/pool"
  top: "inception_4b/pool_proj"
  param {
    lr_mult: 1
    decay_mult: 1
  }
  param {
    lr_mult: 2
    decay_mult: 0
  }
  convolution_param {
    num_output: 64
    kernel_size: 1
    weight_filler {
      type: "xavier"
      std: 0.1
    }
    bias_filler {
      type: "constant"
      value: 0.2
    }
  }
}
layer {
  name: "inception_4b/relu_pool_proj"
  type: "ReLU"
  bottom: "inception_4b/pool_proj"
  top: "inception_4b/pool_proj"
}
layer {
  name: "inception_4b/output"
  type: "Concat"
  bottom: "inception_4b/1x1"
  bottom: "inception_4b/3x3"
  bottom: "inception_4b/5x5"
  bottom: "inception_4b/pool_proj"
  top: "inception_4b/output"
}
layer {
  name: "inception_4c/1x1"
  type: "Convolution"
  bottom: "inception_4b/output"
  top: "inception_4c/1x1"
  param {
    lr_mult: 1
    decay_mult: 1
  }
  param {
    lr_mult: 2
    decay_mult: 0
  }
  convolution_param {
    num_output: 128
    kernel_size: 1
    weight_filler {
      type: "xavier"
      std: 0.03
    }
    bias_filler {
      type: "constant"
      value: 0.2
    }
  }
}
layer {
  name: "inception_4c/relu_1x1"
  type: "ReLU"
  bottom: "inception_4c/1x1"
  top: "inception_4c/1x1"
}
layer {
  name: "inception_4c/3x3_reduce"
  type: "Convolution"
  bottom: "inception_4b/output"
  top: "inception_4c/3x3_reduce"
  param {
    lr_mult: 1
    decay_mult: 1
  }
  param {
    lr_mult: 2
    decay_mult: 0
  }
  convolution_param {
    num_output: 128
    kernel_size: 1
    weight_filler {
      type: "xavier"
      std: 0.09
    }
    bias_filler {
      type: "constant"
      value: 0.2
    }
  }
}
layer {
  name: "inception_4c/relu_3x3_reduce"
  type: "ReLU"
  bottom: "inception_4c/3x3_reduce"
  top: "inception_4c/3x3_reduce"
}
layer {
  name: "inception_4c/3x3"
  type: "Convolution"
  bottom: "inception_4c/3x3_reduce"
  top: "inception_4c/3x3"
  param {
    lr_mult: 1
    decay_mult: 1
  }
  param {
    lr_mult: 2
    decay_mult: 0
  }
  convolution_param {
    num_output: 256
    pad: 1
    kernel_size: 3
    weight_filler {
      type: "xavier"
      std: 0.03
    }
    bias_filler {
      type: "constant"
      value: 0.2
    }
  }
}
layer {
  name: "inception_4c/relu_3x3"
  type: "ReLU"
  bottom: "inception_4c/3x3"
  top: "inception_4c/3x3"
}
layer {
  name: "inception_4c/5x5_reduce"
  type: "Convolution"
  bottom: "inception_4b/output"
  top: "inception_4c/5x5_reduce"
  param {
    lr_mult: 1
    decay_mult: 1
  }
  param {
    lr_mult: 2
    decay_mult: 0
  }
  convolution_param {
    num_output: 24
    kernel_size: 1
    weight_filler {
      type: "xavier"
      std: 0.2
    }
    bias_filler {
      type: "constant"
      value: 0.2
    }
  }
}
layer {
  name: "inception_4c/relu_5x5_reduce"
  type: "ReLU"
  bottom: "inception_4c/5x5_reduce"
  top: "inception_4c/5x5_reduce"
}
layer {
  name: "inception_4c/5x5"
  type: "Convolution"
  bottom: "inception_4c/5x5_reduce"
  top: "inception_4c/5x5"
  param {
    lr_mult: 1
    decay_mult: 1
  }
  param {
    lr_mult: 2
    decay_mult: 0
  }
  convolution_param {
    num_output: 64
    pad: 2
    kernel_size: 5
    weight_filler {
      type: "xavier"
      std: 0.03
    }
    bias_filler {
      type: "constant"
      value: 0.2
    }
  }
}
layer {
  name: "inception_4c/relu_5x5"
  type: "ReLU"
  bottom: "inception_4c/5x5"
  top: "inception_4c/5x5"
}
layer {
  name: "inception_4c/pool"
  type: "Pooling"
  bottom: "inception_4b/output"
  top: "inception_4c/pool"
  pooling_param {
    pool: MAX
    kernel_size: 3
    stride: 1
    pad: 1
  }
}
layer {
  name: "inception_4c/pool_proj"
  type: "Convolution"
  bottom: "inception_4c/pool"
  top: "inception_4c/pool_proj"
  param {
    lr_mult: 1
    decay_mult: 1
  }
  param {
    lr_mult: 2
    decay_mult: 0
  }
  convolution_param {
    num_output: 64
    kernel_size: 1
    weight_filler {
      type: "xavier"
      std: 0.1
    }
    bias_filler {
      type: "constant"
      value: 0.2
    }
  }
}
layer {
  name: "inception_4c/relu_pool_proj"
  type: "ReLU"
  bottom: "inception_4c/pool_proj"
  top: "inception_4c/pool_proj"
}
layer {
  name: "inception_4c/output"
  type: "Concat"
  bottom: "inception_4c/1x1"
  bottom: "inception_4c/3x3"
  bottom: "inception_4c/5x5"
  bottom: "inception_4c/pool_proj"
  top: "inception_4c/output"
}
layer {
  name: "inception_4d/1x1"
  type: "Convolution"
  bottom: "inception_4c/output"
  top: "inception_4d/1x1"
  param {
    lr_mult: 1
    decay_mult: 1
  }
  param {
    lr_mult: 2
    decay_mult: 0
  }
  convolution_param {
    num_output: 112
    kernel_size: 1
    weight_filler {
      type: "xavier"
      std: 0.03
    }
    bias_filler {
      type: "constant"
      value: 0.2
    }
  }
}
layer {
  name: "inception_4d/relu_1x1"
  type: "ReLU"
  bottom: "inception_4d/1x1"
  top: "inception_4d/1x1"
}
layer {
  name: "inception_4d/3x3_reduce"
  type: "Convolution"
  bottom: "inception_4c/output"
  top: "inception_4d/3x3_reduce"
  param {
    lr_mult: 1
    decay_mult: 1
  }
  param {
    lr_mult: 2
    decay_mult: 0
  }
  convolution_param {
    num_output: 144
    kernel_size: 1
    weight_filler {
      type: "xavier"
      std: 0.09
    }
    bias_filler {
      type: "constant"
      value: 0.2
    }
  }
}
layer {
  name: "inception_4d/relu_3x3_reduce"
  type: "ReLU"
  bottom: "inception_4d/3x3_reduce"
  top: "inception_4d/3x3_reduce"
}
layer {
  name: "inception_4d/3x3"
  type: "Convolution"
  bottom: "inception_4d/3x3_reduce"
  top: "inception_4d/3x3"
  param {
    lr_mult: 1
    decay_mult: 1
  }
  param {
    lr_mult: 2
    decay_mult: 0
  }
  convolution_param {
    num_output: 288
    pad: 1
    kernel_size: 3
    weight_filler {
      type: "xavier"
      std: 0.03
    }
    bias_filler {
      type: "constant"
      value: 0.2
    }
  }
}
layer {
  name: "inception_4d/relu_3x3"
  type: "ReLU"
  bottom: "inception_4d/3x3"
  top: "inception_4d/3x3"
}
layer {
  name: "inception_4d/5x5_reduce"
  type: "Convolution"
  bottom: "inception_4c/output"
  top: "inception_4d/5x5_reduce"
  param {
    lr_mult: 1
    decay_mult: 1
  }
  param {
    lr_mult: 2
    decay_mult: 0
  }
  convolution_param {
    num_output: 32
    kernel_size: 1
    weight_filler {
      type: "xavier"
      std: 0.2
    }
    bias_filler {
      type: "constant"
      value: 0.2
    }
  }
}
layer {
  name: "inception_4d/relu_5x5_reduce"
  type: "ReLU"
  bottom: "inception_4d/5x5_reduce"
  top: "inception_4d/5x5_reduce"
}
layer {
  name: "inception_4d/5x5"
  type: "Convolution"
  bottom: "inception_4d/5x5_reduce"
  top: "inception_4d/5x5"
  param {
    lr_mult: 1
    decay_mult: 1
  }
  param {
    lr_mult: 2
    decay_mult: 0
  }
  convolution_param {
    num_output: 64
    pad: 2
    kernel_size: 5
    weight_filler {
      type: "xavier"
      std: 0.03
    }
    bias_filler {
      type: "constant"
      value: 0.2
    }
  }
}
layer {
  name: "inception_4d/relu_5x5"
  type: "ReLU"
  bottom: "inception_4d/5x5"
  top: "inception_4d/5x5"
}
layer {
  name: "inception_4d/pool"
  type: "Pooling"
  bottom: "inception_4c/output"
  top: "inception_4d/pool"
  pooling_param {
    pool: MAX
    kernel_size: 3
    stride: 1
    pad: 1
  }
}
layer {
  name: "inception_4d/pool_proj"
  type: "Convolution"
  bottom: "inception_4d/pool"
  top: "inception_4d/pool_proj"
  param {
    lr_mult: 1
    decay_mult: 1
  }
  param {
    lr_mult: 2
    decay_mult: 0
  }
  convolution_param {
    num_output: 64
    kernel_size: 1
    weight_filler {
      type: "xavier"
      std: 0.1
    }
    bias_filler {
      type: "constant"
      value: 0.2
    }
  }
}
layer {
  name: "inception_4d/relu_pool_proj"
  type: "ReLU"
  bottom: "inception_4d/pool_proj"
  top: "inception_4d/pool_proj"
}
layer {
  name: "inception_4d/output"
  type: "Concat"
  bottom: "inception_4d/1x1"
  bottom: "inception_4d/3x3"
  bottom: "inception_4d/5x5"
  bottom: "inception_4d/pool_proj"
  top: "inception_4d/output"
}
layer {
  name: "loss2/ave_pool"
  type: "Pooling"
  bottom: "inception_4d/output"
  top: "loss2/ave_pool"
  pooling_param {
    pool: AVE
    kernel_size: 5
    stride: 3
  }
}
layer {
  name: "loss2/conv"
  type: "Convolution"
  bottom: "loss2/ave_pool"
  top: "loss2/conv"
  param {
    lr_mult: 1
    decay_mult: 1
  }
  param {
    lr_mult: 2
    decay_mult: 0
  }
  convolution_param {
    num_output: 128
    kernel_size: 1
    weight_filler {
      type: "xavier"
      std: 0.08
    }
    bias_filler {
      type: "constant"
      value: 0.2
    }
  }
}
layer {
  name: "loss2/relu_conv"
  type: "ReLU"
  bottom: "loss2/conv"
  top: "loss2/conv"
}
layer {
  name: "loss2/fc"
  type: "InnerProduct"
  bottom: "loss2/conv"
  top: "loss2/fc"
  param {
    lr_mult: 1
    decay_mult: 1
  }
  param {
    lr_mult: 2
    decay_mult: 0
  }
  inner_product_param {
    num_output: 1024
    weight_filler {
      type: "xavier"
      std: 0.02
    }
    bias_filler {
      type: "constant"
      value: 0.2
    }
  }
}
layer {
  name: "loss2/relu_fc"
  type: "ReLU"
  bottom: "loss2/fc"
  top: "loss2/fc"
}
layer {
  name: "loss2/drop_fc"
  type: "Dropout"
  bottom: "loss2/fc"
  top: "loss2/fc"
  dropout_param {
    dropout_ratio: 0.7
  }
}
layer {
  name: "loss2/classifier_plantvillage"
  type: "InnerProduct"
  bottom: "loss2/fc"
  top: "loss2/classifier_plantvillage"
  param {
    lr_mult: 1
    decay_mult: 1
  }
  param {
    lr_mult: 2
    decay_mult: 0
  }
  inner_product_param {
    num_output: 38
    weight_filler {
      type: "xavier"
      std: 0.0009765625
    }
    bias_filler {
      type: "constant"
      value: 0
    }
  }
}
layer {
  name: "inception_4e/1x1"
  type: "Convolution"
  bottom: "inception_4d/output"
  top: "inception_4e/1x1"
  param {
    lr_mult: 1
    decay_mult: 1
  }
  param {
    lr_mult: 2
    decay_mult: 0
  }
  convolution_param {
    num_output: 256
    kernel_size: 1
    weight_filler {
      type: "xavier"
      std: 0.03
    }
    bias_filler {
      type: "constant"
      value: 0.2
    }
  }
}
layer {
  name: "inception_4e/relu_1x1"
  type: "ReLU"
  bottom: "inception_4e/1x1"
  top: "inception_4e/1x1"
}
layer {
  name: "inception_4e/3x3_reduce"
  type: "Convolution"
  bottom: "inception_4d/output"
  top: "inception_4e/3x3_reduce"
  param {
    lr_mult: 1
    decay_mult: 1
  }
  param {
    lr_mult: 2
    decay_mult: 0
  }
  convolution_param {
    num_output: 160
    kernel_size: 1
    weight_filler {
      type: "xavier"
      std: 0.09
    }
    bias_filler {
      type: "constant"
      value: 0.2
    }
  }
}
layer {
  name: "inception_4e/relu_3x3_reduce"
  type: "ReLU"
  bottom: "inception_4e/3x3_reduce"
  top: "inception_4e/3x3_reduce"
}
layer {
  name: "inception_4e/3x3"
  type: "Convolution"
  bottom: "inception_4e/3x3_reduce"
  top: "inception_4e/3x3"
  param {
    lr_mult: 1
    decay_mult: 1
  }
  param {
    lr_mult: 2
    decay_mult: 0
  }
  convolution_param {
    num_output: 320
    pad: 1
    kernel_size: 3
    weight_filler {
      type: "xavier"
      std: 0.03
    }
    bias_filler {
      type: "constant"
      value: 0.2
    }
  }
}
layer {
  name: "inception_4e/relu_3x3"
  type: "ReLU"
  bottom: "inception_4e/3x3"
  top: "inception_4e/3x3"
}
layer {
  name: "inception_4e/5x5_reduce"
  type: "Convolution"
  bottom: "inception_4d/output"
  top: "inception_4e/5x5_reduce"
  param {
    lr_mult: 1
    decay_mult: 1
  }
  param {
    lr_mult: 2
    decay_mult: 0
  }
  convolution_param {
    num_output: 32
    kernel_size: 1
    weight_filler {
      type: "xavier"
      std: 0.2
    }
    bias_filler {
      type: "constant"
      value: 0.2
    }
  }
}
layer {
  name: "inception_4e/relu_5x5_reduce"
  type: "ReLU"
  bottom: "inception_4e/5x5_reduce"
  top: "inception_4e/5x5_reduce"
}
layer {
  name: "inception_4e/5x5"
  type: "Convolution"
  bottom: "inception_4e/5x5_reduce"
  top: "inception_4e/
I0403 15:11:56.123147 31282 layer_factory.hpp:77] Creating layer data
I0403 15:11:56.123734 31282 net.cpp:91] Creating Layer data
I0403 15:11:56.123764 31282 net.cpp:399] data -> data
I0403 15:11:56.123819 31282 net.cpp:399] data -> label
I0403 15:11:56.123857 31282 data_transformer.cpp:25] Loading mean file from: /home/mohanty/data/final_dataset/lmdb/grayscale-80-20/mean.binaryproto
I0403 15:11:56.126842 31285 db_lmdb.cpp:38] Opened lmdb /home/mohanty/data/final_dataset/lmdb/grayscale-80-20/test_db
I0403 15:11:56.136694 31282 data_layer.cpp:41] output data size: 24,3,224,224
I0403 15:11:56.163955 31282 net.cpp:141] Setting up data
I0403 15:11:56.164041 31282 net.cpp:148] Top shape: 24 3 224 224 (3612672)
I0403 15:11:56.164064 31282 net.cpp:148] Top shape: 24 (24)
I0403 15:11:56.164080 31282 net.cpp:156] Memory required for data: 14450784
I0403 15:11:56.164111 31282 layer_factory.hpp:77] Creating layer label_data_1_split
I0403 15:11:56.164141 31282 net.cpp:91] Creating Layer label_data_1_split
I0403 15:11:56.164161 31282 net.cpp:425] label_data_1_split <- label
I0403 15:11:56.164197 31282 net.cpp:399] label_data_1_split -> label_data_1_split_0
I0403 15:11:56.164227 31282 net.cpp:399] label_data_1_split -> label_data_1_split_1
I0403 15:11:56.164250 31282 net.cpp:399] label_data_1_split -> label_data_1_split_2
I0403 15:11:56.164273 31282 net.cpp:399] label_data_1_split -> label_data_1_split_3
I0403 15:11:56.164305 31282 net.cpp:399] label_data_1_split -> label_data_1_split_4
I0403 15:11:56.164329 31282 net.cpp:399] label_data_1_split -> label_data_1_split_5
I0403 15:11:56.164350 31282 net.cpp:399] label_data_1_split -> label_data_1_split_6
I0403 15:11:56.164372 31282 net.cpp:399] label_data_1_split -> label_data_1_split_7
I0403 15:11:56.164393 31282 net.cpp:399] label_data_1_split -> label_data_1_split_8
I0403 15:11:56.164414 31282 net.cpp:399] label_data_1_split -> label_data_1_split_9
I0403 15:11:56.164543 31282 net.cpp:141] Setting up label_data_1_split
I0403 15:11:56.164589 31282 net.cpp:148] Top shape: 24 (24)
I0403 15:11:56.164608 31282 net.cpp:148] Top shape: 24 (24)
I0403 15:11:56.164623 31282 net.cpp:148] Top shape: 24 (24)
I0403 15:11:56.164639 31282 net.cpp:148] Top shape: 24 (24)
I0403 15:11:56.164654 31282 net.cpp:148] Top shape: 24 (24)
I0403 15:11:56.164669 31282 net.cpp:148] Top shape: 24 (24)
I0403 15:11:56.164685 31282 net.cpp:148] Top shape: 24 (24)
I0403 15:11:56.164700 31282 net.cpp:148] Top shape: 24 (24)
I0403 15:11:56.164716 31282 net.cpp:148] Top shape: 24 (24)
I0403 15:11:56.164731 31282 net.cpp:148] Top shape: 24 (24)
I0403 15:11:56.164768 31282 net.cpp:156] Memory required for data: 14451744
I0403 15:11:56.164784 31282 layer_factory.hpp:77] Creating layer conv1/7x7_s2
I0403 15:11:56.164819 31282 net.cpp:91] Creating Layer conv1/7x7_s2
I0403 15:11:56.164837 31282 net.cpp:425] conv1/7x7_s2 <- data
I0403 15:11:56.164856 31282 net.cpp:399] conv1/7x7_s2 -> conv1/7x7_s2
I0403 15:11:56.301801 31282 net.cpp:141] Setting up conv1/7x7_s2
I0403 15:11:56.301893 31282 net.cpp:148] Top shape: 24 64 112 112 (19267584)
I0403 15:11:56.301911 31282 net.cpp:156] Memory required for data: 91522080
I0403 15:11:56.301946 31282 layer_factory.hpp:77] Creating layer conv1/relu_7x7
I0403 15:11:56.301977 31282 net.cpp:91] Creating Layer conv1/relu_7x7
I0403 15:11:56.301997 31282 net.cpp:425] conv1/relu_7x7 <- conv1/7x7_s2
I0403 15:11:56.302017 31282 net.cpp:386] conv1/relu_7x7 -> conv1/7x7_s2 (in-place)
I0403 15:11:56.302278 31282 net.cpp:141] Setting up conv1/relu_7x7
I0403 15:11:56.302305 31282 net.cpp:148] Top shape: 24 64 112 112 (19267584)
I0403 15:11:56.302321 31282 net.cpp:156] Memory required for data: 168592416
I0403 15:11:56.302337 31282 layer_factory.hpp:77] Creating layer pool1/3x3_s2
I0403 15:11:56.302364 31282 net.cpp:91] Creating Layer pool1/3x3_s2
I0403 15:11:56.302382 31282 net.cpp:425] pool1/3x3_s2 <- conv1/7x7_s2
I0403 15:11:56.302402 31282 net.cpp:399] pool1/3x3_s2 -> pool1/3x3_s2
I0403 15:11:56.302495 31282 net.cpp:141] Setting up pool1/3x3_s2
I0403 15:11:56.302527 31282 net.cpp:148] Top shape: 24 64 56 56 (4816896)
I0403 15:11:56.302543 31282 net.cpp:156] Memory required for data: 187860000
I0403 15:11:56.302558 31282 layer_factory.hpp:77] Creating layer pool1/norm1
I0403 15:11:56.302584 31282 net.cpp:91] Creating Layer pool1/norm1
I0403 15:11:56.302603 31282 net.cpp:425] pool1/norm1 <- pool1/3x3_s2
I0403 15:11:56.302621 31282 net.cpp:399] pool1/norm1 -> pool1/norm1
I0403 15:11:56.302911 31282 net.cpp:141] Setting up pool1/norm1
I0403 15:11:56.302938 31282 net.cpp:148] Top shape: 24 64 56 56 (4816896)
I0403 15:11:56.302954 31282 net.cpp:156] Memory required for data: 207127584
I0403 15:11:56.302970 31282 layer_factory.hpp:77] Creating layer conv2/3x3_reduce
I0403 15:11:56.302996 31282 net.cpp:91] Creating Layer conv2/3x3_reduce
I0403 15:11:56.303014 31282 net.cpp:425] conv2/3x3_reduce <- pool1/norm1
I0403 15:11:56.303033 31282 net.cpp:399] conv2/3x3_reduce -> conv2/3x3_reduce
I0403 15:11:56.304476 31282 net.cpp:141] Setting up conv2/3x3_reduce
I0403 15:11:56.304515 31282 net.cpp:148] Top shape: 24 64 56 56 (4816896)
I0403 15:11:56.304534 31282 net.cpp:156] Memory required for data: 226395168
I0403 15:11:56.304566 31282 layer_factory.hpp:77] Creating layer conv2/relu_3x3_reduce
I0403 15:11:56.304585 31282 net.cpp:91] Creating Layer conv2/relu_3x3_reduce
I0403 15:11:56.304602 31282 net.cpp:425] conv2/relu_3x3_reduce <- conv2/3x3_reduce
I0403 15:11:56.304630 31282 net.cpp:386] conv2/relu_3x3_reduce -> conv2/3x3_reduce (in-place)
I0403 15:11:56.304878 31282 net.cpp:141] Setting up conv2/relu_3x3_reduce
I0403 15:11:56.304905 31282 net.cpp:148] Top shape: 24 64 56 56 (4816896)
I0403 15:11:56.304920 31282 net.cpp:156] Memory required for data: 245662752
I0403 15:11:56.304935 31282 layer_factory.hpp:77] Creating layer conv2/3x3
I0403 15:11:56.304957 31282 net.cpp:91] Creating Layer conv2/3x3
I0403 15:11:56.304975 31282 net.cpp:425] conv2/3x3 <- conv2/3x3_reduce
I0403 15:11:56.304993 31282 net.cpp:399] conv2/3x3 -> conv2/3x3
I0403 15:11:56.307193 31282 net.cpp:141] Setting up conv2/3x3
I0403 15:11:56.307224 31282 net.cpp:148] Top shape: 24 192 56 56 (14450688)
I0403 15:11:56.307240 31282 net.cpp:156] Memory required for data: 303465504
I0403 15:11:56.307260 31282 layer_factory.hpp:77] Creating layer conv2/relu_3x3
I0403 15:11:56.307279 31282 net.cpp:91] Creating Layer conv2/relu_3x3
I0403 15:11:56.307296 31282 net.cpp:425] conv2/relu_3x3 <- conv2/3x3
I0403 15:11:56.307313 31282 net.cpp:386] conv2/relu_3x3 -> conv2/3x3 (in-place)
I0403 15:11:56.307468 31282 net.cpp:141] Setting up conv2/relu_3x3
I0403 15:11:56.307493 31282 net.cpp:148] Top shape: 24 192 56 56 (14450688)
I0403 15:11:56.307538 31282 net.cpp:156] Memory required for data: 361268256
I0403 15:11:56.307554 31282 layer_factory.hpp:77] Creating layer conv2/norm2
I0403 15:11:56.307574 31282 net.cpp:91] Creating Layer conv2/norm2
I0403 15:11:56.307590 31282 net.cpp:425] conv2/norm2 <- conv2/3x3
I0403 15:11:56.307607 31282 net.cpp:399] conv2/norm2 -> conv2/norm2
I0403 15:11:56.307919 31282 net.cpp:141] Setting up conv2/norm2
I0403 15:11:56.307946 31282 net.cpp:148] Top shape: 24 192 56 56 (14450688)
I0403 15:11:56.307962 31282 net.cpp:156] Memory required for data: 419071008
I0403 15:11:56.307977 31282 layer_factory.hpp:77] Creating layer pool2/3x3_s2
I0403 15:11:56.307996 31282 net.cpp:91] Creating Layer pool2/3x3_s2
I0403 15:11:56.308012 31282 net.cpp:425] pool2/3x3_s2 <- conv2/norm2
I0403 15:11:56.308029 31282 net.cpp:399] pool2/3x3_s2 -> pool2/3x3_s2
I0403 15:11:56.308078 31282 net.cpp:141] Setting up pool2/3x3_s2
I0403 15:11:56.308099 31282 net.cpp:148] Top shape: 24 192 28 28 (3612672)
I0403 15:11:56.308115 31282 net.cpp:156] Memory required for data: 433521696
I0403 15:11:56.308130 31282 layer_factory.hpp:77] Creating layer pool2/3x3_s2_pool2/3x3_s2_0_split
I0403 15:11:56.308148 31282 net.cpp:91] Creating Layer pool2/3x3_s2_pool2/3x3_s2_0_split
I0403 15:11:56.308164 31282 net.cpp:425] pool2/3x3_s2_pool2/3x3_s2_0_split <- pool2/3x3_s2
I0403 15:11:56.308182 31282 net.cpp:399] pool2/3x3_s2_pool2/3x3_s2_0_split -> pool2/3x3_s2_pool2/3x3_s2_0_split_0
I0403 15:11:56.308202 31282 net.cpp:399] pool2/3x3_s2_pool2/3x3_s2_0_split -> pool2/3x3_s2_pool2/3x3_s2_0_split_1
I0403 15:11:56.308221 31282 net.cpp:399] pool2/3x3_s2_pool2/3x3_s2_0_split -> pool2/3x3_s2_pool2/3x3_s2_0_split_2
I0403 15:11:56.308240 31282 net.cpp:399] pool2/3x3_s2_pool2/3x3_s2_0_split -> pool2/3x3_s2_pool2/3x3_s2_0_split_3
I0403 15:11:56.308305 31282 net.cpp:141] Setting up pool2/3x3_s2_pool2/3x3_s2_0_split
I0403 15:11:56.308329 31282 net.cpp:148] Top shape: 24 192 28 28 (3612672)
I0403 15:11:56.308347 31282 net.cpp:148] Top shape: 24 192 28 28 (3612672)
I0403 15:11:56.308363 31282 net.cpp:148] Top shape: 24 192 28 28 (3612672)
I0403 15:11:56.308379 31282 net.cpp:148] Top shape: 24 192 28 28 (3612672)
I0403 15:11:56.308393 31282 net.cpp:156] Memory required for data: 491324448
I0403 15:11:56.308409 31282 layer_factory.hpp:77] Creating layer inception_3a/1x1
I0403 15:11:56.308430 31282 net.cpp:91] Creating Layer inception_3a/1x1
I0403 15:11:56.308446 31282 net.cpp:425] inception_3a/1x1 <- pool2/3x3_s2_pool2/3x3_s2_0_split_0
I0403 15:11:56.308465 31282 net.cpp:399] inception_3a/1x1 -> inception_3a/1x1
I0403 15:11:56.309963 31282 net.cpp:141] Setting up inception_3a/1x1
I0403 15:11:56.309991 31282 net.cpp:148] Top shape: 24 64 28 28 (1204224)
I0403 15:11:56.310006 31282 net.cpp:156] Memory required for data: 496141344
I0403 15:11:56.310025 31282 layer_factory.hpp:77] Creating layer inception_3a/relu_1x1
I0403 15:11:56.310046 31282 net.cpp:91] Creating Layer inception_3a/relu_1x1
I0403 15:11:56.310062 31282 net.cpp:425] inception_3a/relu_1x1 <- inception_3a/1x1
I0403 15:11:56.310078 31282 net.cpp:386] inception_3a/relu_1x1 -> inception_3a/1x1 (in-place)
I0403 15:11:56.310248 31282 net.cpp:141] Setting up inception_3a/relu_1x1
I0403 15:11:56.310276 31282 net.cpp:148] Top shape: 24 64 28 28 (1204224)
I0403 15:11:56.310292 31282 net.cpp:156] Memory required for data: 500958240
I0403 15:11:56.310307 31282 layer_factory.hpp:77] Creating layer inception_3a/3x3_reduce
I0403 15:11:56.310328 31282 net.cpp:91] Creating Layer inception_3a/3x3_reduce
I0403 15:11:56.310344 31282 net.cpp:425] inception_3a/3x3_reduce <- pool2/3x3_s2_pool2/3x3_s2_0_split_1
I0403 15:11:56.310364 31282 net.cpp:399] inception_3a/3x3_reduce -> inception_3a/3x3_reduce
I0403 15:11:56.312013 31282 net.cpp:141] Setting up inception_3a/3x3_reduce
I0403 15:11:56.312041 31282 net.cpp:148] Top shape: 24 96 28 28 (1806336)
I0403 15:11:56.312057 31282 net.cpp:156] Memory required for data: 508183584
I0403 15:11:56.312080 31282 layer_factory.hpp:77] Creating layer inception_3a/relu_3x3_reduce
I0403 15:11:56.312114 31282 net.cpp:91] Creating Layer inception_3a/relu_3x3_reduce
I0403 15:11:56.312131 31282 net.cpp:425] inception_3a/relu_3x3_reduce <- inception_3a/3x3_reduce
I0403 15:11:56.312149 31282 net.cpp:386] inception_3a/relu_3x3_reduce -> inception_3a/3x3_reduce (in-place)
I0403 15:11:56.312325 31282 net.cpp:141] Setting up inception_3a/relu_3x3_reduce
I0403 15:11:56.312348 31282 net.cpp:148] Top shape: 24 96 28 28 (1806336)
I0403 15:11:56.312362 31282 net.cpp:156] Memory required for data: 515408928
I0403 15:11:56.312376 31282 layer_factory.hpp:77] Creating layer inception_3a/3x3
I0403 15:11:56.312400 31282 net.cpp:91] Creating Layer inception_3a/3x3
I0403 15:11:56.312417 31282 net.cpp:425] inception_3a/3x3 <- inception_3a/3x3_reduce
I0403 15:11:56.312438 31282 net.cpp:399] inception_3a/3x3 -> inception_3a/3x3
I0403 15:11:56.314014 31282 net.cpp:141] Setting up inception_3a/3x3
I0403 15:11:56.314041 31282 net.cpp:148] Top shape: 24 128 28 28 (2408448)
I0403 15:11:56.314056 31282 net.cpp:156] Memory required for data: 525042720
I0403 15:11:56.314075 31282 layer_factory.hpp:77] Creating layer inception_3a/relu_3x3
I0403 15:11:56.314095 31282 net.cpp:91] Creating Layer inception_3a/relu_3x3
I0403 15:11:56.314110 31282 net.cpp:425] inception_3a/relu_3x3 <- inception_3a/3x3
I0403 15:11:56.314127 31282 net.cpp:386] inception_3a/relu_3x3 -> inception_3a/3x3 (in-place)
I0403 15:11:56.314393 31282 net.cpp:141] Setting up inception_3a/relu_3x3
I0403 15:11:56.314419 31282 net.cpp:148] Top shape: 24 128 28 28 (2408448)
I0403 15:11:56.314434 31282 net.cpp:156] Memory required for data: 534676512
I0403 15:11:56.314448 31282 layer_factory.hpp:77] Creating layer inception_3a/5x5_reduce
I0403 15:11:56.314472 31282 net.cpp:91] Creating Layer inception_3a/5x5_reduce
I0403 15:11:56.314489 31282 net.cpp:425] inception_3a/5x5_reduce <- pool2/3x3_s2_pool2/3x3_s2_0_split_2
I0403 15:11:56.314518 31282 net.cpp:399] inception_3a/5x5_reduce -> inception_3a/5x5_reduce
I0403 15:11:56.315430 31282 net.cpp:141] Setting up inception_3a/5x5_reduce
I0403 15:11:56.315459 31282 net.cpp:148] Top shape: 24 16 28 28 (301056)
I0403 15:11:56.315475 31282 net.cpp:156] Memory required for data: 535880736
I0403 15:11:56.315493 31282 layer_factory.hpp:77] Creating layer inception_3a/relu_5x5_reduce
I0403 15:11:56.315516 31282 net.cpp:91] Creating Layer inception_3a/relu_5x5_reduce
I0403 15:11:56.315532 31282 net.cpp:425] inception_3a/relu_5x5_reduce <- inception_3a/5x5_reduce
I0403 15:11:56.315552 31282 net.cpp:386] inception_3a/relu_5x5_reduce -> inception_3a/5x5_reduce (in-place)
I0403 15:11:56.315835 31282 net.cpp:141] Setting up inception_3a/relu_5x5_reduce
I0403 15:11:56.315863 31282 net.cpp:148] Top shape: 24 16 28 28 (301056)
I0403 15:11:56.315878 31282 net.cpp:156] Memory required for data: 537084960
I0403 15:11:56.315892 31282 layer_factory.hpp:77] Creating layer inception_3a/5x5
I0403 15:11:56.315913 31282 net.cpp:91] Creating Layer inception_3a/5x5
I0403 15:11:56.315932 31282 net.cpp:425] inception_3a/5x5 <- inception_3a/5x5_reduce
I0403 15:11:56.315948 31282 net.cpp:399] inception_3a/5x5 -> inception_3a/5x5
I0403 15:11:56.316913 31282 net.cpp:141] Setting up inception_3a/5x5
I0403 15:11:56.316941 31282 net.cpp:148] Top shape: 24 32 28 28 (602112)
I0403 15:11:56.316956 31282 net.cpp:156] Memory required for data: 539493408
I0403 15:11:56.316973 31282 layer_factory.hpp:77] Creating layer inception_3a/relu_5x5
I0403 15:11:56.316993 31282 net.cpp:91] Creating Layer inception_3a/relu_5x5
I0403 15:11:56.317010 31282 net.cpp:425] inception_3a/relu_5x5 <- inception_3a/5x5
I0403 15:11:56.317026 31282 net.cpp:386] inception_3a/relu_5x5 -> inception_3a/5x5 (in-place)
I0403 15:11:56.317189 31282 net.cpp:141] Setting up inception_3a/relu_5x5
I0403 15:11:56.317215 31282 net.cpp:148] Top shape: 24 32 28 28 (602112)
I0403 15:11:56.317231 31282 net.cpp:156] Memory required for data: 541901856
I0403 15:11:56.317246 31282 layer_factory.hpp:77] Creating layer inception_3a/pool
I0403 15:11:56.317263 31282 net.cpp:91] Creating Layer inception_3a/pool
I0403 15:11:56.317294 31282 net.cpp:425] inception_3a/pool <- pool2/3x3_s2_pool2/3x3_s2_0_split_3
I0403 15:11:56.317315 31282 net.cpp:399] inception_3a/pool -> inception_3a/pool
I0403 15:11:56.317371 31282 net.cpp:141] Setting up inception_3a/pool
I0403 15:11:56.317394 31282 net.cpp:148] Top shape: 24 192 28 28 (3612672)
I0403 15:11:56.317409 31282 net.cpp:156] Memory required for data: 556352544
I0403 15:11:56.317425 31282 layer_factory.hpp:77] Creating layer inception_3a/pool_proj
I0403 15:11:56.317445 31282 net.cpp:91] Creating Layer inception_3a/pool_proj
I0403 15:11:56.317462 31282 net.cpp:425] inception_3a/pool_proj <- inception_3a/pool
I0403 15:11:56.317483 31282 net.cpp:399] inception_3a/pool_proj -> inception_3a/pool_proj
I0403 15:11:56.318423 31282 net.cpp:141] Setting up inception_3a/pool_proj
I0403 15:11:56.318450 31282 net.cpp:148] Top shape: 24 32 28 28 (602112)
I0403 15:11:56.318466 31282 net.cpp:156] Memory required for data: 558760992
I0403 15:11:56.318490 31282 layer_factory.hpp:77] Creating layer inception_3a/relu_pool_proj
I0403 15:11:56.318514 31282 net.cpp:91] Creating Layer inception_3a/relu_pool_proj
I0403 15:11:56.318531 31282 net.cpp:425] inception_3a/relu_pool_proj <- inception_3a/pool_proj
I0403 15:11:56.318563 31282 net.cpp:386] inception_3a/relu_pool_proj -> inception_3a/pool_proj (in-place)
I0403 15:11:56.318830 31282 net.cpp:141] Setting up inception_3a/relu_pool_proj
I0403 15:11:56.318855 31282 net.cpp:148] Top shape: 24 32 28 28 (602112)
I0403 15:11:56.318869 31282 net.cpp:156] Memory required for data: 561169440
I0403 15:11:56.318883 31282 layer_factory.hpp:77] Creating layer inception_3a/output
I0403 15:11:56.318902 31282 net.cpp:91] Creating Layer inception_3a/output
I0403 15:11:56.318918 31282 net.cpp:425] inception_3a/output <- inception_3a/1x1
I0403 15:11:56.318935 31282 net.cpp:425] inception_3a/output <- inception_3a/3x3
I0403 15:11:56.318950 31282 net.cpp:425] inception_3a/output <- inception_3a/5x5
I0403 15:11:56.318966 31282 net.cpp:425] inception_3a/output <- inception_3a/pool_proj
I0403 15:11:56.318982 31282 net.cpp:399] inception_3a/output -> inception_3a/output
I0403 15:11:56.319028 31282 net.cpp:141] Setting up inception_3a/output
I0403 15:11:56.319051 31282 net.cpp:148] Top shape: 24 256 28 28 (4816896)
I0403 15:11:56.319066 31282 net.cpp:156] Memory required for data: 580437024
I0403 15:11:56.319080 31282 layer_factory.hpp:77] Creating layer inception_3a/output_inception_3a/output_0_split
I0403 15:11:56.319097 31282 net.cpp:91] Creating Layer inception_3a/output_inception_3a/output_0_split
I0403 15:11:56.319113 31282 net.cpp:425] inception_3a/output_inception_3a/output_0_split <- inception_3a/output
I0403 15:11:56.319130 31282 net.cpp:399] inception_3a/output_inception_3a/output_0_split -> inception_3a/output_inception_3a/output_0_split_0
I0403 15:11:56.319150 31282 net.cpp:399] inception_3a/output_inception_3a/output_0_split -> inception_3a/output_inception_3a/output_0_split_1
I0403 15:11:56.319174 31282 net.cpp:399] inception_3a/output_inception_3a/output_0_split -> inception_3a/output_inception_3a/output_0_split_2
I0403 15:11:56.319193 31282 net.cpp:399] inception_3a/output_inception_3a/output_0_split -> inception_3a/output_inception_3a/output_0_split_3
I0403 15:11:56.319262 31282 net.cpp:141] Setting up inception_3a/output_inception_3a/output_0_split
I0403 15:11:56.319284 31282 net.cpp:148] Top shape: 24 256 28 28 (4816896)
I0403 15:11:56.319303 31282 net.cpp:148] Top shape: 24 256 28 28 (4816896)
I0403 15:11:56.319319 31282 net.cpp:148] Top shape: 24 256 28 28 (4816896)
I0403 15:11:56.319334 31282 net.cpp:148] Top shape: 24 256 28 28 (4816896)
I0403 15:11:56.319347 31282 net.cpp:156] Memory required for data: 657507360
I0403 15:11:56.319361 31282 layer_factory.hpp:77] Creating layer inception_3b/1x1
I0403 15:11:56.319381 31282 net.cpp:91] Creating Layer inception_3b/1x1
I0403 15:11:56.319397 31282 net.cpp:425] inception_3b/1x1 <- inception_3a/output_inception_3a/output_0_split_0
I0403 15:11:56.319417 31282 net.cpp:399] inception_3b/1x1 -> inception_3b/1x1
I0403 15:11:56.320511 31282 net.cpp:141] Setting up inception_3b/1x1
I0403 15:11:56.320549 31282 net.cpp:148] Top shape: 24 128 28 28 (2408448)
I0403 15:11:56.320565 31282 net.cpp:156] Memory required for data: 667141152
I0403 15:11:56.320585 31282 layer_factory.hpp:77] Creating layer inception_3b/relu_1x1
I0403 15:11:56.320605 31282 net.cpp:91] Creating Layer inception_3b/relu_1x1
I0403 15:11:56.320621 31282 net.cpp:425] inception_3b/relu_1x1 <- inception_3b/1x1
I0403 15:11:56.320638 31282 net.cpp:386] inception_3b/relu_1x1 -> inception_3b/1x1 (in-place)
I0403 15:11:56.320804 31282 net.cpp:141] Setting up inception_3b/relu_1x1
I0403 15:11:56.320828 31282 net.cpp:148] Top shape: 24 128 28 28 (2408448)
I0403 15:11:56.320843 31282 net.cpp:156] Memory required for data: 676774944
I0403 15:11:56.320858 31282 layer_factory.hpp:77] Creating layer inception_3b/3x3_reduce
I0403 15:11:56.320881 31282 net.cpp:91] Creating Layer inception_3b/3x3_reduce
I0403 15:11:56.320899 31282 net.cpp:425] inception_3b/3x3_reduce <- inception_3a/output_inception_3a/output_0_split_1
I0403 15:11:56.320916 31282 net.cpp:399] inception_3b/3x3_reduce -> inception_3b/3x3_reduce
I0403 15:11:56.322039 31282 net.cpp:141] Setting up inception_3b/3x3_reduce
I0403 15:11:56.322067 31282 net.cpp:148] Top shape: 24 128 28 28 (2408448)
I0403 15:11:56.322082 31282 net.cpp:156] Memory required for data: 686408736
I0403 15:11:56.322099 31282 layer_factory.hpp:77] Creating layer inception_3b/relu_3x3_reduce
I0403 15:11:56.322119 31282 net.cpp:91] Creating Layer inception_3b/relu_3x3_reduce
I0403 15:11:56.322136 31282 net.cpp:425] inception_3b/relu_3x3_reduce <- inception_3b/3x3_reduce
I0403 15:11:56.322156 31282 net.cpp:386] inception_3b/relu_3x3_reduce -> inception_3b/3x3_reduce (in-place)
I0403 15:11:56.322319 31282 net.cpp:141] Setting up inception_3b/relu_3x3_reduce
I0403 15:11:56.322345 31282 net.cpp:148] Top shape: 24 128 28 28 (2408448)
I0403 15:11:56.322360 31282 net.cpp:156] Memory required for data: 696042528
I0403 15:11:56.322374 31282 layer_factory.hpp:77] Creating layer inception_3b/3x3
I0403 15:11:56.322398 31282 net.cpp:91] Creating Layer inception_3b/3x3
I0403 15:11:56.322415 31282 net.cpp:425] inception_3b/3x3 <- inception_3b/3x3_reduce
I0403 15:11:56.322437 31282 net.cpp:399] inception_3b/3x3 -> inception_3b/3x3
I0403 15:11:56.325273 31282 net.cpp:141] Setting up inception_3b/3x3
I0403 15:11:56.325300 31282 net.cpp:148] Top shape: 24 192 28 28 (3612672)
I0403 15:11:56.325315 31282 net.cpp:156] Memory required for data: 710493216
I0403 15:11:56.325335 31282 layer_factory.hpp:77] Creating layer inception_3b/relu_3x3
I0403 15:11:56.325355 31282 net.cpp:91] Creating Layer inception_3b/relu_3x3
I0403 15:11:56.325371 31282 net.cpp:425] inception_3b/relu_3x3 <- inception_3b/3x3
I0403 15:11:56.325389 31282 net.cpp:386] inception_3b/relu_3x3 -> inception_3b/3x3 (in-place)
I0403 15:11:56.325659 31282 net.cpp:141] Setting up inception_3b/relu_3x3
I0403 15:11:56.325683 31282 net.cpp:148] Top shape: 24 192 28 28 (3612672)
I0403 15:11:56.325698 31282 net.cpp:156] Memory required for data: 724943904
I0403 15:11:56.325713 31282 layer_factory.hpp:77] Creating layer inception_3b/5x5_reduce
I0403 15:11:56.325737 31282 net.cpp:91] Creating Layer inception_3b/5x5_reduce
I0403 15:11:56.325755 31282 net.cpp:425] inception_3b/5x5_reduce <- inception_3a/output_inception_3a/output_0_split_2
I0403 15:11:56.325774 31282 net.cpp:399] inception_3b/5x5_reduce -> inception_3b/5x5_reduce
I0403 15:11:56.326751 31282 net.cpp:141] Setting up inception_3b/5x5_reduce
I0403 15:11:56.326800 31282 net.cpp:148] Top shape: 24 32 28 28 (602112)
I0403 15:11:56.326817 31282 net.cpp:156] Memory required for data: 727352352
I0403 15:11:56.326835 31282 layer_factory.hpp:77] Creating layer inception_3b/relu_5x5_reduce
I0403 15:11:56.326855 31282 net.cpp:91] Creating Layer inception_3b/relu_5x5_reduce
I0403 15:11:56.326874 31282 net.cpp:425] inception_3b/relu_5x5_reduce <- inception_3b/5x5_reduce
I0403 15:11:56.326890 31282 net.cpp:386] inception_3b/relu_5x5_reduce -> inception_3b/5x5_reduce (in-place)
I0403 15:11:56.327070 31282 net.cpp:141] Setting up inception_3b/relu_5x5_reduce
I0403 15:11:56.327105 31282 net.cpp:148] Top shape: 24 32 28 28 (602112)
I0403 15:11:56.327143 31282 net.cpp:156] Memory required for data: 729760800
I0403 15:11:56.327178 31282 layer_factory.hpp:77] Creating layer inception_3b/5x5
I0403 15:11:56.327213 31282 net.cpp:91] Creating Layer inception_3b/5x5
I0403 15:11:56.327231 31282 net.cpp:425] inception_3b/5x5 <- inception_3b/5x5_reduce
I0403 15:11:56.327250 31282 net.cpp:399] inception_3b/5x5 -> inception_3b/5x5
I0403 15:11:56.329181 31282 net.cpp:141] Setting up inception_3b/5x5
I0403 15:11:56.329210 31282 net.cpp:148] Top shape: 24 96 28 28 (1806336)
I0403 15:11:56.329224 31282 net.cpp:156] Memory required for data: 736986144
I0403 15:11:56.329242 31282 layer_factory.hpp:77] Creating layer inception_3b/relu_5x5
I0403 15:11:56.329262 31282 net.cpp:91] Creating Layer inception_3b/relu_5x5
I0403 15:11:56.329280 31282 net.cpp:425] inception_3b/relu_5x5 <- inception_3b/5x5
I0403 15:11:56.329298 31282 net.cpp:386] inception_3b/relu_5x5 -> inception_3b/5x5 (in-place)
I0403 15:11:56.329478 31282 net.cpp:141] Setting up inception_3b/relu_5x5
I0403 15:11:56.329506 31282 net.cpp:148] Top shape: 24 96 28 28 (1806336)
I0403 15:11:56.329522 31282 net.cpp:156] Memory required for data: 744211488
I0403 15:11:56.329537 31282 layer_factory.hpp:77] Creating layer inception_3b/pool
I0403 15:11:56.329555 31282 net.cpp:91] Creating Layer inception_3b/pool
I0403 15:11:56.329572 31282 net.cpp:425] inception_3b/pool <- inception_3a/output_inception_3a/output_0_split_3
I0403 15:11:56.329589 31282 net.cpp:399] inception_3b/pool -> inception_3b/pool
I0403 15:11:56.329643 31282 net.cpp:141] Setting up inception_3b/pool
I0403 15:11:56.329665 31282 net.cpp:148] Top shape: 24 256 28 28 (4816896)
I0403 15:11:56.329679 31282 net.cpp:156] Memory required for data: 763479072
I0403 15:11:56.329694 31282 layer_factory.hpp:77] Creating layer inception_3b/pool_proj
I0403 15:11:56.329715 31282 net.cpp:91] Creating Layer inception_3b/pool_proj
I0403 15:11:56.329733 31282 net.cpp:425] inception_3b/pool_proj <- inception_3b/pool
I0403 15:11:56.329753 31282 net.cpp:399] inception_3b/pool_proj -> inception_3b/pool_proj
I0403 15:11:56.330808 31282 net.cpp:141] Setting up inception_3b/pool_proj
I0403 15:11:56.330837 31282 net.cpp:148] Top shape: 24 64 28 28 (1204224)
I0403 15:11:56.330852 31282 net.cpp:156] Memory required for data: 768295968
I0403 15:11:56.330883 31282 layer_factory.hpp:77] Creating layer inception_3b/relu_pool_proj
I0403 15:11:56.330901 31282 net.cpp:91] Creating Layer inception_3b/relu_pool_proj
I0403 15:11:56.330917 31282 net.cpp:425] inception_3b/relu_pool_proj <- inception_3b/pool_proj
I0403 15:11:56.330936 31282 net.cpp:386] inception_3b/relu_pool_proj -> inception_3b/pool_proj (in-place)
I0403 15:11:56.331327 31282 net.cpp:141] Setting up inception_3b/relu_pool_proj
I0403 15:11:56.331357 31282 net.cpp:148] Top shape: 24 64 28 28 (1204224)
I0403 15:11:56.331372 31282 net.cpp:156] Memory required for data: 773112864
I0403 15:11:56.331387 31282 layer_factory.hpp:77] Creating layer inception_3b/output
I0403 15:11:56.331404 31282 net.cpp:91] Creating Layer inception_3b/output
I0403 15:11:56.331420 31282 net.cpp:425] inception_3b/output <- inception_3b/1x1
I0403 15:11:56.331437 31282 net.cpp:425] inception_3b/output <- inception_3b/3x3
I0403 15:11:56.331454 31282 net.cpp:425] inception_3b/output <- inception_3b/5x5
I0403 15:11:56.331470 31282 net.cpp:425] inception_3b/output <- inception_3b/pool_proj
I0403 15:11:56.331487 31282 net.cpp:399] inception_3b/output -> inception_3b/output
I0403 15:11:56.331538 31282 net.cpp:141] Setting up inception_3b/output
I0403 15:11:56.331562 31282 net.cpp:148] Top shape: 24 480 28 28 (9031680)
I0403 15:11:56.331578 31282 net.cpp:156] Memory required for data: 809239584
I0403 15:11:56.331593 31282 layer_factory.hpp:77] Creating layer pool3/3x3_s2
I0403 15:11:56.331612 31282 net.cpp:91] Creating Layer pool3/3x3_s2
I0403 15:11:56.331629 31282 net.cpp:425] pool3/3x3_s2 <- inception_3b/output
I0403 15:11:56.331661 31282 net.cpp:399] pool3/3x3_s2 -> pool3/3x3_s2
I0403 15:11:56.331722 31282 net.cpp:141] Setting up pool3/3x3_s2
I0403 15:11:56.331744 31282 net.cpp:148] Top shape: 24 480 14 14 (2257920)
I0403 15:11:56.331759 31282 net.cpp:156] Memory required for data: 818271264
I0403 15:11:56.331774 31282 layer_factory.hpp:77] Creating layer pool3/3x3_s2_pool3/3x3_s2_0_split
I0403 15:11:56.331791 31282 net.cpp:91] Creating Layer pool3/3x3_s2_pool3/3x3_s2_0_split
I0403 15:11:56.331807 31282 net.cpp:425] pool3/3x3_s2_pool3/3x3_s2_0_split <- pool3/3x3_s2
I0403 15:11:56.331826 31282 net.cpp:399] pool3/3x3_s2_pool3/3x3_s2_0_split -> pool3/3x3_s2_pool3/3x3_s2_0_split_0
I0403 15:11:56.331846 31282 net.cpp:399] pool3/3x3_s2_pool3/3x3_s2_0_split -> pool3/3x3_s2_pool3/3x3_s2_0_split_1
I0403 15:11:56.331866 31282 net.cpp:399] pool3/3x3_s2_pool3/3x3_s2_0_split -> pool3/3x3_s2_pool3/3x3_s2_0_split_2
I0403 15:11:56.331884 31282 net.cpp:399] pool3/3x3_s2_pool3/3x3_s2_0_split -> pool3/3x3_s2_pool3/3x3_s2_0_split_3
I0403 15:11:56.331960 31282 net.cpp:141] Setting up pool3/3x3_s2_pool3/3x3_s2_0_split
I0403 15:11:56.331984 31282 net.cpp:148] Top shape: 24 480 14 14 (2257920)
I0403 15:11:56.332001 31282 net.cpp:148] Top shape: 24 480 14 14 (2257920)
I0403 15:11:56.332017 31282 net.cpp:148] Top shape: 24 480 14 14 (2257920)
I0403 15:11:56.332032 31282 net.cpp:148] Top shape: 24 480 14 14 (2257920)
I0403 15:11:56.332046 31282 net.cpp:156] Memory required for data: 854397984
I0403 15:11:56.332062 31282 layer_factory.hpp:77] Creating layer inception_4a/1x1
I0403 15:11:56.332082 31282 net.cpp:91] Creating Layer inception_4a/1x1
I0403 15:11:56.332100 31282 net.cpp:425] inception_4a/1x1 <- pool3/3x3_s2_pool3/3x3_s2_0_split_0
I0403 15:11:56.332123 31282 net.cpp:399] inception_4a/1x1 -> inception_4a/1x1
I0403 15:11:56.333681 31282 net.cpp:141] Setting up inception_4a/1x1
I0403 15:11:56.333709 31282 net.cpp:148] Top shape: 24 192 14 14 (903168)
I0403 15:11:56.333724 31282 net.cpp:156] Memory required for data: 858010656
I0403 15:11:56.333742 31282 layer_factory.hpp:77] Creating layer inception_4a/relu_1x1
I0403 15:11:56.333760 31282 net.cpp:91] Creating Layer inception_4a/relu_1x1
I0403 15:11:56.333775 31282 net.cpp:425] inception_4a/relu_1x1 <- inception_4a/1x1
I0403 15:11:56.333796 31282 net.cpp:386] inception_4a/relu_1x1 -> inception_4a/1x1 (in-place)
I0403 15:11:56.333968 31282 net.cpp:141] Setting up inception_4a/relu_1x1
I0403 15:11:56.333992 31282 net.cpp:148] Top shape: 24 192 14 14 (903168)
I0403 15:11:56.334007 31282 net.cpp:156] Memory required for data: 861623328
I0403 15:11:56.334022 31282 layer_factory.hpp:77] Creating layer inception_4a/3x3_reduce
I0403 15:11:56.334044 31282 net.cpp:91] Creating Layer inception_4a/3x3_reduce
I0403 15:11:56.334061 31282 net.cpp:425] inception_4a/3x3_reduce <- pool3/3x3_s2_pool3/3x3_s2_0_split_1
I0403 15:11:56.334082 31282 net.cpp:399] inception_4a/3x3_reduce -> inception_4a/3x3_reduce
I0403 15:11:56.335351 31282 net.cpp:141] Setting up inception_4a/3x3_reduce
I0403 15:11:56.335381 31282 net.cpp:148] Top shape: 24 96 14 14 (451584)
I0403 15:11:56.335397 31282 net.cpp:156] Memory required for data: 863429664
I0403 15:11:56.335424 31282 layer_factory.hpp:77] Creating layer inception_4a/relu_3x3_reduce
I0403 15:11:56.335444 31282 net.cpp:91] Creating Layer inception_4a/relu_3x3_reduce
I0403 15:11:56.335460 31282 net.cpp:425] inception_4a/relu_3x3_reduce <- inception_4a/3x3_reduce
I0403 15:11:56.335477 31282 net.cpp:386] inception_4a/relu_3x3_reduce -> inception_4a/3x3_reduce (in-place)
I0403 15:11:56.335654 31282 net.cpp:141] Setting up inception_4a/relu_3x3_reduce
I0403 15:11:56.335680 31282 net.cpp:148] Top shape: 24 96 14 14 (451584)
I0403 15:11:56.335695 31282 net.cpp:156] Memory required for data: 865236000
I0403 15:11:56.335710 31282 layer_factory.hpp:77] Creating layer inception_4a/3x3
I0403 15:11:56.335732 31282 net.cpp:91] Creating Layer inception_4a/3x3
I0403 15:11:56.335750 31282 net.cpp:425] inception_4a/3x3 <- inception_4a/3x3_reduce
I0403 15:11:56.335770 31282 net.cpp:399] inception_4a/3x3 -> inception_4a/3x3
I0403 15:11:56.338415 31282 net.cpp:141] Setting up inception_4a/3x3
I0403 15:11:56.338444 31282 net.cpp:148] Top shape: 24 208 14 14 (978432)
I0403 15:11:56.338460 31282 net.cpp:156] Memory required for data: 869149728
I0403 15:11:56.338479 31282 layer_factory.hpp:77] Creating layer inception_4a/relu_3x3
I0403 15:11:56.338500 31282 net.cpp:91] Creating Layer inception_4a/relu_3x3
I0403 15:11:56.338522 31282 net.cpp:425] inception_4a/relu_3x3 <- inception_4a/3x3
I0403 15:11:56.338541 31282 net.cpp:386] inception_4a/relu_3x3 -> inception_4a/3x3 (in-place)
I0403 15:11:56.338819 31282 net.cpp:141] Setting up inception_4a/relu_3x3
I0403 15:11:56.338845 31282 net.cpp:148] Top shape: 24 208 14 14 (978432)
I0403 15:11:56.338860 31282 net.cpp:156] Memory required for data: 873063456
I0403 15:11:56.338874 31282 layer_factory.hpp:77] Creating layer inception_4a/5x5_reduce
I0403 15:11:56.338897 31282 net.cpp:91] Creating Layer inception_4a/5x5_reduce
I0403 15:11:56.338914 31282 net.cpp:425] inception_4a/5x5_reduce <- pool3/3x3_s2_pool3/3x3_s2_0_split_2
I0403 15:11:56.338937 31282 net.cpp:399] inception_4a/5x5_reduce -> inception_4a/5x5_reduce
I0403 15:11:56.339942 31282 net.cpp:141] Setting up inception_4a/5x5_reduce
I0403 15:11:56.339969 31282 net.cpp:148] Top shape: 24 16 14 14 (75264)
I0403 15:11:56.339988 31282 net.cpp:156] Memory required for data: 873364512
I0403 15:11:56.340008 31282 layer_factory.hpp:77] Creating layer inception_4a/relu_5x5_reduce
I0403 15:11:56.340028 31282 net.cpp:91] Creating Layer inception_4a/relu_5x5_reduce
I0403 15:11:56.340045 31282 net.cpp:425] inception_4a/relu_5x5_reduce <- inception_4a/5x5_reduce
I0403 15:11:56.340062 31282 net.cpp:386] inception_4a/relu_5x5_reduce -> inception_4a/5x5_reduce (in-place)
I0403 15:11:56.340235 31282 net.cpp:141] Setting up inception_4a/relu_5x5_reduce
I0403 15:11:56.340263 31282 net.cpp:148] Top shape: 24 16 14 14 (75264)
I0403 15:11:56.340278 31282 net.cpp:156] Memory required for data: 873665568
I0403 15:11:56.340298 31282 layer_factory.hpp:77] Creating layer inception_4a/5x5
I0403 15:11:56.340322 31282 net.cpp:91] Creating Layer inception_4a/5x5
I0403 15:11:56.340338 31282 net.cpp:425] inception_4a/5x5 <- inception_4a/5x5_reduce
I0403 15:11:56.340358 31282 net.cpp:399] inception_4a/5x5 -> inception_4a/5x5
I0403 15:11:56.341424 31282 net.cpp:141] Setting up inception_4a/5x5
I0403 15:11:56.341454 31282 net.cpp:148] Top shape: 24 48 14 14 (225792)
I0403 15:11:56.341470 31282 net.cpp:156] Memory required for data: 874568736
I0403 15:11:56.341488 31282 layer_factory.hpp:77] Creating layer inception_4a/relu_5x5
I0403 15:11:56.341511 31282 net.cpp:91] Creating Layer inception_4a/relu_5x5
I0403 15:11:56.341528 31282 net.cpp:425] inception_4a/relu_5x5 <- inception_4a/5x5
I0403 15:11:56.341548 31282 net.cpp:386] inception_4a/relu_5x5 -> inception_4a/5x5 (in-place)
I0403 15:11:56.341727 31282 net.cpp:141] Setting up inception_4a/relu_5x5
I0403 15:11:56.341750 31282 net.cpp:148] Top shape: 24 48 14 14 (225792)
I0403 15:11:56.341771 31282 net.cpp:156] Memory required for data: 875471904
I0403 15:11:56.341787 31282 layer_factory.hpp:77] Creating layer inception_4a/pool
I0403 15:11:56.341804 31282 net.cpp:91] Creating Layer inception_4a/pool
I0403 15:11:56.341820 31282 net.cpp:425] inception_4a/pool <- pool3/3x3_s2_pool3/3x3_s2_0_split_3
I0403 15:11:56.341842 31282 net.cpp:399] inception_4a/pool -> inception_4a/pool
I0403 15:11:56.341902 31282 net.cpp:141] Setting up inception_4a/pool
I0403 15:11:56.341927 31282 net.cpp:148] Top shape: 24 480 14 14 (2257920)
I0403 15:11:56.341941 31282 net.cpp:156] Memory required for data: 884503584
I0403 15:11:56.341956 31282 layer_factory.hpp:77] Creating layer inception_4a/pool_proj
I0403 15:11:56.341981 31282 net.cpp:91] Creating Layer inception_4a/pool_proj
I0403 15:11:56.342000 31282 net.cpp:425] inception_4a/pool_proj <- inception_4a/pool
I0403 15:11:56.342018 31282 net.cpp:399] inception_4a/pool_proj -> inception_4a/pool_proj
I0403 15:11:56.343194 31282 net.cpp:141] Setting up inception_4a/pool_proj
I0403 15:11:56.343225 31282 net.cpp:148] Top shape: 24 64 14 14 (301056)
I0403 15:11:56.343255 31282 net.cpp:156] Memory required for data: 885707808
I0403 15:11:56.343274 31282 layer_factory.hpp:77] Creating layer inception_4a/relu_pool_proj
I0403 15:11:56.343292 31282 net.cpp:91] Creating Layer inception_4a/relu_pool_proj
I0403 15:11:56.343308 31282 net.cpp:425] inception_4a/relu_pool_proj <- inception_4a/pool_proj
I0403 15:11:56.343329 31282 net.cpp:386] inception_4a/relu_pool_proj -> inception_4a/pool_proj (in-place)
I0403 15:11:56.343608 31282 net.cpp:141] Setting up inception_4a/relu_pool_proj
I0403 15:11:56.343636 31282 net.cpp:148] Top shape: 24 64 14 14 (301056)
I0403 15:11:56.343652 31282 net.cpp:156] Memory required for data: 886912032
I0403 15:11:56.343668 31282 layer_factory.hpp:77] Creating layer inception_4a/output
I0403 15:11:56.343685 31282 net.cpp:91] Creating Layer inception_4a/output
I0403 15:11:56.343701 31282 net.cpp:425] inception_4a/output <- inception_4a/1x1
I0403 15:11:56.343721 31282 net.cpp:425] inception_4a/output <- inception_4a/3x3
I0403 15:11:56.343737 31282 net.cpp:425] inception_4a/output <- inception_4a/5x5
I0403 15:11:56.343755 31282 net.cpp:425] inception_4a/output <- inception_4a/pool_proj
I0403 15:11:56.343773 31282 net.cpp:399] inception_4a/output -> inception_4a/output
I0403 15:11:56.343817 31282 net.cpp:141] Setting up inception_4a/output
I0403 15:11:56.343840 31282 net.cpp:148] Top shape: 24 512 14 14 (2408448)
I0403 15:11:56.343855 31282 net.cpp:156] Memory required for data: 896545824
I0403 15:11:56.343870 31282 layer_factory.hpp:77] Creating layer inception_4a/output_inception_4a/output_0_split
I0403 15:11:56.343889 31282 net.cpp:91] Creating Layer inception_4a/output_inception_4a/output_0_split
I0403 15:11:56.343907 31282 net.cpp:425] inception_4a/output_inception_4a/output_0_split <- inception_4a/output
I0403 15:11:56.343925 31282 net.cpp:399] inception_4a/output_inception_4a/output_0_split -> inception_4a/output_inception_4a/output_0_split_0
I0403 15:11:56.343950 31282 net.cpp:399] inception_4a/output_inception_4a/output_0_split -> inception_4a/output_inception_4a/output_0_split_1
I0403 15:11:56.343971 31282 net.cpp:399] inception_4a/output_inception_4a/output_0_split -> inception_4a/output_inception_4a/output_0_split_2
I0403 15:11:56.343991 31282 net.cpp:399] inception_4a/output_inception_4a/output_0_split -> inception_4a/output_inception_4a/output_0_split_3
I0403 15:11:56.344010 31282 net.cpp:399] inception_4a/output_inception_4a/output_0_split -> inception_4a/output_inception_4a/output_0_split_4
I0403 15:11:56.344101 31282 net.cpp:141] Setting up inception_4a/output_inception_4a/output_0_split
I0403 15:11:56.344125 31282 net.cpp:148] Top shape: 24 512 14 14 (2408448)
I0403 15:11:56.344141 31282 net.cpp:148] Top shape: 24 512 14 14 (2408448)
I0403 15:11:56.344158 31282 net.cpp:148] Top shape: 24 512 14 14 (2408448)
I0403 15:11:56.344173 31282 net.cpp:148] Top shape: 24 512 14 14 (2408448)
I0403 15:11:56.344188 31282 net.cpp:148] Top shape: 24 512 14 14 (2408448)
I0403 15:11:56.344202 31282 net.cpp:156] Memory required for data: 944714784
I0403 15:11:56.344218 31282 layer_factory.hpp:77] Creating layer loss1/ave_pool
I0403 15:11:56.344238 31282 net.cpp:91] Creating Layer loss1/ave_pool
I0403 15:11:56.344254 31282 net.cpp:425] loss1/ave_pool <- inception_4a/output_inception_4a/output_0_split_0
I0403 15:11:56.344271 31282 net.cpp:399] loss1/ave_pool -> loss1/ave_pool
I0403 15:11:56.344473 31282 net.cpp:141] Setting up loss1/ave_pool
I0403 15:11:56.344499 31282 net.cpp:148] Top shape: 24 512 4 4 (196608)
I0403 15:11:56.344526 31282 net.cpp:156] Memory required for data: 945501216
I0403 15:11:56.344542 31282 layer_factory.hpp:77] Creating layer loss1/conv
I0403 15:11:56.344565 31282 net.cpp:91] Creating Layer loss1/conv
I0403 15:11:56.344583 31282 net.cpp:425] loss1/conv <- loss1/ave_pool
I0403 15:11:56.344604 31282 net.cpp:399] loss1/conv -> loss1/conv
I0403 15:11:56.345993 31282 net.cpp:141] Setting up loss1/conv
I0403 15:11:56.346020 31282 net.cpp:148] Top shape: 24 128 4 4 (49152)
I0403 15:11:56.346050 31282 net.cpp:156] Memory required for data: 945697824
I0403 15:11:56.346068 31282 layer_factory.hpp:77] Creating layer loss1/relu_conv
I0403 15:11:56.346089 31282 net.cpp:91] Creating Layer loss1/relu_conv
I0403 15:11:56.346107 31282 net.cpp:425] loss1/relu_conv <- loss1/conv
I0403 15:11:56.346124 31282 net.cpp:386] loss1/relu_conv -> loss1/conv (in-place)
I0403 15:11:56.346400 31282 net.cpp:141] Setting up loss1/relu_conv
I0403 15:11:56.346426 31282 net.cpp:148] Top shape: 24 128 4 4 (49152)
I0403 15:11:56.346441 31282 net.cpp:156] Memory required for data: 945894432
I0403 15:11:56.346456 31282 layer_factory.hpp:77] Creating layer loss1/fc
I0403 15:11:56.346482 31282 net.cpp:91] Creating Layer loss1/fc
I0403 15:11:56.346501 31282 net.cpp:425] loss1/fc <- loss1/conv
I0403 15:11:56.346525 31282 net.cpp:399] loss1/fc -> loss1/fc
I0403 15:11:56.363876 31282 net.cpp:141] Setting up loss1/fc
I0403 15:11:56.363909 31282 net.cpp:148] Top shape: 24 1024 (24576)
I0403 15:11:56.363925 31282 net.cpp:156] Memory required for data: 945992736
I0403 15:11:56.363945 31282 layer_factory.hpp:77] Creating layer loss1/relu_fc
I0403 15:11:56.363963 31282 net.cpp:91] Creating Layer loss1/relu_fc
I0403 15:11:56.363979 31282 net.cpp:425] loss1/relu_fc <- loss1/fc
I0403 15:11:56.363998 31282 net.cpp:386] loss1/relu_fc -> loss1/fc (in-place)
I0403 15:11:56.364176 31282 net.cpp:141] Setting up loss1/relu_fc
I0403 15:11:56.364199 31282 net.cpp:148] Top shape: 24 1024 (24576)
I0403 15:11:56.364213 31282 net.cpp:156] Memory required for data: 946091040
I0403 15:11:56.364228 31282 layer_factory.hpp:77] Creating layer loss1/drop_fc
I0403 15:11:56.364256 31282 net.cpp:91] Creating Layer loss1/drop_fc
I0403 15:11:56.364272 31282 net.cpp:425] loss1/drop_fc <- loss1/fc
I0403 15:11:56.364295 31282 net.cpp:386] loss1/drop_fc -> loss1/fc (in-place)
I0403 15:11:56.364346 31282 net.cpp:141] Setting up loss1/drop_fc
I0403 15:11:56.364372 31282 net.cpp:148] Top shape: 24 1024 (24576)
I0403 15:11:56.364387 31282 net.cpp:156] Memory required for data: 946189344
I0403 15:11:56.364401 31282 layer_factory.hpp:77] Creating layer loss1/classifier_plantvillage
I0403 15:11:56.364420 31282 net.cpp:91] Creating Layer loss1/classifier_plantvillage
I0403 15:11:56.364435 31282 net.cpp:425] loss1/classifier_plantvillage <- loss1/fc
I0403 15:11:56.364455 31282 net.cpp:399] loss1/classifier_plantvillage -> loss1/classifier_plantvillage
I0403 15:11:56.365361 31282 net.cpp:141] Setting up loss1/classifier_plantvillage
I0403 15:11:56.365388 31282 net.cpp:148] Top shape: 24 38 (912)
I0403 15:11:56.365402 31282 net.cpp:156] Memory required for data: 946192992
I0403 15:11:56.365422 31282 layer_factory.hpp:77] Creating layer loss1/classifier_plantvillage_loss1/classifier_plantvillage_0_split
I0403 15:11:56.365439 31282 net.cpp:91] Creating Layer loss1/classifier_plantvillage_loss1/classifier_plantvillage_0_split
I0403 15:11:56.365454 31282 net.cpp:425] loss1/classifier_plantvillage_loss1/classifier_plantvillage_0_split <- loss1/classifier_plantvillage
I0403 15:11:56.365474 31282 net.cpp:399] loss1/classifier_plantvillage_loss1/classifier_plantvillage_0_split -> loss1/classifier_plantvillage_loss1/classifier_plantvillage_0_split_0
I0403 15:11:56.365495 31282 net.cpp:399] loss1/classifier_plantvillage_loss1/classifier_plantvillage_0_split -> loss1/classifier_plantvillage_loss1/classifier_plantvillage_0_split_1
I0403 15:11:56.365520 31282 net.cpp:399] loss1/classifier_plantvillage_loss1/classifier_plantvillage_0_split -> loss1/classifier_plantvillage_loss1/classifier_plantvillage_0_split_2
I0403 15:11:56.365586 31282 net.cpp:141] Setting up loss1/classifier_plantvillage_loss1/classifier_plantvillage_0_split
I0403 15:11:56.365608 31282 net.cpp:148] Top shape: 24 38 (912)
I0403 15:11:56.365624 31282 net.cpp:148] Top shape: 24 38 (912)
I0403 15:11:56.365639 31282 net.cpp:148] Top shape: 24 38 (912)
I0403 15:11:56.365653 31282 net.cpp:156] Memory required for data: 946203936
I0403 15:11:56.365667 31282 layer_factory.hpp:77] Creating layer inception_4b/1x1
I0403 15:11:56.365689 31282 net.cpp:91] Creating Layer inception_4b/1x1
I0403 15:11:56.365720 31282 net.cpp:425] inception_4b/1x1 <- inception_4a/output_inception_4a/output_0_split_1
I0403 15:11:56.365741 31282 net.cpp:399] inception_4b/1x1 -> inception_4b/1x1
I0403 15:11:56.367333 31282 net.cpp:141] Setting up inception_4b/1x1
I0403 15:11:56.367360 31282 net.cpp:148] Top shape: 24 160 14 14 (752640)
I0403 15:11:56.367375 31282 net.cpp:156] Memory required for data: 949214496
I0403 15:11:56.367393 31282 layer_factory.hpp:77] Creating layer inception_4b/relu_1x1
I0403 15:11:56.367413 31282 net.cpp:91] Creating Layer inception_4b/relu_1x1
I0403 15:11:56.367429 31282 net.cpp:425] inception_4b/relu_1x1 <- inception_4b/1x1
I0403 15:11:56.367446 31282 net.cpp:386] inception_4b/relu_1x1 -> inception_4b/1x1 (in-place)
I0403 15:11:56.367621 31282 net.cpp:141] Setting up inception_4b/relu_1x1
I0403 15:11:56.367648 31282 net.cpp:148] Top shape: 24 160 14 14 (752640)
I0403 15:11:56.367663 31282 net.cpp:156] Memory required for data: 952225056
I0403 15:11:56.367677 31282 layer_factory.hpp:77] Creating layer inception_4b/3x3_reduce
I0403 15:11:56.367702 31282 net.cpp:91] Creating Layer inception_4b/3x3_reduce
I0403 15:11:56.367719 31282 net.cpp:425] inception_4b/3x3_reduce <- inception_4a/output_inception_4a/output_0_split_2
I0403 15:11:56.367738 31282 net.cpp:399] inception_4b/3x3_reduce -> inception_4b/3x3_reduce
I0403 15:11:56.369034 31282 net.cpp:141] Setting up inception_4b/3x3_reduce
I0403 15:11:56.369063 31282 net.cpp:148] Top shape: 24 112 14 14 (526848)
I0403 15:11:56.369079 31282 net.cpp:156] Memory required for data: 954332448
I0403 15:11:56.369099 31282 layer_factory.hpp:77] Creating layer inception_4b/relu_3x3_reduce
I0403 15:11:56.369117 31282 net.cpp:91] Creating Layer inception_4b/relu_3x3_reduce
I0403 15:11:56.369133 31282 net.cpp:425] inception_4b/relu_3x3_reduce <- inception_4b/3x3_reduce
I0403 15:11:56.369150 31282 net.cpp:386] inception_4b/relu_3x3_reduce -> inception_4b/3x3_reduce (in-place)
I0403 15:11:56.369426 31282 net.cpp:141] Setting up inception_4b/relu_3x3_reduce
I0403 15:11:56.369452 31282 net.cpp:148] Top shape: 24 112 14 14 (526848)
I0403 15:11:56.369468 31282 net.cpp:156] Memory required for data: 956439840
I0403 15:11:56.369483 31282 layer_factory.hpp:77] Creating layer inception_4b/3x3
I0403 15:11:56.369508 31282 net.cpp:91] Creating Layer inception_4b/3x3
I0403 15:11:56.369527 31282 net.cpp:425] inception_4b/3x3 <- inception_4b/3x3_reduce
I0403 15:11:56.369545 31282 net.cpp:399] inception_4b/3x3 -> inception_4b/3x3
I0403 15:11:56.372416 31282 net.cpp:141] Setting up inception_4b/3x3
I0403 15:11:56.372445 31282 net.cpp:148] Top shape: 24 224 14 14 (1053696)
I0403 15:11:56.372460 31282 net.cpp:156] Memory required for data: 960654624
I0403 15:11:56.372479 31282 layer_factory.hpp:77] Creating layer inception_4b/relu_3x3
I0403 15:11:56.372498 31282 net.cpp:91] Creating Layer inception_4b/relu_3x3
I0403 15:11:56.372517 31282 net.cpp:425] inception_4b/relu_3x3 <- inception_4b/3x3
I0403 15:11:56.372537 31282 net.cpp:386] inception_4b/relu_3x3 -> inception_4b/3x3 (in-place)
I0403 15:11:56.372709 31282 net.cpp:141] Setting up inception_4b/relu_3x3
I0403 15:11:56.372735 31282 net.cpp:148] Top shape: 24 224 14 14 (1053696)
I0403 15:11:56.372748 31282 net.cpp:156] Memory required for data: 964869408
I0403 15:11:56.372763 31282 layer_factory.hpp:77] Creating layer inception_4b/5x5_reduce
I0403 15:11:56.372788 31282 net.cpp:91] Creating Layer inception_4b/5x5_reduce
I0403 15:11:56.372807 31282 net.cpp:425] inception_4b/5x5_reduce <- inception_4a/output_inception_4a/output_0_split_3
I0403 15:11:56.372828 31282 net.cpp:399] inception_4b/5x5_reduce -> inception_4b/5x5_reduce
I0403 15:11:56.373867 31282 net.cpp:141] Setting up inception_4b/5x5_reduce
I0403 15:11:56.373893 31282 net.cpp:148] Top shape: 24 24 14 14 (112896)
I0403 15:11:56.373908 31282 net.cpp:156] Memory required for data: 965320992
I0403 15:11:56.373925 31282 layer_factory.hpp:77] Creating layer inception_4b/relu_5x5_reduce
I0403 15:11:56.373946 31282 net.cpp:91] Creating Layer inception_4b/relu_5x5_reduce
I0403 15:11:56.373976 31282 net.cpp:425] inception_4b/relu_5x5_reduce <- inception_4b/5x5_reduce
I0403 15:11:56.373994 31282 net.cpp:386] inception_4b/relu_5x5_reduce -> inception_4b/5x5_reduce (in-place)
I0403 15:11:56.374179 31282 net.cpp:141] Setting up inception_4b/relu_5x5_reduce
I0403 15:11:56.374205 31282 net.cpp:148] Top shape: 24 24 14 14 (112896)
I0403 15:11:56.374220 31282 net.cpp:156] Memory required for data: 965772576
I0403 15:11:56.374235 31282 layer_factory.hpp:77] Creating layer inception_4b/5x5
I0403 15:11:56.374256 31282 net.cpp:91] Creating Layer inception_4b/5x5
I0403 15:11:56.374274 31282 net.cpp:425] inception_4b/5x5 <- inception_4b/5x5_reduce
I0403 15:11:56.374291 31282 net.cpp:399] inception_4b/5x5 -> inception_4b/5x5
I0403 15:11:56.375480 31282 net.cpp:141] Setting up inception_4b/5x5
I0403 15:11:56.375524 31282 net.cpp:148] Top shape: 24 64 14 14 (301056)
I0403 15:11:56.375542 31282 net.cpp:156] Memory required for data: 966976800
I0403 15:11:56.375561 31282 layer_factory.hpp:77] Creating layer inception_4b/relu_5x5
I0403 15:11:56.375582 31282 net.cpp:91] Creating Layer inception_4b/relu_5x5
I0403 15:11:56.375599 31282 net.cpp:425] inception_4b/relu_5x5 <- inception_4b/5x5
I0403 15:11:56.375617 31282 net.cpp:386] inception_4b/relu_5x5 -> inception_4b/5x5 (in-place)
I0403 15:11:56.375910 31282 net.cpp:141] Setting up inception_4b/relu_5x5
I0403 15:11:56.375934 31282 net.cpp:148] Top shape: 24 64 14 14 (301056)
I0403 15:11:56.375951 31282 net.cpp:156] Memory required for data: 968181024
I0403 15:11:56.375964 31282 layer_factory.hpp:77] Creating layer inception_4b/pool
I0403 15:11:56.375984 31282 net.cpp:91] Creating Layer inception_4b/pool
I0403 15:11:56.376000 31282 net.cpp:425] inception_4b/pool <- inception_4a/output_inception_4a/output_0_split_4
I0403 15:11:56.376019 31282 net.cpp:399] inception_4b/pool -> inception_4b/pool
I0403 15:11:56.376083 31282 net.cpp:141] Setting up inception_4b/pool
I0403 15:11:56.376106 31282 net.cpp:148] Top shape: 24 512 14 14 (2408448)
I0403 15:11:56.376121 31282 net.cpp:156] Memory required for data: 977814816
I0403 15:11:56.376134 31282 layer_factory.hpp:77] Creating layer inception_4b/pool_proj
I0403 15:11:56.376157 31282 net.cpp:91] Creating Layer inception_4b/pool_proj
I0403 15:11:56.376174 31282 net.cpp:425] inception_4b/pool_proj <- inception_4b/pool
I0403 15:11:56.376194 31282 net.cpp:399] inception_4b/pool_proj -> inception_4b/pool_proj
I0403 15:11:56.377424 31282 net.cpp:141] Setting up inception_4b/pool_proj
I0403 15:11:56.377451 31282 net.cpp:148] Top shape: 24 64 14 14 (301056)
I0403 15:11:56.377466 31282 net.cpp:156] Memory required for data: 979019040
I0403 15:11:56.377485 31282 layer_factory.hpp:77] Creating layer inception_4b/relu_pool_proj
I0403 15:11:56.377511 31282 net.cpp:91] Creating Layer inception_4b/relu_pool_proj
I0403 15:11:56.377529 31282 net.cpp:425] inception_4b/relu_pool_proj <- inception_4b/pool_proj
I0403 15:11:56.377547 31282 net.cpp:386] inception_4b/relu_pool_proj -> inception_4b/pool_proj (in-place)
I0403 15:11:56.377727 31282 net.cpp:141] Setting up inception_4b/relu_pool_proj
I0403 15:11:56.377753 31282 net.cpp:148] Top shape: 24 64 14 14 (301056)
I0403 15:11:56.377768 31282 net.cpp:156] Memory required for data: 980223264
I0403 15:11:56.377782 31282 layer_factory.hpp:77] Creating layer inception_4b/output
I0403 15:11:56.377800 31282 net.cpp:91] Creating Layer inception_4b/output
I0403 15:11:56.377816 31282 net.cpp:425] inception_4b/output <- inception_4b/1x1
I0403 15:11:56.377832 31282 net.cpp:425] inception_4b/output <- inception_4b/3x3
I0403 15:11:56.377848 31282 net.cpp:425] inception_4b/output <- inception_4b/5x5
I0403 15:11:56.377864 31282 net.cpp:425] inception_4b/output <- inception_4b/pool_proj
I0403 15:11:56.377882 31282 net.cpp:399] inception_4b/output -> inception_4b/output
I0403 15:11:56.377928 31282 net.cpp:141] Setting up inception_4b/output
I0403 15:11:56.377950 31282 net.cpp:148] Top shape: 24 512 14 14 (2408448)
I0403 15:11:56.377965 31282 net.cpp:156] Memory required for data: 989857056
I0403 15:11:56.377995 31282 layer_factory.hpp:77] Creating layer inception_4b/output_inception_4b/output_0_split
I0403 15:11:56.378015 31282 net.cpp:91] Creating Layer inception_4b/output_inception_4b/output_0_split
I0403 15:11:56.378031 31282 net.cpp:425] inception_4b/output_inception_4b/output_0_split <- inception_4b/output
I0403 15:11:56.378048 31282 net.cpp:399] inception_4b/output_inception_4b/output_0_split -> inception_4b/output_inception_4b/output_0_split_0
I0403 15:11:56.378069 31282 net.cpp:399] inception_4b/output_inception_4b/output_0_split -> inception_4b/output_inception_4b/output_0_split_1
I0403 15:11:56.378089 31282 net.cpp:399] inception_4b/output_inception_4b/output_0_split -> inception_4b/output_inception_4b/output_0_split_2
I0403 15:11:56.378111 31282 net.cpp:399] inception_4b/output_inception_4b/output_0_split -> inception_4b/output_inception_4b/output_0_split_3
I0403 15:11:56.378195 31282 net.cpp:141] Setting up inception_4b/output_inception_4b/output_0_split
I0403 15:11:56.378217 31282 net.cpp:148] Top shape: 24 512 14 14 (2408448)
I0403 15:11:56.378233 31282 net.cpp:148] Top shape: 24 512 14 14 (2408448)
I0403 15:11:56.378249 31282 net.cpp:148] Top shape: 24 512 14 14 (2408448)
I0403 15:11:56.378265 31282 net.cpp:148] Top shape: 24 512 14 14 (2408448)
I0403 15:11:56.378279 31282 net.cpp:156] Memory required for data: 1028392224
I0403 15:11:56.378294 31282 layer_factory.hpp:77] Creating layer inception_4c/1x1
I0403 15:11:56.378315 31282 net.cpp:91] Creating Layer inception_4c/1x1
I0403 15:11:56.378334 31282 net.cpp:425] inception_4c/1x1 <- inception_4b/output_inception_4b/output_0_split_0
I0403 15:11:56.378353 31282 net.cpp:399] inception_4c/1x1 -> inception_4c/1x1
I0403 15:11:56.379789 31282 net.cpp:141] Setting up inception_4c/1x1
I0403 15:11:56.379817 31282 net.cpp:148] Top shape: 24 128 14 14 (602112)
I0403 15:11:56.379833 31282 net.cpp:156] Memory required for data: 1030800672
I0403 15:11:56.379853 31282 layer_factory.hpp:77] Creating layer inception_4c/relu_1x1
I0403 15:11:56.379870 31282 net.cpp:91] Creating Layer inception_4c/relu_1x1
I0403 15:11:56.379886 31282 net.cpp:425] inception_4c/relu_1x1 <- inception_4c/1x1
I0403 15:11:56.379909 31282 net.cpp:386] inception_4c/relu_1x1 -> inception_4c/1x1 (in-place)
I0403 15:11:56.380089 31282 net.cpp:141] Setting up inception_4c/relu_1x1
I0403 15:11:56.380113 31282 net.cpp:148] Top shape: 24 128 14 14 (602112)
I0403 15:11:56.380128 31282 net.cpp:156] Memory required for data: 1033209120
I0403 15:11:56.380143 31282 layer_factory.hpp:77] Creating layer inception_4c/3x3_reduce
I0403 15:11:56.380165 31282 net.cpp:91] Creating Layer inception_4c/3x3_reduce
I0403 15:11:56.380182 31282 net.cpp:425] inception_4c/3x3_reduce <- inception_4b/output_inception_4b/output_0_split_1
I0403 15:11:56.380204 31282 net.cpp:399] inception_4c/3x3_reduce -> inception_4c/3x3_reduce
I0403 15:11:56.382150 31282 net.cpp:141] Setting up inception_4c/3x3_reduce
I0403 15:11:56.382179 31282 net.cpp:148] Top shape: 24 128 14 14 (602112)
I0403 15:11:56.382194 31282 net.cpp:156] Memory required for data: 1035617568
I0403 15:11:56.382212 31282 layer_factory.hpp:77] Creating layer inception_4c/relu_3x3_reduce
I0403 15:11:56.382233 31282 net.cpp:91] Creating Layer inception_4c/relu_3x3_reduce
I0403 15:11:56.382251 31282 net.cpp:425] inception_4c/relu_3x3_reduce <- inception_4c/3x3_reduce
I0403 15:11:56.382268 31282 net.cpp:386] inception_4c/relu_3x3_reduce -> inception_4c/3x3_reduce (in-place)
I0403 15:11:56.382581 31282 net.cpp:141] Setting up inception_4c/relu_3x3_reduce
I0403 15:11:56.382607 31282 net.cpp:148] Top shape: 24 128 14 14 (602112)
I0403 15:11:56.382623 31282 net.cpp:156] Memory required for data: 1038026016
I0403 15:11:56.382638 31282 layer_factory.hpp:77] Creating layer inception_4c/3x3
I0403 15:11:56.382664 31282 net.cpp:91] Creating Layer inception_4c/3x3
I0403 15:11:56.382683 31282 net.cpp:425] inception_4c/3x3 <- inception_4c/3x3_reduce
I0403 15:11:56.382705 31282 net.cpp:399] inception_4c/3x3 -> inception_4c/3x3
I0403 15:11:56.386317 31282 net.cpp:141] Setting up inception_4c/3x3
I0403 15:11:56.386356 31282 net.cpp:148] Top shape: 24 256 14 14 (1204224)
I0403 15:11:56.386373 31282 net.cpp:156] Memory required for data: 1042842912
I0403 15:11:56.386407 31282 layer_factory.hpp:77] Creating layer inception_4c/relu_3x3
I0403 15:11:56.386430 31282 net.cpp:91] Creating Layer inception_4c/relu_3x3
I0403 15:11:56.386447 31282 net.cpp:425] inception_4c/relu_3x3 <- inception_4c/3x3
I0403 15:11:56.386464 31282 net.cpp:386] inception_4c/relu_3x3 -> inception_4c/3x3 (in-place)
I0403 15:11:56.386647 31282 net.cpp:141] Setting up inception_4c/relu_3x3
I0403 15:11:56.386672 31282 net.cpp:148] Top shape: 24 256 14 14 (1204224)
I0403 15:11:56.386690 31282 net.cpp:156] Memory required for data: 1047659808
I0403 15:11:56.386705 31282 layer_factory.hpp:77] Creating layer inception_4c/5x5_reduce
I0403 15:11:56.386725 31282 net.cpp:91] Creating Layer inception_4c/5x5_reduce
I0403 15:11:56.386741 31282 net.cpp:425] inception_4c/5x5_reduce <- inception_4b/output_inception_4b/output_0_split_2
I0403 15:11:56.386764 31282 net.cpp:399] inception_4c/5x5_reduce -> inception_4c/5x5_reduce
I0403 15:11:56.387877 31282 net.cpp:141] Setting up inception_4c/5x5_reduce
I0403 15:11:56.387904 31282 net.cpp:148] Top shape: 24 24 14 14 (112896)
I0403 15:11:56.387919 31282 net.cpp:156] Memory required for data: 1048111392
I0403 15:11:56.387938 31282 layer_factory.hpp:77] Creating layer inception_4c/relu_5x5_reduce
I0403 15:11:56.387959 31282 net.cpp:91] Creating Layer inception_4c/relu_5x5_reduce
I0403 15:11:56.387975 31282 net.cpp:425] inception_4c/relu_5x5_reduce <- inception_4c/5x5_reduce
I0403 15:11:56.387992 31282 net.cpp:386] inception_4c/relu_5x5_reduce -> inception_4c/5x5_reduce (in-place)
I0403 15:11:56.388177 31282 net.cpp:141] Setting up inception_4c/relu_5x5_reduce
I0403 15:11:56.388205 31282 net.cpp:148] Top shape: 24 24 14 14 (112896)
I0403 15:11:56.388219 31282 net.cpp:156] Memory required for data: 1048562976
I0403 15:11:56.388234 31282 layer_factory.hpp:77] Creating layer inception_4c/5x5
I0403 15:11:56.388257 31282 net.cpp:91] Creating Layer inception_4c/5x5
I0403 15:11:56.388274 31282 net.cpp:425] inception_4c/5x5 <- inception_4c/5x5_reduce
I0403 15:11:56.388293 31282 net.cpp:399] inception_4c/5x5 -> inception_4c/5x5
I0403 15:11:56.389533 31282 net.cpp:141] Setting up inception_4c/5x5
I0403 15:11:56.389564 31282 net.cpp:148] Top shape: 24 64 14 14 (301056)
I0403 15:11:56.389580 31282 net.cpp:156] Memory required for data: 1049767200
I0403 15:11:56.389597 31282 layer_factory.hpp:77] Creating layer inception_4c/relu_5x5
I0403 15:11:56.389616 31282 net.cpp:91] Creating Layer inception_4c/relu_5x5
I0403 15:11:56.389631 31282 net.cpp:425] inception_4c/relu_5x5 <- inception_4c/5x5
I0403 15:11:56.389652 31282 net.cpp:386] inception_4c/relu_5x5 -> inception_4c/5x5 (in-place)
I0403 15:11:56.389937 31282 net.cpp:141] Setting up inception_4c/relu_5x5
I0403 15:11:56.389966 31282 net.cpp:148] Top shape: 24 64 14 14 (301056)
I0403 15:11:56.389981 31282 net.cpp:156] Memory required for data: 1050971424
I0403 15:11:56.389997 31282 layer_factory.hpp:77] Creating layer inception_4c/pool
I0403 15:11:56.390015 31282 net.cpp:91] Creating Layer inception_4c/pool
I0403 15:11:56.390032 31282 net.cpp:425] inception_4c/pool <- inception_4b/output_inception_4b/output_0_split_3
I0403 15:11:56.390053 31282 net.cpp:399] inception_4c/pool -> inception_4c/pool
I0403 15:11:56.390117 31282 net.cpp:141] Setting up inception_4c/pool
I0403 15:11:56.390141 31282 net.cpp:148] Top shape: 24 512 14 14 (2408448)
I0403 15:11:56.390156 31282 net.cpp:156] Memory required for data: 1060605216
I0403 15:11:56.390171 31282 layer_factory.hpp:77] Creating layer inception_4c/pool_proj
I0403 15:11:56.390194 31282 net.cpp:91] Creating Layer inception_4c/pool_proj
I0403 15:11:56.390213 31282 net.cpp:425] inception_4c/pool_proj <- inception_4c/pool
I0403 15:11:56.390233 31282 net.cpp:399] inception_4c/pool_proj -> inception_4c/pool_proj
I0403 15:11:56.391443 31282 net.cpp:141] Setting up inception_4c/pool_proj
I0403 15:11:56.391470 31282 net.cpp:148] Top shape: 24 64 14 14 (301056)
I0403 15:11:56.391499 31282 net.cpp:156] Memory required for data: 1061809440
I0403 15:11:56.391523 31282 layer_factory.hpp:77] Creating layer inception_4c/relu_pool_proj
I0403 15:11:56.391546 31282 net.cpp:91] Creating Layer inception_4c/relu_pool_proj
I0403 15:11:56.391563 31282 net.cpp:425] inception_4c/relu_pool_proj <- inception_4c/pool_proj
I0403 15:11:56.391582 31282 net.cpp:386] inception_4c/relu_pool_proj -> inception_4c/pool_proj (in-place)
I0403 15:11:56.391765 31282 net.cpp:141] Setting up inception_4c/relu_pool_proj
I0403 15:11:56.391793 31282 net.cpp:148] Top shape: 24 64 14 14 (301056)
I0403 15:11:56.391808 31282 net.cpp:156] Memory required for data: 1063013664
I0403 15:11:56.391822 31282 layer_factory.hpp:77] Creating layer inception_4c/output
I0403 15:11:56.391840 31282 net.cpp:91] Creating Layer inception_4c/output
I0403 15:11:56.391855 31282 net.cpp:425] inception_4c/output <- inception_4c/1x1
I0403 15:11:56.391871 31282 net.cpp:425] inception_4c/output <- inception_4c/3x3
I0403 15:11:56.391888 31282 net.cpp:425] inception_4c/output <- inception_4c/5x5
I0403 15:11:56.391904 31282 net.cpp:425] inception_4c/output <- inception_4c/pool_proj
I0403 15:11:56.391921 31282 net.cpp:399] inception_4c/output -> inception_4c/output
I0403 15:11:56.391969 31282 net.cpp:141] Setting up inception_4c/output
I0403 15:11:56.391993 31282 net.cpp:148] Top shape: 24 512 14 14 (2408448)
I0403 15:11:56.392006 31282 net.cpp:156] Memory required for data: 1072647456
I0403 15:11:56.392021 31282 layer_factory.hpp:77] Creating layer inception_4c/output_inception_4c/output_0_split
I0403 15:11:56.392041 31282 net.cpp:91] Creating Layer inception_4c/output_inception_4c/output_0_split
I0403 15:11:56.392056 31282 net.cpp:425] inception_4c/output_inception_4c/output_0_split <- inception_4c/output
I0403 15:11:56.392074 31282 net.cpp:399] inception_4c/output_inception_4c/output_0_split -> inception_4c/output_inception_4c/output_0_split_0
I0403 15:11:56.392094 31282 net.cpp:399] inception_4c/output_inception_4c/output_0_split -> inception_4c/output_inception_4c/output_0_split_1
I0403 15:11:56.392113 31282 net.cpp:399] inception_4c/output_inception_4c/output_0_split -> inception_4c/output_inception_4c/output_0_split_2
I0403 15:11:56.392135 31282 net.cpp:399] inception_4c/output_inception_4c/output_0_split -> inception_4c/output_inception_4c/output_0_split_3
I0403 15:11:56.392222 31282 net.cpp:141] Setting up inception_4c/output_inception_4c/output_0_split
I0403 15:11:56.392246 31282 net.cpp:148] Top shape: 24 512 14 14 (2408448)
I0403 15:11:56.392262 31282 net.cpp:148] Top shape: 24 512 14 14 (2408448)
I0403 15:11:56.392277 31282 net.cpp:148] Top shape: 24 512 14 14 (2408448)
I0403 15:11:56.392293 31282 net.cpp:148] Top shape: 24 512 14 14 (2408448)
I0403 15:11:56.392307 31282 net.cpp:156] Memory required for data: 1111182624
I0403 15:11:56.392321 31282 layer_factory.hpp:77] Creating layer inception_4d/1x1
I0403 15:11:56.392344 31282 net.cpp:91] Creating Layer inception_4d/1x1
I0403 15:11:56.392361 31282 net.cpp:425] inception_4d/1x1 <- inception_4c/output_inception_4c/output_0_split_0
I0403 15:11:56.392382 31282 net.cpp:399] inception_4d/1x1 -> inception_4d/1x1
I0403 15:11:56.393782 31282 net.cpp:141] Setting up inception_4d/1x1
I0403 15:11:56.393822 31282 net.cpp:148] Top shape: 24 112 14 14 (526848)
I0403 15:11:56.393837 31282 net.cpp:156] Memory required for data: 1113290016
I0403 15:11:56.393857 31282 layer_factory.hpp:77] Creating layer inception_4d/relu_1x1
I0403 15:11:56.393874 31282 net.cpp:91] Creating Layer inception_4d/relu_1x1
I0403 15:11:56.393892 31282 net.cpp:425] inception_4d/relu_1x1 <- inception_4d/1x1
I0403 15:11:56.393911 31282 net.cpp:386] inception_4d/relu_1x1 -> inception_4d/1x1 (in-place)
I0403 15:11:56.394094 31282 net.cpp:141] Setting up inception_4d/relu_1x1
I0403 15:11:56.394119 31282 net.cpp:148] Top shape: 24 112 14 14 (526848)
I0403 15:11:56.394134 31282 net.cpp:156] Memory required for data: 1115397408
I0403 15:11:56.394150 31282 layer_factory.hpp:77] Creating layer inception_4d/3x3_reduce
I0403 15:11:56.394186 31282 net.cpp:91] Creating Layer inception_4d/3x3_reduce
I0403 15:11:56.394204 31282 net.cpp:425] inception_4d/3x3_reduce <- inception_4c/output_inception_4c/output_0_split_1
I0403 15:11:56.394225 31282 net.cpp:399] inception_4d/3x3_reduce -> inception_4d/3x3_reduce
I0403 15:11:56.395782 31282 net.cpp:141] Setting up inception_4d/3x3_reduce
I0403 15:11:56.395813 31282 net.cpp:148] Top shape: 24 144 14 14 (677376)
I0403 15:11:56.395829 31282 net.cpp:156] Memory required for data: 1118106912
I0403 15:11:56.395848 31282 layer_factory.hpp:77] Creating layer inception_4d/relu_3x3_reduce
I0403 15:11:56.395866 31282 net.cpp:91] Creating Layer inception_4d/relu_3x3_reduce
I0403 15:11:56.395882 31282 net.cpp:425] inception_4d/relu_3x3_reduce <- inception_4d/3x3_reduce
I0403 15:11:56.395900 31282 net.cpp:386] inception_4d/relu_3x3_reduce -> inception_4d/3x3_reduce (in-place)
I0403 15:11:56.396183 31282 net.cpp:141] Setting up inception_4d/relu_3x3_reduce
I0403 15:11:56.396211 31282 net.cpp:148] Top shape: 24 144 14 14 (677376)
I0403 15:11:56.396227 31282 net.cpp:156] Memory required for data: 1120816416
I0403 15:11:56.396242 31282 layer_factory.hpp:77] Creating layer inception_4d/3x3
I0403 15:11:56.396263 31282 net.cpp:91] Creating Layer inception_4d/3x3
I0403 15:11:56.396281 31282 net.cpp:425] inception_4d/3x3 <- inception_4d/3x3_reduce
I0403 15:11:56.396299 31282 net.cpp:399] inception_4d/3x3 -> inception_4d/3x3
I0403 15:11:56.400437 31282 net.cpp:141] Setting up inception_4d/3x3
I0403 15:11:56.400465 31282 net.cpp:148] Top shape: 24 288 14 14 (1354752)
I0403 15:11:56.400480 31282 net.cpp:156] Memory required for data: 1126235424
I0403 15:11:56.400498 31282 layer_factory.hpp:77] Creating layer inception_4d/relu_3x3
I0403 15:11:56.400523 31282 net.cpp:91] Creating Layer inception_4d/relu_3x3
I0403 15:11:56.400540 31282 net.cpp:425] inception_4d/relu_3x3 <- inception_4d/3x3
I0403 15:11:56.400557 31282 net.cpp:386] inception_4d/relu_3x3 -> inception_4d/3x3 (in-place)
I0403 15:11:56.400734 31282 net.cpp:141] Setting up inception_4d/relu_3x3
I0403 15:11:56.400758 31282 net.cpp:148] Top shape: 24 288 14 14 (1354752)
I0403 15:11:56.400774 31282 net.cpp:156] Memory required for data: 1131654432
I0403 15:11:56.400787 31282 layer_factory.hpp:77] Creating layer inception_4d/5x5_reduce
I0403 15:11:56.400810 31282 net.cpp:91] Creating Layer inception_4d/5x5_reduce
I0403 15:11:56.400827 31282 net.cpp:425] inception_4d/5x5_reduce <- inception_4c/output_inception_4c/output_0_split_2
I0403 15:11:56.400846 31282 net.cpp:399] inception_4d/5x5_reduce -> inception_4d/5x5_reduce
I0403 15:11:56.401990 31282 net.cpp:141] Setting up inception_4d/5x5_reduce
I0403 15:11:56.402017 31282 net.cpp:148] Top shape: 24 32 14 14 (150528)
I0403 15:11:56.402032 31282 net.cpp:156] Memory required for data: 1132256544
I0403 15:11:56.402050 31282 layer_factory.hpp:77] Creating layer inception_4d/relu_5x5_reduce
I0403 15:11:56.402070 31282 net.cpp:91] Creating Layer inception_4d/relu_5x5_reduce
I0403 15:11:56.402087 31282 net.cpp:425] inception_4d/relu_5x5_reduce <- inception_4d/5x5_reduce
I0403 15:11:56.402104 31282 net.cpp:386] inception_4d/relu_5x5_reduce -> inception_4d/5x5_reduce (in-place)
I0403 15:11:56.402286 31282 net.cpp:141] Setting up inception_4d/relu_5x5_reduce
I0403 15:11:56.402309 31282 net.cpp:148] Top shape: 24 32 14 14 (150528)
I0403 15:11:56.402323 31282 net.cpp:156] Memory required for data: 1132858656
I0403 15:11:56.402336 31282 layer_factory.hpp:77] Creating layer inception_4d/5x5
I0403 15:11:56.402359 31282 net.cpp:91] Creating Layer inception_4d/5x5
I0403 15:11:56.402375 31282 net.cpp:425] inception_4d/5x5 <- inception_4d/5x5_reduce
I0403 15:11:56.402400 31282 net.cpp:399] inception_4d/5x5 -> inception_4d/5x5
I0403 15:11:56.403837 31282 net.cpp:141] Setting up inception_4d/5x5
I0403 15:11:56.403867 31282 net.cpp:148] Top shape: 24 64 14 14 (301056)
I0403 15:11:56.403882 31282 net.cpp:156] Memory required for data: 1134062880
I0403 15:11:56.403900 31282 layer_factory.hpp:77] Creating layer inception_4d/relu_5x5
I0403 15:11:56.403933 31282 net.cpp:91] Creating Layer inception_4d/relu_5x5
I0403 15:11:56.403949 31282 net.cpp:425] inception_4d/relu_5x5 <- inception_4d/5x5
I0403 15:11:56.403966 31282 net.cpp:386] inception_4d/relu_5x5 -> inception_4d/5x5 (in-place)
I0403 15:11:56.404258 31282 net.cpp:141] Setting up inception_4d/relu_5x5
I0403 15:11:56.404286 31282 net.cpp:148] Top shape: 24 64 14 14 (301056)
I0403 15:11:56.404301 31282 net.cpp:156] Memory required for data: 1135267104
I0403 15:11:56.404316 31282 layer_factory.hpp:77] Creating layer inception_4d/pool
I0403 15:11:56.404333 31282 net.cpp:91] Creating Layer inception_4d/pool
I0403 15:11:56.404350 31282 net.cpp:425] inception_4d/pool <- inception_4c/output_inception_4c/output_0_split_3
I0403 15:11:56.404367 31282 net.cpp:399] inception_4d/pool -> inception_4d/pool
I0403 15:11:56.404433 31282 net.cpp:141] Setting up inception_4d/pool
I0403 15:11:56.404455 31282 net.cpp:148] Top shape: 24 512 14 14 (2408448)
I0403 15:11:56.404470 31282 net.cpp:156] Memory required for data: 1144900896
I0403 15:11:56.404484 31282 layer_factory.hpp:77] Creating layer inception_4d/pool_proj
I0403 15:11:56.404517 31282 net.cpp:91] Creating Layer inception_4d/pool_proj
I0403 15:11:56.404538 31282 net.cpp:425] inception_4d/pool_proj <- inception_4d/pool
I0403 15:11:56.404561 31282 net.cpp:399] inception_4d/pool_proj -> inception_4d/pool_proj
I0403 15:11:56.406278 31282 net.cpp:141] Setting up inception_4d/pool_proj
I0403 15:11:56.406306 31282 net.cpp:148] Top shape: 24 64 14 14 (301056)
I0403 15:11:56.406322 31282 net.cpp:156] Memory required for data: 1146105120
I0403 15:11:56.406342 31282 layer_factory.hpp:77] Creating layer inception_4d/relu_pool_proj
I0403 15:11:56.406361 31282 net.cpp:91] Creating Layer inception_4d/relu_pool_proj
I0403 15:11:56.406378 31282 net.cpp:425] inception_4d/relu_pool_proj <- inception_4d/pool_proj
I0403 15:11:56.406394 31282 net.cpp:386] inception_4d/relu_pool_proj -> inception_4d/pool_proj (in-place)
I0403 15:11:56.406582 31282 net.cpp:141] Setting up inception_4d/relu_pool_proj
I0403 15:11:56.406607 31282 net.cpp:148] Top shape: 24 64 14 14 (301056)
I0403 15:11:56.406621 31282 net.cpp:156] Memory required for data: 1147309344
I0403 15:11:56.406635 31282 layer_factory.hpp:77] Creating layer inception_4d/output
I0403 15:11:56.406654 31282 net.cpp:91] Creating Layer inception_4d/output
I0403 15:11:56.406671 31282 net.cpp:425] inception_4d/output <- inception_4d/1x1
I0403 15:11:56.406687 31282 net.cpp:425] inception_4d/output <- inception_4d/3x3
I0403 15:11:56.406702 31282 net.cpp:425] inception_4d/output <- inception_4d/5x5
I0403 15:11:56.406718 31282 net.cpp:425] inception_4d/output <- inception_4d/pool_proj
I0403 15:11:56.406734 31282 net.cpp:399] inception_4d/output -> inception_4d/output
I0403 15:11:56.406782 31282 net.cpp:141] Setting up inception_4d/output
I0403 15:11:56.406805 31282 net.cpp:148] Top shape: 24 528 14 14 (2483712)
I0403 15:11:56.406819 31282 net.cpp:156] Memory required for data: 1157244192
I0403 15:11:56.406834 31282 layer_factory.hpp:77] Creating layer inception_4d/output_inception_4d/output_0_split
I0403 15:11:56.406852 31282 net.cpp:91] Creating Layer inception_4d/output_inception_4d/output_0_split
I0403 15:11:56.406867 31282 net.cpp:425] inception_4d/output_inception_4d/output_0_split <- inception_4d/output
I0403 15:11:56.406886 31282 net.cpp:399] inception_4d/output_inception_4d/output_0_split -> inception_4d/output_inception_4d/output_0_split_0
I0403 15:11:56.406908 31282 net.cpp:399] inception_4d/output_inception_4d/output_0_split -> inception_4d/output_inception_4d/output_0_split_1
I0403 15:11:56.406927 31282 net.cpp:399] inception_4d/output_inception_4d/output_0_split -> inception_4d/output_inception_4d/output_0_split_2
I0403 15:11:56.406949 31282 net.cpp:399] inception_4d/output_inception_4d/output_0_split -> inception_4d/output_inception_4d/output_0_split_3
I0403 15:11:56.406972 31282 net.cpp:399] inception_4d/output_inception_4d/output_0_split -> inception_4d/output_inception_4d/output_0_split_4
I0403 15:11:56.407070 31282 net.cpp:141] Setting up inception_4d/output_inception_4d/output_0_split
I0403 15:11:56.407104 31282 net.cpp:148] Top shape: 24 528 14 14 (2483712)
I0403 15:11:56.407121 31282 net.cpp:148] Top shape: 24 528 14 14 (2483712)
I0403 15:11:56.407136 31282 net.cpp:148] Top shape: 24 528 14 14 (2483712)
I0403 15:11:56.407152 31282 net.cpp:148] Top shape: 24 528 14 14 (2483712)
I0403 15:11:56.407168 31282 net.cpp:148] Top shape: 24 528 14 14 (2483712)
I0403 15:11:56.407182 31282 net.cpp:156] Memory required for data: 1206918432
I0403 15:11:56.407196 31282 layer_factory.hpp:77] Creating layer loss2/ave_pool
I0403 15:11:56.407214 31282 net.cpp:91] Creating Layer loss2/ave_pool
I0403 15:11:56.407229 31282 net.cpp:425] loss2/ave_pool <- inception_4d/output_inception_4d/output_0_split_0
I0403 15:11:56.407249 31282 net.cpp:399] loss2/ave_pool -> loss2/ave_pool
I0403 15:11:56.407558 31282 net.cpp:141] Setting up loss2/ave_pool
I0403 15:11:56.407585 31282 net.cpp:148] Top shape: 24 528 4 4 (202752)
I0403 15:11:56.407600 31282 net.cpp:156] Memory required for data: 1207729440
I0403 15:11:56.407614 31282 layer_factory.hpp:77] Creating layer loss2/conv
I0403 15:11:56.407637 31282 net.cpp:91] Creating Layer loss2/conv
I0403 15:11:56.407655 31282 net.cpp:425] loss2/conv <- loss2/ave_pool
I0403 15:11:56.407675 31282 net.cpp:399] loss2/conv -> loss2/conv
I0403 15:11:56.409596 31282 net.cpp:141] Setting up loss2/conv
I0403 15:11:56.409626 31282 net.cpp:148] Top shape: 24 128 4 4 (49152)
I0403 15:11:56.409641 31282 net.cpp:156] Memory required for data: 1207926048
I0403 15:11:56.409662 31282 layer_factory.hpp:77] Creating layer loss2/relu_conv
I0403 15:11:56.409682 31282 net.cpp:91] Creating Layer loss2/relu_conv
I0403 15:11:56.409703 31282 net.cpp:425] loss2/relu_conv <- loss2/conv
I0403 15:11:56.409720 31282 net.cpp:386] loss2/relu_conv -> loss2/conv (in-place)
I0403 15:11:56.410028 31282 net.cpp:141] Setting up loss2/relu_conv
I0403 15:11:56.410054 31282 net.cpp:148] Top shape: 24 128 4 4 (49152)
I0403 15:11:56.410070 31282 net.cpp:156] Memory required for data: 1208122656
I0403 15:11:56.410085 31282 layer_factory.hpp:77] Creating layer loss2/fc
I0403 15:11:56.410107 31282 net.cpp:91] Creating Layer loss2/fc
I0403 15:11:56.410125 31282 net.cpp:425] loss2/fc <- loss2/conv
I0403 15:11:56.410146 31282 net.cpp:399] loss2/fc -> loss2/fc
I0403 15:11:56.428210 31282 net.cpp:141] Setting up loss2/fc
I0403 15:11:56.428246 31282 net.cpp:148] Top shape: 24 1024 (24576)
I0403 15:11:56.428267 31282 net.cpp:156] Memory required for data: 1208220960
I0403 15:11:56.428287 31282 layer_factory.hpp:77] Creating layer loss2/relu_fc
I0403 15:11:56.428308 31282 net.cpp:91] Creating Layer loss2/relu_fc
I0403 15:11:56.428326 31282 net.cpp:425] loss2/relu_fc <- loss2/fc
I0403 15:11:56.428344 31282 net.cpp:386] loss2/relu_fc -> loss2/fc (in-place)
I0403 15:11:56.428655 31282 net.cpp:141] Setting up loss2/relu_fc
I0403 15:11:56.428681 31282 net.cpp:148] Top shape: 24 1024 (24576)
I0403 15:11:56.428696 31282 net.cpp:156] Memory required for data: 1208319264
I0403 15:11:56.428711 31282 layer_factory.hpp:77] Creating layer loss2/drop_fc
I0403 15:11:56.428732 31282 net.cpp:91] Creating Layer loss2/drop_fc
I0403 15:11:56.428748 31282 net.cpp:425] loss2/drop_fc <- loss2/fc
I0403 15:11:56.428766 31282 net.cpp:386] loss2/drop_fc -> loss2/fc (in-place)
I0403 15:11:56.428817 31282 net.cpp:141] Setting up loss2/drop_fc
I0403 15:11:56.428840 31282 net.cpp:148] Top shape: 24 1024 (24576)
I0403 15:11:56.428854 31282 net.cpp:156] Memory required for data: 1208417568
I0403 15:11:56.428870 31282 layer_factory.hpp:77] Creating layer loss2/classifier_plantvillage
I0403 15:11:56.428889 31282 net.cpp:91] Creating Layer loss2/classifier_plantvillage
I0403 15:11:56.428905 31282 net.cpp:425] loss2/classifier_plantvillage <- loss2/fc
I0403 15:11:56.428926 31282 net.cpp:399] loss2/classifier_plantvillage -> loss2/classifier_plantvillage
I0403 15:11:56.429344 31282 net.cpp:141] Setting up loss2/classifier_plantvillage
I0403 15:11:56.429369 31282 net.cpp:148] Top shape: 24 38 (912)
I0403 15:11:56.429399 31282 net.cpp:156] Memory required for data: 1208421216
I0403 15:11:56.429419 31282 layer_factory.hpp:77] Creating layer loss2/classifier_plantvillage_loss2/classifier_plantvillage_0_split
I0403 15:11:56.429440 31282 net.cpp:91] Creating Layer loss2/classifier_plantvillage_loss2/classifier_plantvillage_0_split
I0403 15:11:56.429456 31282 net.cpp:425] loss2/classifier_plantvillage_loss2/classifier_plantvillage_0_split <- loss2/classifier_plantvillage
I0403 15:11:56.429476 31282 net.cpp:399] loss2/classifier_plantvillage_loss2/classifier_plantvillage_0_split -> loss2/classifier_plantvillage_loss2/classifier_plantvillage_0_split_0
I0403 15:11:56.429497 31282 net.cpp:399] loss2/classifier_plantvillage_loss2/classifier_plantvillage_0_split -> loss2/classifier_plantvillage_loss2/classifier_plantvillage_0_split_1
I0403 15:11:56.429522 31282 net.cpp:399] loss2/classifier_plantvillage_loss2/classifier_plantvillage_0_split -> loss2/classifier_plantvillage_loss2/classifier_plantvillage_0_split_2
I0403 15:11:56.429596 31282 net.cpp:141] Setting up loss2/classifier_plantvillage_loss2/classifier_plantvillage_0_split
I0403 15:11:56.429620 31282 net.cpp:148] Top shape: 24 38 (912)
I0403 15:11:56.429636 31282 net.cpp:148] Top shape: 24 38 (912)
I0403 15:11:56.429651 31282 net.cpp:148] Top shape: 24 38 (912)
I0403 15:11:56.429666 31282 net.cpp:156] Memory required for data: 1208432160
I0403 15:11:56.429679 31282 layer_factory.hpp:77] Creating layer inception_4e/1x1
I0403 15:11:56.429702 31282 net.cpp:91] Creating Layer inception_4e/1x1
I0403 15:11:56.429718 31282 net.cpp:425] inception_4e/1x1 <- inception_4d/output_inception_4d/output_0_split_1
I0403 15:11:56.429738 31282 net.cpp:399] inception_4e/1x1 -> inception_4e/1x1
I0403 15:11:56.431498 31282 net.cpp:141] Setting up inception_4e/1x1
I0403 15:11:56.431530 31282 net.cpp:148] Top shape: 24 256 14 14 (1204224)
I0403 15:11:56.431547 31282 net.cpp:156] Memory required for data: 1213249056
I0403 15:11:56.431565 31282 layer_factory.hpp:77] Creating layer inception_4e/relu_1x1
I0403 15:11:56.431583 31282 net.cpp:91] Creating Layer inception_4e/relu_1x1
I0403 15:11:56.431598 31282 net.cpp:425] inception_4e/relu_1x1 <- inception_4e/1x1
I0403 15:11:56.431614 31282 net.cpp:386] inception_4e/relu_1x1 -> inception_4e/1x1 (in-place)
I0403 15:11:56.431902 31282 net.cpp:141] Setting up inception_4e/relu_1x1
I0403 15:11:56.431931 31282 net.cpp:148] Top shape: 24 256 14 14 (1204224)
I0403 15:11:56.431946 31282 net.cpp:156] Memory required for data: 1218065952
I0403 15:11:56.431960 31282 layer_factory.hpp:77] Creating layer inception_4e/3x3_reduce
I0403 15:11:56.431982 31282 net.cpp:91] Creating Layer inception_4e/3x3_reduce
I0403 15:11:56.431999 31282 net.cpp:425] inception_4e/3x3_reduce <- inception_4d/output_inception_4d/output_0_split_2
I0403 15:11:56.432018 31282 net.cpp:399] inception_4e/3x3_reduce -> inception_4e/3x3_reduce
I0403 15:11:56.434080 31282 net.cpp:141] Setting up inception_4e/3x3_reduce
I0403 15:11:56.434108 31282 net.cpp:148] Top shape: 24 160 14 14 (752640)
I0403 15:11:56.434123 31282 net.cpp:156] Memory required for data: 1221076512
I0403 15:11:56.434140 31282 layer_factory.hpp:77] Creating layer inception_4e/relu_3x3_reduce
I0403 15:11:56.434162 31282 net.cpp:91] Creating Layer inception_4e/relu_3x3_reduce
I0403 15:11:56.434180 31282 net.cpp:425] inception_4e/relu_3x3_reduce <- inception_4e/3x3_reduce
I0403 15:11:56.434196 31282 net.cpp:386] inception_4e/relu_3x3_reduce -> inception_4e/3x3_reduce (in-place)
I0403 15:11:56.434377 31282 net.cpp:141] Setting up inception_4e/relu_3x3_reduce
I0403 15:11:56.434401 31282 net.cpp:148] Top shape: 24 160 14 14 (752640)
I0403 15:11:56.434415 31282 net.cpp:156] Memory required for data: 1224087072
I0403 15:11:56.434429 31282 layer_factory.hpp:77] Creating layer inception_4e/3x3
I0403 15:11:56.434451 31282 net.cpp:91] Creating Layer inception_4e/3x3
I0403 15:11:56.434468 31282 net.cpp:425] inception_4e/3x3 <- inception_4e/3x3_reduce
I0403 15:11:56.434489 31282 net.cpp:399] inception_4e/3x3 -> inception_4e/3x3
I0403 15:11:56.439357 31282 net.cpp:141] Setting up inception_4e/3x3
I0403 15:11:56.439399 31282 net.cpp:148] Top shape: 24 320 14 14 (1505280)
I0403 15:11:56.439415 31282 net.cpp:156] Memory required for data: 1230108192
I0403 15:11:56.439435 31282 layer_factory.hpp:77] Creating layer inception_4e/relu_3x3
I0403 15:11:56.439452 31282 net.cpp:91] Creating Layer inception_4e/relu_3x3
I0403 15:11:56.439467 31282 net.cpp:425] inception_4e/relu_3x3 <- inception_4e/3x3
I0403 15:11:56.439486 31282 net.cpp:386] inception_4e/relu_3x3 -> inception_4e/3x3 (in-place)
I0403 15:11:56.439784 31282 net.cpp:141] Setting up inception_4e/relu_3x3
I0403 15:11:56.439808 31282 net.cpp:148] Top shape: 24 320 14 14 (1505280)
I0403 15:11:56.439823 31282 net.cpp:156] Memory required for data: 1236129312
I0403 15:11:56.439838 31282 layer_factory.hpp:77] Creating layer inception_4e/5x5_reduce
I0403 15:11:56.439862 31282 net.cpp:91] Creating Layer inception_4e/5x5_reduce
I0403 15:11:56.439878 31282 net.cpp:425] inception_4e/5x5_reduce <- inception_4d/output_inception_4d/output_0_split_3
I0403 15:11:56.439899 31282 net.cpp:399] inception_4e/5x5_reduce -> inception_4e/5x5_reduce
I0403 15:11:56.440942 31282 net.cpp:141] Setting up inception_4e/5x5_reduce
I0403 15:11:56.440970 31282 net.cpp:148] Top shape: 24 32 14 14 (150528)
I0403 15:11:56.440986 31282 net.cpp:156] Memory required for data: 1236731424
I0403 15:11:56.441005 31282 layer_factory.hpp:77] Creating layer inception_4e/relu_5x5_reduce
I0403 15:11:56.441022 31282 net.cpp:91] Creating Layer inception_4e/relu_5x5_reduce
I0403 15:11:56.441038 31282 net.cpp:425] inception_4e/relu_5x5_reduce <- inception_4e/5x5_reduce
I0403 15:11:56.441056 31282 net.cpp:386] inception_4e/relu_5x5_reduce -> inception_4e/5x5_reduce (in-place)
I0403 15:11:56.441351 31282 net.cpp:141] Setting up inception_4e/relu_5x5_reduce
I0403 15:11:56.441378 31282 net.cpp:148] Top shape: 24 32 14 14 (150528)
I0403 15:11:56.441393 31282 net.cpp:156] Memory required for data: 1237333536
I0403 15:11:56.441409 31282 layer_factory.hpp:77] Creating layer inception_4e/5x5
I0403 15:11:56.441447 31282 net.cpp:91] Creating Layer inception_4e/5x5
I0403 15:11:56.441465 31282 net.cpp:425] inception_4e/5x5 <- inception_4e/5x5_reduce
I0403 15:11:56.441483 31282 net.cpp:399] inception_4e/5x5 -> inception_4e/5x5
I0403 15:11:56.443289 31282 net.cpp:141] Setting up inception_4e/5x5
I0403 15:11:56.443316 31282 net.cpp:148] Top shape: 24 128 14 14 (602112)
I0403 15:11:56.443331 31282 net.cpp:156] Memory required for data: 1239741984
I0403 15:11:56.443349 31282 layer_factory.hpp:77] Creating layer inception_4e/relu_5x5
I0403 15:11:56.443370 31282 net.cpp:91] Creating Layer inception_4e/relu_5x5
I0403 15:11:56.443387 31282 net.cpp:425] inception_4e/relu_5x5 <- inception_4e/5x5
I0403 15:11:56.443404 31282 net.cpp:386] inception_4e/relu_5x5 -> inception_4e/5x5 (in-place)
I0403 15:11:56.443601 31282 net.cpp:141] Setting up inception_4e/relu_5x5
I0403 15:11:56.443627 31282 net.cpp:148] Top shape: 24 128 14 14 (602112)
I0403 15:11:56.443642 31282 net.cpp:156] Memory required for data: 1242150432
I0403 15:11:56.443657 31282 layer_factory.hpp:77] Creating layer inception_4e/pool
I0403 15:11:56.443676 31282 net.cpp:91] Creating Layer inception_4e/pool
I0403 15:11:56.443692 31282 net.cpp:425] inception_4e/pool <- inception_4d/output_inception_4d/output_0_split_4
I0403 15:11:56.443712 31282 net.cpp:399] inception_4e/pool -> inception_4e/pool
I0403 15:11:56.443780 31282 net.cpp:141] Setting up inception_4e/pool
I0403 15:11:56.443804 31282 net.cpp:148] Top shape: 24 528 14 14 (2483712)
I0403 15:11:56.443817 31282 net.cpp:156] Memory required for data: 1252085280
I0403 15:11:56.443832 31282 layer_factory.hpp:77] Creating layer inception_4e/pool_proj
I0403 15:11:56.443853 31282 net.cpp:91] Creating Layer inception_4e/pool_proj
I0403 15:11:56.443871 31282 net.cpp:425] inception_4e/pool_proj <- inception_4e/pool
I0403 15:11:56.443891 31282 net.cpp:399] inception_4e/pool_proj -> inception_4e/pool_proj
I0403 15:11:56.445358 31282 net.cpp:141] Setting up inception_4e/pool_proj
I0403 15:11:56.445397 31282 net.cpp:148] Top shape: 24 128 14 14 (602112)
I0403 15:11:56.445413 31282 net.cpp:156] Memory required for data: 1254493728
I0403 15:11:56.445431 31282 layer_factory.hpp:77] Creating layer inception_4e/relu_pool_proj
I0403 15:11:56.445451 31282 net.cpp:91] Creating Layer inception_4e/relu_pool_proj
I0403 15:11:56.445469 31282 net.cpp:425] inception_4e/relu_pool_proj <- inception_4e/pool_proj
I0403 15:11:56.445487 31282 net.cpp:386] inception_4e/relu_pool_proj -> inception_4e/pool_proj (in-place)
I0403 15:11:56.445775 31282 net.cpp:141] Setting up inception_4e/relu_pool_proj
I0403 15:11:56.445801 31282 net.cpp:148] Top shape: 24 128 14 14 (602112)
I0403 15:11:56.445814 31282 net.cpp:156] Memory required for data: 1256902176
I0403 15:11:56.445829 31282 layer_factory.hpp:77] Creating layer inception_4e/output
I0403 15:11:56.445847 31282 net.cpp:91] Creating Layer inception_4e/output
I0403 15:11:56.445865 31282 net.cpp:425] inception_4e/output <- inception_4e/1x1
I0403 15:11:56.445883 31282 net.cpp:425] inception_4e/output <- inception_4e/3x3
I0403 15:11:56.445899 31282 net.cpp:425] inception_4e/output <- inception_4e/5x5
I0403 15:11:56.445914 31282 net.cpp:425] inception_4e/output <- inception_4e/pool_proj
I0403 15:11:56.445930 31282 net.cpp:399] inception_4e/output -> inception_4e/output
I0403 15:11:56.445978 31282 net.cpp:141] Setting up inception_4e/output
I0403 15:11:56.446003 31282 net.cpp:148] Top shape: 24 832 14 14 (3913728)
I0403 15:11:56.446018 31282 net.cpp:156] Memory required for data: 1272557088
I0403 15:11:56.446033 31282 layer_factory.hpp:77] Creating layer pool4/3x3_s2
I0403 15:11:56.446216 31282 net.cpp:91] Creating Layer pool4/3x3_s2
I0403 15:11:56.446269 31282 net.cpp:425] pool4/3x3_s2 <- inception_4e/output
I0403 15:11:56.446292 31282 net.cpp:399] pool4/3x3_s2 -> pool4/3x3_s2
I0403 15:11:56.446360 31282 net.cpp:141] Setting up pool4/3x3_s2
I0403 15:11:56.446385 31282 net.cpp:148] Top shape: 24 832 7 7 (978432)
I0403 15:11:56.446401 31282 net.cpp:156] Memory required for data: 1276470816
I0403 15:11:56.446416 31282 layer_factory.hpp:77] Creating layer pool4/3x3_s2_pool4/3x3_s2_0_split
I0403 15:11:56.446434 31282 net.cpp:91] Creating Layer pool4/3x3_s2_pool4/3x3_s2_0_split
I0403 15:11:56.446449 31282 net.cpp:425] pool4/3x3_s2_pool4/3x3_s2_0_split <- pool4/3x3_s2
I0403 15:11:56.446465 31282 net.cpp:399] pool4/3x3_s2_pool4/3x3_s2_0_split -> pool4/3x3_s2_pool4/3x3_s2_0_split_0
I0403 15:11:56.446485 31282 net.cpp:399] pool4/3x3_s2_pool4/3x3_s2_0_split -> pool4/3x3_s2_pool4/3x3_s2_0_split_1
I0403 15:11:56.446511 31282 net.cpp:399] pool4/3x3_s2_pool4/3x3_s2_0_split -> pool4/3x3_s2_pool4/3x3_s2_0_split_2
I0403 15:11:56.446533 31282 net.cpp:399] pool4/3x3_s2_pool4/3x3_s2_0_split -> pool4/3x3_s2_pool4/3x3_s2_0_split_3
I0403 15:11:56.446625 31282 net.cpp:141] Setting up pool4/3x3_s2_pool4/3x3_s2_0_split
I0403 15:11:56.446648 31282 net.cpp:148] Top shape: 24 832 7 7 (978432)
I0403 15:11:56.446665 31282 net.cpp:148] Top shape: 24 832 7 7 (978432)
I0403 15:11:56.446679 31282 net.cpp:148] Top shape: 24 832 7 7 (978432)
I0403 15:11:56.446696 31282 net.cpp:148] Top shape: 24 832 7 7 (978432)
I0403 15:11:56.446709 31282 net.cpp:156] Memory required for data: 1292125728
I0403 15:11:56.446723 31282 layer_factory.hpp:77] Creating layer inception_5a/1x1
I0403 15:11:56.446745 31282 net.cpp:91] Creating Layer inception_5a/1x1
I0403 15:11:56.446763 31282 net.cpp:425] inception_5a/1x1 <- pool4/3x3_s2_pool4/3x3_s2_0_split_0
I0403 15:11:56.446784 31282 net.cpp:399] inception_5a/1x1 -> inception_5a/1x1
I0403 15:11:56.449564 31282 net.cpp:141] Setting up inception_5a/1x1
I0403 15:11:56.449592 31282 net.cpp:148] Top shape: 24 256 7 7 (301056)
I0403 15:11:56.449607 31282 net.cpp:156] Memory required for data: 1293329952
I0403 15:11:56.449625 31282 layer_factory.hpp:77] Creating layer inception_5a/relu_1x1
I0403 15:11:56.449645 31282 net.cpp:91] Creating Layer inception_5a/relu_1x1
I0403 15:11:56.449663 31282 net.cpp:425] inception_5a/relu_1x1 <- inception_5a/1x1
I0403 15:11:56.449681 31282 net.cpp:386] inception_5a/relu_1x1 -> inception_5a/1x1 (in-place)
I0403 15:11:56.449985 31282 net.cpp:141] Setting up inception_5a/relu_1x1
I0403 15:11:56.450009 31282 net.cpp:148] Top shape: 24 256 7 7 (301056)
I0403 15:11:56.450024 31282 net.cpp:156] Memory required for data: 1294534176
I0403 15:11:56.450038 31282 layer_factory.hpp:77] Creating layer inception_5a/3x3_reduce
I0403 15:11:56.450062 31282 net.cpp:91] Creating Layer inception_5a/3x3_reduce
I0403 15:11:56.450080 31282 net.cpp:425] inception_5a/3x3_reduce <- pool4/3x3_s2_pool4/3x3_s2_0_split_1
I0403 15:11:56.450099 31282 net.cpp:399] inception_5a/3x3_reduce -> inception_5a/3x3_reduce
I0403 15:11:56.452498 31282 net.cpp:141] Setting up inception_5a/3x3_reduce
I0403 15:11:56.452544 31282 net.cpp:148] Top shape: 24 160 7 7 (188160)
I0403 15:11:56.452559 31282 net.cpp:156] Memory required for data: 1295286816
I0403 15:11:56.452579 31282 layer_factory.hpp:77] Creating layer inception_5a/relu_3x3_reduce
I0403 15:11:56.452599 31282 net.cpp:91] Creating Layer inception_5a/relu_3x3_reduce
I0403 15:11:56.452616 31282 net.cpp:425] inception_5a/relu_3x3_reduce <- inception_5a/3x3_reduce
I0403 15:11:56.452636 31282 net.cpp:386] inception_5a/relu_3x3_reduce -> inception_5a/3x3_reduce (in-place)
I0403 15:11:56.452833 31282 net.cpp:141] Setting up inception_5a/relu_3x3_reduce
I0403 15:11:56.452857 31282 net.cpp:148] Top shape: 24 160 7 7 (188160)
I0403 15:11:56.452872 31282 net.cpp:156] Memory required for data: 1296039456
I0403 15:11:56.452886 31282 layer_factory.hpp:77] Creating layer inception_5a/3x3
I0403 15:11:56.452908 31282 net.cpp:91] Creating Layer inception_5a/3x3
I0403 15:11:56.452926 31282 net.cpp:425] inception_5a/3x3 <- inception_5a/3x3_reduce
I0403 15:11:56.452947 31282 net.cpp:399] inception_5a/3x3 -> inception_5a/3x3
I0403 15:11:56.457934 31282 net.cpp:141] Setting up inception_5a/3x3
I0403 15:11:56.457963 31282 net.cpp:148] Top shape: 24 320 7 7 (376320)
I0403 15:11:56.457980 31282 net.cpp:156] Memory required for data: 1297544736
I0403 15:11:56.457999 31282 layer_factory.hpp:77] Creating layer inception_5a/relu_3x3
I0403 15:11:56.458020 31282 net.cpp:91] Creating Layer inception_5a/relu_3x3
I0403 15:11:56.458039 31282 net.cpp:425] inception_5a/relu_3x3 <- inception_5a/3x3
I0403 15:11:56.458056 31282 net.cpp:386] inception_5a/relu_3x3 -> inception_5a/3x3 (in-place)
I0403 15:11:56.458349 31282 net.cpp:141] Setting up inception_5a/relu_3x3
I0403 15:11:56.458374 31282 net.cpp:148] Top shape: 24 320 7 7 (376320)
I0403 15:11:56.458389 31282 net.cpp:156] Memory required for data: 1299050016
I0403 15:11:56.458405 31282 layer_factory.hpp:77] Creating layer inception_5a/5x5_reduce
I0403 15:11:56.458425 31282 net.cpp:91] Creating Layer inception_5a/5x5_reduce
I0403 15:11:56.458443 31282 net.cpp:425] inception_5a/5x5_reduce <- pool4/3x3_s2_pool4/3x3_s2_0_split_2
I0403 15:11:56.458464 31282 net.cpp:399] inception_5a/5x5_reduce -> inception_5a/5x5_reduce
I0403 15:11:56.459626 31282 net.cpp:141] Setting up inception_5a/5x5_reduce
I0403 15:11:56.459656 31282 net.cpp:148] Top shape: 24 32 7 7 (37632)
I0403 15:11:56.459671 31282 net.cpp:156] Memory required for data: 1299200544
I0403 15:11:56.459689 31282 layer_factory.hpp:77] Creating layer inception_5a/relu_5x5_reduce
I0403 15:11:56.459710 31282 net.cpp:91] Creating Layer inception_5a/relu_5x5_reduce
I0403 15:11:56.459728 31282 net.cpp:425] inception_5a/relu_5x5_reduce <- inception_5a/5x5_reduce
I0403 15:11:56.459745 31282 net.cpp:386] inception_5a/relu_5x5_reduce -> inception_5a/5x5_reduce (in-place)
I0403 15:11:56.460049 31282 net.cpp:141] Setting up inception_5a/relu_5x5_reduce
I0403 15:11:56.460077 31282 net.cpp:148] Top shape: 24 32 7 7 (37632)
I0403 15:11:56.460091 31282 net.cpp:156] Memory required for data: 1299351072
I0403 15:11:56.460106 31282 layer_factory.hpp:77] Creating layer inception_5a/5x5
I0403 15:11:56.460129 31282 net.cpp:91] Creating Layer inception_5a/5x5
I0403 15:11:56.460146 31282 net.cpp:425] inception_5a/5x5 <- inception_5a/5x5_reduce
I0403 15:11:56.460165 31282 net.cpp:399] inception_5a/5x5 -> inception_5a/5x5
I0403 15:11:56.461843 31282 net.cpp:141] Setting up inception_5a/5x5
I0403 15:11:56.461880 31282 net.cpp:148] Top shape: 24 128 7 7 (150528)
I0403 15:11:56.461896 31282 net.cpp:156] Memory required for data: 1299953184
I0403 15:11:56.461915 31282 layer_factory.hpp:77] Creating layer inception_5a/relu_5x5
I0403 15:11:56.461935 31282 net.cpp:91] Creating Layer inception_5a/relu_5x5
I0403 15:11:56.461951 31282 net.cpp:425] inception_5a/relu_5x5 <- inception_5a/5x5
I0403 15:11:56.461968 31282 net.cpp:386] inception_5a/relu_5x5 -> inception_5a/5x5 (in-place)
I0403 15:11:56.462157 31282 net.cpp:141] Setting up inception_5a/relu_5x5
I0403 15:11:56.462183 31282 net.cpp:148] Top shape: 24 128 7 7 (150528)
I0403 15:11:56.462198 31282 net.cpp:156] Memory required for data: 1300555296
I0403 15:11:56.462213 31282 layer_factory.hpp:77] Creating layer inception_5a/pool
I0403 15:11:56.462230 31282 net.cpp:91] Creating Layer inception_5a/pool
I0403 15:11:56.462246 31282 net.cpp:425] inception_5a/pool <- pool4/3x3_s2_pool4/3x3_s2_0_split_3
I0403 15:11:56.462266 31282 net.cpp:399] inception_5a/pool -> inception_5a/pool
I0403 15:11:56.462334 31282 net.cpp:141] Setting up inception_5a/pool
I0403 15:11:56.462358 31282 net.cpp:148] Top shape: 24 832 7 7 (978432)
I0403 15:11:56.462373 31282 net.cpp:156] Memory required for data: 1304469024
I0403 15:11:56.462386 31282 layer_factory.hpp:77] Creating layer inception_5a/pool_proj
I0403 15:11:56.462409 31282 net.cpp:91] Creating Layer inception_5a/pool_proj
I0403 15:11:56.462425 31282 net.cpp:425] inception_5a/pool_proj <- inception_5a/pool
I0403 15:11:56.462446 31282 net.cpp:399] inception_5a/pool_proj -> inception_5a/pool_proj
I0403 15:11:56.464689 31282 net.cpp:141] Setting up inception_5a/pool_proj
I0403 15:11:56.464717 31282 net.cpp:148] Top shape: 24 128 7 7 (150528)
I0403 15:11:56.464733 31282 net.cpp:156] Memory required for data: 1305071136
I0403 15:11:56.464751 31282 layer_factory.hpp:77] Creating layer inception_5a/relu_pool_proj
I0403 15:11:56.464771 31282 net.cpp:91] Creating Layer inception_5a/relu_pool_proj
I0403 15:11:56.464787 31282 net.cpp:425] inception_5a/relu_pool_proj <- inception_5a/pool_proj
I0403 15:11:56.464804 31282 net.cpp:386] inception_5a/relu_pool_proj -> inception_5a/pool_proj (in-place)
I0403 15:11:56.465095 31282 net.cpp:141] Setting up inception_5a/relu_pool_proj
I0403 15:11:56.465121 31282 net.cpp:148] Top shape: 24 128 7 7 (150528)
I0403 15:11:56.465136 31282 net.cpp:156] Memory required for data: 1305673248
I0403 15:11:56.465149 31282 layer_factory.hpp:77] Creating layer inception_5a/output
I0403 15:11:56.465167 31282 net.cpp:91] Creating Layer inception_5a/output
I0403 15:11:56.465183 31282 net.cpp:425] inception_5a/output <- inception_5a/1x1
I0403 15:11:56.465198 31282 net.cpp:425] inception_5a/output <- inception_5a/3x3
I0403 15:11:56.465214 31282 net.cpp:425] inception_5a/output <- inception_5a/5x5
I0403 15:11:56.465230 31282 net.cpp:425] inception_5a/output <- inception_5a/pool_proj
I0403 15:11:56.465248 31282 net.cpp:399] inception_5a/output -> inception_5a/output
I0403 15:11:56.465299 31282 net.cpp:141] Setting up inception_5a/output
I0403 15:11:56.465322 31282 net.cpp:148] Top shape: 24 832 7 7 (978432)
I0403 15:11:56.465337 31282 net.cpp:156] Memory required for data: 1309586976
I0403 15:11:56.465351 31282 layer_factory.hpp:77] Creating layer inception_5a/output_inception_5a/output_0_split
I0403 15:11:56.465368 31282 net.cpp:91] Creating Layer inception_5a/output_inception_5a/output_0_split
I0403 15:11:56.465383 31282 net.cpp:425] inception_5a/output_inception_5a/output_0_split <- inception_5a/output
I0403 15:11:56.465401 31282 net.cpp:399] inception_5a/output_inception_5a/output_0_split -> inception_5a/output_inception_5a/output_0_split_0
I0403 15:11:56.465422 31282 net.cpp:399] inception_5a/output_inception_5a/output_0_split -> inception_5a/output_inception_5a/output_0_split_1
I0403 15:11:56.465445 31282 net.cpp:399] inception_5a/output_inception_5a/output_0_split -> inception_5a/output_inception_5a/output_0_split_2
I0403 15:11:56.465466 31282 net.cpp:399] inception_5a/output_inception_5a/output_0_split -> inception_5a/output_inception_5a/output_0_split_3
I0403 15:11:56.465579 31282 net.cpp:141] Setting up inception_5a/output_inception_5a/output_0_split
I0403 15:11:56.465602 31282 net.cpp:148] Top shape: 24 832 7 7 (978432)
I0403 15:11:56.465617 31282 net.cpp:148] Top shape: 24 832 7 7 (978432)
I0403 15:11:56.465632 31282 net.cpp:148] Top shape: 24 832 7 7 (978432)
I0403 15:11:56.465648 31282 net.cpp:148] Top shape: 24 832 7 7 (978432)
I0403 15:11:56.465662 31282 net.cpp:156] Memory required for data: 1325241888
I0403 15:11:56.465677 31282 layer_factory.hpp:77] Creating layer inception_5b/1x1
I0403 15:11:56.465699 31282 net.cpp:91] Creating Layer inception_5b/1x1
I0403 15:11:56.465718 31282 net.cpp:425] inception_5b/1x1 <- inception_5a/output_inception_5a/output_0_split_0
I0403 15:11:56.465735 31282 net.cpp:399] inception_5b/1x1 -> inception_5b/1x1
I0403 15:11:56.469545 31282 net.cpp:141] Setting up inception_5b/1x1
I0403 15:11:56.469575 31282 net.cpp:148] Top shape: 24 384 7 7 (451584)
I0403 15:11:56.469590 31282 net.cpp:156] Memory required for data: 1327048224
I0403 15:11:56.469609 31282 layer_factory.hpp:77] Creating layer inception_5b/relu_1x1
I0403 15:11:56.469630 31282 net.cpp:91] Creating Layer inception_5b/relu_1x1
I0403 15:11:56.469647 31282 net.cpp:425] inception_5b/relu_1x1 <- inception_5b/1x1
I0403 15:11:56.469665 31282 net.cpp:386] inception_5b/relu_1x1 -> inception_5b/1x1 (in-place)
I0403 15:11:56.469974 31282 net.cpp:141] Setting up inception_5b/relu_1x1
I0403 15:11:56.470000 31282 net.cpp:148] Top shape: 24 384 7 7 (451584)
I0403 15:11:56.470013 31282 net.cpp:156] Memory required for data: 1328854560
I0403 15:11:56.470028 31282 layer_factory.hpp:77] Creating layer inception_5b/3x3_reduce
I0403 15:11:56.470052 31282 net.cpp:91] Creating Layer inception_5b/3x3_reduce
I0403 15:11:56.470069 31282 net.cpp:425] inception_5b/3x3_reduce <- inception_5a/output_inception_5a/output_0_split_1
I0403 15:11:56.470093 31282 net.cpp:399] inception_5b/3x3_reduce -> inception_5b/3x3_reduce
I0403 15:11:56.472792 31282 net.cpp:141] Setting up inception_5b/3x3_reduce
I0403 15:11:56.472822 31282 net.cpp:148] Top shape: 24 192 7 7 (225792)
I0403 15:11:56.472838 31282 net.cpp:156] Memory required for data: 1329757728
I0403 15:11:56.472856 31282 layer_factory.hpp:77] Creating layer inception_5b/relu_3x3_reduce
I0403 15:11:56.472877 31282 net.cpp:91] Creating Layer inception_5b/relu_3x3_reduce
I0403 15:11:56.472895 31282 net.cpp:425] inception_5b/relu_3x3_reduce <- inception_5b/3x3_reduce
I0403 15:11:56.472913 31282 net.cpp:386] inception_5b/relu_3x3_reduce -> inception_5b/3x3_reduce (in-place)
I0403 15:11:56.473103 31282 net.cpp:141] Setting up inception_5b/relu_3x3_reduce
I0403 15:11:56.473127 31282 net.cpp:148] Top shape: 24 192 7 7 (225792)
I0403 15:11:56.473142 31282 net.cpp:156] Memory required for data: 1330660896
I0403 15:11:56.473157 31282 layer_factory.hpp:77] Creating layer inception_5b/3x3
I0403 15:11:56.473181 31282 net.cpp:91] Creating Layer inception_5b/3x3
I0403 15:11:56.473198 31282 net.cpp:425] inception_5b/3x3 <- inception_5b/3x3_reduce
I0403 15:11:56.473219 31282 net.cpp:399] inception_5b/3x3 -> inception_5b/3x3
I0403 15:11:56.479987 31282 net.cpp:141] Setting up inception_5b/3x3
I0403 15:11:56.480016 31282 net.cpp:148] Top shape: 24 384 7 7 (451584)
I0403 15:11:56.480032 31282 net.cpp:156] Memory required for data: 1332467232
I0403 15:11:56.480051 31282 layer_factory.hpp:77] Creating layer inception_5b/relu_3x3
I0403 15:11:56.480072 31282 net.cpp:91] Creating Layer inception_5b/relu_3x3
I0403 15:11:56.480089 31282 net.cpp:425] inception_5b/relu_3x3 <- inception_5b/3x3
I0403 15:11:56.480106 31282 net.cpp:386] inception_5b/relu_3x3 -> inception_5b/3x3 (in-place)
I0403 15:11:56.480406 31282 net.cpp:141] Setting up inception_5b/relu_3x3
I0403 15:11:56.480432 31282 net.cpp:148] Top shape: 24 384 7 7 (451584)
I0403 15:11:56.480448 31282 net.cpp:156] Memory required for data: 1334273568
I0403 15:11:56.480463 31282 layer_factory.hpp:77] Creating layer inception_5b/5x5_reduce
I0403 15:11:56.480499 31282 net.cpp:91] Creating Layer inception_5b/5x5_reduce
I0403 15:11:56.480522 31282 net.cpp:425] inception_5b/5x5_reduce <- inception_5a/output_inception_5a/output_0_split_2
I0403 15:11:56.480545 31282 net.cpp:399] inception_5b/5x5_reduce -> inception_5b/5x5_reduce
I0403 15:11:56.481828 31282 net.cpp:141] Setting up inception_5b/5x5_reduce
I0403 15:11:56.481856 31282 net.cpp:148] Top shape: 24 48 7 7 (56448)
I0403 15:11:56.481871 31282 net.cpp:156] Memory required for data: 1334499360
I0403 15:11:56.481891 31282 layer_factory.hpp:77] Creating layer inception_5b/relu_5x5_reduce
I0403 15:11:56.481912 31282 net.cpp:91] Creating Layer inception_5b/relu_5x5_reduce
I0403 15:11:56.481928 31282 net.cpp:425] inception_5b/relu_5x5_reduce <- inception_5b/5x5_reduce
I0403 15:11:56.481946 31282 net.cpp:386] inception_5b/relu_5x5_reduce -> inception_5b/5x5_reduce (in-place)
I0403 15:11:56.482321 31282 net.cpp:141] Setting up inception_5b/relu_5x5_reduce
I0403 15:11:56.482347 31282 net.cpp:148] Top shape: 24 48 7 7 (56448)
I0403 15:11:56.482363 31282 net.cpp:156] Memory required for data: 1334725152
I0403 15:11:56.482379 31282 layer_factory.hpp:77] Creating layer inception_5b/5x5
I0403 15:11:56.482399 31282 net.cpp:91] Creating Layer inception_5b/5x5
I0403 15:11:56.482416 31282 net.cpp:425] inception_5b/5x5 <- inception_5b/5x5_reduce
I0403 15:11:56.482435 31282 net.cpp:399] inception_5b/5x5 -> inception_5b/5x5
I0403 15:11:56.484601 31282 net.cpp:141] Setting up inception_5b/5x5
I0403 15:11:56.484629 31282 net.cpp:148] Top shape: 24 128 7 7 (150528)
I0403 15:11:56.484645 31282 net.cpp:156] Memory required for data: 1335327264
I0403 15:11:56.484664 31282 layer_factory.hpp:77] Creating layer inception_5b/relu_5x5
I0403 15:11:56.484685 31282 net.cpp:91] Creating Layer inception_5b/relu_5x5
I0403 15:11:56.484704 31282 net.cpp:425] inception_5b/relu_5x5 <- inception_5b/5x5
I0403 15:11:56.484721 31282 net.cpp:386] inception_5b/relu_5x5 -> inception_5b/5x5 (in-place)
I0403 15:11:56.484937 31282 net.cpp:141] Setting up inception_5b/relu_5x5
I0403 15:11:56.484963 31282 net.cpp:148] Top shape: 24 128 7 7 (150528)
I0403 15:11:56.484978 31282 net.cpp:156] Memory required for data: 1335929376
I0403 15:11:56.484992 31282 layer_factory.hpp:77] Creating layer inception_5b/pool
I0403 15:11:56.485010 31282 net.cpp:91] Creating Layer inception_5b/pool
I0403 15:11:56.485026 31282 net.cpp:425] inception_5b/pool <- inception_5a/output_inception_5a/output_0_split_3
I0403 15:11:56.485046 31282 net.cpp:399] inception_5b/pool -> inception_5b/pool
I0403 15:11:56.485116 31282 net.cpp:141] Setting up inception_5b/pool
I0403 15:11:56.485141 31282 net.cpp:148] Top shape: 24 832 7 7 (978432)
I0403 15:11:56.485154 31282 net.cpp:156] Memory required for data: 1339843104
I0403 15:11:56.485168 31282 layer_factory.hpp:77] Creating layer inception_5b/pool_proj
I0403 15:11:56.485191 31282 net.cpp:91] Creating Layer inception_5b/pool_proj
I0403 15:11:56.485209 31282 net.cpp:425] inception_5b/pool_proj <- inception_5b/pool
I0403 15:11:56.485229 31282 net.cpp:399] inception_5b/pool_proj -> inception_5b/pool_proj
I0403 15:11:56.487491 31282 net.cpp:141] Setting up inception_5b/pool_proj
I0403 15:11:56.487524 31282 net.cpp:148] Top shape: 24 128 7 7 (150528)
I0403 15:11:56.487540 31282 net.cpp:156] Memory required for data: 1340445216
I0403 15:11:56.487557 31282 layer_factory.hpp:77] Creating layer inception_5b/relu_pool_proj
I0403 15:11:56.487581 31282 net.cpp:91] Creating Layer inception_5b/relu_pool_proj
I0403 15:11:56.487608 31282 net.cpp:425] inception_5b/relu_pool_proj <- inception_5b/pool_proj
I0403 15:11:56.487627 31282 net.cpp:386] inception_5b/relu_pool_proj -> inception_5b/pool_proj (in-place)
I0403 15:11:56.487926 31282 net.cpp:141] Setting up inception_5b/relu_pool_proj
I0403 15:11:56.487952 31282 net.cpp:148] Top shape: 24 128 7 7 (150528)
I0403 15:11:56.487967 31282 net.cpp:156] Memory required for data: 1341047328
I0403 15:11:56.487982 31282 layer_factory.hpp:77] Creating layer inception_5b/output
I0403 15:11:56.488001 31282 net.cpp:91] Creating Layer inception_5b/output
I0403 15:11:56.488031 31282 net.cpp:425] inception_5b/output <- inception_5b/1x1
I0403 15:11:56.488055 31282 net.cpp:425] inception_5b/output <- inception_5b/3x3
I0403 15:11:56.488075 31282 net.cpp:425] inception_5b/output <- inception_5b/5x5
I0403 15:11:56.488101 31282 net.cpp:425] inception_5b/output <- inception_5b/pool_proj
I0403 15:11:56.488139 31282 net.cpp:399] inception_5b/output -> inception_5b/output
I0403 15:11:56.488214 31282 net.cpp:141] Setting up inception_5b/output
I0403 15:11:56.488256 31282 net.cpp:148] Top shape: 24 1024 7 7 (1204224)
I0403 15:11:56.488288 31282 net.cpp:156] Memory required for data: 1345864224
I0403 15:11:56.488330 31282 layer_factory.hpp:77] Creating layer pool5/7x7_s1
I0403 15:11:56.488348 31282 net.cpp:91] Creating Layer pool5/7x7_s1
I0403 15:11:56.488363 31282 net.cpp:425] pool5/7x7_s1 <- inception_5b/output
I0403 15:11:56.488382 31282 net.cpp:399] pool5/7x7_s1 -> pool5/7x7_s1
I0403 15:11:56.488600 31282 net.cpp:141] Setting up pool5/7x7_s1
I0403 15:11:56.488625 31282 net.cpp:148] Top shape: 24 1024 1 1 (24576)
I0403 15:11:56.488638 31282 net.cpp:156] Memory required for data: 1345962528
I0403 15:11:56.488653 31282 layer_factory.hpp:77] Creating layer pool5/drop_7x7_s1
I0403 15:11:56.488673 31282 net.cpp:91] Creating Layer pool5/drop_7x7_s1
I0403 15:11:56.488690 31282 net.cpp:425] pool5/drop_7x7_s1 <- pool5/7x7_s1
I0403 15:11:56.488708 31282 net.cpp:386] pool5/drop_7x7_s1 -> pool5/7x7_s1 (in-place)
I0403 15:11:56.488757 31282 net.cpp:141] Setting up pool5/drop_7x7_s1
I0403 15:11:56.488780 31282 net.cpp:148] Top shape: 24 1024 1 1 (24576)
I0403 15:11:56.488793 31282 net.cpp:156] Memory required for data: 1346060832
I0403 15:11:56.488808 31282 layer_factory.hpp:77] Creating layer loss3/classifier_plantvillage
I0403 15:11:56.488831 31282 net.cpp:91] Creating Layer loss3/classifier_plantvillage
I0403 15:11:56.488847 31282 net.cpp:425] loss3/classifier_plantvillage <- pool5/7x7_s1
I0403 15:11:56.488865 31282 net.cpp:399] loss3/classifier_plantvillage -> loss3/classifier_plantvillage
I0403 15:11:56.489279 31282 net.cpp:141] Setting up loss3/classifier_plantvillage
I0403 15:11:56.489303 31282 net.cpp:148] Top shape: 24 38 (912)
I0403 15:11:56.489317 31282 net.cpp:156] Memory required for data: 1346064480
I0403 15:11:56.489336 31282 layer_factory.hpp:77] Creating layer loss3/classifier_plantvillage_loss3/classifier_plantvillage_0_split
I0403 15:11:56.489353 31282 net.cpp:91] Creating Layer loss3/classifier_plantvillage_loss3/classifier_plantvillage_0_split
I0403 15:11:56.489369 31282 net.cpp:425] loss3/classifier_plantvillage_loss3/classifier_plantvillage_0_split <- loss3/classifier_plantvillage
I0403 15:11:56.489389 31282 net.cpp:399] loss3/classifier_plantvillage_loss3/classifier_plantvillage_0_split -> loss3/classifier_plantvillage_loss3/classifier_plantvillage_0_split_0
I0403 15:11:56.489409 31282 net.cpp:399] loss3/classifier_plantvillage_loss3/classifier_plantvillage_0_split -> loss3/classifier_plantvillage_loss3/classifier_plantvillage_0_split_1
I0403 15:11:56.489429 31282 net.cpp:399] loss3/classifier_plantvillage_loss3/classifier_plantvillage_0_split -> loss3/classifier_plantvillage_loss3/classifier_plantvillage_0_split_2
I0403 15:11:56.489449 31282 net.cpp:399] loss3/classifier_plantvillage_loss3/classifier_plantvillage_0_split -> loss3/classifier_plantvillage_loss3/classifier_plantvillage_0_split_3
I0403 15:11:56.489553 31282 net.cpp:141] Setting up loss3/classifier_plantvillage_loss3/classifier_plantvillage_0_split
I0403 15:11:56.489579 31282 net.cpp:148] Top shape: 24 38 (912)
I0403 15:11:56.489596 31282 net.cpp:148] Top shape: 24 38 (912)
I0403 15:11:56.489611 31282 net.cpp:148] Top shape: 24 38 (912)
I0403 15:11:56.489626 31282 net.cpp:148] Top shape: 24 38 (912)
I0403 15:11:56.489640 31282 net.cpp:156] Memory required for data: 1346079072
I0403 15:11:56.489655 31282 layer_factory.hpp:77] Creating layer loss1/loss
I0403 15:11:56.489675 31282 net.cpp:91] Creating Layer loss1/loss
I0403 15:11:56.489692 31282 net.cpp:425] loss1/loss <- loss1/classifier_plantvillage_loss1/classifier_plantvillage_0_split_0
I0403 15:11:56.489722 31282 net.cpp:425] loss1/loss <- label_data_1_split_0
…
