…
I0403 15:16:18.759058 31387 net.cpp:313] The NetState phase (1) differed from the phase (0) specified by a rule in layer data
I0403 15:16:18.760239 31387 net.cpp:49] Initializing net from parameters: 
state {
  phase: TEST
}
layer {
  name: "data"
  type: "Data"
  top: "data"
  top: "label"
  include {
    phase: TEST
  }
  transform_param {
    mirror: false
    crop_size: 224
    mean_file: "/home/mohanty/data/final_dataset/lmdb/grayscale-80-20/mean.binaryproto"
  }
  data_param {
    source: "/home/mohanty/data/final_dataset/lmdb/grayscale-80-20/test_db"
    batch_size: 24
    backend: LMDB
  }
}
layer {
  name: "conv1/7x7_s2"
  type: "Convolution"
  bottom: "data"
  top: "conv1/7x7_s2"
  param {
    lr_mult: 1
    decay_mult: 1
  }
  param {
    lr_mult: 2
    decay_mult: 0
  }
  convolution_param {
    num_output: 64
    pad: 3
    kernel_size: 7
    stride: 2
    weight_filler {
      type: "xavier"
      std: 0.1
    }
    bias_filler {
      type: "constant"
      value: 0.2
    }
  }
}
layer {
  name: "conv1/relu_7x7"
  type: "ReLU"
  bottom: "conv1/7x7_s2"
  top: "conv1/7x7_s2"
}
layer {
  name: "pool1/3x3_s2"
  type: "Pooling"
  bottom: "conv1/7x7_s2"
  top: "pool1/3x3_s2"
  pooling_param {
    pool: MAX
    kernel_size: 3
    stride: 2
  }
}
layer {
  name: "pool1/norm1"
  type: "LRN"
  bottom: "pool1/3x3_s2"
  top: "pool1/norm1"
  lrn_param {
    local_size: 5
    alpha: 0.0001
    beta: 0.75
  }
}
layer {
  name: "conv2/3x3_reduce"
  type: "Convolution"
  bottom: "pool1/norm1"
  top: "conv2/3x3_reduce"
  param {
    lr_mult: 1
    decay_mult: 1
  }
  param {
    lr_mult: 2
    decay_mult: 0
  }
  convolution_param {
    num_output: 64
    kernel_size: 1
    weight_filler {
      type: "xavier"
      std: 0.1
    }
    bias_filler {
      type: "constant"
      value: 0.2
    }
  }
}
layer {
  name: "conv2/relu_3x3_reduce"
  type: "ReLU"
  bottom: "conv2/3x3_reduce"
  top: "conv2/3x3_reduce"
}
layer {
  name: "conv2/3x3"
  type: "Convolution"
  bottom: "conv2/3x3_reduce"
  top: "conv2/3x3"
  param {
    lr_mult: 1
    decay_mult: 1
  }
  param {
    lr_mult: 2
    decay_mult: 0
  }
  convolution_param {
    num_output: 192
    pad: 1
    kernel_size: 3
    weight_filler {
      type: "xavier"
      std: 0.03
    }
    bias_filler {
      type: "constant"
      value: 0.2
    }
  }
}
layer {
  name: "conv2/relu_3x3"
  type: "ReLU"
  bottom: "conv2/3x3"
  top: "conv2/3x3"
}
layer {
  name: "conv2/norm2"
  type: "LRN"
  bottom: "conv2/3x3"
  top: "conv2/norm2"
  lrn_param {
    local_size: 5
    alpha: 0.0001
    beta: 0.75
  }
}
layer {
  name: "pool2/3x3_s2"
  type: "Pooling"
  bottom: "conv2/norm2"
  top: "pool2/3x3_s2"
  pooling_param {
    pool: MAX
    kernel_size: 3
    stride: 2
  }
}
layer {
  name: "inception_3a/1x1"
  type: "Convolution"
  bottom: "pool2/3x3_s2"
  top: "inception_3a/1x1"
  param {
    lr_mult: 1
    decay_mult: 1
  }
  param {
    lr_mult: 2
    decay_mult: 0
  }
  convolution_param {
    num_output: 64
    kernel_size: 1
    weight_filler {
      type: "xavier"
      std: 0.03
    }
    bias_filler {
      type: "constant"
      value: 0.2
    }
  }
}
layer {
  name: "inception_3a/relu_1x1"
  type: "ReLU"
  bottom: "inception_3a/1x1"
  top: "inception_3a/1x1"
}
layer {
  name: "inception_3a/3x3_reduce"
  type: "Convolution"
  bottom: "pool2/3x3_s2"
  top: "inception_3a/3x3_reduce"
  param {
    lr_mult: 1
    decay_mult: 1
  }
  param {
    lr_mult: 2
    decay_mult: 0
  }
  convolution_param {
    num_output: 96
    kernel_size: 1
    weight_filler {
      type: "xavier"
      std: 0.09
    }
    bias_filler {
      type: "constant"
      value: 0.2
    }
  }
}
layer {
  name: "inception_3a/relu_3x3_reduce"
  type: "ReLU"
  bottom: "inception_3a/3x3_reduce"
  top: "inception_3a/3x3_reduce"
}
layer {
  name: "inception_3a/3x3"
  type: "Convolution"
  bottom: "inception_3a/3x3_reduce"
  top: "inception_3a/3x3"
  param {
    lr_mult: 1
    decay_mult: 1
  }
  param {
    lr_mult: 2
    decay_mult: 0
  }
  convolution_param {
    num_output: 128
    pad: 1
    kernel_size: 3
    weight_filler {
      type: "xavier"
      std: 0.03
    }
    bias_filler {
      type: "constant"
      value: 0.2
    }
  }
}
layer {
  name: "inception_3a/relu_3x3"
  type: "ReLU"
  bottom: "inception_3a/3x3"
  top: "inception_3a/3x3"
}
layer {
  name: "inception_3a/5x5_reduce"
  type: "Convolution"
  bottom: "pool2/3x3_s2"
  top: "inception_3a/5x5_reduce"
  param {
    lr_mult: 1
    decay_mult: 1
  }
  param {
    lr_mult: 2
    decay_mult: 0
  }
  convolution_param {
    num_output: 16
    kernel_size: 1
    weight_filler {
      type: "xavier"
      std: 0.2
    }
    bias_filler {
      type: "constant"
      value: 0.2
    }
  }
}
layer {
  name: "inception_3a/relu_5x5_reduce"
  type: "ReLU"
  bottom: "inception_3a/5x5_reduce"
  top: "inception_3a/5x5_reduce"
}
layer {
  name: "inception_3a/5x5"
  type: "Convolution"
  bottom: "inception_3a/5x5_reduce"
  top: "inception_3a/5x5"
  param {
    lr_mult: 1
    decay_mult: 1
  }
  param {
    lr_mult: 2
    decay_mult: 0
  }
  convolution_param {
    num_output: 32
    pad: 2
    kernel_size: 5
    weight_filler {
      type: "xavier"
      std: 0.03
    }
    bias_filler {
      type: "constant"
      value: 0.2
    }
  }
}
layer {
  name: "inception_3a/relu_5x5"
  type: "ReLU"
  bottom: "inception_3a/5x5"
  top: "inception_3a/5x5"
}
layer {
  name: "inception_3a/pool"
  type: "Pooling"
  bottom: "pool2/3x3_s2"
  top: "inception_3a/pool"
  pooling_param {
    pool: MAX
    kernel_size: 3
    stride: 1
    pad: 1
  }
}
layer {
  name: "inception_3a/pool_proj"
  type: "Convolution"
  bottom: "inception_3a/pool"
  top: "inception_3a/pool_proj"
  param {
    lr_mult: 1
    decay_mult: 1
  }
  param {
    lr_mult: 2
    decay_mult: 0
  }
  convolution_param {
    num_output: 32
    kernel_size: 1
    weight_filler {
      type: "xavier"
      std: 0.1
    }
    bias_filler {
      type: "constant"
      value: 0.2
    }
  }
}
layer {
  name: "inception_3a/relu_pool_proj"
  type: "ReLU"
  bottom: "inception_3a/pool_proj"
  top: "inception_3a/pool_proj"
}
layer {
  name: "inception_3a/output"
  type: "Concat"
  bottom: "inception_3a/1x1"
  bottom: "inception_3a/3x3"
  bottom: "inception_3a/5x5"
  bottom: "inception_3a/pool_proj"
  top: "inception_3a/output"
}
layer {
  name: "inception_3b/1x1"
  type: "Convolution"
  bottom: "inception_3a/output"
  top: "inception_3b/1x1"
  param {
    lr_mult: 1
    decay_mult: 1
  }
  param {
    lr_mult: 2
    decay_mult: 0
  }
  convolution_param {
    num_output: 128
    kernel_size: 1
    weight_filler {
      type: "xavier"
      std: 0.03
    }
    bias_filler {
      type: "constant"
      value: 0.2
    }
  }
}
layer {
  name: "inception_3b/relu_1x1"
  type: "ReLU"
  bottom: "inception_3b/1x1"
  top: "inception_3b/1x1"
}
layer {
  name: "inception_3b/3x3_reduce"
  type: "Convolution"
  bottom: "inception_3a/output"
  top: "inception_3b/3x3_reduce"
  param {
    lr_mult: 1
    decay_mult: 1
  }
  param {
    lr_mult: 2
    decay_mult: 0
  }
  convolution_param {
    num_output: 128
    kernel_size: 1
    weight_filler {
      type: "xavier"
      std: 0.09
    }
    bias_filler {
      type: "constant"
      value: 0.2
    }
  }
}
layer {
  name: "inception_3b/relu_3x3_reduce"
  type: "ReLU"
  bottom: "inception_3b/3x3_reduce"
  top: "inception_3b/3x3_reduce"
}
layer {
  name: "inception_3b/3x3"
  type: "Convolution"
  bottom: "inception_3b/3x3_reduce"
  top: "inception_3b/3x3"
  param {
    lr_mult: 1
    decay_mult: 1
  }
  param {
    lr_mult: 2
    decay_mult: 0
  }
  convolution_param {
    num_output: 192
    pad: 1
    kernel_size: 3
    weight_filler {
      type: "xavier"
      std: 0.03
    }
    bias_filler {
      type: "constant"
      value: 0.2
    }
  }
}
layer {
  name: "inception_3b/relu_3x3"
  type: "ReLU"
  bottom: "inception_3b/3x3"
  top: "inception_3b/3x3"
}
layer {
  name: "inception_3b/5x5_reduce"
  type: "Convolution"
  bottom: "inception_3a/output"
  top: "inception_3b/5x5_reduce"
  param {
    lr_mult: 1
    decay_mult: 1
  }
  param {
    lr_mult: 2
    decay_mult: 0
  }
  convolution_param {
    num_output: 32
    kernel_size: 1
    weight_filler {
      type: "xavier"
      std: 0.2
    }
    bias_filler {
      type: "constant"
      value: 0.2
    }
  }
}
layer {
  name: "inception_3b/relu_5x5_reduce"
  type: "ReLU"
  bottom: "inception_3b/5x5_reduce"
  top: "inception_3b/5x5_reduce"
}
layer {
  name: "inception_3b/5x5"
  type: "Convolution"
  bottom: "inception_3b/5x5_reduce"
  top: "inception_3b/5x5"
  param {
    lr_mult: 1
    decay_mult: 1
  }
  param {
    lr_mult: 2
    decay_mult: 0
  }
  convolution_param {
    num_output: 96
    pad: 2
    kernel_size: 5
    weight_filler {
      type: "xavier"
      std: 0.03
    }
    bias_filler {
      type: "constant"
      value: 0.2
    }
  }
}
layer {
  name: "inception_3b/relu_5x5"
  type: "ReLU"
  bottom: "inception_3b/5x5"
  top: "inception_3b/5x5"
}
layer {
  name: "inception_3b/pool"
  type: "Pooling"
  bottom: "inception_3a/output"
  top: "inception_3b/pool"
  pooling_param {
    pool: MAX
    kernel_size: 3
    stride: 1
    pad: 1
  }
}
layer {
  name: "inception_3b/pool_proj"
  type: "Convolution"
  bottom: "inception_3b/pool"
  top: "inception_3b/pool_proj"
  param {
    lr_mult: 1
    decay_mult: 1
  }
  param {
    lr_mult: 2
    decay_mult: 0
  }
  convolution_param {
    num_output: 64
    kernel_size: 1
    weight_filler {
      type: "xavier"
      std: 0.1
    }
    bias_filler {
      type: "constant"
      value: 0.2
    }
  }
}
layer {
  name: "inception_3b/relu_pool_proj"
  type: "ReLU"
  bottom: "inception_3b/pool_proj"
  top: "inception_3b/pool_proj"
}
layer {
  name: "inception_3b/output"
  type: "Concat"
  bottom: "inception_3b/1x1"
  bottom: "inception_3b/3x3"
  bottom: "inception_3b/5x5"
  bottom: "inception_3b/pool_proj"
  top: "inception_3b/output"
}
layer {
  name: "pool3/3x3_s2"
  type: "Pooling"
  bottom: "inception_3b/output"
  top: "pool3/3x3_s2"
  pooling_param {
    pool: MAX
    kernel_size: 3
    stride: 2
  }
}
layer {
  name: "inception_4a/1x1"
  type: "Convolution"
  bottom: "pool3/3x3_s2"
  top: "inception_4a/1x1"
  param {
    lr_mult: 1
    decay_mult: 1
  }
  param {
    lr_mult: 2
    decay_mult: 0
  }
  convolution_param {
    num_output: 192
    kernel_size: 1
    weight_filler {
      type: "xavier"
      std: 0.03
    }
    bias_filler {
      type: "constant"
      value: 0.2
    }
  }
}
layer {
  name: "inception_4a/relu_1x1"
  type: "ReLU"
  bottom: "inception_4a/1x1"
  top: "inception_4a/1x1"
}
layer {
  name: "inception_4a/3x3_reduce"
  type: "Convolution"
  bottom: "pool3/3x3_s2"
  top: "inception_4a/3x3_reduce"
  param {
    lr_mult: 1
    decay_mult: 1
  }
  param {
    lr_mult: 2
    decay_mult: 0
  }
  convolution_param {
    num_output: 96
    kernel_size: 1
    weight_filler {
      type: "xavier"
      std: 0.09
    }
    bias_filler {
      type: "constant"
      value: 0.2
    }
  }
}
layer {
  name: "inception_4a/relu_3x3_reduce"
  type: "ReLU"
  bottom: "inception_4a/3x3_reduce"
  top: "inception_4a/3x3_reduce"
}
layer {
  name: "inception_4a/3x3"
  type: "Convolution"
  bottom: "inception_4a/3x3_reduce"
  top: "inception_4a/3x3"
  param {
    lr_mult: 1
    decay_mult: 1
  }
  param {
    lr_mult: 2
    decay_mult: 0
  }
  convolution_param {
    num_output: 208
    pad: 1
    kernel_size: 3
    weight_filler {
      type: "xavier"
      std: 0.03
    }
    bias_filler {
      type: "constant"
      value: 0.2
    }
  }
}
layer {
  name: "inception_4a/relu_3x3"
  type: "ReLU"
  bottom: "inception_4a/3x3"
  top: "inception_4a/3x3"
}
layer {
  name: "inception_4a/5x5_reduce"
  type: "Convolution"
  bottom: "pool3/3x3_s2"
  top: "inception_4a/5x5_reduce"
  param {
    lr_mult: 1
    decay_mult: 1
  }
  param {
    lr_mult: 2
    decay_mult: 0
  }
  convolution_param {
    num_output: 16
    kernel_size: 1
    weight_filler {
      type: "xavier"
      std: 0.2
    }
    bias_filler {
      type: "constant"
      value: 0.2
    }
  }
}
layer {
  name: "inception_4a/relu_5x5_reduce"
  type: "ReLU"
  bottom: "inception_4a/5x5_reduce"
  top: "inception_4a/5x5_reduce"
}
layer {
  name: "inception_4a/5x5"
  type: "Convolution"
  bottom: "inception_4a/5x5_reduce"
  top: "inception_4a/5x5"
  param {
    lr_mult: 1
    decay_mult: 1
  }
  param {
    lr_mult: 2
    decay_mult: 0
  }
  convolution_param {
    num_output: 48
    pad: 2
    kernel_size: 5
    weight_filler {
      type: "xavier"
      std: 0.03
    }
    bias_filler {
      type: "constant"
      value: 0.2
    }
  }
}
layer {
  name: "inception_4a/relu_5x5"
  type: "ReLU"
  bottom: "inception_4a/5x5"
  top: "inception_4a/5x5"
}
layer {
  name: "inception_4a/pool"
  type: "Pooling"
  bottom: "pool3/3x3_s2"
  top: "inception_4a/pool"
  pooling_param {
    pool: MAX
    kernel_size: 3
    stride: 1
    pad: 1
  }
}
layer {
  name: "inception_4a/pool_proj"
  type: "Convolution"
  bottom: "inception_4a/pool"
  top: "inception_4a/pool_proj"
  param {
    lr_mult: 1
    decay_mult: 1
  }
  param {
    lr_mult: 2
    decay_mult: 0
  }
  convolution_param {
    num_output: 64
    kernel_size: 1
    weight_filler {
      type: "xavier"
      std: 0.1
    }
    bias_filler {
      type: "constant"
      value: 0.2
    }
  }
}
layer {
  name: "inception_4a/relu_pool_proj"
  type: "ReLU"
  bottom: "inception_4a/pool_proj"
  top: "inception_4a/pool_proj"
}
layer {
  name: "inception_4a/output"
  type: "Concat"
  bottom: "inception_4a/1x1"
  bottom: "inception_4a/3x3"
  bottom: "inception_4a/5x5"
  bottom: "inception_4a/pool_proj"
  top: "inception_4a/output"
}
layer {
  name: "loss1/ave_pool"
  type: "Pooling"
  bottom: "inception_4a/output"
  top: "loss1/ave_pool"
  pooling_param {
    pool: AVE
    kernel_size: 5
    stride: 3
  }
}
layer {
  name: "loss1/conv"
  type: "Convolution"
  bottom: "loss1/ave_pool"
  top: "loss1/conv"
  param {
    lr_mult: 1
    decay_mult: 1
  }
  param {
    lr_mult: 2
    decay_mult: 0
  }
  convolution_param {
    num_output: 128
    kernel_size: 1
    weight_filler {
      type: "xavier"
      std: 0.08
    }
    bias_filler {
      type: "constant"
      value: 0.2
    }
  }
}
layer {
  name: "loss1/relu_conv"
  type: "ReLU"
  bottom: "loss1/conv"
  top: "loss1/conv"
}
layer {
  name: "loss1/fc"
  type: "InnerProduct"
  bottom: "loss1/conv"
  top: "loss1/fc"
  param {
    lr_mult: 1
    decay_mult: 1
  }
  param {
    lr_mult: 2
    decay_mult: 0
  }
  inner_product_param {
    num_output: 1024
    weight_filler {
      type: "xavier"
      std: 0.02
    }
    bias_filler {
      type: "constant"
      value: 0.2
    }
  }
}
layer {
  name: "loss1/relu_fc"
  type: "ReLU"
  bottom: "loss1/fc"
  top: "loss1/fc"
}
layer {
  name: "loss1/drop_fc"
  type: "Dropout"
  bottom: "loss1/fc"
  top: "loss1/fc"
  dropout_param {
    dropout_ratio: 0.7
  }
}
layer {
  name: "loss1/classifier_plantvillage"
  type: "InnerProduct"
  bottom: "loss1/fc"
  top: "loss1/classifier_plantvillage"
  param {
    lr_mult: 1
    decay_mult: 1
  }
  param {
    lr_mult: 2
    decay_mult: 0
  }
  inner_product_param {
    num_output: 38
    weight_filler {
      type: "xavier"
      std: 0.0009765625
    }
    bias_filler {
      type: "constant"
      value: 0
    }
  }
}
layer {
  name: "inception_4b/1x1"
  type: "Convolution"
  bottom: "inception_4a/output"
  top: "inception_4b/1x1"
  param {
    lr_mult: 1
    decay_mult: 1
  }
  param {
    lr_mult: 2
    decay_mult: 0
  }
  convolution_param {
    num_output: 160
    kernel_size: 1
    weight_filler {
      type: "xavier"
      std: 0.03
    }
    bias_filler {
      type: "constant"
      value: 0.2
    }
  }
}
layer {
  name: "inception_4b/relu_1x1"
  type: "ReLU"
  bottom: "inception_4b/1x1"
  top: "inception_4b/1x1"
}
layer {
  name: "inception_4b/3x3_reduce"
  type: "Convolution"
  bottom: "inception_4a/output"
  top: "inception_4b/3x3_reduce"
  param {
    lr_mult: 1
    decay_mult: 1
  }
  param {
    lr_mult: 2
    decay_mult: 0
  }
  convolution_param {
    num_output: 112
    kernel_size: 1
    weight_filler {
      type: "xavier"
      std: 0.09
    }
    bias_filler {
      type: "constant"
      value: 0.2
    }
  }
}
layer {
  name: "inception_4b/relu_3x3_reduce"
  type: "ReLU"
  bottom: "inception_4b/3x3_reduce"
  top: "inception_4b/3x3_reduce"
}
layer {
  name: "inception_4b/3x3"
  type: "Convolution"
  bottom: "inception_4b/3x3_reduce"
  top: "inception_4b/3x3"
  param {
    lr_mult: 1
    decay_mult: 1
  }
  param {
    lr_mult: 2
    decay_mult: 0
  }
  convolution_param {
    num_output: 224
    pad: 1
    kernel_size: 3
    weight_filler {
      type: "xavier"
      std: 0.03
    }
    bias_filler {
      type: "constant"
      value: 0.2
    }
  }
}
layer {
  name: "inception_4b/relu_3x3"
  type: "ReLU"
  bottom: "inception_4b/3x3"
  top: "inception_4b/3x3"
}
layer {
  name: "inception_4b/5x5_reduce"
  type: "Convolution"
  bottom: "inception_4a/output"
  top: "inception_4b/5x5_reduce"
  param {
    lr_mult: 1
    decay_mult: 1
  }
  param {
    lr_mult: 2
    decay_mult: 0
  }
  convolution_param {
    num_output: 24
    kernel_size: 1
    weight_filler {
      type: "xavier"
      std: 0.2
    }
    bias_filler {
      type: "constant"
      value: 0.2
    }
  }
}
layer {
  name: "inception_4b/relu_5x5_reduce"
  type: "ReLU"
  bottom: "inception_4b/5x5_reduce"
  top: "inception_4b/5x5_reduce"
}
layer {
  name: "inception_4b/5x5"
  type: "Convolution"
  bottom: "inception_4b/5x5_reduce"
  top: "inception_4b/5x5"
  param {
    lr_mult: 1
    decay_mult: 1
  }
  param {
    lr_mult: 2
    decay_mult: 0
  }
  convolution_param {
    num_output: 64
    pad: 2
    kernel_size: 5
    weight_filler {
      type: "xavier"
      std: 0.03
    }
    bias_filler {
      type: "constant"
      value: 0.2
    }
  }
}
layer {
  name: "inception_4b/relu_5x5"
  type: "ReLU"
  bottom: "inception_4b/5x5"
  top: "inception_4b/5x5"
}
layer {
  name: "inception_4b/pool"
  type: "Pooling"
  bottom: "inception_4a/output"
  top: "inception_4b/pool"
  pooling_param {
    pool: MAX
    kernel_size: 3
    stride: 1
    pad: 1
  }
}
layer {
  name: "inception_4b/pool_proj"
  type: "Convolution"
  bottom: "inception_4b/pool"
  top: "inception_4b/pool_proj"
  param {
    lr_mult: 1
    decay_mult: 1
  }
  param {
    lr_mult: 2
    decay_mult: 0
  }
  convolution_param {
    num_output: 64
    kernel_size: 1
    weight_filler {
      type: "xavier"
      std: 0.1
    }
    bias_filler {
      type: "constant"
      value: 0.2
    }
  }
}
layer {
  name: "inception_4b/relu_pool_proj"
  type: "ReLU"
  bottom: "inception_4b/pool_proj"
  top: "inception_4b/pool_proj"
}
layer {
  name: "inception_4b/output"
  type: "Concat"
  bottom: "inception_4b/1x1"
  bottom: "inception_4b/3x3"
  bottom: "inception_4b/5x5"
  bottom: "inception_4b/pool_proj"
  top: "inception_4b/output"
}
layer {
  name: "inception_4c/1x1"
  type: "Convolution"
  bottom: "inception_4b/output"
  top: "inception_4c/1x1"
  param {
    lr_mult: 1
    decay_mult: 1
  }
  param {
    lr_mult: 2
    decay_mult: 0
  }
  convolution_param {
    num_output: 128
    kernel_size: 1
    weight_filler {
      type: "xavier"
      std: 0.03
    }
    bias_filler {
      type: "constant"
      value: 0.2
    }
  }
}
layer {
  name: "inception_4c/relu_1x1"
  type: "ReLU"
  bottom: "inception_4c/1x1"
  top: "inception_4c/1x1"
}
layer {
  name: "inception_4c/3x3_reduce"
  type: "Convolution"
  bottom: "inception_4b/output"
  top: "inception_4c/3x3_reduce"
  param {
    lr_mult: 1
    decay_mult: 1
  }
  param {
    lr_mult: 2
    decay_mult: 0
  }
  convolution_param {
    num_output: 128
    kernel_size: 1
    weight_filler {
      type: "xavier"
      std: 0.09
    }
    bias_filler {
      type: "constant"
      value: 0.2
    }
  }
}
layer {
  name: "inception_4c/relu_3x3_reduce"
  type: "ReLU"
  bottom: "inception_4c/3x3_reduce"
  top: "inception_4c/3x3_reduce"
}
layer {
  name: "inception_4c/3x3"
  type: "Convolution"
  bottom: "inception_4c/3x3_reduce"
  top: "inception_4c/3x3"
  param {
    lr_mult: 1
    decay_mult: 1
  }
  param {
    lr_mult: 2
    decay_mult: 0
  }
  convolution_param {
    num_output: 256
    pad: 1
    kernel_size: 3
    weight_filler {
      type: "xavier"
      std: 0.03
    }
    bias_filler {
      type: "constant"
      value: 0.2
    }
  }
}
layer {
  name: "inception_4c/relu_3x3"
  type: "ReLU"
  bottom: "inception_4c/3x3"
  top: "inception_4c/3x3"
}
layer {
  name: "inception_4c/5x5_reduce"
  type: "Convolution"
  bottom: "inception_4b/output"
  top: "inception_4c/5x5_reduce"
  param {
    lr_mult: 1
    decay_mult: 1
  }
  param {
    lr_mult: 2
    decay_mult: 0
  }
  convolution_param {
    num_output: 24
    kernel_size: 1
    weight_filler {
      type: "xavier"
      std: 0.2
    }
    bias_filler {
      type: "constant"
      value: 0.2
    }
  }
}
layer {
  name: "inception_4c/relu_5x5_reduce"
  type: "ReLU"
  bottom: "inception_4c/5x5_reduce"
  top: "inception_4c/5x5_reduce"
}
layer {
  name: "inception_4c/5x5"
  type: "Convolution"
  bottom: "inception_4c/5x5_reduce"
  top: "inception_4c/5x5"
  param {
    lr_mult: 1
    decay_mult: 1
  }
  param {
    lr_mult: 2
    decay_mult: 0
  }
  convolution_param {
    num_output: 64
    pad: 2
    kernel_size: 5
    weight_filler {
      type: "xavier"
      std: 0.03
    }
    bias_filler {
      type: "constant"
      value: 0.2
    }
  }
}
layer {
  name: "inception_4c/relu_5x5"
  type: "ReLU"
  bottom: "inception_4c/5x5"
  top: "inception_4c/5x5"
}
layer {
  name: "inception_4c/pool"
  type: "Pooling"
  bottom: "inception_4b/output"
  top: "inception_4c/pool"
  pooling_param {
    pool: MAX
    kernel_size: 3
    stride: 1
    pad: 1
  }
}
layer {
  name: "inception_4c/pool_proj"
  type: "Convolution"
  bottom: "inception_4c/pool"
  top: "inception_4c/pool_proj"
  param {
    lr_mult: 1
    decay_mult: 1
  }
  param {
    lr_mult: 2
    decay_mult: 0
  }
  convolution_param {
    num_output: 64
    kernel_size: 1
    weight_filler {
      type: "xavier"
      std: 0.1
    }
    bias_filler {
      type: "constant"
      value: 0.2
    }
  }
}
layer {
  name: "inception_4c/relu_pool_proj"
  type: "ReLU"
  bottom: "inception_4c/pool_proj"
  top: "inception_4c/pool_proj"
}
layer {
  name: "inception_4c/output"
  type: "Concat"
  bottom: "inception_4c/1x1"
  bottom: "inception_4c/3x3"
  bottom: "inception_4c/5x5"
  bottom: "inception_4c/pool_proj"
  top: "inception_4c/output"
}
layer {
  name: "inception_4d/1x1"
  type: "Convolution"
  bottom: "inception_4c/output"
  top: "inception_4d/1x1"
  param {
    lr_mult: 1
    decay_mult: 1
  }
  param {
    lr_mult: 2
    decay_mult: 0
  }
  convolution_param {
    num_output: 112
    kernel_size: 1
    weight_filler {
      type: "xavier"
      std: 0.03
    }
    bias_filler {
      type: "constant"
      value: 0.2
    }
  }
}
layer {
  name: "inception_4d/relu_1x1"
  type: "ReLU"
  bottom: "inception_4d/1x1"
  top: "inception_4d/1x1"
}
layer {
  name: "inception_4d/3x3_reduce"
  type: "Convolution"
  bottom: "inception_4c/output"
  top: "inception_4d/3x3_reduce"
  param {
    lr_mult: 1
    decay_mult: 1
  }
  param {
    lr_mult: 2
    decay_mult: 0
  }
  convolution_param {
    num_output: 144
    kernel_size: 1
    weight_filler {
      type: "xavier"
      std: 0.09
    }
    bias_filler {
      type: "constant"
      value: 0.2
    }
  }
}
layer {
  name: "inception_4d/relu_3x3_reduce"
  type: "ReLU"
  bottom: "inception_4d/3x3_reduce"
  top: "inception_4d/3x3_reduce"
}
layer {
  name: "inception_4d/3x3"
  type: "Convolution"
  bottom: "inception_4d/3x3_reduce"
  top: "inception_4d/3x3"
  param {
    lr_mult: 1
    decay_mult: 1
  }
  param {
    lr_mult: 2
    decay_mult: 0
  }
  convolution_param {
    num_output: 288
    pad: 1
    kernel_size: 3
    weight_filler {
      type: "xavier"
      std: 0.03
    }
    bias_filler {
      type: "constant"
      value: 0.2
    }
  }
}
layer {
  name: "inception_4d/relu_3x3"
  type: "ReLU"
  bottom: "inception_4d/3x3"
  top: "inception_4d/3x3"
}
layer {
  name: "inception_4d/5x5_reduce"
  type: "Convolution"
  bottom: "inception_4c/output"
  top: "inception_4d/5x5_reduce"
  param {
    lr_mult: 1
    decay_mult: 1
  }
  param {
    lr_mult: 2
    decay_mult: 0
  }
  convolution_param {
    num_output: 32
    kernel_size: 1
    weight_filler {
      type: "xavier"
      std: 0.2
    }
    bias_filler {
      type: "constant"
      value: 0.2
    }
  }
}
layer {
  name: "inception_4d/relu_5x5_reduce"
  type: "ReLU"
  bottom: "inception_4d/5x5_reduce"
  top: "inception_4d/5x5_reduce"
}
layer {
  name: "inception_4d/5x5"
  type: "Convolution"
  bottom: "inception_4d/5x5_reduce"
  top: "inception_4d/5x5"
  param {
    lr_mult: 1
    decay_mult: 1
  }
  param {
    lr_mult: 2
    decay_mult: 0
  }
  convolution_param {
    num_output: 64
    pad: 2
    kernel_size: 5
    weight_filler {
      type: "xavier"
      std: 0.03
    }
    bias_filler {
      type: "constant"
      value: 0.2
    }
  }
}
layer {
  name: "inception_4d/relu_5x5"
  type: "ReLU"
  bottom: "inception_4d/5x5"
  top: "inception_4d/5x5"
}
layer {
  name: "inception_4d/pool"
  type: "Pooling"
  bottom: "inception_4c/output"
  top: "inception_4d/pool"
  pooling_param {
    pool: MAX
    kernel_size: 3
    stride: 1
    pad: 1
  }
}
layer {
  name: "inception_4d/pool_proj"
  type: "Convolution"
  bottom: "inception_4d/pool"
  top: "inception_4d/pool_proj"
  param {
    lr_mult: 1
    decay_mult: 1
  }
  param {
    lr_mult: 2
    decay_mult: 0
  }
  convolution_param {
    num_output: 64
    kernel_size: 1
    weight_filler {
      type: "xavier"
      std: 0.1
    }
    bias_filler {
      type: "constant"
      value: 0.2
    }
  }
}
layer {
  name: "inception_4d/relu_pool_proj"
  type: "ReLU"
  bottom: "inception_4d/pool_proj"
  top: "inception_4d/pool_proj"
}
layer {
  name: "inception_4d/output"
  type: "Concat"
  bottom: "inception_4d/1x1"
  bottom: "inception_4d/3x3"
  bottom: "inception_4d/5x5"
  bottom: "inception_4d/pool_proj"
  top: "inception_4d/output"
}
layer {
  name: "loss2/ave_pool"
  type: "Pooling"
  bottom: "inception_4d/output"
  top: "loss2/ave_pool"
  pooling_param {
    pool: AVE
    kernel_size: 5
    stride: 3
  }
}
layer {
  name: "loss2/conv"
  type: "Convolution"
  bottom: "loss2/ave_pool"
  top: "loss2/conv"
  param {
    lr_mult: 1
    decay_mult: 1
  }
  param {
    lr_mult: 2
    decay_mult: 0
  }
  convolution_param {
    num_output: 128
    kernel_size: 1
    weight_filler {
      type: "xavier"
      std: 0.08
    }
    bias_filler {
      type: "constant"
      value: 0.2
    }
  }
}
layer {
  name: "loss2/relu_conv"
  type: "ReLU"
  bottom: "loss2/conv"
  top: "loss2/conv"
}
layer {
  name: "loss2/fc"
  type: "InnerProduct"
  bottom: "loss2/conv"
  top: "loss2/fc"
  param {
    lr_mult: 1
    decay_mult: 1
  }
  param {
    lr_mult: 2
    decay_mult: 0
  }
  inner_product_param {
    num_output: 1024
    weight_filler {
      type: "xavier"
      std: 0.02
    }
    bias_filler {
      type: "constant"
      value: 0.2
    }
  }
}
layer {
  name: "loss2/relu_fc"
  type: "ReLU"
  bottom: "loss2/fc"
  top: "loss2/fc"
}
layer {
  name: "loss2/drop_fc"
  type: "Dropout"
  bottom: "loss2/fc"
  top: "loss2/fc"
  dropout_param {
    dropout_ratio: 0.7
  }
}
layer {
  name: "loss2/classifier_plantvillage"
  type: "InnerProduct"
  bottom: "loss2/fc"
  top: "loss2/classifier_plantvillage"
  param {
    lr_mult: 1
    decay_mult: 1
  }
  param {
    lr_mult: 2
    decay_mult: 0
  }
  inner_product_param {
    num_output: 38
    weight_filler {
      type: "xavier"
      std: 0.0009765625
    }
    bias_filler {
      type: "constant"
      value: 0
    }
  }
}
layer {
  name: "inception_4e/1x1"
  type: "Convolution"
  bottom: "inception_4d/output"
  top: "inception_4e/1x1"
  param {
    lr_mult: 1
    decay_mult: 1
  }
  param {
    lr_mult: 2
    decay_mult: 0
  }
  convolution_param {
    num_output: 256
    kernel_size: 1
    weight_filler {
      type: "xavier"
      std: 0.03
    }
    bias_filler {
      type: "constant"
      value: 0.2
    }
  }
}
layer {
  name: "inception_4e/relu_1x1"
  type: "ReLU"
  bottom: "inception_4e/1x1"
  top: "inception_4e/1x1"
}
layer {
  name: "inception_4e/3x3_reduce"
  type: "Convolution"
  bottom: "inception_4d/output"
  top: "inception_4e/3x3_reduce"
  param {
    lr_mult: 1
    decay_mult: 1
  }
  param {
    lr_mult: 2
    decay_mult: 0
  }
  convolution_param {
    num_output: 160
    kernel_size: 1
    weight_filler {
      type: "xavier"
      std: 0.09
    }
    bias_filler {
      type: "constant"
      value: 0.2
    }
  }
}
layer {
  name: "inception_4e/relu_3x3_reduce"
  type: "ReLU"
  bottom: "inception_4e/3x3_reduce"
  top: "inception_4e/3x3_reduce"
}
layer {
  name: "inception_4e/3x3"
  type: "Convolution"
  bottom: "inception_4e/3x3_reduce"
  top: "inception_4e/3x3"
  param {
    lr_mult: 1
    decay_mult: 1
  }
  param {
    lr_mult: 2
    decay_mult: 0
  }
  convolution_param {
    num_output: 320
    pad: 1
    kernel_size: 3
    weight_filler {
      type: "xavier"
      std: 0.03
    }
    bias_filler {
      type: "constant"
      value: 0.2
    }
  }
}
layer {
  name: "inception_4e/relu_3x3"
  type: "ReLU"
  bottom: "inception_4e/3x3"
  top: "inception_4e/3x3"
}
layer {
  name: "inception_4e/5x5_reduce"
  type: "Convolution"
  bottom: "inception_4d/output"
  top: "inception_4e/5x5_reduce"
  param {
    lr_mult: 1
    decay_mult: 1
  }
  param {
    lr_mult: 2
    decay_mult: 0
  }
  convolution_param {
    num_output: 32
    kernel_size: 1
    weight_filler {
      type: "xavier"
      std: 0.2
    }
    bias_filler {
      type: "constant"
      value: 0.2
    }
  }
}
layer {
  name: "inception_4e/relu_5x5_reduce"
  type: "ReLU"
  bottom: "inception_4e/5x5_reduce"
  top: "inception_4e/5x5_reduce"
}
layer {
  name: "inception_4e/5x5"
  type: "Convolution"
  bottom: "inception_4e/5x5_reduce"
  top: "inception_4e/
I0403 15:16:18.761440 31387 layer_factory.hpp:77] Creating layer data
I0403 15:16:18.762032 31387 net.cpp:91] Creating Layer data
I0403 15:16:18.762063 31387 net.cpp:399] data -> data
I0403 15:16:18.762116 31387 net.cpp:399] data -> label
I0403 15:16:18.762152 31387 data_transformer.cpp:25] Loading mean file from: /home/mohanty/data/final_dataset/lmdb/grayscale-80-20/mean.binaryproto
I0403 15:16:18.765804 31392 db_lmdb.cpp:38] Opened lmdb /home/mohanty/data/final_dataset/lmdb/grayscale-80-20/test_db
I0403 15:16:18.775960 31387 data_layer.cpp:41] output data size: 24,3,224,224
I0403 15:16:18.803119 31387 net.cpp:141] Setting up data
I0403 15:16:18.803197 31387 net.cpp:148] Top shape: 24 3 224 224 (3612672)
I0403 15:16:18.803221 31387 net.cpp:148] Top shape: 24 (24)
I0403 15:16:18.803237 31387 net.cpp:156] Memory required for data: 14450784
I0403 15:16:18.803266 31387 layer_factory.hpp:77] Creating layer label_data_1_split
I0403 15:16:18.803293 31387 net.cpp:91] Creating Layer label_data_1_split
I0403 15:16:18.803310 31387 net.cpp:425] label_data_1_split <- label
I0403 15:16:18.803346 31387 net.cpp:399] label_data_1_split -> label_data_1_split_0
I0403 15:16:18.803375 31387 net.cpp:399] label_data_1_split -> label_data_1_split_1
I0403 15:16:18.803395 31387 net.cpp:399] label_data_1_split -> label_data_1_split_2
I0403 15:16:18.803414 31387 net.cpp:399] label_data_1_split -> label_data_1_split_3
I0403 15:16:18.803434 31387 net.cpp:399] label_data_1_split -> label_data_1_split_4
I0403 15:16:18.803453 31387 net.cpp:399] label_data_1_split -> label_data_1_split_5
I0403 15:16:18.803474 31387 net.cpp:399] label_data_1_split -> label_data_1_split_6
I0403 15:16:18.803494 31387 net.cpp:399] label_data_1_split -> label_data_1_split_7
I0403 15:16:18.803525 31387 net.cpp:399] label_data_1_split -> label_data_1_split_8
I0403 15:16:18.803547 31387 net.cpp:399] label_data_1_split -> label_data_1_split_9
I0403 15:16:18.803660 31387 net.cpp:141] Setting up label_data_1_split
I0403 15:16:18.803684 31387 net.cpp:148] Top shape: 24 (24)
I0403 15:16:18.803701 31387 net.cpp:148] Top shape: 24 (24)
I0403 15:16:18.803719 31387 net.cpp:148] Top shape: 24 (24)
I0403 15:16:18.803735 31387 net.cpp:148] Top shape: 24 (24)
I0403 15:16:18.803750 31387 net.cpp:148] Top shape: 24 (24)
I0403 15:16:18.803766 31387 net.cpp:148] Top shape: 24 (24)
I0403 15:16:18.803781 31387 net.cpp:148] Top shape: 24 (24)
I0403 15:16:18.803797 31387 net.cpp:148] Top shape: 24 (24)
I0403 15:16:18.803812 31387 net.cpp:148] Top shape: 24 (24)
I0403 15:16:18.803828 31387 net.cpp:148] Top shape: 24 (24)
I0403 15:16:18.803872 31387 net.cpp:156] Memory required for data: 14451744
I0403 15:16:18.803889 31387 layer_factory.hpp:77] Creating layer conv1/7x7_s2
I0403 15:16:18.803920 31387 net.cpp:91] Creating Layer conv1/7x7_s2
I0403 15:16:18.803941 31387 net.cpp:425] conv1/7x7_s2 <- data
I0403 15:16:18.803959 31387 net.cpp:399] conv1/7x7_s2 -> conv1/7x7_s2
I0403 15:16:18.944628 31387 net.cpp:141] Setting up conv1/7x7_s2
I0403 15:16:18.944716 31387 net.cpp:148] Top shape: 24 64 112 112 (19267584)
I0403 15:16:18.944743 31387 net.cpp:156] Memory required for data: 91522080
I0403 15:16:18.944784 31387 layer_factory.hpp:77] Creating layer conv1/relu_7x7
I0403 15:16:18.944820 31387 net.cpp:91] Creating Layer conv1/relu_7x7
I0403 15:16:18.944845 31387 net.cpp:425] conv1/relu_7x7 <- conv1/7x7_s2
I0403 15:16:18.944874 31387 net.cpp:386] conv1/relu_7x7 -> conv1/7x7_s2 (in-place)
I0403 15:16:18.945150 31387 net.cpp:141] Setting up conv1/relu_7x7
I0403 15:16:18.945183 31387 net.cpp:148] Top shape: 24 64 112 112 (19267584)
I0403 15:16:18.945200 31387 net.cpp:156] Memory required for data: 168592416
I0403 15:16:18.945224 31387 layer_factory.hpp:77] Creating layer pool1/3x3_s2
I0403 15:16:18.945261 31387 net.cpp:91] Creating Layer pool1/3x3_s2
I0403 15:16:18.945286 31387 net.cpp:425] pool1/3x3_s2 <- conv1/7x7_s2
I0403 15:16:18.945313 31387 net.cpp:399] pool1/3x3_s2 -> pool1/3x3_s2
I0403 15:16:18.945405 31387 net.cpp:141] Setting up pool1/3x3_s2
I0403 15:16:18.945451 31387 net.cpp:148] Top shape: 24 64 56 56 (4816896)
I0403 15:16:18.945513 31387 net.cpp:156] Memory required for data: 187860000
I0403 15:16:18.945587 31387 layer_factory.hpp:77] Creating layer pool1/norm1
I0403 15:16:18.945667 31387 net.cpp:91] Creating Layer pool1/norm1
I0403 15:16:18.945713 31387 net.cpp:425] pool1/norm1 <- pool1/3x3_s2
I0403 15:16:18.945766 31387 net.cpp:399] pool1/norm1 -> pool1/norm1
I0403 15:16:18.946115 31387 net.cpp:141] Setting up pool1/norm1
I0403 15:16:18.946151 31387 net.cpp:148] Top shape: 24 64 56 56 (4816896)
I0403 15:16:18.946177 31387 net.cpp:156] Memory required for data: 207127584
I0403 15:16:18.946197 31387 layer_factory.hpp:77] Creating layer conv2/3x3_reduce
I0403 15:16:18.946233 31387 net.cpp:91] Creating Layer conv2/3x3_reduce
I0403 15:16:18.946257 31387 net.cpp:425] conv2/3x3_reduce <- pool1/norm1
I0403 15:16:18.946285 31387 net.cpp:399] conv2/3x3_reduce -> conv2/3x3_reduce
I0403 15:16:18.947756 31387 net.cpp:141] Setting up conv2/3x3_reduce
I0403 15:16:18.947788 31387 net.cpp:148] Top shape: 24 64 56 56 (4816896)
I0403 15:16:18.947804 31387 net.cpp:156] Memory required for data: 226395168
I0403 15:16:18.947827 31387 layer_factory.hpp:77] Creating layer conv2/relu_3x3_reduce
I0403 15:16:18.947854 31387 net.cpp:91] Creating Layer conv2/relu_3x3_reduce
I0403 15:16:18.947872 31387 net.cpp:425] conv2/relu_3x3_reduce <- conv2/3x3_reduce
I0403 15:16:18.947895 31387 net.cpp:386] conv2/relu_3x3_reduce -> conv2/3x3_reduce (in-place)
I0403 15:16:18.948199 31387 net.cpp:141] Setting up conv2/relu_3x3_reduce
I0403 15:16:18.948231 31387 net.cpp:148] Top shape: 24 64 56 56 (4816896)
I0403 15:16:18.948254 31387 net.cpp:156] Memory required for data: 245662752
I0403 15:16:18.948276 31387 layer_factory.hpp:77] Creating layer conv2/3x3
I0403 15:16:18.948312 31387 net.cpp:91] Creating Layer conv2/3x3
I0403 15:16:18.948335 31387 net.cpp:425] conv2/3x3 <- conv2/3x3_reduce
I0403 15:16:18.948369 31387 net.cpp:399] conv2/3x3 -> conv2/3x3
I0403 15:16:18.950822 31387 net.cpp:141] Setting up conv2/3x3
I0403 15:16:18.950865 31387 net.cpp:148] Top shape: 24 192 56 56 (14450688)
I0403 15:16:18.950903 31387 net.cpp:156] Memory required for data: 303465504
I0403 15:16:18.950942 31387 layer_factory.hpp:77] Creating layer conv2/relu_3x3
I0403 15:16:18.950963 31387 net.cpp:91] Creating Layer conv2/relu_3x3
I0403 15:16:18.950985 31387 net.cpp:425] conv2/relu_3x3 <- conv2/3x3
I0403 15:16:18.951016 31387 net.cpp:386] conv2/relu_3x3 -> conv2/3x3 (in-place)
I0403 15:16:18.951212 31387 net.cpp:141] Setting up conv2/relu_3x3
I0403 15:16:18.951262 31387 net.cpp:148] Top shape: 24 192 56 56 (14450688)
I0403 15:16:18.951316 31387 net.cpp:156] Memory required for data: 361268256
I0403 15:16:18.951335 31387 layer_factory.hpp:77] Creating layer conv2/norm2
I0403 15:16:18.951360 31387 net.cpp:91] Creating Layer conv2/norm2
I0403 15:16:18.951380 31387 net.cpp:425] conv2/norm2 <- conv2/3x3
I0403 15:16:18.951401 31387 net.cpp:399] conv2/norm2 -> conv2/norm2
I0403 15:16:18.953441 31387 net.cpp:141] Setting up conv2/norm2
I0403 15:16:18.953490 31387 net.cpp:148] Top shape: 24 192 56 56 (14450688)
I0403 15:16:18.953526 31387 net.cpp:156] Memory required for data: 419071008
I0403 15:16:18.953557 31387 layer_factory.hpp:77] Creating layer pool2/3x3_s2
I0403 15:16:18.953595 31387 net.cpp:91] Creating Layer pool2/3x3_s2
I0403 15:16:18.953626 31387 net.cpp:425] pool2/3x3_s2 <- conv2/norm2
I0403 15:16:18.953658 31387 net.cpp:399] pool2/3x3_s2 -> pool2/3x3_s2
I0403 15:16:18.953742 31387 net.cpp:141] Setting up pool2/3x3_s2
I0403 15:16:18.953774 31387 net.cpp:148] Top shape: 24 192 28 28 (3612672)
I0403 15:16:18.953805 31387 net.cpp:156] Memory required for data: 433521696
I0403 15:16:18.953837 31387 layer_factory.hpp:77] Creating layer pool2/3x3_s2_pool2/3x3_s2_0_split
I0403 15:16:18.953863 31387 net.cpp:91] Creating Layer pool2/3x3_s2_pool2/3x3_s2_0_split
I0403 15:16:18.953901 31387 net.cpp:425] pool2/3x3_s2_pool2/3x3_s2_0_split <- pool2/3x3_s2
I0403 15:16:18.953933 31387 net.cpp:399] pool2/3x3_s2_pool2/3x3_s2_0_split -> pool2/3x3_s2_pool2/3x3_s2_0_split_0
I0403 15:16:18.953963 31387 net.cpp:399] pool2/3x3_s2_pool2/3x3_s2_0_split -> pool2/3x3_s2_pool2/3x3_s2_0_split_1
I0403 15:16:18.953996 31387 net.cpp:399] pool2/3x3_s2_pool2/3x3_s2_0_split -> pool2/3x3_s2_pool2/3x3_s2_0_split_2
I0403 15:16:18.954025 31387 net.cpp:399] pool2/3x3_s2_pool2/3x3_s2_0_split -> pool2/3x3_s2_pool2/3x3_s2_0_split_3
I0403 15:16:18.954118 31387 net.cpp:141] Setting up pool2/3x3_s2_pool2/3x3_s2_0_split
I0403 15:16:18.954169 31387 net.cpp:148] Top shape: 24 192 28 28 (3612672)
I0403 15:16:18.954195 31387 net.cpp:148] Top shape: 24 192 28 28 (3612672)
I0403 15:16:18.954219 31387 net.cpp:148] Top shape: 24 192 28 28 (3612672)
I0403 15:16:18.954238 31387 net.cpp:148] Top shape: 24 192 28 28 (3612672)
I0403 15:16:18.954255 31387 net.cpp:156] Memory required for data: 491324448
I0403 15:16:18.954277 31387 layer_factory.hpp:77] Creating layer inception_3a/1x1
I0403 15:16:18.954310 31387 net.cpp:91] Creating Layer inception_3a/1x1
I0403 15:16:18.954339 31387 net.cpp:425] inception_3a/1x1 <- pool2/3x3_s2_pool2/3x3_s2_0_split_0
I0403 15:16:18.954365 31387 net.cpp:399] inception_3a/1x1 -> inception_3a/1x1
I0403 15:16:18.955998 31387 net.cpp:141] Setting up inception_3a/1x1
I0403 15:16:18.956037 31387 net.cpp:148] Top shape: 24 64 28 28 (1204224)
I0403 15:16:18.956060 31387 net.cpp:156] Memory required for data: 496141344
I0403 15:16:18.956080 31387 layer_factory.hpp:77] Creating layer inception_3a/relu_1x1
I0403 15:16:18.956101 31387 net.cpp:91] Creating Layer inception_3a/relu_1x1
I0403 15:16:18.956120 31387 net.cpp:425] inception_3a/relu_1x1 <- inception_3a/1x1
I0403 15:16:18.956141 31387 net.cpp:386] inception_3a/relu_1x1 -> inception_3a/1x1 (in-place)
I0403 15:16:18.956336 31387 net.cpp:141] Setting up inception_3a/relu_1x1
I0403 15:16:18.956362 31387 net.cpp:148] Top shape: 24 64 28 28 (1204224)
I0403 15:16:18.956384 31387 net.cpp:156] Memory required for data: 500958240
I0403 15:16:18.956400 31387 layer_factory.hpp:77] Creating layer inception_3a/3x3_reduce
I0403 15:16:18.956426 31387 net.cpp:91] Creating Layer inception_3a/3x3_reduce
I0403 15:16:18.956459 31387 net.cpp:425] inception_3a/3x3_reduce <- pool2/3x3_s2_pool2/3x3_s2_0_split_1
I0403 15:16:18.956482 31387 net.cpp:399] inception_3a/3x3_reduce -> inception_3a/3x3_reduce
I0403 15:16:18.958276 31387 net.cpp:141] Setting up inception_3a/3x3_reduce
I0403 15:16:18.958348 31387 net.cpp:148] Top shape: 24 96 28 28 (1806336)
I0403 15:16:18.958369 31387 net.cpp:156] Memory required for data: 508183584
I0403 15:16:18.958402 31387 layer_factory.hpp:77] Creating layer inception_3a/relu_3x3_reduce
I0403 15:16:18.958456 31387 net.cpp:91] Creating Layer inception_3a/relu_3x3_reduce
I0403 15:16:18.958492 31387 net.cpp:425] inception_3a/relu_3x3_reduce <- inception_3a/3x3_reduce
I0403 15:16:18.958523 31387 net.cpp:386] inception_3a/relu_3x3_reduce -> inception_3a/3x3_reduce (in-place)
I0403 15:16:18.958755 31387 net.cpp:141] Setting up inception_3a/relu_3x3_reduce
I0403 15:16:18.958802 31387 net.cpp:148] Top shape: 24 96 28 28 (1806336)
I0403 15:16:18.958834 31387 net.cpp:156] Memory required for data: 515408928
I0403 15:16:18.958878 31387 layer_factory.hpp:77] Creating layer inception_3a/3x3
I0403 15:16:18.958904 31387 net.cpp:91] Creating Layer inception_3a/3x3
I0403 15:16:18.958930 31387 net.cpp:425] inception_3a/3x3 <- inception_3a/3x3_reduce
I0403 15:16:18.958959 31387 net.cpp:399] inception_3a/3x3 -> inception_3a/3x3
I0403 15:16:18.960731 31387 net.cpp:141] Setting up inception_3a/3x3
I0403 15:16:18.960775 31387 net.cpp:148] Top shape: 24 128 28 28 (2408448)
I0403 15:16:18.960806 31387 net.cpp:156] Memory required for data: 525042720
I0403 15:16:18.960827 31387 layer_factory.hpp:77] Creating layer inception_3a/relu_3x3
I0403 15:16:18.960858 31387 net.cpp:91] Creating Layer inception_3a/relu_3x3
I0403 15:16:18.960876 31387 net.cpp:425] inception_3a/relu_3x3 <- inception_3a/3x3
I0403 15:16:18.960897 31387 net.cpp:386] inception_3a/relu_3x3 -> inception_3a/3x3 (in-place)
I0403 15:16:18.961195 31387 net.cpp:141] Setting up inception_3a/relu_3x3
I0403 15:16:18.961223 31387 net.cpp:148] Top shape: 24 128 28 28 (2408448)
I0403 15:16:18.961241 31387 net.cpp:156] Memory required for data: 534676512
I0403 15:16:18.961256 31387 layer_factory.hpp:77] Creating layer inception_3a/5x5_reduce
I0403 15:16:18.961283 31387 net.cpp:91] Creating Layer inception_3a/5x5_reduce
I0403 15:16:18.961313 31387 net.cpp:425] inception_3a/5x5_reduce <- pool2/3x3_s2_pool2/3x3_s2_0_split_2
I0403 15:16:18.961340 31387 net.cpp:399] inception_3a/5x5_reduce -> inception_3a/5x5_reduce
I0403 15:16:18.962373 31387 net.cpp:141] Setting up inception_3a/5x5_reduce
I0403 15:16:18.962409 31387 net.cpp:148] Top shape: 24 16 28 28 (301056)
I0403 15:16:18.962432 31387 net.cpp:156] Memory required for data: 535880736
I0403 15:16:18.962455 31387 layer_factory.hpp:77] Creating layer inception_3a/relu_5x5_reduce
I0403 15:16:18.962481 31387 net.cpp:91] Creating Layer inception_3a/relu_5x5_reduce
I0403 15:16:18.962507 31387 net.cpp:425] inception_3a/relu_5x5_reduce <- inception_3a/5x5_reduce
I0403 15:16:18.962529 31387 net.cpp:386] inception_3a/relu_5x5_reduce -> inception_3a/5x5_reduce (in-place)
I0403 15:16:18.962857 31387 net.cpp:141] Setting up inception_3a/relu_5x5_reduce
I0403 15:16:18.962889 31387 net.cpp:148] Top shape: 24 16 28 28 (301056)
I0403 15:16:18.962913 31387 net.cpp:156] Memory required for data: 537084960
I0403 15:16:18.962934 31387 layer_factory.hpp:77] Creating layer inception_3a/5x5
I0403 15:16:18.962960 31387 net.cpp:91] Creating Layer inception_3a/5x5
I0403 15:16:18.962985 31387 net.cpp:425] inception_3a/5x5 <- inception_3a/5x5_reduce
I0403 15:16:18.963011 31387 net.cpp:399] inception_3a/5x5 -> inception_3a/5x5
I0403 15:16:18.964097 31387 net.cpp:141] Setting up inception_3a/5x5
I0403 15:16:18.964125 31387 net.cpp:148] Top shape: 24 32 28 28 (602112)
I0403 15:16:18.964143 31387 net.cpp:156] Memory required for data: 539493408
I0403 15:16:18.964162 31387 layer_factory.hpp:77] Creating layer inception_3a/relu_5x5
I0403 15:16:18.964181 31387 net.cpp:91] Creating Layer inception_3a/relu_5x5
I0403 15:16:18.964205 31387 net.cpp:425] inception_3a/relu_5x5 <- inception_3a/5x5
I0403 15:16:18.964226 31387 net.cpp:386] inception_3a/relu_5x5 -> inception_3a/5x5 (in-place)
I0403 15:16:18.964411 31387 net.cpp:141] Setting up inception_3a/relu_5x5
I0403 15:16:18.964437 31387 net.cpp:148] Top shape: 24 32 28 28 (602112)
I0403 15:16:18.964465 31387 net.cpp:156] Memory required for data: 541901856
I0403 15:16:18.964480 31387 layer_factory.hpp:77] Creating layer inception_3a/pool
I0403 15:16:18.964511 31387 net.cpp:91] Creating Layer inception_3a/pool
I0403 15:16:18.964545 31387 net.cpp:425] inception_3a/pool <- pool2/3x3_s2_pool2/3x3_s2_0_split_3
I0403 15:16:18.964565 31387 net.cpp:399] inception_3a/pool -> inception_3a/pool
I0403 15:16:18.964627 31387 net.cpp:141] Setting up inception_3a/pool
I0403 15:16:18.964651 31387 net.cpp:148] Top shape: 24 192 28 28 (3612672)
I0403 15:16:18.964666 31387 net.cpp:156] Memory required for data: 556352544
I0403 15:16:18.964682 31387 layer_factory.hpp:77] Creating layer inception_3a/pool_proj
I0403 15:16:18.964705 31387 net.cpp:91] Creating Layer inception_3a/pool_proj
I0403 15:16:18.964722 31387 net.cpp:425] inception_3a/pool_proj <- inception_3a/pool
I0403 15:16:18.964745 31387 net.cpp:399] inception_3a/pool_proj -> inception_3a/pool_proj
I0403 15:16:18.965742 31387 net.cpp:141] Setting up inception_3a/pool_proj
I0403 15:16:18.965780 31387 net.cpp:148] Top shape: 24 32 28 28 (602112)
I0403 15:16:18.965804 31387 net.cpp:156] Memory required for data: 558760992
I0403 15:16:18.965831 31387 layer_factory.hpp:77] Creating layer inception_3a/relu_pool_proj
I0403 15:16:18.965859 31387 net.cpp:91] Creating Layer inception_3a/relu_pool_proj
I0403 15:16:18.965883 31387 net.cpp:425] inception_3a/relu_pool_proj <- inception_3a/pool_proj
I0403 15:16:18.965909 31387 net.cpp:386] inception_3a/relu_pool_proj -> inception_3a/pool_proj (in-place)
I0403 15:16:18.966202 31387 net.cpp:141] Setting up inception_3a/relu_pool_proj
I0403 15:16:18.966233 31387 net.cpp:148] Top shape: 24 32 28 28 (602112)
I0403 15:16:18.966251 31387 net.cpp:156] Memory required for data: 561169440
I0403 15:16:18.966274 31387 layer_factory.hpp:77] Creating layer inception_3a/output
I0403 15:16:18.966300 31387 net.cpp:91] Creating Layer inception_3a/output
I0403 15:16:18.966322 31387 net.cpp:425] inception_3a/output <- inception_3a/1x1
I0403 15:16:18.966347 31387 net.cpp:425] inception_3a/output <- inception_3a/3x3
I0403 15:16:18.966370 31387 net.cpp:425] inception_3a/output <- inception_3a/5x5
I0403 15:16:18.966395 31387 net.cpp:425] inception_3a/output <- inception_3a/pool_proj
I0403 15:16:18.966419 31387 net.cpp:399] inception_3a/output -> inception_3a/output
I0403 15:16:18.966473 31387 net.cpp:141] Setting up inception_3a/output
I0403 15:16:18.966511 31387 net.cpp:148] Top shape: 24 256 28 28 (4816896)
I0403 15:16:18.966536 31387 net.cpp:156] Memory required for data: 580437024
I0403 15:16:18.966557 31387 layer_factory.hpp:77] Creating layer inception_3a/output_inception_3a/output_0_split
I0403 15:16:18.966578 31387 net.cpp:91] Creating Layer inception_3a/output_inception_3a/output_0_split
I0403 15:16:18.966601 31387 net.cpp:425] inception_3a/output_inception_3a/output_0_split <- inception_3a/output
I0403 15:16:18.966624 31387 net.cpp:399] inception_3a/output_inception_3a/output_0_split -> inception_3a/output_inception_3a/output_0_split_0
I0403 15:16:18.966652 31387 net.cpp:399] inception_3a/output_inception_3a/output_0_split -> inception_3a/output_inception_3a/output_0_split_1
I0403 15:16:18.966682 31387 net.cpp:399] inception_3a/output_inception_3a/output_0_split -> inception_3a/output_inception_3a/output_0_split_2
I0403 15:16:18.966711 31387 net.cpp:399] inception_3a/output_inception_3a/output_0_split -> inception_3a/output_inception_3a/output_0_split_3
I0403 15:16:18.966789 31387 net.cpp:141] Setting up inception_3a/output_inception_3a/output_0_split
I0403 15:16:18.966811 31387 net.cpp:148] Top shape: 24 256 28 28 (4816896)
I0403 15:16:18.966830 31387 net.cpp:148] Top shape: 24 256 28 28 (4816896)
I0403 15:16:18.966846 31387 net.cpp:148] Top shape: 24 256 28 28 (4816896)
I0403 15:16:18.966863 31387 net.cpp:148] Top shape: 24 256 28 28 (4816896)
I0403 15:16:18.966877 31387 net.cpp:156] Memory required for data: 657507360
I0403 15:16:18.966893 31387 layer_factory.hpp:77] Creating layer inception_3b/1x1
I0403 15:16:18.966915 31387 net.cpp:91] Creating Layer inception_3b/1x1
I0403 15:16:18.966933 31387 net.cpp:425] inception_3b/1x1 <- inception_3a/output_inception_3a/output_0_split_0
I0403 15:16:18.966955 31387 net.cpp:399] inception_3b/1x1 -> inception_3b/1x1
I0403 15:16:18.968125 31387 net.cpp:141] Setting up inception_3b/1x1
I0403 15:16:18.968174 31387 net.cpp:148] Top shape: 24 128 28 28 (2408448)
I0403 15:16:18.968202 31387 net.cpp:156] Memory required for data: 667141152
I0403 15:16:18.968222 31387 layer_factory.hpp:77] Creating layer inception_3b/relu_1x1
I0403 15:16:18.968250 31387 net.cpp:91] Creating Layer inception_3b/relu_1x1
I0403 15:16:18.968271 31387 net.cpp:425] inception_3b/relu_1x1 <- inception_3b/1x1
I0403 15:16:18.968302 31387 net.cpp:386] inception_3b/relu_1x1 -> inception_3b/1x1 (in-place)
I0403 15:16:18.968492 31387 net.cpp:141] Setting up inception_3b/relu_1x1
I0403 15:16:18.968526 31387 net.cpp:148] Top shape: 24 128 28 28 (2408448)
I0403 15:16:18.968551 31387 net.cpp:156] Memory required for data: 676774944
I0403 15:16:18.968571 31387 layer_factory.hpp:77] Creating layer inception_3b/3x3_reduce
I0403 15:16:18.968601 31387 net.cpp:91] Creating Layer inception_3b/3x3_reduce
I0403 15:16:18.968626 31387 net.cpp:425] inception_3b/3x3_reduce <- inception_3a/output_inception_3a/output_0_split_1
I0403 15:16:18.968653 31387 net.cpp:399] inception_3b/3x3_reduce -> inception_3b/3x3_reduce
I0403 15:16:18.969852 31387 net.cpp:141] Setting up inception_3b/3x3_reduce
I0403 15:16:18.969889 31387 net.cpp:148] Top shape: 24 128 28 28 (2408448)
I0403 15:16:18.969925 31387 net.cpp:156] Memory required for data: 686408736
I0403 15:16:18.969944 31387 layer_factory.hpp:77] Creating layer inception_3b/relu_3x3_reduce
I0403 15:16:18.969969 31387 net.cpp:91] Creating Layer inception_3b/relu_3x3_reduce
I0403 15:16:18.969992 31387 net.cpp:425] inception_3b/relu_3x3_reduce <- inception_3b/3x3_reduce
I0403 15:16:18.970015 31387 net.cpp:386] inception_3b/relu_3x3_reduce -> inception_3b/3x3_reduce (in-place)
I0403 15:16:18.970201 31387 net.cpp:141] Setting up inception_3b/relu_3x3_reduce
I0403 15:16:18.970232 31387 net.cpp:148] Top shape: 24 128 28 28 (2408448)
I0403 15:16:18.970247 31387 net.cpp:156] Memory required for data: 696042528
I0403 15:16:18.970266 31387 layer_factory.hpp:77] Creating layer inception_3b/3x3
I0403 15:16:18.970296 31387 net.cpp:91] Creating Layer inception_3b/3x3
I0403 15:16:18.970322 31387 net.cpp:425] inception_3b/3x3 <- inception_3b/3x3_reduce
I0403 15:16:18.970350 31387 net.cpp:399] inception_3b/3x3 -> inception_3b/3x3
I0403 15:16:18.973263 31387 net.cpp:141] Setting up inception_3b/3x3
I0403 15:16:18.973297 31387 net.cpp:148] Top shape: 24 192 28 28 (3612672)
I0403 15:16:18.973317 31387 net.cpp:156] Memory required for data: 710493216
I0403 15:16:18.973343 31387 layer_factory.hpp:77] Creating layer inception_3b/relu_3x3
I0403 15:16:18.973368 31387 net.cpp:91] Creating Layer inception_3b/relu_3x3
I0403 15:16:18.973389 31387 net.cpp:425] inception_3b/relu_3x3 <- inception_3b/3x3
I0403 15:16:18.973407 31387 net.cpp:386] inception_3b/relu_3x3 -> inception_3b/3x3 (in-place)
I0403 15:16:18.973695 31387 net.cpp:141] Setting up inception_3b/relu_3x3
I0403 15:16:18.973726 31387 net.cpp:148] Top shape: 24 192 28 28 (3612672)
I0403 15:16:18.973744 31387 net.cpp:156] Memory required for data: 724943904
I0403 15:16:18.973767 31387 layer_factory.hpp:77] Creating layer inception_3b/5x5_reduce
I0403 15:16:18.973795 31387 net.cpp:91] Creating Layer inception_3b/5x5_reduce
I0403 15:16:18.973820 31387 net.cpp:425] inception_3b/5x5_reduce <- inception_3a/output_inception_3a/output_0_split_2
I0403 15:16:18.973844 31387 net.cpp:399] inception_3b/5x5_reduce -> inception_3b/5x5_reduce
I0403 15:16:18.974864 31387 net.cpp:141] Setting up inception_3b/5x5_reduce
I0403 15:16:18.974901 31387 net.cpp:148] Top shape: 24 32 28 28 (602112)
I0403 15:16:18.974920 31387 net.cpp:156] Memory required for data: 727352352
I0403 15:16:18.974944 31387 layer_factory.hpp:77] Creating layer inception_3b/relu_5x5_reduce
I0403 15:16:18.974967 31387 net.cpp:91] Creating Layer inception_3b/relu_5x5_reduce
I0403 15:16:18.974987 31387 net.cpp:425] inception_3b/relu_5x5_reduce <- inception_3b/5x5_reduce
I0403 15:16:18.975010 31387 net.cpp:386] inception_3b/relu_5x5_reduce -> inception_3b/5x5_reduce (in-place)
I0403 15:16:18.975211 31387 net.cpp:141] Setting up inception_3b/relu_5x5_reduce
I0403 15:16:18.975244 31387 net.cpp:148] Top shape: 24 32 28 28 (602112)
I0403 15:16:18.975261 31387 net.cpp:156] Memory required for data: 729760800
I0403 15:16:18.975281 31387 layer_factory.hpp:77] Creating layer inception_3b/5x5
I0403 15:16:18.975308 31387 net.cpp:91] Creating Layer inception_3b/5x5
I0403 15:16:18.975332 31387 net.cpp:425] inception_3b/5x5 <- inception_3b/5x5_reduce
I0403 15:16:18.975358 31387 net.cpp:399] inception_3b/5x5 -> inception_3b/5x5
I0403 15:16:18.977361 31387 net.cpp:141] Setting up inception_3b/5x5
I0403 15:16:18.977398 31387 net.cpp:148] Top shape: 24 96 28 28 (1806336)
I0403 15:16:18.977421 31387 net.cpp:156] Memory required for data: 736986144
I0403 15:16:18.977444 31387 layer_factory.hpp:77] Creating layer inception_3b/relu_5x5
I0403 15:16:18.977469 31387 net.cpp:91] Creating Layer inception_3b/relu_5x5
I0403 15:16:18.977488 31387 net.cpp:425] inception_3b/relu_5x5 <- inception_3b/5x5
I0403 15:16:18.977521 31387 net.cpp:386] inception_3b/relu_5x5 -> inception_3b/5x5 (in-place)
I0403 15:16:18.977721 31387 net.cpp:141] Setting up inception_3b/relu_5x5
I0403 15:16:18.977751 31387 net.cpp:148] Top shape: 24 96 28 28 (1806336)
I0403 15:16:18.977768 31387 net.cpp:156] Memory required for data: 744211488
I0403 15:16:18.977783 31387 layer_factory.hpp:77] Creating layer inception_3b/pool
I0403 15:16:18.977804 31387 net.cpp:91] Creating Layer inception_3b/pool
I0403 15:16:18.977828 31387 net.cpp:425] inception_3b/pool <- inception_3a/output_inception_3a/output_0_split_3
I0403 15:16:18.977848 31387 net.cpp:399] inception_3b/pool -> inception_3b/pool
I0403 15:16:18.977913 31387 net.cpp:141] Setting up inception_3b/pool
I0403 15:16:18.977942 31387 net.cpp:148] Top shape: 24 256 28 28 (4816896)
I0403 15:16:18.977967 31387 net.cpp:156] Memory required for data: 763479072
I0403 15:16:18.977988 31387 layer_factory.hpp:77] Creating layer inception_3b/pool_proj
I0403 15:16:18.978013 31387 net.cpp:91] Creating Layer inception_3b/pool_proj
I0403 15:16:18.978034 31387 net.cpp:425] inception_3b/pool_proj <- inception_3b/pool
I0403 15:16:18.978060 31387 net.cpp:399] inception_3b/pool_proj -> inception_3b/pool_proj
I0403 15:16:18.979135 31387 net.cpp:141] Setting up inception_3b/pool_proj
I0403 15:16:18.979168 31387 net.cpp:148] Top shape: 24 64 28 28 (1204224)
I0403 15:16:18.979192 31387 net.cpp:156] Memory required for data: 768295968
I0403 15:16:18.979213 31387 layer_factory.hpp:77] Creating layer inception_3b/relu_pool_proj
I0403 15:16:18.979241 31387 net.cpp:91] Creating Layer inception_3b/relu_pool_proj
I0403 15:16:18.979259 31387 net.cpp:425] inception_3b/relu_pool_proj <- inception_3b/pool_proj
I0403 15:16:18.979277 31387 net.cpp:386] inception_3b/relu_pool_proj -> inception_3b/pool_proj (in-place)
I0403 15:16:18.979684 31387 net.cpp:141] Setting up inception_3b/relu_pool_proj
I0403 15:16:18.979710 31387 net.cpp:148] Top shape: 24 64 28 28 (1204224)
I0403 15:16:18.979730 31387 net.cpp:156] Memory required for data: 773112864
I0403 15:16:18.979750 31387 layer_factory.hpp:77] Creating layer inception_3b/output
I0403 15:16:18.979773 31387 net.cpp:91] Creating Layer inception_3b/output
I0403 15:16:18.979794 31387 net.cpp:425] inception_3b/output <- inception_3b/1x1
I0403 15:16:18.979815 31387 net.cpp:425] inception_3b/output <- inception_3b/3x3
I0403 15:16:18.979837 31387 net.cpp:425] inception_3b/output <- inception_3b/5x5
I0403 15:16:18.979859 31387 net.cpp:425] inception_3b/output <- inception_3b/pool_proj
I0403 15:16:18.979883 31387 net.cpp:399] inception_3b/output -> inception_3b/output
I0403 15:16:18.979934 31387 net.cpp:141] Setting up inception_3b/output
I0403 15:16:18.979964 31387 net.cpp:148] Top shape: 24 480 28 28 (9031680)
I0403 15:16:18.979984 31387 net.cpp:156] Memory required for data: 809239584
I0403 15:16:18.980005 31387 layer_factory.hpp:77] Creating layer pool3/3x3_s2
I0403 15:16:18.980026 31387 net.cpp:91] Creating Layer pool3/3x3_s2
I0403 15:16:18.980051 31387 net.cpp:425] pool3/3x3_s2 <- inception_3b/output
I0403 15:16:18.980092 31387 net.cpp:399] pool3/3x3_s2 -> pool3/3x3_s2
I0403 15:16:18.980157 31387 net.cpp:141] Setting up pool3/3x3_s2
I0403 15:16:18.980188 31387 net.cpp:148] Top shape: 24 480 14 14 (2257920)
I0403 15:16:18.980211 31387 net.cpp:156] Memory required for data: 818271264
I0403 15:16:18.980226 31387 layer_factory.hpp:77] Creating layer pool3/3x3_s2_pool3/3x3_s2_0_split
I0403 15:16:18.980248 31387 net.cpp:91] Creating Layer pool3/3x3_s2_pool3/3x3_s2_0_split
I0403 15:16:18.980270 31387 net.cpp:425] pool3/3x3_s2_pool3/3x3_s2_0_split <- pool3/3x3_s2
I0403 15:16:18.980294 31387 net.cpp:399] pool3/3x3_s2_pool3/3x3_s2_0_split -> pool3/3x3_s2_pool3/3x3_s2_0_split_0
I0403 15:16:18.980324 31387 net.cpp:399] pool3/3x3_s2_pool3/3x3_s2_0_split -> pool3/3x3_s2_pool3/3x3_s2_0_split_1
I0403 15:16:18.980348 31387 net.cpp:399] pool3/3x3_s2_pool3/3x3_s2_0_split -> pool3/3x3_s2_pool3/3x3_s2_0_split_2
I0403 15:16:18.980370 31387 net.cpp:399] pool3/3x3_s2_pool3/3x3_s2_0_split -> pool3/3x3_s2_pool3/3x3_s2_0_split_3
I0403 15:16:18.980453 31387 net.cpp:141] Setting up pool3/3x3_s2_pool3/3x3_s2_0_split
I0403 15:16:18.980481 31387 net.cpp:148] Top shape: 24 480 14 14 (2257920)
I0403 15:16:18.980509 31387 net.cpp:148] Top shape: 24 480 14 14 (2257920)
I0403 15:16:18.980530 31387 net.cpp:148] Top shape: 24 480 14 14 (2257920)
I0403 15:16:18.980546 31387 net.cpp:148] Top shape: 24 480 14 14 (2257920)
I0403 15:16:18.980562 31387 net.cpp:156] Memory required for data: 854397984
I0403 15:16:18.980581 31387 layer_factory.hpp:77] Creating layer inception_4a/1x1
I0403 15:16:18.980612 31387 net.cpp:91] Creating Layer inception_4a/1x1
I0403 15:16:18.980635 31387 net.cpp:425] inception_4a/1x1 <- pool3/3x3_s2_pool3/3x3_s2_0_split_0
I0403 15:16:18.980665 31387 net.cpp:399] inception_4a/1x1 -> inception_4a/1x1
I0403 15:16:18.982244 31387 net.cpp:141] Setting up inception_4a/1x1
I0403 15:16:18.982271 31387 net.cpp:148] Top shape: 24 192 14 14 (903168)
I0403 15:16:18.982286 31387 net.cpp:156] Memory required for data: 858010656
I0403 15:16:18.982312 31387 layer_factory.hpp:77] Creating layer inception_4a/relu_1x1
I0403 15:16:18.982338 31387 net.cpp:91] Creating Layer inception_4a/relu_1x1
I0403 15:16:18.982355 31387 net.cpp:425] inception_4a/relu_1x1 <- inception_4a/1x1
I0403 15:16:18.982373 31387 net.cpp:386] inception_4a/relu_1x1 -> inception_4a/1x1 (in-place)
I0403 15:16:18.982559 31387 net.cpp:141] Setting up inception_4a/relu_1x1
I0403 15:16:18.982589 31387 net.cpp:148] Top shape: 24 192 14 14 (903168)
I0403 15:16:18.982606 31387 net.cpp:156] Memory required for data: 861623328
I0403 15:16:18.982625 31387 layer_factory.hpp:77] Creating layer inception_4a/3x3_reduce
I0403 15:16:18.982651 31387 net.cpp:91] Creating Layer inception_4a/3x3_reduce
I0403 15:16:18.982676 31387 net.cpp:425] inception_4a/3x3_reduce <- pool3/3x3_s2_pool3/3x3_s2_0_split_1
I0403 15:16:18.982703 31387 net.cpp:399] inception_4a/3x3_reduce -> inception_4a/3x3_reduce
I0403 15:16:18.983990 31387 net.cpp:141] Setting up inception_4a/3x3_reduce
I0403 15:16:18.984026 31387 net.cpp:148] Top shape: 24 96 14 14 (451584)
I0403 15:16:18.984048 31387 net.cpp:156] Memory required for data: 863429664
I0403 15:16:18.984076 31387 layer_factory.hpp:77] Creating layer inception_4a/relu_3x3_reduce
I0403 15:16:18.984098 31387 net.cpp:91] Creating Layer inception_4a/relu_3x3_reduce
I0403 15:16:18.984122 31387 net.cpp:425] inception_4a/relu_3x3_reduce <- inception_4a/3x3_reduce
I0403 15:16:18.984146 31387 net.cpp:386] inception_4a/relu_3x3_reduce -> inception_4a/3x3_reduce (in-place)
I0403 15:16:18.984330 31387 net.cpp:141] Setting up inception_4a/relu_3x3_reduce
I0403 15:16:18.984360 31387 net.cpp:148] Top shape: 24 96 14 14 (451584)
I0403 15:16:18.984380 31387 net.cpp:156] Memory required for data: 865236000
I0403 15:16:18.984400 31387 layer_factory.hpp:77] Creating layer inception_4a/3x3
I0403 15:16:18.984428 31387 net.cpp:91] Creating Layer inception_4a/3x3
I0403 15:16:18.984450 31387 net.cpp:425] inception_4a/3x3 <- inception_4a/3x3_reduce
I0403 15:16:18.984473 31387 net.cpp:399] inception_4a/3x3 -> inception_4a/3x3
I0403 15:16:18.987170 31387 net.cpp:141] Setting up inception_4a/3x3
I0403 15:16:18.987206 31387 net.cpp:148] Top shape: 24 208 14 14 (978432)
I0403 15:16:18.987228 31387 net.cpp:156] Memory required for data: 869149728
I0403 15:16:18.987252 31387 layer_factory.hpp:77] Creating layer inception_4a/relu_3x3
I0403 15:16:18.987278 31387 net.cpp:91] Creating Layer inception_4a/relu_3x3
I0403 15:16:18.987296 31387 net.cpp:425] inception_4a/relu_3x3 <- inception_4a/3x3
I0403 15:16:18.987315 31387 net.cpp:386] inception_4a/relu_3x3 -> inception_4a/3x3 (in-place)
I0403 15:16:18.987601 31387 net.cpp:141] Setting up inception_4a/relu_3x3
I0403 15:16:18.987632 31387 net.cpp:148] Top shape: 24 208 14 14 (978432)
I0403 15:16:18.987653 31387 net.cpp:156] Memory required for data: 873063456
I0403 15:16:18.987673 31387 layer_factory.hpp:77] Creating layer inception_4a/5x5_reduce
I0403 15:16:18.987699 31387 net.cpp:91] Creating Layer inception_4a/5x5_reduce
I0403 15:16:18.987725 31387 net.cpp:425] inception_4a/5x5_reduce <- pool3/3x3_s2_pool3/3x3_s2_0_split_2
I0403 15:16:18.987751 31387 net.cpp:399] inception_4a/5x5_reduce -> inception_4a/5x5_reduce
I0403 15:16:18.988785 31387 net.cpp:141] Setting up inception_4a/5x5_reduce
I0403 15:16:18.988816 31387 net.cpp:148] Top shape: 24 16 14 14 (75264)
I0403 15:16:18.988834 31387 net.cpp:156] Memory required for data: 873364512
I0403 15:16:18.988854 31387 layer_factory.hpp:77] Creating layer inception_4a/relu_5x5_reduce
I0403 15:16:18.988873 31387 net.cpp:91] Creating Layer inception_4a/relu_5x5_reduce
I0403 15:16:18.988895 31387 net.cpp:425] inception_4a/relu_5x5_reduce <- inception_4a/5x5_reduce
I0403 15:16:18.988921 31387 net.cpp:386] inception_4a/relu_5x5_reduce -> inception_4a/5x5_reduce (in-place)
I0403 15:16:18.989104 31387 net.cpp:141] Setting up inception_4a/relu_5x5_reduce
I0403 15:16:18.989130 31387 net.cpp:148] Top shape: 24 16 14 14 (75264)
I0403 15:16:18.989156 31387 net.cpp:156] Memory required for data: 873665568
I0403 15:16:18.989171 31387 layer_factory.hpp:77] Creating layer inception_4a/5x5
I0403 15:16:18.989193 31387 net.cpp:91] Creating Layer inception_4a/5x5
I0403 15:16:18.989210 31387 net.cpp:425] inception_4a/5x5 <- inception_4a/5x5_reduce
I0403 15:16:18.989231 31387 net.cpp:399] inception_4a/5x5 -> inception_4a/5x5
I0403 15:16:18.990345 31387 net.cpp:141] Setting up inception_4a/5x5
I0403 15:16:18.990376 31387 net.cpp:148] Top shape: 24 48 14 14 (225792)
I0403 15:16:18.990401 31387 net.cpp:156] Memory required for data: 874568736
I0403 15:16:18.990427 31387 layer_factory.hpp:77] Creating layer inception_4a/relu_5x5
I0403 15:16:18.990455 31387 net.cpp:91] Creating Layer inception_4a/relu_5x5
I0403 15:16:18.990479 31387 net.cpp:425] inception_4a/relu_5x5 <- inception_4a/5x5
I0403 15:16:18.990506 31387 net.cpp:386] inception_4a/relu_5x5 -> inception_4a/5x5 (in-place)
I0403 15:16:18.990696 31387 net.cpp:141] Setting up inception_4a/relu_5x5
I0403 15:16:18.990726 31387 net.cpp:148] Top shape: 24 48 14 14 (225792)
I0403 15:16:18.990748 31387 net.cpp:156] Memory required for data: 875471904
I0403 15:16:18.990766 31387 layer_factory.hpp:77] Creating layer inception_4a/pool
I0403 15:16:18.990788 31387 net.cpp:91] Creating Layer inception_4a/pool
I0403 15:16:18.990809 31387 net.cpp:425] inception_4a/pool <- pool3/3x3_s2_pool3/3x3_s2_0_split_3
I0403 15:16:18.990835 31387 net.cpp:399] inception_4a/pool -> inception_4a/pool
I0403 15:16:18.990897 31387 net.cpp:141] Setting up inception_4a/pool
I0403 15:16:18.990926 31387 net.cpp:148] Top shape: 24 480 14 14 (2257920)
I0403 15:16:18.990947 31387 net.cpp:156] Memory required for data: 884503584
I0403 15:16:18.990967 31387 layer_factory.hpp:77] Creating layer inception_4a/pool_proj
I0403 15:16:18.990993 31387 net.cpp:91] Creating Layer inception_4a/pool_proj
I0403 15:16:18.991014 31387 net.cpp:425] inception_4a/pool_proj <- inception_4a/pool
I0403 15:16:18.991039 31387 net.cpp:399] inception_4a/pool_proj -> inception_4a/pool_proj
I0403 15:16:18.992223 31387 net.cpp:141] Setting up inception_4a/pool_proj
I0403 15:16:18.992254 31387 net.cpp:148] Top shape: 24 64 14 14 (301056)
I0403 15:16:18.992285 31387 net.cpp:156] Memory required for data: 885707808
I0403 15:16:18.992305 31387 layer_factory.hpp:77] Creating layer inception_4a/relu_pool_proj
I0403 15:16:18.992327 31387 net.cpp:91] Creating Layer inception_4a/relu_pool_proj
I0403 15:16:18.992352 31387 net.cpp:425] inception_4a/relu_pool_proj <- inception_4a/pool_proj
I0403 15:16:18.992377 31387 net.cpp:386] inception_4a/relu_pool_proj -> inception_4a/pool_proj (in-place)
I0403 15:16:18.992674 31387 net.cpp:141] Setting up inception_4a/relu_pool_proj
I0403 15:16:18.992705 31387 net.cpp:148] Top shape: 24 64 14 14 (301056)
I0403 15:16:18.992723 31387 net.cpp:156] Memory required for data: 886912032
I0403 15:16:18.992739 31387 layer_factory.hpp:77] Creating layer inception_4a/output
I0403 15:16:18.992756 31387 net.cpp:91] Creating Layer inception_4a/output
I0403 15:16:18.992776 31387 net.cpp:425] inception_4a/output <- inception_4a/1x1
I0403 15:16:18.992799 31387 net.cpp:425] inception_4a/output <- inception_4a/3x3
I0403 15:16:18.992825 31387 net.cpp:425] inception_4a/output <- inception_4a/5x5
I0403 15:16:18.992848 31387 net.cpp:425] inception_4a/output <- inception_4a/pool_proj
I0403 15:16:18.992869 31387 net.cpp:399] inception_4a/output -> inception_4a/output
I0403 15:16:18.992920 31387 net.cpp:141] Setting up inception_4a/output
I0403 15:16:18.992949 31387 net.cpp:148] Top shape: 24 512 14 14 (2408448)
I0403 15:16:18.992966 31387 net.cpp:156] Memory required for data: 896545824
I0403 15:16:18.992983 31387 layer_factory.hpp:77] Creating layer inception_4a/output_inception_4a/output_0_split
I0403 15:16:18.993003 31387 net.cpp:91] Creating Layer inception_4a/output_inception_4a/output_0_split
I0403 15:16:18.993027 31387 net.cpp:425] inception_4a/output_inception_4a/output_0_split <- inception_4a/output
I0403 15:16:18.993053 31387 net.cpp:399] inception_4a/output_inception_4a/output_0_split -> inception_4a/output_inception_4a/output_0_split_0
I0403 15:16:18.993078 31387 net.cpp:399] inception_4a/output_inception_4a/output_0_split -> inception_4a/output_inception_4a/output_0_split_1
I0403 15:16:18.993098 31387 net.cpp:399] inception_4a/output_inception_4a/output_0_split -> inception_4a/output_inception_4a/output_0_split_2
I0403 15:16:18.993124 31387 net.cpp:399] inception_4a/output_inception_4a/output_0_split -> inception_4a/output_inception_4a/output_0_split_3
I0403 15:16:18.993147 31387 net.cpp:399] inception_4a/output_inception_4a/output_0_split -> inception_4a/output_inception_4a/output_0_split_4
I0403 15:16:18.993242 31387 net.cpp:141] Setting up inception_4a/output_inception_4a/output_0_split
I0403 15:16:18.993270 31387 net.cpp:148] Top shape: 24 512 14 14 (2408448)
I0403 15:16:18.993288 31387 net.cpp:148] Top shape: 24 512 14 14 (2408448)
I0403 15:16:18.993304 31387 net.cpp:148] Top shape: 24 512 14 14 (2408448)
I0403 15:16:18.993325 31387 net.cpp:148] Top shape: 24 512 14 14 (2408448)
I0403 15:16:18.993341 31387 net.cpp:148] Top shape: 24 512 14 14 (2408448)
I0403 15:16:18.993355 31387 net.cpp:156] Memory required for data: 944714784
I0403 15:16:18.993368 31387 layer_factory.hpp:77] Creating layer loss1/ave_pool
I0403 15:16:18.993386 31387 net.cpp:91] Creating Layer loss1/ave_pool
I0403 15:16:18.993401 31387 net.cpp:425] loss1/ave_pool <- inception_4a/output_inception_4a/output_0_split_0
I0403 15:16:18.993420 31387 net.cpp:399] loss1/ave_pool -> loss1/ave_pool
I0403 15:16:18.993638 31387 net.cpp:141] Setting up loss1/ave_pool
I0403 15:16:18.993665 31387 net.cpp:148] Top shape: 24 512 4 4 (196608)
I0403 15:16:18.993680 31387 net.cpp:156] Memory required for data: 945501216
I0403 15:16:18.993695 31387 layer_factory.hpp:77] Creating layer loss1/conv
I0403 15:16:18.993715 31387 net.cpp:91] Creating Layer loss1/conv
I0403 15:16:18.993731 31387 net.cpp:425] loss1/conv <- loss1/ave_pool
I0403 15:16:18.993751 31387 net.cpp:399] loss1/conv -> loss1/conv
I0403 15:16:18.995177 31387 net.cpp:141] Setting up loss1/conv
I0403 15:16:18.995210 31387 net.cpp:148] Top shape: 24 128 4 4 (49152)
I0403 15:16:18.995244 31387 net.cpp:156] Memory required for data: 945697824
I0403 15:16:18.995271 31387 layer_factory.hpp:77] Creating layer loss1/relu_conv
I0403 15:16:18.995296 31387 net.cpp:91] Creating Layer loss1/relu_conv
I0403 15:16:18.995316 31387 net.cpp:425] loss1/relu_conv <- loss1/conv
I0403 15:16:18.995342 31387 net.cpp:386] loss1/relu_conv -> loss1/conv (in-place)
I0403 15:16:18.995630 31387 net.cpp:141] Setting up loss1/relu_conv
I0403 15:16:18.995664 31387 net.cpp:148] Top shape: 24 128 4 4 (49152)
I0403 15:16:18.995685 31387 net.cpp:156] Memory required for data: 945894432
I0403 15:16:18.995705 31387 layer_factory.hpp:77] Creating layer loss1/fc
I0403 15:16:18.995734 31387 net.cpp:91] Creating Layer loss1/fc
I0403 15:16:18.995754 31387 net.cpp:425] loss1/fc <- loss1/conv
I0403 15:16:18.995774 31387 net.cpp:399] loss1/fc -> loss1/fc
I0403 15:16:19.013694 31387 net.cpp:141] Setting up loss1/fc
I0403 15:16:19.013728 31387 net.cpp:148] Top shape: 24 1024 (24576)
I0403 15:16:19.013743 31387 net.cpp:156] Memory required for data: 945992736
I0403 15:16:19.013762 31387 layer_factory.hpp:77] Creating layer loss1/relu_fc
I0403 15:16:19.013783 31387 net.cpp:91] Creating Layer loss1/relu_fc
I0403 15:16:19.013799 31387 net.cpp:425] loss1/relu_fc <- loss1/fc
I0403 15:16:19.013818 31387 net.cpp:386] loss1/relu_fc -> loss1/fc (in-place)
I0403 15:16:19.014011 31387 net.cpp:141] Setting up loss1/relu_fc
I0403 15:16:19.014035 31387 net.cpp:148] Top shape: 24 1024 (24576)
I0403 15:16:19.014050 31387 net.cpp:156] Memory required for data: 946091040
I0403 15:16:19.014065 31387 layer_factory.hpp:77] Creating layer loss1/drop_fc
I0403 15:16:19.014091 31387 net.cpp:91] Creating Layer loss1/drop_fc
I0403 15:16:19.014108 31387 net.cpp:425] loss1/drop_fc <- loss1/fc
I0403 15:16:19.014128 31387 net.cpp:386] loss1/drop_fc -> loss1/fc (in-place)
I0403 15:16:19.014183 31387 net.cpp:141] Setting up loss1/drop_fc
I0403 15:16:19.014205 31387 net.cpp:148] Top shape: 24 1024 (24576)
I0403 15:16:19.014219 31387 net.cpp:156] Memory required for data: 946189344
I0403 15:16:19.014235 31387 layer_factory.hpp:77] Creating layer loss1/classifier_plantvillage
I0403 15:16:19.014257 31387 net.cpp:91] Creating Layer loss1/classifier_plantvillage
I0403 15:16:19.014274 31387 net.cpp:425] loss1/classifier_plantvillage <- loss1/fc
I0403 15:16:19.014292 31387 net.cpp:399] loss1/classifier_plantvillage -> loss1/classifier_plantvillage
I0403 15:16:19.015208 31387 net.cpp:141] Setting up loss1/classifier_plantvillage
I0403 15:16:19.015239 31387 net.cpp:148] Top shape: 24 38 (912)
I0403 15:16:19.015254 31387 net.cpp:156] Memory required for data: 946192992
I0403 15:16:19.015272 31387 layer_factory.hpp:77] Creating layer loss1/classifier_plantvillage_loss1/classifier_plantvillage_0_split
I0403 15:16:19.015291 31387 net.cpp:91] Creating Layer loss1/classifier_plantvillage_loss1/classifier_plantvillage_0_split
I0403 15:16:19.015307 31387 net.cpp:425] loss1/classifier_plantvillage_loss1/classifier_plantvillage_0_split <- loss1/classifier_plantvillage
I0403 15:16:19.015326 31387 net.cpp:399] loss1/classifier_plantvillage_loss1/classifier_plantvillage_0_split -> loss1/classifier_plantvillage_loss1/classifier_plantvillage_0_split_0
I0403 15:16:19.015348 31387 net.cpp:399] loss1/classifier_plantvillage_loss1/classifier_plantvillage_0_split -> loss1/classifier_plantvillage_loss1/classifier_plantvillage_0_split_1
I0403 15:16:19.015369 31387 net.cpp:399] loss1/classifier_plantvillage_loss1/classifier_plantvillage_0_split -> loss1/classifier_plantvillage_loss1/classifier_plantvillage_0_split_2
I0403 15:16:19.015436 31387 net.cpp:141] Setting up loss1/classifier_plantvillage_loss1/classifier_plantvillage_0_split
I0403 15:16:19.015458 31387 net.cpp:148] Top shape: 24 38 (912)
I0403 15:16:19.015475 31387 net.cpp:148] Top shape: 24 38 (912)
I0403 15:16:19.015491 31387 net.cpp:148] Top shape: 24 38 (912)
I0403 15:16:19.015508 31387 net.cpp:156] Memory required for data: 946203936
I0403 15:16:19.015523 31387 layer_factory.hpp:77] Creating layer inception_4b/1x1
I0403 15:16:19.015549 31387 net.cpp:91] Creating Layer inception_4b/1x1
I0403 15:16:19.015583 31387 net.cpp:425] inception_4b/1x1 <- inception_4a/output_inception_4a/output_0_split_1
I0403 15:16:19.015604 31387 net.cpp:399] inception_4b/1x1 -> inception_4b/1x1
I0403 15:16:19.017441 31387 net.cpp:141] Setting up inception_4b/1x1
I0403 15:16:19.017468 31387 net.cpp:148] Top shape: 24 160 14 14 (752640)
I0403 15:16:19.017484 31387 net.cpp:156] Memory required for data: 949214496
I0403 15:16:19.017508 31387 layer_factory.hpp:77] Creating layer inception_4b/relu_1x1
I0403 15:16:19.017526 31387 net.cpp:91] Creating Layer inception_4b/relu_1x1
I0403 15:16:19.017542 31387 net.cpp:425] inception_4b/relu_1x1 <- inception_4b/1x1
I0403 15:16:19.017562 31387 net.cpp:386] inception_4b/relu_1x1 -> inception_4b/1x1 (in-place)
I0403 15:16:19.017747 31387 net.cpp:141] Setting up inception_4b/relu_1x1
I0403 15:16:19.017772 31387 net.cpp:148] Top shape: 24 160 14 14 (752640)
I0403 15:16:19.017787 31387 net.cpp:156] Memory required for data: 952225056
I0403 15:16:19.017802 31387 layer_factory.hpp:77] Creating layer inception_4b/3x3_reduce
I0403 15:16:19.017830 31387 net.cpp:91] Creating Layer inception_4b/3x3_reduce
I0403 15:16:19.017848 31387 net.cpp:425] inception_4b/3x3_reduce <- inception_4a/output_inception_4a/output_0_split_2
I0403 15:16:19.017868 31387 net.cpp:399] inception_4b/3x3_reduce -> inception_4b/3x3_reduce
I0403 15:16:19.019237 31387 net.cpp:141] Setting up inception_4b/3x3_reduce
I0403 15:16:19.019264 31387 net.cpp:148] Top shape: 24 112 14 14 (526848)
I0403 15:16:19.019280 31387 net.cpp:156] Memory required for data: 954332448
I0403 15:16:19.019299 31387 layer_factory.hpp:77] Creating layer inception_4b/relu_3x3_reduce
I0403 15:16:19.019320 31387 net.cpp:91] Creating Layer inception_4b/relu_3x3_reduce
I0403 15:16:19.019336 31387 net.cpp:425] inception_4b/relu_3x3_reduce <- inception_4b/3x3_reduce
I0403 15:16:19.019354 31387 net.cpp:386] inception_4b/relu_3x3_reduce -> inception_4b/3x3_reduce (in-place)
I0403 15:16:19.019644 31387 net.cpp:141] Setting up inception_4b/relu_3x3_reduce
I0403 15:16:19.019670 31387 net.cpp:148] Top shape: 24 112 14 14 (526848)
I0403 15:16:19.019686 31387 net.cpp:156] Memory required for data: 956439840
I0403 15:16:19.019701 31387 layer_factory.hpp:77] Creating layer inception_4b/3x3
I0403 15:16:19.019723 31387 net.cpp:91] Creating Layer inception_4b/3x3
I0403 15:16:19.019742 31387 net.cpp:425] inception_4b/3x3 <- inception_4b/3x3_reduce
I0403 15:16:19.019762 31387 net.cpp:399] inception_4b/3x3 -> inception_4b/3x3
I0403 15:16:19.022784 31387 net.cpp:141] Setting up inception_4b/3x3
I0403 15:16:19.022812 31387 net.cpp:148] Top shape: 24 224 14 14 (1053696)
I0403 15:16:19.022828 31387 net.cpp:156] Memory required for data: 960654624
I0403 15:16:19.022850 31387 layer_factory.hpp:77] Creating layer inception_4b/relu_3x3
I0403 15:16:19.022867 31387 net.cpp:91] Creating Layer inception_4b/relu_3x3
I0403 15:16:19.022883 31387 net.cpp:425] inception_4b/relu_3x3 <- inception_4b/3x3
I0403 15:16:19.022900 31387 net.cpp:386] inception_4b/relu_3x3 -> inception_4b/3x3 (in-place)
I0403 15:16:19.023089 31387 net.cpp:141] Setting up inception_4b/relu_3x3
I0403 15:16:19.023114 31387 net.cpp:148] Top shape: 24 224 14 14 (1053696)
I0403 15:16:19.023128 31387 net.cpp:156] Memory required for data: 964869408
I0403 15:16:19.023144 31387 layer_factory.hpp:77] Creating layer inception_4b/5x5_reduce
I0403 15:16:19.023165 31387 net.cpp:91] Creating Layer inception_4b/5x5_reduce
I0403 15:16:19.023182 31387 net.cpp:425] inception_4b/5x5_reduce <- inception_4a/output_inception_4a/output_0_split_3
I0403 15:16:19.023205 31387 net.cpp:399] inception_4b/5x5_reduce -> inception_4b/5x5_reduce
I0403 15:16:19.024314 31387 net.cpp:141] Setting up inception_4b/5x5_reduce
I0403 15:16:19.024341 31387 net.cpp:148] Top shape: 24 24 14 14 (112896)
I0403 15:16:19.024358 31387 net.cpp:156] Memory required for data: 965320992
I0403 15:16:19.024376 31387 layer_factory.hpp:77] Creating layer inception_4b/relu_5x5_reduce
I0403 15:16:19.024395 31387 net.cpp:91] Creating Layer inception_4b/relu_5x5_reduce
I0403 15:16:19.024425 31387 net.cpp:425] inception_4b/relu_5x5_reduce <- inception_4b/5x5_reduce
I0403 15:16:19.024446 31387 net.cpp:386] inception_4b/relu_5x5_reduce -> inception_4b/5x5_reduce (in-place)
I0403 15:16:19.024646 31387 net.cpp:141] Setting up inception_4b/relu_5x5_reduce
I0403 15:16:19.024670 31387 net.cpp:148] Top shape: 24 24 14 14 (112896)
I0403 15:16:19.024685 31387 net.cpp:156] Memory required for data: 965772576
I0403 15:16:19.024700 31387 layer_factory.hpp:77] Creating layer inception_4b/5x5
I0403 15:16:19.024725 31387 net.cpp:91] Creating Layer inception_4b/5x5
I0403 15:16:19.024744 31387 net.cpp:425] inception_4b/5x5 <- inception_4b/5x5_reduce
I0403 15:16:19.024765 31387 net.cpp:399] inception_4b/5x5 -> inception_4b/5x5
I0403 15:16:19.026017 31387 net.cpp:141] Setting up inception_4b/5x5
I0403 15:16:19.026044 31387 net.cpp:148] Top shape: 24 64 14 14 (301056)
I0403 15:16:19.026060 31387 net.cpp:156] Memory required for data: 966976800
I0403 15:16:19.026078 31387 layer_factory.hpp:77] Creating layer inception_4b/relu_5x5
I0403 15:16:19.026096 31387 net.cpp:91] Creating Layer inception_4b/relu_5x5
I0403 15:16:19.026113 31387 net.cpp:425] inception_4b/relu_5x5 <- inception_4b/5x5
I0403 15:16:19.026132 31387 net.cpp:386] inception_4b/relu_5x5 -> inception_4b/5x5 (in-place)
I0403 15:16:19.026422 31387 net.cpp:141] Setting up inception_4b/relu_5x5
I0403 15:16:19.026448 31387 net.cpp:148] Top shape: 24 64 14 14 (301056)
I0403 15:16:19.026464 31387 net.cpp:156] Memory required for data: 968181024
I0403 15:16:19.026479 31387 layer_factory.hpp:77] Creating layer inception_4b/pool
I0403 15:16:19.026497 31387 net.cpp:91] Creating Layer inception_4b/pool
I0403 15:16:19.026517 31387 net.cpp:425] inception_4b/pool <- inception_4a/output_inception_4a/output_0_split_4
I0403 15:16:19.026538 31387 net.cpp:399] inception_4b/pool -> inception_4b/pool
I0403 15:16:19.026605 31387 net.cpp:141] Setting up inception_4b/pool
I0403 15:16:19.026631 31387 net.cpp:148] Top shape: 24 512 14 14 (2408448)
I0403 15:16:19.026646 31387 net.cpp:156] Memory required for data: 977814816
I0403 15:16:19.026661 31387 layer_factory.hpp:77] Creating layer inception_4b/pool_proj
I0403 15:16:19.026682 31387 net.cpp:91] Creating Layer inception_4b/pool_proj
I0403 15:16:19.026700 31387 net.cpp:425] inception_4b/pool_proj <- inception_4b/pool
I0403 15:16:19.026720 31387 net.cpp:399] inception_4b/pool_proj -> inception_4b/pool_proj
I0403 15:16:19.027942 31387 net.cpp:141] Setting up inception_4b/pool_proj
I0403 15:16:19.027969 31387 net.cpp:148] Top shape: 24 64 14 14 (301056)
I0403 15:16:19.027986 31387 net.cpp:156] Memory required for data: 979019040
I0403 15:16:19.028004 31387 layer_factory.hpp:77] Creating layer inception_4b/relu_pool_proj
I0403 15:16:19.028024 31387 net.cpp:91] Creating Layer inception_4b/relu_pool_proj
I0403 15:16:19.028040 31387 net.cpp:425] inception_4b/relu_pool_proj <- inception_4b/pool_proj
I0403 15:16:19.028058 31387 net.cpp:386] inception_4b/relu_pool_proj -> inception_4b/pool_proj (in-place)
I0403 15:16:19.028240 31387 net.cpp:141] Setting up inception_4b/relu_pool_proj
I0403 15:16:19.028264 31387 net.cpp:148] Top shape: 24 64 14 14 (301056)
I0403 15:16:19.028278 31387 net.cpp:156] Memory required for data: 980223264
I0403 15:16:19.028293 31387 layer_factory.hpp:77] Creating layer inception_4b/output
I0403 15:16:19.028312 31387 net.cpp:91] Creating Layer inception_4b/output
I0403 15:16:19.028329 31387 net.cpp:425] inception_4b/output <- inception_4b/1x1
I0403 15:16:19.028345 31387 net.cpp:425] inception_4b/output <- inception_4b/3x3
I0403 15:16:19.028362 31387 net.cpp:425] inception_4b/output <- inception_4b/5x5
I0403 15:16:19.028378 31387 net.cpp:425] inception_4b/output <- inception_4b/pool_proj
I0403 15:16:19.028394 31387 net.cpp:399] inception_4b/output -> inception_4b/output
I0403 15:16:19.028445 31387 net.cpp:141] Setting up inception_4b/output
I0403 15:16:19.028466 31387 net.cpp:148] Top shape: 24 512 14 14 (2408448)
I0403 15:16:19.028481 31387 net.cpp:156] Memory required for data: 989857056
I0403 15:16:19.028512 31387 layer_factory.hpp:77] Creating layer inception_4b/output_inception_4b/output_0_split
I0403 15:16:19.028532 31387 net.cpp:91] Creating Layer inception_4b/output_inception_4b/output_0_split
I0403 15:16:19.028548 31387 net.cpp:425] inception_4b/output_inception_4b/output_0_split <- inception_4b/output
I0403 15:16:19.028568 31387 net.cpp:399] inception_4b/output_inception_4b/output_0_split -> inception_4b/output_inception_4b/output_0_split_0
I0403 15:16:19.028587 31387 net.cpp:399] inception_4b/output_inception_4b/output_0_split -> inception_4b/output_inception_4b/output_0_split_1
I0403 15:16:19.028607 31387 net.cpp:399] inception_4b/output_inception_4b/output_0_split -> inception_4b/output_inception_4b/output_0_split_2
I0403 15:16:19.028627 31387 net.cpp:399] inception_4b/output_inception_4b/output_0_split -> inception_4b/output_inception_4b/output_0_split_3
I0403 15:16:19.028713 31387 net.cpp:141] Setting up inception_4b/output_inception_4b/output_0_split
I0403 15:16:19.028738 31387 net.cpp:148] Top shape: 24 512 14 14 (2408448)
I0403 15:16:19.028754 31387 net.cpp:148] Top shape: 24 512 14 14 (2408448)
I0403 15:16:19.028769 31387 net.cpp:148] Top shape: 24 512 14 14 (2408448)
I0403 15:16:19.028785 31387 net.cpp:148] Top shape: 24 512 14 14 (2408448)
I0403 15:16:19.028800 31387 net.cpp:156] Memory required for data: 1028392224
I0403 15:16:19.028813 31387 layer_factory.hpp:77] Creating layer inception_4c/1x1
I0403 15:16:19.028836 31387 net.cpp:91] Creating Layer inception_4c/1x1
I0403 15:16:19.028853 31387 net.cpp:425] inception_4c/1x1 <- inception_4b/output_inception_4b/output_0_split_0
I0403 15:16:19.028872 31387 net.cpp:399] inception_4c/1x1 -> inception_4c/1x1
I0403 15:16:19.030320 31387 net.cpp:141] Setting up inception_4c/1x1
I0403 15:16:19.030349 31387 net.cpp:148] Top shape: 24 128 14 14 (602112)
I0403 15:16:19.030364 31387 net.cpp:156] Memory required for data: 1030800672
I0403 15:16:19.030381 31387 layer_factory.hpp:77] Creating layer inception_4c/relu_1x1
I0403 15:16:19.030402 31387 net.cpp:91] Creating Layer inception_4c/relu_1x1
I0403 15:16:19.030419 31387 net.cpp:425] inception_4c/relu_1x1 <- inception_4c/1x1
I0403 15:16:19.030437 31387 net.cpp:386] inception_4c/relu_1x1 -> inception_4c/1x1 (in-place)
I0403 15:16:19.030627 31387 net.cpp:141] Setting up inception_4c/relu_1x1
I0403 15:16:19.030650 31387 net.cpp:148] Top shape: 24 128 14 14 (602112)
I0403 15:16:19.030665 31387 net.cpp:156] Memory required for data: 1033209120
I0403 15:16:19.030680 31387 layer_factory.hpp:77] Creating layer inception_4c/3x3_reduce
I0403 15:16:19.030702 31387 net.cpp:91] Creating Layer inception_4c/3x3_reduce
I0403 15:16:19.030720 31387 net.cpp:425] inception_4c/3x3_reduce <- inception_4b/output_inception_4b/output_0_split_1
I0403 15:16:19.030741 31387 net.cpp:399] inception_4c/3x3_reduce -> inception_4c/3x3_reduce
I0403 15:16:19.032701 31387 net.cpp:141] Setting up inception_4c/3x3_reduce
I0403 15:16:19.032730 31387 net.cpp:148] Top shape: 24 128 14 14 (602112)
I0403 15:16:19.032747 31387 net.cpp:156] Memory required for data: 1035617568
I0403 15:16:19.032764 31387 layer_factory.hpp:77] Creating layer inception_4c/relu_3x3_reduce
I0403 15:16:19.032783 31387 net.cpp:91] Creating Layer inception_4c/relu_3x3_reduce
I0403 15:16:19.032799 31387 net.cpp:425] inception_4c/relu_3x3_reduce <- inception_4c/3x3_reduce
I0403 15:16:19.032819 31387 net.cpp:386] inception_4c/relu_3x3_reduce -> inception_4c/3x3_reduce (in-place)
I0403 15:16:19.033107 31387 net.cpp:141] Setting up inception_4c/relu_3x3_reduce
I0403 15:16:19.033133 31387 net.cpp:148] Top shape: 24 128 14 14 (602112)
I0403 15:16:19.033149 31387 net.cpp:156] Memory required for data: 1038026016
I0403 15:16:19.033164 31387 layer_factory.hpp:77] Creating layer inception_4c/3x3
I0403 15:16:19.033188 31387 net.cpp:91] Creating Layer inception_4c/3x3
I0403 15:16:19.033206 31387 net.cpp:425] inception_4c/3x3 <- inception_4c/3x3_reduce
I0403 15:16:19.033228 31387 net.cpp:399] inception_4c/3x3 -> inception_4c/3x3
I0403 15:16:19.036898 31387 net.cpp:141] Setting up inception_4c/3x3
I0403 15:16:19.036941 31387 net.cpp:148] Top shape: 24 256 14 14 (1204224)
I0403 15:16:19.036957 31387 net.cpp:156] Memory required for data: 1042842912
I0403 15:16:19.036989 31387 layer_factory.hpp:77] Creating layer inception_4c/relu_3x3
I0403 15:16:19.037012 31387 net.cpp:91] Creating Layer inception_4c/relu_3x3
I0403 15:16:19.037030 31387 net.cpp:425] inception_4c/relu_3x3 <- inception_4c/3x3
I0403 15:16:19.037047 31387 net.cpp:386] inception_4c/relu_3x3 -> inception_4c/3x3 (in-place)
I0403 15:16:19.037232 31387 net.cpp:141] Setting up inception_4c/relu_3x3
I0403 15:16:19.037257 31387 net.cpp:148] Top shape: 24 256 14 14 (1204224)
I0403 15:16:19.037272 31387 net.cpp:156] Memory required for data: 1047659808
I0403 15:16:19.037287 31387 layer_factory.hpp:77] Creating layer inception_4c/5x5_reduce
I0403 15:16:19.037310 31387 net.cpp:91] Creating Layer inception_4c/5x5_reduce
I0403 15:16:19.037328 31387 net.cpp:425] inception_4c/5x5_reduce <- inception_4b/output_inception_4b/output_0_split_2
I0403 15:16:19.037349 31387 net.cpp:399] inception_4c/5x5_reduce -> inception_4c/5x5_reduce
I0403 15:16:19.038555 31387 net.cpp:141] Setting up inception_4c/5x5_reduce
I0403 15:16:19.038585 31387 net.cpp:148] Top shape: 24 24 14 14 (112896)
I0403 15:16:19.038601 31387 net.cpp:156] Memory required for data: 1048111392
I0403 15:16:19.038620 31387 layer_factory.hpp:77] Creating layer inception_4c/relu_5x5_reduce
I0403 15:16:19.038640 31387 net.cpp:91] Creating Layer inception_4c/relu_5x5_reduce
I0403 15:16:19.038656 31387 net.cpp:425] inception_4c/relu_5x5_reduce <- inception_4c/5x5_reduce
I0403 15:16:19.038676 31387 net.cpp:386] inception_4c/relu_5x5_reduce -> inception_4c/5x5_reduce (in-place)
I0403 15:16:19.038867 31387 net.cpp:141] Setting up inception_4c/relu_5x5_reduce
I0403 15:16:19.038892 31387 net.cpp:148] Top shape: 24 24 14 14 (112896)
I0403 15:16:19.038908 31387 net.cpp:156] Memory required for data: 1048562976
I0403 15:16:19.038923 31387 layer_factory.hpp:77] Creating layer inception_4c/5x5
I0403 15:16:19.038945 31387 net.cpp:91] Creating Layer inception_4c/5x5
I0403 15:16:19.038962 31387 net.cpp:425] inception_4c/5x5 <- inception_4c/5x5_reduce
I0403 15:16:19.038983 31387 net.cpp:399] inception_4c/5x5 -> inception_4c/5x5
I0403 15:16:19.040244 31387 net.cpp:141] Setting up inception_4c/5x5
I0403 15:16:19.040272 31387 net.cpp:148] Top shape: 24 64 14 14 (301056)
I0403 15:16:19.040287 31387 net.cpp:156] Memory required for data: 1049767200
I0403 15:16:19.040305 31387 layer_factory.hpp:77] Creating layer inception_4c/relu_5x5
I0403 15:16:19.040326 31387 net.cpp:91] Creating Layer inception_4c/relu_5x5
I0403 15:16:19.040343 31387 net.cpp:425] inception_4c/relu_5x5 <- inception_4c/5x5
I0403 15:16:19.040361 31387 net.cpp:386] inception_4c/relu_5x5 -> inception_4c/5x5 (in-place)
I0403 15:16:19.040662 31387 net.cpp:141] Setting up inception_4c/relu_5x5
I0403 15:16:19.040686 31387 net.cpp:148] Top shape: 24 64 14 14 (301056)
I0403 15:16:19.040702 31387 net.cpp:156] Memory required for data: 1050971424
I0403 15:16:19.040717 31387 layer_factory.hpp:77] Creating layer inception_4c/pool
I0403 15:16:19.040737 31387 net.cpp:91] Creating Layer inception_4c/pool
I0403 15:16:19.040755 31387 net.cpp:425] inception_4c/pool <- inception_4b/output_inception_4b/output_0_split_3
I0403 15:16:19.040773 31387 net.cpp:399] inception_4c/pool -> inception_4c/pool
I0403 15:16:19.040840 31387 net.cpp:141] Setting up inception_4c/pool
I0403 15:16:19.040863 31387 net.cpp:148] Top shape: 24 512 14 14 (2408448)
I0403 15:16:19.040879 31387 net.cpp:156] Memory required for data: 1060605216
I0403 15:16:19.040894 31387 layer_factory.hpp:77] Creating layer inception_4c/pool_proj
I0403 15:16:19.040917 31387 net.cpp:91] Creating Layer inception_4c/pool_proj
I0403 15:16:19.040935 31387 net.cpp:425] inception_4c/pool_proj <- inception_4c/pool
I0403 15:16:19.040956 31387 net.cpp:399] inception_4c/pool_proj -> inception_4c/pool_proj
I0403 15:16:19.042202 31387 net.cpp:141] Setting up inception_4c/pool_proj
I0403 15:16:19.042230 31387 net.cpp:148] Top shape: 24 64 14 14 (301056)
I0403 15:16:19.042260 31387 net.cpp:156] Memory required for data: 1061809440
I0403 15:16:19.042280 31387 layer_factory.hpp:77] Creating layer inception_4c/relu_pool_proj
I0403 15:16:19.042301 31387 net.cpp:91] Creating Layer inception_4c/relu_pool_proj
I0403 15:16:19.042318 31387 net.cpp:425] inception_4c/relu_pool_proj <- inception_4c/pool_proj
I0403 15:16:19.042336 31387 net.cpp:386] inception_4c/relu_pool_proj -> inception_4c/pool_proj (in-place)
I0403 15:16:19.042526 31387 net.cpp:141] Setting up inception_4c/relu_pool_proj
I0403 15:16:19.042551 31387 net.cpp:148] Top shape: 24 64 14 14 (301056)
I0403 15:16:19.042565 31387 net.cpp:156] Memory required for data: 1063013664
I0403 15:16:19.042580 31387 layer_factory.hpp:77] Creating layer inception_4c/output
I0403 15:16:19.042600 31387 net.cpp:91] Creating Layer inception_4c/output
I0403 15:16:19.042618 31387 net.cpp:425] inception_4c/output <- inception_4c/1x1
I0403 15:16:19.042634 31387 net.cpp:425] inception_4c/output <- inception_4c/3x3
I0403 15:16:19.042651 31387 net.cpp:425] inception_4c/output <- inception_4c/5x5
I0403 15:16:19.042667 31387 net.cpp:425] inception_4c/output <- inception_4c/pool_proj
I0403 15:16:19.042685 31387 net.cpp:399] inception_4c/output -> inception_4c/output
I0403 15:16:19.042732 31387 net.cpp:141] Setting up inception_4c/output
I0403 15:16:19.042755 31387 net.cpp:148] Top shape: 24 512 14 14 (2408448)
I0403 15:16:19.042769 31387 net.cpp:156] Memory required for data: 1072647456
I0403 15:16:19.042785 31387 layer_factory.hpp:77] Creating layer inception_4c/output_inception_4c/output_0_split
I0403 15:16:19.042803 31387 net.cpp:91] Creating Layer inception_4c/output_inception_4c/output_0_split
I0403 15:16:19.042819 31387 net.cpp:425] inception_4c/output_inception_4c/output_0_split <- inception_4c/output
I0403 15:16:19.042837 31387 net.cpp:399] inception_4c/output_inception_4c/output_0_split -> inception_4c/output_inception_4c/output_0_split_0
I0403 15:16:19.042858 31387 net.cpp:399] inception_4c/output_inception_4c/output_0_split -> inception_4c/output_inception_4c/output_0_split_1
I0403 15:16:19.042878 31387 net.cpp:399] inception_4c/output_inception_4c/output_0_split -> inception_4c/output_inception_4c/output_0_split_2
I0403 15:16:19.042899 31387 net.cpp:399] inception_4c/output_inception_4c/output_0_split -> inception_4c/output_inception_4c/output_0_split_3
I0403 15:16:19.042989 31387 net.cpp:141] Setting up inception_4c/output_inception_4c/output_0_split
I0403 15:16:19.043015 31387 net.cpp:148] Top shape: 24 512 14 14 (2408448)
I0403 15:16:19.043031 31387 net.cpp:148] Top shape: 24 512 14 14 (2408448)
I0403 15:16:19.043046 31387 net.cpp:148] Top shape: 24 512 14 14 (2408448)
I0403 15:16:19.043062 31387 net.cpp:148] Top shape: 24 512 14 14 (2408448)
I0403 15:16:19.043076 31387 net.cpp:156] Memory required for data: 1111182624
I0403 15:16:19.043092 31387 layer_factory.hpp:77] Creating layer inception_4d/1x1
I0403 15:16:19.043115 31387 net.cpp:91] Creating Layer inception_4d/1x1
I0403 15:16:19.043140 31387 net.cpp:425] inception_4d/1x1 <- inception_4c/output_inception_4c/output_0_split_0
I0403 15:16:19.043160 31387 net.cpp:399] inception_4d/1x1 -> inception_4d/1x1
I0403 15:16:19.044615 31387 net.cpp:141] Setting up inception_4d/1x1
I0403 15:16:19.044646 31387 net.cpp:148] Top shape: 24 112 14 14 (526848)
I0403 15:16:19.044661 31387 net.cpp:156] Memory required for data: 1113290016
I0403 15:16:19.044687 31387 layer_factory.hpp:77] Creating layer inception_4d/relu_1x1
I0403 15:16:19.044705 31387 net.cpp:91] Creating Layer inception_4d/relu_1x1
I0403 15:16:19.044721 31387 net.cpp:425] inception_4d/relu_1x1 <- inception_4d/1x1
I0403 15:16:19.044740 31387 net.cpp:386] inception_4d/relu_1x1 -> inception_4d/1x1 (in-place)
I0403 15:16:19.044927 31387 net.cpp:141] Setting up inception_4d/relu_1x1
I0403 15:16:19.044952 31387 net.cpp:148] Top shape: 24 112 14 14 (526848)
I0403 15:16:19.044967 31387 net.cpp:156] Memory required for data: 1115397408
I0403 15:16:19.044981 31387 layer_factory.hpp:77] Creating layer inception_4d/3x3_reduce
I0403 15:16:19.045017 31387 net.cpp:91] Creating Layer inception_4d/3x3_reduce
I0403 15:16:19.045037 31387 net.cpp:425] inception_4d/3x3_reduce <- inception_4c/output_inception_4c/output_0_split_1
I0403 15:16:19.045058 31387 net.cpp:399] inception_4d/3x3_reduce -> inception_4d/3x3_reduce
I0403 15:16:19.046604 31387 net.cpp:141] Setting up inception_4d/3x3_reduce
I0403 15:16:19.046632 31387 net.cpp:148] Top shape: 24 144 14 14 (677376)
I0403 15:16:19.046650 31387 net.cpp:156] Memory required for data: 1118106912
I0403 15:16:19.046669 31387 layer_factory.hpp:77] Creating layer inception_4d/relu_3x3_reduce
I0403 15:16:19.046689 31387 net.cpp:91] Creating Layer inception_4d/relu_3x3_reduce
I0403 15:16:19.046705 31387 net.cpp:425] inception_4d/relu_3x3_reduce <- inception_4d/3x3_reduce
I0403 15:16:19.046721 31387 net.cpp:386] inception_4d/relu_3x3_reduce -> inception_4d/3x3_reduce (in-place)
I0403 15:16:19.047019 31387 net.cpp:141] Setting up inception_4d/relu_3x3_reduce
I0403 15:16:19.047044 31387 net.cpp:148] Top shape: 24 144 14 14 (677376)
I0403 15:16:19.047070 31387 net.cpp:156] Memory required for data: 1120816416
I0403 15:16:19.047086 31387 layer_factory.hpp:77] Creating layer inception_4d/3x3
I0403 15:16:19.047106 31387 net.cpp:91] Creating Layer inception_4d/3x3
I0403 15:16:19.047123 31387 net.cpp:425] inception_4d/3x3 <- inception_4d/3x3_reduce
I0403 15:16:19.047144 31387 net.cpp:399] inception_4d/3x3 -> inception_4d/3x3
I0403 15:16:19.051443 31387 net.cpp:141] Setting up inception_4d/3x3
I0403 15:16:19.051475 31387 net.cpp:148] Top shape: 24 288 14 14 (1354752)
I0403 15:16:19.051491 31387 net.cpp:156] Memory required for data: 1126235424
I0403 15:16:19.051513 31387 layer_factory.hpp:77] Creating layer inception_4d/relu_3x3
I0403 15:16:19.051532 31387 net.cpp:91] Creating Layer inception_4d/relu_3x3
I0403 15:16:19.051548 31387 net.cpp:425] inception_4d/relu_3x3 <- inception_4d/3x3
I0403 15:16:19.051568 31387 net.cpp:386] inception_4d/relu_3x3 -> inception_4d/3x3 (in-place)
I0403 15:16:19.051760 31387 net.cpp:141] Setting up inception_4d/relu_3x3
I0403 15:16:19.051785 31387 net.cpp:148] Top shape: 24 288 14 14 (1354752)
I0403 15:16:19.051800 31387 net.cpp:156] Memory required for data: 1131654432
I0403 15:16:19.051815 31387 layer_factory.hpp:77] Creating layer inception_4d/5x5_reduce
I0403 15:16:19.051838 31387 net.cpp:91] Creating Layer inception_4d/5x5_reduce
I0403 15:16:19.051856 31387 net.cpp:425] inception_4d/5x5_reduce <- inception_4c/output_inception_4c/output_0_split_2
I0403 15:16:19.051878 31387 net.cpp:399] inception_4d/5x5_reduce -> inception_4d/5x5_reduce
I0403 15:16:19.053048 31387 net.cpp:141] Setting up inception_4d/5x5_reduce
I0403 15:16:19.053077 31387 net.cpp:148] Top shape: 24 32 14 14 (150528)
I0403 15:16:19.053094 31387 net.cpp:156] Memory required for data: 1132256544
I0403 15:16:19.053113 31387 layer_factory.hpp:77] Creating layer inception_4d/relu_5x5_reduce
I0403 15:16:19.053131 31387 net.cpp:91] Creating Layer inception_4d/relu_5x5_reduce
I0403 15:16:19.053148 31387 net.cpp:425] inception_4d/relu_5x5_reduce <- inception_4d/5x5_reduce
I0403 15:16:19.053166 31387 net.cpp:386] inception_4d/relu_5x5_reduce -> inception_4d/5x5_reduce (in-place)
I0403 15:16:19.053357 31387 net.cpp:141] Setting up inception_4d/relu_5x5_reduce
I0403 15:16:19.053381 31387 net.cpp:148] Top shape: 24 32 14 14 (150528)
I0403 15:16:19.053396 31387 net.cpp:156] Memory required for data: 1132858656
I0403 15:16:19.053411 31387 layer_factory.hpp:77] Creating layer inception_4d/5x5
I0403 15:16:19.053434 31387 net.cpp:91] Creating Layer inception_4d/5x5
I0403 15:16:19.053452 31387 net.cpp:425] inception_4d/5x5 <- inception_4d/5x5_reduce
I0403 15:16:19.053472 31387 net.cpp:399] inception_4d/5x5 -> inception_4d/5x5
I0403 15:16:19.055006 31387 net.cpp:141] Setting up inception_4d/5x5
I0403 15:16:19.055034 31387 net.cpp:148] Top shape: 24 64 14 14 (301056)
I0403 15:16:19.055049 31387 net.cpp:156] Memory required for data: 1134062880
I0403 15:16:19.055068 31387 layer_factory.hpp:77] Creating layer inception_4d/relu_5x5
I0403 15:16:19.055104 31387 net.cpp:91] Creating Layer inception_4d/relu_5x5
I0403 15:16:19.055121 31387 net.cpp:425] inception_4d/relu_5x5 <- inception_4d/5x5
I0403 15:16:19.055140 31387 net.cpp:386] inception_4d/relu_5x5 -> inception_4d/5x5 (in-place)
I0403 15:16:19.055446 31387 net.cpp:141] Setting up inception_4d/relu_5x5
I0403 15:16:19.055472 31387 net.cpp:148] Top shape: 24 64 14 14 (301056)
I0403 15:16:19.055488 31387 net.cpp:156] Memory required for data: 1135267104
I0403 15:16:19.055507 31387 layer_factory.hpp:77] Creating layer inception_4d/pool
I0403 15:16:19.055526 31387 net.cpp:91] Creating Layer inception_4d/pool
I0403 15:16:19.055542 31387 net.cpp:425] inception_4d/pool <- inception_4c/output_inception_4c/output_0_split_3
I0403 15:16:19.055567 31387 net.cpp:399] inception_4d/pool -> inception_4d/pool
I0403 15:16:19.055636 31387 net.cpp:141] Setting up inception_4d/pool
I0403 15:16:19.055660 31387 net.cpp:148] Top shape: 24 512 14 14 (2408448)
I0403 15:16:19.055675 31387 net.cpp:156] Memory required for data: 1144900896
I0403 15:16:19.055690 31387 layer_factory.hpp:77] Creating layer inception_4d/pool_proj
I0403 15:16:19.055711 31387 net.cpp:91] Creating Layer inception_4d/pool_proj
I0403 15:16:19.055729 31387 net.cpp:425] inception_4d/pool_proj <- inception_4d/pool
I0403 15:16:19.055750 31387 net.cpp:399] inception_4d/pool_proj -> inception_4d/pool_proj
I0403 15:16:19.057621 31387 net.cpp:141] Setting up inception_4d/pool_proj
I0403 15:16:19.057651 31387 net.cpp:148] Top shape: 24 64 14 14 (301056)
I0403 15:16:19.057667 31387 net.cpp:156] Memory required for data: 1146105120
I0403 15:16:19.057687 31387 layer_factory.hpp:77] Creating layer inception_4d/relu_pool_proj
I0403 15:16:19.057705 31387 net.cpp:91] Creating Layer inception_4d/relu_pool_proj
I0403 15:16:19.057723 31387 net.cpp:425] inception_4d/relu_pool_proj <- inception_4d/pool_proj
I0403 15:16:19.057742 31387 net.cpp:386] inception_4d/relu_pool_proj -> inception_4d/pool_proj (in-place)
I0403 15:16:19.057934 31387 net.cpp:141] Setting up inception_4d/relu_pool_proj
I0403 15:16:19.057958 31387 net.cpp:148] Top shape: 24 64 14 14 (301056)
I0403 15:16:19.057972 31387 net.cpp:156] Memory required for data: 1147309344
I0403 15:16:19.057988 31387 layer_factory.hpp:77] Creating layer inception_4d/output
I0403 15:16:19.058006 31387 net.cpp:91] Creating Layer inception_4d/output
I0403 15:16:19.058022 31387 net.cpp:425] inception_4d/output <- inception_4d/1x1
I0403 15:16:19.058039 31387 net.cpp:425] inception_4d/output <- inception_4d/3x3
I0403 15:16:19.058058 31387 net.cpp:425] inception_4d/output <- inception_4d/5x5
I0403 15:16:19.058075 31387 net.cpp:425] inception_4d/output <- inception_4d/pool_proj
I0403 15:16:19.058092 31387 net.cpp:399] inception_4d/output -> inception_4d/output
I0403 15:16:19.058138 31387 net.cpp:141] Setting up inception_4d/output
I0403 15:16:19.058164 31387 net.cpp:148] Top shape: 24 528 14 14 (2483712)
I0403 15:16:19.058181 31387 net.cpp:156] Memory required for data: 1157244192
I0403 15:16:19.058195 31387 layer_factory.hpp:77] Creating layer inception_4d/output_inception_4d/output_0_split
I0403 15:16:19.058213 31387 net.cpp:91] Creating Layer inception_4d/output_inception_4d/output_0_split
I0403 15:16:19.058228 31387 net.cpp:425] inception_4d/output_inception_4d/output_0_split <- inception_4d/output
I0403 15:16:19.058249 31387 net.cpp:399] inception_4d/output_inception_4d/output_0_split -> inception_4d/output_inception_4d/output_0_split_0
I0403 15:16:19.058270 31387 net.cpp:399] inception_4d/output_inception_4d/output_0_split -> inception_4d/output_inception_4d/output_0_split_1
I0403 15:16:19.058291 31387 net.cpp:399] inception_4d/output_inception_4d/output_0_split -> inception_4d/output_inception_4d/output_0_split_2
I0403 15:16:19.058312 31387 net.cpp:399] inception_4d/output_inception_4d/output_0_split -> inception_4d/output_inception_4d/output_0_split_3
I0403 15:16:19.058331 31387 net.cpp:399] inception_4d/output_inception_4d/output_0_split -> inception_4d/output_inception_4d/output_0_split_4
I0403 15:16:19.058436 31387 net.cpp:141] Setting up inception_4d/output_inception_4d/output_0_split
I0403 15:16:19.058472 31387 net.cpp:148] Top shape: 24 528 14 14 (2483712)
I0403 15:16:19.058495 31387 net.cpp:148] Top shape: 24 528 14 14 (2483712)
I0403 15:16:19.058517 31387 net.cpp:148] Top shape: 24 528 14 14 (2483712)
I0403 15:16:19.058534 31387 net.cpp:148] Top shape: 24 528 14 14 (2483712)
I0403 15:16:19.058550 31387 net.cpp:148] Top shape: 24 528 14 14 (2483712)
I0403 15:16:19.058564 31387 net.cpp:156] Memory required for data: 1206918432
I0403 15:16:19.058579 31387 layer_factory.hpp:77] Creating layer loss2/ave_pool
I0403 15:16:19.058598 31387 net.cpp:91] Creating Layer loss2/ave_pool
I0403 15:16:19.058614 31387 net.cpp:425] loss2/ave_pool <- inception_4d/output_inception_4d/output_0_split_0
I0403 15:16:19.058635 31387 net.cpp:399] loss2/ave_pool -> loss2/ave_pool
I0403 15:16:19.058954 31387 net.cpp:141] Setting up loss2/ave_pool
I0403 15:16:19.058979 31387 net.cpp:148] Top shape: 24 528 4 4 (202752)
I0403 15:16:19.058995 31387 net.cpp:156] Memory required for data: 1207729440
I0403 15:16:19.059010 31387 layer_factory.hpp:77] Creating layer loss2/conv
I0403 15:16:19.059033 31387 net.cpp:91] Creating Layer loss2/conv
I0403 15:16:19.059051 31387 net.cpp:425] loss2/conv <- loss2/ave_pool
I0403 15:16:19.059073 31387 net.cpp:399] loss2/conv -> loss2/conv
I0403 15:16:19.060994 31387 net.cpp:141] Setting up loss2/conv
I0403 15:16:19.061022 31387 net.cpp:148] Top shape: 24 128 4 4 (49152)
I0403 15:16:19.061038 31387 net.cpp:156] Memory required for data: 1207926048
I0403 15:16:19.061058 31387 layer_factory.hpp:77] Creating layer loss2/relu_conv
I0403 15:16:19.061079 31387 net.cpp:91] Creating Layer loss2/relu_conv
I0403 15:16:19.061096 31387 net.cpp:425] loss2/relu_conv <- loss2/conv
I0403 15:16:19.061113 31387 net.cpp:386] loss2/relu_conv -> loss2/conv (in-place)
I0403 15:16:19.061404 31387 net.cpp:141] Setting up loss2/relu_conv
I0403 15:16:19.061430 31387 net.cpp:148] Top shape: 24 128 4 4 (49152)
I0403 15:16:19.061445 31387 net.cpp:156] Memory required for data: 1208122656
I0403 15:16:19.061461 31387 layer_factory.hpp:77] Creating layer loss2/fc
I0403 15:16:19.061482 31387 net.cpp:91] Creating Layer loss2/fc
I0403 15:16:19.061499 31387 net.cpp:425] loss2/fc <- loss2/conv
I0403 15:16:19.061523 31387 net.cpp:399] loss2/fc -> loss2/fc
I0403 15:16:19.079001 31387 net.cpp:141] Setting up loss2/fc
I0403 15:16:19.079036 31387 net.cpp:148] Top shape: 24 1024 (24576)
I0403 15:16:19.079052 31387 net.cpp:156] Memory required for data: 1208220960
I0403 15:16:19.079071 31387 layer_factory.hpp:77] Creating layer loss2/relu_fc
I0403 15:16:19.079089 31387 net.cpp:91] Creating Layer loss2/relu_fc
I0403 15:16:19.079107 31387 net.cpp:425] loss2/relu_fc <- loss2/fc
I0403 15:16:19.079126 31387 net.cpp:386] loss2/relu_fc -> loss2/fc (in-place)
I0403 15:16:19.079427 31387 net.cpp:141] Setting up loss2/relu_fc
I0403 15:16:19.079452 31387 net.cpp:148] Top shape: 24 1024 (24576)
I0403 15:16:19.079466 31387 net.cpp:156] Memory required for data: 1208319264
I0403 15:16:19.079481 31387 layer_factory.hpp:77] Creating layer loss2/drop_fc
I0403 15:16:19.079499 31387 net.cpp:91] Creating Layer loss2/drop_fc
I0403 15:16:19.079520 31387 net.cpp:425] loss2/drop_fc <- loss2/fc
I0403 15:16:19.079541 31387 net.cpp:386] loss2/drop_fc -> loss2/fc (in-place)
I0403 15:16:19.079591 31387 net.cpp:141] Setting up loss2/drop_fc
I0403 15:16:19.079612 31387 net.cpp:148] Top shape: 24 1024 (24576)
I0403 15:16:19.079627 31387 net.cpp:156] Memory required for data: 1208417568
I0403 15:16:19.079641 31387 layer_factory.hpp:77] Creating layer loss2/classifier_plantvillage
I0403 15:16:19.079663 31387 net.cpp:91] Creating Layer loss2/classifier_plantvillage
I0403 15:16:19.079679 31387 net.cpp:425] loss2/classifier_plantvillage <- loss2/fc
I0403 15:16:19.079699 31387 net.cpp:399] loss2/classifier_plantvillage -> loss2/classifier_plantvillage
I0403 15:16:19.080091 31387 net.cpp:141] Setting up loss2/classifier_plantvillage
I0403 15:16:19.080117 31387 net.cpp:148] Top shape: 24 38 (912)
I0403 15:16:19.080147 31387 net.cpp:156] Memory required for data: 1208421216
I0403 15:16:19.080166 31387 layer_factory.hpp:77] Creating layer loss2/classifier_plantvillage_loss2/classifier_plantvillage_0_split
I0403 15:16:19.080184 31387 net.cpp:91] Creating Layer loss2/classifier_plantvillage_loss2/classifier_plantvillage_0_split
I0403 15:16:19.080201 31387 net.cpp:425] loss2/classifier_plantvillage_loss2/classifier_plantvillage_0_split <- loss2/classifier_plantvillage
I0403 15:16:19.080219 31387 net.cpp:399] loss2/classifier_plantvillage_loss2/classifier_plantvillage_0_split -> loss2/classifier_plantvillage_loss2/classifier_plantvillage_0_split_0
I0403 15:16:19.080238 31387 net.cpp:399] loss2/classifier_plantvillage_loss2/classifier_plantvillage_0_split -> loss2/classifier_plantvillage_loss2/classifier_plantvillage_0_split_1
I0403 15:16:19.080258 31387 net.cpp:399] loss2/classifier_plantvillage_loss2/classifier_plantvillage_0_split -> loss2/classifier_plantvillage_loss2/classifier_plantvillage_0_split_2
I0403 15:16:19.080337 31387 net.cpp:141] Setting up loss2/classifier_plantvillage_loss2/classifier_plantvillage_0_split
I0403 15:16:19.080359 31387 net.cpp:148] Top shape: 24 38 (912)
I0403 15:16:19.080375 31387 net.cpp:148] Top shape: 24 38 (912)
I0403 15:16:19.080391 31387 net.cpp:148] Top shape: 24 38 (912)
I0403 15:16:19.080404 31387 net.cpp:156] Memory required for data: 1208432160
I0403 15:16:19.080418 31387 layer_factory.hpp:77] Creating layer inception_4e/1x1
I0403 15:16:19.080438 31387 net.cpp:91] Creating Layer inception_4e/1x1
I0403 15:16:19.080454 31387 net.cpp:425] inception_4e/1x1 <- inception_4d/output_inception_4d/output_0_split_1
I0403 15:16:19.080476 31387 net.cpp:399] inception_4e/1x1 -> inception_4e/1x1
I0403 15:16:19.082336 31387 net.cpp:141] Setting up inception_4e/1x1
I0403 15:16:19.082365 31387 net.cpp:148] Top shape: 24 256 14 14 (1204224)
I0403 15:16:19.082379 31387 net.cpp:156] Memory required for data: 1213249056
I0403 15:16:19.082397 31387 layer_factory.hpp:77] Creating layer inception_4e/relu_1x1
I0403 15:16:19.082418 31387 net.cpp:91] Creating Layer inception_4e/relu_1x1
I0403 15:16:19.082435 31387 net.cpp:425] inception_4e/relu_1x1 <- inception_4e/1x1
I0403 15:16:19.082453 31387 net.cpp:386] inception_4e/relu_1x1 -> inception_4e/1x1 (in-place)
I0403 15:16:19.082752 31387 net.cpp:141] Setting up inception_4e/relu_1x1
I0403 15:16:19.082777 31387 net.cpp:148] Top shape: 24 256 14 14 (1204224)
I0403 15:16:19.082793 31387 net.cpp:156] Memory required for data: 1218065952
I0403 15:16:19.082808 31387 layer_factory.hpp:77] Creating layer inception_4e/3x3_reduce
I0403 15:16:19.082829 31387 net.cpp:91] Creating Layer inception_4e/3x3_reduce
I0403 15:16:19.082847 31387 net.cpp:425] inception_4e/3x3_reduce <- inception_4d/output_inception_4d/output_0_split_2
I0403 15:16:19.082869 31387 net.cpp:399] inception_4e/3x3_reduce -> inception_4e/3x3_reduce
I0403 15:16:19.084965 31387 net.cpp:141] Setting up inception_4e/3x3_reduce
I0403 15:16:19.084993 31387 net.cpp:148] Top shape: 24 160 14 14 (752640)
I0403 15:16:19.085010 31387 net.cpp:156] Memory required for data: 1221076512
I0403 15:16:19.085027 31387 layer_factory.hpp:77] Creating layer inception_4e/relu_3x3_reduce
I0403 15:16:19.085047 31387 net.cpp:91] Creating Layer inception_4e/relu_3x3_reduce
I0403 15:16:19.085065 31387 net.cpp:425] inception_4e/relu_3x3_reduce <- inception_4e/3x3_reduce
I0403 15:16:19.085083 31387 net.cpp:386] inception_4e/relu_3x3_reduce -> inception_4e/3x3_reduce (in-place)
I0403 15:16:19.085266 31387 net.cpp:141] Setting up inception_4e/relu_3x3_reduce
I0403 15:16:19.085291 31387 net.cpp:148] Top shape: 24 160 14 14 (752640)
I0403 15:16:19.085305 31387 net.cpp:156] Memory required for data: 1224087072
I0403 15:16:19.085320 31387 layer_factory.hpp:77] Creating layer inception_4e/3x3
I0403 15:16:19.085343 31387 net.cpp:91] Creating Layer inception_4e/3x3
I0403 15:16:19.085361 31387 net.cpp:425] inception_4e/3x3 <- inception_4e/3x3_reduce
I0403 15:16:19.085378 31387 net.cpp:399] inception_4e/3x3 -> inception_4e/3x3
I0403 15:16:19.090272 31387 net.cpp:141] Setting up inception_4e/3x3
I0403 15:16:19.090313 31387 net.cpp:148] Top shape: 24 320 14 14 (1505280)
I0403 15:16:19.090329 31387 net.cpp:156] Memory required for data: 1230108192
I0403 15:16:19.090348 31387 layer_factory.hpp:77] Creating layer inception_4e/relu_3x3
I0403 15:16:19.090368 31387 net.cpp:91] Creating Layer inception_4e/relu_3x3
I0403 15:16:19.090386 31387 net.cpp:425] inception_4e/relu_3x3 <- inception_4e/3x3
I0403 15:16:19.090404 31387 net.cpp:386] inception_4e/relu_3x3 -> inception_4e/3x3 (in-place)
I0403 15:16:19.090703 31387 net.cpp:141] Setting up inception_4e/relu_3x3
I0403 15:16:19.090731 31387 net.cpp:148] Top shape: 24 320 14 14 (1505280)
I0403 15:16:19.090747 31387 net.cpp:156] Memory required for data: 1236129312
I0403 15:16:19.090764 31387 layer_factory.hpp:77] Creating layer inception_4e/5x5_reduce
I0403 15:16:19.090786 31387 net.cpp:91] Creating Layer inception_4e/5x5_reduce
I0403 15:16:19.090803 31387 net.cpp:425] inception_4e/5x5_reduce <- inception_4d/output_inception_4d/output_0_split_3
I0403 15:16:19.090821 31387 net.cpp:399] inception_4e/5x5_reduce -> inception_4e/5x5_reduce
I0403 15:16:19.091879 31387 net.cpp:141] Setting up inception_4e/5x5_reduce
I0403 15:16:19.091907 31387 net.cpp:148] Top shape: 24 32 14 14 (150528)
I0403 15:16:19.091922 31387 net.cpp:156] Memory required for data: 1236731424
I0403 15:16:19.091940 31387 layer_factory.hpp:77] Creating layer inception_4e/relu_5x5_reduce
I0403 15:16:19.091964 31387 net.cpp:91] Creating Layer inception_4e/relu_5x5_reduce
I0403 15:16:19.091981 31387 net.cpp:425] inception_4e/relu_5x5_reduce <- inception_4e/5x5_reduce
I0403 15:16:19.091998 31387 net.cpp:386] inception_4e/relu_5x5_reduce -> inception_4e/5x5_reduce (in-place)
I0403 15:16:19.092299 31387 net.cpp:141] Setting up inception_4e/relu_5x5_reduce
I0403 15:16:19.092324 31387 net.cpp:148] Top shape: 24 32 14 14 (150528)
I0403 15:16:19.092339 31387 net.cpp:156] Memory required for data: 1237333536
I0403 15:16:19.092355 31387 layer_factory.hpp:77] Creating layer inception_4e/5x5
I0403 15:16:19.092391 31387 net.cpp:91] Creating Layer inception_4e/5x5
I0403 15:16:19.092409 31387 net.cpp:425] inception_4e/5x5 <- inception_4e/5x5_reduce
I0403 15:16:19.092428 31387 net.cpp:399] inception_4e/5x5 -> inception_4e/5x5
I0403 15:16:19.094403 31387 net.cpp:141] Setting up inception_4e/5x5
I0403 15:16:19.094431 31387 net.cpp:148] Top shape: 24 128 14 14 (602112)
I0403 15:16:19.094446 31387 net.cpp:156] Memory required for data: 1239741984
I0403 15:16:19.094465 31387 layer_factory.hpp:77] Creating layer inception_4e/relu_5x5
I0403 15:16:19.094485 31387 net.cpp:91] Creating Layer inception_4e/relu_5x5
I0403 15:16:19.094501 31387 net.cpp:425] inception_4e/relu_5x5 <- inception_4e/5x5
I0403 15:16:19.094533 31387 net.cpp:386] inception_4e/relu_5x5 -> inception_4e/5x5 (in-place)
I0403 15:16:19.094735 31387 net.cpp:141] Setting up inception_4e/relu_5x5
I0403 15:16:19.094760 31387 net.cpp:148] Top shape: 24 128 14 14 (602112)
I0403 15:16:19.094775 31387 net.cpp:156] Memory required for data: 1242150432
I0403 15:16:19.094790 31387 layer_factory.hpp:77] Creating layer inception_4e/pool
I0403 15:16:19.094811 31387 net.cpp:91] Creating Layer inception_4e/pool
I0403 15:16:19.094830 31387 net.cpp:425] inception_4e/pool <- inception_4d/output_inception_4d/output_0_split_4
I0403 15:16:19.094848 31387 net.cpp:399] inception_4e/pool -> inception_4e/pool
I0403 15:16:19.094918 31387 net.cpp:141] Setting up inception_4e/pool
I0403 15:16:19.094943 31387 net.cpp:148] Top shape: 24 528 14 14 (2483712)
I0403 15:16:19.094957 31387 net.cpp:156] Memory required for data: 1252085280
I0403 15:16:19.094972 31387 layer_factory.hpp:77] Creating layer inception_4e/pool_proj
I0403 15:16:19.094995 31387 net.cpp:91] Creating Layer inception_4e/pool_proj
I0403 15:16:19.095012 31387 net.cpp:425] inception_4e/pool_proj <- inception_4e/pool
I0403 15:16:19.095033 31387 net.cpp:399] inception_4e/pool_proj -> inception_4e/pool_proj
I0403 15:16:19.096673 31387 net.cpp:141] Setting up inception_4e/pool_proj
I0403 15:16:19.096714 31387 net.cpp:148] Top shape: 24 128 14 14 (602112)
I0403 15:16:19.096730 31387 net.cpp:156] Memory required for data: 1254493728
I0403 15:16:19.096750 31387 layer_factory.hpp:77] Creating layer inception_4e/relu_pool_proj
I0403 15:16:19.096767 31387 net.cpp:91] Creating Layer inception_4e/relu_pool_proj
I0403 15:16:19.096784 31387 net.cpp:425] inception_4e/relu_pool_proj <- inception_4e/pool_proj
I0403 15:16:19.096804 31387 net.cpp:386] inception_4e/relu_pool_proj -> inception_4e/pool_proj (in-place)
I0403 15:16:19.097111 31387 net.cpp:141] Setting up inception_4e/relu_pool_proj
I0403 15:16:19.097137 31387 net.cpp:148] Top shape: 24 128 14 14 (602112)
I0403 15:16:19.097152 31387 net.cpp:156] Memory required for data: 1256902176
I0403 15:16:19.097167 31387 layer_factory.hpp:77] Creating layer inception_4e/output
I0403 15:16:19.097185 31387 net.cpp:91] Creating Layer inception_4e/output
I0403 15:16:19.097201 31387 net.cpp:425] inception_4e/output <- inception_4e/1x1
I0403 15:16:19.097218 31387 net.cpp:425] inception_4e/output <- inception_4e/3x3
I0403 15:16:19.097235 31387 net.cpp:425] inception_4e/output <- inception_4e/5x5
I0403 15:16:19.097251 31387 net.cpp:425] inception_4e/output <- inception_4e/pool_proj
I0403 15:16:19.097270 31387 net.cpp:399] inception_4e/output -> inception_4e/output
I0403 15:16:19.097321 31387 net.cpp:141] Setting up inception_4e/output
I0403 15:16:19.097347 31387 net.cpp:148] Top shape: 24 832 14 14 (3913728)
I0403 15:16:19.097363 31387 net.cpp:156] Memory required for data: 1272557088
I0403 15:16:19.097379 31387 layer_factory.hpp:77] Creating layer pool4/3x3_s2
I0403 15:16:19.097398 31387 net.cpp:91] Creating Layer pool4/3x3_s2
I0403 15:16:19.097414 31387 net.cpp:425] pool4/3x3_s2 <- inception_4e/output
I0403 15:16:19.097430 31387 net.cpp:399] pool4/3x3_s2 -> pool4/3x3_s2
I0403 15:16:19.097506 31387 net.cpp:141] Setting up pool4/3x3_s2
I0403 15:16:19.097529 31387 net.cpp:148] Top shape: 24 832 7 7 (978432)
I0403 15:16:19.097544 31387 net.cpp:156] Memory required for data: 1276470816
I0403 15:16:19.097559 31387 layer_factory.hpp:77] Creating layer pool4/3x3_s2_pool4/3x3_s2_0_split
I0403 15:16:19.097579 31387 net.cpp:91] Creating Layer pool4/3x3_s2_pool4/3x3_s2_0_split
I0403 15:16:19.097594 31387 net.cpp:425] pool4/3x3_s2_pool4/3x3_s2_0_split <- pool4/3x3_s2
I0403 15:16:19.097615 31387 net.cpp:399] pool4/3x3_s2_pool4/3x3_s2_0_split -> pool4/3x3_s2_pool4/3x3_s2_0_split_0
I0403 15:16:19.097635 31387 net.cpp:399] pool4/3x3_s2_pool4/3x3_s2_0_split -> pool4/3x3_s2_pool4/3x3_s2_0_split_1
I0403 15:16:19.097656 31387 net.cpp:399] pool4/3x3_s2_pool4/3x3_s2_0_split -> pool4/3x3_s2_pool4/3x3_s2_0_split_2
I0403 15:16:19.097677 31387 net.cpp:399] pool4/3x3_s2_pool4/3x3_s2_0_split -> pool4/3x3_s2_pool4/3x3_s2_0_split_3
I0403 15:16:19.097774 31387 net.cpp:141] Setting up pool4/3x3_s2_pool4/3x3_s2_0_split
I0403 15:16:19.097796 31387 net.cpp:148] Top shape: 24 832 7 7 (978432)
I0403 15:16:19.097813 31387 net.cpp:148] Top shape: 24 832 7 7 (978432)
I0403 15:16:19.097828 31387 net.cpp:148] Top shape: 24 832 7 7 (978432)
I0403 15:16:19.097844 31387 net.cpp:148] Top shape: 24 832 7 7 (978432)
I0403 15:16:19.097858 31387 net.cpp:156] Memory required for data: 1292125728
I0403 15:16:19.097873 31387 layer_factory.hpp:77] Creating layer inception_5a/1x1
I0403 15:16:19.097895 31387 net.cpp:91] Creating Layer inception_5a/1x1
I0403 15:16:19.097913 31387 net.cpp:425] inception_5a/1x1 <- pool4/3x3_s2_pool4/3x3_s2_0_split_0
I0403 15:16:19.097934 31387 net.cpp:399] inception_5a/1x1 -> inception_5a/1x1
I0403 15:16:19.100836 31387 net.cpp:141] Setting up inception_5a/1x1
I0403 15:16:19.100863 31387 net.cpp:148] Top shape: 24 256 7 7 (301056)
I0403 15:16:19.100879 31387 net.cpp:156] Memory required for data: 1293329952
I0403 15:16:19.100898 31387 layer_factory.hpp:77] Creating layer inception_5a/relu_1x1
I0403 15:16:19.100919 31387 net.cpp:91] Creating Layer inception_5a/relu_1x1
I0403 15:16:19.100936 31387 net.cpp:425] inception_5a/relu_1x1 <- inception_5a/1x1
I0403 15:16:19.100953 31387 net.cpp:386] inception_5a/relu_1x1 -> inception_5a/1x1 (in-place)
I0403 15:16:19.101344 31387 net.cpp:141] Setting up inception_5a/relu_1x1
I0403 15:16:19.101371 31387 net.cpp:148] Top shape: 24 256 7 7 (301056)
I0403 15:16:19.101387 31387 net.cpp:156] Memory required for data: 1294534176
I0403 15:16:19.101402 31387 layer_factory.hpp:77] Creating layer inception_5a/3x3_reduce
I0403 15:16:19.101425 31387 net.cpp:91] Creating Layer inception_5a/3x3_reduce
I0403 15:16:19.101444 31387 net.cpp:425] inception_5a/3x3_reduce <- pool4/3x3_s2_pool4/3x3_s2_0_split_1
I0403 15:16:19.101465 31387 net.cpp:399] inception_5a/3x3_reduce -> inception_5a/3x3_reduce
I0403 15:16:19.103960 31387 net.cpp:141] Setting up inception_5a/3x3_reduce
I0403 15:16:19.103991 31387 net.cpp:148] Top shape: 24 160 7 7 (188160)
I0403 15:16:19.104008 31387 net.cpp:156] Memory required for data: 1295286816
I0403 15:16:19.104027 31387 layer_factory.hpp:77] Creating layer inception_5a/relu_3x3_reduce
I0403 15:16:19.104045 31387 net.cpp:91] Creating Layer inception_5a/relu_3x3_reduce
I0403 15:16:19.104063 31387 net.cpp:425] inception_5a/relu_3x3_reduce <- inception_5a/3x3_reduce
I0403 15:16:19.104080 31387 net.cpp:386] inception_5a/relu_3x3_reduce -> inception_5a/3x3_reduce (in-place)
I0403 15:16:19.104288 31387 net.cpp:141] Setting up inception_5a/relu_3x3_reduce
I0403 15:16:19.104315 31387 net.cpp:148] Top shape: 24 160 7 7 (188160)
I0403 15:16:19.104329 31387 net.cpp:156] Memory required for data: 1296039456
I0403 15:16:19.104346 31387 layer_factory.hpp:77] Creating layer inception_5a/3x3
I0403 15:16:19.104368 31387 net.cpp:91] Creating Layer inception_5a/3x3
I0403 15:16:19.104387 31387 net.cpp:425] inception_5a/3x3 <- inception_5a/3x3_reduce
I0403 15:16:19.104413 31387 net.cpp:399] inception_5a/3x3 -> inception_5a/3x3
I0403 15:16:19.109534 31387 net.cpp:141] Setting up inception_5a/3x3
I0403 15:16:19.109565 31387 net.cpp:148] Top shape: 24 320 7 7 (376320)
I0403 15:16:19.109582 31387 net.cpp:156] Memory required for data: 1297544736
I0403 15:16:19.109603 31387 layer_factory.hpp:77] Creating layer inception_5a/relu_3x3
I0403 15:16:19.109622 31387 net.cpp:91] Creating Layer inception_5a/relu_3x3
I0403 15:16:19.109639 31387 net.cpp:425] inception_5a/relu_3x3 <- inception_5a/3x3
I0403 15:16:19.109660 31387 net.cpp:386] inception_5a/relu_3x3 -> inception_5a/3x3 (in-place)
I0403 15:16:19.109961 31387 net.cpp:141] Setting up inception_5a/relu_3x3
I0403 15:16:19.109987 31387 net.cpp:148] Top shape: 24 320 7 7 (376320)
I0403 15:16:19.110003 31387 net.cpp:156] Memory required for data: 1299050016
I0403 15:16:19.110019 31387 layer_factory.hpp:77] Creating layer inception_5a/5x5_reduce
I0403 15:16:19.110044 31387 net.cpp:91] Creating Layer inception_5a/5x5_reduce
I0403 15:16:19.110060 31387 net.cpp:425] inception_5a/5x5_reduce <- pool4/3x3_s2_pool4/3x3_s2_0_split_2
I0403 15:16:19.110082 31387 net.cpp:399] inception_5a/5x5_reduce -> inception_5a/5x5_reduce
I0403 15:16:19.111292 31387 net.cpp:141] Setting up inception_5a/5x5_reduce
I0403 15:16:19.111320 31387 net.cpp:148] Top shape: 24 32 7 7 (37632)
I0403 15:16:19.111336 31387 net.cpp:156] Memory required for data: 1299200544
I0403 15:16:19.111362 31387 layer_factory.hpp:77] Creating layer inception_5a/relu_5x5_reduce
I0403 15:16:19.111385 31387 net.cpp:91] Creating Layer inception_5a/relu_5x5_reduce
I0403 15:16:19.111403 31387 net.cpp:425] inception_5a/relu_5x5_reduce <- inception_5a/5x5_reduce
I0403 15:16:19.111420 31387 net.cpp:386] inception_5a/relu_5x5_reduce -> inception_5a/5x5_reduce (in-place)
I0403 15:16:19.111744 31387 net.cpp:141] Setting up inception_5a/relu_5x5_reduce
I0403 15:16:19.111769 31387 net.cpp:148] Top shape: 24 32 7 7 (37632)
I0403 15:16:19.111784 31387 net.cpp:156] Memory required for data: 1299351072
I0403 15:16:19.111799 31387 layer_factory.hpp:77] Creating layer inception_5a/5x5
I0403 15:16:19.111821 31387 net.cpp:91] Creating Layer inception_5a/5x5
I0403 15:16:19.111838 31387 net.cpp:425] inception_5a/5x5 <- inception_5a/5x5_reduce
I0403 15:16:19.111860 31387 net.cpp:399] inception_5a/5x5 -> inception_5a/5x5
I0403 15:16:19.113579 31387 net.cpp:141] Setting up inception_5a/5x5
I0403 15:16:19.113618 31387 net.cpp:148] Top shape: 24 128 7 7 (150528)
I0403 15:16:19.113634 31387 net.cpp:156] Memory required for data: 1299953184
I0403 15:16:19.113652 31387 layer_factory.hpp:77] Creating layer inception_5a/relu_5x5
I0403 15:16:19.113672 31387 net.cpp:91] Creating Layer inception_5a/relu_5x5
I0403 15:16:19.113687 31387 net.cpp:425] inception_5a/relu_5x5 <- inception_5a/5x5
I0403 15:16:19.113706 31387 net.cpp:386] inception_5a/relu_5x5 -> inception_5a/5x5 (in-place)
I0403 15:16:19.113898 31387 net.cpp:141] Setting up inception_5a/relu_5x5
I0403 15:16:19.113921 31387 net.cpp:148] Top shape: 24 128 7 7 (150528)
I0403 15:16:19.113936 31387 net.cpp:156] Memory required for data: 1300555296
I0403 15:16:19.113951 31387 layer_factory.hpp:77] Creating layer inception_5a/pool
I0403 15:16:19.113971 31387 net.cpp:91] Creating Layer inception_5a/pool
I0403 15:16:19.113987 31387 net.cpp:425] inception_5a/pool <- pool4/3x3_s2_pool4/3x3_s2_0_split_3
I0403 15:16:19.114006 31387 net.cpp:399] inception_5a/pool -> inception_5a/pool
I0403 15:16:19.114075 31387 net.cpp:141] Setting up inception_5a/pool
I0403 15:16:19.114099 31387 net.cpp:148] Top shape: 24 832 7 7 (978432)
I0403 15:16:19.114114 31387 net.cpp:156] Memory required for data: 1304469024
I0403 15:16:19.114127 31387 layer_factory.hpp:77] Creating layer inception_5a/pool_proj
I0403 15:16:19.114150 31387 net.cpp:91] Creating Layer inception_5a/pool_proj
I0403 15:16:19.114167 31387 net.cpp:425] inception_5a/pool_proj <- inception_5a/pool
I0403 15:16:19.114190 31387 net.cpp:399] inception_5a/pool_proj -> inception_5a/pool_proj
I0403 15:16:19.116518 31387 net.cpp:141] Setting up inception_5a/pool_proj
I0403 15:16:19.116547 31387 net.cpp:148] Top shape: 24 128 7 7 (150528)
I0403 15:16:19.116564 31387 net.cpp:156] Memory required for data: 1305071136
I0403 15:16:19.116582 31387 layer_factory.hpp:77] Creating layer inception_5a/relu_pool_proj
I0403 15:16:19.116601 31387 net.cpp:91] Creating Layer inception_5a/relu_pool_proj
I0403 15:16:19.116617 31387 net.cpp:425] inception_5a/relu_pool_proj <- inception_5a/pool_proj
I0403 15:16:19.116636 31387 net.cpp:386] inception_5a/relu_pool_proj -> inception_5a/pool_proj (in-place)
I0403 15:16:19.116928 31387 net.cpp:141] Setting up inception_5a/relu_pool_proj
I0403 15:16:19.116956 31387 net.cpp:148] Top shape: 24 128 7 7 (150528)
I0403 15:16:19.116971 31387 net.cpp:156] Memory required for data: 1305673248
I0403 15:16:19.116986 31387 layer_factory.hpp:77] Creating layer inception_5a/output
I0403 15:16:19.117004 31387 net.cpp:91] Creating Layer inception_5a/output
I0403 15:16:19.117019 31387 net.cpp:425] inception_5a/output <- inception_5a/1x1
I0403 15:16:19.117035 31387 net.cpp:425] inception_5a/output <- inception_5a/3x3
I0403 15:16:19.117051 31387 net.cpp:425] inception_5a/output <- inception_5a/5x5
I0403 15:16:19.117068 31387 net.cpp:425] inception_5a/output <- inception_5a/pool_proj
I0403 15:16:19.117087 31387 net.cpp:399] inception_5a/output -> inception_5a/output
I0403 15:16:19.117136 31387 net.cpp:141] Setting up inception_5a/output
I0403 15:16:19.117158 31387 net.cpp:148] Top shape: 24 832 7 7 (978432)
I0403 15:16:19.117172 31387 net.cpp:156] Memory required for data: 1309586976
I0403 15:16:19.117187 31387 layer_factory.hpp:77] Creating layer inception_5a/output_inception_5a/output_0_split
I0403 15:16:19.117207 31387 net.cpp:91] Creating Layer inception_5a/output_inception_5a/output_0_split
I0403 15:16:19.117223 31387 net.cpp:425] inception_5a/output_inception_5a/output_0_split <- inception_5a/output
I0403 15:16:19.117241 31387 net.cpp:399] inception_5a/output_inception_5a/output_0_split -> inception_5a/output_inception_5a/output_0_split_0
I0403 15:16:19.117261 31387 net.cpp:399] inception_5a/output_inception_5a/output_0_split -> inception_5a/output_inception_5a/output_0_split_1
I0403 15:16:19.117285 31387 net.cpp:399] inception_5a/output_inception_5a/output_0_split -> inception_5a/output_inception_5a/output_0_split_2
I0403 15:16:19.117305 31387 net.cpp:399] inception_5a/output_inception_5a/output_0_split -> inception_5a/output_inception_5a/output_0_split_3
I0403 15:16:19.117414 31387 net.cpp:141] Setting up inception_5a/output_inception_5a/output_0_split
I0403 15:16:19.117437 31387 net.cpp:148] Top shape: 24 832 7 7 (978432)
I0403 15:16:19.117455 31387 net.cpp:148] Top shape: 24 832 7 7 (978432)
I0403 15:16:19.117470 31387 net.cpp:148] Top shape: 24 832 7 7 (978432)
I0403 15:16:19.117486 31387 net.cpp:148] Top shape: 24 832 7 7 (978432)
I0403 15:16:19.117499 31387 net.cpp:156] Memory required for data: 1325241888
I0403 15:16:19.117518 31387 layer_factory.hpp:77] Creating layer inception_5b/1x1
I0403 15:16:19.117542 31387 net.cpp:91] Creating Layer inception_5b/1x1
I0403 15:16:19.117559 31387 net.cpp:425] inception_5b/1x1 <- inception_5a/output_inception_5a/output_0_split_0
I0403 15:16:19.117583 31387 net.cpp:399] inception_5b/1x1 -> inception_5b/1x1
I0403 15:16:19.121282 31387 net.cpp:141] Setting up inception_5b/1x1
I0403 15:16:19.121315 31387 net.cpp:148] Top shape: 24 384 7 7 (451584)
I0403 15:16:19.121330 31387 net.cpp:156] Memory required for data: 1327048224
I0403 15:16:19.121348 31387 layer_factory.hpp:77] Creating layer inception_5b/relu_1x1
I0403 15:16:19.121367 31387 net.cpp:91] Creating Layer inception_5b/relu_1x1
I0403 15:16:19.121383 31387 net.cpp:425] inception_5b/relu_1x1 <- inception_5b/1x1
I0403 15:16:19.121399 31387 net.cpp:386] inception_5b/relu_1x1 -> inception_5b/1x1 (in-place)
I0403 15:16:19.121706 31387 net.cpp:141] Setting up inception_5b/relu_1x1
I0403 15:16:19.121734 31387 net.cpp:148] Top shape: 24 384 7 7 (451584)
I0403 15:16:19.121750 31387 net.cpp:156] Memory required for data: 1328854560
I0403 15:16:19.121767 31387 layer_factory.hpp:77] Creating layer inception_5b/3x3_reduce
I0403 15:16:19.121788 31387 net.cpp:91] Creating Layer inception_5b/3x3_reduce
I0403 15:16:19.121805 31387 net.cpp:425] inception_5b/3x3_reduce <- inception_5a/output_inception_5a/output_0_split_1
I0403 15:16:19.121824 31387 net.cpp:399] inception_5b/3x3_reduce -> inception_5b/3x3_reduce
I0403 15:16:19.124454 31387 net.cpp:141] Setting up inception_5b/3x3_reduce
I0403 15:16:19.124485 31387 net.cpp:148] Top shape: 24 192 7 7 (225792)
I0403 15:16:19.124511 31387 net.cpp:156] Memory required for data: 1329757728
I0403 15:16:19.124542 31387 layer_factory.hpp:77] Creating layer inception_5b/relu_3x3_reduce
I0403 15:16:19.124560 31387 net.cpp:91] Creating Layer inception_5b/relu_3x3_reduce
I0403 15:16:19.124578 31387 net.cpp:425] inception_5b/relu_3x3_reduce <- inception_5b/3x3_reduce
I0403 15:16:19.124598 31387 net.cpp:386] inception_5b/relu_3x3_reduce -> inception_5b/3x3_reduce (in-place)
I0403 15:16:19.124790 31387 net.cpp:141] Setting up inception_5b/relu_3x3_reduce
I0403 15:16:19.124815 31387 net.cpp:148] Top shape: 24 192 7 7 (225792)
I0403 15:16:19.124830 31387 net.cpp:156] Memory required for data: 1330660896
I0403 15:16:19.124845 31387 layer_factory.hpp:77] Creating layer inception_5b/3x3
I0403 15:16:19.124869 31387 net.cpp:91] Creating Layer inception_5b/3x3
I0403 15:16:19.124907 31387 net.cpp:425] inception_5b/3x3 <- inception_5b/3x3_reduce
I0403 15:16:19.124948 31387 net.cpp:399] inception_5b/3x3 -> inception_5b/3x3
I0403 15:16:19.131544 31387 net.cpp:141] Setting up inception_5b/3x3
I0403 15:16:19.131577 31387 net.cpp:148] Top shape: 24 384 7 7 (451584)
I0403 15:16:19.131592 31387 net.cpp:156] Memory required for data: 1332467232
I0403 15:16:19.131611 31387 layer_factory.hpp:77] Creating layer inception_5b/relu_3x3
I0403 15:16:19.131629 31387 net.cpp:91] Creating Layer inception_5b/relu_3x3
I0403 15:16:19.131645 31387 net.cpp:425] inception_5b/relu_3x3 <- inception_5b/3x3
I0403 15:16:19.131665 31387 net.cpp:386] inception_5b/relu_3x3 -> inception_5b/3x3 (in-place)
I0403 15:16:19.131960 31387 net.cpp:141] Setting up inception_5b/relu_3x3
I0403 15:16:19.131989 31387 net.cpp:148] Top shape: 24 384 7 7 (451584)
I0403 15:16:19.132004 31387 net.cpp:156] Memory required for data: 1334273568
I0403 15:16:19.132019 31387 layer_factory.hpp:77] Creating layer inception_5b/5x5_reduce
I0403 15:16:19.132056 31387 net.cpp:91] Creating Layer inception_5b/5x5_reduce
I0403 15:16:19.132076 31387 net.cpp:425] inception_5b/5x5_reduce <- inception_5a/output_inception_5a/output_0_split_2
I0403 15:16:19.132094 31387 net.cpp:399] inception_5b/5x5_reduce -> inception_5b/5x5_reduce
I0403 15:16:19.133366 31387 net.cpp:141] Setting up inception_5b/5x5_reduce
I0403 15:16:19.133394 31387 net.cpp:148] Top shape: 24 48 7 7 (56448)
I0403 15:16:19.133409 31387 net.cpp:156] Memory required for data: 1334499360
I0403 15:16:19.133426 31387 layer_factory.hpp:77] Creating layer inception_5b/relu_5x5_reduce
I0403 15:16:19.133445 31387 net.cpp:91] Creating Layer inception_5b/relu_5x5_reduce
I0403 15:16:19.133460 31387 net.cpp:425] inception_5b/relu_5x5_reduce <- inception_5b/5x5_reduce
I0403 15:16:19.133481 31387 net.cpp:386] inception_5b/relu_5x5_reduce -> inception_5b/5x5_reduce (in-place)
I0403 15:16:19.133857 31387 net.cpp:141] Setting up inception_5b/relu_5x5_reduce
I0403 15:16:19.133883 31387 net.cpp:148] Top shape: 24 48 7 7 (56448)
I0403 15:16:19.133898 31387 net.cpp:156] Memory required for data: 1334725152
I0403 15:16:19.133913 31387 layer_factory.hpp:77] Creating layer inception_5b/5x5
I0403 15:16:19.133932 31387 net.cpp:91] Creating Layer inception_5b/5x5
I0403 15:16:19.133949 31387 net.cpp:425] inception_5b/5x5 <- inception_5b/5x5_reduce
I0403 15:16:19.133968 31387 net.cpp:399] inception_5b/5x5 -> inception_5b/5x5
I0403 15:16:19.136000 31387 net.cpp:141] Setting up inception_5b/5x5
I0403 15:16:19.136029 31387 net.cpp:148] Top shape: 24 128 7 7 (150528)
I0403 15:16:19.136044 31387 net.cpp:156] Memory required for data: 1335327264
I0403 15:16:19.136061 31387 layer_factory.hpp:77] Creating layer inception_5b/relu_5x5
I0403 15:16:19.136082 31387 net.cpp:91] Creating Layer inception_5b/relu_5x5
I0403 15:16:19.136101 31387 net.cpp:425] inception_5b/relu_5x5 <- inception_5b/5x5
I0403 15:16:19.136116 31387 net.cpp:386] inception_5b/relu_5x5 -> inception_5b/5x5 (in-place)
I0403 15:16:19.136312 31387 net.cpp:141] Setting up inception_5b/relu_5x5
I0403 15:16:19.136335 31387 net.cpp:148] Top shape: 24 128 7 7 (150528)
I0403 15:16:19.136350 31387 net.cpp:156] Memory required for data: 1335929376
I0403 15:16:19.136365 31387 layer_factory.hpp:77] Creating layer inception_5b/pool
I0403 15:16:19.136384 31387 net.cpp:91] Creating Layer inception_5b/pool
I0403 15:16:19.136401 31387 net.cpp:425] inception_5b/pool <- inception_5a/output_inception_5a/output_0_split_3
I0403 15:16:19.136420 31387 net.cpp:399] inception_5b/pool -> inception_5b/pool
I0403 15:16:19.136492 31387 net.cpp:141] Setting up inception_5b/pool
I0403 15:16:19.136519 31387 net.cpp:148] Top shape: 24 832 7 7 (978432)
I0403 15:16:19.136535 31387 net.cpp:156] Memory required for data: 1339843104
I0403 15:16:19.136549 31387 layer_factory.hpp:77] Creating layer inception_5b/pool_proj
I0403 15:16:19.136571 31387 net.cpp:91] Creating Layer inception_5b/pool_proj
I0403 15:16:19.136589 31387 net.cpp:425] inception_5b/pool_proj <- inception_5b/pool
I0403 15:16:19.136612 31387 net.cpp:399] inception_5b/pool_proj -> inception_5b/pool_proj
I0403 15:16:19.138888 31387 net.cpp:141] Setting up inception_5b/pool_proj
I0403 15:16:19.138916 31387 net.cpp:148] Top shape: 24 128 7 7 (150528)
I0403 15:16:19.138931 31387 net.cpp:156] Memory required for data: 1340445216
I0403 15:16:19.138949 31387 layer_factory.hpp:77] Creating layer inception_5b/relu_pool_proj
I0403 15:16:19.138968 31387 net.cpp:91] Creating Layer inception_5b/relu_pool_proj
I0403 15:16:19.138983 31387 net.cpp:425] inception_5b/relu_pool_proj <- inception_5b/pool_proj
I0403 15:16:19.139003 31387 net.cpp:386] inception_5b/relu_pool_proj -> inception_5b/pool_proj (in-place)
I0403 15:16:19.139300 31387 net.cpp:141] Setting up inception_5b/relu_pool_proj
I0403 15:16:19.139328 31387 net.cpp:148] Top shape: 24 128 7 7 (150528)
I0403 15:16:19.139343 31387 net.cpp:156] Memory required for data: 1341047328
I0403 15:16:19.139358 31387 layer_factory.hpp:77] Creating layer inception_5b/output
I0403 15:16:19.139375 31387 net.cpp:91] Creating Layer inception_5b/output
I0403 15:16:19.139405 31387 net.cpp:425] inception_5b/output <- inception_5b/1x1
I0403 15:16:19.139422 31387 net.cpp:425] inception_5b/output <- inception_5b/3x3
I0403 15:16:19.139439 31387 net.cpp:425] inception_5b/output <- inception_5b/5x5
I0403 15:16:19.139454 31387 net.cpp:425] inception_5b/output <- inception_5b/pool_proj
I0403 15:16:19.139474 31387 net.cpp:399] inception_5b/output -> inception_5b/output
I0403 15:16:19.139528 31387 net.cpp:141] Setting up inception_5b/output
I0403 15:16:19.139555 31387 net.cpp:148] Top shape: 24 1024 7 7 (1204224)
I0403 15:16:19.139571 31387 net.cpp:156] Memory required for data: 1345864224
I0403 15:16:19.139586 31387 layer_factory.hpp:77] Creating layer pool5/7x7_s1
I0403 15:16:19.139603 31387 net.cpp:91] Creating Layer pool5/7x7_s1
I0403 15:16:19.139619 31387 net.cpp:425] pool5/7x7_s1 <- inception_5b/output
I0403 15:16:19.139637 31387 net.cpp:399] pool5/7x7_s1 -> pool5/7x7_s1
I0403 15:16:19.139858 31387 net.cpp:141] Setting up pool5/7x7_s1
I0403 15:16:19.139881 31387 net.cpp:148] Top shape: 24 1024 1 1 (24576)
I0403 15:16:19.139896 31387 net.cpp:156] Memory required for data: 1345962528
I0403 15:16:19.139911 31387 layer_factory.hpp:77] Creating layer pool5/drop_7x7_s1
I0403 15:16:19.139930 31387 net.cpp:91] Creating Layer pool5/drop_7x7_s1
I0403 15:16:19.139945 31387 net.cpp:425] pool5/drop_7x7_s1 <- pool5/7x7_s1
I0403 15:16:19.139967 31387 net.cpp:386] pool5/drop_7x7_s1 -> pool5/7x7_s1 (in-place)
I0403 15:16:19.140017 31387 net.cpp:141] Setting up pool5/drop_7x7_s1
I0403 15:16:19.140041 31387 net.cpp:148] Top shape: 24 1024 1 1 (24576)
I0403 15:16:19.140055 31387 net.cpp:156] Memory required for data: 1346060832
I0403 15:16:19.140070 31387 layer_factory.hpp:77] Creating layer loss3/classifier_plantvillage
I0403 15:16:19.140090 31387 net.cpp:91] Creating Layer loss3/classifier_plantvillage
I0403 15:16:19.140105 31387 net.cpp:425] loss3/classifier_plantvillage <- pool5/7x7_s1
I0403 15:16:19.140125 31387 net.cpp:399] loss3/classifier_plantvillage -> loss3/classifier_plantvillage
I0403 15:16:19.140566 31387 net.cpp:141] Setting up loss3/classifier_plantvillage
I0403 15:16:19.140591 31387 net.cpp:148] Top shape: 24 38 (912)
I0403 15:16:19.140606 31387 net.cpp:156] Memory required for data: 1346064480
I0403 15:16:19.140625 31387 layer_factory.hpp:77] Creating layer loss3/classifier_plantvillage_loss3/classifier_plantvillage_0_split
I0403 15:16:19.140646 31387 net.cpp:91] Creating Layer loss3/classifier_plantvillage_loss3/classifier_plantvillage_0_split
I0403 15:16:19.140664 31387 net.cpp:425] loss3/classifier_plantvillage_loss3/classifier_plantvillage_0_split <- loss3/classifier_plantvillage
I0403 15:16:19.140681 31387 net.cpp:399] loss3/classifier_plantvillage_loss3/classifier_plantvillage_0_split -> loss3/classifier_plantvillage_loss3/classifier_plantvillage_0_split_0
I0403 15:16:19.140703 31387 net.cpp:399] loss3/classifier_plantvillage_loss3/classifier_plantvillage_0_split -> loss3/classifier_plantvillage_loss3/classifier_plantvillage_0_split_1
I0403 15:16:19.140724 31387 net.cpp:399] loss3/classifier_plantvillage_loss3/classifier_plantvillage_0_split -> loss3/classifier_plantvillage_loss3/classifier_plantvillage_0_split_2
I0403 15:16:19.140745 31387 net.cpp:399] loss3/classifier_plantvillage_loss3/classifier_plantvillage_0_split -> loss3/classifier_plantvillage_loss3/classifier_plantvillage_0_split_3
I0403 15:16:19.140849 31387 net.cpp:141] Setting up loss3/classifier_plantvillage_loss3/classifier_plantvillage_0_split
I0403 15:16:19.140872 31387 net.cpp:148] Top shape: 24 38 (912)
I0403 15:16:19.140889 31387 net.cpp:148] Top shape: 24 38 (912)
I0403 15:16:19.140904 31387 net.cpp:148] Top shape: 24 38 (912)
I0403 15:16:19.140919 31387 net.cpp:148] Top shape: 24 38 (912)
I0403 15:16:19.140933 31387 net.cpp:156] Memory required for data: 1346079072
I0403 15:16:19.140949 31387 layer_factory.hpp:77] Creating layer loss1/loss
I0403 15:16:19.140971 31387 net.cpp:91] Creating Layer loss1/loss
I0403 15:16:19.140988 31387 net.cpp:425] loss1/loss <- loss1/classifier_plantvillage_loss1/classifier_plantvillage_0_split_0
I0403 15:16:19.141021 31387 net.cpp:425] loss1/loss <- label_data_1_split_0
…
