…
I0403 15:14:50.583607 31355 net.cpp:313] The NetState phase (1) differed from the phase (0) specified by a rule in layer data
I0403 15:14:50.584769 31355 net.cpp:49] Initializing net from parameters: 
state {
  phase: TEST
}
layer {
  name: "data"
  type: "Data"
  top: "data"
  top: "label"
  include {
    phase: TEST
  }
  transform_param {
    mirror: false
    crop_size: 224
    mean_file: "/home/mohanty/data/final_dataset/lmdb/grayscale-80-20/mean.binaryproto"
  }
  data_param {
    source: "/home/mohanty/data/final_dataset/lmdb/grayscale-80-20/test_db"
    batch_size: 24
    backend: LMDB
  }
}
layer {
  name: "conv1/7x7_s2"
  type: "Convolution"
  bottom: "data"
  top: "conv1/7x7_s2"
  param {
    lr_mult: 1
    decay_mult: 1
  }
  param {
    lr_mult: 2
    decay_mult: 0
  }
  convolution_param {
    num_output: 64
    pad: 3
    kernel_size: 7
    stride: 2
    weight_filler {
      type: "xavier"
      std: 0.1
    }
    bias_filler {
      type: "constant"
      value: 0.2
    }
  }
}
layer {
  name: "conv1/relu_7x7"
  type: "ReLU"
  bottom: "conv1/7x7_s2"
  top: "conv1/7x7_s2"
}
layer {
  name: "pool1/3x3_s2"
  type: "Pooling"
  bottom: "conv1/7x7_s2"
  top: "pool1/3x3_s2"
  pooling_param {
    pool: MAX
    kernel_size: 3
    stride: 2
  }
}
layer {
  name: "pool1/norm1"
  type: "LRN"
  bottom: "pool1/3x3_s2"
  top: "pool1/norm1"
  lrn_param {
    local_size: 5
    alpha: 0.0001
    beta: 0.75
  }
}
layer {
  name: "conv2/3x3_reduce"
  type: "Convolution"
  bottom: "pool1/norm1"
  top: "conv2/3x3_reduce"
  param {
    lr_mult: 1
    decay_mult: 1
  }
  param {
    lr_mult: 2
    decay_mult: 0
  }
  convolution_param {
    num_output: 64
    kernel_size: 1
    weight_filler {
      type: "xavier"
      std: 0.1
    }
    bias_filler {
      type: "constant"
      value: 0.2
    }
  }
}
layer {
  name: "conv2/relu_3x3_reduce"
  type: "ReLU"
  bottom: "conv2/3x3_reduce"
  top: "conv2/3x3_reduce"
}
layer {
  name: "conv2/3x3"
  type: "Convolution"
  bottom: "conv2/3x3_reduce"
  top: "conv2/3x3"
  param {
    lr_mult: 1
    decay_mult: 1
  }
  param {
    lr_mult: 2
    decay_mult: 0
  }
  convolution_param {
    num_output: 192
    pad: 1
    kernel_size: 3
    weight_filler {
      type: "xavier"
      std: 0.03
    }
    bias_filler {
      type: "constant"
      value: 0.2
    }
  }
}
layer {
  name: "conv2/relu_3x3"
  type: "ReLU"
  bottom: "conv2/3x3"
  top: "conv2/3x3"
}
layer {
  name: "conv2/norm2"
  type: "LRN"
  bottom: "conv2/3x3"
  top: "conv2/norm2"
  lrn_param {
    local_size: 5
    alpha: 0.0001
    beta: 0.75
  }
}
layer {
  name: "pool2/3x3_s2"
  type: "Pooling"
  bottom: "conv2/norm2"
  top: "pool2/3x3_s2"
  pooling_param {
    pool: MAX
    kernel_size: 3
    stride: 2
  }
}
layer {
  name: "inception_3a/1x1"
  type: "Convolution"
  bottom: "pool2/3x3_s2"
  top: "inception_3a/1x1"
  param {
    lr_mult: 1
    decay_mult: 1
  }
  param {
    lr_mult: 2
    decay_mult: 0
  }
  convolution_param {
    num_output: 64
    kernel_size: 1
    weight_filler {
      type: "xavier"
      std: 0.03
    }
    bias_filler {
      type: "constant"
      value: 0.2
    }
  }
}
layer {
  name: "inception_3a/relu_1x1"
  type: "ReLU"
  bottom: "inception_3a/1x1"
  top: "inception_3a/1x1"
}
layer {
  name: "inception_3a/3x3_reduce"
  type: "Convolution"
  bottom: "pool2/3x3_s2"
  top: "inception_3a/3x3_reduce"
  param {
    lr_mult: 1
    decay_mult: 1
  }
  param {
    lr_mult: 2
    decay_mult: 0
  }
  convolution_param {
    num_output: 96
    kernel_size: 1
    weight_filler {
      type: "xavier"
      std: 0.09
    }
    bias_filler {
      type: "constant"
      value: 0.2
    }
  }
}
layer {
  name: "inception_3a/relu_3x3_reduce"
  type: "ReLU"
  bottom: "inception_3a/3x3_reduce"
  top: "inception_3a/3x3_reduce"
}
layer {
  name: "inception_3a/3x3"
  type: "Convolution"
  bottom: "inception_3a/3x3_reduce"
  top: "inception_3a/3x3"
  param {
    lr_mult: 1
    decay_mult: 1
  }
  param {
    lr_mult: 2
    decay_mult: 0
  }
  convolution_param {
    num_output: 128
    pad: 1
    kernel_size: 3
    weight_filler {
      type: "xavier"
      std: 0.03
    }
    bias_filler {
      type: "constant"
      value: 0.2
    }
  }
}
layer {
  name: "inception_3a/relu_3x3"
  type: "ReLU"
  bottom: "inception_3a/3x3"
  top: "inception_3a/3x3"
}
layer {
  name: "inception_3a/5x5_reduce"
  type: "Convolution"
  bottom: "pool2/3x3_s2"
  top: "inception_3a/5x5_reduce"
  param {
    lr_mult: 1
    decay_mult: 1
  }
  param {
    lr_mult: 2
    decay_mult: 0
  }
  convolution_param {
    num_output: 16
    kernel_size: 1
    weight_filler {
      type: "xavier"
      std: 0.2
    }
    bias_filler {
      type: "constant"
      value: 0.2
    }
  }
}
layer {
  name: "inception_3a/relu_5x5_reduce"
  type: "ReLU"
  bottom: "inception_3a/5x5_reduce"
  top: "inception_3a/5x5_reduce"
}
layer {
  name: "inception_3a/5x5"
  type: "Convolution"
  bottom: "inception_3a/5x5_reduce"
  top: "inception_3a/5x5"
  param {
    lr_mult: 1
    decay_mult: 1
  }
  param {
    lr_mult: 2
    decay_mult: 0
  }
  convolution_param {
    num_output: 32
    pad: 2
    kernel_size: 5
    weight_filler {
      type: "xavier"
      std: 0.03
    }
    bias_filler {
      type: "constant"
      value: 0.2
    }
  }
}
layer {
  name: "inception_3a/relu_5x5"
  type: "ReLU"
  bottom: "inception_3a/5x5"
  top: "inception_3a/5x5"
}
layer {
  name: "inception_3a/pool"
  type: "Pooling"
  bottom: "pool2/3x3_s2"
  top: "inception_3a/pool"
  pooling_param {
    pool: MAX
    kernel_size: 3
    stride: 1
    pad: 1
  }
}
layer {
  name: "inception_3a/pool_proj"
  type: "Convolution"
  bottom: "inception_3a/pool"
  top: "inception_3a/pool_proj"
  param {
    lr_mult: 1
    decay_mult: 1
  }
  param {
    lr_mult: 2
    decay_mult: 0
  }
  convolution_param {
    num_output: 32
    kernel_size: 1
    weight_filler {
      type: "xavier"
      std: 0.1
    }
    bias_filler {
      type: "constant"
      value: 0.2
    }
  }
}
layer {
  name: "inception_3a/relu_pool_proj"
  type: "ReLU"
  bottom: "inception_3a/pool_proj"
  top: "inception_3a/pool_proj"
}
layer {
  name: "inception_3a/output"
  type: "Concat"
  bottom: "inception_3a/1x1"
  bottom: "inception_3a/3x3"
  bottom: "inception_3a/5x5"
  bottom: "inception_3a/pool_proj"
  top: "inception_3a/output"
}
layer {
  name: "inception_3b/1x1"
  type: "Convolution"
  bottom: "inception_3a/output"
  top: "inception_3b/1x1"
  param {
    lr_mult: 1
    decay_mult: 1
  }
  param {
    lr_mult: 2
    decay_mult: 0
  }
  convolution_param {
    num_output: 128
    kernel_size: 1
    weight_filler {
      type: "xavier"
      std: 0.03
    }
    bias_filler {
      type: "constant"
      value: 0.2
    }
  }
}
layer {
  name: "inception_3b/relu_1x1"
  type: "ReLU"
  bottom: "inception_3b/1x1"
  top: "inception_3b/1x1"
}
layer {
  name: "inception_3b/3x3_reduce"
  type: "Convolution"
  bottom: "inception_3a/output"
  top: "inception_3b/3x3_reduce"
  param {
    lr_mult: 1
    decay_mult: 1
  }
  param {
    lr_mult: 2
    decay_mult: 0
  }
  convolution_param {
    num_output: 128
    kernel_size: 1
    weight_filler {
      type: "xavier"
      std: 0.09
    }
    bias_filler {
      type: "constant"
      value: 0.2
    }
  }
}
layer {
  name: "inception_3b/relu_3x3_reduce"
  type: "ReLU"
  bottom: "inception_3b/3x3_reduce"
  top: "inception_3b/3x3_reduce"
}
layer {
  name: "inception_3b/3x3"
  type: "Convolution"
  bottom: "inception_3b/3x3_reduce"
  top: "inception_3b/3x3"
  param {
    lr_mult: 1
    decay_mult: 1
  }
  param {
    lr_mult: 2
    decay_mult: 0
  }
  convolution_param {
    num_output: 192
    pad: 1
    kernel_size: 3
    weight_filler {
      type: "xavier"
      std: 0.03
    }
    bias_filler {
      type: "constant"
      value: 0.2
    }
  }
}
layer {
  name: "inception_3b/relu_3x3"
  type: "ReLU"
  bottom: "inception_3b/3x3"
  top: "inception_3b/3x3"
}
layer {
  name: "inception_3b/5x5_reduce"
  type: "Convolution"
  bottom: "inception_3a/output"
  top: "inception_3b/5x5_reduce"
  param {
    lr_mult: 1
    decay_mult: 1
  }
  param {
    lr_mult: 2
    decay_mult: 0
  }
  convolution_param {
    num_output: 32
    kernel_size: 1
    weight_filler {
      type: "xavier"
      std: 0.2
    }
    bias_filler {
      type: "constant"
      value: 0.2
    }
  }
}
layer {
  name: "inception_3b/relu_5x5_reduce"
  type: "ReLU"
  bottom: "inception_3b/5x5_reduce"
  top: "inception_3b/5x5_reduce"
}
layer {
  name: "inception_3b/5x5"
  type: "Convolution"
  bottom: "inception_3b/5x5_reduce"
  top: "inception_3b/5x5"
  param {
    lr_mult: 1
    decay_mult: 1
  }
  param {
    lr_mult: 2
    decay_mult: 0
  }
  convolution_param {
    num_output: 96
    pad: 2
    kernel_size: 5
    weight_filler {
      type: "xavier"
      std: 0.03
    }
    bias_filler {
      type: "constant"
      value: 0.2
    }
  }
}
layer {
  name: "inception_3b/relu_5x5"
  type: "ReLU"
  bottom: "inception_3b/5x5"
  top: "inception_3b/5x5"
}
layer {
  name: "inception_3b/pool"
  type: "Pooling"
  bottom: "inception_3a/output"
  top: "inception_3b/pool"
  pooling_param {
    pool: MAX
    kernel_size: 3
    stride: 1
    pad: 1
  }
}
layer {
  name: "inception_3b/pool_proj"
  type: "Convolution"
  bottom: "inception_3b/pool"
  top: "inception_3b/pool_proj"
  param {
    lr_mult: 1
    decay_mult: 1
  }
  param {
    lr_mult: 2
    decay_mult: 0
  }
  convolution_param {
    num_output: 64
    kernel_size: 1
    weight_filler {
      type: "xavier"
      std: 0.1
    }
    bias_filler {
      type: "constant"
      value: 0.2
    }
  }
}
layer {
  name: "inception_3b/relu_pool_proj"
  type: "ReLU"
  bottom: "inception_3b/pool_proj"
  top: "inception_3b/pool_proj"
}
layer {
  name: "inception_3b/output"
  type: "Concat"
  bottom: "inception_3b/1x1"
  bottom: "inception_3b/3x3"
  bottom: "inception_3b/5x5"
  bottom: "inception_3b/pool_proj"
  top: "inception_3b/output"
}
layer {
  name: "pool3/3x3_s2"
  type: "Pooling"
  bottom: "inception_3b/output"
  top: "pool3/3x3_s2"
  pooling_param {
    pool: MAX
    kernel_size: 3
    stride: 2
  }
}
layer {
  name: "inception_4a/1x1"
  type: "Convolution"
  bottom: "pool3/3x3_s2"
  top: "inception_4a/1x1"
  param {
    lr_mult: 1
    decay_mult: 1
  }
  param {
    lr_mult: 2
    decay_mult: 0
  }
  convolution_param {
    num_output: 192
    kernel_size: 1
    weight_filler {
      type: "xavier"
      std: 0.03
    }
    bias_filler {
      type: "constant"
      value: 0.2
    }
  }
}
layer {
  name: "inception_4a/relu_1x1"
  type: "ReLU"
  bottom: "inception_4a/1x1"
  top: "inception_4a/1x1"
}
layer {
  name: "inception_4a/3x3_reduce"
  type: "Convolution"
  bottom: "pool3/3x3_s2"
  top: "inception_4a/3x3_reduce"
  param {
    lr_mult: 1
    decay_mult: 1
  }
  param {
    lr_mult: 2
    decay_mult: 0
  }
  convolution_param {
    num_output: 96
    kernel_size: 1
    weight_filler {
      type: "xavier"
      std: 0.09
    }
    bias_filler {
      type: "constant"
      value: 0.2
    }
  }
}
layer {
  name: "inception_4a/relu_3x3_reduce"
  type: "ReLU"
  bottom: "inception_4a/3x3_reduce"
  top: "inception_4a/3x3_reduce"
}
layer {
  name: "inception_4a/3x3"
  type: "Convolution"
  bottom: "inception_4a/3x3_reduce"
  top: "inception_4a/3x3"
  param {
    lr_mult: 1
    decay_mult: 1
  }
  param {
    lr_mult: 2
    decay_mult: 0
  }
  convolution_param {
    num_output: 208
    pad: 1
    kernel_size: 3
    weight_filler {
      type: "xavier"
      std: 0.03
    }
    bias_filler {
      type: "constant"
      value: 0.2
    }
  }
}
layer {
  name: "inception_4a/relu_3x3"
  type: "ReLU"
  bottom: "inception_4a/3x3"
  top: "inception_4a/3x3"
}
layer {
  name: "inception_4a/5x5_reduce"
  type: "Convolution"
  bottom: "pool3/3x3_s2"
  top: "inception_4a/5x5_reduce"
  param {
    lr_mult: 1
    decay_mult: 1
  }
  param {
    lr_mult: 2
    decay_mult: 0
  }
  convolution_param {
    num_output: 16
    kernel_size: 1
    weight_filler {
      type: "xavier"
      std: 0.2
    }
    bias_filler {
      type: "constant"
      value: 0.2
    }
  }
}
layer {
  name: "inception_4a/relu_5x5_reduce"
  type: "ReLU"
  bottom: "inception_4a/5x5_reduce"
  top: "inception_4a/5x5_reduce"
}
layer {
  name: "inception_4a/5x5"
  type: "Convolution"
  bottom: "inception_4a/5x5_reduce"
  top: "inception_4a/5x5"
  param {
    lr_mult: 1
    decay_mult: 1
  }
  param {
    lr_mult: 2
    decay_mult: 0
  }
  convolution_param {
    num_output: 48
    pad: 2
    kernel_size: 5
    weight_filler {
      type: "xavier"
      std: 0.03
    }
    bias_filler {
      type: "constant"
      value: 0.2
    }
  }
}
layer {
  name: "inception_4a/relu_5x5"
  type: "ReLU"
  bottom: "inception_4a/5x5"
  top: "inception_4a/5x5"
}
layer {
  name: "inception_4a/pool"
  type: "Pooling"
  bottom: "pool3/3x3_s2"
  top: "inception_4a/pool"
  pooling_param {
    pool: MAX
    kernel_size: 3
    stride: 1
    pad: 1
  }
}
layer {
  name: "inception_4a/pool_proj"
  type: "Convolution"
  bottom: "inception_4a/pool"
  top: "inception_4a/pool_proj"
  param {
    lr_mult: 1
    decay_mult: 1
  }
  param {
    lr_mult: 2
    decay_mult: 0
  }
  convolution_param {
    num_output: 64
    kernel_size: 1
    weight_filler {
      type: "xavier"
      std: 0.1
    }
    bias_filler {
      type: "constant"
      value: 0.2
    }
  }
}
layer {
  name: "inception_4a/relu_pool_proj"
  type: "ReLU"
  bottom: "inception_4a/pool_proj"
  top: "inception_4a/pool_proj"
}
layer {
  name: "inception_4a/output"
  type: "Concat"
  bottom: "inception_4a/1x1"
  bottom: "inception_4a/3x3"
  bottom: "inception_4a/5x5"
  bottom: "inception_4a/pool_proj"
  top: "inception_4a/output"
}
layer {
  name: "loss1/ave_pool"
  type: "Pooling"
  bottom: "inception_4a/output"
  top: "loss1/ave_pool"
  pooling_param {
    pool: AVE
    kernel_size: 5
    stride: 3
  }
}
layer {
  name: "loss1/conv"
  type: "Convolution"
  bottom: "loss1/ave_pool"
  top: "loss1/conv"
  param {
    lr_mult: 1
    decay_mult: 1
  }
  param {
    lr_mult: 2
    decay_mult: 0
  }
  convolution_param {
    num_output: 128
    kernel_size: 1
    weight_filler {
      type: "xavier"
      std: 0.08
    }
    bias_filler {
      type: "constant"
      value: 0.2
    }
  }
}
layer {
  name: "loss1/relu_conv"
  type: "ReLU"
  bottom: "loss1/conv"
  top: "loss1/conv"
}
layer {
  name: "loss1/fc"
  type: "InnerProduct"
  bottom: "loss1/conv"
  top: "loss1/fc"
  param {
    lr_mult: 1
    decay_mult: 1
  }
  param {
    lr_mult: 2
    decay_mult: 0
  }
  inner_product_param {
    num_output: 1024
    weight_filler {
      type: "xavier"
      std: 0.02
    }
    bias_filler {
      type: "constant"
      value: 0.2
    }
  }
}
layer {
  name: "loss1/relu_fc"
  type: "ReLU"
  bottom: "loss1/fc"
  top: "loss1/fc"
}
layer {
  name: "loss1/drop_fc"
  type: "Dropout"
  bottom: "loss1/fc"
  top: "loss1/fc"
  dropout_param {
    dropout_ratio: 0.7
  }
}
layer {
  name: "loss1/classifier_plantvillage"
  type: "InnerProduct"
  bottom: "loss1/fc"
  top: "loss1/classifier_plantvillage"
  param {
    lr_mult: 1
    decay_mult: 1
  }
  param {
    lr_mult: 2
    decay_mult: 0
  }
  inner_product_param {
    num_output: 38
    weight_filler {
      type: "xavier"
      std: 0.0009765625
    }
    bias_filler {
      type: "constant"
      value: 0
    }
  }
}
layer {
  name: "inception_4b/1x1"
  type: "Convolution"
  bottom: "inception_4a/output"
  top: "inception_4b/1x1"
  param {
    lr_mult: 1
    decay_mult: 1
  }
  param {
    lr_mult: 2
    decay_mult: 0
  }
  convolution_param {
    num_output: 160
    kernel_size: 1
    weight_filler {
      type: "xavier"
      std: 0.03
    }
    bias_filler {
      type: "constant"
      value: 0.2
    }
  }
}
layer {
  name: "inception_4b/relu_1x1"
  type: "ReLU"
  bottom: "inception_4b/1x1"
  top: "inception_4b/1x1"
}
layer {
  name: "inception_4b/3x3_reduce"
  type: "Convolution"
  bottom: "inception_4a/output"
  top: "inception_4b/3x3_reduce"
  param {
    lr_mult: 1
    decay_mult: 1
  }
  param {
    lr_mult: 2
    decay_mult: 0
  }
  convolution_param {
    num_output: 112
    kernel_size: 1
    weight_filler {
      type: "xavier"
      std: 0.09
    }
    bias_filler {
      type: "constant"
      value: 0.2
    }
  }
}
layer {
  name: "inception_4b/relu_3x3_reduce"
  type: "ReLU"
  bottom: "inception_4b/3x3_reduce"
  top: "inception_4b/3x3_reduce"
}
layer {
  name: "inception_4b/3x3"
  type: "Convolution"
  bottom: "inception_4b/3x3_reduce"
  top: "inception_4b/3x3"
  param {
    lr_mult: 1
    decay_mult: 1
  }
  param {
    lr_mult: 2
    decay_mult: 0
  }
  convolution_param {
    num_output: 224
    pad: 1
    kernel_size: 3
    weight_filler {
      type: "xavier"
      std: 0.03
    }
    bias_filler {
      type: "constant"
      value: 0.2
    }
  }
}
layer {
  name: "inception_4b/relu_3x3"
  type: "ReLU"
  bottom: "inception_4b/3x3"
  top: "inception_4b/3x3"
}
layer {
  name: "inception_4b/5x5_reduce"
  type: "Convolution"
  bottom: "inception_4a/output"
  top: "inception_4b/5x5_reduce"
  param {
    lr_mult: 1
    decay_mult: 1
  }
  param {
    lr_mult: 2
    decay_mult: 0
  }
  convolution_param {
    num_output: 24
    kernel_size: 1
    weight_filler {
      type: "xavier"
      std: 0.2
    }
    bias_filler {
      type: "constant"
      value: 0.2
    }
  }
}
layer {
  name: "inception_4b/relu_5x5_reduce"
  type: "ReLU"
  bottom: "inception_4b/5x5_reduce"
  top: "inception_4b/5x5_reduce"
}
layer {
  name: "inception_4b/5x5"
  type: "Convolution"
  bottom: "inception_4b/5x5_reduce"
  top: "inception_4b/5x5"
  param {
    lr_mult: 1
    decay_mult: 1
  }
  param {
    lr_mult: 2
    decay_mult: 0
  }
  convolution_param {
    num_output: 64
    pad: 2
    kernel_size: 5
    weight_filler {
      type: "xavier"
      std: 0.03
    }
    bias_filler {
      type: "constant"
      value: 0.2
    }
  }
}
layer {
  name: "inception_4b/relu_5x5"
  type: "ReLU"
  bottom: "inception_4b/5x5"
  top: "inception_4b/5x5"
}
layer {
  name: "inception_4b/pool"
  type: "Pooling"
  bottom: "inception_4a/output"
  top: "inception_4b/pool"
  pooling_param {
    pool: MAX
    kernel_size: 3
    stride: 1
    pad: 1
  }
}
layer {
  name: "inception_4b/pool_proj"
  type: "Convolution"
  bottom: "inception_4b/pool"
  top: "inception_4b/pool_proj"
  param {
    lr_mult: 1
    decay_mult: 1
  }
  param {
    lr_mult: 2
    decay_mult: 0
  }
  convolution_param {
    num_output: 64
    kernel_size: 1
    weight_filler {
      type: "xavier"
      std: 0.1
    }
    bias_filler {
      type: "constant"
      value: 0.2
    }
  }
}
layer {
  name: "inception_4b/relu_pool_proj"
  type: "ReLU"
  bottom: "inception_4b/pool_proj"
  top: "inception_4b/pool_proj"
}
layer {
  name: "inception_4b/output"
  type: "Concat"
  bottom: "inception_4b/1x1"
  bottom: "inception_4b/3x3"
  bottom: "inception_4b/5x5"
  bottom: "inception_4b/pool_proj"
  top: "inception_4b/output"
}
layer {
  name: "inception_4c/1x1"
  type: "Convolution"
  bottom: "inception_4b/output"
  top: "inception_4c/1x1"
  param {
    lr_mult: 1
    decay_mult: 1
  }
  param {
    lr_mult: 2
    decay_mult: 0
  }
  convolution_param {
    num_output: 128
    kernel_size: 1
    weight_filler {
      type: "xavier"
      std: 0.03
    }
    bias_filler {
      type: "constant"
      value: 0.2
    }
  }
}
layer {
  name: "inception_4c/relu_1x1"
  type: "ReLU"
  bottom: "inception_4c/1x1"
  top: "inception_4c/1x1"
}
layer {
  name: "inception_4c/3x3_reduce"
  type: "Convolution"
  bottom: "inception_4b/output"
  top: "inception_4c/3x3_reduce"
  param {
    lr_mult: 1
    decay_mult: 1
  }
  param {
    lr_mult: 2
    decay_mult: 0
  }
  convolution_param {
    num_output: 128
    kernel_size: 1
    weight_filler {
      type: "xavier"
      std: 0.09
    }
    bias_filler {
      type: "constant"
      value: 0.2
    }
  }
}
layer {
  name: "inception_4c/relu_3x3_reduce"
  type: "ReLU"
  bottom: "inception_4c/3x3_reduce"
  top: "inception_4c/3x3_reduce"
}
layer {
  name: "inception_4c/3x3"
  type: "Convolution"
  bottom: "inception_4c/3x3_reduce"
  top: "inception_4c/3x3"
  param {
    lr_mult: 1
    decay_mult: 1
  }
  param {
    lr_mult: 2
    decay_mult: 0
  }
  convolution_param {
    num_output: 256
    pad: 1
    kernel_size: 3
    weight_filler {
      type: "xavier"
      std: 0.03
    }
    bias_filler {
      type: "constant"
      value: 0.2
    }
  }
}
layer {
  name: "inception_4c/relu_3x3"
  type: "ReLU"
  bottom: "inception_4c/3x3"
  top: "inception_4c/3x3"
}
layer {
  name: "inception_4c/5x5_reduce"
  type: "Convolution"
  bottom: "inception_4b/output"
  top: "inception_4c/5x5_reduce"
  param {
    lr_mult: 1
    decay_mult: 1
  }
  param {
    lr_mult: 2
    decay_mult: 0
  }
  convolution_param {
    num_output: 24
    kernel_size: 1
    weight_filler {
      type: "xavier"
      std: 0.2
    }
    bias_filler {
      type: "constant"
      value: 0.2
    }
  }
}
layer {
  name: "inception_4c/relu_5x5_reduce"
  type: "ReLU"
  bottom: "inception_4c/5x5_reduce"
  top: "inception_4c/5x5_reduce"
}
layer {
  name: "inception_4c/5x5"
  type: "Convolution"
  bottom: "inception_4c/5x5_reduce"
  top: "inception_4c/5x5"
  param {
    lr_mult: 1
    decay_mult: 1
  }
  param {
    lr_mult: 2
    decay_mult: 0
  }
  convolution_param {
    num_output: 64
    pad: 2
    kernel_size: 5
    weight_filler {
      type: "xavier"
      std: 0.03
    }
    bias_filler {
      type: "constant"
      value: 0.2
    }
  }
}
layer {
  name: "inception_4c/relu_5x5"
  type: "ReLU"
  bottom: "inception_4c/5x5"
  top: "inception_4c/5x5"
}
layer {
  name: "inception_4c/pool"
  type: "Pooling"
  bottom: "inception_4b/output"
  top: "inception_4c/pool"
  pooling_param {
    pool: MAX
    kernel_size: 3
    stride: 1
    pad: 1
  }
}
layer {
  name: "inception_4c/pool_proj"
  type: "Convolution"
  bottom: "inception_4c/pool"
  top: "inception_4c/pool_proj"
  param {
    lr_mult: 1
    decay_mult: 1
  }
  param {
    lr_mult: 2
    decay_mult: 0
  }
  convolution_param {
    num_output: 64
    kernel_size: 1
    weight_filler {
      type: "xavier"
      std: 0.1
    }
    bias_filler {
      type: "constant"
      value: 0.2
    }
  }
}
layer {
  name: "inception_4c/relu_pool_proj"
  type: "ReLU"
  bottom: "inception_4c/pool_proj"
  top: "inception_4c/pool_proj"
}
layer {
  name: "inception_4c/output"
  type: "Concat"
  bottom: "inception_4c/1x1"
  bottom: "inception_4c/3x3"
  bottom: "inception_4c/5x5"
  bottom: "inception_4c/pool_proj"
  top: "inception_4c/output"
}
layer {
  name: "inception_4d/1x1"
  type: "Convolution"
  bottom: "inception_4c/output"
  top: "inception_4d/1x1"
  param {
    lr_mult: 1
    decay_mult: 1
  }
  param {
    lr_mult: 2
    decay_mult: 0
  }
  convolution_param {
    num_output: 112
    kernel_size: 1
    weight_filler {
      type: "xavier"
      std: 0.03
    }
    bias_filler {
      type: "constant"
      value: 0.2
    }
  }
}
layer {
  name: "inception_4d/relu_1x1"
  type: "ReLU"
  bottom: "inception_4d/1x1"
  top: "inception_4d/1x1"
}
layer {
  name: "inception_4d/3x3_reduce"
  type: "Convolution"
  bottom: "inception_4c/output"
  top: "inception_4d/3x3_reduce"
  param {
    lr_mult: 1
    decay_mult: 1
  }
  param {
    lr_mult: 2
    decay_mult: 0
  }
  convolution_param {
    num_output: 144
    kernel_size: 1
    weight_filler {
      type: "xavier"
      std: 0.09
    }
    bias_filler {
      type: "constant"
      value: 0.2
    }
  }
}
layer {
  name: "inception_4d/relu_3x3_reduce"
  type: "ReLU"
  bottom: "inception_4d/3x3_reduce"
  top: "inception_4d/3x3_reduce"
}
layer {
  name: "inception_4d/3x3"
  type: "Convolution"
  bottom: "inception_4d/3x3_reduce"
  top: "inception_4d/3x3"
  param {
    lr_mult: 1
    decay_mult: 1
  }
  param {
    lr_mult: 2
    decay_mult: 0
  }
  convolution_param {
    num_output: 288
    pad: 1
    kernel_size: 3
    weight_filler {
      type: "xavier"
      std: 0.03
    }
    bias_filler {
      type: "constant"
      value: 0.2
    }
  }
}
layer {
  name: "inception_4d/relu_3x3"
  type: "ReLU"
  bottom: "inception_4d/3x3"
  top: "inception_4d/3x3"
}
layer {
  name: "inception_4d/5x5_reduce"
  type: "Convolution"
  bottom: "inception_4c/output"
  top: "inception_4d/5x5_reduce"
  param {
    lr_mult: 1
    decay_mult: 1
  }
  param {
    lr_mult: 2
    decay_mult: 0
  }
  convolution_param {
    num_output: 32
    kernel_size: 1
    weight_filler {
      type: "xavier"
      std: 0.2
    }
    bias_filler {
      type: "constant"
      value: 0.2
    }
  }
}
layer {
  name: "inception_4d/relu_5x5_reduce"
  type: "ReLU"
  bottom: "inception_4d/5x5_reduce"
  top: "inception_4d/5x5_reduce"
}
layer {
  name: "inception_4d/5x5"
  type: "Convolution"
  bottom: "inception_4d/5x5_reduce"
  top: "inception_4d/5x5"
  param {
    lr_mult: 1
    decay_mult: 1
  }
  param {
    lr_mult: 2
    decay_mult: 0
  }
  convolution_param {
    num_output: 64
    pad: 2
    kernel_size: 5
    weight_filler {
      type: "xavier"
      std: 0.03
    }
    bias_filler {
      type: "constant"
      value: 0.2
    }
  }
}
layer {
  name: "inception_4d/relu_5x5"
  type: "ReLU"
  bottom: "inception_4d/5x5"
  top: "inception_4d/5x5"
}
layer {
  name: "inception_4d/pool"
  type: "Pooling"
  bottom: "inception_4c/output"
  top: "inception_4d/pool"
  pooling_param {
    pool: MAX
    kernel_size: 3
    stride: 1
    pad: 1
  }
}
layer {
  name: "inception_4d/pool_proj"
  type: "Convolution"
  bottom: "inception_4d/pool"
  top: "inception_4d/pool_proj"
  param {
    lr_mult: 1
    decay_mult: 1
  }
  param {
    lr_mult: 2
    decay_mult: 0
  }
  convolution_param {
    num_output: 64
    kernel_size: 1
    weight_filler {
      type: "xavier"
      std: 0.1
    }
    bias_filler {
      type: "constant"
      value: 0.2
    }
  }
}
layer {
  name: "inception_4d/relu_pool_proj"
  type: "ReLU"
  bottom: "inception_4d/pool_proj"
  top: "inception_4d/pool_proj"
}
layer {
  name: "inception_4d/output"
  type: "Concat"
  bottom: "inception_4d/1x1"
  bottom: "inception_4d/3x3"
  bottom: "inception_4d/5x5"
  bottom: "inception_4d/pool_proj"
  top: "inception_4d/output"
}
layer {
  name: "loss2/ave_pool"
  type: "Pooling"
  bottom: "inception_4d/output"
  top: "loss2/ave_pool"
  pooling_param {
    pool: AVE
    kernel_size: 5
    stride: 3
  }
}
layer {
  name: "loss2/conv"
  type: "Convolution"
  bottom: "loss2/ave_pool"
  top: "loss2/conv"
  param {
    lr_mult: 1
    decay_mult: 1
  }
  param {
    lr_mult: 2
    decay_mult: 0
  }
  convolution_param {
    num_output: 128
    kernel_size: 1
    weight_filler {
      type: "xavier"
      std: 0.08
    }
    bias_filler {
      type: "constant"
      value: 0.2
    }
  }
}
layer {
  name: "loss2/relu_conv"
  type: "ReLU"
  bottom: "loss2/conv"
  top: "loss2/conv"
}
layer {
  name: "loss2/fc"
  type: "InnerProduct"
  bottom: "loss2/conv"
  top: "loss2/fc"
  param {
    lr_mult: 1
    decay_mult: 1
  }
  param {
    lr_mult: 2
    decay_mult: 0
  }
  inner_product_param {
    num_output: 1024
    weight_filler {
      type: "xavier"
      std: 0.02
    }
    bias_filler {
      type: "constant"
      value: 0.2
    }
  }
}
layer {
  name: "loss2/relu_fc"
  type: "ReLU"
  bottom: "loss2/fc"
  top: "loss2/fc"
}
layer {
  name: "loss2/drop_fc"
  type: "Dropout"
  bottom: "loss2/fc"
  top: "loss2/fc"
  dropout_param {
    dropout_ratio: 0.7
  }
}
layer {
  name: "loss2/classifier_plantvillage"
  type: "InnerProduct"
  bottom: "loss2/fc"
  top: "loss2/classifier_plantvillage"
  param {
    lr_mult: 1
    decay_mult: 1
  }
  param {
    lr_mult: 2
    decay_mult: 0
  }
  inner_product_param {
    num_output: 38
    weight_filler {
      type: "xavier"
      std: 0.0009765625
    }
    bias_filler {
      type: "constant"
      value: 0
    }
  }
}
layer {
  name: "inception_4e/1x1"
  type: "Convolution"
  bottom: "inception_4d/output"
  top: "inception_4e/1x1"
  param {
    lr_mult: 1
    decay_mult: 1
  }
  param {
    lr_mult: 2
    decay_mult: 0
  }
  convolution_param {
    num_output: 256
    kernel_size: 1
    weight_filler {
      type: "xavier"
      std: 0.03
    }
    bias_filler {
      type: "constant"
      value: 0.2
    }
  }
}
layer {
  name: "inception_4e/relu_1x1"
  type: "ReLU"
  bottom: "inception_4e/1x1"
  top: "inception_4e/1x1"
}
layer {
  name: "inception_4e/3x3_reduce"
  type: "Convolution"
  bottom: "inception_4d/output"
  top: "inception_4e/3x3_reduce"
  param {
    lr_mult: 1
    decay_mult: 1
  }
  param {
    lr_mult: 2
    decay_mult: 0
  }
  convolution_param {
    num_output: 160
    kernel_size: 1
    weight_filler {
      type: "xavier"
      std: 0.09
    }
    bias_filler {
      type: "constant"
      value: 0.2
    }
  }
}
layer {
  name: "inception_4e/relu_3x3_reduce"
  type: "ReLU"
  bottom: "inception_4e/3x3_reduce"
  top: "inception_4e/3x3_reduce"
}
layer {
  name: "inception_4e/3x3"
  type: "Convolution"
  bottom: "inception_4e/3x3_reduce"
  top: "inception_4e/3x3"
  param {
    lr_mult: 1
    decay_mult: 1
  }
  param {
    lr_mult: 2
    decay_mult: 0
  }
  convolution_param {
    num_output: 320
    pad: 1
    kernel_size: 3
    weight_filler {
      type: "xavier"
      std: 0.03
    }
    bias_filler {
      type: "constant"
      value: 0.2
    }
  }
}
layer {
  name: "inception_4e/relu_3x3"
  type: "ReLU"
  bottom: "inception_4e/3x3"
  top: "inception_4e/3x3"
}
layer {
  name: "inception_4e/5x5_reduce"
  type: "Convolution"
  bottom: "inception_4d/output"
  top: "inception_4e/5x5_reduce"
  param {
    lr_mult: 1
    decay_mult: 1
  }
  param {
    lr_mult: 2
    decay_mult: 0
  }
  convolution_param {
    num_output: 32
    kernel_size: 1
    weight_filler {
      type: "xavier"
      std: 0.2
    }
    bias_filler {
      type: "constant"
      value: 0.2
    }
  }
}
layer {
  name: "inception_4e/relu_5x5_reduce"
  type: "ReLU"
  bottom: "inception_4e/5x5_reduce"
  top: "inception_4e/5x5_reduce"
}
layer {
  name: "inception_4e/5x5"
  type: "Convolution"
  bottom: "inception_4e/5x5_reduce"
  top: "inception_4e/
I0403 15:14:50.586136 31355 layer_factory.hpp:77] Creating layer data
I0403 15:14:50.586724 31355 net.cpp:91] Creating Layer data
I0403 15:14:50.586755 31355 net.cpp:399] data -> data
I0403 15:14:50.586812 31355 net.cpp:399] data -> label
I0403 15:14:50.586848 31355 data_transformer.cpp:25] Loading mean file from: /home/mohanty/data/final_dataset/lmdb/grayscale-80-20/mean.binaryproto
I0403 15:14:50.589673 31360 db_lmdb.cpp:38] Opened lmdb /home/mohanty/data/final_dataset/lmdb/grayscale-80-20/test_db
I0403 15:14:50.600175 31355 data_layer.cpp:41] output data size: 24,3,224,224
I0403 15:14:50.627938 31355 net.cpp:141] Setting up data
I0403 15:14:50.628027 31355 net.cpp:148] Top shape: 24 3 224 224 (3612672)
I0403 15:14:50.628051 31355 net.cpp:148] Top shape: 24 (24)
I0403 15:14:50.628068 31355 net.cpp:156] Memory required for data: 14450784
I0403 15:14:50.628099 31355 layer_factory.hpp:77] Creating layer label_data_1_split
I0403 15:14:50.628131 31355 net.cpp:91] Creating Layer label_data_1_split
I0403 15:14:50.628164 31355 net.cpp:425] label_data_1_split <- label
I0403 15:14:50.628201 31355 net.cpp:399] label_data_1_split -> label_data_1_split_0
I0403 15:14:50.628232 31355 net.cpp:399] label_data_1_split -> label_data_1_split_1
I0403 15:14:50.628255 31355 net.cpp:399] label_data_1_split -> label_data_1_split_2
I0403 15:14:50.628278 31355 net.cpp:399] label_data_1_split -> label_data_1_split_3
I0403 15:14:50.628312 31355 net.cpp:399] label_data_1_split -> label_data_1_split_4
I0403 15:14:50.628334 31355 net.cpp:399] label_data_1_split -> label_data_1_split_5
I0403 15:14:50.628353 31355 net.cpp:399] label_data_1_split -> label_data_1_split_6
I0403 15:14:50.628376 31355 net.cpp:399] label_data_1_split -> label_data_1_split_7
I0403 15:14:50.628396 31355 net.cpp:399] label_data_1_split -> label_data_1_split_8
I0403 15:14:50.628417 31355 net.cpp:399] label_data_1_split -> label_data_1_split_9
I0403 15:14:50.628542 31355 net.cpp:141] Setting up label_data_1_split
I0403 15:14:50.628567 31355 net.cpp:148] Top shape: 24 (24)
I0403 15:14:50.628585 31355 net.cpp:148] Top shape: 24 (24)
I0403 15:14:50.628602 31355 net.cpp:148] Top shape: 24 (24)
I0403 15:14:50.628618 31355 net.cpp:148] Top shape: 24 (24)
I0403 15:14:50.628635 31355 net.cpp:148] Top shape: 24 (24)
I0403 15:14:50.628651 31355 net.cpp:148] Top shape: 24 (24)
I0403 15:14:50.628669 31355 net.cpp:148] Top shape: 24 (24)
I0403 15:14:50.628684 31355 net.cpp:148] Top shape: 24 (24)
I0403 15:14:50.628701 31355 net.cpp:148] Top shape: 24 (24)
I0403 15:14:50.628720 31355 net.cpp:148] Top shape: 24 (24)
I0403 15:14:50.628759 31355 net.cpp:156] Memory required for data: 14451744
I0403 15:14:50.628775 31355 layer_factory.hpp:77] Creating layer conv1/7x7_s2
I0403 15:14:50.628811 31355 net.cpp:91] Creating Layer conv1/7x7_s2
I0403 15:14:50.628829 31355 net.cpp:425] conv1/7x7_s2 <- data
I0403 15:14:50.628849 31355 net.cpp:399] conv1/7x7_s2 -> conv1/7x7_s2
I0403 15:14:50.770203 31355 net.cpp:141] Setting up conv1/7x7_s2
I0403 15:14:50.770326 31355 net.cpp:148] Top shape: 24 64 112 112 (19267584)
I0403 15:14:50.770349 31355 net.cpp:156] Memory required for data: 91522080
I0403 15:14:50.770385 31355 layer_factory.hpp:77] Creating layer conv1/relu_7x7
I0403 15:14:50.770418 31355 net.cpp:91] Creating Layer conv1/relu_7x7
I0403 15:14:50.770438 31355 net.cpp:425] conv1/relu_7x7 <- conv1/7x7_s2
I0403 15:14:50.770462 31355 net.cpp:386] conv1/relu_7x7 -> conv1/7x7_s2 (in-place)
I0403 15:14:50.770741 31355 net.cpp:141] Setting up conv1/relu_7x7
I0403 15:14:50.770771 31355 net.cpp:148] Top shape: 24 64 112 112 (19267584)
I0403 15:14:50.770787 31355 net.cpp:156] Memory required for data: 168592416
I0403 15:14:50.770802 31355 layer_factory.hpp:77] Creating layer pool1/3x3_s2
I0403 15:14:50.770828 31355 net.cpp:91] Creating Layer pool1/3x3_s2
I0403 15:14:50.770846 31355 net.cpp:425] pool1/3x3_s2 <- conv1/7x7_s2
I0403 15:14:50.770867 31355 net.cpp:399] pool1/3x3_s2 -> pool1/3x3_s2
I0403 15:14:50.770956 31355 net.cpp:141] Setting up pool1/3x3_s2
I0403 15:14:50.770982 31355 net.cpp:148] Top shape: 24 64 56 56 (4816896)
I0403 15:14:50.770998 31355 net.cpp:156] Memory required for data: 187860000
I0403 15:14:50.771013 31355 layer_factory.hpp:77] Creating layer pool1/norm1
I0403 15:14:50.771037 31355 net.cpp:91] Creating Layer pool1/norm1
I0403 15:14:50.771054 31355 net.cpp:425] pool1/norm1 <- pool1/3x3_s2
I0403 15:14:50.771075 31355 net.cpp:399] pool1/norm1 -> pool1/norm1
I0403 15:14:50.771447 31355 net.cpp:141] Setting up pool1/norm1
I0403 15:14:50.771474 31355 net.cpp:148] Top shape: 24 64 56 56 (4816896)
I0403 15:14:50.771492 31355 net.cpp:156] Memory required for data: 207127584
I0403 15:14:50.771512 31355 layer_factory.hpp:77] Creating layer conv2/3x3_reduce
I0403 15:14:50.771543 31355 net.cpp:91] Creating Layer conv2/3x3_reduce
I0403 15:14:50.771559 31355 net.cpp:425] conv2/3x3_reduce <- pool1/norm1
I0403 15:14:50.771580 31355 net.cpp:399] conv2/3x3_reduce -> conv2/3x3_reduce
I0403 15:14:50.773013 31355 net.cpp:141] Setting up conv2/3x3_reduce
I0403 15:14:50.773042 31355 net.cpp:148] Top shape: 24 64 56 56 (4816896)
I0403 15:14:50.773058 31355 net.cpp:156] Memory required for data: 226395168
I0403 15:14:50.773079 31355 layer_factory.hpp:77] Creating layer conv2/relu_3x3_reduce
I0403 15:14:50.773102 31355 net.cpp:91] Creating Layer conv2/relu_3x3_reduce
I0403 15:14:50.773118 31355 net.cpp:425] conv2/relu_3x3_reduce <- conv2/3x3_reduce
I0403 15:14:50.773135 31355 net.cpp:386] conv2/relu_3x3_reduce -> conv2/3x3_reduce (in-place)
I0403 15:14:50.773401 31355 net.cpp:141] Setting up conv2/relu_3x3_reduce
I0403 15:14:50.773427 31355 net.cpp:148] Top shape: 24 64 56 56 (4816896)
I0403 15:14:50.773442 31355 net.cpp:156] Memory required for data: 245662752
I0403 15:14:50.773457 31355 layer_factory.hpp:77] Creating layer conv2/3x3
I0403 15:14:50.773483 31355 net.cpp:91] Creating Layer conv2/3x3
I0403 15:14:50.773509 31355 net.cpp:425] conv2/3x3 <- conv2/3x3_reduce
I0403 15:14:50.773540 31355 net.cpp:399] conv2/3x3 -> conv2/3x3
I0403 15:14:50.775876 31355 net.cpp:141] Setting up conv2/3x3
I0403 15:14:50.775908 31355 net.cpp:148] Top shape: 24 192 56 56 (14450688)
I0403 15:14:50.775926 31355 net.cpp:156] Memory required for data: 303465504
I0403 15:14:50.775949 31355 layer_factory.hpp:77] Creating layer conv2/relu_3x3
I0403 15:14:50.775976 31355 net.cpp:91] Creating Layer conv2/relu_3x3
I0403 15:14:50.775995 31355 net.cpp:425] conv2/relu_3x3 <- conv2/3x3
I0403 15:14:50.776016 31355 net.cpp:386] conv2/relu_3x3 -> conv2/3x3 (in-place)
I0403 15:14:50.776192 31355 net.cpp:141] Setting up conv2/relu_3x3
I0403 15:14:50.776218 31355 net.cpp:148] Top shape: 24 192 56 56 (14450688)
I0403 15:14:50.776271 31355 net.cpp:156] Memory required for data: 361268256
I0403 15:14:50.776288 31355 layer_factory.hpp:77] Creating layer conv2/norm2
I0403 15:14:50.776305 31355 net.cpp:91] Creating Layer conv2/norm2
I0403 15:14:50.776322 31355 net.cpp:425] conv2/norm2 <- conv2/3x3
I0403 15:14:50.776342 31355 net.cpp:399] conv2/norm2 -> conv2/norm2
I0403 15:14:50.776644 31355 net.cpp:141] Setting up conv2/norm2
I0403 15:14:50.776671 31355 net.cpp:148] Top shape: 24 192 56 56 (14450688)
I0403 15:14:50.776687 31355 net.cpp:156] Memory required for data: 419071008
I0403 15:14:50.776702 31355 layer_factory.hpp:77] Creating layer pool2/3x3_s2
I0403 15:14:50.776724 31355 net.cpp:91] Creating Layer pool2/3x3_s2
I0403 15:14:50.776741 31355 net.cpp:425] pool2/3x3_s2 <- conv2/norm2
I0403 15:14:50.776760 31355 net.cpp:399] pool2/3x3_s2 -> pool2/3x3_s2
I0403 15:14:50.776814 31355 net.cpp:141] Setting up pool2/3x3_s2
I0403 15:14:50.776836 31355 net.cpp:148] Top shape: 24 192 28 28 (3612672)
I0403 15:14:50.776851 31355 net.cpp:156] Memory required for data: 433521696
I0403 15:14:50.776865 31355 layer_factory.hpp:77] Creating layer pool2/3x3_s2_pool2/3x3_s2_0_split
I0403 15:14:50.776883 31355 net.cpp:91] Creating Layer pool2/3x3_s2_pool2/3x3_s2_0_split
I0403 15:14:50.776898 31355 net.cpp:425] pool2/3x3_s2_pool2/3x3_s2_0_split <- pool2/3x3_s2
I0403 15:14:50.776918 31355 net.cpp:399] pool2/3x3_s2_pool2/3x3_s2_0_split -> pool2/3x3_s2_pool2/3x3_s2_0_split_0
I0403 15:14:50.776939 31355 net.cpp:399] pool2/3x3_s2_pool2/3x3_s2_0_split -> pool2/3x3_s2_pool2/3x3_s2_0_split_1
I0403 15:14:50.776960 31355 net.cpp:399] pool2/3x3_s2_pool2/3x3_s2_0_split -> pool2/3x3_s2_pool2/3x3_s2_0_split_2
I0403 15:14:50.776979 31355 net.cpp:399] pool2/3x3_s2_pool2/3x3_s2_0_split -> pool2/3x3_s2_pool2/3x3_s2_0_split_3
I0403 15:14:50.777047 31355 net.cpp:141] Setting up pool2/3x3_s2_pool2/3x3_s2_0_split
I0403 15:14:50.777072 31355 net.cpp:148] Top shape: 24 192 28 28 (3612672)
I0403 15:14:50.777091 31355 net.cpp:148] Top shape: 24 192 28 28 (3612672)
I0403 15:14:50.777107 31355 net.cpp:148] Top shape: 24 192 28 28 (3612672)
I0403 15:14:50.777122 31355 net.cpp:148] Top shape: 24 192 28 28 (3612672)
I0403 15:14:50.777135 31355 net.cpp:156] Memory required for data: 491324448
I0403 15:14:50.777150 31355 layer_factory.hpp:77] Creating layer inception_3a/1x1
I0403 15:14:50.777173 31355 net.cpp:91] Creating Layer inception_3a/1x1
I0403 15:14:50.777191 31355 net.cpp:425] inception_3a/1x1 <- pool2/3x3_s2_pool2/3x3_s2_0_split_0
I0403 15:14:50.777209 31355 net.cpp:399] inception_3a/1x1 -> inception_3a/1x1
I0403 15:14:50.778743 31355 net.cpp:141] Setting up inception_3a/1x1
I0403 15:14:50.778774 31355 net.cpp:148] Top shape: 24 64 28 28 (1204224)
I0403 15:14:50.778791 31355 net.cpp:156] Memory required for data: 496141344
I0403 15:14:50.778810 31355 layer_factory.hpp:77] Creating layer inception_3a/relu_1x1
I0403 15:14:50.778831 31355 net.cpp:91] Creating Layer inception_3a/relu_1x1
I0403 15:14:50.778847 31355 net.cpp:425] inception_3a/relu_1x1 <- inception_3a/1x1
I0403 15:14:50.778864 31355 net.cpp:386] inception_3a/relu_1x1 -> inception_3a/1x1 (in-place)
I0403 15:14:50.779037 31355 net.cpp:141] Setting up inception_3a/relu_1x1
I0403 15:14:50.779063 31355 net.cpp:148] Top shape: 24 64 28 28 (1204224)
I0403 15:14:50.779079 31355 net.cpp:156] Memory required for data: 500958240
I0403 15:14:50.779094 31355 layer_factory.hpp:77] Creating layer inception_3a/3x3_reduce
I0403 15:14:50.779116 31355 net.cpp:91] Creating Layer inception_3a/3x3_reduce
I0403 15:14:50.779134 31355 net.cpp:425] inception_3a/3x3_reduce <- pool2/3x3_s2_pool2/3x3_s2_0_split_1
I0403 15:14:50.779152 31355 net.cpp:399] inception_3a/3x3_reduce -> inception_3a/3x3_reduce
I0403 15:14:50.780853 31355 net.cpp:141] Setting up inception_3a/3x3_reduce
I0403 15:14:50.780882 31355 net.cpp:148] Top shape: 24 96 28 28 (1806336)
I0403 15:14:50.780899 31355 net.cpp:156] Memory required for data: 508183584
I0403 15:14:50.780920 31355 layer_factory.hpp:77] Creating layer inception_3a/relu_3x3_reduce
I0403 15:14:50.780956 31355 net.cpp:91] Creating Layer inception_3a/relu_3x3_reduce
I0403 15:14:50.780974 31355 net.cpp:425] inception_3a/relu_3x3_reduce <- inception_3a/3x3_reduce
I0403 15:14:50.780995 31355 net.cpp:386] inception_3a/relu_3x3_reduce -> inception_3a/3x3_reduce (in-place)
I0403 15:14:50.781173 31355 net.cpp:141] Setting up inception_3a/relu_3x3_reduce
I0403 15:14:50.781198 31355 net.cpp:148] Top shape: 24 96 28 28 (1806336)
I0403 15:14:50.781213 31355 net.cpp:156] Memory required for data: 515408928
I0403 15:14:50.781229 31355 layer_factory.hpp:77] Creating layer inception_3a/3x3
I0403 15:14:50.781251 31355 net.cpp:91] Creating Layer inception_3a/3x3
I0403 15:14:50.781268 31355 net.cpp:425] inception_3a/3x3 <- inception_3a/3x3_reduce
I0403 15:14:50.781291 31355 net.cpp:399] inception_3a/3x3 -> inception_3a/3x3
I0403 15:14:50.782928 31355 net.cpp:141] Setting up inception_3a/3x3
I0403 15:14:50.782959 31355 net.cpp:148] Top shape: 24 128 28 28 (2408448)
I0403 15:14:50.782976 31355 net.cpp:156] Memory required for data: 525042720
I0403 15:14:50.782995 31355 layer_factory.hpp:77] Creating layer inception_3a/relu_3x3
I0403 15:14:50.783015 31355 net.cpp:91] Creating Layer inception_3a/relu_3x3
I0403 15:14:50.783030 31355 net.cpp:425] inception_3a/relu_3x3 <- inception_3a/3x3
I0403 15:14:50.783049 31355 net.cpp:386] inception_3a/relu_3x3 -> inception_3a/3x3 (in-place)
I0403 15:14:50.783323 31355 net.cpp:141] Setting up inception_3a/relu_3x3
I0403 15:14:50.783351 31355 net.cpp:148] Top shape: 24 128 28 28 (2408448)
I0403 15:14:50.783367 31355 net.cpp:156] Memory required for data: 534676512
I0403 15:14:50.783382 31355 layer_factory.hpp:77] Creating layer inception_3a/5x5_reduce
I0403 15:14:50.783406 31355 net.cpp:91] Creating Layer inception_3a/5x5_reduce
I0403 15:14:50.783421 31355 net.cpp:425] inception_3a/5x5_reduce <- pool2/3x3_s2_pool2/3x3_s2_0_split_2
I0403 15:14:50.783445 31355 net.cpp:399] inception_3a/5x5_reduce -> inception_3a/5x5_reduce
I0403 15:14:50.784394 31355 net.cpp:141] Setting up inception_3a/5x5_reduce
I0403 15:14:50.784425 31355 net.cpp:148] Top shape: 24 16 28 28 (301056)
I0403 15:14:50.784441 31355 net.cpp:156] Memory required for data: 535880736
I0403 15:14:50.784459 31355 layer_factory.hpp:77] Creating layer inception_3a/relu_5x5_reduce
I0403 15:14:50.784477 31355 net.cpp:91] Creating Layer inception_3a/relu_5x5_reduce
I0403 15:14:50.784492 31355 net.cpp:425] inception_3a/relu_5x5_reduce <- inception_3a/5x5_reduce
I0403 15:14:50.784523 31355 net.cpp:386] inception_3a/relu_5x5_reduce -> inception_3a/5x5_reduce (in-place)
I0403 15:14:50.784818 31355 net.cpp:141] Setting up inception_3a/relu_5x5_reduce
I0403 15:14:50.784845 31355 net.cpp:148] Top shape: 24 16 28 28 (301056)
I0403 15:14:50.784860 31355 net.cpp:156] Memory required for data: 537084960
I0403 15:14:50.784875 31355 layer_factory.hpp:77] Creating layer inception_3a/5x5
I0403 15:14:50.784898 31355 net.cpp:91] Creating Layer inception_3a/5x5
I0403 15:14:50.784915 31355 net.cpp:425] inception_3a/5x5 <- inception_3a/5x5_reduce
I0403 15:14:50.784936 31355 net.cpp:399] inception_3a/5x5 -> inception_3a/5x5
I0403 15:14:50.785938 31355 net.cpp:141] Setting up inception_3a/5x5
I0403 15:14:50.785966 31355 net.cpp:148] Top shape: 24 32 28 28 (602112)
I0403 15:14:50.785984 31355 net.cpp:156] Memory required for data: 539493408
I0403 15:14:50.786003 31355 layer_factory.hpp:77] Creating layer inception_3a/relu_5x5
I0403 15:14:50.786021 31355 net.cpp:91] Creating Layer inception_3a/relu_5x5
I0403 15:14:50.786037 31355 net.cpp:425] inception_3a/relu_5x5 <- inception_3a/5x5
I0403 15:14:50.786056 31355 net.cpp:386] inception_3a/relu_5x5 -> inception_3a/5x5 (in-place)
I0403 15:14:50.786226 31355 net.cpp:141] Setting up inception_3a/relu_5x5
I0403 15:14:50.786252 31355 net.cpp:148] Top shape: 24 32 28 28 (602112)
I0403 15:14:50.786267 31355 net.cpp:156] Memory required for data: 541901856
I0403 15:14:50.786283 31355 layer_factory.hpp:77] Creating layer inception_3a/pool
I0403 15:14:50.786303 31355 net.cpp:91] Creating Layer inception_3a/pool
I0403 15:14:50.786334 31355 net.cpp:425] inception_3a/pool <- pool2/3x3_s2_pool2/3x3_s2_0_split_3
I0403 15:14:50.786355 31355 net.cpp:399] inception_3a/pool -> inception_3a/pool
I0403 15:14:50.786412 31355 net.cpp:141] Setting up inception_3a/pool
I0403 15:14:50.786438 31355 net.cpp:148] Top shape: 24 192 28 28 (3612672)
I0403 15:14:50.786453 31355 net.cpp:156] Memory required for data: 556352544
I0403 15:14:50.786468 31355 layer_factory.hpp:77] Creating layer inception_3a/pool_proj
I0403 15:14:50.786489 31355 net.cpp:91] Creating Layer inception_3a/pool_proj
I0403 15:14:50.786509 31355 net.cpp:425] inception_3a/pool_proj <- inception_3a/pool
I0403 15:14:50.786532 31355 net.cpp:399] inception_3a/pool_proj -> inception_3a/pool_proj
I0403 15:14:50.787487 31355 net.cpp:141] Setting up inception_3a/pool_proj
I0403 15:14:50.787519 31355 net.cpp:148] Top shape: 24 32 28 28 (602112)
I0403 15:14:50.787536 31355 net.cpp:156] Memory required for data: 558760992
I0403 15:14:50.787561 31355 layer_factory.hpp:77] Creating layer inception_3a/relu_pool_proj
I0403 15:14:50.787582 31355 net.cpp:91] Creating Layer inception_3a/relu_pool_proj
I0403 15:14:50.787600 31355 net.cpp:425] inception_3a/relu_pool_proj <- inception_3a/pool_proj
I0403 15:14:50.787618 31355 net.cpp:386] inception_3a/relu_pool_proj -> inception_3a/pool_proj (in-place)
I0403 15:14:50.787888 31355 net.cpp:141] Setting up inception_3a/relu_pool_proj
I0403 15:14:50.787915 31355 net.cpp:148] Top shape: 24 32 28 28 (602112)
I0403 15:14:50.787931 31355 net.cpp:156] Memory required for data: 561169440
I0403 15:14:50.787946 31355 layer_factory.hpp:77] Creating layer inception_3a/output
I0403 15:14:50.787964 31355 net.cpp:91] Creating Layer inception_3a/output
I0403 15:14:50.787981 31355 net.cpp:425] inception_3a/output <- inception_3a/1x1
I0403 15:14:50.787997 31355 net.cpp:425] inception_3a/output <- inception_3a/3x3
I0403 15:14:50.788012 31355 net.cpp:425] inception_3a/output <- inception_3a/5x5
I0403 15:14:50.788028 31355 net.cpp:425] inception_3a/output <- inception_3a/pool_proj
I0403 15:14:50.788045 31355 net.cpp:399] inception_3a/output -> inception_3a/output
I0403 15:14:50.788095 31355 net.cpp:141] Setting up inception_3a/output
I0403 15:14:50.788118 31355 net.cpp:148] Top shape: 24 256 28 28 (4816896)
I0403 15:14:50.788133 31355 net.cpp:156] Memory required for data: 580437024
I0403 15:14:50.788147 31355 layer_factory.hpp:77] Creating layer inception_3a/output_inception_3a/output_0_split
I0403 15:14:50.788166 31355 net.cpp:91] Creating Layer inception_3a/output_inception_3a/output_0_split
I0403 15:14:50.788182 31355 net.cpp:425] inception_3a/output_inception_3a/output_0_split <- inception_3a/output
I0403 15:14:50.788200 31355 net.cpp:399] inception_3a/output_inception_3a/output_0_split -> inception_3a/output_inception_3a/output_0_split_0
I0403 15:14:50.788220 31355 net.cpp:399] inception_3a/output_inception_3a/output_0_split -> inception_3a/output_inception_3a/output_0_split_1
I0403 15:14:50.788244 31355 net.cpp:399] inception_3a/output_inception_3a/output_0_split -> inception_3a/output_inception_3a/output_0_split_2
I0403 15:14:50.788266 31355 net.cpp:399] inception_3a/output_inception_3a/output_0_split -> inception_3a/output_inception_3a/output_0_split_3
I0403 15:14:50.788341 31355 net.cpp:141] Setting up inception_3a/output_inception_3a/output_0_split
I0403 15:14:50.788363 31355 net.cpp:148] Top shape: 24 256 28 28 (4816896)
I0403 15:14:50.788380 31355 net.cpp:148] Top shape: 24 256 28 28 (4816896)
I0403 15:14:50.788396 31355 net.cpp:148] Top shape: 24 256 28 28 (4816896)
I0403 15:14:50.788413 31355 net.cpp:148] Top shape: 24 256 28 28 (4816896)
I0403 15:14:50.788426 31355 net.cpp:156] Memory required for data: 657507360
I0403 15:14:50.788441 31355 layer_factory.hpp:77] Creating layer inception_3b/1x1
I0403 15:14:50.788463 31355 net.cpp:91] Creating Layer inception_3b/1x1
I0403 15:14:50.788482 31355 net.cpp:425] inception_3b/1x1 <- inception_3a/output_inception_3a/output_0_split_0
I0403 15:14:50.788506 31355 net.cpp:399] inception_3b/1x1 -> inception_3b/1x1
I0403 15:14:50.789679 31355 net.cpp:141] Setting up inception_3b/1x1
I0403 15:14:50.789718 31355 net.cpp:148] Top shape: 24 128 28 28 (2408448)
I0403 15:14:50.789736 31355 net.cpp:156] Memory required for data: 667141152
I0403 15:14:50.789755 31355 layer_factory.hpp:77] Creating layer inception_3b/relu_1x1
I0403 15:14:50.789777 31355 net.cpp:91] Creating Layer inception_3b/relu_1x1
I0403 15:14:50.789794 31355 net.cpp:425] inception_3b/relu_1x1 <- inception_3b/1x1
I0403 15:14:50.789813 31355 net.cpp:386] inception_3b/relu_1x1 -> inception_3b/1x1 (in-place)
I0403 15:14:50.789996 31355 net.cpp:141] Setting up inception_3b/relu_1x1
I0403 15:14:50.790024 31355 net.cpp:148] Top shape: 24 128 28 28 (2408448)
I0403 15:14:50.790038 31355 net.cpp:156] Memory required for data: 676774944
I0403 15:14:50.790055 31355 layer_factory.hpp:77] Creating layer inception_3b/3x3_reduce
I0403 15:14:50.790076 31355 net.cpp:91] Creating Layer inception_3b/3x3_reduce
I0403 15:14:50.790094 31355 net.cpp:425] inception_3b/3x3_reduce <- inception_3a/output_inception_3a/output_0_split_1
I0403 15:14:50.790113 31355 net.cpp:399] inception_3b/3x3_reduce -> inception_3b/3x3_reduce
I0403 15:14:50.791266 31355 net.cpp:141] Setting up inception_3b/3x3_reduce
I0403 15:14:50.791295 31355 net.cpp:148] Top shape: 24 128 28 28 (2408448)
I0403 15:14:50.791309 31355 net.cpp:156] Memory required for data: 686408736
I0403 15:14:50.791328 31355 layer_factory.hpp:77] Creating layer inception_3b/relu_3x3_reduce
I0403 15:14:50.791348 31355 net.cpp:91] Creating Layer inception_3b/relu_3x3_reduce
I0403 15:14:50.791365 31355 net.cpp:425] inception_3b/relu_3x3_reduce <- inception_3b/3x3_reduce
I0403 15:14:50.791383 31355 net.cpp:386] inception_3b/relu_3x3_reduce -> inception_3b/3x3_reduce (in-place)
I0403 15:14:50.791637 31355 net.cpp:141] Setting up inception_3b/relu_3x3_reduce
I0403 15:14:50.791666 31355 net.cpp:148] Top shape: 24 128 28 28 (2408448)
I0403 15:14:50.791681 31355 net.cpp:156] Memory required for data: 696042528
I0403 15:14:50.791697 31355 layer_factory.hpp:77] Creating layer inception_3b/3x3
I0403 15:14:50.791720 31355 net.cpp:91] Creating Layer inception_3b/3x3
I0403 15:14:50.791739 31355 net.cpp:425] inception_3b/3x3 <- inception_3b/3x3_reduce
I0403 15:14:50.791760 31355 net.cpp:399] inception_3b/3x3 -> inception_3b/3x3
I0403 15:14:50.794677 31355 net.cpp:141] Setting up inception_3b/3x3
I0403 15:14:50.794708 31355 net.cpp:148] Top shape: 24 192 28 28 (3612672)
I0403 15:14:50.794724 31355 net.cpp:156] Memory required for data: 710493216
I0403 15:14:50.794742 31355 layer_factory.hpp:77] Creating layer inception_3b/relu_3x3
I0403 15:14:50.794760 31355 net.cpp:91] Creating Layer inception_3b/relu_3x3
I0403 15:14:50.794776 31355 net.cpp:425] inception_3b/relu_3x3 <- inception_3b/3x3
I0403 15:14:50.794793 31355 net.cpp:386] inception_3b/relu_3x3 -> inception_3b/3x3 (in-place)
I0403 15:14:50.795064 31355 net.cpp:141] Setting up inception_3b/relu_3x3
I0403 15:14:50.795092 31355 net.cpp:148] Top shape: 24 192 28 28 (3612672)
I0403 15:14:50.795107 31355 net.cpp:156] Memory required for data: 724943904
I0403 15:14:50.795122 31355 layer_factory.hpp:77] Creating layer inception_3b/5x5_reduce
I0403 15:14:50.795145 31355 net.cpp:91] Creating Layer inception_3b/5x5_reduce
I0403 15:14:50.795161 31355 net.cpp:425] inception_3b/5x5_reduce <- inception_3a/output_inception_3a/output_0_split_2
I0403 15:14:50.795181 31355 net.cpp:399] inception_3b/5x5_reduce -> inception_3b/5x5_reduce
I0403 15:14:50.796138 31355 net.cpp:141] Setting up inception_3b/5x5_reduce
I0403 15:14:50.796167 31355 net.cpp:148] Top shape: 24 32 28 28 (602112)
I0403 15:14:50.796187 31355 net.cpp:156] Memory required for data: 727352352
I0403 15:14:50.796206 31355 layer_factory.hpp:77] Creating layer inception_3b/relu_5x5_reduce
I0403 15:14:50.796224 31355 net.cpp:91] Creating Layer inception_3b/relu_5x5_reduce
I0403 15:14:50.796241 31355 net.cpp:425] inception_3b/relu_5x5_reduce <- inception_3b/5x5_reduce
I0403 15:14:50.796257 31355 net.cpp:386] inception_3b/relu_5x5_reduce -> inception_3b/5x5_reduce (in-place)
I0403 15:14:50.796439 31355 net.cpp:141] Setting up inception_3b/relu_5x5_reduce
I0403 15:14:50.796466 31355 net.cpp:148] Top shape: 24 32 28 28 (602112)
I0403 15:14:50.796483 31355 net.cpp:156] Memory required for data: 729760800
I0403 15:14:50.796497 31355 layer_factory.hpp:77] Creating layer inception_3b/5x5
I0403 15:14:50.796525 31355 net.cpp:91] Creating Layer inception_3b/5x5
I0403 15:14:50.796541 31355 net.cpp:425] inception_3b/5x5 <- inception_3b/5x5_reduce
I0403 15:14:50.796562 31355 net.cpp:399] inception_3b/5x5 -> inception_3b/5x5
I0403 15:14:50.798488 31355 net.cpp:141] Setting up inception_3b/5x5
I0403 15:14:50.798521 31355 net.cpp:148] Top shape: 24 96 28 28 (1806336)
I0403 15:14:50.798537 31355 net.cpp:156] Memory required for data: 736986144
I0403 15:14:50.798555 31355 layer_factory.hpp:77] Creating layer inception_3b/relu_5x5
I0403 15:14:50.798578 31355 net.cpp:91] Creating Layer inception_3b/relu_5x5
I0403 15:14:50.798594 31355 net.cpp:425] inception_3b/relu_5x5 <- inception_3b/5x5
I0403 15:14:50.798612 31355 net.cpp:386] inception_3b/relu_5x5 -> inception_3b/5x5 (in-place)
I0403 15:14:50.798799 31355 net.cpp:141] Setting up inception_3b/relu_5x5
I0403 15:14:50.798822 31355 net.cpp:148] Top shape: 24 96 28 28 (1806336)
I0403 15:14:50.798837 31355 net.cpp:156] Memory required for data: 744211488
I0403 15:14:50.798852 31355 layer_factory.hpp:77] Creating layer inception_3b/pool
I0403 15:14:50.798869 31355 net.cpp:91] Creating Layer inception_3b/pool
I0403 15:14:50.798885 31355 net.cpp:425] inception_3b/pool <- inception_3a/output_inception_3a/output_0_split_3
I0403 15:14:50.798903 31355 net.cpp:399] inception_3b/pool -> inception_3b/pool
I0403 15:14:50.798959 31355 net.cpp:141] Setting up inception_3b/pool
I0403 15:14:50.798980 31355 net.cpp:148] Top shape: 24 256 28 28 (4816896)
I0403 15:14:50.798995 31355 net.cpp:156] Memory required for data: 763479072
I0403 15:14:50.799008 31355 layer_factory.hpp:77] Creating layer inception_3b/pool_proj
I0403 15:14:50.799029 31355 net.cpp:91] Creating Layer inception_3b/pool_proj
I0403 15:14:50.799046 31355 net.cpp:425] inception_3b/pool_proj <- inception_3b/pool
I0403 15:14:50.799067 31355 net.cpp:399] inception_3b/pool_proj -> inception_3b/pool_proj
I0403 15:14:50.800081 31355 net.cpp:141] Setting up inception_3b/pool_proj
I0403 15:14:50.800108 31355 net.cpp:148] Top shape: 24 64 28 28 (1204224)
I0403 15:14:50.800122 31355 net.cpp:156] Memory required for data: 768295968
I0403 15:14:50.800140 31355 layer_factory.hpp:77] Creating layer inception_3b/relu_pool_proj
I0403 15:14:50.800158 31355 net.cpp:91] Creating Layer inception_3b/relu_pool_proj
I0403 15:14:50.800173 31355 net.cpp:425] inception_3b/relu_pool_proj <- inception_3b/pool_proj
I0403 15:14:50.800194 31355 net.cpp:386] inception_3b/relu_pool_proj -> inception_3b/pool_proj (in-place)
I0403 15:14:50.800580 31355 net.cpp:141] Setting up inception_3b/relu_pool_proj
I0403 15:14:50.800606 31355 net.cpp:148] Top shape: 24 64 28 28 (1204224)
I0403 15:14:50.800621 31355 net.cpp:156] Memory required for data: 773112864
I0403 15:14:50.800636 31355 layer_factory.hpp:77] Creating layer inception_3b/output
I0403 15:14:50.800652 31355 net.cpp:91] Creating Layer inception_3b/output
I0403 15:14:50.800668 31355 net.cpp:425] inception_3b/output <- inception_3b/1x1
I0403 15:14:50.800684 31355 net.cpp:425] inception_3b/output <- inception_3b/3x3
I0403 15:14:50.800700 31355 net.cpp:425] inception_3b/output <- inception_3b/5x5
I0403 15:14:50.800715 31355 net.cpp:425] inception_3b/output <- inception_3b/pool_proj
I0403 15:14:50.800732 31355 net.cpp:399] inception_3b/output -> inception_3b/output
I0403 15:14:50.800778 31355 net.cpp:141] Setting up inception_3b/output
I0403 15:14:50.800801 31355 net.cpp:148] Top shape: 24 480 28 28 (9031680)
I0403 15:14:50.800815 31355 net.cpp:156] Memory required for data: 809239584
I0403 15:14:50.800830 31355 layer_factory.hpp:77] Creating layer pool3/3x3_s2
I0403 15:14:50.800848 31355 net.cpp:91] Creating Layer pool3/3x3_s2
I0403 15:14:50.800866 31355 net.cpp:425] pool3/3x3_s2 <- inception_3b/output
I0403 15:14:50.800897 31355 net.cpp:399] pool3/3x3_s2 -> pool3/3x3_s2
I0403 15:14:50.800956 31355 net.cpp:141] Setting up pool3/3x3_s2
I0403 15:14:50.800979 31355 net.cpp:148] Top shape: 24 480 14 14 (2257920)
I0403 15:14:50.800994 31355 net.cpp:156] Memory required for data: 818271264
I0403 15:14:50.801008 31355 layer_factory.hpp:77] Creating layer pool3/3x3_s2_pool3/3x3_s2_0_split
I0403 15:14:50.801024 31355 net.cpp:91] Creating Layer pool3/3x3_s2_pool3/3x3_s2_0_split
I0403 15:14:50.801039 31355 net.cpp:425] pool3/3x3_s2_pool3/3x3_s2_0_split <- pool3/3x3_s2
I0403 15:14:50.801059 31355 net.cpp:399] pool3/3x3_s2_pool3/3x3_s2_0_split -> pool3/3x3_s2_pool3/3x3_s2_0_split_0
I0403 15:14:50.801079 31355 net.cpp:399] pool3/3x3_s2_pool3/3x3_s2_0_split -> pool3/3x3_s2_pool3/3x3_s2_0_split_1
I0403 15:14:50.801105 31355 net.cpp:399] pool3/3x3_s2_pool3/3x3_s2_0_split -> pool3/3x3_s2_pool3/3x3_s2_0_split_2
I0403 15:14:50.801126 31355 net.cpp:399] pool3/3x3_s2_pool3/3x3_s2_0_split -> pool3/3x3_s2_pool3/3x3_s2_0_split_3
I0403 15:14:50.801209 31355 net.cpp:141] Setting up pool3/3x3_s2_pool3/3x3_s2_0_split
I0403 15:14:50.801234 31355 net.cpp:148] Top shape: 24 480 14 14 (2257920)
I0403 15:14:50.801250 31355 net.cpp:148] Top shape: 24 480 14 14 (2257920)
I0403 15:14:50.801265 31355 net.cpp:148] Top shape: 24 480 14 14 (2257920)
I0403 15:14:50.801282 31355 net.cpp:148] Top shape: 24 480 14 14 (2257920)
I0403 15:14:50.801296 31355 net.cpp:156] Memory required for data: 854397984
I0403 15:14:50.801311 31355 layer_factory.hpp:77] Creating layer inception_4a/1x1
I0403 15:14:50.801332 31355 net.cpp:91] Creating Layer inception_4a/1x1
I0403 15:14:50.801349 31355 net.cpp:425] inception_4a/1x1 <- pool3/3x3_s2_pool3/3x3_s2_0_split_0
I0403 15:14:50.801369 31355 net.cpp:399] inception_4a/1x1 -> inception_4a/1x1
I0403 15:14:50.802919 31355 net.cpp:141] Setting up inception_4a/1x1
I0403 15:14:50.802983 31355 net.cpp:148] Top shape: 24 192 14 14 (903168)
I0403 15:14:50.803020 31355 net.cpp:156] Memory required for data: 858010656
I0403 15:14:50.803061 31355 layer_factory.hpp:77] Creating layer inception_4a/relu_1x1
I0403 15:14:50.803110 31355 net.cpp:91] Creating Layer inception_4a/relu_1x1
I0403 15:14:50.803135 31355 net.cpp:425] inception_4a/relu_1x1 <- inception_4a/1x1
I0403 15:14:50.803155 31355 net.cpp:386] inception_4a/relu_1x1 -> inception_4a/1x1 (in-place)
I0403 15:14:50.803323 31355 net.cpp:141] Setting up inception_4a/relu_1x1
I0403 15:14:50.803349 31355 net.cpp:148] Top shape: 24 192 14 14 (903168)
I0403 15:14:50.803364 31355 net.cpp:156] Memory required for data: 861623328
I0403 15:14:50.803377 31355 layer_factory.hpp:77] Creating layer inception_4a/3x3_reduce
I0403 15:14:50.803400 31355 net.cpp:91] Creating Layer inception_4a/3x3_reduce
I0403 15:14:50.803417 31355 net.cpp:425] inception_4a/3x3_reduce <- pool3/3x3_s2_pool3/3x3_s2_0_split_1
I0403 15:14:50.803438 31355 net.cpp:399] inception_4a/3x3_reduce -> inception_4a/3x3_reduce
I0403 15:14:50.804673 31355 net.cpp:141] Setting up inception_4a/3x3_reduce
I0403 15:14:50.804718 31355 net.cpp:148] Top shape: 24 96 14 14 (451584)
I0403 15:14:50.804757 31355 net.cpp:156] Memory required for data: 863429664
I0403 15:14:50.804783 31355 layer_factory.hpp:77] Creating layer inception_4a/relu_3x3_reduce
I0403 15:14:50.804803 31355 net.cpp:91] Creating Layer inception_4a/relu_3x3_reduce
I0403 15:14:50.804819 31355 net.cpp:425] inception_4a/relu_3x3_reduce <- inception_4a/3x3_reduce
I0403 15:14:50.804838 31355 net.cpp:386] inception_4a/relu_3x3_reduce -> inception_4a/3x3_reduce (in-place)
I0403 15:14:50.805011 31355 net.cpp:141] Setting up inception_4a/relu_3x3_reduce
I0403 15:14:50.805060 31355 net.cpp:148] Top shape: 24 96 14 14 (451584)
I0403 15:14:50.805102 31355 net.cpp:156] Memory required for data: 865236000
I0403 15:14:50.805140 31355 layer_factory.hpp:77] Creating layer inception_4a/3x3
I0403 15:14:50.805186 31355 net.cpp:91] Creating Layer inception_4a/3x3
I0403 15:14:50.805223 31355 net.cpp:425] inception_4a/3x3 <- inception_4a/3x3_reduce
I0403 15:14:50.805264 31355 net.cpp:399] inception_4a/3x3 -> inception_4a/3x3
I0403 15:14:50.807921 31355 net.cpp:141] Setting up inception_4a/3x3
I0403 15:14:50.807974 31355 net.cpp:148] Top shape: 24 208 14 14 (978432)
I0403 15:14:50.807991 31355 net.cpp:156] Memory required for data: 869149728
I0403 15:14:50.808008 31355 layer_factory.hpp:77] Creating layer inception_4a/relu_3x3
I0403 15:14:50.808028 31355 net.cpp:91] Creating Layer inception_4a/relu_3x3
I0403 15:14:50.808044 31355 net.cpp:425] inception_4a/relu_3x3 <- inception_4a/3x3
I0403 15:14:50.808061 31355 net.cpp:386] inception_4a/relu_3x3 -> inception_4a/3x3 (in-place)
I0403 15:14:50.808343 31355 net.cpp:141] Setting up inception_4a/relu_3x3
I0403 15:14:50.808372 31355 net.cpp:148] Top shape: 24 208 14 14 (978432)
I0403 15:14:50.808387 31355 net.cpp:156] Memory required for data: 873063456
I0403 15:14:50.808401 31355 layer_factory.hpp:77] Creating layer inception_4a/5x5_reduce
I0403 15:14:50.808430 31355 net.cpp:91] Creating Layer inception_4a/5x5_reduce
I0403 15:14:50.808449 31355 net.cpp:425] inception_4a/5x5_reduce <- pool3/3x3_s2_pool3/3x3_s2_0_split_2
I0403 15:14:50.808470 31355 net.cpp:399] inception_4a/5x5_reduce -> inception_4a/5x5_reduce
I0403 15:14:50.809470 31355 net.cpp:141] Setting up inception_4a/5x5_reduce
I0403 15:14:50.809499 31355 net.cpp:148] Top shape: 24 16 14 14 (75264)
I0403 15:14:50.809523 31355 net.cpp:156] Memory required for data: 873364512
I0403 15:14:50.809541 31355 layer_factory.hpp:77] Creating layer inception_4a/relu_5x5_reduce
I0403 15:14:50.809559 31355 net.cpp:91] Creating Layer inception_4a/relu_5x5_reduce
I0403 15:14:50.809576 31355 net.cpp:425] inception_4a/relu_5x5_reduce <- inception_4a/5x5_reduce
I0403 15:14:50.809592 31355 net.cpp:386] inception_4a/relu_5x5_reduce -> inception_4a/5x5_reduce (in-place)
I0403 15:14:50.809765 31355 net.cpp:141] Setting up inception_4a/relu_5x5_reduce
I0403 15:14:50.809792 31355 net.cpp:148] Top shape: 24 16 14 14 (75264)
I0403 15:14:50.809806 31355 net.cpp:156] Memory required for data: 873665568
I0403 15:14:50.809821 31355 layer_factory.hpp:77] Creating layer inception_4a/5x5
I0403 15:14:50.809844 31355 net.cpp:91] Creating Layer inception_4a/5x5
I0403 15:14:50.809860 31355 net.cpp:425] inception_4a/5x5 <- inception_4a/5x5_reduce
I0403 15:14:50.809880 31355 net.cpp:399] inception_4a/5x5 -> inception_4a/5x5
I0403 15:14:50.810932 31355 net.cpp:141] Setting up inception_4a/5x5
I0403 15:14:50.810979 31355 net.cpp:148] Top shape: 24 48 14 14 (225792)
I0403 15:14:50.810999 31355 net.cpp:156] Memory required for data: 874568736
I0403 15:14:50.811024 31355 layer_factory.hpp:77] Creating layer inception_4a/relu_5x5
I0403 15:14:50.811048 31355 net.cpp:91] Creating Layer inception_4a/relu_5x5
I0403 15:14:50.811084 31355 net.cpp:425] inception_4a/relu_5x5 <- inception_4a/5x5
I0403 15:14:50.811123 31355 net.cpp:386] inception_4a/relu_5x5 -> inception_4a/5x5 (in-place)
I0403 15:14:50.811339 31355 net.cpp:141] Setting up inception_4a/relu_5x5
I0403 15:14:50.811364 31355 net.cpp:148] Top shape: 24 48 14 14 (225792)
I0403 15:14:50.811398 31355 net.cpp:156] Memory required for data: 875471904
I0403 15:14:50.811414 31355 layer_factory.hpp:77] Creating layer inception_4a/pool
I0403 15:14:50.811453 31355 net.cpp:91] Creating Layer inception_4a/pool
I0403 15:14:50.811477 31355 net.cpp:425] inception_4a/pool <- pool3/3x3_s2_pool3/3x3_s2_0_split_3
I0403 15:14:50.811517 31355 net.cpp:399] inception_4a/pool -> inception_4a/pool
I0403 15:14:50.811616 31355 net.cpp:141] Setting up inception_4a/pool
I0403 15:14:50.811640 31355 net.cpp:148] Top shape: 24 480 14 14 (2257920)
I0403 15:14:50.811655 31355 net.cpp:156] Memory required for data: 884503584
I0403 15:14:50.811669 31355 layer_factory.hpp:77] Creating layer inception_4a/pool_proj
I0403 15:14:50.811691 31355 net.cpp:91] Creating Layer inception_4a/pool_proj
I0403 15:14:50.811707 31355 net.cpp:425] inception_4a/pool_proj <- inception_4a/pool
I0403 15:14:50.811727 31355 net.cpp:399] inception_4a/pool_proj -> inception_4a/pool_proj
I0403 15:14:50.812916 31355 net.cpp:141] Setting up inception_4a/pool_proj
I0403 15:14:50.812943 31355 net.cpp:148] Top shape: 24 64 14 14 (301056)
I0403 15:14:50.812974 31355 net.cpp:156] Memory required for data: 885707808
I0403 15:14:50.812994 31355 layer_factory.hpp:77] Creating layer inception_4a/relu_pool_proj
I0403 15:14:50.813011 31355 net.cpp:91] Creating Layer inception_4a/relu_pool_proj
I0403 15:14:50.813027 31355 net.cpp:425] inception_4a/relu_pool_proj <- inception_4a/pool_proj
I0403 15:14:50.813050 31355 net.cpp:386] inception_4a/relu_pool_proj -> inception_4a/pool_proj (in-place)
I0403 15:14:50.813323 31355 net.cpp:141] Setting up inception_4a/relu_pool_proj
I0403 15:14:50.813349 31355 net.cpp:148] Top shape: 24 64 14 14 (301056)
I0403 15:14:50.813364 31355 net.cpp:156] Memory required for data: 886912032
I0403 15:14:50.813379 31355 layer_factory.hpp:77] Creating layer inception_4a/output
I0403 15:14:50.813395 31355 net.cpp:91] Creating Layer inception_4a/output
I0403 15:14:50.813410 31355 net.cpp:425] inception_4a/output <- inception_4a/1x1
I0403 15:14:50.813426 31355 net.cpp:425] inception_4a/output <- inception_4a/3x3
I0403 15:14:50.813442 31355 net.cpp:425] inception_4a/output <- inception_4a/5x5
I0403 15:14:50.813478 31355 net.cpp:425] inception_4a/output <- inception_4a/pool_proj
I0403 15:14:50.813498 31355 net.cpp:399] inception_4a/output -> inception_4a/output
I0403 15:14:50.813555 31355 net.cpp:141] Setting up inception_4a/output
I0403 15:14:50.813606 31355 net.cpp:148] Top shape: 24 512 14 14 (2408448)
I0403 15:14:50.813645 31355 net.cpp:156] Memory required for data: 896545824
I0403 15:14:50.813683 31355 layer_factory.hpp:77] Creating layer inception_4a/output_inception_4a/output_0_split
I0403 15:14:50.813701 31355 net.cpp:91] Creating Layer inception_4a/output_inception_4a/output_0_split
I0403 15:14:50.813720 31355 net.cpp:425] inception_4a/output_inception_4a/output_0_split <- inception_4a/output
I0403 15:14:50.813737 31355 net.cpp:399] inception_4a/output_inception_4a/output_0_split -> inception_4a/output_inception_4a/output_0_split_0
I0403 15:14:50.813760 31355 net.cpp:399] inception_4a/output_inception_4a/output_0_split -> inception_4a/output_inception_4a/output_0_split_1
I0403 15:14:50.813781 31355 net.cpp:399] inception_4a/output_inception_4a/output_0_split -> inception_4a/output_inception_4a/output_0_split_2
I0403 15:14:50.813802 31355 net.cpp:399] inception_4a/output_inception_4a/output_0_split -> inception_4a/output_inception_4a/output_0_split_3
I0403 15:14:50.813822 31355 net.cpp:399] inception_4a/output_inception_4a/output_0_split -> inception_4a/output_inception_4a/output_0_split_4
I0403 15:14:50.813910 31355 net.cpp:141] Setting up inception_4a/output_inception_4a/output_0_split
I0403 15:14:50.813951 31355 net.cpp:148] Top shape: 24 512 14 14 (2408448)
I0403 15:14:50.813997 31355 net.cpp:148] Top shape: 24 512 14 14 (2408448)
I0403 15:14:50.814041 31355 net.cpp:148] Top shape: 24 512 14 14 (2408448)
I0403 15:14:50.814059 31355 net.cpp:148] Top shape: 24 512 14 14 (2408448)
I0403 15:14:50.814086 31355 net.cpp:148] Top shape: 24 512 14 14 (2408448)
I0403 15:14:50.814124 31355 net.cpp:156] Memory required for data: 944714784
I0403 15:14:50.814142 31355 layer_factory.hpp:77] Creating layer loss1/ave_pool
I0403 15:14:50.814167 31355 net.cpp:91] Creating Layer loss1/ave_pool
I0403 15:14:50.814182 31355 net.cpp:425] loss1/ave_pool <- inception_4a/output_inception_4a/output_0_split_0
I0403 15:14:50.814198 31355 net.cpp:399] loss1/ave_pool -> loss1/ave_pool
I0403 15:14:50.814414 31355 net.cpp:141] Setting up loss1/ave_pool
I0403 15:14:50.814440 31355 net.cpp:148] Top shape: 24 512 4 4 (196608)
I0403 15:14:50.814455 31355 net.cpp:156] Memory required for data: 945501216
I0403 15:14:50.814470 31355 layer_factory.hpp:77] Creating layer loss1/conv
I0403 15:14:50.814492 31355 net.cpp:91] Creating Layer loss1/conv
I0403 15:14:50.814522 31355 net.cpp:425] loss1/conv <- loss1/ave_pool
I0403 15:14:50.814544 31355 net.cpp:399] loss1/conv -> loss1/conv
I0403 15:14:50.815915 31355 net.cpp:141] Setting up loss1/conv
I0403 15:14:50.815960 31355 net.cpp:148] Top shape: 24 128 4 4 (49152)
I0403 15:14:50.815992 31355 net.cpp:156] Memory required for data: 945697824
I0403 15:14:50.816028 31355 layer_factory.hpp:77] Creating layer loss1/relu_conv
I0403 15:14:50.816056 31355 net.cpp:91] Creating Layer loss1/relu_conv
I0403 15:14:50.816092 31355 net.cpp:425] loss1/relu_conv <- loss1/conv
I0403 15:14:50.816109 31355 net.cpp:386] loss1/relu_conv -> loss1/conv (in-place)
I0403 15:14:50.816417 31355 net.cpp:141] Setting up loss1/relu_conv
I0403 15:14:50.816459 31355 net.cpp:148] Top shape: 24 128 4 4 (49152)
I0403 15:14:50.816493 31355 net.cpp:156] Memory required for data: 945894432
I0403 15:14:50.816519 31355 layer_factory.hpp:77] Creating layer loss1/fc
I0403 15:14:50.816550 31355 net.cpp:91] Creating Layer loss1/fc
I0403 15:14:50.816588 31355 net.cpp:425] loss1/fc <- loss1/conv
I0403 15:14:50.816608 31355 net.cpp:399] loss1/fc -> loss1/fc
I0403 15:14:50.833941 31355 net.cpp:141] Setting up loss1/fc
I0403 15:14:50.833998 31355 net.cpp:148] Top shape: 24 1024 (24576)
I0403 15:14:50.834014 31355 net.cpp:156] Memory required for data: 945992736
I0403 15:14:50.834033 31355 layer_factory.hpp:77] Creating layer loss1/relu_fc
I0403 15:14:50.834050 31355 net.cpp:91] Creating Layer loss1/relu_fc
I0403 15:14:50.834066 31355 net.cpp:425] loss1/relu_fc <- loss1/fc
I0403 15:14:50.834085 31355 net.cpp:386] loss1/relu_fc -> loss1/fc (in-place)
I0403 15:14:50.834267 31355 net.cpp:141] Setting up loss1/relu_fc
I0403 15:14:50.834291 31355 net.cpp:148] Top shape: 24 1024 (24576)
I0403 15:14:50.834306 31355 net.cpp:156] Memory required for data: 946091040
I0403 15:14:50.834321 31355 layer_factory.hpp:77] Creating layer loss1/drop_fc
I0403 15:14:50.834347 31355 net.cpp:91] Creating Layer loss1/drop_fc
I0403 15:14:50.834363 31355 net.cpp:425] loss1/drop_fc <- loss1/fc
I0403 15:14:50.834380 31355 net.cpp:386] loss1/drop_fc -> loss1/fc (in-place)
I0403 15:14:50.834431 31355 net.cpp:141] Setting up loss1/drop_fc
I0403 15:14:50.834476 31355 net.cpp:148] Top shape: 24 1024 (24576)
I0403 15:14:50.834497 31355 net.cpp:156] Memory required for data: 946189344
I0403 15:14:50.834537 31355 layer_factory.hpp:77] Creating layer loss1/classifier_plantvillage
I0403 15:14:50.834575 31355 net.cpp:91] Creating Layer loss1/classifier_plantvillage
I0403 15:14:50.834614 31355 net.cpp:425] loss1/classifier_plantvillage <- loss1/fc
I0403 15:14:50.834655 31355 net.cpp:399] loss1/classifier_plantvillage -> loss1/classifier_plantvillage
I0403 15:14:50.835580 31355 net.cpp:141] Setting up loss1/classifier_plantvillage
I0403 15:14:50.835618 31355 net.cpp:148] Top shape: 24 38 (912)
I0403 15:14:50.835633 31355 net.cpp:156] Memory required for data: 946192992
I0403 15:14:50.835650 31355 layer_factory.hpp:77] Creating layer loss1/classifier_plantvillage_loss1/classifier_plantvillage_0_split
I0403 15:14:50.835670 31355 net.cpp:91] Creating Layer loss1/classifier_plantvillage_loss1/classifier_plantvillage_0_split
I0403 15:14:50.835686 31355 net.cpp:425] loss1/classifier_plantvillage_loss1/classifier_plantvillage_0_split <- loss1/classifier_plantvillage
I0403 15:14:50.835703 31355 net.cpp:399] loss1/classifier_plantvillage_loss1/classifier_plantvillage_0_split -> loss1/classifier_plantvillage_loss1/classifier_plantvillage_0_split_0
I0403 15:14:50.835723 31355 net.cpp:399] loss1/classifier_plantvillage_loss1/classifier_plantvillage_0_split -> loss1/classifier_plantvillage_loss1/classifier_plantvillage_0_split_1
I0403 15:14:50.835744 31355 net.cpp:399] loss1/classifier_plantvillage_loss1/classifier_plantvillage_0_split -> loss1/classifier_plantvillage_loss1/classifier_plantvillage_0_split_2
I0403 15:14:50.835810 31355 net.cpp:141] Setting up loss1/classifier_plantvillage_loss1/classifier_plantvillage_0_split
I0403 15:14:50.835832 31355 net.cpp:148] Top shape: 24 38 (912)
I0403 15:14:50.835847 31355 net.cpp:148] Top shape: 24 38 (912)
I0403 15:14:50.835862 31355 net.cpp:148] Top shape: 24 38 (912)
I0403 15:14:50.835875 31355 net.cpp:156] Memory required for data: 946203936
I0403 15:14:50.835891 31355 layer_factory.hpp:77] Creating layer inception_4b/1x1
I0403 15:14:50.835909 31355 net.cpp:91] Creating Layer inception_4b/1x1
I0403 15:14:50.835940 31355 net.cpp:425] inception_4b/1x1 <- inception_4a/output_inception_4a/output_0_split_1
I0403 15:14:50.835961 31355 net.cpp:399] inception_4b/1x1 -> inception_4b/1x1
I0403 15:14:50.837601 31355 net.cpp:141] Setting up inception_4b/1x1
I0403 15:14:50.837630 31355 net.cpp:148] Top shape: 24 160 14 14 (752640)
I0403 15:14:50.837646 31355 net.cpp:156] Memory required for data: 949214496
I0403 15:14:50.837664 31355 layer_factory.hpp:77] Creating layer inception_4b/relu_1x1
I0403 15:14:50.837683 31355 net.cpp:91] Creating Layer inception_4b/relu_1x1
I0403 15:14:50.837699 31355 net.cpp:425] inception_4b/relu_1x1 <- inception_4b/1x1
I0403 15:14:50.837718 31355 net.cpp:386] inception_4b/relu_1x1 -> inception_4b/1x1 (in-place)
I0403 15:14:50.837889 31355 net.cpp:141] Setting up inception_4b/relu_1x1
I0403 15:14:50.837914 31355 net.cpp:148] Top shape: 24 160 14 14 (752640)
I0403 15:14:50.837930 31355 net.cpp:156] Memory required for data: 952225056
I0403 15:14:50.837945 31355 layer_factory.hpp:77] Creating layer inception_4b/3x3_reduce
I0403 15:14:50.837966 31355 net.cpp:91] Creating Layer inception_4b/3x3_reduce
I0403 15:14:50.837982 31355 net.cpp:425] inception_4b/3x3_reduce <- inception_4a/output_inception_4a/output_0_split_2
I0403 15:14:50.838001 31355 net.cpp:399] inception_4b/3x3_reduce -> inception_4b/3x3_reduce
I0403 15:14:50.839335 31355 net.cpp:141] Setting up inception_4b/3x3_reduce
I0403 15:14:50.839366 31355 net.cpp:148] Top shape: 24 112 14 14 (526848)
I0403 15:14:50.839382 31355 net.cpp:156] Memory required for data: 954332448
I0403 15:14:50.839401 31355 layer_factory.hpp:77] Creating layer inception_4b/relu_3x3_reduce
I0403 15:14:50.839419 31355 net.cpp:91] Creating Layer inception_4b/relu_3x3_reduce
I0403 15:14:50.839435 31355 net.cpp:425] inception_4b/relu_3x3_reduce <- inception_4b/3x3_reduce
I0403 15:14:50.839454 31355 net.cpp:386] inception_4b/relu_3x3_reduce -> inception_4b/3x3_reduce (in-place)
I0403 15:14:50.839733 31355 net.cpp:141] Setting up inception_4b/relu_3x3_reduce
I0403 15:14:50.839761 31355 net.cpp:148] Top shape: 24 112 14 14 (526848)
I0403 15:14:50.839776 31355 net.cpp:156] Memory required for data: 956439840
I0403 15:14:50.839790 31355 layer_factory.hpp:77] Creating layer inception_4b/3x3
I0403 15:14:50.839812 31355 net.cpp:91] Creating Layer inception_4b/3x3
I0403 15:14:50.839829 31355 net.cpp:425] inception_4b/3x3 <- inception_4b/3x3_reduce
I0403 15:14:50.839848 31355 net.cpp:399] inception_4b/3x3 -> inception_4b/3x3
I0403 15:14:50.842779 31355 net.cpp:141] Setting up inception_4b/3x3
I0403 15:14:50.842808 31355 net.cpp:148] Top shape: 24 224 14 14 (1053696)
I0403 15:14:50.842838 31355 net.cpp:156] Memory required for data: 960654624
I0403 15:14:50.842856 31355 layer_factory.hpp:77] Creating layer inception_4b/relu_3x3
I0403 15:14:50.842877 31355 net.cpp:91] Creating Layer inception_4b/relu_3x3
I0403 15:14:50.842893 31355 net.cpp:425] inception_4b/relu_3x3 <- inception_4b/3x3
I0403 15:14:50.842911 31355 net.cpp:386] inception_4b/relu_3x3 -> inception_4b/3x3 (in-place)
I0403 15:14:50.843089 31355 net.cpp:141] Setting up inception_4b/relu_3x3
I0403 15:14:50.843147 31355 net.cpp:148] Top shape: 24 224 14 14 (1053696)
I0403 15:14:50.843164 31355 net.cpp:156] Memory required for data: 964869408
I0403 15:14:50.843180 31355 layer_factory.hpp:77] Creating layer inception_4b/5x5_reduce
I0403 15:14:50.843217 31355 net.cpp:91] Creating Layer inception_4b/5x5_reduce
I0403 15:14:50.843236 31355 net.cpp:425] inception_4b/5x5_reduce <- inception_4a/output_inception_4a/output_0_split_3
I0403 15:14:50.843255 31355 net.cpp:399] inception_4b/5x5_reduce -> inception_4b/5x5_reduce
I0403 15:14:50.844331 31355 net.cpp:141] Setting up inception_4b/5x5_reduce
I0403 15:14:50.844357 31355 net.cpp:148] Top shape: 24 24 14 14 (112896)
I0403 15:14:50.844372 31355 net.cpp:156] Memory required for data: 965320992
I0403 15:14:50.844390 31355 layer_factory.hpp:77] Creating layer inception_4b/relu_5x5_reduce
I0403 15:14:50.844413 31355 net.cpp:91] Creating Layer inception_4b/relu_5x5_reduce
I0403 15:14:50.844442 31355 net.cpp:425] inception_4b/relu_5x5_reduce <- inception_4b/5x5_reduce
I0403 15:14:50.844460 31355 net.cpp:386] inception_4b/relu_5x5_reduce -> inception_4b/5x5_reduce (in-place)
I0403 15:14:50.844650 31355 net.cpp:141] Setting up inception_4b/relu_5x5_reduce
I0403 15:14:50.844673 31355 net.cpp:148] Top shape: 24 24 14 14 (112896)
I0403 15:14:50.844688 31355 net.cpp:156] Memory required for data: 965772576
I0403 15:14:50.844702 31355 layer_factory.hpp:77] Creating layer inception_4b/5x5
I0403 15:14:50.844724 31355 net.cpp:91] Creating Layer inception_4b/5x5
I0403 15:14:50.844741 31355 net.cpp:425] inception_4b/5x5 <- inception_4b/5x5_reduce
I0403 15:14:50.844763 31355 net.cpp:399] inception_4b/5x5 -> inception_4b/5x5
I0403 15:14:50.845938 31355 net.cpp:141] Setting up inception_4b/5x5
I0403 15:14:50.845965 31355 net.cpp:148] Top shape: 24 64 14 14 (301056)
I0403 15:14:50.845981 31355 net.cpp:156] Memory required for data: 966976800
I0403 15:14:50.845999 31355 layer_factory.hpp:77] Creating layer inception_4b/relu_5x5
I0403 15:14:50.846019 31355 net.cpp:91] Creating Layer inception_4b/relu_5x5
I0403 15:14:50.846035 31355 net.cpp:425] inception_4b/relu_5x5 <- inception_4b/5x5
I0403 15:14:50.846053 31355 net.cpp:386] inception_4b/relu_5x5 -> inception_4b/5x5 (in-place)
I0403 15:14:50.846392 31355 net.cpp:141] Setting up inception_4b/relu_5x5
I0403 15:14:50.846420 31355 net.cpp:148] Top shape: 24 64 14 14 (301056)
I0403 15:14:50.846434 31355 net.cpp:156] Memory required for data: 968181024
I0403 15:14:50.846449 31355 layer_factory.hpp:77] Creating layer inception_4b/pool
I0403 15:14:50.846470 31355 net.cpp:91] Creating Layer inception_4b/pool
I0403 15:14:50.846487 31355 net.cpp:425] inception_4b/pool <- inception_4a/output_inception_4a/output_0_split_4
I0403 15:14:50.846508 31355 net.cpp:399] inception_4b/pool -> inception_4b/pool
I0403 15:14:50.846576 31355 net.cpp:141] Setting up inception_4b/pool
I0403 15:14:50.846611 31355 net.cpp:148] Top shape: 24 512 14 14 (2408448)
I0403 15:14:50.846626 31355 net.cpp:156] Memory required for data: 977814816
I0403 15:14:50.846640 31355 layer_factory.hpp:77] Creating layer inception_4b/pool_proj
I0403 15:14:50.846662 31355 net.cpp:91] Creating Layer inception_4b/pool_proj
I0403 15:14:50.846678 31355 net.cpp:425] inception_4b/pool_proj <- inception_4b/pool
I0403 15:14:50.846698 31355 net.cpp:399] inception_4b/pool_proj -> inception_4b/pool_proj
I0403 15:14:50.847898 31355 net.cpp:141] Setting up inception_4b/pool_proj
I0403 15:14:50.847929 31355 net.cpp:148] Top shape: 24 64 14 14 (301056)
I0403 15:14:50.847946 31355 net.cpp:156] Memory required for data: 979019040
I0403 15:14:50.847981 31355 layer_factory.hpp:77] Creating layer inception_4b/relu_pool_proj
I0403 15:14:50.848021 31355 net.cpp:91] Creating Layer inception_4b/relu_pool_proj
I0403 15:14:50.848058 31355 net.cpp:425] inception_4b/relu_pool_proj <- inception_4b/pool_proj
I0403 15:14:50.848104 31355 net.cpp:386] inception_4b/relu_pool_proj -> inception_4b/pool_proj (in-place)
I0403 15:14:50.848304 31355 net.cpp:141] Setting up inception_4b/relu_pool_proj
I0403 15:14:50.848330 31355 net.cpp:148] Top shape: 24 64 14 14 (301056)
I0403 15:14:50.848345 31355 net.cpp:156] Memory required for data: 980223264
I0403 15:14:50.848361 31355 layer_factory.hpp:77] Creating layer inception_4b/output
I0403 15:14:50.848377 31355 net.cpp:91] Creating Layer inception_4b/output
I0403 15:14:50.848393 31355 net.cpp:425] inception_4b/output <- inception_4b/1x1
I0403 15:14:50.848409 31355 net.cpp:425] inception_4b/output <- inception_4b/3x3
I0403 15:14:50.848424 31355 net.cpp:425] inception_4b/output <- inception_4b/5x5
I0403 15:14:50.848441 31355 net.cpp:425] inception_4b/output <- inception_4b/pool_proj
I0403 15:14:50.848470 31355 net.cpp:399] inception_4b/output -> inception_4b/output
I0403 15:14:50.848531 31355 net.cpp:141] Setting up inception_4b/output
I0403 15:14:50.848580 31355 net.cpp:148] Top shape: 24 512 14 14 (2408448)
I0403 15:14:50.848623 31355 net.cpp:156] Memory required for data: 989857056
I0403 15:14:50.848670 31355 layer_factory.hpp:77] Creating layer inception_4b/output_inception_4b/output_0_split
I0403 15:14:50.848691 31355 net.cpp:91] Creating Layer inception_4b/output_inception_4b/output_0_split
I0403 15:14:50.848707 31355 net.cpp:425] inception_4b/output_inception_4b/output_0_split <- inception_4b/output
I0403 15:14:50.848724 31355 net.cpp:399] inception_4b/output_inception_4b/output_0_split -> inception_4b/output_inception_4b/output_0_split_0
I0403 15:14:50.848747 31355 net.cpp:399] inception_4b/output_inception_4b/output_0_split -> inception_4b/output_inception_4b/output_0_split_1
I0403 15:14:50.848768 31355 net.cpp:399] inception_4b/output_inception_4b/output_0_split -> inception_4b/output_inception_4b/output_0_split_2
I0403 15:14:50.848788 31355 net.cpp:399] inception_4b/output_inception_4b/output_0_split -> inception_4b/output_inception_4b/output_0_split_3
I0403 15:14:50.848868 31355 net.cpp:141] Setting up inception_4b/output_inception_4b/output_0_split
I0403 15:14:50.848891 31355 net.cpp:148] Top shape: 24 512 14 14 (2408448)
I0403 15:14:50.848906 31355 net.cpp:148] Top shape: 24 512 14 14 (2408448)
I0403 15:14:50.848922 31355 net.cpp:148] Top shape: 24 512 14 14 (2408448)
I0403 15:14:50.848937 31355 net.cpp:148] Top shape: 24 512 14 14 (2408448)
I0403 15:14:50.848951 31355 net.cpp:156] Memory required for data: 1028392224
I0403 15:14:50.848965 31355 layer_factory.hpp:77] Creating layer inception_4c/1x1
I0403 15:14:50.848987 31355 net.cpp:91] Creating Layer inception_4c/1x1
I0403 15:14:50.849004 31355 net.cpp:425] inception_4c/1x1 <- inception_4b/output_inception_4b/output_0_split_0
I0403 15:14:50.849023 31355 net.cpp:399] inception_4c/1x1 -> inception_4c/1x1
I0403 15:14:50.850457 31355 net.cpp:141] Setting up inception_4c/1x1
I0403 15:14:50.850486 31355 net.cpp:148] Top shape: 24 128 14 14 (602112)
I0403 15:14:50.850500 31355 net.cpp:156] Memory required for data: 1030800672
I0403 15:14:50.850523 31355 layer_factory.hpp:77] Creating layer inception_4c/relu_1x1
I0403 15:14:50.850541 31355 net.cpp:91] Creating Layer inception_4c/relu_1x1
I0403 15:14:50.850558 31355 net.cpp:425] inception_4c/relu_1x1 <- inception_4c/1x1
I0403 15:14:50.850610 31355 net.cpp:386] inception_4c/relu_1x1 -> inception_4c/1x1 (in-place)
I0403 15:14:50.850814 31355 net.cpp:141] Setting up inception_4c/relu_1x1
I0403 15:14:50.850839 31355 net.cpp:148] Top shape: 24 128 14 14 (602112)
I0403 15:14:50.850853 31355 net.cpp:156] Memory required for data: 1033209120
I0403 15:14:50.850868 31355 layer_factory.hpp:77] Creating layer inception_4c/3x3_reduce
I0403 15:14:50.850889 31355 net.cpp:91] Creating Layer inception_4c/3x3_reduce
I0403 15:14:50.850906 31355 net.cpp:425] inception_4c/3x3_reduce <- inception_4b/output_inception_4b/output_0_split_1
I0403 15:14:50.850927 31355 net.cpp:399] inception_4c/3x3_reduce -> inception_4c/3x3_reduce
I0403 15:14:50.852818 31355 net.cpp:141] Setting up inception_4c/3x3_reduce
I0403 15:14:50.852846 31355 net.cpp:148] Top shape: 24 128 14 14 (602112)
I0403 15:14:50.852861 31355 net.cpp:156] Memory required for data: 1035617568
I0403 15:14:50.852880 31355 layer_factory.hpp:77] Creating layer inception_4c/relu_3x3_reduce
I0403 15:14:50.852900 31355 net.cpp:91] Creating Layer inception_4c/relu_3x3_reduce
I0403 15:14:50.852916 31355 net.cpp:425] inception_4c/relu_3x3_reduce <- inception_4c/3x3_reduce
I0403 15:14:50.852933 31355 net.cpp:386] inception_4c/relu_3x3_reduce -> inception_4c/3x3_reduce (in-place)
I0403 15:14:50.853207 31355 net.cpp:141] Setting up inception_4c/relu_3x3_reduce
I0403 15:14:50.853234 31355 net.cpp:148] Top shape: 24 128 14 14 (602112)
I0403 15:14:50.853252 31355 net.cpp:156] Memory required for data: 1038026016
I0403 15:14:50.853268 31355 layer_factory.hpp:77] Creating layer inception_4c/3x3
I0403 15:14:50.853302 31355 net.cpp:91] Creating Layer inception_4c/3x3
I0403 15:14:50.853320 31355 net.cpp:425] inception_4c/3x3 <- inception_4c/3x3_reduce
I0403 15:14:50.853343 31355 net.cpp:399] inception_4c/3x3 -> inception_4c/3x3
I0403 15:14:50.857089 31355 net.cpp:141] Setting up inception_4c/3x3
I0403 15:14:50.857130 31355 net.cpp:148] Top shape: 24 256 14 14 (1204224)
I0403 15:14:50.857146 31355 net.cpp:156] Memory required for data: 1042842912
I0403 15:14:50.857178 31355 layer_factory.hpp:77] Creating layer inception_4c/relu_3x3
I0403 15:14:50.857197 31355 net.cpp:91] Creating Layer inception_4c/relu_3x3
I0403 15:14:50.857213 31355 net.cpp:425] inception_4c/relu_3x3 <- inception_4c/3x3
I0403 15:14:50.857229 31355 net.cpp:386] inception_4c/relu_3x3 -> inception_4c/3x3 (in-place)
I0403 15:14:50.857404 31355 net.cpp:141] Setting up inception_4c/relu_3x3
I0403 15:14:50.857429 31355 net.cpp:148] Top shape: 24 256 14 14 (1204224)
I0403 15:14:50.857444 31355 net.cpp:156] Memory required for data: 1047659808
I0403 15:14:50.857457 31355 layer_factory.hpp:77] Creating layer inception_4c/5x5_reduce
I0403 15:14:50.857481 31355 net.cpp:91] Creating Layer inception_4c/5x5_reduce
I0403 15:14:50.857498 31355 net.cpp:425] inception_4c/5x5_reduce <- inception_4b/output_inception_4b/output_0_split_2
I0403 15:14:50.857522 31355 net.cpp:399] inception_4c/5x5_reduce -> inception_4c/5x5_reduce
I0403 15:14:50.858577 31355 net.cpp:141] Setting up inception_4c/5x5_reduce
I0403 15:14:50.858604 31355 net.cpp:148] Top shape: 24 24 14 14 (112896)
I0403 15:14:50.858620 31355 net.cpp:156] Memory required for data: 1048111392
I0403 15:14:50.858638 31355 layer_factory.hpp:77] Creating layer inception_4c/relu_5x5_reduce
I0403 15:14:50.858657 31355 net.cpp:91] Creating Layer inception_4c/relu_5x5_reduce
I0403 15:14:50.858675 31355 net.cpp:425] inception_4c/relu_5x5_reduce <- inception_4c/5x5_reduce
I0403 15:14:50.858692 31355 net.cpp:386] inception_4c/relu_5x5_reduce -> inception_4c/5x5_reduce (in-place)
I0403 15:14:50.858872 31355 net.cpp:141] Setting up inception_4c/relu_5x5_reduce
I0403 15:14:50.858896 31355 net.cpp:148] Top shape: 24 24 14 14 (112896)
I0403 15:14:50.858911 31355 net.cpp:156] Memory required for data: 1048562976
I0403 15:14:50.858925 31355 layer_factory.hpp:77] Creating layer inception_4c/5x5
I0403 15:14:50.858947 31355 net.cpp:91] Creating Layer inception_4c/5x5
I0403 15:14:50.858964 31355 net.cpp:425] inception_4c/5x5 <- inception_4c/5x5_reduce
I0403 15:14:50.858985 31355 net.cpp:399] inception_4c/5x5 -> inception_4c/5x5
I0403 15:14:50.860184 31355 net.cpp:141] Setting up inception_4c/5x5
I0403 15:14:50.860213 31355 net.cpp:148] Top shape: 24 64 14 14 (301056)
I0403 15:14:50.860229 31355 net.cpp:156] Memory required for data: 1049767200
I0403 15:14:50.860246 31355 layer_factory.hpp:77] Creating layer inception_4c/relu_5x5
I0403 15:14:50.860265 31355 net.cpp:91] Creating Layer inception_4c/relu_5x5
I0403 15:14:50.860280 31355 net.cpp:425] inception_4c/relu_5x5 <- inception_4c/5x5
I0403 15:14:50.860301 31355 net.cpp:386] inception_4c/relu_5x5 -> inception_4c/5x5 (in-place)
I0403 15:14:50.860580 31355 net.cpp:141] Setting up inception_4c/relu_5x5
I0403 15:14:50.860607 31355 net.cpp:148] Top shape: 24 64 14 14 (301056)
I0403 15:14:50.860623 31355 net.cpp:156] Memory required for data: 1050971424
I0403 15:14:50.860638 31355 layer_factory.hpp:77] Creating layer inception_4c/pool
I0403 15:14:50.860656 31355 net.cpp:91] Creating Layer inception_4c/pool
I0403 15:14:50.860672 31355 net.cpp:425] inception_4c/pool <- inception_4b/output_inception_4b/output_0_split_3
I0403 15:14:50.860692 31355 net.cpp:399] inception_4c/pool -> inception_4c/pool
I0403 15:14:50.860756 31355 net.cpp:141] Setting up inception_4c/pool
I0403 15:14:50.860781 31355 net.cpp:148] Top shape: 24 512 14 14 (2408448)
I0403 15:14:50.860796 31355 net.cpp:156] Memory required for data: 1060605216
I0403 15:14:50.860811 31355 layer_factory.hpp:77] Creating layer inception_4c/pool_proj
I0403 15:14:50.860832 31355 net.cpp:91] Creating Layer inception_4c/pool_proj
I0403 15:14:50.860849 31355 net.cpp:425] inception_4c/pool_proj <- inception_4c/pool
I0403 15:14:50.860867 31355 net.cpp:399] inception_4c/pool_proj -> inception_4c/pool_proj
I0403 15:14:50.862087 31355 net.cpp:141] Setting up inception_4c/pool_proj
I0403 15:14:50.862118 31355 net.cpp:148] Top shape: 24 64 14 14 (301056)
I0403 15:14:50.862148 31355 net.cpp:156] Memory required for data: 1061809440
I0403 15:14:50.862167 31355 layer_factory.hpp:77] Creating layer inception_4c/relu_pool_proj
I0403 15:14:50.862186 31355 net.cpp:91] Creating Layer inception_4c/relu_pool_proj
I0403 15:14:50.862203 31355 net.cpp:425] inception_4c/relu_pool_proj <- inception_4c/pool_proj
I0403 15:14:50.862221 31355 net.cpp:386] inception_4c/relu_pool_proj -> inception_4c/pool_proj (in-place)
I0403 15:14:50.862417 31355 net.cpp:141] Setting up inception_4c/relu_pool_proj
I0403 15:14:50.862443 31355 net.cpp:148] Top shape: 24 64 14 14 (301056)
I0403 15:14:50.862459 31355 net.cpp:156] Memory required for data: 1063013664
I0403 15:14:50.862474 31355 layer_factory.hpp:77] Creating layer inception_4c/output
I0403 15:14:50.862491 31355 net.cpp:91] Creating Layer inception_4c/output
I0403 15:14:50.862510 31355 net.cpp:425] inception_4c/output <- inception_4c/1x1
I0403 15:14:50.862527 31355 net.cpp:425] inception_4c/output <- inception_4c/3x3
I0403 15:14:50.862545 31355 net.cpp:425] inception_4c/output <- inception_4c/5x5
I0403 15:14:50.862560 31355 net.cpp:425] inception_4c/output <- inception_4c/pool_proj
I0403 15:14:50.862581 31355 net.cpp:399] inception_4c/output -> inception_4c/output
I0403 15:14:50.862627 31355 net.cpp:141] Setting up inception_4c/output
I0403 15:14:50.862648 31355 net.cpp:148] Top shape: 24 512 14 14 (2408448)
I0403 15:14:50.862663 31355 net.cpp:156] Memory required for data: 1072647456
I0403 15:14:50.862678 31355 layer_factory.hpp:77] Creating layer inception_4c/output_inception_4c/output_0_split
I0403 15:14:50.862696 31355 net.cpp:91] Creating Layer inception_4c/output_inception_4c/output_0_split
I0403 15:14:50.862712 31355 net.cpp:425] inception_4c/output_inception_4c/output_0_split <- inception_4c/output
I0403 15:14:50.862730 31355 net.cpp:399] inception_4c/output_inception_4c/output_0_split -> inception_4c/output_inception_4c/output_0_split_0
I0403 15:14:50.862748 31355 net.cpp:399] inception_4c/output_inception_4c/output_0_split -> inception_4c/output_inception_4c/output_0_split_1
I0403 15:14:50.862772 31355 net.cpp:399] inception_4c/output_inception_4c/output_0_split -> inception_4c/output_inception_4c/output_0_split_2
I0403 15:14:50.862793 31355 net.cpp:399] inception_4c/output_inception_4c/output_0_split -> inception_4c/output_inception_4c/output_0_split_3
I0403 15:14:50.862877 31355 net.cpp:141] Setting up inception_4c/output_inception_4c/output_0_split
I0403 15:14:50.862900 31355 net.cpp:148] Top shape: 24 512 14 14 (2408448)
I0403 15:14:50.862915 31355 net.cpp:148] Top shape: 24 512 14 14 (2408448)
I0403 15:14:50.862931 31355 net.cpp:148] Top shape: 24 512 14 14 (2408448)
I0403 15:14:50.862946 31355 net.cpp:148] Top shape: 24 512 14 14 (2408448)
I0403 15:14:50.862958 31355 net.cpp:156] Memory required for data: 1111182624
I0403 15:14:50.862973 31355 layer_factory.hpp:77] Creating layer inception_4d/1x1
I0403 15:14:50.862995 31355 net.cpp:91] Creating Layer inception_4d/1x1
I0403 15:14:50.863013 31355 net.cpp:425] inception_4d/1x1 <- inception_4c/output_inception_4c/output_0_split_0
I0403 15:14:50.863032 31355 net.cpp:399] inception_4d/1x1 -> inception_4d/1x1
I0403 15:14:50.864413 31355 net.cpp:141] Setting up inception_4d/1x1
I0403 15:14:50.864441 31355 net.cpp:148] Top shape: 24 112 14 14 (526848)
I0403 15:14:50.864456 31355 net.cpp:156] Memory required for data: 1113290016
I0403 15:14:50.864475 31355 layer_factory.hpp:77] Creating layer inception_4d/relu_1x1
I0403 15:14:50.864495 31355 net.cpp:91] Creating Layer inception_4d/relu_1x1
I0403 15:14:50.864516 31355 net.cpp:425] inception_4d/relu_1x1 <- inception_4d/1x1
I0403 15:14:50.864536 31355 net.cpp:386] inception_4d/relu_1x1 -> inception_4d/1x1 (in-place)
I0403 15:14:50.864714 31355 net.cpp:141] Setting up inception_4d/relu_1x1
I0403 15:14:50.864738 31355 net.cpp:148] Top shape: 24 112 14 14 (526848)
I0403 15:14:50.864753 31355 net.cpp:156] Memory required for data: 1115397408
I0403 15:14:50.864768 31355 layer_factory.hpp:77] Creating layer inception_4d/3x3_reduce
I0403 15:14:50.864804 31355 net.cpp:91] Creating Layer inception_4d/3x3_reduce
I0403 15:14:50.864821 31355 net.cpp:425] inception_4d/3x3_reduce <- inception_4c/output_inception_4c/output_0_split_1
I0403 15:14:50.864840 31355 net.cpp:399] inception_4d/3x3_reduce -> inception_4d/3x3_reduce
I0403 15:14:50.866374 31355 net.cpp:141] Setting up inception_4d/3x3_reduce
I0403 15:14:50.866400 31355 net.cpp:148] Top shape: 24 144 14 14 (677376)
I0403 15:14:50.866415 31355 net.cpp:156] Memory required for data: 1118106912
I0403 15:14:50.866433 31355 layer_factory.hpp:77] Creating layer inception_4d/relu_3x3_reduce
I0403 15:14:50.866451 31355 net.cpp:91] Creating Layer inception_4d/relu_3x3_reduce
I0403 15:14:50.866467 31355 net.cpp:425] inception_4d/relu_3x3_reduce <- inception_4d/3x3_reduce
I0403 15:14:50.866487 31355 net.cpp:386] inception_4d/relu_3x3_reduce -> inception_4d/3x3_reduce (in-place)
I0403 15:14:50.866772 31355 net.cpp:141] Setting up inception_4d/relu_3x3_reduce
I0403 15:14:50.866797 31355 net.cpp:148] Top shape: 24 144 14 14 (677376)
I0403 15:14:50.866812 31355 net.cpp:156] Memory required for data: 1120816416
I0403 15:14:50.866827 31355 layer_factory.hpp:77] Creating layer inception_4d/3x3
I0403 15:14:50.866849 31355 net.cpp:91] Creating Layer inception_4d/3x3
I0403 15:14:50.866866 31355 net.cpp:425] inception_4d/3x3 <- inception_4d/3x3_reduce
I0403 15:14:50.866886 31355 net.cpp:399] inception_4d/3x3 -> inception_4d/3x3
I0403 15:14:50.871073 31355 net.cpp:141] Setting up inception_4d/3x3
I0403 15:14:50.871101 31355 net.cpp:148] Top shape: 24 288 14 14 (1354752)
I0403 15:14:50.871127 31355 net.cpp:156] Memory required for data: 1126235424
I0403 15:14:50.871151 31355 layer_factory.hpp:77] Creating layer inception_4d/relu_3x3
I0403 15:14:50.871186 31355 net.cpp:91] Creating Layer inception_4d/relu_3x3
I0403 15:14:50.871204 31355 net.cpp:425] inception_4d/relu_3x3 <- inception_4d/3x3
I0403 15:14:50.871222 31355 net.cpp:386] inception_4d/relu_3x3 -> inception_4d/3x3 (in-place)
I0403 15:14:50.871402 31355 net.cpp:141] Setting up inception_4d/relu_3x3
I0403 15:14:50.871448 31355 net.cpp:148] Top shape: 24 288 14 14 (1354752)
I0403 15:14:50.871490 31355 net.cpp:156] Memory required for data: 1131654432
I0403 15:14:50.871529 31355 layer_factory.hpp:77] Creating layer inception_4d/5x5_reduce
I0403 15:14:50.871574 31355 net.cpp:91] Creating Layer inception_4d/5x5_reduce
I0403 15:14:50.871616 31355 net.cpp:425] inception_4d/5x5_reduce <- inception_4c/output_inception_4c/output_0_split_2
I0403 15:14:50.871634 31355 net.cpp:399] inception_4d/5x5_reduce -> inception_4d/5x5_reduce
I0403 15:14:50.872771 31355 net.cpp:141] Setting up inception_4d/5x5_reduce
I0403 15:14:50.872798 31355 net.cpp:148] Top shape: 24 32 14 14 (150528)
I0403 15:14:50.872814 31355 net.cpp:156] Memory required for data: 1132256544
I0403 15:14:50.872833 31355 layer_factory.hpp:77] Creating layer inception_4d/relu_5x5_reduce
I0403 15:14:50.872853 31355 net.cpp:91] Creating Layer inception_4d/relu_5x5_reduce
I0403 15:14:50.872869 31355 net.cpp:425] inception_4d/relu_5x5_reduce <- inception_4d/5x5_reduce
I0403 15:14:50.872887 31355 net.cpp:386] inception_4d/relu_5x5_reduce -> inception_4d/5x5_reduce (in-place)
I0403 15:14:50.873070 31355 net.cpp:141] Setting up inception_4d/relu_5x5_reduce
I0403 15:14:50.873093 31355 net.cpp:148] Top shape: 24 32 14 14 (150528)
I0403 15:14:50.873107 31355 net.cpp:156] Memory required for data: 1132858656
I0403 15:14:50.873122 31355 layer_factory.hpp:77] Creating layer inception_4d/5x5
I0403 15:14:50.873145 31355 net.cpp:91] Creating Layer inception_4d/5x5
I0403 15:14:50.873162 31355 net.cpp:425] inception_4d/5x5 <- inception_4d/5x5_reduce
I0403 15:14:50.873181 31355 net.cpp:399] inception_4d/5x5 -> inception_4d/5x5
I0403 15:14:50.874630 31355 net.cpp:141] Setting up inception_4d/5x5
I0403 15:14:50.874661 31355 net.cpp:148] Top shape: 24 64 14 14 (301056)
I0403 15:14:50.874677 31355 net.cpp:156] Memory required for data: 1134062880
I0403 15:14:50.874696 31355 layer_factory.hpp:77] Creating layer inception_4d/relu_5x5
I0403 15:14:50.874729 31355 net.cpp:91] Creating Layer inception_4d/relu_5x5
I0403 15:14:50.874747 31355 net.cpp:425] inception_4d/relu_5x5 <- inception_4d/5x5
I0403 15:14:50.874766 31355 net.cpp:386] inception_4d/relu_5x5 -> inception_4d/5x5 (in-place)
I0403 15:14:50.875058 31355 net.cpp:141] Setting up inception_4d/relu_5x5
I0403 15:14:50.875087 31355 net.cpp:148] Top shape: 24 64 14 14 (301056)
I0403 15:14:50.875102 31355 net.cpp:156] Memory required for data: 1135267104
I0403 15:14:50.875118 31355 layer_factory.hpp:77] Creating layer inception_4d/pool
I0403 15:14:50.875134 31355 net.cpp:91] Creating Layer inception_4d/pool
I0403 15:14:50.875150 31355 net.cpp:425] inception_4d/pool <- inception_4c/output_inception_4c/output_0_split_3
I0403 15:14:50.875170 31355 net.cpp:399] inception_4d/pool -> inception_4d/pool
I0403 15:14:50.875234 31355 net.cpp:141] Setting up inception_4d/pool
I0403 15:14:50.875258 31355 net.cpp:148] Top shape: 24 512 14 14 (2408448)
I0403 15:14:50.875272 31355 net.cpp:156] Memory required for data: 1144900896
I0403 15:14:50.875288 31355 layer_factory.hpp:77] Creating layer inception_4d/pool_proj
I0403 15:14:50.875309 31355 net.cpp:91] Creating Layer inception_4d/pool_proj
I0403 15:14:50.875326 31355 net.cpp:425] inception_4d/pool_proj <- inception_4d/pool
I0403 15:14:50.875346 31355 net.cpp:399] inception_4d/pool_proj -> inception_4d/pool_proj
I0403 15:14:50.877060 31355 net.cpp:141] Setting up inception_4d/pool_proj
I0403 15:14:50.877090 31355 net.cpp:148] Top shape: 24 64 14 14 (301056)
I0403 15:14:50.877106 31355 net.cpp:156] Memory required for data: 1146105120
I0403 15:14:50.877123 31355 layer_factory.hpp:77] Creating layer inception_4d/relu_pool_proj
I0403 15:14:50.877145 31355 net.cpp:91] Creating Layer inception_4d/relu_pool_proj
I0403 15:14:50.877161 31355 net.cpp:425] inception_4d/relu_pool_proj <- inception_4d/pool_proj
I0403 15:14:50.877178 31355 net.cpp:386] inception_4d/relu_pool_proj -> inception_4d/pool_proj (in-place)
I0403 15:14:50.877357 31355 net.cpp:141] Setting up inception_4d/relu_pool_proj
I0403 15:14:50.877382 31355 net.cpp:148] Top shape: 24 64 14 14 (301056)
I0403 15:14:50.877398 31355 net.cpp:156] Memory required for data: 1147309344
I0403 15:14:50.877411 31355 layer_factory.hpp:77] Creating layer inception_4d/output
I0403 15:14:50.877429 31355 net.cpp:91] Creating Layer inception_4d/output
I0403 15:14:50.877444 31355 net.cpp:425] inception_4d/output <- inception_4d/1x1
I0403 15:14:50.877460 31355 net.cpp:425] inception_4d/output <- inception_4d/3x3
I0403 15:14:50.877475 31355 net.cpp:425] inception_4d/output <- inception_4d/5x5
I0403 15:14:50.877491 31355 net.cpp:425] inception_4d/output <- inception_4d/pool_proj
I0403 15:14:50.877512 31355 net.cpp:399] inception_4d/output -> inception_4d/output
I0403 15:14:50.877562 31355 net.cpp:141] Setting up inception_4d/output
I0403 15:14:50.877605 31355 net.cpp:148] Top shape: 24 528 14 14 (2483712)
I0403 15:14:50.877650 31355 net.cpp:156] Memory required for data: 1157244192
I0403 15:14:50.877674 31355 layer_factory.hpp:77] Creating layer inception_4d/output_inception_4d/output_0_split
I0403 15:14:50.877696 31355 net.cpp:91] Creating Layer inception_4d/output_inception_4d/output_0_split
I0403 15:14:50.877717 31355 net.cpp:425] inception_4d/output_inception_4d/output_0_split <- inception_4d/output
I0403 15:14:50.877745 31355 net.cpp:399] inception_4d/output_inception_4d/output_0_split -> inception_4d/output_inception_4d/output_0_split_0
I0403 15:14:50.877785 31355 net.cpp:399] inception_4d/output_inception_4d/output_0_split -> inception_4d/output_inception_4d/output_0_split_1
I0403 15:14:50.877805 31355 net.cpp:399] inception_4d/output_inception_4d/output_0_split -> inception_4d/output_inception_4d/output_0_split_2
I0403 15:14:50.877825 31355 net.cpp:399] inception_4d/output_inception_4d/output_0_split -> inception_4d/output_inception_4d/output_0_split_3
I0403 15:14:50.877848 31355 net.cpp:399] inception_4d/output_inception_4d/output_0_split -> inception_4d/output_inception_4d/output_0_split_4
I0403 15:14:50.877951 31355 net.cpp:141] Setting up inception_4d/output_inception_4d/output_0_split
I0403 15:14:50.877990 31355 net.cpp:148] Top shape: 24 528 14 14 (2483712)
I0403 15:14:50.878018 31355 net.cpp:148] Top shape: 24 528 14 14 (2483712)
I0403 15:14:50.878052 31355 net.cpp:148] Top shape: 24 528 14 14 (2483712)
I0403 15:14:50.878089 31355 net.cpp:148] Top shape: 24 528 14 14 (2483712)
I0403 15:14:50.878105 31355 net.cpp:148] Top shape: 24 528 14 14 (2483712)
I0403 15:14:50.878129 31355 net.cpp:156] Memory required for data: 1206918432
I0403 15:14:50.878165 31355 layer_factory.hpp:77] Creating layer loss2/ave_pool
I0403 15:14:50.878201 31355 net.cpp:91] Creating Layer loss2/ave_pool
I0403 15:14:50.878218 31355 net.cpp:425] loss2/ave_pool <- inception_4d/output_inception_4d/output_0_split_0
I0403 15:14:50.878237 31355 net.cpp:399] loss2/ave_pool -> loss2/ave_pool
I0403 15:14:50.878543 31355 net.cpp:141] Setting up loss2/ave_pool
I0403 15:14:50.878568 31355 net.cpp:148] Top shape: 24 528 4 4 (202752)
I0403 15:14:50.878583 31355 net.cpp:156] Memory required for data: 1207729440
I0403 15:14:50.878598 31355 layer_factory.hpp:77] Creating layer loss2/conv
I0403 15:14:50.878620 31355 net.cpp:91] Creating Layer loss2/conv
I0403 15:14:50.878638 31355 net.cpp:425] loss2/conv <- loss2/ave_pool
I0403 15:14:50.878657 31355 net.cpp:399] loss2/conv -> loss2/conv
I0403 15:14:50.880529 31355 net.cpp:141] Setting up loss2/conv
I0403 15:14:50.880561 31355 net.cpp:148] Top shape: 24 128 4 4 (49152)
I0403 15:14:50.880578 31355 net.cpp:156] Memory required for data: 1207926048
I0403 15:14:50.880596 31355 layer_factory.hpp:77] Creating layer loss2/relu_conv
I0403 15:14:50.880615 31355 net.cpp:91] Creating Layer loss2/relu_conv
I0403 15:14:50.880631 31355 net.cpp:425] loss2/relu_conv <- loss2/conv
I0403 15:14:50.880650 31355 net.cpp:386] loss2/relu_conv -> loss2/conv (in-place)
I0403 15:14:50.880928 31355 net.cpp:141] Setting up loss2/relu_conv
I0403 15:14:50.880956 31355 net.cpp:148] Top shape: 24 128 4 4 (49152)
I0403 15:14:50.880971 31355 net.cpp:156] Memory required for data: 1208122656
I0403 15:14:50.880986 31355 layer_factory.hpp:77] Creating layer loss2/fc
I0403 15:14:50.881006 31355 net.cpp:91] Creating Layer loss2/fc
I0403 15:14:50.881021 31355 net.cpp:425] loss2/fc <- loss2/conv
I0403 15:14:50.881042 31355 net.cpp:399] loss2/fc -> loss2/fc
I0403 15:14:50.898389 31355 net.cpp:141] Setting up loss2/fc
I0403 15:14:50.898427 31355 net.cpp:148] Top shape: 24 1024 (24576)
I0403 15:14:50.898445 31355 net.cpp:156] Memory required for data: 1208220960
I0403 15:14:50.898495 31355 layer_factory.hpp:77] Creating layer loss2/relu_fc
I0403 15:14:50.898547 31355 net.cpp:91] Creating Layer loss2/relu_fc
I0403 15:14:50.898602 31355 net.cpp:425] loss2/relu_fc <- loss2/fc
I0403 15:14:50.898646 31355 net.cpp:386] loss2/relu_fc -> loss2/fc (in-place)
I0403 15:14:50.898962 31355 net.cpp:141] Setting up loss2/relu_fc
I0403 15:14:50.898988 31355 net.cpp:148] Top shape: 24 1024 (24576)
I0403 15:14:50.899003 31355 net.cpp:156] Memory required for data: 1208319264
I0403 15:14:50.899018 31355 layer_factory.hpp:77] Creating layer loss2/drop_fc
I0403 15:14:50.899037 31355 net.cpp:91] Creating Layer loss2/drop_fc
I0403 15:14:50.899054 31355 net.cpp:425] loss2/drop_fc <- loss2/fc
I0403 15:14:50.899070 31355 net.cpp:386] loss2/drop_fc -> loss2/fc (in-place)
I0403 15:14:50.899121 31355 net.cpp:141] Setting up loss2/drop_fc
I0403 15:14:50.899142 31355 net.cpp:148] Top shape: 24 1024 (24576)
I0403 15:14:50.899157 31355 net.cpp:156] Memory required for data: 1208417568
I0403 15:14:50.899171 31355 layer_factory.hpp:77] Creating layer loss2/classifier_plantvillage
I0403 15:14:50.899193 31355 net.cpp:91] Creating Layer loss2/classifier_plantvillage
I0403 15:14:50.899209 31355 net.cpp:425] loss2/classifier_plantvillage <- loss2/fc
I0403 15:14:50.899226 31355 net.cpp:399] loss2/classifier_plantvillage -> loss2/classifier_plantvillage
I0403 15:14:50.899623 31355 net.cpp:141] Setting up loss2/classifier_plantvillage
I0403 15:14:50.899648 31355 net.cpp:148] Top shape: 24 38 (912)
I0403 15:14:50.899677 31355 net.cpp:156] Memory required for data: 1208421216
I0403 15:14:50.899696 31355 layer_factory.hpp:77] Creating layer loss2/classifier_plantvillage_loss2/classifier_plantvillage_0_split
I0403 15:14:50.899714 31355 net.cpp:91] Creating Layer loss2/classifier_plantvillage_loss2/classifier_plantvillage_0_split
I0403 15:14:50.899729 31355 net.cpp:425] loss2/classifier_plantvillage_loss2/classifier_plantvillage_0_split <- loss2/classifier_plantvillage
I0403 15:14:50.899749 31355 net.cpp:399] loss2/classifier_plantvillage_loss2/classifier_plantvillage_0_split -> loss2/classifier_plantvillage_loss2/classifier_plantvillage_0_split_0
I0403 15:14:50.899770 31355 net.cpp:399] loss2/classifier_plantvillage_loss2/classifier_plantvillage_0_split -> loss2/classifier_plantvillage_loss2/classifier_plantvillage_0_split_1
I0403 15:14:50.899791 31355 net.cpp:399] loss2/classifier_plantvillage_loss2/classifier_plantvillage_0_split -> loss2/classifier_plantvillage_loss2/classifier_plantvillage_0_split_2
I0403 15:14:50.899869 31355 net.cpp:141] Setting up loss2/classifier_plantvillage_loss2/classifier_plantvillage_0_split
I0403 15:14:50.899894 31355 net.cpp:148] Top shape: 24 38 (912)
I0403 15:14:50.899911 31355 net.cpp:148] Top shape: 24 38 (912)
I0403 15:14:50.899926 31355 net.cpp:148] Top shape: 24 38 (912)
I0403 15:14:50.899940 31355 net.cpp:156] Memory required for data: 1208432160
I0403 15:14:50.899953 31355 layer_factory.hpp:77] Creating layer inception_4e/1x1
I0403 15:14:50.899976 31355 net.cpp:91] Creating Layer inception_4e/1x1
I0403 15:14:50.899992 31355 net.cpp:425] inception_4e/1x1 <- inception_4d/output_inception_4d/output_0_split_1
I0403 15:14:50.900014 31355 net.cpp:399] inception_4e/1x1 -> inception_4e/1x1
I0403 15:14:50.901818 31355 net.cpp:141] Setting up inception_4e/1x1
I0403 15:14:50.901847 31355 net.cpp:148] Top shape: 24 256 14 14 (1204224)
I0403 15:14:50.901865 31355 net.cpp:156] Memory required for data: 1213249056
I0403 15:14:50.901882 31355 layer_factory.hpp:77] Creating layer inception_4e/relu_1x1
I0403 15:14:50.901906 31355 net.cpp:91] Creating Layer inception_4e/relu_1x1
I0403 15:14:50.901921 31355 net.cpp:425] inception_4e/relu_1x1 <- inception_4e/1x1
I0403 15:14:50.901940 31355 net.cpp:386] inception_4e/relu_1x1 -> inception_4e/1x1 (in-place)
I0403 15:14:50.902231 31355 net.cpp:141] Setting up inception_4e/relu_1x1
I0403 15:14:50.902281 31355 net.cpp:148] Top shape: 24 256 14 14 (1204224)
I0403 15:14:50.902318 31355 net.cpp:156] Memory required for data: 1218065952
I0403 15:14:50.902350 31355 layer_factory.hpp:77] Creating layer inception_4e/3x3_reduce
I0403 15:14:50.902374 31355 net.cpp:91] Creating Layer inception_4e/3x3_reduce
I0403 15:14:50.902391 31355 net.cpp:425] inception_4e/3x3_reduce <- inception_4d/output_inception_4d/output_0_split_2
I0403 15:14:50.902426 31355 net.cpp:399] inception_4e/3x3_reduce -> inception_4e/3x3_reduce
I0403 15:14:50.904522 31355 net.cpp:141] Setting up inception_4e/3x3_reduce
I0403 15:14:50.904553 31355 net.cpp:148] Top shape: 24 160 14 14 (752640)
I0403 15:14:50.904572 31355 net.cpp:156] Memory required for data: 1221076512
I0403 15:14:50.904589 31355 layer_factory.hpp:77] Creating layer inception_4e/relu_3x3_reduce
I0403 15:14:50.904608 31355 net.cpp:91] Creating Layer inception_4e/relu_3x3_reduce
I0403 15:14:50.904623 31355 net.cpp:425] inception_4e/relu_3x3_reduce <- inception_4e/3x3_reduce
I0403 15:14:50.904639 31355 net.cpp:386] inception_4e/relu_3x3_reduce -> inception_4e/3x3_reduce (in-place)
I0403 15:14:50.904824 31355 net.cpp:141] Setting up inception_4e/relu_3x3_reduce
I0403 15:14:50.904849 31355 net.cpp:148] Top shape: 24 160 14 14 (752640)
I0403 15:14:50.904862 31355 net.cpp:156] Memory required for data: 1224087072
I0403 15:14:50.904877 31355 layer_factory.hpp:77] Creating layer inception_4e/3x3
I0403 15:14:50.904898 31355 net.cpp:91] Creating Layer inception_4e/3x3
I0403 15:14:50.904916 31355 net.cpp:425] inception_4e/3x3 <- inception_4e/3x3_reduce
I0403 15:14:50.904937 31355 net.cpp:399] inception_4e/3x3 -> inception_4e/3x3
I0403 15:14:50.909862 31355 net.cpp:141] Setting up inception_4e/3x3
I0403 15:14:50.909903 31355 net.cpp:148] Top shape: 24 320 14 14 (1505280)
I0403 15:14:50.909919 31355 net.cpp:156] Memory required for data: 1230108192
I0403 15:14:50.909936 31355 layer_factory.hpp:77] Creating layer inception_4e/relu_3x3
I0403 15:14:50.909955 31355 net.cpp:91] Creating Layer inception_4e/relu_3x3
I0403 15:14:50.909976 31355 net.cpp:425] inception_4e/relu_3x3 <- inception_4e/3x3
I0403 15:14:50.909992 31355 net.cpp:386] inception_4e/relu_3x3 -> inception_4e/3x3 (in-place)
I0403 15:14:50.910284 31355 net.cpp:141] Setting up inception_4e/relu_3x3
I0403 15:14:50.910310 31355 net.cpp:148] Top shape: 24 320 14 14 (1505280)
I0403 15:14:50.910326 31355 net.cpp:156] Memory required for data: 1236129312
I0403 15:14:50.910339 31355 layer_factory.hpp:77] Creating layer inception_4e/5x5_reduce
I0403 15:14:50.910362 31355 net.cpp:91] Creating Layer inception_4e/5x5_reduce
I0403 15:14:50.910378 31355 net.cpp:425] inception_4e/5x5_reduce <- inception_4d/output_inception_4d/output_0_split_3
I0403 15:14:50.910398 31355 net.cpp:399] inception_4e/5x5_reduce -> inception_4e/5x5_reduce
I0403 15:14:50.911443 31355 net.cpp:141] Setting up inception_4e/5x5_reduce
I0403 15:14:50.911473 31355 net.cpp:148] Top shape: 24 32 14 14 (150528)
I0403 15:14:50.911489 31355 net.cpp:156] Memory required for data: 1236731424
I0403 15:14:50.911511 31355 layer_factory.hpp:77] Creating layer inception_4e/relu_5x5_reduce
I0403 15:14:50.911535 31355 net.cpp:91] Creating Layer inception_4e/relu_5x5_reduce
I0403 15:14:50.911562 31355 net.cpp:425] inception_4e/relu_5x5_reduce <- inception_4e/5x5_reduce
I0403 15:14:50.911598 31355 net.cpp:386] inception_4e/relu_5x5_reduce -> inception_4e/5x5_reduce (in-place)
I0403 15:14:50.911891 31355 net.cpp:141] Setting up inception_4e/relu_5x5_reduce
I0403 15:14:50.911919 31355 net.cpp:148] Top shape: 24 32 14 14 (150528)
I0403 15:14:50.911936 31355 net.cpp:156] Memory required for data: 1237333536
I0403 15:14:50.911952 31355 layer_factory.hpp:77] Creating layer inception_4e/5x5
I0403 15:14:50.911988 31355 net.cpp:91] Creating Layer inception_4e/5x5
I0403 15:14:50.912008 31355 net.cpp:425] inception_4e/5x5 <- inception_4e/5x5_reduce
I0403 15:14:50.912026 31355 net.cpp:399] inception_4e/5x5 -> inception_4e/5x5
I0403 15:14:50.913861 31355 net.cpp:141] Setting up inception_4e/5x5
I0403 15:14:50.913910 31355 net.cpp:148] Top shape: 24 128 14 14 (602112)
I0403 15:14:50.913950 31355 net.cpp:156] Memory required for data: 1239741984
I0403 15:14:50.913993 31355 layer_factory.hpp:77] Creating layer inception_4e/relu_5x5
I0403 15:14:50.914039 31355 net.cpp:91] Creating Layer inception_4e/relu_5x5
I0403 15:14:50.914075 31355 net.cpp:425] inception_4e/relu_5x5 <- inception_4e/5x5
I0403 15:14:50.914113 31355 net.cpp:386] inception_4e/relu_5x5 -> inception_4e/5x5 (in-place)
I0403 15:14:50.914304 31355 net.cpp:141] Setting up inception_4e/relu_5x5
I0403 15:14:50.914332 31355 net.cpp:148] Top shape: 24 128 14 14 (602112)
I0403 15:14:50.914355 31355 net.cpp:156] Memory required for data: 1242150432
I0403 15:14:50.914402 31355 layer_factory.hpp:77] Creating layer inception_4e/pool
I0403 15:14:50.914438 31355 net.cpp:91] Creating Layer inception_4e/pool
I0403 15:14:50.914454 31355 net.cpp:425] inception_4e/pool <- inception_4d/output_inception_4d/output_0_split_4
I0403 15:14:50.914474 31355 net.cpp:399] inception_4e/pool -> inception_4e/pool
I0403 15:14:50.914554 31355 net.cpp:141] Setting up inception_4e/pool
I0403 15:14:50.914594 31355 net.cpp:148] Top shape: 24 528 14 14 (2483712)
I0403 15:14:50.914633 31355 net.cpp:156] Memory required for data: 1252085280
I0403 15:14:50.914669 31355 layer_factory.hpp:77] Creating layer inception_4e/pool_proj
I0403 15:14:50.914712 31355 net.cpp:91] Creating Layer inception_4e/pool_proj
I0403 15:14:50.914746 31355 net.cpp:425] inception_4e/pool_proj <- inception_4e/pool
I0403 15:14:50.914783 31355 net.cpp:399] inception_4e/pool_proj -> inception_4e/pool_proj
I0403 15:14:50.916395 31355 net.cpp:141] Setting up inception_4e/pool_proj
I0403 15:14:50.916435 31355 net.cpp:148] Top shape: 24 128 14 14 (602112)
I0403 15:14:50.916451 31355 net.cpp:156] Memory required for data: 1254493728
I0403 15:14:50.916471 31355 layer_factory.hpp:77] Creating layer inception_4e/relu_pool_proj
I0403 15:14:50.916489 31355 net.cpp:91] Creating Layer inception_4e/relu_pool_proj
I0403 15:14:50.916509 31355 net.cpp:425] inception_4e/relu_pool_proj <- inception_4e/pool_proj
I0403 15:14:50.916527 31355 net.cpp:386] inception_4e/relu_pool_proj -> inception_4e/pool_proj (in-place)
I0403 15:14:50.916821 31355 net.cpp:141] Setting up inception_4e/relu_pool_proj
I0403 15:14:50.916847 31355 net.cpp:148] Top shape: 24 128 14 14 (602112)
I0403 15:14:50.916862 31355 net.cpp:156] Memory required for data: 1256902176
I0403 15:14:50.916877 31355 layer_factory.hpp:77] Creating layer inception_4e/output
I0403 15:14:50.916896 31355 net.cpp:91] Creating Layer inception_4e/output
I0403 15:14:50.916913 31355 net.cpp:425] inception_4e/output <- inception_4e/1x1
I0403 15:14:50.916929 31355 net.cpp:425] inception_4e/output <- inception_4e/3x3
I0403 15:14:50.916945 31355 net.cpp:425] inception_4e/output <- inception_4e/5x5
I0403 15:14:50.916961 31355 net.cpp:425] inception_4e/output <- inception_4e/pool_proj
I0403 15:14:50.916978 31355 net.cpp:399] inception_4e/output -> inception_4e/output
I0403 15:14:50.917028 31355 net.cpp:141] Setting up inception_4e/output
I0403 15:14:50.917052 31355 net.cpp:148] Top shape: 24 832 14 14 (3913728)
I0403 15:14:50.917065 31355 net.cpp:156] Memory required for data: 1272557088
I0403 15:14:50.917080 31355 layer_factory.hpp:77] Creating layer pool4/3x3_s2
I0403 15:14:50.917098 31355 net.cpp:91] Creating Layer pool4/3x3_s2
I0403 15:14:50.917114 31355 net.cpp:425] pool4/3x3_s2 <- inception_4e/output
I0403 15:14:50.917132 31355 net.cpp:399] pool4/3x3_s2 -> pool4/3x3_s2
I0403 15:14:50.917199 31355 net.cpp:141] Setting up pool4/3x3_s2
I0403 15:14:50.917222 31355 net.cpp:148] Top shape: 24 832 7 7 (978432)
I0403 15:14:50.917237 31355 net.cpp:156] Memory required for data: 1276470816
I0403 15:14:50.917251 31355 layer_factory.hpp:77] Creating layer pool4/3x3_s2_pool4/3x3_s2_0_split
I0403 15:14:50.917271 31355 net.cpp:91] Creating Layer pool4/3x3_s2_pool4/3x3_s2_0_split
I0403 15:14:50.917289 31355 net.cpp:425] pool4/3x3_s2_pool4/3x3_s2_0_split <- pool4/3x3_s2
I0403 15:14:50.917306 31355 net.cpp:399] pool4/3x3_s2_pool4/3x3_s2_0_split -> pool4/3x3_s2_pool4/3x3_s2_0_split_0
I0403 15:14:50.917328 31355 net.cpp:399] pool4/3x3_s2_pool4/3x3_s2_0_split -> pool4/3x3_s2_pool4/3x3_s2_0_split_1
I0403 15:14:50.917366 31355 net.cpp:399] pool4/3x3_s2_pool4/3x3_s2_0_split -> pool4/3x3_s2_pool4/3x3_s2_0_split_2
I0403 15:14:50.917408 31355 net.cpp:399] pool4/3x3_s2_pool4/3x3_s2_0_split -> pool4/3x3_s2_pool4/3x3_s2_0_split_3
I0403 15:14:50.917526 31355 net.cpp:141] Setting up pool4/3x3_s2_pool4/3x3_s2_0_split
I0403 15:14:50.917551 31355 net.cpp:148] Top shape: 24 832 7 7 (978432)
I0403 15:14:50.917567 31355 net.cpp:148] Top shape: 24 832 7 7 (978432)
I0403 15:14:50.917582 31355 net.cpp:148] Top shape: 24 832 7 7 (978432)
I0403 15:14:50.917598 31355 net.cpp:148] Top shape: 24 832 7 7 (978432)
I0403 15:14:50.917611 31355 net.cpp:156] Memory required for data: 1292125728
I0403 15:14:50.917625 31355 layer_factory.hpp:77] Creating layer inception_5a/1x1
I0403 15:14:50.917646 31355 net.cpp:91] Creating Layer inception_5a/1x1
I0403 15:14:50.917664 31355 net.cpp:425] inception_5a/1x1 <- pool4/3x3_s2_pool4/3x3_s2_0_split_0
I0403 15:14:50.917683 31355 net.cpp:399] inception_5a/1x1 -> inception_5a/1x1
I0403 15:14:50.920500 31355 net.cpp:141] Setting up inception_5a/1x1
I0403 15:14:50.920536 31355 net.cpp:148] Top shape: 24 256 7 7 (301056)
I0403 15:14:50.920552 31355 net.cpp:156] Memory required for data: 1293329952
I0403 15:14:50.920570 31355 layer_factory.hpp:77] Creating layer inception_5a/relu_1x1
I0403 15:14:50.920588 31355 net.cpp:91] Creating Layer inception_5a/relu_1x1
I0403 15:14:50.920603 31355 net.cpp:425] inception_5a/relu_1x1 <- inception_5a/1x1
I0403 15:14:50.920620 31355 net.cpp:386] inception_5a/relu_1x1 -> inception_5a/1x1 (in-place)
I0403 15:14:50.920923 31355 net.cpp:141] Setting up inception_5a/relu_1x1
I0403 15:14:50.920950 31355 net.cpp:148] Top shape: 24 256 7 7 (301056)
I0403 15:14:50.920966 31355 net.cpp:156] Memory required for data: 1294534176
I0403 15:14:50.920982 31355 layer_factory.hpp:77] Creating layer inception_5a/3x3_reduce
I0403 15:14:50.921005 31355 net.cpp:91] Creating Layer inception_5a/3x3_reduce
I0403 15:14:50.921021 31355 net.cpp:425] inception_5a/3x3_reduce <- pool4/3x3_s2_pool4/3x3_s2_0_split_1
I0403 15:14:50.921041 31355 net.cpp:399] inception_5a/3x3_reduce -> inception_5a/3x3_reduce
I0403 15:14:50.923430 31355 net.cpp:141] Setting up inception_5a/3x3_reduce
I0403 15:14:50.923460 31355 net.cpp:148] Top shape: 24 160 7 7 (188160)
I0403 15:14:50.923475 31355 net.cpp:156] Memory required for data: 1295286816
I0403 15:14:50.923493 31355 layer_factory.hpp:77] Creating layer inception_5a/relu_3x3_reduce
I0403 15:14:50.923518 31355 net.cpp:91] Creating Layer inception_5a/relu_3x3_reduce
I0403 15:14:50.923537 31355 net.cpp:425] inception_5a/relu_3x3_reduce <- inception_5a/3x3_reduce
I0403 15:14:50.923553 31355 net.cpp:386] inception_5a/relu_3x3_reduce -> inception_5a/3x3_reduce (in-place)
I0403 15:14:50.923739 31355 net.cpp:141] Setting up inception_5a/relu_3x3_reduce
I0403 15:14:50.923764 31355 net.cpp:148] Top shape: 24 160 7 7 (188160)
I0403 15:14:50.923781 31355 net.cpp:156] Memory required for data: 1296039456
I0403 15:14:50.923795 31355 layer_factory.hpp:77] Creating layer inception_5a/3x3
I0403 15:14:50.923815 31355 net.cpp:91] Creating Layer inception_5a/3x3
I0403 15:14:50.923831 31355 net.cpp:425] inception_5a/3x3 <- inception_5a/3x3_reduce
I0403 15:14:50.923852 31355 net.cpp:399] inception_5a/3x3 -> inception_5a/3x3
I0403 15:14:50.928797 31355 net.cpp:141] Setting up inception_5a/3x3
I0403 15:14:50.928828 31355 net.cpp:148] Top shape: 24 320 7 7 (376320)
I0403 15:14:50.928843 31355 net.cpp:156] Memory required for data: 1297544736
I0403 15:14:50.928860 31355 layer_factory.hpp:77] Creating layer inception_5a/relu_3x3
I0403 15:14:50.928881 31355 net.cpp:91] Creating Layer inception_5a/relu_3x3
I0403 15:14:50.928899 31355 net.cpp:425] inception_5a/relu_3x3 <- inception_5a/3x3
I0403 15:14:50.928915 31355 net.cpp:386] inception_5a/relu_3x3 -> inception_5a/3x3 (in-place)
I0403 15:14:50.929203 31355 net.cpp:141] Setting up inception_5a/relu_3x3
I0403 15:14:50.929229 31355 net.cpp:148] Top shape: 24 320 7 7 (376320)
I0403 15:14:50.929244 31355 net.cpp:156] Memory required for data: 1299050016
I0403 15:14:50.929258 31355 layer_factory.hpp:77] Creating layer inception_5a/5x5_reduce
I0403 15:14:50.929283 31355 net.cpp:91] Creating Layer inception_5a/5x5_reduce
I0403 15:14:50.929314 31355 net.cpp:425] inception_5a/5x5_reduce <- pool4/3x3_s2_pool4/3x3_s2_0_split_2
I0403 15:14:50.929334 31355 net.cpp:399] inception_5a/5x5_reduce -> inception_5a/5x5_reduce
I0403 15:14:50.930492 31355 net.cpp:141] Setting up inception_5a/5x5_reduce
I0403 15:14:50.930527 31355 net.cpp:148] Top shape: 24 32 7 7 (37632)
I0403 15:14:50.930544 31355 net.cpp:156] Memory required for data: 1299200544
I0403 15:14:50.930562 31355 layer_factory.hpp:77] Creating layer inception_5a/relu_5x5_reduce
I0403 15:14:50.930580 31355 net.cpp:91] Creating Layer inception_5a/relu_5x5_reduce
I0403 15:14:50.930596 31355 net.cpp:425] inception_5a/relu_5x5_reduce <- inception_5a/5x5_reduce
I0403 15:14:50.930613 31355 net.cpp:386] inception_5a/relu_5x5_reduce -> inception_5a/5x5_reduce (in-place)
I0403 15:14:50.930907 31355 net.cpp:141] Setting up inception_5a/relu_5x5_reduce
I0403 15:14:50.930934 31355 net.cpp:148] Top shape: 24 32 7 7 (37632)
I0403 15:14:50.930950 31355 net.cpp:156] Memory required for data: 1299351072
I0403 15:14:50.930965 31355 layer_factory.hpp:77] Creating layer inception_5a/5x5
I0403 15:14:50.930987 31355 net.cpp:91] Creating Layer inception_5a/5x5
I0403 15:14:50.931005 31355 net.cpp:425] inception_5a/5x5 <- inception_5a/5x5_reduce
I0403 15:14:50.931023 31355 net.cpp:399] inception_5a/5x5 -> inception_5a/5x5
I0403 15:14:50.932744 31355 net.cpp:141] Setting up inception_5a/5x5
I0403 15:14:50.932781 31355 net.cpp:148] Top shape: 24 128 7 7 (150528)
I0403 15:14:50.932798 31355 net.cpp:156] Memory required for data: 1299953184
I0403 15:14:50.932816 31355 layer_factory.hpp:77] Creating layer inception_5a/relu_5x5
I0403 15:14:50.932837 31355 net.cpp:91] Creating Layer inception_5a/relu_5x5
I0403 15:14:50.932853 31355 net.cpp:425] inception_5a/relu_5x5 <- inception_5a/5x5
I0403 15:14:50.932870 31355 net.cpp:386] inception_5a/relu_5x5 -> inception_5a/5x5 (in-place)
I0403 15:14:50.933058 31355 net.cpp:141] Setting up inception_5a/relu_5x5
I0403 15:14:50.933081 31355 net.cpp:148] Top shape: 24 128 7 7 (150528)
I0403 15:14:50.933095 31355 net.cpp:156] Memory required for data: 1300555296
I0403 15:14:50.933110 31355 layer_factory.hpp:77] Creating layer inception_5a/pool
I0403 15:14:50.933127 31355 net.cpp:91] Creating Layer inception_5a/pool
I0403 15:14:50.933143 31355 net.cpp:425] inception_5a/pool <- pool4/3x3_s2_pool4/3x3_s2_0_split_3
I0403 15:14:50.933164 31355 net.cpp:399] inception_5a/pool -> inception_5a/pool
I0403 15:14:50.933233 31355 net.cpp:141] Setting up inception_5a/pool
I0403 15:14:50.933256 31355 net.cpp:148] Top shape: 24 832 7 7 (978432)
I0403 15:14:50.933270 31355 net.cpp:156] Memory required for data: 1304469024
I0403 15:14:50.933284 31355 layer_factory.hpp:77] Creating layer inception_5a/pool_proj
I0403 15:14:50.933307 31355 net.cpp:91] Creating Layer inception_5a/pool_proj
I0403 15:14:50.933326 31355 net.cpp:425] inception_5a/pool_proj <- inception_5a/pool
I0403 15:14:50.933343 31355 net.cpp:399] inception_5a/pool_proj -> inception_5a/pool_proj
I0403 15:14:50.935684 31355 net.cpp:141] Setting up inception_5a/pool_proj
I0403 15:14:50.935724 31355 net.cpp:148] Top shape: 24 128 7 7 (150528)
I0403 15:14:50.935744 31355 net.cpp:156] Memory required for data: 1305071136
I0403 15:14:50.935768 31355 layer_factory.hpp:77] Creating layer inception_5a/relu_pool_proj
I0403 15:14:50.935796 31355 net.cpp:91] Creating Layer inception_5a/relu_pool_proj
I0403 15:14:50.935820 31355 net.cpp:425] inception_5a/relu_pool_proj <- inception_5a/pool_proj
I0403 15:14:50.935843 31355 net.cpp:386] inception_5a/relu_pool_proj -> inception_5a/pool_proj (in-place)
I0403 15:14:50.936184 31355 net.cpp:141] Setting up inception_5a/relu_pool_proj
I0403 15:14:50.936211 31355 net.cpp:148] Top shape: 24 128 7 7 (150528)
I0403 15:14:50.936225 31355 net.cpp:156] Memory required for data: 1305673248
I0403 15:14:50.936254 31355 layer_factory.hpp:77] Creating layer inception_5a/output
I0403 15:14:50.936275 31355 net.cpp:91] Creating Layer inception_5a/output
I0403 15:14:50.936295 31355 net.cpp:425] inception_5a/output <- inception_5a/1x1
I0403 15:14:50.936313 31355 net.cpp:425] inception_5a/output <- inception_5a/3x3
I0403 15:14:50.936337 31355 net.cpp:425] inception_5a/output <- inception_5a/5x5
I0403 15:14:50.936383 31355 net.cpp:425] inception_5a/output <- inception_5a/pool_proj
I0403 15:14:50.936429 31355 net.cpp:399] inception_5a/output -> inception_5a/output
I0403 15:14:50.936512 31355 net.cpp:141] Setting up inception_5a/output
I0403 15:14:50.936553 31355 net.cpp:148] Top shape: 24 832 7 7 (978432)
I0403 15:14:50.936589 31355 net.cpp:156] Memory required for data: 1309586976
I0403 15:14:50.936630 31355 layer_factory.hpp:77] Creating layer inception_5a/output_inception_5a/output_0_split
I0403 15:14:50.936676 31355 net.cpp:91] Creating Layer inception_5a/output_inception_5a/output_0_split
I0403 15:14:50.936712 31355 net.cpp:425] inception_5a/output_inception_5a/output_0_split <- inception_5a/output
I0403 15:14:50.936756 31355 net.cpp:399] inception_5a/output_inception_5a/output_0_split -> inception_5a/output_inception_5a/output_0_split_0
I0403 15:14:50.936799 31355 net.cpp:399] inception_5a/output_inception_5a/output_0_split -> inception_5a/output_inception_5a/output_0_split_1
I0403 15:14:50.936820 31355 net.cpp:399] inception_5a/output_inception_5a/output_0_split -> inception_5a/output_inception_5a/output_0_split_2
I0403 15:14:50.936839 31355 net.cpp:399] inception_5a/output_inception_5a/output_0_split -> inception_5a/output_inception_5a/output_0_split_3
I0403 15:14:50.936950 31355 net.cpp:141] Setting up inception_5a/output_inception_5a/output_0_split
I0403 15:14:50.936976 31355 net.cpp:148] Top shape: 24 832 7 7 (978432)
I0403 15:14:50.936992 31355 net.cpp:148] Top shape: 24 832 7 7 (978432)
I0403 15:14:50.937007 31355 net.cpp:148] Top shape: 24 832 7 7 (978432)
I0403 15:14:50.937022 31355 net.cpp:148] Top shape: 24 832 7 7 (978432)
I0403 15:14:50.937036 31355 net.cpp:156] Memory required for data: 1325241888
I0403 15:14:50.937050 31355 layer_factory.hpp:77] Creating layer inception_5b/1x1
I0403 15:14:50.937072 31355 net.cpp:91] Creating Layer inception_5b/1x1
I0403 15:14:50.937088 31355 net.cpp:425] inception_5b/1x1 <- inception_5a/output_inception_5a/output_0_split_0
I0403 15:14:50.937106 31355 net.cpp:399] inception_5b/1x1 -> inception_5b/1x1
I0403 15:14:50.940807 31355 net.cpp:141] Setting up inception_5b/1x1
I0403 15:14:50.940839 31355 net.cpp:148] Top shape: 24 384 7 7 (451584)
I0403 15:14:50.940853 31355 net.cpp:156] Memory required for data: 1327048224
I0403 15:14:50.940872 31355 layer_factory.hpp:77] Creating layer inception_5b/relu_1x1
I0403 15:14:50.940893 31355 net.cpp:91] Creating Layer inception_5b/relu_1x1
I0403 15:14:50.940912 31355 net.cpp:425] inception_5b/relu_1x1 <- inception_5b/1x1
I0403 15:14:50.940928 31355 net.cpp:386] inception_5b/relu_1x1 -> inception_5b/1x1 (in-place)
I0403 15:14:50.941226 31355 net.cpp:141] Setting up inception_5b/relu_1x1
I0403 15:14:50.941252 31355 net.cpp:148] Top shape: 24 384 7 7 (451584)
I0403 15:14:50.941267 31355 net.cpp:156] Memory required for data: 1328854560
I0403 15:14:50.941282 31355 layer_factory.hpp:77] Creating layer inception_5b/3x3_reduce
I0403 15:14:50.941304 31355 net.cpp:91] Creating Layer inception_5b/3x3_reduce
I0403 15:14:50.941323 31355 net.cpp:425] inception_5b/3x3_reduce <- inception_5a/output_inception_5a/output_0_split_1
I0403 15:14:50.941344 31355 net.cpp:399] inception_5b/3x3_reduce -> inception_5b/3x3_reduce
I0403 15:14:50.944103 31355 net.cpp:141] Setting up inception_5b/3x3_reduce
I0403 15:14:50.944134 31355 net.cpp:148] Top shape: 24 192 7 7 (225792)
I0403 15:14:50.944149 31355 net.cpp:156] Memory required for data: 1329757728
I0403 15:14:50.944167 31355 layer_factory.hpp:77] Creating layer inception_5b/relu_3x3_reduce
I0403 15:14:50.944190 31355 net.cpp:91] Creating Layer inception_5b/relu_3x3_reduce
I0403 15:14:50.944206 31355 net.cpp:425] inception_5b/relu_3x3_reduce <- inception_5b/3x3_reduce
I0403 15:14:50.944224 31355 net.cpp:386] inception_5b/relu_3x3_reduce -> inception_5b/3x3_reduce (in-place)
I0403 15:14:50.944407 31355 net.cpp:141] Setting up inception_5b/relu_3x3_reduce
I0403 15:14:50.944432 31355 net.cpp:148] Top shape: 24 192 7 7 (225792)
I0403 15:14:50.944447 31355 net.cpp:156] Memory required for data: 1330660896
I0403 15:14:50.944460 31355 layer_factory.hpp:77] Creating layer inception_5b/3x3
I0403 15:14:50.944484 31355 net.cpp:91] Creating Layer inception_5b/3x3
I0403 15:14:50.944505 31355 net.cpp:425] inception_5b/3x3 <- inception_5b/3x3_reduce
I0403 15:14:50.944525 31355 net.cpp:399] inception_5b/3x3 -> inception_5b/3x3
I0403 15:14:50.951196 31355 net.cpp:141] Setting up inception_5b/3x3
I0403 15:14:50.951227 31355 net.cpp:148] Top shape: 24 384 7 7 (451584)
I0403 15:14:50.951246 31355 net.cpp:156] Memory required for data: 1332467232
I0403 15:14:50.951266 31355 layer_factory.hpp:77] Creating layer inception_5b/relu_3x3
I0403 15:14:50.951287 31355 net.cpp:91] Creating Layer inception_5b/relu_3x3
I0403 15:14:50.951304 31355 net.cpp:425] inception_5b/relu_3x3 <- inception_5b/3x3
I0403 15:14:50.951321 31355 net.cpp:386] inception_5b/relu_3x3 -> inception_5b/3x3 (in-place)
I0403 15:14:50.951620 31355 net.cpp:141] Setting up inception_5b/relu_3x3
I0403 15:14:50.951653 31355 net.cpp:148] Top shape: 24 384 7 7 (451584)
I0403 15:14:50.951673 31355 net.cpp:156] Memory required for data: 1334273568
I0403 15:14:50.951691 31355 layer_factory.hpp:77] Creating layer inception_5b/5x5_reduce
I0403 15:14:50.951758 31355 net.cpp:91] Creating Layer inception_5b/5x5_reduce
I0403 15:14:50.951777 31355 net.cpp:425] inception_5b/5x5_reduce <- inception_5a/output_inception_5a/output_0_split_2
I0403 15:14:50.951798 31355 net.cpp:399] inception_5b/5x5_reduce -> inception_5b/5x5_reduce
I0403 15:14:50.953037 31355 net.cpp:141] Setting up inception_5b/5x5_reduce
I0403 15:14:50.953065 31355 net.cpp:148] Top shape: 24 48 7 7 (56448)
I0403 15:14:50.953081 31355 net.cpp:156] Memory required for data: 1334499360
I0403 15:14:50.953099 31355 layer_factory.hpp:77] Creating layer inception_5b/relu_5x5_reduce
I0403 15:14:50.953119 31355 net.cpp:91] Creating Layer inception_5b/relu_5x5_reduce
I0403 15:14:50.953136 31355 net.cpp:425] inception_5b/relu_5x5_reduce <- inception_5b/5x5_reduce
I0403 15:14:50.953153 31355 net.cpp:386] inception_5b/relu_5x5_reduce -> inception_5b/5x5_reduce (in-place)
I0403 15:14:50.953524 31355 net.cpp:141] Setting up inception_5b/relu_5x5_reduce
I0403 15:14:50.953552 31355 net.cpp:148] Top shape: 24 48 7 7 (56448)
I0403 15:14:50.953567 31355 net.cpp:156] Memory required for data: 1334725152
I0403 15:14:50.953582 31355 layer_factory.hpp:77] Creating layer inception_5b/5x5
I0403 15:14:50.953601 31355 net.cpp:91] Creating Layer inception_5b/5x5
I0403 15:14:50.953619 31355 net.cpp:425] inception_5b/5x5 <- inception_5b/5x5_reduce
I0403 15:14:50.953636 31355 net.cpp:399] inception_5b/5x5 -> inception_5b/5x5
I0403 15:14:50.955641 31355 net.cpp:141] Setting up inception_5b/5x5
I0403 15:14:50.955672 31355 net.cpp:148] Top shape: 24 128 7 7 (150528)
I0403 15:14:50.955687 31355 net.cpp:156] Memory required for data: 1335327264
I0403 15:14:50.955706 31355 layer_factory.hpp:77] Creating layer inception_5b/relu_5x5
I0403 15:14:50.955724 31355 net.cpp:91] Creating Layer inception_5b/relu_5x5
I0403 15:14:50.955740 31355 net.cpp:425] inception_5b/relu_5x5 <- inception_5b/5x5
I0403 15:14:50.955757 31355 net.cpp:386] inception_5b/relu_5x5 -> inception_5b/5x5 (in-place)
I0403 15:14:50.955948 31355 net.cpp:141] Setting up inception_5b/relu_5x5
I0403 15:14:50.955974 31355 net.cpp:148] Top shape: 24 128 7 7 (150528)
I0403 15:14:50.955991 31355 net.cpp:156] Memory required for data: 1335929376
I0403 15:14:50.956006 31355 layer_factory.hpp:77] Creating layer inception_5b/pool
I0403 15:14:50.956023 31355 net.cpp:91] Creating Layer inception_5b/pool
I0403 15:14:50.956038 31355 net.cpp:425] inception_5b/pool <- inception_5a/output_inception_5a/output_0_split_3
I0403 15:14:50.956058 31355 net.cpp:399] inception_5b/pool -> inception_5b/pool
I0403 15:14:50.956130 31355 net.cpp:141] Setting up inception_5b/pool
I0403 15:14:50.956156 31355 net.cpp:148] Top shape: 24 832 7 7 (978432)
I0403 15:14:50.956171 31355 net.cpp:156] Memory required for data: 1339843104
I0403 15:14:50.956184 31355 layer_factory.hpp:77] Creating layer inception_5b/pool_proj
I0403 15:14:50.956207 31355 net.cpp:91] Creating Layer inception_5b/pool_proj
I0403 15:14:50.956223 31355 net.cpp:425] inception_5b/pool_proj <- inception_5b/pool
I0403 15:14:50.956243 31355 net.cpp:399] inception_5b/pool_proj -> inception_5b/pool_proj
I0403 15:14:50.958573 31355 net.cpp:141] Setting up inception_5b/pool_proj
I0403 15:14:50.958602 31355 net.cpp:148] Top shape: 24 128 7 7 (150528)
I0403 15:14:50.958618 31355 net.cpp:156] Memory required for data: 1340445216
I0403 15:14:50.958636 31355 layer_factory.hpp:77] Creating layer inception_5b/relu_pool_proj
I0403 15:14:50.958657 31355 net.cpp:91] Creating Layer inception_5b/relu_pool_proj
I0403 15:14:50.958674 31355 net.cpp:425] inception_5b/relu_pool_proj <- inception_5b/pool_proj
I0403 15:14:50.958691 31355 net.cpp:386] inception_5b/relu_pool_proj -> inception_5b/pool_proj (in-place)
I0403 15:14:50.958986 31355 net.cpp:141] Setting up inception_5b/relu_pool_proj
I0403 15:14:50.959010 31355 net.cpp:148] Top shape: 24 128 7 7 (150528)
I0403 15:14:50.959025 31355 net.cpp:156] Memory required for data: 1341047328
I0403 15:14:50.959040 31355 layer_factory.hpp:77] Creating layer inception_5b/output
I0403 15:14:50.959059 31355 net.cpp:91] Creating Layer inception_5b/output
I0403 15:14:50.959089 31355 net.cpp:425] inception_5b/output <- inception_5b/1x1
I0403 15:14:50.959105 31355 net.cpp:425] inception_5b/output <- inception_5b/3x3
I0403 15:14:50.959122 31355 net.cpp:425] inception_5b/output <- inception_5b/5x5
I0403 15:14:50.959137 31355 net.cpp:425] inception_5b/output <- inception_5b/pool_proj
I0403 15:14:50.959156 31355 net.cpp:399] inception_5b/output -> inception_5b/output
I0403 15:14:50.959211 31355 net.cpp:141] Setting up inception_5b/output
I0403 15:14:50.959234 31355 net.cpp:148] Top shape: 24 1024 7 7 (1204224)
I0403 15:14:50.959249 31355 net.cpp:156] Memory required for data: 1345864224
I0403 15:14:50.959264 31355 layer_factory.hpp:77] Creating layer pool5/7x7_s1
I0403 15:14:50.959281 31355 net.cpp:91] Creating Layer pool5/7x7_s1
I0403 15:14:50.959296 31355 net.cpp:425] pool5/7x7_s1 <- inception_5b/output
I0403 15:14:50.959316 31355 net.cpp:399] pool5/7x7_s1 -> pool5/7x7_s1
I0403 15:14:50.959529 31355 net.cpp:141] Setting up pool5/7x7_s1
I0403 15:14:50.959554 31355 net.cpp:148] Top shape: 24 1024 1 1 (24576)
I0403 15:14:50.959570 31355 net.cpp:156] Memory required for data: 1345962528
I0403 15:14:50.959585 31355 layer_factory.hpp:77] Creating layer pool5/drop_7x7_s1
I0403 15:14:50.959604 31355 net.cpp:91] Creating Layer pool5/drop_7x7_s1
I0403 15:14:50.959621 31355 net.cpp:425] pool5/drop_7x7_s1 <- pool5/7x7_s1
I0403 15:14:50.959638 31355 net.cpp:386] pool5/drop_7x7_s1 -> pool5/7x7_s1 (in-place)
I0403 15:14:50.959689 31355 net.cpp:141] Setting up pool5/drop_7x7_s1
I0403 15:14:50.959712 31355 net.cpp:148] Top shape: 24 1024 1 1 (24576)
I0403 15:14:50.959727 31355 net.cpp:156] Memory required for data: 1346060832
I0403 15:14:50.959740 31355 layer_factory.hpp:77] Creating layer loss3/classifier_plantvillage
I0403 15:14:50.959761 31355 net.cpp:91] Creating Layer loss3/classifier_plantvillage
I0403 15:14:50.959779 31355 net.cpp:425] loss3/classifier_plantvillage <- pool5/7x7_s1
I0403 15:14:50.959797 31355 net.cpp:399] loss3/classifier_plantvillage -> loss3/classifier_plantvillage
I0403 15:14:50.960228 31355 net.cpp:141] Setting up loss3/classifier_plantvillage
I0403 15:14:50.960253 31355 net.cpp:148] Top shape: 24 38 (912)
I0403 15:14:50.960294 31355 net.cpp:156] Memory required for data: 1346064480
I0403 15:14:50.960331 31355 layer_factory.hpp:77] Creating layer loss3/classifier_plantvillage_loss3/classifier_plantvillage_0_split
I0403 15:14:50.960373 31355 net.cpp:91] Creating Layer loss3/classifier_plantvillage_loss3/classifier_plantvillage_0_split
I0403 15:14:50.960410 31355 net.cpp:425] loss3/classifier_plantvillage_loss3/classifier_plantvillage_0_split <- loss3/classifier_plantvillage
I0403 15:14:50.960444 31355 net.cpp:399] loss3/classifier_plantvillage_loss3/classifier_plantvillage_0_split -> loss3/classifier_plantvillage_loss3/classifier_plantvillage_0_split_0
I0403 15:14:50.960491 31355 net.cpp:399] loss3/classifier_plantvillage_loss3/classifier_plantvillage_0_split -> loss3/classifier_plantvillage_loss3/classifier_plantvillage_0_split_1
I0403 15:14:50.960538 31355 net.cpp:399] loss3/classifier_plantvillage_loss3/classifier_plantvillage_0_split -> loss3/classifier_plantvillage_loss3/classifier_plantvillage_0_split_2
I0403 15:14:50.960578 31355 net.cpp:399] loss3/classifier_plantvillage_loss3/classifier_plantvillage_0_split -> loss3/classifier_plantvillage_loss3/classifier_plantvillage_0_split_3
I0403 15:14:50.960685 31355 net.cpp:141] Setting up loss3/classifier_plantvillage_loss3/classifier_plantvillage_0_split
I0403 15:14:50.960708 31355 net.cpp:148] Top shape: 24 38 (912)
I0403 15:14:50.960724 31355 net.cpp:148] Top shape: 24 38 (912)
I0403 15:14:50.960738 31355 net.cpp:148] Top shape: 24 38 (912)
I0403 15:14:50.960753 31355 net.cpp:148] Top shape: 24 38 (912)
I0403 15:14:50.960767 31355 net.cpp:156] Memory required for data: 1346079072
I0403 15:14:50.960783 31355 layer_factory.hpp:77] Creating layer loss1/loss
I0403 15:14:50.960804 31355 net.cpp:91] Creating Layer loss1/loss
I0403 15:14:50.960824 31355 net.cpp:425] loss1/loss <- loss1/classifier_plantvillage_loss1/classifier_plantvillage_0_split_0
I0403 15:14:50.960855 31355 net.cpp:425] loss1/loss <- label_data_1_split_0
…
