…
I0403 15:09:42.828480 31228 net.cpp:313] The NetState phase (1) differed from the phase (0) specified by a rule in layer data
I0403 15:09:42.829607 31228 net.cpp:49] Initializing net from parameters: 
state {
  phase: TEST
}
layer {
  name: "data"
  type: "Data"
  top: "data"
  top: "label"
  include {
    phase: TEST
  }
  transform_param {
    mirror: false
    crop_size: 224
    mean_file: "/home/mohanty/data/final_dataset/lmdb/grayscale-80-20/mean.binaryproto"
  }
  data_param {
    source: "/home/mohanty/data/final_dataset/lmdb/grayscale-80-20/test_db"
    batch_size: 24
    backend: LMDB
  }
}
layer {
  name: "conv1/7x7_s2"
  type: "Convolution"
  bottom: "data"
  top: "conv1/7x7_s2"
  param {
    lr_mult: 1
    decay_mult: 1
  }
  param {
    lr_mult: 2
    decay_mult: 0
  }
  convolution_param {
    num_output: 64
    pad: 3
    kernel_size: 7
    stride: 2
    weight_filler {
      type: "xavier"
      std: 0.1
    }
    bias_filler {
      type: "constant"
      value: 0.2
    }
  }
}
layer {
  name: "conv1/relu_7x7"
  type: "ReLU"
  bottom: "conv1/7x7_s2"
  top: "conv1/7x7_s2"
}
layer {
  name: "pool1/3x3_s2"
  type: "Pooling"
  bottom: "conv1/7x7_s2"
  top: "pool1/3x3_s2"
  pooling_param {
    pool: MAX
    kernel_size: 3
    stride: 2
  }
}
layer {
  name: "pool1/norm1"
  type: "LRN"
  bottom: "pool1/3x3_s2"
  top: "pool1/norm1"
  lrn_param {
    local_size: 5
    alpha: 0.0001
    beta: 0.75
  }
}
layer {
  name: "conv2/3x3_reduce"
  type: "Convolution"
  bottom: "pool1/norm1"
  top: "conv2/3x3_reduce"
  param {
    lr_mult: 1
    decay_mult: 1
  }
  param {
    lr_mult: 2
    decay_mult: 0
  }
  convolution_param {
    num_output: 64
    kernel_size: 1
    weight_filler {
      type: "xavier"
      std: 0.1
    }
    bias_filler {
      type: "constant"
      value: 0.2
    }
  }
}
layer {
  name: "conv2/relu_3x3_reduce"
  type: "ReLU"
  bottom: "conv2/3x3_reduce"
  top: "conv2/3x3_reduce"
}
layer {
  name: "conv2/3x3"
  type: "Convolution"
  bottom: "conv2/3x3_reduce"
  top: "conv2/3x3"
  param {
    lr_mult: 1
    decay_mult: 1
  }
  param {
    lr_mult: 2
    decay_mult: 0
  }
  convolution_param {
    num_output: 192
    pad: 1
    kernel_size: 3
    weight_filler {
      type: "xavier"
      std: 0.03
    }
    bias_filler {
      type: "constant"
      value: 0.2
    }
  }
}
layer {
  name: "conv2/relu_3x3"
  type: "ReLU"
  bottom: "conv2/3x3"
  top: "conv2/3x3"
}
layer {
  name: "conv2/norm2"
  type: "LRN"
  bottom: "conv2/3x3"
  top: "conv2/norm2"
  lrn_param {
    local_size: 5
    alpha: 0.0001
    beta: 0.75
  }
}
layer {
  name: "pool2/3x3_s2"
  type: "Pooling"
  bottom: "conv2/norm2"
  top: "pool2/3x3_s2"
  pooling_param {
    pool: MAX
    kernel_size: 3
    stride: 2
  }
}
layer {
  name: "inception_3a/1x1"
  type: "Convolution"
  bottom: "pool2/3x3_s2"
  top: "inception_3a/1x1"
  param {
    lr_mult: 1
    decay_mult: 1
  }
  param {
    lr_mult: 2
    decay_mult: 0
  }
  convolution_param {
    num_output: 64
    kernel_size: 1
    weight_filler {
      type: "xavier"
      std: 0.03
    }
    bias_filler {
      type: "constant"
      value: 0.2
    }
  }
}
layer {
  name: "inception_3a/relu_1x1"
  type: "ReLU"
  bottom: "inception_3a/1x1"
  top: "inception_3a/1x1"
}
layer {
  name: "inception_3a/3x3_reduce"
  type: "Convolution"
  bottom: "pool2/3x3_s2"
  top: "inception_3a/3x3_reduce"
  param {
    lr_mult: 1
    decay_mult: 1
  }
  param {
    lr_mult: 2
    decay_mult: 0
  }
  convolution_param {
    num_output: 96
    kernel_size: 1
    weight_filler {
      type: "xavier"
      std: 0.09
    }
    bias_filler {
      type: "constant"
      value: 0.2
    }
  }
}
layer {
  name: "inception_3a/relu_3x3_reduce"
  type: "ReLU"
  bottom: "inception_3a/3x3_reduce"
  top: "inception_3a/3x3_reduce"
}
layer {
  name: "inception_3a/3x3"
  type: "Convolution"
  bottom: "inception_3a/3x3_reduce"
  top: "inception_3a/3x3"
  param {
    lr_mult: 1
    decay_mult: 1
  }
  param {
    lr_mult: 2
    decay_mult: 0
  }
  convolution_param {
    num_output: 128
    pad: 1
    kernel_size: 3
    weight_filler {
      type: "xavier"
      std: 0.03
    }
    bias_filler {
      type: "constant"
      value: 0.2
    }
  }
}
layer {
  name: "inception_3a/relu_3x3"
  type: "ReLU"
  bottom: "inception_3a/3x3"
  top: "inception_3a/3x3"
}
layer {
  name: "inception_3a/5x5_reduce"
  type: "Convolution"
  bottom: "pool2/3x3_s2"
  top: "inception_3a/5x5_reduce"
  param {
    lr_mult: 1
    decay_mult: 1
  }
  param {
    lr_mult: 2
    decay_mult: 0
  }
  convolution_param {
    num_output: 16
    kernel_size: 1
    weight_filler {
      type: "xavier"
      std: 0.2
    }
    bias_filler {
      type: "constant"
      value: 0.2
    }
  }
}
layer {
  name: "inception_3a/relu_5x5_reduce"
  type: "ReLU"
  bottom: "inception_3a/5x5_reduce"
  top: "inception_3a/5x5_reduce"
}
layer {
  name: "inception_3a/5x5"
  type: "Convolution"
  bottom: "inception_3a/5x5_reduce"
  top: "inception_3a/5x5"
  param {
    lr_mult: 1
    decay_mult: 1
  }
  param {
    lr_mult: 2
    decay_mult: 0
  }
  convolution_param {
    num_output: 32
    pad: 2
    kernel_size: 5
    weight_filler {
      type: "xavier"
      std: 0.03
    }
    bias_filler {
      type: "constant"
      value: 0.2
    }
  }
}
layer {
  name: "inception_3a/relu_5x5"
  type: "ReLU"
  bottom: "inception_3a/5x5"
  top: "inception_3a/5x5"
}
layer {
  name: "inception_3a/pool"
  type: "Pooling"
  bottom: "pool2/3x3_s2"
  top: "inception_3a/pool"
  pooling_param {
    pool: MAX
    kernel_size: 3
    stride: 1
    pad: 1
  }
}
layer {
  name: "inception_3a/pool_proj"
  type: "Convolution"
  bottom: "inception_3a/pool"
  top: "inception_3a/pool_proj"
  param {
    lr_mult: 1
    decay_mult: 1
  }
  param {
    lr_mult: 2
    decay_mult: 0
  }
  convolution_param {
    num_output: 32
    kernel_size: 1
    weight_filler {
      type: "xavier"
      std: 0.1
    }
    bias_filler {
      type: "constant"
      value: 0.2
    }
  }
}
layer {
  name: "inception_3a/relu_pool_proj"
  type: "ReLU"
  bottom: "inception_3a/pool_proj"
  top: "inception_3a/pool_proj"
}
layer {
  name: "inception_3a/output"
  type: "Concat"
  bottom: "inception_3a/1x1"
  bottom: "inception_3a/3x3"
  bottom: "inception_3a/5x5"
  bottom: "inception_3a/pool_proj"
  top: "inception_3a/output"
}
layer {
  name: "inception_3b/1x1"
  type: "Convolution"
  bottom: "inception_3a/output"
  top: "inception_3b/1x1"
  param {
    lr_mult: 1
    decay_mult: 1
  }
  param {
    lr_mult: 2
    decay_mult: 0
  }
  convolution_param {
    num_output: 128
    kernel_size: 1
    weight_filler {
      type: "xavier"
      std: 0.03
    }
    bias_filler {
      type: "constant"
      value: 0.2
    }
  }
}
layer {
  name: "inception_3b/relu_1x1"
  type: "ReLU"
  bottom: "inception_3b/1x1"
  top: "inception_3b/1x1"
}
layer {
  name: "inception_3b/3x3_reduce"
  type: "Convolution"
  bottom: "inception_3a/output"
  top: "inception_3b/3x3_reduce"
  param {
    lr_mult: 1
    decay_mult: 1
  }
  param {
    lr_mult: 2
    decay_mult: 0
  }
  convolution_param {
    num_output: 128
    kernel_size: 1
    weight_filler {
      type: "xavier"
      std: 0.09
    }
    bias_filler {
      type: "constant"
      value: 0.2
    }
  }
}
layer {
  name: "inception_3b/relu_3x3_reduce"
  type: "ReLU"
  bottom: "inception_3b/3x3_reduce"
  top: "inception_3b/3x3_reduce"
}
layer {
  name: "inception_3b/3x3"
  type: "Convolution"
  bottom: "inception_3b/3x3_reduce"
  top: "inception_3b/3x3"
  param {
    lr_mult: 1
    decay_mult: 1
  }
  param {
    lr_mult: 2
    decay_mult: 0
  }
  convolution_param {
    num_output: 192
    pad: 1
    kernel_size: 3
    weight_filler {
      type: "xavier"
      std: 0.03
    }
    bias_filler {
      type: "constant"
      value: 0.2
    }
  }
}
layer {
  name: "inception_3b/relu_3x3"
  type: "ReLU"
  bottom: "inception_3b/3x3"
  top: "inception_3b/3x3"
}
layer {
  name: "inception_3b/5x5_reduce"
  type: "Convolution"
  bottom: "inception_3a/output"
  top: "inception_3b/5x5_reduce"
  param {
    lr_mult: 1
    decay_mult: 1
  }
  param {
    lr_mult: 2
    decay_mult: 0
  }
  convolution_param {
    num_output: 32
    kernel_size: 1
    weight_filler {
      type: "xavier"
      std: 0.2
    }
    bias_filler {
      type: "constant"
      value: 0.2
    }
  }
}
layer {
  name: "inception_3b/relu_5x5_reduce"
  type: "ReLU"
  bottom: "inception_3b/5x5_reduce"
  top: "inception_3b/5x5_reduce"
}
layer {
  name: "inception_3b/5x5"
  type: "Convolution"
  bottom: "inception_3b/5x5_reduce"
  top: "inception_3b/5x5"
  param {
    lr_mult: 1
    decay_mult: 1
  }
  param {
    lr_mult: 2
    decay_mult: 0
  }
  convolution_param {
    num_output: 96
    pad: 2
    kernel_size: 5
    weight_filler {
      type: "xavier"
      std: 0.03
    }
    bias_filler {
      type: "constant"
      value: 0.2
    }
  }
}
layer {
  name: "inception_3b/relu_5x5"
  type: "ReLU"
  bottom: "inception_3b/5x5"
  top: "inception_3b/5x5"
}
layer {
  name: "inception_3b/pool"
  type: "Pooling"
  bottom: "inception_3a/output"
  top: "inception_3b/pool"
  pooling_param {
    pool: MAX
    kernel_size: 3
    stride: 1
    pad: 1
  }
}
layer {
  name: "inception_3b/pool_proj"
  type: "Convolution"
  bottom: "inception_3b/pool"
  top: "inception_3b/pool_proj"
  param {
    lr_mult: 1
    decay_mult: 1
  }
  param {
    lr_mult: 2
    decay_mult: 0
  }
  convolution_param {
    num_output: 64
    kernel_size: 1
    weight_filler {
      type: "xavier"
      std: 0.1
    }
    bias_filler {
      type: "constant"
      value: 0.2
    }
  }
}
layer {
  name: "inception_3b/relu_pool_proj"
  type: "ReLU"
  bottom: "inception_3b/pool_proj"
  top: "inception_3b/pool_proj"
}
layer {
  name: "inception_3b/output"
  type: "Concat"
  bottom: "inception_3b/1x1"
  bottom: "inception_3b/3x3"
  bottom: "inception_3b/5x5"
  bottom: "inception_3b/pool_proj"
  top: "inception_3b/output"
}
layer {
  name: "pool3/3x3_s2"
  type: "Pooling"
  bottom: "inception_3b/output"
  top: "pool3/3x3_s2"
  pooling_param {
    pool: MAX
    kernel_size: 3
    stride: 2
  }
}
layer {
  name: "inception_4a/1x1"
  type: "Convolution"
  bottom: "pool3/3x3_s2"
  top: "inception_4a/1x1"
  param {
    lr_mult: 1
    decay_mult: 1
  }
  param {
    lr_mult: 2
    decay_mult: 0
  }
  convolution_param {
    num_output: 192
    kernel_size: 1
    weight_filler {
      type: "xavier"
      std: 0.03
    }
    bias_filler {
      type: "constant"
      value: 0.2
    }
  }
}
layer {
  name: "inception_4a/relu_1x1"
  type: "ReLU"
  bottom: "inception_4a/1x1"
  top: "inception_4a/1x1"
}
layer {
  name: "inception_4a/3x3_reduce"
  type: "Convolution"
  bottom: "pool3/3x3_s2"
  top: "inception_4a/3x3_reduce"
  param {
    lr_mult: 1
    decay_mult: 1
  }
  param {
    lr_mult: 2
    decay_mult: 0
  }
  convolution_param {
    num_output: 96
    kernel_size: 1
    weight_filler {
      type: "xavier"
      std: 0.09
    }
    bias_filler {
      type: "constant"
      value: 0.2
    }
  }
}
layer {
  name: "inception_4a/relu_3x3_reduce"
  type: "ReLU"
  bottom: "inception_4a/3x3_reduce"
  top: "inception_4a/3x3_reduce"
}
layer {
  name: "inception_4a/3x3"
  type: "Convolution"
  bottom: "inception_4a/3x3_reduce"
  top: "inception_4a/3x3"
  param {
    lr_mult: 1
    decay_mult: 1
  }
  param {
    lr_mult: 2
    decay_mult: 0
  }
  convolution_param {
    num_output: 208
    pad: 1
    kernel_size: 3
    weight_filler {
      type: "xavier"
      std: 0.03
    }
    bias_filler {
      type: "constant"
      value: 0.2
    }
  }
}
layer {
  name: "inception_4a/relu_3x3"
  type: "ReLU"
  bottom: "inception_4a/3x3"
  top: "inception_4a/3x3"
}
layer {
  name: "inception_4a/5x5_reduce"
  type: "Convolution"
  bottom: "pool3/3x3_s2"
  top: "inception_4a/5x5_reduce"
  param {
    lr_mult: 1
    decay_mult: 1
  }
  param {
    lr_mult: 2
    decay_mult: 0
  }
  convolution_param {
    num_output: 16
    kernel_size: 1
    weight_filler {
      type: "xavier"
      std: 0.2
    }
    bias_filler {
      type: "constant"
      value: 0.2
    }
  }
}
layer {
  name: "inception_4a/relu_5x5_reduce"
  type: "ReLU"
  bottom: "inception_4a/5x5_reduce"
  top: "inception_4a/5x5_reduce"
}
layer {
  name: "inception_4a/5x5"
  type: "Convolution"
  bottom: "inception_4a/5x5_reduce"
  top: "inception_4a/5x5"
  param {
    lr_mult: 1
    decay_mult: 1
  }
  param {
    lr_mult: 2
    decay_mult: 0
  }
  convolution_param {
    num_output: 48
    pad: 2
    kernel_size: 5
    weight_filler {
      type: "xavier"
      std: 0.03
    }
    bias_filler {
      type: "constant"
      value: 0.2
    }
  }
}
layer {
  name: "inception_4a/relu_5x5"
  type: "ReLU"
  bottom: "inception_4a/5x5"
  top: "inception_4a/5x5"
}
layer {
  name: "inception_4a/pool"
  type: "Pooling"
  bottom: "pool3/3x3_s2"
  top: "inception_4a/pool"
  pooling_param {
    pool: MAX
    kernel_size: 3
    stride: 1
    pad: 1
  }
}
layer {
  name: "inception_4a/pool_proj"
  type: "Convolution"
  bottom: "inception_4a/pool"
  top: "inception_4a/pool_proj"
  param {
    lr_mult: 1
    decay_mult: 1
  }
  param {
    lr_mult: 2
    decay_mult: 0
  }
  convolution_param {
    num_output: 64
    kernel_size: 1
    weight_filler {
      type: "xavier"
      std: 0.1
    }
    bias_filler {
      type: "constant"
      value: 0.2
    }
  }
}
layer {
  name: "inception_4a/relu_pool_proj"
  type: "ReLU"
  bottom: "inception_4a/pool_proj"
  top: "inception_4a/pool_proj"
}
layer {
  name: "inception_4a/output"
  type: "Concat"
  bottom: "inception_4a/1x1"
  bottom: "inception_4a/3x3"
  bottom: "inception_4a/5x5"
  bottom: "inception_4a/pool_proj"
  top: "inception_4a/output"
}
layer {
  name: "loss1/ave_pool"
  type: "Pooling"
  bottom: "inception_4a/output"
  top: "loss1/ave_pool"
  pooling_param {
    pool: AVE
    kernel_size: 5
    stride: 3
  }
}
layer {
  name: "loss1/conv"
  type: "Convolution"
  bottom: "loss1/ave_pool"
  top: "loss1/conv"
  param {
    lr_mult: 1
    decay_mult: 1
  }
  param {
    lr_mult: 2
    decay_mult: 0
  }
  convolution_param {
    num_output: 128
    kernel_size: 1
    weight_filler {
      type: "xavier"
      std: 0.08
    }
    bias_filler {
      type: "constant"
      value: 0.2
    }
  }
}
layer {
  name: "loss1/relu_conv"
  type: "ReLU"
  bottom: "loss1/conv"
  top: "loss1/conv"
}
layer {
  name: "loss1/fc"
  type: "InnerProduct"
  bottom: "loss1/conv"
  top: "loss1/fc"
  param {
    lr_mult: 1
    decay_mult: 1
  }
  param {
    lr_mult: 2
    decay_mult: 0
  }
  inner_product_param {
    num_output: 1024
    weight_filler {
      type: "xavier"
      std: 0.02
    }
    bias_filler {
      type: "constant"
      value: 0.2
    }
  }
}
layer {
  name: "loss1/relu_fc"
  type: "ReLU"
  bottom: "loss1/fc"
  top: "loss1/fc"
}
layer {
  name: "loss1/drop_fc"
  type: "Dropout"
  bottom: "loss1/fc"
  top: "loss1/fc"
  dropout_param {
    dropout_ratio: 0.7
  }
}
layer {
  name: "loss1/classifier_plantvillage"
  type: "InnerProduct"
  bottom: "loss1/fc"
  top: "loss1/classifier_plantvillage"
  param {
    lr_mult: 1
    decay_mult: 1
  }
  param {
    lr_mult: 2
    decay_mult: 0
  }
  inner_product_param {
    num_output: 38
    weight_filler {
      type: "xavier"
      std: 0.0009765625
    }
    bias_filler {
      type: "constant"
      value: 0
    }
  }
}
layer {
  name: "inception_4b/1x1"
  type: "Convolution"
  bottom: "inception_4a/output"
  top: "inception_4b/1x1"
  param {
    lr_mult: 1
    decay_mult: 1
  }
  param {
    lr_mult: 2
    decay_mult: 0
  }
  convolution_param {
    num_output: 160
    kernel_size: 1
    weight_filler {
      type: "xavier"
      std: 0.03
    }
    bias_filler {
      type: "constant"
      value: 0.2
    }
  }
}
layer {
  name: "inception_4b/relu_1x1"
  type: "ReLU"
  bottom: "inception_4b/1x1"
  top: "inception_4b/1x1"
}
layer {
  name: "inception_4b/3x3_reduce"
  type: "Convolution"
  bottom: "inception_4a/output"
  top: "inception_4b/3x3_reduce"
  param {
    lr_mult: 1
    decay_mult: 1
  }
  param {
    lr_mult: 2
    decay_mult: 0
  }
  convolution_param {
    num_output: 112
    kernel_size: 1
    weight_filler {
      type: "xavier"
      std: 0.09
    }
    bias_filler {
      type: "constant"
      value: 0.2
    }
  }
}
layer {
  name: "inception_4b/relu_3x3_reduce"
  type: "ReLU"
  bottom: "inception_4b/3x3_reduce"
  top: "inception_4b/3x3_reduce"
}
layer {
  name: "inception_4b/3x3"
  type: "Convolution"
  bottom: "inception_4b/3x3_reduce"
  top: "inception_4b/3x3"
  param {
    lr_mult: 1
    decay_mult: 1
  }
  param {
    lr_mult: 2
    decay_mult: 0
  }
  convolution_param {
    num_output: 224
    pad: 1
    kernel_size: 3
    weight_filler {
      type: "xavier"
      std: 0.03
    }
    bias_filler {
      type: "constant"
      value: 0.2
    }
  }
}
layer {
  name: "inception_4b/relu_3x3"
  type: "ReLU"
  bottom: "inception_4b/3x3"
  top: "inception_4b/3x3"
}
layer {
  name: "inception_4b/5x5_reduce"
  type: "Convolution"
  bottom: "inception_4a/output"
  top: "inception_4b/5x5_reduce"
  param {
    lr_mult: 1
    decay_mult: 1
  }
  param {
    lr_mult: 2
    decay_mult: 0
  }
  convolution_param {
    num_output: 24
    kernel_size: 1
    weight_filler {
      type: "xavier"
      std: 0.2
    }
    bias_filler {
      type: "constant"
      value: 0.2
    }
  }
}
layer {
  name: "inception_4b/relu_5x5_reduce"
  type: "ReLU"
  bottom: "inception_4b/5x5_reduce"
  top: "inception_4b/5x5_reduce"
}
layer {
  name: "inception_4b/5x5"
  type: "Convolution"
  bottom: "inception_4b/5x5_reduce"
  top: "inception_4b/5x5"
  param {
    lr_mult: 1
    decay_mult: 1
  }
  param {
    lr_mult: 2
    decay_mult: 0
  }
  convolution_param {
    num_output: 64
    pad: 2
    kernel_size: 5
    weight_filler {
      type: "xavier"
      std: 0.03
    }
    bias_filler {
      type: "constant"
      value: 0.2
    }
  }
}
layer {
  name: "inception_4b/relu_5x5"
  type: "ReLU"
  bottom: "inception_4b/5x5"
  top: "inception_4b/5x5"
}
layer {
  name: "inception_4b/pool"
  type: "Pooling"
  bottom: "inception_4a/output"
  top: "inception_4b/pool"
  pooling_param {
    pool: MAX
    kernel_size: 3
    stride: 1
    pad: 1
  }
}
layer {
  name: "inception_4b/pool_proj"
  type: "Convolution"
  bottom: "inception_4b/pool"
  top: "inception_4b/pool_proj"
  param {
    lr_mult: 1
    decay_mult: 1
  }
  param {
    lr_mult: 2
    decay_mult: 0
  }
  convolution_param {
    num_output: 64
    kernel_size: 1
    weight_filler {
      type: "xavier"
      std: 0.1
    }
    bias_filler {
      type: "constant"
      value: 0.2
    }
  }
}
layer {
  name: "inception_4b/relu_pool_proj"
  type: "ReLU"
  bottom: "inception_4b/pool_proj"
  top: "inception_4b/pool_proj"
}
layer {
  name: "inception_4b/output"
  type: "Concat"
  bottom: "inception_4b/1x1"
  bottom: "inception_4b/3x3"
  bottom: "inception_4b/5x5"
  bottom: "inception_4b/pool_proj"
  top: "inception_4b/output"
}
layer {
  name: "inception_4c/1x1"
  type: "Convolution"
  bottom: "inception_4b/output"
  top: "inception_4c/1x1"
  param {
    lr_mult: 1
    decay_mult: 1
  }
  param {
    lr_mult: 2
    decay_mult: 0
  }
  convolution_param {
    num_output: 128
    kernel_size: 1
    weight_filler {
      type: "xavier"
      std: 0.03
    }
    bias_filler {
      type: "constant"
      value: 0.2
    }
  }
}
layer {
  name: "inception_4c/relu_1x1"
  type: "ReLU"
  bottom: "inception_4c/1x1"
  top: "inception_4c/1x1"
}
layer {
  name: "inception_4c/3x3_reduce"
  type: "Convolution"
  bottom: "inception_4b/output"
  top: "inception_4c/3x3_reduce"
  param {
    lr_mult: 1
    decay_mult: 1
  }
  param {
    lr_mult: 2
    decay_mult: 0
  }
  convolution_param {
    num_output: 128
    kernel_size: 1
    weight_filler {
      type: "xavier"
      std: 0.09
    }
    bias_filler {
      type: "constant"
      value: 0.2
    }
  }
}
layer {
  name: "inception_4c/relu_3x3_reduce"
  type: "ReLU"
  bottom: "inception_4c/3x3_reduce"
  top: "inception_4c/3x3_reduce"
}
layer {
  name: "inception_4c/3x3"
  type: "Convolution"
  bottom: "inception_4c/3x3_reduce"
  top: "inception_4c/3x3"
  param {
    lr_mult: 1
    decay_mult: 1
  }
  param {
    lr_mult: 2
    decay_mult: 0
  }
  convolution_param {
    num_output: 256
    pad: 1
    kernel_size: 3
    weight_filler {
      type: "xavier"
      std: 0.03
    }
    bias_filler {
      type: "constant"
      value: 0.2
    }
  }
}
layer {
  name: "inception_4c/relu_3x3"
  type: "ReLU"
  bottom: "inception_4c/3x3"
  top: "inception_4c/3x3"
}
layer {
  name: "inception_4c/5x5_reduce"
  type: "Convolution"
  bottom: "inception_4b/output"
  top: "inception_4c/5x5_reduce"
  param {
    lr_mult: 1
    decay_mult: 1
  }
  param {
    lr_mult: 2
    decay_mult: 0
  }
  convolution_param {
    num_output: 24
    kernel_size: 1
    weight_filler {
      type: "xavier"
      std: 0.2
    }
    bias_filler {
      type: "constant"
      value: 0.2
    }
  }
}
layer {
  name: "inception_4c/relu_5x5_reduce"
  type: "ReLU"
  bottom: "inception_4c/5x5_reduce"
  top: "inception_4c/5x5_reduce"
}
layer {
  name: "inception_4c/5x5"
  type: "Convolution"
  bottom: "inception_4c/5x5_reduce"
  top: "inception_4c/5x5"
  param {
    lr_mult: 1
    decay_mult: 1
  }
  param {
    lr_mult: 2
    decay_mult: 0
  }
  convolution_param {
    num_output: 64
    pad: 2
    kernel_size: 5
    weight_filler {
      type: "xavier"
      std: 0.03
    }
    bias_filler {
      type: "constant"
      value: 0.2
    }
  }
}
layer {
  name: "inception_4c/relu_5x5"
  type: "ReLU"
  bottom: "inception_4c/5x5"
  top: "inception_4c/5x5"
}
layer {
  name: "inception_4c/pool"
  type: "Pooling"
  bottom: "inception_4b/output"
  top: "inception_4c/pool"
  pooling_param {
    pool: MAX
    kernel_size: 3
    stride: 1
    pad: 1
  }
}
layer {
  name: "inception_4c/pool_proj"
  type: "Convolution"
  bottom: "inception_4c/pool"
  top: "inception_4c/pool_proj"
  param {
    lr_mult: 1
    decay_mult: 1
  }
  param {
    lr_mult: 2
    decay_mult: 0
  }
  convolution_param {
    num_output: 64
    kernel_size: 1
    weight_filler {
      type: "xavier"
      std: 0.1
    }
    bias_filler {
      type: "constant"
      value: 0.2
    }
  }
}
layer {
  name: "inception_4c/relu_pool_proj"
  type: "ReLU"
  bottom: "inception_4c/pool_proj"
  top: "inception_4c/pool_proj"
}
layer {
  name: "inception_4c/output"
  type: "Concat"
  bottom: "inception_4c/1x1"
  bottom: "inception_4c/3x3"
  bottom: "inception_4c/5x5"
  bottom: "inception_4c/pool_proj"
  top: "inception_4c/output"
}
layer {
  name: "inception_4d/1x1"
  type: "Convolution"
  bottom: "inception_4c/output"
  top: "inception_4d/1x1"
  param {
    lr_mult: 1
    decay_mult: 1
  }
  param {
    lr_mult: 2
    decay_mult: 0
  }
  convolution_param {
    num_output: 112
    kernel_size: 1
    weight_filler {
      type: "xavier"
      std: 0.03
    }
    bias_filler {
      type: "constant"
      value: 0.2
    }
  }
}
layer {
  name: "inception_4d/relu_1x1"
  type: "ReLU"
  bottom: "inception_4d/1x1"
  top: "inception_4d/1x1"
}
layer {
  name: "inception_4d/3x3_reduce"
  type: "Convolution"
  bottom: "inception_4c/output"
  top: "inception_4d/3x3_reduce"
  param {
    lr_mult: 1
    decay_mult: 1
  }
  param {
    lr_mult: 2
    decay_mult: 0
  }
  convolution_param {
    num_output: 144
    kernel_size: 1
    weight_filler {
      type: "xavier"
      std: 0.09
    }
    bias_filler {
      type: "constant"
      value: 0.2
    }
  }
}
layer {
  name: "inception_4d/relu_3x3_reduce"
  type: "ReLU"
  bottom: "inception_4d/3x3_reduce"
  top: "inception_4d/3x3_reduce"
}
layer {
  name: "inception_4d/3x3"
  type: "Convolution"
  bottom: "inception_4d/3x3_reduce"
  top: "inception_4d/3x3"
  param {
    lr_mult: 1
    decay_mult: 1
  }
  param {
    lr_mult: 2
    decay_mult: 0
  }
  convolution_param {
    num_output: 288
    pad: 1
    kernel_size: 3
    weight_filler {
      type: "xavier"
      std: 0.03
    }
    bias_filler {
      type: "constant"
      value: 0.2
    }
  }
}
layer {
  name: "inception_4d/relu_3x3"
  type: "ReLU"
  bottom: "inception_4d/3x3"
  top: "inception_4d/3x3"
}
layer {
  name: "inception_4d/5x5_reduce"
  type: "Convolution"
  bottom: "inception_4c/output"
  top: "inception_4d/5x5_reduce"
  param {
    lr_mult: 1
    decay_mult: 1
  }
  param {
    lr_mult: 2
    decay_mult: 0
  }
  convolution_param {
    num_output: 32
    kernel_size: 1
    weight_filler {
      type: "xavier"
      std: 0.2
    }
    bias_filler {
      type: "constant"
      value: 0.2
    }
  }
}
layer {
  name: "inception_4d/relu_5x5_reduce"
  type: "ReLU"
  bottom: "inception_4d/5x5_reduce"
  top: "inception_4d/5x5_reduce"
}
layer {
  name: "inception_4d/5x5"
  type: "Convolution"
  bottom: "inception_4d/5x5_reduce"
  top: "inception_4d/5x5"
  param {
    lr_mult: 1
    decay_mult: 1
  }
  param {
    lr_mult: 2
    decay_mult: 0
  }
  convolution_param {
    num_output: 64
    pad: 2
    kernel_size: 5
    weight_filler {
      type: "xavier"
      std: 0.03
    }
    bias_filler {
      type: "constant"
      value: 0.2
    }
  }
}
layer {
  name: "inception_4d/relu_5x5"
  type: "ReLU"
  bottom: "inception_4d/5x5"
  top: "inception_4d/5x5"
}
layer {
  name: "inception_4d/pool"
  type: "Pooling"
  bottom: "inception_4c/output"
  top: "inception_4d/pool"
  pooling_param {
    pool: MAX
    kernel_size: 3
    stride: 1
    pad: 1
  }
}
layer {
  name: "inception_4d/pool_proj"
  type: "Convolution"
  bottom: "inception_4d/pool"
  top: "inception_4d/pool_proj"
  param {
    lr_mult: 1
    decay_mult: 1
  }
  param {
    lr_mult: 2
    decay_mult: 0
  }
  convolution_param {
    num_output: 64
    kernel_size: 1
    weight_filler {
      type: "xavier"
      std: 0.1
    }
    bias_filler {
      type: "constant"
      value: 0.2
    }
  }
}
layer {
  name: "inception_4d/relu_pool_proj"
  type: "ReLU"
  bottom: "inception_4d/pool_proj"
  top: "inception_4d/pool_proj"
}
layer {
  name: "inception_4d/output"
  type: "Concat"
  bottom: "inception_4d/1x1"
  bottom: "inception_4d/3x3"
  bottom: "inception_4d/5x5"
  bottom: "inception_4d/pool_proj"
  top: "inception_4d/output"
}
layer {
  name: "loss2/ave_pool"
  type: "Pooling"
  bottom: "inception_4d/output"
  top: "loss2/ave_pool"
  pooling_param {
    pool: AVE
    kernel_size: 5
    stride: 3
  }
}
layer {
  name: "loss2/conv"
  type: "Convolution"
  bottom: "loss2/ave_pool"
  top: "loss2/conv"
  param {
    lr_mult: 1
    decay_mult: 1
  }
  param {
    lr_mult: 2
    decay_mult: 0
  }
  convolution_param {
    num_output: 128
    kernel_size: 1
    weight_filler {
      type: "xavier"
      std: 0.08
    }
    bias_filler {
      type: "constant"
      value: 0.2
    }
  }
}
layer {
  name: "loss2/relu_conv"
  type: "ReLU"
  bottom: "loss2/conv"
  top: "loss2/conv"
}
layer {
  name: "loss2/fc"
  type: "InnerProduct"
  bottom: "loss2/conv"
  top: "loss2/fc"
  param {
    lr_mult: 1
    decay_mult: 1
  }
  param {
    lr_mult: 2
    decay_mult: 0
  }
  inner_product_param {
    num_output: 1024
    weight_filler {
      type: "xavier"
      std: 0.02
    }
    bias_filler {
      type: "constant"
      value: 0.2
    }
  }
}
layer {
  name: "loss2/relu_fc"
  type: "ReLU"
  bottom: "loss2/fc"
  top: "loss2/fc"
}
layer {
  name: "loss2/drop_fc"
  type: "Dropout"
  bottom: "loss2/fc"
  top: "loss2/fc"
  dropout_param {
    dropout_ratio: 0.7
  }
}
layer {
  name: "loss2/classifier_plantvillage"
  type: "InnerProduct"
  bottom: "loss2/fc"
  top: "loss2/classifier_plantvillage"
  param {
    lr_mult: 1
    decay_mult: 1
  }
  param {
    lr_mult: 2
    decay_mult: 0
  }
  inner_product_param {
    num_output: 38
    weight_filler {
      type: "xavier"
      std: 0.0009765625
    }
    bias_filler {
      type: "constant"
      value: 0
    }
  }
}
layer {
  name: "inception_4e/1x1"
  type: "Convolution"
  bottom: "inception_4d/output"
  top: "inception_4e/1x1"
  param {
    lr_mult: 1
    decay_mult: 1
  }
  param {
    lr_mult: 2
    decay_mult: 0
  }
  convolution_param {
    num_output: 256
    kernel_size: 1
    weight_filler {
      type: "xavier"
      std: 0.03
    }
    bias_filler {
      type: "constant"
      value: 0.2
    }
  }
}
layer {
  name: "inception_4e/relu_1x1"
  type: "ReLU"
  bottom: "inception_4e/1x1"
  top: "inception_4e/1x1"
}
layer {
  name: "inception_4e/3x3_reduce"
  type: "Convolution"
  bottom: "inception_4d/output"
  top: "inception_4e/3x3_reduce"
  param {
    lr_mult: 1
    decay_mult: 1
  }
  param {
    lr_mult: 2
    decay_mult: 0
  }
  convolution_param {
    num_output: 160
    kernel_size: 1
    weight_filler {
      type: "xavier"
      std: 0.09
    }
    bias_filler {
      type: "constant"
      value: 0.2
    }
  }
}
layer {
  name: "inception_4e/relu_3x3_reduce"
  type: "ReLU"
  bottom: "inception_4e/3x3_reduce"
  top: "inception_4e/3x3_reduce"
}
layer {
  name: "inception_4e/3x3"
  type: "Convolution"
  bottom: "inception_4e/3x3_reduce"
  top: "inception_4e/3x3"
  param {
    lr_mult: 1
    decay_mult: 1
  }
  param {
    lr_mult: 2
    decay_mult: 0
  }
  convolution_param {
    num_output: 320
    pad: 1
    kernel_size: 3
    weight_filler {
      type: "xavier"
      std: 0.03
    }
    bias_filler {
      type: "constant"
      value: 0.2
    }
  }
}
layer {
  name: "inception_4e/relu_3x3"
  type: "ReLU"
  bottom: "inception_4e/3x3"
  top: "inception_4e/3x3"
}
layer {
  name: "inception_4e/5x5_reduce"
  type: "Convolution"
  bottom: "inception_4d/output"
  top: "inception_4e/5x5_reduce"
  param {
    lr_mult: 1
    decay_mult: 1
  }
  param {
    lr_mult: 2
    decay_mult: 0
  }
  convolution_param {
    num_output: 32
    kernel_size: 1
    weight_filler {
      type: "xavier"
      std: 0.2
    }
    bias_filler {
      type: "constant"
      value: 0.2
    }
  }
}
layer {
  name: "inception_4e/relu_5x5_reduce"
  type: "ReLU"
  bottom: "inception_4e/5x5_reduce"
  top: "inception_4e/5x5_reduce"
}
layer {
  name: "inception_4e/5x5"
  type: "Convolution"
  bottom: "inception_4e/5x5_reduce"
  top: "inception_4e/
I0403 15:09:42.830822 31228 layer_factory.hpp:77] Creating layer data
I0403 15:09:42.831414 31228 net.cpp:91] Creating Layer data
I0403 15:09:42.831446 31228 net.cpp:399] data -> data
I0403 15:09:42.831511 31228 net.cpp:399] data -> label
I0403 15:09:42.831549 31228 data_transformer.cpp:25] Loading mean file from: /home/mohanty/data/final_dataset/lmdb/grayscale-80-20/mean.binaryproto
I0403 15:09:42.834414 31232 db_lmdb.cpp:38] Opened lmdb /home/mohanty/data/final_dataset/lmdb/grayscale-80-20/test_db
I0403 15:09:42.844846 31228 data_layer.cpp:41] output data size: 24,3,224,224
I0403 15:09:42.871270 31228 net.cpp:141] Setting up data
I0403 15:09:42.871345 31228 net.cpp:148] Top shape: 24 3 224 224 (3612672)
I0403 15:09:42.871369 31228 net.cpp:148] Top shape: 24 (24)
I0403 15:09:42.871384 31228 net.cpp:156] Memory required for data: 14450784
I0403 15:09:42.871413 31228 layer_factory.hpp:77] Creating layer label_data_1_split
I0403 15:09:42.871443 31228 net.cpp:91] Creating Layer label_data_1_split
I0403 15:09:42.871461 31228 net.cpp:425] label_data_1_split <- label
I0403 15:09:42.871495 31228 net.cpp:399] label_data_1_split -> label_data_1_split_0
I0403 15:09:42.871531 31228 net.cpp:399] label_data_1_split -> label_data_1_split_1
I0403 15:09:42.871552 31228 net.cpp:399] label_data_1_split -> label_data_1_split_2
I0403 15:09:42.871574 31228 net.cpp:399] label_data_1_split -> label_data_1_split_3
I0403 15:09:42.871592 31228 net.cpp:399] label_data_1_split -> label_data_1_split_4
I0403 15:09:42.871613 31228 net.cpp:399] label_data_1_split -> label_data_1_split_5
I0403 15:09:42.871633 31228 net.cpp:399] label_data_1_split -> label_data_1_split_6
I0403 15:09:42.871652 31228 net.cpp:399] label_data_1_split -> label_data_1_split_7
I0403 15:09:42.871671 31228 net.cpp:399] label_data_1_split -> label_data_1_split_8
I0403 15:09:42.871691 31228 net.cpp:399] label_data_1_split -> label_data_1_split_9
I0403 15:09:42.871805 31228 net.cpp:141] Setting up label_data_1_split
I0403 15:09:42.871829 31228 net.cpp:148] Top shape: 24 (24)
I0403 15:09:42.871845 31228 net.cpp:148] Top shape: 24 (24)
I0403 15:09:42.871861 31228 net.cpp:148] Top shape: 24 (24)
I0403 15:09:42.871876 31228 net.cpp:148] Top shape: 24 (24)
I0403 15:09:42.871891 31228 net.cpp:148] Top shape: 24 (24)
I0403 15:09:42.871906 31228 net.cpp:148] Top shape: 24 (24)
I0403 15:09:42.871922 31228 net.cpp:148] Top shape: 24 (24)
I0403 15:09:42.871937 31228 net.cpp:148] Top shape: 24 (24)
I0403 15:09:42.871953 31228 net.cpp:148] Top shape: 24 (24)
I0403 15:09:42.871968 31228 net.cpp:148] Top shape: 24 (24)
I0403 15:09:42.872011 31228 net.cpp:156] Memory required for data: 14451744
I0403 15:09:42.872027 31228 layer_factory.hpp:77] Creating layer conv1/7x7_s2
I0403 15:09:42.872061 31228 net.cpp:91] Creating Layer conv1/7x7_s2
I0403 15:09:42.872079 31228 net.cpp:425] conv1/7x7_s2 <- data
I0403 15:09:42.872098 31228 net.cpp:399] conv1/7x7_s2 -> conv1/7x7_s2
I0403 15:09:43.011337 31228 net.cpp:141] Setting up conv1/7x7_s2
I0403 15:09:43.011430 31228 net.cpp:148] Top shape: 24 64 112 112 (19267584)
I0403 15:09:43.011447 31228 net.cpp:156] Memory required for data: 91522080
I0403 15:09:43.011483 31228 layer_factory.hpp:77] Creating layer conv1/relu_7x7
I0403 15:09:43.011517 31228 net.cpp:91] Creating Layer conv1/relu_7x7
I0403 15:09:43.011536 31228 net.cpp:425] conv1/relu_7x7 <- conv1/7x7_s2
I0403 15:09:43.011556 31228 net.cpp:386] conv1/relu_7x7 -> conv1/7x7_s2 (in-place)
I0403 15:09:43.011818 31228 net.cpp:141] Setting up conv1/relu_7x7
I0403 15:09:43.011845 31228 net.cpp:148] Top shape: 24 64 112 112 (19267584)
I0403 15:09:43.011862 31228 net.cpp:156] Memory required for data: 168592416
I0403 15:09:43.011878 31228 layer_factory.hpp:77] Creating layer pool1/3x3_s2
I0403 15:09:43.011904 31228 net.cpp:91] Creating Layer pool1/3x3_s2
I0403 15:09:43.011921 31228 net.cpp:425] pool1/3x3_s2 <- conv1/7x7_s2
I0403 15:09:43.011941 31228 net.cpp:399] pool1/3x3_s2 -> pool1/3x3_s2
I0403 15:09:43.012018 31228 net.cpp:141] Setting up pool1/3x3_s2
I0403 15:09:43.012042 31228 net.cpp:148] Top shape: 24 64 56 56 (4816896)
I0403 15:09:43.012058 31228 net.cpp:156] Memory required for data: 187860000
I0403 15:09:43.012074 31228 layer_factory.hpp:77] Creating layer pool1/norm1
I0403 15:09:43.012099 31228 net.cpp:91] Creating Layer pool1/norm1
I0403 15:09:43.012117 31228 net.cpp:425] pool1/norm1 <- pool1/3x3_s2
I0403 15:09:43.012136 31228 net.cpp:399] pool1/norm1 -> pool1/norm1
I0403 15:09:43.012424 31228 net.cpp:141] Setting up pool1/norm1
I0403 15:09:43.012451 31228 net.cpp:148] Top shape: 24 64 56 56 (4816896)
I0403 15:09:43.012467 31228 net.cpp:156] Memory required for data: 207127584
I0403 15:09:43.012485 31228 layer_factory.hpp:77] Creating layer conv2/3x3_reduce
I0403 15:09:43.012514 31228 net.cpp:91] Creating Layer conv2/3x3_reduce
I0403 15:09:43.012532 31228 net.cpp:425] conv2/3x3_reduce <- pool1/norm1
I0403 15:09:43.012554 31228 net.cpp:399] conv2/3x3_reduce -> conv2/3x3_reduce
I0403 15:09:43.013991 31228 net.cpp:141] Setting up conv2/3x3_reduce
I0403 15:09:43.014024 31228 net.cpp:148] Top shape: 24 64 56 56 (4816896)
I0403 15:09:43.014040 31228 net.cpp:156] Memory required for data: 226395168
I0403 15:09:43.014062 31228 layer_factory.hpp:77] Creating layer conv2/relu_3x3_reduce
I0403 15:09:43.014082 31228 net.cpp:91] Creating Layer conv2/relu_3x3_reduce
I0403 15:09:43.014098 31228 net.cpp:425] conv2/relu_3x3_reduce <- conv2/3x3_reduce
I0403 15:09:43.014119 31228 net.cpp:386] conv2/relu_3x3_reduce -> conv2/3x3_reduce (in-place)
I0403 15:09:43.014392 31228 net.cpp:141] Setting up conv2/relu_3x3_reduce
I0403 15:09:43.014421 31228 net.cpp:148] Top shape: 24 64 56 56 (4816896)
I0403 15:09:43.014437 31228 net.cpp:156] Memory required for data: 245662752
I0403 15:09:43.014453 31228 layer_factory.hpp:77] Creating layer conv2/3x3
I0403 15:09:43.014478 31228 net.cpp:91] Creating Layer conv2/3x3
I0403 15:09:43.014497 31228 net.cpp:425] conv2/3x3 <- conv2/3x3_reduce
I0403 15:09:43.014530 31228 net.cpp:399] conv2/3x3 -> conv2/3x3
I0403 15:09:43.016890 31228 net.cpp:141] Setting up conv2/3x3
I0403 15:09:43.016922 31228 net.cpp:148] Top shape: 24 192 56 56 (14450688)
I0403 15:09:43.016938 31228 net.cpp:156] Memory required for data: 303465504
I0403 15:09:43.016960 31228 layer_factory.hpp:77] Creating layer conv2/relu_3x3
I0403 15:09:43.016978 31228 net.cpp:91] Creating Layer conv2/relu_3x3
I0403 15:09:43.016995 31228 net.cpp:425] conv2/relu_3x3 <- conv2/3x3
I0403 15:09:43.017014 31228 net.cpp:386] conv2/relu_3x3 -> conv2/3x3 (in-place)
I0403 15:09:43.017189 31228 net.cpp:141] Setting up conv2/relu_3x3
I0403 15:09:43.017213 31228 net.cpp:148] Top shape: 24 192 56 56 (14450688)
I0403 15:09:43.017266 31228 net.cpp:156] Memory required for data: 361268256
I0403 15:09:43.017282 31228 layer_factory.hpp:77] Creating layer conv2/norm2
I0403 15:09:43.017302 31228 net.cpp:91] Creating Layer conv2/norm2
I0403 15:09:43.017318 31228 net.cpp:425] conv2/norm2 <- conv2/3x3
I0403 15:09:43.017335 31228 net.cpp:399] conv2/norm2 -> conv2/norm2
I0403 15:09:43.017645 31228 net.cpp:141] Setting up conv2/norm2
I0403 15:09:43.017673 31228 net.cpp:148] Top shape: 24 192 56 56 (14450688)
I0403 15:09:43.017688 31228 net.cpp:156] Memory required for data: 419071008
I0403 15:09:43.017701 31228 layer_factory.hpp:77] Creating layer pool2/3x3_s2
I0403 15:09:43.017721 31228 net.cpp:91] Creating Layer pool2/3x3_s2
I0403 15:09:43.017737 31228 net.cpp:425] pool2/3x3_s2 <- conv2/norm2
I0403 15:09:43.017760 31228 net.cpp:399] pool2/3x3_s2 -> pool2/3x3_s2
I0403 15:09:43.017813 31228 net.cpp:141] Setting up pool2/3x3_s2
I0403 15:09:43.017837 31228 net.cpp:148] Top shape: 24 192 28 28 (3612672)
I0403 15:09:43.017850 31228 net.cpp:156] Memory required for data: 433521696
I0403 15:09:43.017864 31228 layer_factory.hpp:77] Creating layer pool2/3x3_s2_pool2/3x3_s2_0_split
I0403 15:09:43.017884 31228 net.cpp:91] Creating Layer pool2/3x3_s2_pool2/3x3_s2_0_split
I0403 15:09:43.017900 31228 net.cpp:425] pool2/3x3_s2_pool2/3x3_s2_0_split <- pool2/3x3_s2
I0403 15:09:43.017917 31228 net.cpp:399] pool2/3x3_s2_pool2/3x3_s2_0_split -> pool2/3x3_s2_pool2/3x3_s2_0_split_0
I0403 15:09:43.017936 31228 net.cpp:399] pool2/3x3_s2_pool2/3x3_s2_0_split -> pool2/3x3_s2_pool2/3x3_s2_0_split_1
I0403 15:09:43.017956 31228 net.cpp:399] pool2/3x3_s2_pool2/3x3_s2_0_split -> pool2/3x3_s2_pool2/3x3_s2_0_split_2
I0403 15:09:43.017974 31228 net.cpp:399] pool2/3x3_s2_pool2/3x3_s2_0_split -> pool2/3x3_s2_pool2/3x3_s2_0_split_3
I0403 15:09:43.018045 31228 net.cpp:141] Setting up pool2/3x3_s2_pool2/3x3_s2_0_split
I0403 15:09:43.018067 31228 net.cpp:148] Top shape: 24 192 28 28 (3612672)
I0403 15:09:43.018084 31228 net.cpp:148] Top shape: 24 192 28 28 (3612672)
I0403 15:09:43.018100 31228 net.cpp:148] Top shape: 24 192 28 28 (3612672)
I0403 15:09:43.018115 31228 net.cpp:148] Top shape: 24 192 28 28 (3612672)
I0403 15:09:43.018127 31228 net.cpp:156] Memory required for data: 491324448
I0403 15:09:43.018142 31228 layer_factory.hpp:77] Creating layer inception_3a/1x1
I0403 15:09:43.018164 31228 net.cpp:91] Creating Layer inception_3a/1x1
I0403 15:09:43.018182 31228 net.cpp:425] inception_3a/1x1 <- pool2/3x3_s2_pool2/3x3_s2_0_split_0
I0403 15:09:43.018203 31228 net.cpp:399] inception_3a/1x1 -> inception_3a/1x1
I0403 15:09:43.019742 31228 net.cpp:141] Setting up inception_3a/1x1
I0403 15:09:43.019773 31228 net.cpp:148] Top shape: 24 64 28 28 (1204224)
I0403 15:09:43.019788 31228 net.cpp:156] Memory required for data: 496141344
I0403 15:09:43.019806 31228 layer_factory.hpp:77] Creating layer inception_3a/relu_1x1
I0403 15:09:43.019824 31228 net.cpp:91] Creating Layer inception_3a/relu_1x1
I0403 15:09:43.019840 31228 net.cpp:425] inception_3a/relu_1x1 <- inception_3a/1x1
I0403 15:09:43.019860 31228 net.cpp:386] inception_3a/relu_1x1 -> inception_3a/1x1 (in-place)
I0403 15:09:43.020033 31228 net.cpp:141] Setting up inception_3a/relu_1x1
I0403 15:09:43.020058 31228 net.cpp:148] Top shape: 24 64 28 28 (1204224)
I0403 15:09:43.020072 31228 net.cpp:156] Memory required for data: 500958240
I0403 15:09:43.020087 31228 layer_factory.hpp:77] Creating layer inception_3a/3x3_reduce
I0403 15:09:43.020120 31228 net.cpp:91] Creating Layer inception_3a/3x3_reduce
I0403 15:09:43.020140 31228 net.cpp:425] inception_3a/3x3_reduce <- pool2/3x3_s2_pool2/3x3_s2_0_split_1
I0403 15:09:43.020165 31228 net.cpp:399] inception_3a/3x3_reduce -> inception_3a/3x3_reduce
I0403 15:09:43.021858 31228 net.cpp:141] Setting up inception_3a/3x3_reduce
I0403 15:09:43.021891 31228 net.cpp:148] Top shape: 24 96 28 28 (1806336)
I0403 15:09:43.021908 31228 net.cpp:156] Memory required for data: 508183584
I0403 15:09:43.021931 31228 layer_factory.hpp:77] Creating layer inception_3a/relu_3x3_reduce
I0403 15:09:43.021970 31228 net.cpp:91] Creating Layer inception_3a/relu_3x3_reduce
I0403 15:09:43.021989 31228 net.cpp:425] inception_3a/relu_3x3_reduce <- inception_3a/3x3_reduce
I0403 15:09:43.022006 31228 net.cpp:386] inception_3a/relu_3x3_reduce -> inception_3a/3x3_reduce (in-place)
I0403 15:09:43.022187 31228 net.cpp:141] Setting up inception_3a/relu_3x3_reduce
I0403 15:09:43.022214 31228 net.cpp:148] Top shape: 24 96 28 28 (1806336)
I0403 15:09:43.022230 31228 net.cpp:156] Memory required for data: 515408928
I0403 15:09:43.022246 31228 layer_factory.hpp:77] Creating layer inception_3a/3x3
I0403 15:09:43.022271 31228 net.cpp:91] Creating Layer inception_3a/3x3
I0403 15:09:43.022290 31228 net.cpp:425] inception_3a/3x3 <- inception_3a/3x3_reduce
I0403 15:09:43.022310 31228 net.cpp:399] inception_3a/3x3 -> inception_3a/3x3
I0403 15:09:43.023941 31228 net.cpp:141] Setting up inception_3a/3x3
I0403 15:09:43.023968 31228 net.cpp:148] Top shape: 24 128 28 28 (2408448)
I0403 15:09:43.023984 31228 net.cpp:156] Memory required for data: 525042720
I0403 15:09:43.024003 31228 layer_factory.hpp:77] Creating layer inception_3a/relu_3x3
I0403 15:09:43.024020 31228 net.cpp:91] Creating Layer inception_3a/relu_3x3
I0403 15:09:43.024036 31228 net.cpp:425] inception_3a/relu_3x3 <- inception_3a/3x3
I0403 15:09:43.024055 31228 net.cpp:386] inception_3a/relu_3x3 -> inception_3a/3x3 (in-place)
I0403 15:09:43.024327 31228 net.cpp:141] Setting up inception_3a/relu_3x3
I0403 15:09:43.024353 31228 net.cpp:148] Top shape: 24 128 28 28 (2408448)
I0403 15:09:43.024368 31228 net.cpp:156] Memory required for data: 534676512
I0403 15:09:43.024384 31228 layer_factory.hpp:77] Creating layer inception_3a/5x5_reduce
I0403 15:09:43.024405 31228 net.cpp:91] Creating Layer inception_3a/5x5_reduce
I0403 15:09:43.024422 31228 net.cpp:425] inception_3a/5x5_reduce <- pool2/3x3_s2_pool2/3x3_s2_0_split_2
I0403 15:09:43.024443 31228 net.cpp:399] inception_3a/5x5_reduce -> inception_3a/5x5_reduce
I0403 15:09:43.025403 31228 net.cpp:141] Setting up inception_3a/5x5_reduce
I0403 15:09:43.025429 31228 net.cpp:148] Top shape: 24 16 28 28 (301056)
I0403 15:09:43.025445 31228 net.cpp:156] Memory required for data: 535880736
I0403 15:09:43.025463 31228 layer_factory.hpp:77] Creating layer inception_3a/relu_5x5_reduce
I0403 15:09:43.025480 31228 net.cpp:91] Creating Layer inception_3a/relu_5x5_reduce
I0403 15:09:43.025496 31228 net.cpp:425] inception_3a/relu_5x5_reduce <- inception_3a/5x5_reduce
I0403 15:09:43.025521 31228 net.cpp:386] inception_3a/relu_5x5_reduce -> inception_3a/5x5_reduce (in-place)
I0403 15:09:43.025815 31228 net.cpp:141] Setting up inception_3a/relu_5x5_reduce
I0403 15:09:43.025841 31228 net.cpp:148] Top shape: 24 16 28 28 (301056)
I0403 15:09:43.025856 31228 net.cpp:156] Memory required for data: 537084960
I0403 15:09:43.025871 31228 layer_factory.hpp:77] Creating layer inception_3a/5x5
I0403 15:09:43.025892 31228 net.cpp:91] Creating Layer inception_3a/5x5
I0403 15:09:43.025909 31228 net.cpp:425] inception_3a/5x5 <- inception_3a/5x5_reduce
I0403 15:09:43.025931 31228 net.cpp:399] inception_3a/5x5 -> inception_3a/5x5
I0403 15:09:43.026965 31228 net.cpp:141] Setting up inception_3a/5x5
I0403 15:09:43.026993 31228 net.cpp:148] Top shape: 24 32 28 28 (602112)
I0403 15:09:43.027007 31228 net.cpp:156] Memory required for data: 539493408
I0403 15:09:43.027025 31228 layer_factory.hpp:77] Creating layer inception_3a/relu_5x5
I0403 15:09:43.027043 31228 net.cpp:91] Creating Layer inception_3a/relu_5x5
I0403 15:09:43.027060 31228 net.cpp:425] inception_3a/relu_5x5 <- inception_3a/5x5
I0403 15:09:43.027079 31228 net.cpp:386] inception_3a/relu_5x5 -> inception_3a/5x5 (in-place)
I0403 15:09:43.027250 31228 net.cpp:141] Setting up inception_3a/relu_5x5
I0403 15:09:43.027276 31228 net.cpp:148] Top shape: 24 32 28 28 (602112)
I0403 15:09:43.027290 31228 net.cpp:156] Memory required for data: 541901856
I0403 15:09:43.027304 31228 layer_factory.hpp:77] Creating layer inception_3a/pool
I0403 15:09:43.027324 31228 net.cpp:91] Creating Layer inception_3a/pool
I0403 15:09:43.027355 31228 net.cpp:425] inception_3a/pool <- pool2/3x3_s2_pool2/3x3_s2_0_split_3
I0403 15:09:43.027374 31228 net.cpp:399] inception_3a/pool -> inception_3a/pool
I0403 15:09:43.027433 31228 net.cpp:141] Setting up inception_3a/pool
I0403 15:09:43.027456 31228 net.cpp:148] Top shape: 24 192 28 28 (3612672)
I0403 15:09:43.027470 31228 net.cpp:156] Memory required for data: 556352544
I0403 15:09:43.027485 31228 layer_factory.hpp:77] Creating layer inception_3a/pool_proj
I0403 15:09:43.027511 31228 net.cpp:91] Creating Layer inception_3a/pool_proj
I0403 15:09:43.027529 31228 net.cpp:425] inception_3a/pool_proj <- inception_3a/pool
I0403 15:09:43.027560 31228 net.cpp:399] inception_3a/pool_proj -> inception_3a/pool_proj
I0403 15:09:43.028506 31228 net.cpp:141] Setting up inception_3a/pool_proj
I0403 15:09:43.028537 31228 net.cpp:148] Top shape: 24 32 28 28 (602112)
I0403 15:09:43.028553 31228 net.cpp:156] Memory required for data: 558760992
I0403 15:09:43.028573 31228 layer_factory.hpp:77] Creating layer inception_3a/relu_pool_proj
I0403 15:09:43.028592 31228 net.cpp:91] Creating Layer inception_3a/relu_pool_proj
I0403 15:09:43.028609 31228 net.cpp:425] inception_3a/relu_pool_proj <- inception_3a/pool_proj
I0403 15:09:43.028628 31228 net.cpp:386] inception_3a/relu_pool_proj -> inception_3a/pool_proj (in-place)
I0403 15:09:43.028900 31228 net.cpp:141] Setting up inception_3a/relu_pool_proj
I0403 15:09:43.028925 31228 net.cpp:148] Top shape: 24 32 28 28 (602112)
I0403 15:09:43.028941 31228 net.cpp:156] Memory required for data: 561169440
I0403 15:09:43.028955 31228 layer_factory.hpp:77] Creating layer inception_3a/output
I0403 15:09:43.028972 31228 net.cpp:91] Creating Layer inception_3a/output
I0403 15:09:43.028988 31228 net.cpp:425] inception_3a/output <- inception_3a/1x1
I0403 15:09:43.029006 31228 net.cpp:425] inception_3a/output <- inception_3a/3x3
I0403 15:09:43.029021 31228 net.cpp:425] inception_3a/output <- inception_3a/5x5
I0403 15:09:43.029037 31228 net.cpp:425] inception_3a/output <- inception_3a/pool_proj
I0403 15:09:43.029057 31228 net.cpp:399] inception_3a/output -> inception_3a/output
I0403 15:09:43.029103 31228 net.cpp:141] Setting up inception_3a/output
I0403 15:09:43.029129 31228 net.cpp:148] Top shape: 24 256 28 28 (4816896)
I0403 15:09:43.029145 31228 net.cpp:156] Memory required for data: 580437024
I0403 15:09:43.029160 31228 layer_factory.hpp:77] Creating layer inception_3a/output_inception_3a/output_0_split
I0403 15:09:43.029176 31228 net.cpp:91] Creating Layer inception_3a/output_inception_3a/output_0_split
I0403 15:09:43.029192 31228 net.cpp:425] inception_3a/output_inception_3a/output_0_split <- inception_3a/output
I0403 15:09:43.029209 31228 net.cpp:399] inception_3a/output_inception_3a/output_0_split -> inception_3a/output_inception_3a/output_0_split_0
I0403 15:09:43.029228 31228 net.cpp:399] inception_3a/output_inception_3a/output_0_split -> inception_3a/output_inception_3a/output_0_split_1
I0403 15:09:43.029253 31228 net.cpp:399] inception_3a/output_inception_3a/output_0_split -> inception_3a/output_inception_3a/output_0_split_2
I0403 15:09:43.029273 31228 net.cpp:399] inception_3a/output_inception_3a/output_0_split -> inception_3a/output_inception_3a/output_0_split_3
I0403 15:09:43.029346 31228 net.cpp:141] Setting up inception_3a/output_inception_3a/output_0_split
I0403 15:09:43.029371 31228 net.cpp:148] Top shape: 24 256 28 28 (4816896)
I0403 15:09:43.029391 31228 net.cpp:148] Top shape: 24 256 28 28 (4816896)
I0403 15:09:43.029405 31228 net.cpp:148] Top shape: 24 256 28 28 (4816896)
I0403 15:09:43.029422 31228 net.cpp:148] Top shape: 24 256 28 28 (4816896)
I0403 15:09:43.029435 31228 net.cpp:156] Memory required for data: 657507360
I0403 15:09:43.029449 31228 layer_factory.hpp:77] Creating layer inception_3b/1x1
I0403 15:09:43.029471 31228 net.cpp:91] Creating Layer inception_3b/1x1
I0403 15:09:43.029489 31228 net.cpp:425] inception_3b/1x1 <- inception_3a/output_inception_3a/output_0_split_0
I0403 15:09:43.029515 31228 net.cpp:399] inception_3b/1x1 -> inception_3b/1x1
I0403 15:09:43.030635 31228 net.cpp:141] Setting up inception_3b/1x1
I0403 15:09:43.030676 31228 net.cpp:148] Top shape: 24 128 28 28 (2408448)
I0403 15:09:43.030694 31228 net.cpp:156] Memory required for data: 667141152
I0403 15:09:43.030712 31228 layer_factory.hpp:77] Creating layer inception_3b/relu_1x1
I0403 15:09:43.030731 31228 net.cpp:91] Creating Layer inception_3b/relu_1x1
I0403 15:09:43.030747 31228 net.cpp:425] inception_3b/relu_1x1 <- inception_3b/1x1
I0403 15:09:43.030767 31228 net.cpp:386] inception_3b/relu_1x1 -> inception_3b/1x1 (in-place)
I0403 15:09:43.030941 31228 net.cpp:141] Setting up inception_3b/relu_1x1
I0403 15:09:43.030966 31228 net.cpp:148] Top shape: 24 128 28 28 (2408448)
I0403 15:09:43.030982 31228 net.cpp:156] Memory required for data: 676774944
I0403 15:09:43.030997 31228 layer_factory.hpp:77] Creating layer inception_3b/3x3_reduce
I0403 15:09:43.031018 31228 net.cpp:91] Creating Layer inception_3b/3x3_reduce
I0403 15:09:43.031035 31228 net.cpp:425] inception_3b/3x3_reduce <- inception_3a/output_inception_3a/output_0_split_1
I0403 15:09:43.031056 31228 net.cpp:399] inception_3b/3x3_reduce -> inception_3b/3x3_reduce
I0403 15:09:43.032176 31228 net.cpp:141] Setting up inception_3b/3x3_reduce
I0403 15:09:43.032205 31228 net.cpp:148] Top shape: 24 128 28 28 (2408448)
I0403 15:09:43.032222 31228 net.cpp:156] Memory required for data: 686408736
I0403 15:09:43.032241 31228 layer_factory.hpp:77] Creating layer inception_3b/relu_3x3_reduce
I0403 15:09:43.032259 31228 net.cpp:91] Creating Layer inception_3b/relu_3x3_reduce
I0403 15:09:43.032274 31228 net.cpp:425] inception_3b/relu_3x3_reduce <- inception_3b/3x3_reduce
I0403 15:09:43.032291 31228 net.cpp:386] inception_3b/relu_3x3_reduce -> inception_3b/3x3_reduce (in-place)
I0403 15:09:43.032460 31228 net.cpp:141] Setting up inception_3b/relu_3x3_reduce
I0403 15:09:43.032485 31228 net.cpp:148] Top shape: 24 128 28 28 (2408448)
I0403 15:09:43.032500 31228 net.cpp:156] Memory required for data: 696042528
I0403 15:09:43.032518 31228 layer_factory.hpp:77] Creating layer inception_3b/3x3
I0403 15:09:43.032543 31228 net.cpp:91] Creating Layer inception_3b/3x3
I0403 15:09:43.032562 31228 net.cpp:425] inception_3b/3x3 <- inception_3b/3x3_reduce
I0403 15:09:43.032584 31228 net.cpp:399] inception_3b/3x3 -> inception_3b/3x3
I0403 15:09:43.035509 31228 net.cpp:141] Setting up inception_3b/3x3
I0403 15:09:43.035537 31228 net.cpp:148] Top shape: 24 192 28 28 (3612672)
I0403 15:09:43.035553 31228 net.cpp:156] Memory required for data: 710493216
I0403 15:09:43.035573 31228 layer_factory.hpp:77] Creating layer inception_3b/relu_3x3
I0403 15:09:43.035591 31228 net.cpp:91] Creating Layer inception_3b/relu_3x3
I0403 15:09:43.035607 31228 net.cpp:425] inception_3b/relu_3x3 <- inception_3b/3x3
I0403 15:09:43.035627 31228 net.cpp:386] inception_3b/relu_3x3 -> inception_3b/3x3 (in-place)
I0403 15:09:43.035902 31228 net.cpp:141] Setting up inception_3b/relu_3x3
I0403 15:09:43.035928 31228 net.cpp:148] Top shape: 24 192 28 28 (3612672)
I0403 15:09:43.035943 31228 net.cpp:156] Memory required for data: 724943904
I0403 15:09:43.035959 31228 layer_factory.hpp:77] Creating layer inception_3b/5x5_reduce
I0403 15:09:43.035980 31228 net.cpp:91] Creating Layer inception_3b/5x5_reduce
I0403 15:09:43.035997 31228 net.cpp:425] inception_3b/5x5_reduce <- inception_3a/output_inception_3a/output_0_split_2
I0403 15:09:43.036020 31228 net.cpp:399] inception_3b/5x5_reduce -> inception_3b/5x5_reduce
I0403 15:09:43.037003 31228 net.cpp:141] Setting up inception_3b/5x5_reduce
I0403 15:09:43.037030 31228 net.cpp:148] Top shape: 24 32 28 28 (602112)
I0403 15:09:43.037045 31228 net.cpp:156] Memory required for data: 727352352
I0403 15:09:43.037063 31228 layer_factory.hpp:77] Creating layer inception_3b/relu_5x5_reduce
I0403 15:09:43.037081 31228 net.cpp:91] Creating Layer inception_3b/relu_5x5_reduce
I0403 15:09:43.037097 31228 net.cpp:425] inception_3b/relu_5x5_reduce <- inception_3b/5x5_reduce
I0403 15:09:43.037117 31228 net.cpp:386] inception_3b/relu_5x5_reduce -> inception_3b/5x5_reduce (in-place)
I0403 15:09:43.037304 31228 net.cpp:141] Setting up inception_3b/relu_5x5_reduce
I0403 15:09:43.037329 31228 net.cpp:148] Top shape: 24 32 28 28 (602112)
I0403 15:09:43.037344 31228 net.cpp:156] Memory required for data: 729760800
I0403 15:09:43.037358 31228 layer_factory.hpp:77] Creating layer inception_3b/5x5
I0403 15:09:43.037381 31228 net.cpp:91] Creating Layer inception_3b/5x5
I0403 15:09:43.037398 31228 net.cpp:425] inception_3b/5x5 <- inception_3b/5x5_reduce
I0403 15:09:43.037420 31228 net.cpp:399] inception_3b/5x5 -> inception_3b/5x5
I0403 15:09:43.039373 31228 net.cpp:141] Setting up inception_3b/5x5
I0403 15:09:43.039405 31228 net.cpp:148] Top shape: 24 96 28 28 (1806336)
I0403 15:09:43.039423 31228 net.cpp:156] Memory required for data: 736986144
I0403 15:09:43.039443 31228 layer_factory.hpp:77] Creating layer inception_3b/relu_5x5
I0403 15:09:43.039461 31228 net.cpp:91] Creating Layer inception_3b/relu_5x5
I0403 15:09:43.039479 31228 net.cpp:425] inception_3b/relu_5x5 <- inception_3b/5x5
I0403 15:09:43.039496 31228 net.cpp:386] inception_3b/relu_5x5 -> inception_3b/5x5 (in-place)
I0403 15:09:43.039703 31228 net.cpp:141] Setting up inception_3b/relu_5x5
I0403 15:09:43.039728 31228 net.cpp:148] Top shape: 24 96 28 28 (1806336)
I0403 15:09:43.039743 31228 net.cpp:156] Memory required for data: 744211488
I0403 15:09:43.039758 31228 layer_factory.hpp:77] Creating layer inception_3b/pool
I0403 15:09:43.039777 31228 net.cpp:91] Creating Layer inception_3b/pool
I0403 15:09:43.039793 31228 net.cpp:425] inception_3b/pool <- inception_3a/output_inception_3a/output_0_split_3
I0403 15:09:43.039811 31228 net.cpp:399] inception_3b/pool -> inception_3b/pool
I0403 15:09:43.039865 31228 net.cpp:141] Setting up inception_3b/pool
I0403 15:09:43.039891 31228 net.cpp:148] Top shape: 24 256 28 28 (4816896)
I0403 15:09:43.039906 31228 net.cpp:156] Memory required for data: 763479072
I0403 15:09:43.039921 31228 layer_factory.hpp:77] Creating layer inception_3b/pool_proj
I0403 15:09:43.039943 31228 net.cpp:91] Creating Layer inception_3b/pool_proj
I0403 15:09:43.039960 31228 net.cpp:425] inception_3b/pool_proj <- inception_3b/pool
I0403 15:09:43.039979 31228 net.cpp:399] inception_3b/pool_proj -> inception_3b/pool_proj
I0403 15:09:43.041018 31228 net.cpp:141] Setting up inception_3b/pool_proj
I0403 15:09:43.041044 31228 net.cpp:148] Top shape: 24 64 28 28 (1204224)
I0403 15:09:43.041059 31228 net.cpp:156] Memory required for data: 768295968
I0403 15:09:43.041079 31228 layer_factory.hpp:77] Creating layer inception_3b/relu_pool_proj
I0403 15:09:43.041100 31228 net.cpp:91] Creating Layer inception_3b/relu_pool_proj
I0403 15:09:43.041116 31228 net.cpp:425] inception_3b/relu_pool_proj <- inception_3b/pool_proj
I0403 15:09:43.041133 31228 net.cpp:386] inception_3b/relu_pool_proj -> inception_3b/pool_proj (in-place)
I0403 15:09:43.041528 31228 net.cpp:141] Setting up inception_3b/relu_pool_proj
I0403 15:09:43.041554 31228 net.cpp:148] Top shape: 24 64 28 28 (1204224)
I0403 15:09:43.041573 31228 net.cpp:156] Memory required for data: 773112864
I0403 15:09:43.041587 31228 layer_factory.hpp:77] Creating layer inception_3b/output
I0403 15:09:43.041605 31228 net.cpp:91] Creating Layer inception_3b/output
I0403 15:09:43.041620 31228 net.cpp:425] inception_3b/output <- inception_3b/1x1
I0403 15:09:43.041637 31228 net.cpp:425] inception_3b/output <- inception_3b/3x3
I0403 15:09:43.041653 31228 net.cpp:425] inception_3b/output <- inception_3b/5x5
I0403 15:09:43.041669 31228 net.cpp:425] inception_3b/output <- inception_3b/pool_proj
I0403 15:09:43.041688 31228 net.cpp:399] inception_3b/output -> inception_3b/output
I0403 15:09:43.041734 31228 net.cpp:141] Setting up inception_3b/output
I0403 15:09:43.041759 31228 net.cpp:148] Top shape: 24 480 28 28 (9031680)
I0403 15:09:43.041774 31228 net.cpp:156] Memory required for data: 809239584
I0403 15:09:43.041787 31228 layer_factory.hpp:77] Creating layer pool3/3x3_s2
I0403 15:09:43.041805 31228 net.cpp:91] Creating Layer pool3/3x3_s2
I0403 15:09:43.041821 31228 net.cpp:425] pool3/3x3_s2 <- inception_3b/output
I0403 15:09:43.041856 31228 net.cpp:399] pool3/3x3_s2 -> pool3/3x3_s2
I0403 15:09:43.041914 31228 net.cpp:141] Setting up pool3/3x3_s2
I0403 15:09:43.041937 31228 net.cpp:148] Top shape: 24 480 14 14 (2257920)
I0403 15:09:43.041952 31228 net.cpp:156] Memory required for data: 818271264
I0403 15:09:43.041966 31228 layer_factory.hpp:77] Creating layer pool3/3x3_s2_pool3/3x3_s2_0_split
I0403 15:09:43.041985 31228 net.cpp:91] Creating Layer pool3/3x3_s2_pool3/3x3_s2_0_split
I0403 15:09:43.042002 31228 net.cpp:425] pool3/3x3_s2_pool3/3x3_s2_0_split <- pool3/3x3_s2
I0403 15:09:43.042019 31228 net.cpp:399] pool3/3x3_s2_pool3/3x3_s2_0_split -> pool3/3x3_s2_pool3/3x3_s2_0_split_0
I0403 15:09:43.042038 31228 net.cpp:399] pool3/3x3_s2_pool3/3x3_s2_0_split -> pool3/3x3_s2_pool3/3x3_s2_0_split_1
I0403 15:09:43.042060 31228 net.cpp:399] pool3/3x3_s2_pool3/3x3_s2_0_split -> pool3/3x3_s2_pool3/3x3_s2_0_split_2
I0403 15:09:43.042080 31228 net.cpp:399] pool3/3x3_s2_pool3/3x3_s2_0_split -> pool3/3x3_s2_pool3/3x3_s2_0_split_3
I0403 15:09:43.042155 31228 net.cpp:141] Setting up pool3/3x3_s2_pool3/3x3_s2_0_split
I0403 15:09:43.042177 31228 net.cpp:148] Top shape: 24 480 14 14 (2257920)
I0403 15:09:43.042193 31228 net.cpp:148] Top shape: 24 480 14 14 (2257920)
I0403 15:09:43.042209 31228 net.cpp:148] Top shape: 24 480 14 14 (2257920)
I0403 15:09:43.042224 31228 net.cpp:148] Top shape: 24 480 14 14 (2257920)
I0403 15:09:43.042238 31228 net.cpp:156] Memory required for data: 854397984
I0403 15:09:43.042253 31228 layer_factory.hpp:77] Creating layer inception_4a/1x1
I0403 15:09:43.042274 31228 net.cpp:91] Creating Layer inception_4a/1x1
I0403 15:09:43.042291 31228 net.cpp:425] inception_4a/1x1 <- pool3/3x3_s2_pool3/3x3_s2_0_split_0
I0403 15:09:43.042312 31228 net.cpp:399] inception_4a/1x1 -> inception_4a/1x1
I0403 15:09:43.043907 31228 net.cpp:141] Setting up inception_4a/1x1
I0403 15:09:43.043934 31228 net.cpp:148] Top shape: 24 192 14 14 (903168)
I0403 15:09:43.043949 31228 net.cpp:156] Memory required for data: 858010656
I0403 15:09:43.043968 31228 layer_factory.hpp:77] Creating layer inception_4a/relu_1x1
I0403 15:09:43.043988 31228 net.cpp:91] Creating Layer inception_4a/relu_1x1
I0403 15:09:43.044004 31228 net.cpp:425] inception_4a/relu_1x1 <- inception_4a/1x1
I0403 15:09:43.044021 31228 net.cpp:386] inception_4a/relu_1x1 -> inception_4a/1x1 (in-place)
I0403 15:09:43.044194 31228 net.cpp:141] Setting up inception_4a/relu_1x1
I0403 15:09:43.044221 31228 net.cpp:148] Top shape: 24 192 14 14 (903168)
I0403 15:09:43.044237 31228 net.cpp:156] Memory required for data: 861623328
I0403 15:09:43.044251 31228 layer_factory.hpp:77] Creating layer inception_4a/3x3_reduce
I0403 15:09:43.044273 31228 net.cpp:91] Creating Layer inception_4a/3x3_reduce
I0403 15:09:43.044291 31228 net.cpp:425] inception_4a/3x3_reduce <- pool3/3x3_s2_pool3/3x3_s2_0_split_1
I0403 15:09:43.044309 31228 net.cpp:399] inception_4a/3x3_reduce -> inception_4a/3x3_reduce
I0403 15:09:43.045563 31228 net.cpp:141] Setting up inception_4a/3x3_reduce
I0403 15:09:43.045591 31228 net.cpp:148] Top shape: 24 96 14 14 (451584)
I0403 15:09:43.045608 31228 net.cpp:156] Memory required for data: 863429664
I0403 15:09:43.045631 31228 layer_factory.hpp:77] Creating layer inception_4a/relu_3x3_reduce
I0403 15:09:43.045653 31228 net.cpp:91] Creating Layer inception_4a/relu_3x3_reduce
I0403 15:09:43.045670 31228 net.cpp:425] inception_4a/relu_3x3_reduce <- inception_4a/3x3_reduce
I0403 15:09:43.045687 31228 net.cpp:386] inception_4a/relu_3x3_reduce -> inception_4a/3x3_reduce (in-place)
I0403 15:09:43.045861 31228 net.cpp:141] Setting up inception_4a/relu_3x3_reduce
I0403 15:09:43.045886 31228 net.cpp:148] Top shape: 24 96 14 14 (451584)
I0403 15:09:43.045900 31228 net.cpp:156] Memory required for data: 865236000
I0403 15:09:43.045915 31228 layer_factory.hpp:77] Creating layer inception_4a/3x3
I0403 15:09:43.045939 31228 net.cpp:91] Creating Layer inception_4a/3x3
I0403 15:09:43.045956 31228 net.cpp:425] inception_4a/3x3 <- inception_4a/3x3_reduce
I0403 15:09:43.045974 31228 net.cpp:399] inception_4a/3x3 -> inception_4a/3x3
I0403 15:09:43.048643 31228 net.cpp:141] Setting up inception_4a/3x3
I0403 15:09:43.048674 31228 net.cpp:148] Top shape: 24 208 14 14 (978432)
I0403 15:09:43.048691 31228 net.cpp:156] Memory required for data: 869149728
I0403 15:09:43.048709 31228 layer_factory.hpp:77] Creating layer inception_4a/relu_3x3
I0403 15:09:43.048727 31228 net.cpp:91] Creating Layer inception_4a/relu_3x3
I0403 15:09:43.048743 31228 net.cpp:425] inception_4a/relu_3x3 <- inception_4a/3x3
I0403 15:09:43.048763 31228 net.cpp:386] inception_4a/relu_3x3 -> inception_4a/3x3 (in-place)
I0403 15:09:43.049042 31228 net.cpp:141] Setting up inception_4a/relu_3x3
I0403 15:09:43.049070 31228 net.cpp:148] Top shape: 24 208 14 14 (978432)
I0403 15:09:43.049087 31228 net.cpp:156] Memory required for data: 873063456
I0403 15:09:43.049103 31228 layer_factory.hpp:77] Creating layer inception_4a/5x5_reduce
I0403 15:09:43.049134 31228 net.cpp:91] Creating Layer inception_4a/5x5_reduce
I0403 15:09:43.049150 31228 net.cpp:425] inception_4a/5x5_reduce <- pool3/3x3_s2_pool3/3x3_s2_0_split_2
I0403 15:09:43.049170 31228 net.cpp:399] inception_4a/5x5_reduce -> inception_4a/5x5_reduce
I0403 15:09:43.050187 31228 net.cpp:141] Setting up inception_4a/5x5_reduce
I0403 15:09:43.050215 31228 net.cpp:148] Top shape: 24 16 14 14 (75264)
I0403 15:09:43.050230 31228 net.cpp:156] Memory required for data: 873364512
I0403 15:09:43.050249 31228 layer_factory.hpp:77] Creating layer inception_4a/relu_5x5_reduce
I0403 15:09:43.050267 31228 net.cpp:91] Creating Layer inception_4a/relu_5x5_reduce
I0403 15:09:43.050283 31228 net.cpp:425] inception_4a/relu_5x5_reduce <- inception_4a/5x5_reduce
I0403 15:09:43.050302 31228 net.cpp:386] inception_4a/relu_5x5_reduce -> inception_4a/5x5_reduce (in-place)
I0403 15:09:43.050478 31228 net.cpp:141] Setting up inception_4a/relu_5x5_reduce
I0403 15:09:43.050542 31228 net.cpp:148] Top shape: 24 16 14 14 (75264)
I0403 15:09:43.050557 31228 net.cpp:156] Memory required for data: 873665568
I0403 15:09:43.050575 31228 layer_factory.hpp:77] Creating layer inception_4a/5x5
I0403 15:09:43.050597 31228 net.cpp:91] Creating Layer inception_4a/5x5
I0403 15:09:43.050614 31228 net.cpp:425] inception_4a/5x5 <- inception_4a/5x5_reduce
I0403 15:09:43.050636 31228 net.cpp:399] inception_4a/5x5 -> inception_4a/5x5
I0403 15:09:43.051713 31228 net.cpp:141] Setting up inception_4a/5x5
I0403 15:09:43.051740 31228 net.cpp:148] Top shape: 24 48 14 14 (225792)
I0403 15:09:43.051755 31228 net.cpp:156] Memory required for data: 874568736
I0403 15:09:43.051774 31228 layer_factory.hpp:77] Creating layer inception_4a/relu_5x5
I0403 15:09:43.051794 31228 net.cpp:91] Creating Layer inception_4a/relu_5x5
I0403 15:09:43.051810 31228 net.cpp:425] inception_4a/relu_5x5 <- inception_4a/5x5
I0403 15:09:43.051828 31228 net.cpp:386] inception_4a/relu_5x5 -> inception_4a/5x5 (in-place)
I0403 15:09:43.052001 31228 net.cpp:141] Setting up inception_4a/relu_5x5
I0403 15:09:43.052028 31228 net.cpp:148] Top shape: 24 48 14 14 (225792)
I0403 15:09:43.052043 31228 net.cpp:156] Memory required for data: 875471904
I0403 15:09:43.052058 31228 layer_factory.hpp:77] Creating layer inception_4a/pool
I0403 15:09:43.052076 31228 net.cpp:91] Creating Layer inception_4a/pool
I0403 15:09:43.052093 31228 net.cpp:425] inception_4a/pool <- pool3/3x3_s2_pool3/3x3_s2_0_split_3
I0403 15:09:43.052109 31228 net.cpp:399] inception_4a/pool -> inception_4a/pool
I0403 15:09:43.052173 31228 net.cpp:141] Setting up inception_4a/pool
I0403 15:09:43.052197 31228 net.cpp:148] Top shape: 24 480 14 14 (2257920)
I0403 15:09:43.052211 31228 net.cpp:156] Memory required for data: 884503584
I0403 15:09:43.052225 31228 layer_factory.hpp:77] Creating layer inception_4a/pool_proj
I0403 15:09:43.052248 31228 net.cpp:91] Creating Layer inception_4a/pool_proj
I0403 15:09:43.052265 31228 net.cpp:425] inception_4a/pool_proj <- inception_4a/pool
I0403 15:09:43.052286 31228 net.cpp:399] inception_4a/pool_proj -> inception_4a/pool_proj
I0403 15:09:43.053436 31228 net.cpp:141] Setting up inception_4a/pool_proj
I0403 15:09:43.053464 31228 net.cpp:148] Top shape: 24 64 14 14 (301056)
I0403 15:09:43.053493 31228 net.cpp:156] Memory required for data: 885707808
I0403 15:09:43.053517 31228 layer_factory.hpp:77] Creating layer inception_4a/relu_pool_proj
I0403 15:09:43.053539 31228 net.cpp:91] Creating Layer inception_4a/relu_pool_proj
I0403 15:09:43.053557 31228 net.cpp:425] inception_4a/relu_pool_proj <- inception_4a/pool_proj
I0403 15:09:43.053576 31228 net.cpp:386] inception_4a/relu_pool_proj -> inception_4a/pool_proj (in-place)
I0403 15:09:43.053855 31228 net.cpp:141] Setting up inception_4a/relu_pool_proj
I0403 15:09:43.053880 31228 net.cpp:148] Top shape: 24 64 14 14 (301056)
I0403 15:09:43.053896 31228 net.cpp:156] Memory required for data: 886912032
I0403 15:09:43.053911 31228 layer_factory.hpp:77] Creating layer inception_4a/output
I0403 15:09:43.053931 31228 net.cpp:91] Creating Layer inception_4a/output
I0403 15:09:43.053947 31228 net.cpp:425] inception_4a/output <- inception_4a/1x1
I0403 15:09:43.053963 31228 net.cpp:425] inception_4a/output <- inception_4a/3x3
I0403 15:09:43.053979 31228 net.cpp:425] inception_4a/output <- inception_4a/5x5
I0403 15:09:43.054004 31228 net.cpp:425] inception_4a/output <- inception_4a/pool_proj
I0403 15:09:43.054021 31228 net.cpp:399] inception_4a/output -> inception_4a/output
I0403 15:09:43.054069 31228 net.cpp:141] Setting up inception_4a/output
I0403 15:09:43.054092 31228 net.cpp:148] Top shape: 24 512 14 14 (2408448)
I0403 15:09:43.054106 31228 net.cpp:156] Memory required for data: 896545824
I0403 15:09:43.054121 31228 layer_factory.hpp:77] Creating layer inception_4a/output_inception_4a/output_0_split
I0403 15:09:43.054139 31228 net.cpp:91] Creating Layer inception_4a/output_inception_4a/output_0_split
I0403 15:09:43.054154 31228 net.cpp:425] inception_4a/output_inception_4a/output_0_split <- inception_4a/output
I0403 15:09:43.054174 31228 net.cpp:399] inception_4a/output_inception_4a/output_0_split -> inception_4a/output_inception_4a/output_0_split_0
I0403 15:09:43.054195 31228 net.cpp:399] inception_4a/output_inception_4a/output_0_split -> inception_4a/output_inception_4a/output_0_split_1
I0403 15:09:43.054216 31228 net.cpp:399] inception_4a/output_inception_4a/output_0_split -> inception_4a/output_inception_4a/output_0_split_2
I0403 15:09:43.054236 31228 net.cpp:399] inception_4a/output_inception_4a/output_0_split -> inception_4a/output_inception_4a/output_0_split_3
I0403 15:09:43.054255 31228 net.cpp:399] inception_4a/output_inception_4a/output_0_split -> inception_4a/output_inception_4a/output_0_split_4
I0403 15:09:43.054350 31228 net.cpp:141] Setting up inception_4a/output_inception_4a/output_0_split
I0403 15:09:43.054373 31228 net.cpp:148] Top shape: 24 512 14 14 (2408448)
I0403 15:09:43.054390 31228 net.cpp:148] Top shape: 24 512 14 14 (2408448)
I0403 15:09:43.054405 31228 net.cpp:148] Top shape: 24 512 14 14 (2408448)
I0403 15:09:43.054421 31228 net.cpp:148] Top shape: 24 512 14 14 (2408448)
I0403 15:09:43.054436 31228 net.cpp:148] Top shape: 24 512 14 14 (2408448)
I0403 15:09:43.054452 31228 net.cpp:156] Memory required for data: 944714784
I0403 15:09:43.054467 31228 layer_factory.hpp:77] Creating layer loss1/ave_pool
I0403 15:09:43.054484 31228 net.cpp:91] Creating Layer loss1/ave_pool
I0403 15:09:43.054500 31228 net.cpp:425] loss1/ave_pool <- inception_4a/output_inception_4a/output_0_split_0
I0403 15:09:43.054533 31228 net.cpp:399] loss1/ave_pool -> loss1/ave_pool
I0403 15:09:43.054744 31228 net.cpp:141] Setting up loss1/ave_pool
I0403 15:09:43.054769 31228 net.cpp:148] Top shape: 24 512 4 4 (196608)
I0403 15:09:43.054785 31228 net.cpp:156] Memory required for data: 945501216
I0403 15:09:43.054798 31228 layer_factory.hpp:77] Creating layer loss1/conv
I0403 15:09:43.054821 31228 net.cpp:91] Creating Layer loss1/conv
I0403 15:09:43.054838 31228 net.cpp:425] loss1/conv <- loss1/ave_pool
I0403 15:09:43.054858 31228 net.cpp:399] loss1/conv -> loss1/conv
I0403 15:09:43.056248 31228 net.cpp:141] Setting up loss1/conv
I0403 15:09:43.056278 31228 net.cpp:148] Top shape: 24 128 4 4 (49152)
I0403 15:09:43.056309 31228 net.cpp:156] Memory required for data: 945697824
I0403 15:09:43.056329 31228 layer_factory.hpp:77] Creating layer loss1/relu_conv
I0403 15:09:43.056346 31228 net.cpp:91] Creating Layer loss1/relu_conv
I0403 15:09:43.056362 31228 net.cpp:425] loss1/relu_conv <- loss1/conv
I0403 15:09:43.056380 31228 net.cpp:386] loss1/relu_conv -> loss1/conv (in-place)
I0403 15:09:43.056663 31228 net.cpp:141] Setting up loss1/relu_conv
I0403 15:09:43.056691 31228 net.cpp:148] Top shape: 24 128 4 4 (49152)
I0403 15:09:43.056707 31228 net.cpp:156] Memory required for data: 945894432
I0403 15:09:43.056722 31228 layer_factory.hpp:77] Creating layer loss1/fc
I0403 15:09:43.056746 31228 net.cpp:91] Creating Layer loss1/fc
I0403 15:09:43.056764 31228 net.cpp:425] loss1/fc <- loss1/conv
I0403 15:09:43.056785 31228 net.cpp:399] loss1/fc -> loss1/fc
I0403 15:09:43.074494 31228 net.cpp:141] Setting up loss1/fc
I0403 15:09:43.074538 31228 net.cpp:148] Top shape: 24 1024 (24576)
I0403 15:09:43.074555 31228 net.cpp:156] Memory required for data: 945992736
I0403 15:09:43.074576 31228 layer_factory.hpp:77] Creating layer loss1/relu_fc
I0403 15:09:43.074595 31228 net.cpp:91] Creating Layer loss1/relu_fc
I0403 15:09:43.074611 31228 net.cpp:425] loss1/relu_fc <- loss1/fc
I0403 15:09:43.074628 31228 net.cpp:386] loss1/relu_fc -> loss1/fc (in-place)
I0403 15:09:43.074815 31228 net.cpp:141] Setting up loss1/relu_fc
I0403 15:09:43.074842 31228 net.cpp:148] Top shape: 24 1024 (24576)
I0403 15:09:43.074857 31228 net.cpp:156] Memory required for data: 946091040
I0403 15:09:43.074872 31228 layer_factory.hpp:77] Creating layer loss1/drop_fc
I0403 15:09:43.074898 31228 net.cpp:91] Creating Layer loss1/drop_fc
I0403 15:09:43.074921 31228 net.cpp:425] loss1/drop_fc <- loss1/fc
I0403 15:09:43.074939 31228 net.cpp:386] loss1/drop_fc -> loss1/fc (in-place)
I0403 15:09:43.074993 31228 net.cpp:141] Setting up loss1/drop_fc
I0403 15:09:43.075016 31228 net.cpp:148] Top shape: 24 1024 (24576)
I0403 15:09:43.075031 31228 net.cpp:156] Memory required for data: 946189344
I0403 15:09:43.075045 31228 layer_factory.hpp:77] Creating layer loss1/classifier_plantvillage
I0403 15:09:43.075070 31228 net.cpp:91] Creating Layer loss1/classifier_plantvillage
I0403 15:09:43.075086 31228 net.cpp:425] loss1/classifier_plantvillage <- loss1/fc
I0403 15:09:43.075105 31228 net.cpp:399] loss1/classifier_plantvillage -> loss1/classifier_plantvillage
I0403 15:09:43.076014 31228 net.cpp:141] Setting up loss1/classifier_plantvillage
I0403 15:09:43.076045 31228 net.cpp:148] Top shape: 24 38 (912)
I0403 15:09:43.076061 31228 net.cpp:156] Memory required for data: 946192992
I0403 15:09:43.076078 31228 layer_factory.hpp:77] Creating layer loss1/classifier_plantvillage_loss1/classifier_plantvillage_0_split
I0403 15:09:43.076097 31228 net.cpp:91] Creating Layer loss1/classifier_plantvillage_loss1/classifier_plantvillage_0_split
I0403 15:09:43.076118 31228 net.cpp:425] loss1/classifier_plantvillage_loss1/classifier_plantvillage_0_split <- loss1/classifier_plantvillage
I0403 15:09:43.076136 31228 net.cpp:399] loss1/classifier_plantvillage_loss1/classifier_plantvillage_0_split -> loss1/classifier_plantvillage_loss1/classifier_plantvillage_0_split_0
I0403 15:09:43.076156 31228 net.cpp:399] loss1/classifier_plantvillage_loss1/classifier_plantvillage_0_split -> loss1/classifier_plantvillage_loss1/classifier_plantvillage_0_split_1
I0403 15:09:43.076175 31228 net.cpp:399] loss1/classifier_plantvillage_loss1/classifier_plantvillage_0_split -> loss1/classifier_plantvillage_loss1/classifier_plantvillage_0_split_2
I0403 15:09:43.076246 31228 net.cpp:141] Setting up loss1/classifier_plantvillage_loss1/classifier_plantvillage_0_split
I0403 15:09:43.076268 31228 net.cpp:148] Top shape: 24 38 (912)
I0403 15:09:43.076284 31228 net.cpp:148] Top shape: 24 38 (912)
I0403 15:09:43.076313 31228 net.cpp:148] Top shape: 24 38 (912)
I0403 15:09:43.076328 31228 net.cpp:156] Memory required for data: 946203936
I0403 15:09:43.076342 31228 layer_factory.hpp:77] Creating layer inception_4b/1x1
I0403 15:09:43.076364 31228 net.cpp:91] Creating Layer inception_4b/1x1
I0403 15:09:43.076406 31228 net.cpp:425] inception_4b/1x1 <- inception_4a/output_inception_4a/output_0_split_1
I0403 15:09:43.076429 31228 net.cpp:399] inception_4b/1x1 -> inception_4b/1x1
I0403 15:09:43.078099 31228 net.cpp:141] Setting up inception_4b/1x1
I0403 15:09:43.078130 31228 net.cpp:148] Top shape: 24 160 14 14 (752640)
I0403 15:09:43.078146 31228 net.cpp:156] Memory required for data: 949214496
I0403 15:09:43.078164 31228 layer_factory.hpp:77] Creating layer inception_4b/relu_1x1
I0403 15:09:43.078182 31228 net.cpp:91] Creating Layer inception_4b/relu_1x1
I0403 15:09:43.078198 31228 net.cpp:425] inception_4b/relu_1x1 <- inception_4b/1x1
I0403 15:09:43.078218 31228 net.cpp:386] inception_4b/relu_1x1 -> inception_4b/1x1 (in-place)
I0403 15:09:43.078397 31228 net.cpp:141] Setting up inception_4b/relu_1x1
I0403 15:09:43.078421 31228 net.cpp:148] Top shape: 24 160 14 14 (752640)
I0403 15:09:43.078436 31228 net.cpp:156] Memory required for data: 952225056
I0403 15:09:43.078451 31228 layer_factory.hpp:77] Creating layer inception_4b/3x3_reduce
I0403 15:09:43.078474 31228 net.cpp:91] Creating Layer inception_4b/3x3_reduce
I0403 15:09:43.078490 31228 net.cpp:425] inception_4b/3x3_reduce <- inception_4a/output_inception_4a/output_0_split_2
I0403 15:09:43.078516 31228 net.cpp:399] inception_4b/3x3_reduce -> inception_4b/3x3_reduce
I0403 15:09:43.079865 31228 net.cpp:141] Setting up inception_4b/3x3_reduce
I0403 15:09:43.079893 31228 net.cpp:148] Top shape: 24 112 14 14 (526848)
I0403 15:09:43.079908 31228 net.cpp:156] Memory required for data: 954332448
I0403 15:09:43.079926 31228 layer_factory.hpp:77] Creating layer inception_4b/relu_3x3_reduce
I0403 15:09:43.079946 31228 net.cpp:91] Creating Layer inception_4b/relu_3x3_reduce
I0403 15:09:43.079963 31228 net.cpp:425] inception_4b/relu_3x3_reduce <- inception_4b/3x3_reduce
I0403 15:09:43.079982 31228 net.cpp:386] inception_4b/relu_3x3_reduce -> inception_4b/3x3_reduce (in-place)
I0403 15:09:43.080263 31228 net.cpp:141] Setting up inception_4b/relu_3x3_reduce
I0403 15:09:43.080291 31228 net.cpp:148] Top shape: 24 112 14 14 (526848)
I0403 15:09:43.080304 31228 net.cpp:156] Memory required for data: 956439840
I0403 15:09:43.080319 31228 layer_factory.hpp:77] Creating layer inception_4b/3x3
I0403 15:09:43.080341 31228 net.cpp:91] Creating Layer inception_4b/3x3
I0403 15:09:43.080358 31228 net.cpp:425] inception_4b/3x3 <- inception_4b/3x3_reduce
I0403 15:09:43.080382 31228 net.cpp:399] inception_4b/3x3 -> inception_4b/3x3
I0403 15:09:43.083344 31228 net.cpp:141] Setting up inception_4b/3x3
I0403 15:09:43.083374 31228 net.cpp:148] Top shape: 24 224 14 14 (1053696)
I0403 15:09:43.083389 31228 net.cpp:156] Memory required for data: 960654624
I0403 15:09:43.083407 31228 layer_factory.hpp:77] Creating layer inception_4b/relu_3x3
I0403 15:09:43.083428 31228 net.cpp:91] Creating Layer inception_4b/relu_3x3
I0403 15:09:43.083446 31228 net.cpp:425] inception_4b/relu_3x3 <- inception_4b/3x3
I0403 15:09:43.083463 31228 net.cpp:386] inception_4b/relu_3x3 -> inception_4b/3x3 (in-place)
I0403 15:09:43.083648 31228 net.cpp:141] Setting up inception_4b/relu_3x3
I0403 15:09:43.083676 31228 net.cpp:148] Top shape: 24 224 14 14 (1053696)
I0403 15:09:43.083693 31228 net.cpp:156] Memory required for data: 964869408
I0403 15:09:43.083708 31228 layer_factory.hpp:77] Creating layer inception_4b/5x5_reduce
I0403 15:09:43.083729 31228 net.cpp:91] Creating Layer inception_4b/5x5_reduce
I0403 15:09:43.083747 31228 net.cpp:425] inception_4b/5x5_reduce <- inception_4a/output_inception_4a/output_0_split_3
I0403 15:09:43.083766 31228 net.cpp:399] inception_4b/5x5_reduce -> inception_4b/5x5_reduce
I0403 15:09:43.084848 31228 net.cpp:141] Setting up inception_4b/5x5_reduce
I0403 15:09:43.084877 31228 net.cpp:148] Top shape: 24 24 14 14 (112896)
I0403 15:09:43.084892 31228 net.cpp:156] Memory required for data: 965320992
I0403 15:09:43.084909 31228 layer_factory.hpp:77] Creating layer inception_4b/relu_5x5_reduce
I0403 15:09:43.084928 31228 net.cpp:91] Creating Layer inception_4b/relu_5x5_reduce
I0403 15:09:43.084959 31228 net.cpp:425] inception_4b/relu_5x5_reduce <- inception_4b/5x5_reduce
I0403 15:09:43.084980 31228 net.cpp:386] inception_4b/relu_5x5_reduce -> inception_4b/5x5_reduce (in-place)
I0403 15:09:43.085158 31228 net.cpp:141] Setting up inception_4b/relu_5x5_reduce
I0403 15:09:43.085185 31228 net.cpp:148] Top shape: 24 24 14 14 (112896)
I0403 15:09:43.085198 31228 net.cpp:156] Memory required for data: 965772576
I0403 15:09:43.085213 31228 layer_factory.hpp:77] Creating layer inception_4b/5x5
I0403 15:09:43.085235 31228 net.cpp:91] Creating Layer inception_4b/5x5
I0403 15:09:43.085253 31228 net.cpp:425] inception_4b/5x5 <- inception_4b/5x5_reduce
I0403 15:09:43.085273 31228 net.cpp:399] inception_4b/5x5 -> inception_4b/5x5
I0403 15:09:43.086489 31228 net.cpp:141] Setting up inception_4b/5x5
I0403 15:09:43.086522 31228 net.cpp:148] Top shape: 24 64 14 14 (301056)
I0403 15:09:43.086539 31228 net.cpp:156] Memory required for data: 966976800
I0403 15:09:43.086557 31228 layer_factory.hpp:77] Creating layer inception_4b/relu_5x5
I0403 15:09:43.086576 31228 net.cpp:91] Creating Layer inception_4b/relu_5x5
I0403 15:09:43.086593 31228 net.cpp:425] inception_4b/relu_5x5 <- inception_4b/5x5
I0403 15:09:43.086613 31228 net.cpp:386] inception_4b/relu_5x5 -> inception_4b/5x5 (in-place)
I0403 15:09:43.086894 31228 net.cpp:141] Setting up inception_4b/relu_5x5
I0403 15:09:43.086921 31228 net.cpp:148] Top shape: 24 64 14 14 (301056)
I0403 15:09:43.086936 31228 net.cpp:156] Memory required for data: 968181024
I0403 15:09:43.086951 31228 layer_factory.hpp:77] Creating layer inception_4b/pool
I0403 15:09:43.086969 31228 net.cpp:91] Creating Layer inception_4b/pool
I0403 15:09:43.086985 31228 net.cpp:425] inception_4b/pool <- inception_4a/output_inception_4a/output_0_split_4
I0403 15:09:43.087010 31228 net.cpp:399] inception_4b/pool -> inception_4b/pool
I0403 15:09:43.087075 31228 net.cpp:141] Setting up inception_4b/pool
I0403 15:09:43.087100 31228 net.cpp:148] Top shape: 24 512 14 14 (2408448)
I0403 15:09:43.087116 31228 net.cpp:156] Memory required for data: 977814816
I0403 15:09:43.087134 31228 layer_factory.hpp:77] Creating layer inception_4b/pool_proj
I0403 15:09:43.087157 31228 net.cpp:91] Creating Layer inception_4b/pool_proj
I0403 15:09:43.087175 31228 net.cpp:425] inception_4b/pool_proj <- inception_4b/pool
I0403 15:09:43.087193 31228 net.cpp:399] inception_4b/pool_proj -> inception_4b/pool_proj
I0403 15:09:43.088390 31228 net.cpp:141] Setting up inception_4b/pool_proj
I0403 15:09:43.088418 31228 net.cpp:148] Top shape: 24 64 14 14 (301056)
I0403 15:09:43.088433 31228 net.cpp:156] Memory required for data: 979019040
I0403 15:09:43.088451 31228 layer_factory.hpp:77] Creating layer inception_4b/relu_pool_proj
I0403 15:09:43.088469 31228 net.cpp:91] Creating Layer inception_4b/relu_pool_proj
I0403 15:09:43.088485 31228 net.cpp:425] inception_4b/relu_pool_proj <- inception_4b/pool_proj
I0403 15:09:43.088510 31228 net.cpp:386] inception_4b/relu_pool_proj -> inception_4b/pool_proj (in-place)
I0403 15:09:43.088690 31228 net.cpp:141] Setting up inception_4b/relu_pool_proj
I0403 15:09:43.088716 31228 net.cpp:148] Top shape: 24 64 14 14 (301056)
I0403 15:09:43.088732 31228 net.cpp:156] Memory required for data: 980223264
I0403 15:09:43.088745 31228 layer_factory.hpp:77] Creating layer inception_4b/output
I0403 15:09:43.088765 31228 net.cpp:91] Creating Layer inception_4b/output
I0403 15:09:43.088783 31228 net.cpp:425] inception_4b/output <- inception_4b/1x1
I0403 15:09:43.088799 31228 net.cpp:425] inception_4b/output <- inception_4b/3x3
I0403 15:09:43.088815 31228 net.cpp:425] inception_4b/output <- inception_4b/5x5
I0403 15:09:43.088831 31228 net.cpp:425] inception_4b/output <- inception_4b/pool_proj
I0403 15:09:43.088848 31228 net.cpp:399] inception_4b/output -> inception_4b/output
I0403 15:09:43.088893 31228 net.cpp:141] Setting up inception_4b/output
I0403 15:09:43.088918 31228 net.cpp:148] Top shape: 24 512 14 14 (2408448)
I0403 15:09:43.088934 31228 net.cpp:156] Memory required for data: 989857056
I0403 15:09:43.088963 31228 layer_factory.hpp:77] Creating layer inception_4b/output_inception_4b/output_0_split
I0403 15:09:43.088981 31228 net.cpp:91] Creating Layer inception_4b/output_inception_4b/output_0_split
I0403 15:09:43.088996 31228 net.cpp:425] inception_4b/output_inception_4b/output_0_split <- inception_4b/output
I0403 15:09:43.089016 31228 net.cpp:399] inception_4b/output_inception_4b/output_0_split -> inception_4b/output_inception_4b/output_0_split_0
I0403 15:09:43.089037 31228 net.cpp:399] inception_4b/output_inception_4b/output_0_split -> inception_4b/output_inception_4b/output_0_split_1
I0403 15:09:43.089057 31228 net.cpp:399] inception_4b/output_inception_4b/output_0_split -> inception_4b/output_inception_4b/output_0_split_2
I0403 15:09:43.089076 31228 net.cpp:399] inception_4b/output_inception_4b/output_0_split -> inception_4b/output_inception_4b/output_0_split_3
I0403 15:09:43.089159 31228 net.cpp:141] Setting up inception_4b/output_inception_4b/output_0_split
I0403 15:09:43.089184 31228 net.cpp:148] Top shape: 24 512 14 14 (2408448)
I0403 15:09:43.089200 31228 net.cpp:148] Top shape: 24 512 14 14 (2408448)
I0403 15:09:43.089216 31228 net.cpp:148] Top shape: 24 512 14 14 (2408448)
I0403 15:09:43.089231 31228 net.cpp:148] Top shape: 24 512 14 14 (2408448)
I0403 15:09:43.089246 31228 net.cpp:156] Memory required for data: 1028392224
I0403 15:09:43.089260 31228 layer_factory.hpp:77] Creating layer inception_4c/1x1
I0403 15:09:43.089283 31228 net.cpp:91] Creating Layer inception_4c/1x1
I0403 15:09:43.089300 31228 net.cpp:425] inception_4c/1x1 <- inception_4b/output_inception_4b/output_0_split_0
I0403 15:09:43.089319 31228 net.cpp:399] inception_4c/1x1 -> inception_4c/1x1
I0403 15:09:43.090757 31228 net.cpp:141] Setting up inception_4c/1x1
I0403 15:09:43.090785 31228 net.cpp:148] Top shape: 24 128 14 14 (602112)
I0403 15:09:43.090801 31228 net.cpp:156] Memory required for data: 1030800672
I0403 15:09:43.090818 31228 layer_factory.hpp:77] Creating layer inception_4c/relu_1x1
I0403 15:09:43.090838 31228 net.cpp:91] Creating Layer inception_4c/relu_1x1
I0403 15:09:43.090855 31228 net.cpp:425] inception_4c/relu_1x1 <- inception_4c/1x1
I0403 15:09:43.090873 31228 net.cpp:386] inception_4c/relu_1x1 -> inception_4c/1x1 (in-place)
I0403 15:09:43.091053 31228 net.cpp:141] Setting up inception_4c/relu_1x1
I0403 15:09:43.091079 31228 net.cpp:148] Top shape: 24 128 14 14 (602112)
I0403 15:09:43.091095 31228 net.cpp:156] Memory required for data: 1033209120
I0403 15:09:43.091110 31228 layer_factory.hpp:77] Creating layer inception_4c/3x3_reduce
I0403 15:09:43.091132 31228 net.cpp:91] Creating Layer inception_4c/3x3_reduce
I0403 15:09:43.091150 31228 net.cpp:425] inception_4c/3x3_reduce <- inception_4b/output_inception_4b/output_0_split_1
I0403 15:09:43.091169 31228 net.cpp:399] inception_4c/3x3_reduce -> inception_4c/3x3_reduce
I0403 15:09:43.093152 31228 net.cpp:141] Setting up inception_4c/3x3_reduce
I0403 15:09:43.093183 31228 net.cpp:148] Top shape: 24 128 14 14 (602112)
I0403 15:09:43.093200 31228 net.cpp:156] Memory required for data: 1035617568
I0403 15:09:43.093219 31228 layer_factory.hpp:77] Creating layer inception_4c/relu_3x3_reduce
I0403 15:09:43.093236 31228 net.cpp:91] Creating Layer inception_4c/relu_3x3_reduce
I0403 15:09:43.093252 31228 net.cpp:425] inception_4c/relu_3x3_reduce <- inception_4c/3x3_reduce
I0403 15:09:43.093271 31228 net.cpp:386] inception_4c/relu_3x3_reduce -> inception_4c/3x3_reduce (in-place)
I0403 15:09:43.093566 31228 net.cpp:141] Setting up inception_4c/relu_3x3_reduce
I0403 15:09:43.093595 31228 net.cpp:148] Top shape: 24 128 14 14 (602112)
I0403 15:09:43.093611 31228 net.cpp:156] Memory required for data: 1038026016
I0403 15:09:43.093626 31228 layer_factory.hpp:77] Creating layer inception_4c/3x3
I0403 15:09:43.093650 31228 net.cpp:91] Creating Layer inception_4c/3x3
I0403 15:09:43.093668 31228 net.cpp:425] inception_4c/3x3 <- inception_4c/3x3_reduce
I0403 15:09:43.093688 31228 net.cpp:399] inception_4c/3x3 -> inception_4c/3x3
I0403 15:09:43.097211 31228 net.cpp:141] Setting up inception_4c/3x3
I0403 15:09:43.097251 31228 net.cpp:148] Top shape: 24 256 14 14 (1204224)
I0403 15:09:43.097267 31228 net.cpp:156] Memory required for data: 1042842912
I0403 15:09:43.097300 31228 layer_factory.hpp:77] Creating layer inception_4c/relu_3x3
I0403 15:09:43.097319 31228 net.cpp:91] Creating Layer inception_4c/relu_3x3
I0403 15:09:43.097335 31228 net.cpp:425] inception_4c/relu_3x3 <- inception_4c/3x3
I0403 15:09:43.097353 31228 net.cpp:386] inception_4c/relu_3x3 -> inception_4c/3x3 (in-place)
I0403 15:09:43.097534 31228 net.cpp:141] Setting up inception_4c/relu_3x3
I0403 15:09:43.097559 31228 net.cpp:148] Top shape: 24 256 14 14 (1204224)
I0403 15:09:43.097575 31228 net.cpp:156] Memory required for data: 1047659808
I0403 15:09:43.097589 31228 layer_factory.hpp:77] Creating layer inception_4c/5x5_reduce
I0403 15:09:43.097611 31228 net.cpp:91] Creating Layer inception_4c/5x5_reduce
I0403 15:09:43.097630 31228 net.cpp:425] inception_4c/5x5_reduce <- inception_4b/output_inception_4b/output_0_split_2
I0403 15:09:43.097650 31228 net.cpp:399] inception_4c/5x5_reduce -> inception_4c/5x5_reduce
I0403 15:09:43.098704 31228 net.cpp:141] Setting up inception_4c/5x5_reduce
I0403 15:09:43.098733 31228 net.cpp:148] Top shape: 24 24 14 14 (112896)
I0403 15:09:43.098749 31228 net.cpp:156] Memory required for data: 1048111392
I0403 15:09:43.098767 31228 layer_factory.hpp:77] Creating layer inception_4c/relu_5x5_reduce
I0403 15:09:43.098784 31228 net.cpp:91] Creating Layer inception_4c/relu_5x5_reduce
I0403 15:09:43.098800 31228 net.cpp:425] inception_4c/relu_5x5_reduce <- inception_4c/5x5_reduce
I0403 15:09:43.098819 31228 net.cpp:386] inception_4c/relu_5x5_reduce -> inception_4c/5x5_reduce (in-place)
I0403 15:09:43.098997 31228 net.cpp:141] Setting up inception_4c/relu_5x5_reduce
I0403 15:09:43.099021 31228 net.cpp:148] Top shape: 24 24 14 14 (112896)
I0403 15:09:43.099035 31228 net.cpp:156] Memory required for data: 1048562976
I0403 15:09:43.099050 31228 layer_factory.hpp:77] Creating layer inception_4c/5x5
I0403 15:09:43.099071 31228 net.cpp:91] Creating Layer inception_4c/5x5
I0403 15:09:43.099088 31228 net.cpp:425] inception_4c/5x5 <- inception_4c/5x5_reduce
I0403 15:09:43.099108 31228 net.cpp:399] inception_4c/5x5 -> inception_4c/5x5
I0403 15:09:43.100328 31228 net.cpp:141] Setting up inception_4c/5x5
I0403 15:09:43.100355 31228 net.cpp:148] Top shape: 24 64 14 14 (301056)
I0403 15:09:43.100370 31228 net.cpp:156] Memory required for data: 1049767200
I0403 15:09:43.100389 31228 layer_factory.hpp:77] Creating layer inception_4c/relu_5x5
I0403 15:09:43.100409 31228 net.cpp:91] Creating Layer inception_4c/relu_5x5
I0403 15:09:43.100427 31228 net.cpp:425] inception_4c/relu_5x5 <- inception_4c/5x5
I0403 15:09:43.100445 31228 net.cpp:386] inception_4c/relu_5x5 -> inception_4c/5x5 (in-place)
I0403 15:09:43.100744 31228 net.cpp:141] Setting up inception_4c/relu_5x5
I0403 15:09:43.100769 31228 net.cpp:148] Top shape: 24 64 14 14 (301056)
I0403 15:09:43.100783 31228 net.cpp:156] Memory required for data: 1050971424
I0403 15:09:43.100798 31228 layer_factory.hpp:77] Creating layer inception_4c/pool
I0403 15:09:43.100817 31228 net.cpp:91] Creating Layer inception_4c/pool
I0403 15:09:43.100833 31228 net.cpp:425] inception_4c/pool <- inception_4b/output_inception_4b/output_0_split_3
I0403 15:09:43.100852 31228 net.cpp:399] inception_4c/pool -> inception_4c/pool
I0403 15:09:43.100915 31228 net.cpp:141] Setting up inception_4c/pool
I0403 15:09:43.100939 31228 net.cpp:148] Top shape: 24 512 14 14 (2408448)
I0403 15:09:43.100952 31228 net.cpp:156] Memory required for data: 1060605216
I0403 15:09:43.100967 31228 layer_factory.hpp:77] Creating layer inception_4c/pool_proj
I0403 15:09:43.100988 31228 net.cpp:91] Creating Layer inception_4c/pool_proj
I0403 15:09:43.101006 31228 net.cpp:425] inception_4c/pool_proj <- inception_4c/pool
I0403 15:09:43.101025 31228 net.cpp:399] inception_4c/pool_proj -> inception_4c/pool_proj
I0403 15:09:43.102213 31228 net.cpp:141] Setting up inception_4c/pool_proj
I0403 15:09:43.102239 31228 net.cpp:148] Top shape: 24 64 14 14 (301056)
I0403 15:09:43.102270 31228 net.cpp:156] Memory required for data: 1061809440
I0403 15:09:43.102290 31228 layer_factory.hpp:77] Creating layer inception_4c/relu_pool_proj
I0403 15:09:43.102308 31228 net.cpp:91] Creating Layer inception_4c/relu_pool_proj
I0403 15:09:43.102324 31228 net.cpp:425] inception_4c/relu_pool_proj <- inception_4c/pool_proj
I0403 15:09:43.102342 31228 net.cpp:386] inception_4c/relu_pool_proj -> inception_4c/pool_proj (in-place)
I0403 15:09:43.102522 31228 net.cpp:141] Setting up inception_4c/relu_pool_proj
I0403 15:09:43.102546 31228 net.cpp:148] Top shape: 24 64 14 14 (301056)
I0403 15:09:43.102561 31228 net.cpp:156] Memory required for data: 1063013664
I0403 15:09:43.102577 31228 layer_factory.hpp:77] Creating layer inception_4c/output
I0403 15:09:43.102596 31228 net.cpp:91] Creating Layer inception_4c/output
I0403 15:09:43.102612 31228 net.cpp:425] inception_4c/output <- inception_4c/1x1
I0403 15:09:43.102628 31228 net.cpp:425] inception_4c/output <- inception_4c/3x3
I0403 15:09:43.102644 31228 net.cpp:425] inception_4c/output <- inception_4c/5x5
I0403 15:09:43.102659 31228 net.cpp:425] inception_4c/output <- inception_4c/pool_proj
I0403 15:09:43.102676 31228 net.cpp:399] inception_4c/output -> inception_4c/output
I0403 15:09:43.102720 31228 net.cpp:141] Setting up inception_4c/output
I0403 15:09:43.102746 31228 net.cpp:148] Top shape: 24 512 14 14 (2408448)
I0403 15:09:43.102761 31228 net.cpp:156] Memory required for data: 1072647456
I0403 15:09:43.102774 31228 layer_factory.hpp:77] Creating layer inception_4c/output_inception_4c/output_0_split
I0403 15:09:43.102790 31228 net.cpp:91] Creating Layer inception_4c/output_inception_4c/output_0_split
I0403 15:09:43.102807 31228 net.cpp:425] inception_4c/output_inception_4c/output_0_split <- inception_4c/output
I0403 15:09:43.102825 31228 net.cpp:399] inception_4c/output_inception_4c/output_0_split -> inception_4c/output_inception_4c/output_0_split_0
I0403 15:09:43.102844 31228 net.cpp:399] inception_4c/output_inception_4c/output_0_split -> inception_4c/output_inception_4c/output_0_split_1
I0403 15:09:43.102864 31228 net.cpp:399] inception_4c/output_inception_4c/output_0_split -> inception_4c/output_inception_4c/output_0_split_2
I0403 15:09:43.102883 31228 net.cpp:399] inception_4c/output_inception_4c/output_0_split -> inception_4c/output_inception_4c/output_0_split_3
I0403 15:09:43.102964 31228 net.cpp:141] Setting up inception_4c/output_inception_4c/output_0_split
I0403 15:09:43.102990 31228 net.cpp:148] Top shape: 24 512 14 14 (2408448)
I0403 15:09:43.103008 31228 net.cpp:148] Top shape: 24 512 14 14 (2408448)
I0403 15:09:43.103023 31228 net.cpp:148] Top shape: 24 512 14 14 (2408448)
I0403 15:09:43.103037 31228 net.cpp:148] Top shape: 24 512 14 14 (2408448)
I0403 15:09:43.103050 31228 net.cpp:156] Memory required for data: 1111182624
I0403 15:09:43.103065 31228 layer_factory.hpp:77] Creating layer inception_4d/1x1
I0403 15:09:43.103086 31228 net.cpp:91] Creating Layer inception_4d/1x1
I0403 15:09:43.103103 31228 net.cpp:425] inception_4d/1x1 <- inception_4c/output_inception_4c/output_0_split_0
I0403 15:09:43.103122 31228 net.cpp:399] inception_4d/1x1 -> inception_4d/1x1
I0403 15:09:43.104475 31228 net.cpp:141] Setting up inception_4d/1x1
I0403 15:09:43.104507 31228 net.cpp:148] Top shape: 24 112 14 14 (526848)
I0403 15:09:43.104524 31228 net.cpp:156] Memory required for data: 1113290016
I0403 15:09:43.104542 31228 layer_factory.hpp:77] Creating layer inception_4d/relu_1x1
I0403 15:09:43.104560 31228 net.cpp:91] Creating Layer inception_4d/relu_1x1
I0403 15:09:43.104578 31228 net.cpp:425] inception_4d/relu_1x1 <- inception_4d/1x1
I0403 15:09:43.104593 31228 net.cpp:386] inception_4d/relu_1x1 -> inception_4d/1x1 (in-place)
I0403 15:09:43.104773 31228 net.cpp:141] Setting up inception_4d/relu_1x1
I0403 15:09:43.104799 31228 net.cpp:148] Top shape: 24 112 14 14 (526848)
I0403 15:09:43.104815 31228 net.cpp:156] Memory required for data: 1115397408
I0403 15:09:43.104830 31228 layer_factory.hpp:77] Creating layer inception_4d/3x3_reduce
I0403 15:09:43.104863 31228 net.cpp:91] Creating Layer inception_4d/3x3_reduce
I0403 15:09:43.104882 31228 net.cpp:425] inception_4d/3x3_reduce <- inception_4c/output_inception_4c/output_0_split_1
I0403 15:09:43.104902 31228 net.cpp:399] inception_4d/3x3_reduce -> inception_4d/3x3_reduce
I0403 15:09:43.106367 31228 net.cpp:141] Setting up inception_4d/3x3_reduce
I0403 15:09:43.106394 31228 net.cpp:148] Top shape: 24 144 14 14 (677376)
I0403 15:09:43.106408 31228 net.cpp:156] Memory required for data: 1118106912
I0403 15:09:43.106426 31228 layer_factory.hpp:77] Creating layer inception_4d/relu_3x3_reduce
I0403 15:09:43.106446 31228 net.cpp:91] Creating Layer inception_4d/relu_3x3_reduce
I0403 15:09:43.106462 31228 net.cpp:425] inception_4d/relu_3x3_reduce <- inception_4d/3x3_reduce
I0403 15:09:43.106479 31228 net.cpp:386] inception_4d/relu_3x3_reduce -> inception_4d/3x3_reduce (in-place)
I0403 15:09:43.106761 31228 net.cpp:141] Setting up inception_4d/relu_3x3_reduce
I0403 15:09:43.106786 31228 net.cpp:148] Top shape: 24 144 14 14 (677376)
I0403 15:09:43.106801 31228 net.cpp:156] Memory required for data: 1120816416
I0403 15:09:43.106815 31228 layer_factory.hpp:77] Creating layer inception_4d/3x3
I0403 15:09:43.106837 31228 net.cpp:91] Creating Layer inception_4d/3x3
I0403 15:09:43.106854 31228 net.cpp:425] inception_4d/3x3 <- inception_4d/3x3_reduce
I0403 15:09:43.106874 31228 net.cpp:399] inception_4d/3x3 -> inception_4d/3x3
I0403 15:09:43.111173 31228 net.cpp:141] Setting up inception_4d/3x3
I0403 15:09:43.111204 31228 net.cpp:148] Top shape: 24 288 14 14 (1354752)
I0403 15:09:43.111222 31228 net.cpp:156] Memory required for data: 1126235424
I0403 15:09:43.111239 31228 layer_factory.hpp:77] Creating layer inception_4d/relu_3x3
I0403 15:09:43.111258 31228 net.cpp:91] Creating Layer inception_4d/relu_3x3
I0403 15:09:43.111274 31228 net.cpp:425] inception_4d/relu_3x3 <- inception_4d/3x3
I0403 15:09:43.111294 31228 net.cpp:386] inception_4d/relu_3x3 -> inception_4d/3x3 (in-place)
I0403 15:09:43.111475 31228 net.cpp:141] Setting up inception_4d/relu_3x3
I0403 15:09:43.111500 31228 net.cpp:148] Top shape: 24 288 14 14 (1354752)
I0403 15:09:43.111521 31228 net.cpp:156] Memory required for data: 1131654432
I0403 15:09:43.111536 31228 layer_factory.hpp:77] Creating layer inception_4d/5x5_reduce
I0403 15:09:43.111558 31228 net.cpp:91] Creating Layer inception_4d/5x5_reduce
I0403 15:09:43.111577 31228 net.cpp:425] inception_4d/5x5_reduce <- inception_4c/output_inception_4c/output_0_split_2
I0403 15:09:43.111599 31228 net.cpp:399] inception_4d/5x5_reduce -> inception_4d/5x5_reduce
I0403 15:09:43.112738 31228 net.cpp:141] Setting up inception_4d/5x5_reduce
I0403 15:09:43.112767 31228 net.cpp:148] Top shape: 24 32 14 14 (150528)
I0403 15:09:43.112783 31228 net.cpp:156] Memory required for data: 1132256544
I0403 15:09:43.112802 31228 layer_factory.hpp:77] Creating layer inception_4d/relu_5x5_reduce
I0403 15:09:43.112820 31228 net.cpp:91] Creating Layer inception_4d/relu_5x5_reduce
I0403 15:09:43.112836 31228 net.cpp:425] inception_4d/relu_5x5_reduce <- inception_4d/5x5_reduce
I0403 15:09:43.112854 31228 net.cpp:386] inception_4d/relu_5x5_reduce -> inception_4d/5x5_reduce (in-place)
I0403 15:09:43.113044 31228 net.cpp:141] Setting up inception_4d/relu_5x5_reduce
I0403 15:09:43.113068 31228 net.cpp:148] Top shape: 24 32 14 14 (150528)
I0403 15:09:43.113083 31228 net.cpp:156] Memory required for data: 1132858656
I0403 15:09:43.113098 31228 layer_factory.hpp:77] Creating layer inception_4d/5x5
I0403 15:09:43.113121 31228 net.cpp:91] Creating Layer inception_4d/5x5
I0403 15:09:43.113138 31228 net.cpp:425] inception_4d/5x5 <- inception_4d/5x5_reduce
I0403 15:09:43.113159 31228 net.cpp:399] inception_4d/5x5 -> inception_4d/5x5
I0403 15:09:43.114641 31228 net.cpp:141] Setting up inception_4d/5x5
I0403 15:09:43.114668 31228 net.cpp:148] Top shape: 24 64 14 14 (301056)
I0403 15:09:43.114686 31228 net.cpp:156] Memory required for data: 1134062880
I0403 15:09:43.114704 31228 layer_factory.hpp:77] Creating layer inception_4d/relu_5x5
I0403 15:09:43.114739 31228 net.cpp:91] Creating Layer inception_4d/relu_5x5
I0403 15:09:43.114758 31228 net.cpp:425] inception_4d/relu_5x5 <- inception_4d/5x5
I0403 15:09:43.114776 31228 net.cpp:386] inception_4d/relu_5x5 -> inception_4d/5x5 (in-place)
I0403 15:09:43.115074 31228 net.cpp:141] Setting up inception_4d/relu_5x5
I0403 15:09:43.115102 31228 net.cpp:148] Top shape: 24 64 14 14 (301056)
I0403 15:09:43.115116 31228 net.cpp:156] Memory required for data: 1135267104
I0403 15:09:43.115131 31228 layer_factory.hpp:77] Creating layer inception_4d/pool
I0403 15:09:43.115149 31228 net.cpp:91] Creating Layer inception_4d/pool
I0403 15:09:43.115165 31228 net.cpp:425] inception_4d/pool <- inception_4c/output_inception_4c/output_0_split_3
I0403 15:09:43.115185 31228 net.cpp:399] inception_4d/pool -> inception_4d/pool
I0403 15:09:43.115252 31228 net.cpp:141] Setting up inception_4d/pool
I0403 15:09:43.115278 31228 net.cpp:148] Top shape: 24 512 14 14 (2408448)
I0403 15:09:43.115293 31228 net.cpp:156] Memory required for data: 1144900896
I0403 15:09:43.115308 31228 layer_factory.hpp:77] Creating layer inception_4d/pool_proj
I0403 15:09:43.115329 31228 net.cpp:91] Creating Layer inception_4d/pool_proj
I0403 15:09:43.115345 31228 net.cpp:425] inception_4d/pool_proj <- inception_4d/pool
I0403 15:09:43.115366 31228 net.cpp:399] inception_4d/pool_proj -> inception_4d/pool_proj
I0403 15:09:43.117120 31228 net.cpp:141] Setting up inception_4d/pool_proj
I0403 15:09:43.117154 31228 net.cpp:148] Top shape: 24 64 14 14 (301056)
I0403 15:09:43.117172 31228 net.cpp:156] Memory required for data: 1146105120
I0403 15:09:43.117189 31228 layer_factory.hpp:77] Creating layer inception_4d/relu_pool_proj
I0403 15:09:43.117208 31228 net.cpp:91] Creating Layer inception_4d/relu_pool_proj
I0403 15:09:43.117224 31228 net.cpp:425] inception_4d/relu_pool_proj <- inception_4d/pool_proj
I0403 15:09:43.117244 31228 net.cpp:386] inception_4d/relu_pool_proj -> inception_4d/pool_proj (in-place)
I0403 15:09:43.117427 31228 net.cpp:141] Setting up inception_4d/relu_pool_proj
I0403 15:09:43.117452 31228 net.cpp:148] Top shape: 24 64 14 14 (301056)
I0403 15:09:43.117467 31228 net.cpp:156] Memory required for data: 1147309344
I0403 15:09:43.117482 31228 layer_factory.hpp:77] Creating layer inception_4d/output
I0403 15:09:43.117498 31228 net.cpp:91] Creating Layer inception_4d/output
I0403 15:09:43.117519 31228 net.cpp:425] inception_4d/output <- inception_4d/1x1
I0403 15:09:43.117537 31228 net.cpp:425] inception_4d/output <- inception_4d/3x3
I0403 15:09:43.117553 31228 net.cpp:425] inception_4d/output <- inception_4d/5x5
I0403 15:09:43.117571 31228 net.cpp:425] inception_4d/output <- inception_4d/pool_proj
I0403 15:09:43.117590 31228 net.cpp:399] inception_4d/output -> inception_4d/output
I0403 15:09:43.117638 31228 net.cpp:141] Setting up inception_4d/output
I0403 15:09:43.117663 31228 net.cpp:148] Top shape: 24 528 14 14 (2483712)
I0403 15:09:43.117679 31228 net.cpp:156] Memory required for data: 1157244192
I0403 15:09:43.117694 31228 layer_factory.hpp:77] Creating layer inception_4d/output_inception_4d/output_0_split
I0403 15:09:43.117712 31228 net.cpp:91] Creating Layer inception_4d/output_inception_4d/output_0_split
I0403 15:09:43.117728 31228 net.cpp:425] inception_4d/output_inception_4d/output_0_split <- inception_4d/output
I0403 15:09:43.117745 31228 net.cpp:399] inception_4d/output_inception_4d/output_0_split -> inception_4d/output_inception_4d/output_0_split_0
I0403 15:09:43.117769 31228 net.cpp:399] inception_4d/output_inception_4d/output_0_split -> inception_4d/output_inception_4d/output_0_split_1
I0403 15:09:43.117789 31228 net.cpp:399] inception_4d/output_inception_4d/output_0_split -> inception_4d/output_inception_4d/output_0_split_2
I0403 15:09:43.117810 31228 net.cpp:399] inception_4d/output_inception_4d/output_0_split -> inception_4d/output_inception_4d/output_0_split_3
I0403 15:09:43.117830 31228 net.cpp:399] inception_4d/output_inception_4d/output_0_split -> inception_4d/output_inception_4d/output_0_split_4
I0403 15:09:43.117933 31228 net.cpp:141] Setting up inception_4d/output_inception_4d/output_0_split
I0403 15:09:43.117969 31228 net.cpp:148] Top shape: 24 528 14 14 (2483712)
I0403 15:09:43.117986 31228 net.cpp:148] Top shape: 24 528 14 14 (2483712)
I0403 15:09:43.118005 31228 net.cpp:148] Top shape: 24 528 14 14 (2483712)
I0403 15:09:43.118021 31228 net.cpp:148] Top shape: 24 528 14 14 (2483712)
I0403 15:09:43.118036 31228 net.cpp:148] Top shape: 24 528 14 14 (2483712)
I0403 15:09:43.118051 31228 net.cpp:156] Memory required for data: 1206918432
I0403 15:09:43.118065 31228 layer_factory.hpp:77] Creating layer loss2/ave_pool
I0403 15:09:43.118083 31228 net.cpp:91] Creating Layer loss2/ave_pool
I0403 15:09:43.118100 31228 net.cpp:425] loss2/ave_pool <- inception_4d/output_inception_4d/output_0_split_0
I0403 15:09:43.118119 31228 net.cpp:399] loss2/ave_pool -> loss2/ave_pool
I0403 15:09:43.118432 31228 net.cpp:141] Setting up loss2/ave_pool
I0403 15:09:43.118459 31228 net.cpp:148] Top shape: 24 528 4 4 (202752)
I0403 15:09:43.118475 31228 net.cpp:156] Memory required for data: 1207729440
I0403 15:09:43.118490 31228 layer_factory.hpp:77] Creating layer loss2/conv
I0403 15:09:43.118517 31228 net.cpp:91] Creating Layer loss2/conv
I0403 15:09:43.118536 31228 net.cpp:425] loss2/conv <- loss2/ave_pool
I0403 15:09:43.118556 31228 net.cpp:399] loss2/conv -> loss2/conv
I0403 15:09:43.120447 31228 net.cpp:141] Setting up loss2/conv
I0403 15:09:43.120476 31228 net.cpp:148] Top shape: 24 128 4 4 (49152)
I0403 15:09:43.120491 31228 net.cpp:156] Memory required for data: 1207926048
I0403 15:09:43.120513 31228 layer_factory.hpp:77] Creating layer loss2/relu_conv
I0403 15:09:43.120533 31228 net.cpp:91] Creating Layer loss2/relu_conv
I0403 15:09:43.120550 31228 net.cpp:425] loss2/relu_conv <- loss2/conv
I0403 15:09:43.120571 31228 net.cpp:386] loss2/relu_conv -> loss2/conv (in-place)
I0403 15:09:43.120857 31228 net.cpp:141] Setting up loss2/relu_conv
I0403 15:09:43.120883 31228 net.cpp:148] Top shape: 24 128 4 4 (49152)
I0403 15:09:43.120899 31228 net.cpp:156] Memory required for data: 1208122656
I0403 15:09:43.120914 31228 layer_factory.hpp:77] Creating layer loss2/fc
I0403 15:09:43.120934 31228 net.cpp:91] Creating Layer loss2/fc
I0403 15:09:43.120949 31228 net.cpp:425] loss2/fc <- loss2/conv
I0403 15:09:43.120971 31228 net.cpp:399] loss2/fc -> loss2/fc
I0403 15:09:43.138674 31228 net.cpp:141] Setting up loss2/fc
I0403 15:09:43.138707 31228 net.cpp:148] Top shape: 24 1024 (24576)
I0403 15:09:43.138725 31228 net.cpp:156] Memory required for data: 1208220960
I0403 15:09:43.138742 31228 layer_factory.hpp:77] Creating layer loss2/relu_fc
I0403 15:09:43.138761 31228 net.cpp:91] Creating Layer loss2/relu_fc
I0403 15:09:43.138777 31228 net.cpp:425] loss2/relu_fc <- loss2/fc
I0403 15:09:43.138794 31228 net.cpp:386] loss2/relu_fc -> loss2/fc (in-place)
I0403 15:09:43.139091 31228 net.cpp:141] Setting up loss2/relu_fc
I0403 15:09:43.139118 31228 net.cpp:148] Top shape: 24 1024 (24576)
I0403 15:09:43.139133 31228 net.cpp:156] Memory required for data: 1208319264
I0403 15:09:43.139147 31228 layer_factory.hpp:77] Creating layer loss2/drop_fc
I0403 15:09:43.139165 31228 net.cpp:91] Creating Layer loss2/drop_fc
I0403 15:09:43.139181 31228 net.cpp:425] loss2/drop_fc <- loss2/fc
I0403 15:09:43.139199 31228 net.cpp:386] loss2/drop_fc -> loss2/fc (in-place)
I0403 15:09:43.139251 31228 net.cpp:141] Setting up loss2/drop_fc
I0403 15:09:43.139274 31228 net.cpp:148] Top shape: 24 1024 (24576)
I0403 15:09:43.139288 31228 net.cpp:156] Memory required for data: 1208417568
I0403 15:09:43.139304 31228 layer_factory.hpp:77] Creating layer loss2/classifier_plantvillage
I0403 15:09:43.139327 31228 net.cpp:91] Creating Layer loss2/classifier_plantvillage
I0403 15:09:43.139343 31228 net.cpp:425] loss2/classifier_plantvillage <- loss2/fc
I0403 15:09:43.139363 31228 net.cpp:399] loss2/classifier_plantvillage -> loss2/classifier_plantvillage
I0403 15:09:43.139772 31228 net.cpp:141] Setting up loss2/classifier_plantvillage
I0403 15:09:43.139796 31228 net.cpp:148] Top shape: 24 38 (912)
I0403 15:09:43.139827 31228 net.cpp:156] Memory required for data: 1208421216
I0403 15:09:43.139847 31228 layer_factory.hpp:77] Creating layer loss2/classifier_plantvillage_loss2/classifier_plantvillage_0_split
I0403 15:09:43.139873 31228 net.cpp:91] Creating Layer loss2/classifier_plantvillage_loss2/classifier_plantvillage_0_split
I0403 15:09:43.139889 31228 net.cpp:425] loss2/classifier_plantvillage_loss2/classifier_plantvillage_0_split <- loss2/classifier_plantvillage
I0403 15:09:43.139909 31228 net.cpp:399] loss2/classifier_plantvillage_loss2/classifier_plantvillage_0_split -> loss2/classifier_plantvillage_loss2/classifier_plantvillage_0_split_0
I0403 15:09:43.139931 31228 net.cpp:399] loss2/classifier_plantvillage_loss2/classifier_plantvillage_0_split -> loss2/classifier_plantvillage_loss2/classifier_plantvillage_0_split_1
I0403 15:09:43.139952 31228 net.cpp:399] loss2/classifier_plantvillage_loss2/classifier_plantvillage_0_split -> loss2/classifier_plantvillage_loss2/classifier_plantvillage_0_split_2
I0403 15:09:43.140030 31228 net.cpp:141] Setting up loss2/classifier_plantvillage_loss2/classifier_plantvillage_0_split
I0403 15:09:43.140053 31228 net.cpp:148] Top shape: 24 38 (912)
I0403 15:09:43.140069 31228 net.cpp:148] Top shape: 24 38 (912)
I0403 15:09:43.140084 31228 net.cpp:148] Top shape: 24 38 (912)
I0403 15:09:43.140100 31228 net.cpp:156] Memory required for data: 1208432160
I0403 15:09:43.140113 31228 layer_factory.hpp:77] Creating layer inception_4e/1x1
I0403 15:09:43.140136 31228 net.cpp:91] Creating Layer inception_4e/1x1
I0403 15:09:43.140153 31228 net.cpp:425] inception_4e/1x1 <- inception_4d/output_inception_4d/output_0_split_1
I0403 15:09:43.140172 31228 net.cpp:399] inception_4e/1x1 -> inception_4e/1x1
I0403 15:09:43.142022 31228 net.cpp:141] Setting up inception_4e/1x1
I0403 15:09:43.142050 31228 net.cpp:148] Top shape: 24 256 14 14 (1204224)
I0403 15:09:43.142066 31228 net.cpp:156] Memory required for data: 1213249056
I0403 15:09:43.142084 31228 layer_factory.hpp:77] Creating layer inception_4e/relu_1x1
I0403 15:09:43.142105 31228 net.cpp:91] Creating Layer inception_4e/relu_1x1
I0403 15:09:43.142122 31228 net.cpp:425] inception_4e/relu_1x1 <- inception_4e/1x1
I0403 15:09:43.142309 31228 net.cpp:386] inception_4e/relu_1x1 -> inception_4e/1x1 (in-place)
I0403 15:09:43.142647 31228 net.cpp:141] Setting up inception_4e/relu_1x1
I0403 15:09:43.142674 31228 net.cpp:148] Top shape: 24 256 14 14 (1204224)
I0403 15:09:43.142689 31228 net.cpp:156] Memory required for data: 1218065952
I0403 15:09:43.142704 31228 layer_factory.hpp:77] Creating layer inception_4e/3x3_reduce
I0403 15:09:43.142727 31228 net.cpp:91] Creating Layer inception_4e/3x3_reduce
I0403 15:09:43.142745 31228 net.cpp:425] inception_4e/3x3_reduce <- inception_4d/output_inception_4d/output_0_split_2
I0403 15:09:43.142766 31228 net.cpp:399] inception_4e/3x3_reduce -> inception_4e/3x3_reduce
I0403 15:09:43.144901 31228 net.cpp:141] Setting up inception_4e/3x3_reduce
I0403 15:09:43.144928 31228 net.cpp:148] Top shape: 24 160 14 14 (752640)
I0403 15:09:43.144943 31228 net.cpp:156] Memory required for data: 1221076512
I0403 15:09:43.144963 31228 layer_factory.hpp:77] Creating layer inception_4e/relu_3x3_reduce
I0403 15:09:43.144980 31228 net.cpp:91] Creating Layer inception_4e/relu_3x3_reduce
I0403 15:09:43.144996 31228 net.cpp:425] inception_4e/relu_3x3_reduce <- inception_4e/3x3_reduce
I0403 15:09:43.145015 31228 net.cpp:386] inception_4e/relu_3x3_reduce -> inception_4e/3x3_reduce (in-place)
I0403 15:09:43.145201 31228 net.cpp:141] Setting up inception_4e/relu_3x3_reduce
I0403 15:09:43.145227 31228 net.cpp:148] Top shape: 24 160 14 14 (752640)
I0403 15:09:43.145242 31228 net.cpp:156] Memory required for data: 1224087072
I0403 15:09:43.145257 31228 layer_factory.hpp:77] Creating layer inception_4e/3x3
I0403 15:09:43.145284 31228 net.cpp:91] Creating Layer inception_4e/3x3
I0403 15:09:43.145301 31228 net.cpp:425] inception_4e/3x3 <- inception_4e/3x3_reduce
I0403 15:09:43.145323 31228 net.cpp:399] inception_4e/3x3 -> inception_4e/3x3
I0403 15:09:43.150312 31228 net.cpp:141] Setting up inception_4e/3x3
I0403 15:09:43.150353 31228 net.cpp:148] Top shape: 24 320 14 14 (1505280)
I0403 15:09:43.150370 31228 net.cpp:156] Memory required for data: 1230108192
I0403 15:09:43.150388 31228 layer_factory.hpp:77] Creating layer inception_4e/relu_3x3
I0403 15:09:43.150409 31228 net.cpp:91] Creating Layer inception_4e/relu_3x3
I0403 15:09:43.150426 31228 net.cpp:425] inception_4e/relu_3x3 <- inception_4e/3x3
I0403 15:09:43.150444 31228 net.cpp:386] inception_4e/relu_3x3 -> inception_4e/3x3 (in-place)
I0403 15:09:43.150751 31228 net.cpp:141] Setting up inception_4e/relu_3x3
I0403 15:09:43.150780 31228 net.cpp:148] Top shape: 24 320 14 14 (1505280)
I0403 15:09:43.150796 31228 net.cpp:156] Memory required for data: 1236129312
I0403 15:09:43.150811 31228 layer_factory.hpp:77] Creating layer inception_4e/5x5_reduce
I0403 15:09:43.150835 31228 net.cpp:91] Creating Layer inception_4e/5x5_reduce
I0403 15:09:43.150852 31228 net.cpp:425] inception_4e/5x5_reduce <- inception_4d/output_inception_4d/output_0_split_3
I0403 15:09:43.150871 31228 net.cpp:399] inception_4e/5x5_reduce -> inception_4e/5x5_reduce
I0403 15:09:43.151983 31228 net.cpp:141] Setting up inception_4e/5x5_reduce
I0403 15:09:43.152009 31228 net.cpp:148] Top shape: 24 32 14 14 (150528)
I0403 15:09:43.152024 31228 net.cpp:156] Memory required for data: 1236731424
I0403 15:09:43.152041 31228 layer_factory.hpp:77] Creating layer inception_4e/relu_5x5_reduce
I0403 15:09:43.152062 31228 net.cpp:91] Creating Layer inception_4e/relu_5x5_reduce
I0403 15:09:43.152078 31228 net.cpp:425] inception_4e/relu_5x5_reduce <- inception_4e/5x5_reduce
I0403 15:09:43.152096 31228 net.cpp:386] inception_4e/relu_5x5_reduce -> inception_4e/5x5_reduce (in-place)
I0403 15:09:43.152385 31228 net.cpp:141] Setting up inception_4e/relu_5x5_reduce
I0403 15:09:43.152410 31228 net.cpp:148] Top shape: 24 32 14 14 (150528)
I0403 15:09:43.152426 31228 net.cpp:156] Memory required for data: 1237333536
I0403 15:09:43.152441 31228 layer_factory.hpp:77] Creating layer inception_4e/5x5
I0403 15:09:43.152478 31228 net.cpp:91] Creating Layer inception_4e/5x5
I0403 15:09:43.152498 31228 net.cpp:425] inception_4e/5x5 <- inception_4e/5x5_reduce
I0403 15:09:43.152521 31228 net.cpp:399] inception_4e/5x5 -> inception_4e/5x5
I0403 15:09:43.154361 31228 net.cpp:141] Setting up inception_4e/5x5
I0403 15:09:43.154391 31228 net.cpp:148] Top shape: 24 128 14 14 (602112)
I0403 15:09:43.154407 31228 net.cpp:156] Memory required for data: 1239741984
I0403 15:09:43.154425 31228 layer_factory.hpp:77] Creating layer inception_4e/relu_5x5
I0403 15:09:43.154444 31228 net.cpp:91] Creating Layer inception_4e/relu_5x5
I0403 15:09:43.154459 31228 net.cpp:425] inception_4e/relu_5x5 <- inception_4e/5x5
I0403 15:09:43.154479 31228 net.cpp:386] inception_4e/relu_5x5 -> inception_4e/5x5 (in-place)
I0403 15:09:43.154680 31228 net.cpp:141] Setting up inception_4e/relu_5x5
I0403 15:09:43.154705 31228 net.cpp:148] Top shape: 24 128 14 14 (602112)
I0403 15:09:43.154718 31228 net.cpp:156] Memory required for data: 1242150432
I0403 15:09:43.154733 31228 layer_factory.hpp:77] Creating layer inception_4e/pool
I0403 15:09:43.154750 31228 net.cpp:91] Creating Layer inception_4e/pool
I0403 15:09:43.154767 31228 net.cpp:425] inception_4e/pool <- inception_4d/output_inception_4d/output_0_split_4
I0403 15:09:43.154786 31228 net.cpp:399] inception_4e/pool -> inception_4e/pool
I0403 15:09:43.154856 31228 net.cpp:141] Setting up inception_4e/pool
I0403 15:09:43.154880 31228 net.cpp:148] Top shape: 24 528 14 14 (2483712)
I0403 15:09:43.154893 31228 net.cpp:156] Memory required for data: 1252085280
I0403 15:09:43.154907 31228 layer_factory.hpp:77] Creating layer inception_4e/pool_proj
I0403 15:09:43.154930 31228 net.cpp:91] Creating Layer inception_4e/pool_proj
I0403 15:09:43.154947 31228 net.cpp:425] inception_4e/pool_proj <- inception_4e/pool
I0403 15:09:43.154966 31228 net.cpp:399] inception_4e/pool_proj -> inception_4e/pool_proj
I0403 15:09:43.156431 31228 net.cpp:141] Setting up inception_4e/pool_proj
I0403 15:09:43.156473 31228 net.cpp:148] Top shape: 24 128 14 14 (602112)
I0403 15:09:43.156491 31228 net.cpp:156] Memory required for data: 1254493728
I0403 15:09:43.156515 31228 layer_factory.hpp:77] Creating layer inception_4e/relu_pool_proj
I0403 15:09:43.156534 31228 net.cpp:91] Creating Layer inception_4e/relu_pool_proj
I0403 15:09:43.156550 31228 net.cpp:425] inception_4e/relu_pool_proj <- inception_4e/pool_proj
I0403 15:09:43.156570 31228 net.cpp:386] inception_4e/relu_pool_proj -> inception_4e/pool_proj (in-place)
I0403 15:09:43.156854 31228 net.cpp:141] Setting up inception_4e/relu_pool_proj
I0403 15:09:43.156882 31228 net.cpp:148] Top shape: 24 128 14 14 (602112)
I0403 15:09:43.156898 31228 net.cpp:156] Memory required for data: 1256902176
I0403 15:09:43.156913 31228 layer_factory.hpp:77] Creating layer inception_4e/output
I0403 15:09:43.156929 31228 net.cpp:91] Creating Layer inception_4e/output
I0403 15:09:43.156944 31228 net.cpp:425] inception_4e/output <- inception_4e/1x1
I0403 15:09:43.156961 31228 net.cpp:425] inception_4e/output <- inception_4e/3x3
I0403 15:09:43.156976 31228 net.cpp:425] inception_4e/output <- inception_4e/5x5
I0403 15:09:43.156992 31228 net.cpp:425] inception_4e/output <- inception_4e/pool_proj
I0403 15:09:43.157008 31228 net.cpp:399] inception_4e/output -> inception_4e/output
I0403 15:09:43.157059 31228 net.cpp:141] Setting up inception_4e/output
I0403 15:09:43.157088 31228 net.cpp:148] Top shape: 24 832 14 14 (3913728)
I0403 15:09:43.157104 31228 net.cpp:156] Memory required for data: 1272557088
I0403 15:09:43.157117 31228 layer_factory.hpp:77] Creating layer pool4/3x3_s2
I0403 15:09:43.157136 31228 net.cpp:91] Creating Layer pool4/3x3_s2
I0403 15:09:43.157152 31228 net.cpp:425] pool4/3x3_s2 <- inception_4e/output
I0403 15:09:43.157171 31228 net.cpp:399] pool4/3x3_s2 -> pool4/3x3_s2
I0403 15:09:43.157238 31228 net.cpp:141] Setting up pool4/3x3_s2
I0403 15:09:43.157260 31228 net.cpp:148] Top shape: 24 832 7 7 (978432)
I0403 15:09:43.157275 31228 net.cpp:156] Memory required for data: 1276470816
I0403 15:09:43.157289 31228 layer_factory.hpp:77] Creating layer pool4/3x3_s2_pool4/3x3_s2_0_split
I0403 15:09:43.157306 31228 net.cpp:91] Creating Layer pool4/3x3_s2_pool4/3x3_s2_0_split
I0403 15:09:43.157321 31228 net.cpp:425] pool4/3x3_s2_pool4/3x3_s2_0_split <- pool4/3x3_s2
I0403 15:09:43.157343 31228 net.cpp:399] pool4/3x3_s2_pool4/3x3_s2_0_split -> pool4/3x3_s2_pool4/3x3_s2_0_split_0
I0403 15:09:43.157363 31228 net.cpp:399] pool4/3x3_s2_pool4/3x3_s2_0_split -> pool4/3x3_s2_pool4/3x3_s2_0_split_1
I0403 15:09:43.157382 31228 net.cpp:399] pool4/3x3_s2_pool4/3x3_s2_0_split -> pool4/3x3_s2_pool4/3x3_s2_0_split_2
I0403 15:09:43.157402 31228 net.cpp:399] pool4/3x3_s2_pool4/3x3_s2_0_split -> pool4/3x3_s2_pool4/3x3_s2_0_split_3
I0403 15:09:43.157490 31228 net.cpp:141] Setting up pool4/3x3_s2_pool4/3x3_s2_0_split
I0403 15:09:43.157518 31228 net.cpp:148] Top shape: 24 832 7 7 (978432)
I0403 15:09:43.157534 31228 net.cpp:148] Top shape: 24 832 7 7 (978432)
I0403 15:09:43.157551 31228 net.cpp:148] Top shape: 24 832 7 7 (978432)
I0403 15:09:43.157565 31228 net.cpp:148] Top shape: 24 832 7 7 (978432)
I0403 15:09:43.157579 31228 net.cpp:156] Memory required for data: 1292125728
I0403 15:09:43.157593 31228 layer_factory.hpp:77] Creating layer inception_5a/1x1
I0403 15:09:43.157614 31228 net.cpp:91] Creating Layer inception_5a/1x1
I0403 15:09:43.157631 31228 net.cpp:425] inception_5a/1x1 <- pool4/3x3_s2_pool4/3x3_s2_0_split_0
I0403 15:09:43.157652 31228 net.cpp:399] inception_5a/1x1 -> inception_5a/1x1
I0403 15:09:43.160461 31228 net.cpp:141] Setting up inception_5a/1x1
I0403 15:09:43.160490 31228 net.cpp:148] Top shape: 24 256 7 7 (301056)
I0403 15:09:43.160511 31228 net.cpp:156] Memory required for data: 1293329952
I0403 15:09:43.160531 31228 layer_factory.hpp:77] Creating layer inception_5a/relu_1x1
I0403 15:09:43.160550 31228 net.cpp:91] Creating Layer inception_5a/relu_1x1
I0403 15:09:43.160567 31228 net.cpp:425] inception_5a/relu_1x1 <- inception_5a/1x1
I0403 15:09:43.160586 31228 net.cpp:386] inception_5a/relu_1x1 -> inception_5a/1x1 (in-place)
I0403 15:09:43.160888 31228 net.cpp:141] Setting up inception_5a/relu_1x1
I0403 15:09:43.160914 31228 net.cpp:148] Top shape: 24 256 7 7 (301056)
I0403 15:09:43.160929 31228 net.cpp:156] Memory required for data: 1294534176
I0403 15:09:43.160944 31228 layer_factory.hpp:77] Creating layer inception_5a/3x3_reduce
I0403 15:09:43.160966 31228 net.cpp:91] Creating Layer inception_5a/3x3_reduce
I0403 15:09:43.160984 31228 net.cpp:425] inception_5a/3x3_reduce <- pool4/3x3_s2_pool4/3x3_s2_0_split_1
I0403 15:09:43.161005 31228 net.cpp:399] inception_5a/3x3_reduce -> inception_5a/3x3_reduce
I0403 15:09:43.163401 31228 net.cpp:141] Setting up inception_5a/3x3_reduce
I0403 15:09:43.163429 31228 net.cpp:148] Top shape: 24 160 7 7 (188160)
I0403 15:09:43.163444 31228 net.cpp:156] Memory required for data: 1295286816
I0403 15:09:43.163462 31228 layer_factory.hpp:77] Creating layer inception_5a/relu_3x3_reduce
I0403 15:09:43.163482 31228 net.cpp:91] Creating Layer inception_5a/relu_3x3_reduce
I0403 15:09:43.163499 31228 net.cpp:425] inception_5a/relu_3x3_reduce <- inception_5a/3x3_reduce
I0403 15:09:43.163521 31228 net.cpp:386] inception_5a/relu_3x3_reduce -> inception_5a/3x3_reduce (in-place)
I0403 15:09:43.163703 31228 net.cpp:141] Setting up inception_5a/relu_3x3_reduce
I0403 15:09:43.163727 31228 net.cpp:148] Top shape: 24 160 7 7 (188160)
I0403 15:09:43.163743 31228 net.cpp:156] Memory required for data: 1296039456
I0403 15:09:43.163756 31228 layer_factory.hpp:77] Creating layer inception_5a/3x3
I0403 15:09:43.163779 31228 net.cpp:91] Creating Layer inception_5a/3x3
I0403 15:09:43.163796 31228 net.cpp:425] inception_5a/3x3 <- inception_5a/3x3_reduce
I0403 15:09:43.163817 31228 net.cpp:399] inception_5a/3x3 -> inception_5a/3x3
I0403 15:09:43.168844 31228 net.cpp:141] Setting up inception_5a/3x3
I0403 15:09:43.168876 31228 net.cpp:148] Top shape: 24 320 7 7 (376320)
I0403 15:09:43.168892 31228 net.cpp:156] Memory required for data: 1297544736
I0403 15:09:43.168911 31228 layer_factory.hpp:77] Creating layer inception_5a/relu_3x3
I0403 15:09:43.168928 31228 net.cpp:91] Creating Layer inception_5a/relu_3x3
I0403 15:09:43.168944 31228 net.cpp:425] inception_5a/relu_3x3 <- inception_5a/3x3
I0403 15:09:43.168963 31228 net.cpp:386] inception_5a/relu_3x3 -> inception_5a/3x3 (in-place)
I0403 15:09:43.169250 31228 net.cpp:141] Setting up inception_5a/relu_3x3
I0403 15:09:43.169278 31228 net.cpp:148] Top shape: 24 320 7 7 (376320)
I0403 15:09:43.169293 31228 net.cpp:156] Memory required for data: 1299050016
I0403 15:09:43.169309 31228 layer_factory.hpp:77] Creating layer inception_5a/5x5_reduce
I0403 15:09:43.169332 31228 net.cpp:91] Creating Layer inception_5a/5x5_reduce
I0403 15:09:43.169349 31228 net.cpp:425] inception_5a/5x5_reduce <- pool4/3x3_s2_pool4/3x3_s2_0_split_2
I0403 15:09:43.169368 31228 net.cpp:399] inception_5a/5x5_reduce -> inception_5a/5x5_reduce
I0403 15:09:43.170528 31228 net.cpp:141] Setting up inception_5a/5x5_reduce
I0403 15:09:43.170557 31228 net.cpp:148] Top shape: 24 32 7 7 (37632)
I0403 15:09:43.170573 31228 net.cpp:156] Memory required for data: 1299200544
I0403 15:09:43.170591 31228 layer_factory.hpp:77] Creating layer inception_5a/relu_5x5_reduce
I0403 15:09:43.170608 31228 net.cpp:91] Creating Layer inception_5a/relu_5x5_reduce
I0403 15:09:43.170624 31228 net.cpp:425] inception_5a/relu_5x5_reduce <- inception_5a/5x5_reduce
I0403 15:09:43.170644 31228 net.cpp:386] inception_5a/relu_5x5_reduce -> inception_5a/5x5_reduce (in-place)
I0403 15:09:43.170941 31228 net.cpp:141] Setting up inception_5a/relu_5x5_reduce
I0403 15:09:43.170966 31228 net.cpp:148] Top shape: 24 32 7 7 (37632)
I0403 15:09:43.170980 31228 net.cpp:156] Memory required for data: 1299351072
I0403 15:09:43.170995 31228 layer_factory.hpp:77] Creating layer inception_5a/5x5
I0403 15:09:43.171016 31228 net.cpp:91] Creating Layer inception_5a/5x5
I0403 15:09:43.171033 31228 net.cpp:425] inception_5a/5x5 <- inception_5a/5x5_reduce
I0403 15:09:43.171053 31228 net.cpp:399] inception_5a/5x5 -> inception_5a/5x5
I0403 15:09:43.172734 31228 net.cpp:141] Setting up inception_5a/5x5
I0403 15:09:43.172775 31228 net.cpp:148] Top shape: 24 128 7 7 (150528)
I0403 15:09:43.172792 31228 net.cpp:156] Memory required for data: 1299953184
I0403 15:09:43.172811 31228 layer_factory.hpp:77] Creating layer inception_5a/relu_5x5
I0403 15:09:43.172828 31228 net.cpp:91] Creating Layer inception_5a/relu_5x5
I0403 15:09:43.172843 31228 net.cpp:425] inception_5a/relu_5x5 <- inception_5a/5x5
I0403 15:09:43.172863 31228 net.cpp:386] inception_5a/relu_5x5 -> inception_5a/5x5 (in-place)
I0403 15:09:43.173048 31228 net.cpp:141] Setting up inception_5a/relu_5x5
I0403 15:09:43.173074 31228 net.cpp:148] Top shape: 24 128 7 7 (150528)
I0403 15:09:43.173087 31228 net.cpp:156] Memory required for data: 1300555296
I0403 15:09:43.173104 31228 layer_factory.hpp:77] Creating layer inception_5a/pool
I0403 15:09:43.173120 31228 net.cpp:91] Creating Layer inception_5a/pool
I0403 15:09:43.173135 31228 net.cpp:425] inception_5a/pool <- pool4/3x3_s2_pool4/3x3_s2_0_split_3
I0403 15:09:43.173156 31228 net.cpp:399] inception_5a/pool -> inception_5a/pool
I0403 15:09:43.173225 31228 net.cpp:141] Setting up inception_5a/pool
I0403 15:09:43.173249 31228 net.cpp:148] Top shape: 24 832 7 7 (978432)
I0403 15:09:43.173264 31228 net.cpp:156] Memory required for data: 1304469024
I0403 15:09:43.173277 31228 layer_factory.hpp:77] Creating layer inception_5a/pool_proj
I0403 15:09:43.173298 31228 net.cpp:91] Creating Layer inception_5a/pool_proj
I0403 15:09:43.173316 31228 net.cpp:425] inception_5a/pool_proj <- inception_5a/pool
I0403 15:09:43.173336 31228 net.cpp:399] inception_5a/pool_proj -> inception_5a/pool_proj
I0403 15:09:43.175613 31228 net.cpp:141] Setting up inception_5a/pool_proj
I0403 15:09:43.175644 31228 net.cpp:148] Top shape: 24 128 7 7 (150528)
I0403 15:09:43.175660 31228 net.cpp:156] Memory required for data: 1305071136
I0403 15:09:43.175678 31228 layer_factory.hpp:77] Creating layer inception_5a/relu_pool_proj
I0403 15:09:43.175696 31228 net.cpp:91] Creating Layer inception_5a/relu_pool_proj
I0403 15:09:43.175714 31228 net.cpp:425] inception_5a/relu_pool_proj <- inception_5a/pool_proj
I0403 15:09:43.175729 31228 net.cpp:386] inception_5a/relu_pool_proj -> inception_5a/pool_proj (in-place)
I0403 15:09:43.176020 31228 net.cpp:141] Setting up inception_5a/relu_pool_proj
I0403 15:09:43.176048 31228 net.cpp:148] Top shape: 24 128 7 7 (150528)
I0403 15:09:43.176064 31228 net.cpp:156] Memory required for data: 1305673248
I0403 15:09:43.176077 31228 layer_factory.hpp:77] Creating layer inception_5a/output
I0403 15:09:43.176095 31228 net.cpp:91] Creating Layer inception_5a/output
I0403 15:09:43.176110 31228 net.cpp:425] inception_5a/output <- inception_5a/1x1
I0403 15:09:43.176126 31228 net.cpp:425] inception_5a/output <- inception_5a/3x3
I0403 15:09:43.176142 31228 net.cpp:425] inception_5a/output <- inception_5a/5x5
I0403 15:09:43.176157 31228 net.cpp:425] inception_5a/output <- inception_5a/pool_proj
I0403 15:09:43.176174 31228 net.cpp:399] inception_5a/output -> inception_5a/output
I0403 15:09:43.176224 31228 net.cpp:141] Setting up inception_5a/output
I0403 15:09:43.176247 31228 net.cpp:148] Top shape: 24 832 7 7 (978432)
I0403 15:09:43.176261 31228 net.cpp:156] Memory required for data: 1309586976
I0403 15:09:43.176275 31228 layer_factory.hpp:77] Creating layer inception_5a/output_inception_5a/output_0_split
I0403 15:09:43.176293 31228 net.cpp:91] Creating Layer inception_5a/output_inception_5a/output_0_split
I0403 15:09:43.176309 31228 net.cpp:425] inception_5a/output_inception_5a/output_0_split <- inception_5a/output
I0403 15:09:43.176327 31228 net.cpp:399] inception_5a/output_inception_5a/output_0_split -> inception_5a/output_inception_5a/output_0_split_0
I0403 15:09:43.176347 31228 net.cpp:399] inception_5a/output_inception_5a/output_0_split -> inception_5a/output_inception_5a/output_0_split_1
I0403 15:09:43.176367 31228 net.cpp:399] inception_5a/output_inception_5a/output_0_split -> inception_5a/output_inception_5a/output_0_split_2
I0403 15:09:43.176385 31228 net.cpp:399] inception_5a/output_inception_5a/output_0_split -> inception_5a/output_inception_5a/output_0_split_3
I0403 15:09:43.176496 31228 net.cpp:141] Setting up inception_5a/output_inception_5a/output_0_split
I0403 15:09:43.176522 31228 net.cpp:148] Top shape: 24 832 7 7 (978432)
I0403 15:09:43.176539 31228 net.cpp:148] Top shape: 24 832 7 7 (978432)
I0403 15:09:43.176554 31228 net.cpp:148] Top shape: 24 832 7 7 (978432)
I0403 15:09:43.176570 31228 net.cpp:148] Top shape: 24 832 7 7 (978432)
I0403 15:09:43.176584 31228 net.cpp:156] Memory required for data: 1325241888
I0403 15:09:43.176597 31228 layer_factory.hpp:77] Creating layer inception_5b/1x1
I0403 15:09:43.176619 31228 net.cpp:91] Creating Layer inception_5b/1x1
I0403 15:09:43.176636 31228 net.cpp:425] inception_5b/1x1 <- inception_5a/output_inception_5a/output_0_split_0
I0403 15:09:43.176657 31228 net.cpp:399] inception_5b/1x1 -> inception_5b/1x1
I0403 15:09:43.180343 31228 net.cpp:141] Setting up inception_5b/1x1
I0403 15:09:43.180372 31228 net.cpp:148] Top shape: 24 384 7 7 (451584)
I0403 15:09:43.180388 31228 net.cpp:156] Memory required for data: 1327048224
I0403 15:09:43.180407 31228 layer_factory.hpp:77] Creating layer inception_5b/relu_1x1
I0403 15:09:43.180426 31228 net.cpp:91] Creating Layer inception_5b/relu_1x1
I0403 15:09:43.180444 31228 net.cpp:425] inception_5b/relu_1x1 <- inception_5b/1x1
I0403 15:09:43.180464 31228 net.cpp:386] inception_5b/relu_1x1 -> inception_5b/1x1 (in-place)
I0403 15:09:43.180768 31228 net.cpp:141] Setting up inception_5b/relu_1x1
I0403 15:09:43.180794 31228 net.cpp:148] Top shape: 24 384 7 7 (451584)
I0403 15:09:43.180809 31228 net.cpp:156] Memory required for data: 1328854560
I0403 15:09:43.180824 31228 layer_factory.hpp:77] Creating layer inception_5b/3x3_reduce
I0403 15:09:43.180846 31228 net.cpp:91] Creating Layer inception_5b/3x3_reduce
I0403 15:09:43.180865 31228 net.cpp:425] inception_5b/3x3_reduce <- inception_5a/output_inception_5a/output_0_split_1
I0403 15:09:43.180883 31228 net.cpp:399] inception_5b/3x3_reduce -> inception_5b/3x3_reduce
I0403 15:09:43.183485 31228 net.cpp:141] Setting up inception_5b/3x3_reduce
I0403 15:09:43.183521 31228 net.cpp:148] Top shape: 24 192 7 7 (225792)
I0403 15:09:43.183537 31228 net.cpp:156] Memory required for data: 1329757728
I0403 15:09:43.183555 31228 layer_factory.hpp:77] Creating layer inception_5b/relu_3x3_reduce
I0403 15:09:43.183574 31228 net.cpp:91] Creating Layer inception_5b/relu_3x3_reduce
I0403 15:09:43.183590 31228 net.cpp:425] inception_5b/relu_3x3_reduce <- inception_5b/3x3_reduce
I0403 15:09:43.183606 31228 net.cpp:386] inception_5b/relu_3x3_reduce -> inception_5b/3x3_reduce (in-place)
I0403 15:09:43.183794 31228 net.cpp:141] Setting up inception_5b/relu_3x3_reduce
I0403 15:09:43.183820 31228 net.cpp:148] Top shape: 24 192 7 7 (225792)
I0403 15:09:43.183833 31228 net.cpp:156] Memory required for data: 1330660896
I0403 15:09:43.183848 31228 layer_factory.hpp:77] Creating layer inception_5b/3x3
I0403 15:09:43.183869 31228 net.cpp:91] Creating Layer inception_5b/3x3
I0403 15:09:43.183887 31228 net.cpp:425] inception_5b/3x3 <- inception_5b/3x3_reduce
I0403 15:09:43.183908 31228 net.cpp:399] inception_5b/3x3 -> inception_5b/3x3
I0403 15:09:43.190438 31228 net.cpp:141] Setting up inception_5b/3x3
I0403 15:09:43.190469 31228 net.cpp:148] Top shape: 24 384 7 7 (451584)
I0403 15:09:43.190485 31228 net.cpp:156] Memory required for data: 1332467232
I0403 15:09:43.190507 31228 layer_factory.hpp:77] Creating layer inception_5b/relu_3x3
I0403 15:09:43.190526 31228 net.cpp:91] Creating Layer inception_5b/relu_3x3
I0403 15:09:43.190543 31228 net.cpp:425] inception_5b/relu_3x3 <- inception_5b/3x3
I0403 15:09:43.190560 31228 net.cpp:386] inception_5b/relu_3x3 -> inception_5b/3x3 (in-place)
I0403 15:09:43.190855 31228 net.cpp:141] Setting up inception_5b/relu_3x3
I0403 15:09:43.190882 31228 net.cpp:148] Top shape: 24 384 7 7 (451584)
I0403 15:09:43.190897 31228 net.cpp:156] Memory required for data: 1334273568
I0403 15:09:43.190912 31228 layer_factory.hpp:77] Creating layer inception_5b/5x5_reduce
I0403 15:09:43.190951 31228 net.cpp:91] Creating Layer inception_5b/5x5_reduce
I0403 15:09:43.190969 31228 net.cpp:425] inception_5b/5x5_reduce <- inception_5a/output_inception_5a/output_0_split_2
I0403 15:09:43.190989 31228 net.cpp:399] inception_5b/5x5_reduce -> inception_5b/5x5_reduce
I0403 15:09:43.192271 31228 net.cpp:141] Setting up inception_5b/5x5_reduce
I0403 15:09:43.192301 31228 net.cpp:148] Top shape: 24 48 7 7 (56448)
I0403 15:09:43.192317 31228 net.cpp:156] Memory required for data: 1334499360
I0403 15:09:43.192334 31228 layer_factory.hpp:77] Creating layer inception_5b/relu_5x5_reduce
I0403 15:09:43.192353 31228 net.cpp:91] Creating Layer inception_5b/relu_5x5_reduce
I0403 15:09:43.192368 31228 net.cpp:425] inception_5b/relu_5x5_reduce <- inception_5b/5x5_reduce
I0403 15:09:43.192387 31228 net.cpp:386] inception_5b/relu_5x5_reduce -> inception_5b/5x5_reduce (in-place)
I0403 15:09:43.192755 31228 net.cpp:141] Setting up inception_5b/relu_5x5_reduce
I0403 15:09:43.192781 31228 net.cpp:148] Top shape: 24 48 7 7 (56448)
I0403 15:09:43.192796 31228 net.cpp:156] Memory required for data: 1334725152
I0403 15:09:43.192811 31228 layer_factory.hpp:77] Creating layer inception_5b/5x5
I0403 15:09:43.192831 31228 net.cpp:91] Creating Layer inception_5b/5x5
I0403 15:09:43.192847 31228 net.cpp:425] inception_5b/5x5 <- inception_5b/5x5_reduce
I0403 15:09:43.192865 31228 net.cpp:399] inception_5b/5x5 -> inception_5b/5x5
I0403 15:09:43.194910 31228 net.cpp:141] Setting up inception_5b/5x5
I0403 15:09:43.194937 31228 net.cpp:148] Top shape: 24 128 7 7 (150528)
I0403 15:09:43.194952 31228 net.cpp:156] Memory required for data: 1335327264
I0403 15:09:43.194969 31228 layer_factory.hpp:77] Creating layer inception_5b/relu_5x5
I0403 15:09:43.194986 31228 net.cpp:91] Creating Layer inception_5b/relu_5x5
I0403 15:09:43.195003 31228 net.cpp:425] inception_5b/relu_5x5 <- inception_5b/5x5
I0403 15:09:43.195022 31228 net.cpp:386] inception_5b/relu_5x5 -> inception_5b/5x5 (in-place)
I0403 15:09:43.195211 31228 net.cpp:141] Setting up inception_5b/relu_5x5
I0403 15:09:43.195235 31228 net.cpp:148] Top shape: 24 128 7 7 (150528)
I0403 15:09:43.195250 31228 net.cpp:156] Memory required for data: 1335929376
I0403 15:09:43.195264 31228 layer_factory.hpp:77] Creating layer inception_5b/pool
I0403 15:09:43.195283 31228 net.cpp:91] Creating Layer inception_5b/pool
I0403 15:09:43.195300 31228 net.cpp:425] inception_5b/pool <- inception_5a/output_inception_5a/output_0_split_3
I0403 15:09:43.195318 31228 net.cpp:399] inception_5b/pool -> inception_5b/pool
I0403 15:09:43.195389 31228 net.cpp:141] Setting up inception_5b/pool
I0403 15:09:43.195412 31228 net.cpp:148] Top shape: 24 832 7 7 (978432)
I0403 15:09:43.195426 31228 net.cpp:156] Memory required for data: 1339843104
I0403 15:09:43.195441 31228 layer_factory.hpp:77] Creating layer inception_5b/pool_proj
I0403 15:09:43.195461 31228 net.cpp:91] Creating Layer inception_5b/pool_proj
I0403 15:09:43.195478 31228 net.cpp:425] inception_5b/pool_proj <- inception_5b/pool
I0403 15:09:43.195499 31228 net.cpp:399] inception_5b/pool_proj -> inception_5b/pool_proj
I0403 15:09:43.197746 31228 net.cpp:141] Setting up inception_5b/pool_proj
I0403 15:09:43.197777 31228 net.cpp:148] Top shape: 24 128 7 7 (150528)
I0403 15:09:43.197793 31228 net.cpp:156] Memory required for data: 1340445216
I0403 15:09:43.197811 31228 layer_factory.hpp:77] Creating layer inception_5b/relu_pool_proj
I0403 15:09:43.197829 31228 net.cpp:91] Creating Layer inception_5b/relu_pool_proj
I0403 15:09:43.197844 31228 net.cpp:425] inception_5b/relu_pool_proj <- inception_5b/pool_proj
I0403 15:09:43.197863 31228 net.cpp:386] inception_5b/relu_pool_proj -> inception_5b/pool_proj (in-place)
I0403 15:09:43.198160 31228 net.cpp:141] Setting up inception_5b/relu_pool_proj
I0403 15:09:43.198187 31228 net.cpp:148] Top shape: 24 128 7 7 (150528)
I0403 15:09:43.198204 31228 net.cpp:156] Memory required for data: 1341047328
I0403 15:09:43.198217 31228 layer_factory.hpp:77] Creating layer inception_5b/output
I0403 15:09:43.198235 31228 net.cpp:91] Creating Layer inception_5b/output
I0403 15:09:43.198264 31228 net.cpp:425] inception_5b/output <- inception_5b/1x1
I0403 15:09:43.198282 31228 net.cpp:425] inception_5b/output <- inception_5b/3x3
I0403 15:09:43.198297 31228 net.cpp:425] inception_5b/output <- inception_5b/5x5
I0403 15:09:43.198313 31228 net.cpp:425] inception_5b/output <- inception_5b/pool_proj
I0403 15:09:43.198333 31228 net.cpp:399] inception_5b/output -> inception_5b/output
I0403 15:09:43.198382 31228 net.cpp:141] Setting up inception_5b/output
I0403 15:09:43.198406 31228 net.cpp:148] Top shape: 24 1024 7 7 (1204224)
I0403 15:09:43.198421 31228 net.cpp:156] Memory required for data: 1345864224
I0403 15:09:43.198436 31228 layer_factory.hpp:77] Creating layer pool5/7x7_s1
I0403 15:09:43.198457 31228 net.cpp:91] Creating Layer pool5/7x7_s1
I0403 15:09:43.198472 31228 net.cpp:425] pool5/7x7_s1 <- inception_5b/output
I0403 15:09:43.198490 31228 net.cpp:399] pool5/7x7_s1 -> pool5/7x7_s1
I0403 15:09:43.198705 31228 net.cpp:141] Setting up pool5/7x7_s1
I0403 15:09:43.198730 31228 net.cpp:148] Top shape: 24 1024 1 1 (24576)
I0403 15:09:43.198745 31228 net.cpp:156] Memory required for data: 1345962528
I0403 15:09:43.198760 31228 layer_factory.hpp:77] Creating layer pool5/drop_7x7_s1
I0403 15:09:43.198776 31228 net.cpp:91] Creating Layer pool5/drop_7x7_s1
I0403 15:09:43.198792 31228 net.cpp:425] pool5/drop_7x7_s1 <- pool5/7x7_s1
I0403 15:09:43.198812 31228 net.cpp:386] pool5/drop_7x7_s1 -> pool5/7x7_s1 (in-place)
I0403 15:09:43.198860 31228 net.cpp:141] Setting up pool5/drop_7x7_s1
I0403 15:09:43.198882 31228 net.cpp:148] Top shape: 24 1024 1 1 (24576)
I0403 15:09:43.198896 31228 net.cpp:156] Memory required for data: 1346060832
I0403 15:09:43.198910 31228 layer_factory.hpp:77] Creating layer loss3/classifier_plantvillage
I0403 15:09:43.198931 31228 net.cpp:91] Creating Layer loss3/classifier_plantvillage
I0403 15:09:43.198947 31228 net.cpp:425] loss3/classifier_plantvillage <- pool5/7x7_s1
I0403 15:09:43.198968 31228 net.cpp:399] loss3/classifier_plantvillage -> loss3/classifier_plantvillage
I0403 15:09:43.199386 31228 net.cpp:141] Setting up loss3/classifier_plantvillage
I0403 15:09:43.199410 31228 net.cpp:148] Top shape: 24 38 (912)
I0403 15:09:43.199425 31228 net.cpp:156] Memory required for data: 1346064480
I0403 15:09:43.199442 31228 layer_factory.hpp:77] Creating layer loss3/classifier_plantvillage_loss3/classifier_plantvillage_0_split
I0403 15:09:43.199462 31228 net.cpp:91] Creating Layer loss3/classifier_plantvillage_loss3/classifier_plantvillage_0_split
I0403 15:09:43.199479 31228 net.cpp:425] loss3/classifier_plantvillage_loss3/classifier_plantvillage_0_split <- loss3/classifier_plantvillage
I0403 15:09:43.199497 31228 net.cpp:399] loss3/classifier_plantvillage_loss3/classifier_plantvillage_0_split -> loss3/classifier_plantvillage_loss3/classifier_plantvillage_0_split_0
I0403 15:09:43.199534 31228 net.cpp:399] loss3/classifier_plantvillage_loss3/classifier_plantvillage_0_split -> loss3/classifier_plantvillage_loss3/classifier_plantvillage_0_split_1
I0403 15:09:43.199555 31228 net.cpp:399] loss3/classifier_plantvillage_loss3/classifier_plantvillage_0_split -> loss3/classifier_plantvillage_loss3/classifier_plantvillage_0_split_2
I0403 15:09:43.199578 31228 net.cpp:399] loss3/classifier_plantvillage_loss3/classifier_plantvillage_0_split -> loss3/classifier_plantvillage_loss3/classifier_plantvillage_0_split_3
I0403 15:09:43.199681 31228 net.cpp:141] Setting up loss3/classifier_plantvillage_loss3/classifier_plantvillage_0_split
I0403 15:09:43.199704 31228 net.cpp:148] Top shape: 24 38 (912)
I0403 15:09:43.199722 31228 net.cpp:148] Top shape: 24 38 (912)
I0403 15:09:43.199738 31228 net.cpp:148] Top shape: 24 38 (912)
I0403 15:09:43.199751 31228 net.cpp:148] Top shape: 24 38 (912)
I0403 15:09:43.199765 31228 net.cpp:156] Memory required for data: 1346079072
I0403 15:09:43.199780 31228 layer_factory.hpp:77] Creating layer loss1/loss
I0403 15:09:43.199813 31228 net.cpp:91] Creating Layer loss1/loss
I0403 15:09:43.199831 31228 net.cpp:425] loss1/loss <- loss1/classifier_plantvillage_loss1/classifier_plantvillage_0_split_0
I0403 15:09:43.199859 31228 net.cpp:425] loss1/loss <- label_data_1_split_0
…
