…
I0403 15:21:25.017238 31518 net.cpp:313] The NetState phase (1) differed from the phase (0) specified by a rule in layer data
I0403 15:21:25.018659 31518 net.cpp:49] Initializing net from parameters: 
state {
  phase: TEST
}
layer {
  name: "data"
  type: "Data"
  top: "data"
  top: "label"
  include {
    phase: TEST
  }
  transform_param {
    mirror: false
    crop_size: 224
    mean_file: "/home/mohanty/data/final_dataset/lmdb/grayscale-80-20/mean.binaryproto"
  }
  data_param {
    source: "/home/mohanty/data/final_dataset/lmdb/grayscale-80-20/test_db"
    batch_size: 24
    backend: LMDB
  }
}
layer {
  name: "conv1/7x7_s2"
  type: "Convolution"
  bottom: "data"
  top: "conv1/7x7_s2"
  param {
    lr_mult: 1
    decay_mult: 1
  }
  param {
    lr_mult: 2
    decay_mult: 0
  }
  convolution_param {
    num_output: 64
    pad: 3
    kernel_size: 7
    stride: 2
    weight_filler {
      type: "xavier"
      std: 0.1
    }
    bias_filler {
      type: "constant"
      value: 0.2
    }
  }
}
layer {
  name: "conv1/relu_7x7"
  type: "ReLU"
  bottom: "conv1/7x7_s2"
  top: "conv1/7x7_s2"
}
layer {
  name: "pool1/3x3_s2"
  type: "Pooling"
  bottom: "conv1/7x7_s2"
  top: "pool1/3x3_s2"
  pooling_param {
    pool: MAX
    kernel_size: 3
    stride: 2
  }
}
layer {
  name: "pool1/norm1"
  type: "LRN"
  bottom: "pool1/3x3_s2"
  top: "pool1/norm1"
  lrn_param {
    local_size: 5
    alpha: 0.0001
    beta: 0.75
  }
}
layer {
  name: "conv2/3x3_reduce"
  type: "Convolution"
  bottom: "pool1/norm1"
  top: "conv2/3x3_reduce"
  param {
    lr_mult: 1
    decay_mult: 1
  }
  param {
    lr_mult: 2
    decay_mult: 0
  }
  convolution_param {
    num_output: 64
    kernel_size: 1
    weight_filler {
      type: "xavier"
      std: 0.1
    }
    bias_filler {
      type: "constant"
      value: 0.2
    }
  }
}
layer {
  name: "conv2/relu_3x3_reduce"
  type: "ReLU"
  bottom: "conv2/3x3_reduce"
  top: "conv2/3x3_reduce"
}
layer {
  name: "conv2/3x3"
  type: "Convolution"
  bottom: "conv2/3x3_reduce"
  top: "conv2/3x3"
  param {
    lr_mult: 1
    decay_mult: 1
  }
  param {
    lr_mult: 2
    decay_mult: 0
  }
  convolution_param {
    num_output: 192
    pad: 1
    kernel_size: 3
    weight_filler {
      type: "xavier"
      std: 0.03
    }
    bias_filler {
      type: "constant"
      value: 0.2
    }
  }
}
layer {
  name: "conv2/relu_3x3"
  type: "ReLU"
  bottom: "conv2/3x3"
  top: "conv2/3x3"
}
layer {
  name: "conv2/norm2"
  type: "LRN"
  bottom: "conv2/3x3"
  top: "conv2/norm2"
  lrn_param {
    local_size: 5
    alpha: 0.0001
    beta: 0.75
  }
}
layer {
  name: "pool2/3x3_s2"
  type: "Pooling"
  bottom: "conv2/norm2"
  top: "pool2/3x3_s2"
  pooling_param {
    pool: MAX
    kernel_size: 3
    stride: 2
  }
}
layer {
  name: "inception_3a/1x1"
  type: "Convolution"
  bottom: "pool2/3x3_s2"
  top: "inception_3a/1x1"
  param {
    lr_mult: 1
    decay_mult: 1
  }
  param {
    lr_mult: 2
    decay_mult: 0
  }
  convolution_param {
    num_output: 64
    kernel_size: 1
    weight_filler {
      type: "xavier"
      std: 0.03
    }
    bias_filler {
      type: "constant"
      value: 0.2
    }
  }
}
layer {
  name: "inception_3a/relu_1x1"
  type: "ReLU"
  bottom: "inception_3a/1x1"
  top: "inception_3a/1x1"
}
layer {
  name: "inception_3a/3x3_reduce"
  type: "Convolution"
  bottom: "pool2/3x3_s2"
  top: "inception_3a/3x3_reduce"
  param {
    lr_mult: 1
    decay_mult: 1
  }
  param {
    lr_mult: 2
    decay_mult: 0
  }
  convolution_param {
    num_output: 96
    kernel_size: 1
    weight_filler {
      type: "xavier"
      std: 0.09
    }
    bias_filler {
      type: "constant"
      value: 0.2
    }
  }
}
layer {
  name: "inception_3a/relu_3x3_reduce"
  type: "ReLU"
  bottom: "inception_3a/3x3_reduce"
  top: "inception_3a/3x3_reduce"
}
layer {
  name: "inception_3a/3x3"
  type: "Convolution"
  bottom: "inception_3a/3x3_reduce"
  top: "inception_3a/3x3"
  param {
    lr_mult: 1
    decay_mult: 1
  }
  param {
    lr_mult: 2
    decay_mult: 0
  }
  convolution_param {
    num_output: 128
    pad: 1
    kernel_size: 3
    weight_filler {
      type: "xavier"
      std: 0.03
    }
    bias_filler {
      type: "constant"
      value: 0.2
    }
  }
}
layer {
  name: "inception_3a/relu_3x3"
  type: "ReLU"
  bottom: "inception_3a/3x3"
  top: "inception_3a/3x3"
}
layer {
  name: "inception_3a/5x5_reduce"
  type: "Convolution"
  bottom: "pool2/3x3_s2"
  top: "inception_3a/5x5_reduce"
  param {
    lr_mult: 1
    decay_mult: 1
  }
  param {
    lr_mult: 2
    decay_mult: 0
  }
  convolution_param {
    num_output: 16
    kernel_size: 1
    weight_filler {
      type: "xavier"
      std: 0.2
    }
    bias_filler {
      type: "constant"
      value: 0.2
    }
  }
}
layer {
  name: "inception_3a/relu_5x5_reduce"
  type: "ReLU"
  bottom: "inception_3a/5x5_reduce"
  top: "inception_3a/5x5_reduce"
}
layer {
  name: "inception_3a/5x5"
  type: "Convolution"
  bottom: "inception_3a/5x5_reduce"
  top: "inception_3a/5x5"
  param {
    lr_mult: 1
    decay_mult: 1
  }
  param {
    lr_mult: 2
    decay_mult: 0
  }
  convolution_param {
    num_output: 32
    pad: 2
    kernel_size: 5
    weight_filler {
      type: "xavier"
      std: 0.03
    }
    bias_filler {
      type: "constant"
      value: 0.2
    }
  }
}
layer {
  name: "inception_3a/relu_5x5"
  type: "ReLU"
  bottom: "inception_3a/5x5"
  top: "inception_3a/5x5"
}
layer {
  name: "inception_3a/pool"
  type: "Pooling"
  bottom: "pool2/3x3_s2"
  top: "inception_3a/pool"
  pooling_param {
    pool: MAX
    kernel_size: 3
    stride: 1
    pad: 1
  }
}
layer {
  name: "inception_3a/pool_proj"
  type: "Convolution"
  bottom: "inception_3a/pool"
  top: "inception_3a/pool_proj"
  param {
    lr_mult: 1
    decay_mult: 1
  }
  param {
    lr_mult: 2
    decay_mult: 0
  }
  convolution_param {
    num_output: 32
    kernel_size: 1
    weight_filler {
      type: "xavier"
      std: 0.1
    }
    bias_filler {
      type: "constant"
      value: 0.2
    }
  }
}
layer {
  name: "inception_3a/relu_pool_proj"
  type: "ReLU"
  bottom: "inception_3a/pool_proj"
  top: "inception_3a/pool_proj"
}
layer {
  name: "inception_3a/output"
  type: "Concat"
  bottom: "inception_3a/1x1"
  bottom: "inception_3a/3x3"
  bottom: "inception_3a/5x5"
  bottom: "inception_3a/pool_proj"
  top: "inception_3a/output"
}
layer {
  name: "inception_3b/1x1"
  type: "Convolution"
  bottom: "inception_3a/output"
  top: "inception_3b/1x1"
  param {
    lr_mult: 1
    decay_mult: 1
  }
  param {
    lr_mult: 2
    decay_mult: 0
  }
  convolution_param {
    num_output: 128
    kernel_size: 1
    weight_filler {
      type: "xavier"
      std: 0.03
    }
    bias_filler {
      type: "constant"
      value: 0.2
    }
  }
}
layer {
  name: "inception_3b/relu_1x1"
  type: "ReLU"
  bottom: "inception_3b/1x1"
  top: "inception_3b/1x1"
}
layer {
  name: "inception_3b/3x3_reduce"
  type: "Convolution"
  bottom: "inception_3a/output"
  top: "inception_3b/3x3_reduce"
  param {
    lr_mult: 1
    decay_mult: 1
  }
  param {
    lr_mult: 2
    decay_mult: 0
  }
  convolution_param {
    num_output: 128
    kernel_size: 1
    weight_filler {
      type: "xavier"
      std: 0.09
    }
    bias_filler {
      type: "constant"
      value: 0.2
    }
  }
}
layer {
  name: "inception_3b/relu_3x3_reduce"
  type: "ReLU"
  bottom: "inception_3b/3x3_reduce"
  top: "inception_3b/3x3_reduce"
}
layer {
  name: "inception_3b/3x3"
  type: "Convolution"
  bottom: "inception_3b/3x3_reduce"
  top: "inception_3b/3x3"
  param {
    lr_mult: 1
    decay_mult: 1
  }
  param {
    lr_mult: 2
    decay_mult: 0
  }
  convolution_param {
    num_output: 192
    pad: 1
    kernel_size: 3
    weight_filler {
      type: "xavier"
      std: 0.03
    }
    bias_filler {
      type: "constant"
      value: 0.2
    }
  }
}
layer {
  name: "inception_3b/relu_3x3"
  type: "ReLU"
  bottom: "inception_3b/3x3"
  top: "inception_3b/3x3"
}
layer {
  name: "inception_3b/5x5_reduce"
  type: "Convolution"
  bottom: "inception_3a/output"
  top: "inception_3b/5x5_reduce"
  param {
    lr_mult: 1
    decay_mult: 1
  }
  param {
    lr_mult: 2
    decay_mult: 0
  }
  convolution_param {
    num_output: 32
    kernel_size: 1
    weight_filler {
      type: "xavier"
      std: 0.2
    }
    bias_filler {
      type: "constant"
      value: 0.2
    }
  }
}
layer {
  name: "inception_3b/relu_5x5_reduce"
  type: "ReLU"
  bottom: "inception_3b/5x5_reduce"
  top: "inception_3b/5x5_reduce"
}
layer {
  name: "inception_3b/5x5"
  type: "Convolution"
  bottom: "inception_3b/5x5_reduce"
  top: "inception_3b/5x5"
  param {
    lr_mult: 1
    decay_mult: 1
  }
  param {
    lr_mult: 2
    decay_mult: 0
  }
  convolution_param {
    num_output: 96
    pad: 2
    kernel_size: 5
    weight_filler {
      type: "xavier"
      std: 0.03
    }
    bias_filler {
      type: "constant"
      value: 0.2
    }
  }
}
layer {
  name: "inception_3b/relu_5x5"
  type: "ReLU"
  bottom: "inception_3b/5x5"
  top: "inception_3b/5x5"
}
layer {
  name: "inception_3b/pool"
  type: "Pooling"
  bottom: "inception_3a/output"
  top: "inception_3b/pool"
  pooling_param {
    pool: MAX
    kernel_size: 3
    stride: 1
    pad: 1
  }
}
layer {
  name: "inception_3b/pool_proj"
  type: "Convolution"
  bottom: "inception_3b/pool"
  top: "inception_3b/pool_proj"
  param {
    lr_mult: 1
    decay_mult: 1
  }
  param {
    lr_mult: 2
    decay_mult: 0
  }
  convolution_param {
    num_output: 64
    kernel_size: 1
    weight_filler {
      type: "xavier"
      std: 0.1
    }
    bias_filler {
      type: "constant"
      value: 0.2
    }
  }
}
layer {
  name: "inception_3b/relu_pool_proj"
  type: "ReLU"
  bottom: "inception_3b/pool_proj"
  top: "inception_3b/pool_proj"
}
layer {
  name: "inception_3b/output"
  type: "Concat"
  bottom: "inception_3b/1x1"
  bottom: "inception_3b/3x3"
  bottom: "inception_3b/5x5"
  bottom: "inception_3b/pool_proj"
  top: "inception_3b/output"
}
layer {
  name: "pool3/3x3_s2"
  type: "Pooling"
  bottom: "inception_3b/output"
  top: "pool3/3x3_s2"
  pooling_param {
    pool: MAX
    kernel_size: 3
    stride: 2
  }
}
layer {
  name: "inception_4a/1x1"
  type: "Convolution"
  bottom: "pool3/3x3_s2"
  top: "inception_4a/1x1"
  param {
    lr_mult: 1
    decay_mult: 1
  }
  param {
    lr_mult: 2
    decay_mult: 0
  }
  convolution_param {
    num_output: 192
    kernel_size: 1
    weight_filler {
      type: "xavier"
      std: 0.03
    }
    bias_filler {
      type: "constant"
      value: 0.2
    }
  }
}
layer {
  name: "inception_4a/relu_1x1"
  type: "ReLU"
  bottom: "inception_4a/1x1"
  top: "inception_4a/1x1"
}
layer {
  name: "inception_4a/3x3_reduce"
  type: "Convolution"
  bottom: "pool3/3x3_s2"
  top: "inception_4a/3x3_reduce"
  param {
    lr_mult: 1
    decay_mult: 1
  }
  param {
    lr_mult: 2
    decay_mult: 0
  }
  convolution_param {
    num_output: 96
    kernel_size: 1
    weight_filler {
      type: "xavier"
      std: 0.09
    }
    bias_filler {
      type: "constant"
      value: 0.2
    }
  }
}
layer {
  name: "inception_4a/relu_3x3_reduce"
  type: "ReLU"
  bottom: "inception_4a/3x3_reduce"
  top: "inception_4a/3x3_reduce"
}
layer {
  name: "inception_4a/3x3"
  type: "Convolution"
  bottom: "inception_4a/3x3_reduce"
  top: "inception_4a/3x3"
  param {
    lr_mult: 1
    decay_mult: 1
  }
  param {
    lr_mult: 2
    decay_mult: 0
  }
  convolution_param {
    num_output: 208
    pad: 1
    kernel_size: 3
    weight_filler {
      type: "xavier"
      std: 0.03
    }
    bias_filler {
      type: "constant"
      value: 0.2
    }
  }
}
layer {
  name: "inception_4a/relu_3x3"
  type: "ReLU"
  bottom: "inception_4a/3x3"
  top: "inception_4a/3x3"
}
layer {
  name: "inception_4a/5x5_reduce"
  type: "Convolution"
  bottom: "pool3/3x3_s2"
  top: "inception_4a/5x5_reduce"
  param {
    lr_mult: 1
    decay_mult: 1
  }
  param {
    lr_mult: 2
    decay_mult: 0
  }
  convolution_param {
    num_output: 16
    kernel_size: 1
    weight_filler {
      type: "xavier"
      std: 0.2
    }
    bias_filler {
      type: "constant"
      value: 0.2
    }
  }
}
layer {
  name: "inception_4a/relu_5x5_reduce"
  type: "ReLU"
  bottom: "inception_4a/5x5_reduce"
  top: "inception_4a/5x5_reduce"
}
layer {
  name: "inception_4a/5x5"
  type: "Convolution"
  bottom: "inception_4a/5x5_reduce"
  top: "inception_4a/5x5"
  param {
    lr_mult: 1
    decay_mult: 1
  }
  param {
    lr_mult: 2
    decay_mult: 0
  }
  convolution_param {
    num_output: 48
    pad: 2
    kernel_size: 5
    weight_filler {
      type: "xavier"
      std: 0.03
    }
    bias_filler {
      type: "constant"
      value: 0.2
    }
  }
}
layer {
  name: "inception_4a/relu_5x5"
  type: "ReLU"
  bottom: "inception_4a/5x5"
  top: "inception_4a/5x5"
}
layer {
  name: "inception_4a/pool"
  type: "Pooling"
  bottom: "pool3/3x3_s2"
  top: "inception_4a/pool"
  pooling_param {
    pool: MAX
    kernel_size: 3
    stride: 1
    pad: 1
  }
}
layer {
  name: "inception_4a/pool_proj"
  type: "Convolution"
  bottom: "inception_4a/pool"
  top: "inception_4a/pool_proj"
  param {
    lr_mult: 1
    decay_mult: 1
  }
  param {
    lr_mult: 2
    decay_mult: 0
  }
  convolution_param {
    num_output: 64
    kernel_size: 1
    weight_filler {
      type: "xavier"
      std: 0.1
    }
    bias_filler {
      type: "constant"
      value: 0.2
    }
  }
}
layer {
  name: "inception_4a/relu_pool_proj"
  type: "ReLU"
  bottom: "inception_4a/pool_proj"
  top: "inception_4a/pool_proj"
}
layer {
  name: "inception_4a/output"
  type: "Concat"
  bottom: "inception_4a/1x1"
  bottom: "inception_4a/3x3"
  bottom: "inception_4a/5x5"
  bottom: "inception_4a/pool_proj"
  top: "inception_4a/output"
}
layer {
  name: "loss1/ave_pool"
  type: "Pooling"
  bottom: "inception_4a/output"
  top: "loss1/ave_pool"
  pooling_param {
    pool: AVE
    kernel_size: 5
    stride: 3
  }
}
layer {
  name: "loss1/conv"
  type: "Convolution"
  bottom: "loss1/ave_pool"
  top: "loss1/conv"
  param {
    lr_mult: 1
    decay_mult: 1
  }
  param {
    lr_mult: 2
    decay_mult: 0
  }
  convolution_param {
    num_output: 128
    kernel_size: 1
    weight_filler {
      type: "xavier"
      std: 0.08
    }
    bias_filler {
      type: "constant"
      value: 0.2
    }
  }
}
layer {
  name: "loss1/relu_conv"
  type: "ReLU"
  bottom: "loss1/conv"
  top: "loss1/conv"
}
layer {
  name: "loss1/fc"
  type: "InnerProduct"
  bottom: "loss1/conv"
  top: "loss1/fc"
  param {
    lr_mult: 1
    decay_mult: 1
  }
  param {
    lr_mult: 2
    decay_mult: 0
  }
  inner_product_param {
    num_output: 1024
    weight_filler {
      type: "xavier"
      std: 0.02
    }
    bias_filler {
      type: "constant"
      value: 0.2
    }
  }
}
layer {
  name: "loss1/relu_fc"
  type: "ReLU"
  bottom: "loss1/fc"
  top: "loss1/fc"
}
layer {
  name: "loss1/drop_fc"
  type: "Dropout"
  bottom: "loss1/fc"
  top: "loss1/fc"
  dropout_param {
    dropout_ratio: 0.7
  }
}
layer {
  name: "loss1/classifier_plantvillage"
  type: "InnerProduct"
  bottom: "loss1/fc"
  top: "loss1/classifier_plantvillage"
  param {
    lr_mult: 1
    decay_mult: 1
  }
  param {
    lr_mult: 2
    decay_mult: 0
  }
  inner_product_param {
    num_output: 38
    weight_filler {
      type: "xavier"
      std: 0.0009765625
    }
    bias_filler {
      type: "constant"
      value: 0
    }
  }
}
layer {
  name: "inception_4b/1x1"
  type: "Convolution"
  bottom: "inception_4a/output"
  top: "inception_4b/1x1"
  param {
    lr_mult: 1
    decay_mult: 1
  }
  param {
    lr_mult: 2
    decay_mult: 0
  }
  convolution_param {
    num_output: 160
    kernel_size: 1
    weight_filler {
      type: "xavier"
      std: 0.03
    }
    bias_filler {
      type: "constant"
      value: 0.2
    }
  }
}
layer {
  name: "inception_4b/relu_1x1"
  type: "ReLU"
  bottom: "inception_4b/1x1"
  top: "inception_4b/1x1"
}
layer {
  name: "inception_4b/3x3_reduce"
  type: "Convolution"
  bottom: "inception_4a/output"
  top: "inception_4b/3x3_reduce"
  param {
    lr_mult: 1
    decay_mult: 1
  }
  param {
    lr_mult: 2
    decay_mult: 0
  }
  convolution_param {
    num_output: 112
    kernel_size: 1
    weight_filler {
      type: "xavier"
      std: 0.09
    }
    bias_filler {
      type: "constant"
      value: 0.2
    }
  }
}
layer {
  name: "inception_4b/relu_3x3_reduce"
  type: "ReLU"
  bottom: "inception_4b/3x3_reduce"
  top: "inception_4b/3x3_reduce"
}
layer {
  name: "inception_4b/3x3"
  type: "Convolution"
  bottom: "inception_4b/3x3_reduce"
  top: "inception_4b/3x3"
  param {
    lr_mult: 1
    decay_mult: 1
  }
  param {
    lr_mult: 2
    decay_mult: 0
  }
  convolution_param {
    num_output: 224
    pad: 1
    kernel_size: 3
    weight_filler {
      type: "xavier"
      std: 0.03
    }
    bias_filler {
      type: "constant"
      value: 0.2
    }
  }
}
layer {
  name: "inception_4b/relu_3x3"
  type: "ReLU"
  bottom: "inception_4b/3x3"
  top: "inception_4b/3x3"
}
layer {
  name: "inception_4b/5x5_reduce"
  type: "Convolution"
  bottom: "inception_4a/output"
  top: "inception_4b/5x5_reduce"
  param {
    lr_mult: 1
    decay_mult: 1
  }
  param {
    lr_mult: 2
    decay_mult: 0
  }
  convolution_param {
    num_output: 24
    kernel_size: 1
    weight_filler {
      type: "xavier"
      std: 0.2
    }
    bias_filler {
      type: "constant"
      value: 0.2
    }
  }
}
layer {
  name: "inception_4b/relu_5x5_reduce"
  type: "ReLU"
  bottom: "inception_4b/5x5_reduce"
  top: "inception_4b/5x5_reduce"
}
layer {
  name: "inception_4b/5x5"
  type: "Convolution"
  bottom: "inception_4b/5x5_reduce"
  top: "inception_4b/5x5"
  param {
    lr_mult: 1
    decay_mult: 1
  }
  param {
    lr_mult: 2
    decay_mult: 0
  }
  convolution_param {
    num_output: 64
    pad: 2
    kernel_size: 5
    weight_filler {
      type: "xavier"
      std: 0.03
    }
    bias_filler {
      type: "constant"
      value: 0.2
    }
  }
}
layer {
  name: "inception_4b/relu_5x5"
  type: "ReLU"
  bottom: "inception_4b/5x5"
  top: "inception_4b/5x5"
}
layer {
  name: "inception_4b/pool"
  type: "Pooling"
  bottom: "inception_4a/output"
  top: "inception_4b/pool"
  pooling_param {
    pool: MAX
    kernel_size: 3
    stride: 1
    pad: 1
  }
}
layer {
  name: "inception_4b/pool_proj"
  type: "Convolution"
  bottom: "inception_4b/pool"
  top: "inception_4b/pool_proj"
  param {
    lr_mult: 1
    decay_mult: 1
  }
  param {
    lr_mult: 2
    decay_mult: 0
  }
  convolution_param {
    num_output: 64
    kernel_size: 1
    weight_filler {
      type: "xavier"
      std: 0.1
    }
    bias_filler {
      type: "constant"
      value: 0.2
    }
  }
}
layer {
  name: "inception_4b/relu_pool_proj"
  type: "ReLU"
  bottom: "inception_4b/pool_proj"
  top: "inception_4b/pool_proj"
}
layer {
  name: "inception_4b/output"
  type: "Concat"
  bottom: "inception_4b/1x1"
  bottom: "inception_4b/3x3"
  bottom: "inception_4b/5x5"
  bottom: "inception_4b/pool_proj"
  top: "inception_4b/output"
}
layer {
  name: "inception_4c/1x1"
  type: "Convolution"
  bottom: "inception_4b/output"
  top: "inception_4c/1x1"
  param {
    lr_mult: 1
    decay_mult: 1
  }
  param {
    lr_mult: 2
    decay_mult: 0
  }
  convolution_param {
    num_output: 128
    kernel_size: 1
    weight_filler {
      type: "xavier"
      std: 0.03
    }
    bias_filler {
      type: "constant"
      value: 0.2
    }
  }
}
layer {
  name: "inception_4c/relu_1x1"
  type: "ReLU"
  bottom: "inception_4c/1x1"
  top: "inception_4c/1x1"
}
layer {
  name: "inception_4c/3x3_reduce"
  type: "Convolution"
  bottom: "inception_4b/output"
  top: "inception_4c/3x3_reduce"
  param {
    lr_mult: 1
    decay_mult: 1
  }
  param {
    lr_mult: 2
    decay_mult: 0
  }
  convolution_param {
    num_output: 128
    kernel_size: 1
    weight_filler {
      type: "xavier"
      std: 0.09
    }
    bias_filler {
      type: "constant"
      value: 0.2
    }
  }
}
layer {
  name: "inception_4c/relu_3x3_reduce"
  type: "ReLU"
  bottom: "inception_4c/3x3_reduce"
  top: "inception_4c/3x3_reduce"
}
layer {
  name: "inception_4c/3x3"
  type: "Convolution"
  bottom: "inception_4c/3x3_reduce"
  top: "inception_4c/3x3"
  param {
    lr_mult: 1
    decay_mult: 1
  }
  param {
    lr_mult: 2
    decay_mult: 0
  }
  convolution_param {
    num_output: 256
    pad: 1
    kernel_size: 3
    weight_filler {
      type: "xavier"
      std: 0.03
    }
    bias_filler {
      type: "constant"
      value: 0.2
    }
  }
}
layer {
  name: "inception_4c/relu_3x3"
  type: "ReLU"
  bottom: "inception_4c/3x3"
  top: "inception_4c/3x3"
}
layer {
  name: "inception_4c/5x5_reduce"
  type: "Convolution"
  bottom: "inception_4b/output"
  top: "inception_4c/5x5_reduce"
  param {
    lr_mult: 1
    decay_mult: 1
  }
  param {
    lr_mult: 2
    decay_mult: 0
  }
  convolution_param {
    num_output: 24
    kernel_size: 1
    weight_filler {
      type: "xavier"
      std: 0.2
    }
    bias_filler {
      type: "constant"
      value: 0.2
    }
  }
}
layer {
  name: "inception_4c/relu_5x5_reduce"
  type: "ReLU"
  bottom: "inception_4c/5x5_reduce"
  top: "inception_4c/5x5_reduce"
}
layer {
  name: "inception_4c/5x5"
  type: "Convolution"
  bottom: "inception_4c/5x5_reduce"
  top: "inception_4c/5x5"
  param {
    lr_mult: 1
    decay_mult: 1
  }
  param {
    lr_mult: 2
    decay_mult: 0
  }
  convolution_param {
    num_output: 64
    pad: 2
    kernel_size: 5
    weight_filler {
      type: "xavier"
      std: 0.03
    }
    bias_filler {
      type: "constant"
      value: 0.2
    }
  }
}
layer {
  name: "inception_4c/relu_5x5"
  type: "ReLU"
  bottom: "inception_4c/5x5"
  top: "inception_4c/5x5"
}
layer {
  name: "inception_4c/pool"
  type: "Pooling"
  bottom: "inception_4b/output"
  top: "inception_4c/pool"
  pooling_param {
    pool: MAX
    kernel_size: 3
    stride: 1
    pad: 1
  }
}
layer {
  name: "inception_4c/pool_proj"
  type: "Convolution"
  bottom: "inception_4c/pool"
  top: "inception_4c/pool_proj"
  param {
    lr_mult: 1
    decay_mult: 1
  }
  param {
    lr_mult: 2
    decay_mult: 0
  }
  convolution_param {
    num_output: 64
    kernel_size: 1
    weight_filler {
      type: "xavier"
      std: 0.1
    }
    bias_filler {
      type: "constant"
      value: 0.2
    }
  }
}
layer {
  name: "inception_4c/relu_pool_proj"
  type: "ReLU"
  bottom: "inception_4c/pool_proj"
  top: "inception_4c/pool_proj"
}
layer {
  name: "inception_4c/output"
  type: "Concat"
  bottom: "inception_4c/1x1"
  bottom: "inception_4c/3x3"
  bottom: "inception_4c/5x5"
  bottom: "inception_4c/pool_proj"
  top: "inception_4c/output"
}
layer {
  name: "inception_4d/1x1"
  type: "Convolution"
  bottom: "inception_4c/output"
  top: "inception_4d/1x1"
  param {
    lr_mult: 1
    decay_mult: 1
  }
  param {
    lr_mult: 2
    decay_mult: 0
  }
  convolution_param {
    num_output: 112
    kernel_size: 1
    weight_filler {
      type: "xavier"
      std: 0.03
    }
    bias_filler {
      type: "constant"
      value: 0.2
    }
  }
}
layer {
  name: "inception_4d/relu_1x1"
  type: "ReLU"
  bottom: "inception_4d/1x1"
  top: "inception_4d/1x1"
}
layer {
  name: "inception_4d/3x3_reduce"
  type: "Convolution"
  bottom: "inception_4c/output"
  top: "inception_4d/3x3_reduce"
  param {
    lr_mult: 1
    decay_mult: 1
  }
  param {
    lr_mult: 2
    decay_mult: 0
  }
  convolution_param {
    num_output: 144
    kernel_size: 1
    weight_filler {
      type: "xavier"
      std: 0.09
    }
    bias_filler {
      type: "constant"
      value: 0.2
    }
  }
}
layer {
  name: "inception_4d/relu_3x3_reduce"
  type: "ReLU"
  bottom: "inception_4d/3x3_reduce"
  top: "inception_4d/3x3_reduce"
}
layer {
  name: "inception_4d/3x3"
  type: "Convolution"
  bottom: "inception_4d/3x3_reduce"
  top: "inception_4d/3x3"
  param {
    lr_mult: 1
    decay_mult: 1
  }
  param {
    lr_mult: 2
    decay_mult: 0
  }
  convolution_param {
    num_output: 288
    pad: 1
    kernel_size: 3
    weight_filler {
      type: "xavier"
      std: 0.03
    }
    bias_filler {
      type: "constant"
      value: 0.2
    }
  }
}
layer {
  name: "inception_4d/relu_3x3"
  type: "ReLU"
  bottom: "inception_4d/3x3"
  top: "inception_4d/3x3"
}
layer {
  name: "inception_4d/5x5_reduce"
  type: "Convolution"
  bottom: "inception_4c/output"
  top: "inception_4d/5x5_reduce"
  param {
    lr_mult: 1
    decay_mult: 1
  }
  param {
    lr_mult: 2
    decay_mult: 0
  }
  convolution_param {
    num_output: 32
    kernel_size: 1
    weight_filler {
      type: "xavier"
      std: 0.2
    }
    bias_filler {
      type: "constant"
      value: 0.2
    }
  }
}
layer {
  name: "inception_4d/relu_5x5_reduce"
  type: "ReLU"
  bottom: "inception_4d/5x5_reduce"
  top: "inception_4d/5x5_reduce"
}
layer {
  name: "inception_4d/5x5"
  type: "Convolution"
  bottom: "inception_4d/5x5_reduce"
  top: "inception_4d/5x5"
  param {
    lr_mult: 1
    decay_mult: 1
  }
  param {
    lr_mult: 2
    decay_mult: 0
  }
  convolution_param {
    num_output: 64
    pad: 2
    kernel_size: 5
    weight_filler {
      type: "xavier"
      std: 0.03
    }
    bias_filler {
      type: "constant"
      value: 0.2
    }
  }
}
layer {
  name: "inception_4d/relu_5x5"
  type: "ReLU"
  bottom: "inception_4d/5x5"
  top: "inception_4d/5x5"
}
layer {
  name: "inception_4d/pool"
  type: "Pooling"
  bottom: "inception_4c/output"
  top: "inception_4d/pool"
  pooling_param {
    pool: MAX
    kernel_size: 3
    stride: 1
    pad: 1
  }
}
layer {
  name: "inception_4d/pool_proj"
  type: "Convolution"
  bottom: "inception_4d/pool"
  top: "inception_4d/pool_proj"
  param {
    lr_mult: 1
    decay_mult: 1
  }
  param {
    lr_mult: 2
    decay_mult: 0
  }
  convolution_param {
    num_output: 64
    kernel_size: 1
    weight_filler {
      type: "xavier"
      std: 0.1
    }
    bias_filler {
      type: "constant"
      value: 0.2
    }
  }
}
layer {
  name: "inception_4d/relu_pool_proj"
  type: "ReLU"
  bottom: "inception_4d/pool_proj"
  top: "inception_4d/pool_proj"
}
layer {
  name: "inception_4d/output"
  type: "Concat"
  bottom: "inception_4d/1x1"
  bottom: "inception_4d/3x3"
  bottom: "inception_4d/5x5"
  bottom: "inception_4d/pool_proj"
  top: "inception_4d/output"
}
layer {
  name: "loss2/ave_pool"
  type: "Pooling"
  bottom: "inception_4d/output"
  top: "loss2/ave_pool"
  pooling_param {
    pool: AVE
    kernel_size: 5
    stride: 3
  }
}
layer {
  name: "loss2/conv"
  type: "Convolution"
  bottom: "loss2/ave_pool"
  top: "loss2/conv"
  param {
    lr_mult: 1
    decay_mult: 1
  }
  param {
    lr_mult: 2
    decay_mult: 0
  }
  convolution_param {
    num_output: 128
    kernel_size: 1
    weight_filler {
      type: "xavier"
      std: 0.08
    }
    bias_filler {
      type: "constant"
      value: 0.2
    }
  }
}
layer {
  name: "loss2/relu_conv"
  type: "ReLU"
  bottom: "loss2/conv"
  top: "loss2/conv"
}
layer {
  name: "loss2/fc"
  type: "InnerProduct"
  bottom: "loss2/conv"
  top: "loss2/fc"
  param {
    lr_mult: 1
    decay_mult: 1
  }
  param {
    lr_mult: 2
    decay_mult: 0
  }
  inner_product_param {
    num_output: 1024
    weight_filler {
      type: "xavier"
      std: 0.02
    }
    bias_filler {
      type: "constant"
      value: 0.2
    }
  }
}
layer {
  name: "loss2/relu_fc"
  type: "ReLU"
  bottom: "loss2/fc"
  top: "loss2/fc"
}
layer {
  name: "loss2/drop_fc"
  type: "Dropout"
  bottom: "loss2/fc"
  top: "loss2/fc"
  dropout_param {
    dropout_ratio: 0.7
  }
}
layer {
  name: "loss2/classifier_plantvillage"
  type: "InnerProduct"
  bottom: "loss2/fc"
  top: "loss2/classifier_plantvillage"
  param {
    lr_mult: 1
    decay_mult: 1
  }
  param {
    lr_mult: 2
    decay_mult: 0
  }
  inner_product_param {
    num_output: 38
    weight_filler {
      type: "xavier"
      std: 0.0009765625
    }
    bias_filler {
      type: "constant"
      value: 0
    }
  }
}
layer {
  name: "inception_4e/1x1"
  type: "Convolution"
  bottom: "inception_4d/output"
  top: "inception_4e/1x1"
  param {
    lr_mult: 1
    decay_mult: 1
  }
  param {
    lr_mult: 2
    decay_mult: 0
  }
  convolution_param {
    num_output: 256
    kernel_size: 1
    weight_filler {
      type: "xavier"
      std: 0.03
    }
    bias_filler {
      type: "constant"
      value: 0.2
    }
  }
}
layer {
  name: "inception_4e/relu_1x1"
  type: "ReLU"
  bottom: "inception_4e/1x1"
  top: "inception_4e/1x1"
}
layer {
  name: "inception_4e/3x3_reduce"
  type: "Convolution"
  bottom: "inception_4d/output"
  top: "inception_4e/3x3_reduce"
  param {
    lr_mult: 1
    decay_mult: 1
  }
  param {
    lr_mult: 2
    decay_mult: 0
  }
  convolution_param {
    num_output: 160
    kernel_size: 1
    weight_filler {
      type: "xavier"
      std: 0.09
    }
    bias_filler {
      type: "constant"
      value: 0.2
    }
  }
}
layer {
  name: "inception_4e/relu_3x3_reduce"
  type: "ReLU"
  bottom: "inception_4e/3x3_reduce"
  top: "inception_4e/3x3_reduce"
}
layer {
  name: "inception_4e/3x3"
  type: "Convolution"
  bottom: "inception_4e/3x3_reduce"
  top: "inception_4e/3x3"
  param {
    lr_mult: 1
    decay_mult: 1
  }
  param {
    lr_mult: 2
    decay_mult: 0
  }
  convolution_param {
    num_output: 320
    pad: 1
    kernel_size: 3
    weight_filler {
      type: "xavier"
      std: 0.03
    }
    bias_filler {
      type: "constant"
      value: 0.2
    }
  }
}
layer {
  name: "inception_4e/relu_3x3"
  type: "ReLU"
  bottom: "inception_4e/3x3"
  top: "inception_4e/3x3"
}
layer {
  name: "inception_4e/5x5_reduce"
  type: "Convolution"
  bottom: "inception_4d/output"
  top: "inception_4e/5x5_reduce"
  param {
    lr_mult: 1
    decay_mult: 1
  }
  param {
    lr_mult: 2
    decay_mult: 0
  }
  convolution_param {
    num_output: 32
    kernel_size: 1
    weight_filler {
      type: "xavier"
      std: 0.2
    }
    bias_filler {
      type: "constant"
      value: 0.2
    }
  }
}
layer {
  name: "inception_4e/relu_5x5_reduce"
  type: "ReLU"
  bottom: "inception_4e/5x5_reduce"
  top: "inception_4e/5x5_reduce"
}
layer {
  name: "inception_4e/5x5"
  type: "Convolution"
  bottom: "inception_4e/5x5_reduce"
  top: "inception_4e/
I0403 15:21:25.020143 31518 layer_factory.hpp:77] Creating layer data
I0403 15:21:25.020861 31518 net.cpp:91] Creating Layer data
I0403 15:21:25.020900 31518 net.cpp:399] data -> data
I0403 15:21:25.020966 31518 net.cpp:399] data -> label
I0403 15:21:25.021011 31518 data_transformer.cpp:25] Loading mean file from: /home/mohanty/data/final_dataset/lmdb/grayscale-80-20/mean.binaryproto
I0403 15:21:25.024421 31520 db_lmdb.cpp:38] Opened lmdb /home/mohanty/data/final_dataset/lmdb/grayscale-80-20/test_db
I0403 15:21:25.036696 31518 data_layer.cpp:41] output data size: 24,3,224,224
I0403 15:21:25.068544 31518 net.cpp:141] Setting up data
I0403 15:21:25.068648 31518 net.cpp:148] Top shape: 24 3 224 224 (3612672)
I0403 15:21:25.068678 31518 net.cpp:148] Top shape: 24 (24)
I0403 15:21:25.068699 31518 net.cpp:156] Memory required for data: 14450784
I0403 15:21:25.068737 31518 layer_factory.hpp:77] Creating layer label_data_1_split
I0403 15:21:25.068773 31518 net.cpp:91] Creating Layer label_data_1_split
I0403 15:21:25.068799 31518 net.cpp:425] label_data_1_split <- label
I0403 15:21:25.068842 31518 net.cpp:399] label_data_1_split -> label_data_1_split_0
I0403 15:21:25.068879 31518 net.cpp:399] label_data_1_split -> label_data_1_split_1
I0403 15:21:25.068907 31518 net.cpp:399] label_data_1_split -> label_data_1_split_2
I0403 15:21:25.068933 31518 net.cpp:399] label_data_1_split -> label_data_1_split_3
I0403 15:21:25.068958 31518 net.cpp:399] label_data_1_split -> label_data_1_split_4
I0403 15:21:25.068982 31518 net.cpp:399] label_data_1_split -> label_data_1_split_5
I0403 15:21:25.069007 31518 net.cpp:399] label_data_1_split -> label_data_1_split_6
I0403 15:21:25.069036 31518 net.cpp:399] label_data_1_split -> label_data_1_split_7
I0403 15:21:25.069061 31518 net.cpp:399] label_data_1_split -> label_data_1_split_8
I0403 15:21:25.069085 31518 net.cpp:399] label_data_1_split -> label_data_1_split_9
I0403 15:21:25.069224 31518 net.cpp:141] Setting up label_data_1_split
I0403 15:21:25.069254 31518 net.cpp:148] Top shape: 24 (24)
I0403 15:21:25.069283 31518 net.cpp:148] Top shape: 24 (24)
I0403 15:21:25.069304 31518 net.cpp:148] Top shape: 24 (24)
I0403 15:21:25.069325 31518 net.cpp:148] Top shape: 24 (24)
I0403 15:21:25.069346 31518 net.cpp:148] Top shape: 24 (24)
I0403 15:21:25.069366 31518 net.cpp:148] Top shape: 24 (24)
I0403 15:21:25.069386 31518 net.cpp:148] Top shape: 24 (24)
I0403 15:21:25.069407 31518 net.cpp:148] Top shape: 24 (24)
I0403 15:21:25.069428 31518 net.cpp:148] Top shape: 24 (24)
I0403 15:21:25.069449 31518 net.cpp:148] Top shape: 24 (24)
I0403 15:21:25.069495 31518 net.cpp:156] Memory required for data: 14451744
I0403 15:21:25.069521 31518 layer_factory.hpp:77] Creating layer conv1/7x7_s2
I0403 15:21:25.069574 31518 net.cpp:91] Creating Layer conv1/7x7_s2
I0403 15:21:25.069602 31518 net.cpp:425] conv1/7x7_s2 <- data
I0403 15:21:25.069625 31518 net.cpp:399] conv1/7x7_s2 -> conv1/7x7_s2
I0403 15:21:25.234802 31518 net.cpp:141] Setting up conv1/7x7_s2
I0403 15:21:25.234916 31518 net.cpp:148] Top shape: 24 64 112 112 (19267584)
I0403 15:21:25.234941 31518 net.cpp:156] Memory required for data: 91522080
I0403 15:21:25.234983 31518 layer_factory.hpp:77] Creating layer conv1/relu_7x7
I0403 15:21:25.235018 31518 net.cpp:91] Creating Layer conv1/relu_7x7
I0403 15:21:25.235041 31518 net.cpp:425] conv1/relu_7x7 <- conv1/7x7_s2
I0403 15:21:25.235064 31518 net.cpp:386] conv1/relu_7x7 -> conv1/7x7_s2 (in-place)
I0403 15:21:25.235376 31518 net.cpp:141] Setting up conv1/relu_7x7
I0403 15:21:25.235409 31518 net.cpp:148] Top shape: 24 64 112 112 (19267584)
I0403 15:21:25.235430 31518 net.cpp:156] Memory required for data: 168592416
I0403 15:21:25.235448 31518 layer_factory.hpp:77] Creating layer pool1/3x3_s2
I0403 15:21:25.235481 31518 net.cpp:91] Creating Layer pool1/3x3_s2
I0403 15:21:25.235507 31518 net.cpp:425] pool1/3x3_s2 <- conv1/7x7_s2
I0403 15:21:25.235533 31518 net.cpp:399] pool1/3x3_s2 -> pool1/3x3_s2
I0403 15:21:25.235627 31518 net.cpp:141] Setting up pool1/3x3_s2
I0403 15:21:25.235657 31518 net.cpp:148] Top shape: 24 64 56 56 (4816896)
I0403 15:21:25.235677 31518 net.cpp:156] Memory required for data: 187860000
I0403 15:21:25.235697 31518 layer_factory.hpp:77] Creating layer pool1/norm1
I0403 15:21:25.235731 31518 net.cpp:91] Creating Layer pool1/norm1
I0403 15:21:25.235754 31518 net.cpp:425] pool1/norm1 <- pool1/3x3_s2
I0403 15:21:25.235777 31518 net.cpp:399] pool1/norm1 -> pool1/norm1
I0403 15:21:25.236120 31518 net.cpp:141] Setting up pool1/norm1
I0403 15:21:25.236155 31518 net.cpp:148] Top shape: 24 64 56 56 (4816896)
I0403 15:21:25.236174 31518 net.cpp:156] Memory required for data: 207127584
I0403 15:21:25.236194 31518 layer_factory.hpp:77] Creating layer conv2/3x3_reduce
I0403 15:21:25.236227 31518 net.cpp:91] Creating Layer conv2/3x3_reduce
I0403 15:21:25.236249 31518 net.cpp:425] conv2/3x3_reduce <- pool1/norm1
I0403 15:21:25.236274 31518 net.cpp:399] conv2/3x3_reduce -> conv2/3x3_reduce
I0403 15:21:25.238005 31518 net.cpp:141] Setting up conv2/3x3_reduce
I0403 15:21:25.238040 31518 net.cpp:148] Top shape: 24 64 56 56 (4816896)
I0403 15:21:25.238061 31518 net.cpp:156] Memory required for data: 226395168
I0403 15:21:25.238088 31518 layer_factory.hpp:77] Creating layer conv2/relu_3x3_reduce
I0403 15:21:25.238111 31518 net.cpp:91] Creating Layer conv2/relu_3x3_reduce
I0403 15:21:25.238131 31518 net.cpp:425] conv2/relu_3x3_reduce <- conv2/3x3_reduce
I0403 15:21:25.238153 31518 net.cpp:386] conv2/relu_3x3_reduce -> conv2/3x3_reduce (in-place)
I0403 15:21:25.238451 31518 net.cpp:141] Setting up conv2/relu_3x3_reduce
I0403 15:21:25.238483 31518 net.cpp:148] Top shape: 24 64 56 56 (4816896)
I0403 15:21:25.238507 31518 net.cpp:156] Memory required for data: 245662752
I0403 15:21:25.238528 31518 layer_factory.hpp:77] Creating layer conv2/3x3
I0403 15:21:25.238555 31518 net.cpp:91] Creating Layer conv2/3x3
I0403 15:21:25.238580 31518 net.cpp:425] conv2/3x3 <- conv2/3x3_reduce
I0403 15:21:25.238605 31518 net.cpp:399] conv2/3x3 -> conv2/3x3
I0403 15:21:25.241336 31518 net.cpp:141] Setting up conv2/3x3
I0403 15:21:25.241375 31518 net.cpp:148] Top shape: 24 192 56 56 (14450688)
I0403 15:21:25.241396 31518 net.cpp:156] Memory required for data: 303465504
I0403 15:21:25.241423 31518 layer_factory.hpp:77] Creating layer conv2/relu_3x3
I0403 15:21:25.241448 31518 net.cpp:91] Creating Layer conv2/relu_3x3
I0403 15:21:25.241469 31518 net.cpp:425] conv2/relu_3x3 <- conv2/3x3
I0403 15:21:25.241492 31518 net.cpp:386] conv2/relu_3x3 -> conv2/3x3 (in-place)
I0403 15:21:25.241694 31518 net.cpp:141] Setting up conv2/relu_3x3
I0403 15:21:25.241725 31518 net.cpp:148] Top shape: 24 192 56 56 (14450688)
I0403 15:21:25.241777 31518 net.cpp:156] Memory required for data: 361268256
I0403 15:21:25.241798 31518 layer_factory.hpp:77] Creating layer conv2/norm2
I0403 15:21:25.241822 31518 net.cpp:91] Creating Layer conv2/norm2
I0403 15:21:25.241844 31518 net.cpp:425] conv2/norm2 <- conv2/3x3
I0403 15:21:25.241868 31518 net.cpp:399] conv2/norm2 -> conv2/norm2
I0403 15:21:25.242210 31518 net.cpp:141] Setting up conv2/norm2
I0403 15:21:25.242244 31518 net.cpp:148] Top shape: 24 192 56 56 (14450688)
I0403 15:21:25.242264 31518 net.cpp:156] Memory required for data: 419071008
I0403 15:21:25.242283 31518 layer_factory.hpp:77] Creating layer pool2/3x3_s2
I0403 15:21:25.242306 31518 net.cpp:91] Creating Layer pool2/3x3_s2
I0403 15:21:25.242326 31518 net.cpp:425] pool2/3x3_s2 <- conv2/norm2
I0403 15:21:25.242350 31518 net.cpp:399] pool2/3x3_s2 -> pool2/3x3_s2
I0403 15:21:25.242410 31518 net.cpp:141] Setting up pool2/3x3_s2
I0403 15:21:25.242439 31518 net.cpp:148] Top shape: 24 192 28 28 (3612672)
I0403 15:21:25.242457 31518 net.cpp:156] Memory required for data: 433521696
I0403 15:21:25.242476 31518 layer_factory.hpp:77] Creating layer pool2/3x3_s2_pool2/3x3_s2_0_split
I0403 15:21:25.242499 31518 net.cpp:91] Creating Layer pool2/3x3_s2_pool2/3x3_s2_0_split
I0403 15:21:25.242525 31518 net.cpp:425] pool2/3x3_s2_pool2/3x3_s2_0_split <- pool2/3x3_s2
I0403 15:21:25.242548 31518 net.cpp:399] pool2/3x3_s2_pool2/3x3_s2_0_split -> pool2/3x3_s2_pool2/3x3_s2_0_split_0
I0403 15:21:25.242573 31518 net.cpp:399] pool2/3x3_s2_pool2/3x3_s2_0_split -> pool2/3x3_s2_pool2/3x3_s2_0_split_1
I0403 15:21:25.242599 31518 net.cpp:399] pool2/3x3_s2_pool2/3x3_s2_0_split -> pool2/3x3_s2_pool2/3x3_s2_0_split_2
I0403 15:21:25.242624 31518 net.cpp:399] pool2/3x3_s2_pool2/3x3_s2_0_split -> pool2/3x3_s2_pool2/3x3_s2_0_split_3
I0403 15:21:25.242700 31518 net.cpp:141] Setting up pool2/3x3_s2_pool2/3x3_s2_0_split
I0403 15:21:25.242729 31518 net.cpp:148] Top shape: 24 192 28 28 (3612672)
I0403 15:21:25.242750 31518 net.cpp:148] Top shape: 24 192 28 28 (3612672)
I0403 15:21:25.242770 31518 net.cpp:148] Top shape: 24 192 28 28 (3612672)
I0403 15:21:25.242790 31518 net.cpp:148] Top shape: 24 192 28 28 (3612672)
I0403 15:21:25.242808 31518 net.cpp:156] Memory required for data: 491324448
I0403 15:21:25.242827 31518 layer_factory.hpp:77] Creating layer inception_3a/1x1
I0403 15:21:25.242853 31518 net.cpp:91] Creating Layer inception_3a/1x1
I0403 15:21:25.242874 31518 net.cpp:425] inception_3a/1x1 <- pool2/3x3_s2_pool2/3x3_s2_0_split_0
I0403 15:21:25.242897 31518 net.cpp:399] inception_3a/1x1 -> inception_3a/1x1
I0403 15:21:25.244772 31518 net.cpp:141] Setting up inception_3a/1x1
I0403 15:21:25.244832 31518 net.cpp:148] Top shape: 24 64 28 28 (1204224)
I0403 15:21:25.244861 31518 net.cpp:156] Memory required for data: 496141344
I0403 15:21:25.244891 31518 layer_factory.hpp:77] Creating layer inception_3a/relu_1x1
I0403 15:21:25.244918 31518 net.cpp:91] Creating Layer inception_3a/relu_1x1
I0403 15:21:25.244940 31518 net.cpp:425] inception_3a/relu_1x1 <- inception_3a/1x1
I0403 15:21:25.244962 31518 net.cpp:386] inception_3a/relu_1x1 -> inception_3a/1x1 (in-place)
I0403 15:21:25.245177 31518 net.cpp:141] Setting up inception_3a/relu_1x1
I0403 15:21:25.245261 31518 net.cpp:148] Top shape: 24 64 28 28 (1204224)
I0403 15:21:25.245318 31518 net.cpp:156] Memory required for data: 500958240
I0403 15:21:25.245339 31518 layer_factory.hpp:77] Creating layer inception_3a/3x3_reduce
I0403 15:21:25.245370 31518 net.cpp:91] Creating Layer inception_3a/3x3_reduce
I0403 15:21:25.245393 31518 net.cpp:425] inception_3a/3x3_reduce <- pool2/3x3_s2_pool2/3x3_s2_0_split_1
I0403 15:21:25.245419 31518 net.cpp:399] inception_3a/3x3_reduce -> inception_3a/3x3_reduce
I0403 15:21:25.247494 31518 net.cpp:141] Setting up inception_3a/3x3_reduce
I0403 15:21:25.247536 31518 net.cpp:148] Top shape: 24 96 28 28 (1806336)
I0403 15:21:25.247557 31518 net.cpp:156] Memory required for data: 508183584
I0403 15:21:25.247586 31518 layer_factory.hpp:77] Creating layer inception_3a/relu_3x3_reduce
I0403 15:21:25.247640 31518 net.cpp:91] Creating Layer inception_3a/relu_3x3_reduce
I0403 15:21:25.247664 31518 net.cpp:425] inception_3a/relu_3x3_reduce <- inception_3a/3x3_reduce
I0403 15:21:25.247690 31518 net.cpp:386] inception_3a/relu_3x3_reduce -> inception_3a/3x3_reduce (in-place)
I0403 15:21:25.247913 31518 net.cpp:141] Setting up inception_3a/relu_3x3_reduce
I0403 15:21:25.247944 31518 net.cpp:148] Top shape: 24 96 28 28 (1806336)
I0403 15:21:25.247963 31518 net.cpp:156] Memory required for data: 515408928
I0403 15:21:25.247982 31518 layer_factory.hpp:77] Creating layer inception_3a/3x3
I0403 15:21:25.248011 31518 net.cpp:91] Creating Layer inception_3a/3x3
I0403 15:21:25.248034 31518 net.cpp:425] inception_3a/3x3 <- inception_3a/3x3_reduce
I0403 15:21:25.248062 31518 net.cpp:399] inception_3a/3x3 -> inception_3a/3x3
I0403 15:21:25.250105 31518 net.cpp:141] Setting up inception_3a/3x3
I0403 15:21:25.250144 31518 net.cpp:148] Top shape: 24 128 28 28 (2408448)
I0403 15:21:25.250164 31518 net.cpp:156] Memory required for data: 525042720
I0403 15:21:25.250188 31518 layer_factory.hpp:77] Creating layer inception_3a/relu_3x3
I0403 15:21:25.250213 31518 net.cpp:91] Creating Layer inception_3a/relu_3x3
I0403 15:21:25.250233 31518 net.cpp:425] inception_3a/relu_3x3 <- inception_3a/3x3
I0403 15:21:25.250255 31518 net.cpp:386] inception_3a/relu_3x3 -> inception_3a/3x3 (in-place)
I0403 15:21:25.250604 31518 net.cpp:141] Setting up inception_3a/relu_3x3
I0403 15:21:25.250640 31518 net.cpp:148] Top shape: 24 128 28 28 (2408448)
I0403 15:21:25.250661 31518 net.cpp:156] Memory required for data: 534676512
I0403 15:21:25.250680 31518 layer_factory.hpp:77] Creating layer inception_3a/5x5_reduce
I0403 15:21:25.250706 31518 net.cpp:91] Creating Layer inception_3a/5x5_reduce
I0403 15:21:25.250727 31518 net.cpp:425] inception_3a/5x5_reduce <- pool2/3x3_s2_pool2/3x3_s2_0_split_2
I0403 15:21:25.250754 31518 net.cpp:399] inception_3a/5x5_reduce -> inception_3a/5x5_reduce
I0403 15:21:25.251962 31518 net.cpp:141] Setting up inception_3a/5x5_reduce
I0403 15:21:25.251999 31518 net.cpp:148] Top shape: 24 16 28 28 (301056)
I0403 15:21:25.252020 31518 net.cpp:156] Memory required for data: 535880736
I0403 15:21:25.252043 31518 layer_factory.hpp:77] Creating layer inception_3a/relu_5x5_reduce
I0403 15:21:25.252068 31518 net.cpp:91] Creating Layer inception_3a/relu_5x5_reduce
I0403 15:21:25.252089 31518 net.cpp:425] inception_3a/relu_5x5_reduce <- inception_3a/5x5_reduce
I0403 15:21:25.252110 31518 net.cpp:386] inception_3a/relu_5x5_reduce -> inception_3a/5x5_reduce (in-place)
I0403 15:21:25.252480 31518 net.cpp:141] Setting up inception_3a/relu_5x5_reduce
I0403 15:21:25.252518 31518 net.cpp:148] Top shape: 24 16 28 28 (301056)
I0403 15:21:25.252540 31518 net.cpp:156] Memory required for data: 537084960
I0403 15:21:25.252568 31518 layer_factory.hpp:77] Creating layer inception_3a/5x5
I0403 15:21:25.252598 31518 net.cpp:91] Creating Layer inception_3a/5x5
I0403 15:21:25.252621 31518 net.cpp:425] inception_3a/5x5 <- inception_3a/5x5_reduce
I0403 15:21:25.252647 31518 net.cpp:399] inception_3a/5x5 -> inception_3a/5x5
I0403 15:21:25.253983 31518 net.cpp:141] Setting up inception_3a/5x5
I0403 15:21:25.254019 31518 net.cpp:148] Top shape: 24 32 28 28 (602112)
I0403 15:21:25.254040 31518 net.cpp:156] Memory required for data: 539493408
I0403 15:21:25.254065 31518 layer_factory.hpp:77] Creating layer inception_3a/relu_5x5
I0403 15:21:25.254091 31518 net.cpp:91] Creating Layer inception_3a/relu_5x5
I0403 15:21:25.254113 31518 net.cpp:425] inception_3a/relu_5x5 <- inception_3a/5x5
I0403 15:21:25.254137 31518 net.cpp:386] inception_3a/relu_5x5 -> inception_3a/5x5 (in-place)
I0403 15:21:25.254349 31518 net.cpp:141] Setting up inception_3a/relu_5x5
I0403 15:21:25.254384 31518 net.cpp:148] Top shape: 24 32 28 28 (602112)
I0403 15:21:25.254406 31518 net.cpp:156] Memory required for data: 541901856
I0403 15:21:25.254427 31518 layer_factory.hpp:77] Creating layer inception_3a/pool
I0403 15:21:25.254451 31518 net.cpp:91] Creating Layer inception_3a/pool
I0403 15:21:25.254490 31518 net.cpp:425] inception_3a/pool <- pool2/3x3_s2_pool2/3x3_s2_0_split_3
I0403 15:21:25.254526 31518 net.cpp:399] inception_3a/pool -> inception_3a/pool
I0403 15:21:25.254601 31518 net.cpp:141] Setting up inception_3a/pool
I0403 15:21:25.254633 31518 net.cpp:148] Top shape: 24 192 28 28 (3612672)
I0403 15:21:25.254652 31518 net.cpp:156] Memory required for data: 556352544
I0403 15:21:25.254672 31518 layer_factory.hpp:77] Creating layer inception_3a/pool_proj
I0403 15:21:25.254699 31518 net.cpp:91] Creating Layer inception_3a/pool_proj
I0403 15:21:25.254724 31518 net.cpp:425] inception_3a/pool_proj <- inception_3a/pool
I0403 15:21:25.254751 31518 net.cpp:399] inception_3a/pool_proj -> inception_3a/pool_proj
I0403 15:21:25.255925 31518 net.cpp:141] Setting up inception_3a/pool_proj
I0403 15:21:25.255960 31518 net.cpp:148] Top shape: 24 32 28 28 (602112)
I0403 15:21:25.255980 31518 net.cpp:156] Memory required for data: 558760992
I0403 15:21:25.256011 31518 layer_factory.hpp:77] Creating layer inception_3a/relu_pool_proj
I0403 15:21:25.256036 31518 net.cpp:91] Creating Layer inception_3a/relu_pool_proj
I0403 15:21:25.256057 31518 net.cpp:425] inception_3a/relu_pool_proj <- inception_3a/pool_proj
I0403 15:21:25.256079 31518 net.cpp:386] inception_3a/relu_pool_proj -> inception_3a/pool_proj (in-place)
I0403 15:21:25.256409 31518 net.cpp:141] Setting up inception_3a/relu_pool_proj
I0403 15:21:25.256445 31518 net.cpp:148] Top shape: 24 32 28 28 (602112)
I0403 15:21:25.256465 31518 net.cpp:156] Memory required for data: 561169440
I0403 15:21:25.256484 31518 layer_factory.hpp:77] Creating layer inception_3a/output
I0403 15:21:25.256513 31518 net.cpp:91] Creating Layer inception_3a/output
I0403 15:21:25.256536 31518 net.cpp:425] inception_3a/output <- inception_3a/1x1
I0403 15:21:25.256557 31518 net.cpp:425] inception_3a/output <- inception_3a/3x3
I0403 15:21:25.256580 31518 net.cpp:425] inception_3a/output <- inception_3a/5x5
I0403 15:21:25.256603 31518 net.cpp:425] inception_3a/output <- inception_3a/pool_proj
I0403 15:21:25.256624 31518 net.cpp:399] inception_3a/output -> inception_3a/output
I0403 15:21:25.256688 31518 net.cpp:141] Setting up inception_3a/output
I0403 15:21:25.256717 31518 net.cpp:148] Top shape: 24 256 28 28 (4816896)
I0403 15:21:25.256744 31518 net.cpp:156] Memory required for data: 580437024
I0403 15:21:25.256763 31518 layer_factory.hpp:77] Creating layer inception_3a/output_inception_3a/output_0_split
I0403 15:21:25.256785 31518 net.cpp:91] Creating Layer inception_3a/output_inception_3a/output_0_split
I0403 15:21:25.256809 31518 net.cpp:425] inception_3a/output_inception_3a/output_0_split <- inception_3a/output
I0403 15:21:25.256834 31518 net.cpp:399] inception_3a/output_inception_3a/output_0_split -> inception_3a/output_inception_3a/output_0_split_0
I0403 15:21:25.256858 31518 net.cpp:399] inception_3a/output_inception_3a/output_0_split -> inception_3a/output_inception_3a/output_0_split_1
I0403 15:21:25.256891 31518 net.cpp:399] inception_3a/output_inception_3a/output_0_split -> inception_3a/output_inception_3a/output_0_split_2
I0403 15:21:25.256918 31518 net.cpp:399] inception_3a/output_inception_3a/output_0_split -> inception_3a/output_inception_3a/output_0_split_3
I0403 15:21:25.257010 31518 net.cpp:141] Setting up inception_3a/output_inception_3a/output_0_split
I0403 15:21:25.257050 31518 net.cpp:148] Top shape: 24 256 28 28 (4816896)
I0403 15:21:25.257071 31518 net.cpp:148] Top shape: 24 256 28 28 (4816896)
I0403 15:21:25.257092 31518 net.cpp:148] Top shape: 24 256 28 28 (4816896)
I0403 15:21:25.257112 31518 net.cpp:148] Top shape: 24 256 28 28 (4816896)
I0403 15:21:25.257130 31518 net.cpp:156] Memory required for data: 657507360
I0403 15:21:25.257149 31518 layer_factory.hpp:77] Creating layer inception_3b/1x1
I0403 15:21:25.257179 31518 net.cpp:91] Creating Layer inception_3b/1x1
I0403 15:21:25.257201 31518 net.cpp:425] inception_3b/1x1 <- inception_3a/output_inception_3a/output_0_split_0
I0403 15:21:25.257228 31518 net.cpp:399] inception_3b/1x1 -> inception_3b/1x1
I0403 15:21:25.258606 31518 net.cpp:141] Setting up inception_3b/1x1
I0403 15:21:25.258654 31518 net.cpp:148] Top shape: 24 128 28 28 (2408448)
I0403 15:21:25.258674 31518 net.cpp:156] Memory required for data: 667141152
I0403 15:21:25.258698 31518 layer_factory.hpp:77] Creating layer inception_3b/relu_1x1
I0403 15:21:25.258726 31518 net.cpp:91] Creating Layer inception_3b/relu_1x1
I0403 15:21:25.258749 31518 net.cpp:425] inception_3b/relu_1x1 <- inception_3b/1x1
I0403 15:21:25.258770 31518 net.cpp:386] inception_3b/relu_1x1 -> inception_3b/1x1 (in-place)
I0403 15:21:25.258981 31518 net.cpp:141] Setting up inception_3b/relu_1x1
I0403 15:21:25.259014 31518 net.cpp:148] Top shape: 24 128 28 28 (2408448)
I0403 15:21:25.259037 31518 net.cpp:156] Memory required for data: 676774944
I0403 15:21:25.259055 31518 layer_factory.hpp:77] Creating layer inception_3b/3x3_reduce
I0403 15:21:25.259085 31518 net.cpp:91] Creating Layer inception_3b/3x3_reduce
I0403 15:21:25.259109 31518 net.cpp:425] inception_3b/3x3_reduce <- inception_3a/output_inception_3a/output_0_split_1
I0403 15:21:25.259133 31518 net.cpp:399] inception_3b/3x3_reduce -> inception_3b/3x3_reduce
I0403 15:21:25.260511 31518 net.cpp:141] Setting up inception_3b/3x3_reduce
I0403 15:21:25.260547 31518 net.cpp:148] Top shape: 24 128 28 28 (2408448)
I0403 15:21:25.260566 31518 net.cpp:156] Memory required for data: 686408736
I0403 15:21:25.260591 31518 layer_factory.hpp:77] Creating layer inception_3b/relu_3x3_reduce
I0403 15:21:25.260617 31518 net.cpp:91] Creating Layer inception_3b/relu_3x3_reduce
I0403 15:21:25.260639 31518 net.cpp:425] inception_3b/relu_3x3_reduce <- inception_3b/3x3_reduce
I0403 15:21:25.260661 31518 net.cpp:386] inception_3b/relu_3x3_reduce -> inception_3b/3x3_reduce (in-place)
I0403 15:21:25.260874 31518 net.cpp:141] Setting up inception_3b/relu_3x3_reduce
I0403 15:21:25.260905 31518 net.cpp:148] Top shape: 24 128 28 28 (2408448)
I0403 15:21:25.260923 31518 net.cpp:156] Memory required for data: 696042528
I0403 15:21:25.260942 31518 layer_factory.hpp:77] Creating layer inception_3b/3x3
I0403 15:21:25.260977 31518 net.cpp:91] Creating Layer inception_3b/3x3
I0403 15:21:25.261000 31518 net.cpp:425] inception_3b/3x3 <- inception_3b/3x3_reduce
I0403 15:21:25.261052 31518 net.cpp:399] inception_3b/3x3 -> inception_3b/3x3
I0403 15:21:25.264600 31518 net.cpp:141] Setting up inception_3b/3x3
I0403 15:21:25.264638 31518 net.cpp:148] Top shape: 24 192 28 28 (3612672)
I0403 15:21:25.264659 31518 net.cpp:156] Memory required for data: 710493216
I0403 15:21:25.264683 31518 layer_factory.hpp:77] Creating layer inception_3b/relu_3x3
I0403 15:21:25.264706 31518 net.cpp:91] Creating Layer inception_3b/relu_3x3
I0403 15:21:25.264727 31518 net.cpp:425] inception_3b/relu_3x3 <- inception_3b/3x3
I0403 15:21:25.264750 31518 net.cpp:386] inception_3b/relu_3x3 -> inception_3b/3x3 (in-place)
I0403 15:21:25.265094 31518 net.cpp:141] Setting up inception_3b/relu_3x3
I0403 15:21:25.265130 31518 net.cpp:148] Top shape: 24 192 28 28 (3612672)
I0403 15:21:25.265151 31518 net.cpp:156] Memory required for data: 724943904
I0403 15:21:25.265172 31518 layer_factory.hpp:77] Creating layer inception_3b/5x5_reduce
I0403 15:21:25.265197 31518 net.cpp:91] Creating Layer inception_3b/5x5_reduce
I0403 15:21:25.265219 31518 net.cpp:425] inception_3b/5x5_reduce <- inception_3a/output_inception_3a/output_0_split_2
I0403 15:21:25.265247 31518 net.cpp:399] inception_3b/5x5_reduce -> inception_3b/5x5_reduce
I0403 15:21:25.266469 31518 net.cpp:141] Setting up inception_3b/5x5_reduce
I0403 15:21:25.266508 31518 net.cpp:148] Top shape: 24 32 28 28 (602112)
I0403 15:21:25.266531 31518 net.cpp:156] Memory required for data: 727352352
I0403 15:21:25.266561 31518 layer_factory.hpp:77] Creating layer inception_3b/relu_5x5_reduce
I0403 15:21:25.266589 31518 net.cpp:91] Creating Layer inception_3b/relu_5x5_reduce
I0403 15:21:25.266610 31518 net.cpp:425] inception_3b/relu_5x5_reduce <- inception_3b/5x5_reduce
I0403 15:21:25.266633 31518 net.cpp:386] inception_3b/relu_5x5_reduce -> inception_3b/5x5_reduce (in-place)
I0403 15:21:25.266870 31518 net.cpp:141] Setting up inception_3b/relu_5x5_reduce
I0403 15:21:25.266906 31518 net.cpp:148] Top shape: 24 32 28 28 (602112)
I0403 15:21:25.266926 31518 net.cpp:156] Memory required for data: 729760800
I0403 15:21:25.266945 31518 layer_factory.hpp:77] Creating layer inception_3b/5x5
I0403 15:21:25.266974 31518 net.cpp:91] Creating Layer inception_3b/5x5
I0403 15:21:25.266999 31518 net.cpp:425] inception_3b/5x5 <- inception_3b/5x5_reduce
I0403 15:21:25.267021 31518 net.cpp:399] inception_3b/5x5 -> inception_3b/5x5
I0403 15:21:25.269405 31518 net.cpp:141] Setting up inception_3b/5x5
I0403 15:21:25.269441 31518 net.cpp:148] Top shape: 24 96 28 28 (1806336)
I0403 15:21:25.269461 31518 net.cpp:156] Memory required for data: 736986144
I0403 15:21:25.269484 31518 layer_factory.hpp:77] Creating layer inception_3b/relu_5x5
I0403 15:21:25.269515 31518 net.cpp:91] Creating Layer inception_3b/relu_5x5
I0403 15:21:25.269539 31518 net.cpp:425] inception_3b/relu_5x5 <- inception_3b/5x5
I0403 15:21:25.269562 31518 net.cpp:386] inception_3b/relu_5x5 -> inception_3b/5x5 (in-place)
I0403 15:21:25.269801 31518 net.cpp:141] Setting up inception_3b/relu_5x5
I0403 15:21:25.269834 31518 net.cpp:148] Top shape: 24 96 28 28 (1806336)
I0403 15:21:25.269852 31518 net.cpp:156] Memory required for data: 744211488
I0403 15:21:25.269872 31518 layer_factory.hpp:77] Creating layer inception_3b/pool
I0403 15:21:25.269894 31518 net.cpp:91] Creating Layer inception_3b/pool
I0403 15:21:25.269917 31518 net.cpp:425] inception_3b/pool <- inception_3a/output_inception_3a/output_0_split_3
I0403 15:21:25.269940 31518 net.cpp:399] inception_3b/pool -> inception_3b/pool
I0403 15:21:25.270009 31518 net.cpp:141] Setting up inception_3b/pool
I0403 15:21:25.270040 31518 net.cpp:148] Top shape: 24 256 28 28 (4816896)
I0403 15:21:25.270058 31518 net.cpp:156] Memory required for data: 763479072
I0403 15:21:25.270078 31518 layer_factory.hpp:77] Creating layer inception_3b/pool_proj
I0403 15:21:25.270107 31518 net.cpp:91] Creating Layer inception_3b/pool_proj
I0403 15:21:25.270129 31518 net.cpp:425] inception_3b/pool_proj <- inception_3b/pool
I0403 15:21:25.270156 31518 net.cpp:399] inception_3b/pool_proj -> inception_3b/pool_proj
I0403 15:21:25.271440 31518 net.cpp:141] Setting up inception_3b/pool_proj
I0403 15:21:25.271476 31518 net.cpp:148] Top shape: 24 64 28 28 (1204224)
I0403 15:21:25.271497 31518 net.cpp:156] Memory required for data: 768295968
I0403 15:21:25.271527 31518 layer_factory.hpp:77] Creating layer inception_3b/relu_pool_proj
I0403 15:21:25.271551 31518 net.cpp:91] Creating Layer inception_3b/relu_pool_proj
I0403 15:21:25.271574 31518 net.cpp:425] inception_3b/relu_pool_proj <- inception_3b/pool_proj
I0403 15:21:25.271600 31518 net.cpp:386] inception_3b/relu_pool_proj -> inception_3b/pool_proj (in-place)
I0403 15:21:25.272070 31518 net.cpp:141] Setting up inception_3b/relu_pool_proj
I0403 15:21:25.272106 31518 net.cpp:148] Top shape: 24 64 28 28 (1204224)
I0403 15:21:25.272126 31518 net.cpp:156] Memory required for data: 773112864
I0403 15:21:25.272145 31518 layer_factory.hpp:77] Creating layer inception_3b/output
I0403 15:21:25.272169 31518 net.cpp:91] Creating Layer inception_3b/output
I0403 15:21:25.272192 31518 net.cpp:425] inception_3b/output <- inception_3b/1x1
I0403 15:21:25.272213 31518 net.cpp:425] inception_3b/output <- inception_3b/3x3
I0403 15:21:25.272234 31518 net.cpp:425] inception_3b/output <- inception_3b/5x5
I0403 15:21:25.272255 31518 net.cpp:425] inception_3b/output <- inception_3b/pool_proj
I0403 15:21:25.272277 31518 net.cpp:399] inception_3b/output -> inception_3b/output
I0403 15:21:25.272335 31518 net.cpp:141] Setting up inception_3b/output
I0403 15:21:25.272363 31518 net.cpp:148] Top shape: 24 480 28 28 (9031680)
I0403 15:21:25.272383 31518 net.cpp:156] Memory required for data: 809239584
I0403 15:21:25.272403 31518 layer_factory.hpp:77] Creating layer pool3/3x3_s2
I0403 15:21:25.272428 31518 net.cpp:91] Creating Layer pool3/3x3_s2
I0403 15:21:25.272450 31518 net.cpp:425] pool3/3x3_s2 <- inception_3b/output
I0403 15:21:25.272490 31518 net.cpp:399] pool3/3x3_s2 -> pool3/3x3_s2
I0403 15:21:25.272577 31518 net.cpp:141] Setting up pool3/3x3_s2
I0403 15:21:25.272606 31518 net.cpp:148] Top shape: 24 480 14 14 (2257920)
I0403 15:21:25.272625 31518 net.cpp:156] Memory required for data: 818271264
I0403 15:21:25.272644 31518 layer_factory.hpp:77] Creating layer pool3/3x3_s2_pool3/3x3_s2_0_split
I0403 15:21:25.272667 31518 net.cpp:91] Creating Layer pool3/3x3_s2_pool3/3x3_s2_0_split
I0403 15:21:25.272686 31518 net.cpp:425] pool3/3x3_s2_pool3/3x3_s2_0_split <- pool3/3x3_s2
I0403 15:21:25.272712 31518 net.cpp:399] pool3/3x3_s2_pool3/3x3_s2_0_split -> pool3/3x3_s2_pool3/3x3_s2_0_split_0
I0403 15:21:25.272738 31518 net.cpp:399] pool3/3x3_s2_pool3/3x3_s2_0_split -> pool3/3x3_s2_pool3/3x3_s2_0_split_1
I0403 15:21:25.272763 31518 net.cpp:399] pool3/3x3_s2_pool3/3x3_s2_0_split -> pool3/3x3_s2_pool3/3x3_s2_0_split_2
I0403 15:21:25.272788 31518 net.cpp:399] pool3/3x3_s2_pool3/3x3_s2_0_split -> pool3/3x3_s2_pool3/3x3_s2_0_split_3
I0403 15:21:25.272883 31518 net.cpp:141] Setting up pool3/3x3_s2_pool3/3x3_s2_0_split
I0403 15:21:25.272915 31518 net.cpp:148] Top shape: 24 480 14 14 (2257920)
I0403 15:21:25.272938 31518 net.cpp:148] Top shape: 24 480 14 14 (2257920)
I0403 15:21:25.272958 31518 net.cpp:148] Top shape: 24 480 14 14 (2257920)
I0403 15:21:25.272979 31518 net.cpp:148] Top shape: 24 480 14 14 (2257920)
I0403 15:21:25.272996 31518 net.cpp:156] Memory required for data: 854397984
I0403 15:21:25.273015 31518 layer_factory.hpp:77] Creating layer inception_4a/1x1
I0403 15:21:25.273046 31518 net.cpp:91] Creating Layer inception_4a/1x1
I0403 15:21:25.273069 31518 net.cpp:425] inception_4a/1x1 <- pool3/3x3_s2_pool3/3x3_s2_0_split_0
I0403 15:21:25.273093 31518 net.cpp:399] inception_4a/1x1 -> inception_4a/1x1
I0403 15:21:25.275010 31518 net.cpp:141] Setting up inception_4a/1x1
I0403 15:21:25.275045 31518 net.cpp:148] Top shape: 24 192 14 14 (903168)
I0403 15:21:25.275065 31518 net.cpp:156] Memory required for data: 858010656
I0403 15:21:25.275089 31518 layer_factory.hpp:77] Creating layer inception_4a/relu_1x1
I0403 15:21:25.275111 31518 net.cpp:91] Creating Layer inception_4a/relu_1x1
I0403 15:21:25.275140 31518 net.cpp:425] inception_4a/relu_1x1 <- inception_4a/1x1
I0403 15:21:25.275162 31518 net.cpp:386] inception_4a/relu_1x1 -> inception_4a/1x1 (in-place)
I0403 15:21:25.275382 31518 net.cpp:141] Setting up inception_4a/relu_1x1
I0403 15:21:25.275413 31518 net.cpp:148] Top shape: 24 192 14 14 (903168)
I0403 15:21:25.275431 31518 net.cpp:156] Memory required for data: 861623328
I0403 15:21:25.275451 31518 layer_factory.hpp:77] Creating layer inception_4a/3x3_reduce
I0403 15:21:25.275480 31518 net.cpp:91] Creating Layer inception_4a/3x3_reduce
I0403 15:21:25.275506 31518 net.cpp:425] inception_4a/3x3_reduce <- pool3/3x3_s2_pool3/3x3_s2_0_split_1
I0403 15:21:25.275535 31518 net.cpp:399] inception_4a/3x3_reduce -> inception_4a/3x3_reduce
I0403 15:21:25.277075 31518 net.cpp:141] Setting up inception_4a/3x3_reduce
I0403 15:21:25.277108 31518 net.cpp:148] Top shape: 24 96 14 14 (451584)
I0403 15:21:25.277129 31518 net.cpp:156] Memory required for data: 863429664
I0403 15:21:25.277160 31518 layer_factory.hpp:77] Creating layer inception_4a/relu_3x3_reduce
I0403 15:21:25.277187 31518 net.cpp:91] Creating Layer inception_4a/relu_3x3_reduce
I0403 15:21:25.277207 31518 net.cpp:425] inception_4a/relu_3x3_reduce <- inception_4a/3x3_reduce
I0403 15:21:25.277235 31518 net.cpp:386] inception_4a/relu_3x3_reduce -> inception_4a/3x3_reduce (in-place)
I0403 15:21:25.277446 31518 net.cpp:141] Setting up inception_4a/relu_3x3_reduce
I0403 15:21:25.277477 31518 net.cpp:148] Top shape: 24 96 14 14 (451584)
I0403 15:21:25.277497 31518 net.cpp:156] Memory required for data: 865236000
I0403 15:21:25.277521 31518 layer_factory.hpp:77] Creating layer inception_4a/3x3
I0403 15:21:25.277551 31518 net.cpp:91] Creating Layer inception_4a/3x3
I0403 15:21:25.277577 31518 net.cpp:425] inception_4a/3x3 <- inception_4a/3x3_reduce
I0403 15:21:25.277604 31518 net.cpp:399] inception_4a/3x3 -> inception_4a/3x3
I0403 15:21:25.280849 31518 net.cpp:141] Setting up inception_4a/3x3
I0403 15:21:25.280884 31518 net.cpp:148] Top shape: 24 208 14 14 (978432)
I0403 15:21:25.280903 31518 net.cpp:156] Memory required for data: 869149728
I0403 15:21:25.280926 31518 layer_factory.hpp:77] Creating layer inception_4a/relu_3x3
I0403 15:21:25.280953 31518 net.cpp:91] Creating Layer inception_4a/relu_3x3
I0403 15:21:25.280977 31518 net.cpp:425] inception_4a/relu_3x3 <- inception_4a/3x3
I0403 15:21:25.280998 31518 net.cpp:386] inception_4a/relu_3x3 -> inception_4a/3x3 (in-place)
I0403 15:21:25.281339 31518 net.cpp:141] Setting up inception_4a/relu_3x3
I0403 15:21:25.281373 31518 net.cpp:148] Top shape: 24 208 14 14 (978432)
I0403 15:21:25.281391 31518 net.cpp:156] Memory required for data: 873063456
I0403 15:21:25.281411 31518 layer_factory.hpp:77] Creating layer inception_4a/5x5_reduce
I0403 15:21:25.281440 31518 net.cpp:91] Creating Layer inception_4a/5x5_reduce
I0403 15:21:25.281463 31518 net.cpp:425] inception_4a/5x5_reduce <- pool3/3x3_s2_pool3/3x3_s2_0_split_2
I0403 15:21:25.281496 31518 net.cpp:399] inception_4a/5x5_reduce -> inception_4a/5x5_reduce
I0403 15:21:25.282752 31518 net.cpp:141] Setting up inception_4a/5x5_reduce
I0403 15:21:25.282786 31518 net.cpp:148] Top shape: 24 16 14 14 (75264)
I0403 15:21:25.282806 31518 net.cpp:156] Memory required for data: 873364512
I0403 15:21:25.282830 31518 layer_factory.hpp:77] Creating layer inception_4a/relu_5x5_reduce
I0403 15:21:25.282857 31518 net.cpp:91] Creating Layer inception_4a/relu_5x5_reduce
I0403 15:21:25.282879 31518 net.cpp:425] inception_4a/relu_5x5_reduce <- inception_4a/5x5_reduce
I0403 15:21:25.282902 31518 net.cpp:386] inception_4a/relu_5x5_reduce -> inception_4a/5x5_reduce (in-place)
I0403 15:21:25.283123 31518 net.cpp:141] Setting up inception_4a/relu_5x5_reduce
I0403 15:21:25.283159 31518 net.cpp:148] Top shape: 24 16 14 14 (75264)
I0403 15:21:25.283177 31518 net.cpp:156] Memory required for data: 873665568
I0403 15:21:25.283197 31518 layer_factory.hpp:77] Creating layer inception_4a/5x5
I0403 15:21:25.283234 31518 net.cpp:91] Creating Layer inception_4a/5x5
I0403 15:21:25.283257 31518 net.cpp:425] inception_4a/5x5 <- inception_4a/5x5_reduce
I0403 15:21:25.283293 31518 net.cpp:399] inception_4a/5x5 -> inception_4a/5x5
I0403 15:21:25.284627 31518 net.cpp:141] Setting up inception_4a/5x5
I0403 15:21:25.284665 31518 net.cpp:148] Top shape: 24 48 14 14 (225792)
I0403 15:21:25.284687 31518 net.cpp:156] Memory required for data: 874568736
I0403 15:21:25.284709 31518 layer_factory.hpp:77] Creating layer inception_4a/relu_5x5
I0403 15:21:25.284732 31518 net.cpp:91] Creating Layer inception_4a/relu_5x5
I0403 15:21:25.284752 31518 net.cpp:425] inception_4a/relu_5x5 <- inception_4a/5x5
I0403 15:21:25.284778 31518 net.cpp:386] inception_4a/relu_5x5 -> inception_4a/5x5 (in-place)
I0403 15:21:25.285001 31518 net.cpp:141] Setting up inception_4a/relu_5x5
I0403 15:21:25.285032 31518 net.cpp:148] Top shape: 24 48 14 14 (225792)
I0403 15:21:25.285050 31518 net.cpp:156] Memory required for data: 875471904
I0403 15:21:25.285069 31518 layer_factory.hpp:77] Creating layer inception_4a/pool
I0403 15:21:25.285094 31518 net.cpp:91] Creating Layer inception_4a/pool
I0403 15:21:25.285117 31518 net.cpp:425] inception_4a/pool <- pool3/3x3_s2_pool3/3x3_s2_0_split_3
I0403 15:21:25.285141 31518 net.cpp:399] inception_4a/pool -> inception_4a/pool
I0403 15:21:25.285218 31518 net.cpp:141] Setting up inception_4a/pool
I0403 15:21:25.285246 31518 net.cpp:148] Top shape: 24 480 14 14 (2257920)
I0403 15:21:25.285266 31518 net.cpp:156] Memory required for data: 884503584
I0403 15:21:25.285285 31518 layer_factory.hpp:77] Creating layer inception_4a/pool_proj
I0403 15:21:25.285313 31518 net.cpp:91] Creating Layer inception_4a/pool_proj
I0403 15:21:25.285336 31518 net.cpp:425] inception_4a/pool_proj <- inception_4a/pool
I0403 15:21:25.285362 31518 net.cpp:399] inception_4a/pool_proj -> inception_4a/pool_proj
I0403 15:21:25.286859 31518 net.cpp:141] Setting up inception_4a/pool_proj
I0403 15:21:25.286895 31518 net.cpp:148] Top shape: 24 64 14 14 (301056)
I0403 15:21:25.286931 31518 net.cpp:156] Memory required for data: 885707808
I0403 15:21:25.286955 31518 layer_factory.hpp:77] Creating layer inception_4a/relu_pool_proj
I0403 15:21:25.286978 31518 net.cpp:91] Creating Layer inception_4a/relu_pool_proj
I0403 15:21:25.286999 31518 net.cpp:425] inception_4a/relu_pool_proj <- inception_4a/pool_proj
I0403 15:21:25.287026 31518 net.cpp:386] inception_4a/relu_pool_proj -> inception_4a/pool_proj (in-place)
I0403 15:21:25.287365 31518 net.cpp:141] Setting up inception_4a/relu_pool_proj
I0403 15:21:25.287400 31518 net.cpp:148] Top shape: 24 64 14 14 (301056)
I0403 15:21:25.287420 31518 net.cpp:156] Memory required for data: 886912032
I0403 15:21:25.287438 31518 layer_factory.hpp:77] Creating layer inception_4a/output
I0403 15:21:25.287461 31518 net.cpp:91] Creating Layer inception_4a/output
I0403 15:21:25.287482 31518 net.cpp:425] inception_4a/output <- inception_4a/1x1
I0403 15:21:25.287508 31518 net.cpp:425] inception_4a/output <- inception_4a/3x3
I0403 15:21:25.287533 31518 net.cpp:425] inception_4a/output <- inception_4a/5x5
I0403 15:21:25.287556 31518 net.cpp:425] inception_4a/output <- inception_4a/pool_proj
I0403 15:21:25.287582 31518 net.cpp:399] inception_4a/output -> inception_4a/output
I0403 15:21:25.287638 31518 net.cpp:141] Setting up inception_4a/output
I0403 15:21:25.287670 31518 net.cpp:148] Top shape: 24 512 14 14 (2408448)
I0403 15:21:25.287690 31518 net.cpp:156] Memory required for data: 896545824
I0403 15:21:25.287710 31518 layer_factory.hpp:77] Creating layer inception_4a/output_inception_4a/output_0_split
I0403 15:21:25.287734 31518 net.cpp:91] Creating Layer inception_4a/output_inception_4a/output_0_split
I0403 15:21:25.287755 31518 net.cpp:425] inception_4a/output_inception_4a/output_0_split <- inception_4a/output
I0403 15:21:25.287776 31518 net.cpp:399] inception_4a/output_inception_4a/output_0_split -> inception_4a/output_inception_4a/output_0_split_0
I0403 15:21:25.287806 31518 net.cpp:399] inception_4a/output_inception_4a/output_0_split -> inception_4a/output_inception_4a/output_0_split_1
I0403 15:21:25.287832 31518 net.cpp:399] inception_4a/output_inception_4a/output_0_split -> inception_4a/output_inception_4a/output_0_split_2
I0403 15:21:25.287858 31518 net.cpp:399] inception_4a/output_inception_4a/output_0_split -> inception_4a/output_inception_4a/output_0_split_3
I0403 15:21:25.287883 31518 net.cpp:399] inception_4a/output_inception_4a/output_0_split -> inception_4a/output_inception_4a/output_0_split_4
I0403 15:21:25.287999 31518 net.cpp:141] Setting up inception_4a/output_inception_4a/output_0_split
I0403 15:21:25.288028 31518 net.cpp:148] Top shape: 24 512 14 14 (2408448)
I0403 15:21:25.288050 31518 net.cpp:148] Top shape: 24 512 14 14 (2408448)
I0403 15:21:25.288074 31518 net.cpp:148] Top shape: 24 512 14 14 (2408448)
I0403 15:21:25.288095 31518 net.cpp:148] Top shape: 24 512 14 14 (2408448)
I0403 15:21:25.288116 31518 net.cpp:148] Top shape: 24 512 14 14 (2408448)
I0403 15:21:25.288136 31518 net.cpp:156] Memory required for data: 944714784
I0403 15:21:25.288154 31518 layer_factory.hpp:77] Creating layer loss1/ave_pool
I0403 15:21:25.288177 31518 net.cpp:91] Creating Layer loss1/ave_pool
I0403 15:21:25.288197 31518 net.cpp:425] loss1/ave_pool <- inception_4a/output_inception_4a/output_0_split_0
I0403 15:21:25.288221 31518 net.cpp:399] loss1/ave_pool -> loss1/ave_pool
I0403 15:21:25.288476 31518 net.cpp:141] Setting up loss1/ave_pool
I0403 15:21:25.288513 31518 net.cpp:148] Top shape: 24 512 4 4 (196608)
I0403 15:21:25.288535 31518 net.cpp:156] Memory required for data: 945501216
I0403 15:21:25.288568 31518 layer_factory.hpp:77] Creating layer loss1/conv
I0403 15:21:25.288596 31518 net.cpp:91] Creating Layer loss1/conv
I0403 15:21:25.288619 31518 net.cpp:425] loss1/conv <- loss1/ave_pool
I0403 15:21:25.288646 31518 net.cpp:399] loss1/conv -> loss1/conv
I0403 15:21:25.290366 31518 net.cpp:141] Setting up loss1/conv
I0403 15:21:25.290402 31518 net.cpp:148] Top shape: 24 128 4 4 (49152)
I0403 15:21:25.290438 31518 net.cpp:156] Memory required for data: 945697824
I0403 15:21:25.290463 31518 layer_factory.hpp:77] Creating layer loss1/relu_conv
I0403 15:21:25.290490 31518 net.cpp:91] Creating Layer loss1/relu_conv
I0403 15:21:25.290516 31518 net.cpp:425] loss1/relu_conv <- loss1/conv
I0403 15:21:25.290539 31518 net.cpp:386] loss1/relu_conv -> loss1/conv (in-place)
I0403 15:21:25.290879 31518 net.cpp:141] Setting up loss1/relu_conv
I0403 15:21:25.290911 31518 net.cpp:148] Top shape: 24 128 4 4 (49152)
I0403 15:21:25.290931 31518 net.cpp:156] Memory required for data: 945894432
I0403 15:21:25.290951 31518 layer_factory.hpp:77] Creating layer loss1/fc
I0403 15:21:25.290985 31518 net.cpp:91] Creating Layer loss1/fc
I0403 15:21:25.291009 31518 net.cpp:425] loss1/fc <- loss1/conv
I0403 15:21:25.291033 31518 net.cpp:399] loss1/fc -> loss1/fc
I0403 15:21:25.312860 31518 net.cpp:141] Setting up loss1/fc
I0403 15:21:25.312903 31518 net.cpp:148] Top shape: 24 1024 (24576)
I0403 15:21:25.312927 31518 net.cpp:156] Memory required for data: 945992736
I0403 15:21:25.312952 31518 layer_factory.hpp:77] Creating layer loss1/relu_fc
I0403 15:21:25.312975 31518 net.cpp:91] Creating Layer loss1/relu_fc
I0403 15:21:25.312999 31518 net.cpp:425] loss1/relu_fc <- loss1/fc
I0403 15:21:25.313024 31518 net.cpp:386] loss1/relu_fc -> loss1/fc (in-place)
I0403 15:21:25.313256 31518 net.cpp:141] Setting up loss1/relu_fc
I0403 15:21:25.313288 31518 net.cpp:148] Top shape: 24 1024 (24576)
I0403 15:21:25.313308 31518 net.cpp:156] Memory required for data: 946091040
I0403 15:21:25.313328 31518 layer_factory.hpp:77] Creating layer loss1/drop_fc
I0403 15:21:25.313362 31518 net.cpp:91] Creating Layer loss1/drop_fc
I0403 15:21:25.313385 31518 net.cpp:425] loss1/drop_fc <- loss1/fc
I0403 15:21:25.313408 31518 net.cpp:386] loss1/drop_fc -> loss1/fc (in-place)
I0403 15:21:25.313473 31518 net.cpp:141] Setting up loss1/drop_fc
I0403 15:21:25.313513 31518 net.cpp:148] Top shape: 24 1024 (24576)
I0403 15:21:25.313535 31518 net.cpp:156] Memory required for data: 946189344
I0403 15:21:25.313556 31518 layer_factory.hpp:77] Creating layer loss1/classifier_plantvillage
I0403 15:21:25.313581 31518 net.cpp:91] Creating Layer loss1/classifier_plantvillage
I0403 15:21:25.313602 31518 net.cpp:425] loss1/classifier_plantvillage <- loss1/fc
I0403 15:21:25.313628 31518 net.cpp:399] loss1/classifier_plantvillage -> loss1/classifier_plantvillage
I0403 15:21:25.314728 31518 net.cpp:141] Setting up loss1/classifier_plantvillage
I0403 15:21:25.314762 31518 net.cpp:148] Top shape: 24 38 (912)
I0403 15:21:25.314782 31518 net.cpp:156] Memory required for data: 946192992
I0403 15:21:25.314807 31518 layer_factory.hpp:77] Creating layer loss1/classifier_plantvillage_loss1/classifier_plantvillage_0_split
I0403 15:21:25.314833 31518 net.cpp:91] Creating Layer loss1/classifier_plantvillage_loss1/classifier_plantvillage_0_split
I0403 15:21:25.314856 31518 net.cpp:425] loss1/classifier_plantvillage_loss1/classifier_plantvillage_0_split <- loss1/classifier_plantvillage
I0403 15:21:25.314878 31518 net.cpp:399] loss1/classifier_plantvillage_loss1/classifier_plantvillage_0_split -> loss1/classifier_plantvillage_loss1/classifier_plantvillage_0_split_0
I0403 15:21:25.314904 31518 net.cpp:399] loss1/classifier_plantvillage_loss1/classifier_plantvillage_0_split -> loss1/classifier_plantvillage_loss1/classifier_plantvillage_0_split_1
I0403 15:21:25.314931 31518 net.cpp:399] loss1/classifier_plantvillage_loss1/classifier_plantvillage_0_split -> loss1/classifier_plantvillage_loss1/classifier_plantvillage_0_split_2
I0403 15:21:25.315012 31518 net.cpp:141] Setting up loss1/classifier_plantvillage_loss1/classifier_plantvillage_0_split
I0403 15:21:25.315044 31518 net.cpp:148] Top shape: 24 38 (912)
I0403 15:21:25.315067 31518 net.cpp:148] Top shape: 24 38 (912)
I0403 15:21:25.315086 31518 net.cpp:148] Top shape: 24 38 (912)
I0403 15:21:25.315104 31518 net.cpp:156] Memory required for data: 946203936
I0403 15:21:25.315124 31518 layer_factory.hpp:77] Creating layer inception_4b/1x1
I0403 15:21:25.315150 31518 net.cpp:91] Creating Layer inception_4b/1x1
I0403 15:21:25.315191 31518 net.cpp:425] inception_4b/1x1 <- inception_4a/output_inception_4a/output_0_split_1
I0403 15:21:25.315217 31518 net.cpp:399] inception_4b/1x1 -> inception_4b/1x1
I0403 15:21:25.317235 31518 net.cpp:141] Setting up inception_4b/1x1
I0403 15:21:25.317271 31518 net.cpp:148] Top shape: 24 160 14 14 (752640)
I0403 15:21:25.317291 31518 net.cpp:156] Memory required for data: 949214496
I0403 15:21:25.317315 31518 layer_factory.hpp:77] Creating layer inception_4b/relu_1x1
I0403 15:21:25.317342 31518 net.cpp:91] Creating Layer inception_4b/relu_1x1
I0403 15:21:25.317364 31518 net.cpp:425] inception_4b/relu_1x1 <- inception_4b/1x1
I0403 15:21:25.317387 31518 net.cpp:386] inception_4b/relu_1x1 -> inception_4b/1x1 (in-place)
I0403 15:21:25.317621 31518 net.cpp:141] Setting up inception_4b/relu_1x1
I0403 15:21:25.317656 31518 net.cpp:148] Top shape: 24 160 14 14 (752640)
I0403 15:21:25.317677 31518 net.cpp:156] Memory required for data: 952225056
I0403 15:21:25.317697 31518 layer_factory.hpp:77] Creating layer inception_4b/3x3_reduce
I0403 15:21:25.317725 31518 net.cpp:91] Creating Layer inception_4b/3x3_reduce
I0403 15:21:25.317749 31518 net.cpp:425] inception_4b/3x3_reduce <- inception_4a/output_inception_4a/output_0_split_2
I0403 15:21:25.317773 31518 net.cpp:399] inception_4b/3x3_reduce -> inception_4b/3x3_reduce
I0403 15:21:25.319638 31518 net.cpp:141] Setting up inception_4b/3x3_reduce
I0403 15:21:25.319676 31518 net.cpp:148] Top shape: 24 112 14 14 (526848)
I0403 15:21:25.319697 31518 net.cpp:156] Memory required for data: 954332448
I0403 15:21:25.319721 31518 layer_factory.hpp:77] Creating layer inception_4b/relu_3x3_reduce
I0403 15:21:25.319744 31518 net.cpp:91] Creating Layer inception_4b/relu_3x3_reduce
I0403 15:21:25.319766 31518 net.cpp:425] inception_4b/relu_3x3_reduce <- inception_4b/3x3_reduce
I0403 15:21:25.319792 31518 net.cpp:386] inception_4b/relu_3x3_reduce -> inception_4b/3x3_reduce (in-place)
I0403 15:21:25.320137 31518 net.cpp:141] Setting up inception_4b/relu_3x3_reduce
I0403 15:21:25.320173 31518 net.cpp:148] Top shape: 24 112 14 14 (526848)
I0403 15:21:25.320193 31518 net.cpp:156] Memory required for data: 956439840
I0403 15:21:25.320211 31518 layer_factory.hpp:77] Creating layer inception_4b/3x3
I0403 15:21:25.320241 31518 net.cpp:91] Creating Layer inception_4b/3x3
I0403 15:21:25.320264 31518 net.cpp:425] inception_4b/3x3 <- inception_4b/3x3_reduce
I0403 15:21:25.320289 31518 net.cpp:399] inception_4b/3x3 -> inception_4b/3x3
I0403 15:21:25.323912 31518 net.cpp:141] Setting up inception_4b/3x3
I0403 15:21:25.323950 31518 net.cpp:148] Top shape: 24 224 14 14 (1053696)
I0403 15:21:25.323971 31518 net.cpp:156] Memory required for data: 960654624
I0403 15:21:25.323994 31518 layer_factory.hpp:77] Creating layer inception_4b/relu_3x3
I0403 15:21:25.324020 31518 net.cpp:91] Creating Layer inception_4b/relu_3x3
I0403 15:21:25.324043 31518 net.cpp:425] inception_4b/relu_3x3 <- inception_4b/3x3
I0403 15:21:25.324064 31518 net.cpp:386] inception_4b/relu_3x3 -> inception_4b/3x3 (in-place)
I0403 15:21:25.324287 31518 net.cpp:141] Setting up inception_4b/relu_3x3
I0403 15:21:25.324318 31518 net.cpp:148] Top shape: 24 224 14 14 (1053696)
I0403 15:21:25.324337 31518 net.cpp:156] Memory required for data: 964869408
I0403 15:21:25.324355 31518 layer_factory.hpp:77] Creating layer inception_4b/5x5_reduce
I0403 15:21:25.324383 31518 net.cpp:91] Creating Layer inception_4b/5x5_reduce
I0403 15:21:25.324407 31518 net.cpp:425] inception_4b/5x5_reduce <- inception_4a/output_inception_4a/output_0_split_3
I0403 15:21:25.324436 31518 net.cpp:399] inception_4b/5x5_reduce -> inception_4b/5x5_reduce
I0403 15:21:25.325786 31518 net.cpp:141] Setting up inception_4b/5x5_reduce
I0403 15:21:25.325821 31518 net.cpp:148] Top shape: 24 24 14 14 (112896)
I0403 15:21:25.325842 31518 net.cpp:156] Memory required for data: 965320992
I0403 15:21:25.325867 31518 layer_factory.hpp:77] Creating layer inception_4b/relu_5x5_reduce
I0403 15:21:25.325893 31518 net.cpp:91] Creating Layer inception_4b/relu_5x5_reduce
I0403 15:21:25.325932 31518 net.cpp:425] inception_4b/relu_5x5_reduce <- inception_4b/5x5_reduce
I0403 15:21:25.325955 31518 net.cpp:386] inception_4b/relu_5x5_reduce -> inception_4b/5x5_reduce (in-place)
I0403 15:21:25.326182 31518 net.cpp:141] Setting up inception_4b/relu_5x5_reduce
I0403 15:21:25.326213 31518 net.cpp:148] Top shape: 24 24 14 14 (112896)
I0403 15:21:25.326233 31518 net.cpp:156] Memory required for data: 965772576
I0403 15:21:25.326252 31518 layer_factory.hpp:77] Creating layer inception_4b/5x5
I0403 15:21:25.326282 31518 net.cpp:91] Creating Layer inception_4b/5x5
I0403 15:21:25.326306 31518 net.cpp:425] inception_4b/5x5 <- inception_4b/5x5_reduce
I0403 15:21:25.326333 31518 net.cpp:399] inception_4b/5x5 -> inception_4b/5x5
I0403 15:21:25.327842 31518 net.cpp:141] Setting up inception_4b/5x5
I0403 15:21:25.327877 31518 net.cpp:148] Top shape: 24 64 14 14 (301056)
I0403 15:21:25.327898 31518 net.cpp:156] Memory required for data: 966976800
I0403 15:21:25.327921 31518 layer_factory.hpp:77] Creating layer inception_4b/relu_5x5
I0403 15:21:25.327946 31518 net.cpp:91] Creating Layer inception_4b/relu_5x5
I0403 15:21:25.327968 31518 net.cpp:425] inception_4b/relu_5x5 <- inception_4b/5x5
I0403 15:21:25.327991 31518 net.cpp:386] inception_4b/relu_5x5 -> inception_4b/5x5 (in-place)
I0403 15:21:25.328336 31518 net.cpp:141] Setting up inception_4b/relu_5x5
I0403 15:21:25.328369 31518 net.cpp:148] Top shape: 24 64 14 14 (301056)
I0403 15:21:25.328389 31518 net.cpp:156] Memory required for data: 968181024
I0403 15:21:25.328409 31518 layer_factory.hpp:77] Creating layer inception_4b/pool
I0403 15:21:25.328435 31518 net.cpp:91] Creating Layer inception_4b/pool
I0403 15:21:25.328457 31518 net.cpp:425] inception_4b/pool <- inception_4a/output_inception_4a/output_0_split_4
I0403 15:21:25.328481 31518 net.cpp:399] inception_4b/pool -> inception_4b/pool
I0403 15:21:25.328567 31518 net.cpp:141] Setting up inception_4b/pool
I0403 15:21:25.328598 31518 net.cpp:148] Top shape: 24 512 14 14 (2408448)
I0403 15:21:25.328618 31518 net.cpp:156] Memory required for data: 977814816
I0403 15:21:25.328637 31518 layer_factory.hpp:77] Creating layer inception_4b/pool_proj
I0403 15:21:25.328665 31518 net.cpp:91] Creating Layer inception_4b/pool_proj
I0403 15:21:25.328688 31518 net.cpp:425] inception_4b/pool_proj <- inception_4b/pool
I0403 15:21:25.328714 31518 net.cpp:399] inception_4b/pool_proj -> inception_4b/pool_proj
I0403 15:21:25.330180 31518 net.cpp:141] Setting up inception_4b/pool_proj
I0403 15:21:25.330219 31518 net.cpp:148] Top shape: 24 64 14 14 (301056)
I0403 15:21:25.330240 31518 net.cpp:156] Memory required for data: 979019040
I0403 15:21:25.330265 31518 layer_factory.hpp:77] Creating layer inception_4b/relu_pool_proj
I0403 15:21:25.330287 31518 net.cpp:91] Creating Layer inception_4b/relu_pool_proj
I0403 15:21:25.330309 31518 net.cpp:425] inception_4b/relu_pool_proj <- inception_4b/pool_proj
I0403 15:21:25.330332 31518 net.cpp:386] inception_4b/relu_pool_proj -> inception_4b/pool_proj (in-place)
I0403 15:21:25.330560 31518 net.cpp:141] Setting up inception_4b/relu_pool_proj
I0403 15:21:25.330595 31518 net.cpp:148] Top shape: 24 64 14 14 (301056)
I0403 15:21:25.330616 31518 net.cpp:156] Memory required for data: 980223264
I0403 15:21:25.330636 31518 layer_factory.hpp:77] Creating layer inception_4b/output
I0403 15:21:25.330659 31518 net.cpp:91] Creating Layer inception_4b/output
I0403 15:21:25.330679 31518 net.cpp:425] inception_4b/output <- inception_4b/1x1
I0403 15:21:25.330700 31518 net.cpp:425] inception_4b/output <- inception_4b/3x3
I0403 15:21:25.330723 31518 net.cpp:425] inception_4b/output <- inception_4b/5x5
I0403 15:21:25.330744 31518 net.cpp:425] inception_4b/output <- inception_4b/pool_proj
I0403 15:21:25.330768 31518 net.cpp:399] inception_4b/output -> inception_4b/output
I0403 15:21:25.330834 31518 net.cpp:141] Setting up inception_4b/output
I0403 15:21:25.330864 31518 net.cpp:148] Top shape: 24 512 14 14 (2408448)
I0403 15:21:25.330884 31518 net.cpp:156] Memory required for data: 989857056
I0403 15:21:25.330920 31518 layer_factory.hpp:77] Creating layer inception_4b/output_inception_4b/output_0_split
I0403 15:21:25.330947 31518 net.cpp:91] Creating Layer inception_4b/output_inception_4b/output_0_split
I0403 15:21:25.330971 31518 net.cpp:425] inception_4b/output_inception_4b/output_0_split <- inception_4b/output
I0403 15:21:25.330993 31518 net.cpp:399] inception_4b/output_inception_4b/output_0_split -> inception_4b/output_inception_4b/output_0_split_0
I0403 15:21:25.331019 31518 net.cpp:399] inception_4b/output_inception_4b/output_0_split -> inception_4b/output_inception_4b/output_0_split_1
I0403 15:21:25.331053 31518 net.cpp:399] inception_4b/output_inception_4b/output_0_split -> inception_4b/output_inception_4b/output_0_split_2
I0403 15:21:25.331079 31518 net.cpp:399] inception_4b/output_inception_4b/output_0_split -> inception_4b/output_inception_4b/output_0_split_3
I0403 15:21:25.331181 31518 net.cpp:141] Setting up inception_4b/output_inception_4b/output_0_split
I0403 15:21:25.331210 31518 net.cpp:148] Top shape: 24 512 14 14 (2408448)
I0403 15:21:25.331233 31518 net.cpp:148] Top shape: 24 512 14 14 (2408448)
I0403 15:21:25.331253 31518 net.cpp:148] Top shape: 24 512 14 14 (2408448)
I0403 15:21:25.331272 31518 net.cpp:148] Top shape: 24 512 14 14 (2408448)
I0403 15:21:25.331290 31518 net.cpp:156] Memory required for data: 1028392224
I0403 15:21:25.331310 31518 layer_factory.hpp:77] Creating layer inception_4c/1x1
I0403 15:21:25.331338 31518 net.cpp:91] Creating Layer inception_4c/1x1
I0403 15:21:25.331362 31518 net.cpp:425] inception_4c/1x1 <- inception_4b/output_inception_4b/output_0_split_0
I0403 15:21:25.331387 31518 net.cpp:399] inception_4c/1x1 -> inception_4c/1x1
I0403 15:21:25.333145 31518 net.cpp:141] Setting up inception_4c/1x1
I0403 15:21:25.333184 31518 net.cpp:148] Top shape: 24 128 14 14 (602112)
I0403 15:21:25.333211 31518 net.cpp:156] Memory required for data: 1030800672
I0403 15:21:25.333235 31518 layer_factory.hpp:77] Creating layer inception_4c/relu_1x1
I0403 15:21:25.333258 31518 net.cpp:91] Creating Layer inception_4c/relu_1x1
I0403 15:21:25.333279 31518 net.cpp:425] inception_4c/relu_1x1 <- inception_4c/1x1
I0403 15:21:25.333305 31518 net.cpp:386] inception_4c/relu_1x1 -> inception_4c/1x1 (in-place)
I0403 15:21:25.333539 31518 net.cpp:141] Setting up inception_4c/relu_1x1
I0403 15:21:25.333570 31518 net.cpp:148] Top shape: 24 128 14 14 (602112)
I0403 15:21:25.333590 31518 net.cpp:156] Memory required for data: 1033209120
I0403 15:21:25.333608 31518 layer_factory.hpp:77] Creating layer inception_4c/3x3_reduce
I0403 15:21:25.333636 31518 net.cpp:91] Creating Layer inception_4c/3x3_reduce
I0403 15:21:25.333659 31518 net.cpp:425] inception_4c/3x3_reduce <- inception_4b/output_inception_4b/output_0_split_1
I0403 15:21:25.333686 31518 net.cpp:399] inception_4c/3x3_reduce -> inception_4c/3x3_reduce
I0403 15:21:25.336061 31518 net.cpp:141] Setting up inception_4c/3x3_reduce
I0403 15:21:25.336097 31518 net.cpp:148] Top shape: 24 128 14 14 (602112)
I0403 15:21:25.336118 31518 net.cpp:156] Memory required for data: 1035617568
I0403 15:21:25.336143 31518 layer_factory.hpp:77] Creating layer inception_4c/relu_3x3_reduce
I0403 15:21:25.336169 31518 net.cpp:91] Creating Layer inception_4c/relu_3x3_reduce
I0403 15:21:25.336191 31518 net.cpp:425] inception_4c/relu_3x3_reduce <- inception_4c/3x3_reduce
I0403 15:21:25.336215 31518 net.cpp:386] inception_4c/relu_3x3_reduce -> inception_4c/3x3_reduce (in-place)
I0403 15:21:25.336567 31518 net.cpp:141] Setting up inception_4c/relu_3x3_reduce
I0403 15:21:25.336601 31518 net.cpp:148] Top shape: 24 128 14 14 (602112)
I0403 15:21:25.336621 31518 net.cpp:156] Memory required for data: 1038026016
I0403 15:21:25.336639 31518 layer_factory.hpp:77] Creating layer inception_4c/3x3
I0403 15:21:25.336668 31518 net.cpp:91] Creating Layer inception_4c/3x3
I0403 15:21:25.336691 31518 net.cpp:425] inception_4c/3x3 <- inception_4c/3x3_reduce
I0403 15:21:25.336720 31518 net.cpp:399] inception_4c/3x3 -> inception_4c/3x3
I0403 15:21:25.341114 31518 net.cpp:141] Setting up inception_4c/3x3
I0403 15:21:25.341164 31518 net.cpp:148] Top shape: 24 256 14 14 (1204224)
I0403 15:21:25.341186 31518 net.cpp:156] Memory required for data: 1042842912
I0403 15:21:25.341226 31518 layer_factory.hpp:77] Creating layer inception_4c/relu_3x3
I0403 15:21:25.341259 31518 net.cpp:91] Creating Layer inception_4c/relu_3x3
I0403 15:21:25.341280 31518 net.cpp:425] inception_4c/relu_3x3 <- inception_4c/3x3
I0403 15:21:25.341303 31518 net.cpp:386] inception_4c/relu_3x3 -> inception_4c/3x3 (in-place)
I0403 15:21:25.341533 31518 net.cpp:141] Setting up inception_4c/relu_3x3
I0403 15:21:25.341567 31518 net.cpp:148] Top shape: 24 256 14 14 (1204224)
I0403 15:21:25.341585 31518 net.cpp:156] Memory required for data: 1047659808
I0403 15:21:25.341611 31518 layer_factory.hpp:77] Creating layer inception_4c/5x5_reduce
I0403 15:21:25.341642 31518 net.cpp:91] Creating Layer inception_4c/5x5_reduce
I0403 15:21:25.341665 31518 net.cpp:425] inception_4c/5x5_reduce <- inception_4b/output_inception_4b/output_0_split_2
I0403 15:21:25.341691 31518 net.cpp:399] inception_4c/5x5_reduce -> inception_4c/5x5_reduce
I0403 15:21:25.343029 31518 net.cpp:141] Setting up inception_4c/5x5_reduce
I0403 15:21:25.343063 31518 net.cpp:148] Top shape: 24 24 14 14 (112896)
I0403 15:21:25.343083 31518 net.cpp:156] Memory required for data: 1048111392
I0403 15:21:25.343107 31518 layer_factory.hpp:77] Creating layer inception_4c/relu_5x5_reduce
I0403 15:21:25.343134 31518 net.cpp:91] Creating Layer inception_4c/relu_5x5_reduce
I0403 15:21:25.343155 31518 net.cpp:425] inception_4c/relu_5x5_reduce <- inception_4c/5x5_reduce
I0403 15:21:25.343178 31518 net.cpp:386] inception_4c/relu_5x5_reduce -> inception_4c/5x5_reduce (in-place)
I0403 15:21:25.343406 31518 net.cpp:141] Setting up inception_4c/relu_5x5_reduce
I0403 15:21:25.343439 31518 net.cpp:148] Top shape: 24 24 14 14 (112896)
I0403 15:21:25.343461 31518 net.cpp:156] Memory required for data: 1048562976
I0403 15:21:25.343480 31518 layer_factory.hpp:77] Creating layer inception_4c/5x5
I0403 15:21:25.343513 31518 net.cpp:91] Creating Layer inception_4c/5x5
I0403 15:21:25.343538 31518 net.cpp:425] inception_4c/5x5 <- inception_4c/5x5_reduce
I0403 15:21:25.343566 31518 net.cpp:399] inception_4c/5x5 -> inception_4c/5x5
I0403 15:21:25.345093 31518 net.cpp:141] Setting up inception_4c/5x5
I0403 15:21:25.345129 31518 net.cpp:148] Top shape: 24 64 14 14 (301056)
I0403 15:21:25.345151 31518 net.cpp:156] Memory required for data: 1049767200
I0403 15:21:25.345176 31518 layer_factory.hpp:77] Creating layer inception_4c/relu_5x5
I0403 15:21:25.345208 31518 net.cpp:91] Creating Layer inception_4c/relu_5x5
I0403 15:21:25.345230 31518 net.cpp:425] inception_4c/relu_5x5 <- inception_4c/5x5
I0403 15:21:25.345255 31518 net.cpp:386] inception_4c/relu_5x5 -> inception_4c/5x5 (in-place)
I0403 15:21:25.345625 31518 net.cpp:141] Setting up inception_4c/relu_5x5
I0403 15:21:25.345661 31518 net.cpp:148] Top shape: 24 64 14 14 (301056)
I0403 15:21:25.345681 31518 net.cpp:156] Memory required for data: 1050971424
I0403 15:21:25.345701 31518 layer_factory.hpp:77] Creating layer inception_4c/pool
I0403 15:21:25.345724 31518 net.cpp:91] Creating Layer inception_4c/pool
I0403 15:21:25.345746 31518 net.cpp:425] inception_4c/pool <- inception_4b/output_inception_4b/output_0_split_3
I0403 15:21:25.345772 31518 net.cpp:399] inception_4c/pool -> inception_4c/pool
I0403 15:21:25.345854 31518 net.cpp:141] Setting up inception_4c/pool
I0403 15:21:25.345885 31518 net.cpp:148] Top shape: 24 512 14 14 (2408448)
I0403 15:21:25.345911 31518 net.cpp:156] Memory required for data: 1060605216
I0403 15:21:25.345930 31518 layer_factory.hpp:77] Creating layer inception_4c/pool_proj
I0403 15:21:25.345957 31518 net.cpp:91] Creating Layer inception_4c/pool_proj
I0403 15:21:25.345979 31518 net.cpp:425] inception_4c/pool_proj <- inception_4c/pool
I0403 15:21:25.346005 31518 net.cpp:399] inception_4c/pool_proj -> inception_4c/pool_proj
I0403 15:21:25.347506 31518 net.cpp:141] Setting up inception_4c/pool_proj
I0403 15:21:25.347542 31518 net.cpp:148] Top shape: 24 64 14 14 (301056)
I0403 15:21:25.347579 31518 net.cpp:156] Memory required for data: 1061809440
I0403 15:21:25.347605 31518 layer_factory.hpp:77] Creating layer inception_4c/relu_pool_proj
I0403 15:21:25.347635 31518 net.cpp:91] Creating Layer inception_4c/relu_pool_proj
I0403 15:21:25.347656 31518 net.cpp:425] inception_4c/relu_pool_proj <- inception_4c/pool_proj
I0403 15:21:25.347678 31518 net.cpp:386] inception_4c/relu_pool_proj -> inception_4c/pool_proj (in-place)
I0403 15:21:25.347903 31518 net.cpp:141] Setting up inception_4c/relu_pool_proj
I0403 15:21:25.347936 31518 net.cpp:148] Top shape: 24 64 14 14 (301056)
I0403 15:21:25.347956 31518 net.cpp:156] Memory required for data: 1063013664
I0403 15:21:25.347975 31518 layer_factory.hpp:77] Creating layer inception_4c/output
I0403 15:21:25.347998 31518 net.cpp:91] Creating Layer inception_4c/output
I0403 15:21:25.348021 31518 net.cpp:425] inception_4c/output <- inception_4c/1x1
I0403 15:21:25.348042 31518 net.cpp:425] inception_4c/output <- inception_4c/3x3
I0403 15:21:25.348063 31518 net.cpp:425] inception_4c/output <- inception_4c/5x5
I0403 15:21:25.348085 31518 net.cpp:425] inception_4c/output <- inception_4c/pool_proj
I0403 15:21:25.348110 31518 net.cpp:399] inception_4c/output -> inception_4c/output
I0403 15:21:25.348168 31518 net.cpp:141] Setting up inception_4c/output
I0403 15:21:25.348198 31518 net.cpp:148] Top shape: 24 512 14 14 (2408448)
I0403 15:21:25.348218 31518 net.cpp:156] Memory required for data: 1072647456
I0403 15:21:25.348237 31518 layer_factory.hpp:77] Creating layer inception_4c/output_inception_4c/output_0_split
I0403 15:21:25.348263 31518 net.cpp:91] Creating Layer inception_4c/output_inception_4c/output_0_split
I0403 15:21:25.348284 31518 net.cpp:425] inception_4c/output_inception_4c/output_0_split <- inception_4c/output
I0403 15:21:25.348306 31518 net.cpp:399] inception_4c/output_inception_4c/output_0_split -> inception_4c/output_inception_4c/output_0_split_0
I0403 15:21:25.348332 31518 net.cpp:399] inception_4c/output_inception_4c/output_0_split -> inception_4c/output_inception_4c/output_0_split_1
I0403 15:21:25.348362 31518 net.cpp:399] inception_4c/output_inception_4c/output_0_split -> inception_4c/output_inception_4c/output_0_split_2
I0403 15:21:25.348388 31518 net.cpp:399] inception_4c/output_inception_4c/output_0_split -> inception_4c/output_inception_4c/output_0_split_3
I0403 15:21:25.348495 31518 net.cpp:141] Setting up inception_4c/output_inception_4c/output_0_split
I0403 15:21:25.348531 31518 net.cpp:148] Top shape: 24 512 14 14 (2408448)
I0403 15:21:25.348551 31518 net.cpp:148] Top shape: 24 512 14 14 (2408448)
I0403 15:21:25.348573 31518 net.cpp:148] Top shape: 24 512 14 14 (2408448)
I0403 15:21:25.348594 31518 net.cpp:148] Top shape: 24 512 14 14 (2408448)
I0403 15:21:25.348613 31518 net.cpp:156] Memory required for data: 1111182624
I0403 15:21:25.348641 31518 layer_factory.hpp:77] Creating layer inception_4d/1x1
I0403 15:21:25.348670 31518 net.cpp:91] Creating Layer inception_4d/1x1
I0403 15:21:25.348691 31518 net.cpp:425] inception_4d/1x1 <- inception_4c/output_inception_4c/output_0_split_0
I0403 15:21:25.348719 31518 net.cpp:399] inception_4d/1x1 -> inception_4d/1x1
I0403 15:21:25.350402 31518 net.cpp:141] Setting up inception_4d/1x1
I0403 15:21:25.350437 31518 net.cpp:148] Top shape: 24 112 14 14 (526848)
I0403 15:21:25.350456 31518 net.cpp:156] Memory required for data: 1113290016
I0403 15:21:25.350481 31518 layer_factory.hpp:77] Creating layer inception_4d/relu_1x1
I0403 15:21:25.350513 31518 net.cpp:91] Creating Layer inception_4d/relu_1x1
I0403 15:21:25.350543 31518 net.cpp:425] inception_4d/relu_1x1 <- inception_4d/1x1
I0403 15:21:25.350566 31518 net.cpp:386] inception_4d/relu_1x1 -> inception_4d/1x1 (in-place)
I0403 15:21:25.350797 31518 net.cpp:141] Setting up inception_4d/relu_1x1
I0403 15:21:25.350838 31518 net.cpp:148] Top shape: 24 112 14 14 (526848)
I0403 15:21:25.350857 31518 net.cpp:156] Memory required for data: 1115397408
I0403 15:21:25.350877 31518 layer_factory.hpp:77] Creating layer inception_4d/3x3_reduce
I0403 15:21:25.350924 31518 net.cpp:91] Creating Layer inception_4d/3x3_reduce
I0403 15:21:25.350949 31518 net.cpp:425] inception_4d/3x3_reduce <- inception_4c/output_inception_4c/output_0_split_1
I0403 15:21:25.350975 31518 net.cpp:399] inception_4d/3x3_reduce -> inception_4d/3x3_reduce
I0403 15:21:25.352818 31518 net.cpp:141] Setting up inception_4d/3x3_reduce
I0403 15:21:25.352852 31518 net.cpp:148] Top shape: 24 144 14 14 (677376)
I0403 15:21:25.352872 31518 net.cpp:156] Memory required for data: 1118106912
I0403 15:21:25.352897 31518 layer_factory.hpp:77] Creating layer inception_4d/relu_3x3_reduce
I0403 15:21:25.352921 31518 net.cpp:91] Creating Layer inception_4d/relu_3x3_reduce
I0403 15:21:25.352941 31518 net.cpp:425] inception_4d/relu_3x3_reduce <- inception_4d/3x3_reduce
I0403 15:21:25.352967 31518 net.cpp:386] inception_4d/relu_3x3_reduce -> inception_4d/3x3_reduce (in-place)
I0403 15:21:25.353318 31518 net.cpp:141] Setting up inception_4d/relu_3x3_reduce
I0403 15:21:25.353351 31518 net.cpp:148] Top shape: 24 144 14 14 (677376)
I0403 15:21:25.353370 31518 net.cpp:156] Memory required for data: 1120816416
I0403 15:21:25.353390 31518 layer_factory.hpp:77] Creating layer inception_4d/3x3
I0403 15:21:25.353420 31518 net.cpp:91] Creating Layer inception_4d/3x3
I0403 15:21:25.353442 31518 net.cpp:425] inception_4d/3x3 <- inception_4d/3x3_reduce
I0403 15:21:25.353469 31518 net.cpp:399] inception_4d/3x3 -> inception_4d/3x3
I0403 15:21:25.358772 31518 net.cpp:141] Setting up inception_4d/3x3
I0403 15:21:25.358809 31518 net.cpp:148] Top shape: 24 288 14 14 (1354752)
I0403 15:21:25.358831 31518 net.cpp:156] Memory required for data: 1126235424
I0403 15:21:25.358855 31518 layer_factory.hpp:77] Creating layer inception_4d/relu_3x3
I0403 15:21:25.358882 31518 net.cpp:91] Creating Layer inception_4d/relu_3x3
I0403 15:21:25.358904 31518 net.cpp:425] inception_4d/relu_3x3 <- inception_4d/3x3
I0403 15:21:25.358927 31518 net.cpp:386] inception_4d/relu_3x3 -> inception_4d/3x3 (in-place)
I0403 15:21:25.359153 31518 net.cpp:141] Setting up inception_4d/relu_3x3
I0403 15:21:25.359187 31518 net.cpp:148] Top shape: 24 288 14 14 (1354752)
I0403 15:21:25.359207 31518 net.cpp:156] Memory required for data: 1131654432
I0403 15:21:25.359226 31518 layer_factory.hpp:77] Creating layer inception_4d/5x5_reduce
I0403 15:21:25.359252 31518 net.cpp:91] Creating Layer inception_4d/5x5_reduce
I0403 15:21:25.359273 31518 net.cpp:425] inception_4d/5x5_reduce <- inception_4c/output_inception_4c/output_0_split_2
I0403 15:21:25.359302 31518 net.cpp:399] inception_4d/5x5_reduce -> inception_4d/5x5_reduce
I0403 15:21:25.360716 31518 net.cpp:141] Setting up inception_4d/5x5_reduce
I0403 15:21:25.360751 31518 net.cpp:148] Top shape: 24 32 14 14 (150528)
I0403 15:21:25.360771 31518 net.cpp:156] Memory required for data: 1132256544
I0403 15:21:25.360795 31518 layer_factory.hpp:77] Creating layer inception_4d/relu_5x5_reduce
I0403 15:21:25.360821 31518 net.cpp:91] Creating Layer inception_4d/relu_5x5_reduce
I0403 15:21:25.360843 31518 net.cpp:425] inception_4d/relu_5x5_reduce <- inception_4d/5x5_reduce
I0403 15:21:25.360865 31518 net.cpp:386] inception_4d/relu_5x5_reduce -> inception_4d/5x5_reduce (in-place)
I0403 15:21:25.361099 31518 net.cpp:141] Setting up inception_4d/relu_5x5_reduce
I0403 15:21:25.361130 31518 net.cpp:148] Top shape: 24 32 14 14 (150528)
I0403 15:21:25.361150 31518 net.cpp:156] Memory required for data: 1132858656
I0403 15:21:25.361169 31518 layer_factory.hpp:77] Creating layer inception_4d/5x5
I0403 15:21:25.361199 31518 net.cpp:91] Creating Layer inception_4d/5x5
I0403 15:21:25.361222 31518 net.cpp:425] inception_4d/5x5 <- inception_4d/5x5_reduce
I0403 15:21:25.361246 31518 net.cpp:399] inception_4d/5x5 -> inception_4d/5x5
I0403 15:21:25.363049 31518 net.cpp:141] Setting up inception_4d/5x5
I0403 15:21:25.363085 31518 net.cpp:148] Top shape: 24 64 14 14 (301056)
I0403 15:21:25.363107 31518 net.cpp:156] Memory required for data: 1134062880
I0403 15:21:25.363132 31518 layer_factory.hpp:77] Creating layer inception_4d/relu_5x5
I0403 15:21:25.363173 31518 net.cpp:91] Creating Layer inception_4d/relu_5x5
I0403 15:21:25.363195 31518 net.cpp:425] inception_4d/relu_5x5 <- inception_4d/5x5
I0403 15:21:25.363220 31518 net.cpp:386] inception_4d/relu_5x5 -> inception_4d/5x5 (in-place)
I0403 15:21:25.363592 31518 net.cpp:141] Setting up inception_4d/relu_5x5
I0403 15:21:25.363627 31518 net.cpp:148] Top shape: 24 64 14 14 (301056)
I0403 15:21:25.363648 31518 net.cpp:156] Memory required for data: 1135267104
I0403 15:21:25.363668 31518 layer_factory.hpp:77] Creating layer inception_4d/pool
I0403 15:21:25.363692 31518 net.cpp:91] Creating Layer inception_4d/pool
I0403 15:21:25.363713 31518 net.cpp:425] inception_4d/pool <- inception_4c/output_inception_4c/output_0_split_3
I0403 15:21:25.363739 31518 net.cpp:399] inception_4d/pool -> inception_4d/pool
I0403 15:21:25.363823 31518 net.cpp:141] Setting up inception_4d/pool
I0403 15:21:25.363854 31518 net.cpp:148] Top shape: 24 512 14 14 (2408448)
I0403 15:21:25.363873 31518 net.cpp:156] Memory required for data: 1144900896
I0403 15:21:25.363894 31518 layer_factory.hpp:77] Creating layer inception_4d/pool_proj
I0403 15:21:25.363925 31518 net.cpp:91] Creating Layer inception_4d/pool_proj
I0403 15:21:25.363956 31518 net.cpp:425] inception_4d/pool_proj <- inception_4d/pool
I0403 15:21:25.363984 31518 net.cpp:399] inception_4d/pool_proj -> inception_4d/pool_proj
I0403 15:21:25.366142 31518 net.cpp:141] Setting up inception_4d/pool_proj
I0403 15:21:25.366178 31518 net.cpp:148] Top shape: 24 64 14 14 (301056)
I0403 15:21:25.366199 31518 net.cpp:156] Memory required for data: 1146105120
I0403 15:21:25.366222 31518 layer_factory.hpp:77] Creating layer inception_4d/relu_pool_proj
I0403 15:21:25.366248 31518 net.cpp:91] Creating Layer inception_4d/relu_pool_proj
I0403 15:21:25.366271 31518 net.cpp:425] inception_4d/relu_pool_proj <- inception_4d/pool_proj
I0403 15:21:25.366293 31518 net.cpp:386] inception_4d/relu_pool_proj -> inception_4d/pool_proj (in-place)
I0403 15:21:25.366526 31518 net.cpp:141] Setting up inception_4d/relu_pool_proj
I0403 15:21:25.366560 31518 net.cpp:148] Top shape: 24 64 14 14 (301056)
I0403 15:21:25.366583 31518 net.cpp:156] Memory required for data: 1147309344
I0403 15:21:25.366602 31518 layer_factory.hpp:77] Creating layer inception_4d/output
I0403 15:21:25.366626 31518 net.cpp:91] Creating Layer inception_4d/output
I0403 15:21:25.366647 31518 net.cpp:425] inception_4d/output <- inception_4d/1x1
I0403 15:21:25.366667 31518 net.cpp:425] inception_4d/output <- inception_4d/3x3
I0403 15:21:25.366689 31518 net.cpp:425] inception_4d/output <- inception_4d/5x5
I0403 15:21:25.366710 31518 net.cpp:425] inception_4d/output <- inception_4d/pool_proj
I0403 15:21:25.366732 31518 net.cpp:399] inception_4d/output -> inception_4d/output
I0403 15:21:25.366793 31518 net.cpp:141] Setting up inception_4d/output
I0403 15:21:25.366823 31518 net.cpp:148] Top shape: 24 528 14 14 (2483712)
I0403 15:21:25.366842 31518 net.cpp:156] Memory required for data: 1157244192
I0403 15:21:25.366863 31518 layer_factory.hpp:77] Creating layer inception_4d/output_inception_4d/output_0_split
I0403 15:21:25.366888 31518 net.cpp:91] Creating Layer inception_4d/output_inception_4d/output_0_split
I0403 15:21:25.366909 31518 net.cpp:425] inception_4d/output_inception_4d/output_0_split <- inception_4d/output
I0403 15:21:25.366932 31518 net.cpp:399] inception_4d/output_inception_4d/output_0_split -> inception_4d/output_inception_4d/output_0_split_0
I0403 15:21:25.366958 31518 net.cpp:399] inception_4d/output_inception_4d/output_0_split -> inception_4d/output_inception_4d/output_0_split_1
I0403 15:21:25.366986 31518 net.cpp:399] inception_4d/output_inception_4d/output_0_split -> inception_4d/output_inception_4d/output_0_split_2
I0403 15:21:25.367012 31518 net.cpp:399] inception_4d/output_inception_4d/output_0_split -> inception_4d/output_inception_4d/output_0_split_3
I0403 15:21:25.367039 31518 net.cpp:399] inception_4d/output_inception_4d/output_0_split -> inception_4d/output_inception_4d/output_0_split_4
I0403 15:21:25.367168 31518 net.cpp:141] Setting up inception_4d/output_inception_4d/output_0_split
I0403 15:21:25.367213 31518 net.cpp:148] Top shape: 24 528 14 14 (2483712)
I0403 15:21:25.367235 31518 net.cpp:148] Top shape: 24 528 14 14 (2483712)
I0403 15:21:25.367257 31518 net.cpp:148] Top shape: 24 528 14 14 (2483712)
I0403 15:21:25.367277 31518 net.cpp:148] Top shape: 24 528 14 14 (2483712)
I0403 15:21:25.367298 31518 net.cpp:148] Top shape: 24 528 14 14 (2483712)
I0403 15:21:25.367316 31518 net.cpp:156] Memory required for data: 1206918432
I0403 15:21:25.367336 31518 layer_factory.hpp:77] Creating layer loss2/ave_pool
I0403 15:21:25.367359 31518 net.cpp:91] Creating Layer loss2/ave_pool
I0403 15:21:25.367382 31518 net.cpp:425] loss2/ave_pool <- inception_4d/output_inception_4d/output_0_split_0
I0403 15:21:25.367409 31518 net.cpp:399] loss2/ave_pool -> loss2/ave_pool
I0403 15:21:25.367795 31518 net.cpp:141] Setting up loss2/ave_pool
I0403 15:21:25.367828 31518 net.cpp:148] Top shape: 24 528 4 4 (202752)
I0403 15:21:25.367848 31518 net.cpp:156] Memory required for data: 1207729440
I0403 15:21:25.367868 31518 layer_factory.hpp:77] Creating layer loss2/conv
I0403 15:21:25.367897 31518 net.cpp:91] Creating Layer loss2/conv
I0403 15:21:25.367920 31518 net.cpp:425] loss2/conv <- loss2/ave_pool
I0403 15:21:25.367949 31518 net.cpp:399] loss2/conv -> loss2/conv
I0403 15:21:25.370260 31518 net.cpp:141] Setting up loss2/conv
I0403 15:21:25.370298 31518 net.cpp:148] Top shape: 24 128 4 4 (49152)
I0403 15:21:25.370321 31518 net.cpp:156] Memory required for data: 1207926048
I0403 15:21:25.370344 31518 layer_factory.hpp:77] Creating layer loss2/relu_conv
I0403 15:21:25.370368 31518 net.cpp:91] Creating Layer loss2/relu_conv
I0403 15:21:25.370389 31518 net.cpp:425] loss2/relu_conv <- loss2/conv
I0403 15:21:25.370414 31518 net.cpp:386] loss2/relu_conv -> loss2/conv (in-place)
I0403 15:21:25.370771 31518 net.cpp:141] Setting up loss2/relu_conv
I0403 15:21:25.370807 31518 net.cpp:148] Top shape: 24 128 4 4 (49152)
I0403 15:21:25.370826 31518 net.cpp:156] Memory required for data: 1208122656
I0403 15:21:25.370846 31518 layer_factory.hpp:77] Creating layer loss2/fc
I0403 15:21:25.370872 31518 net.cpp:91] Creating Layer loss2/fc
I0403 15:21:25.370892 31518 net.cpp:425] loss2/fc <- loss2/conv
I0403 15:21:25.370918 31518 net.cpp:399] loss2/fc -> loss2/fc
I0403 15:21:25.392701 31518 net.cpp:141] Setting up loss2/fc
I0403 15:21:25.392742 31518 net.cpp:148] Top shape: 24 1024 (24576)
I0403 15:21:25.392763 31518 net.cpp:156] Memory required for data: 1208220960
I0403 15:21:25.392787 31518 layer_factory.hpp:77] Creating layer loss2/relu_fc
I0403 15:21:25.392813 31518 net.cpp:91] Creating Layer loss2/relu_fc
I0403 15:21:25.392837 31518 net.cpp:425] loss2/relu_fc <- loss2/fc
I0403 15:21:25.392860 31518 net.cpp:386] loss2/relu_fc -> loss2/fc (in-place)
I0403 15:21:25.393224 31518 net.cpp:141] Setting up loss2/relu_fc
I0403 15:21:25.393257 31518 net.cpp:148] Top shape: 24 1024 (24576)
I0403 15:21:25.393277 31518 net.cpp:156] Memory required for data: 1208319264
I0403 15:21:25.393297 31518 layer_factory.hpp:77] Creating layer loss2/drop_fc
I0403 15:21:25.393324 31518 net.cpp:91] Creating Layer loss2/drop_fc
I0403 15:21:25.393347 31518 net.cpp:425] loss2/drop_fc <- loss2/fc
I0403 15:21:25.393369 31518 net.cpp:386] loss2/drop_fc -> loss2/fc (in-place)
I0403 15:21:25.393434 31518 net.cpp:141] Setting up loss2/drop_fc
I0403 15:21:25.393462 31518 net.cpp:148] Top shape: 24 1024 (24576)
I0403 15:21:25.393482 31518 net.cpp:156] Memory required for data: 1208417568
I0403 15:21:25.393508 31518 layer_factory.hpp:77] Creating layer loss2/classifier_plantvillage
I0403 15:21:25.393534 31518 net.cpp:91] Creating Layer loss2/classifier_plantvillage
I0403 15:21:25.393561 31518 net.cpp:425] loss2/classifier_plantvillage <- loss2/fc
I0403 15:21:25.393586 31518 net.cpp:399] loss2/classifier_plantvillage -> loss2/classifier_plantvillage
I0403 15:21:25.394081 31518 net.cpp:141] Setting up loss2/classifier_plantvillage
I0403 15:21:25.394114 31518 net.cpp:148] Top shape: 24 38 (912)
I0403 15:21:25.394151 31518 net.cpp:156] Memory required for data: 1208421216
I0403 15:21:25.394176 31518 layer_factory.hpp:77] Creating layer loss2/classifier_plantvillage_loss2/classifier_plantvillage_0_split
I0403 15:21:25.394201 31518 net.cpp:91] Creating Layer loss2/classifier_plantvillage_loss2/classifier_plantvillage_0_split
I0403 15:21:25.394222 31518 net.cpp:425] loss2/classifier_plantvillage_loss2/classifier_plantvillage_0_split <- loss2/classifier_plantvillage
I0403 15:21:25.394248 31518 net.cpp:399] loss2/classifier_plantvillage_loss2/classifier_plantvillage_0_split -> loss2/classifier_plantvillage_loss2/classifier_plantvillage_0_split_0
I0403 15:21:25.394274 31518 net.cpp:399] loss2/classifier_plantvillage_loss2/classifier_plantvillage_0_split -> loss2/classifier_plantvillage_loss2/classifier_plantvillage_0_split_1
I0403 15:21:25.394299 31518 net.cpp:399] loss2/classifier_plantvillage_loss2/classifier_plantvillage_0_split -> loss2/classifier_plantvillage_loss2/classifier_plantvillage_0_split_2
I0403 15:21:25.394395 31518 net.cpp:141] Setting up loss2/classifier_plantvillage_loss2/classifier_plantvillage_0_split
I0403 15:21:25.394428 31518 net.cpp:148] Top shape: 24 38 (912)
I0403 15:21:25.394450 31518 net.cpp:148] Top shape: 24 38 (912)
I0403 15:21:25.394470 31518 net.cpp:148] Top shape: 24 38 (912)
I0403 15:21:25.394489 31518 net.cpp:156] Memory required for data: 1208432160
I0403 15:21:25.394531 31518 layer_factory.hpp:77] Creating layer inception_4e/1x1
I0403 15:21:25.394563 31518 net.cpp:91] Creating Layer inception_4e/1x1
I0403 15:21:25.394587 31518 net.cpp:425] inception_4e/1x1 <- inception_4d/output_inception_4d/output_0_split_1
I0403 15:21:25.394613 31518 net.cpp:399] inception_4e/1x1 -> inception_4e/1x1
I0403 15:21:25.396863 31518 net.cpp:141] Setting up inception_4e/1x1
I0403 15:21:25.396901 31518 net.cpp:148] Top shape: 24 256 14 14 (1204224)
I0403 15:21:25.396924 31518 net.cpp:156] Memory required for data: 1213249056
I0403 15:21:25.396947 31518 layer_factory.hpp:77] Creating layer inception_4e/relu_1x1
I0403 15:21:25.396971 31518 net.cpp:91] Creating Layer inception_4e/relu_1x1
I0403 15:21:25.396991 31518 net.cpp:425] inception_4e/relu_1x1 <- inception_4e/1x1
I0403 15:21:25.397017 31518 net.cpp:386] inception_4e/relu_1x1 -> inception_4e/1x1 (in-place)
I0403 15:21:25.397374 31518 net.cpp:141] Setting up inception_4e/relu_1x1
I0403 15:21:25.397413 31518 net.cpp:148] Top shape: 24 256 14 14 (1204224)
I0403 15:21:25.397433 31518 net.cpp:156] Memory required for data: 1218065952
I0403 15:21:25.397454 31518 layer_factory.hpp:77] Creating layer inception_4e/3x3_reduce
I0403 15:21:25.397482 31518 net.cpp:91] Creating Layer inception_4e/3x3_reduce
I0403 15:21:25.397511 31518 net.cpp:425] inception_4e/3x3_reduce <- inception_4d/output_inception_4d/output_0_split_2
I0403 15:21:25.397537 31518 net.cpp:399] inception_4e/3x3_reduce -> inception_4e/3x3_reduce
I0403 15:21:25.400122 31518 net.cpp:141] Setting up inception_4e/3x3_reduce
I0403 15:21:25.400161 31518 net.cpp:148] Top shape: 24 160 14 14 (752640)
I0403 15:21:25.400182 31518 net.cpp:156] Memory required for data: 1221076512
I0403 15:21:25.400207 31518 layer_factory.hpp:77] Creating layer inception_4e/relu_3x3_reduce
I0403 15:21:25.400229 31518 net.cpp:91] Creating Layer inception_4e/relu_3x3_reduce
I0403 15:21:25.400251 31518 net.cpp:425] inception_4e/relu_3x3_reduce <- inception_4e/3x3_reduce
I0403 15:21:25.400274 31518 net.cpp:386] inception_4e/relu_3x3_reduce -> inception_4e/3x3_reduce (in-place)
I0403 15:21:25.400511 31518 net.cpp:141] Setting up inception_4e/relu_3x3_reduce
I0403 15:21:25.400545 31518 net.cpp:148] Top shape: 24 160 14 14 (752640)
I0403 15:21:25.400568 31518 net.cpp:156] Memory required for data: 1224087072
I0403 15:21:25.400586 31518 layer_factory.hpp:77] Creating layer inception_4e/3x3
I0403 15:21:25.400616 31518 net.cpp:91] Creating Layer inception_4e/3x3
I0403 15:21:25.400640 31518 net.cpp:425] inception_4e/3x3 <- inception_4e/3x3_reduce
I0403 15:21:25.400667 31518 net.cpp:399] inception_4e/3x3 -> inception_4e/3x3
I0403 15:21:25.406857 31518 net.cpp:141] Setting up inception_4e/3x3
I0403 15:21:25.406909 31518 net.cpp:148] Top shape: 24 320 14 14 (1505280)
I0403 15:21:25.406931 31518 net.cpp:156] Memory required for data: 1230108192
I0403 15:21:25.406956 31518 layer_factory.hpp:77] Creating layer inception_4e/relu_3x3
I0403 15:21:25.406981 31518 net.cpp:91] Creating Layer inception_4e/relu_3x3
I0403 15:21:25.407003 31518 net.cpp:425] inception_4e/relu_3x3 <- inception_4e/3x3
I0403 15:21:25.407028 31518 net.cpp:386] inception_4e/relu_3x3 -> inception_4e/3x3 (in-place)
I0403 15:21:25.407398 31518 net.cpp:141] Setting up inception_4e/relu_3x3
I0403 15:21:25.407431 31518 net.cpp:148] Top shape: 24 320 14 14 (1505280)
I0403 15:21:25.407450 31518 net.cpp:156] Memory required for data: 1236129312
I0403 15:21:25.407469 31518 layer_factory.hpp:77] Creating layer inception_4e/5x5_reduce
I0403 15:21:25.407498 31518 net.cpp:91] Creating Layer inception_4e/5x5_reduce
I0403 15:21:25.407527 31518 net.cpp:425] inception_4e/5x5_reduce <- inception_4d/output_inception_4d/output_0_split_3
I0403 15:21:25.407557 31518 net.cpp:399] inception_4e/5x5_reduce -> inception_4e/5x5_reduce
I0403 15:21:25.408900 31518 net.cpp:141] Setting up inception_4e/5x5_reduce
I0403 15:21:25.408938 31518 net.cpp:148] Top shape: 24 32 14 14 (150528)
I0403 15:21:25.408959 31518 net.cpp:156] Memory required for data: 1236731424
I0403 15:21:25.408983 31518 layer_factory.hpp:77] Creating layer inception_4e/relu_5x5_reduce
I0403 15:21:25.409008 31518 net.cpp:91] Creating Layer inception_4e/relu_5x5_reduce
I0403 15:21:25.409029 31518 net.cpp:425] inception_4e/relu_5x5_reduce <- inception_4e/5x5_reduce
I0403 15:21:25.409054 31518 net.cpp:386] inception_4e/relu_5x5_reduce -> inception_4e/5x5_reduce (in-place)
I0403 15:21:25.409420 31518 net.cpp:141] Setting up inception_4e/relu_5x5_reduce
I0403 15:21:25.409454 31518 net.cpp:148] Top shape: 24 32 14 14 (150528)
I0403 15:21:25.409476 31518 net.cpp:156] Memory required for data: 1237333536
I0403 15:21:25.409495 31518 layer_factory.hpp:77] Creating layer inception_4e/5x5
I0403 15:21:25.409550 31518 net.cpp:91] Creating Layer inception_4e/5x5
I0403 15:21:25.409577 31518 net.cpp:425] inception_4e/5x5 <- inception_4e/5x5_reduce
I0403 15:21:25.409602 31518 net.cpp:399] inception_4e/5x5 -> inception_4e/5x5
I0403 15:21:25.411870 31518 net.cpp:141] Setting up inception_4e/5x5
I0403 15:21:25.411906 31518 net.cpp:148] Top shape: 24 128 14 14 (602112)
I0403 15:21:25.411926 31518 net.cpp:156] Memory required for data: 1239741984
I0403 15:21:25.411952 31518 layer_factory.hpp:77] Creating layer inception_4e/relu_5x5
I0403 15:21:25.411978 31518 net.cpp:91] Creating Layer inception_4e/relu_5x5
I0403 15:21:25.412000 31518 net.cpp:425] inception_4e/relu_5x5 <- inception_4e/5x5
I0403 15:21:25.412024 31518 net.cpp:386] inception_4e/relu_5x5 -> inception_4e/5x5 (in-place)
I0403 15:21:25.412269 31518 net.cpp:141] Setting up inception_4e/relu_5x5
I0403 15:21:25.412303 31518 net.cpp:148] Top shape: 24 128 14 14 (602112)
I0403 15:21:25.412323 31518 net.cpp:156] Memory required for data: 1242150432
I0403 15:21:25.412343 31518 layer_factory.hpp:77] Creating layer inception_4e/pool
I0403 15:21:25.412365 31518 net.cpp:91] Creating Layer inception_4e/pool
I0403 15:21:25.412387 31518 net.cpp:425] inception_4e/pool <- inception_4d/output_inception_4d/output_0_split_4
I0403 15:21:25.412413 31518 net.cpp:399] inception_4e/pool -> inception_4e/pool
I0403 15:21:25.412500 31518 net.cpp:141] Setting up inception_4e/pool
I0403 15:21:25.412535 31518 net.cpp:148] Top shape: 24 528 14 14 (2483712)
I0403 15:21:25.412555 31518 net.cpp:156] Memory required for data: 1252085280
I0403 15:21:25.412575 31518 layer_factory.hpp:77] Creating layer inception_4e/pool_proj
I0403 15:21:25.412605 31518 net.cpp:91] Creating Layer inception_4e/pool_proj
I0403 15:21:25.412628 31518 net.cpp:425] inception_4e/pool_proj <- inception_4e/pool
I0403 15:21:25.412655 31518 net.cpp:399] inception_4e/pool_proj -> inception_4e/pool_proj
I0403 15:21:25.414541 31518 net.cpp:141] Setting up inception_4e/pool_proj
I0403 15:21:25.414592 31518 net.cpp:148] Top shape: 24 128 14 14 (602112)
I0403 15:21:25.414613 31518 net.cpp:156] Memory required for data: 1254493728
I0403 15:21:25.414638 31518 layer_factory.hpp:77] Creating layer inception_4e/relu_pool_proj
I0403 15:21:25.414664 31518 net.cpp:91] Creating Layer inception_4e/relu_pool_proj
I0403 15:21:25.414687 31518 net.cpp:425] inception_4e/relu_pool_proj <- inception_4e/pool_proj
I0403 15:21:25.414710 31518 net.cpp:386] inception_4e/relu_pool_proj -> inception_4e/pool_proj (in-place)
I0403 15:21:25.415076 31518 net.cpp:141] Setting up inception_4e/relu_pool_proj
I0403 15:21:25.415108 31518 net.cpp:148] Top shape: 24 128 14 14 (602112)
I0403 15:21:25.415127 31518 net.cpp:156] Memory required for data: 1256902176
I0403 15:21:25.415146 31518 layer_factory.hpp:77] Creating layer inception_4e/output
I0403 15:21:25.415169 31518 net.cpp:91] Creating Layer inception_4e/output
I0403 15:21:25.415191 31518 net.cpp:425] inception_4e/output <- inception_4e/1x1
I0403 15:21:25.415213 31518 net.cpp:425] inception_4e/output <- inception_4e/3x3
I0403 15:21:25.415233 31518 net.cpp:425] inception_4e/output <- inception_4e/5x5
I0403 15:21:25.415256 31518 net.cpp:425] inception_4e/output <- inception_4e/pool_proj
I0403 15:21:25.415280 31518 net.cpp:399] inception_4e/output -> inception_4e/output
I0403 15:21:25.415346 31518 net.cpp:141] Setting up inception_4e/output
I0403 15:21:25.415376 31518 net.cpp:148] Top shape: 24 832 14 14 (3913728)
I0403 15:21:25.415396 31518 net.cpp:156] Memory required for data: 1272557088
I0403 15:21:25.415416 31518 layer_factory.hpp:77] Creating layer pool4/3x3_s2
I0403 15:21:25.415437 31518 net.cpp:91] Creating Layer pool4/3x3_s2
I0403 15:21:25.415458 31518 net.cpp:425] pool4/3x3_s2 <- inception_4e/output
I0403 15:21:25.415485 31518 net.cpp:399] pool4/3x3_s2 -> pool4/3x3_s2
I0403 15:21:25.415575 31518 net.cpp:141] Setting up pool4/3x3_s2
I0403 15:21:25.415606 31518 net.cpp:148] Top shape: 24 832 7 7 (978432)
I0403 15:21:25.415624 31518 net.cpp:156] Memory required for data: 1276470816
I0403 15:21:25.415643 31518 layer_factory.hpp:77] Creating layer pool4/3x3_s2_pool4/3x3_s2_0_split
I0403 15:21:25.415669 31518 net.cpp:91] Creating Layer pool4/3x3_s2_pool4/3x3_s2_0_split
I0403 15:21:25.415693 31518 net.cpp:425] pool4/3x3_s2_pool4/3x3_s2_0_split <- pool4/3x3_s2
I0403 15:21:25.415714 31518 net.cpp:399] pool4/3x3_s2_pool4/3x3_s2_0_split -> pool4/3x3_s2_pool4/3x3_s2_0_split_0
I0403 15:21:25.415745 31518 net.cpp:399] pool4/3x3_s2_pool4/3x3_s2_0_split -> pool4/3x3_s2_pool4/3x3_s2_0_split_1
I0403 15:21:25.415772 31518 net.cpp:399] pool4/3x3_s2_pool4/3x3_s2_0_split -> pool4/3x3_s2_pool4/3x3_s2_0_split_2
I0403 15:21:25.415797 31518 net.cpp:399] pool4/3x3_s2_pool4/3x3_s2_0_split -> pool4/3x3_s2_pool4/3x3_s2_0_split_3
I0403 15:21:25.415910 31518 net.cpp:141] Setting up pool4/3x3_s2_pool4/3x3_s2_0_split
I0403 15:21:25.415940 31518 net.cpp:148] Top shape: 24 832 7 7 (978432)
I0403 15:21:25.415961 31518 net.cpp:148] Top shape: 24 832 7 7 (978432)
I0403 15:21:25.415982 31518 net.cpp:148] Top shape: 24 832 7 7 (978432)
I0403 15:21:25.416002 31518 net.cpp:148] Top shape: 24 832 7 7 (978432)
I0403 15:21:25.416020 31518 net.cpp:156] Memory required for data: 1292125728
I0403 15:21:25.416039 31518 layer_factory.hpp:77] Creating layer inception_5a/1x1
I0403 15:21:25.416069 31518 net.cpp:91] Creating Layer inception_5a/1x1
I0403 15:21:25.416092 31518 net.cpp:425] inception_5a/1x1 <- pool4/3x3_s2_pool4/3x3_s2_0_split_0
I0403 15:21:25.416120 31518 net.cpp:399] inception_5a/1x1 -> inception_5a/1x1
I0403 15:21:25.419636 31518 net.cpp:141] Setting up inception_5a/1x1
I0403 15:21:25.419670 31518 net.cpp:148] Top shape: 24 256 7 7 (301056)
I0403 15:21:25.419695 31518 net.cpp:156] Memory required for data: 1293329952
I0403 15:21:25.419720 31518 layer_factory.hpp:77] Creating layer inception_5a/relu_1x1
I0403 15:21:25.419744 31518 net.cpp:91] Creating Layer inception_5a/relu_1x1
I0403 15:21:25.419766 31518 net.cpp:425] inception_5a/relu_1x1 <- inception_5a/1x1
I0403 15:21:25.419790 31518 net.cpp:386] inception_5a/relu_1x1 -> inception_5a/1x1 (in-place)
I0403 15:21:25.420173 31518 net.cpp:141] Setting up inception_5a/relu_1x1
I0403 15:21:25.420207 31518 net.cpp:148] Top shape: 24 256 7 7 (301056)
I0403 15:21:25.420229 31518 net.cpp:156] Memory required for data: 1294534176
I0403 15:21:25.420250 31518 layer_factory.hpp:77] Creating layer inception_5a/3x3_reduce
I0403 15:21:25.420277 31518 net.cpp:91] Creating Layer inception_5a/3x3_reduce
I0403 15:21:25.420301 31518 net.cpp:425] inception_5a/3x3_reduce <- pool4/3x3_s2_pool4/3x3_s2_0_split_1
I0403 15:21:25.420330 31518 net.cpp:399] inception_5a/3x3_reduce -> inception_5a/3x3_reduce
I0403 15:21:25.423341 31518 net.cpp:141] Setting up inception_5a/3x3_reduce
I0403 15:21:25.423375 31518 net.cpp:148] Top shape: 24 160 7 7 (188160)
I0403 15:21:25.423395 31518 net.cpp:156] Memory required for data: 1295286816
I0403 15:21:25.423420 31518 layer_factory.hpp:77] Creating layer inception_5a/relu_3x3_reduce
I0403 15:21:25.423444 31518 net.cpp:91] Creating Layer inception_5a/relu_3x3_reduce
I0403 15:21:25.423465 31518 net.cpp:425] inception_5a/relu_3x3_reduce <- inception_5a/3x3_reduce
I0403 15:21:25.423491 31518 net.cpp:386] inception_5a/relu_3x3_reduce -> inception_5a/3x3_reduce (in-place)
I0403 15:21:25.423738 31518 net.cpp:141] Setting up inception_5a/relu_3x3_reduce
I0403 15:21:25.423770 31518 net.cpp:148] Top shape: 24 160 7 7 (188160)
I0403 15:21:25.423791 31518 net.cpp:156] Memory required for data: 1296039456
I0403 15:21:25.423820 31518 layer_factory.hpp:77] Creating layer inception_5a/3x3
I0403 15:21:25.423848 31518 net.cpp:91] Creating Layer inception_5a/3x3
I0403 15:21:25.423871 31518 net.cpp:425] inception_5a/3x3 <- inception_5a/3x3_reduce
I0403 15:21:25.423899 31518 net.cpp:399] inception_5a/3x3 -> inception_5a/3x3
I0403 15:21:25.430130 31518 net.cpp:141] Setting up inception_5a/3x3
I0403 15:21:25.430166 31518 net.cpp:148] Top shape: 24 320 7 7 (376320)
I0403 15:21:25.430186 31518 net.cpp:156] Memory required for data: 1297544736
I0403 15:21:25.430210 31518 layer_factory.hpp:77] Creating layer inception_5a/relu_3x3
I0403 15:21:25.430238 31518 net.cpp:91] Creating Layer inception_5a/relu_3x3
I0403 15:21:25.430260 31518 net.cpp:425] inception_5a/relu_3x3 <- inception_5a/3x3
I0403 15:21:25.430284 31518 net.cpp:386] inception_5a/relu_3x3 -> inception_5a/3x3 (in-place)
I0403 15:21:25.430658 31518 net.cpp:141] Setting up inception_5a/relu_3x3
I0403 15:21:25.430692 31518 net.cpp:148] Top shape: 24 320 7 7 (376320)
I0403 15:21:25.430712 31518 net.cpp:156] Memory required for data: 1299050016
I0403 15:21:25.430732 31518 layer_factory.hpp:77] Creating layer inception_5a/5x5_reduce
I0403 15:21:25.430763 31518 net.cpp:91] Creating Layer inception_5a/5x5_reduce
I0403 15:21:25.430788 31518 net.cpp:425] inception_5a/5x5_reduce <- pool4/3x3_s2_pool4/3x3_s2_0_split_2
I0403 15:21:25.430814 31518 net.cpp:399] inception_5a/5x5_reduce -> inception_5a/5x5_reduce
I0403 15:21:25.432267 31518 net.cpp:141] Setting up inception_5a/5x5_reduce
I0403 15:21:25.432310 31518 net.cpp:148] Top shape: 24 32 7 7 (37632)
I0403 15:21:25.432332 31518 net.cpp:156] Memory required for data: 1299200544
I0403 15:21:25.432355 31518 layer_factory.hpp:77] Creating layer inception_5a/relu_5x5_reduce
I0403 15:21:25.432379 31518 net.cpp:91] Creating Layer inception_5a/relu_5x5_reduce
I0403 15:21:25.432400 31518 net.cpp:425] inception_5a/relu_5x5_reduce <- inception_5a/5x5_reduce
I0403 15:21:25.432423 31518 net.cpp:386] inception_5a/relu_5x5_reduce -> inception_5a/5x5_reduce (in-place)
I0403 15:21:25.432799 31518 net.cpp:141] Setting up inception_5a/relu_5x5_reduce
I0403 15:21:25.432834 31518 net.cpp:148] Top shape: 24 32 7 7 (37632)
I0403 15:21:25.432855 31518 net.cpp:156] Memory required for data: 1299351072
I0403 15:21:25.432876 31518 layer_factory.hpp:77] Creating layer inception_5a/5x5
I0403 15:21:25.432904 31518 net.cpp:91] Creating Layer inception_5a/5x5
I0403 15:21:25.432929 31518 net.cpp:425] inception_5a/5x5 <- inception_5a/5x5_reduce
I0403 15:21:25.432952 31518 net.cpp:399] inception_5a/5x5 -> inception_5a/5x5
I0403 15:21:25.435080 31518 net.cpp:141] Setting up inception_5a/5x5
I0403 15:21:25.435128 31518 net.cpp:148] Top shape: 24 128 7 7 (150528)
I0403 15:21:25.435148 31518 net.cpp:156] Memory required for data: 1299953184
I0403 15:21:25.435173 31518 layer_factory.hpp:77] Creating layer inception_5a/relu_5x5
I0403 15:21:25.435204 31518 net.cpp:91] Creating Layer inception_5a/relu_5x5
I0403 15:21:25.435226 31518 net.cpp:425] inception_5a/relu_5x5 <- inception_5a/5x5
I0403 15:21:25.435250 31518 net.cpp:386] inception_5a/relu_5x5 -> inception_5a/5x5 (in-place)
I0403 15:21:25.435487 31518 net.cpp:141] Setting up inception_5a/relu_5x5
I0403 15:21:25.435526 31518 net.cpp:148] Top shape: 24 128 7 7 (150528)
I0403 15:21:25.435549 31518 net.cpp:156] Memory required for data: 1300555296
I0403 15:21:25.435569 31518 layer_factory.hpp:77] Creating layer inception_5a/pool
I0403 15:21:25.435591 31518 net.cpp:91] Creating Layer inception_5a/pool
I0403 15:21:25.435612 31518 net.cpp:425] inception_5a/pool <- pool4/3x3_s2_pool4/3x3_s2_0_split_3
I0403 15:21:25.435639 31518 net.cpp:399] inception_5a/pool -> inception_5a/pool
I0403 15:21:25.435729 31518 net.cpp:141] Setting up inception_5a/pool
I0403 15:21:25.435758 31518 net.cpp:148] Top shape: 24 832 7 7 (978432)
I0403 15:21:25.435777 31518 net.cpp:156] Memory required for data: 1304469024
I0403 15:21:25.435797 31518 layer_factory.hpp:77] Creating layer inception_5a/pool_proj
I0403 15:21:25.435828 31518 net.cpp:91] Creating Layer inception_5a/pool_proj
I0403 15:21:25.435852 31518 net.cpp:425] inception_5a/pool_proj <- inception_5a/pool
I0403 15:21:25.435876 31518 net.cpp:399] inception_5a/pool_proj -> inception_5a/pool_proj
I0403 15:21:25.438671 31518 net.cpp:141] Setting up inception_5a/pool_proj
I0403 15:21:25.438709 31518 net.cpp:148] Top shape: 24 128 7 7 (150528)
I0403 15:21:25.438730 31518 net.cpp:156] Memory required for data: 1305071136
I0403 15:21:25.438753 31518 layer_factory.hpp:77] Creating layer inception_5a/relu_pool_proj
I0403 15:21:25.438779 31518 net.cpp:91] Creating Layer inception_5a/relu_pool_proj
I0403 15:21:25.438802 31518 net.cpp:425] inception_5a/relu_pool_proj <- inception_5a/pool_proj
I0403 15:21:25.438827 31518 net.cpp:386] inception_5a/relu_pool_proj -> inception_5a/pool_proj (in-place)
I0403 15:21:25.439188 31518 net.cpp:141] Setting up inception_5a/relu_pool_proj
I0403 15:21:25.439223 31518 net.cpp:148] Top shape: 24 128 7 7 (150528)
I0403 15:21:25.439241 31518 net.cpp:156] Memory required for data: 1305673248
I0403 15:21:25.439260 31518 layer_factory.hpp:77] Creating layer inception_5a/output
I0403 15:21:25.439285 31518 net.cpp:91] Creating Layer inception_5a/output
I0403 15:21:25.439306 31518 net.cpp:425] inception_5a/output <- inception_5a/1x1
I0403 15:21:25.439328 31518 net.cpp:425] inception_5a/output <- inception_5a/3x3
I0403 15:21:25.439350 31518 net.cpp:425] inception_5a/output <- inception_5a/5x5
I0403 15:21:25.439371 31518 net.cpp:425] inception_5a/output <- inception_5a/pool_proj
I0403 15:21:25.439394 31518 net.cpp:399] inception_5a/output -> inception_5a/output
I0403 15:21:25.439458 31518 net.cpp:141] Setting up inception_5a/output
I0403 15:21:25.439496 31518 net.cpp:148] Top shape: 24 832 7 7 (978432)
I0403 15:21:25.439522 31518 net.cpp:156] Memory required for data: 1309586976
I0403 15:21:25.439540 31518 layer_factory.hpp:77] Creating layer inception_5a/output_inception_5a/output_0_split
I0403 15:21:25.439563 31518 net.cpp:91] Creating Layer inception_5a/output_inception_5a/output_0_split
I0403 15:21:25.439585 31518 net.cpp:425] inception_5a/output_inception_5a/output_0_split <- inception_5a/output
I0403 15:21:25.439611 31518 net.cpp:399] inception_5a/output_inception_5a/output_0_split -> inception_5a/output_inception_5a/output_0_split_0
I0403 15:21:25.439638 31518 net.cpp:399] inception_5a/output_inception_5a/output_0_split -> inception_5a/output_inception_5a/output_0_split_1
I0403 15:21:25.439663 31518 net.cpp:399] inception_5a/output_inception_5a/output_0_split -> inception_5a/output_inception_5a/output_0_split_2
I0403 15:21:25.439689 31518 net.cpp:399] inception_5a/output_inception_5a/output_0_split -> inception_5a/output_inception_5a/output_0_split_3
I0403 15:21:25.439828 31518 net.cpp:141] Setting up inception_5a/output_inception_5a/output_0_split
I0403 15:21:25.439862 31518 net.cpp:148] Top shape: 24 832 7 7 (978432)
I0403 15:21:25.439885 31518 net.cpp:148] Top shape: 24 832 7 7 (978432)
I0403 15:21:25.439905 31518 net.cpp:148] Top shape: 24 832 7 7 (978432)
I0403 15:21:25.439925 31518 net.cpp:148] Top shape: 24 832 7 7 (978432)
I0403 15:21:25.439944 31518 net.cpp:156] Memory required for data: 1325241888
I0403 15:21:25.439965 31518 layer_factory.hpp:77] Creating layer inception_5b/1x1
I0403 15:21:25.439993 31518 net.cpp:91] Creating Layer inception_5b/1x1
I0403 15:21:25.440017 31518 net.cpp:425] inception_5b/1x1 <- inception_5a/output_inception_5a/output_0_split_0
I0403 15:21:25.440042 31518 net.cpp:399] inception_5b/1x1 -> inception_5b/1x1
I0403 15:21:25.444690 31518 net.cpp:141] Setting up inception_5b/1x1
I0403 15:21:25.444727 31518 net.cpp:148] Top shape: 24 384 7 7 (451584)
I0403 15:21:25.444747 31518 net.cpp:156] Memory required for data: 1327048224
I0403 15:21:25.444772 31518 layer_factory.hpp:77] Creating layer inception_5b/relu_1x1
I0403 15:21:25.444794 31518 net.cpp:91] Creating Layer inception_5b/relu_1x1
I0403 15:21:25.444825 31518 net.cpp:425] inception_5b/relu_1x1 <- inception_5b/1x1
I0403 15:21:25.444850 31518 net.cpp:386] inception_5b/relu_1x1 -> inception_5b/1x1 (in-place)
I0403 15:21:25.445232 31518 net.cpp:141] Setting up inception_5b/relu_1x1
I0403 15:21:25.445266 31518 net.cpp:148] Top shape: 24 384 7 7 (451584)
I0403 15:21:25.445286 31518 net.cpp:156] Memory required for data: 1328854560
I0403 15:21:25.445307 31518 layer_factory.hpp:77] Creating layer inception_5b/3x3_reduce
I0403 15:21:25.445335 31518 net.cpp:91] Creating Layer inception_5b/3x3_reduce
I0403 15:21:25.445359 31518 net.cpp:425] inception_5b/3x3_reduce <- inception_5a/output_inception_5a/output_0_split_1
I0403 15:21:25.445389 31518 net.cpp:399] inception_5b/3x3_reduce -> inception_5b/3x3_reduce
I0403 15:21:25.448675 31518 net.cpp:141] Setting up inception_5b/3x3_reduce
I0403 15:21:25.448712 31518 net.cpp:148] Top shape: 24 192 7 7 (225792)
I0403 15:21:25.448734 31518 net.cpp:156] Memory required for data: 1329757728
I0403 15:21:25.448758 31518 layer_factory.hpp:77] Creating layer inception_5b/relu_3x3_reduce
I0403 15:21:25.448786 31518 net.cpp:91] Creating Layer inception_5b/relu_3x3_reduce
I0403 15:21:25.448810 31518 net.cpp:425] inception_5b/relu_3x3_reduce <- inception_5b/3x3_reduce
I0403 15:21:25.448833 31518 net.cpp:386] inception_5b/relu_3x3_reduce -> inception_5b/3x3_reduce (in-place)
I0403 15:21:25.449072 31518 net.cpp:141] Setting up inception_5b/relu_3x3_reduce
I0403 15:21:25.449103 31518 net.cpp:148] Top shape: 24 192 7 7 (225792)
I0403 15:21:25.449123 31518 net.cpp:156] Memory required for data: 1330660896
I0403 15:21:25.449144 31518 layer_factory.hpp:77] Creating layer inception_5b/3x3
I0403 15:21:25.449177 31518 net.cpp:91] Creating Layer inception_5b/3x3
I0403 15:21:25.449200 31518 net.cpp:425] inception_5b/3x3 <- inception_5b/3x3_reduce
I0403 15:21:25.449225 31518 net.cpp:399] inception_5b/3x3 -> inception_5b/3x3
I0403 15:21:25.457573 31518 net.cpp:141] Setting up inception_5b/3x3
I0403 15:21:25.457609 31518 net.cpp:148] Top shape: 24 384 7 7 (451584)
I0403 15:21:25.457629 31518 net.cpp:156] Memory required for data: 1332467232
I0403 15:21:25.457653 31518 layer_factory.hpp:77] Creating layer inception_5b/relu_3x3
I0403 15:21:25.457681 31518 net.cpp:91] Creating Layer inception_5b/relu_3x3
I0403 15:21:25.457705 31518 net.cpp:425] inception_5b/relu_3x3 <- inception_5b/3x3
I0403 15:21:25.457727 31518 net.cpp:386] inception_5b/relu_3x3 -> inception_5b/3x3 (in-place)
I0403 15:21:25.458093 31518 net.cpp:141] Setting up inception_5b/relu_3x3
I0403 15:21:25.458127 31518 net.cpp:148] Top shape: 24 384 7 7 (451584)
I0403 15:21:25.458148 31518 net.cpp:156] Memory required for data: 1334273568
I0403 15:21:25.458168 31518 layer_factory.hpp:77] Creating layer inception_5b/5x5_reduce
I0403 15:21:25.458214 31518 net.cpp:91] Creating Layer inception_5b/5x5_reduce
I0403 15:21:25.458240 31518 net.cpp:425] inception_5b/5x5_reduce <- inception_5a/output_inception_5a/output_0_split_2
I0403 15:21:25.458267 31518 net.cpp:399] inception_5b/5x5_reduce -> inception_5b/5x5_reduce
I0403 15:21:25.459849 31518 net.cpp:141] Setting up inception_5b/5x5_reduce
I0403 15:21:25.459884 31518 net.cpp:148] Top shape: 24 48 7 7 (56448)
I0403 15:21:25.459904 31518 net.cpp:156] Memory required for data: 1334499360
I0403 15:21:25.459928 31518 layer_factory.hpp:77] Creating layer inception_5b/relu_5x5_reduce
I0403 15:21:25.459955 31518 net.cpp:91] Creating Layer inception_5b/relu_5x5_reduce
I0403 15:21:25.459980 31518 net.cpp:425] inception_5b/relu_5x5_reduce <- inception_5b/5x5_reduce
I0403 15:21:25.460002 31518 net.cpp:386] inception_5b/relu_5x5_reduce -> inception_5b/5x5_reduce (in-place)
I0403 15:21:25.460470 31518 net.cpp:141] Setting up inception_5b/relu_5x5_reduce
I0403 15:21:25.460508 31518 net.cpp:148] Top shape: 24 48 7 7 (56448)
I0403 15:21:25.460530 31518 net.cpp:156] Memory required for data: 1334725152
I0403 15:21:25.460549 31518 layer_factory.hpp:77] Creating layer inception_5b/5x5
I0403 15:21:25.460578 31518 net.cpp:91] Creating Layer inception_5b/5x5
I0403 15:21:25.460602 31518 net.cpp:425] inception_5b/5x5 <- inception_5b/5x5_reduce
I0403 15:21:25.460626 31518 net.cpp:399] inception_5b/5x5 -> inception_5b/5x5
I0403 15:21:25.463181 31518 net.cpp:141] Setting up inception_5b/5x5
I0403 15:21:25.463214 31518 net.cpp:148] Top shape: 24 128 7 7 (150528)
I0403 15:21:25.463238 31518 net.cpp:156] Memory required for data: 1335327264
I0403 15:21:25.463263 31518 layer_factory.hpp:77] Creating layer inception_5b/relu_5x5
I0403 15:21:25.463286 31518 net.cpp:91] Creating Layer inception_5b/relu_5x5
I0403 15:21:25.463310 31518 net.cpp:425] inception_5b/relu_5x5 <- inception_5b/5x5
I0403 15:21:25.463331 31518 net.cpp:386] inception_5b/relu_5x5 -> inception_5b/5x5 (in-place)
I0403 15:21:25.463599 31518 net.cpp:141] Setting up inception_5b/relu_5x5
I0403 15:21:25.463634 31518 net.cpp:148] Top shape: 24 128 7 7 (150528)
I0403 15:21:25.463654 31518 net.cpp:156] Memory required for data: 1335929376
I0403 15:21:25.463672 31518 layer_factory.hpp:77] Creating layer inception_5b/pool
I0403 15:21:25.463696 31518 net.cpp:91] Creating Layer inception_5b/pool
I0403 15:21:25.463717 31518 net.cpp:425] inception_5b/pool <- inception_5a/output_inception_5a/output_0_split_3
I0403 15:21:25.463765 31518 net.cpp:399] inception_5b/pool -> inception_5b/pool
I0403 15:21:25.463857 31518 net.cpp:141] Setting up inception_5b/pool
I0403 15:21:25.463889 31518 net.cpp:148] Top shape: 24 832 7 7 (978432)
I0403 15:21:25.463910 31518 net.cpp:156] Memory required for data: 1339843104
I0403 15:21:25.463930 31518 layer_factory.hpp:77] Creating layer inception_5b/pool_proj
I0403 15:21:25.463956 31518 net.cpp:91] Creating Layer inception_5b/pool_proj
I0403 15:21:25.463979 31518 net.cpp:425] inception_5b/pool_proj <- inception_5b/pool
I0403 15:21:25.464006 31518 net.cpp:399] inception_5b/pool_proj -> inception_5b/pool_proj
I0403 15:21:25.466856 31518 net.cpp:141] Setting up inception_5b/pool_proj
I0403 15:21:25.466894 31518 net.cpp:148] Top shape: 24 128 7 7 (150528)
I0403 15:21:25.466914 31518 net.cpp:156] Memory required for data: 1340445216
I0403 15:21:25.466938 31518 layer_factory.hpp:77] Creating layer inception_5b/relu_pool_proj
I0403 15:21:25.466964 31518 net.cpp:91] Creating Layer inception_5b/relu_pool_proj
I0403 15:21:25.466986 31518 net.cpp:425] inception_5b/relu_pool_proj <- inception_5b/pool_proj
I0403 15:21:25.467010 31518 net.cpp:386] inception_5b/relu_pool_proj -> inception_5b/pool_proj (in-place)
I0403 15:21:25.467378 31518 net.cpp:141] Setting up inception_5b/relu_pool_proj
I0403 15:21:25.467411 31518 net.cpp:148] Top shape: 24 128 7 7 (150528)
I0403 15:21:25.467432 31518 net.cpp:156] Memory required for data: 1341047328
I0403 15:21:25.467452 31518 layer_factory.hpp:77] Creating layer inception_5b/output
I0403 15:21:25.467476 31518 net.cpp:91] Creating Layer inception_5b/output
I0403 15:21:25.467520 31518 net.cpp:425] inception_5b/output <- inception_5b/1x1
I0403 15:21:25.467545 31518 net.cpp:425] inception_5b/output <- inception_5b/3x3
I0403 15:21:25.467567 31518 net.cpp:425] inception_5b/output <- inception_5b/5x5
I0403 15:21:25.467591 31518 net.cpp:425] inception_5b/output <- inception_5b/pool_proj
I0403 15:21:25.467613 31518 net.cpp:399] inception_5b/output -> inception_5b/output
I0403 15:21:25.467680 31518 net.cpp:141] Setting up inception_5b/output
I0403 15:21:25.467711 31518 net.cpp:148] Top shape: 24 1024 7 7 (1204224)
I0403 15:21:25.467730 31518 net.cpp:156] Memory required for data: 1345864224
I0403 15:21:25.467749 31518 layer_factory.hpp:77] Creating layer pool5/7x7_s1
I0403 15:21:25.467772 31518 net.cpp:91] Creating Layer pool5/7x7_s1
I0403 15:21:25.467794 31518 net.cpp:425] pool5/7x7_s1 <- inception_5b/output
I0403 15:21:25.467821 31518 net.cpp:399] pool5/7x7_s1 -> pool5/7x7_s1
I0403 15:21:25.468096 31518 net.cpp:141] Setting up pool5/7x7_s1
I0403 15:21:25.468127 31518 net.cpp:148] Top shape: 24 1024 1 1 (24576)
I0403 15:21:25.468147 31518 net.cpp:156] Memory required for data: 1345962528
I0403 15:21:25.468168 31518 layer_factory.hpp:77] Creating layer pool5/drop_7x7_s1
I0403 15:21:25.468194 31518 net.cpp:91] Creating Layer pool5/drop_7x7_s1
I0403 15:21:25.468215 31518 net.cpp:425] pool5/drop_7x7_s1 <- pool5/7x7_s1
I0403 15:21:25.468238 31518 net.cpp:386] pool5/drop_7x7_s1 -> pool5/7x7_s1 (in-place)
I0403 15:21:25.468304 31518 net.cpp:141] Setting up pool5/drop_7x7_s1
I0403 15:21:25.468333 31518 net.cpp:148] Top shape: 24 1024 1 1 (24576)
I0403 15:21:25.468353 31518 net.cpp:156] Memory required for data: 1346060832
I0403 15:21:25.468371 31518 layer_factory.hpp:77] Creating layer loss3/classifier_plantvillage
I0403 15:21:25.468395 31518 net.cpp:91] Creating Layer loss3/classifier_plantvillage
I0403 15:21:25.468416 31518 net.cpp:425] loss3/classifier_plantvillage <- pool5/7x7_s1
I0403 15:21:25.468443 31518 net.cpp:399] loss3/classifier_plantvillage -> loss3/classifier_plantvillage
I0403 15:21:25.468986 31518 net.cpp:141] Setting up loss3/classifier_plantvillage
I0403 15:21:25.469018 31518 net.cpp:148] Top shape: 24 38 (912)
I0403 15:21:25.469038 31518 net.cpp:156] Memory required for data: 1346064480
I0403 15:21:25.469063 31518 layer_factory.hpp:77] Creating layer loss3/classifier_plantvillage_loss3/classifier_plantvillage_0_split
I0403 15:21:25.469085 31518 net.cpp:91] Creating Layer loss3/classifier_plantvillage_loss3/classifier_plantvillage_0_split
I0403 15:21:25.469106 31518 net.cpp:425] loss3/classifier_plantvillage_loss3/classifier_plantvillage_0_split <- loss3/classifier_plantvillage
I0403 15:21:25.469132 31518 net.cpp:399] loss3/classifier_plantvillage_loss3/classifier_plantvillage_0_split -> loss3/classifier_plantvillage_loss3/classifier_plantvillage_0_split_0
I0403 15:21:25.469159 31518 net.cpp:399] loss3/classifier_plantvillage_loss3/classifier_plantvillage_0_split -> loss3/classifier_plantvillage_loss3/classifier_plantvillage_0_split_1
I0403 15:21:25.469187 31518 net.cpp:399] loss3/classifier_plantvillage_loss3/classifier_plantvillage_0_split -> loss3/classifier_plantvillage_loss3/classifier_plantvillage_0_split_2
I0403 15:21:25.469213 31518 net.cpp:399] loss3/classifier_plantvillage_loss3/classifier_plantvillage_0_split -> loss3/classifier_plantvillage_loss3/classifier_plantvillage_0_split_3
I0403 15:21:25.469341 31518 net.cpp:141] Setting up loss3/classifier_plantvillage_loss3/classifier_plantvillage_0_split
I0403 15:21:25.469370 31518 net.cpp:148] Top shape: 24 38 (912)
I0403 15:21:25.469391 31518 net.cpp:148] Top shape: 24 38 (912)
I0403 15:21:25.469413 31518 net.cpp:148] Top shape: 24 38 (912)
I0403 15:21:25.469432 31518 net.cpp:148] Top shape: 24 38 (912)
I0403 15:21:25.469451 31518 net.cpp:156] Memory required for data: 1346079072
I0403 15:21:25.469470 31518 layer_factory.hpp:77] Creating layer loss1/loss
I0403 15:21:25.469498 31518 net.cpp:91] Creating Layer loss1/loss
I0403 15:21:25.469527 31518 net.cpp:425] loss1/loss <- loss1/classifier_plantvillage_loss1/classifier_plantvillage_0_split_0
I0403 15:21:25.469564 31518 net.cpp:425] loss1/loss <- label_data_1_split_0
…
