…
I0403 15:12:39.084959 31297 net.cpp:313] The NetState phase (1) differed from the phase (0) specified by a rule in layer data
I0403 15:12:39.086098 31297 net.cpp:49] Initializing net from parameters: 
state {
  phase: TEST
}
layer {
  name: "data"
  type: "Data"
  top: "data"
  top: "label"
  include {
    phase: TEST
  }
  transform_param {
    mirror: false
    crop_size: 224
    mean_file: "/home/mohanty/data/final_dataset/lmdb/grayscale-80-20/mean.binaryproto"
  }
  data_param {
    source: "/home/mohanty/data/final_dataset/lmdb/grayscale-80-20/test_db"
    batch_size: 24
    backend: LMDB
  }
}
layer {
  name: "conv1/7x7_s2"
  type: "Convolution"
  bottom: "data"
  top: "conv1/7x7_s2"
  param {
    lr_mult: 1
    decay_mult: 1
  }
  param {
    lr_mult: 2
    decay_mult: 0
  }
  convolution_param {
    num_output: 64
    pad: 3
    kernel_size: 7
    stride: 2
    weight_filler {
      type: "xavier"
      std: 0.1
    }
    bias_filler {
      type: "constant"
      value: 0.2
    }
  }
}
layer {
  name: "conv1/relu_7x7"
  type: "ReLU"
  bottom: "conv1/7x7_s2"
  top: "conv1/7x7_s2"
}
layer {
  name: "pool1/3x3_s2"
  type: "Pooling"
  bottom: "conv1/7x7_s2"
  top: "pool1/3x3_s2"
  pooling_param {
    pool: MAX
    kernel_size: 3
    stride: 2
  }
}
layer {
  name: "pool1/norm1"
  type: "LRN"
  bottom: "pool1/3x3_s2"
  top: "pool1/norm1"
  lrn_param {
    local_size: 5
    alpha: 0.0001
    beta: 0.75
  }
}
layer {
  name: "conv2/3x3_reduce"
  type: "Convolution"
  bottom: "pool1/norm1"
  top: "conv2/3x3_reduce"
  param {
    lr_mult: 1
    decay_mult: 1
  }
  param {
    lr_mult: 2
    decay_mult: 0
  }
  convolution_param {
    num_output: 64
    kernel_size: 1
    weight_filler {
      type: "xavier"
      std: 0.1
    }
    bias_filler {
      type: "constant"
      value: 0.2
    }
  }
}
layer {
  name: "conv2/relu_3x3_reduce"
  type: "ReLU"
  bottom: "conv2/3x3_reduce"
  top: "conv2/3x3_reduce"
}
layer {
  name: "conv2/3x3"
  type: "Convolution"
  bottom: "conv2/3x3_reduce"
  top: "conv2/3x3"
  param {
    lr_mult: 1
    decay_mult: 1
  }
  param {
    lr_mult: 2
    decay_mult: 0
  }
  convolution_param {
    num_output: 192
    pad: 1
    kernel_size: 3
    weight_filler {
      type: "xavier"
      std: 0.03
    }
    bias_filler {
      type: "constant"
      value: 0.2
    }
  }
}
layer {
  name: "conv2/relu_3x3"
  type: "ReLU"
  bottom: "conv2/3x3"
  top: "conv2/3x3"
}
layer {
  name: "conv2/norm2"
  type: "LRN"
  bottom: "conv2/3x3"
  top: "conv2/norm2"
  lrn_param {
    local_size: 5
    alpha: 0.0001
    beta: 0.75
  }
}
layer {
  name: "pool2/3x3_s2"
  type: "Pooling"
  bottom: "conv2/norm2"
  top: "pool2/3x3_s2"
  pooling_param {
    pool: MAX
    kernel_size: 3
    stride: 2
  }
}
layer {
  name: "inception_3a/1x1"
  type: "Convolution"
  bottom: "pool2/3x3_s2"
  top: "inception_3a/1x1"
  param {
    lr_mult: 1
    decay_mult: 1
  }
  param {
    lr_mult: 2
    decay_mult: 0
  }
  convolution_param {
    num_output: 64
    kernel_size: 1
    weight_filler {
      type: "xavier"
      std: 0.03
    }
    bias_filler {
      type: "constant"
      value: 0.2
    }
  }
}
layer {
  name: "inception_3a/relu_1x1"
  type: "ReLU"
  bottom: "inception_3a/1x1"
  top: "inception_3a/1x1"
}
layer {
  name: "inception_3a/3x3_reduce"
  type: "Convolution"
  bottom: "pool2/3x3_s2"
  top: "inception_3a/3x3_reduce"
  param {
    lr_mult: 1
    decay_mult: 1
  }
  param {
    lr_mult: 2
    decay_mult: 0
  }
  convolution_param {
    num_output: 96
    kernel_size: 1
    weight_filler {
      type: "xavier"
      std: 0.09
    }
    bias_filler {
      type: "constant"
      value: 0.2
    }
  }
}
layer {
  name: "inception_3a/relu_3x3_reduce"
  type: "ReLU"
  bottom: "inception_3a/3x3_reduce"
  top: "inception_3a/3x3_reduce"
}
layer {
  name: "inception_3a/3x3"
  type: "Convolution"
  bottom: "inception_3a/3x3_reduce"
  top: "inception_3a/3x3"
  param {
    lr_mult: 1
    decay_mult: 1
  }
  param {
    lr_mult: 2
    decay_mult: 0
  }
  convolution_param {
    num_output: 128
    pad: 1
    kernel_size: 3
    weight_filler {
      type: "xavier"
      std: 0.03
    }
    bias_filler {
      type: "constant"
      value: 0.2
    }
  }
}
layer {
  name: "inception_3a/relu_3x3"
  type: "ReLU"
  bottom: "inception_3a/3x3"
  top: "inception_3a/3x3"
}
layer {
  name: "inception_3a/5x5_reduce"
  type: "Convolution"
  bottom: "pool2/3x3_s2"
  top: "inception_3a/5x5_reduce"
  param {
    lr_mult: 1
    decay_mult: 1
  }
  param {
    lr_mult: 2
    decay_mult: 0
  }
  convolution_param {
    num_output: 16
    kernel_size: 1
    weight_filler {
      type: "xavier"
      std: 0.2
    }
    bias_filler {
      type: "constant"
      value: 0.2
    }
  }
}
layer {
  name: "inception_3a/relu_5x5_reduce"
  type: "ReLU"
  bottom: "inception_3a/5x5_reduce"
  top: "inception_3a/5x5_reduce"
}
layer {
  name: "inception_3a/5x5"
  type: "Convolution"
  bottom: "inception_3a/5x5_reduce"
  top: "inception_3a/5x5"
  param {
    lr_mult: 1
    decay_mult: 1
  }
  param {
    lr_mult: 2
    decay_mult: 0
  }
  convolution_param {
    num_output: 32
    pad: 2
    kernel_size: 5
    weight_filler {
      type: "xavier"
      std: 0.03
    }
    bias_filler {
      type: "constant"
      value: 0.2
    }
  }
}
layer {
  name: "inception_3a/relu_5x5"
  type: "ReLU"
  bottom: "inception_3a/5x5"
  top: "inception_3a/5x5"
}
layer {
  name: "inception_3a/pool"
  type: "Pooling"
  bottom: "pool2/3x3_s2"
  top: "inception_3a/pool"
  pooling_param {
    pool: MAX
    kernel_size: 3
    stride: 1
    pad: 1
  }
}
layer {
  name: "inception_3a/pool_proj"
  type: "Convolution"
  bottom: "inception_3a/pool"
  top: "inception_3a/pool_proj"
  param {
    lr_mult: 1
    decay_mult: 1
  }
  param {
    lr_mult: 2
    decay_mult: 0
  }
  convolution_param {
    num_output: 32
    kernel_size: 1
    weight_filler {
      type: "xavier"
      std: 0.1
    }
    bias_filler {
      type: "constant"
      value: 0.2
    }
  }
}
layer {
  name: "inception_3a/relu_pool_proj"
  type: "ReLU"
  bottom: "inception_3a/pool_proj"
  top: "inception_3a/pool_proj"
}
layer {
  name: "inception_3a/output"
  type: "Concat"
  bottom: "inception_3a/1x1"
  bottom: "inception_3a/3x3"
  bottom: "inception_3a/5x5"
  bottom: "inception_3a/pool_proj"
  top: "inception_3a/output"
}
layer {
  name: "inception_3b/1x1"
  type: "Convolution"
  bottom: "inception_3a/output"
  top: "inception_3b/1x1"
  param {
    lr_mult: 1
    decay_mult: 1
  }
  param {
    lr_mult: 2
    decay_mult: 0
  }
  convolution_param {
    num_output: 128
    kernel_size: 1
    weight_filler {
      type: "xavier"
      std: 0.03
    }
    bias_filler {
      type: "constant"
      value: 0.2
    }
  }
}
layer {
  name: "inception_3b/relu_1x1"
  type: "ReLU"
  bottom: "inception_3b/1x1"
  top: "inception_3b/1x1"
}
layer {
  name: "inception_3b/3x3_reduce"
  type: "Convolution"
  bottom: "inception_3a/output"
  top: "inception_3b/3x3_reduce"
  param {
    lr_mult: 1
    decay_mult: 1
  }
  param {
    lr_mult: 2
    decay_mult: 0
  }
  convolution_param {
    num_output: 128
    kernel_size: 1
    weight_filler {
      type: "xavier"
      std: 0.09
    }
    bias_filler {
      type: "constant"
      value: 0.2
    }
  }
}
layer {
  name: "inception_3b/relu_3x3_reduce"
  type: "ReLU"
  bottom: "inception_3b/3x3_reduce"
  top: "inception_3b/3x3_reduce"
}
layer {
  name: "inception_3b/3x3"
  type: "Convolution"
  bottom: "inception_3b/3x3_reduce"
  top: "inception_3b/3x3"
  param {
    lr_mult: 1
    decay_mult: 1
  }
  param {
    lr_mult: 2
    decay_mult: 0
  }
  convolution_param {
    num_output: 192
    pad: 1
    kernel_size: 3
    weight_filler {
      type: "xavier"
      std: 0.03
    }
    bias_filler {
      type: "constant"
      value: 0.2
    }
  }
}
layer {
  name: "inception_3b/relu_3x3"
  type: "ReLU"
  bottom: "inception_3b/3x3"
  top: "inception_3b/3x3"
}
layer {
  name: "inception_3b/5x5_reduce"
  type: "Convolution"
  bottom: "inception_3a/output"
  top: "inception_3b/5x5_reduce"
  param {
    lr_mult: 1
    decay_mult: 1
  }
  param {
    lr_mult: 2
    decay_mult: 0
  }
  convolution_param {
    num_output: 32
    kernel_size: 1
    weight_filler {
      type: "xavier"
      std: 0.2
    }
    bias_filler {
      type: "constant"
      value: 0.2
    }
  }
}
layer {
  name: "inception_3b/relu_5x5_reduce"
  type: "ReLU"
  bottom: "inception_3b/5x5_reduce"
  top: "inception_3b/5x5_reduce"
}
layer {
  name: "inception_3b/5x5"
  type: "Convolution"
  bottom: "inception_3b/5x5_reduce"
  top: "inception_3b/5x5"
  param {
    lr_mult: 1
    decay_mult: 1
  }
  param {
    lr_mult: 2
    decay_mult: 0
  }
  convolution_param {
    num_output: 96
    pad: 2
    kernel_size: 5
    weight_filler {
      type: "xavier"
      std: 0.03
    }
    bias_filler {
      type: "constant"
      value: 0.2
    }
  }
}
layer {
  name: "inception_3b/relu_5x5"
  type: "ReLU"
  bottom: "inception_3b/5x5"
  top: "inception_3b/5x5"
}
layer {
  name: "inception_3b/pool"
  type: "Pooling"
  bottom: "inception_3a/output"
  top: "inception_3b/pool"
  pooling_param {
    pool: MAX
    kernel_size: 3
    stride: 1
    pad: 1
  }
}
layer {
  name: "inception_3b/pool_proj"
  type: "Convolution"
  bottom: "inception_3b/pool"
  top: "inception_3b/pool_proj"
  param {
    lr_mult: 1
    decay_mult: 1
  }
  param {
    lr_mult: 2
    decay_mult: 0
  }
  convolution_param {
    num_output: 64
    kernel_size: 1
    weight_filler {
      type: "xavier"
      std: 0.1
    }
    bias_filler {
      type: "constant"
      value: 0.2
    }
  }
}
layer {
  name: "inception_3b/relu_pool_proj"
  type: "ReLU"
  bottom: "inception_3b/pool_proj"
  top: "inception_3b/pool_proj"
}
layer {
  name: "inception_3b/output"
  type: "Concat"
  bottom: "inception_3b/1x1"
  bottom: "inception_3b/3x3"
  bottom: "inception_3b/5x5"
  bottom: "inception_3b/pool_proj"
  top: "inception_3b/output"
}
layer {
  name: "pool3/3x3_s2"
  type: "Pooling"
  bottom: "inception_3b/output"
  top: "pool3/3x3_s2"
  pooling_param {
    pool: MAX
    kernel_size: 3
    stride: 2
  }
}
layer {
  name: "inception_4a/1x1"
  type: "Convolution"
  bottom: "pool3/3x3_s2"
  top: "inception_4a/1x1"
  param {
    lr_mult: 1
    decay_mult: 1
  }
  param {
    lr_mult: 2
    decay_mult: 0
  }
  convolution_param {
    num_output: 192
    kernel_size: 1
    weight_filler {
      type: "xavier"
      std: 0.03
    }
    bias_filler {
      type: "constant"
      value: 0.2
    }
  }
}
layer {
  name: "inception_4a/relu_1x1"
  type: "ReLU"
  bottom: "inception_4a/1x1"
  top: "inception_4a/1x1"
}
layer {
  name: "inception_4a/3x3_reduce"
  type: "Convolution"
  bottom: "pool3/3x3_s2"
  top: "inception_4a/3x3_reduce"
  param {
    lr_mult: 1
    decay_mult: 1
  }
  param {
    lr_mult: 2
    decay_mult: 0
  }
  convolution_param {
    num_output: 96
    kernel_size: 1
    weight_filler {
      type: "xavier"
      std: 0.09
    }
    bias_filler {
      type: "constant"
      value: 0.2
    }
  }
}
layer {
  name: "inception_4a/relu_3x3_reduce"
  type: "ReLU"
  bottom: "inception_4a/3x3_reduce"
  top: "inception_4a/3x3_reduce"
}
layer {
  name: "inception_4a/3x3"
  type: "Convolution"
  bottom: "inception_4a/3x3_reduce"
  top: "inception_4a/3x3"
  param {
    lr_mult: 1
    decay_mult: 1
  }
  param {
    lr_mult: 2
    decay_mult: 0
  }
  convolution_param {
    num_output: 208
    pad: 1
    kernel_size: 3
    weight_filler {
      type: "xavier"
      std: 0.03
    }
    bias_filler {
      type: "constant"
      value: 0.2
    }
  }
}
layer {
  name: "inception_4a/relu_3x3"
  type: "ReLU"
  bottom: "inception_4a/3x3"
  top: "inception_4a/3x3"
}
layer {
  name: "inception_4a/5x5_reduce"
  type: "Convolution"
  bottom: "pool3/3x3_s2"
  top: "inception_4a/5x5_reduce"
  param {
    lr_mult: 1
    decay_mult: 1
  }
  param {
    lr_mult: 2
    decay_mult: 0
  }
  convolution_param {
    num_output: 16
    kernel_size: 1
    weight_filler {
      type: "xavier"
      std: 0.2
    }
    bias_filler {
      type: "constant"
      value: 0.2
    }
  }
}
layer {
  name: "inception_4a/relu_5x5_reduce"
  type: "ReLU"
  bottom: "inception_4a/5x5_reduce"
  top: "inception_4a/5x5_reduce"
}
layer {
  name: "inception_4a/5x5"
  type: "Convolution"
  bottom: "inception_4a/5x5_reduce"
  top: "inception_4a/5x5"
  param {
    lr_mult: 1
    decay_mult: 1
  }
  param {
    lr_mult: 2
    decay_mult: 0
  }
  convolution_param {
    num_output: 48
    pad: 2
    kernel_size: 5
    weight_filler {
      type: "xavier"
      std: 0.03
    }
    bias_filler {
      type: "constant"
      value: 0.2
    }
  }
}
layer {
  name: "inception_4a/relu_5x5"
  type: "ReLU"
  bottom: "inception_4a/5x5"
  top: "inception_4a/5x5"
}
layer {
  name: "inception_4a/pool"
  type: "Pooling"
  bottom: "pool3/3x3_s2"
  top: "inception_4a/pool"
  pooling_param {
    pool: MAX
    kernel_size: 3
    stride: 1
    pad: 1
  }
}
layer {
  name: "inception_4a/pool_proj"
  type: "Convolution"
  bottom: "inception_4a/pool"
  top: "inception_4a/pool_proj"
  param {
    lr_mult: 1
    decay_mult: 1
  }
  param {
    lr_mult: 2
    decay_mult: 0
  }
  convolution_param {
    num_output: 64
    kernel_size: 1
    weight_filler {
      type: "xavier"
      std: 0.1
    }
    bias_filler {
      type: "constant"
      value: 0.2
    }
  }
}
layer {
  name: "inception_4a/relu_pool_proj"
  type: "ReLU"
  bottom: "inception_4a/pool_proj"
  top: "inception_4a/pool_proj"
}
layer {
  name: "inception_4a/output"
  type: "Concat"
  bottom: "inception_4a/1x1"
  bottom: "inception_4a/3x3"
  bottom: "inception_4a/5x5"
  bottom: "inception_4a/pool_proj"
  top: "inception_4a/output"
}
layer {
  name: "loss1/ave_pool"
  type: "Pooling"
  bottom: "inception_4a/output"
  top: "loss1/ave_pool"
  pooling_param {
    pool: AVE
    kernel_size: 5
    stride: 3
  }
}
layer {
  name: "loss1/conv"
  type: "Convolution"
  bottom: "loss1/ave_pool"
  top: "loss1/conv"
  param {
    lr_mult: 1
    decay_mult: 1
  }
  param {
    lr_mult: 2
    decay_mult: 0
  }
  convolution_param {
    num_output: 128
    kernel_size: 1
    weight_filler {
      type: "xavier"
      std: 0.08
    }
    bias_filler {
      type: "constant"
      value: 0.2
    }
  }
}
layer {
  name: "loss1/relu_conv"
  type: "ReLU"
  bottom: "loss1/conv"
  top: "loss1/conv"
}
layer {
  name: "loss1/fc"
  type: "InnerProduct"
  bottom: "loss1/conv"
  top: "loss1/fc"
  param {
    lr_mult: 1
    decay_mult: 1
  }
  param {
    lr_mult: 2
    decay_mult: 0
  }
  inner_product_param {
    num_output: 1024
    weight_filler {
      type: "xavier"
      std: 0.02
    }
    bias_filler {
      type: "constant"
      value: 0.2
    }
  }
}
layer {
  name: "loss1/relu_fc"
  type: "ReLU"
  bottom: "loss1/fc"
  top: "loss1/fc"
}
layer {
  name: "loss1/drop_fc"
  type: "Dropout"
  bottom: "loss1/fc"
  top: "loss1/fc"
  dropout_param {
    dropout_ratio: 0.7
  }
}
layer {
  name: "loss1/classifier_plantvillage"
  type: "InnerProduct"
  bottom: "loss1/fc"
  top: "loss1/classifier_plantvillage"
  param {
    lr_mult: 1
    decay_mult: 1
  }
  param {
    lr_mult: 2
    decay_mult: 0
  }
  inner_product_param {
    num_output: 38
    weight_filler {
      type: "xavier"
      std: 0.0009765625
    }
    bias_filler {
      type: "constant"
      value: 0
    }
  }
}
layer {
  name: "inception_4b/1x1"
  type: "Convolution"
  bottom: "inception_4a/output"
  top: "inception_4b/1x1"
  param {
    lr_mult: 1
    decay_mult: 1
  }
  param {
    lr_mult: 2
    decay_mult: 0
  }
  convolution_param {
    num_output: 160
    kernel_size: 1
    weight_filler {
      type: "xavier"
      std: 0.03
    }
    bias_filler {
      type: "constant"
      value: 0.2
    }
  }
}
layer {
  name: "inception_4b/relu_1x1"
  type: "ReLU"
  bottom: "inception_4b/1x1"
  top: "inception_4b/1x1"
}
layer {
  name: "inception_4b/3x3_reduce"
  type: "Convolution"
  bottom: "inception_4a/output"
  top: "inception_4b/3x3_reduce"
  param {
    lr_mult: 1
    decay_mult: 1
  }
  param {
    lr_mult: 2
    decay_mult: 0
  }
  convolution_param {
    num_output: 112
    kernel_size: 1
    weight_filler {
      type: "xavier"
      std: 0.09
    }
    bias_filler {
      type: "constant"
      value: 0.2
    }
  }
}
layer {
  name: "inception_4b/relu_3x3_reduce"
  type: "ReLU"
  bottom: "inception_4b/3x3_reduce"
  top: "inception_4b/3x3_reduce"
}
layer {
  name: "inception_4b/3x3"
  type: "Convolution"
  bottom: "inception_4b/3x3_reduce"
  top: "inception_4b/3x3"
  param {
    lr_mult: 1
    decay_mult: 1
  }
  param {
    lr_mult: 2
    decay_mult: 0
  }
  convolution_param {
    num_output: 224
    pad: 1
    kernel_size: 3
    weight_filler {
      type: "xavier"
      std: 0.03
    }
    bias_filler {
      type: "constant"
      value: 0.2
    }
  }
}
layer {
  name: "inception_4b/relu_3x3"
  type: "ReLU"
  bottom: "inception_4b/3x3"
  top: "inception_4b/3x3"
}
layer {
  name: "inception_4b/5x5_reduce"
  type: "Convolution"
  bottom: "inception_4a/output"
  top: "inception_4b/5x5_reduce"
  param {
    lr_mult: 1
    decay_mult: 1
  }
  param {
    lr_mult: 2
    decay_mult: 0
  }
  convolution_param {
    num_output: 24
    kernel_size: 1
    weight_filler {
      type: "xavier"
      std: 0.2
    }
    bias_filler {
      type: "constant"
      value: 0.2
    }
  }
}
layer {
  name: "inception_4b/relu_5x5_reduce"
  type: "ReLU"
  bottom: "inception_4b/5x5_reduce"
  top: "inception_4b/5x5_reduce"
}
layer {
  name: "inception_4b/5x5"
  type: "Convolution"
  bottom: "inception_4b/5x5_reduce"
  top: "inception_4b/5x5"
  param {
    lr_mult: 1
    decay_mult: 1
  }
  param {
    lr_mult: 2
    decay_mult: 0
  }
  convolution_param {
    num_output: 64
    pad: 2
    kernel_size: 5
    weight_filler {
      type: "xavier"
      std: 0.03
    }
    bias_filler {
      type: "constant"
      value: 0.2
    }
  }
}
layer {
  name: "inception_4b/relu_5x5"
  type: "ReLU"
  bottom: "inception_4b/5x5"
  top: "inception_4b/5x5"
}
layer {
  name: "inception_4b/pool"
  type: "Pooling"
  bottom: "inception_4a/output"
  top: "inception_4b/pool"
  pooling_param {
    pool: MAX
    kernel_size: 3
    stride: 1
    pad: 1
  }
}
layer {
  name: "inception_4b/pool_proj"
  type: "Convolution"
  bottom: "inception_4b/pool"
  top: "inception_4b/pool_proj"
  param {
    lr_mult: 1
    decay_mult: 1
  }
  param {
    lr_mult: 2
    decay_mult: 0
  }
  convolution_param {
    num_output: 64
    kernel_size: 1
    weight_filler {
      type: "xavier"
      std: 0.1
    }
    bias_filler {
      type: "constant"
      value: 0.2
    }
  }
}
layer {
  name: "inception_4b/relu_pool_proj"
  type: "ReLU"
  bottom: "inception_4b/pool_proj"
  top: "inception_4b/pool_proj"
}
layer {
  name: "inception_4b/output"
  type: "Concat"
  bottom: "inception_4b/1x1"
  bottom: "inception_4b/3x3"
  bottom: "inception_4b/5x5"
  bottom: "inception_4b/pool_proj"
  top: "inception_4b/output"
}
layer {
  name: "inception_4c/1x1"
  type: "Convolution"
  bottom: "inception_4b/output"
  top: "inception_4c/1x1"
  param {
    lr_mult: 1
    decay_mult: 1
  }
  param {
    lr_mult: 2
    decay_mult: 0
  }
  convolution_param {
    num_output: 128
    kernel_size: 1
    weight_filler {
      type: "xavier"
      std: 0.03
    }
    bias_filler {
      type: "constant"
      value: 0.2
    }
  }
}
layer {
  name: "inception_4c/relu_1x1"
  type: "ReLU"
  bottom: "inception_4c/1x1"
  top: "inception_4c/1x1"
}
layer {
  name: "inception_4c/3x3_reduce"
  type: "Convolution"
  bottom: "inception_4b/output"
  top: "inception_4c/3x3_reduce"
  param {
    lr_mult: 1
    decay_mult: 1
  }
  param {
    lr_mult: 2
    decay_mult: 0
  }
  convolution_param {
    num_output: 128
    kernel_size: 1
    weight_filler {
      type: "xavier"
      std: 0.09
    }
    bias_filler {
      type: "constant"
      value: 0.2
    }
  }
}
layer {
  name: "inception_4c/relu_3x3_reduce"
  type: "ReLU"
  bottom: "inception_4c/3x3_reduce"
  top: "inception_4c/3x3_reduce"
}
layer {
  name: "inception_4c/3x3"
  type: "Convolution"
  bottom: "inception_4c/3x3_reduce"
  top: "inception_4c/3x3"
  param {
    lr_mult: 1
    decay_mult: 1
  }
  param {
    lr_mult: 2
    decay_mult: 0
  }
  convolution_param {
    num_output: 256
    pad: 1
    kernel_size: 3
    weight_filler {
      type: "xavier"
      std: 0.03
    }
    bias_filler {
      type: "constant"
      value: 0.2
    }
  }
}
layer {
  name: "inception_4c/relu_3x3"
  type: "ReLU"
  bottom: "inception_4c/3x3"
  top: "inception_4c/3x3"
}
layer {
  name: "inception_4c/5x5_reduce"
  type: "Convolution"
  bottom: "inception_4b/output"
  top: "inception_4c/5x5_reduce"
  param {
    lr_mult: 1
    decay_mult: 1
  }
  param {
    lr_mult: 2
    decay_mult: 0
  }
  convolution_param {
    num_output: 24
    kernel_size: 1
    weight_filler {
      type: "xavier"
      std: 0.2
    }
    bias_filler {
      type: "constant"
      value: 0.2
    }
  }
}
layer {
  name: "inception_4c/relu_5x5_reduce"
  type: "ReLU"
  bottom: "inception_4c/5x5_reduce"
  top: "inception_4c/5x5_reduce"
}
layer {
  name: "inception_4c/5x5"
  type: "Convolution"
  bottom: "inception_4c/5x5_reduce"
  top: "inception_4c/5x5"
  param {
    lr_mult: 1
    decay_mult: 1
  }
  param {
    lr_mult: 2
    decay_mult: 0
  }
  convolution_param {
    num_output: 64
    pad: 2
    kernel_size: 5
    weight_filler {
      type: "xavier"
      std: 0.03
    }
    bias_filler {
      type: "constant"
      value: 0.2
    }
  }
}
layer {
  name: "inception_4c/relu_5x5"
  type: "ReLU"
  bottom: "inception_4c/5x5"
  top: "inception_4c/5x5"
}
layer {
  name: "inception_4c/pool"
  type: "Pooling"
  bottom: "inception_4b/output"
  top: "inception_4c/pool"
  pooling_param {
    pool: MAX
    kernel_size: 3
    stride: 1
    pad: 1
  }
}
layer {
  name: "inception_4c/pool_proj"
  type: "Convolution"
  bottom: "inception_4c/pool"
  top: "inception_4c/pool_proj"
  param {
    lr_mult: 1
    decay_mult: 1
  }
  param {
    lr_mult: 2
    decay_mult: 0
  }
  convolution_param {
    num_output: 64
    kernel_size: 1
    weight_filler {
      type: "xavier"
      std: 0.1
    }
    bias_filler {
      type: "constant"
      value: 0.2
    }
  }
}
layer {
  name: "inception_4c/relu_pool_proj"
  type: "ReLU"
  bottom: "inception_4c/pool_proj"
  top: "inception_4c/pool_proj"
}
layer {
  name: "inception_4c/output"
  type: "Concat"
  bottom: "inception_4c/1x1"
  bottom: "inception_4c/3x3"
  bottom: "inception_4c/5x5"
  bottom: "inception_4c/pool_proj"
  top: "inception_4c/output"
}
layer {
  name: "inception_4d/1x1"
  type: "Convolution"
  bottom: "inception_4c/output"
  top: "inception_4d/1x1"
  param {
    lr_mult: 1
    decay_mult: 1
  }
  param {
    lr_mult: 2
    decay_mult: 0
  }
  convolution_param {
    num_output: 112
    kernel_size: 1
    weight_filler {
      type: "xavier"
      std: 0.03
    }
    bias_filler {
      type: "constant"
      value: 0.2
    }
  }
}
layer {
  name: "inception_4d/relu_1x1"
  type: "ReLU"
  bottom: "inception_4d/1x1"
  top: "inception_4d/1x1"
}
layer {
  name: "inception_4d/3x3_reduce"
  type: "Convolution"
  bottom: "inception_4c/output"
  top: "inception_4d/3x3_reduce"
  param {
    lr_mult: 1
    decay_mult: 1
  }
  param {
    lr_mult: 2
    decay_mult: 0
  }
  convolution_param {
    num_output: 144
    kernel_size: 1
    weight_filler {
      type: "xavier"
      std: 0.09
    }
    bias_filler {
      type: "constant"
      value: 0.2
    }
  }
}
layer {
  name: "inception_4d/relu_3x3_reduce"
  type: "ReLU"
  bottom: "inception_4d/3x3_reduce"
  top: "inception_4d/3x3_reduce"
}
layer {
  name: "inception_4d/3x3"
  type: "Convolution"
  bottom: "inception_4d/3x3_reduce"
  top: "inception_4d/3x3"
  param {
    lr_mult: 1
    decay_mult: 1
  }
  param {
    lr_mult: 2
    decay_mult: 0
  }
  convolution_param {
    num_output: 288
    pad: 1
    kernel_size: 3
    weight_filler {
      type: "xavier"
      std: 0.03
    }
    bias_filler {
      type: "constant"
      value: 0.2
    }
  }
}
layer {
  name: "inception_4d/relu_3x3"
  type: "ReLU"
  bottom: "inception_4d/3x3"
  top: "inception_4d/3x3"
}
layer {
  name: "inception_4d/5x5_reduce"
  type: "Convolution"
  bottom: "inception_4c/output"
  top: "inception_4d/5x5_reduce"
  param {
    lr_mult: 1
    decay_mult: 1
  }
  param {
    lr_mult: 2
    decay_mult: 0
  }
  convolution_param {
    num_output: 32
    kernel_size: 1
    weight_filler {
      type: "xavier"
      std: 0.2
    }
    bias_filler {
      type: "constant"
      value: 0.2
    }
  }
}
layer {
  name: "inception_4d/relu_5x5_reduce"
  type: "ReLU"
  bottom: "inception_4d/5x5_reduce"
  top: "inception_4d/5x5_reduce"
}
layer {
  name: "inception_4d/5x5"
  type: "Convolution"
  bottom: "inception_4d/5x5_reduce"
  top: "inception_4d/5x5"
  param {
    lr_mult: 1
    decay_mult: 1
  }
  param {
    lr_mult: 2
    decay_mult: 0
  }
  convolution_param {
    num_output: 64
    pad: 2
    kernel_size: 5
    weight_filler {
      type: "xavier"
      std: 0.03
    }
    bias_filler {
      type: "constant"
      value: 0.2
    }
  }
}
layer {
  name: "inception_4d/relu_5x5"
  type: "ReLU"
  bottom: "inception_4d/5x5"
  top: "inception_4d/5x5"
}
layer {
  name: "inception_4d/pool"
  type: "Pooling"
  bottom: "inception_4c/output"
  top: "inception_4d/pool"
  pooling_param {
    pool: MAX
    kernel_size: 3
    stride: 1
    pad: 1
  }
}
layer {
  name: "inception_4d/pool_proj"
  type: "Convolution"
  bottom: "inception_4d/pool"
  top: "inception_4d/pool_proj"
  param {
    lr_mult: 1
    decay_mult: 1
  }
  param {
    lr_mult: 2
    decay_mult: 0
  }
  convolution_param {
    num_output: 64
    kernel_size: 1
    weight_filler {
      type: "xavier"
      std: 0.1
    }
    bias_filler {
      type: "constant"
      value: 0.2
    }
  }
}
layer {
  name: "inception_4d/relu_pool_proj"
  type: "ReLU"
  bottom: "inception_4d/pool_proj"
  top: "inception_4d/pool_proj"
}
layer {
  name: "inception_4d/output"
  type: "Concat"
  bottom: "inception_4d/1x1"
  bottom: "inception_4d/3x3"
  bottom: "inception_4d/5x5"
  bottom: "inception_4d/pool_proj"
  top: "inception_4d/output"
}
layer {
  name: "loss2/ave_pool"
  type: "Pooling"
  bottom: "inception_4d/output"
  top: "loss2/ave_pool"
  pooling_param {
    pool: AVE
    kernel_size: 5
    stride: 3
  }
}
layer {
  name: "loss2/conv"
  type: "Convolution"
  bottom: "loss2/ave_pool"
  top: "loss2/conv"
  param {
    lr_mult: 1
    decay_mult: 1
  }
  param {
    lr_mult: 2
    decay_mult: 0
  }
  convolution_param {
    num_output: 128
    kernel_size: 1
    weight_filler {
      type: "xavier"
      std: 0.08
    }
    bias_filler {
      type: "constant"
      value: 0.2
    }
  }
}
layer {
  name: "loss2/relu_conv"
  type: "ReLU"
  bottom: "loss2/conv"
  top: "loss2/conv"
}
layer {
  name: "loss2/fc"
  type: "InnerProduct"
  bottom: "loss2/conv"
  top: "loss2/fc"
  param {
    lr_mult: 1
    decay_mult: 1
  }
  param {
    lr_mult: 2
    decay_mult: 0
  }
  inner_product_param {
    num_output: 1024
    weight_filler {
      type: "xavier"
      std: 0.02
    }
    bias_filler {
      type: "constant"
      value: 0.2
    }
  }
}
layer {
  name: "loss2/relu_fc"
  type: "ReLU"
  bottom: "loss2/fc"
  top: "loss2/fc"
}
layer {
  name: "loss2/drop_fc"
  type: "Dropout"
  bottom: "loss2/fc"
  top: "loss2/fc"
  dropout_param {
    dropout_ratio: 0.7
  }
}
layer {
  name: "loss2/classifier_plantvillage"
  type: "InnerProduct"
  bottom: "loss2/fc"
  top: "loss2/classifier_plantvillage"
  param {
    lr_mult: 1
    decay_mult: 1
  }
  param {
    lr_mult: 2
    decay_mult: 0
  }
  inner_product_param {
    num_output: 38
    weight_filler {
      type: "xavier"
      std: 0.0009765625
    }
    bias_filler {
      type: "constant"
      value: 0
    }
  }
}
layer {
  name: "inception_4e/1x1"
  type: "Convolution"
  bottom: "inception_4d/output"
  top: "inception_4e/1x1"
  param {
    lr_mult: 1
    decay_mult: 1
  }
  param {
    lr_mult: 2
    decay_mult: 0
  }
  convolution_param {
    num_output: 256
    kernel_size: 1
    weight_filler {
      type: "xavier"
      std: 0.03
    }
    bias_filler {
      type: "constant"
      value: 0.2
    }
  }
}
layer {
  name: "inception_4e/relu_1x1"
  type: "ReLU"
  bottom: "inception_4e/1x1"
  top: "inception_4e/1x1"
}
layer {
  name: "inception_4e/3x3_reduce"
  type: "Convolution"
  bottom: "inception_4d/output"
  top: "inception_4e/3x3_reduce"
  param {
    lr_mult: 1
    decay_mult: 1
  }
  param {
    lr_mult: 2
    decay_mult: 0
  }
  convolution_param {
    num_output: 160
    kernel_size: 1
    weight_filler {
      type: "xavier"
      std: 0.09
    }
    bias_filler {
      type: "constant"
      value: 0.2
    }
  }
}
layer {
  name: "inception_4e/relu_3x3_reduce"
  type: "ReLU"
  bottom: "inception_4e/3x3_reduce"
  top: "inception_4e/3x3_reduce"
}
layer {
  name: "inception_4e/3x3"
  type: "Convolution"
  bottom: "inception_4e/3x3_reduce"
  top: "inception_4e/3x3"
  param {
    lr_mult: 1
    decay_mult: 1
  }
  param {
    lr_mult: 2
    decay_mult: 0
  }
  convolution_param {
    num_output: 320
    pad: 1
    kernel_size: 3
    weight_filler {
      type: "xavier"
      std: 0.03
    }
    bias_filler {
      type: "constant"
      value: 0.2
    }
  }
}
layer {
  name: "inception_4e/relu_3x3"
  type: "ReLU"
  bottom: "inception_4e/3x3"
  top: "inception_4e/3x3"
}
layer {
  name: "inception_4e/5x5_reduce"
  type: "Convolution"
  bottom: "inception_4d/output"
  top: "inception_4e/5x5_reduce"
  param {
    lr_mult: 1
    decay_mult: 1
  }
  param {
    lr_mult: 2
    decay_mult: 0
  }
  convolution_param {
    num_output: 32
    kernel_size: 1
    weight_filler {
      type: "xavier"
      std: 0.2
    }
    bias_filler {
      type: "constant"
      value: 0.2
    }
  }
}
layer {
  name: "inception_4e/relu_5x5_reduce"
  type: "ReLU"
  bottom: "inception_4e/5x5_reduce"
  top: "inception_4e/5x5_reduce"
}
layer {
  name: "inception_4e/5x5"
  type: "Convolution"
  bottom: "inception_4e/5x5_reduce"
  top: "inception_4e/
I0403 15:12:39.087364 31297 layer_factory.hpp:77] Creating layer data
I0403 15:12:39.087975 31297 net.cpp:91] Creating Layer data
I0403 15:12:39.088008 31297 net.cpp:399] data -> data
I0403 15:12:39.088068 31297 net.cpp:399] data -> label
I0403 15:12:39.088105 31297 data_transformer.cpp:25] Loading mean file from: /home/mohanty/data/final_dataset/lmdb/grayscale-80-20/mean.binaryproto
I0403 15:12:39.090427 31299 db_lmdb.cpp:38] Opened lmdb /home/mohanty/data/final_dataset/lmdb/grayscale-80-20/test_db
I0403 15:12:39.101439 31297 data_layer.cpp:41] output data size: 24,3,224,224
I0403 15:12:39.129043 31297 net.cpp:141] Setting up data
I0403 15:12:39.129132 31297 net.cpp:148] Top shape: 24 3 224 224 (3612672)
I0403 15:12:39.129154 31297 net.cpp:148] Top shape: 24 (24)
I0403 15:12:39.129170 31297 net.cpp:156] Memory required for data: 14450784
I0403 15:12:39.129200 31297 layer_factory.hpp:77] Creating layer label_data_1_split
I0403 15:12:39.129230 31297 net.cpp:91] Creating Layer label_data_1_split
I0403 15:12:39.129250 31297 net.cpp:425] label_data_1_split <- label
I0403 15:12:39.129284 31297 net.cpp:399] label_data_1_split -> label_data_1_split_0
I0403 15:12:39.129313 31297 net.cpp:399] label_data_1_split -> label_data_1_split_1
I0403 15:12:39.129334 31297 net.cpp:399] label_data_1_split -> label_data_1_split_2
I0403 15:12:39.129356 31297 net.cpp:399] label_data_1_split -> label_data_1_split_3
I0403 15:12:39.129376 31297 net.cpp:399] label_data_1_split -> label_data_1_split_4
I0403 15:12:39.129396 31297 net.cpp:399] label_data_1_split -> label_data_1_split_5
I0403 15:12:39.129417 31297 net.cpp:399] label_data_1_split -> label_data_1_split_6
I0403 15:12:39.129438 31297 net.cpp:399] label_data_1_split -> label_data_1_split_7
I0403 15:12:39.129458 31297 net.cpp:399] label_data_1_split -> label_data_1_split_8
I0403 15:12:39.129478 31297 net.cpp:399] label_data_1_split -> label_data_1_split_9
I0403 15:12:39.129614 31297 net.cpp:141] Setting up label_data_1_split
I0403 15:12:39.129639 31297 net.cpp:148] Top shape: 24 (24)
I0403 15:12:39.129657 31297 net.cpp:148] Top shape: 24 (24)
I0403 15:12:39.129673 31297 net.cpp:148] Top shape: 24 (24)
I0403 15:12:39.129689 31297 net.cpp:148] Top shape: 24 (24)
I0403 15:12:39.129705 31297 net.cpp:148] Top shape: 24 (24)
I0403 15:12:39.129720 31297 net.cpp:148] Top shape: 24 (24)
I0403 15:12:39.129737 31297 net.cpp:148] Top shape: 24 (24)
I0403 15:12:39.129753 31297 net.cpp:148] Top shape: 24 (24)
I0403 15:12:39.129770 31297 net.cpp:148] Top shape: 24 (24)
I0403 15:12:39.129786 31297 net.cpp:148] Top shape: 24 (24)
I0403 15:12:39.129849 31297 net.cpp:156] Memory required for data: 14451744
I0403 15:12:39.129865 31297 layer_factory.hpp:77] Creating layer conv1/7x7_s2
I0403 15:12:39.129900 31297 net.cpp:91] Creating Layer conv1/7x7_s2
I0403 15:12:39.129920 31297 net.cpp:425] conv1/7x7_s2 <- data
I0403 15:12:39.129940 31297 net.cpp:399] conv1/7x7_s2 -> conv1/7x7_s2
I0403 15:12:39.271867 31297 net.cpp:141] Setting up conv1/7x7_s2
I0403 15:12:39.271996 31297 net.cpp:148] Top shape: 24 64 112 112 (19267584)
I0403 15:12:39.272016 31297 net.cpp:156] Memory required for data: 91522080
I0403 15:12:39.272050 31297 layer_factory.hpp:77] Creating layer conv1/relu_7x7
I0403 15:12:39.272079 31297 net.cpp:91] Creating Layer conv1/relu_7x7
I0403 15:12:39.272097 31297 net.cpp:425] conv1/relu_7x7 <- conv1/7x7_s2
I0403 15:12:39.272117 31297 net.cpp:386] conv1/relu_7x7 -> conv1/7x7_s2 (in-place)
I0403 15:12:39.272375 31297 net.cpp:141] Setting up conv1/relu_7x7
I0403 15:12:39.272403 31297 net.cpp:148] Top shape: 24 64 112 112 (19267584)
I0403 15:12:39.272419 31297 net.cpp:156] Memory required for data: 168592416
I0403 15:12:39.272434 31297 layer_factory.hpp:77] Creating layer pool1/3x3_s2
I0403 15:12:39.272460 31297 net.cpp:91] Creating Layer pool1/3x3_s2
I0403 15:12:39.272477 31297 net.cpp:425] pool1/3x3_s2 <- conv1/7x7_s2
I0403 15:12:39.272496 31297 net.cpp:399] pool1/3x3_s2 -> pool1/3x3_s2
I0403 15:12:39.272578 31297 net.cpp:141] Setting up pool1/3x3_s2
I0403 15:12:39.272609 31297 net.cpp:148] Top shape: 24 64 56 56 (4816896)
I0403 15:12:39.272624 31297 net.cpp:156] Memory required for data: 187860000
I0403 15:12:39.272639 31297 layer_factory.hpp:77] Creating layer pool1/norm1
I0403 15:12:39.272665 31297 net.cpp:91] Creating Layer pool1/norm1
I0403 15:12:39.272682 31297 net.cpp:425] pool1/norm1 <- pool1/3x3_s2
I0403 15:12:39.272701 31297 net.cpp:399] pool1/norm1 -> pool1/norm1
I0403 15:12:39.272989 31297 net.cpp:141] Setting up pool1/norm1
I0403 15:12:39.273015 31297 net.cpp:148] Top shape: 24 64 56 56 (4816896)
I0403 15:12:39.273031 31297 net.cpp:156] Memory required for data: 207127584
I0403 15:12:39.273046 31297 layer_factory.hpp:77] Creating layer conv2/3x3_reduce
I0403 15:12:39.273072 31297 net.cpp:91] Creating Layer conv2/3x3_reduce
I0403 15:12:39.273089 31297 net.cpp:425] conv2/3x3_reduce <- pool1/norm1
I0403 15:12:39.273108 31297 net.cpp:399] conv2/3x3_reduce -> conv2/3x3_reduce
I0403 15:12:39.274483 31297 net.cpp:141] Setting up conv2/3x3_reduce
I0403 15:12:39.274528 31297 net.cpp:148] Top shape: 24 64 56 56 (4816896)
I0403 15:12:39.274546 31297 net.cpp:156] Memory required for data: 226395168
I0403 15:12:39.274569 31297 layer_factory.hpp:77] Creating layer conv2/relu_3x3_reduce
I0403 15:12:39.274588 31297 net.cpp:91] Creating Layer conv2/relu_3x3_reduce
I0403 15:12:39.274605 31297 net.cpp:425] conv2/relu_3x3_reduce <- conv2/3x3_reduce
I0403 15:12:39.274621 31297 net.cpp:386] conv2/relu_3x3_reduce -> conv2/3x3_reduce (in-place)
I0403 15:12:39.274891 31297 net.cpp:141] Setting up conv2/relu_3x3_reduce
I0403 15:12:39.274920 31297 net.cpp:148] Top shape: 24 64 56 56 (4816896)
I0403 15:12:39.274936 31297 net.cpp:156] Memory required for data: 245662752
I0403 15:12:39.274952 31297 layer_factory.hpp:77] Creating layer conv2/3x3
I0403 15:12:39.274977 31297 net.cpp:91] Creating Layer conv2/3x3
I0403 15:12:39.274996 31297 net.cpp:425] conv2/3x3 <- conv2/3x3_reduce
I0403 15:12:39.275017 31297 net.cpp:399] conv2/3x3 -> conv2/3x3
I0403 15:12:39.277382 31297 net.cpp:141] Setting up conv2/3x3
I0403 15:12:39.277417 31297 net.cpp:148] Top shape: 24 192 56 56 (14450688)
I0403 15:12:39.277436 31297 net.cpp:156] Memory required for data: 303465504
I0403 15:12:39.277458 31297 layer_factory.hpp:77] Creating layer conv2/relu_3x3
I0403 15:12:39.277478 31297 net.cpp:91] Creating Layer conv2/relu_3x3
I0403 15:12:39.277498 31297 net.cpp:425] conv2/relu_3x3 <- conv2/3x3
I0403 15:12:39.277523 31297 net.cpp:386] conv2/relu_3x3 -> conv2/3x3 (in-place)
I0403 15:12:39.277701 31297 net.cpp:141] Setting up conv2/relu_3x3
I0403 15:12:39.277726 31297 net.cpp:148] Top shape: 24 192 56 56 (14450688)
I0403 15:12:39.277771 31297 net.cpp:156] Memory required for data: 361268256
I0403 15:12:39.277787 31297 layer_factory.hpp:77] Creating layer conv2/norm2
I0403 15:12:39.277808 31297 net.cpp:91] Creating Layer conv2/norm2
I0403 15:12:39.277825 31297 net.cpp:425] conv2/norm2 <- conv2/3x3
I0403 15:12:39.277843 31297 net.cpp:399] conv2/norm2 -> conv2/norm2
I0403 15:12:39.278146 31297 net.cpp:141] Setting up conv2/norm2
I0403 15:12:39.278177 31297 net.cpp:148] Top shape: 24 192 56 56 (14450688)
I0403 15:12:39.278192 31297 net.cpp:156] Memory required for data: 419071008
I0403 15:12:39.278208 31297 layer_factory.hpp:77] Creating layer pool2/3x3_s2
I0403 15:12:39.278225 31297 net.cpp:91] Creating Layer pool2/3x3_s2
I0403 15:12:39.278240 31297 net.cpp:425] pool2/3x3_s2 <- conv2/norm2
I0403 15:12:39.278259 31297 net.cpp:399] pool2/3x3_s2 -> pool2/3x3_s2
I0403 15:12:39.278321 31297 net.cpp:141] Setting up pool2/3x3_s2
I0403 15:12:39.278343 31297 net.cpp:148] Top shape: 24 192 28 28 (3612672)
I0403 15:12:39.278358 31297 net.cpp:156] Memory required for data: 433521696
I0403 15:12:39.278373 31297 layer_factory.hpp:77] Creating layer pool2/3x3_s2_pool2/3x3_s2_0_split
I0403 15:12:39.278390 31297 net.cpp:91] Creating Layer pool2/3x3_s2_pool2/3x3_s2_0_split
I0403 15:12:39.278406 31297 net.cpp:425] pool2/3x3_s2_pool2/3x3_s2_0_split <- pool2/3x3_s2
I0403 15:12:39.278426 31297 net.cpp:399] pool2/3x3_s2_pool2/3x3_s2_0_split -> pool2/3x3_s2_pool2/3x3_s2_0_split_0
I0403 15:12:39.278446 31297 net.cpp:399] pool2/3x3_s2_pool2/3x3_s2_0_split -> pool2/3x3_s2_pool2/3x3_s2_0_split_1
I0403 15:12:39.278466 31297 net.cpp:399] pool2/3x3_s2_pool2/3x3_s2_0_split -> pool2/3x3_s2_pool2/3x3_s2_0_split_2
I0403 15:12:39.278486 31297 net.cpp:399] pool2/3x3_s2_pool2/3x3_s2_0_split -> pool2/3x3_s2_pool2/3x3_s2_0_split_3
I0403 15:12:39.278570 31297 net.cpp:141] Setting up pool2/3x3_s2_pool2/3x3_s2_0_split
I0403 15:12:39.278594 31297 net.cpp:148] Top shape: 24 192 28 28 (3612672)
I0403 15:12:39.278610 31297 net.cpp:148] Top shape: 24 192 28 28 (3612672)
I0403 15:12:39.278626 31297 net.cpp:148] Top shape: 24 192 28 28 (3612672)
I0403 15:12:39.278643 31297 net.cpp:148] Top shape: 24 192 28 28 (3612672)
I0403 15:12:39.278657 31297 net.cpp:156] Memory required for data: 491324448
I0403 15:12:39.278671 31297 layer_factory.hpp:77] Creating layer inception_3a/1x1
I0403 15:12:39.278694 31297 net.cpp:91] Creating Layer inception_3a/1x1
I0403 15:12:39.278712 31297 net.cpp:425] inception_3a/1x1 <- pool2/3x3_s2_pool2/3x3_s2_0_split_0
I0403 15:12:39.278733 31297 net.cpp:399] inception_3a/1x1 -> inception_3a/1x1
I0403 15:12:39.280295 31297 net.cpp:141] Setting up inception_3a/1x1
I0403 15:12:39.280326 31297 net.cpp:148] Top shape: 24 64 28 28 (1204224)
I0403 15:12:39.280344 31297 net.cpp:156] Memory required for data: 496141344
I0403 15:12:39.280362 31297 layer_factory.hpp:77] Creating layer inception_3a/relu_1x1
I0403 15:12:39.280381 31297 net.cpp:91] Creating Layer inception_3a/relu_1x1
I0403 15:12:39.280398 31297 net.cpp:425] inception_3a/relu_1x1 <- inception_3a/1x1
I0403 15:12:39.280417 31297 net.cpp:386] inception_3a/relu_1x1 -> inception_3a/1x1 (in-place)
I0403 15:12:39.280597 31297 net.cpp:141] Setting up inception_3a/relu_1x1
I0403 15:12:39.280623 31297 net.cpp:148] Top shape: 24 64 28 28 (1204224)
I0403 15:12:39.280637 31297 net.cpp:156] Memory required for data: 500958240
I0403 15:12:39.280653 31297 layer_factory.hpp:77] Creating layer inception_3a/3x3_reduce
I0403 15:12:39.280676 31297 net.cpp:91] Creating Layer inception_3a/3x3_reduce
I0403 15:12:39.280694 31297 net.cpp:425] inception_3a/3x3_reduce <- pool2/3x3_s2_pool2/3x3_s2_0_split_1
I0403 15:12:39.280714 31297 net.cpp:399] inception_3a/3x3_reduce -> inception_3a/3x3_reduce
I0403 15:12:39.282420 31297 net.cpp:141] Setting up inception_3a/3x3_reduce
I0403 15:12:39.282451 31297 net.cpp:148] Top shape: 24 96 28 28 (1806336)
I0403 15:12:39.282472 31297 net.cpp:156] Memory required for data: 508183584
I0403 15:12:39.282495 31297 layer_factory.hpp:77] Creating layer inception_3a/relu_3x3_reduce
I0403 15:12:39.282570 31297 net.cpp:91] Creating Layer inception_3a/relu_3x3_reduce
I0403 15:12:39.282590 31297 net.cpp:425] inception_3a/relu_3x3_reduce <- inception_3a/3x3_reduce
I0403 15:12:39.282611 31297 net.cpp:386] inception_3a/relu_3x3_reduce -> inception_3a/3x3_reduce (in-place)
I0403 15:12:39.282791 31297 net.cpp:141] Setting up inception_3a/relu_3x3_reduce
I0403 15:12:39.282817 31297 net.cpp:148] Top shape: 24 96 28 28 (1806336)
I0403 15:12:39.282832 31297 net.cpp:156] Memory required for data: 515408928
I0403 15:12:39.282847 31297 layer_factory.hpp:77] Creating layer inception_3a/3x3
I0403 15:12:39.282871 31297 net.cpp:91] Creating Layer inception_3a/3x3
I0403 15:12:39.282889 31297 net.cpp:425] inception_3a/3x3 <- inception_3a/3x3_reduce
I0403 15:12:39.282910 31297 net.cpp:399] inception_3a/3x3 -> inception_3a/3x3
I0403 15:12:39.284627 31297 net.cpp:141] Setting up inception_3a/3x3
I0403 15:12:39.284659 31297 net.cpp:148] Top shape: 24 128 28 28 (2408448)
I0403 15:12:39.284677 31297 net.cpp:156] Memory required for data: 525042720
I0403 15:12:39.284695 31297 layer_factory.hpp:77] Creating layer inception_3a/relu_3x3
I0403 15:12:39.284714 31297 net.cpp:91] Creating Layer inception_3a/relu_3x3
I0403 15:12:39.284730 31297 net.cpp:425] inception_3a/relu_3x3 <- inception_3a/3x3
I0403 15:12:39.284750 31297 net.cpp:386] inception_3a/relu_3x3 -> inception_3a/3x3 (in-place)
I0403 15:12:39.285025 31297 net.cpp:141] Setting up inception_3a/relu_3x3
I0403 15:12:39.285054 31297 net.cpp:148] Top shape: 24 128 28 28 (2408448)
I0403 15:12:39.285070 31297 net.cpp:156] Memory required for data: 534676512
I0403 15:12:39.285085 31297 layer_factory.hpp:77] Creating layer inception_3a/5x5_reduce
I0403 15:12:39.285107 31297 net.cpp:91] Creating Layer inception_3a/5x5_reduce
I0403 15:12:39.285125 31297 net.cpp:425] inception_3a/5x5_reduce <- pool2/3x3_s2_pool2/3x3_s2_0_split_2
I0403 15:12:39.285145 31297 net.cpp:399] inception_3a/5x5_reduce -> inception_3a/5x5_reduce
I0403 15:12:39.286237 31297 net.cpp:141] Setting up inception_3a/5x5_reduce
I0403 15:12:39.286269 31297 net.cpp:148] Top shape: 24 16 28 28 (301056)
I0403 15:12:39.286286 31297 net.cpp:156] Memory required for data: 535880736
I0403 15:12:39.286306 31297 layer_factory.hpp:77] Creating layer inception_3a/relu_5x5_reduce
I0403 15:12:39.286326 31297 net.cpp:91] Creating Layer inception_3a/relu_5x5_reduce
I0403 15:12:39.286344 31297 net.cpp:425] inception_3a/relu_5x5_reduce <- inception_3a/5x5_reduce
I0403 15:12:39.286365 31297 net.cpp:386] inception_3a/relu_5x5_reduce -> inception_3a/5x5_reduce (in-place)
I0403 15:12:39.286703 31297 net.cpp:141] Setting up inception_3a/relu_5x5_reduce
I0403 15:12:39.286731 31297 net.cpp:148] Top shape: 24 16 28 28 (301056)
I0403 15:12:39.286747 31297 net.cpp:156] Memory required for data: 537084960
I0403 15:12:39.286763 31297 layer_factory.hpp:77] Creating layer inception_3a/5x5
I0403 15:12:39.286787 31297 net.cpp:91] Creating Layer inception_3a/5x5
I0403 15:12:39.286804 31297 net.cpp:425] inception_3a/5x5 <- inception_3a/5x5_reduce
I0403 15:12:39.286826 31297 net.cpp:399] inception_3a/5x5 -> inception_3a/5x5
I0403 15:12:39.287930 31297 net.cpp:141] Setting up inception_3a/5x5
I0403 15:12:39.287958 31297 net.cpp:148] Top shape: 24 32 28 28 (602112)
I0403 15:12:39.287976 31297 net.cpp:156] Memory required for data: 539493408
I0403 15:12:39.287994 31297 layer_factory.hpp:77] Creating layer inception_3a/relu_5x5
I0403 15:12:39.288017 31297 net.cpp:91] Creating Layer inception_3a/relu_5x5
I0403 15:12:39.288038 31297 net.cpp:425] inception_3a/relu_5x5 <- inception_3a/5x5
I0403 15:12:39.288056 31297 net.cpp:386] inception_3a/relu_5x5 -> inception_3a/5x5 (in-place)
I0403 15:12:39.288236 31297 net.cpp:141] Setting up inception_3a/relu_5x5
I0403 15:12:39.288261 31297 net.cpp:148] Top shape: 24 32 28 28 (602112)
I0403 15:12:39.288277 31297 net.cpp:156] Memory required for data: 541901856
I0403 15:12:39.288295 31297 layer_factory.hpp:77] Creating layer inception_3a/pool
I0403 15:12:39.288313 31297 net.cpp:91] Creating Layer inception_3a/pool
I0403 15:12:39.288344 31297 net.cpp:425] inception_3a/pool <- pool2/3x3_s2_pool2/3x3_s2_0_split_3
I0403 15:12:39.288367 31297 net.cpp:399] inception_3a/pool -> inception_3a/pool
I0403 15:12:39.288426 31297 net.cpp:141] Setting up inception_3a/pool
I0403 15:12:39.288451 31297 net.cpp:148] Top shape: 24 192 28 28 (3612672)
I0403 15:12:39.288466 31297 net.cpp:156] Memory required for data: 556352544
I0403 15:12:39.288481 31297 layer_factory.hpp:77] Creating layer inception_3a/pool_proj
I0403 15:12:39.288513 31297 net.cpp:91] Creating Layer inception_3a/pool_proj
I0403 15:12:39.288533 31297 net.cpp:425] inception_3a/pool_proj <- inception_3a/pool
I0403 15:12:39.288552 31297 net.cpp:399] inception_3a/pool_proj -> inception_3a/pool_proj
I0403 15:12:39.289602 31297 net.cpp:141] Setting up inception_3a/pool_proj
I0403 15:12:39.289630 31297 net.cpp:148] Top shape: 24 32 28 28 (602112)
I0403 15:12:39.289647 31297 net.cpp:156] Memory required for data: 558760992
I0403 15:12:39.289674 31297 layer_factory.hpp:77] Creating layer inception_3a/relu_pool_proj
I0403 15:12:39.289695 31297 net.cpp:91] Creating Layer inception_3a/relu_pool_proj
I0403 15:12:39.289711 31297 net.cpp:425] inception_3a/relu_pool_proj <- inception_3a/pool_proj
I0403 15:12:39.289731 31297 net.cpp:386] inception_3a/relu_pool_proj -> inception_3a/pool_proj (in-place)
I0403 15:12:39.290014 31297 net.cpp:141] Setting up inception_3a/relu_pool_proj
I0403 15:12:39.290045 31297 net.cpp:148] Top shape: 24 32 28 28 (602112)
I0403 15:12:39.290061 31297 net.cpp:156] Memory required for data: 561169440
I0403 15:12:39.290076 31297 layer_factory.hpp:77] Creating layer inception_3a/output
I0403 15:12:39.290096 31297 net.cpp:91] Creating Layer inception_3a/output
I0403 15:12:39.290112 31297 net.cpp:425] inception_3a/output <- inception_3a/1x1
I0403 15:12:39.290129 31297 net.cpp:425] inception_3a/output <- inception_3a/3x3
I0403 15:12:39.290145 31297 net.cpp:425] inception_3a/output <- inception_3a/5x5
I0403 15:12:39.290161 31297 net.cpp:425] inception_3a/output <- inception_3a/pool_proj
I0403 15:12:39.290179 31297 net.cpp:399] inception_3a/output -> inception_3a/output
I0403 15:12:39.290230 31297 net.cpp:141] Setting up inception_3a/output
I0403 15:12:39.290252 31297 net.cpp:148] Top shape: 24 256 28 28 (4816896)
I0403 15:12:39.290268 31297 net.cpp:156] Memory required for data: 580437024
I0403 15:12:39.290283 31297 layer_factory.hpp:77] Creating layer inception_3a/output_inception_3a/output_0_split
I0403 15:12:39.290302 31297 net.cpp:91] Creating Layer inception_3a/output_inception_3a/output_0_split
I0403 15:12:39.290316 31297 net.cpp:425] inception_3a/output_inception_3a/output_0_split <- inception_3a/output
I0403 15:12:39.290338 31297 net.cpp:399] inception_3a/output_inception_3a/output_0_split -> inception_3a/output_inception_3a/output_0_split_0
I0403 15:12:39.290359 31297 net.cpp:399] inception_3a/output_inception_3a/output_0_split -> inception_3a/output_inception_3a/output_0_split_1
I0403 15:12:39.290385 31297 net.cpp:399] inception_3a/output_inception_3a/output_0_split -> inception_3a/output_inception_3a/output_0_split_2
I0403 15:12:39.290407 31297 net.cpp:399] inception_3a/output_inception_3a/output_0_split -> inception_3a/output_inception_3a/output_0_split_3
I0403 15:12:39.290482 31297 net.cpp:141] Setting up inception_3a/output_inception_3a/output_0_split
I0403 15:12:39.290510 31297 net.cpp:148] Top shape: 24 256 28 28 (4816896)
I0403 15:12:39.290531 31297 net.cpp:148] Top shape: 24 256 28 28 (4816896)
I0403 15:12:39.290549 31297 net.cpp:148] Top shape: 24 256 28 28 (4816896)
I0403 15:12:39.290565 31297 net.cpp:148] Top shape: 24 256 28 28 (4816896)
I0403 15:12:39.290580 31297 net.cpp:156] Memory required for data: 657507360
I0403 15:12:39.290594 31297 layer_factory.hpp:77] Creating layer inception_3b/1x1
I0403 15:12:39.290616 31297 net.cpp:91] Creating Layer inception_3b/1x1
I0403 15:12:39.290633 31297 net.cpp:425] inception_3b/1x1 <- inception_3a/output_inception_3a/output_0_split_0
I0403 15:12:39.290655 31297 net.cpp:399] inception_3b/1x1 -> inception_3b/1x1
I0403 15:12:39.291872 31297 net.cpp:141] Setting up inception_3b/1x1
I0403 15:12:39.291911 31297 net.cpp:148] Top shape: 24 128 28 28 (2408448)
I0403 15:12:39.291929 31297 net.cpp:156] Memory required for data: 667141152
I0403 15:12:39.291947 31297 layer_factory.hpp:77] Creating layer inception_3b/relu_1x1
I0403 15:12:39.291970 31297 net.cpp:91] Creating Layer inception_3b/relu_1x1
I0403 15:12:39.291986 31297 net.cpp:425] inception_3b/relu_1x1 <- inception_3b/1x1
I0403 15:12:39.292004 31297 net.cpp:386] inception_3b/relu_1x1 -> inception_3b/1x1 (in-place)
I0403 15:12:39.292186 31297 net.cpp:141] Setting up inception_3b/relu_1x1
I0403 15:12:39.292214 31297 net.cpp:148] Top shape: 24 128 28 28 (2408448)
I0403 15:12:39.292230 31297 net.cpp:156] Memory required for data: 676774944
I0403 15:12:39.292245 31297 layer_factory.hpp:77] Creating layer inception_3b/3x3_reduce
I0403 15:12:39.292268 31297 net.cpp:91] Creating Layer inception_3b/3x3_reduce
I0403 15:12:39.292286 31297 net.cpp:425] inception_3b/3x3_reduce <- inception_3a/output_inception_3a/output_0_split_1
I0403 15:12:39.292305 31297 net.cpp:399] inception_3b/3x3_reduce -> inception_3b/3x3_reduce
I0403 15:12:39.293509 31297 net.cpp:141] Setting up inception_3b/3x3_reduce
I0403 15:12:39.293537 31297 net.cpp:148] Top shape: 24 128 28 28 (2408448)
I0403 15:12:39.293553 31297 net.cpp:156] Memory required for data: 686408736
I0403 15:12:39.293575 31297 layer_factory.hpp:77] Creating layer inception_3b/relu_3x3_reduce
I0403 15:12:39.293596 31297 net.cpp:91] Creating Layer inception_3b/relu_3x3_reduce
I0403 15:12:39.293614 31297 net.cpp:425] inception_3b/relu_3x3_reduce <- inception_3b/3x3_reduce
I0403 15:12:39.293632 31297 net.cpp:386] inception_3b/relu_3x3_reduce -> inception_3b/3x3_reduce (in-place)
I0403 15:12:39.293808 31297 net.cpp:141] Setting up inception_3b/relu_3x3_reduce
I0403 15:12:39.293838 31297 net.cpp:148] Top shape: 24 128 28 28 (2408448)
I0403 15:12:39.293853 31297 net.cpp:156] Memory required for data: 696042528
I0403 15:12:39.293869 31297 layer_factory.hpp:77] Creating layer inception_3b/3x3
I0403 15:12:39.293895 31297 net.cpp:91] Creating Layer inception_3b/3x3
I0403 15:12:39.293912 31297 net.cpp:425] inception_3b/3x3 <- inception_3b/3x3_reduce
I0403 15:12:39.293936 31297 net.cpp:399] inception_3b/3x3 -> inception_3b/3x3
I0403 15:12:39.296985 31297 net.cpp:141] Setting up inception_3b/3x3
I0403 15:12:39.297019 31297 net.cpp:148] Top shape: 24 192 28 28 (3612672)
I0403 15:12:39.297039 31297 net.cpp:156] Memory required for data: 710493216
I0403 15:12:39.297060 31297 layer_factory.hpp:77] Creating layer inception_3b/relu_3x3
I0403 15:12:39.297080 31297 net.cpp:91] Creating Layer inception_3b/relu_3x3
I0403 15:12:39.297096 31297 net.cpp:425] inception_3b/relu_3x3 <- inception_3b/3x3
I0403 15:12:39.297118 31297 net.cpp:386] inception_3b/relu_3x3 -> inception_3b/3x3 (in-place)
I0403 15:12:39.297400 31297 net.cpp:141] Setting up inception_3b/relu_3x3
I0403 15:12:39.297432 31297 net.cpp:148] Top shape: 24 192 28 28 (3612672)
I0403 15:12:39.297449 31297 net.cpp:156] Memory required for data: 724943904
I0403 15:12:39.297466 31297 layer_factory.hpp:77] Creating layer inception_3b/5x5_reduce
I0403 15:12:39.297492 31297 net.cpp:91] Creating Layer inception_3b/5x5_reduce
I0403 15:12:39.297515 31297 net.cpp:425] inception_3b/5x5_reduce <- inception_3a/output_inception_3a/output_0_split_2
I0403 15:12:39.297538 31297 net.cpp:399] inception_3b/5x5_reduce -> inception_3b/5x5_reduce
I0403 15:12:39.298553 31297 net.cpp:141] Setting up inception_3b/5x5_reduce
I0403 15:12:39.298583 31297 net.cpp:148] Top shape: 24 32 28 28 (602112)
I0403 15:12:39.298599 31297 net.cpp:156] Memory required for data: 727352352
I0403 15:12:39.298620 31297 layer_factory.hpp:77] Creating layer inception_3b/relu_5x5_reduce
I0403 15:12:39.298640 31297 net.cpp:91] Creating Layer inception_3b/relu_5x5_reduce
I0403 15:12:39.298657 31297 net.cpp:425] inception_3b/relu_5x5_reduce <- inception_3b/5x5_reduce
I0403 15:12:39.298676 31297 net.cpp:386] inception_3b/relu_5x5_reduce -> inception_3b/5x5_reduce (in-place)
I0403 15:12:39.298874 31297 net.cpp:141] Setting up inception_3b/relu_5x5_reduce
I0403 15:12:39.298900 31297 net.cpp:148] Top shape: 24 32 28 28 (602112)
I0403 15:12:39.298916 31297 net.cpp:156] Memory required for data: 729760800
I0403 15:12:39.298933 31297 layer_factory.hpp:77] Creating layer inception_3b/5x5
I0403 15:12:39.298955 31297 net.cpp:91] Creating Layer inception_3b/5x5
I0403 15:12:39.298974 31297 net.cpp:425] inception_3b/5x5 <- inception_3b/5x5_reduce
I0403 15:12:39.298995 31297 net.cpp:399] inception_3b/5x5 -> inception_3b/5x5
I0403 15:12:39.301025 31297 net.cpp:141] Setting up inception_3b/5x5
I0403 15:12:39.301055 31297 net.cpp:148] Top shape: 24 96 28 28 (1806336)
I0403 15:12:39.301072 31297 net.cpp:156] Memory required for data: 736986144
I0403 15:12:39.301092 31297 layer_factory.hpp:77] Creating layer inception_3b/relu_5x5
I0403 15:12:39.301115 31297 net.cpp:91] Creating Layer inception_3b/relu_5x5
I0403 15:12:39.301131 31297 net.cpp:425] inception_3b/relu_5x5 <- inception_3b/5x5
I0403 15:12:39.301149 31297 net.cpp:386] inception_3b/relu_5x5 -> inception_3b/5x5 (in-place)
I0403 15:12:39.301344 31297 net.cpp:141] Setting up inception_3b/relu_5x5
I0403 15:12:39.301370 31297 net.cpp:148] Top shape: 24 96 28 28 (1806336)
I0403 15:12:39.301386 31297 net.cpp:156] Memory required for data: 744211488
I0403 15:12:39.301401 31297 layer_factory.hpp:77] Creating layer inception_3b/pool
I0403 15:12:39.301420 31297 net.cpp:91] Creating Layer inception_3b/pool
I0403 15:12:39.301436 31297 net.cpp:425] inception_3b/pool <- inception_3a/output_inception_3a/output_0_split_3
I0403 15:12:39.301455 31297 net.cpp:399] inception_3b/pool -> inception_3b/pool
I0403 15:12:39.301517 31297 net.cpp:141] Setting up inception_3b/pool
I0403 15:12:39.301542 31297 net.cpp:148] Top shape: 24 256 28 28 (4816896)
I0403 15:12:39.301556 31297 net.cpp:156] Memory required for data: 763479072
I0403 15:12:39.301573 31297 layer_factory.hpp:77] Creating layer inception_3b/pool_proj
I0403 15:12:39.301596 31297 net.cpp:91] Creating Layer inception_3b/pool_proj
I0403 15:12:39.301614 31297 net.cpp:425] inception_3b/pool_proj <- inception_3b/pool
I0403 15:12:39.301636 31297 net.cpp:399] inception_3b/pool_proj -> inception_3b/pool_proj
I0403 15:12:39.302723 31297 net.cpp:141] Setting up inception_3b/pool_proj
I0403 15:12:39.302752 31297 net.cpp:148] Top shape: 24 64 28 28 (1204224)
I0403 15:12:39.302769 31297 net.cpp:156] Memory required for data: 768295968
I0403 15:12:39.302788 31297 layer_factory.hpp:77] Creating layer inception_3b/relu_pool_proj
I0403 15:12:39.302808 31297 net.cpp:91] Creating Layer inception_3b/relu_pool_proj
I0403 15:12:39.302824 31297 net.cpp:425] inception_3b/relu_pool_proj <- inception_3b/pool_proj
I0403 15:12:39.302845 31297 net.cpp:386] inception_3b/relu_pool_proj -> inception_3b/pool_proj (in-place)
I0403 15:12:39.303258 31297 net.cpp:141] Setting up inception_3b/relu_pool_proj
I0403 15:12:39.303287 31297 net.cpp:148] Top shape: 24 64 28 28 (1204224)
I0403 15:12:39.303304 31297 net.cpp:156] Memory required for data: 773112864
I0403 15:12:39.303319 31297 layer_factory.hpp:77] Creating layer inception_3b/output
I0403 15:12:39.303338 31297 net.cpp:91] Creating Layer inception_3b/output
I0403 15:12:39.303354 31297 net.cpp:425] inception_3b/output <- inception_3b/1x1
I0403 15:12:39.303371 31297 net.cpp:425] inception_3b/output <- inception_3b/3x3
I0403 15:12:39.303388 31297 net.cpp:425] inception_3b/output <- inception_3b/5x5
I0403 15:12:39.303405 31297 net.cpp:425] inception_3b/output <- inception_3b/pool_proj
I0403 15:12:39.303424 31297 net.cpp:399] inception_3b/output -> inception_3b/output
I0403 15:12:39.303469 31297 net.cpp:141] Setting up inception_3b/output
I0403 15:12:39.303493 31297 net.cpp:148] Top shape: 24 480 28 28 (9031680)
I0403 15:12:39.303514 31297 net.cpp:156] Memory required for data: 809239584
I0403 15:12:39.303529 31297 layer_factory.hpp:77] Creating layer pool3/3x3_s2
I0403 15:12:39.303550 31297 net.cpp:91] Creating Layer pool3/3x3_s2
I0403 15:12:39.303568 31297 net.cpp:425] pool3/3x3_s2 <- inception_3b/output
I0403 15:12:39.303601 31297 net.cpp:399] pool3/3x3_s2 -> pool3/3x3_s2
I0403 15:12:39.303664 31297 net.cpp:141] Setting up pool3/3x3_s2
I0403 15:12:39.303689 31297 net.cpp:148] Top shape: 24 480 14 14 (2257920)
I0403 15:12:39.303704 31297 net.cpp:156] Memory required for data: 818271264
I0403 15:12:39.303719 31297 layer_factory.hpp:77] Creating layer pool3/3x3_s2_pool3/3x3_s2_0_split
I0403 15:12:39.303736 31297 net.cpp:91] Creating Layer pool3/3x3_s2_pool3/3x3_s2_0_split
I0403 15:12:39.303755 31297 net.cpp:425] pool3/3x3_s2_pool3/3x3_s2_0_split <- pool3/3x3_s2
I0403 15:12:39.303772 31297 net.cpp:399] pool3/3x3_s2_pool3/3x3_s2_0_split -> pool3/3x3_s2_pool3/3x3_s2_0_split_0
I0403 15:12:39.303793 31297 net.cpp:399] pool3/3x3_s2_pool3/3x3_s2_0_split -> pool3/3x3_s2_pool3/3x3_s2_0_split_1
I0403 15:12:39.303813 31297 net.cpp:399] pool3/3x3_s2_pool3/3x3_s2_0_split -> pool3/3x3_s2_pool3/3x3_s2_0_split_2
I0403 15:12:39.303833 31297 net.cpp:399] pool3/3x3_s2_pool3/3x3_s2_0_split -> pool3/3x3_s2_pool3/3x3_s2_0_split_3
I0403 15:12:39.303912 31297 net.cpp:141] Setting up pool3/3x3_s2_pool3/3x3_s2_0_split
I0403 15:12:39.303936 31297 net.cpp:148] Top shape: 24 480 14 14 (2257920)
I0403 15:12:39.303953 31297 net.cpp:148] Top shape: 24 480 14 14 (2257920)
I0403 15:12:39.303969 31297 net.cpp:148] Top shape: 24 480 14 14 (2257920)
I0403 15:12:39.303985 31297 net.cpp:148] Top shape: 24 480 14 14 (2257920)
I0403 15:12:39.303999 31297 net.cpp:156] Memory required for data: 854397984
I0403 15:12:39.304014 31297 layer_factory.hpp:77] Creating layer inception_4a/1x1
I0403 15:12:39.304038 31297 net.cpp:91] Creating Layer inception_4a/1x1
I0403 15:12:39.304055 31297 net.cpp:425] inception_4a/1x1 <- pool3/3x3_s2_pool3/3x3_s2_0_split_0
I0403 15:12:39.304076 31297 net.cpp:399] inception_4a/1x1 -> inception_4a/1x1
I0403 15:12:39.305701 31297 net.cpp:141] Setting up inception_4a/1x1
I0403 15:12:39.305730 31297 net.cpp:148] Top shape: 24 192 14 14 (903168)
I0403 15:12:39.305747 31297 net.cpp:156] Memory required for data: 858010656
I0403 15:12:39.305766 31297 layer_factory.hpp:77] Creating layer inception_4a/relu_1x1
I0403 15:12:39.305786 31297 net.cpp:91] Creating Layer inception_4a/relu_1x1
I0403 15:12:39.305804 31297 net.cpp:425] inception_4a/relu_1x1 <- inception_4a/1x1
I0403 15:12:39.305824 31297 net.cpp:386] inception_4a/relu_1x1 -> inception_4a/1x1 (in-place)
I0403 15:12:39.306005 31297 net.cpp:141] Setting up inception_4a/relu_1x1
I0403 15:12:39.306031 31297 net.cpp:148] Top shape: 24 192 14 14 (903168)
I0403 15:12:39.306046 31297 net.cpp:156] Memory required for data: 861623328
I0403 15:12:39.306061 31297 layer_factory.hpp:77] Creating layer inception_4a/3x3_reduce
I0403 15:12:39.306084 31297 net.cpp:91] Creating Layer inception_4a/3x3_reduce
I0403 15:12:39.306102 31297 net.cpp:425] inception_4a/3x3_reduce <- pool3/3x3_s2_pool3/3x3_s2_0_split_1
I0403 15:12:39.306123 31297 net.cpp:399] inception_4a/3x3_reduce -> inception_4a/3x3_reduce
I0403 15:12:39.307440 31297 net.cpp:141] Setting up inception_4a/3x3_reduce
I0403 15:12:39.307467 31297 net.cpp:148] Top shape: 24 96 14 14 (451584)
I0403 15:12:39.307483 31297 net.cpp:156] Memory required for data: 863429664
I0403 15:12:39.307513 31297 layer_factory.hpp:77] Creating layer inception_4a/relu_3x3_reduce
I0403 15:12:39.307535 31297 net.cpp:91] Creating Layer inception_4a/relu_3x3_reduce
I0403 15:12:39.307553 31297 net.cpp:425] inception_4a/relu_3x3_reduce <- inception_4a/3x3_reduce
I0403 15:12:39.307572 31297 net.cpp:386] inception_4a/relu_3x3_reduce -> inception_4a/3x3_reduce (in-place)
I0403 15:12:39.307750 31297 net.cpp:141] Setting up inception_4a/relu_3x3_reduce
I0403 15:12:39.307776 31297 net.cpp:148] Top shape: 24 96 14 14 (451584)
I0403 15:12:39.307791 31297 net.cpp:156] Memory required for data: 865236000
I0403 15:12:39.307806 31297 layer_factory.hpp:77] Creating layer inception_4a/3x3
I0403 15:12:39.307829 31297 net.cpp:91] Creating Layer inception_4a/3x3
I0403 15:12:39.307847 31297 net.cpp:425] inception_4a/3x3 <- inception_4a/3x3_reduce
I0403 15:12:39.307868 31297 net.cpp:399] inception_4a/3x3 -> inception_4a/3x3
I0403 15:12:39.310591 31297 net.cpp:141] Setting up inception_4a/3x3
I0403 15:12:39.310621 31297 net.cpp:148] Top shape: 24 208 14 14 (978432)
I0403 15:12:39.310636 31297 net.cpp:156] Memory required for data: 869149728
I0403 15:12:39.310654 31297 layer_factory.hpp:77] Creating layer inception_4a/relu_3x3
I0403 15:12:39.310673 31297 net.cpp:91] Creating Layer inception_4a/relu_3x3
I0403 15:12:39.310690 31297 net.cpp:425] inception_4a/relu_3x3 <- inception_4a/3x3
I0403 15:12:39.310708 31297 net.cpp:386] inception_4a/relu_3x3 -> inception_4a/3x3 (in-place)
I0403 15:12:39.310981 31297 net.cpp:141] Setting up inception_4a/relu_3x3
I0403 15:12:39.311007 31297 net.cpp:148] Top shape: 24 208 14 14 (978432)
I0403 15:12:39.311022 31297 net.cpp:156] Memory required for data: 873063456
I0403 15:12:39.311036 31297 layer_factory.hpp:77] Creating layer inception_4a/5x5_reduce
I0403 15:12:39.311058 31297 net.cpp:91] Creating Layer inception_4a/5x5_reduce
I0403 15:12:39.311075 31297 net.cpp:425] inception_4a/5x5_reduce <- pool3/3x3_s2_pool3/3x3_s2_0_split_2
I0403 15:12:39.311097 31297 net.cpp:399] inception_4a/5x5_reduce -> inception_4a/5x5_reduce
I0403 15:12:39.312085 31297 net.cpp:141] Setting up inception_4a/5x5_reduce
I0403 15:12:39.312111 31297 net.cpp:148] Top shape: 24 16 14 14 (75264)
I0403 15:12:39.312126 31297 net.cpp:156] Memory required for data: 873364512
I0403 15:12:39.312144 31297 layer_factory.hpp:77] Creating layer inception_4a/relu_5x5_reduce
I0403 15:12:39.312165 31297 net.cpp:91] Creating Layer inception_4a/relu_5x5_reduce
I0403 15:12:39.312182 31297 net.cpp:425] inception_4a/relu_5x5_reduce <- inception_4a/5x5_reduce
I0403 15:12:39.312199 31297 net.cpp:386] inception_4a/relu_5x5_reduce -> inception_4a/5x5_reduce (in-place)
I0403 15:12:39.312371 31297 net.cpp:141] Setting up inception_4a/relu_5x5_reduce
I0403 15:12:39.312396 31297 net.cpp:148] Top shape: 24 16 14 14 (75264)
I0403 15:12:39.312409 31297 net.cpp:156] Memory required for data: 873665568
I0403 15:12:39.312424 31297 layer_factory.hpp:77] Creating layer inception_4a/5x5
I0403 15:12:39.312446 31297 net.cpp:91] Creating Layer inception_4a/5x5
I0403 15:12:39.312463 31297 net.cpp:425] inception_4a/5x5 <- inception_4a/5x5_reduce
I0403 15:12:39.312484 31297 net.cpp:399] inception_4a/5x5 -> inception_4a/5x5
I0403 15:12:39.313539 31297 net.cpp:141] Setting up inception_4a/5x5
I0403 15:12:39.313568 31297 net.cpp:148] Top shape: 24 48 14 14 (225792)
I0403 15:12:39.313585 31297 net.cpp:156] Memory required for data: 874568736
I0403 15:12:39.313602 31297 layer_factory.hpp:77] Creating layer inception_4a/relu_5x5
I0403 15:12:39.313621 31297 net.cpp:91] Creating Layer inception_4a/relu_5x5
I0403 15:12:39.313637 31297 net.cpp:425] inception_4a/relu_5x5 <- inception_4a/5x5
I0403 15:12:39.313655 31297 net.cpp:386] inception_4a/relu_5x5 -> inception_4a/5x5 (in-place)
I0403 15:12:39.313828 31297 net.cpp:141] Setting up inception_4a/relu_5x5
I0403 15:12:39.313853 31297 net.cpp:148] Top shape: 24 48 14 14 (225792)
I0403 15:12:39.313868 31297 net.cpp:156] Memory required for data: 875471904
I0403 15:12:39.313882 31297 layer_factory.hpp:77] Creating layer inception_4a/pool
I0403 15:12:39.313902 31297 net.cpp:91] Creating Layer inception_4a/pool
I0403 15:12:39.313918 31297 net.cpp:425] inception_4a/pool <- pool3/3x3_s2_pool3/3x3_s2_0_split_3
I0403 15:12:39.313936 31297 net.cpp:399] inception_4a/pool -> inception_4a/pool
I0403 15:12:39.313997 31297 net.cpp:141] Setting up inception_4a/pool
I0403 15:12:39.314020 31297 net.cpp:148] Top shape: 24 480 14 14 (2257920)
I0403 15:12:39.314034 31297 net.cpp:156] Memory required for data: 884503584
I0403 15:12:39.314049 31297 layer_factory.hpp:77] Creating layer inception_4a/pool_proj
I0403 15:12:39.314069 31297 net.cpp:91] Creating Layer inception_4a/pool_proj
I0403 15:12:39.314087 31297 net.cpp:425] inception_4a/pool_proj <- inception_4a/pool
I0403 15:12:39.314107 31297 net.cpp:399] inception_4a/pool_proj -> inception_4a/pool_proj
I0403 15:12:39.315245 31297 net.cpp:141] Setting up inception_4a/pool_proj
I0403 15:12:39.315273 31297 net.cpp:148] Top shape: 24 64 14 14 (301056)
I0403 15:12:39.315302 31297 net.cpp:156] Memory required for data: 885707808
I0403 15:12:39.315320 31297 layer_factory.hpp:77] Creating layer inception_4a/relu_pool_proj
I0403 15:12:39.315341 31297 net.cpp:91] Creating Layer inception_4a/relu_pool_proj
I0403 15:12:39.315357 31297 net.cpp:425] inception_4a/relu_pool_proj <- inception_4a/pool_proj
I0403 15:12:39.315376 31297 net.cpp:386] inception_4a/relu_pool_proj -> inception_4a/pool_proj (in-place)
I0403 15:12:39.315659 31297 net.cpp:141] Setting up inception_4a/relu_pool_proj
I0403 15:12:39.315683 31297 net.cpp:148] Top shape: 24 64 14 14 (301056)
I0403 15:12:39.315698 31297 net.cpp:156] Memory required for data: 886912032
I0403 15:12:39.315712 31297 layer_factory.hpp:77] Creating layer inception_4a/output
I0403 15:12:39.315729 31297 net.cpp:91] Creating Layer inception_4a/output
I0403 15:12:39.315744 31297 net.cpp:425] inception_4a/output <- inception_4a/1x1
I0403 15:12:39.315762 31297 net.cpp:425] inception_4a/output <- inception_4a/3x3
I0403 15:12:39.315778 31297 net.cpp:425] inception_4a/output <- inception_4a/5x5
I0403 15:12:39.315793 31297 net.cpp:425] inception_4a/output <- inception_4a/pool_proj
I0403 15:12:39.315812 31297 net.cpp:399] inception_4a/output -> inception_4a/output
I0403 15:12:39.315855 31297 net.cpp:141] Setting up inception_4a/output
I0403 15:12:39.315881 31297 net.cpp:148] Top shape: 24 512 14 14 (2408448)
I0403 15:12:39.315896 31297 net.cpp:156] Memory required for data: 896545824
I0403 15:12:39.315910 31297 layer_factory.hpp:77] Creating layer inception_4a/output_inception_4a/output_0_split
I0403 15:12:39.315927 31297 net.cpp:91] Creating Layer inception_4a/output_inception_4a/output_0_split
I0403 15:12:39.315943 31297 net.cpp:425] inception_4a/output_inception_4a/output_0_split <- inception_4a/output
I0403 15:12:39.315961 31297 net.cpp:399] inception_4a/output_inception_4a/output_0_split -> inception_4a/output_inception_4a/output_0_split_0
I0403 15:12:39.315982 31297 net.cpp:399] inception_4a/output_inception_4a/output_0_split -> inception_4a/output_inception_4a/output_0_split_1
I0403 15:12:39.316002 31297 net.cpp:399] inception_4a/output_inception_4a/output_0_split -> inception_4a/output_inception_4a/output_0_split_2
I0403 15:12:39.316022 31297 net.cpp:399] inception_4a/output_inception_4a/output_0_split -> inception_4a/output_inception_4a/output_0_split_3
I0403 15:12:39.316041 31297 net.cpp:399] inception_4a/output_inception_4a/output_0_split -> inception_4a/output_inception_4a/output_0_split_4
I0403 15:12:39.316138 31297 net.cpp:141] Setting up inception_4a/output_inception_4a/output_0_split
I0403 15:12:39.316160 31297 net.cpp:148] Top shape: 24 512 14 14 (2408448)
I0403 15:12:39.316176 31297 net.cpp:148] Top shape: 24 512 14 14 (2408448)
I0403 15:12:39.316191 31297 net.cpp:148] Top shape: 24 512 14 14 (2408448)
I0403 15:12:39.316206 31297 net.cpp:148] Top shape: 24 512 14 14 (2408448)
I0403 15:12:39.316221 31297 net.cpp:148] Top shape: 24 512 14 14 (2408448)
I0403 15:12:39.316234 31297 net.cpp:156] Memory required for data: 944714784
I0403 15:12:39.316248 31297 layer_factory.hpp:77] Creating layer loss1/ave_pool
I0403 15:12:39.316267 31297 net.cpp:91] Creating Layer loss1/ave_pool
I0403 15:12:39.316284 31297 net.cpp:425] loss1/ave_pool <- inception_4a/output_inception_4a/output_0_split_0
I0403 15:12:39.316304 31297 net.cpp:399] loss1/ave_pool -> loss1/ave_pool
I0403 15:12:39.316509 31297 net.cpp:141] Setting up loss1/ave_pool
I0403 15:12:39.316534 31297 net.cpp:148] Top shape: 24 512 4 4 (196608)
I0403 15:12:39.316550 31297 net.cpp:156] Memory required for data: 945501216
I0403 15:12:39.316563 31297 layer_factory.hpp:77] Creating layer loss1/conv
I0403 15:12:39.316588 31297 net.cpp:91] Creating Layer loss1/conv
I0403 15:12:39.316606 31297 net.cpp:425] loss1/conv <- loss1/ave_pool
I0403 15:12:39.316627 31297 net.cpp:399] loss1/conv -> loss1/conv
I0403 15:12:39.317993 31297 net.cpp:141] Setting up loss1/conv
I0403 15:12:39.318020 31297 net.cpp:148] Top shape: 24 128 4 4 (49152)
I0403 15:12:39.318048 31297 net.cpp:156] Memory required for data: 945697824
I0403 15:12:39.318068 31297 layer_factory.hpp:77] Creating layer loss1/relu_conv
I0403 15:12:39.318089 31297 net.cpp:91] Creating Layer loss1/relu_conv
I0403 15:12:39.318105 31297 net.cpp:425] loss1/relu_conv <- loss1/conv
I0403 15:12:39.318121 31297 net.cpp:386] loss1/relu_conv -> loss1/conv (in-place)
I0403 15:12:39.318400 31297 net.cpp:141] Setting up loss1/relu_conv
I0403 15:12:39.318426 31297 net.cpp:148] Top shape: 24 128 4 4 (49152)
I0403 15:12:39.318440 31297 net.cpp:156] Memory required for data: 945894432
I0403 15:12:39.318455 31297 layer_factory.hpp:77] Creating layer loss1/fc
I0403 15:12:39.318482 31297 net.cpp:91] Creating Layer loss1/fc
I0403 15:12:39.318500 31297 net.cpp:425] loss1/fc <- loss1/conv
I0403 15:12:39.318526 31297 net.cpp:399] loss1/fc -> loss1/fc
I0403 15:12:39.336207 31297 net.cpp:141] Setting up loss1/fc
I0403 15:12:39.336241 31297 net.cpp:148] Top shape: 24 1024 (24576)
I0403 15:12:39.336258 31297 net.cpp:156] Memory required for data: 945992736
I0403 15:12:39.336277 31297 layer_factory.hpp:77] Creating layer loss1/relu_fc
I0403 15:12:39.336297 31297 net.cpp:91] Creating Layer loss1/relu_fc
I0403 15:12:39.336313 31297 net.cpp:425] loss1/relu_fc <- loss1/fc
I0403 15:12:39.336334 31297 net.cpp:386] loss1/relu_fc -> loss1/fc (in-place)
I0403 15:12:39.336522 31297 net.cpp:141] Setting up loss1/relu_fc
I0403 15:12:39.336547 31297 net.cpp:148] Top shape: 24 1024 (24576)
I0403 15:12:39.336565 31297 net.cpp:156] Memory required for data: 946091040
I0403 15:12:39.336580 31297 layer_factory.hpp:77] Creating layer loss1/drop_fc
I0403 15:12:39.336607 31297 net.cpp:91] Creating Layer loss1/drop_fc
I0403 15:12:39.336626 31297 net.cpp:425] loss1/drop_fc <- loss1/fc
I0403 15:12:39.336643 31297 net.cpp:386] loss1/drop_fc -> loss1/fc (in-place)
I0403 15:12:39.336711 31297 net.cpp:141] Setting up loss1/drop_fc
I0403 15:12:39.336735 31297 net.cpp:148] Top shape: 24 1024 (24576)
I0403 15:12:39.336750 31297 net.cpp:156] Memory required for data: 946189344
I0403 15:12:39.336765 31297 layer_factory.hpp:77] Creating layer loss1/classifier_plantvillage
I0403 15:12:39.336783 31297 net.cpp:91] Creating Layer loss1/classifier_plantvillage
I0403 15:12:39.336798 31297 net.cpp:425] loss1/classifier_plantvillage <- loss1/fc
I0403 15:12:39.336820 31297 net.cpp:399] loss1/classifier_plantvillage -> loss1/classifier_plantvillage
I0403 15:12:39.337743 31297 net.cpp:141] Setting up loss1/classifier_plantvillage
I0403 15:12:39.337772 31297 net.cpp:148] Top shape: 24 38 (912)
I0403 15:12:39.337788 31297 net.cpp:156] Memory required for data: 946192992
I0403 15:12:39.337806 31297 layer_factory.hpp:77] Creating layer loss1/classifier_plantvillage_loss1/classifier_plantvillage_0_split
I0403 15:12:39.337828 31297 net.cpp:91] Creating Layer loss1/classifier_plantvillage_loss1/classifier_plantvillage_0_split
I0403 15:12:39.337846 31297 net.cpp:425] loss1/classifier_plantvillage_loss1/classifier_plantvillage_0_split <- loss1/classifier_plantvillage
I0403 15:12:39.337864 31297 net.cpp:399] loss1/classifier_plantvillage_loss1/classifier_plantvillage_0_split -> loss1/classifier_plantvillage_loss1/classifier_plantvillage_0_split_0
I0403 15:12:39.337921 31297 net.cpp:399] loss1/classifier_plantvillage_loss1/classifier_plantvillage_0_split -> loss1/classifier_plantvillage_loss1/classifier_plantvillage_0_split_1
I0403 15:12:39.337945 31297 net.cpp:399] loss1/classifier_plantvillage_loss1/classifier_plantvillage_0_split -> loss1/classifier_plantvillage_loss1/classifier_plantvillage_0_split_2
I0403 15:12:39.338016 31297 net.cpp:141] Setting up loss1/classifier_plantvillage_loss1/classifier_plantvillage_0_split
I0403 15:12:39.338039 31297 net.cpp:148] Top shape: 24 38 (912)
I0403 15:12:39.338055 31297 net.cpp:148] Top shape: 24 38 (912)
I0403 15:12:39.338071 31297 net.cpp:148] Top shape: 24 38 (912)
I0403 15:12:39.338085 31297 net.cpp:156] Memory required for data: 946203936
I0403 15:12:39.338100 31297 layer_factory.hpp:77] Creating layer inception_4b/1x1
I0403 15:12:39.338124 31297 net.cpp:91] Creating Layer inception_4b/1x1
I0403 15:12:39.338156 31297 net.cpp:425] inception_4b/1x1 <- inception_4a/output_inception_4a/output_0_split_1
I0403 15:12:39.338176 31297 net.cpp:399] inception_4b/1x1 -> inception_4b/1x1
I0403 15:12:39.339844 31297 net.cpp:141] Setting up inception_4b/1x1
I0403 15:12:39.339872 31297 net.cpp:148] Top shape: 24 160 14 14 (752640)
I0403 15:12:39.339887 31297 net.cpp:156] Memory required for data: 949214496
I0403 15:12:39.339905 31297 layer_factory.hpp:77] Creating layer inception_4b/relu_1x1
I0403 15:12:39.339926 31297 net.cpp:91] Creating Layer inception_4b/relu_1x1
I0403 15:12:39.339942 31297 net.cpp:425] inception_4b/relu_1x1 <- inception_4b/1x1
I0403 15:12:39.339961 31297 net.cpp:386] inception_4b/relu_1x1 -> inception_4b/1x1 (in-place)
I0403 15:12:39.340132 31297 net.cpp:141] Setting up inception_4b/relu_1x1
I0403 15:12:39.340157 31297 net.cpp:148] Top shape: 24 160 14 14 (752640)
I0403 15:12:39.340170 31297 net.cpp:156] Memory required for data: 952225056
I0403 15:12:39.340191 31297 layer_factory.hpp:77] Creating layer inception_4b/3x3_reduce
I0403 15:12:39.340214 31297 net.cpp:91] Creating Layer inception_4b/3x3_reduce
I0403 15:12:39.340229 31297 net.cpp:425] inception_4b/3x3_reduce <- inception_4a/output_inception_4a/output_0_split_2
I0403 15:12:39.340250 31297 net.cpp:399] inception_4b/3x3_reduce -> inception_4b/3x3_reduce
I0403 15:12:39.341555 31297 net.cpp:141] Setting up inception_4b/3x3_reduce
I0403 15:12:39.341586 31297 net.cpp:148] Top shape: 24 112 14 14 (526848)
I0403 15:12:39.341601 31297 net.cpp:156] Memory required for data: 954332448
I0403 15:12:39.341620 31297 layer_factory.hpp:77] Creating layer inception_4b/relu_3x3_reduce
I0403 15:12:39.341639 31297 net.cpp:91] Creating Layer inception_4b/relu_3x3_reduce
I0403 15:12:39.341653 31297 net.cpp:425] inception_4b/relu_3x3_reduce <- inception_4b/3x3_reduce
I0403 15:12:39.341671 31297 net.cpp:386] inception_4b/relu_3x3_reduce -> inception_4b/3x3_reduce (in-place)
I0403 15:12:39.341941 31297 net.cpp:141] Setting up inception_4b/relu_3x3_reduce
I0403 15:12:39.341969 31297 net.cpp:148] Top shape: 24 112 14 14 (526848)
I0403 15:12:39.341989 31297 net.cpp:156] Memory required for data: 956439840
I0403 15:12:39.342003 31297 layer_factory.hpp:77] Creating layer inception_4b/3x3
I0403 15:12:39.342025 31297 net.cpp:91] Creating Layer inception_4b/3x3
I0403 15:12:39.342043 31297 net.cpp:425] inception_4b/3x3 <- inception_4b/3x3_reduce
I0403 15:12:39.342063 31297 net.cpp:399] inception_4b/3x3 -> inception_4b/3x3
I0403 15:12:39.344966 31297 net.cpp:141] Setting up inception_4b/3x3
I0403 15:12:39.344995 31297 net.cpp:148] Top shape: 24 224 14 14 (1053696)
I0403 15:12:39.345010 31297 net.cpp:156] Memory required for data: 960654624
I0403 15:12:39.345028 31297 layer_factory.hpp:77] Creating layer inception_4b/relu_3x3
I0403 15:12:39.345049 31297 net.cpp:91] Creating Layer inception_4b/relu_3x3
I0403 15:12:39.345065 31297 net.cpp:425] inception_4b/relu_3x3 <- inception_4b/3x3
I0403 15:12:39.345083 31297 net.cpp:386] inception_4b/relu_3x3 -> inception_4b/3x3 (in-place)
I0403 15:12:39.345263 31297 net.cpp:141] Setting up inception_4b/relu_3x3
I0403 15:12:39.345295 31297 net.cpp:148] Top shape: 24 224 14 14 (1053696)
I0403 15:12:39.345309 31297 net.cpp:156] Memory required for data: 964869408
I0403 15:12:39.345324 31297 layer_factory.hpp:77] Creating layer inception_4b/5x5_reduce
I0403 15:12:39.345343 31297 net.cpp:91] Creating Layer inception_4b/5x5_reduce
I0403 15:12:39.345360 31297 net.cpp:425] inception_4b/5x5_reduce <- inception_4a/output_inception_4a/output_0_split_3
I0403 15:12:39.345381 31297 net.cpp:399] inception_4b/5x5_reduce -> inception_4b/5x5_reduce
I0403 15:12:39.346444 31297 net.cpp:141] Setting up inception_4b/5x5_reduce
I0403 15:12:39.346473 31297 net.cpp:148] Top shape: 24 24 14 14 (112896)
I0403 15:12:39.346490 31297 net.cpp:156] Memory required for data: 965320992
I0403 15:12:39.346513 31297 layer_factory.hpp:77] Creating layer inception_4b/relu_5x5_reduce
I0403 15:12:39.346531 31297 net.cpp:91] Creating Layer inception_4b/relu_5x5_reduce
I0403 15:12:39.346562 31297 net.cpp:425] inception_4b/relu_5x5_reduce <- inception_4b/5x5_reduce
I0403 15:12:39.346580 31297 net.cpp:386] inception_4b/relu_5x5_reduce -> inception_4b/5x5_reduce (in-place)
I0403 15:12:39.346760 31297 net.cpp:141] Setting up inception_4b/relu_5x5_reduce
I0403 15:12:39.346783 31297 net.cpp:148] Top shape: 24 24 14 14 (112896)
I0403 15:12:39.346797 31297 net.cpp:156] Memory required for data: 965772576
I0403 15:12:39.346812 31297 layer_factory.hpp:77] Creating layer inception_4b/5x5
I0403 15:12:39.346834 31297 net.cpp:91] Creating Layer inception_4b/5x5
I0403 15:12:39.346851 31297 net.cpp:425] inception_4b/5x5 <- inception_4b/5x5_reduce
I0403 15:12:39.346871 31297 net.cpp:399] inception_4b/5x5 -> inception_4b/5x5
I0403 15:12:39.348076 31297 net.cpp:141] Setting up inception_4b/5x5
I0403 15:12:39.348114 31297 net.cpp:148] Top shape: 24 64 14 14 (301056)
I0403 15:12:39.348129 31297 net.cpp:156] Memory required for data: 966976800
I0403 15:12:39.348145 31297 layer_factory.hpp:77] Creating layer inception_4b/relu_5x5
I0403 15:12:39.348165 31297 net.cpp:91] Creating Layer inception_4b/relu_5x5
I0403 15:12:39.348182 31297 net.cpp:425] inception_4b/relu_5x5 <- inception_4b/5x5
I0403 15:12:39.348201 31297 net.cpp:386] inception_4b/relu_5x5 -> inception_4b/5x5 (in-place)
I0403 15:12:39.348492 31297 net.cpp:141] Setting up inception_4b/relu_5x5
I0403 15:12:39.348522 31297 net.cpp:148] Top shape: 24 64 14 14 (301056)
I0403 15:12:39.348537 31297 net.cpp:156] Memory required for data: 968181024
I0403 15:12:39.348553 31297 layer_factory.hpp:77] Creating layer inception_4b/pool
I0403 15:12:39.348577 31297 net.cpp:91] Creating Layer inception_4b/pool
I0403 15:12:39.348594 31297 net.cpp:425] inception_4b/pool <- inception_4a/output_inception_4a/output_0_split_4
I0403 15:12:39.348618 31297 net.cpp:399] inception_4b/pool -> inception_4b/pool
I0403 15:12:39.348682 31297 net.cpp:141] Setting up inception_4b/pool
I0403 15:12:39.348706 31297 net.cpp:148] Top shape: 24 512 14 14 (2408448)
I0403 15:12:39.348719 31297 net.cpp:156] Memory required for data: 977814816
I0403 15:12:39.348734 31297 layer_factory.hpp:77] Creating layer inception_4b/pool_proj
I0403 15:12:39.348757 31297 net.cpp:91] Creating Layer inception_4b/pool_proj
I0403 15:12:39.348775 31297 net.cpp:425] inception_4b/pool_proj <- inception_4b/pool
I0403 15:12:39.348794 31297 net.cpp:399] inception_4b/pool_proj -> inception_4b/pool_proj
I0403 15:12:39.349964 31297 net.cpp:141] Setting up inception_4b/pool_proj
I0403 15:12:39.349992 31297 net.cpp:148] Top shape: 24 64 14 14 (301056)
I0403 15:12:39.350009 31297 net.cpp:156] Memory required for data: 979019040
I0403 15:12:39.350028 31297 layer_factory.hpp:77] Creating layer inception_4b/relu_pool_proj
I0403 15:12:39.350046 31297 net.cpp:91] Creating Layer inception_4b/relu_pool_proj
I0403 15:12:39.350062 31297 net.cpp:425] inception_4b/relu_pool_proj <- inception_4b/pool_proj
I0403 15:12:39.350080 31297 net.cpp:386] inception_4b/relu_pool_proj -> inception_4b/pool_proj (in-place)
I0403 15:12:39.350255 31297 net.cpp:141] Setting up inception_4b/relu_pool_proj
I0403 15:12:39.350281 31297 net.cpp:148] Top shape: 24 64 14 14 (301056)
I0403 15:12:39.350294 31297 net.cpp:156] Memory required for data: 980223264
I0403 15:12:39.350309 31297 layer_factory.hpp:77] Creating layer inception_4b/output
I0403 15:12:39.350327 31297 net.cpp:91] Creating Layer inception_4b/output
I0403 15:12:39.350342 31297 net.cpp:425] inception_4b/output <- inception_4b/1x1
I0403 15:12:39.350358 31297 net.cpp:425] inception_4b/output <- inception_4b/3x3
I0403 15:12:39.350373 31297 net.cpp:425] inception_4b/output <- inception_4b/5x5
I0403 15:12:39.350389 31297 net.cpp:425] inception_4b/output <- inception_4b/pool_proj
I0403 15:12:39.350407 31297 net.cpp:399] inception_4b/output -> inception_4b/output
I0403 15:12:39.350452 31297 net.cpp:141] Setting up inception_4b/output
I0403 15:12:39.350477 31297 net.cpp:148] Top shape: 24 512 14 14 (2408448)
I0403 15:12:39.350492 31297 net.cpp:156] Memory required for data: 989857056
I0403 15:12:39.350525 31297 layer_factory.hpp:77] Creating layer inception_4b/output_inception_4b/output_0_split
I0403 15:12:39.350543 31297 net.cpp:91] Creating Layer inception_4b/output_inception_4b/output_0_split
I0403 15:12:39.350558 31297 net.cpp:425] inception_4b/output_inception_4b/output_0_split <- inception_4b/output
I0403 15:12:39.350579 31297 net.cpp:399] inception_4b/output_inception_4b/output_0_split -> inception_4b/output_inception_4b/output_0_split_0
I0403 15:12:39.350597 31297 net.cpp:399] inception_4b/output_inception_4b/output_0_split -> inception_4b/output_inception_4b/output_0_split_1
I0403 15:12:39.350620 31297 net.cpp:399] inception_4b/output_inception_4b/output_0_split -> inception_4b/output_inception_4b/output_0_split_2
I0403 15:12:39.350641 31297 net.cpp:399] inception_4b/output_inception_4b/output_0_split -> inception_4b/output_inception_4b/output_0_split_3
I0403 15:12:39.350723 31297 net.cpp:141] Setting up inception_4b/output_inception_4b/output_0_split
I0403 15:12:39.350746 31297 net.cpp:148] Top shape: 24 512 14 14 (2408448)
I0403 15:12:39.350762 31297 net.cpp:148] Top shape: 24 512 14 14 (2408448)
I0403 15:12:39.350778 31297 net.cpp:148] Top shape: 24 512 14 14 (2408448)
I0403 15:12:39.350793 31297 net.cpp:148] Top shape: 24 512 14 14 (2408448)
I0403 15:12:39.350806 31297 net.cpp:156] Memory required for data: 1028392224
I0403 15:12:39.350821 31297 layer_factory.hpp:77] Creating layer inception_4c/1x1
I0403 15:12:39.350842 31297 net.cpp:91] Creating Layer inception_4c/1x1
I0403 15:12:39.350859 31297 net.cpp:425] inception_4c/1x1 <- inception_4b/output_inception_4b/output_0_split_0
I0403 15:12:39.350879 31297 net.cpp:399] inception_4c/1x1 -> inception_4c/1x1
I0403 15:12:39.352267 31297 net.cpp:141] Setting up inception_4c/1x1
I0403 15:12:39.352293 31297 net.cpp:148] Top shape: 24 128 14 14 (602112)
I0403 15:12:39.352308 31297 net.cpp:156] Memory required for data: 1030800672
I0403 15:12:39.352326 31297 layer_factory.hpp:77] Creating layer inception_4c/relu_1x1
I0403 15:12:39.352344 31297 net.cpp:91] Creating Layer inception_4c/relu_1x1
I0403 15:12:39.352360 31297 net.cpp:425] inception_4c/relu_1x1 <- inception_4c/1x1
I0403 15:12:39.352380 31297 net.cpp:386] inception_4c/relu_1x1 -> inception_4c/1x1 (in-place)
I0403 15:12:39.352557 31297 net.cpp:141] Setting up inception_4c/relu_1x1
I0403 15:12:39.352583 31297 net.cpp:148] Top shape: 24 128 14 14 (602112)
I0403 15:12:39.352597 31297 net.cpp:156] Memory required for data: 1033209120
I0403 15:12:39.352612 31297 layer_factory.hpp:77] Creating layer inception_4c/3x3_reduce
I0403 15:12:39.352633 31297 net.cpp:91] Creating Layer inception_4c/3x3_reduce
I0403 15:12:39.352650 31297 net.cpp:425] inception_4c/3x3_reduce <- inception_4b/output_inception_4b/output_0_split_1
I0403 15:12:39.352674 31297 net.cpp:399] inception_4c/3x3_reduce -> inception_4c/3x3_reduce
I0403 15:12:39.354579 31297 net.cpp:141] Setting up inception_4c/3x3_reduce
I0403 15:12:39.354609 31297 net.cpp:148] Top shape: 24 128 14 14 (602112)
I0403 15:12:39.354626 31297 net.cpp:156] Memory required for data: 1035617568
I0403 15:12:39.354645 31297 layer_factory.hpp:77] Creating layer inception_4c/relu_3x3_reduce
I0403 15:12:39.354662 31297 net.cpp:91] Creating Layer inception_4c/relu_3x3_reduce
I0403 15:12:39.354678 31297 net.cpp:425] inception_4c/relu_3x3_reduce <- inception_4c/3x3_reduce
I0403 15:12:39.354696 31297 net.cpp:386] inception_4c/relu_3x3_reduce -> inception_4c/3x3_reduce (in-place)
I0403 15:12:39.354974 31297 net.cpp:141] Setting up inception_4c/relu_3x3_reduce
I0403 15:12:39.355000 31297 net.cpp:148] Top shape: 24 128 14 14 (602112)
I0403 15:12:39.355018 31297 net.cpp:156] Memory required for data: 1038026016
I0403 15:12:39.355032 31297 layer_factory.hpp:77] Creating layer inception_4c/3x3
I0403 15:12:39.355053 31297 net.cpp:91] Creating Layer inception_4c/3x3
I0403 15:12:39.355069 31297 net.cpp:425] inception_4c/3x3 <- inception_4c/3x3_reduce
I0403 15:12:39.355090 31297 net.cpp:399] inception_4c/3x3 -> inception_4c/3x3
I0403 15:12:39.358600 31297 net.cpp:141] Setting up inception_4c/3x3
I0403 15:12:39.358640 31297 net.cpp:148] Top shape: 24 256 14 14 (1204224)
I0403 15:12:39.358656 31297 net.cpp:156] Memory required for data: 1042842912
I0403 15:12:39.358690 31297 layer_factory.hpp:77] Creating layer inception_4c/relu_3x3
I0403 15:12:39.358711 31297 net.cpp:91] Creating Layer inception_4c/relu_3x3
I0403 15:12:39.358726 31297 net.cpp:425] inception_4c/relu_3x3 <- inception_4c/3x3
I0403 15:12:39.358743 31297 net.cpp:386] inception_4c/relu_3x3 -> inception_4c/3x3 (in-place)
I0403 15:12:39.358921 31297 net.cpp:141] Setting up inception_4c/relu_3x3
I0403 15:12:39.358947 31297 net.cpp:148] Top shape: 24 256 14 14 (1204224)
I0403 15:12:39.358963 31297 net.cpp:156] Memory required for data: 1047659808
I0403 15:12:39.358978 31297 layer_factory.hpp:77] Creating layer inception_4c/5x5_reduce
I0403 15:12:39.359000 31297 net.cpp:91] Creating Layer inception_4c/5x5_reduce
I0403 15:12:39.359019 31297 net.cpp:425] inception_4c/5x5_reduce <- inception_4b/output_inception_4b/output_0_split_2
I0403 15:12:39.359037 31297 net.cpp:399] inception_4c/5x5_reduce -> inception_4c/5x5_reduce
I0403 15:12:39.360096 31297 net.cpp:141] Setting up inception_4c/5x5_reduce
I0403 15:12:39.360126 31297 net.cpp:148] Top shape: 24 24 14 14 (112896)
I0403 15:12:39.360142 31297 net.cpp:156] Memory required for data: 1048111392
I0403 15:12:39.360160 31297 layer_factory.hpp:77] Creating layer inception_4c/relu_5x5_reduce
I0403 15:12:39.360178 31297 net.cpp:91] Creating Layer inception_4c/relu_5x5_reduce
I0403 15:12:39.360194 31297 net.cpp:425] inception_4c/relu_5x5_reduce <- inception_4c/5x5_reduce
I0403 15:12:39.360210 31297 net.cpp:386] inception_4c/relu_5x5_reduce -> inception_4c/5x5_reduce (in-place)
I0403 15:12:39.360393 31297 net.cpp:141] Setting up inception_4c/relu_5x5_reduce
I0403 15:12:39.360416 31297 net.cpp:148] Top shape: 24 24 14 14 (112896)
I0403 15:12:39.360431 31297 net.cpp:156] Memory required for data: 1048562976
I0403 15:12:39.360445 31297 layer_factory.hpp:77] Creating layer inception_4c/5x5
I0403 15:12:39.360467 31297 net.cpp:91] Creating Layer inception_4c/5x5
I0403 15:12:39.360484 31297 net.cpp:425] inception_4c/5x5 <- inception_4c/5x5_reduce
I0403 15:12:39.360508 31297 net.cpp:399] inception_4c/5x5 -> inception_4c/5x5
I0403 15:12:39.361726 31297 net.cpp:141] Setting up inception_4c/5x5
I0403 15:12:39.361752 31297 net.cpp:148] Top shape: 24 64 14 14 (301056)
I0403 15:12:39.361768 31297 net.cpp:156] Memory required for data: 1049767200
I0403 15:12:39.361785 31297 layer_factory.hpp:77] Creating layer inception_4c/relu_5x5
I0403 15:12:39.361804 31297 net.cpp:91] Creating Layer inception_4c/relu_5x5
I0403 15:12:39.361820 31297 net.cpp:425] inception_4c/relu_5x5 <- inception_4c/5x5
I0403 15:12:39.361840 31297 net.cpp:386] inception_4c/relu_5x5 -> inception_4c/5x5 (in-place)
I0403 15:12:39.362123 31297 net.cpp:141] Setting up inception_4c/relu_5x5
I0403 15:12:39.362149 31297 net.cpp:148] Top shape: 24 64 14 14 (301056)
I0403 15:12:39.362164 31297 net.cpp:156] Memory required for data: 1050971424
I0403 15:12:39.362179 31297 layer_factory.hpp:77] Creating layer inception_4c/pool
I0403 15:12:39.362196 31297 net.cpp:91] Creating Layer inception_4c/pool
I0403 15:12:39.362212 31297 net.cpp:425] inception_4c/pool <- inception_4b/output_inception_4b/output_0_split_3
I0403 15:12:39.362232 31297 net.cpp:399] inception_4c/pool -> inception_4c/pool
I0403 15:12:39.362295 31297 net.cpp:141] Setting up inception_4c/pool
I0403 15:12:39.362318 31297 net.cpp:148] Top shape: 24 512 14 14 (2408448)
I0403 15:12:39.362332 31297 net.cpp:156] Memory required for data: 1060605216
I0403 15:12:39.362347 31297 layer_factory.hpp:77] Creating layer inception_4c/pool_proj
I0403 15:12:39.362370 31297 net.cpp:91] Creating Layer inception_4c/pool_proj
I0403 15:12:39.362387 31297 net.cpp:425] inception_4c/pool_proj <- inception_4c/pool
I0403 15:12:39.362406 31297 net.cpp:399] inception_4c/pool_proj -> inception_4c/pool_proj
I0403 15:12:39.363621 31297 net.cpp:141] Setting up inception_4c/pool_proj
I0403 15:12:39.363648 31297 net.cpp:148] Top shape: 24 64 14 14 (301056)
I0403 15:12:39.363677 31297 net.cpp:156] Memory required for data: 1061809440
I0403 15:12:39.363698 31297 layer_factory.hpp:77] Creating layer inception_4c/relu_pool_proj
I0403 15:12:39.363718 31297 net.cpp:91] Creating Layer inception_4c/relu_pool_proj
I0403 15:12:39.363732 31297 net.cpp:425] inception_4c/relu_pool_proj <- inception_4c/pool_proj
I0403 15:12:39.363749 31297 net.cpp:386] inception_4c/relu_pool_proj -> inception_4c/pool_proj (in-place)
I0403 15:12:39.363929 31297 net.cpp:141] Setting up inception_4c/relu_pool_proj
I0403 15:12:39.363953 31297 net.cpp:148] Top shape: 24 64 14 14 (301056)
I0403 15:12:39.363967 31297 net.cpp:156] Memory required for data: 1063013664
I0403 15:12:39.363981 31297 layer_factory.hpp:77] Creating layer inception_4c/output
I0403 15:12:39.363998 31297 net.cpp:91] Creating Layer inception_4c/output
I0403 15:12:39.364013 31297 net.cpp:425] inception_4c/output <- inception_4c/1x1
I0403 15:12:39.364029 31297 net.cpp:425] inception_4c/output <- inception_4c/3x3
I0403 15:12:39.364044 31297 net.cpp:425] inception_4c/output <- inception_4c/5x5
I0403 15:12:39.364060 31297 net.cpp:425] inception_4c/output <- inception_4c/pool_proj
I0403 15:12:39.364078 31297 net.cpp:399] inception_4c/output -> inception_4c/output
I0403 15:12:39.364123 31297 net.cpp:141] Setting up inception_4c/output
I0403 15:12:39.364148 31297 net.cpp:148] Top shape: 24 512 14 14 (2408448)
I0403 15:12:39.364163 31297 net.cpp:156] Memory required for data: 1072647456
I0403 15:12:39.364178 31297 layer_factory.hpp:77] Creating layer inception_4c/output_inception_4c/output_0_split
I0403 15:12:39.364194 31297 net.cpp:91] Creating Layer inception_4c/output_inception_4c/output_0_split
I0403 15:12:39.364209 31297 net.cpp:425] inception_4c/output_inception_4c/output_0_split <- inception_4c/output
I0403 15:12:39.364226 31297 net.cpp:399] inception_4c/output_inception_4c/output_0_split -> inception_4c/output_inception_4c/output_0_split_0
I0403 15:12:39.364245 31297 net.cpp:399] inception_4c/output_inception_4c/output_0_split -> inception_4c/output_inception_4c/output_0_split_1
I0403 15:12:39.364267 31297 net.cpp:399] inception_4c/output_inception_4c/output_0_split -> inception_4c/output_inception_4c/output_0_split_2
I0403 15:12:39.364287 31297 net.cpp:399] inception_4c/output_inception_4c/output_0_split -> inception_4c/output_inception_4c/output_0_split_3
I0403 15:12:39.364372 31297 net.cpp:141] Setting up inception_4c/output_inception_4c/output_0_split
I0403 15:12:39.364393 31297 net.cpp:148] Top shape: 24 512 14 14 (2408448)
I0403 15:12:39.364409 31297 net.cpp:148] Top shape: 24 512 14 14 (2408448)
I0403 15:12:39.364424 31297 net.cpp:148] Top shape: 24 512 14 14 (2408448)
I0403 15:12:39.364439 31297 net.cpp:148] Top shape: 24 512 14 14 (2408448)
I0403 15:12:39.364452 31297 net.cpp:156] Memory required for data: 1111182624
I0403 15:12:39.364466 31297 layer_factory.hpp:77] Creating layer inception_4d/1x1
I0403 15:12:39.364487 31297 net.cpp:91] Creating Layer inception_4d/1x1
I0403 15:12:39.364516 31297 net.cpp:425] inception_4d/1x1 <- inception_4c/output_inception_4c/output_0_split_0
I0403 15:12:39.364537 31297 net.cpp:399] inception_4d/1x1 -> inception_4d/1x1
I0403 15:12:39.365902 31297 net.cpp:141] Setting up inception_4d/1x1
I0403 15:12:39.365931 31297 net.cpp:148] Top shape: 24 112 14 14 (526848)
I0403 15:12:39.365945 31297 net.cpp:156] Memory required for data: 1113290016
I0403 15:12:39.365964 31297 layer_factory.hpp:77] Creating layer inception_4d/relu_1x1
I0403 15:12:39.365984 31297 net.cpp:91] Creating Layer inception_4d/relu_1x1
I0403 15:12:39.366003 31297 net.cpp:425] inception_4d/relu_1x1 <- inception_4d/1x1
I0403 15:12:39.366019 31297 net.cpp:386] inception_4d/relu_1x1 -> inception_4d/1x1 (in-place)
I0403 15:12:39.366204 31297 net.cpp:141] Setting up inception_4d/relu_1x1
I0403 15:12:39.366231 31297 net.cpp:148] Top shape: 24 112 14 14 (526848)
I0403 15:12:39.366247 31297 net.cpp:156] Memory required for data: 1115397408
I0403 15:12:39.366262 31297 layer_factory.hpp:77] Creating layer inception_4d/3x3_reduce
I0403 15:12:39.366298 31297 net.cpp:91] Creating Layer inception_4d/3x3_reduce
I0403 15:12:39.366317 31297 net.cpp:425] inception_4d/3x3_reduce <- inception_4c/output_inception_4c/output_0_split_1
I0403 15:12:39.366335 31297 net.cpp:399] inception_4d/3x3_reduce -> inception_4d/3x3_reduce
I0403 15:12:39.367866 31297 net.cpp:141] Setting up inception_4d/3x3_reduce
I0403 15:12:39.367894 31297 net.cpp:148] Top shape: 24 144 14 14 (677376)
I0403 15:12:39.367909 31297 net.cpp:156] Memory required for data: 1118106912
I0403 15:12:39.367928 31297 layer_factory.hpp:77] Creating layer inception_4d/relu_3x3_reduce
I0403 15:12:39.367949 31297 net.cpp:91] Creating Layer inception_4d/relu_3x3_reduce
I0403 15:12:39.367965 31297 net.cpp:425] inception_4d/relu_3x3_reduce <- inception_4d/3x3_reduce
I0403 15:12:39.367982 31297 net.cpp:386] inception_4d/relu_3x3_reduce -> inception_4d/3x3_reduce (in-place)
I0403 15:12:39.368276 31297 net.cpp:141] Setting up inception_4d/relu_3x3_reduce
I0403 15:12:39.368304 31297 net.cpp:148] Top shape: 24 144 14 14 (677376)
I0403 15:12:39.368319 31297 net.cpp:156] Memory required for data: 1120816416
I0403 15:12:39.368335 31297 layer_factory.hpp:77] Creating layer inception_4d/3x3
I0403 15:12:39.368357 31297 net.cpp:91] Creating Layer inception_4d/3x3
I0403 15:12:39.368378 31297 net.cpp:425] inception_4d/3x3 <- inception_4d/3x3_reduce
I0403 15:12:39.368401 31297 net.cpp:399] inception_4d/3x3 -> inception_4d/3x3
I0403 15:12:39.372665 31297 net.cpp:141] Setting up inception_4d/3x3
I0403 15:12:39.372696 31297 net.cpp:148] Top shape: 24 288 14 14 (1354752)
I0403 15:12:39.372714 31297 net.cpp:156] Memory required for data: 1126235424
I0403 15:12:39.372731 31297 layer_factory.hpp:77] Creating layer inception_4d/relu_3x3
I0403 15:12:39.372752 31297 net.cpp:91] Creating Layer inception_4d/relu_3x3
I0403 15:12:39.372769 31297 net.cpp:425] inception_4d/relu_3x3 <- inception_4d/3x3
I0403 15:12:39.372787 31297 net.cpp:386] inception_4d/relu_3x3 -> inception_4d/3x3 (in-place)
I0403 15:12:39.372972 31297 net.cpp:141] Setting up inception_4d/relu_3x3
I0403 15:12:39.373000 31297 net.cpp:148] Top shape: 24 288 14 14 (1354752)
I0403 15:12:39.373016 31297 net.cpp:156] Memory required for data: 1131654432
I0403 15:12:39.373031 31297 layer_factory.hpp:77] Creating layer inception_4d/5x5_reduce
I0403 15:12:39.373054 31297 net.cpp:91] Creating Layer inception_4d/5x5_reduce
I0403 15:12:39.373070 31297 net.cpp:425] inception_4d/5x5_reduce <- inception_4c/output_inception_4c/output_0_split_2
I0403 15:12:39.373090 31297 net.cpp:399] inception_4d/5x5_reduce -> inception_4d/5x5_reduce
I0403 15:12:39.374260 31297 net.cpp:141] Setting up inception_4d/5x5_reduce
I0403 15:12:39.374289 31297 net.cpp:148] Top shape: 24 32 14 14 (150528)
I0403 15:12:39.374307 31297 net.cpp:156] Memory required for data: 1132256544
I0403 15:12:39.374326 31297 layer_factory.hpp:77] Creating layer inception_4d/relu_5x5_reduce
I0403 15:12:39.374347 31297 net.cpp:91] Creating Layer inception_4d/relu_5x5_reduce
I0403 15:12:39.374364 31297 net.cpp:425] inception_4d/relu_5x5_reduce <- inception_4d/5x5_reduce
I0403 15:12:39.374382 31297 net.cpp:386] inception_4d/relu_5x5_reduce -> inception_4d/5x5_reduce (in-place)
I0403 15:12:39.374577 31297 net.cpp:141] Setting up inception_4d/relu_5x5_reduce
I0403 15:12:39.374605 31297 net.cpp:148] Top shape: 24 32 14 14 (150528)
I0403 15:12:39.374621 31297 net.cpp:156] Memory required for data: 1132858656
I0403 15:12:39.374636 31297 layer_factory.hpp:77] Creating layer inception_4d/5x5
I0403 15:12:39.374658 31297 net.cpp:91] Creating Layer inception_4d/5x5
I0403 15:12:39.374675 31297 net.cpp:425] inception_4d/5x5 <- inception_4d/5x5_reduce
I0403 15:12:39.374694 31297 net.cpp:399] inception_4d/5x5 -> inception_4d/5x5
I0403 15:12:39.376263 31297 net.cpp:141] Setting up inception_4d/5x5
I0403 15:12:39.376293 31297 net.cpp:148] Top shape: 24 64 14 14 (301056)
I0403 15:12:39.376308 31297 net.cpp:156] Memory required for data: 1134062880
I0403 15:12:39.376327 31297 layer_factory.hpp:77] Creating layer inception_4d/relu_5x5
I0403 15:12:39.376360 31297 net.cpp:91] Creating Layer inception_4d/relu_5x5
I0403 15:12:39.376379 31297 net.cpp:425] inception_4d/relu_5x5 <- inception_4d/5x5
I0403 15:12:39.376399 31297 net.cpp:386] inception_4d/relu_5x5 -> inception_4d/5x5 (in-place)
I0403 15:12:39.376711 31297 net.cpp:141] Setting up inception_4d/relu_5x5
I0403 15:12:39.376739 31297 net.cpp:148] Top shape: 24 64 14 14 (301056)
I0403 15:12:39.376754 31297 net.cpp:156] Memory required for data: 1135267104
I0403 15:12:39.376770 31297 layer_factory.hpp:77] Creating layer inception_4d/pool
I0403 15:12:39.376787 31297 net.cpp:91] Creating Layer inception_4d/pool
I0403 15:12:39.376803 31297 net.cpp:425] inception_4d/pool <- inception_4c/output_inception_4c/output_0_split_3
I0403 15:12:39.376824 31297 net.cpp:399] inception_4d/pool -> inception_4d/pool
I0403 15:12:39.376891 31297 net.cpp:141] Setting up inception_4d/pool
I0403 15:12:39.376915 31297 net.cpp:148] Top shape: 24 512 14 14 (2408448)
I0403 15:12:39.376930 31297 net.cpp:156] Memory required for data: 1144900896
I0403 15:12:39.376946 31297 layer_factory.hpp:77] Creating layer inception_4d/pool_proj
I0403 15:12:39.376971 31297 net.cpp:91] Creating Layer inception_4d/pool_proj
I0403 15:12:39.376988 31297 net.cpp:425] inception_4d/pool_proj <- inception_4d/pool
I0403 15:12:39.377007 31297 net.cpp:399] inception_4d/pool_proj -> inception_4d/pool_proj
I0403 15:12:39.378792 31297 net.cpp:141] Setting up inception_4d/pool_proj
I0403 15:12:39.378821 31297 net.cpp:148] Top shape: 24 64 14 14 (301056)
I0403 15:12:39.378836 31297 net.cpp:156] Memory required for data: 1146105120
I0403 15:12:39.378855 31297 layer_factory.hpp:77] Creating layer inception_4d/relu_pool_proj
I0403 15:12:39.378875 31297 net.cpp:91] Creating Layer inception_4d/relu_pool_proj
I0403 15:12:39.378893 31297 net.cpp:425] inception_4d/relu_pool_proj <- inception_4d/pool_proj
I0403 15:12:39.378911 31297 net.cpp:386] inception_4d/relu_pool_proj -> inception_4d/pool_proj (in-place)
I0403 15:12:39.379096 31297 net.cpp:141] Setting up inception_4d/relu_pool_proj
I0403 15:12:39.379123 31297 net.cpp:148] Top shape: 24 64 14 14 (301056)
I0403 15:12:39.379138 31297 net.cpp:156] Memory required for data: 1147309344
I0403 15:12:39.379153 31297 layer_factory.hpp:77] Creating layer inception_4d/output
I0403 15:12:39.379171 31297 net.cpp:91] Creating Layer inception_4d/output
I0403 15:12:39.379189 31297 net.cpp:425] inception_4d/output <- inception_4d/1x1
I0403 15:12:39.379205 31297 net.cpp:425] inception_4d/output <- inception_4d/3x3
I0403 15:12:39.379222 31297 net.cpp:425] inception_4d/output <- inception_4d/5x5
I0403 15:12:39.379237 31297 net.cpp:425] inception_4d/output <- inception_4d/pool_proj
I0403 15:12:39.379254 31297 net.cpp:399] inception_4d/output -> inception_4d/output
I0403 15:12:39.379304 31297 net.cpp:141] Setting up inception_4d/output
I0403 15:12:39.379328 31297 net.cpp:148] Top shape: 24 528 14 14 (2483712)
I0403 15:12:39.379343 31297 net.cpp:156] Memory required for data: 1157244192
I0403 15:12:39.379356 31297 layer_factory.hpp:77] Creating layer inception_4d/output_inception_4d/output_0_split
I0403 15:12:39.379376 31297 net.cpp:91] Creating Layer inception_4d/output_inception_4d/output_0_split
I0403 15:12:39.379393 31297 net.cpp:425] inception_4d/output_inception_4d/output_0_split <- inception_4d/output
I0403 15:12:39.379411 31297 net.cpp:399] inception_4d/output_inception_4d/output_0_split -> inception_4d/output_inception_4d/output_0_split_0
I0403 15:12:39.379432 31297 net.cpp:399] inception_4d/output_inception_4d/output_0_split -> inception_4d/output_inception_4d/output_0_split_1
I0403 15:12:39.379456 31297 net.cpp:399] inception_4d/output_inception_4d/output_0_split -> inception_4d/output_inception_4d/output_0_split_2
I0403 15:12:39.379478 31297 net.cpp:399] inception_4d/output_inception_4d/output_0_split -> inception_4d/output_inception_4d/output_0_split_3
I0403 15:12:39.379498 31297 net.cpp:399] inception_4d/output_inception_4d/output_0_split -> inception_4d/output_inception_4d/output_0_split_4
I0403 15:12:39.379604 31297 net.cpp:141] Setting up inception_4d/output_inception_4d/output_0_split
I0403 15:12:39.379640 31297 net.cpp:148] Top shape: 24 528 14 14 (2483712)
I0403 15:12:39.379658 31297 net.cpp:148] Top shape: 24 528 14 14 (2483712)
I0403 15:12:39.379674 31297 net.cpp:148] Top shape: 24 528 14 14 (2483712)
I0403 15:12:39.379690 31297 net.cpp:148] Top shape: 24 528 14 14 (2483712)
I0403 15:12:39.379706 31297 net.cpp:148] Top shape: 24 528 14 14 (2483712)
I0403 15:12:39.379720 31297 net.cpp:156] Memory required for data: 1206918432
I0403 15:12:39.379734 31297 layer_factory.hpp:77] Creating layer loss2/ave_pool
I0403 15:12:39.379752 31297 net.cpp:91] Creating Layer loss2/ave_pool
I0403 15:12:39.379768 31297 net.cpp:425] loss2/ave_pool <- inception_4d/output_inception_4d/output_0_split_0
I0403 15:12:39.379789 31297 net.cpp:399] loss2/ave_pool -> loss2/ave_pool
I0403 15:12:39.380100 31297 net.cpp:141] Setting up loss2/ave_pool
I0403 15:12:39.380126 31297 net.cpp:148] Top shape: 24 528 4 4 (202752)
I0403 15:12:39.380141 31297 net.cpp:156] Memory required for data: 1207729440
I0403 15:12:39.380156 31297 layer_factory.hpp:77] Creating layer loss2/conv
I0403 15:12:39.380179 31297 net.cpp:91] Creating Layer loss2/conv
I0403 15:12:39.380198 31297 net.cpp:425] loss2/conv <- loss2/ave_pool
I0403 15:12:39.380218 31297 net.cpp:399] loss2/conv -> loss2/conv
I0403 15:12:39.382125 31297 net.cpp:141] Setting up loss2/conv
I0403 15:12:39.382156 31297 net.cpp:148] Top shape: 24 128 4 4 (49152)
I0403 15:12:39.382174 31297 net.cpp:156] Memory required for data: 1207926048
I0403 15:12:39.382191 31297 layer_factory.hpp:77] Creating layer loss2/relu_conv
I0403 15:12:39.382210 31297 net.cpp:91] Creating Layer loss2/relu_conv
I0403 15:12:39.382227 31297 net.cpp:425] loss2/relu_conv <- loss2/conv
I0403 15:12:39.382247 31297 net.cpp:386] loss2/relu_conv -> loss2/conv (in-place)
I0403 15:12:39.382540 31297 net.cpp:141] Setting up loss2/relu_conv
I0403 15:12:39.382570 31297 net.cpp:148] Top shape: 24 128 4 4 (49152)
I0403 15:12:39.382586 31297 net.cpp:156] Memory required for data: 1208122656
I0403 15:12:39.382601 31297 layer_factory.hpp:77] Creating layer loss2/fc
I0403 15:12:39.382618 31297 net.cpp:91] Creating Layer loss2/fc
I0403 15:12:39.382635 31297 net.cpp:425] loss2/fc <- loss2/conv
I0403 15:12:39.382658 31297 net.cpp:399] loss2/fc -> loss2/fc
I0403 15:12:39.399904 31297 net.cpp:141] Setting up loss2/fc
I0403 15:12:39.399940 31297 net.cpp:148] Top shape: 24 1024 (24576)
I0403 15:12:39.399955 31297 net.cpp:156] Memory required for data: 1208220960
I0403 15:12:39.399972 31297 layer_factory.hpp:77] Creating layer loss2/relu_fc
I0403 15:12:39.399992 31297 net.cpp:91] Creating Layer loss2/relu_fc
I0403 15:12:39.400010 31297 net.cpp:425] loss2/relu_fc <- loss2/fc
I0403 15:12:39.400027 31297 net.cpp:386] loss2/relu_fc -> loss2/fc (in-place)
I0403 15:12:39.400320 31297 net.cpp:141] Setting up loss2/relu_fc
I0403 15:12:39.400346 31297 net.cpp:148] Top shape: 24 1024 (24576)
I0403 15:12:39.400359 31297 net.cpp:156] Memory required for data: 1208319264
I0403 15:12:39.400374 31297 layer_factory.hpp:77] Creating layer loss2/drop_fc
I0403 15:12:39.400396 31297 net.cpp:91] Creating Layer loss2/drop_fc
I0403 15:12:39.400413 31297 net.cpp:425] loss2/drop_fc <- loss2/fc
I0403 15:12:39.400431 31297 net.cpp:386] loss2/drop_fc -> loss2/fc (in-place)
I0403 15:12:39.400481 31297 net.cpp:141] Setting up loss2/drop_fc
I0403 15:12:39.400507 31297 net.cpp:148] Top shape: 24 1024 (24576)
I0403 15:12:39.400523 31297 net.cpp:156] Memory required for data: 1208417568
I0403 15:12:39.400537 31297 layer_factory.hpp:77] Creating layer loss2/classifier_plantvillage
I0403 15:12:39.400559 31297 net.cpp:91] Creating Layer loss2/classifier_plantvillage
I0403 15:12:39.400578 31297 net.cpp:425] loss2/classifier_plantvillage <- loss2/fc
I0403 15:12:39.400594 31297 net.cpp:399] loss2/classifier_plantvillage -> loss2/classifier_plantvillage
I0403 15:12:39.400988 31297 net.cpp:141] Setting up loss2/classifier_plantvillage
I0403 15:12:39.401013 31297 net.cpp:148] Top shape: 24 38 (912)
I0403 15:12:39.401043 31297 net.cpp:156] Memory required for data: 1208421216
I0403 15:12:39.401062 31297 layer_factory.hpp:77] Creating layer loss2/classifier_plantvillage_loss2/classifier_plantvillage_0_split
I0403 15:12:39.401079 31297 net.cpp:91] Creating Layer loss2/classifier_plantvillage_loss2/classifier_plantvillage_0_split
I0403 15:12:39.401095 31297 net.cpp:425] loss2/classifier_plantvillage_loss2/classifier_plantvillage_0_split <- loss2/classifier_plantvillage
I0403 15:12:39.401114 31297 net.cpp:399] loss2/classifier_plantvillage_loss2/classifier_plantvillage_0_split -> loss2/classifier_plantvillage_loss2/classifier_plantvillage_0_split_0
I0403 15:12:39.401136 31297 net.cpp:399] loss2/classifier_plantvillage_loss2/classifier_plantvillage_0_split -> loss2/classifier_plantvillage_loss2/classifier_plantvillage_0_split_1
I0403 15:12:39.401155 31297 net.cpp:399] loss2/classifier_plantvillage_loss2/classifier_plantvillage_0_split -> loss2/classifier_plantvillage_loss2/classifier_plantvillage_0_split_2
I0403 15:12:39.401231 31297 net.cpp:141] Setting up loss2/classifier_plantvillage_loss2/classifier_plantvillage_0_split
I0403 15:12:39.401254 31297 net.cpp:148] Top shape: 24 38 (912)
I0403 15:12:39.401271 31297 net.cpp:148] Top shape: 24 38 (912)
I0403 15:12:39.401286 31297 net.cpp:148] Top shape: 24 38 (912)
I0403 15:12:39.401306 31297 net.cpp:156] Memory required for data: 1208432160
I0403 15:12:39.401321 31297 layer_factory.hpp:77] Creating layer inception_4e/1x1
I0403 15:12:39.401341 31297 net.cpp:91] Creating Layer inception_4e/1x1
I0403 15:12:39.401358 31297 net.cpp:425] inception_4e/1x1 <- inception_4d/output_inception_4d/output_0_split_1
I0403 15:12:39.401376 31297 net.cpp:399] inception_4e/1x1 -> inception_4e/1x1
I0403 15:12:39.403151 31297 net.cpp:141] Setting up inception_4e/1x1
I0403 15:12:39.403179 31297 net.cpp:148] Top shape: 24 256 14 14 (1204224)
I0403 15:12:39.403194 31297 net.cpp:156] Memory required for data: 1213249056
I0403 15:12:39.403213 31297 layer_factory.hpp:77] Creating layer inception_4e/relu_1x1
I0403 15:12:39.403242 31297 net.cpp:91] Creating Layer inception_4e/relu_1x1
I0403 15:12:39.403259 31297 net.cpp:425] inception_4e/relu_1x1 <- inception_4e/1x1
I0403 15:12:39.403278 31297 net.cpp:386] inception_4e/relu_1x1 -> inception_4e/1x1 (in-place)
I0403 15:12:39.403600 31297 net.cpp:141] Setting up inception_4e/relu_1x1
I0403 15:12:39.403626 31297 net.cpp:148] Top shape: 24 256 14 14 (1204224)
I0403 15:12:39.403641 31297 net.cpp:156] Memory required for data: 1218065952
I0403 15:12:39.403656 31297 layer_factory.hpp:77] Creating layer inception_4e/3x3_reduce
I0403 15:12:39.403678 31297 net.cpp:91] Creating Layer inception_4e/3x3_reduce
I0403 15:12:39.403707 31297 net.cpp:425] inception_4e/3x3_reduce <- inception_4d/output_inception_4d/output_0_split_2
I0403 15:12:39.403728 31297 net.cpp:399] inception_4e/3x3_reduce -> inception_4e/3x3_reduce
I0403 15:12:39.405814 31297 net.cpp:141] Setting up inception_4e/3x3_reduce
I0403 15:12:39.405844 31297 net.cpp:148] Top shape: 24 160 14 14 (752640)
I0403 15:12:39.405861 31297 net.cpp:156] Memory required for data: 1221076512
I0403 15:12:39.405879 31297 layer_factory.hpp:77] Creating layer inception_4e/relu_3x3_reduce
I0403 15:12:39.405897 31297 net.cpp:91] Creating Layer inception_4e/relu_3x3_reduce
I0403 15:12:39.405913 31297 net.cpp:425] inception_4e/relu_3x3_reduce <- inception_4e/3x3_reduce
I0403 15:12:39.405932 31297 net.cpp:386] inception_4e/relu_3x3_reduce -> inception_4e/3x3_reduce (in-place)
I0403 15:12:39.406113 31297 net.cpp:141] Setting up inception_4e/relu_3x3_reduce
I0403 15:12:39.406138 31297 net.cpp:148] Top shape: 24 160 14 14 (752640)
I0403 15:12:39.406152 31297 net.cpp:156] Memory required for data: 1224087072
I0403 15:12:39.406167 31297 layer_factory.hpp:77] Creating layer inception_4e/3x3
I0403 15:12:39.406189 31297 net.cpp:91] Creating Layer inception_4e/3x3
I0403 15:12:39.406206 31297 net.cpp:425] inception_4e/3x3 <- inception_4e/3x3_reduce
I0403 15:12:39.406229 31297 net.cpp:399] inception_4e/3x3 -> inception_4e/3x3
I0403 15:12:39.411322 31297 net.cpp:141] Setting up inception_4e/3x3
I0403 15:12:39.411362 31297 net.cpp:148] Top shape: 24 320 14 14 (1505280)
I0403 15:12:39.411378 31297 net.cpp:156] Memory required for data: 1230108192
I0403 15:12:39.411396 31297 layer_factory.hpp:77] Creating layer inception_4e/relu_3x3
I0403 15:12:39.411414 31297 net.cpp:91] Creating Layer inception_4e/relu_3x3
I0403 15:12:39.411430 31297 net.cpp:425] inception_4e/relu_3x3 <- inception_4e/3x3
I0403 15:12:39.411450 31297 net.cpp:386] inception_4e/relu_3x3 -> inception_4e/3x3 (in-place)
I0403 15:12:39.411749 31297 net.cpp:141] Setting up inception_4e/relu_3x3
I0403 15:12:39.411775 31297 net.cpp:148] Top shape: 24 320 14 14 (1505280)
I0403 15:12:39.411790 31297 net.cpp:156] Memory required for data: 1236129312
I0403 15:12:39.411805 31297 layer_factory.hpp:77] Creating layer inception_4e/5x5_reduce
I0403 15:12:39.411829 31297 net.cpp:91] Creating Layer inception_4e/5x5_reduce
I0403 15:12:39.411846 31297 net.cpp:425] inception_4e/5x5_reduce <- inception_4d/output_inception_4d/output_0_split_3
I0403 15:12:39.411869 31297 net.cpp:399] inception_4e/5x5_reduce -> inception_4e/5x5_reduce
I0403 15:12:39.412914 31297 net.cpp:141] Setting up inception_4e/5x5_reduce
I0403 15:12:39.412942 31297 net.cpp:148] Top shape: 24 32 14 14 (150528)
I0403 15:12:39.412957 31297 net.cpp:156] Memory required for data: 1236731424
I0403 15:12:39.412976 31297 layer_factory.hpp:77] Creating layer inception_4e/relu_5x5_reduce
I0403 15:12:39.412994 31297 net.cpp:91] Creating Layer inception_4e/relu_5x5_reduce
I0403 15:12:39.413010 31297 net.cpp:425] inception_4e/relu_5x5_reduce <- inception_4e/5x5_reduce
I0403 15:12:39.413029 31297 net.cpp:386] inception_4e/relu_5x5_reduce -> inception_4e/5x5_reduce (in-place)
I0403 15:12:39.413319 31297 net.cpp:141] Setting up inception_4e/relu_5x5_reduce
I0403 15:12:39.413347 31297 net.cpp:148] Top shape: 24 32 14 14 (150528)
I0403 15:12:39.413362 31297 net.cpp:156] Memory required for data: 1237333536
I0403 15:12:39.413378 31297 layer_factory.hpp:77] Creating layer inception_4e/5x5
I0403 15:12:39.413417 31297 net.cpp:91] Creating Layer inception_4e/5x5
I0403 15:12:39.413437 31297 net.cpp:425] inception_4e/5x5 <- inception_4e/5x5_reduce
I0403 15:12:39.413456 31297 net.cpp:399] inception_4e/5x5 -> inception_4e/5x5
I0403 15:12:39.415277 31297 net.cpp:141] Setting up inception_4e/5x5
I0403 15:12:39.415308 31297 net.cpp:148] Top shape: 24 128 14 14 (602112)
I0403 15:12:39.415324 31297 net.cpp:156] Memory required for data: 1239741984
I0403 15:12:39.415343 31297 layer_factory.hpp:77] Creating layer inception_4e/relu_5x5
I0403 15:12:39.415361 31297 net.cpp:91] Creating Layer inception_4e/relu_5x5
I0403 15:12:39.415376 31297 net.cpp:425] inception_4e/relu_5x5 <- inception_4e/5x5
I0403 15:12:39.415393 31297 net.cpp:386] inception_4e/relu_5x5 -> inception_4e/5x5 (in-place)
I0403 15:12:39.415592 31297 net.cpp:141] Setting up inception_4e/relu_5x5
I0403 15:12:39.415619 31297 net.cpp:148] Top shape: 24 128 14 14 (602112)
I0403 15:12:39.415635 31297 net.cpp:156] Memory required for data: 1242150432
I0403 15:12:39.415650 31297 layer_factory.hpp:77] Creating layer inception_4e/pool
I0403 15:12:39.415668 31297 net.cpp:91] Creating Layer inception_4e/pool
I0403 15:12:39.415684 31297 net.cpp:425] inception_4e/pool <- inception_4d/output_inception_4d/output_0_split_4
I0403 15:12:39.415704 31297 net.cpp:399] inception_4e/pool -> inception_4e/pool
I0403 15:12:39.415771 31297 net.cpp:141] Setting up inception_4e/pool
I0403 15:12:39.415797 31297 net.cpp:148] Top shape: 24 528 14 14 (2483712)
I0403 15:12:39.415812 31297 net.cpp:156] Memory required for data: 1252085280
I0403 15:12:39.415827 31297 layer_factory.hpp:77] Creating layer inception_4e/pool_proj
I0403 15:12:39.415846 31297 net.cpp:91] Creating Layer inception_4e/pool_proj
I0403 15:12:39.415863 31297 net.cpp:425] inception_4e/pool_proj <- inception_4e/pool
I0403 15:12:39.415882 31297 net.cpp:399] inception_4e/pool_proj -> inception_4e/pool_proj
I0403 15:12:39.417354 31297 net.cpp:141] Setting up inception_4e/pool_proj
I0403 15:12:39.417392 31297 net.cpp:148] Top shape: 24 128 14 14 (602112)
I0403 15:12:39.417408 31297 net.cpp:156] Memory required for data: 1254493728
I0403 15:12:39.417426 31297 layer_factory.hpp:77] Creating layer inception_4e/relu_pool_proj
I0403 15:12:39.417448 31297 net.cpp:91] Creating Layer inception_4e/relu_pool_proj
I0403 15:12:39.417464 31297 net.cpp:425] inception_4e/relu_pool_proj <- inception_4e/pool_proj
I0403 15:12:39.417481 31297 net.cpp:386] inception_4e/relu_pool_proj -> inception_4e/pool_proj (in-place)
I0403 15:12:39.417783 31297 net.cpp:141] Setting up inception_4e/relu_pool_proj
I0403 15:12:39.417809 31297 net.cpp:148] Top shape: 24 128 14 14 (602112)
I0403 15:12:39.417824 31297 net.cpp:156] Memory required for data: 1256902176
I0403 15:12:39.417840 31297 layer_factory.hpp:77] Creating layer inception_4e/output
I0403 15:12:39.417858 31297 net.cpp:91] Creating Layer inception_4e/output
I0403 15:12:39.417875 31297 net.cpp:425] inception_4e/output <- inception_4e/1x1
I0403 15:12:39.417891 31297 net.cpp:425] inception_4e/output <- inception_4e/3x3
I0403 15:12:39.417906 31297 net.cpp:425] inception_4e/output <- inception_4e/5x5
I0403 15:12:39.417922 31297 net.cpp:425] inception_4e/output <- inception_4e/pool_proj
I0403 15:12:39.417961 31297 net.cpp:399] inception_4e/output -> inception_4e/output
I0403 15:12:39.418031 31297 net.cpp:141] Setting up inception_4e/output
I0403 15:12:39.418068 31297 net.cpp:148] Top shape: 24 832 14 14 (3913728)
I0403 15:12:39.418100 31297 net.cpp:156] Memory required for data: 1272557088
I0403 15:12:39.418123 31297 layer_factory.hpp:77] Creating layer pool4/3x3_s2
I0403 15:12:39.418144 31297 net.cpp:91] Creating Layer pool4/3x3_s2
I0403 15:12:39.418162 31297 net.cpp:425] pool4/3x3_s2 <- inception_4e/output
I0403 15:12:39.418193 31297 net.cpp:399] pool4/3x3_s2 -> pool4/3x3_s2
I0403 15:12:39.418258 31297 net.cpp:141] Setting up pool4/3x3_s2
I0403 15:12:39.418287 31297 net.cpp:148] Top shape: 24 832 7 7 (978432)
I0403 15:12:39.418308 31297 net.cpp:156] Memory required for data: 1276470816
I0403 15:12:39.418323 31297 layer_factory.hpp:77] Creating layer pool4/3x3_s2_pool4/3x3_s2_0_split
I0403 15:12:39.418339 31297 net.cpp:91] Creating Layer pool4/3x3_s2_pool4/3x3_s2_0_split
I0403 15:12:39.418355 31297 net.cpp:425] pool4/3x3_s2_pool4/3x3_s2_0_split <- pool4/3x3_s2
I0403 15:12:39.418372 31297 net.cpp:399] pool4/3x3_s2_pool4/3x3_s2_0_split -> pool4/3x3_s2_pool4/3x3_s2_0_split_0
I0403 15:12:39.418402 31297 net.cpp:399] pool4/3x3_s2_pool4/3x3_s2_0_split -> pool4/3x3_s2_pool4/3x3_s2_0_split_1
I0403 15:12:39.418423 31297 net.cpp:399] pool4/3x3_s2_pool4/3x3_s2_0_split -> pool4/3x3_s2_pool4/3x3_s2_0_split_2
I0403 15:12:39.418442 31297 net.cpp:399] pool4/3x3_s2_pool4/3x3_s2_0_split -> pool4/3x3_s2_pool4/3x3_s2_0_split_3
I0403 15:12:39.418536 31297 net.cpp:141] Setting up pool4/3x3_s2_pool4/3x3_s2_0_split
I0403 15:12:39.418560 31297 net.cpp:148] Top shape: 24 832 7 7 (978432)
I0403 15:12:39.418576 31297 net.cpp:148] Top shape: 24 832 7 7 (978432)
I0403 15:12:39.418596 31297 net.cpp:148] Top shape: 24 832 7 7 (978432)
I0403 15:12:39.418612 31297 net.cpp:148] Top shape: 24 832 7 7 (978432)
I0403 15:12:39.418625 31297 net.cpp:156] Memory required for data: 1292125728
I0403 15:12:39.418639 31297 layer_factory.hpp:77] Creating layer inception_5a/1x1
I0403 15:12:39.418663 31297 net.cpp:91] Creating Layer inception_5a/1x1
I0403 15:12:39.418679 31297 net.cpp:425] inception_5a/1x1 <- pool4/3x3_s2_pool4/3x3_s2_0_split_0
I0403 15:12:39.418699 31297 net.cpp:399] inception_5a/1x1 -> inception_5a/1x1
I0403 15:12:39.421573 31297 net.cpp:141] Setting up inception_5a/1x1
I0403 15:12:39.421612 31297 net.cpp:148] Top shape: 24 256 7 7 (301056)
I0403 15:12:39.421629 31297 net.cpp:156] Memory required for data: 1293329952
I0403 15:12:39.421648 31297 layer_factory.hpp:77] Creating layer inception_5a/relu_1x1
I0403 15:12:39.421666 31297 net.cpp:91] Creating Layer inception_5a/relu_1x1
I0403 15:12:39.421684 31297 net.cpp:425] inception_5a/relu_1x1 <- inception_5a/1x1
I0403 15:12:39.421702 31297 net.cpp:386] inception_5a/relu_1x1 -> inception_5a/1x1 (in-place)
I0403 15:12:39.422018 31297 net.cpp:141] Setting up inception_5a/relu_1x1
I0403 15:12:39.422045 31297 net.cpp:148] Top shape: 24 256 7 7 (301056)
I0403 15:12:39.422061 31297 net.cpp:156] Memory required for data: 1294534176
I0403 15:12:39.422076 31297 layer_factory.hpp:77] Creating layer inception_5a/3x3_reduce
I0403 15:12:39.422099 31297 net.cpp:91] Creating Layer inception_5a/3x3_reduce
I0403 15:12:39.422117 31297 net.cpp:425] inception_5a/3x3_reduce <- pool4/3x3_s2_pool4/3x3_s2_0_split_1
I0403 15:12:39.422137 31297 net.cpp:399] inception_5a/3x3_reduce -> inception_5a/3x3_reduce
I0403 15:12:39.424629 31297 net.cpp:141] Setting up inception_5a/3x3_reduce
I0403 15:12:39.424659 31297 net.cpp:148] Top shape: 24 160 7 7 (188160)
I0403 15:12:39.424674 31297 net.cpp:156] Memory required for data: 1295286816
I0403 15:12:39.424693 31297 layer_factory.hpp:77] Creating layer inception_5a/relu_3x3_reduce
I0403 15:12:39.424713 31297 net.cpp:91] Creating Layer inception_5a/relu_3x3_reduce
I0403 15:12:39.424731 31297 net.cpp:425] inception_5a/relu_3x3_reduce <- inception_5a/3x3_reduce
I0403 15:12:39.424749 31297 net.cpp:386] inception_5a/relu_3x3_reduce -> inception_5a/3x3_reduce (in-place)
I0403 15:12:39.424937 31297 net.cpp:141] Setting up inception_5a/relu_3x3_reduce
I0403 15:12:39.424963 31297 net.cpp:148] Top shape: 24 160 7 7 (188160)
I0403 15:12:39.424978 31297 net.cpp:156] Memory required for data: 1296039456
I0403 15:12:39.424993 31297 layer_factory.hpp:77] Creating layer inception_5a/3x3
I0403 15:12:39.425017 31297 net.cpp:91] Creating Layer inception_5a/3x3
I0403 15:12:39.425035 31297 net.cpp:425] inception_5a/3x3 <- inception_5a/3x3_reduce
I0403 15:12:39.425055 31297 net.cpp:399] inception_5a/3x3 -> inception_5a/3x3
I0403 15:12:39.430122 31297 net.cpp:141] Setting up inception_5a/3x3
I0403 15:12:39.430155 31297 net.cpp:148] Top shape: 24 320 7 7 (376320)
I0403 15:12:39.430171 31297 net.cpp:156] Memory required for data: 1297544736
I0403 15:12:39.430191 31297 layer_factory.hpp:77] Creating layer inception_5a/relu_3x3
I0403 15:12:39.430208 31297 net.cpp:91] Creating Layer inception_5a/relu_3x3
I0403 15:12:39.430225 31297 net.cpp:425] inception_5a/relu_3x3 <- inception_5a/3x3
I0403 15:12:39.430243 31297 net.cpp:386] inception_5a/relu_3x3 -> inception_5a/3x3 (in-place)
I0403 15:12:39.430551 31297 net.cpp:141] Setting up inception_5a/relu_3x3
I0403 15:12:39.430579 31297 net.cpp:148] Top shape: 24 320 7 7 (376320)
I0403 15:12:39.430600 31297 net.cpp:156] Memory required for data: 1299050016
I0403 15:12:39.430615 31297 layer_factory.hpp:77] Creating layer inception_5a/5x5_reduce
I0403 15:12:39.430637 31297 net.cpp:91] Creating Layer inception_5a/5x5_reduce
I0403 15:12:39.430655 31297 net.cpp:425] inception_5a/5x5_reduce <- pool4/3x3_s2_pool4/3x3_s2_0_split_2
I0403 15:12:39.430675 31297 net.cpp:399] inception_5a/5x5_reduce -> inception_5a/5x5_reduce
I0403 15:12:39.431856 31297 net.cpp:141] Setting up inception_5a/5x5_reduce
I0403 15:12:39.431887 31297 net.cpp:148] Top shape: 24 32 7 7 (37632)
I0403 15:12:39.431903 31297 net.cpp:156] Memory required for data: 1299200544
I0403 15:12:39.431922 31297 layer_factory.hpp:77] Creating layer inception_5a/relu_5x5_reduce
I0403 15:12:39.431941 31297 net.cpp:91] Creating Layer inception_5a/relu_5x5_reduce
I0403 15:12:39.431957 31297 net.cpp:425] inception_5a/relu_5x5_reduce <- inception_5a/5x5_reduce
I0403 15:12:39.431977 31297 net.cpp:386] inception_5a/relu_5x5_reduce -> inception_5a/5x5_reduce (in-place)
I0403 15:12:39.432277 31297 net.cpp:141] Setting up inception_5a/relu_5x5_reduce
I0403 15:12:39.432307 31297 net.cpp:148] Top shape: 24 32 7 7 (37632)
I0403 15:12:39.432322 31297 net.cpp:156] Memory required for data: 1299351072
I0403 15:12:39.432337 31297 layer_factory.hpp:77] Creating layer inception_5a/5x5
I0403 15:12:39.432361 31297 net.cpp:91] Creating Layer inception_5a/5x5
I0403 15:12:39.432379 31297 net.cpp:425] inception_5a/5x5 <- inception_5a/5x5_reduce
I0403 15:12:39.432397 31297 net.cpp:399] inception_5a/5x5 -> inception_5a/5x5
I0403 15:12:39.434144 31297 net.cpp:141] Setting up inception_5a/5x5
I0403 15:12:39.434185 31297 net.cpp:148] Top shape: 24 128 7 7 (150528)
I0403 15:12:39.434202 31297 net.cpp:156] Memory required for data: 1299953184
I0403 15:12:39.434221 31297 layer_factory.hpp:77] Creating layer inception_5a/relu_5x5
I0403 15:12:39.434240 31297 net.cpp:91] Creating Layer inception_5a/relu_5x5
I0403 15:12:39.434257 31297 net.cpp:425] inception_5a/relu_5x5 <- inception_5a/5x5
I0403 15:12:39.434275 31297 net.cpp:386] inception_5a/relu_5x5 -> inception_5a/5x5 (in-place)
I0403 15:12:39.434471 31297 net.cpp:141] Setting up inception_5a/relu_5x5
I0403 15:12:39.434499 31297 net.cpp:148] Top shape: 24 128 7 7 (150528)
I0403 15:12:39.434520 31297 net.cpp:156] Memory required for data: 1300555296
I0403 15:12:39.434535 31297 layer_factory.hpp:77] Creating layer inception_5a/pool
I0403 15:12:39.434552 31297 net.cpp:91] Creating Layer inception_5a/pool
I0403 15:12:39.434571 31297 net.cpp:425] inception_5a/pool <- pool4/3x3_s2_pool4/3x3_s2_0_split_3
I0403 15:12:39.434592 31297 net.cpp:399] inception_5a/pool -> inception_5a/pool
I0403 15:12:39.434661 31297 net.cpp:141] Setting up inception_5a/pool
I0403 15:12:39.434689 31297 net.cpp:148] Top shape: 24 832 7 7 (978432)
I0403 15:12:39.434705 31297 net.cpp:156] Memory required for data: 1304469024
I0403 15:12:39.434720 31297 layer_factory.hpp:77] Creating layer inception_5a/pool_proj
I0403 15:12:39.434741 31297 net.cpp:91] Creating Layer inception_5a/pool_proj
I0403 15:12:39.434758 31297 net.cpp:425] inception_5a/pool_proj <- inception_5a/pool
I0403 15:12:39.434777 31297 net.cpp:399] inception_5a/pool_proj -> inception_5a/pool_proj
I0403 15:12:39.437098 31297 net.cpp:141] Setting up inception_5a/pool_proj
I0403 15:12:39.437127 31297 net.cpp:148] Top shape: 24 128 7 7 (150528)
I0403 15:12:39.437144 31297 net.cpp:156] Memory required for data: 1305071136
I0403 15:12:39.437162 31297 layer_factory.hpp:77] Creating layer inception_5a/relu_pool_proj
I0403 15:12:39.437182 31297 net.cpp:91] Creating Layer inception_5a/relu_pool_proj
I0403 15:12:39.437201 31297 net.cpp:425] inception_5a/relu_pool_proj <- inception_5a/pool_proj
I0403 15:12:39.437217 31297 net.cpp:386] inception_5a/relu_pool_proj -> inception_5a/pool_proj (in-place)
I0403 15:12:39.437528 31297 net.cpp:141] Setting up inception_5a/relu_pool_proj
I0403 15:12:39.437554 31297 net.cpp:148] Top shape: 24 128 7 7 (150528)
I0403 15:12:39.437572 31297 net.cpp:156] Memory required for data: 1305673248
I0403 15:12:39.437587 31297 layer_factory.hpp:77] Creating layer inception_5a/output
I0403 15:12:39.437607 31297 net.cpp:91] Creating Layer inception_5a/output
I0403 15:12:39.437623 31297 net.cpp:425] inception_5a/output <- inception_5a/1x1
I0403 15:12:39.437640 31297 net.cpp:425] inception_5a/output <- inception_5a/3x3
I0403 15:12:39.437657 31297 net.cpp:425] inception_5a/output <- inception_5a/5x5
I0403 15:12:39.437674 31297 net.cpp:425] inception_5a/output <- inception_5a/pool_proj
I0403 15:12:39.437691 31297 net.cpp:399] inception_5a/output -> inception_5a/output
I0403 15:12:39.437743 31297 net.cpp:141] Setting up inception_5a/output
I0403 15:12:39.437767 31297 net.cpp:148] Top shape: 24 832 7 7 (978432)
I0403 15:12:39.437782 31297 net.cpp:156] Memory required for data: 1309586976
I0403 15:12:39.437796 31297 layer_factory.hpp:77] Creating layer inception_5a/output_inception_5a/output_0_split
I0403 15:12:39.437813 31297 net.cpp:91] Creating Layer inception_5a/output_inception_5a/output_0_split
I0403 15:12:39.437829 31297 net.cpp:425] inception_5a/output_inception_5a/output_0_split <- inception_5a/output
I0403 15:12:39.437849 31297 net.cpp:399] inception_5a/output_inception_5a/output_0_split -> inception_5a/output_inception_5a/output_0_split_0
I0403 15:12:39.437870 31297 net.cpp:399] inception_5a/output_inception_5a/output_0_split -> inception_5a/output_inception_5a/output_0_split_1
I0403 15:12:39.437891 31297 net.cpp:399] inception_5a/output_inception_5a/output_0_split -> inception_5a/output_inception_5a/output_0_split_2
I0403 15:12:39.437911 31297 net.cpp:399] inception_5a/output_inception_5a/output_0_split -> inception_5a/output_inception_5a/output_0_split_3
I0403 15:12:39.438032 31297 net.cpp:141] Setting up inception_5a/output_inception_5a/output_0_split
I0403 15:12:39.438058 31297 net.cpp:148] Top shape: 24 832 7 7 (978432)
I0403 15:12:39.438076 31297 net.cpp:148] Top shape: 24 832 7 7 (978432)
I0403 15:12:39.438091 31297 net.cpp:148] Top shape: 24 832 7 7 (978432)
I0403 15:12:39.438107 31297 net.cpp:148] Top shape: 24 832 7 7 (978432)
I0403 15:12:39.438122 31297 net.cpp:156] Memory required for data: 1325241888
I0403 15:12:39.438136 31297 layer_factory.hpp:77] Creating layer inception_5b/1x1
I0403 15:12:39.438158 31297 net.cpp:91] Creating Layer inception_5b/1x1
I0403 15:12:39.438176 31297 net.cpp:425] inception_5b/1x1 <- inception_5a/output_inception_5a/output_0_split_0
I0403 15:12:39.438195 31297 net.cpp:399] inception_5b/1x1 -> inception_5b/1x1
I0403 15:12:39.441998 31297 net.cpp:141] Setting up inception_5b/1x1
I0403 15:12:39.442028 31297 net.cpp:148] Top shape: 24 384 7 7 (451584)
I0403 15:12:39.442042 31297 net.cpp:156] Memory required for data: 1327048224
I0403 15:12:39.442061 31297 layer_factory.hpp:77] Creating layer inception_5b/relu_1x1
I0403 15:12:39.442081 31297 net.cpp:91] Creating Layer inception_5b/relu_1x1
I0403 15:12:39.442097 31297 net.cpp:425] inception_5b/relu_1x1 <- inception_5b/1x1
I0403 15:12:39.442114 31297 net.cpp:386] inception_5b/relu_1x1 -> inception_5b/1x1 (in-place)
I0403 15:12:39.442412 31297 net.cpp:141] Setting up inception_5b/relu_1x1
I0403 15:12:39.442437 31297 net.cpp:148] Top shape: 24 384 7 7 (451584)
I0403 15:12:39.442452 31297 net.cpp:156] Memory required for data: 1328854560
I0403 15:12:39.442466 31297 layer_factory.hpp:77] Creating layer inception_5b/3x3_reduce
I0403 15:12:39.442488 31297 net.cpp:91] Creating Layer inception_5b/3x3_reduce
I0403 15:12:39.442509 31297 net.cpp:425] inception_5b/3x3_reduce <- inception_5a/output_inception_5a/output_0_split_1
I0403 15:12:39.442531 31297 net.cpp:399] inception_5b/3x3_reduce -> inception_5b/3x3_reduce
I0403 15:12:39.445139 31297 net.cpp:141] Setting up inception_5b/3x3_reduce
I0403 15:12:39.445171 31297 net.cpp:148] Top shape: 24 192 7 7 (225792)
I0403 15:12:39.445188 31297 net.cpp:156] Memory required for data: 1329757728
I0403 15:12:39.445205 31297 layer_factory.hpp:77] Creating layer inception_5b/relu_3x3_reduce
I0403 15:12:39.445226 31297 net.cpp:91] Creating Layer inception_5b/relu_3x3_reduce
I0403 15:12:39.445245 31297 net.cpp:425] inception_5b/relu_3x3_reduce <- inception_5b/3x3_reduce
I0403 15:12:39.445262 31297 net.cpp:386] inception_5b/relu_3x3_reduce -> inception_5b/3x3_reduce (in-place)
I0403 15:12:39.445449 31297 net.cpp:141] Setting up inception_5b/relu_3x3_reduce
I0403 15:12:39.445477 31297 net.cpp:148] Top shape: 24 192 7 7 (225792)
I0403 15:12:39.445492 31297 net.cpp:156] Memory required for data: 1330660896
I0403 15:12:39.445510 31297 layer_factory.hpp:77] Creating layer inception_5b/3x3
I0403 15:12:39.445533 31297 net.cpp:91] Creating Layer inception_5b/3x3
I0403 15:12:39.445551 31297 net.cpp:425] inception_5b/3x3 <- inception_5b/3x3_reduce
I0403 15:12:39.445569 31297 net.cpp:399] inception_5b/3x3 -> inception_5b/3x3
I0403 15:12:39.452116 31297 net.cpp:141] Setting up inception_5b/3x3
I0403 15:12:39.452144 31297 net.cpp:148] Top shape: 24 384 7 7 (451584)
I0403 15:12:39.452159 31297 net.cpp:156] Memory required for data: 1332467232
I0403 15:12:39.452178 31297 layer_factory.hpp:77] Creating layer inception_5b/relu_3x3
I0403 15:12:39.452198 31297 net.cpp:91] Creating Layer inception_5b/relu_3x3
I0403 15:12:39.452215 31297 net.cpp:425] inception_5b/relu_3x3 <- inception_5b/3x3
I0403 15:12:39.452232 31297 net.cpp:386] inception_5b/relu_3x3 -> inception_5b/3x3 (in-place)
I0403 15:12:39.452534 31297 net.cpp:141] Setting up inception_5b/relu_3x3
I0403 15:12:39.452560 31297 net.cpp:148] Top shape: 24 384 7 7 (451584)
I0403 15:12:39.452574 31297 net.cpp:156] Memory required for data: 1334273568
I0403 15:12:39.452589 31297 layer_factory.hpp:77] Creating layer inception_5b/5x5_reduce
I0403 15:12:39.452632 31297 net.cpp:91] Creating Layer inception_5b/5x5_reduce
I0403 15:12:39.452653 31297 net.cpp:425] inception_5b/5x5_reduce <- inception_5a/output_inception_5a/output_0_split_2
I0403 15:12:39.452672 31297 net.cpp:399] inception_5b/5x5_reduce -> inception_5b/5x5_reduce
I0403 15:12:39.453922 31297 net.cpp:141] Setting up inception_5b/5x5_reduce
I0403 15:12:39.453949 31297 net.cpp:148] Top shape: 24 48 7 7 (56448)
I0403 15:12:39.453964 31297 net.cpp:156] Memory required for data: 1334499360
I0403 15:12:39.453984 31297 layer_factory.hpp:77] Creating layer inception_5b/relu_5x5_reduce
I0403 15:12:39.454005 31297 net.cpp:91] Creating Layer inception_5b/relu_5x5_reduce
I0403 15:12:39.454020 31297 net.cpp:425] inception_5b/relu_5x5_reduce <- inception_5b/5x5_reduce
I0403 15:12:39.454037 31297 net.cpp:386] inception_5b/relu_5x5_reduce -> inception_5b/5x5_reduce (in-place)
I0403 15:12:39.454409 31297 net.cpp:141] Setting up inception_5b/relu_5x5_reduce
I0403 15:12:39.454434 31297 net.cpp:148] Top shape: 24 48 7 7 (56448)
I0403 15:12:39.454449 31297 net.cpp:156] Memory required for data: 1334725152
I0403 15:12:39.454470 31297 layer_factory.hpp:77] Creating layer inception_5b/5x5
I0403 15:12:39.454490 31297 net.cpp:91] Creating Layer inception_5b/5x5
I0403 15:12:39.454517 31297 net.cpp:425] inception_5b/5x5 <- inception_5b/5x5_reduce
I0403 15:12:39.454540 31297 net.cpp:399] inception_5b/5x5 -> inception_5b/5x5
I0403 15:12:39.456547 31297 net.cpp:141] Setting up inception_5b/5x5
I0403 15:12:39.456578 31297 net.cpp:148] Top shape: 24 128 7 7 (150528)
I0403 15:12:39.456593 31297 net.cpp:156] Memory required for data: 1335327264
I0403 15:12:39.456611 31297 layer_factory.hpp:77] Creating layer inception_5b/relu_5x5
I0403 15:12:39.456629 31297 net.cpp:91] Creating Layer inception_5b/relu_5x5
I0403 15:12:39.456645 31297 net.cpp:425] inception_5b/relu_5x5 <- inception_5b/5x5
I0403 15:12:39.456665 31297 net.cpp:386] inception_5b/relu_5x5 -> inception_5b/5x5 (in-place)
I0403 15:12:39.456856 31297 net.cpp:141] Setting up inception_5b/relu_5x5
I0403 15:12:39.456879 31297 net.cpp:148] Top shape: 24 128 7 7 (150528)
I0403 15:12:39.456894 31297 net.cpp:156] Memory required for data: 1335929376
I0403 15:12:39.456908 31297 layer_factory.hpp:77] Creating layer inception_5b/pool
I0403 15:12:39.456926 31297 net.cpp:91] Creating Layer inception_5b/pool
I0403 15:12:39.456943 31297 net.cpp:425] inception_5b/pool <- inception_5a/output_inception_5a/output_0_split_3
I0403 15:12:39.456962 31297 net.cpp:399] inception_5b/pool -> inception_5b/pool
I0403 15:12:39.457033 31297 net.cpp:141] Setting up inception_5b/pool
I0403 15:12:39.457057 31297 net.cpp:148] Top shape: 24 832 7 7 (978432)
I0403 15:12:39.457072 31297 net.cpp:156] Memory required for data: 1339843104
I0403 15:12:39.457087 31297 layer_factory.hpp:77] Creating layer inception_5b/pool_proj
I0403 15:12:39.457110 31297 net.cpp:91] Creating Layer inception_5b/pool_proj
I0403 15:12:39.457128 31297 net.cpp:425] inception_5b/pool_proj <- inception_5b/pool
I0403 15:12:39.457145 31297 net.cpp:399] inception_5b/pool_proj -> inception_5b/pool_proj
I0403 15:12:39.459414 31297 net.cpp:141] Setting up inception_5b/pool_proj
I0403 15:12:39.459441 31297 net.cpp:148] Top shape: 24 128 7 7 (150528)
I0403 15:12:39.459460 31297 net.cpp:156] Memory required for data: 1340445216
I0403 15:12:39.459478 31297 layer_factory.hpp:77] Creating layer inception_5b/relu_pool_proj
I0403 15:12:39.459496 31297 net.cpp:91] Creating Layer inception_5b/relu_pool_proj
I0403 15:12:39.459518 31297 net.cpp:425] inception_5b/relu_pool_proj <- inception_5b/pool_proj
I0403 15:12:39.459535 31297 net.cpp:386] inception_5b/relu_pool_proj -> inception_5b/pool_proj (in-place)
I0403 15:12:39.459833 31297 net.cpp:141] Setting up inception_5b/relu_pool_proj
I0403 15:12:39.459859 31297 net.cpp:148] Top shape: 24 128 7 7 (150528)
I0403 15:12:39.459877 31297 net.cpp:156] Memory required for data: 1341047328
I0403 15:12:39.459892 31297 layer_factory.hpp:77] Creating layer inception_5b/output
I0403 15:12:39.459909 31297 net.cpp:91] Creating Layer inception_5b/output
I0403 15:12:39.459940 31297 net.cpp:425] inception_5b/output <- inception_5b/1x1
I0403 15:12:39.459957 31297 net.cpp:425] inception_5b/output <- inception_5b/3x3
I0403 15:12:39.459975 31297 net.cpp:425] inception_5b/output <- inception_5b/5x5
I0403 15:12:39.459990 31297 net.cpp:425] inception_5b/output <- inception_5b/pool_proj
I0403 15:12:39.460006 31297 net.cpp:399] inception_5b/output -> inception_5b/output
I0403 15:12:39.460058 31297 net.cpp:141] Setting up inception_5b/output
I0403 15:12:39.460081 31297 net.cpp:148] Top shape: 24 1024 7 7 (1204224)
I0403 15:12:39.460103 31297 net.cpp:156] Memory required for data: 1345864224
I0403 15:12:39.460120 31297 layer_factory.hpp:77] Creating layer pool5/7x7_s1
I0403 15:12:39.460139 31297 net.cpp:91] Creating Layer pool5/7x7_s1
I0403 15:12:39.460156 31297 net.cpp:425] pool5/7x7_s1 <- inception_5b/output
I0403 15:12:39.460175 31297 net.cpp:399] pool5/7x7_s1 -> pool5/7x7_s1
I0403 15:12:39.460387 31297 net.cpp:141] Setting up pool5/7x7_s1
I0403 15:12:39.460414 31297 net.cpp:148] Top shape: 24 1024 1 1 (24576)
I0403 15:12:39.460429 31297 net.cpp:156] Memory required for data: 1345962528
I0403 15:12:39.460444 31297 layer_factory.hpp:77] Creating layer pool5/drop_7x7_s1
I0403 15:12:39.460461 31297 net.cpp:91] Creating Layer pool5/drop_7x7_s1
I0403 15:12:39.460477 31297 net.cpp:425] pool5/drop_7x7_s1 <- pool5/7x7_s1
I0403 15:12:39.460494 31297 net.cpp:386] pool5/drop_7x7_s1 -> pool5/7x7_s1 (in-place)
I0403 15:12:39.460548 31297 net.cpp:141] Setting up pool5/drop_7x7_s1
I0403 15:12:39.460572 31297 net.cpp:148] Top shape: 24 1024 1 1 (24576)
I0403 15:12:39.460587 31297 net.cpp:156] Memory required for data: 1346060832
I0403 15:12:39.460600 31297 layer_factory.hpp:77] Creating layer loss3/classifier_plantvillage
I0403 15:12:39.460621 31297 net.cpp:91] Creating Layer loss3/classifier_plantvillage
I0403 15:12:39.460638 31297 net.cpp:425] loss3/classifier_plantvillage <- pool5/7x7_s1
I0403 15:12:39.460655 31297 net.cpp:399] loss3/classifier_plantvillage -> loss3/classifier_plantvillage
I0403 15:12:39.461071 31297 net.cpp:141] Setting up loss3/classifier_plantvillage
I0403 15:12:39.461094 31297 net.cpp:148] Top shape: 24 38 (912)
I0403 15:12:39.461108 31297 net.cpp:156] Memory required for data: 1346064480
I0403 15:12:39.461127 31297 layer_factory.hpp:77] Creating layer loss3/classifier_plantvillage_loss3/classifier_plantvillage_0_split
I0403 15:12:39.461144 31297 net.cpp:91] Creating Layer loss3/classifier_plantvillage_loss3/classifier_plantvillage_0_split
I0403 15:12:39.461159 31297 net.cpp:425] loss3/classifier_plantvillage_loss3/classifier_plantvillage_0_split <- loss3/classifier_plantvillage
I0403 15:12:39.461179 31297 net.cpp:399] loss3/classifier_plantvillage_loss3/classifier_plantvillage_0_split -> loss3/classifier_plantvillage_loss3/classifier_plantvillage_0_split_0
I0403 15:12:39.461200 31297 net.cpp:399] loss3/classifier_plantvillage_loss3/classifier_plantvillage_0_split -> loss3/classifier_plantvillage_loss3/classifier_plantvillage_0_split_1
I0403 15:12:39.461220 31297 net.cpp:399] loss3/classifier_plantvillage_loss3/classifier_plantvillage_0_split -> loss3/classifier_plantvillage_loss3/classifier_plantvillage_0_split_2
I0403 15:12:39.461238 31297 net.cpp:399] loss3/classifier_plantvillage_loss3/classifier_plantvillage_0_split -> loss3/classifier_plantvillage_loss3/classifier_plantvillage_0_split_3
I0403 15:12:39.461338 31297 net.cpp:141] Setting up loss3/classifier_plantvillage_loss3/classifier_plantvillage_0_split
I0403 15:12:39.461362 31297 net.cpp:148] Top shape: 24 38 (912)
I0403 15:12:39.461379 31297 net.cpp:148] Top shape: 24 38 (912)
I0403 15:12:39.461393 31297 net.cpp:148] Top shape: 24 38 (912)
I0403 15:12:39.461407 31297 net.cpp:148] Top shape: 24 38 (912)
I0403 15:12:39.461421 31297 net.cpp:156] Memory required for data: 1346079072
I0403 15:12:39.461436 31297 layer_factory.hpp:77] Creating layer loss1/loss
I0403 15:12:39.461457 31297 net.cpp:91] Creating Layer loss1/loss
I0403 15:12:39.461473 31297 net.cpp:425] loss1/loss <- loss1/classifier_plantvillage_loss1/classifier_plantvillage_0_split_0
I0403 15:12:39.461506 31297 net.cpp:425] loss1/loss <- label_data_1_split_0
…
