…
I0403 15:02:23.362785 30930 net.cpp:313] The NetState phase (1) differed from the phase (0) specified by a rule in layer data
I0403 15:02:23.363920 30930 net.cpp:49] Initializing net from parameters: 
state {
  phase: TEST
}
layer {
  name: "data"
  type: "Data"
  top: "data"
  top: "label"
  include {
    phase: TEST
  }
  transform_param {
    mirror: false
    crop_size: 224
    mean_file: "/home/mohanty/data/final_dataset/lmdb/grayscale-80-20/mean.binaryproto"
  }
  data_param {
    source: "/home/mohanty/data/final_dataset/lmdb/grayscale-80-20/test_db"
    batch_size: 24
    backend: LMDB
  }
}
layer {
  name: "conv1/7x7_s2"
  type: "Convolution"
  bottom: "data"
  top: "conv1/7x7_s2"
  param {
    lr_mult: 1
    decay_mult: 1
  }
  param {
    lr_mult: 2
    decay_mult: 0
  }
  convolution_param {
    num_output: 64
    pad: 3
    kernel_size: 7
    stride: 2
    weight_filler {
      type: "xavier"
      std: 0.1
    }
    bias_filler {
      type: "constant"
      value: 0.2
    }
  }
}
layer {
  name: "conv1/relu_7x7"
  type: "ReLU"
  bottom: "conv1/7x7_s2"
  top: "conv1/7x7_s2"
}
layer {
  name: "pool1/3x3_s2"
  type: "Pooling"
  bottom: "conv1/7x7_s2"
  top: "pool1/3x3_s2"
  pooling_param {
    pool: MAX
    kernel_size: 3
    stride: 2
  }
}
layer {
  name: "pool1/norm1"
  type: "LRN"
  bottom: "pool1/3x3_s2"
  top: "pool1/norm1"
  lrn_param {
    local_size: 5
    alpha: 0.0001
    beta: 0.75
  }
}
layer {
  name: "conv2/3x3_reduce"
  type: "Convolution"
  bottom: "pool1/norm1"
  top: "conv2/3x3_reduce"
  param {
    lr_mult: 1
    decay_mult: 1
  }
  param {
    lr_mult: 2
    decay_mult: 0
  }
  convolution_param {
    num_output: 64
    kernel_size: 1
    weight_filler {
      type: "xavier"
      std: 0.1
    }
    bias_filler {
      type: "constant"
      value: 0.2
    }
  }
}
layer {
  name: "conv2/relu_3x3_reduce"
  type: "ReLU"
  bottom: "conv2/3x3_reduce"
  top: "conv2/3x3_reduce"
}
layer {
  name: "conv2/3x3"
  type: "Convolution"
  bottom: "conv2/3x3_reduce"
  top: "conv2/3x3"
  param {
    lr_mult: 1
    decay_mult: 1
  }
  param {
    lr_mult: 2
    decay_mult: 0
  }
  convolution_param {
    num_output: 192
    pad: 1
    kernel_size: 3
    weight_filler {
      type: "xavier"
      std: 0.03
    }
    bias_filler {
      type: "constant"
      value: 0.2
    }
  }
}
layer {
  name: "conv2/relu_3x3"
  type: "ReLU"
  bottom: "conv2/3x3"
  top: "conv2/3x3"
}
layer {
  name: "conv2/norm2"
  type: "LRN"
  bottom: "conv2/3x3"
  top: "conv2/norm2"
  lrn_param {
    local_size: 5
    alpha: 0.0001
    beta: 0.75
  }
}
layer {
  name: "pool2/3x3_s2"
  type: "Pooling"
  bottom: "conv2/norm2"
  top: "pool2/3x3_s2"
  pooling_param {
    pool: MAX
    kernel_size: 3
    stride: 2
  }
}
layer {
  name: "inception_3a/1x1"
  type: "Convolution"
  bottom: "pool2/3x3_s2"
  top: "inception_3a/1x1"
  param {
    lr_mult: 1
    decay_mult: 1
  }
  param {
    lr_mult: 2
    decay_mult: 0
  }
  convolution_param {
    num_output: 64
    kernel_size: 1
    weight_filler {
      type: "xavier"
      std: 0.03
    }
    bias_filler {
      type: "constant"
      value: 0.2
    }
  }
}
layer {
  name: "inception_3a/relu_1x1"
  type: "ReLU"
  bottom: "inception_3a/1x1"
  top: "inception_3a/1x1"
}
layer {
  name: "inception_3a/3x3_reduce"
  type: "Convolution"
  bottom: "pool2/3x3_s2"
  top: "inception_3a/3x3_reduce"
  param {
    lr_mult: 1
    decay_mult: 1
  }
  param {
    lr_mult: 2
    decay_mult: 0
  }
  convolution_param {
    num_output: 96
    kernel_size: 1
    weight_filler {
      type: "xavier"
      std: 0.09
    }
    bias_filler {
      type: "constant"
      value: 0.2
    }
  }
}
layer {
  name: "inception_3a/relu_3x3_reduce"
  type: "ReLU"
  bottom: "inception_3a/3x3_reduce"
  top: "inception_3a/3x3_reduce"
}
layer {
  name: "inception_3a/3x3"
  type: "Convolution"
  bottom: "inception_3a/3x3_reduce"
  top: "inception_3a/3x3"
  param {
    lr_mult: 1
    decay_mult: 1
  }
  param {
    lr_mult: 2
    decay_mult: 0
  }
  convolution_param {
    num_output: 128
    pad: 1
    kernel_size: 3
    weight_filler {
      type: "xavier"
      std: 0.03
    }
    bias_filler {
      type: "constant"
      value: 0.2
    }
  }
}
layer {
  name: "inception_3a/relu_3x3"
  type: "ReLU"
  bottom: "inception_3a/3x3"
  top: "inception_3a/3x3"
}
layer {
  name: "inception_3a/5x5_reduce"
  type: "Convolution"
  bottom: "pool2/3x3_s2"
  top: "inception_3a/5x5_reduce"
  param {
    lr_mult: 1
    decay_mult: 1
  }
  param {
    lr_mult: 2
    decay_mult: 0
  }
  convolution_param {
    num_output: 16
    kernel_size: 1
    weight_filler {
      type: "xavier"
      std: 0.2
    }
    bias_filler {
      type: "constant"
      value: 0.2
    }
  }
}
layer {
  name: "inception_3a/relu_5x5_reduce"
  type: "ReLU"
  bottom: "inception_3a/5x5_reduce"
  top: "inception_3a/5x5_reduce"
}
layer {
  name: "inception_3a/5x5"
  type: "Convolution"
  bottom: "inception_3a/5x5_reduce"
  top: "inception_3a/5x5"
  param {
    lr_mult: 1
    decay_mult: 1
  }
  param {
    lr_mult: 2
    decay_mult: 0
  }
  convolution_param {
    num_output: 32
    pad: 2
    kernel_size: 5
    weight_filler {
      type: "xavier"
      std: 0.03
    }
    bias_filler {
      type: "constant"
      value: 0.2
    }
  }
}
layer {
  name: "inception_3a/relu_5x5"
  type: "ReLU"
  bottom: "inception_3a/5x5"
  top: "inception_3a/5x5"
}
layer {
  name: "inception_3a/pool"
  type: "Pooling"
  bottom: "pool2/3x3_s2"
  top: "inception_3a/pool"
  pooling_param {
    pool: MAX
    kernel_size: 3
    stride: 1
    pad: 1
  }
}
layer {
  name: "inception_3a/pool_proj"
  type: "Convolution"
  bottom: "inception_3a/pool"
  top: "inception_3a/pool_proj"
  param {
    lr_mult: 1
    decay_mult: 1
  }
  param {
    lr_mult: 2
    decay_mult: 0
  }
  convolution_param {
    num_output: 32
    kernel_size: 1
    weight_filler {
      type: "xavier"
      std: 0.1
    }
    bias_filler {
      type: "constant"
      value: 0.2
    }
  }
}
layer {
  name: "inception_3a/relu_pool_proj"
  type: "ReLU"
  bottom: "inception_3a/pool_proj"
  top: "inception_3a/pool_proj"
}
layer {
  name: "inception_3a/output"
  type: "Concat"
  bottom: "inception_3a/1x1"
  bottom: "inception_3a/3x3"
  bottom: "inception_3a/5x5"
  bottom: "inception_3a/pool_proj"
  top: "inception_3a/output"
}
layer {
  name: "inception_3b/1x1"
  type: "Convolution"
  bottom: "inception_3a/output"
  top: "inception_3b/1x1"
  param {
    lr_mult: 1
    decay_mult: 1
  }
  param {
    lr_mult: 2
    decay_mult: 0
  }
  convolution_param {
    num_output: 128
    kernel_size: 1
    weight_filler {
      type: "xavier"
      std: 0.03
    }
    bias_filler {
      type: "constant"
      value: 0.2
    }
  }
}
layer {
  name: "inception_3b/relu_1x1"
  type: "ReLU"
  bottom: "inception_3b/1x1"
  top: "inception_3b/1x1"
}
layer {
  name: "inception_3b/3x3_reduce"
  type: "Convolution"
  bottom: "inception_3a/output"
  top: "inception_3b/3x3_reduce"
  param {
    lr_mult: 1
    decay_mult: 1
  }
  param {
    lr_mult: 2
    decay_mult: 0
  }
  convolution_param {
    num_output: 128
    kernel_size: 1
    weight_filler {
      type: "xavier"
      std: 0.09
    }
    bias_filler {
      type: "constant"
      value: 0.2
    }
  }
}
layer {
  name: "inception_3b/relu_3x3_reduce"
  type: "ReLU"
  bottom: "inception_3b/3x3_reduce"
  top: "inception_3b/3x3_reduce"
}
layer {
  name: "inception_3b/3x3"
  type: "Convolution"
  bottom: "inception_3b/3x3_reduce"
  top: "inception_3b/3x3"
  param {
    lr_mult: 1
    decay_mult: 1
  }
  param {
    lr_mult: 2
    decay_mult: 0
  }
  convolution_param {
    num_output: 192
    pad: 1
    kernel_size: 3
    weight_filler {
      type: "xavier"
      std: 0.03
    }
    bias_filler {
      type: "constant"
      value: 0.2
    }
  }
}
layer {
  name: "inception_3b/relu_3x3"
  type: "ReLU"
  bottom: "inception_3b/3x3"
  top: "inception_3b/3x3"
}
layer {
  name: "inception_3b/5x5_reduce"
  type: "Convolution"
  bottom: "inception_3a/output"
  top: "inception_3b/5x5_reduce"
  param {
    lr_mult: 1
    decay_mult: 1
  }
  param {
    lr_mult: 2
    decay_mult: 0
  }
  convolution_param {
    num_output: 32
    kernel_size: 1
    weight_filler {
      type: "xavier"
      std: 0.2
    }
    bias_filler {
      type: "constant"
      value: 0.2
    }
  }
}
layer {
  name: "inception_3b/relu_5x5_reduce"
  type: "ReLU"
  bottom: "inception_3b/5x5_reduce"
  top: "inception_3b/5x5_reduce"
}
layer {
  name: "inception_3b/5x5"
  type: "Convolution"
  bottom: "inception_3b/5x5_reduce"
  top: "inception_3b/5x5"
  param {
    lr_mult: 1
    decay_mult: 1
  }
  param {
    lr_mult: 2
    decay_mult: 0
  }
  convolution_param {
    num_output: 96
    pad: 2
    kernel_size: 5
    weight_filler {
      type: "xavier"
      std: 0.03
    }
    bias_filler {
      type: "constant"
      value: 0.2
    }
  }
}
layer {
  name: "inception_3b/relu_5x5"
  type: "ReLU"
  bottom: "inception_3b/5x5"
  top: "inception_3b/5x5"
}
layer {
  name: "inception_3b/pool"
  type: "Pooling"
  bottom: "inception_3a/output"
  top: "inception_3b/pool"
  pooling_param {
    pool: MAX
    kernel_size: 3
    stride: 1
    pad: 1
  }
}
layer {
  name: "inception_3b/pool_proj"
  type: "Convolution"
  bottom: "inception_3b/pool"
  top: "inception_3b/pool_proj"
  param {
    lr_mult: 1
    decay_mult: 1
  }
  param {
    lr_mult: 2
    decay_mult: 0
  }
  convolution_param {
    num_output: 64
    kernel_size: 1
    weight_filler {
      type: "xavier"
      std: 0.1
    }
    bias_filler {
      type: "constant"
      value: 0.2
    }
  }
}
layer {
  name: "inception_3b/relu_pool_proj"
  type: "ReLU"
  bottom: "inception_3b/pool_proj"
  top: "inception_3b/pool_proj"
}
layer {
  name: "inception_3b/output"
  type: "Concat"
  bottom: "inception_3b/1x1"
  bottom: "inception_3b/3x3"
  bottom: "inception_3b/5x5"
  bottom: "inception_3b/pool_proj"
  top: "inception_3b/output"
}
layer {
  name: "pool3/3x3_s2"
  type: "Pooling"
  bottom: "inception_3b/output"
  top: "pool3/3x3_s2"
  pooling_param {
    pool: MAX
    kernel_size: 3
    stride: 2
  }
}
layer {
  name: "inception_4a/1x1"
  type: "Convolution"
  bottom: "pool3/3x3_s2"
  top: "inception_4a/1x1"
  param {
    lr_mult: 1
    decay_mult: 1
  }
  param {
    lr_mult: 2
    decay_mult: 0
  }
  convolution_param {
    num_output: 192
    kernel_size: 1
    weight_filler {
      type: "xavier"
      std: 0.03
    }
    bias_filler {
      type: "constant"
      value: 0.2
    }
  }
}
layer {
  name: "inception_4a/relu_1x1"
  type: "ReLU"
  bottom: "inception_4a/1x1"
  top: "inception_4a/1x1"
}
layer {
  name: "inception_4a/3x3_reduce"
  type: "Convolution"
  bottom: "pool3/3x3_s2"
  top: "inception_4a/3x3_reduce"
  param {
    lr_mult: 1
    decay_mult: 1
  }
  param {
    lr_mult: 2
    decay_mult: 0
  }
  convolution_param {
    num_output: 96
    kernel_size: 1
    weight_filler {
      type: "xavier"
      std: 0.09
    }
    bias_filler {
      type: "constant"
      value: 0.2
    }
  }
}
layer {
  name: "inception_4a/relu_3x3_reduce"
  type: "ReLU"
  bottom: "inception_4a/3x3_reduce"
  top: "inception_4a/3x3_reduce"
}
layer {
  name: "inception_4a/3x3"
  type: "Convolution"
  bottom: "inception_4a/3x3_reduce"
  top: "inception_4a/3x3"
  param {
    lr_mult: 1
    decay_mult: 1
  }
  param {
    lr_mult: 2
    decay_mult: 0
  }
  convolution_param {
    num_output: 208
    pad: 1
    kernel_size: 3
    weight_filler {
      type: "xavier"
      std: 0.03
    }
    bias_filler {
      type: "constant"
      value: 0.2
    }
  }
}
layer {
  name: "inception_4a/relu_3x3"
  type: "ReLU"
  bottom: "inception_4a/3x3"
  top: "inception_4a/3x3"
}
layer {
  name: "inception_4a/5x5_reduce"
  type: "Convolution"
  bottom: "pool3/3x3_s2"
  top: "inception_4a/5x5_reduce"
  param {
    lr_mult: 1
    decay_mult: 1
  }
  param {
    lr_mult: 2
    decay_mult: 0
  }
  convolution_param {
    num_output: 16
    kernel_size: 1
    weight_filler {
      type: "xavier"
      std: 0.2
    }
    bias_filler {
      type: "constant"
      value: 0.2
    }
  }
}
layer {
  name: "inception_4a/relu_5x5_reduce"
  type: "ReLU"
  bottom: "inception_4a/5x5_reduce"
  top: "inception_4a/5x5_reduce"
}
layer {
  name: "inception_4a/5x5"
  type: "Convolution"
  bottom: "inception_4a/5x5_reduce"
  top: "inception_4a/5x5"
  param {
    lr_mult: 1
    decay_mult: 1
  }
  param {
    lr_mult: 2
    decay_mult: 0
  }
  convolution_param {
    num_output: 48
    pad: 2
    kernel_size: 5
    weight_filler {
      type: "xavier"
      std: 0.03
    }
    bias_filler {
      type: "constant"
      value: 0.2
    }
  }
}
layer {
  name: "inception_4a/relu_5x5"
  type: "ReLU"
  bottom: "inception_4a/5x5"
  top: "inception_4a/5x5"
}
layer {
  name: "inception_4a/pool"
  type: "Pooling"
  bottom: "pool3/3x3_s2"
  top: "inception_4a/pool"
  pooling_param {
    pool: MAX
    kernel_size: 3
    stride: 1
    pad: 1
  }
}
layer {
  name: "inception_4a/pool_proj"
  type: "Convolution"
  bottom: "inception_4a/pool"
  top: "inception_4a/pool_proj"
  param {
    lr_mult: 1
    decay_mult: 1
  }
  param {
    lr_mult: 2
    decay_mult: 0
  }
  convolution_param {
    num_output: 64
    kernel_size: 1
    weight_filler {
      type: "xavier"
      std: 0.1
    }
    bias_filler {
      type: "constant"
      value: 0.2
    }
  }
}
layer {
  name: "inception_4a/relu_pool_proj"
  type: "ReLU"
  bottom: "inception_4a/pool_proj"
  top: "inception_4a/pool_proj"
}
layer {
  name: "inception_4a/output"
  type: "Concat"
  bottom: "inception_4a/1x1"
  bottom: "inception_4a/3x3"
  bottom: "inception_4a/5x5"
  bottom: "inception_4a/pool_proj"
  top: "inception_4a/output"
}
layer {
  name: "loss1/ave_pool"
  type: "Pooling"
  bottom: "inception_4a/output"
  top: "loss1/ave_pool"
  pooling_param {
    pool: AVE
    kernel_size: 5
    stride: 3
  }
}
layer {
  name: "loss1/conv"
  type: "Convolution"
  bottom: "loss1/ave_pool"
  top: "loss1/conv"
  param {
    lr_mult: 1
    decay_mult: 1
  }
  param {
    lr_mult: 2
    decay_mult: 0
  }
  convolution_param {
    num_output: 128
    kernel_size: 1
    weight_filler {
      type: "xavier"
      std: 0.08
    }
    bias_filler {
      type: "constant"
      value: 0.2
    }
  }
}
layer {
  name: "loss1/relu_conv"
  type: "ReLU"
  bottom: "loss1/conv"
  top: "loss1/conv"
}
layer {
  name: "loss1/fc"
  type: "InnerProduct"
  bottom: "loss1/conv"
  top: "loss1/fc"
  param {
    lr_mult: 1
    decay_mult: 1
  }
  param {
    lr_mult: 2
    decay_mult: 0
  }
  inner_product_param {
    num_output: 1024
    weight_filler {
      type: "xavier"
      std: 0.02
    }
    bias_filler {
      type: "constant"
      value: 0.2
    }
  }
}
layer {
  name: "loss1/relu_fc"
  type: "ReLU"
  bottom: "loss1/fc"
  top: "loss1/fc"
}
layer {
  name: "loss1/drop_fc"
  type: "Dropout"
  bottom: "loss1/fc"
  top: "loss1/fc"
  dropout_param {
    dropout_ratio: 0.7
  }
}
layer {
  name: "loss1/classifier_plantvillage"
  type: "InnerProduct"
  bottom: "loss1/fc"
  top: "loss1/classifier_plantvillage"
  param {
    lr_mult: 1
    decay_mult: 1
  }
  param {
    lr_mult: 2
    decay_mult: 0
  }
  inner_product_param {
    num_output: 38
    weight_filler {
      type: "xavier"
      std: 0.0009765625
    }
    bias_filler {
      type: "constant"
      value: 0
    }
  }
}
layer {
  name: "inception_4b/1x1"
  type: "Convolution"
  bottom: "inception_4a/output"
  top: "inception_4b/1x1"
  param {
    lr_mult: 1
    decay_mult: 1
  }
  param {
    lr_mult: 2
    decay_mult: 0
  }
  convolution_param {
    num_output: 160
    kernel_size: 1
    weight_filler {
      type: "xavier"
      std: 0.03
    }
    bias_filler {
      type: "constant"
      value: 0.2
    }
  }
}
layer {
  name: "inception_4b/relu_1x1"
  type: "ReLU"
  bottom: "inception_4b/1x1"
  top: "inception_4b/1x1"
}
layer {
  name: "inception_4b/3x3_reduce"
  type: "Convolution"
  bottom: "inception_4a/output"
  top: "inception_4b/3x3_reduce"
  param {
    lr_mult: 1
    decay_mult: 1
  }
  param {
    lr_mult: 2
    decay_mult: 0
  }
  convolution_param {
    num_output: 112
    kernel_size: 1
    weight_filler {
      type: "xavier"
      std: 0.09
    }
    bias_filler {
      type: "constant"
      value: 0.2
    }
  }
}
layer {
  name: "inception_4b/relu_3x3_reduce"
  type: "ReLU"
  bottom: "inception_4b/3x3_reduce"
  top: "inception_4b/3x3_reduce"
}
layer {
  name: "inception_4b/3x3"
  type: "Convolution"
  bottom: "inception_4b/3x3_reduce"
  top: "inception_4b/3x3"
  param {
    lr_mult: 1
    decay_mult: 1
  }
  param {
    lr_mult: 2
    decay_mult: 0
  }
  convolution_param {
    num_output: 224
    pad: 1
    kernel_size: 3
    weight_filler {
      type: "xavier"
      std: 0.03
    }
    bias_filler {
      type: "constant"
      value: 0.2
    }
  }
}
layer {
  name: "inception_4b/relu_3x3"
  type: "ReLU"
  bottom: "inception_4b/3x3"
  top: "inception_4b/3x3"
}
layer {
  name: "inception_4b/5x5_reduce"
  type: "Convolution"
  bottom: "inception_4a/output"
  top: "inception_4b/5x5_reduce"
  param {
    lr_mult: 1
    decay_mult: 1
  }
  param {
    lr_mult: 2
    decay_mult: 0
  }
  convolution_param {
    num_output: 24
    kernel_size: 1
    weight_filler {
      type: "xavier"
      std: 0.2
    }
    bias_filler {
      type: "constant"
      value: 0.2
    }
  }
}
layer {
  name: "inception_4b/relu_5x5_reduce"
  type: "ReLU"
  bottom: "inception_4b/5x5_reduce"
  top: "inception_4b/5x5_reduce"
}
layer {
  name: "inception_4b/5x5"
  type: "Convolution"
  bottom: "inception_4b/5x5_reduce"
  top: "inception_4b/5x5"
  param {
    lr_mult: 1
    decay_mult: 1
  }
  param {
    lr_mult: 2
    decay_mult: 0
  }
  convolution_param {
    num_output: 64
    pad: 2
    kernel_size: 5
    weight_filler {
      type: "xavier"
      std: 0.03
    }
    bias_filler {
      type: "constant"
      value: 0.2
    }
  }
}
layer {
  name: "inception_4b/relu_5x5"
  type: "ReLU"
  bottom: "inception_4b/5x5"
  top: "inception_4b/5x5"
}
layer {
  name: "inception_4b/pool"
  type: "Pooling"
  bottom: "inception_4a/output"
  top: "inception_4b/pool"
  pooling_param {
    pool: MAX
    kernel_size: 3
    stride: 1
    pad: 1
  }
}
layer {
  name: "inception_4b/pool_proj"
  type: "Convolution"
  bottom: "inception_4b/pool"
  top: "inception_4b/pool_proj"
  param {
    lr_mult: 1
    decay_mult: 1
  }
  param {
    lr_mult: 2
    decay_mult: 0
  }
  convolution_param {
    num_output: 64
    kernel_size: 1
    weight_filler {
      type: "xavier"
      std: 0.1
    }
    bias_filler {
      type: "constant"
      value: 0.2
    }
  }
}
layer {
  name: "inception_4b/relu_pool_proj"
  type: "ReLU"
  bottom: "inception_4b/pool_proj"
  top: "inception_4b/pool_proj"
}
layer {
  name: "inception_4b/output"
  type: "Concat"
  bottom: "inception_4b/1x1"
  bottom: "inception_4b/3x3"
  bottom: "inception_4b/5x5"
  bottom: "inception_4b/pool_proj"
  top: "inception_4b/output"
}
layer {
  name: "inception_4c/1x1"
  type: "Convolution"
  bottom: "inception_4b/output"
  top: "inception_4c/1x1"
  param {
    lr_mult: 1
    decay_mult: 1
  }
  param {
    lr_mult: 2
    decay_mult: 0
  }
  convolution_param {
    num_output: 128
    kernel_size: 1
    weight_filler {
      type: "xavier"
      std: 0.03
    }
    bias_filler {
      type: "constant"
      value: 0.2
    }
  }
}
layer {
  name: "inception_4c/relu_1x1"
  type: "ReLU"
  bottom: "inception_4c/1x1"
  top: "inception_4c/1x1"
}
layer {
  name: "inception_4c/3x3_reduce"
  type: "Convolution"
  bottom: "inception_4b/output"
  top: "inception_4c/3x3_reduce"
  param {
    lr_mult: 1
    decay_mult: 1
  }
  param {
    lr_mult: 2
    decay_mult: 0
  }
  convolution_param {
    num_output: 128
    kernel_size: 1
    weight_filler {
      type: "xavier"
      std: 0.09
    }
    bias_filler {
      type: "constant"
      value: 0.2
    }
  }
}
layer {
  name: "inception_4c/relu_3x3_reduce"
  type: "ReLU"
  bottom: "inception_4c/3x3_reduce"
  top: "inception_4c/3x3_reduce"
}
layer {
  name: "inception_4c/3x3"
  type: "Convolution"
  bottom: "inception_4c/3x3_reduce"
  top: "inception_4c/3x3"
  param {
    lr_mult: 1
    decay_mult: 1
  }
  param {
    lr_mult: 2
    decay_mult: 0
  }
  convolution_param {
    num_output: 256
    pad: 1
    kernel_size: 3
    weight_filler {
      type: "xavier"
      std: 0.03
    }
    bias_filler {
      type: "constant"
      value: 0.2
    }
  }
}
layer {
  name: "inception_4c/relu_3x3"
  type: "ReLU"
  bottom: "inception_4c/3x3"
  top: "inception_4c/3x3"
}
layer {
  name: "inception_4c/5x5_reduce"
  type: "Convolution"
  bottom: "inception_4b/output"
  top: "inception_4c/5x5_reduce"
  param {
    lr_mult: 1
    decay_mult: 1
  }
  param {
    lr_mult: 2
    decay_mult: 0
  }
  convolution_param {
    num_output: 24
    kernel_size: 1
    weight_filler {
      type: "xavier"
      std: 0.2
    }
    bias_filler {
      type: "constant"
      value: 0.2
    }
  }
}
layer {
  name: "inception_4c/relu_5x5_reduce"
  type: "ReLU"
  bottom: "inception_4c/5x5_reduce"
  top: "inception_4c/5x5_reduce"
}
layer {
  name: "inception_4c/5x5"
  type: "Convolution"
  bottom: "inception_4c/5x5_reduce"
  top: "inception_4c/5x5"
  param {
    lr_mult: 1
    decay_mult: 1
  }
  param {
    lr_mult: 2
    decay_mult: 0
  }
  convolution_param {
    num_output: 64
    pad: 2
    kernel_size: 5
    weight_filler {
      type: "xavier"
      std: 0.03
    }
    bias_filler {
      type: "constant"
      value: 0.2
    }
  }
}
layer {
  name: "inception_4c/relu_5x5"
  type: "ReLU"
  bottom: "inception_4c/5x5"
  top: "inception_4c/5x5"
}
layer {
  name: "inception_4c/pool"
  type: "Pooling"
  bottom: "inception_4b/output"
  top: "inception_4c/pool"
  pooling_param {
    pool: MAX
    kernel_size: 3
    stride: 1
    pad: 1
  }
}
layer {
  name: "inception_4c/pool_proj"
  type: "Convolution"
  bottom: "inception_4c/pool"
  top: "inception_4c/pool_proj"
  param {
    lr_mult: 1
    decay_mult: 1
  }
  param {
    lr_mult: 2
    decay_mult: 0
  }
  convolution_param {
    num_output: 64
    kernel_size: 1
    weight_filler {
      type: "xavier"
      std: 0.1
    }
    bias_filler {
      type: "constant"
      value: 0.2
    }
  }
}
layer {
  name: "inception_4c/relu_pool_proj"
  type: "ReLU"
  bottom: "inception_4c/pool_proj"
  top: "inception_4c/pool_proj"
}
layer {
  name: "inception_4c/output"
  type: "Concat"
  bottom: "inception_4c/1x1"
  bottom: "inception_4c/3x3"
  bottom: "inception_4c/5x5"
  bottom: "inception_4c/pool_proj"
  top: "inception_4c/output"
}
layer {
  name: "inception_4d/1x1"
  type: "Convolution"
  bottom: "inception_4c/output"
  top: "inception_4d/1x1"
  param {
    lr_mult: 1
    decay_mult: 1
  }
  param {
    lr_mult: 2
    decay_mult: 0
  }
  convolution_param {
    num_output: 112
    kernel_size: 1
    weight_filler {
      type: "xavier"
      std: 0.03
    }
    bias_filler {
      type: "constant"
      value: 0.2
    }
  }
}
layer {
  name: "inception_4d/relu_1x1"
  type: "ReLU"
  bottom: "inception_4d/1x1"
  top: "inception_4d/1x1"
}
layer {
  name: "inception_4d/3x3_reduce"
  type: "Convolution"
  bottom: "inception_4c/output"
  top: "inception_4d/3x3_reduce"
  param {
    lr_mult: 1
    decay_mult: 1
  }
  param {
    lr_mult: 2
    decay_mult: 0
  }
  convolution_param {
    num_output: 144
    kernel_size: 1
    weight_filler {
      type: "xavier"
      std: 0.09
    }
    bias_filler {
      type: "constant"
      value: 0.2
    }
  }
}
layer {
  name: "inception_4d/relu_3x3_reduce"
  type: "ReLU"
  bottom: "inception_4d/3x3_reduce"
  top: "inception_4d/3x3_reduce"
}
layer {
  name: "inception_4d/3x3"
  type: "Convolution"
  bottom: "inception_4d/3x3_reduce"
  top: "inception_4d/3x3"
  param {
    lr_mult: 1
    decay_mult: 1
  }
  param {
    lr_mult: 2
    decay_mult: 0
  }
  convolution_param {
    num_output: 288
    pad: 1
    kernel_size: 3
    weight_filler {
      type: "xavier"
      std: 0.03
    }
    bias_filler {
      type: "constant"
      value: 0.2
    }
  }
}
layer {
  name: "inception_4d/relu_3x3"
  type: "ReLU"
  bottom: "inception_4d/3x3"
  top: "inception_4d/3x3"
}
layer {
  name: "inception_4d/5x5_reduce"
  type: "Convolution"
  bottom: "inception_4c/output"
  top: "inception_4d/5x5_reduce"
  param {
    lr_mult: 1
    decay_mult: 1
  }
  param {
    lr_mult: 2
    decay_mult: 0
  }
  convolution_param {
    num_output: 32
    kernel_size: 1
    weight_filler {
      type: "xavier"
      std: 0.2
    }
    bias_filler {
      type: "constant"
      value: 0.2
    }
  }
}
layer {
  name: "inception_4d/relu_5x5_reduce"
  type: "ReLU"
  bottom: "inception_4d/5x5_reduce"
  top: "inception_4d/5x5_reduce"
}
layer {
  name: "inception_4d/5x5"
  type: "Convolution"
  bottom: "inception_4d/5x5_reduce"
  top: "inception_4d/5x5"
  param {
    lr_mult: 1
    decay_mult: 1
  }
  param {
    lr_mult: 2
    decay_mult: 0
  }
  convolution_param {
    num_output: 64
    pad: 2
    kernel_size: 5
    weight_filler {
      type: "xavier"
      std: 0.03
    }
    bias_filler {
      type: "constant"
      value: 0.2
    }
  }
}
layer {
  name: "inception_4d/relu_5x5"
  type: "ReLU"
  bottom: "inception_4d/5x5"
  top: "inception_4d/5x5"
}
layer {
  name: "inception_4d/pool"
  type: "Pooling"
  bottom: "inception_4c/output"
  top: "inception_4d/pool"
  pooling_param {
    pool: MAX
    kernel_size: 3
    stride: 1
    pad: 1
  }
}
layer {
  name: "inception_4d/pool_proj"
  type: "Convolution"
  bottom: "inception_4d/pool"
  top: "inception_4d/pool_proj"
  param {
    lr_mult: 1
    decay_mult: 1
  }
  param {
    lr_mult: 2
    decay_mult: 0
  }
  convolution_param {
    num_output: 64
    kernel_size: 1
    weight_filler {
      type: "xavier"
      std: 0.1
    }
    bias_filler {
      type: "constant"
      value: 0.2
    }
  }
}
layer {
  name: "inception_4d/relu_pool_proj"
  type: "ReLU"
  bottom: "inception_4d/pool_proj"
  top: "inception_4d/pool_proj"
}
layer {
  name: "inception_4d/output"
  type: "Concat"
  bottom: "inception_4d/1x1"
  bottom: "inception_4d/3x3"
  bottom: "inception_4d/5x5"
  bottom: "inception_4d/pool_proj"
  top: "inception_4d/output"
}
layer {
  name: "loss2/ave_pool"
  type: "Pooling"
  bottom: "inception_4d/output"
  top: "loss2/ave_pool"
  pooling_param {
    pool: AVE
    kernel_size: 5
    stride: 3
  }
}
layer {
  name: "loss2/conv"
  type: "Convolution"
  bottom: "loss2/ave_pool"
  top: "loss2/conv"
  param {
    lr_mult: 1
    decay_mult: 1
  }
  param {
    lr_mult: 2
    decay_mult: 0
  }
  convolution_param {
    num_output: 128
    kernel_size: 1
    weight_filler {
      type: "xavier"
      std: 0.08
    }
    bias_filler {
      type: "constant"
      value: 0.2
    }
  }
}
layer {
  name: "loss2/relu_conv"
  type: "ReLU"
  bottom: "loss2/conv"
  top: "loss2/conv"
}
layer {
  name: "loss2/fc"
  type: "InnerProduct"
  bottom: "loss2/conv"
  top: "loss2/fc"
  param {
    lr_mult: 1
    decay_mult: 1
  }
  param {
    lr_mult: 2
    decay_mult: 0
  }
  inner_product_param {
    num_output: 1024
    weight_filler {
      type: "xavier"
      std: 0.02
    }
    bias_filler {
      type: "constant"
      value: 0.2
    }
  }
}
layer {
  name: "loss2/relu_fc"
  type: "ReLU"
  bottom: "loss2/fc"
  top: "loss2/fc"
}
layer {
  name: "loss2/drop_fc"
  type: "Dropout"
  bottom: "loss2/fc"
  top: "loss2/fc"
  dropout_param {
    dropout_ratio: 0.7
  }
}
layer {
  name: "loss2/classifier_plantvillage"
  type: "InnerProduct"
  bottom: "loss2/fc"
  top: "loss2/classifier_plantvillage"
  param {
    lr_mult: 1
    decay_mult: 1
  }
  param {
    lr_mult: 2
    decay_mult: 0
  }
  inner_product_param {
    num_output: 38
    weight_filler {
      type: "xavier"
      std: 0.0009765625
    }
    bias_filler {
      type: "constant"
      value: 0
    }
  }
}
layer {
  name: "inception_4e/1x1"
  type: "Convolution"
  bottom: "inception_4d/output"
  top: "inception_4e/1x1"
  param {
    lr_mult: 1
    decay_mult: 1
  }
  param {
    lr_mult: 2
    decay_mult: 0
  }
  convolution_param {
    num_output: 256
    kernel_size: 1
    weight_filler {
      type: "xavier"
      std: 0.03
    }
    bias_filler {
      type: "constant"
      value: 0.2
    }
  }
}
layer {
  name: "inception_4e/relu_1x1"
  type: "ReLU"
  bottom: "inception_4e/1x1"
  top: "inception_4e/1x1"
}
layer {
  name: "inception_4e/3x3_reduce"
  type: "Convolution"
  bottom: "inception_4d/output"
  top: "inception_4e/3x3_reduce"
  param {
    lr_mult: 1
    decay_mult: 1
  }
  param {
    lr_mult: 2
    decay_mult: 0
  }
  convolution_param {
    num_output: 160
    kernel_size: 1
    weight_filler {
      type: "xavier"
      std: 0.09
    }
    bias_filler {
      type: "constant"
      value: 0.2
    }
  }
}
layer {
  name: "inception_4e/relu_3x3_reduce"
  type: "ReLU"
  bottom: "inception_4e/3x3_reduce"
  top: "inception_4e/3x3_reduce"
}
layer {
  name: "inception_4e/3x3"
  type: "Convolution"
  bottom: "inception_4e/3x3_reduce"
  top: "inception_4e/3x3"
  param {
    lr_mult: 1
    decay_mult: 1
  }
  param {
    lr_mult: 2
    decay_mult: 0
  }
  convolution_param {
    num_output: 320
    pad: 1
    kernel_size: 3
    weight_filler {
      type: "xavier"
      std: 0.03
    }
    bias_filler {
      type: "constant"
      value: 0.2
    }
  }
}
layer {
  name: "inception_4e/relu_3x3"
  type: "ReLU"
  bottom: "inception_4e/3x3"
  top: "inception_4e/3x3"
}
layer {
  name: "inception_4e/5x5_reduce"
  type: "Convolution"
  bottom: "inception_4d/output"
  top: "inception_4e/5x5_reduce"
  param {
    lr_mult: 1
    decay_mult: 1
  }
  param {
    lr_mult: 2
    decay_mult: 0
  }
  convolution_param {
    num_output: 32
    kernel_size: 1
    weight_filler {
      type: "xavier"
      std: 0.2
    }
    bias_filler {
      type: "constant"
      value: 0.2
    }
  }
}
layer {
  name: "inception_4e/relu_5x5_reduce"
  type: "ReLU"
  bottom: "inception_4e/5x5_reduce"
  top: "inception_4e/5x5_reduce"
}
layer {
  name: "inception_4e/5x5"
  type: "Convolution"
  bottom: "inception_4e/5x5_reduce"
  top: "inception_4e/
I0403 15:02:23.365180 30930 layer_factory.hpp:77] Creating layer data
I0403 15:02:23.365815 30930 net.cpp:91] Creating Layer data
I0403 15:02:23.365845 30930 net.cpp:399] data -> data
I0403 15:02:23.365901 30930 net.cpp:399] data -> label
I0403 15:02:23.365939 30930 data_transformer.cpp:25] Loading mean file from: /home/mohanty/data/final_dataset/lmdb/grayscale-80-20/mean.binaryproto
I0403 15:02:23.377642 30933 db_lmdb.cpp:38] Opened lmdb /home/mohanty/data/final_dataset/lmdb/grayscale-80-20/test_db
I0403 15:02:23.383677 30930 data_layer.cpp:41] output data size: 24,3,224,224
I0403 15:02:23.410998 30930 net.cpp:141] Setting up data
I0403 15:02:23.411078 30930 net.cpp:148] Top shape: 24 3 224 224 (3612672)
I0403 15:02:23.411103 30930 net.cpp:148] Top shape: 24 (24)
I0403 15:02:23.411118 30930 net.cpp:156] Memory required for data: 14450784
I0403 15:02:23.411149 30930 layer_factory.hpp:77] Creating layer label_data_1_split
I0403 15:02:23.411180 30930 net.cpp:91] Creating Layer label_data_1_split
I0403 15:02:23.411201 30930 net.cpp:425] label_data_1_split <- label
I0403 15:02:23.411237 30930 net.cpp:399] label_data_1_split -> label_data_1_split_0
I0403 15:02:23.411279 30930 net.cpp:399] label_data_1_split -> label_data_1_split_1
I0403 15:02:23.411303 30930 net.cpp:399] label_data_1_split -> label_data_1_split_2
I0403 15:02:23.411325 30930 net.cpp:399] label_data_1_split -> label_data_1_split_3
I0403 15:02:23.411346 30930 net.cpp:399] label_data_1_split -> label_data_1_split_4
I0403 15:02:23.411367 30930 net.cpp:399] label_data_1_split -> label_data_1_split_5
I0403 15:02:23.411388 30930 net.cpp:399] label_data_1_split -> label_data_1_split_6
I0403 15:02:23.411409 30930 net.cpp:399] label_data_1_split -> label_data_1_split_7
I0403 15:02:23.411429 30930 net.cpp:399] label_data_1_split -> label_data_1_split_8
I0403 15:02:23.411451 30930 net.cpp:399] label_data_1_split -> label_data_1_split_9
I0403 15:02:23.411588 30930 net.cpp:141] Setting up label_data_1_split
I0403 15:02:23.411614 30930 net.cpp:148] Top shape: 24 (24)
I0403 15:02:23.411633 30930 net.cpp:148] Top shape: 24 (24)
I0403 15:02:23.411648 30930 net.cpp:148] Top shape: 24 (24)
I0403 15:02:23.411664 30930 net.cpp:148] Top shape: 24 (24)
I0403 15:02:23.411679 30930 net.cpp:148] Top shape: 24 (24)
I0403 15:02:23.411695 30930 net.cpp:148] Top shape: 24 (24)
I0403 15:02:23.411711 30930 net.cpp:148] Top shape: 24 (24)
I0403 15:02:23.411728 30930 net.cpp:148] Top shape: 24 (24)
I0403 15:02:23.411746 30930 net.cpp:148] Top shape: 24 (24)
I0403 15:02:23.411761 30930 net.cpp:148] Top shape: 24 (24)
I0403 15:02:23.411811 30930 net.cpp:156] Memory required for data: 14451744
I0403 15:02:23.411828 30930 layer_factory.hpp:77] Creating layer conv1/7x7_s2
I0403 15:02:23.411865 30930 net.cpp:91] Creating Layer conv1/7x7_s2
I0403 15:02:23.411885 30930 net.cpp:425] conv1/7x7_s2 <- data
I0403 15:02:23.411905 30930 net.cpp:399] conv1/7x7_s2 -> conv1/7x7_s2
I0403 15:02:23.554769 30930 net.cpp:141] Setting up conv1/7x7_s2
I0403 15:02:23.554836 30930 net.cpp:148] Top shape: 24 64 112 112 (19267584)
I0403 15:02:23.554852 30930 net.cpp:156] Memory required for data: 91522080
I0403 15:02:23.554886 30930 layer_factory.hpp:77] Creating layer conv1/relu_7x7
I0403 15:02:23.554914 30930 net.cpp:91] Creating Layer conv1/relu_7x7
I0403 15:02:23.554932 30930 net.cpp:425] conv1/relu_7x7 <- conv1/7x7_s2
I0403 15:02:23.554951 30930 net.cpp:386] conv1/relu_7x7 -> conv1/7x7_s2 (in-place)
I0403 15:02:23.555212 30930 net.cpp:141] Setting up conv1/relu_7x7
I0403 15:02:23.555238 30930 net.cpp:148] Top shape: 24 64 112 112 (19267584)
I0403 15:02:23.555253 30930 net.cpp:156] Memory required for data: 168592416
I0403 15:02:23.555269 30930 layer_factory.hpp:77] Creating layer pool1/3x3_s2
I0403 15:02:23.555323 30930 net.cpp:91] Creating Layer pool1/3x3_s2
I0403 15:02:23.555343 30930 net.cpp:425] pool1/3x3_s2 <- conv1/7x7_s2
I0403 15:02:23.555361 30930 net.cpp:399] pool1/3x3_s2 -> pool1/3x3_s2
I0403 15:02:23.555438 30930 net.cpp:141] Setting up pool1/3x3_s2
I0403 15:02:23.555461 30930 net.cpp:148] Top shape: 24 64 56 56 (4816896)
I0403 15:02:23.555476 30930 net.cpp:156] Memory required for data: 187860000
I0403 15:02:23.555490 30930 layer_factory.hpp:77] Creating layer pool1/norm1
I0403 15:02:23.555516 30930 net.cpp:91] Creating Layer pool1/norm1
I0403 15:02:23.555531 30930 net.cpp:425] pool1/norm1 <- pool1/3x3_s2
I0403 15:02:23.555553 30930 net.cpp:399] pool1/norm1 -> pool1/norm1
I0403 15:02:23.555845 30930 net.cpp:141] Setting up pool1/norm1
I0403 15:02:23.555871 30930 net.cpp:148] Top shape: 24 64 56 56 (4816896)
I0403 15:02:23.555886 30930 net.cpp:156] Memory required for data: 207127584
I0403 15:02:23.555902 30930 layer_factory.hpp:77] Creating layer conv2/3x3_reduce
I0403 15:02:23.555927 30930 net.cpp:91] Creating Layer conv2/3x3_reduce
I0403 15:02:23.555943 30930 net.cpp:425] conv2/3x3_reduce <- pool1/norm1
I0403 15:02:23.555959 30930 net.cpp:399] conv2/3x3_reduce -> conv2/3x3_reduce
I0403 15:02:23.557327 30930 net.cpp:141] Setting up conv2/3x3_reduce
I0403 15:02:23.557358 30930 net.cpp:148] Top shape: 24 64 56 56 (4816896)
I0403 15:02:23.557374 30930 net.cpp:156] Memory required for data: 226395168
I0403 15:02:23.557395 30930 layer_factory.hpp:77] Creating layer conv2/relu_3x3_reduce
I0403 15:02:23.557415 30930 net.cpp:91] Creating Layer conv2/relu_3x3_reduce
I0403 15:02:23.557430 30930 net.cpp:425] conv2/relu_3x3_reduce <- conv2/3x3_reduce
I0403 15:02:23.557448 30930 net.cpp:386] conv2/relu_3x3_reduce -> conv2/3x3_reduce (in-place)
I0403 15:02:23.557718 30930 net.cpp:141] Setting up conv2/relu_3x3_reduce
I0403 15:02:23.557744 30930 net.cpp:148] Top shape: 24 64 56 56 (4816896)
I0403 15:02:23.557759 30930 net.cpp:156] Memory required for data: 245662752
I0403 15:02:23.557773 30930 layer_factory.hpp:77] Creating layer conv2/3x3
I0403 15:02:23.557795 30930 net.cpp:91] Creating Layer conv2/3x3
I0403 15:02:23.557811 30930 net.cpp:425] conv2/3x3 <- conv2/3x3_reduce
I0403 15:02:23.557829 30930 net.cpp:399] conv2/3x3 -> conv2/3x3
I0403 15:02:23.560078 30930 net.cpp:141] Setting up conv2/3x3
I0403 15:02:23.560111 30930 net.cpp:148] Top shape: 24 192 56 56 (14450688)
I0403 15:02:23.560127 30930 net.cpp:156] Memory required for data: 303465504
I0403 15:02:23.560149 30930 layer_factory.hpp:77] Creating layer conv2/relu_3x3
I0403 15:02:23.560168 30930 net.cpp:91] Creating Layer conv2/relu_3x3
I0403 15:02:23.560184 30930 net.cpp:425] conv2/relu_3x3 <- conv2/3x3
I0403 15:02:23.560202 30930 net.cpp:386] conv2/relu_3x3 -> conv2/3x3 (in-place)
I0403 15:02:23.560360 30930 net.cpp:141] Setting up conv2/relu_3x3
I0403 15:02:23.560385 30930 net.cpp:148] Top shape: 24 192 56 56 (14450688)
I0403 15:02:23.560433 30930 net.cpp:156] Memory required for data: 361268256
I0403 15:02:23.560449 30930 layer_factory.hpp:77] Creating layer conv2/norm2
I0403 15:02:23.560468 30930 net.cpp:91] Creating Layer conv2/norm2
I0403 15:02:23.560484 30930 net.cpp:425] conv2/norm2 <- conv2/3x3
I0403 15:02:23.560502 30930 net.cpp:399] conv2/norm2 -> conv2/norm2
I0403 15:02:23.560786 30930 net.cpp:141] Setting up conv2/norm2
I0403 15:02:23.560813 30930 net.cpp:148] Top shape: 24 192 56 56 (14450688)
I0403 15:02:23.560828 30930 net.cpp:156] Memory required for data: 419071008
I0403 15:02:23.560842 30930 layer_factory.hpp:77] Creating layer pool2/3x3_s2
I0403 15:02:23.560861 30930 net.cpp:91] Creating Layer pool2/3x3_s2
I0403 15:02:23.560876 30930 net.cpp:425] pool2/3x3_s2 <- conv2/norm2
I0403 15:02:23.560894 30930 net.cpp:399] pool2/3x3_s2 -> pool2/3x3_s2
I0403 15:02:23.560941 30930 net.cpp:141] Setting up pool2/3x3_s2
I0403 15:02:23.560963 30930 net.cpp:148] Top shape: 24 192 28 28 (3612672)
I0403 15:02:23.560977 30930 net.cpp:156] Memory required for data: 433521696
I0403 15:02:23.560992 30930 layer_factory.hpp:77] Creating layer pool2/3x3_s2_pool2/3x3_s2_0_split
I0403 15:02:23.561008 30930 net.cpp:91] Creating Layer pool2/3x3_s2_pool2/3x3_s2_0_split
I0403 15:02:23.561023 30930 net.cpp:425] pool2/3x3_s2_pool2/3x3_s2_0_split <- pool2/3x3_s2
I0403 15:02:23.561040 30930 net.cpp:399] pool2/3x3_s2_pool2/3x3_s2_0_split -> pool2/3x3_s2_pool2/3x3_s2_0_split_0
I0403 15:02:23.561059 30930 net.cpp:399] pool2/3x3_s2_pool2/3x3_s2_0_split -> pool2/3x3_s2_pool2/3x3_s2_0_split_1
I0403 15:02:23.561079 30930 net.cpp:399] pool2/3x3_s2_pool2/3x3_s2_0_split -> pool2/3x3_s2_pool2/3x3_s2_0_split_2
I0403 15:02:23.561097 30930 net.cpp:399] pool2/3x3_s2_pool2/3x3_s2_0_split -> pool2/3x3_s2_pool2/3x3_s2_0_split_3
I0403 15:02:23.561161 30930 net.cpp:141] Setting up pool2/3x3_s2_pool2/3x3_s2_0_split
I0403 15:02:23.561182 30930 net.cpp:148] Top shape: 24 192 28 28 (3612672)
I0403 15:02:23.561198 30930 net.cpp:148] Top shape: 24 192 28 28 (3612672)
I0403 15:02:23.561214 30930 net.cpp:148] Top shape: 24 192 28 28 (3612672)
I0403 15:02:23.561229 30930 net.cpp:148] Top shape: 24 192 28 28 (3612672)
I0403 15:02:23.561251 30930 net.cpp:156] Memory required for data: 491324448
I0403 15:02:23.561269 30930 layer_factory.hpp:77] Creating layer inception_3a/1x1
I0403 15:02:23.561301 30930 net.cpp:91] Creating Layer inception_3a/1x1
I0403 15:02:23.561317 30930 net.cpp:425] inception_3a/1x1 <- pool2/3x3_s2_pool2/3x3_s2_0_split_0
I0403 15:02:23.561336 30930 net.cpp:399] inception_3a/1x1 -> inception_3a/1x1
I0403 15:02:23.562860 30930 net.cpp:141] Setting up inception_3a/1x1
I0403 15:02:23.562888 30930 net.cpp:148] Top shape: 24 64 28 28 (1204224)
I0403 15:02:23.562904 30930 net.cpp:156] Memory required for data: 496141344
I0403 15:02:23.562922 30930 layer_factory.hpp:77] Creating layer inception_3a/relu_1x1
I0403 15:02:23.562942 30930 net.cpp:91] Creating Layer inception_3a/relu_1x1
I0403 15:02:23.562959 30930 net.cpp:425] inception_3a/relu_1x1 <- inception_3a/1x1
I0403 15:02:23.562976 30930 net.cpp:386] inception_3a/relu_1x1 -> inception_3a/1x1 (in-place)
I0403 15:02:23.563149 30930 net.cpp:141] Setting up inception_3a/relu_1x1
I0403 15:02:23.563175 30930 net.cpp:148] Top shape: 24 64 28 28 (1204224)
I0403 15:02:23.563190 30930 net.cpp:156] Memory required for data: 500958240
I0403 15:02:23.563205 30930 layer_factory.hpp:77] Creating layer inception_3a/3x3_reduce
I0403 15:02:23.563227 30930 net.cpp:91] Creating Layer inception_3a/3x3_reduce
I0403 15:02:23.563244 30930 net.cpp:425] inception_3a/3x3_reduce <- pool2/3x3_s2_pool2/3x3_s2_0_split_1
I0403 15:02:23.563262 30930 net.cpp:399] inception_3a/3x3_reduce -> inception_3a/3x3_reduce
I0403 15:02:23.564947 30930 net.cpp:141] Setting up inception_3a/3x3_reduce
I0403 15:02:23.564977 30930 net.cpp:148] Top shape: 24 96 28 28 (1806336)
I0403 15:02:23.564992 30930 net.cpp:156] Memory required for data: 508183584
I0403 15:02:23.565013 30930 layer_factory.hpp:77] Creating layer inception_3a/relu_3x3_reduce
I0403 15:02:23.565049 30930 net.cpp:91] Creating Layer inception_3a/relu_3x3_reduce
I0403 15:02:23.565068 30930 net.cpp:425] inception_3a/relu_3x3_reduce <- inception_3a/3x3_reduce
I0403 15:02:23.565088 30930 net.cpp:386] inception_3a/relu_3x3_reduce -> inception_3a/3x3_reduce (in-place)
I0403 15:02:23.565266 30930 net.cpp:141] Setting up inception_3a/relu_3x3_reduce
I0403 15:02:23.565291 30930 net.cpp:148] Top shape: 24 96 28 28 (1806336)
I0403 15:02:23.565306 30930 net.cpp:156] Memory required for data: 515408928
I0403 15:02:23.565320 30930 layer_factory.hpp:77] Creating layer inception_3a/3x3
I0403 15:02:23.565343 30930 net.cpp:91] Creating Layer inception_3a/3x3
I0403 15:02:23.565361 30930 net.cpp:425] inception_3a/3x3 <- inception_3a/3x3_reduce
I0403 15:02:23.565382 30930 net.cpp:399] inception_3a/3x3 -> inception_3a/3x3
I0403 15:02:23.567047 30930 net.cpp:141] Setting up inception_3a/3x3
I0403 15:02:23.567078 30930 net.cpp:148] Top shape: 24 128 28 28 (2408448)
I0403 15:02:23.567095 30930 net.cpp:156] Memory required for data: 525042720
I0403 15:02:23.567112 30930 layer_factory.hpp:77] Creating layer inception_3a/relu_3x3
I0403 15:02:23.567131 30930 net.cpp:91] Creating Layer inception_3a/relu_3x3
I0403 15:02:23.567145 30930 net.cpp:425] inception_3a/relu_3x3 <- inception_3a/3x3
I0403 15:02:23.567162 30930 net.cpp:386] inception_3a/relu_3x3 -> inception_3a/3x3 (in-place)
I0403 15:02:23.567433 30930 net.cpp:141] Setting up inception_3a/relu_3x3
I0403 15:02:23.567461 30930 net.cpp:148] Top shape: 24 128 28 28 (2408448)
I0403 15:02:23.567476 30930 net.cpp:156] Memory required for data: 534676512
I0403 15:02:23.567492 30930 layer_factory.hpp:77] Creating layer inception_3a/5x5_reduce
I0403 15:02:23.567513 30930 net.cpp:91] Creating Layer inception_3a/5x5_reduce
I0403 15:02:23.567530 30930 net.cpp:425] inception_3a/5x5_reduce <- pool2/3x3_s2_pool2/3x3_s2_0_split_2
I0403 15:02:23.567553 30930 net.cpp:399] inception_3a/5x5_reduce -> inception_3a/5x5_reduce
I0403 15:02:23.568506 30930 net.cpp:141] Setting up inception_3a/5x5_reduce
I0403 15:02:23.568539 30930 net.cpp:148] Top shape: 24 16 28 28 (301056)
I0403 15:02:23.568557 30930 net.cpp:156] Memory required for data: 535880736
I0403 15:02:23.568577 30930 layer_factory.hpp:77] Creating layer inception_3a/relu_5x5_reduce
I0403 15:02:23.568594 30930 net.cpp:91] Creating Layer inception_3a/relu_5x5_reduce
I0403 15:02:23.568609 30930 net.cpp:425] inception_3a/relu_5x5_reduce <- inception_3a/5x5_reduce
I0403 15:02:23.568630 30930 net.cpp:386] inception_3a/relu_5x5_reduce -> inception_3a/5x5_reduce (in-place)
I0403 15:02:23.568930 30930 net.cpp:141] Setting up inception_3a/relu_5x5_reduce
I0403 15:02:23.568956 30930 net.cpp:148] Top shape: 24 16 28 28 (301056)
I0403 15:02:23.568971 30930 net.cpp:156] Memory required for data: 537084960
I0403 15:02:23.568986 30930 layer_factory.hpp:77] Creating layer inception_3a/5x5
I0403 15:02:23.569008 30930 net.cpp:91] Creating Layer inception_3a/5x5
I0403 15:02:23.569025 30930 net.cpp:425] inception_3a/5x5 <- inception_3a/5x5_reduce
I0403 15:02:23.569046 30930 net.cpp:399] inception_3a/5x5 -> inception_3a/5x5
I0403 15:02:23.570065 30930 net.cpp:141] Setting up inception_3a/5x5
I0403 15:02:23.570091 30930 net.cpp:148] Top shape: 24 32 28 28 (602112)
I0403 15:02:23.570106 30930 net.cpp:156] Memory required for data: 539493408
I0403 15:02:23.570125 30930 layer_factory.hpp:77] Creating layer inception_3a/relu_5x5
I0403 15:02:23.570147 30930 net.cpp:91] Creating Layer inception_3a/relu_5x5
I0403 15:02:23.570163 30930 net.cpp:425] inception_3a/relu_5x5 <- inception_3a/5x5
I0403 15:02:23.570178 30930 net.cpp:386] inception_3a/relu_5x5 -> inception_3a/5x5 (in-place)
I0403 15:02:23.570348 30930 net.cpp:141] Setting up inception_3a/relu_5x5
I0403 15:02:23.570375 30930 net.cpp:148] Top shape: 24 32 28 28 (602112)
I0403 15:02:23.570390 30930 net.cpp:156] Memory required for data: 541901856
I0403 15:02:23.570405 30930 layer_factory.hpp:77] Creating layer inception_3a/pool
I0403 15:02:23.570422 30930 net.cpp:91] Creating Layer inception_3a/pool
I0403 15:02:23.570452 30930 net.cpp:425] inception_3a/pool <- pool2/3x3_s2_pool2/3x3_s2_0_split_3
I0403 15:02:23.570473 30930 net.cpp:399] inception_3a/pool -> inception_3a/pool
I0403 15:02:23.570530 30930 net.cpp:141] Setting up inception_3a/pool
I0403 15:02:23.570557 30930 net.cpp:148] Top shape: 24 192 28 28 (3612672)
I0403 15:02:23.570574 30930 net.cpp:156] Memory required for data: 556352544
I0403 15:02:23.570588 30930 layer_factory.hpp:77] Creating layer inception_3a/pool_proj
I0403 15:02:23.570612 30930 net.cpp:91] Creating Layer inception_3a/pool_proj
I0403 15:02:23.570629 30930 net.cpp:425] inception_3a/pool_proj <- inception_3a/pool
I0403 15:02:23.570650 30930 net.cpp:399] inception_3a/pool_proj -> inception_3a/pool_proj
I0403 15:02:23.571646 30930 net.cpp:141] Setting up inception_3a/pool_proj
I0403 15:02:23.571674 30930 net.cpp:148] Top shape: 24 32 28 28 (602112)
I0403 15:02:23.571689 30930 net.cpp:156] Memory required for data: 558760992
I0403 15:02:23.571713 30930 layer_factory.hpp:77] Creating layer inception_3a/relu_pool_proj
I0403 15:02:23.571732 30930 net.cpp:91] Creating Layer inception_3a/relu_pool_proj
I0403 15:02:23.571748 30930 net.cpp:425] inception_3a/relu_pool_proj <- inception_3a/pool_proj
I0403 15:02:23.571765 30930 net.cpp:386] inception_3a/relu_pool_proj -> inception_3a/pool_proj (in-place)
I0403 15:02:23.572034 30930 net.cpp:141] Setting up inception_3a/relu_pool_proj
I0403 15:02:23.572062 30930 net.cpp:148] Top shape: 24 32 28 28 (602112)
I0403 15:02:23.572077 30930 net.cpp:156] Memory required for data: 561169440
I0403 15:02:23.572093 30930 layer_factory.hpp:77] Creating layer inception_3a/output
I0403 15:02:23.572110 30930 net.cpp:91] Creating Layer inception_3a/output
I0403 15:02:23.572125 30930 net.cpp:425] inception_3a/output <- inception_3a/1x1
I0403 15:02:23.572142 30930 net.cpp:425] inception_3a/output <- inception_3a/3x3
I0403 15:02:23.572157 30930 net.cpp:425] inception_3a/output <- inception_3a/5x5
I0403 15:02:23.572173 30930 net.cpp:425] inception_3a/output <- inception_3a/pool_proj
I0403 15:02:23.572190 30930 net.cpp:399] inception_3a/output -> inception_3a/output
I0403 15:02:23.572239 30930 net.cpp:141] Setting up inception_3a/output
I0403 15:02:23.572263 30930 net.cpp:148] Top shape: 24 256 28 28 (4816896)
I0403 15:02:23.572276 30930 net.cpp:156] Memory required for data: 580437024
I0403 15:02:23.572291 30930 layer_factory.hpp:77] Creating layer inception_3a/output_inception_3a/output_0_split
I0403 15:02:23.572309 30930 net.cpp:91] Creating Layer inception_3a/output_inception_3a/output_0_split
I0403 15:02:23.572326 30930 net.cpp:425] inception_3a/output_inception_3a/output_0_split <- inception_3a/output
I0403 15:02:23.572345 30930 net.cpp:399] inception_3a/output_inception_3a/output_0_split -> inception_3a/output_inception_3a/output_0_split_0
I0403 15:02:23.572363 30930 net.cpp:399] inception_3a/output_inception_3a/output_0_split -> inception_3a/output_inception_3a/output_0_split_1
I0403 15:02:23.572387 30930 net.cpp:399] inception_3a/output_inception_3a/output_0_split -> inception_3a/output_inception_3a/output_0_split_2
I0403 15:02:23.572409 30930 net.cpp:399] inception_3a/output_inception_3a/output_0_split -> inception_3a/output_inception_3a/output_0_split_3
I0403 15:02:23.572484 30930 net.cpp:141] Setting up inception_3a/output_inception_3a/output_0_split
I0403 15:02:23.572505 30930 net.cpp:148] Top shape: 24 256 28 28 (4816896)
I0403 15:02:23.572521 30930 net.cpp:148] Top shape: 24 256 28 28 (4816896)
I0403 15:02:23.572541 30930 net.cpp:148] Top shape: 24 256 28 28 (4816896)
I0403 15:02:23.572557 30930 net.cpp:148] Top shape: 24 256 28 28 (4816896)
I0403 15:02:23.572572 30930 net.cpp:156] Memory required for data: 657507360
I0403 15:02:23.572587 30930 layer_factory.hpp:77] Creating layer inception_3b/1x1
I0403 15:02:23.572608 30930 net.cpp:91] Creating Layer inception_3b/1x1
I0403 15:02:23.572625 30930 net.cpp:425] inception_3b/1x1 <- inception_3a/output_inception_3a/output_0_split_0
I0403 15:02:23.572646 30930 net.cpp:399] inception_3b/1x1 -> inception_3b/1x1
I0403 15:02:23.573768 30930 net.cpp:141] Setting up inception_3b/1x1
I0403 15:02:23.573807 30930 net.cpp:148] Top shape: 24 128 28 28 (2408448)
I0403 15:02:23.573823 30930 net.cpp:156] Memory required for data: 667141152
I0403 15:02:23.573842 30930 layer_factory.hpp:77] Creating layer inception_3b/relu_1x1
I0403 15:02:23.573861 30930 net.cpp:91] Creating Layer inception_3b/relu_1x1
I0403 15:02:23.573879 30930 net.cpp:425] inception_3b/relu_1x1 <- inception_3b/1x1
I0403 15:02:23.573895 30930 net.cpp:386] inception_3b/relu_1x1 -> inception_3b/1x1 (in-place)
I0403 15:02:23.574065 30930 net.cpp:141] Setting up inception_3b/relu_1x1
I0403 15:02:23.574095 30930 net.cpp:148] Top shape: 24 128 28 28 (2408448)
I0403 15:02:23.574110 30930 net.cpp:156] Memory required for data: 676774944
I0403 15:02:23.574125 30930 layer_factory.hpp:77] Creating layer inception_3b/3x3_reduce
I0403 15:02:23.574147 30930 net.cpp:91] Creating Layer inception_3b/3x3_reduce
I0403 15:02:23.574164 30930 net.cpp:425] inception_3b/3x3_reduce <- inception_3a/output_inception_3a/output_0_split_1
I0403 15:02:23.574183 30930 net.cpp:399] inception_3b/3x3_reduce -> inception_3b/3x3_reduce
I0403 15:02:23.575309 30930 net.cpp:141] Setting up inception_3b/3x3_reduce
I0403 15:02:23.575336 30930 net.cpp:148] Top shape: 24 128 28 28 (2408448)
I0403 15:02:23.575352 30930 net.cpp:156] Memory required for data: 686408736
I0403 15:02:23.575369 30930 layer_factory.hpp:77] Creating layer inception_3b/relu_3x3_reduce
I0403 15:02:23.575389 30930 net.cpp:91] Creating Layer inception_3b/relu_3x3_reduce
I0403 15:02:23.575407 30930 net.cpp:425] inception_3b/relu_3x3_reduce <- inception_3b/3x3_reduce
I0403 15:02:23.575423 30930 net.cpp:386] inception_3b/relu_3x3_reduce -> inception_3b/3x3_reduce (in-place)
I0403 15:02:23.575598 30930 net.cpp:141] Setting up inception_3b/relu_3x3_reduce
I0403 15:02:23.575623 30930 net.cpp:148] Top shape: 24 128 28 28 (2408448)
I0403 15:02:23.575639 30930 net.cpp:156] Memory required for data: 696042528
I0403 15:02:23.575652 30930 layer_factory.hpp:77] Creating layer inception_3b/3x3
I0403 15:02:23.575677 30930 net.cpp:91] Creating Layer inception_3b/3x3
I0403 15:02:23.575695 30930 net.cpp:425] inception_3b/3x3 <- inception_3b/3x3_reduce
I0403 15:02:23.575716 30930 net.cpp:399] inception_3b/3x3 -> inception_3b/3x3
I0403 15:02:23.578613 30930 net.cpp:141] Setting up inception_3b/3x3
I0403 15:02:23.578644 30930 net.cpp:148] Top shape: 24 192 28 28 (3612672)
I0403 15:02:23.578660 30930 net.cpp:156] Memory required for data: 710493216
I0403 15:02:23.578677 30930 layer_factory.hpp:77] Creating layer inception_3b/relu_3x3
I0403 15:02:23.578696 30930 net.cpp:91] Creating Layer inception_3b/relu_3x3
I0403 15:02:23.578711 30930 net.cpp:425] inception_3b/relu_3x3 <- inception_3b/3x3
I0403 15:02:23.578727 30930 net.cpp:386] inception_3b/relu_3x3 -> inception_3b/3x3 (in-place)
I0403 15:02:23.579002 30930 net.cpp:141] Setting up inception_3b/relu_3x3
I0403 15:02:23.579030 30930 net.cpp:148] Top shape: 24 192 28 28 (3612672)
I0403 15:02:23.579047 30930 net.cpp:156] Memory required for data: 724943904
I0403 15:02:23.579061 30930 layer_factory.hpp:77] Creating layer inception_3b/5x5_reduce
I0403 15:02:23.579082 30930 net.cpp:91] Creating Layer inception_3b/5x5_reduce
I0403 15:02:23.579097 30930 net.cpp:425] inception_3b/5x5_reduce <- inception_3a/output_inception_3a/output_0_split_2
I0403 15:02:23.579119 30930 net.cpp:399] inception_3b/5x5_reduce -> inception_3b/5x5_reduce
I0403 15:02:23.580111 30930 net.cpp:141] Setting up inception_3b/5x5_reduce
I0403 15:02:23.580137 30930 net.cpp:148] Top shape: 24 32 28 28 (602112)
I0403 15:02:23.580155 30930 net.cpp:156] Memory required for data: 727352352
I0403 15:02:23.580173 30930 layer_factory.hpp:77] Creating layer inception_3b/relu_5x5_reduce
I0403 15:02:23.580190 30930 net.cpp:91] Creating Layer inception_3b/relu_5x5_reduce
I0403 15:02:23.580205 30930 net.cpp:425] inception_3b/relu_5x5_reduce <- inception_3b/5x5_reduce
I0403 15:02:23.580221 30930 net.cpp:386] inception_3b/relu_5x5_reduce -> inception_3b/5x5_reduce (in-place)
I0403 15:02:23.580407 30930 net.cpp:141] Setting up inception_3b/relu_5x5_reduce
I0403 15:02:23.580433 30930 net.cpp:148] Top shape: 24 32 28 28 (602112)
I0403 15:02:23.580448 30930 net.cpp:156] Memory required for data: 729760800
I0403 15:02:23.580462 30930 layer_factory.hpp:77] Creating layer inception_3b/5x5
I0403 15:02:23.580484 30930 net.cpp:91] Creating Layer inception_3b/5x5
I0403 15:02:23.580500 30930 net.cpp:425] inception_3b/5x5 <- inception_3b/5x5_reduce
I0403 15:02:23.580518 30930 net.cpp:399] inception_3b/5x5 -> inception_3b/5x5
I0403 15:02:23.582432 30930 net.cpp:141] Setting up inception_3b/5x5
I0403 15:02:23.582459 30930 net.cpp:148] Top shape: 24 96 28 28 (1806336)
I0403 15:02:23.582474 30930 net.cpp:156] Memory required for data: 736986144
I0403 15:02:23.582491 30930 layer_factory.hpp:77] Creating layer inception_3b/relu_5x5
I0403 15:02:23.582510 30930 net.cpp:91] Creating Layer inception_3b/relu_5x5
I0403 15:02:23.582526 30930 net.cpp:425] inception_3b/relu_5x5 <- inception_3b/5x5
I0403 15:02:23.582548 30930 net.cpp:386] inception_3b/relu_5x5 -> inception_3b/5x5 (in-place)
I0403 15:02:23.582736 30930 net.cpp:141] Setting up inception_3b/relu_5x5
I0403 15:02:23.582761 30930 net.cpp:148] Top shape: 24 96 28 28 (1806336)
I0403 15:02:23.582774 30930 net.cpp:156] Memory required for data: 744211488
I0403 15:02:23.582789 30930 layer_factory.hpp:77] Creating layer inception_3b/pool
I0403 15:02:23.582805 30930 net.cpp:91] Creating Layer inception_3b/pool
I0403 15:02:23.582820 30930 net.cpp:425] inception_3b/pool <- inception_3a/output_inception_3a/output_0_split_3
I0403 15:02:23.582837 30930 net.cpp:399] inception_3b/pool -> inception_3b/pool
I0403 15:02:23.582891 30930 net.cpp:141] Setting up inception_3b/pool
I0403 15:02:23.582913 30930 net.cpp:148] Top shape: 24 256 28 28 (4816896)
I0403 15:02:23.582928 30930 net.cpp:156] Memory required for data: 763479072
I0403 15:02:23.582942 30930 layer_factory.hpp:77] Creating layer inception_3b/pool_proj
I0403 15:02:23.582963 30930 net.cpp:91] Creating Layer inception_3b/pool_proj
I0403 15:02:23.582980 30930 net.cpp:425] inception_3b/pool_proj <- inception_3b/pool
I0403 15:02:23.582999 30930 net.cpp:399] inception_3b/pool_proj -> inception_3b/pool_proj
I0403 15:02:23.584095 30930 net.cpp:141] Setting up inception_3b/pool_proj
I0403 15:02:23.584125 30930 net.cpp:148] Top shape: 24 64 28 28 (1204224)
I0403 15:02:23.584141 30930 net.cpp:156] Memory required for data: 768295968
I0403 15:02:23.584159 30930 layer_factory.hpp:77] Creating layer inception_3b/relu_pool_proj
I0403 15:02:23.584177 30930 net.cpp:91] Creating Layer inception_3b/relu_pool_proj
I0403 15:02:23.584192 30930 net.cpp:425] inception_3b/relu_pool_proj <- inception_3b/pool_proj
I0403 15:02:23.584211 30930 net.cpp:386] inception_3b/relu_pool_proj -> inception_3b/pool_proj (in-place)
I0403 15:02:23.584619 30930 net.cpp:141] Setting up inception_3b/relu_pool_proj
I0403 15:02:23.584647 30930 net.cpp:148] Top shape: 24 64 28 28 (1204224)
I0403 15:02:23.584663 30930 net.cpp:156] Memory required for data: 773112864
I0403 15:02:23.584678 30930 layer_factory.hpp:77] Creating layer inception_3b/output
I0403 15:02:23.584699 30930 net.cpp:91] Creating Layer inception_3b/output
I0403 15:02:23.584714 30930 net.cpp:425] inception_3b/output <- inception_3b/1x1
I0403 15:02:23.584731 30930 net.cpp:425] inception_3b/output <- inception_3b/3x3
I0403 15:02:23.584746 30930 net.cpp:425] inception_3b/output <- inception_3b/5x5
I0403 15:02:23.584763 30930 net.cpp:425] inception_3b/output <- inception_3b/pool_proj
I0403 15:02:23.584779 30930 net.cpp:399] inception_3b/output -> inception_3b/output
I0403 15:02:23.584825 30930 net.cpp:141] Setting up inception_3b/output
I0403 15:02:23.584846 30930 net.cpp:148] Top shape: 24 480 28 28 (9031680)
I0403 15:02:23.584861 30930 net.cpp:156] Memory required for data: 809239584
I0403 15:02:23.584875 30930 layer_factory.hpp:77] Creating layer pool3/3x3_s2
I0403 15:02:23.584894 30930 net.cpp:91] Creating Layer pool3/3x3_s2
I0403 15:02:23.584910 30930 net.cpp:425] pool3/3x3_s2 <- inception_3b/output
I0403 15:02:23.584944 30930 net.cpp:399] pool3/3x3_s2 -> pool3/3x3_s2
I0403 15:02:23.585002 30930 net.cpp:141] Setting up pool3/3x3_s2
I0403 15:02:23.585026 30930 net.cpp:148] Top shape: 24 480 14 14 (2257920)
I0403 15:02:23.585039 30930 net.cpp:156] Memory required for data: 818271264
I0403 15:02:23.585053 30930 layer_factory.hpp:77] Creating layer pool3/3x3_s2_pool3/3x3_s2_0_split
I0403 15:02:23.585070 30930 net.cpp:91] Creating Layer pool3/3x3_s2_pool3/3x3_s2_0_split
I0403 15:02:23.585085 30930 net.cpp:425] pool3/3x3_s2_pool3/3x3_s2_0_split <- pool3/3x3_s2
I0403 15:02:23.585104 30930 net.cpp:399] pool3/3x3_s2_pool3/3x3_s2_0_split -> pool3/3x3_s2_pool3/3x3_s2_0_split_0
I0403 15:02:23.585124 30930 net.cpp:399] pool3/3x3_s2_pool3/3x3_s2_0_split -> pool3/3x3_s2_pool3/3x3_s2_0_split_1
I0403 15:02:23.585144 30930 net.cpp:399] pool3/3x3_s2_pool3/3x3_s2_0_split -> pool3/3x3_s2_pool3/3x3_s2_0_split_2
I0403 15:02:23.585162 30930 net.cpp:399] pool3/3x3_s2_pool3/3x3_s2_0_split -> pool3/3x3_s2_pool3/3x3_s2_0_split_3
I0403 15:02:23.585239 30930 net.cpp:141] Setting up pool3/3x3_s2_pool3/3x3_s2_0_split
I0403 15:02:23.585263 30930 net.cpp:148] Top shape: 24 480 14 14 (2257920)
I0403 15:02:23.585280 30930 net.cpp:148] Top shape: 24 480 14 14 (2257920)
I0403 15:02:23.585295 30930 net.cpp:148] Top shape: 24 480 14 14 (2257920)
I0403 15:02:23.585309 30930 net.cpp:148] Top shape: 24 480 14 14 (2257920)
I0403 15:02:23.585324 30930 net.cpp:156] Memory required for data: 854397984
I0403 15:02:23.585337 30930 layer_factory.hpp:77] Creating layer inception_4a/1x1
I0403 15:02:23.585360 30930 net.cpp:91] Creating Layer inception_4a/1x1
I0403 15:02:23.585376 30930 net.cpp:425] inception_4a/1x1 <- pool3/3x3_s2_pool3/3x3_s2_0_split_0
I0403 15:02:23.585403 30930 net.cpp:399] inception_4a/1x1 -> inception_4a/1x1
I0403 15:02:23.586984 30930 net.cpp:141] Setting up inception_4a/1x1
I0403 15:02:23.587013 30930 net.cpp:148] Top shape: 24 192 14 14 (903168)
I0403 15:02:23.587028 30930 net.cpp:156] Memory required for data: 858010656
I0403 15:02:23.587045 30930 layer_factory.hpp:77] Creating layer inception_4a/relu_1x1
I0403 15:02:23.587064 30930 net.cpp:91] Creating Layer inception_4a/relu_1x1
I0403 15:02:23.587082 30930 net.cpp:425] inception_4a/relu_1x1 <- inception_4a/1x1
I0403 15:02:23.587100 30930 net.cpp:386] inception_4a/relu_1x1 -> inception_4a/1x1 (in-place)
I0403 15:02:23.587280 30930 net.cpp:141] Setting up inception_4a/relu_1x1
I0403 15:02:23.587303 30930 net.cpp:148] Top shape: 24 192 14 14 (903168)
I0403 15:02:23.587318 30930 net.cpp:156] Memory required for data: 861623328
I0403 15:02:23.587332 30930 layer_factory.hpp:77] Creating layer inception_4a/3x3_reduce
I0403 15:02:23.587363 30930 net.cpp:91] Creating Layer inception_4a/3x3_reduce
I0403 15:02:23.587379 30930 net.cpp:425] inception_4a/3x3_reduce <- pool3/3x3_s2_pool3/3x3_s2_0_split_1
I0403 15:02:23.587400 30930 net.cpp:399] inception_4a/3x3_reduce -> inception_4a/3x3_reduce
I0403 15:02:23.588672 30930 net.cpp:141] Setting up inception_4a/3x3_reduce
I0403 15:02:23.588701 30930 net.cpp:148] Top shape: 24 96 14 14 (451584)
I0403 15:02:23.588716 30930 net.cpp:156] Memory required for data: 863429664
I0403 15:02:23.588747 30930 layer_factory.hpp:77] Creating layer inception_4a/relu_3x3_reduce
I0403 15:02:23.588767 30930 net.cpp:91] Creating Layer inception_4a/relu_3x3_reduce
I0403 15:02:23.588783 30930 net.cpp:425] inception_4a/relu_3x3_reduce <- inception_4a/3x3_reduce
I0403 15:02:23.588801 30930 net.cpp:386] inception_4a/relu_3x3_reduce -> inception_4a/3x3_reduce (in-place)
I0403 15:02:23.588976 30930 net.cpp:141] Setting up inception_4a/relu_3x3_reduce
I0403 15:02:23.589001 30930 net.cpp:148] Top shape: 24 96 14 14 (451584)
I0403 15:02:23.589015 30930 net.cpp:156] Memory required for data: 865236000
I0403 15:02:23.589030 30930 layer_factory.hpp:77] Creating layer inception_4a/3x3
I0403 15:02:23.589051 30930 net.cpp:91] Creating Layer inception_4a/3x3
I0403 15:02:23.589068 30930 net.cpp:425] inception_4a/3x3 <- inception_4a/3x3_reduce
I0403 15:02:23.589089 30930 net.cpp:399] inception_4a/3x3 -> inception_4a/3x3
I0403 15:02:23.591768 30930 net.cpp:141] Setting up inception_4a/3x3
I0403 15:02:23.591796 30930 net.cpp:148] Top shape: 24 208 14 14 (978432)
I0403 15:02:23.591811 30930 net.cpp:156] Memory required for data: 869149728
I0403 15:02:23.591830 30930 layer_factory.hpp:77] Creating layer inception_4a/relu_3x3
I0403 15:02:23.591850 30930 net.cpp:91] Creating Layer inception_4a/relu_3x3
I0403 15:02:23.591867 30930 net.cpp:425] inception_4a/relu_3x3 <- inception_4a/3x3
I0403 15:02:23.591884 30930 net.cpp:386] inception_4a/relu_3x3 -> inception_4a/3x3 (in-place)
I0403 15:02:23.592159 30930 net.cpp:141] Setting up inception_4a/relu_3x3
I0403 15:02:23.592185 30930 net.cpp:148] Top shape: 24 208 14 14 (978432)
I0403 15:02:23.592200 30930 net.cpp:156] Memory required for data: 873063456
I0403 15:02:23.592214 30930 layer_factory.hpp:77] Creating layer inception_4a/5x5_reduce
I0403 15:02:23.592237 30930 net.cpp:91] Creating Layer inception_4a/5x5_reduce
I0403 15:02:23.592254 30930 net.cpp:425] inception_4a/5x5_reduce <- pool3/3x3_s2_pool3/3x3_s2_0_split_2
I0403 15:02:23.592275 30930 net.cpp:399] inception_4a/5x5_reduce -> inception_4a/5x5_reduce
I0403 15:02:23.593289 30930 net.cpp:141] Setting up inception_4a/5x5_reduce
I0403 15:02:23.593317 30930 net.cpp:148] Top shape: 24 16 14 14 (75264)
I0403 15:02:23.593332 30930 net.cpp:156] Memory required for data: 873364512
I0403 15:02:23.593349 30930 layer_factory.hpp:77] Creating layer inception_4a/relu_5x5_reduce
I0403 15:02:23.593369 30930 net.cpp:91] Creating Layer inception_4a/relu_5x5_reduce
I0403 15:02:23.593385 30930 net.cpp:425] inception_4a/relu_5x5_reduce <- inception_4a/5x5_reduce
I0403 15:02:23.593402 30930 net.cpp:386] inception_4a/relu_5x5_reduce -> inception_4a/5x5_reduce (in-place)
I0403 15:02:23.593583 30930 net.cpp:141] Setting up inception_4a/relu_5x5_reduce
I0403 15:02:23.593611 30930 net.cpp:148] Top shape: 24 16 14 14 (75264)
I0403 15:02:23.593626 30930 net.cpp:156] Memory required for data: 873665568
I0403 15:02:23.593641 30930 layer_factory.hpp:77] Creating layer inception_4a/5x5
I0403 15:02:23.593662 30930 net.cpp:91] Creating Layer inception_4a/5x5
I0403 15:02:23.593679 30930 net.cpp:425] inception_4a/5x5 <- inception_4a/5x5_reduce
I0403 15:02:23.593698 30930 net.cpp:399] inception_4a/5x5 -> inception_4a/5x5
I0403 15:02:23.594832 30930 net.cpp:141] Setting up inception_4a/5x5
I0403 15:02:23.594863 30930 net.cpp:148] Top shape: 24 48 14 14 (225792)
I0403 15:02:23.594880 30930 net.cpp:156] Memory required for data: 874568736
I0403 15:02:23.594899 30930 layer_factory.hpp:77] Creating layer inception_4a/relu_5x5
I0403 15:02:23.594918 30930 net.cpp:91] Creating Layer inception_4a/relu_5x5
I0403 15:02:23.594933 30930 net.cpp:425] inception_4a/relu_5x5 <- inception_4a/5x5
I0403 15:02:23.594952 30930 net.cpp:386] inception_4a/relu_5x5 -> inception_4a/5x5 (in-place)
I0403 15:02:23.595142 30930 net.cpp:141] Setting up inception_4a/relu_5x5
I0403 15:02:23.595167 30930 net.cpp:148] Top shape: 24 48 14 14 (225792)
I0403 15:02:23.595182 30930 net.cpp:156] Memory required for data: 875471904
I0403 15:02:23.595196 30930 layer_factory.hpp:77] Creating layer inception_4a/pool
I0403 15:02:23.595213 30930 net.cpp:91] Creating Layer inception_4a/pool
I0403 15:02:23.595232 30930 net.cpp:425] inception_4a/pool <- pool3/3x3_s2_pool3/3x3_s2_0_split_3
I0403 15:02:23.595249 30930 net.cpp:399] inception_4a/pool -> inception_4a/pool
I0403 15:02:23.595310 30930 net.cpp:141] Setting up inception_4a/pool
I0403 15:02:23.595334 30930 net.cpp:148] Top shape: 24 480 14 14 (2257920)
I0403 15:02:23.595348 30930 net.cpp:156] Memory required for data: 884503584
I0403 15:02:23.595367 30930 layer_factory.hpp:77] Creating layer inception_4a/pool_proj
I0403 15:02:23.595389 30930 net.cpp:91] Creating Layer inception_4a/pool_proj
I0403 15:02:23.595407 30930 net.cpp:425] inception_4a/pool_proj <- inception_4a/pool
I0403 15:02:23.595427 30930 net.cpp:399] inception_4a/pool_proj -> inception_4a/pool_proj
I0403 15:02:23.596592 30930 net.cpp:141] Setting up inception_4a/pool_proj
I0403 15:02:23.596621 30930 net.cpp:148] Top shape: 24 64 14 14 (301056)
I0403 15:02:23.596650 30930 net.cpp:156] Memory required for data: 885707808
I0403 15:02:23.596669 30930 layer_factory.hpp:77] Creating layer inception_4a/relu_pool_proj
I0403 15:02:23.596694 30930 net.cpp:91] Creating Layer inception_4a/relu_pool_proj
I0403 15:02:23.596709 30930 net.cpp:425] inception_4a/relu_pool_proj <- inception_4a/pool_proj
I0403 15:02:23.596730 30930 net.cpp:386] inception_4a/relu_pool_proj -> inception_4a/pool_proj (in-place)
I0403 15:02:23.597012 30930 net.cpp:141] Setting up inception_4a/relu_pool_proj
I0403 15:02:23.597038 30930 net.cpp:148] Top shape: 24 64 14 14 (301056)
I0403 15:02:23.597053 30930 net.cpp:156] Memory required for data: 886912032
I0403 15:02:23.597067 30930 layer_factory.hpp:77] Creating layer inception_4a/output
I0403 15:02:23.597084 30930 net.cpp:91] Creating Layer inception_4a/output
I0403 15:02:23.597100 30930 net.cpp:425] inception_4a/output <- inception_4a/1x1
I0403 15:02:23.597116 30930 net.cpp:425] inception_4a/output <- inception_4a/3x3
I0403 15:02:23.597132 30930 net.cpp:425] inception_4a/output <- inception_4a/5x5
I0403 15:02:23.597147 30930 net.cpp:425] inception_4a/output <- inception_4a/pool_proj
I0403 15:02:23.597167 30930 net.cpp:399] inception_4a/output -> inception_4a/output
I0403 15:02:23.597210 30930 net.cpp:141] Setting up inception_4a/output
I0403 15:02:23.597236 30930 net.cpp:148] Top shape: 24 512 14 14 (2408448)
I0403 15:02:23.597251 30930 net.cpp:156] Memory required for data: 896545824
I0403 15:02:23.597265 30930 layer_factory.hpp:77] Creating layer inception_4a/output_inception_4a/output_0_split
I0403 15:02:23.597283 30930 net.cpp:91] Creating Layer inception_4a/output_inception_4a/output_0_split
I0403 15:02:23.597297 30930 net.cpp:425] inception_4a/output_inception_4a/output_0_split <- inception_4a/output
I0403 15:02:23.597314 30930 net.cpp:399] inception_4a/output_inception_4a/output_0_split -> inception_4a/output_inception_4a/output_0_split_0
I0403 15:02:23.597337 30930 net.cpp:399] inception_4a/output_inception_4a/output_0_split -> inception_4a/output_inception_4a/output_0_split_1
I0403 15:02:23.597357 30930 net.cpp:399] inception_4a/output_inception_4a/output_0_split -> inception_4a/output_inception_4a/output_0_split_2
I0403 15:02:23.597378 30930 net.cpp:399] inception_4a/output_inception_4a/output_0_split -> inception_4a/output_inception_4a/output_0_split_3
I0403 15:02:23.597396 30930 net.cpp:399] inception_4a/output_inception_4a/output_0_split -> inception_4a/output_inception_4a/output_0_split_4
I0403 15:02:23.597489 30930 net.cpp:141] Setting up inception_4a/output_inception_4a/output_0_split
I0403 15:02:23.597512 30930 net.cpp:148] Top shape: 24 512 14 14 (2408448)
I0403 15:02:23.597528 30930 net.cpp:148] Top shape: 24 512 14 14 (2408448)
I0403 15:02:23.597551 30930 net.cpp:148] Top shape: 24 512 14 14 (2408448)
I0403 15:02:23.597568 30930 net.cpp:148] Top shape: 24 512 14 14 (2408448)
I0403 15:02:23.597582 30930 net.cpp:148] Top shape: 24 512 14 14 (2408448)
I0403 15:02:23.597595 30930 net.cpp:156] Memory required for data: 944714784
I0403 15:02:23.597609 30930 layer_factory.hpp:77] Creating layer loss1/ave_pool
I0403 15:02:23.597627 30930 net.cpp:91] Creating Layer loss1/ave_pool
I0403 15:02:23.597642 30930 net.cpp:425] loss1/ave_pool <- inception_4a/output_inception_4a/output_0_split_0
I0403 15:02:23.597659 30930 net.cpp:399] loss1/ave_pool -> loss1/ave_pool
I0403 15:02:23.597865 30930 net.cpp:141] Setting up loss1/ave_pool
I0403 15:02:23.597890 30930 net.cpp:148] Top shape: 24 512 4 4 (196608)
I0403 15:02:23.597904 30930 net.cpp:156] Memory required for data: 945501216
I0403 15:02:23.597919 30930 layer_factory.hpp:77] Creating layer loss1/conv
I0403 15:02:23.597941 30930 net.cpp:91] Creating Layer loss1/conv
I0403 15:02:23.597959 30930 net.cpp:425] loss1/conv <- loss1/ave_pool
I0403 15:02:23.597980 30930 net.cpp:399] loss1/conv -> loss1/conv
I0403 15:02:23.599383 30930 net.cpp:141] Setting up loss1/conv
I0403 15:02:23.599411 30930 net.cpp:148] Top shape: 24 128 4 4 (49152)
I0403 15:02:23.599441 30930 net.cpp:156] Memory required for data: 945697824
I0403 15:02:23.599459 30930 layer_factory.hpp:77] Creating layer loss1/relu_conv
I0403 15:02:23.599480 30930 net.cpp:91] Creating Layer loss1/relu_conv
I0403 15:02:23.599498 30930 net.cpp:425] loss1/relu_conv <- loss1/conv
I0403 15:02:23.599514 30930 net.cpp:386] loss1/relu_conv -> loss1/conv (in-place)
I0403 15:02:23.599802 30930 net.cpp:141] Setting up loss1/relu_conv
I0403 15:02:23.599828 30930 net.cpp:148] Top shape: 24 128 4 4 (49152)
I0403 15:02:23.599843 30930 net.cpp:156] Memory required for data: 945894432
I0403 15:02:23.599858 30930 layer_factory.hpp:77] Creating layer loss1/fc
I0403 15:02:23.599884 30930 net.cpp:91] Creating Layer loss1/fc
I0403 15:02:23.599901 30930 net.cpp:425] loss1/fc <- loss1/conv
I0403 15:02:23.599920 30930 net.cpp:399] loss1/fc -> loss1/fc
I0403 15:02:23.617231 30930 net.cpp:141] Setting up loss1/fc
I0403 15:02:23.617265 30930 net.cpp:148] Top shape: 24 1024 (24576)
I0403 15:02:23.617281 30930 net.cpp:156] Memory required for data: 945992736
I0403 15:02:23.617300 30930 layer_factory.hpp:77] Creating layer loss1/relu_fc
I0403 15:02:23.617317 30930 net.cpp:91] Creating Layer loss1/relu_fc
I0403 15:02:23.617332 30930 net.cpp:425] loss1/relu_fc <- loss1/fc
I0403 15:02:23.617352 30930 net.cpp:386] loss1/relu_fc -> loss1/fc (in-place)
I0403 15:02:23.617539 30930 net.cpp:141] Setting up loss1/relu_fc
I0403 15:02:23.617563 30930 net.cpp:148] Top shape: 24 1024 (24576)
I0403 15:02:23.617579 30930 net.cpp:156] Memory required for data: 946091040
I0403 15:02:23.617594 30930 layer_factory.hpp:77] Creating layer loss1/drop_fc
I0403 15:02:23.617620 30930 net.cpp:91] Creating Layer loss1/drop_fc
I0403 15:02:23.617636 30930 net.cpp:425] loss1/drop_fc <- loss1/fc
I0403 15:02:23.617655 30930 net.cpp:386] loss1/drop_fc -> loss1/fc (in-place)
I0403 15:02:23.617703 30930 net.cpp:141] Setting up loss1/drop_fc
I0403 15:02:23.617729 30930 net.cpp:148] Top shape: 24 1024 (24576)
I0403 15:02:23.617743 30930 net.cpp:156] Memory required for data: 946189344
I0403 15:02:23.617758 30930 layer_factory.hpp:77] Creating layer loss1/classifier_plantvillage
I0403 15:02:23.617775 30930 net.cpp:91] Creating Layer loss1/classifier_plantvillage
I0403 15:02:23.617790 30930 net.cpp:425] loss1/classifier_plantvillage <- loss1/fc
I0403 15:02:23.617810 30930 net.cpp:399] loss1/classifier_plantvillage -> loss1/classifier_plantvillage
I0403 15:02:23.618690 30930 net.cpp:141] Setting up loss1/classifier_plantvillage
I0403 15:02:23.618716 30930 net.cpp:148] Top shape: 24 38 (912)
I0403 15:02:23.618731 30930 net.cpp:156] Memory required for data: 946192992
I0403 15:02:23.618748 30930 layer_factory.hpp:77] Creating layer loss1/classifier_plantvillage_loss1/classifier_plantvillage_0_split
I0403 15:02:23.618767 30930 net.cpp:91] Creating Layer loss1/classifier_plantvillage_loss1/classifier_plantvillage_0_split
I0403 15:02:23.618783 30930 net.cpp:425] loss1/classifier_plantvillage_loss1/classifier_plantvillage_0_split <- loss1/classifier_plantvillage
I0403 15:02:23.618800 30930 net.cpp:399] loss1/classifier_plantvillage_loss1/classifier_plantvillage_0_split -> loss1/classifier_plantvillage_loss1/classifier_plantvillage_0_split_0
I0403 15:02:23.618819 30930 net.cpp:399] loss1/classifier_plantvillage_loss1/classifier_plantvillage_0_split -> loss1/classifier_plantvillage_loss1/classifier_plantvillage_0_split_1
I0403 15:02:23.618837 30930 net.cpp:399] loss1/classifier_plantvillage_loss1/classifier_plantvillage_0_split -> loss1/classifier_plantvillage_loss1/classifier_plantvillage_0_split_2
I0403 15:02:23.618913 30930 net.cpp:141] Setting up loss1/classifier_plantvillage_loss1/classifier_plantvillage_0_split
I0403 15:02:23.618938 30930 net.cpp:148] Top shape: 24 38 (912)
I0403 15:02:23.618954 30930 net.cpp:148] Top shape: 24 38 (912)
I0403 15:02:23.618969 30930 net.cpp:148] Top shape: 24 38 (912)
I0403 15:02:23.618983 30930 net.cpp:156] Memory required for data: 946203936
I0403 15:02:23.618996 30930 layer_factory.hpp:77] Creating layer inception_4b/1x1
I0403 15:02:23.619016 30930 net.cpp:91] Creating Layer inception_4b/1x1
I0403 15:02:23.619050 30930 net.cpp:425] inception_4b/1x1 <- inception_4a/output_inception_4a/output_0_split_1
I0403 15:02:23.619070 30930 net.cpp:399] inception_4b/1x1 -> inception_4b/1x1
I0403 15:02:23.620682 30930 net.cpp:141] Setting up inception_4b/1x1
I0403 15:02:23.620710 30930 net.cpp:148] Top shape: 24 160 14 14 (752640)
I0403 15:02:23.620724 30930 net.cpp:156] Memory required for data: 949214496
I0403 15:02:23.620743 30930 layer_factory.hpp:77] Creating layer inception_4b/relu_1x1
I0403 15:02:23.620761 30930 net.cpp:91] Creating Layer inception_4b/relu_1x1
I0403 15:02:23.620777 30930 net.cpp:425] inception_4b/relu_1x1 <- inception_4b/1x1
I0403 15:02:23.620795 30930 net.cpp:386] inception_4b/relu_1x1 -> inception_4b/1x1 (in-place)
I0403 15:02:23.620967 30930 net.cpp:141] Setting up inception_4b/relu_1x1
I0403 15:02:23.620993 30930 net.cpp:148] Top shape: 24 160 14 14 (752640)
I0403 15:02:23.621008 30930 net.cpp:156] Memory required for data: 952225056
I0403 15:02:23.621022 30930 layer_factory.hpp:77] Creating layer inception_4b/3x3_reduce
I0403 15:02:23.621044 30930 net.cpp:91] Creating Layer inception_4b/3x3_reduce
I0403 15:02:23.621060 30930 net.cpp:425] inception_4b/3x3_reduce <- inception_4a/output_inception_4a/output_0_split_2
I0403 15:02:23.621078 30930 net.cpp:399] inception_4b/3x3_reduce -> inception_4b/3x3_reduce
I0403 15:02:23.622412 30930 net.cpp:141] Setting up inception_4b/3x3_reduce
I0403 15:02:23.622442 30930 net.cpp:148] Top shape: 24 112 14 14 (526848)
I0403 15:02:23.622457 30930 net.cpp:156] Memory required for data: 954332448
I0403 15:02:23.622475 30930 layer_factory.hpp:77] Creating layer inception_4b/relu_3x3_reduce
I0403 15:02:23.622493 30930 net.cpp:91] Creating Layer inception_4b/relu_3x3_reduce
I0403 15:02:23.622509 30930 net.cpp:425] inception_4b/relu_3x3_reduce <- inception_4b/3x3_reduce
I0403 15:02:23.622527 30930 net.cpp:386] inception_4b/relu_3x3_reduce -> inception_4b/3x3_reduce (in-place)
I0403 15:02:23.622810 30930 net.cpp:141] Setting up inception_4b/relu_3x3_reduce
I0403 15:02:23.622838 30930 net.cpp:148] Top shape: 24 112 14 14 (526848)
I0403 15:02:23.622853 30930 net.cpp:156] Memory required for data: 956439840
I0403 15:02:23.622867 30930 layer_factory.hpp:77] Creating layer inception_4b/3x3
I0403 15:02:23.622889 30930 net.cpp:91] Creating Layer inception_4b/3x3
I0403 15:02:23.622905 30930 net.cpp:425] inception_4b/3x3 <- inception_4b/3x3_reduce
I0403 15:02:23.622922 30930 net.cpp:399] inception_4b/3x3 -> inception_4b/3x3
I0403 15:02:23.625915 30930 net.cpp:141] Setting up inception_4b/3x3
I0403 15:02:23.625942 30930 net.cpp:148] Top shape: 24 224 14 14 (1053696)
I0403 15:02:23.625957 30930 net.cpp:156] Memory required for data: 960654624
I0403 15:02:23.625975 30930 layer_factory.hpp:77] Creating layer inception_4b/relu_3x3
I0403 15:02:23.625994 30930 net.cpp:91] Creating Layer inception_4b/relu_3x3
I0403 15:02:23.626011 30930 net.cpp:425] inception_4b/relu_3x3 <- inception_4b/3x3
I0403 15:02:23.626027 30930 net.cpp:386] inception_4b/relu_3x3 -> inception_4b/3x3 (in-place)
I0403 15:02:23.626201 30930 net.cpp:141] Setting up inception_4b/relu_3x3
I0403 15:02:23.626225 30930 net.cpp:148] Top shape: 24 224 14 14 (1053696)
I0403 15:02:23.626240 30930 net.cpp:156] Memory required for data: 964869408
I0403 15:02:23.626255 30930 layer_factory.hpp:77] Creating layer inception_4b/5x5_reduce
I0403 15:02:23.626276 30930 net.cpp:91] Creating Layer inception_4b/5x5_reduce
I0403 15:02:23.626293 30930 net.cpp:425] inception_4b/5x5_reduce <- inception_4a/output_inception_4a/output_0_split_3
I0403 15:02:23.626314 30930 net.cpp:399] inception_4b/5x5_reduce -> inception_4b/5x5_reduce
I0403 15:02:23.627384 30930 net.cpp:141] Setting up inception_4b/5x5_reduce
I0403 15:02:23.627410 30930 net.cpp:148] Top shape: 24 24 14 14 (112896)
I0403 15:02:23.627425 30930 net.cpp:156] Memory required for data: 965320992
I0403 15:02:23.627444 30930 layer_factory.hpp:77] Creating layer inception_4b/relu_5x5_reduce
I0403 15:02:23.627463 30930 net.cpp:91] Creating Layer inception_4b/relu_5x5_reduce
I0403 15:02:23.627493 30930 net.cpp:425] inception_4b/relu_5x5_reduce <- inception_4b/5x5_reduce
I0403 15:02:23.627511 30930 net.cpp:386] inception_4b/relu_5x5_reduce -> inception_4b/5x5_reduce (in-place)
I0403 15:02:23.627708 30930 net.cpp:141] Setting up inception_4b/relu_5x5_reduce
I0403 15:02:23.627732 30930 net.cpp:148] Top shape: 24 24 14 14 (112896)
I0403 15:02:23.627746 30930 net.cpp:156] Memory required for data: 965772576
I0403 15:02:23.627760 30930 layer_factory.hpp:77] Creating layer inception_4b/5x5
I0403 15:02:23.627782 30930 net.cpp:91] Creating Layer inception_4b/5x5
I0403 15:02:23.627800 30930 net.cpp:425] inception_4b/5x5 <- inception_4b/5x5_reduce
I0403 15:02:23.627820 30930 net.cpp:399] inception_4b/5x5 -> inception_4b/5x5
I0403 15:02:23.629014 30930 net.cpp:141] Setting up inception_4b/5x5
I0403 15:02:23.629040 30930 net.cpp:148] Top shape: 24 64 14 14 (301056)
I0403 15:02:23.629055 30930 net.cpp:156] Memory required for data: 966976800
I0403 15:02:23.629072 30930 layer_factory.hpp:77] Creating layer inception_4b/relu_5x5
I0403 15:02:23.629092 30930 net.cpp:91] Creating Layer inception_4b/relu_5x5
I0403 15:02:23.629108 30930 net.cpp:425] inception_4b/relu_5x5 <- inception_4b/5x5
I0403 15:02:23.629124 30930 net.cpp:386] inception_4b/relu_5x5 -> inception_4b/5x5 (in-place)
I0403 15:02:23.629405 30930 net.cpp:141] Setting up inception_4b/relu_5x5
I0403 15:02:23.629431 30930 net.cpp:148] Top shape: 24 64 14 14 (301056)
I0403 15:02:23.629446 30930 net.cpp:156] Memory required for data: 968181024
I0403 15:02:23.629461 30930 layer_factory.hpp:77] Creating layer inception_4b/pool
I0403 15:02:23.629479 30930 net.cpp:91] Creating Layer inception_4b/pool
I0403 15:02:23.629495 30930 net.cpp:425] inception_4b/pool <- inception_4a/output_inception_4a/output_0_split_4
I0403 15:02:23.629513 30930 net.cpp:399] inception_4b/pool -> inception_4b/pool
I0403 15:02:23.629596 30930 net.cpp:141] Setting up inception_4b/pool
I0403 15:02:23.629621 30930 net.cpp:148] Top shape: 24 512 14 14 (2408448)
I0403 15:02:23.629636 30930 net.cpp:156] Memory required for data: 977814816
I0403 15:02:23.629650 30930 layer_factory.hpp:77] Creating layer inception_4b/pool_proj
I0403 15:02:23.629672 30930 net.cpp:91] Creating Layer inception_4b/pool_proj
I0403 15:02:23.629688 30930 net.cpp:425] inception_4b/pool_proj <- inception_4b/pool
I0403 15:02:23.629709 30930 net.cpp:399] inception_4b/pool_proj -> inception_4b/pool_proj
I0403 15:02:23.630959 30930 net.cpp:141] Setting up inception_4b/pool_proj
I0403 15:02:23.630990 30930 net.cpp:148] Top shape: 24 64 14 14 (301056)
I0403 15:02:23.631006 30930 net.cpp:156] Memory required for data: 979019040
I0403 15:02:23.631026 30930 layer_factory.hpp:77] Creating layer inception_4b/relu_pool_proj
I0403 15:02:23.631042 30930 net.cpp:91] Creating Layer inception_4b/relu_pool_proj
I0403 15:02:23.631058 30930 net.cpp:425] inception_4b/relu_pool_proj <- inception_4b/pool_proj
I0403 15:02:23.631075 30930 net.cpp:386] inception_4b/relu_pool_proj -> inception_4b/pool_proj (in-place)
I0403 15:02:23.631258 30930 net.cpp:141] Setting up inception_4b/relu_pool_proj
I0403 15:02:23.631283 30930 net.cpp:148] Top shape: 24 64 14 14 (301056)
I0403 15:02:23.631299 30930 net.cpp:156] Memory required for data: 980223264
I0403 15:02:23.631312 30930 layer_factory.hpp:77] Creating layer inception_4b/output
I0403 15:02:23.631330 30930 net.cpp:91] Creating Layer inception_4b/output
I0403 15:02:23.631345 30930 net.cpp:425] inception_4b/output <- inception_4b/1x1
I0403 15:02:23.631362 30930 net.cpp:425] inception_4b/output <- inception_4b/3x3
I0403 15:02:23.631377 30930 net.cpp:425] inception_4b/output <- inception_4b/5x5
I0403 15:02:23.631393 30930 net.cpp:425] inception_4b/output <- inception_4b/pool_proj
I0403 15:02:23.631412 30930 net.cpp:399] inception_4b/output -> inception_4b/output
I0403 15:02:23.631456 30930 net.cpp:141] Setting up inception_4b/output
I0403 15:02:23.631479 30930 net.cpp:148] Top shape: 24 512 14 14 (2408448)
I0403 15:02:23.631492 30930 net.cpp:156] Memory required for data: 989857056
I0403 15:02:23.631521 30930 layer_factory.hpp:77] Creating layer inception_4b/output_inception_4b/output_0_split
I0403 15:02:23.631547 30930 net.cpp:91] Creating Layer inception_4b/output_inception_4b/output_0_split
I0403 15:02:23.631566 30930 net.cpp:425] inception_4b/output_inception_4b/output_0_split <- inception_4b/output
I0403 15:02:23.631583 30930 net.cpp:399] inception_4b/output_inception_4b/output_0_split -> inception_4b/output_inception_4b/output_0_split_0
I0403 15:02:23.631603 30930 net.cpp:399] inception_4b/output_inception_4b/output_0_split -> inception_4b/output_inception_4b/output_0_split_1
I0403 15:02:23.631626 30930 net.cpp:399] inception_4b/output_inception_4b/output_0_split -> inception_4b/output_inception_4b/output_0_split_2
I0403 15:02:23.631647 30930 net.cpp:399] inception_4b/output_inception_4b/output_0_split -> inception_4b/output_inception_4b/output_0_split_3
I0403 15:02:23.631731 30930 net.cpp:141] Setting up inception_4b/output_inception_4b/output_0_split
I0403 15:02:23.631754 30930 net.cpp:148] Top shape: 24 512 14 14 (2408448)
I0403 15:02:23.631769 30930 net.cpp:148] Top shape: 24 512 14 14 (2408448)
I0403 15:02:23.631784 30930 net.cpp:148] Top shape: 24 512 14 14 (2408448)
I0403 15:02:23.631799 30930 net.cpp:148] Top shape: 24 512 14 14 (2408448)
I0403 15:02:23.631813 30930 net.cpp:156] Memory required for data: 1028392224
I0403 15:02:23.631830 30930 layer_factory.hpp:77] Creating layer inception_4c/1x1
I0403 15:02:23.631852 30930 net.cpp:91] Creating Layer inception_4c/1x1
I0403 15:02:23.631870 30930 net.cpp:425] inception_4c/1x1 <- inception_4b/output_inception_4b/output_0_split_0
I0403 15:02:23.631891 30930 net.cpp:399] inception_4c/1x1 -> inception_4c/1x1
I0403 15:02:23.633332 30930 net.cpp:141] Setting up inception_4c/1x1
I0403 15:02:23.633360 30930 net.cpp:148] Top shape: 24 128 14 14 (602112)
I0403 15:02:23.633375 30930 net.cpp:156] Memory required for data: 1030800672
I0403 15:02:23.633394 30930 layer_factory.hpp:77] Creating layer inception_4c/relu_1x1
I0403 15:02:23.633410 30930 net.cpp:91] Creating Layer inception_4c/relu_1x1
I0403 15:02:23.633426 30930 net.cpp:425] inception_4c/relu_1x1 <- inception_4c/1x1
I0403 15:02:23.633446 30930 net.cpp:386] inception_4c/relu_1x1 -> inception_4c/1x1 (in-place)
I0403 15:02:23.633631 30930 net.cpp:141] Setting up inception_4c/relu_1x1
I0403 15:02:23.633656 30930 net.cpp:148] Top shape: 24 128 14 14 (602112)
I0403 15:02:23.633671 30930 net.cpp:156] Memory required for data: 1033209120
I0403 15:02:23.633685 30930 layer_factory.hpp:77] Creating layer inception_4c/3x3_reduce
I0403 15:02:23.633708 30930 net.cpp:91] Creating Layer inception_4c/3x3_reduce
I0403 15:02:23.633724 30930 net.cpp:425] inception_4c/3x3_reduce <- inception_4b/output_inception_4b/output_0_split_1
I0403 15:02:23.633744 30930 net.cpp:399] inception_4c/3x3_reduce -> inception_4c/3x3_reduce
I0403 15:02:23.635732 30930 net.cpp:141] Setting up inception_4c/3x3_reduce
I0403 15:02:23.635761 30930 net.cpp:148] Top shape: 24 128 14 14 (602112)
I0403 15:02:23.635776 30930 net.cpp:156] Memory required for data: 1035617568
I0403 15:02:23.635795 30930 layer_factory.hpp:77] Creating layer inception_4c/relu_3x3_reduce
I0403 15:02:23.635815 30930 net.cpp:91] Creating Layer inception_4c/relu_3x3_reduce
I0403 15:02:23.635833 30930 net.cpp:425] inception_4c/relu_3x3_reduce <- inception_4c/3x3_reduce
I0403 15:02:23.635849 30930 net.cpp:386] inception_4c/relu_3x3_reduce -> inception_4c/3x3_reduce (in-place)
I0403 15:02:23.636137 30930 net.cpp:141] Setting up inception_4c/relu_3x3_reduce
I0403 15:02:23.636162 30930 net.cpp:148] Top shape: 24 128 14 14 (602112)
I0403 15:02:23.636178 30930 net.cpp:156] Memory required for data: 1038026016
I0403 15:02:23.636193 30930 layer_factory.hpp:77] Creating layer inception_4c/3x3
I0403 15:02:23.636214 30930 net.cpp:91] Creating Layer inception_4c/3x3
I0403 15:02:23.636232 30930 net.cpp:425] inception_4c/3x3 <- inception_4c/3x3_reduce
I0403 15:02:23.636253 30930 net.cpp:399] inception_4c/3x3 -> inception_4c/3x3
I0403 15:02:23.639866 30930 net.cpp:141] Setting up inception_4c/3x3
I0403 15:02:23.639907 30930 net.cpp:148] Top shape: 24 256 14 14 (1204224)
I0403 15:02:23.639926 30930 net.cpp:156] Memory required for data: 1042842912
I0403 15:02:23.639958 30930 layer_factory.hpp:77] Creating layer inception_4c/relu_3x3
I0403 15:02:23.639978 30930 net.cpp:91] Creating Layer inception_4c/relu_3x3
I0403 15:02:23.639994 30930 net.cpp:425] inception_4c/relu_3x3 <- inception_4c/3x3
I0403 15:02:23.640012 30930 net.cpp:386] inception_4c/relu_3x3 -> inception_4c/3x3 (in-place)
I0403 15:02:23.640192 30930 net.cpp:141] Setting up inception_4c/relu_3x3
I0403 15:02:23.640218 30930 net.cpp:148] Top shape: 24 256 14 14 (1204224)
I0403 15:02:23.640231 30930 net.cpp:156] Memory required for data: 1047659808
I0403 15:02:23.640245 30930 layer_factory.hpp:77] Creating layer inception_4c/5x5_reduce
I0403 15:02:23.640270 30930 net.cpp:91] Creating Layer inception_4c/5x5_reduce
I0403 15:02:23.640287 30930 net.cpp:425] inception_4c/5x5_reduce <- inception_4b/output_inception_4b/output_0_split_2
I0403 15:02:23.640321 30930 net.cpp:399] inception_4c/5x5_reduce -> inception_4c/5x5_reduce
I0403 15:02:23.641434 30930 net.cpp:141] Setting up inception_4c/5x5_reduce
I0403 15:02:23.641463 30930 net.cpp:148] Top shape: 24 24 14 14 (112896)
I0403 15:02:23.641477 30930 net.cpp:156] Memory required for data: 1048111392
I0403 15:02:23.641495 30930 layer_factory.hpp:77] Creating layer inception_4c/relu_5x5_reduce
I0403 15:02:23.641516 30930 net.cpp:91] Creating Layer inception_4c/relu_5x5_reduce
I0403 15:02:23.641536 30930 net.cpp:425] inception_4c/relu_5x5_reduce <- inception_4c/5x5_reduce
I0403 15:02:23.641556 30930 net.cpp:386] inception_4c/relu_5x5_reduce -> inception_4c/5x5_reduce (in-place)
I0403 15:02:23.641742 30930 net.cpp:141] Setting up inception_4c/relu_5x5_reduce
I0403 15:02:23.641767 30930 net.cpp:148] Top shape: 24 24 14 14 (112896)
I0403 15:02:23.641782 30930 net.cpp:156] Memory required for data: 1048562976
I0403 15:02:23.641795 30930 layer_factory.hpp:77] Creating layer inception_4c/5x5
I0403 15:02:23.641819 30930 net.cpp:91] Creating Layer inception_4c/5x5
I0403 15:02:23.641835 30930 net.cpp:425] inception_4c/5x5 <- inception_4c/5x5_reduce
I0403 15:02:23.641855 30930 net.cpp:399] inception_4c/5x5 -> inception_4c/5x5
I0403 15:02:23.643100 30930 net.cpp:141] Setting up inception_4c/5x5
I0403 15:02:23.643131 30930 net.cpp:148] Top shape: 24 64 14 14 (301056)
I0403 15:02:23.643146 30930 net.cpp:156] Memory required for data: 1049767200
I0403 15:02:23.643164 30930 layer_factory.hpp:77] Creating layer inception_4c/relu_5x5
I0403 15:02:23.643182 30930 net.cpp:91] Creating Layer inception_4c/relu_5x5
I0403 15:02:23.643198 30930 net.cpp:425] inception_4c/relu_5x5 <- inception_4c/5x5
I0403 15:02:23.643218 30930 net.cpp:386] inception_4c/relu_5x5 -> inception_4c/5x5 (in-place)
I0403 15:02:23.643507 30930 net.cpp:141] Setting up inception_4c/relu_5x5
I0403 15:02:23.643538 30930 net.cpp:148] Top shape: 24 64 14 14 (301056)
I0403 15:02:23.643555 30930 net.cpp:156] Memory required for data: 1050971424
I0403 15:02:23.643573 30930 layer_factory.hpp:77] Creating layer inception_4c/pool
I0403 15:02:23.643590 30930 net.cpp:91] Creating Layer inception_4c/pool
I0403 15:02:23.643605 30930 net.cpp:425] inception_4c/pool <- inception_4b/output_inception_4b/output_0_split_3
I0403 15:02:23.643625 30930 net.cpp:399] inception_4c/pool -> inception_4c/pool
I0403 15:02:23.643692 30930 net.cpp:141] Setting up inception_4c/pool
I0403 15:02:23.643717 30930 net.cpp:148] Top shape: 24 512 14 14 (2408448)
I0403 15:02:23.643731 30930 net.cpp:156] Memory required for data: 1060605216
I0403 15:02:23.643746 30930 layer_factory.hpp:77] Creating layer inception_4c/pool_proj
I0403 15:02:23.643769 30930 net.cpp:91] Creating Layer inception_4c/pool_proj
I0403 15:02:23.643785 30930 net.cpp:425] inception_4c/pool_proj <- inception_4c/pool
I0403 15:02:23.643805 30930 net.cpp:399] inception_4c/pool_proj -> inception_4c/pool_proj
I0403 15:02:23.645042 30930 net.cpp:141] Setting up inception_4c/pool_proj
I0403 15:02:23.645071 30930 net.cpp:148] Top shape: 24 64 14 14 (301056)
I0403 15:02:23.645102 30930 net.cpp:156] Memory required for data: 1061809440
I0403 15:02:23.645123 30930 layer_factory.hpp:77] Creating layer inception_4c/relu_pool_proj
I0403 15:02:23.645141 30930 net.cpp:91] Creating Layer inception_4c/relu_pool_proj
I0403 15:02:23.645156 30930 net.cpp:425] inception_4c/relu_pool_proj <- inception_4c/pool_proj
I0403 15:02:23.645174 30930 net.cpp:386] inception_4c/relu_pool_proj -> inception_4c/pool_proj (in-place)
I0403 15:02:23.645371 30930 net.cpp:141] Setting up inception_4c/relu_pool_proj
I0403 15:02:23.645398 30930 net.cpp:148] Top shape: 24 64 14 14 (301056)
I0403 15:02:23.645416 30930 net.cpp:156] Memory required for data: 1063013664
I0403 15:02:23.645431 30930 layer_factory.hpp:77] Creating layer inception_4c/output
I0403 15:02:23.645448 30930 net.cpp:91] Creating Layer inception_4c/output
I0403 15:02:23.645464 30930 net.cpp:425] inception_4c/output <- inception_4c/1x1
I0403 15:02:23.645481 30930 net.cpp:425] inception_4c/output <- inception_4c/3x3
I0403 15:02:23.645498 30930 net.cpp:425] inception_4c/output <- inception_4c/5x5
I0403 15:02:23.645514 30930 net.cpp:425] inception_4c/output <- inception_4c/pool_proj
I0403 15:02:23.645537 30930 net.cpp:399] inception_4c/output -> inception_4c/output
I0403 15:02:23.645607 30930 net.cpp:141] Setting up inception_4c/output
I0403 15:02:23.645632 30930 net.cpp:148] Top shape: 24 512 14 14 (2408448)
I0403 15:02:23.645645 30930 net.cpp:156] Memory required for data: 1072647456
I0403 15:02:23.645659 30930 layer_factory.hpp:77] Creating layer inception_4c/output_inception_4c/output_0_split
I0403 15:02:23.645678 30930 net.cpp:91] Creating Layer inception_4c/output_inception_4c/output_0_split
I0403 15:02:23.645694 30930 net.cpp:425] inception_4c/output_inception_4c/output_0_split <- inception_4c/output
I0403 15:02:23.645712 30930 net.cpp:399] inception_4c/output_inception_4c/output_0_split -> inception_4c/output_inception_4c/output_0_split_0
I0403 15:02:23.645731 30930 net.cpp:399] inception_4c/output_inception_4c/output_0_split -> inception_4c/output_inception_4c/output_0_split_1
I0403 15:02:23.645755 30930 net.cpp:399] inception_4c/output_inception_4c/output_0_split -> inception_4c/output_inception_4c/output_0_split_2
I0403 15:02:23.645773 30930 net.cpp:399] inception_4c/output_inception_4c/output_0_split -> inception_4c/output_inception_4c/output_0_split_3
I0403 15:02:23.645859 30930 net.cpp:141] Setting up inception_4c/output_inception_4c/output_0_split
I0403 15:02:23.645882 30930 net.cpp:148] Top shape: 24 512 14 14 (2408448)
I0403 15:02:23.645900 30930 net.cpp:148] Top shape: 24 512 14 14 (2408448)
I0403 15:02:23.645915 30930 net.cpp:148] Top shape: 24 512 14 14 (2408448)
I0403 15:02:23.645930 30930 net.cpp:148] Top shape: 24 512 14 14 (2408448)
I0403 15:02:23.645942 30930 net.cpp:156] Memory required for data: 1111182624
I0403 15:02:23.645956 30930 layer_factory.hpp:77] Creating layer inception_4d/1x1
I0403 15:02:23.645978 30930 net.cpp:91] Creating Layer inception_4d/1x1
I0403 15:02:23.645995 30930 net.cpp:425] inception_4d/1x1 <- inception_4c/output_inception_4c/output_0_split_0
I0403 15:02:23.646016 30930 net.cpp:399] inception_4d/1x1 -> inception_4d/1x1
I0403 15:02:23.647408 30930 net.cpp:141] Setting up inception_4d/1x1
I0403 15:02:23.647438 30930 net.cpp:148] Top shape: 24 112 14 14 (526848)
I0403 15:02:23.647452 30930 net.cpp:156] Memory required for data: 1113290016
I0403 15:02:23.647470 30930 layer_factory.hpp:77] Creating layer inception_4d/relu_1x1
I0403 15:02:23.647490 30930 net.cpp:91] Creating Layer inception_4d/relu_1x1
I0403 15:02:23.647507 30930 net.cpp:425] inception_4d/relu_1x1 <- inception_4d/1x1
I0403 15:02:23.647526 30930 net.cpp:386] inception_4d/relu_1x1 -> inception_4d/1x1 (in-place)
I0403 15:02:23.647711 30930 net.cpp:141] Setting up inception_4d/relu_1x1
I0403 15:02:23.647737 30930 net.cpp:148] Top shape: 24 112 14 14 (526848)
I0403 15:02:23.647750 30930 net.cpp:156] Memory required for data: 1115397408
I0403 15:02:23.647765 30930 layer_factory.hpp:77] Creating layer inception_4d/3x3_reduce
I0403 15:02:23.647810 30930 net.cpp:91] Creating Layer inception_4d/3x3_reduce
I0403 15:02:23.647830 30930 net.cpp:425] inception_4d/3x3_reduce <- inception_4c/output_inception_4c/output_0_split_1
I0403 15:02:23.647848 30930 net.cpp:399] inception_4d/3x3_reduce -> inception_4d/3x3_reduce
I0403 15:02:23.649351 30930 net.cpp:141] Setting up inception_4d/3x3_reduce
I0403 15:02:23.649379 30930 net.cpp:148] Top shape: 24 144 14 14 (677376)
I0403 15:02:23.649395 30930 net.cpp:156] Memory required for data: 1118106912
I0403 15:02:23.649413 30930 layer_factory.hpp:77] Creating layer inception_4d/relu_3x3_reduce
I0403 15:02:23.649430 30930 net.cpp:91] Creating Layer inception_4d/relu_3x3_reduce
I0403 15:02:23.649446 30930 net.cpp:425] inception_4d/relu_3x3_reduce <- inception_4d/3x3_reduce
I0403 15:02:23.649464 30930 net.cpp:386] inception_4d/relu_3x3_reduce -> inception_4d/3x3_reduce (in-place)
I0403 15:02:23.649765 30930 net.cpp:141] Setting up inception_4d/relu_3x3_reduce
I0403 15:02:23.649791 30930 net.cpp:148] Top shape: 24 144 14 14 (677376)
I0403 15:02:23.649806 30930 net.cpp:156] Memory required for data: 1120816416
I0403 15:02:23.649819 30930 layer_factory.hpp:77] Creating layer inception_4d/3x3
I0403 15:02:23.649842 30930 net.cpp:91] Creating Layer inception_4d/3x3
I0403 15:02:23.649858 30930 net.cpp:425] inception_4d/3x3 <- inception_4d/3x3_reduce
I0403 15:02:23.649878 30930 net.cpp:399] inception_4d/3x3 -> inception_4d/3x3
I0403 15:02:23.654021 30930 net.cpp:141] Setting up inception_4d/3x3
I0403 15:02:23.654049 30930 net.cpp:148] Top shape: 24 288 14 14 (1354752)
I0403 15:02:23.654065 30930 net.cpp:156] Memory required for data: 1126235424
I0403 15:02:23.654083 30930 layer_factory.hpp:77] Creating layer inception_4d/relu_3x3
I0403 15:02:23.654103 30930 net.cpp:91] Creating Layer inception_4d/relu_3x3
I0403 15:02:23.654119 30930 net.cpp:425] inception_4d/relu_3x3 <- inception_4d/3x3
I0403 15:02:23.654135 30930 net.cpp:386] inception_4d/relu_3x3 -> inception_4d/3x3 (in-place)
I0403 15:02:23.654325 30930 net.cpp:141] Setting up inception_4d/relu_3x3
I0403 15:02:23.654351 30930 net.cpp:148] Top shape: 24 288 14 14 (1354752)
I0403 15:02:23.654366 30930 net.cpp:156] Memory required for data: 1131654432
I0403 15:02:23.654381 30930 layer_factory.hpp:77] Creating layer inception_4d/5x5_reduce
I0403 15:02:23.654402 30930 net.cpp:91] Creating Layer inception_4d/5x5_reduce
I0403 15:02:23.654419 30930 net.cpp:425] inception_4d/5x5_reduce <- inception_4c/output_inception_4c/output_0_split_2
I0403 15:02:23.654438 30930 net.cpp:399] inception_4d/5x5_reduce -> inception_4d/5x5_reduce
I0403 15:02:23.655580 30930 net.cpp:141] Setting up inception_4d/5x5_reduce
I0403 15:02:23.655607 30930 net.cpp:148] Top shape: 24 32 14 14 (150528)
I0403 15:02:23.655622 30930 net.cpp:156] Memory required for data: 1132256544
I0403 15:02:23.655640 30930 layer_factory.hpp:77] Creating layer inception_4d/relu_5x5_reduce
I0403 15:02:23.655660 30930 net.cpp:91] Creating Layer inception_4d/relu_5x5_reduce
I0403 15:02:23.655675 30930 net.cpp:425] inception_4d/relu_5x5_reduce <- inception_4d/5x5_reduce
I0403 15:02:23.655692 30930 net.cpp:386] inception_4d/relu_5x5_reduce -> inception_4d/5x5_reduce (in-place)
I0403 15:02:23.655876 30930 net.cpp:141] Setting up inception_4d/relu_5x5_reduce
I0403 15:02:23.655900 30930 net.cpp:148] Top shape: 24 32 14 14 (150528)
I0403 15:02:23.655915 30930 net.cpp:156] Memory required for data: 1132858656
I0403 15:02:23.655930 30930 layer_factory.hpp:77] Creating layer inception_4d/5x5
I0403 15:02:23.655952 30930 net.cpp:91] Creating Layer inception_4d/5x5
I0403 15:02:23.655969 30930 net.cpp:425] inception_4d/5x5 <- inception_4d/5x5_reduce
I0403 15:02:23.655987 30930 net.cpp:399] inception_4d/5x5 -> inception_4d/5x5
I0403 15:02:23.657423 30930 net.cpp:141] Setting up inception_4d/5x5
I0403 15:02:23.657451 30930 net.cpp:148] Top shape: 24 64 14 14 (301056)
I0403 15:02:23.657467 30930 net.cpp:156] Memory required for data: 1134062880
I0403 15:02:23.657485 30930 layer_factory.hpp:77] Creating layer inception_4d/relu_5x5
I0403 15:02:23.657516 30930 net.cpp:91] Creating Layer inception_4d/relu_5x5
I0403 15:02:23.657536 30930 net.cpp:425] inception_4d/relu_5x5 <- inception_4d/5x5
I0403 15:02:23.657557 30930 net.cpp:386] inception_4d/relu_5x5 -> inception_4d/5x5 (in-place)
I0403 15:02:23.657850 30930 net.cpp:141] Setting up inception_4d/relu_5x5
I0403 15:02:23.657877 30930 net.cpp:148] Top shape: 24 64 14 14 (301056)
I0403 15:02:23.657892 30930 net.cpp:156] Memory required for data: 1135267104
I0403 15:02:23.657907 30930 layer_factory.hpp:77] Creating layer inception_4d/pool
I0403 15:02:23.657924 30930 net.cpp:91] Creating Layer inception_4d/pool
I0403 15:02:23.657939 30930 net.cpp:425] inception_4d/pool <- inception_4c/output_inception_4c/output_0_split_3
I0403 15:02:23.657959 30930 net.cpp:399] inception_4d/pool -> inception_4d/pool
I0403 15:02:23.658025 30930 net.cpp:141] Setting up inception_4d/pool
I0403 15:02:23.658046 30930 net.cpp:148] Top shape: 24 512 14 14 (2408448)
I0403 15:02:23.658061 30930 net.cpp:156] Memory required for data: 1144900896
I0403 15:02:23.658074 30930 layer_factory.hpp:77] Creating layer inception_4d/pool_proj
I0403 15:02:23.658095 30930 net.cpp:91] Creating Layer inception_4d/pool_proj
I0403 15:02:23.658113 30930 net.cpp:425] inception_4d/pool_proj <- inception_4d/pool
I0403 15:02:23.658133 30930 net.cpp:399] inception_4d/pool_proj -> inception_4d/pool_proj
I0403 15:02:23.659898 30930 net.cpp:141] Setting up inception_4d/pool_proj
I0403 15:02:23.659926 30930 net.cpp:148] Top shape: 24 64 14 14 (301056)
I0403 15:02:23.659941 30930 net.cpp:156] Memory required for data: 1146105120
I0403 15:02:23.659958 30930 layer_factory.hpp:77] Creating layer inception_4d/relu_pool_proj
I0403 15:02:23.659977 30930 net.cpp:91] Creating Layer inception_4d/relu_pool_proj
I0403 15:02:23.659994 30930 net.cpp:425] inception_4d/relu_pool_proj <- inception_4d/pool_proj
I0403 15:02:23.660012 30930 net.cpp:386] inception_4d/relu_pool_proj -> inception_4d/pool_proj (in-place)
I0403 15:02:23.660193 30930 net.cpp:141] Setting up inception_4d/relu_pool_proj
I0403 15:02:23.660219 30930 net.cpp:148] Top shape: 24 64 14 14 (301056)
I0403 15:02:23.660234 30930 net.cpp:156] Memory required for data: 1147309344
I0403 15:02:23.660248 30930 layer_factory.hpp:77] Creating layer inception_4d/output
I0403 15:02:23.660264 30930 net.cpp:91] Creating Layer inception_4d/output
I0403 15:02:23.660279 30930 net.cpp:425] inception_4d/output <- inception_4d/1x1
I0403 15:02:23.660295 30930 net.cpp:425] inception_4d/output <- inception_4d/3x3
I0403 15:02:23.660311 30930 net.cpp:425] inception_4d/output <- inception_4d/5x5
I0403 15:02:23.660326 30930 net.cpp:425] inception_4d/output <- inception_4d/pool_proj
I0403 15:02:23.660342 30930 net.cpp:399] inception_4d/output -> inception_4d/output
I0403 15:02:23.660389 30930 net.cpp:141] Setting up inception_4d/output
I0403 15:02:23.660413 30930 net.cpp:148] Top shape: 24 528 14 14 (2483712)
I0403 15:02:23.660425 30930 net.cpp:156] Memory required for data: 1157244192
I0403 15:02:23.660439 30930 layer_factory.hpp:77] Creating layer inception_4d/output_inception_4d/output_0_split
I0403 15:02:23.660459 30930 net.cpp:91] Creating Layer inception_4d/output_inception_4d/output_0_split
I0403 15:02:23.660475 30930 net.cpp:425] inception_4d/output_inception_4d/output_0_split <- inception_4d/output
I0403 15:02:23.660493 30930 net.cpp:399] inception_4d/output_inception_4d/output_0_split -> inception_4d/output_inception_4d/output_0_split_0
I0403 15:02:23.660512 30930 net.cpp:399] inception_4d/output_inception_4d/output_0_split -> inception_4d/output_inception_4d/output_0_split_1
I0403 15:02:23.660531 30930 net.cpp:399] inception_4d/output_inception_4d/output_0_split -> inception_4d/output_inception_4d/output_0_split_2
I0403 15:02:23.660557 30930 net.cpp:399] inception_4d/output_inception_4d/output_0_split -> inception_4d/output_inception_4d/output_0_split_3
I0403 15:02:23.660580 30930 net.cpp:399] inception_4d/output_inception_4d/output_0_split -> inception_4d/output_inception_4d/output_0_split_4
I0403 15:02:23.660686 30930 net.cpp:141] Setting up inception_4d/output_inception_4d/output_0_split
I0403 15:02:23.660719 30930 net.cpp:148] Top shape: 24 528 14 14 (2483712)
I0403 15:02:23.660735 30930 net.cpp:148] Top shape: 24 528 14 14 (2483712)
I0403 15:02:23.660751 30930 net.cpp:148] Top shape: 24 528 14 14 (2483712)
I0403 15:02:23.660766 30930 net.cpp:148] Top shape: 24 528 14 14 (2483712)
I0403 15:02:23.660781 30930 net.cpp:148] Top shape: 24 528 14 14 (2483712)
I0403 15:02:23.660794 30930 net.cpp:156] Memory required for data: 1206918432
I0403 15:02:23.660809 30930 layer_factory.hpp:77] Creating layer loss2/ave_pool
I0403 15:02:23.660825 30930 net.cpp:91] Creating Layer loss2/ave_pool
I0403 15:02:23.660843 30930 net.cpp:425] loss2/ave_pool <- inception_4d/output_inception_4d/output_0_split_0
I0403 15:02:23.660861 30930 net.cpp:399] loss2/ave_pool -> loss2/ave_pool
I0403 15:02:23.661169 30930 net.cpp:141] Setting up loss2/ave_pool
I0403 15:02:23.661193 30930 net.cpp:148] Top shape: 24 528 4 4 (202752)
I0403 15:02:23.661207 30930 net.cpp:156] Memory required for data: 1207729440
I0403 15:02:23.661221 30930 layer_factory.hpp:77] Creating layer loss2/conv
I0403 15:02:23.661243 30930 net.cpp:91] Creating Layer loss2/conv
I0403 15:02:23.661259 30930 net.cpp:425] loss2/conv <- loss2/ave_pool
I0403 15:02:23.661279 30930 net.cpp:399] loss2/conv -> loss2/conv
I0403 15:02:23.663135 30930 net.cpp:141] Setting up loss2/conv
I0403 15:02:23.663166 30930 net.cpp:148] Top shape: 24 128 4 4 (49152)
I0403 15:02:23.663183 30930 net.cpp:156] Memory required for data: 1207926048
I0403 15:02:23.663202 30930 layer_factory.hpp:77] Creating layer loss2/relu_conv
I0403 15:02:23.663220 30930 net.cpp:91] Creating Layer loss2/relu_conv
I0403 15:02:23.663235 30930 net.cpp:425] loss2/relu_conv <- loss2/conv
I0403 15:02:23.663251 30930 net.cpp:386] loss2/relu_conv -> loss2/conv (in-place)
I0403 15:02:23.663530 30930 net.cpp:141] Setting up loss2/relu_conv
I0403 15:02:23.663563 30930 net.cpp:148] Top shape: 24 128 4 4 (49152)
I0403 15:02:23.663578 30930 net.cpp:156] Memory required for data: 1208122656
I0403 15:02:23.663594 30930 layer_factory.hpp:77] Creating layer loss2/fc
I0403 15:02:23.663611 30930 net.cpp:91] Creating Layer loss2/fc
I0403 15:02:23.663626 30930 net.cpp:425] loss2/fc <- loss2/conv
I0403 15:02:23.663646 30930 net.cpp:399] loss2/fc -> loss2/fc
I0403 15:02:23.681325 30930 net.cpp:141] Setting up loss2/fc
I0403 15:02:23.681367 30930 net.cpp:148] Top shape: 24 1024 (24576)
I0403 15:02:23.681391 30930 net.cpp:156] Memory required for data: 1208220960
I0403 15:02:23.681411 30930 layer_factory.hpp:77] Creating layer loss2/relu_fc
I0403 15:02:23.681428 30930 net.cpp:91] Creating Layer loss2/relu_fc
I0403 15:02:23.681444 30930 net.cpp:425] loss2/relu_fc <- loss2/fc
I0403 15:02:23.681462 30930 net.cpp:386] loss2/relu_fc -> loss2/fc (in-place)
I0403 15:02:23.681783 30930 net.cpp:141] Setting up loss2/relu_fc
I0403 15:02:23.681809 30930 net.cpp:148] Top shape: 24 1024 (24576)
I0403 15:02:23.681824 30930 net.cpp:156] Memory required for data: 1208319264
I0403 15:02:23.681839 30930 layer_factory.hpp:77] Creating layer loss2/drop_fc
I0403 15:02:23.681859 30930 net.cpp:91] Creating Layer loss2/drop_fc
I0403 15:02:23.681876 30930 net.cpp:425] loss2/drop_fc <- loss2/fc
I0403 15:02:23.681893 30930 net.cpp:386] loss2/drop_fc -> loss2/fc (in-place)
I0403 15:02:23.681944 30930 net.cpp:141] Setting up loss2/drop_fc
I0403 15:02:23.681967 30930 net.cpp:148] Top shape: 24 1024 (24576)
I0403 15:02:23.681982 30930 net.cpp:156] Memory required for data: 1208417568
I0403 15:02:23.681995 30930 layer_factory.hpp:77] Creating layer loss2/classifier_plantvillage
I0403 15:02:23.682016 30930 net.cpp:91] Creating Layer loss2/classifier_plantvillage
I0403 15:02:23.682032 30930 net.cpp:425] loss2/classifier_plantvillage <- loss2/fc
I0403 15:02:23.682050 30930 net.cpp:399] loss2/classifier_plantvillage -> loss2/classifier_plantvillage
I0403 15:02:23.682466 30930 net.cpp:141] Setting up loss2/classifier_plantvillage
I0403 15:02:23.682489 30930 net.cpp:148] Top shape: 24 38 (912)
I0403 15:02:23.682523 30930 net.cpp:156] Memory required for data: 1208421216
I0403 15:02:23.682545 30930 layer_factory.hpp:77] Creating layer loss2/classifier_plantvillage_loss2/classifier_plantvillage_0_split
I0403 15:02:23.682564 30930 net.cpp:91] Creating Layer loss2/classifier_plantvillage_loss2/classifier_plantvillage_0_split
I0403 15:02:23.682579 30930 net.cpp:425] loss2/classifier_plantvillage_loss2/classifier_plantvillage_0_split <- loss2/classifier_plantvillage
I0403 15:02:23.682598 30930 net.cpp:399] loss2/classifier_plantvillage_loss2/classifier_plantvillage_0_split -> loss2/classifier_plantvillage_loss2/classifier_plantvillage_0_split_0
I0403 15:02:23.682618 30930 net.cpp:399] loss2/classifier_plantvillage_loss2/classifier_plantvillage_0_split -> loss2/classifier_plantvillage_loss2/classifier_plantvillage_0_split_1
I0403 15:02:23.682639 30930 net.cpp:399] loss2/classifier_plantvillage_loss2/classifier_plantvillage_0_split -> loss2/classifier_plantvillage_loss2/classifier_plantvillage_0_split_2
I0403 15:02:23.682714 30930 net.cpp:141] Setting up loss2/classifier_plantvillage_loss2/classifier_plantvillage_0_split
I0403 15:02:23.682739 30930 net.cpp:148] Top shape: 24 38 (912)
I0403 15:02:23.682755 30930 net.cpp:148] Top shape: 24 38 (912)
I0403 15:02:23.682770 30930 net.cpp:148] Top shape: 24 38 (912)
I0403 15:02:23.682783 30930 net.cpp:156] Memory required for data: 1208432160
I0403 15:02:23.682798 30930 layer_factory.hpp:77] Creating layer inception_4e/1x1
I0403 15:02:23.682819 30930 net.cpp:91] Creating Layer inception_4e/1x1
I0403 15:02:23.682835 30930 net.cpp:425] inception_4e/1x1 <- inception_4d/output_inception_4d/output_0_split_1
I0403 15:02:23.682853 30930 net.cpp:399] inception_4e/1x1 -> inception_4e/1x1
I0403 15:02:23.684639 30930 net.cpp:141] Setting up inception_4e/1x1
I0403 15:02:23.684669 30930 net.cpp:148] Top shape: 24 256 14 14 (1204224)
I0403 15:02:23.684685 30930 net.cpp:156] Memory required for data: 1213249056
I0403 15:02:23.684703 30930 layer_factory.hpp:77] Creating layer inception_4e/relu_1x1
I0403 15:02:23.684720 30930 net.cpp:91] Creating Layer inception_4e/relu_1x1
I0403 15:02:23.684736 30930 net.cpp:425] inception_4e/relu_1x1 <- inception_4e/1x1
I0403 15:02:23.684756 30930 net.cpp:386] inception_4e/relu_1x1 -> inception_4e/1x1 (in-place)
I0403 15:02:23.685042 30930 net.cpp:141] Setting up inception_4e/relu_1x1
I0403 15:02:23.685070 30930 net.cpp:148] Top shape: 24 256 14 14 (1204224)
I0403 15:02:23.685086 30930 net.cpp:156] Memory required for data: 1218065952
I0403 15:02:23.685099 30930 layer_factory.hpp:77] Creating layer inception_4e/3x3_reduce
I0403 15:02:23.685120 30930 net.cpp:91] Creating Layer inception_4e/3x3_reduce
I0403 15:02:23.685137 30930 net.cpp:425] inception_4e/3x3_reduce <- inception_4d/output_inception_4d/output_0_split_2
I0403 15:02:23.685156 30930 net.cpp:399] inception_4e/3x3_reduce -> inception_4e/3x3_reduce
I0403 15:02:23.687222 30930 net.cpp:141] Setting up inception_4e/3x3_reduce
I0403 15:02:23.687252 30930 net.cpp:148] Top shape: 24 160 14 14 (752640)
I0403 15:02:23.687268 30930 net.cpp:156] Memory required for data: 1221076512
I0403 15:02:23.687286 30930 layer_factory.hpp:77] Creating layer inception_4e/relu_3x3_reduce
I0403 15:02:23.687304 30930 net.cpp:91] Creating Layer inception_4e/relu_3x3_reduce
I0403 15:02:23.687319 30930 net.cpp:425] inception_4e/relu_3x3_reduce <- inception_4e/3x3_reduce
I0403 15:02:23.687335 30930 net.cpp:386] inception_4e/relu_3x3_reduce -> inception_4e/3x3_reduce (in-place)
I0403 15:02:23.687521 30930 net.cpp:141] Setting up inception_4e/relu_3x3_reduce
I0403 15:02:23.687551 30930 net.cpp:148] Top shape: 24 160 14 14 (752640)
I0403 15:02:23.687571 30930 net.cpp:156] Memory required for data: 1224087072
I0403 15:02:23.687585 30930 layer_factory.hpp:77] Creating layer inception_4e/3x3
I0403 15:02:23.687607 30930 net.cpp:91] Creating Layer inception_4e/3x3
I0403 15:02:23.687623 30930 net.cpp:425] inception_4e/3x3 <- inception_4e/3x3_reduce
I0403 15:02:23.687644 30930 net.cpp:399] inception_4e/3x3 -> inception_4e/3x3
I0403 15:02:23.692531 30930 net.cpp:141] Setting up inception_4e/3x3
I0403 15:02:23.692577 30930 net.cpp:148] Top shape: 24 320 14 14 (1505280)
I0403 15:02:23.692606 30930 net.cpp:156] Memory required for data: 1230108192
I0403 15:02:23.692625 30930 layer_factory.hpp:77] Creating layer inception_4e/relu_3x3
I0403 15:02:23.692641 30930 net.cpp:91] Creating Layer inception_4e/relu_3x3
I0403 15:02:23.692669 30930 net.cpp:425] inception_4e/relu_3x3 <- inception_4e/3x3
I0403 15:02:23.692688 30930 net.cpp:386] inception_4e/relu_3x3 -> inception_4e/3x3 (in-place)
I0403 15:02:23.692986 30930 net.cpp:141] Setting up inception_4e/relu_3x3
I0403 15:02:23.693011 30930 net.cpp:148] Top shape: 24 320 14 14 (1505280)
I0403 15:02:23.693025 30930 net.cpp:156] Memory required for data: 1236129312
I0403 15:02:23.693040 30930 layer_factory.hpp:77] Creating layer inception_4e/5x5_reduce
I0403 15:02:23.693061 30930 net.cpp:91] Creating Layer inception_4e/5x5_reduce
I0403 15:02:23.693078 30930 net.cpp:425] inception_4e/5x5_reduce <- inception_4d/output_inception_4d/output_0_split_3
I0403 15:02:23.693099 30930 net.cpp:399] inception_4e/5x5_reduce -> inception_4e/5x5_reduce
I0403 15:02:23.694146 30930 net.cpp:141] Setting up inception_4e/5x5_reduce
I0403 15:02:23.694176 30930 net.cpp:148] Top shape: 24 32 14 14 (150528)
I0403 15:02:23.694193 30930 net.cpp:156] Memory required for data: 1236731424
I0403 15:02:23.694211 30930 layer_factory.hpp:77] Creating layer inception_4e/relu_5x5_reduce
I0403 15:02:23.694228 30930 net.cpp:91] Creating Layer inception_4e/relu_5x5_reduce
I0403 15:02:23.694244 30930 net.cpp:425] inception_4e/relu_5x5_reduce <- inception_4e/5x5_reduce
I0403 15:02:23.694263 30930 net.cpp:386] inception_4e/relu_5x5_reduce -> inception_4e/5x5_reduce (in-place)
I0403 15:02:23.694564 30930 net.cpp:141] Setting up inception_4e/relu_5x5_reduce
I0403 15:02:23.694592 30930 net.cpp:148] Top shape: 24 32 14 14 (150528)
I0403 15:02:23.694608 30930 net.cpp:156] Memory required for data: 1237333536
I0403 15:02:23.694622 30930 layer_factory.hpp:77] Creating layer inception_4e/5x5
I0403 15:02:23.694661 30930 net.cpp:91] Creating Layer inception_4e/5x5
I0403 15:02:23.694679 30930 net.cpp:425] inception_4e/5x5 <- inception_4e/5x5_reduce
I0403 15:02:23.694699 30930 net.cpp:399] inception_4e/5x5 -> inception_4e/5x5
I0403 15:02:23.696502 30930 net.cpp:141] Setting up inception_4e/5x5
I0403 15:02:23.696529 30930 net.cpp:148] Top shape: 24 128 14 14 (602112)
I0403 15:02:23.696550 30930 net.cpp:156] Memory required for data: 1239741984
I0403 15:02:23.696568 30930 layer_factory.hpp:77] Creating layer inception_4e/relu_5x5
I0403 15:02:23.696589 30930 net.cpp:91] Creating Layer inception_4e/relu_5x5
I0403 15:02:23.696606 30930 net.cpp:425] inception_4e/relu_5x5 <- inception_4e/5x5
I0403 15:02:23.696622 30930 net.cpp:386] inception_4e/relu_5x5 -> inception_4e/5x5 (in-place)
I0403 15:02:23.696815 30930 net.cpp:141] Setting up inception_4e/relu_5x5
I0403 15:02:23.696841 30930 net.cpp:148] Top shape: 24 128 14 14 (602112)
I0403 15:02:23.696856 30930 net.cpp:156] Memory required for data: 1242150432
I0403 15:02:23.696871 30930 layer_factory.hpp:77] Creating layer inception_4e/pool
I0403 15:02:23.696887 30930 net.cpp:91] Creating Layer inception_4e/pool
I0403 15:02:23.696902 30930 net.cpp:425] inception_4e/pool <- inception_4d/output_inception_4d/output_0_split_4
I0403 15:02:23.696923 30930 net.cpp:399] inception_4e/pool -> inception_4e/pool
I0403 15:02:23.696991 30930 net.cpp:141] Setting up inception_4e/pool
I0403 15:02:23.697015 30930 net.cpp:148] Top shape: 24 528 14 14 (2483712)
I0403 15:02:23.697027 30930 net.cpp:156] Memory required for data: 1252085280
I0403 15:02:23.697041 30930 layer_factory.hpp:77] Creating layer inception_4e/pool_proj
I0403 15:02:23.697062 30930 net.cpp:91] Creating Layer inception_4e/pool_proj
I0403 15:02:23.697082 30930 net.cpp:425] inception_4e/pool_proj <- inception_4e/pool
I0403 15:02:23.697098 30930 net.cpp:399] inception_4e/pool_proj -> inception_4e/pool_proj
I0403 15:02:23.698570 30930 net.cpp:141] Setting up inception_4e/pool_proj
I0403 15:02:23.698609 30930 net.cpp:148] Top shape: 24 128 14 14 (602112)
I0403 15:02:23.698624 30930 net.cpp:156] Memory required for data: 1254493728
I0403 15:02:23.698642 30930 layer_factory.hpp:77] Creating layer inception_4e/relu_pool_proj
I0403 15:02:23.698662 30930 net.cpp:91] Creating Layer inception_4e/relu_pool_proj
I0403 15:02:23.698684 30930 net.cpp:425] inception_4e/relu_pool_proj <- inception_4e/pool_proj
I0403 15:02:23.698701 30930 net.cpp:386] inception_4e/relu_pool_proj -> inception_4e/pool_proj (in-place)
I0403 15:02:23.698987 30930 net.cpp:141] Setting up inception_4e/relu_pool_proj
I0403 15:02:23.699012 30930 net.cpp:148] Top shape: 24 128 14 14 (602112)
I0403 15:02:23.699026 30930 net.cpp:156] Memory required for data: 1256902176
I0403 15:02:23.699039 30930 layer_factory.hpp:77] Creating layer inception_4e/output
I0403 15:02:23.699057 30930 net.cpp:91] Creating Layer inception_4e/output
I0403 15:02:23.699071 30930 net.cpp:425] inception_4e/output <- inception_4e/1x1
I0403 15:02:23.699090 30930 net.cpp:425] inception_4e/output <- inception_4e/3x3
I0403 15:02:23.699106 30930 net.cpp:425] inception_4e/output <- inception_4e/5x5
I0403 15:02:23.699121 30930 net.cpp:425] inception_4e/output <- inception_4e/pool_proj
I0403 15:02:23.699137 30930 net.cpp:399] inception_4e/output -> inception_4e/output
I0403 15:02:23.699187 30930 net.cpp:141] Setting up inception_4e/output
I0403 15:02:23.699210 30930 net.cpp:148] Top shape: 24 832 14 14 (3913728)
I0403 15:02:23.699224 30930 net.cpp:156] Memory required for data: 1272557088
I0403 15:02:23.699239 30930 layer_factory.hpp:77] Creating layer pool4/3x3_s2
I0403 15:02:23.699255 30930 net.cpp:91] Creating Layer pool4/3x3_s2
I0403 15:02:23.699270 30930 net.cpp:425] pool4/3x3_s2 <- inception_4e/output
I0403 15:02:23.699290 30930 net.cpp:399] pool4/3x3_s2 -> pool4/3x3_s2
I0403 15:02:23.699355 30930 net.cpp:141] Setting up pool4/3x3_s2
I0403 15:02:23.699378 30930 net.cpp:148] Top shape: 24 832 7 7 (978432)
I0403 15:02:23.699391 30930 net.cpp:156] Memory required for data: 1276470816
I0403 15:02:23.699405 30930 layer_factory.hpp:77] Creating layer pool4/3x3_s2_pool4/3x3_s2_0_split
I0403 15:02:23.699424 30930 net.cpp:91] Creating Layer pool4/3x3_s2_pool4/3x3_s2_0_split
I0403 15:02:23.699441 30930 net.cpp:425] pool4/3x3_s2_pool4/3x3_s2_0_split <- pool4/3x3_s2
I0403 15:02:23.699458 30930 net.cpp:399] pool4/3x3_s2_pool4/3x3_s2_0_split -> pool4/3x3_s2_pool4/3x3_s2_0_split_0
I0403 15:02:23.699481 30930 net.cpp:399] pool4/3x3_s2_pool4/3x3_s2_0_split -> pool4/3x3_s2_pool4/3x3_s2_0_split_1
I0403 15:02:23.699501 30930 net.cpp:399] pool4/3x3_s2_pool4/3x3_s2_0_split -> pool4/3x3_s2_pool4/3x3_s2_0_split_2
I0403 15:02:23.699519 30930 net.cpp:399] pool4/3x3_s2_pool4/3x3_s2_0_split -> pool4/3x3_s2_pool4/3x3_s2_0_split_3
I0403 15:02:23.699611 30930 net.cpp:141] Setting up pool4/3x3_s2_pool4/3x3_s2_0_split
I0403 15:02:23.699635 30930 net.cpp:148] Top shape: 24 832 7 7 (978432)
I0403 15:02:23.699650 30930 net.cpp:148] Top shape: 24 832 7 7 (978432)
I0403 15:02:23.699663 30930 net.cpp:148] Top shape: 24 832 7 7 (978432)
I0403 15:02:23.699687 30930 net.cpp:148] Top shape: 24 832 7 7 (978432)
I0403 15:02:23.699698 30930 net.cpp:156] Memory required for data: 1292125728
I0403 15:02:23.699712 30930 layer_factory.hpp:77] Creating layer inception_5a/1x1
I0403 15:02:23.699734 30930 net.cpp:91] Creating Layer inception_5a/1x1
I0403 15:02:23.699750 30930 net.cpp:425] inception_5a/1x1 <- pool4/3x3_s2_pool4/3x3_s2_0_split_0
I0403 15:02:23.699771 30930 net.cpp:399] inception_5a/1x1 -> inception_5a/1x1
I0403 15:02:23.702595 30930 net.cpp:141] Setting up inception_5a/1x1
I0403 15:02:23.702625 30930 net.cpp:148] Top shape: 24 256 7 7 (301056)
I0403 15:02:23.702641 30930 net.cpp:156] Memory required for data: 1293329952
I0403 15:02:23.702658 30930 layer_factory.hpp:77] Creating layer inception_5a/relu_1x1
I0403 15:02:23.702675 30930 net.cpp:91] Creating Layer inception_5a/relu_1x1
I0403 15:02:23.702692 30930 net.cpp:425] inception_5a/relu_1x1 <- inception_5a/1x1
I0403 15:02:23.702708 30930 net.cpp:386] inception_5a/relu_1x1 -> inception_5a/1x1 (in-place)
I0403 15:02:23.703011 30930 net.cpp:141] Setting up inception_5a/relu_1x1
I0403 15:02:23.703039 30930 net.cpp:148] Top shape: 24 256 7 7 (301056)
I0403 15:02:23.703054 30930 net.cpp:156] Memory required for data: 1294534176
I0403 15:02:23.703068 30930 layer_factory.hpp:77] Creating layer inception_5a/3x3_reduce
I0403 15:02:23.703088 30930 net.cpp:91] Creating Layer inception_5a/3x3_reduce
I0403 15:02:23.703104 30930 net.cpp:425] inception_5a/3x3_reduce <- pool4/3x3_s2_pool4/3x3_s2_0_split_1
I0403 15:02:23.703125 30930 net.cpp:399] inception_5a/3x3_reduce -> inception_5a/3x3_reduce
I0403 15:02:23.705555 30930 net.cpp:141] Setting up inception_5a/3x3_reduce
I0403 15:02:23.705585 30930 net.cpp:148] Top shape: 24 160 7 7 (188160)
I0403 15:02:23.705600 30930 net.cpp:156] Memory required for data: 1295286816
I0403 15:02:23.705618 30930 layer_factory.hpp:77] Creating layer inception_5a/relu_3x3_reduce
I0403 15:02:23.705636 30930 net.cpp:91] Creating Layer inception_5a/relu_3x3_reduce
I0403 15:02:23.705651 30930 net.cpp:425] inception_5a/relu_3x3_reduce <- inception_5a/3x3_reduce
I0403 15:02:23.705669 30930 net.cpp:386] inception_5a/relu_3x3_reduce -> inception_5a/3x3_reduce (in-place)
I0403 15:02:23.705853 30930 net.cpp:141] Setting up inception_5a/relu_3x3_reduce
I0403 15:02:23.705878 30930 net.cpp:148] Top shape: 24 160 7 7 (188160)
I0403 15:02:23.705893 30930 net.cpp:156] Memory required for data: 1296039456
I0403 15:02:23.705906 30930 layer_factory.hpp:77] Creating layer inception_5a/3x3
I0403 15:02:23.705927 30930 net.cpp:91] Creating Layer inception_5a/3x3
I0403 15:02:23.705945 30930 net.cpp:425] inception_5a/3x3 <- inception_5a/3x3_reduce
I0403 15:02:23.705965 30930 net.cpp:399] inception_5a/3x3 -> inception_5a/3x3
I0403 15:02:23.710870 30930 net.cpp:141] Setting up inception_5a/3x3
I0403 15:02:23.710898 30930 net.cpp:148] Top shape: 24 320 7 7 (376320)
I0403 15:02:23.710914 30930 net.cpp:156] Memory required for data: 1297544736
I0403 15:02:23.710932 30930 layer_factory.hpp:77] Creating layer inception_5a/relu_3x3
I0403 15:02:23.710953 30930 net.cpp:91] Creating Layer inception_5a/relu_3x3
I0403 15:02:23.710969 30930 net.cpp:425] inception_5a/relu_3x3 <- inception_5a/3x3
I0403 15:02:23.710985 30930 net.cpp:386] inception_5a/relu_3x3 -> inception_5a/3x3 (in-place)
I0403 15:02:23.711272 30930 net.cpp:141] Setting up inception_5a/relu_3x3
I0403 15:02:23.711297 30930 net.cpp:148] Top shape: 24 320 7 7 (376320)
I0403 15:02:23.711313 30930 net.cpp:156] Memory required for data: 1299050016
I0403 15:02:23.711326 30930 layer_factory.hpp:77] Creating layer inception_5a/5x5_reduce
I0403 15:02:23.711350 30930 net.cpp:91] Creating Layer inception_5a/5x5_reduce
I0403 15:02:23.711369 30930 net.cpp:425] inception_5a/5x5_reduce <- pool4/3x3_s2_pool4/3x3_s2_0_split_2
I0403 15:02:23.711387 30930 net.cpp:399] inception_5a/5x5_reduce -> inception_5a/5x5_reduce
I0403 15:02:23.712532 30930 net.cpp:141] Setting up inception_5a/5x5_reduce
I0403 15:02:23.712565 30930 net.cpp:148] Top shape: 24 32 7 7 (37632)
I0403 15:02:23.712582 30930 net.cpp:156] Memory required for data: 1299200544
I0403 15:02:23.712600 30930 layer_factory.hpp:77] Creating layer inception_5a/relu_5x5_reduce
I0403 15:02:23.712617 30930 net.cpp:91] Creating Layer inception_5a/relu_5x5_reduce
I0403 15:02:23.712633 30930 net.cpp:425] inception_5a/relu_5x5_reduce <- inception_5a/5x5_reduce
I0403 15:02:23.712649 30930 net.cpp:386] inception_5a/relu_5x5_reduce -> inception_5a/5x5_reduce (in-place)
I0403 15:02:23.712942 30930 net.cpp:141] Setting up inception_5a/relu_5x5_reduce
I0403 15:02:23.712970 30930 net.cpp:148] Top shape: 24 32 7 7 (37632)
I0403 15:02:23.712985 30930 net.cpp:156] Memory required for data: 1299351072
I0403 15:02:23.712999 30930 layer_factory.hpp:77] Creating layer inception_5a/5x5
I0403 15:02:23.713021 30930 net.cpp:91] Creating Layer inception_5a/5x5
I0403 15:02:23.713038 30930 net.cpp:425] inception_5a/5x5 <- inception_5a/5x5_reduce
I0403 15:02:23.713057 30930 net.cpp:399] inception_5a/5x5 -> inception_5a/5x5
I0403 15:02:23.714782 30930 net.cpp:141] Setting up inception_5a/5x5
I0403 15:02:23.714820 30930 net.cpp:148] Top shape: 24 128 7 7 (150528)
I0403 15:02:23.714835 30930 net.cpp:156] Memory required for data: 1299953184
I0403 15:02:23.714854 30930 layer_factory.hpp:77] Creating layer inception_5a/relu_5x5
I0403 15:02:23.714872 30930 net.cpp:91] Creating Layer inception_5a/relu_5x5
I0403 15:02:23.714890 30930 net.cpp:425] inception_5a/relu_5x5 <- inception_5a/5x5
I0403 15:02:23.714906 30930 net.cpp:386] inception_5a/relu_5x5 -> inception_5a/5x5 (in-place)
I0403 15:02:23.715093 30930 net.cpp:141] Setting up inception_5a/relu_5x5
I0403 15:02:23.715119 30930 net.cpp:148] Top shape: 24 128 7 7 (150528)
I0403 15:02:23.715133 30930 net.cpp:156] Memory required for data: 1300555296
I0403 15:02:23.715147 30930 layer_factory.hpp:77] Creating layer inception_5a/pool
I0403 15:02:23.715164 30930 net.cpp:91] Creating Layer inception_5a/pool
I0403 15:02:23.715180 30930 net.cpp:425] inception_5a/pool <- pool4/3x3_s2_pool4/3x3_s2_0_split_3
I0403 15:02:23.715200 30930 net.cpp:399] inception_5a/pool -> inception_5a/pool
I0403 15:02:23.715270 30930 net.cpp:141] Setting up inception_5a/pool
I0403 15:02:23.715292 30930 net.cpp:148] Top shape: 24 832 7 7 (978432)
I0403 15:02:23.715306 30930 net.cpp:156] Memory required for data: 1304469024
I0403 15:02:23.715319 30930 layer_factory.hpp:77] Creating layer inception_5a/pool_proj
I0403 15:02:23.715342 30930 net.cpp:91] Creating Layer inception_5a/pool_proj
I0403 15:02:23.715358 30930 net.cpp:425] inception_5a/pool_proj <- inception_5a/pool
I0403 15:02:23.715376 30930 net.cpp:399] inception_5a/pool_proj -> inception_5a/pool_proj
I0403 15:02:23.717644 30930 net.cpp:141] Setting up inception_5a/pool_proj
I0403 15:02:23.717672 30930 net.cpp:148] Top shape: 24 128 7 7 (150528)
I0403 15:02:23.717687 30930 net.cpp:156] Memory required for data: 1305071136
I0403 15:02:23.717705 30930 layer_factory.hpp:77] Creating layer inception_5a/relu_pool_proj
I0403 15:02:23.717725 30930 net.cpp:91] Creating Layer inception_5a/relu_pool_proj
I0403 15:02:23.717741 30930 net.cpp:425] inception_5a/relu_pool_proj <- inception_5a/pool_proj
I0403 15:02:23.717757 30930 net.cpp:386] inception_5a/relu_pool_proj -> inception_5a/pool_proj (in-place)
I0403 15:02:23.718046 30930 net.cpp:141] Setting up inception_5a/relu_pool_proj
I0403 15:02:23.718071 30930 net.cpp:148] Top shape: 24 128 7 7 (150528)
I0403 15:02:23.718086 30930 net.cpp:156] Memory required for data: 1305673248
I0403 15:02:23.718099 30930 layer_factory.hpp:77] Creating layer inception_5a/output
I0403 15:02:23.718121 30930 net.cpp:91] Creating Layer inception_5a/output
I0403 15:02:23.718137 30930 net.cpp:425] inception_5a/output <- inception_5a/1x1
I0403 15:02:23.718153 30930 net.cpp:425] inception_5a/output <- inception_5a/3x3
I0403 15:02:23.718168 30930 net.cpp:425] inception_5a/output <- inception_5a/5x5
I0403 15:02:23.718183 30930 net.cpp:425] inception_5a/output <- inception_5a/pool_proj
I0403 15:02:23.718200 30930 net.cpp:399] inception_5a/output -> inception_5a/output
I0403 15:02:23.718250 30930 net.cpp:141] Setting up inception_5a/output
I0403 15:02:23.718272 30930 net.cpp:148] Top shape: 24 832 7 7 (978432)
I0403 15:02:23.718286 30930 net.cpp:156] Memory required for data: 1309586976
I0403 15:02:23.718300 30930 layer_factory.hpp:77] Creating layer inception_5a/output_inception_5a/output_0_split
I0403 15:02:23.718317 30930 net.cpp:91] Creating Layer inception_5a/output_inception_5a/output_0_split
I0403 15:02:23.718332 30930 net.cpp:425] inception_5a/output_inception_5a/output_0_split <- inception_5a/output
I0403 15:02:23.718350 30930 net.cpp:399] inception_5a/output_inception_5a/output_0_split -> inception_5a/output_inception_5a/output_0_split_0
I0403 15:02:23.718370 30930 net.cpp:399] inception_5a/output_inception_5a/output_0_split -> inception_5a/output_inception_5a/output_0_split_1
I0403 15:02:23.718390 30930 net.cpp:399] inception_5a/output_inception_5a/output_0_split -> inception_5a/output_inception_5a/output_0_split_2
I0403 15:02:23.718410 30930 net.cpp:399] inception_5a/output_inception_5a/output_0_split -> inception_5a/output_inception_5a/output_0_split_3
I0403 15:02:23.718519 30930 net.cpp:141] Setting up inception_5a/output_inception_5a/output_0_split
I0403 15:02:23.718549 30930 net.cpp:148] Top shape: 24 832 7 7 (978432)
I0403 15:02:23.718566 30930 net.cpp:148] Top shape: 24 832 7 7 (978432)
I0403 15:02:23.718583 30930 net.cpp:148] Top shape: 24 832 7 7 (978432)
I0403 15:02:23.718597 30930 net.cpp:148] Top shape: 24 832 7 7 (978432)
I0403 15:02:23.718611 30930 net.cpp:156] Memory required for data: 1325241888
I0403 15:02:23.718626 30930 layer_factory.hpp:77] Creating layer inception_5b/1x1
I0403 15:02:23.718647 30930 net.cpp:91] Creating Layer inception_5b/1x1
I0403 15:02:23.718663 30930 net.cpp:425] inception_5b/1x1 <- inception_5a/output_inception_5a/output_0_split_0
I0403 15:02:23.718682 30930 net.cpp:399] inception_5b/1x1 -> inception_5b/1x1
I0403 15:02:23.722558 30930 net.cpp:141] Setting up inception_5b/1x1
I0403 15:02:23.722589 30930 net.cpp:148] Top shape: 24 384 7 7 (451584)
I0403 15:02:23.722605 30930 net.cpp:156] Memory required for data: 1327048224
I0403 15:02:23.722622 30930 layer_factory.hpp:77] Creating layer inception_5b/relu_1x1
I0403 15:02:23.722643 30930 net.cpp:91] Creating Layer inception_5b/relu_1x1
I0403 15:02:23.722661 30930 net.cpp:425] inception_5b/relu_1x1 <- inception_5b/1x1
I0403 15:02:23.722677 30930 net.cpp:386] inception_5b/relu_1x1 -> inception_5b/1x1 (in-place)
I0403 15:02:23.722988 30930 net.cpp:141] Setting up inception_5b/relu_1x1
I0403 15:02:23.723014 30930 net.cpp:148] Top shape: 24 384 7 7 (451584)
I0403 15:02:23.723029 30930 net.cpp:156] Memory required for data: 1328854560
I0403 15:02:23.723043 30930 layer_factory.hpp:77] Creating layer inception_5b/3x3_reduce
I0403 15:02:23.723065 30930 net.cpp:91] Creating Layer inception_5b/3x3_reduce
I0403 15:02:23.723083 30930 net.cpp:425] inception_5b/3x3_reduce <- inception_5a/output_inception_5a/output_0_split_1
I0403 15:02:23.723105 30930 net.cpp:399] inception_5b/3x3_reduce -> inception_5b/3x3_reduce
I0403 15:02:23.725891 30930 net.cpp:141] Setting up inception_5b/3x3_reduce
I0403 15:02:23.725922 30930 net.cpp:148] Top shape: 24 192 7 7 (225792)
I0403 15:02:23.725942 30930 net.cpp:156] Memory required for data: 1329757728
I0403 15:02:23.725960 30930 layer_factory.hpp:77] Creating layer inception_5b/relu_3x3_reduce
I0403 15:02:23.726002 30930 net.cpp:91] Creating Layer inception_5b/relu_3x3_reduce
I0403 15:02:23.726039 30930 net.cpp:425] inception_5b/relu_3x3_reduce <- inception_5b/3x3_reduce
I0403 15:02:23.726058 30930 net.cpp:386] inception_5b/relu_3x3_reduce -> inception_5b/3x3_reduce (in-place)
I0403 15:02:23.726259 30930 net.cpp:141] Setting up inception_5b/relu_3x3_reduce
I0403 15:02:23.726284 30930 net.cpp:148] Top shape: 24 192 7 7 (225792)
I0403 15:02:23.726299 30930 net.cpp:156] Memory required for data: 1330660896
I0403 15:02:23.726312 30930 layer_factory.hpp:77] Creating layer inception_5b/3x3
I0403 15:02:23.726336 30930 net.cpp:91] Creating Layer inception_5b/3x3
I0403 15:02:23.726353 30930 net.cpp:425] inception_5b/3x3 <- inception_5b/3x3_reduce
I0403 15:02:23.726372 30930 net.cpp:399] inception_5b/3x3 -> inception_5b/3x3
I0403 15:02:23.733160 30930 net.cpp:141] Setting up inception_5b/3x3
I0403 15:02:23.733189 30930 net.cpp:148] Top shape: 24 384 7 7 (451584)
I0403 15:02:23.733204 30930 net.cpp:156] Memory required for data: 1332467232
I0403 15:02:23.733222 30930 layer_factory.hpp:77] Creating layer inception_5b/relu_3x3
I0403 15:02:23.733242 30930 net.cpp:91] Creating Layer inception_5b/relu_3x3
I0403 15:02:23.733260 30930 net.cpp:425] inception_5b/relu_3x3 <- inception_5b/3x3
I0403 15:02:23.733278 30930 net.cpp:386] inception_5b/relu_3x3 -> inception_5b/3x3 (in-place)
I0403 15:02:23.733582 30930 net.cpp:141] Setting up inception_5b/relu_3x3
I0403 15:02:23.733618 30930 net.cpp:148] Top shape: 24 384 7 7 (451584)
I0403 15:02:23.733634 30930 net.cpp:156] Memory required for data: 1334273568
I0403 15:02:23.733649 30930 layer_factory.hpp:77] Creating layer inception_5b/5x5_reduce
I0403 15:02:23.733688 30930 net.cpp:91] Creating Layer inception_5b/5x5_reduce
I0403 15:02:23.733707 30930 net.cpp:425] inception_5b/5x5_reduce <- inception_5a/output_inception_5a/output_0_split_2
I0403 15:02:23.733729 30930 net.cpp:399] inception_5b/5x5_reduce -> inception_5b/5x5_reduce
I0403 15:02:23.735044 30930 net.cpp:141] Setting up inception_5b/5x5_reduce
I0403 15:02:23.735074 30930 net.cpp:148] Top shape: 24 48 7 7 (56448)
I0403 15:02:23.735088 30930 net.cpp:156] Memory required for data: 1334499360
I0403 15:02:23.735106 30930 layer_factory.hpp:77] Creating layer inception_5b/relu_5x5_reduce
I0403 15:02:23.735131 30930 net.cpp:91] Creating Layer inception_5b/relu_5x5_reduce
I0403 15:02:23.735148 30930 net.cpp:425] inception_5b/relu_5x5_reduce <- inception_5b/5x5_reduce
I0403 15:02:23.735165 30930 net.cpp:386] inception_5b/relu_5x5_reduce -> inception_5b/5x5_reduce (in-place)
I0403 15:02:23.735543 30930 net.cpp:141] Setting up inception_5b/relu_5x5_reduce
I0403 15:02:23.735570 30930 net.cpp:148] Top shape: 24 48 7 7 (56448)
I0403 15:02:23.735585 30930 net.cpp:156] Memory required for data: 1334725152
I0403 15:02:23.735599 30930 layer_factory.hpp:77] Creating layer inception_5b/5x5
I0403 15:02:23.735620 30930 net.cpp:91] Creating Layer inception_5b/5x5
I0403 15:02:23.735637 30930 net.cpp:425] inception_5b/5x5 <- inception_5b/5x5_reduce
I0403 15:02:23.735656 30930 net.cpp:399] inception_5b/5x5 -> inception_5b/5x5
I0403 15:02:23.737742 30930 net.cpp:141] Setting up inception_5b/5x5
I0403 15:02:23.737772 30930 net.cpp:148] Top shape: 24 128 7 7 (150528)
I0403 15:02:23.737789 30930 net.cpp:156] Memory required for data: 1335327264
I0403 15:02:23.737807 30930 layer_factory.hpp:77] Creating layer inception_5b/relu_5x5
I0403 15:02:23.737836 30930 net.cpp:91] Creating Layer inception_5b/relu_5x5
I0403 15:02:23.737853 30930 net.cpp:425] inception_5b/relu_5x5 <- inception_5b/5x5
I0403 15:02:23.737869 30930 net.cpp:386] inception_5b/relu_5x5 -> inception_5b/5x5 (in-place)
I0403 15:02:23.738060 30930 net.cpp:141] Setting up inception_5b/relu_5x5
I0403 15:02:23.738085 30930 net.cpp:148] Top shape: 24 128 7 7 (150528)
I0403 15:02:23.738101 30930 net.cpp:156] Memory required for data: 1335929376
I0403 15:02:23.738116 30930 layer_factory.hpp:77] Creating layer inception_5b/pool
I0403 15:02:23.738133 30930 net.cpp:91] Creating Layer inception_5b/pool
I0403 15:02:23.738152 30930 net.cpp:425] inception_5b/pool <- inception_5a/output_inception_5a/output_0_split_3
I0403 15:02:23.738171 30930 net.cpp:399] inception_5b/pool -> inception_5b/pool
I0403 15:02:23.738241 30930 net.cpp:141] Setting up inception_5b/pool
I0403 15:02:23.738278 30930 net.cpp:148] Top shape: 24 832 7 7 (978432)
I0403 15:02:23.738294 30930 net.cpp:156] Memory required for data: 1339843104
I0403 15:02:23.738308 30930 layer_factory.hpp:77] Creating layer inception_5b/pool_proj
I0403 15:02:23.738327 30930 net.cpp:91] Creating Layer inception_5b/pool_proj
I0403 15:02:23.738344 30930 net.cpp:425] inception_5b/pool_proj <- inception_5b/pool
I0403 15:02:23.738364 30930 net.cpp:399] inception_5b/pool_proj -> inception_5b/pool_proj
I0403 15:02:23.740653 30930 net.cpp:141] Setting up inception_5b/pool_proj
I0403 15:02:23.740681 30930 net.cpp:148] Top shape: 24 128 7 7 (150528)
I0403 15:02:23.740696 30930 net.cpp:156] Memory required for data: 1340445216
I0403 15:02:23.740715 30930 layer_factory.hpp:77] Creating layer inception_5b/relu_pool_proj
I0403 15:02:23.740733 30930 net.cpp:91] Creating Layer inception_5b/relu_pool_proj
I0403 15:02:23.740751 30930 net.cpp:425] inception_5b/relu_pool_proj <- inception_5b/pool_proj
I0403 15:02:23.740767 30930 net.cpp:386] inception_5b/relu_pool_proj -> inception_5b/pool_proj (in-place)
I0403 15:02:23.741057 30930 net.cpp:141] Setting up inception_5b/relu_pool_proj
I0403 15:02:23.741082 30930 net.cpp:148] Top shape: 24 128 7 7 (150528)
I0403 15:02:23.741097 30930 net.cpp:156] Memory required for data: 1341047328
I0403 15:02:23.741111 30930 layer_factory.hpp:77] Creating layer inception_5b/output
I0403 15:02:23.741132 30930 net.cpp:91] Creating Layer inception_5b/output
I0403 15:02:23.741160 30930 net.cpp:425] inception_5b/output <- inception_5b/1x1
I0403 15:02:23.741178 30930 net.cpp:425] inception_5b/output <- inception_5b/3x3
I0403 15:02:23.741194 30930 net.cpp:425] inception_5b/output <- inception_5b/5x5
I0403 15:02:23.741209 30930 net.cpp:425] inception_5b/output <- inception_5b/pool_proj
I0403 15:02:23.741225 30930 net.cpp:399] inception_5b/output -> inception_5b/output
I0403 15:02:23.741277 30930 net.cpp:141] Setting up inception_5b/output
I0403 15:02:23.741299 30930 net.cpp:148] Top shape: 24 1024 7 7 (1204224)
I0403 15:02:23.741313 30930 net.cpp:156] Memory required for data: 1345864224
I0403 15:02:23.741327 30930 layer_factory.hpp:77] Creating layer pool5/7x7_s1
I0403 15:02:23.741343 30930 net.cpp:91] Creating Layer pool5/7x7_s1
I0403 15:02:23.741358 30930 net.cpp:425] pool5/7x7_s1 <- inception_5b/output
I0403 15:02:23.741379 30930 net.cpp:399] pool5/7x7_s1 -> pool5/7x7_s1
I0403 15:02:23.741595 30930 net.cpp:141] Setting up pool5/7x7_s1
I0403 15:02:23.741619 30930 net.cpp:148] Top shape: 24 1024 1 1 (24576)
I0403 15:02:23.741633 30930 net.cpp:156] Memory required for data: 1345962528
I0403 15:02:23.741647 30930 layer_factory.hpp:77] Creating layer pool5/drop_7x7_s1
I0403 15:02:23.741667 30930 net.cpp:91] Creating Layer pool5/drop_7x7_s1
I0403 15:02:23.741683 30930 net.cpp:425] pool5/drop_7x7_s1 <- pool5/7x7_s1
I0403 15:02:23.741699 30930 net.cpp:386] pool5/drop_7x7_s1 -> pool5/7x7_s1 (in-place)
I0403 15:02:23.741750 30930 net.cpp:141] Setting up pool5/drop_7x7_s1
I0403 15:02:23.741772 30930 net.cpp:148] Top shape: 24 1024 1 1 (24576)
I0403 15:02:23.741786 30930 net.cpp:156] Memory required for data: 1346060832
I0403 15:02:23.741801 30930 layer_factory.hpp:77] Creating layer loss3/classifier_plantvillage
I0403 15:02:23.741821 30930 net.cpp:91] Creating Layer loss3/classifier_plantvillage
I0403 15:02:23.741837 30930 net.cpp:425] loss3/classifier_plantvillage <- pool5/7x7_s1
I0403 15:02:23.741855 30930 net.cpp:399] loss3/classifier_plantvillage -> loss3/classifier_plantvillage
I0403 15:02:23.742281 30930 net.cpp:141] Setting up loss3/classifier_plantvillage
I0403 15:02:23.742305 30930 net.cpp:148] Top shape: 24 38 (912)
I0403 15:02:23.742318 30930 net.cpp:156] Memory required for data: 1346064480
I0403 15:02:23.742336 30930 layer_factory.hpp:77] Creating layer loss3/classifier_plantvillage_loss3/classifier_plantvillage_0_split
I0403 15:02:23.742352 30930 net.cpp:91] Creating Layer loss3/classifier_plantvillage_loss3/classifier_plantvillage_0_split
I0403 15:02:23.742368 30930 net.cpp:425] loss3/classifier_plantvillage_loss3/classifier_plantvillage_0_split <- loss3/classifier_plantvillage
I0403 15:02:23.742386 30930 net.cpp:399] loss3/classifier_plantvillage_loss3/classifier_plantvillage_0_split -> loss3/classifier_plantvillage_loss3/classifier_plantvillage_0_split_0
I0403 15:02:23.742406 30930 net.cpp:399] loss3/classifier_plantvillage_loss3/classifier_plantvillage_0_split -> loss3/classifier_plantvillage_loss3/classifier_plantvillage_0_split_1
I0403 15:02:23.742424 30930 net.cpp:399] loss3/classifier_plantvillage_loss3/classifier_plantvillage_0_split -> loss3/classifier_plantvillage_loss3/classifier_plantvillage_0_split_2
I0403 15:02:23.742444 30930 net.cpp:399] loss3/classifier_plantvillage_loss3/classifier_plantvillage_0_split -> loss3/classifier_plantvillage_loss3/classifier_plantvillage_0_split_3
I0403 15:02:23.742547 30930 net.cpp:141] Setting up loss3/classifier_plantvillage_loss3/classifier_plantvillage_0_split
I0403 15:02:23.742568 30930 net.cpp:148] Top shape: 24 38 (912)
I0403 15:02:23.742584 30930 net.cpp:148] Top shape: 24 38 (912)
I0403 15:02:23.742599 30930 net.cpp:148] Top shape: 24 38 (912)
I0403 15:02:23.742612 30930 net.cpp:148] Top shape: 24 38 (912)
I0403 15:02:23.742624 30930 net.cpp:156] Memory required for data: 1346079072
I0403 15:02:23.742640 30930 layer_factory.hpp:77] Creating layer loss1/loss
I0403 15:02:23.742660 30930 net.cpp:91] Creating Layer loss1/loss
I0403 15:02:23.742677 30930 net.cpp:425] loss1/loss <- loss1/classifier_plantvillage_loss1/classifier_plantvillage_0_split_0
I0403 15:02:23.742707 30930 net.cpp:425] loss1/loss <- label_data_1_split_0
…
