…
I0403 15:11:10.803671 31261 net.cpp:313] The NetState phase (1) differed from the phase (0) specified by a rule in layer data
I0403 15:11:10.804863 31261 net.cpp:49] Initializing net from parameters: 
state {
  phase: TEST
}
layer {
  name: "data"
  type: "Data"
  top: "data"
  top: "label"
  include {
    phase: TEST
  }
  transform_param {
    mirror: false
    crop_size: 224
    mean_file: "/home/mohanty/data/final_dataset/lmdb/grayscale-80-20/mean.binaryproto"
  }
  data_param {
    source: "/home/mohanty/data/final_dataset/lmdb/grayscale-80-20/test_db"
    batch_size: 24
    backend: LMDB
  }
}
layer {
  name: "conv1/7x7_s2"
  type: "Convolution"
  bottom: "data"
  top: "conv1/7x7_s2"
  param {
    lr_mult: 1
    decay_mult: 1
  }
  param {
    lr_mult: 2
    decay_mult: 0
  }
  convolution_param {
    num_output: 64
    pad: 3
    kernel_size: 7
    stride: 2
    weight_filler {
      type: "xavier"
      std: 0.1
    }
    bias_filler {
      type: "constant"
      value: 0.2
    }
  }
}
layer {
  name: "conv1/relu_7x7"
  type: "ReLU"
  bottom: "conv1/7x7_s2"
  top: "conv1/7x7_s2"
}
layer {
  name: "pool1/3x3_s2"
  type: "Pooling"
  bottom: "conv1/7x7_s2"
  top: "pool1/3x3_s2"
  pooling_param {
    pool: MAX
    kernel_size: 3
    stride: 2
  }
}
layer {
  name: "pool1/norm1"
  type: "LRN"
  bottom: "pool1/3x3_s2"
  top: "pool1/norm1"
  lrn_param {
    local_size: 5
    alpha: 0.0001
    beta: 0.75
  }
}
layer {
  name: "conv2/3x3_reduce"
  type: "Convolution"
  bottom: "pool1/norm1"
  top: "conv2/3x3_reduce"
  param {
    lr_mult: 1
    decay_mult: 1
  }
  param {
    lr_mult: 2
    decay_mult: 0
  }
  convolution_param {
    num_output: 64
    kernel_size: 1
    weight_filler {
      type: "xavier"
      std: 0.1
    }
    bias_filler {
      type: "constant"
      value: 0.2
    }
  }
}
layer {
  name: "conv2/relu_3x3_reduce"
  type: "ReLU"
  bottom: "conv2/3x3_reduce"
  top: "conv2/3x3_reduce"
}
layer {
  name: "conv2/3x3"
  type: "Convolution"
  bottom: "conv2/3x3_reduce"
  top: "conv2/3x3"
  param {
    lr_mult: 1
    decay_mult: 1
  }
  param {
    lr_mult: 2
    decay_mult: 0
  }
  convolution_param {
    num_output: 192
    pad: 1
    kernel_size: 3
    weight_filler {
      type: "xavier"
      std: 0.03
    }
    bias_filler {
      type: "constant"
      value: 0.2
    }
  }
}
layer {
  name: "conv2/relu_3x3"
  type: "ReLU"
  bottom: "conv2/3x3"
  top: "conv2/3x3"
}
layer {
  name: "conv2/norm2"
  type: "LRN"
  bottom: "conv2/3x3"
  top: "conv2/norm2"
  lrn_param {
    local_size: 5
    alpha: 0.0001
    beta: 0.75
  }
}
layer {
  name: "pool2/3x3_s2"
  type: "Pooling"
  bottom: "conv2/norm2"
  top: "pool2/3x3_s2"
  pooling_param {
    pool: MAX
    kernel_size: 3
    stride: 2
  }
}
layer {
  name: "inception_3a/1x1"
  type: "Convolution"
  bottom: "pool2/3x3_s2"
  top: "inception_3a/1x1"
  param {
    lr_mult: 1
    decay_mult: 1
  }
  param {
    lr_mult: 2
    decay_mult: 0
  }
  convolution_param {
    num_output: 64
    kernel_size: 1
    weight_filler {
      type: "xavier"
      std: 0.03
    }
    bias_filler {
      type: "constant"
      value: 0.2
    }
  }
}
layer {
  name: "inception_3a/relu_1x1"
  type: "ReLU"
  bottom: "inception_3a/1x1"
  top: "inception_3a/1x1"
}
layer {
  name: "inception_3a/3x3_reduce"
  type: "Convolution"
  bottom: "pool2/3x3_s2"
  top: "inception_3a/3x3_reduce"
  param {
    lr_mult: 1
    decay_mult: 1
  }
  param {
    lr_mult: 2
    decay_mult: 0
  }
  convolution_param {
    num_output: 96
    kernel_size: 1
    weight_filler {
      type: "xavier"
      std: 0.09
    }
    bias_filler {
      type: "constant"
      value: 0.2
    }
  }
}
layer {
  name: "inception_3a/relu_3x3_reduce"
  type: "ReLU"
  bottom: "inception_3a/3x3_reduce"
  top: "inception_3a/3x3_reduce"
}
layer {
  name: "inception_3a/3x3"
  type: "Convolution"
  bottom: "inception_3a/3x3_reduce"
  top: "inception_3a/3x3"
  param {
    lr_mult: 1
    decay_mult: 1
  }
  param {
    lr_mult: 2
    decay_mult: 0
  }
  convolution_param {
    num_output: 128
    pad: 1
    kernel_size: 3
    weight_filler {
      type: "xavier"
      std: 0.03
    }
    bias_filler {
      type: "constant"
      value: 0.2
    }
  }
}
layer {
  name: "inception_3a/relu_3x3"
  type: "ReLU"
  bottom: "inception_3a/3x3"
  top: "inception_3a/3x3"
}
layer {
  name: "inception_3a/5x5_reduce"
  type: "Convolution"
  bottom: "pool2/3x3_s2"
  top: "inception_3a/5x5_reduce"
  param {
    lr_mult: 1
    decay_mult: 1
  }
  param {
    lr_mult: 2
    decay_mult: 0
  }
  convolution_param {
    num_output: 16
    kernel_size: 1
    weight_filler {
      type: "xavier"
      std: 0.2
    }
    bias_filler {
      type: "constant"
      value: 0.2
    }
  }
}
layer {
  name: "inception_3a/relu_5x5_reduce"
  type: "ReLU"
  bottom: "inception_3a/5x5_reduce"
  top: "inception_3a/5x5_reduce"
}
layer {
  name: "inception_3a/5x5"
  type: "Convolution"
  bottom: "inception_3a/5x5_reduce"
  top: "inception_3a/5x5"
  param {
    lr_mult: 1
    decay_mult: 1
  }
  param {
    lr_mult: 2
    decay_mult: 0
  }
  convolution_param {
    num_output: 32
    pad: 2
    kernel_size: 5
    weight_filler {
      type: "xavier"
      std: 0.03
    }
    bias_filler {
      type: "constant"
      value: 0.2
    }
  }
}
layer {
  name: "inception_3a/relu_5x5"
  type: "ReLU"
  bottom: "inception_3a/5x5"
  top: "inception_3a/5x5"
}
layer {
  name: "inception_3a/pool"
  type: "Pooling"
  bottom: "pool2/3x3_s2"
  top: "inception_3a/pool"
  pooling_param {
    pool: MAX
    kernel_size: 3
    stride: 1
    pad: 1
  }
}
layer {
  name: "inception_3a/pool_proj"
  type: "Convolution"
  bottom: "inception_3a/pool"
  top: "inception_3a/pool_proj"
  param {
    lr_mult: 1
    decay_mult: 1
  }
  param {
    lr_mult: 2
    decay_mult: 0
  }
  convolution_param {
    num_output: 32
    kernel_size: 1
    weight_filler {
      type: "xavier"
      std: 0.1
    }
    bias_filler {
      type: "constant"
      value: 0.2
    }
  }
}
layer {
  name: "inception_3a/relu_pool_proj"
  type: "ReLU"
  bottom: "inception_3a/pool_proj"
  top: "inception_3a/pool_proj"
}
layer {
  name: "inception_3a/output"
  type: "Concat"
  bottom: "inception_3a/1x1"
  bottom: "inception_3a/3x3"
  bottom: "inception_3a/5x5"
  bottom: "inception_3a/pool_proj"
  top: "inception_3a/output"
}
layer {
  name: "inception_3b/1x1"
  type: "Convolution"
  bottom: "inception_3a/output"
  top: "inception_3b/1x1"
  param {
    lr_mult: 1
    decay_mult: 1
  }
  param {
    lr_mult: 2
    decay_mult: 0
  }
  convolution_param {
    num_output: 128
    kernel_size: 1
    weight_filler {
      type: "xavier"
      std: 0.03
    }
    bias_filler {
      type: "constant"
      value: 0.2
    }
  }
}
layer {
  name: "inception_3b/relu_1x1"
  type: "ReLU"
  bottom: "inception_3b/1x1"
  top: "inception_3b/1x1"
}
layer {
  name: "inception_3b/3x3_reduce"
  type: "Convolution"
  bottom: "inception_3a/output"
  top: "inception_3b/3x3_reduce"
  param {
    lr_mult: 1
    decay_mult: 1
  }
  param {
    lr_mult: 2
    decay_mult: 0
  }
  convolution_param {
    num_output: 128
    kernel_size: 1
    weight_filler {
      type: "xavier"
      std: 0.09
    }
    bias_filler {
      type: "constant"
      value: 0.2
    }
  }
}
layer {
  name: "inception_3b/relu_3x3_reduce"
  type: "ReLU"
  bottom: "inception_3b/3x3_reduce"
  top: "inception_3b/3x3_reduce"
}
layer {
  name: "inception_3b/3x3"
  type: "Convolution"
  bottom: "inception_3b/3x3_reduce"
  top: "inception_3b/3x3"
  param {
    lr_mult: 1
    decay_mult: 1
  }
  param {
    lr_mult: 2
    decay_mult: 0
  }
  convolution_param {
    num_output: 192
    pad: 1
    kernel_size: 3
    weight_filler {
      type: "xavier"
      std: 0.03
    }
    bias_filler {
      type: "constant"
      value: 0.2
    }
  }
}
layer {
  name: "inception_3b/relu_3x3"
  type: "ReLU"
  bottom: "inception_3b/3x3"
  top: "inception_3b/3x3"
}
layer {
  name: "inception_3b/5x5_reduce"
  type: "Convolution"
  bottom: "inception_3a/output"
  top: "inception_3b/5x5_reduce"
  param {
    lr_mult: 1
    decay_mult: 1
  }
  param {
    lr_mult: 2
    decay_mult: 0
  }
  convolution_param {
    num_output: 32
    kernel_size: 1
    weight_filler {
      type: "xavier"
      std: 0.2
    }
    bias_filler {
      type: "constant"
      value: 0.2
    }
  }
}
layer {
  name: "inception_3b/relu_5x5_reduce"
  type: "ReLU"
  bottom: "inception_3b/5x5_reduce"
  top: "inception_3b/5x5_reduce"
}
layer {
  name: "inception_3b/5x5"
  type: "Convolution"
  bottom: "inception_3b/5x5_reduce"
  top: "inception_3b/5x5"
  param {
    lr_mult: 1
    decay_mult: 1
  }
  param {
    lr_mult: 2
    decay_mult: 0
  }
  convolution_param {
    num_output: 96
    pad: 2
    kernel_size: 5
    weight_filler {
      type: "xavier"
      std: 0.03
    }
    bias_filler {
      type: "constant"
      value: 0.2
    }
  }
}
layer {
  name: "inception_3b/relu_5x5"
  type: "ReLU"
  bottom: "inception_3b/5x5"
  top: "inception_3b/5x5"
}
layer {
  name: "inception_3b/pool"
  type: "Pooling"
  bottom: "inception_3a/output"
  top: "inception_3b/pool"
  pooling_param {
    pool: MAX
    kernel_size: 3
    stride: 1
    pad: 1
  }
}
layer {
  name: "inception_3b/pool_proj"
  type: "Convolution"
  bottom: "inception_3b/pool"
  top: "inception_3b/pool_proj"
  param {
    lr_mult: 1
    decay_mult: 1
  }
  param {
    lr_mult: 2
    decay_mult: 0
  }
  convolution_param {
    num_output: 64
    kernel_size: 1
    weight_filler {
      type: "xavier"
      std: 0.1
    }
    bias_filler {
      type: "constant"
      value: 0.2
    }
  }
}
layer {
  name: "inception_3b/relu_pool_proj"
  type: "ReLU"
  bottom: "inception_3b/pool_proj"
  top: "inception_3b/pool_proj"
}
layer {
  name: "inception_3b/output"
  type: "Concat"
  bottom: "inception_3b/1x1"
  bottom: "inception_3b/3x3"
  bottom: "inception_3b/5x5"
  bottom: "inception_3b/pool_proj"
  top: "inception_3b/output"
}
layer {
  name: "pool3/3x3_s2"
  type: "Pooling"
  bottom: "inception_3b/output"
  top: "pool3/3x3_s2"
  pooling_param {
    pool: MAX
    kernel_size: 3
    stride: 2
  }
}
layer {
  name: "inception_4a/1x1"
  type: "Convolution"
  bottom: "pool3/3x3_s2"
  top: "inception_4a/1x1"
  param {
    lr_mult: 1
    decay_mult: 1
  }
  param {
    lr_mult: 2
    decay_mult: 0
  }
  convolution_param {
    num_output: 192
    kernel_size: 1
    weight_filler {
      type: "xavier"
      std: 0.03
    }
    bias_filler {
      type: "constant"
      value: 0.2
    }
  }
}
layer {
  name: "inception_4a/relu_1x1"
  type: "ReLU"
  bottom: "inception_4a/1x1"
  top: "inception_4a/1x1"
}
layer {
  name: "inception_4a/3x3_reduce"
  type: "Convolution"
  bottom: "pool3/3x3_s2"
  top: "inception_4a/3x3_reduce"
  param {
    lr_mult: 1
    decay_mult: 1
  }
  param {
    lr_mult: 2
    decay_mult: 0
  }
  convolution_param {
    num_output: 96
    kernel_size: 1
    weight_filler {
      type: "xavier"
      std: 0.09
    }
    bias_filler {
      type: "constant"
      value: 0.2
    }
  }
}
layer {
  name: "inception_4a/relu_3x3_reduce"
  type: "ReLU"
  bottom: "inception_4a/3x3_reduce"
  top: "inception_4a/3x3_reduce"
}
layer {
  name: "inception_4a/3x3"
  type: "Convolution"
  bottom: "inception_4a/3x3_reduce"
  top: "inception_4a/3x3"
  param {
    lr_mult: 1
    decay_mult: 1
  }
  param {
    lr_mult: 2
    decay_mult: 0
  }
  convolution_param {
    num_output: 208
    pad: 1
    kernel_size: 3
    weight_filler {
      type: "xavier"
      std: 0.03
    }
    bias_filler {
      type: "constant"
      value: 0.2
    }
  }
}
layer {
  name: "inception_4a/relu_3x3"
  type: "ReLU"
  bottom: "inception_4a/3x3"
  top: "inception_4a/3x3"
}
layer {
  name: "inception_4a/5x5_reduce"
  type: "Convolution"
  bottom: "pool3/3x3_s2"
  top: "inception_4a/5x5_reduce"
  param {
    lr_mult: 1
    decay_mult: 1
  }
  param {
    lr_mult: 2
    decay_mult: 0
  }
  convolution_param {
    num_output: 16
    kernel_size: 1
    weight_filler {
      type: "xavier"
      std: 0.2
    }
    bias_filler {
      type: "constant"
      value: 0.2
    }
  }
}
layer {
  name: "inception_4a/relu_5x5_reduce"
  type: "ReLU"
  bottom: "inception_4a/5x5_reduce"
  top: "inception_4a/5x5_reduce"
}
layer {
  name: "inception_4a/5x5"
  type: "Convolution"
  bottom: "inception_4a/5x5_reduce"
  top: "inception_4a/5x5"
  param {
    lr_mult: 1
    decay_mult: 1
  }
  param {
    lr_mult: 2
    decay_mult: 0
  }
  convolution_param {
    num_output: 48
    pad: 2
    kernel_size: 5
    weight_filler {
      type: "xavier"
      std: 0.03
    }
    bias_filler {
      type: "constant"
      value: 0.2
    }
  }
}
layer {
  name: "inception_4a/relu_5x5"
  type: "ReLU"
  bottom: "inception_4a/5x5"
  top: "inception_4a/5x5"
}
layer {
  name: "inception_4a/pool"
  type: "Pooling"
  bottom: "pool3/3x3_s2"
  top: "inception_4a/pool"
  pooling_param {
    pool: MAX
    kernel_size: 3
    stride: 1
    pad: 1
  }
}
layer {
  name: "inception_4a/pool_proj"
  type: "Convolution"
  bottom: "inception_4a/pool"
  top: "inception_4a/pool_proj"
  param {
    lr_mult: 1
    decay_mult: 1
  }
  param {
    lr_mult: 2
    decay_mult: 0
  }
  convolution_param {
    num_output: 64
    kernel_size: 1
    weight_filler {
      type: "xavier"
      std: 0.1
    }
    bias_filler {
      type: "constant"
      value: 0.2
    }
  }
}
layer {
  name: "inception_4a/relu_pool_proj"
  type: "ReLU"
  bottom: "inception_4a/pool_proj"
  top: "inception_4a/pool_proj"
}
layer {
  name: "inception_4a/output"
  type: "Concat"
  bottom: "inception_4a/1x1"
  bottom: "inception_4a/3x3"
  bottom: "inception_4a/5x5"
  bottom: "inception_4a/pool_proj"
  top: "inception_4a/output"
}
layer {
  name: "loss1/ave_pool"
  type: "Pooling"
  bottom: "inception_4a/output"
  top: "loss1/ave_pool"
  pooling_param {
    pool: AVE
    kernel_size: 5
    stride: 3
  }
}
layer {
  name: "loss1/conv"
  type: "Convolution"
  bottom: "loss1/ave_pool"
  top: "loss1/conv"
  param {
    lr_mult: 1
    decay_mult: 1
  }
  param {
    lr_mult: 2
    decay_mult: 0
  }
  convolution_param {
    num_output: 128
    kernel_size: 1
    weight_filler {
      type: "xavier"
      std: 0.08
    }
    bias_filler {
      type: "constant"
      value: 0.2
    }
  }
}
layer {
  name: "loss1/relu_conv"
  type: "ReLU"
  bottom: "loss1/conv"
  top: "loss1/conv"
}
layer {
  name: "loss1/fc"
  type: "InnerProduct"
  bottom: "loss1/conv"
  top: "loss1/fc"
  param {
    lr_mult: 1
    decay_mult: 1
  }
  param {
    lr_mult: 2
    decay_mult: 0
  }
  inner_product_param {
    num_output: 1024
    weight_filler {
      type: "xavier"
      std: 0.02
    }
    bias_filler {
      type: "constant"
      value: 0.2
    }
  }
}
layer {
  name: "loss1/relu_fc"
  type: "ReLU"
  bottom: "loss1/fc"
  top: "loss1/fc"
}
layer {
  name: "loss1/drop_fc"
  type: "Dropout"
  bottom: "loss1/fc"
  top: "loss1/fc"
  dropout_param {
    dropout_ratio: 0.7
  }
}
layer {
  name: "loss1/classifier_plantvillage"
  type: "InnerProduct"
  bottom: "loss1/fc"
  top: "loss1/classifier_plantvillage"
  param {
    lr_mult: 1
    decay_mult: 1
  }
  param {
    lr_mult: 2
    decay_mult: 0
  }
  inner_product_param {
    num_output: 38
    weight_filler {
      type: "xavier"
      std: 0.0009765625
    }
    bias_filler {
      type: "constant"
      value: 0
    }
  }
}
layer {
  name: "inception_4b/1x1"
  type: "Convolution"
  bottom: "inception_4a/output"
  top: "inception_4b/1x1"
  param {
    lr_mult: 1
    decay_mult: 1
  }
  param {
    lr_mult: 2
    decay_mult: 0
  }
  convolution_param {
    num_output: 160
    kernel_size: 1
    weight_filler {
      type: "xavier"
      std: 0.03
    }
    bias_filler {
      type: "constant"
      value: 0.2
    }
  }
}
layer {
  name: "inception_4b/relu_1x1"
  type: "ReLU"
  bottom: "inception_4b/1x1"
  top: "inception_4b/1x1"
}
layer {
  name: "inception_4b/3x3_reduce"
  type: "Convolution"
  bottom: "inception_4a/output"
  top: "inception_4b/3x3_reduce"
  param {
    lr_mult: 1
    decay_mult: 1
  }
  param {
    lr_mult: 2
    decay_mult: 0
  }
  convolution_param {
    num_output: 112
    kernel_size: 1
    weight_filler {
      type: "xavier"
      std: 0.09
    }
    bias_filler {
      type: "constant"
      value: 0.2
    }
  }
}
layer {
  name: "inception_4b/relu_3x3_reduce"
  type: "ReLU"
  bottom: "inception_4b/3x3_reduce"
  top: "inception_4b/3x3_reduce"
}
layer {
  name: "inception_4b/3x3"
  type: "Convolution"
  bottom: "inception_4b/3x3_reduce"
  top: "inception_4b/3x3"
  param {
    lr_mult: 1
    decay_mult: 1
  }
  param {
    lr_mult: 2
    decay_mult: 0
  }
  convolution_param {
    num_output: 224
    pad: 1
    kernel_size: 3
    weight_filler {
      type: "xavier"
      std: 0.03
    }
    bias_filler {
      type: "constant"
      value: 0.2
    }
  }
}
layer {
  name: "inception_4b/relu_3x3"
  type: "ReLU"
  bottom: "inception_4b/3x3"
  top: "inception_4b/3x3"
}
layer {
  name: "inception_4b/5x5_reduce"
  type: "Convolution"
  bottom: "inception_4a/output"
  top: "inception_4b/5x5_reduce"
  param {
    lr_mult: 1
    decay_mult: 1
  }
  param {
    lr_mult: 2
    decay_mult: 0
  }
  convolution_param {
    num_output: 24
    kernel_size: 1
    weight_filler {
      type: "xavier"
      std: 0.2
    }
    bias_filler {
      type: "constant"
      value: 0.2
    }
  }
}
layer {
  name: "inception_4b/relu_5x5_reduce"
  type: "ReLU"
  bottom: "inception_4b/5x5_reduce"
  top: "inception_4b/5x5_reduce"
}
layer {
  name: "inception_4b/5x5"
  type: "Convolution"
  bottom: "inception_4b/5x5_reduce"
  top: "inception_4b/5x5"
  param {
    lr_mult: 1
    decay_mult: 1
  }
  param {
    lr_mult: 2
    decay_mult: 0
  }
  convolution_param {
    num_output: 64
    pad: 2
    kernel_size: 5
    weight_filler {
      type: "xavier"
      std: 0.03
    }
    bias_filler {
      type: "constant"
      value: 0.2
    }
  }
}
layer {
  name: "inception_4b/relu_5x5"
  type: "ReLU"
  bottom: "inception_4b/5x5"
  top: "inception_4b/5x5"
}
layer {
  name: "inception_4b/pool"
  type: "Pooling"
  bottom: "inception_4a/output"
  top: "inception_4b/pool"
  pooling_param {
    pool: MAX
    kernel_size: 3
    stride: 1
    pad: 1
  }
}
layer {
  name: "inception_4b/pool_proj"
  type: "Convolution"
  bottom: "inception_4b/pool"
  top: "inception_4b/pool_proj"
  param {
    lr_mult: 1
    decay_mult: 1
  }
  param {
    lr_mult: 2
    decay_mult: 0
  }
  convolution_param {
    num_output: 64
    kernel_size: 1
    weight_filler {
      type: "xavier"
      std: 0.1
    }
    bias_filler {
      type: "constant"
      value: 0.2
    }
  }
}
layer {
  name: "inception_4b/relu_pool_proj"
  type: "ReLU"
  bottom: "inception_4b/pool_proj"
  top: "inception_4b/pool_proj"
}
layer {
  name: "inception_4b/output"
  type: "Concat"
  bottom: "inception_4b/1x1"
  bottom: "inception_4b/3x3"
  bottom: "inception_4b/5x5"
  bottom: "inception_4b/pool_proj"
  top: "inception_4b/output"
}
layer {
  name: "inception_4c/1x1"
  type: "Convolution"
  bottom: "inception_4b/output"
  top: "inception_4c/1x1"
  param {
    lr_mult: 1
    decay_mult: 1
  }
  param {
    lr_mult: 2
    decay_mult: 0
  }
  convolution_param {
    num_output: 128
    kernel_size: 1
    weight_filler {
      type: "xavier"
      std: 0.03
    }
    bias_filler {
      type: "constant"
      value: 0.2
    }
  }
}
layer {
  name: "inception_4c/relu_1x1"
  type: "ReLU"
  bottom: "inception_4c/1x1"
  top: "inception_4c/1x1"
}
layer {
  name: "inception_4c/3x3_reduce"
  type: "Convolution"
  bottom: "inception_4b/output"
  top: "inception_4c/3x3_reduce"
  param {
    lr_mult: 1
    decay_mult: 1
  }
  param {
    lr_mult: 2
    decay_mult: 0
  }
  convolution_param {
    num_output: 128
    kernel_size: 1
    weight_filler {
      type: "xavier"
      std: 0.09
    }
    bias_filler {
      type: "constant"
      value: 0.2
    }
  }
}
layer {
  name: "inception_4c/relu_3x3_reduce"
  type: "ReLU"
  bottom: "inception_4c/3x3_reduce"
  top: "inception_4c/3x3_reduce"
}
layer {
  name: "inception_4c/3x3"
  type: "Convolution"
  bottom: "inception_4c/3x3_reduce"
  top: "inception_4c/3x3"
  param {
    lr_mult: 1
    decay_mult: 1
  }
  param {
    lr_mult: 2
    decay_mult: 0
  }
  convolution_param {
    num_output: 256
    pad: 1
    kernel_size: 3
    weight_filler {
      type: "xavier"
      std: 0.03
    }
    bias_filler {
      type: "constant"
      value: 0.2
    }
  }
}
layer {
  name: "inception_4c/relu_3x3"
  type: "ReLU"
  bottom: "inception_4c/3x3"
  top: "inception_4c/3x3"
}
layer {
  name: "inception_4c/5x5_reduce"
  type: "Convolution"
  bottom: "inception_4b/output"
  top: "inception_4c/5x5_reduce"
  param {
    lr_mult: 1
    decay_mult: 1
  }
  param {
    lr_mult: 2
    decay_mult: 0
  }
  convolution_param {
    num_output: 24
    kernel_size: 1
    weight_filler {
      type: "xavier"
      std: 0.2
    }
    bias_filler {
      type: "constant"
      value: 0.2
    }
  }
}
layer {
  name: "inception_4c/relu_5x5_reduce"
  type: "ReLU"
  bottom: "inception_4c/5x5_reduce"
  top: "inception_4c/5x5_reduce"
}
layer {
  name: "inception_4c/5x5"
  type: "Convolution"
  bottom: "inception_4c/5x5_reduce"
  top: "inception_4c/5x5"
  param {
    lr_mult: 1
    decay_mult: 1
  }
  param {
    lr_mult: 2
    decay_mult: 0
  }
  convolution_param {
    num_output: 64
    pad: 2
    kernel_size: 5
    weight_filler {
      type: "xavier"
      std: 0.03
    }
    bias_filler {
      type: "constant"
      value: 0.2
    }
  }
}
layer {
  name: "inception_4c/relu_5x5"
  type: "ReLU"
  bottom: "inception_4c/5x5"
  top: "inception_4c/5x5"
}
layer {
  name: "inception_4c/pool"
  type: "Pooling"
  bottom: "inception_4b/output"
  top: "inception_4c/pool"
  pooling_param {
    pool: MAX
    kernel_size: 3
    stride: 1
    pad: 1
  }
}
layer {
  name: "inception_4c/pool_proj"
  type: "Convolution"
  bottom: "inception_4c/pool"
  top: "inception_4c/pool_proj"
  param {
    lr_mult: 1
    decay_mult: 1
  }
  param {
    lr_mult: 2
    decay_mult: 0
  }
  convolution_param {
    num_output: 64
    kernel_size: 1
    weight_filler {
      type: "xavier"
      std: 0.1
    }
    bias_filler {
      type: "constant"
      value: 0.2
    }
  }
}
layer {
  name: "inception_4c/relu_pool_proj"
  type: "ReLU"
  bottom: "inception_4c/pool_proj"
  top: "inception_4c/pool_proj"
}
layer {
  name: "inception_4c/output"
  type: "Concat"
  bottom: "inception_4c/1x1"
  bottom: "inception_4c/3x3"
  bottom: "inception_4c/5x5"
  bottom: "inception_4c/pool_proj"
  top: "inception_4c/output"
}
layer {
  name: "inception_4d/1x1"
  type: "Convolution"
  bottom: "inception_4c/output"
  top: "inception_4d/1x1"
  param {
    lr_mult: 1
    decay_mult: 1
  }
  param {
    lr_mult: 2
    decay_mult: 0
  }
  convolution_param {
    num_output: 112
    kernel_size: 1
    weight_filler {
      type: "xavier"
      std: 0.03
    }
    bias_filler {
      type: "constant"
      value: 0.2
    }
  }
}
layer {
  name: "inception_4d/relu_1x1"
  type: "ReLU"
  bottom: "inception_4d/1x1"
  top: "inception_4d/1x1"
}
layer {
  name: "inception_4d/3x3_reduce"
  type: "Convolution"
  bottom: "inception_4c/output"
  top: "inception_4d/3x3_reduce"
  param {
    lr_mult: 1
    decay_mult: 1
  }
  param {
    lr_mult: 2
    decay_mult: 0
  }
  convolution_param {
    num_output: 144
    kernel_size: 1
    weight_filler {
      type: "xavier"
      std: 0.09
    }
    bias_filler {
      type: "constant"
      value: 0.2
    }
  }
}
layer {
  name: "inception_4d/relu_3x3_reduce"
  type: "ReLU"
  bottom: "inception_4d/3x3_reduce"
  top: "inception_4d/3x3_reduce"
}
layer {
  name: "inception_4d/3x3"
  type: "Convolution"
  bottom: "inception_4d/3x3_reduce"
  top: "inception_4d/3x3"
  param {
    lr_mult: 1
    decay_mult: 1
  }
  param {
    lr_mult: 2
    decay_mult: 0
  }
  convolution_param {
    num_output: 288
    pad: 1
    kernel_size: 3
    weight_filler {
      type: "xavier"
      std: 0.03
    }
    bias_filler {
      type: "constant"
      value: 0.2
    }
  }
}
layer {
  name: "inception_4d/relu_3x3"
  type: "ReLU"
  bottom: "inception_4d/3x3"
  top: "inception_4d/3x3"
}
layer {
  name: "inception_4d/5x5_reduce"
  type: "Convolution"
  bottom: "inception_4c/output"
  top: "inception_4d/5x5_reduce"
  param {
    lr_mult: 1
    decay_mult: 1
  }
  param {
    lr_mult: 2
    decay_mult: 0
  }
  convolution_param {
    num_output: 32
    kernel_size: 1
    weight_filler {
      type: "xavier"
      std: 0.2
    }
    bias_filler {
      type: "constant"
      value: 0.2
    }
  }
}
layer {
  name: "inception_4d/relu_5x5_reduce"
  type: "ReLU"
  bottom: "inception_4d/5x5_reduce"
  top: "inception_4d/5x5_reduce"
}
layer {
  name: "inception_4d/5x5"
  type: "Convolution"
  bottom: "inception_4d/5x5_reduce"
  top: "inception_4d/5x5"
  param {
    lr_mult: 1
    decay_mult: 1
  }
  param {
    lr_mult: 2
    decay_mult: 0
  }
  convolution_param {
    num_output: 64
    pad: 2
    kernel_size: 5
    weight_filler {
      type: "xavier"
      std: 0.03
    }
    bias_filler {
      type: "constant"
      value: 0.2
    }
  }
}
layer {
  name: "inception_4d/relu_5x5"
  type: "ReLU"
  bottom: "inception_4d/5x5"
  top: "inception_4d/5x5"
}
layer {
  name: "inception_4d/pool"
  type: "Pooling"
  bottom: "inception_4c/output"
  top: "inception_4d/pool"
  pooling_param {
    pool: MAX
    kernel_size: 3
    stride: 1
    pad: 1
  }
}
layer {
  name: "inception_4d/pool_proj"
  type: "Convolution"
  bottom: "inception_4d/pool"
  top: "inception_4d/pool_proj"
  param {
    lr_mult: 1
    decay_mult: 1
  }
  param {
    lr_mult: 2
    decay_mult: 0
  }
  convolution_param {
    num_output: 64
    kernel_size: 1
    weight_filler {
      type: "xavier"
      std: 0.1
    }
    bias_filler {
      type: "constant"
      value: 0.2
    }
  }
}
layer {
  name: "inception_4d/relu_pool_proj"
  type: "ReLU"
  bottom: "inception_4d/pool_proj"
  top: "inception_4d/pool_proj"
}
layer {
  name: "inception_4d/output"
  type: "Concat"
  bottom: "inception_4d/1x1"
  bottom: "inception_4d/3x3"
  bottom: "inception_4d/5x5"
  bottom: "inception_4d/pool_proj"
  top: "inception_4d/output"
}
layer {
  name: "loss2/ave_pool"
  type: "Pooling"
  bottom: "inception_4d/output"
  top: "loss2/ave_pool"
  pooling_param {
    pool: AVE
    kernel_size: 5
    stride: 3
  }
}
layer {
  name: "loss2/conv"
  type: "Convolution"
  bottom: "loss2/ave_pool"
  top: "loss2/conv"
  param {
    lr_mult: 1
    decay_mult: 1
  }
  param {
    lr_mult: 2
    decay_mult: 0
  }
  convolution_param {
    num_output: 128
    kernel_size: 1
    weight_filler {
      type: "xavier"
      std: 0.08
    }
    bias_filler {
      type: "constant"
      value: 0.2
    }
  }
}
layer {
  name: "loss2/relu_conv"
  type: "ReLU"
  bottom: "loss2/conv"
  top: "loss2/conv"
}
layer {
  name: "loss2/fc"
  type: "InnerProduct"
  bottom: "loss2/conv"
  top: "loss2/fc"
  param {
    lr_mult: 1
    decay_mult: 1
  }
  param {
    lr_mult: 2
    decay_mult: 0
  }
  inner_product_param {
    num_output: 1024
    weight_filler {
      type: "xavier"
      std: 0.02
    }
    bias_filler {
      type: "constant"
      value: 0.2
    }
  }
}
layer {
  name: "loss2/relu_fc"
  type: "ReLU"
  bottom: "loss2/fc"
  top: "loss2/fc"
}
layer {
  name: "loss2/drop_fc"
  type: "Dropout"
  bottom: "loss2/fc"
  top: "loss2/fc"
  dropout_param {
    dropout_ratio: 0.7
  }
}
layer {
  name: "loss2/classifier_plantvillage"
  type: "InnerProduct"
  bottom: "loss2/fc"
  top: "loss2/classifier_plantvillage"
  param {
    lr_mult: 1
    decay_mult: 1
  }
  param {
    lr_mult: 2
    decay_mult: 0
  }
  inner_product_param {
    num_output: 38
    weight_filler {
      type: "xavier"
      std: 0.0009765625
    }
    bias_filler {
      type: "constant"
      value: 0
    }
  }
}
layer {
  name: "inception_4e/1x1"
  type: "Convolution"
  bottom: "inception_4d/output"
  top: "inception_4e/1x1"
  param {
    lr_mult: 1
    decay_mult: 1
  }
  param {
    lr_mult: 2
    decay_mult: 0
  }
  convolution_param {
    num_output: 256
    kernel_size: 1
    weight_filler {
      type: "xavier"
      std: 0.03
    }
    bias_filler {
      type: "constant"
      value: 0.2
    }
  }
}
layer {
  name: "inception_4e/relu_1x1"
  type: "ReLU"
  bottom: "inception_4e/1x1"
  top: "inception_4e/1x1"
}
layer {
  name: "inception_4e/3x3_reduce"
  type: "Convolution"
  bottom: "inception_4d/output"
  top: "inception_4e/3x3_reduce"
  param {
    lr_mult: 1
    decay_mult: 1
  }
  param {
    lr_mult: 2
    decay_mult: 0
  }
  convolution_param {
    num_output: 160
    kernel_size: 1
    weight_filler {
      type: "xavier"
      std: 0.09
    }
    bias_filler {
      type: "constant"
      value: 0.2
    }
  }
}
layer {
  name: "inception_4e/relu_3x3_reduce"
  type: "ReLU"
  bottom: "inception_4e/3x3_reduce"
  top: "inception_4e/3x3_reduce"
}
layer {
  name: "inception_4e/3x3"
  type: "Convolution"
  bottom: "inception_4e/3x3_reduce"
  top: "inception_4e/3x3"
  param {
    lr_mult: 1
    decay_mult: 1
  }
  param {
    lr_mult: 2
    decay_mult: 0
  }
  convolution_param {
    num_output: 320
    pad: 1
    kernel_size: 3
    weight_filler {
      type: "xavier"
      std: 0.03
    }
    bias_filler {
      type: "constant"
      value: 0.2
    }
  }
}
layer {
  name: "inception_4e/relu_3x3"
  type: "ReLU"
  bottom: "inception_4e/3x3"
  top: "inception_4e/3x3"
}
layer {
  name: "inception_4e/5x5_reduce"
  type: "Convolution"
  bottom: "inception_4d/output"
  top: "inception_4e/5x5_reduce"
  param {
    lr_mult: 1
    decay_mult: 1
  }
  param {
    lr_mult: 2
    decay_mult: 0
  }
  convolution_param {
    num_output: 32
    kernel_size: 1
    weight_filler {
      type: "xavier"
      std: 0.2
    }
    bias_filler {
      type: "constant"
      value: 0.2
    }
  }
}
layer {
  name: "inception_4e/relu_5x5_reduce"
  type: "ReLU"
  bottom: "inception_4e/5x5_reduce"
  top: "inception_4e/5x5_reduce"
}
layer {
  name: "inception_4e/5x5"
  type: "Convolution"
  bottom: "inception_4e/5x5_reduce"
  top: "inception_4e/
I0403 15:11:10.806133 31261 layer_factory.hpp:77] Creating layer data
I0403 15:11:10.806746 31261 net.cpp:91] Creating Layer data
I0403 15:11:10.806777 31261 net.cpp:399] data -> data
I0403 15:11:10.806833 31261 net.cpp:399] data -> label
I0403 15:11:10.806871 31261 data_transformer.cpp:25] Loading mean file from: /home/mohanty/data/final_dataset/lmdb/grayscale-80-20/mean.binaryproto
I0403 15:11:10.818187 31263 db_lmdb.cpp:38] Opened lmdb /home/mohanty/data/final_dataset/lmdb/grayscale-80-20/test_db
I0403 15:11:10.821401 31261 data_layer.cpp:41] output data size: 24,3,224,224
I0403 15:11:10.849503 31261 net.cpp:141] Setting up data
I0403 15:11:10.849603 31261 net.cpp:148] Top shape: 24 3 224 224 (3612672)
I0403 15:11:10.849628 31261 net.cpp:148] Top shape: 24 (24)
I0403 15:11:10.849645 31261 net.cpp:156] Memory required for data: 14450784
I0403 15:11:10.849678 31261 layer_factory.hpp:77] Creating layer label_data_1_split
I0403 15:11:10.849710 31261 net.cpp:91] Creating Layer label_data_1_split
I0403 15:11:10.849731 31261 net.cpp:425] label_data_1_split <- label
I0403 15:11:10.849768 31261 net.cpp:399] label_data_1_split -> label_data_1_split_0
I0403 15:11:10.849799 31261 net.cpp:399] label_data_1_split -> label_data_1_split_1
I0403 15:11:10.849824 31261 net.cpp:399] label_data_1_split -> label_data_1_split_2
I0403 15:11:10.849846 31261 net.cpp:399] label_data_1_split -> label_data_1_split_3
I0403 15:11:10.849869 31261 net.cpp:399] label_data_1_split -> label_data_1_split_4
I0403 15:11:10.849890 31261 net.cpp:399] label_data_1_split -> label_data_1_split_5
I0403 15:11:10.849911 31261 net.cpp:399] label_data_1_split -> label_data_1_split_6
I0403 15:11:10.849933 31261 net.cpp:399] label_data_1_split -> label_data_1_split_7
I0403 15:11:10.849956 31261 net.cpp:399] label_data_1_split -> label_data_1_split_8
I0403 15:11:10.849978 31261 net.cpp:399] label_data_1_split -> label_data_1_split_9
I0403 15:11:10.850100 31261 net.cpp:141] Setting up label_data_1_split
I0403 15:11:10.850123 31261 net.cpp:148] Top shape: 24 (24)
I0403 15:11:10.850142 31261 net.cpp:148] Top shape: 24 (24)
I0403 15:11:10.850157 31261 net.cpp:148] Top shape: 24 (24)
I0403 15:11:10.850174 31261 net.cpp:148] Top shape: 24 (24)
I0403 15:11:10.850190 31261 net.cpp:148] Top shape: 24 (24)
I0403 15:11:10.850206 31261 net.cpp:148] Top shape: 24 (24)
I0403 15:11:10.850222 31261 net.cpp:148] Top shape: 24 (24)
I0403 15:11:10.850239 31261 net.cpp:148] Top shape: 24 (24)
I0403 15:11:10.850255 31261 net.cpp:148] Top shape: 24 (24)
I0403 15:11:10.850270 31261 net.cpp:148] Top shape: 24 (24)
I0403 15:11:10.850323 31261 net.cpp:156] Memory required for data: 14451744
I0403 15:11:10.850339 31261 layer_factory.hpp:77] Creating layer conv1/7x7_s2
I0403 15:11:10.850375 31261 net.cpp:91] Creating Layer conv1/7x7_s2
I0403 15:11:10.850394 31261 net.cpp:425] conv1/7x7_s2 <- data
I0403 15:11:10.850414 31261 net.cpp:399] conv1/7x7_s2 -> conv1/7x7_s2
I0403 15:11:10.995200 31261 net.cpp:141] Setting up conv1/7x7_s2
I0403 15:11:10.995280 31261 net.cpp:148] Top shape: 24 64 112 112 (19267584)
I0403 15:11:10.995298 31261 net.cpp:156] Memory required for data: 91522080
I0403 15:11:10.995378 31261 layer_factory.hpp:77] Creating layer conv1/relu_7x7
I0403 15:11:10.995415 31261 net.cpp:91] Creating Layer conv1/relu_7x7
I0403 15:11:10.995436 31261 net.cpp:425] conv1/relu_7x7 <- conv1/7x7_s2
I0403 15:11:10.995457 31261 net.cpp:386] conv1/relu_7x7 -> conv1/7x7_s2 (in-place)
I0403 15:11:10.995746 31261 net.cpp:141] Setting up conv1/relu_7x7
I0403 15:11:10.995774 31261 net.cpp:148] Top shape: 24 64 112 112 (19267584)
I0403 15:11:10.995790 31261 net.cpp:156] Memory required for data: 168592416
I0403 15:11:10.995806 31261 layer_factory.hpp:77] Creating layer pool1/3x3_s2
I0403 15:11:10.995837 31261 net.cpp:91] Creating Layer pool1/3x3_s2
I0403 15:11:10.995857 31261 net.cpp:425] pool1/3x3_s2 <- conv1/7x7_s2
I0403 15:11:10.995878 31261 net.cpp:399] pool1/3x3_s2 -> pool1/3x3_s2
I0403 15:11:10.995962 31261 net.cpp:141] Setting up pool1/3x3_s2
I0403 15:11:10.995990 31261 net.cpp:148] Top shape: 24 64 56 56 (4816896)
I0403 15:11:10.996007 31261 net.cpp:156] Memory required for data: 187860000
I0403 15:11:10.996023 31261 layer_factory.hpp:77] Creating layer pool1/norm1
I0403 15:11:10.996052 31261 net.cpp:91] Creating Layer pool1/norm1
I0403 15:11:10.996073 31261 net.cpp:425] pool1/norm1 <- pool1/3x3_s2
I0403 15:11:10.996093 31261 net.cpp:399] pool1/norm1 -> pool1/norm1
I0403 15:11:10.996409 31261 net.cpp:141] Setting up pool1/norm1
I0403 15:11:10.996440 31261 net.cpp:148] Top shape: 24 64 56 56 (4816896)
I0403 15:11:10.996466 31261 net.cpp:156] Memory required for data: 207127584
I0403 15:11:10.996486 31261 layer_factory.hpp:77] Creating layer conv2/3x3_reduce
I0403 15:11:10.996517 31261 net.cpp:91] Creating Layer conv2/3x3_reduce
I0403 15:11:10.996546 31261 net.cpp:425] conv2/3x3_reduce <- pool1/norm1
I0403 15:11:10.996568 31261 net.cpp:399] conv2/3x3_reduce -> conv2/3x3_reduce
I0403 15:11:10.998014 31261 net.cpp:141] Setting up conv2/3x3_reduce
I0403 15:11:10.998044 31261 net.cpp:148] Top shape: 24 64 56 56 (4816896)
I0403 15:11:10.998060 31261 net.cpp:156] Memory required for data: 226395168
I0403 15:11:10.998082 31261 layer_factory.hpp:77] Creating layer conv2/relu_3x3_reduce
I0403 15:11:10.998105 31261 net.cpp:91] Creating Layer conv2/relu_3x3_reduce
I0403 15:11:10.998121 31261 net.cpp:425] conv2/relu_3x3_reduce <- conv2/3x3_reduce
I0403 15:11:10.998139 31261 net.cpp:386] conv2/relu_3x3_reduce -> conv2/3x3_reduce (in-place)
I0403 15:11:10.998411 31261 net.cpp:141] Setting up conv2/relu_3x3_reduce
I0403 15:11:10.998438 31261 net.cpp:148] Top shape: 24 64 56 56 (4816896)
I0403 15:11:10.998455 31261 net.cpp:156] Memory required for data: 245662752
I0403 15:11:10.998471 31261 layer_factory.hpp:77] Creating layer conv2/3x3
I0403 15:11:10.998495 31261 net.cpp:91] Creating Layer conv2/3x3
I0403 15:11:10.998513 31261 net.cpp:425] conv2/3x3 <- conv2/3x3_reduce
I0403 15:11:10.998541 31261 net.cpp:399] conv2/3x3 -> conv2/3x3
I0403 15:11:11.000885 31261 net.cpp:141] Setting up conv2/3x3
I0403 15:11:11.000916 31261 net.cpp:148] Top shape: 24 192 56 56 (14450688)
I0403 15:11:11.000933 31261 net.cpp:156] Memory required for data: 303465504
I0403 15:11:11.000957 31261 layer_factory.hpp:77] Creating layer conv2/relu_3x3
I0403 15:11:11.000978 31261 net.cpp:91] Creating Layer conv2/relu_3x3
I0403 15:11:11.000996 31261 net.cpp:425] conv2/relu_3x3 <- conv2/3x3
I0403 15:11:11.001014 31261 net.cpp:386] conv2/relu_3x3 -> conv2/3x3 (in-place)
I0403 15:11:11.001194 31261 net.cpp:141] Setting up conv2/relu_3x3
I0403 15:11:11.001221 31261 net.cpp:148] Top shape: 24 192 56 56 (14450688)
I0403 15:11:11.001276 31261 net.cpp:156] Memory required for data: 361268256
I0403 15:11:11.001292 31261 layer_factory.hpp:77] Creating layer conv2/norm2
I0403 15:11:11.001312 31261 net.cpp:91] Creating Layer conv2/norm2
I0403 15:11:11.001328 31261 net.cpp:425] conv2/norm2 <- conv2/3x3
I0403 15:11:11.001349 31261 net.cpp:399] conv2/norm2 -> conv2/norm2
I0403 15:11:11.001664 31261 net.cpp:141] Setting up conv2/norm2
I0403 15:11:11.001693 31261 net.cpp:148] Top shape: 24 192 56 56 (14450688)
I0403 15:11:11.001708 31261 net.cpp:156] Memory required for data: 419071008
I0403 15:11:11.001724 31261 layer_factory.hpp:77] Creating layer pool2/3x3_s2
I0403 15:11:11.001742 31261 net.cpp:91] Creating Layer pool2/3x3_s2
I0403 15:11:11.001759 31261 net.cpp:425] pool2/3x3_s2 <- conv2/norm2
I0403 15:11:11.001781 31261 net.cpp:399] pool2/3x3_s2 -> pool2/3x3_s2
I0403 15:11:11.001837 31261 net.cpp:141] Setting up pool2/3x3_s2
I0403 15:11:11.001862 31261 net.cpp:148] Top shape: 24 192 28 28 (3612672)
I0403 15:11:11.001876 31261 net.cpp:156] Memory required for data: 433521696
I0403 15:11:11.001893 31261 layer_factory.hpp:77] Creating layer pool2/3x3_s2_pool2/3x3_s2_0_split
I0403 15:11:11.001914 31261 net.cpp:91] Creating Layer pool2/3x3_s2_pool2/3x3_s2_0_split
I0403 15:11:11.001930 31261 net.cpp:425] pool2/3x3_s2_pool2/3x3_s2_0_split <- pool2/3x3_s2
I0403 15:11:11.001950 31261 net.cpp:399] pool2/3x3_s2_pool2/3x3_s2_0_split -> pool2/3x3_s2_pool2/3x3_s2_0_split_0
I0403 15:11:11.001971 31261 net.cpp:399] pool2/3x3_s2_pool2/3x3_s2_0_split -> pool2/3x3_s2_pool2/3x3_s2_0_split_1
I0403 15:11:11.001993 31261 net.cpp:399] pool2/3x3_s2_pool2/3x3_s2_0_split -> pool2/3x3_s2_pool2/3x3_s2_0_split_2
I0403 15:11:11.002013 31261 net.cpp:399] pool2/3x3_s2_pool2/3x3_s2_0_split -> pool2/3x3_s2_pool2/3x3_s2_0_split_3
I0403 15:11:11.002086 31261 net.cpp:141] Setting up pool2/3x3_s2_pool2/3x3_s2_0_split
I0403 15:11:11.002110 31261 net.cpp:148] Top shape: 24 192 28 28 (3612672)
I0403 15:11:11.002126 31261 net.cpp:148] Top shape: 24 192 28 28 (3612672)
I0403 15:11:11.002143 31261 net.cpp:148] Top shape: 24 192 28 28 (3612672)
I0403 15:11:11.002159 31261 net.cpp:148] Top shape: 24 192 28 28 (3612672)
I0403 15:11:11.002174 31261 net.cpp:156] Memory required for data: 491324448
I0403 15:11:11.002189 31261 layer_factory.hpp:77] Creating layer inception_3a/1x1
I0403 15:11:11.002213 31261 net.cpp:91] Creating Layer inception_3a/1x1
I0403 15:11:11.002231 31261 net.cpp:425] inception_3a/1x1 <- pool2/3x3_s2_pool2/3x3_s2_0_split_0
I0403 15:11:11.002254 31261 net.cpp:399] inception_3a/1x1 -> inception_3a/1x1
I0403 15:11:11.003823 31261 net.cpp:141] Setting up inception_3a/1x1
I0403 15:11:11.003854 31261 net.cpp:148] Top shape: 24 64 28 28 (1204224)
I0403 15:11:11.003870 31261 net.cpp:156] Memory required for data: 496141344
I0403 15:11:11.003890 31261 layer_factory.hpp:77] Creating layer inception_3a/relu_1x1
I0403 15:11:11.003912 31261 net.cpp:91] Creating Layer inception_3a/relu_1x1
I0403 15:11:11.003931 31261 net.cpp:425] inception_3a/relu_1x1 <- inception_3a/1x1
I0403 15:11:11.003949 31261 net.cpp:386] inception_3a/relu_1x1 -> inception_3a/1x1 (in-place)
I0403 15:11:11.004125 31261 net.cpp:141] Setting up inception_3a/relu_1x1
I0403 15:11:11.004151 31261 net.cpp:148] Top shape: 24 64 28 28 (1204224)
I0403 15:11:11.004168 31261 net.cpp:156] Memory required for data: 500958240
I0403 15:11:11.004184 31261 layer_factory.hpp:77] Creating layer inception_3a/3x3_reduce
I0403 15:11:11.004207 31261 net.cpp:91] Creating Layer inception_3a/3x3_reduce
I0403 15:11:11.004225 31261 net.cpp:425] inception_3a/3x3_reduce <- pool2/3x3_s2_pool2/3x3_s2_0_split_1
I0403 15:11:11.004245 31261 net.cpp:399] inception_3a/3x3_reduce -> inception_3a/3x3_reduce
I0403 15:11:11.005998 31261 net.cpp:141] Setting up inception_3a/3x3_reduce
I0403 15:11:11.006028 31261 net.cpp:148] Top shape: 24 96 28 28 (1806336)
I0403 15:11:11.006045 31261 net.cpp:156] Memory required for data: 508183584
I0403 15:11:11.006068 31261 layer_factory.hpp:77] Creating layer inception_3a/relu_3x3_reduce
I0403 15:11:11.006106 31261 net.cpp:91] Creating Layer inception_3a/relu_3x3_reduce
I0403 15:11:11.006125 31261 net.cpp:425] inception_3a/relu_3x3_reduce <- inception_3a/3x3_reduce
I0403 15:11:11.006145 31261 net.cpp:386] inception_3a/relu_3x3_reduce -> inception_3a/3x3_reduce (in-place)
I0403 15:11:11.006331 31261 net.cpp:141] Setting up inception_3a/relu_3x3_reduce
I0403 15:11:11.006357 31261 net.cpp:148] Top shape: 24 96 28 28 (1806336)
I0403 15:11:11.006372 31261 net.cpp:156] Memory required for data: 515408928
I0403 15:11:11.006389 31261 layer_factory.hpp:77] Creating layer inception_3a/3x3
I0403 15:11:11.006412 31261 net.cpp:91] Creating Layer inception_3a/3x3
I0403 15:11:11.006429 31261 net.cpp:425] inception_3a/3x3 <- inception_3a/3x3_reduce
I0403 15:11:11.006453 31261 net.cpp:399] inception_3a/3x3 -> inception_3a/3x3
I0403 15:11:11.008146 31261 net.cpp:141] Setting up inception_3a/3x3
I0403 15:11:11.008174 31261 net.cpp:148] Top shape: 24 128 28 28 (2408448)
I0403 15:11:11.008191 31261 net.cpp:156] Memory required for data: 525042720
I0403 15:11:11.008210 31261 layer_factory.hpp:77] Creating layer inception_3a/relu_3x3
I0403 15:11:11.008234 31261 net.cpp:91] Creating Layer inception_3a/relu_3x3
I0403 15:11:11.008250 31261 net.cpp:425] inception_3a/relu_3x3 <- inception_3a/3x3
I0403 15:11:11.008268 31261 net.cpp:386] inception_3a/relu_3x3 -> inception_3a/3x3 (in-place)
I0403 15:11:11.008549 31261 net.cpp:141] Setting up inception_3a/relu_3x3
I0403 15:11:11.008579 31261 net.cpp:148] Top shape: 24 128 28 28 (2408448)
I0403 15:11:11.008594 31261 net.cpp:156] Memory required for data: 534676512
I0403 15:11:11.008610 31261 layer_factory.hpp:77] Creating layer inception_3a/5x5_reduce
I0403 15:11:11.008635 31261 net.cpp:91] Creating Layer inception_3a/5x5_reduce
I0403 15:11:11.008652 31261 net.cpp:425] inception_3a/5x5_reduce <- pool2/3x3_s2_pool2/3x3_s2_0_split_2
I0403 15:11:11.008674 31261 net.cpp:399] inception_3a/5x5_reduce -> inception_3a/5x5_reduce
I0403 15:11:11.009657 31261 net.cpp:141] Setting up inception_3a/5x5_reduce
I0403 15:11:11.009685 31261 net.cpp:148] Top shape: 24 16 28 28 (301056)
I0403 15:11:11.009706 31261 net.cpp:156] Memory required for data: 535880736
I0403 15:11:11.009724 31261 layer_factory.hpp:77] Creating layer inception_3a/relu_5x5_reduce
I0403 15:11:11.009743 31261 net.cpp:91] Creating Layer inception_3a/relu_5x5_reduce
I0403 15:11:11.009760 31261 net.cpp:425] inception_3a/relu_5x5_reduce <- inception_3a/5x5_reduce
I0403 15:11:11.009778 31261 net.cpp:386] inception_3a/relu_5x5_reduce -> inception_3a/5x5_reduce (in-place)
I0403 15:11:11.010082 31261 net.cpp:141] Setting up inception_3a/relu_5x5_reduce
I0403 15:11:11.010113 31261 net.cpp:148] Top shape: 24 16 28 28 (301056)
I0403 15:11:11.010129 31261 net.cpp:156] Memory required for data: 537084960
I0403 15:11:11.010145 31261 layer_factory.hpp:77] Creating layer inception_3a/5x5
I0403 15:11:11.010169 31261 net.cpp:91] Creating Layer inception_3a/5x5
I0403 15:11:11.010187 31261 net.cpp:425] inception_3a/5x5 <- inception_3a/5x5_reduce
I0403 15:11:11.010207 31261 net.cpp:399] inception_3a/5x5 -> inception_3a/5x5
I0403 15:11:11.011232 31261 net.cpp:141] Setting up inception_3a/5x5
I0403 15:11:11.011260 31261 net.cpp:148] Top shape: 24 32 28 28 (602112)
I0403 15:11:11.011276 31261 net.cpp:156] Memory required for data: 539493408
I0403 15:11:11.011296 31261 layer_factory.hpp:77] Creating layer inception_3a/relu_5x5
I0403 15:11:11.011317 31261 net.cpp:91] Creating Layer inception_3a/relu_5x5
I0403 15:11:11.011333 31261 net.cpp:425] inception_3a/relu_5x5 <- inception_3a/5x5
I0403 15:11:11.011353 31261 net.cpp:386] inception_3a/relu_5x5 -> inception_3a/5x5 (in-place)
I0403 15:11:11.011526 31261 net.cpp:141] Setting up inception_3a/relu_5x5
I0403 15:11:11.011554 31261 net.cpp:148] Top shape: 24 32 28 28 (602112)
I0403 15:11:11.011571 31261 net.cpp:156] Memory required for data: 541901856
I0403 15:11:11.011587 31261 layer_factory.hpp:77] Creating layer inception_3a/pool
I0403 15:11:11.011608 31261 net.cpp:91] Creating Layer inception_3a/pool
I0403 15:11:11.011638 31261 net.cpp:425] inception_3a/pool <- pool2/3x3_s2_pool2/3x3_s2_0_split_3
I0403 15:11:11.011657 31261 net.cpp:399] inception_3a/pool -> inception_3a/pool
I0403 15:11:11.011718 31261 net.cpp:141] Setting up inception_3a/pool
I0403 15:11:11.011741 31261 net.cpp:148] Top shape: 24 192 28 28 (3612672)
I0403 15:11:11.011756 31261 net.cpp:156] Memory required for data: 556352544
I0403 15:11:11.011772 31261 layer_factory.hpp:77] Creating layer inception_3a/pool_proj
I0403 15:11:11.011795 31261 net.cpp:91] Creating Layer inception_3a/pool_proj
I0403 15:11:11.011811 31261 net.cpp:425] inception_3a/pool_proj <- inception_3a/pool
I0403 15:11:11.011834 31261 net.cpp:399] inception_3a/pool_proj -> inception_3a/pool_proj
I0403 15:11:11.012786 31261 net.cpp:141] Setting up inception_3a/pool_proj
I0403 15:11:11.012816 31261 net.cpp:148] Top shape: 24 32 28 28 (602112)
I0403 15:11:11.012833 31261 net.cpp:156] Memory required for data: 558760992
I0403 15:11:11.012858 31261 layer_factory.hpp:77] Creating layer inception_3a/relu_pool_proj
I0403 15:11:11.012878 31261 net.cpp:91] Creating Layer inception_3a/relu_pool_proj
I0403 15:11:11.012893 31261 net.cpp:425] inception_3a/relu_pool_proj <- inception_3a/pool_proj
I0403 15:11:11.012910 31261 net.cpp:386] inception_3a/relu_pool_proj -> inception_3a/pool_proj (in-place)
I0403 15:11:11.013180 31261 net.cpp:141] Setting up inception_3a/relu_pool_proj
I0403 15:11:11.013207 31261 net.cpp:148] Top shape: 24 32 28 28 (602112)
I0403 15:11:11.013222 31261 net.cpp:156] Memory required for data: 561169440
I0403 15:11:11.013238 31261 layer_factory.hpp:77] Creating layer inception_3a/output
I0403 15:11:11.013259 31261 net.cpp:91] Creating Layer inception_3a/output
I0403 15:11:11.013275 31261 net.cpp:425] inception_3a/output <- inception_3a/1x1
I0403 15:11:11.013293 31261 net.cpp:425] inception_3a/output <- inception_3a/3x3
I0403 15:11:11.013309 31261 net.cpp:425] inception_3a/output <- inception_3a/5x5
I0403 15:11:11.013325 31261 net.cpp:425] inception_3a/output <- inception_3a/pool_proj
I0403 15:11:11.013344 31261 net.cpp:399] inception_3a/output -> inception_3a/output
I0403 15:11:11.013392 31261 net.cpp:141] Setting up inception_3a/output
I0403 15:11:11.013417 31261 net.cpp:148] Top shape: 24 256 28 28 (4816896)
I0403 15:11:11.013430 31261 net.cpp:156] Memory required for data: 580437024
I0403 15:11:11.013447 31261 layer_factory.hpp:77] Creating layer inception_3a/output_inception_3a/output_0_split
I0403 15:11:11.013463 31261 net.cpp:91] Creating Layer inception_3a/output_inception_3a/output_0_split
I0403 15:11:11.013479 31261 net.cpp:425] inception_3a/output_inception_3a/output_0_split <- inception_3a/output
I0403 15:11:11.013499 31261 net.cpp:399] inception_3a/output_inception_3a/output_0_split -> inception_3a/output_inception_3a/output_0_split_0
I0403 15:11:11.013520 31261 net.cpp:399] inception_3a/output_inception_3a/output_0_split -> inception_3a/output_inception_3a/output_0_split_1
I0403 15:11:11.013547 31261 net.cpp:399] inception_3a/output_inception_3a/output_0_split -> inception_3a/output_inception_3a/output_0_split_2
I0403 15:11:11.013571 31261 net.cpp:399] inception_3a/output_inception_3a/output_0_split -> inception_3a/output_inception_3a/output_0_split_3
I0403 15:11:11.013646 31261 net.cpp:141] Setting up inception_3a/output_inception_3a/output_0_split
I0403 15:11:11.013669 31261 net.cpp:148] Top shape: 24 256 28 28 (4816896)
I0403 15:11:11.013686 31261 net.cpp:148] Top shape: 24 256 28 28 (4816896)
I0403 15:11:11.013702 31261 net.cpp:148] Top shape: 24 256 28 28 (4816896)
I0403 15:11:11.013717 31261 net.cpp:148] Top shape: 24 256 28 28 (4816896)
I0403 15:11:11.013731 31261 net.cpp:156] Memory required for data: 657507360
I0403 15:11:11.013746 31261 layer_factory.hpp:77] Creating layer inception_3b/1x1
I0403 15:11:11.013770 31261 net.cpp:91] Creating Layer inception_3b/1x1
I0403 15:11:11.013788 31261 net.cpp:425] inception_3b/1x1 <- inception_3a/output_inception_3a/output_0_split_0
I0403 15:11:11.013808 31261 net.cpp:399] inception_3b/1x1 -> inception_3b/1x1
I0403 15:11:11.014973 31261 net.cpp:141] Setting up inception_3b/1x1
I0403 15:11:11.015013 31261 net.cpp:148] Top shape: 24 128 28 28 (2408448)
I0403 15:11:11.015032 31261 net.cpp:156] Memory required for data: 667141152
I0403 15:11:11.015050 31261 layer_factory.hpp:77] Creating layer inception_3b/relu_1x1
I0403 15:11:11.015071 31261 net.cpp:91] Creating Layer inception_3b/relu_1x1
I0403 15:11:11.015089 31261 net.cpp:425] inception_3b/relu_1x1 <- inception_3b/1x1
I0403 15:11:11.015110 31261 net.cpp:386] inception_3b/relu_1x1 -> inception_3b/1x1 (in-place)
I0403 15:11:11.015287 31261 net.cpp:141] Setting up inception_3b/relu_1x1
I0403 15:11:11.015313 31261 net.cpp:148] Top shape: 24 128 28 28 (2408448)
I0403 15:11:11.015328 31261 net.cpp:156] Memory required for data: 676774944
I0403 15:11:11.015344 31261 layer_factory.hpp:77] Creating layer inception_3b/3x3_reduce
I0403 15:11:11.015368 31261 net.cpp:91] Creating Layer inception_3b/3x3_reduce
I0403 15:11:11.015386 31261 net.cpp:425] inception_3b/3x3_reduce <- inception_3a/output_inception_3a/output_0_split_1
I0403 15:11:11.015408 31261 net.cpp:399] inception_3b/3x3_reduce -> inception_3b/3x3_reduce
I0403 15:11:11.016582 31261 net.cpp:141] Setting up inception_3b/3x3_reduce
I0403 15:11:11.016610 31261 net.cpp:148] Top shape: 24 128 28 28 (2408448)
I0403 15:11:11.016626 31261 net.cpp:156] Memory required for data: 686408736
I0403 15:11:11.016646 31261 layer_factory.hpp:77] Creating layer inception_3b/relu_3x3_reduce
I0403 15:11:11.016670 31261 net.cpp:91] Creating Layer inception_3b/relu_3x3_reduce
I0403 15:11:11.016688 31261 net.cpp:425] inception_3b/relu_3x3_reduce <- inception_3b/3x3_reduce
I0403 15:11:11.016706 31261 net.cpp:386] inception_3b/relu_3x3_reduce -> inception_3b/3x3_reduce (in-place)
I0403 15:11:11.016883 31261 net.cpp:141] Setting up inception_3b/relu_3x3_reduce
I0403 15:11:11.016908 31261 net.cpp:148] Top shape: 24 128 28 28 (2408448)
I0403 15:11:11.016924 31261 net.cpp:156] Memory required for data: 696042528
I0403 15:11:11.016940 31261 layer_factory.hpp:77] Creating layer inception_3b/3x3
I0403 15:11:11.016966 31261 net.cpp:91] Creating Layer inception_3b/3x3
I0403 15:11:11.016985 31261 net.cpp:425] inception_3b/3x3 <- inception_3b/3x3_reduce
I0403 15:11:11.017006 31261 net.cpp:399] inception_3b/3x3 -> inception_3b/3x3
I0403 15:11:11.020015 31261 net.cpp:141] Setting up inception_3b/3x3
I0403 15:11:11.020045 31261 net.cpp:148] Top shape: 24 192 28 28 (3612672)
I0403 15:11:11.020061 31261 net.cpp:156] Memory required for data: 710493216
I0403 15:11:11.020081 31261 layer_factory.hpp:77] Creating layer inception_3b/relu_3x3
I0403 15:11:11.020102 31261 net.cpp:91] Creating Layer inception_3b/relu_3x3
I0403 15:11:11.020119 31261 net.cpp:425] inception_3b/relu_3x3 <- inception_3b/3x3
I0403 15:11:11.020138 31261 net.cpp:386] inception_3b/relu_3x3 -> inception_3b/3x3 (in-place)
I0403 15:11:11.020421 31261 net.cpp:141] Setting up inception_3b/relu_3x3
I0403 15:11:11.020447 31261 net.cpp:148] Top shape: 24 192 28 28 (3612672)
I0403 15:11:11.020463 31261 net.cpp:156] Memory required for data: 724943904
I0403 15:11:11.020478 31261 layer_factory.hpp:77] Creating layer inception_3b/5x5_reduce
I0403 15:11:11.020504 31261 net.cpp:91] Creating Layer inception_3b/5x5_reduce
I0403 15:11:11.020524 31261 net.cpp:425] inception_3b/5x5_reduce <- inception_3a/output_inception_3a/output_0_split_2
I0403 15:11:11.020552 31261 net.cpp:399] inception_3b/5x5_reduce -> inception_3b/5x5_reduce
I0403 15:11:11.021579 31261 net.cpp:141] Setting up inception_3b/5x5_reduce
I0403 15:11:11.021606 31261 net.cpp:148] Top shape: 24 32 28 28 (602112)
I0403 15:11:11.021623 31261 net.cpp:156] Memory required for data: 727352352
I0403 15:11:11.021642 31261 layer_factory.hpp:77] Creating layer inception_3b/relu_5x5_reduce
I0403 15:11:11.021664 31261 net.cpp:91] Creating Layer inception_3b/relu_5x5_reduce
I0403 15:11:11.021682 31261 net.cpp:425] inception_3b/relu_5x5_reduce <- inception_3b/5x5_reduce
I0403 15:11:11.021702 31261 net.cpp:386] inception_3b/relu_5x5_reduce -> inception_3b/5x5_reduce (in-place)
I0403 15:11:11.021896 31261 net.cpp:141] Setting up inception_3b/relu_5x5_reduce
I0403 15:11:11.021924 31261 net.cpp:148] Top shape: 24 32 28 28 (602112)
I0403 15:11:11.021941 31261 net.cpp:156] Memory required for data: 729760800
I0403 15:11:11.021957 31261 layer_factory.hpp:77] Creating layer inception_3b/5x5
I0403 15:11:11.021981 31261 net.cpp:91] Creating Layer inception_3b/5x5
I0403 15:11:11.021999 31261 net.cpp:425] inception_3b/5x5 <- inception_3b/5x5_reduce
I0403 15:11:11.022019 31261 net.cpp:399] inception_3b/5x5 -> inception_3b/5x5
I0403 15:11:11.024070 31261 net.cpp:141] Setting up inception_3b/5x5
I0403 15:11:11.024101 31261 net.cpp:148] Top shape: 24 96 28 28 (1806336)
I0403 15:11:11.024116 31261 net.cpp:156] Memory required for data: 736986144
I0403 15:11:11.024137 31261 layer_factory.hpp:77] Creating layer inception_3b/relu_5x5
I0403 15:11:11.024155 31261 net.cpp:91] Creating Layer inception_3b/relu_5x5
I0403 15:11:11.024176 31261 net.cpp:425] inception_3b/relu_5x5 <- inception_3b/5x5
I0403 15:11:11.024194 31261 net.cpp:386] inception_3b/relu_5x5 -> inception_3b/5x5 (in-place)
I0403 15:11:11.024394 31261 net.cpp:141] Setting up inception_3b/relu_5x5
I0403 15:11:11.024420 31261 net.cpp:148] Top shape: 24 96 28 28 (1806336)
I0403 15:11:11.024435 31261 net.cpp:156] Memory required for data: 744211488
I0403 15:11:11.024451 31261 layer_factory.hpp:77] Creating layer inception_3b/pool
I0403 15:11:11.024471 31261 net.cpp:91] Creating Layer inception_3b/pool
I0403 15:11:11.024487 31261 net.cpp:425] inception_3b/pool <- inception_3a/output_inception_3a/output_0_split_3
I0403 15:11:11.024505 31261 net.cpp:399] inception_3b/pool -> inception_3b/pool
I0403 15:11:11.024571 31261 net.cpp:141] Setting up inception_3b/pool
I0403 15:11:11.024605 31261 net.cpp:148] Top shape: 24 256 28 28 (4816896)
I0403 15:11:11.024621 31261 net.cpp:156] Memory required for data: 763479072
I0403 15:11:11.024636 31261 layer_factory.hpp:77] Creating layer inception_3b/pool_proj
I0403 15:11:11.024660 31261 net.cpp:91] Creating Layer inception_3b/pool_proj
I0403 15:11:11.024678 31261 net.cpp:425] inception_3b/pool_proj <- inception_3b/pool
I0403 15:11:11.024700 31261 net.cpp:399] inception_3b/pool_proj -> inception_3b/pool_proj
I0403 15:11:11.025780 31261 net.cpp:141] Setting up inception_3b/pool_proj
I0403 15:11:11.025810 31261 net.cpp:148] Top shape: 24 64 28 28 (1204224)
I0403 15:11:11.025828 31261 net.cpp:156] Memory required for data: 768295968
I0403 15:11:11.025848 31261 layer_factory.hpp:77] Creating layer inception_3b/relu_pool_proj
I0403 15:11:11.025867 31261 net.cpp:91] Creating Layer inception_3b/relu_pool_proj
I0403 15:11:11.025884 31261 net.cpp:425] inception_3b/relu_pool_proj <- inception_3b/pool_proj
I0403 15:11:11.025905 31261 net.cpp:386] inception_3b/relu_pool_proj -> inception_3b/pool_proj (in-place)
I0403 15:11:11.026304 31261 net.cpp:141] Setting up inception_3b/relu_pool_proj
I0403 15:11:11.026332 31261 net.cpp:148] Top shape: 24 64 28 28 (1204224)
I0403 15:11:11.026350 31261 net.cpp:156] Memory required for data: 773112864
I0403 15:11:11.026366 31261 layer_factory.hpp:77] Creating layer inception_3b/output
I0403 15:11:11.026384 31261 net.cpp:91] Creating Layer inception_3b/output
I0403 15:11:11.026401 31261 net.cpp:425] inception_3b/output <- inception_3b/1x1
I0403 15:11:11.026417 31261 net.cpp:425] inception_3b/output <- inception_3b/3x3
I0403 15:11:11.026434 31261 net.cpp:425] inception_3b/output <- inception_3b/5x5
I0403 15:11:11.026453 31261 net.cpp:425] inception_3b/output <- inception_3b/pool_proj
I0403 15:11:11.026470 31261 net.cpp:399] inception_3b/output -> inception_3b/output
I0403 15:11:11.026517 31261 net.cpp:141] Setting up inception_3b/output
I0403 15:11:11.026546 31261 net.cpp:148] Top shape: 24 480 28 28 (9031680)
I0403 15:11:11.026562 31261 net.cpp:156] Memory required for data: 809239584
I0403 15:11:11.026578 31261 layer_factory.hpp:77] Creating layer pool3/3x3_s2
I0403 15:11:11.026599 31261 net.cpp:91] Creating Layer pool3/3x3_s2
I0403 15:11:11.026617 31261 net.cpp:425] pool3/3x3_s2 <- inception_3b/output
I0403 15:11:11.026650 31261 net.cpp:399] pool3/3x3_s2 -> pool3/3x3_s2
I0403 15:11:11.026715 31261 net.cpp:141] Setting up pool3/3x3_s2
I0403 15:11:11.026739 31261 net.cpp:148] Top shape: 24 480 14 14 (2257920)
I0403 15:11:11.026756 31261 net.cpp:156] Memory required for data: 818271264
I0403 15:11:11.026770 31261 layer_factory.hpp:77] Creating layer pool3/3x3_s2_pool3/3x3_s2_0_split
I0403 15:11:11.026788 31261 net.cpp:91] Creating Layer pool3/3x3_s2_pool3/3x3_s2_0_split
I0403 15:11:11.026804 31261 net.cpp:425] pool3/3x3_s2_pool3/3x3_s2_0_split <- pool3/3x3_s2
I0403 15:11:11.026824 31261 net.cpp:399] pool3/3x3_s2_pool3/3x3_s2_0_split -> pool3/3x3_s2_pool3/3x3_s2_0_split_0
I0403 15:11:11.026846 31261 net.cpp:399] pool3/3x3_s2_pool3/3x3_s2_0_split -> pool3/3x3_s2_pool3/3x3_s2_0_split_1
I0403 15:11:11.026867 31261 net.cpp:399] pool3/3x3_s2_pool3/3x3_s2_0_split -> pool3/3x3_s2_pool3/3x3_s2_0_split_2
I0403 15:11:11.026888 31261 net.cpp:399] pool3/3x3_s2_pool3/3x3_s2_0_split -> pool3/3x3_s2_pool3/3x3_s2_0_split_3
I0403 15:11:11.026968 31261 net.cpp:141] Setting up pool3/3x3_s2_pool3/3x3_s2_0_split
I0403 15:11:11.026994 31261 net.cpp:148] Top shape: 24 480 14 14 (2257920)
I0403 15:11:11.027011 31261 net.cpp:148] Top shape: 24 480 14 14 (2257920)
I0403 15:11:11.027029 31261 net.cpp:148] Top shape: 24 480 14 14 (2257920)
I0403 15:11:11.027045 31261 net.cpp:148] Top shape: 24 480 14 14 (2257920)
I0403 15:11:11.027060 31261 net.cpp:156] Memory required for data: 854397984
I0403 15:11:11.027075 31261 layer_factory.hpp:77] Creating layer inception_4a/1x1
I0403 15:11:11.027097 31261 net.cpp:91] Creating Layer inception_4a/1x1
I0403 15:11:11.027115 31261 net.cpp:425] inception_4a/1x1 <- pool3/3x3_s2_pool3/3x3_s2_0_split_0
I0403 15:11:11.027135 31261 net.cpp:399] inception_4a/1x1 -> inception_4a/1x1
I0403 15:11:11.028771 31261 net.cpp:141] Setting up inception_4a/1x1
I0403 15:11:11.028803 31261 net.cpp:148] Top shape: 24 192 14 14 (903168)
I0403 15:11:11.028820 31261 net.cpp:156] Memory required for data: 858010656
I0403 15:11:11.028841 31261 layer_factory.hpp:77] Creating layer inception_4a/relu_1x1
I0403 15:11:11.028861 31261 net.cpp:91] Creating Layer inception_4a/relu_1x1
I0403 15:11:11.028877 31261 net.cpp:425] inception_4a/relu_1x1 <- inception_4a/1x1
I0403 15:11:11.028898 31261 net.cpp:386] inception_4a/relu_1x1 -> inception_4a/1x1 (in-place)
I0403 15:11:11.029078 31261 net.cpp:141] Setting up inception_4a/relu_1x1
I0403 15:11:11.029104 31261 net.cpp:148] Top shape: 24 192 14 14 (903168)
I0403 15:11:11.029120 31261 net.cpp:156] Memory required for data: 861623328
I0403 15:11:11.029136 31261 layer_factory.hpp:77] Creating layer inception_4a/3x3_reduce
I0403 15:11:11.029160 31261 net.cpp:91] Creating Layer inception_4a/3x3_reduce
I0403 15:11:11.029177 31261 net.cpp:425] inception_4a/3x3_reduce <- pool3/3x3_s2_pool3/3x3_s2_0_split_1
I0403 15:11:11.029199 31261 net.cpp:399] inception_4a/3x3_reduce -> inception_4a/3x3_reduce
I0403 15:11:11.030496 31261 net.cpp:141] Setting up inception_4a/3x3_reduce
I0403 15:11:11.030527 31261 net.cpp:148] Top shape: 24 96 14 14 (451584)
I0403 15:11:11.030550 31261 net.cpp:156] Memory required for data: 863429664
I0403 15:11:11.030575 31261 layer_factory.hpp:77] Creating layer inception_4a/relu_3x3_reduce
I0403 15:11:11.030597 31261 net.cpp:91] Creating Layer inception_4a/relu_3x3_reduce
I0403 15:11:11.030616 31261 net.cpp:425] inception_4a/relu_3x3_reduce <- inception_4a/3x3_reduce
I0403 15:11:11.030633 31261 net.cpp:386] inception_4a/relu_3x3_reduce -> inception_4a/3x3_reduce (in-place)
I0403 15:11:11.030814 31261 net.cpp:141] Setting up inception_4a/relu_3x3_reduce
I0403 15:11:11.030840 31261 net.cpp:148] Top shape: 24 96 14 14 (451584)
I0403 15:11:11.030856 31261 net.cpp:156] Memory required for data: 865236000
I0403 15:11:11.030872 31261 layer_factory.hpp:77] Creating layer inception_4a/3x3
I0403 15:11:11.030894 31261 net.cpp:91] Creating Layer inception_4a/3x3
I0403 15:11:11.030912 31261 net.cpp:425] inception_4a/3x3 <- inception_4a/3x3_reduce
I0403 15:11:11.030936 31261 net.cpp:399] inception_4a/3x3 -> inception_4a/3x3
I0403 15:11:11.033723 31261 net.cpp:141] Setting up inception_4a/3x3
I0403 15:11:11.033752 31261 net.cpp:148] Top shape: 24 208 14 14 (978432)
I0403 15:11:11.033769 31261 net.cpp:156] Memory required for data: 869149728
I0403 15:11:11.033788 31261 layer_factory.hpp:77] Creating layer inception_4a/relu_3x3
I0403 15:11:11.033810 31261 net.cpp:91] Creating Layer inception_4a/relu_3x3
I0403 15:11:11.033828 31261 net.cpp:425] inception_4a/relu_3x3 <- inception_4a/3x3
I0403 15:11:11.033846 31261 net.cpp:386] inception_4a/relu_3x3 -> inception_4a/3x3 (in-place)
I0403 15:11:11.034133 31261 net.cpp:141] Setting up inception_4a/relu_3x3
I0403 15:11:11.034159 31261 net.cpp:148] Top shape: 24 208 14 14 (978432)
I0403 15:11:11.034174 31261 net.cpp:156] Memory required for data: 873063456
I0403 15:11:11.034190 31261 layer_factory.hpp:77] Creating layer inception_4a/5x5_reduce
I0403 15:11:11.034215 31261 net.cpp:91] Creating Layer inception_4a/5x5_reduce
I0403 15:11:11.034234 31261 net.cpp:425] inception_4a/5x5_reduce <- pool3/3x3_s2_pool3/3x3_s2_0_split_2
I0403 15:11:11.034256 31261 net.cpp:399] inception_4a/5x5_reduce -> inception_4a/5x5_reduce
I0403 15:11:11.035337 31261 net.cpp:141] Setting up inception_4a/5x5_reduce
I0403 15:11:11.035365 31261 net.cpp:148] Top shape: 24 16 14 14 (75264)
I0403 15:11:11.035382 31261 net.cpp:156] Memory required for data: 873364512
I0403 15:11:11.035400 31261 layer_factory.hpp:77] Creating layer inception_4a/relu_5x5_reduce
I0403 15:11:11.035421 31261 net.cpp:91] Creating Layer inception_4a/relu_5x5_reduce
I0403 15:11:11.035439 31261 net.cpp:425] inception_4a/relu_5x5_reduce <- inception_4a/5x5_reduce
I0403 15:11:11.035456 31261 net.cpp:386] inception_4a/relu_5x5_reduce -> inception_4a/5x5_reduce (in-place)
I0403 15:11:11.035641 31261 net.cpp:141] Setting up inception_4a/relu_5x5_reduce
I0403 15:11:11.035667 31261 net.cpp:148] Top shape: 24 16 14 14 (75264)
I0403 15:11:11.035682 31261 net.cpp:156] Memory required for data: 873665568
I0403 15:11:11.035696 31261 layer_factory.hpp:77] Creating layer inception_4a/5x5
I0403 15:11:11.035720 31261 net.cpp:91] Creating Layer inception_4a/5x5
I0403 15:11:11.035739 31261 net.cpp:425] inception_4a/5x5 <- inception_4a/5x5_reduce
I0403 15:11:11.035758 31261 net.cpp:399] inception_4a/5x5 -> inception_4a/5x5
I0403 15:11:11.036835 31261 net.cpp:141] Setting up inception_4a/5x5
I0403 15:11:11.036865 31261 net.cpp:148] Top shape: 24 48 14 14 (225792)
I0403 15:11:11.036882 31261 net.cpp:156] Memory required for data: 874568736
I0403 15:11:11.036900 31261 layer_factory.hpp:77] Creating layer inception_4a/relu_5x5
I0403 15:11:11.036921 31261 net.cpp:91] Creating Layer inception_4a/relu_5x5
I0403 15:11:11.036936 31261 net.cpp:425] inception_4a/relu_5x5 <- inception_4a/5x5
I0403 15:11:11.036954 31261 net.cpp:386] inception_4a/relu_5x5 -> inception_4a/5x5 (in-place)
I0403 15:11:11.037132 31261 net.cpp:141] Setting up inception_4a/relu_5x5
I0403 15:11:11.037159 31261 net.cpp:148] Top shape: 24 48 14 14 (225792)
I0403 15:11:11.037175 31261 net.cpp:156] Memory required for data: 875471904
I0403 15:11:11.037190 31261 layer_factory.hpp:77] Creating layer inception_4a/pool
I0403 15:11:11.037209 31261 net.cpp:91] Creating Layer inception_4a/pool
I0403 15:11:11.037225 31261 net.cpp:425] inception_4a/pool <- pool3/3x3_s2_pool3/3x3_s2_0_split_3
I0403 15:11:11.037245 31261 net.cpp:399] inception_4a/pool -> inception_4a/pool
I0403 15:11:11.037305 31261 net.cpp:141] Setting up inception_4a/pool
I0403 15:11:11.037333 31261 net.cpp:148] Top shape: 24 480 14 14 (2257920)
I0403 15:11:11.037348 31261 net.cpp:156] Memory required for data: 884503584
I0403 15:11:11.037364 31261 layer_factory.hpp:77] Creating layer inception_4a/pool_proj
I0403 15:11:11.037385 31261 net.cpp:91] Creating Layer inception_4a/pool_proj
I0403 15:11:11.037402 31261 net.cpp:425] inception_4a/pool_proj <- inception_4a/pool
I0403 15:11:11.037422 31261 net.cpp:399] inception_4a/pool_proj -> inception_4a/pool_proj
I0403 15:11:11.038620 31261 net.cpp:141] Setting up inception_4a/pool_proj
I0403 15:11:11.038651 31261 net.cpp:148] Top shape: 24 64 14 14 (301056)
I0403 15:11:11.038681 31261 net.cpp:156] Memory required for data: 885707808
I0403 15:11:11.038702 31261 layer_factory.hpp:77] Creating layer inception_4a/relu_pool_proj
I0403 15:11:11.038720 31261 net.cpp:91] Creating Layer inception_4a/relu_pool_proj
I0403 15:11:11.038736 31261 net.cpp:425] inception_4a/relu_pool_proj <- inception_4a/pool_proj
I0403 15:11:11.038756 31261 net.cpp:386] inception_4a/relu_pool_proj -> inception_4a/pool_proj (in-place)
I0403 15:11:11.039036 31261 net.cpp:141] Setting up inception_4a/relu_pool_proj
I0403 15:11:11.039064 31261 net.cpp:148] Top shape: 24 64 14 14 (301056)
I0403 15:11:11.039082 31261 net.cpp:156] Memory required for data: 886912032
I0403 15:11:11.039096 31261 layer_factory.hpp:77] Creating layer inception_4a/output
I0403 15:11:11.039114 31261 net.cpp:91] Creating Layer inception_4a/output
I0403 15:11:11.039130 31261 net.cpp:425] inception_4a/output <- inception_4a/1x1
I0403 15:11:11.039149 31261 net.cpp:425] inception_4a/output <- inception_4a/3x3
I0403 15:11:11.039165 31261 net.cpp:425] inception_4a/output <- inception_4a/5x5
I0403 15:11:11.039180 31261 net.cpp:425] inception_4a/output <- inception_4a/pool_proj
I0403 15:11:11.039197 31261 net.cpp:399] inception_4a/output -> inception_4a/output
I0403 15:11:11.039244 31261 net.cpp:141] Setting up inception_4a/output
I0403 15:11:11.039268 31261 net.cpp:148] Top shape: 24 512 14 14 (2408448)
I0403 15:11:11.039283 31261 net.cpp:156] Memory required for data: 896545824
I0403 15:11:11.039299 31261 layer_factory.hpp:77] Creating layer inception_4a/output_inception_4a/output_0_split
I0403 15:11:11.039319 31261 net.cpp:91] Creating Layer inception_4a/output_inception_4a/output_0_split
I0403 15:11:11.039335 31261 net.cpp:425] inception_4a/output_inception_4a/output_0_split <- inception_4a/output
I0403 15:11:11.039353 31261 net.cpp:399] inception_4a/output_inception_4a/output_0_split -> inception_4a/output_inception_4a/output_0_split_0
I0403 15:11:11.039373 31261 net.cpp:399] inception_4a/output_inception_4a/output_0_split -> inception_4a/output_inception_4a/output_0_split_1
I0403 15:11:11.039396 31261 net.cpp:399] inception_4a/output_inception_4a/output_0_split -> inception_4a/output_inception_4a/output_0_split_2
I0403 15:11:11.039419 31261 net.cpp:399] inception_4a/output_inception_4a/output_0_split -> inception_4a/output_inception_4a/output_0_split_3
I0403 15:11:11.039441 31261 net.cpp:399] inception_4a/output_inception_4a/output_0_split -> inception_4a/output_inception_4a/output_0_split_4
I0403 15:11:11.039540 31261 net.cpp:141] Setting up inception_4a/output_inception_4a/output_0_split
I0403 15:11:11.039563 31261 net.cpp:148] Top shape: 24 512 14 14 (2408448)
I0403 15:11:11.039582 31261 net.cpp:148] Top shape: 24 512 14 14 (2408448)
I0403 15:11:11.039597 31261 net.cpp:148] Top shape: 24 512 14 14 (2408448)
I0403 15:11:11.039613 31261 net.cpp:148] Top shape: 24 512 14 14 (2408448)
I0403 15:11:11.039629 31261 net.cpp:148] Top shape: 24 512 14 14 (2408448)
I0403 15:11:11.039643 31261 net.cpp:156] Memory required for data: 944714784
I0403 15:11:11.039657 31261 layer_factory.hpp:77] Creating layer loss1/ave_pool
I0403 15:11:11.039677 31261 net.cpp:91] Creating Layer loss1/ave_pool
I0403 15:11:11.039695 31261 net.cpp:425] loss1/ave_pool <- inception_4a/output_inception_4a/output_0_split_0
I0403 15:11:11.039713 31261 net.cpp:399] loss1/ave_pool -> loss1/ave_pool
I0403 15:11:11.039917 31261 net.cpp:141] Setting up loss1/ave_pool
I0403 15:11:11.039947 31261 net.cpp:148] Top shape: 24 512 4 4 (196608)
I0403 15:11:11.039963 31261 net.cpp:156] Memory required for data: 945501216
I0403 15:11:11.039976 31261 layer_factory.hpp:77] Creating layer loss1/conv
I0403 15:11:11.039999 31261 net.cpp:91] Creating Layer loss1/conv
I0403 15:11:11.040017 31261 net.cpp:425] loss1/conv <- loss1/ave_pool
I0403 15:11:11.040037 31261 net.cpp:399] loss1/conv -> loss1/conv
I0403 15:11:11.041431 31261 net.cpp:141] Setting up loss1/conv
I0403 15:11:11.041460 31261 net.cpp:148] Top shape: 24 128 4 4 (49152)
I0403 15:11:11.041489 31261 net.cpp:156] Memory required for data: 945697824
I0403 15:11:11.041509 31261 layer_factory.hpp:77] Creating layer loss1/relu_conv
I0403 15:11:11.041532 31261 net.cpp:91] Creating Layer loss1/relu_conv
I0403 15:11:11.041554 31261 net.cpp:425] loss1/relu_conv <- loss1/conv
I0403 15:11:11.041589 31261 net.cpp:386] loss1/relu_conv -> loss1/conv (in-place)
I0403 15:11:11.041872 31261 net.cpp:141] Setting up loss1/relu_conv
I0403 15:11:11.041918 31261 net.cpp:148] Top shape: 24 128 4 4 (49152)
I0403 15:11:11.041934 31261 net.cpp:156] Memory required for data: 945894432
I0403 15:11:11.041949 31261 layer_factory.hpp:77] Creating layer loss1/fc
I0403 15:11:11.041998 31261 net.cpp:91] Creating Layer loss1/fc
I0403 15:11:11.042026 31261 net.cpp:425] loss1/fc <- loss1/conv
I0403 15:11:11.042059 31261 net.cpp:399] loss1/fc -> loss1/fc
I0403 15:11:11.059928 31261 net.cpp:141] Setting up loss1/fc
I0403 15:11:11.059963 31261 net.cpp:148] Top shape: 24 1024 (24576)
I0403 15:11:11.059979 31261 net.cpp:156] Memory required for data: 945992736
I0403 15:11:11.059999 31261 layer_factory.hpp:77] Creating layer loss1/relu_fc
I0403 15:11:11.060019 31261 net.cpp:91] Creating Layer loss1/relu_fc
I0403 15:11:11.060034 31261 net.cpp:425] loss1/relu_fc <- loss1/fc
I0403 15:11:11.060055 31261 net.cpp:386] loss1/relu_fc -> loss1/fc (in-place)
I0403 15:11:11.060240 31261 net.cpp:141] Setting up loss1/relu_fc
I0403 15:11:11.060264 31261 net.cpp:148] Top shape: 24 1024 (24576)
I0403 15:11:11.060279 31261 net.cpp:156] Memory required for data: 946091040
I0403 15:11:11.060294 31261 layer_factory.hpp:77] Creating layer loss1/drop_fc
I0403 15:11:11.060322 31261 net.cpp:91] Creating Layer loss1/drop_fc
I0403 15:11:11.060339 31261 net.cpp:425] loss1/drop_fc <- loss1/fc
I0403 15:11:11.060359 31261 net.cpp:386] loss1/drop_fc -> loss1/fc (in-place)
I0403 15:11:11.060413 31261 net.cpp:141] Setting up loss1/drop_fc
I0403 15:11:11.060437 31261 net.cpp:148] Top shape: 24 1024 (24576)
I0403 15:11:11.060452 31261 net.cpp:156] Memory required for data: 946189344
I0403 15:11:11.060468 31261 layer_factory.hpp:77] Creating layer loss1/classifier_plantvillage
I0403 15:11:11.060492 31261 net.cpp:91] Creating Layer loss1/classifier_plantvillage
I0403 15:11:11.060511 31261 net.cpp:425] loss1/classifier_plantvillage <- loss1/fc
I0403 15:11:11.060533 31261 net.cpp:399] loss1/classifier_plantvillage -> loss1/classifier_plantvillage
I0403 15:11:11.061476 31261 net.cpp:141] Setting up loss1/classifier_plantvillage
I0403 15:11:11.061503 31261 net.cpp:148] Top shape: 24 38 (912)
I0403 15:11:11.061519 31261 net.cpp:156] Memory required for data: 946192992
I0403 15:11:11.061558 31261 layer_factory.hpp:77] Creating layer loss1/classifier_plantvillage_loss1/classifier_plantvillage_0_split
I0403 15:11:11.061579 31261 net.cpp:91] Creating Layer loss1/classifier_plantvillage_loss1/classifier_plantvillage_0_split
I0403 15:11:11.061596 31261 net.cpp:425] loss1/classifier_plantvillage_loss1/classifier_plantvillage_0_split <- loss1/classifier_plantvillage
I0403 15:11:11.061630 31261 net.cpp:399] loss1/classifier_plantvillage_loss1/classifier_plantvillage_0_split -> loss1/classifier_plantvillage_loss1/classifier_plantvillage_0_split_0
I0403 15:11:11.061653 31261 net.cpp:399] loss1/classifier_plantvillage_loss1/classifier_plantvillage_0_split -> loss1/classifier_plantvillage_loss1/classifier_plantvillage_0_split_1
I0403 15:11:11.061676 31261 net.cpp:399] loss1/classifier_plantvillage_loss1/classifier_plantvillage_0_split -> loss1/classifier_plantvillage_loss1/classifier_plantvillage_0_split_2
I0403 15:11:11.061748 31261 net.cpp:141] Setting up loss1/classifier_plantvillage_loss1/classifier_plantvillage_0_split
I0403 15:11:11.061775 31261 net.cpp:148] Top shape: 24 38 (912)
I0403 15:11:11.061794 31261 net.cpp:148] Top shape: 24 38 (912)
I0403 15:11:11.061811 31261 net.cpp:148] Top shape: 24 38 (912)
I0403 15:11:11.061826 31261 net.cpp:156] Memory required for data: 946203936
I0403 15:11:11.061843 31261 layer_factory.hpp:77] Creating layer inception_4b/1x1
I0403 15:11:11.061866 31261 net.cpp:91] Creating Layer inception_4b/1x1
I0403 15:11:11.061913 31261 net.cpp:425] inception_4b/1x1 <- inception_4a/output_inception_4a/output_0_split_1
I0403 15:11:11.061933 31261 net.cpp:399] inception_4b/1x1 -> inception_4b/1x1
I0403 15:11:11.063628 31261 net.cpp:141] Setting up inception_4b/1x1
I0403 15:11:11.063658 31261 net.cpp:148] Top shape: 24 160 14 14 (752640)
I0403 15:11:11.063675 31261 net.cpp:156] Memory required for data: 949214496
I0403 15:11:11.063694 31261 layer_factory.hpp:77] Creating layer inception_4b/relu_1x1
I0403 15:11:11.063717 31261 net.cpp:91] Creating Layer inception_4b/relu_1x1
I0403 15:11:11.063735 31261 net.cpp:425] inception_4b/relu_1x1 <- inception_4b/1x1
I0403 15:11:11.063755 31261 net.cpp:386] inception_4b/relu_1x1 -> inception_4b/1x1 (in-place)
I0403 15:11:11.063940 31261 net.cpp:141] Setting up inception_4b/relu_1x1
I0403 15:11:11.063966 31261 net.cpp:148] Top shape: 24 160 14 14 (752640)
I0403 15:11:11.063982 31261 net.cpp:156] Memory required for data: 952225056
I0403 15:11:11.063997 31261 layer_factory.hpp:77] Creating layer inception_4b/3x3_reduce
I0403 15:11:11.064023 31261 net.cpp:91] Creating Layer inception_4b/3x3_reduce
I0403 15:11:11.064040 31261 net.cpp:425] inception_4b/3x3_reduce <- inception_4a/output_inception_4a/output_0_split_2
I0403 15:11:11.064059 31261 net.cpp:399] inception_4b/3x3_reduce -> inception_4b/3x3_reduce
I0403 15:11:11.065460 31261 net.cpp:141] Setting up inception_4b/3x3_reduce
I0403 15:11:11.065488 31261 net.cpp:148] Top shape: 24 112 14 14 (526848)
I0403 15:11:11.065505 31261 net.cpp:156] Memory required for data: 954332448
I0403 15:11:11.065523 31261 layer_factory.hpp:77] Creating layer inception_4b/relu_3x3_reduce
I0403 15:11:11.065565 31261 net.cpp:91] Creating Layer inception_4b/relu_3x3_reduce
I0403 15:11:11.065584 31261 net.cpp:425] inception_4b/relu_3x3_reduce <- inception_4b/3x3_reduce
I0403 15:11:11.065603 31261 net.cpp:386] inception_4b/relu_3x3_reduce -> inception_4b/3x3_reduce (in-place)
I0403 15:11:11.065913 31261 net.cpp:141] Setting up inception_4b/relu_3x3_reduce
I0403 15:11:11.065940 31261 net.cpp:148] Top shape: 24 112 14 14 (526848)
I0403 15:11:11.065958 31261 net.cpp:156] Memory required for data: 956439840
I0403 15:11:11.065973 31261 layer_factory.hpp:77] Creating layer inception_4b/3x3
I0403 15:11:11.066001 31261 net.cpp:91] Creating Layer inception_4b/3x3
I0403 15:11:11.066020 31261 net.cpp:425] inception_4b/3x3 <- inception_4b/3x3_reduce
I0403 15:11:11.066040 31261 net.cpp:399] inception_4b/3x3 -> inception_4b/3x3
I0403 15:11:11.069190 31261 net.cpp:141] Setting up inception_4b/3x3
I0403 15:11:11.069224 31261 net.cpp:148] Top shape: 24 224 14 14 (1053696)
I0403 15:11:11.069242 31261 net.cpp:156] Memory required for data: 960654624
I0403 15:11:11.069262 31261 layer_factory.hpp:77] Creating layer inception_4b/relu_3x3
I0403 15:11:11.069281 31261 net.cpp:91] Creating Layer inception_4b/relu_3x3
I0403 15:11:11.069298 31261 net.cpp:425] inception_4b/relu_3x3 <- inception_4b/3x3
I0403 15:11:11.069319 31261 net.cpp:386] inception_4b/relu_3x3 -> inception_4b/3x3 (in-place)
I0403 15:11:11.069505 31261 net.cpp:141] Setting up inception_4b/relu_3x3
I0403 15:11:11.069531 31261 net.cpp:148] Top shape: 24 224 14 14 (1053696)
I0403 15:11:11.069557 31261 net.cpp:156] Memory required for data: 964869408
I0403 15:11:11.069576 31261 layer_factory.hpp:77] Creating layer inception_4b/5x5_reduce
I0403 15:11:11.069599 31261 net.cpp:91] Creating Layer inception_4b/5x5_reduce
I0403 15:11:11.069630 31261 net.cpp:425] inception_4b/5x5_reduce <- inception_4a/output_inception_4a/output_0_split_3
I0403 15:11:11.069654 31261 net.cpp:399] inception_4b/5x5_reduce -> inception_4b/5x5_reduce
I0403 15:11:11.070897 31261 net.cpp:141] Setting up inception_4b/5x5_reduce
I0403 15:11:11.070926 31261 net.cpp:148] Top shape: 24 24 14 14 (112896)
I0403 15:11:11.070945 31261 net.cpp:156] Memory required for data: 965320992
I0403 15:11:11.070965 31261 layer_factory.hpp:77] Creating layer inception_4b/relu_5x5_reduce
I0403 15:11:11.070986 31261 net.cpp:91] Creating Layer inception_4b/relu_5x5_reduce
I0403 15:11:11.071017 31261 net.cpp:425] inception_4b/relu_5x5_reduce <- inception_4b/5x5_reduce
I0403 15:11:11.071036 31261 net.cpp:386] inception_4b/relu_5x5_reduce -> inception_4b/5x5_reduce (in-place)
I0403 15:11:11.071228 31261 net.cpp:141] Setting up inception_4b/relu_5x5_reduce
I0403 15:11:11.071256 31261 net.cpp:148] Top shape: 24 24 14 14 (112896)
I0403 15:11:11.071274 31261 net.cpp:156] Memory required for data: 965772576
I0403 15:11:11.071290 31261 layer_factory.hpp:77] Creating layer inception_4b/5x5
I0403 15:11:11.071313 31261 net.cpp:91] Creating Layer inception_4b/5x5
I0403 15:11:11.071332 31261 net.cpp:425] inception_4b/5x5 <- inception_4b/5x5_reduce
I0403 15:11:11.071352 31261 net.cpp:399] inception_4b/5x5 -> inception_4b/5x5
I0403 15:11:11.072824 31261 net.cpp:141] Setting up inception_4b/5x5
I0403 15:11:11.072854 31261 net.cpp:148] Top shape: 24 64 14 14 (301056)
I0403 15:11:11.072870 31261 net.cpp:156] Memory required for data: 966976800
I0403 15:11:11.072890 31261 layer_factory.hpp:77] Creating layer inception_4b/relu_5x5
I0403 15:11:11.072911 31261 net.cpp:91] Creating Layer inception_4b/relu_5x5
I0403 15:11:11.072929 31261 net.cpp:425] inception_4b/relu_5x5 <- inception_4b/5x5
I0403 15:11:11.072947 31261 net.cpp:386] inception_4b/relu_5x5 -> inception_4b/5x5 (in-place)
I0403 15:11:11.073243 31261 net.cpp:141] Setting up inception_4b/relu_5x5
I0403 15:11:11.073271 31261 net.cpp:148] Top shape: 24 64 14 14 (301056)
I0403 15:11:11.073287 31261 net.cpp:156] Memory required for data: 968181024
I0403 15:11:11.073303 31261 layer_factory.hpp:77] Creating layer inception_4b/pool
I0403 15:11:11.073324 31261 net.cpp:91] Creating Layer inception_4b/pool
I0403 15:11:11.073343 31261 net.cpp:425] inception_4b/pool <- inception_4a/output_inception_4a/output_0_split_4
I0403 15:11:11.073361 31261 net.cpp:399] inception_4b/pool -> inception_4b/pool
I0403 15:11:11.073428 31261 net.cpp:141] Setting up inception_4b/pool
I0403 15:11:11.073453 31261 net.cpp:148] Top shape: 24 512 14 14 (2408448)
I0403 15:11:11.073469 31261 net.cpp:156] Memory required for data: 977814816
I0403 15:11:11.073485 31261 layer_factory.hpp:77] Creating layer inception_4b/pool_proj
I0403 15:11:11.073508 31261 net.cpp:91] Creating Layer inception_4b/pool_proj
I0403 15:11:11.073526 31261 net.cpp:425] inception_4b/pool_proj <- inception_4b/pool
I0403 15:11:11.073554 31261 net.cpp:399] inception_4b/pool_proj -> inception_4b/pool_proj
I0403 15:11:11.074930 31261 net.cpp:141] Setting up inception_4b/pool_proj
I0403 15:11:11.074960 31261 net.cpp:148] Top shape: 24 64 14 14 (301056)
I0403 15:11:11.074976 31261 net.cpp:156] Memory required for data: 979019040
I0403 15:11:11.074995 31261 layer_factory.hpp:77] Creating layer inception_4b/relu_pool_proj
I0403 15:11:11.075018 31261 net.cpp:91] Creating Layer inception_4b/relu_pool_proj
I0403 15:11:11.075037 31261 net.cpp:425] inception_4b/relu_pool_proj <- inception_4b/pool_proj
I0403 15:11:11.075055 31261 net.cpp:386] inception_4b/relu_pool_proj -> inception_4b/pool_proj (in-place)
I0403 15:11:11.075242 31261 net.cpp:141] Setting up inception_4b/relu_pool_proj
I0403 15:11:11.075270 31261 net.cpp:148] Top shape: 24 64 14 14 (301056)
I0403 15:11:11.075287 31261 net.cpp:156] Memory required for data: 980223264
I0403 15:11:11.075302 31261 layer_factory.hpp:77] Creating layer inception_4b/output
I0403 15:11:11.075321 31261 net.cpp:91] Creating Layer inception_4b/output
I0403 15:11:11.075337 31261 net.cpp:425] inception_4b/output <- inception_4b/1x1
I0403 15:11:11.075355 31261 net.cpp:425] inception_4b/output <- inception_4b/3x3
I0403 15:11:11.075372 31261 net.cpp:425] inception_4b/output <- inception_4b/5x5
I0403 15:11:11.075389 31261 net.cpp:425] inception_4b/output <- inception_4b/pool_proj
I0403 15:11:11.075407 31261 net.cpp:399] inception_4b/output -> inception_4b/output
I0403 15:11:11.075458 31261 net.cpp:141] Setting up inception_4b/output
I0403 15:11:11.075481 31261 net.cpp:148] Top shape: 24 512 14 14 (2408448)
I0403 15:11:11.075496 31261 net.cpp:156] Memory required for data: 989857056
I0403 15:11:11.075527 31261 layer_factory.hpp:77] Creating layer inception_4b/output_inception_4b/output_0_split
I0403 15:11:11.075551 31261 net.cpp:91] Creating Layer inception_4b/output_inception_4b/output_0_split
I0403 15:11:11.075568 31261 net.cpp:425] inception_4b/output_inception_4b/output_0_split <- inception_4b/output
I0403 15:11:11.075589 31261 net.cpp:399] inception_4b/output_inception_4b/output_0_split -> inception_4b/output_inception_4b/output_0_split_0
I0403 15:11:11.075611 31261 net.cpp:399] inception_4b/output_inception_4b/output_0_split -> inception_4b/output_inception_4b/output_0_split_1
I0403 15:11:11.075634 31261 net.cpp:399] inception_4b/output_inception_4b/output_0_split -> inception_4b/output_inception_4b/output_0_split_2
I0403 15:11:11.075657 31261 net.cpp:399] inception_4b/output_inception_4b/output_0_split -> inception_4b/output_inception_4b/output_0_split_3
I0403 15:11:11.075747 31261 net.cpp:141] Setting up inception_4b/output_inception_4b/output_0_split
I0403 15:11:11.075772 31261 net.cpp:148] Top shape: 24 512 14 14 (2408448)
I0403 15:11:11.075788 31261 net.cpp:148] Top shape: 24 512 14 14 (2408448)
I0403 15:11:11.075805 31261 net.cpp:148] Top shape: 24 512 14 14 (2408448)
I0403 15:11:11.075821 31261 net.cpp:148] Top shape: 24 512 14 14 (2408448)
I0403 15:11:11.075836 31261 net.cpp:156] Memory required for data: 1028392224
I0403 15:11:11.075851 31261 layer_factory.hpp:77] Creating layer inception_4c/1x1
I0403 15:11:11.075875 31261 net.cpp:91] Creating Layer inception_4c/1x1
I0403 15:11:11.075893 31261 net.cpp:425] inception_4c/1x1 <- inception_4b/output_inception_4b/output_0_split_0
I0403 15:11:11.075916 31261 net.cpp:399] inception_4c/1x1 -> inception_4c/1x1
I0403 15:11:11.077486 31261 net.cpp:141] Setting up inception_4c/1x1
I0403 15:11:11.077518 31261 net.cpp:148] Top shape: 24 128 14 14 (602112)
I0403 15:11:11.077539 31261 net.cpp:156] Memory required for data: 1030800672
I0403 15:11:11.077560 31261 layer_factory.hpp:77] Creating layer inception_4c/relu_1x1
I0403 15:11:11.077581 31261 net.cpp:91] Creating Layer inception_4c/relu_1x1
I0403 15:11:11.077599 31261 net.cpp:425] inception_4c/relu_1x1 <- inception_4c/1x1
I0403 15:11:11.077631 31261 net.cpp:386] inception_4c/relu_1x1 -> inception_4c/1x1 (in-place)
I0403 15:11:11.077826 31261 net.cpp:141] Setting up inception_4c/relu_1x1
I0403 15:11:11.077852 31261 net.cpp:148] Top shape: 24 128 14 14 (602112)
I0403 15:11:11.077867 31261 net.cpp:156] Memory required for data: 1033209120
I0403 15:11:11.077884 31261 layer_factory.hpp:77] Creating layer inception_4c/3x3_reduce
I0403 15:11:11.077920 31261 net.cpp:91] Creating Layer inception_4c/3x3_reduce
I0403 15:11:11.077939 31261 net.cpp:425] inception_4c/3x3_reduce <- inception_4b/output_inception_4b/output_0_split_1
I0403 15:11:11.077963 31261 net.cpp:399] inception_4c/3x3_reduce -> inception_4c/3x3_reduce
I0403 15:11:11.080096 31261 net.cpp:141] Setting up inception_4c/3x3_reduce
I0403 15:11:11.080127 31261 net.cpp:148] Top shape: 24 128 14 14 (602112)
I0403 15:11:11.080142 31261 net.cpp:156] Memory required for data: 1035617568
I0403 15:11:11.080163 31261 layer_factory.hpp:77] Creating layer inception_4c/relu_3x3_reduce
I0403 15:11:11.080183 31261 net.cpp:91] Creating Layer inception_4c/relu_3x3_reduce
I0403 15:11:11.080199 31261 net.cpp:425] inception_4c/relu_3x3_reduce <- inception_4c/3x3_reduce
I0403 15:11:11.080219 31261 net.cpp:386] inception_4c/relu_3x3_reduce -> inception_4c/3x3_reduce (in-place)
I0403 15:11:11.080605 31261 net.cpp:141] Setting up inception_4c/relu_3x3_reduce
I0403 15:11:11.080632 31261 net.cpp:148] Top shape: 24 128 14 14 (602112)
I0403 15:11:11.080648 31261 net.cpp:156] Memory required for data: 1038026016
I0403 15:11:11.080664 31261 layer_factory.hpp:77] Creating layer inception_4c/3x3
I0403 15:11:11.080689 31261 net.cpp:91] Creating Layer inception_4c/3x3
I0403 15:11:11.080708 31261 net.cpp:425] inception_4c/3x3 <- inception_4c/3x3_reduce
I0403 15:11:11.080730 31261 net.cpp:399] inception_4c/3x3 -> inception_4c/3x3
I0403 15:11:11.084468 31261 net.cpp:141] Setting up inception_4c/3x3
I0403 15:11:11.084511 31261 net.cpp:148] Top shape: 24 256 14 14 (1204224)
I0403 15:11:11.084527 31261 net.cpp:156] Memory required for data: 1042842912
I0403 15:11:11.084563 31261 layer_factory.hpp:77] Creating layer inception_4c/relu_3x3
I0403 15:11:11.084589 31261 net.cpp:91] Creating Layer inception_4c/relu_3x3
I0403 15:11:11.084606 31261 net.cpp:425] inception_4c/relu_3x3 <- inception_4c/3x3
I0403 15:11:11.084625 31261 net.cpp:386] inception_4c/relu_3x3 -> inception_4c/3x3 (in-place)
I0403 15:11:11.084806 31261 net.cpp:141] Setting up inception_4c/relu_3x3
I0403 15:11:11.084831 31261 net.cpp:148] Top shape: 24 256 14 14 (1204224)
I0403 15:11:11.084846 31261 net.cpp:156] Memory required for data: 1047659808
I0403 15:11:11.084862 31261 layer_factory.hpp:77] Creating layer inception_4c/5x5_reduce
I0403 15:11:11.084884 31261 net.cpp:91] Creating Layer inception_4c/5x5_reduce
I0403 15:11:11.084903 31261 net.cpp:425] inception_4c/5x5_reduce <- inception_4b/output_inception_4b/output_0_split_2
I0403 15:11:11.084926 31261 net.cpp:399] inception_4c/5x5_reduce -> inception_4c/5x5_reduce
I0403 15:11:11.086015 31261 net.cpp:141] Setting up inception_4c/5x5_reduce
I0403 15:11:11.086043 31261 net.cpp:148] Top shape: 24 24 14 14 (112896)
I0403 15:11:11.086058 31261 net.cpp:156] Memory required for data: 1048111392
I0403 15:11:11.086077 31261 layer_factory.hpp:77] Creating layer inception_4c/relu_5x5_reduce
I0403 15:11:11.086098 31261 net.cpp:91] Creating Layer inception_4c/relu_5x5_reduce
I0403 15:11:11.086117 31261 net.cpp:425] inception_4c/relu_5x5_reduce <- inception_4c/5x5_reduce
I0403 15:11:11.086133 31261 net.cpp:386] inception_4c/relu_5x5_reduce -> inception_4c/5x5_reduce (in-place)
I0403 15:11:11.086329 31261 net.cpp:141] Setting up inception_4c/relu_5x5_reduce
I0403 15:11:11.086357 31261 net.cpp:148] Top shape: 24 24 14 14 (112896)
I0403 15:11:11.086374 31261 net.cpp:156] Memory required for data: 1048562976
I0403 15:11:11.086390 31261 layer_factory.hpp:77] Creating layer inception_4c/5x5
I0403 15:11:11.086412 31261 net.cpp:91] Creating Layer inception_4c/5x5
I0403 15:11:11.086431 31261 net.cpp:425] inception_4c/5x5 <- inception_4c/5x5_reduce
I0403 15:11:11.086452 31261 net.cpp:399] inception_4c/5x5 -> inception_4c/5x5
I0403 15:11:11.087720 31261 net.cpp:141] Setting up inception_4c/5x5
I0403 15:11:11.087749 31261 net.cpp:148] Top shape: 24 64 14 14 (301056)
I0403 15:11:11.087769 31261 net.cpp:156] Memory required for data: 1049767200
I0403 15:11:11.087792 31261 layer_factory.hpp:77] Creating layer inception_4c/relu_5x5
I0403 15:11:11.087816 31261 net.cpp:91] Creating Layer inception_4c/relu_5x5
I0403 15:11:11.087836 31261 net.cpp:425] inception_4c/relu_5x5 <- inception_4c/5x5
I0403 15:11:11.087854 31261 net.cpp:386] inception_4c/relu_5x5 -> inception_4c/5x5 (in-place)
I0403 15:11:11.088166 31261 net.cpp:141] Setting up inception_4c/relu_5x5
I0403 15:11:11.088207 31261 net.cpp:148] Top shape: 24 64 14 14 (301056)
I0403 15:11:11.088223 31261 net.cpp:156] Memory required for data: 1050971424
I0403 15:11:11.088239 31261 layer_factory.hpp:77] Creating layer inception_4c/pool
I0403 15:11:11.088258 31261 net.cpp:91] Creating Layer inception_4c/pool
I0403 15:11:11.088274 31261 net.cpp:425] inception_4c/pool <- inception_4b/output_inception_4b/output_0_split_3
I0403 15:11:11.088305 31261 net.cpp:399] inception_4c/pool -> inception_4c/pool
I0403 15:11:11.088369 31261 net.cpp:141] Setting up inception_4c/pool
I0403 15:11:11.088392 31261 net.cpp:148] Top shape: 24 512 14 14 (2408448)
I0403 15:11:11.088407 31261 net.cpp:156] Memory required for data: 1060605216
I0403 15:11:11.088423 31261 layer_factory.hpp:77] Creating layer inception_4c/pool_proj
I0403 15:11:11.088449 31261 net.cpp:91] Creating Layer inception_4c/pool_proj
I0403 15:11:11.088472 31261 net.cpp:425] inception_4c/pool_proj <- inception_4c/pool
I0403 15:11:11.088493 31261 net.cpp:399] inception_4c/pool_proj -> inception_4c/pool_proj
I0403 15:11:11.089758 31261 net.cpp:141] Setting up inception_4c/pool_proj
I0403 15:11:11.089787 31261 net.cpp:148] Top shape: 24 64 14 14 (301056)
I0403 15:11:11.089817 31261 net.cpp:156] Memory required for data: 1061809440
I0403 15:11:11.089835 31261 layer_factory.hpp:77] Creating layer inception_4c/relu_pool_proj
I0403 15:11:11.089857 31261 net.cpp:91] Creating Layer inception_4c/relu_pool_proj
I0403 15:11:11.089875 31261 net.cpp:425] inception_4c/relu_pool_proj <- inception_4c/pool_proj
I0403 15:11:11.089893 31261 net.cpp:386] inception_4c/relu_pool_proj -> inception_4c/pool_proj (in-place)
I0403 15:11:11.090075 31261 net.cpp:141] Setting up inception_4c/relu_pool_proj
I0403 15:11:11.090101 31261 net.cpp:148] Top shape: 24 64 14 14 (301056)
I0403 15:11:11.090116 31261 net.cpp:156] Memory required for data: 1063013664
I0403 15:11:11.090131 31261 layer_factory.hpp:77] Creating layer inception_4c/output
I0403 15:11:11.090157 31261 net.cpp:91] Creating Layer inception_4c/output
I0403 15:11:11.090174 31261 net.cpp:425] inception_4c/output <- inception_4c/1x1
I0403 15:11:11.090191 31261 net.cpp:425] inception_4c/output <- inception_4c/3x3
I0403 15:11:11.090209 31261 net.cpp:425] inception_4c/output <- inception_4c/5x5
I0403 15:11:11.090224 31261 net.cpp:425] inception_4c/output <- inception_4c/pool_proj
I0403 15:11:11.090242 31261 net.cpp:399] inception_4c/output -> inception_4c/output
I0403 15:11:11.090289 31261 net.cpp:141] Setting up inception_4c/output
I0403 15:11:11.090313 31261 net.cpp:148] Top shape: 24 512 14 14 (2408448)
I0403 15:11:11.090328 31261 net.cpp:156] Memory required for data: 1072647456
I0403 15:11:11.090342 31261 layer_factory.hpp:77] Creating layer inception_4c/output_inception_4c/output_0_split
I0403 15:11:11.090360 31261 net.cpp:91] Creating Layer inception_4c/output_inception_4c/output_0_split
I0403 15:11:11.090376 31261 net.cpp:425] inception_4c/output_inception_4c/output_0_split <- inception_4c/output
I0403 15:11:11.090400 31261 net.cpp:399] inception_4c/output_inception_4c/output_0_split -> inception_4c/output_inception_4c/output_0_split_0
I0403 15:11:11.090421 31261 net.cpp:399] inception_4c/output_inception_4c/output_0_split -> inception_4c/output_inception_4c/output_0_split_1
I0403 15:11:11.090442 31261 net.cpp:399] inception_4c/output_inception_4c/output_0_split -> inception_4c/output_inception_4c/output_0_split_2
I0403 15:11:11.090464 31261 net.cpp:399] inception_4c/output_inception_4c/output_0_split -> inception_4c/output_inception_4c/output_0_split_3
I0403 15:11:11.090584 31261 net.cpp:141] Setting up inception_4c/output_inception_4c/output_0_split
I0403 15:11:11.090610 31261 net.cpp:148] Top shape: 24 512 14 14 (2408448)
I0403 15:11:11.090629 31261 net.cpp:148] Top shape: 24 512 14 14 (2408448)
I0403 15:11:11.090647 31261 net.cpp:148] Top shape: 24 512 14 14 (2408448)
I0403 15:11:11.090667 31261 net.cpp:148] Top shape: 24 512 14 14 (2408448)
I0403 15:11:11.090683 31261 net.cpp:156] Memory required for data: 1111182624
I0403 15:11:11.090701 31261 layer_factory.hpp:77] Creating layer inception_4d/1x1
I0403 15:11:11.090725 31261 net.cpp:91] Creating Layer inception_4d/1x1
I0403 15:11:11.090744 31261 net.cpp:425] inception_4d/1x1 <- inception_4c/output_inception_4c/output_0_split_0
I0403 15:11:11.090766 31261 net.cpp:399] inception_4d/1x1 -> inception_4d/1x1
I0403 15:11:11.092157 31261 net.cpp:141] Setting up inception_4d/1x1
I0403 15:11:11.092187 31261 net.cpp:148] Top shape: 24 112 14 14 (526848)
I0403 15:11:11.092205 31261 net.cpp:156] Memory required for data: 1113290016
I0403 15:11:11.092223 31261 layer_factory.hpp:77] Creating layer inception_4d/relu_1x1
I0403 15:11:11.092242 31261 net.cpp:91] Creating Layer inception_4d/relu_1x1
I0403 15:11:11.092258 31261 net.cpp:425] inception_4d/relu_1x1 <- inception_4d/1x1
I0403 15:11:11.092278 31261 net.cpp:386] inception_4d/relu_1x1 -> inception_4d/1x1 (in-place)
I0403 15:11:11.092463 31261 net.cpp:141] Setting up inception_4d/relu_1x1
I0403 15:11:11.092492 31261 net.cpp:148] Top shape: 24 112 14 14 (526848)
I0403 15:11:11.092514 31261 net.cpp:156] Memory required for data: 1115397408
I0403 15:11:11.092530 31261 layer_factory.hpp:77] Creating layer inception_4d/3x3_reduce
I0403 15:11:11.092586 31261 net.cpp:91] Creating Layer inception_4d/3x3_reduce
I0403 15:11:11.092617 31261 net.cpp:425] inception_4d/3x3_reduce <- inception_4c/output_inception_4c/output_0_split_1
I0403 15:11:11.092640 31261 net.cpp:399] inception_4d/3x3_reduce -> inception_4d/3x3_reduce
I0403 15:11:11.094223 31261 net.cpp:141] Setting up inception_4d/3x3_reduce
I0403 15:11:11.094255 31261 net.cpp:148] Top shape: 24 144 14 14 (677376)
I0403 15:11:11.094272 31261 net.cpp:156] Memory required for data: 1118106912
I0403 15:11:11.094291 31261 layer_factory.hpp:77] Creating layer inception_4d/relu_3x3_reduce
I0403 15:11:11.094316 31261 net.cpp:91] Creating Layer inception_4d/relu_3x3_reduce
I0403 15:11:11.094336 31261 net.cpp:425] inception_4d/relu_3x3_reduce <- inception_4d/3x3_reduce
I0403 15:11:11.094355 31261 net.cpp:386] inception_4d/relu_3x3_reduce -> inception_4d/3x3_reduce (in-place)
I0403 15:11:11.094681 31261 net.cpp:141] Setting up inception_4d/relu_3x3_reduce
I0403 15:11:11.094712 31261 net.cpp:148] Top shape: 24 144 14 14 (677376)
I0403 15:11:11.094732 31261 net.cpp:156] Memory required for data: 1120816416
I0403 15:11:11.094749 31261 layer_factory.hpp:77] Creating layer inception_4d/3x3
I0403 15:11:11.094776 31261 net.cpp:91] Creating Layer inception_4d/3x3
I0403 15:11:11.094795 31261 net.cpp:425] inception_4d/3x3 <- inception_4d/3x3_reduce
I0403 15:11:11.094816 31261 net.cpp:399] inception_4d/3x3 -> inception_4d/3x3
I0403 15:11:11.099340 31261 net.cpp:141] Setting up inception_4d/3x3
I0403 15:11:11.099375 31261 net.cpp:148] Top shape: 24 288 14 14 (1354752)
I0403 15:11:11.099392 31261 net.cpp:156] Memory required for data: 1126235424
I0403 15:11:11.099412 31261 layer_factory.hpp:77] Creating layer inception_4d/relu_3x3
I0403 15:11:11.099432 31261 net.cpp:91] Creating Layer inception_4d/relu_3x3
I0403 15:11:11.099450 31261 net.cpp:425] inception_4d/relu_3x3 <- inception_4d/3x3
I0403 15:11:11.099472 31261 net.cpp:386] inception_4d/relu_3x3 -> inception_4d/3x3 (in-place)
I0403 15:11:11.099684 31261 net.cpp:141] Setting up inception_4d/relu_3x3
I0403 15:11:11.099710 31261 net.cpp:148] Top shape: 24 288 14 14 (1354752)
I0403 15:11:11.099725 31261 net.cpp:156] Memory required for data: 1131654432
I0403 15:11:11.099741 31261 layer_factory.hpp:77] Creating layer inception_4d/5x5_reduce
I0403 15:11:11.099766 31261 net.cpp:91] Creating Layer inception_4d/5x5_reduce
I0403 15:11:11.099783 31261 net.cpp:425] inception_4d/5x5_reduce <- inception_4c/output_inception_4c/output_0_split_2
I0403 15:11:11.099807 31261 net.cpp:399] inception_4d/5x5_reduce -> inception_4d/5x5_reduce
I0403 15:11:11.101006 31261 net.cpp:141] Setting up inception_4d/5x5_reduce
I0403 15:11:11.101034 31261 net.cpp:148] Top shape: 24 32 14 14 (150528)
I0403 15:11:11.101052 31261 net.cpp:156] Memory required for data: 1132256544
I0403 15:11:11.101070 31261 layer_factory.hpp:77] Creating layer inception_4d/relu_5x5_reduce
I0403 15:11:11.101090 31261 net.cpp:91] Creating Layer inception_4d/relu_5x5_reduce
I0403 15:11:11.101110 31261 net.cpp:425] inception_4d/relu_5x5_reduce <- inception_4d/5x5_reduce
I0403 15:11:11.101128 31261 net.cpp:386] inception_4d/relu_5x5_reduce -> inception_4d/5x5_reduce (in-place)
I0403 15:11:11.101318 31261 net.cpp:141] Setting up inception_4d/relu_5x5_reduce
I0403 15:11:11.101344 31261 net.cpp:148] Top shape: 24 32 14 14 (150528)
I0403 15:11:11.101359 31261 net.cpp:156] Memory required for data: 1132858656
I0403 15:11:11.101375 31261 layer_factory.hpp:77] Creating layer inception_4d/5x5
I0403 15:11:11.101398 31261 net.cpp:91] Creating Layer inception_4d/5x5
I0403 15:11:11.101416 31261 net.cpp:425] inception_4d/5x5 <- inception_4d/5x5_reduce
I0403 15:11:11.101438 31261 net.cpp:399] inception_4d/5x5 -> inception_4d/5x5
I0403 15:11:11.103013 31261 net.cpp:141] Setting up inception_4d/5x5
I0403 15:11:11.103044 31261 net.cpp:148] Top shape: 24 64 14 14 (301056)
I0403 15:11:11.103065 31261 net.cpp:156] Memory required for data: 1134062880
I0403 15:11:11.103085 31261 layer_factory.hpp:77] Creating layer inception_4d/relu_5x5
I0403 15:11:11.103123 31261 net.cpp:91] Creating Layer inception_4d/relu_5x5
I0403 15:11:11.103143 31261 net.cpp:425] inception_4d/relu_5x5 <- inception_4d/5x5
I0403 15:11:11.103163 31261 net.cpp:386] inception_4d/relu_5x5 -> inception_4d/5x5 (in-place)
I0403 15:11:11.103499 31261 net.cpp:141] Setting up inception_4d/relu_5x5
I0403 15:11:11.103556 31261 net.cpp:148] Top shape: 24 64 14 14 (301056)
I0403 15:11:11.103595 31261 net.cpp:156] Memory required for data: 1135267104
I0403 15:11:11.103611 31261 layer_factory.hpp:77] Creating layer inception_4d/pool
I0403 15:11:11.103633 31261 net.cpp:91] Creating Layer inception_4d/pool
I0403 15:11:11.103657 31261 net.cpp:425] inception_4d/pool <- inception_4c/output_inception_4c/output_0_split_3
I0403 15:11:11.103677 31261 net.cpp:399] inception_4d/pool -> inception_4d/pool
I0403 15:11:11.103762 31261 net.cpp:141] Setting up inception_4d/pool
I0403 15:11:11.103847 31261 net.cpp:148] Top shape: 24 512 14 14 (2408448)
I0403 15:11:11.103866 31261 net.cpp:156] Memory required for data: 1144900896
I0403 15:11:11.103886 31261 layer_factory.hpp:77] Creating layer inception_4d/pool_proj
I0403 15:11:11.103920 31261 net.cpp:91] Creating Layer inception_4d/pool_proj
I0403 15:11:11.103945 31261 net.cpp:425] inception_4d/pool_proj <- inception_4d/pool
I0403 15:11:11.103983 31261 net.cpp:399] inception_4d/pool_proj -> inception_4d/pool_proj
I0403 15:11:11.105881 31261 net.cpp:141] Setting up inception_4d/pool_proj
I0403 15:11:11.105923 31261 net.cpp:148] Top shape: 24 64 14 14 (301056)
I0403 15:11:11.105942 31261 net.cpp:156] Memory required for data: 1146105120
I0403 15:11:11.105962 31261 layer_factory.hpp:77] Creating layer inception_4d/relu_pool_proj
I0403 15:11:11.105981 31261 net.cpp:91] Creating Layer inception_4d/relu_pool_proj
I0403 15:11:11.105998 31261 net.cpp:425] inception_4d/relu_pool_proj <- inception_4d/pool_proj
I0403 15:11:11.106019 31261 net.cpp:386] inception_4d/relu_pool_proj -> inception_4d/pool_proj (in-place)
I0403 15:11:11.106218 31261 net.cpp:141] Setting up inception_4d/relu_pool_proj
I0403 15:11:11.106245 31261 net.cpp:148] Top shape: 24 64 14 14 (301056)
I0403 15:11:11.106261 31261 net.cpp:156] Memory required for data: 1147309344
I0403 15:11:11.106277 31261 layer_factory.hpp:77] Creating layer inception_4d/output
I0403 15:11:11.106298 31261 net.cpp:91] Creating Layer inception_4d/output
I0403 15:11:11.106324 31261 net.cpp:425] inception_4d/output <- inception_4d/1x1
I0403 15:11:11.106345 31261 net.cpp:425] inception_4d/output <- inception_4d/3x3
I0403 15:11:11.106379 31261 net.cpp:425] inception_4d/output <- inception_4d/5x5
I0403 15:11:11.106401 31261 net.cpp:425] inception_4d/output <- inception_4d/pool_proj
I0403 15:11:11.106438 31261 net.cpp:399] inception_4d/output -> inception_4d/output
I0403 15:11:11.106503 31261 net.cpp:141] Setting up inception_4d/output
I0403 15:11:11.106542 31261 net.cpp:148] Top shape: 24 528 14 14 (2483712)
I0403 15:11:11.106567 31261 net.cpp:156] Memory required for data: 1157244192
I0403 15:11:11.106590 31261 layer_factory.hpp:77] Creating layer inception_4d/output_inception_4d/output_0_split
I0403 15:11:11.106608 31261 net.cpp:91] Creating Layer inception_4d/output_inception_4d/output_0_split
I0403 15:11:11.106626 31261 net.cpp:425] inception_4d/output_inception_4d/output_0_split <- inception_4d/output
I0403 15:11:11.106652 31261 net.cpp:399] inception_4d/output_inception_4d/output_0_split -> inception_4d/output_inception_4d/output_0_split_0
I0403 15:11:11.106675 31261 net.cpp:399] inception_4d/output_inception_4d/output_0_split -> inception_4d/output_inception_4d/output_0_split_1
I0403 15:11:11.106701 31261 net.cpp:399] inception_4d/output_inception_4d/output_0_split -> inception_4d/output_inception_4d/output_0_split_2
I0403 15:11:11.106724 31261 net.cpp:399] inception_4d/output_inception_4d/output_0_split -> inception_4d/output_inception_4d/output_0_split_3
I0403 15:11:11.106746 31261 net.cpp:399] inception_4d/output_inception_4d/output_0_split -> inception_4d/output_inception_4d/output_0_split_4
I0403 15:11:11.106863 31261 net.cpp:141] Setting up inception_4d/output_inception_4d/output_0_split
I0403 15:11:11.106901 31261 net.cpp:148] Top shape: 24 528 14 14 (2483712)
I0403 15:11:11.106922 31261 net.cpp:148] Top shape: 24 528 14 14 (2483712)
I0403 15:11:11.106941 31261 net.cpp:148] Top shape: 24 528 14 14 (2483712)
I0403 15:11:11.106958 31261 net.cpp:148] Top shape: 24 528 14 14 (2483712)
I0403 15:11:11.106976 31261 net.cpp:148] Top shape: 24 528 14 14 (2483712)
I0403 15:11:11.106991 31261 net.cpp:156] Memory required for data: 1206918432
I0403 15:11:11.107007 31261 layer_factory.hpp:77] Creating layer loss2/ave_pool
I0403 15:11:11.107025 31261 net.cpp:91] Creating Layer loss2/ave_pool
I0403 15:11:11.107044 31261 net.cpp:425] loss2/ave_pool <- inception_4d/output_inception_4d/output_0_split_0
I0403 15:11:11.107067 31261 net.cpp:399] loss2/ave_pool -> loss2/ave_pool
I0403 15:11:11.107400 31261 net.cpp:141] Setting up loss2/ave_pool
I0403 15:11:11.107429 31261 net.cpp:148] Top shape: 24 528 4 4 (202752)
I0403 15:11:11.107445 31261 net.cpp:156] Memory required for data: 1207729440
I0403 15:11:11.107461 31261 layer_factory.hpp:77] Creating layer loss2/conv
I0403 15:11:11.107486 31261 net.cpp:91] Creating Layer loss2/conv
I0403 15:11:11.107504 31261 net.cpp:425] loss2/conv <- loss2/ave_pool
I0403 15:11:11.107527 31261 net.cpp:399] loss2/conv -> loss2/conv
I0403 15:11:11.109544 31261 net.cpp:141] Setting up loss2/conv
I0403 15:11:11.109576 31261 net.cpp:148] Top shape: 24 128 4 4 (49152)
I0403 15:11:11.109593 31261 net.cpp:156] Memory required for data: 1207926048
I0403 15:11:11.109613 31261 layer_factory.hpp:77] Creating layer loss2/relu_conv
I0403 15:11:11.109637 31261 net.cpp:91] Creating Layer loss2/relu_conv
I0403 15:11:11.109654 31261 net.cpp:425] loss2/relu_conv <- loss2/conv
I0403 15:11:11.109673 31261 net.cpp:386] loss2/relu_conv -> loss2/conv (in-place)
I0403 15:11:11.109979 31261 net.cpp:141] Setting up loss2/relu_conv
I0403 15:11:11.110008 31261 net.cpp:148] Top shape: 24 128 4 4 (49152)
I0403 15:11:11.110025 31261 net.cpp:156] Memory required for data: 1208122656
I0403 15:11:11.110041 31261 layer_factory.hpp:77] Creating layer loss2/fc
I0403 15:11:11.110065 31261 net.cpp:91] Creating Layer loss2/fc
I0403 15:11:11.110085 31261 net.cpp:425] loss2/fc <- loss2/conv
I0403 15:11:11.110107 31261 net.cpp:399] loss2/fc -> loss2/fc
I0403 15:11:11.128880 31261 net.cpp:141] Setting up loss2/fc
I0403 15:11:11.128917 31261 net.cpp:148] Top shape: 24 1024 (24576)
I0403 15:11:11.128934 31261 net.cpp:156] Memory required for data: 1208220960
I0403 15:11:11.128955 31261 layer_factory.hpp:77] Creating layer loss2/relu_fc
I0403 15:11:11.128974 31261 net.cpp:91] Creating Layer loss2/relu_fc
I0403 15:11:11.128996 31261 net.cpp:425] loss2/relu_fc <- loss2/fc
I0403 15:11:11.129015 31261 net.cpp:386] loss2/relu_fc -> loss2/fc (in-place)
I0403 15:11:11.129335 31261 net.cpp:141] Setting up loss2/relu_fc
I0403 15:11:11.129364 31261 net.cpp:148] Top shape: 24 1024 (24576)
I0403 15:11:11.129380 31261 net.cpp:156] Memory required for data: 1208319264
I0403 15:11:11.129396 31261 layer_factory.hpp:77] Creating layer loss2/drop_fc
I0403 15:11:11.129417 31261 net.cpp:91] Creating Layer loss2/drop_fc
I0403 15:11:11.129434 31261 net.cpp:425] loss2/drop_fc <- loss2/fc
I0403 15:11:11.129456 31261 net.cpp:386] loss2/drop_fc -> loss2/fc (in-place)
I0403 15:11:11.129509 31261 net.cpp:141] Setting up loss2/drop_fc
I0403 15:11:11.129542 31261 net.cpp:148] Top shape: 24 1024 (24576)
I0403 15:11:11.129561 31261 net.cpp:156] Memory required for data: 1208417568
I0403 15:11:11.129578 31261 layer_factory.hpp:77] Creating layer loss2/classifier_plantvillage
I0403 15:11:11.129598 31261 net.cpp:91] Creating Layer loss2/classifier_plantvillage
I0403 15:11:11.129616 31261 net.cpp:425] loss2/classifier_plantvillage <- loss2/fc
I0403 15:11:11.129637 31261 net.cpp:399] loss2/classifier_plantvillage -> loss2/classifier_plantvillage
I0403 15:11:11.130071 31261 net.cpp:141] Setting up loss2/classifier_plantvillage
I0403 15:11:11.130100 31261 net.cpp:148] Top shape: 24 38 (912)
I0403 15:11:11.130132 31261 net.cpp:156] Memory required for data: 1208421216
I0403 15:11:11.130153 31261 layer_factory.hpp:77] Creating layer loss2/classifier_plantvillage_loss2/classifier_plantvillage_0_split
I0403 15:11:11.130174 31261 net.cpp:91] Creating Layer loss2/classifier_plantvillage_loss2/classifier_plantvillage_0_split
I0403 15:11:11.130192 31261 net.cpp:425] loss2/classifier_plantvillage_loss2/classifier_plantvillage_0_split <- loss2/classifier_plantvillage
I0403 15:11:11.130210 31261 net.cpp:399] loss2/classifier_plantvillage_loss2/classifier_plantvillage_0_split -> loss2/classifier_plantvillage_loss2/classifier_plantvillage_0_split_0
I0403 15:11:11.130234 31261 net.cpp:399] loss2/classifier_plantvillage_loss2/classifier_plantvillage_0_split -> loss2/classifier_plantvillage_loss2/classifier_plantvillage_0_split_1
I0403 15:11:11.130259 31261 net.cpp:399] loss2/classifier_plantvillage_loss2/classifier_plantvillage_0_split -> loss2/classifier_plantvillage_loss2/classifier_plantvillage_0_split_2
I0403 15:11:11.130344 31261 net.cpp:141] Setting up loss2/classifier_plantvillage_loss2/classifier_plantvillage_0_split
I0403 15:11:11.130370 31261 net.cpp:148] Top shape: 24 38 (912)
I0403 15:11:11.130388 31261 net.cpp:148] Top shape: 24 38 (912)
I0403 15:11:11.130404 31261 net.cpp:148] Top shape: 24 38 (912)
I0403 15:11:11.130420 31261 net.cpp:156] Memory required for data: 1208432160
I0403 15:11:11.130436 31261 layer_factory.hpp:77] Creating layer inception_4e/1x1
I0403 15:11:11.130460 31261 net.cpp:91] Creating Layer inception_4e/1x1
I0403 15:11:11.130480 31261 net.cpp:425] inception_4e/1x1 <- inception_4d/output_inception_4d/output_0_split_1
I0403 15:11:11.130502 31261 net.cpp:399] inception_4e/1x1 -> inception_4e/1x1
I0403 15:11:11.132447 31261 net.cpp:141] Setting up inception_4e/1x1
I0403 15:11:11.132477 31261 net.cpp:148] Top shape: 24 256 14 14 (1204224)
I0403 15:11:11.132524 31261 net.cpp:156] Memory required for data: 1213249056
I0403 15:11:11.132570 31261 layer_factory.hpp:77] Creating layer inception_4e/relu_1x1
I0403 15:11:11.132618 31261 net.cpp:91] Creating Layer inception_4e/relu_1x1
I0403 15:11:11.132653 31261 net.cpp:425] inception_4e/relu_1x1 <- inception_4e/1x1
I0403 15:11:11.132702 31261 net.cpp:386] inception_4e/relu_1x1 -> inception_4e/1x1 (in-place)
I0403 15:11:11.133046 31261 net.cpp:141] Setting up inception_4e/relu_1x1
I0403 15:11:11.133074 31261 net.cpp:148] Top shape: 24 256 14 14 (1204224)
I0403 15:11:11.133091 31261 net.cpp:156] Memory required for data: 1218065952
I0403 15:11:11.133107 31261 layer_factory.hpp:77] Creating layer inception_4e/3x3_reduce
I0403 15:11:11.133134 31261 net.cpp:91] Creating Layer inception_4e/3x3_reduce
I0403 15:11:11.133152 31261 net.cpp:425] inception_4e/3x3_reduce <- inception_4d/output_inception_4d/output_0_split_2
I0403 15:11:11.133173 31261 net.cpp:399] inception_4e/3x3_reduce -> inception_4e/3x3_reduce
I0403 15:11:11.135490 31261 net.cpp:141] Setting up inception_4e/3x3_reduce
I0403 15:11:11.135521 31261 net.cpp:148] Top shape: 24 160 14 14 (752640)
I0403 15:11:11.135543 31261 net.cpp:156] Memory required for data: 1221076512
I0403 15:11:11.135565 31261 layer_factory.hpp:77] Creating layer inception_4e/relu_3x3_reduce
I0403 15:11:11.135588 31261 net.cpp:91] Creating Layer inception_4e/relu_3x3_reduce
I0403 15:11:11.135607 31261 net.cpp:425] inception_4e/relu_3x3_reduce <- inception_4e/3x3_reduce
I0403 15:11:11.135627 31261 net.cpp:386] inception_4e/relu_3x3_reduce -> inception_4e/3x3_reduce (in-place)
I0403 15:11:11.135825 31261 net.cpp:141] Setting up inception_4e/relu_3x3_reduce
I0403 15:11:11.135854 31261 net.cpp:148] Top shape: 24 160 14 14 (752640)
I0403 15:11:11.135871 31261 net.cpp:156] Memory required for data: 1224087072
I0403 15:11:11.135887 31261 layer_factory.hpp:77] Creating layer inception_4e/3x3
I0403 15:11:11.135915 31261 net.cpp:91] Creating Layer inception_4e/3x3
I0403 15:11:11.135933 31261 net.cpp:425] inception_4e/3x3 <- inception_4e/3x3_reduce
I0403 15:11:11.135953 31261 net.cpp:399] inception_4e/3x3 -> inception_4e/3x3
I0403 15:11:11.141389 31261 net.cpp:141] Setting up inception_4e/3x3
I0403 15:11:11.141438 31261 net.cpp:148] Top shape: 24 320 14 14 (1505280)
I0403 15:11:11.141458 31261 net.cpp:156] Memory required for data: 1230108192
I0403 15:11:11.141477 31261 layer_factory.hpp:77] Creating layer inception_4e/relu_3x3
I0403 15:11:11.141497 31261 net.cpp:91] Creating Layer inception_4e/relu_3x3
I0403 15:11:11.141515 31261 net.cpp:425] inception_4e/relu_3x3 <- inception_4e/3x3
I0403 15:11:11.141541 31261 net.cpp:386] inception_4e/relu_3x3 -> inception_4e/3x3 (in-place)
I0403 15:11:11.141865 31261 net.cpp:141] Setting up inception_4e/relu_3x3
I0403 15:11:11.141893 31261 net.cpp:148] Top shape: 24 320 14 14 (1505280)
I0403 15:11:11.141911 31261 net.cpp:156] Memory required for data: 1236129312
I0403 15:11:11.141927 31261 layer_factory.hpp:77] Creating layer inception_4e/5x5_reduce
I0403 15:11:11.141952 31261 net.cpp:91] Creating Layer inception_4e/5x5_reduce
I0403 15:11:11.141971 31261 net.cpp:425] inception_4e/5x5_reduce <- inception_4d/output_inception_4d/output_0_split_3
I0403 15:11:11.141995 31261 net.cpp:399] inception_4e/5x5_reduce -> inception_4e/5x5_reduce
I0403 15:11:11.143141 31261 net.cpp:141] Setting up inception_4e/5x5_reduce
I0403 15:11:11.143170 31261 net.cpp:148] Top shape: 24 32 14 14 (150528)
I0403 15:11:11.143188 31261 net.cpp:156] Memory required for data: 1236731424
I0403 15:11:11.143208 31261 layer_factory.hpp:77] Creating layer inception_4e/relu_5x5_reduce
I0403 15:11:11.143231 31261 net.cpp:91] Creating Layer inception_4e/relu_5x5_reduce
I0403 15:11:11.143250 31261 net.cpp:425] inception_4e/relu_5x5_reduce <- inception_4e/5x5_reduce
I0403 15:11:11.143270 31261 net.cpp:386] inception_4e/relu_5x5_reduce -> inception_4e/5x5_reduce (in-place)
I0403 15:11:11.143594 31261 net.cpp:141] Setting up inception_4e/relu_5x5_reduce
I0403 15:11:11.143626 31261 net.cpp:148] Top shape: 24 32 14 14 (150528)
I0403 15:11:11.143645 31261 net.cpp:156] Memory required for data: 1237333536
I0403 15:11:11.143661 31261 layer_factory.hpp:77] Creating layer inception_4e/5x5
I0403 15:11:11.143702 31261 net.cpp:91] Creating Layer inception_4e/5x5
I0403 15:11:11.143723 31261 net.cpp:425] inception_4e/5x5 <- inception_4e/5x5_reduce
I0403 15:11:11.143744 31261 net.cpp:399] inception_4e/5x5 -> inception_4e/5x5
I0403 15:11:11.145817 31261 net.cpp:141] Setting up inception_4e/5x5
I0403 15:11:11.145848 31261 net.cpp:148] Top shape: 24 128 14 14 (602112)
I0403 15:11:11.145864 31261 net.cpp:156] Memory required for data: 1239741984
I0403 15:11:11.145885 31261 layer_factory.hpp:77] Creating layer inception_4e/relu_5x5
I0403 15:11:11.145907 31261 net.cpp:91] Creating Layer inception_4e/relu_5x5
I0403 15:11:11.145925 31261 net.cpp:425] inception_4e/relu_5x5 <- inception_4e/5x5
I0403 15:11:11.145943 31261 net.cpp:386] inception_4e/relu_5x5 -> inception_4e/5x5 (in-place)
I0403 15:11:11.146152 31261 net.cpp:141] Setting up inception_4e/relu_5x5
I0403 15:11:11.146179 31261 net.cpp:148] Top shape: 24 128 14 14 (602112)
I0403 15:11:11.146200 31261 net.cpp:156] Memory required for data: 1242150432
I0403 15:11:11.146216 31261 layer_factory.hpp:77] Creating layer inception_4e/pool
I0403 15:11:11.146236 31261 net.cpp:91] Creating Layer inception_4e/pool
I0403 15:11:11.146253 31261 net.cpp:425] inception_4e/pool <- inception_4d/output_inception_4d/output_0_split_4
I0403 15:11:11.146272 31261 net.cpp:399] inception_4e/pool -> inception_4e/pool
I0403 15:11:11.146353 31261 net.cpp:141] Setting up inception_4e/pool
I0403 15:11:11.146378 31261 net.cpp:148] Top shape: 24 528 14 14 (2483712)
I0403 15:11:11.146395 31261 net.cpp:156] Memory required for data: 1252085280
I0403 15:11:11.146411 31261 layer_factory.hpp:77] Creating layer inception_4e/pool_proj
I0403 15:11:11.146435 31261 net.cpp:91] Creating Layer inception_4e/pool_proj
I0403 15:11:11.146455 31261 net.cpp:425] inception_4e/pool_proj <- inception_4e/pool
I0403 15:11:11.146476 31261 net.cpp:399] inception_4e/pool_proj -> inception_4e/pool_proj
I0403 15:11:11.148089 31261 net.cpp:141] Setting up inception_4e/pool_proj
I0403 15:11:11.148131 31261 net.cpp:148] Top shape: 24 128 14 14 (602112)
I0403 15:11:11.148149 31261 net.cpp:156] Memory required for data: 1254493728
I0403 15:11:11.148169 31261 layer_factory.hpp:77] Creating layer inception_4e/relu_pool_proj
I0403 15:11:11.148190 31261 net.cpp:91] Creating Layer inception_4e/relu_pool_proj
I0403 15:11:11.148207 31261 net.cpp:425] inception_4e/relu_pool_proj <- inception_4e/pool_proj
I0403 15:11:11.148228 31261 net.cpp:386] inception_4e/relu_pool_proj -> inception_4e/pool_proj (in-place)
I0403 15:11:11.148545 31261 net.cpp:141] Setting up inception_4e/relu_pool_proj
I0403 15:11:11.148573 31261 net.cpp:148] Top shape: 24 128 14 14 (602112)
I0403 15:11:11.148591 31261 net.cpp:156] Memory required for data: 1256902176
I0403 15:11:11.148607 31261 layer_factory.hpp:77] Creating layer inception_4e/output
I0403 15:11:11.148627 31261 net.cpp:91] Creating Layer inception_4e/output
I0403 15:11:11.148643 31261 net.cpp:425] inception_4e/output <- inception_4e/1x1
I0403 15:11:11.148661 31261 net.cpp:425] inception_4e/output <- inception_4e/3x3
I0403 15:11:11.148679 31261 net.cpp:425] inception_4e/output <- inception_4e/5x5
I0403 15:11:11.148697 31261 net.cpp:425] inception_4e/output <- inception_4e/pool_proj
I0403 15:11:11.148718 31261 net.cpp:399] inception_4e/output -> inception_4e/output
I0403 15:11:11.148772 31261 net.cpp:141] Setting up inception_4e/output
I0403 15:11:11.148800 31261 net.cpp:148] Top shape: 24 832 14 14 (3913728)
I0403 15:11:11.148818 31261 net.cpp:156] Memory required for data: 1272557088
I0403 15:11:11.148834 31261 layer_factory.hpp:77] Creating layer pool4/3x3_s2
I0403 15:11:11.148854 31261 net.cpp:91] Creating Layer pool4/3x3_s2
I0403 15:11:11.148870 31261 net.cpp:425] pool4/3x3_s2 <- inception_4e/output
I0403 15:11:11.148892 31261 net.cpp:399] pool4/3x3_s2 -> pool4/3x3_s2
I0403 15:11:11.148964 31261 net.cpp:141] Setting up pool4/3x3_s2
I0403 15:11:11.148990 31261 net.cpp:148] Top shape: 24 832 7 7 (978432)
I0403 15:11:11.149006 31261 net.cpp:156] Memory required for data: 1276470816
I0403 15:11:11.149022 31261 layer_factory.hpp:77] Creating layer pool4/3x3_s2_pool4/3x3_s2_0_split
I0403 15:11:11.149044 31261 net.cpp:91] Creating Layer pool4/3x3_s2_pool4/3x3_s2_0_split
I0403 15:11:11.149062 31261 net.cpp:425] pool4/3x3_s2_pool4/3x3_s2_0_split <- pool4/3x3_s2
I0403 15:11:11.149081 31261 net.cpp:399] pool4/3x3_s2_pool4/3x3_s2_0_split -> pool4/3x3_s2_pool4/3x3_s2_0_split_0
I0403 15:11:11.149102 31261 net.cpp:399] pool4/3x3_s2_pool4/3x3_s2_0_split -> pool4/3x3_s2_pool4/3x3_s2_0_split_1
I0403 15:11:11.149124 31261 net.cpp:399] pool4/3x3_s2_pool4/3x3_s2_0_split -> pool4/3x3_s2_pool4/3x3_s2_0_split_2
I0403 15:11:11.149150 31261 net.cpp:399] pool4/3x3_s2_pool4/3x3_s2_0_split -> pool4/3x3_s2_pool4/3x3_s2_0_split_3
I0403 15:11:11.149250 31261 net.cpp:141] Setting up pool4/3x3_s2_pool4/3x3_s2_0_split
I0403 15:11:11.149276 31261 net.cpp:148] Top shape: 24 832 7 7 (978432)
I0403 15:11:11.149293 31261 net.cpp:148] Top shape: 24 832 7 7 (978432)
I0403 15:11:11.149310 31261 net.cpp:148] Top shape: 24 832 7 7 (978432)
I0403 15:11:11.149327 31261 net.cpp:148] Top shape: 24 832 7 7 (978432)
I0403 15:11:11.149343 31261 net.cpp:156] Memory required for data: 1292125728
I0403 15:11:11.149358 31261 layer_factory.hpp:77] Creating layer inception_5a/1x1
I0403 15:11:11.149382 31261 net.cpp:91] Creating Layer inception_5a/1x1
I0403 15:11:11.149401 31261 net.cpp:425] inception_5a/1x1 <- pool4/3x3_s2_pool4/3x3_s2_0_split_0
I0403 15:11:11.149425 31261 net.cpp:399] inception_5a/1x1 -> inception_5a/1x1
I0403 15:11:11.152458 31261 net.cpp:141] Setting up inception_5a/1x1
I0403 15:11:11.152489 31261 net.cpp:148] Top shape: 24 256 7 7 (301056)
I0403 15:11:11.152506 31261 net.cpp:156] Memory required for data: 1293329952
I0403 15:11:11.152526 31261 layer_factory.hpp:77] Creating layer inception_5a/relu_1x1
I0403 15:11:11.152555 31261 net.cpp:91] Creating Layer inception_5a/relu_1x1
I0403 15:11:11.152575 31261 net.cpp:425] inception_5a/relu_1x1 <- inception_5a/1x1
I0403 15:11:11.152595 31261 net.cpp:386] inception_5a/relu_1x1 -> inception_5a/1x1 (in-place)
I0403 15:11:11.152926 31261 net.cpp:141] Setting up inception_5a/relu_1x1
I0403 15:11:11.152956 31261 net.cpp:148] Top shape: 24 256 7 7 (301056)
I0403 15:11:11.152971 31261 net.cpp:156] Memory required for data: 1294534176
I0403 15:11:11.152987 31261 layer_factory.hpp:77] Creating layer inception_5a/3x3_reduce
I0403 15:11:11.153012 31261 net.cpp:91] Creating Layer inception_5a/3x3_reduce
I0403 15:11:11.153030 31261 net.cpp:425] inception_5a/3x3_reduce <- pool4/3x3_s2_pool4/3x3_s2_0_split_1
I0403 15:11:11.153054 31261 net.cpp:399] inception_5a/3x3_reduce -> inception_5a/3x3_reduce
I0403 15:11:11.155728 31261 net.cpp:141] Setting up inception_5a/3x3_reduce
I0403 15:11:11.155761 31261 net.cpp:148] Top shape: 24 160 7 7 (188160)
I0403 15:11:11.155778 31261 net.cpp:156] Memory required for data: 1295286816
I0403 15:11:11.155798 31261 layer_factory.hpp:77] Creating layer inception_5a/relu_3x3_reduce
I0403 15:11:11.155818 31261 net.cpp:91] Creating Layer inception_5a/relu_3x3_reduce
I0403 15:11:11.155835 31261 net.cpp:425] inception_5a/relu_3x3_reduce <- inception_5a/3x3_reduce
I0403 15:11:11.155856 31261 net.cpp:386] inception_5a/relu_3x3_reduce -> inception_5a/3x3_reduce (in-place)
I0403 15:11:11.156059 31261 net.cpp:141] Setting up inception_5a/relu_3x3_reduce
I0403 15:11:11.156086 31261 net.cpp:148] Top shape: 24 160 7 7 (188160)
I0403 15:11:11.156102 31261 net.cpp:156] Memory required for data: 1296039456
I0403 15:11:11.156117 31261 layer_factory.hpp:77] Creating layer inception_5a/3x3
I0403 15:11:11.156141 31261 net.cpp:91] Creating Layer inception_5a/3x3
I0403 15:11:11.156160 31261 net.cpp:425] inception_5a/3x3 <- inception_5a/3x3_reduce
I0403 15:11:11.156184 31261 net.cpp:399] inception_5a/3x3 -> inception_5a/3x3
I0403 15:11:11.161614 31261 net.cpp:141] Setting up inception_5a/3x3
I0403 15:11:11.161646 31261 net.cpp:148] Top shape: 24 320 7 7 (376320)
I0403 15:11:11.161664 31261 net.cpp:156] Memory required for data: 1297544736
I0403 15:11:11.161684 31261 layer_factory.hpp:77] Creating layer inception_5a/relu_3x3
I0403 15:11:11.161716 31261 net.cpp:91] Creating Layer inception_5a/relu_3x3
I0403 15:11:11.161736 31261 net.cpp:425] inception_5a/relu_3x3 <- inception_5a/3x3
I0403 15:11:11.161754 31261 net.cpp:386] inception_5a/relu_3x3 -> inception_5a/3x3 (in-place)
I0403 15:11:11.162128 31261 net.cpp:141] Setting up inception_5a/relu_3x3
I0403 15:11:11.162156 31261 net.cpp:148] Top shape: 24 320 7 7 (376320)
I0403 15:11:11.162173 31261 net.cpp:156] Memory required for data: 1299050016
I0403 15:11:11.162189 31261 layer_factory.hpp:77] Creating layer inception_5a/5x5_reduce
I0403 15:11:11.162215 31261 net.cpp:91] Creating Layer inception_5a/5x5_reduce
I0403 15:11:11.162235 31261 net.cpp:425] inception_5a/5x5_reduce <- pool4/3x3_s2_pool4/3x3_s2_0_split_2
I0403 15:11:11.162258 31261 net.cpp:399] inception_5a/5x5_reduce -> inception_5a/5x5_reduce
I0403 15:11:11.163501 31261 net.cpp:141] Setting up inception_5a/5x5_reduce
I0403 15:11:11.163552 31261 net.cpp:148] Top shape: 24 32 7 7 (37632)
I0403 15:11:11.163573 31261 net.cpp:156] Memory required for data: 1299200544
I0403 15:11:11.163592 31261 layer_factory.hpp:77] Creating layer inception_5a/relu_5x5_reduce
I0403 15:11:11.163612 31261 net.cpp:91] Creating Layer inception_5a/relu_5x5_reduce
I0403 15:11:11.163630 31261 net.cpp:425] inception_5a/relu_5x5_reduce <- inception_5a/5x5_reduce
I0403 15:11:11.163648 31261 net.cpp:386] inception_5a/relu_5x5_reduce -> inception_5a/5x5_reduce (in-place)
I0403 15:11:11.164254 31261 net.cpp:141] Setting up inception_5a/relu_5x5_reduce
I0403 15:11:11.164283 31261 net.cpp:148] Top shape: 24 32 7 7 (37632)
I0403 15:11:11.164299 31261 net.cpp:156] Memory required for data: 1299351072
I0403 15:11:11.164315 31261 layer_factory.hpp:77] Creating layer inception_5a/5x5
I0403 15:11:11.164340 31261 net.cpp:91] Creating Layer inception_5a/5x5
I0403 15:11:11.164360 31261 net.cpp:425] inception_5a/5x5 <- inception_5a/5x5_reduce
I0403 15:11:11.164381 31261 net.cpp:399] inception_5a/5x5 -> inception_5a/5x5
I0403 15:11:11.166230 31261 net.cpp:141] Setting up inception_5a/5x5
I0403 15:11:11.166272 31261 net.cpp:148] Top shape: 24 128 7 7 (150528)
I0403 15:11:11.166290 31261 net.cpp:156] Memory required for data: 1299953184
I0403 15:11:11.166309 31261 layer_factory.hpp:77] Creating layer inception_5a/relu_5x5
I0403 15:11:11.166332 31261 net.cpp:91] Creating Layer inception_5a/relu_5x5
I0403 15:11:11.166352 31261 net.cpp:425] inception_5a/relu_5x5 <- inception_5a/5x5
I0403 15:11:11.166371 31261 net.cpp:386] inception_5a/relu_5x5 -> inception_5a/5x5 (in-place)
I0403 15:11:11.166584 31261 net.cpp:141] Setting up inception_5a/relu_5x5
I0403 15:11:11.166615 31261 net.cpp:148] Top shape: 24 128 7 7 (150528)
I0403 15:11:11.166631 31261 net.cpp:156] Memory required for data: 1300555296
I0403 15:11:11.166647 31261 layer_factory.hpp:77] Creating layer inception_5a/pool
I0403 15:11:11.166667 31261 net.cpp:91] Creating Layer inception_5a/pool
I0403 15:11:11.166684 31261 net.cpp:425] inception_5a/pool <- pool4/3x3_s2_pool4/3x3_s2_0_split_3
I0403 15:11:11.166703 31261 net.cpp:399] inception_5a/pool -> inception_5a/pool
I0403 15:11:11.166780 31261 net.cpp:141] Setting up inception_5a/pool
I0403 15:11:11.166806 31261 net.cpp:148] Top shape: 24 832 7 7 (978432)
I0403 15:11:11.166822 31261 net.cpp:156] Memory required for data: 1304469024
I0403 15:11:11.166838 31261 layer_factory.hpp:77] Creating layer inception_5a/pool_proj
I0403 15:11:11.166863 31261 net.cpp:91] Creating Layer inception_5a/pool_proj
I0403 15:11:11.166882 31261 net.cpp:425] inception_5a/pool_proj <- inception_5a/pool
I0403 15:11:11.166905 31261 net.cpp:399] inception_5a/pool_proj -> inception_5a/pool_proj
I0403 15:11:11.169378 31261 net.cpp:141] Setting up inception_5a/pool_proj
I0403 15:11:11.169410 31261 net.cpp:148] Top shape: 24 128 7 7 (150528)
I0403 15:11:11.169427 31261 net.cpp:156] Memory required for data: 1305071136
I0403 15:11:11.169447 31261 layer_factory.hpp:77] Creating layer inception_5a/relu_pool_proj
I0403 15:11:11.169471 31261 net.cpp:91] Creating Layer inception_5a/relu_pool_proj
I0403 15:11:11.169489 31261 net.cpp:425] inception_5a/relu_pool_proj <- inception_5a/pool_proj
I0403 15:11:11.169508 31261 net.cpp:386] inception_5a/relu_pool_proj -> inception_5a/pool_proj (in-place)
I0403 15:11:11.169829 31261 net.cpp:141] Setting up inception_5a/relu_pool_proj
I0403 15:11:11.169858 31261 net.cpp:148] Top shape: 24 128 7 7 (150528)
I0403 15:11:11.169874 31261 net.cpp:156] Memory required for data: 1305673248
I0403 15:11:11.169890 31261 layer_factory.hpp:77] Creating layer inception_5a/output
I0403 15:11:11.169909 31261 net.cpp:91] Creating Layer inception_5a/output
I0403 15:11:11.169927 31261 net.cpp:425] inception_5a/output <- inception_5a/1x1
I0403 15:11:11.169945 31261 net.cpp:425] inception_5a/output <- inception_5a/3x3
I0403 15:11:11.169963 31261 net.cpp:425] inception_5a/output <- inception_5a/5x5
I0403 15:11:11.169981 31261 net.cpp:425] inception_5a/output <- inception_5a/pool_proj
I0403 15:11:11.170002 31261 net.cpp:399] inception_5a/output -> inception_5a/output
I0403 15:11:11.170056 31261 net.cpp:141] Setting up inception_5a/output
I0403 15:11:11.170084 31261 net.cpp:148] Top shape: 24 832 7 7 (978432)
I0403 15:11:11.170101 31261 net.cpp:156] Memory required for data: 1309586976
I0403 15:11:11.170117 31261 layer_factory.hpp:77] Creating layer inception_5a/output_inception_5a/output_0_split
I0403 15:11:11.170136 31261 net.cpp:91] Creating Layer inception_5a/output_inception_5a/output_0_split
I0403 15:11:11.170153 31261 net.cpp:425] inception_5a/output_inception_5a/output_0_split <- inception_5a/output
I0403 15:11:11.170176 31261 net.cpp:399] inception_5a/output_inception_5a/output_0_split -> inception_5a/output_inception_5a/output_0_split_0
I0403 15:11:11.170199 31261 net.cpp:399] inception_5a/output_inception_5a/output_0_split -> inception_5a/output_inception_5a/output_0_split_1
I0403 15:11:11.170222 31261 net.cpp:399] inception_5a/output_inception_5a/output_0_split -> inception_5a/output_inception_5a/output_0_split_2
I0403 15:11:11.170244 31261 net.cpp:399] inception_5a/output_inception_5a/output_0_split -> inception_5a/output_inception_5a/output_0_split_3
I0403 15:11:11.170367 31261 net.cpp:141] Setting up inception_5a/output_inception_5a/output_0_split
I0403 15:11:11.170393 31261 net.cpp:148] Top shape: 24 832 7 7 (978432)
I0403 15:11:11.170411 31261 net.cpp:148] Top shape: 24 832 7 7 (978432)
I0403 15:11:11.170428 31261 net.cpp:148] Top shape: 24 832 7 7 (978432)
I0403 15:11:11.170445 31261 net.cpp:148] Top shape: 24 832 7 7 (978432)
I0403 15:11:11.170461 31261 net.cpp:156] Memory required for data: 1325241888
I0403 15:11:11.170477 31261 layer_factory.hpp:77] Creating layer inception_5b/1x1
I0403 15:11:11.170501 31261 net.cpp:91] Creating Layer inception_5b/1x1
I0403 15:11:11.170521 31261 net.cpp:425] inception_5b/1x1 <- inception_5a/output_inception_5a/output_0_split_0
I0403 15:11:11.170548 31261 net.cpp:399] inception_5b/1x1 -> inception_5b/1x1
I0403 15:11:11.174556 31261 net.cpp:141] Setting up inception_5b/1x1
I0403 15:11:11.174588 31261 net.cpp:148] Top shape: 24 384 7 7 (451584)
I0403 15:11:11.174605 31261 net.cpp:156] Memory required for data: 1327048224
I0403 15:11:11.174624 31261 layer_factory.hpp:77] Creating layer inception_5b/relu_1x1
I0403 15:11:11.174649 31261 net.cpp:91] Creating Layer inception_5b/relu_1x1
I0403 15:11:11.174667 31261 net.cpp:425] inception_5b/relu_1x1 <- inception_5b/1x1
I0403 15:11:11.174688 31261 net.cpp:386] inception_5b/relu_1x1 -> inception_5b/1x1 (in-place)
I0403 15:11:11.175081 31261 net.cpp:141] Setting up inception_5b/relu_1x1
I0403 15:11:11.175108 31261 net.cpp:148] Top shape: 24 384 7 7 (451584)
I0403 15:11:11.175124 31261 net.cpp:156] Memory required for data: 1328854560
I0403 15:11:11.175140 31261 layer_factory.hpp:77] Creating layer inception_5b/3x3_reduce
I0403 15:11:11.175163 31261 net.cpp:91] Creating Layer inception_5b/3x3_reduce
I0403 15:11:11.175182 31261 net.cpp:425] inception_5b/3x3_reduce <- inception_5a/output_inception_5a/output_0_split_1
I0403 15:11:11.175207 31261 net.cpp:399] inception_5b/3x3_reduce -> inception_5b/3x3_reduce
I0403 15:11:11.178047 31261 net.cpp:141] Setting up inception_5b/3x3_reduce
I0403 15:11:11.178078 31261 net.cpp:148] Top shape: 24 192 7 7 (225792)
I0403 15:11:11.178095 31261 net.cpp:156] Memory required for data: 1329757728
I0403 15:11:11.178115 31261 layer_factory.hpp:77] Creating layer inception_5b/relu_3x3_reduce
I0403 15:11:11.178135 31261 net.cpp:91] Creating Layer inception_5b/relu_3x3_reduce
I0403 15:11:11.178155 31261 net.cpp:425] inception_5b/relu_3x3_reduce <- inception_5b/3x3_reduce
I0403 15:11:11.178175 31261 net.cpp:386] inception_5b/relu_3x3_reduce -> inception_5b/3x3_reduce (in-place)
I0403 15:11:11.178372 31261 net.cpp:141] Setting up inception_5b/relu_3x3_reduce
I0403 15:11:11.178400 31261 net.cpp:148] Top shape: 24 192 7 7 (225792)
I0403 15:11:11.178414 31261 net.cpp:156] Memory required for data: 1330660896
I0403 15:11:11.178431 31261 layer_factory.hpp:77] Creating layer inception_5b/3x3
I0403 15:11:11.178453 31261 net.cpp:91] Creating Layer inception_5b/3x3
I0403 15:11:11.178472 31261 net.cpp:425] inception_5b/3x3 <- inception_5b/3x3_reduce
I0403 15:11:11.178496 31261 net.cpp:399] inception_5b/3x3 -> inception_5b/3x3
I0403 15:11:11.185508 31261 net.cpp:141] Setting up inception_5b/3x3
I0403 15:11:11.185542 31261 net.cpp:148] Top shape: 24 384 7 7 (451584)
I0403 15:11:11.185560 31261 net.cpp:156] Memory required for data: 1332467232
I0403 15:11:11.185581 31261 layer_factory.hpp:77] Creating layer inception_5b/relu_3x3
I0403 15:11:11.185603 31261 net.cpp:91] Creating Layer inception_5b/relu_3x3
I0403 15:11:11.185621 31261 net.cpp:425] inception_5b/relu_3x3 <- inception_5b/3x3
I0403 15:11:11.185639 31261 net.cpp:386] inception_5b/relu_3x3 -> inception_5b/3x3 (in-place)
I0403 15:11:11.185951 31261 net.cpp:141] Setting up inception_5b/relu_3x3
I0403 15:11:11.185978 31261 net.cpp:148] Top shape: 24 384 7 7 (451584)
I0403 15:11:11.185994 31261 net.cpp:156] Memory required for data: 1334273568
I0403 15:11:11.186010 31261 layer_factory.hpp:77] Creating layer inception_5b/5x5_reduce
I0403 15:11:11.186050 31261 net.cpp:91] Creating Layer inception_5b/5x5_reduce
I0403 15:11:11.186070 31261 net.cpp:425] inception_5b/5x5_reduce <- inception_5a/output_inception_5a/output_0_split_2
I0403 15:11:11.186094 31261 net.cpp:399] inception_5b/5x5_reduce -> inception_5b/5x5_reduce
I0403 15:11:11.187479 31261 net.cpp:141] Setting up inception_5b/5x5_reduce
I0403 15:11:11.187507 31261 net.cpp:148] Top shape: 24 48 7 7 (56448)
I0403 15:11:11.187523 31261 net.cpp:156] Memory required for data: 1334499360
I0403 15:11:11.187548 31261 layer_factory.hpp:77] Creating layer inception_5b/relu_5x5_reduce
I0403 15:11:11.187569 31261 net.cpp:91] Creating Layer inception_5b/relu_5x5_reduce
I0403 15:11:11.187587 31261 net.cpp:425] inception_5b/relu_5x5_reduce <- inception_5b/5x5_reduce
I0403 15:11:11.187607 31261 net.cpp:386] inception_5b/relu_5x5_reduce -> inception_5b/5x5_reduce (in-place)
I0403 15:11:11.188035 31261 net.cpp:141] Setting up inception_5b/relu_5x5_reduce
I0403 15:11:11.188062 31261 net.cpp:148] Top shape: 24 48 7 7 (56448)
I0403 15:11:11.188078 31261 net.cpp:156] Memory required for data: 1334725152
I0403 15:11:11.188094 31261 layer_factory.hpp:77] Creating layer inception_5b/5x5
I0403 15:11:11.188115 31261 net.cpp:91] Creating Layer inception_5b/5x5
I0403 15:11:11.188133 31261 net.cpp:425] inception_5b/5x5 <- inception_5b/5x5_reduce
I0403 15:11:11.188153 31261 net.cpp:399] inception_5b/5x5 -> inception_5b/5x5
I0403 15:11:11.190296 31261 net.cpp:141] Setting up inception_5b/5x5
I0403 15:11:11.190325 31261 net.cpp:148] Top shape: 24 128 7 7 (150528)
I0403 15:11:11.190342 31261 net.cpp:156] Memory required for data: 1335327264
I0403 15:11:11.190361 31261 layer_factory.hpp:77] Creating layer inception_5b/relu_5x5
I0403 15:11:11.190383 31261 net.cpp:91] Creating Layer inception_5b/relu_5x5
I0403 15:11:11.190402 31261 net.cpp:425] inception_5b/relu_5x5 <- inception_5b/5x5
I0403 15:11:11.190419 31261 net.cpp:386] inception_5b/relu_5x5 -> inception_5b/5x5 (in-place)
I0403 15:11:11.190629 31261 net.cpp:141] Setting up inception_5b/relu_5x5
I0403 15:11:11.190661 31261 net.cpp:148] Top shape: 24 128 7 7 (150528)
I0403 15:11:11.190680 31261 net.cpp:156] Memory required for data: 1335929376
I0403 15:11:11.190706 31261 layer_factory.hpp:77] Creating layer inception_5b/pool
I0403 15:11:11.190745 31261 net.cpp:91] Creating Layer inception_5b/pool
I0403 15:11:11.190786 31261 net.cpp:425] inception_5b/pool <- inception_5a/output_inception_5a/output_0_split_3
I0403 15:11:11.190829 31261 net.cpp:399] inception_5b/pool -> inception_5b/pool
I0403 15:11:11.190922 31261 net.cpp:141] Setting up inception_5b/pool
I0403 15:11:11.190968 31261 net.cpp:148] Top shape: 24 832 7 7 (978432)
I0403 15:11:11.190992 31261 net.cpp:156] Memory required for data: 1339843104
I0403 15:11:11.191020 31261 layer_factory.hpp:77] Creating layer inception_5b/pool_proj
I0403 15:11:11.191056 31261 net.cpp:91] Creating Layer inception_5b/pool_proj
I0403 15:11:11.191092 31261 net.cpp:425] inception_5b/pool_proj <- inception_5b/pool
I0403 15:11:11.191128 31261 net.cpp:399] inception_5b/pool_proj -> inception_5b/pool_proj
I0403 15:11:11.193572 31261 net.cpp:141] Setting up inception_5b/pool_proj
I0403 15:11:11.193611 31261 net.cpp:148] Top shape: 24 128 7 7 (150528)
I0403 15:11:11.193646 31261 net.cpp:156] Memory required for data: 1340445216
I0403 15:11:11.193686 31261 layer_factory.hpp:77] Creating layer inception_5b/relu_pool_proj
I0403 15:11:11.193720 31261 net.cpp:91] Creating Layer inception_5b/relu_pool_proj
I0403 15:11:11.193742 31261 net.cpp:425] inception_5b/relu_pool_proj <- inception_5b/pool_proj
I0403 15:11:11.193769 31261 net.cpp:386] inception_5b/relu_pool_proj -> inception_5b/pool_proj (in-place)
I0403 15:11:11.194106 31261 net.cpp:141] Setting up inception_5b/relu_pool_proj
I0403 15:11:11.194157 31261 net.cpp:148] Top shape: 24 128 7 7 (150528)
I0403 15:11:11.194183 31261 net.cpp:156] Memory required for data: 1341047328
I0403 15:11:11.194208 31261 layer_factory.hpp:77] Creating layer inception_5b/output
I0403 15:11:11.194233 31261 net.cpp:91] Creating Layer inception_5b/output
I0403 15:11:11.194273 31261 net.cpp:425] inception_5b/output <- inception_5b/1x1
I0403 15:11:11.194309 31261 net.cpp:425] inception_5b/output <- inception_5b/3x3
I0403 15:11:11.194346 31261 net.cpp:425] inception_5b/output <- inception_5b/5x5
I0403 15:11:11.194391 31261 net.cpp:425] inception_5b/output <- inception_5b/pool_proj
I0403 15:11:11.194432 31261 net.cpp:399] inception_5b/output -> inception_5b/output
I0403 15:11:11.194494 31261 net.cpp:141] Setting up inception_5b/output
I0403 15:11:11.194548 31261 net.cpp:148] Top shape: 24 1024 7 7 (1204224)
I0403 15:11:11.194579 31261 net.cpp:156] Memory required for data: 1345864224
I0403 15:11:11.194604 31261 layer_factory.hpp:77] Creating layer pool5/7x7_s1
I0403 15:11:11.194631 31261 net.cpp:91] Creating Layer pool5/7x7_s1
I0403 15:11:11.194653 31261 net.cpp:425] pool5/7x7_s1 <- inception_5b/output
I0403 15:11:11.194685 31261 net.cpp:399] pool5/7x7_s1 -> pool5/7x7_s1
I0403 15:11:11.194934 31261 net.cpp:141] Setting up pool5/7x7_s1
I0403 15:11:11.194972 31261 net.cpp:148] Top shape: 24 1024 1 1 (24576)
I0403 15:11:11.194994 31261 net.cpp:156] Memory required for data: 1345962528
I0403 15:11:11.195014 31261 layer_factory.hpp:77] Creating layer pool5/drop_7x7_s1
I0403 15:11:11.195042 31261 net.cpp:91] Creating Layer pool5/drop_7x7_s1
I0403 15:11:11.195082 31261 net.cpp:425] pool5/drop_7x7_s1 <- pool5/7x7_s1
I0403 15:11:11.195121 31261 net.cpp:386] pool5/drop_7x7_s1 -> pool5/7x7_s1 (in-place)
I0403 15:11:11.195181 31261 net.cpp:141] Setting up pool5/drop_7x7_s1
I0403 15:11:11.195221 31261 net.cpp:148] Top shape: 24 1024 1 1 (24576)
I0403 15:11:11.195242 31261 net.cpp:156] Memory required for data: 1346060832
I0403 15:11:11.195264 31261 layer_factory.hpp:77] Creating layer loss3/classifier_plantvillage
I0403 15:11:11.195293 31261 net.cpp:91] Creating Layer loss3/classifier_plantvillage
I0403 15:11:11.195320 31261 net.cpp:425] loss3/classifier_plantvillage <- pool5/7x7_s1
I0403 15:11:11.195353 31261 net.cpp:399] loss3/classifier_plantvillage -> loss3/classifier_plantvillage
I0403 15:11:11.195839 31261 net.cpp:141] Setting up loss3/classifier_plantvillage
I0403 15:11:11.195888 31261 net.cpp:148] Top shape: 24 38 (912)
I0403 15:11:11.195919 31261 net.cpp:156] Memory required for data: 1346064480
I0403 15:11:11.195953 31261 layer_factory.hpp:77] Creating layer loss3/classifier_plantvillage_loss3/classifier_plantvillage_0_split
I0403 15:11:11.195981 31261 net.cpp:91] Creating Layer loss3/classifier_plantvillage_loss3/classifier_plantvillage_0_split
I0403 15:11:11.196023 31261 net.cpp:425] loss3/classifier_plantvillage_loss3/classifier_plantvillage_0_split <- loss3/classifier_plantvillage
I0403 15:11:11.196064 31261 net.cpp:399] loss3/classifier_plantvillage_loss3/classifier_plantvillage_0_split -> loss3/classifier_plantvillage_loss3/classifier_plantvillage_0_split_0
I0403 15:11:11.196091 31261 net.cpp:399] loss3/classifier_plantvillage_loss3/classifier_plantvillage_0_split -> loss3/classifier_plantvillage_loss3/classifier_plantvillage_0_split_1
I0403 15:11:11.196141 31261 net.cpp:399] loss3/classifier_plantvillage_loss3/classifier_plantvillage_0_split -> loss3/classifier_plantvillage_loss3/classifier_plantvillage_0_split_2
I0403 15:11:11.196172 31261 net.cpp:399] loss3/classifier_plantvillage_loss3/classifier_plantvillage_0_split -> loss3/classifier_plantvillage_loss3/classifier_plantvillage_0_split_3
I0403 15:11:11.196292 31261 net.cpp:141] Setting up loss3/classifier_plantvillage_loss3/classifier_plantvillage_0_split
I0403 15:11:11.196348 31261 net.cpp:148] Top shape: 24 38 (912)
I0403 15:11:11.196384 31261 net.cpp:148] Top shape: 24 38 (912)
I0403 15:11:11.196418 31261 net.cpp:148] Top shape: 24 38 (912)
I0403 15:11:11.196441 31261 net.cpp:148] Top shape: 24 38 (912)
I0403 15:11:11.196462 31261 net.cpp:156] Memory required for data: 1346079072
I0403 15:11:11.196486 31261 layer_factory.hpp:77] Creating layer loss1/loss
I0403 15:11:11.196519 31261 net.cpp:91] Creating Layer loss1/loss
I0403 15:11:11.196569 31261 net.cpp:425] loss1/loss <- loss1/classifier_plantvillage_loss1/classifier_plantvillage_0_split_0
I0403 15:11:11.196626 31261 net.cpp:425] loss1/loss <- label_data_1_split_0
…
