…
I0403 15:19:14.516284 31448 net.cpp:313] The NetState phase (1) differed from the phase (0) specified by a rule in layer data
I0403 15:19:14.517496 31448 net.cpp:49] Initializing net from parameters: 
state {
  phase: TEST
}
layer {
  name: "data"
  type: "Data"
  top: "data"
  top: "label"
  include {
    phase: TEST
  }
  transform_param {
    mirror: false
    crop_size: 224
    mean_file: "/home/mohanty/data/final_dataset/lmdb/grayscale-80-20/mean.binaryproto"
  }
  data_param {
    source: "/home/mohanty/data/final_dataset/lmdb/grayscale-80-20/test_db"
    batch_size: 24
    backend: LMDB
  }
}
layer {
  name: "conv1/7x7_s2"
  type: "Convolution"
  bottom: "data"
  top: "conv1/7x7_s2"
  param {
    lr_mult: 1
    decay_mult: 1
  }
  param {
    lr_mult: 2
    decay_mult: 0
  }
  convolution_param {
    num_output: 64
    pad: 3
    kernel_size: 7
    stride: 2
    weight_filler {
      type: "xavier"
      std: 0.1
    }
    bias_filler {
      type: "constant"
      value: 0.2
    }
  }
}
layer {
  name: "conv1/relu_7x7"
  type: "ReLU"
  bottom: "conv1/7x7_s2"
  top: "conv1/7x7_s2"
}
layer {
  name: "pool1/3x3_s2"
  type: "Pooling"
  bottom: "conv1/7x7_s2"
  top: "pool1/3x3_s2"
  pooling_param {
    pool: MAX
    kernel_size: 3
    stride: 2
  }
}
layer {
  name: "pool1/norm1"
  type: "LRN"
  bottom: "pool1/3x3_s2"
  top: "pool1/norm1"
  lrn_param {
    local_size: 5
    alpha: 0.0001
    beta: 0.75
  }
}
layer {
  name: "conv2/3x3_reduce"
  type: "Convolution"
  bottom: "pool1/norm1"
  top: "conv2/3x3_reduce"
  param {
    lr_mult: 1
    decay_mult: 1
  }
  param {
    lr_mult: 2
    decay_mult: 0
  }
  convolution_param {
    num_output: 64
    kernel_size: 1
    weight_filler {
      type: "xavier"
      std: 0.1
    }
    bias_filler {
      type: "constant"
      value: 0.2
    }
  }
}
layer {
  name: "conv2/relu_3x3_reduce"
  type: "ReLU"
  bottom: "conv2/3x3_reduce"
  top: "conv2/3x3_reduce"
}
layer {
  name: "conv2/3x3"
  type: "Convolution"
  bottom: "conv2/3x3_reduce"
  top: "conv2/3x3"
  param {
    lr_mult: 1
    decay_mult: 1
  }
  param {
    lr_mult: 2
    decay_mult: 0
  }
  convolution_param {
    num_output: 192
    pad: 1
    kernel_size: 3
    weight_filler {
      type: "xavier"
      std: 0.03
    }
    bias_filler {
      type: "constant"
      value: 0.2
    }
  }
}
layer {
  name: "conv2/relu_3x3"
  type: "ReLU"
  bottom: "conv2/3x3"
  top: "conv2/3x3"
}
layer {
  name: "conv2/norm2"
  type: "LRN"
  bottom: "conv2/3x3"
  top: "conv2/norm2"
  lrn_param {
    local_size: 5
    alpha: 0.0001
    beta: 0.75
  }
}
layer {
  name: "pool2/3x3_s2"
  type: "Pooling"
  bottom: "conv2/norm2"
  top: "pool2/3x3_s2"
  pooling_param {
    pool: MAX
    kernel_size: 3
    stride: 2
  }
}
layer {
  name: "inception_3a/1x1"
  type: "Convolution"
  bottom: "pool2/3x3_s2"
  top: "inception_3a/1x1"
  param {
    lr_mult: 1
    decay_mult: 1
  }
  param {
    lr_mult: 2
    decay_mult: 0
  }
  convolution_param {
    num_output: 64
    kernel_size: 1
    weight_filler {
      type: "xavier"
      std: 0.03
    }
    bias_filler {
      type: "constant"
      value: 0.2
    }
  }
}
layer {
  name: "inception_3a/relu_1x1"
  type: "ReLU"
  bottom: "inception_3a/1x1"
  top: "inception_3a/1x1"
}
layer {
  name: "inception_3a/3x3_reduce"
  type: "Convolution"
  bottom: "pool2/3x3_s2"
  top: "inception_3a/3x3_reduce"
  param {
    lr_mult: 1
    decay_mult: 1
  }
  param {
    lr_mult: 2
    decay_mult: 0
  }
  convolution_param {
    num_output: 96
    kernel_size: 1
    weight_filler {
      type: "xavier"
      std: 0.09
    }
    bias_filler {
      type: "constant"
      value: 0.2
    }
  }
}
layer {
  name: "inception_3a/relu_3x3_reduce"
  type: "ReLU"
  bottom: "inception_3a/3x3_reduce"
  top: "inception_3a/3x3_reduce"
}
layer {
  name: "inception_3a/3x3"
  type: "Convolution"
  bottom: "inception_3a/3x3_reduce"
  top: "inception_3a/3x3"
  param {
    lr_mult: 1
    decay_mult: 1
  }
  param {
    lr_mult: 2
    decay_mult: 0
  }
  convolution_param {
    num_output: 128
    pad: 1
    kernel_size: 3
    weight_filler {
      type: "xavier"
      std: 0.03
    }
    bias_filler {
      type: "constant"
      value: 0.2
    }
  }
}
layer {
  name: "inception_3a/relu_3x3"
  type: "ReLU"
  bottom: "inception_3a/3x3"
  top: "inception_3a/3x3"
}
layer {
  name: "inception_3a/5x5_reduce"
  type: "Convolution"
  bottom: "pool2/3x3_s2"
  top: "inception_3a/5x5_reduce"
  param {
    lr_mult: 1
    decay_mult: 1
  }
  param {
    lr_mult: 2
    decay_mult: 0
  }
  convolution_param {
    num_output: 16
    kernel_size: 1
    weight_filler {
      type: "xavier"
      std: 0.2
    }
    bias_filler {
      type: "constant"
      value: 0.2
    }
  }
}
layer {
  name: "inception_3a/relu_5x5_reduce"
  type: "ReLU"
  bottom: "inception_3a/5x5_reduce"
  top: "inception_3a/5x5_reduce"
}
layer {
  name: "inception_3a/5x5"
  type: "Convolution"
  bottom: "inception_3a/5x5_reduce"
  top: "inception_3a/5x5"
  param {
    lr_mult: 1
    decay_mult: 1
  }
  param {
    lr_mult: 2
    decay_mult: 0
  }
  convolution_param {
    num_output: 32
    pad: 2
    kernel_size: 5
    weight_filler {
      type: "xavier"
      std: 0.03
    }
    bias_filler {
      type: "constant"
      value: 0.2
    }
  }
}
layer {
  name: "inception_3a/relu_5x5"
  type: "ReLU"
  bottom: "inception_3a/5x5"
  top: "inception_3a/5x5"
}
layer {
  name: "inception_3a/pool"
  type: "Pooling"
  bottom: "pool2/3x3_s2"
  top: "inception_3a/pool"
  pooling_param {
    pool: MAX
    kernel_size: 3
    stride: 1
    pad: 1
  }
}
layer {
  name: "inception_3a/pool_proj"
  type: "Convolution"
  bottom: "inception_3a/pool"
  top: "inception_3a/pool_proj"
  param {
    lr_mult: 1
    decay_mult: 1
  }
  param {
    lr_mult: 2
    decay_mult: 0
  }
  convolution_param {
    num_output: 32
    kernel_size: 1
    weight_filler {
      type: "xavier"
      std: 0.1
    }
    bias_filler {
      type: "constant"
      value: 0.2
    }
  }
}
layer {
  name: "inception_3a/relu_pool_proj"
  type: "ReLU"
  bottom: "inception_3a/pool_proj"
  top: "inception_3a/pool_proj"
}
layer {
  name: "inception_3a/output"
  type: "Concat"
  bottom: "inception_3a/1x1"
  bottom: "inception_3a/3x3"
  bottom: "inception_3a/5x5"
  bottom: "inception_3a/pool_proj"
  top: "inception_3a/output"
}
layer {
  name: "inception_3b/1x1"
  type: "Convolution"
  bottom: "inception_3a/output"
  top: "inception_3b/1x1"
  param {
    lr_mult: 1
    decay_mult: 1
  }
  param {
    lr_mult: 2
    decay_mult: 0
  }
  convolution_param {
    num_output: 128
    kernel_size: 1
    weight_filler {
      type: "xavier"
      std: 0.03
    }
    bias_filler {
      type: "constant"
      value: 0.2
    }
  }
}
layer {
  name: "inception_3b/relu_1x1"
  type: "ReLU"
  bottom: "inception_3b/1x1"
  top: "inception_3b/1x1"
}
layer {
  name: "inception_3b/3x3_reduce"
  type: "Convolution"
  bottom: "inception_3a/output"
  top: "inception_3b/3x3_reduce"
  param {
    lr_mult: 1
    decay_mult: 1
  }
  param {
    lr_mult: 2
    decay_mult: 0
  }
  convolution_param {
    num_output: 128
    kernel_size: 1
    weight_filler {
      type: "xavier"
      std: 0.09
    }
    bias_filler {
      type: "constant"
      value: 0.2
    }
  }
}
layer {
  name: "inception_3b/relu_3x3_reduce"
  type: "ReLU"
  bottom: "inception_3b/3x3_reduce"
  top: "inception_3b/3x3_reduce"
}
layer {
  name: "inception_3b/3x3"
  type: "Convolution"
  bottom: "inception_3b/3x3_reduce"
  top: "inception_3b/3x3"
  param {
    lr_mult: 1
    decay_mult: 1
  }
  param {
    lr_mult: 2
    decay_mult: 0
  }
  convolution_param {
    num_output: 192
    pad: 1
    kernel_size: 3
    weight_filler {
      type: "xavier"
      std: 0.03
    }
    bias_filler {
      type: "constant"
      value: 0.2
    }
  }
}
layer {
  name: "inception_3b/relu_3x3"
  type: "ReLU"
  bottom: "inception_3b/3x3"
  top: "inception_3b/3x3"
}
layer {
  name: "inception_3b/5x5_reduce"
  type: "Convolution"
  bottom: "inception_3a/output"
  top: "inception_3b/5x5_reduce"
  param {
    lr_mult: 1
    decay_mult: 1
  }
  param {
    lr_mult: 2
    decay_mult: 0
  }
  convolution_param {
    num_output: 32
    kernel_size: 1
    weight_filler {
      type: "xavier"
      std: 0.2
    }
    bias_filler {
      type: "constant"
      value: 0.2
    }
  }
}
layer {
  name: "inception_3b/relu_5x5_reduce"
  type: "ReLU"
  bottom: "inception_3b/5x5_reduce"
  top: "inception_3b/5x5_reduce"
}
layer {
  name: "inception_3b/5x5"
  type: "Convolution"
  bottom: "inception_3b/5x5_reduce"
  top: "inception_3b/5x5"
  param {
    lr_mult: 1
    decay_mult: 1
  }
  param {
    lr_mult: 2
    decay_mult: 0
  }
  convolution_param {
    num_output: 96
    pad: 2
    kernel_size: 5
    weight_filler {
      type: "xavier"
      std: 0.03
    }
    bias_filler {
      type: "constant"
      value: 0.2
    }
  }
}
layer {
  name: "inception_3b/relu_5x5"
  type: "ReLU"
  bottom: "inception_3b/5x5"
  top: "inception_3b/5x5"
}
layer {
  name: "inception_3b/pool"
  type: "Pooling"
  bottom: "inception_3a/output"
  top: "inception_3b/pool"
  pooling_param {
    pool: MAX
    kernel_size: 3
    stride: 1
    pad: 1
  }
}
layer {
  name: "inception_3b/pool_proj"
  type: "Convolution"
  bottom: "inception_3b/pool"
  top: "inception_3b/pool_proj"
  param {
    lr_mult: 1
    decay_mult: 1
  }
  param {
    lr_mult: 2
    decay_mult: 0
  }
  convolution_param {
    num_output: 64
    kernel_size: 1
    weight_filler {
      type: "xavier"
      std: 0.1
    }
    bias_filler {
      type: "constant"
      value: 0.2
    }
  }
}
layer {
  name: "inception_3b/relu_pool_proj"
  type: "ReLU"
  bottom: "inception_3b/pool_proj"
  top: "inception_3b/pool_proj"
}
layer {
  name: "inception_3b/output"
  type: "Concat"
  bottom: "inception_3b/1x1"
  bottom: "inception_3b/3x3"
  bottom: "inception_3b/5x5"
  bottom: "inception_3b/pool_proj"
  top: "inception_3b/output"
}
layer {
  name: "pool3/3x3_s2"
  type: "Pooling"
  bottom: "inception_3b/output"
  top: "pool3/3x3_s2"
  pooling_param {
    pool: MAX
    kernel_size: 3
    stride: 2
  }
}
layer {
  name: "inception_4a/1x1"
  type: "Convolution"
  bottom: "pool3/3x3_s2"
  top: "inception_4a/1x1"
  param {
    lr_mult: 1
    decay_mult: 1
  }
  param {
    lr_mult: 2
    decay_mult: 0
  }
  convolution_param {
    num_output: 192
    kernel_size: 1
    weight_filler {
      type: "xavier"
      std: 0.03
    }
    bias_filler {
      type: "constant"
      value: 0.2
    }
  }
}
layer {
  name: "inception_4a/relu_1x1"
  type: "ReLU"
  bottom: "inception_4a/1x1"
  top: "inception_4a/1x1"
}
layer {
  name: "inception_4a/3x3_reduce"
  type: "Convolution"
  bottom: "pool3/3x3_s2"
  top: "inception_4a/3x3_reduce"
  param {
    lr_mult: 1
    decay_mult: 1
  }
  param {
    lr_mult: 2
    decay_mult: 0
  }
  convolution_param {
    num_output: 96
    kernel_size: 1
    weight_filler {
      type: "xavier"
      std: 0.09
    }
    bias_filler {
      type: "constant"
      value: 0.2
    }
  }
}
layer {
  name: "inception_4a/relu_3x3_reduce"
  type: "ReLU"
  bottom: "inception_4a/3x3_reduce"
  top: "inception_4a/3x3_reduce"
}
layer {
  name: "inception_4a/3x3"
  type: "Convolution"
  bottom: "inception_4a/3x3_reduce"
  top: "inception_4a/3x3"
  param {
    lr_mult: 1
    decay_mult: 1
  }
  param {
    lr_mult: 2
    decay_mult: 0
  }
  convolution_param {
    num_output: 208
    pad: 1
    kernel_size: 3
    weight_filler {
      type: "xavier"
      std: 0.03
    }
    bias_filler {
      type: "constant"
      value: 0.2
    }
  }
}
layer {
  name: "inception_4a/relu_3x3"
  type: "ReLU"
  bottom: "inception_4a/3x3"
  top: "inception_4a/3x3"
}
layer {
  name: "inception_4a/5x5_reduce"
  type: "Convolution"
  bottom: "pool3/3x3_s2"
  top: "inception_4a/5x5_reduce"
  param {
    lr_mult: 1
    decay_mult: 1
  }
  param {
    lr_mult: 2
    decay_mult: 0
  }
  convolution_param {
    num_output: 16
    kernel_size: 1
    weight_filler {
      type: "xavier"
      std: 0.2
    }
    bias_filler {
      type: "constant"
      value: 0.2
    }
  }
}
layer {
  name: "inception_4a/relu_5x5_reduce"
  type: "ReLU"
  bottom: "inception_4a/5x5_reduce"
  top: "inception_4a/5x5_reduce"
}
layer {
  name: "inception_4a/5x5"
  type: "Convolution"
  bottom: "inception_4a/5x5_reduce"
  top: "inception_4a/5x5"
  param {
    lr_mult: 1
    decay_mult: 1
  }
  param {
    lr_mult: 2
    decay_mult: 0
  }
  convolution_param {
    num_output: 48
    pad: 2
    kernel_size: 5
    weight_filler {
      type: "xavier"
      std: 0.03
    }
    bias_filler {
      type: "constant"
      value: 0.2
    }
  }
}
layer {
  name: "inception_4a/relu_5x5"
  type: "ReLU"
  bottom: "inception_4a/5x5"
  top: "inception_4a/5x5"
}
layer {
  name: "inception_4a/pool"
  type: "Pooling"
  bottom: "pool3/3x3_s2"
  top: "inception_4a/pool"
  pooling_param {
    pool: MAX
    kernel_size: 3
    stride: 1
    pad: 1
  }
}
layer {
  name: "inception_4a/pool_proj"
  type: "Convolution"
  bottom: "inception_4a/pool"
  top: "inception_4a/pool_proj"
  param {
    lr_mult: 1
    decay_mult: 1
  }
  param {
    lr_mult: 2
    decay_mult: 0
  }
  convolution_param {
    num_output: 64
    kernel_size: 1
    weight_filler {
      type: "xavier"
      std: 0.1
    }
    bias_filler {
      type: "constant"
      value: 0.2
    }
  }
}
layer {
  name: "inception_4a/relu_pool_proj"
  type: "ReLU"
  bottom: "inception_4a/pool_proj"
  top: "inception_4a/pool_proj"
}
layer {
  name: "inception_4a/output"
  type: "Concat"
  bottom: "inception_4a/1x1"
  bottom: "inception_4a/3x3"
  bottom: "inception_4a/5x5"
  bottom: "inception_4a/pool_proj"
  top: "inception_4a/output"
}
layer {
  name: "loss1/ave_pool"
  type: "Pooling"
  bottom: "inception_4a/output"
  top: "loss1/ave_pool"
  pooling_param {
    pool: AVE
    kernel_size: 5
    stride: 3
  }
}
layer {
  name: "loss1/conv"
  type: "Convolution"
  bottom: "loss1/ave_pool"
  top: "loss1/conv"
  param {
    lr_mult: 1
    decay_mult: 1
  }
  param {
    lr_mult: 2
    decay_mult: 0
  }
  convolution_param {
    num_output: 128
    kernel_size: 1
    weight_filler {
      type: "xavier"
      std: 0.08
    }
    bias_filler {
      type: "constant"
      value: 0.2
    }
  }
}
layer {
  name: "loss1/relu_conv"
  type: "ReLU"
  bottom: "loss1/conv"
  top: "loss1/conv"
}
layer {
  name: "loss1/fc"
  type: "InnerProduct"
  bottom: "loss1/conv"
  top: "loss1/fc"
  param {
    lr_mult: 1
    decay_mult: 1
  }
  param {
    lr_mult: 2
    decay_mult: 0
  }
  inner_product_param {
    num_output: 1024
    weight_filler {
      type: "xavier"
      std: 0.02
    }
    bias_filler {
      type: "constant"
      value: 0.2
    }
  }
}
layer {
  name: "loss1/relu_fc"
  type: "ReLU"
  bottom: "loss1/fc"
  top: "loss1/fc"
}
layer {
  name: "loss1/drop_fc"
  type: "Dropout"
  bottom: "loss1/fc"
  top: "loss1/fc"
  dropout_param {
    dropout_ratio: 0.7
  }
}
layer {
  name: "loss1/classifier_plantvillage"
  type: "InnerProduct"
  bottom: "loss1/fc"
  top: "loss1/classifier_plantvillage"
  param {
    lr_mult: 1
    decay_mult: 1
  }
  param {
    lr_mult: 2
    decay_mult: 0
  }
  inner_product_param {
    num_output: 38
    weight_filler {
      type: "xavier"
      std: 0.0009765625
    }
    bias_filler {
      type: "constant"
      value: 0
    }
  }
}
layer {
  name: "inception_4b/1x1"
  type: "Convolution"
  bottom: "inception_4a/output"
  top: "inception_4b/1x1"
  param {
    lr_mult: 1
    decay_mult: 1
  }
  param {
    lr_mult: 2
    decay_mult: 0
  }
  convolution_param {
    num_output: 160
    kernel_size: 1
    weight_filler {
      type: "xavier"
      std: 0.03
    }
    bias_filler {
      type: "constant"
      value: 0.2
    }
  }
}
layer {
  name: "inception_4b/relu_1x1"
  type: "ReLU"
  bottom: "inception_4b/1x1"
  top: "inception_4b/1x1"
}
layer {
  name: "inception_4b/3x3_reduce"
  type: "Convolution"
  bottom: "inception_4a/output"
  top: "inception_4b/3x3_reduce"
  param {
    lr_mult: 1
    decay_mult: 1
  }
  param {
    lr_mult: 2
    decay_mult: 0
  }
  convolution_param {
    num_output: 112
    kernel_size: 1
    weight_filler {
      type: "xavier"
      std: 0.09
    }
    bias_filler {
      type: "constant"
      value: 0.2
    }
  }
}
layer {
  name: "inception_4b/relu_3x3_reduce"
  type: "ReLU"
  bottom: "inception_4b/3x3_reduce"
  top: "inception_4b/3x3_reduce"
}
layer {
  name: "inception_4b/3x3"
  type: "Convolution"
  bottom: "inception_4b/3x3_reduce"
  top: "inception_4b/3x3"
  param {
    lr_mult: 1
    decay_mult: 1
  }
  param {
    lr_mult: 2
    decay_mult: 0
  }
  convolution_param {
    num_output: 224
    pad: 1
    kernel_size: 3
    weight_filler {
      type: "xavier"
      std: 0.03
    }
    bias_filler {
      type: "constant"
      value: 0.2
    }
  }
}
layer {
  name: "inception_4b/relu_3x3"
  type: "ReLU"
  bottom: "inception_4b/3x3"
  top: "inception_4b/3x3"
}
layer {
  name: "inception_4b/5x5_reduce"
  type: "Convolution"
  bottom: "inception_4a/output"
  top: "inception_4b/5x5_reduce"
  param {
    lr_mult: 1
    decay_mult: 1
  }
  param {
    lr_mult: 2
    decay_mult: 0
  }
  convolution_param {
    num_output: 24
    kernel_size: 1
    weight_filler {
      type: "xavier"
      std: 0.2
    }
    bias_filler {
      type: "constant"
      value: 0.2
    }
  }
}
layer {
  name: "inception_4b/relu_5x5_reduce"
  type: "ReLU"
  bottom: "inception_4b/5x5_reduce"
  top: "inception_4b/5x5_reduce"
}
layer {
  name: "inception_4b/5x5"
  type: "Convolution"
  bottom: "inception_4b/5x5_reduce"
  top: "inception_4b/5x5"
  param {
    lr_mult: 1
    decay_mult: 1
  }
  param {
    lr_mult: 2
    decay_mult: 0
  }
  convolution_param {
    num_output: 64
    pad: 2
    kernel_size: 5
    weight_filler {
      type: "xavier"
      std: 0.03
    }
    bias_filler {
      type: "constant"
      value: 0.2
    }
  }
}
layer {
  name: "inception_4b/relu_5x5"
  type: "ReLU"
  bottom: "inception_4b/5x5"
  top: "inception_4b/5x5"
}
layer {
  name: "inception_4b/pool"
  type: "Pooling"
  bottom: "inception_4a/output"
  top: "inception_4b/pool"
  pooling_param {
    pool: MAX
    kernel_size: 3
    stride: 1
    pad: 1
  }
}
layer {
  name: "inception_4b/pool_proj"
  type: "Convolution"
  bottom: "inception_4b/pool"
  top: "inception_4b/pool_proj"
  param {
    lr_mult: 1
    decay_mult: 1
  }
  param {
    lr_mult: 2
    decay_mult: 0
  }
  convolution_param {
    num_output: 64
    kernel_size: 1
    weight_filler {
      type: "xavier"
      std: 0.1
    }
    bias_filler {
      type: "constant"
      value: 0.2
    }
  }
}
layer {
  name: "inception_4b/relu_pool_proj"
  type: "ReLU"
  bottom: "inception_4b/pool_proj"
  top: "inception_4b/pool_proj"
}
layer {
  name: "inception_4b/output"
  type: "Concat"
  bottom: "inception_4b/1x1"
  bottom: "inception_4b/3x3"
  bottom: "inception_4b/5x5"
  bottom: "inception_4b/pool_proj"
  top: "inception_4b/output"
}
layer {
  name: "inception_4c/1x1"
  type: "Convolution"
  bottom: "inception_4b/output"
  top: "inception_4c/1x1"
  param {
    lr_mult: 1
    decay_mult: 1
  }
  param {
    lr_mult: 2
    decay_mult: 0
  }
  convolution_param {
    num_output: 128
    kernel_size: 1
    weight_filler {
      type: "xavier"
      std: 0.03
    }
    bias_filler {
      type: "constant"
      value: 0.2
    }
  }
}
layer {
  name: "inception_4c/relu_1x1"
  type: "ReLU"
  bottom: "inception_4c/1x1"
  top: "inception_4c/1x1"
}
layer {
  name: "inception_4c/3x3_reduce"
  type: "Convolution"
  bottom: "inception_4b/output"
  top: "inception_4c/3x3_reduce"
  param {
    lr_mult: 1
    decay_mult: 1
  }
  param {
    lr_mult: 2
    decay_mult: 0
  }
  convolution_param {
    num_output: 128
    kernel_size: 1
    weight_filler {
      type: "xavier"
      std: 0.09
    }
    bias_filler {
      type: "constant"
      value: 0.2
    }
  }
}
layer {
  name: "inception_4c/relu_3x3_reduce"
  type: "ReLU"
  bottom: "inception_4c/3x3_reduce"
  top: "inception_4c/3x3_reduce"
}
layer {
  name: "inception_4c/3x3"
  type: "Convolution"
  bottom: "inception_4c/3x3_reduce"
  top: "inception_4c/3x3"
  param {
    lr_mult: 1
    decay_mult: 1
  }
  param {
    lr_mult: 2
    decay_mult: 0
  }
  convolution_param {
    num_output: 256
    pad: 1
    kernel_size: 3
    weight_filler {
      type: "xavier"
      std: 0.03
    }
    bias_filler {
      type: "constant"
      value: 0.2
    }
  }
}
layer {
  name: "inception_4c/relu_3x3"
  type: "ReLU"
  bottom: "inception_4c/3x3"
  top: "inception_4c/3x3"
}
layer {
  name: "inception_4c/5x5_reduce"
  type: "Convolution"
  bottom: "inception_4b/output"
  top: "inception_4c/5x5_reduce"
  param {
    lr_mult: 1
    decay_mult: 1
  }
  param {
    lr_mult: 2
    decay_mult: 0
  }
  convolution_param {
    num_output: 24
    kernel_size: 1
    weight_filler {
      type: "xavier"
      std: 0.2
    }
    bias_filler {
      type: "constant"
      value: 0.2
    }
  }
}
layer {
  name: "inception_4c/relu_5x5_reduce"
  type: "ReLU"
  bottom: "inception_4c/5x5_reduce"
  top: "inception_4c/5x5_reduce"
}
layer {
  name: "inception_4c/5x5"
  type: "Convolution"
  bottom: "inception_4c/5x5_reduce"
  top: "inception_4c/5x5"
  param {
    lr_mult: 1
    decay_mult: 1
  }
  param {
    lr_mult: 2
    decay_mult: 0
  }
  convolution_param {
    num_output: 64
    pad: 2
    kernel_size: 5
    weight_filler {
      type: "xavier"
      std: 0.03
    }
    bias_filler {
      type: "constant"
      value: 0.2
    }
  }
}
layer {
  name: "inception_4c/relu_5x5"
  type: "ReLU"
  bottom: "inception_4c/5x5"
  top: "inception_4c/5x5"
}
layer {
  name: "inception_4c/pool"
  type: "Pooling"
  bottom: "inception_4b/output"
  top: "inception_4c/pool"
  pooling_param {
    pool: MAX
    kernel_size: 3
    stride: 1
    pad: 1
  }
}
layer {
  name: "inception_4c/pool_proj"
  type: "Convolution"
  bottom: "inception_4c/pool"
  top: "inception_4c/pool_proj"
  param {
    lr_mult: 1
    decay_mult: 1
  }
  param {
    lr_mult: 2
    decay_mult: 0
  }
  convolution_param {
    num_output: 64
    kernel_size: 1
    weight_filler {
      type: "xavier"
      std: 0.1
    }
    bias_filler {
      type: "constant"
      value: 0.2
    }
  }
}
layer {
  name: "inception_4c/relu_pool_proj"
  type: "ReLU"
  bottom: "inception_4c/pool_proj"
  top: "inception_4c/pool_proj"
}
layer {
  name: "inception_4c/output"
  type: "Concat"
  bottom: "inception_4c/1x1"
  bottom: "inception_4c/3x3"
  bottom: "inception_4c/5x5"
  bottom: "inception_4c/pool_proj"
  top: "inception_4c/output"
}
layer {
  name: "inception_4d/1x1"
  type: "Convolution"
  bottom: "inception_4c/output"
  top: "inception_4d/1x1"
  param {
    lr_mult: 1
    decay_mult: 1
  }
  param {
    lr_mult: 2
    decay_mult: 0
  }
  convolution_param {
    num_output: 112
    kernel_size: 1
    weight_filler {
      type: "xavier"
      std: 0.03
    }
    bias_filler {
      type: "constant"
      value: 0.2
    }
  }
}
layer {
  name: "inception_4d/relu_1x1"
  type: "ReLU"
  bottom: "inception_4d/1x1"
  top: "inception_4d/1x1"
}
layer {
  name: "inception_4d/3x3_reduce"
  type: "Convolution"
  bottom: "inception_4c/output"
  top: "inception_4d/3x3_reduce"
  param {
    lr_mult: 1
    decay_mult: 1
  }
  param {
    lr_mult: 2
    decay_mult: 0
  }
  convolution_param {
    num_output: 144
    kernel_size: 1
    weight_filler {
      type: "xavier"
      std: 0.09
    }
    bias_filler {
      type: "constant"
      value: 0.2
    }
  }
}
layer {
  name: "inception_4d/relu_3x3_reduce"
  type: "ReLU"
  bottom: "inception_4d/3x3_reduce"
  top: "inception_4d/3x3_reduce"
}
layer {
  name: "inception_4d/3x3"
  type: "Convolution"
  bottom: "inception_4d/3x3_reduce"
  top: "inception_4d/3x3"
  param {
    lr_mult: 1
    decay_mult: 1
  }
  param {
    lr_mult: 2
    decay_mult: 0
  }
  convolution_param {
    num_output: 288
    pad: 1
    kernel_size: 3
    weight_filler {
      type: "xavier"
      std: 0.03
    }
    bias_filler {
      type: "constant"
      value: 0.2
    }
  }
}
layer {
  name: "inception_4d/relu_3x3"
  type: "ReLU"
  bottom: "inception_4d/3x3"
  top: "inception_4d/3x3"
}
layer {
  name: "inception_4d/5x5_reduce"
  type: "Convolution"
  bottom: "inception_4c/output"
  top: "inception_4d/5x5_reduce"
  param {
    lr_mult: 1
    decay_mult: 1
  }
  param {
    lr_mult: 2
    decay_mult: 0
  }
  convolution_param {
    num_output: 32
    kernel_size: 1
    weight_filler {
      type: "xavier"
      std: 0.2
    }
    bias_filler {
      type: "constant"
      value: 0.2
    }
  }
}
layer {
  name: "inception_4d/relu_5x5_reduce"
  type: "ReLU"
  bottom: "inception_4d/5x5_reduce"
  top: "inception_4d/5x5_reduce"
}
layer {
  name: "inception_4d/5x5"
  type: "Convolution"
  bottom: "inception_4d/5x5_reduce"
  top: "inception_4d/5x5"
  param {
    lr_mult: 1
    decay_mult: 1
  }
  param {
    lr_mult: 2
    decay_mult: 0
  }
  convolution_param {
    num_output: 64
    pad: 2
    kernel_size: 5
    weight_filler {
      type: "xavier"
      std: 0.03
    }
    bias_filler {
      type: "constant"
      value: 0.2
    }
  }
}
layer {
  name: "inception_4d/relu_5x5"
  type: "ReLU"
  bottom: "inception_4d/5x5"
  top: "inception_4d/5x5"
}
layer {
  name: "inception_4d/pool"
  type: "Pooling"
  bottom: "inception_4c/output"
  top: "inception_4d/pool"
  pooling_param {
    pool: MAX
    kernel_size: 3
    stride: 1
    pad: 1
  }
}
layer {
  name: "inception_4d/pool_proj"
  type: "Convolution"
  bottom: "inception_4d/pool"
  top: "inception_4d/pool_proj"
  param {
    lr_mult: 1
    decay_mult: 1
  }
  param {
    lr_mult: 2
    decay_mult: 0
  }
  convolution_param {
    num_output: 64
    kernel_size: 1
    weight_filler {
      type: "xavier"
      std: 0.1
    }
    bias_filler {
      type: "constant"
      value: 0.2
    }
  }
}
layer {
  name: "inception_4d/relu_pool_proj"
  type: "ReLU"
  bottom: "inception_4d/pool_proj"
  top: "inception_4d/pool_proj"
}
layer {
  name: "inception_4d/output"
  type: "Concat"
  bottom: "inception_4d/1x1"
  bottom: "inception_4d/3x3"
  bottom: "inception_4d/5x5"
  bottom: "inception_4d/pool_proj"
  top: "inception_4d/output"
}
layer {
  name: "loss2/ave_pool"
  type: "Pooling"
  bottom: "inception_4d/output"
  top: "loss2/ave_pool"
  pooling_param {
    pool: AVE
    kernel_size: 5
    stride: 3
  }
}
layer {
  name: "loss2/conv"
  type: "Convolution"
  bottom: "loss2/ave_pool"
  top: "loss2/conv"
  param {
    lr_mult: 1
    decay_mult: 1
  }
  param {
    lr_mult: 2
    decay_mult: 0
  }
  convolution_param {
    num_output: 128
    kernel_size: 1
    weight_filler {
      type: "xavier"
      std: 0.08
    }
    bias_filler {
      type: "constant"
      value: 0.2
    }
  }
}
layer {
  name: "loss2/relu_conv"
  type: "ReLU"
  bottom: "loss2/conv"
  top: "loss2/conv"
}
layer {
  name: "loss2/fc"
  type: "InnerProduct"
  bottom: "loss2/conv"
  top: "loss2/fc"
  param {
    lr_mult: 1
    decay_mult: 1
  }
  param {
    lr_mult: 2
    decay_mult: 0
  }
  inner_product_param {
    num_output: 1024
    weight_filler {
      type: "xavier"
      std: 0.02
    }
    bias_filler {
      type: "constant"
      value: 0.2
    }
  }
}
layer {
  name: "loss2/relu_fc"
  type: "ReLU"
  bottom: "loss2/fc"
  top: "loss2/fc"
}
layer {
  name: "loss2/drop_fc"
  type: "Dropout"
  bottom: "loss2/fc"
  top: "loss2/fc"
  dropout_param {
    dropout_ratio: 0.7
  }
}
layer {
  name: "loss2/classifier_plantvillage"
  type: "InnerProduct"
  bottom: "loss2/fc"
  top: "loss2/classifier_plantvillage"
  param {
    lr_mult: 1
    decay_mult: 1
  }
  param {
    lr_mult: 2
    decay_mult: 0
  }
  inner_product_param {
    num_output: 38
    weight_filler {
      type: "xavier"
      std: 0.0009765625
    }
    bias_filler {
      type: "constant"
      value: 0
    }
  }
}
layer {
  name: "inception_4e/1x1"
  type: "Convolution"
  bottom: "inception_4d/output"
  top: "inception_4e/1x1"
  param {
    lr_mult: 1
    decay_mult: 1
  }
  param {
    lr_mult: 2
    decay_mult: 0
  }
  convolution_param {
    num_output: 256
    kernel_size: 1
    weight_filler {
      type: "xavier"
      std: 0.03
    }
    bias_filler {
      type: "constant"
      value: 0.2
    }
  }
}
layer {
  name: "inception_4e/relu_1x1"
  type: "ReLU"
  bottom: "inception_4e/1x1"
  top: "inception_4e/1x1"
}
layer {
  name: "inception_4e/3x3_reduce"
  type: "Convolution"
  bottom: "inception_4d/output"
  top: "inception_4e/3x3_reduce"
  param {
    lr_mult: 1
    decay_mult: 1
  }
  param {
    lr_mult: 2
    decay_mult: 0
  }
  convolution_param {
    num_output: 160
    kernel_size: 1
    weight_filler {
      type: "xavier"
      std: 0.09
    }
    bias_filler {
      type: "constant"
      value: 0.2
    }
  }
}
layer {
  name: "inception_4e/relu_3x3_reduce"
  type: "ReLU"
  bottom: "inception_4e/3x3_reduce"
  top: "inception_4e/3x3_reduce"
}
layer {
  name: "inception_4e/3x3"
  type: "Convolution"
  bottom: "inception_4e/3x3_reduce"
  top: "inception_4e/3x3"
  param {
    lr_mult: 1
    decay_mult: 1
  }
  param {
    lr_mult: 2
    decay_mult: 0
  }
  convolution_param {
    num_output: 320
    pad: 1
    kernel_size: 3
    weight_filler {
      type: "xavier"
      std: 0.03
    }
    bias_filler {
      type: "constant"
      value: 0.2
    }
  }
}
layer {
  name: "inception_4e/relu_3x3"
  type: "ReLU"
  bottom: "inception_4e/3x3"
  top: "inception_4e/3x3"
}
layer {
  name: "inception_4e/5x5_reduce"
  type: "Convolution"
  bottom: "inception_4d/output"
  top: "inception_4e/5x5_reduce"
  param {
    lr_mult: 1
    decay_mult: 1
  }
  param {
    lr_mult: 2
    decay_mult: 0
  }
  convolution_param {
    num_output: 32
    kernel_size: 1
    weight_filler {
      type: "xavier"
      std: 0.2
    }
    bias_filler {
      type: "constant"
      value: 0.2
    }
  }
}
layer {
  name: "inception_4e/relu_5x5_reduce"
  type: "ReLU"
  bottom: "inception_4e/5x5_reduce"
  top: "inception_4e/5x5_reduce"
}
layer {
  name: "inception_4e/5x5"
  type: "Convolution"
  bottom: "inception_4e/5x5_reduce"
  top: "inception_4e/
I0403 15:19:14.518878 31448 layer_factory.hpp:77] Creating layer data
I0403 15:19:14.519508 31448 net.cpp:91] Creating Layer data
I0403 15:19:14.519557 31448 net.cpp:399] data -> data
I0403 15:19:14.519631 31448 net.cpp:399] data -> label
I0403 15:19:14.519672 31448 data_transformer.cpp:25] Loading mean file from: /home/mohanty/data/final_dataset/lmdb/grayscale-80-20/mean.binaryproto
I0403 15:19:14.522552 31459 db_lmdb.cpp:38] Opened lmdb /home/mohanty/data/final_dataset/lmdb/grayscale-80-20/test_db
I0403 15:19:14.533490 31448 data_layer.cpp:41] output data size: 24,3,224,224
I0403 15:19:14.561856 31448 net.cpp:141] Setting up data
I0403 15:19:14.561938 31448 net.cpp:148] Top shape: 24 3 224 224 (3612672)
I0403 15:19:14.561961 31448 net.cpp:148] Top shape: 24 (24)
I0403 15:19:14.561977 31448 net.cpp:156] Memory required for data: 14450784
I0403 15:19:14.562008 31448 layer_factory.hpp:77] Creating layer label_data_1_split
I0403 15:19:14.562034 31448 net.cpp:91] Creating Layer label_data_1_split
I0403 15:19:14.562053 31448 net.cpp:425] label_data_1_split <- label
I0403 15:19:14.562086 31448 net.cpp:399] label_data_1_split -> label_data_1_split_0
I0403 15:19:14.562114 31448 net.cpp:399] label_data_1_split -> label_data_1_split_1
I0403 15:19:14.562135 31448 net.cpp:399] label_data_1_split -> label_data_1_split_2
I0403 15:19:14.562157 31448 net.cpp:399] label_data_1_split -> label_data_1_split_3
I0403 15:19:14.562178 31448 net.cpp:399] label_data_1_split -> label_data_1_split_4
I0403 15:19:14.562199 31448 net.cpp:399] label_data_1_split -> label_data_1_split_5
I0403 15:19:14.562219 31448 net.cpp:399] label_data_1_split -> label_data_1_split_6
I0403 15:19:14.562239 31448 net.cpp:399] label_data_1_split -> label_data_1_split_7
I0403 15:19:14.562259 31448 net.cpp:399] label_data_1_split -> label_data_1_split_8
I0403 15:19:14.562280 31448 net.cpp:399] label_data_1_split -> label_data_1_split_9
I0403 15:19:14.562392 31448 net.cpp:141] Setting up label_data_1_split
I0403 15:19:14.562419 31448 net.cpp:148] Top shape: 24 (24)
I0403 15:19:14.562438 31448 net.cpp:148] Top shape: 24 (24)
I0403 15:19:14.562454 31448 net.cpp:148] Top shape: 24 (24)
I0403 15:19:14.562471 31448 net.cpp:148] Top shape: 24 (24)
I0403 15:19:14.562489 31448 net.cpp:148] Top shape: 24 (24)
I0403 15:19:14.562505 31448 net.cpp:148] Top shape: 24 (24)
I0403 15:19:14.562520 31448 net.cpp:148] Top shape: 24 (24)
I0403 15:19:14.562541 31448 net.cpp:148] Top shape: 24 (24)
I0403 15:19:14.562559 31448 net.cpp:148] Top shape: 24 (24)
I0403 15:19:14.562577 31448 net.cpp:148] Top shape: 24 (24)
I0403 15:19:14.562623 31448 net.cpp:156] Memory required for data: 14451744
I0403 15:19:14.562640 31448 layer_factory.hpp:77] Creating layer conv1/7x7_s2
I0403 15:19:14.562674 31448 net.cpp:91] Creating Layer conv1/7x7_s2
I0403 15:19:14.562695 31448 net.cpp:425] conv1/7x7_s2 <- data
I0403 15:19:14.562714 31448 net.cpp:399] conv1/7x7_s2 -> conv1/7x7_s2
I0403 15:19:14.703404 31448 net.cpp:141] Setting up conv1/7x7_s2
I0403 15:19:14.703480 31448 net.cpp:148] Top shape: 24 64 112 112 (19267584)
I0403 15:19:14.703500 31448 net.cpp:156] Memory required for data: 91522080
I0403 15:19:14.703564 31448 layer_factory.hpp:77] Creating layer conv1/relu_7x7
I0403 15:19:14.703616 31448 net.cpp:91] Creating Layer conv1/relu_7x7
I0403 15:19:14.703647 31448 net.cpp:425] conv1/relu_7x7 <- conv1/7x7_s2
I0403 15:19:14.703680 31448 net.cpp:386] conv1/relu_7x7 -> conv1/7x7_s2 (in-place)
I0403 15:19:14.703971 31448 net.cpp:141] Setting up conv1/relu_7x7
I0403 15:19:14.704011 31448 net.cpp:148] Top shape: 24 64 112 112 (19267584)
I0403 15:19:14.704051 31448 net.cpp:156] Memory required for data: 168592416
I0403 15:19:14.704082 31448 layer_factory.hpp:77] Creating layer pool1/3x3_s2
I0403 15:19:14.704116 31448 net.cpp:91] Creating Layer pool1/3x3_s2
I0403 15:19:14.704149 31448 net.cpp:425] pool1/3x3_s2 <- conv1/7x7_s2
I0403 15:19:14.704174 31448 net.cpp:399] pool1/3x3_s2 -> pool1/3x3_s2
I0403 15:19:14.704283 31448 net.cpp:141] Setting up pool1/3x3_s2
I0403 15:19:14.704313 31448 net.cpp:148] Top shape: 24 64 56 56 (4816896)
I0403 15:19:14.704330 31448 net.cpp:156] Memory required for data: 187860000
I0403 15:19:14.704356 31448 layer_factory.hpp:77] Creating layer pool1/norm1
I0403 15:19:14.704391 31448 net.cpp:91] Creating Layer pool1/norm1
I0403 15:19:14.704423 31448 net.cpp:425] pool1/norm1 <- pool1/3x3_s2
I0403 15:19:14.704447 31448 net.cpp:399] pool1/norm1 -> pool1/norm1
I0403 15:19:14.704777 31448 net.cpp:141] Setting up pool1/norm1
I0403 15:19:14.704804 31448 net.cpp:148] Top shape: 24 64 56 56 (4816896)
I0403 15:19:14.704833 31448 net.cpp:156] Memory required for data: 207127584
I0403 15:19:14.704849 31448 layer_factory.hpp:77] Creating layer conv2/3x3_reduce
I0403 15:19:14.704877 31448 net.cpp:91] Creating Layer conv2/3x3_reduce
I0403 15:19:14.704895 31448 net.cpp:425] conv2/3x3_reduce <- pool1/norm1
I0403 15:19:14.704913 31448 net.cpp:399] conv2/3x3_reduce -> conv2/3x3_reduce
I0403 15:19:14.706235 31448 net.cpp:141] Setting up conv2/3x3_reduce
I0403 15:19:14.706272 31448 net.cpp:148] Top shape: 24 64 56 56 (4816896)
I0403 15:19:14.706291 31448 net.cpp:156] Memory required for data: 226395168
I0403 15:19:14.706313 31448 layer_factory.hpp:77] Creating layer conv2/relu_3x3_reduce
I0403 15:19:14.706332 31448 net.cpp:91] Creating Layer conv2/relu_3x3_reduce
I0403 15:19:14.706351 31448 net.cpp:425] conv2/relu_3x3_reduce <- conv2/3x3_reduce
I0403 15:19:14.706370 31448 net.cpp:386] conv2/relu_3x3_reduce -> conv2/3x3_reduce (in-place)
I0403 15:19:14.706641 31448 net.cpp:141] Setting up conv2/relu_3x3_reduce
I0403 15:19:14.706670 31448 net.cpp:148] Top shape: 24 64 56 56 (4816896)
I0403 15:19:14.706686 31448 net.cpp:156] Memory required for data: 245662752
I0403 15:19:14.706702 31448 layer_factory.hpp:77] Creating layer conv2/3x3
I0403 15:19:14.706724 31448 net.cpp:91] Creating Layer conv2/3x3
I0403 15:19:14.706742 31448 net.cpp:425] conv2/3x3 <- conv2/3x3_reduce
I0403 15:19:14.706760 31448 net.cpp:399] conv2/3x3 -> conv2/3x3
I0403 15:19:14.709050 31448 net.cpp:141] Setting up conv2/3x3
I0403 15:19:14.709086 31448 net.cpp:148] Top shape: 24 192 56 56 (14450688)
I0403 15:19:14.709105 31448 net.cpp:156] Memory required for data: 303465504
I0403 15:19:14.709126 31448 layer_factory.hpp:77] Creating layer conv2/relu_3x3
I0403 15:19:14.709146 31448 net.cpp:91] Creating Layer conv2/relu_3x3
I0403 15:19:14.709162 31448 net.cpp:425] conv2/relu_3x3 <- conv2/3x3
I0403 15:19:14.709183 31448 net.cpp:386] conv2/relu_3x3 -> conv2/3x3 (in-place)
I0403 15:19:14.709359 31448 net.cpp:141] Setting up conv2/relu_3x3
I0403 15:19:14.709394 31448 net.cpp:148] Top shape: 24 192 56 56 (14450688)
I0403 15:19:14.709442 31448 net.cpp:156] Memory required for data: 361268256
I0403 15:19:14.709468 31448 layer_factory.hpp:77] Creating layer conv2/norm2
I0403 15:19:14.709499 31448 net.cpp:91] Creating Layer conv2/norm2
I0403 15:19:14.709525 31448 net.cpp:425] conv2/norm2 <- conv2/3x3
I0403 15:19:14.709561 31448 net.cpp:399] conv2/norm2 -> conv2/norm2
I0403 15:19:14.709877 31448 net.cpp:141] Setting up conv2/norm2
I0403 15:19:14.709909 31448 net.cpp:148] Top shape: 24 192 56 56 (14450688)
I0403 15:19:14.709930 31448 net.cpp:156] Memory required for data: 419071008
I0403 15:19:14.709952 31448 layer_factory.hpp:77] Creating layer pool2/3x3_s2
I0403 15:19:14.709980 31448 net.cpp:91] Creating Layer pool2/3x3_s2
I0403 15:19:14.710003 31448 net.cpp:425] pool2/3x3_s2 <- conv2/norm2
I0403 15:19:14.710028 31448 net.cpp:399] pool2/3x3_s2 -> pool2/3x3_s2
I0403 15:19:14.710083 31448 net.cpp:141] Setting up pool2/3x3_s2
I0403 15:19:14.710113 31448 net.cpp:148] Top shape: 24 192 28 28 (3612672)
I0403 15:19:14.710134 31448 net.cpp:156] Memory required for data: 433521696
I0403 15:19:14.710155 31448 layer_factory.hpp:77] Creating layer pool2/3x3_s2_pool2/3x3_s2_0_split
I0403 15:19:14.710178 31448 net.cpp:91] Creating Layer pool2/3x3_s2_pool2/3x3_s2_0_split
I0403 15:19:14.710201 31448 net.cpp:425] pool2/3x3_s2_pool2/3x3_s2_0_split <- pool2/3x3_s2
I0403 15:19:14.710224 31448 net.cpp:399] pool2/3x3_s2_pool2/3x3_s2_0_split -> pool2/3x3_s2_pool2/3x3_s2_0_split_0
I0403 15:19:14.710253 31448 net.cpp:399] pool2/3x3_s2_pool2/3x3_s2_0_split -> pool2/3x3_s2_pool2/3x3_s2_0_split_1
I0403 15:19:14.710279 31448 net.cpp:399] pool2/3x3_s2_pool2/3x3_s2_0_split -> pool2/3x3_s2_pool2/3x3_s2_0_split_2
I0403 15:19:14.710302 31448 net.cpp:399] pool2/3x3_s2_pool2/3x3_s2_0_split -> pool2/3x3_s2_pool2/3x3_s2_0_split_3
I0403 15:19:14.710378 31448 net.cpp:141] Setting up pool2/3x3_s2_pool2/3x3_s2_0_split
I0403 15:19:14.710405 31448 net.cpp:148] Top shape: 24 192 28 28 (3612672)
I0403 15:19:14.710427 31448 net.cpp:148] Top shape: 24 192 28 28 (3612672)
I0403 15:19:14.710448 31448 net.cpp:148] Top shape: 24 192 28 28 (3612672)
I0403 15:19:14.710471 31448 net.cpp:148] Top shape: 24 192 28 28 (3612672)
I0403 15:19:14.710489 31448 net.cpp:156] Memory required for data: 491324448
I0403 15:19:14.710508 31448 layer_factory.hpp:77] Creating layer inception_3a/1x1
I0403 15:19:14.710541 31448 net.cpp:91] Creating Layer inception_3a/1x1
I0403 15:19:14.710563 31448 net.cpp:425] inception_3a/1x1 <- pool2/3x3_s2_pool2/3x3_s2_0_split_0
I0403 15:19:14.710593 31448 net.cpp:399] inception_3a/1x1 -> inception_3a/1x1
I0403 15:19:14.712141 31448 net.cpp:141] Setting up inception_3a/1x1
I0403 15:19:14.712185 31448 net.cpp:148] Top shape: 24 64 28 28 (1204224)
I0403 15:19:14.712208 31448 net.cpp:156] Memory required for data: 496141344
I0403 15:19:14.712230 31448 layer_factory.hpp:77] Creating layer inception_3a/relu_1x1
I0403 15:19:14.712255 31448 net.cpp:91] Creating Layer inception_3a/relu_1x1
I0403 15:19:14.712275 31448 net.cpp:425] inception_3a/relu_1x1 <- inception_3a/1x1
I0403 15:19:14.712296 31448 net.cpp:386] inception_3a/relu_1x1 -> inception_3a/1x1 (in-place)
I0403 15:19:14.712503 31448 net.cpp:141] Setting up inception_3a/relu_1x1
I0403 15:19:14.712540 31448 net.cpp:148] Top shape: 24 64 28 28 (1204224)
I0403 15:19:14.712566 31448 net.cpp:156] Memory required for data: 500958240
I0403 15:19:14.712584 31448 layer_factory.hpp:77] Creating layer inception_3a/3x3_reduce
I0403 15:19:14.712609 31448 net.cpp:91] Creating Layer inception_3a/3x3_reduce
I0403 15:19:14.712626 31448 net.cpp:425] inception_3a/3x3_reduce <- pool2/3x3_s2_pool2/3x3_s2_0_split_1
I0403 15:19:14.712661 31448 net.cpp:399] inception_3a/3x3_reduce -> inception_3a/3x3_reduce
I0403 15:19:14.714401 31448 net.cpp:141] Setting up inception_3a/3x3_reduce
I0403 15:19:14.714433 31448 net.cpp:148] Top shape: 24 96 28 28 (1806336)
I0403 15:19:14.714450 31448 net.cpp:156] Memory required for data: 508183584
I0403 15:19:14.714476 31448 layer_factory.hpp:77] Creating layer inception_3a/relu_3x3_reduce
I0403 15:19:14.714514 31448 net.cpp:91] Creating Layer inception_3a/relu_3x3_reduce
I0403 15:19:14.714545 31448 net.cpp:425] inception_3a/relu_3x3_reduce <- inception_3a/3x3_reduce
I0403 15:19:14.714572 31448 net.cpp:386] inception_3a/relu_3x3_reduce -> inception_3a/3x3_reduce (in-place)
I0403 15:19:14.714774 31448 net.cpp:141] Setting up inception_3a/relu_3x3_reduce
I0403 15:19:14.714807 31448 net.cpp:148] Top shape: 24 96 28 28 (1806336)
I0403 15:19:14.714828 31448 net.cpp:156] Memory required for data: 515408928
I0403 15:19:14.714849 31448 layer_factory.hpp:77] Creating layer inception_3a/3x3
I0403 15:19:14.714879 31448 net.cpp:91] Creating Layer inception_3a/3x3
I0403 15:19:14.714905 31448 net.cpp:425] inception_3a/3x3 <- inception_3a/3x3_reduce
I0403 15:19:14.714932 31448 net.cpp:399] inception_3a/3x3 -> inception_3a/3x3
I0403 15:19:14.716650 31448 net.cpp:141] Setting up inception_3a/3x3
I0403 15:19:14.716691 31448 net.cpp:148] Top shape: 24 128 28 28 (2408448)
I0403 15:19:14.716716 31448 net.cpp:156] Memory required for data: 525042720
I0403 15:19:14.716744 31448 layer_factory.hpp:77] Creating layer inception_3a/relu_3x3
I0403 15:19:14.716773 31448 net.cpp:91] Creating Layer inception_3a/relu_3x3
I0403 15:19:14.716796 31448 net.cpp:425] inception_3a/relu_3x3 <- inception_3a/3x3
I0403 15:19:14.716827 31448 net.cpp:386] inception_3a/relu_3x3 -> inception_3a/3x3 (in-place)
I0403 15:19:14.717118 31448 net.cpp:141] Setting up inception_3a/relu_3x3
I0403 15:19:14.717156 31448 net.cpp:148] Top shape: 24 128 28 28 (2408448)
I0403 15:19:14.717185 31448 net.cpp:156] Memory required for data: 534676512
I0403 15:19:14.717205 31448 layer_factory.hpp:77] Creating layer inception_3a/5x5_reduce
I0403 15:19:14.717242 31448 net.cpp:91] Creating Layer inception_3a/5x5_reduce
I0403 15:19:14.717267 31448 net.cpp:425] inception_3a/5x5_reduce <- pool2/3x3_s2_pool2/3x3_s2_0_split_2
I0403 15:19:14.717294 31448 net.cpp:399] inception_3a/5x5_reduce -> inception_3a/5x5_reduce
I0403 15:19:14.718320 31448 net.cpp:141] Setting up inception_3a/5x5_reduce
I0403 15:19:14.718350 31448 net.cpp:148] Top shape: 24 16 28 28 (301056)
I0403 15:19:14.718367 31448 net.cpp:156] Memory required for data: 535880736
I0403 15:19:14.718386 31448 layer_factory.hpp:77] Creating layer inception_3a/relu_5x5_reduce
I0403 15:19:14.718405 31448 net.cpp:91] Creating Layer inception_3a/relu_5x5_reduce
I0403 15:19:14.718421 31448 net.cpp:425] inception_3a/relu_5x5_reduce <- inception_3a/5x5_reduce
I0403 15:19:14.718443 31448 net.cpp:386] inception_3a/relu_5x5_reduce -> inception_3a/5x5_reduce (in-place)
I0403 15:19:14.718757 31448 net.cpp:141] Setting up inception_3a/relu_5x5_reduce
I0403 15:19:14.718786 31448 net.cpp:148] Top shape: 24 16 28 28 (301056)
I0403 15:19:14.718801 31448 net.cpp:156] Memory required for data: 537084960
I0403 15:19:14.718816 31448 layer_factory.hpp:77] Creating layer inception_3a/5x5
I0403 15:19:14.718839 31448 net.cpp:91] Creating Layer inception_3a/5x5
I0403 15:19:14.718858 31448 net.cpp:425] inception_3a/5x5 <- inception_3a/5x5_reduce
I0403 15:19:14.718880 31448 net.cpp:399] inception_3a/5x5 -> inception_3a/5x5
I0403 15:19:14.719907 31448 net.cpp:141] Setting up inception_3a/5x5
I0403 15:19:14.719938 31448 net.cpp:148] Top shape: 24 32 28 28 (602112)
I0403 15:19:14.719955 31448 net.cpp:156] Memory required for data: 539493408
I0403 15:19:14.719975 31448 layer_factory.hpp:77] Creating layer inception_3a/relu_5x5
I0403 15:19:14.719995 31448 net.cpp:91] Creating Layer inception_3a/relu_5x5
I0403 15:19:14.720011 31448 net.cpp:425] inception_3a/relu_5x5 <- inception_3a/5x5
I0403 15:19:14.720029 31448 net.cpp:386] inception_3a/relu_5x5 -> inception_3a/5x5 (in-place)
I0403 15:19:14.720207 31448 net.cpp:141] Setting up inception_3a/relu_5x5
I0403 15:19:14.720233 31448 net.cpp:148] Top shape: 24 32 28 28 (602112)
I0403 15:19:14.720249 31448 net.cpp:156] Memory required for data: 541901856
I0403 15:19:14.720264 31448 layer_factory.hpp:77] Creating layer inception_3a/pool
I0403 15:19:14.720283 31448 net.cpp:91] Creating Layer inception_3a/pool
I0403 15:19:14.720314 31448 net.cpp:425] inception_3a/pool <- pool2/3x3_s2_pool2/3x3_s2_0_split_3
I0403 15:19:14.720336 31448 net.cpp:399] inception_3a/pool -> inception_3a/pool
I0403 15:19:14.720394 31448 net.cpp:141] Setting up inception_3a/pool
I0403 15:19:14.720422 31448 net.cpp:148] Top shape: 24 192 28 28 (3612672)
I0403 15:19:14.720438 31448 net.cpp:156] Memory required for data: 556352544
I0403 15:19:14.720453 31448 layer_factory.hpp:77] Creating layer inception_3a/pool_proj
I0403 15:19:14.720476 31448 net.cpp:91] Creating Layer inception_3a/pool_proj
I0403 15:19:14.720494 31448 net.cpp:425] inception_3a/pool_proj <- inception_3a/pool
I0403 15:19:14.720513 31448 net.cpp:399] inception_3a/pool_proj -> inception_3a/pool_proj
I0403 15:19:14.721487 31448 net.cpp:141] Setting up inception_3a/pool_proj
I0403 15:19:14.721518 31448 net.cpp:148] Top shape: 24 32 28 28 (602112)
I0403 15:19:14.721550 31448 net.cpp:156] Memory required for data: 558760992
I0403 15:19:14.721576 31448 layer_factory.hpp:77] Creating layer inception_3a/relu_pool_proj
I0403 15:19:14.721597 31448 net.cpp:91] Creating Layer inception_3a/relu_pool_proj
I0403 15:19:14.721613 31448 net.cpp:425] inception_3a/relu_pool_proj <- inception_3a/pool_proj
I0403 15:19:14.721633 31448 net.cpp:386] inception_3a/relu_pool_proj -> inception_3a/pool_proj (in-place)
I0403 15:19:14.721915 31448 net.cpp:141] Setting up inception_3a/relu_pool_proj
I0403 15:19:14.721946 31448 net.cpp:148] Top shape: 24 32 28 28 (602112)
I0403 15:19:14.721962 31448 net.cpp:156] Memory required for data: 561169440
I0403 15:19:14.721977 31448 layer_factory.hpp:77] Creating layer inception_3a/output
I0403 15:19:14.721997 31448 net.cpp:91] Creating Layer inception_3a/output
I0403 15:19:14.722012 31448 net.cpp:425] inception_3a/output <- inception_3a/1x1
I0403 15:19:14.722029 31448 net.cpp:425] inception_3a/output <- inception_3a/3x3
I0403 15:19:14.722045 31448 net.cpp:425] inception_3a/output <- inception_3a/5x5
I0403 15:19:14.722062 31448 net.cpp:425] inception_3a/output <- inception_3a/pool_proj
I0403 15:19:14.722084 31448 net.cpp:399] inception_3a/output -> inception_3a/output
I0403 15:19:14.722133 31448 net.cpp:141] Setting up inception_3a/output
I0403 15:19:14.722157 31448 net.cpp:148] Top shape: 24 256 28 28 (4816896)
I0403 15:19:14.722173 31448 net.cpp:156] Memory required for data: 580437024
I0403 15:19:14.722189 31448 layer_factory.hpp:77] Creating layer inception_3a/output_inception_3a/output_0_split
I0403 15:19:14.722209 31448 net.cpp:91] Creating Layer inception_3a/output_inception_3a/output_0_split
I0403 15:19:14.722232 31448 net.cpp:425] inception_3a/output_inception_3a/output_0_split <- inception_3a/output
I0403 15:19:14.722249 31448 net.cpp:399] inception_3a/output_inception_3a/output_0_split -> inception_3a/output_inception_3a/output_0_split_0
I0403 15:19:14.722270 31448 net.cpp:399] inception_3a/output_inception_3a/output_0_split -> inception_3a/output_inception_3a/output_0_split_1
I0403 15:19:14.722295 31448 net.cpp:399] inception_3a/output_inception_3a/output_0_split -> inception_3a/output_inception_3a/output_0_split_2
I0403 15:19:14.722317 31448 net.cpp:399] inception_3a/output_inception_3a/output_0_split -> inception_3a/output_inception_3a/output_0_split_3
I0403 15:19:14.722393 31448 net.cpp:141] Setting up inception_3a/output_inception_3a/output_0_split
I0403 15:19:14.722417 31448 net.cpp:148] Top shape: 24 256 28 28 (4816896)
I0403 15:19:14.722435 31448 net.cpp:148] Top shape: 24 256 28 28 (4816896)
I0403 15:19:14.722451 31448 net.cpp:148] Top shape: 24 256 28 28 (4816896)
I0403 15:19:14.722468 31448 net.cpp:148] Top shape: 24 256 28 28 (4816896)
I0403 15:19:14.722482 31448 net.cpp:156] Memory required for data: 657507360
I0403 15:19:14.722497 31448 layer_factory.hpp:77] Creating layer inception_3b/1x1
I0403 15:19:14.722522 31448 net.cpp:91] Creating Layer inception_3b/1x1
I0403 15:19:14.722546 31448 net.cpp:425] inception_3b/1x1 <- inception_3a/output_inception_3a/output_0_split_0
I0403 15:19:14.722569 31448 net.cpp:399] inception_3b/1x1 -> inception_3b/1x1
I0403 15:19:14.723760 31448 net.cpp:141] Setting up inception_3b/1x1
I0403 15:19:14.723803 31448 net.cpp:148] Top shape: 24 128 28 28 (2408448)
I0403 15:19:14.723820 31448 net.cpp:156] Memory required for data: 667141152
I0403 15:19:14.723840 31448 layer_factory.hpp:77] Creating layer inception_3b/relu_1x1
I0403 15:19:14.723863 31448 net.cpp:91] Creating Layer inception_3b/relu_1x1
I0403 15:19:14.723882 31448 net.cpp:425] inception_3b/relu_1x1 <- inception_3b/1x1
I0403 15:19:14.723901 31448 net.cpp:386] inception_3b/relu_1x1 -> inception_3b/1x1 (in-place)
I0403 15:19:14.724097 31448 net.cpp:141] Setting up inception_3b/relu_1x1
I0403 15:19:14.724128 31448 net.cpp:148] Top shape: 24 128 28 28 (2408448)
I0403 15:19:14.724146 31448 net.cpp:156] Memory required for data: 676774944
I0403 15:19:14.724169 31448 layer_factory.hpp:77] Creating layer inception_3b/3x3_reduce
I0403 15:19:14.724200 31448 net.cpp:91] Creating Layer inception_3b/3x3_reduce
I0403 15:19:14.724225 31448 net.cpp:425] inception_3b/3x3_reduce <- inception_3a/output_inception_3a/output_0_split_1
I0403 15:19:14.724256 31448 net.cpp:399] inception_3b/3x3_reduce -> inception_3b/3x3_reduce
I0403 15:19:14.725425 31448 net.cpp:141] Setting up inception_3b/3x3_reduce
I0403 15:19:14.725461 31448 net.cpp:148] Top shape: 24 128 28 28 (2408448)
I0403 15:19:14.725482 31448 net.cpp:156] Memory required for data: 686408736
I0403 15:19:14.725508 31448 layer_factory.hpp:77] Creating layer inception_3b/relu_3x3_reduce
I0403 15:19:14.725546 31448 net.cpp:91] Creating Layer inception_3b/relu_3x3_reduce
I0403 15:19:14.725572 31448 net.cpp:425] inception_3b/relu_3x3_reduce <- inception_3b/3x3_reduce
I0403 15:19:14.725599 31448 net.cpp:386] inception_3b/relu_3x3_reduce -> inception_3b/3x3_reduce (in-place)
I0403 15:19:14.725785 31448 net.cpp:141] Setting up inception_3b/relu_3x3_reduce
I0403 15:19:14.725819 31448 net.cpp:148] Top shape: 24 128 28 28 (2408448)
I0403 15:19:14.725841 31448 net.cpp:156] Memory required for data: 696042528
I0403 15:19:14.725862 31448 layer_factory.hpp:77] Creating layer inception_3b/3x3
I0403 15:19:14.725895 31448 net.cpp:91] Creating Layer inception_3b/3x3
I0403 15:19:14.725926 31448 net.cpp:425] inception_3b/3x3 <- inception_3b/3x3_reduce
I0403 15:19:14.725955 31448 net.cpp:399] inception_3b/3x3 -> inception_3b/3x3
I0403 15:19:14.728978 31448 net.cpp:141] Setting up inception_3b/3x3
I0403 15:19:14.729012 31448 net.cpp:148] Top shape: 24 192 28 28 (3612672)
I0403 15:19:14.729033 31448 net.cpp:156] Memory required for data: 710493216
I0403 15:19:14.729059 31448 layer_factory.hpp:77] Creating layer inception_3b/relu_3x3
I0403 15:19:14.729084 31448 net.cpp:91] Creating Layer inception_3b/relu_3x3
I0403 15:19:14.729104 31448 net.cpp:425] inception_3b/relu_3x3 <- inception_3b/3x3
I0403 15:19:14.729133 31448 net.cpp:386] inception_3b/relu_3x3 -> inception_3b/3x3 (in-place)
I0403 15:19:14.729419 31448 net.cpp:141] Setting up inception_3b/relu_3x3
I0403 15:19:14.729456 31448 net.cpp:148] Top shape: 24 192 28 28 (3612672)
I0403 15:19:14.729480 31448 net.cpp:156] Memory required for data: 724943904
I0403 15:19:14.729502 31448 layer_factory.hpp:77] Creating layer inception_3b/5x5_reduce
I0403 15:19:14.729540 31448 net.cpp:91] Creating Layer inception_3b/5x5_reduce
I0403 15:19:14.729567 31448 net.cpp:425] inception_3b/5x5_reduce <- inception_3a/output_inception_3a/output_0_split_2
I0403 15:19:14.729593 31448 net.cpp:399] inception_3b/5x5_reduce -> inception_3b/5x5_reduce
I0403 15:19:14.730608 31448 net.cpp:141] Setting up inception_3b/5x5_reduce
I0403 15:19:14.730644 31448 net.cpp:148] Top shape: 24 32 28 28 (602112)
I0403 15:19:14.730669 31448 net.cpp:156] Memory required for data: 727352352
I0403 15:19:14.730697 31448 layer_factory.hpp:77] Creating layer inception_3b/relu_5x5_reduce
I0403 15:19:14.730720 31448 net.cpp:91] Creating Layer inception_3b/relu_5x5_reduce
I0403 15:19:14.730741 31448 net.cpp:425] inception_3b/relu_5x5_reduce <- inception_3b/5x5_reduce
I0403 15:19:14.730768 31448 net.cpp:386] inception_3b/relu_5x5_reduce -> inception_3b/5x5_reduce (in-place)
I0403 15:19:14.730973 31448 net.cpp:141] Setting up inception_3b/relu_5x5_reduce
I0403 15:19:14.731004 31448 net.cpp:148] Top shape: 24 32 28 28 (602112)
I0403 15:19:14.731029 31448 net.cpp:156] Memory required for data: 729760800
I0403 15:19:14.731051 31448 layer_factory.hpp:77] Creating layer inception_3b/5x5
I0403 15:19:14.731076 31448 net.cpp:91] Creating Layer inception_3b/5x5
I0403 15:19:14.731096 31448 net.cpp:425] inception_3b/5x5 <- inception_3b/5x5_reduce
I0403 15:19:14.731127 31448 net.cpp:399] inception_3b/5x5 -> inception_3b/5x5
I0403 15:19:14.733186 31448 net.cpp:141] Setting up inception_3b/5x5
I0403 15:19:14.733217 31448 net.cpp:148] Top shape: 24 96 28 28 (1806336)
I0403 15:19:14.733233 31448 net.cpp:156] Memory required for data: 736986144
I0403 15:19:14.733253 31448 layer_factory.hpp:77] Creating layer inception_3b/relu_5x5
I0403 15:19:14.733274 31448 net.cpp:91] Creating Layer inception_3b/relu_5x5
I0403 15:19:14.733307 31448 net.cpp:425] inception_3b/relu_5x5 <- inception_3b/5x5
I0403 15:19:14.733325 31448 net.cpp:386] inception_3b/relu_5x5 -> inception_3b/5x5 (in-place)
I0403 15:19:14.733526 31448 net.cpp:141] Setting up inception_3b/relu_5x5
I0403 15:19:14.733564 31448 net.cpp:148] Top shape: 24 96 28 28 (1806336)
I0403 15:19:14.733582 31448 net.cpp:156] Memory required for data: 744211488
I0403 15:19:14.733598 31448 layer_factory.hpp:77] Creating layer inception_3b/pool
I0403 15:19:14.733619 31448 net.cpp:91] Creating Layer inception_3b/pool
I0403 15:19:14.733649 31448 net.cpp:425] inception_3b/pool <- inception_3a/output_inception_3a/output_0_split_3
I0403 15:19:14.733667 31448 net.cpp:399] inception_3b/pool -> inception_3b/pool
I0403 15:19:14.733726 31448 net.cpp:141] Setting up inception_3b/pool
I0403 15:19:14.733750 31448 net.cpp:148] Top shape: 24 256 28 28 (4816896)
I0403 15:19:14.733767 31448 net.cpp:156] Memory required for data: 763479072
I0403 15:19:14.733782 31448 layer_factory.hpp:77] Creating layer inception_3b/pool_proj
I0403 15:19:14.733805 31448 net.cpp:91] Creating Layer inception_3b/pool_proj
I0403 15:19:14.733824 31448 net.cpp:425] inception_3b/pool_proj <- inception_3b/pool
I0403 15:19:14.733846 31448 net.cpp:399] inception_3b/pool_proj -> inception_3b/pool_proj
I0403 15:19:14.734933 31448 net.cpp:141] Setting up inception_3b/pool_proj
I0403 15:19:14.734969 31448 net.cpp:148] Top shape: 24 64 28 28 (1204224)
I0403 15:19:14.734992 31448 net.cpp:156] Memory required for data: 768295968
I0403 15:19:14.735018 31448 layer_factory.hpp:77] Creating layer inception_3b/relu_pool_proj
I0403 15:19:14.735040 31448 net.cpp:91] Creating Layer inception_3b/relu_pool_proj
I0403 15:19:14.735059 31448 net.cpp:425] inception_3b/relu_pool_proj <- inception_3b/pool_proj
I0403 15:19:14.735076 31448 net.cpp:386] inception_3b/relu_pool_proj -> inception_3b/pool_proj (in-place)
I0403 15:19:14.735483 31448 net.cpp:141] Setting up inception_3b/relu_pool_proj
I0403 15:19:14.735517 31448 net.cpp:148] Top shape: 24 64 28 28 (1204224)
I0403 15:19:14.735541 31448 net.cpp:156] Memory required for data: 773112864
I0403 15:19:14.735558 31448 layer_factory.hpp:77] Creating layer inception_3b/output
I0403 15:19:14.735577 31448 net.cpp:91] Creating Layer inception_3b/output
I0403 15:19:14.735594 31448 net.cpp:425] inception_3b/output <- inception_3b/1x1
I0403 15:19:14.735613 31448 net.cpp:425] inception_3b/output <- inception_3b/3x3
I0403 15:19:14.735635 31448 net.cpp:425] inception_3b/output <- inception_3b/5x5
I0403 15:19:14.735658 31448 net.cpp:425] inception_3b/output <- inception_3b/pool_proj
I0403 15:19:14.735684 31448 net.cpp:399] inception_3b/output -> inception_3b/output
I0403 15:19:14.735734 31448 net.cpp:141] Setting up inception_3b/output
I0403 15:19:14.735766 31448 net.cpp:148] Top shape: 24 480 28 28 (9031680)
I0403 15:19:14.735790 31448 net.cpp:156] Memory required for data: 809239584
I0403 15:19:14.735813 31448 layer_factory.hpp:77] Creating layer pool3/3x3_s2
I0403 15:19:14.735838 31448 net.cpp:91] Creating Layer pool3/3x3_s2
I0403 15:19:14.735855 31448 net.cpp:425] pool3/3x3_s2 <- inception_3b/output
I0403 15:19:14.735891 31448 net.cpp:399] pool3/3x3_s2 -> pool3/3x3_s2
I0403 15:19:14.735954 31448 net.cpp:141] Setting up pool3/3x3_s2
I0403 15:19:14.735978 31448 net.cpp:148] Top shape: 24 480 14 14 (2257920)
I0403 15:19:14.735993 31448 net.cpp:156] Memory required for data: 818271264
I0403 15:19:14.736009 31448 layer_factory.hpp:77] Creating layer pool3/3x3_s2_pool3/3x3_s2_0_split
I0403 15:19:14.736030 31448 net.cpp:91] Creating Layer pool3/3x3_s2_pool3/3x3_s2_0_split
I0403 15:19:14.736047 31448 net.cpp:425] pool3/3x3_s2_pool3/3x3_s2_0_split <- pool3/3x3_s2
I0403 15:19:14.736068 31448 net.cpp:399] pool3/3x3_s2_pool3/3x3_s2_0_split -> pool3/3x3_s2_pool3/3x3_s2_0_split_0
I0403 15:19:14.736098 31448 net.cpp:399] pool3/3x3_s2_pool3/3x3_s2_0_split -> pool3/3x3_s2_pool3/3x3_s2_0_split_1
I0403 15:19:14.736119 31448 net.cpp:399] pool3/3x3_s2_pool3/3x3_s2_0_split -> pool3/3x3_s2_pool3/3x3_s2_0_split_2
I0403 15:19:14.736150 31448 net.cpp:399] pool3/3x3_s2_pool3/3x3_s2_0_split -> pool3/3x3_s2_pool3/3x3_s2_0_split_3
I0403 15:19:14.736234 31448 net.cpp:141] Setting up pool3/3x3_s2_pool3/3x3_s2_0_split
I0403 15:19:14.736261 31448 net.cpp:148] Top shape: 24 480 14 14 (2257920)
I0403 15:19:14.736286 31448 net.cpp:148] Top shape: 24 480 14 14 (2257920)
I0403 15:19:14.736304 31448 net.cpp:148] Top shape: 24 480 14 14 (2257920)
I0403 15:19:14.736327 31448 net.cpp:148] Top shape: 24 480 14 14 (2257920)
I0403 15:19:14.736377 31448 net.cpp:156] Memory required for data: 854397984
I0403 15:19:14.736400 31448 layer_factory.hpp:77] Creating layer inception_4a/1x1
I0403 15:19:14.736438 31448 net.cpp:91] Creating Layer inception_4a/1x1
I0403 15:19:14.736465 31448 net.cpp:425] inception_4a/1x1 <- pool3/3x3_s2_pool3/3x3_s2_0_split_0
I0403 15:19:14.736495 31448 net.cpp:399] inception_4a/1x1 -> inception_4a/1x1
I0403 15:19:14.738126 31448 net.cpp:141] Setting up inception_4a/1x1
I0403 15:19:14.738155 31448 net.cpp:148] Top shape: 24 192 14 14 (903168)
I0403 15:19:14.738180 31448 net.cpp:156] Memory required for data: 858010656
I0403 15:19:14.738200 31448 layer_factory.hpp:77] Creating layer inception_4a/relu_1x1
I0403 15:19:14.738225 31448 net.cpp:91] Creating Layer inception_4a/relu_1x1
I0403 15:19:14.738246 31448 net.cpp:425] inception_4a/relu_1x1 <- inception_4a/1x1
I0403 15:19:14.738265 31448 net.cpp:386] inception_4a/relu_1x1 -> inception_4a/1x1 (in-place)
I0403 15:19:14.738445 31448 net.cpp:141] Setting up inception_4a/relu_1x1
I0403 15:19:14.738479 31448 net.cpp:148] Top shape: 24 192 14 14 (903168)
I0403 15:19:14.738502 31448 net.cpp:156] Memory required for data: 861623328
I0403 15:19:14.738526 31448 layer_factory.hpp:77] Creating layer inception_4a/3x3_reduce
I0403 15:19:14.738567 31448 net.cpp:91] Creating Layer inception_4a/3x3_reduce
I0403 15:19:14.738587 31448 net.cpp:425] inception_4a/3x3_reduce <- pool3/3x3_s2_pool3/3x3_s2_0_split_1
I0403 15:19:14.738615 31448 net.cpp:399] inception_4a/3x3_reduce -> inception_4a/3x3_reduce
I0403 15:19:14.739956 31448 net.cpp:141] Setting up inception_4a/3x3_reduce
I0403 15:19:14.739997 31448 net.cpp:148] Top shape: 24 96 14 14 (451584)
I0403 15:19:14.740032 31448 net.cpp:156] Memory required for data: 863429664
I0403 15:19:14.740067 31448 layer_factory.hpp:77] Creating layer inception_4a/relu_3x3_reduce
I0403 15:19:14.740097 31448 net.cpp:91] Creating Layer inception_4a/relu_3x3_reduce
I0403 15:19:14.740119 31448 net.cpp:425] inception_4a/relu_3x3_reduce <- inception_4a/3x3_reduce
I0403 15:19:14.740146 31448 net.cpp:386] inception_4a/relu_3x3_reduce -> inception_4a/3x3_reduce (in-place)
I0403 15:19:14.740330 31448 net.cpp:141] Setting up inception_4a/relu_3x3_reduce
I0403 15:19:14.740365 31448 net.cpp:148] Top shape: 24 96 14 14 (451584)
I0403 15:19:14.740387 31448 net.cpp:156] Memory required for data: 865236000
I0403 15:19:14.740408 31448 layer_factory.hpp:77] Creating layer inception_4a/3x3
I0403 15:19:14.740435 31448 net.cpp:91] Creating Layer inception_4a/3x3
I0403 15:19:14.740463 31448 net.cpp:425] inception_4a/3x3 <- inception_4a/3x3_reduce
I0403 15:19:14.740485 31448 net.cpp:399] inception_4a/3x3 -> inception_4a/3x3
I0403 15:19:14.743260 31448 net.cpp:141] Setting up inception_4a/3x3
I0403 15:19:14.743301 31448 net.cpp:148] Top shape: 24 208 14 14 (978432)
I0403 15:19:14.743322 31448 net.cpp:156] Memory required for data: 869149728
I0403 15:19:14.743346 31448 layer_factory.hpp:77] Creating layer inception_4a/relu_3x3
I0403 15:19:14.743381 31448 net.cpp:91] Creating Layer inception_4a/relu_3x3
I0403 15:19:14.743401 31448 net.cpp:425] inception_4a/relu_3x3 <- inception_4a/3x3
I0403 15:19:14.743420 31448 net.cpp:386] inception_4a/relu_3x3 -> inception_4a/3x3 (in-place)
I0403 15:19:14.743737 31448 net.cpp:141] Setting up inception_4a/relu_3x3
I0403 15:19:14.743778 31448 net.cpp:148] Top shape: 24 208 14 14 (978432)
I0403 15:19:14.743803 31448 net.cpp:156] Memory required for data: 873063456
I0403 15:19:14.743824 31448 layer_factory.hpp:77] Creating layer inception_4a/5x5_reduce
I0403 15:19:14.743854 31448 net.cpp:91] Creating Layer inception_4a/5x5_reduce
I0403 15:19:14.743872 31448 net.cpp:425] inception_4a/5x5_reduce <- pool3/3x3_s2_pool3/3x3_s2_0_split_2
I0403 15:19:14.743901 31448 net.cpp:399] inception_4a/5x5_reduce -> inception_4a/5x5_reduce
I0403 15:19:14.744987 31448 net.cpp:141] Setting up inception_4a/5x5_reduce
I0403 15:19:14.745023 31448 net.cpp:148] Top shape: 24 16 14 14 (75264)
I0403 15:19:14.745043 31448 net.cpp:156] Memory required for data: 873364512
I0403 15:19:14.745070 31448 layer_factory.hpp:77] Creating layer inception_4a/relu_5x5_reduce
I0403 15:19:14.745097 31448 net.cpp:91] Creating Layer inception_4a/relu_5x5_reduce
I0403 15:19:14.745117 31448 net.cpp:425] inception_4a/relu_5x5_reduce <- inception_4a/5x5_reduce
I0403 15:19:14.745144 31448 net.cpp:386] inception_4a/relu_5x5_reduce -> inception_4a/5x5_reduce (in-place)
I0403 15:19:14.745332 31448 net.cpp:141] Setting up inception_4a/relu_5x5_reduce
I0403 15:19:14.745362 31448 net.cpp:148] Top shape: 24 16 14 14 (75264)
I0403 15:19:14.745383 31448 net.cpp:156] Memory required for data: 873665568
I0403 15:19:14.745404 31448 layer_factory.hpp:77] Creating layer inception_4a/5x5
I0403 15:19:14.745440 31448 net.cpp:91] Creating Layer inception_4a/5x5
I0403 15:19:14.745477 31448 net.cpp:425] inception_4a/5x5 <- inception_4a/5x5_reduce
I0403 15:19:14.745507 31448 net.cpp:399] inception_4a/5x5 -> inception_4a/5x5
I0403 15:19:14.746688 31448 net.cpp:141] Setting up inception_4a/5x5
I0403 15:19:14.746721 31448 net.cpp:148] Top shape: 24 48 14 14 (225792)
I0403 15:19:14.746745 31448 net.cpp:156] Memory required for data: 874568736
I0403 15:19:14.746772 31448 layer_factory.hpp:77] Creating layer inception_4a/relu_5x5
I0403 15:19:14.746803 31448 net.cpp:91] Creating Layer inception_4a/relu_5x5
I0403 15:19:14.746831 31448 net.cpp:425] inception_4a/relu_5x5 <- inception_4a/5x5
I0403 15:19:14.746858 31448 net.cpp:386] inception_4a/relu_5x5 -> inception_4a/5x5 (in-place)
I0403 15:19:14.747045 31448 net.cpp:141] Setting up inception_4a/relu_5x5
I0403 15:19:14.747079 31448 net.cpp:148] Top shape: 24 48 14 14 (225792)
I0403 15:19:14.747104 31448 net.cpp:156] Memory required for data: 875471904
I0403 15:19:14.747141 31448 layer_factory.hpp:77] Creating layer inception_4a/pool
I0403 15:19:14.747172 31448 net.cpp:91] Creating Layer inception_4a/pool
I0403 15:19:14.747205 31448 net.cpp:425] inception_4a/pool <- pool3/3x3_s2_pool3/3x3_s2_0_split_3
I0403 15:19:14.747234 31448 net.cpp:399] inception_4a/pool -> inception_4a/pool
I0403 15:19:14.747303 31448 net.cpp:141] Setting up inception_4a/pool
I0403 15:19:14.747333 31448 net.cpp:148] Top shape: 24 480 14 14 (2257920)
I0403 15:19:14.747357 31448 net.cpp:156] Memory required for data: 884503584
I0403 15:19:14.747385 31448 layer_factory.hpp:77] Creating layer inception_4a/pool_proj
I0403 15:19:14.747416 31448 net.cpp:91] Creating Layer inception_4a/pool_proj
I0403 15:19:14.747447 31448 net.cpp:425] inception_4a/pool_proj <- inception_4a/pool
I0403 15:19:14.747480 31448 net.cpp:399] inception_4a/pool_proj -> inception_4a/pool_proj
I0403 15:19:14.748703 31448 net.cpp:141] Setting up inception_4a/pool_proj
I0403 15:19:14.748742 31448 net.cpp:148] Top shape: 24 64 14 14 (301056)
I0403 15:19:14.748781 31448 net.cpp:156] Memory required for data: 885707808
I0403 15:19:14.748824 31448 layer_factory.hpp:77] Creating layer inception_4a/relu_pool_proj
I0403 15:19:14.748909 31448 net.cpp:91] Creating Layer inception_4a/relu_pool_proj
I0403 15:19:14.748975 31448 net.cpp:425] inception_4a/relu_pool_proj <- inception_4a/pool_proj
I0403 15:19:14.749001 31448 net.cpp:386] inception_4a/relu_pool_proj -> inception_4a/pool_proj (in-place)
I0403 15:19:14.749323 31448 net.cpp:141] Setting up inception_4a/relu_pool_proj
I0403 15:19:14.749356 31448 net.cpp:148] Top shape: 24 64 14 14 (301056)
I0403 15:19:14.749374 31448 net.cpp:156] Memory required for data: 886912032
I0403 15:19:14.749392 31448 layer_factory.hpp:77] Creating layer inception_4a/output
I0403 15:19:14.749410 31448 net.cpp:91] Creating Layer inception_4a/output
I0403 15:19:14.749433 31448 net.cpp:425] inception_4a/output <- inception_4a/1x1
I0403 15:19:14.749457 31448 net.cpp:425] inception_4a/output <- inception_4a/3x3
I0403 15:19:14.749477 31448 net.cpp:425] inception_4a/output <- inception_4a/5x5
I0403 15:19:14.749496 31448 net.cpp:425] inception_4a/output <- inception_4a/pool_proj
I0403 15:19:14.749521 31448 net.cpp:399] inception_4a/output -> inception_4a/output
I0403 15:19:14.749598 31448 net.cpp:141] Setting up inception_4a/output
I0403 15:19:14.749624 31448 net.cpp:148] Top shape: 24 512 14 14 (2408448)
I0403 15:19:14.749646 31448 net.cpp:156] Memory required for data: 896545824
I0403 15:19:14.749668 31448 layer_factory.hpp:77] Creating layer inception_4a/output_inception_4a/output_0_split
I0403 15:19:14.749694 31448 net.cpp:91] Creating Layer inception_4a/output_inception_4a/output_0_split
I0403 15:19:14.749712 31448 net.cpp:425] inception_4a/output_inception_4a/output_0_split <- inception_4a/output
I0403 15:19:14.749734 31448 net.cpp:399] inception_4a/output_inception_4a/output_0_split -> inception_4a/output_inception_4a/output_0_split_0
I0403 15:19:14.749765 31448 net.cpp:399] inception_4a/output_inception_4a/output_0_split -> inception_4a/output_inception_4a/output_0_split_1
I0403 15:19:14.749788 31448 net.cpp:399] inception_4a/output_inception_4a/output_0_split -> inception_4a/output_inception_4a/output_0_split_2
I0403 15:19:14.749819 31448 net.cpp:399] inception_4a/output_inception_4a/output_0_split -> inception_4a/output_inception_4a/output_0_split_3
I0403 15:19:14.749840 31448 net.cpp:399] inception_4a/output_inception_4a/output_0_split -> inception_4a/output_inception_4a/output_0_split_4
I0403 15:19:14.749939 31448 net.cpp:141] Setting up inception_4a/output_inception_4a/output_0_split
I0403 15:19:14.749971 31448 net.cpp:148] Top shape: 24 512 14 14 (2408448)
I0403 15:19:14.749995 31448 net.cpp:148] Top shape: 24 512 14 14 (2408448)
I0403 15:19:14.750012 31448 net.cpp:148] Top shape: 24 512 14 14 (2408448)
I0403 15:19:14.750036 31448 net.cpp:148] Top shape: 24 512 14 14 (2408448)
I0403 15:19:14.750056 31448 net.cpp:148] Top shape: 24 512 14 14 (2408448)
I0403 15:19:14.750077 31448 net.cpp:156] Memory required for data: 944714784
I0403 15:19:14.750099 31448 layer_factory.hpp:77] Creating layer loss1/ave_pool
I0403 15:19:14.750128 31448 net.cpp:91] Creating Layer loss1/ave_pool
I0403 15:19:14.750146 31448 net.cpp:425] loss1/ave_pool <- inception_4a/output_inception_4a/output_0_split_0
I0403 15:19:14.750169 31448 net.cpp:399] loss1/ave_pool -> loss1/ave_pool
I0403 15:19:14.750402 31448 net.cpp:141] Setting up loss1/ave_pool
I0403 15:19:14.750429 31448 net.cpp:148] Top shape: 24 512 4 4 (196608)
I0403 15:19:14.750445 31448 net.cpp:156] Memory required for data: 945501216
I0403 15:19:14.750461 31448 layer_factory.hpp:77] Creating layer loss1/conv
I0403 15:19:14.750485 31448 net.cpp:91] Creating Layer loss1/conv
I0403 15:19:14.750504 31448 net.cpp:425] loss1/conv <- loss1/ave_pool
I0403 15:19:14.750526 31448 net.cpp:399] loss1/conv -> loss1/conv
I0403 15:19:14.751987 31448 net.cpp:141] Setting up loss1/conv
I0403 15:19:14.752023 31448 net.cpp:148] Top shape: 24 128 4 4 (49152)
I0403 15:19:14.752061 31448 net.cpp:156] Memory required for data: 945697824
I0403 15:19:14.752087 31448 layer_factory.hpp:77] Creating layer loss1/relu_conv
I0403 15:19:14.752110 31448 net.cpp:91] Creating Layer loss1/relu_conv
I0403 15:19:14.752133 31448 net.cpp:425] loss1/relu_conv <- loss1/conv
I0403 15:19:14.752158 31448 net.cpp:386] loss1/relu_conv -> loss1/conv (in-place)
I0403 15:19:14.752449 31448 net.cpp:141] Setting up loss1/relu_conv
I0403 15:19:14.752485 31448 net.cpp:148] Top shape: 24 128 4 4 (49152)
I0403 15:19:14.752504 31448 net.cpp:156] Memory required for data: 945894432
I0403 15:19:14.752522 31448 layer_factory.hpp:77] Creating layer loss1/fc
I0403 15:19:14.752563 31448 net.cpp:91] Creating Layer loss1/fc
I0403 15:19:14.752586 31448 net.cpp:425] loss1/fc <- loss1/conv
I0403 15:19:14.752616 31448 net.cpp:399] loss1/fc -> loss1/fc
I0403 15:19:14.771179 31448 net.cpp:141] Setting up loss1/fc
I0403 15:19:14.771220 31448 net.cpp:148] Top shape: 24 1024 (24576)
I0403 15:19:14.771242 31448 net.cpp:156] Memory required for data: 945992736
I0403 15:19:14.771265 31448 layer_factory.hpp:77] Creating layer loss1/relu_fc
I0403 15:19:14.771296 31448 net.cpp:91] Creating Layer loss1/relu_fc
I0403 15:19:14.771314 31448 net.cpp:425] loss1/relu_fc <- loss1/fc
I0403 15:19:14.771342 31448 net.cpp:386] loss1/relu_fc -> loss1/fc (in-place)
I0403 15:19:14.771541 31448 net.cpp:141] Setting up loss1/relu_fc
I0403 15:19:14.771574 31448 net.cpp:148] Top shape: 24 1024 (24576)
I0403 15:19:14.771590 31448 net.cpp:156] Memory required for data: 946091040
I0403 15:19:14.771610 31448 layer_factory.hpp:77] Creating layer loss1/drop_fc
I0403 15:19:14.771647 31448 net.cpp:91] Creating Layer loss1/drop_fc
I0403 15:19:14.771669 31448 net.cpp:425] loss1/drop_fc <- loss1/fc
I0403 15:19:14.771692 31448 net.cpp:386] loss1/drop_fc -> loss1/fc (in-place)
I0403 15:19:14.771754 31448 net.cpp:141] Setting up loss1/drop_fc
I0403 15:19:14.771781 31448 net.cpp:148] Top shape: 24 1024 (24576)
I0403 15:19:14.771803 31448 net.cpp:156] Memory required for data: 946189344
I0403 15:19:14.771821 31448 layer_factory.hpp:77] Creating layer loss1/classifier_plantvillage
I0403 15:19:14.771847 31448 net.cpp:91] Creating Layer loss1/classifier_plantvillage
I0403 15:19:14.771869 31448 net.cpp:425] loss1/classifier_plantvillage <- loss1/fc
I0403 15:19:14.771900 31448 net.cpp:399] loss1/classifier_plantvillage -> loss1/classifier_plantvillage
I0403 15:19:14.772842 31448 net.cpp:141] Setting up loss1/classifier_plantvillage
I0403 15:19:14.772877 31448 net.cpp:148] Top shape: 24 38 (912)
I0403 15:19:14.772894 31448 net.cpp:156] Memory required for data: 946192992
I0403 15:19:14.772920 31448 layer_factory.hpp:77] Creating layer loss1/classifier_plantvillage_loss1/classifier_plantvillage_0_split
I0403 15:19:14.772943 31448 net.cpp:91] Creating Layer loss1/classifier_plantvillage_loss1/classifier_plantvillage_0_split
I0403 15:19:14.772965 31448 net.cpp:425] loss1/classifier_plantvillage_loss1/classifier_plantvillage_0_split <- loss1/classifier_plantvillage
I0403 15:19:14.772989 31448 net.cpp:399] loss1/classifier_plantvillage_loss1/classifier_plantvillage_0_split -> loss1/classifier_plantvillage_loss1/classifier_plantvillage_0_split_0
I0403 15:19:14.773016 31448 net.cpp:399] loss1/classifier_plantvillage_loss1/classifier_plantvillage_0_split -> loss1/classifier_plantvillage_loss1/classifier_plantvillage_0_split_1
I0403 15:19:14.773046 31448 net.cpp:399] loss1/classifier_plantvillage_loss1/classifier_plantvillage_0_split -> loss1/classifier_plantvillage_loss1/classifier_plantvillage_0_split_2
I0403 15:19:14.773121 31448 net.cpp:141] Setting up loss1/classifier_plantvillage_loss1/classifier_plantvillage_0_split
I0403 15:19:14.773151 31448 net.cpp:148] Top shape: 24 38 (912)
I0403 15:19:14.773177 31448 net.cpp:148] Top shape: 24 38 (912)
I0403 15:19:14.773195 31448 net.cpp:148] Top shape: 24 38 (912)
I0403 15:19:14.773214 31448 net.cpp:156] Memory required for data: 946203936
I0403 15:19:14.773236 31448 layer_factory.hpp:77] Creating layer inception_4b/1x1
I0403 15:19:14.773260 31448 net.cpp:91] Creating Layer inception_4b/1x1
I0403 15:19:14.773295 31448 net.cpp:425] inception_4b/1x1 <- inception_4a/output_inception_4a/output_0_split_1
I0403 15:19:14.773326 31448 net.cpp:399] inception_4b/1x1 -> inception_4b/1x1
I0403 15:19:14.775040 31448 net.cpp:141] Setting up inception_4b/1x1
I0403 15:19:14.775073 31448 net.cpp:148] Top shape: 24 160 14 14 (752640)
I0403 15:19:14.775089 31448 net.cpp:156] Memory required for data: 949214496
I0403 15:19:14.775109 31448 layer_factory.hpp:77] Creating layer inception_4b/relu_1x1
I0403 15:19:14.775127 31448 net.cpp:91] Creating Layer inception_4b/relu_1x1
I0403 15:19:14.775151 31448 net.cpp:425] inception_4b/relu_1x1 <- inception_4b/1x1
I0403 15:19:14.775177 31448 net.cpp:386] inception_4b/relu_1x1 -> inception_4b/1x1 (in-place)
I0403 15:19:14.775375 31448 net.cpp:141] Setting up inception_4b/relu_1x1
I0403 15:19:14.775405 31448 net.cpp:148] Top shape: 24 160 14 14 (752640)
I0403 15:19:14.775426 31448 net.cpp:156] Memory required for data: 952225056
I0403 15:19:14.775451 31448 layer_factory.hpp:77] Creating layer inception_4b/3x3_reduce
I0403 15:19:14.775480 31448 net.cpp:91] Creating Layer inception_4b/3x3_reduce
I0403 15:19:14.775507 31448 net.cpp:425] inception_4b/3x3_reduce <- inception_4a/output_inception_4a/output_0_split_2
I0403 15:19:14.775532 31448 net.cpp:399] inception_4b/3x3_reduce -> inception_4b/3x3_reduce
I0403 15:19:14.776940 31448 net.cpp:141] Setting up inception_4b/3x3_reduce
I0403 15:19:14.776978 31448 net.cpp:148] Top shape: 24 112 14 14 (526848)
I0403 15:19:14.777001 31448 net.cpp:156] Memory required for data: 954332448
I0403 15:19:14.777027 31448 layer_factory.hpp:77] Creating layer inception_4b/relu_3x3_reduce
I0403 15:19:14.777048 31448 net.cpp:91] Creating Layer inception_4b/relu_3x3_reduce
I0403 15:19:14.777065 31448 net.cpp:425] inception_4b/relu_3x3_reduce <- inception_4b/3x3_reduce
I0403 15:19:14.777088 31448 net.cpp:386] inception_4b/relu_3x3_reduce -> inception_4b/3x3_reduce (in-place)
I0403 15:19:14.777386 31448 net.cpp:141] Setting up inception_4b/relu_3x3_reduce
I0403 15:19:14.777420 31448 net.cpp:148] Top shape: 24 112 14 14 (526848)
I0403 15:19:14.777441 31448 net.cpp:156] Memory required for data: 956439840
I0403 15:19:14.777462 31448 layer_factory.hpp:77] Creating layer inception_4b/3x3
I0403 15:19:14.777493 31448 net.cpp:91] Creating Layer inception_4b/3x3
I0403 15:19:14.777513 31448 net.cpp:425] inception_4b/3x3 <- inception_4b/3x3_reduce
I0403 15:19:14.777540 31448 net.cpp:399] inception_4b/3x3 -> inception_4b/3x3
I0403 15:19:14.780655 31448 net.cpp:141] Setting up inception_4b/3x3
I0403 15:19:14.797204 31448 net.cpp:148] Top shape: 24 224 14 14 (1053696)
I0403 15:19:14.797229 31448 net.cpp:156] Memory required for data: 960654624
I0403 15:19:14.797256 31448 layer_factory.hpp:77] Creating layer inception_4b/relu_3x3
I0403 15:19:14.797279 31448 net.cpp:91] Creating Layer inception_4b/relu_3x3
I0403 15:19:14.797298 31448 net.cpp:425] inception_4b/relu_3x3 <- inception_4b/3x3
I0403 15:19:14.797324 31448 net.cpp:386] inception_4b/relu_3x3 -> inception_4b/3x3 (in-place)
I0403 15:19:14.797530 31448 net.cpp:141] Setting up inception_4b/relu_3x3
I0403 15:19:14.797580 31448 net.cpp:148] Top shape: 24 224 14 14 (1053696)
I0403 15:19:14.797612 31448 net.cpp:156] Memory required for data: 964869408
I0403 15:19:14.797664 31448 layer_factory.hpp:77] Creating layer inception_4b/5x5_reduce
I0403 15:19:14.797694 31448 net.cpp:91] Creating Layer inception_4b/5x5_reduce
I0403 15:19:14.797719 31448 net.cpp:425] inception_4b/5x5_reduce <- inception_4a/output_inception_4a/output_0_split_3
I0403 15:19:14.797746 31448 net.cpp:399] inception_4b/5x5_reduce -> inception_4b/5x5_reduce
I0403 15:19:14.798863 31448 net.cpp:141] Setting up inception_4b/5x5_reduce
I0403 15:19:14.798894 31448 net.cpp:148] Top shape: 24 24 14 14 (112896)
I0403 15:19:14.798910 31448 net.cpp:156] Memory required for data: 965320992
I0403 15:19:14.798929 31448 layer_factory.hpp:77] Creating layer inception_4b/relu_5x5_reduce
I0403 15:19:14.798949 31448 net.cpp:91] Creating Layer inception_4b/relu_5x5_reduce
I0403 15:19:14.798979 31448 net.cpp:425] inception_4b/relu_5x5_reduce <- inception_4b/5x5_reduce
I0403 15:19:14.799003 31448 net.cpp:386] inception_4b/relu_5x5_reduce -> inception_4b/5x5_reduce (in-place)
I0403 15:19:14.799187 31448 net.cpp:141] Setting up inception_4b/relu_5x5_reduce
I0403 15:19:14.799218 31448 net.cpp:148] Top shape: 24 24 14 14 (112896)
I0403 15:19:14.799235 31448 net.cpp:156] Memory required for data: 965772576
I0403 15:19:14.799253 31448 layer_factory.hpp:77] Creating layer inception_4b/5x5
I0403 15:19:14.799283 31448 net.cpp:91] Creating Layer inception_4b/5x5
I0403 15:19:14.799302 31448 net.cpp:425] inception_4b/5x5 <- inception_4b/5x5_reduce
I0403 15:19:14.799324 31448 net.cpp:399] inception_4b/5x5 -> inception_4b/5x5
I0403 15:19:14.800601 31448 net.cpp:141] Setting up inception_4b/5x5
I0403 15:19:14.800636 31448 net.cpp:148] Top shape: 24 64 14 14 (301056)
I0403 15:19:14.800659 31448 net.cpp:156] Memory required for data: 966976800
I0403 15:19:14.800683 31448 layer_factory.hpp:77] Creating layer inception_4b/relu_5x5
I0403 15:19:14.800714 31448 net.cpp:91] Creating Layer inception_4b/relu_5x5
I0403 15:19:14.800739 31448 net.cpp:425] inception_4b/relu_5x5 <- inception_4b/5x5
I0403 15:19:14.800762 31448 net.cpp:386] inception_4b/relu_5x5 -> inception_4b/5x5 (in-place)
I0403 15:19:14.801057 31448 net.cpp:141] Setting up inception_4b/relu_5x5
I0403 15:19:14.801087 31448 net.cpp:148] Top shape: 24 64 14 14 (301056)
I0403 15:19:14.801107 31448 net.cpp:156] Memory required for data: 968181024
I0403 15:19:14.801129 31448 layer_factory.hpp:77] Creating layer inception_4b/pool
I0403 15:19:14.801156 31448 net.cpp:91] Creating Layer inception_4b/pool
I0403 15:19:14.801179 31448 net.cpp:425] inception_4b/pool <- inception_4a/output_inception_4a/output_0_split_4
I0403 15:19:14.801205 31448 net.cpp:399] inception_4b/pool -> inception_4b/pool
I0403 15:19:14.801275 31448 net.cpp:141] Setting up inception_4b/pool
I0403 15:19:14.801304 31448 net.cpp:148] Top shape: 24 512 14 14 (2408448)
I0403 15:19:14.801327 31448 net.cpp:156] Memory required for data: 977814816
I0403 15:19:14.801342 31448 layer_factory.hpp:77] Creating layer inception_4b/pool_proj
I0403 15:19:14.801383 31448 net.cpp:91] Creating Layer inception_4b/pool_proj
I0403 15:19:14.801409 31448 net.cpp:425] inception_4b/pool_proj <- inception_4b/pool
I0403 15:19:14.801432 31448 net.cpp:399] inception_4b/pool_proj -> inception_4b/pool_proj
I0403 15:19:14.802690 31448 net.cpp:141] Setting up inception_4b/pool_proj
I0403 15:19:14.802728 31448 net.cpp:148] Top shape: 24 64 14 14 (301056)
I0403 15:19:14.802752 31448 net.cpp:156] Memory required for data: 979019040
I0403 15:19:14.802777 31448 layer_factory.hpp:77] Creating layer inception_4b/relu_pool_proj
I0403 15:19:14.802800 31448 net.cpp:91] Creating Layer inception_4b/relu_pool_proj
I0403 15:19:14.802824 31448 net.cpp:425] inception_4b/relu_pool_proj <- inception_4b/pool_proj
I0403 15:19:14.802847 31448 net.cpp:386] inception_4b/relu_pool_proj -> inception_4b/pool_proj (in-place)
I0403 15:19:14.803033 31448 net.cpp:141] Setting up inception_4b/relu_pool_proj
I0403 15:19:14.803061 31448 net.cpp:148] Top shape: 24 64 14 14 (301056)
I0403 15:19:14.803076 31448 net.cpp:156] Memory required for data: 980223264
I0403 15:19:14.803091 31448 layer_factory.hpp:77] Creating layer inception_4b/output
I0403 15:19:14.803108 31448 net.cpp:91] Creating Layer inception_4b/output
I0403 15:19:14.803124 31448 net.cpp:425] inception_4b/output <- inception_4b/1x1
I0403 15:19:14.803140 31448 net.cpp:425] inception_4b/output <- inception_4b/3x3
I0403 15:19:14.803158 31448 net.cpp:425] inception_4b/output <- inception_4b/5x5
I0403 15:19:14.803174 31448 net.cpp:425] inception_4b/output <- inception_4b/pool_proj
I0403 15:19:14.803194 31448 net.cpp:399] inception_4b/output -> inception_4b/output
I0403 15:19:14.803241 31448 net.cpp:141] Setting up inception_4b/output
I0403 15:19:14.803270 31448 net.cpp:148] Top shape: 24 512 14 14 (2408448)
I0403 15:19:14.803292 31448 net.cpp:156] Memory required for data: 989857056
I0403 15:19:14.803328 31448 layer_factory.hpp:77] Creating layer inception_4b/output_inception_4b/output_0_split
I0403 15:19:14.803350 31448 net.cpp:91] Creating Layer inception_4b/output_inception_4b/output_0_split
I0403 15:19:14.803386 31448 net.cpp:425] inception_4b/output_inception_4b/output_0_split <- inception_4b/output
I0403 15:19:14.803417 31448 net.cpp:399] inception_4b/output_inception_4b/output_0_split -> inception_4b/output_inception_4b/output_0_split_0
I0403 15:19:14.803447 31448 net.cpp:399] inception_4b/output_inception_4b/output_0_split -> inception_4b/output_inception_4b/output_0_split_1
I0403 15:19:14.803472 31448 net.cpp:399] inception_4b/output_inception_4b/output_0_split -> inception_4b/output_inception_4b/output_0_split_2
I0403 15:19:14.803493 31448 net.cpp:399] inception_4b/output_inception_4b/output_0_split -> inception_4b/output_inception_4b/output_0_split_3
I0403 15:19:14.803599 31448 net.cpp:141] Setting up inception_4b/output_inception_4b/output_0_split
I0403 15:19:14.803632 31448 net.cpp:148] Top shape: 24 512 14 14 (2408448)
I0403 15:19:14.803669 31448 net.cpp:148] Top shape: 24 512 14 14 (2408448)
I0403 15:19:14.803689 31448 net.cpp:148] Top shape: 24 512 14 14 (2408448)
I0403 15:19:14.803705 31448 net.cpp:148] Top shape: 24 512 14 14 (2408448)
I0403 15:19:14.803719 31448 net.cpp:156] Memory required for data: 1028392224
I0403 15:19:14.803735 31448 layer_factory.hpp:77] Creating layer inception_4c/1x1
I0403 15:19:14.803756 31448 net.cpp:91] Creating Layer inception_4c/1x1
I0403 15:19:14.803781 31448 net.cpp:425] inception_4c/1x1 <- inception_4b/output_inception_4b/output_0_split_0
I0403 15:19:14.803809 31448 net.cpp:399] inception_4c/1x1 -> inception_4c/1x1
I0403 15:19:14.805285 31448 net.cpp:141] Setting up inception_4c/1x1
I0403 15:19:14.805317 31448 net.cpp:148] Top shape: 24 128 14 14 (602112)
I0403 15:19:14.805336 31448 net.cpp:156] Memory required for data: 1030800672
I0403 15:19:14.805362 31448 layer_factory.hpp:77] Creating layer inception_4c/relu_1x1
I0403 15:19:14.805389 31448 net.cpp:91] Creating Layer inception_4c/relu_1x1
I0403 15:19:14.805413 31448 net.cpp:425] inception_4c/relu_1x1 <- inception_4c/1x1
I0403 15:19:14.805439 31448 net.cpp:386] inception_4c/relu_1x1 -> inception_4c/1x1 (in-place)
I0403 15:19:14.805634 31448 net.cpp:141] Setting up inception_4c/relu_1x1
I0403 15:19:14.805663 31448 net.cpp:148] Top shape: 24 128 14 14 (602112)
I0403 15:19:14.805680 31448 net.cpp:156] Memory required for data: 1033209120
I0403 15:19:14.805696 31448 layer_factory.hpp:77] Creating layer inception_4c/3x3_reduce
I0403 15:19:14.805721 31448 net.cpp:91] Creating Layer inception_4c/3x3_reduce
I0403 15:19:14.805743 31448 net.cpp:425] inception_4c/3x3_reduce <- inception_4b/output_inception_4b/output_0_split_1
I0403 15:19:14.805764 31448 net.cpp:399] inception_4c/3x3_reduce -> inception_4c/3x3_reduce
I0403 15:19:14.807844 31448 net.cpp:141] Setting up inception_4c/3x3_reduce
I0403 15:19:14.807874 31448 net.cpp:148] Top shape: 24 128 14 14 (602112)
I0403 15:19:14.807890 31448 net.cpp:156] Memory required for data: 1035617568
I0403 15:19:14.807909 31448 layer_factory.hpp:77] Creating layer inception_4c/relu_3x3_reduce
I0403 15:19:14.807939 31448 net.cpp:91] Creating Layer inception_4c/relu_3x3_reduce
I0403 15:19:14.807955 31448 net.cpp:425] inception_4c/relu_3x3_reduce <- inception_4c/3x3_reduce
I0403 15:19:14.807973 31448 net.cpp:386] inception_4c/relu_3x3_reduce -> inception_4c/3x3_reduce (in-place)
I0403 15:19:14.808282 31448 net.cpp:141] Setting up inception_4c/relu_3x3_reduce
I0403 15:19:14.808315 31448 net.cpp:148] Top shape: 24 128 14 14 (602112)
I0403 15:19:14.808339 31448 net.cpp:156] Memory required for data: 1038026016
I0403 15:19:14.808362 31448 layer_factory.hpp:77] Creating layer inception_4c/3x3
I0403 15:19:14.808395 31448 net.cpp:91] Creating Layer inception_4c/3x3
I0403 15:19:14.808418 31448 net.cpp:425] inception_4c/3x3 <- inception_4c/3x3_reduce
I0403 15:19:14.808444 31448 net.cpp:399] inception_4c/3x3 -> inception_4c/3x3
I0403 15:19:14.812216 31448 net.cpp:141] Setting up inception_4c/3x3
I0403 15:19:14.812264 31448 net.cpp:148] Top shape: 24 256 14 14 (1204224)
I0403 15:19:14.812281 31448 net.cpp:156] Memory required for data: 1042842912
I0403 15:19:14.812315 31448 layer_factory.hpp:77] Creating layer inception_4c/relu_3x3
I0403 15:19:14.812336 31448 net.cpp:91] Creating Layer inception_4c/relu_3x3
I0403 15:19:14.812353 31448 net.cpp:425] inception_4c/relu_3x3 <- inception_4c/3x3
I0403 15:19:14.812371 31448 net.cpp:386] inception_4c/relu_3x3 -> inception_4c/3x3 (in-place)
I0403 15:19:14.812561 31448 net.cpp:141] Setting up inception_4c/relu_3x3
I0403 15:19:14.812588 31448 net.cpp:148] Top shape: 24 256 14 14 (1204224)
I0403 15:19:14.812604 31448 net.cpp:156] Memory required for data: 1047659808
I0403 15:19:14.812619 31448 layer_factory.hpp:77] Creating layer inception_4c/5x5_reduce
I0403 15:19:14.812644 31448 net.cpp:91] Creating Layer inception_4c/5x5_reduce
I0403 15:19:14.812661 31448 net.cpp:425] inception_4c/5x5_reduce <- inception_4b/output_inception_4b/output_0_split_2
I0403 15:19:14.812680 31448 net.cpp:399] inception_4c/5x5_reduce -> inception_4c/5x5_reduce
I0403 15:19:14.813791 31448 net.cpp:141] Setting up inception_4c/5x5_reduce
I0403 15:19:14.813822 31448 net.cpp:148] Top shape: 24 24 14 14 (112896)
I0403 15:19:14.813839 31448 net.cpp:156] Memory required for data: 1048111392
I0403 15:19:14.813858 31448 layer_factory.hpp:77] Creating layer inception_4c/relu_5x5_reduce
I0403 15:19:14.813876 31448 net.cpp:91] Creating Layer inception_4c/relu_5x5_reduce
I0403 15:19:14.813892 31448 net.cpp:425] inception_4c/relu_5x5_reduce <- inception_4c/5x5_reduce
I0403 15:19:14.813912 31448 net.cpp:386] inception_4c/relu_5x5_reduce -> inception_4c/5x5_reduce (in-place)
I0403 15:19:14.814101 31448 net.cpp:141] Setting up inception_4c/relu_5x5_reduce
I0403 15:19:14.814126 31448 net.cpp:148] Top shape: 24 24 14 14 (112896)
I0403 15:19:14.814141 31448 net.cpp:156] Memory required for data: 1048562976
I0403 15:19:14.814157 31448 layer_factory.hpp:77] Creating layer inception_4c/5x5
I0403 15:19:14.814179 31448 net.cpp:91] Creating Layer inception_4c/5x5
I0403 15:19:14.814196 31448 net.cpp:425] inception_4c/5x5 <- inception_4c/5x5_reduce
I0403 15:19:14.814218 31448 net.cpp:399] inception_4c/5x5 -> inception_4c/5x5
I0403 15:19:14.815551 31448 net.cpp:141] Setting up inception_4c/5x5
I0403 15:19:14.815580 31448 net.cpp:148] Top shape: 24 64 14 14 (301056)
I0403 15:19:14.815601 31448 net.cpp:156] Memory required for data: 1049767200
I0403 15:19:14.815620 31448 layer_factory.hpp:77] Creating layer inception_4c/relu_5x5
I0403 15:19:14.815641 31448 net.cpp:91] Creating Layer inception_4c/relu_5x5
I0403 15:19:14.815659 31448 net.cpp:425] inception_4c/relu_5x5 <- inception_4c/5x5
I0403 15:19:14.815676 31448 net.cpp:386] inception_4c/relu_5x5 -> inception_4c/5x5 (in-place)
I0403 15:19:14.815976 31448 net.cpp:141] Setting up inception_4c/relu_5x5
I0403 15:19:14.816004 31448 net.cpp:148] Top shape: 24 64 14 14 (301056)
I0403 15:19:14.816020 31448 net.cpp:156] Memory required for data: 1050971424
I0403 15:19:14.816035 31448 layer_factory.hpp:77] Creating layer inception_4c/pool
I0403 15:19:14.816051 31448 net.cpp:91] Creating Layer inception_4c/pool
I0403 15:19:14.816068 31448 net.cpp:425] inception_4c/pool <- inception_4b/output_inception_4b/output_0_split_3
I0403 15:19:14.816089 31448 net.cpp:399] inception_4c/pool -> inception_4c/pool
I0403 15:19:14.816157 31448 net.cpp:141] Setting up inception_4c/pool
I0403 15:19:14.816181 31448 net.cpp:148] Top shape: 24 512 14 14 (2408448)
I0403 15:19:14.816196 31448 net.cpp:156] Memory required for data: 1060605216
I0403 15:19:14.816211 31448 layer_factory.hpp:77] Creating layer inception_4c/pool_proj
I0403 15:19:14.816233 31448 net.cpp:91] Creating Layer inception_4c/pool_proj
I0403 15:19:14.816251 31448 net.cpp:425] inception_4c/pool_proj <- inception_4c/pool
I0403 15:19:14.816272 31448 net.cpp:399] inception_4c/pool_proj -> inception_4c/pool_proj
I0403 15:19:14.817589 31448 net.cpp:141] Setting up inception_4c/pool_proj
I0403 15:19:14.817620 31448 net.cpp:148] Top shape: 24 64 14 14 (301056)
I0403 15:19:14.817649 31448 net.cpp:156] Memory required for data: 1061809440
I0403 15:19:14.817669 31448 layer_factory.hpp:77] Creating layer inception_4c/relu_pool_proj
I0403 15:19:14.817688 31448 net.cpp:91] Creating Layer inception_4c/relu_pool_proj
I0403 15:19:14.817705 31448 net.cpp:425] inception_4c/relu_pool_proj <- inception_4c/pool_proj
I0403 15:19:14.817723 31448 net.cpp:386] inception_4c/relu_pool_proj -> inception_4c/pool_proj (in-place)
I0403 15:19:14.817911 31448 net.cpp:141] Setting up inception_4c/relu_pool_proj
I0403 15:19:14.817936 31448 net.cpp:148] Top shape: 24 64 14 14 (301056)
I0403 15:19:14.817951 31448 net.cpp:156] Memory required for data: 1063013664
I0403 15:19:14.817966 31448 layer_factory.hpp:77] Creating layer inception_4c/output
I0403 15:19:14.817984 31448 net.cpp:91] Creating Layer inception_4c/output
I0403 15:19:14.818001 31448 net.cpp:425] inception_4c/output <- inception_4c/1x1
I0403 15:19:14.818017 31448 net.cpp:425] inception_4c/output <- inception_4c/3x3
I0403 15:19:14.818034 31448 net.cpp:425] inception_4c/output <- inception_4c/5x5
I0403 15:19:14.818051 31448 net.cpp:425] inception_4c/output <- inception_4c/pool_proj
I0403 15:19:14.818071 31448 net.cpp:399] inception_4c/output -> inception_4c/output
I0403 15:19:14.818120 31448 net.cpp:141] Setting up inception_4c/output
I0403 15:19:14.818145 31448 net.cpp:148] Top shape: 24 512 14 14 (2408448)
I0403 15:19:14.818161 31448 net.cpp:156] Memory required for data: 1072647456
I0403 15:19:14.818176 31448 layer_factory.hpp:77] Creating layer inception_4c/output_inception_4c/output_0_split
I0403 15:19:14.818192 31448 net.cpp:91] Creating Layer inception_4c/output_inception_4c/output_0_split
I0403 15:19:14.818208 31448 net.cpp:425] inception_4c/output_inception_4c/output_0_split <- inception_4c/output
I0403 15:19:14.818228 31448 net.cpp:399] inception_4c/output_inception_4c/output_0_split -> inception_4c/output_inception_4c/output_0_split_0
I0403 15:19:14.818250 31448 net.cpp:399] inception_4c/output_inception_4c/output_0_split -> inception_4c/output_inception_4c/output_0_split_1
I0403 15:19:14.818270 31448 net.cpp:399] inception_4c/output_inception_4c/output_0_split -> inception_4c/output_inception_4c/output_0_split_2
I0403 15:19:14.818290 31448 net.cpp:399] inception_4c/output_inception_4c/output_0_split -> inception_4c/output_inception_4c/output_0_split_3
I0403 15:19:14.818377 31448 net.cpp:141] Setting up inception_4c/output_inception_4c/output_0_split
I0403 15:19:14.818402 31448 net.cpp:148] Top shape: 24 512 14 14 (2408448)
I0403 15:19:14.818418 31448 net.cpp:148] Top shape: 24 512 14 14 (2408448)
I0403 15:19:14.818434 31448 net.cpp:148] Top shape: 24 512 14 14 (2408448)
I0403 15:19:14.818450 31448 net.cpp:148] Top shape: 24 512 14 14 (2408448)
I0403 15:19:14.818464 31448 net.cpp:156] Memory required for data: 1111182624
I0403 15:19:14.818480 31448 layer_factory.hpp:77] Creating layer inception_4d/1x1
I0403 15:19:14.818501 31448 net.cpp:91] Creating Layer inception_4d/1x1
I0403 15:19:14.818519 31448 net.cpp:425] inception_4d/1x1 <- inception_4c/output_inception_4c/output_0_split_0
I0403 15:19:14.818544 31448 net.cpp:399] inception_4d/1x1 -> inception_4d/1x1
I0403 15:19:14.819967 31448 net.cpp:141] Setting up inception_4d/1x1
I0403 15:19:14.819996 31448 net.cpp:148] Top shape: 24 112 14 14 (526848)
I0403 15:19:14.820013 31448 net.cpp:156] Memory required for data: 1113290016
I0403 15:19:14.820031 31448 layer_factory.hpp:77] Creating layer inception_4d/relu_1x1
I0403 15:19:14.820055 31448 net.cpp:91] Creating Layer inception_4d/relu_1x1
I0403 15:19:14.820072 31448 net.cpp:425] inception_4d/relu_1x1 <- inception_4d/1x1
I0403 15:19:14.820091 31448 net.cpp:386] inception_4d/relu_1x1 -> inception_4d/1x1 (in-place)
I0403 15:19:14.820283 31448 net.cpp:141] Setting up inception_4d/relu_1x1
I0403 15:19:14.820310 31448 net.cpp:148] Top shape: 24 112 14 14 (526848)
I0403 15:19:14.820327 31448 net.cpp:156] Memory required for data: 1115397408
I0403 15:19:14.820341 31448 layer_factory.hpp:77] Creating layer inception_4d/3x3_reduce
I0403 15:19:14.820379 31448 net.cpp:91] Creating Layer inception_4d/3x3_reduce
I0403 15:19:14.820396 31448 net.cpp:425] inception_4d/3x3_reduce <- inception_4c/output_inception_4c/output_0_split_1
I0403 15:19:14.820415 31448 net.cpp:399] inception_4d/3x3_reduce -> inception_4d/3x3_reduce
I0403 15:19:14.822074 31448 net.cpp:141] Setting up inception_4d/3x3_reduce
I0403 15:19:14.822103 31448 net.cpp:148] Top shape: 24 144 14 14 (677376)
I0403 15:19:14.822118 31448 net.cpp:156] Memory required for data: 1118106912
I0403 15:19:14.822137 31448 layer_factory.hpp:77] Creating layer inception_4d/relu_3x3_reduce
I0403 15:19:14.822159 31448 net.cpp:91] Creating Layer inception_4d/relu_3x3_reduce
I0403 15:19:14.822176 31448 net.cpp:425] inception_4d/relu_3x3_reduce <- inception_4d/3x3_reduce
I0403 15:19:14.822193 31448 net.cpp:386] inception_4d/relu_3x3_reduce -> inception_4d/3x3_reduce (in-place)
I0403 15:19:14.822494 31448 net.cpp:141] Setting up inception_4d/relu_3x3_reduce
I0403 15:19:14.822520 31448 net.cpp:148] Top shape: 24 144 14 14 (677376)
I0403 15:19:14.822540 31448 net.cpp:156] Memory required for data: 1120816416
I0403 15:19:14.822556 31448 layer_factory.hpp:77] Creating layer inception_4d/3x3
I0403 15:19:14.822581 31448 net.cpp:91] Creating Layer inception_4d/3x3
I0403 15:19:14.822599 31448 net.cpp:425] inception_4d/3x3 <- inception_4d/3x3_reduce
I0403 15:19:14.822620 31448 net.cpp:399] inception_4d/3x3 -> inception_4d/3x3
I0403 15:19:14.827055 31448 net.cpp:141] Setting up inception_4d/3x3
I0403 15:19:14.827085 31448 net.cpp:148] Top shape: 24 288 14 14 (1354752)
I0403 15:19:14.827101 31448 net.cpp:156] Memory required for data: 1126235424
I0403 15:19:14.827121 31448 layer_factory.hpp:77] Creating layer inception_4d/relu_3x3
I0403 15:19:14.827142 31448 net.cpp:91] Creating Layer inception_4d/relu_3x3
I0403 15:19:14.827160 31448 net.cpp:425] inception_4d/relu_3x3 <- inception_4d/3x3
I0403 15:19:14.827178 31448 net.cpp:386] inception_4d/relu_3x3 -> inception_4d/3x3 (in-place)
I0403 15:19:14.827364 31448 net.cpp:141] Setting up inception_4d/relu_3x3
I0403 15:19:14.827394 31448 net.cpp:148] Top shape: 24 288 14 14 (1354752)
I0403 15:19:14.827409 31448 net.cpp:156] Memory required for data: 1131654432
I0403 15:19:14.827425 31448 layer_factory.hpp:77] Creating layer inception_4d/5x5_reduce
I0403 15:19:14.827447 31448 net.cpp:91] Creating Layer inception_4d/5x5_reduce
I0403 15:19:14.827466 31448 net.cpp:425] inception_4d/5x5_reduce <- inception_4c/output_inception_4c/output_0_split_2
I0403 15:19:14.827487 31448 net.cpp:399] inception_4d/5x5_reduce -> inception_4d/5x5_reduce
I0403 15:19:14.828673 31448 net.cpp:141] Setting up inception_4d/5x5_reduce
I0403 15:19:14.828702 31448 net.cpp:148] Top shape: 24 32 14 14 (150528)
I0403 15:19:14.828719 31448 net.cpp:156] Memory required for data: 1132256544
I0403 15:19:14.828738 31448 layer_factory.hpp:77] Creating layer inception_4d/relu_5x5_reduce
I0403 15:19:14.828759 31448 net.cpp:91] Creating Layer inception_4d/relu_5x5_reduce
I0403 15:19:14.828776 31448 net.cpp:425] inception_4d/relu_5x5_reduce <- inception_4d/5x5_reduce
I0403 15:19:14.828794 31448 net.cpp:386] inception_4d/relu_5x5_reduce -> inception_4d/5x5_reduce (in-place)
I0403 15:19:14.828989 31448 net.cpp:141] Setting up inception_4d/relu_5x5_reduce
I0403 15:19:14.829015 31448 net.cpp:148] Top shape: 24 32 14 14 (150528)
I0403 15:19:14.829031 31448 net.cpp:156] Memory required for data: 1132858656
I0403 15:19:14.829046 31448 layer_factory.hpp:77] Creating layer inception_4d/5x5
I0403 15:19:14.829069 31448 net.cpp:91] Creating Layer inception_4d/5x5
I0403 15:19:14.829087 31448 net.cpp:425] inception_4d/5x5 <- inception_4d/5x5_reduce
I0403 15:19:14.829107 31448 net.cpp:399] inception_4d/5x5 -> inception_4d/5x5
I0403 15:19:14.830624 31448 net.cpp:141] Setting up inception_4d/5x5
I0403 15:19:14.830656 31448 net.cpp:148] Top shape: 24 64 14 14 (301056)
I0403 15:19:14.830672 31448 net.cpp:156] Memory required for data: 1134062880
I0403 15:19:14.830693 31448 layer_factory.hpp:77] Creating layer inception_4d/relu_5x5
I0403 15:19:14.830726 31448 net.cpp:91] Creating Layer inception_4d/relu_5x5
I0403 15:19:14.830744 31448 net.cpp:425] inception_4d/relu_5x5 <- inception_4d/5x5
I0403 15:19:14.830765 31448 net.cpp:386] inception_4d/relu_5x5 -> inception_4d/5x5 (in-place)
I0403 15:19:14.831076 31448 net.cpp:141] Setting up inception_4d/relu_5x5
I0403 15:19:14.831107 31448 net.cpp:148] Top shape: 24 64 14 14 (301056)
I0403 15:19:14.831125 31448 net.cpp:156] Memory required for data: 1135267104
I0403 15:19:14.831140 31448 layer_factory.hpp:77] Creating layer inception_4d/pool
I0403 15:19:14.831158 31448 net.cpp:91] Creating Layer inception_4d/pool
I0403 15:19:14.831174 31448 net.cpp:425] inception_4d/pool <- inception_4c/output_inception_4c/output_0_split_3
I0403 15:19:14.831197 31448 net.cpp:399] inception_4d/pool -> inception_4d/pool
I0403 15:19:14.831266 31448 net.cpp:141] Setting up inception_4d/pool
I0403 15:19:14.831292 31448 net.cpp:148] Top shape: 24 512 14 14 (2408448)
I0403 15:19:14.831308 31448 net.cpp:156] Memory required for data: 1144900896
I0403 15:19:14.831324 31448 layer_factory.hpp:77] Creating layer inception_4d/pool_proj
I0403 15:19:14.831346 31448 net.cpp:91] Creating Layer inception_4d/pool_proj
I0403 15:19:14.831378 31448 net.cpp:425] inception_4d/pool_proj <- inception_4d/pool
I0403 15:19:14.831398 31448 net.cpp:399] inception_4d/pool_proj -> inception_4d/pool_proj
I0403 15:19:14.833295 31448 net.cpp:141] Setting up inception_4d/pool_proj
I0403 15:19:14.833326 31448 net.cpp:148] Top shape: 24 64 14 14 (301056)
I0403 15:19:14.833343 31448 net.cpp:156] Memory required for data: 1146105120
I0403 15:19:14.833364 31448 layer_factory.hpp:77] Creating layer inception_4d/relu_pool_proj
I0403 15:19:14.833384 31448 net.cpp:91] Creating Layer inception_4d/relu_pool_proj
I0403 15:19:14.833402 31448 net.cpp:425] inception_4d/relu_pool_proj <- inception_4d/pool_proj
I0403 15:19:14.833421 31448 net.cpp:386] inception_4d/relu_pool_proj -> inception_4d/pool_proj (in-place)
I0403 15:19:14.833617 31448 net.cpp:141] Setting up inception_4d/relu_pool_proj
I0403 15:19:14.833644 31448 net.cpp:148] Top shape: 24 64 14 14 (301056)
I0403 15:19:14.833660 31448 net.cpp:156] Memory required for data: 1147309344
I0403 15:19:14.833675 31448 layer_factory.hpp:77] Creating layer inception_4d/output
I0403 15:19:14.833693 31448 net.cpp:91] Creating Layer inception_4d/output
I0403 15:19:14.833709 31448 net.cpp:425] inception_4d/output <- inception_4d/1x1
I0403 15:19:14.833726 31448 net.cpp:425] inception_4d/output <- inception_4d/3x3
I0403 15:19:14.833744 31448 net.cpp:425] inception_4d/output <- inception_4d/5x5
I0403 15:19:14.833760 31448 net.cpp:425] inception_4d/output <- inception_4d/pool_proj
I0403 15:19:14.833777 31448 net.cpp:399] inception_4d/output -> inception_4d/output
I0403 15:19:14.833828 31448 net.cpp:141] Setting up inception_4d/output
I0403 15:19:14.833853 31448 net.cpp:148] Top shape: 24 528 14 14 (2483712)
I0403 15:19:14.833866 31448 net.cpp:156] Memory required for data: 1157244192
I0403 15:19:14.833881 31448 layer_factory.hpp:77] Creating layer inception_4d/output_inception_4d/output_0_split
I0403 15:19:14.833902 31448 net.cpp:91] Creating Layer inception_4d/output_inception_4d/output_0_split
I0403 15:19:14.833920 31448 net.cpp:425] inception_4d/output_inception_4d/output_0_split <- inception_4d/output
I0403 15:19:14.833937 31448 net.cpp:399] inception_4d/output_inception_4d/output_0_split -> inception_4d/output_inception_4d/output_0_split_0
I0403 15:19:14.833958 31448 net.cpp:399] inception_4d/output_inception_4d/output_0_split -> inception_4d/output_inception_4d/output_0_split_1
I0403 15:19:14.833981 31448 net.cpp:399] inception_4d/output_inception_4d/output_0_split -> inception_4d/output_inception_4d/output_0_split_2
I0403 15:19:14.834004 31448 net.cpp:399] inception_4d/output_inception_4d/output_0_split -> inception_4d/output_inception_4d/output_0_split_3
I0403 15:19:14.834025 31448 net.cpp:399] inception_4d/output_inception_4d/output_0_split -> inception_4d/output_inception_4d/output_0_split_4
I0403 15:19:14.834128 31448 net.cpp:141] Setting up inception_4d/output_inception_4d/output_0_split
I0403 15:19:14.834166 31448 net.cpp:148] Top shape: 24 528 14 14 (2483712)
I0403 15:19:14.834185 31448 net.cpp:148] Top shape: 24 528 14 14 (2483712)
I0403 15:19:14.834202 31448 net.cpp:148] Top shape: 24 528 14 14 (2483712)
I0403 15:19:14.834218 31448 net.cpp:148] Top shape: 24 528 14 14 (2483712)
I0403 15:19:14.834234 31448 net.cpp:148] Top shape: 24 528 14 14 (2483712)
I0403 15:19:14.834249 31448 net.cpp:156] Memory required for data: 1206918432
I0403 15:19:14.834264 31448 layer_factory.hpp:77] Creating layer loss2/ave_pool
I0403 15:19:14.834285 31448 net.cpp:91] Creating Layer loss2/ave_pool
I0403 15:19:14.834301 31448 net.cpp:425] loss2/ave_pool <- inception_4d/output_inception_4d/output_0_split_0
I0403 15:19:14.834321 31448 net.cpp:399] loss2/ave_pool -> loss2/ave_pool
I0403 15:19:14.834695 31448 net.cpp:141] Setting up loss2/ave_pool
I0403 15:19:14.834722 31448 net.cpp:148] Top shape: 24 528 4 4 (202752)
I0403 15:19:14.834738 31448 net.cpp:156] Memory required for data: 1207729440
I0403 15:19:14.834754 31448 layer_factory.hpp:77] Creating layer loss2/conv
I0403 15:19:14.834779 31448 net.cpp:91] Creating Layer loss2/conv
I0403 15:19:14.834797 31448 net.cpp:425] loss2/conv <- loss2/ave_pool
I0403 15:19:14.834817 31448 net.cpp:399] loss2/conv -> loss2/conv
I0403 15:19:14.836802 31448 net.cpp:141] Setting up loss2/conv
I0403 15:19:14.836833 31448 net.cpp:148] Top shape: 24 128 4 4 (49152)
I0403 15:19:14.836849 31448 net.cpp:156] Memory required for data: 1207926048
I0403 15:19:14.836869 31448 layer_factory.hpp:77] Creating layer loss2/relu_conv
I0403 15:19:14.836887 31448 net.cpp:91] Creating Layer loss2/relu_conv
I0403 15:19:14.836905 31448 net.cpp:425] loss2/relu_conv <- loss2/conv
I0403 15:19:14.836925 31448 net.cpp:386] loss2/relu_conv -> loss2/conv (in-place)
I0403 15:19:14.837224 31448 net.cpp:141] Setting up loss2/relu_conv
I0403 15:19:14.837250 31448 net.cpp:148] Top shape: 24 128 4 4 (49152)
I0403 15:19:14.837266 31448 net.cpp:156] Memory required for data: 1208122656
I0403 15:19:14.837281 31448 layer_factory.hpp:77] Creating layer loss2/fc
I0403 15:19:14.837301 31448 net.cpp:91] Creating Layer loss2/fc
I0403 15:19:14.837318 31448 net.cpp:425] loss2/fc <- loss2/conv
I0403 15:19:14.837340 31448 net.cpp:399] loss2/fc -> loss2/fc
I0403 15:19:14.855350 31448 net.cpp:141] Setting up loss2/fc
I0403 15:19:14.855386 31448 net.cpp:148] Top shape: 24 1024 (24576)
I0403 15:19:14.855401 31448 net.cpp:156] Memory required for data: 1208220960
I0403 15:19:14.855420 31448 layer_factory.hpp:77] Creating layer loss2/relu_fc
I0403 15:19:14.855439 31448 net.cpp:91] Creating Layer loss2/relu_fc
I0403 15:19:14.855455 31448 net.cpp:425] loss2/relu_fc <- loss2/fc
I0403 15:19:14.855473 31448 net.cpp:386] loss2/relu_fc -> loss2/fc (in-place)
I0403 15:19:14.855772 31448 net.cpp:141] Setting up loss2/relu_fc
I0403 15:19:14.855803 31448 net.cpp:148] Top shape: 24 1024 (24576)
I0403 15:19:14.855828 31448 net.cpp:156] Memory required for data: 1208319264
I0403 15:19:14.855854 31448 layer_factory.hpp:77] Creating layer loss2/drop_fc
I0403 15:19:14.855888 31448 net.cpp:91] Creating Layer loss2/drop_fc
I0403 15:19:14.855906 31448 net.cpp:425] loss2/drop_fc <- loss2/fc
I0403 15:19:14.855924 31448 net.cpp:386] loss2/drop_fc -> loss2/fc (in-place)
I0403 15:19:14.855973 31448 net.cpp:141] Setting up loss2/drop_fc
I0403 15:19:14.855996 31448 net.cpp:148] Top shape: 24 1024 (24576)
I0403 15:19:14.856010 31448 net.cpp:156] Memory required for data: 1208417568
I0403 15:19:14.856024 31448 layer_factory.hpp:77] Creating layer loss2/classifier_plantvillage
I0403 15:19:14.856045 31448 net.cpp:91] Creating Layer loss2/classifier_plantvillage
I0403 15:19:14.856062 31448 net.cpp:425] loss2/classifier_plantvillage <- loss2/fc
I0403 15:19:14.856081 31448 net.cpp:399] loss2/classifier_plantvillage -> loss2/classifier_plantvillage
I0403 15:19:14.856470 31448 net.cpp:141] Setting up loss2/classifier_plantvillage
I0403 15:19:14.856501 31448 net.cpp:148] Top shape: 24 38 (912)
I0403 15:19:14.856530 31448 net.cpp:156] Memory required for data: 1208421216
I0403 15:19:14.856569 31448 layer_factory.hpp:77] Creating layer loss2/classifier_plantvillage_loss2/classifier_plantvillage_0_split
I0403 15:19:14.856587 31448 net.cpp:91] Creating Layer loss2/classifier_plantvillage_loss2/classifier_plantvillage_0_split
I0403 15:19:14.856616 31448 net.cpp:425] loss2/classifier_plantvillage_loss2/classifier_plantvillage_0_split <- loss2/classifier_plantvillage
I0403 15:19:14.856637 31448 net.cpp:399] loss2/classifier_plantvillage_loss2/classifier_plantvillage_0_split -> loss2/classifier_plantvillage_loss2/classifier_plantvillage_0_split_0
I0403 15:19:14.856659 31448 net.cpp:399] loss2/classifier_plantvillage_loss2/classifier_plantvillage_0_split -> loss2/classifier_plantvillage_loss2/classifier_plantvillage_0_split_1
I0403 15:19:14.856681 31448 net.cpp:399] loss2/classifier_plantvillage_loss2/classifier_plantvillage_0_split -> loss2/classifier_plantvillage_loss2/classifier_plantvillage_0_split_2
I0403 15:19:14.856761 31448 net.cpp:141] Setting up loss2/classifier_plantvillage_loss2/classifier_plantvillage_0_split
I0403 15:19:14.856786 31448 net.cpp:148] Top shape: 24 38 (912)
I0403 15:19:14.856803 31448 net.cpp:148] Top shape: 24 38 (912)
I0403 15:19:14.856819 31448 net.cpp:148] Top shape: 24 38 (912)
I0403 15:19:14.856834 31448 net.cpp:156] Memory required for data: 1208432160
I0403 15:19:14.856849 31448 layer_factory.hpp:77] Creating layer inception_4e/1x1
I0403 15:19:14.856873 31448 net.cpp:91] Creating Layer inception_4e/1x1
I0403 15:19:14.856902 31448 net.cpp:425] inception_4e/1x1 <- inception_4d/output_inception_4d/output_0_split_1
I0403 15:19:14.856921 31448 net.cpp:399] inception_4e/1x1 -> inception_4e/1x1
I0403 15:19:14.858777 31448 net.cpp:141] Setting up inception_4e/1x1
I0403 15:19:14.858804 31448 net.cpp:148] Top shape: 24 256 14 14 (1204224)
I0403 15:19:14.858821 31448 net.cpp:156] Memory required for data: 1213249056
I0403 15:19:14.858839 31448 layer_factory.hpp:77] Creating layer inception_4e/relu_1x1
I0403 15:19:14.858858 31448 net.cpp:91] Creating Layer inception_4e/relu_1x1
I0403 15:19:14.858878 31448 net.cpp:425] inception_4e/relu_1x1 <- inception_4e/1x1
I0403 15:19:14.858896 31448 net.cpp:386] inception_4e/relu_1x1 -> inception_4e/1x1 (in-place)
I0403 15:19:14.859195 31448 net.cpp:141] Setting up inception_4e/relu_1x1
I0403 15:19:14.859222 31448 net.cpp:148] Top shape: 24 256 14 14 (1204224)
I0403 15:19:14.859238 31448 net.cpp:156] Memory required for data: 1218065952
I0403 15:19:14.859253 31448 layer_factory.hpp:77] Creating layer inception_4e/3x3_reduce
I0403 15:19:14.859277 31448 net.cpp:91] Creating Layer inception_4e/3x3_reduce
I0403 15:19:14.859294 31448 net.cpp:425] inception_4e/3x3_reduce <- inception_4d/output_inception_4d/output_0_split_2
I0403 15:19:14.859315 31448 net.cpp:399] inception_4e/3x3_reduce -> inception_4e/3x3_reduce
I0403 15:19:14.861440 31448 net.cpp:141] Setting up inception_4e/3x3_reduce
I0403 15:19:14.861470 31448 net.cpp:148] Top shape: 24 160 14 14 (752640)
I0403 15:19:14.861486 31448 net.cpp:156] Memory required for data: 1221076512
I0403 15:19:14.861505 31448 layer_factory.hpp:77] Creating layer inception_4e/relu_3x3_reduce
I0403 15:19:14.861524 31448 net.cpp:91] Creating Layer inception_4e/relu_3x3_reduce
I0403 15:19:14.861546 31448 net.cpp:425] inception_4e/relu_3x3_reduce <- inception_4e/3x3_reduce
I0403 15:19:14.861567 31448 net.cpp:386] inception_4e/relu_3x3_reduce -> inception_4e/3x3_reduce (in-place)
I0403 15:19:14.861755 31448 net.cpp:141] Setting up inception_4e/relu_3x3_reduce
I0403 15:19:14.861781 31448 net.cpp:148] Top shape: 24 160 14 14 (752640)
I0403 15:19:14.861796 31448 net.cpp:156] Memory required for data: 1224087072
I0403 15:19:14.861811 31448 layer_factory.hpp:77] Creating layer inception_4e/3x3
I0403 15:19:14.861835 31448 net.cpp:91] Creating Layer inception_4e/3x3
I0403 15:19:14.861851 31448 net.cpp:425] inception_4e/3x3 <- inception_4e/3x3_reduce
I0403 15:19:14.861871 31448 net.cpp:399] inception_4e/3x3 -> inception_4e/3x3
I0403 15:19:14.866962 31448 net.cpp:141] Setting up inception_4e/3x3
I0403 15:19:14.867003 31448 net.cpp:148] Top shape: 24 320 14 14 (1505280)
I0403 15:19:14.867020 31448 net.cpp:156] Memory required for data: 1230108192
I0403 15:19:14.867039 31448 layer_factory.hpp:77] Creating layer inception_4e/relu_3x3
I0403 15:19:14.867060 31448 net.cpp:91] Creating Layer inception_4e/relu_3x3
I0403 15:19:14.867079 31448 net.cpp:425] inception_4e/relu_3x3 <- inception_4e/3x3
I0403 15:19:14.867096 31448 net.cpp:386] inception_4e/relu_3x3 -> inception_4e/3x3 (in-place)
I0403 15:19:14.867398 31448 net.cpp:141] Setting up inception_4e/relu_3x3
I0403 15:19:14.867424 31448 net.cpp:148] Top shape: 24 320 14 14 (1505280)
I0403 15:19:14.867439 31448 net.cpp:156] Memory required for data: 1236129312
I0403 15:19:14.867455 31448 layer_factory.hpp:77] Creating layer inception_4e/5x5_reduce
I0403 15:19:14.867478 31448 net.cpp:91] Creating Layer inception_4e/5x5_reduce
I0403 15:19:14.867496 31448 net.cpp:425] inception_4e/5x5_reduce <- inception_4d/output_inception_4d/output_0_split_3
I0403 15:19:14.867518 31448 net.cpp:399] inception_4e/5x5_reduce -> inception_4e/5x5_reduce
I0403 15:19:14.868688 31448 net.cpp:141] Setting up inception_4e/5x5_reduce
I0403 15:19:14.868719 31448 net.cpp:148] Top shape: 24 32 14 14 (150528)
I0403 15:19:14.868736 31448 net.cpp:156] Memory required for data: 1236731424
I0403 15:19:14.868754 31448 layer_factory.hpp:77] Creating layer inception_4e/relu_5x5_reduce
I0403 15:19:14.868774 31448 net.cpp:91] Creating Layer inception_4e/relu_5x5_reduce
I0403 15:19:14.868791 31448 net.cpp:425] inception_4e/relu_5x5_reduce <- inception_4e/5x5_reduce
I0403 15:19:14.868813 31448 net.cpp:386] inception_4e/relu_5x5_reduce -> inception_4e/5x5_reduce (in-place)
I0403 15:19:14.869205 31448 net.cpp:141] Setting up inception_4e/relu_5x5_reduce
I0403 15:19:14.869235 31448 net.cpp:148] Top shape: 24 32 14 14 (150528)
I0403 15:19:14.869251 31448 net.cpp:156] Memory required for data: 1237333536
I0403 15:19:14.869266 31448 layer_factory.hpp:77] Creating layer inception_4e/5x5
I0403 15:19:14.869305 31448 net.cpp:91] Creating Layer inception_4e/5x5
I0403 15:19:14.869325 31448 net.cpp:425] inception_4e/5x5 <- inception_4e/5x5_reduce
I0403 15:19:14.869345 31448 net.cpp:399] inception_4e/5x5 -> inception_4e/5x5
I0403 15:19:14.871237 31448 net.cpp:141] Setting up inception_4e/5x5
I0403 15:19:14.871266 31448 net.cpp:148] Top shape: 24 128 14 14 (602112)
I0403 15:19:14.871282 31448 net.cpp:156] Memory required for data: 1239741984
I0403 15:19:14.871304 31448 layer_factory.hpp:77] Creating layer inception_4e/relu_5x5
I0403 15:19:14.871323 31448 net.cpp:91] Creating Layer inception_4e/relu_5x5
I0403 15:19:14.871340 31448 net.cpp:425] inception_4e/relu_5x5 <- inception_4e/5x5
I0403 15:19:14.871357 31448 net.cpp:386] inception_4e/relu_5x5 -> inception_4e/5x5 (in-place)
I0403 15:19:14.871562 31448 net.cpp:141] Setting up inception_4e/relu_5x5
I0403 15:19:14.871588 31448 net.cpp:148] Top shape: 24 128 14 14 (602112)
I0403 15:19:14.871604 31448 net.cpp:156] Memory required for data: 1242150432
I0403 15:19:14.871619 31448 layer_factory.hpp:77] Creating layer inception_4e/pool
I0403 15:19:14.871639 31448 net.cpp:91] Creating Layer inception_4e/pool
I0403 15:19:14.871655 31448 net.cpp:425] inception_4e/pool <- inception_4d/output_inception_4d/output_0_split_4
I0403 15:19:14.871676 31448 net.cpp:399] inception_4e/pool -> inception_4e/pool
I0403 15:19:14.871747 31448 net.cpp:141] Setting up inception_4e/pool
I0403 15:19:14.871772 31448 net.cpp:148] Top shape: 24 528 14 14 (2483712)
I0403 15:19:14.871786 31448 net.cpp:156] Memory required for data: 1252085280
I0403 15:19:14.871801 31448 layer_factory.hpp:77] Creating layer inception_4e/pool_proj
I0403 15:19:14.871825 31448 net.cpp:91] Creating Layer inception_4e/pool_proj
I0403 15:19:14.871845 31448 net.cpp:425] inception_4e/pool_proj <- inception_4e/pool
I0403 15:19:14.871863 31448 net.cpp:399] inception_4e/pool_proj -> inception_4e/pool_proj
I0403 15:19:14.873361 31448 net.cpp:141] Setting up inception_4e/pool_proj
I0403 15:19:14.873401 31448 net.cpp:148] Top shape: 24 128 14 14 (602112)
I0403 15:19:14.873417 31448 net.cpp:156] Memory required for data: 1254493728
I0403 15:19:14.873436 31448 layer_factory.hpp:77] Creating layer inception_4e/relu_pool_proj
I0403 15:19:14.873461 31448 net.cpp:91] Creating Layer inception_4e/relu_pool_proj
I0403 15:19:14.873478 31448 net.cpp:425] inception_4e/relu_pool_proj <- inception_4e/pool_proj
I0403 15:19:14.873497 31448 net.cpp:386] inception_4e/relu_pool_proj -> inception_4e/pool_proj (in-place)
I0403 15:19:14.873795 31448 net.cpp:141] Setting up inception_4e/relu_pool_proj
I0403 15:19:14.873822 31448 net.cpp:148] Top shape: 24 128 14 14 (602112)
I0403 15:19:14.873838 31448 net.cpp:156] Memory required for data: 1256902176
I0403 15:19:14.873854 31448 layer_factory.hpp:77] Creating layer inception_4e/output
I0403 15:19:14.873874 31448 net.cpp:91] Creating Layer inception_4e/output
I0403 15:19:14.873891 31448 net.cpp:425] inception_4e/output <- inception_4e/1x1
I0403 15:19:14.873909 31448 net.cpp:425] inception_4e/output <- inception_4e/3x3
I0403 15:19:14.873925 31448 net.cpp:425] inception_4e/output <- inception_4e/5x5
I0403 15:19:14.873941 31448 net.cpp:425] inception_4e/output <- inception_4e/pool_proj
I0403 15:19:14.873960 31448 net.cpp:399] inception_4e/output -> inception_4e/output
I0403 15:19:14.874011 31448 net.cpp:141] Setting up inception_4e/output
I0403 15:19:14.874034 31448 net.cpp:148] Top shape: 24 832 14 14 (3913728)
I0403 15:19:14.874050 31448 net.cpp:156] Memory required for data: 1272557088
I0403 15:19:14.874065 31448 layer_factory.hpp:77] Creating layer pool4/3x3_s2
I0403 15:19:14.874083 31448 net.cpp:91] Creating Layer pool4/3x3_s2
I0403 15:19:14.874099 31448 net.cpp:425] pool4/3x3_s2 <- inception_4e/output
I0403 15:19:14.874119 31448 net.cpp:399] pool4/3x3_s2 -> pool4/3x3_s2
I0403 15:19:14.874186 31448 net.cpp:141] Setting up pool4/3x3_s2
I0403 15:19:14.874210 31448 net.cpp:148] Top shape: 24 832 7 7 (978432)
I0403 15:19:14.874225 31448 net.cpp:156] Memory required for data: 1276470816
I0403 15:19:14.874241 31448 layer_factory.hpp:77] Creating layer pool4/3x3_s2_pool4/3x3_s2_0_split
I0403 15:19:14.874263 31448 net.cpp:91] Creating Layer pool4/3x3_s2_pool4/3x3_s2_0_split
I0403 15:19:14.874280 31448 net.cpp:425] pool4/3x3_s2_pool4/3x3_s2_0_split <- pool4/3x3_s2
I0403 15:19:14.874301 31448 net.cpp:399] pool4/3x3_s2_pool4/3x3_s2_0_split -> pool4/3x3_s2_pool4/3x3_s2_0_split_0
I0403 15:19:14.874322 31448 net.cpp:399] pool4/3x3_s2_pool4/3x3_s2_0_split -> pool4/3x3_s2_pool4/3x3_s2_0_split_1
I0403 15:19:14.874343 31448 net.cpp:399] pool4/3x3_s2_pool4/3x3_s2_0_split -> pool4/3x3_s2_pool4/3x3_s2_0_split_2
I0403 15:19:14.874363 31448 net.cpp:399] pool4/3x3_s2_pool4/3x3_s2_0_split -> pool4/3x3_s2_pool4/3x3_s2_0_split_3
I0403 15:19:14.874467 31448 net.cpp:141] Setting up pool4/3x3_s2_pool4/3x3_s2_0_split
I0403 15:19:14.874495 31448 net.cpp:148] Top shape: 24 832 7 7 (978432)
I0403 15:19:14.874512 31448 net.cpp:148] Top shape: 24 832 7 7 (978432)
I0403 15:19:14.874529 31448 net.cpp:148] Top shape: 24 832 7 7 (978432)
I0403 15:19:14.874572 31448 net.cpp:148] Top shape: 24 832 7 7 (978432)
I0403 15:19:14.874588 31448 net.cpp:156] Memory required for data: 1292125728
I0403 15:19:14.874604 31448 layer_factory.hpp:77] Creating layer inception_5a/1x1
I0403 15:19:14.874629 31448 net.cpp:91] Creating Layer inception_5a/1x1
I0403 15:19:14.874649 31448 net.cpp:425] inception_5a/1x1 <- pool4/3x3_s2_pool4/3x3_s2_0_split_0
I0403 15:19:14.874689 31448 net.cpp:399] inception_5a/1x1 -> inception_5a/1x1
I0403 15:19:14.877602 31448 net.cpp:141] Setting up inception_5a/1x1
I0403 15:19:14.877634 31448 net.cpp:148] Top shape: 24 256 7 7 (301056)
I0403 15:19:14.877650 31448 net.cpp:156] Memory required for data: 1293329952
I0403 15:19:14.877668 31448 layer_factory.hpp:77] Creating layer inception_5a/relu_1x1
I0403 15:19:14.877687 31448 net.cpp:91] Creating Layer inception_5a/relu_1x1
I0403 15:19:14.877703 31448 net.cpp:425] inception_5a/relu_1x1 <- inception_5a/1x1
I0403 15:19:14.877722 31448 net.cpp:386] inception_5a/relu_1x1 -> inception_5a/1x1 (in-place)
I0403 15:19:14.878088 31448 net.cpp:141] Setting up inception_5a/relu_1x1
I0403 15:19:14.878116 31448 net.cpp:148] Top shape: 24 256 7 7 (301056)
I0403 15:19:14.878132 31448 net.cpp:156] Memory required for data: 1294534176
I0403 15:19:14.878149 31448 layer_factory.hpp:77] Creating layer inception_5a/3x3_reduce
I0403 15:19:14.878171 31448 net.cpp:91] Creating Layer inception_5a/3x3_reduce
I0403 15:19:14.878190 31448 net.cpp:425] inception_5a/3x3_reduce <- pool4/3x3_s2_pool4/3x3_s2_0_split_1
I0403 15:19:14.878208 31448 net.cpp:399] inception_5a/3x3_reduce -> inception_5a/3x3_reduce
I0403 15:19:14.880651 31448 net.cpp:141] Setting up inception_5a/3x3_reduce
I0403 15:19:14.880681 31448 net.cpp:148] Top shape: 24 160 7 7 (188160)
I0403 15:19:14.880697 31448 net.cpp:156] Memory required for data: 1295286816
I0403 15:19:14.880715 31448 layer_factory.hpp:77] Creating layer inception_5a/relu_3x3_reduce
I0403 15:19:14.880736 31448 net.cpp:91] Creating Layer inception_5a/relu_3x3_reduce
I0403 15:19:14.880753 31448 net.cpp:425] inception_5a/relu_3x3_reduce <- inception_5a/3x3_reduce
I0403 15:19:14.880771 31448 net.cpp:386] inception_5a/relu_3x3_reduce -> inception_5a/3x3_reduce (in-place)
I0403 15:19:14.880954 31448 net.cpp:141] Setting up inception_5a/relu_3x3_reduce
I0403 15:19:14.880980 31448 net.cpp:148] Top shape: 24 160 7 7 (188160)
I0403 15:19:14.880996 31448 net.cpp:156] Memory required for data: 1296039456
I0403 15:19:14.881011 31448 layer_factory.hpp:77] Creating layer inception_5a/3x3
I0403 15:19:14.881034 31448 net.cpp:91] Creating Layer inception_5a/3x3
I0403 15:19:14.881052 31448 net.cpp:425] inception_5a/3x3 <- inception_5a/3x3_reduce
I0403 15:19:14.881072 31448 net.cpp:399] inception_5a/3x3 -> inception_5a/3x3
I0403 15:19:14.886101 31448 net.cpp:141] Setting up inception_5a/3x3
I0403 15:19:14.886135 31448 net.cpp:148] Top shape: 24 320 7 7 (376320)
I0403 15:19:14.886154 31448 net.cpp:156] Memory required for data: 1297544736
I0403 15:19:14.886173 31448 layer_factory.hpp:77] Creating layer inception_5a/relu_3x3
I0403 15:19:14.886190 31448 net.cpp:91] Creating Layer inception_5a/relu_3x3
I0403 15:19:14.886206 31448 net.cpp:425] inception_5a/relu_3x3 <- inception_5a/3x3
I0403 15:19:14.886226 31448 net.cpp:386] inception_5a/relu_3x3 -> inception_5a/3x3 (in-place)
I0403 15:19:14.886574 31448 net.cpp:141] Setting up inception_5a/relu_3x3
I0403 15:19:14.886602 31448 net.cpp:148] Top shape: 24 320 7 7 (376320)
I0403 15:19:14.886618 31448 net.cpp:156] Memory required for data: 1299050016
I0403 15:19:14.886633 31448 layer_factory.hpp:77] Creating layer inception_5a/5x5_reduce
I0403 15:19:14.886657 31448 net.cpp:91] Creating Layer inception_5a/5x5_reduce
I0403 15:19:14.886675 31448 net.cpp:425] inception_5a/5x5_reduce <- pool4/3x3_s2_pool4/3x3_s2_0_split_2
I0403 15:19:14.886695 31448 net.cpp:399] inception_5a/5x5_reduce -> inception_5a/5x5_reduce
I0403 15:19:14.887912 31448 net.cpp:141] Setting up inception_5a/5x5_reduce
I0403 15:19:14.887943 31448 net.cpp:148] Top shape: 24 32 7 7 (37632)
I0403 15:19:14.887959 31448 net.cpp:156] Memory required for data: 1299200544
I0403 15:19:14.887979 31448 layer_factory.hpp:77] Creating layer inception_5a/relu_5x5_reduce
I0403 15:19:14.887997 31448 net.cpp:91] Creating Layer inception_5a/relu_5x5_reduce
I0403 15:19:14.888013 31448 net.cpp:425] inception_5a/relu_5x5_reduce <- inception_5a/5x5_reduce
I0403 15:19:14.888032 31448 net.cpp:386] inception_5a/relu_5x5_reduce -> inception_5a/5x5_reduce (in-place)
I0403 15:19:14.888327 31448 net.cpp:141] Setting up inception_5a/relu_5x5_reduce
I0403 15:19:14.888353 31448 net.cpp:148] Top shape: 24 32 7 7 (37632)
I0403 15:19:14.888370 31448 net.cpp:156] Memory required for data: 1299351072
I0403 15:19:14.888384 31448 layer_factory.hpp:77] Creating layer inception_5a/5x5
I0403 15:19:14.888406 31448 net.cpp:91] Creating Layer inception_5a/5x5
I0403 15:19:14.888425 31448 net.cpp:425] inception_5a/5x5 <- inception_5a/5x5_reduce
I0403 15:19:14.888447 31448 net.cpp:399] inception_5a/5x5 -> inception_5a/5x5
I0403 15:19:14.890208 31448 net.cpp:141] Setting up inception_5a/5x5
I0403 15:19:14.890249 31448 net.cpp:148] Top shape: 24 128 7 7 (150528)
I0403 15:19:14.890265 31448 net.cpp:156] Memory required for data: 1299953184
I0403 15:19:14.890285 31448 layer_factory.hpp:77] Creating layer inception_5a/relu_5x5
I0403 15:19:14.890301 31448 net.cpp:91] Creating Layer inception_5a/relu_5x5
I0403 15:19:14.890317 31448 net.cpp:425] inception_5a/relu_5x5 <- inception_5a/5x5
I0403 15:19:14.890337 31448 net.cpp:386] inception_5a/relu_5x5 -> inception_5a/5x5 (in-place)
I0403 15:19:14.890524 31448 net.cpp:141] Setting up inception_5a/relu_5x5
I0403 15:19:14.890553 31448 net.cpp:148] Top shape: 24 128 7 7 (150528)
I0403 15:19:14.890571 31448 net.cpp:156] Memory required for data: 1300555296
I0403 15:19:14.890586 31448 layer_factory.hpp:77] Creating layer inception_5a/pool
I0403 15:19:14.890604 31448 net.cpp:91] Creating Layer inception_5a/pool
I0403 15:19:14.890620 31448 net.cpp:425] inception_5a/pool <- pool4/3x3_s2_pool4/3x3_s2_0_split_3
I0403 15:19:14.890641 31448 net.cpp:399] inception_5a/pool -> inception_5a/pool
I0403 15:19:14.890712 31448 net.cpp:141] Setting up inception_5a/pool
I0403 15:19:14.890734 31448 net.cpp:148] Top shape: 24 832 7 7 (978432)
I0403 15:19:14.890749 31448 net.cpp:156] Memory required for data: 1304469024
I0403 15:19:14.890764 31448 layer_factory.hpp:77] Creating layer inception_5a/pool_proj
I0403 15:19:14.890789 31448 net.cpp:91] Creating Layer inception_5a/pool_proj
I0403 15:19:14.890805 31448 net.cpp:425] inception_5a/pool_proj <- inception_5a/pool
I0403 15:19:14.890825 31448 net.cpp:399] inception_5a/pool_proj -> inception_5a/pool_proj
I0403 15:19:14.893123 31448 net.cpp:141] Setting up inception_5a/pool_proj
I0403 15:19:14.893156 31448 net.cpp:148] Top shape: 24 128 7 7 (150528)
I0403 15:19:14.893172 31448 net.cpp:156] Memory required for data: 1305071136
I0403 15:19:14.893190 31448 layer_factory.hpp:77] Creating layer inception_5a/relu_pool_proj
I0403 15:19:14.893209 31448 net.cpp:91] Creating Layer inception_5a/relu_pool_proj
I0403 15:19:14.893225 31448 net.cpp:425] inception_5a/relu_pool_proj <- inception_5a/pool_proj
I0403 15:19:14.893242 31448 net.cpp:386] inception_5a/relu_pool_proj -> inception_5a/pool_proj (in-place)
I0403 15:19:14.893537 31448 net.cpp:141] Setting up inception_5a/relu_pool_proj
I0403 15:19:14.893565 31448 net.cpp:148] Top shape: 24 128 7 7 (150528)
I0403 15:19:14.893581 31448 net.cpp:156] Memory required for data: 1305673248
I0403 15:19:14.893596 31448 layer_factory.hpp:77] Creating layer inception_5a/output
I0403 15:19:14.893613 31448 net.cpp:91] Creating Layer inception_5a/output
I0403 15:19:14.893628 31448 net.cpp:425] inception_5a/output <- inception_5a/1x1
I0403 15:19:14.893646 31448 net.cpp:425] inception_5a/output <- inception_5a/3x3
I0403 15:19:14.893662 31448 net.cpp:425] inception_5a/output <- inception_5a/5x5
I0403 15:19:14.893679 31448 net.cpp:425] inception_5a/output <- inception_5a/pool_proj
I0403 15:19:14.893697 31448 net.cpp:399] inception_5a/output -> inception_5a/output
I0403 15:19:14.893746 31448 net.cpp:141] Setting up inception_5a/output
I0403 15:19:14.893770 31448 net.cpp:148] Top shape: 24 832 7 7 (978432)
I0403 15:19:14.893784 31448 net.cpp:156] Memory required for data: 1309586976
I0403 15:19:14.893800 31448 layer_factory.hpp:77] Creating layer inception_5a/output_inception_5a/output_0_split
I0403 15:19:14.893817 31448 net.cpp:91] Creating Layer inception_5a/output_inception_5a/output_0_split
I0403 15:19:14.893832 31448 net.cpp:425] inception_5a/output_inception_5a/output_0_split <- inception_5a/output
I0403 15:19:14.893851 31448 net.cpp:399] inception_5a/output_inception_5a/output_0_split -> inception_5a/output_inception_5a/output_0_split_0
I0403 15:19:14.893872 31448 net.cpp:399] inception_5a/output_inception_5a/output_0_split -> inception_5a/output_inception_5a/output_0_split_1
I0403 15:19:14.893893 31448 net.cpp:399] inception_5a/output_inception_5a/output_0_split -> inception_5a/output_inception_5a/output_0_split_2
I0403 15:19:14.893913 31448 net.cpp:399] inception_5a/output_inception_5a/output_0_split -> inception_5a/output_inception_5a/output_0_split_3
I0403 15:19:14.894021 31448 net.cpp:141] Setting up inception_5a/output_inception_5a/output_0_split
I0403 15:19:14.894045 31448 net.cpp:148] Top shape: 24 832 7 7 (978432)
I0403 15:19:14.894060 31448 net.cpp:148] Top shape: 24 832 7 7 (978432)
I0403 15:19:14.894076 31448 net.cpp:148] Top shape: 24 832 7 7 (978432)
I0403 15:19:14.894091 31448 net.cpp:148] Top shape: 24 832 7 7 (978432)
I0403 15:19:14.894106 31448 net.cpp:156] Memory required for data: 1325241888
I0403 15:19:14.894121 31448 layer_factory.hpp:77] Creating layer inception_5b/1x1
I0403 15:19:14.894143 31448 net.cpp:91] Creating Layer inception_5b/1x1
I0403 15:19:14.894160 31448 net.cpp:425] inception_5b/1x1 <- inception_5a/output_inception_5a/output_0_split_0
I0403 15:19:14.894181 31448 net.cpp:399] inception_5b/1x1 -> inception_5b/1x1
I0403 15:19:14.897939 31448 net.cpp:141] Setting up inception_5b/1x1
I0403 15:19:14.897969 31448 net.cpp:148] Top shape: 24 384 7 7 (451584)
I0403 15:19:14.897986 31448 net.cpp:156] Memory required for data: 1327048224
I0403 15:19:14.898005 31448 layer_factory.hpp:77] Creating layer inception_5b/relu_1x1
I0403 15:19:14.898025 31448 net.cpp:91] Creating Layer inception_5b/relu_1x1
I0403 15:19:14.898042 31448 net.cpp:425] inception_5b/relu_1x1 <- inception_5b/1x1
I0403 15:19:14.898059 31448 net.cpp:386] inception_5b/relu_1x1 -> inception_5b/1x1 (in-place)
I0403 15:19:14.898365 31448 net.cpp:141] Setting up inception_5b/relu_1x1
I0403 15:19:14.898389 31448 net.cpp:148] Top shape: 24 384 7 7 (451584)
I0403 15:19:14.898404 31448 net.cpp:156] Memory required for data: 1328854560
I0403 15:19:14.898419 31448 layer_factory.hpp:77] Creating layer inception_5b/3x3_reduce
I0403 15:19:14.898442 31448 net.cpp:91] Creating Layer inception_5b/3x3_reduce
I0403 15:19:14.898460 31448 net.cpp:425] inception_5b/3x3_reduce <- inception_5a/output_inception_5a/output_0_split_1
I0403 15:19:14.898483 31448 net.cpp:399] inception_5b/3x3_reduce -> inception_5b/3x3_reduce
I0403 15:19:14.901188 31448 net.cpp:141] Setting up inception_5b/3x3_reduce
I0403 15:19:14.901217 31448 net.cpp:148] Top shape: 24 192 7 7 (225792)
I0403 15:19:14.901234 31448 net.cpp:156] Memory required for data: 1329757728
I0403 15:19:14.901253 31448 layer_factory.hpp:77] Creating layer inception_5b/relu_3x3_reduce
I0403 15:19:14.901274 31448 net.cpp:91] Creating Layer inception_5b/relu_3x3_reduce
I0403 15:19:14.901293 31448 net.cpp:425] inception_5b/relu_3x3_reduce <- inception_5b/3x3_reduce
I0403 15:19:14.901309 31448 net.cpp:386] inception_5b/relu_3x3_reduce -> inception_5b/3x3_reduce (in-place)
I0403 15:19:14.901499 31448 net.cpp:141] Setting up inception_5b/relu_3x3_reduce
I0403 15:19:14.901526 31448 net.cpp:148] Top shape: 24 192 7 7 (225792)
I0403 15:19:14.901546 31448 net.cpp:156] Memory required for data: 1330660896
I0403 15:19:14.901562 31448 layer_factory.hpp:77] Creating layer inception_5b/3x3
I0403 15:19:14.901587 31448 net.cpp:91] Creating Layer inception_5b/3x3
I0403 15:19:14.901603 31448 net.cpp:425] inception_5b/3x3 <- inception_5b/3x3_reduce
I0403 15:19:14.901623 31448 net.cpp:399] inception_5b/3x3 -> inception_5b/3x3
I0403 15:19:14.908242 31448 net.cpp:141] Setting up inception_5b/3x3
I0403 15:19:14.908272 31448 net.cpp:148] Top shape: 24 384 7 7 (451584)
I0403 15:19:14.908290 31448 net.cpp:156] Memory required for data: 1332467232
I0403 15:19:14.908309 31448 layer_factory.hpp:77] Creating layer inception_5b/relu_3x3
I0403 15:19:14.908327 31448 net.cpp:91] Creating Layer inception_5b/relu_3x3
I0403 15:19:14.908344 31448 net.cpp:425] inception_5b/relu_3x3 <- inception_5b/3x3
I0403 15:19:14.908361 31448 net.cpp:386] inception_5b/relu_3x3 -> inception_5b/3x3 (in-place)
I0403 15:19:14.908702 31448 net.cpp:141] Setting up inception_5b/relu_3x3
I0403 15:19:14.908731 31448 net.cpp:148] Top shape: 24 384 7 7 (451584)
I0403 15:19:14.908747 31448 net.cpp:156] Memory required for data: 1334273568
I0403 15:19:14.908762 31448 layer_factory.hpp:77] Creating layer inception_5b/5x5_reduce
I0403 15:19:14.908797 31448 net.cpp:91] Creating Layer inception_5b/5x5_reduce
I0403 15:19:14.908817 31448 net.cpp:425] inception_5b/5x5_reduce <- inception_5a/output_inception_5a/output_0_split_2
I0403 15:19:14.908838 31448 net.cpp:399] inception_5b/5x5_reduce -> inception_5b/5x5_reduce
I0403 15:19:14.910156 31448 net.cpp:141] Setting up inception_5b/5x5_reduce
I0403 15:19:14.910183 31448 net.cpp:148] Top shape: 24 48 7 7 (56448)
I0403 15:19:14.910200 31448 net.cpp:156] Memory required for data: 1334499360
I0403 15:19:14.910219 31448 layer_factory.hpp:77] Creating layer inception_5b/relu_5x5_reduce
I0403 15:19:14.910241 31448 net.cpp:91] Creating Layer inception_5b/relu_5x5_reduce
I0403 15:19:14.910260 31448 net.cpp:425] inception_5b/relu_5x5_reduce <- inception_5b/5x5_reduce
I0403 15:19:14.910277 31448 net.cpp:386] inception_5b/relu_5x5_reduce -> inception_5b/5x5_reduce (in-place)
I0403 15:19:14.910662 31448 net.cpp:141] Setting up inception_5b/relu_5x5_reduce
I0403 15:19:14.910689 31448 net.cpp:148] Top shape: 24 48 7 7 (56448)
I0403 15:19:14.910706 31448 net.cpp:156] Memory required for data: 1334725152
I0403 15:19:14.910722 31448 layer_factory.hpp:77] Creating layer inception_5b/5x5
I0403 15:19:14.910742 31448 net.cpp:91] Creating Layer inception_5b/5x5
I0403 15:19:14.910760 31448 net.cpp:425] inception_5b/5x5 <- inception_5b/5x5_reduce
I0403 15:19:14.910779 31448 net.cpp:399] inception_5b/5x5 -> inception_5b/5x5
I0403 15:19:14.912838 31448 net.cpp:141] Setting up inception_5b/5x5
I0403 15:19:14.912869 31448 net.cpp:148] Top shape: 24 128 7 7 (150528)
I0403 15:19:14.912888 31448 net.cpp:156] Memory required for data: 1335327264
I0403 15:19:14.912907 31448 layer_factory.hpp:77] Creating layer inception_5b/relu_5x5
I0403 15:19:14.912926 31448 net.cpp:91] Creating Layer inception_5b/relu_5x5
I0403 15:19:14.912945 31448 net.cpp:425] inception_5b/relu_5x5 <- inception_5b/5x5
I0403 15:19:14.912964 31448 net.cpp:386] inception_5b/relu_5x5 -> inception_5b/5x5 (in-place)
I0403 15:19:14.913163 31448 net.cpp:141] Setting up inception_5b/relu_5x5
I0403 15:19:14.913188 31448 net.cpp:148] Top shape: 24 128 7 7 (150528)
I0403 15:19:14.913204 31448 net.cpp:156] Memory required for data: 1335929376
I0403 15:19:14.913220 31448 layer_factory.hpp:77] Creating layer inception_5b/pool
I0403 15:19:14.913239 31448 net.cpp:91] Creating Layer inception_5b/pool
I0403 15:19:14.913256 31448 net.cpp:425] inception_5b/pool <- inception_5a/output_inception_5a/output_0_split_3
I0403 15:19:14.913277 31448 net.cpp:399] inception_5b/pool -> inception_5b/pool
I0403 15:19:14.913352 31448 net.cpp:141] Setting up inception_5b/pool
I0403 15:19:14.913375 31448 net.cpp:148] Top shape: 24 832 7 7 (978432)
I0403 15:19:14.913391 31448 net.cpp:156] Memory required for data: 1339843104
I0403 15:19:14.913406 31448 layer_factory.hpp:77] Creating layer inception_5b/pool_proj
I0403 15:19:14.913429 31448 net.cpp:91] Creating Layer inception_5b/pool_proj
I0403 15:19:14.913447 31448 net.cpp:425] inception_5b/pool_proj <- inception_5b/pool
I0403 15:19:14.913471 31448 net.cpp:399] inception_5b/pool_proj -> inception_5b/pool_proj
I0403 15:19:14.915843 31448 net.cpp:141] Setting up inception_5b/pool_proj
I0403 15:19:14.915874 31448 net.cpp:148] Top shape: 24 128 7 7 (150528)
I0403 15:19:14.915891 31448 net.cpp:156] Memory required for data: 1340445216
I0403 15:19:14.915911 31448 layer_factory.hpp:77] Creating layer inception_5b/relu_pool_proj
I0403 15:19:14.915933 31448 net.cpp:91] Creating Layer inception_5b/relu_pool_proj
I0403 15:19:14.915951 31448 net.cpp:425] inception_5b/relu_pool_proj <- inception_5b/pool_proj
I0403 15:19:14.915969 31448 net.cpp:386] inception_5b/relu_pool_proj -> inception_5b/pool_proj (in-place)
I0403 15:19:14.916278 31448 net.cpp:141] Setting up inception_5b/relu_pool_proj
I0403 15:19:14.916306 31448 net.cpp:148] Top shape: 24 128 7 7 (150528)
I0403 15:19:14.916321 31448 net.cpp:156] Memory required for data: 1341047328
I0403 15:19:14.916337 31448 layer_factory.hpp:77] Creating layer inception_5b/output
I0403 15:19:14.916357 31448 net.cpp:91] Creating Layer inception_5b/output
I0403 15:19:14.916388 31448 net.cpp:425] inception_5b/output <- inception_5b/1x1
I0403 15:19:14.916407 31448 net.cpp:425] inception_5b/output <- inception_5b/3x3
I0403 15:19:14.916425 31448 net.cpp:425] inception_5b/output <- inception_5b/5x5
I0403 15:19:14.916442 31448 net.cpp:425] inception_5b/output <- inception_5b/pool_proj
I0403 15:19:14.916460 31448 net.cpp:399] inception_5b/output -> inception_5b/output
I0403 15:19:14.916514 31448 net.cpp:141] Setting up inception_5b/output
I0403 15:19:14.916543 31448 net.cpp:148] Top shape: 24 1024 7 7 (1204224)
I0403 15:19:14.916558 31448 net.cpp:156] Memory required for data: 1345864224
I0403 15:19:14.916576 31448 layer_factory.hpp:77] Creating layer pool5/7x7_s1
I0403 15:19:14.916596 31448 net.cpp:91] Creating Layer pool5/7x7_s1
I0403 15:19:14.916615 31448 net.cpp:425] pool5/7x7_s1 <- inception_5b/output
I0403 15:19:14.916633 31448 net.cpp:399] pool5/7x7_s1 -> pool5/7x7_s1
I0403 15:19:14.916851 31448 net.cpp:141] Setting up pool5/7x7_s1
I0403 15:19:14.916878 31448 net.cpp:148] Top shape: 24 1024 1 1 (24576)
I0403 15:19:14.916894 31448 net.cpp:156] Memory required for data: 1345962528
I0403 15:19:14.916909 31448 layer_factory.hpp:77] Creating layer pool5/drop_7x7_s1
I0403 15:19:14.916929 31448 net.cpp:91] Creating Layer pool5/drop_7x7_s1
I0403 15:19:14.916944 31448 net.cpp:425] pool5/drop_7x7_s1 <- pool5/7x7_s1
I0403 15:19:14.916967 31448 net.cpp:386] pool5/drop_7x7_s1 -> pool5/7x7_s1 (in-place)
I0403 15:19:14.917018 31448 net.cpp:141] Setting up pool5/drop_7x7_s1
I0403 15:19:14.917042 31448 net.cpp:148] Top shape: 24 1024 1 1 (24576)
I0403 15:19:14.917057 31448 net.cpp:156] Memory required for data: 1346060832
I0403 15:19:14.917073 31448 layer_factory.hpp:77] Creating layer loss3/classifier_plantvillage
I0403 15:19:14.917094 31448 net.cpp:91] Creating Layer loss3/classifier_plantvillage
I0403 15:19:14.917114 31448 net.cpp:425] loss3/classifier_plantvillage <- pool5/7x7_s1
I0403 15:19:14.917135 31448 net.cpp:399] loss3/classifier_plantvillage -> loss3/classifier_plantvillage
I0403 15:19:14.917567 31448 net.cpp:141] Setting up loss3/classifier_plantvillage
I0403 15:19:14.917592 31448 net.cpp:148] Top shape: 24 38 (912)
I0403 15:19:14.917608 31448 net.cpp:156] Memory required for data: 1346064480
I0403 15:19:14.917626 31448 layer_factory.hpp:77] Creating layer loss3/classifier_plantvillage_loss3/classifier_plantvillage_0_split
I0403 15:19:14.917644 31448 net.cpp:91] Creating Layer loss3/classifier_plantvillage_loss3/classifier_plantvillage_0_split
I0403 15:19:14.917665 31448 net.cpp:425] loss3/classifier_plantvillage_loss3/classifier_plantvillage_0_split <- loss3/classifier_plantvillage
I0403 15:19:14.917683 31448 net.cpp:399] loss3/classifier_plantvillage_loss3/classifier_plantvillage_0_split -> loss3/classifier_plantvillage_loss3/classifier_plantvillage_0_split_0
I0403 15:19:14.917704 31448 net.cpp:399] loss3/classifier_plantvillage_loss3/classifier_plantvillage_0_split -> loss3/classifier_plantvillage_loss3/classifier_plantvillage_0_split_1
I0403 15:19:14.917724 31448 net.cpp:399] loss3/classifier_plantvillage_loss3/classifier_plantvillage_0_split -> loss3/classifier_plantvillage_loss3/classifier_plantvillage_0_split_2
I0403 15:19:14.917745 31448 net.cpp:399] loss3/classifier_plantvillage_loss3/classifier_plantvillage_0_split -> loss3/classifier_plantvillage_loss3/classifier_plantvillage_0_split_3
I0403 15:19:14.917845 31448 net.cpp:141] Setting up loss3/classifier_plantvillage_loss3/classifier_plantvillage_0_split
I0403 15:19:14.917868 31448 net.cpp:148] Top shape: 24 38 (912)
I0403 15:19:14.917884 31448 net.cpp:148] Top shape: 24 38 (912)
I0403 15:19:14.917901 31448 net.cpp:148] Top shape: 24 38 (912)
I0403 15:19:14.917917 31448 net.cpp:148] Top shape: 24 38 (912)
I0403 15:19:14.917932 31448 net.cpp:156] Memory required for data: 1346079072
I0403 15:19:14.917946 31448 layer_factory.hpp:77] Creating layer loss1/loss
I0403 15:19:14.917969 31448 net.cpp:91] Creating Layer loss1/loss
I0403 15:19:14.917987 31448 net.cpp:425] loss1/loss <- loss1/classifier_plantvillage_loss1/classifier_plantvillage_0_split_0
I0403 15:19:14.918018 31448 net.cpp:425] loss1/loss <- label_data_1_split_0
…
