…
I0403 15:00:57.619855 30881 net.cpp:313] The NetState phase (1) differed from the phase (0) specified by a rule in layer data
I0403 15:00:57.621027 30881 net.cpp:49] Initializing net from parameters: 
state {
  phase: TEST
}
layer {
  name: "data"
  type: "Data"
  top: "data"
  top: "label"
  include {
    phase: TEST
  }
  transform_param {
    mirror: false
    crop_size: 224
    mean_file: "/home/mohanty/data/final_dataset/lmdb/grayscale-80-20/mean.binaryproto"
  }
  data_param {
    source: "/home/mohanty/data/final_dataset/lmdb/grayscale-80-20/test_db"
    batch_size: 24
    backend: LMDB
  }
}
layer {
  name: "conv1/7x7_s2"
  type: "Convolution"
  bottom: "data"
  top: "conv1/7x7_s2"
  param {
    lr_mult: 1
    decay_mult: 1
  }
  param {
    lr_mult: 2
    decay_mult: 0
  }
  convolution_param {
    num_output: 64
    pad: 3
    kernel_size: 7
    stride: 2
    weight_filler {
      type: "xavier"
      std: 0.1
    }
    bias_filler {
      type: "constant"
      value: 0.2
    }
  }
}
layer {
  name: "conv1/relu_7x7"
  type: "ReLU"
  bottom: "conv1/7x7_s2"
  top: "conv1/7x7_s2"
}
layer {
  name: "pool1/3x3_s2"
  type: "Pooling"
  bottom: "conv1/7x7_s2"
  top: "pool1/3x3_s2"
  pooling_param {
    pool: MAX
    kernel_size: 3
    stride: 2
  }
}
layer {
  name: "pool1/norm1"
  type: "LRN"
  bottom: "pool1/3x3_s2"
  top: "pool1/norm1"
  lrn_param {
    local_size: 5
    alpha: 0.0001
    beta: 0.75
  }
}
layer {
  name: "conv2/3x3_reduce"
  type: "Convolution"
  bottom: "pool1/norm1"
  top: "conv2/3x3_reduce"
  param {
    lr_mult: 1
    decay_mult: 1
  }
  param {
    lr_mult: 2
    decay_mult: 0
  }
  convolution_param {
    num_output: 64
    kernel_size: 1
    weight_filler {
      type: "xavier"
      std: 0.1
    }
    bias_filler {
      type: "constant"
      value: 0.2
    }
  }
}
layer {
  name: "conv2/relu_3x3_reduce"
  type: "ReLU"
  bottom: "conv2/3x3_reduce"
  top: "conv2/3x3_reduce"
}
layer {
  name: "conv2/3x3"
  type: "Convolution"
  bottom: "conv2/3x3_reduce"
  top: "conv2/3x3"
  param {
    lr_mult: 1
    decay_mult: 1
  }
  param {
    lr_mult: 2
    decay_mult: 0
  }
  convolution_param {
    num_output: 192
    pad: 1
    kernel_size: 3
    weight_filler {
      type: "xavier"
      std: 0.03
    }
    bias_filler {
      type: "constant"
      value: 0.2
    }
  }
}
layer {
  name: "conv2/relu_3x3"
  type: "ReLU"
  bottom: "conv2/3x3"
  top: "conv2/3x3"
}
layer {
  name: "conv2/norm2"
  type: "LRN"
  bottom: "conv2/3x3"
  top: "conv2/norm2"
  lrn_param {
    local_size: 5
    alpha: 0.0001
    beta: 0.75
  }
}
layer {
  name: "pool2/3x3_s2"
  type: "Pooling"
  bottom: "conv2/norm2"
  top: "pool2/3x3_s2"
  pooling_param {
    pool: MAX
    kernel_size: 3
    stride: 2
  }
}
layer {
  name: "inception_3a/1x1"
  type: "Convolution"
  bottom: "pool2/3x3_s2"
  top: "inception_3a/1x1"
  param {
    lr_mult: 1
    decay_mult: 1
  }
  param {
    lr_mult: 2
    decay_mult: 0
  }
  convolution_param {
    num_output: 64
    kernel_size: 1
    weight_filler {
      type: "xavier"
      std: 0.03
    }
    bias_filler {
      type: "constant"
      value: 0.2
    }
  }
}
layer {
  name: "inception_3a/relu_1x1"
  type: "ReLU"
  bottom: "inception_3a/1x1"
  top: "inception_3a/1x1"
}
layer {
  name: "inception_3a/3x3_reduce"
  type: "Convolution"
  bottom: "pool2/3x3_s2"
  top: "inception_3a/3x3_reduce"
  param {
    lr_mult: 1
    decay_mult: 1
  }
  param {
    lr_mult: 2
    decay_mult: 0
  }
  convolution_param {
    num_output: 96
    kernel_size: 1
    weight_filler {
      type: "xavier"
      std: 0.09
    }
    bias_filler {
      type: "constant"
      value: 0.2
    }
  }
}
layer {
  name: "inception_3a/relu_3x3_reduce"
  type: "ReLU"
  bottom: "inception_3a/3x3_reduce"
  top: "inception_3a/3x3_reduce"
}
layer {
  name: "inception_3a/3x3"
  type: "Convolution"
  bottom: "inception_3a/3x3_reduce"
  top: "inception_3a/3x3"
  param {
    lr_mult: 1
    decay_mult: 1
  }
  param {
    lr_mult: 2
    decay_mult: 0
  }
  convolution_param {
    num_output: 128
    pad: 1
    kernel_size: 3
    weight_filler {
      type: "xavier"
      std: 0.03
    }
    bias_filler {
      type: "constant"
      value: 0.2
    }
  }
}
layer {
  name: "inception_3a/relu_3x3"
  type: "ReLU"
  bottom: "inception_3a/3x3"
  top: "inception_3a/3x3"
}
layer {
  name: "inception_3a/5x5_reduce"
  type: "Convolution"
  bottom: "pool2/3x3_s2"
  top: "inception_3a/5x5_reduce"
  param {
    lr_mult: 1
    decay_mult: 1
  }
  param {
    lr_mult: 2
    decay_mult: 0
  }
  convolution_param {
    num_output: 16
    kernel_size: 1
    weight_filler {
      type: "xavier"
      std: 0.2
    }
    bias_filler {
      type: "constant"
      value: 0.2
    }
  }
}
layer {
  name: "inception_3a/relu_5x5_reduce"
  type: "ReLU"
  bottom: "inception_3a/5x5_reduce"
  top: "inception_3a/5x5_reduce"
}
layer {
  name: "inception_3a/5x5"
  type: "Convolution"
  bottom: "inception_3a/5x5_reduce"
  top: "inception_3a/5x5"
  param {
    lr_mult: 1
    decay_mult: 1
  }
  param {
    lr_mult: 2
    decay_mult: 0
  }
  convolution_param {
    num_output: 32
    pad: 2
    kernel_size: 5
    weight_filler {
      type: "xavier"
      std: 0.03
    }
    bias_filler {
      type: "constant"
      value: 0.2
    }
  }
}
layer {
  name: "inception_3a/relu_5x5"
  type: "ReLU"
  bottom: "inception_3a/5x5"
  top: "inception_3a/5x5"
}
layer {
  name: "inception_3a/pool"
  type: "Pooling"
  bottom: "pool2/3x3_s2"
  top: "inception_3a/pool"
  pooling_param {
    pool: MAX
    kernel_size: 3
    stride: 1
    pad: 1
  }
}
layer {
  name: "inception_3a/pool_proj"
  type: "Convolution"
  bottom: "inception_3a/pool"
  top: "inception_3a/pool_proj"
  param {
    lr_mult: 1
    decay_mult: 1
  }
  param {
    lr_mult: 2
    decay_mult: 0
  }
  convolution_param {
    num_output: 32
    kernel_size: 1
    weight_filler {
      type: "xavier"
      std: 0.1
    }
    bias_filler {
      type: "constant"
      value: 0.2
    }
  }
}
layer {
  name: "inception_3a/relu_pool_proj"
  type: "ReLU"
  bottom: "inception_3a/pool_proj"
  top: "inception_3a/pool_proj"
}
layer {
  name: "inception_3a/output"
  type: "Concat"
  bottom: "inception_3a/1x1"
  bottom: "inception_3a/3x3"
  bottom: "inception_3a/5x5"
  bottom: "inception_3a/pool_proj"
  top: "inception_3a/output"
}
layer {
  name: "inception_3b/1x1"
  type: "Convolution"
  bottom: "inception_3a/output"
  top: "inception_3b/1x1"
  param {
    lr_mult: 1
    decay_mult: 1
  }
  param {
    lr_mult: 2
    decay_mult: 0
  }
  convolution_param {
    num_output: 128
    kernel_size: 1
    weight_filler {
      type: "xavier"
      std: 0.03
    }
    bias_filler {
      type: "constant"
      value: 0.2
    }
  }
}
layer {
  name: "inception_3b/relu_1x1"
  type: "ReLU"
  bottom: "inception_3b/1x1"
  top: "inception_3b/1x1"
}
layer {
  name: "inception_3b/3x3_reduce"
  type: "Convolution"
  bottom: "inception_3a/output"
  top: "inception_3b/3x3_reduce"
  param {
    lr_mult: 1
    decay_mult: 1
  }
  param {
    lr_mult: 2
    decay_mult: 0
  }
  convolution_param {
    num_output: 128
    kernel_size: 1
    weight_filler {
      type: "xavier"
      std: 0.09
    }
    bias_filler {
      type: "constant"
      value: 0.2
    }
  }
}
layer {
  name: "inception_3b/relu_3x3_reduce"
  type: "ReLU"
  bottom: "inception_3b/3x3_reduce"
  top: "inception_3b/3x3_reduce"
}
layer {
  name: "inception_3b/3x3"
  type: "Convolution"
  bottom: "inception_3b/3x3_reduce"
  top: "inception_3b/3x3"
  param {
    lr_mult: 1
    decay_mult: 1
  }
  param {
    lr_mult: 2
    decay_mult: 0
  }
  convolution_param {
    num_output: 192
    pad: 1
    kernel_size: 3
    weight_filler {
      type: "xavier"
      std: 0.03
    }
    bias_filler {
      type: "constant"
      value: 0.2
    }
  }
}
layer {
  name: "inception_3b/relu_3x3"
  type: "ReLU"
  bottom: "inception_3b/3x3"
  top: "inception_3b/3x3"
}
layer {
  name: "inception_3b/5x5_reduce"
  type: "Convolution"
  bottom: "inception_3a/output"
  top: "inception_3b/5x5_reduce"
  param {
    lr_mult: 1
    decay_mult: 1
  }
  param {
    lr_mult: 2
    decay_mult: 0
  }
  convolution_param {
    num_output: 32
    kernel_size: 1
    weight_filler {
      type: "xavier"
      std: 0.2
    }
    bias_filler {
      type: "constant"
      value: 0.2
    }
  }
}
layer {
  name: "inception_3b/relu_5x5_reduce"
  type: "ReLU"
  bottom: "inception_3b/5x5_reduce"
  top: "inception_3b/5x5_reduce"
}
layer {
  name: "inception_3b/5x5"
  type: "Convolution"
  bottom: "inception_3b/5x5_reduce"
  top: "inception_3b/5x5"
  param {
    lr_mult: 1
    decay_mult: 1
  }
  param {
    lr_mult: 2
    decay_mult: 0
  }
  convolution_param {
    num_output: 96
    pad: 2
    kernel_size: 5
    weight_filler {
      type: "xavier"
      std: 0.03
    }
    bias_filler {
      type: "constant"
      value: 0.2
    }
  }
}
layer {
  name: "inception_3b/relu_5x5"
  type: "ReLU"
  bottom: "inception_3b/5x5"
  top: "inception_3b/5x5"
}
layer {
  name: "inception_3b/pool"
  type: "Pooling"
  bottom: "inception_3a/output"
  top: "inception_3b/pool"
  pooling_param {
    pool: MAX
    kernel_size: 3
    stride: 1
    pad: 1
  }
}
layer {
  name: "inception_3b/pool_proj"
  type: "Convolution"
  bottom: "inception_3b/pool"
  top: "inception_3b/pool_proj"
  param {
    lr_mult: 1
    decay_mult: 1
  }
  param {
    lr_mult: 2
    decay_mult: 0
  }
  convolution_param {
    num_output: 64
    kernel_size: 1
    weight_filler {
      type: "xavier"
      std: 0.1
    }
    bias_filler {
      type: "constant"
      value: 0.2
    }
  }
}
layer {
  name: "inception_3b/relu_pool_proj"
  type: "ReLU"
  bottom: "inception_3b/pool_proj"
  top: "inception_3b/pool_proj"
}
layer {
  name: "inception_3b/output"
  type: "Concat"
  bottom: "inception_3b/1x1"
  bottom: "inception_3b/3x3"
  bottom: "inception_3b/5x5"
  bottom: "inception_3b/pool_proj"
  top: "inception_3b/output"
}
layer {
  name: "pool3/3x3_s2"
  type: "Pooling"
  bottom: "inception_3b/output"
  top: "pool3/3x3_s2"
  pooling_param {
    pool: MAX
    kernel_size: 3
    stride: 2
  }
}
layer {
  name: "inception_4a/1x1"
  type: "Convolution"
  bottom: "pool3/3x3_s2"
  top: "inception_4a/1x1"
  param {
    lr_mult: 1
    decay_mult: 1
  }
  param {
    lr_mult: 2
    decay_mult: 0
  }
  convolution_param {
    num_output: 192
    kernel_size: 1
    weight_filler {
      type: "xavier"
      std: 0.03
    }
    bias_filler {
      type: "constant"
      value: 0.2
    }
  }
}
layer {
  name: "inception_4a/relu_1x1"
  type: "ReLU"
  bottom: "inception_4a/1x1"
  top: "inception_4a/1x1"
}
layer {
  name: "inception_4a/3x3_reduce"
  type: "Convolution"
  bottom: "pool3/3x3_s2"
  top: "inception_4a/3x3_reduce"
  param {
    lr_mult: 1
    decay_mult: 1
  }
  param {
    lr_mult: 2
    decay_mult: 0
  }
  convolution_param {
    num_output: 96
    kernel_size: 1
    weight_filler {
      type: "xavier"
      std: 0.09
    }
    bias_filler {
      type: "constant"
      value: 0.2
    }
  }
}
layer {
  name: "inception_4a/relu_3x3_reduce"
  type: "ReLU"
  bottom: "inception_4a/3x3_reduce"
  top: "inception_4a/3x3_reduce"
}
layer {
  name: "inception_4a/3x3"
  type: "Convolution"
  bottom: "inception_4a/3x3_reduce"
  top: "inception_4a/3x3"
  param {
    lr_mult: 1
    decay_mult: 1
  }
  param {
    lr_mult: 2
    decay_mult: 0
  }
  convolution_param {
    num_output: 208
    pad: 1
    kernel_size: 3
    weight_filler {
      type: "xavier"
      std: 0.03
    }
    bias_filler {
      type: "constant"
      value: 0.2
    }
  }
}
layer {
  name: "inception_4a/relu_3x3"
  type: "ReLU"
  bottom: "inception_4a/3x3"
  top: "inception_4a/3x3"
}
layer {
  name: "inception_4a/5x5_reduce"
  type: "Convolution"
  bottom: "pool3/3x3_s2"
  top: "inception_4a/5x5_reduce"
  param {
    lr_mult: 1
    decay_mult: 1
  }
  param {
    lr_mult: 2
    decay_mult: 0
  }
  convolution_param {
    num_output: 16
    kernel_size: 1
    weight_filler {
      type: "xavier"
      std: 0.2
    }
    bias_filler {
      type: "constant"
      value: 0.2
    }
  }
}
layer {
  name: "inception_4a/relu_5x5_reduce"
  type: "ReLU"
  bottom: "inception_4a/5x5_reduce"
  top: "inception_4a/5x5_reduce"
}
layer {
  name: "inception_4a/5x5"
  type: "Convolution"
  bottom: "inception_4a/5x5_reduce"
  top: "inception_4a/5x5"
  param {
    lr_mult: 1
    decay_mult: 1
  }
  param {
    lr_mult: 2
    decay_mult: 0
  }
  convolution_param {
    num_output: 48
    pad: 2
    kernel_size: 5
    weight_filler {
      type: "xavier"
      std: 0.03
    }
    bias_filler {
      type: "constant"
      value: 0.2
    }
  }
}
layer {
  name: "inception_4a/relu_5x5"
  type: "ReLU"
  bottom: "inception_4a/5x5"
  top: "inception_4a/5x5"
}
layer {
  name: "inception_4a/pool"
  type: "Pooling"
  bottom: "pool3/3x3_s2"
  top: "inception_4a/pool"
  pooling_param {
    pool: MAX
    kernel_size: 3
    stride: 1
    pad: 1
  }
}
layer {
  name: "inception_4a/pool_proj"
  type: "Convolution"
  bottom: "inception_4a/pool"
  top: "inception_4a/pool_proj"
  param {
    lr_mult: 1
    decay_mult: 1
  }
  param {
    lr_mult: 2
    decay_mult: 0
  }
  convolution_param {
    num_output: 64
    kernel_size: 1
    weight_filler {
      type: "xavier"
      std: 0.1
    }
    bias_filler {
      type: "constant"
      value: 0.2
    }
  }
}
layer {
  name: "inception_4a/relu_pool_proj"
  type: "ReLU"
  bottom: "inception_4a/pool_proj"
  top: "inception_4a/pool_proj"
}
layer {
  name: "inception_4a/output"
  type: "Concat"
  bottom: "inception_4a/1x1"
  bottom: "inception_4a/3x3"
  bottom: "inception_4a/5x5"
  bottom: "inception_4a/pool_proj"
  top: "inception_4a/output"
}
layer {
  name: "loss1/ave_pool"
  type: "Pooling"
  bottom: "inception_4a/output"
  top: "loss1/ave_pool"
  pooling_param {
    pool: AVE
    kernel_size: 5
    stride: 3
  }
}
layer {
  name: "loss1/conv"
  type: "Convolution"
  bottom: "loss1/ave_pool"
  top: "loss1/conv"
  param {
    lr_mult: 1
    decay_mult: 1
  }
  param {
    lr_mult: 2
    decay_mult: 0
  }
  convolution_param {
    num_output: 128
    kernel_size: 1
    weight_filler {
      type: "xavier"
      std: 0.08
    }
    bias_filler {
      type: "constant"
      value: 0.2
    }
  }
}
layer {
  name: "loss1/relu_conv"
  type: "ReLU"
  bottom: "loss1/conv"
  top: "loss1/conv"
}
layer {
  name: "loss1/fc"
  type: "InnerProduct"
  bottom: "loss1/conv"
  top: "loss1/fc"
  param {
    lr_mult: 1
    decay_mult: 1
  }
  param {
    lr_mult: 2
    decay_mult: 0
  }
  inner_product_param {
    num_output: 1024
    weight_filler {
      type: "xavier"
      std: 0.02
    }
    bias_filler {
      type: "constant"
      value: 0.2
    }
  }
}
layer {
  name: "loss1/relu_fc"
  type: "ReLU"
  bottom: "loss1/fc"
  top: "loss1/fc"
}
layer {
  name: "loss1/drop_fc"
  type: "Dropout"
  bottom: "loss1/fc"
  top: "loss1/fc"
  dropout_param {
    dropout_ratio: 0.7
  }
}
layer {
  name: "loss1/classifier_plantvillage"
  type: "InnerProduct"
  bottom: "loss1/fc"
  top: "loss1/classifier_plantvillage"
  param {
    lr_mult: 1
    decay_mult: 1
  }
  param {
    lr_mult: 2
    decay_mult: 0
  }
  inner_product_param {
    num_output: 38
    weight_filler {
      type: "xavier"
      std: 0.0009765625
    }
    bias_filler {
      type: "constant"
      value: 0
    }
  }
}
layer {
  name: "inception_4b/1x1"
  type: "Convolution"
  bottom: "inception_4a/output"
  top: "inception_4b/1x1"
  param {
    lr_mult: 1
    decay_mult: 1
  }
  param {
    lr_mult: 2
    decay_mult: 0
  }
  convolution_param {
    num_output: 160
    kernel_size: 1
    weight_filler {
      type: "xavier"
      std: 0.03
    }
    bias_filler {
      type: "constant"
      value: 0.2
    }
  }
}
layer {
  name: "inception_4b/relu_1x1"
  type: "ReLU"
  bottom: "inception_4b/1x1"
  top: "inception_4b/1x1"
}
layer {
  name: "inception_4b/3x3_reduce"
  type: "Convolution"
  bottom: "inception_4a/output"
  top: "inception_4b/3x3_reduce"
  param {
    lr_mult: 1
    decay_mult: 1
  }
  param {
    lr_mult: 2
    decay_mult: 0
  }
  convolution_param {
    num_output: 112
    kernel_size: 1
    weight_filler {
      type: "xavier"
      std: 0.09
    }
    bias_filler {
      type: "constant"
      value: 0.2
    }
  }
}
layer {
  name: "inception_4b/relu_3x3_reduce"
  type: "ReLU"
  bottom: "inception_4b/3x3_reduce"
  top: "inception_4b/3x3_reduce"
}
layer {
  name: "inception_4b/3x3"
  type: "Convolution"
  bottom: "inception_4b/3x3_reduce"
  top: "inception_4b/3x3"
  param {
    lr_mult: 1
    decay_mult: 1
  }
  param {
    lr_mult: 2
    decay_mult: 0
  }
  convolution_param {
    num_output: 224
    pad: 1
    kernel_size: 3
    weight_filler {
      type: "xavier"
      std: 0.03
    }
    bias_filler {
      type: "constant"
      value: 0.2
    }
  }
}
layer {
  name: "inception_4b/relu_3x3"
  type: "ReLU"
  bottom: "inception_4b/3x3"
  top: "inception_4b/3x3"
}
layer {
  name: "inception_4b/5x5_reduce"
  type: "Convolution"
  bottom: "inception_4a/output"
  top: "inception_4b/5x5_reduce"
  param {
    lr_mult: 1
    decay_mult: 1
  }
  param {
    lr_mult: 2
    decay_mult: 0
  }
  convolution_param {
    num_output: 24
    kernel_size: 1
    weight_filler {
      type: "xavier"
      std: 0.2
    }
    bias_filler {
      type: "constant"
      value: 0.2
    }
  }
}
layer {
  name: "inception_4b/relu_5x5_reduce"
  type: "ReLU"
  bottom: "inception_4b/5x5_reduce"
  top: "inception_4b/5x5_reduce"
}
layer {
  name: "inception_4b/5x5"
  type: "Convolution"
  bottom: "inception_4b/5x5_reduce"
  top: "inception_4b/5x5"
  param {
    lr_mult: 1
    decay_mult: 1
  }
  param {
    lr_mult: 2
    decay_mult: 0
  }
  convolution_param {
    num_output: 64
    pad: 2
    kernel_size: 5
    weight_filler {
      type: "xavier"
      std: 0.03
    }
    bias_filler {
      type: "constant"
      value: 0.2
    }
  }
}
layer {
  name: "inception_4b/relu_5x5"
  type: "ReLU"
  bottom: "inception_4b/5x5"
  top: "inception_4b/5x5"
}
layer {
  name: "inception_4b/pool"
  type: "Pooling"
  bottom: "inception_4a/output"
  top: "inception_4b/pool"
  pooling_param {
    pool: MAX
    kernel_size: 3
    stride: 1
    pad: 1
  }
}
layer {
  name: "inception_4b/pool_proj"
  type: "Convolution"
  bottom: "inception_4b/pool"
  top: "inception_4b/pool_proj"
  param {
    lr_mult: 1
    decay_mult: 1
  }
  param {
    lr_mult: 2
    decay_mult: 0
  }
  convolution_param {
    num_output: 64
    kernel_size: 1
    weight_filler {
      type: "xavier"
      std: 0.1
    }
    bias_filler {
      type: "constant"
      value: 0.2
    }
  }
}
layer {
  name: "inception_4b/relu_pool_proj"
  type: "ReLU"
  bottom: "inception_4b/pool_proj"
  top: "inception_4b/pool_proj"
}
layer {
  name: "inception_4b/output"
  type: "Concat"
  bottom: "inception_4b/1x1"
  bottom: "inception_4b/3x3"
  bottom: "inception_4b/5x5"
  bottom: "inception_4b/pool_proj"
  top: "inception_4b/output"
}
layer {
  name: "inception_4c/1x1"
  type: "Convolution"
  bottom: "inception_4b/output"
  top: "inception_4c/1x1"
  param {
    lr_mult: 1
    decay_mult: 1
  }
  param {
    lr_mult: 2
    decay_mult: 0
  }
  convolution_param {
    num_output: 128
    kernel_size: 1
    weight_filler {
      type: "xavier"
      std: 0.03
    }
    bias_filler {
      type: "constant"
      value: 0.2
    }
  }
}
layer {
  name: "inception_4c/relu_1x1"
  type: "ReLU"
  bottom: "inception_4c/1x1"
  top: "inception_4c/1x1"
}
layer {
  name: "inception_4c/3x3_reduce"
  type: "Convolution"
  bottom: "inception_4b/output"
  top: "inception_4c/3x3_reduce"
  param {
    lr_mult: 1
    decay_mult: 1
  }
  param {
    lr_mult: 2
    decay_mult: 0
  }
  convolution_param {
    num_output: 128
    kernel_size: 1
    weight_filler {
      type: "xavier"
      std: 0.09
    }
    bias_filler {
      type: "constant"
      value: 0.2
    }
  }
}
layer {
  name: "inception_4c/relu_3x3_reduce"
  type: "ReLU"
  bottom: "inception_4c/3x3_reduce"
  top: "inception_4c/3x3_reduce"
}
layer {
  name: "inception_4c/3x3"
  type: "Convolution"
  bottom: "inception_4c/3x3_reduce"
  top: "inception_4c/3x3"
  param {
    lr_mult: 1
    decay_mult: 1
  }
  param {
    lr_mult: 2
    decay_mult: 0
  }
  convolution_param {
    num_output: 256
    pad: 1
    kernel_size: 3
    weight_filler {
      type: "xavier"
      std: 0.03
    }
    bias_filler {
      type: "constant"
      value: 0.2
    }
  }
}
layer {
  name: "inception_4c/relu_3x3"
  type: "ReLU"
  bottom: "inception_4c/3x3"
  top: "inception_4c/3x3"
}
layer {
  name: "inception_4c/5x5_reduce"
  type: "Convolution"
  bottom: "inception_4b/output"
  top: "inception_4c/5x5_reduce"
  param {
    lr_mult: 1
    decay_mult: 1
  }
  param {
    lr_mult: 2
    decay_mult: 0
  }
  convolution_param {
    num_output: 24
    kernel_size: 1
    weight_filler {
      type: "xavier"
      std: 0.2
    }
    bias_filler {
      type: "constant"
      value: 0.2
    }
  }
}
layer {
  name: "inception_4c/relu_5x5_reduce"
  type: "ReLU"
  bottom: "inception_4c/5x5_reduce"
  top: "inception_4c/5x5_reduce"
}
layer {
  name: "inception_4c/5x5"
  type: "Convolution"
  bottom: "inception_4c/5x5_reduce"
  top: "inception_4c/5x5"
  param {
    lr_mult: 1
    decay_mult: 1
  }
  param {
    lr_mult: 2
    decay_mult: 0
  }
  convolution_param {
    num_output: 64
    pad: 2
    kernel_size: 5
    weight_filler {
      type: "xavier"
      std: 0.03
    }
    bias_filler {
      type: "constant"
      value: 0.2
    }
  }
}
layer {
  name: "inception_4c/relu_5x5"
  type: "ReLU"
  bottom: "inception_4c/5x5"
  top: "inception_4c/5x5"
}
layer {
  name: "inception_4c/pool"
  type: "Pooling"
  bottom: "inception_4b/output"
  top: "inception_4c/pool"
  pooling_param {
    pool: MAX
    kernel_size: 3
    stride: 1
    pad: 1
  }
}
layer {
  name: "inception_4c/pool_proj"
  type: "Convolution"
  bottom: "inception_4c/pool"
  top: "inception_4c/pool_proj"
  param {
    lr_mult: 1
    decay_mult: 1
  }
  param {
    lr_mult: 2
    decay_mult: 0
  }
  convolution_param {
    num_output: 64
    kernel_size: 1
    weight_filler {
      type: "xavier"
      std: 0.1
    }
    bias_filler {
      type: "constant"
      value: 0.2
    }
  }
}
layer {
  name: "inception_4c/relu_pool_proj"
  type: "ReLU"
  bottom: "inception_4c/pool_proj"
  top: "inception_4c/pool_proj"
}
layer {
  name: "inception_4c/output"
  type: "Concat"
  bottom: "inception_4c/1x1"
  bottom: "inception_4c/3x3"
  bottom: "inception_4c/5x5"
  bottom: "inception_4c/pool_proj"
  top: "inception_4c/output"
}
layer {
  name: "inception_4d/1x1"
  type: "Convolution"
  bottom: "inception_4c/output"
  top: "inception_4d/1x1"
  param {
    lr_mult: 1
    decay_mult: 1
  }
  param {
    lr_mult: 2
    decay_mult: 0
  }
  convolution_param {
    num_output: 112
    kernel_size: 1
    weight_filler {
      type: "xavier"
      std: 0.03
    }
    bias_filler {
      type: "constant"
      value: 0.2
    }
  }
}
layer {
  name: "inception_4d/relu_1x1"
  type: "ReLU"
  bottom: "inception_4d/1x1"
  top: "inception_4d/1x1"
}
layer {
  name: "inception_4d/3x3_reduce"
  type: "Convolution"
  bottom: "inception_4c/output"
  top: "inception_4d/3x3_reduce"
  param {
    lr_mult: 1
    decay_mult: 1
  }
  param {
    lr_mult: 2
    decay_mult: 0
  }
  convolution_param {
    num_output: 144
    kernel_size: 1
    weight_filler {
      type: "xavier"
      std: 0.09
    }
    bias_filler {
      type: "constant"
      value: 0.2
    }
  }
}
layer {
  name: "inception_4d/relu_3x3_reduce"
  type: "ReLU"
  bottom: "inception_4d/3x3_reduce"
  top: "inception_4d/3x3_reduce"
}
layer {
  name: "inception_4d/3x3"
  type: "Convolution"
  bottom: "inception_4d/3x3_reduce"
  top: "inception_4d/3x3"
  param {
    lr_mult: 1
    decay_mult: 1
  }
  param {
    lr_mult: 2
    decay_mult: 0
  }
  convolution_param {
    num_output: 288
    pad: 1
    kernel_size: 3
    weight_filler {
      type: "xavier"
      std: 0.03
    }
    bias_filler {
      type: "constant"
      value: 0.2
    }
  }
}
layer {
  name: "inception_4d/relu_3x3"
  type: "ReLU"
  bottom: "inception_4d/3x3"
  top: "inception_4d/3x3"
}
layer {
  name: "inception_4d/5x5_reduce"
  type: "Convolution"
  bottom: "inception_4c/output"
  top: "inception_4d/5x5_reduce"
  param {
    lr_mult: 1
    decay_mult: 1
  }
  param {
    lr_mult: 2
    decay_mult: 0
  }
  convolution_param {
    num_output: 32
    kernel_size: 1
    weight_filler {
      type: "xavier"
      std: 0.2
    }
    bias_filler {
      type: "constant"
      value: 0.2
    }
  }
}
layer {
  name: "inception_4d/relu_5x5_reduce"
  type: "ReLU"
  bottom: "inception_4d/5x5_reduce"
  top: "inception_4d/5x5_reduce"
}
layer {
  name: "inception_4d/5x5"
  type: "Convolution"
  bottom: "inception_4d/5x5_reduce"
  top: "inception_4d/5x5"
  param {
    lr_mult: 1
    decay_mult: 1
  }
  param {
    lr_mult: 2
    decay_mult: 0
  }
  convolution_param {
    num_output: 64
    pad: 2
    kernel_size: 5
    weight_filler {
      type: "xavier"
      std: 0.03
    }
    bias_filler {
      type: "constant"
      value: 0.2
    }
  }
}
layer {
  name: "inception_4d/relu_5x5"
  type: "ReLU"
  bottom: "inception_4d/5x5"
  top: "inception_4d/5x5"
}
layer {
  name: "inception_4d/pool"
  type: "Pooling"
  bottom: "inception_4c/output"
  top: "inception_4d/pool"
  pooling_param {
    pool: MAX
    kernel_size: 3
    stride: 1
    pad: 1
  }
}
layer {
  name: "inception_4d/pool_proj"
  type: "Convolution"
  bottom: "inception_4d/pool"
  top: "inception_4d/pool_proj"
  param {
    lr_mult: 1
    decay_mult: 1
  }
  param {
    lr_mult: 2
    decay_mult: 0
  }
  convolution_param {
    num_output: 64
    kernel_size: 1
    weight_filler {
      type: "xavier"
      std: 0.1
    }
    bias_filler {
      type: "constant"
      value: 0.2
    }
  }
}
layer {
  name: "inception_4d/relu_pool_proj"
  type: "ReLU"
  bottom: "inception_4d/pool_proj"
  top: "inception_4d/pool_proj"
}
layer {
  name: "inception_4d/output"
  type: "Concat"
  bottom: "inception_4d/1x1"
  bottom: "inception_4d/3x3"
  bottom: "inception_4d/5x5"
  bottom: "inception_4d/pool_proj"
  top: "inception_4d/output"
}
layer {
  name: "loss2/ave_pool"
  type: "Pooling"
  bottom: "inception_4d/output"
  top: "loss2/ave_pool"
  pooling_param {
    pool: AVE
    kernel_size: 5
    stride: 3
  }
}
layer {
  name: "loss2/conv"
  type: "Convolution"
  bottom: "loss2/ave_pool"
  top: "loss2/conv"
  param {
    lr_mult: 1
    decay_mult: 1
  }
  param {
    lr_mult: 2
    decay_mult: 0
  }
  convolution_param {
    num_output: 128
    kernel_size: 1
    weight_filler {
      type: "xavier"
      std: 0.08
    }
    bias_filler {
      type: "constant"
      value: 0.2
    }
  }
}
layer {
  name: "loss2/relu_conv"
  type: "ReLU"
  bottom: "loss2/conv"
  top: "loss2/conv"
}
layer {
  name: "loss2/fc"
  type: "InnerProduct"
  bottom: "loss2/conv"
  top: "loss2/fc"
  param {
    lr_mult: 1
    decay_mult: 1
  }
  param {
    lr_mult: 2
    decay_mult: 0
  }
  inner_product_param {
    num_output: 1024
    weight_filler {
      type: "xavier"
      std: 0.02
    }
    bias_filler {
      type: "constant"
      value: 0.2
    }
  }
}
layer {
  name: "loss2/relu_fc"
  type: "ReLU"
  bottom: "loss2/fc"
  top: "loss2/fc"
}
layer {
  name: "loss2/drop_fc"
  type: "Dropout"
  bottom: "loss2/fc"
  top: "loss2/fc"
  dropout_param {
    dropout_ratio: 0.7
  }
}
layer {
  name: "loss2/classifier_plantvillage"
  type: "InnerProduct"
  bottom: "loss2/fc"
  top: "loss2/classifier_plantvillage"
  param {
    lr_mult: 1
    decay_mult: 1
  }
  param {
    lr_mult: 2
    decay_mult: 0
  }
  inner_product_param {
    num_output: 38
    weight_filler {
      type: "xavier"
      std: 0.0009765625
    }
    bias_filler {
      type: "constant"
      value: 0
    }
  }
}
layer {
  name: "inception_4e/1x1"
  type: "Convolution"
  bottom: "inception_4d/output"
  top: "inception_4e/1x1"
  param {
    lr_mult: 1
    decay_mult: 1
  }
  param {
    lr_mult: 2
    decay_mult: 0
  }
  convolution_param {
    num_output: 256
    kernel_size: 1
    weight_filler {
      type: "xavier"
      std: 0.03
    }
    bias_filler {
      type: "constant"
      value: 0.2
    }
  }
}
layer {
  name: "inception_4e/relu_1x1"
  type: "ReLU"
  bottom: "inception_4e/1x1"
  top: "inception_4e/1x1"
}
layer {
  name: "inception_4e/3x3_reduce"
  type: "Convolution"
  bottom: "inception_4d/output"
  top: "inception_4e/3x3_reduce"
  param {
    lr_mult: 1
    decay_mult: 1
  }
  param {
    lr_mult: 2
    decay_mult: 0
  }
  convolution_param {
    num_output: 160
    kernel_size: 1
    weight_filler {
      type: "xavier"
      std: 0.09
    }
    bias_filler {
      type: "constant"
      value: 0.2
    }
  }
}
layer {
  name: "inception_4e/relu_3x3_reduce"
  type: "ReLU"
  bottom: "inception_4e/3x3_reduce"
  top: "inception_4e/3x3_reduce"
}
layer {
  name: "inception_4e/3x3"
  type: "Convolution"
  bottom: "inception_4e/3x3_reduce"
  top: "inception_4e/3x3"
  param {
    lr_mult: 1
    decay_mult: 1
  }
  param {
    lr_mult: 2
    decay_mult: 0
  }
  convolution_param {
    num_output: 320
    pad: 1
    kernel_size: 3
    weight_filler {
      type: "xavier"
      std: 0.03
    }
    bias_filler {
      type: "constant"
      value: 0.2
    }
  }
}
layer {
  name: "inception_4e/relu_3x3"
  type: "ReLU"
  bottom: "inception_4e/3x3"
  top: "inception_4e/3x3"
}
layer {
  name: "inception_4e/5x5_reduce"
  type: "Convolution"
  bottom: "inception_4d/output"
  top: "inception_4e/5x5_reduce"
  param {
    lr_mult: 1
    decay_mult: 1
  }
  param {
    lr_mult: 2
    decay_mult: 0
  }
  convolution_param {
    num_output: 32
    kernel_size: 1
    weight_filler {
      type: "xavier"
      std: 0.2
    }
    bias_filler {
      type: "constant"
      value: 0.2
    }
  }
}
layer {
  name: "inception_4e/relu_5x5_reduce"
  type: "ReLU"
  bottom: "inception_4e/5x5_reduce"
  top: "inception_4e/5x5_reduce"
}
layer {
  name: "inception_4e/5x5"
  type: "Convolution"
  bottom: "inception_4e/5x5_reduce"
  top: "inception_4e/
I0403 15:00:57.622354 30881 layer_factory.hpp:77] Creating layer data
I0403 15:00:57.622967 30881 net.cpp:91] Creating Layer data
I0403 15:00:57.623002 30881 net.cpp:399] data -> data
I0403 15:00:57.623059 30881 net.cpp:399] data -> label
I0403 15:00:57.623097 30881 data_transformer.cpp:25] Loading mean file from: /home/mohanty/data/final_dataset/lmdb/grayscale-80-20/mean.binaryproto
I0403 15:00:57.626375 30885 db_lmdb.cpp:38] Opened lmdb /home/mohanty/data/final_dataset/lmdb/grayscale-80-20/test_db
I0403 15:00:57.636765 30881 data_layer.cpp:41] output data size: 24,3,224,224
I0403 15:00:57.663663 30881 net.cpp:141] Setting up data
I0403 15:00:57.663743 30881 net.cpp:148] Top shape: 24 3 224 224 (3612672)
I0403 15:00:57.663766 30881 net.cpp:148] Top shape: 24 (24)
I0403 15:00:57.663784 30881 net.cpp:156] Memory required for data: 14450784
I0403 15:00:57.663815 30881 layer_factory.hpp:77] Creating layer label_data_1_split
I0403 15:00:57.663846 30881 net.cpp:91] Creating Layer label_data_1_split
I0403 15:00:57.663864 30881 net.cpp:425] label_data_1_split <- label
I0403 15:00:57.663899 30881 net.cpp:399] label_data_1_split -> label_data_1_split_0
I0403 15:00:57.663929 30881 net.cpp:399] label_data_1_split -> label_data_1_split_1
I0403 15:00:57.663952 30881 net.cpp:399] label_data_1_split -> label_data_1_split_2
I0403 15:00:57.663975 30881 net.cpp:399] label_data_1_split -> label_data_1_split_3
I0403 15:00:57.663995 30881 net.cpp:399] label_data_1_split -> label_data_1_split_4
I0403 15:00:57.664016 30881 net.cpp:399] label_data_1_split -> label_data_1_split_5
I0403 15:00:57.664036 30881 net.cpp:399] label_data_1_split -> label_data_1_split_6
I0403 15:00:57.664057 30881 net.cpp:399] label_data_1_split -> label_data_1_split_7
I0403 15:00:57.664077 30881 net.cpp:399] label_data_1_split -> label_data_1_split_8
I0403 15:00:57.664098 30881 net.cpp:399] label_data_1_split -> label_data_1_split_9
I0403 15:00:57.664216 30881 net.cpp:141] Setting up label_data_1_split
I0403 15:00:57.664239 30881 net.cpp:148] Top shape: 24 (24)
I0403 15:00:57.664257 30881 net.cpp:148] Top shape: 24 (24)
I0403 15:00:57.664273 30881 net.cpp:148] Top shape: 24 (24)
I0403 15:00:57.664290 30881 net.cpp:148] Top shape: 24 (24)
I0403 15:00:57.664306 30881 net.cpp:148] Top shape: 24 (24)
I0403 15:00:57.664321 30881 net.cpp:148] Top shape: 24 (24)
I0403 15:00:57.664336 30881 net.cpp:148] Top shape: 24 (24)
I0403 15:00:57.664352 30881 net.cpp:148] Top shape: 24 (24)
I0403 15:00:57.664368 30881 net.cpp:148] Top shape: 24 (24)
I0403 15:00:57.664384 30881 net.cpp:148] Top shape: 24 (24)
I0403 15:00:57.664438 30881 net.cpp:156] Memory required for data: 14451744
I0403 15:00:57.664453 30881 layer_factory.hpp:77] Creating layer conv1/7x7_s2
I0403 15:00:57.664489 30881 net.cpp:91] Creating Layer conv1/7x7_s2
I0403 15:00:57.664506 30881 net.cpp:425] conv1/7x7_s2 <- data
I0403 15:00:57.664526 30881 net.cpp:399] conv1/7x7_s2 -> conv1/7x7_s2
I0403 15:00:57.805658 30881 net.cpp:141] Setting up conv1/7x7_s2
I0403 15:00:57.805734 30881 net.cpp:148] Top shape: 24 64 112 112 (19267584)
I0403 15:00:57.805752 30881 net.cpp:156] Memory required for data: 91522080
I0403 15:00:57.805786 30881 layer_factory.hpp:77] Creating layer conv1/relu_7x7
I0403 15:00:57.805815 30881 net.cpp:91] Creating Layer conv1/relu_7x7
I0403 15:00:57.805835 30881 net.cpp:425] conv1/relu_7x7 <- conv1/7x7_s2
I0403 15:00:57.805853 30881 net.cpp:386] conv1/relu_7x7 -> conv1/7x7_s2 (in-place)
I0403 15:00:57.806108 30881 net.cpp:141] Setting up conv1/relu_7x7
I0403 15:00:57.806134 30881 net.cpp:148] Top shape: 24 64 112 112 (19267584)
I0403 15:00:57.806150 30881 net.cpp:156] Memory required for data: 168592416
I0403 15:00:57.806165 30881 layer_factory.hpp:77] Creating layer pool1/3x3_s2
I0403 15:00:57.806192 30881 net.cpp:91] Creating Layer pool1/3x3_s2
I0403 15:00:57.806210 30881 net.cpp:425] pool1/3x3_s2 <- conv1/7x7_s2
I0403 15:00:57.806228 30881 net.cpp:399] pool1/3x3_s2 -> pool1/3x3_s2
I0403 15:00:57.806304 30881 net.cpp:141] Setting up pool1/3x3_s2
I0403 15:00:57.806329 30881 net.cpp:148] Top shape: 24 64 56 56 (4816896)
I0403 15:00:57.806344 30881 net.cpp:156] Memory required for data: 187860000
I0403 15:00:57.806357 30881 layer_factory.hpp:77] Creating layer pool1/norm1
I0403 15:00:57.806383 30881 net.cpp:91] Creating Layer pool1/norm1
I0403 15:00:57.806401 30881 net.cpp:425] pool1/norm1 <- pool1/3x3_s2
I0403 15:00:57.806418 30881 net.cpp:399] pool1/norm1 -> pool1/norm1
I0403 15:00:57.806711 30881 net.cpp:141] Setting up pool1/norm1
I0403 15:00:57.806740 30881 net.cpp:148] Top shape: 24 64 56 56 (4816896)
I0403 15:00:57.806756 30881 net.cpp:156] Memory required for data: 207127584
I0403 15:00:57.806771 30881 layer_factory.hpp:77] Creating layer conv2/3x3_reduce
I0403 15:00:57.806797 30881 net.cpp:91] Creating Layer conv2/3x3_reduce
I0403 15:00:57.806814 30881 net.cpp:425] conv2/3x3_reduce <- pool1/norm1
I0403 15:00:57.806833 30881 net.cpp:399] conv2/3x3_reduce -> conv2/3x3_reduce
I0403 15:00:57.808145 30881 net.cpp:141] Setting up conv2/3x3_reduce
I0403 15:00:57.808172 30881 net.cpp:148] Top shape: 24 64 56 56 (4816896)
I0403 15:00:57.808188 30881 net.cpp:156] Memory required for data: 226395168
I0403 15:00:57.808209 30881 layer_factory.hpp:77] Creating layer conv2/relu_3x3_reduce
I0403 15:00:57.808228 30881 net.cpp:91] Creating Layer conv2/relu_3x3_reduce
I0403 15:00:57.808243 30881 net.cpp:425] conv2/relu_3x3_reduce <- conv2/3x3_reduce
I0403 15:00:57.808260 30881 net.cpp:386] conv2/relu_3x3_reduce -> conv2/3x3_reduce (in-place)
I0403 15:00:57.808519 30881 net.cpp:141] Setting up conv2/relu_3x3_reduce
I0403 15:00:57.808545 30881 net.cpp:148] Top shape: 24 64 56 56 (4816896)
I0403 15:00:57.808560 30881 net.cpp:156] Memory required for data: 245662752
I0403 15:00:57.808578 30881 layer_factory.hpp:77] Creating layer conv2/3x3
I0403 15:00:57.808598 30881 net.cpp:91] Creating Layer conv2/3x3
I0403 15:00:57.808614 30881 net.cpp:425] conv2/3x3 <- conv2/3x3_reduce
I0403 15:00:57.808634 30881 net.cpp:399] conv2/3x3 -> conv2/3x3
I0403 15:00:57.810842 30881 net.cpp:141] Setting up conv2/3x3
I0403 15:00:57.810873 30881 net.cpp:148] Top shape: 24 192 56 56 (14450688)
I0403 15:00:57.810889 30881 net.cpp:156] Memory required for data: 303465504
I0403 15:00:57.810911 30881 layer_factory.hpp:77] Creating layer conv2/relu_3x3
I0403 15:00:57.810930 30881 net.cpp:91] Creating Layer conv2/relu_3x3
I0403 15:00:57.810946 30881 net.cpp:425] conv2/relu_3x3 <- conv2/3x3
I0403 15:00:57.810963 30881 net.cpp:386] conv2/relu_3x3 -> conv2/3x3 (in-place)
I0403 15:00:57.811121 30881 net.cpp:141] Setting up conv2/relu_3x3
I0403 15:00:57.811146 30881 net.cpp:148] Top shape: 24 192 56 56 (14450688)
I0403 15:00:57.811203 30881 net.cpp:156] Memory required for data: 361268256
I0403 15:00:57.811219 30881 layer_factory.hpp:77] Creating layer conv2/norm2
I0403 15:00:57.811239 30881 net.cpp:91] Creating Layer conv2/norm2
I0403 15:00:57.811254 30881 net.cpp:425] conv2/norm2 <- conv2/3x3
I0403 15:00:57.811271 30881 net.cpp:399] conv2/norm2 -> conv2/norm2
I0403 15:00:57.811558 30881 net.cpp:141] Setting up conv2/norm2
I0403 15:00:57.811584 30881 net.cpp:148] Top shape: 24 192 56 56 (14450688)
I0403 15:00:57.811599 30881 net.cpp:156] Memory required for data: 419071008
I0403 15:00:57.811614 30881 layer_factory.hpp:77] Creating layer pool2/3x3_s2
I0403 15:00:57.811632 30881 net.cpp:91] Creating Layer pool2/3x3_s2
I0403 15:00:57.811648 30881 net.cpp:425] pool2/3x3_s2 <- conv2/norm2
I0403 15:00:57.811666 30881 net.cpp:399] pool2/3x3_s2 -> pool2/3x3_s2
I0403 15:00:57.811719 30881 net.cpp:141] Setting up pool2/3x3_s2
I0403 15:00:57.811741 30881 net.cpp:148] Top shape: 24 192 28 28 (3612672)
I0403 15:00:57.811756 30881 net.cpp:156] Memory required for data: 433521696
I0403 15:00:57.811772 30881 layer_factory.hpp:77] Creating layer pool2/3x3_s2_pool2/3x3_s2_0_split
I0403 15:00:57.811790 30881 net.cpp:91] Creating Layer pool2/3x3_s2_pool2/3x3_s2_0_split
I0403 15:00:57.811805 30881 net.cpp:425] pool2/3x3_s2_pool2/3x3_s2_0_split <- pool2/3x3_s2
I0403 15:00:57.811822 30881 net.cpp:399] pool2/3x3_s2_pool2/3x3_s2_0_split -> pool2/3x3_s2_pool2/3x3_s2_0_split_0
I0403 15:00:57.811841 30881 net.cpp:399] pool2/3x3_s2_pool2/3x3_s2_0_split -> pool2/3x3_s2_pool2/3x3_s2_0_split_1
I0403 15:00:57.811861 30881 net.cpp:399] pool2/3x3_s2_pool2/3x3_s2_0_split -> pool2/3x3_s2_pool2/3x3_s2_0_split_2
I0403 15:00:57.811880 30881 net.cpp:399] pool2/3x3_s2_pool2/3x3_s2_0_split -> pool2/3x3_s2_pool2/3x3_s2_0_split_3
I0403 15:00:57.811944 30881 net.cpp:141] Setting up pool2/3x3_s2_pool2/3x3_s2_0_split
I0403 15:00:57.811965 30881 net.cpp:148] Top shape: 24 192 28 28 (3612672)
I0403 15:00:57.811981 30881 net.cpp:148] Top shape: 24 192 28 28 (3612672)
I0403 15:00:57.811997 30881 net.cpp:148] Top shape: 24 192 28 28 (3612672)
I0403 15:00:57.812012 30881 net.cpp:148] Top shape: 24 192 28 28 (3612672)
I0403 15:00:57.812027 30881 net.cpp:156] Memory required for data: 491324448
I0403 15:00:57.812043 30881 layer_factory.hpp:77] Creating layer inception_3a/1x1
I0403 15:00:57.812064 30881 net.cpp:91] Creating Layer inception_3a/1x1
I0403 15:00:57.812082 30881 net.cpp:425] inception_3a/1x1 <- pool2/3x3_s2_pool2/3x3_s2_0_split_0
I0403 15:00:57.812100 30881 net.cpp:399] inception_3a/1x1 -> inception_3a/1x1
I0403 15:00:57.813542 30881 net.cpp:141] Setting up inception_3a/1x1
I0403 15:00:57.813575 30881 net.cpp:148] Top shape: 24 64 28 28 (1204224)
I0403 15:00:57.813591 30881 net.cpp:156] Memory required for data: 496141344
I0403 15:00:57.813611 30881 layer_factory.hpp:77] Creating layer inception_3a/relu_1x1
I0403 15:00:57.813629 30881 net.cpp:91] Creating Layer inception_3a/relu_1x1
I0403 15:00:57.813647 30881 net.cpp:425] inception_3a/relu_1x1 <- inception_3a/1x1
I0403 15:00:57.813665 30881 net.cpp:386] inception_3a/relu_1x1 -> inception_3a/1x1 (in-place)
I0403 15:00:57.813822 30881 net.cpp:141] Setting up inception_3a/relu_1x1
I0403 15:00:57.813848 30881 net.cpp:148] Top shape: 24 64 28 28 (1204224)
I0403 15:00:57.813863 30881 net.cpp:156] Memory required for data: 500958240
I0403 15:00:57.813879 30881 layer_factory.hpp:77] Creating layer inception_3a/3x3_reduce
I0403 15:00:57.813904 30881 net.cpp:91] Creating Layer inception_3a/3x3_reduce
I0403 15:00:57.813923 30881 net.cpp:425] inception_3a/3x3_reduce <- pool2/3x3_s2_pool2/3x3_s2_0_split_1
I0403 15:00:57.813947 30881 net.cpp:399] inception_3a/3x3_reduce -> inception_3a/3x3_reduce
I0403 15:00:57.815616 30881 net.cpp:141] Setting up inception_3a/3x3_reduce
I0403 15:00:57.815649 30881 net.cpp:148] Top shape: 24 96 28 28 (1806336)
I0403 15:00:57.815665 30881 net.cpp:156] Memory required for data: 508183584
I0403 15:00:57.815687 30881 layer_factory.hpp:77] Creating layer inception_3a/relu_3x3_reduce
I0403 15:00:57.815726 30881 net.cpp:91] Creating Layer inception_3a/relu_3x3_reduce
I0403 15:00:57.815742 30881 net.cpp:425] inception_3a/relu_3x3_reduce <- inception_3a/3x3_reduce
I0403 15:00:57.815763 30881 net.cpp:386] inception_3a/relu_3x3_reduce -> inception_3a/3x3_reduce (in-place)
I0403 15:00:57.815943 30881 net.cpp:141] Setting up inception_3a/relu_3x3_reduce
I0403 15:00:57.815968 30881 net.cpp:148] Top shape: 24 96 28 28 (1806336)
I0403 15:00:57.815982 30881 net.cpp:156] Memory required for data: 515408928
I0403 15:00:57.815997 30881 layer_factory.hpp:77] Creating layer inception_3a/3x3
I0403 15:00:57.816020 30881 net.cpp:91] Creating Layer inception_3a/3x3
I0403 15:00:57.816036 30881 net.cpp:425] inception_3a/3x3 <- inception_3a/3x3_reduce
I0403 15:00:57.816056 30881 net.cpp:399] inception_3a/3x3 -> inception_3a/3x3
I0403 15:00:57.817688 30881 net.cpp:141] Setting up inception_3a/3x3
I0403 15:00:57.817719 30881 net.cpp:148] Top shape: 24 128 28 28 (2408448)
I0403 15:00:57.817735 30881 net.cpp:156] Memory required for data: 525042720
I0403 15:00:57.817754 30881 layer_factory.hpp:77] Creating layer inception_3a/relu_3x3
I0403 15:00:57.817772 30881 net.cpp:91] Creating Layer inception_3a/relu_3x3
I0403 15:00:57.817787 30881 net.cpp:425] inception_3a/relu_3x3 <- inception_3a/3x3
I0403 15:00:57.817807 30881 net.cpp:386] inception_3a/relu_3x3 -> inception_3a/3x3 (in-place)
I0403 15:00:57.818076 30881 net.cpp:141] Setting up inception_3a/relu_3x3
I0403 15:00:57.818105 30881 net.cpp:148] Top shape: 24 128 28 28 (2408448)
I0403 15:00:57.818121 30881 net.cpp:156] Memory required for data: 534676512
I0403 15:00:57.818136 30881 layer_factory.hpp:77] Creating layer inception_3a/5x5_reduce
I0403 15:00:57.818159 30881 net.cpp:91] Creating Layer inception_3a/5x5_reduce
I0403 15:00:57.818181 30881 net.cpp:425] inception_3a/5x5_reduce <- pool2/3x3_s2_pool2/3x3_s2_0_split_2
I0403 15:00:57.818200 30881 net.cpp:399] inception_3a/5x5_reduce -> inception_3a/5x5_reduce
I0403 15:00:57.819154 30881 net.cpp:141] Setting up inception_3a/5x5_reduce
I0403 15:00:57.819181 30881 net.cpp:148] Top shape: 24 16 28 28 (301056)
I0403 15:00:57.819197 30881 net.cpp:156] Memory required for data: 535880736
I0403 15:00:57.819216 30881 layer_factory.hpp:77] Creating layer inception_3a/relu_5x5_reduce
I0403 15:00:57.819247 30881 net.cpp:91] Creating Layer inception_3a/relu_5x5_reduce
I0403 15:00:57.819265 30881 net.cpp:425] inception_3a/relu_5x5_reduce <- inception_3a/5x5_reduce
I0403 15:00:57.819285 30881 net.cpp:386] inception_3a/relu_5x5_reduce -> inception_3a/5x5_reduce (in-place)
I0403 15:00:57.819619 30881 net.cpp:141] Setting up inception_3a/relu_5x5_reduce
I0403 15:00:57.819646 30881 net.cpp:148] Top shape: 24 16 28 28 (301056)
I0403 15:00:57.819663 30881 net.cpp:156] Memory required for data: 537084960
I0403 15:00:57.819677 30881 layer_factory.hpp:77] Creating layer inception_3a/5x5
I0403 15:00:57.819700 30881 net.cpp:91] Creating Layer inception_3a/5x5
I0403 15:00:57.819720 30881 net.cpp:425] inception_3a/5x5 <- inception_3a/5x5_reduce
I0403 15:00:57.819741 30881 net.cpp:399] inception_3a/5x5 -> inception_3a/5x5
I0403 15:00:57.820778 30881 net.cpp:141] Setting up inception_3a/5x5
I0403 15:00:57.820809 30881 net.cpp:148] Top shape: 24 32 28 28 (602112)
I0403 15:00:57.820825 30881 net.cpp:156] Memory required for data: 539493408
I0403 15:00:57.820843 30881 layer_factory.hpp:77] Creating layer inception_3a/relu_5x5
I0403 15:00:57.820863 30881 net.cpp:91] Creating Layer inception_3a/relu_5x5
I0403 15:00:57.820878 30881 net.cpp:425] inception_3a/relu_5x5 <- inception_3a/5x5
I0403 15:00:57.820900 30881 net.cpp:386] inception_3a/relu_5x5 -> inception_3a/5x5 (in-place)
I0403 15:00:57.821087 30881 net.cpp:141] Setting up inception_3a/relu_5x5
I0403 15:00:57.821111 30881 net.cpp:148] Top shape: 24 32 28 28 (602112)
I0403 15:00:57.821126 30881 net.cpp:156] Memory required for data: 541901856
I0403 15:00:57.821141 30881 layer_factory.hpp:77] Creating layer inception_3a/pool
I0403 15:00:57.821158 30881 net.cpp:91] Creating Layer inception_3a/pool
I0403 15:00:57.821188 30881 net.cpp:425] inception_3a/pool <- pool2/3x3_s2_pool2/3x3_s2_0_split_3
I0403 15:00:57.821210 30881 net.cpp:399] inception_3a/pool -> inception_3a/pool
I0403 15:00:57.821266 30881 net.cpp:141] Setting up inception_3a/pool
I0403 15:00:57.821290 30881 net.cpp:148] Top shape: 24 192 28 28 (3612672)
I0403 15:00:57.821305 30881 net.cpp:156] Memory required for data: 556352544
I0403 15:00:57.821319 30881 layer_factory.hpp:77] Creating layer inception_3a/pool_proj
I0403 15:00:57.821342 30881 net.cpp:91] Creating Layer inception_3a/pool_proj
I0403 15:00:57.821359 30881 net.cpp:425] inception_3a/pool_proj <- inception_3a/pool
I0403 15:00:57.821378 30881 net.cpp:399] inception_3a/pool_proj -> inception_3a/pool_proj
I0403 15:00:57.822340 30881 net.cpp:141] Setting up inception_3a/pool_proj
I0403 15:00:57.822367 30881 net.cpp:148] Top shape: 24 32 28 28 (602112)
I0403 15:00:57.822382 30881 net.cpp:156] Memory required for data: 558760992
I0403 15:00:57.822405 30881 layer_factory.hpp:77] Creating layer inception_3a/relu_pool_proj
I0403 15:00:57.822425 30881 net.cpp:91] Creating Layer inception_3a/relu_pool_proj
I0403 15:00:57.822441 30881 net.cpp:425] inception_3a/relu_pool_proj <- inception_3a/pool_proj
I0403 15:00:57.822460 30881 net.cpp:386] inception_3a/relu_pool_proj -> inception_3a/pool_proj (in-place)
I0403 15:00:57.822742 30881 net.cpp:141] Setting up inception_3a/relu_pool_proj
I0403 15:00:57.822770 30881 net.cpp:148] Top shape: 24 32 28 28 (602112)
I0403 15:00:57.822787 30881 net.cpp:156] Memory required for data: 561169440
I0403 15:00:57.822801 30881 layer_factory.hpp:77] Creating layer inception_3a/output
I0403 15:00:57.822819 30881 net.cpp:91] Creating Layer inception_3a/output
I0403 15:00:57.822834 30881 net.cpp:425] inception_3a/output <- inception_3a/1x1
I0403 15:00:57.822851 30881 net.cpp:425] inception_3a/output <- inception_3a/3x3
I0403 15:00:57.822867 30881 net.cpp:425] inception_3a/output <- inception_3a/5x5
I0403 15:00:57.822882 30881 net.cpp:425] inception_3a/output <- inception_3a/pool_proj
I0403 15:00:57.822902 30881 net.cpp:399] inception_3a/output -> inception_3a/output
I0403 15:00:57.822949 30881 net.cpp:141] Setting up inception_3a/output
I0403 15:00:57.822973 30881 net.cpp:148] Top shape: 24 256 28 28 (4816896)
I0403 15:00:57.822986 30881 net.cpp:156] Memory required for data: 580437024
I0403 15:00:57.823001 30881 layer_factory.hpp:77] Creating layer inception_3a/output_inception_3a/output_0_split
I0403 15:00:57.823021 30881 net.cpp:91] Creating Layer inception_3a/output_inception_3a/output_0_split
I0403 15:00:57.823037 30881 net.cpp:425] inception_3a/output_inception_3a/output_0_split <- inception_3a/output
I0403 15:00:57.823055 30881 net.cpp:399] inception_3a/output_inception_3a/output_0_split -> inception_3a/output_inception_3a/output_0_split_0
I0403 15:00:57.823073 30881 net.cpp:399] inception_3a/output_inception_3a/output_0_split -> inception_3a/output_inception_3a/output_0_split_1
I0403 15:00:57.823098 30881 net.cpp:399] inception_3a/output_inception_3a/output_0_split -> inception_3a/output_inception_3a/output_0_split_2
I0403 15:00:57.823119 30881 net.cpp:399] inception_3a/output_inception_3a/output_0_split -> inception_3a/output_inception_3a/output_0_split_3
I0403 15:00:57.823191 30881 net.cpp:141] Setting up inception_3a/output_inception_3a/output_0_split
I0403 15:00:57.823215 30881 net.cpp:148] Top shape: 24 256 28 28 (4816896)
I0403 15:00:57.823232 30881 net.cpp:148] Top shape: 24 256 28 28 (4816896)
I0403 15:00:57.823248 30881 net.cpp:148] Top shape: 24 256 28 28 (4816896)
I0403 15:00:57.823263 30881 net.cpp:148] Top shape: 24 256 28 28 (4816896)
I0403 15:00:57.823277 30881 net.cpp:156] Memory required for data: 657507360
I0403 15:00:57.823292 30881 layer_factory.hpp:77] Creating layer inception_3b/1x1
I0403 15:00:57.823314 30881 net.cpp:91] Creating Layer inception_3b/1x1
I0403 15:00:57.823331 30881 net.cpp:425] inception_3b/1x1 <- inception_3a/output_inception_3a/output_0_split_0
I0403 15:00:57.823349 30881 net.cpp:399] inception_3b/1x1 -> inception_3b/1x1
I0403 15:00:57.824481 30881 net.cpp:141] Setting up inception_3b/1x1
I0403 15:00:57.824530 30881 net.cpp:148] Top shape: 24 128 28 28 (2408448)
I0403 15:00:57.824550 30881 net.cpp:156] Memory required for data: 667141152
I0403 15:00:57.824569 30881 layer_factory.hpp:77] Creating layer inception_3b/relu_1x1
I0403 15:00:57.824587 30881 net.cpp:91] Creating Layer inception_3b/relu_1x1
I0403 15:00:57.824604 30881 net.cpp:425] inception_3b/relu_1x1 <- inception_3b/1x1
I0403 15:00:57.824620 30881 net.cpp:386] inception_3b/relu_1x1 -> inception_3b/1x1 (in-place)
I0403 15:00:57.824795 30881 net.cpp:141] Setting up inception_3b/relu_1x1
I0403 15:00:57.824821 30881 net.cpp:148] Top shape: 24 128 28 28 (2408448)
I0403 15:00:57.824836 30881 net.cpp:156] Memory required for data: 676774944
I0403 15:00:57.824851 30881 layer_factory.hpp:77] Creating layer inception_3b/3x3_reduce
I0403 15:00:57.824874 30881 net.cpp:91] Creating Layer inception_3b/3x3_reduce
I0403 15:00:57.824892 30881 net.cpp:425] inception_3b/3x3_reduce <- inception_3a/output_inception_3a/output_0_split_1
I0403 15:00:57.824911 30881 net.cpp:399] inception_3b/3x3_reduce -> inception_3b/3x3_reduce
I0403 15:00:57.826035 30881 net.cpp:141] Setting up inception_3b/3x3_reduce
I0403 15:00:57.826063 30881 net.cpp:148] Top shape: 24 128 28 28 (2408448)
I0403 15:00:57.826078 30881 net.cpp:156] Memory required for data: 686408736
I0403 15:00:57.826097 30881 layer_factory.hpp:77] Creating layer inception_3b/relu_3x3_reduce
I0403 15:00:57.826117 30881 net.cpp:91] Creating Layer inception_3b/relu_3x3_reduce
I0403 15:00:57.826134 30881 net.cpp:425] inception_3b/relu_3x3_reduce <- inception_3b/3x3_reduce
I0403 15:00:57.826151 30881 net.cpp:386] inception_3b/relu_3x3_reduce -> inception_3b/3x3_reduce (in-place)
I0403 15:00:57.826325 30881 net.cpp:141] Setting up inception_3b/relu_3x3_reduce
I0403 15:00:57.826351 30881 net.cpp:148] Top shape: 24 128 28 28 (2408448)
I0403 15:00:57.826365 30881 net.cpp:156] Memory required for data: 696042528
I0403 15:00:57.826380 30881 layer_factory.hpp:77] Creating layer inception_3b/3x3
I0403 15:00:57.826405 30881 net.cpp:91] Creating Layer inception_3b/3x3
I0403 15:00:57.826422 30881 net.cpp:425] inception_3b/3x3 <- inception_3b/3x3_reduce
I0403 15:00:57.826442 30881 net.cpp:399] inception_3b/3x3 -> inception_3b/3x3
I0403 15:00:57.829298 30881 net.cpp:141] Setting up inception_3b/3x3
I0403 15:00:57.829329 30881 net.cpp:148] Top shape: 24 192 28 28 (3612672)
I0403 15:00:57.829345 30881 net.cpp:156] Memory required for data: 710493216
I0403 15:00:57.829363 30881 layer_factory.hpp:77] Creating layer inception_3b/relu_3x3
I0403 15:00:57.829381 30881 net.cpp:91] Creating Layer inception_3b/relu_3x3
I0403 15:00:57.829396 30881 net.cpp:425] inception_3b/relu_3x3 <- inception_3b/3x3
I0403 15:00:57.829416 30881 net.cpp:386] inception_3b/relu_3x3 -> inception_3b/3x3 (in-place)
I0403 15:00:57.829684 30881 net.cpp:141] Setting up inception_3b/relu_3x3
I0403 15:00:57.829711 30881 net.cpp:148] Top shape: 24 192 28 28 (3612672)
I0403 15:00:57.829727 30881 net.cpp:156] Memory required for data: 724943904
I0403 15:00:57.829741 30881 layer_factory.hpp:77] Creating layer inception_3b/5x5_reduce
I0403 15:00:57.829764 30881 net.cpp:91] Creating Layer inception_3b/5x5_reduce
I0403 15:00:57.829782 30881 net.cpp:425] inception_3b/5x5_reduce <- inception_3a/output_inception_3a/output_0_split_2
I0403 15:00:57.829800 30881 net.cpp:399] inception_3b/5x5_reduce -> inception_3b/5x5_reduce
I0403 15:00:57.830749 30881 net.cpp:141] Setting up inception_3b/5x5_reduce
I0403 15:00:57.830778 30881 net.cpp:148] Top shape: 24 32 28 28 (602112)
I0403 15:00:57.830796 30881 net.cpp:156] Memory required for data: 727352352
I0403 15:00:57.830813 30881 layer_factory.hpp:77] Creating layer inception_3b/relu_5x5_reduce
I0403 15:00:57.830832 30881 net.cpp:91] Creating Layer inception_3b/relu_5x5_reduce
I0403 15:00:57.830845 30881 net.cpp:425] inception_3b/relu_5x5_reduce <- inception_3b/5x5_reduce
I0403 15:00:57.830867 30881 net.cpp:386] inception_3b/relu_5x5_reduce -> inception_3b/5x5_reduce (in-place)
I0403 15:00:57.831048 30881 net.cpp:141] Setting up inception_3b/relu_5x5_reduce
I0403 15:00:57.831073 30881 net.cpp:148] Top shape: 24 32 28 28 (602112)
I0403 15:00:57.831086 30881 net.cpp:156] Memory required for data: 729760800
I0403 15:00:57.831100 30881 layer_factory.hpp:77] Creating layer inception_3b/5x5
I0403 15:00:57.831122 30881 net.cpp:91] Creating Layer inception_3b/5x5
I0403 15:00:57.831146 30881 net.cpp:425] inception_3b/5x5 <- inception_3b/5x5_reduce
I0403 15:00:57.831166 30881 net.cpp:399] inception_3b/5x5 -> inception_3b/5x5
I0403 15:00:57.833104 30881 net.cpp:141] Setting up inception_3b/5x5
I0403 15:00:57.833132 30881 net.cpp:148] Top shape: 24 96 28 28 (1806336)
I0403 15:00:57.833148 30881 net.cpp:156] Memory required for data: 736986144
I0403 15:00:57.833165 30881 layer_factory.hpp:77] Creating layer inception_3b/relu_5x5
I0403 15:00:57.833185 30881 net.cpp:91] Creating Layer inception_3b/relu_5x5
I0403 15:00:57.833201 30881 net.cpp:425] inception_3b/relu_5x5 <- inception_3b/5x5
I0403 15:00:57.833219 30881 net.cpp:386] inception_3b/relu_5x5 -> inception_3b/5x5 (in-place)
I0403 15:00:57.833403 30881 net.cpp:141] Setting up inception_3b/relu_5x5
I0403 15:00:57.833427 30881 net.cpp:148] Top shape: 24 96 28 28 (1806336)
I0403 15:00:57.833441 30881 net.cpp:156] Memory required for data: 744211488
I0403 15:00:57.833456 30881 layer_factory.hpp:77] Creating layer inception_3b/pool
I0403 15:00:57.833473 30881 net.cpp:91] Creating Layer inception_3b/pool
I0403 15:00:57.833488 30881 net.cpp:425] inception_3b/pool <- inception_3a/output_inception_3a/output_0_split_3
I0403 15:00:57.833508 30881 net.cpp:399] inception_3b/pool -> inception_3b/pool
I0403 15:00:57.833564 30881 net.cpp:141] Setting up inception_3b/pool
I0403 15:00:57.833591 30881 net.cpp:148] Top shape: 24 256 28 28 (4816896)
I0403 15:00:57.833606 30881 net.cpp:156] Memory required for data: 763479072
I0403 15:00:57.833621 30881 layer_factory.hpp:77] Creating layer inception_3b/pool_proj
I0403 15:00:57.833643 30881 net.cpp:91] Creating Layer inception_3b/pool_proj
I0403 15:00:57.833660 30881 net.cpp:425] inception_3b/pool_proj <- inception_3b/pool
I0403 15:00:57.833678 30881 net.cpp:399] inception_3b/pool_proj -> inception_3b/pool_proj
I0403 15:00:57.834722 30881 net.cpp:141] Setting up inception_3b/pool_proj
I0403 15:00:57.834749 30881 net.cpp:148] Top shape: 24 64 28 28 (1204224)
I0403 15:00:57.834764 30881 net.cpp:156] Memory required for data: 768295968
I0403 15:00:57.834782 30881 layer_factory.hpp:77] Creating layer inception_3b/relu_pool_proj
I0403 15:00:57.834800 30881 net.cpp:91] Creating Layer inception_3b/relu_pool_proj
I0403 15:00:57.834816 30881 net.cpp:425] inception_3b/relu_pool_proj <- inception_3b/pool_proj
I0403 15:00:57.834836 30881 net.cpp:386] inception_3b/relu_pool_proj -> inception_3b/pool_proj (in-place)
I0403 15:00:57.835221 30881 net.cpp:141] Setting up inception_3b/relu_pool_proj
I0403 15:00:57.835245 30881 net.cpp:148] Top shape: 24 64 28 28 (1204224)
I0403 15:00:57.835260 30881 net.cpp:156] Memory required for data: 773112864
I0403 15:00:57.835281 30881 layer_factory.hpp:77] Creating layer inception_3b/output
I0403 15:00:57.835299 30881 net.cpp:91] Creating Layer inception_3b/output
I0403 15:00:57.835314 30881 net.cpp:425] inception_3b/output <- inception_3b/1x1
I0403 15:00:57.835328 30881 net.cpp:425] inception_3b/output <- inception_3b/3x3
I0403 15:00:57.835345 30881 net.cpp:425] inception_3b/output <- inception_3b/5x5
I0403 15:00:57.835360 30881 net.cpp:425] inception_3b/output <- inception_3b/pool_proj
I0403 15:00:57.835378 30881 net.cpp:399] inception_3b/output -> inception_3b/output
I0403 15:00:57.835422 30881 net.cpp:141] Setting up inception_3b/output
I0403 15:00:57.835445 30881 net.cpp:148] Top shape: 24 480 28 28 (9031680)
I0403 15:00:57.835460 30881 net.cpp:156] Memory required for data: 809239584
I0403 15:00:57.835474 30881 layer_factory.hpp:77] Creating layer pool3/3x3_s2
I0403 15:00:57.835492 30881 net.cpp:91] Creating Layer pool3/3x3_s2
I0403 15:00:57.835511 30881 net.cpp:425] pool3/3x3_s2 <- inception_3b/output
I0403 15:00:57.835546 30881 net.cpp:399] pool3/3x3_s2 -> pool3/3x3_s2
I0403 15:00:57.835604 30881 net.cpp:141] Setting up pool3/3x3_s2
I0403 15:00:57.835628 30881 net.cpp:148] Top shape: 24 480 14 14 (2257920)
I0403 15:00:57.835640 30881 net.cpp:156] Memory required for data: 818271264
I0403 15:00:57.835654 30881 layer_factory.hpp:77] Creating layer pool3/3x3_s2_pool3/3x3_s2_0_split
I0403 15:00:57.835674 30881 net.cpp:91] Creating Layer pool3/3x3_s2_pool3/3x3_s2_0_split
I0403 15:00:57.835690 30881 net.cpp:425] pool3/3x3_s2_pool3/3x3_s2_0_split <- pool3/3x3_s2
I0403 15:00:57.835706 30881 net.cpp:399] pool3/3x3_s2_pool3/3x3_s2_0_split -> pool3/3x3_s2_pool3/3x3_s2_0_split_0
I0403 15:00:57.835724 30881 net.cpp:399] pool3/3x3_s2_pool3/3x3_s2_0_split -> pool3/3x3_s2_pool3/3x3_s2_0_split_1
I0403 15:00:57.835742 30881 net.cpp:399] pool3/3x3_s2_pool3/3x3_s2_0_split -> pool3/3x3_s2_pool3/3x3_s2_0_split_2
I0403 15:00:57.835760 30881 net.cpp:399] pool3/3x3_s2_pool3/3x3_s2_0_split -> pool3/3x3_s2_pool3/3x3_s2_0_split_3
I0403 15:00:57.835835 30881 net.cpp:141] Setting up pool3/3x3_s2_pool3/3x3_s2_0_split
I0403 15:00:57.835857 30881 net.cpp:148] Top shape: 24 480 14 14 (2257920)
I0403 15:00:57.835873 30881 net.cpp:148] Top shape: 24 480 14 14 (2257920)
I0403 15:00:57.835888 30881 net.cpp:148] Top shape: 24 480 14 14 (2257920)
I0403 15:00:57.835903 30881 net.cpp:148] Top shape: 24 480 14 14 (2257920)
I0403 15:00:57.835917 30881 net.cpp:156] Memory required for data: 854397984
I0403 15:00:57.835932 30881 layer_factory.hpp:77] Creating layer inception_4a/1x1
I0403 15:00:57.835952 30881 net.cpp:91] Creating Layer inception_4a/1x1
I0403 15:00:57.835969 30881 net.cpp:425] inception_4a/1x1 <- pool3/3x3_s2_pool3/3x3_s2_0_split_0
I0403 15:00:57.835993 30881 net.cpp:399] inception_4a/1x1 -> inception_4a/1x1
I0403 15:00:57.837519 30881 net.cpp:141] Setting up inception_4a/1x1
I0403 15:00:57.837546 30881 net.cpp:148] Top shape: 24 192 14 14 (903168)
I0403 15:00:57.837561 30881 net.cpp:156] Memory required for data: 858010656
I0403 15:00:57.837580 30881 layer_factory.hpp:77] Creating layer inception_4a/relu_1x1
I0403 15:00:57.837604 30881 net.cpp:91] Creating Layer inception_4a/relu_1x1
I0403 15:00:57.837620 30881 net.cpp:425] inception_4a/relu_1x1 <- inception_4a/1x1
I0403 15:00:57.837635 30881 net.cpp:386] inception_4a/relu_1x1 -> inception_4a/1x1 (in-place)
I0403 15:00:57.837802 30881 net.cpp:141] Setting up inception_4a/relu_1x1
I0403 15:00:57.837829 30881 net.cpp:148] Top shape: 24 192 14 14 (903168)
I0403 15:00:57.837844 30881 net.cpp:156] Memory required for data: 861623328
I0403 15:00:57.837860 30881 layer_factory.hpp:77] Creating layer inception_4a/3x3_reduce
I0403 15:00:57.837882 30881 net.cpp:91] Creating Layer inception_4a/3x3_reduce
I0403 15:00:57.837898 30881 net.cpp:425] inception_4a/3x3_reduce <- pool3/3x3_s2_pool3/3x3_s2_0_split_1
I0403 15:00:57.837915 30881 net.cpp:399] inception_4a/3x3_reduce -> inception_4a/3x3_reduce
I0403 15:00:57.839144 30881 net.cpp:141] Setting up inception_4a/3x3_reduce
I0403 15:00:57.839170 30881 net.cpp:148] Top shape: 24 96 14 14 (451584)
I0403 15:00:57.839185 30881 net.cpp:156] Memory required for data: 863429664
I0403 15:00:57.839210 30881 layer_factory.hpp:77] Creating layer inception_4a/relu_3x3_reduce
I0403 15:00:57.839228 30881 net.cpp:91] Creating Layer inception_4a/relu_3x3_reduce
I0403 15:00:57.839244 30881 net.cpp:425] inception_4a/relu_3x3_reduce <- inception_4a/3x3_reduce
I0403 15:00:57.839263 30881 net.cpp:386] inception_4a/relu_3x3_reduce -> inception_4a/3x3_reduce (in-place)
I0403 15:00:57.839432 30881 net.cpp:141] Setting up inception_4a/relu_3x3_reduce
I0403 15:00:57.839457 30881 net.cpp:148] Top shape: 24 96 14 14 (451584)
I0403 15:00:57.839470 30881 net.cpp:156] Memory required for data: 865236000
I0403 15:00:57.839484 30881 layer_factory.hpp:77] Creating layer inception_4a/3x3
I0403 15:00:57.839510 30881 net.cpp:91] Creating Layer inception_4a/3x3
I0403 15:00:57.839529 30881 net.cpp:425] inception_4a/3x3 <- inception_4a/3x3_reduce
I0403 15:00:57.839548 30881 net.cpp:399] inception_4a/3x3 -> inception_4a/3x3
I0403 15:00:57.842144 30881 net.cpp:141] Setting up inception_4a/3x3
I0403 15:00:57.842171 30881 net.cpp:148] Top shape: 24 208 14 14 (978432)
I0403 15:00:57.842187 30881 net.cpp:156] Memory required for data: 869149728
I0403 15:00:57.842206 30881 layer_factory.hpp:77] Creating layer inception_4a/relu_3x3
I0403 15:00:57.842226 30881 net.cpp:91] Creating Layer inception_4a/relu_3x3
I0403 15:00:57.842242 30881 net.cpp:425] inception_4a/relu_3x3 <- inception_4a/3x3
I0403 15:00:57.842258 30881 net.cpp:386] inception_4a/relu_3x3 -> inception_4a/3x3 (in-place)
I0403 15:00:57.842530 30881 net.cpp:141] Setting up inception_4a/relu_3x3
I0403 15:00:57.842555 30881 net.cpp:148] Top shape: 24 208 14 14 (978432)
I0403 15:00:57.842572 30881 net.cpp:156] Memory required for data: 873063456
I0403 15:00:57.842587 30881 layer_factory.hpp:77] Creating layer inception_4a/5x5_reduce
I0403 15:00:57.842612 30881 net.cpp:91] Creating Layer inception_4a/5x5_reduce
I0403 15:00:57.842628 30881 net.cpp:425] inception_4a/5x5_reduce <- pool3/3x3_s2_pool3/3x3_s2_0_split_2
I0403 15:00:57.842648 30881 net.cpp:399] inception_4a/5x5_reduce -> inception_4a/5x5_reduce
I0403 15:00:57.843637 30881 net.cpp:141] Setting up inception_4a/5x5_reduce
I0403 15:00:57.843667 30881 net.cpp:148] Top shape: 24 16 14 14 (75264)
I0403 15:00:57.843683 30881 net.cpp:156] Memory required for data: 873364512
I0403 15:00:57.843701 30881 layer_factory.hpp:77] Creating layer inception_4a/relu_5x5_reduce
I0403 15:00:57.843719 30881 net.cpp:91] Creating Layer inception_4a/relu_5x5_reduce
I0403 15:00:57.843734 30881 net.cpp:425] inception_4a/relu_5x5_reduce <- inception_4a/5x5_reduce
I0403 15:00:57.843754 30881 net.cpp:386] inception_4a/relu_5x5_reduce -> inception_4a/5x5_reduce (in-place)
I0403 15:00:57.843926 30881 net.cpp:141] Setting up inception_4a/relu_5x5_reduce
I0403 15:00:57.843950 30881 net.cpp:148] Top shape: 24 16 14 14 (75264)
I0403 15:00:57.843963 30881 net.cpp:156] Memory required for data: 873665568
I0403 15:00:57.843978 30881 layer_factory.hpp:77] Creating layer inception_4a/5x5
I0403 15:00:57.844000 30881 net.cpp:91] Creating Layer inception_4a/5x5
I0403 15:00:57.844017 30881 net.cpp:425] inception_4a/5x5 <- inception_4a/5x5_reduce
I0403 15:00:57.844039 30881 net.cpp:399] inception_4a/5x5 -> inception_4a/5x5
I0403 15:00:57.845090 30881 net.cpp:141] Setting up inception_4a/5x5
I0403 15:00:57.845116 30881 net.cpp:148] Top shape: 24 48 14 14 (225792)
I0403 15:00:57.845131 30881 net.cpp:156] Memory required for data: 874568736
I0403 15:00:57.845149 30881 layer_factory.hpp:77] Creating layer inception_4a/relu_5x5
I0403 15:00:57.845170 30881 net.cpp:91] Creating Layer inception_4a/relu_5x5
I0403 15:00:57.845186 30881 net.cpp:425] inception_4a/relu_5x5 <- inception_4a/5x5
I0403 15:00:57.845202 30881 net.cpp:386] inception_4a/relu_5x5 -> inception_4a/5x5 (in-place)
I0403 15:00:57.845376 30881 net.cpp:141] Setting up inception_4a/relu_5x5
I0403 15:00:57.845399 30881 net.cpp:148] Top shape: 24 48 14 14 (225792)
I0403 15:00:57.845413 30881 net.cpp:156] Memory required for data: 875471904
I0403 15:00:57.845438 30881 layer_factory.hpp:77] Creating layer inception_4a/pool
I0403 15:00:57.845458 30881 net.cpp:91] Creating Layer inception_4a/pool
I0403 15:00:57.845474 30881 net.cpp:425] inception_4a/pool <- pool3/3x3_s2_pool3/3x3_s2_0_split_3
I0403 15:00:57.845490 30881 net.cpp:399] inception_4a/pool -> inception_4a/pool
I0403 15:00:57.845556 30881 net.cpp:141] Setting up inception_4a/pool
I0403 15:00:57.845578 30881 net.cpp:148] Top shape: 24 480 14 14 (2257920)
I0403 15:00:57.845592 30881 net.cpp:156] Memory required for data: 884503584
I0403 15:00:57.845607 30881 layer_factory.hpp:77] Creating layer inception_4a/pool_proj
I0403 15:00:57.845628 30881 net.cpp:91] Creating Layer inception_4a/pool_proj
I0403 15:00:57.845644 30881 net.cpp:425] inception_4a/pool_proj <- inception_4a/pool
I0403 15:00:57.845664 30881 net.cpp:399] inception_4a/pool_proj -> inception_4a/pool_proj
I0403 15:00:57.846788 30881 net.cpp:141] Setting up inception_4a/pool_proj
I0403 15:00:57.846815 30881 net.cpp:148] Top shape: 24 64 14 14 (301056)
I0403 15:00:57.846844 30881 net.cpp:156] Memory required for data: 885707808
I0403 15:00:57.846864 30881 layer_factory.hpp:77] Creating layer inception_4a/relu_pool_proj
I0403 15:00:57.846884 30881 net.cpp:91] Creating Layer inception_4a/relu_pool_proj
I0403 15:00:57.846900 30881 net.cpp:425] inception_4a/relu_pool_proj <- inception_4a/pool_proj
I0403 15:00:57.846917 30881 net.cpp:386] inception_4a/relu_pool_proj -> inception_4a/pool_proj (in-place)
I0403 15:00:57.847200 30881 net.cpp:141] Setting up inception_4a/relu_pool_proj
I0403 15:00:57.847225 30881 net.cpp:148] Top shape: 24 64 14 14 (301056)
I0403 15:00:57.847239 30881 net.cpp:156] Memory required for data: 886912032
I0403 15:00:57.847254 30881 layer_factory.hpp:77] Creating layer inception_4a/output
I0403 15:00:57.847270 30881 net.cpp:91] Creating Layer inception_4a/output
I0403 15:00:57.847288 30881 net.cpp:425] inception_4a/output <- inception_4a/1x1
I0403 15:00:57.847306 30881 net.cpp:425] inception_4a/output <- inception_4a/3x3
I0403 15:00:57.847321 30881 net.cpp:425] inception_4a/output <- inception_4a/5x5
I0403 15:00:57.847337 30881 net.cpp:425] inception_4a/output <- inception_4a/pool_proj
I0403 15:00:57.847352 30881 net.cpp:399] inception_4a/output -> inception_4a/output
I0403 15:00:57.847395 30881 net.cpp:141] Setting up inception_4a/output
I0403 15:00:57.847419 30881 net.cpp:148] Top shape: 24 512 14 14 (2408448)
I0403 15:00:57.847435 30881 net.cpp:156] Memory required for data: 896545824
I0403 15:00:57.847450 30881 layer_factory.hpp:77] Creating layer inception_4a/output_inception_4a/output_0_split
I0403 15:00:57.847467 30881 net.cpp:91] Creating Layer inception_4a/output_inception_4a/output_0_split
I0403 15:00:57.847482 30881 net.cpp:425] inception_4a/output_inception_4a/output_0_split <- inception_4a/output
I0403 15:00:57.847507 30881 net.cpp:399] inception_4a/output_inception_4a/output_0_split -> inception_4a/output_inception_4a/output_0_split_0
I0403 15:00:57.847528 30881 net.cpp:399] inception_4a/output_inception_4a/output_0_split -> inception_4a/output_inception_4a/output_0_split_1
I0403 15:00:57.847549 30881 net.cpp:399] inception_4a/output_inception_4a/output_0_split -> inception_4a/output_inception_4a/output_0_split_2
I0403 15:00:57.847569 30881 net.cpp:399] inception_4a/output_inception_4a/output_0_split -> inception_4a/output_inception_4a/output_0_split_3
I0403 15:00:57.847589 30881 net.cpp:399] inception_4a/output_inception_4a/output_0_split -> inception_4a/output_inception_4a/output_0_split_4
I0403 15:00:57.847677 30881 net.cpp:141] Setting up inception_4a/output_inception_4a/output_0_split
I0403 15:00:57.847700 30881 net.cpp:148] Top shape: 24 512 14 14 (2408448)
I0403 15:00:57.847718 30881 net.cpp:148] Top shape: 24 512 14 14 (2408448)
I0403 15:00:57.847734 30881 net.cpp:148] Top shape: 24 512 14 14 (2408448)
I0403 15:00:57.847749 30881 net.cpp:148] Top shape: 24 512 14 14 (2408448)
I0403 15:00:57.847764 30881 net.cpp:148] Top shape: 24 512 14 14 (2408448)
I0403 15:00:57.847777 30881 net.cpp:156] Memory required for data: 944714784
I0403 15:00:57.847791 30881 layer_factory.hpp:77] Creating layer loss1/ave_pool
I0403 15:00:57.847808 30881 net.cpp:91] Creating Layer loss1/ave_pool
I0403 15:00:57.847823 30881 net.cpp:425] loss1/ave_pool <- inception_4a/output_inception_4a/output_0_split_0
I0403 15:00:57.847843 30881 net.cpp:399] loss1/ave_pool -> loss1/ave_pool
I0403 15:00:57.848042 30881 net.cpp:141] Setting up loss1/ave_pool
I0403 15:00:57.848067 30881 net.cpp:148] Top shape: 24 512 4 4 (196608)
I0403 15:00:57.848080 30881 net.cpp:156] Memory required for data: 945501216
I0403 15:00:57.848095 30881 layer_factory.hpp:77] Creating layer loss1/conv
I0403 15:00:57.848116 30881 net.cpp:91] Creating Layer loss1/conv
I0403 15:00:57.848134 30881 net.cpp:425] loss1/conv <- loss1/ave_pool
I0403 15:00:57.848155 30881 net.cpp:399] loss1/conv -> loss1/conv
I0403 15:00:57.849519 30881 net.cpp:141] Setting up loss1/conv
I0403 15:00:57.849545 30881 net.cpp:148] Top shape: 24 128 4 4 (49152)
I0403 15:00:57.849575 30881 net.cpp:156] Memory required for data: 945697824
I0403 15:00:57.849594 30881 layer_factory.hpp:77] Creating layer loss1/relu_conv
I0403 15:00:57.849613 30881 net.cpp:91] Creating Layer loss1/relu_conv
I0403 15:00:57.849630 30881 net.cpp:425] loss1/relu_conv <- loss1/conv
I0403 15:00:57.849647 30881 net.cpp:386] loss1/relu_conv -> loss1/conv (in-place)
I0403 15:00:57.849918 30881 net.cpp:141] Setting up loss1/relu_conv
I0403 15:00:57.849944 30881 net.cpp:148] Top shape: 24 128 4 4 (49152)
I0403 15:00:57.849958 30881 net.cpp:156] Memory required for data: 945894432
I0403 15:00:57.849973 30881 layer_factory.hpp:77] Creating layer loss1/fc
I0403 15:00:57.850000 30881 net.cpp:91] Creating Layer loss1/fc
I0403 15:00:57.850018 30881 net.cpp:425] loss1/fc <- loss1/conv
I0403 15:00:57.850039 30881 net.cpp:399] loss1/fc -> loss1/fc
I0403 15:00:57.867226 30881 net.cpp:141] Setting up loss1/fc
I0403 15:00:57.867259 30881 net.cpp:148] Top shape: 24 1024 (24576)
I0403 15:00:57.867274 30881 net.cpp:156] Memory required for data: 945992736
I0403 15:00:57.867300 30881 layer_factory.hpp:77] Creating layer loss1/relu_fc
I0403 15:00:57.867321 30881 net.cpp:91] Creating Layer loss1/relu_fc
I0403 15:00:57.867337 30881 net.cpp:425] loss1/relu_fc <- loss1/fc
I0403 15:00:57.867357 30881 net.cpp:386] loss1/relu_fc -> loss1/fc (in-place)
I0403 15:00:57.867537 30881 net.cpp:141] Setting up loss1/relu_fc
I0403 15:00:57.867563 30881 net.cpp:148] Top shape: 24 1024 (24576)
I0403 15:00:57.867579 30881 net.cpp:156] Memory required for data: 946091040
I0403 15:00:57.867604 30881 layer_factory.hpp:77] Creating layer loss1/drop_fc
I0403 15:00:57.867629 30881 net.cpp:91] Creating Layer loss1/drop_fc
I0403 15:00:57.867645 30881 net.cpp:425] loss1/drop_fc <- loss1/fc
I0403 15:00:57.867663 30881 net.cpp:386] loss1/drop_fc -> loss1/fc (in-place)
I0403 15:00:57.867715 30881 net.cpp:141] Setting up loss1/drop_fc
I0403 15:00:57.867738 30881 net.cpp:148] Top shape: 24 1024 (24576)
I0403 15:00:57.867753 30881 net.cpp:156] Memory required for data: 946189344
I0403 15:00:57.867768 30881 layer_factory.hpp:77] Creating layer loss1/classifier_plantvillage
I0403 15:00:57.867785 30881 net.cpp:91] Creating Layer loss1/classifier_plantvillage
I0403 15:00:57.867800 30881 net.cpp:425] loss1/classifier_plantvillage <- loss1/fc
I0403 15:00:57.867820 30881 net.cpp:399] loss1/classifier_plantvillage -> loss1/classifier_plantvillage
I0403 15:00:57.868703 30881 net.cpp:141] Setting up loss1/classifier_plantvillage
I0403 15:00:57.868731 30881 net.cpp:148] Top shape: 24 38 (912)
I0403 15:00:57.868746 30881 net.cpp:156] Memory required for data: 946192992
I0403 15:00:57.868763 30881 layer_factory.hpp:77] Creating layer loss1/classifier_plantvillage_loss1/classifier_plantvillage_0_split
I0403 15:00:57.868783 30881 net.cpp:91] Creating Layer loss1/classifier_plantvillage_loss1/classifier_plantvillage_0_split
I0403 15:00:57.868800 30881 net.cpp:425] loss1/classifier_plantvillage_loss1/classifier_plantvillage_0_split <- loss1/classifier_plantvillage
I0403 15:00:57.868818 30881 net.cpp:399] loss1/classifier_plantvillage_loss1/classifier_plantvillage_0_split -> loss1/classifier_plantvillage_loss1/classifier_plantvillage_0_split_0
I0403 15:00:57.868837 30881 net.cpp:399] loss1/classifier_plantvillage_loss1/classifier_plantvillage_0_split -> loss1/classifier_plantvillage_loss1/classifier_plantvillage_0_split_1
I0403 15:00:57.868857 30881 net.cpp:399] loss1/classifier_plantvillage_loss1/classifier_plantvillage_0_split -> loss1/classifier_plantvillage_loss1/classifier_plantvillage_0_split_2
I0403 15:00:57.868923 30881 net.cpp:141] Setting up loss1/classifier_plantvillage_loss1/classifier_plantvillage_0_split
I0403 15:00:57.868947 30881 net.cpp:148] Top shape: 24 38 (912)
I0403 15:00:57.868962 30881 net.cpp:148] Top shape: 24 38 (912)
I0403 15:00:57.868978 30881 net.cpp:148] Top shape: 24 38 (912)
I0403 15:00:57.868990 30881 net.cpp:156] Memory required for data: 946203936
I0403 15:00:57.869004 30881 layer_factory.hpp:77] Creating layer inception_4b/1x1
I0403 15:00:57.869026 30881 net.cpp:91] Creating Layer inception_4b/1x1
I0403 15:00:57.869060 30881 net.cpp:425] inception_4b/1x1 <- inception_4a/output_inception_4a/output_0_split_1
I0403 15:00:57.869079 30881 net.cpp:399] inception_4b/1x1 -> inception_4b/1x1
I0403 15:00:57.870698 30881 net.cpp:141] Setting up inception_4b/1x1
I0403 15:00:57.870733 30881 net.cpp:148] Top shape: 24 160 14 14 (752640)
I0403 15:00:57.870748 30881 net.cpp:156] Memory required for data: 949214496
I0403 15:00:57.870765 30881 layer_factory.hpp:77] Creating layer inception_4b/relu_1x1
I0403 15:00:57.870782 30881 net.cpp:91] Creating Layer inception_4b/relu_1x1
I0403 15:00:57.870800 30881 net.cpp:425] inception_4b/relu_1x1 <- inception_4b/1x1
I0403 15:00:57.870820 30881 net.cpp:386] inception_4b/relu_1x1 -> inception_4b/1x1 (in-place)
I0403 15:00:57.870992 30881 net.cpp:141] Setting up inception_4b/relu_1x1
I0403 15:00:57.871016 30881 net.cpp:148] Top shape: 24 160 14 14 (752640)
I0403 15:00:57.871031 30881 net.cpp:156] Memory required for data: 952225056
I0403 15:00:57.871045 30881 layer_factory.hpp:77] Creating layer inception_4b/3x3_reduce
I0403 15:00:57.871068 30881 net.cpp:91] Creating Layer inception_4b/3x3_reduce
I0403 15:00:57.871085 30881 net.cpp:425] inception_4b/3x3_reduce <- inception_4a/output_inception_4a/output_0_split_2
I0403 15:00:57.871106 30881 net.cpp:399] inception_4b/3x3_reduce -> inception_4b/3x3_reduce
I0403 15:00:57.872416 30881 net.cpp:141] Setting up inception_4b/3x3_reduce
I0403 15:00:57.872442 30881 net.cpp:148] Top shape: 24 112 14 14 (526848)
I0403 15:00:57.872457 30881 net.cpp:156] Memory required for data: 954332448
I0403 15:00:57.872476 30881 layer_factory.hpp:77] Creating layer inception_4b/relu_3x3_reduce
I0403 15:00:57.872493 30881 net.cpp:91] Creating Layer inception_4b/relu_3x3_reduce
I0403 15:00:57.872516 30881 net.cpp:425] inception_4b/relu_3x3_reduce <- inception_4b/3x3_reduce
I0403 15:00:57.872540 30881 net.cpp:386] inception_4b/relu_3x3_reduce -> inception_4b/3x3_reduce (in-place)
I0403 15:00:57.872820 30881 net.cpp:141] Setting up inception_4b/relu_3x3_reduce
I0403 15:00:57.872845 30881 net.cpp:148] Top shape: 24 112 14 14 (526848)
I0403 15:00:57.872860 30881 net.cpp:156] Memory required for data: 956439840
I0403 15:00:57.872879 30881 layer_factory.hpp:77] Creating layer inception_4b/3x3
I0403 15:00:57.872900 30881 net.cpp:91] Creating Layer inception_4b/3x3
I0403 15:00:57.872917 30881 net.cpp:425] inception_4b/3x3 <- inception_4b/3x3_reduce
I0403 15:00:57.872938 30881 net.cpp:399] inception_4b/3x3 -> inception_4b/3x3
I0403 15:00:57.875871 30881 net.cpp:141] Setting up inception_4b/3x3
I0403 15:00:57.875900 30881 net.cpp:148] Top shape: 24 224 14 14 (1053696)
I0403 15:00:57.875916 30881 net.cpp:156] Memory required for data: 960654624
I0403 15:00:57.875933 30881 layer_factory.hpp:77] Creating layer inception_4b/relu_3x3
I0403 15:00:57.875953 30881 net.cpp:91] Creating Layer inception_4b/relu_3x3
I0403 15:00:57.875970 30881 net.cpp:425] inception_4b/relu_3x3 <- inception_4b/3x3
I0403 15:00:57.875988 30881 net.cpp:386] inception_4b/relu_3x3 -> inception_4b/3x3 (in-place)
I0403 15:00:57.876160 30881 net.cpp:141] Setting up inception_4b/relu_3x3
I0403 15:00:57.876186 30881 net.cpp:148] Top shape: 24 224 14 14 (1053696)
I0403 15:00:57.876201 30881 net.cpp:156] Memory required for data: 964869408
I0403 15:00:57.876216 30881 layer_factory.hpp:77] Creating layer inception_4b/5x5_reduce
I0403 15:00:57.876240 30881 net.cpp:91] Creating Layer inception_4b/5x5_reduce
I0403 15:00:57.876256 30881 net.cpp:425] inception_4b/5x5_reduce <- inception_4a/output_inception_4a/output_0_split_3
I0403 15:00:57.876274 30881 net.cpp:399] inception_4b/5x5_reduce -> inception_4b/5x5_reduce
I0403 15:00:57.877328 30881 net.cpp:141] Setting up inception_4b/5x5_reduce
I0403 15:00:57.877358 30881 net.cpp:148] Top shape: 24 24 14 14 (112896)
I0403 15:00:57.877373 30881 net.cpp:156] Memory required for data: 965320992
I0403 15:00:57.877393 30881 layer_factory.hpp:77] Creating layer inception_4b/relu_5x5_reduce
I0403 15:00:57.877409 30881 net.cpp:91] Creating Layer inception_4b/relu_5x5_reduce
I0403 15:00:57.877444 30881 net.cpp:425] inception_4b/relu_5x5_reduce <- inception_4b/5x5_reduce
I0403 15:00:57.877465 30881 net.cpp:386] inception_4b/relu_5x5_reduce -> inception_4b/5x5_reduce (in-place)
I0403 15:00:57.877645 30881 net.cpp:141] Setting up inception_4b/relu_5x5_reduce
I0403 15:00:57.877670 30881 net.cpp:148] Top shape: 24 24 14 14 (112896)
I0403 15:00:57.877684 30881 net.cpp:156] Memory required for data: 965772576
I0403 15:00:57.877698 30881 layer_factory.hpp:77] Creating layer inception_4b/5x5
I0403 15:00:57.877723 30881 net.cpp:91] Creating Layer inception_4b/5x5
I0403 15:00:57.877740 30881 net.cpp:425] inception_4b/5x5 <- inception_4b/5x5_reduce
I0403 15:00:57.877760 30881 net.cpp:399] inception_4b/5x5 -> inception_4b/5x5
I0403 15:00:57.878940 30881 net.cpp:141] Setting up inception_4b/5x5
I0403 15:00:57.878969 30881 net.cpp:148] Top shape: 24 64 14 14 (301056)
I0403 15:00:57.878984 30881 net.cpp:156] Memory required for data: 966976800
I0403 15:00:57.879004 30881 layer_factory.hpp:77] Creating layer inception_4b/relu_5x5
I0403 15:00:57.879020 30881 net.cpp:91] Creating Layer inception_4b/relu_5x5
I0403 15:00:57.879036 30881 net.cpp:425] inception_4b/relu_5x5 <- inception_4b/5x5
I0403 15:00:57.879055 30881 net.cpp:386] inception_4b/relu_5x5 -> inception_4b/5x5 (in-place)
I0403 15:00:57.879329 30881 net.cpp:141] Setting up inception_4b/relu_5x5
I0403 15:00:57.879356 30881 net.cpp:148] Top shape: 24 64 14 14 (301056)
I0403 15:00:57.879372 30881 net.cpp:156] Memory required for data: 968181024
I0403 15:00:57.879387 30881 layer_factory.hpp:77] Creating layer inception_4b/pool
I0403 15:00:57.879405 30881 net.cpp:91] Creating Layer inception_4b/pool
I0403 15:00:57.879420 30881 net.cpp:425] inception_4b/pool <- inception_4a/output_inception_4a/output_0_split_4
I0403 15:00:57.879439 30881 net.cpp:399] inception_4b/pool -> inception_4b/pool
I0403 15:00:57.879500 30881 net.cpp:141] Setting up inception_4b/pool
I0403 15:00:57.879535 30881 net.cpp:148] Top shape: 24 512 14 14 (2408448)
I0403 15:00:57.879551 30881 net.cpp:156] Memory required for data: 977814816
I0403 15:00:57.879566 30881 layer_factory.hpp:77] Creating layer inception_4b/pool_proj
I0403 15:00:57.879588 30881 net.cpp:91] Creating Layer inception_4b/pool_proj
I0403 15:00:57.879606 30881 net.cpp:425] inception_4b/pool_proj <- inception_4b/pool
I0403 15:00:57.879624 30881 net.cpp:399] inception_4b/pool_proj -> inception_4b/pool_proj
I0403 15:00:57.880784 30881 net.cpp:141] Setting up inception_4b/pool_proj
I0403 15:00:57.880813 30881 net.cpp:148] Top shape: 24 64 14 14 (301056)
I0403 15:00:57.880831 30881 net.cpp:156] Memory required for data: 979019040
I0403 15:00:57.880848 30881 layer_factory.hpp:77] Creating layer inception_4b/relu_pool_proj
I0403 15:00:57.880866 30881 net.cpp:91] Creating Layer inception_4b/relu_pool_proj
I0403 15:00:57.880882 30881 net.cpp:425] inception_4b/relu_pool_proj <- inception_4b/pool_proj
I0403 15:00:57.880899 30881 net.cpp:386] inception_4b/relu_pool_proj -> inception_4b/pool_proj (in-place)
I0403 15:00:57.881073 30881 net.cpp:141] Setting up inception_4b/relu_pool_proj
I0403 15:00:57.881098 30881 net.cpp:148] Top shape: 24 64 14 14 (301056)
I0403 15:00:57.881111 30881 net.cpp:156] Memory required for data: 980223264
I0403 15:00:57.881126 30881 layer_factory.hpp:77] Creating layer inception_4b/output
I0403 15:00:57.881144 30881 net.cpp:91] Creating Layer inception_4b/output
I0403 15:00:57.881158 30881 net.cpp:425] inception_4b/output <- inception_4b/1x1
I0403 15:00:57.881175 30881 net.cpp:425] inception_4b/output <- inception_4b/3x3
I0403 15:00:57.881191 30881 net.cpp:425] inception_4b/output <- inception_4b/5x5
I0403 15:00:57.881207 30881 net.cpp:425] inception_4b/output <- inception_4b/pool_proj
I0403 15:00:57.881227 30881 net.cpp:399] inception_4b/output -> inception_4b/output
I0403 15:00:57.881270 30881 net.cpp:141] Setting up inception_4b/output
I0403 15:00:57.881294 30881 net.cpp:148] Top shape: 24 512 14 14 (2408448)
I0403 15:00:57.881309 30881 net.cpp:156] Memory required for data: 989857056
I0403 15:00:57.881340 30881 layer_factory.hpp:77] Creating layer inception_4b/output_inception_4b/output_0_split
I0403 15:00:57.881357 30881 net.cpp:91] Creating Layer inception_4b/output_inception_4b/output_0_split
I0403 15:00:57.881373 30881 net.cpp:425] inception_4b/output_inception_4b/output_0_split <- inception_4b/output
I0403 15:00:57.881389 30881 net.cpp:399] inception_4b/output_inception_4b/output_0_split -> inception_4b/output_inception_4b/output_0_split_0
I0403 15:00:57.881412 30881 net.cpp:399] inception_4b/output_inception_4b/output_0_split -> inception_4b/output_inception_4b/output_0_split_1
I0403 15:00:57.881431 30881 net.cpp:399] inception_4b/output_inception_4b/output_0_split -> inception_4b/output_inception_4b/output_0_split_2
I0403 15:00:57.881450 30881 net.cpp:399] inception_4b/output_inception_4b/output_0_split -> inception_4b/output_inception_4b/output_0_split_3
I0403 15:00:57.881537 30881 net.cpp:141] Setting up inception_4b/output_inception_4b/output_0_split
I0403 15:00:57.881561 30881 net.cpp:148] Top shape: 24 512 14 14 (2408448)
I0403 15:00:57.881577 30881 net.cpp:148] Top shape: 24 512 14 14 (2408448)
I0403 15:00:57.881593 30881 net.cpp:148] Top shape: 24 512 14 14 (2408448)
I0403 15:00:57.881608 30881 net.cpp:148] Top shape: 24 512 14 14 (2408448)
I0403 15:00:57.881621 30881 net.cpp:156] Memory required for data: 1028392224
I0403 15:00:57.881635 30881 layer_factory.hpp:77] Creating layer inception_4c/1x1
I0403 15:00:57.881659 30881 net.cpp:91] Creating Layer inception_4c/1x1
I0403 15:00:57.881675 30881 net.cpp:425] inception_4c/1x1 <- inception_4b/output_inception_4b/output_0_split_0
I0403 15:00:57.881692 30881 net.cpp:399] inception_4c/1x1 -> inception_4c/1x1
I0403 15:00:57.883081 30881 net.cpp:141] Setting up inception_4c/1x1
I0403 15:00:57.883108 30881 net.cpp:148] Top shape: 24 128 14 14 (602112)
I0403 15:00:57.883123 30881 net.cpp:156] Memory required for data: 1030800672
I0403 15:00:57.883141 30881 layer_factory.hpp:77] Creating layer inception_4c/relu_1x1
I0403 15:00:57.883160 30881 net.cpp:91] Creating Layer inception_4c/relu_1x1
I0403 15:00:57.883177 30881 net.cpp:425] inception_4c/relu_1x1 <- inception_4c/1x1
I0403 15:00:57.883193 30881 net.cpp:386] inception_4c/relu_1x1 -> inception_4c/1x1 (in-place)
I0403 15:00:57.883383 30881 net.cpp:141] Setting up inception_4c/relu_1x1
I0403 15:00:57.883409 30881 net.cpp:148] Top shape: 24 128 14 14 (602112)
I0403 15:00:57.883425 30881 net.cpp:156] Memory required for data: 1033209120
I0403 15:00:57.883440 30881 layer_factory.hpp:77] Creating layer inception_4c/3x3_reduce
I0403 15:00:57.883460 30881 net.cpp:91] Creating Layer inception_4c/3x3_reduce
I0403 15:00:57.883476 30881 net.cpp:425] inception_4c/3x3_reduce <- inception_4b/output_inception_4b/output_0_split_1
I0403 15:00:57.883499 30881 net.cpp:399] inception_4c/3x3_reduce -> inception_4c/3x3_reduce
I0403 15:00:57.885407 30881 net.cpp:141] Setting up inception_4c/3x3_reduce
I0403 15:00:57.885437 30881 net.cpp:148] Top shape: 24 128 14 14 (602112)
I0403 15:00:57.885457 30881 net.cpp:156] Memory required for data: 1035617568
I0403 15:00:57.885475 30881 layer_factory.hpp:77] Creating layer inception_4c/relu_3x3_reduce
I0403 15:00:57.885493 30881 net.cpp:91] Creating Layer inception_4c/relu_3x3_reduce
I0403 15:00:57.885514 30881 net.cpp:425] inception_4c/relu_3x3_reduce <- inception_4c/3x3_reduce
I0403 15:00:57.885531 30881 net.cpp:386] inception_4c/relu_3x3_reduce -> inception_4c/3x3_reduce (in-place)
I0403 15:00:57.885808 30881 net.cpp:141] Setting up inception_4c/relu_3x3_reduce
I0403 15:00:57.885836 30881 net.cpp:148] Top shape: 24 128 14 14 (602112)
I0403 15:00:57.885853 30881 net.cpp:156] Memory required for data: 1038026016
I0403 15:00:57.885867 30881 layer_factory.hpp:77] Creating layer inception_4c/3x3
I0403 15:00:57.885890 30881 net.cpp:91] Creating Layer inception_4c/3x3
I0403 15:00:57.885907 30881 net.cpp:425] inception_4c/3x3 <- inception_4c/3x3_reduce
I0403 15:00:57.885926 30881 net.cpp:399] inception_4c/3x3 -> inception_4c/3x3
I0403 15:00:57.889408 30881 net.cpp:141] Setting up inception_4c/3x3
I0403 15:00:57.889454 30881 net.cpp:148] Top shape: 24 256 14 14 (1204224)
I0403 15:00:57.889472 30881 net.cpp:156] Memory required for data: 1042842912
I0403 15:00:57.889508 30881 layer_factory.hpp:77] Creating layer inception_4c/relu_3x3
I0403 15:00:57.889531 30881 net.cpp:91] Creating Layer inception_4c/relu_3x3
I0403 15:00:57.889549 30881 net.cpp:425] inception_4c/relu_3x3 <- inception_4c/3x3
I0403 15:00:57.889569 30881 net.cpp:386] inception_4c/relu_3x3 -> inception_4c/3x3 (in-place)
I0403 15:00:57.889742 30881 net.cpp:141] Setting up inception_4c/relu_3x3
I0403 15:00:57.889768 30881 net.cpp:148] Top shape: 24 256 14 14 (1204224)
I0403 15:00:57.889783 30881 net.cpp:156] Memory required for data: 1047659808
I0403 15:00:57.889797 30881 layer_factory.hpp:77] Creating layer inception_4c/5x5_reduce
I0403 15:00:57.889821 30881 net.cpp:91] Creating Layer inception_4c/5x5_reduce
I0403 15:00:57.889837 30881 net.cpp:425] inception_4c/5x5_reduce <- inception_4b/output_inception_4b/output_0_split_2
I0403 15:00:57.889858 30881 net.cpp:399] inception_4c/5x5_reduce -> inception_4c/5x5_reduce
I0403 15:00:57.890913 30881 net.cpp:141] Setting up inception_4c/5x5_reduce
I0403 15:00:57.890941 30881 net.cpp:148] Top shape: 24 24 14 14 (112896)
I0403 15:00:57.890957 30881 net.cpp:156] Memory required for data: 1048111392
I0403 15:00:57.890974 30881 layer_factory.hpp:77] Creating layer inception_4c/relu_5x5_reduce
I0403 15:00:57.890992 30881 net.cpp:91] Creating Layer inception_4c/relu_5x5_reduce
I0403 15:00:57.891008 30881 net.cpp:425] inception_4c/relu_5x5_reduce <- inception_4c/5x5_reduce
I0403 15:00:57.891026 30881 net.cpp:386] inception_4c/relu_5x5_reduce -> inception_4c/5x5_reduce (in-place)
I0403 15:00:57.891203 30881 net.cpp:141] Setting up inception_4c/relu_5x5_reduce
I0403 15:00:57.891227 30881 net.cpp:148] Top shape: 24 24 14 14 (112896)
I0403 15:00:57.891242 30881 net.cpp:156] Memory required for data: 1048562976
I0403 15:00:57.891255 30881 layer_factory.hpp:77] Creating layer inception_4c/5x5
I0403 15:00:57.891276 30881 net.cpp:91] Creating Layer inception_4c/5x5
I0403 15:00:57.891294 30881 net.cpp:425] inception_4c/5x5 <- inception_4c/5x5_reduce
I0403 15:00:57.891314 30881 net.cpp:399] inception_4c/5x5 -> inception_4c/5x5
I0403 15:00:57.892521 30881 net.cpp:141] Setting up inception_4c/5x5
I0403 15:00:57.892549 30881 net.cpp:148] Top shape: 24 64 14 14 (301056)
I0403 15:00:57.892565 30881 net.cpp:156] Memory required for data: 1049767200
I0403 15:00:57.892585 30881 layer_factory.hpp:77] Creating layer inception_4c/relu_5x5
I0403 15:00:57.892602 30881 net.cpp:91] Creating Layer inception_4c/relu_5x5
I0403 15:00:57.892618 30881 net.cpp:425] inception_4c/relu_5x5 <- inception_4c/5x5
I0403 15:00:57.892637 30881 net.cpp:386] inception_4c/relu_5x5 -> inception_4c/5x5 (in-place)
I0403 15:00:57.892920 30881 net.cpp:141] Setting up inception_4c/relu_5x5
I0403 15:00:57.892947 30881 net.cpp:148] Top shape: 24 64 14 14 (301056)
I0403 15:00:57.892962 30881 net.cpp:156] Memory required for data: 1050971424
I0403 15:00:57.892977 30881 layer_factory.hpp:77] Creating layer inception_4c/pool
I0403 15:00:57.892994 30881 net.cpp:91] Creating Layer inception_4c/pool
I0403 15:00:57.893009 30881 net.cpp:425] inception_4c/pool <- inception_4b/output_inception_4b/output_0_split_3
I0403 15:00:57.893029 30881 net.cpp:399] inception_4c/pool -> inception_4c/pool
I0403 15:00:57.893092 30881 net.cpp:141] Setting up inception_4c/pool
I0403 15:00:57.893118 30881 net.cpp:148] Top shape: 24 512 14 14 (2408448)
I0403 15:00:57.893132 30881 net.cpp:156] Memory required for data: 1060605216
I0403 15:00:57.893146 30881 layer_factory.hpp:77] Creating layer inception_4c/pool_proj
I0403 15:00:57.893170 30881 net.cpp:91] Creating Layer inception_4c/pool_proj
I0403 15:00:57.893187 30881 net.cpp:425] inception_4c/pool_proj <- inception_4c/pool
I0403 15:00:57.893205 30881 net.cpp:399] inception_4c/pool_proj -> inception_4c/pool_proj
I0403 15:00:57.894386 30881 net.cpp:141] Setting up inception_4c/pool_proj
I0403 15:00:57.894414 30881 net.cpp:148] Top shape: 24 64 14 14 (301056)
I0403 15:00:57.894443 30881 net.cpp:156] Memory required for data: 1061809440
I0403 15:00:57.894462 30881 layer_factory.hpp:77] Creating layer inception_4c/relu_pool_proj
I0403 15:00:57.894480 30881 net.cpp:91] Creating Layer inception_4c/relu_pool_proj
I0403 15:00:57.894496 30881 net.cpp:425] inception_4c/relu_pool_proj <- inception_4c/pool_proj
I0403 15:00:57.894528 30881 net.cpp:386] inception_4c/relu_pool_proj -> inception_4c/pool_proj (in-place)
I0403 15:00:57.894707 30881 net.cpp:141] Setting up inception_4c/relu_pool_proj
I0403 15:00:57.894731 30881 net.cpp:148] Top shape: 24 64 14 14 (301056)
I0403 15:00:57.894752 30881 net.cpp:156] Memory required for data: 1063013664
I0403 15:00:57.894767 30881 layer_factory.hpp:77] Creating layer inception_4c/output
I0403 15:00:57.894783 30881 net.cpp:91] Creating Layer inception_4c/output
I0403 15:00:57.894798 30881 net.cpp:425] inception_4c/output <- inception_4c/1x1
I0403 15:00:57.894814 30881 net.cpp:425] inception_4c/output <- inception_4c/3x3
I0403 15:00:57.894830 30881 net.cpp:425] inception_4c/output <- inception_4c/5x5
I0403 15:00:57.894845 30881 net.cpp:425] inception_4c/output <- inception_4c/pool_proj
I0403 15:00:57.894865 30881 net.cpp:399] inception_4c/output -> inception_4c/output
I0403 15:00:57.894909 30881 net.cpp:141] Setting up inception_4c/output
I0403 15:00:57.894937 30881 net.cpp:148] Top shape: 24 512 14 14 (2408448)
I0403 15:00:57.894951 30881 net.cpp:156] Memory required for data: 1072647456
I0403 15:00:57.894966 30881 layer_factory.hpp:77] Creating layer inception_4c/output_inception_4c/output_0_split
I0403 15:00:57.894982 30881 net.cpp:91] Creating Layer inception_4c/output_inception_4c/output_0_split
I0403 15:00:57.894997 30881 net.cpp:425] inception_4c/output_inception_4c/output_0_split <- inception_4c/output
I0403 15:00:57.895014 30881 net.cpp:399] inception_4c/output_inception_4c/output_0_split -> inception_4c/output_inception_4c/output_0_split_0
I0403 15:00:57.895035 30881 net.cpp:399] inception_4c/output_inception_4c/output_0_split -> inception_4c/output_inception_4c/output_0_split_1
I0403 15:00:57.895056 30881 net.cpp:399] inception_4c/output_inception_4c/output_0_split -> inception_4c/output_inception_4c/output_0_split_2
I0403 15:00:57.895076 30881 net.cpp:399] inception_4c/output_inception_4c/output_0_split -> inception_4c/output_inception_4c/output_0_split_3
I0403 15:00:57.895161 30881 net.cpp:141] Setting up inception_4c/output_inception_4c/output_0_split
I0403 15:00:57.895184 30881 net.cpp:148] Top shape: 24 512 14 14 (2408448)
I0403 15:00:57.895200 30881 net.cpp:148] Top shape: 24 512 14 14 (2408448)
I0403 15:00:57.895225 30881 net.cpp:148] Top shape: 24 512 14 14 (2408448)
I0403 15:00:57.895239 30881 net.cpp:148] Top shape: 24 512 14 14 (2408448)
I0403 15:00:57.895253 30881 net.cpp:156] Memory required for data: 1111182624
I0403 15:00:57.895267 30881 layer_factory.hpp:77] Creating layer inception_4d/1x1
I0403 15:00:57.895289 30881 net.cpp:91] Creating Layer inception_4d/1x1
I0403 15:00:57.895308 30881 net.cpp:425] inception_4d/1x1 <- inception_4c/output_inception_4c/output_0_split_0
I0403 15:00:57.895325 30881 net.cpp:399] inception_4d/1x1 -> inception_4d/1x1
I0403 15:00:57.896659 30881 net.cpp:141] Setting up inception_4d/1x1
I0403 15:00:57.896687 30881 net.cpp:148] Top shape: 24 112 14 14 (526848)
I0403 15:00:57.896703 30881 net.cpp:156] Memory required for data: 1113290016
I0403 15:00:57.896720 30881 layer_factory.hpp:77] Creating layer inception_4d/relu_1x1
I0403 15:00:57.896742 30881 net.cpp:91] Creating Layer inception_4d/relu_1x1
I0403 15:00:57.896759 30881 net.cpp:425] inception_4d/relu_1x1 <- inception_4d/1x1
I0403 15:00:57.896775 30881 net.cpp:386] inception_4d/relu_1x1 -> inception_4d/1x1 (in-place)
I0403 15:00:57.896952 30881 net.cpp:141] Setting up inception_4d/relu_1x1
I0403 15:00:57.896977 30881 net.cpp:148] Top shape: 24 112 14 14 (526848)
I0403 15:00:57.896992 30881 net.cpp:156] Memory required for data: 1115397408
I0403 15:00:57.897007 30881 layer_factory.hpp:77] Creating layer inception_4d/3x3_reduce
I0403 15:00:57.897042 30881 net.cpp:91] Creating Layer inception_4d/3x3_reduce
I0403 15:00:57.897060 30881 net.cpp:425] inception_4d/3x3_reduce <- inception_4c/output_inception_4c/output_0_split_1
I0403 15:00:57.897078 30881 net.cpp:399] inception_4d/3x3_reduce -> inception_4d/3x3_reduce
I0403 15:00:57.898552 30881 net.cpp:141] Setting up inception_4d/3x3_reduce
I0403 15:00:57.898581 30881 net.cpp:148] Top shape: 24 144 14 14 (677376)
I0403 15:00:57.898597 30881 net.cpp:156] Memory required for data: 1118106912
I0403 15:00:57.898615 30881 layer_factory.hpp:77] Creating layer inception_4d/relu_3x3_reduce
I0403 15:00:57.898635 30881 net.cpp:91] Creating Layer inception_4d/relu_3x3_reduce
I0403 15:00:57.898651 30881 net.cpp:425] inception_4d/relu_3x3_reduce <- inception_4d/3x3_reduce
I0403 15:00:57.898669 30881 net.cpp:386] inception_4d/relu_3x3_reduce -> inception_4d/3x3_reduce (in-place)
I0403 15:00:57.898954 30881 net.cpp:141] Setting up inception_4d/relu_3x3_reduce
I0403 15:00:57.898979 30881 net.cpp:148] Top shape: 24 144 14 14 (677376)
I0403 15:00:57.898993 30881 net.cpp:156] Memory required for data: 1120816416
I0403 15:00:57.899009 30881 layer_factory.hpp:77] Creating layer inception_4d/3x3
I0403 15:00:57.899030 30881 net.cpp:91] Creating Layer inception_4d/3x3
I0403 15:00:57.899047 30881 net.cpp:425] inception_4d/3x3 <- inception_4d/3x3_reduce
I0403 15:00:57.899068 30881 net.cpp:399] inception_4d/3x3 -> inception_4d/3x3
I0403 15:00:57.903198 30881 net.cpp:141] Setting up inception_4d/3x3
I0403 15:00:57.903228 30881 net.cpp:148] Top shape: 24 288 14 14 (1354752)
I0403 15:00:57.903244 30881 net.cpp:156] Memory required for data: 1126235424
I0403 15:00:57.903271 30881 layer_factory.hpp:77] Creating layer inception_4d/relu_3x3
I0403 15:00:57.903292 30881 net.cpp:91] Creating Layer inception_4d/relu_3x3
I0403 15:00:57.903308 30881 net.cpp:425] inception_4d/relu_3x3 <- inception_4d/3x3
I0403 15:00:57.903326 30881 net.cpp:386] inception_4d/relu_3x3 -> inception_4d/3x3 (in-place)
I0403 15:00:57.903509 30881 net.cpp:141] Setting up inception_4d/relu_3x3
I0403 15:00:57.903539 30881 net.cpp:148] Top shape: 24 288 14 14 (1354752)
I0403 15:00:57.903555 30881 net.cpp:156] Memory required for data: 1131654432
I0403 15:00:57.903571 30881 layer_factory.hpp:77] Creating layer inception_4d/5x5_reduce
I0403 15:00:57.903592 30881 net.cpp:91] Creating Layer inception_4d/5x5_reduce
I0403 15:00:57.903610 30881 net.cpp:425] inception_4d/5x5_reduce <- inception_4c/output_inception_4c/output_0_split_2
I0403 15:00:57.903628 30881 net.cpp:399] inception_4d/5x5_reduce -> inception_4d/5x5_reduce
I0403 15:00:57.904747 30881 net.cpp:141] Setting up inception_4d/5x5_reduce
I0403 15:00:57.904773 30881 net.cpp:148] Top shape: 24 32 14 14 (150528)
I0403 15:00:57.904788 30881 net.cpp:156] Memory required for data: 1132256544
I0403 15:00:57.904806 30881 layer_factory.hpp:77] Creating layer inception_4d/relu_5x5_reduce
I0403 15:00:57.904826 30881 net.cpp:91] Creating Layer inception_4d/relu_5x5_reduce
I0403 15:00:57.904842 30881 net.cpp:425] inception_4d/relu_5x5_reduce <- inception_4d/5x5_reduce
I0403 15:00:57.904860 30881 net.cpp:386] inception_4d/relu_5x5_reduce -> inception_4d/5x5_reduce (in-place)
I0403 15:00:57.905040 30881 net.cpp:141] Setting up inception_4d/relu_5x5_reduce
I0403 15:00:57.905066 30881 net.cpp:148] Top shape: 24 32 14 14 (150528)
I0403 15:00:57.905081 30881 net.cpp:156] Memory required for data: 1132858656
I0403 15:00:57.905095 30881 layer_factory.hpp:77] Creating layer inception_4d/5x5
I0403 15:00:57.905117 30881 net.cpp:91] Creating Layer inception_4d/5x5
I0403 15:00:57.905134 30881 net.cpp:425] inception_4d/5x5 <- inception_4d/5x5_reduce
I0403 15:00:57.905154 30881 net.cpp:399] inception_4d/5x5 -> inception_4d/5x5
I0403 15:00:57.906594 30881 net.cpp:141] Setting up inception_4d/5x5
I0403 15:00:57.906620 30881 net.cpp:148] Top shape: 24 64 14 14 (301056)
I0403 15:00:57.906636 30881 net.cpp:156] Memory required for data: 1134062880
I0403 15:00:57.906654 30881 layer_factory.hpp:77] Creating layer inception_4d/relu_5x5
I0403 15:00:57.906687 30881 net.cpp:91] Creating Layer inception_4d/relu_5x5
I0403 15:00:57.906703 30881 net.cpp:425] inception_4d/relu_5x5 <- inception_4d/5x5
I0403 15:00:57.906723 30881 net.cpp:386] inception_4d/relu_5x5 -> inception_4d/5x5 (in-place)
I0403 15:00:57.907018 30881 net.cpp:141] Setting up inception_4d/relu_5x5
I0403 15:00:57.907044 30881 net.cpp:148] Top shape: 24 64 14 14 (301056)
I0403 15:00:57.907065 30881 net.cpp:156] Memory required for data: 1135267104
I0403 15:00:57.907083 30881 layer_factory.hpp:77] Creating layer inception_4d/pool
I0403 15:00:57.907099 30881 net.cpp:91] Creating Layer inception_4d/pool
I0403 15:00:57.907114 30881 net.cpp:425] inception_4d/pool <- inception_4c/output_inception_4c/output_0_split_3
I0403 15:00:57.907135 30881 net.cpp:399] inception_4d/pool -> inception_4d/pool
I0403 15:00:57.907202 30881 net.cpp:141] Setting up inception_4d/pool
I0403 15:00:57.907227 30881 net.cpp:148] Top shape: 24 512 14 14 (2408448)
I0403 15:00:57.907240 30881 net.cpp:156] Memory required for data: 1144900896
I0403 15:00:57.907253 30881 layer_factory.hpp:77] Creating layer inception_4d/pool_proj
I0403 15:00:57.907276 30881 net.cpp:91] Creating Layer inception_4d/pool_proj
I0403 15:00:57.907294 30881 net.cpp:425] inception_4d/pool_proj <- inception_4d/pool
I0403 15:00:57.907313 30881 net.cpp:399] inception_4d/pool_proj -> inception_4d/pool_proj
I0403 15:00:57.909025 30881 net.cpp:141] Setting up inception_4d/pool_proj
I0403 15:00:57.909054 30881 net.cpp:148] Top shape: 24 64 14 14 (301056)
I0403 15:00:57.909068 30881 net.cpp:156] Memory required for data: 1146105120
I0403 15:00:57.909087 30881 layer_factory.hpp:77] Creating layer inception_4d/relu_pool_proj
I0403 15:00:57.909109 30881 net.cpp:91] Creating Layer inception_4d/relu_pool_proj
I0403 15:00:57.909126 30881 net.cpp:425] inception_4d/relu_pool_proj <- inception_4d/pool_proj
I0403 15:00:57.909142 30881 net.cpp:386] inception_4d/relu_pool_proj -> inception_4d/pool_proj (in-place)
I0403 15:00:57.909324 30881 net.cpp:141] Setting up inception_4d/relu_pool_proj
I0403 15:00:57.909350 30881 net.cpp:148] Top shape: 24 64 14 14 (301056)
I0403 15:00:57.909365 30881 net.cpp:156] Memory required for data: 1147309344
I0403 15:00:57.909381 30881 layer_factory.hpp:77] Creating layer inception_4d/output
I0403 15:00:57.909397 30881 net.cpp:91] Creating Layer inception_4d/output
I0403 15:00:57.909412 30881 net.cpp:425] inception_4d/output <- inception_4d/1x1
I0403 15:00:57.909428 30881 net.cpp:425] inception_4d/output <- inception_4d/3x3
I0403 15:00:57.909445 30881 net.cpp:425] inception_4d/output <- inception_4d/5x5
I0403 15:00:57.909459 30881 net.cpp:425] inception_4d/output <- inception_4d/pool_proj
I0403 15:00:57.909478 30881 net.cpp:399] inception_4d/output -> inception_4d/output
I0403 15:00:57.909528 30881 net.cpp:141] Setting up inception_4d/output
I0403 15:00:57.909551 30881 net.cpp:148] Top shape: 24 528 14 14 (2483712)
I0403 15:00:57.909565 30881 net.cpp:156] Memory required for data: 1157244192
I0403 15:00:57.909580 30881 layer_factory.hpp:77] Creating layer inception_4d/output_inception_4d/output_0_split
I0403 15:00:57.909600 30881 net.cpp:91] Creating Layer inception_4d/output_inception_4d/output_0_split
I0403 15:00:57.909616 30881 net.cpp:425] inception_4d/output_inception_4d/output_0_split <- inception_4d/output
I0403 15:00:57.909633 30881 net.cpp:399] inception_4d/output_inception_4d/output_0_split -> inception_4d/output_inception_4d/output_0_split_0
I0403 15:00:57.909656 30881 net.cpp:399] inception_4d/output_inception_4d/output_0_split -> inception_4d/output_inception_4d/output_0_split_1
I0403 15:00:57.909677 30881 net.cpp:399] inception_4d/output_inception_4d/output_0_split -> inception_4d/output_inception_4d/output_0_split_2
I0403 15:00:57.909696 30881 net.cpp:399] inception_4d/output_inception_4d/output_0_split -> inception_4d/output_inception_4d/output_0_split_3
I0403 15:00:57.909715 30881 net.cpp:399] inception_4d/output_inception_4d/output_0_split -> inception_4d/output_inception_4d/output_0_split_4
I0403 15:00:57.909813 30881 net.cpp:141] Setting up inception_4d/output_inception_4d/output_0_split
I0403 15:00:57.909847 30881 net.cpp:148] Top shape: 24 528 14 14 (2483712)
I0403 15:00:57.909864 30881 net.cpp:148] Top shape: 24 528 14 14 (2483712)
I0403 15:00:57.909879 30881 net.cpp:148] Top shape: 24 528 14 14 (2483712)
I0403 15:00:57.909894 30881 net.cpp:148] Top shape: 24 528 14 14 (2483712)
I0403 15:00:57.909910 30881 net.cpp:148] Top shape: 24 528 14 14 (2483712)
I0403 15:00:57.909924 30881 net.cpp:156] Memory required for data: 1206918432
I0403 15:00:57.909939 30881 layer_factory.hpp:77] Creating layer loss2/ave_pool
I0403 15:00:57.909958 30881 net.cpp:91] Creating Layer loss2/ave_pool
I0403 15:00:57.909975 30881 net.cpp:425] loss2/ave_pool <- inception_4d/output_inception_4d/output_0_split_0
I0403 15:00:57.909992 30881 net.cpp:399] loss2/ave_pool -> loss2/ave_pool
I0403 15:00:57.910297 30881 net.cpp:141] Setting up loss2/ave_pool
I0403 15:00:57.910323 30881 net.cpp:148] Top shape: 24 528 4 4 (202752)
I0403 15:00:57.910341 30881 net.cpp:156] Memory required for data: 1207729440
I0403 15:00:57.910356 30881 layer_factory.hpp:77] Creating layer loss2/conv
I0403 15:00:57.910375 30881 net.cpp:91] Creating Layer loss2/conv
I0403 15:00:57.910392 30881 net.cpp:425] loss2/conv <- loss2/ave_pool
I0403 15:00:57.910414 30881 net.cpp:399] loss2/conv -> loss2/conv
I0403 15:00:57.912437 30881 net.cpp:141] Setting up loss2/conv
I0403 15:00:57.912468 30881 net.cpp:148] Top shape: 24 128 4 4 (49152)
I0403 15:00:57.912484 30881 net.cpp:156] Memory required for data: 1207926048
I0403 15:00:57.912508 30881 layer_factory.hpp:77] Creating layer loss2/relu_conv
I0403 15:00:57.912526 30881 net.cpp:91] Creating Layer loss2/relu_conv
I0403 15:00:57.912544 30881 net.cpp:425] loss2/relu_conv <- loss2/conv
I0403 15:00:57.912562 30881 net.cpp:386] loss2/relu_conv -> loss2/conv (in-place)
I0403 15:00:57.912849 30881 net.cpp:141] Setting up loss2/relu_conv
I0403 15:00:57.912878 30881 net.cpp:148] Top shape: 24 128 4 4 (49152)
I0403 15:00:57.912892 30881 net.cpp:156] Memory required for data: 1208122656
I0403 15:00:57.912907 30881 layer_factory.hpp:77] Creating layer loss2/fc
I0403 15:00:57.912925 30881 net.cpp:91] Creating Layer loss2/fc
I0403 15:00:57.912941 30881 net.cpp:425] loss2/fc <- loss2/conv
I0403 15:00:57.912963 30881 net.cpp:399] loss2/fc -> loss2/fc
I0403 15:00:57.930107 30881 net.cpp:141] Setting up loss2/fc
I0403 15:00:57.930140 30881 net.cpp:148] Top shape: 24 1024 (24576)
I0403 15:00:57.930157 30881 net.cpp:156] Memory required for data: 1208220960
I0403 15:00:57.930176 30881 layer_factory.hpp:77] Creating layer loss2/relu_fc
I0403 15:00:57.930197 30881 net.cpp:91] Creating Layer loss2/relu_fc
I0403 15:00:57.930215 30881 net.cpp:425] loss2/relu_fc <- loss2/fc
I0403 15:00:57.930233 30881 net.cpp:386] loss2/relu_fc -> loss2/fc (in-place)
I0403 15:00:57.930527 30881 net.cpp:141] Setting up loss2/relu_fc
I0403 15:00:57.930553 30881 net.cpp:148] Top shape: 24 1024 (24576)
I0403 15:00:57.930570 30881 net.cpp:156] Memory required for data: 1208319264
I0403 15:00:57.930585 30881 layer_factory.hpp:77] Creating layer loss2/drop_fc
I0403 15:00:57.930605 30881 net.cpp:91] Creating Layer loss2/drop_fc
I0403 15:00:57.930622 30881 net.cpp:425] loss2/drop_fc <- loss2/fc
I0403 15:00:57.930639 30881 net.cpp:386] loss2/drop_fc -> loss2/fc (in-place)
I0403 15:00:57.930688 30881 net.cpp:141] Setting up loss2/drop_fc
I0403 15:00:57.930711 30881 net.cpp:148] Top shape: 24 1024 (24576)
I0403 15:00:57.930724 30881 net.cpp:156] Memory required for data: 1208417568
I0403 15:00:57.930738 30881 layer_factory.hpp:77] Creating layer loss2/classifier_plantvillage
I0403 15:00:57.930758 30881 net.cpp:91] Creating Layer loss2/classifier_plantvillage
I0403 15:00:57.930775 30881 net.cpp:425] loss2/classifier_plantvillage <- loss2/fc
I0403 15:00:57.930794 30881 net.cpp:399] loss2/classifier_plantvillage -> loss2/classifier_plantvillage
I0403 15:00:57.931181 30881 net.cpp:141] Setting up loss2/classifier_plantvillage
I0403 15:00:57.931206 30881 net.cpp:148] Top shape: 24 38 (912)
I0403 15:00:57.931236 30881 net.cpp:156] Memory required for data: 1208421216
I0403 15:00:57.931254 30881 layer_factory.hpp:77] Creating layer loss2/classifier_plantvillage_loss2/classifier_plantvillage_0_split
I0403 15:00:57.931272 30881 net.cpp:91] Creating Layer loss2/classifier_plantvillage_loss2/classifier_plantvillage_0_split
I0403 15:00:57.931288 30881 net.cpp:425] loss2/classifier_plantvillage_loss2/classifier_plantvillage_0_split <- loss2/classifier_plantvillage
I0403 15:00:57.931308 30881 net.cpp:399] loss2/classifier_plantvillage_loss2/classifier_plantvillage_0_split -> loss2/classifier_plantvillage_loss2/classifier_plantvillage_0_split_0
I0403 15:00:57.931329 30881 net.cpp:399] loss2/classifier_plantvillage_loss2/classifier_plantvillage_0_split -> loss2/classifier_plantvillage_loss2/classifier_plantvillage_0_split_1
I0403 15:00:57.931349 30881 net.cpp:399] loss2/classifier_plantvillage_loss2/classifier_plantvillage_0_split -> loss2/classifier_plantvillage_loss2/classifier_plantvillage_0_split_2
I0403 15:00:57.931422 30881 net.cpp:141] Setting up loss2/classifier_plantvillage_loss2/classifier_plantvillage_0_split
I0403 15:00:57.931447 30881 net.cpp:148] Top shape: 24 38 (912)
I0403 15:00:57.931463 30881 net.cpp:148] Top shape: 24 38 (912)
I0403 15:00:57.931478 30881 net.cpp:148] Top shape: 24 38 (912)
I0403 15:00:57.931493 30881 net.cpp:156] Memory required for data: 1208432160
I0403 15:00:57.931511 30881 layer_factory.hpp:77] Creating layer inception_4e/1x1
I0403 15:00:57.931538 30881 net.cpp:91] Creating Layer inception_4e/1x1
I0403 15:00:57.931555 30881 net.cpp:425] inception_4e/1x1 <- inception_4d/output_inception_4d/output_0_split_1
I0403 15:00:57.931574 30881 net.cpp:399] inception_4e/1x1 -> inception_4e/1x1
I0403 15:00:57.933329 30881 net.cpp:141] Setting up inception_4e/1x1
I0403 15:00:57.933357 30881 net.cpp:148] Top shape: 24 256 14 14 (1204224)
I0403 15:00:57.933372 30881 net.cpp:156] Memory required for data: 1213249056
I0403 15:00:57.933390 30881 layer_factory.hpp:77] Creating layer inception_4e/relu_1x1
I0403 15:00:57.933408 30881 net.cpp:91] Creating Layer inception_4e/relu_1x1
I0403 15:00:57.933423 30881 net.cpp:425] inception_4e/relu_1x1 <- inception_4e/1x1
I0403 15:00:57.933442 30881 net.cpp:386] inception_4e/relu_1x1 -> inception_4e/1x1 (in-place)
I0403 15:00:57.933738 30881 net.cpp:141] Setting up inception_4e/relu_1x1
I0403 15:00:57.933764 30881 net.cpp:148] Top shape: 24 256 14 14 (1204224)
I0403 15:00:57.933779 30881 net.cpp:156] Memory required for data: 1218065952
I0403 15:00:57.933804 30881 layer_factory.hpp:77] Creating layer inception_4e/3x3_reduce
I0403 15:00:57.933825 30881 net.cpp:91] Creating Layer inception_4e/3x3_reduce
I0403 15:00:57.933842 30881 net.cpp:425] inception_4e/3x3_reduce <- inception_4d/output_inception_4d/output_0_split_2
I0403 15:00:57.933863 30881 net.cpp:399] inception_4e/3x3_reduce -> inception_4e/3x3_reduce
I0403 15:00:57.935927 30881 net.cpp:141] Setting up inception_4e/3x3_reduce
I0403 15:00:57.935956 30881 net.cpp:148] Top shape: 24 160 14 14 (752640)
I0403 15:00:57.935973 30881 net.cpp:156] Memory required for data: 1221076512
I0403 15:00:57.935992 30881 layer_factory.hpp:77] Creating layer inception_4e/relu_3x3_reduce
I0403 15:00:57.936009 30881 net.cpp:91] Creating Layer inception_4e/relu_3x3_reduce
I0403 15:00:57.936023 30881 net.cpp:425] inception_4e/relu_3x3_reduce <- inception_4e/3x3_reduce
I0403 15:00:57.936043 30881 net.cpp:386] inception_4e/relu_3x3_reduce -> inception_4e/3x3_reduce (in-place)
I0403 15:00:57.936223 30881 net.cpp:141] Setting up inception_4e/relu_3x3_reduce
I0403 15:00:57.936247 30881 net.cpp:148] Top shape: 24 160 14 14 (752640)
I0403 15:00:57.936261 30881 net.cpp:156] Memory required for data: 1224087072
I0403 15:00:57.936276 30881 layer_factory.hpp:77] Creating layer inception_4e/3x3
I0403 15:00:57.936297 30881 net.cpp:91] Creating Layer inception_4e/3x3
I0403 15:00:57.936314 30881 net.cpp:425] inception_4e/3x3 <- inception_4e/3x3_reduce
I0403 15:00:57.936336 30881 net.cpp:399] inception_4e/3x3 -> inception_4e/3x3
I0403 15:00:57.941181 30881 net.cpp:141] Setting up inception_4e/3x3
I0403 15:00:57.941223 30881 net.cpp:148] Top shape: 24 320 14 14 (1505280)
I0403 15:00:57.941241 30881 net.cpp:156] Memory required for data: 1230108192
I0403 15:00:57.941259 30881 layer_factory.hpp:77] Creating layer inception_4e/relu_3x3
I0403 15:00:57.941279 30881 net.cpp:91] Creating Layer inception_4e/relu_3x3
I0403 15:00:57.941295 30881 net.cpp:425] inception_4e/relu_3x3 <- inception_4e/3x3
I0403 15:00:57.941313 30881 net.cpp:386] inception_4e/relu_3x3 -> inception_4e/3x3 (in-place)
I0403 15:00:57.941611 30881 net.cpp:141] Setting up inception_4e/relu_3x3
I0403 15:00:57.941635 30881 net.cpp:148] Top shape: 24 320 14 14 (1505280)
I0403 15:00:57.941650 30881 net.cpp:156] Memory required for data: 1236129312
I0403 15:00:57.941665 30881 layer_factory.hpp:77] Creating layer inception_4e/5x5_reduce
I0403 15:00:57.941689 30881 net.cpp:91] Creating Layer inception_4e/5x5_reduce
I0403 15:00:57.941707 30881 net.cpp:425] inception_4e/5x5_reduce <- inception_4d/output_inception_4d/output_0_split_3
I0403 15:00:57.941730 30881 net.cpp:399] inception_4e/5x5_reduce -> inception_4e/5x5_reduce
I0403 15:00:57.942766 30881 net.cpp:141] Setting up inception_4e/5x5_reduce
I0403 15:00:57.942793 30881 net.cpp:148] Top shape: 24 32 14 14 (150528)
I0403 15:00:57.942808 30881 net.cpp:156] Memory required for data: 1236731424
I0403 15:00:57.942827 30881 layer_factory.hpp:77] Creating layer inception_4e/relu_5x5_reduce
I0403 15:00:57.942844 30881 net.cpp:91] Creating Layer inception_4e/relu_5x5_reduce
I0403 15:00:57.942860 30881 net.cpp:425] inception_4e/relu_5x5_reduce <- inception_4e/5x5_reduce
I0403 15:00:57.942880 30881 net.cpp:386] inception_4e/relu_5x5_reduce -> inception_4e/5x5_reduce (in-place)
I0403 15:00:57.943177 30881 net.cpp:141] Setting up inception_4e/relu_5x5_reduce
I0403 15:00:57.943202 30881 net.cpp:148] Top shape: 24 32 14 14 (150528)
I0403 15:00:57.943217 30881 net.cpp:156] Memory required for data: 1237333536
I0403 15:00:57.943231 30881 layer_factory.hpp:77] Creating layer inception_4e/5x5
I0403 15:00:57.943269 30881 net.cpp:91] Creating Layer inception_4e/5x5
I0403 15:00:57.943287 30881 net.cpp:425] inception_4e/5x5 <- inception_4e/5x5_reduce
I0403 15:00:57.943305 30881 net.cpp:399] inception_4e/5x5 -> inception_4e/5x5
I0403 15:00:57.945122 30881 net.cpp:141] Setting up inception_4e/5x5
I0403 15:00:57.945152 30881 net.cpp:148] Top shape: 24 128 14 14 (602112)
I0403 15:00:57.945168 30881 net.cpp:156] Memory required for data: 1239741984
I0403 15:00:57.945185 30881 layer_factory.hpp:77] Creating layer inception_4e/relu_5x5
I0403 15:00:57.945204 30881 net.cpp:91] Creating Layer inception_4e/relu_5x5
I0403 15:00:57.945219 30881 net.cpp:425] inception_4e/relu_5x5 <- inception_4e/5x5
I0403 15:00:57.945236 30881 net.cpp:386] inception_4e/relu_5x5 -> inception_4e/5x5 (in-place)
I0403 15:00:57.945430 30881 net.cpp:141] Setting up inception_4e/relu_5x5
I0403 15:00:57.945453 30881 net.cpp:148] Top shape: 24 128 14 14 (602112)
I0403 15:00:57.945467 30881 net.cpp:156] Memory required for data: 1242150432
I0403 15:00:57.945482 30881 layer_factory.hpp:77] Creating layer inception_4e/pool
I0403 15:00:57.945500 30881 net.cpp:91] Creating Layer inception_4e/pool
I0403 15:00:57.945520 30881 net.cpp:425] inception_4e/pool <- inception_4d/output_inception_4d/output_0_split_4
I0403 15:00:57.945541 30881 net.cpp:399] inception_4e/pool -> inception_4e/pool
I0403 15:00:57.945608 30881 net.cpp:141] Setting up inception_4e/pool
I0403 15:00:57.945633 30881 net.cpp:148] Top shape: 24 528 14 14 (2483712)
I0403 15:00:57.945648 30881 net.cpp:156] Memory required for data: 1252085280
I0403 15:00:57.945662 30881 layer_factory.hpp:77] Creating layer inception_4e/pool_proj
I0403 15:00:57.945683 30881 net.cpp:91] Creating Layer inception_4e/pool_proj
I0403 15:00:57.945700 30881 net.cpp:425] inception_4e/pool_proj <- inception_4e/pool
I0403 15:00:57.945719 30881 net.cpp:399] inception_4e/pool_proj -> inception_4e/pool_proj
I0403 15:00:57.947175 30881 net.cpp:141] Setting up inception_4e/pool_proj
I0403 15:00:57.947216 30881 net.cpp:148] Top shape: 24 128 14 14 (602112)
I0403 15:00:57.947232 30881 net.cpp:156] Memory required for data: 1254493728
I0403 15:00:57.947250 30881 layer_factory.hpp:77] Creating layer inception_4e/relu_pool_proj
I0403 15:00:57.947268 30881 net.cpp:91] Creating Layer inception_4e/relu_pool_proj
I0403 15:00:57.947283 30881 net.cpp:425] inception_4e/relu_pool_proj <- inception_4e/pool_proj
I0403 15:00:57.947301 30881 net.cpp:386] inception_4e/relu_pool_proj -> inception_4e/pool_proj (in-place)
I0403 15:00:57.947593 30881 net.cpp:141] Setting up inception_4e/relu_pool_proj
I0403 15:00:57.947620 30881 net.cpp:148] Top shape: 24 128 14 14 (602112)
I0403 15:00:57.947636 30881 net.cpp:156] Memory required for data: 1256902176
I0403 15:00:57.947651 30881 layer_factory.hpp:77] Creating layer inception_4e/output
I0403 15:00:57.947669 30881 net.cpp:91] Creating Layer inception_4e/output
I0403 15:00:57.947685 30881 net.cpp:425] inception_4e/output <- inception_4e/1x1
I0403 15:00:57.947701 30881 net.cpp:425] inception_4e/output <- inception_4e/3x3
I0403 15:00:57.947717 30881 net.cpp:425] inception_4e/output <- inception_4e/5x5
I0403 15:00:57.947732 30881 net.cpp:425] inception_4e/output <- inception_4e/pool_proj
I0403 15:00:57.947749 30881 net.cpp:399] inception_4e/output -> inception_4e/output
I0403 15:00:57.947799 30881 net.cpp:141] Setting up inception_4e/output
I0403 15:00:57.947823 30881 net.cpp:148] Top shape: 24 832 14 14 (3913728)
I0403 15:00:57.947837 30881 net.cpp:156] Memory required for data: 1272557088
I0403 15:00:57.947851 30881 layer_factory.hpp:77] Creating layer pool4/3x3_s2
I0403 15:00:57.947870 30881 net.cpp:91] Creating Layer pool4/3x3_s2
I0403 15:00:57.947887 30881 net.cpp:425] pool4/3x3_s2 <- inception_4e/output
I0403 15:00:57.947904 30881 net.cpp:399] pool4/3x3_s2 -> pool4/3x3_s2
I0403 15:00:57.947970 30881 net.cpp:141] Setting up pool4/3x3_s2
I0403 15:00:57.947993 30881 net.cpp:148] Top shape: 24 832 7 7 (978432)
I0403 15:00:57.948007 30881 net.cpp:156] Memory required for data: 1276470816
I0403 15:00:57.948021 30881 layer_factory.hpp:77] Creating layer pool4/3x3_s2_pool4/3x3_s2_0_split
I0403 15:00:57.948037 30881 net.cpp:91] Creating Layer pool4/3x3_s2_pool4/3x3_s2_0_split
I0403 15:00:57.948053 30881 net.cpp:425] pool4/3x3_s2_pool4/3x3_s2_0_split <- pool4/3x3_s2
I0403 15:00:57.948072 30881 net.cpp:399] pool4/3x3_s2_pool4/3x3_s2_0_split -> pool4/3x3_s2_pool4/3x3_s2_0_split_0
I0403 15:00:57.948093 30881 net.cpp:399] pool4/3x3_s2_pool4/3x3_s2_0_split -> pool4/3x3_s2_pool4/3x3_s2_0_split_1
I0403 15:00:57.948113 30881 net.cpp:399] pool4/3x3_s2_pool4/3x3_s2_0_split -> pool4/3x3_s2_pool4/3x3_s2_0_split_2
I0403 15:00:57.948132 30881 net.cpp:399] pool4/3x3_s2_pool4/3x3_s2_0_split -> pool4/3x3_s2_pool4/3x3_s2_0_split_3
I0403 15:00:57.948220 30881 net.cpp:141] Setting up pool4/3x3_s2_pool4/3x3_s2_0_split
I0403 15:00:57.948243 30881 net.cpp:148] Top shape: 24 832 7 7 (978432)
I0403 15:00:57.948259 30881 net.cpp:148] Top shape: 24 832 7 7 (978432)
I0403 15:00:57.948274 30881 net.cpp:148] Top shape: 24 832 7 7 (978432)
I0403 15:00:57.948290 30881 net.cpp:148] Top shape: 24 832 7 7 (978432)
I0403 15:00:57.948303 30881 net.cpp:156] Memory required for data: 1292125728
I0403 15:00:57.948318 30881 layer_factory.hpp:77] Creating layer inception_5a/1x1
I0403 15:00:57.948339 30881 net.cpp:91] Creating Layer inception_5a/1x1
I0403 15:00:57.948356 30881 net.cpp:425] inception_5a/1x1 <- pool4/3x3_s2_pool4/3x3_s2_0_split_0
I0403 15:00:57.948375 30881 net.cpp:399] inception_5a/1x1 -> inception_5a/1x1
I0403 15:00:57.951151 30881 net.cpp:141] Setting up inception_5a/1x1
I0403 15:00:57.951185 30881 net.cpp:148] Top shape: 24 256 7 7 (301056)
I0403 15:00:57.951201 30881 net.cpp:156] Memory required for data: 1293329952
I0403 15:00:57.951220 30881 layer_factory.hpp:77] Creating layer inception_5a/relu_1x1
I0403 15:00:57.951237 30881 net.cpp:91] Creating Layer inception_5a/relu_1x1
I0403 15:00:57.951252 30881 net.cpp:425] inception_5a/relu_1x1 <- inception_5a/1x1
I0403 15:00:57.951272 30881 net.cpp:386] inception_5a/relu_1x1 -> inception_5a/1x1 (in-place)
I0403 15:00:57.951576 30881 net.cpp:141] Setting up inception_5a/relu_1x1
I0403 15:00:57.951604 30881 net.cpp:148] Top shape: 24 256 7 7 (301056)
I0403 15:00:57.951620 30881 net.cpp:156] Memory required for data: 1294534176
I0403 15:00:57.951637 30881 layer_factory.hpp:77] Creating layer inception_5a/3x3_reduce
I0403 15:00:57.951658 30881 net.cpp:91] Creating Layer inception_5a/3x3_reduce
I0403 15:00:57.951675 30881 net.cpp:425] inception_5a/3x3_reduce <- pool4/3x3_s2_pool4/3x3_s2_0_split_1
I0403 15:00:57.951694 30881 net.cpp:399] inception_5a/3x3_reduce -> inception_5a/3x3_reduce
I0403 15:00:57.954165 30881 net.cpp:141] Setting up inception_5a/3x3_reduce
I0403 15:00:57.954198 30881 net.cpp:148] Top shape: 24 160 7 7 (188160)
I0403 15:00:57.954216 30881 net.cpp:156] Memory required for data: 1295286816
I0403 15:00:57.954233 30881 layer_factory.hpp:77] Creating layer inception_5a/relu_3x3_reduce
I0403 15:00:57.954253 30881 net.cpp:91] Creating Layer inception_5a/relu_3x3_reduce
I0403 15:00:57.954278 30881 net.cpp:425] inception_5a/relu_3x3_reduce <- inception_5a/3x3_reduce
I0403 15:00:57.954298 30881 net.cpp:386] inception_5a/relu_3x3_reduce -> inception_5a/3x3_reduce (in-place)
I0403 15:00:57.954481 30881 net.cpp:141] Setting up inception_5a/relu_3x3_reduce
I0403 15:00:57.954516 30881 net.cpp:148] Top shape: 24 160 7 7 (188160)
I0403 15:00:57.954535 30881 net.cpp:156] Memory required for data: 1296039456
I0403 15:00:57.954550 30881 layer_factory.hpp:77] Creating layer inception_5a/3x3
I0403 15:00:57.954571 30881 net.cpp:91] Creating Layer inception_5a/3x3
I0403 15:00:57.954588 30881 net.cpp:425] inception_5a/3x3 <- inception_5a/3x3_reduce
I0403 15:00:57.954607 30881 net.cpp:399] inception_5a/3x3 -> inception_5a/3x3
I0403 15:00:57.959533 30881 net.cpp:141] Setting up inception_5a/3x3
I0403 15:00:57.959565 30881 net.cpp:148] Top shape: 24 320 7 7 (376320)
I0403 15:00:57.959581 30881 net.cpp:156] Memory required for data: 1297544736
I0403 15:00:57.959599 30881 layer_factory.hpp:77] Creating layer inception_5a/relu_3x3
I0403 15:00:57.959617 30881 net.cpp:91] Creating Layer inception_5a/relu_3x3
I0403 15:00:57.959633 30881 net.cpp:425] inception_5a/relu_3x3 <- inception_5a/3x3
I0403 15:00:57.959650 30881 net.cpp:386] inception_5a/relu_3x3 -> inception_5a/3x3 (in-place)
I0403 15:00:57.959941 30881 net.cpp:141] Setting up inception_5a/relu_3x3
I0403 15:00:57.959969 30881 net.cpp:148] Top shape: 24 320 7 7 (376320)
I0403 15:00:57.959985 30881 net.cpp:156] Memory required for data: 1299050016
I0403 15:00:57.960000 30881 layer_factory.hpp:77] Creating layer inception_5a/5x5_reduce
I0403 15:00:57.960021 30881 net.cpp:91] Creating Layer inception_5a/5x5_reduce
I0403 15:00:57.960038 30881 net.cpp:425] inception_5a/5x5_reduce <- pool4/3x3_s2_pool4/3x3_s2_0_split_2
I0403 15:00:57.960057 30881 net.cpp:399] inception_5a/5x5_reduce -> inception_5a/5x5_reduce
I0403 15:00:57.961206 30881 net.cpp:141] Setting up inception_5a/5x5_reduce
I0403 15:00:57.961236 30881 net.cpp:148] Top shape: 24 32 7 7 (37632)
I0403 15:00:57.961252 30881 net.cpp:156] Memory required for data: 1299200544
I0403 15:00:57.961271 30881 layer_factory.hpp:77] Creating layer inception_5a/relu_5x5_reduce
I0403 15:00:57.961287 30881 net.cpp:91] Creating Layer inception_5a/relu_5x5_reduce
I0403 15:00:57.961303 30881 net.cpp:425] inception_5a/relu_5x5_reduce <- inception_5a/5x5_reduce
I0403 15:00:57.961323 30881 net.cpp:386] inception_5a/relu_5x5_reduce -> inception_5a/5x5_reduce (in-place)
I0403 15:00:57.961624 30881 net.cpp:141] Setting up inception_5a/relu_5x5_reduce
I0403 15:00:57.961649 30881 net.cpp:148] Top shape: 24 32 7 7 (37632)
I0403 15:00:57.961670 30881 net.cpp:156] Memory required for data: 1299351072
I0403 15:00:57.961685 30881 layer_factory.hpp:77] Creating layer inception_5a/5x5
I0403 15:00:57.961707 30881 net.cpp:91] Creating Layer inception_5a/5x5
I0403 15:00:57.961724 30881 net.cpp:425] inception_5a/5x5 <- inception_5a/5x5_reduce
I0403 15:00:57.961745 30881 net.cpp:399] inception_5a/5x5 -> inception_5a/5x5
I0403 15:00:57.963420 30881 net.cpp:141] Setting up inception_5a/5x5
I0403 15:00:57.963461 30881 net.cpp:148] Top shape: 24 128 7 7 (150528)
I0403 15:00:57.963479 30881 net.cpp:156] Memory required for data: 1299953184
I0403 15:00:57.963497 30881 layer_factory.hpp:77] Creating layer inception_5a/relu_5x5
I0403 15:00:57.963520 30881 net.cpp:91] Creating Layer inception_5a/relu_5x5
I0403 15:00:57.963536 30881 net.cpp:425] inception_5a/relu_5x5 <- inception_5a/5x5
I0403 15:00:57.963553 30881 net.cpp:386] inception_5a/relu_5x5 -> inception_5a/5x5 (in-place)
I0403 15:00:57.963743 30881 net.cpp:141] Setting up inception_5a/relu_5x5
I0403 15:00:57.963768 30881 net.cpp:148] Top shape: 24 128 7 7 (150528)
I0403 15:00:57.963783 30881 net.cpp:156] Memory required for data: 1300555296
I0403 15:00:57.963796 30881 layer_factory.hpp:77] Creating layer inception_5a/pool
I0403 15:00:57.963814 30881 net.cpp:91] Creating Layer inception_5a/pool
I0403 15:00:57.963829 30881 net.cpp:425] inception_5a/pool <- pool4/3x3_s2_pool4/3x3_s2_0_split_3
I0403 15:00:57.963850 30881 net.cpp:399] inception_5a/pool -> inception_5a/pool
I0403 15:00:57.963918 30881 net.cpp:141] Setting up inception_5a/pool
I0403 15:00:57.963943 30881 net.cpp:148] Top shape: 24 832 7 7 (978432)
I0403 15:00:57.963959 30881 net.cpp:156] Memory required for data: 1304469024
I0403 15:00:57.963973 30881 layer_factory.hpp:77] Creating layer inception_5a/pool_proj
I0403 15:00:57.963995 30881 net.cpp:91] Creating Layer inception_5a/pool_proj
I0403 15:00:57.964012 30881 net.cpp:425] inception_5a/pool_proj <- inception_5a/pool
I0403 15:00:57.964030 30881 net.cpp:399] inception_5a/pool_proj -> inception_5a/pool_proj
I0403 15:00:57.966284 30881 net.cpp:141] Setting up inception_5a/pool_proj
I0403 15:00:57.966315 30881 net.cpp:148] Top shape: 24 128 7 7 (150528)
I0403 15:00:57.966331 30881 net.cpp:156] Memory required for data: 1305071136
I0403 15:00:57.966348 30881 layer_factory.hpp:77] Creating layer inception_5a/relu_pool_proj
I0403 15:00:57.966368 30881 net.cpp:91] Creating Layer inception_5a/relu_pool_proj
I0403 15:00:57.966387 30881 net.cpp:425] inception_5a/relu_pool_proj <- inception_5a/pool_proj
I0403 15:00:57.966403 30881 net.cpp:386] inception_5a/relu_pool_proj -> inception_5a/pool_proj (in-place)
I0403 15:00:57.966714 30881 net.cpp:141] Setting up inception_5a/relu_pool_proj
I0403 15:00:57.966739 30881 net.cpp:148] Top shape: 24 128 7 7 (150528)
I0403 15:00:57.966754 30881 net.cpp:156] Memory required for data: 1305673248
I0403 15:00:57.966768 30881 layer_factory.hpp:77] Creating layer inception_5a/output
I0403 15:00:57.966787 30881 net.cpp:91] Creating Layer inception_5a/output
I0403 15:00:57.966804 30881 net.cpp:425] inception_5a/output <- inception_5a/1x1
I0403 15:00:57.966820 30881 net.cpp:425] inception_5a/output <- inception_5a/3x3
I0403 15:00:57.966835 30881 net.cpp:425] inception_5a/output <- inception_5a/5x5
I0403 15:00:57.966851 30881 net.cpp:425] inception_5a/output <- inception_5a/pool_proj
I0403 15:00:57.966868 30881 net.cpp:399] inception_5a/output -> inception_5a/output
I0403 15:00:57.966919 30881 net.cpp:141] Setting up inception_5a/output
I0403 15:00:57.966941 30881 net.cpp:148] Top shape: 24 832 7 7 (978432)
I0403 15:00:57.966955 30881 net.cpp:156] Memory required for data: 1309586976
I0403 15:00:57.966969 30881 layer_factory.hpp:77] Creating layer inception_5a/output_inception_5a/output_0_split
I0403 15:00:57.966986 30881 net.cpp:91] Creating Layer inception_5a/output_inception_5a/output_0_split
I0403 15:00:57.967001 30881 net.cpp:425] inception_5a/output_inception_5a/output_0_split <- inception_5a/output
I0403 15:00:57.967021 30881 net.cpp:399] inception_5a/output_inception_5a/output_0_split -> inception_5a/output_inception_5a/output_0_split_0
I0403 15:00:57.967042 30881 net.cpp:399] inception_5a/output_inception_5a/output_0_split -> inception_5a/output_inception_5a/output_0_split_1
I0403 15:00:57.967061 30881 net.cpp:399] inception_5a/output_inception_5a/output_0_split -> inception_5a/output_inception_5a/output_0_split_2
I0403 15:00:57.967080 30881 net.cpp:399] inception_5a/output_inception_5a/output_0_split -> inception_5a/output_inception_5a/output_0_split_3
I0403 15:00:57.967190 30881 net.cpp:141] Setting up inception_5a/output_inception_5a/output_0_split
I0403 15:00:57.967216 30881 net.cpp:148] Top shape: 24 832 7 7 (978432)
I0403 15:00:57.967232 30881 net.cpp:148] Top shape: 24 832 7 7 (978432)
I0403 15:00:57.967248 30881 net.cpp:148] Top shape: 24 832 7 7 (978432)
I0403 15:00:57.967263 30881 net.cpp:148] Top shape: 24 832 7 7 (978432)
I0403 15:00:57.967277 30881 net.cpp:156] Memory required for data: 1325241888
I0403 15:00:57.967290 30881 layer_factory.hpp:77] Creating layer inception_5b/1x1
I0403 15:00:57.967313 30881 net.cpp:91] Creating Layer inception_5b/1x1
I0403 15:00:57.967329 30881 net.cpp:425] inception_5b/1x1 <- inception_5a/output_inception_5a/output_0_split_0
I0403 15:00:57.967350 30881 net.cpp:399] inception_5b/1x1 -> inception_5b/1x1
I0403 15:00:57.971009 30881 net.cpp:141] Setting up inception_5b/1x1
I0403 15:00:57.971037 30881 net.cpp:148] Top shape: 24 384 7 7 (451584)
I0403 15:00:57.971055 30881 net.cpp:156] Memory required for data: 1327048224
I0403 15:00:57.971072 30881 layer_factory.hpp:77] Creating layer inception_5b/relu_1x1
I0403 15:00:57.971092 30881 net.cpp:91] Creating Layer inception_5b/relu_1x1
I0403 15:00:57.971109 30881 net.cpp:425] inception_5b/relu_1x1 <- inception_5b/1x1
I0403 15:00:57.971127 30881 net.cpp:386] inception_5b/relu_1x1 -> inception_5b/1x1 (in-place)
I0403 15:00:57.971421 30881 net.cpp:141] Setting up inception_5b/relu_1x1
I0403 15:00:57.971446 30881 net.cpp:148] Top shape: 24 384 7 7 (451584)
I0403 15:00:57.971460 30881 net.cpp:156] Memory required for data: 1328854560
I0403 15:00:57.971474 30881 layer_factory.hpp:77] Creating layer inception_5b/3x3_reduce
I0403 15:00:57.971496 30881 net.cpp:91] Creating Layer inception_5b/3x3_reduce
I0403 15:00:57.971518 30881 net.cpp:425] inception_5b/3x3_reduce <- inception_5a/output_inception_5a/output_0_split_1
I0403 15:00:57.971539 30881 net.cpp:399] inception_5b/3x3_reduce -> inception_5b/3x3_reduce
I0403 15:00:57.974133 30881 net.cpp:141] Setting up inception_5b/3x3_reduce
I0403 15:00:57.974162 30881 net.cpp:148] Top shape: 24 192 7 7 (225792)
I0403 15:00:57.974177 30881 net.cpp:156] Memory required for data: 1329757728
I0403 15:00:57.974196 30881 layer_factory.hpp:77] Creating layer inception_5b/relu_3x3_reduce
I0403 15:00:57.974215 30881 net.cpp:91] Creating Layer inception_5b/relu_3x3_reduce
I0403 15:00:57.974232 30881 net.cpp:425] inception_5b/relu_3x3_reduce <- inception_5b/3x3_reduce
I0403 15:00:57.974251 30881 net.cpp:386] inception_5b/relu_3x3_reduce -> inception_5b/3x3_reduce (in-place)
I0403 15:00:57.974436 30881 net.cpp:141] Setting up inception_5b/relu_3x3_reduce
I0403 15:00:57.974462 30881 net.cpp:148] Top shape: 24 192 7 7 (225792)
I0403 15:00:57.974477 30881 net.cpp:156] Memory required for data: 1330660896
I0403 15:00:57.974490 30881 layer_factory.hpp:77] Creating layer inception_5b/3x3
I0403 15:00:57.974522 30881 net.cpp:91] Creating Layer inception_5b/3x3
I0403 15:00:57.974541 30881 net.cpp:425] inception_5b/3x3 <- inception_5b/3x3_reduce
I0403 15:00:57.974563 30881 net.cpp:399] inception_5b/3x3 -> inception_5b/3x3
I0403 15:00:57.981101 30881 net.cpp:141] Setting up inception_5b/3x3
I0403 15:00:57.981129 30881 net.cpp:148] Top shape: 24 384 7 7 (451584)
I0403 15:00:57.981145 30881 net.cpp:156] Memory required for data: 1332467232
I0403 15:00:57.981163 30881 layer_factory.hpp:77] Creating layer inception_5b/relu_3x3
I0403 15:00:57.981183 30881 net.cpp:91] Creating Layer inception_5b/relu_3x3
I0403 15:00:57.981199 30881 net.cpp:425] inception_5b/relu_3x3 <- inception_5b/3x3
I0403 15:00:57.981216 30881 net.cpp:386] inception_5b/relu_3x3 -> inception_5b/3x3 (in-place)
I0403 15:00:57.981510 30881 net.cpp:141] Setting up inception_5b/relu_3x3
I0403 15:00:57.981536 30881 net.cpp:148] Top shape: 24 384 7 7 (451584)
I0403 15:00:57.981550 30881 net.cpp:156] Memory required for data: 1334273568
I0403 15:00:57.981565 30881 layer_factory.hpp:77] Creating layer inception_5b/5x5_reduce
I0403 15:00:57.981603 30881 net.cpp:91] Creating Layer inception_5b/5x5_reduce
I0403 15:00:57.981621 30881 net.cpp:425] inception_5b/5x5_reduce <- inception_5a/output_inception_5a/output_0_split_2
I0403 15:00:57.981640 30881 net.cpp:399] inception_5b/5x5_reduce -> inception_5b/5x5_reduce
I0403 15:00:57.982877 30881 net.cpp:141] Setting up inception_5b/5x5_reduce
I0403 15:00:57.982903 30881 net.cpp:148] Top shape: 24 48 7 7 (56448)
I0403 15:00:57.982923 30881 net.cpp:156] Memory required for data: 1334499360
I0403 15:00:57.982940 30881 layer_factory.hpp:77] Creating layer inception_5b/relu_5x5_reduce
I0403 15:00:57.982957 30881 net.cpp:91] Creating Layer inception_5b/relu_5x5_reduce
I0403 15:00:57.982974 30881 net.cpp:425] inception_5b/relu_5x5_reduce <- inception_5b/5x5_reduce
I0403 15:00:57.982991 30881 net.cpp:386] inception_5b/relu_5x5_reduce -> inception_5b/5x5_reduce (in-place)
I0403 15:00:57.983355 30881 net.cpp:141] Setting up inception_5b/relu_5x5_reduce
I0403 15:00:57.983381 30881 net.cpp:148] Top shape: 24 48 7 7 (56448)
I0403 15:00:57.983397 30881 net.cpp:156] Memory required for data: 1334725152
I0403 15:00:57.983412 30881 layer_factory.hpp:77] Creating layer inception_5b/5x5
I0403 15:00:57.983431 30881 net.cpp:91] Creating Layer inception_5b/5x5
I0403 15:00:57.983448 30881 net.cpp:425] inception_5b/5x5 <- inception_5b/5x5_reduce
I0403 15:00:57.983465 30881 net.cpp:399] inception_5b/5x5 -> inception_5b/5x5
I0403 15:00:57.985469 30881 net.cpp:141] Setting up inception_5b/5x5
I0403 15:00:57.985498 30881 net.cpp:148] Top shape: 24 128 7 7 (150528)
I0403 15:00:57.985519 30881 net.cpp:156] Memory required for data: 1335327264
I0403 15:00:57.985538 30881 layer_factory.hpp:77] Creating layer inception_5b/relu_5x5
I0403 15:00:57.985555 30881 net.cpp:91] Creating Layer inception_5b/relu_5x5
I0403 15:00:57.985574 30881 net.cpp:425] inception_5b/relu_5x5 <- inception_5b/5x5
I0403 15:00:57.985594 30881 net.cpp:386] inception_5b/relu_5x5 -> inception_5b/5x5 (in-place)
I0403 15:00:57.985781 30881 net.cpp:141] Setting up inception_5b/relu_5x5
I0403 15:00:57.985805 30881 net.cpp:148] Top shape: 24 128 7 7 (150528)
I0403 15:00:57.985819 30881 net.cpp:156] Memory required for data: 1335929376
I0403 15:00:57.985833 30881 layer_factory.hpp:77] Creating layer inception_5b/pool
I0403 15:00:57.985851 30881 net.cpp:91] Creating Layer inception_5b/pool
I0403 15:00:57.985867 30881 net.cpp:425] inception_5b/pool <- inception_5a/output_inception_5a/output_0_split_3
I0403 15:00:57.985887 30881 net.cpp:399] inception_5b/pool -> inception_5b/pool
I0403 15:00:57.985957 30881 net.cpp:141] Setting up inception_5b/pool
I0403 15:00:57.985981 30881 net.cpp:148] Top shape: 24 832 7 7 (978432)
I0403 15:00:57.985994 30881 net.cpp:156] Memory required for data: 1339843104
I0403 15:00:57.986009 30881 layer_factory.hpp:77] Creating layer inception_5b/pool_proj
I0403 15:00:57.986032 30881 net.cpp:91] Creating Layer inception_5b/pool_proj
I0403 15:00:57.986049 30881 net.cpp:425] inception_5b/pool_proj <- inception_5b/pool
I0403 15:00:57.986066 30881 net.cpp:399] inception_5b/pool_proj -> inception_5b/pool_proj
I0403 15:00:57.988317 30881 net.cpp:141] Setting up inception_5b/pool_proj
I0403 15:00:57.988348 30881 net.cpp:148] Top shape: 24 128 7 7 (150528)
I0403 15:00:57.988365 30881 net.cpp:156] Memory required for data: 1340445216
I0403 15:00:57.988384 30881 layer_factory.hpp:77] Creating layer inception_5b/relu_pool_proj
I0403 15:00:57.988401 30881 net.cpp:91] Creating Layer inception_5b/relu_pool_proj
I0403 15:00:57.988416 30881 net.cpp:425] inception_5b/relu_pool_proj <- inception_5b/pool_proj
I0403 15:00:57.988433 30881 net.cpp:386] inception_5b/relu_pool_proj -> inception_5b/pool_proj (in-place)
I0403 15:00:57.988731 30881 net.cpp:141] Setting up inception_5b/relu_pool_proj
I0403 15:00:57.988759 30881 net.cpp:148] Top shape: 24 128 7 7 (150528)
I0403 15:00:57.988775 30881 net.cpp:156] Memory required for data: 1341047328
I0403 15:00:57.988790 30881 layer_factory.hpp:77] Creating layer inception_5b/output
I0403 15:00:57.988806 30881 net.cpp:91] Creating Layer inception_5b/output
I0403 15:00:57.988837 30881 net.cpp:425] inception_5b/output <- inception_5b/1x1
I0403 15:00:57.988853 30881 net.cpp:425] inception_5b/output <- inception_5b/3x3
I0403 15:00:57.988870 30881 net.cpp:425] inception_5b/output <- inception_5b/5x5
I0403 15:00:57.988886 30881 net.cpp:425] inception_5b/output <- inception_5b/pool_proj
I0403 15:00:57.988903 30881 net.cpp:399] inception_5b/output -> inception_5b/output
I0403 15:00:57.988955 30881 net.cpp:141] Setting up inception_5b/output
I0403 15:00:57.988978 30881 net.cpp:148] Top shape: 24 1024 7 7 (1204224)
I0403 15:00:57.988992 30881 net.cpp:156] Memory required for data: 1345864224
I0403 15:00:57.989006 30881 layer_factory.hpp:77] Creating layer pool5/7x7_s1
I0403 15:00:57.989025 30881 net.cpp:91] Creating Layer pool5/7x7_s1
I0403 15:00:57.989042 30881 net.cpp:425] pool5/7x7_s1 <- inception_5b/output
I0403 15:00:57.989059 30881 net.cpp:399] pool5/7x7_s1 -> pool5/7x7_s1
I0403 15:00:57.989269 30881 net.cpp:141] Setting up pool5/7x7_s1
I0403 15:00:57.989295 30881 net.cpp:148] Top shape: 24 1024 1 1 (24576)
I0403 15:00:57.989310 30881 net.cpp:156] Memory required for data: 1345962528
I0403 15:00:57.989325 30881 layer_factory.hpp:77] Creating layer pool5/drop_7x7_s1
I0403 15:00:57.989342 30881 net.cpp:91] Creating Layer pool5/drop_7x7_s1
I0403 15:00:57.989357 30881 net.cpp:425] pool5/drop_7x7_s1 <- pool5/7x7_s1
I0403 15:00:57.989374 30881 net.cpp:386] pool5/drop_7x7_s1 -> pool5/7x7_s1 (in-place)
I0403 15:00:57.989424 30881 net.cpp:141] Setting up pool5/drop_7x7_s1
I0403 15:00:57.989447 30881 net.cpp:148] Top shape: 24 1024 1 1 (24576)
I0403 15:00:57.989461 30881 net.cpp:156] Memory required for data: 1346060832
I0403 15:00:57.989475 30881 layer_factory.hpp:77] Creating layer loss3/classifier_plantvillage
I0403 15:00:57.989498 30881 net.cpp:91] Creating Layer loss3/classifier_plantvillage
I0403 15:00:57.989519 30881 net.cpp:425] loss3/classifier_plantvillage <- pool5/7x7_s1
I0403 15:00:57.989538 30881 net.cpp:399] loss3/classifier_plantvillage -> loss3/classifier_plantvillage
I0403 15:00:57.989955 30881 net.cpp:141] Setting up loss3/classifier_plantvillage
I0403 15:00:57.989979 30881 net.cpp:148] Top shape: 24 38 (912)
I0403 15:00:57.989994 30881 net.cpp:156] Memory required for data: 1346064480
I0403 15:00:57.990012 30881 layer_factory.hpp:77] Creating layer loss3/classifier_plantvillage_loss3/classifier_plantvillage_0_split
I0403 15:00:57.990031 30881 net.cpp:91] Creating Layer loss3/classifier_plantvillage_loss3/classifier_plantvillage_0_split
I0403 15:00:57.990046 30881 net.cpp:425] loss3/classifier_plantvillage_loss3/classifier_plantvillage_0_split <- loss3/classifier_plantvillage
I0403 15:00:57.990067 30881 net.cpp:399] loss3/classifier_plantvillage_loss3/classifier_plantvillage_0_split -> loss3/classifier_plantvillage_loss3/classifier_plantvillage_0_split_0
I0403 15:00:57.990087 30881 net.cpp:399] loss3/classifier_plantvillage_loss3/classifier_plantvillage_0_split -> loss3/classifier_plantvillage_loss3/classifier_plantvillage_0_split_1
I0403 15:00:57.990105 30881 net.cpp:399] loss3/classifier_plantvillage_loss3/classifier_plantvillage_0_split -> loss3/classifier_plantvillage_loss3/classifier_plantvillage_0_split_2
I0403 15:00:57.990125 30881 net.cpp:399] loss3/classifier_plantvillage_loss3/classifier_plantvillage_0_split -> loss3/classifier_plantvillage_loss3/classifier_plantvillage_0_split_3
I0403 15:00:57.990229 30881 net.cpp:141] Setting up loss3/classifier_plantvillage_loss3/classifier_plantvillage_0_split
I0403 15:00:57.990252 30881 net.cpp:148] Top shape: 24 38 (912)
I0403 15:00:57.990267 30881 net.cpp:148] Top shape: 24 38 (912)
I0403 15:00:57.990283 30881 net.cpp:148] Top shape: 24 38 (912)
I0403 15:00:57.990298 30881 net.cpp:148] Top shape: 24 38 (912)
I0403 15:00:57.990311 30881 net.cpp:156] Memory required for data: 1346079072
I0403 15:00:57.990325 30881 layer_factory.hpp:77] Creating layer loss1/loss
I0403 15:00:57.990346 30881 net.cpp:91] Creating Layer loss1/loss
I0403 15:00:57.990362 30881 net.cpp:425] loss1/loss <- loss1/classifier_plantvillage_loss1/classifier_plantvillage_0_split_0
I0403 15:00:57.990391 30881 net.cpp:425] loss1/loss <- label_data_1_split_0
…
