…
I0403 15:06:47.069902 31150 net.cpp:313] The NetState phase (1) differed from the phase (0) specified by a rule in layer data
I0403 15:06:47.071153 31150 net.cpp:49] Initializing net from parameters: 
state {
  phase: TEST
}
layer {
  name: "data"
  type: "Data"
  top: "data"
  top: "label"
  include {
    phase: TEST
  }
  transform_param {
    mirror: false
    crop_size: 224
    mean_file: "/home/mohanty/data/final_dataset/lmdb/grayscale-80-20/mean.binaryproto"
  }
  data_param {
    source: "/home/mohanty/data/final_dataset/lmdb/grayscale-80-20/test_db"
    batch_size: 24
    backend: LMDB
  }
}
layer {
  name: "conv1/7x7_s2"
  type: "Convolution"
  bottom: "data"
  top: "conv1/7x7_s2"
  param {
    lr_mult: 1
    decay_mult: 1
  }
  param {
    lr_mult: 2
    decay_mult: 0
  }
  convolution_param {
    num_output: 64
    pad: 3
    kernel_size: 7
    stride: 2
    weight_filler {
      type: "xavier"
      std: 0.1
    }
    bias_filler {
      type: "constant"
      value: 0.2
    }
  }
}
layer {
  name: "conv1/relu_7x7"
  type: "ReLU"
  bottom: "conv1/7x7_s2"
  top: "conv1/7x7_s2"
}
layer {
  name: "pool1/3x3_s2"
  type: "Pooling"
  bottom: "conv1/7x7_s2"
  top: "pool1/3x3_s2"
  pooling_param {
    pool: MAX
    kernel_size: 3
    stride: 2
  }
}
layer {
  name: "pool1/norm1"
  type: "LRN"
  bottom: "pool1/3x3_s2"
  top: "pool1/norm1"
  lrn_param {
    local_size: 5
    alpha: 0.0001
    beta: 0.75
  }
}
layer {
  name: "conv2/3x3_reduce"
  type: "Convolution"
  bottom: "pool1/norm1"
  top: "conv2/3x3_reduce"
  param {
    lr_mult: 1
    decay_mult: 1
  }
  param {
    lr_mult: 2
    decay_mult: 0
  }
  convolution_param {
    num_output: 64
    kernel_size: 1
    weight_filler {
      type: "xavier"
      std: 0.1
    }
    bias_filler {
      type: "constant"
      value: 0.2
    }
  }
}
layer {
  name: "conv2/relu_3x3_reduce"
  type: "ReLU"
  bottom: "conv2/3x3_reduce"
  top: "conv2/3x3_reduce"
}
layer {
  name: "conv2/3x3"
  type: "Convolution"
  bottom: "conv2/3x3_reduce"
  top: "conv2/3x3"
  param {
    lr_mult: 1
    decay_mult: 1
  }
  param {
    lr_mult: 2
    decay_mult: 0
  }
  convolution_param {
    num_output: 192
    pad: 1
    kernel_size: 3
    weight_filler {
      type: "xavier"
      std: 0.03
    }
    bias_filler {
      type: "constant"
      value: 0.2
    }
  }
}
layer {
  name: "conv2/relu_3x3"
  type: "ReLU"
  bottom: "conv2/3x3"
  top: "conv2/3x3"
}
layer {
  name: "conv2/norm2"
  type: "LRN"
  bottom: "conv2/3x3"
  top: "conv2/norm2"
  lrn_param {
    local_size: 5
    alpha: 0.0001
    beta: 0.75
  }
}
layer {
  name: "pool2/3x3_s2"
  type: "Pooling"
  bottom: "conv2/norm2"
  top: "pool2/3x3_s2"
  pooling_param {
    pool: MAX
    kernel_size: 3
    stride: 2
  }
}
layer {
  name: "inception_3a/1x1"
  type: "Convolution"
  bottom: "pool2/3x3_s2"
  top: "inception_3a/1x1"
  param {
    lr_mult: 1
    decay_mult: 1
  }
  param {
    lr_mult: 2
    decay_mult: 0
  }
  convolution_param {
    num_output: 64
    kernel_size: 1
    weight_filler {
      type: "xavier"
      std: 0.03
    }
    bias_filler {
      type: "constant"
      value: 0.2
    }
  }
}
layer {
  name: "inception_3a/relu_1x1"
  type: "ReLU"
  bottom: "inception_3a/1x1"
  top: "inception_3a/1x1"
}
layer {
  name: "inception_3a/3x3_reduce"
  type: "Convolution"
  bottom: "pool2/3x3_s2"
  top: "inception_3a/3x3_reduce"
  param {
    lr_mult: 1
    decay_mult: 1
  }
  param {
    lr_mult: 2
    decay_mult: 0
  }
  convolution_param {
    num_output: 96
    kernel_size: 1
    weight_filler {
      type: "xavier"
      std: 0.09
    }
    bias_filler {
      type: "constant"
      value: 0.2
    }
  }
}
layer {
  name: "inception_3a/relu_3x3_reduce"
  type: "ReLU"
  bottom: "inception_3a/3x3_reduce"
  top: "inception_3a/3x3_reduce"
}
layer {
  name: "inception_3a/3x3"
  type: "Convolution"
  bottom: "inception_3a/3x3_reduce"
  top: "inception_3a/3x3"
  param {
    lr_mult: 1
    decay_mult: 1
  }
  param {
    lr_mult: 2
    decay_mult: 0
  }
  convolution_param {
    num_output: 128
    pad: 1
    kernel_size: 3
    weight_filler {
      type: "xavier"
      std: 0.03
    }
    bias_filler {
      type: "constant"
      value: 0.2
    }
  }
}
layer {
  name: "inception_3a/relu_3x3"
  type: "ReLU"
  bottom: "inception_3a/3x3"
  top: "inception_3a/3x3"
}
layer {
  name: "inception_3a/5x5_reduce"
  type: "Convolution"
  bottom: "pool2/3x3_s2"
  top: "inception_3a/5x5_reduce"
  param {
    lr_mult: 1
    decay_mult: 1
  }
  param {
    lr_mult: 2
    decay_mult: 0
  }
  convolution_param {
    num_output: 16
    kernel_size: 1
    weight_filler {
      type: "xavier"
      std: 0.2
    }
    bias_filler {
      type: "constant"
      value: 0.2
    }
  }
}
layer {
  name: "inception_3a/relu_5x5_reduce"
  type: "ReLU"
  bottom: "inception_3a/5x5_reduce"
  top: "inception_3a/5x5_reduce"
}
layer {
  name: "inception_3a/5x5"
  type: "Convolution"
  bottom: "inception_3a/5x5_reduce"
  top: "inception_3a/5x5"
  param {
    lr_mult: 1
    decay_mult: 1
  }
  param {
    lr_mult: 2
    decay_mult: 0
  }
  convolution_param {
    num_output: 32
    pad: 2
    kernel_size: 5
    weight_filler {
      type: "xavier"
      std: 0.03
    }
    bias_filler {
      type: "constant"
      value: 0.2
    }
  }
}
layer {
  name: "inception_3a/relu_5x5"
  type: "ReLU"
  bottom: "inception_3a/5x5"
  top: "inception_3a/5x5"
}
layer {
  name: "inception_3a/pool"
  type: "Pooling"
  bottom: "pool2/3x3_s2"
  top: "inception_3a/pool"
  pooling_param {
    pool: MAX
    kernel_size: 3
    stride: 1
    pad: 1
  }
}
layer {
  name: "inception_3a/pool_proj"
  type: "Convolution"
  bottom: "inception_3a/pool"
  top: "inception_3a/pool_proj"
  param {
    lr_mult: 1
    decay_mult: 1
  }
  param {
    lr_mult: 2
    decay_mult: 0
  }
  convolution_param {
    num_output: 32
    kernel_size: 1
    weight_filler {
      type: "xavier"
      std: 0.1
    }
    bias_filler {
      type: "constant"
      value: 0.2
    }
  }
}
layer {
  name: "inception_3a/relu_pool_proj"
  type: "ReLU"
  bottom: "inception_3a/pool_proj"
  top: "inception_3a/pool_proj"
}
layer {
  name: "inception_3a/output"
  type: "Concat"
  bottom: "inception_3a/1x1"
  bottom: "inception_3a/3x3"
  bottom: "inception_3a/5x5"
  bottom: "inception_3a/pool_proj"
  top: "inception_3a/output"
}
layer {
  name: "inception_3b/1x1"
  type: "Convolution"
  bottom: "inception_3a/output"
  top: "inception_3b/1x1"
  param {
    lr_mult: 1
    decay_mult: 1
  }
  param {
    lr_mult: 2
    decay_mult: 0
  }
  convolution_param {
    num_output: 128
    kernel_size: 1
    weight_filler {
      type: "xavier"
      std: 0.03
    }
    bias_filler {
      type: "constant"
      value: 0.2
    }
  }
}
layer {
  name: "inception_3b/relu_1x1"
  type: "ReLU"
  bottom: "inception_3b/1x1"
  top: "inception_3b/1x1"
}
layer {
  name: "inception_3b/3x3_reduce"
  type: "Convolution"
  bottom: "inception_3a/output"
  top: "inception_3b/3x3_reduce"
  param {
    lr_mult: 1
    decay_mult: 1
  }
  param {
    lr_mult: 2
    decay_mult: 0
  }
  convolution_param {
    num_output: 128
    kernel_size: 1
    weight_filler {
      type: "xavier"
      std: 0.09
    }
    bias_filler {
      type: "constant"
      value: 0.2
    }
  }
}
layer {
  name: "inception_3b/relu_3x3_reduce"
  type: "ReLU"
  bottom: "inception_3b/3x3_reduce"
  top: "inception_3b/3x3_reduce"
}
layer {
  name: "inception_3b/3x3"
  type: "Convolution"
  bottom: "inception_3b/3x3_reduce"
  top: "inception_3b/3x3"
  param {
    lr_mult: 1
    decay_mult: 1
  }
  param {
    lr_mult: 2
    decay_mult: 0
  }
  convolution_param {
    num_output: 192
    pad: 1
    kernel_size: 3
    weight_filler {
      type: "xavier"
      std: 0.03
    }
    bias_filler {
      type: "constant"
      value: 0.2
    }
  }
}
layer {
  name: "inception_3b/relu_3x3"
  type: "ReLU"
  bottom: "inception_3b/3x3"
  top: "inception_3b/3x3"
}
layer {
  name: "inception_3b/5x5_reduce"
  type: "Convolution"
  bottom: "inception_3a/output"
  top: "inception_3b/5x5_reduce"
  param {
    lr_mult: 1
    decay_mult: 1
  }
  param {
    lr_mult: 2
    decay_mult: 0
  }
  convolution_param {
    num_output: 32
    kernel_size: 1
    weight_filler {
      type: "xavier"
      std: 0.2
    }
    bias_filler {
      type: "constant"
      value: 0.2
    }
  }
}
layer {
  name: "inception_3b/relu_5x5_reduce"
  type: "ReLU"
  bottom: "inception_3b/5x5_reduce"
  top: "inception_3b/5x5_reduce"
}
layer {
  name: "inception_3b/5x5"
  type: "Convolution"
  bottom: "inception_3b/5x5_reduce"
  top: "inception_3b/5x5"
  param {
    lr_mult: 1
    decay_mult: 1
  }
  param {
    lr_mult: 2
    decay_mult: 0
  }
  convolution_param {
    num_output: 96
    pad: 2
    kernel_size: 5
    weight_filler {
      type: "xavier"
      std: 0.03
    }
    bias_filler {
      type: "constant"
      value: 0.2
    }
  }
}
layer {
  name: "inception_3b/relu_5x5"
  type: "ReLU"
  bottom: "inception_3b/5x5"
  top: "inception_3b/5x5"
}
layer {
  name: "inception_3b/pool"
  type: "Pooling"
  bottom: "inception_3a/output"
  top: "inception_3b/pool"
  pooling_param {
    pool: MAX
    kernel_size: 3
    stride: 1
    pad: 1
  }
}
layer {
  name: "inception_3b/pool_proj"
  type: "Convolution"
  bottom: "inception_3b/pool"
  top: "inception_3b/pool_proj"
  param {
    lr_mult: 1
    decay_mult: 1
  }
  param {
    lr_mult: 2
    decay_mult: 0
  }
  convolution_param {
    num_output: 64
    kernel_size: 1
    weight_filler {
      type: "xavier"
      std: 0.1
    }
    bias_filler {
      type: "constant"
      value: 0.2
    }
  }
}
layer {
  name: "inception_3b/relu_pool_proj"
  type: "ReLU"
  bottom: "inception_3b/pool_proj"
  top: "inception_3b/pool_proj"
}
layer {
  name: "inception_3b/output"
  type: "Concat"
  bottom: "inception_3b/1x1"
  bottom: "inception_3b/3x3"
  bottom: "inception_3b/5x5"
  bottom: "inception_3b/pool_proj"
  top: "inception_3b/output"
}
layer {
  name: "pool3/3x3_s2"
  type: "Pooling"
  bottom: "inception_3b/output"
  top: "pool3/3x3_s2"
  pooling_param {
    pool: MAX
    kernel_size: 3
    stride: 2
  }
}
layer {
  name: "inception_4a/1x1"
  type: "Convolution"
  bottom: "pool3/3x3_s2"
  top: "inception_4a/1x1"
  param {
    lr_mult: 1
    decay_mult: 1
  }
  param {
    lr_mult: 2
    decay_mult: 0
  }
  convolution_param {
    num_output: 192
    kernel_size: 1
    weight_filler {
      type: "xavier"
      std: 0.03
    }
    bias_filler {
      type: "constant"
      value: 0.2
    }
  }
}
layer {
  name: "inception_4a/relu_1x1"
  type: "ReLU"
  bottom: "inception_4a/1x1"
  top: "inception_4a/1x1"
}
layer {
  name: "inception_4a/3x3_reduce"
  type: "Convolution"
  bottom: "pool3/3x3_s2"
  top: "inception_4a/3x3_reduce"
  param {
    lr_mult: 1
    decay_mult: 1
  }
  param {
    lr_mult: 2
    decay_mult: 0
  }
  convolution_param {
    num_output: 96
    kernel_size: 1
    weight_filler {
      type: "xavier"
      std: 0.09
    }
    bias_filler {
      type: "constant"
      value: 0.2
    }
  }
}
layer {
  name: "inception_4a/relu_3x3_reduce"
  type: "ReLU"
  bottom: "inception_4a/3x3_reduce"
  top: "inception_4a/3x3_reduce"
}
layer {
  name: "inception_4a/3x3"
  type: "Convolution"
  bottom: "inception_4a/3x3_reduce"
  top: "inception_4a/3x3"
  param {
    lr_mult: 1
    decay_mult: 1
  }
  param {
    lr_mult: 2
    decay_mult: 0
  }
  convolution_param {
    num_output: 208
    pad: 1
    kernel_size: 3
    weight_filler {
      type: "xavier"
      std: 0.03
    }
    bias_filler {
      type: "constant"
      value: 0.2
    }
  }
}
layer {
  name: "inception_4a/relu_3x3"
  type: "ReLU"
  bottom: "inception_4a/3x3"
  top: "inception_4a/3x3"
}
layer {
  name: "inception_4a/5x5_reduce"
  type: "Convolution"
  bottom: "pool3/3x3_s2"
  top: "inception_4a/5x5_reduce"
  param {
    lr_mult: 1
    decay_mult: 1
  }
  param {
    lr_mult: 2
    decay_mult: 0
  }
  convolution_param {
    num_output: 16
    kernel_size: 1
    weight_filler {
      type: "xavier"
      std: 0.2
    }
    bias_filler {
      type: "constant"
      value: 0.2
    }
  }
}
layer {
  name: "inception_4a/relu_5x5_reduce"
  type: "ReLU"
  bottom: "inception_4a/5x5_reduce"
  top: "inception_4a/5x5_reduce"
}
layer {
  name: "inception_4a/5x5"
  type: "Convolution"
  bottom: "inception_4a/5x5_reduce"
  top: "inception_4a/5x5"
  param {
    lr_mult: 1
    decay_mult: 1
  }
  param {
    lr_mult: 2
    decay_mult: 0
  }
  convolution_param {
    num_output: 48
    pad: 2
    kernel_size: 5
    weight_filler {
      type: "xavier"
      std: 0.03
    }
    bias_filler {
      type: "constant"
      value: 0.2
    }
  }
}
layer {
  name: "inception_4a/relu_5x5"
  type: "ReLU"
  bottom: "inception_4a/5x5"
  top: "inception_4a/5x5"
}
layer {
  name: "inception_4a/pool"
  type: "Pooling"
  bottom: "pool3/3x3_s2"
  top: "inception_4a/pool"
  pooling_param {
    pool: MAX
    kernel_size: 3
    stride: 1
    pad: 1
  }
}
layer {
  name: "inception_4a/pool_proj"
  type: "Convolution"
  bottom: "inception_4a/pool"
  top: "inception_4a/pool_proj"
  param {
    lr_mult: 1
    decay_mult: 1
  }
  param {
    lr_mult: 2
    decay_mult: 0
  }
  convolution_param {
    num_output: 64
    kernel_size: 1
    weight_filler {
      type: "xavier"
      std: 0.1
    }
    bias_filler {
      type: "constant"
      value: 0.2
    }
  }
}
layer {
  name: "inception_4a/relu_pool_proj"
  type: "ReLU"
  bottom: "inception_4a/pool_proj"
  top: "inception_4a/pool_proj"
}
layer {
  name: "inception_4a/output"
  type: "Concat"
  bottom: "inception_4a/1x1"
  bottom: "inception_4a/3x3"
  bottom: "inception_4a/5x5"
  bottom: "inception_4a/pool_proj"
  top: "inception_4a/output"
}
layer {
  name: "loss1/ave_pool"
  type: "Pooling"
  bottom: "inception_4a/output"
  top: "loss1/ave_pool"
  pooling_param {
    pool: AVE
    kernel_size: 5
    stride: 3
  }
}
layer {
  name: "loss1/conv"
  type: "Convolution"
  bottom: "loss1/ave_pool"
  top: "loss1/conv"
  param {
    lr_mult: 1
    decay_mult: 1
  }
  param {
    lr_mult: 2
    decay_mult: 0
  }
  convolution_param {
    num_output: 128
    kernel_size: 1
    weight_filler {
      type: "xavier"
      std: 0.08
    }
    bias_filler {
      type: "constant"
      value: 0.2
    }
  }
}
layer {
  name: "loss1/relu_conv"
  type: "ReLU"
  bottom: "loss1/conv"
  top: "loss1/conv"
}
layer {
  name: "loss1/fc"
  type: "InnerProduct"
  bottom: "loss1/conv"
  top: "loss1/fc"
  param {
    lr_mult: 1
    decay_mult: 1
  }
  param {
    lr_mult: 2
    decay_mult: 0
  }
  inner_product_param {
    num_output: 1024
    weight_filler {
      type: "xavier"
      std: 0.02
    }
    bias_filler {
      type: "constant"
      value: 0.2
    }
  }
}
layer {
  name: "loss1/relu_fc"
  type: "ReLU"
  bottom: "loss1/fc"
  top: "loss1/fc"
}
layer {
  name: "loss1/drop_fc"
  type: "Dropout"
  bottom: "loss1/fc"
  top: "loss1/fc"
  dropout_param {
    dropout_ratio: 0.7
  }
}
layer {
  name: "loss1/classifier_plantvillage"
  type: "InnerProduct"
  bottom: "loss1/fc"
  top: "loss1/classifier_plantvillage"
  param {
    lr_mult: 1
    decay_mult: 1
  }
  param {
    lr_mult: 2
    decay_mult: 0
  }
  inner_product_param {
    num_output: 38
    weight_filler {
      type: "xavier"
      std: 0.0009765625
    }
    bias_filler {
      type: "constant"
      value: 0
    }
  }
}
layer {
  name: "inception_4b/1x1"
  type: "Convolution"
  bottom: "inception_4a/output"
  top: "inception_4b/1x1"
  param {
    lr_mult: 1
    decay_mult: 1
  }
  param {
    lr_mult: 2
    decay_mult: 0
  }
  convolution_param {
    num_output: 160
    kernel_size: 1
    weight_filler {
      type: "xavier"
      std: 0.03
    }
    bias_filler {
      type: "constant"
      value: 0.2
    }
  }
}
layer {
  name: "inception_4b/relu_1x1"
  type: "ReLU"
  bottom: "inception_4b/1x1"
  top: "inception_4b/1x1"
}
layer {
  name: "inception_4b/3x3_reduce"
  type: "Convolution"
  bottom: "inception_4a/output"
  top: "inception_4b/3x3_reduce"
  param {
    lr_mult: 1
    decay_mult: 1
  }
  param {
    lr_mult: 2
    decay_mult: 0
  }
  convolution_param {
    num_output: 112
    kernel_size: 1
    weight_filler {
      type: "xavier"
      std: 0.09
    }
    bias_filler {
      type: "constant"
      value: 0.2
    }
  }
}
layer {
  name: "inception_4b/relu_3x3_reduce"
  type: "ReLU"
  bottom: "inception_4b/3x3_reduce"
  top: "inception_4b/3x3_reduce"
}
layer {
  name: "inception_4b/3x3"
  type: "Convolution"
  bottom: "inception_4b/3x3_reduce"
  top: "inception_4b/3x3"
  param {
    lr_mult: 1
    decay_mult: 1
  }
  param {
    lr_mult: 2
    decay_mult: 0
  }
  convolution_param {
    num_output: 224
    pad: 1
    kernel_size: 3
    weight_filler {
      type: "xavier"
      std: 0.03
    }
    bias_filler {
      type: "constant"
      value: 0.2
    }
  }
}
layer {
  name: "inception_4b/relu_3x3"
  type: "ReLU"
  bottom: "inception_4b/3x3"
  top: "inception_4b/3x3"
}
layer {
  name: "inception_4b/5x5_reduce"
  type: "Convolution"
  bottom: "inception_4a/output"
  top: "inception_4b/5x5_reduce"
  param {
    lr_mult: 1
    decay_mult: 1
  }
  param {
    lr_mult: 2
    decay_mult: 0
  }
  convolution_param {
    num_output: 24
    kernel_size: 1
    weight_filler {
      type: "xavier"
      std: 0.2
    }
    bias_filler {
      type: "constant"
      value: 0.2
    }
  }
}
layer {
  name: "inception_4b/relu_5x5_reduce"
  type: "ReLU"
  bottom: "inception_4b/5x5_reduce"
  top: "inception_4b/5x5_reduce"
}
layer {
  name: "inception_4b/5x5"
  type: "Convolution"
  bottom: "inception_4b/5x5_reduce"
  top: "inception_4b/5x5"
  param {
    lr_mult: 1
    decay_mult: 1
  }
  param {
    lr_mult: 2
    decay_mult: 0
  }
  convolution_param {
    num_output: 64
    pad: 2
    kernel_size: 5
    weight_filler {
      type: "xavier"
      std: 0.03
    }
    bias_filler {
      type: "constant"
      value: 0.2
    }
  }
}
layer {
  name: "inception_4b/relu_5x5"
  type: "ReLU"
  bottom: "inception_4b/5x5"
  top: "inception_4b/5x5"
}
layer {
  name: "inception_4b/pool"
  type: "Pooling"
  bottom: "inception_4a/output"
  top: "inception_4b/pool"
  pooling_param {
    pool: MAX
    kernel_size: 3
    stride: 1
    pad: 1
  }
}
layer {
  name: "inception_4b/pool_proj"
  type: "Convolution"
  bottom: "inception_4b/pool"
  top: "inception_4b/pool_proj"
  param {
    lr_mult: 1
    decay_mult: 1
  }
  param {
    lr_mult: 2
    decay_mult: 0
  }
  convolution_param {
    num_output: 64
    kernel_size: 1
    weight_filler {
      type: "xavier"
      std: 0.1
    }
    bias_filler {
      type: "constant"
      value: 0.2
    }
  }
}
layer {
  name: "inception_4b/relu_pool_proj"
  type: "ReLU"
  bottom: "inception_4b/pool_proj"
  top: "inception_4b/pool_proj"
}
layer {
  name: "inception_4b/output"
  type: "Concat"
  bottom: "inception_4b/1x1"
  bottom: "inception_4b/3x3"
  bottom: "inception_4b/5x5"
  bottom: "inception_4b/pool_proj"
  top: "inception_4b/output"
}
layer {
  name: "inception_4c/1x1"
  type: "Convolution"
  bottom: "inception_4b/output"
  top: "inception_4c/1x1"
  param {
    lr_mult: 1
    decay_mult: 1
  }
  param {
    lr_mult: 2
    decay_mult: 0
  }
  convolution_param {
    num_output: 128
    kernel_size: 1
    weight_filler {
      type: "xavier"
      std: 0.03
    }
    bias_filler {
      type: "constant"
      value: 0.2
    }
  }
}
layer {
  name: "inception_4c/relu_1x1"
  type: "ReLU"
  bottom: "inception_4c/1x1"
  top: "inception_4c/1x1"
}
layer {
  name: "inception_4c/3x3_reduce"
  type: "Convolution"
  bottom: "inception_4b/output"
  top: "inception_4c/3x3_reduce"
  param {
    lr_mult: 1
    decay_mult: 1
  }
  param {
    lr_mult: 2
    decay_mult: 0
  }
  convolution_param {
    num_output: 128
    kernel_size: 1
    weight_filler {
      type: "xavier"
      std: 0.09
    }
    bias_filler {
      type: "constant"
      value: 0.2
    }
  }
}
layer {
  name: "inception_4c/relu_3x3_reduce"
  type: "ReLU"
  bottom: "inception_4c/3x3_reduce"
  top: "inception_4c/3x3_reduce"
}
layer {
  name: "inception_4c/3x3"
  type: "Convolution"
  bottom: "inception_4c/3x3_reduce"
  top: "inception_4c/3x3"
  param {
    lr_mult: 1
    decay_mult: 1
  }
  param {
    lr_mult: 2
    decay_mult: 0
  }
  convolution_param {
    num_output: 256
    pad: 1
    kernel_size: 3
    weight_filler {
      type: "xavier"
      std: 0.03
    }
    bias_filler {
      type: "constant"
      value: 0.2
    }
  }
}
layer {
  name: "inception_4c/relu_3x3"
  type: "ReLU"
  bottom: "inception_4c/3x3"
  top: "inception_4c/3x3"
}
layer {
  name: "inception_4c/5x5_reduce"
  type: "Convolution"
  bottom: "inception_4b/output"
  top: "inception_4c/5x5_reduce"
  param {
    lr_mult: 1
    decay_mult: 1
  }
  param {
    lr_mult: 2
    decay_mult: 0
  }
  convolution_param {
    num_output: 24
    kernel_size: 1
    weight_filler {
      type: "xavier"
      std: 0.2
    }
    bias_filler {
      type: "constant"
      value: 0.2
    }
  }
}
layer {
  name: "inception_4c/relu_5x5_reduce"
  type: "ReLU"
  bottom: "inception_4c/5x5_reduce"
  top: "inception_4c/5x5_reduce"
}
layer {
  name: "inception_4c/5x5"
  type: "Convolution"
  bottom: "inception_4c/5x5_reduce"
  top: "inception_4c/5x5"
  param {
    lr_mult: 1
    decay_mult: 1
  }
  param {
    lr_mult: 2
    decay_mult: 0
  }
  convolution_param {
    num_output: 64
    pad: 2
    kernel_size: 5
    weight_filler {
      type: "xavier"
      std: 0.03
    }
    bias_filler {
      type: "constant"
      value: 0.2
    }
  }
}
layer {
  name: "inception_4c/relu_5x5"
  type: "ReLU"
  bottom: "inception_4c/5x5"
  top: "inception_4c/5x5"
}
layer {
  name: "inception_4c/pool"
  type: "Pooling"
  bottom: "inception_4b/output"
  top: "inception_4c/pool"
  pooling_param {
    pool: MAX
    kernel_size: 3
    stride: 1
    pad: 1
  }
}
layer {
  name: "inception_4c/pool_proj"
  type: "Convolution"
  bottom: "inception_4c/pool"
  top: "inception_4c/pool_proj"
  param {
    lr_mult: 1
    decay_mult: 1
  }
  param {
    lr_mult: 2
    decay_mult: 0
  }
  convolution_param {
    num_output: 64
    kernel_size: 1
    weight_filler {
      type: "xavier"
      std: 0.1
    }
    bias_filler {
      type: "constant"
      value: 0.2
    }
  }
}
layer {
  name: "inception_4c/relu_pool_proj"
  type: "ReLU"
  bottom: "inception_4c/pool_proj"
  top: "inception_4c/pool_proj"
}
layer {
  name: "inception_4c/output"
  type: "Concat"
  bottom: "inception_4c/1x1"
  bottom: "inception_4c/3x3"
  bottom: "inception_4c/5x5"
  bottom: "inception_4c/pool_proj"
  top: "inception_4c/output"
}
layer {
  name: "inception_4d/1x1"
  type: "Convolution"
  bottom: "inception_4c/output"
  top: "inception_4d/1x1"
  param {
    lr_mult: 1
    decay_mult: 1
  }
  param {
    lr_mult: 2
    decay_mult: 0
  }
  convolution_param {
    num_output: 112
    kernel_size: 1
    weight_filler {
      type: "xavier"
      std: 0.03
    }
    bias_filler {
      type: "constant"
      value: 0.2
    }
  }
}
layer {
  name: "inception_4d/relu_1x1"
  type: "ReLU"
  bottom: "inception_4d/1x1"
  top: "inception_4d/1x1"
}
layer {
  name: "inception_4d/3x3_reduce"
  type: "Convolution"
  bottom: "inception_4c/output"
  top: "inception_4d/3x3_reduce"
  param {
    lr_mult: 1
    decay_mult: 1
  }
  param {
    lr_mult: 2
    decay_mult: 0
  }
  convolution_param {
    num_output: 144
    kernel_size: 1
    weight_filler {
      type: "xavier"
      std: 0.09
    }
    bias_filler {
      type: "constant"
      value: 0.2
    }
  }
}
layer {
  name: "inception_4d/relu_3x3_reduce"
  type: "ReLU"
  bottom: "inception_4d/3x3_reduce"
  top: "inception_4d/3x3_reduce"
}
layer {
  name: "inception_4d/3x3"
  type: "Convolution"
  bottom: "inception_4d/3x3_reduce"
  top: "inception_4d/3x3"
  param {
    lr_mult: 1
    decay_mult: 1
  }
  param {
    lr_mult: 2
    decay_mult: 0
  }
  convolution_param {
    num_output: 288
    pad: 1
    kernel_size: 3
    weight_filler {
      type: "xavier"
      std: 0.03
    }
    bias_filler {
      type: "constant"
      value: 0.2
    }
  }
}
layer {
  name: "inception_4d/relu_3x3"
  type: "ReLU"
  bottom: "inception_4d/3x3"
  top: "inception_4d/3x3"
}
layer {
  name: "inception_4d/5x5_reduce"
  type: "Convolution"
  bottom: "inception_4c/output"
  top: "inception_4d/5x5_reduce"
  param {
    lr_mult: 1
    decay_mult: 1
  }
  param {
    lr_mult: 2
    decay_mult: 0
  }
  convolution_param {
    num_output: 32
    kernel_size: 1
    weight_filler {
      type: "xavier"
      std: 0.2
    }
    bias_filler {
      type: "constant"
      value: 0.2
    }
  }
}
layer {
  name: "inception_4d/relu_5x5_reduce"
  type: "ReLU"
  bottom: "inception_4d/5x5_reduce"
  top: "inception_4d/5x5_reduce"
}
layer {
  name: "inception_4d/5x5"
  type: "Convolution"
  bottom: "inception_4d/5x5_reduce"
  top: "inception_4d/5x5"
  param {
    lr_mult: 1
    decay_mult: 1
  }
  param {
    lr_mult: 2
    decay_mult: 0
  }
  convolution_param {
    num_output: 64
    pad: 2
    kernel_size: 5
    weight_filler {
      type: "xavier"
      std: 0.03
    }
    bias_filler {
      type: "constant"
      value: 0.2
    }
  }
}
layer {
  name: "inception_4d/relu_5x5"
  type: "ReLU"
  bottom: "inception_4d/5x5"
  top: "inception_4d/5x5"
}
layer {
  name: "inception_4d/pool"
  type: "Pooling"
  bottom: "inception_4c/output"
  top: "inception_4d/pool"
  pooling_param {
    pool: MAX
    kernel_size: 3
    stride: 1
    pad: 1
  }
}
layer {
  name: "inception_4d/pool_proj"
  type: "Convolution"
  bottom: "inception_4d/pool"
  top: "inception_4d/pool_proj"
  param {
    lr_mult: 1
    decay_mult: 1
  }
  param {
    lr_mult: 2
    decay_mult: 0
  }
  convolution_param {
    num_output: 64
    kernel_size: 1
    weight_filler {
      type: "xavier"
      std: 0.1
    }
    bias_filler {
      type: "constant"
      value: 0.2
    }
  }
}
layer {
  name: "inception_4d/relu_pool_proj"
  type: "ReLU"
  bottom: "inception_4d/pool_proj"
  top: "inception_4d/pool_proj"
}
layer {
  name: "inception_4d/output"
  type: "Concat"
  bottom: "inception_4d/1x1"
  bottom: "inception_4d/3x3"
  bottom: "inception_4d/5x5"
  bottom: "inception_4d/pool_proj"
  top: "inception_4d/output"
}
layer {
  name: "loss2/ave_pool"
  type: "Pooling"
  bottom: "inception_4d/output"
  top: "loss2/ave_pool"
  pooling_param {
    pool: AVE
    kernel_size: 5
    stride: 3
  }
}
layer {
  name: "loss2/conv"
  type: "Convolution"
  bottom: "loss2/ave_pool"
  top: "loss2/conv"
  param {
    lr_mult: 1
    decay_mult: 1
  }
  param {
    lr_mult: 2
    decay_mult: 0
  }
  convolution_param {
    num_output: 128
    kernel_size: 1
    weight_filler {
      type: "xavier"
      std: 0.08
    }
    bias_filler {
      type: "constant"
      value: 0.2
    }
  }
}
layer {
  name: "loss2/relu_conv"
  type: "ReLU"
  bottom: "loss2/conv"
  top: "loss2/conv"
}
layer {
  name: "loss2/fc"
  type: "InnerProduct"
  bottom: "loss2/conv"
  top: "loss2/fc"
  param {
    lr_mult: 1
    decay_mult: 1
  }
  param {
    lr_mult: 2
    decay_mult: 0
  }
  inner_product_param {
    num_output: 1024
    weight_filler {
      type: "xavier"
      std: 0.02
    }
    bias_filler {
      type: "constant"
      value: 0.2
    }
  }
}
layer {
  name: "loss2/relu_fc"
  type: "ReLU"
  bottom: "loss2/fc"
  top: "loss2/fc"
}
layer {
  name: "loss2/drop_fc"
  type: "Dropout"
  bottom: "loss2/fc"
  top: "loss2/fc"
  dropout_param {
    dropout_ratio: 0.7
  }
}
layer {
  name: "loss2/classifier_plantvillage"
  type: "InnerProduct"
  bottom: "loss2/fc"
  top: "loss2/classifier_plantvillage"
  param {
    lr_mult: 1
    decay_mult: 1
  }
  param {
    lr_mult: 2
    decay_mult: 0
  }
  inner_product_param {
    num_output: 38
    weight_filler {
      type: "xavier"
      std: 0.0009765625
    }
    bias_filler {
      type: "constant"
      value: 0
    }
  }
}
layer {
  name: "inception_4e/1x1"
  type: "Convolution"
  bottom: "inception_4d/output"
  top: "inception_4e/1x1"
  param {
    lr_mult: 1
    decay_mult: 1
  }
  param {
    lr_mult: 2
    decay_mult: 0
  }
  convolution_param {
    num_output: 256
    kernel_size: 1
    weight_filler {
      type: "xavier"
      std: 0.03
    }
    bias_filler {
      type: "constant"
      value: 0.2
    }
  }
}
layer {
  name: "inception_4e/relu_1x1"
  type: "ReLU"
  bottom: "inception_4e/1x1"
  top: "inception_4e/1x1"
}
layer {
  name: "inception_4e/3x3_reduce"
  type: "Convolution"
  bottom: "inception_4d/output"
  top: "inception_4e/3x3_reduce"
  param {
    lr_mult: 1
    decay_mult: 1
  }
  param {
    lr_mult: 2
    decay_mult: 0
  }
  convolution_param {
    num_output: 160
    kernel_size: 1
    weight_filler {
      type: "xavier"
      std: 0.09
    }
    bias_filler {
      type: "constant"
      value: 0.2
    }
  }
}
layer {
  name: "inception_4e/relu_3x3_reduce"
  type: "ReLU"
  bottom: "inception_4e/3x3_reduce"
  top: "inception_4e/3x3_reduce"
}
layer {
  name: "inception_4e/3x3"
  type: "Convolution"
  bottom: "inception_4e/3x3_reduce"
  top: "inception_4e/3x3"
  param {
    lr_mult: 1
    decay_mult: 1
  }
  param {
    lr_mult: 2
    decay_mult: 0
  }
  convolution_param {
    num_output: 320
    pad: 1
    kernel_size: 3
    weight_filler {
      type: "xavier"
      std: 0.03
    }
    bias_filler {
      type: "constant"
      value: 0.2
    }
  }
}
layer {
  name: "inception_4e/relu_3x3"
  type: "ReLU"
  bottom: "inception_4e/3x3"
  top: "inception_4e/3x3"
}
layer {
  name: "inception_4e/5x5_reduce"
  type: "Convolution"
  bottom: "inception_4d/output"
  top: "inception_4e/5x5_reduce"
  param {
    lr_mult: 1
    decay_mult: 1
  }
  param {
    lr_mult: 2
    decay_mult: 0
  }
  convolution_param {
    num_output: 32
    kernel_size: 1
    weight_filler {
      type: "xavier"
      std: 0.2
    }
    bias_filler {
      type: "constant"
      value: 0.2
    }
  }
}
layer {
  name: "inception_4e/relu_5x5_reduce"
  type: "ReLU"
  bottom: "inception_4e/5x5_reduce"
  top: "inception_4e/5x5_reduce"
}
layer {
  name: "inception_4e/5x5"
  type: "Convolution"
  bottom: "inception_4e/5x5_reduce"
  top: "inception_4e/
I0403 15:06:47.072448 31150 layer_factory.hpp:77] Creating layer data
I0403 15:06:47.073088 31150 net.cpp:91] Creating Layer data
I0403 15:06:47.073120 31150 net.cpp:399] data -> data
I0403 15:06:47.073180 31150 net.cpp:399] data -> label
I0403 15:06:47.073220 31150 data_transformer.cpp:25] Loading mean file from: /home/mohanty/data/final_dataset/lmdb/grayscale-80-20/mean.binaryproto
I0403 15:06:47.075908 31152 db_lmdb.cpp:38] Opened lmdb /home/mohanty/data/final_dataset/lmdb/grayscale-80-20/test_db
I0403 15:06:47.086974 31150 data_layer.cpp:41] output data size: 24,3,224,224
I0403 15:06:47.115197 31150 net.cpp:141] Setting up data
I0403 15:06:47.115283 31150 net.cpp:148] Top shape: 24 3 224 224 (3612672)
I0403 15:06:47.115309 31150 net.cpp:148] Top shape: 24 (24)
I0403 15:06:47.115324 31150 net.cpp:156] Memory required for data: 14450784
I0403 15:06:47.115355 31150 layer_factory.hpp:77] Creating layer label_data_1_split
I0403 15:06:47.115387 31150 net.cpp:91] Creating Layer label_data_1_split
I0403 15:06:47.115409 31150 net.cpp:425] label_data_1_split <- label
I0403 15:06:47.115445 31150 net.cpp:399] label_data_1_split -> label_data_1_split_0
I0403 15:06:47.115478 31150 net.cpp:399] label_data_1_split -> label_data_1_split_1
I0403 15:06:47.115499 31150 net.cpp:399] label_data_1_split -> label_data_1_split_2
I0403 15:06:47.115523 31150 net.cpp:399] label_data_1_split -> label_data_1_split_3
I0403 15:06:47.115551 31150 net.cpp:399] label_data_1_split -> label_data_1_split_4
I0403 15:06:47.115572 31150 net.cpp:399] label_data_1_split -> label_data_1_split_5
I0403 15:06:47.115592 31150 net.cpp:399] label_data_1_split -> label_data_1_split_6
I0403 15:06:47.115614 31150 net.cpp:399] label_data_1_split -> label_data_1_split_7
I0403 15:06:47.115633 31150 net.cpp:399] label_data_1_split -> label_data_1_split_8
I0403 15:06:47.115654 31150 net.cpp:399] label_data_1_split -> label_data_1_split_9
I0403 15:06:47.115774 31150 net.cpp:141] Setting up label_data_1_split
I0403 15:06:47.115798 31150 net.cpp:148] Top shape: 24 (24)
I0403 15:06:47.115816 31150 net.cpp:148] Top shape: 24 (24)
I0403 15:06:47.115833 31150 net.cpp:148] Top shape: 24 (24)
I0403 15:06:47.115849 31150 net.cpp:148] Top shape: 24 (24)
I0403 15:06:47.115864 31150 net.cpp:148] Top shape: 24 (24)
I0403 15:06:47.115880 31150 net.cpp:148] Top shape: 24 (24)
I0403 15:06:47.115895 31150 net.cpp:148] Top shape: 24 (24)
I0403 15:06:47.115911 31150 net.cpp:148] Top shape: 24 (24)
I0403 15:06:47.115927 31150 net.cpp:148] Top shape: 24 (24)
I0403 15:06:47.115944 31150 net.cpp:148] Top shape: 24 (24)
I0403 15:06:47.115993 31150 net.cpp:156] Memory required for data: 14451744
I0403 15:06:47.116008 31150 layer_factory.hpp:77] Creating layer conv1/7x7_s2
I0403 15:06:47.116044 31150 net.cpp:91] Creating Layer conv1/7x7_s2
I0403 15:06:47.116063 31150 net.cpp:425] conv1/7x7_s2 <- data
I0403 15:06:47.116083 31150 net.cpp:399] conv1/7x7_s2 -> conv1/7x7_s2
I0403 15:06:47.257915 31150 net.cpp:141] Setting up conv1/7x7_s2
I0403 15:06:47.258000 31150 net.cpp:148] Top shape: 24 64 112 112 (19267584)
I0403 15:06:47.258018 31150 net.cpp:156] Memory required for data: 91522080
I0403 15:06:47.258052 31150 layer_factory.hpp:77] Creating layer conv1/relu_7x7
I0403 15:06:47.258081 31150 net.cpp:91] Creating Layer conv1/relu_7x7
I0403 15:06:47.258100 31150 net.cpp:425] conv1/relu_7x7 <- conv1/7x7_s2
I0403 15:06:47.258126 31150 net.cpp:386] conv1/relu_7x7 -> conv1/7x7_s2 (in-place)
I0403 15:06:47.258388 31150 net.cpp:141] Setting up conv1/relu_7x7
I0403 15:06:47.258416 31150 net.cpp:148] Top shape: 24 64 112 112 (19267584)
I0403 15:06:47.258431 31150 net.cpp:156] Memory required for data: 168592416
I0403 15:06:47.258447 31150 layer_factory.hpp:77] Creating layer pool1/3x3_s2
I0403 15:06:47.258473 31150 net.cpp:91] Creating Layer pool1/3x3_s2
I0403 15:06:47.258491 31150 net.cpp:425] pool1/3x3_s2 <- conv1/7x7_s2
I0403 15:06:47.258510 31150 net.cpp:399] pool1/3x3_s2 -> pool1/3x3_s2
I0403 15:06:47.258599 31150 net.cpp:141] Setting up pool1/3x3_s2
I0403 15:06:47.258622 31150 net.cpp:148] Top shape: 24 64 56 56 (4816896)
I0403 15:06:47.258638 31150 net.cpp:156] Memory required for data: 187860000
I0403 15:06:47.258653 31150 layer_factory.hpp:77] Creating layer pool1/norm1
I0403 15:06:47.258678 31150 net.cpp:91] Creating Layer pool1/norm1
I0403 15:06:47.258695 31150 net.cpp:425] pool1/norm1 <- pool1/3x3_s2
I0403 15:06:47.258715 31150 net.cpp:399] pool1/norm1 -> pool1/norm1
I0403 15:06:47.259021 31150 net.cpp:141] Setting up pool1/norm1
I0403 15:06:47.259047 31150 net.cpp:148] Top shape: 24 64 56 56 (4816896)
I0403 15:06:47.259063 31150 net.cpp:156] Memory required for data: 207127584
I0403 15:06:47.259078 31150 layer_factory.hpp:77] Creating layer conv2/3x3_reduce
I0403 15:06:47.259105 31150 net.cpp:91] Creating Layer conv2/3x3_reduce
I0403 15:06:47.259122 31150 net.cpp:425] conv2/3x3_reduce <- pool1/norm1
I0403 15:06:47.259143 31150 net.cpp:399] conv2/3x3_reduce -> conv2/3x3_reduce
I0403 15:06:47.260541 31150 net.cpp:141] Setting up conv2/3x3_reduce
I0403 15:06:47.260586 31150 net.cpp:148] Top shape: 24 64 56 56 (4816896)
I0403 15:06:47.260602 31150 net.cpp:156] Memory required for data: 226395168
I0403 15:06:47.260624 31150 layer_factory.hpp:77] Creating layer conv2/relu_3x3_reduce
I0403 15:06:47.260648 31150 net.cpp:91] Creating Layer conv2/relu_3x3_reduce
I0403 15:06:47.260665 31150 net.cpp:425] conv2/relu_3x3_reduce <- conv2/3x3_reduce
I0403 15:06:47.260686 31150 net.cpp:386] conv2/relu_3x3_reduce -> conv2/3x3_reduce (in-place)
I0403 15:06:47.260960 31150 net.cpp:141] Setting up conv2/relu_3x3_reduce
I0403 15:06:47.260990 31150 net.cpp:148] Top shape: 24 64 56 56 (4816896)
I0403 15:06:47.261006 31150 net.cpp:156] Memory required for data: 245662752
I0403 15:06:47.261023 31150 layer_factory.hpp:77] Creating layer conv2/3x3
I0403 15:06:47.261049 31150 net.cpp:91] Creating Layer conv2/3x3
I0403 15:06:47.261066 31150 net.cpp:425] conv2/3x3 <- conv2/3x3_reduce
I0403 15:06:47.261085 31150 net.cpp:399] conv2/3x3 -> conv2/3x3
I0403 15:06:47.263450 31150 net.cpp:141] Setting up conv2/3x3
I0403 15:06:47.263484 31150 net.cpp:148] Top shape: 24 192 56 56 (14450688)
I0403 15:06:47.263502 31150 net.cpp:156] Memory required for data: 303465504
I0403 15:06:47.263525 31150 layer_factory.hpp:77] Creating layer conv2/relu_3x3
I0403 15:06:47.263550 31150 net.cpp:91] Creating Layer conv2/relu_3x3
I0403 15:06:47.263571 31150 net.cpp:425] conv2/relu_3x3 <- conv2/3x3
I0403 15:06:47.263592 31150 net.cpp:386] conv2/relu_3x3 -> conv2/3x3 (in-place)
I0403 15:06:47.263777 31150 net.cpp:141] Setting up conv2/relu_3x3
I0403 15:06:47.263803 31150 net.cpp:148] Top shape: 24 192 56 56 (14450688)
I0403 15:06:47.263859 31150 net.cpp:156] Memory required for data: 361268256
I0403 15:06:47.263875 31150 layer_factory.hpp:77] Creating layer conv2/norm2
I0403 15:06:47.263897 31150 net.cpp:91] Creating Layer conv2/norm2
I0403 15:06:47.263916 31150 net.cpp:425] conv2/norm2 <- conv2/3x3
I0403 15:06:47.263936 31150 net.cpp:399] conv2/norm2 -> conv2/norm2
I0403 15:06:47.264253 31150 net.cpp:141] Setting up conv2/norm2
I0403 15:06:47.264281 31150 net.cpp:148] Top shape: 24 192 56 56 (14450688)
I0403 15:06:47.264297 31150 net.cpp:156] Memory required for data: 419071008
I0403 15:06:47.264312 31150 layer_factory.hpp:77] Creating layer pool2/3x3_s2
I0403 15:06:47.264333 31150 net.cpp:91] Creating Layer pool2/3x3_s2
I0403 15:06:47.264349 31150 net.cpp:425] pool2/3x3_s2 <- conv2/norm2
I0403 15:06:47.264366 31150 net.cpp:399] pool2/3x3_s2 -> pool2/3x3_s2
I0403 15:06:47.264418 31150 net.cpp:141] Setting up pool2/3x3_s2
I0403 15:06:47.264441 31150 net.cpp:148] Top shape: 24 192 28 28 (3612672)
I0403 15:06:47.264456 31150 net.cpp:156] Memory required for data: 433521696
I0403 15:06:47.264469 31150 layer_factory.hpp:77] Creating layer pool2/3x3_s2_pool2/3x3_s2_0_split
I0403 15:06:47.264485 31150 net.cpp:91] Creating Layer pool2/3x3_s2_pool2/3x3_s2_0_split
I0403 15:06:47.264500 31150 net.cpp:425] pool2/3x3_s2_pool2/3x3_s2_0_split <- pool2/3x3_s2
I0403 15:06:47.264519 31150 net.cpp:399] pool2/3x3_s2_pool2/3x3_s2_0_split -> pool2/3x3_s2_pool2/3x3_s2_0_split_0
I0403 15:06:47.264550 31150 net.cpp:399] pool2/3x3_s2_pool2/3x3_s2_0_split -> pool2/3x3_s2_pool2/3x3_s2_0_split_1
I0403 15:06:47.264575 31150 net.cpp:399] pool2/3x3_s2_pool2/3x3_s2_0_split -> pool2/3x3_s2_pool2/3x3_s2_0_split_2
I0403 15:06:47.264595 31150 net.cpp:399] pool2/3x3_s2_pool2/3x3_s2_0_split -> pool2/3x3_s2_pool2/3x3_s2_0_split_3
I0403 15:06:47.264665 31150 net.cpp:141] Setting up pool2/3x3_s2_pool2/3x3_s2_0_split
I0403 15:06:47.264688 31150 net.cpp:148] Top shape: 24 192 28 28 (3612672)
I0403 15:06:47.264703 31150 net.cpp:148] Top shape: 24 192 28 28 (3612672)
I0403 15:06:47.264719 31150 net.cpp:148] Top shape: 24 192 28 28 (3612672)
I0403 15:06:47.264734 31150 net.cpp:148] Top shape: 24 192 28 28 (3612672)
I0403 15:06:47.264747 31150 net.cpp:156] Memory required for data: 491324448
I0403 15:06:47.264762 31150 layer_factory.hpp:77] Creating layer inception_3a/1x1
I0403 15:06:47.264785 31150 net.cpp:91] Creating Layer inception_3a/1x1
I0403 15:06:47.264801 31150 net.cpp:425] inception_3a/1x1 <- pool2/3x3_s2_pool2/3x3_s2_0_split_0
I0403 15:06:47.264822 31150 net.cpp:399] inception_3a/1x1 -> inception_3a/1x1
I0403 15:06:47.266356 31150 net.cpp:141] Setting up inception_3a/1x1
I0403 15:06:47.266387 31150 net.cpp:148] Top shape: 24 64 28 28 (1204224)
I0403 15:06:47.266404 31150 net.cpp:156] Memory required for data: 496141344
I0403 15:06:47.266422 31150 layer_factory.hpp:77] Creating layer inception_3a/relu_1x1
I0403 15:06:47.266441 31150 net.cpp:91] Creating Layer inception_3a/relu_1x1
I0403 15:06:47.266466 31150 net.cpp:425] inception_3a/relu_1x1 <- inception_3a/1x1
I0403 15:06:47.266484 31150 net.cpp:386] inception_3a/relu_1x1 -> inception_3a/1x1 (in-place)
I0403 15:06:47.266662 31150 net.cpp:141] Setting up inception_3a/relu_1x1
I0403 15:06:47.266690 31150 net.cpp:148] Top shape: 24 64 28 28 (1204224)
I0403 15:06:47.266705 31150 net.cpp:156] Memory required for data: 500958240
I0403 15:06:47.266719 31150 layer_factory.hpp:77] Creating layer inception_3a/3x3_reduce
I0403 15:06:47.266742 31150 net.cpp:91] Creating Layer inception_3a/3x3_reduce
I0403 15:06:47.266760 31150 net.cpp:425] inception_3a/3x3_reduce <- pool2/3x3_s2_pool2/3x3_s2_0_split_1
I0403 15:06:47.266784 31150 net.cpp:399] inception_3a/3x3_reduce -> inception_3a/3x3_reduce
I0403 15:06:47.268453 31150 net.cpp:141] Setting up inception_3a/3x3_reduce
I0403 15:06:47.268486 31150 net.cpp:148] Top shape: 24 96 28 28 (1806336)
I0403 15:06:47.268501 31150 net.cpp:156] Memory required for data: 508183584
I0403 15:06:47.268522 31150 layer_factory.hpp:77] Creating layer inception_3a/relu_3x3_reduce
I0403 15:06:47.268561 31150 net.cpp:91] Creating Layer inception_3a/relu_3x3_reduce
I0403 15:06:47.268580 31150 net.cpp:425] inception_3a/relu_3x3_reduce <- inception_3a/3x3_reduce
I0403 15:06:47.268600 31150 net.cpp:386] inception_3a/relu_3x3_reduce -> inception_3a/3x3_reduce (in-place)
I0403 15:06:47.268780 31150 net.cpp:141] Setting up inception_3a/relu_3x3_reduce
I0403 15:06:47.268805 31150 net.cpp:148] Top shape: 24 96 28 28 (1806336)
I0403 15:06:47.268821 31150 net.cpp:156] Memory required for data: 515408928
I0403 15:06:47.268836 31150 layer_factory.hpp:77] Creating layer inception_3a/3x3
I0403 15:06:47.268857 31150 net.cpp:91] Creating Layer inception_3a/3x3
I0403 15:06:47.268875 31150 net.cpp:425] inception_3a/3x3 <- inception_3a/3x3_reduce
I0403 15:06:47.268894 31150 net.cpp:399] inception_3a/3x3 -> inception_3a/3x3
I0403 15:06:47.270540 31150 net.cpp:141] Setting up inception_3a/3x3
I0403 15:06:47.270570 31150 net.cpp:148] Top shape: 24 128 28 28 (2408448)
I0403 15:06:47.270586 31150 net.cpp:156] Memory required for data: 525042720
I0403 15:06:47.270603 31150 layer_factory.hpp:77] Creating layer inception_3a/relu_3x3
I0403 15:06:47.270622 31150 net.cpp:91] Creating Layer inception_3a/relu_3x3
I0403 15:06:47.270637 31150 net.cpp:425] inception_3a/relu_3x3 <- inception_3a/3x3
I0403 15:06:47.270658 31150 net.cpp:386] inception_3a/relu_3x3 -> inception_3a/3x3 (in-place)
I0403 15:06:47.270932 31150 net.cpp:141] Setting up inception_3a/relu_3x3
I0403 15:06:47.270959 31150 net.cpp:148] Top shape: 24 128 28 28 (2408448)
I0403 15:06:47.270974 31150 net.cpp:156] Memory required for data: 534676512
I0403 15:06:47.270988 31150 layer_factory.hpp:77] Creating layer inception_3a/5x5_reduce
I0403 15:06:47.271011 31150 net.cpp:91] Creating Layer inception_3a/5x5_reduce
I0403 15:06:47.271028 31150 net.cpp:425] inception_3a/5x5_reduce <- pool2/3x3_s2_pool2/3x3_s2_0_split_2
I0403 15:06:47.271049 31150 net.cpp:399] inception_3a/5x5_reduce -> inception_3a/5x5_reduce
I0403 15:06:47.272006 31150 net.cpp:141] Setting up inception_3a/5x5_reduce
I0403 15:06:47.272033 31150 net.cpp:148] Top shape: 24 16 28 28 (301056)
I0403 15:06:47.272048 31150 net.cpp:156] Memory required for data: 535880736
I0403 15:06:47.272066 31150 layer_factory.hpp:77] Creating layer inception_3a/relu_5x5_reduce
I0403 15:06:47.272085 31150 net.cpp:91] Creating Layer inception_3a/relu_5x5_reduce
I0403 15:06:47.272101 31150 net.cpp:425] inception_3a/relu_5x5_reduce <- inception_3a/5x5_reduce
I0403 15:06:47.272120 31150 net.cpp:386] inception_3a/relu_5x5_reduce -> inception_3a/5x5_reduce (in-place)
I0403 15:06:47.272420 31150 net.cpp:141] Setting up inception_3a/relu_5x5_reduce
I0403 15:06:47.272446 31150 net.cpp:148] Top shape: 24 16 28 28 (301056)
I0403 15:06:47.272461 31150 net.cpp:156] Memory required for data: 537084960
I0403 15:06:47.272476 31150 layer_factory.hpp:77] Creating layer inception_3a/5x5
I0403 15:06:47.272498 31150 net.cpp:91] Creating Layer inception_3a/5x5
I0403 15:06:47.272516 31150 net.cpp:425] inception_3a/5x5 <- inception_3a/5x5_reduce
I0403 15:06:47.272542 31150 net.cpp:399] inception_3a/5x5 -> inception_3a/5x5
I0403 15:06:47.273538 31150 net.cpp:141] Setting up inception_3a/5x5
I0403 15:06:47.273571 31150 net.cpp:148] Top shape: 24 32 28 28 (602112)
I0403 15:06:47.273587 31150 net.cpp:156] Memory required for data: 539493408
I0403 15:06:47.273605 31150 layer_factory.hpp:77] Creating layer inception_3a/relu_5x5
I0403 15:06:47.273623 31150 net.cpp:91] Creating Layer inception_3a/relu_5x5
I0403 15:06:47.273639 31150 net.cpp:425] inception_3a/relu_5x5 <- inception_3a/5x5
I0403 15:06:47.273656 31150 net.cpp:386] inception_3a/relu_5x5 -> inception_3a/5x5 (in-place)
I0403 15:06:47.273829 31150 net.cpp:141] Setting up inception_3a/relu_5x5
I0403 15:06:47.273854 31150 net.cpp:148] Top shape: 24 32 28 28 (602112)
I0403 15:06:47.273869 31150 net.cpp:156] Memory required for data: 541901856
I0403 15:06:47.273882 31150 layer_factory.hpp:77] Creating layer inception_3a/pool
I0403 15:06:47.273900 31150 net.cpp:91] Creating Layer inception_3a/pool
I0403 15:06:47.273929 31150 net.cpp:425] inception_3a/pool <- pool2/3x3_s2_pool2/3x3_s2_0_split_3
I0403 15:06:47.273950 31150 net.cpp:399] inception_3a/pool -> inception_3a/pool
I0403 15:06:47.274006 31150 net.cpp:141] Setting up inception_3a/pool
I0403 15:06:47.274031 31150 net.cpp:148] Top shape: 24 192 28 28 (3612672)
I0403 15:06:47.274045 31150 net.cpp:156] Memory required for data: 556352544
I0403 15:06:47.274060 31150 layer_factory.hpp:77] Creating layer inception_3a/pool_proj
I0403 15:06:47.274082 31150 net.cpp:91] Creating Layer inception_3a/pool_proj
I0403 15:06:47.274099 31150 net.cpp:425] inception_3a/pool_proj <- inception_3a/pool
I0403 15:06:47.274117 31150 net.cpp:399] inception_3a/pool_proj -> inception_3a/pool_proj
I0403 15:06:47.275079 31150 net.cpp:141] Setting up inception_3a/pool_proj
I0403 15:06:47.275107 31150 net.cpp:148] Top shape: 24 32 28 28 (602112)
I0403 15:06:47.275123 31150 net.cpp:156] Memory required for data: 558760992
I0403 15:06:47.275147 31150 layer_factory.hpp:77] Creating layer inception_3a/relu_pool_proj
I0403 15:06:47.275167 31150 net.cpp:91] Creating Layer inception_3a/relu_pool_proj
I0403 15:06:47.275183 31150 net.cpp:425] inception_3a/relu_pool_proj <- inception_3a/pool_proj
I0403 15:06:47.275213 31150 net.cpp:386] inception_3a/relu_pool_proj -> inception_3a/pool_proj (in-place)
I0403 15:06:47.275496 31150 net.cpp:141] Setting up inception_3a/relu_pool_proj
I0403 15:06:47.275524 31150 net.cpp:148] Top shape: 24 32 28 28 (602112)
I0403 15:06:47.275545 31150 net.cpp:156] Memory required for data: 561169440
I0403 15:06:47.275560 31150 layer_factory.hpp:77] Creating layer inception_3a/output
I0403 15:06:47.275581 31150 net.cpp:91] Creating Layer inception_3a/output
I0403 15:06:47.275598 31150 net.cpp:425] inception_3a/output <- inception_3a/1x1
I0403 15:06:47.275614 31150 net.cpp:425] inception_3a/output <- inception_3a/3x3
I0403 15:06:47.275629 31150 net.cpp:425] inception_3a/output <- inception_3a/5x5
I0403 15:06:47.275645 31150 net.cpp:425] inception_3a/output <- inception_3a/pool_proj
I0403 15:06:47.275666 31150 net.cpp:399] inception_3a/output -> inception_3a/output
I0403 15:06:47.275722 31150 net.cpp:141] Setting up inception_3a/output
I0403 15:06:47.275765 31150 net.cpp:148] Top shape: 24 256 28 28 (4816896)
I0403 15:06:47.275805 31150 net.cpp:156] Memory required for data: 580437024
I0403 15:06:47.275849 31150 layer_factory.hpp:77] Creating layer inception_3a/output_inception_3a/output_0_split
I0403 15:06:47.275893 31150 net.cpp:91] Creating Layer inception_3a/output_inception_3a/output_0_split
I0403 15:06:47.275934 31150 net.cpp:425] inception_3a/output_inception_3a/output_0_split <- inception_3a/output
I0403 15:06:47.275984 31150 net.cpp:399] inception_3a/output_inception_3a/output_0_split -> inception_3a/output_inception_3a/output_0_split_0
I0403 15:06:47.276003 31150 net.cpp:399] inception_3a/output_inception_3a/output_0_split -> inception_3a/output_inception_3a/output_0_split_1
I0403 15:06:47.276027 31150 net.cpp:399] inception_3a/output_inception_3a/output_0_split -> inception_3a/output_inception_3a/output_0_split_2
I0403 15:06:47.276047 31150 net.cpp:399] inception_3a/output_inception_3a/output_0_split -> inception_3a/output_inception_3a/output_0_split_3
I0403 15:06:47.276123 31150 net.cpp:141] Setting up inception_3a/output_inception_3a/output_0_split
I0403 15:06:47.276145 31150 net.cpp:148] Top shape: 24 256 28 28 (4816896)
I0403 15:06:47.276160 31150 net.cpp:148] Top shape: 24 256 28 28 (4816896)
I0403 15:06:47.276175 31150 net.cpp:148] Top shape: 24 256 28 28 (4816896)
I0403 15:06:47.276199 31150 net.cpp:148] Top shape: 24 256 28 28 (4816896)
I0403 15:06:47.276213 31150 net.cpp:156] Memory required for data: 657507360
I0403 15:06:47.276227 31150 layer_factory.hpp:77] Creating layer inception_3b/1x1
I0403 15:06:47.276250 31150 net.cpp:91] Creating Layer inception_3b/1x1
I0403 15:06:47.276268 31150 net.cpp:425] inception_3b/1x1 <- inception_3a/output_inception_3a/output_0_split_0
I0403 15:06:47.276285 31150 net.cpp:399] inception_3b/1x1 -> inception_3b/1x1
I0403 15:06:47.277413 31150 net.cpp:141] Setting up inception_3b/1x1
I0403 15:06:47.277452 31150 net.cpp:148] Top shape: 24 128 28 28 (2408448)
I0403 15:06:47.277468 31150 net.cpp:156] Memory required for data: 667141152
I0403 15:06:47.277487 31150 layer_factory.hpp:77] Creating layer inception_3b/relu_1x1
I0403 15:06:47.277509 31150 net.cpp:91] Creating Layer inception_3b/relu_1x1
I0403 15:06:47.277526 31150 net.cpp:425] inception_3b/relu_1x1 <- inception_3b/1x1
I0403 15:06:47.277549 31150 net.cpp:386] inception_3b/relu_1x1 -> inception_3b/1x1 (in-place)
I0403 15:06:47.277725 31150 net.cpp:141] Setting up inception_3b/relu_1x1
I0403 15:06:47.277750 31150 net.cpp:148] Top shape: 24 128 28 28 (2408448)
I0403 15:06:47.277765 31150 net.cpp:156] Memory required for data: 676774944
I0403 15:06:47.277778 31150 layer_factory.hpp:77] Creating layer inception_3b/3x3_reduce
I0403 15:06:47.277801 31150 net.cpp:91] Creating Layer inception_3b/3x3_reduce
I0403 15:06:47.277818 31150 net.cpp:425] inception_3b/3x3_reduce <- inception_3a/output_inception_3a/output_0_split_1
I0403 15:06:47.277840 31150 net.cpp:399] inception_3b/3x3_reduce -> inception_3b/3x3_reduce
I0403 15:06:47.278961 31150 net.cpp:141] Setting up inception_3b/3x3_reduce
I0403 15:06:47.278988 31150 net.cpp:148] Top shape: 24 128 28 28 (2408448)
I0403 15:06:47.279005 31150 net.cpp:156] Memory required for data: 686408736
I0403 15:06:47.279022 31150 layer_factory.hpp:77] Creating layer inception_3b/relu_3x3_reduce
I0403 15:06:47.279045 31150 net.cpp:91] Creating Layer inception_3b/relu_3x3_reduce
I0403 15:06:47.279062 31150 net.cpp:425] inception_3b/relu_3x3_reduce <- inception_3b/3x3_reduce
I0403 15:06:47.279078 31150 net.cpp:386] inception_3b/relu_3x3_reduce -> inception_3b/3x3_reduce (in-place)
I0403 15:06:47.279249 31150 net.cpp:141] Setting up inception_3b/relu_3x3_reduce
I0403 15:06:47.279276 31150 net.cpp:148] Top shape: 24 128 28 28 (2408448)
I0403 15:06:47.279291 31150 net.cpp:156] Memory required for data: 696042528
I0403 15:06:47.279305 31150 layer_factory.hpp:77] Creating layer inception_3b/3x3
I0403 15:06:47.279330 31150 net.cpp:91] Creating Layer inception_3b/3x3
I0403 15:06:47.279348 31150 net.cpp:425] inception_3b/3x3 <- inception_3b/3x3_reduce
I0403 15:06:47.279369 31150 net.cpp:399] inception_3b/3x3 -> inception_3b/3x3
I0403 15:06:47.282263 31150 net.cpp:141] Setting up inception_3b/3x3
I0403 15:06:47.282291 31150 net.cpp:148] Top shape: 24 192 28 28 (3612672)
I0403 15:06:47.282306 31150 net.cpp:156] Memory required for data: 710493216
I0403 15:06:47.282325 31150 layer_factory.hpp:77] Creating layer inception_3b/relu_3x3
I0403 15:06:47.282341 31150 net.cpp:91] Creating Layer inception_3b/relu_3x3
I0403 15:06:47.282356 31150 net.cpp:425] inception_3b/relu_3x3 <- inception_3b/3x3
I0403 15:06:47.282376 31150 net.cpp:386] inception_3b/relu_3x3 -> inception_3b/3x3 (in-place)
I0403 15:06:47.282646 31150 net.cpp:141] Setting up inception_3b/relu_3x3
I0403 15:06:47.282673 31150 net.cpp:148] Top shape: 24 192 28 28 (3612672)
I0403 15:06:47.282688 31150 net.cpp:156] Memory required for data: 724943904
I0403 15:06:47.282702 31150 layer_factory.hpp:77] Creating layer inception_3b/5x5_reduce
I0403 15:06:47.282724 31150 net.cpp:91] Creating Layer inception_3b/5x5_reduce
I0403 15:06:47.282742 31150 net.cpp:425] inception_3b/5x5_reduce <- inception_3a/output_inception_3a/output_0_split_2
I0403 15:06:47.282763 31150 net.cpp:399] inception_3b/5x5_reduce -> inception_3b/5x5_reduce
I0403 15:06:47.283720 31150 net.cpp:141] Setting up inception_3b/5x5_reduce
I0403 15:06:47.283748 31150 net.cpp:148] Top shape: 24 32 28 28 (602112)
I0403 15:06:47.283764 31150 net.cpp:156] Memory required for data: 727352352
I0403 15:06:47.283782 31150 layer_factory.hpp:77] Creating layer inception_3b/relu_5x5_reduce
I0403 15:06:47.283800 31150 net.cpp:91] Creating Layer inception_3b/relu_5x5_reduce
I0403 15:06:47.283815 31150 net.cpp:425] inception_3b/relu_5x5_reduce <- inception_3b/5x5_reduce
I0403 15:06:47.283831 31150 net.cpp:386] inception_3b/relu_5x5_reduce -> inception_3b/5x5_reduce (in-place)
I0403 15:06:47.284018 31150 net.cpp:141] Setting up inception_3b/relu_5x5_reduce
I0403 15:06:47.284042 31150 net.cpp:148] Top shape: 24 32 28 28 (602112)
I0403 15:06:47.284057 31150 net.cpp:156] Memory required for data: 729760800
I0403 15:06:47.284071 31150 layer_factory.hpp:77] Creating layer inception_3b/5x5
I0403 15:06:47.284092 31150 net.cpp:91] Creating Layer inception_3b/5x5
I0403 15:06:47.284108 31150 net.cpp:425] inception_3b/5x5 <- inception_3b/5x5_reduce
I0403 15:06:47.284131 31150 net.cpp:399] inception_3b/5x5 -> inception_3b/5x5
I0403 15:06:47.286047 31150 net.cpp:141] Setting up inception_3b/5x5
I0403 15:06:47.286074 31150 net.cpp:148] Top shape: 24 96 28 28 (1806336)
I0403 15:06:47.286089 31150 net.cpp:156] Memory required for data: 736986144
I0403 15:06:47.286108 31150 layer_factory.hpp:77] Creating layer inception_3b/relu_5x5
I0403 15:06:47.286128 31150 net.cpp:91] Creating Layer inception_3b/relu_5x5
I0403 15:06:47.286142 31150 net.cpp:425] inception_3b/relu_5x5 <- inception_3b/5x5
I0403 15:06:47.286159 31150 net.cpp:386] inception_3b/relu_5x5 -> inception_3b/5x5 (in-place)
I0403 15:06:47.286358 31150 net.cpp:141] Setting up inception_3b/relu_5x5
I0403 15:06:47.286383 31150 net.cpp:148] Top shape: 24 96 28 28 (1806336)
I0403 15:06:47.286398 31150 net.cpp:156] Memory required for data: 744211488
I0403 15:06:47.286412 31150 layer_factory.hpp:77] Creating layer inception_3b/pool
I0403 15:06:47.286430 31150 net.cpp:91] Creating Layer inception_3b/pool
I0403 15:06:47.286445 31150 net.cpp:425] inception_3b/pool <- inception_3a/output_inception_3a/output_0_split_3
I0403 15:06:47.286463 31150 net.cpp:399] inception_3b/pool -> inception_3b/pool
I0403 15:06:47.286517 31150 net.cpp:141] Setting up inception_3b/pool
I0403 15:06:47.286556 31150 net.cpp:148] Top shape: 24 256 28 28 (4816896)
I0403 15:06:47.286572 31150 net.cpp:156] Memory required for data: 763479072
I0403 15:06:47.286586 31150 layer_factory.hpp:77] Creating layer inception_3b/pool_proj
I0403 15:06:47.286607 31150 net.cpp:91] Creating Layer inception_3b/pool_proj
I0403 15:06:47.286624 31150 net.cpp:425] inception_3b/pool_proj <- inception_3b/pool
I0403 15:06:47.286643 31150 net.cpp:399] inception_3b/pool_proj -> inception_3b/pool_proj
I0403 15:06:47.287674 31150 net.cpp:141] Setting up inception_3b/pool_proj
I0403 15:06:47.287701 31150 net.cpp:148] Top shape: 24 64 28 28 (1204224)
I0403 15:06:47.287716 31150 net.cpp:156] Memory required for data: 768295968
I0403 15:06:47.287734 31150 layer_factory.hpp:77] Creating layer inception_3b/relu_pool_proj
I0403 15:06:47.287755 31150 net.cpp:91] Creating Layer inception_3b/relu_pool_proj
I0403 15:06:47.287770 31150 net.cpp:425] inception_3b/relu_pool_proj <- inception_3b/pool_proj
I0403 15:06:47.287787 31150 net.cpp:386] inception_3b/relu_pool_proj -> inception_3b/pool_proj (in-place)
I0403 15:06:47.288179 31150 net.cpp:141] Setting up inception_3b/relu_pool_proj
I0403 15:06:47.288204 31150 net.cpp:148] Top shape: 24 64 28 28 (1204224)
I0403 15:06:47.288219 31150 net.cpp:156] Memory required for data: 773112864
I0403 15:06:47.288234 31150 layer_factory.hpp:77] Creating layer inception_3b/output
I0403 15:06:47.288250 31150 net.cpp:91] Creating Layer inception_3b/output
I0403 15:06:47.288264 31150 net.cpp:425] inception_3b/output <- inception_3b/1x1
I0403 15:06:47.288280 31150 net.cpp:425] inception_3b/output <- inception_3b/3x3
I0403 15:06:47.288296 31150 net.cpp:425] inception_3b/output <- inception_3b/5x5
I0403 15:06:47.288311 31150 net.cpp:425] inception_3b/output <- inception_3b/pool_proj
I0403 15:06:47.288329 31150 net.cpp:399] inception_3b/output -> inception_3b/output
I0403 15:06:47.288370 31150 net.cpp:141] Setting up inception_3b/output
I0403 15:06:47.288395 31150 net.cpp:148] Top shape: 24 480 28 28 (9031680)
I0403 15:06:47.288410 31150 net.cpp:156] Memory required for data: 809239584
I0403 15:06:47.288424 31150 layer_factory.hpp:77] Creating layer pool3/3x3_s2
I0403 15:06:47.288441 31150 net.cpp:91] Creating Layer pool3/3x3_s2
I0403 15:06:47.288456 31150 net.cpp:425] pool3/3x3_s2 <- inception_3b/output
I0403 15:06:47.288487 31150 net.cpp:399] pool3/3x3_s2 -> pool3/3x3_s2
I0403 15:06:47.288549 31150 net.cpp:141] Setting up pool3/3x3_s2
I0403 15:06:47.288573 31150 net.cpp:148] Top shape: 24 480 14 14 (2257920)
I0403 15:06:47.288586 31150 net.cpp:156] Memory required for data: 818271264
I0403 15:06:47.288600 31150 layer_factory.hpp:77] Creating layer pool3/3x3_s2_pool3/3x3_s2_0_split
I0403 15:06:47.288619 31150 net.cpp:91] Creating Layer pool3/3x3_s2_pool3/3x3_s2_0_split
I0403 15:06:47.288635 31150 net.cpp:425] pool3/3x3_s2_pool3/3x3_s2_0_split <- pool3/3x3_s2
I0403 15:06:47.288651 31150 net.cpp:399] pool3/3x3_s2_pool3/3x3_s2_0_split -> pool3/3x3_s2_pool3/3x3_s2_0_split_0
I0403 15:06:47.288669 31150 net.cpp:399] pool3/3x3_s2_pool3/3x3_s2_0_split -> pool3/3x3_s2_pool3/3x3_s2_0_split_1
I0403 15:06:47.288688 31150 net.cpp:399] pool3/3x3_s2_pool3/3x3_s2_0_split -> pool3/3x3_s2_pool3/3x3_s2_0_split_2
I0403 15:06:47.288718 31150 net.cpp:399] pool3/3x3_s2_pool3/3x3_s2_0_split -> pool3/3x3_s2_pool3/3x3_s2_0_split_3
I0403 15:06:47.288792 31150 net.cpp:141] Setting up pool3/3x3_s2_pool3/3x3_s2_0_split
I0403 15:06:47.288815 31150 net.cpp:148] Top shape: 24 480 14 14 (2257920)
I0403 15:06:47.288830 31150 net.cpp:148] Top shape: 24 480 14 14 (2257920)
I0403 15:06:47.288846 31150 net.cpp:148] Top shape: 24 480 14 14 (2257920)
I0403 15:06:47.288859 31150 net.cpp:148] Top shape: 24 480 14 14 (2257920)
I0403 15:06:47.288872 31150 net.cpp:156] Memory required for data: 854397984
I0403 15:06:47.288887 31150 layer_factory.hpp:77] Creating layer inception_4a/1x1
I0403 15:06:47.288908 31150 net.cpp:91] Creating Layer inception_4a/1x1
I0403 15:06:47.288923 31150 net.cpp:425] inception_4a/1x1 <- pool3/3x3_s2_pool3/3x3_s2_0_split_0
I0403 15:06:47.288944 31150 net.cpp:399] inception_4a/1x1 -> inception_4a/1x1
I0403 15:06:47.290508 31150 net.cpp:141] Setting up inception_4a/1x1
I0403 15:06:47.290539 31150 net.cpp:148] Top shape: 24 192 14 14 (903168)
I0403 15:06:47.290556 31150 net.cpp:156] Memory required for data: 858010656
I0403 15:06:47.290576 31150 layer_factory.hpp:77] Creating layer inception_4a/relu_1x1
I0403 15:06:47.290597 31150 net.cpp:91] Creating Layer inception_4a/relu_1x1
I0403 15:06:47.290614 31150 net.cpp:425] inception_4a/relu_1x1 <- inception_4a/1x1
I0403 15:06:47.290632 31150 net.cpp:386] inception_4a/relu_1x1 -> inception_4a/1x1 (in-place)
I0403 15:06:47.290807 31150 net.cpp:141] Setting up inception_4a/relu_1x1
I0403 15:06:47.290832 31150 net.cpp:148] Top shape: 24 192 14 14 (903168)
I0403 15:06:47.290846 31150 net.cpp:156] Memory required for data: 861623328
I0403 15:06:47.290860 31150 layer_factory.hpp:77] Creating layer inception_4a/3x3_reduce
I0403 15:06:47.290885 31150 net.cpp:91] Creating Layer inception_4a/3x3_reduce
I0403 15:06:47.290902 31150 net.cpp:425] inception_4a/3x3_reduce <- pool3/3x3_s2_pool3/3x3_s2_0_split_1
I0403 15:06:47.290922 31150 net.cpp:399] inception_4a/3x3_reduce -> inception_4a/3x3_reduce
I0403 15:06:47.292192 31150 net.cpp:141] Setting up inception_4a/3x3_reduce
I0403 15:06:47.292220 31150 net.cpp:148] Top shape: 24 96 14 14 (451584)
I0403 15:06:47.292235 31150 net.cpp:156] Memory required for data: 863429664
I0403 15:06:47.292259 31150 layer_factory.hpp:77] Creating layer inception_4a/relu_3x3_reduce
I0403 15:06:47.292280 31150 net.cpp:91] Creating Layer inception_4a/relu_3x3_reduce
I0403 15:06:47.292296 31150 net.cpp:425] inception_4a/relu_3x3_reduce <- inception_4a/3x3_reduce
I0403 15:06:47.292315 31150 net.cpp:386] inception_4a/relu_3x3_reduce -> inception_4a/3x3_reduce (in-place)
I0403 15:06:47.292490 31150 net.cpp:141] Setting up inception_4a/relu_3x3_reduce
I0403 15:06:47.292515 31150 net.cpp:148] Top shape: 24 96 14 14 (451584)
I0403 15:06:47.292528 31150 net.cpp:156] Memory required for data: 865236000
I0403 15:06:47.292548 31150 layer_factory.hpp:77] Creating layer inception_4a/3x3
I0403 15:06:47.292572 31150 net.cpp:91] Creating Layer inception_4a/3x3
I0403 15:06:47.292592 31150 net.cpp:425] inception_4a/3x3 <- inception_4a/3x3_reduce
I0403 15:06:47.292619 31150 net.cpp:399] inception_4a/3x3 -> inception_4a/3x3
I0403 15:06:47.295284 31150 net.cpp:141] Setting up inception_4a/3x3
I0403 15:06:47.295315 31150 net.cpp:148] Top shape: 24 208 14 14 (978432)
I0403 15:06:47.295331 31150 net.cpp:156] Memory required for data: 869149728
I0403 15:06:47.295351 31150 layer_factory.hpp:77] Creating layer inception_4a/relu_3x3
I0403 15:06:47.295369 31150 net.cpp:91] Creating Layer inception_4a/relu_3x3
I0403 15:06:47.295384 31150 net.cpp:425] inception_4a/relu_3x3 <- inception_4a/3x3
I0403 15:06:47.295403 31150 net.cpp:386] inception_4a/relu_3x3 -> inception_4a/3x3 (in-place)
I0403 15:06:47.295686 31150 net.cpp:141] Setting up inception_4a/relu_3x3
I0403 15:06:47.295713 31150 net.cpp:148] Top shape: 24 208 14 14 (978432)
I0403 15:06:47.295729 31150 net.cpp:156] Memory required for data: 873063456
I0403 15:06:47.295744 31150 layer_factory.hpp:77] Creating layer inception_4a/5x5_reduce
I0403 15:06:47.295764 31150 net.cpp:91] Creating Layer inception_4a/5x5_reduce
I0403 15:06:47.295780 31150 net.cpp:425] inception_4a/5x5_reduce <- pool3/3x3_s2_pool3/3x3_s2_0_split_2
I0403 15:06:47.295802 31150 net.cpp:399] inception_4a/5x5_reduce -> inception_4a/5x5_reduce
I0403 15:06:47.296808 31150 net.cpp:141] Setting up inception_4a/5x5_reduce
I0403 15:06:47.296836 31150 net.cpp:148] Top shape: 24 16 14 14 (75264)
I0403 15:06:47.296854 31150 net.cpp:156] Memory required for data: 873364512
I0403 15:06:47.296871 31150 layer_factory.hpp:77] Creating layer inception_4a/relu_5x5_reduce
I0403 15:06:47.296890 31150 net.cpp:91] Creating Layer inception_4a/relu_5x5_reduce
I0403 15:06:47.296905 31150 net.cpp:425] inception_4a/relu_5x5_reduce <- inception_4a/5x5_reduce
I0403 15:06:47.296921 31150 net.cpp:386] inception_4a/relu_5x5_reduce -> inception_4a/5x5_reduce (in-place)
I0403 15:06:47.297098 31150 net.cpp:141] Setting up inception_4a/relu_5x5_reduce
I0403 15:06:47.297123 31150 net.cpp:148] Top shape: 24 16 14 14 (75264)
I0403 15:06:47.297137 31150 net.cpp:156] Memory required for data: 873665568
I0403 15:06:47.297152 31150 layer_factory.hpp:77] Creating layer inception_4a/5x5
I0403 15:06:47.297173 31150 net.cpp:91] Creating Layer inception_4a/5x5
I0403 15:06:47.297190 31150 net.cpp:425] inception_4a/5x5 <- inception_4a/5x5_reduce
I0403 15:06:47.297211 31150 net.cpp:399] inception_4a/5x5 -> inception_4a/5x5
I0403 15:06:47.298280 31150 net.cpp:141] Setting up inception_4a/5x5
I0403 15:06:47.298305 31150 net.cpp:148] Top shape: 24 48 14 14 (225792)
I0403 15:06:47.298321 31150 net.cpp:156] Memory required for data: 874568736
I0403 15:06:47.298339 31150 layer_factory.hpp:77] Creating layer inception_4a/relu_5x5
I0403 15:06:47.298357 31150 net.cpp:91] Creating Layer inception_4a/relu_5x5
I0403 15:06:47.298373 31150 net.cpp:425] inception_4a/relu_5x5 <- inception_4a/5x5
I0403 15:06:47.298393 31150 net.cpp:386] inception_4a/relu_5x5 -> inception_4a/5x5 (in-place)
I0403 15:06:47.298579 31150 net.cpp:141] Setting up inception_4a/relu_5x5
I0403 15:06:47.298604 31150 net.cpp:148] Top shape: 24 48 14 14 (225792)
I0403 15:06:47.298619 31150 net.cpp:156] Memory required for data: 875471904
I0403 15:06:47.298634 31150 layer_factory.hpp:77] Creating layer inception_4a/pool
I0403 15:06:47.298652 31150 net.cpp:91] Creating Layer inception_4a/pool
I0403 15:06:47.298669 31150 net.cpp:425] inception_4a/pool <- pool3/3x3_s2_pool3/3x3_s2_0_split_3
I0403 15:06:47.298687 31150 net.cpp:399] inception_4a/pool -> inception_4a/pool
I0403 15:06:47.298756 31150 net.cpp:141] Setting up inception_4a/pool
I0403 15:06:47.298780 31150 net.cpp:148] Top shape: 24 480 14 14 (2257920)
I0403 15:06:47.298795 31150 net.cpp:156] Memory required for data: 884503584
I0403 15:06:47.298810 31150 layer_factory.hpp:77] Creating layer inception_4a/pool_proj
I0403 15:06:47.298830 31150 net.cpp:91] Creating Layer inception_4a/pool_proj
I0403 15:06:47.298847 31150 net.cpp:425] inception_4a/pool_proj <- inception_4a/pool
I0403 15:06:47.298868 31150 net.cpp:399] inception_4a/pool_proj -> inception_4a/pool_proj
I0403 15:06:47.300032 31150 net.cpp:141] Setting up inception_4a/pool_proj
I0403 15:06:47.300060 31150 net.cpp:148] Top shape: 24 64 14 14 (301056)
I0403 15:06:47.300091 31150 net.cpp:156] Memory required for data: 885707808
I0403 15:06:47.300109 31150 layer_factory.hpp:77] Creating layer inception_4a/relu_pool_proj
I0403 15:06:47.300130 31150 net.cpp:91] Creating Layer inception_4a/relu_pool_proj
I0403 15:06:47.300148 31150 net.cpp:425] inception_4a/relu_pool_proj <- inception_4a/pool_proj
I0403 15:06:47.300165 31150 net.cpp:386] inception_4a/relu_pool_proj -> inception_4a/pool_proj (in-place)
I0403 15:06:47.300451 31150 net.cpp:141] Setting up inception_4a/relu_pool_proj
I0403 15:06:47.300477 31150 net.cpp:148] Top shape: 24 64 14 14 (301056)
I0403 15:06:47.300490 31150 net.cpp:156] Memory required for data: 886912032
I0403 15:06:47.300504 31150 layer_factory.hpp:77] Creating layer inception_4a/output
I0403 15:06:47.300521 31150 net.cpp:91] Creating Layer inception_4a/output
I0403 15:06:47.300541 31150 net.cpp:425] inception_4a/output <- inception_4a/1x1
I0403 15:06:47.300559 31150 net.cpp:425] inception_4a/output <- inception_4a/3x3
I0403 15:06:47.300577 31150 net.cpp:425] inception_4a/output <- inception_4a/5x5
I0403 15:06:47.300592 31150 net.cpp:425] inception_4a/output <- inception_4a/pool_proj
I0403 15:06:47.300612 31150 net.cpp:399] inception_4a/output -> inception_4a/output
I0403 15:06:47.300658 31150 net.cpp:141] Setting up inception_4a/output
I0403 15:06:47.300681 31150 net.cpp:148] Top shape: 24 512 14 14 (2408448)
I0403 15:06:47.300696 31150 net.cpp:156] Memory required for data: 896545824
I0403 15:06:47.300710 31150 layer_factory.hpp:77] Creating layer inception_4a/output_inception_4a/output_0_split
I0403 15:06:47.300729 31150 net.cpp:91] Creating Layer inception_4a/output_inception_4a/output_0_split
I0403 15:06:47.300742 31150 net.cpp:425] inception_4a/output_inception_4a/output_0_split <- inception_4a/output
I0403 15:06:47.300762 31150 net.cpp:399] inception_4a/output_inception_4a/output_0_split -> inception_4a/output_inception_4a/output_0_split_0
I0403 15:06:47.300782 31150 net.cpp:399] inception_4a/output_inception_4a/output_0_split -> inception_4a/output_inception_4a/output_0_split_1
I0403 15:06:47.300803 31150 net.cpp:399] inception_4a/output_inception_4a/output_0_split -> inception_4a/output_inception_4a/output_0_split_2
I0403 15:06:47.300824 31150 net.cpp:399] inception_4a/output_inception_4a/output_0_split -> inception_4a/output_inception_4a/output_0_split_3
I0403 15:06:47.300844 31150 net.cpp:399] inception_4a/output_inception_4a/output_0_split -> inception_4a/output_inception_4a/output_0_split_4
I0403 15:06:47.300935 31150 net.cpp:141] Setting up inception_4a/output_inception_4a/output_0_split
I0403 15:06:47.300961 31150 net.cpp:148] Top shape: 24 512 14 14 (2408448)
I0403 15:06:47.300977 31150 net.cpp:148] Top shape: 24 512 14 14 (2408448)
I0403 15:06:47.300993 31150 net.cpp:148] Top shape: 24 512 14 14 (2408448)
I0403 15:06:47.301009 31150 net.cpp:148] Top shape: 24 512 14 14 (2408448)
I0403 15:06:47.301024 31150 net.cpp:148] Top shape: 24 512 14 14 (2408448)
I0403 15:06:47.301038 31150 net.cpp:156] Memory required for data: 944714784
I0403 15:06:47.301053 31150 layer_factory.hpp:77] Creating layer loss1/ave_pool
I0403 15:06:47.301069 31150 net.cpp:91] Creating Layer loss1/ave_pool
I0403 15:06:47.301085 31150 net.cpp:425] loss1/ave_pool <- inception_4a/output_inception_4a/output_0_split_0
I0403 15:06:47.301105 31150 net.cpp:399] loss1/ave_pool -> loss1/ave_pool
I0403 15:06:47.301312 31150 net.cpp:141] Setting up loss1/ave_pool
I0403 15:06:47.301337 31150 net.cpp:148] Top shape: 24 512 4 4 (196608)
I0403 15:06:47.301352 31150 net.cpp:156] Memory required for data: 945501216
I0403 15:06:47.301367 31150 layer_factory.hpp:77] Creating layer loss1/conv
I0403 15:06:47.301388 31150 net.cpp:91] Creating Layer loss1/conv
I0403 15:06:47.301406 31150 net.cpp:425] loss1/conv <- loss1/ave_pool
I0403 15:06:47.301426 31150 net.cpp:399] loss1/conv -> loss1/conv
I0403 15:06:47.302834 31150 net.cpp:141] Setting up loss1/conv
I0403 15:06:47.302865 31150 net.cpp:148] Top shape: 24 128 4 4 (49152)
I0403 15:06:47.302894 31150 net.cpp:156] Memory required for data: 945697824
I0403 15:06:47.302913 31150 layer_factory.hpp:77] Creating layer loss1/relu_conv
I0403 15:06:47.302932 31150 net.cpp:91] Creating Layer loss1/relu_conv
I0403 15:06:47.302947 31150 net.cpp:425] loss1/relu_conv <- loss1/conv
I0403 15:06:47.302964 31150 net.cpp:386] loss1/relu_conv -> loss1/conv (in-place)
I0403 15:06:47.303246 31150 net.cpp:141] Setting up loss1/relu_conv
I0403 15:06:47.303274 31150 net.cpp:148] Top shape: 24 128 4 4 (49152)
I0403 15:06:47.303290 31150 net.cpp:156] Memory required for data: 945894432
I0403 15:06:47.303305 31150 layer_factory.hpp:77] Creating layer loss1/fc
I0403 15:06:47.303329 31150 net.cpp:91] Creating Layer loss1/fc
I0403 15:06:47.303346 31150 net.cpp:425] loss1/fc <- loss1/conv
I0403 15:06:47.303367 31150 net.cpp:399] loss1/fc -> loss1/fc
I0403 15:06:47.320658 31150 net.cpp:141] Setting up loss1/fc
I0403 15:06:47.320693 31150 net.cpp:148] Top shape: 24 1024 (24576)
I0403 15:06:47.320708 31150 net.cpp:156] Memory required for data: 945992736
I0403 15:06:47.320727 31150 layer_factory.hpp:77] Creating layer loss1/relu_fc
I0403 15:06:47.320749 31150 net.cpp:91] Creating Layer loss1/relu_fc
I0403 15:06:47.320766 31150 net.cpp:425] loss1/relu_fc <- loss1/fc
I0403 15:06:47.320783 31150 net.cpp:386] loss1/relu_fc -> loss1/fc (in-place)
I0403 15:06:47.320962 31150 net.cpp:141] Setting up loss1/relu_fc
I0403 15:06:47.320986 31150 net.cpp:148] Top shape: 24 1024 (24576)
I0403 15:06:47.321001 31150 net.cpp:156] Memory required for data: 946091040
I0403 15:06:47.321014 31150 layer_factory.hpp:77] Creating layer loss1/drop_fc
I0403 15:06:47.321043 31150 net.cpp:91] Creating Layer loss1/drop_fc
I0403 15:06:47.321059 31150 net.cpp:425] loss1/drop_fc <- loss1/fc
I0403 15:06:47.321077 31150 net.cpp:386] loss1/drop_fc -> loss1/fc (in-place)
I0403 15:06:47.321130 31150 net.cpp:141] Setting up loss1/drop_fc
I0403 15:06:47.321151 31150 net.cpp:148] Top shape: 24 1024 (24576)
I0403 15:06:47.321166 31150 net.cpp:156] Memory required for data: 946189344
I0403 15:06:47.321180 31150 layer_factory.hpp:77] Creating layer loss1/classifier_plantvillage
I0403 15:06:47.321197 31150 net.cpp:91] Creating Layer loss1/classifier_plantvillage
I0403 15:06:47.321211 31150 net.cpp:425] loss1/classifier_plantvillage <- loss1/fc
I0403 15:06:47.321231 31150 net.cpp:399] loss1/classifier_plantvillage -> loss1/classifier_plantvillage
I0403 15:06:47.322120 31150 net.cpp:141] Setting up loss1/classifier_plantvillage
I0403 15:06:47.322149 31150 net.cpp:148] Top shape: 24 38 (912)
I0403 15:06:47.322165 31150 net.cpp:156] Memory required for data: 946192992
I0403 15:06:47.322182 31150 layer_factory.hpp:77] Creating layer loss1/classifier_plantvillage_loss1/classifier_plantvillage_0_split
I0403 15:06:47.322201 31150 net.cpp:91] Creating Layer loss1/classifier_plantvillage_loss1/classifier_plantvillage_0_split
I0403 15:06:47.322216 31150 net.cpp:425] loss1/classifier_plantvillage_loss1/classifier_plantvillage_0_split <- loss1/classifier_plantvillage
I0403 15:06:47.322232 31150 net.cpp:399] loss1/classifier_plantvillage_loss1/classifier_plantvillage_0_split -> loss1/classifier_plantvillage_loss1/classifier_plantvillage_0_split_0
I0403 15:06:47.322252 31150 net.cpp:399] loss1/classifier_plantvillage_loss1/classifier_plantvillage_0_split -> loss1/classifier_plantvillage_loss1/classifier_plantvillage_0_split_1
I0403 15:06:47.322271 31150 net.cpp:399] loss1/classifier_plantvillage_loss1/classifier_plantvillage_0_split -> loss1/classifier_plantvillage_loss1/classifier_plantvillage_0_split_2
I0403 15:06:47.322337 31150 net.cpp:141] Setting up loss1/classifier_plantvillage_loss1/classifier_plantvillage_0_split
I0403 15:06:47.322360 31150 net.cpp:148] Top shape: 24 38 (912)
I0403 15:06:47.322374 31150 net.cpp:148] Top shape: 24 38 (912)
I0403 15:06:47.322389 31150 net.cpp:148] Top shape: 24 38 (912)
I0403 15:06:47.322403 31150 net.cpp:156] Memory required for data: 946203936
I0403 15:06:47.322417 31150 layer_factory.hpp:77] Creating layer inception_4b/1x1
I0403 15:06:47.322435 31150 net.cpp:91] Creating Layer inception_4b/1x1
I0403 15:06:47.322468 31150 net.cpp:425] inception_4b/1x1 <- inception_4a/output_inception_4a/output_0_split_1
I0403 15:06:47.322489 31150 net.cpp:399] inception_4b/1x1 -> inception_4b/1x1
I0403 15:06:47.324082 31150 net.cpp:141] Setting up inception_4b/1x1
I0403 15:06:47.324112 31150 net.cpp:148] Top shape: 24 160 14 14 (752640)
I0403 15:06:47.324128 31150 net.cpp:156] Memory required for data: 949214496
I0403 15:06:47.324146 31150 layer_factory.hpp:77] Creating layer inception_4b/relu_1x1
I0403 15:06:47.324163 31150 net.cpp:91] Creating Layer inception_4b/relu_1x1
I0403 15:06:47.324178 31150 net.cpp:425] inception_4b/relu_1x1 <- inception_4b/1x1
I0403 15:06:47.324195 31150 net.cpp:386] inception_4b/relu_1x1 -> inception_4b/1x1 (in-place)
I0403 15:06:47.324370 31150 net.cpp:141] Setting up inception_4b/relu_1x1
I0403 15:06:47.324394 31150 net.cpp:148] Top shape: 24 160 14 14 (752640)
I0403 15:06:47.324409 31150 net.cpp:156] Memory required for data: 952225056
I0403 15:06:47.324424 31150 layer_factory.hpp:77] Creating layer inception_4b/3x3_reduce
I0403 15:06:47.324448 31150 net.cpp:91] Creating Layer inception_4b/3x3_reduce
I0403 15:06:47.324465 31150 net.cpp:425] inception_4b/3x3_reduce <- inception_4a/output_inception_4a/output_0_split_2
I0403 15:06:47.324486 31150 net.cpp:399] inception_4b/3x3_reduce -> inception_4b/3x3_reduce
I0403 15:06:47.325826 31150 net.cpp:141] Setting up inception_4b/3x3_reduce
I0403 15:06:47.325856 31150 net.cpp:148] Top shape: 24 112 14 14 (526848)
I0403 15:06:47.325872 31150 net.cpp:156] Memory required for data: 954332448
I0403 15:06:47.325889 31150 layer_factory.hpp:77] Creating layer inception_4b/relu_3x3_reduce
I0403 15:06:47.325907 31150 net.cpp:91] Creating Layer inception_4b/relu_3x3_reduce
I0403 15:06:47.325922 31150 net.cpp:425] inception_4b/relu_3x3_reduce <- inception_4b/3x3_reduce
I0403 15:06:47.325942 31150 net.cpp:386] inception_4b/relu_3x3_reduce -> inception_4b/3x3_reduce (in-place)
I0403 15:06:47.326211 31150 net.cpp:141] Setting up inception_4b/relu_3x3_reduce
I0403 15:06:47.326239 31150 net.cpp:148] Top shape: 24 112 14 14 (526848)
I0403 15:06:47.326254 31150 net.cpp:156] Memory required for data: 956439840
I0403 15:06:47.326269 31150 layer_factory.hpp:77] Creating layer inception_4b/3x3
I0403 15:06:47.326292 31150 net.cpp:91] Creating Layer inception_4b/3x3
I0403 15:06:47.326308 31150 net.cpp:425] inception_4b/3x3 <- inception_4b/3x3_reduce
I0403 15:06:47.326329 31150 net.cpp:399] inception_4b/3x3 -> inception_4b/3x3
I0403 15:06:47.329217 31150 net.cpp:141] Setting up inception_4b/3x3
I0403 15:06:47.329246 31150 net.cpp:148] Top shape: 24 224 14 14 (1053696)
I0403 15:06:47.329262 31150 net.cpp:156] Memory required for data: 960654624
I0403 15:06:47.329278 31150 layer_factory.hpp:77] Creating layer inception_4b/relu_3x3
I0403 15:06:47.329298 31150 net.cpp:91] Creating Layer inception_4b/relu_3x3
I0403 15:06:47.329315 31150 net.cpp:425] inception_4b/relu_3x3 <- inception_4b/3x3
I0403 15:06:47.329331 31150 net.cpp:386] inception_4b/relu_3x3 -> inception_4b/3x3 (in-place)
I0403 15:06:47.329507 31150 net.cpp:141] Setting up inception_4b/relu_3x3
I0403 15:06:47.329536 31150 net.cpp:148] Top shape: 24 224 14 14 (1053696)
I0403 15:06:47.329556 31150 net.cpp:156] Memory required for data: 964869408
I0403 15:06:47.329573 31150 layer_factory.hpp:77] Creating layer inception_4b/5x5_reduce
I0403 15:06:47.329596 31150 net.cpp:91] Creating Layer inception_4b/5x5_reduce
I0403 15:06:47.329612 31150 net.cpp:425] inception_4b/5x5_reduce <- inception_4a/output_inception_4a/output_0_split_3
I0403 15:06:47.329630 31150 net.cpp:399] inception_4b/5x5_reduce -> inception_4b/5x5_reduce
I0403 15:06:47.330716 31150 net.cpp:141] Setting up inception_4b/5x5_reduce
I0403 15:06:47.330746 31150 net.cpp:148] Top shape: 24 24 14 14 (112896)
I0403 15:06:47.330762 31150 net.cpp:156] Memory required for data: 965320992
I0403 15:06:47.330781 31150 layer_factory.hpp:77] Creating layer inception_4b/relu_5x5_reduce
I0403 15:06:47.330811 31150 net.cpp:91] Creating Layer inception_4b/relu_5x5_reduce
I0403 15:06:47.330842 31150 net.cpp:425] inception_4b/relu_5x5_reduce <- inception_4b/5x5_reduce
I0403 15:06:47.330862 31150 net.cpp:386] inception_4b/relu_5x5_reduce -> inception_4b/5x5_reduce (in-place)
I0403 15:06:47.331037 31150 net.cpp:141] Setting up inception_4b/relu_5x5_reduce
I0403 15:06:47.331061 31150 net.cpp:148] Top shape: 24 24 14 14 (112896)
I0403 15:06:47.331075 31150 net.cpp:156] Memory required for data: 965772576
I0403 15:06:47.331090 31150 layer_factory.hpp:77] Creating layer inception_4b/5x5
I0403 15:06:47.331111 31150 net.cpp:91] Creating Layer inception_4b/5x5
I0403 15:06:47.331128 31150 net.cpp:425] inception_4b/5x5 <- inception_4b/5x5_reduce
I0403 15:06:47.331147 31150 net.cpp:399] inception_4b/5x5 -> inception_4b/5x5
I0403 15:06:47.332337 31150 net.cpp:141] Setting up inception_4b/5x5
I0403 15:06:47.332367 31150 net.cpp:148] Top shape: 24 64 14 14 (301056)
I0403 15:06:47.332383 31150 net.cpp:156] Memory required for data: 966976800
I0403 15:06:47.332401 31150 layer_factory.hpp:77] Creating layer inception_4b/relu_5x5
I0403 15:06:47.332418 31150 net.cpp:91] Creating Layer inception_4b/relu_5x5
I0403 15:06:47.332433 31150 net.cpp:425] inception_4b/relu_5x5 <- inception_4b/5x5
I0403 15:06:47.332450 31150 net.cpp:386] inception_4b/relu_5x5 -> inception_4b/5x5 (in-place)
I0403 15:06:47.332785 31150 net.cpp:141] Setting up inception_4b/relu_5x5
I0403 15:06:47.332813 31150 net.cpp:148] Top shape: 24 64 14 14 (301056)
I0403 15:06:47.332828 31150 net.cpp:156] Memory required for data: 968181024
I0403 15:06:47.332844 31150 layer_factory.hpp:77] Creating layer inception_4b/pool
I0403 15:06:47.332861 31150 net.cpp:91] Creating Layer inception_4b/pool
I0403 15:06:47.332876 31150 net.cpp:425] inception_4b/pool <- inception_4a/output_inception_4a/output_0_split_4
I0403 15:06:47.332893 31150 net.cpp:399] inception_4b/pool -> inception_4b/pool
I0403 15:06:47.332958 31150 net.cpp:141] Setting up inception_4b/pool
I0403 15:06:47.332980 31150 net.cpp:148] Top shape: 24 512 14 14 (2408448)
I0403 15:06:47.332994 31150 net.cpp:156] Memory required for data: 977814816
I0403 15:06:47.333009 31150 layer_factory.hpp:77] Creating layer inception_4b/pool_proj
I0403 15:06:47.333030 31150 net.cpp:91] Creating Layer inception_4b/pool_proj
I0403 15:06:47.333046 31150 net.cpp:425] inception_4b/pool_proj <- inception_4b/pool
I0403 15:06:47.333066 31150 net.cpp:399] inception_4b/pool_proj -> inception_4b/pool_proj
I0403 15:06:47.334229 31150 net.cpp:141] Setting up inception_4b/pool_proj
I0403 15:06:47.334259 31150 net.cpp:148] Top shape: 24 64 14 14 (301056)
I0403 15:06:47.334273 31150 net.cpp:156] Memory required for data: 979019040
I0403 15:06:47.334291 31150 layer_factory.hpp:77] Creating layer inception_4b/relu_pool_proj
I0403 15:06:47.334309 31150 net.cpp:91] Creating Layer inception_4b/relu_pool_proj
I0403 15:06:47.334324 31150 net.cpp:425] inception_4b/relu_pool_proj <- inception_4b/pool_proj
I0403 15:06:47.334343 31150 net.cpp:386] inception_4b/relu_pool_proj -> inception_4b/pool_proj (in-place)
I0403 15:06:47.334517 31150 net.cpp:141] Setting up inception_4b/relu_pool_proj
I0403 15:06:47.334552 31150 net.cpp:148] Top shape: 24 64 14 14 (301056)
I0403 15:06:47.334568 31150 net.cpp:156] Memory required for data: 980223264
I0403 15:06:47.334583 31150 layer_factory.hpp:77] Creating layer inception_4b/output
I0403 15:06:47.334600 31150 net.cpp:91] Creating Layer inception_4b/output
I0403 15:06:47.334615 31150 net.cpp:425] inception_4b/output <- inception_4b/1x1
I0403 15:06:47.334632 31150 net.cpp:425] inception_4b/output <- inception_4b/3x3
I0403 15:06:47.334648 31150 net.cpp:425] inception_4b/output <- inception_4b/5x5
I0403 15:06:47.334663 31150 net.cpp:425] inception_4b/output <- inception_4b/pool_proj
I0403 15:06:47.334682 31150 net.cpp:399] inception_4b/output -> inception_4b/output
I0403 15:06:47.334728 31150 net.cpp:141] Setting up inception_4b/output
I0403 15:06:47.334751 31150 net.cpp:148] Top shape: 24 512 14 14 (2408448)
I0403 15:06:47.334765 31150 net.cpp:156] Memory required for data: 989857056
I0403 15:06:47.334794 31150 layer_factory.hpp:77] Creating layer inception_4b/output_inception_4b/output_0_split
I0403 15:06:47.334812 31150 net.cpp:91] Creating Layer inception_4b/output_inception_4b/output_0_split
I0403 15:06:47.334826 31150 net.cpp:425] inception_4b/output_inception_4b/output_0_split <- inception_4b/output
I0403 15:06:47.334846 31150 net.cpp:399] inception_4b/output_inception_4b/output_0_split -> inception_4b/output_inception_4b/output_0_split_0
I0403 15:06:47.334866 31150 net.cpp:399] inception_4b/output_inception_4b/output_0_split -> inception_4b/output_inception_4b/output_0_split_1
I0403 15:06:47.334885 31150 net.cpp:399] inception_4b/output_inception_4b/output_0_split -> inception_4b/output_inception_4b/output_0_split_2
I0403 15:06:47.334904 31150 net.cpp:399] inception_4b/output_inception_4b/output_0_split -> inception_4b/output_inception_4b/output_0_split_3
I0403 15:06:47.334983 31150 net.cpp:141] Setting up inception_4b/output_inception_4b/output_0_split
I0403 15:06:47.335005 31150 net.cpp:148] Top shape: 24 512 14 14 (2408448)
I0403 15:06:47.335026 31150 net.cpp:148] Top shape: 24 512 14 14 (2408448)
I0403 15:06:47.335041 31150 net.cpp:148] Top shape: 24 512 14 14 (2408448)
I0403 15:06:47.335054 31150 net.cpp:148] Top shape: 24 512 14 14 (2408448)
I0403 15:06:47.335067 31150 net.cpp:156] Memory required for data: 1028392224
I0403 15:06:47.335081 31150 layer_factory.hpp:77] Creating layer inception_4c/1x1
I0403 15:06:47.335100 31150 net.cpp:91] Creating Layer inception_4c/1x1
I0403 15:06:47.335117 31150 net.cpp:425] inception_4c/1x1 <- inception_4b/output_inception_4b/output_0_split_0
I0403 15:06:47.335139 31150 net.cpp:399] inception_4c/1x1 -> inception_4c/1x1
I0403 15:06:47.336529 31150 net.cpp:141] Setting up inception_4c/1x1
I0403 15:06:47.336575 31150 net.cpp:148] Top shape: 24 128 14 14 (602112)
I0403 15:06:47.336601 31150 net.cpp:156] Memory required for data: 1030800672
I0403 15:06:47.336618 31150 layer_factory.hpp:77] Creating layer inception_4c/relu_1x1
I0403 15:06:47.336640 31150 net.cpp:91] Creating Layer inception_4c/relu_1x1
I0403 15:06:47.336658 31150 net.cpp:425] inception_4c/relu_1x1 <- inception_4c/1x1
I0403 15:06:47.336675 31150 net.cpp:386] inception_4c/relu_1x1 -> inception_4c/1x1 (in-place)
I0403 15:06:47.336858 31150 net.cpp:141] Setting up inception_4c/relu_1x1
I0403 15:06:47.336890 31150 net.cpp:148] Top shape: 24 128 14 14 (602112)
I0403 15:06:47.336905 31150 net.cpp:156] Memory required for data: 1033209120
I0403 15:06:47.336918 31150 layer_factory.hpp:77] Creating layer inception_4c/3x3_reduce
I0403 15:06:47.336941 31150 net.cpp:91] Creating Layer inception_4c/3x3_reduce
I0403 15:06:47.336959 31150 net.cpp:425] inception_4c/3x3_reduce <- inception_4b/output_inception_4b/output_0_split_1
I0403 15:06:47.336978 31150 net.cpp:399] inception_4c/3x3_reduce -> inception_4c/3x3_reduce
I0403 15:06:47.338913 31150 net.cpp:141] Setting up inception_4c/3x3_reduce
I0403 15:06:47.338943 31150 net.cpp:148] Top shape: 24 128 14 14 (602112)
I0403 15:06:47.338958 31150 net.cpp:156] Memory required for data: 1035617568
I0403 15:06:47.338975 31150 layer_factory.hpp:77] Creating layer inception_4c/relu_3x3_reduce
I0403 15:06:47.338995 31150 net.cpp:91] Creating Layer inception_4c/relu_3x3_reduce
I0403 15:06:47.339011 31150 net.cpp:425] inception_4c/relu_3x3_reduce <- inception_4c/3x3_reduce
I0403 15:06:47.339028 31150 net.cpp:386] inception_4c/relu_3x3_reduce -> inception_4c/3x3_reduce (in-place)
I0403 15:06:47.339315 31150 net.cpp:141] Setting up inception_4c/relu_3x3_reduce
I0403 15:06:47.339341 31150 net.cpp:148] Top shape: 24 128 14 14 (602112)
I0403 15:06:47.339356 31150 net.cpp:156] Memory required for data: 1038026016
I0403 15:06:47.339370 31150 layer_factory.hpp:77] Creating layer inception_4c/3x3
I0403 15:06:47.339397 31150 net.cpp:91] Creating Layer inception_4c/3x3
I0403 15:06:47.339414 31150 net.cpp:425] inception_4c/3x3 <- inception_4c/3x3_reduce
I0403 15:06:47.339433 31150 net.cpp:399] inception_4c/3x3 -> inception_4c/3x3
I0403 15:06:47.343035 31150 net.cpp:141] Setting up inception_4c/3x3
I0403 15:06:47.343078 31150 net.cpp:148] Top shape: 24 256 14 14 (1204224)
I0403 15:06:47.343096 31150 net.cpp:156] Memory required for data: 1042842912
I0403 15:06:47.343128 31150 layer_factory.hpp:77] Creating layer inception_4c/relu_3x3
I0403 15:06:47.343148 31150 net.cpp:91] Creating Layer inception_4c/relu_3x3
I0403 15:06:47.343164 31150 net.cpp:425] inception_4c/relu_3x3 <- inception_4c/3x3
I0403 15:06:47.343180 31150 net.cpp:386] inception_4c/relu_3x3 -> inception_4c/3x3 (in-place)
I0403 15:06:47.343364 31150 net.cpp:141] Setting up inception_4c/relu_3x3
I0403 15:06:47.343390 31150 net.cpp:148] Top shape: 24 256 14 14 (1204224)
I0403 15:06:47.343406 31150 net.cpp:156] Memory required for data: 1047659808
I0403 15:06:47.343420 31150 layer_factory.hpp:77] Creating layer inception_4c/5x5_reduce
I0403 15:06:47.343446 31150 net.cpp:91] Creating Layer inception_4c/5x5_reduce
I0403 15:06:47.343463 31150 net.cpp:425] inception_4c/5x5_reduce <- inception_4b/output_inception_4b/output_0_split_2
I0403 15:06:47.343482 31150 net.cpp:399] inception_4c/5x5_reduce -> inception_4c/5x5_reduce
I0403 15:06:47.344586 31150 net.cpp:141] Setting up inception_4c/5x5_reduce
I0403 15:06:47.344616 31150 net.cpp:148] Top shape: 24 24 14 14 (112896)
I0403 15:06:47.344632 31150 net.cpp:156] Memory required for data: 1048111392
I0403 15:06:47.344651 31150 layer_factory.hpp:77] Creating layer inception_4c/relu_5x5_reduce
I0403 15:06:47.344669 31150 net.cpp:91] Creating Layer inception_4c/relu_5x5_reduce
I0403 15:06:47.344686 31150 net.cpp:425] inception_4c/relu_5x5_reduce <- inception_4c/5x5_reduce
I0403 15:06:47.344703 31150 net.cpp:386] inception_4c/relu_5x5_reduce -> inception_4c/5x5_reduce (in-place)
I0403 15:06:47.344888 31150 net.cpp:141] Setting up inception_4c/relu_5x5_reduce
I0403 15:06:47.344913 31150 net.cpp:148] Top shape: 24 24 14 14 (112896)
I0403 15:06:47.344926 31150 net.cpp:156] Memory required for data: 1048562976
I0403 15:06:47.344943 31150 layer_factory.hpp:77] Creating layer inception_4c/5x5
I0403 15:06:47.344964 31150 net.cpp:91] Creating Layer inception_4c/5x5
I0403 15:06:47.344981 31150 net.cpp:425] inception_4c/5x5 <- inception_4c/5x5_reduce
I0403 15:06:47.345002 31150 net.cpp:399] inception_4c/5x5 -> inception_4c/5x5
I0403 15:06:47.346251 31150 net.cpp:141] Setting up inception_4c/5x5
I0403 15:06:47.346278 31150 net.cpp:148] Top shape: 24 64 14 14 (301056)
I0403 15:06:47.346293 31150 net.cpp:156] Memory required for data: 1049767200
I0403 15:06:47.346312 31150 layer_factory.hpp:77] Creating layer inception_4c/relu_5x5
I0403 15:06:47.346333 31150 net.cpp:91] Creating Layer inception_4c/relu_5x5
I0403 15:06:47.346350 31150 net.cpp:425] inception_4c/relu_5x5 <- inception_4c/5x5
I0403 15:06:47.346367 31150 net.cpp:386] inception_4c/relu_5x5 -> inception_4c/5x5 (in-place)
I0403 15:06:47.346657 31150 net.cpp:141] Setting up inception_4c/relu_5x5
I0403 15:06:47.346681 31150 net.cpp:148] Top shape: 24 64 14 14 (301056)
I0403 15:06:47.346696 31150 net.cpp:156] Memory required for data: 1050971424
I0403 15:06:47.346711 31150 layer_factory.hpp:77] Creating layer inception_4c/pool
I0403 15:06:47.346729 31150 net.cpp:91] Creating Layer inception_4c/pool
I0403 15:06:47.346745 31150 net.cpp:425] inception_4c/pool <- inception_4b/output_inception_4b/output_0_split_3
I0403 15:06:47.346765 31150 net.cpp:399] inception_4c/pool -> inception_4c/pool
I0403 15:06:47.346830 31150 net.cpp:141] Setting up inception_4c/pool
I0403 15:06:47.346854 31150 net.cpp:148] Top shape: 24 512 14 14 (2408448)
I0403 15:06:47.346868 31150 net.cpp:156] Memory required for data: 1060605216
I0403 15:06:47.346884 31150 layer_factory.hpp:77] Creating layer inception_4c/pool_proj
I0403 15:06:47.346907 31150 net.cpp:91] Creating Layer inception_4c/pool_proj
I0403 15:06:47.346925 31150 net.cpp:425] inception_4c/pool_proj <- inception_4c/pool
I0403 15:06:47.346946 31150 net.cpp:399] inception_4c/pool_proj -> inception_4c/pool_proj
I0403 15:06:47.348176 31150 net.cpp:141] Setting up inception_4c/pool_proj
I0403 15:06:47.348207 31150 net.cpp:148] Top shape: 24 64 14 14 (301056)
I0403 15:06:47.348237 31150 net.cpp:156] Memory required for data: 1061809440
I0403 15:06:47.348256 31150 layer_factory.hpp:77] Creating layer inception_4c/relu_pool_proj
I0403 15:06:47.348274 31150 net.cpp:91] Creating Layer inception_4c/relu_pool_proj
I0403 15:06:47.348290 31150 net.cpp:425] inception_4c/relu_pool_proj <- inception_4c/pool_proj
I0403 15:06:47.348307 31150 net.cpp:386] inception_4c/relu_pool_proj -> inception_4c/pool_proj (in-place)
I0403 15:06:47.348492 31150 net.cpp:141] Setting up inception_4c/relu_pool_proj
I0403 15:06:47.348517 31150 net.cpp:148] Top shape: 24 64 14 14 (301056)
I0403 15:06:47.348531 31150 net.cpp:156] Memory required for data: 1063013664
I0403 15:06:47.348551 31150 layer_factory.hpp:77] Creating layer inception_4c/output
I0403 15:06:47.348569 31150 net.cpp:91] Creating Layer inception_4c/output
I0403 15:06:47.348584 31150 net.cpp:425] inception_4c/output <- inception_4c/1x1
I0403 15:06:47.348601 31150 net.cpp:425] inception_4c/output <- inception_4c/3x3
I0403 15:06:47.348618 31150 net.cpp:425] inception_4c/output <- inception_4c/5x5
I0403 15:06:47.348634 31150 net.cpp:425] inception_4c/output <- inception_4c/pool_proj
I0403 15:06:47.348654 31150 net.cpp:399] inception_4c/output -> inception_4c/output
I0403 15:06:47.348700 31150 net.cpp:141] Setting up inception_4c/output
I0403 15:06:47.348724 31150 net.cpp:148] Top shape: 24 512 14 14 (2408448)
I0403 15:06:47.348740 31150 net.cpp:156] Memory required for data: 1072647456
I0403 15:06:47.348754 31150 layer_factory.hpp:77] Creating layer inception_4c/output_inception_4c/output_0_split
I0403 15:06:47.348773 31150 net.cpp:91] Creating Layer inception_4c/output_inception_4c/output_0_split
I0403 15:06:47.348788 31150 net.cpp:425] inception_4c/output_inception_4c/output_0_split <- inception_4c/output
I0403 15:06:47.348808 31150 net.cpp:399] inception_4c/output_inception_4c/output_0_split -> inception_4c/output_inception_4c/output_0_split_0
I0403 15:06:47.348827 31150 net.cpp:399] inception_4c/output_inception_4c/output_0_split -> inception_4c/output_inception_4c/output_0_split_1
I0403 15:06:47.348848 31150 net.cpp:399] inception_4c/output_inception_4c/output_0_split -> inception_4c/output_inception_4c/output_0_split_2
I0403 15:06:47.348868 31150 net.cpp:399] inception_4c/output_inception_4c/output_0_split -> inception_4c/output_inception_4c/output_0_split_3
I0403 15:06:47.348953 31150 net.cpp:141] Setting up inception_4c/output_inception_4c/output_0_split
I0403 15:06:47.348978 31150 net.cpp:148] Top shape: 24 512 14 14 (2408448)
I0403 15:06:47.348994 31150 net.cpp:148] Top shape: 24 512 14 14 (2408448)
I0403 15:06:47.349007 31150 net.cpp:148] Top shape: 24 512 14 14 (2408448)
I0403 15:06:47.349023 31150 net.cpp:148] Top shape: 24 512 14 14 (2408448)
I0403 15:06:47.349036 31150 net.cpp:156] Memory required for data: 1111182624
I0403 15:06:47.349052 31150 layer_factory.hpp:77] Creating layer inception_4d/1x1
I0403 15:06:47.349078 31150 net.cpp:91] Creating Layer inception_4d/1x1
I0403 15:06:47.349095 31150 net.cpp:425] inception_4d/1x1 <- inception_4c/output_inception_4c/output_0_split_0
I0403 15:06:47.349117 31150 net.cpp:399] inception_4d/1x1 -> inception_4d/1x1
I0403 15:06:47.350503 31150 net.cpp:141] Setting up inception_4d/1x1
I0403 15:06:47.350530 31150 net.cpp:148] Top shape: 24 112 14 14 (526848)
I0403 15:06:47.350550 31150 net.cpp:156] Memory required for data: 1113290016
I0403 15:06:47.350569 31150 layer_factory.hpp:77] Creating layer inception_4d/relu_1x1
I0403 15:06:47.350590 31150 net.cpp:91] Creating Layer inception_4d/relu_1x1
I0403 15:06:47.350616 31150 net.cpp:425] inception_4d/relu_1x1 <- inception_4d/1x1
I0403 15:06:47.350635 31150 net.cpp:386] inception_4d/relu_1x1 -> inception_4d/1x1 (in-place)
I0403 15:06:47.350821 31150 net.cpp:141] Setting up inception_4d/relu_1x1
I0403 15:06:47.350847 31150 net.cpp:148] Top shape: 24 112 14 14 (526848)
I0403 15:06:47.350862 31150 net.cpp:156] Memory required for data: 1115397408
I0403 15:06:47.350878 31150 layer_factory.hpp:77] Creating layer inception_4d/3x3_reduce
I0403 15:06:47.350924 31150 net.cpp:91] Creating Layer inception_4d/3x3_reduce
I0403 15:06:47.350944 31150 net.cpp:425] inception_4d/3x3_reduce <- inception_4c/output_inception_4c/output_0_split_1
I0403 15:06:47.350962 31150 net.cpp:399] inception_4d/3x3_reduce -> inception_4d/3x3_reduce
I0403 15:06:47.352476 31150 net.cpp:141] Setting up inception_4d/3x3_reduce
I0403 15:06:47.352504 31150 net.cpp:148] Top shape: 24 144 14 14 (677376)
I0403 15:06:47.352519 31150 net.cpp:156] Memory required for data: 1118106912
I0403 15:06:47.352540 31150 layer_factory.hpp:77] Creating layer inception_4d/relu_3x3_reduce
I0403 15:06:47.352563 31150 net.cpp:91] Creating Layer inception_4d/relu_3x3_reduce
I0403 15:06:47.352581 31150 net.cpp:425] inception_4d/relu_3x3_reduce <- inception_4d/3x3_reduce
I0403 15:06:47.352598 31150 net.cpp:386] inception_4d/relu_3x3_reduce -> inception_4d/3x3_reduce (in-place)
I0403 15:06:47.352886 31150 net.cpp:141] Setting up inception_4d/relu_3x3_reduce
I0403 15:06:47.352912 31150 net.cpp:148] Top shape: 24 144 14 14 (677376)
I0403 15:06:47.352927 31150 net.cpp:156] Memory required for data: 1120816416
I0403 15:06:47.352941 31150 layer_factory.hpp:77] Creating layer inception_4d/3x3
I0403 15:06:47.352963 31150 net.cpp:91] Creating Layer inception_4d/3x3
I0403 15:06:47.352982 31150 net.cpp:425] inception_4d/3x3 <- inception_4d/3x3_reduce
I0403 15:06:47.353003 31150 net.cpp:399] inception_4d/3x3 -> inception_4d/3x3
I0403 15:06:47.357228 31150 net.cpp:141] Setting up inception_4d/3x3
I0403 15:06:47.357256 31150 net.cpp:148] Top shape: 24 288 14 14 (1354752)
I0403 15:06:47.357272 31150 net.cpp:156] Memory required for data: 1126235424
I0403 15:06:47.357290 31150 layer_factory.hpp:77] Creating layer inception_4d/relu_3x3
I0403 15:06:47.357311 31150 net.cpp:91] Creating Layer inception_4d/relu_3x3
I0403 15:06:47.357326 31150 net.cpp:425] inception_4d/relu_3x3 <- inception_4d/3x3
I0403 15:06:47.357343 31150 net.cpp:386] inception_4d/relu_3x3 -> inception_4d/3x3 (in-place)
I0403 15:06:47.357519 31150 net.cpp:141] Setting up inception_4d/relu_3x3
I0403 15:06:47.357549 31150 net.cpp:148] Top shape: 24 288 14 14 (1354752)
I0403 15:06:47.357564 31150 net.cpp:156] Memory required for data: 1131654432
I0403 15:06:47.357579 31150 layer_factory.hpp:77] Creating layer inception_4d/5x5_reduce
I0403 15:06:47.357600 31150 net.cpp:91] Creating Layer inception_4d/5x5_reduce
I0403 15:06:47.357617 31150 net.cpp:425] inception_4d/5x5_reduce <- inception_4c/output_inception_4c/output_0_split_2
I0403 15:06:47.357638 31150 net.cpp:399] inception_4d/5x5_reduce -> inception_4d/5x5_reduce
I0403 15:06:47.358753 31150 net.cpp:141] Setting up inception_4d/5x5_reduce
I0403 15:06:47.358780 31150 net.cpp:148] Top shape: 24 32 14 14 (150528)
I0403 15:06:47.358794 31150 net.cpp:156] Memory required for data: 1132256544
I0403 15:06:47.358813 31150 layer_factory.hpp:77] Creating layer inception_4d/relu_5x5_reduce
I0403 15:06:47.358834 31150 net.cpp:91] Creating Layer inception_4d/relu_5x5_reduce
I0403 15:06:47.358849 31150 net.cpp:425] inception_4d/relu_5x5_reduce <- inception_4d/5x5_reduce
I0403 15:06:47.358865 31150 net.cpp:386] inception_4d/relu_5x5_reduce -> inception_4d/5x5_reduce (in-place)
I0403 15:06:47.359048 31150 net.cpp:141] Setting up inception_4d/relu_5x5_reduce
I0403 15:06:47.359074 31150 net.cpp:148] Top shape: 24 32 14 14 (150528)
I0403 15:06:47.359089 31150 net.cpp:156] Memory required for data: 1132858656
I0403 15:06:47.359104 31150 layer_factory.hpp:77] Creating layer inception_4d/5x5
I0403 15:06:47.359125 31150 net.cpp:91] Creating Layer inception_4d/5x5
I0403 15:06:47.359141 31150 net.cpp:425] inception_4d/5x5 <- inception_4d/5x5_reduce
I0403 15:06:47.359159 31150 net.cpp:399] inception_4d/5x5 -> inception_4d/5x5
I0403 15:06:47.360600 31150 net.cpp:141] Setting up inception_4d/5x5
I0403 15:06:47.360630 31150 net.cpp:148] Top shape: 24 64 14 14 (301056)
I0403 15:06:47.360646 31150 net.cpp:156] Memory required for data: 1134062880
I0403 15:06:47.360663 31150 layer_factory.hpp:77] Creating layer inception_4d/relu_5x5
I0403 15:06:47.360695 31150 net.cpp:91] Creating Layer inception_4d/relu_5x5
I0403 15:06:47.360713 31150 net.cpp:425] inception_4d/relu_5x5 <- inception_4d/5x5
I0403 15:06:47.360730 31150 net.cpp:386] inception_4d/relu_5x5 -> inception_4d/5x5 (in-place)
I0403 15:06:47.361045 31150 net.cpp:141] Setting up inception_4d/relu_5x5
I0403 15:06:47.361073 31150 net.cpp:148] Top shape: 24 64 14 14 (301056)
I0403 15:06:47.361089 31150 net.cpp:156] Memory required for data: 1135267104
I0403 15:06:47.361104 31150 layer_factory.hpp:77] Creating layer inception_4d/pool
I0403 15:06:47.361121 31150 net.cpp:91] Creating Layer inception_4d/pool
I0403 15:06:47.361137 31150 net.cpp:425] inception_4d/pool <- inception_4c/output_inception_4c/output_0_split_3
I0403 15:06:47.361160 31150 net.cpp:399] inception_4d/pool -> inception_4d/pool
I0403 15:06:47.361238 31150 net.cpp:141] Setting up inception_4d/pool
I0403 15:06:47.361263 31150 net.cpp:148] Top shape: 24 512 14 14 (2408448)
I0403 15:06:47.361277 31150 net.cpp:156] Memory required for data: 1144900896
I0403 15:06:47.361290 31150 layer_factory.hpp:77] Creating layer inception_4d/pool_proj
I0403 15:06:47.361312 31150 net.cpp:91] Creating Layer inception_4d/pool_proj
I0403 15:06:47.361330 31150 net.cpp:425] inception_4d/pool_proj <- inception_4d/pool
I0403 15:06:47.361347 31150 net.cpp:399] inception_4d/pool_proj -> inception_4d/pool_proj
I0403 15:06:47.363072 31150 net.cpp:141] Setting up inception_4d/pool_proj
I0403 15:06:47.363101 31150 net.cpp:148] Top shape: 24 64 14 14 (301056)
I0403 15:06:47.363116 31150 net.cpp:156] Memory required for data: 1146105120
I0403 15:06:47.363133 31150 layer_factory.hpp:77] Creating layer inception_4d/relu_pool_proj
I0403 15:06:47.363153 31150 net.cpp:91] Creating Layer inception_4d/relu_pool_proj
I0403 15:06:47.363169 31150 net.cpp:425] inception_4d/relu_pool_proj <- inception_4d/pool_proj
I0403 15:06:47.363186 31150 net.cpp:386] inception_4d/relu_pool_proj -> inception_4d/pool_proj (in-place)
I0403 15:06:47.363364 31150 net.cpp:141] Setting up inception_4d/relu_pool_proj
I0403 15:06:47.363387 31150 net.cpp:148] Top shape: 24 64 14 14 (301056)
I0403 15:06:47.363401 31150 net.cpp:156] Memory required for data: 1147309344
I0403 15:06:47.363415 31150 layer_factory.hpp:77] Creating layer inception_4d/output
I0403 15:06:47.363432 31150 net.cpp:91] Creating Layer inception_4d/output
I0403 15:06:47.363447 31150 net.cpp:425] inception_4d/output <- inception_4d/1x1
I0403 15:06:47.363463 31150 net.cpp:425] inception_4d/output <- inception_4d/3x3
I0403 15:06:47.363478 31150 net.cpp:425] inception_4d/output <- inception_4d/5x5
I0403 15:06:47.363493 31150 net.cpp:425] inception_4d/output <- inception_4d/pool_proj
I0403 15:06:47.363509 31150 net.cpp:399] inception_4d/output -> inception_4d/output
I0403 15:06:47.363560 31150 net.cpp:141] Setting up inception_4d/output
I0403 15:06:47.363584 31150 net.cpp:148] Top shape: 24 528 14 14 (2483712)
I0403 15:06:47.363597 31150 net.cpp:156] Memory required for data: 1157244192
I0403 15:06:47.363612 31150 layer_factory.hpp:77] Creating layer inception_4d/output_inception_4d/output_0_split
I0403 15:06:47.363631 31150 net.cpp:91] Creating Layer inception_4d/output_inception_4d/output_0_split
I0403 15:06:47.363647 31150 net.cpp:425] inception_4d/output_inception_4d/output_0_split <- inception_4d/output
I0403 15:06:47.363664 31150 net.cpp:399] inception_4d/output_inception_4d/output_0_split -> inception_4d/output_inception_4d/output_0_split_0
I0403 15:06:47.363684 31150 net.cpp:399] inception_4d/output_inception_4d/output_0_split -> inception_4d/output_inception_4d/output_0_split_1
I0403 15:06:47.363728 31150 net.cpp:399] inception_4d/output_inception_4d/output_0_split -> inception_4d/output_inception_4d/output_0_split_2
I0403 15:06:47.363754 31150 net.cpp:399] inception_4d/output_inception_4d/output_0_split -> inception_4d/output_inception_4d/output_0_split_3
I0403 15:06:47.363773 31150 net.cpp:399] inception_4d/output_inception_4d/output_0_split -> inception_4d/output_inception_4d/output_0_split_4
I0403 15:06:47.363874 31150 net.cpp:141] Setting up inception_4d/output_inception_4d/output_0_split
I0403 15:06:47.363929 31150 net.cpp:148] Top shape: 24 528 14 14 (2483712)
I0403 15:06:47.363948 31150 net.cpp:148] Top shape: 24 528 14 14 (2483712)
I0403 15:06:47.363989 31150 net.cpp:148] Top shape: 24 528 14 14 (2483712)
I0403 15:06:47.364003 31150 net.cpp:148] Top shape: 24 528 14 14 (2483712)
I0403 15:06:47.364018 31150 net.cpp:148] Top shape: 24 528 14 14 (2483712)
I0403 15:06:47.364032 31150 net.cpp:156] Memory required for data: 1206918432
I0403 15:06:47.364045 31150 layer_factory.hpp:77] Creating layer loss2/ave_pool
I0403 15:06:47.364064 31150 net.cpp:91] Creating Layer loss2/ave_pool
I0403 15:06:47.364080 31150 net.cpp:425] loss2/ave_pool <- inception_4d/output_inception_4d/output_0_split_0
I0403 15:06:47.364099 31150 net.cpp:399] loss2/ave_pool -> loss2/ave_pool
I0403 15:06:47.364401 31150 net.cpp:141] Setting up loss2/ave_pool
I0403 15:06:47.364428 31150 net.cpp:148] Top shape: 24 528 4 4 (202752)
I0403 15:06:47.364442 31150 net.cpp:156] Memory required for data: 1207729440
I0403 15:06:47.364456 31150 layer_factory.hpp:77] Creating layer loss2/conv
I0403 15:06:47.364480 31150 net.cpp:91] Creating Layer loss2/conv
I0403 15:06:47.364496 31150 net.cpp:425] loss2/conv <- loss2/ave_pool
I0403 15:06:47.364516 31150 net.cpp:399] loss2/conv -> loss2/conv
I0403 15:06:47.366381 31150 net.cpp:141] Setting up loss2/conv
I0403 15:06:47.366410 31150 net.cpp:148] Top shape: 24 128 4 4 (49152)
I0403 15:06:47.366425 31150 net.cpp:156] Memory required for data: 1207926048
I0403 15:06:47.366442 31150 layer_factory.hpp:77] Creating layer loss2/relu_conv
I0403 15:06:47.366461 31150 net.cpp:91] Creating Layer loss2/relu_conv
I0403 15:06:47.366477 31150 net.cpp:425] loss2/relu_conv <- loss2/conv
I0403 15:06:47.366495 31150 net.cpp:386] loss2/relu_conv -> loss2/conv (in-place)
I0403 15:06:47.366777 31150 net.cpp:141] Setting up loss2/relu_conv
I0403 15:06:47.366802 31150 net.cpp:148] Top shape: 24 128 4 4 (49152)
I0403 15:06:47.366817 31150 net.cpp:156] Memory required for data: 1208122656
I0403 15:06:47.366832 31150 layer_factory.hpp:77] Creating layer loss2/fc
I0403 15:06:47.366849 31150 net.cpp:91] Creating Layer loss2/fc
I0403 15:06:47.366864 31150 net.cpp:425] loss2/fc <- loss2/conv
I0403 15:06:47.366884 31150 net.cpp:399] loss2/fc -> loss2/fc
I0403 15:06:47.384037 31150 net.cpp:141] Setting up loss2/fc
I0403 15:06:47.384100 31150 net.cpp:148] Top shape: 24 1024 (24576)
I0403 15:06:47.384115 31150 net.cpp:156] Memory required for data: 1208220960
I0403 15:06:47.384133 31150 layer_factory.hpp:77] Creating layer loss2/relu_fc
I0403 15:06:47.384151 31150 net.cpp:91] Creating Layer loss2/relu_fc
I0403 15:06:47.384168 31150 net.cpp:425] loss2/relu_fc <- loss2/fc
I0403 15:06:47.384186 31150 net.cpp:386] loss2/relu_fc -> loss2/fc (in-place)
I0403 15:06:47.384495 31150 net.cpp:141] Setting up loss2/relu_fc
I0403 15:06:47.384522 31150 net.cpp:148] Top shape: 24 1024 (24576)
I0403 15:06:47.384548 31150 net.cpp:156] Memory required for data: 1208319264
I0403 15:06:47.384565 31150 layer_factory.hpp:77] Creating layer loss2/drop_fc
I0403 15:06:47.384584 31150 net.cpp:91] Creating Layer loss2/drop_fc
I0403 15:06:47.384598 31150 net.cpp:425] loss2/drop_fc <- loss2/fc
I0403 15:06:47.384616 31150 net.cpp:386] loss2/drop_fc -> loss2/fc (in-place)
I0403 15:06:47.384665 31150 net.cpp:141] Setting up loss2/drop_fc
I0403 15:06:47.384687 31150 net.cpp:148] Top shape: 24 1024 (24576)
I0403 15:06:47.384701 31150 net.cpp:156] Memory required for data: 1208417568
I0403 15:06:47.384716 31150 layer_factory.hpp:77] Creating layer loss2/classifier_plantvillage
I0403 15:06:47.384735 31150 net.cpp:91] Creating Layer loss2/classifier_plantvillage
I0403 15:06:47.384752 31150 net.cpp:425] loss2/classifier_plantvillage <- loss2/fc
I0403 15:06:47.384769 31150 net.cpp:399] loss2/classifier_plantvillage -> loss2/classifier_plantvillage
I0403 15:06:47.385179 31150 net.cpp:141] Setting up loss2/classifier_plantvillage
I0403 15:06:47.385202 31150 net.cpp:148] Top shape: 24 38 (912)
I0403 15:06:47.385233 31150 net.cpp:156] Memory required for data: 1208421216
I0403 15:06:47.385252 31150 layer_factory.hpp:77] Creating layer loss2/classifier_plantvillage_loss2/classifier_plantvillage_0_split
I0403 15:06:47.385270 31150 net.cpp:91] Creating Layer loss2/classifier_plantvillage_loss2/classifier_plantvillage_0_split
I0403 15:06:47.385287 31150 net.cpp:425] loss2/classifier_plantvillage_loss2/classifier_plantvillage_0_split <- loss2/classifier_plantvillage
I0403 15:06:47.385315 31150 net.cpp:399] loss2/classifier_plantvillage_loss2/classifier_plantvillage_0_split -> loss2/classifier_plantvillage_loss2/classifier_plantvillage_0_split_0
I0403 15:06:47.385337 31150 net.cpp:399] loss2/classifier_plantvillage_loss2/classifier_plantvillage_0_split -> loss2/classifier_plantvillage_loss2/classifier_plantvillage_0_split_1
I0403 15:06:47.385359 31150 net.cpp:399] loss2/classifier_plantvillage_loss2/classifier_plantvillage_0_split -> loss2/classifier_plantvillage_loss2/classifier_plantvillage_0_split_2
I0403 15:06:47.385437 31150 net.cpp:141] Setting up loss2/classifier_plantvillage_loss2/classifier_plantvillage_0_split
I0403 15:06:47.385460 31150 net.cpp:148] Top shape: 24 38 (912)
I0403 15:06:47.385476 31150 net.cpp:148] Top shape: 24 38 (912)
I0403 15:06:47.385493 31150 net.cpp:148] Top shape: 24 38 (912)
I0403 15:06:47.385505 31150 net.cpp:156] Memory required for data: 1208432160
I0403 15:06:47.385519 31150 layer_factory.hpp:77] Creating layer inception_4e/1x1
I0403 15:06:47.385560 31150 net.cpp:91] Creating Layer inception_4e/1x1
I0403 15:06:47.385576 31150 net.cpp:425] inception_4e/1x1 <- inception_4d/output_inception_4d/output_0_split_1
I0403 15:06:47.385608 31150 net.cpp:399] inception_4e/1x1 -> inception_4e/1x1
I0403 15:06:47.387486 31150 net.cpp:141] Setting up inception_4e/1x1
I0403 15:06:47.387514 31150 net.cpp:148] Top shape: 24 256 14 14 (1204224)
I0403 15:06:47.387531 31150 net.cpp:156] Memory required for data: 1213249056
I0403 15:06:47.387554 31150 layer_factory.hpp:77] Creating layer inception_4e/relu_1x1
I0403 15:06:47.387578 31150 net.cpp:91] Creating Layer inception_4e/relu_1x1
I0403 15:06:47.387595 31150 net.cpp:425] inception_4e/relu_1x1 <- inception_4e/1x1
I0403 15:06:47.387614 31150 net.cpp:386] inception_4e/relu_1x1 -> inception_4e/1x1 (in-place)
I0403 15:06:47.387919 31150 net.cpp:141] Setting up inception_4e/relu_1x1
I0403 15:06:47.387946 31150 net.cpp:148] Top shape: 24 256 14 14 (1204224)
I0403 15:06:47.387961 31150 net.cpp:156] Memory required for data: 1218065952
I0403 15:06:47.387976 31150 layer_factory.hpp:77] Creating layer inception_4e/3x3_reduce
I0403 15:06:47.388000 31150 net.cpp:91] Creating Layer inception_4e/3x3_reduce
I0403 15:06:47.388017 31150 net.cpp:425] inception_4e/3x3_reduce <- inception_4d/output_inception_4d/output_0_split_2
I0403 15:06:47.388038 31150 net.cpp:399] inception_4e/3x3_reduce -> inception_4e/3x3_reduce
I0403 15:06:47.390239 31150 net.cpp:141] Setting up inception_4e/3x3_reduce
I0403 15:06:47.390278 31150 net.cpp:148] Top shape: 24 160 14 14 (752640)
I0403 15:06:47.390296 31150 net.cpp:156] Memory required for data: 1221076512
I0403 15:06:47.390316 31150 layer_factory.hpp:77] Creating layer inception_4e/relu_3x3_reduce
I0403 15:06:47.390334 31150 net.cpp:91] Creating Layer inception_4e/relu_3x3_reduce
I0403 15:06:47.390349 31150 net.cpp:425] inception_4e/relu_3x3_reduce <- inception_4e/3x3_reduce
I0403 15:06:47.390369 31150 net.cpp:386] inception_4e/relu_3x3_reduce -> inception_4e/3x3_reduce (in-place)
I0403 15:06:47.390568 31150 net.cpp:141] Setting up inception_4e/relu_3x3_reduce
I0403 15:06:47.390594 31150 net.cpp:148] Top shape: 24 160 14 14 (752640)
I0403 15:06:47.390609 31150 net.cpp:156] Memory required for data: 1224087072
I0403 15:06:47.390625 31150 layer_factory.hpp:77] Creating layer inception_4e/3x3
I0403 15:06:47.390646 31150 net.cpp:91] Creating Layer inception_4e/3x3
I0403 15:06:47.390664 31150 net.cpp:425] inception_4e/3x3 <- inception_4e/3x3_reduce
I0403 15:06:47.390686 31150 net.cpp:399] inception_4e/3x3 -> inception_4e/3x3
I0403 15:06:47.395862 31150 net.cpp:141] Setting up inception_4e/3x3
I0403 15:06:47.395906 31150 net.cpp:148] Top shape: 24 320 14 14 (1505280)
I0403 15:06:47.395923 31150 net.cpp:156] Memory required for data: 1230108192
I0403 15:06:47.395942 31150 layer_factory.hpp:77] Creating layer inception_4e/relu_3x3
I0403 15:06:47.395963 31150 net.cpp:91] Creating Layer inception_4e/relu_3x3
I0403 15:06:47.395980 31150 net.cpp:425] inception_4e/relu_3x3 <- inception_4e/3x3
I0403 15:06:47.395998 31150 net.cpp:386] inception_4e/relu_3x3 -> inception_4e/3x3 (in-place)
I0403 15:06:47.396309 31150 net.cpp:141] Setting up inception_4e/relu_3x3
I0403 15:06:47.396337 31150 net.cpp:148] Top shape: 24 320 14 14 (1505280)
I0403 15:06:47.396352 31150 net.cpp:156] Memory required for data: 1236129312
I0403 15:06:47.396366 31150 layer_factory.hpp:77] Creating layer inception_4e/5x5_reduce
I0403 15:06:47.396389 31150 net.cpp:91] Creating Layer inception_4e/5x5_reduce
I0403 15:06:47.396407 31150 net.cpp:425] inception_4e/5x5_reduce <- inception_4d/output_inception_4d/output_0_split_3
I0403 15:06:47.396430 31150 net.cpp:399] inception_4e/5x5_reduce -> inception_4e/5x5_reduce
I0403 15:06:47.397552 31150 net.cpp:141] Setting up inception_4e/5x5_reduce
I0403 15:06:47.397583 31150 net.cpp:148] Top shape: 24 32 14 14 (150528)
I0403 15:06:47.397600 31150 net.cpp:156] Memory required for data: 1236731424
I0403 15:06:47.397619 31150 layer_factory.hpp:77] Creating layer inception_4e/relu_5x5_reduce
I0403 15:06:47.397639 31150 net.cpp:91] Creating Layer inception_4e/relu_5x5_reduce
I0403 15:06:47.397655 31150 net.cpp:425] inception_4e/relu_5x5_reduce <- inception_4e/5x5_reduce
I0403 15:06:47.397675 31150 net.cpp:386] inception_4e/relu_5x5_reduce -> inception_4e/5x5_reduce (in-place)
I0403 15:06:47.397986 31150 net.cpp:141] Setting up inception_4e/relu_5x5_reduce
I0403 15:06:47.398015 31150 net.cpp:148] Top shape: 24 32 14 14 (150528)
I0403 15:06:47.398030 31150 net.cpp:156] Memory required for data: 1237333536
I0403 15:06:47.398046 31150 layer_factory.hpp:77] Creating layer inception_4e/5x5
I0403 15:06:47.398084 31150 net.cpp:91] Creating Layer inception_4e/5x5
I0403 15:06:47.398103 31150 net.cpp:425] inception_4e/5x5 <- inception_4e/5x5_reduce
I0403 15:06:47.398123 31150 net.cpp:399] inception_4e/5x5 -> inception_4e/5x5
I0403 15:06:47.400056 31150 net.cpp:141] Setting up inception_4e/5x5
I0403 15:06:47.400086 31150 net.cpp:148] Top shape: 24 128 14 14 (602112)
I0403 15:06:47.400102 31150 net.cpp:156] Memory required for data: 1239741984
I0403 15:06:47.400121 31150 layer_factory.hpp:77] Creating layer inception_4e/relu_5x5
I0403 15:06:47.400140 31150 net.cpp:91] Creating Layer inception_4e/relu_5x5
I0403 15:06:47.400156 31150 net.cpp:425] inception_4e/relu_5x5 <- inception_4e/5x5
I0403 15:06:47.400176 31150 net.cpp:386] inception_4e/relu_5x5 -> inception_4e/5x5 (in-place)
I0403 15:06:47.400372 31150 net.cpp:141] Setting up inception_4e/relu_5x5
I0403 15:06:47.400398 31150 net.cpp:148] Top shape: 24 128 14 14 (602112)
I0403 15:06:47.400413 31150 net.cpp:156] Memory required for data: 1242150432
I0403 15:06:47.400426 31150 layer_factory.hpp:77] Creating layer inception_4e/pool
I0403 15:06:47.400444 31150 net.cpp:91] Creating Layer inception_4e/pool
I0403 15:06:47.400460 31150 net.cpp:425] inception_4e/pool <- inception_4d/output_inception_4d/output_0_split_4
I0403 15:06:47.400481 31150 net.cpp:399] inception_4e/pool -> inception_4e/pool
I0403 15:06:47.400558 31150 net.cpp:141] Setting up inception_4e/pool
I0403 15:06:47.400583 31150 net.cpp:148] Top shape: 24 528 14 14 (2483712)
I0403 15:06:47.400598 31150 net.cpp:156] Memory required for data: 1252085280
I0403 15:06:47.400624 31150 layer_factory.hpp:77] Creating layer inception_4e/pool_proj
I0403 15:06:47.400648 31150 net.cpp:91] Creating Layer inception_4e/pool_proj
I0403 15:06:47.400665 31150 net.cpp:425] inception_4e/pool_proj <- inception_4e/pool
I0403 15:06:47.400684 31150 net.cpp:399] inception_4e/pool_proj -> inception_4e/pool_proj
I0403 15:06:47.402251 31150 net.cpp:141] Setting up inception_4e/pool_proj
I0403 15:06:47.402290 31150 net.cpp:148] Top shape: 24 128 14 14 (602112)
I0403 15:06:47.402307 31150 net.cpp:156] Memory required for data: 1254493728
I0403 15:06:47.402325 31150 layer_factory.hpp:77] Creating layer inception_4e/relu_pool_proj
I0403 15:06:47.402346 31150 net.cpp:91] Creating Layer inception_4e/relu_pool_proj
I0403 15:06:47.402364 31150 net.cpp:425] inception_4e/relu_pool_proj <- inception_4e/pool_proj
I0403 15:06:47.402381 31150 net.cpp:386] inception_4e/relu_pool_proj -> inception_4e/pool_proj (in-place)
I0403 15:06:47.402696 31150 net.cpp:141] Setting up inception_4e/relu_pool_proj
I0403 15:06:47.402724 31150 net.cpp:148] Top shape: 24 128 14 14 (602112)
I0403 15:06:47.402739 31150 net.cpp:156] Memory required for data: 1256902176
I0403 15:06:47.402753 31150 layer_factory.hpp:77] Creating layer inception_4e/output
I0403 15:06:47.402773 31150 net.cpp:91] Creating Layer inception_4e/output
I0403 15:06:47.402789 31150 net.cpp:425] inception_4e/output <- inception_4e/1x1
I0403 15:06:47.402807 31150 net.cpp:425] inception_4e/output <- inception_4e/3x3
I0403 15:06:47.402824 31150 net.cpp:425] inception_4e/output <- inception_4e/5x5
I0403 15:06:47.402840 31150 net.cpp:425] inception_4e/output <- inception_4e/pool_proj
I0403 15:06:47.402858 31150 net.cpp:399] inception_4e/output -> inception_4e/output
I0403 15:06:47.402922 31150 net.cpp:141] Setting up inception_4e/output
I0403 15:06:47.402945 31150 net.cpp:148] Top shape: 24 832 14 14 (3913728)
I0403 15:06:47.402959 31150 net.cpp:156] Memory required for data: 1272557088
I0403 15:06:47.402974 31150 layer_factory.hpp:77] Creating layer pool4/3x3_s2
I0403 15:06:47.402992 31150 net.cpp:91] Creating Layer pool4/3x3_s2
I0403 15:06:47.403007 31150 net.cpp:425] pool4/3x3_s2 <- inception_4e/output
I0403 15:06:47.403028 31150 net.cpp:399] pool4/3x3_s2 -> pool4/3x3_s2
I0403 15:06:47.403098 31150 net.cpp:141] Setting up pool4/3x3_s2
I0403 15:06:47.403121 31150 net.cpp:148] Top shape: 24 832 7 7 (978432)
I0403 15:06:47.403136 31150 net.cpp:156] Memory required for data: 1276470816
I0403 15:06:47.403151 31150 layer_factory.hpp:77] Creating layer pool4/3x3_s2_pool4/3x3_s2_0_split
I0403 15:06:47.403169 31150 net.cpp:91] Creating Layer pool4/3x3_s2_pool4/3x3_s2_0_split
I0403 15:06:47.403185 31150 net.cpp:425] pool4/3x3_s2_pool4/3x3_s2_0_split <- pool4/3x3_s2
I0403 15:06:47.403204 31150 net.cpp:399] pool4/3x3_s2_pool4/3x3_s2_0_split -> pool4/3x3_s2_pool4/3x3_s2_0_split_0
I0403 15:06:47.403224 31150 net.cpp:399] pool4/3x3_s2_pool4/3x3_s2_0_split -> pool4/3x3_s2_pool4/3x3_s2_0_split_1
I0403 15:06:47.403254 31150 net.cpp:399] pool4/3x3_s2_pool4/3x3_s2_0_split -> pool4/3x3_s2_pool4/3x3_s2_0_split_2
I0403 15:06:47.403275 31150 net.cpp:399] pool4/3x3_s2_pool4/3x3_s2_0_split -> pool4/3x3_s2_pool4/3x3_s2_0_split_3
I0403 15:06:47.403367 31150 net.cpp:141] Setting up pool4/3x3_s2_pool4/3x3_s2_0_split
I0403 15:06:47.403391 31150 net.cpp:148] Top shape: 24 832 7 7 (978432)
I0403 15:06:47.403408 31150 net.cpp:148] Top shape: 24 832 7 7 (978432)
I0403 15:06:47.403424 31150 net.cpp:148] Top shape: 24 832 7 7 (978432)
I0403 15:06:47.403439 31150 net.cpp:148] Top shape: 24 832 7 7 (978432)
I0403 15:06:47.403451 31150 net.cpp:156] Memory required for data: 1292125728
I0403 15:06:47.403466 31150 layer_factory.hpp:77] Creating layer inception_5a/1x1
I0403 15:06:47.403487 31150 net.cpp:91] Creating Layer inception_5a/1x1
I0403 15:06:47.403504 31150 net.cpp:425] inception_5a/1x1 <- pool4/3x3_s2_pool4/3x3_s2_0_split_0
I0403 15:06:47.403523 31150 net.cpp:399] inception_5a/1x1 -> inception_5a/1x1
I0403 15:06:47.406462 31150 net.cpp:141] Setting up inception_5a/1x1
I0403 15:06:47.406493 31150 net.cpp:148] Top shape: 24 256 7 7 (301056)
I0403 15:06:47.406509 31150 net.cpp:156] Memory required for data: 1293329952
I0403 15:06:47.406527 31150 layer_factory.hpp:77] Creating layer inception_5a/relu_1x1
I0403 15:06:47.406550 31150 net.cpp:91] Creating Layer inception_5a/relu_1x1
I0403 15:06:47.406566 31150 net.cpp:425] inception_5a/relu_1x1 <- inception_5a/1x1
I0403 15:06:47.406585 31150 net.cpp:386] inception_5a/relu_1x1 -> inception_5a/1x1 (in-place)
I0403 15:06:47.406926 31150 net.cpp:141] Setting up inception_5a/relu_1x1
I0403 15:06:47.406954 31150 net.cpp:148] Top shape: 24 256 7 7 (301056)
I0403 15:06:47.406968 31150 net.cpp:156] Memory required for data: 1294534176
I0403 15:06:47.406983 31150 layer_factory.hpp:77] Creating layer inception_5a/3x3_reduce
I0403 15:06:47.407004 31150 net.cpp:91] Creating Layer inception_5a/3x3_reduce
I0403 15:06:47.407022 31150 net.cpp:425] inception_5a/3x3_reduce <- pool4/3x3_s2_pool4/3x3_s2_0_split_1
I0403 15:06:47.407042 31150 net.cpp:399] inception_5a/3x3_reduce -> inception_5a/3x3_reduce
I0403 15:06:47.409492 31150 net.cpp:141] Setting up inception_5a/3x3_reduce
I0403 15:06:47.409523 31150 net.cpp:148] Top shape: 24 160 7 7 (188160)
I0403 15:06:47.409543 31150 net.cpp:156] Memory required for data: 1295286816
I0403 15:06:47.409561 31150 layer_factory.hpp:77] Creating layer inception_5a/relu_3x3_reduce
I0403 15:06:47.409590 31150 net.cpp:91] Creating Layer inception_5a/relu_3x3_reduce
I0403 15:06:47.409607 31150 net.cpp:425] inception_5a/relu_3x3_reduce <- inception_5a/3x3_reduce
I0403 15:06:47.409623 31150 net.cpp:386] inception_5a/relu_3x3_reduce -> inception_5a/3x3_reduce (in-place)
I0403 15:06:47.409806 31150 net.cpp:141] Setting up inception_5a/relu_3x3_reduce
I0403 15:06:47.409832 31150 net.cpp:148] Top shape: 24 160 7 7 (188160)
I0403 15:06:47.409847 31150 net.cpp:156] Memory required for data: 1296039456
I0403 15:06:47.409862 31150 layer_factory.hpp:77] Creating layer inception_5a/3x3
I0403 15:06:47.409885 31150 net.cpp:91] Creating Layer inception_5a/3x3
I0403 15:06:47.409903 31150 net.cpp:425] inception_5a/3x3 <- inception_5a/3x3_reduce
I0403 15:06:47.409920 31150 net.cpp:399] inception_5a/3x3 -> inception_5a/3x3
I0403 15:06:47.414821 31150 net.cpp:141] Setting up inception_5a/3x3
I0403 15:06:47.414852 31150 net.cpp:148] Top shape: 24 320 7 7 (376320)
I0403 15:06:47.414868 31150 net.cpp:156] Memory required for data: 1297544736
I0403 15:06:47.414886 31150 layer_factory.hpp:77] Creating layer inception_5a/relu_3x3
I0403 15:06:47.414904 31150 net.cpp:91] Creating Layer inception_5a/relu_3x3
I0403 15:06:47.414921 31150 net.cpp:425] inception_5a/relu_3x3 <- inception_5a/3x3
I0403 15:06:47.414940 31150 net.cpp:386] inception_5a/relu_3x3 -> inception_5a/3x3 (in-place)
I0403 15:06:47.415222 31150 net.cpp:141] Setting up inception_5a/relu_3x3
I0403 15:06:47.415251 31150 net.cpp:148] Top shape: 24 320 7 7 (376320)
I0403 15:06:47.415266 31150 net.cpp:156] Memory required for data: 1299050016
I0403 15:06:47.415280 31150 layer_factory.hpp:77] Creating layer inception_5a/5x5_reduce
I0403 15:06:47.415303 31150 net.cpp:91] Creating Layer inception_5a/5x5_reduce
I0403 15:06:47.415320 31150 net.cpp:425] inception_5a/5x5_reduce <- pool4/3x3_s2_pool4/3x3_s2_0_split_2
I0403 15:06:47.415339 31150 net.cpp:399] inception_5a/5x5_reduce -> inception_5a/5x5_reduce
I0403 15:06:47.416486 31150 net.cpp:141] Setting up inception_5a/5x5_reduce
I0403 15:06:47.416517 31150 net.cpp:148] Top shape: 24 32 7 7 (37632)
I0403 15:06:47.416532 31150 net.cpp:156] Memory required for data: 1299200544
I0403 15:06:47.416554 31150 layer_factory.hpp:77] Creating layer inception_5a/relu_5x5_reduce
I0403 15:06:47.416574 31150 net.cpp:91] Creating Layer inception_5a/relu_5x5_reduce
I0403 15:06:47.416590 31150 net.cpp:425] inception_5a/relu_5x5_reduce <- inception_5a/5x5_reduce
I0403 15:06:47.416610 31150 net.cpp:386] inception_5a/relu_5x5_reduce -> inception_5a/5x5_reduce (in-place)
I0403 15:06:47.416903 31150 net.cpp:141] Setting up inception_5a/relu_5x5_reduce
I0403 15:06:47.416928 31150 net.cpp:148] Top shape: 24 32 7 7 (37632)
I0403 15:06:47.416942 31150 net.cpp:156] Memory required for data: 1299351072
I0403 15:06:47.416956 31150 layer_factory.hpp:77] Creating layer inception_5a/5x5
I0403 15:06:47.416978 31150 net.cpp:91] Creating Layer inception_5a/5x5
I0403 15:06:47.416996 31150 net.cpp:425] inception_5a/5x5 <- inception_5a/5x5_reduce
I0403 15:06:47.417016 31150 net.cpp:399] inception_5a/5x5 -> inception_5a/5x5
I0403 15:06:47.418707 31150 net.cpp:141] Setting up inception_5a/5x5
I0403 15:06:47.418747 31150 net.cpp:148] Top shape: 24 128 7 7 (150528)
I0403 15:06:47.418764 31150 net.cpp:156] Memory required for data: 1299953184
I0403 15:06:47.418781 31150 layer_factory.hpp:77] Creating layer inception_5a/relu_5x5
I0403 15:06:47.418800 31150 net.cpp:91] Creating Layer inception_5a/relu_5x5
I0403 15:06:47.418817 31150 net.cpp:425] inception_5a/relu_5x5 <- inception_5a/5x5
I0403 15:06:47.418835 31150 net.cpp:386] inception_5a/relu_5x5 -> inception_5a/5x5 (in-place)
I0403 15:06:47.419020 31150 net.cpp:141] Setting up inception_5a/relu_5x5
I0403 15:06:47.419044 31150 net.cpp:148] Top shape: 24 128 7 7 (150528)
I0403 15:06:47.419057 31150 net.cpp:156] Memory required for data: 1300555296
I0403 15:06:47.419072 31150 layer_factory.hpp:77] Creating layer inception_5a/pool
I0403 15:06:47.419090 31150 net.cpp:91] Creating Layer inception_5a/pool
I0403 15:06:47.419106 31150 net.cpp:425] inception_5a/pool <- pool4/3x3_s2_pool4/3x3_s2_0_split_3
I0403 15:06:47.419124 31150 net.cpp:399] inception_5a/pool -> inception_5a/pool
I0403 15:06:47.419193 31150 net.cpp:141] Setting up inception_5a/pool
I0403 15:06:47.419216 31150 net.cpp:148] Top shape: 24 832 7 7 (978432)
I0403 15:06:47.419230 31150 net.cpp:156] Memory required for data: 1304469024
I0403 15:06:47.419245 31150 layer_factory.hpp:77] Creating layer inception_5a/pool_proj
I0403 15:06:47.419267 31150 net.cpp:91] Creating Layer inception_5a/pool_proj
I0403 15:06:47.419283 31150 net.cpp:425] inception_5a/pool_proj <- inception_5a/pool
I0403 15:06:47.419301 31150 net.cpp:399] inception_5a/pool_proj -> inception_5a/pool_proj
I0403 15:06:47.421542 31150 net.cpp:141] Setting up inception_5a/pool_proj
I0403 15:06:47.421572 31150 net.cpp:148] Top shape: 24 128 7 7 (150528)
I0403 15:06:47.421588 31150 net.cpp:156] Memory required for data: 1305071136
I0403 15:06:47.421607 31150 layer_factory.hpp:77] Creating layer inception_5a/relu_pool_proj
I0403 15:06:47.421625 31150 net.cpp:91] Creating Layer inception_5a/relu_pool_proj
I0403 15:06:47.421641 31150 net.cpp:425] inception_5a/relu_pool_proj <- inception_5a/pool_proj
I0403 15:06:47.421658 31150 net.cpp:386] inception_5a/relu_pool_proj -> inception_5a/pool_proj (in-place)
I0403 15:06:47.421952 31150 net.cpp:141] Setting up inception_5a/relu_pool_proj
I0403 15:06:47.421980 31150 net.cpp:148] Top shape: 24 128 7 7 (150528)
I0403 15:06:47.421995 31150 net.cpp:156] Memory required for data: 1305673248
I0403 15:06:47.422009 31150 layer_factory.hpp:77] Creating layer inception_5a/output
I0403 15:06:47.422026 31150 net.cpp:91] Creating Layer inception_5a/output
I0403 15:06:47.422042 31150 net.cpp:425] inception_5a/output <- inception_5a/1x1
I0403 15:06:47.422060 31150 net.cpp:425] inception_5a/output <- inception_5a/3x3
I0403 15:06:47.422075 31150 net.cpp:425] inception_5a/output <- inception_5a/5x5
I0403 15:06:47.422091 31150 net.cpp:425] inception_5a/output <- inception_5a/pool_proj
I0403 15:06:47.422106 31150 net.cpp:399] inception_5a/output -> inception_5a/output
I0403 15:06:47.422155 31150 net.cpp:141] Setting up inception_5a/output
I0403 15:06:47.422178 31150 net.cpp:148] Top shape: 24 832 7 7 (978432)
I0403 15:06:47.422193 31150 net.cpp:156] Memory required for data: 1309586976
I0403 15:06:47.422207 31150 layer_factory.hpp:77] Creating layer inception_5a/output_inception_5a/output_0_split
I0403 15:06:47.422224 31150 net.cpp:91] Creating Layer inception_5a/output_inception_5a/output_0_split
I0403 15:06:47.422238 31150 net.cpp:425] inception_5a/output_inception_5a/output_0_split <- inception_5a/output
I0403 15:06:47.422257 31150 net.cpp:399] inception_5a/output_inception_5a/output_0_split -> inception_5a/output_inception_5a/output_0_split_0
I0403 15:06:47.422277 31150 net.cpp:399] inception_5a/output_inception_5a/output_0_split -> inception_5a/output_inception_5a/output_0_split_1
I0403 15:06:47.422297 31150 net.cpp:399] inception_5a/output_inception_5a/output_0_split -> inception_5a/output_inception_5a/output_0_split_2
I0403 15:06:47.422317 31150 net.cpp:399] inception_5a/output_inception_5a/output_0_split -> inception_5a/output_inception_5a/output_0_split_3
I0403 15:06:47.422425 31150 net.cpp:141] Setting up inception_5a/output_inception_5a/output_0_split
I0403 15:06:47.422448 31150 net.cpp:148] Top shape: 24 832 7 7 (978432)
I0403 15:06:47.422463 31150 net.cpp:148] Top shape: 24 832 7 7 (978432)
I0403 15:06:47.422478 31150 net.cpp:148] Top shape: 24 832 7 7 (978432)
I0403 15:06:47.422492 31150 net.cpp:148] Top shape: 24 832 7 7 (978432)
I0403 15:06:47.422505 31150 net.cpp:156] Memory required for data: 1325241888
I0403 15:06:47.422519 31150 layer_factory.hpp:77] Creating layer inception_5b/1x1
I0403 15:06:47.422545 31150 net.cpp:91] Creating Layer inception_5b/1x1
I0403 15:06:47.422564 31150 net.cpp:425] inception_5b/1x1 <- inception_5a/output_inception_5a/output_0_split_0
I0403 15:06:47.422585 31150 net.cpp:399] inception_5b/1x1 -> inception_5b/1x1
I0403 15:06:47.426312 31150 net.cpp:141] Setting up inception_5b/1x1
I0403 15:06:47.426342 31150 net.cpp:148] Top shape: 24 384 7 7 (451584)
I0403 15:06:47.426358 31150 net.cpp:156] Memory required for data: 1327048224
I0403 15:06:47.426376 31150 layer_factory.hpp:77] Creating layer inception_5b/relu_1x1
I0403 15:06:47.426398 31150 net.cpp:91] Creating Layer inception_5b/relu_1x1
I0403 15:06:47.426414 31150 net.cpp:425] inception_5b/relu_1x1 <- inception_5b/1x1
I0403 15:06:47.426431 31150 net.cpp:386] inception_5b/relu_1x1 -> inception_5b/1x1 (in-place)
I0403 15:06:47.426749 31150 net.cpp:141] Setting up inception_5b/relu_1x1
I0403 15:06:47.426774 31150 net.cpp:148] Top shape: 24 384 7 7 (451584)
I0403 15:06:47.426789 31150 net.cpp:156] Memory required for data: 1328854560
I0403 15:06:47.426803 31150 layer_factory.hpp:77] Creating layer inception_5b/3x3_reduce
I0403 15:06:47.426825 31150 net.cpp:91] Creating Layer inception_5b/3x3_reduce
I0403 15:06:47.426841 31150 net.cpp:425] inception_5b/3x3_reduce <- inception_5a/output_inception_5a/output_0_split_1
I0403 15:06:47.426865 31150 net.cpp:399] inception_5b/3x3_reduce -> inception_5b/3x3_reduce
I0403 15:06:47.429456 31150 net.cpp:141] Setting up inception_5b/3x3_reduce
I0403 15:06:47.429484 31150 net.cpp:148] Top shape: 24 192 7 7 (225792)
I0403 15:06:47.429499 31150 net.cpp:156] Memory required for data: 1329757728
I0403 15:06:47.429517 31150 layer_factory.hpp:77] Creating layer inception_5b/relu_3x3_reduce
I0403 15:06:47.429543 31150 net.cpp:91] Creating Layer inception_5b/relu_3x3_reduce
I0403 15:06:47.429560 31150 net.cpp:425] inception_5b/relu_3x3_reduce <- inception_5b/3x3_reduce
I0403 15:06:47.429579 31150 net.cpp:386] inception_5b/relu_3x3_reduce -> inception_5b/3x3_reduce (in-place)
I0403 15:06:47.429765 31150 net.cpp:141] Setting up inception_5b/relu_3x3_reduce
I0403 15:06:47.429790 31150 net.cpp:148] Top shape: 24 192 7 7 (225792)
I0403 15:06:47.429805 31150 net.cpp:156] Memory required for data: 1330660896
I0403 15:06:47.429819 31150 layer_factory.hpp:77] Creating layer inception_5b/3x3
I0403 15:06:47.429841 31150 net.cpp:91] Creating Layer inception_5b/3x3
I0403 15:06:47.429857 31150 net.cpp:425] inception_5b/3x3 <- inception_5b/3x3_reduce
I0403 15:06:47.429877 31150 net.cpp:399] inception_5b/3x3 -> inception_5b/3x3
I0403 15:06:47.436666 31150 net.cpp:141] Setting up inception_5b/3x3
I0403 15:06:47.436697 31150 net.cpp:148] Top shape: 24 384 7 7 (451584)
I0403 15:06:47.436712 31150 net.cpp:156] Memory required for data: 1332467232
I0403 15:06:47.436731 31150 layer_factory.hpp:77] Creating layer inception_5b/relu_3x3
I0403 15:06:47.436750 31150 net.cpp:91] Creating Layer inception_5b/relu_3x3
I0403 15:06:47.436766 31150 net.cpp:425] inception_5b/relu_3x3 <- inception_5b/3x3
I0403 15:06:47.436784 31150 net.cpp:386] inception_5b/relu_3x3 -> inception_5b/3x3 (in-place)
I0403 15:06:47.437085 31150 net.cpp:141] Setting up inception_5b/relu_3x3
I0403 15:06:47.437114 31150 net.cpp:148] Top shape: 24 384 7 7 (451584)
I0403 15:06:47.437129 31150 net.cpp:156] Memory required for data: 1334273568
I0403 15:06:47.437144 31150 layer_factory.hpp:77] Creating layer inception_5b/5x5_reduce
I0403 15:06:47.437180 31150 net.cpp:91] Creating Layer inception_5b/5x5_reduce
I0403 15:06:47.437197 31150 net.cpp:425] inception_5b/5x5_reduce <- inception_5a/output_inception_5a/output_0_split_2
I0403 15:06:47.437218 31150 net.cpp:399] inception_5b/5x5_reduce -> inception_5b/5x5_reduce
I0403 15:06:47.438508 31150 net.cpp:141] Setting up inception_5b/5x5_reduce
I0403 15:06:47.438539 31150 net.cpp:148] Top shape: 24 48 7 7 (56448)
I0403 15:06:47.438556 31150 net.cpp:156] Memory required for data: 1334499360
I0403 15:06:47.438575 31150 layer_factory.hpp:77] Creating layer inception_5b/relu_5x5_reduce
I0403 15:06:47.438596 31150 net.cpp:91] Creating Layer inception_5b/relu_5x5_reduce
I0403 15:06:47.438612 31150 net.cpp:425] inception_5b/relu_5x5_reduce <- inception_5b/5x5_reduce
I0403 15:06:47.438629 31150 net.cpp:386] inception_5b/relu_5x5_reduce -> inception_5b/5x5_reduce (in-place)
I0403 15:06:47.439005 31150 net.cpp:141] Setting up inception_5b/relu_5x5_reduce
I0403 15:06:47.439031 31150 net.cpp:148] Top shape: 24 48 7 7 (56448)
I0403 15:06:47.439046 31150 net.cpp:156] Memory required for data: 1334725152
I0403 15:06:47.439061 31150 layer_factory.hpp:77] Creating layer inception_5b/5x5
I0403 15:06:47.439081 31150 net.cpp:91] Creating Layer inception_5b/5x5
I0403 15:06:47.439098 31150 net.cpp:425] inception_5b/5x5 <- inception_5b/5x5_reduce
I0403 15:06:47.439116 31150 net.cpp:399] inception_5b/5x5 -> inception_5b/5x5
I0403 15:06:47.441181 31150 net.cpp:141] Setting up inception_5b/5x5
I0403 15:06:47.441212 31150 net.cpp:148] Top shape: 24 128 7 7 (150528)
I0403 15:06:47.441228 31150 net.cpp:156] Memory required for data: 1335327264
I0403 15:06:47.441247 31150 layer_factory.hpp:77] Creating layer inception_5b/relu_5x5
I0403 15:06:47.441265 31150 net.cpp:91] Creating Layer inception_5b/relu_5x5
I0403 15:06:47.441282 31150 net.cpp:425] inception_5b/relu_5x5 <- inception_5b/5x5
I0403 15:06:47.441300 31150 net.cpp:386] inception_5b/relu_5x5 -> inception_5b/5x5 (in-place)
I0403 15:06:47.441498 31150 net.cpp:141] Setting up inception_5b/relu_5x5
I0403 15:06:47.441522 31150 net.cpp:148] Top shape: 24 128 7 7 (150528)
I0403 15:06:47.441541 31150 net.cpp:156] Memory required for data: 1335929376
I0403 15:06:47.441557 31150 layer_factory.hpp:77] Creating layer inception_5b/pool
I0403 15:06:47.441576 31150 net.cpp:91] Creating Layer inception_5b/pool
I0403 15:06:47.441591 31150 net.cpp:425] inception_5b/pool <- inception_5a/output_inception_5a/output_0_split_3
I0403 15:06:47.441612 31150 net.cpp:399] inception_5b/pool -> inception_5b/pool
I0403 15:06:47.441691 31150 net.cpp:141] Setting up inception_5b/pool
I0403 15:06:47.441715 31150 net.cpp:148] Top shape: 24 832 7 7 (978432)
I0403 15:06:47.441730 31150 net.cpp:156] Memory required for data: 1339843104
I0403 15:06:47.441745 31150 layer_factory.hpp:77] Creating layer inception_5b/pool_proj
I0403 15:06:47.441766 31150 net.cpp:91] Creating Layer inception_5b/pool_proj
I0403 15:06:47.441783 31150 net.cpp:425] inception_5b/pool_proj <- inception_5b/pool
I0403 15:06:47.441803 31150 net.cpp:399] inception_5b/pool_proj -> inception_5b/pool_proj
I0403 15:06:47.444144 31150 net.cpp:141] Setting up inception_5b/pool_proj
I0403 15:06:47.444174 31150 net.cpp:148] Top shape: 24 128 7 7 (150528)
I0403 15:06:47.444190 31150 net.cpp:156] Memory required for data: 1340445216
I0403 15:06:47.444208 31150 layer_factory.hpp:77] Creating layer inception_5b/relu_pool_proj
I0403 15:06:47.444229 31150 net.cpp:91] Creating Layer inception_5b/relu_pool_proj
I0403 15:06:47.444247 31150 net.cpp:425] inception_5b/relu_pool_proj <- inception_5b/pool_proj
I0403 15:06:47.444265 31150 net.cpp:386] inception_5b/relu_pool_proj -> inception_5b/pool_proj (in-place)
I0403 15:06:47.444577 31150 net.cpp:141] Setting up inception_5b/relu_pool_proj
I0403 15:06:47.444603 31150 net.cpp:148] Top shape: 24 128 7 7 (150528)
I0403 15:06:47.444618 31150 net.cpp:156] Memory required for data: 1341047328
I0403 15:06:47.444633 31150 layer_factory.hpp:77] Creating layer inception_5b/output
I0403 15:06:47.444653 31150 net.cpp:91] Creating Layer inception_5b/output
I0403 15:06:47.444684 31150 net.cpp:425] inception_5b/output <- inception_5b/1x1
I0403 15:06:47.444702 31150 net.cpp:425] inception_5b/output <- inception_5b/3x3
I0403 15:06:47.444720 31150 net.cpp:425] inception_5b/output <- inception_5b/5x5
I0403 15:06:47.444736 31150 net.cpp:425] inception_5b/output <- inception_5b/pool_proj
I0403 15:06:47.444752 31150 net.cpp:399] inception_5b/output -> inception_5b/output
I0403 15:06:47.444807 31150 net.cpp:141] Setting up inception_5b/output
I0403 15:06:47.444829 31150 net.cpp:148] Top shape: 24 1024 7 7 (1204224)
I0403 15:06:47.444844 31150 net.cpp:156] Memory required for data: 1345864224
I0403 15:06:47.444859 31150 layer_factory.hpp:77] Creating layer pool5/7x7_s1
I0403 15:06:47.444878 31150 net.cpp:91] Creating Layer pool5/7x7_s1
I0403 15:06:47.444895 31150 net.cpp:425] pool5/7x7_s1 <- inception_5b/output
I0403 15:06:47.444913 31150 net.cpp:399] pool5/7x7_s1 -> pool5/7x7_s1
I0403 15:06:47.445132 31150 net.cpp:141] Setting up pool5/7x7_s1
I0403 15:06:47.445158 31150 net.cpp:148] Top shape: 24 1024 1 1 (24576)
I0403 15:06:47.445173 31150 net.cpp:156] Memory required for data: 1345962528
I0403 15:06:47.445188 31150 layer_factory.hpp:77] Creating layer pool5/drop_7x7_s1
I0403 15:06:47.445204 31150 net.cpp:91] Creating Layer pool5/drop_7x7_s1
I0403 15:06:47.445220 31150 net.cpp:425] pool5/drop_7x7_s1 <- pool5/7x7_s1
I0403 15:06:47.445240 31150 net.cpp:386] pool5/drop_7x7_s1 -> pool5/7x7_s1 (in-place)
I0403 15:06:47.445291 31150 net.cpp:141] Setting up pool5/drop_7x7_s1
I0403 15:06:47.445313 31150 net.cpp:148] Top shape: 24 1024 1 1 (24576)
I0403 15:06:47.445329 31150 net.cpp:156] Memory required for data: 1346060832
I0403 15:06:47.445345 31150 layer_factory.hpp:77] Creating layer loss3/classifier_plantvillage
I0403 15:06:47.445368 31150 net.cpp:91] Creating Layer loss3/classifier_plantvillage
I0403 15:06:47.445384 31150 net.cpp:425] loss3/classifier_plantvillage <- pool5/7x7_s1
I0403 15:06:47.445405 31150 net.cpp:399] loss3/classifier_plantvillage -> loss3/classifier_plantvillage
I0403 15:06:47.445837 31150 net.cpp:141] Setting up loss3/classifier_plantvillage
I0403 15:06:47.445861 31150 net.cpp:148] Top shape: 24 38 (912)
I0403 15:06:47.445876 31150 net.cpp:156] Memory required for data: 1346064480
I0403 15:06:47.445894 31150 layer_factory.hpp:77] Creating layer loss3/classifier_plantvillage_loss3/classifier_plantvillage_0_split
I0403 15:06:47.445914 31150 net.cpp:91] Creating Layer loss3/classifier_plantvillage_loss3/classifier_plantvillage_0_split
I0403 15:06:47.445933 31150 net.cpp:425] loss3/classifier_plantvillage_loss3/classifier_plantvillage_0_split <- loss3/classifier_plantvillage
I0403 15:06:47.445950 31150 net.cpp:399] loss3/classifier_plantvillage_loss3/classifier_plantvillage_0_split -> loss3/classifier_plantvillage_loss3/classifier_plantvillage_0_split_0
I0403 15:06:47.445971 31150 net.cpp:399] loss3/classifier_plantvillage_loss3/classifier_plantvillage_0_split -> loss3/classifier_plantvillage_loss3/classifier_plantvillage_0_split_1
I0403 15:06:47.445991 31150 net.cpp:399] loss3/classifier_plantvillage_loss3/classifier_plantvillage_0_split -> loss3/classifier_plantvillage_loss3/classifier_plantvillage_0_split_2
I0403 15:06:47.446009 31150 net.cpp:399] loss3/classifier_plantvillage_loss3/classifier_plantvillage_0_split -> loss3/classifier_plantvillage_loss3/classifier_plantvillage_0_split_3
I0403 15:06:47.446110 31150 net.cpp:141] Setting up loss3/classifier_plantvillage_loss3/classifier_plantvillage_0_split
I0403 15:06:47.446132 31150 net.cpp:148] Top shape: 24 38 (912)
I0403 15:06:47.446148 31150 net.cpp:148] Top shape: 24 38 (912)
I0403 15:06:47.446163 31150 net.cpp:148] Top shape: 24 38 (912)
I0403 15:06:47.446179 31150 net.cpp:148] Top shape: 24 38 (912)
I0403 15:06:47.446192 31150 net.cpp:156] Memory required for data: 1346079072
I0403 15:06:47.446207 31150 layer_factory.hpp:77] Creating layer loss1/loss
I0403 15:06:47.446228 31150 net.cpp:91] Creating Layer loss1/loss
I0403 15:06:47.446245 31150 net.cpp:425] loss1/loss <- loss1/classifier_plantvillage_loss1/classifier_plantvillage_0_split_0
I0403 15:06:47.446275 31150 net.cpp:425] loss1/loss <- label_data_1_split_0
…
