…
I0403 15:01:40.203327 30911 net.cpp:313] The NetState phase (1) differed from the phase (0) specified by a rule in layer data
I0403 15:01:40.204457 30911 net.cpp:49] Initializing net from parameters: 
state {
  phase: TEST
}
layer {
  name: "data"
  type: "Data"
  top: "data"
  top: "label"
  include {
    phase: TEST
  }
  transform_param {
    mirror: false
    crop_size: 224
    mean_file: "/home/mohanty/data/final_dataset/lmdb/grayscale-80-20/mean.binaryproto"
  }
  data_param {
    source: "/home/mohanty/data/final_dataset/lmdb/grayscale-80-20/test_db"
    batch_size: 24
    backend: LMDB
  }
}
layer {
  name: "conv1/7x7_s2"
  type: "Convolution"
  bottom: "data"
  top: "conv1/7x7_s2"
  param {
    lr_mult: 1
    decay_mult: 1
  }
  param {
    lr_mult: 2
    decay_mult: 0
  }
  convolution_param {
    num_output: 64
    pad: 3
    kernel_size: 7
    stride: 2
    weight_filler {
      type: "xavier"
      std: 0.1
    }
    bias_filler {
      type: "constant"
      value: 0.2
    }
  }
}
layer {
  name: "conv1/relu_7x7"
  type: "ReLU"
  bottom: "conv1/7x7_s2"
  top: "conv1/7x7_s2"
}
layer {
  name: "pool1/3x3_s2"
  type: "Pooling"
  bottom: "conv1/7x7_s2"
  top: "pool1/3x3_s2"
  pooling_param {
    pool: MAX
    kernel_size: 3
    stride: 2
  }
}
layer {
  name: "pool1/norm1"
  type: "LRN"
  bottom: "pool1/3x3_s2"
  top: "pool1/norm1"
  lrn_param {
    local_size: 5
    alpha: 0.0001
    beta: 0.75
  }
}
layer {
  name: "conv2/3x3_reduce"
  type: "Convolution"
  bottom: "pool1/norm1"
  top: "conv2/3x3_reduce"
  param {
    lr_mult: 1
    decay_mult: 1
  }
  param {
    lr_mult: 2
    decay_mult: 0
  }
  convolution_param {
    num_output: 64
    kernel_size: 1
    weight_filler {
      type: "xavier"
      std: 0.1
    }
    bias_filler {
      type: "constant"
      value: 0.2
    }
  }
}
layer {
  name: "conv2/relu_3x3_reduce"
  type: "ReLU"
  bottom: "conv2/3x3_reduce"
  top: "conv2/3x3_reduce"
}
layer {
  name: "conv2/3x3"
  type: "Convolution"
  bottom: "conv2/3x3_reduce"
  top: "conv2/3x3"
  param {
    lr_mult: 1
    decay_mult: 1
  }
  param {
    lr_mult: 2
    decay_mult: 0
  }
  convolution_param {
    num_output: 192
    pad: 1
    kernel_size: 3
    weight_filler {
      type: "xavier"
      std: 0.03
    }
    bias_filler {
      type: "constant"
      value: 0.2
    }
  }
}
layer {
  name: "conv2/relu_3x3"
  type: "ReLU"
  bottom: "conv2/3x3"
  top: "conv2/3x3"
}
layer {
  name: "conv2/norm2"
  type: "LRN"
  bottom: "conv2/3x3"
  top: "conv2/norm2"
  lrn_param {
    local_size: 5
    alpha: 0.0001
    beta: 0.75
  }
}
layer {
  name: "pool2/3x3_s2"
  type: "Pooling"
  bottom: "conv2/norm2"
  top: "pool2/3x3_s2"
  pooling_param {
    pool: MAX
    kernel_size: 3
    stride: 2
  }
}
layer {
  name: "inception_3a/1x1"
  type: "Convolution"
  bottom: "pool2/3x3_s2"
  top: "inception_3a/1x1"
  param {
    lr_mult: 1
    decay_mult: 1
  }
  param {
    lr_mult: 2
    decay_mult: 0
  }
  convolution_param {
    num_output: 64
    kernel_size: 1
    weight_filler {
      type: "xavier"
      std: 0.03
    }
    bias_filler {
      type: "constant"
      value: 0.2
    }
  }
}
layer {
  name: "inception_3a/relu_1x1"
  type: "ReLU"
  bottom: "inception_3a/1x1"
  top: "inception_3a/1x1"
}
layer {
  name: "inception_3a/3x3_reduce"
  type: "Convolution"
  bottom: "pool2/3x3_s2"
  top: "inception_3a/3x3_reduce"
  param {
    lr_mult: 1
    decay_mult: 1
  }
  param {
    lr_mult: 2
    decay_mult: 0
  }
  convolution_param {
    num_output: 96
    kernel_size: 1
    weight_filler {
      type: "xavier"
      std: 0.09
    }
    bias_filler {
      type: "constant"
      value: 0.2
    }
  }
}
layer {
  name: "inception_3a/relu_3x3_reduce"
  type: "ReLU"
  bottom: "inception_3a/3x3_reduce"
  top: "inception_3a/3x3_reduce"
}
layer {
  name: "inception_3a/3x3"
  type: "Convolution"
  bottom: "inception_3a/3x3_reduce"
  top: "inception_3a/3x3"
  param {
    lr_mult: 1
    decay_mult: 1
  }
  param {
    lr_mult: 2
    decay_mult: 0
  }
  convolution_param {
    num_output: 128
    pad: 1
    kernel_size: 3
    weight_filler {
      type: "xavier"
      std: 0.03
    }
    bias_filler {
      type: "constant"
      value: 0.2
    }
  }
}
layer {
  name: "inception_3a/relu_3x3"
  type: "ReLU"
  bottom: "inception_3a/3x3"
  top: "inception_3a/3x3"
}
layer {
  name: "inception_3a/5x5_reduce"
  type: "Convolution"
  bottom: "pool2/3x3_s2"
  top: "inception_3a/5x5_reduce"
  param {
    lr_mult: 1
    decay_mult: 1
  }
  param {
    lr_mult: 2
    decay_mult: 0
  }
  convolution_param {
    num_output: 16
    kernel_size: 1
    weight_filler {
      type: "xavier"
      std: 0.2
    }
    bias_filler {
      type: "constant"
      value: 0.2
    }
  }
}
layer {
  name: "inception_3a/relu_5x5_reduce"
  type: "ReLU"
  bottom: "inception_3a/5x5_reduce"
  top: "inception_3a/5x5_reduce"
}
layer {
  name: "inception_3a/5x5"
  type: "Convolution"
  bottom: "inception_3a/5x5_reduce"
  top: "inception_3a/5x5"
  param {
    lr_mult: 1
    decay_mult: 1
  }
  param {
    lr_mult: 2
    decay_mult: 0
  }
  convolution_param {
    num_output: 32
    pad: 2
    kernel_size: 5
    weight_filler {
      type: "xavier"
      std: 0.03
    }
    bias_filler {
      type: "constant"
      value: 0.2
    }
  }
}
layer {
  name: "inception_3a/relu_5x5"
  type: "ReLU"
  bottom: "inception_3a/5x5"
  top: "inception_3a/5x5"
}
layer {
  name: "inception_3a/pool"
  type: "Pooling"
  bottom: "pool2/3x3_s2"
  top: "inception_3a/pool"
  pooling_param {
    pool: MAX
    kernel_size: 3
    stride: 1
    pad: 1
  }
}
layer {
  name: "inception_3a/pool_proj"
  type: "Convolution"
  bottom: "inception_3a/pool"
  top: "inception_3a/pool_proj"
  param {
    lr_mult: 1
    decay_mult: 1
  }
  param {
    lr_mult: 2
    decay_mult: 0
  }
  convolution_param {
    num_output: 32
    kernel_size: 1
    weight_filler {
      type: "xavier"
      std: 0.1
    }
    bias_filler {
      type: "constant"
      value: 0.2
    }
  }
}
layer {
  name: "inception_3a/relu_pool_proj"
  type: "ReLU"
  bottom: "inception_3a/pool_proj"
  top: "inception_3a/pool_proj"
}
layer {
  name: "inception_3a/output"
  type: "Concat"
  bottom: "inception_3a/1x1"
  bottom: "inception_3a/3x3"
  bottom: "inception_3a/5x5"
  bottom: "inception_3a/pool_proj"
  top: "inception_3a/output"
}
layer {
  name: "inception_3b/1x1"
  type: "Convolution"
  bottom: "inception_3a/output"
  top: "inception_3b/1x1"
  param {
    lr_mult: 1
    decay_mult: 1
  }
  param {
    lr_mult: 2
    decay_mult: 0
  }
  convolution_param {
    num_output: 128
    kernel_size: 1
    weight_filler {
      type: "xavier"
      std: 0.03
    }
    bias_filler {
      type: "constant"
      value: 0.2
    }
  }
}
layer {
  name: "inception_3b/relu_1x1"
  type: "ReLU"
  bottom: "inception_3b/1x1"
  top: "inception_3b/1x1"
}
layer {
  name: "inception_3b/3x3_reduce"
  type: "Convolution"
  bottom: "inception_3a/output"
  top: "inception_3b/3x3_reduce"
  param {
    lr_mult: 1
    decay_mult: 1
  }
  param {
    lr_mult: 2
    decay_mult: 0
  }
  convolution_param {
    num_output: 128
    kernel_size: 1
    weight_filler {
      type: "xavier"
      std: 0.09
    }
    bias_filler {
      type: "constant"
      value: 0.2
    }
  }
}
layer {
  name: "inception_3b/relu_3x3_reduce"
  type: "ReLU"
  bottom: "inception_3b/3x3_reduce"
  top: "inception_3b/3x3_reduce"
}
layer {
  name: "inception_3b/3x3"
  type: "Convolution"
  bottom: "inception_3b/3x3_reduce"
  top: "inception_3b/3x3"
  param {
    lr_mult: 1
    decay_mult: 1
  }
  param {
    lr_mult: 2
    decay_mult: 0
  }
  convolution_param {
    num_output: 192
    pad: 1
    kernel_size: 3
    weight_filler {
      type: "xavier"
      std: 0.03
    }
    bias_filler {
      type: "constant"
      value: 0.2
    }
  }
}
layer {
  name: "inception_3b/relu_3x3"
  type: "ReLU"
  bottom: "inception_3b/3x3"
  top: "inception_3b/3x3"
}
layer {
  name: "inception_3b/5x5_reduce"
  type: "Convolution"
  bottom: "inception_3a/output"
  top: "inception_3b/5x5_reduce"
  param {
    lr_mult: 1
    decay_mult: 1
  }
  param {
    lr_mult: 2
    decay_mult: 0
  }
  convolution_param {
    num_output: 32
    kernel_size: 1
    weight_filler {
      type: "xavier"
      std: 0.2
    }
    bias_filler {
      type: "constant"
      value: 0.2
    }
  }
}
layer {
  name: "inception_3b/relu_5x5_reduce"
  type: "ReLU"
  bottom: "inception_3b/5x5_reduce"
  top: "inception_3b/5x5_reduce"
}
layer {
  name: "inception_3b/5x5"
  type: "Convolution"
  bottom: "inception_3b/5x5_reduce"
  top: "inception_3b/5x5"
  param {
    lr_mult: 1
    decay_mult: 1
  }
  param {
    lr_mult: 2
    decay_mult: 0
  }
  convolution_param {
    num_output: 96
    pad: 2
    kernel_size: 5
    weight_filler {
      type: "xavier"
      std: 0.03
    }
    bias_filler {
      type: "constant"
      value: 0.2
    }
  }
}
layer {
  name: "inception_3b/relu_5x5"
  type: "ReLU"
  bottom: "inception_3b/5x5"
  top: "inception_3b/5x5"
}
layer {
  name: "inception_3b/pool"
  type: "Pooling"
  bottom: "inception_3a/output"
  top: "inception_3b/pool"
  pooling_param {
    pool: MAX
    kernel_size: 3
    stride: 1
    pad: 1
  }
}
layer {
  name: "inception_3b/pool_proj"
  type: "Convolution"
  bottom: "inception_3b/pool"
  top: "inception_3b/pool_proj"
  param {
    lr_mult: 1
    decay_mult: 1
  }
  param {
    lr_mult: 2
    decay_mult: 0
  }
  convolution_param {
    num_output: 64
    kernel_size: 1
    weight_filler {
      type: "xavier"
      std: 0.1
    }
    bias_filler {
      type: "constant"
      value: 0.2
    }
  }
}
layer {
  name: "inception_3b/relu_pool_proj"
  type: "ReLU"
  bottom: "inception_3b/pool_proj"
  top: "inception_3b/pool_proj"
}
layer {
  name: "inception_3b/output"
  type: "Concat"
  bottom: "inception_3b/1x1"
  bottom: "inception_3b/3x3"
  bottom: "inception_3b/5x5"
  bottom: "inception_3b/pool_proj"
  top: "inception_3b/output"
}
layer {
  name: "pool3/3x3_s2"
  type: "Pooling"
  bottom: "inception_3b/output"
  top: "pool3/3x3_s2"
  pooling_param {
    pool: MAX
    kernel_size: 3
    stride: 2
  }
}
layer {
  name: "inception_4a/1x1"
  type: "Convolution"
  bottom: "pool3/3x3_s2"
  top: "inception_4a/1x1"
  param {
    lr_mult: 1
    decay_mult: 1
  }
  param {
    lr_mult: 2
    decay_mult: 0
  }
  convolution_param {
    num_output: 192
    kernel_size: 1
    weight_filler {
      type: "xavier"
      std: 0.03
    }
    bias_filler {
      type: "constant"
      value: 0.2
    }
  }
}
layer {
  name: "inception_4a/relu_1x1"
  type: "ReLU"
  bottom: "inception_4a/1x1"
  top: "inception_4a/1x1"
}
layer {
  name: "inception_4a/3x3_reduce"
  type: "Convolution"
  bottom: "pool3/3x3_s2"
  top: "inception_4a/3x3_reduce"
  param {
    lr_mult: 1
    decay_mult: 1
  }
  param {
    lr_mult: 2
    decay_mult: 0
  }
  convolution_param {
    num_output: 96
    kernel_size: 1
    weight_filler {
      type: "xavier"
      std: 0.09
    }
    bias_filler {
      type: "constant"
      value: 0.2
    }
  }
}
layer {
  name: "inception_4a/relu_3x3_reduce"
  type: "ReLU"
  bottom: "inception_4a/3x3_reduce"
  top: "inception_4a/3x3_reduce"
}
layer {
  name: "inception_4a/3x3"
  type: "Convolution"
  bottom: "inception_4a/3x3_reduce"
  top: "inception_4a/3x3"
  param {
    lr_mult: 1
    decay_mult: 1
  }
  param {
    lr_mult: 2
    decay_mult: 0
  }
  convolution_param {
    num_output: 208
    pad: 1
    kernel_size: 3
    weight_filler {
      type: "xavier"
      std: 0.03
    }
    bias_filler {
      type: "constant"
      value: 0.2
    }
  }
}
layer {
  name: "inception_4a/relu_3x3"
  type: "ReLU"
  bottom: "inception_4a/3x3"
  top: "inception_4a/3x3"
}
layer {
  name: "inception_4a/5x5_reduce"
  type: "Convolution"
  bottom: "pool3/3x3_s2"
  top: "inception_4a/5x5_reduce"
  param {
    lr_mult: 1
    decay_mult: 1
  }
  param {
    lr_mult: 2
    decay_mult: 0
  }
  convolution_param {
    num_output: 16
    kernel_size: 1
    weight_filler {
      type: "xavier"
      std: 0.2
    }
    bias_filler {
      type: "constant"
      value: 0.2
    }
  }
}
layer {
  name: "inception_4a/relu_5x5_reduce"
  type: "ReLU"
  bottom: "inception_4a/5x5_reduce"
  top: "inception_4a/5x5_reduce"
}
layer {
  name: "inception_4a/5x5"
  type: "Convolution"
  bottom: "inception_4a/5x5_reduce"
  top: "inception_4a/5x5"
  param {
    lr_mult: 1
    decay_mult: 1
  }
  param {
    lr_mult: 2
    decay_mult: 0
  }
  convolution_param {
    num_output: 48
    pad: 2
    kernel_size: 5
    weight_filler {
      type: "xavier"
      std: 0.03
    }
    bias_filler {
      type: "constant"
      value: 0.2
    }
  }
}
layer {
  name: "inception_4a/relu_5x5"
  type: "ReLU"
  bottom: "inception_4a/5x5"
  top: "inception_4a/5x5"
}
layer {
  name: "inception_4a/pool"
  type: "Pooling"
  bottom: "pool3/3x3_s2"
  top: "inception_4a/pool"
  pooling_param {
    pool: MAX
    kernel_size: 3
    stride: 1
    pad: 1
  }
}
layer {
  name: "inception_4a/pool_proj"
  type: "Convolution"
  bottom: "inception_4a/pool"
  top: "inception_4a/pool_proj"
  param {
    lr_mult: 1
    decay_mult: 1
  }
  param {
    lr_mult: 2
    decay_mult: 0
  }
  convolution_param {
    num_output: 64
    kernel_size: 1
    weight_filler {
      type: "xavier"
      std: 0.1
    }
    bias_filler {
      type: "constant"
      value: 0.2
    }
  }
}
layer {
  name: "inception_4a/relu_pool_proj"
  type: "ReLU"
  bottom: "inception_4a/pool_proj"
  top: "inception_4a/pool_proj"
}
layer {
  name: "inception_4a/output"
  type: "Concat"
  bottom: "inception_4a/1x1"
  bottom: "inception_4a/3x3"
  bottom: "inception_4a/5x5"
  bottom: "inception_4a/pool_proj"
  top: "inception_4a/output"
}
layer {
  name: "loss1/ave_pool"
  type: "Pooling"
  bottom: "inception_4a/output"
  top: "loss1/ave_pool"
  pooling_param {
    pool: AVE
    kernel_size: 5
    stride: 3
  }
}
layer {
  name: "loss1/conv"
  type: "Convolution"
  bottom: "loss1/ave_pool"
  top: "loss1/conv"
  param {
    lr_mult: 1
    decay_mult: 1
  }
  param {
    lr_mult: 2
    decay_mult: 0
  }
  convolution_param {
    num_output: 128
    kernel_size: 1
    weight_filler {
      type: "xavier"
      std: 0.08
    }
    bias_filler {
      type: "constant"
      value: 0.2
    }
  }
}
layer {
  name: "loss1/relu_conv"
  type: "ReLU"
  bottom: "loss1/conv"
  top: "loss1/conv"
}
layer {
  name: "loss1/fc"
  type: "InnerProduct"
  bottom: "loss1/conv"
  top: "loss1/fc"
  param {
    lr_mult: 1
    decay_mult: 1
  }
  param {
    lr_mult: 2
    decay_mult: 0
  }
  inner_product_param {
    num_output: 1024
    weight_filler {
      type: "xavier"
      std: 0.02
    }
    bias_filler {
      type: "constant"
      value: 0.2
    }
  }
}
layer {
  name: "loss1/relu_fc"
  type: "ReLU"
  bottom: "loss1/fc"
  top: "loss1/fc"
}
layer {
  name: "loss1/drop_fc"
  type: "Dropout"
  bottom: "loss1/fc"
  top: "loss1/fc"
  dropout_param {
    dropout_ratio: 0.7
  }
}
layer {
  name: "loss1/classifier_plantvillage"
  type: "InnerProduct"
  bottom: "loss1/fc"
  top: "loss1/classifier_plantvillage"
  param {
    lr_mult: 1
    decay_mult: 1
  }
  param {
    lr_mult: 2
    decay_mult: 0
  }
  inner_product_param {
    num_output: 38
    weight_filler {
      type: "xavier"
      std: 0.0009765625
    }
    bias_filler {
      type: "constant"
      value: 0
    }
  }
}
layer {
  name: "inception_4b/1x1"
  type: "Convolution"
  bottom: "inception_4a/output"
  top: "inception_4b/1x1"
  param {
    lr_mult: 1
    decay_mult: 1
  }
  param {
    lr_mult: 2
    decay_mult: 0
  }
  convolution_param {
    num_output: 160
    kernel_size: 1
    weight_filler {
      type: "xavier"
      std: 0.03
    }
    bias_filler {
      type: "constant"
      value: 0.2
    }
  }
}
layer {
  name: "inception_4b/relu_1x1"
  type: "ReLU"
  bottom: "inception_4b/1x1"
  top: "inception_4b/1x1"
}
layer {
  name: "inception_4b/3x3_reduce"
  type: "Convolution"
  bottom: "inception_4a/output"
  top: "inception_4b/3x3_reduce"
  param {
    lr_mult: 1
    decay_mult: 1
  }
  param {
    lr_mult: 2
    decay_mult: 0
  }
  convolution_param {
    num_output: 112
    kernel_size: 1
    weight_filler {
      type: "xavier"
      std: 0.09
    }
    bias_filler {
      type: "constant"
      value: 0.2
    }
  }
}
layer {
  name: "inception_4b/relu_3x3_reduce"
  type: "ReLU"
  bottom: "inception_4b/3x3_reduce"
  top: "inception_4b/3x3_reduce"
}
layer {
  name: "inception_4b/3x3"
  type: "Convolution"
  bottom: "inception_4b/3x3_reduce"
  top: "inception_4b/3x3"
  param {
    lr_mult: 1
    decay_mult: 1
  }
  param {
    lr_mult: 2
    decay_mult: 0
  }
  convolution_param {
    num_output: 224
    pad: 1
    kernel_size: 3
    weight_filler {
      type: "xavier"
      std: 0.03
    }
    bias_filler {
      type: "constant"
      value: 0.2
    }
  }
}
layer {
  name: "inception_4b/relu_3x3"
  type: "ReLU"
  bottom: "inception_4b/3x3"
  top: "inception_4b/3x3"
}
layer {
  name: "inception_4b/5x5_reduce"
  type: "Convolution"
  bottom: "inception_4a/output"
  top: "inception_4b/5x5_reduce"
  param {
    lr_mult: 1
    decay_mult: 1
  }
  param {
    lr_mult: 2
    decay_mult: 0
  }
  convolution_param {
    num_output: 24
    kernel_size: 1
    weight_filler {
      type: "xavier"
      std: 0.2
    }
    bias_filler {
      type: "constant"
      value: 0.2
    }
  }
}
layer {
  name: "inception_4b/relu_5x5_reduce"
  type: "ReLU"
  bottom: "inception_4b/5x5_reduce"
  top: "inception_4b/5x5_reduce"
}
layer {
  name: "inception_4b/5x5"
  type: "Convolution"
  bottom: "inception_4b/5x5_reduce"
  top: "inception_4b/5x5"
  param {
    lr_mult: 1
    decay_mult: 1
  }
  param {
    lr_mult: 2
    decay_mult: 0
  }
  convolution_param {
    num_output: 64
    pad: 2
    kernel_size: 5
    weight_filler {
      type: "xavier"
      std: 0.03
    }
    bias_filler {
      type: "constant"
      value: 0.2
    }
  }
}
layer {
  name: "inception_4b/relu_5x5"
  type: "ReLU"
  bottom: "inception_4b/5x5"
  top: "inception_4b/5x5"
}
layer {
  name: "inception_4b/pool"
  type: "Pooling"
  bottom: "inception_4a/output"
  top: "inception_4b/pool"
  pooling_param {
    pool: MAX
    kernel_size: 3
    stride: 1
    pad: 1
  }
}
layer {
  name: "inception_4b/pool_proj"
  type: "Convolution"
  bottom: "inception_4b/pool"
  top: "inception_4b/pool_proj"
  param {
    lr_mult: 1
    decay_mult: 1
  }
  param {
    lr_mult: 2
    decay_mult: 0
  }
  convolution_param {
    num_output: 64
    kernel_size: 1
    weight_filler {
      type: "xavier"
      std: 0.1
    }
    bias_filler {
      type: "constant"
      value: 0.2
    }
  }
}
layer {
  name: "inception_4b/relu_pool_proj"
  type: "ReLU"
  bottom: "inception_4b/pool_proj"
  top: "inception_4b/pool_proj"
}
layer {
  name: "inception_4b/output"
  type: "Concat"
  bottom: "inception_4b/1x1"
  bottom: "inception_4b/3x3"
  bottom: "inception_4b/5x5"
  bottom: "inception_4b/pool_proj"
  top: "inception_4b/output"
}
layer {
  name: "inception_4c/1x1"
  type: "Convolution"
  bottom: "inception_4b/output"
  top: "inception_4c/1x1"
  param {
    lr_mult: 1
    decay_mult: 1
  }
  param {
    lr_mult: 2
    decay_mult: 0
  }
  convolution_param {
    num_output: 128
    kernel_size: 1
    weight_filler {
      type: "xavier"
      std: 0.03
    }
    bias_filler {
      type: "constant"
      value: 0.2
    }
  }
}
layer {
  name: "inception_4c/relu_1x1"
  type: "ReLU"
  bottom: "inception_4c/1x1"
  top: "inception_4c/1x1"
}
layer {
  name: "inception_4c/3x3_reduce"
  type: "Convolution"
  bottom: "inception_4b/output"
  top: "inception_4c/3x3_reduce"
  param {
    lr_mult: 1
    decay_mult: 1
  }
  param {
    lr_mult: 2
    decay_mult: 0
  }
  convolution_param {
    num_output: 128
    kernel_size: 1
    weight_filler {
      type: "xavier"
      std: 0.09
    }
    bias_filler {
      type: "constant"
      value: 0.2
    }
  }
}
layer {
  name: "inception_4c/relu_3x3_reduce"
  type: "ReLU"
  bottom: "inception_4c/3x3_reduce"
  top: "inception_4c/3x3_reduce"
}
layer {
  name: "inception_4c/3x3"
  type: "Convolution"
  bottom: "inception_4c/3x3_reduce"
  top: "inception_4c/3x3"
  param {
    lr_mult: 1
    decay_mult: 1
  }
  param {
    lr_mult: 2
    decay_mult: 0
  }
  convolution_param {
    num_output: 256
    pad: 1
    kernel_size: 3
    weight_filler {
      type: "xavier"
      std: 0.03
    }
    bias_filler {
      type: "constant"
      value: 0.2
    }
  }
}
layer {
  name: "inception_4c/relu_3x3"
  type: "ReLU"
  bottom: "inception_4c/3x3"
  top: "inception_4c/3x3"
}
layer {
  name: "inception_4c/5x5_reduce"
  type: "Convolution"
  bottom: "inception_4b/output"
  top: "inception_4c/5x5_reduce"
  param {
    lr_mult: 1
    decay_mult: 1
  }
  param {
    lr_mult: 2
    decay_mult: 0
  }
  convolution_param {
    num_output: 24
    kernel_size: 1
    weight_filler {
      type: "xavier"
      std: 0.2
    }
    bias_filler {
      type: "constant"
      value: 0.2
    }
  }
}
layer {
  name: "inception_4c/relu_5x5_reduce"
  type: "ReLU"
  bottom: "inception_4c/5x5_reduce"
  top: "inception_4c/5x5_reduce"
}
layer {
  name: "inception_4c/5x5"
  type: "Convolution"
  bottom: "inception_4c/5x5_reduce"
  top: "inception_4c/5x5"
  param {
    lr_mult: 1
    decay_mult: 1
  }
  param {
    lr_mult: 2
    decay_mult: 0
  }
  convolution_param {
    num_output: 64
    pad: 2
    kernel_size: 5
    weight_filler {
      type: "xavier"
      std: 0.03
    }
    bias_filler {
      type: "constant"
      value: 0.2
    }
  }
}
layer {
  name: "inception_4c/relu_5x5"
  type: "ReLU"
  bottom: "inception_4c/5x5"
  top: "inception_4c/5x5"
}
layer {
  name: "inception_4c/pool"
  type: "Pooling"
  bottom: "inception_4b/output"
  top: "inception_4c/pool"
  pooling_param {
    pool: MAX
    kernel_size: 3
    stride: 1
    pad: 1
  }
}
layer {
  name: "inception_4c/pool_proj"
  type: "Convolution"
  bottom: "inception_4c/pool"
  top: "inception_4c/pool_proj"
  param {
    lr_mult: 1
    decay_mult: 1
  }
  param {
    lr_mult: 2
    decay_mult: 0
  }
  convolution_param {
    num_output: 64
    kernel_size: 1
    weight_filler {
      type: "xavier"
      std: 0.1
    }
    bias_filler {
      type: "constant"
      value: 0.2
    }
  }
}
layer {
  name: "inception_4c/relu_pool_proj"
  type: "ReLU"
  bottom: "inception_4c/pool_proj"
  top: "inception_4c/pool_proj"
}
layer {
  name: "inception_4c/output"
  type: "Concat"
  bottom: "inception_4c/1x1"
  bottom: "inception_4c/3x3"
  bottom: "inception_4c/5x5"
  bottom: "inception_4c/pool_proj"
  top: "inception_4c/output"
}
layer {
  name: "inception_4d/1x1"
  type: "Convolution"
  bottom: "inception_4c/output"
  top: "inception_4d/1x1"
  param {
    lr_mult: 1
    decay_mult: 1
  }
  param {
    lr_mult: 2
    decay_mult: 0
  }
  convolution_param {
    num_output: 112
    kernel_size: 1
    weight_filler {
      type: "xavier"
      std: 0.03
    }
    bias_filler {
      type: "constant"
      value: 0.2
    }
  }
}
layer {
  name: "inception_4d/relu_1x1"
  type: "ReLU"
  bottom: "inception_4d/1x1"
  top: "inception_4d/1x1"
}
layer {
  name: "inception_4d/3x3_reduce"
  type: "Convolution"
  bottom: "inception_4c/output"
  top: "inception_4d/3x3_reduce"
  param {
    lr_mult: 1
    decay_mult: 1
  }
  param {
    lr_mult: 2
    decay_mult: 0
  }
  convolution_param {
    num_output: 144
    kernel_size: 1
    weight_filler {
      type: "xavier"
      std: 0.09
    }
    bias_filler {
      type: "constant"
      value: 0.2
    }
  }
}
layer {
  name: "inception_4d/relu_3x3_reduce"
  type: "ReLU"
  bottom: "inception_4d/3x3_reduce"
  top: "inception_4d/3x3_reduce"
}
layer {
  name: "inception_4d/3x3"
  type: "Convolution"
  bottom: "inception_4d/3x3_reduce"
  top: "inception_4d/3x3"
  param {
    lr_mult: 1
    decay_mult: 1
  }
  param {
    lr_mult: 2
    decay_mult: 0
  }
  convolution_param {
    num_output: 288
    pad: 1
    kernel_size: 3
    weight_filler {
      type: "xavier"
      std: 0.03
    }
    bias_filler {
      type: "constant"
      value: 0.2
    }
  }
}
layer {
  name: "inception_4d/relu_3x3"
  type: "ReLU"
  bottom: "inception_4d/3x3"
  top: "inception_4d/3x3"
}
layer {
  name: "inception_4d/5x5_reduce"
  type: "Convolution"
  bottom: "inception_4c/output"
  top: "inception_4d/5x5_reduce"
  param {
    lr_mult: 1
    decay_mult: 1
  }
  param {
    lr_mult: 2
    decay_mult: 0
  }
  convolution_param {
    num_output: 32
    kernel_size: 1
    weight_filler {
      type: "xavier"
      std: 0.2
    }
    bias_filler {
      type: "constant"
      value: 0.2
    }
  }
}
layer {
  name: "inception_4d/relu_5x5_reduce"
  type: "ReLU"
  bottom: "inception_4d/5x5_reduce"
  top: "inception_4d/5x5_reduce"
}
layer {
  name: "inception_4d/5x5"
  type: "Convolution"
  bottom: "inception_4d/5x5_reduce"
  top: "inception_4d/5x5"
  param {
    lr_mult: 1
    decay_mult: 1
  }
  param {
    lr_mult: 2
    decay_mult: 0
  }
  convolution_param {
    num_output: 64
    pad: 2
    kernel_size: 5
    weight_filler {
      type: "xavier"
      std: 0.03
    }
    bias_filler {
      type: "constant"
      value: 0.2
    }
  }
}
layer {
  name: "inception_4d/relu_5x5"
  type: "ReLU"
  bottom: "inception_4d/5x5"
  top: "inception_4d/5x5"
}
layer {
  name: "inception_4d/pool"
  type: "Pooling"
  bottom: "inception_4c/output"
  top: "inception_4d/pool"
  pooling_param {
    pool: MAX
    kernel_size: 3
    stride: 1
    pad: 1
  }
}
layer {
  name: "inception_4d/pool_proj"
  type: "Convolution"
  bottom: "inception_4d/pool"
  top: "inception_4d/pool_proj"
  param {
    lr_mult: 1
    decay_mult: 1
  }
  param {
    lr_mult: 2
    decay_mult: 0
  }
  convolution_param {
    num_output: 64
    kernel_size: 1
    weight_filler {
      type: "xavier"
      std: 0.1
    }
    bias_filler {
      type: "constant"
      value: 0.2
    }
  }
}
layer {
  name: "inception_4d/relu_pool_proj"
  type: "ReLU"
  bottom: "inception_4d/pool_proj"
  top: "inception_4d/pool_proj"
}
layer {
  name: "inception_4d/output"
  type: "Concat"
  bottom: "inception_4d/1x1"
  bottom: "inception_4d/3x3"
  bottom: "inception_4d/5x5"
  bottom: "inception_4d/pool_proj"
  top: "inception_4d/output"
}
layer {
  name: "loss2/ave_pool"
  type: "Pooling"
  bottom: "inception_4d/output"
  top: "loss2/ave_pool"
  pooling_param {
    pool: AVE
    kernel_size: 5
    stride: 3
  }
}
layer {
  name: "loss2/conv"
  type: "Convolution"
  bottom: "loss2/ave_pool"
  top: "loss2/conv"
  param {
    lr_mult: 1
    decay_mult: 1
  }
  param {
    lr_mult: 2
    decay_mult: 0
  }
  convolution_param {
    num_output: 128
    kernel_size: 1
    weight_filler {
      type: "xavier"
      std: 0.08
    }
    bias_filler {
      type: "constant"
      value: 0.2
    }
  }
}
layer {
  name: "loss2/relu_conv"
  type: "ReLU"
  bottom: "loss2/conv"
  top: "loss2/conv"
}
layer {
  name: "loss2/fc"
  type: "InnerProduct"
  bottom: "loss2/conv"
  top: "loss2/fc"
  param {
    lr_mult: 1
    decay_mult: 1
  }
  param {
    lr_mult: 2
    decay_mult: 0
  }
  inner_product_param {
    num_output: 1024
    weight_filler {
      type: "xavier"
      std: 0.02
    }
    bias_filler {
      type: "constant"
      value: 0.2
    }
  }
}
layer {
  name: "loss2/relu_fc"
  type: "ReLU"
  bottom: "loss2/fc"
  top: "loss2/fc"
}
layer {
  name: "loss2/drop_fc"
  type: "Dropout"
  bottom: "loss2/fc"
  top: "loss2/fc"
  dropout_param {
    dropout_ratio: 0.7
  }
}
layer {
  name: "loss2/classifier_plantvillage"
  type: "InnerProduct"
  bottom: "loss2/fc"
  top: "loss2/classifier_plantvillage"
  param {
    lr_mult: 1
    decay_mult: 1
  }
  param {
    lr_mult: 2
    decay_mult: 0
  }
  inner_product_param {
    num_output: 38
    weight_filler {
      type: "xavier"
      std: 0.0009765625
    }
    bias_filler {
      type: "constant"
      value: 0
    }
  }
}
layer {
  name: "inception_4e/1x1"
  type: "Convolution"
  bottom: "inception_4d/output"
  top: "inception_4e/1x1"
  param {
    lr_mult: 1
    decay_mult: 1
  }
  param {
    lr_mult: 2
    decay_mult: 0
  }
  convolution_param {
    num_output: 256
    kernel_size: 1
    weight_filler {
      type: "xavier"
      std: 0.03
    }
    bias_filler {
      type: "constant"
      value: 0.2
    }
  }
}
layer {
  name: "inception_4e/relu_1x1"
  type: "ReLU"
  bottom: "inception_4e/1x1"
  top: "inception_4e/1x1"
}
layer {
  name: "inception_4e/3x3_reduce"
  type: "Convolution"
  bottom: "inception_4d/output"
  top: "inception_4e/3x3_reduce"
  param {
    lr_mult: 1
    decay_mult: 1
  }
  param {
    lr_mult: 2
    decay_mult: 0
  }
  convolution_param {
    num_output: 160
    kernel_size: 1
    weight_filler {
      type: "xavier"
      std: 0.09
    }
    bias_filler {
      type: "constant"
      value: 0.2
    }
  }
}
layer {
  name: "inception_4e/relu_3x3_reduce"
  type: "ReLU"
  bottom: "inception_4e/3x3_reduce"
  top: "inception_4e/3x3_reduce"
}
layer {
  name: "inception_4e/3x3"
  type: "Convolution"
  bottom: "inception_4e/3x3_reduce"
  top: "inception_4e/3x3"
  param {
    lr_mult: 1
    decay_mult: 1
  }
  param {
    lr_mult: 2
    decay_mult: 0
  }
  convolution_param {
    num_output: 320
    pad: 1
    kernel_size: 3
    weight_filler {
      type: "xavier"
      std: 0.03
    }
    bias_filler {
      type: "constant"
      value: 0.2
    }
  }
}
layer {
  name: "inception_4e/relu_3x3"
  type: "ReLU"
  bottom: "inception_4e/3x3"
  top: "inception_4e/3x3"
}
layer {
  name: "inception_4e/5x5_reduce"
  type: "Convolution"
  bottom: "inception_4d/output"
  top: "inception_4e/5x5_reduce"
  param {
    lr_mult: 1
    decay_mult: 1
  }
  param {
    lr_mult: 2
    decay_mult: 0
  }
  convolution_param {
    num_output: 32
    kernel_size: 1
    weight_filler {
      type: "xavier"
      std: 0.2
    }
    bias_filler {
      type: "constant"
      value: 0.2
    }
  }
}
layer {
  name: "inception_4e/relu_5x5_reduce"
  type: "ReLU"
  bottom: "inception_4e/5x5_reduce"
  top: "inception_4e/5x5_reduce"
}
layer {
  name: "inception_4e/5x5"
  type: "Convolution"
  bottom: "inception_4e/5x5_reduce"
  top: "inception_4e/
I0403 15:01:40.205756 30911 layer_factory.hpp:77] Creating layer data
I0403 15:01:40.206344 30911 net.cpp:91] Creating Layer data
I0403 15:01:40.206374 30911 net.cpp:399] data -> data
I0403 15:01:40.206430 30911 net.cpp:399] data -> label
I0403 15:01:40.206468 30911 data_transformer.cpp:25] Loading mean file from: /home/mohanty/data/final_dataset/lmdb/grayscale-80-20/mean.binaryproto
I0403 15:01:40.209350 30913 db_lmdb.cpp:38] Opened lmdb /home/mohanty/data/final_dataset/lmdb/grayscale-80-20/test_db
I0403 15:01:40.219871 30911 data_layer.cpp:41] output data size: 24,3,224,224
I0403 15:01:40.246779 30911 net.cpp:141] Setting up data
I0403 15:01:40.246861 30911 net.cpp:148] Top shape: 24 3 224 224 (3612672)
I0403 15:01:40.246884 30911 net.cpp:148] Top shape: 24 (24)
I0403 15:01:40.246901 30911 net.cpp:156] Memory required for data: 14450784
I0403 15:01:40.246932 30911 layer_factory.hpp:77] Creating layer label_data_1_split
I0403 15:01:40.246961 30911 net.cpp:91] Creating Layer label_data_1_split
I0403 15:01:40.246983 30911 net.cpp:425] label_data_1_split <- label
I0403 15:01:40.247020 30911 net.cpp:399] label_data_1_split -> label_data_1_split_0
I0403 15:01:40.247050 30911 net.cpp:399] label_data_1_split -> label_data_1_split_1
I0403 15:01:40.247073 30911 net.cpp:399] label_data_1_split -> label_data_1_split_2
I0403 15:01:40.247094 30911 net.cpp:399] label_data_1_split -> label_data_1_split_3
I0403 15:01:40.247115 30911 net.cpp:399] label_data_1_split -> label_data_1_split_4
I0403 15:01:40.247135 30911 net.cpp:399] label_data_1_split -> label_data_1_split_5
I0403 15:01:40.247156 30911 net.cpp:399] label_data_1_split -> label_data_1_split_6
I0403 15:01:40.247176 30911 net.cpp:399] label_data_1_split -> label_data_1_split_7
I0403 15:01:40.247195 30911 net.cpp:399] label_data_1_split -> label_data_1_split_8
I0403 15:01:40.247216 30911 net.cpp:399] label_data_1_split -> label_data_1_split_9
I0403 15:01:40.247336 30911 net.cpp:141] Setting up label_data_1_split
I0403 15:01:40.247361 30911 net.cpp:148] Top shape: 24 (24)
I0403 15:01:40.247380 30911 net.cpp:148] Top shape: 24 (24)
I0403 15:01:40.247396 30911 net.cpp:148] Top shape: 24 (24)
I0403 15:01:40.247413 30911 net.cpp:148] Top shape: 24 (24)
I0403 15:01:40.247428 30911 net.cpp:148] Top shape: 24 (24)
I0403 15:01:40.247444 30911 net.cpp:148] Top shape: 24 (24)
I0403 15:01:40.247460 30911 net.cpp:148] Top shape: 24 (24)
I0403 15:01:40.247475 30911 net.cpp:148] Top shape: 24 (24)
I0403 15:01:40.247491 30911 net.cpp:148] Top shape: 24 (24)
I0403 15:01:40.247508 30911 net.cpp:148] Top shape: 24 (24)
I0403 15:01:40.247560 30911 net.cpp:156] Memory required for data: 14451744
I0403 15:01:40.247578 30911 layer_factory.hpp:77] Creating layer conv1/7x7_s2
I0403 15:01:40.247613 30911 net.cpp:91] Creating Layer conv1/7x7_s2
I0403 15:01:40.247642 30911 net.cpp:425] conv1/7x7_s2 <- data
I0403 15:01:40.247663 30911 net.cpp:399] conv1/7x7_s2 -> conv1/7x7_s2
I0403 15:01:40.390100 30911 net.cpp:141] Setting up conv1/7x7_s2
I0403 15:01:40.390173 30911 net.cpp:148] Top shape: 24 64 112 112 (19267584)
I0403 15:01:40.390192 30911 net.cpp:156] Memory required for data: 91522080
I0403 15:01:40.390228 30911 layer_factory.hpp:77] Creating layer conv1/relu_7x7
I0403 15:01:40.390259 30911 net.cpp:91] Creating Layer conv1/relu_7x7
I0403 15:01:40.390277 30911 net.cpp:425] conv1/relu_7x7 <- conv1/7x7_s2
I0403 15:01:40.390297 30911 net.cpp:386] conv1/relu_7x7 -> conv1/7x7_s2 (in-place)
I0403 15:01:40.390564 30911 net.cpp:141] Setting up conv1/relu_7x7
I0403 15:01:40.390593 30911 net.cpp:148] Top shape: 24 64 112 112 (19267584)
I0403 15:01:40.390609 30911 net.cpp:156] Memory required for data: 168592416
I0403 15:01:40.390625 30911 layer_factory.hpp:77] Creating layer pool1/3x3_s2
I0403 15:01:40.390653 30911 net.cpp:91] Creating Layer pool1/3x3_s2
I0403 15:01:40.390671 30911 net.cpp:425] pool1/3x3_s2 <- conv1/7x7_s2
I0403 15:01:40.390691 30911 net.cpp:399] pool1/3x3_s2 -> pool1/3x3_s2
I0403 15:01:40.390768 30911 net.cpp:141] Setting up pool1/3x3_s2
I0403 15:01:40.390792 30911 net.cpp:148] Top shape: 24 64 56 56 (4816896)
I0403 15:01:40.390808 30911 net.cpp:156] Memory required for data: 187860000
I0403 15:01:40.390825 30911 layer_factory.hpp:77] Creating layer pool1/norm1
I0403 15:01:40.390851 30911 net.cpp:91] Creating Layer pool1/norm1
I0403 15:01:40.390868 30911 net.cpp:425] pool1/norm1 <- pool1/3x3_s2
I0403 15:01:40.390887 30911 net.cpp:399] pool1/norm1 -> pool1/norm1
I0403 15:01:40.391176 30911 net.cpp:141] Setting up pool1/norm1
I0403 15:01:40.391204 30911 net.cpp:148] Top shape: 24 64 56 56 (4816896)
I0403 15:01:40.391221 30911 net.cpp:156] Memory required for data: 207127584
I0403 15:01:40.391235 30911 layer_factory.hpp:77] Creating layer conv2/3x3_reduce
I0403 15:01:40.391261 30911 net.cpp:91] Creating Layer conv2/3x3_reduce
I0403 15:01:40.391278 30911 net.cpp:425] conv2/3x3_reduce <- pool1/norm1
I0403 15:01:40.391297 30911 net.cpp:399] conv2/3x3_reduce -> conv2/3x3_reduce
I0403 15:01:40.392740 30911 net.cpp:141] Setting up conv2/3x3_reduce
I0403 15:01:40.392770 30911 net.cpp:148] Top shape: 24 64 56 56 (4816896)
I0403 15:01:40.392786 30911 net.cpp:156] Memory required for data: 226395168
I0403 15:01:40.392808 30911 layer_factory.hpp:77] Creating layer conv2/relu_3x3_reduce
I0403 15:01:40.392827 30911 net.cpp:91] Creating Layer conv2/relu_3x3_reduce
I0403 15:01:40.392844 30911 net.cpp:425] conv2/relu_3x3_reduce <- conv2/3x3_reduce
I0403 15:01:40.392864 30911 net.cpp:386] conv2/relu_3x3_reduce -> conv2/3x3_reduce (in-place)
I0403 15:01:40.393137 30911 net.cpp:141] Setting up conv2/relu_3x3_reduce
I0403 15:01:40.393164 30911 net.cpp:148] Top shape: 24 64 56 56 (4816896)
I0403 15:01:40.393179 30911 net.cpp:156] Memory required for data: 245662752
I0403 15:01:40.393195 30911 layer_factory.hpp:77] Creating layer conv2/3x3
I0403 15:01:40.393220 30911 net.cpp:91] Creating Layer conv2/3x3
I0403 15:01:40.393239 30911 net.cpp:425] conv2/3x3 <- conv2/3x3_reduce
I0403 15:01:40.393260 30911 net.cpp:399] conv2/3x3 -> conv2/3x3
I0403 15:01:40.395721 30911 net.cpp:141] Setting up conv2/3x3
I0403 15:01:40.395755 30911 net.cpp:148] Top shape: 24 192 56 56 (14450688)
I0403 15:01:40.395771 30911 net.cpp:156] Memory required for data: 303465504
I0403 15:01:40.395795 30911 layer_factory.hpp:77] Creating layer conv2/relu_3x3
I0403 15:01:40.395817 30911 net.cpp:91] Creating Layer conv2/relu_3x3
I0403 15:01:40.395836 30911 net.cpp:425] conv2/relu_3x3 <- conv2/3x3
I0403 15:01:40.395855 30911 net.cpp:386] conv2/relu_3x3 -> conv2/3x3 (in-place)
I0403 15:01:40.396033 30911 net.cpp:141] Setting up conv2/relu_3x3
I0403 15:01:40.396060 30911 net.cpp:148] Top shape: 24 192 56 56 (14450688)
I0403 15:01:40.396113 30911 net.cpp:156] Memory required for data: 361268256
I0403 15:01:40.396131 30911 layer_factory.hpp:77] Creating layer conv2/norm2
I0403 15:01:40.396149 30911 net.cpp:91] Creating Layer conv2/norm2
I0403 15:01:40.396167 30911 net.cpp:425] conv2/norm2 <- conv2/3x3
I0403 15:01:40.396199 30911 net.cpp:399] conv2/norm2 -> conv2/norm2
I0403 15:01:40.396502 30911 net.cpp:141] Setting up conv2/norm2
I0403 15:01:40.396531 30911 net.cpp:148] Top shape: 24 192 56 56 (14450688)
I0403 15:01:40.396546 30911 net.cpp:156] Memory required for data: 419071008
I0403 15:01:40.396561 30911 layer_factory.hpp:77] Creating layer pool2/3x3_s2
I0403 15:01:40.396580 30911 net.cpp:91] Creating Layer pool2/3x3_s2
I0403 15:01:40.396595 30911 net.cpp:425] pool2/3x3_s2 <- conv2/norm2
I0403 15:01:40.396616 30911 net.cpp:399] pool2/3x3_s2 -> pool2/3x3_s2
I0403 15:01:40.396670 30911 net.cpp:141] Setting up pool2/3x3_s2
I0403 15:01:40.396693 30911 net.cpp:148] Top shape: 24 192 28 28 (3612672)
I0403 15:01:40.396708 30911 net.cpp:156] Memory required for data: 433521696
I0403 15:01:40.396723 30911 layer_factory.hpp:77] Creating layer pool2/3x3_s2_pool2/3x3_s2_0_split
I0403 15:01:40.396744 30911 net.cpp:91] Creating Layer pool2/3x3_s2_pool2/3x3_s2_0_split
I0403 15:01:40.396759 30911 net.cpp:425] pool2/3x3_s2_pool2/3x3_s2_0_split <- pool2/3x3_s2
I0403 15:01:40.396776 30911 net.cpp:399] pool2/3x3_s2_pool2/3x3_s2_0_split -> pool2/3x3_s2_pool2/3x3_s2_0_split_0
I0403 15:01:40.396798 30911 net.cpp:399] pool2/3x3_s2_pool2/3x3_s2_0_split -> pool2/3x3_s2_pool2/3x3_s2_0_split_1
I0403 15:01:40.396819 30911 net.cpp:399] pool2/3x3_s2_pool2/3x3_s2_0_split -> pool2/3x3_s2_pool2/3x3_s2_0_split_2
I0403 15:01:40.396839 30911 net.cpp:399] pool2/3x3_s2_pool2/3x3_s2_0_split -> pool2/3x3_s2_pool2/3x3_s2_0_split_3
I0403 15:01:40.396906 30911 net.cpp:141] Setting up pool2/3x3_s2_pool2/3x3_s2_0_split
I0403 15:01:40.396929 30911 net.cpp:148] Top shape: 24 192 28 28 (3612672)
I0403 15:01:40.396945 30911 net.cpp:148] Top shape: 24 192 28 28 (3612672)
I0403 15:01:40.396960 30911 net.cpp:148] Top shape: 24 192 28 28 (3612672)
I0403 15:01:40.396975 30911 net.cpp:148] Top shape: 24 192 28 28 (3612672)
I0403 15:01:40.396988 30911 net.cpp:156] Memory required for data: 491324448
I0403 15:01:40.397003 30911 layer_factory.hpp:77] Creating layer inception_3a/1x1
I0403 15:01:40.397025 30911 net.cpp:91] Creating Layer inception_3a/1x1
I0403 15:01:40.397042 30911 net.cpp:425] inception_3a/1x1 <- pool2/3x3_s2_pool2/3x3_s2_0_split_0
I0403 15:01:40.397064 30911 net.cpp:399] inception_3a/1x1 -> inception_3a/1x1
I0403 15:01:40.398641 30911 net.cpp:141] Setting up inception_3a/1x1
I0403 15:01:40.398671 30911 net.cpp:148] Top shape: 24 64 28 28 (1204224)
I0403 15:01:40.398689 30911 net.cpp:156] Memory required for data: 496141344
I0403 15:01:40.398707 30911 layer_factory.hpp:77] Creating layer inception_3a/relu_1x1
I0403 15:01:40.398728 30911 net.cpp:91] Creating Layer inception_3a/relu_1x1
I0403 15:01:40.398744 30911 net.cpp:425] inception_3a/relu_1x1 <- inception_3a/1x1
I0403 15:01:40.398761 30911 net.cpp:386] inception_3a/relu_1x1 -> inception_3a/1x1 (in-place)
I0403 15:01:40.398965 30911 net.cpp:141] Setting up inception_3a/relu_1x1
I0403 15:01:40.398991 30911 net.cpp:148] Top shape: 24 64 28 28 (1204224)
I0403 15:01:40.399005 30911 net.cpp:156] Memory required for data: 500958240
I0403 15:01:40.399020 30911 layer_factory.hpp:77] Creating layer inception_3a/3x3_reduce
I0403 15:01:40.399044 30911 net.cpp:91] Creating Layer inception_3a/3x3_reduce
I0403 15:01:40.399062 30911 net.cpp:425] inception_3a/3x3_reduce <- pool2/3x3_s2_pool2/3x3_s2_0_split_1
I0403 15:01:40.399085 30911 net.cpp:399] inception_3a/3x3_reduce -> inception_3a/3x3_reduce
I0403 15:01:40.400810 30911 net.cpp:141] Setting up inception_3a/3x3_reduce
I0403 15:01:40.400841 30911 net.cpp:148] Top shape: 24 96 28 28 (1806336)
I0403 15:01:40.400858 30911 net.cpp:156] Memory required for data: 508183584
I0403 15:01:40.400882 30911 layer_factory.hpp:77] Creating layer inception_3a/relu_3x3_reduce
I0403 15:01:40.400920 30911 net.cpp:91] Creating Layer inception_3a/relu_3x3_reduce
I0403 15:01:40.400940 30911 net.cpp:425] inception_3a/relu_3x3_reduce <- inception_3a/3x3_reduce
I0403 15:01:40.400959 30911 net.cpp:386] inception_3a/relu_3x3_reduce -> inception_3a/3x3_reduce (in-place)
I0403 15:01:40.401139 30911 net.cpp:141] Setting up inception_3a/relu_3x3_reduce
I0403 15:01:40.401162 30911 net.cpp:148] Top shape: 24 96 28 28 (1806336)
I0403 15:01:40.401177 30911 net.cpp:156] Memory required for data: 515408928
I0403 15:01:40.401192 30911 layer_factory.hpp:77] Creating layer inception_3a/3x3
I0403 15:01:40.401214 30911 net.cpp:91] Creating Layer inception_3a/3x3
I0403 15:01:40.401232 30911 net.cpp:425] inception_3a/3x3 <- inception_3a/3x3_reduce
I0403 15:01:40.401254 30911 net.cpp:399] inception_3a/3x3 -> inception_3a/3x3
I0403 15:01:40.402959 30911 net.cpp:141] Setting up inception_3a/3x3
I0403 15:01:40.402990 30911 net.cpp:148] Top shape: 24 128 28 28 (2408448)
I0403 15:01:40.403007 30911 net.cpp:156] Memory required for data: 525042720
I0403 15:01:40.403026 30911 layer_factory.hpp:77] Creating layer inception_3a/relu_3x3
I0403 15:01:40.403048 30911 net.cpp:91] Creating Layer inception_3a/relu_3x3
I0403 15:01:40.403067 30911 net.cpp:425] inception_3a/relu_3x3 <- inception_3a/3x3
I0403 15:01:40.403087 30911 net.cpp:386] inception_3a/relu_3x3 -> inception_3a/3x3 (in-place)
I0403 15:01:40.403360 30911 net.cpp:141] Setting up inception_3a/relu_3x3
I0403 15:01:40.403388 30911 net.cpp:148] Top shape: 24 128 28 28 (2408448)
I0403 15:01:40.403403 30911 net.cpp:156] Memory required for data: 534676512
I0403 15:01:40.403419 30911 layer_factory.hpp:77] Creating layer inception_3a/5x5_reduce
I0403 15:01:40.403442 30911 net.cpp:91] Creating Layer inception_3a/5x5_reduce
I0403 15:01:40.403460 30911 net.cpp:425] inception_3a/5x5_reduce <- pool2/3x3_s2_pool2/3x3_s2_0_split_2
I0403 15:01:40.403481 30911 net.cpp:399] inception_3a/5x5_reduce -> inception_3a/5x5_reduce
I0403 15:01:40.404443 30911 net.cpp:141] Setting up inception_3a/5x5_reduce
I0403 15:01:40.404472 30911 net.cpp:148] Top shape: 24 16 28 28 (301056)
I0403 15:01:40.404489 30911 net.cpp:156] Memory required for data: 535880736
I0403 15:01:40.404516 30911 layer_factory.hpp:77] Creating layer inception_3a/relu_5x5_reduce
I0403 15:01:40.404541 30911 net.cpp:91] Creating Layer inception_3a/relu_5x5_reduce
I0403 15:01:40.404557 30911 net.cpp:425] inception_3a/relu_5x5_reduce <- inception_3a/5x5_reduce
I0403 15:01:40.404577 30911 net.cpp:386] inception_3a/relu_5x5_reduce -> inception_3a/5x5_reduce (in-place)
I0403 15:01:40.404875 30911 net.cpp:141] Setting up inception_3a/relu_5x5_reduce
I0403 15:01:40.404904 30911 net.cpp:148] Top shape: 24 16 28 28 (301056)
I0403 15:01:40.404919 30911 net.cpp:156] Memory required for data: 537084960
I0403 15:01:40.404934 30911 layer_factory.hpp:77] Creating layer inception_3a/5x5
I0403 15:01:40.404958 30911 net.cpp:91] Creating Layer inception_3a/5x5
I0403 15:01:40.404975 30911 net.cpp:425] inception_3a/5x5 <- inception_3a/5x5_reduce
I0403 15:01:40.404994 30911 net.cpp:399] inception_3a/5x5 -> inception_3a/5x5
I0403 15:01:40.406010 30911 net.cpp:141] Setting up inception_3a/5x5
I0403 15:01:40.406038 30911 net.cpp:148] Top shape: 24 32 28 28 (602112)
I0403 15:01:40.406054 30911 net.cpp:156] Memory required for data: 539493408
I0403 15:01:40.406072 30911 layer_factory.hpp:77] Creating layer inception_3a/relu_5x5
I0403 15:01:40.406093 30911 net.cpp:91] Creating Layer inception_3a/relu_5x5
I0403 15:01:40.406111 30911 net.cpp:425] inception_3a/relu_5x5 <- inception_3a/5x5
I0403 15:01:40.406127 30911 net.cpp:386] inception_3a/relu_5x5 -> inception_3a/5x5 (in-place)
I0403 15:01:40.406298 30911 net.cpp:141] Setting up inception_3a/relu_5x5
I0403 15:01:40.406332 30911 net.cpp:148] Top shape: 24 32 28 28 (602112)
I0403 15:01:40.406347 30911 net.cpp:156] Memory required for data: 541901856
I0403 15:01:40.406363 30911 layer_factory.hpp:77] Creating layer inception_3a/pool
I0403 15:01:40.406381 30911 net.cpp:91] Creating Layer inception_3a/pool
I0403 15:01:40.406410 30911 net.cpp:425] inception_3a/pool <- pool2/3x3_s2_pool2/3x3_s2_0_split_3
I0403 15:01:40.406430 30911 net.cpp:399] inception_3a/pool -> inception_3a/pool
I0403 15:01:40.406491 30911 net.cpp:141] Setting up inception_3a/pool
I0403 15:01:40.406536 30911 net.cpp:148] Top shape: 24 192 28 28 (3612672)
I0403 15:01:40.406553 30911 net.cpp:156] Memory required for data: 556352544
I0403 15:01:40.406594 30911 layer_factory.hpp:77] Creating layer inception_3a/pool_proj
I0403 15:01:40.406615 30911 net.cpp:91] Creating Layer inception_3a/pool_proj
I0403 15:01:40.406633 30911 net.cpp:425] inception_3a/pool_proj <- inception_3a/pool
I0403 15:01:40.406654 30911 net.cpp:399] inception_3a/pool_proj -> inception_3a/pool_proj
I0403 15:01:40.407614 30911 net.cpp:141] Setting up inception_3a/pool_proj
I0403 15:01:40.407644 30911 net.cpp:148] Top shape: 24 32 28 28 (602112)
I0403 15:01:40.407661 30911 net.cpp:156] Memory required for data: 558760992
I0403 15:01:40.407683 30911 layer_factory.hpp:77] Creating layer inception_3a/relu_pool_proj
I0403 15:01:40.407703 30911 net.cpp:91] Creating Layer inception_3a/relu_pool_proj
I0403 15:01:40.407719 30911 net.cpp:425] inception_3a/relu_pool_proj <- inception_3a/pool_proj
I0403 15:01:40.407737 30911 net.cpp:386] inception_3a/relu_pool_proj -> inception_3a/pool_proj (in-place)
I0403 15:01:40.408010 30911 net.cpp:141] Setting up inception_3a/relu_pool_proj
I0403 15:01:40.408036 30911 net.cpp:148] Top shape: 24 32 28 28 (602112)
I0403 15:01:40.408051 30911 net.cpp:156] Memory required for data: 561169440
I0403 15:01:40.408067 30911 layer_factory.hpp:77] Creating layer inception_3a/output
I0403 15:01:40.408087 30911 net.cpp:91] Creating Layer inception_3a/output
I0403 15:01:40.408103 30911 net.cpp:425] inception_3a/output <- inception_3a/1x1
I0403 15:01:40.408119 30911 net.cpp:425] inception_3a/output <- inception_3a/3x3
I0403 15:01:40.408135 30911 net.cpp:425] inception_3a/output <- inception_3a/5x5
I0403 15:01:40.408151 30911 net.cpp:425] inception_3a/output <- inception_3a/pool_proj
I0403 15:01:40.408169 30911 net.cpp:399] inception_3a/output -> inception_3a/output
I0403 15:01:40.408215 30911 net.cpp:141] Setting up inception_3a/output
I0403 15:01:40.408241 30911 net.cpp:148] Top shape: 24 256 28 28 (4816896)
I0403 15:01:40.408257 30911 net.cpp:156] Memory required for data: 580437024
I0403 15:01:40.408272 30911 layer_factory.hpp:77] Creating layer inception_3a/output_inception_3a/output_0_split
I0403 15:01:40.408289 30911 net.cpp:91] Creating Layer inception_3a/output_inception_3a/output_0_split
I0403 15:01:40.408304 30911 net.cpp:425] inception_3a/output_inception_3a/output_0_split <- inception_3a/output
I0403 15:01:40.408326 30911 net.cpp:399] inception_3a/output_inception_3a/output_0_split -> inception_3a/output_inception_3a/output_0_split_0
I0403 15:01:40.408347 30911 net.cpp:399] inception_3a/output_inception_3a/output_0_split -> inception_3a/output_inception_3a/output_0_split_1
I0403 15:01:40.408370 30911 net.cpp:399] inception_3a/output_inception_3a/output_0_split -> inception_3a/output_inception_3a/output_0_split_2
I0403 15:01:40.408391 30911 net.cpp:399] inception_3a/output_inception_3a/output_0_split -> inception_3a/output_inception_3a/output_0_split_3
I0403 15:01:40.408465 30911 net.cpp:141] Setting up inception_3a/output_inception_3a/output_0_split
I0403 15:01:40.408488 30911 net.cpp:148] Top shape: 24 256 28 28 (4816896)
I0403 15:01:40.408509 30911 net.cpp:148] Top shape: 24 256 28 28 (4816896)
I0403 15:01:40.408526 30911 net.cpp:148] Top shape: 24 256 28 28 (4816896)
I0403 15:01:40.408542 30911 net.cpp:148] Top shape: 24 256 28 28 (4816896)
I0403 15:01:40.408556 30911 net.cpp:156] Memory required for data: 657507360
I0403 15:01:40.408572 30911 layer_factory.hpp:77] Creating layer inception_3b/1x1
I0403 15:01:40.408596 30911 net.cpp:91] Creating Layer inception_3b/1x1
I0403 15:01:40.408613 30911 net.cpp:425] inception_3b/1x1 <- inception_3a/output_inception_3a/output_0_split_0
I0403 15:01:40.408635 30911 net.cpp:399] inception_3b/1x1 -> inception_3b/1x1
I0403 15:01:40.409767 30911 net.cpp:141] Setting up inception_3b/1x1
I0403 15:01:40.409806 30911 net.cpp:148] Top shape: 24 128 28 28 (2408448)
I0403 15:01:40.409822 30911 net.cpp:156] Memory required for data: 667141152
I0403 15:01:40.409842 30911 layer_factory.hpp:77] Creating layer inception_3b/relu_1x1
I0403 15:01:40.409859 30911 net.cpp:91] Creating Layer inception_3b/relu_1x1
I0403 15:01:40.409876 30911 net.cpp:425] inception_3b/relu_1x1 <- inception_3b/1x1
I0403 15:01:40.409895 30911 net.cpp:386] inception_3b/relu_1x1 -> inception_3b/1x1 (in-place)
I0403 15:01:40.410068 30911 net.cpp:141] Setting up inception_3b/relu_1x1
I0403 15:01:40.410094 30911 net.cpp:148] Top shape: 24 128 28 28 (2408448)
I0403 15:01:40.410107 30911 net.cpp:156] Memory required for data: 676774944
I0403 15:01:40.410122 30911 layer_factory.hpp:77] Creating layer inception_3b/3x3_reduce
I0403 15:01:40.410145 30911 net.cpp:91] Creating Layer inception_3b/3x3_reduce
I0403 15:01:40.410163 30911 net.cpp:425] inception_3b/3x3_reduce <- inception_3a/output_inception_3a/output_0_split_1
I0403 15:01:40.410186 30911 net.cpp:399] inception_3b/3x3_reduce -> inception_3b/3x3_reduce
I0403 15:01:40.411315 30911 net.cpp:141] Setting up inception_3b/3x3_reduce
I0403 15:01:40.411344 30911 net.cpp:148] Top shape: 24 128 28 28 (2408448)
I0403 15:01:40.411360 30911 net.cpp:156] Memory required for data: 686408736
I0403 15:01:40.411377 30911 layer_factory.hpp:77] Creating layer inception_3b/relu_3x3_reduce
I0403 15:01:40.411396 30911 net.cpp:91] Creating Layer inception_3b/relu_3x3_reduce
I0403 15:01:40.411412 30911 net.cpp:425] inception_3b/relu_3x3_reduce <- inception_3b/3x3_reduce
I0403 15:01:40.411430 30911 net.cpp:386] inception_3b/relu_3x3_reduce -> inception_3b/3x3_reduce (in-place)
I0403 15:01:40.411609 30911 net.cpp:141] Setting up inception_3b/relu_3x3_reduce
I0403 15:01:40.411634 30911 net.cpp:148] Top shape: 24 128 28 28 (2408448)
I0403 15:01:40.411649 30911 net.cpp:156] Memory required for data: 696042528
I0403 15:01:40.411664 30911 layer_factory.hpp:77] Creating layer inception_3b/3x3
I0403 15:01:40.411691 30911 net.cpp:91] Creating Layer inception_3b/3x3
I0403 15:01:40.411710 30911 net.cpp:425] inception_3b/3x3 <- inception_3b/3x3_reduce
I0403 15:01:40.411730 30911 net.cpp:399] inception_3b/3x3 -> inception_3b/3x3
I0403 15:01:40.414654 30911 net.cpp:141] Setting up inception_3b/3x3
I0403 15:01:40.414683 30911 net.cpp:148] Top shape: 24 192 28 28 (3612672)
I0403 15:01:40.414698 30911 net.cpp:156] Memory required for data: 710493216
I0403 15:01:40.414716 30911 layer_factory.hpp:77] Creating layer inception_3b/relu_3x3
I0403 15:01:40.414738 30911 net.cpp:91] Creating Layer inception_3b/relu_3x3
I0403 15:01:40.414755 30911 net.cpp:425] inception_3b/relu_3x3 <- inception_3b/3x3
I0403 15:01:40.414772 30911 net.cpp:386] inception_3b/relu_3x3 -> inception_3b/3x3 (in-place)
I0403 15:01:40.415045 30911 net.cpp:141] Setting up inception_3b/relu_3x3
I0403 15:01:40.415071 30911 net.cpp:148] Top shape: 24 192 28 28 (3612672)
I0403 15:01:40.415086 30911 net.cpp:156] Memory required for data: 724943904
I0403 15:01:40.415101 30911 layer_factory.hpp:77] Creating layer inception_3b/5x5_reduce
I0403 15:01:40.415123 30911 net.cpp:91] Creating Layer inception_3b/5x5_reduce
I0403 15:01:40.415140 30911 net.cpp:425] inception_3b/5x5_reduce <- inception_3a/output_inception_3a/output_0_split_2
I0403 15:01:40.415163 30911 net.cpp:399] inception_3b/5x5_reduce -> inception_3b/5x5_reduce
I0403 15:01:40.416144 30911 net.cpp:141] Setting up inception_3b/5x5_reduce
I0403 15:01:40.416173 30911 net.cpp:148] Top shape: 24 32 28 28 (602112)
I0403 15:01:40.416189 30911 net.cpp:156] Memory required for data: 727352352
I0403 15:01:40.416206 30911 layer_factory.hpp:77] Creating layer inception_3b/relu_5x5_reduce
I0403 15:01:40.416226 30911 net.cpp:91] Creating Layer inception_3b/relu_5x5_reduce
I0403 15:01:40.416244 30911 net.cpp:425] inception_3b/relu_5x5_reduce <- inception_3b/5x5_reduce
I0403 15:01:40.416261 30911 net.cpp:386] inception_3b/relu_5x5_reduce -> inception_3b/5x5_reduce (in-place)
I0403 15:01:40.416453 30911 net.cpp:141] Setting up inception_3b/relu_5x5_reduce
I0403 15:01:40.416478 30911 net.cpp:148] Top shape: 24 32 28 28 (602112)
I0403 15:01:40.416492 30911 net.cpp:156] Memory required for data: 729760800
I0403 15:01:40.416512 30911 layer_factory.hpp:77] Creating layer inception_3b/5x5
I0403 15:01:40.416538 30911 net.cpp:91] Creating Layer inception_3b/5x5
I0403 15:01:40.416556 30911 net.cpp:425] inception_3b/5x5 <- inception_3b/5x5_reduce
I0403 15:01:40.416574 30911 net.cpp:399] inception_3b/5x5 -> inception_3b/5x5
I0403 15:01:40.418534 30911 net.cpp:141] Setting up inception_3b/5x5
I0403 15:01:40.418565 30911 net.cpp:148] Top shape: 24 96 28 28 (1806336)
I0403 15:01:40.418581 30911 net.cpp:156] Memory required for data: 736986144
I0403 15:01:40.418601 30911 layer_factory.hpp:77] Creating layer inception_3b/relu_5x5
I0403 15:01:40.418618 30911 net.cpp:91] Creating Layer inception_3b/relu_5x5
I0403 15:01:40.418635 30911 net.cpp:425] inception_3b/relu_5x5 <- inception_3b/5x5
I0403 15:01:40.418654 30911 net.cpp:386] inception_3b/relu_5x5 -> inception_3b/5x5 (in-place)
I0403 15:01:40.418844 30911 net.cpp:141] Setting up inception_3b/relu_5x5
I0403 15:01:40.418869 30911 net.cpp:148] Top shape: 24 96 28 28 (1806336)
I0403 15:01:40.418884 30911 net.cpp:156] Memory required for data: 744211488
I0403 15:01:40.418900 30911 layer_factory.hpp:77] Creating layer inception_3b/pool
I0403 15:01:40.418917 30911 net.cpp:91] Creating Layer inception_3b/pool
I0403 15:01:40.418933 30911 net.cpp:425] inception_3b/pool <- inception_3a/output_inception_3a/output_0_split_3
I0403 15:01:40.418951 30911 net.cpp:399] inception_3b/pool -> inception_3b/pool
I0403 15:01:40.419009 30911 net.cpp:141] Setting up inception_3b/pool
I0403 15:01:40.419033 30911 net.cpp:148] Top shape: 24 256 28 28 (4816896)
I0403 15:01:40.419047 30911 net.cpp:156] Memory required for data: 763479072
I0403 15:01:40.419062 30911 layer_factory.hpp:77] Creating layer inception_3b/pool_proj
I0403 15:01:40.419085 30911 net.cpp:91] Creating Layer inception_3b/pool_proj
I0403 15:01:40.419102 30911 net.cpp:425] inception_3b/pool_proj <- inception_3b/pool
I0403 15:01:40.419122 30911 net.cpp:399] inception_3b/pool_proj -> inception_3b/pool_proj
I0403 15:01:40.420171 30911 net.cpp:141] Setting up inception_3b/pool_proj
I0403 15:01:40.420199 30911 net.cpp:148] Top shape: 24 64 28 28 (1204224)
I0403 15:01:40.420215 30911 net.cpp:156] Memory required for data: 768295968
I0403 15:01:40.420234 30911 layer_factory.hpp:77] Creating layer inception_3b/relu_pool_proj
I0403 15:01:40.420254 30911 net.cpp:91] Creating Layer inception_3b/relu_pool_proj
I0403 15:01:40.420271 30911 net.cpp:425] inception_3b/relu_pool_proj <- inception_3b/pool_proj
I0403 15:01:40.420289 30911 net.cpp:386] inception_3b/relu_pool_proj -> inception_3b/pool_proj (in-place)
I0403 15:01:40.420696 30911 net.cpp:141] Setting up inception_3b/relu_pool_proj
I0403 15:01:40.420720 30911 net.cpp:148] Top shape: 24 64 28 28 (1204224)
I0403 15:01:40.420735 30911 net.cpp:156] Memory required for data: 773112864
I0403 15:01:40.420750 30911 layer_factory.hpp:77] Creating layer inception_3b/output
I0403 15:01:40.420769 30911 net.cpp:91] Creating Layer inception_3b/output
I0403 15:01:40.420786 30911 net.cpp:425] inception_3b/output <- inception_3b/1x1
I0403 15:01:40.420804 30911 net.cpp:425] inception_3b/output <- inception_3b/3x3
I0403 15:01:40.420819 30911 net.cpp:425] inception_3b/output <- inception_3b/5x5
I0403 15:01:40.420835 30911 net.cpp:425] inception_3b/output <- inception_3b/pool_proj
I0403 15:01:40.420852 30911 net.cpp:399] inception_3b/output -> inception_3b/output
I0403 15:01:40.420897 30911 net.cpp:141] Setting up inception_3b/output
I0403 15:01:40.420920 30911 net.cpp:148] Top shape: 24 480 28 28 (9031680)
I0403 15:01:40.420935 30911 net.cpp:156] Memory required for data: 809239584
I0403 15:01:40.420954 30911 layer_factory.hpp:77] Creating layer pool3/3x3_s2
I0403 15:01:40.420974 30911 net.cpp:91] Creating Layer pool3/3x3_s2
I0403 15:01:40.420989 30911 net.cpp:425] pool3/3x3_s2 <- inception_3b/output
I0403 15:01:40.421026 30911 net.cpp:399] pool3/3x3_s2 -> pool3/3x3_s2
I0403 15:01:40.421087 30911 net.cpp:141] Setting up pool3/3x3_s2
I0403 15:01:40.421110 30911 net.cpp:148] Top shape: 24 480 14 14 (2257920)
I0403 15:01:40.421124 30911 net.cpp:156] Memory required for data: 818271264
I0403 15:01:40.421139 30911 layer_factory.hpp:77] Creating layer pool3/3x3_s2_pool3/3x3_s2_0_split
I0403 15:01:40.421156 30911 net.cpp:91] Creating Layer pool3/3x3_s2_pool3/3x3_s2_0_split
I0403 15:01:40.421171 30911 net.cpp:425] pool3/3x3_s2_pool3/3x3_s2_0_split <- pool3/3x3_s2
I0403 15:01:40.421190 30911 net.cpp:399] pool3/3x3_s2_pool3/3x3_s2_0_split -> pool3/3x3_s2_pool3/3x3_s2_0_split_0
I0403 15:01:40.421211 30911 net.cpp:399] pool3/3x3_s2_pool3/3x3_s2_0_split -> pool3/3x3_s2_pool3/3x3_s2_0_split_1
I0403 15:01:40.421231 30911 net.cpp:399] pool3/3x3_s2_pool3/3x3_s2_0_split -> pool3/3x3_s2_pool3/3x3_s2_0_split_2
I0403 15:01:40.421252 30911 net.cpp:399] pool3/3x3_s2_pool3/3x3_s2_0_split -> pool3/3x3_s2_pool3/3x3_s2_0_split_3
I0403 15:01:40.421337 30911 net.cpp:141] Setting up pool3/3x3_s2_pool3/3x3_s2_0_split
I0403 15:01:40.421358 30911 net.cpp:148] Top shape: 24 480 14 14 (2257920)
I0403 15:01:40.421375 30911 net.cpp:148] Top shape: 24 480 14 14 (2257920)
I0403 15:01:40.421391 30911 net.cpp:148] Top shape: 24 480 14 14 (2257920)
I0403 15:01:40.421406 30911 net.cpp:148] Top shape: 24 480 14 14 (2257920)
I0403 15:01:40.421418 30911 net.cpp:156] Memory required for data: 854397984
I0403 15:01:40.421433 30911 layer_factory.hpp:77] Creating layer inception_4a/1x1
I0403 15:01:40.421457 30911 net.cpp:91] Creating Layer inception_4a/1x1
I0403 15:01:40.421473 30911 net.cpp:425] inception_4a/1x1 <- pool3/3x3_s2_pool3/3x3_s2_0_split_0
I0403 15:01:40.421491 30911 net.cpp:399] inception_4a/1x1 -> inception_4a/1x1
I0403 15:01:40.423014 30911 net.cpp:141] Setting up inception_4a/1x1
I0403 15:01:40.423053 30911 net.cpp:148] Top shape: 24 192 14 14 (903168)
I0403 15:01:40.423069 30911 net.cpp:156] Memory required for data: 858010656
I0403 15:01:40.423087 30911 layer_factory.hpp:77] Creating layer inception_4a/relu_1x1
I0403 15:01:40.423105 30911 net.cpp:91] Creating Layer inception_4a/relu_1x1
I0403 15:01:40.423120 30911 net.cpp:425] inception_4a/relu_1x1 <- inception_4a/1x1
I0403 15:01:40.423141 30911 net.cpp:386] inception_4a/relu_1x1 -> inception_4a/1x1 (in-place)
I0403 15:01:40.423310 30911 net.cpp:141] Setting up inception_4a/relu_1x1
I0403 15:01:40.423333 30911 net.cpp:148] Top shape: 24 192 14 14 (903168)
I0403 15:01:40.423348 30911 net.cpp:156] Memory required for data: 861623328
I0403 15:01:40.423362 30911 layer_factory.hpp:77] Creating layer inception_4a/3x3_reduce
I0403 15:01:40.423384 30911 net.cpp:91] Creating Layer inception_4a/3x3_reduce
I0403 15:01:40.423401 30911 net.cpp:425] inception_4a/3x3_reduce <- pool3/3x3_s2_pool3/3x3_s2_0_split_1
I0403 15:01:40.423423 30911 net.cpp:399] inception_4a/3x3_reduce -> inception_4a/3x3_reduce
I0403 15:01:40.424661 30911 net.cpp:141] Setting up inception_4a/3x3_reduce
I0403 15:01:40.424690 30911 net.cpp:148] Top shape: 24 96 14 14 (451584)
I0403 15:01:40.424707 30911 net.cpp:156] Memory required for data: 863429664
I0403 15:01:40.424729 30911 layer_factory.hpp:77] Creating layer inception_4a/relu_3x3_reduce
I0403 15:01:40.424749 30911 net.cpp:91] Creating Layer inception_4a/relu_3x3_reduce
I0403 15:01:40.424767 30911 net.cpp:425] inception_4a/relu_3x3_reduce <- inception_4a/3x3_reduce
I0403 15:01:40.424783 30911 net.cpp:386] inception_4a/relu_3x3_reduce -> inception_4a/3x3_reduce (in-place)
I0403 15:01:40.424952 30911 net.cpp:141] Setting up inception_4a/relu_3x3_reduce
I0403 15:01:40.424975 30911 net.cpp:148] Top shape: 24 96 14 14 (451584)
I0403 15:01:40.424989 30911 net.cpp:156] Memory required for data: 865236000
I0403 15:01:40.425004 30911 layer_factory.hpp:77] Creating layer inception_4a/3x3
I0403 15:01:40.425025 30911 net.cpp:91] Creating Layer inception_4a/3x3
I0403 15:01:40.425042 30911 net.cpp:425] inception_4a/3x3 <- inception_4a/3x3_reduce
I0403 15:01:40.425063 30911 net.cpp:399] inception_4a/3x3 -> inception_4a/3x3
I0403 15:01:40.427685 30911 net.cpp:141] Setting up inception_4a/3x3
I0403 15:01:40.427712 30911 net.cpp:148] Top shape: 24 208 14 14 (978432)
I0403 15:01:40.427728 30911 net.cpp:156] Memory required for data: 869149728
I0403 15:01:40.427745 30911 layer_factory.hpp:77] Creating layer inception_4a/relu_3x3
I0403 15:01:40.427763 30911 net.cpp:91] Creating Layer inception_4a/relu_3x3
I0403 15:01:40.427778 30911 net.cpp:425] inception_4a/relu_3x3 <- inception_4a/3x3
I0403 15:01:40.427798 30911 net.cpp:386] inception_4a/relu_3x3 -> inception_4a/3x3 (in-place)
I0403 15:01:40.428063 30911 net.cpp:141] Setting up inception_4a/relu_3x3
I0403 15:01:40.428088 30911 net.cpp:148] Top shape: 24 208 14 14 (978432)
I0403 15:01:40.428103 30911 net.cpp:156] Memory required for data: 873063456
I0403 15:01:40.428118 30911 layer_factory.hpp:77] Creating layer inception_4a/5x5_reduce
I0403 15:01:40.428140 30911 net.cpp:91] Creating Layer inception_4a/5x5_reduce
I0403 15:01:40.428158 30911 net.cpp:425] inception_4a/5x5_reduce <- pool3/3x3_s2_pool3/3x3_s2_0_split_2
I0403 15:01:40.428179 30911 net.cpp:399] inception_4a/5x5_reduce -> inception_4a/5x5_reduce
I0403 15:01:40.429165 30911 net.cpp:141] Setting up inception_4a/5x5_reduce
I0403 15:01:40.429191 30911 net.cpp:148] Top shape: 24 16 14 14 (75264)
I0403 15:01:40.429208 30911 net.cpp:156] Memory required for data: 873364512
I0403 15:01:40.429225 30911 layer_factory.hpp:77] Creating layer inception_4a/relu_5x5_reduce
I0403 15:01:40.429246 30911 net.cpp:91] Creating Layer inception_4a/relu_5x5_reduce
I0403 15:01:40.429263 30911 net.cpp:425] inception_4a/relu_5x5_reduce <- inception_4a/5x5_reduce
I0403 15:01:40.429280 30911 net.cpp:386] inception_4a/relu_5x5_reduce -> inception_4a/5x5_reduce (in-place)
I0403 15:01:40.429450 30911 net.cpp:141] Setting up inception_4a/relu_5x5_reduce
I0403 15:01:40.429473 30911 net.cpp:148] Top shape: 24 16 14 14 (75264)
I0403 15:01:40.429488 30911 net.cpp:156] Memory required for data: 873665568
I0403 15:01:40.429508 30911 layer_factory.hpp:77] Creating layer inception_4a/5x5
I0403 15:01:40.429539 30911 net.cpp:91] Creating Layer inception_4a/5x5
I0403 15:01:40.429558 30911 net.cpp:425] inception_4a/5x5 <- inception_4a/5x5_reduce
I0403 15:01:40.429576 30911 net.cpp:399] inception_4a/5x5 -> inception_4a/5x5
I0403 15:01:40.430639 30911 net.cpp:141] Setting up inception_4a/5x5
I0403 15:01:40.430665 30911 net.cpp:148] Top shape: 24 48 14 14 (225792)
I0403 15:01:40.430682 30911 net.cpp:156] Memory required for data: 874568736
I0403 15:01:40.430701 30911 layer_factory.hpp:77] Creating layer inception_4a/relu_5x5
I0403 15:01:40.430717 30911 net.cpp:91] Creating Layer inception_4a/relu_5x5
I0403 15:01:40.430733 30911 net.cpp:425] inception_4a/relu_5x5 <- inception_4a/5x5
I0403 15:01:40.430750 30911 net.cpp:386] inception_4a/relu_5x5 -> inception_4a/5x5 (in-place)
I0403 15:01:40.430919 30911 net.cpp:141] Setting up inception_4a/relu_5x5
I0403 15:01:40.430946 30911 net.cpp:148] Top shape: 24 48 14 14 (225792)
I0403 15:01:40.430963 30911 net.cpp:156] Memory required for data: 875471904
I0403 15:01:40.430976 30911 layer_factory.hpp:77] Creating layer inception_4a/pool
I0403 15:01:40.430994 30911 net.cpp:91] Creating Layer inception_4a/pool
I0403 15:01:40.431010 30911 net.cpp:425] inception_4a/pool <- pool3/3x3_s2_pool3/3x3_s2_0_split_3
I0403 15:01:40.431028 30911 net.cpp:399] inception_4a/pool -> inception_4a/pool
I0403 15:01:40.431087 30911 net.cpp:141] Setting up inception_4a/pool
I0403 15:01:40.431112 30911 net.cpp:148] Top shape: 24 480 14 14 (2257920)
I0403 15:01:40.431125 30911 net.cpp:156] Memory required for data: 884503584
I0403 15:01:40.431139 30911 layer_factory.hpp:77] Creating layer inception_4a/pool_proj
I0403 15:01:40.431159 30911 net.cpp:91] Creating Layer inception_4a/pool_proj
I0403 15:01:40.431174 30911 net.cpp:425] inception_4a/pool_proj <- inception_4a/pool
I0403 15:01:40.431193 30911 net.cpp:399] inception_4a/pool_proj -> inception_4a/pool_proj
I0403 15:01:40.432320 30911 net.cpp:141] Setting up inception_4a/pool_proj
I0403 15:01:40.432350 30911 net.cpp:148] Top shape: 24 64 14 14 (301056)
I0403 15:01:40.432379 30911 net.cpp:156] Memory required for data: 885707808
I0403 15:01:40.432399 30911 layer_factory.hpp:77] Creating layer inception_4a/relu_pool_proj
I0403 15:01:40.432416 30911 net.cpp:91] Creating Layer inception_4a/relu_pool_proj
I0403 15:01:40.432432 30911 net.cpp:425] inception_4a/relu_pool_proj <- inception_4a/pool_proj
I0403 15:01:40.432449 30911 net.cpp:386] inception_4a/relu_pool_proj -> inception_4a/pool_proj (in-place)
I0403 15:01:40.432724 30911 net.cpp:141] Setting up inception_4a/relu_pool_proj
I0403 15:01:40.432752 30911 net.cpp:148] Top shape: 24 64 14 14 (301056)
I0403 15:01:40.432767 30911 net.cpp:156] Memory required for data: 886912032
I0403 15:01:40.432782 30911 layer_factory.hpp:77] Creating layer inception_4a/output
I0403 15:01:40.432799 30911 net.cpp:91] Creating Layer inception_4a/output
I0403 15:01:40.432814 30911 net.cpp:425] inception_4a/output <- inception_4a/1x1
I0403 15:01:40.432831 30911 net.cpp:425] inception_4a/output <- inception_4a/3x3
I0403 15:01:40.432847 30911 net.cpp:425] inception_4a/output <- inception_4a/5x5
I0403 15:01:40.432862 30911 net.cpp:425] inception_4a/output <- inception_4a/pool_proj
I0403 15:01:40.432878 30911 net.cpp:399] inception_4a/output -> inception_4a/output
I0403 15:01:40.432922 30911 net.cpp:141] Setting up inception_4a/output
I0403 15:01:40.432945 30911 net.cpp:148] Top shape: 24 512 14 14 (2408448)
I0403 15:01:40.432960 30911 net.cpp:156] Memory required for data: 896545824
I0403 15:01:40.432974 30911 layer_factory.hpp:77] Creating layer inception_4a/output_inception_4a/output_0_split
I0403 15:01:40.432993 30911 net.cpp:91] Creating Layer inception_4a/output_inception_4a/output_0_split
I0403 15:01:40.433009 30911 net.cpp:425] inception_4a/output_inception_4a/output_0_split <- inception_4a/output
I0403 15:01:40.433027 30911 net.cpp:399] inception_4a/output_inception_4a/output_0_split -> inception_4a/output_inception_4a/output_0_split_0
I0403 15:01:40.433046 30911 net.cpp:399] inception_4a/output_inception_4a/output_0_split -> inception_4a/output_inception_4a/output_0_split_1
I0403 15:01:40.433066 30911 net.cpp:399] inception_4a/output_inception_4a/output_0_split -> inception_4a/output_inception_4a/output_0_split_2
I0403 15:01:40.433087 30911 net.cpp:399] inception_4a/output_inception_4a/output_0_split -> inception_4a/output_inception_4a/output_0_split_3
I0403 15:01:40.433107 30911 net.cpp:399] inception_4a/output_inception_4a/output_0_split -> inception_4a/output_inception_4a/output_0_split_4
I0403 15:01:40.433198 30911 net.cpp:141] Setting up inception_4a/output_inception_4a/output_0_split
I0403 15:01:40.433220 30911 net.cpp:148] Top shape: 24 512 14 14 (2408448)
I0403 15:01:40.433236 30911 net.cpp:148] Top shape: 24 512 14 14 (2408448)
I0403 15:01:40.433251 30911 net.cpp:148] Top shape: 24 512 14 14 (2408448)
I0403 15:01:40.433276 30911 net.cpp:148] Top shape: 24 512 14 14 (2408448)
I0403 15:01:40.433293 30911 net.cpp:148] Top shape: 24 512 14 14 (2408448)
I0403 15:01:40.433307 30911 net.cpp:156] Memory required for data: 944714784
I0403 15:01:40.433321 30911 layer_factory.hpp:77] Creating layer loss1/ave_pool
I0403 15:01:40.433341 30911 net.cpp:91] Creating Layer loss1/ave_pool
I0403 15:01:40.433357 30911 net.cpp:425] loss1/ave_pool <- inception_4a/output_inception_4a/output_0_split_0
I0403 15:01:40.433373 30911 net.cpp:399] loss1/ave_pool -> loss1/ave_pool
I0403 15:01:40.433583 30911 net.cpp:141] Setting up loss1/ave_pool
I0403 15:01:40.433610 30911 net.cpp:148] Top shape: 24 512 4 4 (196608)
I0403 15:01:40.433625 30911 net.cpp:156] Memory required for data: 945501216
I0403 15:01:40.433640 30911 layer_factory.hpp:77] Creating layer loss1/conv
I0403 15:01:40.433662 30911 net.cpp:91] Creating Layer loss1/conv
I0403 15:01:40.433679 30911 net.cpp:425] loss1/conv <- loss1/ave_pool
I0403 15:01:40.433697 30911 net.cpp:399] loss1/conv -> loss1/conv
I0403 15:01:40.435063 30911 net.cpp:141] Setting up loss1/conv
I0403 15:01:40.435091 30911 net.cpp:148] Top shape: 24 128 4 4 (49152)
I0403 15:01:40.435128 30911 net.cpp:156] Memory required for data: 945697824
I0403 15:01:40.435148 30911 layer_factory.hpp:77] Creating layer loss1/relu_conv
I0403 15:01:40.435168 30911 net.cpp:91] Creating Layer loss1/relu_conv
I0403 15:01:40.435185 30911 net.cpp:425] loss1/relu_conv <- loss1/conv
I0403 15:01:40.435202 30911 net.cpp:386] loss1/relu_conv -> loss1/conv (in-place)
I0403 15:01:40.435484 30911 net.cpp:141] Setting up loss1/relu_conv
I0403 15:01:40.435513 30911 net.cpp:148] Top shape: 24 128 4 4 (49152)
I0403 15:01:40.435529 30911 net.cpp:156] Memory required for data: 945894432
I0403 15:01:40.435544 30911 layer_factory.hpp:77] Creating layer loss1/fc
I0403 15:01:40.435570 30911 net.cpp:91] Creating Layer loss1/fc
I0403 15:01:40.435587 30911 net.cpp:425] loss1/fc <- loss1/conv
I0403 15:01:40.435606 30911 net.cpp:399] loss1/fc -> loss1/fc
I0403 15:01:40.452847 30911 net.cpp:141] Setting up loss1/fc
I0403 15:01:40.452879 30911 net.cpp:148] Top shape: 24 1024 (24576)
I0403 15:01:40.452896 30911 net.cpp:156] Memory required for data: 945992736
I0403 15:01:40.452914 30911 layer_factory.hpp:77] Creating layer loss1/relu_fc
I0403 15:01:40.452934 30911 net.cpp:91] Creating Layer loss1/relu_fc
I0403 15:01:40.452950 30911 net.cpp:425] loss1/relu_fc <- loss1/fc
I0403 15:01:40.452970 30911 net.cpp:386] loss1/relu_fc -> loss1/fc (in-place)
I0403 15:01:40.453155 30911 net.cpp:141] Setting up loss1/relu_fc
I0403 15:01:40.453184 30911 net.cpp:148] Top shape: 24 1024 (24576)
I0403 15:01:40.453202 30911 net.cpp:156] Memory required for data: 946091040
I0403 15:01:40.453215 30911 layer_factory.hpp:77] Creating layer loss1/drop_fc
I0403 15:01:40.453241 30911 net.cpp:91] Creating Layer loss1/drop_fc
I0403 15:01:40.453258 30911 net.cpp:425] loss1/drop_fc <- loss1/fc
I0403 15:01:40.453277 30911 net.cpp:386] loss1/drop_fc -> loss1/fc (in-place)
I0403 15:01:40.453328 30911 net.cpp:141] Setting up loss1/drop_fc
I0403 15:01:40.453351 30911 net.cpp:148] Top shape: 24 1024 (24576)
I0403 15:01:40.453366 30911 net.cpp:156] Memory required for data: 946189344
I0403 15:01:40.453380 30911 layer_factory.hpp:77] Creating layer loss1/classifier_plantvillage
I0403 15:01:40.453402 30911 net.cpp:91] Creating Layer loss1/classifier_plantvillage
I0403 15:01:40.453418 30911 net.cpp:425] loss1/classifier_plantvillage <- loss1/fc
I0403 15:01:40.453438 30911 net.cpp:399] loss1/classifier_plantvillage -> loss1/classifier_plantvillage
I0403 15:01:40.454313 30911 net.cpp:141] Setting up loss1/classifier_plantvillage
I0403 15:01:40.454342 30911 net.cpp:148] Top shape: 24 38 (912)
I0403 15:01:40.454360 30911 net.cpp:156] Memory required for data: 946192992
I0403 15:01:40.454377 30911 layer_factory.hpp:77] Creating layer loss1/classifier_plantvillage_loss1/classifier_plantvillage_0_split
I0403 15:01:40.454394 30911 net.cpp:91] Creating Layer loss1/classifier_plantvillage_loss1/classifier_plantvillage_0_split
I0403 15:01:40.454409 30911 net.cpp:425] loss1/classifier_plantvillage_loss1/classifier_plantvillage_0_split <- loss1/classifier_plantvillage
I0403 15:01:40.454429 30911 net.cpp:399] loss1/classifier_plantvillage_loss1/classifier_plantvillage_0_split -> loss1/classifier_plantvillage_loss1/classifier_plantvillage_0_split_0
I0403 15:01:40.454450 30911 net.cpp:399] loss1/classifier_plantvillage_loss1/classifier_plantvillage_0_split -> loss1/classifier_plantvillage_loss1/classifier_plantvillage_0_split_1
I0403 15:01:40.454471 30911 net.cpp:399] loss1/classifier_plantvillage_loss1/classifier_plantvillage_0_split -> loss1/classifier_plantvillage_loss1/classifier_plantvillage_0_split_2
I0403 15:01:40.454546 30911 net.cpp:141] Setting up loss1/classifier_plantvillage_loss1/classifier_plantvillage_0_split
I0403 15:01:40.454569 30911 net.cpp:148] Top shape: 24 38 (912)
I0403 15:01:40.454586 30911 net.cpp:148] Top shape: 24 38 (912)
I0403 15:01:40.454602 30911 net.cpp:148] Top shape: 24 38 (912)
I0403 15:01:40.454615 30911 net.cpp:156] Memory required for data: 946203936
I0403 15:01:40.454629 30911 layer_factory.hpp:77] Creating layer inception_4b/1x1
I0403 15:01:40.454659 30911 net.cpp:91] Creating Layer inception_4b/1x1
I0403 15:01:40.454691 30911 net.cpp:425] inception_4b/1x1 <- inception_4a/output_inception_4a/output_0_split_1
I0403 15:01:40.454710 30911 net.cpp:399] inception_4b/1x1 -> inception_4b/1x1
I0403 15:01:40.456305 30911 net.cpp:141] Setting up inception_4b/1x1
I0403 15:01:40.456331 30911 net.cpp:148] Top shape: 24 160 14 14 (752640)
I0403 15:01:40.456346 30911 net.cpp:156] Memory required for data: 949214496
I0403 15:01:40.456364 30911 layer_factory.hpp:77] Creating layer inception_4b/relu_1x1
I0403 15:01:40.456385 30911 net.cpp:91] Creating Layer inception_4b/relu_1x1
I0403 15:01:40.456401 30911 net.cpp:425] inception_4b/relu_1x1 <- inception_4b/1x1
I0403 15:01:40.456418 30911 net.cpp:386] inception_4b/relu_1x1 -> inception_4b/1x1 (in-place)
I0403 15:01:40.456596 30911 net.cpp:141] Setting up inception_4b/relu_1x1
I0403 15:01:40.456620 30911 net.cpp:148] Top shape: 24 160 14 14 (752640)
I0403 15:01:40.456635 30911 net.cpp:156] Memory required for data: 952225056
I0403 15:01:40.456650 30911 layer_factory.hpp:77] Creating layer inception_4b/3x3_reduce
I0403 15:01:40.456671 30911 net.cpp:91] Creating Layer inception_4b/3x3_reduce
I0403 15:01:40.456689 30911 net.cpp:425] inception_4b/3x3_reduce <- inception_4a/output_inception_4a/output_0_split_2
I0403 15:01:40.456708 30911 net.cpp:399] inception_4b/3x3_reduce -> inception_4b/3x3_reduce
I0403 15:01:40.458019 30911 net.cpp:141] Setting up inception_4b/3x3_reduce
I0403 15:01:40.458046 30911 net.cpp:148] Top shape: 24 112 14 14 (526848)
I0403 15:01:40.458061 30911 net.cpp:156] Memory required for data: 954332448
I0403 15:01:40.458079 30911 layer_factory.hpp:77] Creating layer inception_4b/relu_3x3_reduce
I0403 15:01:40.458099 30911 net.cpp:91] Creating Layer inception_4b/relu_3x3_reduce
I0403 15:01:40.458117 30911 net.cpp:425] inception_4b/relu_3x3_reduce <- inception_4b/3x3_reduce
I0403 15:01:40.458133 30911 net.cpp:386] inception_4b/relu_3x3_reduce -> inception_4b/3x3_reduce (in-place)
I0403 15:01:40.458405 30911 net.cpp:141] Setting up inception_4b/relu_3x3_reduce
I0403 15:01:40.458431 30911 net.cpp:148] Top shape: 24 112 14 14 (526848)
I0403 15:01:40.458446 30911 net.cpp:156] Memory required for data: 956439840
I0403 15:01:40.458461 30911 layer_factory.hpp:77] Creating layer inception_4b/3x3
I0403 15:01:40.458482 30911 net.cpp:91] Creating Layer inception_4b/3x3
I0403 15:01:40.458500 30911 net.cpp:425] inception_4b/3x3 <- inception_4b/3x3_reduce
I0403 15:01:40.458526 30911 net.cpp:399] inception_4b/3x3 -> inception_4b/3x3
I0403 15:01:40.461405 30911 net.cpp:141] Setting up inception_4b/3x3
I0403 15:01:40.461436 30911 net.cpp:148] Top shape: 24 224 14 14 (1053696)
I0403 15:01:40.461453 30911 net.cpp:156] Memory required for data: 960654624
I0403 15:01:40.461473 30911 layer_factory.hpp:77] Creating layer inception_4b/relu_3x3
I0403 15:01:40.461491 30911 net.cpp:91] Creating Layer inception_4b/relu_3x3
I0403 15:01:40.461513 30911 net.cpp:425] inception_4b/relu_3x3 <- inception_4b/3x3
I0403 15:01:40.461534 30911 net.cpp:386] inception_4b/relu_3x3 -> inception_4b/3x3 (in-place)
I0403 15:01:40.461709 30911 net.cpp:141] Setting up inception_4b/relu_3x3
I0403 15:01:40.461733 30911 net.cpp:148] Top shape: 24 224 14 14 (1053696)
I0403 15:01:40.461747 30911 net.cpp:156] Memory required for data: 964869408
I0403 15:01:40.461762 30911 layer_factory.hpp:77] Creating layer inception_4b/5x5_reduce
I0403 15:01:40.461783 30911 net.cpp:91] Creating Layer inception_4b/5x5_reduce
I0403 15:01:40.461802 30911 net.cpp:425] inception_4b/5x5_reduce <- inception_4a/output_inception_4a/output_0_split_3
I0403 15:01:40.461822 30911 net.cpp:399] inception_4b/5x5_reduce -> inception_4b/5x5_reduce
I0403 15:01:40.462865 30911 net.cpp:141] Setting up inception_4b/5x5_reduce
I0403 15:01:40.462891 30911 net.cpp:148] Top shape: 24 24 14 14 (112896)
I0403 15:01:40.462906 30911 net.cpp:156] Memory required for data: 965320992
I0403 15:01:40.462924 30911 layer_factory.hpp:77] Creating layer inception_4b/relu_5x5_reduce
I0403 15:01:40.462944 30911 net.cpp:91] Creating Layer inception_4b/relu_5x5_reduce
I0403 15:01:40.462973 30911 net.cpp:425] inception_4b/relu_5x5_reduce <- inception_4b/5x5_reduce
I0403 15:01:40.462991 30911 net.cpp:386] inception_4b/relu_5x5_reduce -> inception_4b/5x5_reduce (in-place)
I0403 15:01:40.463165 30911 net.cpp:141] Setting up inception_4b/relu_5x5_reduce
I0403 15:01:40.463191 30911 net.cpp:148] Top shape: 24 24 14 14 (112896)
I0403 15:01:40.463207 30911 net.cpp:156] Memory required for data: 965772576
I0403 15:01:40.463220 30911 layer_factory.hpp:77] Creating layer inception_4b/5x5
I0403 15:01:40.463243 30911 net.cpp:91] Creating Layer inception_4b/5x5
I0403 15:01:40.463259 30911 net.cpp:425] inception_4b/5x5 <- inception_4b/5x5_reduce
I0403 15:01:40.463279 30911 net.cpp:399] inception_4b/5x5 -> inception_4b/5x5
I0403 15:01:40.464468 30911 net.cpp:141] Setting up inception_4b/5x5
I0403 15:01:40.464494 30911 net.cpp:148] Top shape: 24 64 14 14 (301056)
I0403 15:01:40.464521 30911 net.cpp:156] Memory required for data: 966976800
I0403 15:01:40.464542 30911 layer_factory.hpp:77] Creating layer inception_4b/relu_5x5
I0403 15:01:40.464563 30911 net.cpp:91] Creating Layer inception_4b/relu_5x5
I0403 15:01:40.464581 30911 net.cpp:425] inception_4b/relu_5x5 <- inception_4b/5x5
I0403 15:01:40.464597 30911 net.cpp:386] inception_4b/relu_5x5 -> inception_4b/5x5 (in-place)
I0403 15:01:40.464874 30911 net.cpp:141] Setting up inception_4b/relu_5x5
I0403 15:01:40.464900 30911 net.cpp:148] Top shape: 24 64 14 14 (301056)
I0403 15:01:40.464915 30911 net.cpp:156] Memory required for data: 968181024
I0403 15:01:40.464929 30911 layer_factory.hpp:77] Creating layer inception_4b/pool
I0403 15:01:40.464947 30911 net.cpp:91] Creating Layer inception_4b/pool
I0403 15:01:40.464962 30911 net.cpp:425] inception_4b/pool <- inception_4a/output_inception_4a/output_0_split_4
I0403 15:01:40.464983 30911 net.cpp:399] inception_4b/pool -> inception_4b/pool
I0403 15:01:40.465045 30911 net.cpp:141] Setting up inception_4b/pool
I0403 15:01:40.465068 30911 net.cpp:148] Top shape: 24 512 14 14 (2408448)
I0403 15:01:40.465082 30911 net.cpp:156] Memory required for data: 977814816
I0403 15:01:40.465097 30911 layer_factory.hpp:77] Creating layer inception_4b/pool_proj
I0403 15:01:40.465118 30911 net.cpp:91] Creating Layer inception_4b/pool_proj
I0403 15:01:40.465136 30911 net.cpp:425] inception_4b/pool_proj <- inception_4b/pool
I0403 15:01:40.465157 30911 net.cpp:399] inception_4b/pool_proj -> inception_4b/pool_proj
I0403 15:01:40.466311 30911 net.cpp:141] Setting up inception_4b/pool_proj
I0403 15:01:40.466338 30911 net.cpp:148] Top shape: 24 64 14 14 (301056)
I0403 15:01:40.466354 30911 net.cpp:156] Memory required for data: 979019040
I0403 15:01:40.466372 30911 layer_factory.hpp:77] Creating layer inception_4b/relu_pool_proj
I0403 15:01:40.466392 30911 net.cpp:91] Creating Layer inception_4b/relu_pool_proj
I0403 15:01:40.466408 30911 net.cpp:425] inception_4b/relu_pool_proj <- inception_4b/pool_proj
I0403 15:01:40.466425 30911 net.cpp:386] inception_4b/relu_pool_proj -> inception_4b/pool_proj (in-place)
I0403 15:01:40.466604 30911 net.cpp:141] Setting up inception_4b/relu_pool_proj
I0403 15:01:40.466629 30911 net.cpp:148] Top shape: 24 64 14 14 (301056)
I0403 15:01:40.466642 30911 net.cpp:156] Memory required for data: 980223264
I0403 15:01:40.466657 30911 layer_factory.hpp:77] Creating layer inception_4b/output
I0403 15:01:40.466676 30911 net.cpp:91] Creating Layer inception_4b/output
I0403 15:01:40.466691 30911 net.cpp:425] inception_4b/output <- inception_4b/1x1
I0403 15:01:40.466708 30911 net.cpp:425] inception_4b/output <- inception_4b/3x3
I0403 15:01:40.466723 30911 net.cpp:425] inception_4b/output <- inception_4b/5x5
I0403 15:01:40.466739 30911 net.cpp:425] inception_4b/output <- inception_4b/pool_proj
I0403 15:01:40.466758 30911 net.cpp:399] inception_4b/output -> inception_4b/output
I0403 15:01:40.466802 30911 net.cpp:141] Setting up inception_4b/output
I0403 15:01:40.466825 30911 net.cpp:148] Top shape: 24 512 14 14 (2408448)
I0403 15:01:40.466838 30911 net.cpp:156] Memory required for data: 989857056
I0403 15:01:40.466866 30911 layer_factory.hpp:77] Creating layer inception_4b/output_inception_4b/output_0_split
I0403 15:01:40.466884 30911 net.cpp:91] Creating Layer inception_4b/output_inception_4b/output_0_split
I0403 15:01:40.466900 30911 net.cpp:425] inception_4b/output_inception_4b/output_0_split <- inception_4b/output
I0403 15:01:40.466918 30911 net.cpp:399] inception_4b/output_inception_4b/output_0_split -> inception_4b/output_inception_4b/output_0_split_0
I0403 15:01:40.466939 30911 net.cpp:399] inception_4b/output_inception_4b/output_0_split -> inception_4b/output_inception_4b/output_0_split_1
I0403 15:01:40.466959 30911 net.cpp:399] inception_4b/output_inception_4b/output_0_split -> inception_4b/output_inception_4b/output_0_split_2
I0403 15:01:40.466979 30911 net.cpp:399] inception_4b/output_inception_4b/output_0_split -> inception_4b/output_inception_4b/output_0_split_3
I0403 15:01:40.467064 30911 net.cpp:141] Setting up inception_4b/output_inception_4b/output_0_split
I0403 15:01:40.467087 30911 net.cpp:148] Top shape: 24 512 14 14 (2408448)
I0403 15:01:40.467103 30911 net.cpp:148] Top shape: 24 512 14 14 (2408448)
I0403 15:01:40.467118 30911 net.cpp:148] Top shape: 24 512 14 14 (2408448)
I0403 15:01:40.467133 30911 net.cpp:148] Top shape: 24 512 14 14 (2408448)
I0403 15:01:40.467146 30911 net.cpp:156] Memory required for data: 1028392224
I0403 15:01:40.467160 30911 layer_factory.hpp:77] Creating layer inception_4c/1x1
I0403 15:01:40.467181 30911 net.cpp:91] Creating Layer inception_4c/1x1
I0403 15:01:40.467198 30911 net.cpp:425] inception_4c/1x1 <- inception_4b/output_inception_4b/output_0_split_0
I0403 15:01:40.467218 30911 net.cpp:399] inception_4c/1x1 -> inception_4c/1x1
I0403 15:01:40.468616 30911 net.cpp:141] Setting up inception_4c/1x1
I0403 15:01:40.468643 30911 net.cpp:148] Top shape: 24 128 14 14 (602112)
I0403 15:01:40.468658 30911 net.cpp:156] Memory required for data: 1030800672
I0403 15:01:40.468678 30911 layer_factory.hpp:77] Creating layer inception_4c/relu_1x1
I0403 15:01:40.468698 30911 net.cpp:91] Creating Layer inception_4c/relu_1x1
I0403 15:01:40.468713 30911 net.cpp:425] inception_4c/relu_1x1 <- inception_4c/1x1
I0403 15:01:40.468730 30911 net.cpp:386] inception_4c/relu_1x1 -> inception_4c/1x1 (in-place)
I0403 15:01:40.468906 30911 net.cpp:141] Setting up inception_4c/relu_1x1
I0403 15:01:40.468930 30911 net.cpp:148] Top shape: 24 128 14 14 (602112)
I0403 15:01:40.468945 30911 net.cpp:156] Memory required for data: 1033209120
I0403 15:01:40.468960 30911 layer_factory.hpp:77] Creating layer inception_4c/3x3_reduce
I0403 15:01:40.468981 30911 net.cpp:91] Creating Layer inception_4c/3x3_reduce
I0403 15:01:40.468997 30911 net.cpp:425] inception_4c/3x3_reduce <- inception_4b/output_inception_4b/output_0_split_1
I0403 15:01:40.469018 30911 net.cpp:399] inception_4c/3x3_reduce -> inception_4c/3x3_reduce
I0403 15:01:40.470885 30911 net.cpp:141] Setting up inception_4c/3x3_reduce
I0403 15:01:40.470913 30911 net.cpp:148] Top shape: 24 128 14 14 (602112)
I0403 15:01:40.470928 30911 net.cpp:156] Memory required for data: 1035617568
I0403 15:01:40.470947 30911 layer_factory.hpp:77] Creating layer inception_4c/relu_3x3_reduce
I0403 15:01:40.470965 30911 net.cpp:91] Creating Layer inception_4c/relu_3x3_reduce
I0403 15:01:40.470980 30911 net.cpp:425] inception_4c/relu_3x3_reduce <- inception_4c/3x3_reduce
I0403 15:01:40.471000 30911 net.cpp:386] inception_4c/relu_3x3_reduce -> inception_4c/3x3_reduce (in-place)
I0403 15:01:40.471277 30911 net.cpp:141] Setting up inception_4c/relu_3x3_reduce
I0403 15:01:40.471303 30911 net.cpp:148] Top shape: 24 128 14 14 (602112)
I0403 15:01:40.471318 30911 net.cpp:156] Memory required for data: 1038026016
I0403 15:01:40.471331 30911 layer_factory.hpp:77] Creating layer inception_4c/3x3
I0403 15:01:40.471354 30911 net.cpp:91] Creating Layer inception_4c/3x3
I0403 15:01:40.471371 30911 net.cpp:425] inception_4c/3x3 <- inception_4c/3x3_reduce
I0403 15:01:40.471392 30911 net.cpp:399] inception_4c/3x3 -> inception_4c/3x3
I0403 15:01:40.474907 30911 net.cpp:141] Setting up inception_4c/3x3
I0403 15:01:40.474947 30911 net.cpp:148] Top shape: 24 256 14 14 (1204224)
I0403 15:01:40.474963 30911 net.cpp:156] Memory required for data: 1042842912
I0403 15:01:40.474993 30911 layer_factory.hpp:77] Creating layer inception_4c/relu_3x3
I0403 15:01:40.475018 30911 net.cpp:91] Creating Layer inception_4c/relu_3x3
I0403 15:01:40.475034 30911 net.cpp:425] inception_4c/relu_3x3 <- inception_4c/3x3
I0403 15:01:40.475050 30911 net.cpp:386] inception_4c/relu_3x3 -> inception_4c/3x3 (in-place)
I0403 15:01:40.475225 30911 net.cpp:141] Setting up inception_4c/relu_3x3
I0403 15:01:40.475250 30911 net.cpp:148] Top shape: 24 256 14 14 (1204224)
I0403 15:01:40.475263 30911 net.cpp:156] Memory required for data: 1047659808
I0403 15:01:40.475278 30911 layer_factory.hpp:77] Creating layer inception_4c/5x5_reduce
I0403 15:01:40.475299 30911 net.cpp:91] Creating Layer inception_4c/5x5_reduce
I0403 15:01:40.475317 30911 net.cpp:425] inception_4c/5x5_reduce <- inception_4b/output_inception_4b/output_0_split_2
I0403 15:01:40.475337 30911 net.cpp:399] inception_4c/5x5_reduce -> inception_4c/5x5_reduce
I0403 15:01:40.476388 30911 net.cpp:141] Setting up inception_4c/5x5_reduce
I0403 15:01:40.476415 30911 net.cpp:148] Top shape: 24 24 14 14 (112896)
I0403 15:01:40.476430 30911 net.cpp:156] Memory required for data: 1048111392
I0403 15:01:40.476449 30911 layer_factory.hpp:77] Creating layer inception_4c/relu_5x5_reduce
I0403 15:01:40.476470 30911 net.cpp:91] Creating Layer inception_4c/relu_5x5_reduce
I0403 15:01:40.476486 30911 net.cpp:425] inception_4c/relu_5x5_reduce <- inception_4c/5x5_reduce
I0403 15:01:40.476507 30911 net.cpp:386] inception_4c/relu_5x5_reduce -> inception_4c/5x5_reduce (in-place)
I0403 15:01:40.476686 30911 net.cpp:141] Setting up inception_4c/relu_5x5_reduce
I0403 15:01:40.476711 30911 net.cpp:148] Top shape: 24 24 14 14 (112896)
I0403 15:01:40.476727 30911 net.cpp:156] Memory required for data: 1048562976
I0403 15:01:40.476742 30911 layer_factory.hpp:77] Creating layer inception_4c/5x5
I0403 15:01:40.476761 30911 net.cpp:91] Creating Layer inception_4c/5x5
I0403 15:01:40.476778 30911 net.cpp:425] inception_4c/5x5 <- inception_4c/5x5_reduce
I0403 15:01:40.476797 30911 net.cpp:399] inception_4c/5x5 -> inception_4c/5x5
I0403 15:01:40.478014 30911 net.cpp:141] Setting up inception_4c/5x5
I0403 15:01:40.478040 30911 net.cpp:148] Top shape: 24 64 14 14 (301056)
I0403 15:01:40.478056 30911 net.cpp:156] Memory required for data: 1049767200
I0403 15:01:40.478073 30911 layer_factory.hpp:77] Creating layer inception_4c/relu_5x5
I0403 15:01:40.478093 30911 net.cpp:91] Creating Layer inception_4c/relu_5x5
I0403 15:01:40.478109 30911 net.cpp:425] inception_4c/relu_5x5 <- inception_4c/5x5
I0403 15:01:40.478127 30911 net.cpp:386] inception_4c/relu_5x5 -> inception_4c/5x5 (in-place)
I0403 15:01:40.478406 30911 net.cpp:141] Setting up inception_4c/relu_5x5
I0403 15:01:40.478431 30911 net.cpp:148] Top shape: 24 64 14 14 (301056)
I0403 15:01:40.478446 30911 net.cpp:156] Memory required for data: 1050971424
I0403 15:01:40.478461 30911 layer_factory.hpp:77] Creating layer inception_4c/pool
I0403 15:01:40.478480 30911 net.cpp:91] Creating Layer inception_4c/pool
I0403 15:01:40.478497 30911 net.cpp:425] inception_4c/pool <- inception_4b/output_inception_4b/output_0_split_3
I0403 15:01:40.478519 30911 net.cpp:399] inception_4c/pool -> inception_4c/pool
I0403 15:01:40.478585 30911 net.cpp:141] Setting up inception_4c/pool
I0403 15:01:40.478608 30911 net.cpp:148] Top shape: 24 512 14 14 (2408448)
I0403 15:01:40.478622 30911 net.cpp:156] Memory required for data: 1060605216
I0403 15:01:40.478636 30911 layer_factory.hpp:77] Creating layer inception_4c/pool_proj
I0403 15:01:40.478658 30911 net.cpp:91] Creating Layer inception_4c/pool_proj
I0403 15:01:40.478677 30911 net.cpp:425] inception_4c/pool_proj <- inception_4c/pool
I0403 15:01:40.478698 30911 net.cpp:399] inception_4c/pool_proj -> inception_4c/pool_proj
I0403 15:01:40.479887 30911 net.cpp:141] Setting up inception_4c/pool_proj
I0403 15:01:40.479913 30911 net.cpp:148] Top shape: 24 64 14 14 (301056)
I0403 15:01:40.479954 30911 net.cpp:156] Memory required for data: 1061809440
I0403 15:01:40.479974 30911 layer_factory.hpp:77] Creating layer inception_4c/relu_pool_proj
I0403 15:01:40.479995 30911 net.cpp:91] Creating Layer inception_4c/relu_pool_proj
I0403 15:01:40.480012 30911 net.cpp:425] inception_4c/relu_pool_proj <- inception_4c/pool_proj
I0403 15:01:40.480031 30911 net.cpp:386] inception_4c/relu_pool_proj -> inception_4c/pool_proj (in-place)
I0403 15:01:40.480209 30911 net.cpp:141] Setting up inception_4c/relu_pool_proj
I0403 15:01:40.480233 30911 net.cpp:148] Top shape: 24 64 14 14 (301056)
I0403 15:01:40.480262 30911 net.cpp:156] Memory required for data: 1063013664
I0403 15:01:40.480275 30911 layer_factory.hpp:77] Creating layer inception_4c/output
I0403 15:01:40.480295 30911 net.cpp:91] Creating Layer inception_4c/output
I0403 15:01:40.480311 30911 net.cpp:425] inception_4c/output <- inception_4c/1x1
I0403 15:01:40.480327 30911 net.cpp:425] inception_4c/output <- inception_4c/3x3
I0403 15:01:40.480342 30911 net.cpp:425] inception_4c/output <- inception_4c/5x5
I0403 15:01:40.480358 30911 net.cpp:425] inception_4c/output <- inception_4c/pool_proj
I0403 15:01:40.480376 30911 net.cpp:399] inception_4c/output -> inception_4c/output
I0403 15:01:40.480422 30911 net.cpp:141] Setting up inception_4c/output
I0403 15:01:40.480445 30911 net.cpp:148] Top shape: 24 512 14 14 (2408448)
I0403 15:01:40.480459 30911 net.cpp:156] Memory required for data: 1072647456
I0403 15:01:40.480473 30911 layer_factory.hpp:77] Creating layer inception_4c/output_inception_4c/output_0_split
I0403 15:01:40.480490 30911 net.cpp:91] Creating Layer inception_4c/output_inception_4c/output_0_split
I0403 15:01:40.480509 30911 net.cpp:425] inception_4c/output_inception_4c/output_0_split <- inception_4c/output
I0403 15:01:40.480530 30911 net.cpp:399] inception_4c/output_inception_4c/output_0_split -> inception_4c/output_inception_4c/output_0_split_0
I0403 15:01:40.480551 30911 net.cpp:399] inception_4c/output_inception_4c/output_0_split -> inception_4c/output_inception_4c/output_0_split_1
I0403 15:01:40.480571 30911 net.cpp:399] inception_4c/output_inception_4c/output_0_split -> inception_4c/output_inception_4c/output_0_split_2
I0403 15:01:40.480590 30911 net.cpp:399] inception_4c/output_inception_4c/output_0_split -> inception_4c/output_inception_4c/output_0_split_3
I0403 15:01:40.480674 30911 net.cpp:141] Setting up inception_4c/output_inception_4c/output_0_split
I0403 15:01:40.480698 30911 net.cpp:148] Top shape: 24 512 14 14 (2408448)
I0403 15:01:40.480715 30911 net.cpp:148] Top shape: 24 512 14 14 (2408448)
I0403 15:01:40.480731 30911 net.cpp:148] Top shape: 24 512 14 14 (2408448)
I0403 15:01:40.480746 30911 net.cpp:148] Top shape: 24 512 14 14 (2408448)
I0403 15:01:40.480758 30911 net.cpp:156] Memory required for data: 1111182624
I0403 15:01:40.480772 30911 layer_factory.hpp:77] Creating layer inception_4d/1x1
I0403 15:01:40.480794 30911 net.cpp:91] Creating Layer inception_4d/1x1
I0403 15:01:40.480810 30911 net.cpp:425] inception_4d/1x1 <- inception_4c/output_inception_4c/output_0_split_0
I0403 15:01:40.480830 30911 net.cpp:399] inception_4d/1x1 -> inception_4d/1x1
I0403 15:01:40.482178 30911 net.cpp:141] Setting up inception_4d/1x1
I0403 15:01:40.482208 30911 net.cpp:148] Top shape: 24 112 14 14 (526848)
I0403 15:01:40.482223 30911 net.cpp:156] Memory required for data: 1113290016
I0403 15:01:40.482241 30911 layer_factory.hpp:77] Creating layer inception_4d/relu_1x1
I0403 15:01:40.482259 30911 net.cpp:91] Creating Layer inception_4d/relu_1x1
I0403 15:01:40.482275 30911 net.cpp:425] inception_4d/relu_1x1 <- inception_4d/1x1
I0403 15:01:40.482293 30911 net.cpp:386] inception_4d/relu_1x1 -> inception_4d/1x1 (in-place)
I0403 15:01:40.482472 30911 net.cpp:141] Setting up inception_4d/relu_1x1
I0403 15:01:40.482496 30911 net.cpp:148] Top shape: 24 112 14 14 (526848)
I0403 15:01:40.482516 30911 net.cpp:156] Memory required for data: 1115397408
I0403 15:01:40.482530 30911 layer_factory.hpp:77] Creating layer inception_4d/3x3_reduce
I0403 15:01:40.482565 30911 net.cpp:91] Creating Layer inception_4d/3x3_reduce
I0403 15:01:40.482584 30911 net.cpp:425] inception_4d/3x3_reduce <- inception_4c/output_inception_4c/output_0_split_1
I0403 15:01:40.482604 30911 net.cpp:399] inception_4d/3x3_reduce -> inception_4d/3x3_reduce
I0403 15:01:40.484066 30911 net.cpp:141] Setting up inception_4d/3x3_reduce
I0403 15:01:40.484094 30911 net.cpp:148] Top shape: 24 144 14 14 (677376)
I0403 15:01:40.484110 30911 net.cpp:156] Memory required for data: 1118106912
I0403 15:01:40.484128 30911 layer_factory.hpp:77] Creating layer inception_4d/relu_3x3_reduce
I0403 15:01:40.484146 30911 net.cpp:91] Creating Layer inception_4d/relu_3x3_reduce
I0403 15:01:40.484163 30911 net.cpp:425] inception_4d/relu_3x3_reduce <- inception_4d/3x3_reduce
I0403 15:01:40.484179 30911 net.cpp:386] inception_4d/relu_3x3_reduce -> inception_4d/3x3_reduce (in-place)
I0403 15:01:40.484460 30911 net.cpp:141] Setting up inception_4d/relu_3x3_reduce
I0403 15:01:40.484496 30911 net.cpp:148] Top shape: 24 144 14 14 (677376)
I0403 15:01:40.484524 30911 net.cpp:156] Memory required for data: 1120816416
I0403 15:01:40.484539 30911 layer_factory.hpp:77] Creating layer inception_4d/3x3
I0403 15:01:40.484561 30911 net.cpp:91] Creating Layer inception_4d/3x3
I0403 15:01:40.484580 30911 net.cpp:425] inception_4d/3x3 <- inception_4d/3x3_reduce
I0403 15:01:40.484597 30911 net.cpp:399] inception_4d/3x3 -> inception_4d/3x3
I0403 15:01:40.488718 30911 net.cpp:141] Setting up inception_4d/3x3
I0403 15:01:40.488745 30911 net.cpp:148] Top shape: 24 288 14 14 (1354752)
I0403 15:01:40.488761 30911 net.cpp:156] Memory required for data: 1126235424
I0403 15:01:40.488780 30911 layer_factory.hpp:77] Creating layer inception_4d/relu_3x3
I0403 15:01:40.488796 30911 net.cpp:91] Creating Layer inception_4d/relu_3x3
I0403 15:01:40.488812 30911 net.cpp:425] inception_4d/relu_3x3 <- inception_4d/3x3
I0403 15:01:40.488831 30911 net.cpp:386] inception_4d/relu_3x3 -> inception_4d/3x3 (in-place)
I0403 15:01:40.489009 30911 net.cpp:141] Setting up inception_4d/relu_3x3
I0403 15:01:40.489033 30911 net.cpp:148] Top shape: 24 288 14 14 (1354752)
I0403 15:01:40.489048 30911 net.cpp:156] Memory required for data: 1131654432
I0403 15:01:40.489063 30911 layer_factory.hpp:77] Creating layer inception_4d/5x5_reduce
I0403 15:01:40.489084 30911 net.cpp:91] Creating Layer inception_4d/5x5_reduce
I0403 15:01:40.489101 30911 net.cpp:425] inception_4d/5x5_reduce <- inception_4c/output_inception_4c/output_0_split_2
I0403 15:01:40.489122 30911 net.cpp:399] inception_4d/5x5_reduce -> inception_4d/5x5_reduce
I0403 15:01:40.490234 30911 net.cpp:141] Setting up inception_4d/5x5_reduce
I0403 15:01:40.490264 30911 net.cpp:148] Top shape: 24 32 14 14 (150528)
I0403 15:01:40.490281 30911 net.cpp:156] Memory required for data: 1132256544
I0403 15:01:40.490299 30911 layer_factory.hpp:77] Creating layer inception_4d/relu_5x5_reduce
I0403 15:01:40.490317 30911 net.cpp:91] Creating Layer inception_4d/relu_5x5_reduce
I0403 15:01:40.490334 30911 net.cpp:425] inception_4d/relu_5x5_reduce <- inception_4d/5x5_reduce
I0403 15:01:40.490353 30911 net.cpp:386] inception_4d/relu_5x5_reduce -> inception_4d/5x5_reduce (in-place)
I0403 15:01:40.490540 30911 net.cpp:141] Setting up inception_4d/relu_5x5_reduce
I0403 15:01:40.490564 30911 net.cpp:148] Top shape: 24 32 14 14 (150528)
I0403 15:01:40.490579 30911 net.cpp:156] Memory required for data: 1132858656
I0403 15:01:40.490594 30911 layer_factory.hpp:77] Creating layer inception_4d/5x5
I0403 15:01:40.490615 30911 net.cpp:91] Creating Layer inception_4d/5x5
I0403 15:01:40.490633 30911 net.cpp:425] inception_4d/5x5 <- inception_4d/5x5_reduce
I0403 15:01:40.490654 30911 net.cpp:399] inception_4d/5x5 -> inception_4d/5x5
I0403 15:01:40.492079 30911 net.cpp:141] Setting up inception_4d/5x5
I0403 15:01:40.492105 30911 net.cpp:148] Top shape: 24 64 14 14 (301056)
I0403 15:01:40.492120 30911 net.cpp:156] Memory required for data: 1134062880
I0403 15:01:40.492139 30911 layer_factory.hpp:77] Creating layer inception_4d/relu_5x5
I0403 15:01:40.492174 30911 net.cpp:91] Creating Layer inception_4d/relu_5x5
I0403 15:01:40.492192 30911 net.cpp:425] inception_4d/relu_5x5 <- inception_4d/5x5
I0403 15:01:40.492214 30911 net.cpp:386] inception_4d/relu_5x5 -> inception_4d/5x5 (in-place)
I0403 15:01:40.492509 30911 net.cpp:141] Setting up inception_4d/relu_5x5
I0403 15:01:40.492535 30911 net.cpp:148] Top shape: 24 64 14 14 (301056)
I0403 15:01:40.492549 30911 net.cpp:156] Memory required for data: 1135267104
I0403 15:01:40.492564 30911 layer_factory.hpp:77] Creating layer inception_4d/pool
I0403 15:01:40.492585 30911 net.cpp:91] Creating Layer inception_4d/pool
I0403 15:01:40.492602 30911 net.cpp:425] inception_4d/pool <- inception_4c/output_inception_4c/output_0_split_3
I0403 15:01:40.492619 30911 net.cpp:399] inception_4d/pool -> inception_4d/pool
I0403 15:01:40.492684 30911 net.cpp:141] Setting up inception_4d/pool
I0403 15:01:40.492707 30911 net.cpp:148] Top shape: 24 512 14 14 (2408448)
I0403 15:01:40.492722 30911 net.cpp:156] Memory required for data: 1144900896
I0403 15:01:40.492735 30911 layer_factory.hpp:77] Creating layer inception_4d/pool_proj
I0403 15:01:40.492758 30911 net.cpp:91] Creating Layer inception_4d/pool_proj
I0403 15:01:40.492774 30911 net.cpp:425] inception_4d/pool_proj <- inception_4d/pool
I0403 15:01:40.492796 30911 net.cpp:399] inception_4d/pool_proj -> inception_4d/pool_proj
I0403 15:01:40.494500 30911 net.cpp:141] Setting up inception_4d/pool_proj
I0403 15:01:40.494539 30911 net.cpp:148] Top shape: 24 64 14 14 (301056)
I0403 15:01:40.494554 30911 net.cpp:156] Memory required for data: 1146105120
I0403 15:01:40.494573 30911 layer_factory.hpp:77] Creating layer inception_4d/relu_pool_proj
I0403 15:01:40.494591 30911 net.cpp:91] Creating Layer inception_4d/relu_pool_proj
I0403 15:01:40.494607 30911 net.cpp:425] inception_4d/relu_pool_proj <- inception_4d/pool_proj
I0403 15:01:40.494626 30911 net.cpp:386] inception_4d/relu_pool_proj -> inception_4d/pool_proj (in-place)
I0403 15:01:40.494806 30911 net.cpp:141] Setting up inception_4d/relu_pool_proj
I0403 15:01:40.494829 30911 net.cpp:148] Top shape: 24 64 14 14 (301056)
I0403 15:01:40.494843 30911 net.cpp:156] Memory required for data: 1147309344
I0403 15:01:40.494858 30911 layer_factory.hpp:77] Creating layer inception_4d/output
I0403 15:01:40.494876 30911 net.cpp:91] Creating Layer inception_4d/output
I0403 15:01:40.494892 30911 net.cpp:425] inception_4d/output <- inception_4d/1x1
I0403 15:01:40.494909 30911 net.cpp:425] inception_4d/output <- inception_4d/3x3
I0403 15:01:40.494925 30911 net.cpp:425] inception_4d/output <- inception_4d/5x5
I0403 15:01:40.494940 30911 net.cpp:425] inception_4d/output <- inception_4d/pool_proj
I0403 15:01:40.494957 30911 net.cpp:399] inception_4d/output -> inception_4d/output
I0403 15:01:40.495002 30911 net.cpp:141] Setting up inception_4d/output
I0403 15:01:40.495026 30911 net.cpp:148] Top shape: 24 528 14 14 (2483712)
I0403 15:01:40.495041 30911 net.cpp:156] Memory required for data: 1157244192
I0403 15:01:40.495056 30911 layer_factory.hpp:77] Creating layer inception_4d/output_inception_4d/output_0_split
I0403 15:01:40.495074 30911 net.cpp:91] Creating Layer inception_4d/output_inception_4d/output_0_split
I0403 15:01:40.495088 30911 net.cpp:425] inception_4d/output_inception_4d/output_0_split <- inception_4d/output
I0403 15:01:40.495107 30911 net.cpp:399] inception_4d/output_inception_4d/output_0_split -> inception_4d/output_inception_4d/output_0_split_0
I0403 15:01:40.495128 30911 net.cpp:399] inception_4d/output_inception_4d/output_0_split -> inception_4d/output_inception_4d/output_0_split_1
I0403 15:01:40.495149 30911 net.cpp:399] inception_4d/output_inception_4d/output_0_split -> inception_4d/output_inception_4d/output_0_split_2
I0403 15:01:40.495169 30911 net.cpp:399] inception_4d/output_inception_4d/output_0_split -> inception_4d/output_inception_4d/output_0_split_3
I0403 15:01:40.495188 30911 net.cpp:399] inception_4d/output_inception_4d/output_0_split -> inception_4d/output_inception_4d/output_0_split_4
I0403 15:01:40.495307 30911 net.cpp:141] Setting up inception_4d/output_inception_4d/output_0_split
I0403 15:01:40.495343 30911 net.cpp:148] Top shape: 24 528 14 14 (2483712)
I0403 15:01:40.495362 30911 net.cpp:148] Top shape: 24 528 14 14 (2483712)
I0403 15:01:40.495390 30911 net.cpp:148] Top shape: 24 528 14 14 (2483712)
I0403 15:01:40.495419 30911 net.cpp:148] Top shape: 24 528 14 14 (2483712)
I0403 15:01:40.495434 30911 net.cpp:148] Top shape: 24 528 14 14 (2483712)
I0403 15:01:40.495450 30911 net.cpp:156] Memory required for data: 1206918432
I0403 15:01:40.495507 30911 layer_factory.hpp:77] Creating layer loss2/ave_pool
I0403 15:01:40.495527 30911 net.cpp:91] Creating Layer loss2/ave_pool
I0403 15:01:40.495566 30911 net.cpp:425] loss2/ave_pool <- inception_4d/output_inception_4d/output_0_split_0
I0403 15:01:40.495587 30911 net.cpp:399] loss2/ave_pool -> loss2/ave_pool
I0403 15:01:40.495903 30911 net.cpp:141] Setting up loss2/ave_pool
I0403 15:01:40.495954 30911 net.cpp:148] Top shape: 24 528 4 4 (202752)
I0403 15:01:40.496000 30911 net.cpp:156] Memory required for data: 1207729440
I0403 15:01:40.496049 30911 layer_factory.hpp:77] Creating layer loss2/conv
I0403 15:01:40.496073 30911 net.cpp:91] Creating Layer loss2/conv
I0403 15:01:40.496090 30911 net.cpp:425] loss2/conv <- loss2/ave_pool
I0403 15:01:40.496110 30911 net.cpp:399] loss2/conv -> loss2/conv
I0403 15:01:40.497956 30911 net.cpp:141] Setting up loss2/conv
I0403 15:01:40.497984 30911 net.cpp:148] Top shape: 24 128 4 4 (49152)
I0403 15:01:40.498000 30911 net.cpp:156] Memory required for data: 1207926048
I0403 15:01:40.498019 30911 layer_factory.hpp:77] Creating layer loss2/relu_conv
I0403 15:01:40.498039 30911 net.cpp:91] Creating Layer loss2/relu_conv
I0403 15:01:40.498055 30911 net.cpp:425] loss2/relu_conv <- loss2/conv
I0403 15:01:40.498073 30911 net.cpp:386] loss2/relu_conv -> loss2/conv (in-place)
I0403 15:01:40.498358 30911 net.cpp:141] Setting up loss2/relu_conv
I0403 15:01:40.498383 30911 net.cpp:148] Top shape: 24 128 4 4 (49152)
I0403 15:01:40.498396 30911 net.cpp:156] Memory required for data: 1208122656
I0403 15:01:40.498411 30911 layer_factory.hpp:77] Creating layer loss2/fc
I0403 15:01:40.498436 30911 net.cpp:91] Creating Layer loss2/fc
I0403 15:01:40.498453 30911 net.cpp:425] loss2/fc <- loss2/conv
I0403 15:01:40.498471 30911 net.cpp:399] loss2/fc -> loss2/fc
I0403 15:01:40.515641 30911 net.cpp:141] Setting up loss2/fc
I0403 15:01:40.515676 30911 net.cpp:148] Top shape: 24 1024 (24576)
I0403 15:01:40.515692 30911 net.cpp:156] Memory required for data: 1208220960
I0403 15:01:40.515712 30911 layer_factory.hpp:77] Creating layer loss2/relu_fc
I0403 15:01:40.515732 30911 net.cpp:91] Creating Layer loss2/relu_fc
I0403 15:01:40.515750 30911 net.cpp:425] loss2/relu_fc <- loss2/fc
I0403 15:01:40.515770 30911 net.cpp:386] loss2/relu_fc -> loss2/fc (in-place)
I0403 15:01:40.516063 30911 net.cpp:141] Setting up loss2/relu_fc
I0403 15:01:40.516088 30911 net.cpp:148] Top shape: 24 1024 (24576)
I0403 15:01:40.516103 30911 net.cpp:156] Memory required for data: 1208319264
I0403 15:01:40.516119 30911 layer_factory.hpp:77] Creating layer loss2/drop_fc
I0403 15:01:40.516135 30911 net.cpp:91] Creating Layer loss2/drop_fc
I0403 15:01:40.516150 30911 net.cpp:425] loss2/drop_fc <- loss2/fc
I0403 15:01:40.516170 30911 net.cpp:386] loss2/drop_fc -> loss2/fc (in-place)
I0403 15:01:40.516217 30911 net.cpp:141] Setting up loss2/drop_fc
I0403 15:01:40.516243 30911 net.cpp:148] Top shape: 24 1024 (24576)
I0403 15:01:40.516258 30911 net.cpp:156] Memory required for data: 1208417568
I0403 15:01:40.516273 30911 layer_factory.hpp:77] Creating layer loss2/classifier_plantvillage
I0403 15:01:40.516290 30911 net.cpp:91] Creating Layer loss2/classifier_plantvillage
I0403 15:01:40.516305 30911 net.cpp:425] loss2/classifier_plantvillage <- loss2/fc
I0403 15:01:40.516325 30911 net.cpp:399] loss2/classifier_plantvillage -> loss2/classifier_plantvillage
I0403 15:01:40.516718 30911 net.cpp:141] Setting up loss2/classifier_plantvillage
I0403 15:01:40.516746 30911 net.cpp:148] Top shape: 24 38 (912)
I0403 15:01:40.516775 30911 net.cpp:156] Memory required for data: 1208421216
I0403 15:01:40.516794 30911 layer_factory.hpp:77] Creating layer loss2/classifier_plantvillage_loss2/classifier_plantvillage_0_split
I0403 15:01:40.516813 30911 net.cpp:91] Creating Layer loss2/classifier_plantvillage_loss2/classifier_plantvillage_0_split
I0403 15:01:40.516827 30911 net.cpp:425] loss2/classifier_plantvillage_loss2/classifier_plantvillage_0_split <- loss2/classifier_plantvillage
I0403 15:01:40.516845 30911 net.cpp:399] loss2/classifier_plantvillage_loss2/classifier_plantvillage_0_split -> loss2/classifier_plantvillage_loss2/classifier_plantvillage_0_split_0
I0403 15:01:40.516865 30911 net.cpp:399] loss2/classifier_plantvillage_loss2/classifier_plantvillage_0_split -> loss2/classifier_plantvillage_loss2/classifier_plantvillage_0_split_1
I0403 15:01:40.516888 30911 net.cpp:399] loss2/classifier_plantvillage_loss2/classifier_plantvillage_0_split -> loss2/classifier_plantvillage_loss2/classifier_plantvillage_0_split_2
I0403 15:01:40.516963 30911 net.cpp:141] Setting up loss2/classifier_plantvillage_loss2/classifier_plantvillage_0_split
I0403 15:01:40.516985 30911 net.cpp:148] Top shape: 24 38 (912)
I0403 15:01:40.517001 30911 net.cpp:148] Top shape: 24 38 (912)
I0403 15:01:40.517016 30911 net.cpp:148] Top shape: 24 38 (912)
I0403 15:01:40.517030 30911 net.cpp:156] Memory required for data: 1208432160
I0403 15:01:40.517045 30911 layer_factory.hpp:77] Creating layer inception_4e/1x1
I0403 15:01:40.517063 30911 net.cpp:91] Creating Layer inception_4e/1x1
I0403 15:01:40.517086 30911 net.cpp:425] inception_4e/1x1 <- inception_4d/output_inception_4d/output_0_split_1
I0403 15:01:40.517105 30911 net.cpp:399] inception_4e/1x1 -> inception_4e/1x1
I0403 15:01:40.518870 30911 net.cpp:141] Setting up inception_4e/1x1
I0403 15:01:40.518898 30911 net.cpp:148] Top shape: 24 256 14 14 (1204224)
I0403 15:01:40.518913 30911 net.cpp:156] Memory required for data: 1213249056
I0403 15:01:40.518931 30911 layer_factory.hpp:77] Creating layer inception_4e/relu_1x1
I0403 15:01:40.518951 30911 net.cpp:91] Creating Layer inception_4e/relu_1x1
I0403 15:01:40.518967 30911 net.cpp:425] inception_4e/relu_1x1 <- inception_4e/1x1
I0403 15:01:40.518985 30911 net.cpp:386] inception_4e/relu_1x1 -> inception_4e/1x1 (in-place)
I0403 15:01:40.519269 30911 net.cpp:141] Setting up inception_4e/relu_1x1
I0403 15:01:40.519294 30911 net.cpp:148] Top shape: 24 256 14 14 (1204224)
I0403 15:01:40.519309 30911 net.cpp:156] Memory required for data: 1218065952
I0403 15:01:40.519325 30911 layer_factory.hpp:77] Creating layer inception_4e/3x3_reduce
I0403 15:01:40.519350 30911 net.cpp:91] Creating Layer inception_4e/3x3_reduce
I0403 15:01:40.519367 30911 net.cpp:425] inception_4e/3x3_reduce <- inception_4d/output_inception_4d/output_0_split_2
I0403 15:01:40.519387 30911 net.cpp:399] inception_4e/3x3_reduce -> inception_4e/3x3_reduce
I0403 15:01:40.521438 30911 net.cpp:141] Setting up inception_4e/3x3_reduce
I0403 15:01:40.521466 30911 net.cpp:148] Top shape: 24 160 14 14 (752640)
I0403 15:01:40.521551 30911 net.cpp:156] Memory required for data: 1221076512
I0403 15:01:40.521579 30911 layer_factory.hpp:77] Creating layer inception_4e/relu_3x3_reduce
I0403 15:01:40.521600 30911 net.cpp:91] Creating Layer inception_4e/relu_3x3_reduce
I0403 15:01:40.521616 30911 net.cpp:425] inception_4e/relu_3x3_reduce <- inception_4e/3x3_reduce
I0403 15:01:40.521633 30911 net.cpp:386] inception_4e/relu_3x3_reduce -> inception_4e/3x3_reduce (in-place)
I0403 15:01:40.521814 30911 net.cpp:141] Setting up inception_4e/relu_3x3_reduce
I0403 15:01:40.521838 30911 net.cpp:148] Top shape: 24 160 14 14 (752640)
I0403 15:01:40.521852 30911 net.cpp:156] Memory required for data: 1224087072
I0403 15:01:40.521867 30911 layer_factory.hpp:77] Creating layer inception_4e/3x3
I0403 15:01:40.521890 30911 net.cpp:91] Creating Layer inception_4e/3x3
I0403 15:01:40.521906 30911 net.cpp:425] inception_4e/3x3 <- inception_4e/3x3_reduce
I0403 15:01:40.521925 30911 net.cpp:399] inception_4e/3x3 -> inception_4e/3x3
I0403 15:01:40.526803 30911 net.cpp:141] Setting up inception_4e/3x3
I0403 15:01:40.526844 30911 net.cpp:148] Top shape: 24 320 14 14 (1505280)
I0403 15:01:40.526861 30911 net.cpp:156] Memory required for data: 1230108192
I0403 15:01:40.526880 30911 layer_factory.hpp:77] Creating layer inception_4e/relu_3x3
I0403 15:01:40.526898 30911 net.cpp:91] Creating Layer inception_4e/relu_3x3
I0403 15:01:40.526913 30911 net.cpp:425] inception_4e/relu_3x3 <- inception_4e/3x3
I0403 15:01:40.526932 30911 net.cpp:386] inception_4e/relu_3x3 -> inception_4e/3x3 (in-place)
I0403 15:01:40.527228 30911 net.cpp:141] Setting up inception_4e/relu_3x3
I0403 15:01:40.527256 30911 net.cpp:148] Top shape: 24 320 14 14 (1505280)
I0403 15:01:40.527271 30911 net.cpp:156] Memory required for data: 1236129312
I0403 15:01:40.527287 30911 layer_factory.hpp:77] Creating layer inception_4e/5x5_reduce
I0403 15:01:40.527310 30911 net.cpp:91] Creating Layer inception_4e/5x5_reduce
I0403 15:01:40.527328 30911 net.cpp:425] inception_4e/5x5_reduce <- inception_4d/output_inception_4d/output_0_split_3
I0403 15:01:40.527345 30911 net.cpp:399] inception_4e/5x5_reduce -> inception_4e/5x5_reduce
I0403 15:01:40.528385 30911 net.cpp:141] Setting up inception_4e/5x5_reduce
I0403 15:01:40.528414 30911 net.cpp:148] Top shape: 24 32 14 14 (150528)
I0403 15:01:40.528429 30911 net.cpp:156] Memory required for data: 1236731424
I0403 15:01:40.528447 30911 layer_factory.hpp:77] Creating layer inception_4e/relu_5x5_reduce
I0403 15:01:40.528466 30911 net.cpp:91] Creating Layer inception_4e/relu_5x5_reduce
I0403 15:01:40.528482 30911 net.cpp:425] inception_4e/relu_5x5_reduce <- inception_4e/5x5_reduce
I0403 15:01:40.528499 30911 net.cpp:386] inception_4e/relu_5x5_reduce -> inception_4e/5x5_reduce (in-place)
I0403 15:01:40.528815 30911 net.cpp:141] Setting up inception_4e/relu_5x5_reduce
I0403 15:01:40.528841 30911 net.cpp:148] Top shape: 24 32 14 14 (150528)
I0403 15:01:40.528854 30911 net.cpp:156] Memory required for data: 1237333536
I0403 15:01:40.528869 30911 layer_factory.hpp:77] Creating layer inception_4e/5x5
I0403 15:01:40.528905 30911 net.cpp:91] Creating Layer inception_4e/5x5
I0403 15:01:40.528923 30911 net.cpp:425] inception_4e/5x5 <- inception_4e/5x5_reduce
I0403 15:01:40.528944 30911 net.cpp:399] inception_4e/5x5 -> inception_4e/5x5
I0403 15:01:40.530737 30911 net.cpp:141] Setting up inception_4e/5x5
I0403 15:01:40.530764 30911 net.cpp:148] Top shape: 24 128 14 14 (602112)
I0403 15:01:40.530779 30911 net.cpp:156] Memory required for data: 1239741984
I0403 15:01:40.530797 30911 layer_factory.hpp:77] Creating layer inception_4e/relu_5x5
I0403 15:01:40.530815 30911 net.cpp:91] Creating Layer inception_4e/relu_5x5
I0403 15:01:40.530832 30911 net.cpp:425] inception_4e/relu_5x5 <- inception_4e/5x5
I0403 15:01:40.530849 30911 net.cpp:386] inception_4e/relu_5x5 -> inception_4e/5x5 (in-place)
I0403 15:01:40.531039 30911 net.cpp:141] Setting up inception_4e/relu_5x5
I0403 15:01:40.531064 30911 net.cpp:148] Top shape: 24 128 14 14 (602112)
I0403 15:01:40.531078 30911 net.cpp:156] Memory required for data: 1242150432
I0403 15:01:40.531092 30911 layer_factory.hpp:77] Creating layer inception_4e/pool
I0403 15:01:40.531112 30911 net.cpp:91] Creating Layer inception_4e/pool
I0403 15:01:40.531129 30911 net.cpp:425] inception_4e/pool <- inception_4d/output_inception_4d/output_0_split_4
I0403 15:01:40.531147 30911 net.cpp:399] inception_4e/pool -> inception_4e/pool
I0403 15:01:40.531215 30911 net.cpp:141] Setting up inception_4e/pool
I0403 15:01:40.531239 30911 net.cpp:148] Top shape: 24 528 14 14 (2483712)
I0403 15:01:40.531254 30911 net.cpp:156] Memory required for data: 1252085280
I0403 15:01:40.531268 30911 layer_factory.hpp:77] Creating layer inception_4e/pool_proj
I0403 15:01:40.531289 30911 net.cpp:91] Creating Layer inception_4e/pool_proj
I0403 15:01:40.531306 30911 net.cpp:425] inception_4e/pool_proj <- inception_4e/pool
I0403 15:01:40.531327 30911 net.cpp:399] inception_4e/pool_proj -> inception_4e/pool_proj
I0403 15:01:40.532785 30911 net.cpp:141] Setting up inception_4e/pool_proj
I0403 15:01:40.532822 30911 net.cpp:148] Top shape: 24 128 14 14 (602112)
I0403 15:01:40.532838 30911 net.cpp:156] Memory required for data: 1254493728
I0403 15:01:40.532856 30911 layer_factory.hpp:77] Creating layer inception_4e/relu_pool_proj
I0403 15:01:40.532874 30911 net.cpp:91] Creating Layer inception_4e/relu_pool_proj
I0403 15:01:40.532889 30911 net.cpp:425] inception_4e/relu_pool_proj <- inception_4e/pool_proj
I0403 15:01:40.532908 30911 net.cpp:386] inception_4e/relu_pool_proj -> inception_4e/pool_proj (in-place)
I0403 15:01:40.533193 30911 net.cpp:141] Setting up inception_4e/relu_pool_proj
I0403 15:01:40.533218 30911 net.cpp:148] Top shape: 24 128 14 14 (602112)
I0403 15:01:40.533233 30911 net.cpp:156] Memory required for data: 1256902176
I0403 15:01:40.533247 30911 layer_factory.hpp:77] Creating layer inception_4e/output
I0403 15:01:40.533265 30911 net.cpp:91] Creating Layer inception_4e/output
I0403 15:01:40.533280 30911 net.cpp:425] inception_4e/output <- inception_4e/1x1
I0403 15:01:40.533298 30911 net.cpp:425] inception_4e/output <- inception_4e/3x3
I0403 15:01:40.533313 30911 net.cpp:425] inception_4e/output <- inception_4e/5x5
I0403 15:01:40.533329 30911 net.cpp:425] inception_4e/output <- inception_4e/pool_proj
I0403 15:01:40.533347 30911 net.cpp:399] inception_4e/output -> inception_4e/output
I0403 15:01:40.533397 30911 net.cpp:141] Setting up inception_4e/output
I0403 15:01:40.533422 30911 net.cpp:148] Top shape: 24 832 14 14 (3913728)
I0403 15:01:40.533438 30911 net.cpp:156] Memory required for data: 1272557088
I0403 15:01:40.533453 30911 layer_factory.hpp:77] Creating layer pool4/3x3_s2
I0403 15:01:40.533470 30911 net.cpp:91] Creating Layer pool4/3x3_s2
I0403 15:01:40.533485 30911 net.cpp:425] pool4/3x3_s2 <- inception_4e/output
I0403 15:01:40.533507 30911 net.cpp:399] pool4/3x3_s2 -> pool4/3x3_s2
I0403 15:01:40.533574 30911 net.cpp:141] Setting up pool4/3x3_s2
I0403 15:01:40.533598 30911 net.cpp:148] Top shape: 24 832 7 7 (978432)
I0403 15:01:40.533612 30911 net.cpp:156] Memory required for data: 1276470816
I0403 15:01:40.533627 30911 layer_factory.hpp:77] Creating layer pool4/3x3_s2_pool4/3x3_s2_0_split
I0403 15:01:40.533643 30911 net.cpp:91] Creating Layer pool4/3x3_s2_pool4/3x3_s2_0_split
I0403 15:01:40.533658 30911 net.cpp:425] pool4/3x3_s2_pool4/3x3_s2_0_split <- pool4/3x3_s2
I0403 15:01:40.533677 30911 net.cpp:399] pool4/3x3_s2_pool4/3x3_s2_0_split -> pool4/3x3_s2_pool4/3x3_s2_0_split_0
I0403 15:01:40.533699 30911 net.cpp:399] pool4/3x3_s2_pool4/3x3_s2_0_split -> pool4/3x3_s2_pool4/3x3_s2_0_split_1
I0403 15:01:40.533718 30911 net.cpp:399] pool4/3x3_s2_pool4/3x3_s2_0_split -> pool4/3x3_s2_pool4/3x3_s2_0_split_2
I0403 15:01:40.533740 30911 net.cpp:399] pool4/3x3_s2_pool4/3x3_s2_0_split -> pool4/3x3_s2_pool4/3x3_s2_0_split_3
I0403 15:01:40.533828 30911 net.cpp:141] Setting up pool4/3x3_s2_pool4/3x3_s2_0_split
I0403 15:01:40.533850 30911 net.cpp:148] Top shape: 24 832 7 7 (978432)
I0403 15:01:40.533865 30911 net.cpp:148] Top shape: 24 832 7 7 (978432)
I0403 15:01:40.533880 30911 net.cpp:148] Top shape: 24 832 7 7 (978432)
I0403 15:01:40.533896 30911 net.cpp:148] Top shape: 24 832 7 7 (978432)
I0403 15:01:40.533910 30911 net.cpp:156] Memory required for data: 1292125728
I0403 15:01:40.533923 30911 layer_factory.hpp:77] Creating layer inception_5a/1x1
I0403 15:01:40.533946 30911 net.cpp:91] Creating Layer inception_5a/1x1
I0403 15:01:40.533963 30911 net.cpp:425] inception_5a/1x1 <- pool4/3x3_s2_pool4/3x3_s2_0_split_0
I0403 15:01:40.533983 30911 net.cpp:399] inception_5a/1x1 -> inception_5a/1x1
I0403 15:01:40.536766 30911 net.cpp:141] Setting up inception_5a/1x1
I0403 15:01:40.536792 30911 net.cpp:148] Top shape: 24 256 7 7 (301056)
I0403 15:01:40.536808 30911 net.cpp:156] Memory required for data: 1293329952
I0403 15:01:40.536826 30911 layer_factory.hpp:77] Creating layer inception_5a/relu_1x1
I0403 15:01:40.536846 30911 net.cpp:91] Creating Layer inception_5a/relu_1x1
I0403 15:01:40.536864 30911 net.cpp:425] inception_5a/relu_1x1 <- inception_5a/1x1
I0403 15:01:40.536880 30911 net.cpp:386] inception_5a/relu_1x1 -> inception_5a/1x1 (in-place)
I0403 15:01:40.537184 30911 net.cpp:141] Setting up inception_5a/relu_1x1
I0403 15:01:40.537210 30911 net.cpp:148] Top shape: 24 256 7 7 (301056)
I0403 15:01:40.537225 30911 net.cpp:156] Memory required for data: 1294534176
I0403 15:01:40.537246 30911 layer_factory.hpp:77] Creating layer inception_5a/3x3_reduce
I0403 15:01:40.537269 30911 net.cpp:91] Creating Layer inception_5a/3x3_reduce
I0403 15:01:40.537286 30911 net.cpp:425] inception_5a/3x3_reduce <- pool4/3x3_s2_pool4/3x3_s2_0_split_1
I0403 15:01:40.537308 30911 net.cpp:399] inception_5a/3x3_reduce -> inception_5a/3x3_reduce
I0403 15:01:40.539696 30911 net.cpp:141] Setting up inception_5a/3x3_reduce
I0403 15:01:40.539726 30911 net.cpp:148] Top shape: 24 160 7 7 (188160)
I0403 15:01:40.539742 30911 net.cpp:156] Memory required for data: 1295286816
I0403 15:01:40.539760 30911 layer_factory.hpp:77] Creating layer inception_5a/relu_3x3_reduce
I0403 15:01:40.539778 30911 net.cpp:91] Creating Layer inception_5a/relu_3x3_reduce
I0403 15:01:40.539794 30911 net.cpp:425] inception_5a/relu_3x3_reduce <- inception_5a/3x3_reduce
I0403 15:01:40.539814 30911 net.cpp:386] inception_5a/relu_3x3_reduce -> inception_5a/3x3_reduce (in-place)
I0403 15:01:40.539996 30911 net.cpp:141] Setting up inception_5a/relu_3x3_reduce
I0403 15:01:40.540020 30911 net.cpp:148] Top shape: 24 160 7 7 (188160)
I0403 15:01:40.540035 30911 net.cpp:156] Memory required for data: 1296039456
I0403 15:01:40.540050 30911 layer_factory.hpp:77] Creating layer inception_5a/3x3
I0403 15:01:40.540071 30911 net.cpp:91] Creating Layer inception_5a/3x3
I0403 15:01:40.540088 30911 net.cpp:425] inception_5a/3x3 <- inception_5a/3x3_reduce
I0403 15:01:40.540108 30911 net.cpp:399] inception_5a/3x3 -> inception_5a/3x3
I0403 15:01:40.545039 30911 net.cpp:141] Setting up inception_5a/3x3
I0403 15:01:40.545068 30911 net.cpp:148] Top shape: 24 320 7 7 (376320)
I0403 15:01:40.545084 30911 net.cpp:156] Memory required for data: 1297544736
I0403 15:01:40.545101 30911 layer_factory.hpp:77] Creating layer inception_5a/relu_3x3
I0403 15:01:40.545121 30911 net.cpp:91] Creating Layer inception_5a/relu_3x3
I0403 15:01:40.545138 30911 net.cpp:425] inception_5a/relu_3x3 <- inception_5a/3x3
I0403 15:01:40.545156 30911 net.cpp:386] inception_5a/relu_3x3 -> inception_5a/3x3 (in-place)
I0403 15:01:40.545440 30911 net.cpp:141] Setting up inception_5a/relu_3x3
I0403 15:01:40.545465 30911 net.cpp:148] Top shape: 24 320 7 7 (376320)
I0403 15:01:40.545480 30911 net.cpp:156] Memory required for data: 1299050016
I0403 15:01:40.545495 30911 layer_factory.hpp:77] Creating layer inception_5a/5x5_reduce
I0403 15:01:40.545521 30911 net.cpp:91] Creating Layer inception_5a/5x5_reduce
I0403 15:01:40.545541 30911 net.cpp:425] inception_5a/5x5_reduce <- pool4/3x3_s2_pool4/3x3_s2_0_split_2
I0403 15:01:40.545562 30911 net.cpp:399] inception_5a/5x5_reduce -> inception_5a/5x5_reduce
I0403 15:01:40.546697 30911 net.cpp:141] Setting up inception_5a/5x5_reduce
I0403 15:01:40.546728 30911 net.cpp:148] Top shape: 24 32 7 7 (37632)
I0403 15:01:40.546744 30911 net.cpp:156] Memory required for data: 1299200544
I0403 15:01:40.546762 30911 layer_factory.hpp:77] Creating layer inception_5a/relu_5x5_reduce
I0403 15:01:40.546780 30911 net.cpp:91] Creating Layer inception_5a/relu_5x5_reduce
I0403 15:01:40.546797 30911 net.cpp:425] inception_5a/relu_5x5_reduce <- inception_5a/5x5_reduce
I0403 15:01:40.546813 30911 net.cpp:386] inception_5a/relu_5x5_reduce -> inception_5a/5x5_reduce (in-place)
I0403 15:01:40.547102 30911 net.cpp:141] Setting up inception_5a/relu_5x5_reduce
I0403 15:01:40.547127 30911 net.cpp:148] Top shape: 24 32 7 7 (37632)
I0403 15:01:40.547142 30911 net.cpp:156] Memory required for data: 1299351072
I0403 15:01:40.547158 30911 layer_factory.hpp:77] Creating layer inception_5a/5x5
I0403 15:01:40.547179 30911 net.cpp:91] Creating Layer inception_5a/5x5
I0403 15:01:40.547196 30911 net.cpp:425] inception_5a/5x5 <- inception_5a/5x5_reduce
I0403 15:01:40.547217 30911 net.cpp:399] inception_5a/5x5 -> inception_5a/5x5
I0403 15:01:40.548902 30911 net.cpp:141] Setting up inception_5a/5x5
I0403 15:01:40.548941 30911 net.cpp:148] Top shape: 24 128 7 7 (150528)
I0403 15:01:40.548959 30911 net.cpp:156] Memory required for data: 1299953184
I0403 15:01:40.548976 30911 layer_factory.hpp:77] Creating layer inception_5a/relu_5x5
I0403 15:01:40.548995 30911 net.cpp:91] Creating Layer inception_5a/relu_5x5
I0403 15:01:40.549010 30911 net.cpp:425] inception_5a/relu_5x5 <- inception_5a/5x5
I0403 15:01:40.549029 30911 net.cpp:386] inception_5a/relu_5x5 -> inception_5a/5x5 (in-place)
I0403 15:01:40.549213 30911 net.cpp:141] Setting up inception_5a/relu_5x5
I0403 15:01:40.549237 30911 net.cpp:148] Top shape: 24 128 7 7 (150528)
I0403 15:01:40.549252 30911 net.cpp:156] Memory required for data: 1300555296
I0403 15:01:40.549265 30911 layer_factory.hpp:77] Creating layer inception_5a/pool
I0403 15:01:40.549285 30911 net.cpp:91] Creating Layer inception_5a/pool
I0403 15:01:40.549301 30911 net.cpp:425] inception_5a/pool <- pool4/3x3_s2_pool4/3x3_s2_0_split_3
I0403 15:01:40.549319 30911 net.cpp:399] inception_5a/pool -> inception_5a/pool
I0403 15:01:40.549387 30911 net.cpp:141] Setting up inception_5a/pool
I0403 15:01:40.549409 30911 net.cpp:148] Top shape: 24 832 7 7 (978432)
I0403 15:01:40.549424 30911 net.cpp:156] Memory required for data: 1304469024
I0403 15:01:40.549438 30911 layer_factory.hpp:77] Creating layer inception_5a/pool_proj
I0403 15:01:40.549460 30911 net.cpp:91] Creating Layer inception_5a/pool_proj
I0403 15:01:40.549477 30911 net.cpp:425] inception_5a/pool_proj <- inception_5a/pool
I0403 15:01:40.549497 30911 net.cpp:399] inception_5a/pool_proj -> inception_5a/pool_proj
I0403 15:01:40.551733 30911 net.cpp:141] Setting up inception_5a/pool_proj
I0403 15:01:40.551760 30911 net.cpp:148] Top shape: 24 128 7 7 (150528)
I0403 15:01:40.551775 30911 net.cpp:156] Memory required for data: 1305071136
I0403 15:01:40.551795 30911 layer_factory.hpp:77] Creating layer inception_5a/relu_pool_proj
I0403 15:01:40.551811 30911 net.cpp:91] Creating Layer inception_5a/relu_pool_proj
I0403 15:01:40.551827 30911 net.cpp:425] inception_5a/relu_pool_proj <- inception_5a/pool_proj
I0403 15:01:40.551847 30911 net.cpp:386] inception_5a/relu_pool_proj -> inception_5a/pool_proj (in-place)
I0403 15:01:40.552135 30911 net.cpp:141] Setting up inception_5a/relu_pool_proj
I0403 15:01:40.552160 30911 net.cpp:148] Top shape: 24 128 7 7 (150528)
I0403 15:01:40.552175 30911 net.cpp:156] Memory required for data: 1305673248
I0403 15:01:40.552189 30911 layer_factory.hpp:77] Creating layer inception_5a/output
I0403 15:01:40.552206 30911 net.cpp:91] Creating Layer inception_5a/output
I0403 15:01:40.552222 30911 net.cpp:425] inception_5a/output <- inception_5a/1x1
I0403 15:01:40.552237 30911 net.cpp:425] inception_5a/output <- inception_5a/3x3
I0403 15:01:40.552253 30911 net.cpp:425] inception_5a/output <- inception_5a/5x5
I0403 15:01:40.552268 30911 net.cpp:425] inception_5a/output <- inception_5a/pool_proj
I0403 15:01:40.552287 30911 net.cpp:399] inception_5a/output -> inception_5a/output
I0403 15:01:40.552336 30911 net.cpp:141] Setting up inception_5a/output
I0403 15:01:40.552361 30911 net.cpp:148] Top shape: 24 832 7 7 (978432)
I0403 15:01:40.552376 30911 net.cpp:156] Memory required for data: 1309586976
I0403 15:01:40.552391 30911 layer_factory.hpp:77] Creating layer inception_5a/output_inception_5a/output_0_split
I0403 15:01:40.552407 30911 net.cpp:91] Creating Layer inception_5a/output_inception_5a/output_0_split
I0403 15:01:40.552423 30911 net.cpp:425] inception_5a/output_inception_5a/output_0_split <- inception_5a/output
I0403 15:01:40.552439 30911 net.cpp:399] inception_5a/output_inception_5a/output_0_split -> inception_5a/output_inception_5a/output_0_split_0
I0403 15:01:40.552464 30911 net.cpp:399] inception_5a/output_inception_5a/output_0_split -> inception_5a/output_inception_5a/output_0_split_1
I0403 15:01:40.552482 30911 net.cpp:399] inception_5a/output_inception_5a/output_0_split -> inception_5a/output_inception_5a/output_0_split_2
I0403 15:01:40.552506 30911 net.cpp:399] inception_5a/output_inception_5a/output_0_split -> inception_5a/output_inception_5a/output_0_split_3
I0403 15:01:40.552614 30911 net.cpp:141] Setting up inception_5a/output_inception_5a/output_0_split
I0403 15:01:40.552637 30911 net.cpp:148] Top shape: 24 832 7 7 (978432)
I0403 15:01:40.552654 30911 net.cpp:148] Top shape: 24 832 7 7 (978432)
I0403 15:01:40.552669 30911 net.cpp:148] Top shape: 24 832 7 7 (978432)
I0403 15:01:40.552682 30911 net.cpp:148] Top shape: 24 832 7 7 (978432)
I0403 15:01:40.552696 30911 net.cpp:156] Memory required for data: 1325241888
I0403 15:01:40.552711 30911 layer_factory.hpp:77] Creating layer inception_5b/1x1
I0403 15:01:40.552732 30911 net.cpp:91] Creating Layer inception_5b/1x1
I0403 15:01:40.552749 30911 net.cpp:425] inception_5b/1x1 <- inception_5a/output_inception_5a/output_0_split_0
I0403 15:01:40.552769 30911 net.cpp:399] inception_5b/1x1 -> inception_5b/1x1
I0403 15:01:40.556442 30911 net.cpp:141] Setting up inception_5b/1x1
I0403 15:01:40.556471 30911 net.cpp:148] Top shape: 24 384 7 7 (451584)
I0403 15:01:40.556488 30911 net.cpp:156] Memory required for data: 1327048224
I0403 15:01:40.556509 30911 layer_factory.hpp:77] Creating layer inception_5b/relu_1x1
I0403 15:01:40.556529 30911 net.cpp:91] Creating Layer inception_5b/relu_1x1
I0403 15:01:40.556545 30911 net.cpp:425] inception_5b/relu_1x1 <- inception_5b/1x1
I0403 15:01:40.556563 30911 net.cpp:386] inception_5b/relu_1x1 -> inception_5b/1x1 (in-place)
I0403 15:01:40.556867 30911 net.cpp:141] Setting up inception_5b/relu_1x1
I0403 15:01:40.556893 30911 net.cpp:148] Top shape: 24 384 7 7 (451584)
I0403 15:01:40.556908 30911 net.cpp:156] Memory required for data: 1328854560
I0403 15:01:40.556922 30911 layer_factory.hpp:77] Creating layer inception_5b/3x3_reduce
I0403 15:01:40.556946 30911 net.cpp:91] Creating Layer inception_5b/3x3_reduce
I0403 15:01:40.556962 30911 net.cpp:425] inception_5b/3x3_reduce <- inception_5a/output_inception_5a/output_0_split_1
I0403 15:01:40.556984 30911 net.cpp:399] inception_5b/3x3_reduce -> inception_5b/3x3_reduce
I0403 15:01:40.559582 30911 net.cpp:141] Setting up inception_5b/3x3_reduce
I0403 15:01:40.559613 30911 net.cpp:148] Top shape: 24 192 7 7 (225792)
I0403 15:01:40.559629 30911 net.cpp:156] Memory required for data: 1329757728
I0403 15:01:40.559648 30911 layer_factory.hpp:77] Creating layer inception_5b/relu_3x3_reduce
I0403 15:01:40.559665 30911 net.cpp:91] Creating Layer inception_5b/relu_3x3_reduce
I0403 15:01:40.559681 30911 net.cpp:425] inception_5b/relu_3x3_reduce <- inception_5b/3x3_reduce
I0403 15:01:40.559700 30911 net.cpp:386] inception_5b/relu_3x3_reduce -> inception_5b/3x3_reduce (in-place)
I0403 15:01:40.559883 30911 net.cpp:141] Setting up inception_5b/relu_3x3_reduce
I0403 15:01:40.559907 30911 net.cpp:148] Top shape: 24 192 7 7 (225792)
I0403 15:01:40.559921 30911 net.cpp:156] Memory required for data: 1330660896
I0403 15:01:40.559936 30911 layer_factory.hpp:77] Creating layer inception_5b/3x3
I0403 15:01:40.559957 30911 net.cpp:91] Creating Layer inception_5b/3x3
I0403 15:01:40.559974 30911 net.cpp:425] inception_5b/3x3 <- inception_5b/3x3_reduce
I0403 15:01:40.559996 30911 net.cpp:399] inception_5b/3x3 -> inception_5b/3x3
I0403 15:01:40.566519 30911 net.cpp:141] Setting up inception_5b/3x3
I0403 15:01:40.566550 30911 net.cpp:148] Top shape: 24 384 7 7 (451584)
I0403 15:01:40.566565 30911 net.cpp:156] Memory required for data: 1332467232
I0403 15:01:40.566583 30911 layer_factory.hpp:77] Creating layer inception_5b/relu_3x3
I0403 15:01:40.566601 30911 net.cpp:91] Creating Layer inception_5b/relu_3x3
I0403 15:01:40.566617 30911 net.cpp:425] inception_5b/relu_3x3 <- inception_5b/3x3
I0403 15:01:40.566635 30911 net.cpp:386] inception_5b/relu_3x3 -> inception_5b/3x3 (in-place)
I0403 15:01:40.566925 30911 net.cpp:141] Setting up inception_5b/relu_3x3
I0403 15:01:40.566949 30911 net.cpp:148] Top shape: 24 384 7 7 (451584)
I0403 15:01:40.566964 30911 net.cpp:156] Memory required for data: 1334273568
I0403 15:01:40.566978 30911 layer_factory.hpp:77] Creating layer inception_5b/5x5_reduce
I0403 15:01:40.567015 30911 net.cpp:91] Creating Layer inception_5b/5x5_reduce
I0403 15:01:40.567034 30911 net.cpp:425] inception_5b/5x5_reduce <- inception_5a/output_inception_5a/output_0_split_2
I0403 15:01:40.567055 30911 net.cpp:399] inception_5b/5x5_reduce -> inception_5b/5x5_reduce
I0403 15:01:40.568300 30911 net.cpp:141] Setting up inception_5b/5x5_reduce
I0403 15:01:40.568326 30911 net.cpp:148] Top shape: 24 48 7 7 (56448)
I0403 15:01:40.568341 30911 net.cpp:156] Memory required for data: 1334499360
I0403 15:01:40.568359 30911 layer_factory.hpp:77] Creating layer inception_5b/relu_5x5_reduce
I0403 15:01:40.568377 30911 net.cpp:91] Creating Layer inception_5b/relu_5x5_reduce
I0403 15:01:40.568392 30911 net.cpp:425] inception_5b/relu_5x5_reduce <- inception_5b/5x5_reduce
I0403 15:01:40.568411 30911 net.cpp:386] inception_5b/relu_5x5_reduce -> inception_5b/5x5_reduce (in-place)
I0403 15:01:40.568776 30911 net.cpp:141] Setting up inception_5b/relu_5x5_reduce
I0403 15:01:40.568802 30911 net.cpp:148] Top shape: 24 48 7 7 (56448)
I0403 15:01:40.568816 30911 net.cpp:156] Memory required for data: 1334725152
I0403 15:01:40.568832 30911 layer_factory.hpp:77] Creating layer inception_5b/5x5
I0403 15:01:40.568851 30911 net.cpp:91] Creating Layer inception_5b/5x5
I0403 15:01:40.568867 30911 net.cpp:425] inception_5b/5x5 <- inception_5b/5x5_reduce
I0403 15:01:40.568886 30911 net.cpp:399] inception_5b/5x5 -> inception_5b/5x5
I0403 15:01:40.570896 30911 net.cpp:141] Setting up inception_5b/5x5
I0403 15:01:40.570924 30911 net.cpp:148] Top shape: 24 128 7 7 (150528)
I0403 15:01:40.570938 30911 net.cpp:156] Memory required for data: 1335327264
I0403 15:01:40.570956 30911 layer_factory.hpp:77] Creating layer inception_5b/relu_5x5
I0403 15:01:40.570976 30911 net.cpp:91] Creating Layer inception_5b/relu_5x5
I0403 15:01:40.570993 30911 net.cpp:425] inception_5b/relu_5x5 <- inception_5b/5x5
I0403 15:01:40.571009 30911 net.cpp:386] inception_5b/relu_5x5 -> inception_5b/5x5 (in-place)
I0403 15:01:40.571197 30911 net.cpp:141] Setting up inception_5b/relu_5x5
I0403 15:01:40.571221 30911 net.cpp:148] Top shape: 24 128 7 7 (150528)
I0403 15:01:40.571235 30911 net.cpp:156] Memory required for data: 1335929376
I0403 15:01:40.571250 30911 layer_factory.hpp:77] Creating layer inception_5b/pool
I0403 15:01:40.571269 30911 net.cpp:91] Creating Layer inception_5b/pool
I0403 15:01:40.571285 30911 net.cpp:425] inception_5b/pool <- inception_5a/output_inception_5a/output_0_split_3
I0403 15:01:40.571303 30911 net.cpp:399] inception_5b/pool -> inception_5b/pool
I0403 15:01:40.571373 30911 net.cpp:141] Setting up inception_5b/pool
I0403 15:01:40.571396 30911 net.cpp:148] Top shape: 24 832 7 7 (978432)
I0403 15:01:40.571411 30911 net.cpp:156] Memory required for data: 1339843104
I0403 15:01:40.571425 30911 layer_factory.hpp:77] Creating layer inception_5b/pool_proj
I0403 15:01:40.571446 30911 net.cpp:91] Creating Layer inception_5b/pool_proj
I0403 15:01:40.571463 30911 net.cpp:425] inception_5b/pool_proj <- inception_5b/pool
I0403 15:01:40.571485 30911 net.cpp:399] inception_5b/pool_proj -> inception_5b/pool_proj
I0403 15:01:40.573739 30911 net.cpp:141] Setting up inception_5b/pool_proj
I0403 15:01:40.573765 30911 net.cpp:148] Top shape: 24 128 7 7 (150528)
I0403 15:01:40.573781 30911 net.cpp:156] Memory required for data: 1340445216
I0403 15:01:40.573799 30911 layer_factory.hpp:77] Creating layer inception_5b/relu_pool_proj
I0403 15:01:40.573817 30911 net.cpp:91] Creating Layer inception_5b/relu_pool_proj
I0403 15:01:40.573832 30911 net.cpp:425] inception_5b/relu_pool_proj <- inception_5b/pool_proj
I0403 15:01:40.573853 30911 net.cpp:386] inception_5b/relu_pool_proj -> inception_5b/pool_proj (in-place)
I0403 15:01:40.574146 30911 net.cpp:141] Setting up inception_5b/relu_pool_proj
I0403 15:01:40.574172 30911 net.cpp:148] Top shape: 24 128 7 7 (150528)
I0403 15:01:40.574187 30911 net.cpp:156] Memory required for data: 1341047328
I0403 15:01:40.574201 30911 layer_factory.hpp:77] Creating layer inception_5b/output
I0403 15:01:40.574218 30911 net.cpp:91] Creating Layer inception_5b/output
I0403 15:01:40.574247 30911 net.cpp:425] inception_5b/output <- inception_5b/1x1
I0403 15:01:40.574265 30911 net.cpp:425] inception_5b/output <- inception_5b/3x3
I0403 15:01:40.574281 30911 net.cpp:425] inception_5b/output <- inception_5b/5x5
I0403 15:01:40.574298 30911 net.cpp:425] inception_5b/output <- inception_5b/pool_proj
I0403 15:01:40.574317 30911 net.cpp:399] inception_5b/output -> inception_5b/output
I0403 15:01:40.574368 30911 net.cpp:141] Setting up inception_5b/output
I0403 15:01:40.574393 30911 net.cpp:148] Top shape: 24 1024 7 7 (1204224)
I0403 15:01:40.574409 30911 net.cpp:156] Memory required for data: 1345864224
I0403 15:01:40.574422 30911 layer_factory.hpp:77] Creating layer pool5/7x7_s1
I0403 15:01:40.574440 30911 net.cpp:91] Creating Layer pool5/7x7_s1
I0403 15:01:40.574455 30911 net.cpp:425] pool5/7x7_s1 <- inception_5b/output
I0403 15:01:40.574476 30911 net.cpp:399] pool5/7x7_s1 -> pool5/7x7_s1
I0403 15:01:40.574693 30911 net.cpp:141] Setting up pool5/7x7_s1
I0403 15:01:40.574718 30911 net.cpp:148] Top shape: 24 1024 1 1 (24576)
I0403 15:01:40.574733 30911 net.cpp:156] Memory required for data: 1345962528
I0403 15:01:40.574748 30911 layer_factory.hpp:77] Creating layer pool5/drop_7x7_s1
I0403 15:01:40.574764 30911 net.cpp:91] Creating Layer pool5/drop_7x7_s1
I0403 15:01:40.574779 30911 net.cpp:425] pool5/drop_7x7_s1 <- pool5/7x7_s1
I0403 15:01:40.574797 30911 net.cpp:386] pool5/drop_7x7_s1 -> pool5/7x7_s1 (in-place)
I0403 15:01:40.574846 30911 net.cpp:141] Setting up pool5/drop_7x7_s1
I0403 15:01:40.574872 30911 net.cpp:148] Top shape: 24 1024 1 1 (24576)
I0403 15:01:40.574885 30911 net.cpp:156] Memory required for data: 1346060832
I0403 15:01:40.574899 30911 layer_factory.hpp:77] Creating layer loss3/classifier_plantvillage
I0403 15:01:40.574918 30911 net.cpp:91] Creating Layer loss3/classifier_plantvillage
I0403 15:01:40.574934 30911 net.cpp:425] loss3/classifier_plantvillage <- pool5/7x7_s1
I0403 15:01:40.574954 30911 net.cpp:399] loss3/classifier_plantvillage -> loss3/classifier_plantvillage
I0403 15:01:40.575376 30911 net.cpp:141] Setting up loss3/classifier_plantvillage
I0403 15:01:40.575398 30911 net.cpp:148] Top shape: 24 38 (912)
I0403 15:01:40.575412 30911 net.cpp:156] Memory required for data: 1346064480
I0403 15:01:40.575430 30911 layer_factory.hpp:77] Creating layer loss3/classifier_plantvillage_loss3/classifier_plantvillage_0_split
I0403 15:01:40.575450 30911 net.cpp:91] Creating Layer loss3/classifier_plantvillage_loss3/classifier_plantvillage_0_split
I0403 15:01:40.575466 30911 net.cpp:425] loss3/classifier_plantvillage_loss3/classifier_plantvillage_0_split <- loss3/classifier_plantvillage
I0403 15:01:40.575484 30911 net.cpp:399] loss3/classifier_plantvillage_loss3/classifier_plantvillage_0_split -> loss3/classifier_plantvillage_loss3/classifier_plantvillage_0_split_0
I0403 15:01:40.575512 30911 net.cpp:399] loss3/classifier_plantvillage_loss3/classifier_plantvillage_0_split -> loss3/classifier_plantvillage_loss3/classifier_plantvillage_0_split_1
I0403 15:01:40.575539 30911 net.cpp:399] loss3/classifier_plantvillage_loss3/classifier_plantvillage_0_split -> loss3/classifier_plantvillage_loss3/classifier_plantvillage_0_split_2
I0403 15:01:40.575561 30911 net.cpp:399] loss3/classifier_plantvillage_loss3/classifier_plantvillage_0_split -> loss3/classifier_plantvillage_loss3/classifier_plantvillage_0_split_3
I0403 15:01:40.575660 30911 net.cpp:141] Setting up loss3/classifier_plantvillage_loss3/classifier_plantvillage_0_split
I0403 15:01:40.575682 30911 net.cpp:148] Top shape: 24 38 (912)
I0403 15:01:40.575698 30911 net.cpp:148] Top shape: 24 38 (912)
I0403 15:01:40.575713 30911 net.cpp:148] Top shape: 24 38 (912)
I0403 15:01:40.575728 30911 net.cpp:148] Top shape: 24 38 (912)
I0403 15:01:40.575742 30911 net.cpp:156] Memory required for data: 1346079072
I0403 15:01:40.575757 30911 layer_factory.hpp:77] Creating layer loss1/loss
I0403 15:01:40.575778 30911 net.cpp:91] Creating Layer loss1/loss
I0403 15:01:40.575794 30911 net.cpp:425] loss1/loss <- loss1/classifier_plantvillage_loss1/classifier_plantvillage_0_split_0
I0403 15:01:40.575824 30911 net.cpp:425] loss1/loss <- label_data_1_split_0
…
