…
I0403 15:08:59.879861 31197 net.cpp:313] The NetState phase (1) differed from the phase (0) specified by a rule in layer data
I0403 15:08:59.880991 31197 net.cpp:49] Initializing net from parameters: 
state {
  phase: TEST
}
layer {
  name: "data"
  type: "Data"
  top: "data"
  top: "label"
  include {
    phase: TEST
  }
  transform_param {
    mirror: false
    crop_size: 224
    mean_file: "/home/mohanty/data/final_dataset/lmdb/grayscale-80-20/mean.binaryproto"
  }
  data_param {
    source: "/home/mohanty/data/final_dataset/lmdb/grayscale-80-20/test_db"
    batch_size: 24
    backend: LMDB
  }
}
layer {
  name: "conv1/7x7_s2"
  type: "Convolution"
  bottom: "data"
  top: "conv1/7x7_s2"
  param {
    lr_mult: 1
    decay_mult: 1
  }
  param {
    lr_mult: 2
    decay_mult: 0
  }
  convolution_param {
    num_output: 64
    pad: 3
    kernel_size: 7
    stride: 2
    weight_filler {
      type: "xavier"
      std: 0.1
    }
    bias_filler {
      type: "constant"
      value: 0.2
    }
  }
}
layer {
  name: "conv1/relu_7x7"
  type: "ReLU"
  bottom: "conv1/7x7_s2"
  top: "conv1/7x7_s2"
}
layer {
  name: "pool1/3x3_s2"
  type: "Pooling"
  bottom: "conv1/7x7_s2"
  top: "pool1/3x3_s2"
  pooling_param {
    pool: MAX
    kernel_size: 3
    stride: 2
  }
}
layer {
  name: "pool1/norm1"
  type: "LRN"
  bottom: "pool1/3x3_s2"
  top: "pool1/norm1"
  lrn_param {
    local_size: 5
    alpha: 0.0001
    beta: 0.75
  }
}
layer {
  name: "conv2/3x3_reduce"
  type: "Convolution"
  bottom: "pool1/norm1"
  top: "conv2/3x3_reduce"
  param {
    lr_mult: 1
    decay_mult: 1
  }
  param {
    lr_mult: 2
    decay_mult: 0
  }
  convolution_param {
    num_output: 64
    kernel_size: 1
    weight_filler {
      type: "xavier"
      std: 0.1
    }
    bias_filler {
      type: "constant"
      value: 0.2
    }
  }
}
layer {
  name: "conv2/relu_3x3_reduce"
  type: "ReLU"
  bottom: "conv2/3x3_reduce"
  top: "conv2/3x3_reduce"
}
layer {
  name: "conv2/3x3"
  type: "Convolution"
  bottom: "conv2/3x3_reduce"
  top: "conv2/3x3"
  param {
    lr_mult: 1
    decay_mult: 1
  }
  param {
    lr_mult: 2
    decay_mult: 0
  }
  convolution_param {
    num_output: 192
    pad: 1
    kernel_size: 3
    weight_filler {
      type: "xavier"
      std: 0.03
    }
    bias_filler {
      type: "constant"
      value: 0.2
    }
  }
}
layer {
  name: "conv2/relu_3x3"
  type: "ReLU"
  bottom: "conv2/3x3"
  top: "conv2/3x3"
}
layer {
  name: "conv2/norm2"
  type: "LRN"
  bottom: "conv2/3x3"
  top: "conv2/norm2"
  lrn_param {
    local_size: 5
    alpha: 0.0001
    beta: 0.75
  }
}
layer {
  name: "pool2/3x3_s2"
  type: "Pooling"
  bottom: "conv2/norm2"
  top: "pool2/3x3_s2"
  pooling_param {
    pool: MAX
    kernel_size: 3
    stride: 2
  }
}
layer {
  name: "inception_3a/1x1"
  type: "Convolution"
  bottom: "pool2/3x3_s2"
  top: "inception_3a/1x1"
  param {
    lr_mult: 1
    decay_mult: 1
  }
  param {
    lr_mult: 2
    decay_mult: 0
  }
  convolution_param {
    num_output: 64
    kernel_size: 1
    weight_filler {
      type: "xavier"
      std: 0.03
    }
    bias_filler {
      type: "constant"
      value: 0.2
    }
  }
}
layer {
  name: "inception_3a/relu_1x1"
  type: "ReLU"
  bottom: "inception_3a/1x1"
  top: "inception_3a/1x1"
}
layer {
  name: "inception_3a/3x3_reduce"
  type: "Convolution"
  bottom: "pool2/3x3_s2"
  top: "inception_3a/3x3_reduce"
  param {
    lr_mult: 1
    decay_mult: 1
  }
  param {
    lr_mult: 2
    decay_mult: 0
  }
  convolution_param {
    num_output: 96
    kernel_size: 1
    weight_filler {
      type: "xavier"
      std: 0.09
    }
    bias_filler {
      type: "constant"
      value: 0.2
    }
  }
}
layer {
  name: "inception_3a/relu_3x3_reduce"
  type: "ReLU"
  bottom: "inception_3a/3x3_reduce"
  top: "inception_3a/3x3_reduce"
}
layer {
  name: "inception_3a/3x3"
  type: "Convolution"
  bottom: "inception_3a/3x3_reduce"
  top: "inception_3a/3x3"
  param {
    lr_mult: 1
    decay_mult: 1
  }
  param {
    lr_mult: 2
    decay_mult: 0
  }
  convolution_param {
    num_output: 128
    pad: 1
    kernel_size: 3
    weight_filler {
      type: "xavier"
      std: 0.03
    }
    bias_filler {
      type: "constant"
      value: 0.2
    }
  }
}
layer {
  name: "inception_3a/relu_3x3"
  type: "ReLU"
  bottom: "inception_3a/3x3"
  top: "inception_3a/3x3"
}
layer {
  name: "inception_3a/5x5_reduce"
  type: "Convolution"
  bottom: "pool2/3x3_s2"
  top: "inception_3a/5x5_reduce"
  param {
    lr_mult: 1
    decay_mult: 1
  }
  param {
    lr_mult: 2
    decay_mult: 0
  }
  convolution_param {
    num_output: 16
    kernel_size: 1
    weight_filler {
      type: "xavier"
      std: 0.2
    }
    bias_filler {
      type: "constant"
      value: 0.2
    }
  }
}
layer {
  name: "inception_3a/relu_5x5_reduce"
  type: "ReLU"
  bottom: "inception_3a/5x5_reduce"
  top: "inception_3a/5x5_reduce"
}
layer {
  name: "inception_3a/5x5"
  type: "Convolution"
  bottom: "inception_3a/5x5_reduce"
  top: "inception_3a/5x5"
  param {
    lr_mult: 1
    decay_mult: 1
  }
  param {
    lr_mult: 2
    decay_mult: 0
  }
  convolution_param {
    num_output: 32
    pad: 2
    kernel_size: 5
    weight_filler {
      type: "xavier"
      std: 0.03
    }
    bias_filler {
      type: "constant"
      value: 0.2
    }
  }
}
layer {
  name: "inception_3a/relu_5x5"
  type: "ReLU"
  bottom: "inception_3a/5x5"
  top: "inception_3a/5x5"
}
layer {
  name: "inception_3a/pool"
  type: "Pooling"
  bottom: "pool2/3x3_s2"
  top: "inception_3a/pool"
  pooling_param {
    pool: MAX
    kernel_size: 3
    stride: 1
    pad: 1
  }
}
layer {
  name: "inception_3a/pool_proj"
  type: "Convolution"
  bottom: "inception_3a/pool"
  top: "inception_3a/pool_proj"
  param {
    lr_mult: 1
    decay_mult: 1
  }
  param {
    lr_mult: 2
    decay_mult: 0
  }
  convolution_param {
    num_output: 32
    kernel_size: 1
    weight_filler {
      type: "xavier"
      std: 0.1
    }
    bias_filler {
      type: "constant"
      value: 0.2
    }
  }
}
layer {
  name: "inception_3a/relu_pool_proj"
  type: "ReLU"
  bottom: "inception_3a/pool_proj"
  top: "inception_3a/pool_proj"
}
layer {
  name: "inception_3a/output"
  type: "Concat"
  bottom: "inception_3a/1x1"
  bottom: "inception_3a/3x3"
  bottom: "inception_3a/5x5"
  bottom: "inception_3a/pool_proj"
  top: "inception_3a/output"
}
layer {
  name: "inception_3b/1x1"
  type: "Convolution"
  bottom: "inception_3a/output"
  top: "inception_3b/1x1"
  param {
    lr_mult: 1
    decay_mult: 1
  }
  param {
    lr_mult: 2
    decay_mult: 0
  }
  convolution_param {
    num_output: 128
    kernel_size: 1
    weight_filler {
      type: "xavier"
      std: 0.03
    }
    bias_filler {
      type: "constant"
      value: 0.2
    }
  }
}
layer {
  name: "inception_3b/relu_1x1"
  type: "ReLU"
  bottom: "inception_3b/1x1"
  top: "inception_3b/1x1"
}
layer {
  name: "inception_3b/3x3_reduce"
  type: "Convolution"
  bottom: "inception_3a/output"
  top: "inception_3b/3x3_reduce"
  param {
    lr_mult: 1
    decay_mult: 1
  }
  param {
    lr_mult: 2
    decay_mult: 0
  }
  convolution_param {
    num_output: 128
    kernel_size: 1
    weight_filler {
      type: "xavier"
      std: 0.09
    }
    bias_filler {
      type: "constant"
      value: 0.2
    }
  }
}
layer {
  name: "inception_3b/relu_3x3_reduce"
  type: "ReLU"
  bottom: "inception_3b/3x3_reduce"
  top: "inception_3b/3x3_reduce"
}
layer {
  name: "inception_3b/3x3"
  type: "Convolution"
  bottom: "inception_3b/3x3_reduce"
  top: "inception_3b/3x3"
  param {
    lr_mult: 1
    decay_mult: 1
  }
  param {
    lr_mult: 2
    decay_mult: 0
  }
  convolution_param {
    num_output: 192
    pad: 1
    kernel_size: 3
    weight_filler {
      type: "xavier"
      std: 0.03
    }
    bias_filler {
      type: "constant"
      value: 0.2
    }
  }
}
layer {
  name: "inception_3b/relu_3x3"
  type: "ReLU"
  bottom: "inception_3b/3x3"
  top: "inception_3b/3x3"
}
layer {
  name: "inception_3b/5x5_reduce"
  type: "Convolution"
  bottom: "inception_3a/output"
  top: "inception_3b/5x5_reduce"
  param {
    lr_mult: 1
    decay_mult: 1
  }
  param {
    lr_mult: 2
    decay_mult: 0
  }
  convolution_param {
    num_output: 32
    kernel_size: 1
    weight_filler {
      type: "xavier"
      std: 0.2
    }
    bias_filler {
      type: "constant"
      value: 0.2
    }
  }
}
layer {
  name: "inception_3b/relu_5x5_reduce"
  type: "ReLU"
  bottom: "inception_3b/5x5_reduce"
  top: "inception_3b/5x5_reduce"
}
layer {
  name: "inception_3b/5x5"
  type: "Convolution"
  bottom: "inception_3b/5x5_reduce"
  top: "inception_3b/5x5"
  param {
    lr_mult: 1
    decay_mult: 1
  }
  param {
    lr_mult: 2
    decay_mult: 0
  }
  convolution_param {
    num_output: 96
    pad: 2
    kernel_size: 5
    weight_filler {
      type: "xavier"
      std: 0.03
    }
    bias_filler {
      type: "constant"
      value: 0.2
    }
  }
}
layer {
  name: "inception_3b/relu_5x5"
  type: "ReLU"
  bottom: "inception_3b/5x5"
  top: "inception_3b/5x5"
}
layer {
  name: "inception_3b/pool"
  type: "Pooling"
  bottom: "inception_3a/output"
  top: "inception_3b/pool"
  pooling_param {
    pool: MAX
    kernel_size: 3
    stride: 1
    pad: 1
  }
}
layer {
  name: "inception_3b/pool_proj"
  type: "Convolution"
  bottom: "inception_3b/pool"
  top: "inception_3b/pool_proj"
  param {
    lr_mult: 1
    decay_mult: 1
  }
  param {
    lr_mult: 2
    decay_mult: 0
  }
  convolution_param {
    num_output: 64
    kernel_size: 1
    weight_filler {
      type: "xavier"
      std: 0.1
    }
    bias_filler {
      type: "constant"
      value: 0.2
    }
  }
}
layer {
  name: "inception_3b/relu_pool_proj"
  type: "ReLU"
  bottom: "inception_3b/pool_proj"
  top: "inception_3b/pool_proj"
}
layer {
  name: "inception_3b/output"
  type: "Concat"
  bottom: "inception_3b/1x1"
  bottom: "inception_3b/3x3"
  bottom: "inception_3b/5x5"
  bottom: "inception_3b/pool_proj"
  top: "inception_3b/output"
}
layer {
  name: "pool3/3x3_s2"
  type: "Pooling"
  bottom: "inception_3b/output"
  top: "pool3/3x3_s2"
  pooling_param {
    pool: MAX
    kernel_size: 3
    stride: 2
  }
}
layer {
  name: "inception_4a/1x1"
  type: "Convolution"
  bottom: "pool3/3x3_s2"
  top: "inception_4a/1x1"
  param {
    lr_mult: 1
    decay_mult: 1
  }
  param {
    lr_mult: 2
    decay_mult: 0
  }
  convolution_param {
    num_output: 192
    kernel_size: 1
    weight_filler {
      type: "xavier"
      std: 0.03
    }
    bias_filler {
      type: "constant"
      value: 0.2
    }
  }
}
layer {
  name: "inception_4a/relu_1x1"
  type: "ReLU"
  bottom: "inception_4a/1x1"
  top: "inception_4a/1x1"
}
layer {
  name: "inception_4a/3x3_reduce"
  type: "Convolution"
  bottom: "pool3/3x3_s2"
  top: "inception_4a/3x3_reduce"
  param {
    lr_mult: 1
    decay_mult: 1
  }
  param {
    lr_mult: 2
    decay_mult: 0
  }
  convolution_param {
    num_output: 96
    kernel_size: 1
    weight_filler {
      type: "xavier"
      std: 0.09
    }
    bias_filler {
      type: "constant"
      value: 0.2
    }
  }
}
layer {
  name: "inception_4a/relu_3x3_reduce"
  type: "ReLU"
  bottom: "inception_4a/3x3_reduce"
  top: "inception_4a/3x3_reduce"
}
layer {
  name: "inception_4a/3x3"
  type: "Convolution"
  bottom: "inception_4a/3x3_reduce"
  top: "inception_4a/3x3"
  param {
    lr_mult: 1
    decay_mult: 1
  }
  param {
    lr_mult: 2
    decay_mult: 0
  }
  convolution_param {
    num_output: 208
    pad: 1
    kernel_size: 3
    weight_filler {
      type: "xavier"
      std: 0.03
    }
    bias_filler {
      type: "constant"
      value: 0.2
    }
  }
}
layer {
  name: "inception_4a/relu_3x3"
  type: "ReLU"
  bottom: "inception_4a/3x3"
  top: "inception_4a/3x3"
}
layer {
  name: "inception_4a/5x5_reduce"
  type: "Convolution"
  bottom: "pool3/3x3_s2"
  top: "inception_4a/5x5_reduce"
  param {
    lr_mult: 1
    decay_mult: 1
  }
  param {
    lr_mult: 2
    decay_mult: 0
  }
  convolution_param {
    num_output: 16
    kernel_size: 1
    weight_filler {
      type: "xavier"
      std: 0.2
    }
    bias_filler {
      type: "constant"
      value: 0.2
    }
  }
}
layer {
  name: "inception_4a/relu_5x5_reduce"
  type: "ReLU"
  bottom: "inception_4a/5x5_reduce"
  top: "inception_4a/5x5_reduce"
}
layer {
  name: "inception_4a/5x5"
  type: "Convolution"
  bottom: "inception_4a/5x5_reduce"
  top: "inception_4a/5x5"
  param {
    lr_mult: 1
    decay_mult: 1
  }
  param {
    lr_mult: 2
    decay_mult: 0
  }
  convolution_param {
    num_output: 48
    pad: 2
    kernel_size: 5
    weight_filler {
      type: "xavier"
      std: 0.03
    }
    bias_filler {
      type: "constant"
      value: 0.2
    }
  }
}
layer {
  name: "inception_4a/relu_5x5"
  type: "ReLU"
  bottom: "inception_4a/5x5"
  top: "inception_4a/5x5"
}
layer {
  name: "inception_4a/pool"
  type: "Pooling"
  bottom: "pool3/3x3_s2"
  top: "inception_4a/pool"
  pooling_param {
    pool: MAX
    kernel_size: 3
    stride: 1
    pad: 1
  }
}
layer {
  name: "inception_4a/pool_proj"
  type: "Convolution"
  bottom: "inception_4a/pool"
  top: "inception_4a/pool_proj"
  param {
    lr_mult: 1
    decay_mult: 1
  }
  param {
    lr_mult: 2
    decay_mult: 0
  }
  convolution_param {
    num_output: 64
    kernel_size: 1
    weight_filler {
      type: "xavier"
      std: 0.1
    }
    bias_filler {
      type: "constant"
      value: 0.2
    }
  }
}
layer {
  name: "inception_4a/relu_pool_proj"
  type: "ReLU"
  bottom: "inception_4a/pool_proj"
  top: "inception_4a/pool_proj"
}
layer {
  name: "inception_4a/output"
  type: "Concat"
  bottom: "inception_4a/1x1"
  bottom: "inception_4a/3x3"
  bottom: "inception_4a/5x5"
  bottom: "inception_4a/pool_proj"
  top: "inception_4a/output"
}
layer {
  name: "loss1/ave_pool"
  type: "Pooling"
  bottom: "inception_4a/output"
  top: "loss1/ave_pool"
  pooling_param {
    pool: AVE
    kernel_size: 5
    stride: 3
  }
}
layer {
  name: "loss1/conv"
  type: "Convolution"
  bottom: "loss1/ave_pool"
  top: "loss1/conv"
  param {
    lr_mult: 1
    decay_mult: 1
  }
  param {
    lr_mult: 2
    decay_mult: 0
  }
  convolution_param {
    num_output: 128
    kernel_size: 1
    weight_filler {
      type: "xavier"
      std: 0.08
    }
    bias_filler {
      type: "constant"
      value: 0.2
    }
  }
}
layer {
  name: "loss1/relu_conv"
  type: "ReLU"
  bottom: "loss1/conv"
  top: "loss1/conv"
}
layer {
  name: "loss1/fc"
  type: "InnerProduct"
  bottom: "loss1/conv"
  top: "loss1/fc"
  param {
    lr_mult: 1
    decay_mult: 1
  }
  param {
    lr_mult: 2
    decay_mult: 0
  }
  inner_product_param {
    num_output: 1024
    weight_filler {
      type: "xavier"
      std: 0.02
    }
    bias_filler {
      type: "constant"
      value: 0.2
    }
  }
}
layer {
  name: "loss1/relu_fc"
  type: "ReLU"
  bottom: "loss1/fc"
  top: "loss1/fc"
}
layer {
  name: "loss1/drop_fc"
  type: "Dropout"
  bottom: "loss1/fc"
  top: "loss1/fc"
  dropout_param {
    dropout_ratio: 0.7
  }
}
layer {
  name: "loss1/classifier_plantvillage"
  type: "InnerProduct"
  bottom: "loss1/fc"
  top: "loss1/classifier_plantvillage"
  param {
    lr_mult: 1
    decay_mult: 1
  }
  param {
    lr_mult: 2
    decay_mult: 0
  }
  inner_product_param {
    num_output: 38
    weight_filler {
      type: "xavier"
      std: 0.0009765625
    }
    bias_filler {
      type: "constant"
      value: 0
    }
  }
}
layer {
  name: "inception_4b/1x1"
  type: "Convolution"
  bottom: "inception_4a/output"
  top: "inception_4b/1x1"
  param {
    lr_mult: 1
    decay_mult: 1
  }
  param {
    lr_mult: 2
    decay_mult: 0
  }
  convolution_param {
    num_output: 160
    kernel_size: 1
    weight_filler {
      type: "xavier"
      std: 0.03
    }
    bias_filler {
      type: "constant"
      value: 0.2
    }
  }
}
layer {
  name: "inception_4b/relu_1x1"
  type: "ReLU"
  bottom: "inception_4b/1x1"
  top: "inception_4b/1x1"
}
layer {
  name: "inception_4b/3x3_reduce"
  type: "Convolution"
  bottom: "inception_4a/output"
  top: "inception_4b/3x3_reduce"
  param {
    lr_mult: 1
    decay_mult: 1
  }
  param {
    lr_mult: 2
    decay_mult: 0
  }
  convolution_param {
    num_output: 112
    kernel_size: 1
    weight_filler {
      type: "xavier"
      std: 0.09
    }
    bias_filler {
      type: "constant"
      value: 0.2
    }
  }
}
layer {
  name: "inception_4b/relu_3x3_reduce"
  type: "ReLU"
  bottom: "inception_4b/3x3_reduce"
  top: "inception_4b/3x3_reduce"
}
layer {
  name: "inception_4b/3x3"
  type: "Convolution"
  bottom: "inception_4b/3x3_reduce"
  top: "inception_4b/3x3"
  param {
    lr_mult: 1
    decay_mult: 1
  }
  param {
    lr_mult: 2
    decay_mult: 0
  }
  convolution_param {
    num_output: 224
    pad: 1
    kernel_size: 3
    weight_filler {
      type: "xavier"
      std: 0.03
    }
    bias_filler {
      type: "constant"
      value: 0.2
    }
  }
}
layer {
  name: "inception_4b/relu_3x3"
  type: "ReLU"
  bottom: "inception_4b/3x3"
  top: "inception_4b/3x3"
}
layer {
  name: "inception_4b/5x5_reduce"
  type: "Convolution"
  bottom: "inception_4a/output"
  top: "inception_4b/5x5_reduce"
  param {
    lr_mult: 1
    decay_mult: 1
  }
  param {
    lr_mult: 2
    decay_mult: 0
  }
  convolution_param {
    num_output: 24
    kernel_size: 1
    weight_filler {
      type: "xavier"
      std: 0.2
    }
    bias_filler {
      type: "constant"
      value: 0.2
    }
  }
}
layer {
  name: "inception_4b/relu_5x5_reduce"
  type: "ReLU"
  bottom: "inception_4b/5x5_reduce"
  top: "inception_4b/5x5_reduce"
}
layer {
  name: "inception_4b/5x5"
  type: "Convolution"
  bottom: "inception_4b/5x5_reduce"
  top: "inception_4b/5x5"
  param {
    lr_mult: 1
    decay_mult: 1
  }
  param {
    lr_mult: 2
    decay_mult: 0
  }
  convolution_param {
    num_output: 64
    pad: 2
    kernel_size: 5
    weight_filler {
      type: "xavier"
      std: 0.03
    }
    bias_filler {
      type: "constant"
      value: 0.2
    }
  }
}
layer {
  name: "inception_4b/relu_5x5"
  type: "ReLU"
  bottom: "inception_4b/5x5"
  top: "inception_4b/5x5"
}
layer {
  name: "inception_4b/pool"
  type: "Pooling"
  bottom: "inception_4a/output"
  top: "inception_4b/pool"
  pooling_param {
    pool: MAX
    kernel_size: 3
    stride: 1
    pad: 1
  }
}
layer {
  name: "inception_4b/pool_proj"
  type: "Convolution"
  bottom: "inception_4b/pool"
  top: "inception_4b/pool_proj"
  param {
    lr_mult: 1
    decay_mult: 1
  }
  param {
    lr_mult: 2
    decay_mult: 0
  }
  convolution_param {
    num_output: 64
    kernel_size: 1
    weight_filler {
      type: "xavier"
      std: 0.1
    }
    bias_filler {
      type: "constant"
      value: 0.2
    }
  }
}
layer {
  name: "inception_4b/relu_pool_proj"
  type: "ReLU"
  bottom: "inception_4b/pool_proj"
  top: "inception_4b/pool_proj"
}
layer {
  name: "inception_4b/output"
  type: "Concat"
  bottom: "inception_4b/1x1"
  bottom: "inception_4b/3x3"
  bottom: "inception_4b/5x5"
  bottom: "inception_4b/pool_proj"
  top: "inception_4b/output"
}
layer {
  name: "inception_4c/1x1"
  type: "Convolution"
  bottom: "inception_4b/output"
  top: "inception_4c/1x1"
  param {
    lr_mult: 1
    decay_mult: 1
  }
  param {
    lr_mult: 2
    decay_mult: 0
  }
  convolution_param {
    num_output: 128
    kernel_size: 1
    weight_filler {
      type: "xavier"
      std: 0.03
    }
    bias_filler {
      type: "constant"
      value: 0.2
    }
  }
}
layer {
  name: "inception_4c/relu_1x1"
  type: "ReLU"
  bottom: "inception_4c/1x1"
  top: "inception_4c/1x1"
}
layer {
  name: "inception_4c/3x3_reduce"
  type: "Convolution"
  bottom: "inception_4b/output"
  top: "inception_4c/3x3_reduce"
  param {
    lr_mult: 1
    decay_mult: 1
  }
  param {
    lr_mult: 2
    decay_mult: 0
  }
  convolution_param {
    num_output: 128
    kernel_size: 1
    weight_filler {
      type: "xavier"
      std: 0.09
    }
    bias_filler {
      type: "constant"
      value: 0.2
    }
  }
}
layer {
  name: "inception_4c/relu_3x3_reduce"
  type: "ReLU"
  bottom: "inception_4c/3x3_reduce"
  top: "inception_4c/3x3_reduce"
}
layer {
  name: "inception_4c/3x3"
  type: "Convolution"
  bottom: "inception_4c/3x3_reduce"
  top: "inception_4c/3x3"
  param {
    lr_mult: 1
    decay_mult: 1
  }
  param {
    lr_mult: 2
    decay_mult: 0
  }
  convolution_param {
    num_output: 256
    pad: 1
    kernel_size: 3
    weight_filler {
      type: "xavier"
      std: 0.03
    }
    bias_filler {
      type: "constant"
      value: 0.2
    }
  }
}
layer {
  name: "inception_4c/relu_3x3"
  type: "ReLU"
  bottom: "inception_4c/3x3"
  top: "inception_4c/3x3"
}
layer {
  name: "inception_4c/5x5_reduce"
  type: "Convolution"
  bottom: "inception_4b/output"
  top: "inception_4c/5x5_reduce"
  param {
    lr_mult: 1
    decay_mult: 1
  }
  param {
    lr_mult: 2
    decay_mult: 0
  }
  convolution_param {
    num_output: 24
    kernel_size: 1
    weight_filler {
      type: "xavier"
      std: 0.2
    }
    bias_filler {
      type: "constant"
      value: 0.2
    }
  }
}
layer {
  name: "inception_4c/relu_5x5_reduce"
  type: "ReLU"
  bottom: "inception_4c/5x5_reduce"
  top: "inception_4c/5x5_reduce"
}
layer {
  name: "inception_4c/5x5"
  type: "Convolution"
  bottom: "inception_4c/5x5_reduce"
  top: "inception_4c/5x5"
  param {
    lr_mult: 1
    decay_mult: 1
  }
  param {
    lr_mult: 2
    decay_mult: 0
  }
  convolution_param {
    num_output: 64
    pad: 2
    kernel_size: 5
    weight_filler {
      type: "xavier"
      std: 0.03
    }
    bias_filler {
      type: "constant"
      value: 0.2
    }
  }
}
layer {
  name: "inception_4c/relu_5x5"
  type: "ReLU"
  bottom: "inception_4c/5x5"
  top: "inception_4c/5x5"
}
layer {
  name: "inception_4c/pool"
  type: "Pooling"
  bottom: "inception_4b/output"
  top: "inception_4c/pool"
  pooling_param {
    pool: MAX
    kernel_size: 3
    stride: 1
    pad: 1
  }
}
layer {
  name: "inception_4c/pool_proj"
  type: "Convolution"
  bottom: "inception_4c/pool"
  top: "inception_4c/pool_proj"
  param {
    lr_mult: 1
    decay_mult: 1
  }
  param {
    lr_mult: 2
    decay_mult: 0
  }
  convolution_param {
    num_output: 64
    kernel_size: 1
    weight_filler {
      type: "xavier"
      std: 0.1
    }
    bias_filler {
      type: "constant"
      value: 0.2
    }
  }
}
layer {
  name: "inception_4c/relu_pool_proj"
  type: "ReLU"
  bottom: "inception_4c/pool_proj"
  top: "inception_4c/pool_proj"
}
layer {
  name: "inception_4c/output"
  type: "Concat"
  bottom: "inception_4c/1x1"
  bottom: "inception_4c/3x3"
  bottom: "inception_4c/5x5"
  bottom: "inception_4c/pool_proj"
  top: "inception_4c/output"
}
layer {
  name: "inception_4d/1x1"
  type: "Convolution"
  bottom: "inception_4c/output"
  top: "inception_4d/1x1"
  param {
    lr_mult: 1
    decay_mult: 1
  }
  param {
    lr_mult: 2
    decay_mult: 0
  }
  convolution_param {
    num_output: 112
    kernel_size: 1
    weight_filler {
      type: "xavier"
      std: 0.03
    }
    bias_filler {
      type: "constant"
      value: 0.2
    }
  }
}
layer {
  name: "inception_4d/relu_1x1"
  type: "ReLU"
  bottom: "inception_4d/1x1"
  top: "inception_4d/1x1"
}
layer {
  name: "inception_4d/3x3_reduce"
  type: "Convolution"
  bottom: "inception_4c/output"
  top: "inception_4d/3x3_reduce"
  param {
    lr_mult: 1
    decay_mult: 1
  }
  param {
    lr_mult: 2
    decay_mult: 0
  }
  convolution_param {
    num_output: 144
    kernel_size: 1
    weight_filler {
      type: "xavier"
      std: 0.09
    }
    bias_filler {
      type: "constant"
      value: 0.2
    }
  }
}
layer {
  name: "inception_4d/relu_3x3_reduce"
  type: "ReLU"
  bottom: "inception_4d/3x3_reduce"
  top: "inception_4d/3x3_reduce"
}
layer {
  name: "inception_4d/3x3"
  type: "Convolution"
  bottom: "inception_4d/3x3_reduce"
  top: "inception_4d/3x3"
  param {
    lr_mult: 1
    decay_mult: 1
  }
  param {
    lr_mult: 2
    decay_mult: 0
  }
  convolution_param {
    num_output: 288
    pad: 1
    kernel_size: 3
    weight_filler {
      type: "xavier"
      std: 0.03
    }
    bias_filler {
      type: "constant"
      value: 0.2
    }
  }
}
layer {
  name: "inception_4d/relu_3x3"
  type: "ReLU"
  bottom: "inception_4d/3x3"
  top: "inception_4d/3x3"
}
layer {
  name: "inception_4d/5x5_reduce"
  type: "Convolution"
  bottom: "inception_4c/output"
  top: "inception_4d/5x5_reduce"
  param {
    lr_mult: 1
    decay_mult: 1
  }
  param {
    lr_mult: 2
    decay_mult: 0
  }
  convolution_param {
    num_output: 32
    kernel_size: 1
    weight_filler {
      type: "xavier"
      std: 0.2
    }
    bias_filler {
      type: "constant"
      value: 0.2
    }
  }
}
layer {
  name: "inception_4d/relu_5x5_reduce"
  type: "ReLU"
  bottom: "inception_4d/5x5_reduce"
  top: "inception_4d/5x5_reduce"
}
layer {
  name: "inception_4d/5x5"
  type: "Convolution"
  bottom: "inception_4d/5x5_reduce"
  top: "inception_4d/5x5"
  param {
    lr_mult: 1
    decay_mult: 1
  }
  param {
    lr_mult: 2
    decay_mult: 0
  }
  convolution_param {
    num_output: 64
    pad: 2
    kernel_size: 5
    weight_filler {
      type: "xavier"
      std: 0.03
    }
    bias_filler {
      type: "constant"
      value: 0.2
    }
  }
}
layer {
  name: "inception_4d/relu_5x5"
  type: "ReLU"
  bottom: "inception_4d/5x5"
  top: "inception_4d/5x5"
}
layer {
  name: "inception_4d/pool"
  type: "Pooling"
  bottom: "inception_4c/output"
  top: "inception_4d/pool"
  pooling_param {
    pool: MAX
    kernel_size: 3
    stride: 1
    pad: 1
  }
}
layer {
  name: "inception_4d/pool_proj"
  type: "Convolution"
  bottom: "inception_4d/pool"
  top: "inception_4d/pool_proj"
  param {
    lr_mult: 1
    decay_mult: 1
  }
  param {
    lr_mult: 2
    decay_mult: 0
  }
  convolution_param {
    num_output: 64
    kernel_size: 1
    weight_filler {
      type: "xavier"
      std: 0.1
    }
    bias_filler {
      type: "constant"
      value: 0.2
    }
  }
}
layer {
  name: "inception_4d/relu_pool_proj"
  type: "ReLU"
  bottom: "inception_4d/pool_proj"
  top: "inception_4d/pool_proj"
}
layer {
  name: "inception_4d/output"
  type: "Concat"
  bottom: "inception_4d/1x1"
  bottom: "inception_4d/3x3"
  bottom: "inception_4d/5x5"
  bottom: "inception_4d/pool_proj"
  top: "inception_4d/output"
}
layer {
  name: "loss2/ave_pool"
  type: "Pooling"
  bottom: "inception_4d/output"
  top: "loss2/ave_pool"
  pooling_param {
    pool: AVE
    kernel_size: 5
    stride: 3
  }
}
layer {
  name: "loss2/conv"
  type: "Convolution"
  bottom: "loss2/ave_pool"
  top: "loss2/conv"
  param {
    lr_mult: 1
    decay_mult: 1
  }
  param {
    lr_mult: 2
    decay_mult: 0
  }
  convolution_param {
    num_output: 128
    kernel_size: 1
    weight_filler {
      type: "xavier"
      std: 0.08
    }
    bias_filler {
      type: "constant"
      value: 0.2
    }
  }
}
layer {
  name: "loss2/relu_conv"
  type: "ReLU"
  bottom: "loss2/conv"
  top: "loss2/conv"
}
layer {
  name: "loss2/fc"
  type: "InnerProduct"
  bottom: "loss2/conv"
  top: "loss2/fc"
  param {
    lr_mult: 1
    decay_mult: 1
  }
  param {
    lr_mult: 2
    decay_mult: 0
  }
  inner_product_param {
    num_output: 1024
    weight_filler {
      type: "xavier"
      std: 0.02
    }
    bias_filler {
      type: "constant"
      value: 0.2
    }
  }
}
layer {
  name: "loss2/relu_fc"
  type: "ReLU"
  bottom: "loss2/fc"
  top: "loss2/fc"
}
layer {
  name: "loss2/drop_fc"
  type: "Dropout"
  bottom: "loss2/fc"
  top: "loss2/fc"
  dropout_param {
    dropout_ratio: 0.7
  }
}
layer {
  name: "loss2/classifier_plantvillage"
  type: "InnerProduct"
  bottom: "loss2/fc"
  top: "loss2/classifier_plantvillage"
  param {
    lr_mult: 1
    decay_mult: 1
  }
  param {
    lr_mult: 2
    decay_mult: 0
  }
  inner_product_param {
    num_output: 38
    weight_filler {
      type: "xavier"
      std: 0.0009765625
    }
    bias_filler {
      type: "constant"
      value: 0
    }
  }
}
layer {
  name: "inception_4e/1x1"
  type: "Convolution"
  bottom: "inception_4d/output"
  top: "inception_4e/1x1"
  param {
    lr_mult: 1
    decay_mult: 1
  }
  param {
    lr_mult: 2
    decay_mult: 0
  }
  convolution_param {
    num_output: 256
    kernel_size: 1
    weight_filler {
      type: "xavier"
      std: 0.03
    }
    bias_filler {
      type: "constant"
      value: 0.2
    }
  }
}
layer {
  name: "inception_4e/relu_1x1"
  type: "ReLU"
  bottom: "inception_4e/1x1"
  top: "inception_4e/1x1"
}
layer {
  name: "inception_4e/3x3_reduce"
  type: "Convolution"
  bottom: "inception_4d/output"
  top: "inception_4e/3x3_reduce"
  param {
    lr_mult: 1
    decay_mult: 1
  }
  param {
    lr_mult: 2
    decay_mult: 0
  }
  convolution_param {
    num_output: 160
    kernel_size: 1
    weight_filler {
      type: "xavier"
      std: 0.09
    }
    bias_filler {
      type: "constant"
      value: 0.2
    }
  }
}
layer {
  name: "inception_4e/relu_3x3_reduce"
  type: "ReLU"
  bottom: "inception_4e/3x3_reduce"
  top: "inception_4e/3x3_reduce"
}
layer {
  name: "inception_4e/3x3"
  type: "Convolution"
  bottom: "inception_4e/3x3_reduce"
  top: "inception_4e/3x3"
  param {
    lr_mult: 1
    decay_mult: 1
  }
  param {
    lr_mult: 2
    decay_mult: 0
  }
  convolution_param {
    num_output: 320
    pad: 1
    kernel_size: 3
    weight_filler {
      type: "xavier"
      std: 0.03
    }
    bias_filler {
      type: "constant"
      value: 0.2
    }
  }
}
layer {
  name: "inception_4e/relu_3x3"
  type: "ReLU"
  bottom: "inception_4e/3x3"
  top: "inception_4e/3x3"
}
layer {
  name: "inception_4e/5x5_reduce"
  type: "Convolution"
  bottom: "inception_4d/output"
  top: "inception_4e/5x5_reduce"
  param {
    lr_mult: 1
    decay_mult: 1
  }
  param {
    lr_mult: 2
    decay_mult: 0
  }
  convolution_param {
    num_output: 32
    kernel_size: 1
    weight_filler {
      type: "xavier"
      std: 0.2
    }
    bias_filler {
      type: "constant"
      value: 0.2
    }
  }
}
layer {
  name: "inception_4e/relu_5x5_reduce"
  type: "ReLU"
  bottom: "inception_4e/5x5_reduce"
  top: "inception_4e/5x5_reduce"
}
layer {
  name: "inception_4e/5x5"
  type: "Convolution"
  bottom: "inception_4e/5x5_reduce"
  top: "inception_4e/
I0403 15:08:59.882307 31197 layer_factory.hpp:77] Creating layer data
I0403 15:08:59.882961 31197 net.cpp:91] Creating Layer data
I0403 15:08:59.882992 31197 net.cpp:399] data -> data
I0403 15:08:59.883091 31197 net.cpp:399] data -> label
I0403 15:08:59.883136 31197 data_transformer.cpp:25] Loading mean file from: /home/mohanty/data/final_dataset/lmdb/grayscale-80-20/mean.binaryproto
I0403 15:08:59.886133 31204 db_lmdb.cpp:38] Opened lmdb /home/mohanty/data/final_dataset/lmdb/grayscale-80-20/test_db
I0403 15:08:59.896781 31197 data_layer.cpp:41] output data size: 24,3,224,224
I0403 15:08:59.924183 31197 net.cpp:141] Setting up data
I0403 15:08:59.924290 31197 net.cpp:148] Top shape: 24 3 224 224 (3612672)
I0403 15:08:59.924325 31197 net.cpp:148] Top shape: 24 (24)
I0403 15:08:59.924345 31197 net.cpp:156] Memory required for data: 14450784
I0403 15:08:59.924391 31197 layer_factory.hpp:77] Creating layer label_data_1_split
I0403 15:08:59.924435 31197 net.cpp:91] Creating Layer label_data_1_split
I0403 15:08:59.924465 31197 net.cpp:425] label_data_1_split <- label
I0403 15:08:59.924510 31197 net.cpp:399] label_data_1_split -> label_data_1_split_0
I0403 15:08:59.924582 31197 net.cpp:399] label_data_1_split -> label_data_1_split_1
I0403 15:08:59.924628 31197 net.cpp:399] label_data_1_split -> label_data_1_split_2
I0403 15:08:59.924657 31197 net.cpp:399] label_data_1_split -> label_data_1_split_3
I0403 15:08:59.924691 31197 net.cpp:399] label_data_1_split -> label_data_1_split_4
I0403 15:08:59.924752 31197 net.cpp:399] label_data_1_split -> label_data_1_split_5
I0403 15:08:59.924788 31197 net.cpp:399] label_data_1_split -> label_data_1_split_6
I0403 15:08:59.924813 31197 net.cpp:399] label_data_1_split -> label_data_1_split_7
I0403 15:08:59.924841 31197 net.cpp:399] label_data_1_split -> label_data_1_split_8
I0403 15:08:59.924914 31197 net.cpp:399] label_data_1_split -> label_data_1_split_9
I0403 15:08:59.925055 31197 net.cpp:141] Setting up label_data_1_split
I0403 15:08:59.925098 31197 net.cpp:148] Top shape: 24 (24)
I0403 15:08:59.925119 31197 net.cpp:148] Top shape: 24 (24)
I0403 15:08:59.925137 31197 net.cpp:148] Top shape: 24 (24)
I0403 15:08:59.925153 31197 net.cpp:148] Top shape: 24 (24)
I0403 15:08:59.925169 31197 net.cpp:148] Top shape: 24 (24)
I0403 15:08:59.925186 31197 net.cpp:148] Top shape: 24 (24)
I0403 15:08:59.925204 31197 net.cpp:148] Top shape: 24 (24)
I0403 15:08:59.925233 31197 net.cpp:148] Top shape: 24 (24)
I0403 15:08:59.925252 31197 net.cpp:148] Top shape: 24 (24)
I0403 15:08:59.925269 31197 net.cpp:148] Top shape: 24 (24)
I0403 15:08:59.925315 31197 net.cpp:156] Memory required for data: 14451744
I0403 15:08:59.925336 31197 layer_factory.hpp:77] Creating layer conv1/7x7_s2
I0403 15:08:59.925392 31197 net.cpp:91] Creating Layer conv1/7x7_s2
I0403 15:08:59.925418 31197 net.cpp:425] conv1/7x7_s2 <- data
I0403 15:08:59.925441 31197 net.cpp:399] conv1/7x7_s2 -> conv1/7x7_s2
I0403 15:09:00.070724 31197 net.cpp:141] Setting up conv1/7x7_s2
I0403 15:09:00.070830 31197 net.cpp:148] Top shape: 24 64 112 112 (19267584)
I0403 15:09:00.070854 31197 net.cpp:156] Memory required for data: 91522080
I0403 15:09:00.070895 31197 layer_factory.hpp:77] Creating layer conv1/relu_7x7
I0403 15:09:00.070930 31197 net.cpp:91] Creating Layer conv1/relu_7x7
I0403 15:09:00.070952 31197 net.cpp:425] conv1/relu_7x7 <- conv1/7x7_s2
I0403 15:09:00.070974 31197 net.cpp:386] conv1/relu_7x7 -> conv1/7x7_s2 (in-place)
I0403 15:09:00.071260 31197 net.cpp:141] Setting up conv1/relu_7x7
I0403 15:09:00.071291 31197 net.cpp:148] Top shape: 24 64 112 112 (19267584)
I0403 15:09:00.071310 31197 net.cpp:156] Memory required for data: 168592416
I0403 15:09:00.071326 31197 layer_factory.hpp:77] Creating layer pool1/3x3_s2
I0403 15:09:00.071355 31197 net.cpp:91] Creating Layer pool1/3x3_s2
I0403 15:09:00.071374 31197 net.cpp:425] pool1/3x3_s2 <- conv1/7x7_s2
I0403 15:09:00.071396 31197 net.cpp:399] pool1/3x3_s2 -> pool1/3x3_s2
I0403 15:09:00.071549 31197 net.cpp:141] Setting up pool1/3x3_s2
I0403 15:09:00.071578 31197 net.cpp:148] Top shape: 24 64 56 56 (4816896)
I0403 15:09:00.071593 31197 net.cpp:156] Memory required for data: 187860000
I0403 15:09:00.071609 31197 layer_factory.hpp:77] Creating layer pool1/norm1
I0403 15:09:00.071640 31197 net.cpp:91] Creating Layer pool1/norm1
I0403 15:09:00.071660 31197 net.cpp:425] pool1/norm1 <- pool1/3x3_s2
I0403 15:09:00.071681 31197 net.cpp:399] pool1/norm1 -> pool1/norm1
I0403 15:09:00.072084 31197 net.cpp:141] Setting up pool1/norm1
I0403 15:09:00.072116 31197 net.cpp:148] Top shape: 24 64 56 56 (4816896)
I0403 15:09:00.072134 31197 net.cpp:156] Memory required for data: 207127584
I0403 15:09:00.072151 31197 layer_factory.hpp:77] Creating layer conv2/3x3_reduce
I0403 15:09:00.072181 31197 net.cpp:91] Creating Layer conv2/3x3_reduce
I0403 15:09:00.072201 31197 net.cpp:425] conv2/3x3_reduce <- pool1/norm1
I0403 15:09:00.072221 31197 net.cpp:399] conv2/3x3_reduce -> conv2/3x3_reduce
I0403 15:09:00.073660 31197 net.cpp:141] Setting up conv2/3x3_reduce
I0403 15:09:00.073691 31197 net.cpp:148] Top shape: 24 64 56 56 (4816896)
I0403 15:09:00.073710 31197 net.cpp:156] Memory required for data: 226395168
I0403 15:09:00.073732 31197 layer_factory.hpp:77] Creating layer conv2/relu_3x3_reduce
I0403 15:09:00.073755 31197 net.cpp:91] Creating Layer conv2/relu_3x3_reduce
I0403 15:09:00.073773 31197 net.cpp:425] conv2/relu_3x3_reduce <- conv2/3x3_reduce
I0403 15:09:00.073792 31197 net.cpp:386] conv2/relu_3x3_reduce -> conv2/3x3_reduce (in-place)
I0403 15:09:00.074084 31197 net.cpp:141] Setting up conv2/relu_3x3_reduce
I0403 15:09:00.074112 31197 net.cpp:148] Top shape: 24 64 56 56 (4816896)
I0403 15:09:00.074128 31197 net.cpp:156] Memory required for data: 245662752
I0403 15:09:00.074144 31197 layer_factory.hpp:77] Creating layer conv2/3x3
I0403 15:09:00.074170 31197 net.cpp:91] Creating Layer conv2/3x3
I0403 15:09:00.074189 31197 net.cpp:425] conv2/3x3 <- conv2/3x3_reduce
I0403 15:09:00.074213 31197 net.cpp:399] conv2/3x3 -> conv2/3x3
I0403 15:09:00.076683 31197 net.cpp:141] Setting up conv2/3x3
I0403 15:09:00.076720 31197 net.cpp:148] Top shape: 24 192 56 56 (14450688)
I0403 15:09:00.076773 31197 net.cpp:156] Memory required for data: 303465504
I0403 15:09:00.076802 31197 layer_factory.hpp:77] Creating layer conv2/relu_3x3
I0403 15:09:00.076823 31197 net.cpp:91] Creating Layer conv2/relu_3x3
I0403 15:09:00.076841 31197 net.cpp:425] conv2/relu_3x3 <- conv2/3x3
I0403 15:09:00.076860 31197 net.cpp:386] conv2/relu_3x3 -> conv2/3x3 (in-place)
I0403 15:09:00.077046 31197 net.cpp:141] Setting up conv2/relu_3x3
I0403 15:09:00.077075 31197 net.cpp:148] Top shape: 24 192 56 56 (14450688)
I0403 15:09:00.077133 31197 net.cpp:156] Memory required for data: 361268256
I0403 15:09:00.077152 31197 layer_factory.hpp:77] Creating layer conv2/norm2
I0403 15:09:00.077172 31197 net.cpp:91] Creating Layer conv2/norm2
I0403 15:09:00.077188 31197 net.cpp:425] conv2/norm2 <- conv2/3x3
I0403 15:09:00.077214 31197 net.cpp:399] conv2/norm2 -> conv2/norm2
I0403 15:09:00.077538 31197 net.cpp:141] Setting up conv2/norm2
I0403 15:09:00.077569 31197 net.cpp:148] Top shape: 24 192 56 56 (14450688)
I0403 15:09:00.077586 31197 net.cpp:156] Memory required for data: 419071008
I0403 15:09:00.077603 31197 layer_factory.hpp:77] Creating layer pool2/3x3_s2
I0403 15:09:00.077625 31197 net.cpp:91] Creating Layer pool2/3x3_s2
I0403 15:09:00.077642 31197 net.cpp:425] pool2/3x3_s2 <- conv2/norm2
I0403 15:09:00.077667 31197 net.cpp:399] pool2/3x3_s2 -> pool2/3x3_s2
I0403 15:09:00.077726 31197 net.cpp:141] Setting up pool2/3x3_s2
I0403 15:09:00.077754 31197 net.cpp:148] Top shape: 24 192 28 28 (3612672)
I0403 15:09:00.077770 31197 net.cpp:156] Memory required for data: 433521696
I0403 15:09:00.077786 31197 layer_factory.hpp:77] Creating layer pool2/3x3_s2_pool2/3x3_s2_0_split
I0403 15:09:00.077807 31197 net.cpp:91] Creating Layer pool2/3x3_s2_pool2/3x3_s2_0_split
I0403 15:09:00.077826 31197 net.cpp:425] pool2/3x3_s2_pool2/3x3_s2_0_split <- pool2/3x3_s2
I0403 15:09:00.077847 31197 net.cpp:399] pool2/3x3_s2_pool2/3x3_s2_0_split -> pool2/3x3_s2_pool2/3x3_s2_0_split_0
I0403 15:09:00.077870 31197 net.cpp:399] pool2/3x3_s2_pool2/3x3_s2_0_split -> pool2/3x3_s2_pool2/3x3_s2_0_split_1
I0403 15:09:00.077894 31197 net.cpp:399] pool2/3x3_s2_pool2/3x3_s2_0_split -> pool2/3x3_s2_pool2/3x3_s2_0_split_2
I0403 15:09:00.077918 31197 net.cpp:399] pool2/3x3_s2_pool2/3x3_s2_0_split -> pool2/3x3_s2_pool2/3x3_s2_0_split_3
I0403 15:09:00.077994 31197 net.cpp:141] Setting up pool2/3x3_s2_pool2/3x3_s2_0_split
I0403 15:09:00.078019 31197 net.cpp:148] Top shape: 24 192 28 28 (3612672)
I0403 15:09:00.078037 31197 net.cpp:148] Top shape: 24 192 28 28 (3612672)
I0403 15:09:00.078054 31197 net.cpp:148] Top shape: 24 192 28 28 (3612672)
I0403 15:09:00.078071 31197 net.cpp:148] Top shape: 24 192 28 28 (3612672)
I0403 15:09:00.078086 31197 net.cpp:156] Memory required for data: 491324448
I0403 15:09:00.078101 31197 layer_factory.hpp:77] Creating layer inception_3a/1x1
I0403 15:09:00.078126 31197 net.cpp:91] Creating Layer inception_3a/1x1
I0403 15:09:00.078145 31197 net.cpp:425] inception_3a/1x1 <- pool2/3x3_s2_pool2/3x3_s2_0_split_0
I0403 15:09:00.078166 31197 net.cpp:399] inception_3a/1x1 -> inception_3a/1x1
I0403 15:09:00.079887 31197 net.cpp:141] Setting up inception_3a/1x1
I0403 15:09:00.079919 31197 net.cpp:148] Top shape: 24 64 28 28 (1204224)
I0403 15:09:00.079938 31197 net.cpp:156] Memory required for data: 496141344
I0403 15:09:00.079958 31197 layer_factory.hpp:77] Creating layer inception_3a/relu_1x1
I0403 15:09:00.079982 31197 net.cpp:91] Creating Layer inception_3a/relu_1x1
I0403 15:09:00.080003 31197 net.cpp:425] inception_3a/relu_1x1 <- inception_3a/1x1
I0403 15:09:00.080024 31197 net.cpp:386] inception_3a/relu_1x1 -> inception_3a/1x1 (in-place)
I0403 15:09:00.080211 31197 net.cpp:141] Setting up inception_3a/relu_1x1
I0403 15:09:00.080240 31197 net.cpp:148] Top shape: 24 64 28 28 (1204224)
I0403 15:09:00.080257 31197 net.cpp:156] Memory required for data: 500958240
I0403 15:09:00.080276 31197 layer_factory.hpp:77] Creating layer inception_3a/3x3_reduce
I0403 15:09:00.080297 31197 net.cpp:91] Creating Layer inception_3a/3x3_reduce
I0403 15:09:00.080315 31197 net.cpp:425] inception_3a/3x3_reduce <- pool2/3x3_s2_pool2/3x3_s2_0_split_1
I0403 15:09:00.080338 31197 net.cpp:399] inception_3a/3x3_reduce -> inception_3a/3x3_reduce
I0403 15:09:00.082103 31197 net.cpp:141] Setting up inception_3a/3x3_reduce
I0403 15:09:00.082134 31197 net.cpp:148] Top shape: 24 96 28 28 (1806336)
I0403 15:09:00.082150 31197 net.cpp:156] Memory required for data: 508183584
I0403 15:09:00.082176 31197 layer_factory.hpp:77] Creating layer inception_3a/relu_3x3_reduce
I0403 15:09:00.082213 31197 net.cpp:91] Creating Layer inception_3a/relu_3x3_reduce
I0403 15:09:00.082233 31197 net.cpp:425] inception_3a/relu_3x3_reduce <- inception_3a/3x3_reduce
I0403 15:09:00.082252 31197 net.cpp:386] inception_3a/relu_3x3_reduce -> inception_3a/3x3_reduce (in-place)
I0403 15:09:00.082444 31197 net.cpp:141] Setting up inception_3a/relu_3x3_reduce
I0403 15:09:00.082471 31197 net.cpp:148] Top shape: 24 96 28 28 (1806336)
I0403 15:09:00.082487 31197 net.cpp:156] Memory required for data: 515408928
I0403 15:09:00.082504 31197 layer_factory.hpp:77] Creating layer inception_3a/3x3
I0403 15:09:00.082528 31197 net.cpp:91] Creating Layer inception_3a/3x3
I0403 15:09:00.082552 31197 net.cpp:425] inception_3a/3x3 <- inception_3a/3x3_reduce
I0403 15:09:00.082577 31197 net.cpp:399] inception_3a/3x3 -> inception_3a/3x3
I0403 15:09:00.084300 31197 net.cpp:141] Setting up inception_3a/3x3
I0403 15:09:00.084329 31197 net.cpp:148] Top shape: 24 128 28 28 (2408448)
I0403 15:09:00.084347 31197 net.cpp:156] Memory required for data: 525042720
I0403 15:09:00.084367 31197 layer_factory.hpp:77] Creating layer inception_3a/relu_3x3
I0403 15:09:00.084389 31197 net.cpp:91] Creating Layer inception_3a/relu_3x3
I0403 15:09:00.084408 31197 net.cpp:425] inception_3a/relu_3x3 <- inception_3a/3x3
I0403 15:09:00.084426 31197 net.cpp:386] inception_3a/relu_3x3 -> inception_3a/3x3 (in-place)
I0403 15:09:00.084728 31197 net.cpp:141] Setting up inception_3a/relu_3x3
I0403 15:09:00.084758 31197 net.cpp:148] Top shape: 24 128 28 28 (2408448)
I0403 15:09:00.084774 31197 net.cpp:156] Memory required for data: 534676512
I0403 15:09:00.084790 31197 layer_factory.hpp:77] Creating layer inception_3a/5x5_reduce
I0403 15:09:00.084815 31197 net.cpp:91] Creating Layer inception_3a/5x5_reduce
I0403 15:09:00.084835 31197 net.cpp:425] inception_3a/5x5_reduce <- pool2/3x3_s2_pool2/3x3_s2_0_split_2
I0403 15:09:00.084856 31197 net.cpp:399] inception_3a/5x5_reduce -> inception_3a/5x5_reduce
I0403 15:09:00.085935 31197 net.cpp:141] Setting up inception_3a/5x5_reduce
I0403 15:09:00.085966 31197 net.cpp:148] Top shape: 24 16 28 28 (301056)
I0403 15:09:00.085984 31197 net.cpp:156] Memory required for data: 535880736
I0403 15:09:00.086005 31197 layer_factory.hpp:77] Creating layer inception_3a/relu_5x5_reduce
I0403 15:09:00.086030 31197 net.cpp:91] Creating Layer inception_3a/relu_5x5_reduce
I0403 15:09:00.086050 31197 net.cpp:425] inception_3a/relu_5x5_reduce <- inception_3a/5x5_reduce
I0403 15:09:00.086071 31197 net.cpp:386] inception_3a/relu_5x5_reduce -> inception_3a/5x5_reduce (in-place)
I0403 15:09:00.086387 31197 net.cpp:141] Setting up inception_3a/relu_5x5_reduce
I0403 15:09:00.086417 31197 net.cpp:148] Top shape: 24 16 28 28 (301056)
I0403 15:09:00.086434 31197 net.cpp:156] Memory required for data: 537084960
I0403 15:09:00.086450 31197 layer_factory.hpp:77] Creating layer inception_3a/5x5
I0403 15:09:00.086474 31197 net.cpp:91] Creating Layer inception_3a/5x5
I0403 15:09:00.086493 31197 net.cpp:425] inception_3a/5x5 <- inception_3a/5x5_reduce
I0403 15:09:00.086513 31197 net.cpp:399] inception_3a/5x5 -> inception_3a/5x5
I0403 15:09:00.087585 31197 net.cpp:141] Setting up inception_3a/5x5
I0403 15:09:00.087615 31197 net.cpp:148] Top shape: 24 32 28 28 (602112)
I0403 15:09:00.087631 31197 net.cpp:156] Memory required for data: 539493408
I0403 15:09:00.087651 31197 layer_factory.hpp:77] Creating layer inception_3a/relu_5x5
I0403 15:09:00.087674 31197 net.cpp:91] Creating Layer inception_3a/relu_5x5
I0403 15:09:00.087692 31197 net.cpp:425] inception_3a/relu_5x5 <- inception_3a/5x5
I0403 15:09:00.087710 31197 net.cpp:386] inception_3a/relu_5x5 -> inception_3a/5x5 (in-place)
I0403 15:09:00.087894 31197 net.cpp:141] Setting up inception_3a/relu_5x5
I0403 15:09:00.087925 31197 net.cpp:148] Top shape: 24 32 28 28 (602112)
I0403 15:09:00.087944 31197 net.cpp:156] Memory required for data: 541901856
I0403 15:09:00.087962 31197 layer_factory.hpp:77] Creating layer inception_3a/pool
I0403 15:09:00.087983 31197 net.cpp:91] Creating Layer inception_3a/pool
I0403 15:09:00.088017 31197 net.cpp:425] inception_3a/pool <- pool2/3x3_s2_pool2/3x3_s2_0_split_3
I0403 15:09:00.088037 31197 net.cpp:399] inception_3a/pool -> inception_3a/pool
I0403 15:09:00.088099 31197 net.cpp:141] Setting up inception_3a/pool
I0403 15:09:00.088124 31197 net.cpp:148] Top shape: 24 192 28 28 (3612672)
I0403 15:09:00.088140 31197 net.cpp:156] Memory required for data: 556352544
I0403 15:09:00.088155 31197 layer_factory.hpp:77] Creating layer inception_3a/pool_proj
I0403 15:09:00.088179 31197 net.cpp:91] Creating Layer inception_3a/pool_proj
I0403 15:09:00.088198 31197 net.cpp:425] inception_3a/pool_proj <- inception_3a/pool
I0403 15:09:00.088222 31197 net.cpp:399] inception_3a/pool_proj -> inception_3a/pool_proj
I0403 15:09:00.089238 31197 net.cpp:141] Setting up inception_3a/pool_proj
I0403 15:09:00.089268 31197 net.cpp:148] Top shape: 24 32 28 28 (602112)
I0403 15:09:00.089285 31197 net.cpp:156] Memory required for data: 558760992
I0403 15:09:00.089308 31197 layer_factory.hpp:77] Creating layer inception_3a/relu_pool_proj
I0403 15:09:00.089331 31197 net.cpp:91] Creating Layer inception_3a/relu_pool_proj
I0403 15:09:00.089349 31197 net.cpp:425] inception_3a/relu_pool_proj <- inception_3a/pool_proj
I0403 15:09:00.089367 31197 net.cpp:386] inception_3a/relu_pool_proj -> inception_3a/pool_proj (in-place)
I0403 15:09:00.089699 31197 net.cpp:141] Setting up inception_3a/relu_pool_proj
I0403 15:09:00.089727 31197 net.cpp:148] Top shape: 24 32 28 28 (602112)
I0403 15:09:00.089745 31197 net.cpp:156] Memory required for data: 561169440
I0403 15:09:00.089761 31197 layer_factory.hpp:77] Creating layer inception_3a/output
I0403 15:09:00.089783 31197 net.cpp:91] Creating Layer inception_3a/output
I0403 15:09:00.089802 31197 net.cpp:425] inception_3a/output <- inception_3a/1x1
I0403 15:09:00.089833 31197 net.cpp:425] inception_3a/output <- inception_3a/3x3
I0403 15:09:00.089849 31197 net.cpp:425] inception_3a/output <- inception_3a/5x5
I0403 15:09:00.089867 31197 net.cpp:425] inception_3a/output <- inception_3a/pool_proj
I0403 15:09:00.089885 31197 net.cpp:399] inception_3a/output -> inception_3a/output
I0403 15:09:00.089936 31197 net.cpp:141] Setting up inception_3a/output
I0403 15:09:00.089959 31197 net.cpp:148] Top shape: 24 256 28 28 (4816896)
I0403 15:09:00.089974 31197 net.cpp:156] Memory required for data: 580437024
I0403 15:09:00.089990 31197 layer_factory.hpp:77] Creating layer inception_3a/output_inception_3a/output_0_split
I0403 15:09:00.090008 31197 net.cpp:91] Creating Layer inception_3a/output_inception_3a/output_0_split
I0403 15:09:00.090024 31197 net.cpp:425] inception_3a/output_inception_3a/output_0_split <- inception_3a/output
I0403 15:09:00.090044 31197 net.cpp:399] inception_3a/output_inception_3a/output_0_split -> inception_3a/output_inception_3a/output_0_split_0
I0403 15:09:00.090066 31197 net.cpp:399] inception_3a/output_inception_3a/output_0_split -> inception_3a/output_inception_3a/output_0_split_1
I0403 15:09:00.090091 31197 net.cpp:399] inception_3a/output_inception_3a/output_0_split -> inception_3a/output_inception_3a/output_0_split_2
I0403 15:09:00.090113 31197 net.cpp:399] inception_3a/output_inception_3a/output_0_split -> inception_3a/output_inception_3a/output_0_split_3
I0403 15:09:00.090188 31197 net.cpp:141] Setting up inception_3a/output_inception_3a/output_0_split
I0403 15:09:00.090211 31197 net.cpp:148] Top shape: 24 256 28 28 (4816896)
I0403 15:09:00.090229 31197 net.cpp:148] Top shape: 24 256 28 28 (4816896)
I0403 15:09:00.090245 31197 net.cpp:148] Top shape: 24 256 28 28 (4816896)
I0403 15:09:00.090261 31197 net.cpp:148] Top shape: 24 256 28 28 (4816896)
I0403 15:09:00.090276 31197 net.cpp:156] Memory required for data: 657507360
I0403 15:09:00.090291 31197 layer_factory.hpp:77] Creating layer inception_3b/1x1
I0403 15:09:00.090314 31197 net.cpp:91] Creating Layer inception_3b/1x1
I0403 15:09:00.090333 31197 net.cpp:425] inception_3b/1x1 <- inception_3a/output_inception_3a/output_0_split_0
I0403 15:09:00.090355 31197 net.cpp:399] inception_3b/1x1 -> inception_3b/1x1
I0403 15:09:00.091511 31197 net.cpp:141] Setting up inception_3b/1x1
I0403 15:09:00.091558 31197 net.cpp:148] Top shape: 24 128 28 28 (2408448)
I0403 15:09:00.091579 31197 net.cpp:156] Memory required for data: 667141152
I0403 15:09:00.091599 31197 layer_factory.hpp:77] Creating layer inception_3b/relu_1x1
I0403 15:09:00.091626 31197 net.cpp:91] Creating Layer inception_3b/relu_1x1
I0403 15:09:00.091656 31197 net.cpp:425] inception_3b/relu_1x1 <- inception_3b/1x1
I0403 15:09:00.091677 31197 net.cpp:386] inception_3b/relu_1x1 -> inception_3b/1x1 (in-place)
I0403 15:09:00.091856 31197 net.cpp:141] Setting up inception_3b/relu_1x1
I0403 15:09:00.091881 31197 net.cpp:148] Top shape: 24 128 28 28 (2408448)
I0403 15:09:00.091897 31197 net.cpp:156] Memory required for data: 676774944
I0403 15:09:00.091913 31197 layer_factory.hpp:77] Creating layer inception_3b/3x3_reduce
I0403 15:09:00.091936 31197 net.cpp:91] Creating Layer inception_3b/3x3_reduce
I0403 15:09:00.091959 31197 net.cpp:425] inception_3b/3x3_reduce <- inception_3a/output_inception_3a/output_0_split_1
I0403 15:09:00.091981 31197 net.cpp:399] inception_3b/3x3_reduce -> inception_3b/3x3_reduce
I0403 15:09:00.093130 31197 net.cpp:141] Setting up inception_3b/3x3_reduce
I0403 15:09:00.093158 31197 net.cpp:148] Top shape: 24 128 28 28 (2408448)
I0403 15:09:00.093175 31197 net.cpp:156] Memory required for data: 686408736
I0403 15:09:00.093194 31197 layer_factory.hpp:77] Creating layer inception_3b/relu_3x3_reduce
I0403 15:09:00.093212 31197 net.cpp:91] Creating Layer inception_3b/relu_3x3_reduce
I0403 15:09:00.093230 31197 net.cpp:425] inception_3b/relu_3x3_reduce <- inception_3b/3x3_reduce
I0403 15:09:00.093250 31197 net.cpp:386] inception_3b/relu_3x3_reduce -> inception_3b/3x3_reduce (in-place)
I0403 15:09:00.093425 31197 net.cpp:141] Setting up inception_3b/relu_3x3_reduce
I0403 15:09:00.093449 31197 net.cpp:148] Top shape: 24 128 28 28 (2408448)
I0403 15:09:00.093466 31197 net.cpp:156] Memory required for data: 696042528
I0403 15:09:00.093480 31197 layer_factory.hpp:77] Creating layer inception_3b/3x3
I0403 15:09:00.093508 31197 net.cpp:91] Creating Layer inception_3b/3x3
I0403 15:09:00.093538 31197 net.cpp:425] inception_3b/3x3 <- inception_3b/3x3_reduce
I0403 15:09:00.093560 31197 net.cpp:399] inception_3b/3x3 -> inception_3b/3x3
I0403 15:09:00.096530 31197 net.cpp:141] Setting up inception_3b/3x3
I0403 15:09:00.096565 31197 net.cpp:148] Top shape: 24 192 28 28 (3612672)
I0403 15:09:00.096582 31197 net.cpp:156] Memory required for data: 710493216
I0403 15:09:00.096601 31197 layer_factory.hpp:77] Creating layer inception_3b/relu_3x3
I0403 15:09:00.096623 31197 net.cpp:91] Creating Layer inception_3b/relu_3x3
I0403 15:09:00.096642 31197 net.cpp:425] inception_3b/relu_3x3 <- inception_3b/3x3
I0403 15:09:00.096659 31197 net.cpp:386] inception_3b/relu_3x3 -> inception_3b/3x3 (in-place)
I0403 15:09:00.096938 31197 net.cpp:141] Setting up inception_3b/relu_3x3
I0403 15:09:00.096966 31197 net.cpp:148] Top shape: 24 192 28 28 (3612672)
I0403 15:09:00.096982 31197 net.cpp:156] Memory required for data: 724943904
I0403 15:09:00.096997 31197 layer_factory.hpp:77] Creating layer inception_3b/5x5_reduce
I0403 15:09:00.097021 31197 net.cpp:91] Creating Layer inception_3b/5x5_reduce
I0403 15:09:00.097039 31197 net.cpp:425] inception_3b/5x5_reduce <- inception_3a/output_inception_3a/output_0_split_2
I0403 15:09:00.097062 31197 net.cpp:399] inception_3b/5x5_reduce -> inception_3b/5x5_reduce
I0403 15:09:00.098064 31197 net.cpp:141] Setting up inception_3b/5x5_reduce
I0403 15:09:00.098093 31197 net.cpp:148] Top shape: 24 32 28 28 (602112)
I0403 15:09:00.098109 31197 net.cpp:156] Memory required for data: 727352352
I0403 15:09:00.098129 31197 layer_factory.hpp:77] Creating layer inception_3b/relu_5x5_reduce
I0403 15:09:00.098150 31197 net.cpp:91] Creating Layer inception_3b/relu_5x5_reduce
I0403 15:09:00.098167 31197 net.cpp:425] inception_3b/relu_5x5_reduce <- inception_3b/5x5_reduce
I0403 15:09:00.098186 31197 net.cpp:386] inception_3b/relu_5x5_reduce -> inception_3b/5x5_reduce (in-place)
I0403 15:09:00.098379 31197 net.cpp:141] Setting up inception_3b/relu_5x5_reduce
I0403 15:09:00.098407 31197 net.cpp:148] Top shape: 24 32 28 28 (602112)
I0403 15:09:00.098424 31197 net.cpp:156] Memory required for data: 729760800
I0403 15:09:00.098439 31197 layer_factory.hpp:77] Creating layer inception_3b/5x5
I0403 15:09:00.098464 31197 net.cpp:91] Creating Layer inception_3b/5x5
I0403 15:09:00.098481 31197 net.cpp:425] inception_3b/5x5 <- inception_3b/5x5_reduce
I0403 15:09:00.098500 31197 net.cpp:399] inception_3b/5x5 -> inception_3b/5x5
I0403 15:09:00.100503 31197 net.cpp:141] Setting up inception_3b/5x5
I0403 15:09:00.100536 31197 net.cpp:148] Top shape: 24 96 28 28 (1806336)
I0403 15:09:00.100554 31197 net.cpp:156] Memory required for data: 736986144
I0403 15:09:00.100574 31197 layer_factory.hpp:77] Creating layer inception_3b/relu_5x5
I0403 15:09:00.100594 31197 net.cpp:91] Creating Layer inception_3b/relu_5x5
I0403 15:09:00.100610 31197 net.cpp:425] inception_3b/relu_5x5 <- inception_3b/5x5
I0403 15:09:00.100630 31197 net.cpp:386] inception_3b/relu_5x5 -> inception_3b/5x5 (in-place)
I0403 15:09:00.100824 31197 net.cpp:141] Setting up inception_3b/relu_5x5
I0403 15:09:00.100850 31197 net.cpp:148] Top shape: 24 96 28 28 (1806336)
I0403 15:09:00.100867 31197 net.cpp:156] Memory required for data: 744211488
I0403 15:09:00.100881 31197 layer_factory.hpp:77] Creating layer inception_3b/pool
I0403 15:09:00.100900 31197 net.cpp:91] Creating Layer inception_3b/pool
I0403 15:09:00.100917 31197 net.cpp:425] inception_3b/pool <- inception_3a/output_inception_3a/output_0_split_3
I0403 15:09:00.100936 31197 net.cpp:399] inception_3b/pool -> inception_3b/pool
I0403 15:09:00.100993 31197 net.cpp:141] Setting up inception_3b/pool
I0403 15:09:00.101016 31197 net.cpp:148] Top shape: 24 256 28 28 (4816896)
I0403 15:09:00.101032 31197 net.cpp:156] Memory required for data: 763479072
I0403 15:09:00.101047 31197 layer_factory.hpp:77] Creating layer inception_3b/pool_proj
I0403 15:09:00.101070 31197 net.cpp:91] Creating Layer inception_3b/pool_proj
I0403 15:09:00.101089 31197 net.cpp:425] inception_3b/pool_proj <- inception_3b/pool
I0403 15:09:00.101109 31197 net.cpp:399] inception_3b/pool_proj -> inception_3b/pool_proj
I0403 15:09:00.102185 31197 net.cpp:141] Setting up inception_3b/pool_proj
I0403 15:09:00.102216 31197 net.cpp:148] Top shape: 24 64 28 28 (1204224)
I0403 15:09:00.102232 31197 net.cpp:156] Memory required for data: 768295968
I0403 15:09:00.102252 31197 layer_factory.hpp:77] Creating layer inception_3b/relu_pool_proj
I0403 15:09:00.102270 31197 net.cpp:91] Creating Layer inception_3b/relu_pool_proj
I0403 15:09:00.102288 31197 net.cpp:425] inception_3b/relu_pool_proj <- inception_3b/pool_proj
I0403 15:09:00.102310 31197 net.cpp:386] inception_3b/relu_pool_proj -> inception_3b/pool_proj (in-place)
I0403 15:09:00.102723 31197 net.cpp:141] Setting up inception_3b/relu_pool_proj
I0403 15:09:00.102751 31197 net.cpp:148] Top shape: 24 64 28 28 (1204224)
I0403 15:09:00.102766 31197 net.cpp:156] Memory required for data: 773112864
I0403 15:09:00.102782 31197 layer_factory.hpp:77] Creating layer inception_3b/output
I0403 15:09:00.102803 31197 net.cpp:91] Creating Layer inception_3b/output
I0403 15:09:00.102820 31197 net.cpp:425] inception_3b/output <- inception_3b/1x1
I0403 15:09:00.102838 31197 net.cpp:425] inception_3b/output <- inception_3b/3x3
I0403 15:09:00.102854 31197 net.cpp:425] inception_3b/output <- inception_3b/5x5
I0403 15:09:00.102871 31197 net.cpp:425] inception_3b/output <- inception_3b/pool_proj
I0403 15:09:00.102888 31197 net.cpp:399] inception_3b/output -> inception_3b/output
I0403 15:09:00.102936 31197 net.cpp:141] Setting up inception_3b/output
I0403 15:09:00.102958 31197 net.cpp:148] Top shape: 24 480 28 28 (9031680)
I0403 15:09:00.102973 31197 net.cpp:156] Memory required for data: 809239584
I0403 15:09:00.102988 31197 layer_factory.hpp:77] Creating layer pool3/3x3_s2
I0403 15:09:00.103009 31197 net.cpp:91] Creating Layer pool3/3x3_s2
I0403 15:09:00.103027 31197 net.cpp:425] pool3/3x3_s2 <- inception_3b/output
I0403 15:09:00.103061 31197 net.cpp:399] pool3/3x3_s2 -> pool3/3x3_s2
I0403 15:09:00.103122 31197 net.cpp:141] Setting up pool3/3x3_s2
I0403 15:09:00.103147 31197 net.cpp:148] Top shape: 24 480 14 14 (2257920)
I0403 15:09:00.103162 31197 net.cpp:156] Memory required for data: 818271264
I0403 15:09:00.103178 31197 layer_factory.hpp:77] Creating layer pool3/3x3_s2_pool3/3x3_s2_0_split
I0403 15:09:00.103195 31197 net.cpp:91] Creating Layer pool3/3x3_s2_pool3/3x3_s2_0_split
I0403 15:09:00.103211 31197 net.cpp:425] pool3/3x3_s2_pool3/3x3_s2_0_split <- pool3/3x3_s2
I0403 15:09:00.103232 31197 net.cpp:399] pool3/3x3_s2_pool3/3x3_s2_0_split -> pool3/3x3_s2_pool3/3x3_s2_0_split_0
I0403 15:09:00.103253 31197 net.cpp:399] pool3/3x3_s2_pool3/3x3_s2_0_split -> pool3/3x3_s2_pool3/3x3_s2_0_split_1
I0403 15:09:00.103274 31197 net.cpp:399] pool3/3x3_s2_pool3/3x3_s2_0_split -> pool3/3x3_s2_pool3/3x3_s2_0_split_2
I0403 15:09:00.103296 31197 net.cpp:399] pool3/3x3_s2_pool3/3x3_s2_0_split -> pool3/3x3_s2_pool3/3x3_s2_0_split_3
I0403 15:09:00.103370 31197 net.cpp:141] Setting up pool3/3x3_s2_pool3/3x3_s2_0_split
I0403 15:09:00.103399 31197 net.cpp:148] Top shape: 24 480 14 14 (2257920)
I0403 15:09:00.103417 31197 net.cpp:148] Top shape: 24 480 14 14 (2257920)
I0403 15:09:00.103433 31197 net.cpp:148] Top shape: 24 480 14 14 (2257920)
I0403 15:09:00.103448 31197 net.cpp:148] Top shape: 24 480 14 14 (2257920)
I0403 15:09:00.103463 31197 net.cpp:156] Memory required for data: 854397984
I0403 15:09:00.103478 31197 layer_factory.hpp:77] Creating layer inception_4a/1x1
I0403 15:09:00.103502 31197 net.cpp:91] Creating Layer inception_4a/1x1
I0403 15:09:00.103519 31197 net.cpp:425] inception_4a/1x1 <- pool3/3x3_s2_pool3/3x3_s2_0_split_0
I0403 15:09:00.103550 31197 net.cpp:399] inception_4a/1x1 -> inception_4a/1x1
I0403 15:09:00.105149 31197 net.cpp:141] Setting up inception_4a/1x1
I0403 15:09:00.105176 31197 net.cpp:148] Top shape: 24 192 14 14 (903168)
I0403 15:09:00.105192 31197 net.cpp:156] Memory required for data: 858010656
I0403 15:09:00.105211 31197 layer_factory.hpp:77] Creating layer inception_4a/relu_1x1
I0403 15:09:00.105228 31197 net.cpp:91] Creating Layer inception_4a/relu_1x1
I0403 15:09:00.105245 31197 net.cpp:425] inception_4a/relu_1x1 <- inception_4a/1x1
I0403 15:09:00.105265 31197 net.cpp:386] inception_4a/relu_1x1 -> inception_4a/1x1 (in-place)
I0403 15:09:00.105438 31197 net.cpp:141] Setting up inception_4a/relu_1x1
I0403 15:09:00.105463 31197 net.cpp:148] Top shape: 24 192 14 14 (903168)
I0403 15:09:00.105479 31197 net.cpp:156] Memory required for data: 861623328
I0403 15:09:00.105494 31197 layer_factory.hpp:77] Creating layer inception_4a/3x3_reduce
I0403 15:09:00.105516 31197 net.cpp:91] Creating Layer inception_4a/3x3_reduce
I0403 15:09:00.105537 31197 net.cpp:425] inception_4a/3x3_reduce <- pool3/3x3_s2_pool3/3x3_s2_0_split_1
I0403 15:09:00.105561 31197 net.cpp:399] inception_4a/3x3_reduce -> inception_4a/3x3_reduce
I0403 15:09:00.106809 31197 net.cpp:141] Setting up inception_4a/3x3_reduce
I0403 15:09:00.106838 31197 net.cpp:148] Top shape: 24 96 14 14 (451584)
I0403 15:09:00.106855 31197 net.cpp:156] Memory required for data: 863429664
I0403 15:09:00.106880 31197 layer_factory.hpp:77] Creating layer inception_4a/relu_3x3_reduce
I0403 15:09:00.106901 31197 net.cpp:91] Creating Layer inception_4a/relu_3x3_reduce
I0403 15:09:00.106919 31197 net.cpp:425] inception_4a/relu_3x3_reduce <- inception_4a/3x3_reduce
I0403 15:09:00.106935 31197 net.cpp:386] inception_4a/relu_3x3_reduce -> inception_4a/3x3_reduce (in-place)
I0403 15:09:00.107106 31197 net.cpp:141] Setting up inception_4a/relu_3x3_reduce
I0403 15:09:00.107131 31197 net.cpp:148] Top shape: 24 96 14 14 (451584)
I0403 15:09:00.107146 31197 net.cpp:156] Memory required for data: 865236000
I0403 15:09:00.107161 31197 layer_factory.hpp:77] Creating layer inception_4a/3x3
I0403 15:09:00.107184 31197 net.cpp:91] Creating Layer inception_4a/3x3
I0403 15:09:00.107202 31197 net.cpp:425] inception_4a/3x3 <- inception_4a/3x3_reduce
I0403 15:09:00.107223 31197 net.cpp:399] inception_4a/3x3 -> inception_4a/3x3
I0403 15:09:00.109937 31197 net.cpp:141] Setting up inception_4a/3x3
I0403 15:09:00.109967 31197 net.cpp:148] Top shape: 24 208 14 14 (978432)
I0403 15:09:00.109984 31197 net.cpp:156] Memory required for data: 869149728
I0403 15:09:00.110002 31197 layer_factory.hpp:77] Creating layer inception_4a/relu_3x3
I0403 15:09:00.110024 31197 net.cpp:91] Creating Layer inception_4a/relu_3x3
I0403 15:09:00.110043 31197 net.cpp:425] inception_4a/relu_3x3 <- inception_4a/3x3
I0403 15:09:00.110059 31197 net.cpp:386] inception_4a/relu_3x3 -> inception_4a/3x3 (in-place)
I0403 15:09:00.110339 31197 net.cpp:141] Setting up inception_4a/relu_3x3
I0403 15:09:00.110366 31197 net.cpp:148] Top shape: 24 208 14 14 (978432)
I0403 15:09:00.110381 31197 net.cpp:156] Memory required for data: 873063456
I0403 15:09:00.110397 31197 layer_factory.hpp:77] Creating layer inception_4a/5x5_reduce
I0403 15:09:00.110419 31197 net.cpp:91] Creating Layer inception_4a/5x5_reduce
I0403 15:09:00.110438 31197 net.cpp:425] inception_4a/5x5_reduce <- pool3/3x3_s2_pool3/3x3_s2_0_split_2
I0403 15:09:00.110460 31197 net.cpp:399] inception_4a/5x5_reduce -> inception_4a/5x5_reduce
I0403 15:09:00.111495 31197 net.cpp:141] Setting up inception_4a/5x5_reduce
I0403 15:09:00.111521 31197 net.cpp:148] Top shape: 24 16 14 14 (75264)
I0403 15:09:00.111543 31197 net.cpp:156] Memory required for data: 873364512
I0403 15:09:00.111562 31197 layer_factory.hpp:77] Creating layer inception_4a/relu_5x5_reduce
I0403 15:09:00.111584 31197 net.cpp:91] Creating Layer inception_4a/relu_5x5_reduce
I0403 15:09:00.111601 31197 net.cpp:425] inception_4a/relu_5x5_reduce <- inception_4a/5x5_reduce
I0403 15:09:00.111623 31197 net.cpp:386] inception_4a/relu_5x5_reduce -> inception_4a/5x5_reduce (in-place)
I0403 15:09:00.111799 31197 net.cpp:141] Setting up inception_4a/relu_5x5_reduce
I0403 15:09:00.111832 31197 net.cpp:148] Top shape: 24 16 14 14 (75264)
I0403 15:09:00.111852 31197 net.cpp:156] Memory required for data: 873665568
I0403 15:09:00.111871 31197 layer_factory.hpp:77] Creating layer inception_4a/5x5
I0403 15:09:00.111892 31197 net.cpp:91] Creating Layer inception_4a/5x5
I0403 15:09:00.111910 31197 net.cpp:425] inception_4a/5x5 <- inception_4a/5x5_reduce
I0403 15:09:00.111929 31197 net.cpp:399] inception_4a/5x5 -> inception_4a/5x5
I0403 15:09:00.113003 31197 net.cpp:141] Setting up inception_4a/5x5
I0403 15:09:00.113034 31197 net.cpp:148] Top shape: 24 48 14 14 (225792)
I0403 15:09:00.113050 31197 net.cpp:156] Memory required for data: 874568736
I0403 15:09:00.113068 31197 layer_factory.hpp:77] Creating layer inception_4a/relu_5x5
I0403 15:09:00.113087 31197 net.cpp:91] Creating Layer inception_4a/relu_5x5
I0403 15:09:00.113104 31197 net.cpp:425] inception_4a/relu_5x5 <- inception_4a/5x5
I0403 15:09:00.113124 31197 net.cpp:386] inception_4a/relu_5x5 -> inception_4a/5x5 (in-place)
I0403 15:09:00.113322 31197 net.cpp:141] Setting up inception_4a/relu_5x5
I0403 15:09:00.113351 31197 net.cpp:148] Top shape: 24 48 14 14 (225792)
I0403 15:09:00.113366 31197 net.cpp:156] Memory required for data: 875471904
I0403 15:09:00.113384 31197 layer_factory.hpp:77] Creating layer inception_4a/pool
I0403 15:09:00.113402 31197 net.cpp:91] Creating Layer inception_4a/pool
I0403 15:09:00.113420 31197 net.cpp:425] inception_4a/pool <- pool3/3x3_s2_pool3/3x3_s2_0_split_3
I0403 15:09:00.113441 31197 net.cpp:399] inception_4a/pool -> inception_4a/pool
I0403 15:09:00.113517 31197 net.cpp:141] Setting up inception_4a/pool
I0403 15:09:00.113562 31197 net.cpp:148] Top shape: 24 480 14 14 (2257920)
I0403 15:09:00.113584 31197 net.cpp:156] Memory required for data: 884503584
I0403 15:09:00.113598 31197 layer_factory.hpp:77] Creating layer inception_4a/pool_proj
I0403 15:09:00.113625 31197 net.cpp:91] Creating Layer inception_4a/pool_proj
I0403 15:09:00.113642 31197 net.cpp:425] inception_4a/pool_proj <- inception_4a/pool
I0403 15:09:00.113662 31197 net.cpp:399] inception_4a/pool_proj -> inception_4a/pool_proj
I0403 15:09:00.114847 31197 net.cpp:141] Setting up inception_4a/pool_proj
I0403 15:09:00.114879 31197 net.cpp:148] Top shape: 24 64 14 14 (301056)
I0403 15:09:00.114909 31197 net.cpp:156] Memory required for data: 885707808
I0403 15:09:00.114930 31197 layer_factory.hpp:77] Creating layer inception_4a/relu_pool_proj
I0403 15:09:00.114948 31197 net.cpp:91] Creating Layer inception_4a/relu_pool_proj
I0403 15:09:00.114965 31197 net.cpp:425] inception_4a/relu_pool_proj <- inception_4a/pool_proj
I0403 15:09:00.114987 31197 net.cpp:386] inception_4a/relu_pool_proj -> inception_4a/pool_proj (in-place)
I0403 15:09:00.115274 31197 net.cpp:141] Setting up inception_4a/relu_pool_proj
I0403 15:09:00.115303 31197 net.cpp:148] Top shape: 24 64 14 14 (301056)
I0403 15:09:00.115320 31197 net.cpp:156] Memory required for data: 886912032
I0403 15:09:00.115335 31197 layer_factory.hpp:77] Creating layer inception_4a/output
I0403 15:09:00.115353 31197 net.cpp:91] Creating Layer inception_4a/output
I0403 15:09:00.115370 31197 net.cpp:425] inception_4a/output <- inception_4a/1x1
I0403 15:09:00.115387 31197 net.cpp:425] inception_4a/output <- inception_4a/3x3
I0403 15:09:00.115417 31197 net.cpp:425] inception_4a/output <- inception_4a/5x5
I0403 15:09:00.115435 31197 net.cpp:425] inception_4a/output <- inception_4a/pool_proj
I0403 15:09:00.115456 31197 net.cpp:399] inception_4a/output -> inception_4a/output
I0403 15:09:00.115502 31197 net.cpp:141] Setting up inception_4a/output
I0403 15:09:00.115526 31197 net.cpp:148] Top shape: 24 512 14 14 (2408448)
I0403 15:09:00.115547 31197 net.cpp:156] Memory required for data: 896545824
I0403 15:09:00.115564 31197 layer_factory.hpp:77] Creating layer inception_4a/output_inception_4a/output_0_split
I0403 15:09:00.115586 31197 net.cpp:91] Creating Layer inception_4a/output_inception_4a/output_0_split
I0403 15:09:00.115603 31197 net.cpp:425] inception_4a/output_inception_4a/output_0_split <- inception_4a/output
I0403 15:09:00.115622 31197 net.cpp:399] inception_4a/output_inception_4a/output_0_split -> inception_4a/output_inception_4a/output_0_split_0
I0403 15:09:00.115646 31197 net.cpp:399] inception_4a/output_inception_4a/output_0_split -> inception_4a/output_inception_4a/output_0_split_1
I0403 15:09:00.115669 31197 net.cpp:399] inception_4a/output_inception_4a/output_0_split -> inception_4a/output_inception_4a/output_0_split_2
I0403 15:09:00.115690 31197 net.cpp:399] inception_4a/output_inception_4a/output_0_split -> inception_4a/output_inception_4a/output_0_split_3
I0403 15:09:00.115711 31197 net.cpp:399] inception_4a/output_inception_4a/output_0_split -> inception_4a/output_inception_4a/output_0_split_4
I0403 15:09:00.115819 31197 net.cpp:141] Setting up inception_4a/output_inception_4a/output_0_split
I0403 15:09:00.115844 31197 net.cpp:148] Top shape: 24 512 14 14 (2408448)
I0403 15:09:00.115861 31197 net.cpp:148] Top shape: 24 512 14 14 (2408448)
I0403 15:09:00.115881 31197 net.cpp:148] Top shape: 24 512 14 14 (2408448)
I0403 15:09:00.115898 31197 net.cpp:148] Top shape: 24 512 14 14 (2408448)
I0403 15:09:00.115914 31197 net.cpp:148] Top shape: 24 512 14 14 (2408448)
I0403 15:09:00.115931 31197 net.cpp:156] Memory required for data: 944714784
I0403 15:09:00.115947 31197 layer_factory.hpp:77] Creating layer loss1/ave_pool
I0403 15:09:00.115968 31197 net.cpp:91] Creating Layer loss1/ave_pool
I0403 15:09:00.115988 31197 net.cpp:425] loss1/ave_pool <- inception_4a/output_inception_4a/output_0_split_0
I0403 15:09:00.116006 31197 net.cpp:399] loss1/ave_pool -> loss1/ave_pool
I0403 15:09:00.116219 31197 net.cpp:141] Setting up loss1/ave_pool
I0403 15:09:00.116250 31197 net.cpp:148] Top shape: 24 512 4 4 (196608)
I0403 15:09:00.116267 31197 net.cpp:156] Memory required for data: 945501216
I0403 15:09:00.116282 31197 layer_factory.hpp:77] Creating layer loss1/conv
I0403 15:09:00.116307 31197 net.cpp:91] Creating Layer loss1/conv
I0403 15:09:00.116324 31197 net.cpp:425] loss1/conv <- loss1/ave_pool
I0403 15:09:00.116344 31197 net.cpp:399] loss1/conv -> loss1/conv
I0403 15:09:00.117794 31197 net.cpp:141] Setting up loss1/conv
I0403 15:09:00.117823 31197 net.cpp:148] Top shape: 24 128 4 4 (49152)
I0403 15:09:00.117853 31197 net.cpp:156] Memory required for data: 945697824
I0403 15:09:00.117874 31197 layer_factory.hpp:77] Creating layer loss1/relu_conv
I0403 15:09:00.117895 31197 net.cpp:91] Creating Layer loss1/relu_conv
I0403 15:09:00.117913 31197 net.cpp:425] loss1/relu_conv <- loss1/conv
I0403 15:09:00.117931 31197 net.cpp:386] loss1/relu_conv -> loss1/conv (in-place)
I0403 15:09:00.118221 31197 net.cpp:141] Setting up loss1/relu_conv
I0403 15:09:00.118247 31197 net.cpp:148] Top shape: 24 128 4 4 (49152)
I0403 15:09:00.118264 31197 net.cpp:156] Memory required for data: 945894432
I0403 15:09:00.118280 31197 layer_factory.hpp:77] Creating layer loss1/fc
I0403 15:09:00.118309 31197 net.cpp:91] Creating Layer loss1/fc
I0403 15:09:00.118327 31197 net.cpp:425] loss1/fc <- loss1/conv
I0403 15:09:00.118347 31197 net.cpp:399] loss1/fc -> loss1/fc
I0403 15:09:00.136572 31197 net.cpp:141] Setting up loss1/fc
I0403 15:09:00.136607 31197 net.cpp:148] Top shape: 24 1024 (24576)
I0403 15:09:00.136625 31197 net.cpp:156] Memory required for data: 945992736
I0403 15:09:00.136643 31197 layer_factory.hpp:77] Creating layer loss1/relu_fc
I0403 15:09:00.136663 31197 net.cpp:91] Creating Layer loss1/relu_fc
I0403 15:09:00.136682 31197 net.cpp:425] loss1/relu_fc <- loss1/fc
I0403 15:09:00.136705 31197 net.cpp:386] loss1/relu_fc -> loss1/fc (in-place)
I0403 15:09:00.136898 31197 net.cpp:141] Setting up loss1/relu_fc
I0403 15:09:00.136934 31197 net.cpp:148] Top shape: 24 1024 (24576)
I0403 15:09:00.136950 31197 net.cpp:156] Memory required for data: 946091040
I0403 15:09:00.136981 31197 layer_factory.hpp:77] Creating layer loss1/drop_fc
I0403 15:09:00.137037 31197 net.cpp:91] Creating Layer loss1/drop_fc
I0403 15:09:00.137068 31197 net.cpp:425] loss1/drop_fc <- loss1/fc
I0403 15:09:00.137094 31197 net.cpp:386] loss1/drop_fc -> loss1/fc (in-place)
I0403 15:09:00.137169 31197 net.cpp:141] Setting up loss1/drop_fc
I0403 15:09:00.137197 31197 net.cpp:148] Top shape: 24 1024 (24576)
I0403 15:09:00.137214 31197 net.cpp:156] Memory required for data: 946189344
I0403 15:09:00.137231 31197 layer_factory.hpp:77] Creating layer loss1/classifier_plantvillage
I0403 15:09:00.137250 31197 net.cpp:91] Creating Layer loss1/classifier_plantvillage
I0403 15:09:00.137266 31197 net.cpp:425] loss1/classifier_plantvillage <- loss1/fc
I0403 15:09:00.137289 31197 net.cpp:399] loss1/classifier_plantvillage -> loss1/classifier_plantvillage
I0403 15:09:00.138224 31197 net.cpp:141] Setting up loss1/classifier_plantvillage
I0403 15:09:00.138253 31197 net.cpp:148] Top shape: 24 38 (912)
I0403 15:09:00.138270 31197 net.cpp:156] Memory required for data: 946192992
I0403 15:09:00.138314 31197 layer_factory.hpp:77] Creating layer loss1/classifier_plantvillage_loss1/classifier_plantvillage_0_split
I0403 15:09:00.138350 31197 net.cpp:91] Creating Layer loss1/classifier_plantvillage_loss1/classifier_plantvillage_0_split
I0403 15:09:00.138387 31197 net.cpp:425] loss1/classifier_plantvillage_loss1/classifier_plantvillage_0_split <- loss1/classifier_plantvillage
I0403 15:09:00.138422 31197 net.cpp:399] loss1/classifier_plantvillage_loss1/classifier_plantvillage_0_split -> loss1/classifier_plantvillage_loss1/classifier_plantvillage_0_split_0
I0403 15:09:00.138447 31197 net.cpp:399] loss1/classifier_plantvillage_loss1/classifier_plantvillage_0_split -> loss1/classifier_plantvillage_loss1/classifier_plantvillage_0_split_1
I0403 15:09:00.138484 31197 net.cpp:399] loss1/classifier_plantvillage_loss1/classifier_plantvillage_0_split -> loss1/classifier_plantvillage_loss1/classifier_plantvillage_0_split_2
I0403 15:09:00.138569 31197 net.cpp:141] Setting up loss1/classifier_plantvillage_loss1/classifier_plantvillage_0_split
I0403 15:09:00.138594 31197 net.cpp:148] Top shape: 24 38 (912)
I0403 15:09:00.138612 31197 net.cpp:148] Top shape: 24 38 (912)
I0403 15:09:00.138627 31197 net.cpp:148] Top shape: 24 38 (912)
I0403 15:09:00.138641 31197 net.cpp:156] Memory required for data: 946203936
I0403 15:09:00.138655 31197 layer_factory.hpp:77] Creating layer inception_4b/1x1
I0403 15:09:00.138679 31197 net.cpp:91] Creating Layer inception_4b/1x1
I0403 15:09:00.138712 31197 net.cpp:425] inception_4b/1x1 <- inception_4a/output_inception_4a/output_0_split_1
I0403 15:09:00.138734 31197 net.cpp:399] inception_4b/1x1 -> inception_4b/1x1
I0403 15:09:00.140406 31197 net.cpp:141] Setting up inception_4b/1x1
I0403 15:09:00.140439 31197 net.cpp:148] Top shape: 24 160 14 14 (752640)
I0403 15:09:00.140455 31197 net.cpp:156] Memory required for data: 949214496
I0403 15:09:00.140475 31197 layer_factory.hpp:77] Creating layer inception_4b/relu_1x1
I0403 15:09:00.140496 31197 net.cpp:91] Creating Layer inception_4b/relu_1x1
I0403 15:09:00.140516 31197 net.cpp:425] inception_4b/relu_1x1 <- inception_4b/1x1
I0403 15:09:00.140538 31197 net.cpp:386] inception_4b/relu_1x1 -> inception_4b/1x1 (in-place)
I0403 15:09:00.140724 31197 net.cpp:141] Setting up inception_4b/relu_1x1
I0403 15:09:00.140779 31197 net.cpp:148] Top shape: 24 160 14 14 (752640)
I0403 15:09:00.140805 31197 net.cpp:156] Memory required for data: 952225056
I0403 15:09:00.140828 31197 layer_factory.hpp:77] Creating layer inception_4b/3x3_reduce
I0403 15:09:00.140871 31197 net.cpp:91] Creating Layer inception_4b/3x3_reduce
I0403 15:09:00.140915 31197 net.cpp:425] inception_4b/3x3_reduce <- inception_4a/output_inception_4a/output_0_split_2
I0403 15:09:00.140936 31197 net.cpp:399] inception_4b/3x3_reduce -> inception_4b/3x3_reduce
I0403 15:09:00.142398 31197 net.cpp:141] Setting up inception_4b/3x3_reduce
I0403 15:09:00.142437 31197 net.cpp:148] Top shape: 24 112 14 14 (526848)
I0403 15:09:00.142455 31197 net.cpp:156] Memory required for data: 954332448
I0403 15:09:00.142474 31197 layer_factory.hpp:77] Creating layer inception_4b/relu_3x3_reduce
I0403 15:09:00.142494 31197 net.cpp:91] Creating Layer inception_4b/relu_3x3_reduce
I0403 15:09:00.142511 31197 net.cpp:425] inception_4b/relu_3x3_reduce <- inception_4b/3x3_reduce
I0403 15:09:00.142529 31197 net.cpp:386] inception_4b/relu_3x3_reduce -> inception_4b/3x3_reduce (in-place)
I0403 15:09:00.142823 31197 net.cpp:141] Setting up inception_4b/relu_3x3_reduce
I0403 15:09:00.142853 31197 net.cpp:148] Top shape: 24 112 14 14 (526848)
I0403 15:09:00.142869 31197 net.cpp:156] Memory required for data: 956439840
I0403 15:09:00.142884 31197 layer_factory.hpp:77] Creating layer inception_4b/3x3
I0403 15:09:00.142905 31197 net.cpp:91] Creating Layer inception_4b/3x3
I0403 15:09:00.142923 31197 net.cpp:425] inception_4b/3x3 <- inception_4b/3x3_reduce
I0403 15:09:00.142946 31197 net.cpp:399] inception_4b/3x3 -> inception_4b/3x3
I0403 15:09:00.145985 31197 net.cpp:141] Setting up inception_4b/3x3
I0403 15:09:00.146014 31197 net.cpp:148] Top shape: 24 224 14 14 (1053696)
I0403 15:09:00.146031 31197 net.cpp:156] Memory required for data: 960654624
I0403 15:09:00.146049 31197 layer_factory.hpp:77] Creating layer inception_4b/relu_3x3
I0403 15:09:00.146069 31197 net.cpp:91] Creating Layer inception_4b/relu_3x3
I0403 15:09:00.146085 31197 net.cpp:425] inception_4b/relu_3x3 <- inception_4b/3x3
I0403 15:09:00.146105 31197 net.cpp:386] inception_4b/relu_3x3 -> inception_4b/3x3 (in-place)
I0403 15:09:00.146288 31197 net.cpp:141] Setting up inception_4b/relu_3x3
I0403 15:09:00.146313 31197 net.cpp:148] Top shape: 24 224 14 14 (1053696)
I0403 15:09:00.146332 31197 net.cpp:156] Memory required for data: 964869408
I0403 15:09:00.146347 31197 layer_factory.hpp:77] Creating layer inception_4b/5x5_reduce
I0403 15:09:00.146368 31197 net.cpp:91] Creating Layer inception_4b/5x5_reduce
I0403 15:09:00.146385 31197 net.cpp:425] inception_4b/5x5_reduce <- inception_4a/output_inception_4a/output_0_split_3
I0403 15:09:00.146407 31197 net.cpp:399] inception_4b/5x5_reduce -> inception_4b/5x5_reduce
I0403 15:09:00.147575 31197 net.cpp:141] Setting up inception_4b/5x5_reduce
I0403 15:09:00.147603 31197 net.cpp:148] Top shape: 24 24 14 14 (112896)
I0403 15:09:00.147619 31197 net.cpp:156] Memory required for data: 965320992
I0403 15:09:00.147639 31197 layer_factory.hpp:77] Creating layer inception_4b/relu_5x5_reduce
I0403 15:09:00.147673 31197 net.cpp:91] Creating Layer inception_4b/relu_5x5_reduce
I0403 15:09:00.147714 31197 net.cpp:425] inception_4b/relu_5x5_reduce <- inception_4b/5x5_reduce
I0403 15:09:00.147747 31197 net.cpp:386] inception_4b/relu_5x5_reduce -> inception_4b/5x5_reduce (in-place)
I0403 15:09:00.147933 31197 net.cpp:141] Setting up inception_4b/relu_5x5_reduce
I0403 15:09:00.147960 31197 net.cpp:148] Top shape: 24 24 14 14 (112896)
I0403 15:09:00.147976 31197 net.cpp:156] Memory required for data: 965772576
I0403 15:09:00.147992 31197 layer_factory.hpp:77] Creating layer inception_4b/5x5
I0403 15:09:00.148015 31197 net.cpp:91] Creating Layer inception_4b/5x5
I0403 15:09:00.148032 31197 net.cpp:425] inception_4b/5x5 <- inception_4b/5x5_reduce
I0403 15:09:00.148051 31197 net.cpp:399] inception_4b/5x5 -> inception_4b/5x5
I0403 15:09:00.149411 31197 net.cpp:141] Setting up inception_4b/5x5
I0403 15:09:00.149440 31197 net.cpp:148] Top shape: 24 64 14 14 (301056)
I0403 15:09:00.149456 31197 net.cpp:156] Memory required for data: 966976800
I0403 15:09:00.149473 31197 layer_factory.hpp:77] Creating layer inception_4b/relu_5x5
I0403 15:09:00.149494 31197 net.cpp:91] Creating Layer inception_4b/relu_5x5
I0403 15:09:00.149513 31197 net.cpp:425] inception_4b/relu_5x5 <- inception_4b/5x5
I0403 15:09:00.149530 31197 net.cpp:386] inception_4b/relu_5x5 -> inception_4b/5x5 (in-place)
I0403 15:09:00.149821 31197 net.cpp:141] Setting up inception_4b/relu_5x5
I0403 15:09:00.149848 31197 net.cpp:148] Top shape: 24 64 14 14 (301056)
I0403 15:09:00.149863 31197 net.cpp:156] Memory required for data: 968181024
I0403 15:09:00.149878 31197 layer_factory.hpp:77] Creating layer inception_4b/pool
I0403 15:09:00.149901 31197 net.cpp:91] Creating Layer inception_4b/pool
I0403 15:09:00.149920 31197 net.cpp:425] inception_4b/pool <- inception_4a/output_inception_4a/output_0_split_4
I0403 15:09:00.149940 31197 net.cpp:399] inception_4b/pool -> inception_4b/pool
I0403 15:09:00.150003 31197 net.cpp:141] Setting up inception_4b/pool
I0403 15:09:00.150048 31197 net.cpp:148] Top shape: 24 512 14 14 (2408448)
I0403 15:09:00.150092 31197 net.cpp:156] Memory required for data: 977814816
I0403 15:09:00.150109 31197 layer_factory.hpp:77] Creating layer inception_4b/pool_proj
I0403 15:09:00.150131 31197 net.cpp:91] Creating Layer inception_4b/pool_proj
I0403 15:09:00.150163 31197 net.cpp:425] inception_4b/pool_proj <- inception_4b/pool
I0403 15:09:00.150202 31197 net.cpp:399] inception_4b/pool_proj -> inception_4b/pool_proj
I0403 15:09:00.151437 31197 net.cpp:141] Setting up inception_4b/pool_proj
I0403 15:09:00.151465 31197 net.cpp:148] Top shape: 24 64 14 14 (301056)
I0403 15:09:00.151481 31197 net.cpp:156] Memory required for data: 979019040
I0403 15:09:00.151500 31197 layer_factory.hpp:77] Creating layer inception_4b/relu_pool_proj
I0403 15:09:00.151521 31197 net.cpp:91] Creating Layer inception_4b/relu_pool_proj
I0403 15:09:00.151543 31197 net.cpp:425] inception_4b/relu_pool_proj <- inception_4b/pool_proj
I0403 15:09:00.151563 31197 net.cpp:386] inception_4b/relu_pool_proj -> inception_4b/pool_proj (in-place)
I0403 15:09:00.151743 31197 net.cpp:141] Setting up inception_4b/relu_pool_proj
I0403 15:09:00.151770 31197 net.cpp:148] Top shape: 24 64 14 14 (301056)
I0403 15:09:00.151785 31197 net.cpp:156] Memory required for data: 980223264
I0403 15:09:00.151800 31197 layer_factory.hpp:77] Creating layer inception_4b/output
I0403 15:09:00.151818 31197 net.cpp:91] Creating Layer inception_4b/output
I0403 15:09:00.151834 31197 net.cpp:425] inception_4b/output <- inception_4b/1x1
I0403 15:09:00.151851 31197 net.cpp:425] inception_4b/output <- inception_4b/3x3
I0403 15:09:00.151867 31197 net.cpp:425] inception_4b/output <- inception_4b/5x5
I0403 15:09:00.151883 31197 net.cpp:425] inception_4b/output <- inception_4b/pool_proj
I0403 15:09:00.151901 31197 net.cpp:399] inception_4b/output -> inception_4b/output
I0403 15:09:00.151947 31197 net.cpp:141] Setting up inception_4b/output
I0403 15:09:00.151971 31197 net.cpp:148] Top shape: 24 512 14 14 (2408448)
I0403 15:09:00.151986 31197 net.cpp:156] Memory required for data: 989857056
I0403 15:09:00.152015 31197 layer_factory.hpp:77] Creating layer inception_4b/output_inception_4b/output_0_split
I0403 15:09:00.152036 31197 net.cpp:91] Creating Layer inception_4b/output_inception_4b/output_0_split
I0403 15:09:00.152053 31197 net.cpp:425] inception_4b/output_inception_4b/output_0_split <- inception_4b/output
I0403 15:09:00.152071 31197 net.cpp:399] inception_4b/output_inception_4b/output_0_split -> inception_4b/output_inception_4b/output_0_split_0
I0403 15:09:00.152091 31197 net.cpp:399] inception_4b/output_inception_4b/output_0_split -> inception_4b/output_inception_4b/output_0_split_1
I0403 15:09:00.152112 31197 net.cpp:399] inception_4b/output_inception_4b/output_0_split -> inception_4b/output_inception_4b/output_0_split_2
I0403 15:09:00.152132 31197 net.cpp:399] inception_4b/output_inception_4b/output_0_split -> inception_4b/output_inception_4b/output_0_split_3
I0403 15:09:00.152215 31197 net.cpp:141] Setting up inception_4b/output_inception_4b/output_0_split
I0403 15:09:00.152238 31197 net.cpp:148] Top shape: 24 512 14 14 (2408448)
I0403 15:09:00.152254 31197 net.cpp:148] Top shape: 24 512 14 14 (2408448)
I0403 15:09:00.152271 31197 net.cpp:148] Top shape: 24 512 14 14 (2408448)
I0403 15:09:00.152286 31197 net.cpp:148] Top shape: 24 512 14 14 (2408448)
I0403 15:09:00.152299 31197 net.cpp:156] Memory required for data: 1028392224
I0403 15:09:00.152314 31197 layer_factory.hpp:77] Creating layer inception_4c/1x1
I0403 15:09:00.152335 31197 net.cpp:91] Creating Layer inception_4c/1x1
I0403 15:09:00.152354 31197 net.cpp:425] inception_4c/1x1 <- inception_4b/output_inception_4b/output_0_split_0
I0403 15:09:00.152374 31197 net.cpp:399] inception_4c/1x1 -> inception_4c/1x1
I0403 15:09:00.153812 31197 net.cpp:141] Setting up inception_4c/1x1
I0403 15:09:00.153844 31197 net.cpp:148] Top shape: 24 128 14 14 (602112)
I0403 15:09:00.153861 31197 net.cpp:156] Memory required for data: 1030800672
I0403 15:09:00.153879 31197 layer_factory.hpp:77] Creating layer inception_4c/relu_1x1
I0403 15:09:00.153898 31197 net.cpp:91] Creating Layer inception_4c/relu_1x1
I0403 15:09:00.153914 31197 net.cpp:425] inception_4c/relu_1x1 <- inception_4c/1x1
I0403 15:09:00.153934 31197 net.cpp:386] inception_4c/relu_1x1 -> inception_4c/1x1 (in-place)
I0403 15:09:00.154114 31197 net.cpp:141] Setting up inception_4c/relu_1x1
I0403 15:09:00.154139 31197 net.cpp:148] Top shape: 24 128 14 14 (602112)
I0403 15:09:00.154155 31197 net.cpp:156] Memory required for data: 1033209120
I0403 15:09:00.154168 31197 layer_factory.hpp:77] Creating layer inception_4c/3x3_reduce
I0403 15:09:00.154191 31197 net.cpp:91] Creating Layer inception_4c/3x3_reduce
I0403 15:09:00.154209 31197 net.cpp:425] inception_4c/3x3_reduce <- inception_4b/output_inception_4b/output_0_split_1
I0403 15:09:00.154233 31197 net.cpp:399] inception_4c/3x3_reduce -> inception_4c/3x3_reduce
I0403 15:09:00.156271 31197 net.cpp:141] Setting up inception_4c/3x3_reduce
I0403 15:09:00.156301 31197 net.cpp:148] Top shape: 24 128 14 14 (602112)
I0403 15:09:00.156317 31197 net.cpp:156] Memory required for data: 1035617568
I0403 15:09:00.156337 31197 layer_factory.hpp:77] Creating layer inception_4c/relu_3x3_reduce
I0403 15:09:00.156358 31197 net.cpp:91] Creating Layer inception_4c/relu_3x3_reduce
I0403 15:09:00.156375 31197 net.cpp:425] inception_4c/relu_3x3_reduce <- inception_4c/3x3_reduce
I0403 15:09:00.156393 31197 net.cpp:386] inception_4c/relu_3x3_reduce -> inception_4c/3x3_reduce (in-place)
I0403 15:09:00.156687 31197 net.cpp:141] Setting up inception_4c/relu_3x3_reduce
I0403 15:09:00.156714 31197 net.cpp:148] Top shape: 24 128 14 14 (602112)
I0403 15:09:00.156729 31197 net.cpp:156] Memory required for data: 1038026016
I0403 15:09:00.156744 31197 layer_factory.hpp:77] Creating layer inception_4c/3x3
I0403 15:09:00.156767 31197 net.cpp:91] Creating Layer inception_4c/3x3
I0403 15:09:00.156785 31197 net.cpp:425] inception_4c/3x3 <- inception_4c/3x3_reduce
I0403 15:09:00.156806 31197 net.cpp:399] inception_4c/3x3 -> inception_4c/3x3
I0403 15:09:00.160444 31197 net.cpp:141] Setting up inception_4c/3x3
I0403 15:09:00.160486 31197 net.cpp:148] Top shape: 24 256 14 14 (1204224)
I0403 15:09:00.160502 31197 net.cpp:156] Memory required for data: 1042842912
I0403 15:09:00.160538 31197 layer_factory.hpp:77] Creating layer inception_4c/relu_3x3
I0403 15:09:00.160562 31197 net.cpp:91] Creating Layer inception_4c/relu_3x3
I0403 15:09:00.160580 31197 net.cpp:425] inception_4c/relu_3x3 <- inception_4c/3x3
I0403 15:09:00.160598 31197 net.cpp:386] inception_4c/relu_3x3 -> inception_4c/3x3 (in-place)
I0403 15:09:00.160778 31197 net.cpp:141] Setting up inception_4c/relu_3x3
I0403 15:09:00.160802 31197 net.cpp:148] Top shape: 24 256 14 14 (1204224)
I0403 15:09:00.160817 31197 net.cpp:156] Memory required for data: 1047659808
I0403 15:09:00.160832 31197 layer_factory.hpp:77] Creating layer inception_4c/5x5_reduce
I0403 15:09:00.160856 31197 net.cpp:91] Creating Layer inception_4c/5x5_reduce
I0403 15:09:00.160873 31197 net.cpp:425] inception_4c/5x5_reduce <- inception_4b/output_inception_4b/output_0_split_2
I0403 15:09:00.160897 31197 net.cpp:399] inception_4c/5x5_reduce -> inception_4c/5x5_reduce
I0403 15:09:00.161994 31197 net.cpp:141] Setting up inception_4c/5x5_reduce
I0403 15:09:00.162024 31197 net.cpp:148] Top shape: 24 24 14 14 (112896)
I0403 15:09:00.162040 31197 net.cpp:156] Memory required for data: 1048111392
I0403 15:09:00.162058 31197 layer_factory.hpp:77] Creating layer inception_4c/relu_5x5_reduce
I0403 15:09:00.162080 31197 net.cpp:91] Creating Layer inception_4c/relu_5x5_reduce
I0403 15:09:00.162096 31197 net.cpp:425] inception_4c/relu_5x5_reduce <- inception_4c/5x5_reduce
I0403 15:09:00.162114 31197 net.cpp:386] inception_4c/relu_5x5_reduce -> inception_4c/5x5_reduce (in-place)
I0403 15:09:00.162298 31197 net.cpp:141] Setting up inception_4c/relu_5x5_reduce
I0403 15:09:00.162325 31197 net.cpp:148] Top shape: 24 24 14 14 (112896)
I0403 15:09:00.162341 31197 net.cpp:156] Memory required for data: 1048562976
I0403 15:09:00.162356 31197 layer_factory.hpp:77] Creating layer inception_4c/5x5
I0403 15:09:00.162379 31197 net.cpp:91] Creating Layer inception_4c/5x5
I0403 15:09:00.162396 31197 net.cpp:425] inception_4c/5x5 <- inception_4c/5x5_reduce
I0403 15:09:00.162415 31197 net.cpp:399] inception_4c/5x5 -> inception_4c/5x5
I0403 15:09:00.163679 31197 net.cpp:141] Setting up inception_4c/5x5
I0403 15:09:00.163710 31197 net.cpp:148] Top shape: 24 64 14 14 (301056)
I0403 15:09:00.163727 31197 net.cpp:156] Memory required for data: 1049767200
I0403 15:09:00.163744 31197 layer_factory.hpp:77] Creating layer inception_4c/relu_5x5
I0403 15:09:00.163763 31197 net.cpp:91] Creating Layer inception_4c/relu_5x5
I0403 15:09:00.163780 31197 net.cpp:425] inception_4c/relu_5x5 <- inception_4c/5x5
I0403 15:09:00.163799 31197 net.cpp:386] inception_4c/relu_5x5 -> inception_4c/5x5 (in-place)
I0403 15:09:00.164089 31197 net.cpp:141] Setting up inception_4c/relu_5x5
I0403 15:09:00.164119 31197 net.cpp:148] Top shape: 24 64 14 14 (301056)
I0403 15:09:00.164134 31197 net.cpp:156] Memory required for data: 1050971424
I0403 15:09:00.164149 31197 layer_factory.hpp:77] Creating layer inception_4c/pool
I0403 15:09:00.164167 31197 net.cpp:91] Creating Layer inception_4c/pool
I0403 15:09:00.164185 31197 net.cpp:425] inception_4c/pool <- inception_4b/output_inception_4b/output_0_split_3
I0403 15:09:00.164206 31197 net.cpp:399] inception_4c/pool -> inception_4c/pool
I0403 15:09:00.164270 31197 net.cpp:141] Setting up inception_4c/pool
I0403 15:09:00.164294 31197 net.cpp:148] Top shape: 24 512 14 14 (2408448)
I0403 15:09:00.164309 31197 net.cpp:156] Memory required for data: 1060605216
I0403 15:09:00.164324 31197 layer_factory.hpp:77] Creating layer inception_4c/pool_proj
I0403 15:09:00.164346 31197 net.cpp:91] Creating Layer inception_4c/pool_proj
I0403 15:09:00.164364 31197 net.cpp:425] inception_4c/pool_proj <- inception_4c/pool
I0403 15:09:00.164386 31197 net.cpp:399] inception_4c/pool_proj -> inception_4c/pool_proj
I0403 15:09:00.165629 31197 net.cpp:141] Setting up inception_4c/pool_proj
I0403 15:09:00.165657 31197 net.cpp:148] Top shape: 24 64 14 14 (301056)
I0403 15:09:00.165688 31197 net.cpp:156] Memory required for data: 1061809440
I0403 15:09:00.165707 31197 layer_factory.hpp:77] Creating layer inception_4c/relu_pool_proj
I0403 15:09:00.165729 31197 net.cpp:91] Creating Layer inception_4c/relu_pool_proj
I0403 15:09:00.165746 31197 net.cpp:425] inception_4c/relu_pool_proj <- inception_4c/pool_proj
I0403 15:09:00.165765 31197 net.cpp:386] inception_4c/relu_pool_proj -> inception_4c/pool_proj (in-place)
I0403 15:09:00.165946 31197 net.cpp:141] Setting up inception_4c/relu_pool_proj
I0403 15:09:00.165972 31197 net.cpp:148] Top shape: 24 64 14 14 (301056)
I0403 15:09:00.165987 31197 net.cpp:156] Memory required for data: 1063013664
I0403 15:09:00.166002 31197 layer_factory.hpp:77] Creating layer inception_4c/output
I0403 15:09:00.166019 31197 net.cpp:91] Creating Layer inception_4c/output
I0403 15:09:00.166035 31197 net.cpp:425] inception_4c/output <- inception_4c/1x1
I0403 15:09:00.166051 31197 net.cpp:425] inception_4c/output <- inception_4c/3x3
I0403 15:09:00.166067 31197 net.cpp:425] inception_4c/output <- inception_4c/5x5
I0403 15:09:00.166084 31197 net.cpp:425] inception_4c/output <- inception_4c/pool_proj
I0403 15:09:00.166101 31197 net.cpp:399] inception_4c/output -> inception_4c/output
I0403 15:09:00.166149 31197 net.cpp:141] Setting up inception_4c/output
I0403 15:09:00.166173 31197 net.cpp:148] Top shape: 24 512 14 14 (2408448)
I0403 15:09:00.166188 31197 net.cpp:156] Memory required for data: 1072647456
I0403 15:09:00.166203 31197 layer_factory.hpp:77] Creating layer inception_4c/output_inception_4c/output_0_split
I0403 15:09:00.166224 31197 net.cpp:91] Creating Layer inception_4c/output_inception_4c/output_0_split
I0403 15:09:00.166240 31197 net.cpp:425] inception_4c/output_inception_4c/output_0_split <- inception_4c/output
I0403 15:09:00.166259 31197 net.cpp:399] inception_4c/output_inception_4c/output_0_split -> inception_4c/output_inception_4c/output_0_split_0
I0403 15:09:00.166278 31197 net.cpp:399] inception_4c/output_inception_4c/output_0_split -> inception_4c/output_inception_4c/output_0_split_1
I0403 15:09:00.166299 31197 net.cpp:399] inception_4c/output_inception_4c/output_0_split -> inception_4c/output_inception_4c/output_0_split_2
I0403 15:09:00.166321 31197 net.cpp:399] inception_4c/output_inception_4c/output_0_split -> inception_4c/output_inception_4c/output_0_split_3
I0403 15:09:00.166405 31197 net.cpp:141] Setting up inception_4c/output_inception_4c/output_0_split
I0403 15:09:00.166429 31197 net.cpp:148] Top shape: 24 512 14 14 (2408448)
I0403 15:09:00.166445 31197 net.cpp:148] Top shape: 24 512 14 14 (2408448)
I0403 15:09:00.166461 31197 net.cpp:148] Top shape: 24 512 14 14 (2408448)
I0403 15:09:00.166476 31197 net.cpp:148] Top shape: 24 512 14 14 (2408448)
I0403 15:09:00.166491 31197 net.cpp:156] Memory required for data: 1111182624
I0403 15:09:00.166506 31197 layer_factory.hpp:77] Creating layer inception_4d/1x1
I0403 15:09:00.166528 31197 net.cpp:91] Creating Layer inception_4d/1x1
I0403 15:09:00.166550 31197 net.cpp:425] inception_4d/1x1 <- inception_4c/output_inception_4c/output_0_split_0
I0403 15:09:00.166573 31197 net.cpp:399] inception_4d/1x1 -> inception_4d/1x1
I0403 15:09:00.167950 31197 net.cpp:141] Setting up inception_4d/1x1
I0403 15:09:00.167979 31197 net.cpp:148] Top shape: 24 112 14 14 (526848)
I0403 15:09:00.167994 31197 net.cpp:156] Memory required for data: 1113290016
I0403 15:09:00.168012 31197 layer_factory.hpp:77] Creating layer inception_4d/relu_1x1
I0403 15:09:00.168031 31197 net.cpp:91] Creating Layer inception_4d/relu_1x1
I0403 15:09:00.168047 31197 net.cpp:425] inception_4d/relu_1x1 <- inception_4d/1x1
I0403 15:09:00.168067 31197 net.cpp:386] inception_4d/relu_1x1 -> inception_4d/1x1 (in-place)
I0403 15:09:00.168252 31197 net.cpp:141] Setting up inception_4d/relu_1x1
I0403 15:09:00.168279 31197 net.cpp:148] Top shape: 24 112 14 14 (526848)
I0403 15:09:00.168294 31197 net.cpp:156] Memory required for data: 1115397408
I0403 15:09:00.168309 31197 layer_factory.hpp:77] Creating layer inception_4d/3x3_reduce
I0403 15:09:00.168345 31197 net.cpp:91] Creating Layer inception_4d/3x3_reduce
I0403 15:09:00.168364 31197 net.cpp:425] inception_4d/3x3_reduce <- inception_4c/output_inception_4c/output_0_split_1
I0403 15:09:00.168385 31197 net.cpp:399] inception_4d/3x3_reduce -> inception_4d/3x3_reduce
I0403 15:09:00.169905 31197 net.cpp:141] Setting up inception_4d/3x3_reduce
I0403 15:09:00.169936 31197 net.cpp:148] Top shape: 24 144 14 14 (677376)
I0403 15:09:00.169952 31197 net.cpp:156] Memory required for data: 1118106912
I0403 15:09:00.169971 31197 layer_factory.hpp:77] Creating layer inception_4d/relu_3x3_reduce
I0403 15:09:00.169991 31197 net.cpp:91] Creating Layer inception_4d/relu_3x3_reduce
I0403 15:09:00.170006 31197 net.cpp:425] inception_4d/relu_3x3_reduce <- inception_4d/3x3_reduce
I0403 15:09:00.170025 31197 net.cpp:386] inception_4d/relu_3x3_reduce -> inception_4d/3x3_reduce (in-place)
I0403 15:09:00.170430 31197 net.cpp:141] Setting up inception_4d/relu_3x3_reduce
I0403 15:09:00.170459 31197 net.cpp:148] Top shape: 24 144 14 14 (677376)
I0403 15:09:00.170475 31197 net.cpp:156] Memory required for data: 1120816416
I0403 15:09:00.170490 31197 layer_factory.hpp:77] Creating layer inception_4d/3x3
I0403 15:09:00.170513 31197 net.cpp:91] Creating Layer inception_4d/3x3
I0403 15:09:00.170531 31197 net.cpp:425] inception_4d/3x3 <- inception_4d/3x3_reduce
I0403 15:09:00.170555 31197 net.cpp:399] inception_4d/3x3 -> inception_4d/3x3
I0403 15:09:00.174890 31197 net.cpp:141] Setting up inception_4d/3x3
I0403 15:09:00.174939 31197 net.cpp:148] Top shape: 24 288 14 14 (1354752)
I0403 15:09:00.174986 31197 net.cpp:156] Memory required for data: 1126235424
I0403 15:09:00.175029 31197 layer_factory.hpp:77] Creating layer inception_4d/relu_3x3
I0403 15:09:00.175051 31197 net.cpp:91] Creating Layer inception_4d/relu_3x3
I0403 15:09:00.175099 31197 net.cpp:425] inception_4d/relu_3x3 <- inception_4d/3x3
I0403 15:09:00.175117 31197 net.cpp:386] inception_4d/relu_3x3 -> inception_4d/3x3 (in-place)
I0403 15:09:00.175300 31197 net.cpp:141] Setting up inception_4d/relu_3x3
I0403 15:09:00.175328 31197 net.cpp:148] Top shape: 24 288 14 14 (1354752)
I0403 15:09:00.175348 31197 net.cpp:156] Memory required for data: 1131654432
I0403 15:09:00.175395 31197 layer_factory.hpp:77] Creating layer inception_4d/5x5_reduce
I0403 15:09:00.175436 31197 net.cpp:91] Creating Layer inception_4d/5x5_reduce
I0403 15:09:00.175456 31197 net.cpp:425] inception_4d/5x5_reduce <- inception_4c/output_inception_4c/output_0_split_2
I0403 15:09:00.175475 31197 net.cpp:399] inception_4d/5x5_reduce -> inception_4d/5x5_reduce
I0403 15:09:00.176628 31197 net.cpp:141] Setting up inception_4d/5x5_reduce
I0403 15:09:00.176657 31197 net.cpp:148] Top shape: 24 32 14 14 (150528)
I0403 15:09:00.176673 31197 net.cpp:156] Memory required for data: 1132256544
I0403 15:09:00.176692 31197 layer_factory.hpp:77] Creating layer inception_4d/relu_5x5_reduce
I0403 15:09:00.176712 31197 net.cpp:91] Creating Layer inception_4d/relu_5x5_reduce
I0403 15:09:00.176728 31197 net.cpp:425] inception_4d/relu_5x5_reduce <- inception_4d/5x5_reduce
I0403 15:09:00.176748 31197 net.cpp:386] inception_4d/relu_5x5_reduce -> inception_4d/5x5_reduce (in-place)
I0403 15:09:00.176937 31197 net.cpp:141] Setting up inception_4d/relu_5x5_reduce
I0403 15:09:00.176964 31197 net.cpp:148] Top shape: 24 32 14 14 (150528)
I0403 15:09:00.176977 31197 net.cpp:156] Memory required for data: 1132858656
I0403 15:09:00.176992 31197 layer_factory.hpp:77] Creating layer inception_4d/5x5
I0403 15:09:00.177014 31197 net.cpp:91] Creating Layer inception_4d/5x5
I0403 15:09:00.177032 31197 net.cpp:425] inception_4d/5x5 <- inception_4d/5x5_reduce
I0403 15:09:00.177054 31197 net.cpp:399] inception_4d/5x5 -> inception_4d/5x5
I0403 15:09:00.178630 31197 net.cpp:141] Setting up inception_4d/5x5
I0403 15:09:00.178661 31197 net.cpp:148] Top shape: 24 64 14 14 (301056)
I0403 15:09:00.178678 31197 net.cpp:156] Memory required for data: 1134062880
I0403 15:09:00.178696 31197 layer_factory.hpp:77] Creating layer inception_4d/relu_5x5
I0403 15:09:00.178730 31197 net.cpp:91] Creating Layer inception_4d/relu_5x5
I0403 15:09:00.178748 31197 net.cpp:425] inception_4d/relu_5x5 <- inception_4d/5x5
I0403 15:09:00.178766 31197 net.cpp:386] inception_4d/relu_5x5 -> inception_4d/5x5 (in-place)
I0403 15:09:00.179076 31197 net.cpp:141] Setting up inception_4d/relu_5x5
I0403 15:09:00.179105 31197 net.cpp:148] Top shape: 24 64 14 14 (301056)
I0403 15:09:00.179121 31197 net.cpp:156] Memory required for data: 1135267104
I0403 15:09:00.179137 31197 layer_factory.hpp:77] Creating layer inception_4d/pool
I0403 15:09:00.179155 31197 net.cpp:91] Creating Layer inception_4d/pool
I0403 15:09:00.179172 31197 net.cpp:425] inception_4d/pool <- inception_4c/output_inception_4c/output_0_split_3
I0403 15:09:00.179189 31197 net.cpp:399] inception_4d/pool -> inception_4d/pool
I0403 15:09:00.179257 31197 net.cpp:141] Setting up inception_4d/pool
I0403 15:09:00.179281 31197 net.cpp:148] Top shape: 24 512 14 14 (2408448)
I0403 15:09:00.179297 31197 net.cpp:156] Memory required for data: 1144900896
I0403 15:09:00.179312 31197 layer_factory.hpp:77] Creating layer inception_4d/pool_proj
I0403 15:09:00.179334 31197 net.cpp:91] Creating Layer inception_4d/pool_proj
I0403 15:09:00.179352 31197 net.cpp:425] inception_4d/pool_proj <- inception_4d/pool
I0403 15:09:00.179373 31197 net.cpp:399] inception_4d/pool_proj -> inception_4d/pool_proj
I0403 15:09:00.181166 31197 net.cpp:141] Setting up inception_4d/pool_proj
I0403 15:09:00.181196 31197 net.cpp:148] Top shape: 24 64 14 14 (301056)
I0403 15:09:00.181212 31197 net.cpp:156] Memory required for data: 1146105120
I0403 15:09:00.181231 31197 layer_factory.hpp:77] Creating layer inception_4d/relu_pool_proj
I0403 15:09:00.181252 31197 net.cpp:91] Creating Layer inception_4d/relu_pool_proj
I0403 15:09:00.181269 31197 net.cpp:425] inception_4d/relu_pool_proj <- inception_4d/pool_proj
I0403 15:09:00.181288 31197 net.cpp:386] inception_4d/relu_pool_proj -> inception_4d/pool_proj (in-place)
I0403 15:09:00.181473 31197 net.cpp:141] Setting up inception_4d/relu_pool_proj
I0403 15:09:00.181498 31197 net.cpp:148] Top shape: 24 64 14 14 (301056)
I0403 15:09:00.181512 31197 net.cpp:156] Memory required for data: 1147309344
I0403 15:09:00.181527 31197 layer_factory.hpp:77] Creating layer inception_4d/output
I0403 15:09:00.181551 31197 net.cpp:91] Creating Layer inception_4d/output
I0403 15:09:00.181571 31197 net.cpp:425] inception_4d/output <- inception_4d/1x1
I0403 15:09:00.181588 31197 net.cpp:425] inception_4d/output <- inception_4d/3x3
I0403 15:09:00.181605 31197 net.cpp:425] inception_4d/output <- inception_4d/5x5
I0403 15:09:00.181622 31197 net.cpp:425] inception_4d/output <- inception_4d/pool_proj
I0403 15:09:00.181639 31197 net.cpp:399] inception_4d/output -> inception_4d/output
I0403 15:09:00.181687 31197 net.cpp:141] Setting up inception_4d/output
I0403 15:09:00.181711 31197 net.cpp:148] Top shape: 24 528 14 14 (2483712)
I0403 15:09:00.181726 31197 net.cpp:156] Memory required for data: 1157244192
I0403 15:09:00.181741 31197 layer_factory.hpp:77] Creating layer inception_4d/output_inception_4d/output_0_split
I0403 15:09:00.181758 31197 net.cpp:91] Creating Layer inception_4d/output_inception_4d/output_0_split
I0403 15:09:00.181774 31197 net.cpp:425] inception_4d/output_inception_4d/output_0_split <- inception_4d/output
I0403 15:09:00.181794 31197 net.cpp:399] inception_4d/output_inception_4d/output_0_split -> inception_4d/output_inception_4d/output_0_split_0
I0403 15:09:00.181816 31197 net.cpp:399] inception_4d/output_inception_4d/output_0_split -> inception_4d/output_inception_4d/output_0_split_1
I0403 15:09:00.181838 31197 net.cpp:399] inception_4d/output_inception_4d/output_0_split -> inception_4d/output_inception_4d/output_0_split_2
I0403 15:09:00.181859 31197 net.cpp:399] inception_4d/output_inception_4d/output_0_split -> inception_4d/output_inception_4d/output_0_split_3
I0403 15:09:00.181884 31197 net.cpp:399] inception_4d/output_inception_4d/output_0_split -> inception_4d/output_inception_4d/output_0_split_4
I0403 15:09:00.181983 31197 net.cpp:141] Setting up inception_4d/output_inception_4d/output_0_split
I0403 15:09:00.182019 31197 net.cpp:148] Top shape: 24 528 14 14 (2483712)
I0403 15:09:00.182036 31197 net.cpp:148] Top shape: 24 528 14 14 (2483712)
I0403 15:09:00.182052 31197 net.cpp:148] Top shape: 24 528 14 14 (2483712)
I0403 15:09:00.182068 31197 net.cpp:148] Top shape: 24 528 14 14 (2483712)
I0403 15:09:00.182085 31197 net.cpp:148] Top shape: 24 528 14 14 (2483712)
I0403 15:09:00.182098 31197 net.cpp:156] Memory required for data: 1206918432
I0403 15:09:00.182113 31197 layer_factory.hpp:77] Creating layer loss2/ave_pool
I0403 15:09:00.182131 31197 net.cpp:91] Creating Layer loss2/ave_pool
I0403 15:09:00.182147 31197 net.cpp:425] loss2/ave_pool <- inception_4d/output_inception_4d/output_0_split_0
I0403 15:09:00.182168 31197 net.cpp:399] loss2/ave_pool -> loss2/ave_pool
I0403 15:09:00.182483 31197 net.cpp:141] Setting up loss2/ave_pool
I0403 15:09:00.182510 31197 net.cpp:148] Top shape: 24 528 4 4 (202752)
I0403 15:09:00.182525 31197 net.cpp:156] Memory required for data: 1207729440
I0403 15:09:00.182545 31197 layer_factory.hpp:77] Creating layer loss2/conv
I0403 15:09:00.182569 31197 net.cpp:91] Creating Layer loss2/conv
I0403 15:09:00.182587 31197 net.cpp:425] loss2/conv <- loss2/ave_pool
I0403 15:09:00.182610 31197 net.cpp:399] loss2/conv -> loss2/conv
I0403 15:09:00.184515 31197 net.cpp:141] Setting up loss2/conv
I0403 15:09:00.184550 31197 net.cpp:148] Top shape: 24 128 4 4 (49152)
I0403 15:09:00.184566 31197 net.cpp:156] Memory required for data: 1207926048
I0403 15:09:00.184586 31197 layer_factory.hpp:77] Creating layer loss2/relu_conv
I0403 15:09:00.184607 31197 net.cpp:91] Creating Layer loss2/relu_conv
I0403 15:09:00.184624 31197 net.cpp:425] loss2/relu_conv <- loss2/conv
I0403 15:09:00.184641 31197 net.cpp:386] loss2/relu_conv -> loss2/conv (in-place)
I0403 15:09:00.184931 31197 net.cpp:141] Setting up loss2/relu_conv
I0403 15:09:00.184957 31197 net.cpp:148] Top shape: 24 128 4 4 (49152)
I0403 15:09:00.184973 31197 net.cpp:156] Memory required for data: 1208122656
I0403 15:09:00.184988 31197 layer_factory.hpp:77] Creating layer loss2/fc
I0403 15:09:00.185009 31197 net.cpp:91] Creating Layer loss2/fc
I0403 15:09:00.185027 31197 net.cpp:425] loss2/fc <- loss2/conv
I0403 15:09:00.185048 31197 net.cpp:399] loss2/fc -> loss2/fc
I0403 15:09:00.202687 31197 net.cpp:141] Setting up loss2/fc
I0403 15:09:00.202721 31197 net.cpp:148] Top shape: 24 1024 (24576)
I0403 15:09:00.202739 31197 net.cpp:156] Memory required for data: 1208220960
I0403 15:09:00.202759 31197 layer_factory.hpp:77] Creating layer loss2/relu_fc
I0403 15:09:00.202777 31197 net.cpp:91] Creating Layer loss2/relu_fc
I0403 15:09:00.202795 31197 net.cpp:425] loss2/relu_fc <- loss2/fc
I0403 15:09:00.202814 31197 net.cpp:386] loss2/relu_fc -> loss2/fc (in-place)
I0403 15:09:00.203117 31197 net.cpp:141] Setting up loss2/relu_fc
I0403 15:09:00.203143 31197 net.cpp:148] Top shape: 24 1024 (24576)
I0403 15:09:00.203160 31197 net.cpp:156] Memory required for data: 1208319264
I0403 15:09:00.203174 31197 layer_factory.hpp:77] Creating layer loss2/drop_fc
I0403 15:09:00.203193 31197 net.cpp:91] Creating Layer loss2/drop_fc
I0403 15:09:00.203209 31197 net.cpp:425] loss2/drop_fc <- loss2/fc
I0403 15:09:00.203229 31197 net.cpp:386] loss2/drop_fc -> loss2/fc (in-place)
I0403 15:09:00.203281 31197 net.cpp:141] Setting up loss2/drop_fc
I0403 15:09:00.203305 31197 net.cpp:148] Top shape: 24 1024 (24576)
I0403 15:09:00.203320 31197 net.cpp:156] Memory required for data: 1208417568
I0403 15:09:00.203335 31197 layer_factory.hpp:77] Creating layer loss2/classifier_plantvillage
I0403 15:09:00.203352 31197 net.cpp:91] Creating Layer loss2/classifier_plantvillage
I0403 15:09:00.203368 31197 net.cpp:425] loss2/classifier_plantvillage <- loss2/fc
I0403 15:09:00.203392 31197 net.cpp:399] loss2/classifier_plantvillage -> loss2/classifier_plantvillage
I0403 15:09:00.203799 31197 net.cpp:141] Setting up loss2/classifier_plantvillage
I0403 15:09:00.203824 31197 net.cpp:148] Top shape: 24 38 (912)
I0403 15:09:00.203855 31197 net.cpp:156] Memory required for data: 1208421216
I0403 15:09:00.203874 31197 layer_factory.hpp:77] Creating layer loss2/classifier_plantvillage_loss2/classifier_plantvillage_0_split
I0403 15:09:00.203894 31197 net.cpp:91] Creating Layer loss2/classifier_plantvillage_loss2/classifier_plantvillage_0_split
I0403 15:09:00.203912 31197 net.cpp:425] loss2/classifier_plantvillage_loss2/classifier_plantvillage_0_split <- loss2/classifier_plantvillage
I0403 15:09:00.203933 31197 net.cpp:399] loss2/classifier_plantvillage_loss2/classifier_plantvillage_0_split -> loss2/classifier_plantvillage_loss2/classifier_plantvillage_0_split_0
I0403 15:09:00.203953 31197 net.cpp:399] loss2/classifier_plantvillage_loss2/classifier_plantvillage_0_split -> loss2/classifier_plantvillage_loss2/classifier_plantvillage_0_split_1
I0403 15:09:00.203974 31197 net.cpp:399] loss2/classifier_plantvillage_loss2/classifier_plantvillage_0_split -> loss2/classifier_plantvillage_loss2/classifier_plantvillage_0_split_2
I0403 15:09:00.204049 31197 net.cpp:141] Setting up loss2/classifier_plantvillage_loss2/classifier_plantvillage_0_split
I0403 15:09:00.204073 31197 net.cpp:148] Top shape: 24 38 (912)
I0403 15:09:00.204089 31197 net.cpp:148] Top shape: 24 38 (912)
I0403 15:09:00.204105 31197 net.cpp:148] Top shape: 24 38 (912)
I0403 15:09:00.204120 31197 net.cpp:156] Memory required for data: 1208432160
I0403 15:09:00.204135 31197 layer_factory.hpp:77] Creating layer inception_4e/1x1
I0403 15:09:00.204159 31197 net.cpp:91] Creating Layer inception_4e/1x1
I0403 15:09:00.204176 31197 net.cpp:425] inception_4e/1x1 <- inception_4d/output_inception_4d/output_0_split_1
I0403 15:09:00.204195 31197 net.cpp:399] inception_4e/1x1 -> inception_4e/1x1
I0403 15:09:00.206020 31197 net.cpp:141] Setting up inception_4e/1x1
I0403 15:09:00.206051 31197 net.cpp:148] Top shape: 24 256 14 14 (1204224)
I0403 15:09:00.206069 31197 net.cpp:156] Memory required for data: 1213249056
I0403 15:09:00.206089 31197 layer_factory.hpp:77] Creating layer inception_4e/relu_1x1
I0403 15:09:00.206109 31197 net.cpp:91] Creating Layer inception_4e/relu_1x1
I0403 15:09:00.206125 31197 net.cpp:425] inception_4e/relu_1x1 <- inception_4e/1x1
I0403 15:09:00.206143 31197 net.cpp:386] inception_4e/relu_1x1 -> inception_4e/1x1 (in-place)
I0403 15:09:00.206439 31197 net.cpp:141] Setting up inception_4e/relu_1x1
I0403 15:09:00.206467 31197 net.cpp:148] Top shape: 24 256 14 14 (1204224)
I0403 15:09:00.206483 31197 net.cpp:156] Memory required for data: 1218065952
I0403 15:09:00.206498 31197 layer_factory.hpp:77] Creating layer inception_4e/3x3_reduce
I0403 15:09:00.206521 31197 net.cpp:91] Creating Layer inception_4e/3x3_reduce
I0403 15:09:00.206543 31197 net.cpp:425] inception_4e/3x3_reduce <- inception_4d/output_inception_4d/output_0_split_2
I0403 15:09:00.206564 31197 net.cpp:399] inception_4e/3x3_reduce -> inception_4e/3x3_reduce
I0403 15:09:00.208714 31197 net.cpp:141] Setting up inception_4e/3x3_reduce
I0403 15:09:00.208742 31197 net.cpp:148] Top shape: 24 160 14 14 (752640)
I0403 15:09:00.208760 31197 net.cpp:156] Memory required for data: 1221076512
I0403 15:09:00.208778 31197 layer_factory.hpp:77] Creating layer inception_4e/relu_3x3_reduce
I0403 15:09:00.208799 31197 net.cpp:91] Creating Layer inception_4e/relu_3x3_reduce
I0403 15:09:00.208817 31197 net.cpp:425] inception_4e/relu_3x3_reduce <- inception_4e/3x3_reduce
I0403 15:09:00.208834 31197 net.cpp:386] inception_4e/relu_3x3_reduce -> inception_4e/3x3_reduce (in-place)
I0403 15:09:00.209020 31197 net.cpp:141] Setting up inception_4e/relu_3x3_reduce
I0403 15:09:00.209048 31197 net.cpp:148] Top shape: 24 160 14 14 (752640)
I0403 15:09:00.209063 31197 net.cpp:156] Memory required for data: 1224087072
I0403 15:09:00.209077 31197 layer_factory.hpp:77] Creating layer inception_4e/3x3
I0403 15:09:00.209100 31197 net.cpp:91] Creating Layer inception_4e/3x3
I0403 15:09:00.209118 31197 net.cpp:425] inception_4e/3x3 <- inception_4e/3x3_reduce
I0403 15:09:00.209141 31197 net.cpp:399] inception_4e/3x3 -> inception_4e/3x3
I0403 15:09:00.214154 31197 net.cpp:141] Setting up inception_4e/3x3
I0403 15:09:00.214198 31197 net.cpp:148] Top shape: 24 320 14 14 (1505280)
I0403 15:09:00.214215 31197 net.cpp:156] Memory required for data: 1230108192
I0403 15:09:00.214234 31197 layer_factory.hpp:77] Creating layer inception_4e/relu_3x3
I0403 15:09:00.214253 31197 net.cpp:91] Creating Layer inception_4e/relu_3x3
I0403 15:09:00.214270 31197 net.cpp:425] inception_4e/relu_3x3 <- inception_4e/3x3
I0403 15:09:00.214289 31197 net.cpp:386] inception_4e/relu_3x3 -> inception_4e/3x3 (in-place)
I0403 15:09:00.214606 31197 net.cpp:141] Setting up inception_4e/relu_3x3
I0403 15:09:00.214632 31197 net.cpp:148] Top shape: 24 320 14 14 (1505280)
I0403 15:09:00.214648 31197 net.cpp:156] Memory required for data: 1236129312
I0403 15:09:00.214663 31197 layer_factory.hpp:77] Creating layer inception_4e/5x5_reduce
I0403 15:09:00.214687 31197 net.cpp:91] Creating Layer inception_4e/5x5_reduce
I0403 15:09:00.214706 31197 net.cpp:425] inception_4e/5x5_reduce <- inception_4d/output_inception_4d/output_0_split_3
I0403 15:09:00.214728 31197 net.cpp:399] inception_4e/5x5_reduce -> inception_4e/5x5_reduce
I0403 15:09:00.215826 31197 net.cpp:141] Setting up inception_4e/5x5_reduce
I0403 15:09:00.215867 31197 net.cpp:148] Top shape: 24 32 14 14 (150528)
I0403 15:09:00.215885 31197 net.cpp:156] Memory required for data: 1236731424
I0403 15:09:00.215904 31197 layer_factory.hpp:77] Creating layer inception_4e/relu_5x5_reduce
I0403 15:09:00.215924 31197 net.cpp:91] Creating Layer inception_4e/relu_5x5_reduce
I0403 15:09:00.215939 31197 net.cpp:425] inception_4e/relu_5x5_reduce <- inception_4e/5x5_reduce
I0403 15:09:00.215957 31197 net.cpp:386] inception_4e/relu_5x5_reduce -> inception_4e/5x5_reduce (in-place)
I0403 15:09:00.216259 31197 net.cpp:141] Setting up inception_4e/relu_5x5_reduce
I0403 15:09:00.216311 31197 net.cpp:148] Top shape: 24 32 14 14 (150528)
I0403 15:09:00.216364 31197 net.cpp:156] Memory required for data: 1237333536
I0403 15:09:00.216382 31197 layer_factory.hpp:77] Creating layer inception_4e/5x5
I0403 15:09:00.216439 31197 net.cpp:91] Creating Layer inception_4e/5x5
I0403 15:09:00.216460 31197 net.cpp:425] inception_4e/5x5 <- inception_4e/5x5_reduce
I0403 15:09:00.216482 31197 net.cpp:399] inception_4e/5x5 -> inception_4e/5x5
I0403 15:09:00.218346 31197 net.cpp:141] Setting up inception_4e/5x5
I0403 15:09:00.218374 31197 net.cpp:148] Top shape: 24 128 14 14 (602112)
I0403 15:09:00.218390 31197 net.cpp:156] Memory required for data: 1239741984
I0403 15:09:00.218410 31197 layer_factory.hpp:77] Creating layer inception_4e/relu_5x5
I0403 15:09:00.218431 31197 net.cpp:91] Creating Layer inception_4e/relu_5x5
I0403 15:09:00.218449 31197 net.cpp:425] inception_4e/relu_5x5 <- inception_4e/5x5
I0403 15:09:00.218467 31197 net.cpp:386] inception_4e/relu_5x5 -> inception_4e/5x5 (in-place)
I0403 15:09:00.218673 31197 net.cpp:141] Setting up inception_4e/relu_5x5
I0403 15:09:00.218699 31197 net.cpp:148] Top shape: 24 128 14 14 (602112)
I0403 15:09:00.218715 31197 net.cpp:156] Memory required for data: 1242150432
I0403 15:09:00.218730 31197 layer_factory.hpp:77] Creating layer inception_4e/pool
I0403 15:09:00.218751 31197 net.cpp:91] Creating Layer inception_4e/pool
I0403 15:09:00.218768 31197 net.cpp:425] inception_4e/pool <- inception_4d/output_inception_4d/output_0_split_4
I0403 15:09:00.218786 31197 net.cpp:399] inception_4e/pool -> inception_4e/pool
I0403 15:09:00.218859 31197 net.cpp:141] Setting up inception_4e/pool
I0403 15:09:00.218884 31197 net.cpp:148] Top shape: 24 528 14 14 (2483712)
I0403 15:09:00.218899 31197 net.cpp:156] Memory required for data: 1252085280
I0403 15:09:00.218914 31197 layer_factory.hpp:77] Creating layer inception_4e/pool_proj
I0403 15:09:00.218936 31197 net.cpp:91] Creating Layer inception_4e/pool_proj
I0403 15:09:00.218955 31197 net.cpp:425] inception_4e/pool_proj <- inception_4e/pool
I0403 15:09:00.218976 31197 net.cpp:399] inception_4e/pool_proj -> inception_4e/pool_proj
I0403 15:09:00.220489 31197 net.cpp:141] Setting up inception_4e/pool_proj
I0403 15:09:00.220549 31197 net.cpp:148] Top shape: 24 128 14 14 (602112)
I0403 15:09:00.220588 31197 net.cpp:156] Memory required for data: 1254493728
I0403 15:09:00.220613 31197 layer_factory.hpp:77] Creating layer inception_4e/relu_pool_proj
I0403 15:09:00.220634 31197 net.cpp:91] Creating Layer inception_4e/relu_pool_proj
I0403 15:09:00.220652 31197 net.cpp:425] inception_4e/relu_pool_proj <- inception_4e/pool_proj
I0403 15:09:00.220669 31197 net.cpp:386] inception_4e/relu_pool_proj -> inception_4e/pool_proj (in-place)
I0403 15:09:00.220963 31197 net.cpp:141] Setting up inception_4e/relu_pool_proj
I0403 15:09:00.220989 31197 net.cpp:148] Top shape: 24 128 14 14 (602112)
I0403 15:09:00.221005 31197 net.cpp:156] Memory required for data: 1256902176
I0403 15:09:00.221020 31197 layer_factory.hpp:77] Creating layer inception_4e/output
I0403 15:09:00.221038 31197 net.cpp:91] Creating Layer inception_4e/output
I0403 15:09:00.221055 31197 net.cpp:425] inception_4e/output <- inception_4e/1x1
I0403 15:09:00.221072 31197 net.cpp:425] inception_4e/output <- inception_4e/3x3
I0403 15:09:00.221092 31197 net.cpp:425] inception_4e/output <- inception_4e/5x5
I0403 15:09:00.221108 31197 net.cpp:425] inception_4e/output <- inception_4e/pool_proj
I0403 15:09:00.221125 31197 net.cpp:399] inception_4e/output -> inception_4e/output
I0403 15:09:00.221174 31197 net.cpp:141] Setting up inception_4e/output
I0403 15:09:00.221200 31197 net.cpp:148] Top shape: 24 832 14 14 (3913728)
I0403 15:09:00.221217 31197 net.cpp:156] Memory required for data: 1272557088
I0403 15:09:00.221232 31197 layer_factory.hpp:77] Creating layer pool4/3x3_s2
I0403 15:09:00.221251 31197 net.cpp:91] Creating Layer pool4/3x3_s2
I0403 15:09:00.221266 31197 net.cpp:425] pool4/3x3_s2 <- inception_4e/output
I0403 15:09:00.221290 31197 net.cpp:399] pool4/3x3_s2 -> pool4/3x3_s2
I0403 15:09:00.221359 31197 net.cpp:141] Setting up pool4/3x3_s2
I0403 15:09:00.221382 31197 net.cpp:148] Top shape: 24 832 7 7 (978432)
I0403 15:09:00.221397 31197 net.cpp:156] Memory required for data: 1276470816
I0403 15:09:00.221412 31197 layer_factory.hpp:77] Creating layer pool4/3x3_s2_pool4/3x3_s2_0_split
I0403 15:09:00.221432 31197 net.cpp:91] Creating Layer pool4/3x3_s2_pool4/3x3_s2_0_split
I0403 15:09:00.221448 31197 net.cpp:425] pool4/3x3_s2_pool4/3x3_s2_0_split <- pool4/3x3_s2
I0403 15:09:00.221465 31197 net.cpp:399] pool4/3x3_s2_pool4/3x3_s2_0_split -> pool4/3x3_s2_pool4/3x3_s2_0_split_0
I0403 15:09:00.221487 31197 net.cpp:399] pool4/3x3_s2_pool4/3x3_s2_0_split -> pool4/3x3_s2_pool4/3x3_s2_0_split_1
I0403 15:09:00.221506 31197 net.cpp:399] pool4/3x3_s2_pool4/3x3_s2_0_split -> pool4/3x3_s2_pool4/3x3_s2_0_split_2
I0403 15:09:00.221529 31197 net.cpp:399] pool4/3x3_s2_pool4/3x3_s2_0_split -> pool4/3x3_s2_pool4/3x3_s2_0_split_3
I0403 15:09:00.221628 31197 net.cpp:141] Setting up pool4/3x3_s2_pool4/3x3_s2_0_split
I0403 15:09:00.221652 31197 net.cpp:148] Top shape: 24 832 7 7 (978432)
I0403 15:09:00.221669 31197 net.cpp:148] Top shape: 24 832 7 7 (978432)
I0403 15:09:00.221684 31197 net.cpp:148] Top shape: 24 832 7 7 (978432)
I0403 15:09:00.221700 31197 net.cpp:148] Top shape: 24 832 7 7 (978432)
I0403 15:09:00.221714 31197 net.cpp:156] Memory required for data: 1292125728
I0403 15:09:00.221729 31197 layer_factory.hpp:77] Creating layer inception_5a/1x1
I0403 15:09:00.221751 31197 net.cpp:91] Creating Layer inception_5a/1x1
I0403 15:09:00.221770 31197 net.cpp:425] inception_5a/1x1 <- pool4/3x3_s2_pool4/3x3_s2_0_split_0
I0403 15:09:00.221791 31197 net.cpp:399] inception_5a/1x1 -> inception_5a/1x1
I0403 15:09:00.224684 31197 net.cpp:141] Setting up inception_5a/1x1
I0403 15:09:00.224714 31197 net.cpp:148] Top shape: 24 256 7 7 (301056)
I0403 15:09:00.224730 31197 net.cpp:156] Memory required for data: 1293329952
I0403 15:09:00.224750 31197 layer_factory.hpp:77] Creating layer inception_5a/relu_1x1
I0403 15:09:00.224771 31197 net.cpp:91] Creating Layer inception_5a/relu_1x1
I0403 15:09:00.224794 31197 net.cpp:425] inception_5a/relu_1x1 <- inception_5a/1x1
I0403 15:09:00.224813 31197 net.cpp:386] inception_5a/relu_1x1 -> inception_5a/1x1 (in-place)
I0403 15:09:00.225128 31197 net.cpp:141] Setting up inception_5a/relu_1x1
I0403 15:09:00.225155 31197 net.cpp:148] Top shape: 24 256 7 7 (301056)
I0403 15:09:00.225170 31197 net.cpp:156] Memory required for data: 1294534176
I0403 15:09:00.225185 31197 layer_factory.hpp:77] Creating layer inception_5a/3x3_reduce
I0403 15:09:00.225208 31197 net.cpp:91] Creating Layer inception_5a/3x3_reduce
I0403 15:09:00.225226 31197 net.cpp:425] inception_5a/3x3_reduce <- pool4/3x3_s2_pool4/3x3_s2_0_split_1
I0403 15:09:00.225247 31197 net.cpp:399] inception_5a/3x3_reduce -> inception_5a/3x3_reduce
I0403 15:09:00.227798 31197 net.cpp:141] Setting up inception_5a/3x3_reduce
I0403 15:09:00.227828 31197 net.cpp:148] Top shape: 24 160 7 7 (188160)
I0403 15:09:00.227844 31197 net.cpp:156] Memory required for data: 1295286816
I0403 15:09:00.227864 31197 layer_factory.hpp:77] Creating layer inception_5a/relu_3x3_reduce
I0403 15:09:00.227882 31197 net.cpp:91] Creating Layer inception_5a/relu_3x3_reduce
I0403 15:09:00.227898 31197 net.cpp:425] inception_5a/relu_3x3_reduce <- inception_5a/3x3_reduce
I0403 15:09:00.227919 31197 net.cpp:386] inception_5a/relu_3x3_reduce -> inception_5a/3x3_reduce (in-place)
I0403 15:09:00.228108 31197 net.cpp:141] Setting up inception_5a/relu_3x3_reduce
I0403 15:09:00.228134 31197 net.cpp:148] Top shape: 24 160 7 7 (188160)
I0403 15:09:00.228149 31197 net.cpp:156] Memory required for data: 1296039456
I0403 15:09:00.228164 31197 layer_factory.hpp:77] Creating layer inception_5a/3x3
I0403 15:09:00.228186 31197 net.cpp:91] Creating Layer inception_5a/3x3
I0403 15:09:00.228204 31197 net.cpp:425] inception_5a/3x3 <- inception_5a/3x3_reduce
I0403 15:09:00.228227 31197 net.cpp:399] inception_5a/3x3 -> inception_5a/3x3
I0403 15:09:00.233335 31197 net.cpp:141] Setting up inception_5a/3x3
I0403 15:09:00.233389 31197 net.cpp:148] Top shape: 24 320 7 7 (376320)
I0403 15:09:00.233428 31197 net.cpp:156] Memory required for data: 1297544736
I0403 15:09:00.233466 31197 layer_factory.hpp:77] Creating layer inception_5a/relu_3x3
I0403 15:09:00.233515 31197 net.cpp:91] Creating Layer inception_5a/relu_3x3
I0403 15:09:00.233568 31197 net.cpp:425] inception_5a/relu_3x3 <- inception_5a/3x3
I0403 15:09:00.233618 31197 net.cpp:386] inception_5a/relu_3x3 -> inception_5a/3x3 (in-place)
I0403 15:09:00.233947 31197 net.cpp:141] Setting up inception_5a/relu_3x3
I0403 15:09:00.233997 31197 net.cpp:148] Top shape: 24 320 7 7 (376320)
I0403 15:09:00.234014 31197 net.cpp:156] Memory required for data: 1299050016
I0403 15:09:00.234030 31197 layer_factory.hpp:77] Creating layer inception_5a/5x5_reduce
I0403 15:09:00.234053 31197 net.cpp:91] Creating Layer inception_5a/5x5_reduce
I0403 15:09:00.234071 31197 net.cpp:425] inception_5a/5x5_reduce <- pool4/3x3_s2_pool4/3x3_s2_0_split_2
I0403 15:09:00.234092 31197 net.cpp:399] inception_5a/5x5_reduce -> inception_5a/5x5_reduce
I0403 15:09:00.235298 31197 net.cpp:141] Setting up inception_5a/5x5_reduce
I0403 15:09:00.235328 31197 net.cpp:148] Top shape: 24 32 7 7 (37632)
I0403 15:09:00.235345 31197 net.cpp:156] Memory required for data: 1299200544
I0403 15:09:00.235364 31197 layer_factory.hpp:77] Creating layer inception_5a/relu_5x5_reduce
I0403 15:09:00.235385 31197 net.cpp:91] Creating Layer inception_5a/relu_5x5_reduce
I0403 15:09:00.235402 31197 net.cpp:425] inception_5a/relu_5x5_reduce <- inception_5a/5x5_reduce
I0403 15:09:00.235420 31197 net.cpp:386] inception_5a/relu_5x5_reduce -> inception_5a/5x5_reduce (in-place)
I0403 15:09:00.235728 31197 net.cpp:141] Setting up inception_5a/relu_5x5_reduce
I0403 15:09:00.235754 31197 net.cpp:148] Top shape: 24 32 7 7 (37632)
I0403 15:09:00.235769 31197 net.cpp:156] Memory required for data: 1299351072
I0403 15:09:00.235785 31197 layer_factory.hpp:77] Creating layer inception_5a/5x5
I0403 15:09:00.235811 31197 net.cpp:91] Creating Layer inception_5a/5x5
I0403 15:09:00.235829 31197 net.cpp:425] inception_5a/5x5 <- inception_5a/5x5_reduce
I0403 15:09:00.235849 31197 net.cpp:399] inception_5a/5x5 -> inception_5a/5x5
I0403 15:09:00.237673 31197 net.cpp:141] Setting up inception_5a/5x5
I0403 15:09:00.237715 31197 net.cpp:148] Top shape: 24 128 7 7 (150528)
I0403 15:09:00.237730 31197 net.cpp:156] Memory required for data: 1299953184
I0403 15:09:00.237749 31197 layer_factory.hpp:77] Creating layer inception_5a/relu_5x5
I0403 15:09:00.237771 31197 net.cpp:91] Creating Layer inception_5a/relu_5x5
I0403 15:09:00.237789 31197 net.cpp:425] inception_5a/relu_5x5 <- inception_5a/5x5
I0403 15:09:00.237807 31197 net.cpp:386] inception_5a/relu_5x5 -> inception_5a/5x5 (in-place)
I0403 15:09:00.238001 31197 net.cpp:141] Setting up inception_5a/relu_5x5
I0403 15:09:00.238029 31197 net.cpp:148] Top shape: 24 128 7 7 (150528)
I0403 15:09:00.238044 31197 net.cpp:156] Memory required for data: 1300555296
I0403 15:09:00.238059 31197 layer_factory.hpp:77] Creating layer inception_5a/pool
I0403 15:09:00.238076 31197 net.cpp:91] Creating Layer inception_5a/pool
I0403 15:09:00.238092 31197 net.cpp:425] inception_5a/pool <- pool4/3x3_s2_pool4/3x3_s2_0_split_3
I0403 15:09:00.238113 31197 net.cpp:399] inception_5a/pool -> inception_5a/pool
I0403 15:09:00.238184 31197 net.cpp:141] Setting up inception_5a/pool
I0403 15:09:00.238209 31197 net.cpp:148] Top shape: 24 832 7 7 (978432)
I0403 15:09:00.238224 31197 net.cpp:156] Memory required for data: 1304469024
I0403 15:09:00.238237 31197 layer_factory.hpp:77] Creating layer inception_5a/pool_proj
I0403 15:09:00.238260 31197 net.cpp:91] Creating Layer inception_5a/pool_proj
I0403 15:09:00.238277 31197 net.cpp:425] inception_5a/pool_proj <- inception_5a/pool
I0403 15:09:00.238298 31197 net.cpp:399] inception_5a/pool_proj -> inception_5a/pool_proj
I0403 15:09:00.240617 31197 net.cpp:141] Setting up inception_5a/pool_proj
I0403 15:09:00.240648 31197 net.cpp:148] Top shape: 24 128 7 7 (150528)
I0403 15:09:00.240664 31197 net.cpp:156] Memory required for data: 1305071136
I0403 15:09:00.240684 31197 layer_factory.hpp:77] Creating layer inception_5a/relu_pool_proj
I0403 15:09:00.240705 31197 net.cpp:91] Creating Layer inception_5a/relu_pool_proj
I0403 15:09:00.240722 31197 net.cpp:425] inception_5a/relu_pool_proj <- inception_5a/pool_proj
I0403 15:09:00.240741 31197 net.cpp:386] inception_5a/relu_pool_proj -> inception_5a/pool_proj (in-place)
I0403 15:09:00.241044 31197 net.cpp:141] Setting up inception_5a/relu_pool_proj
I0403 15:09:00.241070 31197 net.cpp:148] Top shape: 24 128 7 7 (150528)
I0403 15:09:00.241086 31197 net.cpp:156] Memory required for data: 1305673248
I0403 15:09:00.241101 31197 layer_factory.hpp:77] Creating layer inception_5a/output
I0403 15:09:00.241118 31197 net.cpp:91] Creating Layer inception_5a/output
I0403 15:09:00.241135 31197 net.cpp:425] inception_5a/output <- inception_5a/1x1
I0403 15:09:00.241153 31197 net.cpp:425] inception_5a/output <- inception_5a/3x3
I0403 15:09:00.241169 31197 net.cpp:425] inception_5a/output <- inception_5a/5x5
I0403 15:09:00.241186 31197 net.cpp:425] inception_5a/output <- inception_5a/pool_proj
I0403 15:09:00.241206 31197 net.cpp:399] inception_5a/output -> inception_5a/output
I0403 15:09:00.241257 31197 net.cpp:141] Setting up inception_5a/output
I0403 15:09:00.241284 31197 net.cpp:148] Top shape: 24 832 7 7 (978432)
I0403 15:09:00.241299 31197 net.cpp:156] Memory required for data: 1309586976
I0403 15:09:00.241314 31197 layer_factory.hpp:77] Creating layer inception_5a/output_inception_5a/output_0_split
I0403 15:09:00.241331 31197 net.cpp:91] Creating Layer inception_5a/output_inception_5a/output_0_split
I0403 15:09:00.241348 31197 net.cpp:425] inception_5a/output_inception_5a/output_0_split <- inception_5a/output
I0403 15:09:00.241367 31197 net.cpp:399] inception_5a/output_inception_5a/output_0_split -> inception_5a/output_inception_5a/output_0_split_0
I0403 15:09:00.241391 31197 net.cpp:399] inception_5a/output_inception_5a/output_0_split -> inception_5a/output_inception_5a/output_0_split_1
I0403 15:09:00.241411 31197 net.cpp:399] inception_5a/output_inception_5a/output_0_split -> inception_5a/output_inception_5a/output_0_split_2
I0403 15:09:00.241432 31197 net.cpp:399] inception_5a/output_inception_5a/output_0_split -> inception_5a/output_inception_5a/output_0_split_3
I0403 15:09:00.241549 31197 net.cpp:141] Setting up inception_5a/output_inception_5a/output_0_split
I0403 15:09:00.241575 31197 net.cpp:148] Top shape: 24 832 7 7 (978432)
I0403 15:09:00.241592 31197 net.cpp:148] Top shape: 24 832 7 7 (978432)
I0403 15:09:00.241607 31197 net.cpp:148] Top shape: 24 832 7 7 (978432)
I0403 15:09:00.241623 31197 net.cpp:148] Top shape: 24 832 7 7 (978432)
I0403 15:09:00.241637 31197 net.cpp:156] Memory required for data: 1325241888
I0403 15:09:00.241652 31197 layer_factory.hpp:77] Creating layer inception_5b/1x1
I0403 15:09:00.241677 31197 net.cpp:91] Creating Layer inception_5b/1x1
I0403 15:09:00.241694 31197 net.cpp:425] inception_5b/1x1 <- inception_5a/output_inception_5a/output_0_split_0
I0403 15:09:00.241714 31197 net.cpp:399] inception_5b/1x1 -> inception_5b/1x1
I0403 15:09:00.245548 31197 net.cpp:141] Setting up inception_5b/1x1
I0403 15:09:00.245579 31197 net.cpp:148] Top shape: 24 384 7 7 (451584)
I0403 15:09:00.245595 31197 net.cpp:156] Memory required for data: 1327048224
I0403 15:09:00.245615 31197 layer_factory.hpp:77] Creating layer inception_5b/relu_1x1
I0403 15:09:00.245633 31197 net.cpp:91] Creating Layer inception_5b/relu_1x1
I0403 15:09:00.245682 31197 net.cpp:425] inception_5b/relu_1x1 <- inception_5b/1x1
I0403 15:09:00.245702 31197 net.cpp:386] inception_5b/relu_1x1 -> inception_5b/1x1 (in-place)
I0403 15:09:00.246026 31197 net.cpp:141] Setting up inception_5b/relu_1x1
I0403 15:09:00.246053 31197 net.cpp:148] Top shape: 24 384 7 7 (451584)
I0403 15:09:00.246068 31197 net.cpp:156] Memory required for data: 1328854560
I0403 15:09:00.246083 31197 layer_factory.hpp:77] Creating layer inception_5b/3x3_reduce
I0403 15:09:00.246107 31197 net.cpp:91] Creating Layer inception_5b/3x3_reduce
I0403 15:09:00.246136 31197 net.cpp:425] inception_5b/3x3_reduce <- inception_5a/output_inception_5a/output_0_split_1
I0403 15:09:00.246197 31197 net.cpp:399] inception_5b/3x3_reduce -> inception_5b/3x3_reduce
I0403 15:09:00.248888 31197 net.cpp:141] Setting up inception_5b/3x3_reduce
I0403 15:09:00.248919 31197 net.cpp:148] Top shape: 24 192 7 7 (225792)
I0403 15:09:00.248942 31197 net.cpp:156] Memory required for data: 1329757728
I0403 15:09:00.248973 31197 layer_factory.hpp:77] Creating layer inception_5b/relu_3x3_reduce
I0403 15:09:00.249013 31197 net.cpp:91] Creating Layer inception_5b/relu_3x3_reduce
I0403 15:09:00.249054 31197 net.cpp:425] inception_5b/relu_3x3_reduce <- inception_5b/3x3_reduce
I0403 15:09:00.249110 31197 net.cpp:386] inception_5b/relu_3x3_reduce -> inception_5b/3x3_reduce (in-place)
I0403 15:09:00.249317 31197 net.cpp:141] Setting up inception_5b/relu_3x3_reduce
I0403 15:09:00.249344 31197 net.cpp:148] Top shape: 24 192 7 7 (225792)
I0403 15:09:00.249359 31197 net.cpp:156] Memory required for data: 1330660896
I0403 15:09:00.249374 31197 layer_factory.hpp:77] Creating layer inception_5b/3x3
I0403 15:09:00.249397 31197 net.cpp:91] Creating Layer inception_5b/3x3
I0403 15:09:00.249416 31197 net.cpp:425] inception_5b/3x3 <- inception_5b/3x3_reduce
I0403 15:09:00.249438 31197 net.cpp:399] inception_5b/3x3 -> inception_5b/3x3
I0403 15:09:00.256189 31197 net.cpp:141] Setting up inception_5b/3x3
I0403 15:09:00.256220 31197 net.cpp:148] Top shape: 24 384 7 7 (451584)
I0403 15:09:00.256237 31197 net.cpp:156] Memory required for data: 1332467232
I0403 15:09:00.256254 31197 layer_factory.hpp:77] Creating layer inception_5b/relu_3x3
I0403 15:09:00.256275 31197 net.cpp:91] Creating Layer inception_5b/relu_3x3
I0403 15:09:00.256294 31197 net.cpp:425] inception_5b/relu_3x3 <- inception_5b/3x3
I0403 15:09:00.256311 31197 net.cpp:386] inception_5b/relu_3x3 -> inception_5b/3x3 (in-place)
I0403 15:09:00.256621 31197 net.cpp:141] Setting up inception_5b/relu_3x3
I0403 15:09:00.256654 31197 net.cpp:148] Top shape: 24 384 7 7 (451584)
I0403 15:09:00.256672 31197 net.cpp:156] Memory required for data: 1334273568
I0403 15:09:00.256711 31197 layer_factory.hpp:77] Creating layer inception_5b/5x5_reduce
I0403 15:09:00.256757 31197 net.cpp:91] Creating Layer inception_5b/5x5_reduce
I0403 15:09:00.256778 31197 net.cpp:425] inception_5b/5x5_reduce <- inception_5a/output_inception_5a/output_0_split_2
I0403 15:09:00.256799 31197 net.cpp:399] inception_5b/5x5_reduce -> inception_5b/5x5_reduce
I0403 15:09:00.258162 31197 net.cpp:141] Setting up inception_5b/5x5_reduce
I0403 15:09:00.258191 31197 net.cpp:148] Top shape: 24 48 7 7 (56448)
I0403 15:09:00.258208 31197 net.cpp:156] Memory required for data: 1334499360
I0403 15:09:00.258225 31197 layer_factory.hpp:77] Creating layer inception_5b/relu_5x5_reduce
I0403 15:09:00.258246 31197 net.cpp:91] Creating Layer inception_5b/relu_5x5_reduce
I0403 15:09:00.258265 31197 net.cpp:425] inception_5b/relu_5x5_reduce <- inception_5b/5x5_reduce
I0403 15:09:00.258282 31197 net.cpp:386] inception_5b/relu_5x5_reduce -> inception_5b/5x5_reduce (in-place)
I0403 15:09:00.258666 31197 net.cpp:141] Setting up inception_5b/relu_5x5_reduce
I0403 15:09:00.258692 31197 net.cpp:148] Top shape: 24 48 7 7 (56448)
I0403 15:09:00.258708 31197 net.cpp:156] Memory required for data: 1334725152
I0403 15:09:00.258723 31197 layer_factory.hpp:77] Creating layer inception_5b/5x5
I0403 15:09:00.258744 31197 net.cpp:91] Creating Layer inception_5b/5x5
I0403 15:09:00.258761 31197 net.cpp:425] inception_5b/5x5 <- inception_5b/5x5_reduce
I0403 15:09:00.258780 31197 net.cpp:399] inception_5b/5x5 -> inception_5b/5x5
I0403 15:09:00.260845 31197 net.cpp:141] Setting up inception_5b/5x5
I0403 15:09:00.260874 31197 net.cpp:148] Top shape: 24 128 7 7 (150528)
I0403 15:09:00.260890 31197 net.cpp:156] Memory required for data: 1335327264
I0403 15:09:00.260908 31197 layer_factory.hpp:77] Creating layer inception_5b/relu_5x5
I0403 15:09:00.260929 31197 net.cpp:91] Creating Layer inception_5b/relu_5x5
I0403 15:09:00.260947 31197 net.cpp:425] inception_5b/relu_5x5 <- inception_5b/5x5
I0403 15:09:00.260965 31197 net.cpp:386] inception_5b/relu_5x5 -> inception_5b/5x5 (in-place)
I0403 15:09:00.261162 31197 net.cpp:141] Setting up inception_5b/relu_5x5
I0403 15:09:00.261189 31197 net.cpp:148] Top shape: 24 128 7 7 (150528)
I0403 15:09:00.261205 31197 net.cpp:156] Memory required for data: 1335929376
I0403 15:09:00.261220 31197 layer_factory.hpp:77] Creating layer inception_5b/pool
I0403 15:09:00.261239 31197 net.cpp:91] Creating Layer inception_5b/pool
I0403 15:09:00.261255 31197 net.cpp:425] inception_5b/pool <- inception_5a/output_inception_5a/output_0_split_3
I0403 15:09:00.261276 31197 net.cpp:399] inception_5b/pool -> inception_5b/pool
I0403 15:09:00.261350 31197 net.cpp:141] Setting up inception_5b/pool
I0403 15:09:00.261374 31197 net.cpp:148] Top shape: 24 832 7 7 (978432)
I0403 15:09:00.261389 31197 net.cpp:156] Memory required for data: 1339843104
I0403 15:09:00.261404 31197 layer_factory.hpp:77] Creating layer inception_5b/pool_proj
I0403 15:09:00.261426 31197 net.cpp:91] Creating Layer inception_5b/pool_proj
I0403 15:09:00.261445 31197 net.cpp:425] inception_5b/pool_proj <- inception_5b/pool
I0403 15:09:00.261466 31197 net.cpp:399] inception_5b/pool_proj -> inception_5b/pool_proj
I0403 15:09:00.263804 31197 net.cpp:141] Setting up inception_5b/pool_proj
I0403 15:09:00.263835 31197 net.cpp:148] Top shape: 24 128 7 7 (150528)
I0403 15:09:00.263850 31197 net.cpp:156] Memory required for data: 1340445216
I0403 15:09:00.263870 31197 layer_factory.hpp:77] Creating layer inception_5b/relu_pool_proj
I0403 15:09:00.263891 31197 net.cpp:91] Creating Layer inception_5b/relu_pool_proj
I0403 15:09:00.263909 31197 net.cpp:425] inception_5b/relu_pool_proj <- inception_5b/pool_proj
I0403 15:09:00.263926 31197 net.cpp:386] inception_5b/relu_pool_proj -> inception_5b/pool_proj (in-place)
I0403 15:09:00.264232 31197 net.cpp:141] Setting up inception_5b/relu_pool_proj
I0403 15:09:00.264259 31197 net.cpp:148] Top shape: 24 128 7 7 (150528)
I0403 15:09:00.264276 31197 net.cpp:156] Memory required for data: 1341047328
I0403 15:09:00.264292 31197 layer_factory.hpp:77] Creating layer inception_5b/output
I0403 15:09:00.264308 31197 net.cpp:91] Creating Layer inception_5b/output
I0403 15:09:00.264343 31197 net.cpp:425] inception_5b/output <- inception_5b/1x1
I0403 15:09:00.264360 31197 net.cpp:425] inception_5b/output <- inception_5b/3x3
I0403 15:09:00.264379 31197 net.cpp:425] inception_5b/output <- inception_5b/5x5
I0403 15:09:00.264396 31197 net.cpp:425] inception_5b/output <- inception_5b/pool_proj
I0403 15:09:00.264415 31197 net.cpp:399] inception_5b/output -> inception_5b/output
I0403 15:09:00.264482 31197 net.cpp:141] Setting up inception_5b/output
I0403 15:09:00.264545 31197 net.cpp:148] Top shape: 24 1024 7 7 (1204224)
I0403 15:09:00.264590 31197 net.cpp:156] Memory required for data: 1345864224
I0403 15:09:00.264636 31197 layer_factory.hpp:77] Creating layer pool5/7x7_s1
I0403 15:09:00.264655 31197 net.cpp:91] Creating Layer pool5/7x7_s1
I0403 15:09:00.264695 31197 net.cpp:425] pool5/7x7_s1 <- inception_5b/output
I0403 15:09:00.264716 31197 net.cpp:399] pool5/7x7_s1 -> pool5/7x7_s1
I0403 15:09:00.264940 31197 net.cpp:141] Setting up pool5/7x7_s1
I0403 15:09:00.264966 31197 net.cpp:148] Top shape: 24 1024 1 1 (24576)
I0403 15:09:00.264981 31197 net.cpp:156] Memory required for data: 1345962528
I0403 15:09:00.264997 31197 layer_factory.hpp:77] Creating layer pool5/drop_7x7_s1
I0403 15:09:00.265017 31197 net.cpp:91] Creating Layer pool5/drop_7x7_s1
I0403 15:09:00.265034 31197 net.cpp:425] pool5/drop_7x7_s1 <- pool5/7x7_s1
I0403 15:09:00.265051 31197 net.cpp:386] pool5/drop_7x7_s1 -> pool5/7x7_s1 (in-place)
I0403 15:09:00.265105 31197 net.cpp:141] Setting up pool5/drop_7x7_s1
I0403 15:09:00.265128 31197 net.cpp:148] Top shape: 24 1024 1 1 (24576)
I0403 15:09:00.265142 31197 net.cpp:156] Memory required for data: 1346060832
I0403 15:09:00.265158 31197 layer_factory.hpp:77] Creating layer loss3/classifier_plantvillage
I0403 15:09:00.265177 31197 net.cpp:91] Creating Layer loss3/classifier_plantvillage
I0403 15:09:00.265193 31197 net.cpp:425] loss3/classifier_plantvillage <- pool5/7x7_s1
I0403 15:09:00.265214 31197 net.cpp:399] loss3/classifier_plantvillage -> loss3/classifier_plantvillage
I0403 15:09:00.265650 31197 net.cpp:141] Setting up loss3/classifier_plantvillage
I0403 15:09:00.265676 31197 net.cpp:148] Top shape: 24 38 (912)
I0403 15:09:00.265691 31197 net.cpp:156] Memory required for data: 1346064480
I0403 15:09:00.265708 31197 layer_factory.hpp:77] Creating layer loss3/classifier_plantvillage_loss3/classifier_plantvillage_0_split
I0403 15:09:00.265727 31197 net.cpp:91] Creating Layer loss3/classifier_plantvillage_loss3/classifier_plantvillage_0_split
I0403 15:09:00.265743 31197 net.cpp:425] loss3/classifier_plantvillage_loss3/classifier_plantvillage_0_split <- loss3/classifier_plantvillage
I0403 15:09:00.265763 31197 net.cpp:399] loss3/classifier_plantvillage_loss3/classifier_plantvillage_0_split -> loss3/classifier_plantvillage_loss3/classifier_plantvillage_0_split_0
I0403 15:09:00.265785 31197 net.cpp:399] loss3/classifier_plantvillage_loss3/classifier_plantvillage_0_split -> loss3/classifier_plantvillage_loss3/classifier_plantvillage_0_split_1
I0403 15:09:00.265806 31197 net.cpp:399] loss3/classifier_plantvillage_loss3/classifier_plantvillage_0_split -> loss3/classifier_plantvillage_loss3/classifier_plantvillage_0_split_2
I0403 15:09:00.265826 31197 net.cpp:399] loss3/classifier_plantvillage_loss3/classifier_plantvillage_0_split -> loss3/classifier_plantvillage_loss3/classifier_plantvillage_0_split_3
I0403 15:09:00.265929 31197 net.cpp:141] Setting up loss3/classifier_plantvillage_loss3/classifier_plantvillage_0_split
I0403 15:09:00.265954 31197 net.cpp:148] Top shape: 24 38 (912)
I0403 15:09:00.265970 31197 net.cpp:148] Top shape: 24 38 (912)
I0403 15:09:00.265985 31197 net.cpp:148] Top shape: 24 38 (912)
I0403 15:09:00.266001 31197 net.cpp:148] Top shape: 24 38 (912)
I0403 15:09:00.266016 31197 net.cpp:156] Memory required for data: 1346079072
I0403 15:09:00.266029 31197 layer_factory.hpp:77] Creating layer loss1/loss
I0403 15:09:00.266055 31197 net.cpp:91] Creating Layer loss1/loss
I0403 15:09:00.266073 31197 net.cpp:425] loss1/loss <- loss1/classifier_plantvillage_loss1/classifier_plantvillage_0_split_0
I0403 15:09:00.266104 31197 net.cpp:425] loss1/loss <- label_data_1_split_0
…
