…
I0403 15:17:01.660080 31405 net.cpp:313] The NetState phase (1) differed from the phase (0) specified by a rule in layer data
I0403 15:17:01.661190 31405 net.cpp:49] Initializing net from parameters: 
state {
  phase: TEST
}
layer {
  name: "data"
  type: "Data"
  top: "data"
  top: "label"
  include {
    phase: TEST
  }
  transform_param {
    mirror: false
    crop_size: 224
    mean_file: "/home/mohanty/data/final_dataset/lmdb/grayscale-80-20/mean.binaryproto"
  }
  data_param {
    source: "/home/mohanty/data/final_dataset/lmdb/grayscale-80-20/test_db"
    batch_size: 24
    backend: LMDB
  }
}
layer {
  name: "conv1/7x7_s2"
  type: "Convolution"
  bottom: "data"
  top: "conv1/7x7_s2"
  param {
    lr_mult: 1
    decay_mult: 1
  }
  param {
    lr_mult: 2
    decay_mult: 0
  }
  convolution_param {
    num_output: 64
    pad: 3
    kernel_size: 7
    stride: 2
    weight_filler {
      type: "xavier"
      std: 0.1
    }
    bias_filler {
      type: "constant"
      value: 0.2
    }
  }
}
layer {
  name: "conv1/relu_7x7"
  type: "ReLU"
  bottom: "conv1/7x7_s2"
  top: "conv1/7x7_s2"
}
layer {
  name: "pool1/3x3_s2"
  type: "Pooling"
  bottom: "conv1/7x7_s2"
  top: "pool1/3x3_s2"
  pooling_param {
    pool: MAX
    kernel_size: 3
    stride: 2
  }
}
layer {
  name: "pool1/norm1"
  type: "LRN"
  bottom: "pool1/3x3_s2"
  top: "pool1/norm1"
  lrn_param {
    local_size: 5
    alpha: 0.0001
    beta: 0.75
  }
}
layer {
  name: "conv2/3x3_reduce"
  type: "Convolution"
  bottom: "pool1/norm1"
  top: "conv2/3x3_reduce"
  param {
    lr_mult: 1
    decay_mult: 1
  }
  param {
    lr_mult: 2
    decay_mult: 0
  }
  convolution_param {
    num_output: 64
    kernel_size: 1
    weight_filler {
      type: "xavier"
      std: 0.1
    }
    bias_filler {
      type: "constant"
      value: 0.2
    }
  }
}
layer {
  name: "conv2/relu_3x3_reduce"
  type: "ReLU"
  bottom: "conv2/3x3_reduce"
  top: "conv2/3x3_reduce"
}
layer {
  name: "conv2/3x3"
  type: "Convolution"
  bottom: "conv2/3x3_reduce"
  top: "conv2/3x3"
  param {
    lr_mult: 1
    decay_mult: 1
  }
  param {
    lr_mult: 2
    decay_mult: 0
  }
  convolution_param {
    num_output: 192
    pad: 1
    kernel_size: 3
    weight_filler {
      type: "xavier"
      std: 0.03
    }
    bias_filler {
      type: "constant"
      value: 0.2
    }
  }
}
layer {
  name: "conv2/relu_3x3"
  type: "ReLU"
  bottom: "conv2/3x3"
  top: "conv2/3x3"
}
layer {
  name: "conv2/norm2"
  type: "LRN"
  bottom: "conv2/3x3"
  top: "conv2/norm2"
  lrn_param {
    local_size: 5
    alpha: 0.0001
    beta: 0.75
  }
}
layer {
  name: "pool2/3x3_s2"
  type: "Pooling"
  bottom: "conv2/norm2"
  top: "pool2/3x3_s2"
  pooling_param {
    pool: MAX
    kernel_size: 3
    stride: 2
  }
}
layer {
  name: "inception_3a/1x1"
  type: "Convolution"
  bottom: "pool2/3x3_s2"
  top: "inception_3a/1x1"
  param {
    lr_mult: 1
    decay_mult: 1
  }
  param {
    lr_mult: 2
    decay_mult: 0
  }
  convolution_param {
    num_output: 64
    kernel_size: 1
    weight_filler {
      type: "xavier"
      std: 0.03
    }
    bias_filler {
      type: "constant"
      value: 0.2
    }
  }
}
layer {
  name: "inception_3a/relu_1x1"
  type: "ReLU"
  bottom: "inception_3a/1x1"
  top: "inception_3a/1x1"
}
layer {
  name: "inception_3a/3x3_reduce"
  type: "Convolution"
  bottom: "pool2/3x3_s2"
  top: "inception_3a/3x3_reduce"
  param {
    lr_mult: 1
    decay_mult: 1
  }
  param {
    lr_mult: 2
    decay_mult: 0
  }
  convolution_param {
    num_output: 96
    kernel_size: 1
    weight_filler {
      type: "xavier"
      std: 0.09
    }
    bias_filler {
      type: "constant"
      value: 0.2
    }
  }
}
layer {
  name: "inception_3a/relu_3x3_reduce"
  type: "ReLU"
  bottom: "inception_3a/3x3_reduce"
  top: "inception_3a/3x3_reduce"
}
layer {
  name: "inception_3a/3x3"
  type: "Convolution"
  bottom: "inception_3a/3x3_reduce"
  top: "inception_3a/3x3"
  param {
    lr_mult: 1
    decay_mult: 1
  }
  param {
    lr_mult: 2
    decay_mult: 0
  }
  convolution_param {
    num_output: 128
    pad: 1
    kernel_size: 3
    weight_filler {
      type: "xavier"
      std: 0.03
    }
    bias_filler {
      type: "constant"
      value: 0.2
    }
  }
}
layer {
  name: "inception_3a/relu_3x3"
  type: "ReLU"
  bottom: "inception_3a/3x3"
  top: "inception_3a/3x3"
}
layer {
  name: "inception_3a/5x5_reduce"
  type: "Convolution"
  bottom: "pool2/3x3_s2"
  top: "inception_3a/5x5_reduce"
  param {
    lr_mult: 1
    decay_mult: 1
  }
  param {
    lr_mult: 2
    decay_mult: 0
  }
  convolution_param {
    num_output: 16
    kernel_size: 1
    weight_filler {
      type: "xavier"
      std: 0.2
    }
    bias_filler {
      type: "constant"
      value: 0.2
    }
  }
}
layer {
  name: "inception_3a/relu_5x5_reduce"
  type: "ReLU"
  bottom: "inception_3a/5x5_reduce"
  top: "inception_3a/5x5_reduce"
}
layer {
  name: "inception_3a/5x5"
  type: "Convolution"
  bottom: "inception_3a/5x5_reduce"
  top: "inception_3a/5x5"
  param {
    lr_mult: 1
    decay_mult: 1
  }
  param {
    lr_mult: 2
    decay_mult: 0
  }
  convolution_param {
    num_output: 32
    pad: 2
    kernel_size: 5
    weight_filler {
      type: "xavier"
      std: 0.03
    }
    bias_filler {
      type: "constant"
      value: 0.2
    }
  }
}
layer {
  name: "inception_3a/relu_5x5"
  type: "ReLU"
  bottom: "inception_3a/5x5"
  top: "inception_3a/5x5"
}
layer {
  name: "inception_3a/pool"
  type: "Pooling"
  bottom: "pool2/3x3_s2"
  top: "inception_3a/pool"
  pooling_param {
    pool: MAX
    kernel_size: 3
    stride: 1
    pad: 1
  }
}
layer {
  name: "inception_3a/pool_proj"
  type: "Convolution"
  bottom: "inception_3a/pool"
  top: "inception_3a/pool_proj"
  param {
    lr_mult: 1
    decay_mult: 1
  }
  param {
    lr_mult: 2
    decay_mult: 0
  }
  convolution_param {
    num_output: 32
    kernel_size: 1
    weight_filler {
      type: "xavier"
      std: 0.1
    }
    bias_filler {
      type: "constant"
      value: 0.2
    }
  }
}
layer {
  name: "inception_3a/relu_pool_proj"
  type: "ReLU"
  bottom: "inception_3a/pool_proj"
  top: "inception_3a/pool_proj"
}
layer {
  name: "inception_3a/output"
  type: "Concat"
  bottom: "inception_3a/1x1"
  bottom: "inception_3a/3x3"
  bottom: "inception_3a/5x5"
  bottom: "inception_3a/pool_proj"
  top: "inception_3a/output"
}
layer {
  name: "inception_3b/1x1"
  type: "Convolution"
  bottom: "inception_3a/output"
  top: "inception_3b/1x1"
  param {
    lr_mult: 1
    decay_mult: 1
  }
  param {
    lr_mult: 2
    decay_mult: 0
  }
  convolution_param {
    num_output: 128
    kernel_size: 1
    weight_filler {
      type: "xavier"
      std: 0.03
    }
    bias_filler {
      type: "constant"
      value: 0.2
    }
  }
}
layer {
  name: "inception_3b/relu_1x1"
  type: "ReLU"
  bottom: "inception_3b/1x1"
  top: "inception_3b/1x1"
}
layer {
  name: "inception_3b/3x3_reduce"
  type: "Convolution"
  bottom: "inception_3a/output"
  top: "inception_3b/3x3_reduce"
  param {
    lr_mult: 1
    decay_mult: 1
  }
  param {
    lr_mult: 2
    decay_mult: 0
  }
  convolution_param {
    num_output: 128
    kernel_size: 1
    weight_filler {
      type: "xavier"
      std: 0.09
    }
    bias_filler {
      type: "constant"
      value: 0.2
    }
  }
}
layer {
  name: "inception_3b/relu_3x3_reduce"
  type: "ReLU"
  bottom: "inception_3b/3x3_reduce"
  top: "inception_3b/3x3_reduce"
}
layer {
  name: "inception_3b/3x3"
  type: "Convolution"
  bottom: "inception_3b/3x3_reduce"
  top: "inception_3b/3x3"
  param {
    lr_mult: 1
    decay_mult: 1
  }
  param {
    lr_mult: 2
    decay_mult: 0
  }
  convolution_param {
    num_output: 192
    pad: 1
    kernel_size: 3
    weight_filler {
      type: "xavier"
      std: 0.03
    }
    bias_filler {
      type: "constant"
      value: 0.2
    }
  }
}
layer {
  name: "inception_3b/relu_3x3"
  type: "ReLU"
  bottom: "inception_3b/3x3"
  top: "inception_3b/3x3"
}
layer {
  name: "inception_3b/5x5_reduce"
  type: "Convolution"
  bottom: "inception_3a/output"
  top: "inception_3b/5x5_reduce"
  param {
    lr_mult: 1
    decay_mult: 1
  }
  param {
    lr_mult: 2
    decay_mult: 0
  }
  convolution_param {
    num_output: 32
    kernel_size: 1
    weight_filler {
      type: "xavier"
      std: 0.2
    }
    bias_filler {
      type: "constant"
      value: 0.2
    }
  }
}
layer {
  name: "inception_3b/relu_5x5_reduce"
  type: "ReLU"
  bottom: "inception_3b/5x5_reduce"
  top: "inception_3b/5x5_reduce"
}
layer {
  name: "inception_3b/5x5"
  type: "Convolution"
  bottom: "inception_3b/5x5_reduce"
  top: "inception_3b/5x5"
  param {
    lr_mult: 1
    decay_mult: 1
  }
  param {
    lr_mult: 2
    decay_mult: 0
  }
  convolution_param {
    num_output: 96
    pad: 2
    kernel_size: 5
    weight_filler {
      type: "xavier"
      std: 0.03
    }
    bias_filler {
      type: "constant"
      value: 0.2
    }
  }
}
layer {
  name: "inception_3b/relu_5x5"
  type: "ReLU"
  bottom: "inception_3b/5x5"
  top: "inception_3b/5x5"
}
layer {
  name: "inception_3b/pool"
  type: "Pooling"
  bottom: "inception_3a/output"
  top: "inception_3b/pool"
  pooling_param {
    pool: MAX
    kernel_size: 3
    stride: 1
    pad: 1
  }
}
layer {
  name: "inception_3b/pool_proj"
  type: "Convolution"
  bottom: "inception_3b/pool"
  top: "inception_3b/pool_proj"
  param {
    lr_mult: 1
    decay_mult: 1
  }
  param {
    lr_mult: 2
    decay_mult: 0
  }
  convolution_param {
    num_output: 64
    kernel_size: 1
    weight_filler {
      type: "xavier"
      std: 0.1
    }
    bias_filler {
      type: "constant"
      value: 0.2
    }
  }
}
layer {
  name: "inception_3b/relu_pool_proj"
  type: "ReLU"
  bottom: "inception_3b/pool_proj"
  top: "inception_3b/pool_proj"
}
layer {
  name: "inception_3b/output"
  type: "Concat"
  bottom: "inception_3b/1x1"
  bottom: "inception_3b/3x3"
  bottom: "inception_3b/5x5"
  bottom: "inception_3b/pool_proj"
  top: "inception_3b/output"
}
layer {
  name: "pool3/3x3_s2"
  type: "Pooling"
  bottom: "inception_3b/output"
  top: "pool3/3x3_s2"
  pooling_param {
    pool: MAX
    kernel_size: 3
    stride: 2
  }
}
layer {
  name: "inception_4a/1x1"
  type: "Convolution"
  bottom: "pool3/3x3_s2"
  top: "inception_4a/1x1"
  param {
    lr_mult: 1
    decay_mult: 1
  }
  param {
    lr_mult: 2
    decay_mult: 0
  }
  convolution_param {
    num_output: 192
    kernel_size: 1
    weight_filler {
      type: "xavier"
      std: 0.03
    }
    bias_filler {
      type: "constant"
      value: 0.2
    }
  }
}
layer {
  name: "inception_4a/relu_1x1"
  type: "ReLU"
  bottom: "inception_4a/1x1"
  top: "inception_4a/1x1"
}
layer {
  name: "inception_4a/3x3_reduce"
  type: "Convolution"
  bottom: "pool3/3x3_s2"
  top: "inception_4a/3x3_reduce"
  param {
    lr_mult: 1
    decay_mult: 1
  }
  param {
    lr_mult: 2
    decay_mult: 0
  }
  convolution_param {
    num_output: 96
    kernel_size: 1
    weight_filler {
      type: "xavier"
      std: 0.09
    }
    bias_filler {
      type: "constant"
      value: 0.2
    }
  }
}
layer {
  name: "inception_4a/relu_3x3_reduce"
  type: "ReLU"
  bottom: "inception_4a/3x3_reduce"
  top: "inception_4a/3x3_reduce"
}
layer {
  name: "inception_4a/3x3"
  type: "Convolution"
  bottom: "inception_4a/3x3_reduce"
  top: "inception_4a/3x3"
  param {
    lr_mult: 1
    decay_mult: 1
  }
  param {
    lr_mult: 2
    decay_mult: 0
  }
  convolution_param {
    num_output: 208
    pad: 1
    kernel_size: 3
    weight_filler {
      type: "xavier"
      std: 0.03
    }
    bias_filler {
      type: "constant"
      value: 0.2
    }
  }
}
layer {
  name: "inception_4a/relu_3x3"
  type: "ReLU"
  bottom: "inception_4a/3x3"
  top: "inception_4a/3x3"
}
layer {
  name: "inception_4a/5x5_reduce"
  type: "Convolution"
  bottom: "pool3/3x3_s2"
  top: "inception_4a/5x5_reduce"
  param {
    lr_mult: 1
    decay_mult: 1
  }
  param {
    lr_mult: 2
    decay_mult: 0
  }
  convolution_param {
    num_output: 16
    kernel_size: 1
    weight_filler {
      type: "xavier"
      std: 0.2
    }
    bias_filler {
      type: "constant"
      value: 0.2
    }
  }
}
layer {
  name: "inception_4a/relu_5x5_reduce"
  type: "ReLU"
  bottom: "inception_4a/5x5_reduce"
  top: "inception_4a/5x5_reduce"
}
layer {
  name: "inception_4a/5x5"
  type: "Convolution"
  bottom: "inception_4a/5x5_reduce"
  top: "inception_4a/5x5"
  param {
    lr_mult: 1
    decay_mult: 1
  }
  param {
    lr_mult: 2
    decay_mult: 0
  }
  convolution_param {
    num_output: 48
    pad: 2
    kernel_size: 5
    weight_filler {
      type: "xavier"
      std: 0.03
    }
    bias_filler {
      type: "constant"
      value: 0.2
    }
  }
}
layer {
  name: "inception_4a/relu_5x5"
  type: "ReLU"
  bottom: "inception_4a/5x5"
  top: "inception_4a/5x5"
}
layer {
  name: "inception_4a/pool"
  type: "Pooling"
  bottom: "pool3/3x3_s2"
  top: "inception_4a/pool"
  pooling_param {
    pool: MAX
    kernel_size: 3
    stride: 1
    pad: 1
  }
}
layer {
  name: "inception_4a/pool_proj"
  type: "Convolution"
  bottom: "inception_4a/pool"
  top: "inception_4a/pool_proj"
  param {
    lr_mult: 1
    decay_mult: 1
  }
  param {
    lr_mult: 2
    decay_mult: 0
  }
  convolution_param {
    num_output: 64
    kernel_size: 1
    weight_filler {
      type: "xavier"
      std: 0.1
    }
    bias_filler {
      type: "constant"
      value: 0.2
    }
  }
}
layer {
  name: "inception_4a/relu_pool_proj"
  type: "ReLU"
  bottom: "inception_4a/pool_proj"
  top: "inception_4a/pool_proj"
}
layer {
  name: "inception_4a/output"
  type: "Concat"
  bottom: "inception_4a/1x1"
  bottom: "inception_4a/3x3"
  bottom: "inception_4a/5x5"
  bottom: "inception_4a/pool_proj"
  top: "inception_4a/output"
}
layer {
  name: "loss1/ave_pool"
  type: "Pooling"
  bottom: "inception_4a/output"
  top: "loss1/ave_pool"
  pooling_param {
    pool: AVE
    kernel_size: 5
    stride: 3
  }
}
layer {
  name: "loss1/conv"
  type: "Convolution"
  bottom: "loss1/ave_pool"
  top: "loss1/conv"
  param {
    lr_mult: 1
    decay_mult: 1
  }
  param {
    lr_mult: 2
    decay_mult: 0
  }
  convolution_param {
    num_output: 128
    kernel_size: 1
    weight_filler {
      type: "xavier"
      std: 0.08
    }
    bias_filler {
      type: "constant"
      value: 0.2
    }
  }
}
layer {
  name: "loss1/relu_conv"
  type: "ReLU"
  bottom: "loss1/conv"
  top: "loss1/conv"
}
layer {
  name: "loss1/fc"
  type: "InnerProduct"
  bottom: "loss1/conv"
  top: "loss1/fc"
  param {
    lr_mult: 1
    decay_mult: 1
  }
  param {
    lr_mult: 2
    decay_mult: 0
  }
  inner_product_param {
    num_output: 1024
    weight_filler {
      type: "xavier"
      std: 0.02
    }
    bias_filler {
      type: "constant"
      value: 0.2
    }
  }
}
layer {
  name: "loss1/relu_fc"
  type: "ReLU"
  bottom: "loss1/fc"
  top: "loss1/fc"
}
layer {
  name: "loss1/drop_fc"
  type: "Dropout"
  bottom: "loss1/fc"
  top: "loss1/fc"
  dropout_param {
    dropout_ratio: 0.7
  }
}
layer {
  name: "loss1/classifier_plantvillage"
  type: "InnerProduct"
  bottom: "loss1/fc"
  top: "loss1/classifier_plantvillage"
  param {
    lr_mult: 1
    decay_mult: 1
  }
  param {
    lr_mult: 2
    decay_mult: 0
  }
  inner_product_param {
    num_output: 38
    weight_filler {
      type: "xavier"
      std: 0.0009765625
    }
    bias_filler {
      type: "constant"
      value: 0
    }
  }
}
layer {
  name: "inception_4b/1x1"
  type: "Convolution"
  bottom: "inception_4a/output"
  top: "inception_4b/1x1"
  param {
    lr_mult: 1
    decay_mult: 1
  }
  param {
    lr_mult: 2
    decay_mult: 0
  }
  convolution_param {
    num_output: 160
    kernel_size: 1
    weight_filler {
      type: "xavier"
      std: 0.03
    }
    bias_filler {
      type: "constant"
      value: 0.2
    }
  }
}
layer {
  name: "inception_4b/relu_1x1"
  type: "ReLU"
  bottom: "inception_4b/1x1"
  top: "inception_4b/1x1"
}
layer {
  name: "inception_4b/3x3_reduce"
  type: "Convolution"
  bottom: "inception_4a/output"
  top: "inception_4b/3x3_reduce"
  param {
    lr_mult: 1
    decay_mult: 1
  }
  param {
    lr_mult: 2
    decay_mult: 0
  }
  convolution_param {
    num_output: 112
    kernel_size: 1
    weight_filler {
      type: "xavier"
      std: 0.09
    }
    bias_filler {
      type: "constant"
      value: 0.2
    }
  }
}
layer {
  name: "inception_4b/relu_3x3_reduce"
  type: "ReLU"
  bottom: "inception_4b/3x3_reduce"
  top: "inception_4b/3x3_reduce"
}
layer {
  name: "inception_4b/3x3"
  type: "Convolution"
  bottom: "inception_4b/3x3_reduce"
  top: "inception_4b/3x3"
  param {
    lr_mult: 1
    decay_mult: 1
  }
  param {
    lr_mult: 2
    decay_mult: 0
  }
  convolution_param {
    num_output: 224
    pad: 1
    kernel_size: 3
    weight_filler {
      type: "xavier"
      std: 0.03
    }
    bias_filler {
      type: "constant"
      value: 0.2
    }
  }
}
layer {
  name: "inception_4b/relu_3x3"
  type: "ReLU"
  bottom: "inception_4b/3x3"
  top: "inception_4b/3x3"
}
layer {
  name: "inception_4b/5x5_reduce"
  type: "Convolution"
  bottom: "inception_4a/output"
  top: "inception_4b/5x5_reduce"
  param {
    lr_mult: 1
    decay_mult: 1
  }
  param {
    lr_mult: 2
    decay_mult: 0
  }
  convolution_param {
    num_output: 24
    kernel_size: 1
    weight_filler {
      type: "xavier"
      std: 0.2
    }
    bias_filler {
      type: "constant"
      value: 0.2
    }
  }
}
layer {
  name: "inception_4b/relu_5x5_reduce"
  type: "ReLU"
  bottom: "inception_4b/5x5_reduce"
  top: "inception_4b/5x5_reduce"
}
layer {
  name: "inception_4b/5x5"
  type: "Convolution"
  bottom: "inception_4b/5x5_reduce"
  top: "inception_4b/5x5"
  param {
    lr_mult: 1
    decay_mult: 1
  }
  param {
    lr_mult: 2
    decay_mult: 0
  }
  convolution_param {
    num_output: 64
    pad: 2
    kernel_size: 5
    weight_filler {
      type: "xavier"
      std: 0.03
    }
    bias_filler {
      type: "constant"
      value: 0.2
    }
  }
}
layer {
  name: "inception_4b/relu_5x5"
  type: "ReLU"
  bottom: "inception_4b/5x5"
  top: "inception_4b/5x5"
}
layer {
  name: "inception_4b/pool"
  type: "Pooling"
  bottom: "inception_4a/output"
  top: "inception_4b/pool"
  pooling_param {
    pool: MAX
    kernel_size: 3
    stride: 1
    pad: 1
  }
}
layer {
  name: "inception_4b/pool_proj"
  type: "Convolution"
  bottom: "inception_4b/pool"
  top: "inception_4b/pool_proj"
  param {
    lr_mult: 1
    decay_mult: 1
  }
  param {
    lr_mult: 2
    decay_mult: 0
  }
  convolution_param {
    num_output: 64
    kernel_size: 1
    weight_filler {
      type: "xavier"
      std: 0.1
    }
    bias_filler {
      type: "constant"
      value: 0.2
    }
  }
}
layer {
  name: "inception_4b/relu_pool_proj"
  type: "ReLU"
  bottom: "inception_4b/pool_proj"
  top: "inception_4b/pool_proj"
}
layer {
  name: "inception_4b/output"
  type: "Concat"
  bottom: "inception_4b/1x1"
  bottom: "inception_4b/3x3"
  bottom: "inception_4b/5x5"
  bottom: "inception_4b/pool_proj"
  top: "inception_4b/output"
}
layer {
  name: "inception_4c/1x1"
  type: "Convolution"
  bottom: "inception_4b/output"
  top: "inception_4c/1x1"
  param {
    lr_mult: 1
    decay_mult: 1
  }
  param {
    lr_mult: 2
    decay_mult: 0
  }
  convolution_param {
    num_output: 128
    kernel_size: 1
    weight_filler {
      type: "xavier"
      std: 0.03
    }
    bias_filler {
      type: "constant"
      value: 0.2
    }
  }
}
layer {
  name: "inception_4c/relu_1x1"
  type: "ReLU"
  bottom: "inception_4c/1x1"
  top: "inception_4c/1x1"
}
layer {
  name: "inception_4c/3x3_reduce"
  type: "Convolution"
  bottom: "inception_4b/output"
  top: "inception_4c/3x3_reduce"
  param {
    lr_mult: 1
    decay_mult: 1
  }
  param {
    lr_mult: 2
    decay_mult: 0
  }
  convolution_param {
    num_output: 128
    kernel_size: 1
    weight_filler {
      type: "xavier"
      std: 0.09
    }
    bias_filler {
      type: "constant"
      value: 0.2
    }
  }
}
layer {
  name: "inception_4c/relu_3x3_reduce"
  type: "ReLU"
  bottom: "inception_4c/3x3_reduce"
  top: "inception_4c/3x3_reduce"
}
layer {
  name: "inception_4c/3x3"
  type: "Convolution"
  bottom: "inception_4c/3x3_reduce"
  top: "inception_4c/3x3"
  param {
    lr_mult: 1
    decay_mult: 1
  }
  param {
    lr_mult: 2
    decay_mult: 0
  }
  convolution_param {
    num_output: 256
    pad: 1
    kernel_size: 3
    weight_filler {
      type: "xavier"
      std: 0.03
    }
    bias_filler {
      type: "constant"
      value: 0.2
    }
  }
}
layer {
  name: "inception_4c/relu_3x3"
  type: "ReLU"
  bottom: "inception_4c/3x3"
  top: "inception_4c/3x3"
}
layer {
  name: "inception_4c/5x5_reduce"
  type: "Convolution"
  bottom: "inception_4b/output"
  top: "inception_4c/5x5_reduce"
  param {
    lr_mult: 1
    decay_mult: 1
  }
  param {
    lr_mult: 2
    decay_mult: 0
  }
  convolution_param {
    num_output: 24
    kernel_size: 1
    weight_filler {
      type: "xavier"
      std: 0.2
    }
    bias_filler {
      type: "constant"
      value: 0.2
    }
  }
}
layer {
  name: "inception_4c/relu_5x5_reduce"
  type: "ReLU"
  bottom: "inception_4c/5x5_reduce"
  top: "inception_4c/5x5_reduce"
}
layer {
  name: "inception_4c/5x5"
  type: "Convolution"
  bottom: "inception_4c/5x5_reduce"
  top: "inception_4c/5x5"
  param {
    lr_mult: 1
    decay_mult: 1
  }
  param {
    lr_mult: 2
    decay_mult: 0
  }
  convolution_param {
    num_output: 64
    pad: 2
    kernel_size: 5
    weight_filler {
      type: "xavier"
      std: 0.03
    }
    bias_filler {
      type: "constant"
      value: 0.2
    }
  }
}
layer {
  name: "inception_4c/relu_5x5"
  type: "ReLU"
  bottom: "inception_4c/5x5"
  top: "inception_4c/5x5"
}
layer {
  name: "inception_4c/pool"
  type: "Pooling"
  bottom: "inception_4b/output"
  top: "inception_4c/pool"
  pooling_param {
    pool: MAX
    kernel_size: 3
    stride: 1
    pad: 1
  }
}
layer {
  name: "inception_4c/pool_proj"
  type: "Convolution"
  bottom: "inception_4c/pool"
  top: "inception_4c/pool_proj"
  param {
    lr_mult: 1
    decay_mult: 1
  }
  param {
    lr_mult: 2
    decay_mult: 0
  }
  convolution_param {
    num_output: 64
    kernel_size: 1
    weight_filler {
      type: "xavier"
      std: 0.1
    }
    bias_filler {
      type: "constant"
      value: 0.2
    }
  }
}
layer {
  name: "inception_4c/relu_pool_proj"
  type: "ReLU"
  bottom: "inception_4c/pool_proj"
  top: "inception_4c/pool_proj"
}
layer {
  name: "inception_4c/output"
  type: "Concat"
  bottom: "inception_4c/1x1"
  bottom: "inception_4c/3x3"
  bottom: "inception_4c/5x5"
  bottom: "inception_4c/pool_proj"
  top: "inception_4c/output"
}
layer {
  name: "inception_4d/1x1"
  type: "Convolution"
  bottom: "inception_4c/output"
  top: "inception_4d/1x1"
  param {
    lr_mult: 1
    decay_mult: 1
  }
  param {
    lr_mult: 2
    decay_mult: 0
  }
  convolution_param {
    num_output: 112
    kernel_size: 1
    weight_filler {
      type: "xavier"
      std: 0.03
    }
    bias_filler {
      type: "constant"
      value: 0.2
    }
  }
}
layer {
  name: "inception_4d/relu_1x1"
  type: "ReLU"
  bottom: "inception_4d/1x1"
  top: "inception_4d/1x1"
}
layer {
  name: "inception_4d/3x3_reduce"
  type: "Convolution"
  bottom: "inception_4c/output"
  top: "inception_4d/3x3_reduce"
  param {
    lr_mult: 1
    decay_mult: 1
  }
  param {
    lr_mult: 2
    decay_mult: 0
  }
  convolution_param {
    num_output: 144
    kernel_size: 1
    weight_filler {
      type: "xavier"
      std: 0.09
    }
    bias_filler {
      type: "constant"
      value: 0.2
    }
  }
}
layer {
  name: "inception_4d/relu_3x3_reduce"
  type: "ReLU"
  bottom: "inception_4d/3x3_reduce"
  top: "inception_4d/3x3_reduce"
}
layer {
  name: "inception_4d/3x3"
  type: "Convolution"
  bottom: "inception_4d/3x3_reduce"
  top: "inception_4d/3x3"
  param {
    lr_mult: 1
    decay_mult: 1
  }
  param {
    lr_mult: 2
    decay_mult: 0
  }
  convolution_param {
    num_output: 288
    pad: 1
    kernel_size: 3
    weight_filler {
      type: "xavier"
      std: 0.03
    }
    bias_filler {
      type: "constant"
      value: 0.2
    }
  }
}
layer {
  name: "inception_4d/relu_3x3"
  type: "ReLU"
  bottom: "inception_4d/3x3"
  top: "inception_4d/3x3"
}
layer {
  name: "inception_4d/5x5_reduce"
  type: "Convolution"
  bottom: "inception_4c/output"
  top: "inception_4d/5x5_reduce"
  param {
    lr_mult: 1
    decay_mult: 1
  }
  param {
    lr_mult: 2
    decay_mult: 0
  }
  convolution_param {
    num_output: 32
    kernel_size: 1
    weight_filler {
      type: "xavier"
      std: 0.2
    }
    bias_filler {
      type: "constant"
      value: 0.2
    }
  }
}
layer {
  name: "inception_4d/relu_5x5_reduce"
  type: "ReLU"
  bottom: "inception_4d/5x5_reduce"
  top: "inception_4d/5x5_reduce"
}
layer {
  name: "inception_4d/5x5"
  type: "Convolution"
  bottom: "inception_4d/5x5_reduce"
  top: "inception_4d/5x5"
  param {
    lr_mult: 1
    decay_mult: 1
  }
  param {
    lr_mult: 2
    decay_mult: 0
  }
  convolution_param {
    num_output: 64
    pad: 2
    kernel_size: 5
    weight_filler {
      type: "xavier"
      std: 0.03
    }
    bias_filler {
      type: "constant"
      value: 0.2
    }
  }
}
layer {
  name: "inception_4d/relu_5x5"
  type: "ReLU"
  bottom: "inception_4d/5x5"
  top: "inception_4d/5x5"
}
layer {
  name: "inception_4d/pool"
  type: "Pooling"
  bottom: "inception_4c/output"
  top: "inception_4d/pool"
  pooling_param {
    pool: MAX
    kernel_size: 3
    stride: 1
    pad: 1
  }
}
layer {
  name: "inception_4d/pool_proj"
  type: "Convolution"
  bottom: "inception_4d/pool"
  top: "inception_4d/pool_proj"
  param {
    lr_mult: 1
    decay_mult: 1
  }
  param {
    lr_mult: 2
    decay_mult: 0
  }
  convolution_param {
    num_output: 64
    kernel_size: 1
    weight_filler {
      type: "xavier"
      std: 0.1
    }
    bias_filler {
      type: "constant"
      value: 0.2
    }
  }
}
layer {
  name: "inception_4d/relu_pool_proj"
  type: "ReLU"
  bottom: "inception_4d/pool_proj"
  top: "inception_4d/pool_proj"
}
layer {
  name: "inception_4d/output"
  type: "Concat"
  bottom: "inception_4d/1x1"
  bottom: "inception_4d/3x3"
  bottom: "inception_4d/5x5"
  bottom: "inception_4d/pool_proj"
  top: "inception_4d/output"
}
layer {
  name: "loss2/ave_pool"
  type: "Pooling"
  bottom: "inception_4d/output"
  top: "loss2/ave_pool"
  pooling_param {
    pool: AVE
    kernel_size: 5
    stride: 3
  }
}
layer {
  name: "loss2/conv"
  type: "Convolution"
  bottom: "loss2/ave_pool"
  top: "loss2/conv"
  param {
    lr_mult: 1
    decay_mult: 1
  }
  param {
    lr_mult: 2
    decay_mult: 0
  }
  convolution_param {
    num_output: 128
    kernel_size: 1
    weight_filler {
      type: "xavier"
      std: 0.08
    }
    bias_filler {
      type: "constant"
      value: 0.2
    }
  }
}
layer {
  name: "loss2/relu_conv"
  type: "ReLU"
  bottom: "loss2/conv"
  top: "loss2/conv"
}
layer {
  name: "loss2/fc"
  type: "InnerProduct"
  bottom: "loss2/conv"
  top: "loss2/fc"
  param {
    lr_mult: 1
    decay_mult: 1
  }
  param {
    lr_mult: 2
    decay_mult: 0
  }
  inner_product_param {
    num_output: 1024
    weight_filler {
      type: "xavier"
      std: 0.02
    }
    bias_filler {
      type: "constant"
      value: 0.2
    }
  }
}
layer {
  name: "loss2/relu_fc"
  type: "ReLU"
  bottom: "loss2/fc"
  top: "loss2/fc"
}
layer {
  name: "loss2/drop_fc"
  type: "Dropout"
  bottom: "loss2/fc"
  top: "loss2/fc"
  dropout_param {
    dropout_ratio: 0.7
  }
}
layer {
  name: "loss2/classifier_plantvillage"
  type: "InnerProduct"
  bottom: "loss2/fc"
  top: "loss2/classifier_plantvillage"
  param {
    lr_mult: 1
    decay_mult: 1
  }
  param {
    lr_mult: 2
    decay_mult: 0
  }
  inner_product_param {
    num_output: 38
    weight_filler {
      type: "xavier"
      std: 0.0009765625
    }
    bias_filler {
      type: "constant"
      value: 0
    }
  }
}
layer {
  name: "inception_4e/1x1"
  type: "Convolution"
  bottom: "inception_4d/output"
  top: "inception_4e/1x1"
  param {
    lr_mult: 1
    decay_mult: 1
  }
  param {
    lr_mult: 2
    decay_mult: 0
  }
  convolution_param {
    num_output: 256
    kernel_size: 1
    weight_filler {
      type: "xavier"
      std: 0.03
    }
    bias_filler {
      type: "constant"
      value: 0.2
    }
  }
}
layer {
  name: "inception_4e/relu_1x1"
  type: "ReLU"
  bottom: "inception_4e/1x1"
  top: "inception_4e/1x1"
}
layer {
  name: "inception_4e/3x3_reduce"
  type: "Convolution"
  bottom: "inception_4d/output"
  top: "inception_4e/3x3_reduce"
  param {
    lr_mult: 1
    decay_mult: 1
  }
  param {
    lr_mult: 2
    decay_mult: 0
  }
  convolution_param {
    num_output: 160
    kernel_size: 1
    weight_filler {
      type: "xavier"
      std: 0.09
    }
    bias_filler {
      type: "constant"
      value: 0.2
    }
  }
}
layer {
  name: "inception_4e/relu_3x3_reduce"
  type: "ReLU"
  bottom: "inception_4e/3x3_reduce"
  top: "inception_4e/3x3_reduce"
}
layer {
  name: "inception_4e/3x3"
  type: "Convolution"
  bottom: "inception_4e/3x3_reduce"
  top: "inception_4e/3x3"
  param {
    lr_mult: 1
    decay_mult: 1
  }
  param {
    lr_mult: 2
    decay_mult: 0
  }
  convolution_param {
    num_output: 320
    pad: 1
    kernel_size: 3
    weight_filler {
      type: "xavier"
      std: 0.03
    }
    bias_filler {
      type: "constant"
      value: 0.2
    }
  }
}
layer {
  name: "inception_4e/relu_3x3"
  type: "ReLU"
  bottom: "inception_4e/3x3"
  top: "inception_4e/3x3"
}
layer {
  name: "inception_4e/5x5_reduce"
  type: "Convolution"
  bottom: "inception_4d/output"
  top: "inception_4e/5x5_reduce"
  param {
    lr_mult: 1
    decay_mult: 1
  }
  param {
    lr_mult: 2
    decay_mult: 0
  }
  convolution_param {
    num_output: 32
    kernel_size: 1
    weight_filler {
      type: "xavier"
      std: 0.2
    }
    bias_filler {
      type: "constant"
      value: 0.2
    }
  }
}
layer {
  name: "inception_4e/relu_5x5_reduce"
  type: "ReLU"
  bottom: "inception_4e/5x5_reduce"
  top: "inception_4e/5x5_reduce"
}
layer {
  name: "inception_4e/5x5"
  type: "Convolution"
  bottom: "inception_4e/5x5_reduce"
  top: "inception_4e/
I0403 15:17:01.662482 31405 layer_factory.hpp:77] Creating layer data
I0403 15:17:01.663077 31405 net.cpp:91] Creating Layer data
I0403 15:17:01.663107 31405 net.cpp:399] data -> data
I0403 15:17:01.663164 31405 net.cpp:399] data -> label
I0403 15:17:01.663202 31405 data_transformer.cpp:25] Loading mean file from: /home/mohanty/data/final_dataset/lmdb/grayscale-80-20/mean.binaryproto
I0403 15:17:01.668633 31407 db_lmdb.cpp:38] Opened lmdb /home/mohanty/data/final_dataset/lmdb/grayscale-80-20/test_db
I0403 15:17:01.682518 31405 data_layer.cpp:41] output data size: 24,3,224,224
I0403 15:17:01.710014 31405 net.cpp:141] Setting up data
I0403 15:17:01.710098 31405 net.cpp:148] Top shape: 24 3 224 224 (3612672)
I0403 15:17:01.710121 31405 net.cpp:148] Top shape: 24 (24)
I0403 15:17:01.710139 31405 net.cpp:156] Memory required for data: 14450784
I0403 15:17:01.710170 31405 layer_factory.hpp:77] Creating layer label_data_1_split
I0403 15:17:01.710199 31405 net.cpp:91] Creating Layer label_data_1_split
I0403 15:17:01.710218 31405 net.cpp:425] label_data_1_split <- label
I0403 15:17:01.710253 31405 net.cpp:399] label_data_1_split -> label_data_1_split_0
I0403 15:17:01.710284 31405 net.cpp:399] label_data_1_split -> label_data_1_split_1
I0403 15:17:01.710305 31405 net.cpp:399] label_data_1_split -> label_data_1_split_2
I0403 15:17:01.710326 31405 net.cpp:399] label_data_1_split -> label_data_1_split_3
I0403 15:17:01.710346 31405 net.cpp:399] label_data_1_split -> label_data_1_split_4
I0403 15:17:01.710366 31405 net.cpp:399] label_data_1_split -> label_data_1_split_5
I0403 15:17:01.710386 31405 net.cpp:399] label_data_1_split -> label_data_1_split_6
I0403 15:17:01.710405 31405 net.cpp:399] label_data_1_split -> label_data_1_split_7
I0403 15:17:01.710425 31405 net.cpp:399] label_data_1_split -> label_data_1_split_8
I0403 15:17:01.710445 31405 net.cpp:399] label_data_1_split -> label_data_1_split_9
I0403 15:17:01.710571 31405 net.cpp:141] Setting up label_data_1_split
I0403 15:17:01.710594 31405 net.cpp:148] Top shape: 24 (24)
I0403 15:17:01.710613 31405 net.cpp:148] Top shape: 24 (24)
I0403 15:17:01.710628 31405 net.cpp:148] Top shape: 24 (24)
I0403 15:17:01.710644 31405 net.cpp:148] Top shape: 24 (24)
I0403 15:17:01.710659 31405 net.cpp:148] Top shape: 24 (24)
I0403 15:17:01.710675 31405 net.cpp:148] Top shape: 24 (24)
I0403 15:17:01.710690 31405 net.cpp:148] Top shape: 24 (24)
I0403 15:17:01.710706 31405 net.cpp:148] Top shape: 24 (24)
I0403 15:17:01.710721 31405 net.cpp:148] Top shape: 24 (24)
I0403 15:17:01.710737 31405 net.cpp:148] Top shape: 24 (24)
I0403 15:17:01.710780 31405 net.cpp:156] Memory required for data: 14451744
I0403 15:17:01.710798 31405 layer_factory.hpp:77] Creating layer conv1/7x7_s2
I0403 15:17:01.710832 31405 net.cpp:91] Creating Layer conv1/7x7_s2
I0403 15:17:01.710851 31405 net.cpp:425] conv1/7x7_s2 <- data
I0403 15:17:01.710870 31405 net.cpp:399] conv1/7x7_s2 -> conv1/7x7_s2
I0403 15:17:01.865629 31405 net.cpp:141] Setting up conv1/7x7_s2
I0403 15:17:01.865702 31405 net.cpp:148] Top shape: 24 64 112 112 (19267584)
I0403 15:17:01.865720 31405 net.cpp:156] Memory required for data: 91522080
I0403 15:17:01.865754 31405 layer_factory.hpp:77] Creating layer conv1/relu_7x7
I0403 15:17:01.865785 31405 net.cpp:91] Creating Layer conv1/relu_7x7
I0403 15:17:01.865804 31405 net.cpp:425] conv1/relu_7x7 <- conv1/7x7_s2
I0403 15:17:01.865824 31405 net.cpp:386] conv1/relu_7x7 -> conv1/7x7_s2 (in-place)
I0403 15:17:01.866101 31405 net.cpp:141] Setting up conv1/relu_7x7
I0403 15:17:01.866127 31405 net.cpp:148] Top shape: 24 64 112 112 (19267584)
I0403 15:17:01.866142 31405 net.cpp:156] Memory required for data: 168592416
I0403 15:17:01.866158 31405 layer_factory.hpp:77] Creating layer pool1/3x3_s2
I0403 15:17:01.866186 31405 net.cpp:91] Creating Layer pool1/3x3_s2
I0403 15:17:01.866204 31405 net.cpp:425] pool1/3x3_s2 <- conv1/7x7_s2
I0403 15:17:01.866225 31405 net.cpp:399] pool1/3x3_s2 -> pool1/3x3_s2
I0403 15:17:01.866328 31405 net.cpp:141] Setting up pool1/3x3_s2
I0403 15:17:01.866353 31405 net.cpp:148] Top shape: 24 64 56 56 (4816896)
I0403 15:17:01.866369 31405 net.cpp:156] Memory required for data: 187860000
I0403 15:17:01.866384 31405 layer_factory.hpp:77] Creating layer pool1/norm1
I0403 15:17:01.866412 31405 net.cpp:91] Creating Layer pool1/norm1
I0403 15:17:01.866430 31405 net.cpp:425] pool1/norm1 <- pool1/3x3_s2
I0403 15:17:01.866448 31405 net.cpp:399] pool1/norm1 -> pool1/norm1
I0403 15:17:01.866766 31405 net.cpp:141] Setting up pool1/norm1
I0403 15:17:01.866793 31405 net.cpp:148] Top shape: 24 64 56 56 (4816896)
I0403 15:17:01.866808 31405 net.cpp:156] Memory required for data: 207127584
I0403 15:17:01.866823 31405 layer_factory.hpp:77] Creating layer conv2/3x3_reduce
I0403 15:17:01.866852 31405 net.cpp:91] Creating Layer conv2/3x3_reduce
I0403 15:17:01.866868 31405 net.cpp:425] conv2/3x3_reduce <- pool1/norm1
I0403 15:17:01.866894 31405 net.cpp:399] conv2/3x3_reduce -> conv2/3x3_reduce
I0403 15:17:01.868319 31405 net.cpp:141] Setting up conv2/3x3_reduce
I0403 15:17:01.868348 31405 net.cpp:148] Top shape: 24 64 56 56 (4816896)
I0403 15:17:01.868365 31405 net.cpp:156] Memory required for data: 226395168
I0403 15:17:01.868386 31405 layer_factory.hpp:77] Creating layer conv2/relu_3x3_reduce
I0403 15:17:01.868403 31405 net.cpp:91] Creating Layer conv2/relu_3x3_reduce
I0403 15:17:01.868419 31405 net.cpp:425] conv2/relu_3x3_reduce <- conv2/3x3_reduce
I0403 15:17:01.868438 31405 net.cpp:386] conv2/relu_3x3_reduce -> conv2/3x3_reduce (in-place)
I0403 15:17:01.868711 31405 net.cpp:141] Setting up conv2/relu_3x3_reduce
I0403 15:17:01.868737 31405 net.cpp:148] Top shape: 24 64 56 56 (4816896)
I0403 15:17:01.868753 31405 net.cpp:156] Memory required for data: 245662752
I0403 15:17:01.868768 31405 layer_factory.hpp:77] Creating layer conv2/3x3
I0403 15:17:01.868793 31405 net.cpp:91] Creating Layer conv2/3x3
I0403 15:17:01.868809 31405 net.cpp:425] conv2/3x3 <- conv2/3x3_reduce
I0403 15:17:01.868832 31405 net.cpp:399] conv2/3x3 -> conv2/3x3
I0403 15:17:01.871120 31405 net.cpp:141] Setting up conv2/3x3
I0403 15:17:01.871153 31405 net.cpp:148] Top shape: 24 192 56 56 (14450688)
I0403 15:17:01.871170 31405 net.cpp:156] Memory required for data: 303465504
I0403 15:17:01.871191 31405 layer_factory.hpp:77] Creating layer conv2/relu_3x3
I0403 15:17:01.871211 31405 net.cpp:91] Creating Layer conv2/relu_3x3
I0403 15:17:01.871227 31405 net.cpp:425] conv2/relu_3x3 <- conv2/3x3
I0403 15:17:01.871245 31405 net.cpp:386] conv2/relu_3x3 -> conv2/3x3 (in-place)
I0403 15:17:01.871428 31405 net.cpp:141] Setting up conv2/relu_3x3
I0403 15:17:01.871454 31405 net.cpp:148] Top shape: 24 192 56 56 (14450688)
I0403 15:17:01.871512 31405 net.cpp:156] Memory required for data: 361268256
I0403 15:17:01.871528 31405 layer_factory.hpp:77] Creating layer conv2/norm2
I0403 15:17:01.871562 31405 net.cpp:91] Creating Layer conv2/norm2
I0403 15:17:01.871580 31405 net.cpp:425] conv2/norm2 <- conv2/3x3
I0403 15:17:01.871598 31405 net.cpp:399] conv2/norm2 -> conv2/norm2
I0403 15:17:01.871906 31405 net.cpp:141] Setting up conv2/norm2
I0403 15:17:01.871937 31405 net.cpp:148] Top shape: 24 192 56 56 (14450688)
I0403 15:17:01.871951 31405 net.cpp:156] Memory required for data: 419071008
I0403 15:17:01.871968 31405 layer_factory.hpp:77] Creating layer pool2/3x3_s2
I0403 15:17:01.871985 31405 net.cpp:91] Creating Layer pool2/3x3_s2
I0403 15:17:01.872000 31405 net.cpp:425] pool2/3x3_s2 <- conv2/norm2
I0403 15:17:01.872017 31405 net.cpp:399] pool2/3x3_s2 -> pool2/3x3_s2
I0403 15:17:01.872072 31405 net.cpp:141] Setting up pool2/3x3_s2
I0403 15:17:01.872095 31405 net.cpp:148] Top shape: 24 192 28 28 (3612672)
I0403 15:17:01.872110 31405 net.cpp:156] Memory required for data: 433521696
I0403 15:17:01.872124 31405 layer_factory.hpp:77] Creating layer pool2/3x3_s2_pool2/3x3_s2_0_split
I0403 15:17:01.872143 31405 net.cpp:91] Creating Layer pool2/3x3_s2_pool2/3x3_s2_0_split
I0403 15:17:01.872158 31405 net.cpp:425] pool2/3x3_s2_pool2/3x3_s2_0_split <- pool2/3x3_s2
I0403 15:17:01.872176 31405 net.cpp:399] pool2/3x3_s2_pool2/3x3_s2_0_split -> pool2/3x3_s2_pool2/3x3_s2_0_split_0
I0403 15:17:01.872196 31405 net.cpp:399] pool2/3x3_s2_pool2/3x3_s2_0_split -> pool2/3x3_s2_pool2/3x3_s2_0_split_1
I0403 15:17:01.872216 31405 net.cpp:399] pool2/3x3_s2_pool2/3x3_s2_0_split -> pool2/3x3_s2_pool2/3x3_s2_0_split_2
I0403 15:17:01.872236 31405 net.cpp:399] pool2/3x3_s2_pool2/3x3_s2_0_split -> pool2/3x3_s2_pool2/3x3_s2_0_split_3
I0403 15:17:01.872311 31405 net.cpp:141] Setting up pool2/3x3_s2_pool2/3x3_s2_0_split
I0403 15:17:01.872334 31405 net.cpp:148] Top shape: 24 192 28 28 (3612672)
I0403 15:17:01.872349 31405 net.cpp:148] Top shape: 24 192 28 28 (3612672)
I0403 15:17:01.872365 31405 net.cpp:148] Top shape: 24 192 28 28 (3612672)
I0403 15:17:01.872380 31405 net.cpp:148] Top shape: 24 192 28 28 (3612672)
I0403 15:17:01.872395 31405 net.cpp:156] Memory required for data: 491324448
I0403 15:17:01.872408 31405 layer_factory.hpp:77] Creating layer inception_3a/1x1
I0403 15:17:01.872431 31405 net.cpp:91] Creating Layer inception_3a/1x1
I0403 15:17:01.872447 31405 net.cpp:425] inception_3a/1x1 <- pool2/3x3_s2_pool2/3x3_s2_0_split_0
I0403 15:17:01.872468 31405 net.cpp:399] inception_3a/1x1 -> inception_3a/1x1
I0403 15:17:01.874042 31405 net.cpp:141] Setting up inception_3a/1x1
I0403 15:17:01.874073 31405 net.cpp:148] Top shape: 24 64 28 28 (1204224)
I0403 15:17:01.874090 31405 net.cpp:156] Memory required for data: 496141344
I0403 15:17:01.874109 31405 layer_factory.hpp:77] Creating layer inception_3a/relu_1x1
I0403 15:17:01.874127 31405 net.cpp:91] Creating Layer inception_3a/relu_1x1
I0403 15:17:01.874143 31405 net.cpp:425] inception_3a/relu_1x1 <- inception_3a/1x1
I0403 15:17:01.874163 31405 net.cpp:386] inception_3a/relu_1x1 -> inception_3a/1x1 (in-place)
I0403 15:17:01.874336 31405 net.cpp:141] Setting up inception_3a/relu_1x1
I0403 15:17:01.874362 31405 net.cpp:148] Top shape: 24 64 28 28 (1204224)
I0403 15:17:01.874377 31405 net.cpp:156] Memory required for data: 500958240
I0403 15:17:01.874390 31405 layer_factory.hpp:77] Creating layer inception_3a/3x3_reduce
I0403 15:17:01.874413 31405 net.cpp:91] Creating Layer inception_3a/3x3_reduce
I0403 15:17:01.874429 31405 net.cpp:425] inception_3a/3x3_reduce <- pool2/3x3_s2_pool2/3x3_s2_0_split_1
I0403 15:17:01.874450 31405 net.cpp:399] inception_3a/3x3_reduce -> inception_3a/3x3_reduce
I0403 15:17:01.876144 31405 net.cpp:141] Setting up inception_3a/3x3_reduce
I0403 15:17:01.876178 31405 net.cpp:148] Top shape: 24 96 28 28 (1806336)
I0403 15:17:01.876194 31405 net.cpp:156] Memory required for data: 508183584
I0403 15:17:01.876216 31405 layer_factory.hpp:77] Creating layer inception_3a/relu_3x3_reduce
I0403 15:17:01.876250 31405 net.cpp:91] Creating Layer inception_3a/relu_3x3_reduce
I0403 15:17:01.876268 31405 net.cpp:425] inception_3a/relu_3x3_reduce <- inception_3a/3x3_reduce
I0403 15:17:01.876288 31405 net.cpp:386] inception_3a/relu_3x3_reduce -> inception_3a/3x3_reduce (in-place)
I0403 15:17:01.876466 31405 net.cpp:141] Setting up inception_3a/relu_3x3_reduce
I0403 15:17:01.876494 31405 net.cpp:148] Top shape: 24 96 28 28 (1806336)
I0403 15:17:01.876509 31405 net.cpp:156] Memory required for data: 515408928
I0403 15:17:01.876524 31405 layer_factory.hpp:77] Creating layer inception_3a/3x3
I0403 15:17:01.876551 31405 net.cpp:91] Creating Layer inception_3a/3x3
I0403 15:17:01.876571 31405 net.cpp:425] inception_3a/3x3 <- inception_3a/3x3_reduce
I0403 15:17:01.876595 31405 net.cpp:399] inception_3a/3x3 -> inception_3a/3x3
I0403 15:17:01.878237 31405 net.cpp:141] Setting up inception_3a/3x3
I0403 15:17:01.878274 31405 net.cpp:148] Top shape: 24 128 28 28 (2408448)
I0403 15:17:01.878295 31405 net.cpp:156] Memory required for data: 525042720
I0403 15:17:01.878319 31405 layer_factory.hpp:77] Creating layer inception_3a/relu_3x3
I0403 15:17:01.878337 31405 net.cpp:91] Creating Layer inception_3a/relu_3x3
I0403 15:17:01.878355 31405 net.cpp:425] inception_3a/relu_3x3 <- inception_3a/3x3
I0403 15:17:01.878373 31405 net.cpp:386] inception_3a/relu_3x3 -> inception_3a/3x3 (in-place)
I0403 15:17:01.878654 31405 net.cpp:141] Setting up inception_3a/relu_3x3
I0403 15:17:01.878682 31405 net.cpp:148] Top shape: 24 128 28 28 (2408448)
I0403 15:17:01.878698 31405 net.cpp:156] Memory required for data: 534676512
I0403 15:17:01.878713 31405 layer_factory.hpp:77] Creating layer inception_3a/5x5_reduce
I0403 15:17:01.878736 31405 net.cpp:91] Creating Layer inception_3a/5x5_reduce
I0403 15:17:01.878752 31405 net.cpp:425] inception_3a/5x5_reduce <- pool2/3x3_s2_pool2/3x3_s2_0_split_2
I0403 15:17:01.878773 31405 net.cpp:399] inception_3a/5x5_reduce -> inception_3a/5x5_reduce
I0403 15:17:01.879730 31405 net.cpp:141] Setting up inception_3a/5x5_reduce
I0403 15:17:01.879757 31405 net.cpp:148] Top shape: 24 16 28 28 (301056)
I0403 15:17:01.879775 31405 net.cpp:156] Memory required for data: 535880736
I0403 15:17:01.879793 31405 layer_factory.hpp:77] Creating layer inception_3a/relu_5x5_reduce
I0403 15:17:01.879817 31405 net.cpp:91] Creating Layer inception_3a/relu_5x5_reduce
I0403 15:17:01.879835 31405 net.cpp:425] inception_3a/relu_5x5_reduce <- inception_3a/5x5_reduce
I0403 15:17:01.879855 31405 net.cpp:386] inception_3a/relu_5x5_reduce -> inception_3a/5x5_reduce (in-place)
I0403 15:17:01.880151 31405 net.cpp:141] Setting up inception_3a/relu_5x5_reduce
I0403 15:17:01.880177 31405 net.cpp:148] Top shape: 24 16 28 28 (301056)
I0403 15:17:01.880192 31405 net.cpp:156] Memory required for data: 537084960
I0403 15:17:01.880208 31405 layer_factory.hpp:77] Creating layer inception_3a/5x5
I0403 15:17:01.880229 31405 net.cpp:91] Creating Layer inception_3a/5x5
I0403 15:17:01.880246 31405 net.cpp:425] inception_3a/5x5 <- inception_3a/5x5_reduce
I0403 15:17:01.880267 31405 net.cpp:399] inception_3a/5x5 -> inception_3a/5x5
I0403 15:17:01.881276 31405 net.cpp:141] Setting up inception_3a/5x5
I0403 15:17:01.881307 31405 net.cpp:148] Top shape: 24 32 28 28 (602112)
I0403 15:17:01.881324 31405 net.cpp:156] Memory required for data: 539493408
I0403 15:17:01.881342 31405 layer_factory.hpp:77] Creating layer inception_3a/relu_5x5
I0403 15:17:01.881361 31405 net.cpp:91] Creating Layer inception_3a/relu_5x5
I0403 15:17:01.881377 31405 net.cpp:425] inception_3a/relu_5x5 <- inception_3a/5x5
I0403 15:17:01.881397 31405 net.cpp:386] inception_3a/relu_5x5 -> inception_3a/5x5 (in-place)
I0403 15:17:01.881579 31405 net.cpp:141] Setting up inception_3a/relu_5x5
I0403 15:17:01.881604 31405 net.cpp:148] Top shape: 24 32 28 28 (602112)
I0403 15:17:01.881619 31405 net.cpp:156] Memory required for data: 541901856
I0403 15:17:01.881634 31405 layer_factory.hpp:77] Creating layer inception_3a/pool
I0403 15:17:01.881651 31405 net.cpp:91] Creating Layer inception_3a/pool
I0403 15:17:01.881681 31405 net.cpp:425] inception_3a/pool <- pool2/3x3_s2_pool2/3x3_s2_0_split_3
I0403 15:17:01.881703 31405 net.cpp:399] inception_3a/pool -> inception_3a/pool
I0403 15:17:01.881760 31405 net.cpp:141] Setting up inception_3a/pool
I0403 15:17:01.881783 31405 net.cpp:148] Top shape: 24 192 28 28 (3612672)
I0403 15:17:01.881798 31405 net.cpp:156] Memory required for data: 556352544
I0403 15:17:01.881813 31405 layer_factory.hpp:77] Creating layer inception_3a/pool_proj
I0403 15:17:01.881840 31405 net.cpp:91] Creating Layer inception_3a/pool_proj
I0403 15:17:01.881857 31405 net.cpp:425] inception_3a/pool_proj <- inception_3a/pool
I0403 15:17:01.881876 31405 net.cpp:399] inception_3a/pool_proj -> inception_3a/pool_proj
I0403 15:17:01.882829 31405 net.cpp:141] Setting up inception_3a/pool_proj
I0403 15:17:01.882858 31405 net.cpp:148] Top shape: 24 32 28 28 (602112)
I0403 15:17:01.882874 31405 net.cpp:156] Memory required for data: 558760992
I0403 15:17:01.882897 31405 layer_factory.hpp:77] Creating layer inception_3a/relu_pool_proj
I0403 15:17:01.882920 31405 net.cpp:91] Creating Layer inception_3a/relu_pool_proj
I0403 15:17:01.882936 31405 net.cpp:425] inception_3a/relu_pool_proj <- inception_3a/pool_proj
I0403 15:17:01.882953 31405 net.cpp:386] inception_3a/relu_pool_proj -> inception_3a/pool_proj (in-place)
I0403 15:17:01.883221 31405 net.cpp:141] Setting up inception_3a/relu_pool_proj
I0403 15:17:01.883251 31405 net.cpp:148] Top shape: 24 32 28 28 (602112)
I0403 15:17:01.883271 31405 net.cpp:156] Memory required for data: 561169440
I0403 15:17:01.883286 31405 layer_factory.hpp:77] Creating layer inception_3a/output
I0403 15:17:01.883306 31405 net.cpp:91] Creating Layer inception_3a/output
I0403 15:17:01.883322 31405 net.cpp:425] inception_3a/output <- inception_3a/1x1
I0403 15:17:01.883338 31405 net.cpp:425] inception_3a/output <- inception_3a/3x3
I0403 15:17:01.883354 31405 net.cpp:425] inception_3a/output <- inception_3a/5x5
I0403 15:17:01.883369 31405 net.cpp:425] inception_3a/output <- inception_3a/pool_proj
I0403 15:17:01.883389 31405 net.cpp:399] inception_3a/output -> inception_3a/output
I0403 15:17:01.883435 31405 net.cpp:141] Setting up inception_3a/output
I0403 15:17:01.883457 31405 net.cpp:148] Top shape: 24 256 28 28 (4816896)
I0403 15:17:01.883472 31405 net.cpp:156] Memory required for data: 580437024
I0403 15:17:01.883487 31405 layer_factory.hpp:77] Creating layer inception_3a/output_inception_3a/output_0_split
I0403 15:17:01.883507 31405 net.cpp:91] Creating Layer inception_3a/output_inception_3a/output_0_split
I0403 15:17:01.883522 31405 net.cpp:425] inception_3a/output_inception_3a/output_0_split <- inception_3a/output
I0403 15:17:01.883544 31405 net.cpp:399] inception_3a/output_inception_3a/output_0_split -> inception_3a/output_inception_3a/output_0_split_0
I0403 15:17:01.883565 31405 net.cpp:399] inception_3a/output_inception_3a/output_0_split -> inception_3a/output_inception_3a/output_0_split_1
I0403 15:17:01.883590 31405 net.cpp:399] inception_3a/output_inception_3a/output_0_split -> inception_3a/output_inception_3a/output_0_split_2
I0403 15:17:01.883611 31405 net.cpp:399] inception_3a/output_inception_3a/output_0_split -> inception_3a/output_inception_3a/output_0_split_3
I0403 15:17:01.883683 31405 net.cpp:141] Setting up inception_3a/output_inception_3a/output_0_split
I0403 15:17:01.883708 31405 net.cpp:148] Top shape: 24 256 28 28 (4816896)
I0403 15:17:01.883726 31405 net.cpp:148] Top shape: 24 256 28 28 (4816896)
I0403 15:17:01.883743 31405 net.cpp:148] Top shape: 24 256 28 28 (4816896)
I0403 15:17:01.883757 31405 net.cpp:148] Top shape: 24 256 28 28 (4816896)
I0403 15:17:01.883771 31405 net.cpp:156] Memory required for data: 657507360
I0403 15:17:01.883785 31405 layer_factory.hpp:77] Creating layer inception_3b/1x1
I0403 15:17:01.883807 31405 net.cpp:91] Creating Layer inception_3b/1x1
I0403 15:17:01.883826 31405 net.cpp:425] inception_3b/1x1 <- inception_3a/output_inception_3a/output_0_split_0
I0403 15:17:01.883843 31405 net.cpp:399] inception_3b/1x1 -> inception_3b/1x1
I0403 15:17:01.885015 31405 net.cpp:141] Setting up inception_3b/1x1
I0403 15:17:01.885058 31405 net.cpp:148] Top shape: 24 128 28 28 (2408448)
I0403 15:17:01.885078 31405 net.cpp:156] Memory required for data: 667141152
I0403 15:17:01.885097 31405 layer_factory.hpp:77] Creating layer inception_3b/relu_1x1
I0403 15:17:01.885115 31405 net.cpp:91] Creating Layer inception_3b/relu_1x1
I0403 15:17:01.885133 31405 net.cpp:425] inception_3b/relu_1x1 <- inception_3b/1x1
I0403 15:17:01.885150 31405 net.cpp:386] inception_3b/relu_1x1 -> inception_3b/1x1 (in-place)
I0403 15:17:01.885325 31405 net.cpp:141] Setting up inception_3b/relu_1x1
I0403 15:17:01.885356 31405 net.cpp:148] Top shape: 24 128 28 28 (2408448)
I0403 15:17:01.885373 31405 net.cpp:156] Memory required for data: 676774944
I0403 15:17:01.885388 31405 layer_factory.hpp:77] Creating layer inception_3b/3x3_reduce
I0403 15:17:01.885412 31405 net.cpp:91] Creating Layer inception_3b/3x3_reduce
I0403 15:17:01.885431 31405 net.cpp:425] inception_3b/3x3_reduce <- inception_3a/output_inception_3a/output_0_split_1
I0403 15:17:01.885452 31405 net.cpp:399] inception_3b/3x3_reduce -> inception_3b/3x3_reduce
I0403 15:17:01.886582 31405 net.cpp:141] Setting up inception_3b/3x3_reduce
I0403 15:17:01.886612 31405 net.cpp:148] Top shape: 24 128 28 28 (2408448)
I0403 15:17:01.886628 31405 net.cpp:156] Memory required for data: 686408736
I0403 15:17:01.886647 31405 layer_factory.hpp:77] Creating layer inception_3b/relu_3x3_reduce
I0403 15:17:01.886668 31405 net.cpp:91] Creating Layer inception_3b/relu_3x3_reduce
I0403 15:17:01.886687 31405 net.cpp:425] inception_3b/relu_3x3_reduce <- inception_3b/3x3_reduce
I0403 15:17:01.886704 31405 net.cpp:386] inception_3b/relu_3x3_reduce -> inception_3b/3x3_reduce (in-place)
I0403 15:17:01.886875 31405 net.cpp:141] Setting up inception_3b/relu_3x3_reduce
I0403 15:17:01.886900 31405 net.cpp:148] Top shape: 24 128 28 28 (2408448)
I0403 15:17:01.886914 31405 net.cpp:156] Memory required for data: 696042528
I0403 15:17:01.886929 31405 layer_factory.hpp:77] Creating layer inception_3b/3x3
I0403 15:17:01.886952 31405 net.cpp:91] Creating Layer inception_3b/3x3
I0403 15:17:01.886970 31405 net.cpp:425] inception_3b/3x3 <- inception_3b/3x3_reduce
I0403 15:17:01.886992 31405 net.cpp:399] inception_3b/3x3 -> inception_3b/3x3
I0403 15:17:01.889871 31405 net.cpp:141] Setting up inception_3b/3x3
I0403 15:17:01.889902 31405 net.cpp:148] Top shape: 24 192 28 28 (3612672)
I0403 15:17:01.889919 31405 net.cpp:156] Memory required for data: 710493216
I0403 15:17:01.889941 31405 layer_factory.hpp:77] Creating layer inception_3b/relu_3x3
I0403 15:17:01.889960 31405 net.cpp:91] Creating Layer inception_3b/relu_3x3
I0403 15:17:01.889976 31405 net.cpp:425] inception_3b/relu_3x3 <- inception_3b/3x3
I0403 15:17:01.889993 31405 net.cpp:386] inception_3b/relu_3x3 -> inception_3b/3x3 (in-place)
I0403 15:17:01.890271 31405 net.cpp:141] Setting up inception_3b/relu_3x3
I0403 15:17:01.890300 31405 net.cpp:148] Top shape: 24 192 28 28 (3612672)
I0403 15:17:01.890316 31405 net.cpp:156] Memory required for data: 724943904
I0403 15:17:01.890331 31405 layer_factory.hpp:77] Creating layer inception_3b/5x5_reduce
I0403 15:17:01.890353 31405 net.cpp:91] Creating Layer inception_3b/5x5_reduce
I0403 15:17:01.890370 31405 net.cpp:425] inception_3b/5x5_reduce <- inception_3a/output_inception_3a/output_0_split_2
I0403 15:17:01.890393 31405 net.cpp:399] inception_3b/5x5_reduce -> inception_3b/5x5_reduce
I0403 15:17:01.891371 31405 net.cpp:141] Setting up inception_3b/5x5_reduce
I0403 15:17:01.891401 31405 net.cpp:148] Top shape: 24 32 28 28 (602112)
I0403 15:17:01.891417 31405 net.cpp:156] Memory required for data: 727352352
I0403 15:17:01.891438 31405 layer_factory.hpp:77] Creating layer inception_3b/relu_5x5_reduce
I0403 15:17:01.891455 31405 net.cpp:91] Creating Layer inception_3b/relu_5x5_reduce
I0403 15:17:01.891471 31405 net.cpp:425] inception_3b/relu_5x5_reduce <- inception_3b/5x5_reduce
I0403 15:17:01.891491 31405 net.cpp:386] inception_3b/relu_5x5_reduce -> inception_3b/5x5_reduce (in-place)
I0403 15:17:01.891683 31405 net.cpp:141] Setting up inception_3b/relu_5x5_reduce
I0403 15:17:01.891707 31405 net.cpp:148] Top shape: 24 32 28 28 (602112)
I0403 15:17:01.891722 31405 net.cpp:156] Memory required for data: 729760800
I0403 15:17:01.891736 31405 layer_factory.hpp:77] Creating layer inception_3b/5x5
I0403 15:17:01.891758 31405 net.cpp:91] Creating Layer inception_3b/5x5
I0403 15:17:01.891777 31405 net.cpp:425] inception_3b/5x5 <- inception_3b/5x5_reduce
I0403 15:17:01.891798 31405 net.cpp:399] inception_3b/5x5 -> inception_3b/5x5
I0403 15:17:01.893820 31405 net.cpp:141] Setting up inception_3b/5x5
I0403 15:17:01.893848 31405 net.cpp:148] Top shape: 24 96 28 28 (1806336)
I0403 15:17:01.893864 31405 net.cpp:156] Memory required for data: 736986144
I0403 15:17:01.893882 31405 layer_factory.hpp:77] Creating layer inception_3b/relu_5x5
I0403 15:17:01.893903 31405 net.cpp:91] Creating Layer inception_3b/relu_5x5
I0403 15:17:01.893919 31405 net.cpp:425] inception_3b/relu_5x5 <- inception_3b/5x5
I0403 15:17:01.893937 31405 net.cpp:386] inception_3b/relu_5x5 -> inception_3b/5x5 (in-place)
I0403 15:17:01.894129 31405 net.cpp:141] Setting up inception_3b/relu_5x5
I0403 15:17:01.894155 31405 net.cpp:148] Top shape: 24 96 28 28 (1806336)
I0403 15:17:01.894168 31405 net.cpp:156] Memory required for data: 744211488
I0403 15:17:01.894183 31405 layer_factory.hpp:77] Creating layer inception_3b/pool
I0403 15:17:01.894201 31405 net.cpp:91] Creating Layer inception_3b/pool
I0403 15:17:01.894217 31405 net.cpp:425] inception_3b/pool <- inception_3a/output_inception_3a/output_0_split_3
I0403 15:17:01.894234 31405 net.cpp:399] inception_3b/pool -> inception_3b/pool
I0403 15:17:01.894289 31405 net.cpp:141] Setting up inception_3b/pool
I0403 15:17:01.894312 31405 net.cpp:148] Top shape: 24 256 28 28 (4816896)
I0403 15:17:01.894327 31405 net.cpp:156] Memory required for data: 763479072
I0403 15:17:01.894341 31405 layer_factory.hpp:77] Creating layer inception_3b/pool_proj
I0403 15:17:01.894366 31405 net.cpp:91] Creating Layer inception_3b/pool_proj
I0403 15:17:01.894383 31405 net.cpp:425] inception_3b/pool_proj <- inception_3b/pool
I0403 15:17:01.894402 31405 net.cpp:399] inception_3b/pool_proj -> inception_3b/pool_proj
I0403 15:17:01.895447 31405 net.cpp:141] Setting up inception_3b/pool_proj
I0403 15:17:01.895474 31405 net.cpp:148] Top shape: 24 64 28 28 (1204224)
I0403 15:17:01.895489 31405 net.cpp:156] Memory required for data: 768295968
I0403 15:17:01.895509 31405 layer_factory.hpp:77] Creating layer inception_3b/relu_pool_proj
I0403 15:17:01.895529 31405 net.cpp:91] Creating Layer inception_3b/relu_pool_proj
I0403 15:17:01.895550 31405 net.cpp:425] inception_3b/relu_pool_proj <- inception_3b/pool_proj
I0403 15:17:01.895568 31405 net.cpp:386] inception_3b/relu_pool_proj -> inception_3b/pool_proj (in-place)
I0403 15:17:01.895967 31405 net.cpp:141] Setting up inception_3b/relu_pool_proj
I0403 15:17:01.895993 31405 net.cpp:148] Top shape: 24 64 28 28 (1204224)
I0403 15:17:01.896008 31405 net.cpp:156] Memory required for data: 773112864
I0403 15:17:01.896023 31405 layer_factory.hpp:77] Creating layer inception_3b/output
I0403 15:17:01.896040 31405 net.cpp:91] Creating Layer inception_3b/output
I0403 15:17:01.896056 31405 net.cpp:425] inception_3b/output <- inception_3b/1x1
I0403 15:17:01.896072 31405 net.cpp:425] inception_3b/output <- inception_3b/3x3
I0403 15:17:01.896088 31405 net.cpp:425] inception_3b/output <- inception_3b/5x5
I0403 15:17:01.896103 31405 net.cpp:425] inception_3b/output <- inception_3b/pool_proj
I0403 15:17:01.896123 31405 net.cpp:399] inception_3b/output -> inception_3b/output
I0403 15:17:01.896167 31405 net.cpp:141] Setting up inception_3b/output
I0403 15:17:01.896191 31405 net.cpp:148] Top shape: 24 480 28 28 (9031680)
I0403 15:17:01.896206 31405 net.cpp:156] Memory required for data: 809239584
I0403 15:17:01.896221 31405 layer_factory.hpp:77] Creating layer pool3/3x3_s2
I0403 15:17:01.896237 31405 net.cpp:91] Creating Layer pool3/3x3_s2
I0403 15:17:01.896253 31405 net.cpp:425] pool3/3x3_s2 <- inception_3b/output
I0403 15:17:01.896288 31405 net.cpp:399] pool3/3x3_s2 -> pool3/3x3_s2
I0403 15:17:01.896347 31405 net.cpp:141] Setting up pool3/3x3_s2
I0403 15:17:01.896369 31405 net.cpp:148] Top shape: 24 480 14 14 (2257920)
I0403 15:17:01.896384 31405 net.cpp:156] Memory required for data: 818271264
I0403 15:17:01.896399 31405 layer_factory.hpp:77] Creating layer pool3/3x3_s2_pool3/3x3_s2_0_split
I0403 15:17:01.896417 31405 net.cpp:91] Creating Layer pool3/3x3_s2_pool3/3x3_s2_0_split
I0403 15:17:01.896433 31405 net.cpp:425] pool3/3x3_s2_pool3/3x3_s2_0_split <- pool3/3x3_s2
I0403 15:17:01.896451 31405 net.cpp:399] pool3/3x3_s2_pool3/3x3_s2_0_split -> pool3/3x3_s2_pool3/3x3_s2_0_split_0
I0403 15:17:01.896469 31405 net.cpp:399] pool3/3x3_s2_pool3/3x3_s2_0_split -> pool3/3x3_s2_pool3/3x3_s2_0_split_1
I0403 15:17:01.896488 31405 net.cpp:399] pool3/3x3_s2_pool3/3x3_s2_0_split -> pool3/3x3_s2_pool3/3x3_s2_0_split_2
I0403 15:17:01.896510 31405 net.cpp:399] pool3/3x3_s2_pool3/3x3_s2_0_split -> pool3/3x3_s2_pool3/3x3_s2_0_split_3
I0403 15:17:01.896591 31405 net.cpp:141] Setting up pool3/3x3_s2_pool3/3x3_s2_0_split
I0403 15:17:01.896615 31405 net.cpp:148] Top shape: 24 480 14 14 (2257920)
I0403 15:17:01.896631 31405 net.cpp:148] Top shape: 24 480 14 14 (2257920)
I0403 15:17:01.896647 31405 net.cpp:148] Top shape: 24 480 14 14 (2257920)
I0403 15:17:01.896662 31405 net.cpp:148] Top shape: 24 480 14 14 (2257920)
I0403 15:17:01.896677 31405 net.cpp:156] Memory required for data: 854397984
I0403 15:17:01.896690 31405 layer_factory.hpp:77] Creating layer inception_4a/1x1
I0403 15:17:01.896713 31405 net.cpp:91] Creating Layer inception_4a/1x1
I0403 15:17:01.896729 31405 net.cpp:425] inception_4a/1x1 <- pool3/3x3_s2_pool3/3x3_s2_0_split_0
I0403 15:17:01.896750 31405 net.cpp:399] inception_4a/1x1 -> inception_4a/1x1
I0403 15:17:01.898305 31405 net.cpp:141] Setting up inception_4a/1x1
I0403 15:17:01.898332 31405 net.cpp:148] Top shape: 24 192 14 14 (903168)
I0403 15:17:01.898349 31405 net.cpp:156] Memory required for data: 858010656
I0403 15:17:01.898367 31405 layer_factory.hpp:77] Creating layer inception_4a/relu_1x1
I0403 15:17:01.898387 31405 net.cpp:91] Creating Layer inception_4a/relu_1x1
I0403 15:17:01.898404 31405 net.cpp:425] inception_4a/relu_1x1 <- inception_4a/1x1
I0403 15:17:01.898422 31405 net.cpp:386] inception_4a/relu_1x1 -> inception_4a/1x1 (in-place)
I0403 15:17:01.898598 31405 net.cpp:141] Setting up inception_4a/relu_1x1
I0403 15:17:01.898627 31405 net.cpp:148] Top shape: 24 192 14 14 (903168)
I0403 15:17:01.898641 31405 net.cpp:156] Memory required for data: 861623328
I0403 15:17:01.898656 31405 layer_factory.hpp:77] Creating layer inception_4a/3x3_reduce
I0403 15:17:01.898679 31405 net.cpp:91] Creating Layer inception_4a/3x3_reduce
I0403 15:17:01.898695 31405 net.cpp:425] inception_4a/3x3_reduce <- pool3/3x3_s2_pool3/3x3_s2_0_split_1
I0403 15:17:01.898715 31405 net.cpp:399] inception_4a/3x3_reduce -> inception_4a/3x3_reduce
I0403 15:17:01.899978 31405 net.cpp:141] Setting up inception_4a/3x3_reduce
I0403 15:17:01.900005 31405 net.cpp:148] Top shape: 24 96 14 14 (451584)
I0403 15:17:01.900020 31405 net.cpp:156] Memory required for data: 863429664
I0403 15:17:01.900045 31405 layer_factory.hpp:77] Creating layer inception_4a/relu_3x3_reduce
I0403 15:17:01.900066 31405 net.cpp:91] Creating Layer inception_4a/relu_3x3_reduce
I0403 15:17:01.900081 31405 net.cpp:425] inception_4a/relu_3x3_reduce <- inception_4a/3x3_reduce
I0403 15:17:01.900101 31405 net.cpp:386] inception_4a/relu_3x3_reduce -> inception_4a/3x3_reduce (in-place)
I0403 15:17:01.900279 31405 net.cpp:141] Setting up inception_4a/relu_3x3_reduce
I0403 15:17:01.900307 31405 net.cpp:148] Top shape: 24 96 14 14 (451584)
I0403 15:17:01.900322 31405 net.cpp:156] Memory required for data: 865236000
I0403 15:17:01.900337 31405 layer_factory.hpp:77] Creating layer inception_4a/3x3
I0403 15:17:01.900357 31405 net.cpp:91] Creating Layer inception_4a/3x3
I0403 15:17:01.900373 31405 net.cpp:425] inception_4a/3x3 <- inception_4a/3x3_reduce
I0403 15:17:01.900394 31405 net.cpp:399] inception_4a/3x3 -> inception_4a/3x3
I0403 15:17:01.903044 31405 net.cpp:141] Setting up inception_4a/3x3
I0403 15:17:01.903072 31405 net.cpp:148] Top shape: 24 208 14 14 (978432)
I0403 15:17:01.903089 31405 net.cpp:156] Memory required for data: 869149728
I0403 15:17:01.903108 31405 layer_factory.hpp:77] Creating layer inception_4a/relu_3x3
I0403 15:17:01.903127 31405 net.cpp:91] Creating Layer inception_4a/relu_3x3
I0403 15:17:01.903143 31405 net.cpp:425] inception_4a/relu_3x3 <- inception_4a/3x3
I0403 15:17:01.903161 31405 net.cpp:386] inception_4a/relu_3x3 -> inception_4a/3x3 (in-place)
I0403 15:17:01.903434 31405 net.cpp:141] Setting up inception_4a/relu_3x3
I0403 15:17:01.903460 31405 net.cpp:148] Top shape: 24 208 14 14 (978432)
I0403 15:17:01.903475 31405 net.cpp:156] Memory required for data: 873063456
I0403 15:17:01.903491 31405 layer_factory.hpp:77] Creating layer inception_4a/5x5_reduce
I0403 15:17:01.903515 31405 net.cpp:91] Creating Layer inception_4a/5x5_reduce
I0403 15:17:01.903537 31405 net.cpp:425] inception_4a/5x5_reduce <- pool3/3x3_s2_pool3/3x3_s2_0_split_2
I0403 15:17:01.903556 31405 net.cpp:399] inception_4a/5x5_reduce -> inception_4a/5x5_reduce
I0403 15:17:01.904592 31405 net.cpp:141] Setting up inception_4a/5x5_reduce
I0403 15:17:01.904623 31405 net.cpp:148] Top shape: 24 16 14 14 (75264)
I0403 15:17:01.904639 31405 net.cpp:156] Memory required for data: 873364512
I0403 15:17:01.904657 31405 layer_factory.hpp:77] Creating layer inception_4a/relu_5x5_reduce
I0403 15:17:01.904675 31405 net.cpp:91] Creating Layer inception_4a/relu_5x5_reduce
I0403 15:17:01.904691 31405 net.cpp:425] inception_4a/relu_5x5_reduce <- inception_4a/5x5_reduce
I0403 15:17:01.904711 31405 net.cpp:386] inception_4a/relu_5x5_reduce -> inception_4a/5x5_reduce (in-place)
I0403 15:17:01.904888 31405 net.cpp:141] Setting up inception_4a/relu_5x5_reduce
I0403 15:17:01.904913 31405 net.cpp:148] Top shape: 24 16 14 14 (75264)
I0403 15:17:01.904928 31405 net.cpp:156] Memory required for data: 873665568
I0403 15:17:01.904942 31405 layer_factory.hpp:77] Creating layer inception_4a/5x5
I0403 15:17:01.904964 31405 net.cpp:91] Creating Layer inception_4a/5x5
I0403 15:17:01.904981 31405 net.cpp:425] inception_4a/5x5 <- inception_4a/5x5_reduce
I0403 15:17:01.905002 31405 net.cpp:399] inception_4a/5x5 -> inception_4a/5x5
I0403 15:17:01.906077 31405 net.cpp:141] Setting up inception_4a/5x5
I0403 15:17:01.906105 31405 net.cpp:148] Top shape: 24 48 14 14 (225792)
I0403 15:17:01.906121 31405 net.cpp:156] Memory required for data: 874568736
I0403 15:17:01.906138 31405 layer_factory.hpp:77] Creating layer inception_4a/relu_5x5
I0403 15:17:01.906159 31405 net.cpp:91] Creating Layer inception_4a/relu_5x5
I0403 15:17:01.906177 31405 net.cpp:425] inception_4a/relu_5x5 <- inception_4a/5x5
I0403 15:17:01.906194 31405 net.cpp:386] inception_4a/relu_5x5 -> inception_4a/5x5 (in-place)
I0403 15:17:01.906388 31405 net.cpp:141] Setting up inception_4a/relu_5x5
I0403 15:17:01.906412 31405 net.cpp:148] Top shape: 24 48 14 14 (225792)
I0403 15:17:01.906427 31405 net.cpp:156] Memory required for data: 875471904
I0403 15:17:01.906442 31405 layer_factory.hpp:77] Creating layer inception_4a/pool
I0403 15:17:01.906462 31405 net.cpp:91] Creating Layer inception_4a/pool
I0403 15:17:01.906478 31405 net.cpp:425] inception_4a/pool <- pool3/3x3_s2_pool3/3x3_s2_0_split_3
I0403 15:17:01.906497 31405 net.cpp:399] inception_4a/pool -> inception_4a/pool
I0403 15:17:01.906563 31405 net.cpp:141] Setting up inception_4a/pool
I0403 15:17:01.906586 31405 net.cpp:148] Top shape: 24 480 14 14 (2257920)
I0403 15:17:01.906600 31405 net.cpp:156] Memory required for data: 884503584
I0403 15:17:01.906615 31405 layer_factory.hpp:77] Creating layer inception_4a/pool_proj
I0403 15:17:01.906637 31405 net.cpp:91] Creating Layer inception_4a/pool_proj
I0403 15:17:01.906656 31405 net.cpp:425] inception_4a/pool_proj <- inception_4a/pool
I0403 15:17:01.906675 31405 net.cpp:399] inception_4a/pool_proj -> inception_4a/pool_proj
I0403 15:17:01.907840 31405 net.cpp:141] Setting up inception_4a/pool_proj
I0403 15:17:01.907867 31405 net.cpp:148] Top shape: 24 64 14 14 (301056)
I0403 15:17:01.907899 31405 net.cpp:156] Memory required for data: 885707808
I0403 15:17:01.907919 31405 layer_factory.hpp:77] Creating layer inception_4a/relu_pool_proj
I0403 15:17:01.907941 31405 net.cpp:91] Creating Layer inception_4a/relu_pool_proj
I0403 15:17:01.907958 31405 net.cpp:425] inception_4a/relu_pool_proj <- inception_4a/pool_proj
I0403 15:17:01.907975 31405 net.cpp:386] inception_4a/relu_pool_proj -> inception_4a/pool_proj (in-place)
I0403 15:17:01.908258 31405 net.cpp:141] Setting up inception_4a/relu_pool_proj
I0403 15:17:01.908285 31405 net.cpp:148] Top shape: 24 64 14 14 (301056)
I0403 15:17:01.908300 31405 net.cpp:156] Memory required for data: 886912032
I0403 15:17:01.908315 31405 layer_factory.hpp:77] Creating layer inception_4a/output
I0403 15:17:01.908335 31405 net.cpp:91] Creating Layer inception_4a/output
I0403 15:17:01.908352 31405 net.cpp:425] inception_4a/output <- inception_4a/1x1
I0403 15:17:01.908370 31405 net.cpp:425] inception_4a/output <- inception_4a/3x3
I0403 15:17:01.908385 31405 net.cpp:425] inception_4a/output <- inception_4a/5x5
I0403 15:17:01.908401 31405 net.cpp:425] inception_4a/output <- inception_4a/pool_proj
I0403 15:17:01.908417 31405 net.cpp:399] inception_4a/output -> inception_4a/output
I0403 15:17:01.908463 31405 net.cpp:141] Setting up inception_4a/output
I0403 15:17:01.908486 31405 net.cpp:148] Top shape: 24 512 14 14 (2408448)
I0403 15:17:01.908501 31405 net.cpp:156] Memory required for data: 896545824
I0403 15:17:01.908516 31405 layer_factory.hpp:77] Creating layer inception_4a/output_inception_4a/output_0_split
I0403 15:17:01.908537 31405 net.cpp:91] Creating Layer inception_4a/output_inception_4a/output_0_split
I0403 15:17:01.908555 31405 net.cpp:425] inception_4a/output_inception_4a/output_0_split <- inception_4a/output
I0403 15:17:01.908576 31405 net.cpp:399] inception_4a/output_inception_4a/output_0_split -> inception_4a/output_inception_4a/output_0_split_0
I0403 15:17:01.908597 31405 net.cpp:399] inception_4a/output_inception_4a/output_0_split -> inception_4a/output_inception_4a/output_0_split_1
I0403 15:17:01.908617 31405 net.cpp:399] inception_4a/output_inception_4a/output_0_split -> inception_4a/output_inception_4a/output_0_split_2
I0403 15:17:01.908638 31405 net.cpp:399] inception_4a/output_inception_4a/output_0_split -> inception_4a/output_inception_4a/output_0_split_3
I0403 15:17:01.908656 31405 net.cpp:399] inception_4a/output_inception_4a/output_0_split -> inception_4a/output_inception_4a/output_0_split_4
I0403 15:17:01.908749 31405 net.cpp:141] Setting up inception_4a/output_inception_4a/output_0_split
I0403 15:17:01.908773 31405 net.cpp:148] Top shape: 24 512 14 14 (2408448)
I0403 15:17:01.908792 31405 net.cpp:148] Top shape: 24 512 14 14 (2408448)
I0403 15:17:01.908807 31405 net.cpp:148] Top shape: 24 512 14 14 (2408448)
I0403 15:17:01.908823 31405 net.cpp:148] Top shape: 24 512 14 14 (2408448)
I0403 15:17:01.908838 31405 net.cpp:148] Top shape: 24 512 14 14 (2408448)
I0403 15:17:01.908852 31405 net.cpp:156] Memory required for data: 944714784
I0403 15:17:01.908866 31405 layer_factory.hpp:77] Creating layer loss1/ave_pool
I0403 15:17:01.908885 31405 net.cpp:91] Creating Layer loss1/ave_pool
I0403 15:17:01.908900 31405 net.cpp:425] loss1/ave_pool <- inception_4a/output_inception_4a/output_0_split_0
I0403 15:17:01.908920 31405 net.cpp:399] loss1/ave_pool -> loss1/ave_pool
I0403 15:17:01.909126 31405 net.cpp:141] Setting up loss1/ave_pool
I0403 15:17:01.909152 31405 net.cpp:148] Top shape: 24 512 4 4 (196608)
I0403 15:17:01.909168 31405 net.cpp:156] Memory required for data: 945501216
I0403 15:17:01.909183 31405 layer_factory.hpp:77] Creating layer loss1/conv
I0403 15:17:01.909205 31405 net.cpp:91] Creating Layer loss1/conv
I0403 15:17:01.909222 31405 net.cpp:425] loss1/conv <- loss1/ave_pool
I0403 15:17:01.909255 31405 net.cpp:399] loss1/conv -> loss1/conv
I0403 15:17:01.910691 31405 net.cpp:141] Setting up loss1/conv
I0403 15:17:01.910722 31405 net.cpp:148] Top shape: 24 128 4 4 (49152)
I0403 15:17:01.910753 31405 net.cpp:156] Memory required for data: 945697824
I0403 15:17:01.910773 31405 layer_factory.hpp:77] Creating layer loss1/relu_conv
I0403 15:17:01.910790 31405 net.cpp:91] Creating Layer loss1/relu_conv
I0403 15:17:01.910806 31405 net.cpp:425] loss1/relu_conv <- loss1/conv
I0403 15:17:01.910827 31405 net.cpp:386] loss1/relu_conv -> loss1/conv (in-place)
I0403 15:17:01.911125 31405 net.cpp:141] Setting up loss1/relu_conv
I0403 15:17:01.911155 31405 net.cpp:148] Top shape: 24 128 4 4 (49152)
I0403 15:17:01.911173 31405 net.cpp:156] Memory required for data: 945894432
I0403 15:17:01.911188 31405 layer_factory.hpp:77] Creating layer loss1/fc
I0403 15:17:01.911213 31405 net.cpp:91] Creating Layer loss1/fc
I0403 15:17:01.911231 31405 net.cpp:425] loss1/fc <- loss1/conv
I0403 15:17:01.911265 31405 net.cpp:399] loss1/fc -> loss1/fc
I0403 15:17:01.928941 31405 net.cpp:141] Setting up loss1/fc
I0403 15:17:01.928975 31405 net.cpp:148] Top shape: 24 1024 (24576)
I0403 15:17:01.928992 31405 net.cpp:156] Memory required for data: 945992736
I0403 15:17:01.929010 31405 layer_factory.hpp:77] Creating layer loss1/relu_fc
I0403 15:17:01.929031 31405 net.cpp:91] Creating Layer loss1/relu_fc
I0403 15:17:01.929047 31405 net.cpp:425] loss1/relu_fc <- loss1/fc
I0403 15:17:01.929065 31405 net.cpp:386] loss1/relu_fc -> loss1/fc (in-place)
I0403 15:17:01.929247 31405 net.cpp:141] Setting up loss1/relu_fc
I0403 15:17:01.929275 31405 net.cpp:148] Top shape: 24 1024 (24576)
I0403 15:17:01.929291 31405 net.cpp:156] Memory required for data: 946091040
I0403 15:17:01.929306 31405 layer_factory.hpp:77] Creating layer loss1/drop_fc
I0403 15:17:01.929332 31405 net.cpp:91] Creating Layer loss1/drop_fc
I0403 15:17:01.929350 31405 net.cpp:425] loss1/drop_fc <- loss1/fc
I0403 15:17:01.929368 31405 net.cpp:386] loss1/drop_fc -> loss1/fc (in-place)
I0403 15:17:01.929422 31405 net.cpp:141] Setting up loss1/drop_fc
I0403 15:17:01.929445 31405 net.cpp:148] Top shape: 24 1024 (24576)
I0403 15:17:01.929461 31405 net.cpp:156] Memory required for data: 946189344
I0403 15:17:01.929476 31405 layer_factory.hpp:77] Creating layer loss1/classifier_plantvillage
I0403 15:17:01.929493 31405 net.cpp:91] Creating Layer loss1/classifier_plantvillage
I0403 15:17:01.929508 31405 net.cpp:425] loss1/classifier_plantvillage <- loss1/fc
I0403 15:17:01.929529 31405 net.cpp:399] loss1/classifier_plantvillage -> loss1/classifier_plantvillage
I0403 15:17:01.930438 31405 net.cpp:141] Setting up loss1/classifier_plantvillage
I0403 15:17:01.930465 31405 net.cpp:148] Top shape: 24 38 (912)
I0403 15:17:01.930481 31405 net.cpp:156] Memory required for data: 946192992
I0403 15:17:01.930500 31405 layer_factory.hpp:77] Creating layer loss1/classifier_plantvillage_loss1/classifier_plantvillage_0_split
I0403 15:17:01.930519 31405 net.cpp:91] Creating Layer loss1/classifier_plantvillage_loss1/classifier_plantvillage_0_split
I0403 15:17:01.930539 31405 net.cpp:425] loss1/classifier_plantvillage_loss1/classifier_plantvillage_0_split <- loss1/classifier_plantvillage
I0403 15:17:01.930559 31405 net.cpp:399] loss1/classifier_plantvillage_loss1/classifier_plantvillage_0_split -> loss1/classifier_plantvillage_loss1/classifier_plantvillage_0_split_0
I0403 15:17:01.930580 31405 net.cpp:399] loss1/classifier_plantvillage_loss1/classifier_plantvillage_0_split -> loss1/classifier_plantvillage_loss1/classifier_plantvillage_0_split_1
I0403 15:17:01.930604 31405 net.cpp:399] loss1/classifier_plantvillage_loss1/classifier_plantvillage_0_split -> loss1/classifier_plantvillage_loss1/classifier_plantvillage_0_split_2
I0403 15:17:01.930670 31405 net.cpp:141] Setting up loss1/classifier_plantvillage_loss1/classifier_plantvillage_0_split
I0403 15:17:01.930693 31405 net.cpp:148] Top shape: 24 38 (912)
I0403 15:17:01.930709 31405 net.cpp:148] Top shape: 24 38 (912)
I0403 15:17:01.930723 31405 net.cpp:148] Top shape: 24 38 (912)
I0403 15:17:01.930737 31405 net.cpp:156] Memory required for data: 946203936
I0403 15:17:01.930752 31405 layer_factory.hpp:77] Creating layer inception_4b/1x1
I0403 15:17:01.930774 31405 net.cpp:91] Creating Layer inception_4b/1x1
I0403 15:17:01.930807 31405 net.cpp:425] inception_4b/1x1 <- inception_4a/output_inception_4a/output_0_split_1
I0403 15:17:01.930826 31405 net.cpp:399] inception_4b/1x1 -> inception_4b/1x1
I0403 15:17:01.932468 31405 net.cpp:141] Setting up inception_4b/1x1
I0403 15:17:01.932499 31405 net.cpp:148] Top shape: 24 160 14 14 (752640)
I0403 15:17:01.932515 31405 net.cpp:156] Memory required for data: 949214496
I0403 15:17:01.932538 31405 layer_factory.hpp:77] Creating layer inception_4b/relu_1x1
I0403 15:17:01.932557 31405 net.cpp:91] Creating Layer inception_4b/relu_1x1
I0403 15:17:01.932575 31405 net.cpp:425] inception_4b/relu_1x1 <- inception_4b/1x1
I0403 15:17:01.932595 31405 net.cpp:386] inception_4b/relu_1x1 -> inception_4b/1x1 (in-place)
I0403 15:17:01.932775 31405 net.cpp:141] Setting up inception_4b/relu_1x1
I0403 15:17:01.932801 31405 net.cpp:148] Top shape: 24 160 14 14 (752640)
I0403 15:17:01.932814 31405 net.cpp:156] Memory required for data: 952225056
I0403 15:17:01.932828 31405 layer_factory.hpp:77] Creating layer inception_4b/3x3_reduce
I0403 15:17:01.932852 31405 net.cpp:91] Creating Layer inception_4b/3x3_reduce
I0403 15:17:01.932870 31405 net.cpp:425] inception_4b/3x3_reduce <- inception_4a/output_inception_4a/output_0_split_2
I0403 15:17:01.932891 31405 net.cpp:399] inception_4b/3x3_reduce -> inception_4b/3x3_reduce
I0403 15:17:01.934242 31405 net.cpp:141] Setting up inception_4b/3x3_reduce
I0403 15:17:01.934270 31405 net.cpp:148] Top shape: 24 112 14 14 (526848)
I0403 15:17:01.934285 31405 net.cpp:156] Memory required for data: 954332448
I0403 15:17:01.934304 31405 layer_factory.hpp:77] Creating layer inception_4b/relu_3x3_reduce
I0403 15:17:01.934321 31405 net.cpp:91] Creating Layer inception_4b/relu_3x3_reduce
I0403 15:17:01.934336 31405 net.cpp:425] inception_4b/relu_3x3_reduce <- inception_4b/3x3_reduce
I0403 15:17:01.934355 31405 net.cpp:386] inception_4b/relu_3x3_reduce -> inception_4b/3x3_reduce (in-place)
I0403 15:17:01.934643 31405 net.cpp:141] Setting up inception_4b/relu_3x3_reduce
I0403 15:17:01.934669 31405 net.cpp:148] Top shape: 24 112 14 14 (526848)
I0403 15:17:01.934684 31405 net.cpp:156] Memory required for data: 956439840
I0403 15:17:01.934700 31405 layer_factory.hpp:77] Creating layer inception_4b/3x3
I0403 15:17:01.934722 31405 net.cpp:91] Creating Layer inception_4b/3x3
I0403 15:17:01.934741 31405 net.cpp:425] inception_4b/3x3 <- inception_4b/3x3_reduce
I0403 15:17:01.934762 31405 net.cpp:399] inception_4b/3x3 -> inception_4b/3x3
I0403 15:17:01.937738 31405 net.cpp:141] Setting up inception_4b/3x3
I0403 15:17:01.937767 31405 net.cpp:148] Top shape: 24 224 14 14 (1053696)
I0403 15:17:01.937783 31405 net.cpp:156] Memory required for data: 960654624
I0403 15:17:01.937800 31405 layer_factory.hpp:77] Creating layer inception_4b/relu_3x3
I0403 15:17:01.937820 31405 net.cpp:91] Creating Layer inception_4b/relu_3x3
I0403 15:17:01.937839 31405 net.cpp:425] inception_4b/relu_3x3 <- inception_4b/3x3
I0403 15:17:01.937856 31405 net.cpp:386] inception_4b/relu_3x3 -> inception_4b/3x3 (in-place)
I0403 15:17:01.938035 31405 net.cpp:141] Setting up inception_4b/relu_3x3
I0403 15:17:01.938061 31405 net.cpp:148] Top shape: 24 224 14 14 (1053696)
I0403 15:17:01.938076 31405 net.cpp:156] Memory required for data: 964869408
I0403 15:17:01.938091 31405 layer_factory.hpp:77] Creating layer inception_4b/5x5_reduce
I0403 15:17:01.938114 31405 net.cpp:91] Creating Layer inception_4b/5x5_reduce
I0403 15:17:01.938132 31405 net.cpp:425] inception_4b/5x5_reduce <- inception_4a/output_inception_4a/output_0_split_3
I0403 15:17:01.938150 31405 net.cpp:399] inception_4b/5x5_reduce -> inception_4b/5x5_reduce
I0403 15:17:01.939242 31405 net.cpp:141] Setting up inception_4b/5x5_reduce
I0403 15:17:01.939276 31405 net.cpp:148] Top shape: 24 24 14 14 (112896)
I0403 15:17:01.939292 31405 net.cpp:156] Memory required for data: 965320992
I0403 15:17:01.939311 31405 layer_factory.hpp:77] Creating layer inception_4b/relu_5x5_reduce
I0403 15:17:01.939328 31405 net.cpp:91] Creating Layer inception_4b/relu_5x5_reduce
I0403 15:17:01.939359 31405 net.cpp:425] inception_4b/relu_5x5_reduce <- inception_4b/5x5_reduce
I0403 15:17:01.939380 31405 net.cpp:386] inception_4b/relu_5x5_reduce -> inception_4b/5x5_reduce (in-place)
I0403 15:17:01.939580 31405 net.cpp:141] Setting up inception_4b/relu_5x5_reduce
I0403 15:17:01.939606 31405 net.cpp:148] Top shape: 24 24 14 14 (112896)
I0403 15:17:01.939622 31405 net.cpp:156] Memory required for data: 965772576
I0403 15:17:01.939637 31405 layer_factory.hpp:77] Creating layer inception_4b/5x5
I0403 15:17:01.939661 31405 net.cpp:91] Creating Layer inception_4b/5x5
I0403 15:17:01.939678 31405 net.cpp:425] inception_4b/5x5 <- inception_4b/5x5_reduce
I0403 15:17:01.939700 31405 net.cpp:399] inception_4b/5x5 -> inception_4b/5x5
I0403 15:17:01.940949 31405 net.cpp:141] Setting up inception_4b/5x5
I0403 15:17:01.940979 31405 net.cpp:148] Top shape: 24 64 14 14 (301056)
I0403 15:17:01.940995 31405 net.cpp:156] Memory required for data: 966976800
I0403 15:17:01.941015 31405 layer_factory.hpp:77] Creating layer inception_4b/relu_5x5
I0403 15:17:01.941032 31405 net.cpp:91] Creating Layer inception_4b/relu_5x5
I0403 15:17:01.941048 31405 net.cpp:425] inception_4b/relu_5x5 <- inception_4b/5x5
I0403 15:17:01.941067 31405 net.cpp:386] inception_4b/relu_5x5 -> inception_4b/5x5 (in-place)
I0403 15:17:01.941359 31405 net.cpp:141] Setting up inception_4b/relu_5x5
I0403 15:17:01.941387 31405 net.cpp:148] Top shape: 24 64 14 14 (301056)
I0403 15:17:01.941403 31405 net.cpp:156] Memory required for data: 968181024
I0403 15:17:01.941418 31405 layer_factory.hpp:77] Creating layer inception_4b/pool
I0403 15:17:01.941437 31405 net.cpp:91] Creating Layer inception_4b/pool
I0403 15:17:01.941452 31405 net.cpp:425] inception_4b/pool <- inception_4a/output_inception_4a/output_0_split_4
I0403 15:17:01.941473 31405 net.cpp:399] inception_4b/pool -> inception_4b/pool
I0403 15:17:01.941540 31405 net.cpp:141] Setting up inception_4b/pool
I0403 15:17:01.941573 31405 net.cpp:148] Top shape: 24 512 14 14 (2408448)
I0403 15:17:01.941588 31405 net.cpp:156] Memory required for data: 977814816
I0403 15:17:01.941603 31405 layer_factory.hpp:77] Creating layer inception_4b/pool_proj
I0403 15:17:01.941627 31405 net.cpp:91] Creating Layer inception_4b/pool_proj
I0403 15:17:01.941643 31405 net.cpp:425] inception_4b/pool_proj <- inception_4b/pool
I0403 15:17:01.941664 31405 net.cpp:399] inception_4b/pool_proj -> inception_4b/pool_proj
I0403 15:17:01.942864 31405 net.cpp:141] Setting up inception_4b/pool_proj
I0403 15:17:01.942894 31405 net.cpp:148] Top shape: 24 64 14 14 (301056)
I0403 15:17:01.942910 31405 net.cpp:156] Memory required for data: 979019040
I0403 15:17:01.942929 31405 layer_factory.hpp:77] Creating layer inception_4b/relu_pool_proj
I0403 15:17:01.942947 31405 net.cpp:91] Creating Layer inception_4b/relu_pool_proj
I0403 15:17:01.942965 31405 net.cpp:425] inception_4b/relu_pool_proj <- inception_4b/pool_proj
I0403 15:17:01.942984 31405 net.cpp:386] inception_4b/relu_pool_proj -> inception_4b/pool_proj (in-place)
I0403 15:17:01.943163 31405 net.cpp:141] Setting up inception_4b/relu_pool_proj
I0403 15:17:01.943188 31405 net.cpp:148] Top shape: 24 64 14 14 (301056)
I0403 15:17:01.943203 31405 net.cpp:156] Memory required for data: 980223264
I0403 15:17:01.943217 31405 layer_factory.hpp:77] Creating layer inception_4b/output
I0403 15:17:01.943235 31405 net.cpp:91] Creating Layer inception_4b/output
I0403 15:17:01.943250 31405 net.cpp:425] inception_4b/output <- inception_4b/1x1
I0403 15:17:01.943266 31405 net.cpp:425] inception_4b/output <- inception_4b/3x3
I0403 15:17:01.943281 31405 net.cpp:425] inception_4b/output <- inception_4b/5x5
I0403 15:17:01.943297 31405 net.cpp:425] inception_4b/output <- inception_4b/pool_proj
I0403 15:17:01.943316 31405 net.cpp:399] inception_4b/output -> inception_4b/output
I0403 15:17:01.943364 31405 net.cpp:141] Setting up inception_4b/output
I0403 15:17:01.943387 31405 net.cpp:148] Top shape: 24 512 14 14 (2408448)
I0403 15:17:01.943403 31405 net.cpp:156] Memory required for data: 989857056
I0403 15:17:01.943430 31405 layer_factory.hpp:77] Creating layer inception_4b/output_inception_4b/output_0_split
I0403 15:17:01.943449 31405 net.cpp:91] Creating Layer inception_4b/output_inception_4b/output_0_split
I0403 15:17:01.943464 31405 net.cpp:425] inception_4b/output_inception_4b/output_0_split <- inception_4b/output
I0403 15:17:01.943483 31405 net.cpp:399] inception_4b/output_inception_4b/output_0_split -> inception_4b/output_inception_4b/output_0_split_0
I0403 15:17:01.943505 31405 net.cpp:399] inception_4b/output_inception_4b/output_0_split -> inception_4b/output_inception_4b/output_0_split_1
I0403 15:17:01.943523 31405 net.cpp:399] inception_4b/output_inception_4b/output_0_split -> inception_4b/output_inception_4b/output_0_split_2
I0403 15:17:01.943547 31405 net.cpp:399] inception_4b/output_inception_4b/output_0_split -> inception_4b/output_inception_4b/output_0_split_3
I0403 15:17:01.943632 31405 net.cpp:141] Setting up inception_4b/output_inception_4b/output_0_split
I0403 15:17:01.943655 31405 net.cpp:148] Top shape: 24 512 14 14 (2408448)
I0403 15:17:01.943672 31405 net.cpp:148] Top shape: 24 512 14 14 (2408448)
I0403 15:17:01.943687 31405 net.cpp:148] Top shape: 24 512 14 14 (2408448)
I0403 15:17:01.943702 31405 net.cpp:148] Top shape: 24 512 14 14 (2408448)
I0403 15:17:01.943717 31405 net.cpp:156] Memory required for data: 1028392224
I0403 15:17:01.943730 31405 layer_factory.hpp:77] Creating layer inception_4c/1x1
I0403 15:17:01.943754 31405 net.cpp:91] Creating Layer inception_4c/1x1
I0403 15:17:01.943771 31405 net.cpp:425] inception_4c/1x1 <- inception_4b/output_inception_4b/output_0_split_0
I0403 15:17:01.943789 31405 net.cpp:399] inception_4c/1x1 -> inception_4c/1x1
I0403 15:17:01.945232 31405 net.cpp:141] Setting up inception_4c/1x1
I0403 15:17:01.945261 31405 net.cpp:148] Top shape: 24 128 14 14 (602112)
I0403 15:17:01.945276 31405 net.cpp:156] Memory required for data: 1030800672
I0403 15:17:01.945294 31405 layer_factory.hpp:77] Creating layer inception_4c/relu_1x1
I0403 15:17:01.945315 31405 net.cpp:91] Creating Layer inception_4c/relu_1x1
I0403 15:17:01.945332 31405 net.cpp:425] inception_4c/relu_1x1 <- inception_4c/1x1
I0403 15:17:01.945348 31405 net.cpp:386] inception_4c/relu_1x1 -> inception_4c/1x1 (in-place)
I0403 15:17:01.945529 31405 net.cpp:141] Setting up inception_4c/relu_1x1
I0403 15:17:01.945560 31405 net.cpp:148] Top shape: 24 128 14 14 (602112)
I0403 15:17:01.945577 31405 net.cpp:156] Memory required for data: 1033209120
I0403 15:17:01.945591 31405 layer_factory.hpp:77] Creating layer inception_4c/3x3_reduce
I0403 15:17:01.945613 31405 net.cpp:91] Creating Layer inception_4c/3x3_reduce
I0403 15:17:01.945631 31405 net.cpp:425] inception_4c/3x3_reduce <- inception_4b/output_inception_4b/output_0_split_1
I0403 15:17:01.945652 31405 net.cpp:399] inception_4c/3x3_reduce -> inception_4c/3x3_reduce
I0403 15:17:01.947587 31405 net.cpp:141] Setting up inception_4c/3x3_reduce
I0403 15:17:01.947619 31405 net.cpp:148] Top shape: 24 128 14 14 (602112)
I0403 15:17:01.947635 31405 net.cpp:156] Memory required for data: 1035617568
I0403 15:17:01.947654 31405 layer_factory.hpp:77] Creating layer inception_4c/relu_3x3_reduce
I0403 15:17:01.947671 31405 net.cpp:91] Creating Layer inception_4c/relu_3x3_reduce
I0403 15:17:01.947688 31405 net.cpp:425] inception_4c/relu_3x3_reduce <- inception_4c/3x3_reduce
I0403 15:17:01.947705 31405 net.cpp:386] inception_4c/relu_3x3_reduce -> inception_4c/3x3_reduce (in-place)
I0403 15:17:01.947991 31405 net.cpp:141] Setting up inception_4c/relu_3x3_reduce
I0403 15:17:01.948020 31405 net.cpp:148] Top shape: 24 128 14 14 (602112)
I0403 15:17:01.948035 31405 net.cpp:156] Memory required for data: 1038026016
I0403 15:17:01.948057 31405 layer_factory.hpp:77] Creating layer inception_4c/3x3
I0403 15:17:01.948081 31405 net.cpp:91] Creating Layer inception_4c/3x3
I0403 15:17:01.948099 31405 net.cpp:425] inception_4c/3x3 <- inception_4c/3x3_reduce
I0403 15:17:01.948118 31405 net.cpp:399] inception_4c/3x3 -> inception_4c/3x3
I0403 15:17:01.951737 31405 net.cpp:141] Setting up inception_4c/3x3
I0403 15:17:01.951781 31405 net.cpp:148] Top shape: 24 256 14 14 (1204224)
I0403 15:17:01.951797 31405 net.cpp:156] Memory required for data: 1042842912
I0403 15:17:01.951829 31405 layer_factory.hpp:77] Creating layer inception_4c/relu_3x3
I0403 15:17:01.951849 31405 net.cpp:91] Creating Layer inception_4c/relu_3x3
I0403 15:17:01.951866 31405 net.cpp:425] inception_4c/relu_3x3 <- inception_4c/3x3
I0403 15:17:01.951885 31405 net.cpp:386] inception_4c/relu_3x3 -> inception_4c/3x3 (in-place)
I0403 15:17:01.952067 31405 net.cpp:141] Setting up inception_4c/relu_3x3
I0403 15:17:01.952092 31405 net.cpp:148] Top shape: 24 256 14 14 (1204224)
I0403 15:17:01.952107 31405 net.cpp:156] Memory required for data: 1047659808
I0403 15:17:01.952121 31405 layer_factory.hpp:77] Creating layer inception_4c/5x5_reduce
I0403 15:17:01.952144 31405 net.cpp:91] Creating Layer inception_4c/5x5_reduce
I0403 15:17:01.952162 31405 net.cpp:425] inception_4c/5x5_reduce <- inception_4b/output_inception_4b/output_0_split_2
I0403 15:17:01.952183 31405 net.cpp:399] inception_4c/5x5_reduce -> inception_4c/5x5_reduce
I0403 15:17:01.953287 31405 net.cpp:141] Setting up inception_4c/5x5_reduce
I0403 15:17:01.953316 31405 net.cpp:148] Top shape: 24 24 14 14 (112896)
I0403 15:17:01.953331 31405 net.cpp:156] Memory required for data: 1048111392
I0403 15:17:01.953351 31405 layer_factory.hpp:77] Creating layer inception_4c/relu_5x5_reduce
I0403 15:17:01.953372 31405 net.cpp:91] Creating Layer inception_4c/relu_5x5_reduce
I0403 15:17:01.953392 31405 net.cpp:425] inception_4c/relu_5x5_reduce <- inception_4c/5x5_reduce
I0403 15:17:01.953411 31405 net.cpp:386] inception_4c/relu_5x5_reduce -> inception_4c/5x5_reduce (in-place)
I0403 15:17:01.953613 31405 net.cpp:141] Setting up inception_4c/relu_5x5_reduce
I0403 15:17:01.953639 31405 net.cpp:148] Top shape: 24 24 14 14 (112896)
I0403 15:17:01.953652 31405 net.cpp:156] Memory required for data: 1048562976
I0403 15:17:01.953667 31405 layer_factory.hpp:77] Creating layer inception_4c/5x5
I0403 15:17:01.953690 31405 net.cpp:91] Creating Layer inception_4c/5x5
I0403 15:17:01.953706 31405 net.cpp:425] inception_4c/5x5 <- inception_4c/5x5_reduce
I0403 15:17:01.953727 31405 net.cpp:399] inception_4c/5x5 -> inception_4c/5x5
I0403 15:17:01.954984 31405 net.cpp:141] Setting up inception_4c/5x5
I0403 15:17:01.955013 31405 net.cpp:148] Top shape: 24 64 14 14 (301056)
I0403 15:17:01.955029 31405 net.cpp:156] Memory required for data: 1049767200
I0403 15:17:01.955051 31405 layer_factory.hpp:77] Creating layer inception_4c/relu_5x5
I0403 15:17:01.955073 31405 net.cpp:91] Creating Layer inception_4c/relu_5x5
I0403 15:17:01.955090 31405 net.cpp:425] inception_4c/relu_5x5 <- inception_4c/5x5
I0403 15:17:01.955106 31405 net.cpp:386] inception_4c/relu_5x5 -> inception_4c/5x5 (in-place)
I0403 15:17:01.955401 31405 net.cpp:141] Setting up inception_4c/relu_5x5
I0403 15:17:01.955427 31405 net.cpp:148] Top shape: 24 64 14 14 (301056)
I0403 15:17:01.955441 31405 net.cpp:156] Memory required for data: 1050971424
I0403 15:17:01.955456 31405 layer_factory.hpp:77] Creating layer inception_4c/pool
I0403 15:17:01.955473 31405 net.cpp:91] Creating Layer inception_4c/pool
I0403 15:17:01.955488 31405 net.cpp:425] inception_4c/pool <- inception_4b/output_inception_4b/output_0_split_3
I0403 15:17:01.955509 31405 net.cpp:399] inception_4c/pool -> inception_4c/pool
I0403 15:17:01.955580 31405 net.cpp:141] Setting up inception_4c/pool
I0403 15:17:01.955605 31405 net.cpp:148] Top shape: 24 512 14 14 (2408448)
I0403 15:17:01.955620 31405 net.cpp:156] Memory required for data: 1060605216
I0403 15:17:01.955633 31405 layer_factory.hpp:77] Creating layer inception_4c/pool_proj
I0403 15:17:01.955657 31405 net.cpp:91] Creating Layer inception_4c/pool_proj
I0403 15:17:01.955675 31405 net.cpp:425] inception_4c/pool_proj <- inception_4c/pool
I0403 15:17:01.955694 31405 net.cpp:399] inception_4c/pool_proj -> inception_4c/pool_proj
I0403 15:17:01.956919 31405 net.cpp:141] Setting up inception_4c/pool_proj
I0403 15:17:01.956949 31405 net.cpp:148] Top shape: 24 64 14 14 (301056)
I0403 15:17:01.956979 31405 net.cpp:156] Memory required for data: 1061809440
I0403 15:17:01.956998 31405 layer_factory.hpp:77] Creating layer inception_4c/relu_pool_proj
I0403 15:17:01.957015 31405 net.cpp:91] Creating Layer inception_4c/relu_pool_proj
I0403 15:17:01.957031 31405 net.cpp:425] inception_4c/relu_pool_proj <- inception_4c/pool_proj
I0403 15:17:01.957051 31405 net.cpp:386] inception_4c/relu_pool_proj -> inception_4c/pool_proj (in-place)
I0403 15:17:01.957236 31405 net.cpp:141] Setting up inception_4c/relu_pool_proj
I0403 15:17:01.957260 31405 net.cpp:148] Top shape: 24 64 14 14 (301056)
I0403 15:17:01.957275 31405 net.cpp:156] Memory required for data: 1063013664
I0403 15:17:01.957289 31405 layer_factory.hpp:77] Creating layer inception_4c/output
I0403 15:17:01.957307 31405 net.cpp:91] Creating Layer inception_4c/output
I0403 15:17:01.957322 31405 net.cpp:425] inception_4c/output <- inception_4c/1x1
I0403 15:17:01.957339 31405 net.cpp:425] inception_4c/output <- inception_4c/3x3
I0403 15:17:01.957355 31405 net.cpp:425] inception_4c/output <- inception_4c/5x5
I0403 15:17:01.957370 31405 net.cpp:425] inception_4c/output <- inception_4c/pool_proj
I0403 15:17:01.957402 31405 net.cpp:399] inception_4c/output -> inception_4c/output
I0403 15:17:01.957449 31405 net.cpp:141] Setting up inception_4c/output
I0403 15:17:01.957475 31405 net.cpp:148] Top shape: 24 512 14 14 (2408448)
I0403 15:17:01.957490 31405 net.cpp:156] Memory required for data: 1072647456
I0403 15:17:01.957505 31405 layer_factory.hpp:77] Creating layer inception_4c/output_inception_4c/output_0_split
I0403 15:17:01.957523 31405 net.cpp:91] Creating Layer inception_4c/output_inception_4c/output_0_split
I0403 15:17:01.957543 31405 net.cpp:425] inception_4c/output_inception_4c/output_0_split <- inception_4c/output
I0403 15:17:01.957561 31405 net.cpp:399] inception_4c/output_inception_4c/output_0_split -> inception_4c/output_inception_4c/output_0_split_0
I0403 15:17:01.957584 31405 net.cpp:399] inception_4c/output_inception_4c/output_0_split -> inception_4c/output_inception_4c/output_0_split_1
I0403 15:17:01.957607 31405 net.cpp:399] inception_4c/output_inception_4c/output_0_split -> inception_4c/output_inception_4c/output_0_split_2
I0403 15:17:01.957626 31405 net.cpp:399] inception_4c/output_inception_4c/output_0_split -> inception_4c/output_inception_4c/output_0_split_3
I0403 15:17:01.957726 31405 net.cpp:141] Setting up inception_4c/output_inception_4c/output_0_split
I0403 15:17:01.957749 31405 net.cpp:148] Top shape: 24 512 14 14 (2408448)
I0403 15:17:01.957764 31405 net.cpp:148] Top shape: 24 512 14 14 (2408448)
I0403 15:17:01.957780 31405 net.cpp:148] Top shape: 24 512 14 14 (2408448)
I0403 15:17:01.957795 31405 net.cpp:148] Top shape: 24 512 14 14 (2408448)
I0403 15:17:01.957808 31405 net.cpp:156] Memory required for data: 1111182624
I0403 15:17:01.957823 31405 layer_factory.hpp:77] Creating layer inception_4d/1x1
I0403 15:17:01.957845 31405 net.cpp:91] Creating Layer inception_4d/1x1
I0403 15:17:01.957864 31405 net.cpp:425] inception_4d/1x1 <- inception_4c/output_inception_4c/output_0_split_0
I0403 15:17:01.957881 31405 net.cpp:399] inception_4d/1x1 -> inception_4d/1x1
I0403 15:17:01.959244 31405 net.cpp:141] Setting up inception_4d/1x1
I0403 15:17:01.959281 31405 net.cpp:148] Top shape: 24 112 14 14 (526848)
I0403 15:17:01.959297 31405 net.cpp:156] Memory required for data: 1113290016
I0403 15:17:01.959316 31405 layer_factory.hpp:77] Creating layer inception_4d/relu_1x1
I0403 15:17:01.959334 31405 net.cpp:91] Creating Layer inception_4d/relu_1x1
I0403 15:17:01.959352 31405 net.cpp:425] inception_4d/relu_1x1 <- inception_4d/1x1
I0403 15:17:01.959368 31405 net.cpp:386] inception_4d/relu_1x1 -> inception_4d/1x1 (in-place)
I0403 15:17:01.959552 31405 net.cpp:141] Setting up inception_4d/relu_1x1
I0403 15:17:01.959585 31405 net.cpp:148] Top shape: 24 112 14 14 (526848)
I0403 15:17:01.959599 31405 net.cpp:156] Memory required for data: 1115397408
I0403 15:17:01.959614 31405 layer_factory.hpp:77] Creating layer inception_4d/3x3_reduce
I0403 15:17:01.959648 31405 net.cpp:91] Creating Layer inception_4d/3x3_reduce
I0403 15:17:01.959666 31405 net.cpp:425] inception_4d/3x3_reduce <- inception_4c/output_inception_4c/output_0_split_1
I0403 15:17:01.959686 31405 net.cpp:399] inception_4d/3x3_reduce -> inception_4d/3x3_reduce
I0403 15:17:01.961158 31405 net.cpp:141] Setting up inception_4d/3x3_reduce
I0403 15:17:01.961184 31405 net.cpp:148] Top shape: 24 144 14 14 (677376)
I0403 15:17:01.961199 31405 net.cpp:156] Memory required for data: 1118106912
I0403 15:17:01.961216 31405 layer_factory.hpp:77] Creating layer inception_4d/relu_3x3_reduce
I0403 15:17:01.961247 31405 net.cpp:91] Creating Layer inception_4d/relu_3x3_reduce
I0403 15:17:01.961266 31405 net.cpp:425] inception_4d/relu_3x3_reduce <- inception_4d/3x3_reduce
I0403 15:17:01.961284 31405 net.cpp:386] inception_4d/relu_3x3_reduce -> inception_4d/3x3_reduce (in-place)
I0403 15:17:01.961583 31405 net.cpp:141] Setting up inception_4d/relu_3x3_reduce
I0403 15:17:01.961609 31405 net.cpp:148] Top shape: 24 144 14 14 (677376)
I0403 15:17:01.961623 31405 net.cpp:156] Memory required for data: 1120816416
I0403 15:17:01.961638 31405 layer_factory.hpp:77] Creating layer inception_4d/3x3
I0403 15:17:01.961660 31405 net.cpp:91] Creating Layer inception_4d/3x3
I0403 15:17:01.961678 31405 net.cpp:425] inception_4d/3x3 <- inception_4d/3x3_reduce
I0403 15:17:01.961697 31405 net.cpp:399] inception_4d/3x3 -> inception_4d/3x3
I0403 15:17:01.965845 31405 net.cpp:141] Setting up inception_4d/3x3
I0403 15:17:01.965886 31405 net.cpp:148] Top shape: 24 288 14 14 (1354752)
I0403 15:17:01.965903 31405 net.cpp:156] Memory required for data: 1126235424
I0403 15:17:01.965920 31405 layer_factory.hpp:77] Creating layer inception_4d/relu_3x3
I0403 15:17:01.965939 31405 net.cpp:91] Creating Layer inception_4d/relu_3x3
I0403 15:17:01.965955 31405 net.cpp:425] inception_4d/relu_3x3 <- inception_4d/3x3
I0403 15:17:01.965970 31405 net.cpp:386] inception_4d/relu_3x3 -> inception_4d/3x3 (in-place)
I0403 15:17:01.966150 31405 net.cpp:141] Setting up inception_4d/relu_3x3
I0403 15:17:01.966176 31405 net.cpp:148] Top shape: 24 288 14 14 (1354752)
I0403 15:17:01.966189 31405 net.cpp:156] Memory required for data: 1131654432
I0403 15:17:01.966204 31405 layer_factory.hpp:77] Creating layer inception_4d/5x5_reduce
I0403 15:17:01.966226 31405 net.cpp:91] Creating Layer inception_4d/5x5_reduce
I0403 15:17:01.966243 31405 net.cpp:425] inception_4d/5x5_reduce <- inception_4c/output_inception_4c/output_0_split_2
I0403 15:17:01.966274 31405 net.cpp:399] inception_4d/5x5_reduce -> inception_4d/5x5_reduce
I0403 15:17:01.967636 31405 net.cpp:141] Setting up inception_4d/5x5_reduce
I0403 15:17:01.967671 31405 net.cpp:148] Top shape: 24 32 14 14 (150528)
I0403 15:17:01.967689 31405 net.cpp:156] Memory required for data: 1132256544
I0403 15:17:01.967707 31405 layer_factory.hpp:77] Creating layer inception_4d/relu_5x5_reduce
I0403 15:17:01.967728 31405 net.cpp:91] Creating Layer inception_4d/relu_5x5_reduce
I0403 15:17:01.967746 31405 net.cpp:425] inception_4d/relu_5x5_reduce <- inception_4d/5x5_reduce
I0403 15:17:01.967763 31405 net.cpp:386] inception_4d/relu_5x5_reduce -> inception_4d/5x5_reduce (in-place)
I0403 15:17:01.967950 31405 net.cpp:141] Setting up inception_4d/relu_5x5_reduce
I0403 15:17:01.967975 31405 net.cpp:148] Top shape: 24 32 14 14 (150528)
I0403 15:17:01.967990 31405 net.cpp:156] Memory required for data: 1132858656
I0403 15:17:01.968005 31405 layer_factory.hpp:77] Creating layer inception_4d/5x5
I0403 15:17:01.968029 31405 net.cpp:91] Creating Layer inception_4d/5x5
I0403 15:17:01.968046 31405 net.cpp:425] inception_4d/5x5 <- inception_4d/5x5_reduce
I0403 15:17:01.968067 31405 net.cpp:399] inception_4d/5x5 -> inception_4d/5x5
I0403 15:17:01.969593 31405 net.cpp:141] Setting up inception_4d/5x5
I0403 15:17:01.969620 31405 net.cpp:148] Top shape: 24 64 14 14 (301056)
I0403 15:17:01.969636 31405 net.cpp:156] Memory required for data: 1134062880
I0403 15:17:01.969655 31405 layer_factory.hpp:77] Creating layer inception_4d/relu_5x5
I0403 15:17:01.969689 31405 net.cpp:91] Creating Layer inception_4d/relu_5x5
I0403 15:17:01.969707 31405 net.cpp:425] inception_4d/relu_5x5 <- inception_4d/5x5
I0403 15:17:01.969727 31405 net.cpp:386] inception_4d/relu_5x5 -> inception_4d/5x5 (in-place)
I0403 15:17:01.970026 31405 net.cpp:141] Setting up inception_4d/relu_5x5
I0403 15:17:01.970052 31405 net.cpp:148] Top shape: 24 64 14 14 (301056)
I0403 15:17:01.970067 31405 net.cpp:156] Memory required for data: 1135267104
I0403 15:17:01.970083 31405 layer_factory.hpp:77] Creating layer inception_4d/pool
I0403 15:17:01.970100 31405 net.cpp:91] Creating Layer inception_4d/pool
I0403 15:17:01.970116 31405 net.cpp:425] inception_4d/pool <- inception_4c/output_inception_4c/output_0_split_3
I0403 15:17:01.970139 31405 net.cpp:399] inception_4d/pool -> inception_4d/pool
I0403 15:17:01.970207 31405 net.cpp:141] Setting up inception_4d/pool
I0403 15:17:01.970232 31405 net.cpp:148] Top shape: 24 512 14 14 (2408448)
I0403 15:17:01.970247 31405 net.cpp:156] Memory required for data: 1144900896
I0403 15:17:01.970262 31405 layer_factory.hpp:77] Creating layer inception_4d/pool_proj
I0403 15:17:01.970285 31405 net.cpp:91] Creating Layer inception_4d/pool_proj
I0403 15:17:01.970302 31405 net.cpp:425] inception_4d/pool_proj <- inception_4d/pool
I0403 15:17:01.970320 31405 net.cpp:399] inception_4d/pool_proj -> inception_4d/pool_proj
I0403 15:17:01.972100 31405 net.cpp:141] Setting up inception_4d/pool_proj
I0403 15:17:01.972131 31405 net.cpp:148] Top shape: 24 64 14 14 (301056)
I0403 15:17:01.972148 31405 net.cpp:156] Memory required for data: 1146105120
I0403 15:17:01.972167 31405 layer_factory.hpp:77] Creating layer inception_4d/relu_pool_proj
I0403 15:17:01.972184 31405 net.cpp:91] Creating Layer inception_4d/relu_pool_proj
I0403 15:17:01.972200 31405 net.cpp:425] inception_4d/relu_pool_proj <- inception_4d/pool_proj
I0403 15:17:01.972218 31405 net.cpp:386] inception_4d/relu_pool_proj -> inception_4d/pool_proj (in-place)
I0403 15:17:01.972404 31405 net.cpp:141] Setting up inception_4d/relu_pool_proj
I0403 15:17:01.972430 31405 net.cpp:148] Top shape: 24 64 14 14 (301056)
I0403 15:17:01.972446 31405 net.cpp:156] Memory required for data: 1147309344
I0403 15:17:01.972461 31405 layer_factory.hpp:77] Creating layer inception_4d/output
I0403 15:17:01.972479 31405 net.cpp:91] Creating Layer inception_4d/output
I0403 15:17:01.972496 31405 net.cpp:425] inception_4d/output <- inception_4d/1x1
I0403 15:17:01.972518 31405 net.cpp:425] inception_4d/output <- inception_4d/3x3
I0403 15:17:01.972535 31405 net.cpp:425] inception_4d/output <- inception_4d/5x5
I0403 15:17:01.972550 31405 net.cpp:425] inception_4d/output <- inception_4d/pool_proj
I0403 15:17:01.972570 31405 net.cpp:399] inception_4d/output -> inception_4d/output
I0403 15:17:01.972617 31405 net.cpp:141] Setting up inception_4d/output
I0403 15:17:01.972640 31405 net.cpp:148] Top shape: 24 528 14 14 (2483712)
I0403 15:17:01.972656 31405 net.cpp:156] Memory required for data: 1157244192
I0403 15:17:01.972671 31405 layer_factory.hpp:77] Creating layer inception_4d/output_inception_4d/output_0_split
I0403 15:17:01.972690 31405 net.cpp:91] Creating Layer inception_4d/output_inception_4d/output_0_split
I0403 15:17:01.972707 31405 net.cpp:425] inception_4d/output_inception_4d/output_0_split <- inception_4d/output
I0403 15:17:01.972724 31405 net.cpp:399] inception_4d/output_inception_4d/output_0_split -> inception_4d/output_inception_4d/output_0_split_0
I0403 15:17:01.972748 31405 net.cpp:399] inception_4d/output_inception_4d/output_0_split -> inception_4d/output_inception_4d/output_0_split_1
I0403 15:17:01.972769 31405 net.cpp:399] inception_4d/output_inception_4d/output_0_split -> inception_4d/output_inception_4d/output_0_split_2
I0403 15:17:01.972790 31405 net.cpp:399] inception_4d/output_inception_4d/output_0_split -> inception_4d/output_inception_4d/output_0_split_3
I0403 15:17:01.972810 31405 net.cpp:399] inception_4d/output_inception_4d/output_0_split -> inception_4d/output_inception_4d/output_0_split_4
I0403 15:17:01.972910 31405 net.cpp:141] Setting up inception_4d/output_inception_4d/output_0_split
I0403 15:17:01.972945 31405 net.cpp:148] Top shape: 24 528 14 14 (2483712)
I0403 15:17:01.972962 31405 net.cpp:148] Top shape: 24 528 14 14 (2483712)
I0403 15:17:01.972978 31405 net.cpp:148] Top shape: 24 528 14 14 (2483712)
I0403 15:17:01.972995 31405 net.cpp:148] Top shape: 24 528 14 14 (2483712)
I0403 15:17:01.973009 31405 net.cpp:148] Top shape: 24 528 14 14 (2483712)
I0403 15:17:01.973022 31405 net.cpp:156] Memory required for data: 1206918432
I0403 15:17:01.973037 31405 layer_factory.hpp:77] Creating layer loss2/ave_pool
I0403 15:17:01.973058 31405 net.cpp:91] Creating Layer loss2/ave_pool
I0403 15:17:01.973076 31405 net.cpp:425] loss2/ave_pool <- inception_4d/output_inception_4d/output_0_split_0
I0403 15:17:01.973095 31405 net.cpp:399] loss2/ave_pool -> loss2/ave_pool
I0403 15:17:01.973410 31405 net.cpp:141] Setting up loss2/ave_pool
I0403 15:17:01.973439 31405 net.cpp:148] Top shape: 24 528 4 4 (202752)
I0403 15:17:01.973454 31405 net.cpp:156] Memory required for data: 1207729440
I0403 15:17:01.973469 31405 layer_factory.hpp:77] Creating layer loss2/conv
I0403 15:17:01.973491 31405 net.cpp:91] Creating Layer loss2/conv
I0403 15:17:01.973518 31405 net.cpp:425] loss2/conv <- loss2/ave_pool
I0403 15:17:01.973552 31405 net.cpp:399] loss2/conv -> loss2/conv
I0403 15:17:01.975482 31405 net.cpp:141] Setting up loss2/conv
I0403 15:17:01.975514 31405 net.cpp:148] Top shape: 24 128 4 4 (49152)
I0403 15:17:01.975531 31405 net.cpp:156] Memory required for data: 1207926048
I0403 15:17:01.975550 31405 layer_factory.hpp:77] Creating layer loss2/relu_conv
I0403 15:17:01.975569 31405 net.cpp:91] Creating Layer loss2/relu_conv
I0403 15:17:01.975589 31405 net.cpp:425] loss2/relu_conv <- loss2/conv
I0403 15:17:01.975605 31405 net.cpp:386] loss2/relu_conv -> loss2/conv (in-place)
I0403 15:17:01.975893 31405 net.cpp:141] Setting up loss2/relu_conv
I0403 15:17:01.975919 31405 net.cpp:148] Top shape: 24 128 4 4 (49152)
I0403 15:17:01.975932 31405 net.cpp:156] Memory required for data: 1208122656
I0403 15:17:01.975949 31405 layer_factory.hpp:77] Creating layer loss2/fc
I0403 15:17:01.975967 31405 net.cpp:91] Creating Layer loss2/fc
I0403 15:17:01.975987 31405 net.cpp:425] loss2/fc <- loss2/conv
I0403 15:17:01.976006 31405 net.cpp:399] loss2/fc -> loss2/fc
I0403 15:17:01.993764 31405 net.cpp:141] Setting up loss2/fc
I0403 15:17:01.993798 31405 net.cpp:148] Top shape: 24 1024 (24576)
I0403 15:17:01.993813 31405 net.cpp:156] Memory required for data: 1208220960
I0403 15:17:01.993834 31405 layer_factory.hpp:77] Creating layer loss2/relu_fc
I0403 15:17:01.993854 31405 net.cpp:91] Creating Layer loss2/relu_fc
I0403 15:17:01.993871 31405 net.cpp:425] loss2/relu_fc <- loss2/fc
I0403 15:17:01.993888 31405 net.cpp:386] loss2/relu_fc -> loss2/fc (in-place)
I0403 15:17:01.994189 31405 net.cpp:141] Setting up loss2/relu_fc
I0403 15:17:01.994216 31405 net.cpp:148] Top shape: 24 1024 (24576)
I0403 15:17:01.994232 31405 net.cpp:156] Memory required for data: 1208319264
I0403 15:17:01.994247 31405 layer_factory.hpp:77] Creating layer loss2/drop_fc
I0403 15:17:01.994266 31405 net.cpp:91] Creating Layer loss2/drop_fc
I0403 15:17:01.994282 31405 net.cpp:425] loss2/drop_fc <- loss2/fc
I0403 15:17:01.994300 31405 net.cpp:386] loss2/drop_fc -> loss2/fc (in-place)
I0403 15:17:01.994350 31405 net.cpp:141] Setting up loss2/drop_fc
I0403 15:17:01.994374 31405 net.cpp:148] Top shape: 24 1024 (24576)
I0403 15:17:01.994388 31405 net.cpp:156] Memory required for data: 1208417568
I0403 15:17:01.994402 31405 layer_factory.hpp:77] Creating layer loss2/classifier_plantvillage
I0403 15:17:01.994423 31405 net.cpp:91] Creating Layer loss2/classifier_plantvillage
I0403 15:17:01.994441 31405 net.cpp:425] loss2/classifier_plantvillage <- loss2/fc
I0403 15:17:01.994462 31405 net.cpp:399] loss2/classifier_plantvillage -> loss2/classifier_plantvillage
I0403 15:17:01.994876 31405 net.cpp:141] Setting up loss2/classifier_plantvillage
I0403 15:17:01.994902 31405 net.cpp:148] Top shape: 24 38 (912)
I0403 15:17:01.994935 31405 net.cpp:156] Memory required for data: 1208421216
I0403 15:17:01.994953 31405 layer_factory.hpp:77] Creating layer loss2/classifier_plantvillage_loss2/classifier_plantvillage_0_split
I0403 15:17:01.994971 31405 net.cpp:91] Creating Layer loss2/classifier_plantvillage_loss2/classifier_plantvillage_0_split
I0403 15:17:01.994990 31405 net.cpp:425] loss2/classifier_plantvillage_loss2/classifier_plantvillage_0_split <- loss2/classifier_plantvillage
I0403 15:17:01.995008 31405 net.cpp:399] loss2/classifier_plantvillage_loss2/classifier_plantvillage_0_split -> loss2/classifier_plantvillage_loss2/classifier_plantvillage_0_split_0
I0403 15:17:01.995029 31405 net.cpp:399] loss2/classifier_plantvillage_loss2/classifier_plantvillage_0_split -> loss2/classifier_plantvillage_loss2/classifier_plantvillage_0_split_1
I0403 15:17:01.995049 31405 net.cpp:399] loss2/classifier_plantvillage_loss2/classifier_plantvillage_0_split -> loss2/classifier_plantvillage_loss2/classifier_plantvillage_0_split_2
I0403 15:17:01.995126 31405 net.cpp:141] Setting up loss2/classifier_plantvillage_loss2/classifier_plantvillage_0_split
I0403 15:17:01.995151 31405 net.cpp:148] Top shape: 24 38 (912)
I0403 15:17:01.995168 31405 net.cpp:148] Top shape: 24 38 (912)
I0403 15:17:01.995183 31405 net.cpp:148] Top shape: 24 38 (912)
I0403 15:17:01.995198 31405 net.cpp:156] Memory required for data: 1208432160
I0403 15:17:01.995213 31405 layer_factory.hpp:77] Creating layer inception_4e/1x1
I0403 15:17:01.995231 31405 net.cpp:91] Creating Layer inception_4e/1x1
I0403 15:17:01.995247 31405 net.cpp:425] inception_4e/1x1 <- inception_4d/output_inception_4d/output_0_split_1
I0403 15:17:01.995268 31405 net.cpp:399] inception_4e/1x1 -> inception_4e/1x1
I0403 15:17:01.997104 31405 net.cpp:141] Setting up inception_4e/1x1
I0403 15:17:01.997133 31405 net.cpp:148] Top shape: 24 256 14 14 (1204224)
I0403 15:17:01.997148 31405 net.cpp:156] Memory required for data: 1213249056
I0403 15:17:01.997167 31405 layer_factory.hpp:77] Creating layer inception_4e/relu_1x1
I0403 15:17:01.997185 31405 net.cpp:91] Creating Layer inception_4e/relu_1x1
I0403 15:17:01.997202 31405 net.cpp:425] inception_4e/relu_1x1 <- inception_4e/1x1
I0403 15:17:01.997221 31405 net.cpp:386] inception_4e/relu_1x1 -> inception_4e/1x1 (in-place)
I0403 15:17:01.997529 31405 net.cpp:141] Setting up inception_4e/relu_1x1
I0403 15:17:01.997555 31405 net.cpp:148] Top shape: 24 256 14 14 (1204224)
I0403 15:17:01.997570 31405 net.cpp:156] Memory required for data: 1218065952
I0403 15:17:01.997586 31405 layer_factory.hpp:77] Creating layer inception_4e/3x3_reduce
I0403 15:17:01.997607 31405 net.cpp:91] Creating Layer inception_4e/3x3_reduce
I0403 15:17:01.997627 31405 net.cpp:425] inception_4e/3x3_reduce <- inception_4d/output_inception_4d/output_0_split_2
I0403 15:17:01.997648 31405 net.cpp:399] inception_4e/3x3_reduce -> inception_4e/3x3_reduce
I0403 15:17:01.999805 31405 net.cpp:141] Setting up inception_4e/3x3_reduce
I0403 15:17:01.999835 31405 net.cpp:148] Top shape: 24 160 14 14 (752640)
I0403 15:17:01.999852 31405 net.cpp:156] Memory required for data: 1221076512
I0403 15:17:01.999871 31405 layer_factory.hpp:77] Creating layer inception_4e/relu_3x3_reduce
I0403 15:17:01.999888 31405 net.cpp:91] Creating Layer inception_4e/relu_3x3_reduce
I0403 15:17:01.999904 31405 net.cpp:425] inception_4e/relu_3x3_reduce <- inception_4e/3x3_reduce
I0403 15:17:01.999924 31405 net.cpp:386] inception_4e/relu_3x3_reduce -> inception_4e/3x3_reduce (in-place)
I0403 15:17:02.000113 31405 net.cpp:141] Setting up inception_4e/relu_3x3_reduce
I0403 15:17:02.000138 31405 net.cpp:148] Top shape: 24 160 14 14 (752640)
I0403 15:17:02.000154 31405 net.cpp:156] Memory required for data: 1224087072
I0403 15:17:02.000169 31405 layer_factory.hpp:77] Creating layer inception_4e/3x3
I0403 15:17:02.000191 31405 net.cpp:91] Creating Layer inception_4e/3x3
I0403 15:17:02.000218 31405 net.cpp:425] inception_4e/3x3 <- inception_4e/3x3_reduce
I0403 15:17:02.000239 31405 net.cpp:399] inception_4e/3x3 -> inception_4e/3x3
I0403 15:17:02.005267 31405 net.cpp:141] Setting up inception_4e/3x3
I0403 15:17:02.005308 31405 net.cpp:148] Top shape: 24 320 14 14 (1505280)
I0403 15:17:02.005326 31405 net.cpp:156] Memory required for data: 1230108192
I0403 15:17:02.005343 31405 layer_factory.hpp:77] Creating layer inception_4e/relu_3x3
I0403 15:17:02.005363 31405 net.cpp:91] Creating Layer inception_4e/relu_3x3
I0403 15:17:02.005380 31405 net.cpp:425] inception_4e/relu_3x3 <- inception_4e/3x3
I0403 15:17:02.005398 31405 net.cpp:386] inception_4e/relu_3x3 -> inception_4e/3x3 (in-place)
I0403 15:17:02.005703 31405 net.cpp:141] Setting up inception_4e/relu_3x3
I0403 15:17:02.005729 31405 net.cpp:148] Top shape: 24 320 14 14 (1505280)
I0403 15:17:02.005753 31405 net.cpp:156] Memory required for data: 1236129312
I0403 15:17:02.005767 31405 layer_factory.hpp:77] Creating layer inception_4e/5x5_reduce
I0403 15:17:02.005792 31405 net.cpp:91] Creating Layer inception_4e/5x5_reduce
I0403 15:17:02.005810 31405 net.cpp:425] inception_4e/5x5_reduce <- inception_4d/output_inception_4d/output_0_split_3
I0403 15:17:02.005828 31405 net.cpp:399] inception_4e/5x5_reduce -> inception_4e/5x5_reduce
I0403 15:17:02.006916 31405 net.cpp:141] Setting up inception_4e/5x5_reduce
I0403 15:17:02.006950 31405 net.cpp:148] Top shape: 24 32 14 14 (150528)
I0403 15:17:02.006965 31405 net.cpp:156] Memory required for data: 1236731424
I0403 15:17:02.006983 31405 layer_factory.hpp:77] Creating layer inception_4e/relu_5x5_reduce
I0403 15:17:02.007000 31405 net.cpp:91] Creating Layer inception_4e/relu_5x5_reduce
I0403 15:17:02.007016 31405 net.cpp:425] inception_4e/relu_5x5_reduce <- inception_4e/5x5_reduce
I0403 15:17:02.007037 31405 net.cpp:386] inception_4e/relu_5x5_reduce -> inception_4e/5x5_reduce (in-place)
I0403 15:17:02.007329 31405 net.cpp:141] Setting up inception_4e/relu_5x5_reduce
I0403 15:17:02.007355 31405 net.cpp:148] Top shape: 24 32 14 14 (150528)
I0403 15:17:02.007369 31405 net.cpp:156] Memory required for data: 1237333536
I0403 15:17:02.007383 31405 layer_factory.hpp:77] Creating layer inception_4e/5x5
I0403 15:17:02.007421 31405 net.cpp:91] Creating Layer inception_4e/5x5
I0403 15:17:02.007441 31405 net.cpp:425] inception_4e/5x5 <- inception_4e/5x5_reduce
I0403 15:17:02.007460 31405 net.cpp:399] inception_4e/5x5 -> inception_4e/5x5
I0403 15:17:02.009280 31405 net.cpp:141] Setting up inception_4e/5x5
I0403 15:17:02.009315 31405 net.cpp:148] Top shape: 24 128 14 14 (602112)
I0403 15:17:02.009331 31405 net.cpp:156] Memory required for data: 1239741984
I0403 15:17:02.009351 31405 layer_factory.hpp:77] Creating layer inception_4e/relu_5x5
I0403 15:17:02.009368 31405 net.cpp:91] Creating Layer inception_4e/relu_5x5
I0403 15:17:02.009384 31405 net.cpp:425] inception_4e/relu_5x5 <- inception_4e/5x5
I0403 15:17:02.009402 31405 net.cpp:386] inception_4e/relu_5x5 -> inception_4e/5x5 (in-place)
I0403 15:17:02.009618 31405 net.cpp:141] Setting up inception_4e/relu_5x5
I0403 15:17:02.009642 31405 net.cpp:148] Top shape: 24 128 14 14 (602112)
I0403 15:17:02.009657 31405 net.cpp:156] Memory required for data: 1242150432
I0403 15:17:02.009671 31405 layer_factory.hpp:77] Creating layer inception_4e/pool
I0403 15:17:02.009690 31405 net.cpp:91] Creating Layer inception_4e/pool
I0403 15:17:02.009704 31405 net.cpp:425] inception_4e/pool <- inception_4d/output_inception_4d/output_0_split_4
I0403 15:17:02.009724 31405 net.cpp:399] inception_4e/pool -> inception_4e/pool
I0403 15:17:02.009791 31405 net.cpp:141] Setting up inception_4e/pool
I0403 15:17:02.009816 31405 net.cpp:148] Top shape: 24 528 14 14 (2483712)
I0403 15:17:02.009831 31405 net.cpp:156] Memory required for data: 1252085280
I0403 15:17:02.009845 31405 layer_factory.hpp:77] Creating layer inception_4e/pool_proj
I0403 15:17:02.009867 31405 net.cpp:91] Creating Layer inception_4e/pool_proj
I0403 15:17:02.009883 31405 net.cpp:425] inception_4e/pool_proj <- inception_4e/pool
I0403 15:17:02.009902 31405 net.cpp:399] inception_4e/pool_proj -> inception_4e/pool_proj
I0403 15:17:02.011375 31405 net.cpp:141] Setting up inception_4e/pool_proj
I0403 15:17:02.011417 31405 net.cpp:148] Top shape: 24 128 14 14 (602112)
I0403 15:17:02.011435 31405 net.cpp:156] Memory required for data: 1254493728
I0403 15:17:02.011452 31405 layer_factory.hpp:77] Creating layer inception_4e/relu_pool_proj
I0403 15:17:02.011471 31405 net.cpp:91] Creating Layer inception_4e/relu_pool_proj
I0403 15:17:02.011487 31405 net.cpp:425] inception_4e/relu_pool_proj <- inception_4e/pool_proj
I0403 15:17:02.011507 31405 net.cpp:386] inception_4e/relu_pool_proj -> inception_4e/pool_proj (in-place)
I0403 15:17:02.011795 31405 net.cpp:141] Setting up inception_4e/relu_pool_proj
I0403 15:17:02.011822 31405 net.cpp:148] Top shape: 24 128 14 14 (602112)
I0403 15:17:02.011837 31405 net.cpp:156] Memory required for data: 1256902176
I0403 15:17:02.011852 31405 layer_factory.hpp:77] Creating layer inception_4e/output
I0403 15:17:02.011870 31405 net.cpp:91] Creating Layer inception_4e/output
I0403 15:17:02.011885 31405 net.cpp:425] inception_4e/output <- inception_4e/1x1
I0403 15:17:02.011901 31405 net.cpp:425] inception_4e/output <- inception_4e/3x3
I0403 15:17:02.011917 31405 net.cpp:425] inception_4e/output <- inception_4e/5x5
I0403 15:17:02.011932 31405 net.cpp:425] inception_4e/output <- inception_4e/pool_proj
I0403 15:17:02.011950 31405 net.cpp:399] inception_4e/output -> inception_4e/output
I0403 15:17:02.011999 31405 net.cpp:141] Setting up inception_4e/output
I0403 15:17:02.012022 31405 net.cpp:148] Top shape: 24 832 14 14 (3913728)
I0403 15:17:02.012037 31405 net.cpp:156] Memory required for data: 1272557088
I0403 15:17:02.012050 31405 layer_factory.hpp:77] Creating layer pool4/3x3_s2
I0403 15:17:02.012070 31405 net.cpp:91] Creating Layer pool4/3x3_s2
I0403 15:17:02.012086 31405 net.cpp:425] pool4/3x3_s2 <- inception_4e/output
I0403 15:17:02.012104 31405 net.cpp:399] pool4/3x3_s2 -> pool4/3x3_s2
I0403 15:17:02.012171 31405 net.cpp:141] Setting up pool4/3x3_s2
I0403 15:17:02.012193 31405 net.cpp:148] Top shape: 24 832 7 7 (978432)
I0403 15:17:02.012207 31405 net.cpp:156] Memory required for data: 1276470816
I0403 15:17:02.012223 31405 layer_factory.hpp:77] Creating layer pool4/3x3_s2_pool4/3x3_s2_0_split
I0403 15:17:02.012238 31405 net.cpp:91] Creating Layer pool4/3x3_s2_pool4/3x3_s2_0_split
I0403 15:17:02.012254 31405 net.cpp:425] pool4/3x3_s2_pool4/3x3_s2_0_split <- pool4/3x3_s2
I0403 15:17:02.012274 31405 net.cpp:399] pool4/3x3_s2_pool4/3x3_s2_0_split -> pool4/3x3_s2_pool4/3x3_s2_0_split_0
I0403 15:17:02.012295 31405 net.cpp:399] pool4/3x3_s2_pool4/3x3_s2_0_split -> pool4/3x3_s2_pool4/3x3_s2_0_split_1
I0403 15:17:02.012313 31405 net.cpp:399] pool4/3x3_s2_pool4/3x3_s2_0_split -> pool4/3x3_s2_pool4/3x3_s2_0_split_2
I0403 15:17:02.012332 31405 net.cpp:399] pool4/3x3_s2_pool4/3x3_s2_0_split -> pool4/3x3_s2_pool4/3x3_s2_0_split_3
I0403 15:17:02.012428 31405 net.cpp:141] Setting up pool4/3x3_s2_pool4/3x3_s2_0_split
I0403 15:17:02.012452 31405 net.cpp:148] Top shape: 24 832 7 7 (978432)
I0403 15:17:02.012470 31405 net.cpp:148] Top shape: 24 832 7 7 (978432)
I0403 15:17:02.012485 31405 net.cpp:148] Top shape: 24 832 7 7 (978432)
I0403 15:17:02.012501 31405 net.cpp:148] Top shape: 24 832 7 7 (978432)
I0403 15:17:02.012518 31405 net.cpp:156] Memory required for data: 1292125728
I0403 15:17:02.012532 31405 layer_factory.hpp:77] Creating layer inception_5a/1x1
I0403 15:17:02.012554 31405 net.cpp:91] Creating Layer inception_5a/1x1
I0403 15:17:02.012573 31405 net.cpp:425] inception_5a/1x1 <- pool4/3x3_s2_pool4/3x3_s2_0_split_0
I0403 15:17:02.012593 31405 net.cpp:399] inception_5a/1x1 -> inception_5a/1x1
I0403 15:17:02.015390 31405 net.cpp:141] Setting up inception_5a/1x1
I0403 15:17:02.015420 31405 net.cpp:148] Top shape: 24 256 7 7 (301056)
I0403 15:17:02.015437 31405 net.cpp:156] Memory required for data: 1293329952
I0403 15:17:02.015455 31405 layer_factory.hpp:77] Creating layer inception_5a/relu_1x1
I0403 15:17:02.015473 31405 net.cpp:91] Creating Layer inception_5a/relu_1x1
I0403 15:17:02.015488 31405 net.cpp:425] inception_5a/relu_1x1 <- inception_5a/1x1
I0403 15:17:02.015511 31405 net.cpp:386] inception_5a/relu_1x1 -> inception_5a/1x1 (in-place)
I0403 15:17:02.015820 31405 net.cpp:141] Setting up inception_5a/relu_1x1
I0403 15:17:02.015847 31405 net.cpp:148] Top shape: 24 256 7 7 (301056)
I0403 15:17:02.015862 31405 net.cpp:156] Memory required for data: 1294534176
I0403 15:17:02.015877 31405 layer_factory.hpp:77] Creating layer inception_5a/3x3_reduce
I0403 15:17:02.015898 31405 net.cpp:91] Creating Layer inception_5a/3x3_reduce
I0403 15:17:02.015916 31405 net.cpp:425] inception_5a/3x3_reduce <- pool4/3x3_s2_pool4/3x3_s2_0_split_1
I0403 15:17:02.015935 31405 net.cpp:399] inception_5a/3x3_reduce -> inception_5a/3x3_reduce
I0403 15:17:02.018342 31405 net.cpp:141] Setting up inception_5a/3x3_reduce
I0403 15:17:02.018371 31405 net.cpp:148] Top shape: 24 160 7 7 (188160)
I0403 15:17:02.018388 31405 net.cpp:156] Memory required for data: 1295286816
I0403 15:17:02.018405 31405 layer_factory.hpp:77] Creating layer inception_5a/relu_3x3_reduce
I0403 15:17:02.018424 31405 net.cpp:91] Creating Layer inception_5a/relu_3x3_reduce
I0403 15:17:02.018441 31405 net.cpp:425] inception_5a/relu_3x3_reduce <- inception_5a/3x3_reduce
I0403 15:17:02.018458 31405 net.cpp:386] inception_5a/relu_3x3_reduce -> inception_5a/3x3_reduce (in-place)
I0403 15:17:02.018648 31405 net.cpp:141] Setting up inception_5a/relu_3x3_reduce
I0403 15:17:02.018676 31405 net.cpp:148] Top shape: 24 160 7 7 (188160)
I0403 15:17:02.018690 31405 net.cpp:156] Memory required for data: 1296039456
I0403 15:17:02.018705 31405 layer_factory.hpp:77] Creating layer inception_5a/3x3
I0403 15:17:02.018728 31405 net.cpp:91] Creating Layer inception_5a/3x3
I0403 15:17:02.018745 31405 net.cpp:425] inception_5a/3x3 <- inception_5a/3x3_reduce
I0403 15:17:02.018764 31405 net.cpp:399] inception_5a/3x3 -> inception_5a/3x3
I0403 15:17:02.023664 31405 net.cpp:141] Setting up inception_5a/3x3
I0403 15:17:02.023694 31405 net.cpp:148] Top shape: 24 320 7 7 (376320)
I0403 15:17:02.023710 31405 net.cpp:156] Memory required for data: 1297544736
I0403 15:17:02.023728 31405 layer_factory.hpp:77] Creating layer inception_5a/relu_3x3
I0403 15:17:02.023746 31405 net.cpp:91] Creating Layer inception_5a/relu_3x3
I0403 15:17:02.023761 31405 net.cpp:425] inception_5a/relu_3x3 <- inception_5a/3x3
I0403 15:17:02.023780 31405 net.cpp:386] inception_5a/relu_3x3 -> inception_5a/3x3 (in-place)
I0403 15:17:02.024066 31405 net.cpp:141] Setting up inception_5a/relu_3x3
I0403 15:17:02.024094 31405 net.cpp:148] Top shape: 24 320 7 7 (376320)
I0403 15:17:02.024109 31405 net.cpp:156] Memory required for data: 1299050016
I0403 15:17:02.024124 31405 layer_factory.hpp:77] Creating layer inception_5a/5x5_reduce
I0403 15:17:02.024147 31405 net.cpp:91] Creating Layer inception_5a/5x5_reduce
I0403 15:17:02.024164 31405 net.cpp:425] inception_5a/5x5_reduce <- pool4/3x3_s2_pool4/3x3_s2_0_split_2
I0403 15:17:02.024186 31405 net.cpp:399] inception_5a/5x5_reduce -> inception_5a/5x5_reduce
I0403 15:17:02.025343 31405 net.cpp:141] Setting up inception_5a/5x5_reduce
I0403 15:17:02.025373 31405 net.cpp:148] Top shape: 24 32 7 7 (37632)
I0403 15:17:02.025389 31405 net.cpp:156] Memory required for data: 1299200544
I0403 15:17:02.025408 31405 layer_factory.hpp:77] Creating layer inception_5a/relu_5x5_reduce
I0403 15:17:02.025424 31405 net.cpp:91] Creating Layer inception_5a/relu_5x5_reduce
I0403 15:17:02.025439 31405 net.cpp:425] inception_5a/relu_5x5_reduce <- inception_5a/5x5_reduce
I0403 15:17:02.025459 31405 net.cpp:386] inception_5a/relu_5x5_reduce -> inception_5a/5x5_reduce (in-place)
I0403 15:17:02.025758 31405 net.cpp:141] Setting up inception_5a/relu_5x5_reduce
I0403 15:17:02.025784 31405 net.cpp:148] Top shape: 24 32 7 7 (37632)
I0403 15:17:02.025799 31405 net.cpp:156] Memory required for data: 1299351072
I0403 15:17:02.025812 31405 layer_factory.hpp:77] Creating layer inception_5a/5x5
I0403 15:17:02.025835 31405 net.cpp:91] Creating Layer inception_5a/5x5
I0403 15:17:02.025851 31405 net.cpp:425] inception_5a/5x5 <- inception_5a/5x5_reduce
I0403 15:17:02.025877 31405 net.cpp:399] inception_5a/5x5 -> inception_5a/5x5
I0403 15:17:02.027568 31405 net.cpp:141] Setting up inception_5a/5x5
I0403 15:17:02.027608 31405 net.cpp:148] Top shape: 24 128 7 7 (150528)
I0403 15:17:02.027626 31405 net.cpp:156] Memory required for data: 1299953184
I0403 15:17:02.027643 31405 layer_factory.hpp:77] Creating layer inception_5a/relu_5x5
I0403 15:17:02.027662 31405 net.cpp:91] Creating Layer inception_5a/relu_5x5
I0403 15:17:02.027679 31405 net.cpp:425] inception_5a/relu_5x5 <- inception_5a/5x5
I0403 15:17:02.027704 31405 net.cpp:386] inception_5a/relu_5x5 -> inception_5a/5x5 (in-place)
I0403 15:17:02.027894 31405 net.cpp:141] Setting up inception_5a/relu_5x5
I0403 15:17:02.027917 31405 net.cpp:148] Top shape: 24 128 7 7 (150528)
I0403 15:17:02.027932 31405 net.cpp:156] Memory required for data: 1300555296
I0403 15:17:02.027946 31405 layer_factory.hpp:77] Creating layer inception_5a/pool
I0403 15:17:02.027962 31405 net.cpp:91] Creating Layer inception_5a/pool
I0403 15:17:02.027977 31405 net.cpp:425] inception_5a/pool <- pool4/3x3_s2_pool4/3x3_s2_0_split_3
I0403 15:17:02.027997 31405 net.cpp:399] inception_5a/pool -> inception_5a/pool
I0403 15:17:02.028066 31405 net.cpp:141] Setting up inception_5a/pool
I0403 15:17:02.028090 31405 net.cpp:148] Top shape: 24 832 7 7 (978432)
I0403 15:17:02.028103 31405 net.cpp:156] Memory required for data: 1304469024
I0403 15:17:02.028117 31405 layer_factory.hpp:77] Creating layer inception_5a/pool_proj
I0403 15:17:02.028141 31405 net.cpp:91] Creating Layer inception_5a/pool_proj
I0403 15:17:02.028159 31405 net.cpp:425] inception_5a/pool_proj <- inception_5a/pool
I0403 15:17:02.028180 31405 net.cpp:399] inception_5a/pool_proj -> inception_5a/pool_proj
I0403 15:17:02.030508 31405 net.cpp:141] Setting up inception_5a/pool_proj
I0403 15:17:02.030539 31405 net.cpp:148] Top shape: 24 128 7 7 (150528)
I0403 15:17:02.030553 31405 net.cpp:156] Memory required for data: 1305071136
I0403 15:17:02.030573 31405 layer_factory.hpp:77] Creating layer inception_5a/relu_pool_proj
I0403 15:17:02.030594 31405 net.cpp:91] Creating Layer inception_5a/relu_pool_proj
I0403 15:17:02.030611 31405 net.cpp:425] inception_5a/relu_pool_proj <- inception_5a/pool_proj
I0403 15:17:02.030628 31405 net.cpp:386] inception_5a/relu_pool_proj -> inception_5a/pool_proj (in-place)
I0403 15:17:02.030931 31405 net.cpp:141] Setting up inception_5a/relu_pool_proj
I0403 15:17:02.030958 31405 net.cpp:148] Top shape: 24 128 7 7 (150528)
I0403 15:17:02.030973 31405 net.cpp:156] Memory required for data: 1305673248
I0403 15:17:02.030987 31405 layer_factory.hpp:77] Creating layer inception_5a/output
I0403 15:17:02.031008 31405 net.cpp:91] Creating Layer inception_5a/output
I0403 15:17:02.031025 31405 net.cpp:425] inception_5a/output <- inception_5a/1x1
I0403 15:17:02.031041 31405 net.cpp:425] inception_5a/output <- inception_5a/3x3
I0403 15:17:02.031059 31405 net.cpp:425] inception_5a/output <- inception_5a/5x5
I0403 15:17:02.031075 31405 net.cpp:425] inception_5a/output <- inception_5a/pool_proj
I0403 15:17:02.031091 31405 net.cpp:399] inception_5a/output -> inception_5a/output
I0403 15:17:02.031141 31405 net.cpp:141] Setting up inception_5a/output
I0403 15:17:02.031165 31405 net.cpp:148] Top shape: 24 832 7 7 (978432)
I0403 15:17:02.031179 31405 net.cpp:156] Memory required for data: 1309586976
I0403 15:17:02.031194 31405 layer_factory.hpp:77] Creating layer inception_5a/output_inception_5a/output_0_split
I0403 15:17:02.031213 31405 net.cpp:91] Creating Layer inception_5a/output_inception_5a/output_0_split
I0403 15:17:02.031229 31405 net.cpp:425] inception_5a/output_inception_5a/output_0_split <- inception_5a/output
I0403 15:17:02.031247 31405 net.cpp:399] inception_5a/output_inception_5a/output_0_split -> inception_5a/output_inception_5a/output_0_split_0
I0403 15:17:02.031275 31405 net.cpp:399] inception_5a/output_inception_5a/output_0_split -> inception_5a/output_inception_5a/output_0_split_1
I0403 15:17:02.031296 31405 net.cpp:399] inception_5a/output_inception_5a/output_0_split -> inception_5a/output_inception_5a/output_0_split_2
I0403 15:17:02.031316 31405 net.cpp:399] inception_5a/output_inception_5a/output_0_split -> inception_5a/output_inception_5a/output_0_split_3
I0403 15:17:02.031430 31405 net.cpp:141] Setting up inception_5a/output_inception_5a/output_0_split
I0403 15:17:02.031455 31405 net.cpp:148] Top shape: 24 832 7 7 (978432)
I0403 15:17:02.031471 31405 net.cpp:148] Top shape: 24 832 7 7 (978432)
I0403 15:17:02.031486 31405 net.cpp:148] Top shape: 24 832 7 7 (978432)
I0403 15:17:02.031505 31405 net.cpp:148] Top shape: 24 832 7 7 (978432)
I0403 15:17:02.031520 31405 net.cpp:156] Memory required for data: 1325241888
I0403 15:17:02.031535 31405 layer_factory.hpp:77] Creating layer inception_5b/1x1
I0403 15:17:02.031558 31405 net.cpp:91] Creating Layer inception_5b/1x1
I0403 15:17:02.031577 31405 net.cpp:425] inception_5b/1x1 <- inception_5a/output_inception_5a/output_0_split_0
I0403 15:17:02.031599 31405 net.cpp:399] inception_5b/1x1 -> inception_5b/1x1
I0403 15:17:02.035392 31405 net.cpp:141] Setting up inception_5b/1x1
I0403 15:17:02.035423 31405 net.cpp:148] Top shape: 24 384 7 7 (451584)
I0403 15:17:02.035439 31405 net.cpp:156] Memory required for data: 1327048224
I0403 15:17:02.035456 31405 layer_factory.hpp:77] Creating layer inception_5b/relu_1x1
I0403 15:17:02.035476 31405 net.cpp:91] Creating Layer inception_5b/relu_1x1
I0403 15:17:02.035493 31405 net.cpp:425] inception_5b/relu_1x1 <- inception_5b/1x1
I0403 15:17:02.035516 31405 net.cpp:386] inception_5b/relu_1x1 -> inception_5b/1x1 (in-place)
I0403 15:17:02.035825 31405 net.cpp:141] Setting up inception_5b/relu_1x1
I0403 15:17:02.035851 31405 net.cpp:148] Top shape: 24 384 7 7 (451584)
I0403 15:17:02.035866 31405 net.cpp:156] Memory required for data: 1328854560
I0403 15:17:02.035881 31405 layer_factory.hpp:77] Creating layer inception_5b/3x3_reduce
I0403 15:17:02.035903 31405 net.cpp:91] Creating Layer inception_5b/3x3_reduce
I0403 15:17:02.035922 31405 net.cpp:425] inception_5b/3x3_reduce <- inception_5a/output_inception_5a/output_0_split_1
I0403 15:17:02.035943 31405 net.cpp:399] inception_5b/3x3_reduce -> inception_5b/3x3_reduce
I0403 15:17:02.038633 31405 net.cpp:141] Setting up inception_5b/3x3_reduce
I0403 15:17:02.038663 31405 net.cpp:148] Top shape: 24 192 7 7 (225792)
I0403 15:17:02.038679 31405 net.cpp:156] Memory required for data: 1329757728
I0403 15:17:02.038698 31405 layer_factory.hpp:77] Creating layer inception_5b/relu_3x3_reduce
I0403 15:17:02.038718 31405 net.cpp:91] Creating Layer inception_5b/relu_3x3_reduce
I0403 15:17:02.038735 31405 net.cpp:425] inception_5b/relu_3x3_reduce <- inception_5b/3x3_reduce
I0403 15:17:02.038753 31405 net.cpp:386] inception_5b/relu_3x3_reduce -> inception_5b/3x3_reduce (in-place)
I0403 15:17:02.038949 31405 net.cpp:141] Setting up inception_5b/relu_3x3_reduce
I0403 15:17:02.038974 31405 net.cpp:148] Top shape: 24 192 7 7 (225792)
I0403 15:17:02.038988 31405 net.cpp:156] Memory required for data: 1330660896
I0403 15:17:02.039003 31405 layer_factory.hpp:77] Creating layer inception_5b/3x3
I0403 15:17:02.039026 31405 net.cpp:91] Creating Layer inception_5b/3x3
I0403 15:17:02.039042 31405 net.cpp:425] inception_5b/3x3 <- inception_5b/3x3_reduce
I0403 15:17:02.039064 31405 net.cpp:399] inception_5b/3x3 -> inception_5b/3x3
I0403 15:17:02.045828 31405 net.cpp:141] Setting up inception_5b/3x3
I0403 15:17:02.045857 31405 net.cpp:148] Top shape: 24 384 7 7 (451584)
I0403 15:17:02.045873 31405 net.cpp:156] Memory required for data: 1332467232
I0403 15:17:02.045894 31405 layer_factory.hpp:77] Creating layer inception_5b/relu_3x3
I0403 15:17:02.045914 31405 net.cpp:91] Creating Layer inception_5b/relu_3x3
I0403 15:17:02.045930 31405 net.cpp:425] inception_5b/relu_3x3 <- inception_5b/3x3
I0403 15:17:02.045948 31405 net.cpp:386] inception_5b/relu_3x3 -> inception_5b/3x3 (in-place)
I0403 15:17:02.046252 31405 net.cpp:141] Setting up inception_5b/relu_3x3
I0403 15:17:02.046279 31405 net.cpp:148] Top shape: 24 384 7 7 (451584)
I0403 15:17:02.046294 31405 net.cpp:156] Memory required for data: 1334273568
I0403 15:17:02.046309 31405 layer_factory.hpp:77] Creating layer inception_5b/5x5_reduce
I0403 15:17:02.046350 31405 net.cpp:91] Creating Layer inception_5b/5x5_reduce
I0403 15:17:02.046370 31405 net.cpp:425] inception_5b/5x5_reduce <- inception_5a/output_inception_5a/output_0_split_2
I0403 15:17:02.046389 31405 net.cpp:399] inception_5b/5x5_reduce -> inception_5b/5x5_reduce
I0403 15:17:02.047705 31405 net.cpp:141] Setting up inception_5b/5x5_reduce
I0403 15:17:02.047737 31405 net.cpp:148] Top shape: 24 48 7 7 (56448)
I0403 15:17:02.047754 31405 net.cpp:156] Memory required for data: 1334499360
I0403 15:17:02.047773 31405 layer_factory.hpp:77] Creating layer inception_5b/relu_5x5_reduce
I0403 15:17:02.047791 31405 net.cpp:91] Creating Layer inception_5b/relu_5x5_reduce
I0403 15:17:02.047808 31405 net.cpp:425] inception_5b/relu_5x5_reduce <- inception_5b/5x5_reduce
I0403 15:17:02.047837 31405 net.cpp:386] inception_5b/relu_5x5_reduce -> inception_5b/5x5_reduce (in-place)
I0403 15:17:02.048243 31405 net.cpp:141] Setting up inception_5b/relu_5x5_reduce
I0403 15:17:02.048269 31405 net.cpp:148] Top shape: 24 48 7 7 (56448)
I0403 15:17:02.048285 31405 net.cpp:156] Memory required for data: 1334725152
I0403 15:17:02.048300 31405 layer_factory.hpp:77] Creating layer inception_5b/5x5
I0403 15:17:02.048326 31405 net.cpp:91] Creating Layer inception_5b/5x5
I0403 15:17:02.048343 31405 net.cpp:425] inception_5b/5x5 <- inception_5b/5x5_reduce
I0403 15:17:02.048362 31405 net.cpp:399] inception_5b/5x5 -> inception_5b/5x5
I0403 15:17:02.050380 31405 net.cpp:141] Setting up inception_5b/5x5
I0403 15:17:02.050410 31405 net.cpp:148] Top shape: 24 128 7 7 (150528)
I0403 15:17:02.050426 31405 net.cpp:156] Memory required for data: 1335327264
I0403 15:17:02.050444 31405 layer_factory.hpp:77] Creating layer inception_5b/relu_5x5
I0403 15:17:02.050462 31405 net.cpp:91] Creating Layer inception_5b/relu_5x5
I0403 15:17:02.050477 31405 net.cpp:425] inception_5b/relu_5x5 <- inception_5b/5x5
I0403 15:17:02.050496 31405 net.cpp:386] inception_5b/relu_5x5 -> inception_5b/5x5 (in-place)
I0403 15:17:02.050693 31405 net.cpp:141] Setting up inception_5b/relu_5x5
I0403 15:17:02.050716 31405 net.cpp:148] Top shape: 24 128 7 7 (150528)
I0403 15:17:02.050730 31405 net.cpp:156] Memory required for data: 1335929376
I0403 15:17:02.050745 31405 layer_factory.hpp:77] Creating layer inception_5b/pool
I0403 15:17:02.050763 31405 net.cpp:91] Creating Layer inception_5b/pool
I0403 15:17:02.050779 31405 net.cpp:425] inception_5b/pool <- inception_5a/output_inception_5a/output_0_split_3
I0403 15:17:02.050799 31405 net.cpp:399] inception_5b/pool -> inception_5b/pool
I0403 15:17:02.050869 31405 net.cpp:141] Setting up inception_5b/pool
I0403 15:17:02.050894 31405 net.cpp:148] Top shape: 24 832 7 7 (978432)
I0403 15:17:02.050907 31405 net.cpp:156] Memory required for data: 1339843104
I0403 15:17:02.050921 31405 layer_factory.hpp:77] Creating layer inception_5b/pool_proj
I0403 15:17:02.050945 31405 net.cpp:91] Creating Layer inception_5b/pool_proj
I0403 15:17:02.050961 31405 net.cpp:425] inception_5b/pool_proj <- inception_5b/pool
I0403 15:17:02.050981 31405 net.cpp:399] inception_5b/pool_proj -> inception_5b/pool_proj
I0403 15:17:02.053251 31405 net.cpp:141] Setting up inception_5b/pool_proj
I0403 15:17:02.053282 31405 net.cpp:148] Top shape: 24 128 7 7 (150528)
I0403 15:17:02.053297 31405 net.cpp:156] Memory required for data: 1340445216
I0403 15:17:02.053315 31405 layer_factory.hpp:77] Creating layer inception_5b/relu_pool_proj
I0403 15:17:02.053333 31405 net.cpp:91] Creating Layer inception_5b/relu_pool_proj
I0403 15:17:02.053349 31405 net.cpp:425] inception_5b/relu_pool_proj <- inception_5b/pool_proj
I0403 15:17:02.053366 31405 net.cpp:386] inception_5b/relu_pool_proj -> inception_5b/pool_proj (in-place)
I0403 15:17:02.053663 31405 net.cpp:141] Setting up inception_5b/relu_pool_proj
I0403 15:17:02.053690 31405 net.cpp:148] Top shape: 24 128 7 7 (150528)
I0403 15:17:02.053705 31405 net.cpp:156] Memory required for data: 1341047328
I0403 15:17:02.053720 31405 layer_factory.hpp:77] Creating layer inception_5b/output
I0403 15:17:02.053738 31405 net.cpp:91] Creating Layer inception_5b/output
I0403 15:17:02.053767 31405 net.cpp:425] inception_5b/output <- inception_5b/1x1
I0403 15:17:02.053784 31405 net.cpp:425] inception_5b/output <- inception_5b/3x3
I0403 15:17:02.053802 31405 net.cpp:425] inception_5b/output <- inception_5b/5x5
I0403 15:17:02.053817 31405 net.cpp:425] inception_5b/output <- inception_5b/pool_proj
I0403 15:17:02.053833 31405 net.cpp:399] inception_5b/output -> inception_5b/output
I0403 15:17:02.053885 31405 net.cpp:141] Setting up inception_5b/output
I0403 15:17:02.053908 31405 net.cpp:148] Top shape: 24 1024 7 7 (1204224)
I0403 15:17:02.053922 31405 net.cpp:156] Memory required for data: 1345864224
I0403 15:17:02.053936 31405 layer_factory.hpp:77] Creating layer pool5/7x7_s1
I0403 15:17:02.053956 31405 net.cpp:91] Creating Layer pool5/7x7_s1
I0403 15:17:02.053972 31405 net.cpp:425] pool5/7x7_s1 <- inception_5b/output
I0403 15:17:02.053990 31405 net.cpp:399] pool5/7x7_s1 -> pool5/7x7_s1
I0403 15:17:02.054203 31405 net.cpp:141] Setting up pool5/7x7_s1
I0403 15:17:02.054229 31405 net.cpp:148] Top shape: 24 1024 1 1 (24576)
I0403 15:17:02.054244 31405 net.cpp:156] Memory required for data: 1345962528
I0403 15:17:02.054257 31405 layer_factory.hpp:77] Creating layer pool5/drop_7x7_s1
I0403 15:17:02.054275 31405 net.cpp:91] Creating Layer pool5/drop_7x7_s1
I0403 15:17:02.054291 31405 net.cpp:425] pool5/drop_7x7_s1 <- pool5/7x7_s1
I0403 15:17:02.054312 31405 net.cpp:386] pool5/drop_7x7_s1 -> pool5/7x7_s1 (in-place)
I0403 15:17:02.054360 31405 net.cpp:141] Setting up pool5/drop_7x7_s1
I0403 15:17:02.054383 31405 net.cpp:148] Top shape: 24 1024 1 1 (24576)
I0403 15:17:02.054396 31405 net.cpp:156] Memory required for data: 1346060832
I0403 15:17:02.054411 31405 layer_factory.hpp:77] Creating layer loss3/classifier_plantvillage
I0403 15:17:02.054432 31405 net.cpp:91] Creating Layer loss3/classifier_plantvillage
I0403 15:17:02.054450 31405 net.cpp:425] loss3/classifier_plantvillage <- pool5/7x7_s1
I0403 15:17:02.054468 31405 net.cpp:399] loss3/classifier_plantvillage -> loss3/classifier_plantvillage
I0403 15:17:02.054899 31405 net.cpp:141] Setting up loss3/classifier_plantvillage
I0403 15:17:02.054924 31405 net.cpp:148] Top shape: 24 38 (912)
I0403 15:17:02.054937 31405 net.cpp:156] Memory required for data: 1346064480
I0403 15:17:02.054955 31405 layer_factory.hpp:77] Creating layer loss3/classifier_plantvillage_loss3/classifier_plantvillage_0_split
I0403 15:17:02.054973 31405 net.cpp:91] Creating Layer loss3/classifier_plantvillage_loss3/classifier_plantvillage_0_split
I0403 15:17:02.054988 31405 net.cpp:425] loss3/classifier_plantvillage_loss3/classifier_plantvillage_0_split <- loss3/classifier_plantvillage
I0403 15:17:02.055007 31405 net.cpp:399] loss3/classifier_plantvillage_loss3/classifier_plantvillage_0_split -> loss3/classifier_plantvillage_loss3/classifier_plantvillage_0_split_0
I0403 15:17:02.055027 31405 net.cpp:399] loss3/classifier_plantvillage_loss3/classifier_plantvillage_0_split -> loss3/classifier_plantvillage_loss3/classifier_plantvillage_0_split_1
I0403 15:17:02.055047 31405 net.cpp:399] loss3/classifier_plantvillage_loss3/classifier_plantvillage_0_split -> loss3/classifier_plantvillage_loss3/classifier_plantvillage_0_split_2
I0403 15:17:02.055068 31405 net.cpp:399] loss3/classifier_plantvillage_loss3/classifier_plantvillage_0_split -> loss3/classifier_plantvillage_loss3/classifier_plantvillage_0_split_3
I0403 15:17:02.055168 31405 net.cpp:141] Setting up loss3/classifier_plantvillage_loss3/classifier_plantvillage_0_split
I0403 15:17:02.055191 31405 net.cpp:148] Top shape: 24 38 (912)
I0403 15:17:02.055207 31405 net.cpp:148] Top shape: 24 38 (912)
I0403 15:17:02.055220 31405 net.cpp:148] Top shape: 24 38 (912)
I0403 15:17:02.055235 31405 net.cpp:148] Top shape: 24 38 (912)
I0403 15:17:02.055248 31405 net.cpp:156] Memory required for data: 1346079072
I0403 15:17:02.055263 31405 layer_factory.hpp:77] Creating layer loss1/loss
I0403 15:17:02.055284 31405 net.cpp:91] Creating Layer loss1/loss
I0403 15:17:02.055301 31405 net.cpp:425] loss1/loss <- loss1/classifier_plantvillage_loss1/classifier_plantvillage_0_split_0
I0403 15:17:02.055330 31405 net.cpp:425] loss1/loss <- label_data_1_split_0
…
