…
I0403 15:13:23.323781 31310 net.cpp:313] The NetState phase (1) differed from the phase (0) specified by a rule in layer data
I0403 15:13:23.324996 31310 net.cpp:49] Initializing net from parameters: 
state {
  phase: TEST
}
layer {
  name: "data"
  type: "Data"
  top: "data"
  top: "label"
  include {
    phase: TEST
  }
  transform_param {
    mirror: false
    crop_size: 224
    mean_file: "/home/mohanty/data/final_dataset/lmdb/grayscale-80-20/mean.binaryproto"
  }
  data_param {
    source: "/home/mohanty/data/final_dataset/lmdb/grayscale-80-20/test_db"
    batch_size: 24
    backend: LMDB
  }
}
layer {
  name: "conv1/7x7_s2"
  type: "Convolution"
  bottom: "data"
  top: "conv1/7x7_s2"
  param {
    lr_mult: 1
    decay_mult: 1
  }
  param {
    lr_mult: 2
    decay_mult: 0
  }
  convolution_param {
    num_output: 64
    pad: 3
    kernel_size: 7
    stride: 2
    weight_filler {
      type: "xavier"
      std: 0.1
    }
    bias_filler {
      type: "constant"
      value: 0.2
    }
  }
}
layer {
  name: "conv1/relu_7x7"
  type: "ReLU"
  bottom: "conv1/7x7_s2"
  top: "conv1/7x7_s2"
}
layer {
  name: "pool1/3x3_s2"
  type: "Pooling"
  bottom: "conv1/7x7_s2"
  top: "pool1/3x3_s2"
  pooling_param {
    pool: MAX
    kernel_size: 3
    stride: 2
  }
}
layer {
  name: "pool1/norm1"
  type: "LRN"
  bottom: "pool1/3x3_s2"
  top: "pool1/norm1"
  lrn_param {
    local_size: 5
    alpha: 0.0001
    beta: 0.75
  }
}
layer {
  name: "conv2/3x3_reduce"
  type: "Convolution"
  bottom: "pool1/norm1"
  top: "conv2/3x3_reduce"
  param {
    lr_mult: 1
    decay_mult: 1
  }
  param {
    lr_mult: 2
    decay_mult: 0
  }
  convolution_param {
    num_output: 64
    kernel_size: 1
    weight_filler {
      type: "xavier"
      std: 0.1
    }
    bias_filler {
      type: "constant"
      value: 0.2
    }
  }
}
layer {
  name: "conv2/relu_3x3_reduce"
  type: "ReLU"
  bottom: "conv2/3x3_reduce"
  top: "conv2/3x3_reduce"
}
layer {
  name: "conv2/3x3"
  type: "Convolution"
  bottom: "conv2/3x3_reduce"
  top: "conv2/3x3"
  param {
    lr_mult: 1
    decay_mult: 1
  }
  param {
    lr_mult: 2
    decay_mult: 0
  }
  convolution_param {
    num_output: 192
    pad: 1
    kernel_size: 3
    weight_filler {
      type: "xavier"
      std: 0.03
    }
    bias_filler {
      type: "constant"
      value: 0.2
    }
  }
}
layer {
  name: "conv2/relu_3x3"
  type: "ReLU"
  bottom: "conv2/3x3"
  top: "conv2/3x3"
}
layer {
  name: "conv2/norm2"
  type: "LRN"
  bottom: "conv2/3x3"
  top: "conv2/norm2"
  lrn_param {
    local_size: 5
    alpha: 0.0001
    beta: 0.75
  }
}
layer {
  name: "pool2/3x3_s2"
  type: "Pooling"
  bottom: "conv2/norm2"
  top: "pool2/3x3_s2"
  pooling_param {
    pool: MAX
    kernel_size: 3
    stride: 2
  }
}
layer {
  name: "inception_3a/1x1"
  type: "Convolution"
  bottom: "pool2/3x3_s2"
  top: "inception_3a/1x1"
  param {
    lr_mult: 1
    decay_mult: 1
  }
  param {
    lr_mult: 2
    decay_mult: 0
  }
  convolution_param {
    num_output: 64
    kernel_size: 1
    weight_filler {
      type: "xavier"
      std: 0.03
    }
    bias_filler {
      type: "constant"
      value: 0.2
    }
  }
}
layer {
  name: "inception_3a/relu_1x1"
  type: "ReLU"
  bottom: "inception_3a/1x1"
  top: "inception_3a/1x1"
}
layer {
  name: "inception_3a/3x3_reduce"
  type: "Convolution"
  bottom: "pool2/3x3_s2"
  top: "inception_3a/3x3_reduce"
  param {
    lr_mult: 1
    decay_mult: 1
  }
  param {
    lr_mult: 2
    decay_mult: 0
  }
  convolution_param {
    num_output: 96
    kernel_size: 1
    weight_filler {
      type: "xavier"
      std: 0.09
    }
    bias_filler {
      type: "constant"
      value: 0.2
    }
  }
}
layer {
  name: "inception_3a/relu_3x3_reduce"
  type: "ReLU"
  bottom: "inception_3a/3x3_reduce"
  top: "inception_3a/3x3_reduce"
}
layer {
  name: "inception_3a/3x3"
  type: "Convolution"
  bottom: "inception_3a/3x3_reduce"
  top: "inception_3a/3x3"
  param {
    lr_mult: 1
    decay_mult: 1
  }
  param {
    lr_mult: 2
    decay_mult: 0
  }
  convolution_param {
    num_output: 128
    pad: 1
    kernel_size: 3
    weight_filler {
      type: "xavier"
      std: 0.03
    }
    bias_filler {
      type: "constant"
      value: 0.2
    }
  }
}
layer {
  name: "inception_3a/relu_3x3"
  type: "ReLU"
  bottom: "inception_3a/3x3"
  top: "inception_3a/3x3"
}
layer {
  name: "inception_3a/5x5_reduce"
  type: "Convolution"
  bottom: "pool2/3x3_s2"
  top: "inception_3a/5x5_reduce"
  param {
    lr_mult: 1
    decay_mult: 1
  }
  param {
    lr_mult: 2
    decay_mult: 0
  }
  convolution_param {
    num_output: 16
    kernel_size: 1
    weight_filler {
      type: "xavier"
      std: 0.2
    }
    bias_filler {
      type: "constant"
      value: 0.2
    }
  }
}
layer {
  name: "inception_3a/relu_5x5_reduce"
  type: "ReLU"
  bottom: "inception_3a/5x5_reduce"
  top: "inception_3a/5x5_reduce"
}
layer {
  name: "inception_3a/5x5"
  type: "Convolution"
  bottom: "inception_3a/5x5_reduce"
  top: "inception_3a/5x5"
  param {
    lr_mult: 1
    decay_mult: 1
  }
  param {
    lr_mult: 2
    decay_mult: 0
  }
  convolution_param {
    num_output: 32
    pad: 2
    kernel_size: 5
    weight_filler {
      type: "xavier"
      std: 0.03
    }
    bias_filler {
      type: "constant"
      value: 0.2
    }
  }
}
layer {
  name: "inception_3a/relu_5x5"
  type: "ReLU"
  bottom: "inception_3a/5x5"
  top: "inception_3a/5x5"
}
layer {
  name: "inception_3a/pool"
  type: "Pooling"
  bottom: "pool2/3x3_s2"
  top: "inception_3a/pool"
  pooling_param {
    pool: MAX
    kernel_size: 3
    stride: 1
    pad: 1
  }
}
layer {
  name: "inception_3a/pool_proj"
  type: "Convolution"
  bottom: "inception_3a/pool"
  top: "inception_3a/pool_proj"
  param {
    lr_mult: 1
    decay_mult: 1
  }
  param {
    lr_mult: 2
    decay_mult: 0
  }
  convolution_param {
    num_output: 32
    kernel_size: 1
    weight_filler {
      type: "xavier"
      std: 0.1
    }
    bias_filler {
      type: "constant"
      value: 0.2
    }
  }
}
layer {
  name: "inception_3a/relu_pool_proj"
  type: "ReLU"
  bottom: "inception_3a/pool_proj"
  top: "inception_3a/pool_proj"
}
layer {
  name: "inception_3a/output"
  type: "Concat"
  bottom: "inception_3a/1x1"
  bottom: "inception_3a/3x3"
  bottom: "inception_3a/5x5"
  bottom: "inception_3a/pool_proj"
  top: "inception_3a/output"
}
layer {
  name: "inception_3b/1x1"
  type: "Convolution"
  bottom: "inception_3a/output"
  top: "inception_3b/1x1"
  param {
    lr_mult: 1
    decay_mult: 1
  }
  param {
    lr_mult: 2
    decay_mult: 0
  }
  convolution_param {
    num_output: 128
    kernel_size: 1
    weight_filler {
      type: "xavier"
      std: 0.03
    }
    bias_filler {
      type: "constant"
      value: 0.2
    }
  }
}
layer {
  name: "inception_3b/relu_1x1"
  type: "ReLU"
  bottom: "inception_3b/1x1"
  top: "inception_3b/1x1"
}
layer {
  name: "inception_3b/3x3_reduce"
  type: "Convolution"
  bottom: "inception_3a/output"
  top: "inception_3b/3x3_reduce"
  param {
    lr_mult: 1
    decay_mult: 1
  }
  param {
    lr_mult: 2
    decay_mult: 0
  }
  convolution_param {
    num_output: 128
    kernel_size: 1
    weight_filler {
      type: "xavier"
      std: 0.09
    }
    bias_filler {
      type: "constant"
      value: 0.2
    }
  }
}
layer {
  name: "inception_3b/relu_3x3_reduce"
  type: "ReLU"
  bottom: "inception_3b/3x3_reduce"
  top: "inception_3b/3x3_reduce"
}
layer {
  name: "inception_3b/3x3"
  type: "Convolution"
  bottom: "inception_3b/3x3_reduce"
  top: "inception_3b/3x3"
  param {
    lr_mult: 1
    decay_mult: 1
  }
  param {
    lr_mult: 2
    decay_mult: 0
  }
  convolution_param {
    num_output: 192
    pad: 1
    kernel_size: 3
    weight_filler {
      type: "xavier"
      std: 0.03
    }
    bias_filler {
      type: "constant"
      value: 0.2
    }
  }
}
layer {
  name: "inception_3b/relu_3x3"
  type: "ReLU"
  bottom: "inception_3b/3x3"
  top: "inception_3b/3x3"
}
layer {
  name: "inception_3b/5x5_reduce"
  type: "Convolution"
  bottom: "inception_3a/output"
  top: "inception_3b/5x5_reduce"
  param {
    lr_mult: 1
    decay_mult: 1
  }
  param {
    lr_mult: 2
    decay_mult: 0
  }
  convolution_param {
    num_output: 32
    kernel_size: 1
    weight_filler {
      type: "xavier"
      std: 0.2
    }
    bias_filler {
      type: "constant"
      value: 0.2
    }
  }
}
layer {
  name: "inception_3b/relu_5x5_reduce"
  type: "ReLU"
  bottom: "inception_3b/5x5_reduce"
  top: "inception_3b/5x5_reduce"
}
layer {
  name: "inception_3b/5x5"
  type: "Convolution"
  bottom: "inception_3b/5x5_reduce"
  top: "inception_3b/5x5"
  param {
    lr_mult: 1
    decay_mult: 1
  }
  param {
    lr_mult: 2
    decay_mult: 0
  }
  convolution_param {
    num_output: 96
    pad: 2
    kernel_size: 5
    weight_filler {
      type: "xavier"
      std: 0.03
    }
    bias_filler {
      type: "constant"
      value: 0.2
    }
  }
}
layer {
  name: "inception_3b/relu_5x5"
  type: "ReLU"
  bottom: "inception_3b/5x5"
  top: "inception_3b/5x5"
}
layer {
  name: "inception_3b/pool"
  type: "Pooling"
  bottom: "inception_3a/output"
  top: "inception_3b/pool"
  pooling_param {
    pool: MAX
    kernel_size: 3
    stride: 1
    pad: 1
  }
}
layer {
  name: "inception_3b/pool_proj"
  type: "Convolution"
  bottom: "inception_3b/pool"
  top: "inception_3b/pool_proj"
  param {
    lr_mult: 1
    decay_mult: 1
  }
  param {
    lr_mult: 2
    decay_mult: 0
  }
  convolution_param {
    num_output: 64
    kernel_size: 1
    weight_filler {
      type: "xavier"
      std: 0.1
    }
    bias_filler {
      type: "constant"
      value: 0.2
    }
  }
}
layer {
  name: "inception_3b/relu_pool_proj"
  type: "ReLU"
  bottom: "inception_3b/pool_proj"
  top: "inception_3b/pool_proj"
}
layer {
  name: "inception_3b/output"
  type: "Concat"
  bottom: "inception_3b/1x1"
  bottom: "inception_3b/3x3"
  bottom: "inception_3b/5x5"
  bottom: "inception_3b/pool_proj"
  top: "inception_3b/output"
}
layer {
  name: "pool3/3x3_s2"
  type: "Pooling"
  bottom: "inception_3b/output"
  top: "pool3/3x3_s2"
  pooling_param {
    pool: MAX
    kernel_size: 3
    stride: 2
  }
}
layer {
  name: "inception_4a/1x1"
  type: "Convolution"
  bottom: "pool3/3x3_s2"
  top: "inception_4a/1x1"
  param {
    lr_mult: 1
    decay_mult: 1
  }
  param {
    lr_mult: 2
    decay_mult: 0
  }
  convolution_param {
    num_output: 192
    kernel_size: 1
    weight_filler {
      type: "xavier"
      std: 0.03
    }
    bias_filler {
      type: "constant"
      value: 0.2
    }
  }
}
layer {
  name: "inception_4a/relu_1x1"
  type: "ReLU"
  bottom: "inception_4a/1x1"
  top: "inception_4a/1x1"
}
layer {
  name: "inception_4a/3x3_reduce"
  type: "Convolution"
  bottom: "pool3/3x3_s2"
  top: "inception_4a/3x3_reduce"
  param {
    lr_mult: 1
    decay_mult: 1
  }
  param {
    lr_mult: 2
    decay_mult: 0
  }
  convolution_param {
    num_output: 96
    kernel_size: 1
    weight_filler {
      type: "xavier"
      std: 0.09
    }
    bias_filler {
      type: "constant"
      value: 0.2
    }
  }
}
layer {
  name: "inception_4a/relu_3x3_reduce"
  type: "ReLU"
  bottom: "inception_4a/3x3_reduce"
  top: "inception_4a/3x3_reduce"
}
layer {
  name: "inception_4a/3x3"
  type: "Convolution"
  bottom: "inception_4a/3x3_reduce"
  top: "inception_4a/3x3"
  param {
    lr_mult: 1
    decay_mult: 1
  }
  param {
    lr_mult: 2
    decay_mult: 0
  }
  convolution_param {
    num_output: 208
    pad: 1
    kernel_size: 3
    weight_filler {
      type: "xavier"
      std: 0.03
    }
    bias_filler {
      type: "constant"
      value: 0.2
    }
  }
}
layer {
  name: "inception_4a/relu_3x3"
  type: "ReLU"
  bottom: "inception_4a/3x3"
  top: "inception_4a/3x3"
}
layer {
  name: "inception_4a/5x5_reduce"
  type: "Convolution"
  bottom: "pool3/3x3_s2"
  top: "inception_4a/5x5_reduce"
  param {
    lr_mult: 1
    decay_mult: 1
  }
  param {
    lr_mult: 2
    decay_mult: 0
  }
  convolution_param {
    num_output: 16
    kernel_size: 1
    weight_filler {
      type: "xavier"
      std: 0.2
    }
    bias_filler {
      type: "constant"
      value: 0.2
    }
  }
}
layer {
  name: "inception_4a/relu_5x5_reduce"
  type: "ReLU"
  bottom: "inception_4a/5x5_reduce"
  top: "inception_4a/5x5_reduce"
}
layer {
  name: "inception_4a/5x5"
  type: "Convolution"
  bottom: "inception_4a/5x5_reduce"
  top: "inception_4a/5x5"
  param {
    lr_mult: 1
    decay_mult: 1
  }
  param {
    lr_mult: 2
    decay_mult: 0
  }
  convolution_param {
    num_output: 48
    pad: 2
    kernel_size: 5
    weight_filler {
      type: "xavier"
      std: 0.03
    }
    bias_filler {
      type: "constant"
      value: 0.2
    }
  }
}
layer {
  name: "inception_4a/relu_5x5"
  type: "ReLU"
  bottom: "inception_4a/5x5"
  top: "inception_4a/5x5"
}
layer {
  name: "inception_4a/pool"
  type: "Pooling"
  bottom: "pool3/3x3_s2"
  top: "inception_4a/pool"
  pooling_param {
    pool: MAX
    kernel_size: 3
    stride: 1
    pad: 1
  }
}
layer {
  name: "inception_4a/pool_proj"
  type: "Convolution"
  bottom: "inception_4a/pool"
  top: "inception_4a/pool_proj"
  param {
    lr_mult: 1
    decay_mult: 1
  }
  param {
    lr_mult: 2
    decay_mult: 0
  }
  convolution_param {
    num_output: 64
    kernel_size: 1
    weight_filler {
      type: "xavier"
      std: 0.1
    }
    bias_filler {
      type: "constant"
      value: 0.2
    }
  }
}
layer {
  name: "inception_4a/relu_pool_proj"
  type: "ReLU"
  bottom: "inception_4a/pool_proj"
  top: "inception_4a/pool_proj"
}
layer {
  name: "inception_4a/output"
  type: "Concat"
  bottom: "inception_4a/1x1"
  bottom: "inception_4a/3x3"
  bottom: "inception_4a/5x5"
  bottom: "inception_4a/pool_proj"
  top: "inception_4a/output"
}
layer {
  name: "loss1/ave_pool"
  type: "Pooling"
  bottom: "inception_4a/output"
  top: "loss1/ave_pool"
  pooling_param {
    pool: AVE
    kernel_size: 5
    stride: 3
  }
}
layer {
  name: "loss1/conv"
  type: "Convolution"
  bottom: "loss1/ave_pool"
  top: "loss1/conv"
  param {
    lr_mult: 1
    decay_mult: 1
  }
  param {
    lr_mult: 2
    decay_mult: 0
  }
  convolution_param {
    num_output: 128
    kernel_size: 1
    weight_filler {
      type: "xavier"
      std: 0.08
    }
    bias_filler {
      type: "constant"
      value: 0.2
    }
  }
}
layer {
  name: "loss1/relu_conv"
  type: "ReLU"
  bottom: "loss1/conv"
  top: "loss1/conv"
}
layer {
  name: "loss1/fc"
  type: "InnerProduct"
  bottom: "loss1/conv"
  top: "loss1/fc"
  param {
    lr_mult: 1
    decay_mult: 1
  }
  param {
    lr_mult: 2
    decay_mult: 0
  }
  inner_product_param {
    num_output: 1024
    weight_filler {
      type: "xavier"
      std: 0.02
    }
    bias_filler {
      type: "constant"
      value: 0.2
    }
  }
}
layer {
  name: "loss1/relu_fc"
  type: "ReLU"
  bottom: "loss1/fc"
  top: "loss1/fc"
}
layer {
  name: "loss1/drop_fc"
  type: "Dropout"
  bottom: "loss1/fc"
  top: "loss1/fc"
  dropout_param {
    dropout_ratio: 0.7
  }
}
layer {
  name: "loss1/classifier_plantvillage"
  type: "InnerProduct"
  bottom: "loss1/fc"
  top: "loss1/classifier_plantvillage"
  param {
    lr_mult: 1
    decay_mult: 1
  }
  param {
    lr_mult: 2
    decay_mult: 0
  }
  inner_product_param {
    num_output: 38
    weight_filler {
      type: "xavier"
      std: 0.0009765625
    }
    bias_filler {
      type: "constant"
      value: 0
    }
  }
}
layer {
  name: "inception_4b/1x1"
  type: "Convolution"
  bottom: "inception_4a/output"
  top: "inception_4b/1x1"
  param {
    lr_mult: 1
    decay_mult: 1
  }
  param {
    lr_mult: 2
    decay_mult: 0
  }
  convolution_param {
    num_output: 160
    kernel_size: 1
    weight_filler {
      type: "xavier"
      std: 0.03
    }
    bias_filler {
      type: "constant"
      value: 0.2
    }
  }
}
layer {
  name: "inception_4b/relu_1x1"
  type: "ReLU"
  bottom: "inception_4b/1x1"
  top: "inception_4b/1x1"
}
layer {
  name: "inception_4b/3x3_reduce"
  type: "Convolution"
  bottom: "inception_4a/output"
  top: "inception_4b/3x3_reduce"
  param {
    lr_mult: 1
    decay_mult: 1
  }
  param {
    lr_mult: 2
    decay_mult: 0
  }
  convolution_param {
    num_output: 112
    kernel_size: 1
    weight_filler {
      type: "xavier"
      std: 0.09
    }
    bias_filler {
      type: "constant"
      value: 0.2
    }
  }
}
layer {
  name: "inception_4b/relu_3x3_reduce"
  type: "ReLU"
  bottom: "inception_4b/3x3_reduce"
  top: "inception_4b/3x3_reduce"
}
layer {
  name: "inception_4b/3x3"
  type: "Convolution"
  bottom: "inception_4b/3x3_reduce"
  top: "inception_4b/3x3"
  param {
    lr_mult: 1
    decay_mult: 1
  }
  param {
    lr_mult: 2
    decay_mult: 0
  }
  convolution_param {
    num_output: 224
    pad: 1
    kernel_size: 3
    weight_filler {
      type: "xavier"
      std: 0.03
    }
    bias_filler {
      type: "constant"
      value: 0.2
    }
  }
}
layer {
  name: "inception_4b/relu_3x3"
  type: "ReLU"
  bottom: "inception_4b/3x3"
  top: "inception_4b/3x3"
}
layer {
  name: "inception_4b/5x5_reduce"
  type: "Convolution"
  bottom: "inception_4a/output"
  top: "inception_4b/5x5_reduce"
  param {
    lr_mult: 1
    decay_mult: 1
  }
  param {
    lr_mult: 2
    decay_mult: 0
  }
  convolution_param {
    num_output: 24
    kernel_size: 1
    weight_filler {
      type: "xavier"
      std: 0.2
    }
    bias_filler {
      type: "constant"
      value: 0.2
    }
  }
}
layer {
  name: "inception_4b/relu_5x5_reduce"
  type: "ReLU"
  bottom: "inception_4b/5x5_reduce"
  top: "inception_4b/5x5_reduce"
}
layer {
  name: "inception_4b/5x5"
  type: "Convolution"
  bottom: "inception_4b/5x5_reduce"
  top: "inception_4b/5x5"
  param {
    lr_mult: 1
    decay_mult: 1
  }
  param {
    lr_mult: 2
    decay_mult: 0
  }
  convolution_param {
    num_output: 64
    pad: 2
    kernel_size: 5
    weight_filler {
      type: "xavier"
      std: 0.03
    }
    bias_filler {
      type: "constant"
      value: 0.2
    }
  }
}
layer {
  name: "inception_4b/relu_5x5"
  type: "ReLU"
  bottom: "inception_4b/5x5"
  top: "inception_4b/5x5"
}
layer {
  name: "inception_4b/pool"
  type: "Pooling"
  bottom: "inception_4a/output"
  top: "inception_4b/pool"
  pooling_param {
    pool: MAX
    kernel_size: 3
    stride: 1
    pad: 1
  }
}
layer {
  name: "inception_4b/pool_proj"
  type: "Convolution"
  bottom: "inception_4b/pool"
  top: "inception_4b/pool_proj"
  param {
    lr_mult: 1
    decay_mult: 1
  }
  param {
    lr_mult: 2
    decay_mult: 0
  }
  convolution_param {
    num_output: 64
    kernel_size: 1
    weight_filler {
      type: "xavier"
      std: 0.1
    }
    bias_filler {
      type: "constant"
      value: 0.2
    }
  }
}
layer {
  name: "inception_4b/relu_pool_proj"
  type: "ReLU"
  bottom: "inception_4b/pool_proj"
  top: "inception_4b/pool_proj"
}
layer {
  name: "inception_4b/output"
  type: "Concat"
  bottom: "inception_4b/1x1"
  bottom: "inception_4b/3x3"
  bottom: "inception_4b/5x5"
  bottom: "inception_4b/pool_proj"
  top: "inception_4b/output"
}
layer {
  name: "inception_4c/1x1"
  type: "Convolution"
  bottom: "inception_4b/output"
  top: "inception_4c/1x1"
  param {
    lr_mult: 1
    decay_mult: 1
  }
  param {
    lr_mult: 2
    decay_mult: 0
  }
  convolution_param {
    num_output: 128
    kernel_size: 1
    weight_filler {
      type: "xavier"
      std: 0.03
    }
    bias_filler {
      type: "constant"
      value: 0.2
    }
  }
}
layer {
  name: "inception_4c/relu_1x1"
  type: "ReLU"
  bottom: "inception_4c/1x1"
  top: "inception_4c/1x1"
}
layer {
  name: "inception_4c/3x3_reduce"
  type: "Convolution"
  bottom: "inception_4b/output"
  top: "inception_4c/3x3_reduce"
  param {
    lr_mult: 1
    decay_mult: 1
  }
  param {
    lr_mult: 2
    decay_mult: 0
  }
  convolution_param {
    num_output: 128
    kernel_size: 1
    weight_filler {
      type: "xavier"
      std: 0.09
    }
    bias_filler {
      type: "constant"
      value: 0.2
    }
  }
}
layer {
  name: "inception_4c/relu_3x3_reduce"
  type: "ReLU"
  bottom: "inception_4c/3x3_reduce"
  top: "inception_4c/3x3_reduce"
}
layer {
  name: "inception_4c/3x3"
  type: "Convolution"
  bottom: "inception_4c/3x3_reduce"
  top: "inception_4c/3x3"
  param {
    lr_mult: 1
    decay_mult: 1
  }
  param {
    lr_mult: 2
    decay_mult: 0
  }
  convolution_param {
    num_output: 256
    pad: 1
    kernel_size: 3
    weight_filler {
      type: "xavier"
      std: 0.03
    }
    bias_filler {
      type: "constant"
      value: 0.2
    }
  }
}
layer {
  name: "inception_4c/relu_3x3"
  type: "ReLU"
  bottom: "inception_4c/3x3"
  top: "inception_4c/3x3"
}
layer {
  name: "inception_4c/5x5_reduce"
  type: "Convolution"
  bottom: "inception_4b/output"
  top: "inception_4c/5x5_reduce"
  param {
    lr_mult: 1
    decay_mult: 1
  }
  param {
    lr_mult: 2
    decay_mult: 0
  }
  convolution_param {
    num_output: 24
    kernel_size: 1
    weight_filler {
      type: "xavier"
      std: 0.2
    }
    bias_filler {
      type: "constant"
      value: 0.2
    }
  }
}
layer {
  name: "inception_4c/relu_5x5_reduce"
  type: "ReLU"
  bottom: "inception_4c/5x5_reduce"
  top: "inception_4c/5x5_reduce"
}
layer {
  name: "inception_4c/5x5"
  type: "Convolution"
  bottom: "inception_4c/5x5_reduce"
  top: "inception_4c/5x5"
  param {
    lr_mult: 1
    decay_mult: 1
  }
  param {
    lr_mult: 2
    decay_mult: 0
  }
  convolution_param {
    num_output: 64
    pad: 2
    kernel_size: 5
    weight_filler {
      type: "xavier"
      std: 0.03
    }
    bias_filler {
      type: "constant"
      value: 0.2
    }
  }
}
layer {
  name: "inception_4c/relu_5x5"
  type: "ReLU"
  bottom: "inception_4c/5x5"
  top: "inception_4c/5x5"
}
layer {
  name: "inception_4c/pool"
  type: "Pooling"
  bottom: "inception_4b/output"
  top: "inception_4c/pool"
  pooling_param {
    pool: MAX
    kernel_size: 3
    stride: 1
    pad: 1
  }
}
layer {
  name: "inception_4c/pool_proj"
  type: "Convolution"
  bottom: "inception_4c/pool"
  top: "inception_4c/pool_proj"
  param {
    lr_mult: 1
    decay_mult: 1
  }
  param {
    lr_mult: 2
    decay_mult: 0
  }
  convolution_param {
    num_output: 64
    kernel_size: 1
    weight_filler {
      type: "xavier"
      std: 0.1
    }
    bias_filler {
      type: "constant"
      value: 0.2
    }
  }
}
layer {
  name: "inception_4c/relu_pool_proj"
  type: "ReLU"
  bottom: "inception_4c/pool_proj"
  top: "inception_4c/pool_proj"
}
layer {
  name: "inception_4c/output"
  type: "Concat"
  bottom: "inception_4c/1x1"
  bottom: "inception_4c/3x3"
  bottom: "inception_4c/5x5"
  bottom: "inception_4c/pool_proj"
  top: "inception_4c/output"
}
layer {
  name: "inception_4d/1x1"
  type: "Convolution"
  bottom: "inception_4c/output"
  top: "inception_4d/1x1"
  param {
    lr_mult: 1
    decay_mult: 1
  }
  param {
    lr_mult: 2
    decay_mult: 0
  }
  convolution_param {
    num_output: 112
    kernel_size: 1
    weight_filler {
      type: "xavier"
      std: 0.03
    }
    bias_filler {
      type: "constant"
      value: 0.2
    }
  }
}
layer {
  name: "inception_4d/relu_1x1"
  type: "ReLU"
  bottom: "inception_4d/1x1"
  top: "inception_4d/1x1"
}
layer {
  name: "inception_4d/3x3_reduce"
  type: "Convolution"
  bottom: "inception_4c/output"
  top: "inception_4d/3x3_reduce"
  param {
    lr_mult: 1
    decay_mult: 1
  }
  param {
    lr_mult: 2
    decay_mult: 0
  }
  convolution_param {
    num_output: 144
    kernel_size: 1
    weight_filler {
      type: "xavier"
      std: 0.09
    }
    bias_filler {
      type: "constant"
      value: 0.2
    }
  }
}
layer {
  name: "inception_4d/relu_3x3_reduce"
  type: "ReLU"
  bottom: "inception_4d/3x3_reduce"
  top: "inception_4d/3x3_reduce"
}
layer {
  name: "inception_4d/3x3"
  type: "Convolution"
  bottom: "inception_4d/3x3_reduce"
  top: "inception_4d/3x3"
  param {
    lr_mult: 1
    decay_mult: 1
  }
  param {
    lr_mult: 2
    decay_mult: 0
  }
  convolution_param {
    num_output: 288
    pad: 1
    kernel_size: 3
    weight_filler {
      type: "xavier"
      std: 0.03
    }
    bias_filler {
      type: "constant"
      value: 0.2
    }
  }
}
layer {
  name: "inception_4d/relu_3x3"
  type: "ReLU"
  bottom: "inception_4d/3x3"
  top: "inception_4d/3x3"
}
layer {
  name: "inception_4d/5x5_reduce"
  type: "Convolution"
  bottom: "inception_4c/output"
  top: "inception_4d/5x5_reduce"
  param {
    lr_mult: 1
    decay_mult: 1
  }
  param {
    lr_mult: 2
    decay_mult: 0
  }
  convolution_param {
    num_output: 32
    kernel_size: 1
    weight_filler {
      type: "xavier"
      std: 0.2
    }
    bias_filler {
      type: "constant"
      value: 0.2
    }
  }
}
layer {
  name: "inception_4d/relu_5x5_reduce"
  type: "ReLU"
  bottom: "inception_4d/5x5_reduce"
  top: "inception_4d/5x5_reduce"
}
layer {
  name: "inception_4d/5x5"
  type: "Convolution"
  bottom: "inception_4d/5x5_reduce"
  top: "inception_4d/5x5"
  param {
    lr_mult: 1
    decay_mult: 1
  }
  param {
    lr_mult: 2
    decay_mult: 0
  }
  convolution_param {
    num_output: 64
    pad: 2
    kernel_size: 5
    weight_filler {
      type: "xavier"
      std: 0.03
    }
    bias_filler {
      type: "constant"
      value: 0.2
    }
  }
}
layer {
  name: "inception_4d/relu_5x5"
  type: "ReLU"
  bottom: "inception_4d/5x5"
  top: "inception_4d/5x5"
}
layer {
  name: "inception_4d/pool"
  type: "Pooling"
  bottom: "inception_4c/output"
  top: "inception_4d/pool"
  pooling_param {
    pool: MAX
    kernel_size: 3
    stride: 1
    pad: 1
  }
}
layer {
  name: "inception_4d/pool_proj"
  type: "Convolution"
  bottom: "inception_4d/pool"
  top: "inception_4d/pool_proj"
  param {
    lr_mult: 1
    decay_mult: 1
  }
  param {
    lr_mult: 2
    decay_mult: 0
  }
  convolution_param {
    num_output: 64
    kernel_size: 1
    weight_filler {
      type: "xavier"
      std: 0.1
    }
    bias_filler {
      type: "constant"
      value: 0.2
    }
  }
}
layer {
  name: "inception_4d/relu_pool_proj"
  type: "ReLU"
  bottom: "inception_4d/pool_proj"
  top: "inception_4d/pool_proj"
}
layer {
  name: "inception_4d/output"
  type: "Concat"
  bottom: "inception_4d/1x1"
  bottom: "inception_4d/3x3"
  bottom: "inception_4d/5x5"
  bottom: "inception_4d/pool_proj"
  top: "inception_4d/output"
}
layer {
  name: "loss2/ave_pool"
  type: "Pooling"
  bottom: "inception_4d/output"
  top: "loss2/ave_pool"
  pooling_param {
    pool: AVE
    kernel_size: 5
    stride: 3
  }
}
layer {
  name: "loss2/conv"
  type: "Convolution"
  bottom: "loss2/ave_pool"
  top: "loss2/conv"
  param {
    lr_mult: 1
    decay_mult: 1
  }
  param {
    lr_mult: 2
    decay_mult: 0
  }
  convolution_param {
    num_output: 128
    kernel_size: 1
    weight_filler {
      type: "xavier"
      std: 0.08
    }
    bias_filler {
      type: "constant"
      value: 0.2
    }
  }
}
layer {
  name: "loss2/relu_conv"
  type: "ReLU"
  bottom: "loss2/conv"
  top: "loss2/conv"
}
layer {
  name: "loss2/fc"
  type: "InnerProduct"
  bottom: "loss2/conv"
  top: "loss2/fc"
  param {
    lr_mult: 1
    decay_mult: 1
  }
  param {
    lr_mult: 2
    decay_mult: 0
  }
  inner_product_param {
    num_output: 1024
    weight_filler {
      type: "xavier"
      std: 0.02
    }
    bias_filler {
      type: "constant"
      value: 0.2
    }
  }
}
layer {
  name: "loss2/relu_fc"
  type: "ReLU"
  bottom: "loss2/fc"
  top: "loss2/fc"
}
layer {
  name: "loss2/drop_fc"
  type: "Dropout"
  bottom: "loss2/fc"
  top: "loss2/fc"
  dropout_param {
    dropout_ratio: 0.7
  }
}
layer {
  name: "loss2/classifier_plantvillage"
  type: "InnerProduct"
  bottom: "loss2/fc"
  top: "loss2/classifier_plantvillage"
  param {
    lr_mult: 1
    decay_mult: 1
  }
  param {
    lr_mult: 2
    decay_mult: 0
  }
  inner_product_param {
    num_output: 38
    weight_filler {
      type: "xavier"
      std: 0.0009765625
    }
    bias_filler {
      type: "constant"
      value: 0
    }
  }
}
layer {
  name: "inception_4e/1x1"
  type: "Convolution"
  bottom: "inception_4d/output"
  top: "inception_4e/1x1"
  param {
    lr_mult: 1
    decay_mult: 1
  }
  param {
    lr_mult: 2
    decay_mult: 0
  }
  convolution_param {
    num_output: 256
    kernel_size: 1
    weight_filler {
      type: "xavier"
      std: 0.03
    }
    bias_filler {
      type: "constant"
      value: 0.2
    }
  }
}
layer {
  name: "inception_4e/relu_1x1"
  type: "ReLU"
  bottom: "inception_4e/1x1"
  top: "inception_4e/1x1"
}
layer {
  name: "inception_4e/3x3_reduce"
  type: "Convolution"
  bottom: "inception_4d/output"
  top: "inception_4e/3x3_reduce"
  param {
    lr_mult: 1
    decay_mult: 1
  }
  param {
    lr_mult: 2
    decay_mult: 0
  }
  convolution_param {
    num_output: 160
    kernel_size: 1
    weight_filler {
      type: "xavier"
      std: 0.09
    }
    bias_filler {
      type: "constant"
      value: 0.2
    }
  }
}
layer {
  name: "inception_4e/relu_3x3_reduce"
  type: "ReLU"
  bottom: "inception_4e/3x3_reduce"
  top: "inception_4e/3x3_reduce"
}
layer {
  name: "inception_4e/3x3"
  type: "Convolution"
  bottom: "inception_4e/3x3_reduce"
  top: "inception_4e/3x3"
  param {
    lr_mult: 1
    decay_mult: 1
  }
  param {
    lr_mult: 2
    decay_mult: 0
  }
  convolution_param {
    num_output: 320
    pad: 1
    kernel_size: 3
    weight_filler {
      type: "xavier"
      std: 0.03
    }
    bias_filler {
      type: "constant"
      value: 0.2
    }
  }
}
layer {
  name: "inception_4e/relu_3x3"
  type: "ReLU"
  bottom: "inception_4e/3x3"
  top: "inception_4e/3x3"
}
layer {
  name: "inception_4e/5x5_reduce"
  type: "Convolution"
  bottom: "inception_4d/output"
  top: "inception_4e/5x5_reduce"
  param {
    lr_mult: 1
    decay_mult: 1
  }
  param {
    lr_mult: 2
    decay_mult: 0
  }
  convolution_param {
    num_output: 32
    kernel_size: 1
    weight_filler {
      type: "xavier"
      std: 0.2
    }
    bias_filler {
      type: "constant"
      value: 0.2
    }
  }
}
layer {
  name: "inception_4e/relu_5x5_reduce"
  type: "ReLU"
  bottom: "inception_4e/5x5_reduce"
  top: "inception_4e/5x5_reduce"
}
layer {
  name: "inception_4e/5x5"
  type: "Convolution"
  bottom: "inception_4e/5x5_reduce"
  top: "inception_4e/
I0403 15:13:23.326330 31310 layer_factory.hpp:77] Creating layer data
I0403 15:13:23.326966 31310 net.cpp:91] Creating Layer data
I0403 15:13:23.326999 31310 net.cpp:399] data -> data
I0403 15:13:23.327056 31310 net.cpp:399] data -> label
I0403 15:13:23.327095 31310 data_transformer.cpp:25] Loading mean file from: /home/mohanty/data/final_dataset/lmdb/grayscale-80-20/mean.binaryproto
I0403 15:13:23.329514 31315 db_lmdb.cpp:38] Opened lmdb /home/mohanty/data/final_dataset/lmdb/grayscale-80-20/test_db
I0403 15:13:23.340893 31310 data_layer.cpp:41] output data size: 24,3,224,224
I0403 15:13:23.368634 31310 net.cpp:141] Setting up data
I0403 15:13:23.368713 31310 net.cpp:148] Top shape: 24 3 224 224 (3612672)
I0403 15:13:23.368738 31310 net.cpp:148] Top shape: 24 (24)
I0403 15:13:23.368755 31310 net.cpp:156] Memory required for data: 14450784
I0403 15:13:23.368787 31310 layer_factory.hpp:77] Creating layer label_data_1_split
I0403 15:13:23.368814 31310 net.cpp:91] Creating Layer label_data_1_split
I0403 15:13:23.368834 31310 net.cpp:425] label_data_1_split <- label
I0403 15:13:23.368871 31310 net.cpp:399] label_data_1_split -> label_data_1_split_0
I0403 15:13:23.368901 31310 net.cpp:399] label_data_1_split -> label_data_1_split_1
I0403 15:13:23.368922 31310 net.cpp:399] label_data_1_split -> label_data_1_split_2
I0403 15:13:23.368945 31310 net.cpp:399] label_data_1_split -> label_data_1_split_3
I0403 15:13:23.368993 31310 net.cpp:399] label_data_1_split -> label_data_1_split_4
I0403 15:13:23.369040 31310 net.cpp:399] label_data_1_split -> label_data_1_split_5
I0403 15:13:23.369101 31310 net.cpp:399] label_data_1_split -> label_data_1_split_6
I0403 15:13:23.369149 31310 net.cpp:399] label_data_1_split -> label_data_1_split_7
I0403 15:13:23.369196 31310 net.cpp:399] label_data_1_split -> label_data_1_split_8
I0403 15:13:23.369241 31310 net.cpp:399] label_data_1_split -> label_data_1_split_9
I0403 15:13:23.369388 31310 net.cpp:141] Setting up label_data_1_split
I0403 15:13:23.369415 31310 net.cpp:148] Top shape: 24 (24)
I0403 15:13:23.369433 31310 net.cpp:148] Top shape: 24 (24)
I0403 15:13:23.369449 31310 net.cpp:148] Top shape: 24 (24)
I0403 15:13:23.369467 31310 net.cpp:148] Top shape: 24 (24)
I0403 15:13:23.369483 31310 net.cpp:148] Top shape: 24 (24)
I0403 15:13:23.369539 31310 net.cpp:148] Top shape: 24 (24)
I0403 15:13:23.369585 31310 net.cpp:148] Top shape: 24 (24)
I0403 15:13:23.369622 31310 net.cpp:148] Top shape: 24 (24)
I0403 15:13:23.369660 31310 net.cpp:148] Top shape: 24 (24)
I0403 15:13:23.369710 31310 net.cpp:148] Top shape: 24 (24)
I0403 15:13:23.369776 31310 net.cpp:156] Memory required for data: 14451744
I0403 15:13:23.369793 31310 layer_factory.hpp:77] Creating layer conv1/7x7_s2
I0403 15:13:23.369827 31310 net.cpp:91] Creating Layer conv1/7x7_s2
I0403 15:13:23.369861 31310 net.cpp:425] conv1/7x7_s2 <- data
I0403 15:13:23.369884 31310 net.cpp:399] conv1/7x7_s2 -> conv1/7x7_s2
I0403 15:13:23.511911 31310 net.cpp:141] Setting up conv1/7x7_s2
I0403 15:13:23.512001 31310 net.cpp:148] Top shape: 24 64 112 112 (19267584)
I0403 15:13:23.512018 31310 net.cpp:156] Memory required for data: 91522080
I0403 15:13:23.512055 31310 layer_factory.hpp:77] Creating layer conv1/relu_7x7
I0403 15:13:23.512087 31310 net.cpp:91] Creating Layer conv1/relu_7x7
I0403 15:13:23.512107 31310 net.cpp:425] conv1/relu_7x7 <- conv1/7x7_s2
I0403 15:13:23.512130 31310 net.cpp:386] conv1/relu_7x7 -> conv1/7x7_s2 (in-place)
I0403 15:13:23.512401 31310 net.cpp:141] Setting up conv1/relu_7x7
I0403 15:13:23.512430 31310 net.cpp:148] Top shape: 24 64 112 112 (19267584)
I0403 15:13:23.512449 31310 net.cpp:156] Memory required for data: 168592416
I0403 15:13:23.512470 31310 layer_factory.hpp:77] Creating layer pool1/3x3_s2
I0403 15:13:23.512501 31310 net.cpp:91] Creating Layer pool1/3x3_s2
I0403 15:13:23.512519 31310 net.cpp:425] pool1/3x3_s2 <- conv1/7x7_s2
I0403 15:13:23.512547 31310 net.cpp:399] pool1/3x3_s2 -> pool1/3x3_s2
I0403 15:13:23.512635 31310 net.cpp:141] Setting up pool1/3x3_s2
I0403 15:13:23.512660 31310 net.cpp:148] Top shape: 24 64 56 56 (4816896)
I0403 15:13:23.512676 31310 net.cpp:156] Memory required for data: 187860000
I0403 15:13:23.512691 31310 layer_factory.hpp:77] Creating layer pool1/norm1
I0403 15:13:23.512718 31310 net.cpp:91] Creating Layer pool1/norm1
I0403 15:13:23.512735 31310 net.cpp:425] pool1/norm1 <- pool1/3x3_s2
I0403 15:13:23.512753 31310 net.cpp:399] pool1/norm1 -> pool1/norm1
I0403 15:13:23.513061 31310 net.cpp:141] Setting up pool1/norm1
I0403 15:13:23.513088 31310 net.cpp:148] Top shape: 24 64 56 56 (4816896)
I0403 15:13:23.513104 31310 net.cpp:156] Memory required for data: 207127584
I0403 15:13:23.513120 31310 layer_factory.hpp:77] Creating layer conv2/3x3_reduce
I0403 15:13:23.513146 31310 net.cpp:91] Creating Layer conv2/3x3_reduce
I0403 15:13:23.513164 31310 net.cpp:425] conv2/3x3_reduce <- pool1/norm1
I0403 15:13:23.513183 31310 net.cpp:399] conv2/3x3_reduce -> conv2/3x3_reduce
I0403 15:13:23.514657 31310 net.cpp:141] Setting up conv2/3x3_reduce
I0403 15:13:23.514691 31310 net.cpp:148] Top shape: 24 64 56 56 (4816896)
I0403 15:13:23.514709 31310 net.cpp:156] Memory required for data: 226395168
I0403 15:13:23.514734 31310 layer_factory.hpp:77] Creating layer conv2/relu_3x3_reduce
I0403 15:13:23.514752 31310 net.cpp:91] Creating Layer conv2/relu_3x3_reduce
I0403 15:13:23.514770 31310 net.cpp:425] conv2/relu_3x3_reduce <- conv2/3x3_reduce
I0403 15:13:23.514791 31310 net.cpp:386] conv2/relu_3x3_reduce -> conv2/3x3_reduce (in-place)
I0403 15:13:23.515079 31310 net.cpp:141] Setting up conv2/relu_3x3_reduce
I0403 15:13:23.515107 31310 net.cpp:148] Top shape: 24 64 56 56 (4816896)
I0403 15:13:23.515125 31310 net.cpp:156] Memory required for data: 245662752
I0403 15:13:23.515141 31310 layer_factory.hpp:77] Creating layer conv2/3x3
I0403 15:13:23.515166 31310 net.cpp:91] Creating Layer conv2/3x3
I0403 15:13:23.515183 31310 net.cpp:425] conv2/3x3 <- conv2/3x3_reduce
I0403 15:13:23.515203 31310 net.cpp:399] conv2/3x3 -> conv2/3x3
I0403 15:13:23.517623 31310 net.cpp:141] Setting up conv2/3x3
I0403 15:13:23.517658 31310 net.cpp:148] Top shape: 24 192 56 56 (14450688)
I0403 15:13:23.517676 31310 net.cpp:156] Memory required for data: 303465504
I0403 15:13:23.517699 31310 layer_factory.hpp:77] Creating layer conv2/relu_3x3
I0403 15:13:23.517717 31310 net.cpp:91] Creating Layer conv2/relu_3x3
I0403 15:13:23.517735 31310 net.cpp:425] conv2/relu_3x3 <- conv2/3x3
I0403 15:13:23.517755 31310 net.cpp:386] conv2/relu_3x3 -> conv2/3x3 (in-place)
I0403 15:13:23.517946 31310 net.cpp:141] Setting up conv2/relu_3x3
I0403 15:13:23.517971 31310 net.cpp:148] Top shape: 24 192 56 56 (14450688)
I0403 15:13:23.518024 31310 net.cpp:156] Memory required for data: 361268256
I0403 15:13:23.518041 31310 layer_factory.hpp:77] Creating layer conv2/norm2
I0403 15:13:23.518065 31310 net.cpp:91] Creating Layer conv2/norm2
I0403 15:13:23.518082 31310 net.cpp:425] conv2/norm2 <- conv2/3x3
I0403 15:13:23.518101 31310 net.cpp:399] conv2/norm2 -> conv2/norm2
I0403 15:13:23.518471 31310 net.cpp:141] Setting up conv2/norm2
I0403 15:13:23.518499 31310 net.cpp:148] Top shape: 24 192 56 56 (14450688)
I0403 15:13:23.518515 31310 net.cpp:156] Memory required for data: 419071008
I0403 15:13:23.518530 31310 layer_factory.hpp:77] Creating layer pool2/3x3_s2
I0403 15:13:23.518558 31310 net.cpp:91] Creating Layer pool2/3x3_s2
I0403 15:13:23.518575 31310 net.cpp:425] pool2/3x3_s2 <- conv2/norm2
I0403 15:13:23.518594 31310 net.cpp:399] pool2/3x3_s2 -> pool2/3x3_s2
I0403 15:13:23.518651 31310 net.cpp:141] Setting up pool2/3x3_s2
I0403 15:13:23.518676 31310 net.cpp:148] Top shape: 24 192 28 28 (3612672)
I0403 15:13:23.518690 31310 net.cpp:156] Memory required for data: 433521696
I0403 15:13:23.518707 31310 layer_factory.hpp:77] Creating layer pool2/3x3_s2_pool2/3x3_s2_0_split
I0403 15:13:23.518725 31310 net.cpp:91] Creating Layer pool2/3x3_s2_pool2/3x3_s2_0_split
I0403 15:13:23.518741 31310 net.cpp:425] pool2/3x3_s2_pool2/3x3_s2_0_split <- pool2/3x3_s2
I0403 15:13:23.518762 31310 net.cpp:399] pool2/3x3_s2_pool2/3x3_s2_0_split -> pool2/3x3_s2_pool2/3x3_s2_0_split_0
I0403 15:13:23.518784 31310 net.cpp:399] pool2/3x3_s2_pool2/3x3_s2_0_split -> pool2/3x3_s2_pool2/3x3_s2_0_split_1
I0403 15:13:23.518807 31310 net.cpp:399] pool2/3x3_s2_pool2/3x3_s2_0_split -> pool2/3x3_s2_pool2/3x3_s2_0_split_2
I0403 15:13:23.518828 31310 net.cpp:399] pool2/3x3_s2_pool2/3x3_s2_0_split -> pool2/3x3_s2_pool2/3x3_s2_0_split_3
I0403 15:13:23.518903 31310 net.cpp:141] Setting up pool2/3x3_s2_pool2/3x3_s2_0_split
I0403 15:13:23.518929 31310 net.cpp:148] Top shape: 24 192 28 28 (3612672)
I0403 15:13:23.518949 31310 net.cpp:148] Top shape: 24 192 28 28 (3612672)
I0403 15:13:23.518965 31310 net.cpp:148] Top shape: 24 192 28 28 (3612672)
I0403 15:13:23.518983 31310 net.cpp:148] Top shape: 24 192 28 28 (3612672)
I0403 15:13:23.518998 31310 net.cpp:156] Memory required for data: 491324448
I0403 15:13:23.519014 31310 layer_factory.hpp:77] Creating layer inception_3a/1x1
I0403 15:13:23.519038 31310 net.cpp:91] Creating Layer inception_3a/1x1
I0403 15:13:23.519057 31310 net.cpp:425] inception_3a/1x1 <- pool2/3x3_s2_pool2/3x3_s2_0_split_0
I0403 15:13:23.519078 31310 net.cpp:399] inception_3a/1x1 -> inception_3a/1x1
I0403 15:13:23.520735 31310 net.cpp:141] Setting up inception_3a/1x1
I0403 15:13:23.520766 31310 net.cpp:148] Top shape: 24 64 28 28 (1204224)
I0403 15:13:23.520782 31310 net.cpp:156] Memory required for data: 496141344
I0403 15:13:23.520802 31310 layer_factory.hpp:77] Creating layer inception_3a/relu_1x1
I0403 15:13:23.520823 31310 net.cpp:91] Creating Layer inception_3a/relu_1x1
I0403 15:13:23.520840 31310 net.cpp:425] inception_3a/relu_1x1 <- inception_3a/1x1
I0403 15:13:23.520859 31310 net.cpp:386] inception_3a/relu_1x1 -> inception_3a/1x1 (in-place)
I0403 15:13:23.521046 31310 net.cpp:141] Setting up inception_3a/relu_1x1
I0403 15:13:23.521072 31310 net.cpp:148] Top shape: 24 64 28 28 (1204224)
I0403 15:13:23.521087 31310 net.cpp:156] Memory required for data: 500958240
I0403 15:13:23.521103 31310 layer_factory.hpp:77] Creating layer inception_3a/3x3_reduce
I0403 15:13:23.521126 31310 net.cpp:91] Creating Layer inception_3a/3x3_reduce
I0403 15:13:23.521144 31310 net.cpp:425] inception_3a/3x3_reduce <- pool2/3x3_s2_pool2/3x3_s2_0_split_1
I0403 15:13:23.521167 31310 net.cpp:399] inception_3a/3x3_reduce -> inception_3a/3x3_reduce
I0403 15:13:23.523007 31310 net.cpp:141] Setting up inception_3a/3x3_reduce
I0403 15:13:23.523046 31310 net.cpp:148] Top shape: 24 96 28 28 (1806336)
I0403 15:13:23.523063 31310 net.cpp:156] Memory required for data: 508183584
I0403 15:13:23.523087 31310 layer_factory.hpp:77] Creating layer inception_3a/relu_3x3_reduce
I0403 15:13:23.523123 31310 net.cpp:91] Creating Layer inception_3a/relu_3x3_reduce
I0403 15:13:23.523140 31310 net.cpp:425] inception_3a/relu_3x3_reduce <- inception_3a/3x3_reduce
I0403 15:13:23.523165 31310 net.cpp:386] inception_3a/relu_3x3_reduce -> inception_3a/3x3_reduce (in-place)
I0403 15:13:23.523358 31310 net.cpp:141] Setting up inception_3a/relu_3x3_reduce
I0403 15:13:23.523423 31310 net.cpp:148] Top shape: 24 96 28 28 (1806336)
I0403 15:13:23.523444 31310 net.cpp:156] Memory required for data: 515408928
I0403 15:13:23.523459 31310 layer_factory.hpp:77] Creating layer inception_3a/3x3
I0403 15:13:23.523483 31310 net.cpp:91] Creating Layer inception_3a/3x3
I0403 15:13:23.523501 31310 net.cpp:425] inception_3a/3x3 <- inception_3a/3x3_reduce
I0403 15:13:23.523524 31310 net.cpp:399] inception_3a/3x3 -> inception_3a/3x3
I0403 15:13:23.525327 31310 net.cpp:141] Setting up inception_3a/3x3
I0403 15:13:23.525364 31310 net.cpp:148] Top shape: 24 128 28 28 (2408448)
I0403 15:13:23.525389 31310 net.cpp:156] Memory required for data: 525042720
I0403 15:13:23.525413 31310 layer_factory.hpp:77] Creating layer inception_3a/relu_3x3
I0403 15:13:23.525439 31310 net.cpp:91] Creating Layer inception_3a/relu_3x3
I0403 15:13:23.525461 31310 net.cpp:425] inception_3a/relu_3x3 <- inception_3a/3x3
I0403 15:13:23.525483 31310 net.cpp:386] inception_3a/relu_3x3 -> inception_3a/3x3 (in-place)
I0403 15:13:23.525780 31310 net.cpp:141] Setting up inception_3a/relu_3x3
I0403 15:13:23.525815 31310 net.cpp:148] Top shape: 24 128 28 28 (2408448)
I0403 15:13:23.525838 31310 net.cpp:156] Memory required for data: 534676512
I0403 15:13:23.525861 31310 layer_factory.hpp:77] Creating layer inception_3a/5x5_reduce
I0403 15:13:23.525893 31310 net.cpp:91] Creating Layer inception_3a/5x5_reduce
I0403 15:13:23.525918 31310 net.cpp:425] inception_3a/5x5_reduce <- pool2/3x3_s2_pool2/3x3_s2_0_split_2
I0403 15:13:23.525948 31310 net.cpp:399] inception_3a/5x5_reduce -> inception_3a/5x5_reduce
I0403 15:13:23.529793 31310 net.cpp:141] Setting up inception_3a/5x5_reduce
I0403 15:13:23.529829 31310 net.cpp:148] Top shape: 24 16 28 28 (301056)
I0403 15:13:23.529852 31310 net.cpp:156] Memory required for data: 535880736
I0403 15:13:23.529872 31310 layer_factory.hpp:77] Creating layer inception_3a/relu_5x5_reduce
I0403 15:13:23.529892 31310 net.cpp:91] Creating Layer inception_3a/relu_5x5_reduce
I0403 15:13:23.529912 31310 net.cpp:425] inception_3a/relu_5x5_reduce <- inception_3a/5x5_reduce
I0403 15:13:23.529933 31310 net.cpp:386] inception_3a/relu_5x5_reduce -> inception_3a/5x5_reduce (in-place)
I0403 15:13:23.530248 31310 net.cpp:141] Setting up inception_3a/relu_5x5_reduce
I0403 15:13:23.530282 31310 net.cpp:148] Top shape: 24 16 28 28 (301056)
I0403 15:13:23.530305 31310 net.cpp:156] Memory required for data: 537084960
I0403 15:13:23.530324 31310 layer_factory.hpp:77] Creating layer inception_3a/5x5
I0403 15:13:23.530349 31310 net.cpp:91] Creating Layer inception_3a/5x5
I0403 15:13:23.530375 31310 net.cpp:425] inception_3a/5x5 <- inception_3a/5x5_reduce
I0403 15:13:23.530400 31310 net.cpp:399] inception_3a/5x5 -> inception_3a/5x5
I0403 15:13:23.531476 31310 net.cpp:141] Setting up inception_3a/5x5
I0403 15:13:23.531507 31310 net.cpp:148] Top shape: 24 32 28 28 (602112)
I0403 15:13:23.531524 31310 net.cpp:156] Memory required for data: 539493408
I0403 15:13:23.531549 31310 layer_factory.hpp:77] Creating layer inception_3a/relu_5x5
I0403 15:13:23.531569 31310 net.cpp:91] Creating Layer inception_3a/relu_5x5
I0403 15:13:23.531584 31310 net.cpp:425] inception_3a/relu_5x5 <- inception_3a/5x5
I0403 15:13:23.531616 31310 net.cpp:386] inception_3a/relu_5x5 -> inception_3a/5x5 (in-place)
I0403 15:13:23.531801 31310 net.cpp:141] Setting up inception_3a/relu_5x5
I0403 15:13:23.531832 31310 net.cpp:148] Top shape: 24 32 28 28 (602112)
I0403 15:13:23.531848 31310 net.cpp:156] Memory required for data: 541901856
I0403 15:13:23.531867 31310 layer_factory.hpp:77] Creating layer inception_3a/pool
I0403 15:13:23.531890 31310 net.cpp:91] Creating Layer inception_3a/pool
I0403 15:13:23.531929 31310 net.cpp:425] inception_3a/pool <- pool2/3x3_s2_pool2/3x3_s2_0_split_3
I0403 15:13:23.531957 31310 net.cpp:399] inception_3a/pool -> inception_3a/pool
I0403 15:13:23.532028 31310 net.cpp:141] Setting up inception_3a/pool
I0403 15:13:23.532055 31310 net.cpp:148] Top shape: 24 192 28 28 (3612672)
I0403 15:13:23.532080 31310 net.cpp:156] Memory required for data: 556352544
I0403 15:13:23.532101 31310 layer_factory.hpp:77] Creating layer inception_3a/pool_proj
I0403 15:13:23.532135 31310 net.cpp:91] Creating Layer inception_3a/pool_proj
I0403 15:13:23.532160 31310 net.cpp:425] inception_3a/pool_proj <- inception_3a/pool
I0403 15:13:23.532186 31310 net.cpp:399] inception_3a/pool_proj -> inception_3a/pool_proj
I0403 15:13:23.533205 31310 net.cpp:141] Setting up inception_3a/pool_proj
I0403 15:13:23.533241 31310 net.cpp:148] Top shape: 24 32 28 28 (602112)
I0403 15:13:23.533263 31310 net.cpp:156] Memory required for data: 558760992
I0403 15:13:23.533299 31310 layer_factory.hpp:77] Creating layer inception_3a/relu_pool_proj
I0403 15:13:23.533329 31310 net.cpp:91] Creating Layer inception_3a/relu_pool_proj
I0403 15:13:23.533347 31310 net.cpp:425] inception_3a/relu_pool_proj <- inception_3a/pool_proj
I0403 15:13:23.533370 31310 net.cpp:386] inception_3a/relu_pool_proj -> inception_3a/pool_proj (in-place)
I0403 15:13:23.533713 31310 net.cpp:141] Setting up inception_3a/relu_pool_proj
I0403 15:13:23.533746 31310 net.cpp:148] Top shape: 24 32 28 28 (602112)
I0403 15:13:23.533771 31310 net.cpp:156] Memory required for data: 561169440
I0403 15:13:23.533792 31310 layer_factory.hpp:77] Creating layer inception_3a/output
I0403 15:13:23.533817 31310 net.cpp:91] Creating Layer inception_3a/output
I0403 15:13:23.533834 31310 net.cpp:425] inception_3a/output <- inception_3a/1x1
I0403 15:13:23.533857 31310 net.cpp:425] inception_3a/output <- inception_3a/3x3
I0403 15:13:23.533897 31310 net.cpp:425] inception_3a/output <- inception_3a/5x5
I0403 15:13:23.533956 31310 net.cpp:425] inception_3a/output <- inception_3a/pool_proj
I0403 15:13:23.533995 31310 net.cpp:399] inception_3a/output -> inception_3a/output
I0403 15:13:23.534063 31310 net.cpp:141] Setting up inception_3a/output
I0403 15:13:23.534114 31310 net.cpp:148] Top shape: 24 256 28 28 (4816896)
I0403 15:13:23.534158 31310 net.cpp:156] Memory required for data: 580437024
I0403 15:13:23.534188 31310 layer_factory.hpp:77] Creating layer inception_3a/output_inception_3a/output_0_split
I0403 15:13:23.534222 31310 net.cpp:91] Creating Layer inception_3a/output_inception_3a/output_0_split
I0403 15:13:23.534256 31310 net.cpp:425] inception_3a/output_inception_3a/output_0_split <- inception_3a/output
I0403 15:13:23.534294 31310 net.cpp:399] inception_3a/output_inception_3a/output_0_split -> inception_3a/output_inception_3a/output_0_split_0
I0403 15:13:23.534322 31310 net.cpp:399] inception_3a/output_inception_3a/output_0_split -> inception_3a/output_inception_3a/output_0_split_1
I0403 15:13:23.534350 31310 net.cpp:399] inception_3a/output_inception_3a/output_0_split -> inception_3a/output_inception_3a/output_0_split_2
I0403 15:13:23.534379 31310 net.cpp:399] inception_3a/output_inception_3a/output_0_split -> inception_3a/output_inception_3a/output_0_split_3
I0403 15:13:23.534463 31310 net.cpp:141] Setting up inception_3a/output_inception_3a/output_0_split
I0403 15:13:23.534494 31310 net.cpp:148] Top shape: 24 256 28 28 (4816896)
I0403 15:13:23.534519 31310 net.cpp:148] Top shape: 24 256 28 28 (4816896)
I0403 15:13:23.534546 31310 net.cpp:148] Top shape: 24 256 28 28 (4816896)
I0403 15:13:23.534570 31310 net.cpp:148] Top shape: 24 256 28 28 (4816896)
I0403 15:13:23.534591 31310 net.cpp:156] Memory required for data: 657507360
I0403 15:13:23.534610 31310 layer_factory.hpp:77] Creating layer inception_3b/1x1
I0403 15:13:23.534641 31310 net.cpp:91] Creating Layer inception_3b/1x1
I0403 15:13:23.534663 31310 net.cpp:425] inception_3b/1x1 <- inception_3a/output_inception_3a/output_0_split_0
I0403 15:13:23.534692 31310 net.cpp:399] inception_3b/1x1 -> inception_3b/1x1
I0403 15:13:23.538074 31310 net.cpp:141] Setting up inception_3b/1x1
I0403 15:13:23.538121 31310 net.cpp:148] Top shape: 24 128 28 28 (2408448)
I0403 15:13:23.538146 31310 net.cpp:156] Memory required for data: 667141152
I0403 15:13:23.538177 31310 layer_factory.hpp:77] Creating layer inception_3b/relu_1x1
I0403 15:13:23.538198 31310 net.cpp:91] Creating Layer inception_3b/relu_1x1
I0403 15:13:23.538214 31310 net.cpp:425] inception_3b/relu_1x1 <- inception_3b/1x1
I0403 15:13:23.538234 31310 net.cpp:386] inception_3b/relu_1x1 -> inception_3b/1x1 (in-place)
I0403 15:13:23.538434 31310 net.cpp:141] Setting up inception_3b/relu_1x1
I0403 15:13:23.538468 31310 net.cpp:148] Top shape: 24 128 28 28 (2408448)
I0403 15:13:23.538485 31310 net.cpp:156] Memory required for data: 676774944
I0403 15:13:23.538501 31310 layer_factory.hpp:77] Creating layer inception_3b/3x3_reduce
I0403 15:13:23.538524 31310 net.cpp:91] Creating Layer inception_3b/3x3_reduce
I0403 15:13:23.538549 31310 net.cpp:425] inception_3b/3x3_reduce <- inception_3a/output_inception_3a/output_0_split_1
I0403 15:13:23.538578 31310 net.cpp:399] inception_3b/3x3_reduce -> inception_3b/3x3_reduce
I0403 15:13:23.539783 31310 net.cpp:141] Setting up inception_3b/3x3_reduce
I0403 15:13:23.539819 31310 net.cpp:148] Top shape: 24 128 28 28 (2408448)
I0403 15:13:23.539839 31310 net.cpp:156] Memory required for data: 686408736
I0403 15:13:23.539861 31310 layer_factory.hpp:77] Creating layer inception_3b/relu_3x3_reduce
I0403 15:13:23.539888 31310 net.cpp:91] Creating Layer inception_3b/relu_3x3_reduce
I0403 15:13:23.539907 31310 net.cpp:425] inception_3b/relu_3x3_reduce <- inception_3b/3x3_reduce
I0403 15:13:23.539932 31310 net.cpp:386] inception_3b/relu_3x3_reduce -> inception_3b/3x3_reduce (in-place)
I0403 15:13:23.540120 31310 net.cpp:141] Setting up inception_3b/relu_3x3_reduce
I0403 15:13:23.540146 31310 net.cpp:148] Top shape: 24 128 28 28 (2408448)
I0403 15:13:23.540163 31310 net.cpp:156] Memory required for data: 696042528
I0403 15:13:23.540177 31310 layer_factory.hpp:77] Creating layer inception_3b/3x3
I0403 15:13:23.540204 31310 net.cpp:91] Creating Layer inception_3b/3x3
I0403 15:13:23.540221 31310 net.cpp:425] inception_3b/3x3 <- inception_3b/3x3_reduce
I0403 15:13:23.540243 31310 net.cpp:399] inception_3b/3x3 -> inception_3b/3x3
I0403 15:13:23.543313 31310 net.cpp:141] Setting up inception_3b/3x3
I0403 15:13:23.543349 31310 net.cpp:148] Top shape: 24 192 28 28 (3612672)
I0403 15:13:23.543365 31310 net.cpp:156] Memory required for data: 710493216
I0403 15:13:23.543390 31310 layer_factory.hpp:77] Creating layer inception_3b/relu_3x3
I0403 15:13:23.543409 31310 net.cpp:91] Creating Layer inception_3b/relu_3x3
I0403 15:13:23.543426 31310 net.cpp:425] inception_3b/relu_3x3 <- inception_3b/3x3
I0403 15:13:23.543449 31310 net.cpp:386] inception_3b/relu_3x3 -> inception_3b/3x3 (in-place)
I0403 15:13:23.543751 31310 net.cpp:141] Setting up inception_3b/relu_3x3
I0403 15:13:23.543781 31310 net.cpp:148] Top shape: 24 192 28 28 (3612672)
I0403 15:13:23.543798 31310 net.cpp:156] Memory required for data: 724943904
I0403 15:13:23.543814 31310 layer_factory.hpp:77] Creating layer inception_3b/5x5_reduce
I0403 15:13:23.543839 31310 net.cpp:91] Creating Layer inception_3b/5x5_reduce
I0403 15:13:23.543859 31310 net.cpp:425] inception_3b/5x5_reduce <- inception_3a/output_inception_3a/output_0_split_2
I0403 15:13:23.543879 31310 net.cpp:399] inception_3b/5x5_reduce -> inception_3b/5x5_reduce
I0403 15:13:23.544919 31310 net.cpp:141] Setting up inception_3b/5x5_reduce
I0403 15:13:23.544955 31310 net.cpp:148] Top shape: 24 32 28 28 (602112)
I0403 15:13:23.544987 31310 net.cpp:156] Memory required for data: 727352352
I0403 15:13:23.545013 31310 layer_factory.hpp:77] Creating layer inception_3b/relu_5x5_reduce
I0403 15:13:23.545037 31310 net.cpp:91] Creating Layer inception_3b/relu_5x5_reduce
I0403 15:13:23.545060 31310 net.cpp:425] inception_3b/relu_5x5_reduce <- inception_3b/5x5_reduce
I0403 15:13:23.545089 31310 net.cpp:386] inception_3b/relu_5x5_reduce -> inception_3b/5x5_reduce (in-place)
I0403 15:13:23.545295 31310 net.cpp:141] Setting up inception_3b/relu_5x5_reduce
I0403 15:13:23.545326 31310 net.cpp:148] Top shape: 24 32 28 28 (602112)
I0403 15:13:23.545344 31310 net.cpp:156] Memory required for data: 729760800
I0403 15:13:23.545366 31310 layer_factory.hpp:77] Creating layer inception_3b/5x5
I0403 15:13:23.545390 31310 net.cpp:91] Creating Layer inception_3b/5x5
I0403 15:13:23.545414 31310 net.cpp:425] inception_3b/5x5 <- inception_3b/5x5_reduce
I0403 15:13:23.545447 31310 net.cpp:399] inception_3b/5x5 -> inception_3b/5x5
I0403 15:13:23.547521 31310 net.cpp:141] Setting up inception_3b/5x5
I0403 15:13:23.547564 31310 net.cpp:148] Top shape: 24 96 28 28 (1806336)
I0403 15:13:23.547588 31310 net.cpp:156] Memory required for data: 736986144
I0403 15:13:23.547616 31310 layer_factory.hpp:77] Creating layer inception_3b/relu_5x5
I0403 15:13:23.547644 31310 net.cpp:91] Creating Layer inception_3b/relu_5x5
I0403 15:13:23.547672 31310 net.cpp:425] inception_3b/relu_5x5 <- inception_3b/5x5
I0403 15:13:23.547695 31310 net.cpp:386] inception_3b/relu_5x5 -> inception_3b/5x5 (in-place)
I0403 15:13:23.547900 31310 net.cpp:141] Setting up inception_3b/relu_5x5
I0403 15:13:23.547937 31310 net.cpp:148] Top shape: 24 96 28 28 (1806336)
I0403 15:13:23.547960 31310 net.cpp:156] Memory required for data: 744211488
I0403 15:13:23.547977 31310 layer_factory.hpp:77] Creating layer inception_3b/pool
I0403 15:13:23.548005 31310 net.cpp:91] Creating Layer inception_3b/pool
I0403 15:13:23.548028 31310 net.cpp:425] inception_3b/pool <- inception_3a/output_inception_3a/output_0_split_3
I0403 15:13:23.548054 31310 net.cpp:399] inception_3b/pool -> inception_3b/pool
I0403 15:13:23.548117 31310 net.cpp:141] Setting up inception_3b/pool
I0403 15:13:23.548148 31310 net.cpp:148] Top shape: 24 256 28 28 (4816896)
I0403 15:13:23.548172 31310 net.cpp:156] Memory required for data: 763479072
I0403 15:13:23.548197 31310 layer_factory.hpp:77] Creating layer inception_3b/pool_proj
I0403 15:13:23.548235 31310 net.cpp:91] Creating Layer inception_3b/pool_proj
I0403 15:13:23.548260 31310 net.cpp:425] inception_3b/pool_proj <- inception_3b/pool
I0403 15:13:23.548285 31310 net.cpp:399] inception_3b/pool_proj -> inception_3b/pool_proj
I0403 15:13:23.549391 31310 net.cpp:141] Setting up inception_3b/pool_proj
I0403 15:13:23.549427 31310 net.cpp:148] Top shape: 24 64 28 28 (1204224)
I0403 15:13:23.549448 31310 net.cpp:156] Memory required for data: 768295968
I0403 15:13:23.549479 31310 layer_factory.hpp:77] Creating layer inception_3b/relu_pool_proj
I0403 15:13:23.549510 31310 net.cpp:91] Creating Layer inception_3b/relu_pool_proj
I0403 15:13:23.549540 31310 net.cpp:425] inception_3b/relu_pool_proj <- inception_3b/pool_proj
I0403 15:13:23.549582 31310 net.cpp:386] inception_3b/relu_pool_proj -> inception_3b/pool_proj (in-place)
I0403 15:13:23.550022 31310 net.cpp:141] Setting up inception_3b/relu_pool_proj
I0403 15:13:23.550055 31310 net.cpp:148] Top shape: 24 64 28 28 (1204224)
I0403 15:13:23.550074 31310 net.cpp:156] Memory required for data: 773112864
I0403 15:13:23.550094 31310 layer_factory.hpp:77] Creating layer inception_3b/output
I0403 15:13:23.550118 31310 net.cpp:91] Creating Layer inception_3b/output
I0403 15:13:23.550143 31310 net.cpp:425] inception_3b/output <- inception_3b/1x1
I0403 15:13:23.550164 31310 net.cpp:425] inception_3b/output <- inception_3b/3x3
I0403 15:13:23.550189 31310 net.cpp:425] inception_3b/output <- inception_3b/5x5
I0403 15:13:23.550209 31310 net.cpp:425] inception_3b/output <- inception_3b/pool_proj
I0403 15:13:23.550237 31310 net.cpp:399] inception_3b/output -> inception_3b/output
I0403 15:13:23.550290 31310 net.cpp:141] Setting up inception_3b/output
I0403 15:13:23.550324 31310 net.cpp:148] Top shape: 24 480 28 28 (9031680)
I0403 15:13:23.550348 31310 net.cpp:156] Memory required for data: 809239584
I0403 15:13:23.550366 31310 layer_factory.hpp:77] Creating layer pool3/3x3_s2
I0403 15:13:23.550393 31310 net.cpp:91] Creating Layer pool3/3x3_s2
I0403 15:13:23.550410 31310 net.cpp:425] pool3/3x3_s2 <- inception_3b/output
I0403 15:13:23.550451 31310 net.cpp:399] pool3/3x3_s2 -> pool3/3x3_s2
I0403 15:13:23.550520 31310 net.cpp:141] Setting up pool3/3x3_s2
I0403 15:13:23.550551 31310 net.cpp:148] Top shape: 24 480 14 14 (2257920)
I0403 15:13:23.550578 31310 net.cpp:156] Memory required for data: 818271264
I0403 15:13:23.550600 31310 layer_factory.hpp:77] Creating layer pool3/3x3_s2_pool3/3x3_s2_0_split
I0403 15:13:23.550628 31310 net.cpp:91] Creating Layer pool3/3x3_s2_pool3/3x3_s2_0_split
I0403 15:13:23.550645 31310 net.cpp:425] pool3/3x3_s2_pool3/3x3_s2_0_split <- pool3/3x3_s2
I0403 15:13:23.550664 31310 net.cpp:399] pool3/3x3_s2_pool3/3x3_s2_0_split -> pool3/3x3_s2_pool3/3x3_s2_0_split_0
I0403 15:13:23.550693 31310 net.cpp:399] pool3/3x3_s2_pool3/3x3_s2_0_split -> pool3/3x3_s2_pool3/3x3_s2_0_split_1
I0403 15:13:23.550716 31310 net.cpp:399] pool3/3x3_s2_pool3/3x3_s2_0_split -> pool3/3x3_s2_pool3/3x3_s2_0_split_2
I0403 15:13:23.550742 31310 net.cpp:399] pool3/3x3_s2_pool3/3x3_s2_0_split -> pool3/3x3_s2_pool3/3x3_s2_0_split_3
I0403 15:13:23.550830 31310 net.cpp:141] Setting up pool3/3x3_s2_pool3/3x3_s2_0_split
I0403 15:13:23.550859 31310 net.cpp:148] Top shape: 24 480 14 14 (2257920)
I0403 15:13:23.550882 31310 net.cpp:148] Top shape: 24 480 14 14 (2257920)
I0403 15:13:23.550904 31310 net.cpp:148] Top shape: 24 480 14 14 (2257920)
I0403 15:13:23.550921 31310 net.cpp:148] Top shape: 24 480 14 14 (2257920)
I0403 15:13:23.550938 31310 net.cpp:156] Memory required for data: 854397984
I0403 15:13:23.550956 31310 layer_factory.hpp:77] Creating layer inception_4a/1x1
I0403 15:13:23.550981 31310 net.cpp:91] Creating Layer inception_4a/1x1
I0403 15:13:23.551007 31310 net.cpp:425] inception_4a/1x1 <- pool3/3x3_s2_pool3/3x3_s2_0_split_0
I0403 15:13:23.551035 31310 net.cpp:399] inception_4a/1x1 -> inception_4a/1x1
I0403 15:13:23.552701 31310 net.cpp:141] Setting up inception_4a/1x1
I0403 15:13:23.552734 31310 net.cpp:148] Top shape: 24 192 14 14 (903168)
I0403 15:13:23.552760 31310 net.cpp:156] Memory required for data: 858010656
I0403 15:13:23.552779 31310 layer_factory.hpp:77] Creating layer inception_4a/relu_1x1
I0403 15:13:23.552809 31310 net.cpp:91] Creating Layer inception_4a/relu_1x1
I0403 15:13:23.552832 31310 net.cpp:425] inception_4a/relu_1x1 <- inception_4a/1x1
I0403 15:13:23.552858 31310 net.cpp:386] inception_4a/relu_1x1 -> inception_4a/1x1 (in-place)
I0403 15:13:23.553048 31310 net.cpp:141] Setting up inception_4a/relu_1x1
I0403 15:13:23.553082 31310 net.cpp:148] Top shape: 24 192 14 14 (903168)
I0403 15:13:23.553102 31310 net.cpp:156] Memory required for data: 861623328
I0403 15:13:23.553119 31310 layer_factory.hpp:77] Creating layer inception_4a/3x3_reduce
I0403 15:13:23.553141 31310 net.cpp:91] Creating Layer inception_4a/3x3_reduce
I0403 15:13:23.553169 31310 net.cpp:425] inception_4a/3x3_reduce <- pool3/3x3_s2_pool3/3x3_s2_0_split_1
I0403 15:13:23.553190 31310 net.cpp:399] inception_4a/3x3_reduce -> inception_4a/3x3_reduce
I0403 15:13:23.554558 31310 net.cpp:141] Setting up inception_4a/3x3_reduce
I0403 15:13:23.554592 31310 net.cpp:148] Top shape: 24 96 14 14 (451584)
I0403 15:13:23.554616 31310 net.cpp:156] Memory required for data: 863429664
I0403 15:13:23.554646 31310 layer_factory.hpp:77] Creating layer inception_4a/relu_3x3_reduce
I0403 15:13:23.554672 31310 net.cpp:91] Creating Layer inception_4a/relu_3x3_reduce
I0403 15:13:23.554694 31310 net.cpp:425] inception_4a/relu_3x3_reduce <- inception_4a/3x3_reduce
I0403 15:13:23.554724 31310 net.cpp:386] inception_4a/relu_3x3_reduce -> inception_4a/3x3_reduce (in-place)
I0403 15:13:23.554919 31310 net.cpp:141] Setting up inception_4a/relu_3x3_reduce
I0403 15:13:23.554951 31310 net.cpp:148] Top shape: 24 96 14 14 (451584)
I0403 15:13:23.554971 31310 net.cpp:156] Memory required for data: 865236000
I0403 15:13:23.554994 31310 layer_factory.hpp:77] Creating layer inception_4a/3x3
I0403 15:13:23.555024 31310 net.cpp:91] Creating Layer inception_4a/3x3
I0403 15:13:23.555047 31310 net.cpp:425] inception_4a/3x3 <- inception_4a/3x3_reduce
I0403 15:13:23.555078 31310 net.cpp:399] inception_4a/3x3 -> inception_4a/3x3
I0403 15:13:23.557914 31310 net.cpp:141] Setting up inception_4a/3x3
I0403 15:13:23.557950 31310 net.cpp:148] Top shape: 24 208 14 14 (978432)
I0403 15:13:23.557973 31310 net.cpp:156] Memory required for data: 869149728
I0403 15:13:23.557996 31310 layer_factory.hpp:77] Creating layer inception_4a/relu_3x3
I0403 15:13:23.558024 31310 net.cpp:91] Creating Layer inception_4a/relu_3x3
I0403 15:13:23.558048 31310 net.cpp:425] inception_4a/relu_3x3 <- inception_4a/3x3
I0403 15:13:23.558068 31310 net.cpp:386] inception_4a/relu_3x3 -> inception_4a/3x3 (in-place)
I0403 15:13:23.558370 31310 net.cpp:141] Setting up inception_4a/relu_3x3
I0403 15:13:23.558403 31310 net.cpp:148] Top shape: 24 208 14 14 (978432)
I0403 15:13:23.558420 31310 net.cpp:156] Memory required for data: 873063456
I0403 15:13:23.558439 31310 layer_factory.hpp:77] Creating layer inception_4a/5x5_reduce
I0403 15:13:23.558476 31310 net.cpp:91] Creating Layer inception_4a/5x5_reduce
I0403 15:13:23.558502 31310 net.cpp:425] inception_4a/5x5_reduce <- pool3/3x3_s2_pool3/3x3_s2_0_split_2
I0403 15:13:23.558524 31310 net.cpp:399] inception_4a/5x5_reduce -> inception_4a/5x5_reduce
I0403 15:13:23.559599 31310 net.cpp:141] Setting up inception_4a/5x5_reduce
I0403 15:13:23.559636 31310 net.cpp:148] Top shape: 24 16 14 14 (75264)
I0403 15:13:23.559659 31310 net.cpp:156] Memory required for data: 873364512
I0403 15:13:23.559681 31310 layer_factory.hpp:77] Creating layer inception_4a/relu_5x5_reduce
I0403 15:13:23.559700 31310 net.cpp:91] Creating Layer inception_4a/relu_5x5_reduce
I0403 15:13:23.559726 31310 net.cpp:425] inception_4a/relu_5x5_reduce <- inception_4a/5x5_reduce
I0403 15:13:23.559752 31310 net.cpp:386] inception_4a/relu_5x5_reduce -> inception_4a/5x5_reduce (in-place)
I0403 15:13:23.559947 31310 net.cpp:141] Setting up inception_4a/relu_5x5_reduce
I0403 15:13:23.559979 31310 net.cpp:148] Top shape: 24 16 14 14 (75264)
I0403 15:13:23.560001 31310 net.cpp:156] Memory required for data: 873665568
I0403 15:13:23.560019 31310 layer_factory.hpp:77] Creating layer inception_4a/5x5
I0403 15:13:23.560050 31310 net.cpp:91] Creating Layer inception_4a/5x5
I0403 15:13:23.560073 31310 net.cpp:425] inception_4a/5x5 <- inception_4a/5x5_reduce
I0403 15:13:23.560097 31310 net.cpp:399] inception_4a/5x5 -> inception_4a/5x5
I0403 15:13:23.561244 31310 net.cpp:141] Setting up inception_4a/5x5
I0403 15:13:23.561275 31310 net.cpp:148] Top shape: 24 48 14 14 (225792)
I0403 15:13:23.561292 31310 net.cpp:156] Memory required for data: 874568736
I0403 15:13:23.561312 31310 layer_factory.hpp:77] Creating layer inception_4a/relu_5x5
I0403 15:13:23.561342 31310 net.cpp:91] Creating Layer inception_4a/relu_5x5
I0403 15:13:23.561362 31310 net.cpp:425] inception_4a/relu_5x5 <- inception_4a/5x5
I0403 15:13:23.561379 31310 net.cpp:386] inception_4a/relu_5x5 -> inception_4a/5x5 (in-place)
I0403 15:13:23.561568 31310 net.cpp:141] Setting up inception_4a/relu_5x5
I0403 15:13:23.561592 31310 net.cpp:148] Top shape: 24 48 14 14 (225792)
I0403 15:13:23.561609 31310 net.cpp:156] Memory required for data: 875471904
I0403 15:13:23.561622 31310 layer_factory.hpp:77] Creating layer inception_4a/pool
I0403 15:13:23.561643 31310 net.cpp:91] Creating Layer inception_4a/pool
I0403 15:13:23.561661 31310 net.cpp:425] inception_4a/pool <- pool3/3x3_s2_pool3/3x3_s2_0_split_3
I0403 15:13:23.561681 31310 net.cpp:399] inception_4a/pool -> inception_4a/pool
I0403 15:13:23.561746 31310 net.cpp:141] Setting up inception_4a/pool
I0403 15:13:23.561770 31310 net.cpp:148] Top shape: 24 480 14 14 (2257920)
I0403 15:13:23.561784 31310 net.cpp:156] Memory required for data: 884503584
I0403 15:13:23.561800 31310 layer_factory.hpp:77] Creating layer inception_4a/pool_proj
I0403 15:13:23.561825 31310 net.cpp:91] Creating Layer inception_4a/pool_proj
I0403 15:13:23.561843 31310 net.cpp:425] inception_4a/pool_proj <- inception_4a/pool
I0403 15:13:23.561864 31310 net.cpp:399] inception_4a/pool_proj -> inception_4a/pool_proj
I0403 15:13:23.563088 31310 net.cpp:141] Setting up inception_4a/pool_proj
I0403 15:13:23.563120 31310 net.cpp:148] Top shape: 24 64 14 14 (301056)
I0403 15:13:23.563154 31310 net.cpp:156] Memory required for data: 885707808
I0403 15:13:23.563185 31310 layer_factory.hpp:77] Creating layer inception_4a/relu_pool_proj
I0403 15:13:23.563210 31310 net.cpp:91] Creating Layer inception_4a/relu_pool_proj
I0403 15:13:23.563235 31310 net.cpp:425] inception_4a/relu_pool_proj <- inception_4a/pool_proj
I0403 15:13:23.563258 31310 net.cpp:386] inception_4a/relu_pool_proj -> inception_4a/pool_proj (in-place)
I0403 15:13:23.563558 31310 net.cpp:141] Setting up inception_4a/relu_pool_proj
I0403 15:13:23.563591 31310 net.cpp:148] Top shape: 24 64 14 14 (301056)
I0403 15:13:23.563616 31310 net.cpp:156] Memory required for data: 886912032
I0403 15:13:23.563634 31310 layer_factory.hpp:77] Creating layer inception_4a/output
I0403 15:13:23.563657 31310 net.cpp:91] Creating Layer inception_4a/output
I0403 15:13:23.563684 31310 net.cpp:425] inception_4a/output <- inception_4a/1x1
I0403 15:13:23.563704 31310 net.cpp:425] inception_4a/output <- inception_4a/3x3
I0403 15:13:23.563724 31310 net.cpp:425] inception_4a/output <- inception_4a/5x5
I0403 15:13:23.563748 31310 net.cpp:425] inception_4a/output <- inception_4a/pool_proj
I0403 15:13:23.563772 31310 net.cpp:399] inception_4a/output -> inception_4a/output
I0403 15:13:23.563823 31310 net.cpp:141] Setting up inception_4a/output
I0403 15:13:23.563856 31310 net.cpp:148] Top shape: 24 512 14 14 (2408448)
I0403 15:13:23.563874 31310 net.cpp:156] Memory required for data: 896545824
I0403 15:13:23.563894 31310 layer_factory.hpp:77] Creating layer inception_4a/output_inception_4a/output_0_split
I0403 15:13:23.563920 31310 net.cpp:91] Creating Layer inception_4a/output_inception_4a/output_0_split
I0403 15:13:23.563940 31310 net.cpp:425] inception_4a/output_inception_4a/output_0_split <- inception_4a/output
I0403 15:13:23.563966 31310 net.cpp:399] inception_4a/output_inception_4a/output_0_split -> inception_4a/output_inception_4a/output_0_split_0
I0403 15:13:23.563997 31310 net.cpp:399] inception_4a/output_inception_4a/output_0_split -> inception_4a/output_inception_4a/output_0_split_1
I0403 15:13:23.564024 31310 net.cpp:399] inception_4a/output_inception_4a/output_0_split -> inception_4a/output_inception_4a/output_0_split_2
I0403 15:13:23.564051 31310 net.cpp:399] inception_4a/output_inception_4a/output_0_split -> inception_4a/output_inception_4a/output_0_split_3
I0403 15:13:23.564071 31310 net.cpp:399] inception_4a/output_inception_4a/output_0_split -> inception_4a/output_inception_4a/output_0_split_4
I0403 15:13:23.564174 31310 net.cpp:141] Setting up inception_4a/output_inception_4a/output_0_split
I0403 15:13:23.564203 31310 net.cpp:148] Top shape: 24 512 14 14 (2408448)
I0403 15:13:23.564229 31310 net.cpp:148] Top shape: 24 512 14 14 (2408448)
I0403 15:13:23.564251 31310 net.cpp:148] Top shape: 24 512 14 14 (2408448)
I0403 15:13:23.564273 31310 net.cpp:148] Top shape: 24 512 14 14 (2408448)
I0403 15:13:23.564290 31310 net.cpp:148] Top shape: 24 512 14 14 (2408448)
I0403 15:13:23.564307 31310 net.cpp:156] Memory required for data: 944714784
I0403 15:13:23.564328 31310 layer_factory.hpp:77] Creating layer loss1/ave_pool
I0403 15:13:23.564347 31310 net.cpp:91] Creating Layer loss1/ave_pool
I0403 15:13:23.564369 31310 net.cpp:425] loss1/ave_pool <- inception_4a/output_inception_4a/output_0_split_0
I0403 15:13:23.564393 31310 net.cpp:399] loss1/ave_pool -> loss1/ave_pool
I0403 15:13:23.564632 31310 net.cpp:141] Setting up loss1/ave_pool
I0403 15:13:23.564664 31310 net.cpp:148] Top shape: 24 512 4 4 (196608)
I0403 15:13:23.564688 31310 net.cpp:156] Memory required for data: 945501216
I0403 15:13:23.564705 31310 layer_factory.hpp:77] Creating layer loss1/conv
I0403 15:13:23.564733 31310 net.cpp:91] Creating Layer loss1/conv
I0403 15:13:23.564757 31310 net.cpp:425] loss1/conv <- loss1/ave_pool
I0403 15:13:23.564782 31310 net.cpp:399] loss1/conv -> loss1/conv
I0403 15:13:23.566267 31310 net.cpp:141] Setting up loss1/conv
I0403 15:13:23.566296 31310 net.cpp:148] Top shape: 24 128 4 4 (49152)
I0403 15:13:23.566334 31310 net.cpp:156] Memory required for data: 945697824
I0403 15:13:23.566359 31310 layer_factory.hpp:77] Creating layer loss1/relu_conv
I0403 15:13:23.566385 31310 net.cpp:91] Creating Layer loss1/relu_conv
I0403 15:13:23.566407 31310 net.cpp:425] loss1/relu_conv <- loss1/conv
I0403 15:13:23.566426 31310 net.cpp:386] loss1/relu_conv -> loss1/conv (in-place)
I0403 15:13:23.566733 31310 net.cpp:141] Setting up loss1/relu_conv
I0403 15:13:23.566762 31310 net.cpp:148] Top shape: 24 128 4 4 (49152)
I0403 15:13:23.566787 31310 net.cpp:156] Memory required for data: 945894432
I0403 15:13:23.566807 31310 layer_factory.hpp:77] Creating layer loss1/fc
I0403 15:13:23.566841 31310 net.cpp:91] Creating Layer loss1/fc
I0403 15:13:23.566869 31310 net.cpp:425] loss1/fc <- loss1/conv
I0403 15:13:23.566893 31310 net.cpp:399] loss1/fc -> loss1/fc
I0403 15:13:23.585680 31310 net.cpp:141] Setting up loss1/fc
I0403 15:13:23.585716 31310 net.cpp:148] Top shape: 24 1024 (24576)
I0403 15:13:23.585733 31310 net.cpp:156] Memory required for data: 945992736
I0403 15:13:23.585754 31310 layer_factory.hpp:77] Creating layer loss1/relu_fc
I0403 15:13:23.585773 31310 net.cpp:91] Creating Layer loss1/relu_fc
I0403 15:13:23.585790 31310 net.cpp:425] loss1/relu_fc <- loss1/fc
I0403 15:13:23.585810 31310 net.cpp:386] loss1/relu_fc -> loss1/fc (in-place)
I0403 15:13:23.586009 31310 net.cpp:141] Setting up loss1/relu_fc
I0403 15:13:23.586037 31310 net.cpp:148] Top shape: 24 1024 (24576)
I0403 15:13:23.586055 31310 net.cpp:156] Memory required for data: 946091040
I0403 15:13:23.586069 31310 layer_factory.hpp:77] Creating layer loss1/drop_fc
I0403 15:13:23.586097 31310 net.cpp:91] Creating Layer loss1/drop_fc
I0403 15:13:23.586115 31310 net.cpp:425] loss1/drop_fc <- loss1/fc
I0403 15:13:23.586134 31310 net.cpp:386] loss1/drop_fc -> loss1/fc (in-place)
I0403 15:13:23.586191 31310 net.cpp:141] Setting up loss1/drop_fc
I0403 15:13:23.586215 31310 net.cpp:148] Top shape: 24 1024 (24576)
I0403 15:13:23.586230 31310 net.cpp:156] Memory required for data: 946189344
I0403 15:13:23.586246 31310 layer_factory.hpp:77] Creating layer loss1/classifier_plantvillage
I0403 15:13:23.586263 31310 net.cpp:91] Creating Layer loss1/classifier_plantvillage
I0403 15:13:23.586279 31310 net.cpp:425] loss1/classifier_plantvillage <- loss1/fc
I0403 15:13:23.586302 31310 net.cpp:399] loss1/classifier_plantvillage -> loss1/classifier_plantvillage
I0403 15:13:23.587262 31310 net.cpp:141] Setting up loss1/classifier_plantvillage
I0403 15:13:23.587292 31310 net.cpp:148] Top shape: 24 38 (912)
I0403 15:13:23.587308 31310 net.cpp:156] Memory required for data: 946192992
I0403 15:13:23.587328 31310 layer_factory.hpp:77] Creating layer loss1/classifier_plantvillage_loss1/classifier_plantvillage_0_split
I0403 15:13:23.587349 31310 net.cpp:91] Creating Layer loss1/classifier_plantvillage_loss1/classifier_plantvillage_0_split
I0403 15:13:23.587368 31310 net.cpp:425] loss1/classifier_plantvillage_loss1/classifier_plantvillage_0_split <- loss1/classifier_plantvillage
I0403 15:13:23.587386 31310 net.cpp:399] loss1/classifier_plantvillage_loss1/classifier_plantvillage_0_split -> loss1/classifier_plantvillage_loss1/classifier_plantvillage_0_split_0
I0403 15:13:23.587407 31310 net.cpp:399] loss1/classifier_plantvillage_loss1/classifier_plantvillage_0_split -> loss1/classifier_plantvillage_loss1/classifier_plantvillage_0_split_1
I0403 15:13:23.587430 31310 net.cpp:399] loss1/classifier_plantvillage_loss1/classifier_plantvillage_0_split -> loss1/classifier_plantvillage_loss1/classifier_plantvillage_0_split_2
I0403 15:13:23.587503 31310 net.cpp:141] Setting up loss1/classifier_plantvillage_loss1/classifier_plantvillage_0_split
I0403 15:13:23.587527 31310 net.cpp:148] Top shape: 24 38 (912)
I0403 15:13:23.587549 31310 net.cpp:148] Top shape: 24 38 (912)
I0403 15:13:23.587566 31310 net.cpp:148] Top shape: 24 38 (912)
I0403 15:13:23.587581 31310 net.cpp:156] Memory required for data: 946203936
I0403 15:13:23.587599 31310 layer_factory.hpp:77] Creating layer inception_4b/1x1
I0403 15:13:23.587637 31310 net.cpp:91] Creating Layer inception_4b/1x1
I0403 15:13:23.587671 31310 net.cpp:425] inception_4b/1x1 <- inception_4a/output_inception_4a/output_0_split_1
I0403 15:13:23.587693 31310 net.cpp:399] inception_4b/1x1 -> inception_4b/1x1
I0403 15:13:23.589433 31310 net.cpp:141] Setting up inception_4b/1x1
I0403 15:13:23.589467 31310 net.cpp:148] Top shape: 24 160 14 14 (752640)
I0403 15:13:23.589483 31310 net.cpp:156] Memory required for data: 949214496
I0403 15:13:23.589504 31310 layer_factory.hpp:77] Creating layer inception_4b/relu_1x1
I0403 15:13:23.589522 31310 net.cpp:91] Creating Layer inception_4b/relu_1x1
I0403 15:13:23.589545 31310 net.cpp:425] inception_4b/relu_1x1 <- inception_4b/1x1
I0403 15:13:23.589566 31310 net.cpp:386] inception_4b/relu_1x1 -> inception_4b/1x1 (in-place)
I0403 15:13:23.589756 31310 net.cpp:141] Setting up inception_4b/relu_1x1
I0403 15:13:23.589782 31310 net.cpp:148] Top shape: 24 160 14 14 (752640)
I0403 15:13:23.589798 31310 net.cpp:156] Memory required for data: 952225056
I0403 15:13:23.589814 31310 layer_factory.hpp:77] Creating layer inception_4b/3x3_reduce
I0403 15:13:23.589838 31310 net.cpp:91] Creating Layer inception_4b/3x3_reduce
I0403 15:13:23.589855 31310 net.cpp:425] inception_4b/3x3_reduce <- inception_4a/output_inception_4a/output_0_split_2
I0403 15:13:23.589877 31310 net.cpp:399] inception_4b/3x3_reduce -> inception_4b/3x3_reduce
I0403 15:13:23.591302 31310 net.cpp:141] Setting up inception_4b/3x3_reduce
I0403 15:13:23.591331 31310 net.cpp:148] Top shape: 24 112 14 14 (526848)
I0403 15:13:23.591348 31310 net.cpp:156] Memory required for data: 954332448
I0403 15:13:23.591367 31310 layer_factory.hpp:77] Creating layer inception_4b/relu_3x3_reduce
I0403 15:13:23.591385 31310 net.cpp:91] Creating Layer inception_4b/relu_3x3_reduce
I0403 15:13:23.591403 31310 net.cpp:425] inception_4b/relu_3x3_reduce <- inception_4b/3x3_reduce
I0403 15:13:23.591423 31310 net.cpp:386] inception_4b/relu_3x3_reduce -> inception_4b/3x3_reduce (in-place)
I0403 15:13:23.591728 31310 net.cpp:141] Setting up inception_4b/relu_3x3_reduce
I0403 15:13:23.591755 31310 net.cpp:148] Top shape: 24 112 14 14 (526848)
I0403 15:13:23.591771 31310 net.cpp:156] Memory required for data: 956439840
I0403 15:13:23.591786 31310 layer_factory.hpp:77] Creating layer inception_4b/3x3
I0403 15:13:23.591810 31310 net.cpp:91] Creating Layer inception_4b/3x3
I0403 15:13:23.591830 31310 net.cpp:425] inception_4b/3x3 <- inception_4b/3x3_reduce
I0403 15:13:23.591851 31310 net.cpp:399] inception_4b/3x3 -> inception_4b/3x3
I0403 15:13:23.595010 31310 net.cpp:141] Setting up inception_4b/3x3
I0403 15:13:23.595041 31310 net.cpp:148] Top shape: 24 224 14 14 (1053696)
I0403 15:13:23.595057 31310 net.cpp:156] Memory required for data: 960654624
I0403 15:13:23.595077 31310 layer_factory.hpp:77] Creating layer inception_4b/relu_3x3
I0403 15:13:23.595098 31310 net.cpp:91] Creating Layer inception_4b/relu_3x3
I0403 15:13:23.595115 31310 net.cpp:425] inception_4b/relu_3x3 <- inception_4b/3x3
I0403 15:13:23.595134 31310 net.cpp:386] inception_4b/relu_3x3 -> inception_4b/3x3 (in-place)
I0403 15:13:23.595327 31310 net.cpp:141] Setting up inception_4b/relu_3x3
I0403 15:13:23.595356 31310 net.cpp:148] Top shape: 24 224 14 14 (1053696)
I0403 15:13:23.595372 31310 net.cpp:156] Memory required for data: 964869408
I0403 15:13:23.595388 31310 layer_factory.hpp:77] Creating layer inception_4b/5x5_reduce
I0403 15:13:23.595414 31310 net.cpp:91] Creating Layer inception_4b/5x5_reduce
I0403 15:13:23.595434 31310 net.cpp:425] inception_4b/5x5_reduce <- inception_4a/output_inception_4a/output_0_split_3
I0403 15:13:23.595454 31310 net.cpp:399] inception_4b/5x5_reduce -> inception_4b/5x5_reduce
I0403 15:13:23.596611 31310 net.cpp:141] Setting up inception_4b/5x5_reduce
I0403 15:13:23.596642 31310 net.cpp:148] Top shape: 24 24 14 14 (112896)
I0403 15:13:23.596658 31310 net.cpp:156] Memory required for data: 965320992
I0403 15:13:23.596678 31310 layer_factory.hpp:77] Creating layer inception_4b/relu_5x5_reduce
I0403 15:13:23.596696 31310 net.cpp:91] Creating Layer inception_4b/relu_5x5_reduce
I0403 15:13:23.596729 31310 net.cpp:425] inception_4b/relu_5x5_reduce <- inception_4b/5x5_reduce
I0403 15:13:23.596750 31310 net.cpp:386] inception_4b/relu_5x5_reduce -> inception_4b/5x5_reduce (in-place)
I0403 15:13:23.596946 31310 net.cpp:141] Setting up inception_4b/relu_5x5_reduce
I0403 15:13:23.596973 31310 net.cpp:148] Top shape: 24 24 14 14 (112896)
I0403 15:13:23.596988 31310 net.cpp:156] Memory required for data: 965772576
I0403 15:13:23.597003 31310 layer_factory.hpp:77] Creating layer inception_4b/5x5
I0403 15:13:23.597038 31310 net.cpp:91] Creating Layer inception_4b/5x5
I0403 15:13:23.597055 31310 net.cpp:425] inception_4b/5x5 <- inception_4b/5x5_reduce
I0403 15:13:23.597077 31310 net.cpp:399] inception_4b/5x5 -> inception_4b/5x5
I0403 15:13:23.598376 31310 net.cpp:141] Setting up inception_4b/5x5
I0403 15:13:23.598407 31310 net.cpp:148] Top shape: 24 64 14 14 (301056)
I0403 15:13:23.598424 31310 net.cpp:156] Memory required for data: 966976800
I0403 15:13:23.598444 31310 layer_factory.hpp:77] Creating layer inception_4b/relu_5x5
I0403 15:13:23.598462 31310 net.cpp:91] Creating Layer inception_4b/relu_5x5
I0403 15:13:23.598479 31310 net.cpp:425] inception_4b/relu_5x5 <- inception_4b/5x5
I0403 15:13:23.598500 31310 net.cpp:386] inception_4b/relu_5x5 -> inception_4b/5x5 (in-place)
I0403 15:13:23.598808 31310 net.cpp:141] Setting up inception_4b/relu_5x5
I0403 15:13:23.598839 31310 net.cpp:148] Top shape: 24 64 14 14 (301056)
I0403 15:13:23.598856 31310 net.cpp:156] Memory required for data: 968181024
I0403 15:13:23.598872 31310 layer_factory.hpp:77] Creating layer inception_4b/pool
I0403 15:13:23.598891 31310 net.cpp:91] Creating Layer inception_4b/pool
I0403 15:13:23.598908 31310 net.cpp:425] inception_4b/pool <- inception_4a/output_inception_4a/output_0_split_4
I0403 15:13:23.598929 31310 net.cpp:399] inception_4b/pool -> inception_4b/pool
I0403 15:13:23.598997 31310 net.cpp:141] Setting up inception_4b/pool
I0403 15:13:23.599022 31310 net.cpp:148] Top shape: 24 512 14 14 (2408448)
I0403 15:13:23.599037 31310 net.cpp:156] Memory required for data: 977814816
I0403 15:13:23.599051 31310 layer_factory.hpp:77] Creating layer inception_4b/pool_proj
I0403 15:13:23.599077 31310 net.cpp:91] Creating Layer inception_4b/pool_proj
I0403 15:13:23.599095 31310 net.cpp:425] inception_4b/pool_proj <- inception_4b/pool
I0403 15:13:23.599117 31310 net.cpp:399] inception_4b/pool_proj -> inception_4b/pool_proj
I0403 15:13:23.600474 31310 net.cpp:141] Setting up inception_4b/pool_proj
I0403 15:13:23.600507 31310 net.cpp:148] Top shape: 24 64 14 14 (301056)
I0403 15:13:23.600524 31310 net.cpp:156] Memory required for data: 979019040
I0403 15:13:23.600549 31310 layer_factory.hpp:77] Creating layer inception_4b/relu_pool_proj
I0403 15:13:23.600570 31310 net.cpp:91] Creating Layer inception_4b/relu_pool_proj
I0403 15:13:23.600587 31310 net.cpp:425] inception_4b/relu_pool_proj <- inception_4b/pool_proj
I0403 15:13:23.600607 31310 net.cpp:386] inception_4b/relu_pool_proj -> inception_4b/pool_proj (in-place)
I0403 15:13:23.600798 31310 net.cpp:141] Setting up inception_4b/relu_pool_proj
I0403 15:13:23.600824 31310 net.cpp:148] Top shape: 24 64 14 14 (301056)
I0403 15:13:23.600841 31310 net.cpp:156] Memory required for data: 980223264
I0403 15:13:23.600855 31310 layer_factory.hpp:77] Creating layer inception_4b/output
I0403 15:13:23.600873 31310 net.cpp:91] Creating Layer inception_4b/output
I0403 15:13:23.600889 31310 net.cpp:425] inception_4b/output <- inception_4b/1x1
I0403 15:13:23.600908 31310 net.cpp:425] inception_4b/output <- inception_4b/3x3
I0403 15:13:23.600924 31310 net.cpp:425] inception_4b/output <- inception_4b/5x5
I0403 15:13:23.600941 31310 net.cpp:425] inception_4b/output <- inception_4b/pool_proj
I0403 15:13:23.600961 31310 net.cpp:399] inception_4b/output -> inception_4b/output
I0403 15:13:23.601011 31310 net.cpp:141] Setting up inception_4b/output
I0403 15:13:23.601037 31310 net.cpp:148] Top shape: 24 512 14 14 (2408448)
I0403 15:13:23.601052 31310 net.cpp:156] Memory required for data: 989857056
I0403 15:13:23.601083 31310 layer_factory.hpp:77] Creating layer inception_4b/output_inception_4b/output_0_split
I0403 15:13:23.601101 31310 net.cpp:91] Creating Layer inception_4b/output_inception_4b/output_0_split
I0403 15:13:23.601117 31310 net.cpp:425] inception_4b/output_inception_4b/output_0_split <- inception_4b/output
I0403 15:13:23.601136 31310 net.cpp:399] inception_4b/output_inception_4b/output_0_split -> inception_4b/output_inception_4b/output_0_split_0
I0403 15:13:23.601160 31310 net.cpp:399] inception_4b/output_inception_4b/output_0_split -> inception_4b/output_inception_4b/output_0_split_1
I0403 15:13:23.601182 31310 net.cpp:399] inception_4b/output_inception_4b/output_0_split -> inception_4b/output_inception_4b/output_0_split_2
I0403 15:13:23.601203 31310 net.cpp:399] inception_4b/output_inception_4b/output_0_split -> inception_4b/output_inception_4b/output_0_split_3
I0403 15:13:23.601294 31310 net.cpp:141] Setting up inception_4b/output_inception_4b/output_0_split
I0403 15:13:23.601318 31310 net.cpp:148] Top shape: 24 512 14 14 (2408448)
I0403 15:13:23.601335 31310 net.cpp:148] Top shape: 24 512 14 14 (2408448)
I0403 15:13:23.601356 31310 net.cpp:148] Top shape: 24 512 14 14 (2408448)
I0403 15:13:23.601372 31310 net.cpp:148] Top shape: 24 512 14 14 (2408448)
I0403 15:13:23.601387 31310 net.cpp:156] Memory required for data: 1028392224
I0403 15:13:23.601402 31310 layer_factory.hpp:77] Creating layer inception_4c/1x1
I0403 15:13:23.601426 31310 net.cpp:91] Creating Layer inception_4c/1x1
I0403 15:13:23.601445 31310 net.cpp:425] inception_4c/1x1 <- inception_4b/output_inception_4b/output_0_split_0
I0403 15:13:23.601465 31310 net.cpp:399] inception_4c/1x1 -> inception_4c/1x1
I0403 15:13:23.602994 31310 net.cpp:141] Setting up inception_4c/1x1
I0403 15:13:23.603024 31310 net.cpp:148] Top shape: 24 128 14 14 (602112)
I0403 15:13:23.603039 31310 net.cpp:156] Memory required for data: 1030800672
I0403 15:13:23.603058 31310 layer_factory.hpp:77] Creating layer inception_4c/relu_1x1
I0403 15:13:23.603080 31310 net.cpp:91] Creating Layer inception_4c/relu_1x1
I0403 15:13:23.603098 31310 net.cpp:425] inception_4c/relu_1x1 <- inception_4c/1x1
I0403 15:13:23.603122 31310 net.cpp:386] inception_4c/relu_1x1 -> inception_4c/1x1 (in-place)
I0403 15:13:23.603317 31310 net.cpp:141] Setting up inception_4c/relu_1x1
I0403 15:13:23.603344 31310 net.cpp:148] Top shape: 24 128 14 14 (602112)
I0403 15:13:23.603359 31310 net.cpp:156] Memory required for data: 1033209120
I0403 15:13:23.603375 31310 layer_factory.hpp:77] Creating layer inception_4c/3x3_reduce
I0403 15:13:23.603396 31310 net.cpp:91] Creating Layer inception_4c/3x3_reduce
I0403 15:13:23.603413 31310 net.cpp:425] inception_4c/3x3_reduce <- inception_4b/output_inception_4b/output_0_split_1
I0403 15:13:23.603437 31310 net.cpp:399] inception_4c/3x3_reduce -> inception_4c/3x3_reduce
I0403 15:13:23.605499 31310 net.cpp:141] Setting up inception_4c/3x3_reduce
I0403 15:13:23.605531 31310 net.cpp:148] Top shape: 24 128 14 14 (602112)
I0403 15:13:23.605553 31310 net.cpp:156] Memory required for data: 1035617568
I0403 15:13:23.605574 31310 layer_factory.hpp:77] Creating layer inception_4c/relu_3x3_reduce
I0403 15:13:23.605594 31310 net.cpp:91] Creating Layer inception_4c/relu_3x3_reduce
I0403 15:13:23.605612 31310 net.cpp:425] inception_4c/relu_3x3_reduce <- inception_4c/3x3_reduce
I0403 15:13:23.605629 31310 net.cpp:386] inception_4c/relu_3x3_reduce -> inception_4c/3x3_reduce (in-place)
I0403 15:13:23.605931 31310 net.cpp:141] Setting up inception_4c/relu_3x3_reduce
I0403 15:13:23.605960 31310 net.cpp:148] Top shape: 24 128 14 14 (602112)
I0403 15:13:23.605978 31310 net.cpp:156] Memory required for data: 1038026016
I0403 15:13:23.605993 31310 layer_factory.hpp:77] Creating layer inception_4c/3x3
I0403 15:13:23.606020 31310 net.cpp:91] Creating Layer inception_4c/3x3
I0403 15:13:23.606040 31310 net.cpp:425] inception_4c/3x3 <- inception_4c/3x3_reduce
I0403 15:13:23.606060 31310 net.cpp:399] inception_4c/3x3 -> inception_4c/3x3
I0403 15:13:23.609892 31310 net.cpp:141] Setting up inception_4c/3x3
I0403 15:13:23.609937 31310 net.cpp:148] Top shape: 24 256 14 14 (1204224)
I0403 15:13:23.609956 31310 net.cpp:156] Memory required for data: 1042842912
I0403 15:13:23.609989 31310 layer_factory.hpp:77] Creating layer inception_4c/relu_3x3
I0403 15:13:23.610010 31310 net.cpp:91] Creating Layer inception_4c/relu_3x3
I0403 15:13:23.610028 31310 net.cpp:425] inception_4c/relu_3x3 <- inception_4c/3x3
I0403 15:13:23.610047 31310 net.cpp:386] inception_4c/relu_3x3 -> inception_4c/3x3 (in-place)
I0403 15:13:23.610244 31310 net.cpp:141] Setting up inception_4c/relu_3x3
I0403 15:13:23.610270 31310 net.cpp:148] Top shape: 24 256 14 14 (1204224)
I0403 15:13:23.610285 31310 net.cpp:156] Memory required for data: 1047659808
I0403 15:13:23.610301 31310 layer_factory.hpp:77] Creating layer inception_4c/5x5_reduce
I0403 15:13:23.610324 31310 net.cpp:91] Creating Layer inception_4c/5x5_reduce
I0403 15:13:23.610343 31310 net.cpp:425] inception_4c/5x5_reduce <- inception_4b/output_inception_4b/output_0_split_2
I0403 15:13:23.610365 31310 net.cpp:399] inception_4c/5x5_reduce -> inception_4c/5x5_reduce
I0403 15:13:23.611523 31310 net.cpp:141] Setting up inception_4c/5x5_reduce
I0403 15:13:23.611565 31310 net.cpp:148] Top shape: 24 24 14 14 (112896)
I0403 15:13:23.611582 31310 net.cpp:156] Memory required for data: 1048111392
I0403 15:13:23.611603 31310 layer_factory.hpp:77] Creating layer inception_4c/relu_5x5_reduce
I0403 15:13:23.611621 31310 net.cpp:91] Creating Layer inception_4c/relu_5x5_reduce
I0403 15:13:23.611639 31310 net.cpp:425] inception_4c/relu_5x5_reduce <- inception_4c/5x5_reduce
I0403 15:13:23.611659 31310 net.cpp:386] inception_4c/relu_5x5_reduce -> inception_4c/5x5_reduce (in-place)
I0403 15:13:23.611860 31310 net.cpp:141] Setting up inception_4c/relu_5x5_reduce
I0403 15:13:23.611886 31310 net.cpp:148] Top shape: 24 24 14 14 (112896)
I0403 15:13:23.611901 31310 net.cpp:156] Memory required for data: 1048562976
I0403 15:13:23.611917 31310 layer_factory.hpp:77] Creating layer inception_4c/5x5
I0403 15:13:23.611940 31310 net.cpp:91] Creating Layer inception_4c/5x5
I0403 15:13:23.611958 31310 net.cpp:425] inception_4c/5x5 <- inception_4c/5x5_reduce
I0403 15:13:23.611980 31310 net.cpp:399] inception_4c/5x5 -> inception_4c/5x5
I0403 15:13:23.613296 31310 net.cpp:141] Setting up inception_4c/5x5
I0403 15:13:23.613325 31310 net.cpp:148] Top shape: 24 64 14 14 (301056)
I0403 15:13:23.613343 31310 net.cpp:156] Memory required for data: 1049767200
I0403 15:13:23.613363 31310 layer_factory.hpp:77] Creating layer inception_4c/relu_5x5
I0403 15:13:23.613381 31310 net.cpp:91] Creating Layer inception_4c/relu_5x5
I0403 15:13:23.613397 31310 net.cpp:425] inception_4c/relu_5x5 <- inception_4c/5x5
I0403 15:13:23.613418 31310 net.cpp:386] inception_4c/relu_5x5 -> inception_4c/5x5 (in-place)
I0403 15:13:23.613729 31310 net.cpp:141] Setting up inception_4c/relu_5x5
I0403 15:13:23.613756 31310 net.cpp:148] Top shape: 24 64 14 14 (301056)
I0403 15:13:23.613772 31310 net.cpp:156] Memory required for data: 1050971424
I0403 15:13:23.613788 31310 layer_factory.hpp:77] Creating layer inception_4c/pool
I0403 15:13:23.613807 31310 net.cpp:91] Creating Layer inception_4c/pool
I0403 15:13:23.613823 31310 net.cpp:425] inception_4c/pool <- inception_4b/output_inception_4b/output_0_split_3
I0403 15:13:23.613847 31310 net.cpp:399] inception_4c/pool -> inception_4c/pool
I0403 15:13:23.613916 31310 net.cpp:141] Setting up inception_4c/pool
I0403 15:13:23.613941 31310 net.cpp:148] Top shape: 24 512 14 14 (2408448)
I0403 15:13:23.613956 31310 net.cpp:156] Memory required for data: 1060605216
I0403 15:13:23.613972 31310 layer_factory.hpp:77] Creating layer inception_4c/pool_proj
I0403 15:13:23.613997 31310 net.cpp:91] Creating Layer inception_4c/pool_proj
I0403 15:13:23.614017 31310 net.cpp:425] inception_4c/pool_proj <- inception_4c/pool
I0403 15:13:23.614035 31310 net.cpp:399] inception_4c/pool_proj -> inception_4c/pool_proj
I0403 15:13:23.615340 31310 net.cpp:141] Setting up inception_4c/pool_proj
I0403 15:13:23.615372 31310 net.cpp:148] Top shape: 24 64 14 14 (301056)
I0403 15:13:23.615403 31310 net.cpp:156] Memory required for data: 1061809440
I0403 15:13:23.615423 31310 layer_factory.hpp:77] Creating layer inception_4c/relu_pool_proj
I0403 15:13:23.615442 31310 net.cpp:91] Creating Layer inception_4c/relu_pool_proj
I0403 15:13:23.615459 31310 net.cpp:425] inception_4c/relu_pool_proj <- inception_4c/pool_proj
I0403 15:13:23.615480 31310 net.cpp:386] inception_4c/relu_pool_proj -> inception_4c/pool_proj (in-place)
I0403 15:13:23.615684 31310 net.cpp:141] Setting up inception_4c/relu_pool_proj
I0403 15:13:23.615710 31310 net.cpp:148] Top shape: 24 64 14 14 (301056)
I0403 15:13:23.615726 31310 net.cpp:156] Memory required for data: 1063013664
I0403 15:13:23.615742 31310 layer_factory.hpp:77] Creating layer inception_4c/output
I0403 15:13:23.615761 31310 net.cpp:91] Creating Layer inception_4c/output
I0403 15:13:23.615775 31310 net.cpp:425] inception_4c/output <- inception_4c/1x1
I0403 15:13:23.615793 31310 net.cpp:425] inception_4c/output <- inception_4c/3x3
I0403 15:13:23.615810 31310 net.cpp:425] inception_4c/output <- inception_4c/5x5
I0403 15:13:23.615828 31310 net.cpp:425] inception_4c/output <- inception_4c/pool_proj
I0403 15:13:23.615847 31310 net.cpp:399] inception_4c/output -> inception_4c/output
I0403 15:13:23.615896 31310 net.cpp:141] Setting up inception_4c/output
I0403 15:13:23.615923 31310 net.cpp:148] Top shape: 24 512 14 14 (2408448)
I0403 15:13:23.615938 31310 net.cpp:156] Memory required for data: 1072647456
I0403 15:13:23.615954 31310 layer_factory.hpp:77] Creating layer inception_4c/output_inception_4c/output_0_split
I0403 15:13:23.615972 31310 net.cpp:91] Creating Layer inception_4c/output_inception_4c/output_0_split
I0403 15:13:23.615988 31310 net.cpp:425] inception_4c/output_inception_4c/output_0_split <- inception_4c/output
I0403 15:13:23.616006 31310 net.cpp:399] inception_4c/output_inception_4c/output_0_split -> inception_4c/output_inception_4c/output_0_split_0
I0403 15:13:23.616029 31310 net.cpp:399] inception_4c/output_inception_4c/output_0_split -> inception_4c/output_inception_4c/output_0_split_1
I0403 15:13:23.616051 31310 net.cpp:399] inception_4c/output_inception_4c/output_0_split -> inception_4c/output_inception_4c/output_0_split_2
I0403 15:13:23.616072 31310 net.cpp:399] inception_4c/output_inception_4c/output_0_split -> inception_4c/output_inception_4c/output_0_split_3
I0403 15:13:23.616165 31310 net.cpp:141] Setting up inception_4c/output_inception_4c/output_0_split
I0403 15:13:23.616189 31310 net.cpp:148] Top shape: 24 512 14 14 (2408448)
I0403 15:13:23.616205 31310 net.cpp:148] Top shape: 24 512 14 14 (2408448)
I0403 15:13:23.616220 31310 net.cpp:148] Top shape: 24 512 14 14 (2408448)
I0403 15:13:23.616236 31310 net.cpp:148] Top shape: 24 512 14 14 (2408448)
I0403 15:13:23.616250 31310 net.cpp:156] Memory required for data: 1111182624
I0403 15:13:23.616266 31310 layer_factory.hpp:77] Creating layer inception_4d/1x1
I0403 15:13:23.616291 31310 net.cpp:91] Creating Layer inception_4d/1x1
I0403 15:13:23.616308 31310 net.cpp:425] inception_4d/1x1 <- inception_4c/output_inception_4c/output_0_split_0
I0403 15:13:23.616328 31310 net.cpp:399] inception_4d/1x1 -> inception_4d/1x1
I0403 15:13:23.617877 31310 net.cpp:141] Setting up inception_4d/1x1
I0403 15:13:23.617908 31310 net.cpp:148] Top shape: 24 112 14 14 (526848)
I0403 15:13:23.617923 31310 net.cpp:156] Memory required for data: 1113290016
I0403 15:13:23.617944 31310 layer_factory.hpp:77] Creating layer inception_4d/relu_1x1
I0403 15:13:23.617964 31310 net.cpp:91] Creating Layer inception_4d/relu_1x1
I0403 15:13:23.617982 31310 net.cpp:425] inception_4d/relu_1x1 <- inception_4d/1x1
I0403 15:13:23.618001 31310 net.cpp:386] inception_4d/relu_1x1 -> inception_4d/1x1 (in-place)
I0403 15:13:23.618197 31310 net.cpp:141] Setting up inception_4d/relu_1x1
I0403 15:13:23.618226 31310 net.cpp:148] Top shape: 24 112 14 14 (526848)
I0403 15:13:23.618242 31310 net.cpp:156] Memory required for data: 1115397408
I0403 15:13:23.618257 31310 layer_factory.hpp:77] Creating layer inception_4d/3x3_reduce
I0403 15:13:23.618301 31310 net.cpp:91] Creating Layer inception_4d/3x3_reduce
I0403 15:13:23.618320 31310 net.cpp:425] inception_4d/3x3_reduce <- inception_4c/output_inception_4c/output_0_split_1
I0403 15:13:23.618341 31310 net.cpp:399] inception_4d/3x3_reduce -> inception_4d/3x3_reduce
I0403 15:13:23.619966 31310 net.cpp:141] Setting up inception_4d/3x3_reduce
I0403 15:13:23.619995 31310 net.cpp:148] Top shape: 24 144 14 14 (677376)
I0403 15:13:23.620012 31310 net.cpp:156] Memory required for data: 1118106912
I0403 15:13:23.620030 31310 layer_factory.hpp:77] Creating layer inception_4d/relu_3x3_reduce
I0403 15:13:23.620054 31310 net.cpp:91] Creating Layer inception_4d/relu_3x3_reduce
I0403 15:13:23.620074 31310 net.cpp:425] inception_4d/relu_3x3_reduce <- inception_4d/3x3_reduce
I0403 15:13:23.620092 31310 net.cpp:386] inception_4d/relu_3x3_reduce -> inception_4d/3x3_reduce (in-place)
I0403 15:13:23.620395 31310 net.cpp:141] Setting up inception_4d/relu_3x3_reduce
I0403 15:13:23.620424 31310 net.cpp:148] Top shape: 24 144 14 14 (677376)
I0403 15:13:23.620439 31310 net.cpp:156] Memory required for data: 1120816416
I0403 15:13:23.620453 31310 layer_factory.hpp:77] Creating layer inception_4d/3x3
I0403 15:13:23.620477 31310 net.cpp:91] Creating Layer inception_4d/3x3
I0403 15:13:23.620496 31310 net.cpp:425] inception_4d/3x3 <- inception_4d/3x3_reduce
I0403 15:13:23.620517 31310 net.cpp:399] inception_4d/3x3 -> inception_4d/3x3
I0403 15:13:23.625098 31310 net.cpp:141] Setting up inception_4d/3x3
I0403 15:13:23.625129 31310 net.cpp:148] Top shape: 24 288 14 14 (1354752)
I0403 15:13:23.625149 31310 net.cpp:156] Memory required for data: 1126235424
I0403 15:13:23.625169 31310 layer_factory.hpp:77] Creating layer inception_4d/relu_3x3
I0403 15:13:23.625188 31310 net.cpp:91] Creating Layer inception_4d/relu_3x3
I0403 15:13:23.625205 31310 net.cpp:425] inception_4d/relu_3x3 <- inception_4d/3x3
I0403 15:13:23.625223 31310 net.cpp:386] inception_4d/relu_3x3 -> inception_4d/3x3 (in-place)
I0403 15:13:23.625425 31310 net.cpp:141] Setting up inception_4d/relu_3x3
I0403 15:13:23.625454 31310 net.cpp:148] Top shape: 24 288 14 14 (1354752)
I0403 15:13:23.625471 31310 net.cpp:156] Memory required for data: 1131654432
I0403 15:13:23.625486 31310 layer_factory.hpp:77] Creating layer inception_4d/5x5_reduce
I0403 15:13:23.625509 31310 net.cpp:91] Creating Layer inception_4d/5x5_reduce
I0403 15:13:23.625529 31310 net.cpp:425] inception_4d/5x5_reduce <- inception_4c/output_inception_4c/output_0_split_2
I0403 15:13:23.625553 31310 net.cpp:399] inception_4d/5x5_reduce -> inception_4d/5x5_reduce
I0403 15:13:23.626775 31310 net.cpp:141] Setting up inception_4d/5x5_reduce
I0403 15:13:23.626806 31310 net.cpp:148] Top shape: 24 32 14 14 (150528)
I0403 15:13:23.626821 31310 net.cpp:156] Memory required for data: 1132256544
I0403 15:13:23.626840 31310 layer_factory.hpp:77] Creating layer inception_4d/relu_5x5_reduce
I0403 15:13:23.626862 31310 net.cpp:91] Creating Layer inception_4d/relu_5x5_reduce
I0403 15:13:23.626879 31310 net.cpp:425] inception_4d/relu_5x5_reduce <- inception_4d/5x5_reduce
I0403 15:13:23.626898 31310 net.cpp:386] inception_4d/relu_5x5_reduce -> inception_4d/5x5_reduce (in-place)
I0403 15:13:23.627097 31310 net.cpp:141] Setting up inception_4d/relu_5x5_reduce
I0403 15:13:23.627125 31310 net.cpp:148] Top shape: 24 32 14 14 (150528)
I0403 15:13:23.627141 31310 net.cpp:156] Memory required for data: 1132858656
I0403 15:13:23.627156 31310 layer_factory.hpp:77] Creating layer inception_4d/5x5
I0403 15:13:23.627179 31310 net.cpp:91] Creating Layer inception_4d/5x5
I0403 15:13:23.627198 31310 net.cpp:425] inception_4d/5x5 <- inception_4d/5x5_reduce
I0403 15:13:23.627223 31310 net.cpp:399] inception_4d/5x5 -> inception_4d/5x5
I0403 15:13:23.628800 31310 net.cpp:141] Setting up inception_4d/5x5
I0403 15:13:23.628829 31310 net.cpp:148] Top shape: 24 64 14 14 (301056)
I0403 15:13:23.628845 31310 net.cpp:156] Memory required for data: 1134062880
I0403 15:13:23.628875 31310 layer_factory.hpp:77] Creating layer inception_4d/relu_5x5
I0403 15:13:23.628908 31310 net.cpp:91] Creating Layer inception_4d/relu_5x5
I0403 15:13:23.628926 31310 net.cpp:425] inception_4d/relu_5x5 <- inception_4d/5x5
I0403 15:13:23.628947 31310 net.cpp:386] inception_4d/relu_5x5 -> inception_4d/5x5 (in-place)
I0403 15:13:23.629276 31310 net.cpp:141] Setting up inception_4d/relu_5x5
I0403 15:13:23.629302 31310 net.cpp:148] Top shape: 24 64 14 14 (301056)
I0403 15:13:23.629318 31310 net.cpp:156] Memory required for data: 1135267104
I0403 15:13:23.629333 31310 layer_factory.hpp:77] Creating layer inception_4d/pool
I0403 15:13:23.629353 31310 net.cpp:91] Creating Layer inception_4d/pool
I0403 15:13:23.629369 31310 net.cpp:425] inception_4d/pool <- inception_4c/output_inception_4c/output_0_split_3
I0403 15:13:23.629391 31310 net.cpp:399] inception_4d/pool -> inception_4d/pool
I0403 15:13:23.629467 31310 net.cpp:141] Setting up inception_4d/pool
I0403 15:13:23.629492 31310 net.cpp:148] Top shape: 24 512 14 14 (2408448)
I0403 15:13:23.629506 31310 net.cpp:156] Memory required for data: 1144900896
I0403 15:13:23.629521 31310 layer_factory.hpp:77] Creating layer inception_4d/pool_proj
I0403 15:13:23.629551 31310 net.cpp:91] Creating Layer inception_4d/pool_proj
I0403 15:13:23.629572 31310 net.cpp:425] inception_4d/pool_proj <- inception_4d/pool
I0403 15:13:23.629591 31310 net.cpp:399] inception_4d/pool_proj -> inception_4d/pool_proj
I0403 15:13:23.631458 31310 net.cpp:141] Setting up inception_4d/pool_proj
I0403 15:13:23.631489 31310 net.cpp:148] Top shape: 24 64 14 14 (301056)
I0403 15:13:23.631508 31310 net.cpp:156] Memory required for data: 1146105120
I0403 15:13:23.631530 31310 layer_factory.hpp:77] Creating layer inception_4d/relu_pool_proj
I0403 15:13:23.631553 31310 net.cpp:91] Creating Layer inception_4d/relu_pool_proj
I0403 15:13:23.631572 31310 net.cpp:425] inception_4d/relu_pool_proj <- inception_4d/pool_proj
I0403 15:13:23.631620 31310 net.cpp:386] inception_4d/relu_pool_proj -> inception_4d/pool_proj (in-place)
I0403 15:13:23.631846 31310 net.cpp:141] Setting up inception_4d/relu_pool_proj
I0403 15:13:23.631875 31310 net.cpp:148] Top shape: 24 64 14 14 (301056)
I0403 15:13:23.631891 31310 net.cpp:156] Memory required for data: 1147309344
I0403 15:13:23.631907 31310 layer_factory.hpp:77] Creating layer inception_4d/output
I0403 15:13:23.631925 31310 net.cpp:91] Creating Layer inception_4d/output
I0403 15:13:23.631942 31310 net.cpp:425] inception_4d/output <- inception_4d/1x1
I0403 15:13:23.631959 31310 net.cpp:425] inception_4d/output <- inception_4d/3x3
I0403 15:13:23.631976 31310 net.cpp:425] inception_4d/output <- inception_4d/5x5
I0403 15:13:23.632002 31310 net.cpp:425] inception_4d/output <- inception_4d/pool_proj
I0403 15:13:23.632024 31310 net.cpp:399] inception_4d/output -> inception_4d/output
I0403 15:13:23.632073 31310 net.cpp:141] Setting up inception_4d/output
I0403 15:13:23.632097 31310 net.cpp:148] Top shape: 24 528 14 14 (2483712)
I0403 15:13:23.632112 31310 net.cpp:156] Memory required for data: 1157244192
I0403 15:13:23.632128 31310 layer_factory.hpp:77] Creating layer inception_4d/output_inception_4d/output_0_split
I0403 15:13:23.632148 31310 net.cpp:91] Creating Layer inception_4d/output_inception_4d/output_0_split
I0403 15:13:23.632165 31310 net.cpp:425] inception_4d/output_inception_4d/output_0_split <- inception_4d/output
I0403 15:13:23.632184 31310 net.cpp:399] inception_4d/output_inception_4d/output_0_split -> inception_4d/output_inception_4d/output_0_split_0
I0403 15:13:23.632210 31310 net.cpp:399] inception_4d/output_inception_4d/output_0_split -> inception_4d/output_inception_4d/output_0_split_1
I0403 15:13:23.632232 31310 net.cpp:399] inception_4d/output_inception_4d/output_0_split -> inception_4d/output_inception_4d/output_0_split_2
I0403 15:13:23.632254 31310 net.cpp:399] inception_4d/output_inception_4d/output_0_split -> inception_4d/output_inception_4d/output_0_split_3
I0403 15:13:23.632274 31310 net.cpp:399] inception_4d/output_inception_4d/output_0_split -> inception_4d/output_inception_4d/output_0_split_4
I0403 15:13:23.632381 31310 net.cpp:141] Setting up inception_4d/output_inception_4d/output_0_split
I0403 15:13:23.632418 31310 net.cpp:148] Top shape: 24 528 14 14 (2483712)
I0403 15:13:23.632436 31310 net.cpp:148] Top shape: 24 528 14 14 (2483712)
I0403 15:13:23.632453 31310 net.cpp:148] Top shape: 24 528 14 14 (2483712)
I0403 15:13:23.632469 31310 net.cpp:148] Top shape: 24 528 14 14 (2483712)
I0403 15:13:23.632485 31310 net.cpp:148] Top shape: 24 528 14 14 (2483712)
I0403 15:13:23.632499 31310 net.cpp:156] Memory required for data: 1206918432
I0403 15:13:23.632514 31310 layer_factory.hpp:77] Creating layer loss2/ave_pool
I0403 15:13:23.632539 31310 net.cpp:91] Creating Layer loss2/ave_pool
I0403 15:13:23.632558 31310 net.cpp:425] loss2/ave_pool <- inception_4d/output_inception_4d/output_0_split_0
I0403 15:13:23.632580 31310 net.cpp:399] loss2/ave_pool -> loss2/ave_pool
I0403 15:13:23.633008 31310 net.cpp:141] Setting up loss2/ave_pool
I0403 15:13:23.633038 31310 net.cpp:148] Top shape: 24 528 4 4 (202752)
I0403 15:13:23.633055 31310 net.cpp:156] Memory required for data: 1207729440
I0403 15:13:23.633071 31310 layer_factory.hpp:77] Creating layer loss2/conv
I0403 15:13:23.633092 31310 net.cpp:91] Creating Layer loss2/conv
I0403 15:13:23.633111 31310 net.cpp:425] loss2/conv <- loss2/ave_pool
I0403 15:13:23.633133 31310 net.cpp:399] loss2/conv -> loss2/conv
I0403 15:13:23.635159 31310 net.cpp:141] Setting up loss2/conv
I0403 15:13:23.635190 31310 net.cpp:148] Top shape: 24 128 4 4 (49152)
I0403 15:13:23.635205 31310 net.cpp:156] Memory required for data: 1207926048
I0403 15:13:23.635224 31310 layer_factory.hpp:77] Creating layer loss2/relu_conv
I0403 15:13:23.635243 31310 net.cpp:91] Creating Layer loss2/relu_conv
I0403 15:13:23.635262 31310 net.cpp:425] loss2/relu_conv <- loss2/conv
I0403 15:13:23.635282 31310 net.cpp:386] loss2/relu_conv -> loss2/conv (in-place)
I0403 15:13:23.635599 31310 net.cpp:141] Setting up loss2/relu_conv
I0403 15:13:23.635627 31310 net.cpp:148] Top shape: 24 128 4 4 (49152)
I0403 15:13:23.635643 31310 net.cpp:156] Memory required for data: 1208122656
I0403 15:13:23.635658 31310 layer_factory.hpp:77] Creating layer loss2/fc
I0403 15:13:23.635679 31310 net.cpp:91] Creating Layer loss2/fc
I0403 15:13:23.635696 31310 net.cpp:425] loss2/fc <- loss2/conv
I0403 15:13:23.635720 31310 net.cpp:399] loss2/fc -> loss2/fc
I0403 15:13:23.654453 31310 net.cpp:141] Setting up loss2/fc
I0403 15:13:23.654486 31310 net.cpp:148] Top shape: 24 1024 (24576)
I0403 15:13:23.654502 31310 net.cpp:156] Memory required for data: 1208220960
I0403 15:13:23.654522 31310 layer_factory.hpp:77] Creating layer loss2/relu_fc
I0403 15:13:23.654554 31310 net.cpp:91] Creating Layer loss2/relu_fc
I0403 15:13:23.654577 31310 net.cpp:425] loss2/relu_fc <- loss2/fc
I0403 15:13:23.654595 31310 net.cpp:386] loss2/relu_fc -> loss2/fc (in-place)
I0403 15:13:23.654911 31310 net.cpp:141] Setting up loss2/relu_fc
I0403 15:13:23.654940 31310 net.cpp:148] Top shape: 24 1024 (24576)
I0403 15:13:23.654956 31310 net.cpp:156] Memory required for data: 1208319264
I0403 15:13:23.654983 31310 layer_factory.hpp:77] Creating layer loss2/drop_fc
I0403 15:13:23.655002 31310 net.cpp:91] Creating Layer loss2/drop_fc
I0403 15:13:23.655019 31310 net.cpp:425] loss2/drop_fc <- loss2/fc
I0403 15:13:23.655037 31310 net.cpp:386] loss2/drop_fc -> loss2/fc (in-place)
I0403 15:13:23.655091 31310 net.cpp:141] Setting up loss2/drop_fc
I0403 15:13:23.655113 31310 net.cpp:148] Top shape: 24 1024 (24576)
I0403 15:13:23.655128 31310 net.cpp:156] Memory required for data: 1208417568
I0403 15:13:23.655144 31310 layer_factory.hpp:77] Creating layer loss2/classifier_plantvillage
I0403 15:13:23.655169 31310 net.cpp:91] Creating Layer loss2/classifier_plantvillage
I0403 15:13:23.655186 31310 net.cpp:425] loss2/classifier_plantvillage <- loss2/fc
I0403 15:13:23.655205 31310 net.cpp:399] loss2/classifier_plantvillage -> loss2/classifier_plantvillage
I0403 15:13:23.655642 31310 net.cpp:141] Setting up loss2/classifier_plantvillage
I0403 15:13:23.655668 31310 net.cpp:148] Top shape: 24 38 (912)
I0403 15:13:23.655700 31310 net.cpp:156] Memory required for data: 1208421216
I0403 15:13:23.655721 31310 layer_factory.hpp:77] Creating layer loss2/classifier_plantvillage_loss2/classifier_plantvillage_0_split
I0403 15:13:23.655740 31310 net.cpp:91] Creating Layer loss2/classifier_plantvillage_loss2/classifier_plantvillage_0_split
I0403 15:13:23.655755 31310 net.cpp:425] loss2/classifier_plantvillage_loss2/classifier_plantvillage_0_split <- loss2/classifier_plantvillage
I0403 15:13:23.655776 31310 net.cpp:399] loss2/classifier_plantvillage_loss2/classifier_plantvillage_0_split -> loss2/classifier_plantvillage_loss2/classifier_plantvillage_0_split_0
I0403 15:13:23.655799 31310 net.cpp:399] loss2/classifier_plantvillage_loss2/classifier_plantvillage_0_split -> loss2/classifier_plantvillage_loss2/classifier_plantvillage_0_split_1
I0403 15:13:23.655820 31310 net.cpp:399] loss2/classifier_plantvillage_loss2/classifier_plantvillage_0_split -> loss2/classifier_plantvillage_loss2/classifier_plantvillage_0_split_2
I0403 15:13:23.655901 31310 net.cpp:141] Setting up loss2/classifier_plantvillage_loss2/classifier_plantvillage_0_split
I0403 15:13:23.655927 31310 net.cpp:148] Top shape: 24 38 (912)
I0403 15:13:23.655946 31310 net.cpp:148] Top shape: 24 38 (912)
I0403 15:13:23.655961 31310 net.cpp:148] Top shape: 24 38 (912)
I0403 15:13:23.655977 31310 net.cpp:156] Memory required for data: 1208432160
I0403 15:13:23.655992 31310 layer_factory.hpp:77] Creating layer inception_4e/1x1
I0403 15:13:23.656013 31310 net.cpp:91] Creating Layer inception_4e/1x1
I0403 15:13:23.656029 31310 net.cpp:425] inception_4e/1x1 <- inception_4d/output_inception_4d/output_0_split_1
I0403 15:13:23.656049 31310 net.cpp:399] inception_4e/1x1 -> inception_4e/1x1
I0403 15:13:23.657985 31310 net.cpp:141] Setting up inception_4e/1x1
I0403 15:13:23.658015 31310 net.cpp:148] Top shape: 24 256 14 14 (1204224)
I0403 15:13:23.658031 31310 net.cpp:156] Memory required for data: 1213249056
I0403 15:13:23.658051 31310 layer_factory.hpp:77] Creating layer inception_4e/relu_1x1
I0403 15:13:23.658071 31310 net.cpp:91] Creating Layer inception_4e/relu_1x1
I0403 15:13:23.658087 31310 net.cpp:425] inception_4e/relu_1x1 <- inception_4e/1x1
I0403 15:13:23.658107 31310 net.cpp:386] inception_4e/relu_1x1 -> inception_4e/1x1 (in-place)
I0403 15:13:23.658422 31310 net.cpp:141] Setting up inception_4e/relu_1x1
I0403 15:13:23.658450 31310 net.cpp:148] Top shape: 24 256 14 14 (1204224)
I0403 15:13:23.658465 31310 net.cpp:156] Memory required for data: 1218065952
I0403 15:13:23.658481 31310 layer_factory.hpp:77] Creating layer inception_4e/3x3_reduce
I0403 15:13:23.658504 31310 net.cpp:91] Creating Layer inception_4e/3x3_reduce
I0403 15:13:23.658524 31310 net.cpp:425] inception_4e/3x3_reduce <- inception_4d/output_inception_4d/output_0_split_2
I0403 15:13:23.658550 31310 net.cpp:399] inception_4e/3x3_reduce -> inception_4e/3x3_reduce
I0403 15:13:23.660807 31310 net.cpp:141] Setting up inception_4e/3x3_reduce
I0403 15:13:23.660840 31310 net.cpp:148] Top shape: 24 160 14 14 (752640)
I0403 15:13:23.660857 31310 net.cpp:156] Memory required for data: 1221076512
I0403 15:13:23.660877 31310 layer_factory.hpp:77] Creating layer inception_4e/relu_3x3_reduce
I0403 15:13:23.660897 31310 net.cpp:91] Creating Layer inception_4e/relu_3x3_reduce
I0403 15:13:23.660913 31310 net.cpp:425] inception_4e/relu_3x3_reduce <- inception_4e/3x3_reduce
I0403 15:13:23.660938 31310 net.cpp:386] inception_4e/relu_3x3_reduce -> inception_4e/3x3_reduce (in-place)
I0403 15:13:23.661134 31310 net.cpp:141] Setting up inception_4e/relu_3x3_reduce
I0403 15:13:23.661161 31310 net.cpp:148] Top shape: 24 160 14 14 (752640)
I0403 15:13:23.661176 31310 net.cpp:156] Memory required for data: 1224087072
I0403 15:13:23.661192 31310 layer_factory.hpp:77] Creating layer inception_4e/3x3
I0403 15:13:23.661216 31310 net.cpp:91] Creating Layer inception_4e/3x3
I0403 15:13:23.661233 31310 net.cpp:425] inception_4e/3x3 <- inception_4e/3x3_reduce
I0403 15:13:23.661257 31310 net.cpp:399] inception_4e/3x3 -> inception_4e/3x3
I0403 15:13:23.666585 31310 net.cpp:141] Setting up inception_4e/3x3
I0403 15:13:23.666630 31310 net.cpp:148] Top shape: 24 320 14 14 (1505280)
I0403 15:13:23.666647 31310 net.cpp:156] Memory required for data: 1230108192
I0403 15:13:23.666667 31310 layer_factory.hpp:77] Creating layer inception_4e/relu_3x3
I0403 15:13:23.666692 31310 net.cpp:91] Creating Layer inception_4e/relu_3x3
I0403 15:13:23.666709 31310 net.cpp:425] inception_4e/relu_3x3 <- inception_4e/3x3
I0403 15:13:23.666728 31310 net.cpp:386] inception_4e/relu_3x3 -> inception_4e/3x3 (in-place)
I0403 15:13:23.667047 31310 net.cpp:141] Setting up inception_4e/relu_3x3
I0403 15:13:23.667074 31310 net.cpp:148] Top shape: 24 320 14 14 (1505280)
I0403 15:13:23.667090 31310 net.cpp:156] Memory required for data: 1236129312
I0403 15:13:23.667106 31310 layer_factory.hpp:77] Creating layer inception_4e/5x5_reduce
I0403 15:13:23.667130 31310 net.cpp:91] Creating Layer inception_4e/5x5_reduce
I0403 15:13:23.667151 31310 net.cpp:425] inception_4e/5x5_reduce <- inception_4d/output_inception_4d/output_0_split_3
I0403 15:13:23.667171 31310 net.cpp:399] inception_4e/5x5_reduce -> inception_4e/5x5_reduce
I0403 15:13:23.668314 31310 net.cpp:141] Setting up inception_4e/5x5_reduce
I0403 15:13:23.668344 31310 net.cpp:148] Top shape: 24 32 14 14 (150528)
I0403 15:13:23.668360 31310 net.cpp:156] Memory required for data: 1236731424
I0403 15:13:23.668380 31310 layer_factory.hpp:77] Creating layer inception_4e/relu_5x5_reduce
I0403 15:13:23.668398 31310 net.cpp:91] Creating Layer inception_4e/relu_5x5_reduce
I0403 15:13:23.668416 31310 net.cpp:425] inception_4e/relu_5x5_reduce <- inception_4e/5x5_reduce
I0403 15:13:23.668436 31310 net.cpp:386] inception_4e/relu_5x5_reduce -> inception_4e/5x5_reduce (in-place)
I0403 15:13:23.668757 31310 net.cpp:141] Setting up inception_4e/relu_5x5_reduce
I0403 15:13:23.668786 31310 net.cpp:148] Top shape: 24 32 14 14 (150528)
I0403 15:13:23.668802 31310 net.cpp:156] Memory required for data: 1237333536
I0403 15:13:23.668817 31310 layer_factory.hpp:77] Creating layer inception_4e/5x5
I0403 15:13:23.668856 31310 net.cpp:91] Creating Layer inception_4e/5x5
I0403 15:13:23.668876 31310 net.cpp:425] inception_4e/5x5 <- inception_4e/5x5_reduce
I0403 15:13:23.668896 31310 net.cpp:399] inception_4e/5x5 -> inception_4e/5x5
I0403 15:13:23.670866 31310 net.cpp:141] Setting up inception_4e/5x5
I0403 15:13:23.670897 31310 net.cpp:148] Top shape: 24 128 14 14 (602112)
I0403 15:13:23.670914 31310 net.cpp:156] Memory required for data: 1239741984
I0403 15:13:23.670934 31310 layer_factory.hpp:77] Creating layer inception_4e/relu_5x5
I0403 15:13:23.670953 31310 net.cpp:91] Creating Layer inception_4e/relu_5x5
I0403 15:13:23.670971 31310 net.cpp:425] inception_4e/relu_5x5 <- inception_4e/5x5
I0403 15:13:23.670989 31310 net.cpp:386] inception_4e/relu_5x5 -> inception_4e/5x5 (in-place)
I0403 15:13:23.671205 31310 net.cpp:141] Setting up inception_4e/relu_5x5
I0403 15:13:23.671231 31310 net.cpp:148] Top shape: 24 128 14 14 (602112)
I0403 15:13:23.671247 31310 net.cpp:156] Memory required for data: 1242150432
I0403 15:13:23.671262 31310 layer_factory.hpp:77] Creating layer inception_4e/pool
I0403 15:13:23.671282 31310 net.cpp:91] Creating Layer inception_4e/pool
I0403 15:13:23.671298 31310 net.cpp:425] inception_4e/pool <- inception_4d/output_inception_4d/output_0_split_4
I0403 15:13:23.671320 31310 net.cpp:399] inception_4e/pool -> inception_4e/pool
I0403 15:13:23.671394 31310 net.cpp:141] Setting up inception_4e/pool
I0403 15:13:23.671422 31310 net.cpp:148] Top shape: 24 528 14 14 (2483712)
I0403 15:13:23.671437 31310 net.cpp:156] Memory required for data: 1252085280
I0403 15:13:23.671453 31310 layer_factory.hpp:77] Creating layer inception_4e/pool_proj
I0403 15:13:23.671476 31310 net.cpp:91] Creating Layer inception_4e/pool_proj
I0403 15:13:23.671494 31310 net.cpp:425] inception_4e/pool_proj <- inception_4e/pool
I0403 15:13:23.671514 31310 net.cpp:399] inception_4e/pool_proj -> inception_4e/pool_proj
I0403 15:13:23.673125 31310 net.cpp:141] Setting up inception_4e/pool_proj
I0403 15:13:23.673167 31310 net.cpp:148] Top shape: 24 128 14 14 (602112)
I0403 15:13:23.673185 31310 net.cpp:156] Memory required for data: 1254493728
I0403 15:13:23.673205 31310 layer_factory.hpp:77] Creating layer inception_4e/relu_pool_proj
I0403 15:13:23.673224 31310 net.cpp:91] Creating Layer inception_4e/relu_pool_proj
I0403 15:13:23.673241 31310 net.cpp:425] inception_4e/relu_pool_proj <- inception_4e/pool_proj
I0403 15:13:23.673259 31310 net.cpp:386] inception_4e/relu_pool_proj -> inception_4e/pool_proj (in-place)
I0403 15:13:23.673631 31310 net.cpp:141] Setting up inception_4e/relu_pool_proj
I0403 15:13:23.673662 31310 net.cpp:148] Top shape: 24 128 14 14 (602112)
I0403 15:13:23.673679 31310 net.cpp:156] Memory required for data: 1256902176
I0403 15:13:23.673696 31310 layer_factory.hpp:77] Creating layer inception_4e/output
I0403 15:13:23.673714 31310 net.cpp:91] Creating Layer inception_4e/output
I0403 15:13:23.673730 31310 net.cpp:425] inception_4e/output <- inception_4e/1x1
I0403 15:13:23.673748 31310 net.cpp:425] inception_4e/output <- inception_4e/3x3
I0403 15:13:23.673764 31310 net.cpp:425] inception_4e/output <- inception_4e/5x5
I0403 15:13:23.673781 31310 net.cpp:425] inception_4e/output <- inception_4e/pool_proj
I0403 15:13:23.673799 31310 net.cpp:399] inception_4e/output -> inception_4e/output
I0403 15:13:23.673853 31310 net.cpp:141] Setting up inception_4e/output
I0403 15:13:23.673878 31310 net.cpp:148] Top shape: 24 832 14 14 (3913728)
I0403 15:13:23.673893 31310 net.cpp:156] Memory required for data: 1272557088
I0403 15:13:23.673908 31310 layer_factory.hpp:77] Creating layer pool4/3x3_s2
I0403 15:13:23.673929 31310 net.cpp:91] Creating Layer pool4/3x3_s2
I0403 15:13:23.673946 31310 net.cpp:425] pool4/3x3_s2 <- inception_4e/output
I0403 15:13:23.673965 31310 net.cpp:399] pool4/3x3_s2 -> pool4/3x3_s2
I0403 15:13:23.674037 31310 net.cpp:141] Setting up pool4/3x3_s2
I0403 15:13:23.674062 31310 net.cpp:148] Top shape: 24 832 7 7 (978432)
I0403 15:13:23.674078 31310 net.cpp:156] Memory required for data: 1276470816
I0403 15:13:23.674093 31310 layer_factory.hpp:77] Creating layer pool4/3x3_s2_pool4/3x3_s2_0_split
I0403 15:13:23.674110 31310 net.cpp:91] Creating Layer pool4/3x3_s2_pool4/3x3_s2_0_split
I0403 15:13:23.674127 31310 net.cpp:425] pool4/3x3_s2_pool4/3x3_s2_0_split <- pool4/3x3_s2
I0403 15:13:23.674149 31310 net.cpp:399] pool4/3x3_s2_pool4/3x3_s2_0_split -> pool4/3x3_s2_pool4/3x3_s2_0_split_0
I0403 15:13:23.674170 31310 net.cpp:399] pool4/3x3_s2_pool4/3x3_s2_0_split -> pool4/3x3_s2_pool4/3x3_s2_0_split_1
I0403 15:13:23.674191 31310 net.cpp:399] pool4/3x3_s2_pool4/3x3_s2_0_split -> pool4/3x3_s2_pool4/3x3_s2_0_split_2
I0403 15:13:23.674212 31310 net.cpp:399] pool4/3x3_s2_pool4/3x3_s2_0_split -> pool4/3x3_s2_pool4/3x3_s2_0_split_3
I0403 15:13:23.674310 31310 net.cpp:141] Setting up pool4/3x3_s2_pool4/3x3_s2_0_split
I0403 15:13:23.674337 31310 net.cpp:148] Top shape: 24 832 7 7 (978432)
I0403 15:13:23.674356 31310 net.cpp:148] Top shape: 24 832 7 7 (978432)
I0403 15:13:23.674372 31310 net.cpp:148] Top shape: 24 832 7 7 (978432)
I0403 15:13:23.674388 31310 net.cpp:148] Top shape: 24 832 7 7 (978432)
I0403 15:13:23.674401 31310 net.cpp:156] Memory required for data: 1292125728
I0403 15:13:23.674417 31310 layer_factory.hpp:77] Creating layer inception_5a/1x1
I0403 15:13:23.674440 31310 net.cpp:91] Creating Layer inception_5a/1x1
I0403 15:13:23.674458 31310 net.cpp:425] inception_5a/1x1 <- pool4/3x3_s2_pool4/3x3_s2_0_split_0
I0403 15:13:23.674479 31310 net.cpp:399] inception_5a/1x1 -> inception_5a/1x1
I0403 15:13:23.677541 31310 net.cpp:141] Setting up inception_5a/1x1
I0403 15:13:23.677575 31310 net.cpp:148] Top shape: 24 256 7 7 (301056)
I0403 15:13:23.677594 31310 net.cpp:156] Memory required for data: 1293329952
I0403 15:13:23.677613 31310 layer_factory.hpp:77] Creating layer inception_5a/relu_1x1
I0403 15:13:23.677633 31310 net.cpp:91] Creating Layer inception_5a/relu_1x1
I0403 15:13:23.677649 31310 net.cpp:425] inception_5a/relu_1x1 <- inception_5a/1x1
I0403 15:13:23.677670 31310 net.cpp:386] inception_5a/relu_1x1 -> inception_5a/1x1 (in-place)
I0403 15:13:23.678009 31310 net.cpp:141] Setting up inception_5a/relu_1x1
I0403 15:13:23.678040 31310 net.cpp:148] Top shape: 24 256 7 7 (301056)
I0403 15:13:23.678056 31310 net.cpp:156] Memory required for data: 1294534176
I0403 15:13:23.678072 31310 layer_factory.hpp:77] Creating layer inception_5a/3x3_reduce
I0403 15:13:23.678095 31310 net.cpp:91] Creating Layer inception_5a/3x3_reduce
I0403 15:13:23.678113 31310 net.cpp:425] inception_5a/3x3_reduce <- pool4/3x3_s2_pool4/3x3_s2_0_split_1
I0403 15:13:23.678134 31310 net.cpp:399] inception_5a/3x3_reduce -> inception_5a/3x3_reduce
I0403 15:13:23.680757 31310 net.cpp:141] Setting up inception_5a/3x3_reduce
I0403 15:13:23.680786 31310 net.cpp:148] Top shape: 24 160 7 7 (188160)
I0403 15:13:23.680804 31310 net.cpp:156] Memory required for data: 1295286816
I0403 15:13:23.680822 31310 layer_factory.hpp:77] Creating layer inception_5a/relu_3x3_reduce
I0403 15:13:23.680843 31310 net.cpp:91] Creating Layer inception_5a/relu_3x3_reduce
I0403 15:13:23.680861 31310 net.cpp:425] inception_5a/relu_3x3_reduce <- inception_5a/3x3_reduce
I0403 15:13:23.680881 31310 net.cpp:386] inception_5a/relu_3x3_reduce -> inception_5a/3x3_reduce (in-place)
I0403 15:13:23.681080 31310 net.cpp:141] Setting up inception_5a/relu_3x3_reduce
I0403 15:13:23.681108 31310 net.cpp:148] Top shape: 24 160 7 7 (188160)
I0403 15:13:23.681124 31310 net.cpp:156] Memory required for data: 1296039456
I0403 15:13:23.681140 31310 layer_factory.hpp:77] Creating layer inception_5a/3x3
I0403 15:13:23.681165 31310 net.cpp:91] Creating Layer inception_5a/3x3
I0403 15:13:23.681185 31310 net.cpp:425] inception_5a/3x3 <- inception_5a/3x3_reduce
I0403 15:13:23.681203 31310 net.cpp:399] inception_5a/3x3 -> inception_5a/3x3
I0403 15:13:23.686565 31310 net.cpp:141] Setting up inception_5a/3x3
I0403 15:13:23.686600 31310 net.cpp:148] Top shape: 24 320 7 7 (376320)
I0403 15:13:23.686619 31310 net.cpp:156] Memory required for data: 1297544736
I0403 15:13:23.686637 31310 layer_factory.hpp:77] Creating layer inception_5a/relu_3x3
I0403 15:13:23.686656 31310 net.cpp:91] Creating Layer inception_5a/relu_3x3
I0403 15:13:23.686674 31310 net.cpp:425] inception_5a/relu_3x3 <- inception_5a/3x3
I0403 15:13:23.686692 31310 net.cpp:386] inception_5a/relu_3x3 -> inception_5a/3x3 (in-place)
I0403 15:13:23.687065 31310 net.cpp:141] Setting up inception_5a/relu_3x3
I0403 15:13:23.687095 31310 net.cpp:148] Top shape: 24 320 7 7 (376320)
I0403 15:13:23.687113 31310 net.cpp:156] Memory required for data: 1299050016
I0403 15:13:23.687129 31310 layer_factory.hpp:77] Creating layer inception_5a/5x5_reduce
I0403 15:13:23.687151 31310 net.cpp:91] Creating Layer inception_5a/5x5_reduce
I0403 15:13:23.687170 31310 net.cpp:425] inception_5a/5x5_reduce <- pool4/3x3_s2_pool4/3x3_s2_0_split_2
I0403 15:13:23.687191 31310 net.cpp:399] inception_5a/5x5_reduce -> inception_5a/5x5_reduce
I0403 15:13:23.688442 31310 net.cpp:141] Setting up inception_5a/5x5_reduce
I0403 15:13:23.688474 31310 net.cpp:148] Top shape: 24 32 7 7 (37632)
I0403 15:13:23.688493 31310 net.cpp:156] Memory required for data: 1299200544
I0403 15:13:23.688513 31310 layer_factory.hpp:77] Creating layer inception_5a/relu_5x5_reduce
I0403 15:13:23.688531 31310 net.cpp:91] Creating Layer inception_5a/relu_5x5_reduce
I0403 15:13:23.688554 31310 net.cpp:425] inception_5a/relu_5x5_reduce <- inception_5a/5x5_reduce
I0403 15:13:23.688576 31310 net.cpp:386] inception_5a/relu_5x5_reduce -> inception_5a/5x5_reduce (in-place)
I0403 15:13:23.688897 31310 net.cpp:141] Setting up inception_5a/relu_5x5_reduce
I0403 15:13:23.688925 31310 net.cpp:148] Top shape: 24 32 7 7 (37632)
I0403 15:13:23.688941 31310 net.cpp:156] Memory required for data: 1299351072
I0403 15:13:23.688957 31310 layer_factory.hpp:77] Creating layer inception_5a/5x5
I0403 15:13:23.688980 31310 net.cpp:91] Creating Layer inception_5a/5x5
I0403 15:13:23.688999 31310 net.cpp:425] inception_5a/5x5 <- inception_5a/5x5_reduce
I0403 15:13:23.689020 31310 net.cpp:399] inception_5a/5x5 -> inception_5a/5x5
I0403 15:13:23.690865 31310 net.cpp:141] Setting up inception_5a/5x5
I0403 15:13:23.690912 31310 net.cpp:148] Top shape: 24 128 7 7 (150528)
I0403 15:13:23.690930 31310 net.cpp:156] Memory required for data: 1299953184
I0403 15:13:23.690949 31310 layer_factory.hpp:77] Creating layer inception_5a/relu_5x5
I0403 15:13:23.690968 31310 net.cpp:91] Creating Layer inception_5a/relu_5x5
I0403 15:13:23.690985 31310 net.cpp:425] inception_5a/relu_5x5 <- inception_5a/5x5
I0403 15:13:23.691004 31310 net.cpp:386] inception_5a/relu_5x5 -> inception_5a/5x5 (in-place)
I0403 15:13:23.691210 31310 net.cpp:141] Setting up inception_5a/relu_5x5
I0403 15:13:23.691236 31310 net.cpp:148] Top shape: 24 128 7 7 (150528)
I0403 15:13:23.691251 31310 net.cpp:156] Memory required for data: 1300555296
I0403 15:13:23.691267 31310 layer_factory.hpp:77] Creating layer inception_5a/pool
I0403 15:13:23.691284 31310 net.cpp:91] Creating Layer inception_5a/pool
I0403 15:13:23.691301 31310 net.cpp:425] inception_5a/pool <- pool4/3x3_s2_pool4/3x3_s2_0_split_3
I0403 15:13:23.691323 31310 net.cpp:399] inception_5a/pool -> inception_5a/pool
I0403 15:13:23.691398 31310 net.cpp:141] Setting up inception_5a/pool
I0403 15:13:23.691424 31310 net.cpp:148] Top shape: 24 832 7 7 (978432)
I0403 15:13:23.691440 31310 net.cpp:156] Memory required for data: 1304469024
I0403 15:13:23.691455 31310 layer_factory.hpp:77] Creating layer inception_5a/pool_proj
I0403 15:13:23.691478 31310 net.cpp:91] Creating Layer inception_5a/pool_proj
I0403 15:13:23.691496 31310 net.cpp:425] inception_5a/pool_proj <- inception_5a/pool
I0403 15:13:23.691516 31310 net.cpp:399] inception_5a/pool_proj -> inception_5a/pool_proj
I0403 15:13:23.693963 31310 net.cpp:141] Setting up inception_5a/pool_proj
I0403 15:13:23.693994 31310 net.cpp:148] Top shape: 24 128 7 7 (150528)
I0403 15:13:23.694010 31310 net.cpp:156] Memory required for data: 1305071136
I0403 15:13:23.694030 31310 layer_factory.hpp:77] Creating layer inception_5a/relu_pool_proj
I0403 15:13:23.694051 31310 net.cpp:91] Creating Layer inception_5a/relu_pool_proj
I0403 15:13:23.694069 31310 net.cpp:425] inception_5a/relu_pool_proj <- inception_5a/pool_proj
I0403 15:13:23.694088 31310 net.cpp:386] inception_5a/relu_pool_proj -> inception_5a/pool_proj (in-place)
I0403 15:13:23.694435 31310 net.cpp:141] Setting up inception_5a/relu_pool_proj
I0403 15:13:23.694463 31310 net.cpp:148] Top shape: 24 128 7 7 (150528)
I0403 15:13:23.694479 31310 net.cpp:156] Memory required for data: 1305673248
I0403 15:13:23.694495 31310 layer_factory.hpp:77] Creating layer inception_5a/output
I0403 15:13:23.694516 31310 net.cpp:91] Creating Layer inception_5a/output
I0403 15:13:23.694543 31310 net.cpp:425] inception_5a/output <- inception_5a/1x1
I0403 15:13:23.694566 31310 net.cpp:425] inception_5a/output <- inception_5a/3x3
I0403 15:13:23.694583 31310 net.cpp:425] inception_5a/output <- inception_5a/5x5
I0403 15:13:23.694599 31310 net.cpp:425] inception_5a/output <- inception_5a/pool_proj
I0403 15:13:23.694617 31310 net.cpp:399] inception_5a/output -> inception_5a/output
I0403 15:13:23.694674 31310 net.cpp:141] Setting up inception_5a/output
I0403 15:13:23.694697 31310 net.cpp:148] Top shape: 24 832 7 7 (978432)
I0403 15:13:23.694713 31310 net.cpp:156] Memory required for data: 1309586976
I0403 15:13:23.694727 31310 layer_factory.hpp:77] Creating layer inception_5a/output_inception_5a/output_0_split
I0403 15:13:23.694746 31310 net.cpp:91] Creating Layer inception_5a/output_inception_5a/output_0_split
I0403 15:13:23.694762 31310 net.cpp:425] inception_5a/output_inception_5a/output_0_split <- inception_5a/output
I0403 15:13:23.694783 31310 net.cpp:399] inception_5a/output_inception_5a/output_0_split -> inception_5a/output_inception_5a/output_0_split_0
I0403 15:13:23.694807 31310 net.cpp:399] inception_5a/output_inception_5a/output_0_split -> inception_5a/output_inception_5a/output_0_split_1
I0403 15:13:23.694828 31310 net.cpp:399] inception_5a/output_inception_5a/output_0_split -> inception_5a/output_inception_5a/output_0_split_2
I0403 15:13:23.694847 31310 net.cpp:399] inception_5a/output_inception_5a/output_0_split -> inception_5a/output_inception_5a/output_0_split_3
I0403 15:13:23.694967 31310 net.cpp:141] Setting up inception_5a/output_inception_5a/output_0_split
I0403 15:13:23.694993 31310 net.cpp:148] Top shape: 24 832 7 7 (978432)
I0403 15:13:23.695008 31310 net.cpp:148] Top shape: 24 832 7 7 (978432)
I0403 15:13:23.695025 31310 net.cpp:148] Top shape: 24 832 7 7 (978432)
I0403 15:13:23.695041 31310 net.cpp:148] Top shape: 24 832 7 7 (978432)
I0403 15:13:23.695055 31310 net.cpp:156] Memory required for data: 1325241888
I0403 15:13:23.695070 31310 layer_factory.hpp:77] Creating layer inception_5b/1x1
I0403 15:13:23.695093 31310 net.cpp:91] Creating Layer inception_5b/1x1
I0403 15:13:23.695111 31310 net.cpp:425] inception_5b/1x1 <- inception_5a/output_inception_5a/output_0_split_0
I0403 15:13:23.695133 31310 net.cpp:399] inception_5b/1x1 -> inception_5b/1x1
I0403 15:13:23.699158 31310 net.cpp:141] Setting up inception_5b/1x1
I0403 15:13:23.699190 31310 net.cpp:148] Top shape: 24 384 7 7 (451584)
I0403 15:13:23.699206 31310 net.cpp:156] Memory required for data: 1327048224
I0403 15:13:23.699226 31310 layer_factory.hpp:77] Creating layer inception_5b/relu_1x1
I0403 15:13:23.699247 31310 net.cpp:91] Creating Layer inception_5b/relu_1x1
I0403 15:13:23.699265 31310 net.cpp:425] inception_5b/relu_1x1 <- inception_5b/1x1
I0403 15:13:23.699285 31310 net.cpp:386] inception_5b/relu_1x1 -> inception_5b/1x1 (in-place)
I0403 15:13:23.699612 31310 net.cpp:141] Setting up inception_5b/relu_1x1
I0403 15:13:23.699640 31310 net.cpp:148] Top shape: 24 384 7 7 (451584)
I0403 15:13:23.699654 31310 net.cpp:156] Memory required for data: 1328854560
I0403 15:13:23.699671 31310 layer_factory.hpp:77] Creating layer inception_5b/3x3_reduce
I0403 15:13:23.699693 31310 net.cpp:91] Creating Layer inception_5b/3x3_reduce
I0403 15:13:23.699712 31310 net.cpp:425] inception_5b/3x3_reduce <- inception_5a/output_inception_5a/output_0_split_1
I0403 15:13:23.699734 31310 net.cpp:399] inception_5b/3x3_reduce -> inception_5b/3x3_reduce
I0403 15:13:23.702600 31310 net.cpp:141] Setting up inception_5b/3x3_reduce
I0403 15:13:23.702631 31310 net.cpp:148] Top shape: 24 192 7 7 (225792)
I0403 15:13:23.702648 31310 net.cpp:156] Memory required for data: 1329757728
I0403 15:13:23.702667 31310 layer_factory.hpp:77] Creating layer inception_5b/relu_3x3_reduce
I0403 15:13:23.702690 31310 net.cpp:91] Creating Layer inception_5b/relu_3x3_reduce
I0403 15:13:23.702709 31310 net.cpp:425] inception_5b/relu_3x3_reduce <- inception_5b/3x3_reduce
I0403 15:13:23.702728 31310 net.cpp:386] inception_5b/relu_3x3_reduce -> inception_5b/3x3_reduce (in-place)
I0403 15:13:23.702967 31310 net.cpp:141] Setting up inception_5b/relu_3x3_reduce
I0403 15:13:23.702996 31310 net.cpp:148] Top shape: 24 192 7 7 (225792)
I0403 15:13:23.703012 31310 net.cpp:156] Memory required for data: 1330660896
I0403 15:13:23.703027 31310 layer_factory.hpp:77] Creating layer inception_5b/3x3
I0403 15:13:23.703050 31310 net.cpp:91] Creating Layer inception_5b/3x3
I0403 15:13:23.703069 31310 net.cpp:425] inception_5b/3x3 <- inception_5b/3x3_reduce
I0403 15:13:23.703094 31310 net.cpp:399] inception_5b/3x3 -> inception_5b/3x3
I0403 15:13:23.710249 31310 net.cpp:141] Setting up inception_5b/3x3
I0403 15:13:23.710281 31310 net.cpp:148] Top shape: 24 384 7 7 (451584)
I0403 15:13:23.710299 31310 net.cpp:156] Memory required for data: 1332467232
I0403 15:13:23.710317 31310 layer_factory.hpp:77] Creating layer inception_5b/relu_3x3
I0403 15:13:23.710340 31310 net.cpp:91] Creating Layer inception_5b/relu_3x3
I0403 15:13:23.710360 31310 net.cpp:425] inception_5b/relu_3x3 <- inception_5b/3x3
I0403 15:13:23.710379 31310 net.cpp:386] inception_5b/relu_3x3 -> inception_5b/3x3 (in-place)
I0403 15:13:23.710705 31310 net.cpp:141] Setting up inception_5b/relu_3x3
I0403 15:13:23.710732 31310 net.cpp:148] Top shape: 24 384 7 7 (451584)
I0403 15:13:23.710748 31310 net.cpp:156] Memory required for data: 1334273568
I0403 15:13:23.710764 31310 layer_factory.hpp:77] Creating layer inception_5b/5x5_reduce
I0403 15:13:23.710808 31310 net.cpp:91] Creating Layer inception_5b/5x5_reduce
I0403 15:13:23.710827 31310 net.cpp:425] inception_5b/5x5_reduce <- inception_5a/output_inception_5a/output_0_split_2
I0403 15:13:23.710850 31310 net.cpp:399] inception_5b/5x5_reduce -> inception_5b/5x5_reduce
I0403 15:13:23.712224 31310 net.cpp:141] Setting up inception_5b/5x5_reduce
I0403 15:13:23.712255 31310 net.cpp:148] Top shape: 24 48 7 7 (56448)
I0403 15:13:23.712273 31310 net.cpp:156] Memory required for data: 1334499360
I0403 15:13:23.712292 31310 layer_factory.hpp:77] Creating layer inception_5b/relu_5x5_reduce
I0403 15:13:23.712311 31310 net.cpp:91] Creating Layer inception_5b/relu_5x5_reduce
I0403 15:13:23.712328 31310 net.cpp:425] inception_5b/relu_5x5_reduce <- inception_5b/5x5_reduce
I0403 15:13:23.712347 31310 net.cpp:386] inception_5b/relu_5x5_reduce -> inception_5b/5x5_reduce (in-place)
I0403 15:13:23.712749 31310 net.cpp:141] Setting up inception_5b/relu_5x5_reduce
I0403 15:13:23.712777 31310 net.cpp:148] Top shape: 24 48 7 7 (56448)
I0403 15:13:23.712795 31310 net.cpp:156] Memory required for data: 1334725152
I0403 15:13:23.712810 31310 layer_factory.hpp:77] Creating layer inception_5b/5x5
I0403 15:13:23.712831 31310 net.cpp:91] Creating Layer inception_5b/5x5
I0403 15:13:23.712849 31310 net.cpp:425] inception_5b/5x5 <- inception_5b/5x5_reduce
I0403 15:13:23.712869 31310 net.cpp:399] inception_5b/5x5 -> inception_5b/5x5
I0403 15:13:23.715081 31310 net.cpp:141] Setting up inception_5b/5x5
I0403 15:13:23.715114 31310 net.cpp:148] Top shape: 24 128 7 7 (150528)
I0403 15:13:23.715132 31310 net.cpp:156] Memory required for data: 1335327264
I0403 15:13:23.715152 31310 layer_factory.hpp:77] Creating layer inception_5b/relu_5x5
I0403 15:13:23.715172 31310 net.cpp:91] Creating Layer inception_5b/relu_5x5
I0403 15:13:23.715188 31310 net.cpp:425] inception_5b/relu_5x5 <- inception_5b/5x5
I0403 15:13:23.715209 31310 net.cpp:386] inception_5b/relu_5x5 -> inception_5b/5x5 (in-place)
I0403 15:13:23.715416 31310 net.cpp:141] Setting up inception_5b/relu_5x5
I0403 15:13:23.715442 31310 net.cpp:148] Top shape: 24 128 7 7 (150528)
I0403 15:13:23.715458 31310 net.cpp:156] Memory required for data: 1335929376
I0403 15:13:23.715473 31310 layer_factory.hpp:77] Creating layer inception_5b/pool
I0403 15:13:23.715492 31310 net.cpp:91] Creating Layer inception_5b/pool
I0403 15:13:23.715509 31310 net.cpp:425] inception_5b/pool <- inception_5a/output_inception_5a/output_0_split_3
I0403 15:13:23.715531 31310 net.cpp:399] inception_5b/pool -> inception_5b/pool
I0403 15:13:23.715615 31310 net.cpp:141] Setting up inception_5b/pool
I0403 15:13:23.715641 31310 net.cpp:148] Top shape: 24 832 7 7 (978432)
I0403 15:13:23.715656 31310 net.cpp:156] Memory required for data: 1339843104
I0403 15:13:23.715670 31310 layer_factory.hpp:77] Creating layer inception_5b/pool_proj
I0403 15:13:23.715695 31310 net.cpp:91] Creating Layer inception_5b/pool_proj
I0403 15:13:23.715713 31310 net.cpp:425] inception_5b/pool_proj <- inception_5b/pool
I0403 15:13:23.715734 31310 net.cpp:399] inception_5b/pool_proj -> inception_5b/pool_proj
I0403 15:13:23.718194 31310 net.cpp:141] Setting up inception_5b/pool_proj
I0403 15:13:23.718228 31310 net.cpp:148] Top shape: 24 128 7 7 (150528)
I0403 15:13:23.718245 31310 net.cpp:156] Memory required for data: 1340445216
I0403 15:13:23.718266 31310 layer_factory.hpp:77] Creating layer inception_5b/relu_pool_proj
I0403 15:13:23.718283 31310 net.cpp:91] Creating Layer inception_5b/relu_pool_proj
I0403 15:13:23.718302 31310 net.cpp:425] inception_5b/relu_pool_proj <- inception_5b/pool_proj
I0403 15:13:23.718319 31310 net.cpp:386] inception_5b/relu_pool_proj -> inception_5b/pool_proj (in-place)
I0403 15:13:23.718644 31310 net.cpp:141] Setting up inception_5b/relu_pool_proj
I0403 15:13:23.718675 31310 net.cpp:148] Top shape: 24 128 7 7 (150528)
I0403 15:13:23.718693 31310 net.cpp:156] Memory required for data: 1341047328
I0403 15:13:23.718708 31310 layer_factory.hpp:77] Creating layer inception_5b/output
I0403 15:13:23.718726 31310 net.cpp:91] Creating Layer inception_5b/output
I0403 15:13:23.718758 31310 net.cpp:425] inception_5b/output <- inception_5b/1x1
I0403 15:13:23.718777 31310 net.cpp:425] inception_5b/output <- inception_5b/3x3
I0403 15:13:23.718796 31310 net.cpp:425] inception_5b/output <- inception_5b/5x5
I0403 15:13:23.718813 31310 net.cpp:425] inception_5b/output <- inception_5b/pool_proj
I0403 15:13:23.718832 31310 net.cpp:399] inception_5b/output -> inception_5b/output
I0403 15:13:23.718888 31310 net.cpp:141] Setting up inception_5b/output
I0403 15:13:23.718912 31310 net.cpp:148] Top shape: 24 1024 7 7 (1204224)
I0403 15:13:23.718929 31310 net.cpp:156] Memory required for data: 1345864224
I0403 15:13:23.718943 31310 layer_factory.hpp:77] Creating layer pool5/7x7_s1
I0403 15:13:23.718964 31310 net.cpp:91] Creating Layer pool5/7x7_s1
I0403 15:13:23.718982 31310 net.cpp:425] pool5/7x7_s1 <- inception_5b/output
I0403 15:13:23.719000 31310 net.cpp:399] pool5/7x7_s1 -> pool5/7x7_s1
I0403 15:13:23.719231 31310 net.cpp:141] Setting up pool5/7x7_s1
I0403 15:13:23.719267 31310 net.cpp:148] Top shape: 24 1024 1 1 (24576)
I0403 15:13:23.719285 31310 net.cpp:156] Memory required for data: 1345962528
I0403 15:13:23.719300 31310 layer_factory.hpp:77] Creating layer pool5/drop_7x7_s1
I0403 15:13:23.719318 31310 net.cpp:91] Creating Layer pool5/drop_7x7_s1
I0403 15:13:23.719334 31310 net.cpp:425] pool5/drop_7x7_s1 <- pool5/7x7_s1
I0403 15:13:23.719352 31310 net.cpp:386] pool5/drop_7x7_s1 -> pool5/7x7_s1 (in-place)
I0403 15:13:23.719408 31310 net.cpp:141] Setting up pool5/drop_7x7_s1
I0403 15:13:23.719431 31310 net.cpp:148] Top shape: 24 1024 1 1 (24576)
I0403 15:13:23.719446 31310 net.cpp:156] Memory required for data: 1346060832
I0403 15:13:23.719462 31310 layer_factory.hpp:77] Creating layer loss3/classifier_plantvillage
I0403 15:13:23.719485 31310 net.cpp:91] Creating Layer loss3/classifier_plantvillage
I0403 15:13:23.719503 31310 net.cpp:425] loss3/classifier_plantvillage <- pool5/7x7_s1
I0403 15:13:23.719522 31310 net.cpp:399] loss3/classifier_plantvillage -> loss3/classifier_plantvillage
I0403 15:13:23.719988 31310 net.cpp:141] Setting up loss3/classifier_plantvillage
I0403 15:13:23.720016 31310 net.cpp:148] Top shape: 24 38 (912)
I0403 15:13:23.720068 31310 net.cpp:156] Memory required for data: 1346064480
I0403 15:13:23.720115 31310 layer_factory.hpp:77] Creating layer loss3/classifier_plantvillage_loss3/classifier_plantvillage_0_split
I0403 15:13:23.720162 31310 net.cpp:91] Creating Layer loss3/classifier_plantvillage_loss3/classifier_plantvillage_0_split
I0403 15:13:23.720204 31310 net.cpp:425] loss3/classifier_plantvillage_loss3/classifier_plantvillage_0_split <- loss3/classifier_plantvillage
I0403 15:13:23.720255 31310 net.cpp:399] loss3/classifier_plantvillage_loss3/classifier_plantvillage_0_split -> loss3/classifier_plantvillage_loss3/classifier_plantvillage_0_split_0
I0403 15:13:23.720290 31310 net.cpp:399] loss3/classifier_plantvillage_loss3/classifier_plantvillage_0_split -> loss3/classifier_plantvillage_loss3/classifier_plantvillage_0_split_1
I0403 15:13:23.720321 31310 net.cpp:399] loss3/classifier_plantvillage_loss3/classifier_plantvillage_0_split -> loss3/classifier_plantvillage_loss3/classifier_plantvillage_0_split_2
I0403 15:13:23.720366 31310 net.cpp:399] loss3/classifier_plantvillage_loss3/classifier_plantvillage_0_split -> loss3/classifier_plantvillage_loss3/classifier_plantvillage_0_split_3
I0403 15:13:23.720479 31310 net.cpp:141] Setting up loss3/classifier_plantvillage_loss3/classifier_plantvillage_0_split
I0403 15:13:23.720504 31310 net.cpp:148] Top shape: 24 38 (912)
I0403 15:13:23.720520 31310 net.cpp:148] Top shape: 24 38 (912)
I0403 15:13:23.720540 31310 net.cpp:148] Top shape: 24 38 (912)
I0403 15:13:23.720557 31310 net.cpp:148] Top shape: 24 38 (912)
I0403 15:13:23.720582 31310 net.cpp:156] Memory required for data: 1346079072
I0403 15:13:23.720598 31310 layer_factory.hpp:77] Creating layer loss1/loss
I0403 15:13:23.720621 31310 net.cpp:91] Creating Layer loss1/loss
I0403 15:13:23.720640 31310 net.cpp:425] loss1/loss <- loss1/classifier_plantvillage_loss1/classifier_plantvillage_0_split_0
I0403 15:13:23.720672 31310 net.cpp:425] loss1/loss <- label_data_1_split_0
…
