…
I0403 02:30:37.060163  4270 net.cpp:313] The NetState phase (0) differed from the phase (1) specified by a rule in layer accuracy
I0403 02:30:37.062019  4270 net.cpp:49] Initializing net from parameters: 
state {
  phase: TRAIN
}
layer {
  name: "data"
  type: "Data"
  top: "data"
  top: "label"
  include {
    phase: TRAIN
  }
  transform_param {
    mirror: true
    crop_size: 227
    mean_file: "/home/mohanty/data/final_dataset/lmdb/color-50-50/mean.binaryproto"
  }
  data_param {
    source: "/home/mohanty/data/final_dataset/lmdb/color-50-50/train_db"
    batch_size: 100
    backend: LMDB
  }
}
layer {
  name: "conv1"
  type: "Convolution"
  bottom: "data"
  top: "conv1"
  param {
    lr_mult: 1
    decay_mult: 1
  }
  param {
    lr_mult: 2
    decay_mult: 0
  }
  convolution_param {
    num_output: 96
    kernel_size: 11
    stride: 4
    weight_filler {
      type: "gaussian"
      std: 0.01
    }
    bias_filler {
      type: "constant"
      value: 0
    }
  }
}
layer {
  name: "relu1"
  type: "ReLU"
  bottom: "conv1"
  top: "conv1"
}
layer {
  name: "norm1"
  type: "LRN"
  bottom: "conv1"
  top: "norm1"
  lrn_param {
    local_size: 5
    alpha: 0.0001
    beta: 0.75
  }
}
layer {
  name: "pool1"
  type: "Pooling"
  bottom: "norm1"
  top: "pool1"
  pooling_param {
    pool: MAX
    kernel_size: 3
    stride: 2
  }
}
layer {
  name: "conv2"
  type: "Convolution"
  bottom: "pool1"
  top: "conv2"
  param {
    lr_mult: 1
    decay_mult: 1
  }
  param {
    lr_mult: 2
    decay_mult: 0
  }
  convolution_param {
    num_output: 256
    pad: 2
    kernel_size: 5
    group: 2
    weight_filler {
      type: "gaussian"
      std: 0.01
    }
    bias_filler {
      type: "constant"
      value: 0.1
    }
  }
}
layer {
  name: "relu2"
  type: "ReLU"
  bottom: "conv2"
  top: "conv2"
}
layer {
  name: "norm2"
  type: "LRN"
  bottom: "conv2"
  top: "norm2"
  lrn_param {
    local_size: 5
    alpha: 0.0001
    beta: 0.75
  }
}
layer {
  name: "pool2"
  type: "Pooling"
  bottom: "norm2"
  top: "pool2"
  pooling_param {
    pool: MAX
    kernel_size: 3
    stride: 2
  }
}
layer {
  name: "conv3"
  type: "Convolution"
  bottom: "pool2"
  top: "conv3"
  param {
    lr_mult: 1
    decay_mult: 1
  }
  param {
    lr_mult: 2
    decay_mult: 0
  }
  convolution_param {
    num_output: 384
    pad: 1
    kernel_size: 3
    weight_filler {
      type: "gaussian"
      std: 0.01
    }
    bias_filler {
      type: "constant"
      value: 0
    }
  }
}
layer {
  name: "relu3"
  type: "ReLU"
  bottom: "conv3"
  top: "conv3"
}
layer {
  name: "conv4"
  type: "Convolution"
  bottom: "conv3"
  top: "conv4"
  param {
    lr_mult: 1
    decay_mult: 1
  }
  param {
    lr_mult: 2
    decay_mult: 0
  }
  convolution_param {
    num_output: 384
    pad: 1
    kernel_size: 3
    group: 2
    weight_filler {
      type: "gaussian"
      std: 0.01
    }
    bias_filler {
      type: "constant"
      value: 0.1
    }
  }
}
layer {
  name: "relu4"
  type: "ReLU"
  bottom: "conv4"
  top: "conv4"
}
layer {
  name: "conv5"
  type: "Convolution"
  bottom: "conv4"
  top: "conv5"
  param {
    lr_mult: 1
    decay_mult: 1
  }
  param {
    lr_mult: 2
    decay_mult: 0
  }
  convolution_param {
    num_output: 256
    pad: 1
    kernel_size: 3
    group: 2
    weight_filler {
      type: "gaussian"
      std: 0.01
    }
    bias_filler {
      type: "constant"
      value: 0.1
    }
  }
}
layer {
  name: "relu5"
  type: "ReLU"
  bottom: "conv5"
  top: "conv5"
}
layer {
  name: "pool5"
  type: "Pooling"
  bottom: "conv5"
  top: "pool5"
  pooling_param {
    pool: MAX
    kernel_size: 3
    stride: 2
  }
}
layer {
  name: "fc6"
  type: "InnerProduct"
  bottom: "pool5"
  top: "fc6"
  param {
    lr_mult: 1
    decay_mult: 1
  }
  param {
    lr_mult: 2
    decay_mult: 0
  }
  inner_product_param {
    num_output: 4096
    weight_filler {
      type: "gaussian"
      std: 0.005
    }
    bias_filler {
      type: "constant"
      value: 0.1
    }
  }
}
layer {
  name: "relu6"
  type: "ReLU"
  bottom: "fc6"
  top: "fc6"
}
layer {
  name: "drop6"
  type: "Dropout"
  bottom: "fc6"
  top: "fc6"
  dropout_param {
    dropout_ratio: 0.5
  }
}
layer {
  name: "fc7"
  type: "InnerProduct"
  bottom: "fc6"
  top: "fc7"
  param {
    lr_mult: 1
    decay_mult: 1
  }
  param {
    lr_mult: 2
    decay_mult: 0
  }
  inner_product_param {
    num_output: 4096
    weight_filler {
      type: "gaussian"
      std: 0.005
    }
    bias_filler {
      type: "constant"
      value: 0.1
    }
  }
}
layer {
  name: "relu7"
  type: "ReLU"
  bottom: "fc7"
  top: "fc7"
}
layer {
  name: "drop7"
  type: "Dropout"
  bottom: "fc7"
  top: "fc7"
  dropout_param {
    dropout_ratio: 0.5
  }
}
layer {
  name: "fc8_plantvillage"
  type: "InnerProduct"
  bottom: "fc7"
  top: "fc8_plantvillage"
  param {
    lr_mult: 1
    decay_mult: 1
  }
  param {
    lr_mult: 2
    decay_mult: 0
  }
  inner_product_param {
    num_output: 38
    weight_filler {
      type: "gaussian"
      std: 0.01
    }
    bias_filler {
      type: "constant"
      value: 0
    }
  }
}
layer {
  name: "loss"
  type: "SoftmaxWithLoss"
  bottom: "fc8_plantvillage"
  bottom: "label"
  top: "loss"
}
I0403 02:30:37.063099  4270 layer_factory.hpp:77] Creating layer data
I0403 02:30:37.064739  4270 net.cpp:91] Creating Layer data
I0403 02:30:37.064836  4270 net.cpp:399] data -> data
I0403 02:30:37.064963  4270 net.cpp:399] data -> label
I0403 02:30:37.065062  4270 data_transformer.cpp:25] Loading mean file from: /home/mohanty/data/final_dataset/lmdb/color-50-50/mean.binaryproto
I0403 02:30:37.091559  4276 db_lmdb.cpp:38] Opened lmdb /home/mohanty/data/final_dataset/lmdb/color-50-50/train_db
I0403 02:30:37.114472  4270 data_layer.cpp:41] output data size: 100,3,227,227
I0403 02:30:37.266521  4270 net.cpp:141] Setting up data
I0403 02:30:37.266638  4270 net.cpp:148] Top shape: 100 3 227 227 (15458700)
I0403 02:30:37.266664  4270 net.cpp:148] Top shape: 100 (100)
I0403 02:30:37.266681  4270 net.cpp:156] Memory required for data: 61835200
I0403 02:30:37.266718  4270 layer_factory.hpp:77] Creating layer conv1
I0403 02:30:37.266775  4270 net.cpp:91] Creating Layer conv1
I0403 02:30:37.266803  4270 net.cpp:425] conv1 <- data
I0403 02:30:37.266841  4270 net.cpp:399] conv1 -> conv1
I0403 02:30:37.270079  4270 net.cpp:141] Setting up conv1
I0403 02:30:37.270118  4270 net.cpp:148] Top shape: 100 96 55 55 (29040000)
I0403 02:30:37.270138  4270 net.cpp:156] Memory required for data: 177995200
I0403 02:30:37.270181  4270 layer_factory.hpp:77] Creating layer relu1
I0403 02:30:37.270212  4270 net.cpp:91] Creating Layer relu1
I0403 02:30:37.270236  4270 net.cpp:425] relu1 <- conv1
I0403 02:30:37.270257  4270 net.cpp:386] relu1 -> conv1 (in-place)
I0403 02:30:37.270285  4270 net.cpp:141] Setting up relu1
I0403 02:30:37.270308  4270 net.cpp:148] Top shape: 100 96 55 55 (29040000)
I0403 02:30:37.270325  4270 net.cpp:156] Memory required for data: 294155200
I0403 02:30:37.270342  4270 layer_factory.hpp:77] Creating layer norm1
I0403 02:30:37.270365  4270 net.cpp:91] Creating Layer norm1
I0403 02:30:37.270419  4270 net.cpp:425] norm1 <- conv1
I0403 02:30:37.270442  4270 net.cpp:399] norm1 -> norm1
I0403 02:30:37.279510  4270 net.cpp:141] Setting up norm1
I0403 02:30:37.279541  4270 net.cpp:148] Top shape: 100 96 55 55 (29040000)
I0403 02:30:37.279559  4270 net.cpp:156] Memory required for data: 410315200
I0403 02:30:37.279577  4270 layer_factory.hpp:77] Creating layer pool1
I0403 02:30:37.279603  4270 net.cpp:91] Creating Layer pool1
I0403 02:30:37.279623  4270 net.cpp:425] pool1 <- norm1
I0403 02:30:37.279645  4270 net.cpp:399] pool1 -> pool1
I0403 02:30:37.279719  4270 net.cpp:141] Setting up pool1
I0403 02:30:37.279750  4270 net.cpp:148] Top shape: 100 96 27 27 (6998400)
I0403 02:30:37.279768  4270 net.cpp:156] Memory required for data: 438308800
I0403 02:30:37.279788  4270 layer_factory.hpp:77] Creating layer conv2
I0403 02:30:37.279815  4270 net.cpp:91] Creating Layer conv2
I0403 02:30:37.279835  4270 net.cpp:425] conv2 <- pool1
I0403 02:30:37.279860  4270 net.cpp:399] conv2 -> conv2
I0403 02:30:37.281450  4278 blocking_queue.cpp:50] Waiting for data
I0403 02:30:37.298228  4270 net.cpp:141] Setting up conv2
I0403 02:30:37.298264  4270 net.cpp:148] Top shape: 100 256 27 27 (18662400)
I0403 02:30:37.298285  4270 net.cpp:156] Memory required for data: 512958400
I0403 02:30:37.298311  4270 layer_factory.hpp:77] Creating layer relu2
I0403 02:30:37.298336  4270 net.cpp:91] Creating Layer relu2
I0403 02:30:37.298355  4270 net.cpp:425] relu2 <- conv2
I0403 02:30:37.298377  4270 net.cpp:386] relu2 -> conv2 (in-place)
I0403 02:30:37.298400  4270 net.cpp:141] Setting up relu2
I0403 02:30:37.298421  4270 net.cpp:148] Top shape: 100 256 27 27 (18662400)
I0403 02:30:37.298439  4270 net.cpp:156] Memory required for data: 587608000
I0403 02:30:37.298459  4270 layer_factory.hpp:77] Creating layer norm2
I0403 02:30:37.298481  4270 net.cpp:91] Creating Layer norm2
I0403 02:30:37.298499  4270 net.cpp:425] norm2 <- conv2
I0403 02:30:37.298521  4270 net.cpp:399] norm2 -> norm2
I0403 02:30:37.298578  4270 net.cpp:141] Setting up norm2
I0403 02:30:37.298605  4270 net.cpp:148] Top shape: 100 256 27 27 (18662400)
I0403 02:30:37.298624  4270 net.cpp:156] Memory required for data: 662257600
I0403 02:30:37.298641  4270 layer_factory.hpp:77] Creating layer pool2
I0403 02:30:37.298666  4270 net.cpp:91] Creating Layer pool2
I0403 02:30:37.298686  4270 net.cpp:425] pool2 <- norm2
I0403 02:30:37.298707  4270 net.cpp:399] pool2 -> pool2
I0403 02:30:37.298761  4270 net.cpp:141] Setting up pool2
I0403 02:30:37.298789  4270 net.cpp:148] Top shape: 100 256 13 13 (4326400)
I0403 02:30:37.298807  4270 net.cpp:156] Memory required for data: 679563200
I0403 02:30:37.298825  4270 layer_factory.hpp:77] Creating layer conv3
I0403 02:30:37.298853  4270 net.cpp:91] Creating Layer conv3
I0403 02:30:37.298873  4270 net.cpp:425] conv3 <- pool2
I0403 02:30:37.298897  4270 net.cpp:399] conv3 -> conv3
I0403 02:30:37.340764  4270 net.cpp:141] Setting up conv3
I0403 02:30:37.340804  4270 net.cpp:148] Top shape: 100 384 13 13 (6489600)
I0403 02:30:37.340824  4270 net.cpp:156] Memory required for data: 705521600
I0403 02:30:37.340850  4270 layer_factory.hpp:77] Creating layer relu3
I0403 02:30:37.340874  4270 net.cpp:91] Creating Layer relu3
I0403 02:30:37.340893  4270 net.cpp:425] relu3 <- conv3
I0403 02:30:37.340916  4270 net.cpp:386] relu3 -> conv3 (in-place)
I0403 02:30:37.340939  4270 net.cpp:141] Setting up relu3
I0403 02:30:37.340960  4270 net.cpp:148] Top shape: 100 384 13 13 (6489600)
I0403 02:30:37.340977  4270 net.cpp:156] Memory required for data: 731480000
I0403 02:30:37.341004  4270 layer_factory.hpp:77] Creating layer conv4
I0403 02:30:37.341033  4270 net.cpp:91] Creating Layer conv4
I0403 02:30:37.341053  4270 net.cpp:425] conv4 <- conv3
I0403 02:30:37.341078  4270 net.cpp:399] conv4 -> conv4
I0403 02:30:37.372627  4270 net.cpp:141] Setting up conv4
I0403 02:30:37.372666  4270 net.cpp:148] Top shape: 100 384 13 13 (6489600)
I0403 02:30:37.372687  4270 net.cpp:156] Memory required for data: 757438400
I0403 02:30:37.372711  4270 layer_factory.hpp:77] Creating layer relu4
I0403 02:30:37.372756  4270 net.cpp:91] Creating Layer relu4
I0403 02:30:37.372779  4270 net.cpp:425] relu4 <- conv4
I0403 02:30:37.372803  4270 net.cpp:386] relu4 -> conv4 (in-place)
I0403 02:30:37.372828  4270 net.cpp:141] Setting up relu4
I0403 02:30:37.372848  4270 net.cpp:148] Top shape: 100 384 13 13 (6489600)
I0403 02:30:37.372870  4270 net.cpp:156] Memory required for data: 783396800
I0403 02:30:37.372906  4270 layer_factory.hpp:77] Creating layer conv5
I0403 02:30:37.372958  4270 net.cpp:91] Creating Layer conv5
I0403 02:30:37.373008  4270 net.cpp:425] conv5 <- conv4
I0403 02:30:37.373057  4270 net.cpp:399] conv5 -> conv5
I0403 02:30:37.394219  4270 net.cpp:141] Setting up conv5
I0403 02:30:37.394259  4270 net.cpp:148] Top shape: 100 256 13 13 (4326400)
I0403 02:30:37.394279  4270 net.cpp:156] Memory required for data: 800702400
I0403 02:30:37.394305  4270 layer_factory.hpp:77] Creating layer relu5
I0403 02:30:37.394330  4270 net.cpp:91] Creating Layer relu5
I0403 02:30:37.394350  4270 net.cpp:425] relu5 <- conv5
I0403 02:30:37.394371  4270 net.cpp:386] relu5 -> conv5 (in-place)
I0403 02:30:37.394395  4270 net.cpp:141] Setting up relu5
I0403 02:30:37.394418  4270 net.cpp:148] Top shape: 100 256 13 13 (4326400)
I0403 02:30:37.394434  4270 net.cpp:156] Memory required for data: 818008000
I0403 02:30:37.394453  4270 layer_factory.hpp:77] Creating layer pool5
I0403 02:30:37.394474  4270 net.cpp:91] Creating Layer pool5
I0403 02:30:37.394493  4270 net.cpp:425] pool5 <- conv5
I0403 02:30:37.394513  4270 net.cpp:399] pool5 -> pool5
I0403 02:30:37.394575  4270 net.cpp:141] Setting up pool5
I0403 02:30:37.394603  4270 net.cpp:148] Top shape: 100 256 6 6 (921600)
I0403 02:30:37.394621  4270 net.cpp:156] Memory required for data: 821694400
I0403 02:30:37.394639  4270 layer_factory.hpp:77] Creating layer fc6
I0403 02:30:37.394672  4270 net.cpp:91] Creating Layer fc6
I0403 02:30:37.394695  4270 net.cpp:425] fc6 <- pool5
I0403 02:30:37.394722  4270 net.cpp:399] fc6 -> fc6
I0403 02:30:38.967111  4270 net.cpp:141] Setting up fc6
I0403 02:30:38.967211  4270 net.cpp:148] Top shape: 100 4096 (409600)
I0403 02:30:38.967226  4270 net.cpp:156] Memory required for data: 823332800
I0403 02:30:38.967248  4270 layer_factory.hpp:77] Creating layer relu6
I0403 02:30:38.967272  4270 net.cpp:91] Creating Layer relu6
I0403 02:30:38.967288  4270 net.cpp:425] relu6 <- fc6
I0403 02:30:38.967311  4270 net.cpp:386] relu6 -> fc6 (in-place)
I0403 02:30:38.967334  4270 net.cpp:141] Setting up relu6
I0403 02:30:38.967350  4270 net.cpp:148] Top shape: 100 4096 (409600)
I0403 02:30:38.967363  4270 net.cpp:156] Memory required for data: 824971200
I0403 02:30:38.967376  4270 layer_factory.hpp:77] Creating layer drop6
I0403 02:30:38.967401  4270 net.cpp:91] Creating Layer drop6
I0403 02:30:38.967417  4270 net.cpp:425] drop6 <- fc6
I0403 02:30:38.967435  4270 net.cpp:386] drop6 -> fc6 (in-place)
I0403 02:30:38.967481  4270 net.cpp:141] Setting up drop6
I0403 02:30:38.967501  4270 net.cpp:148] Top shape: 100 4096 (409600)
I0403 02:30:38.967514  4270 net.cpp:156] Memory required for data: 826609600
I0403 02:30:38.967528  4270 layer_factory.hpp:77] Creating layer fc7
I0403 02:30:38.967550  4270 net.cpp:91] Creating Layer fc7
I0403 02:30:38.967567  4270 net.cpp:425] fc7 <- fc6
I0403 02:30:38.967584  4270 net.cpp:399] fc7 -> fc7
I0403 02:30:39.589915  4270 net.cpp:141] Setting up fc7
I0403 02:30:39.590020  4270 net.cpp:148] Top shape: 100 4096 (409600)
I0403 02:30:39.590039  4270 net.cpp:156] Memory required for data: 828248000
I0403 02:30:39.590064  4270 layer_factory.hpp:77] Creating layer relu7
I0403 02:30:39.590088  4270 net.cpp:91] Creating Layer relu7
I0403 02:30:39.590106  4270 net.cpp:425] relu7 <- fc7
I0403 02:30:39.590127  4270 net.cpp:386] relu7 -> fc7 (in-place)
I0403 02:30:39.590152  4270 net.cpp:141] Setting up relu7
I0403 02:30:39.590169  4270 net.cpp:148] Top shape: 100 4096 (409600)
I0403 02:30:39.590183  4270 net.cpp:156] Memory required for data: 829886400
I0403 02:30:39.590198  4270 layer_factory.hpp:77] Creating layer drop7
I0403 02:30:39.590250  4270 net.cpp:91] Creating Layer drop7
I0403 02:30:39.590267  4270 net.cpp:425] drop7 <- fc7
I0403 02:30:39.590287  4270 net.cpp:386] drop7 -> fc7 (in-place)
I0403 02:30:39.590330  4270 net.cpp:141] Setting up drop7
I0403 02:30:39.590354  4270 net.cpp:148] Top shape: 100 4096 (409600)
I0403 02:30:39.590369  4270 net.cpp:156] Memory required for data: 831524800
I0403 02:30:39.590384  4270 layer_factory.hpp:77] Creating layer fc8_plantvillage
I0403 02:30:39.590406  4270 net.cpp:91] Creating Layer fc8_plantvillage
I0403 02:30:39.590421  4270 net.cpp:425] fc8_plantvillage <- fc7
I0403 02:30:39.590442  4270 net.cpp:399] fc8_plantvillage -> fc8_plantvillage
I0403 02:30:39.597216  4270 net.cpp:141] Setting up fc8_plantvillage
I0403 02:30:39.597245  4270 net.cpp:148] Top shape: 100 38 (3800)
I0403 02:30:39.597261  4270 net.cpp:156] Memory required for data: 831540000
I0403 02:30:39.597280  4270 layer_factory.hpp:77] Creating layer loss
I0403 02:30:39.597306  4270 net.cpp:91] Creating Layer loss
I0403 02:30:39.597323  4270 net.cpp:425] loss <- fc8_plantvillage
I0403 02:30:39.597340  4270 net.cpp:425] loss <- label
I0403 02:30:39.597365  4270 net.cpp:399] loss -> loss
I0403 02:30:39.597395  4270 layer_factory.hpp:77] Creating layer loss
…
I0403 02:30:39.599267  4270 net.cpp:313] The NetState phase (1) differed from the phase (0) specified by a rule in layer data
I0403 02:30:39.599952  4270 net.cpp:49] Initializing net from parameters: 
state {
  phase: TEST
}
layer {
  name: "data"
  type: "Data"
  top: "data"
  top: "label"
  include {
    phase: TEST
  }
  transform_param {
    crop_size: 227
    mean_file: "/home/mohanty/data/final_dataset/lmdb/color-50-50/mean.binaryproto"
  }
  data_param {
    source: "/home/mohanty/data/final_dataset/lmdb/color-50-50/test_db"
    batch_size: 100
    backend: LMDB
  }
}
layer {
  name: "conv1"
  type: "Convolution"
  bottom: "data"
  top: "conv1"
  param {
    lr_mult: 1
    decay_mult: 1
  }
  param {
    lr_mult: 2
    decay_mult: 0
  }
  convolution_param {
    num_output: 96
    kernel_size: 11
    stride: 4
    weight_filler {
      type: "gaussian"
      std: 0.01
    }
    bias_filler {
      type: "constant"
      value: 0
    }
  }
}
layer {
  name: "relu1"
  type: "ReLU"
  bottom: "conv1"
  top: "conv1"
}
layer {
  name: "norm1"
  type: "LRN"
  bottom: "conv1"
  top: "norm1"
  lrn_param {
    local_size: 5
    alpha: 0.0001
    beta: 0.75
  }
}
layer {
  name: "pool1"
  type: "Pooling"
  bottom: "norm1"
  top: "pool1"
  pooling_param {
    pool: MAX
    kernel_size: 3
    stride: 2
  }
}
layer {
  name: "conv2"
  type: "Convolution"
  bottom: "pool1"
  top: "conv2"
  param {
    lr_mult: 1
    decay_mult: 1
  }
  param {
    lr_mult: 2
    decay_mult: 0
  }
  convolution_param {
    num_output: 256
    pad: 2
    kernel_size: 5
    group: 2
    weight_filler {
      type: "gaussian"
      std: 0.01
    }
    bias_filler {
      type: "constant"
      value: 0.1
    }
  }
}
layer {
  name: "relu2"
  type: "ReLU"
  bottom: "conv2"
  top: "conv2"
}
layer {
  name: "norm2"
  type: "LRN"
  bottom: "conv2"
  top: "norm2"
  lrn_param {
    local_size: 5
    alpha: 0.0001
    beta: 0.75
  }
}
layer {
  name: "pool2"
  type: "Pooling"
  bottom: "norm2"
  top: "pool2"
  pooling_param {
    pool: MAX
    kernel_size: 3
    stride: 2
  }
}
layer {
  name: "conv3"
  type: "Convolution"
  bottom: "pool2"
  top: "conv3"
  param {
    lr_mult: 1
    decay_mult: 1
  }
  param {
    lr_mult: 2
    decay_mult: 0
  }
  convolution_param {
    num_output: 384
    pad: 1
    kernel_size: 3
    weight_filler {
      type: "gaussian"
      std: 0.01
    }
    bias_filler {
      type: "constant"
      value: 0
    }
  }
}
layer {
  name: "relu3"
  type: "ReLU"
  bottom: "conv3"
  top: "conv3"
}
layer {
  name: "conv4"
  type: "Convolution"
  bottom: "conv3"
  top: "conv4"
  param {
    lr_mult: 1
    decay_mult: 1
  }
  param {
    lr_mult: 2
    decay_mult: 0
  }
  convolution_param {
    num_output: 384
    pad: 1
    kernel_size: 3
    group: 2
    weight_filler {
      type: "gaussian"
      std: 0.01
    }
    bias_filler {
      type: "constant"
      value: 0.1
    }
  }
}
layer {
  name: "relu4"
  type: "ReLU"
  bottom: "conv4"
  top: "conv4"
}
layer {
  name: "conv5"
  type: "Convolution"
  bottom: "conv4"
  top: "conv5"
  param {
    lr_mult: 1
    decay_mult: 1
  }
  param {
    lr_mult: 2
    decay_mult: 0
  }
  convolution_param {
    num_output: 256
    pad: 1
    kernel_size: 3
    group: 2
    weight_filler {
      type: "gaussian"
      std: 0.01
    }
    bias_filler {
      type: "constant"
      value: 0.1
    }
  }
}
layer {
  name: "relu5"
  type: "ReLU"
  bottom: "conv5"
  top: "conv5"
}
layer {
  name: "pool5"
  type: "Pooling"
  bottom: "conv5"
  top: "pool5"
  pooling_param {
    pool: MAX
    kernel_size: 3
    stride: 2
  }
}
layer {
  name: "fc6"
  type: "InnerProduct"
  bottom: "pool5"
  top: "fc6"
  param {
    lr_mult: 1
    decay_mult: 1
  }
  param {
    lr_mult: 2
    decay_mult: 0
  }
  inner_product_param {
    num_output: 4096
    weight_filler {
      type: "gaussian"
      std: 0.005
    }
    bias_filler {
      type: "constant"
      value: 0.1
    }
  }
}
layer {
  name: "relu6"
  type: "ReLU"
  bottom: "fc6"
  top: "fc6"
}
layer {
  name: "drop6"
  type: "Dropout"
  bottom: "fc6"
  top: "fc6"
  dropout_param {
    dropout_ratio: 0.5
  }
}
layer {
  name: "fc7"
  type: "InnerProduct"
  bottom: "fc6"
  top: "fc7"
  param {
    lr_mult: 1
    decay_mult: 1
  }
  param {
    lr_mult: 2
    decay_mult: 0
  }
  inner_product_param {
    num_output: 4096
    weight_filler {
      type: "gaussian"
      std: 0.005
    }
    bias_filler {
      type: "constant"
      value: 0.1
    }
  }
}
layer {
  name: "relu7"
  type: "ReLU"
  bottom: "fc7"
  top: "fc7"
}
layer {
  name: "drop7"
  type: "Dropout"
  bottom: "fc7"
  top: "fc7"
  dropout_param {
    dropout_ratio: 0.5
  }
}
layer {
  name: "fc8_plantvillage"
  type: "InnerProduct"
  bottom: "fc7"
  top: "fc8_plantvillage"
  param {
    lr_mult: 1
    decay_mult: 1
  }
  param {
    lr_mult: 2
    decay_mult: 0
  }
  inner_product_param {
    num_output: 38
    weight_filler {
      type: "gaussian"
      std: 0.01
    }
    bias_filler {
      type: "constant"
      value: 0
    }
  }
}
layer {
  name: "loss"
  type: "SoftmaxWithLoss"
  bottom: "fc8_plantvillage"
  bottom: "label"
  top: "loss"
}
layer {
  name: "accuracy"
  type: "Accuracy"
  bottom: "fc8_plantvillage"
  bottom: "label"
  top: "accuracy"
  include {
    phase: TEST
  }
}
I0403 02:30:39.600128  4270 layer_factory.hpp:77] Creating layer data
I0403 02:30:39.600275  4270 net.cpp:91] Creating Layer data
I0403 02:30:39.600301  4270 net.cpp:399] data -> data
I0403 02:30:39.600330  4270 net.cpp:399] data -> label
I0403 02:30:39.600355  4270 data_transformer.cpp:25] Loading mean file from: /home/mohanty/data/final_dataset/lmdb/color-50-50/mean.binaryproto
I0403 02:30:39.677801  4281 db_lmdb.cpp:38] Opened lmdb /home/mohanty/data/final_dataset/lmdb/color-50-50/test_db
I0403 02:30:39.684823  4270 data_layer.cpp:41] output data size: 100,3,227,227
I0403 02:30:39.843122  4270 net.cpp:141] Setting up data
I0403 02:30:39.856637  4270 net.cpp:148] Top shape: 100 3 227 227 (15458700)
I0403 02:30:39.856715  4270 net.cpp:148] Top shape: 100 (100)
I0403 02:30:39.856777  4270 net.cpp:156] Memory required for data: 61835200
I0403 02:30:39.856802  4270 layer_factory.hpp:77] Creating layer label_data_1_split
I0403 02:30:39.856837  4270 net.cpp:91] Creating Layer label_data_1_split
I0403 02:30:39.856856  4270 net.cpp:425] label_data_1_split <- label
I0403 02:30:39.856878  4270 net.cpp:399] label_data_1_split -> label_data_1_split_0
I0403 02:30:39.856904  4270 net.cpp:399] label_data_1_split -> label_data_1_split_1
I0403 02:30:39.856967  4270 net.cpp:141] Setting up label_data_1_split
I0403 02:30:39.857007  4270 net.cpp:148] Top shape: 100 (100)
I0403 02:30:39.857024  4270 net.cpp:148] Top shape: 100 (100)
I0403 02:30:39.857038  4270 net.cpp:156] Memory required for data: 61836000
I0403 02:30:39.857053  4270 layer_factory.hpp:77] Creating layer conv1
I0403 02:30:39.857082  4270 net.cpp:91] Creating Layer conv1
I0403 02:30:39.857098  4270 net.cpp:425] conv1 <- data
I0403 02:30:39.857117  4270 net.cpp:399] conv1 -> conv1
I0403 02:30:39.858678  4270 net.cpp:141] Setting up conv1
I0403 02:30:39.858705  4270 net.cpp:148] Top shape: 100 96 55 55 (29040000)
I0403 02:30:39.858719  4270 net.cpp:156] Memory required for data: 177996000
I0403 02:30:39.858743  4270 layer_factory.hpp:77] Creating layer relu1
I0403 02:30:39.858763  4270 net.cpp:91] Creating Layer relu1
I0403 02:30:39.858779  4270 net.cpp:425] relu1 <- conv1
I0403 02:30:39.858796  4270 net.cpp:386] relu1 -> conv1 (in-place)
I0403 02:30:39.858816  4270 net.cpp:141] Setting up relu1
I0403 02:30:39.858834  4270 net.cpp:148] Top shape: 100 96 55 55 (29040000)
I0403 02:30:39.858846  4270 net.cpp:156] Memory required for data: 294156000
I0403 02:30:39.858860  4270 layer_factory.hpp:77] Creating layer norm1
I0403 02:30:39.858880  4270 net.cpp:91] Creating Layer norm1
I0403 02:30:39.858896  4270 net.cpp:425] norm1 <- conv1
I0403 02:30:39.858913  4270 net.cpp:399] norm1 -> norm1
I0403 02:30:39.858963  4270 net.cpp:141] Setting up norm1
I0403 02:30:39.858995  4270 net.cpp:148] Top shape: 100 96 55 55 (29040000)
I0403 02:30:39.859014  4270 net.cpp:156] Memory required for data: 410316000
I0403 02:30:39.859028  4270 layer_factory.hpp:77] Creating layer pool1
I0403 02:30:39.859047  4270 net.cpp:91] Creating Layer pool1
I0403 02:30:39.859063  4270 net.cpp:425] pool1 <- norm1
I0403 02:30:39.859081  4270 net.cpp:399] pool1 -> pool1
I0403 02:30:39.859130  4270 net.cpp:141] Setting up pool1
I0403 02:30:39.859151  4270 net.cpp:148] Top shape: 100 96 27 27 (6998400)
I0403 02:30:39.859165  4270 net.cpp:156] Memory required for data: 438309600
I0403 02:30:39.859211  4270 layer_factory.hpp:77] Creating layer conv2
I0403 02:30:39.859236  4270 net.cpp:91] Creating Layer conv2
I0403 02:30:39.859251  4270 net.cpp:425] conv2 <- pool1
I0403 02:30:39.859269  4270 net.cpp:399] conv2 -> conv2
I0403 02:30:39.871522  4270 net.cpp:141] Setting up conv2
I0403 02:30:39.871554  4270 net.cpp:148] Top shape: 100 256 27 27 (18662400)
I0403 02:30:39.871572  4270 net.cpp:156] Memory required for data: 512959200
I0403 02:30:39.871592  4270 layer_factory.hpp:77] Creating layer relu2
I0403 02:30:39.871613  4270 net.cpp:91] Creating Layer relu2
I0403 02:30:39.871628  4270 net.cpp:425] relu2 <- conv2
I0403 02:30:39.871645  4270 net.cpp:386] relu2 -> conv2 (in-place)
I0403 02:30:39.871666  4270 net.cpp:141] Setting up relu2
I0403 02:30:39.871687  4270 net.cpp:148] Top shape: 100 256 27 27 (18662400)
I0403 02:30:39.871709  4270 net.cpp:156] Memory required for data: 587608800
I0403 02:30:39.871734  4270 layer_factory.hpp:77] Creating layer norm2
I0403 02:30:39.871762  4270 net.cpp:91] Creating Layer norm2
I0403 02:30:39.871784  4270 net.cpp:425] norm2 <- conv2
I0403 02:30:39.871804  4270 net.cpp:399] norm2 -> norm2
I0403 02:30:39.871861  4270 net.cpp:141] Setting up norm2
I0403 02:30:39.871883  4270 net.cpp:148] Top shape: 100 256 27 27 (18662400)
I0403 02:30:39.871897  4270 net.cpp:156] Memory required for data: 662258400
I0403 02:30:39.871912  4270 layer_factory.hpp:77] Creating layer pool2
I0403 02:30:39.871929  4270 net.cpp:91] Creating Layer pool2
I0403 02:30:39.871944  4270 net.cpp:425] pool2 <- norm2
I0403 02:30:39.871963  4270 net.cpp:399] pool2 -> pool2
I0403 02:30:39.872014  4270 net.cpp:141] Setting up pool2
I0403 02:30:39.872035  4270 net.cpp:148] Top shape: 100 256 13 13 (4326400)
I0403 02:30:39.872050  4270 net.cpp:156] Memory required for data: 679564000
I0403 02:30:39.872063  4270 layer_factory.hpp:77] Creating layer conv3
I0403 02:30:39.872087  4270 net.cpp:91] Creating Layer conv3
I0403 02:30:39.872102  4270 net.cpp:425] conv3 <- pool2
I0403 02:30:39.872120  4270 net.cpp:399] conv3 -> conv3
I0403 02:30:39.907089  4270 net.cpp:141] Setting up conv3
I0403 02:30:39.907145  4270 net.cpp:148] Top shape: 100 384 13 13 (6489600)
I0403 02:30:39.907160  4270 net.cpp:156] Memory required for data: 705522400
I0403 02:30:39.907183  4270 layer_factory.hpp:77] Creating layer relu3
I0403 02:30:39.907207  4270 net.cpp:91] Creating Layer relu3
I0403 02:30:39.907224  4270 net.cpp:425] relu3 <- conv3
I0403 02:30:39.907243  4270 net.cpp:386] relu3 -> conv3 (in-place)
I0403 02:30:39.907274  4270 net.cpp:141] Setting up relu3
I0403 02:30:39.907291  4270 net.cpp:148] Top shape: 100 384 13 13 (6489600)
I0403 02:30:39.907305  4270 net.cpp:156] Memory required for data: 731480800
I0403 02:30:39.907326  4270 layer_factory.hpp:77] Creating layer conv4
I0403 02:30:39.907351  4270 net.cpp:91] Creating Layer conv4
I0403 02:30:39.907366  4270 net.cpp:425] conv4 <- conv3
I0403 02:30:39.907385  4270 net.cpp:399] conv4 -> conv4
I0403 02:30:39.932677  4270 net.cpp:141] Setting up conv4
I0403 02:30:39.932713  4270 net.cpp:148] Top shape: 100 384 13 13 (6489600)
I0403 02:30:39.932728  4270 net.cpp:156] Memory required for data: 757439200
I0403 02:30:39.932746  4270 layer_factory.hpp:77] Creating layer relu4
I0403 02:30:39.932765  4270 net.cpp:91] Creating Layer relu4
I0403 02:30:39.932780  4270 net.cpp:425] relu4 <- conv4
I0403 02:30:39.932798  4270 net.cpp:386] relu4 -> conv4 (in-place)
I0403 02:30:39.932819  4270 net.cpp:141] Setting up relu4
I0403 02:30:39.932835  4270 net.cpp:148] Top shape: 100 384 13 13 (6489600)
I0403 02:30:39.932850  4270 net.cpp:156] Memory required for data: 783397600
I0403 02:30:39.932863  4270 layer_factory.hpp:77] Creating layer conv5
I0403 02:30:39.932885  4270 net.cpp:91] Creating Layer conv5
I0403 02:30:39.932900  4270 net.cpp:425] conv5 <- conv4
I0403 02:30:39.932919  4270 net.cpp:399] conv5 -> conv5
I0403 02:30:39.949627  4270 net.cpp:141] Setting up conv5
I0403 02:30:39.949658  4270 net.cpp:148] Top shape: 100 256 13 13 (4326400)
I0403 02:30:39.949673  4270 net.cpp:156] Memory required for data: 800703200
I0403 02:30:39.949725  4270 layer_factory.hpp:77] Creating layer relu5
I0403 02:30:39.949746  4270 net.cpp:91] Creating Layer relu5
I0403 02:30:39.949762  4270 net.cpp:425] relu5 <- conv5
I0403 02:30:39.949779  4270 net.cpp:386] relu5 -> conv5 (in-place)
I0403 02:30:39.949798  4270 net.cpp:141] Setting up relu5
I0403 02:30:39.949815  4270 net.cpp:148] Top shape: 100 256 13 13 (4326400)
I0403 02:30:39.949829  4270 net.cpp:156] Memory required for data: 818008800
I0403 02:30:39.949846  4270 layer_factory.hpp:77] Creating layer pool5
I0403 02:30:39.949873  4270 net.cpp:91] Creating Layer pool5
I0403 02:30:39.949899  4270 net.cpp:425] pool5 <- conv5
I0403 02:30:39.949928  4270 net.cpp:399] pool5 -> pool5
I0403 02:30:39.949992  4270 net.cpp:141] Setting up pool5
I0403 02:30:39.950016  4270 net.cpp:148] Top shape: 100 256 6 6 (921600)
I0403 02:30:39.950031  4270 net.cpp:156] Memory required for data: 821695200
I0403 02:30:39.950044  4270 layer_factory.hpp:77] Creating layer fc6
I0403 02:30:39.950067  4270 net.cpp:91] Creating Layer fc6
I0403 02:30:39.950084  4270 net.cpp:425] fc6 <- pool5
I0403 02:30:39.950103  4270 net.cpp:399] fc6 -> fc6
I0403 02:30:41.376214  4270 net.cpp:141] Setting up fc6
I0403 02:30:41.376324  4270 net.cpp:148] Top shape: 100 4096 (409600)
I0403 02:30:41.376340  4270 net.cpp:156] Memory required for data: 823333600
I0403 02:30:41.376363  4270 layer_factory.hpp:77] Creating layer relu6
I0403 02:30:41.376387  4270 net.cpp:91] Creating Layer relu6
I0403 02:30:41.376405  4270 net.cpp:425] relu6 <- fc6
I0403 02:30:41.376426  4270 net.cpp:386] relu6 -> fc6 (in-place)
I0403 02:30:41.376451  4270 net.cpp:141] Setting up relu6
I0403 02:30:41.376467  4270 net.cpp:148] Top shape: 100 4096 (409600)
I0403 02:30:41.376480  4270 net.cpp:156] Memory required for data: 824972000
I0403 02:30:41.376493  4270 layer_factory.hpp:77] Creating layer drop6
I0403 02:30:41.376512  4270 net.cpp:91] Creating Layer drop6
I0403 02:30:41.376526  4270 net.cpp:425] drop6 <- fc6
I0403 02:30:41.376544  4270 net.cpp:386] drop6 -> fc6 (in-place)
I0403 02:30:41.376584  4270 net.cpp:141] Setting up drop6
I0403 02:30:41.376603  4270 net.cpp:148] Top shape: 100 4096 (409600)
I0403 02:30:41.376616  4270 net.cpp:156] Memory required for data: 826610400
I0403 02:30:41.376631  4270 layer_factory.hpp:77] Creating layer fc7
I0403 02:30:41.376652  4270 net.cpp:91] Creating Layer fc7
I0403 02:30:41.376668  4270 net.cpp:425] fc7 <- fc6
I0403 02:30:41.376685  4270 net.cpp:399] fc7 -> fc7
I0403 02:30:42.005437  4270 net.cpp:141] Setting up fc7
I0403 02:30:42.005529  4270 net.cpp:148] Top shape: 100 4096 (409600)
I0403 02:30:42.005548  4270 net.cpp:156] Memory required for data: 828248800
I0403 02:30:42.005573  4270 layer_factory.hpp:77] Creating layer relu7
I0403 02:30:42.005599  4270 net.cpp:91] Creating Layer relu7
I0403 02:30:42.005620  4270 net.cpp:425] relu7 <- fc7
I0403 02:30:42.005643  4270 net.cpp:386] relu7 -> fc7 (in-place)
I0403 02:30:42.005669  4270 net.cpp:141] Setting up relu7
I0403 02:30:42.005687  4270 net.cpp:148] Top shape: 100 4096 (409600)
I0403 02:30:42.005702  4270 net.cpp:156] Memory required for data: 829887200
I0403 02:30:42.005717  4270 layer_factory.hpp:77] Creating layer drop7
I0403 02:30:42.005738  4270 net.cpp:91] Creating Layer drop7
I0403 02:30:42.005756  4270 net.cpp:425] drop7 <- fc7
I0403 02:30:42.005777  4270 net.cpp:386] drop7 -> fc7 (in-place)
I0403 02:30:42.005820  4270 net.cpp:141] Setting up drop7
I0403 02:30:42.005846  4270 net.cpp:148] Top shape: 100 4096 (409600)
I0403 02:30:42.005863  4270 net.cpp:156] Memory required for data: 831525600
I0403 02:30:42.005879  4270 layer_factory.hpp:77] Creating layer fc8_plantvillage
I0403 02:30:42.005903  4270 net.cpp:91] Creating Layer fc8_plantvillage
I0403 02:30:42.005918  4270 net.cpp:425] fc8_plantvillage <- fc7
I0403 02:30:42.005941  4270 net.cpp:399] fc8_plantvillage -> fc8_plantvillage
I0403 02:30:42.012786  4270 net.cpp:141] Setting up fc8_plantvillage
I0403 02:30:42.012820  4270 net.cpp:148] Top shape: 100 38 (3800)
I0403 02:30:42.012835  4270 net.cpp:156] Memory required for data: 831540800
I0403 02:30:42.012886  4270 layer_factory.hpp:77] Creating layer fc8_plantvillage_fc8_plantvillage_0_split
I0403 02:30:42.012908  4270 net.cpp:91] Creating Layer fc8_plantvillage_fc8_plantvillage_0_split
I0403 02:30:42.012931  4270 net.cpp:425] fc8_plantvillage_fc8_plantvillage_0_split <- fc8_plantvillage
I0403 02:30:42.012951  4270 net.cpp:399] fc8_plantvillage_fc8_plantvillage_0_split -> fc8_plantvillage_fc8_plantvillage_0_split_0
I0403 02:30:42.012974  4270 net.cpp:399] fc8_plantvillage_fc8_plantvillage_0_split -> fc8_plantvillage_fc8_plantvillage_0_split_1
I0403 02:30:42.013034  4270 net.cpp:141] Setting up fc8_plantvillage_fc8_plantvillage_0_split
I0403 02:30:42.013059  4270 net.cpp:148] Top shape: 100 38 (3800)
I0403 02:30:42.013075  4270 net.cpp:148] Top shape: 100 38 (3800)
I0403 02:30:42.013090  4270 net.cpp:156] Memory required for data: 831571200
I0403 02:30:42.013105  4270 layer_factory.hpp:77] Creating layer loss
I0403 02:30:42.013124  4270 net.cpp:91] Creating Layer loss
I0403 02:30:42.013141  4270 net.cpp:425] loss <- fc8_plantvillage_fc8_plantvillage_0_split_0
I0403 02:30:42.013159  4270 net.cpp:425] loss <- label_data_1_split_0
I0403 02:30:42.013177  4270 net.cpp:399] loss -> loss
…
