…
I0403 19:40:36.402796  9527 net.cpp:313] The NetState phase (1) differed from the phase (0) specified by a rule in layer data
I0403 19:40:36.403942  9527 net.cpp:49] Initializing net from parameters: 
state {
  phase: TEST
}
layer {
  name: "data"
  type: "Data"
  top: "data"
  top: "label"
  include {
    phase: TEST
  }
  transform_param {
    mirror: false
    crop_size: 224
    mean_file: "/home/mohanty/data/final_dataset/lmdb/color-60-40/mean.binaryproto"
  }
  data_param {
    source: "/home/mohanty/data/final_dataset/lmdb/color-60-40/test_db"
    batch_size: 24
    backend: LMDB
  }
}
layer {
  name: "conv1/7x7_s2"
  type: "Convolution"
  bottom: "data"
  top: "conv1/7x7_s2"
  param {
    lr_mult: 1
    decay_mult: 1
  }
  param {
    lr_mult: 2
    decay_mult: 0
  }
  convolution_param {
    num_output: 64
    pad: 3
    kernel_size: 7
    stride: 2
    weight_filler {
      type: "xavier"
      std: 0.1
    }
    bias_filler {
      type: "constant"
      value: 0.2
    }
  }
}
layer {
  name: "conv1/relu_7x7"
  type: "ReLU"
  bottom: "conv1/7x7_s2"
  top: "conv1/7x7_s2"
}
layer {
  name: "pool1/3x3_s2"
  type: "Pooling"
  bottom: "conv1/7x7_s2"
  top: "pool1/3x3_s2"
  pooling_param {
    pool: MAX
    kernel_size: 3
    stride: 2
  }
}
layer {
  name: "pool1/norm1"
  type: "LRN"
  bottom: "pool1/3x3_s2"
  top: "pool1/norm1"
  lrn_param {
    local_size: 5
    alpha: 0.0001
    beta: 0.75
  }
}
layer {
  name: "conv2/3x3_reduce"
  type: "Convolution"
  bottom: "pool1/norm1"
  top: "conv2/3x3_reduce"
  param {
    lr_mult: 1
    decay_mult: 1
  }
  param {
    lr_mult: 2
    decay_mult: 0
  }
  convolution_param {
    num_output: 64
    kernel_size: 1
    weight_filler {
      type: "xavier"
      std: 0.1
    }
    bias_filler {
      type: "constant"
      value: 0.2
    }
  }
}
layer {
  name: "conv2/relu_3x3_reduce"
  type: "ReLU"
  bottom: "conv2/3x3_reduce"
  top: "conv2/3x3_reduce"
}
layer {
  name: "conv2/3x3"
  type: "Convolution"
  bottom: "conv2/3x3_reduce"
  top: "conv2/3x3"
  param {
    lr_mult: 1
    decay_mult: 1
  }
  param {
    lr_mult: 2
    decay_mult: 0
  }
  convolution_param {
    num_output: 192
    pad: 1
    kernel_size: 3
    weight_filler {
      type: "xavier"
      std: 0.03
    }
    bias_filler {
      type: "constant"
      value: 0.2
    }
  }
}
layer {
  name: "conv2/relu_3x3"
  type: "ReLU"
  bottom: "conv2/3x3"
  top: "conv2/3x3"
}
layer {
  name: "conv2/norm2"
  type: "LRN"
  bottom: "conv2/3x3"
  top: "conv2/norm2"
  lrn_param {
    local_size: 5
    alpha: 0.0001
    beta: 0.75
  }
}
layer {
  name: "pool2/3x3_s2"
  type: "Pooling"
  bottom: "conv2/norm2"
  top: "pool2/3x3_s2"
  pooling_param {
    pool: MAX
    kernel_size: 3
    stride: 2
  }
}
layer {
  name: "inception_3a/1x1"
  type: "Convolution"
  bottom: "pool2/3x3_s2"
  top: "inception_3a/1x1"
  param {
    lr_mult: 1
    decay_mult: 1
  }
  param {
    lr_mult: 2
    decay_mult: 0
  }
  convolution_param {
    num_output: 64
    kernel_size: 1
    weight_filler {
      type: "xavier"
      std: 0.03
    }
    bias_filler {
      type: "constant"
      value: 0.2
    }
  }
}
layer {
  name: "inception_3a/relu_1x1"
  type: "ReLU"
  bottom: "inception_3a/1x1"
  top: "inception_3a/1x1"
}
layer {
  name: "inception_3a/3x3_reduce"
  type: "Convolution"
  bottom: "pool2/3x3_s2"
  top: "inception_3a/3x3_reduce"
  param {
    lr_mult: 1
    decay_mult: 1
  }
  param {
    lr_mult: 2
    decay_mult: 0
  }
  convolution_param {
    num_output: 96
    kernel_size: 1
    weight_filler {
      type: "xavier"
      std: 0.09
    }
    bias_filler {
      type: "constant"
      value: 0.2
    }
  }
}
layer {
  name: "inception_3a/relu_3x3_reduce"
  type: "ReLU"
  bottom: "inception_3a/3x3_reduce"
  top: "inception_3a/3x3_reduce"
}
layer {
  name: "inception_3a/3x3"
  type: "Convolution"
  bottom: "inception_3a/3x3_reduce"
  top: "inception_3a/3x3"
  param {
    lr_mult: 1
    decay_mult: 1
  }
  param {
    lr_mult: 2
    decay_mult: 0
  }
  convolution_param {
    num_output: 128
    pad: 1
    kernel_size: 3
    weight_filler {
      type: "xavier"
      std: 0.03
    }
    bias_filler {
      type: "constant"
      value: 0.2
    }
  }
}
layer {
  name: "inception_3a/relu_3x3"
  type: "ReLU"
  bottom: "inception_3a/3x3"
  top: "inception_3a/3x3"
}
layer {
  name: "inception_3a/5x5_reduce"
  type: "Convolution"
  bottom: "pool2/3x3_s2"
  top: "inception_3a/5x5_reduce"
  param {
    lr_mult: 1
    decay_mult: 1
  }
  param {
    lr_mult: 2
    decay_mult: 0
  }
  convolution_param {
    num_output: 16
    kernel_size: 1
    weight_filler {
      type: "xavier"
      std: 0.2
    }
    bias_filler {
      type: "constant"
      value: 0.2
    }
  }
}
layer {
  name: "inception_3a/relu_5x5_reduce"
  type: "ReLU"
  bottom: "inception_3a/5x5_reduce"
  top: "inception_3a/5x5_reduce"
}
layer {
  name: "inception_3a/5x5"
  type: "Convolution"
  bottom: "inception_3a/5x5_reduce"
  top: "inception_3a/5x5"
  param {
    lr_mult: 1
    decay_mult: 1
  }
  param {
    lr_mult: 2
    decay_mult: 0
  }
  convolution_param {
    num_output: 32
    pad: 2
    kernel_size: 5
    weight_filler {
      type: "xavier"
      std: 0.03
    }
    bias_filler {
      type: "constant"
      value: 0.2
    }
  }
}
layer {
  name: "inception_3a/relu_5x5"
  type: "ReLU"
  bottom: "inception_3a/5x5"
  top: "inception_3a/5x5"
}
layer {
  name: "inception_3a/pool"
  type: "Pooling"
  bottom: "pool2/3x3_s2"
  top: "inception_3a/pool"
  pooling_param {
    pool: MAX
    kernel_size: 3
    stride: 1
    pad: 1
  }
}
layer {
  name: "inception_3a/pool_proj"
  type: "Convolution"
  bottom: "inception_3a/pool"
  top: "inception_3a/pool_proj"
  param {
    lr_mult: 1
    decay_mult: 1
  }
  param {
    lr_mult: 2
    decay_mult: 0
  }
  convolution_param {
    num_output: 32
    kernel_size: 1
    weight_filler {
      type: "xavier"
      std: 0.1
    }
    bias_filler {
      type: "constant"
      value: 0.2
    }
  }
}
layer {
  name: "inception_3a/relu_pool_proj"
  type: "ReLU"
  bottom: "inception_3a/pool_proj"
  top: "inception_3a/pool_proj"
}
layer {
  name: "inception_3a/output"
  type: "Concat"
  bottom: "inception_3a/1x1"
  bottom: "inception_3a/3x3"
  bottom: "inception_3a/5x5"
  bottom: "inception_3a/pool_proj"
  top: "inception_3a/output"
}
layer {
  name: "inception_3b/1x1"
  type: "Convolution"
  bottom: "inception_3a/output"
  top: "inception_3b/1x1"
  param {
    lr_mult: 1
    decay_mult: 1
  }
  param {
    lr_mult: 2
    decay_mult: 0
  }
  convolution_param {
    num_output: 128
    kernel_size: 1
    weight_filler {
      type: "xavier"
      std: 0.03
    }
    bias_filler {
      type: "constant"
      value: 0.2
    }
  }
}
layer {
  name: "inception_3b/relu_1x1"
  type: "ReLU"
  bottom: "inception_3b/1x1"
  top: "inception_3b/1x1"
}
layer {
  name: "inception_3b/3x3_reduce"
  type: "Convolution"
  bottom: "inception_3a/output"
  top: "inception_3b/3x3_reduce"
  param {
    lr_mult: 1
    decay_mult: 1
  }
  param {
    lr_mult: 2
    decay_mult: 0
  }
  convolution_param {
    num_output: 128
    kernel_size: 1
    weight_filler {
      type: "xavier"
      std: 0.09
    }
    bias_filler {
      type: "constant"
      value: 0.2
    }
  }
}
layer {
  name: "inception_3b/relu_3x3_reduce"
  type: "ReLU"
  bottom: "inception_3b/3x3_reduce"
  top: "inception_3b/3x3_reduce"
}
layer {
  name: "inception_3b/3x3"
  type: "Convolution"
  bottom: "inception_3b/3x3_reduce"
  top: "inception_3b/3x3"
  param {
    lr_mult: 1
    decay_mult: 1
  }
  param {
    lr_mult: 2
    decay_mult: 0
  }
  convolution_param {
    num_output: 192
    pad: 1
    kernel_size: 3
    weight_filler {
      type: "xavier"
      std: 0.03
    }
    bias_filler {
      type: "constant"
      value: 0.2
    }
  }
}
layer {
  name: "inception_3b/relu_3x3"
  type: "ReLU"
  bottom: "inception_3b/3x3"
  top: "inception_3b/3x3"
}
layer {
  name: "inception_3b/5x5_reduce"
  type: "Convolution"
  bottom: "inception_3a/output"
  top: "inception_3b/5x5_reduce"
  param {
    lr_mult: 1
    decay_mult: 1
  }
  param {
    lr_mult: 2
    decay_mult: 0
  }
  convolution_param {
    num_output: 32
    kernel_size: 1
    weight_filler {
      type: "xavier"
      std: 0.2
    }
    bias_filler {
      type: "constant"
      value: 0.2
    }
  }
}
layer {
  name: "inception_3b/relu_5x5_reduce"
  type: "ReLU"
  bottom: "inception_3b/5x5_reduce"
  top: "inception_3b/5x5_reduce"
}
layer {
  name: "inception_3b/5x5"
  type: "Convolution"
  bottom: "inception_3b/5x5_reduce"
  top: "inception_3b/5x5"
  param {
    lr_mult: 1
    decay_mult: 1
  }
  param {
    lr_mult: 2
    decay_mult: 0
  }
  convolution_param {
    num_output: 96
    pad: 2
    kernel_size: 5
    weight_filler {
      type: "xavier"
      std: 0.03
    }
    bias_filler {
      type: "constant"
      value: 0.2
    }
  }
}
layer {
  name: "inception_3b/relu_5x5"
  type: "ReLU"
  bottom: "inception_3b/5x5"
  top: "inception_3b/5x5"
}
layer {
  name: "inception_3b/pool"
  type: "Pooling"
  bottom: "inception_3a/output"
  top: "inception_3b/pool"
  pooling_param {
    pool: MAX
    kernel_size: 3
    stride: 1
    pad: 1
  }
}
layer {
  name: "inception_3b/pool_proj"
  type: "Convolution"
  bottom: "inception_3b/pool"
  top: "inception_3b/pool_proj"
  param {
    lr_mult: 1
    decay_mult: 1
  }
  param {
    lr_mult: 2
    decay_mult: 0
  }
  convolution_param {
    num_output: 64
    kernel_size: 1
    weight_filler {
      type: "xavier"
      std: 0.1
    }
    bias_filler {
      type: "constant"
      value: 0.2
    }
  }
}
layer {
  name: "inception_3b/relu_pool_proj"
  type: "ReLU"
  bottom: "inception_3b/pool_proj"
  top: "inception_3b/pool_proj"
}
layer {
  name: "inception_3b/output"
  type: "Concat"
  bottom: "inception_3b/1x1"
  bottom: "inception_3b/3x3"
  bottom: "inception_3b/5x5"
  bottom: "inception_3b/pool_proj"
  top: "inception_3b/output"
}
layer {
  name: "pool3/3x3_s2"
  type: "Pooling"
  bottom: "inception_3b/output"
  top: "pool3/3x3_s2"
  pooling_param {
    pool: MAX
    kernel_size: 3
    stride: 2
  }
}
layer {
  name: "inception_4a/1x1"
  type: "Convolution"
  bottom: "pool3/3x3_s2"
  top: "inception_4a/1x1"
  param {
    lr_mult: 1
    decay_mult: 1
  }
  param {
    lr_mult: 2
    decay_mult: 0
  }
  convolution_param {
    num_output: 192
    kernel_size: 1
    weight_filler {
      type: "xavier"
      std: 0.03
    }
    bias_filler {
      type: "constant"
      value: 0.2
    }
  }
}
layer {
  name: "inception_4a/relu_1x1"
  type: "ReLU"
  bottom: "inception_4a/1x1"
  top: "inception_4a/1x1"
}
layer {
  name: "inception_4a/3x3_reduce"
  type: "Convolution"
  bottom: "pool3/3x3_s2"
  top: "inception_4a/3x3_reduce"
  param {
    lr_mult: 1
    decay_mult: 1
  }
  param {
    lr_mult: 2
    decay_mult: 0
  }
  convolution_param {
    num_output: 96
    kernel_size: 1
    weight_filler {
      type: "xavier"
      std: 0.09
    }
    bias_filler {
      type: "constant"
      value: 0.2
    }
  }
}
layer {
  name: "inception_4a/relu_3x3_reduce"
  type: "ReLU"
  bottom: "inception_4a/3x3_reduce"
  top: "inception_4a/3x3_reduce"
}
layer {
  name: "inception_4a/3x3"
  type: "Convolution"
  bottom: "inception_4a/3x3_reduce"
  top: "inception_4a/3x3"
  param {
    lr_mult: 1
    decay_mult: 1
  }
  param {
    lr_mult: 2
    decay_mult: 0
  }
  convolution_param {
    num_output: 208
    pad: 1
    kernel_size: 3
    weight_filler {
      type: "xavier"
      std: 0.03
    }
    bias_filler {
      type: "constant"
      value: 0.2
    }
  }
}
layer {
  name: "inception_4a/relu_3x3"
  type: "ReLU"
  bottom: "inception_4a/3x3"
  top: "inception_4a/3x3"
}
layer {
  name: "inception_4a/5x5_reduce"
  type: "Convolution"
  bottom: "pool3/3x3_s2"
  top: "inception_4a/5x5_reduce"
  param {
    lr_mult: 1
    decay_mult: 1
  }
  param {
    lr_mult: 2
    decay_mult: 0
  }
  convolution_param {
    num_output: 16
    kernel_size: 1
    weight_filler {
      type: "xavier"
      std: 0.2
    }
    bias_filler {
      type: "constant"
      value: 0.2
    }
  }
}
layer {
  name: "inception_4a/relu_5x5_reduce"
  type: "ReLU"
  bottom: "inception_4a/5x5_reduce"
  top: "inception_4a/5x5_reduce"
}
layer {
  name: "inception_4a/5x5"
  type: "Convolution"
  bottom: "inception_4a/5x5_reduce"
  top: "inception_4a/5x5"
  param {
    lr_mult: 1
    decay_mult: 1
  }
  param {
    lr_mult: 2
    decay_mult: 0
  }
  convolution_param {
    num_output: 48
    pad: 2
    kernel_size: 5
    weight_filler {
      type: "xavier"
      std: 0.03
    }
    bias_filler {
      type: "constant"
      value: 0.2
    }
  }
}
layer {
  name: "inception_4a/relu_5x5"
  type: "ReLU"
  bottom: "inception_4a/5x5"
  top: "inception_4a/5x5"
}
layer {
  name: "inception_4a/pool"
  type: "Pooling"
  bottom: "pool3/3x3_s2"
  top: "inception_4a/pool"
  pooling_param {
    pool: MAX
    kernel_size: 3
    stride: 1
    pad: 1
  }
}
layer {
  name: "inception_4a/pool_proj"
  type: "Convolution"
  bottom: "inception_4a/pool"
  top: "inception_4a/pool_proj"
  param {
    lr_mult: 1
    decay_mult: 1
  }
  param {
    lr_mult: 2
    decay_mult: 0
  }
  convolution_param {
    num_output: 64
    kernel_size: 1
    weight_filler {
      type: "xavier"
      std: 0.1
    }
    bias_filler {
      type: "constant"
      value: 0.2
    }
  }
}
layer {
  name: "inception_4a/relu_pool_proj"
  type: "ReLU"
  bottom: "inception_4a/pool_proj"
  top: "inception_4a/pool_proj"
}
layer {
  name: "inception_4a/output"
  type: "Concat"
  bottom: "inception_4a/1x1"
  bottom: "inception_4a/3x3"
  bottom: "inception_4a/5x5"
  bottom: "inception_4a/pool_proj"
  top: "inception_4a/output"
}
layer {
  name: "loss1/ave_pool"
  type: "Pooling"
  bottom: "inception_4a/output"
  top: "loss1/ave_pool"
  pooling_param {
    pool: AVE
    kernel_size: 5
    stride: 3
  }
}
layer {
  name: "loss1/conv"
  type: "Convolution"
  bottom: "loss1/ave_pool"
  top: "loss1/conv"
  param {
    lr_mult: 1
    decay_mult: 1
  }
  param {
    lr_mult: 2
    decay_mult: 0
  }
  convolution_param {
    num_output: 128
    kernel_size: 1
    weight_filler {
      type: "xavier"
      std: 0.08
    }
    bias_filler {
      type: "constant"
      value: 0.2
    }
  }
}
layer {
  name: "loss1/relu_conv"
  type: "ReLU"
  bottom: "loss1/conv"
  top: "loss1/conv"
}
layer {
  name: "loss1/fc"
  type: "InnerProduct"
  bottom: "loss1/conv"
  top: "loss1/fc"
  param {
    lr_mult: 1
    decay_mult: 1
  }
  param {
    lr_mult: 2
    decay_mult: 0
  }
  inner_product_param {
    num_output: 1024
    weight_filler {
      type: "xavier"
      std: 0.02
    }
    bias_filler {
      type: "constant"
      value: 0.2
    }
  }
}
layer {
  name: "loss1/relu_fc"
  type: "ReLU"
  bottom: "loss1/fc"
  top: "loss1/fc"
}
layer {
  name: "loss1/drop_fc"
  type: "Dropout"
  bottom: "loss1/fc"
  top: "loss1/fc"
  dropout_param {
    dropout_ratio: 0.7
  }
}
layer {
  name: "loss1/classifier_plantvillage"
  type: "InnerProduct"
  bottom: "loss1/fc"
  top: "loss1/classifier_plantvillage"
  param {
    lr_mult: 1
    decay_mult: 1
  }
  param {
    lr_mult: 2
    decay_mult: 0
  }
  inner_product_param {
    num_output: 38
    weight_filler {
      type: "xavier"
      std: 0.0009765625
    }
    bias_filler {
      type: "constant"
      value: 0
    }
  }
}
layer {
  name: "inception_4b/1x1"
  type: "Convolution"
  bottom: "inception_4a/output"
  top: "inception_4b/1x1"
  param {
    lr_mult: 1
    decay_mult: 1
  }
  param {
    lr_mult: 2
    decay_mult: 0
  }
  convolution_param {
    num_output: 160
    kernel_size: 1
    weight_filler {
      type: "xavier"
      std: 0.03
    }
    bias_filler {
      type: "constant"
      value: 0.2
    }
  }
}
layer {
  name: "inception_4b/relu_1x1"
  type: "ReLU"
  bottom: "inception_4b/1x1"
  top: "inception_4b/1x1"
}
layer {
  name: "inception_4b/3x3_reduce"
  type: "Convolution"
  bottom: "inception_4a/output"
  top: "inception_4b/3x3_reduce"
  param {
    lr_mult: 1
    decay_mult: 1
  }
  param {
    lr_mult: 2
    decay_mult: 0
  }
  convolution_param {
    num_output: 112
    kernel_size: 1
    weight_filler {
      type: "xavier"
      std: 0.09
    }
    bias_filler {
      type: "constant"
      value: 0.2
    }
  }
}
layer {
  name: "inception_4b/relu_3x3_reduce"
  type: "ReLU"
  bottom: "inception_4b/3x3_reduce"
  top: "inception_4b/3x3_reduce"
}
layer {
  name: "inception_4b/3x3"
  type: "Convolution"
  bottom: "inception_4b/3x3_reduce"
  top: "inception_4b/3x3"
  param {
    lr_mult: 1
    decay_mult: 1
  }
  param {
    lr_mult: 2
    decay_mult: 0
  }
  convolution_param {
    num_output: 224
    pad: 1
    kernel_size: 3
    weight_filler {
      type: "xavier"
      std: 0.03
    }
    bias_filler {
      type: "constant"
      value: 0.2
    }
  }
}
layer {
  name: "inception_4b/relu_3x3"
  type: "ReLU"
  bottom: "inception_4b/3x3"
  top: "inception_4b/3x3"
}
layer {
  name: "inception_4b/5x5_reduce"
  type: "Convolution"
  bottom: "inception_4a/output"
  top: "inception_4b/5x5_reduce"
  param {
    lr_mult: 1
    decay_mult: 1
  }
  param {
    lr_mult: 2
    decay_mult: 0
  }
  convolution_param {
    num_output: 24
    kernel_size: 1
    weight_filler {
      type: "xavier"
      std: 0.2
    }
    bias_filler {
      type: "constant"
      value: 0.2
    }
  }
}
layer {
  name: "inception_4b/relu_5x5_reduce"
  type: "ReLU"
  bottom: "inception_4b/5x5_reduce"
  top: "inception_4b/5x5_reduce"
}
layer {
  name: "inception_4b/5x5"
  type: "Convolution"
  bottom: "inception_4b/5x5_reduce"
  top: "inception_4b/5x5"
  param {
    lr_mult: 1
    decay_mult: 1
  }
  param {
    lr_mult: 2
    decay_mult: 0
  }
  convolution_param {
    num_output: 64
    pad: 2
    kernel_size: 5
    weight_filler {
      type: "xavier"
      std: 0.03
    }
    bias_filler {
      type: "constant"
      value: 0.2
    }
  }
}
layer {
  name: "inception_4b/relu_5x5"
  type: "ReLU"
  bottom: "inception_4b/5x5"
  top: "inception_4b/5x5"
}
layer {
  name: "inception_4b/pool"
  type: "Pooling"
  bottom: "inception_4a/output"
  top: "inception_4b/pool"
  pooling_param {
    pool: MAX
    kernel_size: 3
    stride: 1
    pad: 1
  }
}
layer {
  name: "inception_4b/pool_proj"
  type: "Convolution"
  bottom: "inception_4b/pool"
  top: "inception_4b/pool_proj"
  param {
    lr_mult: 1
    decay_mult: 1
  }
  param {
    lr_mult: 2
    decay_mult: 0
  }
  convolution_param {
    num_output: 64
    kernel_size: 1
    weight_filler {
      type: "xavier"
      std: 0.1
    }
    bias_filler {
      type: "constant"
      value: 0.2
    }
  }
}
layer {
  name: "inception_4b/relu_pool_proj"
  type: "ReLU"
  bottom: "inception_4b/pool_proj"
  top: "inception_4b/pool_proj"
}
layer {
  name: "inception_4b/output"
  type: "Concat"
  bottom: "inception_4b/1x1"
  bottom: "inception_4b/3x3"
  bottom: "inception_4b/5x5"
  bottom: "inception_4b/pool_proj"
  top: "inception_4b/output"
}
layer {
  name: "inception_4c/1x1"
  type: "Convolution"
  bottom: "inception_4b/output"
  top: "inception_4c/1x1"
  param {
    lr_mult: 1
    decay_mult: 1
  }
  param {
    lr_mult: 2
    decay_mult: 0
  }
  convolution_param {
    num_output: 128
    kernel_size: 1
    weight_filler {
      type: "xavier"
      std: 0.03
    }
    bias_filler {
      type: "constant"
      value: 0.2
    }
  }
}
layer {
  name: "inception_4c/relu_1x1"
  type: "ReLU"
  bottom: "inception_4c/1x1"
  top: "inception_4c/1x1"
}
layer {
  name: "inception_4c/3x3_reduce"
  type: "Convolution"
  bottom: "inception_4b/output"
  top: "inception_4c/3x3_reduce"
  param {
    lr_mult: 1
    decay_mult: 1
  }
  param {
    lr_mult: 2
    decay_mult: 0
  }
  convolution_param {
    num_output: 128
    kernel_size: 1
    weight_filler {
      type: "xavier"
      std: 0.09
    }
    bias_filler {
      type: "constant"
      value: 0.2
    }
  }
}
layer {
  name: "inception_4c/relu_3x3_reduce"
  type: "ReLU"
  bottom: "inception_4c/3x3_reduce"
  top: "inception_4c/3x3_reduce"
}
layer {
  name: "inception_4c/3x3"
  type: "Convolution"
  bottom: "inception_4c/3x3_reduce"
  top: "inception_4c/3x3"
  param {
    lr_mult: 1
    decay_mult: 1
  }
  param {
    lr_mult: 2
    decay_mult: 0
  }
  convolution_param {
    num_output: 256
    pad: 1
    kernel_size: 3
    weight_filler {
      type: "xavier"
      std: 0.03
    }
    bias_filler {
      type: "constant"
      value: 0.2
    }
  }
}
layer {
  name: "inception_4c/relu_3x3"
  type: "ReLU"
  bottom: "inception_4c/3x3"
  top: "inception_4c/3x3"
}
layer {
  name: "inception_4c/5x5_reduce"
  type: "Convolution"
  bottom: "inception_4b/output"
  top: "inception_4c/5x5_reduce"
  param {
    lr_mult: 1
    decay_mult: 1
  }
  param {
    lr_mult: 2
    decay_mult: 0
  }
  convolution_param {
    num_output: 24
    kernel_size: 1
    weight_filler {
      type: "xavier"
      std: 0.2
    }
    bias_filler {
      type: "constant"
      value: 0.2
    }
  }
}
layer {
  name: "inception_4c/relu_5x5_reduce"
  type: "ReLU"
  bottom: "inception_4c/5x5_reduce"
  top: "inception_4c/5x5_reduce"
}
layer {
  name: "inception_4c/5x5"
  type: "Convolution"
  bottom: "inception_4c/5x5_reduce"
  top: "inception_4c/5x5"
  param {
    lr_mult: 1
    decay_mult: 1
  }
  param {
    lr_mult: 2
    decay_mult: 0
  }
  convolution_param {
    num_output: 64
    pad: 2
    kernel_size: 5
    weight_filler {
      type: "xavier"
      std: 0.03
    }
    bias_filler {
      type: "constant"
      value: 0.2
    }
  }
}
layer {
  name: "inception_4c/relu_5x5"
  type: "ReLU"
  bottom: "inception_4c/5x5"
  top: "inception_4c/5x5"
}
layer {
  name: "inception_4c/pool"
  type: "Pooling"
  bottom: "inception_4b/output"
  top: "inception_4c/pool"
  pooling_param {
    pool: MAX
    kernel_size: 3
    stride: 1
    pad: 1
  }
}
layer {
  name: "inception_4c/pool_proj"
  type: "Convolution"
  bottom: "inception_4c/pool"
  top: "inception_4c/pool_proj"
  param {
    lr_mult: 1
    decay_mult: 1
  }
  param {
    lr_mult: 2
    decay_mult: 0
  }
  convolution_param {
    num_output: 64
    kernel_size: 1
    weight_filler {
      type: "xavier"
      std: 0.1
    }
    bias_filler {
      type: "constant"
      value: 0.2
    }
  }
}
layer {
  name: "inception_4c/relu_pool_proj"
  type: "ReLU"
  bottom: "inception_4c/pool_proj"
  top: "inception_4c/pool_proj"
}
layer {
  name: "inception_4c/output"
  type: "Concat"
  bottom: "inception_4c/1x1"
  bottom: "inception_4c/3x3"
  bottom: "inception_4c/5x5"
  bottom: "inception_4c/pool_proj"
  top: "inception_4c/output"
}
layer {
  name: "inception_4d/1x1"
  type: "Convolution"
  bottom: "inception_4c/output"
  top: "inception_4d/1x1"
  param {
    lr_mult: 1
    decay_mult: 1
  }
  param {
    lr_mult: 2
    decay_mult: 0
  }
  convolution_param {
    num_output: 112
    kernel_size: 1
    weight_filler {
      type: "xavier"
      std: 0.03
    }
    bias_filler {
      type: "constant"
      value: 0.2
    }
  }
}
layer {
  name: "inception_4d/relu_1x1"
  type: "ReLU"
  bottom: "inception_4d/1x1"
  top: "inception_4d/1x1"
}
layer {
  name: "inception_4d/3x3_reduce"
  type: "Convolution"
  bottom: "inception_4c/output"
  top: "inception_4d/3x3_reduce"
  param {
    lr_mult: 1
    decay_mult: 1
  }
  param {
    lr_mult: 2
    decay_mult: 0
  }
  convolution_param {
    num_output: 144
    kernel_size: 1
    weight_filler {
      type: "xavier"
      std: 0.09
    }
    bias_filler {
      type: "constant"
      value: 0.2
    }
  }
}
layer {
  name: "inception_4d/relu_3x3_reduce"
  type: "ReLU"
  bottom: "inception_4d/3x3_reduce"
  top: "inception_4d/3x3_reduce"
}
layer {
  name: "inception_4d/3x3"
  type: "Convolution"
  bottom: "inception_4d/3x3_reduce"
  top: "inception_4d/3x3"
  param {
    lr_mult: 1
    decay_mult: 1
  }
  param {
    lr_mult: 2
    decay_mult: 0
  }
  convolution_param {
    num_output: 288
    pad: 1
    kernel_size: 3
    weight_filler {
      type: "xavier"
      std: 0.03
    }
    bias_filler {
      type: "constant"
      value: 0.2
    }
  }
}
layer {
  name: "inception_4d/relu_3x3"
  type: "ReLU"
  bottom: "inception_4d/3x3"
  top: "inception_4d/3x3"
}
layer {
  name: "inception_4d/5x5_reduce"
  type: "Convolution"
  bottom: "inception_4c/output"
  top: "inception_4d/5x5_reduce"
  param {
    lr_mult: 1
    decay_mult: 1
  }
  param {
    lr_mult: 2
    decay_mult: 0
  }
  convolution_param {
    num_output: 32
    kernel_size: 1
    weight_filler {
      type: "xavier"
      std: 0.2
    }
    bias_filler {
      type: "constant"
      value: 0.2
    }
  }
}
layer {
  name: "inception_4d/relu_5x5_reduce"
  type: "ReLU"
  bottom: "inception_4d/5x5_reduce"
  top: "inception_4d/5x5_reduce"
}
layer {
  name: "inception_4d/5x5"
  type: "Convolution"
  bottom: "inception_4d/5x5_reduce"
  top: "inception_4d/5x5"
  param {
    lr_mult: 1
    decay_mult: 1
  }
  param {
    lr_mult: 2
    decay_mult: 0
  }
  convolution_param {
    num_output: 64
    pad: 2
    kernel_size: 5
    weight_filler {
      type: "xavier"
      std: 0.03
    }
    bias_filler {
      type: "constant"
      value: 0.2
    }
  }
}
layer {
  name: "inception_4d/relu_5x5"
  type: "ReLU"
  bottom: "inception_4d/5x5"
  top: "inception_4d/5x5"
}
layer {
  name: "inception_4d/pool"
  type: "Pooling"
  bottom: "inception_4c/output"
  top: "inception_4d/pool"
  pooling_param {
    pool: MAX
    kernel_size: 3
    stride: 1
    pad: 1
  }
}
layer {
  name: "inception_4d/pool_proj"
  type: "Convolution"
  bottom: "inception_4d/pool"
  top: "inception_4d/pool_proj"
  param {
    lr_mult: 1
    decay_mult: 1
  }
  param {
    lr_mult: 2
    decay_mult: 0
  }
  convolution_param {
    num_output: 64
    kernel_size: 1
    weight_filler {
      type: "xavier"
      std: 0.1
    }
    bias_filler {
      type: "constant"
      value: 0.2
    }
  }
}
layer {
  name: "inception_4d/relu_pool_proj"
  type: "ReLU"
  bottom: "inception_4d/pool_proj"
  top: "inception_4d/pool_proj"
}
layer {
  name: "inception_4d/output"
  type: "Concat"
  bottom: "inception_4d/1x1"
  bottom: "inception_4d/3x3"
  bottom: "inception_4d/5x5"
  bottom: "inception_4d/pool_proj"
  top: "inception_4d/output"
}
layer {
  name: "loss2/ave_pool"
  type: "Pooling"
  bottom: "inception_4d/output"
  top: "loss2/ave_pool"
  pooling_param {
    pool: AVE
    kernel_size: 5
    stride: 3
  }
}
layer {
  name: "loss2/conv"
  type: "Convolution"
  bottom: "loss2/ave_pool"
  top: "loss2/conv"
  param {
    lr_mult: 1
    decay_mult: 1
  }
  param {
    lr_mult: 2
    decay_mult: 0
  }
  convolution_param {
    num_output: 128
    kernel_size: 1
    weight_filler {
      type: "xavier"
      std: 0.08
    }
    bias_filler {
      type: "constant"
      value: 0.2
    }
  }
}
layer {
  name: "loss2/relu_conv"
  type: "ReLU"
  bottom: "loss2/conv"
  top: "loss2/conv"
}
layer {
  name: "loss2/fc"
  type: "InnerProduct"
  bottom: "loss2/conv"
  top: "loss2/fc"
  param {
    lr_mult: 1
    decay_mult: 1
  }
  param {
    lr_mult: 2
    decay_mult: 0
  }
  inner_product_param {
    num_output: 1024
    weight_filler {
      type: "xavier"
      std: 0.02
    }
    bias_filler {
      type: "constant"
      value: 0.2
    }
  }
}
layer {
  name: "loss2/relu_fc"
  type: "ReLU"
  bottom: "loss2/fc"
  top: "loss2/fc"
}
layer {
  name: "loss2/drop_fc"
  type: "Dropout"
  bottom: "loss2/fc"
  top: "loss2/fc"
  dropout_param {
    dropout_ratio: 0.7
  }
}
layer {
  name: "loss2/classifier_plantvillage"
  type: "InnerProduct"
  bottom: "loss2/fc"
  top: "loss2/classifier_plantvillage"
  param {
    lr_mult: 1
    decay_mult: 1
  }
  param {
    lr_mult: 2
    decay_mult: 0
  }
  inner_product_param {
    num_output: 38
    weight_filler {
      type: "xavier"
      std: 0.0009765625
    }
    bias_filler {
      type: "constant"
      value: 0
    }
  }
}
layer {
  name: "inception_4e/1x1"
  type: "Convolution"
  bottom: "inception_4d/output"
  top: "inception_4e/1x1"
  param {
    lr_mult: 1
    decay_mult: 1
  }
  param {
    lr_mult: 2
    decay_mult: 0
  }
  convolution_param {
    num_output: 256
    kernel_size: 1
    weight_filler {
      type: "xavier"
      std: 0.03
    }
    bias_filler {
      type: "constant"
      value: 0.2
    }
  }
}
layer {
  name: "inception_4e/relu_1x1"
  type: "ReLU"
  bottom: "inception_4e/1x1"
  top: "inception_4e/1x1"
}
layer {
  name: "inception_4e/3x3_reduce"
  type: "Convolution"
  bottom: "inception_4d/output"
  top: "inception_4e/3x3_reduce"
  param {
    lr_mult: 1
    decay_mult: 1
  }
  param {
    lr_mult: 2
    decay_mult: 0
  }
  convolution_param {
    num_output: 160
    kernel_size: 1
    weight_filler {
      type: "xavier"
      std: 0.09
    }
    bias_filler {
      type: "constant"
      value: 0.2
    }
  }
}
layer {
  name: "inception_4e/relu_3x3_reduce"
  type: "ReLU"
  bottom: "inception_4e/3x3_reduce"
  top: "inception_4e/3x3_reduce"
}
layer {
  name: "inception_4e/3x3"
  type: "Convolution"
  bottom: "inception_4e/3x3_reduce"
  top: "inception_4e/3x3"
  param {
    lr_mult: 1
    decay_mult: 1
  }
  param {
    lr_mult: 2
    decay_mult: 0
  }
  convolution_param {
    num_output: 320
    pad: 1
    kernel_size: 3
    weight_filler {
      type: "xavier"
      std: 0.03
    }
    bias_filler {
      type: "constant"
      value: 0.2
    }
  }
}
layer {
  name: "inception_4e/relu_3x3"
  type: "ReLU"
  bottom: "inception_4e/3x3"
  top: "inception_4e/3x3"
}
layer {
  name: "inception_4e/5x5_reduce"
  type: "Convolution"
  bottom: "inception_4d/output"
  top: "inception_4e/5x5_reduce"
  param {
    lr_mult: 1
    decay_mult: 1
  }
  param {
    lr_mult: 2
    decay_mult: 0
  }
  convolution_param {
    num_output: 32
    kernel_size: 1
    weight_filler {
      type: "xavier"
      std: 0.2
    }
    bias_filler {
      type: "constant"
      value: 0.2
    }
  }
}
layer {
  name: "inception_4e/relu_5x5_reduce"
  type: "ReLU"
  bottom: "inception_4e/5x5_reduce"
  top: "inception_4e/5x5_reduce"
}
layer {
  name: "inception_4e/5x5"
  type: "Convolution"
  bottom: "inception_4e/5x5_reduce"
  top: "inception_4e/5x5"
  p
I0403 19:40:36.405668  9527 layer_factory.hpp:77] Creating layer data
I0403 19:40:36.406268  9527 net.cpp:91] Creating Layer data
I0403 19:40:36.406298  9527 net.cpp:399] data -> data
I0403 19:40:36.406360  9527 net.cpp:399] data -> label
I0403 19:40:36.406399  9527 data_transformer.cpp:25] Loading mean file from: /home/mohanty/data/final_dataset/lmdb/color-60-40/mean.binaryproto
I0403 19:40:36.407609  9529 db_lmdb.cpp:38] Opened lmdb /home/mohanty/data/final_dataset/lmdb/color-60-40/test_db
I0403 19:40:36.419505  9527 data_layer.cpp:41] output data size: 24,3,224,224
I0403 19:40:36.446022  9527 net.cpp:141] Setting up data
I0403 19:40:36.446105  9527 net.cpp:148] Top shape: 24 3 224 224 (3612672)
I0403 19:40:36.446126  9527 net.cpp:148] Top shape: 24 (24)
I0403 19:40:36.446143  9527 net.cpp:156] Memory required for data: 14450784
I0403 19:40:36.446173  9527 layer_factory.hpp:77] Creating layer label_data_1_split
I0403 19:40:36.446203  9527 net.cpp:91] Creating Layer label_data_1_split
I0403 19:40:36.446221  9527 net.cpp:425] label_data_1_split <- label
I0403 19:40:36.446255  9527 net.cpp:399] label_data_1_split -> label_data_1_split_0
I0403 19:40:36.446285  9527 net.cpp:399] label_data_1_split -> label_data_1_split_1
I0403 19:40:36.446308  9527 net.cpp:399] label_data_1_split -> label_data_1_split_2
I0403 19:40:36.446329  9527 net.cpp:399] label_data_1_split -> label_data_1_split_3
I0403 19:40:36.446348  9527 net.cpp:399] label_data_1_split -> label_data_1_split_4
I0403 19:40:36.446367  9527 net.cpp:399] label_data_1_split -> label_data_1_split_5
I0403 19:40:36.446387  9527 net.cpp:399] label_data_1_split -> label_data_1_split_6
I0403 19:40:36.446408  9527 net.cpp:399] label_data_1_split -> label_data_1_split_7
I0403 19:40:36.446429  9527 net.cpp:399] label_data_1_split -> label_data_1_split_8
I0403 19:40:36.446449  9527 net.cpp:399] label_data_1_split -> label_data_1_split_9
I0403 19:40:36.446565  9527 net.cpp:141] Setting up label_data_1_split
I0403 19:40:36.446589  9527 net.cpp:148] Top shape: 24 (24)
I0403 19:40:36.446607  9527 net.cpp:148] Top shape: 24 (24)
I0403 19:40:36.446622  9527 net.cpp:148] Top shape: 24 (24)
I0403 19:40:36.446638  9527 net.cpp:148] Top shape: 24 (24)
I0403 19:40:36.446653  9527 net.cpp:148] Top shape: 24 (24)
I0403 19:40:36.446669  9527 net.cpp:148] Top shape: 24 (24)
I0403 19:40:36.446684  9527 net.cpp:148] Top shape: 24 (24)
I0403 19:40:36.446701  9527 net.cpp:148] Top shape: 24 (24)
I0403 19:40:36.446715  9527 net.cpp:148] Top shape: 24 (24)
I0403 19:40:36.446732  9527 net.cpp:148] Top shape: 24 (24)
I0403 19:40:36.446784  9527 net.cpp:156] Memory required for data: 14451744
I0403 19:40:36.446801  9527 layer_factory.hpp:77] Creating layer conv1/7x7_s2
I0403 19:40:36.446836  9527 net.cpp:91] Creating Layer conv1/7x7_s2
I0403 19:40:36.446856  9527 net.cpp:425] conv1/7x7_s2 <- data
I0403 19:40:36.446874  9527 net.cpp:399] conv1/7x7_s2 -> conv1/7x7_s2
I0403 19:40:36.583168  9527 net.cpp:141] Setting up conv1/7x7_s2
I0403 19:40:36.583250  9527 net.cpp:148] Top shape: 24 64 112 112 (19267584)
I0403 19:40:36.583268  9527 net.cpp:156] Memory required for data: 91522080
I0403 19:40:36.583302  9527 layer_factory.hpp:77] Creating layer conv1/relu_7x7
I0403 19:40:36.583329  9527 net.cpp:91] Creating Layer conv1/relu_7x7
I0403 19:40:36.583349  9527 net.cpp:425] conv1/relu_7x7 <- conv1/7x7_s2
I0403 19:40:36.583367  9527 net.cpp:386] conv1/relu_7x7 -> conv1/7x7_s2 (in-place)
I0403 19:40:36.583619  9527 net.cpp:141] Setting up conv1/relu_7x7
I0403 19:40:36.583647  9527 net.cpp:148] Top shape: 24 64 112 112 (19267584)
I0403 19:40:36.583662  9527 net.cpp:156] Memory required for data: 168592416
I0403 19:40:36.583676  9527 layer_factory.hpp:77] Creating layer pool1/3x3_s2
I0403 19:40:36.583703  9527 net.cpp:91] Creating Layer pool1/3x3_s2
I0403 19:40:36.583720  9527 net.cpp:425] pool1/3x3_s2 <- conv1/7x7_s2
I0403 19:40:36.583739  9527 net.cpp:399] pool1/3x3_s2 -> pool1/3x3_s2
I0403 19:40:36.583816  9527 net.cpp:141] Setting up pool1/3x3_s2
I0403 19:40:36.583840  9527 net.cpp:148] Top shape: 24 64 56 56 (4816896)
I0403 19:40:36.583855  9527 net.cpp:156] Memory required for data: 187860000
I0403 19:40:36.583869  9527 layer_factory.hpp:77] Creating layer pool1/norm1
I0403 19:40:36.583894  9527 net.cpp:91] Creating Layer pool1/norm1
I0403 19:40:36.583911  9527 net.cpp:425] pool1/norm1 <- pool1/3x3_s2
I0403 19:40:36.583930  9527 net.cpp:399] pool1/norm1 -> pool1/norm1
I0403 19:40:36.584203  9527 net.cpp:141] Setting up pool1/norm1
I0403 19:40:36.584231  9527 net.cpp:148] Top shape: 24 64 56 56 (4816896)
I0403 19:40:36.584246  9527 net.cpp:156] Memory required for data: 207127584
I0403 19:40:36.584261  9527 layer_factory.hpp:77] Creating layer conv2/3x3_reduce
I0403 19:40:36.584287  9527 net.cpp:91] Creating Layer conv2/3x3_reduce
I0403 19:40:36.584305  9527 net.cpp:425] conv2/3x3_reduce <- pool1/norm1
I0403 19:40:36.584321  9527 net.cpp:399] conv2/3x3_reduce -> conv2/3x3_reduce
I0403 19:40:36.585690  9527 net.cpp:141] Setting up conv2/3x3_reduce
I0403 19:40:36.585719  9527 net.cpp:148] Top shape: 24 64 56 56 (4816896)
I0403 19:40:36.585734  9527 net.cpp:156] Memory required for data: 226395168
I0403 19:40:36.585759  9527 layer_factory.hpp:77] Creating layer conv2/relu_3x3_reduce
I0403 19:40:36.585779  9527 net.cpp:91] Creating Layer conv2/relu_3x3_reduce
I0403 19:40:36.585795  9527 net.cpp:425] conv2/relu_3x3_reduce <- conv2/3x3_reduce
I0403 19:40:36.585813  9527 net.cpp:386] conv2/relu_3x3_reduce -> conv2/3x3_reduce (in-place)
I0403 19:40:36.586069  9527 net.cpp:141] Setting up conv2/relu_3x3_reduce
I0403 19:40:36.586096  9527 net.cpp:148] Top shape: 24 64 56 56 (4816896)
I0403 19:40:36.586109  9527 net.cpp:156] Memory required for data: 245662752
I0403 19:40:36.586125  9527 layer_factory.hpp:77] Creating layer conv2/3x3
I0403 19:40:36.586150  9527 net.cpp:91] Creating Layer conv2/3x3
I0403 19:40:36.586169  9527 net.cpp:425] conv2/3x3 <- conv2/3x3_reduce
I0403 19:40:36.586191  9527 net.cpp:399] conv2/3x3 -> conv2/3x3
I0403 19:40:36.588512  9527 net.cpp:141] Setting up conv2/3x3
I0403 19:40:36.588541  9527 net.cpp:148] Top shape: 24 192 56 56 (14450688)
I0403 19:40:36.588557  9527 net.cpp:156] Memory required for data: 303465504
I0403 19:40:36.588580  9527 layer_factory.hpp:77] Creating layer conv2/relu_3x3
I0403 19:40:36.588599  9527 net.cpp:91] Creating Layer conv2/relu_3x3
I0403 19:40:36.588614  9527 net.cpp:425] conv2/relu_3x3 <- conv2/3x3
I0403 19:40:36.588630  9527 net.cpp:386] conv2/relu_3x3 -> conv2/3x3 (in-place)
I0403 19:40:36.588793  9527 net.cpp:141] Setting up conv2/relu_3x3
I0403 19:40:36.588820  9527 net.cpp:148] Top shape: 24 192 56 56 (14450688)
I0403 19:40:36.588872  9527 net.cpp:156] Memory required for data: 361268256
I0403 19:40:36.588888  9527 layer_factory.hpp:77] Creating layer conv2/norm2
I0403 19:40:36.588906  9527 net.cpp:91] Creating Layer conv2/norm2
I0403 19:40:36.588919  9527 net.cpp:425] conv2/norm2 <- conv2/3x3
I0403 19:40:36.588939  9527 net.cpp:399] conv2/norm2 -> conv2/norm2
I0403 19:40:36.589226  9527 net.cpp:141] Setting up conv2/norm2
I0403 19:40:36.589252  9527 net.cpp:148] Top shape: 24 192 56 56 (14450688)
I0403 19:40:36.589267  9527 net.cpp:156] Memory required for data: 419071008
I0403 19:40:36.589282  9527 layer_factory.hpp:77] Creating layer pool2/3x3_s2
I0403 19:40:36.589298  9527 net.cpp:91] Creating Layer pool2/3x3_s2
I0403 19:40:36.589321  9527 net.cpp:425] pool2/3x3_s2 <- conv2/norm2
I0403 19:40:36.589339  9527 net.cpp:399] pool2/3x3_s2 -> pool2/3x3_s2
I0403 19:40:36.589390  9527 net.cpp:141] Setting up pool2/3x3_s2
I0403 19:40:36.589413  9527 net.cpp:148] Top shape: 24 192 28 28 (3612672)
I0403 19:40:36.589427  9527 net.cpp:156] Memory required for data: 433521696
I0403 19:40:36.589440  9527 layer_factory.hpp:77] Creating layer pool2/3x3_s2_pool2/3x3_s2_0_split
I0403 19:40:36.589462  9527 net.cpp:91] Creating Layer pool2/3x3_s2_pool2/3x3_s2_0_split
I0403 19:40:36.589479  9527 net.cpp:425] pool2/3x3_s2_pool2/3x3_s2_0_split <- pool2/3x3_s2
I0403 19:40:36.589498  9527 net.cpp:399] pool2/3x3_s2_pool2/3x3_s2_0_split -> pool2/3x3_s2_pool2/3x3_s2_0_split_0
I0403 19:40:36.589519  9527 net.cpp:399] pool2/3x3_s2_pool2/3x3_s2_0_split -> pool2/3x3_s2_pool2/3x3_s2_0_split_1
I0403 19:40:36.589539  9527 net.cpp:399] pool2/3x3_s2_pool2/3x3_s2_0_split -> pool2/3x3_s2_pool2/3x3_s2_0_split_2
I0403 19:40:36.589558  9527 net.cpp:399] pool2/3x3_s2_pool2/3x3_s2_0_split -> pool2/3x3_s2_pool2/3x3_s2_0_split_3
I0403 19:40:36.589625  9527 net.cpp:141] Setting up pool2/3x3_s2_pool2/3x3_s2_0_split
I0403 19:40:36.589648  9527 net.cpp:148] Top shape: 24 192 28 28 (3612672)
I0403 19:40:36.589663  9527 net.cpp:148] Top shape: 24 192 28 28 (3612672)
I0403 19:40:36.589679  9527 net.cpp:148] Top shape: 24 192 28 28 (3612672)
I0403 19:40:36.589694  9527 net.cpp:148] Top shape: 24 192 28 28 (3612672)
I0403 19:40:36.589707  9527 net.cpp:156] Memory required for data: 491324448
I0403 19:40:36.589721  9527 layer_factory.hpp:77] Creating layer inception_3a/1x1
I0403 19:40:36.589745  9527 net.cpp:91] Creating Layer inception_3a/1x1
I0403 19:40:36.589761  9527 net.cpp:425] inception_3a/1x1 <- pool2/3x3_s2_pool2/3x3_s2_0_split_0
I0403 19:40:36.589779  9527 net.cpp:399] inception_3a/1x1 -> inception_3a/1x1
I0403 19:40:36.591214  9527 net.cpp:141] Setting up inception_3a/1x1
I0403 19:40:36.591243  9527 net.cpp:148] Top shape: 24 64 28 28 (1204224)
I0403 19:40:36.591258  9527 net.cpp:156] Memory required for data: 496141344
I0403 19:40:36.591275  9527 layer_factory.hpp:77] Creating layer inception_3a/relu_1x1
I0403 19:40:36.591295  9527 net.cpp:91] Creating Layer inception_3a/relu_1x1
I0403 19:40:36.591310  9527 net.cpp:425] inception_3a/relu_1x1 <- inception_3a/1x1
I0403 19:40:36.591326  9527 net.cpp:386] inception_3a/relu_1x1 -> inception_3a/1x1 (in-place)
I0403 19:40:36.591491  9527 net.cpp:141] Setting up inception_3a/relu_1x1
I0403 19:40:36.591518  9527 net.cpp:148] Top shape: 24 64 28 28 (1204224)
I0403 19:40:36.591533  9527 net.cpp:156] Memory required for data: 500958240
I0403 19:40:36.591548  9527 layer_factory.hpp:77] Creating layer inception_3a/3x3_reduce
I0403 19:40:36.591569  9527 net.cpp:91] Creating Layer inception_3a/3x3_reduce
I0403 19:40:36.591585  9527 net.cpp:425] inception_3a/3x3_reduce <- pool2/3x3_s2_pool2/3x3_s2_0_split_1
I0403 19:40:36.591604  9527 net.cpp:399] inception_3a/3x3_reduce -> inception_3a/3x3_reduce
I0403 19:40:36.593215  9527 net.cpp:141] Setting up inception_3a/3x3_reduce
I0403 19:40:36.593245  9527 net.cpp:148] Top shape: 24 96 28 28 (1806336)
I0403 19:40:36.593269  9527 net.cpp:156] Memory required for data: 508183584
I0403 19:40:36.593291  9527 layer_factory.hpp:77] Creating layer inception_3a/relu_3x3_reduce
I0403 19:40:36.593324  9527 net.cpp:91] Creating Layer inception_3a/relu_3x3_reduce
I0403 19:40:36.593341  9527 net.cpp:425] inception_3a/relu_3x3_reduce <- inception_3a/3x3_reduce
I0403 19:40:36.593358  9527 net.cpp:386] inception_3a/relu_3x3_reduce -> inception_3a/3x3_reduce (in-place)
I0403 19:40:36.593533  9527 net.cpp:141] Setting up inception_3a/relu_3x3_reduce
I0403 19:40:36.593567  9527 net.cpp:148] Top shape: 24 96 28 28 (1806336)
I0403 19:40:36.593582  9527 net.cpp:156] Memory required for data: 515408928
I0403 19:40:36.593596  9527 layer_factory.hpp:77] Creating layer inception_3a/3x3
I0403 19:40:36.593618  9527 net.cpp:91] Creating Layer inception_3a/3x3
I0403 19:40:36.593636  9527 net.cpp:425] inception_3a/3x3 <- inception_3a/3x3_reduce
I0403 19:40:36.593657  9527 net.cpp:399] inception_3a/3x3 -> inception_3a/3x3
I0403 19:40:36.595196  9527 net.cpp:141] Setting up inception_3a/3x3
I0403 19:40:36.595222  9527 net.cpp:148] Top shape: 24 128 28 28 (2408448)
I0403 19:40:36.595238  9527 net.cpp:156] Memory required for data: 525042720
I0403 19:40:36.595265  9527 layer_factory.hpp:77] Creating layer inception_3a/relu_3x3
I0403 19:40:36.595286  9527 net.cpp:91] Creating Layer inception_3a/relu_3x3
I0403 19:40:36.595304  9527 net.cpp:425] inception_3a/relu_3x3 <- inception_3a/3x3
I0403 19:40:36.595319  9527 net.cpp:386] inception_3a/relu_3x3 -> inception_3a/3x3 (in-place)
I0403 19:40:36.595584  9527 net.cpp:141] Setting up inception_3a/relu_3x3
I0403 19:40:36.595609  9527 net.cpp:148] Top shape: 24 128 28 28 (2408448)
I0403 19:40:36.595624  9527 net.cpp:156] Memory required for data: 534676512
I0403 19:40:36.595639  9527 layer_factory.hpp:77] Creating layer inception_3a/5x5_reduce
I0403 19:40:36.595662  9527 net.cpp:91] Creating Layer inception_3a/5x5_reduce
I0403 19:40:36.595679  9527 net.cpp:425] inception_3a/5x5_reduce <- pool2/3x3_s2_pool2/3x3_s2_0_split_2
I0403 19:40:36.595697  9527 net.cpp:399] inception_3a/5x5_reduce -> inception_3a/5x5_reduce
I0403 19:40:36.596593  9527 net.cpp:141] Setting up inception_3a/5x5_reduce
I0403 19:40:36.596621  9527 net.cpp:148] Top shape: 24 16 28 28 (301056)
I0403 19:40:36.596637  9527 net.cpp:156] Memory required for data: 535880736
I0403 19:40:36.596655  9527 layer_factory.hpp:77] Creating layer inception_3a/relu_5x5_reduce
I0403 19:40:36.596673  9527 net.cpp:91] Creating Layer inception_3a/relu_5x5_reduce
I0403 19:40:36.596688  9527 net.cpp:425] inception_3a/relu_5x5_reduce <- inception_3a/5x5_reduce
I0403 19:40:36.596705  9527 net.cpp:386] inception_3a/relu_5x5_reduce -> inception_3a/5x5_reduce (in-place)
I0403 19:40:36.596977  9527 net.cpp:141] Setting up inception_3a/relu_5x5_reduce
I0403 19:40:36.597004  9527 net.cpp:148] Top shape: 24 16 28 28 (301056)
I0403 19:40:36.597021  9527 net.cpp:156] Memory required for data: 537084960
I0403 19:40:36.597035  9527 layer_factory.hpp:77] Creating layer inception_3a/5x5
I0403 19:40:36.597056  9527 net.cpp:91] Creating Layer inception_3a/5x5
I0403 19:40:36.597074  9527 net.cpp:425] inception_3a/5x5 <- inception_3a/5x5_reduce
I0403 19:40:36.597091  9527 net.cpp:399] inception_3a/5x5 -> inception_3a/5x5
I0403 19:40:36.598094  9527 net.cpp:141] Setting up inception_3a/5x5
I0403 19:40:36.598121  9527 net.cpp:148] Top shape: 24 32 28 28 (602112)
I0403 19:40:36.598137  9527 net.cpp:156] Memory required for data: 539493408
I0403 19:40:36.598155  9527 layer_factory.hpp:77] Creating layer inception_3a/relu_5x5
I0403 19:40:36.598176  9527 net.cpp:91] Creating Layer inception_3a/relu_5x5
I0403 19:40:36.598191  9527 net.cpp:425] inception_3a/relu_5x5 <- inception_3a/5x5
I0403 19:40:36.598208  9527 net.cpp:386] inception_3a/relu_5x5 -> inception_3a/5x5 (in-place)
I0403 19:40:36.598377  9527 net.cpp:141] Setting up inception_3a/relu_5x5
I0403 19:40:36.598404  9527 net.cpp:148] Top shape: 24 32 28 28 (602112)
I0403 19:40:36.598419  9527 net.cpp:156] Memory required for data: 541901856
I0403 19:40:36.598433  9527 layer_factory.hpp:77] Creating layer inception_3a/pool
I0403 19:40:36.598450  9527 net.cpp:91] Creating Layer inception_3a/pool
I0403 19:40:36.598471  9527 net.cpp:425] inception_3a/pool <- pool2/3x3_s2_pool2/3x3_s2_0_split_3
I0403 19:40:36.598505  9527 net.cpp:399] inception_3a/pool -> inception_3a/pool
I0403 19:40:36.598562  9527 net.cpp:141] Setting up inception_3a/pool
I0403 19:40:36.598587  9527 net.cpp:148] Top shape: 24 192 28 28 (3612672)
I0403 19:40:36.598600  9527 net.cpp:156] Memory required for data: 556352544
I0403 19:40:36.598614  9527 layer_factory.hpp:77] Creating layer inception_3a/pool_proj
I0403 19:40:36.598636  9527 net.cpp:91] Creating Layer inception_3a/pool_proj
I0403 19:40:36.598654  9527 net.cpp:425] inception_3a/pool_proj <- inception_3a/pool
I0403 19:40:36.598675  9527 net.cpp:399] inception_3a/pool_proj -> inception_3a/pool_proj
I0403 19:40:36.599598  9527 net.cpp:141] Setting up inception_3a/pool_proj
I0403 19:40:36.599625  9527 net.cpp:148] Top shape: 24 32 28 28 (602112)
I0403 19:40:36.599642  9527 net.cpp:156] Memory required for data: 558760992
I0403 19:40:36.599665  9527 layer_factory.hpp:77] Creating layer inception_3a/relu_pool_proj
I0403 19:40:36.599685  9527 net.cpp:91] Creating Layer inception_3a/relu_pool_proj
I0403 19:40:36.599701  9527 net.cpp:425] inception_3a/relu_pool_proj <- inception_3a/pool_proj
I0403 19:40:36.599721  9527 net.cpp:386] inception_3a/relu_pool_proj -> inception_3a/pool_proj (in-place)
I0403 19:40:36.599984  9527 net.cpp:141] Setting up inception_3a/relu_pool_proj
I0403 19:40:36.600010  9527 net.cpp:148] Top shape: 24 32 28 28 (602112)
I0403 19:40:36.600026  9527 net.cpp:156] Memory required for data: 561169440
I0403 19:40:36.600041  9527 layer_factory.hpp:77] Creating layer inception_3a/output
I0403 19:40:36.600060  9527 net.cpp:91] Creating Layer inception_3a/output
I0403 19:40:36.600077  9527 net.cpp:425] inception_3a/output <- inception_3a/1x1
I0403 19:40:36.600095  9527 net.cpp:425] inception_3a/output <- inception_3a/3x3
I0403 19:40:36.600111  9527 net.cpp:425] inception_3a/output <- inception_3a/5x5
I0403 19:40:36.600126  9527 net.cpp:425] inception_3a/output <- inception_3a/pool_proj
I0403 19:40:36.600142  9527 net.cpp:399] inception_3a/output -> inception_3a/output
I0403 19:40:36.600189  9527 net.cpp:141] Setting up inception_3a/output
I0403 19:40:36.600214  9527 net.cpp:148] Top shape: 24 256 28 28 (4816896)
I0403 19:40:36.600229  9527 net.cpp:156] Memory required for data: 580437024
I0403 19:40:36.600244  9527 layer_factory.hpp:77] Creating layer inception_3a/output_inception_3a/output_0_split
I0403 19:40:36.600260  9527 net.cpp:91] Creating Layer inception_3a/output_inception_3a/output_0_split
I0403 19:40:36.600275  9527 net.cpp:425] inception_3a/output_inception_3a/output_0_split <- inception_3a/output
I0403 19:40:36.600294  9527 net.cpp:399] inception_3a/output_inception_3a/output_0_split -> inception_3a/output_inception_3a/output_0_split_0
I0403 19:40:36.600314  9527 net.cpp:399] inception_3a/output_inception_3a/output_0_split -> inception_3a/output_inception_3a/output_0_split_1
I0403 19:40:36.600339  9527 net.cpp:399] inception_3a/output_inception_3a/output_0_split -> inception_3a/output_inception_3a/output_0_split_2
I0403 19:40:36.600361  9527 net.cpp:399] inception_3a/output_inception_3a/output_0_split -> inception_3a/output_inception_3a/output_0_split_3
I0403 19:40:36.600431  9527 net.cpp:141] Setting up inception_3a/output_inception_3a/output_0_split
I0403 19:40:36.600455  9527 net.cpp:148] Top shape: 24 256 28 28 (4816896)
I0403 19:40:36.600476  9527 net.cpp:148] Top shape: 24 256 28 28 (4816896)
I0403 19:40:36.600493  9527 net.cpp:148] Top shape: 24 256 28 28 (4816896)
I0403 19:40:36.600509  9527 net.cpp:148] Top shape: 24 256 28 28 (4816896)
I0403 19:40:36.600523  9527 net.cpp:156] Memory required for data: 657507360
I0403 19:40:36.600538  9527 layer_factory.hpp:77] Creating layer inception_3b/1x1
I0403 19:40:36.600561  9527 net.cpp:91] Creating Layer inception_3b/1x1
I0403 19:40:36.600579  9527 net.cpp:425] inception_3b/1x1 <- inception_3a/output_inception_3a/output_0_split_0
I0403 19:40:36.600600  9527 net.cpp:399] inception_3b/1x1 -> inception_3b/1x1
I0403 19:40:36.601706  9527 net.cpp:141] Setting up inception_3b/1x1
I0403 19:40:36.601744  9527 net.cpp:148] Top shape: 24 128 28 28 (2408448)
I0403 19:40:36.601760  9527 net.cpp:156] Memory required for data: 667141152
I0403 19:40:36.601778  9527 layer_factory.hpp:77] Creating layer inception_3b/relu_1x1
I0403 19:40:36.601800  9527 net.cpp:91] Creating Layer inception_3b/relu_1x1
I0403 19:40:36.601817  9527 net.cpp:425] inception_3b/relu_1x1 <- inception_3b/1x1
I0403 19:40:36.601835  9527 net.cpp:386] inception_3b/relu_1x1 -> inception_3b/1x1 (in-place)
I0403 19:40:36.602001  9527 net.cpp:141] Setting up inception_3b/relu_1x1
I0403 19:40:36.602025  9527 net.cpp:148] Top shape: 24 128 28 28 (2408448)
I0403 19:40:36.602041  9527 net.cpp:156] Memory required for data: 676774944
I0403 19:40:36.602056  9527 layer_factory.hpp:77] Creating layer inception_3b/3x3_reduce
I0403 19:40:36.602080  9527 net.cpp:91] Creating Layer inception_3b/3x3_reduce
I0403 19:40:36.602097  9527 net.cpp:425] inception_3b/3x3_reduce <- inception_3a/output_inception_3a/output_0_split_1
I0403 19:40:36.602116  9527 net.cpp:399] inception_3b/3x3_reduce -> inception_3b/3x3_reduce
I0403 19:40:36.603211  9527 net.cpp:141] Setting up inception_3b/3x3_reduce
I0403 19:40:36.603240  9527 net.cpp:148] Top shape: 24 128 28 28 (2408448)
I0403 19:40:36.603255  9527 net.cpp:156] Memory required for data: 686408736
I0403 19:40:36.603273  9527 layer_factory.hpp:77] Creating layer inception_3b/relu_3x3_reduce
I0403 19:40:36.603293  9527 net.cpp:91] Creating Layer inception_3b/relu_3x3_reduce
I0403 19:40:36.603312  9527 net.cpp:425] inception_3b/relu_3x3_reduce <- inception_3b/3x3_reduce
I0403 19:40:36.603328  9527 net.cpp:386] inception_3b/relu_3x3_reduce -> inception_3b/3x3_reduce (in-place)
I0403 19:40:36.603497  9527 net.cpp:141] Setting up inception_3b/relu_3x3_reduce
I0403 19:40:36.603523  9527 net.cpp:148] Top shape: 24 128 28 28 (2408448)
I0403 19:40:36.603539  9527 net.cpp:156] Memory required for data: 696042528
I0403 19:40:36.603555  9527 layer_factory.hpp:77] Creating layer inception_3b/3x3
I0403 19:40:36.603579  9527 net.cpp:91] Creating Layer inception_3b/3x3
I0403 19:40:36.603597  9527 net.cpp:425] inception_3b/3x3 <- inception_3b/3x3_reduce
I0403 19:40:36.603617  9527 net.cpp:399] inception_3b/3x3 -> inception_3b/3x3
I0403 19:40:36.606426  9527 net.cpp:141] Setting up inception_3b/3x3
I0403 19:40:36.606454  9527 net.cpp:148] Top shape: 24 192 28 28 (3612672)
I0403 19:40:36.606474  9527 net.cpp:156] Memory required for data: 710493216
I0403 19:40:36.606493  9527 layer_factory.hpp:77] Creating layer inception_3b/relu_3x3
I0403 19:40:36.606513  9527 net.cpp:91] Creating Layer inception_3b/relu_3x3
I0403 19:40:36.606530  9527 net.cpp:425] inception_3b/relu_3x3 <- inception_3b/3x3
I0403 19:40:36.606547  9527 net.cpp:386] inception_3b/relu_3x3 -> inception_3b/3x3 (in-place)
I0403 19:40:36.606809  9527 net.cpp:141] Setting up inception_3b/relu_3x3
I0403 19:40:36.606835  9527 net.cpp:148] Top shape: 24 192 28 28 (3612672)
I0403 19:40:36.606850  9527 net.cpp:156] Memory required for data: 724943904
I0403 19:40:36.606866  9527 layer_factory.hpp:77] Creating layer inception_3b/5x5_reduce
I0403 19:40:36.606891  9527 net.cpp:91] Creating Layer inception_3b/5x5_reduce
I0403 19:40:36.606909  9527 net.cpp:425] inception_3b/5x5_reduce <- inception_3a/output_inception_3a/output_0_split_2
I0403 19:40:36.606930  9527 net.cpp:399] inception_3b/5x5_reduce -> inception_3b/5x5_reduce
I0403 19:40:36.607887  9527 net.cpp:141] Setting up inception_3b/5x5_reduce
I0403 19:40:36.607913  9527 net.cpp:148] Top shape: 24 32 28 28 (602112)
I0403 19:40:36.607929  9527 net.cpp:156] Memory required for data: 727352352
I0403 19:40:36.607949  9527 layer_factory.hpp:77] Creating layer inception_3b/relu_5x5_reduce
I0403 19:40:36.607967  9527 net.cpp:91] Creating Layer inception_3b/relu_5x5_reduce
I0403 19:40:36.607985  9527 net.cpp:425] inception_3b/relu_5x5_reduce <- inception_3b/5x5_reduce
I0403 19:40:36.608001  9527 net.cpp:386] inception_3b/relu_5x5_reduce -> inception_3b/5x5_reduce (in-place)
I0403 19:40:36.608167  9527 net.cpp:141] Setting up inception_3b/relu_5x5_reduce
I0403 19:40:36.608207  9527 net.cpp:148] Top shape: 24 32 28 28 (602112)
I0403 19:40:36.608223  9527 net.cpp:156] Memory required for data: 729760800
I0403 19:40:36.608238  9527 layer_factory.hpp:77] Creating layer inception_3b/5x5
I0403 19:40:36.608260  9527 net.cpp:91] Creating Layer inception_3b/5x5
I0403 19:40:36.608278  9527 net.cpp:425] inception_3b/5x5 <- inception_3b/5x5_reduce
I0403 19:40:36.608296  9527 net.cpp:399] inception_3b/5x5 -> inception_3b/5x5
I0403 19:40:36.610208  9527 net.cpp:141] Setting up inception_3b/5x5
I0403 19:40:36.610236  9527 net.cpp:148] Top shape: 24 96 28 28 (1806336)
I0403 19:40:36.610252  9527 net.cpp:156] Memory required for data: 736986144
I0403 19:40:36.610270  9527 layer_factory.hpp:77] Creating layer inception_3b/relu_5x5
I0403 19:40:36.610287  9527 net.cpp:91] Creating Layer inception_3b/relu_5x5
I0403 19:40:36.610303  9527 net.cpp:425] inception_3b/relu_5x5 <- inception_3b/5x5
I0403 19:40:36.610323  9527 net.cpp:386] inception_3b/relu_5x5 -> inception_3b/5x5 (in-place)
I0403 19:40:36.610512  9527 net.cpp:141] Setting up inception_3b/relu_5x5
I0403 19:40:36.610538  9527 net.cpp:148] Top shape: 24 96 28 28 (1806336)
I0403 19:40:36.610553  9527 net.cpp:156] Memory required for data: 744211488
I0403 19:40:36.610566  9527 layer_factory.hpp:77] Creating layer inception_3b/pool
I0403 19:40:36.610584  9527 net.cpp:91] Creating Layer inception_3b/pool
I0403 19:40:36.610599  9527 net.cpp:425] inception_3b/pool <- inception_3a/output_inception_3a/output_0_split_3
I0403 19:40:36.610617  9527 net.cpp:399] inception_3b/pool -> inception_3b/pool
I0403 19:40:36.610671  9527 net.cpp:141] Setting up inception_3b/pool
I0403 19:40:36.610693  9527 net.cpp:148] Top shape: 24 256 28 28 (4816896)
I0403 19:40:36.610708  9527 net.cpp:156] Memory required for data: 763479072
I0403 19:40:36.610723  9527 layer_factory.hpp:77] Creating layer inception_3b/pool_proj
I0403 19:40:36.610745  9527 net.cpp:91] Creating Layer inception_3b/pool_proj
I0403 19:40:36.610762  9527 net.cpp:425] inception_3b/pool_proj <- inception_3b/pool
I0403 19:40:36.610783  9527 net.cpp:399] inception_3b/pool_proj -> inception_3b/pool_proj
I0403 19:40:36.611799  9527 net.cpp:141] Setting up inception_3b/pool_proj
I0403 19:40:36.611829  9527 net.cpp:148] Top shape: 24 64 28 28 (1204224)
I0403 19:40:36.611845  9527 net.cpp:156] Memory required for data: 768295968
I0403 19:40:36.611863  9527 layer_factory.hpp:77] Creating layer inception_3b/relu_pool_proj
I0403 19:40:36.611881  9527 net.cpp:91] Creating Layer inception_3b/relu_pool_proj
I0403 19:40:36.611898  9527 net.cpp:425] inception_3b/relu_pool_proj <- inception_3b/pool_proj
I0403 19:40:36.611917  9527 net.cpp:386] inception_3b/relu_pool_proj -> inception_3b/pool_proj (in-place)
I0403 19:40:36.612298  9527 net.cpp:141] Setting up inception_3b/relu_pool_proj
I0403 19:40:36.612326  9527 net.cpp:148] Top shape: 24 64 28 28 (1204224)
I0403 19:40:36.612341  9527 net.cpp:156] Memory required for data: 773112864
I0403 19:40:36.612357  9527 layer_factory.hpp:77] Creating layer inception_3b/output
I0403 19:40:36.612375  9527 net.cpp:91] Creating Layer inception_3b/output
I0403 19:40:36.612390  9527 net.cpp:425] inception_3b/output <- inception_3b/1x1
I0403 19:40:36.612406  9527 net.cpp:425] inception_3b/output <- inception_3b/3x3
I0403 19:40:36.612421  9527 net.cpp:425] inception_3b/output <- inception_3b/5x5
I0403 19:40:36.612437  9527 net.cpp:425] inception_3b/output <- inception_3b/pool_proj
I0403 19:40:36.612452  9527 net.cpp:399] inception_3b/output -> inception_3b/output
I0403 19:40:36.612517  9527 net.cpp:141] Setting up inception_3b/output
I0403 19:40:36.612541  9527 net.cpp:148] Top shape: 24 480 28 28 (9031680)
I0403 19:40:36.612556  9527 net.cpp:156] Memory required for data: 809239584
I0403 19:40:36.612578  9527 layer_factory.hpp:77] Creating layer pool3/3x3_s2
I0403 19:40:36.612597  9527 net.cpp:91] Creating Layer pool3/3x3_s2
I0403 19:40:36.612613  9527 net.cpp:425] pool3/3x3_s2 <- inception_3b/output
I0403 19:40:36.612632  9527 net.cpp:399] pool3/3x3_s2 -> pool3/3x3_s2
I0403 19:40:36.612701  9527 net.cpp:141] Setting up pool3/3x3_s2
I0403 19:40:36.612726  9527 net.cpp:148] Top shape: 24 480 14 14 (2257920)
I0403 19:40:36.612740  9527 net.cpp:156] Memory required for data: 818271264
I0403 19:40:36.612754  9527 layer_factory.hpp:77] Creating layer pool3/3x3_s2_pool3/3x3_s2_0_split
I0403 19:40:36.612771  9527 net.cpp:91] Creating Layer pool3/3x3_s2_pool3/3x3_s2_0_split
I0403 19:40:36.612787  9527 net.cpp:425] pool3/3x3_s2_pool3/3x3_s2_0_split <- pool3/3x3_s2
I0403 19:40:36.612805  9527 net.cpp:399] pool3/3x3_s2_pool3/3x3_s2_0_split -> pool3/3x3_s2_pool3/3x3_s2_0_split_0
I0403 19:40:36.612825  9527 net.cpp:399] pool3/3x3_s2_pool3/3x3_s2_0_split -> pool3/3x3_s2_pool3/3x3_s2_0_split_1
I0403 19:40:36.612844  9527 net.cpp:399] pool3/3x3_s2_pool3/3x3_s2_0_split -> pool3/3x3_s2_pool3/3x3_s2_0_split_2
I0403 19:40:36.612862  9527 net.cpp:399] pool3/3x3_s2_pool3/3x3_s2_0_split -> pool3/3x3_s2_pool3/3x3_s2_0_split_3
I0403 19:40:36.612934  9527 net.cpp:141] Setting up pool3/3x3_s2_pool3/3x3_s2_0_split
I0403 19:40:36.612960  9527 net.cpp:148] Top shape: 24 480 14 14 (2257920)
I0403 19:40:36.612977  9527 net.cpp:148] Top shape: 24 480 14 14 (2257920)
I0403 19:40:36.612993  9527 net.cpp:148] Top shape: 24 480 14 14 (2257920)
I0403 19:40:36.613008  9527 net.cpp:148] Top shape: 24 480 14 14 (2257920)
I0403 19:40:36.613021  9527 net.cpp:156] Memory required for data: 854397984
I0403 19:40:36.613035  9527 layer_factory.hpp:77] Creating layer inception_4a/1x1
I0403 19:40:36.613057  9527 net.cpp:91] Creating Layer inception_4a/1x1
I0403 19:40:36.613075  9527 net.cpp:425] inception_4a/1x1 <- pool3/3x3_s2_pool3/3x3_s2_0_split_0
I0403 19:40:36.613095  9527 net.cpp:399] inception_4a/1x1 -> inception_4a/1x1
I0403 19:40:36.614606  9527 net.cpp:141] Setting up inception_4a/1x1
I0403 19:40:36.614635  9527 net.cpp:148] Top shape: 24 192 14 14 (903168)
I0403 19:40:36.614650  9527 net.cpp:156] Memory required for data: 858010656
I0403 19:40:36.614668  9527 layer_factory.hpp:77] Creating layer inception_4a/relu_1x1
I0403 19:40:36.614686  9527 net.cpp:91] Creating Layer inception_4a/relu_1x1
I0403 19:40:36.614701  9527 net.cpp:425] inception_4a/relu_1x1 <- inception_4a/1x1
I0403 19:40:36.614720  9527 net.cpp:386] inception_4a/relu_1x1 -> inception_4a/1x1 (in-place)
I0403 19:40:36.614889  9527 net.cpp:141] Setting up inception_4a/relu_1x1
I0403 19:40:36.614914  9527 net.cpp:148] Top shape: 24 192 14 14 (903168)
I0403 19:40:36.614929  9527 net.cpp:156] Memory required for data: 861623328
I0403 19:40:36.614943  9527 layer_factory.hpp:77] Creating layer inception_4a/3x3_reduce
I0403 19:40:36.614965  9527 net.cpp:91] Creating Layer inception_4a/3x3_reduce
I0403 19:40:36.614982  9527 net.cpp:425] inception_4a/3x3_reduce <- pool3/3x3_s2_pool3/3x3_s2_0_split_1
I0403 19:40:36.615003  9527 net.cpp:399] inception_4a/3x3_reduce -> inception_4a/3x3_reduce
I0403 19:40:36.616297  9527 net.cpp:141] Setting up inception_4a/3x3_reduce
I0403 19:40:36.616327  9527 net.cpp:148] Top shape: 24 96 14 14 (451584)
I0403 19:40:36.616343  9527 net.cpp:156] Memory required for data: 863429664
I0403 19:40:36.616366  9527 layer_factory.hpp:77] Creating layer inception_4a/relu_3x3_reduce
I0403 19:40:36.616385  9527 net.cpp:91] Creating Layer inception_4a/relu_3x3_reduce
I0403 19:40:36.616401  9527 net.cpp:425] inception_4a/relu_3x3_reduce <- inception_4a/3x3_reduce
I0403 19:40:36.616417  9527 net.cpp:386] inception_4a/relu_3x3_reduce -> inception_4a/3x3_reduce (in-place)
I0403 19:40:36.616588  9527 net.cpp:141] Setting up inception_4a/relu_3x3_reduce
I0403 19:40:36.616612  9527 net.cpp:148] Top shape: 24 96 14 14 (451584)
I0403 19:40:36.616626  9527 net.cpp:156] Memory required for data: 865236000
I0403 19:40:36.616641  9527 layer_factory.hpp:77] Creating layer inception_4a/3x3
I0403 19:40:36.616663  9527 net.cpp:91] Creating Layer inception_4a/3x3
I0403 19:40:36.616682  9527 net.cpp:425] inception_4a/3x3 <- inception_4a/3x3_reduce
I0403 19:40:36.616701  9527 net.cpp:399] inception_4a/3x3 -> inception_4a/3x3
I0403 19:40:36.619230  9527 net.cpp:141] Setting up inception_4a/3x3
I0403 19:40:36.619257  9527 net.cpp:148] Top shape: 24 208 14 14 (978432)
I0403 19:40:36.619272  9527 net.cpp:156] Memory required for data: 869149728
I0403 19:40:36.619292  9527 layer_factory.hpp:77] Creating layer inception_4a/relu_3x3
I0403 19:40:36.619310  9527 net.cpp:91] Creating Layer inception_4a/relu_3x3
I0403 19:40:36.619326  9527 net.cpp:425] inception_4a/relu_3x3 <- inception_4a/3x3
I0403 19:40:36.619344  9527 net.cpp:386] inception_4a/relu_3x3 -> inception_4a/3x3 (in-place)
I0403 19:40:36.619612  9527 net.cpp:141] Setting up inception_4a/relu_3x3
I0403 19:40:36.619637  9527 net.cpp:148] Top shape: 24 208 14 14 (978432)
I0403 19:40:36.619652  9527 net.cpp:156] Memory required for data: 873063456
I0403 19:40:36.619668  9527 layer_factory.hpp:77] Creating layer inception_4a/5x5_reduce
I0403 19:40:36.619689  9527 net.cpp:91] Creating Layer inception_4a/5x5_reduce
I0403 19:40:36.619706  9527 net.cpp:425] inception_4a/5x5_reduce <- pool3/3x3_s2_pool3/3x3_s2_0_split_2
I0403 19:40:36.619726  9527 net.cpp:399] inception_4a/5x5_reduce -> inception_4a/5x5_reduce
I0403 19:40:36.620683  9527 net.cpp:141] Setting up inception_4a/5x5_reduce
I0403 19:40:36.620712  9527 net.cpp:148] Top shape: 24 16 14 14 (75264)
I0403 19:40:36.620726  9527 net.cpp:156] Memory required for data: 873364512
I0403 19:40:36.620743  9527 layer_factory.hpp:77] Creating layer inception_4a/relu_5x5_reduce
I0403 19:40:36.620764  9527 net.cpp:91] Creating Layer inception_4a/relu_5x5_reduce
I0403 19:40:36.620779  9527 net.cpp:425] inception_4a/relu_5x5_reduce <- inception_4a/5x5_reduce
I0403 19:40:36.620795  9527 net.cpp:386] inception_4a/relu_5x5_reduce -> inception_4a/5x5_reduce (in-place)
I0403 19:40:36.620960  9527 net.cpp:141] Setting up inception_4a/relu_5x5_reduce
I0403 19:40:36.620988  9527 net.cpp:148] Top shape: 24 16 14 14 (75264)
I0403 19:40:36.621004  9527 net.cpp:156] Memory required for data: 873665568
I0403 19:40:36.621018  9527 layer_factory.hpp:77] Creating layer inception_4a/5x5
I0403 19:40:36.621039  9527 net.cpp:91] Creating Layer inception_4a/5x5
I0403 19:40:36.621057  9527 net.cpp:425] inception_4a/5x5 <- inception_4a/5x5_reduce
I0403 19:40:36.621074  9527 net.cpp:399] inception_4a/5x5 -> inception_4a/5x5
I0403 19:40:36.622092  9527 net.cpp:141] Setting up inception_4a/5x5
I0403 19:40:36.622119  9527 net.cpp:148] Top shape: 24 48 14 14 (225792)
I0403 19:40:36.622135  9527 net.cpp:156] Memory required for data: 874568736
I0403 19:40:36.622153  9527 layer_factory.hpp:77] Creating layer inception_4a/relu_5x5
I0403 19:40:36.622170  9527 net.cpp:91] Creating Layer inception_4a/relu_5x5
I0403 19:40:36.622187  9527 net.cpp:425] inception_4a/relu_5x5 <- inception_4a/5x5
I0403 19:40:36.622207  9527 net.cpp:386] inception_4a/relu_5x5 -> inception_4a/5x5 (in-place)
I0403 19:40:36.622376  9527 net.cpp:141] Setting up inception_4a/relu_5x5
I0403 19:40:36.622400  9527 net.cpp:148] Top shape: 24 48 14 14 (225792)
I0403 19:40:36.622414  9527 net.cpp:156] Memory required for data: 875471904
I0403 19:40:36.622428  9527 layer_factory.hpp:77] Creating layer inception_4a/pool
I0403 19:40:36.622447  9527 net.cpp:91] Creating Layer inception_4a/pool
I0403 19:40:36.622472  9527 net.cpp:425] inception_4a/pool <- pool3/3x3_s2_pool3/3x3_s2_0_split_3
I0403 19:40:36.622498  9527 net.cpp:399] inception_4a/pool -> inception_4a/pool
I0403 19:40:36.622556  9527 net.cpp:141] Setting up inception_4a/pool
I0403 19:40:36.622589  9527 net.cpp:148] Top shape: 24 480 14 14 (2257920)
I0403 19:40:36.622603  9527 net.cpp:156] Memory required for data: 884503584
I0403 19:40:36.622617  9527 layer_factory.hpp:77] Creating layer inception_4a/pool_proj
I0403 19:40:36.622639  9527 net.cpp:91] Creating Layer inception_4a/pool_proj
I0403 19:40:36.622655  9527 net.cpp:425] inception_4a/pool_proj <- inception_4a/pool
I0403 19:40:36.622673  9527 net.cpp:399] inception_4a/pool_proj -> inception_4a/pool_proj
I0403 19:40:36.623765  9527 net.cpp:141] Setting up inception_4a/pool_proj
I0403 19:40:36.623795  9527 net.cpp:148] Top shape: 24 64 14 14 (301056)
I0403 19:40:36.623823  9527 net.cpp:156] Memory required for data: 885707808
I0403 19:40:36.623842  9527 layer_factory.hpp:77] Creating layer inception_4a/relu_pool_proj
I0403 19:40:36.623859  9527 net.cpp:91] Creating Layer inception_4a/relu_pool_proj
I0403 19:40:36.623877  9527 net.cpp:425] inception_4a/relu_pool_proj <- inception_4a/pool_proj
I0403 19:40:36.623898  9527 net.cpp:386] inception_4a/relu_pool_proj -> inception_4a/pool_proj (in-place)
I0403 19:40:36.624161  9527 net.cpp:141] Setting up inception_4a/relu_pool_proj
I0403 19:40:36.624189  9527 net.cpp:148] Top shape: 24 64 14 14 (301056)
I0403 19:40:36.624204  9527 net.cpp:156] Memory required for data: 886912032
I0403 19:40:36.624219  9527 layer_factory.hpp:77] Creating layer inception_4a/output
I0403 19:40:36.624235  9527 net.cpp:91] Creating Layer inception_4a/output
I0403 19:40:36.624250  9527 net.cpp:425] inception_4a/output <- inception_4a/1x1
I0403 19:40:36.624265  9527 net.cpp:425] inception_4a/output <- inception_4a/3x3
I0403 19:40:36.624280  9527 net.cpp:425] inception_4a/output <- inception_4a/5x5
I0403 19:40:36.624295  9527 net.cpp:425] inception_4a/output <- inception_4a/pool_proj
I0403 19:40:36.624315  9527 net.cpp:399] inception_4a/output -> inception_4a/output
I0403 19:40:36.624356  9527 net.cpp:141] Setting up inception_4a/output
I0403 19:40:36.624378  9527 net.cpp:148] Top shape: 24 512 14 14 (2408448)
I0403 19:40:36.624393  9527 net.cpp:156] Memory required for data: 896545824
I0403 19:40:36.624408  9527 layer_factory.hpp:77] Creating layer inception_4a/output_inception_4a/output_0_split
I0403 19:40:36.624426  9527 net.cpp:91] Creating Layer inception_4a/output_inception_4a/output_0_split
I0403 19:40:36.624442  9527 net.cpp:425] inception_4a/output_inception_4a/output_0_split <- inception_4a/output
I0403 19:40:36.624464  9527 net.cpp:399] inception_4a/output_inception_4a/output_0_split -> inception_4a/output_inception_4a/output_0_split_0
I0403 19:40:36.624488  9527 net.cpp:399] inception_4a/output_inception_4a/output_0_split -> inception_4a/output_inception_4a/output_0_split_1
I0403 19:40:36.624508  9527 net.cpp:399] inception_4a/output_inception_4a/output_0_split -> inception_4a/output_inception_4a/output_0_split_2
I0403 19:40:36.624528  9527 net.cpp:399] inception_4a/output_inception_4a/output_0_split -> inception_4a/output_inception_4a/output_0_split_3
I0403 19:40:36.624548  9527 net.cpp:399] inception_4a/output_inception_4a/output_0_split -> inception_4a/output_inception_4a/output_0_split_4
I0403 19:40:36.624634  9527 net.cpp:141] Setting up inception_4a/output_inception_4a/output_0_split
I0403 19:40:36.624657  9527 net.cpp:148] Top shape: 24 512 14 14 (2408448)
I0403 19:40:36.624673  9527 net.cpp:148] Top shape: 24 512 14 14 (2408448)
I0403 19:40:36.624688  9527 net.cpp:148] Top shape: 24 512 14 14 (2408448)
I0403 19:40:36.624703  9527 net.cpp:148] Top shape: 24 512 14 14 (2408448)
I0403 19:40:36.624717  9527 net.cpp:148] Top shape: 24 512 14 14 (2408448)
I0403 19:40:36.624732  9527 net.cpp:156] Memory required for data: 944714784
I0403 19:40:36.624747  9527 layer_factory.hpp:77] Creating layer loss1/ave_pool
I0403 19:40:36.624765  9527 net.cpp:91] Creating Layer loss1/ave_pool
I0403 19:40:36.624781  9527 net.cpp:425] loss1/ave_pool <- inception_4a/output_inception_4a/output_0_split_0
I0403 19:40:36.624799  9527 net.cpp:399] loss1/ave_pool -> loss1/ave_pool
I0403 19:40:36.624992  9527 net.cpp:141] Setting up loss1/ave_pool
I0403 19:40:36.625020  9527 net.cpp:148] Top shape: 24 512 4 4 (196608)
I0403 19:40:36.625036  9527 net.cpp:156] Memory required for data: 945501216
I0403 19:40:36.625049  9527 layer_factory.hpp:77] Creating layer loss1/conv
I0403 19:40:36.625072  9527 net.cpp:91] Creating Layer loss1/conv
I0403 19:40:36.625087  9527 net.cpp:425] loss1/conv <- loss1/ave_pool
I0403 19:40:36.625110  9527 net.cpp:399] loss1/conv -> loss1/conv
I0403 19:40:36.626430  9527 net.cpp:141] Setting up loss1/conv
I0403 19:40:36.626456  9527 net.cpp:148] Top shape: 24 128 4 4 (49152)
I0403 19:40:36.626478  9527 net.cpp:156] Memory required for data: 945697824
I0403 19:40:36.626509  9527 layer_factory.hpp:77] Creating layer loss1/relu_conv
I0403 19:40:36.626530  9527 net.cpp:91] Creating Layer loss1/relu_conv
I0403 19:40:36.626548  9527 net.cpp:425] loss1/relu_conv <- loss1/conv
I0403 19:40:36.626564  9527 net.cpp:386] loss1/relu_conv -> loss1/conv (in-place)
I0403 19:40:36.626828  9527 net.cpp:141] Setting up loss1/relu_conv
I0403 19:40:36.626854  9527 net.cpp:148] Top shape: 24 128 4 4 (49152)
I0403 19:40:36.626868  9527 net.cpp:156] Memory required for data: 945894432
I0403 19:40:36.626883  9527 layer_factory.hpp:77] Creating layer loss1/fc
I0403 19:40:36.626909  9527 net.cpp:91] Creating Layer loss1/fc
I0403 19:40:36.626927  9527 net.cpp:425] loss1/fc <- loss1/conv
I0403 19:40:36.626945  9527 net.cpp:399] loss1/fc -> loss1/fc
I0403 19:40:36.644244  9527 net.cpp:141] Setting up loss1/fc
I0403 19:40:36.644279  9527 net.cpp:148] Top shape: 24 1024 (24576)
I0403 19:40:36.644299  9527 net.cpp:156] Memory required for data: 945992736
I0403 19:40:36.644318  9527 layer_factory.hpp:77] Creating layer loss1/relu_fc
I0403 19:40:36.644337  9527 net.cpp:91] Creating Layer loss1/relu_fc
I0403 19:40:36.644354  9527 net.cpp:425] loss1/relu_fc <- loss1/fc
I0403 19:40:36.644374  9527 net.cpp:386] loss1/relu_fc -> loss1/fc (in-place)
I0403 19:40:36.644559  9527 net.cpp:141] Setting up loss1/relu_fc
I0403 19:40:36.644598  9527 net.cpp:148] Top shape: 24 1024 (24576)
I0403 19:40:36.644613  9527 net.cpp:156] Memory required for data: 946091040
I0403 19:40:36.644628  9527 layer_factory.hpp:77] Creating layer loss1/drop_fc
I0403 19:40:36.644654  9527 net.cpp:91] Creating Layer loss1/drop_fc
I0403 19:40:36.644670  9527 net.cpp:425] loss1/drop_fc <- loss1/fc
I0403 19:40:36.644690  9527 net.cpp:386] loss1/drop_fc -> loss1/fc (in-place)
I0403 19:40:36.644742  9527 net.cpp:141] Setting up loss1/drop_fc
I0403 19:40:36.644768  9527 net.cpp:148] Top shape: 24 1024 (24576)
I0403 19:40:36.644783  9527 net.cpp:156] Memory required for data: 946189344
I0403 19:40:36.644798  9527 layer_factory.hpp:77] Creating layer loss1/classifier_plantvillage
I0403 19:40:36.644816  9527 net.cpp:91] Creating Layer loss1/classifier_plantvillage
I0403 19:40:36.644832  9527 net.cpp:425] loss1/classifier_plantvillage <- loss1/fc
I0403 19:40:36.644857  9527 net.cpp:399] loss1/classifier_plantvillage -> loss1/classifier_plantvillage
I0403 19:40:36.645788  9527 net.cpp:141] Setting up loss1/classifier_plantvillage
I0403 19:40:36.645817  9527 net.cpp:148] Top shape: 24 38 (912)
I0403 19:40:36.645831  9527 net.cpp:156] Memory required for data: 946192992
I0403 19:40:36.645848  9527 layer_factory.hpp:77] Creating layer loss1/classifier_plantvillage_loss1/classifier_plantvillage_0_split
I0403 19:40:36.645865  9527 net.cpp:91] Creating Layer loss1/classifier_plantvillage_loss1/classifier_plantvillage_0_split
I0403 19:40:36.645881  9527 net.cpp:425] loss1/classifier_plantvillage_loss1/classifier_plantvillage_0_split <- loss1/classifier_plantvillage
I0403 19:40:36.645901  9527 net.cpp:399] loss1/classifier_plantvillage_loss1/classifier_plantvillage_0_split -> loss1/classifier_plantvillage_loss1/classifier_plantvillage_0_split_0
I0403 19:40:36.645922  9527 net.cpp:399] loss1/classifier_plantvillage_loss1/classifier_plantvillage_0_split -> loss1/classifier_plantvillage_loss1/classifier_plantvillage_0_split_1
I0403 19:40:36.645941  9527 net.cpp:399] loss1/classifier_plantvillage_loss1/classifier_plantvillage_0_split -> loss1/classifier_plantvillage_loss1/classifier_plantvillage_0_split_2
I0403 19:40:36.646006  9527 net.cpp:141] Setting up loss1/classifier_plantvillage_loss1/classifier_plantvillage_0_split
I0403 19:40:36.646029  9527 net.cpp:148] Top shape: 24 38 (912)
I0403 19:40:36.646044  9527 net.cpp:148] Top shape: 24 38 (912)
I0403 19:40:36.646060  9527 net.cpp:148] Top shape: 24 38 (912)
I0403 19:40:36.646072  9527 net.cpp:156] Memory required for data: 946203936
I0403 19:40:36.646085  9527 layer_factory.hpp:77] Creating layer inception_4b/1x1
I0403 19:40:36.646107  9527 net.cpp:91] Creating Layer inception_4b/1x1
I0403 19:40:36.646137  9527 net.cpp:425] inception_4b/1x1 <- inception_4a/output_inception_4a/output_0_split_1
I0403 19:40:36.646157  9527 net.cpp:399] inception_4b/1x1 -> inception_4b/1x1
I0403 19:40:36.647706  9527 net.cpp:141] Setting up inception_4b/1x1
I0403 19:40:36.647733  9527 net.cpp:148] Top shape: 24 160 14 14 (752640)
I0403 19:40:36.647747  9527 net.cpp:156] Memory required for data: 949214496
I0403 19:40:36.647765  9527 layer_factory.hpp:77] Creating layer inception_4b/relu_1x1
I0403 19:40:36.647784  9527 net.cpp:91] Creating Layer inception_4b/relu_1x1
I0403 19:40:36.647799  9527 net.cpp:425] inception_4b/relu_1x1 <- inception_4b/1x1
I0403 19:40:36.647816  9527 net.cpp:386] inception_4b/relu_1x1 -> inception_4b/1x1 (in-place)
I0403 19:40:36.647984  9527 net.cpp:141] Setting up inception_4b/relu_1x1
I0403 19:40:36.648011  9527 net.cpp:148] Top shape: 24 160 14 14 (752640)
I0403 19:40:36.648026  9527 net.cpp:156] Memory required for data: 952225056
I0403 19:40:36.648041  9527 layer_factory.hpp:77] Creating layer inception_4b/3x3_reduce
I0403 19:40:36.648064  9527 net.cpp:91] Creating Layer inception_4b/3x3_reduce
I0403 19:40:36.648082  9527 net.cpp:425] inception_4b/3x3_reduce <- inception_4a/output_inception_4a/output_0_split_2
I0403 19:40:36.648100  9527 net.cpp:399] inception_4b/3x3_reduce -> inception_4b/3x3_reduce
I0403 19:40:36.649385  9527 net.cpp:141] Setting up inception_4b/3x3_reduce
I0403 19:40:36.649415  9527 net.cpp:148] Top shape: 24 112 14 14 (526848)
I0403 19:40:36.649431  9527 net.cpp:156] Memory required for data: 954332448
I0403 19:40:36.649449  9527 layer_factory.hpp:77] Creating layer inception_4b/relu_3x3_reduce
I0403 19:40:36.649472  9527 net.cpp:91] Creating Layer inception_4b/relu_3x3_reduce
I0403 19:40:36.649489  9527 net.cpp:425] inception_4b/relu_3x3_reduce <- inception_4b/3x3_reduce
I0403 19:40:36.649507  9527 net.cpp:386] inception_4b/relu_3x3_reduce -> inception_4b/3x3_reduce (in-place)
I0403 19:40:36.649773  9527 net.cpp:141] Setting up inception_4b/relu_3x3_reduce
I0403 19:40:36.649801  9527 net.cpp:148] Top shape: 24 112 14 14 (526848)
I0403 19:40:36.649816  9527 net.cpp:156] Memory required for data: 956439840
I0403 19:40:36.649830  9527 layer_factory.hpp:77] Creating layer inception_4b/3x3
I0403 19:40:36.649859  9527 net.cpp:91] Creating Layer inception_4b/3x3
I0403 19:40:36.649886  9527 net.cpp:425] inception_4b/3x3 <- inception_4b/3x3_reduce
I0403 19:40:36.649906  9527 net.cpp:399] inception_4b/3x3 -> inception_4b/3x3
I0403 19:40:36.652740  9527 net.cpp:141] Setting up inception_4b/3x3
I0403 19:40:36.652770  9527 net.cpp:148] Top shape: 24 224 14 14 (1053696)
I0403 19:40:36.652784  9527 net.cpp:156] Memory required for data: 960654624
I0403 19:40:36.652802  9527 layer_factory.hpp:77] Creating layer inception_4b/relu_3x3
I0403 19:40:36.652820  9527 net.cpp:91] Creating Layer inception_4b/relu_3x3
I0403 19:40:36.652835  9527 net.cpp:425] inception_4b/relu_3x3 <- inception_4b/3x3
I0403 19:40:36.652855  9527 net.cpp:386] inception_4b/relu_3x3 -> inception_4b/3x3 (in-place)
I0403 19:40:36.653028  9527 net.cpp:141] Setting up inception_4b/relu_3x3
I0403 19:40:36.653053  9527 net.cpp:148] Top shape: 24 224 14 14 (1053696)
I0403 19:40:36.653066  9527 net.cpp:156] Memory required for data: 964869408
I0403 19:40:36.653080  9527 layer_factory.hpp:77] Creating layer inception_4b/5x5_reduce
I0403 19:40:36.653102  9527 net.cpp:91] Creating Layer inception_4b/5x5_reduce
I0403 19:40:36.653118  9527 net.cpp:425] inception_4b/5x5_reduce <- inception_4a/output_inception_4a/output_0_split_3
I0403 19:40:36.653141  9527 net.cpp:399] inception_4b/5x5_reduce -> inception_4b/5x5_reduce
I0403 19:40:36.654178  9527 net.cpp:141] Setting up inception_4b/5x5_reduce
I0403 19:40:36.654206  9527 net.cpp:148] Top shape: 24 24 14 14 (112896)
I0403 19:40:36.654220  9527 net.cpp:156] Memory required for data: 965320992
I0403 19:40:36.654238  9527 layer_factory.hpp:77] Creating layer inception_4b/relu_5x5_reduce
I0403 19:40:36.654258  9527 net.cpp:91] Creating Layer inception_4b/relu_5x5_reduce
I0403 19:40:36.654287  9527 net.cpp:425] inception_4b/relu_5x5_reduce <- inception_4b/5x5_reduce
I0403 19:40:36.654306  9527 net.cpp:386] inception_4b/relu_5x5_reduce -> inception_4b/5x5_reduce (in-place)
I0403 19:40:36.654484  9527 net.cpp:141] Setting up inception_4b/relu_5x5_reduce
I0403 19:40:36.654510  9527 net.cpp:148] Top shape: 24 24 14 14 (112896)
I0403 19:40:36.654526  9527 net.cpp:156] Memory required for data: 965772576
I0403 19:40:36.654541  9527 layer_factory.hpp:77] Creating layer inception_4b/5x5
I0403 19:40:36.654563  9527 net.cpp:91] Creating Layer inception_4b/5x5
I0403 19:40:36.654580  9527 net.cpp:425] inception_4b/5x5 <- inception_4b/5x5_reduce
I0403 19:40:36.654598  9527 net.cpp:399] inception_4b/5x5 -> inception_4b/5x5
I0403 19:40:36.655753  9527 net.cpp:141] Setting up inception_4b/5x5
I0403 19:40:36.655781  9527 net.cpp:148] Top shape: 24 64 14 14 (301056)
I0403 19:40:36.655796  9527 net.cpp:156] Memory required for data: 966976800
I0403 19:40:36.655813  9527 layer_factory.hpp:77] Creating layer inception_4b/relu_5x5
I0403 19:40:36.655833  9527 net.cpp:91] Creating Layer inception_4b/relu_5x5
I0403 19:40:36.655851  9527 net.cpp:425] inception_4b/relu_5x5 <- inception_4b/5x5
I0403 19:40:36.655869  9527 net.cpp:386] inception_4b/relu_5x5 -> inception_4b/5x5 (in-place)
I0403 19:40:36.656139  9527 net.cpp:141] Setting up inception_4b/relu_5x5
I0403 19:40:36.656165  9527 net.cpp:148] Top shape: 24 64 14 14 (301056)
I0403 19:40:36.656179  9527 net.cpp:156] Memory required for data: 968181024
I0403 19:40:36.656194  9527 layer_factory.hpp:77] Creating layer inception_4b/pool
I0403 19:40:36.656218  9527 net.cpp:91] Creating Layer inception_4b/pool
I0403 19:40:36.656234  9527 net.cpp:425] inception_4b/pool <- inception_4a/output_inception_4a/output_0_split_4
I0403 19:40:36.656252  9527 net.cpp:399] inception_4b/pool -> inception_4b/pool
I0403 19:40:36.656314  9527 net.cpp:141] Setting up inception_4b/pool
I0403 19:40:36.656337  9527 net.cpp:148] Top shape: 24 512 14 14 (2408448)
I0403 19:40:36.656352  9527 net.cpp:156] Memory required for data: 977814816
I0403 19:40:36.656366  9527 layer_factory.hpp:77] Creating layer inception_4b/pool_proj
I0403 19:40:36.656388  9527 net.cpp:91] Creating Layer inception_4b/pool_proj
I0403 19:40:36.656404  9527 net.cpp:425] inception_4b/pool_proj <- inception_4b/pool
I0403 19:40:36.656424  9527 net.cpp:399] inception_4b/pool_proj -> inception_4b/pool_proj
I0403 19:40:36.657580  9527 net.cpp:141] Setting up inception_4b/pool_proj
I0403 19:40:36.657608  9527 net.cpp:148] Top shape: 24 64 14 14 (301056)
I0403 19:40:36.657624  9527 net.cpp:156] Memory required for data: 979019040
I0403 19:40:36.657640  9527 layer_factory.hpp:77] Creating layer inception_4b/relu_pool_proj
I0403 19:40:36.657660  9527 net.cpp:91] Creating Layer inception_4b/relu_pool_proj
I0403 19:40:36.657675  9527 net.cpp:425] inception_4b/relu_pool_proj <- inception_4b/pool_proj
I0403 19:40:36.657692  9527 net.cpp:386] inception_4b/relu_pool_proj -> inception_4b/pool_proj (in-place)
I0403 19:40:36.657861  9527 net.cpp:141] Setting up inception_4b/relu_pool_proj
I0403 19:40:36.657888  9527 net.cpp:148] Top shape: 24 64 14 14 (301056)
I0403 19:40:36.657903  9527 net.cpp:156] Memory required for data: 980223264
I0403 19:40:36.657918  9527 layer_factory.hpp:77] Creating layer inception_4b/output
I0403 19:40:36.657935  9527 net.cpp:91] Creating Layer inception_4b/output
I0403 19:40:36.657949  9527 net.cpp:425] inception_4b/output <- inception_4b/1x1
I0403 19:40:36.657966  9527 net.cpp:425] inception_4b/output <- inception_4b/3x3
I0403 19:40:36.657980  9527 net.cpp:425] inception_4b/output <- inception_4b/5x5
I0403 19:40:36.657995  9527 net.cpp:425] inception_4b/output <- inception_4b/pool_proj
I0403 19:40:36.658011  9527 net.cpp:399] inception_4b/output -> inception_4b/output
I0403 19:40:36.658056  9527 net.cpp:141] Setting up inception_4b/output
I0403 19:40:36.658078  9527 net.cpp:148] Top shape: 24 512 14 14 (2408448)
I0403 19:40:36.658093  9527 net.cpp:156] Memory required for data: 989857056
I0403 19:40:36.658120  9527 layer_factory.hpp:77] Creating layer inception_4b/output_inception_4b/output_0_split
I0403 19:40:36.658140  9527 net.cpp:91] Creating Layer inception_4b/output_inception_4b/output_0_split
I0403 19:40:36.658155  9527 net.cpp:425] inception_4b/output_inception_4b/output_0_split <- inception_4b/output
I0403 19:40:36.658172  9527 net.cpp:399] inception_4b/output_inception_4b/output_0_split -> inception_4b/output_inception_4b/output_0_split_0
I0403 19:40:36.658195  9527 net.cpp:399] inception_4b/output_inception_4b/output_0_split -> inception_4b/output_inception_4b/output_0_split_1
I0403 19:40:36.658215  9527 net.cpp:399] inception_4b/output_inception_4b/output_0_split -> inception_4b/output_inception_4b/output_0_split_2
I0403 19:40:36.658237  9527 net.cpp:399] inception_4b/output_inception_4b/output_0_split -> inception_4b/output_inception_4b/output_0_split_3
I0403 19:40:36.658318  9527 net.cpp:141] Setting up inception_4b/output_inception_4b/output_0_split
I0403 19:40:36.658341  9527 net.cpp:148] Top shape: 24 512 14 14 (2408448)
I0403 19:40:36.658357  9527 net.cpp:148] Top shape: 24 512 14 14 (2408448)
I0403 19:40:36.658372  9527 net.cpp:148] Top shape: 24 512 14 14 (2408448)
I0403 19:40:36.658386  9527 net.cpp:148] Top shape: 24 512 14 14 (2408448)
I0403 19:40:36.658401  9527 net.cpp:156] Memory required for data: 1028392224
I0403 19:40:36.658416  9527 layer_factory.hpp:77] Creating layer inception_4c/1x1
I0403 19:40:36.658437  9527 net.cpp:91] Creating Layer inception_4c/1x1
I0403 19:40:36.658454  9527 net.cpp:425] inception_4c/1x1 <- inception_4b/output_inception_4b/output_0_split_0
I0403 19:40:36.658479  9527 net.cpp:399] inception_4c/1x1 -> inception_4c/1x1
I0403 19:40:36.659834  9527 net.cpp:141] Setting up inception_4c/1x1
I0403 19:40:36.659862  9527 net.cpp:148] Top shape: 24 128 14 14 (602112)
I0403 19:40:36.659876  9527 net.cpp:156] Memory required for data: 1030800672
I0403 19:40:36.659893  9527 layer_factory.hpp:77] Creating layer inception_4c/relu_1x1
I0403 19:40:36.659911  9527 net.cpp:91] Creating Layer inception_4c/relu_1x1
I0403 19:40:36.659926  9527 net.cpp:425] inception_4c/relu_1x1 <- inception_4c/1x1
I0403 19:40:36.659945  9527 net.cpp:386] inception_4c/relu_1x1 -> inception_4c/1x1 (in-place)
I0403 19:40:36.660117  9527 net.cpp:141] Setting up inception_4c/relu_1x1
I0403 19:40:36.660142  9527 net.cpp:148] Top shape: 24 128 14 14 (602112)
I0403 19:40:36.660157  9527 net.cpp:156] Memory required for data: 1033209120
I0403 19:40:36.660172  9527 layer_factory.hpp:77] Creating layer inception_4c/3x3_reduce
I0403 19:40:36.660195  9527 net.cpp:91] Creating Layer inception_4c/3x3_reduce
I0403 19:40:36.660213  9527 net.cpp:425] inception_4c/3x3_reduce <- inception_4b/output_inception_4b/output_0_split_1
I0403 19:40:36.660233  9527 net.cpp:399] inception_4c/3x3_reduce -> inception_4c/3x3_reduce
I0403 19:40:36.662075  9527 net.cpp:141] Setting up inception_4c/3x3_reduce
I0403 19:40:36.662103  9527 net.cpp:148] Top shape: 24 128 14 14 (602112)
I0403 19:40:36.662119  9527 net.cpp:156] Memory required for data: 1035617568
I0403 19:40:36.662137  9527 layer_factory.hpp:77] Creating layer inception_4c/relu_3x3_reduce
I0403 19:40:36.662158  9527 net.cpp:91] Creating Layer inception_4c/relu_3x3_reduce
I0403 19:40:36.662175  9527 net.cpp:425] inception_4c/relu_3x3_reduce <- inception_4c/3x3_reduce
I0403 19:40:36.662192  9527 net.cpp:386] inception_4c/relu_3x3_reduce -> inception_4c/3x3_reduce (in-place)
I0403 19:40:36.662480  9527 net.cpp:141] Setting up inception_4c/relu_3x3_reduce
I0403 19:40:36.662508  9527 net.cpp:148] Top shape: 24 128 14 14 (602112)
I0403 19:40:36.662523  9527 net.cpp:156] Memory required for data: 1038026016
I0403 19:40:36.662536  9527 layer_factory.hpp:77] Creating layer inception_4c/3x3
I0403 19:40:36.662559  9527 net.cpp:91] Creating Layer inception_4c/3x3
I0403 19:40:36.662576  9527 net.cpp:425] inception_4c/3x3 <- inception_4c/3x3_reduce
I0403 19:40:36.662597  9527 net.cpp:399] inception_4c/3x3 -> inception_4c/3x3
I0403 19:40:36.666010  9527 net.cpp:141] Setting up inception_4c/3x3
I0403 19:40:36.666049  9527 net.cpp:148] Top shape: 24 256 14 14 (1204224)
I0403 19:40:36.666065  9527 net.cpp:156] Memory required for data: 1042842912
I0403 19:40:36.666096  9527 layer_factory.hpp:77] Creating layer inception_4c/relu_3x3
I0403 19:40:36.666118  9527 net.cpp:91] Creating Layer inception_4c/relu_3x3
I0403 19:40:36.666136  9527 net.cpp:425] inception_4c/relu_3x3 <- inception_4c/3x3
I0403 19:40:36.666152  9527 net.cpp:386] inception_4c/relu_3x3 -> inception_4c/3x3 (in-place)
I0403 19:40:36.666322  9527 net.cpp:141] Setting up inception_4c/relu_3x3
I0403 19:40:36.666347  9527 net.cpp:148] Top shape: 24 256 14 14 (1204224)
I0403 19:40:36.666362  9527 net.cpp:156] Memory required for data: 1047659808
I0403 19:40:36.666375  9527 layer_factory.hpp:77] Creating layer inception_4c/5x5_reduce
I0403 19:40:36.666396  9527 net.cpp:91] Creating Layer inception_4c/5x5_reduce
I0403 19:40:36.666414  9527 net.cpp:425] inception_4c/5x5_reduce <- inception_4b/output_inception_4b/output_0_split_2
I0403 19:40:36.666435  9527 net.cpp:399] inception_4c/5x5_reduce -> inception_4c/5x5_reduce
I0403 19:40:36.667479  9527 net.cpp:141] Setting up inception_4c/5x5_reduce
I0403 19:40:36.667506  9527 net.cpp:148] Top shape: 24 24 14 14 (112896)
I0403 19:40:36.667521  9527 net.cpp:156] Memory required for data: 1048111392
I0403 19:40:36.667538  9527 layer_factory.hpp:77] Creating layer inception_4c/relu_5x5_reduce
I0403 19:40:36.667558  9527 net.cpp:91] Creating Layer inception_4c/relu_5x5_reduce
I0403 19:40:36.667575  9527 net.cpp:425] inception_4c/relu_5x5_reduce <- inception_4c/5x5_reduce
I0403 19:40:36.667593  9527 net.cpp:386] inception_4c/relu_5x5_reduce -> inception_4c/5x5_reduce (in-place)
I0403 19:40:36.667768  9527 net.cpp:141] Setting up inception_4c/relu_5x5_reduce
I0403 19:40:36.667795  9527 net.cpp:148] Top shape: 24 24 14 14 (112896)
I0403 19:40:36.667809  9527 net.cpp:156] Memory required for data: 1048562976
I0403 19:40:36.667824  9527 layer_factory.hpp:77] Creating layer inception_4c/5x5
I0403 19:40:36.667845  9527 net.cpp:91] Creating Layer inception_4c/5x5
I0403 19:40:36.667862  9527 net.cpp:425] inception_4c/5x5 <- inception_4c/5x5_reduce
I0403 19:40:36.667881  9527 net.cpp:399] inception_4c/5x5 -> inception_4c/5x5
I0403 19:40:36.669044  9527 net.cpp:141] Setting up inception_4c/5x5
I0403 19:40:36.669071  9527 net.cpp:148] Top shape: 24 64 14 14 (301056)
I0403 19:40:36.669087  9527 net.cpp:156] Memory required for data: 1049767200
I0403 19:40:36.669105  9527 layer_factory.hpp:77] Creating layer inception_4c/relu_5x5
I0403 19:40:36.669122  9527 net.cpp:91] Creating Layer inception_4c/relu_5x5
I0403 19:40:36.669137  9527 net.cpp:425] inception_4c/relu_5x5 <- inception_4c/5x5
I0403 19:40:36.669157  9527 net.cpp:386] inception_4c/relu_5x5 -> inception_4c/5x5 (in-place)
I0403 19:40:36.669427  9527 net.cpp:141] Setting up inception_4c/relu_5x5
I0403 19:40:36.669456  9527 net.cpp:148] Top shape: 24 64 14 14 (301056)
I0403 19:40:36.669477  9527 net.cpp:156] Memory required for data: 1050971424
I0403 19:40:36.669492  9527 layer_factory.hpp:77] Creating layer inception_4c/pool
I0403 19:40:36.669509  9527 net.cpp:91] Creating Layer inception_4c/pool
I0403 19:40:36.669524  9527 net.cpp:425] inception_4c/pool <- inception_4b/output_inception_4b/output_0_split_3
I0403 19:40:36.669545  9527 net.cpp:399] inception_4c/pool -> inception_4c/pool
I0403 19:40:36.669607  9527 net.cpp:141] Setting up inception_4c/pool
I0403 19:40:36.669631  9527 net.cpp:148] Top shape: 24 512 14 14 (2408448)
I0403 19:40:36.669647  9527 net.cpp:156] Memory required for data: 1060605216
I0403 19:40:36.669662  9527 layer_factory.hpp:77] Creating layer inception_4c/pool_proj
I0403 19:40:36.669684  9527 net.cpp:91] Creating Layer inception_4c/pool_proj
I0403 19:40:36.669703  9527 net.cpp:425] inception_4c/pool_proj <- inception_4c/pool
I0403 19:40:36.669721  9527 net.cpp:399] inception_4c/pool_proj -> inception_4c/pool_proj
I0403 19:40:36.670878  9527 net.cpp:141] Setting up inception_4c/pool_proj
I0403 19:40:36.670905  9527 net.cpp:148] Top shape: 24 64 14 14 (301056)
I0403 19:40:36.670938  9527 net.cpp:156] Memory required for data: 1061809440
I0403 19:40:36.670956  9527 layer_factory.hpp:77] Creating layer inception_4c/relu_pool_proj
I0403 19:40:36.670975  9527 net.cpp:91] Creating Layer inception_4c/relu_pool_proj
I0403 19:40:36.670991  9527 net.cpp:425] inception_4c/relu_pool_proj <- inception_4c/pool_proj
I0403 19:40:36.671010  9527 net.cpp:386] inception_4c/relu_pool_proj -> inception_4c/pool_proj (in-place)
I0403 19:40:36.671178  9527 net.cpp:141] Setting up inception_4c/relu_pool_proj
I0403 19:40:36.671206  9527 net.cpp:148] Top shape: 24 64 14 14 (301056)
I0403 19:40:36.671221  9527 net.cpp:156] Memory required for data: 1063013664
I0403 19:40:36.671234  9527 layer_factory.hpp:77] Creating layer inception_4c/output
I0403 19:40:36.671252  9527 net.cpp:91] Creating Layer inception_4c/output
I0403 19:40:36.671265  9527 net.cpp:425] inception_4c/output <- inception_4c/1x1
I0403 19:40:36.671282  9527 net.cpp:425] inception_4c/output <- inception_4c/3x3
I0403 19:40:36.671296  9527 net.cpp:425] inception_4c/output <- inception_4c/5x5
I0403 19:40:36.671311  9527 net.cpp:425] inception_4c/output <- inception_4c/pool_proj
I0403 19:40:36.671327  9527 net.cpp:399] inception_4c/output -> inception_4c/output
I0403 19:40:36.671372  9527 net.cpp:141] Setting up inception_4c/output
I0403 19:40:36.671396  9527 net.cpp:148] Top shape: 24 512 14 14 (2408448)
I0403 19:40:36.671409  9527 net.cpp:156] Memory required for data: 1072647456
I0403 19:40:36.671424  9527 layer_factory.hpp:77] Creating layer inception_4c/output_inception_4c/output_0_split
I0403 19:40:36.671443  9527 net.cpp:91] Creating Layer inception_4c/output_inception_4c/output_0_split
I0403 19:40:36.671463  9527 net.cpp:425] inception_4c/output_inception_4c/output_0_split <- inception_4c/output
I0403 19:40:36.671481  9527 net.cpp:399] inception_4c/output_inception_4c/output_0_split -> inception_4c/output_inception_4c/output_0_split_0
I0403 19:40:36.671501  9527 net.cpp:399] inception_4c/output_inception_4c/output_0_split -> inception_4c/output_inception_4c/output_0_split_1
I0403 19:40:36.671530  9527 net.cpp:399] inception_4c/output_inception_4c/output_0_split -> inception_4c/output_inception_4c/output_0_split_2
I0403 19:40:36.671548  9527 net.cpp:399] inception_4c/output_inception_4c/output_0_split -> inception_4c/output_inception_4c/output_0_split_3
I0403 19:40:36.671632  9527 net.cpp:141] Setting up inception_4c/output_inception_4c/output_0_split
I0403 19:40:36.671654  9527 net.cpp:148] Top shape: 24 512 14 14 (2408448)
I0403 19:40:36.671669  9527 net.cpp:148] Top shape: 24 512 14 14 (2408448)
I0403 19:40:36.671684  9527 net.cpp:148] Top shape: 24 512 14 14 (2408448)
I0403 19:40:36.671700  9527 net.cpp:148] Top shape: 24 512 14 14 (2408448)
I0403 19:40:36.671712  9527 net.cpp:156] Memory required for data: 1111182624
I0403 19:40:36.671726  9527 layer_factory.hpp:77] Creating layer inception_4d/1x1
I0403 19:40:36.671748  9527 net.cpp:91] Creating Layer inception_4d/1x1
I0403 19:40:36.671766  9527 net.cpp:425] inception_4d/1x1 <- inception_4c/output_inception_4c/output_0_split_0
I0403 19:40:36.671790  9527 net.cpp:399] inception_4d/1x1 -> inception_4d/1x1
I0403 19:40:36.673153  9527 net.cpp:141] Setting up inception_4d/1x1
I0403 19:40:36.673182  9527 net.cpp:148] Top shape: 24 112 14 14 (526848)
I0403 19:40:36.673197  9527 net.cpp:156] Memory required for data: 1113290016
I0403 19:40:36.673214  9527 layer_factory.hpp:77] Creating layer inception_4d/relu_1x1
I0403 19:40:36.673233  9527 net.cpp:91] Creating Layer inception_4d/relu_1x1
I0403 19:40:36.673249  9527 net.cpp:425] inception_4d/relu_1x1 <- inception_4d/1x1
I0403 19:40:36.673269  9527 net.cpp:386] inception_4d/relu_1x1 -> inception_4d/1x1 (in-place)
I0403 19:40:36.673461  9527 net.cpp:141] Setting up inception_4d/relu_1x1
I0403 19:40:36.673486  9527 net.cpp:148] Top shape: 24 112 14 14 (526848)
I0403 19:40:36.673501  9527 net.cpp:156] Memory required for data: 1115397408
I0403 19:40:36.673516  9527 layer_factory.hpp:77] Creating layer inception_4d/3x3_reduce
I0403 19:40:36.673552  9527 net.cpp:91] Creating Layer inception_4d/3x3_reduce
I0403 19:40:36.673571  9527 net.cpp:425] inception_4d/3x3_reduce <- inception_4c/output_inception_4c/output_0_split_1
I0403 19:40:36.673599  9527 net.cpp:399] inception_4d/3x3_reduce -> inception_4d/3x3_reduce
I0403 19:40:36.675065  9527 net.cpp:141] Setting up inception_4d/3x3_reduce
I0403 19:40:36.675096  9527 net.cpp:148] Top shape: 24 144 14 14 (677376)
I0403 19:40:36.675112  9527 net.cpp:156] Memory required for data: 1118106912
I0403 19:40:36.675130  9527 layer_factory.hpp:77] Creating layer inception_4d/relu_3x3_reduce
I0403 19:40:36.675149  9527 net.cpp:91] Creating Layer inception_4d/relu_3x3_reduce
I0403 19:40:36.675166  9527 net.cpp:425] inception_4d/relu_3x3_reduce <- inception_4d/3x3_reduce
I0403 19:40:36.675186  9527 net.cpp:386] inception_4d/relu_3x3_reduce -> inception_4d/3x3_reduce (in-place)
I0403 19:40:36.675472  9527 net.cpp:141] Setting up inception_4d/relu_3x3_reduce
I0403 19:40:36.675501  9527 net.cpp:148] Top shape: 24 144 14 14 (677376)
I0403 19:40:36.675518  9527 net.cpp:156] Memory required for data: 1120816416
I0403 19:40:36.675534  9527 layer_factory.hpp:77] Creating layer inception_4d/3x3
I0403 19:40:36.675556  9527 net.cpp:91] Creating Layer inception_4d/3x3
I0403 19:40:36.675575  9527 net.cpp:425] inception_4d/3x3 <- inception_4d/3x3_reduce
I0403 19:40:36.675593  9527 net.cpp:399] inception_4d/3x3 -> inception_4d/3x3
I0403 19:40:36.679729  9527 net.cpp:141] Setting up inception_4d/3x3
I0403 19:40:36.679759  9527 net.cpp:148] Top shape: 24 288 14 14 (1354752)
I0403 19:40:36.679774  9527 net.cpp:156] Memory required for data: 1126235424
I0403 19:40:36.679792  9527 layer_factory.hpp:77] Creating layer inception_4d/relu_3x3
I0403 19:40:36.679812  9527 net.cpp:91] Creating Layer inception_4d/relu_3x3
I0403 19:40:36.679829  9527 net.cpp:425] inception_4d/relu_3x3 <- inception_4d/3x3
I0403 19:40:36.679847  9527 net.cpp:386] inception_4d/relu_3x3 -> inception_4d/3x3 (in-place)
I0403 19:40:36.680023  9527 net.cpp:141] Setting up inception_4d/relu_3x3
I0403 19:40:36.680048  9527 net.cpp:148] Top shape: 24 288 14 14 (1354752)
I0403 19:40:36.680063  9527 net.cpp:156] Memory required for data: 1131654432
I0403 19:40:36.680078  9527 layer_factory.hpp:77] Creating layer inception_4d/5x5_reduce
I0403 19:40:36.680101  9527 net.cpp:91] Creating Layer inception_4d/5x5_reduce
I0403 19:40:36.680119  9527 net.cpp:425] inception_4d/5x5_reduce <- inception_4c/output_inception_4c/output_0_split_2
I0403 19:40:36.680140  9527 net.cpp:399] inception_4d/5x5_reduce -> inception_4d/5x5_reduce
I0403 19:40:36.681257  9527 net.cpp:141] Setting up inception_4d/5x5_reduce
I0403 19:40:36.681284  9527 net.cpp:148] Top shape: 24 32 14 14 (150528)
I0403 19:40:36.681299  9527 net.cpp:156] Memory required for data: 1132256544
I0403 19:40:36.681318  9527 layer_factory.hpp:77] Creating layer inception_4d/relu_5x5_reduce
I0403 19:40:36.681337  9527 net.cpp:91] Creating Layer inception_4d/relu_5x5_reduce
I0403 19:40:36.681354  9527 net.cpp:425] inception_4d/relu_5x5_reduce <- inception_4d/5x5_reduce
I0403 19:40:36.681375  9527 net.cpp:386] inception_4d/relu_5x5_reduce -> inception_4d/5x5_reduce (in-place)
I0403 19:40:36.681562  9527 net.cpp:141] Setting up inception_4d/relu_5x5_reduce
I0403 19:40:36.681596  9527 net.cpp:148] Top shape: 24 32 14 14 (150528)
I0403 19:40:36.681610  9527 net.cpp:156] Memory required for data: 1132858656
I0403 19:40:36.681625  9527 layer_factory.hpp:77] Creating layer inception_4d/5x5
I0403 19:40:36.681648  9527 net.cpp:91] Creating Layer inception_4d/5x5
I0403 19:40:36.681664  9527 net.cpp:425] inception_4d/5x5 <- inception_4d/5x5_reduce
I0403 19:40:36.681685  9527 net.cpp:399] inception_4d/5x5 -> inception_4d/5x5
I0403 19:40:36.683148  9527 net.cpp:141] Setting up inception_4d/5x5
I0403 19:40:36.683179  9527 net.cpp:148] Top shape: 24 64 14 14 (301056)
I0403 19:40:36.683197  9527 net.cpp:156] Memory required for data: 1134062880
I0403 19:40:36.683217  9527 layer_factory.hpp:77] Creating layer inception_4d/relu_5x5
I0403 19:40:36.683250  9527 net.cpp:91] Creating Layer inception_4d/relu_5x5
I0403 19:40:36.683269  9527 net.cpp:425] inception_4d/relu_5x5 <- inception_4d/5x5
I0403 19:40:36.683286  9527 net.cpp:386] inception_4d/relu_5x5 -> inception_4d/5x5 (in-place)
I0403 19:40:36.683593  9527 net.cpp:141] Setting up inception_4d/relu_5x5
I0403 19:40:36.683622  9527 net.cpp:148] Top shape: 24 64 14 14 (301056)
I0403 19:40:36.683640  9527 net.cpp:156] Memory required for data: 1135267104
I0403 19:40:36.683655  9527 layer_factory.hpp:77] Creating layer inception_4d/pool
I0403 19:40:36.683673  9527 net.cpp:91] Creating Layer inception_4d/pool
I0403 19:40:36.683691  9527 net.cpp:425] inception_4d/pool <- inception_4c/output_inception_4c/output_0_split_3
I0403 19:40:36.683707  9527 net.cpp:399] inception_4d/pool -> inception_4d/pool
I0403 19:40:36.683773  9527 net.cpp:141] Setting up inception_4d/pool
I0403 19:40:36.683799  9527 net.cpp:148] Top shape: 24 512 14 14 (2408448)
I0403 19:40:36.683814  9527 net.cpp:156] Memory required for data: 1144900896
I0403 19:40:36.683830  9527 layer_factory.hpp:77] Creating layer inception_4d/pool_proj
I0403 19:40:36.683851  9527 net.cpp:91] Creating Layer inception_4d/pool_proj
I0403 19:40:36.683871  9527 net.cpp:425] inception_4d/pool_proj <- inception_4d/pool
I0403 19:40:36.683892  9527 net.cpp:399] inception_4d/pool_proj -> inception_4d/pool_proj
I0403 19:40:36.685663  9527 net.cpp:141] Setting up inception_4d/pool_proj
I0403 19:40:36.685693  9527 net.cpp:148] Top shape: 24 64 14 14 (301056)
I0403 19:40:36.685709  9527 net.cpp:156] Memory required for data: 1146105120
I0403 19:40:36.685729  9527 layer_factory.hpp:77] Creating layer inception_4d/relu_pool_proj
I0403 19:40:36.685750  9527 net.cpp:91] Creating Layer inception_4d/relu_pool_proj
I0403 19:40:36.685767  9527 net.cpp:425] inception_4d/relu_pool_proj <- inception_4d/pool_proj
I0403 19:40:36.685786  9527 net.cpp:386] inception_4d/relu_pool_proj -> inception_4d/pool_proj (in-place)
I0403 19:40:36.685971  9527 net.cpp:141] Setting up inception_4d/relu_pool_proj
I0403 19:40:36.685997  9527 net.cpp:148] Top shape: 24 64 14 14 (301056)
I0403 19:40:36.686012  9527 net.cpp:156] Memory required for data: 1147309344
I0403 19:40:36.686025  9527 layer_factory.hpp:77] Creating layer inception_4d/output
I0403 19:40:36.686045  9527 net.cpp:91] Creating Layer inception_4d/output
I0403 19:40:36.686063  9527 net.cpp:425] inception_4d/output <- inception_4d/1x1
I0403 19:40:36.686080  9527 net.cpp:425] inception_4d/output <- inception_4d/3x3
I0403 19:40:36.686096  9527 net.cpp:425] inception_4d/output <- inception_4d/5x5
I0403 19:40:36.686112  9527 net.cpp:425] inception_4d/output <- inception_4d/pool_proj
I0403 19:40:36.686130  9527 net.cpp:399] inception_4d/output -> inception_4d/output
I0403 19:40:36.686179  9527 net.cpp:141] Setting up inception_4d/output
I0403 19:40:36.686203  9527 net.cpp:148] Top shape: 24 528 14 14 (2483712)
I0403 19:40:36.686219  9527 net.cpp:156] Memory required for data: 1157244192
I0403 19:40:36.686234  9527 layer_factory.hpp:77] Creating layer inception_4d/output_inception_4d/output_0_split
I0403 19:40:36.686257  9527 net.cpp:91] Creating Layer inception_4d/output_inception_4d/output_0_split
I0403 19:40:36.686274  9527 net.cpp:425] inception_4d/output_inception_4d/output_0_split <- inception_4d/output
I0403 19:40:36.686293  9527 net.cpp:399] inception_4d/output_inception_4d/output_0_split -> inception_4d/output_inception_4d/output_0_split_0
I0403 19:40:36.686316  9527 net.cpp:399] inception_4d/output_inception_4d/output_0_split -> inception_4d/output_inception_4d/output_0_split_1
I0403 19:40:36.686338  9527 net.cpp:399] inception_4d/output_inception_4d/output_0_split -> inception_4d/output_inception_4d/output_0_split_2
I0403 19:40:36.686359  9527 net.cpp:399] inception_4d/output_inception_4d/output_0_split -> inception_4d/output_inception_4d/output_0_split_3
I0403 19:40:36.686385  9527 net.cpp:399] inception_4d/output_inception_4d/output_0_split -> inception_4d/output_inception_4d/output_0_split_4
I0403 19:40:36.686491  9527 net.cpp:141] Setting up inception_4d/output_inception_4d/output_0_split
I0403 19:40:36.686527  9527 net.cpp:148] Top shape: 24 528 14 14 (2483712)
I0403 19:40:36.686545  9527 net.cpp:148] Top shape: 24 528 14 14 (2483712)
I0403 19:40:36.686561  9527 net.cpp:148] Top shape: 24 528 14 14 (2483712)
I0403 19:40:36.686578  9527 net.cpp:148] Top shape: 24 528 14 14 (2483712)
I0403 19:40:36.686594  9527 net.cpp:148] Top shape: 24 528 14 14 (2483712)
I0403 19:40:36.686607  9527 net.cpp:156] Memory required for data: 1206918432
I0403 19:40:36.686621  9527 layer_factory.hpp:77] Creating layer loss2/ave_pool
I0403 19:40:36.686640  9527 net.cpp:91] Creating Layer loss2/ave_pool
I0403 19:40:36.686656  9527 net.cpp:425] loss2/ave_pool <- inception_4d/output_inception_4d/output_0_split_0
I0403 19:40:36.686677  9527 net.cpp:399] loss2/ave_pool -> loss2/ave_pool
I0403 19:40:36.686991  9527 net.cpp:141] Setting up loss2/ave_pool
I0403 19:40:36.687018  9527 net.cpp:148] Top shape: 24 528 4 4 (202752)
I0403 19:40:36.687034  9527 net.cpp:156] Memory required for data: 1207729440
I0403 19:40:36.687050  9527 layer_factory.hpp:77] Creating layer loss2/conv
I0403 19:40:36.687072  9527 net.cpp:91] Creating Layer loss2/conv
I0403 19:40:36.687090  9527 net.cpp:425] loss2/conv <- loss2/ave_pool
I0403 19:40:36.687111  9527 net.cpp:399] loss2/conv -> loss2/conv
I0403 19:40:36.688997  9527 net.cpp:141] Setting up loss2/conv
I0403 19:40:36.689025  9527 net.cpp:148] Top shape: 24 128 4 4 (49152)
I0403 19:40:36.689043  9527 net.cpp:156] Memory required for data: 1207926048
I0403 19:40:36.689061  9527 layer_factory.hpp:77] Creating layer loss2/relu_conv
I0403 19:40:36.689081  9527 net.cpp:91] Creating Layer loss2/relu_conv
I0403 19:40:36.689100  9527 net.cpp:425] loss2/relu_conv <- loss2/conv
I0403 19:40:36.689118  9527 net.cpp:386] loss2/relu_conv -> loss2/conv (in-place)
I0403 19:40:36.689405  9527 net.cpp:141] Setting up loss2/relu_conv
I0403 19:40:36.689432  9527 net.cpp:148] Top shape: 24 128 4 4 (49152)
I0403 19:40:36.689447  9527 net.cpp:156] Memory required for data: 1208122656
I0403 19:40:36.689467  9527 layer_factory.hpp:77] Creating layer loss2/fc
I0403 19:40:36.689491  9527 net.cpp:91] Creating Layer loss2/fc
I0403 19:40:36.689510  9527 net.cpp:425] loss2/fc <- loss2/conv
I0403 19:40:36.689532  9527 net.cpp:399] loss2/fc -> loss2/fc
I0403 19:40:36.706254  9527 net.cpp:141] Setting up loss2/fc
I0403 19:40:36.706286  9527 net.cpp:148] Top shape: 24 1024 (24576)
I0403 19:40:36.706302  9527 net.cpp:156] Memory required for data: 1208220960
I0403 19:40:36.706321  9527 layer_factory.hpp:77] Creating layer loss2/relu_fc
I0403 19:40:36.706338  9527 net.cpp:91] Creating Layer loss2/relu_fc
I0403 19:40:36.706353  9527 net.cpp:425] loss2/relu_fc <- loss2/fc
I0403 19:40:36.706372  9527 net.cpp:386] loss2/relu_fc -> loss2/fc (in-place)
I0403 19:40:36.706660  9527 net.cpp:141] Setting up loss2/relu_fc
I0403 19:40:36.706686  9527 net.cpp:148] Top shape: 24 1024 (24576)
I0403 19:40:36.706701  9527 net.cpp:156] Memory required for data: 1208319264
I0403 19:40:36.706715  9527 layer_factory.hpp:77] Creating layer loss2/drop_fc
I0403 19:40:36.706733  9527 net.cpp:91] Creating Layer loss2/drop_fc
I0403 19:40:36.706748  9527 net.cpp:425] loss2/drop_fc <- loss2/fc
I0403 19:40:36.706768  9527 net.cpp:386] loss2/drop_fc -> loss2/fc (in-place)
I0403 19:40:36.706820  9527 net.cpp:141] Setting up loss2/drop_fc
I0403 19:40:36.706842  9527 net.cpp:148] Top shape: 24 1024 (24576)
I0403 19:40:36.706857  9527 net.cpp:156] Memory required for data: 1208417568
I0403 19:40:36.706871  9527 layer_factory.hpp:77] Creating layer loss2/classifier_plantvillage
I0403 19:40:36.706889  9527 net.cpp:91] Creating Layer loss2/classifier_plantvillage
I0403 19:40:36.706904  9527 net.cpp:425] loss2/classifier_plantvillage <- loss2/fc
I0403 19:40:36.706926  9527 net.cpp:399] loss2/classifier_plantvillage -> loss2/classifier_plantvillage
I0403 19:40:36.707304  9527 net.cpp:141] Setting up loss2/classifier_plantvillage
I0403 19:40:36.707329  9527 net.cpp:148] Top shape: 24 38 (912)
I0403 19:40:36.707342  9527 net.cpp:156] Memory required for data: 1208421216
I0403 19:40:36.707375  9527 layer_factory.hpp:77] Creating layer loss2/classifier_plantvillage_loss2/classifier_plantvillage_0_split
I0403 19:40:36.707394  9527 net.cpp:91] Creating Layer loss2/classifier_plantvillage_loss2/classifier_plantvillage_0_split
I0403 19:40:36.707412  9527 net.cpp:425] loss2/classifier_plantvillage_loss2/classifier_plantvillage_0_split <- loss2/classifier_plantvillage
I0403 19:40:36.707432  9527 net.cpp:399] loss2/classifier_plantvillage_loss2/classifier_plantvillage_0_split -> loss2/classifier_plantvillage_loss2/classifier_plantvillage_0_split_0
I0403 19:40:36.707453  9527 net.cpp:399] loss2/classifier_plantvillage_loss2/classifier_plantvillage_0_split -> loss2/classifier_plantvillage_loss2/classifier_plantvillage_0_split_1
I0403 19:40:36.707476  9527 net.cpp:399] loss2/classifier_plantvillage_loss2/classifier_plantvillage_0_split -> loss2/classifier_plantvillage_loss2/classifier_plantvillage_0_split_2
I0403 19:40:36.707550  9527 net.cpp:141] Setting up loss2/classifier_plantvillage_loss2/classifier_plantvillage_0_split
I0403 19:40:36.707572  9527 net.cpp:148] Top shape: 24 38 (912)
I0403 19:40:36.707588  9527 net.cpp:148] Top shape: 24 38 (912)
I0403 19:40:36.707602  9527 net.cpp:148] Top shape: 24 38 (912)
I0403 19:40:36.707617  9527 net.cpp:156] Memory required for data: 1208432160
I0403 19:40:36.707630  9527 layer_factory.hpp:77] Creating layer inception_4e/1x1
I0403 19:40:36.707651  9527 net.cpp:91] Creating Layer inception_4e/1x1
I0403 19:40:36.707669  9527 net.cpp:425] inception_4e/1x1 <- inception_4d/output_inception_4d/output_0_split_1
I0403 19:40:36.707686  9527 net.cpp:399] inception_4e/1x1 -> inception_4e/1x1
I0403 19:40:36.709401  9527 net.cpp:141] Setting up inception_4e/1x1
I0403 19:40:36.709430  9527 net.cpp:148] Top shape: 24 256 14 14 (1204224)
I0403 19:40:36.709447  9527 net.cpp:156] Memory required for data: 1213249056
I0403 19:40:36.709470  9527 layer_factory.hpp:77] Creating layer inception_4e/relu_1x1
I0403 19:40:36.709488  9527 net.cpp:91] Creating Layer inception_4e/relu_1x1
I0403 19:40:36.709503  9527 net.cpp:425] inception_4e/relu_1x1 <- inception_4e/1x1
I0403 19:40:36.709520  9527 net.cpp:386] inception_4e/relu_1x1 -> inception_4e/1x1 (in-place)
I0403 19:40:36.709800  9527 net.cpp:141] Setting up inception_4e/relu_1x1
I0403 19:40:36.709827  9527 net.cpp:148] Top shape: 24 256 14 14 (1204224)
I0403 19:40:36.709843  9527 net.cpp:156] Memory required for data: 1218065952
I0403 19:40:36.709858  9527 layer_factory.hpp:77] Creating layer inception_4e/3x3_reduce
I0403 19:40:36.709882  9527 net.cpp:91] Creating Layer inception_4e/3x3_reduce
I0403 19:40:36.709898  9527 net.cpp:425] inception_4e/3x3_reduce <- inception_4d/output_inception_4d/output_0_split_2
I0403 19:40:36.709918  9527 net.cpp:399] inception_4e/3x3_reduce -> inception_4e/3x3_reduce
I0403 19:40:36.711917  9527 net.cpp:141] Setting up inception_4e/3x3_reduce
I0403 19:40:36.711944  9527 net.cpp:148] Top shape: 24 160 14 14 (752640)
I0403 19:40:36.711961  9527 net.cpp:156] Memory required for data: 1221076512
I0403 19:40:36.711977  9527 layer_factory.hpp:77] Creating layer inception_4e/relu_3x3_reduce
I0403 19:40:36.711997  9527 net.cpp:91] Creating Layer inception_4e/relu_3x3_reduce
I0403 19:40:36.712013  9527 net.cpp:425] inception_4e/relu_3x3_reduce <- inception_4e/3x3_reduce
I0403 19:40:36.712030  9527 net.cpp:386] inception_4e/relu_3x3_reduce -> inception_4e/3x3_reduce (in-place)
I0403 19:40:36.712208  9527 net.cpp:141] Setting up inception_4e/relu_3x3_reduce
I0403 19:40:36.712232  9527 net.cpp:148] Top shape: 24 160 14 14 (752640)
I0403 19:40:36.712246  9527 net.cpp:156] Memory required for data: 1224087072
I0403 19:40:36.712260  9527 layer_factory.hpp:77] Creating layer inception_4e/3x3
I0403 19:40:36.712281  9527 net.cpp:91] Creating Layer inception_4e/3x3
I0403 19:40:36.712298  9527 net.cpp:425] inception_4e/3x3 <- inception_4e/3x3_reduce
I0403 19:40:36.712321  9527 net.cpp:399] inception_4e/3x3 -> inception_4e/3x3
I0403 19:40:36.717072  9527 net.cpp:141] Setting up inception_4e/3x3
I0403 19:40:36.717111  9527 net.cpp:148] Top shape: 24 320 14 14 (1505280)
I0403 19:40:36.717128  9527 net.cpp:156] Memory required for data: 1230108192
I0403 19:40:36.717144  9527 layer_factory.hpp:77] Creating layer inception_4e/relu_3x3
I0403 19:40:36.717162  9527 net.cpp:91] Creating Layer inception_4e/relu_3x3
I0403 19:40:36.717180  9527 net.cpp:425] inception_4e/relu_3x3 <- inception_4e/3x3
I0403 19:40:36.717198  9527 net.cpp:386] inception_4e/relu_3x3 -> inception_4e/3x3 (in-place)
I0403 19:40:36.717492  9527 net.cpp:141] Setting up inception_4e/relu_3x3
I0403 19:40:36.717519  9527 net.cpp:148] Top shape: 24 320 14 14 (1505280)
I0403 19:40:36.717533  9527 net.cpp:156] Memory required for data: 1236129312
I0403 19:40:36.717548  9527 layer_factory.hpp:77] Creating layer inception_4e/5x5_reduce
I0403 19:40:36.717578  9527 net.cpp:91] Creating Layer inception_4e/5x5_reduce
I0403 19:40:36.717597  9527 net.cpp:425] inception_4e/5x5_reduce <- inception_4d/output_inception_4d/output_0_split_3
I0403 19:40:36.717617  9527 net.cpp:399] inception_4e/5x5_reduce -> inception_4e/5x5_reduce
I0403 19:40:36.718624  9527 net.cpp:141] Setting up inception_4e/5x5_reduce
I0403 19:40:36.718654  9527 net.cpp:148] Top shape: 24 32 14 14 (150528)
I0403 19:40:36.718669  9527 net.cpp:156] Memory required for data: 1236731424
I0403 19:40:36.718688  9527 layer_factory.hpp:77] Creating layer inception_4e/relu_5x5_reduce
I0403 19:40:36.718705  9527 net.cpp:91] Creating Layer inception_4e/relu_5x5_reduce
I0403 19:40:36.718721  9527 net.cpp:425] inception_4e/relu_5x5_reduce <- inception_4e/5x5_reduce
I0403 19:40:36.718739  9527 net.cpp:386] inception_4e/relu_5x5_reduce -> inception_4e/5x5_reduce (in-place)
I0403 19:40:36.719022  9527 net.cpp:141] Setting up inception_4e/relu_5x5_reduce
I0403 19:40:36.719049  9527 net.cpp:148] Top shape: 24 32 14 14 (150528)
I0403 19:40:36.719065  9527 net.cpp:156] Memory required for data: 1237333536
I0403 19:40:36.719080  9527 layer_factory.hpp:77] Creating layer inception_4e/5x5
I0403 19:40:36.719116  9527 net.cpp:91] Creating Layer inception_4e/5x5
I0403 19:40:36.719136  9527 net.cpp:425] inception_4e/5x5 <- inception_4e/5x5_reduce
I0403 19:40:36.719157  9527 net.cpp:399] inception_4e/5x5 -> inception_4e/5x5
I0403 19:40:36.720898  9527 net.cpp:141] Setting up inception_4e/5x5
I0403 19:40:36.720924  9527 net.cpp:148] Top shape: 24 128 14 14 (602112)
I0403 19:40:36.720940  9527 net.cpp:156] Memory required for data: 1239741984
I0403 19:40:36.720959  9527 layer_factory.hpp:77] Creating layer inception_4e/relu_5x5
I0403 19:40:36.720978  9527 net.cpp:91] Creating Layer inception_4e/relu_5x5
I0403 19:40:36.720994  9527 net.cpp:425] inception_4e/relu_5x5 <- inception_4e/5x5
I0403 19:40:36.721010  9527 net.cpp:386] inception_4e/relu_5x5 -> inception_4e/5x5 (in-place)
I0403 19:40:36.721197  9527 net.cpp:141] Setting up inception_4e/relu_5x5
I0403 19:40:36.721225  9527 net.cpp:148] Top shape: 24 128 14 14 (602112)
I0403 19:40:36.721238  9527 net.cpp:156] Memory required for data: 1242150432
I0403 19:40:36.721252  9527 layer_factory.hpp:77] Creating layer inception_4e/pool
I0403 19:40:36.721269  9527 net.cpp:91] Creating Layer inception_4e/pool
I0403 19:40:36.721295  9527 net.cpp:425] inception_4e/pool <- inception_4d/output_inception_4d/output_0_split_4
I0403 19:40:36.721315  9527 net.cpp:399] inception_4e/pool -> inception_4e/pool
I0403 19:40:36.721382  9527 net.cpp:141] Setting up inception_4e/pool
I0403 19:40:36.721406  9527 net.cpp:148] Top shape: 24 528 14 14 (2483712)
I0403 19:40:36.721421  9527 net.cpp:156] Memory required for data: 1252085280
I0403 19:40:36.721434  9527 layer_factory.hpp:77] Creating layer inception_4e/pool_proj
I0403 19:40:36.721456  9527 net.cpp:91] Creating Layer inception_4e/pool_proj
I0403 19:40:36.721478  9527 net.cpp:425] inception_4e/pool_proj <- inception_4e/pool
I0403 19:40:36.721499  9527 net.cpp:399] inception_4e/pool_proj -> inception_4e/pool_proj
I0403 19:40:36.722923  9527 net.cpp:141] Setting up inception_4e/pool_proj
I0403 19:40:36.722949  9527 net.cpp:148] Top shape: 24 128 14 14 (602112)
I0403 19:40:36.722977  9527 net.cpp:156] Memory required for data: 1254493728
I0403 19:40:36.722996  9527 layer_factory.hpp:77] Creating layer inception_4e/relu_pool_proj
I0403 19:40:36.723017  9527 net.cpp:91] Creating Layer inception_4e/relu_pool_proj
I0403 19:40:36.723034  9527 net.cpp:425] inception_4e/relu_pool_proj <- inception_4e/pool_proj
I0403 19:40:36.723052  9527 net.cpp:386] inception_4e/relu_pool_proj -> inception_4e/pool_proj (in-place)
I0403 19:40:36.723326  9527 net.cpp:141] Setting up inception_4e/relu_pool_proj
I0403 19:40:36.723351  9527 net.cpp:148] Top shape: 24 128 14 14 (602112)
I0403 19:40:36.723366  9527 net.cpp:156] Memory required for data: 1256902176
I0403 19:40:36.723381  9527 layer_factory.hpp:77] Creating layer inception_4e/output
I0403 19:40:36.723398  9527 net.cpp:91] Creating Layer inception_4e/output
I0403 19:40:36.723414  9527 net.cpp:425] inception_4e/output <- inception_4e/1x1
I0403 19:40:36.723433  9527 net.cpp:425] inception_4e/output <- inception_4e/3x3
I0403 19:40:36.723448  9527 net.cpp:425] inception_4e/output <- inception_4e/5x5
I0403 19:40:36.723466  9527 net.cpp:425] inception_4e/output <- inception_4e/pool_proj
I0403 19:40:36.723490  9527 net.cpp:399] inception_4e/output -> inception_4e/output
I0403 19:40:36.723536  9527 net.cpp:141] Setting up inception_4e/output
I0403 19:40:36.723562  9527 net.cpp:148] Top shape: 24 832 14 14 (3913728)
I0403 19:40:36.723587  9527 net.cpp:156] Memory required for data: 1272557088
I0403 19:40:36.723601  9527 layer_factory.hpp:77] Creating layer pool4/3x3_s2
I0403 19:40:36.723618  9527 net.cpp:91] Creating Layer pool4/3x3_s2
I0403 19:40:36.723634  9527 net.cpp:425] pool4/3x3_s2 <- inception_4e/output
I0403 19:40:36.723654  9527 net.cpp:399] pool4/3x3_s2 -> pool4/3x3_s2
I0403 19:40:36.723717  9527 net.cpp:141] Setting up pool4/3x3_s2
I0403 19:40:36.723743  9527 net.cpp:148] Top shape: 24 832 7 7 (978432)
I0403 19:40:36.723757  9527 net.cpp:156] Memory required for data: 1276470816
I0403 19:40:36.723773  9527 layer_factory.hpp:77] Creating layer pool4/3x3_s2_pool4/3x3_s2_0_split
I0403 19:40:36.723789  9527 net.cpp:91] Creating Layer pool4/3x3_s2_pool4/3x3_s2_0_split
I0403 19:40:36.723804  9527 net.cpp:425] pool4/3x3_s2_pool4/3x3_s2_0_split <- pool4/3x3_s2
I0403 19:40:36.723821  9527 net.cpp:399] pool4/3x3_s2_pool4/3x3_s2_0_split -> pool4/3x3_s2_pool4/3x3_s2_0_split_0
I0403 19:40:36.723840  9527 net.cpp:399] pool4/3x3_s2_pool4/3x3_s2_0_split -> pool4/3x3_s2_pool4/3x3_s2_0_split_1
I0403 19:40:36.723865  9527 net.cpp:399] pool4/3x3_s2_pool4/3x3_s2_0_split -> pool4/3x3_s2_pool4/3x3_s2_0_split_2
I0403 19:40:36.723886  9527 net.cpp:399] pool4/3x3_s2_pool4/3x3_s2_0_split -> pool4/3x3_s2_pool4/3x3_s2_0_split_3
I0403 19:40:36.723973  9527 net.cpp:141] Setting up pool4/3x3_s2_pool4/3x3_s2_0_split
I0403 19:40:36.723996  9527 net.cpp:148] Top shape: 24 832 7 7 (978432)
I0403 19:40:36.724014  9527 net.cpp:148] Top shape: 24 832 7 7 (978432)
I0403 19:40:36.724030  9527 net.cpp:148] Top shape: 24 832 7 7 (978432)
I0403 19:40:36.724045  9527 net.cpp:148] Top shape: 24 832 7 7 (978432)
I0403 19:40:36.724057  9527 net.cpp:156] Memory required for data: 1292125728
I0403 19:40:36.724071  9527 layer_factory.hpp:77] Creating layer inception_5a/1x1
I0403 19:40:36.724092  9527 net.cpp:91] Creating Layer inception_5a/1x1
I0403 19:40:36.724109  9527 net.cpp:425] inception_5a/1x1 <- pool4/3x3_s2_pool4/3x3_s2_0_split_0
I0403 19:40:36.724130  9527 net.cpp:399] inception_5a/1x1 -> inception_5a/1x1
I0403 19:40:36.726933  9527 net.cpp:141] Setting up inception_5a/1x1
I0403 19:40:36.726963  9527 net.cpp:148] Top shape: 24 256 7 7 (301056)
I0403 19:40:36.726979  9527 net.cpp:156] Memory required for data: 1293329952
I0403 19:40:36.726996  9527 layer_factory.hpp:77] Creating layer inception_5a/relu_1x1
I0403 19:40:36.727016  9527 net.cpp:91] Creating Layer inception_5a/relu_1x1
I0403 19:40:36.727033  9527 net.cpp:425] inception_5a/relu_1x1 <- inception_5a/1x1
I0403 19:40:36.727051  9527 net.cpp:386] inception_5a/relu_1x1 -> inception_5a/1x1 (in-place)
I0403 19:40:36.727355  9527 net.cpp:141] Setting up inception_5a/relu_1x1
I0403 19:40:36.727380  9527 net.cpp:148] Top shape: 24 256 7 7 (301056)
I0403 19:40:36.727396  9527 net.cpp:156] Memory required for data: 1294534176
I0403 19:40:36.727411  9527 layer_factory.hpp:77] Creating layer inception_5a/3x3_reduce
I0403 19:40:36.727433  9527 net.cpp:91] Creating Layer inception_5a/3x3_reduce
I0403 19:40:36.727453  9527 net.cpp:425] inception_5a/3x3_reduce <- pool4/3x3_s2_pool4/3x3_s2_0_split_1
I0403 19:40:36.727478  9527 net.cpp:399] inception_5a/3x3_reduce -> inception_5a/3x3_reduce
I0403 19:40:36.729890  9527 net.cpp:141] Setting up inception_5a/3x3_reduce
I0403 19:40:36.729921  9527 net.cpp:148] Top shape: 24 160 7 7 (188160)
I0403 19:40:36.729938  9527 net.cpp:156] Memory required for data: 1295286816
I0403 19:40:36.729955  9527 layer_factory.hpp:77] Creating layer inception_5a/relu_3x3_reduce
I0403 19:40:36.729974  9527 net.cpp:91] Creating Layer inception_5a/relu_3x3_reduce
I0403 19:40:36.729996  9527 net.cpp:425] inception_5a/relu_3x3_reduce <- inception_5a/3x3_reduce
I0403 19:40:36.730015  9527 net.cpp:386] inception_5a/relu_3x3_reduce -> inception_5a/3x3_reduce (in-place)
I0403 19:40:36.730211  9527 net.cpp:141] Setting up inception_5a/relu_3x3_reduce
I0403 19:40:36.730235  9527 net.cpp:148] Top shape: 24 160 7 7 (188160)
I0403 19:40:36.730250  9527 net.cpp:156] Memory required for data: 1296039456
I0403 19:40:36.730265  9527 layer_factory.hpp:77] Creating layer inception_5a/3x3
I0403 19:40:36.730286  9527 net.cpp:91] Creating Layer inception_5a/3x3
I0403 19:40:36.730305  9527 net.cpp:425] inception_5a/3x3 <- inception_5a/3x3_reduce
I0403 19:40:36.730327  9527 net.cpp:399] inception_5a/3x3 -> inception_5a/3x3
I0403 19:40:36.735239  9527 net.cpp:141] Setting up inception_5a/3x3
I0403 19:40:36.735270  9527 net.cpp:148] Top shape: 24 320 7 7 (376320)
I0403 19:40:36.735285  9527 net.cpp:156] Memory required for data: 1297544736
I0403 19:40:36.735304  9527 layer_factory.hpp:77] Creating layer inception_5a/relu_3x3
I0403 19:40:36.735326  9527 net.cpp:91] Creating Layer inception_5a/relu_3x3
I0403 19:40:36.735342  9527 net.cpp:425] inception_5a/relu_3x3 <- inception_5a/3x3
I0403 19:40:36.735362  9527 net.cpp:386] inception_5a/relu_3x3 -> inception_5a/3x3 (in-place)
I0403 19:40:36.735651  9527 net.cpp:141] Setting up inception_5a/relu_3x3
I0403 19:40:36.735678  9527 net.cpp:148] Top shape: 24 320 7 7 (376320)
I0403 19:40:36.735693  9527 net.cpp:156] Memory required for data: 1299050016
I0403 19:40:36.735708  9527 layer_factory.hpp:77] Creating layer inception_5a/5x5_reduce
I0403 19:40:36.735731  9527 net.cpp:91] Creating Layer inception_5a/5x5_reduce
I0403 19:40:36.735749  9527 net.cpp:425] inception_5a/5x5_reduce <- pool4/3x3_s2_pool4/3x3_s2_0_split_2
I0403 19:40:36.735771  9527 net.cpp:399] inception_5a/5x5_reduce -> inception_5a/5x5_reduce
I0403 19:40:36.736907  9527 net.cpp:141] Setting up inception_5a/5x5_reduce
I0403 19:40:36.736935  9527 net.cpp:148] Top shape: 24 32 7 7 (37632)
I0403 19:40:36.736953  9527 net.cpp:156] Memory required for data: 1299200544
I0403 19:40:36.736971  9527 layer_factory.hpp:77] Creating layer inception_5a/relu_5x5_reduce
I0403 19:40:36.736992  9527 net.cpp:91] Creating Layer inception_5a/relu_5x5_reduce
I0403 19:40:36.737010  9527 net.cpp:425] inception_5a/relu_5x5_reduce <- inception_5a/5x5_reduce
I0403 19:40:36.737026  9527 net.cpp:386] inception_5a/relu_5x5_reduce -> inception_5a/5x5_reduce (in-place)
I0403 19:40:36.737318  9527 net.cpp:141] Setting up inception_5a/relu_5x5_reduce
I0403 19:40:36.737345  9527 net.cpp:148] Top shape: 24 32 7 7 (37632)
I0403 19:40:36.737361  9527 net.cpp:156] Memory required for data: 1299351072
I0403 19:40:36.737376  9527 layer_factory.hpp:77] Creating layer inception_5a/5x5
I0403 19:40:36.737399  9527 net.cpp:91] Creating Layer inception_5a/5x5
I0403 19:40:36.737417  9527 net.cpp:425] inception_5a/5x5 <- inception_5a/5x5_reduce
I0403 19:40:36.737437  9527 net.cpp:399] inception_5a/5x5 -> inception_5a/5x5
I0403 19:40:36.739115  9527 net.cpp:141] Setting up inception_5a/5x5
I0403 19:40:36.739154  9527 net.cpp:148] Top shape: 24 128 7 7 (150528)
I0403 19:40:36.739178  9527 net.cpp:156] Memory required for data: 1299953184
I0403 19:40:36.739197  9527 layer_factory.hpp:77] Creating layer inception_5a/relu_5x5
I0403 19:40:36.739217  9527 net.cpp:91] Creating Layer inception_5a/relu_5x5
I0403 19:40:36.739235  9527 net.cpp:425] inception_5a/relu_5x5 <- inception_5a/5x5
I0403 19:40:36.739253  9527 net.cpp:386] inception_5a/relu_5x5 -> inception_5a/5x5 (in-place)
I0403 19:40:36.739439  9527 net.cpp:141] Setting up inception_5a/relu_5x5
I0403 19:40:36.739475  9527 net.cpp:148] Top shape: 24 128 7 7 (150528)
I0403 19:40:36.739491  9527 net.cpp:156] Memory required for data: 1300555296
I0403 19:40:36.739506  9527 layer_factory.hpp:77] Creating layer inception_5a/pool
I0403 19:40:36.739524  9527 net.cpp:91] Creating Layer inception_5a/pool
I0403 19:40:36.739539  9527 net.cpp:425] inception_5a/pool <- pool4/3x3_s2_pool4/3x3_s2_0_split_3
I0403 19:40:36.739559  9527 net.cpp:399] inception_5a/pool -> inception_5a/pool
I0403 19:40:36.739629  9527 net.cpp:141] Setting up inception_5a/pool
I0403 19:40:36.739652  9527 net.cpp:148] Top shape: 24 832 7 7 (978432)
I0403 19:40:36.739668  9527 net.cpp:156] Memory required for data: 1304469024
I0403 19:40:36.739683  9527 layer_factory.hpp:77] Creating layer inception_5a/pool_proj
I0403 19:40:36.739706  9527 net.cpp:91] Creating Layer inception_5a/pool_proj
I0403 19:40:36.739723  9527 net.cpp:425] inception_5a/pool_proj <- inception_5a/pool
I0403 19:40:36.739744  9527 net.cpp:399] inception_5a/pool_proj -> inception_5a/pool_proj
I0403 19:40:36.742015  9527 net.cpp:141] Setting up inception_5a/pool_proj
I0403 19:40:36.742043  9527 net.cpp:148] Top shape: 24 128 7 7 (150528)
I0403 19:40:36.742059  9527 net.cpp:156] Memory required for data: 1305071136
I0403 19:40:36.742077  9527 layer_factory.hpp:77] Creating layer inception_5a/relu_pool_proj
I0403 19:40:36.742097  9527 net.cpp:91] Creating Layer inception_5a/relu_pool_proj
I0403 19:40:36.742121  9527 net.cpp:425] inception_5a/relu_pool_proj <- inception_5a/pool_proj
I0403 19:40:36.742138  9527 net.cpp:386] inception_5a/relu_pool_proj -> inception_5a/pool_proj (in-place)
I0403 19:40:36.742421  9527 net.cpp:141] Setting up inception_5a/relu_pool_proj
I0403 19:40:36.742446  9527 net.cpp:148] Top shape: 24 128 7 7 (150528)
I0403 19:40:36.742471  9527 net.cpp:156] Memory required for data: 1305673248
I0403 19:40:36.742494  9527 layer_factory.hpp:77] Creating layer inception_5a/output
I0403 19:40:36.742511  9527 net.cpp:91] Creating Layer inception_5a/output
I0403 19:40:36.742527  9527 net.cpp:425] inception_5a/output <- inception_5a/1x1
I0403 19:40:36.742544  9527 net.cpp:425] inception_5a/output <- inception_5a/3x3
I0403 19:40:36.742559  9527 net.cpp:425] inception_5a/output <- inception_5a/5x5
I0403 19:40:36.742574  9527 net.cpp:425] inception_5a/output <- inception_5a/pool_proj
I0403 19:40:36.742594  9527 net.cpp:399] inception_5a/output -> inception_5a/output
I0403 19:40:36.742642  9527 net.cpp:141] Setting up inception_5a/output
I0403 19:40:36.742666  9527 net.cpp:148] Top shape: 24 832 7 7 (978432)
I0403 19:40:36.742681  9527 net.cpp:156] Memory required for data: 1309586976
I0403 19:40:36.742696  9527 layer_factory.hpp:77] Creating layer inception_5a/output_inception_5a/output_0_split
I0403 19:40:36.742712  9527 net.cpp:91] Creating Layer inception_5a/output_inception_5a/output_0_split
I0403 19:40:36.742727  9527 net.cpp:425] inception_5a/output_inception_5a/output_0_split <- inception_5a/output
I0403 19:40:36.742746  9527 net.cpp:399] inception_5a/output_inception_5a/output_0_split -> inception_5a/output_inception_5a/output_0_split_0
I0403 19:40:36.742766  9527 net.cpp:399] inception_5a/output_inception_5a/output_0_split -> inception_5a/output_inception_5a/output_0_split_1
I0403 19:40:36.742786  9527 net.cpp:399] inception_5a/output_inception_5a/output_0_split -> inception_5a/output_inception_5a/output_0_split_2
I0403 19:40:36.742807  9527 net.cpp:399] inception_5a/output_inception_5a/output_0_split -> inception_5a/output_inception_5a/output_0_split_3
I0403 19:40:36.742915  9527 net.cpp:141] Setting up inception_5a/output_inception_5a/output_0_split
I0403 19:40:36.742939  9527 net.cpp:148] Top shape: 24 832 7 7 (978432)
I0403 19:40:36.742955  9527 net.cpp:148] Top shape: 24 832 7 7 (978432)
I0403 19:40:36.742969  9527 net.cpp:148] Top shape: 24 832 7 7 (978432)
I0403 19:40:36.742985  9527 net.cpp:148] Top shape: 24 832 7 7 (978432)
I0403 19:40:36.742998  9527 net.cpp:156] Memory required for data: 1325241888
I0403 19:40:36.743012  9527 layer_factory.hpp:77] Creating layer inception_5b/1x1
I0403 19:40:36.743036  9527 net.cpp:91] Creating Layer inception_5b/1x1
I0403 19:40:36.743053  9527 net.cpp:425] inception_5b/1x1 <- inception_5a/output_inception_5a/output_0_split_0
I0403 19:40:36.743072  9527 net.cpp:399] inception_5b/1x1 -> inception_5b/1x1
I0403 19:40:36.746659  9527 net.cpp:141] Setting up inception_5b/1x1
I0403 19:40:36.746688  9527 net.cpp:148] Top shape: 24 384 7 7 (451584)
I0403 19:40:36.746703  9527 net.cpp:156] Memory required for data: 1327048224
I0403 19:40:36.746721  9527 layer_factory.hpp:77] Creating layer inception_5b/relu_1x1
I0403 19:40:36.746742  9527 net.cpp:91] Creating Layer inception_5b/relu_1x1
I0403 19:40:36.746759  9527 net.cpp:425] inception_5b/relu_1x1 <- inception_5b/1x1
I0403 19:40:36.746781  9527 net.cpp:386] inception_5b/relu_1x1 -> inception_5b/1x1 (in-place)
I0403 19:40:36.747073  9527 net.cpp:141] Setting up inception_5b/relu_1x1
I0403 19:40:36.747098  9527 net.cpp:148] Top shape: 24 384 7 7 (451584)
I0403 19:40:36.747112  9527 net.cpp:156] Memory required for data: 1328854560
I0403 19:40:36.747126  9527 layer_factory.hpp:77] Creating layer inception_5b/3x3_reduce
I0403 19:40:36.747148  9527 net.cpp:91] Creating Layer inception_5b/3x3_reduce
I0403 19:40:36.747166  9527 net.cpp:425] inception_5b/3x3_reduce <- inception_5a/output_inception_5a/output_0_split_1
I0403 19:40:36.747189  9527 net.cpp:399] inception_5b/3x3_reduce -> inception_5b/3x3_reduce
I0403 19:40:36.749711  9527 net.cpp:141] Setting up inception_5b/3x3_reduce
I0403 19:40:36.749740  9527 net.cpp:148] Top shape: 24 192 7 7 (225792)
I0403 19:40:36.749755  9527 net.cpp:156] Memory required for data: 1329757728
I0403 19:40:36.749773  9527 layer_factory.hpp:77] Creating layer inception_5b/relu_3x3_reduce
I0403 19:40:36.749791  9527 net.cpp:91] Creating Layer inception_5b/relu_3x3_reduce
I0403 19:40:36.749809  9527 net.cpp:425] inception_5b/relu_3x3_reduce <- inception_5b/3x3_reduce
I0403 19:40:36.749826  9527 net.cpp:386] inception_5b/relu_3x3_reduce -> inception_5b/3x3_reduce (in-place)
I0403 19:40:36.750006  9527 net.cpp:141] Setting up inception_5b/relu_3x3_reduce
I0403 19:40:36.750031  9527 net.cpp:148] Top shape: 24 192 7 7 (225792)
I0403 19:40:36.750046  9527 net.cpp:156] Memory required for data: 1330660896
I0403 19:40:36.750061  9527 layer_factory.hpp:77] Creating layer inception_5b/3x3
I0403 19:40:36.750082  9527 net.cpp:91] Creating Layer inception_5b/3x3
I0403 19:40:36.750099  9527 net.cpp:425] inception_5b/3x3 <- inception_5b/3x3_reduce
I0403 19:40:36.750119  9527 net.cpp:399] inception_5b/3x3 -> inception_5b/3x3
I0403 19:40:36.756497  9527 net.cpp:141] Setting up inception_5b/3x3
I0403 19:40:36.756526  9527 net.cpp:148] Top shape: 24 384 7 7 (451584)
I0403 19:40:36.756542  9527 net.cpp:156] Memory required for data: 1332467232
I0403 19:40:36.756559  9527 layer_factory.hpp:77] Creating layer inception_5b/relu_3x3
I0403 19:40:36.756579  9527 net.cpp:91] Creating Layer inception_5b/relu_3x3
I0403 19:40:36.756597  9527 net.cpp:425] inception_5b/relu_3x3 <- inception_5b/3x3
I0403 19:40:36.756615  9527 net.cpp:386] inception_5b/relu_3x3 -> inception_5b/3x3 (in-place)
I0403 19:40:36.756897  9527 net.cpp:141] Setting up inception_5b/relu_3x3
I0403 19:40:36.756924  9527 net.cpp:148] Top shape: 24 384 7 7 (451584)
I0403 19:40:36.756940  9527 net.cpp:156] Memory required for data: 1334273568
I0403 19:40:36.756955  9527 layer_factory.hpp:77] Creating layer inception_5b/5x5_reduce
I0403 19:40:36.756994  9527 net.cpp:91] Creating Layer inception_5b/5x5_reduce
I0403 19:40:36.757014  9527 net.cpp:425] inception_5b/5x5_reduce <- inception_5a/output_inception_5a/output_0_split_2
I0403 19:40:36.757035  9527 net.cpp:399] inception_5b/5x5_reduce -> inception_5b/5x5_reduce
I0403 19:40:36.758232  9527 net.cpp:141] Setting up inception_5b/5x5_reduce
I0403 19:40:36.758260  9527 net.cpp:148] Top shape: 24 48 7 7 (56448)
I0403 19:40:36.758275  9527 net.cpp:156] Memory required for data: 1334499360
I0403 19:40:36.758291  9527 layer_factory.hpp:77] Creating layer inception_5b/relu_5x5_reduce
I0403 19:40:36.758311  9527 net.cpp:91] Creating Layer inception_5b/relu_5x5_reduce
I0403 19:40:36.758328  9527 net.cpp:425] inception_5b/relu_5x5_reduce <- inception_5b/5x5_reduce
I0403 19:40:36.758345  9527 net.cpp:386] inception_5b/relu_5x5_reduce -> inception_5b/5x5_reduce (in-place)
I0403 19:40:36.758708  9527 net.cpp:141] Setting up inception_5b/relu_5x5_reduce
I0403 19:40:36.758734  9527 net.cpp:148] Top shape: 24 48 7 7 (56448)
I0403 19:40:36.758749  9527 net.cpp:156] Memory required for data: 1334725152
I0403 19:40:36.758774  9527 layer_factory.hpp:77] Creating layer inception_5b/5x5
I0403 19:40:36.758793  9527 net.cpp:91] Creating Layer inception_5b/5x5
I0403 19:40:36.758810  9527 net.cpp:425] inception_5b/5x5 <- inception_5b/5x5_reduce
I0403 19:40:36.758828  9527 net.cpp:399] inception_5b/5x5 -> inception_5b/5x5
I0403 19:40:36.760776  9527 net.cpp:141] Setting up inception_5b/5x5
I0403 19:40:36.760802  9527 net.cpp:148] Top shape: 24 128 7 7 (150528)
I0403 19:40:36.760818  9527 net.cpp:156] Memory required for data: 1335327264
I0403 19:40:36.760834  9527 layer_factory.hpp:77] Creating layer inception_5b/relu_5x5
I0403 19:40:36.760854  9527 net.cpp:91] Creating Layer inception_5b/relu_5x5
I0403 19:40:36.760874  9527 net.cpp:425] inception_5b/relu_5x5 <- inception_5b/5x5
I0403 19:40:36.760890  9527 net.cpp:386] inception_5b/relu_5x5 -> inception_5b/5x5 (in-place)
I0403 19:40:36.761072  9527 net.cpp:141] Setting up inception_5b/relu_5x5
I0403 19:40:36.761098  9527 net.cpp:148] Top shape: 24 128 7 7 (150528)
I0403 19:40:36.761114  9527 net.cpp:156] Memory required for data: 1335929376
I0403 19:40:36.761129  9527 layer_factory.hpp:77] Creating layer inception_5b/pool
I0403 19:40:36.761147  9527 net.cpp:91] Creating Layer inception_5b/pool
I0403 19:40:36.761162  9527 net.cpp:425] inception_5b/pool <- inception_5a/output_inception_5a/output_0_split_3
I0403 19:40:36.761183  9527 net.cpp:399] inception_5b/pool -> inception_5b/pool
I0403 19:40:36.761251  9527 net.cpp:141] Setting up inception_5b/pool
I0403 19:40:36.761276  9527 net.cpp:148] Top shape: 24 832 7 7 (978432)
I0403 19:40:36.761289  9527 net.cpp:156] Memory required for data: 1339843104
I0403 19:40:36.761304  9527 layer_factory.hpp:77] Creating layer inception_5b/pool_proj
I0403 19:40:36.761325  9527 net.cpp:91] Creating Layer inception_5b/pool_proj
I0403 19:40:36.761344  9527 net.cpp:425] inception_5b/pool_proj <- inception_5b/pool
I0403 19:40:36.761363  9527 net.cpp:399] inception_5b/pool_proj -> inception_5b/pool_proj
I0403 19:40:36.763564  9527 net.cpp:141] Setting up inception_5b/pool_proj
I0403 19:40:36.763593  9527 net.cpp:148] Top shape: 24 128 7 7 (150528)
I0403 19:40:36.763609  9527 net.cpp:156] Memory required for data: 1340445216
I0403 19:40:36.763628  9527 layer_factory.hpp:77] Creating layer inception_5b/relu_pool_proj
I0403 19:40:36.763648  9527 net.cpp:91] Creating Layer inception_5b/relu_pool_proj
I0403 19:40:36.763675  9527 net.cpp:425] inception_5b/relu_pool_proj <- inception_5b/pool_proj
I0403 19:40:36.763692  9527 net.cpp:386] inception_5b/relu_pool_proj -> inception_5b/pool_proj (in-place)
I0403 19:40:36.763978  9527 net.cpp:141] Setting up inception_5b/relu_pool_proj
I0403 19:40:36.764004  9527 net.cpp:148] Top shape: 24 128 7 7 (150528)
I0403 19:40:36.764020  9527 net.cpp:156] Memory required for data: 1341047328
I0403 19:40:36.764035  9527 layer_factory.hpp:77] Creating layer inception_5b/output
I0403 19:40:36.764055  9527 net.cpp:91] Creating Layer inception_5b/output
I0403 19:40:36.764084  9527 net.cpp:425] inception_5b/output <- inception_5b/1x1
I0403 19:40:36.764101  9527 net.cpp:425] inception_5b/output <- inception_5b/3x3
I0403 19:40:36.764117  9527 net.cpp:425] inception_5b/output <- inception_5b/5x5
I0403 19:40:36.764133  9527 net.cpp:425] inception_5b/output <- inception_5b/pool_proj
I0403 19:40:36.764149  9527 net.cpp:399] inception_5b/output -> inception_5b/output
I0403 19:40:36.764197  9527 net.cpp:141] Setting up inception_5b/output
I0403 19:40:36.764224  9527 net.cpp:148] Top shape: 24 1024 7 7 (1204224)
I0403 19:40:36.764238  9527 net.cpp:156] Memory required for data: 1345864224
I0403 19:40:36.764253  9527 layer_factory.hpp:77] Creating layer pool5/7x7_s1
I0403 19:40:36.764271  9527 net.cpp:91] Creating Layer pool5/7x7_s1
I0403 19:40:36.764287  9527 net.cpp:425] pool5/7x7_s1 <- inception_5b/output
I0403 19:40:36.764307  9527 net.cpp:399] pool5/7x7_s1 -> pool5/7x7_s1
I0403 19:40:36.764518  9527 net.cpp:141] Setting up pool5/7x7_s1
I0403 19:40:36.764541  9527 net.cpp:148] Top shape: 24 1024 1 1 (24576)
I0403 19:40:36.764555  9527 net.cpp:156] Memory required for data: 1345962528
I0403 19:40:36.764570  9527 layer_factory.hpp:77] Creating layer pool5/drop_7x7_s1
I0403 19:40:36.764590  9527 net.cpp:91] Creating Layer pool5/drop_7x7_s1
I0403 19:40:36.764606  9527 net.cpp:425] pool5/drop_7x7_s1 <- pool5/7x7_s1
I0403 19:40:36.764623  9527 net.cpp:386] pool5/drop_7x7_s1 -> pool5/7x7_s1 (in-place)
I0403 19:40:36.764672  9527 net.cpp:141] Setting up pool5/drop_7x7_s1
I0403 19:40:36.764695  9527 net.cpp:148] Top shape: 24 1024 1 1 (24576)
I0403 19:40:36.764709  9527 net.cpp:156] Memory required for data: 1346060832
I0403 19:40:36.764724  9527 layer_factory.hpp:77] Creating layer loss3/classifier_plantvillage
I0403 19:40:36.764742  9527 net.cpp:91] Creating Layer loss3/classifier_plantvillage
I0403 19:40:36.764761  9527 net.cpp:425] loss3/classifier_plantvillage <- pool5/7x7_s1
I0403 19:40:36.764780  9527 net.cpp:399] loss3/classifier_plantvillage -> loss3/classifier_plantvillage
I0403 19:40:36.765183  9527 net.cpp:141] Setting up loss3/classifier_plantvillage
I0403 19:40:36.765208  9527 net.cpp:148] Top shape: 24 38 (912)
I0403 19:40:36.765223  9527 net.cpp:156] Memory required for data: 1346064480
I0403 19:40:36.765240  9527 layer_factory.hpp:77] Creating layer loss3/classifier_plantvillage_loss3/classifier_plantvillage_0_split
I0403 19:40:36.765257  9527 net.cpp:91] Creating Layer loss3/classifier_plantvillage_loss3/classifier_plantvillage_0_split
I0403 19:40:36.765274  9527 net.cpp:425] loss3/classifier_plantvillage_loss3/classifier_plantvillage_0_split <- loss3/classifier_plantvillage
I0403 19:40:36.765293  9527 net.cpp:399] loss3/classifier_plantvillage_loss3/classifier_plantvillage_0_split -> loss3/classifier_plantvillage_loss3/classifier_plantvillage_0_split_0
I0403 19:40:36.765314  9527 net.cpp:399] loss3/classifier_plantvillage_loss3/classifier_plantvillage_0_split -> loss3/classifier_plantvillage_loss3/classifier_plantvillage_0_split_1
I0403 19:40:36.765334  9527 net.cpp:399] loss3/classifier_plantvillage_loss3/classifier_plantvillage_0_split -> loss3/classifier_plantvillage_loss3/classifier_plantvillage_0_split_2
I0403 19:40:36.765355  9527 net.cpp:399] loss3/classifier_plantvillage_loss3/classifier_plantvillage_0_split -> loss3/classifier_plantvillage_loss3/classifier_plantvillage_0_split_3
I0403 19:40:36.765455  9527 net.cpp:141] Setting up loss3/classifier_plantvillage_loss3/classifier_plantvillage_0_split
I0403 19:40:36.765482  9527 net.cpp:148] Top shape: 24 38 (912)
I0403 19:40:36.765499  9527 net.cpp:148] Top shape: 24 38 (912)
I0403 19:40:36.765514  9527 net.cpp:148] Top shape: 24 38 (912)
I0403 19:40:36.765529  9527 net.cpp:148] Top shape: 24 38 (912)
I0403 19:40:36.765552  9527 net.cpp:156] Memory required for data: 1346079072
I0403 19:40:36.765565  9527 layer_factory.hpp:77] Creating layer loss1/loss
I0403 19:40:36.765590  9527 net.cpp:91] Creating Layer loss1/loss
I0403 19:40:36.765616  9527 net.cpp:425] loss1/loss <- loss1/classifier_plantvillage_loss1/classifier_plantvillage_0_split_0
I0403 19:40:36.765646  9527 net.cpp:425] loss1/loss <- label_data_1_split_0
…
