…
I0403 19:43:24.464278  9594 net.cpp:313] The NetState phase (1) differed from the phase (0) specified by a rule in layer data
I0403 19:43:24.465387  9594 net.cpp:49] Initializing net from parameters: 
state {
  phase: TEST
}
layer {
  name: "data"
  type: "Data"
  top: "data"
  top: "label"
  include {
    phase: TEST
  }
  transform_param {
    mirror: false
    crop_size: 224
    mean_file: "/home/mohanty/data/final_dataset/lmdb/color-60-40/mean.binaryproto"
  }
  data_param {
    source: "/home/mohanty/data/final_dataset/lmdb/color-60-40/test_db"
    batch_size: 24
    backend: LMDB
  }
}
layer {
  name: "conv1/7x7_s2"
  type: "Convolution"
  bottom: "data"
  top: "conv1/7x7_s2"
  param {
    lr_mult: 1
    decay_mult: 1
  }
  param {
    lr_mult: 2
    decay_mult: 0
  }
  convolution_param {
    num_output: 64
    pad: 3
    kernel_size: 7
    stride: 2
    weight_filler {
      type: "xavier"
      std: 0.1
    }
    bias_filler {
      type: "constant"
      value: 0.2
    }
  }
}
layer {
  name: "conv1/relu_7x7"
  type: "ReLU"
  bottom: "conv1/7x7_s2"
  top: "conv1/7x7_s2"
}
layer {
  name: "pool1/3x3_s2"
  type: "Pooling"
  bottom: "conv1/7x7_s2"
  top: "pool1/3x3_s2"
  pooling_param {
    pool: MAX
    kernel_size: 3
    stride: 2
  }
}
layer {
  name: "pool1/norm1"
  type: "LRN"
  bottom: "pool1/3x3_s2"
  top: "pool1/norm1"
  lrn_param {
    local_size: 5
    alpha: 0.0001
    beta: 0.75
  }
}
layer {
  name: "conv2/3x3_reduce"
  type: "Convolution"
  bottom: "pool1/norm1"
  top: "conv2/3x3_reduce"
  param {
    lr_mult: 1
    decay_mult: 1
  }
  param {
    lr_mult: 2
    decay_mult: 0
  }
  convolution_param {
    num_output: 64
    kernel_size: 1
    weight_filler {
      type: "xavier"
      std: 0.1
    }
    bias_filler {
      type: "constant"
      value: 0.2
    }
  }
}
layer {
  name: "conv2/relu_3x3_reduce"
  type: "ReLU"
  bottom: "conv2/3x3_reduce"
  top: "conv2/3x3_reduce"
}
layer {
  name: "conv2/3x3"
  type: "Convolution"
  bottom: "conv2/3x3_reduce"
  top: "conv2/3x3"
  param {
    lr_mult: 1
    decay_mult: 1
  }
  param {
    lr_mult: 2
    decay_mult: 0
  }
  convolution_param {
    num_output: 192
    pad: 1
    kernel_size: 3
    weight_filler {
      type: "xavier"
      std: 0.03
    }
    bias_filler {
      type: "constant"
      value: 0.2
    }
  }
}
layer {
  name: "conv2/relu_3x3"
  type: "ReLU"
  bottom: "conv2/3x3"
  top: "conv2/3x3"
}
layer {
  name: "conv2/norm2"
  type: "LRN"
  bottom: "conv2/3x3"
  top: "conv2/norm2"
  lrn_param {
    local_size: 5
    alpha: 0.0001
    beta: 0.75
  }
}
layer {
  name: "pool2/3x3_s2"
  type: "Pooling"
  bottom: "conv2/norm2"
  top: "pool2/3x3_s2"
  pooling_param {
    pool: MAX
    kernel_size: 3
    stride: 2
  }
}
layer {
  name: "inception_3a/1x1"
  type: "Convolution"
  bottom: "pool2/3x3_s2"
  top: "inception_3a/1x1"
  param {
    lr_mult: 1
    decay_mult: 1
  }
  param {
    lr_mult: 2
    decay_mult: 0
  }
  convolution_param {
    num_output: 64
    kernel_size: 1
    weight_filler {
      type: "xavier"
      std: 0.03
    }
    bias_filler {
      type: "constant"
      value: 0.2
    }
  }
}
layer {
  name: "inception_3a/relu_1x1"
  type: "ReLU"
  bottom: "inception_3a/1x1"
  top: "inception_3a/1x1"
}
layer {
  name: "inception_3a/3x3_reduce"
  type: "Convolution"
  bottom: "pool2/3x3_s2"
  top: "inception_3a/3x3_reduce"
  param {
    lr_mult: 1
    decay_mult: 1
  }
  param {
    lr_mult: 2
    decay_mult: 0
  }
  convolution_param {
    num_output: 96
    kernel_size: 1
    weight_filler {
      type: "xavier"
      std: 0.09
    }
    bias_filler {
      type: "constant"
      value: 0.2
    }
  }
}
layer {
  name: "inception_3a/relu_3x3_reduce"
  type: "ReLU"
  bottom: "inception_3a/3x3_reduce"
  top: "inception_3a/3x3_reduce"
}
layer {
  name: "inception_3a/3x3"
  type: "Convolution"
  bottom: "inception_3a/3x3_reduce"
  top: "inception_3a/3x3"
  param {
    lr_mult: 1
    decay_mult: 1
  }
  param {
    lr_mult: 2
    decay_mult: 0
  }
  convolution_param {
    num_output: 128
    pad: 1
    kernel_size: 3
    weight_filler {
      type: "xavier"
      std: 0.03
    }
    bias_filler {
      type: "constant"
      value: 0.2
    }
  }
}
layer {
  name: "inception_3a/relu_3x3"
  type: "ReLU"
  bottom: "inception_3a/3x3"
  top: "inception_3a/3x3"
}
layer {
  name: "inception_3a/5x5_reduce"
  type: "Convolution"
  bottom: "pool2/3x3_s2"
  top: "inception_3a/5x5_reduce"
  param {
    lr_mult: 1
    decay_mult: 1
  }
  param {
    lr_mult: 2
    decay_mult: 0
  }
  convolution_param {
    num_output: 16
    kernel_size: 1
    weight_filler {
      type: "xavier"
      std: 0.2
    }
    bias_filler {
      type: "constant"
      value: 0.2
    }
  }
}
layer {
  name: "inception_3a/relu_5x5_reduce"
  type: "ReLU"
  bottom: "inception_3a/5x5_reduce"
  top: "inception_3a/5x5_reduce"
}
layer {
  name: "inception_3a/5x5"
  type: "Convolution"
  bottom: "inception_3a/5x5_reduce"
  top: "inception_3a/5x5"
  param {
    lr_mult: 1
    decay_mult: 1
  }
  param {
    lr_mult: 2
    decay_mult: 0
  }
  convolution_param {
    num_output: 32
    pad: 2
    kernel_size: 5
    weight_filler {
      type: "xavier"
      std: 0.03
    }
    bias_filler {
      type: "constant"
      value: 0.2
    }
  }
}
layer {
  name: "inception_3a/relu_5x5"
  type: "ReLU"
  bottom: "inception_3a/5x5"
  top: "inception_3a/5x5"
}
layer {
  name: "inception_3a/pool"
  type: "Pooling"
  bottom: "pool2/3x3_s2"
  top: "inception_3a/pool"
  pooling_param {
    pool: MAX
    kernel_size: 3
    stride: 1
    pad: 1
  }
}
layer {
  name: "inception_3a/pool_proj"
  type: "Convolution"
  bottom: "inception_3a/pool"
  top: "inception_3a/pool_proj"
  param {
    lr_mult: 1
    decay_mult: 1
  }
  param {
    lr_mult: 2
    decay_mult: 0
  }
  convolution_param {
    num_output: 32
    kernel_size: 1
    weight_filler {
      type: "xavier"
      std: 0.1
    }
    bias_filler {
      type: "constant"
      value: 0.2
    }
  }
}
layer {
  name: "inception_3a/relu_pool_proj"
  type: "ReLU"
  bottom: "inception_3a/pool_proj"
  top: "inception_3a/pool_proj"
}
layer {
  name: "inception_3a/output"
  type: "Concat"
  bottom: "inception_3a/1x1"
  bottom: "inception_3a/3x3"
  bottom: "inception_3a/5x5"
  bottom: "inception_3a/pool_proj"
  top: "inception_3a/output"
}
layer {
  name: "inception_3b/1x1"
  type: "Convolution"
  bottom: "inception_3a/output"
  top: "inception_3b/1x1"
  param {
    lr_mult: 1
    decay_mult: 1
  }
  param {
    lr_mult: 2
    decay_mult: 0
  }
  convolution_param {
    num_output: 128
    kernel_size: 1
    weight_filler {
      type: "xavier"
      std: 0.03
    }
    bias_filler {
      type: "constant"
      value: 0.2
    }
  }
}
layer {
  name: "inception_3b/relu_1x1"
  type: "ReLU"
  bottom: "inception_3b/1x1"
  top: "inception_3b/1x1"
}
layer {
  name: "inception_3b/3x3_reduce"
  type: "Convolution"
  bottom: "inception_3a/output"
  top: "inception_3b/3x3_reduce"
  param {
    lr_mult: 1
    decay_mult: 1
  }
  param {
    lr_mult: 2
    decay_mult: 0
  }
  convolution_param {
    num_output: 128
    kernel_size: 1
    weight_filler {
      type: "xavier"
      std: 0.09
    }
    bias_filler {
      type: "constant"
      value: 0.2
    }
  }
}
layer {
  name: "inception_3b/relu_3x3_reduce"
  type: "ReLU"
  bottom: "inception_3b/3x3_reduce"
  top: "inception_3b/3x3_reduce"
}
layer {
  name: "inception_3b/3x3"
  type: "Convolution"
  bottom: "inception_3b/3x3_reduce"
  top: "inception_3b/3x3"
  param {
    lr_mult: 1
    decay_mult: 1
  }
  param {
    lr_mult: 2
    decay_mult: 0
  }
  convolution_param {
    num_output: 192
    pad: 1
    kernel_size: 3
    weight_filler {
      type: "xavier"
      std: 0.03
    }
    bias_filler {
      type: "constant"
      value: 0.2
    }
  }
}
layer {
  name: "inception_3b/relu_3x3"
  type: "ReLU"
  bottom: "inception_3b/3x3"
  top: "inception_3b/3x3"
}
layer {
  name: "inception_3b/5x5_reduce"
  type: "Convolution"
  bottom: "inception_3a/output"
  top: "inception_3b/5x5_reduce"
  param {
    lr_mult: 1
    decay_mult: 1
  }
  param {
    lr_mult: 2
    decay_mult: 0
  }
  convolution_param {
    num_output: 32
    kernel_size: 1
    weight_filler {
      type: "xavier"
      std: 0.2
    }
    bias_filler {
      type: "constant"
      value: 0.2
    }
  }
}
layer {
  name: "inception_3b/relu_5x5_reduce"
  type: "ReLU"
  bottom: "inception_3b/5x5_reduce"
  top: "inception_3b/5x5_reduce"
}
layer {
  name: "inception_3b/5x5"
  type: "Convolution"
  bottom: "inception_3b/5x5_reduce"
  top: "inception_3b/5x5"
  param {
    lr_mult: 1
    decay_mult: 1
  }
  param {
    lr_mult: 2
    decay_mult: 0
  }
  convolution_param {
    num_output: 96
    pad: 2
    kernel_size: 5
    weight_filler {
      type: "xavier"
      std: 0.03
    }
    bias_filler {
      type: "constant"
      value: 0.2
    }
  }
}
layer {
  name: "inception_3b/relu_5x5"
  type: "ReLU"
  bottom: "inception_3b/5x5"
  top: "inception_3b/5x5"
}
layer {
  name: "inception_3b/pool"
  type: "Pooling"
  bottom: "inception_3a/output"
  top: "inception_3b/pool"
  pooling_param {
    pool: MAX
    kernel_size: 3
    stride: 1
    pad: 1
  }
}
layer {
  name: "inception_3b/pool_proj"
  type: "Convolution"
  bottom: "inception_3b/pool"
  top: "inception_3b/pool_proj"
  param {
    lr_mult: 1
    decay_mult: 1
  }
  param {
    lr_mult: 2
    decay_mult: 0
  }
  convolution_param {
    num_output: 64
    kernel_size: 1
    weight_filler {
      type: "xavier"
      std: 0.1
    }
    bias_filler {
      type: "constant"
      value: 0.2
    }
  }
}
layer {
  name: "inception_3b/relu_pool_proj"
  type: "ReLU"
  bottom: "inception_3b/pool_proj"
  top: "inception_3b/pool_proj"
}
layer {
  name: "inception_3b/output"
  type: "Concat"
  bottom: "inception_3b/1x1"
  bottom: "inception_3b/3x3"
  bottom: "inception_3b/5x5"
  bottom: "inception_3b/pool_proj"
  top: "inception_3b/output"
}
layer {
  name: "pool3/3x3_s2"
  type: "Pooling"
  bottom: "inception_3b/output"
  top: "pool3/3x3_s2"
  pooling_param {
    pool: MAX
    kernel_size: 3
    stride: 2
  }
}
layer {
  name: "inception_4a/1x1"
  type: "Convolution"
  bottom: "pool3/3x3_s2"
  top: "inception_4a/1x1"
  param {
    lr_mult: 1
    decay_mult: 1
  }
  param {
    lr_mult: 2
    decay_mult: 0
  }
  convolution_param {
    num_output: 192
    kernel_size: 1
    weight_filler {
      type: "xavier"
      std: 0.03
    }
    bias_filler {
      type: "constant"
      value: 0.2
    }
  }
}
layer {
  name: "inception_4a/relu_1x1"
  type: "ReLU"
  bottom: "inception_4a/1x1"
  top: "inception_4a/1x1"
}
layer {
  name: "inception_4a/3x3_reduce"
  type: "Convolution"
  bottom: "pool3/3x3_s2"
  top: "inception_4a/3x3_reduce"
  param {
    lr_mult: 1
    decay_mult: 1
  }
  param {
    lr_mult: 2
    decay_mult: 0
  }
  convolution_param {
    num_output: 96
    kernel_size: 1
    weight_filler {
      type: "xavier"
      std: 0.09
    }
    bias_filler {
      type: "constant"
      value: 0.2
    }
  }
}
layer {
  name: "inception_4a/relu_3x3_reduce"
  type: "ReLU"
  bottom: "inception_4a/3x3_reduce"
  top: "inception_4a/3x3_reduce"
}
layer {
  name: "inception_4a/3x3"
  type: "Convolution"
  bottom: "inception_4a/3x3_reduce"
  top: "inception_4a/3x3"
  param {
    lr_mult: 1
    decay_mult: 1
  }
  param {
    lr_mult: 2
    decay_mult: 0
  }
  convolution_param {
    num_output: 208
    pad: 1
    kernel_size: 3
    weight_filler {
      type: "xavier"
      std: 0.03
    }
    bias_filler {
      type: "constant"
      value: 0.2
    }
  }
}
layer {
  name: "inception_4a/relu_3x3"
  type: "ReLU"
  bottom: "inception_4a/3x3"
  top: "inception_4a/3x3"
}
layer {
  name: "inception_4a/5x5_reduce"
  type: "Convolution"
  bottom: "pool3/3x3_s2"
  top: "inception_4a/5x5_reduce"
  param {
    lr_mult: 1
    decay_mult: 1
  }
  param {
    lr_mult: 2
    decay_mult: 0
  }
  convolution_param {
    num_output: 16
    kernel_size: 1
    weight_filler {
      type: "xavier"
      std: 0.2
    }
    bias_filler {
      type: "constant"
      value: 0.2
    }
  }
}
layer {
  name: "inception_4a/relu_5x5_reduce"
  type: "ReLU"
  bottom: "inception_4a/5x5_reduce"
  top: "inception_4a/5x5_reduce"
}
layer {
  name: "inception_4a/5x5"
  type: "Convolution"
  bottom: "inception_4a/5x5_reduce"
  top: "inception_4a/5x5"
  param {
    lr_mult: 1
    decay_mult: 1
  }
  param {
    lr_mult: 2
    decay_mult: 0
  }
  convolution_param {
    num_output: 48
    pad: 2
    kernel_size: 5
    weight_filler {
      type: "xavier"
      std: 0.03
    }
    bias_filler {
      type: "constant"
      value: 0.2
    }
  }
}
layer {
  name: "inception_4a/relu_5x5"
  type: "ReLU"
  bottom: "inception_4a/5x5"
  top: "inception_4a/5x5"
}
layer {
  name: "inception_4a/pool"
  type: "Pooling"
  bottom: "pool3/3x3_s2"
  top: "inception_4a/pool"
  pooling_param {
    pool: MAX
    kernel_size: 3
    stride: 1
    pad: 1
  }
}
layer {
  name: "inception_4a/pool_proj"
  type: "Convolution"
  bottom: "inception_4a/pool"
  top: "inception_4a/pool_proj"
  param {
    lr_mult: 1
    decay_mult: 1
  }
  param {
    lr_mult: 2
    decay_mult: 0
  }
  convolution_param {
    num_output: 64
    kernel_size: 1
    weight_filler {
      type: "xavier"
      std: 0.1
    }
    bias_filler {
      type: "constant"
      value: 0.2
    }
  }
}
layer {
  name: "inception_4a/relu_pool_proj"
  type: "ReLU"
  bottom: "inception_4a/pool_proj"
  top: "inception_4a/pool_proj"
}
layer {
  name: "inception_4a/output"
  type: "Concat"
  bottom: "inception_4a/1x1"
  bottom: "inception_4a/3x3"
  bottom: "inception_4a/5x5"
  bottom: "inception_4a/pool_proj"
  top: "inception_4a/output"
}
layer {
  name: "loss1/ave_pool"
  type: "Pooling"
  bottom: "inception_4a/output"
  top: "loss1/ave_pool"
  pooling_param {
    pool: AVE
    kernel_size: 5
    stride: 3
  }
}
layer {
  name: "loss1/conv"
  type: "Convolution"
  bottom: "loss1/ave_pool"
  top: "loss1/conv"
  param {
    lr_mult: 1
    decay_mult: 1
  }
  param {
    lr_mult: 2
    decay_mult: 0
  }
  convolution_param {
    num_output: 128
    kernel_size: 1
    weight_filler {
      type: "xavier"
      std: 0.08
    }
    bias_filler {
      type: "constant"
      value: 0.2
    }
  }
}
layer {
  name: "loss1/relu_conv"
  type: "ReLU"
  bottom: "loss1/conv"
  top: "loss1/conv"
}
layer {
  name: "loss1/fc"
  type: "InnerProduct"
  bottom: "loss1/conv"
  top: "loss1/fc"
  param {
    lr_mult: 1
    decay_mult: 1
  }
  param {
    lr_mult: 2
    decay_mult: 0
  }
  inner_product_param {
    num_output: 1024
    weight_filler {
      type: "xavier"
      std: 0.02
    }
    bias_filler {
      type: "constant"
      value: 0.2
    }
  }
}
layer {
  name: "loss1/relu_fc"
  type: "ReLU"
  bottom: "loss1/fc"
  top: "loss1/fc"
}
layer {
  name: "loss1/drop_fc"
  type: "Dropout"
  bottom: "loss1/fc"
  top: "loss1/fc"
  dropout_param {
    dropout_ratio: 0.7
  }
}
layer {
  name: "loss1/classifier_plantvillage"
  type: "InnerProduct"
  bottom: "loss1/fc"
  top: "loss1/classifier_plantvillage"
  param {
    lr_mult: 1
    decay_mult: 1
  }
  param {
    lr_mult: 2
    decay_mult: 0
  }
  inner_product_param {
    num_output: 38
    weight_filler {
      type: "xavier"
      std: 0.0009765625
    }
    bias_filler {
      type: "constant"
      value: 0
    }
  }
}
layer {
  name: "inception_4b/1x1"
  type: "Convolution"
  bottom: "inception_4a/output"
  top: "inception_4b/1x1"
  param {
    lr_mult: 1
    decay_mult: 1
  }
  param {
    lr_mult: 2
    decay_mult: 0
  }
  convolution_param {
    num_output: 160
    kernel_size: 1
    weight_filler {
      type: "xavier"
      std: 0.03
    }
    bias_filler {
      type: "constant"
      value: 0.2
    }
  }
}
layer {
  name: "inception_4b/relu_1x1"
  type: "ReLU"
  bottom: "inception_4b/1x1"
  top: "inception_4b/1x1"
}
layer {
  name: "inception_4b/3x3_reduce"
  type: "Convolution"
  bottom: "inception_4a/output"
  top: "inception_4b/3x3_reduce"
  param {
    lr_mult: 1
    decay_mult: 1
  }
  param {
    lr_mult: 2
    decay_mult: 0
  }
  convolution_param {
    num_output: 112
    kernel_size: 1
    weight_filler {
      type: "xavier"
      std: 0.09
    }
    bias_filler {
      type: "constant"
      value: 0.2
    }
  }
}
layer {
  name: "inception_4b/relu_3x3_reduce"
  type: "ReLU"
  bottom: "inception_4b/3x3_reduce"
  top: "inception_4b/3x3_reduce"
}
layer {
  name: "inception_4b/3x3"
  type: "Convolution"
  bottom: "inception_4b/3x3_reduce"
  top: "inception_4b/3x3"
  param {
    lr_mult: 1
    decay_mult: 1
  }
  param {
    lr_mult: 2
    decay_mult: 0
  }
  convolution_param {
    num_output: 224
    pad: 1
    kernel_size: 3
    weight_filler {
      type: "xavier"
      std: 0.03
    }
    bias_filler {
      type: "constant"
      value: 0.2
    }
  }
}
layer {
  name: "inception_4b/relu_3x3"
  type: "ReLU"
  bottom: "inception_4b/3x3"
  top: "inception_4b/3x3"
}
layer {
  name: "inception_4b/5x5_reduce"
  type: "Convolution"
  bottom: "inception_4a/output"
  top: "inception_4b/5x5_reduce"
  param {
    lr_mult: 1
    decay_mult: 1
  }
  param {
    lr_mult: 2
    decay_mult: 0
  }
  convolution_param {
    num_output: 24
    kernel_size: 1
    weight_filler {
      type: "xavier"
      std: 0.2
    }
    bias_filler {
      type: "constant"
      value: 0.2
    }
  }
}
layer {
  name: "inception_4b/relu_5x5_reduce"
  type: "ReLU"
  bottom: "inception_4b/5x5_reduce"
  top: "inception_4b/5x5_reduce"
}
layer {
  name: "inception_4b/5x5"
  type: "Convolution"
  bottom: "inception_4b/5x5_reduce"
  top: "inception_4b/5x5"
  param {
    lr_mult: 1
    decay_mult: 1
  }
  param {
    lr_mult: 2
    decay_mult: 0
  }
  convolution_param {
    num_output: 64
    pad: 2
    kernel_size: 5
    weight_filler {
      type: "xavier"
      std: 0.03
    }
    bias_filler {
      type: "constant"
      value: 0.2
    }
  }
}
layer {
  name: "inception_4b/relu_5x5"
  type: "ReLU"
  bottom: "inception_4b/5x5"
  top: "inception_4b/5x5"
}
layer {
  name: "inception_4b/pool"
  type: "Pooling"
  bottom: "inception_4a/output"
  top: "inception_4b/pool"
  pooling_param {
    pool: MAX
    kernel_size: 3
    stride: 1
    pad: 1
  }
}
layer {
  name: "inception_4b/pool_proj"
  type: "Convolution"
  bottom: "inception_4b/pool"
  top: "inception_4b/pool_proj"
  param {
    lr_mult: 1
    decay_mult: 1
  }
  param {
    lr_mult: 2
    decay_mult: 0
  }
  convolution_param {
    num_output: 64
    kernel_size: 1
    weight_filler {
      type: "xavier"
      std: 0.1
    }
    bias_filler {
      type: "constant"
      value: 0.2
    }
  }
}
layer {
  name: "inception_4b/relu_pool_proj"
  type: "ReLU"
  bottom: "inception_4b/pool_proj"
  top: "inception_4b/pool_proj"
}
layer {
  name: "inception_4b/output"
  type: "Concat"
  bottom: "inception_4b/1x1"
  bottom: "inception_4b/3x3"
  bottom: "inception_4b/5x5"
  bottom: "inception_4b/pool_proj"
  top: "inception_4b/output"
}
layer {
  name: "inception_4c/1x1"
  type: "Convolution"
  bottom: "inception_4b/output"
  top: "inception_4c/1x1"
  param {
    lr_mult: 1
    decay_mult: 1
  }
  param {
    lr_mult: 2
    decay_mult: 0
  }
  convolution_param {
    num_output: 128
    kernel_size: 1
    weight_filler {
      type: "xavier"
      std: 0.03
    }
    bias_filler {
      type: "constant"
      value: 0.2
    }
  }
}
layer {
  name: "inception_4c/relu_1x1"
  type: "ReLU"
  bottom: "inception_4c/1x1"
  top: "inception_4c/1x1"
}
layer {
  name: "inception_4c/3x3_reduce"
  type: "Convolution"
  bottom: "inception_4b/output"
  top: "inception_4c/3x3_reduce"
  param {
    lr_mult: 1
    decay_mult: 1
  }
  param {
    lr_mult: 2
    decay_mult: 0
  }
  convolution_param {
    num_output: 128
    kernel_size: 1
    weight_filler {
      type: "xavier"
      std: 0.09
    }
    bias_filler {
      type: "constant"
      value: 0.2
    }
  }
}
layer {
  name: "inception_4c/relu_3x3_reduce"
  type: "ReLU"
  bottom: "inception_4c/3x3_reduce"
  top: "inception_4c/3x3_reduce"
}
layer {
  name: "inception_4c/3x3"
  type: "Convolution"
  bottom: "inception_4c/3x3_reduce"
  top: "inception_4c/3x3"
  param {
    lr_mult: 1
    decay_mult: 1
  }
  param {
    lr_mult: 2
    decay_mult: 0
  }
  convolution_param {
    num_output: 256
    pad: 1
    kernel_size: 3
    weight_filler {
      type: "xavier"
      std: 0.03
    }
    bias_filler {
      type: "constant"
      value: 0.2
    }
  }
}
layer {
  name: "inception_4c/relu_3x3"
  type: "ReLU"
  bottom: "inception_4c/3x3"
  top: "inception_4c/3x3"
}
layer {
  name: "inception_4c/5x5_reduce"
  type: "Convolution"
  bottom: "inception_4b/output"
  top: "inception_4c/5x5_reduce"
  param {
    lr_mult: 1
    decay_mult: 1
  }
  param {
    lr_mult: 2
    decay_mult: 0
  }
  convolution_param {
    num_output: 24
    kernel_size: 1
    weight_filler {
      type: "xavier"
      std: 0.2
    }
    bias_filler {
      type: "constant"
      value: 0.2
    }
  }
}
layer {
  name: "inception_4c/relu_5x5_reduce"
  type: "ReLU"
  bottom: "inception_4c/5x5_reduce"
  top: "inception_4c/5x5_reduce"
}
layer {
  name: "inception_4c/5x5"
  type: "Convolution"
  bottom: "inception_4c/5x5_reduce"
  top: "inception_4c/5x5"
  param {
    lr_mult: 1
    decay_mult: 1
  }
  param {
    lr_mult: 2
    decay_mult: 0
  }
  convolution_param {
    num_output: 64
    pad: 2
    kernel_size: 5
    weight_filler {
      type: "xavier"
      std: 0.03
    }
    bias_filler {
      type: "constant"
      value: 0.2
    }
  }
}
layer {
  name: "inception_4c/relu_5x5"
  type: "ReLU"
  bottom: "inception_4c/5x5"
  top: "inception_4c/5x5"
}
layer {
  name: "inception_4c/pool"
  type: "Pooling"
  bottom: "inception_4b/output"
  top: "inception_4c/pool"
  pooling_param {
    pool: MAX
    kernel_size: 3
    stride: 1
    pad: 1
  }
}
layer {
  name: "inception_4c/pool_proj"
  type: "Convolution"
  bottom: "inception_4c/pool"
  top: "inception_4c/pool_proj"
  param {
    lr_mult: 1
    decay_mult: 1
  }
  param {
    lr_mult: 2
    decay_mult: 0
  }
  convolution_param {
    num_output: 64
    kernel_size: 1
    weight_filler {
      type: "xavier"
      std: 0.1
    }
    bias_filler {
      type: "constant"
      value: 0.2
    }
  }
}
layer {
  name: "inception_4c/relu_pool_proj"
  type: "ReLU"
  bottom: "inception_4c/pool_proj"
  top: "inception_4c/pool_proj"
}
layer {
  name: "inception_4c/output"
  type: "Concat"
  bottom: "inception_4c/1x1"
  bottom: "inception_4c/3x3"
  bottom: "inception_4c/5x5"
  bottom: "inception_4c/pool_proj"
  top: "inception_4c/output"
}
layer {
  name: "inception_4d/1x1"
  type: "Convolution"
  bottom: "inception_4c/output"
  top: "inception_4d/1x1"
  param {
    lr_mult: 1
    decay_mult: 1
  }
  param {
    lr_mult: 2
    decay_mult: 0
  }
  convolution_param {
    num_output: 112
    kernel_size: 1
    weight_filler {
      type: "xavier"
      std: 0.03
    }
    bias_filler {
      type: "constant"
      value: 0.2
    }
  }
}
layer {
  name: "inception_4d/relu_1x1"
  type: "ReLU"
  bottom: "inception_4d/1x1"
  top: "inception_4d/1x1"
}
layer {
  name: "inception_4d/3x3_reduce"
  type: "Convolution"
  bottom: "inception_4c/output"
  top: "inception_4d/3x3_reduce"
  param {
    lr_mult: 1
    decay_mult: 1
  }
  param {
    lr_mult: 2
    decay_mult: 0
  }
  convolution_param {
    num_output: 144
    kernel_size: 1
    weight_filler {
      type: "xavier"
      std: 0.09
    }
    bias_filler {
      type: "constant"
      value: 0.2
    }
  }
}
layer {
  name: "inception_4d/relu_3x3_reduce"
  type: "ReLU"
  bottom: "inception_4d/3x3_reduce"
  top: "inception_4d/3x3_reduce"
}
layer {
  name: "inception_4d/3x3"
  type: "Convolution"
  bottom: "inception_4d/3x3_reduce"
  top: "inception_4d/3x3"
  param {
    lr_mult: 1
    decay_mult: 1
  }
  param {
    lr_mult: 2
    decay_mult: 0
  }
  convolution_param {
    num_output: 288
    pad: 1
    kernel_size: 3
    weight_filler {
      type: "xavier"
      std: 0.03
    }
    bias_filler {
      type: "constant"
      value: 0.2
    }
  }
}
layer {
  name: "inception_4d/relu_3x3"
  type: "ReLU"
  bottom: "inception_4d/3x3"
  top: "inception_4d/3x3"
}
layer {
  name: "inception_4d/5x5_reduce"
  type: "Convolution"
  bottom: "inception_4c/output"
  top: "inception_4d/5x5_reduce"
  param {
    lr_mult: 1
    decay_mult: 1
  }
  param {
    lr_mult: 2
    decay_mult: 0
  }
  convolution_param {
    num_output: 32
    kernel_size: 1
    weight_filler {
      type: "xavier"
      std: 0.2
    }
    bias_filler {
      type: "constant"
      value: 0.2
    }
  }
}
layer {
  name: "inception_4d/relu_5x5_reduce"
  type: "ReLU"
  bottom: "inception_4d/5x5_reduce"
  top: "inception_4d/5x5_reduce"
}
layer {
  name: "inception_4d/5x5"
  type: "Convolution"
  bottom: "inception_4d/5x5_reduce"
  top: "inception_4d/5x5"
  param {
    lr_mult: 1
    decay_mult: 1
  }
  param {
    lr_mult: 2
    decay_mult: 0
  }
  convolution_param {
    num_output: 64
    pad: 2
    kernel_size: 5
    weight_filler {
      type: "xavier"
      std: 0.03
    }
    bias_filler {
      type: "constant"
      value: 0.2
    }
  }
}
layer {
  name: "inception_4d/relu_5x5"
  type: "ReLU"
  bottom: "inception_4d/5x5"
  top: "inception_4d/5x5"
}
layer {
  name: "inception_4d/pool"
  type: "Pooling"
  bottom: "inception_4c/output"
  top: "inception_4d/pool"
  pooling_param {
    pool: MAX
    kernel_size: 3
    stride: 1
    pad: 1
  }
}
layer {
  name: "inception_4d/pool_proj"
  type: "Convolution"
  bottom: "inception_4d/pool"
  top: "inception_4d/pool_proj"
  param {
    lr_mult: 1
    decay_mult: 1
  }
  param {
    lr_mult: 2
    decay_mult: 0
  }
  convolution_param {
    num_output: 64
    kernel_size: 1
    weight_filler {
      type: "xavier"
      std: 0.1
    }
    bias_filler {
      type: "constant"
      value: 0.2
    }
  }
}
layer {
  name: "inception_4d/relu_pool_proj"
  type: "ReLU"
  bottom: "inception_4d/pool_proj"
  top: "inception_4d/pool_proj"
}
layer {
  name: "inception_4d/output"
  type: "Concat"
  bottom: "inception_4d/1x1"
  bottom: "inception_4d/3x3"
  bottom: "inception_4d/5x5"
  bottom: "inception_4d/pool_proj"
  top: "inception_4d/output"
}
layer {
  name: "loss2/ave_pool"
  type: "Pooling"
  bottom: "inception_4d/output"
  top: "loss2/ave_pool"
  pooling_param {
    pool: AVE
    kernel_size: 5
    stride: 3
  }
}
layer {
  name: "loss2/conv"
  type: "Convolution"
  bottom: "loss2/ave_pool"
  top: "loss2/conv"
  param {
    lr_mult: 1
    decay_mult: 1
  }
  param {
    lr_mult: 2
    decay_mult: 0
  }
  convolution_param {
    num_output: 128
    kernel_size: 1
    weight_filler {
      type: "xavier"
      std: 0.08
    }
    bias_filler {
      type: "constant"
      value: 0.2
    }
  }
}
layer {
  name: "loss2/relu_conv"
  type: "ReLU"
  bottom: "loss2/conv"
  top: "loss2/conv"
}
layer {
  name: "loss2/fc"
  type: "InnerProduct"
  bottom: "loss2/conv"
  top: "loss2/fc"
  param {
    lr_mult: 1
    decay_mult: 1
  }
  param {
    lr_mult: 2
    decay_mult: 0
  }
  inner_product_param {
    num_output: 1024
    weight_filler {
      type: "xavier"
      std: 0.02
    }
    bias_filler {
      type: "constant"
      value: 0.2
    }
  }
}
layer {
  name: "loss2/relu_fc"
  type: "ReLU"
  bottom: "loss2/fc"
  top: "loss2/fc"
}
layer {
  name: "loss2/drop_fc"
  type: "Dropout"
  bottom: "loss2/fc"
  top: "loss2/fc"
  dropout_param {
    dropout_ratio: 0.7
  }
}
layer {
  name: "loss2/classifier_plantvillage"
  type: "InnerProduct"
  bottom: "loss2/fc"
  top: "loss2/classifier_plantvillage"
  param {
    lr_mult: 1
    decay_mult: 1
  }
  param {
    lr_mult: 2
    decay_mult: 0
  }
  inner_product_param {
    num_output: 38
    weight_filler {
      type: "xavier"
      std: 0.0009765625
    }
    bias_filler {
      type: "constant"
      value: 0
    }
  }
}
layer {
  name: "inception_4e/1x1"
  type: "Convolution"
  bottom: "inception_4d/output"
  top: "inception_4e/1x1"
  param {
    lr_mult: 1
    decay_mult: 1
  }
  param {
    lr_mult: 2
    decay_mult: 0
  }
  convolution_param {
    num_output: 256
    kernel_size: 1
    weight_filler {
      type: "xavier"
      std: 0.03
    }
    bias_filler {
      type: "constant"
      value: 0.2
    }
  }
}
layer {
  name: "inception_4e/relu_1x1"
  type: "ReLU"
  bottom: "inception_4e/1x1"
  top: "inception_4e/1x1"
}
layer {
  name: "inception_4e/3x3_reduce"
  type: "Convolution"
  bottom: "inception_4d/output"
  top: "inception_4e/3x3_reduce"
  param {
    lr_mult: 1
    decay_mult: 1
  }
  param {
    lr_mult: 2
    decay_mult: 0
  }
  convolution_param {
    num_output: 160
    kernel_size: 1
    weight_filler {
      type: "xavier"
      std: 0.09
    }
    bias_filler {
      type: "constant"
      value: 0.2
    }
  }
}
layer {
  name: "inception_4e/relu_3x3_reduce"
  type: "ReLU"
  bottom: "inception_4e/3x3_reduce"
  top: "inception_4e/3x3_reduce"
}
layer {
  name: "inception_4e/3x3"
  type: "Convolution"
  bottom: "inception_4e/3x3_reduce"
  top: "inception_4e/3x3"
  param {
    lr_mult: 1
    decay_mult: 1
  }
  param {
    lr_mult: 2
    decay_mult: 0
  }
  convolution_param {
    num_output: 320
    pad: 1
    kernel_size: 3
    weight_filler {
      type: "xavier"
      std: 0.03
    }
    bias_filler {
      type: "constant"
      value: 0.2
    }
  }
}
layer {
  name: "inception_4e/relu_3x3"
  type: "ReLU"
  bottom: "inception_4e/3x3"
  top: "inception_4e/3x3"
}
layer {
  name: "inception_4e/5x5_reduce"
  type: "Convolution"
  bottom: "inception_4d/output"
  top: "inception_4e/5x5_reduce"
  param {
    lr_mult: 1
    decay_mult: 1
  }
  param {
    lr_mult: 2
    decay_mult: 0
  }
  convolution_param {
    num_output: 32
    kernel_size: 1
    weight_filler {
      type: "xavier"
      std: 0.2
    }
    bias_filler {
      type: "constant"
      value: 0.2
    }
  }
}
layer {
  name: "inception_4e/relu_5x5_reduce"
  type: "ReLU"
  bottom: "inception_4e/5x5_reduce"
  top: "inception_4e/5x5_reduce"
}
layer {
  name: "inception_4e/5x5"
  type: "Convolution"
  bottom: "inception_4e/5x5_reduce"
  top: "inception_4e/5x5"
  p
I0403 19:43:24.467028  9594 layer_factory.hpp:77] Creating layer data
I0403 19:43:24.467622  9594 net.cpp:91] Creating Layer data
I0403 19:43:24.467656  9594 net.cpp:399] data -> data
I0403 19:43:24.467715  9594 net.cpp:399] data -> label
I0403 19:43:24.467751  9594 data_transformer.cpp:25] Loading mean file from: /home/mohanty/data/final_dataset/lmdb/color-60-40/mean.binaryproto
I0403 19:43:24.468945  9596 db_lmdb.cpp:38] Opened lmdb /home/mohanty/data/final_dataset/lmdb/color-60-40/test_db
I0403 19:43:24.480845  9594 data_layer.cpp:41] output data size: 24,3,224,224
I0403 19:43:24.507403  9594 net.cpp:141] Setting up data
I0403 19:43:24.507480  9594 net.cpp:148] Top shape: 24 3 224 224 (3612672)
I0403 19:43:24.507504  9594 net.cpp:148] Top shape: 24 (24)
I0403 19:43:24.507520  9594 net.cpp:156] Memory required for data: 14450784
I0403 19:43:24.507551  9594 layer_factory.hpp:77] Creating layer label_data_1_split
I0403 19:43:24.507580  9594 net.cpp:91] Creating Layer label_data_1_split
I0403 19:43:24.507598  9594 net.cpp:425] label_data_1_split <- label
I0403 19:43:24.507634  9594 net.cpp:399] label_data_1_split -> label_data_1_split_0
I0403 19:43:24.507663  9594 net.cpp:399] label_data_1_split -> label_data_1_split_1
I0403 19:43:24.507684  9594 net.cpp:399] label_data_1_split -> label_data_1_split_2
I0403 19:43:24.507705  9594 net.cpp:399] label_data_1_split -> label_data_1_split_3
I0403 19:43:24.507725  9594 net.cpp:399] label_data_1_split -> label_data_1_split_4
I0403 19:43:24.507746  9594 net.cpp:399] label_data_1_split -> label_data_1_split_5
I0403 19:43:24.507764  9594 net.cpp:399] label_data_1_split -> label_data_1_split_6
I0403 19:43:24.507784  9594 net.cpp:399] label_data_1_split -> label_data_1_split_7
I0403 19:43:24.507804  9594 net.cpp:399] label_data_1_split -> label_data_1_split_8
I0403 19:43:24.507824  9594 net.cpp:399] label_data_1_split -> label_data_1_split_9
I0403 19:43:24.507941  9594 net.cpp:141] Setting up label_data_1_split
I0403 19:43:24.507963  9594 net.cpp:148] Top shape: 24 (24)
I0403 19:43:24.507979  9594 net.cpp:148] Top shape: 24 (24)
I0403 19:43:24.507995  9594 net.cpp:148] Top shape: 24 (24)
I0403 19:43:24.508011  9594 net.cpp:148] Top shape: 24 (24)
I0403 19:43:24.508026  9594 net.cpp:148] Top shape: 24 (24)
I0403 19:43:24.508043  9594 net.cpp:148] Top shape: 24 (24)
I0403 19:43:24.508059  9594 net.cpp:148] Top shape: 24 (24)
I0403 19:43:24.508074  9594 net.cpp:148] Top shape: 24 (24)
I0403 19:43:24.508090  9594 net.cpp:148] Top shape: 24 (24)
I0403 19:43:24.508105  9594 net.cpp:148] Top shape: 24 (24)
I0403 19:43:24.508153  9594 net.cpp:156] Memory required for data: 14451744
I0403 19:43:24.508169  9594 layer_factory.hpp:77] Creating layer conv1/7x7_s2
I0403 19:43:24.508205  9594 net.cpp:91] Creating Layer conv1/7x7_s2
I0403 19:43:24.508232  9594 net.cpp:425] conv1/7x7_s2 <- data
I0403 19:43:24.508254  9594 net.cpp:399] conv1/7x7_s2 -> conv1/7x7_s2
I0403 19:43:24.643203  9594 net.cpp:141] Setting up conv1/7x7_s2
I0403 19:43:24.643285  9594 net.cpp:148] Top shape: 24 64 112 112 (19267584)
I0403 19:43:24.643302  9594 net.cpp:156] Memory required for data: 91522080
I0403 19:43:24.643337  9594 layer_factory.hpp:77] Creating layer conv1/relu_7x7
I0403 19:43:24.643368  9594 net.cpp:91] Creating Layer conv1/relu_7x7
I0403 19:43:24.643386  9594 net.cpp:425] conv1/relu_7x7 <- conv1/7x7_s2
I0403 19:43:24.643406  9594 net.cpp:386] conv1/relu_7x7 -> conv1/7x7_s2 (in-place)
I0403 19:43:24.643669  9594 net.cpp:141] Setting up conv1/relu_7x7
I0403 19:43:24.643697  9594 net.cpp:148] Top shape: 24 64 112 112 (19267584)
I0403 19:43:24.643713  9594 net.cpp:156] Memory required for data: 168592416
I0403 19:43:24.643728  9594 layer_factory.hpp:77] Creating layer pool1/3x3_s2
I0403 19:43:24.643754  9594 net.cpp:91] Creating Layer pool1/3x3_s2
I0403 19:43:24.643774  9594 net.cpp:425] pool1/3x3_s2 <- conv1/7x7_s2
I0403 19:43:24.643792  9594 net.cpp:399] pool1/3x3_s2 -> pool1/3x3_s2
I0403 19:43:24.643869  9594 net.cpp:141] Setting up pool1/3x3_s2
I0403 19:43:24.643894  9594 net.cpp:148] Top shape: 24 64 56 56 (4816896)
I0403 19:43:24.643909  9594 net.cpp:156] Memory required for data: 187860000
I0403 19:43:24.643924  9594 layer_factory.hpp:77] Creating layer pool1/norm1
I0403 19:43:24.643954  9594 net.cpp:91] Creating Layer pool1/norm1
I0403 19:43:24.643971  9594 net.cpp:425] pool1/norm1 <- pool1/3x3_s2
I0403 19:43:24.643990  9594 net.cpp:399] pool1/norm1 -> pool1/norm1
I0403 19:43:24.644273  9594 net.cpp:141] Setting up pool1/norm1
I0403 19:43:24.644301  9594 net.cpp:148] Top shape: 24 64 56 56 (4816896)
I0403 19:43:24.644317  9594 net.cpp:156] Memory required for data: 207127584
I0403 19:43:24.644333  9594 layer_factory.hpp:77] Creating layer conv2/3x3_reduce
I0403 19:43:24.644359  9594 net.cpp:91] Creating Layer conv2/3x3_reduce
I0403 19:43:24.644376  9594 net.cpp:425] conv2/3x3_reduce <- pool1/norm1
I0403 19:43:24.644393  9594 net.cpp:399] conv2/3x3_reduce -> conv2/3x3_reduce
I0403 19:43:24.645802  9594 net.cpp:141] Setting up conv2/3x3_reduce
I0403 19:43:24.645833  9594 net.cpp:148] Top shape: 24 64 56 56 (4816896)
I0403 19:43:24.645849  9594 net.cpp:156] Memory required for data: 226395168
I0403 19:43:24.645871  9594 layer_factory.hpp:77] Creating layer conv2/relu_3x3_reduce
I0403 19:43:24.645889  9594 net.cpp:91] Creating Layer conv2/relu_3x3_reduce
I0403 19:43:24.645906  9594 net.cpp:425] conv2/relu_3x3_reduce <- conv2/3x3_reduce
I0403 19:43:24.645925  9594 net.cpp:386] conv2/relu_3x3_reduce -> conv2/3x3_reduce (in-place)
I0403 19:43:24.646196  9594 net.cpp:141] Setting up conv2/relu_3x3_reduce
I0403 19:43:24.646224  9594 net.cpp:148] Top shape: 24 64 56 56 (4816896)
I0403 19:43:24.646239  9594 net.cpp:156] Memory required for data: 245662752
I0403 19:43:24.646253  9594 layer_factory.hpp:77] Creating layer conv2/3x3
I0403 19:43:24.646277  9594 net.cpp:91] Creating Layer conv2/3x3
I0403 19:43:24.646296  9594 net.cpp:425] conv2/3x3 <- conv2/3x3_reduce
I0403 19:43:24.646327  9594 net.cpp:399] conv2/3x3 -> conv2/3x3
I0403 19:43:24.648627  9594 net.cpp:141] Setting up conv2/3x3
I0403 19:43:24.648658  9594 net.cpp:148] Top shape: 24 192 56 56 (14450688)
I0403 19:43:24.648674  9594 net.cpp:156] Memory required for data: 303465504
I0403 19:43:24.648696  9594 layer_factory.hpp:77] Creating layer conv2/relu_3x3
I0403 19:43:24.648715  9594 net.cpp:91] Creating Layer conv2/relu_3x3
I0403 19:43:24.648732  9594 net.cpp:425] conv2/relu_3x3 <- conv2/3x3
I0403 19:43:24.648754  9594 net.cpp:386] conv2/relu_3x3 -> conv2/3x3 (in-place)
I0403 19:43:24.648927  9594 net.cpp:141] Setting up conv2/relu_3x3
I0403 19:43:24.648954  9594 net.cpp:148] Top shape: 24 192 56 56 (14450688)
I0403 19:43:24.649006  9594 net.cpp:156] Memory required for data: 361268256
I0403 19:43:24.649022  9594 layer_factory.hpp:77] Creating layer conv2/norm2
I0403 19:43:24.649042  9594 net.cpp:91] Creating Layer conv2/norm2
I0403 19:43:24.649060  9594 net.cpp:425] conv2/norm2 <- conv2/3x3
I0403 19:43:24.649078  9594 net.cpp:399] conv2/norm2 -> conv2/norm2
I0403 19:43:24.649381  9594 net.cpp:141] Setting up conv2/norm2
I0403 19:43:24.649410  9594 net.cpp:148] Top shape: 24 192 56 56 (14450688)
I0403 19:43:24.649427  9594 net.cpp:156] Memory required for data: 419071008
I0403 19:43:24.649443  9594 layer_factory.hpp:77] Creating layer pool2/3x3_s2
I0403 19:43:24.649464  9594 net.cpp:91] Creating Layer pool2/3x3_s2
I0403 19:43:24.649482  9594 net.cpp:425] pool2/3x3_s2 <- conv2/norm2
I0403 19:43:24.649500  9594 net.cpp:399] pool2/3x3_s2 -> pool2/3x3_s2
I0403 19:43:24.649554  9594 net.cpp:141] Setting up pool2/3x3_s2
I0403 19:43:24.649576  9594 net.cpp:148] Top shape: 24 192 28 28 (3612672)
I0403 19:43:24.649592  9594 net.cpp:156] Memory required for data: 433521696
I0403 19:43:24.649607  9594 layer_factory.hpp:77] Creating layer pool2/3x3_s2_pool2/3x3_s2_0_split
I0403 19:43:24.649627  9594 net.cpp:91] Creating Layer pool2/3x3_s2_pool2/3x3_s2_0_split
I0403 19:43:24.649646  9594 net.cpp:425] pool2/3x3_s2_pool2/3x3_s2_0_split <- pool2/3x3_s2
I0403 19:43:24.649663  9594 net.cpp:399] pool2/3x3_s2_pool2/3x3_s2_0_split -> pool2/3x3_s2_pool2/3x3_s2_0_split_0
I0403 19:43:24.649683  9594 net.cpp:399] pool2/3x3_s2_pool2/3x3_s2_0_split -> pool2/3x3_s2_pool2/3x3_s2_0_split_1
I0403 19:43:24.649703  9594 net.cpp:399] pool2/3x3_s2_pool2/3x3_s2_0_split -> pool2/3x3_s2_pool2/3x3_s2_0_split_2
I0403 19:43:24.649725  9594 net.cpp:399] pool2/3x3_s2_pool2/3x3_s2_0_split -> pool2/3x3_s2_pool2/3x3_s2_0_split_3
I0403 19:43:24.649801  9594 net.cpp:141] Setting up pool2/3x3_s2_pool2/3x3_s2_0_split
I0403 19:43:24.649824  9594 net.cpp:148] Top shape: 24 192 28 28 (3612672)
I0403 19:43:24.649842  9594 net.cpp:148] Top shape: 24 192 28 28 (3612672)
I0403 19:43:24.649857  9594 net.cpp:148] Top shape: 24 192 28 28 (3612672)
I0403 19:43:24.649873  9594 net.cpp:148] Top shape: 24 192 28 28 (3612672)
I0403 19:43:24.649888  9594 net.cpp:156] Memory required for data: 491324448
I0403 19:43:24.649901  9594 layer_factory.hpp:77] Creating layer inception_3a/1x1
I0403 19:43:24.649924  9594 net.cpp:91] Creating Layer inception_3a/1x1
I0403 19:43:24.649941  9594 net.cpp:425] inception_3a/1x1 <- pool2/3x3_s2_pool2/3x3_s2_0_split_0
I0403 19:43:24.649963  9594 net.cpp:399] inception_3a/1x1 -> inception_3a/1x1
I0403 19:43:24.651489  9594 net.cpp:141] Setting up inception_3a/1x1
I0403 19:43:24.651522  9594 net.cpp:148] Top shape: 24 64 28 28 (1204224)
I0403 19:43:24.651540  9594 net.cpp:156] Memory required for data: 496141344
I0403 19:43:24.651559  9594 layer_factory.hpp:77] Creating layer inception_3a/relu_1x1
I0403 19:43:24.651577  9594 net.cpp:91] Creating Layer inception_3a/relu_1x1
I0403 19:43:24.651593  9594 net.cpp:425] inception_3a/relu_1x1 <- inception_3a/1x1
I0403 19:43:24.651613  9594 net.cpp:386] inception_3a/relu_1x1 -> inception_3a/1x1 (in-place)
I0403 19:43:24.651785  9594 net.cpp:141] Setting up inception_3a/relu_1x1
I0403 19:43:24.651811  9594 net.cpp:148] Top shape: 24 64 28 28 (1204224)
I0403 19:43:24.651826  9594 net.cpp:156] Memory required for data: 500958240
I0403 19:43:24.651841  9594 layer_factory.hpp:77] Creating layer inception_3a/3x3_reduce
I0403 19:43:24.651864  9594 net.cpp:91] Creating Layer inception_3a/3x3_reduce
I0403 19:43:24.651882  9594 net.cpp:425] inception_3a/3x3_reduce <- pool2/3x3_s2_pool2/3x3_s2_0_split_1
I0403 19:43:24.651904  9594 net.cpp:399] inception_3a/3x3_reduce -> inception_3a/3x3_reduce
I0403 19:43:24.653589  9594 net.cpp:141] Setting up inception_3a/3x3_reduce
I0403 19:43:24.653620  9594 net.cpp:148] Top shape: 24 96 28 28 (1806336)
I0403 19:43:24.653635  9594 net.cpp:156] Memory required for data: 508183584
I0403 19:43:24.653657  9594 layer_factory.hpp:77] Creating layer inception_3a/relu_3x3_reduce
I0403 19:43:24.653694  9594 net.cpp:91] Creating Layer inception_3a/relu_3x3_reduce
I0403 19:43:24.653713  9594 net.cpp:425] inception_3a/relu_3x3_reduce <- inception_3a/3x3_reduce
I0403 19:43:24.653733  9594 net.cpp:386] inception_3a/relu_3x3_reduce -> inception_3a/3x3_reduce (in-place)
I0403 19:43:24.653908  9594 net.cpp:141] Setting up inception_3a/relu_3x3_reduce
I0403 19:43:24.653937  9594 net.cpp:148] Top shape: 24 96 28 28 (1806336)
I0403 19:43:24.653954  9594 net.cpp:156] Memory required for data: 515408928
I0403 19:43:24.653970  9594 layer_factory.hpp:77] Creating layer inception_3a/3x3
I0403 19:43:24.653992  9594 net.cpp:91] Creating Layer inception_3a/3x3
I0403 19:43:24.654011  9594 net.cpp:425] inception_3a/3x3 <- inception_3a/3x3_reduce
I0403 19:43:24.654029  9594 net.cpp:399] inception_3a/3x3 -> inception_3a/3x3
I0403 19:43:24.655628  9594 net.cpp:141] Setting up inception_3a/3x3
I0403 19:43:24.655658  9594 net.cpp:148] Top shape: 24 128 28 28 (2408448)
I0403 19:43:24.655680  9594 net.cpp:156] Memory required for data: 525042720
I0403 19:43:24.655697  9594 layer_factory.hpp:77] Creating layer inception_3a/relu_3x3
I0403 19:43:24.655716  9594 net.cpp:91] Creating Layer inception_3a/relu_3x3
I0403 19:43:24.655735  9594 net.cpp:425] inception_3a/relu_3x3 <- inception_3a/3x3
I0403 19:43:24.655753  9594 net.cpp:386] inception_3a/relu_3x3 -> inception_3a/3x3 (in-place)
I0403 19:43:24.656011  9594 net.cpp:141] Setting up inception_3a/relu_3x3
I0403 19:43:24.656038  9594 net.cpp:148] Top shape: 24 128 28 28 (2408448)
I0403 19:43:24.656052  9594 net.cpp:156] Memory required for data: 534676512
I0403 19:43:24.656069  9594 layer_factory.hpp:77] Creating layer inception_3a/5x5_reduce
I0403 19:43:24.656093  9594 net.cpp:91] Creating Layer inception_3a/5x5_reduce
I0403 19:43:24.656111  9594 net.cpp:425] inception_3a/5x5_reduce <- pool2/3x3_s2_pool2/3x3_s2_0_split_2
I0403 19:43:24.656131  9594 net.cpp:399] inception_3a/5x5_reduce -> inception_3a/5x5_reduce
I0403 19:43:24.657050  9594 net.cpp:141] Setting up inception_3a/5x5_reduce
I0403 19:43:24.657078  9594 net.cpp:148] Top shape: 24 16 28 28 (301056)
I0403 19:43:24.657094  9594 net.cpp:156] Memory required for data: 535880736
I0403 19:43:24.657114  9594 layer_factory.hpp:77] Creating layer inception_3a/relu_5x5_reduce
I0403 19:43:24.657132  9594 net.cpp:91] Creating Layer inception_3a/relu_5x5_reduce
I0403 19:43:24.657148  9594 net.cpp:425] inception_3a/relu_5x5_reduce <- inception_3a/5x5_reduce
I0403 19:43:24.657166  9594 net.cpp:386] inception_3a/relu_5x5_reduce -> inception_3a/5x5_reduce (in-place)
I0403 19:43:24.657452  9594 net.cpp:141] Setting up inception_3a/relu_5x5_reduce
I0403 19:43:24.657482  9594 net.cpp:148] Top shape: 24 16 28 28 (301056)
I0403 19:43:24.657497  9594 net.cpp:156] Memory required for data: 537084960
I0403 19:43:24.657513  9594 layer_factory.hpp:77] Creating layer inception_3a/5x5
I0403 19:43:24.657536  9594 net.cpp:91] Creating Layer inception_3a/5x5
I0403 19:43:24.657553  9594 net.cpp:425] inception_3a/5x5 <- inception_3a/5x5_reduce
I0403 19:43:24.657573  9594 net.cpp:399] inception_3a/5x5 -> inception_3a/5x5
I0403 19:43:24.658552  9594 net.cpp:141] Setting up inception_3a/5x5
I0403 19:43:24.658582  9594 net.cpp:148] Top shape: 24 32 28 28 (602112)
I0403 19:43:24.658598  9594 net.cpp:156] Memory required for data: 539493408
I0403 19:43:24.658617  9594 layer_factory.hpp:77] Creating layer inception_3a/relu_5x5
I0403 19:43:24.658633  9594 net.cpp:91] Creating Layer inception_3a/relu_5x5
I0403 19:43:24.658649  9594 net.cpp:425] inception_3a/relu_5x5 <- inception_3a/5x5
I0403 19:43:24.658668  9594 net.cpp:386] inception_3a/relu_5x5 -> inception_3a/5x5 (in-place)
I0403 19:43:24.658833  9594 net.cpp:141] Setting up inception_3a/relu_5x5
I0403 19:43:24.658862  9594 net.cpp:148] Top shape: 24 32 28 28 (602112)
I0403 19:43:24.658877  9594 net.cpp:156] Memory required for data: 541901856
I0403 19:43:24.658892  9594 layer_factory.hpp:77] Creating layer inception_3a/pool
I0403 19:43:24.658910  9594 net.cpp:91] Creating Layer inception_3a/pool
I0403 19:43:24.658926  9594 net.cpp:425] inception_3a/pool <- pool2/3x3_s2_pool2/3x3_s2_0_split_3
I0403 19:43:24.658958  9594 net.cpp:399] inception_3a/pool -> inception_3a/pool
I0403 19:43:24.659020  9594 net.cpp:141] Setting up inception_3a/pool
I0403 19:43:24.659044  9594 net.cpp:148] Top shape: 24 192 28 28 (3612672)
I0403 19:43:24.659059  9594 net.cpp:156] Memory required for data: 556352544
I0403 19:43:24.659073  9594 layer_factory.hpp:77] Creating layer inception_3a/pool_proj
I0403 19:43:24.659096  9594 net.cpp:91] Creating Layer inception_3a/pool_proj
I0403 19:43:24.659113  9594 net.cpp:425] inception_3a/pool_proj <- inception_3a/pool
I0403 19:43:24.659135  9594 net.cpp:399] inception_3a/pool_proj -> inception_3a/pool_proj
I0403 19:43:24.660068  9594 net.cpp:141] Setting up inception_3a/pool_proj
I0403 19:43:24.660094  9594 net.cpp:148] Top shape: 24 32 28 28 (602112)
I0403 19:43:24.660110  9594 net.cpp:156] Memory required for data: 558760992
I0403 19:43:24.660135  9594 layer_factory.hpp:77] Creating layer inception_3a/relu_pool_proj
I0403 19:43:24.660156  9594 net.cpp:91] Creating Layer inception_3a/relu_pool_proj
I0403 19:43:24.660173  9594 net.cpp:425] inception_3a/relu_pool_proj <- inception_3a/pool_proj
I0403 19:43:24.660192  9594 net.cpp:386] inception_3a/relu_pool_proj -> inception_3a/pool_proj (in-place)
I0403 19:43:24.660462  9594 net.cpp:141] Setting up inception_3a/relu_pool_proj
I0403 19:43:24.660488  9594 net.cpp:148] Top shape: 24 32 28 28 (602112)
I0403 19:43:24.660503  9594 net.cpp:156] Memory required for data: 561169440
I0403 19:43:24.660518  9594 layer_factory.hpp:77] Creating layer inception_3a/output
I0403 19:43:24.660536  9594 net.cpp:91] Creating Layer inception_3a/output
I0403 19:43:24.660552  9594 net.cpp:425] inception_3a/output <- inception_3a/1x1
I0403 19:43:24.660568  9594 net.cpp:425] inception_3a/output <- inception_3a/3x3
I0403 19:43:24.660584  9594 net.cpp:425] inception_3a/output <- inception_3a/5x5
I0403 19:43:24.660600  9594 net.cpp:425] inception_3a/output <- inception_3a/pool_proj
I0403 19:43:24.660619  9594 net.cpp:399] inception_3a/output -> inception_3a/output
I0403 19:43:24.660679  9594 net.cpp:141] Setting up inception_3a/output
I0403 19:43:24.660706  9594 net.cpp:148] Top shape: 24 256 28 28 (4816896)
I0403 19:43:24.660722  9594 net.cpp:156] Memory required for data: 580437024
I0403 19:43:24.660737  9594 layer_factory.hpp:77] Creating layer inception_3a/output_inception_3a/output_0_split
I0403 19:43:24.660754  9594 net.cpp:91] Creating Layer inception_3a/output_inception_3a/output_0_split
I0403 19:43:24.660769  9594 net.cpp:425] inception_3a/output_inception_3a/output_0_split <- inception_3a/output
I0403 19:43:24.660787  9594 net.cpp:399] inception_3a/output_inception_3a/output_0_split -> inception_3a/output_inception_3a/output_0_split_0
I0403 19:43:24.660809  9594 net.cpp:399] inception_3a/output_inception_3a/output_0_split -> inception_3a/output_inception_3a/output_0_split_1
I0403 19:43:24.660831  9594 net.cpp:399] inception_3a/output_inception_3a/output_0_split -> inception_3a/output_inception_3a/output_0_split_2
I0403 19:43:24.660852  9594 net.cpp:399] inception_3a/output_inception_3a/output_0_split -> inception_3a/output_inception_3a/output_0_split_3
I0403 19:43:24.660925  9594 net.cpp:141] Setting up inception_3a/output_inception_3a/output_0_split
I0403 19:43:24.660950  9594 net.cpp:148] Top shape: 24 256 28 28 (4816896)
I0403 19:43:24.660969  9594 net.cpp:148] Top shape: 24 256 28 28 (4816896)
I0403 19:43:24.660985  9594 net.cpp:148] Top shape: 24 256 28 28 (4816896)
I0403 19:43:24.661000  9594 net.cpp:148] Top shape: 24 256 28 28 (4816896)
I0403 19:43:24.661013  9594 net.cpp:156] Memory required for data: 657507360
I0403 19:43:24.661028  9594 layer_factory.hpp:77] Creating layer inception_3b/1x1
I0403 19:43:24.661049  9594 net.cpp:91] Creating Layer inception_3b/1x1
I0403 19:43:24.661067  9594 net.cpp:425] inception_3b/1x1 <- inception_3a/output_inception_3a/output_0_split_0
I0403 19:43:24.661088  9594 net.cpp:399] inception_3b/1x1 -> inception_3b/1x1
I0403 19:43:24.662183  9594 net.cpp:141] Setting up inception_3b/1x1
I0403 19:43:24.662223  9594 net.cpp:148] Top shape: 24 128 28 28 (2408448)
I0403 19:43:24.662240  9594 net.cpp:156] Memory required for data: 667141152
I0403 19:43:24.662258  9594 layer_factory.hpp:77] Creating layer inception_3b/relu_1x1
I0403 19:43:24.662276  9594 net.cpp:91] Creating Layer inception_3b/relu_1x1
I0403 19:43:24.662292  9594 net.cpp:425] inception_3b/relu_1x1 <- inception_3b/1x1
I0403 19:43:24.662308  9594 net.cpp:386] inception_3b/relu_1x1 -> inception_3b/1x1 (in-place)
I0403 19:43:24.662492  9594 net.cpp:141] Setting up inception_3b/relu_1x1
I0403 19:43:24.662518  9594 net.cpp:148] Top shape: 24 128 28 28 (2408448)
I0403 19:43:24.662533  9594 net.cpp:156] Memory required for data: 676774944
I0403 19:43:24.662547  9594 layer_factory.hpp:77] Creating layer inception_3b/3x3_reduce
I0403 19:43:24.662569  9594 net.cpp:91] Creating Layer inception_3b/3x3_reduce
I0403 19:43:24.662586  9594 net.cpp:425] inception_3b/3x3_reduce <- inception_3a/output_inception_3a/output_0_split_1
I0403 19:43:24.662606  9594 net.cpp:399] inception_3b/3x3_reduce -> inception_3b/3x3_reduce
I0403 19:43:24.663694  9594 net.cpp:141] Setting up inception_3b/3x3_reduce
I0403 19:43:24.663724  9594 net.cpp:148] Top shape: 24 128 28 28 (2408448)
I0403 19:43:24.663740  9594 net.cpp:156] Memory required for data: 686408736
I0403 19:43:24.663759  9594 layer_factory.hpp:77] Creating layer inception_3b/relu_3x3_reduce
I0403 19:43:24.663777  9594 net.cpp:91] Creating Layer inception_3b/relu_3x3_reduce
I0403 19:43:24.663792  9594 net.cpp:425] inception_3b/relu_3x3_reduce <- inception_3b/3x3_reduce
I0403 19:43:24.663811  9594 net.cpp:386] inception_3b/relu_3x3_reduce -> inception_3b/3x3_reduce (in-place)
I0403 19:43:24.663975  9594 net.cpp:141] Setting up inception_3b/relu_3x3_reduce
I0403 19:43:24.664001  9594 net.cpp:148] Top shape: 24 128 28 28 (2408448)
I0403 19:43:24.664017  9594 net.cpp:156] Memory required for data: 696042528
I0403 19:43:24.664032  9594 layer_factory.hpp:77] Creating layer inception_3b/3x3
I0403 19:43:24.664057  9594 net.cpp:91] Creating Layer inception_3b/3x3
I0403 19:43:24.664074  9594 net.cpp:425] inception_3b/3x3 <- inception_3b/3x3_reduce
I0403 19:43:24.664093  9594 net.cpp:399] inception_3b/3x3 -> inception_3b/3x3
I0403 19:43:24.666898  9594 net.cpp:141] Setting up inception_3b/3x3
I0403 19:43:24.666926  9594 net.cpp:148] Top shape: 24 192 28 28 (3612672)
I0403 19:43:24.666942  9594 net.cpp:156] Memory required for data: 710493216
I0403 19:43:24.666960  9594 layer_factory.hpp:77] Creating layer inception_3b/relu_3x3
I0403 19:43:24.666977  9594 net.cpp:91] Creating Layer inception_3b/relu_3x3
I0403 19:43:24.666999  9594 net.cpp:425] inception_3b/relu_3x3 <- inception_3b/3x3
I0403 19:43:24.667017  9594 net.cpp:386] inception_3b/relu_3x3 -> inception_3b/3x3 (in-place)
I0403 19:43:24.667280  9594 net.cpp:141] Setting up inception_3b/relu_3x3
I0403 19:43:24.667306  9594 net.cpp:148] Top shape: 24 192 28 28 (3612672)
I0403 19:43:24.667322  9594 net.cpp:156] Memory required for data: 724943904
I0403 19:43:24.667337  9594 layer_factory.hpp:77] Creating layer inception_3b/5x5_reduce
I0403 19:43:24.667361  9594 net.cpp:91] Creating Layer inception_3b/5x5_reduce
I0403 19:43:24.667378  9594 net.cpp:425] inception_3b/5x5_reduce <- inception_3a/output_inception_3a/output_0_split_2
I0403 19:43:24.667400  9594 net.cpp:399] inception_3b/5x5_reduce -> inception_3b/5x5_reduce
I0403 19:43:24.668359  9594 net.cpp:141] Setting up inception_3b/5x5_reduce
I0403 19:43:24.668387  9594 net.cpp:148] Top shape: 24 32 28 28 (602112)
I0403 19:43:24.668403  9594 net.cpp:156] Memory required for data: 727352352
I0403 19:43:24.668421  9594 layer_factory.hpp:77] Creating layer inception_3b/relu_5x5_reduce
I0403 19:43:24.668438  9594 net.cpp:91] Creating Layer inception_3b/relu_5x5_reduce
I0403 19:43:24.668454  9594 net.cpp:425] inception_3b/relu_5x5_reduce <- inception_3b/5x5_reduce
I0403 19:43:24.668479  9594 net.cpp:386] inception_3b/relu_5x5_reduce -> inception_3b/5x5_reduce (in-place)
I0403 19:43:24.668651  9594 net.cpp:141] Setting up inception_3b/relu_5x5_reduce
I0403 19:43:24.668689  9594 net.cpp:148] Top shape: 24 32 28 28 (602112)
I0403 19:43:24.668704  9594 net.cpp:156] Memory required for data: 729760800
I0403 19:43:24.668717  9594 layer_factory.hpp:77] Creating layer inception_3b/5x5
I0403 19:43:24.668740  9594 net.cpp:91] Creating Layer inception_3b/5x5
I0403 19:43:24.668757  9594 net.cpp:425] inception_3b/5x5 <- inception_3b/5x5_reduce
I0403 19:43:24.668779  9594 net.cpp:399] inception_3b/5x5 -> inception_3b/5x5
I0403 19:43:24.670687  9594 net.cpp:141] Setting up inception_3b/5x5
I0403 19:43:24.670717  9594 net.cpp:148] Top shape: 24 96 28 28 (1806336)
I0403 19:43:24.670734  9594 net.cpp:156] Memory required for data: 736986144
I0403 19:43:24.670753  9594 layer_factory.hpp:77] Creating layer inception_3b/relu_5x5
I0403 19:43:24.670770  9594 net.cpp:91] Creating Layer inception_3b/relu_5x5
I0403 19:43:24.670788  9594 net.cpp:425] inception_3b/relu_5x5 <- inception_3b/5x5
I0403 19:43:24.670806  9594 net.cpp:386] inception_3b/relu_5x5 -> inception_3b/5x5 (in-place)
I0403 19:43:24.670987  9594 net.cpp:141] Setting up inception_3b/relu_5x5
I0403 19:43:24.671013  9594 net.cpp:148] Top shape: 24 96 28 28 (1806336)
I0403 19:43:24.671028  9594 net.cpp:156] Memory required for data: 744211488
I0403 19:43:24.671044  9594 layer_factory.hpp:77] Creating layer inception_3b/pool
I0403 19:43:24.671061  9594 net.cpp:91] Creating Layer inception_3b/pool
I0403 19:43:24.671077  9594 net.cpp:425] inception_3b/pool <- inception_3a/output_inception_3a/output_0_split_3
I0403 19:43:24.671097  9594 net.cpp:399] inception_3b/pool -> inception_3b/pool
I0403 19:43:24.671150  9594 net.cpp:141] Setting up inception_3b/pool
I0403 19:43:24.671175  9594 net.cpp:148] Top shape: 24 256 28 28 (4816896)
I0403 19:43:24.671188  9594 net.cpp:156] Memory required for data: 763479072
I0403 19:43:24.671203  9594 layer_factory.hpp:77] Creating layer inception_3b/pool_proj
I0403 19:43:24.671228  9594 net.cpp:91] Creating Layer inception_3b/pool_proj
I0403 19:43:24.671246  9594 net.cpp:425] inception_3b/pool_proj <- inception_3b/pool
I0403 19:43:24.671264  9594 net.cpp:399] inception_3b/pool_proj -> inception_3b/pool_proj
I0403 19:43:24.672286  9594 net.cpp:141] Setting up inception_3b/pool_proj
I0403 19:43:24.672314  9594 net.cpp:148] Top shape: 24 64 28 28 (1204224)
I0403 19:43:24.672330  9594 net.cpp:156] Memory required for data: 768295968
I0403 19:43:24.672348  9594 layer_factory.hpp:77] Creating layer inception_3b/relu_pool_proj
I0403 19:43:24.672369  9594 net.cpp:91] Creating Layer inception_3b/relu_pool_proj
I0403 19:43:24.672384  9594 net.cpp:425] inception_3b/relu_pool_proj <- inception_3b/pool_proj
I0403 19:43:24.672401  9594 net.cpp:386] inception_3b/relu_pool_proj -> inception_3b/pool_proj (in-place)
I0403 19:43:24.672797  9594 net.cpp:141] Setting up inception_3b/relu_pool_proj
I0403 19:43:24.672823  9594 net.cpp:148] Top shape: 24 64 28 28 (1204224)
I0403 19:43:24.672839  9594 net.cpp:156] Memory required for data: 773112864
I0403 19:43:24.672854  9594 layer_factory.hpp:77] Creating layer inception_3b/output
I0403 19:43:24.672871  9594 net.cpp:91] Creating Layer inception_3b/output
I0403 19:43:24.672889  9594 net.cpp:425] inception_3b/output <- inception_3b/1x1
I0403 19:43:24.672906  9594 net.cpp:425] inception_3b/output <- inception_3b/3x3
I0403 19:43:24.672924  9594 net.cpp:425] inception_3b/output <- inception_3b/5x5
I0403 19:43:24.672938  9594 net.cpp:425] inception_3b/output <- inception_3b/pool_proj
I0403 19:43:24.672955  9594 net.cpp:399] inception_3b/output -> inception_3b/output
I0403 19:43:24.672996  9594 net.cpp:141] Setting up inception_3b/output
I0403 19:43:24.673022  9594 net.cpp:148] Top shape: 24 480 28 28 (9031680)
I0403 19:43:24.673037  9594 net.cpp:156] Memory required for data: 809239584
I0403 19:43:24.673050  9594 layer_factory.hpp:77] Creating layer pool3/3x3_s2
I0403 19:43:24.673069  9594 net.cpp:91] Creating Layer pool3/3x3_s2
I0403 19:43:24.673084  9594 net.cpp:425] pool3/3x3_s2 <- inception_3b/output
I0403 19:43:24.673105  9594 net.cpp:399] pool3/3x3_s2 -> pool3/3x3_s2
I0403 19:43:24.673174  9594 net.cpp:141] Setting up pool3/3x3_s2
I0403 19:43:24.673200  9594 net.cpp:148] Top shape: 24 480 14 14 (2257920)
I0403 19:43:24.673216  9594 net.cpp:156] Memory required for data: 818271264
I0403 19:43:24.673231  9594 layer_factory.hpp:77] Creating layer pool3/3x3_s2_pool3/3x3_s2_0_split
I0403 19:43:24.673249  9594 net.cpp:91] Creating Layer pool3/3x3_s2_pool3/3x3_s2_0_split
I0403 19:43:24.673264  9594 net.cpp:425] pool3/3x3_s2_pool3/3x3_s2_0_split <- pool3/3x3_s2
I0403 19:43:24.673280  9594 net.cpp:399] pool3/3x3_s2_pool3/3x3_s2_0_split -> pool3/3x3_s2_pool3/3x3_s2_0_split_0
I0403 19:43:24.673300  9594 net.cpp:399] pool3/3x3_s2_pool3/3x3_s2_0_split -> pool3/3x3_s2_pool3/3x3_s2_0_split_1
I0403 19:43:24.673321  9594 net.cpp:399] pool3/3x3_s2_pool3/3x3_s2_0_split -> pool3/3x3_s2_pool3/3x3_s2_0_split_2
I0403 19:43:24.673341  9594 net.cpp:399] pool3/3x3_s2_pool3/3x3_s2_0_split -> pool3/3x3_s2_pool3/3x3_s2_0_split_3
I0403 19:43:24.673418  9594 net.cpp:141] Setting up pool3/3x3_s2_pool3/3x3_s2_0_split
I0403 19:43:24.673441  9594 net.cpp:148] Top shape: 24 480 14 14 (2257920)
I0403 19:43:24.673456  9594 net.cpp:148] Top shape: 24 480 14 14 (2257920)
I0403 19:43:24.673476  9594 net.cpp:148] Top shape: 24 480 14 14 (2257920)
I0403 19:43:24.673493  9594 net.cpp:148] Top shape: 24 480 14 14 (2257920)
I0403 19:43:24.673506  9594 net.cpp:156] Memory required for data: 854397984
I0403 19:43:24.673521  9594 layer_factory.hpp:77] Creating layer inception_4a/1x1
I0403 19:43:24.673544  9594 net.cpp:91] Creating Layer inception_4a/1x1
I0403 19:43:24.673562  9594 net.cpp:425] inception_4a/1x1 <- pool3/3x3_s2_pool3/3x3_s2_0_split_0
I0403 19:43:24.673583  9594 net.cpp:399] inception_4a/1x1 -> inception_4a/1x1
I0403 19:43:24.675101  9594 net.cpp:141] Setting up inception_4a/1x1
I0403 19:43:24.675129  9594 net.cpp:148] Top shape: 24 192 14 14 (903168)
I0403 19:43:24.675144  9594 net.cpp:156] Memory required for data: 858010656
I0403 19:43:24.675163  9594 layer_factory.hpp:77] Creating layer inception_4a/relu_1x1
I0403 19:43:24.675182  9594 net.cpp:91] Creating Layer inception_4a/relu_1x1
I0403 19:43:24.675199  9594 net.cpp:425] inception_4a/relu_1x1 <- inception_4a/1x1
I0403 19:43:24.675216  9594 net.cpp:386] inception_4a/relu_1x1 -> inception_4a/1x1 (in-place)
I0403 19:43:24.675384  9594 net.cpp:141] Setting up inception_4a/relu_1x1
I0403 19:43:24.675412  9594 net.cpp:148] Top shape: 24 192 14 14 (903168)
I0403 19:43:24.675427  9594 net.cpp:156] Memory required for data: 861623328
I0403 19:43:24.675442  9594 layer_factory.hpp:77] Creating layer inception_4a/3x3_reduce
I0403 19:43:24.675468  9594 net.cpp:91] Creating Layer inception_4a/3x3_reduce
I0403 19:43:24.675487  9594 net.cpp:425] inception_4a/3x3_reduce <- pool3/3x3_s2_pool3/3x3_s2_0_split_1
I0403 19:43:24.675508  9594 net.cpp:399] inception_4a/3x3_reduce -> inception_4a/3x3_reduce
I0403 19:43:24.676735  9594 net.cpp:141] Setting up inception_4a/3x3_reduce
I0403 19:43:24.676762  9594 net.cpp:148] Top shape: 24 96 14 14 (451584)
I0403 19:43:24.676777  9594 net.cpp:156] Memory required for data: 863429664
I0403 19:43:24.676802  9594 layer_factory.hpp:77] Creating layer inception_4a/relu_3x3_reduce
I0403 19:43:24.676822  9594 net.cpp:91] Creating Layer inception_4a/relu_3x3_reduce
I0403 19:43:24.676838  9594 net.cpp:425] inception_4a/relu_3x3_reduce <- inception_4a/3x3_reduce
I0403 19:43:24.676856  9594 net.cpp:386] inception_4a/relu_3x3_reduce -> inception_4a/3x3_reduce (in-place)
I0403 19:43:24.677028  9594 net.cpp:141] Setting up inception_4a/relu_3x3_reduce
I0403 19:43:24.677057  9594 net.cpp:148] Top shape: 24 96 14 14 (451584)
I0403 19:43:24.677073  9594 net.cpp:156] Memory required for data: 865236000
I0403 19:43:24.677088  9594 layer_factory.hpp:77] Creating layer inception_4a/3x3
I0403 19:43:24.677109  9594 net.cpp:91] Creating Layer inception_4a/3x3
I0403 19:43:24.677129  9594 net.cpp:425] inception_4a/3x3 <- inception_4a/3x3_reduce
I0403 19:43:24.677146  9594 net.cpp:399] inception_4a/3x3 -> inception_4a/3x3
I0403 19:43:24.679738  9594 net.cpp:141] Setting up inception_4a/3x3
I0403 19:43:24.679769  9594 net.cpp:148] Top shape: 24 208 14 14 (978432)
I0403 19:43:24.679786  9594 net.cpp:156] Memory required for data: 869149728
I0403 19:43:24.679805  9594 layer_factory.hpp:77] Creating layer inception_4a/relu_3x3
I0403 19:43:24.679822  9594 net.cpp:91] Creating Layer inception_4a/relu_3x3
I0403 19:43:24.679837  9594 net.cpp:425] inception_4a/relu_3x3 <- inception_4a/3x3
I0403 19:43:24.679857  9594 net.cpp:386] inception_4a/relu_3x3 -> inception_4a/3x3 (in-place)
I0403 19:43:24.680124  9594 net.cpp:141] Setting up inception_4a/relu_3x3
I0403 19:43:24.680152  9594 net.cpp:148] Top shape: 24 208 14 14 (978432)
I0403 19:43:24.680178  9594 net.cpp:156] Memory required for data: 873063456
I0403 19:43:24.680193  9594 layer_factory.hpp:77] Creating layer inception_4a/5x5_reduce
I0403 19:43:24.680220  9594 net.cpp:91] Creating Layer inception_4a/5x5_reduce
I0403 19:43:24.680239  9594 net.cpp:425] inception_4a/5x5_reduce <- pool3/3x3_s2_pool3/3x3_s2_0_split_2
I0403 19:43:24.680258  9594 net.cpp:399] inception_4a/5x5_reduce -> inception_4a/5x5_reduce
I0403 19:43:24.681253  9594 net.cpp:141] Setting up inception_4a/5x5_reduce
I0403 19:43:24.681283  9594 net.cpp:148] Top shape: 24 16 14 14 (75264)
I0403 19:43:24.681300  9594 net.cpp:156] Memory required for data: 873364512
I0403 19:43:24.681318  9594 layer_factory.hpp:77] Creating layer inception_4a/relu_5x5_reduce
I0403 19:43:24.681335  9594 net.cpp:91] Creating Layer inception_4a/relu_5x5_reduce
I0403 19:43:24.681350  9594 net.cpp:425] inception_4a/relu_5x5_reduce <- inception_4a/5x5_reduce
I0403 19:43:24.681370  9594 net.cpp:386] inception_4a/relu_5x5_reduce -> inception_4a/5x5_reduce (in-place)
I0403 19:43:24.681550  9594 net.cpp:141] Setting up inception_4a/relu_5x5_reduce
I0403 19:43:24.681576  9594 net.cpp:148] Top shape: 24 16 14 14 (75264)
I0403 19:43:24.681591  9594 net.cpp:156] Memory required for data: 873665568
I0403 19:43:24.681605  9594 layer_factory.hpp:77] Creating layer inception_4a/5x5
I0403 19:43:24.681628  9594 net.cpp:91] Creating Layer inception_4a/5x5
I0403 19:43:24.681645  9594 net.cpp:425] inception_4a/5x5 <- inception_4a/5x5_reduce
I0403 19:43:24.681668  9594 net.cpp:399] inception_4a/5x5 -> inception_4a/5x5
I0403 19:43:24.682729  9594 net.cpp:141] Setting up inception_4a/5x5
I0403 19:43:24.682756  9594 net.cpp:148] Top shape: 24 48 14 14 (225792)
I0403 19:43:24.682772  9594 net.cpp:156] Memory required for data: 874568736
I0403 19:43:24.682790  9594 layer_factory.hpp:77] Creating layer inception_4a/relu_5x5
I0403 19:43:24.682811  9594 net.cpp:91] Creating Layer inception_4a/relu_5x5
I0403 19:43:24.682828  9594 net.cpp:425] inception_4a/relu_5x5 <- inception_4a/5x5
I0403 19:43:24.682847  9594 net.cpp:386] inception_4a/relu_5x5 -> inception_4a/5x5 (in-place)
I0403 19:43:24.683019  9594 net.cpp:141] Setting up inception_4a/relu_5x5
I0403 19:43:24.683044  9594 net.cpp:148] Top shape: 24 48 14 14 (225792)
I0403 19:43:24.683059  9594 net.cpp:156] Memory required for data: 875471904
I0403 19:43:24.683073  9594 layer_factory.hpp:77] Creating layer inception_4a/pool
I0403 19:43:24.683092  9594 net.cpp:91] Creating Layer inception_4a/pool
I0403 19:43:24.683109  9594 net.cpp:425] inception_4a/pool <- pool3/3x3_s2_pool3/3x3_s2_0_split_3
I0403 19:43:24.683126  9594 net.cpp:399] inception_4a/pool -> inception_4a/pool
I0403 19:43:24.683187  9594 net.cpp:141] Setting up inception_4a/pool
I0403 19:43:24.683210  9594 net.cpp:148] Top shape: 24 480 14 14 (2257920)
I0403 19:43:24.683224  9594 net.cpp:156] Memory required for data: 884503584
I0403 19:43:24.683239  9594 layer_factory.hpp:77] Creating layer inception_4a/pool_proj
I0403 19:43:24.683261  9594 net.cpp:91] Creating Layer inception_4a/pool_proj
I0403 19:43:24.683279  9594 net.cpp:425] inception_4a/pool_proj <- inception_4a/pool
I0403 19:43:24.683302  9594 net.cpp:399] inception_4a/pool_proj -> inception_4a/pool_proj
I0403 19:43:24.684424  9594 net.cpp:141] Setting up inception_4a/pool_proj
I0403 19:43:24.684453  9594 net.cpp:148] Top shape: 24 64 14 14 (301056)
I0403 19:43:24.684486  9594 net.cpp:156] Memory required for data: 885707808
I0403 19:43:24.684506  9594 layer_factory.hpp:77] Creating layer inception_4a/relu_pool_proj
I0403 19:43:24.684528  9594 net.cpp:91] Creating Layer inception_4a/relu_pool_proj
I0403 19:43:24.684545  9594 net.cpp:425] inception_4a/relu_pool_proj <- inception_4a/pool_proj
I0403 19:43:24.684563  9594 net.cpp:386] inception_4a/relu_pool_proj -> inception_4a/pool_proj (in-place)
I0403 19:43:24.684837  9594 net.cpp:141] Setting up inception_4a/relu_pool_proj
I0403 19:43:24.684864  9594 net.cpp:148] Top shape: 24 64 14 14 (301056)
I0403 19:43:24.684878  9594 net.cpp:156] Memory required for data: 886912032
I0403 19:43:24.684893  9594 layer_factory.hpp:77] Creating layer inception_4a/output
I0403 19:43:24.684913  9594 net.cpp:91] Creating Layer inception_4a/output
I0403 19:43:24.684929  9594 net.cpp:425] inception_4a/output <- inception_4a/1x1
I0403 19:43:24.684947  9594 net.cpp:425] inception_4a/output <- inception_4a/3x3
I0403 19:43:24.684962  9594 net.cpp:425] inception_4a/output <- inception_4a/5x5
I0403 19:43:24.684978  9594 net.cpp:425] inception_4a/output <- inception_4a/pool_proj
I0403 19:43:24.684994  9594 net.cpp:399] inception_4a/output -> inception_4a/output
I0403 19:43:24.685039  9594 net.cpp:141] Setting up inception_4a/output
I0403 19:43:24.685062  9594 net.cpp:148] Top shape: 24 512 14 14 (2408448)
I0403 19:43:24.685076  9594 net.cpp:156] Memory required for data: 896545824
I0403 19:43:24.685091  9594 layer_factory.hpp:77] Creating layer inception_4a/output_inception_4a/output_0_split
I0403 19:43:24.685106  9594 net.cpp:91] Creating Layer inception_4a/output_inception_4a/output_0_split
I0403 19:43:24.685122  9594 net.cpp:425] inception_4a/output_inception_4a/output_0_split <- inception_4a/output
I0403 19:43:24.685142  9594 net.cpp:399] inception_4a/output_inception_4a/output_0_split -> inception_4a/output_inception_4a/output_0_split_0
I0403 19:43:24.685161  9594 net.cpp:399] inception_4a/output_inception_4a/output_0_split -> inception_4a/output_inception_4a/output_0_split_1
I0403 19:43:24.685181  9594 net.cpp:399] inception_4a/output_inception_4a/output_0_split -> inception_4a/output_inception_4a/output_0_split_2
I0403 19:43:24.685200  9594 net.cpp:399] inception_4a/output_inception_4a/output_0_split -> inception_4a/output_inception_4a/output_0_split_3
I0403 19:43:24.685221  9594 net.cpp:399] inception_4a/output_inception_4a/output_0_split -> inception_4a/output_inception_4a/output_0_split_4
I0403 19:43:24.685312  9594 net.cpp:141] Setting up inception_4a/output_inception_4a/output_0_split
I0403 19:43:24.685336  9594 net.cpp:148] Top shape: 24 512 14 14 (2408448)
I0403 19:43:24.685353  9594 net.cpp:148] Top shape: 24 512 14 14 (2408448)
I0403 19:43:24.685369  9594 net.cpp:148] Top shape: 24 512 14 14 (2408448)
I0403 19:43:24.685384  9594 net.cpp:148] Top shape: 24 512 14 14 (2408448)
I0403 19:43:24.685398  9594 net.cpp:148] Top shape: 24 512 14 14 (2408448)
I0403 19:43:24.685412  9594 net.cpp:156] Memory required for data: 944714784
I0403 19:43:24.685427  9594 layer_factory.hpp:77] Creating layer loss1/ave_pool
I0403 19:43:24.685444  9594 net.cpp:91] Creating Layer loss1/ave_pool
I0403 19:43:24.685462  9594 net.cpp:425] loss1/ave_pool <- inception_4a/output_inception_4a/output_0_split_0
I0403 19:43:24.685482  9594 net.cpp:399] loss1/ave_pool -> loss1/ave_pool
I0403 19:43:24.685681  9594 net.cpp:141] Setting up loss1/ave_pool
I0403 19:43:24.685708  9594 net.cpp:148] Top shape: 24 512 4 4 (196608)
I0403 19:43:24.685722  9594 net.cpp:156] Memory required for data: 945501216
I0403 19:43:24.685737  9594 layer_factory.hpp:77] Creating layer loss1/conv
I0403 19:43:24.685760  9594 net.cpp:91] Creating Layer loss1/conv
I0403 19:43:24.685776  9594 net.cpp:425] loss1/conv <- loss1/ave_pool
I0403 19:43:24.685797  9594 net.cpp:399] loss1/conv -> loss1/conv
I0403 19:43:24.687150  9594 net.cpp:141] Setting up loss1/conv
I0403 19:43:24.687182  9594 net.cpp:148] Top shape: 24 128 4 4 (49152)
I0403 19:43:24.687199  9594 net.cpp:156] Memory required for data: 945697824
I0403 19:43:24.687232  9594 layer_factory.hpp:77] Creating layer loss1/relu_conv
I0403 19:43:24.687250  9594 net.cpp:91] Creating Layer loss1/relu_conv
I0403 19:43:24.687268  9594 net.cpp:425] loss1/relu_conv <- loss1/conv
I0403 19:43:24.687286  9594 net.cpp:386] loss1/relu_conv -> loss1/conv (in-place)
I0403 19:43:24.687563  9594 net.cpp:141] Setting up loss1/relu_conv
I0403 19:43:24.687592  9594 net.cpp:148] Top shape: 24 128 4 4 (49152)
I0403 19:43:24.687609  9594 net.cpp:156] Memory required for data: 945894432
I0403 19:43:24.687624  9594 layer_factory.hpp:77] Creating layer loss1/fc
I0403 19:43:24.687649  9594 net.cpp:91] Creating Layer loss1/fc
I0403 19:43:24.687666  9594 net.cpp:425] loss1/fc <- loss1/conv
I0403 19:43:24.687687  9594 net.cpp:399] loss1/fc -> loss1/fc
I0403 19:43:24.704916  9594 net.cpp:141] Setting up loss1/fc
I0403 19:43:24.704947  9594 net.cpp:148] Top shape: 24 1024 (24576)
I0403 19:43:24.704963  9594 net.cpp:156] Memory required for data: 945992736
I0403 19:43:24.704982  9594 layer_factory.hpp:77] Creating layer loss1/relu_fc
I0403 19:43:24.705001  9594 net.cpp:91] Creating Layer loss1/relu_fc
I0403 19:43:24.705019  9594 net.cpp:425] loss1/relu_fc <- loss1/fc
I0403 19:43:24.705037  9594 net.cpp:386] loss1/relu_fc -> loss1/fc (in-place)
I0403 19:43:24.705216  9594 net.cpp:141] Setting up loss1/relu_fc
I0403 19:43:24.705241  9594 net.cpp:148] Top shape: 24 1024 (24576)
I0403 19:43:24.705256  9594 net.cpp:156] Memory required for data: 946091040
I0403 19:43:24.705271  9594 layer_factory.hpp:77] Creating layer loss1/drop_fc
I0403 19:43:24.705296  9594 net.cpp:91] Creating Layer loss1/drop_fc
I0403 19:43:24.705313  9594 net.cpp:425] loss1/drop_fc <- loss1/fc
I0403 19:43:24.705334  9594 net.cpp:386] loss1/drop_fc -> loss1/fc (in-place)
I0403 19:43:24.705385  9594 net.cpp:141] Setting up loss1/drop_fc
I0403 19:43:24.705409  9594 net.cpp:148] Top shape: 24 1024 (24576)
I0403 19:43:24.705423  9594 net.cpp:156] Memory required for data: 946189344
I0403 19:43:24.705438  9594 layer_factory.hpp:77] Creating layer loss1/classifier_plantvillage
I0403 19:43:24.705463  9594 net.cpp:91] Creating Layer loss1/classifier_plantvillage
I0403 19:43:24.705482  9594 net.cpp:425] loss1/classifier_plantvillage <- loss1/fc
I0403 19:43:24.705500  9594 net.cpp:399] loss1/classifier_plantvillage -> loss1/classifier_plantvillage
I0403 19:43:24.706393  9594 net.cpp:141] Setting up loss1/classifier_plantvillage
I0403 19:43:24.706420  9594 net.cpp:148] Top shape: 24 38 (912)
I0403 19:43:24.706436  9594 net.cpp:156] Memory required for data: 946192992
I0403 19:43:24.706454  9594 layer_factory.hpp:77] Creating layer loss1/classifier_plantvillage_loss1/classifier_plantvillage_0_split
I0403 19:43:24.706477  9594 net.cpp:91] Creating Layer loss1/classifier_plantvillage_loss1/classifier_plantvillage_0_split
I0403 19:43:24.706496  9594 net.cpp:425] loss1/classifier_plantvillage_loss1/classifier_plantvillage_0_split <- loss1/classifier_plantvillage
I0403 19:43:24.706514  9594 net.cpp:399] loss1/classifier_plantvillage_loss1/classifier_plantvillage_0_split -> loss1/classifier_plantvillage_loss1/classifier_plantvillage_0_split_0
I0403 19:43:24.706538  9594 net.cpp:399] loss1/classifier_plantvillage_loss1/classifier_plantvillage_0_split -> loss1/classifier_plantvillage_loss1/classifier_plantvillage_0_split_1
I0403 19:43:24.706560  9594 net.cpp:399] loss1/classifier_plantvillage_loss1/classifier_plantvillage_0_split -> loss1/classifier_plantvillage_loss1/classifier_plantvillage_0_split_2
I0403 19:43:24.706625  9594 net.cpp:141] Setting up loss1/classifier_plantvillage_loss1/classifier_plantvillage_0_split
I0403 19:43:24.706648  9594 net.cpp:148] Top shape: 24 38 (912)
I0403 19:43:24.706665  9594 net.cpp:148] Top shape: 24 38 (912)
I0403 19:43:24.706681  9594 net.cpp:148] Top shape: 24 38 (912)
I0403 19:43:24.706696  9594 net.cpp:156] Memory required for data: 946203936
I0403 19:43:24.706709  9594 layer_factory.hpp:77] Creating layer inception_4b/1x1
I0403 19:43:24.706732  9594 net.cpp:91] Creating Layer inception_4b/1x1
I0403 19:43:24.706765  9594 net.cpp:425] inception_4b/1x1 <- inception_4a/output_inception_4a/output_0_split_1
I0403 19:43:24.706785  9594 net.cpp:399] inception_4b/1x1 -> inception_4b/1x1
I0403 19:43:24.708372  9594 net.cpp:141] Setting up inception_4b/1x1
I0403 19:43:24.708403  9594 net.cpp:148] Top shape: 24 160 14 14 (752640)
I0403 19:43:24.708420  9594 net.cpp:156] Memory required for data: 949214496
I0403 19:43:24.708438  9594 layer_factory.hpp:77] Creating layer inception_4b/relu_1x1
I0403 19:43:24.708456  9594 net.cpp:91] Creating Layer inception_4b/relu_1x1
I0403 19:43:24.708479  9594 net.cpp:425] inception_4b/relu_1x1 <- inception_4b/1x1
I0403 19:43:24.708500  9594 net.cpp:386] inception_4b/relu_1x1 -> inception_4b/1x1 (in-place)
I0403 19:43:24.708672  9594 net.cpp:141] Setting up inception_4b/relu_1x1
I0403 19:43:24.708698  9594 net.cpp:148] Top shape: 24 160 14 14 (752640)
I0403 19:43:24.708712  9594 net.cpp:156] Memory required for data: 952225056
I0403 19:43:24.708726  9594 layer_factory.hpp:77] Creating layer inception_4b/3x3_reduce
I0403 19:43:24.708748  9594 net.cpp:91] Creating Layer inception_4b/3x3_reduce
I0403 19:43:24.708767  9594 net.cpp:425] inception_4b/3x3_reduce <- inception_4a/output_inception_4a/output_0_split_2
I0403 19:43:24.708788  9594 net.cpp:399] inception_4b/3x3_reduce -> inception_4b/3x3_reduce
I0403 19:43:24.710129  9594 net.cpp:141] Setting up inception_4b/3x3_reduce
I0403 19:43:24.710156  9594 net.cpp:148] Top shape: 24 112 14 14 (526848)
I0403 19:43:24.710171  9594 net.cpp:156] Memory required for data: 954332448
I0403 19:43:24.710191  9594 layer_factory.hpp:77] Creating layer inception_4b/relu_3x3_reduce
I0403 19:43:24.710209  9594 net.cpp:91] Creating Layer inception_4b/relu_3x3_reduce
I0403 19:43:24.710225  9594 net.cpp:425] inception_4b/relu_3x3_reduce <- inception_4b/3x3_reduce
I0403 19:43:24.710245  9594 net.cpp:386] inception_4b/relu_3x3_reduce -> inception_4b/3x3_reduce (in-place)
I0403 19:43:24.710528  9594 net.cpp:141] Setting up inception_4b/relu_3x3_reduce
I0403 19:43:24.710554  9594 net.cpp:148] Top shape: 24 112 14 14 (526848)
I0403 19:43:24.710569  9594 net.cpp:156] Memory required for data: 956439840
I0403 19:43:24.710584  9594 layer_factory.hpp:77] Creating layer inception_4b/3x3
I0403 19:43:24.710607  9594 net.cpp:91] Creating Layer inception_4b/3x3
I0403 19:43:24.710625  9594 net.cpp:425] inception_4b/3x3 <- inception_4b/3x3_reduce
I0403 19:43:24.710646  9594 net.cpp:399] inception_4b/3x3 -> inception_4b/3x3
I0403 19:43:24.713572  9594 net.cpp:141] Setting up inception_4b/3x3
I0403 19:43:24.713599  9594 net.cpp:148] Top shape: 24 224 14 14 (1053696)
I0403 19:43:24.713615  9594 net.cpp:156] Memory required for data: 960654624
I0403 19:43:24.713634  9594 layer_factory.hpp:77] Creating layer inception_4b/relu_3x3
I0403 19:43:24.713654  9594 net.cpp:91] Creating Layer inception_4b/relu_3x3
I0403 19:43:24.713670  9594 net.cpp:425] inception_4b/relu_3x3 <- inception_4b/3x3
I0403 19:43:24.713687  9594 net.cpp:386] inception_4b/relu_3x3 -> inception_4b/3x3 (in-place)
I0403 19:43:24.713862  9594 net.cpp:141] Setting up inception_4b/relu_3x3
I0403 19:43:24.713888  9594 net.cpp:148] Top shape: 24 224 14 14 (1053696)
I0403 19:43:24.713906  9594 net.cpp:156] Memory required for data: 964869408
I0403 19:43:24.713920  9594 layer_factory.hpp:77] Creating layer inception_4b/5x5_reduce
I0403 19:43:24.713943  9594 net.cpp:91] Creating Layer inception_4b/5x5_reduce
I0403 19:43:24.713960  9594 net.cpp:425] inception_4b/5x5_reduce <- inception_4a/output_inception_4a/output_0_split_3
I0403 19:43:24.713986  9594 net.cpp:399] inception_4b/5x5_reduce -> inception_4b/5x5_reduce
I0403 19:43:24.715039  9594 net.cpp:141] Setting up inception_4b/5x5_reduce
I0403 19:43:24.715065  9594 net.cpp:148] Top shape: 24 24 14 14 (112896)
I0403 19:43:24.715080  9594 net.cpp:156] Memory required for data: 965320992
I0403 19:43:24.715098  9594 layer_factory.hpp:77] Creating layer inception_4b/relu_5x5_reduce
I0403 19:43:24.715116  9594 net.cpp:91] Creating Layer inception_4b/relu_5x5_reduce
I0403 19:43:24.715147  9594 net.cpp:425] inception_4b/relu_5x5_reduce <- inception_4b/5x5_reduce
I0403 19:43:24.715167  9594 net.cpp:386] inception_4b/relu_5x5_reduce -> inception_4b/5x5_reduce (in-place)
I0403 19:43:24.715342  9594 net.cpp:141] Setting up inception_4b/relu_5x5_reduce
I0403 19:43:24.715368  9594 net.cpp:148] Top shape: 24 24 14 14 (112896)
I0403 19:43:24.715384  9594 net.cpp:156] Memory required for data: 965772576
I0403 19:43:24.715399  9594 layer_factory.hpp:77] Creating layer inception_4b/5x5
I0403 19:43:24.715420  9594 net.cpp:91] Creating Layer inception_4b/5x5
I0403 19:43:24.715437  9594 net.cpp:425] inception_4b/5x5 <- inception_4b/5x5_reduce
I0403 19:43:24.715461  9594 net.cpp:399] inception_4b/5x5 -> inception_4b/5x5
I0403 19:43:24.716656  9594 net.cpp:141] Setting up inception_4b/5x5
I0403 19:43:24.716687  9594 net.cpp:148] Top shape: 24 64 14 14 (301056)
I0403 19:43:24.716704  9594 net.cpp:156] Memory required for data: 966976800
I0403 19:43:24.716722  9594 layer_factory.hpp:77] Creating layer inception_4b/relu_5x5
I0403 19:43:24.716739  9594 net.cpp:91] Creating Layer inception_4b/relu_5x5
I0403 19:43:24.716756  9594 net.cpp:425] inception_4b/relu_5x5 <- inception_4b/5x5
I0403 19:43:24.716775  9594 net.cpp:386] inception_4b/relu_5x5 -> inception_4b/5x5 (in-place)
I0403 19:43:24.717049  9594 net.cpp:141] Setting up inception_4b/relu_5x5
I0403 19:43:24.717079  9594 net.cpp:148] Top shape: 24 64 14 14 (301056)
I0403 19:43:24.717097  9594 net.cpp:156] Memory required for data: 968181024
I0403 19:43:24.717113  9594 layer_factory.hpp:77] Creating layer inception_4b/pool
I0403 19:43:24.717131  9594 net.cpp:91] Creating Layer inception_4b/pool
I0403 19:43:24.717147  9594 net.cpp:425] inception_4b/pool <- inception_4a/output_inception_4a/output_0_split_4
I0403 19:43:24.717169  9594 net.cpp:399] inception_4b/pool -> inception_4b/pool
I0403 19:43:24.717234  9594 net.cpp:141] Setting up inception_4b/pool
I0403 19:43:24.717273  9594 net.cpp:148] Top shape: 24 512 14 14 (2408448)
I0403 19:43:24.717288  9594 net.cpp:156] Memory required for data: 977814816
I0403 19:43:24.717304  9594 layer_factory.hpp:77] Creating layer inception_4b/pool_proj
I0403 19:43:24.717325  9594 net.cpp:91] Creating Layer inception_4b/pool_proj
I0403 19:43:24.717341  9594 net.cpp:425] inception_4b/pool_proj <- inception_4b/pool
I0403 19:43:24.717365  9594 net.cpp:399] inception_4b/pool_proj -> inception_4b/pool_proj
I0403 19:43:24.718567  9594 net.cpp:141] Setting up inception_4b/pool_proj
I0403 19:43:24.718595  9594 net.cpp:148] Top shape: 24 64 14 14 (301056)
I0403 19:43:24.718611  9594 net.cpp:156] Memory required for data: 979019040
I0403 19:43:24.718627  9594 layer_factory.hpp:77] Creating layer inception_4b/relu_pool_proj
I0403 19:43:24.718646  9594 net.cpp:91] Creating Layer inception_4b/relu_pool_proj
I0403 19:43:24.718662  9594 net.cpp:425] inception_4b/relu_pool_proj <- inception_4b/pool_proj
I0403 19:43:24.718682  9594 net.cpp:386] inception_4b/relu_pool_proj -> inception_4b/pool_proj (in-place)
I0403 19:43:24.718855  9594 net.cpp:141] Setting up inception_4b/relu_pool_proj
I0403 19:43:24.718881  9594 net.cpp:148] Top shape: 24 64 14 14 (301056)
I0403 19:43:24.718895  9594 net.cpp:156] Memory required for data: 980223264
I0403 19:43:24.718909  9594 layer_factory.hpp:77] Creating layer inception_4b/output
I0403 19:43:24.718926  9594 net.cpp:91] Creating Layer inception_4b/output
I0403 19:43:24.718942  9594 net.cpp:425] inception_4b/output <- inception_4b/1x1
I0403 19:43:24.718961  9594 net.cpp:425] inception_4b/output <- inception_4b/3x3
I0403 19:43:24.718978  9594 net.cpp:425] inception_4b/output <- inception_4b/5x5
I0403 19:43:24.718994  9594 net.cpp:425] inception_4b/output <- inception_4b/pool_proj
I0403 19:43:24.719010  9594 net.cpp:399] inception_4b/output -> inception_4b/output
I0403 19:43:24.719058  9594 net.cpp:141] Setting up inception_4b/output
I0403 19:43:24.719080  9594 net.cpp:148] Top shape: 24 512 14 14 (2408448)
I0403 19:43:24.719095  9594 net.cpp:156] Memory required for data: 989857056
I0403 19:43:24.719123  9594 layer_factory.hpp:77] Creating layer inception_4b/output_inception_4b/output_0_split
I0403 19:43:24.719141  9594 net.cpp:91] Creating Layer inception_4b/output_inception_4b/output_0_split
I0403 19:43:24.719156  9594 net.cpp:425] inception_4b/output_inception_4b/output_0_split <- inception_4b/output
I0403 19:43:24.719175  9594 net.cpp:399] inception_4b/output_inception_4b/output_0_split -> inception_4b/output_inception_4b/output_0_split_0
I0403 19:43:24.719197  9594 net.cpp:399] inception_4b/output_inception_4b/output_0_split -> inception_4b/output_inception_4b/output_0_split_1
I0403 19:43:24.719224  9594 net.cpp:399] inception_4b/output_inception_4b/output_0_split -> inception_4b/output_inception_4b/output_0_split_2
I0403 19:43:24.719244  9594 net.cpp:399] inception_4b/output_inception_4b/output_0_split -> inception_4b/output_inception_4b/output_0_split_3
I0403 19:43:24.719329  9594 net.cpp:141] Setting up inception_4b/output_inception_4b/output_0_split
I0403 19:43:24.719353  9594 net.cpp:148] Top shape: 24 512 14 14 (2408448)
I0403 19:43:24.719370  9594 net.cpp:148] Top shape: 24 512 14 14 (2408448)
I0403 19:43:24.719386  9594 net.cpp:148] Top shape: 24 512 14 14 (2408448)
I0403 19:43:24.719403  9594 net.cpp:148] Top shape: 24 512 14 14 (2408448)
I0403 19:43:24.719416  9594 net.cpp:156] Memory required for data: 1028392224
I0403 19:43:24.719430  9594 layer_factory.hpp:77] Creating layer inception_4c/1x1
I0403 19:43:24.719452  9594 net.cpp:91] Creating Layer inception_4c/1x1
I0403 19:43:24.719475  9594 net.cpp:425] inception_4c/1x1 <- inception_4b/output_inception_4b/output_0_split_0
I0403 19:43:24.719503  9594 net.cpp:399] inception_4c/1x1 -> inception_4c/1x1
I0403 19:43:24.720902  9594 net.cpp:141] Setting up inception_4c/1x1
I0403 19:43:24.720930  9594 net.cpp:148] Top shape: 24 128 14 14 (602112)
I0403 19:43:24.720945  9594 net.cpp:156] Memory required for data: 1030800672
I0403 19:43:24.720964  9594 layer_factory.hpp:77] Creating layer inception_4c/relu_1x1
I0403 19:43:24.720985  9594 net.cpp:91] Creating Layer inception_4c/relu_1x1
I0403 19:43:24.721004  9594 net.cpp:425] inception_4c/relu_1x1 <- inception_4c/1x1
I0403 19:43:24.721021  9594 net.cpp:386] inception_4c/relu_1x1 -> inception_4c/1x1 (in-place)
I0403 19:43:24.721197  9594 net.cpp:141] Setting up inception_4c/relu_1x1
I0403 19:43:24.721225  9594 net.cpp:148] Top shape: 24 128 14 14 (602112)
I0403 19:43:24.721241  9594 net.cpp:156] Memory required for data: 1033209120
I0403 19:43:24.721267  9594 layer_factory.hpp:77] Creating layer inception_4c/3x3_reduce
I0403 19:43:24.721289  9594 net.cpp:91] Creating Layer inception_4c/3x3_reduce
I0403 19:43:24.721307  9594 net.cpp:425] inception_4c/3x3_reduce <- inception_4b/output_inception_4b/output_0_split_1
I0403 19:43:24.721328  9594 net.cpp:399] inception_4c/3x3_reduce -> inception_4c/3x3_reduce
I0403 19:43:24.723248  9594 net.cpp:141] Setting up inception_4c/3x3_reduce
I0403 19:43:24.723278  9594 net.cpp:148] Top shape: 24 128 14 14 (602112)
I0403 19:43:24.723294  9594 net.cpp:156] Memory required for data: 1035617568
I0403 19:43:24.723314  9594 layer_factory.hpp:77] Creating layer inception_4c/relu_3x3_reduce
I0403 19:43:24.723331  9594 net.cpp:91] Creating Layer inception_4c/relu_3x3_reduce
I0403 19:43:24.723347  9594 net.cpp:425] inception_4c/relu_3x3_reduce <- inception_4c/3x3_reduce
I0403 19:43:24.723366  9594 net.cpp:386] inception_4c/relu_3x3_reduce -> inception_4c/3x3_reduce (in-place)
I0403 19:43:24.723649  9594 net.cpp:141] Setting up inception_4c/relu_3x3_reduce
I0403 19:43:24.723676  9594 net.cpp:148] Top shape: 24 128 14 14 (602112)
I0403 19:43:24.723691  9594 net.cpp:156] Memory required for data: 1038026016
I0403 19:43:24.723706  9594 layer_factory.hpp:77] Creating layer inception_4c/3x3
I0403 19:43:24.723731  9594 net.cpp:91] Creating Layer inception_4c/3x3
I0403 19:43:24.723748  9594 net.cpp:425] inception_4c/3x3 <- inception_4c/3x3_reduce
I0403 19:43:24.723773  9594 net.cpp:399] inception_4c/3x3 -> inception_4c/3x3
I0403 19:43:24.727316  9594 net.cpp:141] Setting up inception_4c/3x3
I0403 19:43:24.727358  9594 net.cpp:148] Top shape: 24 256 14 14 (1204224)
I0403 19:43:24.727375  9594 net.cpp:156] Memory required for data: 1042842912
I0403 19:43:24.727406  9594 layer_factory.hpp:77] Creating layer inception_4c/relu_3x3
I0403 19:43:24.727427  9594 net.cpp:91] Creating Layer inception_4c/relu_3x3
I0403 19:43:24.727443  9594 net.cpp:425] inception_4c/relu_3x3 <- inception_4c/3x3
I0403 19:43:24.727466  9594 net.cpp:386] inception_4c/relu_3x3 -> inception_4c/3x3 (in-place)
I0403 19:43:24.727645  9594 net.cpp:141] Setting up inception_4c/relu_3x3
I0403 19:43:24.727670  9594 net.cpp:148] Top shape: 24 256 14 14 (1204224)
I0403 19:43:24.727685  9594 net.cpp:156] Memory required for data: 1047659808
I0403 19:43:24.727699  9594 layer_factory.hpp:77] Creating layer inception_4c/5x5_reduce
I0403 19:43:24.727722  9594 net.cpp:91] Creating Layer inception_4c/5x5_reduce
I0403 19:43:24.727741  9594 net.cpp:425] inception_4c/5x5_reduce <- inception_4b/output_inception_4b/output_0_split_2
I0403 19:43:24.727763  9594 net.cpp:399] inception_4c/5x5_reduce -> inception_4c/5x5_reduce
I0403 19:43:24.728857  9594 net.cpp:141] Setting up inception_4c/5x5_reduce
I0403 19:43:24.728885  9594 net.cpp:148] Top shape: 24 24 14 14 (112896)
I0403 19:43:24.728900  9594 net.cpp:156] Memory required for data: 1048111392
I0403 19:43:24.728919  9594 layer_factory.hpp:77] Creating layer inception_4c/relu_5x5_reduce
I0403 19:43:24.728935  9594 net.cpp:91] Creating Layer inception_4c/relu_5x5_reduce
I0403 19:43:24.728952  9594 net.cpp:425] inception_4c/relu_5x5_reduce <- inception_4c/5x5_reduce
I0403 19:43:24.728971  9594 net.cpp:386] inception_4c/relu_5x5_reduce -> inception_4c/5x5_reduce (in-place)
I0403 19:43:24.729151  9594 net.cpp:141] Setting up inception_4c/relu_5x5_reduce
I0403 19:43:24.729176  9594 net.cpp:148] Top shape: 24 24 14 14 (112896)
I0403 19:43:24.729190  9594 net.cpp:156] Memory required for data: 1048562976
I0403 19:43:24.729205  9594 layer_factory.hpp:77] Creating layer inception_4c/5x5
I0403 19:43:24.729228  9594 net.cpp:91] Creating Layer inception_4c/5x5
I0403 19:43:24.729245  9594 net.cpp:425] inception_4c/5x5 <- inception_4c/5x5_reduce
I0403 19:43:24.729279  9594 net.cpp:399] inception_4c/5x5 -> inception_4c/5x5
I0403 19:43:24.730514  9594 net.cpp:141] Setting up inception_4c/5x5
I0403 19:43:24.730540  9594 net.cpp:148] Top shape: 24 64 14 14 (301056)
I0403 19:43:24.730556  9594 net.cpp:156] Memory required for data: 1049767200
I0403 19:43:24.730573  9594 layer_factory.hpp:77] Creating layer inception_4c/relu_5x5
I0403 19:43:24.730593  9594 net.cpp:91] Creating Layer inception_4c/relu_5x5
I0403 19:43:24.730610  9594 net.cpp:425] inception_4c/relu_5x5 <- inception_4c/5x5
I0403 19:43:24.730628  9594 net.cpp:386] inception_4c/relu_5x5 -> inception_4c/5x5 (in-place)
I0403 19:43:24.730906  9594 net.cpp:141] Setting up inception_4c/relu_5x5
I0403 19:43:24.730932  9594 net.cpp:148] Top shape: 24 64 14 14 (301056)
I0403 19:43:24.730947  9594 net.cpp:156] Memory required for data: 1050971424
I0403 19:43:24.730962  9594 layer_factory.hpp:77] Creating layer inception_4c/pool
I0403 19:43:24.730981  9594 net.cpp:91] Creating Layer inception_4c/pool
I0403 19:43:24.730998  9594 net.cpp:425] inception_4c/pool <- inception_4b/output_inception_4b/output_0_split_3
I0403 19:43:24.731017  9594 net.cpp:399] inception_4c/pool -> inception_4c/pool
I0403 19:43:24.731082  9594 net.cpp:141] Setting up inception_4c/pool
I0403 19:43:24.731106  9594 net.cpp:148] Top shape: 24 512 14 14 (2408448)
I0403 19:43:24.731122  9594 net.cpp:156] Memory required for data: 1060605216
I0403 19:43:24.731135  9594 layer_factory.hpp:77] Creating layer inception_4c/pool_proj
I0403 19:43:24.731158  9594 net.cpp:91] Creating Layer inception_4c/pool_proj
I0403 19:43:24.731174  9594 net.cpp:425] inception_4c/pool_proj <- inception_4c/pool
I0403 19:43:24.731197  9594 net.cpp:399] inception_4c/pool_proj -> inception_4c/pool_proj
I0403 19:43:24.732381  9594 net.cpp:141] Setting up inception_4c/pool_proj
I0403 19:43:24.732409  9594 net.cpp:148] Top shape: 24 64 14 14 (301056)
I0403 19:43:24.732437  9594 net.cpp:156] Memory required for data: 1061809440
I0403 19:43:24.732456  9594 layer_factory.hpp:77] Creating layer inception_4c/relu_pool_proj
I0403 19:43:24.732486  9594 net.cpp:91] Creating Layer inception_4c/relu_pool_proj
I0403 19:43:24.732503  9594 net.cpp:425] inception_4c/relu_pool_proj <- inception_4c/pool_proj
I0403 19:43:24.732523  9594 net.cpp:386] inception_4c/relu_pool_proj -> inception_4c/pool_proj (in-place)
I0403 19:43:24.732704  9594 net.cpp:141] Setting up inception_4c/relu_pool_proj
I0403 19:43:24.732730  9594 net.cpp:148] Top shape: 24 64 14 14 (301056)
I0403 19:43:24.732745  9594 net.cpp:156] Memory required for data: 1063013664
I0403 19:43:24.732759  9594 layer_factory.hpp:77] Creating layer inception_4c/output
I0403 19:43:24.732776  9594 net.cpp:91] Creating Layer inception_4c/output
I0403 19:43:24.732792  9594 net.cpp:425] inception_4c/output <- inception_4c/1x1
I0403 19:43:24.732807  9594 net.cpp:425] inception_4c/output <- inception_4c/3x3
I0403 19:43:24.732823  9594 net.cpp:425] inception_4c/output <- inception_4c/5x5
I0403 19:43:24.732839  9594 net.cpp:425] inception_4c/output <- inception_4c/pool_proj
I0403 19:43:24.732857  9594 net.cpp:399] inception_4c/output -> inception_4c/output
I0403 19:43:24.732905  9594 net.cpp:141] Setting up inception_4c/output
I0403 19:43:24.732929  9594 net.cpp:148] Top shape: 24 512 14 14 (2408448)
I0403 19:43:24.732944  9594 net.cpp:156] Memory required for data: 1072647456
I0403 19:43:24.732959  9594 layer_factory.hpp:77] Creating layer inception_4c/output_inception_4c/output_0_split
I0403 19:43:24.732976  9594 net.cpp:91] Creating Layer inception_4c/output_inception_4c/output_0_split
I0403 19:43:24.732991  9594 net.cpp:425] inception_4c/output_inception_4c/output_0_split <- inception_4c/output
I0403 19:43:24.733011  9594 net.cpp:399] inception_4c/output_inception_4c/output_0_split -> inception_4c/output_inception_4c/output_0_split_0
I0403 19:43:24.733031  9594 net.cpp:399] inception_4c/output_inception_4c/output_0_split -> inception_4c/output_inception_4c/output_0_split_1
I0403 19:43:24.733052  9594 net.cpp:399] inception_4c/output_inception_4c/output_0_split -> inception_4c/output_inception_4c/output_0_split_2
I0403 19:43:24.733072  9594 net.cpp:399] inception_4c/output_inception_4c/output_0_split -> inception_4c/output_inception_4c/output_0_split_3
I0403 19:43:24.733157  9594 net.cpp:141] Setting up inception_4c/output_inception_4c/output_0_split
I0403 19:43:24.733181  9594 net.cpp:148] Top shape: 24 512 14 14 (2408448)
I0403 19:43:24.733199  9594 net.cpp:148] Top shape: 24 512 14 14 (2408448)
I0403 19:43:24.733216  9594 net.cpp:148] Top shape: 24 512 14 14 (2408448)
I0403 19:43:24.733232  9594 net.cpp:148] Top shape: 24 512 14 14 (2408448)
I0403 19:43:24.733258  9594 net.cpp:156] Memory required for data: 1111182624
I0403 19:43:24.733273  9594 layer_factory.hpp:77] Creating layer inception_4d/1x1
I0403 19:43:24.733294  9594 net.cpp:91] Creating Layer inception_4d/1x1
I0403 19:43:24.733312  9594 net.cpp:425] inception_4d/1x1 <- inception_4c/output_inception_4c/output_0_split_0
I0403 19:43:24.733331  9594 net.cpp:399] inception_4d/1x1 -> inception_4d/1x1
I0403 19:43:24.734709  9594 net.cpp:141] Setting up inception_4d/1x1
I0403 19:43:24.734735  9594 net.cpp:148] Top shape: 24 112 14 14 (526848)
I0403 19:43:24.734751  9594 net.cpp:156] Memory required for data: 1113290016
I0403 19:43:24.734771  9594 layer_factory.hpp:77] Creating layer inception_4d/relu_1x1
I0403 19:43:24.734789  9594 net.cpp:91] Creating Layer inception_4d/relu_1x1
I0403 19:43:24.734807  9594 net.cpp:425] inception_4d/relu_1x1 <- inception_4d/1x1
I0403 19:43:24.734824  9594 net.cpp:386] inception_4d/relu_1x1 -> inception_4d/1x1 (in-place)
I0403 19:43:24.735005  9594 net.cpp:141] Setting up inception_4d/relu_1x1
I0403 19:43:24.735030  9594 net.cpp:148] Top shape: 24 112 14 14 (526848)
I0403 19:43:24.735045  9594 net.cpp:156] Memory required for data: 1115397408
I0403 19:43:24.735060  9594 layer_factory.hpp:77] Creating layer inception_4d/3x3_reduce
I0403 19:43:24.735096  9594 net.cpp:91] Creating Layer inception_4d/3x3_reduce
I0403 19:43:24.735116  9594 net.cpp:425] inception_4d/3x3_reduce <- inception_4c/output_inception_4c/output_0_split_1
I0403 19:43:24.735137  9594 net.cpp:399] inception_4d/3x3_reduce -> inception_4d/3x3_reduce
I0403 19:43:24.736620  9594 net.cpp:141] Setting up inception_4d/3x3_reduce
I0403 19:43:24.736647  9594 net.cpp:148] Top shape: 24 144 14 14 (677376)
I0403 19:43:24.736665  9594 net.cpp:156] Memory required for data: 1118106912
I0403 19:43:24.736683  9594 layer_factory.hpp:77] Creating layer inception_4d/relu_3x3_reduce
I0403 19:43:24.736703  9594 net.cpp:91] Creating Layer inception_4d/relu_3x3_reduce
I0403 19:43:24.736721  9594 net.cpp:425] inception_4d/relu_3x3_reduce <- inception_4d/3x3_reduce
I0403 19:43:24.736737  9594 net.cpp:386] inception_4d/relu_3x3_reduce -> inception_4d/3x3_reduce (in-place)
I0403 19:43:24.737023  9594 net.cpp:141] Setting up inception_4d/relu_3x3_reduce
I0403 19:43:24.737049  9594 net.cpp:148] Top shape: 24 144 14 14 (677376)
I0403 19:43:24.737066  9594 net.cpp:156] Memory required for data: 1120816416
I0403 19:43:24.737083  9594 layer_factory.hpp:77] Creating layer inception_4d/3x3
I0403 19:43:24.737107  9594 net.cpp:91] Creating Layer inception_4d/3x3
I0403 19:43:24.737124  9594 net.cpp:425] inception_4d/3x3 <- inception_4d/3x3_reduce
I0403 19:43:24.737145  9594 net.cpp:399] inception_4d/3x3 -> inception_4d/3x3
I0403 19:43:24.741325  9594 net.cpp:141] Setting up inception_4d/3x3
I0403 19:43:24.741358  9594 net.cpp:148] Top shape: 24 288 14 14 (1354752)
I0403 19:43:24.741375  9594 net.cpp:156] Memory required for data: 1126235424
I0403 19:43:24.741394  9594 layer_factory.hpp:77] Creating layer inception_4d/relu_3x3
I0403 19:43:24.741411  9594 net.cpp:91] Creating Layer inception_4d/relu_3x3
I0403 19:43:24.741430  9594 net.cpp:425] inception_4d/relu_3x3 <- inception_4d/3x3
I0403 19:43:24.741446  9594 net.cpp:386] inception_4d/relu_3x3 -> inception_4d/3x3 (in-place)
I0403 19:43:24.741643  9594 net.cpp:141] Setting up inception_4d/relu_3x3
I0403 19:43:24.741669  9594 net.cpp:148] Top shape: 24 288 14 14 (1354752)
I0403 19:43:24.741684  9594 net.cpp:156] Memory required for data: 1131654432
I0403 19:43:24.741698  9594 layer_factory.hpp:77] Creating layer inception_4d/5x5_reduce
I0403 19:43:24.741720  9594 net.cpp:91] Creating Layer inception_4d/5x5_reduce
I0403 19:43:24.741739  9594 net.cpp:425] inception_4d/5x5_reduce <- inception_4c/output_inception_4c/output_0_split_2
I0403 19:43:24.741761  9594 net.cpp:399] inception_4d/5x5_reduce -> inception_4d/5x5_reduce
I0403 19:43:24.742882  9594 net.cpp:141] Setting up inception_4d/5x5_reduce
I0403 19:43:24.742913  9594 net.cpp:148] Top shape: 24 32 14 14 (150528)
I0403 19:43:24.742928  9594 net.cpp:156] Memory required for data: 1132256544
I0403 19:43:24.742946  9594 layer_factory.hpp:77] Creating layer inception_4d/relu_5x5_reduce
I0403 19:43:24.742964  9594 net.cpp:91] Creating Layer inception_4d/relu_5x5_reduce
I0403 19:43:24.742980  9594 net.cpp:425] inception_4d/relu_5x5_reduce <- inception_4d/5x5_reduce
I0403 19:43:24.743000  9594 net.cpp:386] inception_4d/relu_5x5_reduce -> inception_4d/5x5_reduce (in-place)
I0403 19:43:24.743180  9594 net.cpp:141] Setting up inception_4d/relu_5x5_reduce
I0403 19:43:24.743204  9594 net.cpp:148] Top shape: 24 32 14 14 (150528)
I0403 19:43:24.743218  9594 net.cpp:156] Memory required for data: 1132858656
I0403 19:43:24.743232  9594 layer_factory.hpp:77] Creating layer inception_4d/5x5
I0403 19:43:24.743254  9594 net.cpp:91] Creating Layer inception_4d/5x5
I0403 19:43:24.743271  9594 net.cpp:425] inception_4d/5x5 <- inception_4d/5x5_reduce
I0403 19:43:24.743294  9594 net.cpp:399] inception_4d/5x5 -> inception_4d/5x5
I0403 19:43:24.744760  9594 net.cpp:141] Setting up inception_4d/5x5
I0403 19:43:24.744787  9594 net.cpp:148] Top shape: 24 64 14 14 (301056)
I0403 19:43:24.744802  9594 net.cpp:156] Memory required for data: 1134062880
I0403 19:43:24.744820  9594 layer_factory.hpp:77] Creating layer inception_4d/relu_5x5
I0403 19:43:24.744853  9594 net.cpp:91] Creating Layer inception_4d/relu_5x5
I0403 19:43:24.744870  9594 net.cpp:425] inception_4d/relu_5x5 <- inception_4d/5x5
I0403 19:43:24.744890  9594 net.cpp:386] inception_4d/relu_5x5 -> inception_4d/5x5 (in-place)
I0403 19:43:24.745183  9594 net.cpp:141] Setting up inception_4d/relu_5x5
I0403 19:43:24.745210  9594 net.cpp:148] Top shape: 24 64 14 14 (301056)
I0403 19:43:24.745237  9594 net.cpp:156] Memory required for data: 1135267104
I0403 19:43:24.745252  9594 layer_factory.hpp:77] Creating layer inception_4d/pool
I0403 19:43:24.745270  9594 net.cpp:91] Creating Layer inception_4d/pool
I0403 19:43:24.745286  9594 net.cpp:425] inception_4d/pool <- inception_4c/output_inception_4c/output_0_split_3
I0403 19:43:24.745308  9594 net.cpp:399] inception_4d/pool -> inception_4d/pool
I0403 19:43:24.745375  9594 net.cpp:141] Setting up inception_4d/pool
I0403 19:43:24.745399  9594 net.cpp:148] Top shape: 24 512 14 14 (2408448)
I0403 19:43:24.745414  9594 net.cpp:156] Memory required for data: 1144900896
I0403 19:43:24.745429  9594 layer_factory.hpp:77] Creating layer inception_4d/pool_proj
I0403 19:43:24.745455  9594 net.cpp:91] Creating Layer inception_4d/pool_proj
I0403 19:43:24.745477  9594 net.cpp:425] inception_4d/pool_proj <- inception_4d/pool
I0403 19:43:24.745497  9594 net.cpp:399] inception_4d/pool_proj -> inception_4d/pool_proj
I0403 19:43:24.747215  9594 net.cpp:141] Setting up inception_4d/pool_proj
I0403 19:43:24.747246  9594 net.cpp:148] Top shape: 24 64 14 14 (301056)
I0403 19:43:24.747262  9594 net.cpp:156] Memory required for data: 1146105120
I0403 19:43:24.747280  9594 layer_factory.hpp:77] Creating layer inception_4d/relu_pool_proj
I0403 19:43:24.747298  9594 net.cpp:91] Creating Layer inception_4d/relu_pool_proj
I0403 19:43:24.747315  9594 net.cpp:425] inception_4d/relu_pool_proj <- inception_4d/pool_proj
I0403 19:43:24.747334  9594 net.cpp:386] inception_4d/relu_pool_proj -> inception_4d/pool_proj (in-place)
I0403 19:43:24.747519  9594 net.cpp:141] Setting up inception_4d/relu_pool_proj
I0403 19:43:24.747545  9594 net.cpp:148] Top shape: 24 64 14 14 (301056)
I0403 19:43:24.747560  9594 net.cpp:156] Memory required for data: 1147309344
I0403 19:43:24.747575  9594 layer_factory.hpp:77] Creating layer inception_4d/output
I0403 19:43:24.747591  9594 net.cpp:91] Creating Layer inception_4d/output
I0403 19:43:24.747606  9594 net.cpp:425] inception_4d/output <- inception_4d/1x1
I0403 19:43:24.747622  9594 net.cpp:425] inception_4d/output <- inception_4d/3x3
I0403 19:43:24.747638  9594 net.cpp:425] inception_4d/output <- inception_4d/5x5
I0403 19:43:24.747654  9594 net.cpp:425] inception_4d/output <- inception_4d/pool_proj
I0403 19:43:24.747674  9594 net.cpp:399] inception_4d/output -> inception_4d/output
I0403 19:43:24.747720  9594 net.cpp:141] Setting up inception_4d/output
I0403 19:43:24.747747  9594 net.cpp:148] Top shape: 24 528 14 14 (2483712)
I0403 19:43:24.747762  9594 net.cpp:156] Memory required for data: 1157244192
I0403 19:43:24.747776  9594 layer_factory.hpp:77] Creating layer inception_4d/output_inception_4d/output_0_split
I0403 19:43:24.747793  9594 net.cpp:91] Creating Layer inception_4d/output_inception_4d/output_0_split
I0403 19:43:24.747809  9594 net.cpp:425] inception_4d/output_inception_4d/output_0_split <- inception_4d/output
I0403 19:43:24.747829  9594 net.cpp:399] inception_4d/output_inception_4d/output_0_split -> inception_4d/output_inception_4d/output_0_split_0
I0403 19:43:24.747855  9594 net.cpp:399] inception_4d/output_inception_4d/output_0_split -> inception_4d/output_inception_4d/output_0_split_1
I0403 19:43:24.747875  9594 net.cpp:399] inception_4d/output_inception_4d/output_0_split -> inception_4d/output_inception_4d/output_0_split_2
I0403 19:43:24.747897  9594 net.cpp:399] inception_4d/output_inception_4d/output_0_split -> inception_4d/output_inception_4d/output_0_split_3
I0403 19:43:24.747916  9594 net.cpp:399] inception_4d/output_inception_4d/output_0_split -> inception_4d/output_inception_4d/output_0_split_4
I0403 19:43:24.748015  9594 net.cpp:141] Setting up inception_4d/output_inception_4d/output_0_split
I0403 19:43:24.748051  9594 net.cpp:148] Top shape: 24 528 14 14 (2483712)
I0403 19:43:24.748067  9594 net.cpp:148] Top shape: 24 528 14 14 (2483712)
I0403 19:43:24.748083  9594 net.cpp:148] Top shape: 24 528 14 14 (2483712)
I0403 19:43:24.748098  9594 net.cpp:148] Top shape: 24 528 14 14 (2483712)
I0403 19:43:24.748114  9594 net.cpp:148] Top shape: 24 528 14 14 (2483712)
I0403 19:43:24.748128  9594 net.cpp:156] Memory required for data: 1206918432
I0403 19:43:24.748142  9594 layer_factory.hpp:77] Creating layer loss2/ave_pool
I0403 19:43:24.748162  9594 net.cpp:91] Creating Layer loss2/ave_pool
I0403 19:43:24.748178  9594 net.cpp:425] loss2/ave_pool <- inception_4d/output_inception_4d/output_0_split_0
I0403 19:43:24.748196  9594 net.cpp:399] loss2/ave_pool -> loss2/ave_pool
I0403 19:43:24.748512  9594 net.cpp:141] Setting up loss2/ave_pool
I0403 19:43:24.748539  9594 net.cpp:148] Top shape: 24 528 4 4 (202752)
I0403 19:43:24.748555  9594 net.cpp:156] Memory required for data: 1207729440
I0403 19:43:24.748570  9594 layer_factory.hpp:77] Creating layer loss2/conv
I0403 19:43:24.748592  9594 net.cpp:91] Creating Layer loss2/conv
I0403 19:43:24.748610  9594 net.cpp:425] loss2/conv <- loss2/ave_pool
I0403 19:43:24.748630  9594 net.cpp:399] loss2/conv -> loss2/conv
I0403 19:43:24.750519  9594 net.cpp:141] Setting up loss2/conv
I0403 19:43:24.750546  9594 net.cpp:148] Top shape: 24 128 4 4 (49152)
I0403 19:43:24.750563  9594 net.cpp:156] Memory required for data: 1207926048
I0403 19:43:24.750581  9594 layer_factory.hpp:77] Creating layer loss2/relu_conv
I0403 19:43:24.750602  9594 net.cpp:91] Creating Layer loss2/relu_conv
I0403 19:43:24.750619  9594 net.cpp:425] loss2/relu_conv <- loss2/conv
I0403 19:43:24.750638  9594 net.cpp:386] loss2/relu_conv -> loss2/conv (in-place)
I0403 19:43:24.750919  9594 net.cpp:141] Setting up loss2/relu_conv
I0403 19:43:24.750946  9594 net.cpp:148] Top shape: 24 128 4 4 (49152)
I0403 19:43:24.750960  9594 net.cpp:156] Memory required for data: 1208122656
I0403 19:43:24.750975  9594 layer_factory.hpp:77] Creating layer loss2/fc
I0403 19:43:24.750998  9594 net.cpp:91] Creating Layer loss2/fc
I0403 19:43:24.751015  9594 net.cpp:425] loss2/fc <- loss2/conv
I0403 19:43:24.751034  9594 net.cpp:399] loss2/fc -> loss2/fc
I0403 19:43:24.768275  9594 net.cpp:141] Setting up loss2/fc
I0403 19:43:24.768308  9594 net.cpp:148] Top shape: 24 1024 (24576)
I0403 19:43:24.768324  9594 net.cpp:156] Memory required for data: 1208220960
I0403 19:43:24.768344  9594 layer_factory.hpp:77] Creating layer loss2/relu_fc
I0403 19:43:24.768362  9594 net.cpp:91] Creating Layer loss2/relu_fc
I0403 19:43:24.768379  9594 net.cpp:425] loss2/relu_fc <- loss2/fc
I0403 19:43:24.768399  9594 net.cpp:386] loss2/relu_fc -> loss2/fc (in-place)
I0403 19:43:24.768693  9594 net.cpp:141] Setting up loss2/relu_fc
I0403 19:43:24.768721  9594 net.cpp:148] Top shape: 24 1024 (24576)
I0403 19:43:24.768738  9594 net.cpp:156] Memory required for data: 1208319264
I0403 19:43:24.768754  9594 layer_factory.hpp:77] Creating layer loss2/drop_fc
I0403 19:43:24.768771  9594 net.cpp:91] Creating Layer loss2/drop_fc
I0403 19:43:24.768789  9594 net.cpp:425] loss2/drop_fc <- loss2/fc
I0403 19:43:24.768808  9594 net.cpp:386] loss2/drop_fc -> loss2/fc (in-place)
I0403 19:43:24.768858  9594 net.cpp:141] Setting up loss2/drop_fc
I0403 19:43:24.768882  9594 net.cpp:148] Top shape: 24 1024 (24576)
I0403 19:43:24.768895  9594 net.cpp:156] Memory required for data: 1208417568
I0403 19:43:24.768909  9594 layer_factory.hpp:77] Creating layer loss2/classifier_plantvillage
I0403 19:43:24.768930  9594 net.cpp:91] Creating Layer loss2/classifier_plantvillage
I0403 19:43:24.768947  9594 net.cpp:425] loss2/classifier_plantvillage <- loss2/fc
I0403 19:43:24.768968  9594 net.cpp:399] loss2/classifier_plantvillage -> loss2/classifier_plantvillage
I0403 19:43:24.769373  9594 net.cpp:141] Setting up loss2/classifier_plantvillage
I0403 19:43:24.769400  9594 net.cpp:148] Top shape: 24 38 (912)
I0403 19:43:24.769435  9594 net.cpp:156] Memory required for data: 1208421216
I0403 19:43:24.769476  9594 layer_factory.hpp:77] Creating layer loss2/classifier_plantvillage_loss2/classifier_plantvillage_0_split
I0403 19:43:24.769520  9594 net.cpp:91] Creating Layer loss2/classifier_plantvillage_loss2/classifier_plantvillage_0_split
I0403 19:43:24.769556  9594 net.cpp:425] loss2/classifier_plantvillage_loss2/classifier_plantvillage_0_split <- loss2/classifier_plantvillage
I0403 19:43:24.769575  9594 net.cpp:399] loss2/classifier_plantvillage_loss2/classifier_plantvillage_0_split -> loss2/classifier_plantvillage_loss2/classifier_plantvillage_0_split_0
I0403 19:43:24.769595  9594 net.cpp:399] loss2/classifier_plantvillage_loss2/classifier_plantvillage_0_split -> loss2/classifier_plantvillage_loss2/classifier_plantvillage_0_split_1
I0403 19:43:24.769616  9594 net.cpp:399] loss2/classifier_plantvillage_loss2/classifier_plantvillage_0_split -> loss2/classifier_plantvillage_loss2/classifier_plantvillage_0_split_2
I0403 19:43:24.769693  9594 net.cpp:141] Setting up loss2/classifier_plantvillage_loss2/classifier_plantvillage_0_split
I0403 19:43:24.769716  9594 net.cpp:148] Top shape: 24 38 (912)
I0403 19:43:24.769732  9594 net.cpp:148] Top shape: 24 38 (912)
I0403 19:43:24.769747  9594 net.cpp:148] Top shape: 24 38 (912)
I0403 19:43:24.769762  9594 net.cpp:156] Memory required for data: 1208432160
I0403 19:43:24.769805  9594 layer_factory.hpp:77] Creating layer inception_4e/1x1
I0403 19:43:24.769846  9594 net.cpp:91] Creating Layer inception_4e/1x1
I0403 19:43:24.769891  9594 net.cpp:425] inception_4e/1x1 <- inception_4d/output_inception_4d/output_0_split_1
I0403 19:43:24.769938  9594 net.cpp:399] inception_4e/1x1 -> inception_4e/1x1
I0403 19:43:24.771724  9594 net.cpp:141] Setting up inception_4e/1x1
I0403 19:43:24.771752  9594 net.cpp:148] Top shape: 24 256 14 14 (1204224)
I0403 19:43:24.771769  9594 net.cpp:156] Memory required for data: 1213249056
I0403 19:43:24.771786  9594 layer_factory.hpp:77] Creating layer inception_4e/relu_1x1
I0403 19:43:24.771806  9594 net.cpp:91] Creating Layer inception_4e/relu_1x1
I0403 19:43:24.771823  9594 net.cpp:425] inception_4e/relu_1x1 <- inception_4e/1x1
I0403 19:43:24.771842  9594 net.cpp:386] inception_4e/relu_1x1 -> inception_4e/1x1 (in-place)
I0403 19:43:24.772128  9594 net.cpp:141] Setting up inception_4e/relu_1x1
I0403 19:43:24.772155  9594 net.cpp:148] Top shape: 24 256 14 14 (1204224)
I0403 19:43:24.772171  9594 net.cpp:156] Memory required for data: 1218065952
I0403 19:43:24.772184  9594 layer_factory.hpp:77] Creating layer inception_4e/3x3_reduce
I0403 19:43:24.772207  9594 net.cpp:91] Creating Layer inception_4e/3x3_reduce
I0403 19:43:24.772224  9594 net.cpp:425] inception_4e/3x3_reduce <- inception_4d/output_inception_4d/output_0_split_2
I0403 19:43:24.772246  9594 net.cpp:399] inception_4e/3x3_reduce -> inception_4e/3x3_reduce
I0403 19:43:24.774334  9594 net.cpp:141] Setting up inception_4e/3x3_reduce
I0403 19:43:24.774363  9594 net.cpp:148] Top shape: 24 160 14 14 (752640)
I0403 19:43:24.774379  9594 net.cpp:156] Memory required for data: 1221076512
I0403 19:43:24.774396  9594 layer_factory.hpp:77] Creating layer inception_4e/relu_3x3_reduce
I0403 19:43:24.774417  9594 net.cpp:91] Creating Layer inception_4e/relu_3x3_reduce
I0403 19:43:24.774435  9594 net.cpp:425] inception_4e/relu_3x3_reduce <- inception_4e/3x3_reduce
I0403 19:43:24.774451  9594 net.cpp:386] inception_4e/relu_3x3_reduce -> inception_4e/3x3_reduce (in-place)
I0403 19:43:24.774641  9594 net.cpp:141] Setting up inception_4e/relu_3x3_reduce
I0403 19:43:24.774667  9594 net.cpp:148] Top shape: 24 160 14 14 (752640)
I0403 19:43:24.774682  9594 net.cpp:156] Memory required for data: 1224087072
I0403 19:43:24.774696  9594 layer_factory.hpp:77] Creating layer inception_4e/3x3
I0403 19:43:24.774718  9594 net.cpp:91] Creating Layer inception_4e/3x3
I0403 19:43:24.774735  9594 net.cpp:425] inception_4e/3x3 <- inception_4e/3x3_reduce
I0403 19:43:24.774756  9594 net.cpp:399] inception_4e/3x3 -> inception_4e/3x3
I0403 19:43:24.779657  9594 net.cpp:141] Setting up inception_4e/3x3
I0403 19:43:24.779698  9594 net.cpp:148] Top shape: 24 320 14 14 (1505280)
I0403 19:43:24.779714  9594 net.cpp:156] Memory required for data: 1230108192
I0403 19:43:24.779733  9594 layer_factory.hpp:77] Creating layer inception_4e/relu_3x3
I0403 19:43:24.779753  9594 net.cpp:91] Creating Layer inception_4e/relu_3x3
I0403 19:43:24.779770  9594 net.cpp:425] inception_4e/relu_3x3 <- inception_4e/3x3
I0403 19:43:24.779788  9594 net.cpp:386] inception_4e/relu_3x3 -> inception_4e/3x3 (in-place)
I0403 19:43:24.780088  9594 net.cpp:141] Setting up inception_4e/relu_3x3
I0403 19:43:24.780117  9594 net.cpp:148] Top shape: 24 320 14 14 (1505280)
I0403 19:43:24.780133  9594 net.cpp:156] Memory required for data: 1236129312
I0403 19:43:24.780149  9594 layer_factory.hpp:77] Creating layer inception_4e/5x5_reduce
I0403 19:43:24.780171  9594 net.cpp:91] Creating Layer inception_4e/5x5_reduce
I0403 19:43:24.780189  9594 net.cpp:425] inception_4e/5x5_reduce <- inception_4d/output_inception_4d/output_0_split_3
I0403 19:43:24.780210  9594 net.cpp:399] inception_4e/5x5_reduce -> inception_4e/5x5_reduce
I0403 19:43:24.781270  9594 net.cpp:141] Setting up inception_4e/5x5_reduce
I0403 19:43:24.781298  9594 net.cpp:148] Top shape: 24 32 14 14 (150528)
I0403 19:43:24.781314  9594 net.cpp:156] Memory required for data: 1236731424
I0403 19:43:24.781333  9594 layer_factory.hpp:77] Creating layer inception_4e/relu_5x5_reduce
I0403 19:43:24.781352  9594 net.cpp:91] Creating Layer inception_4e/relu_5x5_reduce
I0403 19:43:24.781368  9594 net.cpp:425] inception_4e/relu_5x5_reduce <- inception_4e/5x5_reduce
I0403 19:43:24.781388  9594 net.cpp:386] inception_4e/relu_5x5_reduce -> inception_4e/5x5_reduce (in-place)
I0403 19:43:24.781704  9594 net.cpp:141] Setting up inception_4e/relu_5x5_reduce
I0403 19:43:24.781730  9594 net.cpp:148] Top shape: 24 32 14 14 (150528)
I0403 19:43:24.781744  9594 net.cpp:156] Memory required for data: 1237333536
I0403 19:43:24.781760  9594 layer_factory.hpp:77] Creating layer inception_4e/5x5
I0403 19:43:24.781796  9594 net.cpp:91] Creating Layer inception_4e/5x5
I0403 19:43:24.781815  9594 net.cpp:425] inception_4e/5x5 <- inception_4e/5x5_reduce
I0403 19:43:24.781833  9594 net.cpp:399] inception_4e/5x5 -> inception_4e/5x5
I0403 19:43:24.783629  9594 net.cpp:141] Setting up inception_4e/5x5
I0403 19:43:24.783658  9594 net.cpp:148] Top shape: 24 128 14 14 (602112)
I0403 19:43:24.783673  9594 net.cpp:156] Memory required for data: 1239741984
I0403 19:43:24.783691  9594 layer_factory.hpp:77] Creating layer inception_4e/relu_5x5
I0403 19:43:24.783710  9594 net.cpp:91] Creating Layer inception_4e/relu_5x5
I0403 19:43:24.783726  9594 net.cpp:425] inception_4e/relu_5x5 <- inception_4e/5x5
I0403 19:43:24.783747  9594 net.cpp:386] inception_4e/relu_5x5 -> inception_4e/5x5 (in-place)
I0403 19:43:24.783941  9594 net.cpp:141] Setting up inception_4e/relu_5x5
I0403 19:43:24.783965  9594 net.cpp:148] Top shape: 24 128 14 14 (602112)
I0403 19:43:24.783980  9594 net.cpp:156] Memory required for data: 1242150432
I0403 19:43:24.783996  9594 layer_factory.hpp:77] Creating layer inception_4e/pool
I0403 19:43:24.784016  9594 net.cpp:91] Creating Layer inception_4e/pool
I0403 19:43:24.784032  9594 net.cpp:425] inception_4e/pool <- inception_4d/output_inception_4d/output_0_split_4
I0403 19:43:24.784052  9594 net.cpp:399] inception_4e/pool -> inception_4e/pool
I0403 19:43:24.784122  9594 net.cpp:141] Setting up inception_4e/pool
I0403 19:43:24.784147  9594 net.cpp:148] Top shape: 24 528 14 14 (2483712)
I0403 19:43:24.784160  9594 net.cpp:156] Memory required for data: 1252085280
I0403 19:43:24.784175  9594 layer_factory.hpp:77] Creating layer inception_4e/pool_proj
I0403 19:43:24.784198  9594 net.cpp:91] Creating Layer inception_4e/pool_proj
I0403 19:43:24.784219  9594 net.cpp:425] inception_4e/pool_proj <- inception_4e/pool
I0403 19:43:24.784238  9594 net.cpp:399] inception_4e/pool_proj -> inception_4e/pool_proj
I0403 19:43:24.785732  9594 net.cpp:141] Setting up inception_4e/pool_proj
I0403 19:43:24.785763  9594 net.cpp:148] Top shape: 24 128 14 14 (602112)
I0403 19:43:24.785791  9594 net.cpp:156] Memory required for data: 1254493728
I0403 19:43:24.785811  9594 layer_factory.hpp:77] Creating layer inception_4e/relu_pool_proj
I0403 19:43:24.785830  9594 net.cpp:91] Creating Layer inception_4e/relu_pool_proj
I0403 19:43:24.785845  9594 net.cpp:425] inception_4e/relu_pool_proj <- inception_4e/pool_proj
I0403 19:43:24.785864  9594 net.cpp:386] inception_4e/relu_pool_proj -> inception_4e/pool_proj (in-place)
I0403 19:43:24.786149  9594 net.cpp:141] Setting up inception_4e/relu_pool_proj
I0403 19:43:24.786178  9594 net.cpp:148] Top shape: 24 128 14 14 (602112)
I0403 19:43:24.786195  9594 net.cpp:156] Memory required for data: 1256902176
I0403 19:43:24.786211  9594 layer_factory.hpp:77] Creating layer inception_4e/output
I0403 19:43:24.786227  9594 net.cpp:91] Creating Layer inception_4e/output
I0403 19:43:24.786242  9594 net.cpp:425] inception_4e/output <- inception_4e/1x1
I0403 19:43:24.786259  9594 net.cpp:425] inception_4e/output <- inception_4e/3x3
I0403 19:43:24.786275  9594 net.cpp:425] inception_4e/output <- inception_4e/5x5
I0403 19:43:24.786291  9594 net.cpp:425] inception_4e/output <- inception_4e/pool_proj
I0403 19:43:24.786309  9594 net.cpp:399] inception_4e/output -> inception_4e/output
I0403 19:43:24.786360  9594 net.cpp:141] Setting up inception_4e/output
I0403 19:43:24.786382  9594 net.cpp:148] Top shape: 24 832 14 14 (3913728)
I0403 19:43:24.786397  9594 net.cpp:156] Memory required for data: 1272557088
I0403 19:43:24.786412  9594 layer_factory.hpp:77] Creating layer pool4/3x3_s2
I0403 19:43:24.786437  9594 net.cpp:91] Creating Layer pool4/3x3_s2
I0403 19:43:24.786454  9594 net.cpp:425] pool4/3x3_s2 <- inception_4e/output
I0403 19:43:24.786478  9594 net.cpp:399] pool4/3x3_s2 -> pool4/3x3_s2
I0403 19:43:24.786546  9594 net.cpp:141] Setting up pool4/3x3_s2
I0403 19:43:24.786571  9594 net.cpp:148] Top shape: 24 832 7 7 (978432)
I0403 19:43:24.786584  9594 net.cpp:156] Memory required for data: 1276470816
I0403 19:43:24.786598  9594 layer_factory.hpp:77] Creating layer pool4/3x3_s2_pool4/3x3_s2_0_split
I0403 19:43:24.786615  9594 net.cpp:91] Creating Layer pool4/3x3_s2_pool4/3x3_s2_0_split
I0403 19:43:24.786630  9594 net.cpp:425] pool4/3x3_s2_pool4/3x3_s2_0_split <- pool4/3x3_s2
I0403 19:43:24.786650  9594 net.cpp:399] pool4/3x3_s2_pool4/3x3_s2_0_split -> pool4/3x3_s2_pool4/3x3_s2_0_split_0
I0403 19:43:24.786670  9594 net.cpp:399] pool4/3x3_s2_pool4/3x3_s2_0_split -> pool4/3x3_s2_pool4/3x3_s2_0_split_1
I0403 19:43:24.786690  9594 net.cpp:399] pool4/3x3_s2_pool4/3x3_s2_0_split -> pool4/3x3_s2_pool4/3x3_s2_0_split_2
I0403 19:43:24.786710  9594 net.cpp:399] pool4/3x3_s2_pool4/3x3_s2_0_split -> pool4/3x3_s2_pool4/3x3_s2_0_split_3
I0403 19:43:24.786799  9594 net.cpp:141] Setting up pool4/3x3_s2_pool4/3x3_s2_0_split
I0403 19:43:24.786828  9594 net.cpp:148] Top shape: 24 832 7 7 (978432)
I0403 19:43:24.786845  9594 net.cpp:148] Top shape: 24 832 7 7 (978432)
I0403 19:43:24.786861  9594 net.cpp:148] Top shape: 24 832 7 7 (978432)
I0403 19:43:24.786877  9594 net.cpp:148] Top shape: 24 832 7 7 (978432)
I0403 19:43:24.786890  9594 net.cpp:156] Memory required for data: 1292125728
I0403 19:43:24.786905  9594 layer_factory.hpp:77] Creating layer inception_5a/1x1
I0403 19:43:24.786926  9594 net.cpp:91] Creating Layer inception_5a/1x1
I0403 19:43:24.786943  9594 net.cpp:425] inception_5a/1x1 <- pool4/3x3_s2_pool4/3x3_s2_0_split_0
I0403 19:43:24.786963  9594 net.cpp:399] inception_5a/1x1 -> inception_5a/1x1
I0403 19:43:24.789772  9594 net.cpp:141] Setting up inception_5a/1x1
I0403 19:43:24.789799  9594 net.cpp:148] Top shape: 24 256 7 7 (301056)
I0403 19:43:24.789814  9594 net.cpp:156] Memory required for data: 1293329952
I0403 19:43:24.789831  9594 layer_factory.hpp:77] Creating layer inception_5a/relu_1x1
I0403 19:43:24.789849  9594 net.cpp:91] Creating Layer inception_5a/relu_1x1
I0403 19:43:24.789866  9594 net.cpp:425] inception_5a/relu_1x1 <- inception_5a/1x1
I0403 19:43:24.789885  9594 net.cpp:386] inception_5a/relu_1x1 -> inception_5a/1x1 (in-place)
I0403 19:43:24.790189  9594 net.cpp:141] Setting up inception_5a/relu_1x1
I0403 19:43:24.790228  9594 net.cpp:148] Top shape: 24 256 7 7 (301056)
I0403 19:43:24.790244  9594 net.cpp:156] Memory required for data: 1294534176
I0403 19:43:24.790259  9594 layer_factory.hpp:77] Creating layer inception_5a/3x3_reduce
I0403 19:43:24.790282  9594 net.cpp:91] Creating Layer inception_5a/3x3_reduce
I0403 19:43:24.790300  9594 net.cpp:425] inception_5a/3x3_reduce <- pool4/3x3_s2_pool4/3x3_s2_0_split_1
I0403 19:43:24.790323  9594 net.cpp:399] inception_5a/3x3_reduce -> inception_5a/3x3_reduce
I0403 19:43:24.792738  9594 net.cpp:141] Setting up inception_5a/3x3_reduce
I0403 19:43:24.792769  9594 net.cpp:148] Top shape: 24 160 7 7 (188160)
I0403 19:43:24.792785  9594 net.cpp:156] Memory required for data: 1295286816
I0403 19:43:24.792804  9594 layer_factory.hpp:77] Creating layer inception_5a/relu_3x3_reduce
I0403 19:43:24.792822  9594 net.cpp:91] Creating Layer inception_5a/relu_3x3_reduce
I0403 19:43:24.792837  9594 net.cpp:425] inception_5a/relu_3x3_reduce <- inception_5a/3x3_reduce
I0403 19:43:24.792855  9594 net.cpp:386] inception_5a/relu_3x3_reduce -> inception_5a/3x3_reduce (in-place)
I0403 19:43:24.793036  9594 net.cpp:141] Setting up inception_5a/relu_3x3_reduce
I0403 19:43:24.793063  9594 net.cpp:148] Top shape: 24 160 7 7 (188160)
I0403 19:43:24.793079  9594 net.cpp:156] Memory required for data: 1296039456
I0403 19:43:24.793095  9594 layer_factory.hpp:77] Creating layer inception_5a/3x3
I0403 19:43:24.793118  9594 net.cpp:91] Creating Layer inception_5a/3x3
I0403 19:43:24.793136  9594 net.cpp:425] inception_5a/3x3 <- inception_5a/3x3_reduce
I0403 19:43:24.793159  9594 net.cpp:399] inception_5a/3x3 -> inception_5a/3x3
I0403 19:43:24.797972  9594 net.cpp:141] Setting up inception_5a/3x3
I0403 19:43:24.798002  9594 net.cpp:148] Top shape: 24 320 7 7 (376320)
I0403 19:43:24.798017  9594 net.cpp:156] Memory required for data: 1297544736
I0403 19:43:24.798034  9594 layer_factory.hpp:77] Creating layer inception_5a/relu_3x3
I0403 19:43:24.798051  9594 net.cpp:91] Creating Layer inception_5a/relu_3x3
I0403 19:43:24.798069  9594 net.cpp:425] inception_5a/relu_3x3 <- inception_5a/3x3
I0403 19:43:24.798089  9594 net.cpp:386] inception_5a/relu_3x3 -> inception_5a/3x3 (in-place)
I0403 19:43:24.798382  9594 net.cpp:141] Setting up inception_5a/relu_3x3
I0403 19:43:24.798409  9594 net.cpp:148] Top shape: 24 320 7 7 (376320)
I0403 19:43:24.798424  9594 net.cpp:156] Memory required for data: 1299050016
I0403 19:43:24.798439  9594 layer_factory.hpp:77] Creating layer inception_5a/5x5_reduce
I0403 19:43:24.798466  9594 net.cpp:91] Creating Layer inception_5a/5x5_reduce
I0403 19:43:24.798491  9594 net.cpp:425] inception_5a/5x5_reduce <- pool4/3x3_s2_pool4/3x3_s2_0_split_2
I0403 19:43:24.798513  9594 net.cpp:399] inception_5a/5x5_reduce -> inception_5a/5x5_reduce
I0403 19:43:24.799669  9594 net.cpp:141] Setting up inception_5a/5x5_reduce
I0403 19:43:24.799700  9594 net.cpp:148] Top shape: 24 32 7 7 (37632)
I0403 19:43:24.799717  9594 net.cpp:156] Memory required for data: 1299200544
I0403 19:43:24.799736  9594 layer_factory.hpp:77] Creating layer inception_5a/relu_5x5_reduce
I0403 19:43:24.799756  9594 net.cpp:91] Creating Layer inception_5a/relu_5x5_reduce
I0403 19:43:24.799772  9594 net.cpp:425] inception_5a/relu_5x5_reduce <- inception_5a/5x5_reduce
I0403 19:43:24.799789  9594 net.cpp:386] inception_5a/relu_5x5_reduce -> inception_5a/5x5_reduce (in-place)
I0403 19:43:24.800071  9594 net.cpp:141] Setting up inception_5a/relu_5x5_reduce
I0403 19:43:24.800096  9594 net.cpp:148] Top shape: 24 32 7 7 (37632)
I0403 19:43:24.800110  9594 net.cpp:156] Memory required for data: 1299351072
I0403 19:43:24.800125  9594 layer_factory.hpp:77] Creating layer inception_5a/5x5
I0403 19:43:24.800146  9594 net.cpp:91] Creating Layer inception_5a/5x5
I0403 19:43:24.800163  9594 net.cpp:425] inception_5a/5x5 <- inception_5a/5x5_reduce
I0403 19:43:24.800184  9594 net.cpp:399] inception_5a/5x5 -> inception_5a/5x5
I0403 19:43:24.801818  9594 net.cpp:141] Setting up inception_5a/5x5
I0403 19:43:24.801858  9594 net.cpp:148] Top shape: 24 128 7 7 (150528)
I0403 19:43:24.801874  9594 net.cpp:156] Memory required for data: 1299953184
I0403 19:43:24.801890  9594 layer_factory.hpp:77] Creating layer inception_5a/relu_5x5
I0403 19:43:24.801908  9594 net.cpp:91] Creating Layer inception_5a/relu_5x5
I0403 19:43:24.801923  9594 net.cpp:425] inception_5a/relu_5x5 <- inception_5a/5x5
I0403 19:43:24.801944  9594 net.cpp:386] inception_5a/relu_5x5 -> inception_5a/5x5 (in-place)
I0403 19:43:24.802121  9594 net.cpp:141] Setting up inception_5a/relu_5x5
I0403 19:43:24.802147  9594 net.cpp:148] Top shape: 24 128 7 7 (150528)
I0403 19:43:24.802162  9594 net.cpp:156] Memory required for data: 1300555296
I0403 19:43:24.802176  9594 layer_factory.hpp:77] Creating layer inception_5a/pool
I0403 19:43:24.802196  9594 net.cpp:91] Creating Layer inception_5a/pool
I0403 19:43:24.802212  9594 net.cpp:425] inception_5a/pool <- pool4/3x3_s2_pool4/3x3_s2_0_split_3
I0403 19:43:24.802232  9594 net.cpp:399] inception_5a/pool -> inception_5a/pool
I0403 19:43:24.802299  9594 net.cpp:141] Setting up inception_5a/pool
I0403 19:43:24.802320  9594 net.cpp:148] Top shape: 24 832 7 7 (978432)
I0403 19:43:24.802335  9594 net.cpp:156] Memory required for data: 1304469024
I0403 19:43:24.802350  9594 layer_factory.hpp:77] Creating layer inception_5a/pool_proj
I0403 19:43:24.802371  9594 net.cpp:91] Creating Layer inception_5a/pool_proj
I0403 19:43:24.802388  9594 net.cpp:425] inception_5a/pool_proj <- inception_5a/pool
I0403 19:43:24.802409  9594 net.cpp:399] inception_5a/pool_proj -> inception_5a/pool_proj
I0403 19:43:24.804618  9594 net.cpp:141] Setting up inception_5a/pool_proj
I0403 19:43:24.804649  9594 net.cpp:148] Top shape: 24 128 7 7 (150528)
I0403 19:43:24.804666  9594 net.cpp:156] Memory required for data: 1305071136
I0403 19:43:24.804685  9594 layer_factory.hpp:77] Creating layer inception_5a/relu_pool_proj
I0403 19:43:24.804703  9594 net.cpp:91] Creating Layer inception_5a/relu_pool_proj
I0403 19:43:24.804719  9594 net.cpp:425] inception_5a/relu_pool_proj <- inception_5a/pool_proj
I0403 19:43:24.804738  9594 net.cpp:386] inception_5a/relu_pool_proj -> inception_5a/pool_proj (in-place)
I0403 19:43:24.805021  9594 net.cpp:141] Setting up inception_5a/relu_pool_proj
I0403 19:43:24.805048  9594 net.cpp:148] Top shape: 24 128 7 7 (150528)
I0403 19:43:24.805063  9594 net.cpp:156] Memory required for data: 1305673248
I0403 19:43:24.805078  9594 layer_factory.hpp:77] Creating layer inception_5a/output
I0403 19:43:24.805095  9594 net.cpp:91] Creating Layer inception_5a/output
I0403 19:43:24.805110  9594 net.cpp:425] inception_5a/output <- inception_5a/1x1
I0403 19:43:24.805126  9594 net.cpp:425] inception_5a/output <- inception_5a/3x3
I0403 19:43:24.805142  9594 net.cpp:425] inception_5a/output <- inception_5a/5x5
I0403 19:43:24.805158  9594 net.cpp:425] inception_5a/output <- inception_5a/pool_proj
I0403 19:43:24.805177  9594 net.cpp:399] inception_5a/output -> inception_5a/output
I0403 19:43:24.805225  9594 net.cpp:141] Setting up inception_5a/output
I0403 19:43:24.805248  9594 net.cpp:148] Top shape: 24 832 7 7 (978432)
I0403 19:43:24.805263  9594 net.cpp:156] Memory required for data: 1309586976
I0403 19:43:24.805279  9594 layer_factory.hpp:77] Creating layer inception_5a/output_inception_5a/output_0_split
I0403 19:43:24.805299  9594 net.cpp:91] Creating Layer inception_5a/output_inception_5a/output_0_split
I0403 19:43:24.805315  9594 net.cpp:425] inception_5a/output_inception_5a/output_0_split <- inception_5a/output
I0403 19:43:24.805333  9594 net.cpp:399] inception_5a/output_inception_5a/output_0_split -> inception_5a/output_inception_5a/output_0_split_0
I0403 19:43:24.805352  9594 net.cpp:399] inception_5a/output_inception_5a/output_0_split -> inception_5a/output_inception_5a/output_0_split_1
I0403 19:43:24.805371  9594 net.cpp:399] inception_5a/output_inception_5a/output_0_split -> inception_5a/output_inception_5a/output_0_split_2
I0403 19:43:24.805393  9594 net.cpp:399] inception_5a/output_inception_5a/output_0_split -> inception_5a/output_inception_5a/output_0_split_3
I0403 19:43:24.805515  9594 net.cpp:141] Setting up inception_5a/output_inception_5a/output_0_split
I0403 19:43:24.805539  9594 net.cpp:148] Top shape: 24 832 7 7 (978432)
I0403 19:43:24.805555  9594 net.cpp:148] Top shape: 24 832 7 7 (978432)
I0403 19:43:24.805570  9594 net.cpp:148] Top shape: 24 832 7 7 (978432)
I0403 19:43:24.805585  9594 net.cpp:148] Top shape: 24 832 7 7 (978432)
I0403 19:43:24.805598  9594 net.cpp:156] Memory required for data: 1325241888
I0403 19:43:24.805611  9594 layer_factory.hpp:77] Creating layer inception_5b/1x1
I0403 19:43:24.805634  9594 net.cpp:91] Creating Layer inception_5b/1x1
I0403 19:43:24.805650  9594 net.cpp:425] inception_5b/1x1 <- inception_5a/output_inception_5a/output_0_split_0
I0403 19:43:24.805671  9594 net.cpp:399] inception_5b/1x1 -> inception_5b/1x1
I0403 19:43:24.809319  9594 net.cpp:141] Setting up inception_5b/1x1
I0403 19:43:24.809351  9594 net.cpp:148] Top shape: 24 384 7 7 (451584)
I0403 19:43:24.809367  9594 net.cpp:156] Memory required for data: 1327048224
I0403 19:43:24.809386  9594 layer_factory.hpp:77] Creating layer inception_5b/relu_1x1
I0403 19:43:24.809404  9594 net.cpp:91] Creating Layer inception_5b/relu_1x1
I0403 19:43:24.809420  9594 net.cpp:425] inception_5b/relu_1x1 <- inception_5b/1x1
I0403 19:43:24.809438  9594 net.cpp:386] inception_5b/relu_1x1 -> inception_5b/1x1 (in-place)
I0403 19:43:24.809752  9594 net.cpp:141] Setting up inception_5b/relu_1x1
I0403 19:43:24.809780  9594 net.cpp:148] Top shape: 24 384 7 7 (451584)
I0403 19:43:24.809795  9594 net.cpp:156] Memory required for data: 1328854560
I0403 19:43:24.809810  9594 layer_factory.hpp:77] Creating layer inception_5b/3x3_reduce
I0403 19:43:24.809833  9594 net.cpp:91] Creating Layer inception_5b/3x3_reduce
I0403 19:43:24.809849  9594 net.cpp:425] inception_5b/3x3_reduce <- inception_5a/output_inception_5a/output_0_split_1
I0403 19:43:24.809871  9594 net.cpp:399] inception_5b/3x3_reduce -> inception_5b/3x3_reduce
I0403 19:43:24.812433  9594 net.cpp:141] Setting up inception_5b/3x3_reduce
I0403 19:43:24.812474  9594 net.cpp:148] Top shape: 24 192 7 7 (225792)
I0403 19:43:24.812494  9594 net.cpp:156] Memory required for data: 1329757728
I0403 19:43:24.812511  9594 layer_factory.hpp:77] Creating layer inception_5b/relu_3x3_reduce
I0403 19:43:24.812530  9594 net.cpp:91] Creating Layer inception_5b/relu_3x3_reduce
I0403 19:43:24.812558  9594 net.cpp:425] inception_5b/relu_3x3_reduce <- inception_5b/3x3_reduce
I0403 19:43:24.812577  9594 net.cpp:386] inception_5b/relu_3x3_reduce -> inception_5b/3x3_reduce (in-place)
I0403 19:43:24.812757  9594 net.cpp:141] Setting up inception_5b/relu_3x3_reduce
I0403 19:43:24.812783  9594 net.cpp:148] Top shape: 24 192 7 7 (225792)
I0403 19:43:24.812798  9594 net.cpp:156] Memory required for data: 1330660896
I0403 19:43:24.812811  9594 layer_factory.hpp:77] Creating layer inception_5b/3x3
I0403 19:43:24.812832  9594 net.cpp:91] Creating Layer inception_5b/3x3
I0403 19:43:24.812851  9594 net.cpp:425] inception_5b/3x3 <- inception_5b/3x3_reduce
I0403 19:43:24.812873  9594 net.cpp:399] inception_5b/3x3 -> inception_5b/3x3
I0403 19:43:24.819257  9594 net.cpp:141] Setting up inception_5b/3x3
I0403 19:43:24.819288  9594 net.cpp:148] Top shape: 24 384 7 7 (451584)
I0403 19:43:24.819303  9594 net.cpp:156] Memory required for data: 1332467232
I0403 19:43:24.819321  9594 layer_factory.hpp:77] Creating layer inception_5b/relu_3x3
I0403 19:43:24.819339  9594 net.cpp:91] Creating Layer inception_5b/relu_3x3
I0403 19:43:24.819355  9594 net.cpp:425] inception_5b/relu_3x3 <- inception_5b/3x3
I0403 19:43:24.819375  9594 net.cpp:386] inception_5b/relu_3x3 -> inception_5b/3x3 (in-place)
I0403 19:43:24.819661  9594 net.cpp:141] Setting up inception_5b/relu_3x3
I0403 19:43:24.819689  9594 net.cpp:148] Top shape: 24 384 7 7 (451584)
I0403 19:43:24.819705  9594 net.cpp:156] Memory required for data: 1334273568
I0403 19:43:24.819720  9594 layer_factory.hpp:77] Creating layer inception_5b/5x5_reduce
I0403 19:43:24.819757  9594 net.cpp:91] Creating Layer inception_5b/5x5_reduce
I0403 19:43:24.819777  9594 net.cpp:425] inception_5b/5x5_reduce <- inception_5a/output_inception_5a/output_0_split_2
I0403 19:43:24.819795  9594 net.cpp:399] inception_5b/5x5_reduce -> inception_5b/5x5_reduce
I0403 19:43:24.821038  9594 net.cpp:141] Setting up inception_5b/5x5_reduce
I0403 19:43:24.821068  9594 net.cpp:148] Top shape: 24 48 7 7 (56448)
I0403 19:43:24.821082  9594 net.cpp:156] Memory required for data: 1334499360
I0403 19:43:24.821100  9594 layer_factory.hpp:77] Creating layer inception_5b/relu_5x5_reduce
I0403 19:43:24.821117  9594 net.cpp:91] Creating Layer inception_5b/relu_5x5_reduce
I0403 19:43:24.821133  9594 net.cpp:425] inception_5b/relu_5x5_reduce <- inception_5b/5x5_reduce
I0403 19:43:24.821152  9594 net.cpp:386] inception_5b/relu_5x5_reduce -> inception_5b/5x5_reduce (in-place)
I0403 19:43:24.821513  9594 net.cpp:141] Setting up inception_5b/relu_5x5_reduce
I0403 19:43:24.821539  9594 net.cpp:148] Top shape: 24 48 7 7 (56448)
I0403 19:43:24.821554  9594 net.cpp:156] Memory required for data: 1334725152
I0403 19:43:24.821568  9594 layer_factory.hpp:77] Creating layer inception_5b/5x5
I0403 19:43:24.821588  9594 net.cpp:91] Creating Layer inception_5b/5x5
I0403 19:43:24.821605  9594 net.cpp:425] inception_5b/5x5 <- inception_5b/5x5_reduce
I0403 19:43:24.821624  9594 net.cpp:399] inception_5b/5x5 -> inception_5b/5x5
I0403 19:43:24.823578  9594 net.cpp:141] Setting up inception_5b/5x5
I0403 19:43:24.823606  9594 net.cpp:148] Top shape: 24 128 7 7 (150528)
I0403 19:43:24.823621  9594 net.cpp:156] Memory required for data: 1335327264
I0403 19:43:24.823638  9594 layer_factory.hpp:77] Creating layer inception_5b/relu_5x5
I0403 19:43:24.823655  9594 net.cpp:91] Creating Layer inception_5b/relu_5x5
I0403 19:43:24.823671  9594 net.cpp:425] inception_5b/relu_5x5 <- inception_5b/5x5
I0403 19:43:24.823691  9594 net.cpp:386] inception_5b/relu_5x5 -> inception_5b/5x5 (in-place)
I0403 19:43:24.823875  9594 net.cpp:141] Setting up inception_5b/relu_5x5
I0403 19:43:24.823900  9594 net.cpp:148] Top shape: 24 128 7 7 (150528)
I0403 19:43:24.823915  9594 net.cpp:156] Memory required for data: 1335929376
I0403 19:43:24.823930  9594 layer_factory.hpp:77] Creating layer inception_5b/pool
I0403 19:43:24.823948  9594 net.cpp:91] Creating Layer inception_5b/pool
I0403 19:43:24.823966  9594 net.cpp:425] inception_5b/pool <- inception_5a/output_inception_5a/output_0_split_3
I0403 19:43:24.823984  9594 net.cpp:399] inception_5b/pool -> inception_5b/pool
I0403 19:43:24.824054  9594 net.cpp:141] Setting up inception_5b/pool
I0403 19:43:24.824079  9594 net.cpp:148] Top shape: 24 832 7 7 (978432)
I0403 19:43:24.824092  9594 net.cpp:156] Memory required for data: 1339843104
I0403 19:43:24.824106  9594 layer_factory.hpp:77] Creating layer inception_5b/pool_proj
I0403 19:43:24.824126  9594 net.cpp:91] Creating Layer inception_5b/pool_proj
I0403 19:43:24.824144  9594 net.cpp:425] inception_5b/pool_proj <- inception_5b/pool
I0403 19:43:24.824164  9594 net.cpp:399] inception_5b/pool_proj -> inception_5b/pool_proj
I0403 19:43:24.826405  9594 net.cpp:141] Setting up inception_5b/pool_proj
I0403 19:43:24.826434  9594 net.cpp:148] Top shape: 24 128 7 7 (150528)
I0403 19:43:24.826450  9594 net.cpp:156] Memory required for data: 1340445216
I0403 19:43:24.826473  9594 layer_factory.hpp:77] Creating layer inception_5b/relu_pool_proj
I0403 19:43:24.826491  9594 net.cpp:91] Creating Layer inception_5b/relu_pool_proj
I0403 19:43:24.826508  9594 net.cpp:425] inception_5b/relu_pool_proj <- inception_5b/pool_proj
I0403 19:43:24.826527  9594 net.cpp:386] inception_5b/relu_pool_proj -> inception_5b/pool_proj (in-place)
I0403 19:43:24.826812  9594 net.cpp:141] Setting up inception_5b/relu_pool_proj
I0403 19:43:24.826839  9594 net.cpp:148] Top shape: 24 128 7 7 (150528)
I0403 19:43:24.826854  9594 net.cpp:156] Memory required for data: 1341047328
I0403 19:43:24.826869  9594 layer_factory.hpp:77] Creating layer inception_5b/output
I0403 19:43:24.826885  9594 net.cpp:91] Creating Layer inception_5b/output
I0403 19:43:24.826915  9594 net.cpp:425] inception_5b/output <- inception_5b/1x1
I0403 19:43:24.826933  9594 net.cpp:425] inception_5b/output <- inception_5b/3x3
I0403 19:43:24.826951  9594 net.cpp:425] inception_5b/output <- inception_5b/5x5
I0403 19:43:24.826966  9594 net.cpp:425] inception_5b/output <- inception_5b/pool_proj
I0403 19:43:24.826982  9594 net.cpp:399] inception_5b/output -> inception_5b/output
I0403 19:43:24.827033  9594 net.cpp:141] Setting up inception_5b/output
I0403 19:43:24.827055  9594 net.cpp:148] Top shape: 24 1024 7 7 (1204224)
I0403 19:43:24.827070  9594 net.cpp:156] Memory required for data: 1345864224
I0403 19:43:24.827085  9594 layer_factory.hpp:77] Creating layer pool5/7x7_s1
I0403 19:43:24.827105  9594 net.cpp:91] Creating Layer pool5/7x7_s1
I0403 19:43:24.827121  9594 net.cpp:425] pool5/7x7_s1 <- inception_5b/output
I0403 19:43:24.827138  9594 net.cpp:399] pool5/7x7_s1 -> pool5/7x7_s1
I0403 19:43:24.827342  9594 net.cpp:141] Setting up pool5/7x7_s1
I0403 19:43:24.827368  9594 net.cpp:148] Top shape: 24 1024 1 1 (24576)
I0403 19:43:24.827383  9594 net.cpp:156] Memory required for data: 1345962528
I0403 19:43:24.827397  9594 layer_factory.hpp:77] Creating layer pool5/drop_7x7_s1
I0403 19:43:24.827414  9594 net.cpp:91] Creating Layer pool5/drop_7x7_s1
I0403 19:43:24.827430  9594 net.cpp:425] pool5/drop_7x7_s1 <- pool5/7x7_s1
I0403 19:43:24.827447  9594 net.cpp:386] pool5/drop_7x7_s1 -> pool5/7x7_s1 (in-place)
I0403 19:43:24.827502  9594 net.cpp:141] Setting up pool5/drop_7x7_s1
I0403 19:43:24.827527  9594 net.cpp:148] Top shape: 24 1024 1 1 (24576)
I0403 19:43:24.827543  9594 net.cpp:156] Memory required for data: 1346060832
I0403 19:43:24.827558  9594 layer_factory.hpp:77] Creating layer loss3/classifier_plantvillage
I0403 19:43:24.827575  9594 net.cpp:91] Creating Layer loss3/classifier_plantvillage
I0403 19:43:24.827591  9594 net.cpp:425] loss3/classifier_plantvillage <- pool5/7x7_s1
I0403 19:43:24.827611  9594 net.cpp:399] loss3/classifier_plantvillage -> loss3/classifier_plantvillage
I0403 19:43:24.828016  9594 net.cpp:141] Setting up loss3/classifier_plantvillage
I0403 19:43:24.828040  9594 net.cpp:148] Top shape: 24 38 (912)
I0403 19:43:24.828054  9594 net.cpp:156] Memory required for data: 1346064480
I0403 19:43:24.828073  9594 layer_factory.hpp:77] Creating layer loss3/classifier_plantvillage_loss3/classifier_plantvillage_0_split
I0403 19:43:24.828094  9594 net.cpp:91] Creating Layer loss3/classifier_plantvillage_loss3/classifier_plantvillage_0_split
I0403 19:43:24.828110  9594 net.cpp:425] loss3/classifier_plantvillage_loss3/classifier_plantvillage_0_split <- loss3/classifier_plantvillage
I0403 19:43:24.828127  9594 net.cpp:399] loss3/classifier_plantvillage_loss3/classifier_plantvillage_0_split -> loss3/classifier_plantvillage_loss3/classifier_plantvillage_0_split_0
I0403 19:43:24.828146  9594 net.cpp:399] loss3/classifier_plantvillage_loss3/classifier_plantvillage_0_split -> loss3/classifier_plantvillage_loss3/classifier_plantvillage_0_split_1
I0403 19:43:24.828168  9594 net.cpp:399] loss3/classifier_plantvillage_loss3/classifier_plantvillage_0_split -> loss3/classifier_plantvillage_loss3/classifier_plantvillage_0_split_2
I0403 19:43:24.828191  9594 net.cpp:399] loss3/classifier_plantvillage_loss3/classifier_plantvillage_0_split -> loss3/classifier_plantvillage_loss3/classifier_plantvillage_0_split_3
I0403 19:43:24.828301  9594 net.cpp:141] Setting up loss3/classifier_plantvillage_loss3/classifier_plantvillage_0_split
I0403 19:43:24.828325  9594 net.cpp:148] Top shape: 24 38 (912)
I0403 19:43:24.828341  9594 net.cpp:148] Top shape: 24 38 (912)
I0403 19:43:24.828356  9594 net.cpp:148] Top shape: 24 38 (912)
I0403 19:43:24.828371  9594 net.cpp:148] Top shape: 24 38 (912)
I0403 19:43:24.828384  9594 net.cpp:156] Memory required for data: 1346079072
I0403 19:43:24.828399  9594 layer_factory.hpp:77] Creating layer loss1/loss
I0403 19:43:24.828423  9594 net.cpp:91] Creating Layer loss1/loss
I0403 19:43:24.828451  9594 net.cpp:425] loss1/loss <- loss1/classifier_plantvillage_loss1/classifier_plantvillage_0_split_0
I0403 19:43:24.828486  9594 net.cpp:425] loss1/loss <- label_data_1_split_0
…
