…
I0403 19:50:23.221590  9734 net.cpp:313] The NetState phase (1) differed from the phase (0) specified by a rule in layer data
I0403 19:50:23.223373  9734 net.cpp:49] Initializing net from parameters: 
state {
  phase: TEST
}
layer {
  name: "data"
  type: "Data"
  top: "data"
  top: "label"
  include {
    phase: TEST
  }
  transform_param {
    mirror: false
    crop_size: 224
    mean_file: "/home/mohanty/data/final_dataset/lmdb/color-60-40/mean.binaryproto"
  }
  data_param {
    source: "/home/mohanty/data/final_dataset/lmdb/color-60-40/test_db"
    batch_size: 24
    backend: LMDB
  }
}
layer {
  name: "conv1/7x7_s2"
  type: "Convolution"
  bottom: "data"
  top: "conv1/7x7_s2"
  param {
    lr_mult: 1
    decay_mult: 1
  }
  param {
    lr_mult: 2
    decay_mult: 0
  }
  convolution_param {
    num_output: 64
    pad: 3
    kernel_size: 7
    stride: 2
    weight_filler {
      type: "xavier"
      std: 0.1
    }
    bias_filler {
      type: "constant"
      value: 0.2
    }
  }
}
layer {
  name: "conv1/relu_7x7"
  type: "ReLU"
  bottom: "conv1/7x7_s2"
  top: "conv1/7x7_s2"
}
layer {
  name: "pool1/3x3_s2"
  type: "Pooling"
  bottom: "conv1/7x7_s2"
  top: "pool1/3x3_s2"
  pooling_param {
    pool: MAX
    kernel_size: 3
    stride: 2
  }
}
layer {
  name: "pool1/norm1"
  type: "LRN"
  bottom: "pool1/3x3_s2"
  top: "pool1/norm1"
  lrn_param {
    local_size: 5
    alpha: 0.0001
    beta: 0.75
  }
}
layer {
  name: "conv2/3x3_reduce"
  type: "Convolution"
  bottom: "pool1/norm1"
  top: "conv2/3x3_reduce"
  param {
    lr_mult: 1
    decay_mult: 1
  }
  param {
    lr_mult: 2
    decay_mult: 0
  }
  convolution_param {
    num_output: 64
    kernel_size: 1
    weight_filler {
      type: "xavier"
      std: 0.1
    }
    bias_filler {
      type: "constant"
      value: 0.2
    }
  }
}
layer {
  name: "conv2/relu_3x3_reduce"
  type: "ReLU"
  bottom: "conv2/3x3_reduce"
  top: "conv2/3x3_reduce"
}
layer {
  name: "conv2/3x3"
  type: "Convolution"
  bottom: "conv2/3x3_reduce"
  top: "conv2/3x3"
  param {
    lr_mult: 1
    decay_mult: 1
  }
  param {
    lr_mult: 2
    decay_mult: 0
  }
  convolution_param {
    num_output: 192
    pad: 1
    kernel_size: 3
    weight_filler {
      type: "xavier"
      std: 0.03
    }
    bias_filler {
      type: "constant"
      value: 0.2
    }
  }
}
layer {
  name: "conv2/relu_3x3"
  type: "ReLU"
  bottom: "conv2/3x3"
  top: "conv2/3x3"
}
layer {
  name: "conv2/norm2"
  type: "LRN"
  bottom: "conv2/3x3"
  top: "conv2/norm2"
  lrn_param {
    local_size: 5
    alpha: 0.0001
    beta: 0.75
  }
}
layer {
  name: "pool2/3x3_s2"
  type: "Pooling"
  bottom: "conv2/norm2"
  top: "pool2/3x3_s2"
  pooling_param {
    pool: MAX
    kernel_size: 3
    stride: 2
  }
}
layer {
  name: "inception_3a/1x1"
  type: "Convolution"
  bottom: "pool2/3x3_s2"
  top: "inception_3a/1x1"
  param {
    lr_mult: 1
    decay_mult: 1
  }
  param {
    lr_mult: 2
    decay_mult: 0
  }
  convolution_param {
    num_output: 64
    kernel_size: 1
    weight_filler {
      type: "xavier"
      std: 0.03
    }
    bias_filler {
      type: "constant"
      value: 0.2
    }
  }
}
layer {
  name: "inception_3a/relu_1x1"
  type: "ReLU"
  bottom: "inception_3a/1x1"
  top: "inception_3a/1x1"
}
layer {
  name: "inception_3a/3x3_reduce"
  type: "Convolution"
  bottom: "pool2/3x3_s2"
  top: "inception_3a/3x3_reduce"
  param {
    lr_mult: 1
    decay_mult: 1
  }
  param {
    lr_mult: 2
    decay_mult: 0
  }
  convolution_param {
    num_output: 96
    kernel_size: 1
    weight_filler {
      type: "xavier"
      std: 0.09
    }
    bias_filler {
      type: "constant"
      value: 0.2
    }
  }
}
layer {
  name: "inception_3a/relu_3x3_reduce"
  type: "ReLU"
  bottom: "inception_3a/3x3_reduce"
  top: "inception_3a/3x3_reduce"
}
layer {
  name: "inception_3a/3x3"
  type: "Convolution"
  bottom: "inception_3a/3x3_reduce"
  top: "inception_3a/3x3"
  param {
    lr_mult: 1
    decay_mult: 1
  }
  param {
    lr_mult: 2
    decay_mult: 0
  }
  convolution_param {
    num_output: 128
    pad: 1
    kernel_size: 3
    weight_filler {
      type: "xavier"
      std: 0.03
    }
    bias_filler {
      type: "constant"
      value: 0.2
    }
  }
}
layer {
  name: "inception_3a/relu_3x3"
  type: "ReLU"
  bottom: "inception_3a/3x3"
  top: "inception_3a/3x3"
}
layer {
  name: "inception_3a/5x5_reduce"
  type: "Convolution"
  bottom: "pool2/3x3_s2"
  top: "inception_3a/5x5_reduce"
  param {
    lr_mult: 1
    decay_mult: 1
  }
  param {
    lr_mult: 2
    decay_mult: 0
  }
  convolution_param {
    num_output: 16
    kernel_size: 1
    weight_filler {
      type: "xavier"
      std: 0.2
    }
    bias_filler {
      type: "constant"
      value: 0.2
    }
  }
}
layer {
  name: "inception_3a/relu_5x5_reduce"
  type: "ReLU"
  bottom: "inception_3a/5x5_reduce"
  top: "inception_3a/5x5_reduce"
}
layer {
  name: "inception_3a/5x5"
  type: "Convolution"
  bottom: "inception_3a/5x5_reduce"
  top: "inception_3a/5x5"
  param {
    lr_mult: 1
    decay_mult: 1
  }
  param {
    lr_mult: 2
    decay_mult: 0
  }
  convolution_param {
    num_output: 32
    pad: 2
    kernel_size: 5
    weight_filler {
      type: "xavier"
      std: 0.03
    }
    bias_filler {
      type: "constant"
      value: 0.2
    }
  }
}
layer {
  name: "inception_3a/relu_5x5"
  type: "ReLU"
  bottom: "inception_3a/5x5"
  top: "inception_3a/5x5"
}
layer {
  name: "inception_3a/pool"
  type: "Pooling"
  bottom: "pool2/3x3_s2"
  top: "inception_3a/pool"
  pooling_param {
    pool: MAX
    kernel_size: 3
    stride: 1
    pad: 1
  }
}
layer {
  name: "inception_3a/pool_proj"
  type: "Convolution"
  bottom: "inception_3a/pool"
  top: "inception_3a/pool_proj"
  param {
    lr_mult: 1
    decay_mult: 1
  }
  param {
    lr_mult: 2
    decay_mult: 0
  }
  convolution_param {
    num_output: 32
    kernel_size: 1
    weight_filler {
      type: "xavier"
      std: 0.1
    }
    bias_filler {
      type: "constant"
      value: 0.2
    }
  }
}
layer {
  name: "inception_3a/relu_pool_proj"
  type: "ReLU"
  bottom: "inception_3a/pool_proj"
  top: "inception_3a/pool_proj"
}
layer {
  name: "inception_3a/output"
  type: "Concat"
  bottom: "inception_3a/1x1"
  bottom: "inception_3a/3x3"
  bottom: "inception_3a/5x5"
  bottom: "inception_3a/pool_proj"
  top: "inception_3a/output"
}
layer {
  name: "inception_3b/1x1"
  type: "Convolution"
  bottom: "inception_3a/output"
  top: "inception_3b/1x1"
  param {
    lr_mult: 1
    decay_mult: 1
  }
  param {
    lr_mult: 2
    decay_mult: 0
  }
  convolution_param {
    num_output: 128
    kernel_size: 1
    weight_filler {
      type: "xavier"
      std: 0.03
    }
    bias_filler {
      type: "constant"
      value: 0.2
    }
  }
}
layer {
  name: "inception_3b/relu_1x1"
  type: "ReLU"
  bottom: "inception_3b/1x1"
  top: "inception_3b/1x1"
}
layer {
  name: "inception_3b/3x3_reduce"
  type: "Convolution"
  bottom: "inception_3a/output"
  top: "inception_3b/3x3_reduce"
  param {
    lr_mult: 1
    decay_mult: 1
  }
  param {
    lr_mult: 2
    decay_mult: 0
  }
  convolution_param {
    num_output: 128
    kernel_size: 1
    weight_filler {
      type: "xavier"
      std: 0.09
    }
    bias_filler {
      type: "constant"
      value: 0.2
    }
  }
}
layer {
  name: "inception_3b/relu_3x3_reduce"
  type: "ReLU"
  bottom: "inception_3b/3x3_reduce"
  top: "inception_3b/3x3_reduce"
}
layer {
  name: "inception_3b/3x3"
  type: "Convolution"
  bottom: "inception_3b/3x3_reduce"
  top: "inception_3b/3x3"
  param {
    lr_mult: 1
    decay_mult: 1
  }
  param {
    lr_mult: 2
    decay_mult: 0
  }
  convolution_param {
    num_output: 192
    pad: 1
    kernel_size: 3
    weight_filler {
      type: "xavier"
      std: 0.03
    }
    bias_filler {
      type: "constant"
      value: 0.2
    }
  }
}
layer {
  name: "inception_3b/relu_3x3"
  type: "ReLU"
  bottom: "inception_3b/3x3"
  top: "inception_3b/3x3"
}
layer {
  name: "inception_3b/5x5_reduce"
  type: "Convolution"
  bottom: "inception_3a/output"
  top: "inception_3b/5x5_reduce"
  param {
    lr_mult: 1
    decay_mult: 1
  }
  param {
    lr_mult: 2
    decay_mult: 0
  }
  convolution_param {
    num_output: 32
    kernel_size: 1
    weight_filler {
      type: "xavier"
      std: 0.2
    }
    bias_filler {
      type: "constant"
      value: 0.2
    }
  }
}
layer {
  name: "inception_3b/relu_5x5_reduce"
  type: "ReLU"
  bottom: "inception_3b/5x5_reduce"
  top: "inception_3b/5x5_reduce"
}
layer {
  name: "inception_3b/5x5"
  type: "Convolution"
  bottom: "inception_3b/5x5_reduce"
  top: "inception_3b/5x5"
  param {
    lr_mult: 1
    decay_mult: 1
  }
  param {
    lr_mult: 2
    decay_mult: 0
  }
  convolution_param {
    num_output: 96
    pad: 2
    kernel_size: 5
    weight_filler {
      type: "xavier"
      std: 0.03
    }
    bias_filler {
      type: "constant"
      value: 0.2
    }
  }
}
layer {
  name: "inception_3b/relu_5x5"
  type: "ReLU"
  bottom: "inception_3b/5x5"
  top: "inception_3b/5x5"
}
layer {
  name: "inception_3b/pool"
  type: "Pooling"
  bottom: "inception_3a/output"
  top: "inception_3b/pool"
  pooling_param {
    pool: MAX
    kernel_size: 3
    stride: 1
    pad: 1
  }
}
layer {
  name: "inception_3b/pool_proj"
  type: "Convolution"
  bottom: "inception_3b/pool"
  top: "inception_3b/pool_proj"
  param {
    lr_mult: 1
    decay_mult: 1
  }
  param {
    lr_mult: 2
    decay_mult: 0
  }
  convolution_param {
    num_output: 64
    kernel_size: 1
    weight_filler {
      type: "xavier"
      std: 0.1
    }
    bias_filler {
      type: "constant"
      value: 0.2
    }
  }
}
layer {
  name: "inception_3b/relu_pool_proj"
  type: "ReLU"
  bottom: "inception_3b/pool_proj"
  top: "inception_3b/pool_proj"
}
layer {
  name: "inception_3b/output"
  type: "Concat"
  bottom: "inception_3b/1x1"
  bottom: "inception_3b/3x3"
  bottom: "inception_3b/5x5"
  bottom: "inception_3b/pool_proj"
  top: "inception_3b/output"
}
layer {
  name: "pool3/3x3_s2"
  type: "Pooling"
  bottom: "inception_3b/output"
  top: "pool3/3x3_s2"
  pooling_param {
    pool: MAX
    kernel_size: 3
    stride: 2
  }
}
layer {
  name: "inception_4a/1x1"
  type: "Convolution"
  bottom: "pool3/3x3_s2"
  top: "inception_4a/1x1"
  param {
    lr_mult: 1
    decay_mult: 1
  }
  param {
    lr_mult: 2
    decay_mult: 0
  }
  convolution_param {
    num_output: 192
    kernel_size: 1
    weight_filler {
      type: "xavier"
      std: 0.03
    }
    bias_filler {
      type: "constant"
      value: 0.2
    }
  }
}
layer {
  name: "inception_4a/relu_1x1"
  type: "ReLU"
  bottom: "inception_4a/1x1"
  top: "inception_4a/1x1"
}
layer {
  name: "inception_4a/3x3_reduce"
  type: "Convolution"
  bottom: "pool3/3x3_s2"
  top: "inception_4a/3x3_reduce"
  param {
    lr_mult: 1
    decay_mult: 1
  }
  param {
    lr_mult: 2
    decay_mult: 0
  }
  convolution_param {
    num_output: 96
    kernel_size: 1
    weight_filler {
      type: "xavier"
      std: 0.09
    }
    bias_filler {
      type: "constant"
      value: 0.2
    }
  }
}
layer {
  name: "inception_4a/relu_3x3_reduce"
  type: "ReLU"
  bottom: "inception_4a/3x3_reduce"
  top: "inception_4a/3x3_reduce"
}
layer {
  name: "inception_4a/3x3"
  type: "Convolution"
  bottom: "inception_4a/3x3_reduce"
  top: "inception_4a/3x3"
  param {
    lr_mult: 1
    decay_mult: 1
  }
  param {
    lr_mult: 2
    decay_mult: 0
  }
  convolution_param {
    num_output: 208
    pad: 1
    kernel_size: 3
    weight_filler {
      type: "xavier"
      std: 0.03
    }
    bias_filler {
      type: "constant"
      value: 0.2
    }
  }
}
layer {
  name: "inception_4a/relu_3x3"
  type: "ReLU"
  bottom: "inception_4a/3x3"
  top: "inception_4a/3x3"
}
layer {
  name: "inception_4a/5x5_reduce"
  type: "Convolution"
  bottom: "pool3/3x3_s2"
  top: "inception_4a/5x5_reduce"
  param {
    lr_mult: 1
    decay_mult: 1
  }
  param {
    lr_mult: 2
    decay_mult: 0
  }
  convolution_param {
    num_output: 16
    kernel_size: 1
    weight_filler {
      type: "xavier"
      std: 0.2
    }
    bias_filler {
      type: "constant"
      value: 0.2
    }
  }
}
layer {
  name: "inception_4a/relu_5x5_reduce"
  type: "ReLU"
  bottom: "inception_4a/5x5_reduce"
  top: "inception_4a/5x5_reduce"
}
layer {
  name: "inception_4a/5x5"
  type: "Convolution"
  bottom: "inception_4a/5x5_reduce"
  top: "inception_4a/5x5"
  param {
    lr_mult: 1
    decay_mult: 1
  }
  param {
    lr_mult: 2
    decay_mult: 0
  }
  convolution_param {
    num_output: 48
    pad: 2
    kernel_size: 5
    weight_filler {
      type: "xavier"
      std: 0.03
    }
    bias_filler {
      type: "constant"
      value: 0.2
    }
  }
}
layer {
  name: "inception_4a/relu_5x5"
  type: "ReLU"
  bottom: "inception_4a/5x5"
  top: "inception_4a/5x5"
}
layer {
  name: "inception_4a/pool"
  type: "Pooling"
  bottom: "pool3/3x3_s2"
  top: "inception_4a/pool"
  pooling_param {
    pool: MAX
    kernel_size: 3
    stride: 1
    pad: 1
  }
}
layer {
  name: "inception_4a/pool_proj"
  type: "Convolution"
  bottom: "inception_4a/pool"
  top: "inception_4a/pool_proj"
  param {
    lr_mult: 1
    decay_mult: 1
  }
  param {
    lr_mult: 2
    decay_mult: 0
  }
  convolution_param {
    num_output: 64
    kernel_size: 1
    weight_filler {
      type: "xavier"
      std: 0.1
    }
    bias_filler {
      type: "constant"
      value: 0.2
    }
  }
}
layer {
  name: "inception_4a/relu_pool_proj"
  type: "ReLU"
  bottom: "inception_4a/pool_proj"
  top: "inception_4a/pool_proj"
}
layer {
  name: "inception_4a/output"
  type: "Concat"
  bottom: "inception_4a/1x1"
  bottom: "inception_4a/3x3"
  bottom: "inception_4a/5x5"
  bottom: "inception_4a/pool_proj"
  top: "inception_4a/output"
}
layer {
  name: "loss1/ave_pool"
  type: "Pooling"
  bottom: "inception_4a/output"
  top: "loss1/ave_pool"
  pooling_param {
    pool: AVE
    kernel_size: 5
    stride: 3
  }
}
layer {
  name: "loss1/conv"
  type: "Convolution"
  bottom: "loss1/ave_pool"
  top: "loss1/conv"
  param {
    lr_mult: 1
    decay_mult: 1
  }
  param {
    lr_mult: 2
    decay_mult: 0
  }
  convolution_param {
    num_output: 128
    kernel_size: 1
    weight_filler {
      type: "xavier"
      std: 0.08
    }
    bias_filler {
      type: "constant"
      value: 0.2
    }
  }
}
layer {
  name: "loss1/relu_conv"
  type: "ReLU"
  bottom: "loss1/conv"
  top: "loss1/conv"
}
layer {
  name: "loss1/fc"
  type: "InnerProduct"
  bottom: "loss1/conv"
  top: "loss1/fc"
  param {
    lr_mult: 1
    decay_mult: 1
  }
  param {
    lr_mult: 2
    decay_mult: 0
  }
  inner_product_param {
    num_output: 1024
    weight_filler {
      type: "xavier"
      std: 0.02
    }
    bias_filler {
      type: "constant"
      value: 0.2
    }
  }
}
layer {
  name: "loss1/relu_fc"
  type: "ReLU"
  bottom: "loss1/fc"
  top: "loss1/fc"
}
layer {
  name: "loss1/drop_fc"
  type: "Dropout"
  bottom: "loss1/fc"
  top: "loss1/fc"
  dropout_param {
    dropout_ratio: 0.7
  }
}
layer {
  name: "loss1/classifier_plantvillage"
  type: "InnerProduct"
  bottom: "loss1/fc"
  top: "loss1/classifier_plantvillage"
  param {
    lr_mult: 1
    decay_mult: 1
  }
  param {
    lr_mult: 2
    decay_mult: 0
  }
  inner_product_param {
    num_output: 38
    weight_filler {
      type: "xavier"
      std: 0.0009765625
    }
    bias_filler {
      type: "constant"
      value: 0
    }
  }
}
layer {
  name: "inception_4b/1x1"
  type: "Convolution"
  bottom: "inception_4a/output"
  top: "inception_4b/1x1"
  param {
    lr_mult: 1
    decay_mult: 1
  }
  param {
    lr_mult: 2
    decay_mult: 0
  }
  convolution_param {
    num_output: 160
    kernel_size: 1
    weight_filler {
      type: "xavier"
      std: 0.03
    }
    bias_filler {
      type: "constant"
      value: 0.2
    }
  }
}
layer {
  name: "inception_4b/relu_1x1"
  type: "ReLU"
  bottom: "inception_4b/1x1"
  top: "inception_4b/1x1"
}
layer {
  name: "inception_4b/3x3_reduce"
  type: "Convolution"
  bottom: "inception_4a/output"
  top: "inception_4b/3x3_reduce"
  param {
    lr_mult: 1
    decay_mult: 1
  }
  param {
    lr_mult: 2
    decay_mult: 0
  }
  convolution_param {
    num_output: 112
    kernel_size: 1
    weight_filler {
      type: "xavier"
      std: 0.09
    }
    bias_filler {
      type: "constant"
      value: 0.2
    }
  }
}
layer {
  name: "inception_4b/relu_3x3_reduce"
  type: "ReLU"
  bottom: "inception_4b/3x3_reduce"
  top: "inception_4b/3x3_reduce"
}
layer {
  name: "inception_4b/3x3"
  type: "Convolution"
  bottom: "inception_4b/3x3_reduce"
  top: "inception_4b/3x3"
  param {
    lr_mult: 1
    decay_mult: 1
  }
  param {
    lr_mult: 2
    decay_mult: 0
  }
  convolution_param {
    num_output: 224
    pad: 1
    kernel_size: 3
    weight_filler {
      type: "xavier"
      std: 0.03
    }
    bias_filler {
      type: "constant"
      value: 0.2
    }
  }
}
layer {
  name: "inception_4b/relu_3x3"
  type: "ReLU"
  bottom: "inception_4b/3x3"
  top: "inception_4b/3x3"
}
layer {
  name: "inception_4b/5x5_reduce"
  type: "Convolution"
  bottom: "inception_4a/output"
  top: "inception_4b/5x5_reduce"
  param {
    lr_mult: 1
    decay_mult: 1
  }
  param {
    lr_mult: 2
    decay_mult: 0
  }
  convolution_param {
    num_output: 24
    kernel_size: 1
    weight_filler {
      type: "xavier"
      std: 0.2
    }
    bias_filler {
      type: "constant"
      value: 0.2
    }
  }
}
layer {
  name: "inception_4b/relu_5x5_reduce"
  type: "ReLU"
  bottom: "inception_4b/5x5_reduce"
  top: "inception_4b/5x5_reduce"
}
layer {
  name: "inception_4b/5x5"
  type: "Convolution"
  bottom: "inception_4b/5x5_reduce"
  top: "inception_4b/5x5"
  param {
    lr_mult: 1
    decay_mult: 1
  }
  param {
    lr_mult: 2
    decay_mult: 0
  }
  convolution_param {
    num_output: 64
    pad: 2
    kernel_size: 5
    weight_filler {
      type: "xavier"
      std: 0.03
    }
    bias_filler {
      type: "constant"
      value: 0.2
    }
  }
}
layer {
  name: "inception_4b/relu_5x5"
  type: "ReLU"
  bottom: "inception_4b/5x5"
  top: "inception_4b/5x5"
}
layer {
  name: "inception_4b/pool"
  type: "Pooling"
  bottom: "inception_4a/output"
  top: "inception_4b/pool"
  pooling_param {
    pool: MAX
    kernel_size: 3
    stride: 1
    pad: 1
  }
}
layer {
  name: "inception_4b/pool_proj"
  type: "Convolution"
  bottom: "inception_4b/pool"
  top: "inception_4b/pool_proj"
  param {
    lr_mult: 1
    decay_mult: 1
  }
  param {
    lr_mult: 2
    decay_mult: 0
  }
  convolution_param {
    num_output: 64
    kernel_size: 1
    weight_filler {
      type: "xavier"
      std: 0.1
    }
    bias_filler {
      type: "constant"
      value: 0.2
    }
  }
}
layer {
  name: "inception_4b/relu_pool_proj"
  type: "ReLU"
  bottom: "inception_4b/pool_proj"
  top: "inception_4b/pool_proj"
}
layer {
  name: "inception_4b/output"
  type: "Concat"
  bottom: "inception_4b/1x1"
  bottom: "inception_4b/3x3"
  bottom: "inception_4b/5x5"
  bottom: "inception_4b/pool_proj"
  top: "inception_4b/output"
}
layer {
  name: "inception_4c/1x1"
  type: "Convolution"
  bottom: "inception_4b/output"
  top: "inception_4c/1x1"
  param {
    lr_mult: 1
    decay_mult: 1
  }
  param {
    lr_mult: 2
    decay_mult: 0
  }
  convolution_param {
    num_output: 128
    kernel_size: 1
    weight_filler {
      type: "xavier"
      std: 0.03
    }
    bias_filler {
      type: "constant"
      value: 0.2
    }
  }
}
layer {
  name: "inception_4c/relu_1x1"
  type: "ReLU"
  bottom: "inception_4c/1x1"
  top: "inception_4c/1x1"
}
layer {
  name: "inception_4c/3x3_reduce"
  type: "Convolution"
  bottom: "inception_4b/output"
  top: "inception_4c/3x3_reduce"
  param {
    lr_mult: 1
    decay_mult: 1
  }
  param {
    lr_mult: 2
    decay_mult: 0
  }
  convolution_param {
    num_output: 128
    kernel_size: 1
    weight_filler {
      type: "xavier"
      std: 0.09
    }
    bias_filler {
      type: "constant"
      value: 0.2
    }
  }
}
layer {
  name: "inception_4c/relu_3x3_reduce"
  type: "ReLU"
  bottom: "inception_4c/3x3_reduce"
  top: "inception_4c/3x3_reduce"
}
layer {
  name: "inception_4c/3x3"
  type: "Convolution"
  bottom: "inception_4c/3x3_reduce"
  top: "inception_4c/3x3"
  param {
    lr_mult: 1
    decay_mult: 1
  }
  param {
    lr_mult: 2
    decay_mult: 0
  }
  convolution_param {
    num_output: 256
    pad: 1
    kernel_size: 3
    weight_filler {
      type: "xavier"
      std: 0.03
    }
    bias_filler {
      type: "constant"
      value: 0.2
    }
  }
}
layer {
  name: "inception_4c/relu_3x3"
  type: "ReLU"
  bottom: "inception_4c/3x3"
  top: "inception_4c/3x3"
}
layer {
  name: "inception_4c/5x5_reduce"
  type: "Convolution"
  bottom: "inception_4b/output"
  top: "inception_4c/5x5_reduce"
  param {
    lr_mult: 1
    decay_mult: 1
  }
  param {
    lr_mult: 2
    decay_mult: 0
  }
  convolution_param {
    num_output: 24
    kernel_size: 1
    weight_filler {
      type: "xavier"
      std: 0.2
    }
    bias_filler {
      type: "constant"
      value: 0.2
    }
  }
}
layer {
  name: "inception_4c/relu_5x5_reduce"
  type: "ReLU"
  bottom: "inception_4c/5x5_reduce"
  top: "inception_4c/5x5_reduce"
}
layer {
  name: "inception_4c/5x5"
  type: "Convolution"
  bottom: "inception_4c/5x5_reduce"
  top: "inception_4c/5x5"
  param {
    lr_mult: 1
    decay_mult: 1
  }
  param {
    lr_mult: 2
    decay_mult: 0
  }
  convolution_param {
    num_output: 64
    pad: 2
    kernel_size: 5
    weight_filler {
      type: "xavier"
      std: 0.03
    }
    bias_filler {
      type: "constant"
      value: 0.2
    }
  }
}
layer {
  name: "inception_4c/relu_5x5"
  type: "ReLU"
  bottom: "inception_4c/5x5"
  top: "inception_4c/5x5"
}
layer {
  name: "inception_4c/pool"
  type: "Pooling"
  bottom: "inception_4b/output"
  top: "inception_4c/pool"
  pooling_param {
    pool: MAX
    kernel_size: 3
    stride: 1
    pad: 1
  }
}
layer {
  name: "inception_4c/pool_proj"
  type: "Convolution"
  bottom: "inception_4c/pool"
  top: "inception_4c/pool_proj"
  param {
    lr_mult: 1
    decay_mult: 1
  }
  param {
    lr_mult: 2
    decay_mult: 0
  }
  convolution_param {
    num_output: 64
    kernel_size: 1
    weight_filler {
      type: "xavier"
      std: 0.1
    }
    bias_filler {
      type: "constant"
      value: 0.2
    }
  }
}
layer {
  name: "inception_4c/relu_pool_proj"
  type: "ReLU"
  bottom: "inception_4c/pool_proj"
  top: "inception_4c/pool_proj"
}
layer {
  name: "inception_4c/output"
  type: "Concat"
  bottom: "inception_4c/1x1"
  bottom: "inception_4c/3x3"
  bottom: "inception_4c/5x5"
  bottom: "inception_4c/pool_proj"
  top: "inception_4c/output"
}
layer {
  name: "inception_4d/1x1"
  type: "Convolution"
  bottom: "inception_4c/output"
  top: "inception_4d/1x1"
  param {
    lr_mult: 1
    decay_mult: 1
  }
  param {
    lr_mult: 2
    decay_mult: 0
  }
  convolution_param {
    num_output: 112
    kernel_size: 1
    weight_filler {
      type: "xavier"
      std: 0.03
    }
    bias_filler {
      type: "constant"
      value: 0.2
    }
  }
}
layer {
  name: "inception_4d/relu_1x1"
  type: "ReLU"
  bottom: "inception_4d/1x1"
  top: "inception_4d/1x1"
}
layer {
  name: "inception_4d/3x3_reduce"
  type: "Convolution"
  bottom: "inception_4c/output"
  top: "inception_4d/3x3_reduce"
  param {
    lr_mult: 1
    decay_mult: 1
  }
  param {
    lr_mult: 2
    decay_mult: 0
  }
  convolution_param {
    num_output: 144
    kernel_size: 1
    weight_filler {
      type: "xavier"
      std: 0.09
    }
    bias_filler {
      type: "constant"
      value: 0.2
    }
  }
}
layer {
  name: "inception_4d/relu_3x3_reduce"
  type: "ReLU"
  bottom: "inception_4d/3x3_reduce"
  top: "inception_4d/3x3_reduce"
}
layer {
  name: "inception_4d/3x3"
  type: "Convolution"
  bottom: "inception_4d/3x3_reduce"
  top: "inception_4d/3x3"
  param {
    lr_mult: 1
    decay_mult: 1
  }
  param {
    lr_mult: 2
    decay_mult: 0
  }
  convolution_param {
    num_output: 288
    pad: 1
    kernel_size: 3
    weight_filler {
      type: "xavier"
      std: 0.03
    }
    bias_filler {
      type: "constant"
      value: 0.2
    }
  }
}
layer {
  name: "inception_4d/relu_3x3"
  type: "ReLU"
  bottom: "inception_4d/3x3"
  top: "inception_4d/3x3"
}
layer {
  name: "inception_4d/5x5_reduce"
  type: "Convolution"
  bottom: "inception_4c/output"
  top: "inception_4d/5x5_reduce"
  param {
    lr_mult: 1
    decay_mult: 1
  }
  param {
    lr_mult: 2
    decay_mult: 0
  }
  convolution_param {
    num_output: 32
    kernel_size: 1
    weight_filler {
      type: "xavier"
      std: 0.2
    }
    bias_filler {
      type: "constant"
      value: 0.2
    }
  }
}
layer {
  name: "inception_4d/relu_5x5_reduce"
  type: "ReLU"
  bottom: "inception_4d/5x5_reduce"
  top: "inception_4d/5x5_reduce"
}
layer {
  name: "inception_4d/5x5"
  type: "Convolution"
  bottom: "inception_4d/5x5_reduce"
  top: "inception_4d/5x5"
  param {
    lr_mult: 1
    decay_mult: 1
  }
  param {
    lr_mult: 2
    decay_mult: 0
  }
  convolution_param {
    num_output: 64
    pad: 2
    kernel_size: 5
    weight_filler {
      type: "xavier"
      std: 0.03
    }
    bias_filler {
      type: "constant"
      value: 0.2
    }
  }
}
layer {
  name: "inception_4d/relu_5x5"
  type: "ReLU"
  bottom: "inception_4d/5x5"
  top: "inception_4d/5x5"
}
layer {
  name: "inception_4d/pool"
  type: "Pooling"
  bottom: "inception_4c/output"
  top: "inception_4d/pool"
  pooling_param {
    pool: MAX
    kernel_size: 3
    stride: 1
    pad: 1
  }
}
layer {
  name: "inception_4d/pool_proj"
  type: "Convolution"
  bottom: "inception_4d/pool"
  top: "inception_4d/pool_proj"
  param {
    lr_mult: 1
    decay_mult: 1
  }
  param {
    lr_mult: 2
    decay_mult: 0
  }
  convolution_param {
    num_output: 64
    kernel_size: 1
    weight_filler {
      type: "xavier"
      std: 0.1
    }
    bias_filler {
      type: "constant"
      value: 0.2
    }
  }
}
layer {
  name: "inception_4d/relu_pool_proj"
  type: "ReLU"
  bottom: "inception_4d/pool_proj"
  top: "inception_4d/pool_proj"
}
layer {
  name: "inception_4d/output"
  type: "Concat"
  bottom: "inception_4d/1x1"
  bottom: "inception_4d/3x3"
  bottom: "inception_4d/5x5"
  bottom: "inception_4d/pool_proj"
  top: "inception_4d/output"
}
layer {
  name: "loss2/ave_pool"
  type: "Pooling"
  bottom: "inception_4d/output"
  top: "loss2/ave_pool"
  pooling_param {
    pool: AVE
    kernel_size: 5
    stride: 3
  }
}
layer {
  name: "loss2/conv"
  type: "Convolution"
  bottom: "loss2/ave_pool"
  top: "loss2/conv"
  param {
    lr_mult: 1
    decay_mult: 1
  }
  param {
    lr_mult: 2
    decay_mult: 0
  }
  convolution_param {
    num_output: 128
    kernel_size: 1
    weight_filler {
      type: "xavier"
      std: 0.08
    }
    bias_filler {
      type: "constant"
      value: 0.2
    }
  }
}
layer {
  name: "loss2/relu_conv"
  type: "ReLU"
  bottom: "loss2/conv"
  top: "loss2/conv"
}
layer {
  name: "loss2/fc"
  type: "InnerProduct"
  bottom: "loss2/conv"
  top: "loss2/fc"
  param {
    lr_mult: 1
    decay_mult: 1
  }
  param {
    lr_mult: 2
    decay_mult: 0
  }
  inner_product_param {
    num_output: 1024
    weight_filler {
      type: "xavier"
      std: 0.02
    }
    bias_filler {
      type: "constant"
      value: 0.2
    }
  }
}
layer {
  name: "loss2/relu_fc"
  type: "ReLU"
  bottom: "loss2/fc"
  top: "loss2/fc"
}
layer {
  name: "loss2/drop_fc"
  type: "Dropout"
  bottom: "loss2/fc"
  top: "loss2/fc"
  dropout_param {
    dropout_ratio: 0.7
  }
}
layer {
  name: "loss2/classifier_plantvillage"
  type: "InnerProduct"
  bottom: "loss2/fc"
  top: "loss2/classifier_plantvillage"
  param {
    lr_mult: 1
    decay_mult: 1
  }
  param {
    lr_mult: 2
    decay_mult: 0
  }
  inner_product_param {
    num_output: 38
    weight_filler {
      type: "xavier"
      std: 0.0009765625
    }
    bias_filler {
      type: "constant"
      value: 0
    }
  }
}
layer {
  name: "inception_4e/1x1"
  type: "Convolution"
  bottom: "inception_4d/output"
  top: "inception_4e/1x1"
  param {
    lr_mult: 1
    decay_mult: 1
  }
  param {
    lr_mult: 2
    decay_mult: 0
  }
  convolution_param {
    num_output: 256
    kernel_size: 1
    weight_filler {
      type: "xavier"
      std: 0.03
    }
    bias_filler {
      type: "constant"
      value: 0.2
    }
  }
}
layer {
  name: "inception_4e/relu_1x1"
  type: "ReLU"
  bottom: "inception_4e/1x1"
  top: "inception_4e/1x1"
}
layer {
  name: "inception_4e/3x3_reduce"
  type: "Convolution"
  bottom: "inception_4d/output"
  top: "inception_4e/3x3_reduce"
  param {
    lr_mult: 1
    decay_mult: 1
  }
  param {
    lr_mult: 2
    decay_mult: 0
  }
  convolution_param {
    num_output: 160
    kernel_size: 1
    weight_filler {
      type: "xavier"
      std: 0.09
    }
    bias_filler {
      type: "constant"
      value: 0.2
    }
  }
}
layer {
  name: "inception_4e/relu_3x3_reduce"
  type: "ReLU"
  bottom: "inception_4e/3x3_reduce"
  top: "inception_4e/3x3_reduce"
}
layer {
  name: "inception_4e/3x3"
  type: "Convolution"
  bottom: "inception_4e/3x3_reduce"
  top: "inception_4e/3x3"
  param {
    lr_mult: 1
    decay_mult: 1
  }
  param {
    lr_mult: 2
    decay_mult: 0
  }
  convolution_param {
    num_output: 320
    pad: 1
    kernel_size: 3
    weight_filler {
      type: "xavier"
      std: 0.03
    }
    bias_filler {
      type: "constant"
      value: 0.2
    }
  }
}
layer {
  name: "inception_4e/relu_3x3"
  type: "ReLU"
  bottom: "inception_4e/3x3"
  top: "inception_4e/3x3"
}
layer {
  name: "inception_4e/5x5_reduce"
  type: "Convolution"
  bottom: "inception_4d/output"
  top: "inception_4e/5x5_reduce"
  param {
    lr_mult: 1
    decay_mult: 1
  }
  param {
    lr_mult: 2
    decay_mult: 0
  }
  convolution_param {
    num_output: 32
    kernel_size: 1
    weight_filler {
      type: "xavier"
      std: 0.2
    }
    bias_filler {
      type: "constant"
      value: 0.2
    }
  }
}
layer {
  name: "inception_4e/relu_5x5_reduce"
  type: "ReLU"
  bottom: "inception_4e/5x5_reduce"
  top: "inception_4e/5x5_reduce"
}
layer {
  name: "inception_4e/5x5"
  type: "Convolution"
  bottom: "inception_4e/5x5_reduce"
  top: "inception_4e/5x5"
  p
I0403 19:50:23.225342  9734 layer_factory.hpp:77] Creating layer data
I0403 19:50:23.225997  9734 net.cpp:91] Creating Layer data
I0403 19:50:23.226032  9734 net.cpp:399] data -> data
I0403 19:50:23.226095  9734 net.cpp:399] data -> label
I0403 19:50:23.226136  9734 data_transformer.cpp:25] Loading mean file from: /home/mohanty/data/final_dataset/lmdb/color-60-40/mean.binaryproto
I0403 19:50:23.227335  9736 db_lmdb.cpp:38] Opened lmdb /home/mohanty/data/final_dataset/lmdb/color-60-40/test_db
I0403 19:50:23.240103  9734 data_layer.cpp:41] output data size: 24,3,224,224
I0403 19:50:23.268337  9734 net.cpp:141] Setting up data
I0403 19:50:23.268415  9734 net.cpp:148] Top shape: 24 3 224 224 (3612672)
I0403 19:50:23.268440  9734 net.cpp:148] Top shape: 24 (24)
I0403 19:50:23.268457  9734 net.cpp:156] Memory required for data: 14450784
I0403 19:50:23.268496  9734 layer_factory.hpp:77] Creating layer label_data_1_split
I0403 19:50:23.268525  9734 net.cpp:91] Creating Layer label_data_1_split
I0403 19:50:23.268544  9734 net.cpp:425] label_data_1_split <- label
I0403 19:50:23.268580  9734 net.cpp:399] label_data_1_split -> label_data_1_split_0
I0403 19:50:23.268611  9734 net.cpp:399] label_data_1_split -> label_data_1_split_1
I0403 19:50:23.268635  9734 net.cpp:399] label_data_1_split -> label_data_1_split_2
I0403 19:50:23.268657  9734 net.cpp:399] label_data_1_split -> label_data_1_split_3
I0403 19:50:23.268679  9734 net.cpp:399] label_data_1_split -> label_data_1_split_4
I0403 19:50:23.268699  9734 net.cpp:399] label_data_1_split -> label_data_1_split_5
I0403 19:50:23.268720  9734 net.cpp:399] label_data_1_split -> label_data_1_split_6
I0403 19:50:23.268743  9734 net.cpp:399] label_data_1_split -> label_data_1_split_7
I0403 19:50:23.268764  9734 net.cpp:399] label_data_1_split -> label_data_1_split_8
I0403 19:50:23.268784  9734 net.cpp:399] label_data_1_split -> label_data_1_split_9
I0403 19:50:23.268905  9734 net.cpp:141] Setting up label_data_1_split
I0403 19:50:23.268930  9734 net.cpp:148] Top shape: 24 (24)
I0403 19:50:23.268949  9734 net.cpp:148] Top shape: 24 (24)
I0403 19:50:23.268966  9734 net.cpp:148] Top shape: 24 (24)
I0403 19:50:23.268983  9734 net.cpp:148] Top shape: 24 (24)
I0403 19:50:23.269001  9734 net.cpp:148] Top shape: 24 (24)
I0403 19:50:23.269017  9734 net.cpp:148] Top shape: 24 (24)
I0403 19:50:23.269034  9734 net.cpp:148] Top shape: 24 (24)
I0403 19:50:23.269052  9734 net.cpp:148] Top shape: 24 (24)
I0403 19:50:23.269068  9734 net.cpp:148] Top shape: 24 (24)
I0403 19:50:23.269084  9734 net.cpp:148] Top shape: 24 (24)
I0403 19:50:23.269131  9734 net.cpp:156] Memory required for data: 14451744
I0403 19:50:23.269150  9734 layer_factory.hpp:77] Creating layer conv1/7x7_s2
I0403 19:50:23.269186  9734 net.cpp:91] Creating Layer conv1/7x7_s2
I0403 19:50:23.269207  9734 net.cpp:425] conv1/7x7_s2 <- data
I0403 19:50:23.269227  9734 net.cpp:399] conv1/7x7_s2 -> conv1/7x7_s2
I0403 19:50:23.404974  9734 net.cpp:141] Setting up conv1/7x7_s2
I0403 19:50:23.405050  9734 net.cpp:148] Top shape: 24 64 112 112 (19267584)
I0403 19:50:23.405066  9734 net.cpp:156] Memory required for data: 91522080
I0403 19:50:23.405102  9734 layer_factory.hpp:77] Creating layer conv1/relu_7x7
I0403 19:50:23.405130  9734 net.cpp:91] Creating Layer conv1/relu_7x7
I0403 19:50:23.405151  9734 net.cpp:425] conv1/relu_7x7 <- conv1/7x7_s2
I0403 19:50:23.405172  9734 net.cpp:386] conv1/relu_7x7 -> conv1/7x7_s2 (in-place)
I0403 19:50:23.405427  9734 net.cpp:141] Setting up conv1/relu_7x7
I0403 19:50:23.405454  9734 net.cpp:148] Top shape: 24 64 112 112 (19267584)
I0403 19:50:23.405475  9734 net.cpp:156] Memory required for data: 168592416
I0403 19:50:23.405493  9734 layer_factory.hpp:77] Creating layer pool1/3x3_s2
I0403 19:50:23.405519  9734 net.cpp:91] Creating Layer pool1/3x3_s2
I0403 19:50:23.405537  9734 net.cpp:425] pool1/3x3_s2 <- conv1/7x7_s2
I0403 19:50:23.405557  9734 net.cpp:399] pool1/3x3_s2 -> pool1/3x3_s2
I0403 19:50:23.405635  9734 net.cpp:141] Setting up pool1/3x3_s2
I0403 19:50:23.405660  9734 net.cpp:148] Top shape: 24 64 56 56 (4816896)
I0403 19:50:23.405675  9734 net.cpp:156] Memory required for data: 187860000
I0403 19:50:23.405690  9734 layer_factory.hpp:77] Creating layer pool1/norm1
I0403 19:50:23.405717  9734 net.cpp:91] Creating Layer pool1/norm1
I0403 19:50:23.405736  9734 net.cpp:425] pool1/norm1 <- pool1/3x3_s2
I0403 19:50:23.405755  9734 net.cpp:399] pool1/norm1 -> pool1/norm1
I0403 19:50:23.406035  9734 net.cpp:141] Setting up pool1/norm1
I0403 19:50:23.406064  9734 net.cpp:148] Top shape: 24 64 56 56 (4816896)
I0403 19:50:23.406080  9734 net.cpp:156] Memory required for data: 207127584
I0403 19:50:23.406095  9734 layer_factory.hpp:77] Creating layer conv2/3x3_reduce
I0403 19:50:23.406123  9734 net.cpp:91] Creating Layer conv2/3x3_reduce
I0403 19:50:23.406141  9734 net.cpp:425] conv2/3x3_reduce <- pool1/norm1
I0403 19:50:23.406159  9734 net.cpp:399] conv2/3x3_reduce -> conv2/3x3_reduce
I0403 19:50:23.407483  9734 net.cpp:141] Setting up conv2/3x3_reduce
I0403 19:50:23.407513  9734 net.cpp:148] Top shape: 24 64 56 56 (4816896)
I0403 19:50:23.407529  9734 net.cpp:156] Memory required for data: 226395168
I0403 19:50:23.407552  9734 layer_factory.hpp:77] Creating layer conv2/relu_3x3_reduce
I0403 19:50:23.407570  9734 net.cpp:91] Creating Layer conv2/relu_3x3_reduce
I0403 19:50:23.407588  9734 net.cpp:425] conv2/relu_3x3_reduce <- conv2/3x3_reduce
I0403 19:50:23.407605  9734 net.cpp:386] conv2/relu_3x3_reduce -> conv2/3x3_reduce (in-place)
I0403 19:50:23.407855  9734 net.cpp:141] Setting up conv2/relu_3x3_reduce
I0403 19:50:23.407882  9734 net.cpp:148] Top shape: 24 64 56 56 (4816896)
I0403 19:50:23.407899  9734 net.cpp:156] Memory required for data: 245662752
I0403 19:50:23.407914  9734 layer_factory.hpp:77] Creating layer conv2/3x3
I0403 19:50:23.407938  9734 net.cpp:91] Creating Layer conv2/3x3
I0403 19:50:23.407954  9734 net.cpp:425] conv2/3x3 <- conv2/3x3_reduce
I0403 19:50:23.407974  9734 net.cpp:399] conv2/3x3 -> conv2/3x3
I0403 19:50:23.410241  9734 net.cpp:141] Setting up conv2/3x3
I0403 19:50:23.410272  9734 net.cpp:148] Top shape: 24 192 56 56 (14450688)
I0403 19:50:23.410289  9734 net.cpp:156] Memory required for data: 303465504
I0403 19:50:23.410310  9734 layer_factory.hpp:77] Creating layer conv2/relu_3x3
I0403 19:50:23.410328  9734 net.cpp:91] Creating Layer conv2/relu_3x3
I0403 19:50:23.410346  9734 net.cpp:425] conv2/relu_3x3 <- conv2/3x3
I0403 19:50:23.410364  9734 net.cpp:386] conv2/relu_3x3 -> conv2/3x3 (in-place)
I0403 19:50:23.410559  9734 net.cpp:141] Setting up conv2/relu_3x3
I0403 19:50:23.410584  9734 net.cpp:148] Top shape: 24 192 56 56 (14450688)
I0403 19:50:23.410634  9734 net.cpp:156] Memory required for data: 361268256
I0403 19:50:23.410650  9734 layer_factory.hpp:77] Creating layer conv2/norm2
I0403 19:50:23.410670  9734 net.cpp:91] Creating Layer conv2/norm2
I0403 19:50:23.410686  9734 net.cpp:425] conv2/norm2 <- conv2/3x3
I0403 19:50:23.410703  9734 net.cpp:399] conv2/norm2 -> conv2/norm2
I0403 19:50:23.411003  9734 net.cpp:141] Setting up conv2/norm2
I0403 19:50:23.411033  9734 net.cpp:148] Top shape: 24 192 56 56 (14450688)
I0403 19:50:23.411051  9734 net.cpp:156] Memory required for data: 419071008
I0403 19:50:23.411067  9734 layer_factory.hpp:77] Creating layer pool2/3x3_s2
I0403 19:50:23.411085  9734 net.cpp:91] Creating Layer pool2/3x3_s2
I0403 19:50:23.411103  9734 net.cpp:425] pool2/3x3_s2 <- conv2/norm2
I0403 19:50:23.411119  9734 net.cpp:399] pool2/3x3_s2 -> pool2/3x3_s2
I0403 19:50:23.411172  9734 net.cpp:141] Setting up pool2/3x3_s2
I0403 19:50:23.411195  9734 net.cpp:148] Top shape: 24 192 28 28 (3612672)
I0403 19:50:23.411211  9734 net.cpp:156] Memory required for data: 433521696
I0403 19:50:23.411227  9734 layer_factory.hpp:77] Creating layer pool2/3x3_s2_pool2/3x3_s2_0_split
I0403 19:50:23.411249  9734 net.cpp:91] Creating Layer pool2/3x3_s2_pool2/3x3_s2_0_split
I0403 19:50:23.411267  9734 net.cpp:425] pool2/3x3_s2_pool2/3x3_s2_0_split <- pool2/3x3_s2
I0403 19:50:23.411285  9734 net.cpp:399] pool2/3x3_s2_pool2/3x3_s2_0_split -> pool2/3x3_s2_pool2/3x3_s2_0_split_0
I0403 19:50:23.411305  9734 net.cpp:399] pool2/3x3_s2_pool2/3x3_s2_0_split -> pool2/3x3_s2_pool2/3x3_s2_0_split_1
I0403 19:50:23.411325  9734 net.cpp:399] pool2/3x3_s2_pool2/3x3_s2_0_split -> pool2/3x3_s2_pool2/3x3_s2_0_split_2
I0403 19:50:23.411350  9734 net.cpp:399] pool2/3x3_s2_pool2/3x3_s2_0_split -> pool2/3x3_s2_pool2/3x3_s2_0_split_3
I0403 19:50:23.411422  9734 net.cpp:141] Setting up pool2/3x3_s2_pool2/3x3_s2_0_split
I0403 19:50:23.411444  9734 net.cpp:148] Top shape: 24 192 28 28 (3612672)
I0403 19:50:23.411466  9734 net.cpp:148] Top shape: 24 192 28 28 (3612672)
I0403 19:50:23.411484  9734 net.cpp:148] Top shape: 24 192 28 28 (3612672)
I0403 19:50:23.411500  9734 net.cpp:148] Top shape: 24 192 28 28 (3612672)
I0403 19:50:23.411514  9734 net.cpp:156] Memory required for data: 491324448
I0403 19:50:23.411528  9734 layer_factory.hpp:77] Creating layer inception_3a/1x1
I0403 19:50:23.411551  9734 net.cpp:91] Creating Layer inception_3a/1x1
I0403 19:50:23.411569  9734 net.cpp:425] inception_3a/1x1 <- pool2/3x3_s2_pool2/3x3_s2_0_split_0
I0403 19:50:23.411591  9734 net.cpp:399] inception_3a/1x1 -> inception_3a/1x1
I0403 19:50:23.413123  9734 net.cpp:141] Setting up inception_3a/1x1
I0403 19:50:23.413156  9734 net.cpp:148] Top shape: 24 64 28 28 (1204224)
I0403 19:50:23.413172  9734 net.cpp:156] Memory required for data: 496141344
I0403 19:50:23.413192  9734 layer_factory.hpp:77] Creating layer inception_3a/relu_1x1
I0403 19:50:23.413209  9734 net.cpp:91] Creating Layer inception_3a/relu_1x1
I0403 19:50:23.413225  9734 net.cpp:425] inception_3a/relu_1x1 <- inception_3a/1x1
I0403 19:50:23.413246  9734 net.cpp:386] inception_3a/relu_1x1 -> inception_3a/1x1 (in-place)
I0403 19:50:23.413416  9734 net.cpp:141] Setting up inception_3a/relu_1x1
I0403 19:50:23.413442  9734 net.cpp:148] Top shape: 24 64 28 28 (1204224)
I0403 19:50:23.413461  9734 net.cpp:156] Memory required for data: 500958240
I0403 19:50:23.413477  9734 layer_factory.hpp:77] Creating layer inception_3a/3x3_reduce
I0403 19:50:23.413501  9734 net.cpp:91] Creating Layer inception_3a/3x3_reduce
I0403 19:50:23.413519  9734 net.cpp:425] inception_3a/3x3_reduce <- pool2/3x3_s2_pool2/3x3_s2_0_split_1
I0403 19:50:23.413542  9734 net.cpp:399] inception_3a/3x3_reduce -> inception_3a/3x3_reduce
I0403 19:50:23.415244  9734 net.cpp:141] Setting up inception_3a/3x3_reduce
I0403 19:50:23.415274  9734 net.cpp:148] Top shape: 24 96 28 28 (1806336)
I0403 19:50:23.415290  9734 net.cpp:156] Memory required for data: 508183584
I0403 19:50:23.415313  9734 layer_factory.hpp:77] Creating layer inception_3a/relu_3x3_reduce
I0403 19:50:23.415349  9734 net.cpp:91] Creating Layer inception_3a/relu_3x3_reduce
I0403 19:50:23.415367  9734 net.cpp:425] inception_3a/relu_3x3_reduce <- inception_3a/3x3_reduce
I0403 19:50:23.415385  9734 net.cpp:386] inception_3a/relu_3x3_reduce -> inception_3a/3x3_reduce (in-place)
I0403 19:50:23.415573  9734 net.cpp:141] Setting up inception_3a/relu_3x3_reduce
I0403 19:50:23.415601  9734 net.cpp:148] Top shape: 24 96 28 28 (1806336)
I0403 19:50:23.415617  9734 net.cpp:156] Memory required for data: 515408928
I0403 19:50:23.415634  9734 layer_factory.hpp:77] Creating layer inception_3a/3x3
I0403 19:50:23.415657  9734 net.cpp:91] Creating Layer inception_3a/3x3
I0403 19:50:23.415674  9734 net.cpp:425] inception_3a/3x3 <- inception_3a/3x3_reduce
I0403 19:50:23.415693  9734 net.cpp:399] inception_3a/3x3 -> inception_3a/3x3
I0403 19:50:23.417337  9734 net.cpp:141] Setting up inception_3a/3x3
I0403 19:50:23.417367  9734 net.cpp:148] Top shape: 24 128 28 28 (2408448)
I0403 19:50:23.417384  9734 net.cpp:156] Memory required for data: 525042720
I0403 19:50:23.417403  9734 layer_factory.hpp:77] Creating layer inception_3a/relu_3x3
I0403 19:50:23.417423  9734 net.cpp:91] Creating Layer inception_3a/relu_3x3
I0403 19:50:23.417443  9734 net.cpp:425] inception_3a/relu_3x3 <- inception_3a/3x3
I0403 19:50:23.417464  9734 net.cpp:386] inception_3a/relu_3x3 -> inception_3a/3x3 (in-place)
I0403 19:50:23.417737  9734 net.cpp:141] Setting up inception_3a/relu_3x3
I0403 19:50:23.417763  9734 net.cpp:148] Top shape: 24 128 28 28 (2408448)
I0403 19:50:23.417784  9734 net.cpp:156] Memory required for data: 534676512
I0403 19:50:23.417805  9734 layer_factory.hpp:77] Creating layer inception_3a/5x5_reduce
I0403 19:50:23.417829  9734 net.cpp:91] Creating Layer inception_3a/5x5_reduce
I0403 19:50:23.417846  9734 net.cpp:425] inception_3a/5x5_reduce <- pool2/3x3_s2_pool2/3x3_s2_0_split_2
I0403 19:50:23.417868  9734 net.cpp:399] inception_3a/5x5_reduce -> inception_3a/5x5_reduce
I0403 19:50:23.418809  9734 net.cpp:141] Setting up inception_3a/5x5_reduce
I0403 19:50:23.418838  9734 net.cpp:148] Top shape: 24 16 28 28 (301056)
I0403 19:50:23.418854  9734 net.cpp:156] Memory required for data: 535880736
I0403 19:50:23.418872  9734 layer_factory.hpp:77] Creating layer inception_3a/relu_5x5_reduce
I0403 19:50:23.418892  9734 net.cpp:91] Creating Layer inception_3a/relu_5x5_reduce
I0403 19:50:23.418910  9734 net.cpp:425] inception_3a/relu_5x5_reduce <- inception_3a/5x5_reduce
I0403 19:50:23.418927  9734 net.cpp:386] inception_3a/relu_5x5_reduce -> inception_3a/5x5_reduce (in-place)
I0403 19:50:23.419214  9734 net.cpp:141] Setting up inception_3a/relu_5x5_reduce
I0403 19:50:23.419239  9734 net.cpp:148] Top shape: 24 16 28 28 (301056)
I0403 19:50:23.419255  9734 net.cpp:156] Memory required for data: 537084960
I0403 19:50:23.419270  9734 layer_factory.hpp:77] Creating layer inception_3a/5x5
I0403 19:50:23.419293  9734 net.cpp:91] Creating Layer inception_3a/5x5
I0403 19:50:23.419311  9734 net.cpp:425] inception_3a/5x5 <- inception_3a/5x5_reduce
I0403 19:50:23.419332  9734 net.cpp:399] inception_3a/5x5 -> inception_3a/5x5
I0403 19:50:23.420306  9734 net.cpp:141] Setting up inception_3a/5x5
I0403 19:50:23.420333  9734 net.cpp:148] Top shape: 24 32 28 28 (602112)
I0403 19:50:23.420348  9734 net.cpp:156] Memory required for data: 539493408
I0403 19:50:23.420367  9734 layer_factory.hpp:77] Creating layer inception_3a/relu_5x5
I0403 19:50:23.420385  9734 net.cpp:91] Creating Layer inception_3a/relu_5x5
I0403 19:50:23.420402  9734 net.cpp:425] inception_3a/relu_5x5 <- inception_3a/5x5
I0403 19:50:23.420423  9734 net.cpp:386] inception_3a/relu_5x5 -> inception_3a/5x5 (in-place)
I0403 19:50:23.420594  9734 net.cpp:141] Setting up inception_3a/relu_5x5
I0403 19:50:23.420619  9734 net.cpp:148] Top shape: 24 32 28 28 (602112)
I0403 19:50:23.420634  9734 net.cpp:156] Memory required for data: 541901856
I0403 19:50:23.420650  9734 layer_factory.hpp:77] Creating layer inception_3a/pool
I0403 19:50:23.420668  9734 net.cpp:91] Creating Layer inception_3a/pool
I0403 19:50:23.420686  9734 net.cpp:425] inception_3a/pool <- pool2/3x3_s2_pool2/3x3_s2_0_split_3
I0403 19:50:23.420717  9734 net.cpp:399] inception_3a/pool -> inception_3a/pool
I0403 19:50:23.420776  9734 net.cpp:141] Setting up inception_3a/pool
I0403 19:50:23.420800  9734 net.cpp:148] Top shape: 24 192 28 28 (3612672)
I0403 19:50:23.420815  9734 net.cpp:156] Memory required for data: 556352544
I0403 19:50:23.420830  9734 layer_factory.hpp:77] Creating layer inception_3a/pool_proj
I0403 19:50:23.420852  9734 net.cpp:91] Creating Layer inception_3a/pool_proj
I0403 19:50:23.420869  9734 net.cpp:425] inception_3a/pool_proj <- inception_3a/pool
I0403 19:50:23.420892  9734 net.cpp:399] inception_3a/pool_proj -> inception_3a/pool_proj
I0403 19:50:23.421809  9734 net.cpp:141] Setting up inception_3a/pool_proj
I0403 19:50:23.421838  9734 net.cpp:148] Top shape: 24 32 28 28 (602112)
I0403 19:50:23.421854  9734 net.cpp:156] Memory required for data: 558760992
I0403 19:50:23.421877  9734 layer_factory.hpp:77] Creating layer inception_3a/relu_pool_proj
I0403 19:50:23.421898  9734 net.cpp:91] Creating Layer inception_3a/relu_pool_proj
I0403 19:50:23.421917  9734 net.cpp:425] inception_3a/relu_pool_proj <- inception_3a/pool_proj
I0403 19:50:23.421936  9734 net.cpp:386] inception_3a/relu_pool_proj -> inception_3a/pool_proj (in-place)
I0403 19:50:23.422200  9734 net.cpp:141] Setting up inception_3a/relu_pool_proj
I0403 19:50:23.422226  9734 net.cpp:148] Top shape: 24 32 28 28 (602112)
I0403 19:50:23.422241  9734 net.cpp:156] Memory required for data: 561169440
I0403 19:50:23.422257  9734 layer_factory.hpp:77] Creating layer inception_3a/output
I0403 19:50:23.422276  9734 net.cpp:91] Creating Layer inception_3a/output
I0403 19:50:23.422289  9734 net.cpp:425] inception_3a/output <- inception_3a/1x1
I0403 19:50:23.422305  9734 net.cpp:425] inception_3a/output <- inception_3a/3x3
I0403 19:50:23.422322  9734 net.cpp:425] inception_3a/output <- inception_3a/5x5
I0403 19:50:23.422338  9734 net.cpp:425] inception_3a/output <- inception_3a/pool_proj
I0403 19:50:23.422356  9734 net.cpp:399] inception_3a/output -> inception_3a/output
I0403 19:50:23.422402  9734 net.cpp:141] Setting up inception_3a/output
I0403 19:50:23.422428  9734 net.cpp:148] Top shape: 24 256 28 28 (4816896)
I0403 19:50:23.422446  9734 net.cpp:156] Memory required for data: 580437024
I0403 19:50:23.422469  9734 layer_factory.hpp:77] Creating layer inception_3a/output_inception_3a/output_0_split
I0403 19:50:23.422488  9734 net.cpp:91] Creating Layer inception_3a/output_inception_3a/output_0_split
I0403 19:50:23.422505  9734 net.cpp:425] inception_3a/output_inception_3a/output_0_split <- inception_3a/output
I0403 19:50:23.422524  9734 net.cpp:399] inception_3a/output_inception_3a/output_0_split -> inception_3a/output_inception_3a/output_0_split_0
I0403 19:50:23.422544  9734 net.cpp:399] inception_3a/output_inception_3a/output_0_split -> inception_3a/output_inception_3a/output_0_split_1
I0403 19:50:23.422566  9734 net.cpp:399] inception_3a/output_inception_3a/output_0_split -> inception_3a/output_inception_3a/output_0_split_2
I0403 19:50:23.422586  9734 net.cpp:399] inception_3a/output_inception_3a/output_0_split -> inception_3a/output_inception_3a/output_0_split_3
I0403 19:50:23.422658  9734 net.cpp:141] Setting up inception_3a/output_inception_3a/output_0_split
I0403 19:50:23.422683  9734 net.cpp:148] Top shape: 24 256 28 28 (4816896)
I0403 19:50:23.422699  9734 net.cpp:148] Top shape: 24 256 28 28 (4816896)
I0403 19:50:23.422715  9734 net.cpp:148] Top shape: 24 256 28 28 (4816896)
I0403 19:50:23.422732  9734 net.cpp:148] Top shape: 24 256 28 28 (4816896)
I0403 19:50:23.422746  9734 net.cpp:156] Memory required for data: 657507360
I0403 19:50:23.422760  9734 layer_factory.hpp:77] Creating layer inception_3b/1x1
I0403 19:50:23.422783  9734 net.cpp:91] Creating Layer inception_3b/1x1
I0403 19:50:23.422801  9734 net.cpp:425] inception_3b/1x1 <- inception_3a/output_inception_3a/output_0_split_0
I0403 19:50:23.422822  9734 net.cpp:399] inception_3b/1x1 -> inception_3b/1x1
I0403 19:50:23.423909  9734 net.cpp:141] Setting up inception_3b/1x1
I0403 19:50:23.423951  9734 net.cpp:148] Top shape: 24 128 28 28 (2408448)
I0403 19:50:23.423969  9734 net.cpp:156] Memory required for data: 667141152
I0403 19:50:23.423988  9734 layer_factory.hpp:77] Creating layer inception_3b/relu_1x1
I0403 19:50:23.424006  9734 net.cpp:91] Creating Layer inception_3b/relu_1x1
I0403 19:50:23.424022  9734 net.cpp:425] inception_3b/relu_1x1 <- inception_3b/1x1
I0403 19:50:23.424042  9734 net.cpp:386] inception_3b/relu_1x1 -> inception_3b/1x1 (in-place)
I0403 19:50:23.424211  9734 net.cpp:141] Setting up inception_3b/relu_1x1
I0403 19:50:23.424235  9734 net.cpp:148] Top shape: 24 128 28 28 (2408448)
I0403 19:50:23.424250  9734 net.cpp:156] Memory required for data: 676774944
I0403 19:50:23.424264  9734 layer_factory.hpp:77] Creating layer inception_3b/3x3_reduce
I0403 19:50:23.424286  9734 net.cpp:91] Creating Layer inception_3b/3x3_reduce
I0403 19:50:23.424304  9734 net.cpp:425] inception_3b/3x3_reduce <- inception_3a/output_inception_3a/output_0_split_1
I0403 19:50:23.424324  9734 net.cpp:399] inception_3b/3x3_reduce -> inception_3b/3x3_reduce
I0403 19:50:23.425418  9734 net.cpp:141] Setting up inception_3b/3x3_reduce
I0403 19:50:23.425448  9734 net.cpp:148] Top shape: 24 128 28 28 (2408448)
I0403 19:50:23.425472  9734 net.cpp:156] Memory required for data: 686408736
I0403 19:50:23.425490  9734 layer_factory.hpp:77] Creating layer inception_3b/relu_3x3_reduce
I0403 19:50:23.425508  9734 net.cpp:91] Creating Layer inception_3b/relu_3x3_reduce
I0403 19:50:23.425523  9734 net.cpp:425] inception_3b/relu_3x3_reduce <- inception_3b/3x3_reduce
I0403 19:50:23.425544  9734 net.cpp:386] inception_3b/relu_3x3_reduce -> inception_3b/3x3_reduce (in-place)
I0403 19:50:23.425714  9734 net.cpp:141] Setting up inception_3b/relu_3x3_reduce
I0403 19:50:23.425739  9734 net.cpp:148] Top shape: 24 128 28 28 (2408448)
I0403 19:50:23.425753  9734 net.cpp:156] Memory required for data: 696042528
I0403 19:50:23.425768  9734 layer_factory.hpp:77] Creating layer inception_3b/3x3
I0403 19:50:23.425794  9734 net.cpp:91] Creating Layer inception_3b/3x3
I0403 19:50:23.425812  9734 net.cpp:425] inception_3b/3x3 <- inception_3b/3x3_reduce
I0403 19:50:23.425832  9734 net.cpp:399] inception_3b/3x3 -> inception_3b/3x3
I0403 19:50:23.428637  9734 net.cpp:141] Setting up inception_3b/3x3
I0403 19:50:23.428665  9734 net.cpp:148] Top shape: 24 192 28 28 (3612672)
I0403 19:50:23.428681  9734 net.cpp:156] Memory required for data: 710493216
I0403 19:50:23.428700  9734 layer_factory.hpp:77] Creating layer inception_3b/relu_3x3
I0403 19:50:23.428730  9734 net.cpp:91] Creating Layer inception_3b/relu_3x3
I0403 19:50:23.428746  9734 net.cpp:425] inception_3b/relu_3x3 <- inception_3b/3x3
I0403 19:50:23.428764  9734 net.cpp:386] inception_3b/relu_3x3 -> inception_3b/3x3 (in-place)
I0403 19:50:23.429033  9734 net.cpp:141] Setting up inception_3b/relu_3x3
I0403 19:50:23.429059  9734 net.cpp:148] Top shape: 24 192 28 28 (3612672)
I0403 19:50:23.429075  9734 net.cpp:156] Memory required for data: 724943904
I0403 19:50:23.429090  9734 layer_factory.hpp:77] Creating layer inception_3b/5x5_reduce
I0403 19:50:23.429113  9734 net.cpp:91] Creating Layer inception_3b/5x5_reduce
I0403 19:50:23.429132  9734 net.cpp:425] inception_3b/5x5_reduce <- inception_3a/output_inception_3a/output_0_split_2
I0403 19:50:23.429153  9734 net.cpp:399] inception_3b/5x5_reduce -> inception_3b/5x5_reduce
I0403 19:50:23.430119  9734 net.cpp:141] Setting up inception_3b/5x5_reduce
I0403 19:50:23.430150  9734 net.cpp:148] Top shape: 24 32 28 28 (602112)
I0403 19:50:23.430166  9734 net.cpp:156] Memory required for data: 727352352
I0403 19:50:23.430183  9734 layer_factory.hpp:77] Creating layer inception_3b/relu_5x5_reduce
I0403 19:50:23.430202  9734 net.cpp:91] Creating Layer inception_3b/relu_5x5_reduce
I0403 19:50:23.430219  9734 net.cpp:425] inception_3b/relu_5x5_reduce <- inception_3b/5x5_reduce
I0403 19:50:23.430240  9734 net.cpp:386] inception_3b/relu_5x5_reduce -> inception_3b/5x5_reduce (in-place)
I0403 19:50:23.430407  9734 net.cpp:141] Setting up inception_3b/relu_5x5_reduce
I0403 19:50:23.430444  9734 net.cpp:148] Top shape: 24 32 28 28 (602112)
I0403 19:50:23.430466  9734 net.cpp:156] Memory required for data: 729760800
I0403 19:50:23.430490  9734 layer_factory.hpp:77] Creating layer inception_3b/5x5
I0403 19:50:23.430515  9734 net.cpp:91] Creating Layer inception_3b/5x5
I0403 19:50:23.430541  9734 net.cpp:425] inception_3b/5x5 <- inception_3b/5x5_reduce
I0403 19:50:23.430562  9734 net.cpp:399] inception_3b/5x5 -> inception_3b/5x5
I0403 19:50:23.432493  9734 net.cpp:141] Setting up inception_3b/5x5
I0403 19:50:23.432525  9734 net.cpp:148] Top shape: 24 96 28 28 (1806336)
I0403 19:50:23.432541  9734 net.cpp:156] Memory required for data: 736986144
I0403 19:50:23.432560  9734 layer_factory.hpp:77] Creating layer inception_3b/relu_5x5
I0403 19:50:23.432579  9734 net.cpp:91] Creating Layer inception_3b/relu_5x5
I0403 19:50:23.432595  9734 net.cpp:425] inception_3b/relu_5x5 <- inception_3b/5x5
I0403 19:50:23.432613  9734 net.cpp:386] inception_3b/relu_5x5 -> inception_3b/5x5 (in-place)
I0403 19:50:23.432811  9734 net.cpp:141] Setting up inception_3b/relu_5x5
I0403 19:50:23.432834  9734 net.cpp:148] Top shape: 24 96 28 28 (1806336)
I0403 19:50:23.432850  9734 net.cpp:156] Memory required for data: 744211488
I0403 19:50:23.432865  9734 layer_factory.hpp:77] Creating layer inception_3b/pool
I0403 19:50:23.432883  9734 net.cpp:91] Creating Layer inception_3b/pool
I0403 19:50:23.432899  9734 net.cpp:425] inception_3b/pool <- inception_3a/output_inception_3a/output_0_split_3
I0403 19:50:23.432917  9734 net.cpp:399] inception_3b/pool -> inception_3b/pool
I0403 19:50:23.432971  9734 net.cpp:141] Setting up inception_3b/pool
I0403 19:50:23.432994  9734 net.cpp:148] Top shape: 24 256 28 28 (4816896)
I0403 19:50:23.433009  9734 net.cpp:156] Memory required for data: 763479072
I0403 19:50:23.433023  9734 layer_factory.hpp:77] Creating layer inception_3b/pool_proj
I0403 19:50:23.433048  9734 net.cpp:91] Creating Layer inception_3b/pool_proj
I0403 19:50:23.433063  9734 net.cpp:425] inception_3b/pool_proj <- inception_3b/pool
I0403 19:50:23.433084  9734 net.cpp:399] inception_3b/pool_proj -> inception_3b/pool_proj
I0403 19:50:23.434092  9734 net.cpp:141] Setting up inception_3b/pool_proj
I0403 19:50:23.434118  9734 net.cpp:148] Top shape: 24 64 28 28 (1204224)
I0403 19:50:23.434134  9734 net.cpp:156] Memory required for data: 768295968
I0403 19:50:23.434151  9734 layer_factory.hpp:77] Creating layer inception_3b/relu_pool_proj
I0403 19:50:23.434171  9734 net.cpp:91] Creating Layer inception_3b/relu_pool_proj
I0403 19:50:23.434186  9734 net.cpp:425] inception_3b/relu_pool_proj <- inception_3b/pool_proj
I0403 19:50:23.434204  9734 net.cpp:386] inception_3b/relu_pool_proj -> inception_3b/pool_proj (in-place)
I0403 19:50:23.434573  9734 net.cpp:141] Setting up inception_3b/relu_pool_proj
I0403 19:50:23.434599  9734 net.cpp:148] Top shape: 24 64 28 28 (1204224)
I0403 19:50:23.434615  9734 net.cpp:156] Memory required for data: 773112864
I0403 19:50:23.434629  9734 layer_factory.hpp:77] Creating layer inception_3b/output
I0403 19:50:23.434649  9734 net.cpp:91] Creating Layer inception_3b/output
I0403 19:50:23.434664  9734 net.cpp:425] inception_3b/output <- inception_3b/1x1
I0403 19:50:23.434681  9734 net.cpp:425] inception_3b/output <- inception_3b/3x3
I0403 19:50:23.434697  9734 net.cpp:425] inception_3b/output <- inception_3b/5x5
I0403 19:50:23.434712  9734 net.cpp:425] inception_3b/output <- inception_3b/pool_proj
I0403 19:50:23.434728  9734 net.cpp:399] inception_3b/output -> inception_3b/output
I0403 19:50:23.434768  9734 net.cpp:141] Setting up inception_3b/output
I0403 19:50:23.434792  9734 net.cpp:148] Top shape: 24 480 28 28 (9031680)
I0403 19:50:23.434808  9734 net.cpp:156] Memory required for data: 809239584
I0403 19:50:23.434823  9734 layer_factory.hpp:77] Creating layer pool3/3x3_s2
I0403 19:50:23.434839  9734 net.cpp:91] Creating Layer pool3/3x3_s2
I0403 19:50:23.434854  9734 net.cpp:425] pool3/3x3_s2 <- inception_3b/output
I0403 19:50:23.434873  9734 net.cpp:399] pool3/3x3_s2 -> pool3/3x3_s2
I0403 19:50:23.434940  9734 net.cpp:141] Setting up pool3/3x3_s2
I0403 19:50:23.434965  9734 net.cpp:148] Top shape: 24 480 14 14 (2257920)
I0403 19:50:23.434980  9734 net.cpp:156] Memory required for data: 818271264
I0403 19:50:23.434995  9734 layer_factory.hpp:77] Creating layer pool3/3x3_s2_pool3/3x3_s2_0_split
I0403 19:50:23.435011  9734 net.cpp:91] Creating Layer pool3/3x3_s2_pool3/3x3_s2_0_split
I0403 19:50:23.435027  9734 net.cpp:425] pool3/3x3_s2_pool3/3x3_s2_0_split <- pool3/3x3_s2
I0403 19:50:23.435044  9734 net.cpp:399] pool3/3x3_s2_pool3/3x3_s2_0_split -> pool3/3x3_s2_pool3/3x3_s2_0_split_0
I0403 19:50:23.435062  9734 net.cpp:399] pool3/3x3_s2_pool3/3x3_s2_0_split -> pool3/3x3_s2_pool3/3x3_s2_0_split_1
I0403 19:50:23.435083  9734 net.cpp:399] pool3/3x3_s2_pool3/3x3_s2_0_split -> pool3/3x3_s2_pool3/3x3_s2_0_split_2
I0403 19:50:23.435103  9734 net.cpp:399] pool3/3x3_s2_pool3/3x3_s2_0_split -> pool3/3x3_s2_pool3/3x3_s2_0_split_3
I0403 19:50:23.435178  9734 net.cpp:141] Setting up pool3/3x3_s2_pool3/3x3_s2_0_split
I0403 19:50:23.435199  9734 net.cpp:148] Top shape: 24 480 14 14 (2257920)
I0403 19:50:23.435216  9734 net.cpp:148] Top shape: 24 480 14 14 (2257920)
I0403 19:50:23.435232  9734 net.cpp:148] Top shape: 24 480 14 14 (2257920)
I0403 19:50:23.435247  9734 net.cpp:148] Top shape: 24 480 14 14 (2257920)
I0403 19:50:23.435261  9734 net.cpp:156] Memory required for data: 854397984
I0403 19:50:23.435276  9734 layer_factory.hpp:77] Creating layer inception_4a/1x1
I0403 19:50:23.435302  9734 net.cpp:91] Creating Layer inception_4a/1x1
I0403 19:50:23.435318  9734 net.cpp:425] inception_4a/1x1 <- pool3/3x3_s2_pool3/3x3_s2_0_split_0
I0403 19:50:23.435339  9734 net.cpp:399] inception_4a/1x1 -> inception_4a/1x1
I0403 19:50:23.436812  9734 net.cpp:141] Setting up inception_4a/1x1
I0403 19:50:23.436839  9734 net.cpp:148] Top shape: 24 192 14 14 (903168)
I0403 19:50:23.436854  9734 net.cpp:156] Memory required for data: 858010656
I0403 19:50:23.436872  9734 layer_factory.hpp:77] Creating layer inception_4a/relu_1x1
I0403 19:50:23.436893  9734 net.cpp:91] Creating Layer inception_4a/relu_1x1
I0403 19:50:23.436909  9734 net.cpp:425] inception_4a/relu_1x1 <- inception_4a/1x1
I0403 19:50:23.436926  9734 net.cpp:386] inception_4a/relu_1x1 -> inception_4a/1x1 (in-place)
I0403 19:50:23.437091  9734 net.cpp:141] Setting up inception_4a/relu_1x1
I0403 19:50:23.437115  9734 net.cpp:148] Top shape: 24 192 14 14 (903168)
I0403 19:50:23.437130  9734 net.cpp:156] Memory required for data: 861623328
I0403 19:50:23.437145  9734 layer_factory.hpp:77] Creating layer inception_4a/3x3_reduce
I0403 19:50:23.437166  9734 net.cpp:91] Creating Layer inception_4a/3x3_reduce
I0403 19:50:23.437182  9734 net.cpp:425] inception_4a/3x3_reduce <- pool3/3x3_s2_pool3/3x3_s2_0_split_1
I0403 19:50:23.437202  9734 net.cpp:399] inception_4a/3x3_reduce -> inception_4a/3x3_reduce
I0403 19:50:23.438397  9734 net.cpp:141] Setting up inception_4a/3x3_reduce
I0403 19:50:23.438424  9734 net.cpp:148] Top shape: 24 96 14 14 (451584)
I0403 19:50:23.438439  9734 net.cpp:156] Memory required for data: 863429664
I0403 19:50:23.438467  9734 layer_factory.hpp:77] Creating layer inception_4a/relu_3x3_reduce
I0403 19:50:23.438489  9734 net.cpp:91] Creating Layer inception_4a/relu_3x3_reduce
I0403 19:50:23.438506  9734 net.cpp:425] inception_4a/relu_3x3_reduce <- inception_4a/3x3_reduce
I0403 19:50:23.438524  9734 net.cpp:386] inception_4a/relu_3x3_reduce -> inception_4a/3x3_reduce (in-place)
I0403 19:50:23.438690  9734 net.cpp:141] Setting up inception_4a/relu_3x3_reduce
I0403 19:50:23.438716  9734 net.cpp:148] Top shape: 24 96 14 14 (451584)
I0403 19:50:23.438731  9734 net.cpp:156] Memory required for data: 865236000
I0403 19:50:23.438746  9734 layer_factory.hpp:77] Creating layer inception_4a/3x3
I0403 19:50:23.438768  9734 net.cpp:91] Creating Layer inception_4a/3x3
I0403 19:50:23.438784  9734 net.cpp:425] inception_4a/3x3 <- inception_4a/3x3_reduce
I0403 19:50:23.438803  9734 net.cpp:399] inception_4a/3x3 -> inception_4a/3x3
I0403 19:50:23.441320  9734 net.cpp:141] Setting up inception_4a/3x3
I0403 19:50:23.441350  9734 net.cpp:148] Top shape: 24 208 14 14 (978432)
I0403 19:50:23.441367  9734 net.cpp:156] Memory required for data: 869149728
I0403 19:50:23.441385  9734 layer_factory.hpp:77] Creating layer inception_4a/relu_3x3
I0403 19:50:23.441403  9734 net.cpp:91] Creating Layer inception_4a/relu_3x3
I0403 19:50:23.441418  9734 net.cpp:425] inception_4a/relu_3x3 <- inception_4a/3x3
I0403 19:50:23.441437  9734 net.cpp:386] inception_4a/relu_3x3 -> inception_4a/3x3 (in-place)
I0403 19:50:23.441699  9734 net.cpp:141] Setting up inception_4a/relu_3x3
I0403 19:50:23.441728  9734 net.cpp:148] Top shape: 24 208 14 14 (978432)
I0403 19:50:23.441743  9734 net.cpp:156] Memory required for data: 873063456
I0403 19:50:23.441759  9734 layer_factory.hpp:77] Creating layer inception_4a/5x5_reduce
I0403 19:50:23.441781  9734 net.cpp:91] Creating Layer inception_4a/5x5_reduce
I0403 19:50:23.441798  9734 net.cpp:425] inception_4a/5x5_reduce <- pool3/3x3_s2_pool3/3x3_s2_0_split_2
I0403 19:50:23.441817  9734 net.cpp:399] inception_4a/5x5_reduce -> inception_4a/5x5_reduce
I0403 19:50:23.442780  9734 net.cpp:141] Setting up inception_4a/5x5_reduce
I0403 19:50:23.442809  9734 net.cpp:148] Top shape: 24 16 14 14 (75264)
I0403 19:50:23.442824  9734 net.cpp:156] Memory required for data: 873364512
I0403 19:50:23.442842  9734 layer_factory.hpp:77] Creating layer inception_4a/relu_5x5_reduce
I0403 19:50:23.442860  9734 net.cpp:91] Creating Layer inception_4a/relu_5x5_reduce
I0403 19:50:23.442876  9734 net.cpp:425] inception_4a/relu_5x5_reduce <- inception_4a/5x5_reduce
I0403 19:50:23.442896  9734 net.cpp:386] inception_4a/relu_5x5_reduce -> inception_4a/5x5_reduce (in-place)
I0403 19:50:23.443065  9734 net.cpp:141] Setting up inception_4a/relu_5x5_reduce
I0403 19:50:23.443090  9734 net.cpp:148] Top shape: 24 16 14 14 (75264)
I0403 19:50:23.443105  9734 net.cpp:156] Memory required for data: 873665568
I0403 19:50:23.443120  9734 layer_factory.hpp:77] Creating layer inception_4a/5x5
I0403 19:50:23.443143  9734 net.cpp:91] Creating Layer inception_4a/5x5
I0403 19:50:23.443159  9734 net.cpp:425] inception_4a/5x5 <- inception_4a/5x5_reduce
I0403 19:50:23.443181  9734 net.cpp:399] inception_4a/5x5 -> inception_4a/5x5
I0403 19:50:23.444211  9734 net.cpp:141] Setting up inception_4a/5x5
I0403 19:50:23.444238  9734 net.cpp:148] Top shape: 24 48 14 14 (225792)
I0403 19:50:23.444253  9734 net.cpp:156] Memory required for data: 874568736
I0403 19:50:23.444272  9734 layer_factory.hpp:77] Creating layer inception_4a/relu_5x5
I0403 19:50:23.444291  9734 net.cpp:91] Creating Layer inception_4a/relu_5x5
I0403 19:50:23.444308  9734 net.cpp:425] inception_4a/relu_5x5 <- inception_4a/5x5
I0403 19:50:23.444324  9734 net.cpp:386] inception_4a/relu_5x5 -> inception_4a/5x5 (in-place)
I0403 19:50:23.444497  9734 net.cpp:141] Setting up inception_4a/relu_5x5
I0403 19:50:23.444521  9734 net.cpp:148] Top shape: 24 48 14 14 (225792)
I0403 19:50:23.444536  9734 net.cpp:156] Memory required for data: 875471904
I0403 19:50:23.444550  9734 layer_factory.hpp:77] Creating layer inception_4a/pool
I0403 19:50:23.444569  9734 net.cpp:91] Creating Layer inception_4a/pool
I0403 19:50:23.444586  9734 net.cpp:425] inception_4a/pool <- pool3/3x3_s2_pool3/3x3_s2_0_split_3
I0403 19:50:23.444604  9734 net.cpp:399] inception_4a/pool -> inception_4a/pool
I0403 19:50:23.444663  9734 net.cpp:141] Setting up inception_4a/pool
I0403 19:50:23.444685  9734 net.cpp:148] Top shape: 24 480 14 14 (2257920)
I0403 19:50:23.444700  9734 net.cpp:156] Memory required for data: 884503584
I0403 19:50:23.444718  9734 layer_factory.hpp:77] Creating layer inception_4a/pool_proj
I0403 19:50:23.444751  9734 net.cpp:91] Creating Layer inception_4a/pool_proj
I0403 19:50:23.444767  9734 net.cpp:425] inception_4a/pool_proj <- inception_4a/pool
I0403 19:50:23.444787  9734 net.cpp:399] inception_4a/pool_proj -> inception_4a/pool_proj
I0403 19:50:23.445890  9734 net.cpp:141] Setting up inception_4a/pool_proj
I0403 19:50:23.445919  9734 net.cpp:148] Top shape: 24 64 14 14 (301056)
I0403 19:50:23.445950  9734 net.cpp:156] Memory required for data: 885707808
I0403 19:50:23.445967  9734 layer_factory.hpp:77] Creating layer inception_4a/relu_pool_proj
I0403 19:50:23.446015  9734 net.cpp:91] Creating Layer inception_4a/relu_pool_proj
I0403 19:50:23.446032  9734 net.cpp:425] inception_4a/relu_pool_proj <- inception_4a/pool_proj
I0403 19:50:23.446049  9734 net.cpp:386] inception_4a/relu_pool_proj -> inception_4a/pool_proj (in-place)
I0403 19:50:23.446341  9734 net.cpp:141] Setting up inception_4a/relu_pool_proj
I0403 19:50:23.446367  9734 net.cpp:148] Top shape: 24 64 14 14 (301056)
I0403 19:50:23.446382  9734 net.cpp:156] Memory required for data: 886912032
I0403 19:50:23.446395  9734 layer_factory.hpp:77] Creating layer inception_4a/output
I0403 19:50:23.446414  9734 net.cpp:91] Creating Layer inception_4a/output
I0403 19:50:23.446430  9734 net.cpp:425] inception_4a/output <- inception_4a/1x1
I0403 19:50:23.446446  9734 net.cpp:425] inception_4a/output <- inception_4a/3x3
I0403 19:50:23.446466  9734 net.cpp:425] inception_4a/output <- inception_4a/5x5
I0403 19:50:23.446483  9734 net.cpp:425] inception_4a/output <- inception_4a/pool_proj
I0403 19:50:23.446499  9734 net.cpp:399] inception_4a/output -> inception_4a/output
I0403 19:50:23.446547  9734 net.cpp:141] Setting up inception_4a/output
I0403 19:50:23.446569  9734 net.cpp:148] Top shape: 24 512 14 14 (2408448)
I0403 19:50:23.446584  9734 net.cpp:156] Memory required for data: 896545824
I0403 19:50:23.446599  9734 layer_factory.hpp:77] Creating layer inception_4a/output_inception_4a/output_0_split
I0403 19:50:23.446616  9734 net.cpp:91] Creating Layer inception_4a/output_inception_4a/output_0_split
I0403 19:50:23.446630  9734 net.cpp:425] inception_4a/output_inception_4a/output_0_split <- inception_4a/output
I0403 19:50:23.446650  9734 net.cpp:399] inception_4a/output_inception_4a/output_0_split -> inception_4a/output_inception_4a/output_0_split_0
I0403 19:50:23.446671  9734 net.cpp:399] inception_4a/output_inception_4a/output_0_split -> inception_4a/output_inception_4a/output_0_split_1
I0403 19:50:23.446691  9734 net.cpp:399] inception_4a/output_inception_4a/output_0_split -> inception_4a/output_inception_4a/output_0_split_2
I0403 19:50:23.446710  9734 net.cpp:399] inception_4a/output_inception_4a/output_0_split -> inception_4a/output_inception_4a/output_0_split_3
I0403 19:50:23.446730  9734 net.cpp:399] inception_4a/output_inception_4a/output_0_split -> inception_4a/output_inception_4a/output_0_split_4
I0403 19:50:23.446816  9734 net.cpp:141] Setting up inception_4a/output_inception_4a/output_0_split
I0403 19:50:23.446837  9734 net.cpp:148] Top shape: 24 512 14 14 (2408448)
I0403 19:50:23.446853  9734 net.cpp:148] Top shape: 24 512 14 14 (2408448)
I0403 19:50:23.446868  9734 net.cpp:148] Top shape: 24 512 14 14 (2408448)
I0403 19:50:23.446884  9734 net.cpp:148] Top shape: 24 512 14 14 (2408448)
I0403 19:50:23.446900  9734 net.cpp:148] Top shape: 24 512 14 14 (2408448)
I0403 19:50:23.446914  9734 net.cpp:156] Memory required for data: 944714784
I0403 19:50:23.446928  9734 layer_factory.hpp:77] Creating layer loss1/ave_pool
I0403 19:50:23.446945  9734 net.cpp:91] Creating Layer loss1/ave_pool
I0403 19:50:23.446960  9734 net.cpp:425] loss1/ave_pool <- inception_4a/output_inception_4a/output_0_split_0
I0403 19:50:23.446980  9734 net.cpp:399] loss1/ave_pool -> loss1/ave_pool
I0403 19:50:23.447173  9734 net.cpp:141] Setting up loss1/ave_pool
I0403 19:50:23.447198  9734 net.cpp:148] Top shape: 24 512 4 4 (196608)
I0403 19:50:23.447216  9734 net.cpp:156] Memory required for data: 945501216
I0403 19:50:23.447232  9734 layer_factory.hpp:77] Creating layer loss1/conv
I0403 19:50:23.447250  9734 net.cpp:91] Creating Layer loss1/conv
I0403 19:50:23.447268  9734 net.cpp:425] loss1/conv <- loss1/ave_pool
I0403 19:50:23.447288  9734 net.cpp:399] loss1/conv -> loss1/conv
I0403 19:50:23.448609  9734 net.cpp:141] Setting up loss1/conv
I0403 19:50:23.448639  9734 net.cpp:148] Top shape: 24 128 4 4 (49152)
I0403 19:50:23.448668  9734 net.cpp:156] Memory required for data: 945697824
I0403 19:50:23.448699  9734 layer_factory.hpp:77] Creating layer loss1/relu_conv
I0403 19:50:23.448719  9734 net.cpp:91] Creating Layer loss1/relu_conv
I0403 19:50:23.448734  9734 net.cpp:425] loss1/relu_conv <- loss1/conv
I0403 19:50:23.448752  9734 net.cpp:386] loss1/relu_conv -> loss1/conv (in-place)
I0403 19:50:23.449019  9734 net.cpp:141] Setting up loss1/relu_conv
I0403 19:50:23.449046  9734 net.cpp:148] Top shape: 24 128 4 4 (49152)
I0403 19:50:23.449062  9734 net.cpp:156] Memory required for data: 945894432
I0403 19:50:23.449077  9734 layer_factory.hpp:77] Creating layer loss1/fc
I0403 19:50:23.449101  9734 net.cpp:91] Creating Layer loss1/fc
I0403 19:50:23.449117  9734 net.cpp:425] loss1/fc <- loss1/conv
I0403 19:50:23.449138  9734 net.cpp:399] loss1/fc -> loss1/fc
I0403 19:50:23.465927  9734 net.cpp:141] Setting up loss1/fc
I0403 19:50:23.465957  9734 net.cpp:148] Top shape: 24 1024 (24576)
I0403 19:50:23.465973  9734 net.cpp:156] Memory required for data: 945992736
I0403 19:50:23.465992  9734 layer_factory.hpp:77] Creating layer loss1/relu_fc
I0403 19:50:23.466012  9734 net.cpp:91] Creating Layer loss1/relu_fc
I0403 19:50:23.466027  9734 net.cpp:425] loss1/relu_fc <- loss1/fc
I0403 19:50:23.466044  9734 net.cpp:386] loss1/relu_fc -> loss1/fc (in-place)
I0403 19:50:23.466217  9734 net.cpp:141] Setting up loss1/relu_fc
I0403 19:50:23.466240  9734 net.cpp:148] Top shape: 24 1024 (24576)
I0403 19:50:23.466255  9734 net.cpp:156] Memory required for data: 946091040
I0403 19:50:23.466270  9734 layer_factory.hpp:77] Creating layer loss1/drop_fc
I0403 19:50:23.466295  9734 net.cpp:91] Creating Layer loss1/drop_fc
I0403 19:50:23.466312  9734 net.cpp:425] loss1/drop_fc <- loss1/fc
I0403 19:50:23.466331  9734 net.cpp:386] loss1/drop_fc -> loss1/fc (in-place)
I0403 19:50:23.466380  9734 net.cpp:141] Setting up loss1/drop_fc
I0403 19:50:23.466403  9734 net.cpp:148] Top shape: 24 1024 (24576)
I0403 19:50:23.466418  9734 net.cpp:156] Memory required for data: 946189344
I0403 19:50:23.466431  9734 layer_factory.hpp:77] Creating layer loss1/classifier_plantvillage
I0403 19:50:23.466454  9734 net.cpp:91] Creating Layer loss1/classifier_plantvillage
I0403 19:50:23.466475  9734 net.cpp:425] loss1/classifier_plantvillage <- loss1/fc
I0403 19:50:23.466495  9734 net.cpp:399] loss1/classifier_plantvillage -> loss1/classifier_plantvillage
I0403 19:50:23.467356  9734 net.cpp:141] Setting up loss1/classifier_plantvillage
I0403 19:50:23.467383  9734 net.cpp:148] Top shape: 24 38 (912)
I0403 19:50:23.467398  9734 net.cpp:156] Memory required for data: 946192992
I0403 19:50:23.467416  9734 layer_factory.hpp:77] Creating layer loss1/classifier_plantvillage_loss1/classifier_plantvillage_0_split
I0403 19:50:23.467434  9734 net.cpp:91] Creating Layer loss1/classifier_plantvillage_loss1/classifier_plantvillage_0_split
I0403 19:50:23.467449  9734 net.cpp:425] loss1/classifier_plantvillage_loss1/classifier_plantvillage_0_split <- loss1/classifier_plantvillage
I0403 19:50:23.467471  9734 net.cpp:399] loss1/classifier_plantvillage_loss1/classifier_plantvillage_0_split -> loss1/classifier_plantvillage_loss1/classifier_plantvillage_0_split_0
I0403 19:50:23.467496  9734 net.cpp:399] loss1/classifier_plantvillage_loss1/classifier_plantvillage_0_split -> loss1/classifier_plantvillage_loss1/classifier_plantvillage_0_split_1
I0403 19:50:23.467516  9734 net.cpp:399] loss1/classifier_plantvillage_loss1/classifier_plantvillage_0_split -> loss1/classifier_plantvillage_loss1/classifier_plantvillage_0_split_2
I0403 19:50:23.467581  9734 net.cpp:141] Setting up loss1/classifier_plantvillage_loss1/classifier_plantvillage_0_split
I0403 19:50:23.467603  9734 net.cpp:148] Top shape: 24 38 (912)
I0403 19:50:23.467618  9734 net.cpp:148] Top shape: 24 38 (912)
I0403 19:50:23.467633  9734 net.cpp:148] Top shape: 24 38 (912)
I0403 19:50:23.467648  9734 net.cpp:156] Memory required for data: 946203936
I0403 19:50:23.467661  9734 layer_factory.hpp:77] Creating layer inception_4b/1x1
I0403 19:50:23.467685  9734 net.cpp:91] Creating Layer inception_4b/1x1
I0403 19:50:23.467716  9734 net.cpp:425] inception_4b/1x1 <- inception_4a/output_inception_4a/output_0_split_1
I0403 19:50:23.467736  9734 net.cpp:399] inception_4b/1x1 -> inception_4b/1x1
I0403 19:50:23.469272  9734 net.cpp:141] Setting up inception_4b/1x1
I0403 19:50:23.469302  9734 net.cpp:148] Top shape: 24 160 14 14 (752640)
I0403 19:50:23.469318  9734 net.cpp:156] Memory required for data: 949214496
I0403 19:50:23.469336  9734 layer_factory.hpp:77] Creating layer inception_4b/relu_1x1
I0403 19:50:23.469354  9734 net.cpp:91] Creating Layer inception_4b/relu_1x1
I0403 19:50:23.469369  9734 net.cpp:425] inception_4b/relu_1x1 <- inception_4b/1x1
I0403 19:50:23.469388  9734 net.cpp:386] inception_4b/relu_1x1 -> inception_4b/1x1 (in-place)
I0403 19:50:23.469560  9734 net.cpp:141] Setting up inception_4b/relu_1x1
I0403 19:50:23.469585  9734 net.cpp:148] Top shape: 24 160 14 14 (752640)
I0403 19:50:23.469600  9734 net.cpp:156] Memory required for data: 952225056
I0403 19:50:23.469615  9734 layer_factory.hpp:77] Creating layer inception_4b/3x3_reduce
I0403 19:50:23.469638  9734 net.cpp:91] Creating Layer inception_4b/3x3_reduce
I0403 19:50:23.469655  9734 net.cpp:425] inception_4b/3x3_reduce <- inception_4a/output_inception_4a/output_0_split_2
I0403 19:50:23.469676  9734 net.cpp:399] inception_4b/3x3_reduce -> inception_4b/3x3_reduce
I0403 19:50:23.470947  9734 net.cpp:141] Setting up inception_4b/3x3_reduce
I0403 19:50:23.470973  9734 net.cpp:148] Top shape: 24 112 14 14 (526848)
I0403 19:50:23.470988  9734 net.cpp:156] Memory required for data: 954332448
I0403 19:50:23.471006  9734 layer_factory.hpp:77] Creating layer inception_4b/relu_3x3_reduce
I0403 19:50:23.471026  9734 net.cpp:91] Creating Layer inception_4b/relu_3x3_reduce
I0403 19:50:23.471043  9734 net.cpp:425] inception_4b/relu_3x3_reduce <- inception_4b/3x3_reduce
I0403 19:50:23.471060  9734 net.cpp:386] inception_4b/relu_3x3_reduce -> inception_4b/3x3_reduce (in-place)
I0403 19:50:23.471330  9734 net.cpp:141] Setting up inception_4b/relu_3x3_reduce
I0403 19:50:23.471356  9734 net.cpp:148] Top shape: 24 112 14 14 (526848)
I0403 19:50:23.471371  9734 net.cpp:156] Memory required for data: 956439840
I0403 19:50:23.471386  9734 layer_factory.hpp:77] Creating layer inception_4b/3x3
I0403 19:50:23.471408  9734 net.cpp:91] Creating Layer inception_4b/3x3
I0403 19:50:23.471426  9734 net.cpp:425] inception_4b/3x3 <- inception_4b/3x3_reduce
I0403 19:50:23.471447  9734 net.cpp:399] inception_4b/3x3 -> inception_4b/3x3
I0403 19:50:23.474277  9734 net.cpp:141] Setting up inception_4b/3x3
I0403 19:50:23.474305  9734 net.cpp:148] Top shape: 24 224 14 14 (1053696)
I0403 19:50:23.474320  9734 net.cpp:156] Memory required for data: 960654624
I0403 19:50:23.474339  9734 layer_factory.hpp:77] Creating layer inception_4b/relu_3x3
I0403 19:50:23.474359  9734 net.cpp:91] Creating Layer inception_4b/relu_3x3
I0403 19:50:23.474376  9734 net.cpp:425] inception_4b/relu_3x3 <- inception_4b/3x3
I0403 19:50:23.474395  9734 net.cpp:386] inception_4b/relu_3x3 -> inception_4b/3x3 (in-place)
I0403 19:50:23.474570  9734 net.cpp:141] Setting up inception_4b/relu_3x3
I0403 19:50:23.474594  9734 net.cpp:148] Top shape: 24 224 14 14 (1053696)
I0403 19:50:23.474608  9734 net.cpp:156] Memory required for data: 964869408
I0403 19:50:23.474623  9734 layer_factory.hpp:77] Creating layer inception_4b/5x5_reduce
I0403 19:50:23.474644  9734 net.cpp:91] Creating Layer inception_4b/5x5_reduce
I0403 19:50:23.474661  9734 net.cpp:425] inception_4b/5x5_reduce <- inception_4a/output_inception_4a/output_0_split_3
I0403 19:50:23.474684  9734 net.cpp:399] inception_4b/5x5_reduce -> inception_4b/5x5_reduce
I0403 19:50:23.475718  9734 net.cpp:141] Setting up inception_4b/5x5_reduce
I0403 19:50:23.475746  9734 net.cpp:148] Top shape: 24 24 14 14 (112896)
I0403 19:50:23.475762  9734 net.cpp:156] Memory required for data: 965320992
I0403 19:50:23.475780  9734 layer_factory.hpp:77] Creating layer inception_4b/relu_5x5_reduce
I0403 19:50:23.475797  9734 net.cpp:91] Creating Layer inception_4b/relu_5x5_reduce
I0403 19:50:23.475826  9734 net.cpp:425] inception_4b/relu_5x5_reduce <- inception_4b/5x5_reduce
I0403 19:50:23.475847  9734 net.cpp:386] inception_4b/relu_5x5_reduce -> inception_4b/5x5_reduce (in-place)
I0403 19:50:23.476029  9734 net.cpp:141] Setting up inception_4b/relu_5x5_reduce
I0403 19:50:23.476054  9734 net.cpp:148] Top shape: 24 24 14 14 (112896)
I0403 19:50:23.476069  9734 net.cpp:156] Memory required for data: 965772576
I0403 19:50:23.476084  9734 layer_factory.hpp:77] Creating layer inception_4b/5x5
I0403 19:50:23.476109  9734 net.cpp:91] Creating Layer inception_4b/5x5
I0403 19:50:23.476128  9734 net.cpp:425] inception_4b/5x5 <- inception_4b/5x5_reduce
I0403 19:50:23.476148  9734 net.cpp:399] inception_4b/5x5 -> inception_4b/5x5
I0403 19:50:23.477315  9734 net.cpp:141] Setting up inception_4b/5x5
I0403 19:50:23.477344  9734 net.cpp:148] Top shape: 24 64 14 14 (301056)
I0403 19:50:23.477360  9734 net.cpp:156] Memory required for data: 966976800
I0403 19:50:23.477378  9734 layer_factory.hpp:77] Creating layer inception_4b/relu_5x5
I0403 19:50:23.477396  9734 net.cpp:91] Creating Layer inception_4b/relu_5x5
I0403 19:50:23.477412  9734 net.cpp:425] inception_4b/relu_5x5 <- inception_4b/5x5
I0403 19:50:23.477432  9734 net.cpp:386] inception_4b/relu_5x5 -> inception_4b/5x5 (in-place)
I0403 19:50:23.477730  9734 net.cpp:141] Setting up inception_4b/relu_5x5
I0403 19:50:23.477757  9734 net.cpp:148] Top shape: 24 64 14 14 (301056)
I0403 19:50:23.477787  9734 net.cpp:156] Memory required for data: 968181024
I0403 19:50:23.477802  9734 layer_factory.hpp:77] Creating layer inception_4b/pool
I0403 19:50:23.477819  9734 net.cpp:91] Creating Layer inception_4b/pool
I0403 19:50:23.477835  9734 net.cpp:425] inception_4b/pool <- inception_4a/output_inception_4a/output_0_split_4
I0403 19:50:23.477855  9734 net.cpp:399] inception_4b/pool -> inception_4b/pool
I0403 19:50:23.477916  9734 net.cpp:141] Setting up inception_4b/pool
I0403 19:50:23.477942  9734 net.cpp:148] Top shape: 24 512 14 14 (2408448)
I0403 19:50:23.477958  9734 net.cpp:156] Memory required for data: 977814816
I0403 19:50:23.477973  9734 layer_factory.hpp:77] Creating layer inception_4b/pool_proj
I0403 19:50:23.477994  9734 net.cpp:91] Creating Layer inception_4b/pool_proj
I0403 19:50:23.478013  9734 net.cpp:425] inception_4b/pool_proj <- inception_4b/pool
I0403 19:50:23.478030  9734 net.cpp:399] inception_4b/pool_proj -> inception_4b/pool_proj
I0403 19:50:23.479168  9734 net.cpp:141] Setting up inception_4b/pool_proj
I0403 19:50:23.479197  9734 net.cpp:148] Top shape: 24 64 14 14 (301056)
I0403 19:50:23.479212  9734 net.cpp:156] Memory required for data: 979019040
I0403 19:50:23.479229  9734 layer_factory.hpp:77] Creating layer inception_4b/relu_pool_proj
I0403 19:50:23.479246  9734 net.cpp:91] Creating Layer inception_4b/relu_pool_proj
I0403 19:50:23.479265  9734 net.cpp:425] inception_4b/relu_pool_proj <- inception_4b/pool_proj
I0403 19:50:23.479282  9734 net.cpp:386] inception_4b/relu_pool_proj -> inception_4b/pool_proj (in-place)
I0403 19:50:23.479454  9734 net.cpp:141] Setting up inception_4b/relu_pool_proj
I0403 19:50:23.479480  9734 net.cpp:148] Top shape: 24 64 14 14 (301056)
I0403 19:50:23.479496  9734 net.cpp:156] Memory required for data: 980223264
I0403 19:50:23.479509  9734 layer_factory.hpp:77] Creating layer inception_4b/output
I0403 19:50:23.479537  9734 net.cpp:91] Creating Layer inception_4b/output
I0403 19:50:23.479553  9734 net.cpp:425] inception_4b/output <- inception_4b/1x1
I0403 19:50:23.479570  9734 net.cpp:425] inception_4b/output <- inception_4b/3x3
I0403 19:50:23.479586  9734 net.cpp:425] inception_4b/output <- inception_4b/5x5
I0403 19:50:23.479600  9734 net.cpp:425] inception_4b/output <- inception_4b/pool_proj
I0403 19:50:23.479616  9734 net.cpp:399] inception_4b/output -> inception_4b/output
I0403 19:50:23.479665  9734 net.cpp:141] Setting up inception_4b/output
I0403 19:50:23.479687  9734 net.cpp:148] Top shape: 24 512 14 14 (2408448)
I0403 19:50:23.479701  9734 net.cpp:156] Memory required for data: 989857056
I0403 19:50:23.479729  9734 layer_factory.hpp:77] Creating layer inception_4b/output_inception_4b/output_0_split
I0403 19:50:23.479748  9734 net.cpp:91] Creating Layer inception_4b/output_inception_4b/output_0_split
I0403 19:50:23.479763  9734 net.cpp:425] inception_4b/output_inception_4b/output_0_split <- inception_4b/output
I0403 19:50:23.479780  9734 net.cpp:399] inception_4b/output_inception_4b/output_0_split -> inception_4b/output_inception_4b/output_0_split_0
I0403 19:50:23.479801  9734 net.cpp:399] inception_4b/output_inception_4b/output_0_split -> inception_4b/output_inception_4b/output_0_split_1
I0403 19:50:23.479821  9734 net.cpp:399] inception_4b/output_inception_4b/output_0_split -> inception_4b/output_inception_4b/output_0_split_2
I0403 19:50:23.479840  9734 net.cpp:399] inception_4b/output_inception_4b/output_0_split -> inception_4b/output_inception_4b/output_0_split_3
I0403 19:50:23.479919  9734 net.cpp:141] Setting up inception_4b/output_inception_4b/output_0_split
I0403 19:50:23.479943  9734 net.cpp:148] Top shape: 24 512 14 14 (2408448)
I0403 19:50:23.479960  9734 net.cpp:148] Top shape: 24 512 14 14 (2408448)
I0403 19:50:23.479975  9734 net.cpp:148] Top shape: 24 512 14 14 (2408448)
I0403 19:50:23.479991  9734 net.cpp:148] Top shape: 24 512 14 14 (2408448)
I0403 19:50:23.480005  9734 net.cpp:156] Memory required for data: 1028392224
I0403 19:50:23.480020  9734 layer_factory.hpp:77] Creating layer inception_4c/1x1
I0403 19:50:23.480041  9734 net.cpp:91] Creating Layer inception_4c/1x1
I0403 19:50:23.480058  9734 net.cpp:425] inception_4c/1x1 <- inception_4b/output_inception_4b/output_0_split_0
I0403 19:50:23.480077  9734 net.cpp:399] inception_4c/1x1 -> inception_4c/1x1
I0403 19:50:23.481434  9734 net.cpp:141] Setting up inception_4c/1x1
I0403 19:50:23.481467  9734 net.cpp:148] Top shape: 24 128 14 14 (602112)
I0403 19:50:23.481482  9734 net.cpp:156] Memory required for data: 1030800672
I0403 19:50:23.481500  9734 layer_factory.hpp:77] Creating layer inception_4c/relu_1x1
I0403 19:50:23.481521  9734 net.cpp:91] Creating Layer inception_4c/relu_1x1
I0403 19:50:23.481539  9734 net.cpp:425] inception_4c/relu_1x1 <- inception_4c/1x1
I0403 19:50:23.481555  9734 net.cpp:386] inception_4c/relu_1x1 -> inception_4c/1x1 (in-place)
I0403 19:50:23.481727  9734 net.cpp:141] Setting up inception_4c/relu_1x1
I0403 19:50:23.481755  9734 net.cpp:148] Top shape: 24 128 14 14 (602112)
I0403 19:50:23.481770  9734 net.cpp:156] Memory required for data: 1033209120
I0403 19:50:23.481786  9734 layer_factory.hpp:77] Creating layer inception_4c/3x3_reduce
I0403 19:50:23.481807  9734 net.cpp:91] Creating Layer inception_4c/3x3_reduce
I0403 19:50:23.481824  9734 net.cpp:425] inception_4c/3x3_reduce <- inception_4b/output_inception_4b/output_0_split_1
I0403 19:50:23.481842  9734 net.cpp:399] inception_4c/3x3_reduce -> inception_4c/3x3_reduce
I0403 19:50:23.483707  9734 net.cpp:141] Setting up inception_4c/3x3_reduce
I0403 19:50:23.483736  9734 net.cpp:148] Top shape: 24 128 14 14 (602112)
I0403 19:50:23.483752  9734 net.cpp:156] Memory required for data: 1035617568
I0403 19:50:23.483769  9734 layer_factory.hpp:77] Creating layer inception_4c/relu_3x3_reduce
I0403 19:50:23.483786  9734 net.cpp:91] Creating Layer inception_4c/relu_3x3_reduce
I0403 19:50:23.483803  9734 net.cpp:425] inception_4c/relu_3x3_reduce <- inception_4c/3x3_reduce
I0403 19:50:23.483821  9734 net.cpp:386] inception_4c/relu_3x3_reduce -> inception_4c/3x3_reduce (in-place)
I0403 19:50:23.484093  9734 net.cpp:141] Setting up inception_4c/relu_3x3_reduce
I0403 19:50:23.484119  9734 net.cpp:148] Top shape: 24 128 14 14 (602112)
I0403 19:50:23.484133  9734 net.cpp:156] Memory required for data: 1038026016
I0403 19:50:23.484149  9734 layer_factory.hpp:77] Creating layer inception_4c/3x3
I0403 19:50:23.484171  9734 net.cpp:91] Creating Layer inception_4c/3x3
I0403 19:50:23.484190  9734 net.cpp:425] inception_4c/3x3 <- inception_4c/3x3_reduce
I0403 19:50:23.484210  9734 net.cpp:399] inception_4c/3x3 -> inception_4c/3x3
I0403 19:50:23.487630  9734 net.cpp:141] Setting up inception_4c/3x3
I0403 19:50:23.487670  9734 net.cpp:148] Top shape: 24 256 14 14 (1204224)
I0403 19:50:23.487686  9734 net.cpp:156] Memory required for data: 1042842912
I0403 19:50:23.487716  9734 layer_factory.hpp:77] Creating layer inception_4c/relu_3x3
I0403 19:50:23.487736  9734 net.cpp:91] Creating Layer inception_4c/relu_3x3
I0403 19:50:23.487752  9734 net.cpp:425] inception_4c/relu_3x3 <- inception_4c/3x3
I0403 19:50:23.487771  9734 net.cpp:386] inception_4c/relu_3x3 -> inception_4c/3x3 (in-place)
I0403 19:50:23.487946  9734 net.cpp:141] Setting up inception_4c/relu_3x3
I0403 19:50:23.487970  9734 net.cpp:148] Top shape: 24 256 14 14 (1204224)
I0403 19:50:23.487984  9734 net.cpp:156] Memory required for data: 1047659808
I0403 19:50:23.488000  9734 layer_factory.hpp:77] Creating layer inception_4c/5x5_reduce
I0403 19:50:23.488023  9734 net.cpp:91] Creating Layer inception_4c/5x5_reduce
I0403 19:50:23.488040  9734 net.cpp:425] inception_4c/5x5_reduce <- inception_4b/output_inception_4b/output_0_split_2
I0403 19:50:23.488060  9734 net.cpp:399] inception_4c/5x5_reduce -> inception_4c/5x5_reduce
I0403 19:50:23.489104  9734 net.cpp:141] Setting up inception_4c/5x5_reduce
I0403 19:50:23.489132  9734 net.cpp:148] Top shape: 24 24 14 14 (112896)
I0403 19:50:23.489147  9734 net.cpp:156] Memory required for data: 1048111392
I0403 19:50:23.489166  9734 layer_factory.hpp:77] Creating layer inception_4c/relu_5x5_reduce
I0403 19:50:23.489186  9734 net.cpp:91] Creating Layer inception_4c/relu_5x5_reduce
I0403 19:50:23.489200  9734 net.cpp:425] inception_4c/relu_5x5_reduce <- inception_4c/5x5_reduce
I0403 19:50:23.489220  9734 net.cpp:386] inception_4c/relu_5x5_reduce -> inception_4c/5x5_reduce (in-place)
I0403 19:50:23.489395  9734 net.cpp:141] Setting up inception_4c/relu_5x5_reduce
I0403 19:50:23.489420  9734 net.cpp:148] Top shape: 24 24 14 14 (112896)
I0403 19:50:23.489434  9734 net.cpp:156] Memory required for data: 1048562976
I0403 19:50:23.489449  9734 layer_factory.hpp:77] Creating layer inception_4c/5x5
I0403 19:50:23.489476  9734 net.cpp:91] Creating Layer inception_4c/5x5
I0403 19:50:23.489495  9734 net.cpp:425] inception_4c/5x5 <- inception_4c/5x5_reduce
I0403 19:50:23.489516  9734 net.cpp:399] inception_4c/5x5 -> inception_4c/5x5
I0403 19:50:23.490705  9734 net.cpp:141] Setting up inception_4c/5x5
I0403 19:50:23.490731  9734 net.cpp:148] Top shape: 24 64 14 14 (301056)
I0403 19:50:23.490746  9734 net.cpp:156] Memory required for data: 1049767200
I0403 19:50:23.490764  9734 layer_factory.hpp:77] Creating layer inception_4c/relu_5x5
I0403 19:50:23.490784  9734 net.cpp:91] Creating Layer inception_4c/relu_5x5
I0403 19:50:23.490800  9734 net.cpp:425] inception_4c/relu_5x5 <- inception_4c/5x5
I0403 19:50:23.490818  9734 net.cpp:386] inception_4c/relu_5x5 -> inception_4c/5x5 (in-place)
I0403 19:50:23.491097  9734 net.cpp:141] Setting up inception_4c/relu_5x5
I0403 19:50:23.491122  9734 net.cpp:148] Top shape: 24 64 14 14 (301056)
I0403 19:50:23.491137  9734 net.cpp:156] Memory required for data: 1050971424
I0403 19:50:23.491150  9734 layer_factory.hpp:77] Creating layer inception_4c/pool
I0403 19:50:23.491169  9734 net.cpp:91] Creating Layer inception_4c/pool
I0403 19:50:23.491186  9734 net.cpp:425] inception_4c/pool <- inception_4b/output_inception_4b/output_0_split_3
I0403 19:50:23.491204  9734 net.cpp:399] inception_4c/pool -> inception_4c/pool
I0403 19:50:23.491268  9734 net.cpp:141] Setting up inception_4c/pool
I0403 19:50:23.491292  9734 net.cpp:148] Top shape: 24 512 14 14 (2408448)
I0403 19:50:23.491307  9734 net.cpp:156] Memory required for data: 1060605216
I0403 19:50:23.491320  9734 layer_factory.hpp:77] Creating layer inception_4c/pool_proj
I0403 19:50:23.491341  9734 net.cpp:91] Creating Layer inception_4c/pool_proj
I0403 19:50:23.491359  9734 net.cpp:425] inception_4c/pool_proj <- inception_4c/pool
I0403 19:50:23.491380  9734 net.cpp:399] inception_4c/pool_proj -> inception_4c/pool_proj
I0403 19:50:23.492624  9734 net.cpp:141] Setting up inception_4c/pool_proj
I0403 19:50:23.492651  9734 net.cpp:148] Top shape: 24 64 14 14 (301056)
I0403 19:50:23.492681  9734 net.cpp:156] Memory required for data: 1061809440
I0403 19:50:23.492699  9734 layer_factory.hpp:77] Creating layer inception_4c/relu_pool_proj
I0403 19:50:23.492717  9734 net.cpp:91] Creating Layer inception_4c/relu_pool_proj
I0403 19:50:23.492733  9734 net.cpp:425] inception_4c/relu_pool_proj <- inception_4c/pool_proj
I0403 19:50:23.492753  9734 net.cpp:386] inception_4c/relu_pool_proj -> inception_4c/pool_proj (in-place)
I0403 19:50:23.492926  9734 net.cpp:141] Setting up inception_4c/relu_pool_proj
I0403 19:50:23.492951  9734 net.cpp:148] Top shape: 24 64 14 14 (301056)
I0403 19:50:23.492966  9734 net.cpp:156] Memory required for data: 1063013664
I0403 19:50:23.492981  9734 layer_factory.hpp:77] Creating layer inception_4c/output
I0403 19:50:23.492997  9734 net.cpp:91] Creating Layer inception_4c/output
I0403 19:50:23.493012  9734 net.cpp:425] inception_4c/output <- inception_4c/1x1
I0403 19:50:23.493031  9734 net.cpp:425] inception_4c/output <- inception_4c/3x3
I0403 19:50:23.493047  9734 net.cpp:425] inception_4c/output <- inception_4c/5x5
I0403 19:50:23.493062  9734 net.cpp:425] inception_4c/output <- inception_4c/pool_proj
I0403 19:50:23.493078  9734 net.cpp:399] inception_4c/output -> inception_4c/output
I0403 19:50:23.493124  9734 net.cpp:141] Setting up inception_4c/output
I0403 19:50:23.493147  9734 net.cpp:148] Top shape: 24 512 14 14 (2408448)
I0403 19:50:23.493162  9734 net.cpp:156] Memory required for data: 1072647456
I0403 19:50:23.493177  9734 layer_factory.hpp:77] Creating layer inception_4c/output_inception_4c/output_0_split
I0403 19:50:23.493193  9734 net.cpp:91] Creating Layer inception_4c/output_inception_4c/output_0_split
I0403 19:50:23.493208  9734 net.cpp:425] inception_4c/output_inception_4c/output_0_split <- inception_4c/output
I0403 19:50:23.493227  9734 net.cpp:399] inception_4c/output_inception_4c/output_0_split -> inception_4c/output_inception_4c/output_0_split_0
I0403 19:50:23.493247  9734 net.cpp:399] inception_4c/output_inception_4c/output_0_split -> inception_4c/output_inception_4c/output_0_split_1
I0403 19:50:23.493268  9734 net.cpp:399] inception_4c/output_inception_4c/output_0_split -> inception_4c/output_inception_4c/output_0_split_2
I0403 19:50:23.493286  9734 net.cpp:399] inception_4c/output_inception_4c/output_0_split -> inception_4c/output_inception_4c/output_0_split_3
I0403 19:50:23.493371  9734 net.cpp:141] Setting up inception_4c/output_inception_4c/output_0_split
I0403 19:50:23.493396  9734 net.cpp:148] Top shape: 24 512 14 14 (2408448)
I0403 19:50:23.493412  9734 net.cpp:148] Top shape: 24 512 14 14 (2408448)
I0403 19:50:23.493428  9734 net.cpp:148] Top shape: 24 512 14 14 (2408448)
I0403 19:50:23.493443  9734 net.cpp:148] Top shape: 24 512 14 14 (2408448)
I0403 19:50:23.493458  9734 net.cpp:156] Memory required for data: 1111182624
I0403 19:50:23.493475  9734 layer_factory.hpp:77] Creating layer inception_4d/1x1
I0403 19:50:23.493499  9734 net.cpp:91] Creating Layer inception_4d/1x1
I0403 19:50:23.493517  9734 net.cpp:425] inception_4d/1x1 <- inception_4c/output_inception_4c/output_0_split_0
I0403 19:50:23.493535  9734 net.cpp:399] inception_4d/1x1 -> inception_4d/1x1
I0403 19:50:23.494848  9734 net.cpp:141] Setting up inception_4d/1x1
I0403 19:50:23.494876  9734 net.cpp:148] Top shape: 24 112 14 14 (526848)
I0403 19:50:23.494894  9734 net.cpp:156] Memory required for data: 1113290016
I0403 19:50:23.494911  9734 layer_factory.hpp:77] Creating layer inception_4d/relu_1x1
I0403 19:50:23.494928  9734 net.cpp:91] Creating Layer inception_4d/relu_1x1
I0403 19:50:23.494943  9734 net.cpp:425] inception_4d/relu_1x1 <- inception_4d/1x1
I0403 19:50:23.494962  9734 net.cpp:386] inception_4d/relu_1x1 -> inception_4d/1x1 (in-place)
I0403 19:50:23.495138  9734 net.cpp:141] Setting up inception_4d/relu_1x1
I0403 19:50:23.495162  9734 net.cpp:148] Top shape: 24 112 14 14 (526848)
I0403 19:50:23.495177  9734 net.cpp:156] Memory required for data: 1115397408
I0403 19:50:23.495193  9734 layer_factory.hpp:77] Creating layer inception_4d/3x3_reduce
I0403 19:50:23.495228  9734 net.cpp:91] Creating Layer inception_4d/3x3_reduce
I0403 19:50:23.495247  9734 net.cpp:425] inception_4d/3x3_reduce <- inception_4c/output_inception_4c/output_0_split_1
I0403 19:50:23.495267  9734 net.cpp:399] inception_4d/3x3_reduce -> inception_4d/3x3_reduce
I0403 19:50:23.496706  9734 net.cpp:141] Setting up inception_4d/3x3_reduce
I0403 19:50:23.496734  9734 net.cpp:148] Top shape: 24 144 14 14 (677376)
I0403 19:50:23.496749  9734 net.cpp:156] Memory required for data: 1118106912
I0403 19:50:23.496767  9734 layer_factory.hpp:77] Creating layer inception_4d/relu_3x3_reduce
I0403 19:50:23.496788  9734 net.cpp:91] Creating Layer inception_4d/relu_3x3_reduce
I0403 19:50:23.496803  9734 net.cpp:425] inception_4d/relu_3x3_reduce <- inception_4d/3x3_reduce
I0403 19:50:23.496819  9734 net.cpp:386] inception_4d/relu_3x3_reduce -> inception_4d/3x3_reduce (in-place)
I0403 19:50:23.497097  9734 net.cpp:141] Setting up inception_4d/relu_3x3_reduce
I0403 19:50:23.497123  9734 net.cpp:148] Top shape: 24 144 14 14 (677376)
I0403 19:50:23.497138  9734 net.cpp:156] Memory required for data: 1120816416
I0403 19:50:23.497153  9734 layer_factory.hpp:77] Creating layer inception_4d/3x3
I0403 19:50:23.497176  9734 net.cpp:91] Creating Layer inception_4d/3x3
I0403 19:50:23.497194  9734 net.cpp:425] inception_4d/3x3 <- inception_4d/3x3_reduce
I0403 19:50:23.497213  9734 net.cpp:399] inception_4d/3x3 -> inception_4d/3x3
I0403 19:50:23.501266  9734 net.cpp:141] Setting up inception_4d/3x3
I0403 19:50:23.501297  9734 net.cpp:148] Top shape: 24 288 14 14 (1354752)
I0403 19:50:23.501313  9734 net.cpp:156] Memory required for data: 1126235424
I0403 19:50:23.501332  9734 layer_factory.hpp:77] Creating layer inception_4d/relu_3x3
I0403 19:50:23.501350  9734 net.cpp:91] Creating Layer inception_4d/relu_3x3
I0403 19:50:23.501365  9734 net.cpp:425] inception_4d/relu_3x3 <- inception_4d/3x3
I0403 19:50:23.501382  9734 net.cpp:386] inception_4d/relu_3x3 -> inception_4d/3x3 (in-place)
I0403 19:50:23.501569  9734 net.cpp:141] Setting up inception_4d/relu_3x3
I0403 19:50:23.501593  9734 net.cpp:148] Top shape: 24 288 14 14 (1354752)
I0403 19:50:23.501607  9734 net.cpp:156] Memory required for data: 1131654432
I0403 19:50:23.501622  9734 layer_factory.hpp:77] Creating layer inception_4d/5x5_reduce
I0403 19:50:23.501644  9734 net.cpp:91] Creating Layer inception_4d/5x5_reduce
I0403 19:50:23.501662  9734 net.cpp:425] inception_4d/5x5_reduce <- inception_4c/output_inception_4c/output_0_split_2
I0403 19:50:23.501685  9734 net.cpp:399] inception_4d/5x5_reduce -> inception_4d/5x5_reduce
I0403 19:50:23.502777  9734 net.cpp:141] Setting up inception_4d/5x5_reduce
I0403 19:50:23.502809  9734 net.cpp:148] Top shape: 24 32 14 14 (150528)
I0403 19:50:23.502825  9734 net.cpp:156] Memory required for data: 1132256544
I0403 19:50:23.502842  9734 layer_factory.hpp:77] Creating layer inception_4d/relu_5x5_reduce
I0403 19:50:23.502859  9734 net.cpp:91] Creating Layer inception_4d/relu_5x5_reduce
I0403 19:50:23.502876  9734 net.cpp:425] inception_4d/relu_5x5_reduce <- inception_4d/5x5_reduce
I0403 19:50:23.502894  9734 net.cpp:386] inception_4d/relu_5x5_reduce -> inception_4d/5x5_reduce (in-place)
I0403 19:50:23.503072  9734 net.cpp:141] Setting up inception_4d/relu_5x5_reduce
I0403 19:50:23.503096  9734 net.cpp:148] Top shape: 24 32 14 14 (150528)
I0403 19:50:23.503110  9734 net.cpp:156] Memory required for data: 1132858656
I0403 19:50:23.503124  9734 layer_factory.hpp:77] Creating layer inception_4d/5x5
I0403 19:50:23.503146  9734 net.cpp:91] Creating Layer inception_4d/5x5
I0403 19:50:23.503165  9734 net.cpp:425] inception_4d/5x5 <- inception_4d/5x5_reduce
I0403 19:50:23.503186  9734 net.cpp:399] inception_4d/5x5 -> inception_4d/5x5
I0403 19:50:23.504597  9734 net.cpp:141] Setting up inception_4d/5x5
I0403 19:50:23.504624  9734 net.cpp:148] Top shape: 24 64 14 14 (301056)
I0403 19:50:23.504639  9734 net.cpp:156] Memory required for data: 1134062880
I0403 19:50:23.504658  9734 layer_factory.hpp:77] Creating layer inception_4d/relu_5x5
I0403 19:50:23.504691  9734 net.cpp:91] Creating Layer inception_4d/relu_5x5
I0403 19:50:23.504709  9734 net.cpp:425] inception_4d/relu_5x5 <- inception_4d/5x5
I0403 19:50:23.504727  9734 net.cpp:386] inception_4d/relu_5x5 -> inception_4d/5x5 (in-place)
I0403 19:50:23.505015  9734 net.cpp:141] Setting up inception_4d/relu_5x5
I0403 19:50:23.505041  9734 net.cpp:148] Top shape: 24 64 14 14 (301056)
I0403 19:50:23.505056  9734 net.cpp:156] Memory required for data: 1135267104
I0403 19:50:23.505070  9734 layer_factory.hpp:77] Creating layer inception_4d/pool
I0403 19:50:23.505089  9734 net.cpp:91] Creating Layer inception_4d/pool
I0403 19:50:23.505105  9734 net.cpp:425] inception_4d/pool <- inception_4c/output_inception_4c/output_0_split_3
I0403 19:50:23.505128  9734 net.cpp:399] inception_4d/pool -> inception_4d/pool
I0403 19:50:23.505194  9734 net.cpp:141] Setting up inception_4d/pool
I0403 19:50:23.505218  9734 net.cpp:148] Top shape: 24 512 14 14 (2408448)
I0403 19:50:23.505231  9734 net.cpp:156] Memory required for data: 1144900896
I0403 19:50:23.505245  9734 layer_factory.hpp:77] Creating layer inception_4d/pool_proj
I0403 19:50:23.505269  9734 net.cpp:91] Creating Layer inception_4d/pool_proj
I0403 19:50:23.505285  9734 net.cpp:425] inception_4d/pool_proj <- inception_4d/pool
I0403 19:50:23.505305  9734 net.cpp:399] inception_4d/pool_proj -> inception_4d/pool_proj
I0403 19:50:23.506996  9734 net.cpp:141] Setting up inception_4d/pool_proj
I0403 19:50:23.507027  9734 net.cpp:148] Top shape: 24 64 14 14 (301056)
I0403 19:50:23.507043  9734 net.cpp:156] Memory required for data: 1146105120
I0403 19:50:23.507062  9734 layer_factory.hpp:77] Creating layer inception_4d/relu_pool_proj
I0403 19:50:23.507079  9734 net.cpp:91] Creating Layer inception_4d/relu_pool_proj
I0403 19:50:23.507097  9734 net.cpp:425] inception_4d/relu_pool_proj <- inception_4d/pool_proj
I0403 19:50:23.507113  9734 net.cpp:386] inception_4d/relu_pool_proj -> inception_4d/pool_proj (in-place)
I0403 19:50:23.507292  9734 net.cpp:141] Setting up inception_4d/relu_pool_proj
I0403 19:50:23.507315  9734 net.cpp:148] Top shape: 24 64 14 14 (301056)
I0403 19:50:23.507329  9734 net.cpp:156] Memory required for data: 1147309344
I0403 19:50:23.507344  9734 layer_factory.hpp:77] Creating layer inception_4d/output
I0403 19:50:23.507361  9734 net.cpp:91] Creating Layer inception_4d/output
I0403 19:50:23.507377  9734 net.cpp:425] inception_4d/output <- inception_4d/1x1
I0403 19:50:23.507393  9734 net.cpp:425] inception_4d/output <- inception_4d/3x3
I0403 19:50:23.507410  9734 net.cpp:425] inception_4d/output <- inception_4d/5x5
I0403 19:50:23.507423  9734 net.cpp:425] inception_4d/output <- inception_4d/pool_proj
I0403 19:50:23.507441  9734 net.cpp:399] inception_4d/output -> inception_4d/output
I0403 19:50:23.507494  9734 net.cpp:141] Setting up inception_4d/output
I0403 19:50:23.507521  9734 net.cpp:148] Top shape: 24 528 14 14 (2483712)
I0403 19:50:23.507537  9734 net.cpp:156] Memory required for data: 1157244192
I0403 19:50:23.507552  9734 layer_factory.hpp:77] Creating layer inception_4d/output_inception_4d/output_0_split
I0403 19:50:23.507570  9734 net.cpp:91] Creating Layer inception_4d/output_inception_4d/output_0_split
I0403 19:50:23.507586  9734 net.cpp:425] inception_4d/output_inception_4d/output_0_split <- inception_4d/output
I0403 19:50:23.507606  9734 net.cpp:399] inception_4d/output_inception_4d/output_0_split -> inception_4d/output_inception_4d/output_0_split_0
I0403 19:50:23.507628  9734 net.cpp:399] inception_4d/output_inception_4d/output_0_split -> inception_4d/output_inception_4d/output_0_split_1
I0403 19:50:23.507649  9734 net.cpp:399] inception_4d/output_inception_4d/output_0_split -> inception_4d/output_inception_4d/output_0_split_2
I0403 19:50:23.507669  9734 net.cpp:399] inception_4d/output_inception_4d/output_0_split -> inception_4d/output_inception_4d/output_0_split_3
I0403 19:50:23.507688  9734 net.cpp:399] inception_4d/output_inception_4d/output_0_split -> inception_4d/output_inception_4d/output_0_split_4
I0403 19:50:23.507786  9734 net.cpp:141] Setting up inception_4d/output_inception_4d/output_0_split
I0403 19:50:23.507819  9734 net.cpp:148] Top shape: 24 528 14 14 (2483712)
I0403 19:50:23.507838  9734 net.cpp:148] Top shape: 24 528 14 14 (2483712)
I0403 19:50:23.507853  9734 net.cpp:148] Top shape: 24 528 14 14 (2483712)
I0403 19:50:23.507869  9734 net.cpp:148] Top shape: 24 528 14 14 (2483712)
I0403 19:50:23.507884  9734 net.cpp:148] Top shape: 24 528 14 14 (2483712)
I0403 19:50:23.507897  9734 net.cpp:156] Memory required for data: 1206918432
I0403 19:50:23.507910  9734 layer_factory.hpp:77] Creating layer loss2/ave_pool
I0403 19:50:23.507933  9734 net.cpp:91] Creating Layer loss2/ave_pool
I0403 19:50:23.507956  9734 net.cpp:425] loss2/ave_pool <- inception_4d/output_inception_4d/output_0_split_0
I0403 19:50:23.507974  9734 net.cpp:399] loss2/ave_pool -> loss2/ave_pool
I0403 19:50:23.508275  9734 net.cpp:141] Setting up loss2/ave_pool
I0403 19:50:23.508302  9734 net.cpp:148] Top shape: 24 528 4 4 (202752)
I0403 19:50:23.508317  9734 net.cpp:156] Memory required for data: 1207729440
I0403 19:50:23.508333  9734 layer_factory.hpp:77] Creating layer loss2/conv
I0403 19:50:23.508354  9734 net.cpp:91] Creating Layer loss2/conv
I0403 19:50:23.508373  9734 net.cpp:425] loss2/conv <- loss2/ave_pool
I0403 19:50:23.508393  9734 net.cpp:399] loss2/conv -> loss2/conv
I0403 19:50:23.510211  9734 net.cpp:141] Setting up loss2/conv
I0403 19:50:23.510238  9734 net.cpp:148] Top shape: 24 128 4 4 (49152)
I0403 19:50:23.510253  9734 net.cpp:156] Memory required for data: 1207926048
I0403 19:50:23.510272  9734 layer_factory.hpp:77] Creating layer loss2/relu_conv
I0403 19:50:23.510293  9734 net.cpp:91] Creating Layer loss2/relu_conv
I0403 19:50:23.510309  9734 net.cpp:425] loss2/relu_conv <- loss2/conv
I0403 19:50:23.510327  9734 net.cpp:386] loss2/relu_conv -> loss2/conv (in-place)
I0403 19:50:23.510603  9734 net.cpp:141] Setting up loss2/relu_conv
I0403 19:50:23.510628  9734 net.cpp:148] Top shape: 24 128 4 4 (49152)
I0403 19:50:23.510643  9734 net.cpp:156] Memory required for data: 1208122656
I0403 19:50:23.510656  9734 layer_factory.hpp:77] Creating layer loss2/fc
I0403 19:50:23.510676  9734 net.cpp:91] Creating Layer loss2/fc
I0403 19:50:23.510694  9734 net.cpp:425] loss2/fc <- loss2/conv
I0403 19:50:23.510712  9734 net.cpp:399] loss2/fc -> loss2/fc
I0403 19:50:23.527423  9734 net.cpp:141] Setting up loss2/fc
I0403 19:50:23.527454  9734 net.cpp:148] Top shape: 24 1024 (24576)
I0403 19:50:23.527475  9734 net.cpp:156] Memory required for data: 1208220960
I0403 19:50:23.527494  9734 layer_factory.hpp:77] Creating layer loss2/relu_fc
I0403 19:50:23.527513  9734 net.cpp:91] Creating Layer loss2/relu_fc
I0403 19:50:23.527528  9734 net.cpp:425] loss2/relu_fc <- loss2/fc
I0403 19:50:23.527545  9734 net.cpp:386] loss2/relu_fc -> loss2/fc (in-place)
I0403 19:50:23.527837  9734 net.cpp:141] Setting up loss2/relu_fc
I0403 19:50:23.527864  9734 net.cpp:148] Top shape: 24 1024 (24576)
I0403 19:50:23.527881  9734 net.cpp:156] Memory required for data: 1208319264
I0403 19:50:23.527896  9734 layer_factory.hpp:77] Creating layer loss2/drop_fc
I0403 19:50:23.527915  9734 net.cpp:91] Creating Layer loss2/drop_fc
I0403 19:50:23.527928  9734 net.cpp:425] loss2/drop_fc <- loss2/fc
I0403 19:50:23.527948  9734 net.cpp:386] loss2/drop_fc -> loss2/fc (in-place)
I0403 19:50:23.527995  9734 net.cpp:141] Setting up loss2/drop_fc
I0403 19:50:23.528017  9734 net.cpp:148] Top shape: 24 1024 (24576)
I0403 19:50:23.528033  9734 net.cpp:156] Memory required for data: 1208417568
I0403 19:50:23.528046  9734 layer_factory.hpp:77] Creating layer loss2/classifier_plantvillage
I0403 19:50:23.528067  9734 net.cpp:91] Creating Layer loss2/classifier_plantvillage
I0403 19:50:23.528084  9734 net.cpp:425] loss2/classifier_plantvillage <- loss2/fc
I0403 19:50:23.528103  9734 net.cpp:399] loss2/classifier_plantvillage -> loss2/classifier_plantvillage
I0403 19:50:23.528488  9734 net.cpp:141] Setting up loss2/classifier_plantvillage
I0403 19:50:23.528512  9734 net.cpp:148] Top shape: 24 38 (912)
I0403 19:50:23.528527  9734 net.cpp:156] Memory required for data: 1208421216
I0403 19:50:23.528560  9734 layer_factory.hpp:77] Creating layer loss2/classifier_plantvillage_loss2/classifier_plantvillage_0_split
I0403 19:50:23.528581  9734 net.cpp:91] Creating Layer loss2/classifier_plantvillage_loss2/classifier_plantvillage_0_split
I0403 19:50:23.528599  9734 net.cpp:425] loss2/classifier_plantvillage_loss2/classifier_plantvillage_0_split <- loss2/classifier_plantvillage
I0403 19:50:23.528616  9734 net.cpp:399] loss2/classifier_plantvillage_loss2/classifier_plantvillage_0_split -> loss2/classifier_plantvillage_loss2/classifier_plantvillage_0_split_0
I0403 19:50:23.528636  9734 net.cpp:399] loss2/classifier_plantvillage_loss2/classifier_plantvillage_0_split -> loss2/classifier_plantvillage_loss2/classifier_plantvillage_0_split_1
I0403 19:50:23.528657  9734 net.cpp:399] loss2/classifier_plantvillage_loss2/classifier_plantvillage_0_split -> loss2/classifier_plantvillage_loss2/classifier_plantvillage_0_split_2
I0403 19:50:23.528733  9734 net.cpp:141] Setting up loss2/classifier_plantvillage_loss2/classifier_plantvillage_0_split
I0403 19:50:23.528755  9734 net.cpp:148] Top shape: 24 38 (912)
I0403 19:50:23.528771  9734 net.cpp:148] Top shape: 24 38 (912)
I0403 19:50:23.528787  9734 net.cpp:148] Top shape: 24 38 (912)
I0403 19:50:23.528801  9734 net.cpp:156] Memory required for data: 1208432160
I0403 19:50:23.528816  9734 layer_factory.hpp:77] Creating layer inception_4e/1x1
I0403 19:50:23.528836  9734 net.cpp:91] Creating Layer inception_4e/1x1
I0403 19:50:23.528852  9734 net.cpp:425] inception_4e/1x1 <- inception_4d/output_inception_4d/output_0_split_1
I0403 19:50:23.528872  9734 net.cpp:399] inception_4e/1x1 -> inception_4e/1x1
I0403 19:50:23.530593  9734 net.cpp:141] Setting up inception_4e/1x1
I0403 19:50:23.530622  9734 net.cpp:148] Top shape: 24 256 14 14 (1204224)
I0403 19:50:23.530637  9734 net.cpp:156] Memory required for data: 1213249056
I0403 19:50:23.530654  9734 layer_factory.hpp:77] Creating layer inception_4e/relu_1x1
I0403 19:50:23.530674  9734 net.cpp:91] Creating Layer inception_4e/relu_1x1
I0403 19:50:23.530690  9734 net.cpp:425] inception_4e/relu_1x1 <- inception_4e/1x1
I0403 19:50:23.530707  9734 net.cpp:386] inception_4e/relu_1x1 -> inception_4e/1x1 (in-place)
I0403 19:50:23.530990  9734 net.cpp:141] Setting up inception_4e/relu_1x1
I0403 19:50:23.531015  9734 net.cpp:148] Top shape: 24 256 14 14 (1204224)
I0403 19:50:23.531031  9734 net.cpp:156] Memory required for data: 1218065952
I0403 19:50:23.531045  9734 layer_factory.hpp:77] Creating layer inception_4e/3x3_reduce
I0403 19:50:23.531066  9734 net.cpp:91] Creating Layer inception_4e/3x3_reduce
I0403 19:50:23.531085  9734 net.cpp:425] inception_4e/3x3_reduce <- inception_4d/output_inception_4d/output_0_split_2
I0403 19:50:23.531105  9734 net.cpp:399] inception_4e/3x3_reduce -> inception_4e/3x3_reduce
I0403 19:50:23.533121  9734 net.cpp:141] Setting up inception_4e/3x3_reduce
I0403 19:50:23.533149  9734 net.cpp:148] Top shape: 24 160 14 14 (752640)
I0403 19:50:23.533164  9734 net.cpp:156] Memory required for data: 1221076512
I0403 19:50:23.533181  9734 layer_factory.hpp:77] Creating layer inception_4e/relu_3x3_reduce
I0403 19:50:23.533201  9734 net.cpp:91] Creating Layer inception_4e/relu_3x3_reduce
I0403 19:50:23.533217  9734 net.cpp:425] inception_4e/relu_3x3_reduce <- inception_4e/3x3_reduce
I0403 19:50:23.533234  9734 net.cpp:386] inception_4e/relu_3x3_reduce -> inception_4e/3x3_reduce (in-place)
I0403 19:50:23.533411  9734 net.cpp:141] Setting up inception_4e/relu_3x3_reduce
I0403 19:50:23.533435  9734 net.cpp:148] Top shape: 24 160 14 14 (752640)
I0403 19:50:23.533449  9734 net.cpp:156] Memory required for data: 1224087072
I0403 19:50:23.533469  9734 layer_factory.hpp:77] Creating layer inception_4e/3x3
I0403 19:50:23.533506  9734 net.cpp:91] Creating Layer inception_4e/3x3
I0403 19:50:23.533525  9734 net.cpp:425] inception_4e/3x3 <- inception_4e/3x3_reduce
I0403 19:50:23.533547  9734 net.cpp:399] inception_4e/3x3 -> inception_4e/3x3
I0403 19:50:23.538295  9734 net.cpp:141] Setting up inception_4e/3x3
I0403 19:50:23.538334  9734 net.cpp:148] Top shape: 24 320 14 14 (1505280)
I0403 19:50:23.538350  9734 net.cpp:156] Memory required for data: 1230108192
I0403 19:50:23.538369  9734 layer_factory.hpp:77] Creating layer inception_4e/relu_3x3
I0403 19:50:23.538389  9734 net.cpp:91] Creating Layer inception_4e/relu_3x3
I0403 19:50:23.538406  9734 net.cpp:425] inception_4e/relu_3x3 <- inception_4e/3x3
I0403 19:50:23.538424  9734 net.cpp:386] inception_4e/relu_3x3 -> inception_4e/3x3 (in-place)
I0403 19:50:23.538718  9734 net.cpp:141] Setting up inception_4e/relu_3x3
I0403 19:50:23.538746  9734 net.cpp:148] Top shape: 24 320 14 14 (1505280)
I0403 19:50:23.538763  9734 net.cpp:156] Memory required for data: 1236129312
I0403 19:50:23.538779  9734 layer_factory.hpp:77] Creating layer inception_4e/5x5_reduce
I0403 19:50:23.538801  9734 net.cpp:91] Creating Layer inception_4e/5x5_reduce
I0403 19:50:23.538820  9734 net.cpp:425] inception_4e/5x5_reduce <- inception_4d/output_inception_4d/output_0_split_3
I0403 19:50:23.538838  9734 net.cpp:399] inception_4e/5x5_reduce -> inception_4e/5x5_reduce
I0403 19:50:23.539852  9734 net.cpp:141] Setting up inception_4e/5x5_reduce
I0403 19:50:23.539880  9734 net.cpp:148] Top shape: 24 32 14 14 (150528)
I0403 19:50:23.539894  9734 net.cpp:156] Memory required for data: 1236731424
I0403 19:50:23.539911  9734 layer_factory.hpp:77] Creating layer inception_4e/relu_5x5_reduce
I0403 19:50:23.539933  9734 net.cpp:91] Creating Layer inception_4e/relu_5x5_reduce
I0403 19:50:23.539950  9734 net.cpp:425] inception_4e/relu_5x5_reduce <- inception_4e/5x5_reduce
I0403 19:50:23.539968  9734 net.cpp:386] inception_4e/relu_5x5_reduce -> inception_4e/5x5_reduce (in-place)
I0403 19:50:23.540251  9734 net.cpp:141] Setting up inception_4e/relu_5x5_reduce
I0403 19:50:23.540276  9734 net.cpp:148] Top shape: 24 32 14 14 (150528)
I0403 19:50:23.540290  9734 net.cpp:156] Memory required for data: 1237333536
I0403 19:50:23.540305  9734 layer_factory.hpp:77] Creating layer inception_4e/5x5
I0403 19:50:23.540341  9734 net.cpp:91] Creating Layer inception_4e/5x5
I0403 19:50:23.540360  9734 net.cpp:425] inception_4e/5x5 <- inception_4e/5x5_reduce
I0403 19:50:23.540380  9734 net.cpp:399] inception_4e/5x5 -> inception_4e/5x5
I0403 19:50:23.542132  9734 net.cpp:141] Setting up inception_4e/5x5
I0403 19:50:23.542160  9734 net.cpp:148] Top shape: 24 128 14 14 (602112)
I0403 19:50:23.542174  9734 net.cpp:156] Memory required for data: 1239741984
I0403 19:50:23.542192  9734 layer_factory.hpp:77] Creating layer inception_4e/relu_5x5
I0403 19:50:23.542210  9734 net.cpp:91] Creating Layer inception_4e/relu_5x5
I0403 19:50:23.542227  9734 net.cpp:425] inception_4e/relu_5x5 <- inception_4e/5x5
I0403 19:50:23.542245  9734 net.cpp:386] inception_4e/relu_5x5 -> inception_4e/5x5 (in-place)
I0403 19:50:23.542433  9734 net.cpp:141] Setting up inception_4e/relu_5x5
I0403 19:50:23.542469  9734 net.cpp:148] Top shape: 24 128 14 14 (602112)
I0403 19:50:23.542487  9734 net.cpp:156] Memory required for data: 1242150432
I0403 19:50:23.542503  9734 layer_factory.hpp:77] Creating layer inception_4e/pool
I0403 19:50:23.542522  9734 net.cpp:91] Creating Layer inception_4e/pool
I0403 19:50:23.542539  9734 net.cpp:425] inception_4e/pool <- inception_4d/output_inception_4d/output_0_split_4
I0403 19:50:23.542557  9734 net.cpp:399] inception_4e/pool -> inception_4e/pool
I0403 19:50:23.542623  9734 net.cpp:141] Setting up inception_4e/pool
I0403 19:50:23.542646  9734 net.cpp:148] Top shape: 24 528 14 14 (2483712)
I0403 19:50:23.542661  9734 net.cpp:156] Memory required for data: 1252085280
I0403 19:50:23.542675  9734 layer_factory.hpp:77] Creating layer inception_4e/pool_proj
I0403 19:50:23.542695  9734 net.cpp:91] Creating Layer inception_4e/pool_proj
I0403 19:50:23.542712  9734 net.cpp:425] inception_4e/pool_proj <- inception_4e/pool
I0403 19:50:23.542732  9734 net.cpp:399] inception_4e/pool_proj -> inception_4e/pool_proj
I0403 19:50:23.544194  9734 net.cpp:141] Setting up inception_4e/pool_proj
I0403 19:50:23.544224  9734 net.cpp:148] Top shape: 24 128 14 14 (602112)
I0403 19:50:23.544255  9734 net.cpp:156] Memory required for data: 1254493728
I0403 19:50:23.544273  9734 layer_factory.hpp:77] Creating layer inception_4e/relu_pool_proj
I0403 19:50:23.544291  9734 net.cpp:91] Creating Layer inception_4e/relu_pool_proj
I0403 19:50:23.544306  9734 net.cpp:425] inception_4e/relu_pool_proj <- inception_4e/pool_proj
I0403 19:50:23.544325  9734 net.cpp:386] inception_4e/relu_pool_proj -> inception_4e/pool_proj (in-place)
I0403 19:50:23.544606  9734 net.cpp:141] Setting up inception_4e/relu_pool_proj
I0403 19:50:23.544634  9734 net.cpp:148] Top shape: 24 128 14 14 (602112)
I0403 19:50:23.544651  9734 net.cpp:156] Memory required for data: 1256902176
I0403 19:50:23.544666  9734 layer_factory.hpp:77] Creating layer inception_4e/output
I0403 19:50:23.544682  9734 net.cpp:91] Creating Layer inception_4e/output
I0403 19:50:23.544698  9734 net.cpp:425] inception_4e/output <- inception_4e/1x1
I0403 19:50:23.544713  9734 net.cpp:425] inception_4e/output <- inception_4e/3x3
I0403 19:50:23.544729  9734 net.cpp:425] inception_4e/output <- inception_4e/5x5
I0403 19:50:23.544745  9734 net.cpp:425] inception_4e/output <- inception_4e/pool_proj
I0403 19:50:23.544760  9734 net.cpp:399] inception_4e/output -> inception_4e/output
I0403 19:50:23.544811  9734 net.cpp:141] Setting up inception_4e/output
I0403 19:50:23.544833  9734 net.cpp:148] Top shape: 24 832 14 14 (3913728)
I0403 19:50:23.544848  9734 net.cpp:156] Memory required for data: 1272557088
I0403 19:50:23.544863  9734 layer_factory.hpp:77] Creating layer pool4/3x3_s2
I0403 19:50:23.544883  9734 net.cpp:91] Creating Layer pool4/3x3_s2
I0403 19:50:23.544899  9734 net.cpp:425] pool4/3x3_s2 <- inception_4e/output
I0403 19:50:23.544917  9734 net.cpp:399] pool4/3x3_s2 -> pool4/3x3_s2
I0403 19:50:23.544982  9734 net.cpp:141] Setting up pool4/3x3_s2
I0403 19:50:23.545006  9734 net.cpp:148] Top shape: 24 832 7 7 (978432)
I0403 19:50:23.545020  9734 net.cpp:156] Memory required for data: 1276470816
I0403 19:50:23.545035  9734 layer_factory.hpp:77] Creating layer pool4/3x3_s2_pool4/3x3_s2_0_split
I0403 19:50:23.545053  9734 net.cpp:91] Creating Layer pool4/3x3_s2_pool4/3x3_s2_0_split
I0403 19:50:23.545068  9734 net.cpp:425] pool4/3x3_s2_pool4/3x3_s2_0_split <- pool4/3x3_s2
I0403 19:50:23.545086  9734 net.cpp:399] pool4/3x3_s2_pool4/3x3_s2_0_split -> pool4/3x3_s2_pool4/3x3_s2_0_split_0
I0403 19:50:23.545106  9734 net.cpp:399] pool4/3x3_s2_pool4/3x3_s2_0_split -> pool4/3x3_s2_pool4/3x3_s2_0_split_1
I0403 19:50:23.545127  9734 net.cpp:399] pool4/3x3_s2_pool4/3x3_s2_0_split -> pool4/3x3_s2_pool4/3x3_s2_0_split_2
I0403 19:50:23.545146  9734 net.cpp:399] pool4/3x3_s2_pool4/3x3_s2_0_split -> pool4/3x3_s2_pool4/3x3_s2_0_split_3
I0403 19:50:23.545234  9734 net.cpp:141] Setting up pool4/3x3_s2_pool4/3x3_s2_0_split
I0403 19:50:23.545258  9734 net.cpp:148] Top shape: 24 832 7 7 (978432)
I0403 19:50:23.545274  9734 net.cpp:148] Top shape: 24 832 7 7 (978432)
I0403 19:50:23.545290  9734 net.cpp:148] Top shape: 24 832 7 7 (978432)
I0403 19:50:23.545305  9734 net.cpp:148] Top shape: 24 832 7 7 (978432)
I0403 19:50:23.545320  9734 net.cpp:156] Memory required for data: 1292125728
I0403 19:50:23.545334  9734 layer_factory.hpp:77] Creating layer inception_5a/1x1
I0403 19:50:23.545356  9734 net.cpp:91] Creating Layer inception_5a/1x1
I0403 19:50:23.545373  9734 net.cpp:425] inception_5a/1x1 <- pool4/3x3_s2_pool4/3x3_s2_0_split_0
I0403 19:50:23.545392  9734 net.cpp:399] inception_5a/1x1 -> inception_5a/1x1
I0403 19:50:23.548099  9734 net.cpp:141] Setting up inception_5a/1x1
I0403 19:50:23.548127  9734 net.cpp:148] Top shape: 24 256 7 7 (301056)
I0403 19:50:23.548143  9734 net.cpp:156] Memory required for data: 1293329952
I0403 19:50:23.548161  9734 layer_factory.hpp:77] Creating layer inception_5a/relu_1x1
I0403 19:50:23.548178  9734 net.cpp:91] Creating Layer inception_5a/relu_1x1
I0403 19:50:23.548197  9734 net.cpp:425] inception_5a/relu_1x1 <- inception_5a/1x1
I0403 19:50:23.548214  9734 net.cpp:386] inception_5a/relu_1x1 -> inception_5a/1x1 (in-place)
I0403 19:50:23.548518  9734 net.cpp:141] Setting up inception_5a/relu_1x1
I0403 19:50:23.548544  9734 net.cpp:148] Top shape: 24 256 7 7 (301056)
I0403 19:50:23.548559  9734 net.cpp:156] Memory required for data: 1294534176
I0403 19:50:23.548574  9734 layer_factory.hpp:77] Creating layer inception_5a/3x3_reduce
I0403 19:50:23.548596  9734 net.cpp:91] Creating Layer inception_5a/3x3_reduce
I0403 19:50:23.548612  9734 net.cpp:425] inception_5a/3x3_reduce <- pool4/3x3_s2_pool4/3x3_s2_0_split_1
I0403 19:50:23.548632  9734 net.cpp:399] inception_5a/3x3_reduce -> inception_5a/3x3_reduce
I0403 19:50:23.550983  9734 net.cpp:141] Setting up inception_5a/3x3_reduce
I0403 19:50:23.551015  9734 net.cpp:148] Top shape: 24 160 7 7 (188160)
I0403 19:50:23.551031  9734 net.cpp:156] Memory required for data: 1295286816
I0403 19:50:23.551049  9734 layer_factory.hpp:77] Creating layer inception_5a/relu_3x3_reduce
I0403 19:50:23.551067  9734 net.cpp:91] Creating Layer inception_5a/relu_3x3_reduce
I0403 19:50:23.551084  9734 net.cpp:425] inception_5a/relu_3x3_reduce <- inception_5a/3x3_reduce
I0403 19:50:23.551100  9734 net.cpp:386] inception_5a/relu_3x3_reduce -> inception_5a/3x3_reduce (in-place)
I0403 19:50:23.551278  9734 net.cpp:141] Setting up inception_5a/relu_3x3_reduce
I0403 19:50:23.551303  9734 net.cpp:148] Top shape: 24 160 7 7 (188160)
I0403 19:50:23.551317  9734 net.cpp:156] Memory required for data: 1296039456
I0403 19:50:23.551331  9734 layer_factory.hpp:77] Creating layer inception_5a/3x3
I0403 19:50:23.551352  9734 net.cpp:91] Creating Layer inception_5a/3x3
I0403 19:50:23.551369  9734 net.cpp:425] inception_5a/3x3 <- inception_5a/3x3_reduce
I0403 19:50:23.551393  9734 net.cpp:399] inception_5a/3x3 -> inception_5a/3x3
I0403 19:50:23.556182  9734 net.cpp:141] Setting up inception_5a/3x3
I0403 19:50:23.556212  9734 net.cpp:148] Top shape: 24 320 7 7 (376320)
I0403 19:50:23.556227  9734 net.cpp:156] Memory required for data: 1297544736
I0403 19:50:23.556246  9734 layer_factory.hpp:77] Creating layer inception_5a/relu_3x3
I0403 19:50:23.556263  9734 net.cpp:91] Creating Layer inception_5a/relu_3x3
I0403 19:50:23.556278  9734 net.cpp:425] inception_5a/relu_3x3 <- inception_5a/3x3
I0403 19:50:23.556296  9734 net.cpp:386] inception_5a/relu_3x3 -> inception_5a/3x3 (in-place)
I0403 19:50:23.556584  9734 net.cpp:141] Setting up inception_5a/relu_3x3
I0403 19:50:23.556610  9734 net.cpp:148] Top shape: 24 320 7 7 (376320)
I0403 19:50:23.556627  9734 net.cpp:156] Memory required for data: 1299050016
I0403 19:50:23.556641  9734 layer_factory.hpp:77] Creating layer inception_5a/5x5_reduce
I0403 19:50:23.556663  9734 net.cpp:91] Creating Layer inception_5a/5x5_reduce
I0403 19:50:23.556682  9734 net.cpp:425] inception_5a/5x5_reduce <- pool4/3x3_s2_pool4/3x3_s2_0_split_2
I0403 19:50:23.556702  9734 net.cpp:399] inception_5a/5x5_reduce -> inception_5a/5x5_reduce
I0403 19:50:23.557822  9734 net.cpp:141] Setting up inception_5a/5x5_reduce
I0403 19:50:23.557850  9734 net.cpp:148] Top shape: 24 32 7 7 (37632)
I0403 19:50:23.557865  9734 net.cpp:156] Memory required for data: 1299200544
I0403 19:50:23.557883  9734 layer_factory.hpp:77] Creating layer inception_5a/relu_5x5_reduce
I0403 19:50:23.557904  9734 net.cpp:91] Creating Layer inception_5a/relu_5x5_reduce
I0403 19:50:23.557920  9734 net.cpp:425] inception_5a/relu_5x5_reduce <- inception_5a/5x5_reduce
I0403 19:50:23.557939  9734 net.cpp:386] inception_5a/relu_5x5_reduce -> inception_5a/5x5_reduce (in-place)
I0403 19:50:23.558220  9734 net.cpp:141] Setting up inception_5a/relu_5x5_reduce
I0403 19:50:23.558246  9734 net.cpp:148] Top shape: 24 32 7 7 (37632)
I0403 19:50:23.558261  9734 net.cpp:156] Memory required for data: 1299351072
I0403 19:50:23.558276  9734 layer_factory.hpp:77] Creating layer inception_5a/5x5
I0403 19:50:23.558298  9734 net.cpp:91] Creating Layer inception_5a/5x5
I0403 19:50:23.558315  9734 net.cpp:425] inception_5a/5x5 <- inception_5a/5x5_reduce
I0403 19:50:23.558336  9734 net.cpp:399] inception_5a/5x5 -> inception_5a/5x5
I0403 19:50:23.559975  9734 net.cpp:141] Setting up inception_5a/5x5
I0403 19:50:23.560014  9734 net.cpp:148] Top shape: 24 128 7 7 (150528)
I0403 19:50:23.560030  9734 net.cpp:156] Memory required for data: 1299953184
I0403 19:50:23.560048  9734 layer_factory.hpp:77] Creating layer inception_5a/relu_5x5
I0403 19:50:23.560065  9734 net.cpp:91] Creating Layer inception_5a/relu_5x5
I0403 19:50:23.560081  9734 net.cpp:425] inception_5a/relu_5x5 <- inception_5a/5x5
I0403 19:50:23.560098  9734 net.cpp:386] inception_5a/relu_5x5 -> inception_5a/5x5 (in-place)
I0403 19:50:23.560281  9734 net.cpp:141] Setting up inception_5a/relu_5x5
I0403 19:50:23.560304  9734 net.cpp:148] Top shape: 24 128 7 7 (150528)
I0403 19:50:23.560319  9734 net.cpp:156] Memory required for data: 1300555296
I0403 19:50:23.560334  9734 layer_factory.hpp:77] Creating layer inception_5a/pool
I0403 19:50:23.560354  9734 net.cpp:91] Creating Layer inception_5a/pool
I0403 19:50:23.560370  9734 net.cpp:425] inception_5a/pool <- pool4/3x3_s2_pool4/3x3_s2_0_split_3
I0403 19:50:23.560389  9734 net.cpp:399] inception_5a/pool -> inception_5a/pool
I0403 19:50:23.560462  9734 net.cpp:141] Setting up inception_5a/pool
I0403 19:50:23.560487  9734 net.cpp:148] Top shape: 24 832 7 7 (978432)
I0403 19:50:23.560503  9734 net.cpp:156] Memory required for data: 1304469024
I0403 19:50:23.560516  9734 layer_factory.hpp:77] Creating layer inception_5a/pool_proj
I0403 19:50:23.560539  9734 net.cpp:91] Creating Layer inception_5a/pool_proj
I0403 19:50:23.560556  9734 net.cpp:425] inception_5a/pool_proj <- inception_5a/pool
I0403 19:50:23.560580  9734 net.cpp:399] inception_5a/pool_proj -> inception_5a/pool_proj
I0403 19:50:23.562762  9734 net.cpp:141] Setting up inception_5a/pool_proj
I0403 19:50:23.562794  9734 net.cpp:148] Top shape: 24 128 7 7 (150528)
I0403 19:50:23.562810  9734 net.cpp:156] Memory required for data: 1305071136
I0403 19:50:23.562829  9734 layer_factory.hpp:77] Creating layer inception_5a/relu_pool_proj
I0403 19:50:23.562846  9734 net.cpp:91] Creating Layer inception_5a/relu_pool_proj
I0403 19:50:23.562861  9734 net.cpp:425] inception_5a/relu_pool_proj <- inception_5a/pool_proj
I0403 19:50:23.562880  9734 net.cpp:386] inception_5a/relu_pool_proj -> inception_5a/pool_proj (in-place)
I0403 19:50:23.563161  9734 net.cpp:141] Setting up inception_5a/relu_pool_proj
I0403 19:50:23.563190  9734 net.cpp:148] Top shape: 24 128 7 7 (150528)
I0403 19:50:23.563205  9734 net.cpp:156] Memory required for data: 1305673248
I0403 19:50:23.563220  9734 layer_factory.hpp:77] Creating layer inception_5a/output
I0403 19:50:23.563238  9734 net.cpp:91] Creating Layer inception_5a/output
I0403 19:50:23.563253  9734 net.cpp:425] inception_5a/output <- inception_5a/1x1
I0403 19:50:23.563269  9734 net.cpp:425] inception_5a/output <- inception_5a/3x3
I0403 19:50:23.563285  9734 net.cpp:425] inception_5a/output <- inception_5a/5x5
I0403 19:50:23.563302  9734 net.cpp:425] inception_5a/output <- inception_5a/pool_proj
I0403 19:50:23.563320  9734 net.cpp:399] inception_5a/output -> inception_5a/output
I0403 19:50:23.563369  9734 net.cpp:141] Setting up inception_5a/output
I0403 19:50:23.563391  9734 net.cpp:148] Top shape: 24 832 7 7 (978432)
I0403 19:50:23.563406  9734 net.cpp:156] Memory required for data: 1309586976
I0403 19:50:23.563421  9734 layer_factory.hpp:77] Creating layer inception_5a/output_inception_5a/output_0_split
I0403 19:50:23.563441  9734 net.cpp:91] Creating Layer inception_5a/output_inception_5a/output_0_split
I0403 19:50:23.563457  9734 net.cpp:425] inception_5a/output_inception_5a/output_0_split <- inception_5a/output
I0403 19:50:23.563482  9734 net.cpp:399] inception_5a/output_inception_5a/output_0_split -> inception_5a/output_inception_5a/output_0_split_0
I0403 19:50:23.563500  9734 net.cpp:399] inception_5a/output_inception_5a/output_0_split -> inception_5a/output_inception_5a/output_0_split_1
I0403 19:50:23.563521  9734 net.cpp:399] inception_5a/output_inception_5a/output_0_split -> inception_5a/output_inception_5a/output_0_split_2
I0403 19:50:23.563542  9734 net.cpp:399] inception_5a/output_inception_5a/output_0_split -> inception_5a/output_inception_5a/output_0_split_3
I0403 19:50:23.563648  9734 net.cpp:141] Setting up inception_5a/output_inception_5a/output_0_split
I0403 19:50:23.563671  9734 net.cpp:148] Top shape: 24 832 7 7 (978432)
I0403 19:50:23.563688  9734 net.cpp:148] Top shape: 24 832 7 7 (978432)
I0403 19:50:23.563704  9734 net.cpp:148] Top shape: 24 832 7 7 (978432)
I0403 19:50:23.563719  9734 net.cpp:148] Top shape: 24 832 7 7 (978432)
I0403 19:50:23.563751  9734 net.cpp:156] Memory required for data: 1325241888
I0403 19:50:23.563777  9734 layer_factory.hpp:77] Creating layer inception_5b/1x1
I0403 19:50:23.563798  9734 net.cpp:91] Creating Layer inception_5b/1x1
I0403 19:50:23.563817  9734 net.cpp:425] inception_5b/1x1 <- inception_5a/output_inception_5a/output_0_split_0
I0403 19:50:23.563837  9734 net.cpp:399] inception_5b/1x1 -> inception_5b/1x1
I0403 19:50:23.567430  9734 net.cpp:141] Setting up inception_5b/1x1
I0403 19:50:23.567467  9734 net.cpp:148] Top shape: 24 384 7 7 (451584)
I0403 19:50:23.567487  9734 net.cpp:156] Memory required for data: 1327048224
I0403 19:50:23.567507  9734 layer_factory.hpp:77] Creating layer inception_5b/relu_1x1
I0403 19:50:23.567524  9734 net.cpp:91] Creating Layer inception_5b/relu_1x1
I0403 19:50:23.567540  9734 net.cpp:425] inception_5b/relu_1x1 <- inception_5b/1x1
I0403 19:50:23.567558  9734 net.cpp:386] inception_5b/relu_1x1 -> inception_5b/1x1 (in-place)
I0403 19:50:23.567854  9734 net.cpp:141] Setting up inception_5b/relu_1x1
I0403 19:50:23.567883  9734 net.cpp:148] Top shape: 24 384 7 7 (451584)
I0403 19:50:23.567899  9734 net.cpp:156] Memory required for data: 1328854560
I0403 19:50:23.567914  9734 layer_factory.hpp:77] Creating layer inception_5b/3x3_reduce
I0403 19:50:23.567935  9734 net.cpp:91] Creating Layer inception_5b/3x3_reduce
I0403 19:50:23.567953  9734 net.cpp:425] inception_5b/3x3_reduce <- inception_5a/output_inception_5a/output_0_split_1
I0403 19:50:23.567972  9734 net.cpp:399] inception_5b/3x3_reduce -> inception_5b/3x3_reduce
I0403 19:50:23.570520  9734 net.cpp:141] Setting up inception_5b/3x3_reduce
I0403 19:50:23.570551  9734 net.cpp:148] Top shape: 24 192 7 7 (225792)
I0403 19:50:23.570569  9734 net.cpp:156] Memory required for data: 1329757728
I0403 19:50:23.570586  9734 layer_factory.hpp:77] Creating layer inception_5b/relu_3x3_reduce
I0403 19:50:23.570603  9734 net.cpp:91] Creating Layer inception_5b/relu_3x3_reduce
I0403 19:50:23.570621  9734 net.cpp:425] inception_5b/relu_3x3_reduce <- inception_5b/3x3_reduce
I0403 19:50:23.570641  9734 net.cpp:386] inception_5b/relu_3x3_reduce -> inception_5b/3x3_reduce (in-place)
I0403 19:50:23.570825  9734 net.cpp:141] Setting up inception_5b/relu_3x3_reduce
I0403 19:50:23.570848  9734 net.cpp:148] Top shape: 24 192 7 7 (225792)
I0403 19:50:23.570863  9734 net.cpp:156] Memory required for data: 1330660896
I0403 19:50:23.570878  9734 layer_factory.hpp:77] Creating layer inception_5b/3x3
I0403 19:50:23.570900  9734 net.cpp:91] Creating Layer inception_5b/3x3
I0403 19:50:23.570917  9734 net.cpp:425] inception_5b/3x3 <- inception_5b/3x3_reduce
I0403 19:50:23.570940  9734 net.cpp:399] inception_5b/3x3 -> inception_5b/3x3
I0403 19:50:23.577316  9734 net.cpp:141] Setting up inception_5b/3x3
I0403 19:50:23.577347  9734 net.cpp:148] Top shape: 24 384 7 7 (451584)
I0403 19:50:23.577363  9734 net.cpp:156] Memory required for data: 1332467232
I0403 19:50:23.577383  9734 layer_factory.hpp:77] Creating layer inception_5b/relu_3x3
I0403 19:50:23.577399  9734 net.cpp:91] Creating Layer inception_5b/relu_3x3
I0403 19:50:23.577416  9734 net.cpp:425] inception_5b/relu_3x3 <- inception_5b/3x3
I0403 19:50:23.577435  9734 net.cpp:386] inception_5b/relu_3x3 -> inception_5b/3x3 (in-place)
I0403 19:50:23.577740  9734 net.cpp:141] Setting up inception_5b/relu_3x3
I0403 19:50:23.577769  9734 net.cpp:148] Top shape: 24 384 7 7 (451584)
I0403 19:50:23.577785  9734 net.cpp:156] Memory required for data: 1334273568
I0403 19:50:23.577800  9734 layer_factory.hpp:77] Creating layer inception_5b/5x5_reduce
I0403 19:50:23.577850  9734 net.cpp:91] Creating Layer inception_5b/5x5_reduce
I0403 19:50:23.577870  9734 net.cpp:425] inception_5b/5x5_reduce <- inception_5a/output_inception_5a/output_0_split_2
I0403 19:50:23.577901  9734 net.cpp:399] inception_5b/5x5_reduce -> inception_5b/5x5_reduce
I0403 19:50:23.579114  9734 net.cpp:141] Setting up inception_5b/5x5_reduce
I0403 19:50:23.579144  9734 net.cpp:148] Top shape: 24 48 7 7 (56448)
I0403 19:50:23.579160  9734 net.cpp:156] Memory required for data: 1334499360
I0403 19:50:23.579180  9734 layer_factory.hpp:77] Creating layer inception_5b/relu_5x5_reduce
I0403 19:50:23.579196  9734 net.cpp:91] Creating Layer inception_5b/relu_5x5_reduce
I0403 19:50:23.579211  9734 net.cpp:425] inception_5b/relu_5x5_reduce <- inception_5b/5x5_reduce
I0403 19:50:23.579232  9734 net.cpp:386] inception_5b/relu_5x5_reduce -> inception_5b/5x5_reduce (in-place)
I0403 19:50:23.579596  9734 net.cpp:141] Setting up inception_5b/relu_5x5_reduce
I0403 19:50:23.579622  9734 net.cpp:148] Top shape: 24 48 7 7 (56448)
I0403 19:50:23.579637  9734 net.cpp:156] Memory required for data: 1334725152
I0403 19:50:23.579651  9734 layer_factory.hpp:77] Creating layer inception_5b/5x5
I0403 19:50:23.579671  9734 net.cpp:91] Creating Layer inception_5b/5x5
I0403 19:50:23.579687  9734 net.cpp:425] inception_5b/5x5 <- inception_5b/5x5_reduce
I0403 19:50:23.579706  9734 net.cpp:399] inception_5b/5x5 -> inception_5b/5x5
I0403 19:50:23.581670  9734 net.cpp:141] Setting up inception_5b/5x5
I0403 19:50:23.581697  9734 net.cpp:148] Top shape: 24 128 7 7 (150528)
I0403 19:50:23.581712  9734 net.cpp:156] Memory required for data: 1335327264
I0403 19:50:23.581732  9734 layer_factory.hpp:77] Creating layer inception_5b/relu_5x5
I0403 19:50:23.581749  9734 net.cpp:91] Creating Layer inception_5b/relu_5x5
I0403 19:50:23.581768  9734 net.cpp:425] inception_5b/relu_5x5 <- inception_5b/5x5
I0403 19:50:23.581785  9734 net.cpp:386] inception_5b/relu_5x5 -> inception_5b/5x5 (in-place)
I0403 19:50:23.581969  9734 net.cpp:141] Setting up inception_5b/relu_5x5
I0403 19:50:23.581993  9734 net.cpp:148] Top shape: 24 128 7 7 (150528)
I0403 19:50:23.582008  9734 net.cpp:156] Memory required for data: 1335929376
I0403 19:50:23.582022  9734 layer_factory.hpp:77] Creating layer inception_5b/pool
I0403 19:50:23.582042  9734 net.cpp:91] Creating Layer inception_5b/pool
I0403 19:50:23.582059  9734 net.cpp:425] inception_5b/pool <- inception_5a/output_inception_5a/output_0_split_3
I0403 19:50:23.582078  9734 net.cpp:399] inception_5b/pool -> inception_5b/pool
I0403 19:50:23.582149  9734 net.cpp:141] Setting up inception_5b/pool
I0403 19:50:23.582172  9734 net.cpp:148] Top shape: 24 832 7 7 (978432)
I0403 19:50:23.582187  9734 net.cpp:156] Memory required for data: 1339843104
I0403 19:50:23.582201  9734 layer_factory.hpp:77] Creating layer inception_5b/pool_proj
I0403 19:50:23.582222  9734 net.cpp:91] Creating Layer inception_5b/pool_proj
I0403 19:50:23.582240  9734 net.cpp:425] inception_5b/pool_proj <- inception_5b/pool
I0403 19:50:23.582264  9734 net.cpp:399] inception_5b/pool_proj -> inception_5b/pool_proj
I0403 19:50:23.584481  9734 net.cpp:141] Setting up inception_5b/pool_proj
I0403 19:50:23.584509  9734 net.cpp:148] Top shape: 24 128 7 7 (150528)
I0403 19:50:23.584525  9734 net.cpp:156] Memory required for data: 1340445216
I0403 19:50:23.584544  9734 layer_factory.hpp:77] Creating layer inception_5b/relu_pool_proj
I0403 19:50:23.584561  9734 net.cpp:91] Creating Layer inception_5b/relu_pool_proj
I0403 19:50:23.584578  9734 net.cpp:425] inception_5b/relu_pool_proj <- inception_5b/pool_proj
I0403 19:50:23.584597  9734 net.cpp:386] inception_5b/relu_pool_proj -> inception_5b/pool_proj (in-place)
I0403 19:50:23.584887  9734 net.cpp:141] Setting up inception_5b/relu_pool_proj
I0403 19:50:23.584913  9734 net.cpp:148] Top shape: 24 128 7 7 (150528)
I0403 19:50:23.584928  9734 net.cpp:156] Memory required for data: 1341047328
I0403 19:50:23.584941  9734 layer_factory.hpp:77] Creating layer inception_5b/output
I0403 19:50:23.584959  9734 net.cpp:91] Creating Layer inception_5b/output
I0403 19:50:23.584988  9734 net.cpp:425] inception_5b/output <- inception_5b/1x1
I0403 19:50:23.585006  9734 net.cpp:425] inception_5b/output <- inception_5b/3x3
I0403 19:50:23.585022  9734 net.cpp:425] inception_5b/output <- inception_5b/5x5
I0403 19:50:23.585038  9734 net.cpp:425] inception_5b/output <- inception_5b/pool_proj
I0403 19:50:23.585057  9734 net.cpp:399] inception_5b/output -> inception_5b/output
I0403 19:50:23.585108  9734 net.cpp:141] Setting up inception_5b/output
I0403 19:50:23.585131  9734 net.cpp:148] Top shape: 24 1024 7 7 (1204224)
I0403 19:50:23.585149  9734 net.cpp:156] Memory required for data: 1345864224
I0403 19:50:23.585163  9734 layer_factory.hpp:77] Creating layer pool5/7x7_s1
I0403 19:50:23.585181  9734 net.cpp:91] Creating Layer pool5/7x7_s1
I0403 19:50:23.585196  9734 net.cpp:425] pool5/7x7_s1 <- inception_5b/output
I0403 19:50:23.585213  9734 net.cpp:399] pool5/7x7_s1 -> pool5/7x7_s1
I0403 19:50:23.585422  9734 net.cpp:141] Setting up pool5/7x7_s1
I0403 19:50:23.585445  9734 net.cpp:148] Top shape: 24 1024 1 1 (24576)
I0403 19:50:23.585465  9734 net.cpp:156] Memory required for data: 1345962528
I0403 19:50:23.585484  9734 layer_factory.hpp:77] Creating layer pool5/drop_7x7_s1
I0403 19:50:23.585501  9734 net.cpp:91] Creating Layer pool5/drop_7x7_s1
I0403 19:50:23.585517  9734 net.cpp:425] pool5/drop_7x7_s1 <- pool5/7x7_s1
I0403 19:50:23.585539  9734 net.cpp:386] pool5/drop_7x7_s1 -> pool5/7x7_s1 (in-place)
I0403 19:50:23.585588  9734 net.cpp:141] Setting up pool5/drop_7x7_s1
I0403 19:50:23.585613  9734 net.cpp:148] Top shape: 24 1024 1 1 (24576)
I0403 19:50:23.585629  9734 net.cpp:156] Memory required for data: 1346060832
I0403 19:50:23.585644  9734 layer_factory.hpp:77] Creating layer loss3/classifier_plantvillage
I0403 19:50:23.585664  9734 net.cpp:91] Creating Layer loss3/classifier_plantvillage
I0403 19:50:23.585678  9734 net.cpp:425] loss3/classifier_plantvillage <- pool5/7x7_s1
I0403 19:50:23.585698  9734 net.cpp:399] loss3/classifier_plantvillage -> loss3/classifier_plantvillage
I0403 19:50:23.586104  9734 net.cpp:141] Setting up loss3/classifier_plantvillage
I0403 19:50:23.586128  9734 net.cpp:148] Top shape: 24 38 (912)
I0403 19:50:23.586143  9734 net.cpp:156] Memory required for data: 1346064480
I0403 19:50:23.586160  9734 layer_factory.hpp:77] Creating layer loss3/classifier_plantvillage_loss3/classifier_plantvillage_0_split
I0403 19:50:23.586181  9734 net.cpp:91] Creating Layer loss3/classifier_plantvillage_loss3/classifier_plantvillage_0_split
I0403 19:50:23.586199  9734 net.cpp:425] loss3/classifier_plantvillage_loss3/classifier_plantvillage_0_split <- loss3/classifier_plantvillage
I0403 19:50:23.586216  9734 net.cpp:399] loss3/classifier_plantvillage_loss3/classifier_plantvillage_0_split -> loss3/classifier_plantvillage_loss3/classifier_plantvillage_0_split_0
I0403 19:50:23.586236  9734 net.cpp:399] loss3/classifier_plantvillage_loss3/classifier_plantvillage_0_split -> loss3/classifier_plantvillage_loss3/classifier_plantvillage_0_split_1
I0403 19:50:23.586268  9734 net.cpp:399] loss3/classifier_plantvillage_loss3/classifier_plantvillage_0_split -> loss3/classifier_plantvillage_loss3/classifier_plantvillage_0_split_2
I0403 19:50:23.586289  9734 net.cpp:399] loss3/classifier_plantvillage_loss3/classifier_plantvillage_0_split -> loss3/classifier_plantvillage_loss3/classifier_plantvillage_0_split_3
I0403 19:50:23.586385  9734 net.cpp:141] Setting up loss3/classifier_plantvillage_loss3/classifier_plantvillage_0_split
I0403 19:50:23.586410  9734 net.cpp:148] Top shape: 24 38 (912)
I0403 19:50:23.586424  9734 net.cpp:148] Top shape: 24 38 (912)
I0403 19:50:23.586441  9734 net.cpp:148] Top shape: 24 38 (912)
I0403 19:50:23.586455  9734 net.cpp:148] Top shape: 24 38 (912)
I0403 19:50:23.586474  9734 net.cpp:156] Memory required for data: 1346079072
I0403 19:50:23.586490  9734 layer_factory.hpp:77] Creating layer loss1/loss
I0403 19:50:23.586513  9734 net.cpp:91] Creating Layer loss1/loss
I0403 19:50:23.586529  9734 net.cpp:425] loss1/loss <- loss1/classifier_plantvillage_loss1/classifier_plantvillage_0_split_0
I0403 19:50:23.586560  9734 net.cpp:425] loss1/loss <- label_data_1_split_0
…
