…
I0403 19:26:37.210736  9245 net.cpp:313] The NetState phase (1) differed from the phase (0) specified by a rule in layer data
I0403 19:26:37.213111  9245 net.cpp:49] Initializing net from parameters: 
state {
  phase: TEST
}
layer {
  name: "data"
  type: "Data"
  top: "data"
  top: "label"
  include {
    phase: TEST
  }
  transform_param {
    mirror: false
    crop_size: 224
    mean_file: "/home/mohanty/data/final_dataset/lmdb/color-60-40/mean.binaryproto"
  }
  data_param {
    source: "/home/mohanty/data/final_dataset/lmdb/color-60-40/test_db"
    batch_size: 24
    backend: LMDB
  }
}
layer {
  name: "conv1/7x7_s2"
  type: "Convolution"
  bottom: "data"
  top: "conv1/7x7_s2"
  param {
    lr_mult: 1
    decay_mult: 1
  }
  param {
    lr_mult: 2
    decay_mult: 0
  }
  convolution_param {
    num_output: 64
    pad: 3
    kernel_size: 7
    stride: 2
    weight_filler {
      type: "xavier"
      std: 0.1
    }
    bias_filler {
      type: "constant"
      value: 0.2
    }
  }
}
layer {
  name: "conv1/relu_7x7"
  type: "ReLU"
  bottom: "conv1/7x7_s2"
  top: "conv1/7x7_s2"
}
layer {
  name: "pool1/3x3_s2"
  type: "Pooling"
  bottom: "conv1/7x7_s2"
  top: "pool1/3x3_s2"
  pooling_param {
    pool: MAX
    kernel_size: 3
    stride: 2
  }
}
layer {
  name: "pool1/norm1"
  type: "LRN"
  bottom: "pool1/3x3_s2"
  top: "pool1/norm1"
  lrn_param {
    local_size: 5
    alpha: 0.0001
    beta: 0.75
  }
}
layer {
  name: "conv2/3x3_reduce"
  type: "Convolution"
  bottom: "pool1/norm1"
  top: "conv2/3x3_reduce"
  param {
    lr_mult: 1
    decay_mult: 1
  }
  param {
    lr_mult: 2
    decay_mult: 0
  }
  convolution_param {
    num_output: 64
    kernel_size: 1
    weight_filler {
      type: "xavier"
      std: 0.1
    }
    bias_filler {
      type: "constant"
      value: 0.2
    }
  }
}
layer {
  name: "conv2/relu_3x3_reduce"
  type: "ReLU"
  bottom: "conv2/3x3_reduce"
  top: "conv2/3x3_reduce"
}
layer {
  name: "conv2/3x3"
  type: "Convolution"
  bottom: "conv2/3x3_reduce"
  top: "conv2/3x3"
  param {
    lr_mult: 1
    decay_mult: 1
  }
  param {
    lr_mult: 2
    decay_mult: 0
  }
  convolution_param {
    num_output: 192
    pad: 1
    kernel_size: 3
    weight_filler {
      type: "xavier"
      std: 0.03
    }
    bias_filler {
      type: "constant"
      value: 0.2
    }
  }
}
layer {
  name: "conv2/relu_3x3"
  type: "ReLU"
  bottom: "conv2/3x3"
  top: "conv2/3x3"
}
layer {
  name: "conv2/norm2"
  type: "LRN"
  bottom: "conv2/3x3"
  top: "conv2/norm2"
  lrn_param {
    local_size: 5
    alpha: 0.0001
    beta: 0.75
  }
}
layer {
  name: "pool2/3x3_s2"
  type: "Pooling"
  bottom: "conv2/norm2"
  top: "pool2/3x3_s2"
  pooling_param {
    pool: MAX
    kernel_size: 3
    stride: 2
  }
}
layer {
  name: "inception_3a/1x1"
  type: "Convolution"
  bottom: "pool2/3x3_s2"
  top: "inception_3a/1x1"
  param {
    lr_mult: 1
    decay_mult: 1
  }
  param {
    lr_mult: 2
    decay_mult: 0
  }
  convolution_param {
    num_output: 64
    kernel_size: 1
    weight_filler {
      type: "xavier"
      std: 0.03
    }
    bias_filler {
      type: "constant"
      value: 0.2
    }
  }
}
layer {
  name: "inception_3a/relu_1x1"
  type: "ReLU"
  bottom: "inception_3a/1x1"
  top: "inception_3a/1x1"
}
layer {
  name: "inception_3a/3x3_reduce"
  type: "Convolution"
  bottom: "pool2/3x3_s2"
  top: "inception_3a/3x3_reduce"
  param {
    lr_mult: 1
    decay_mult: 1
  }
  param {
    lr_mult: 2
    decay_mult: 0
  }
  convolution_param {
    num_output: 96
    kernel_size: 1
    weight_filler {
      type: "xavier"
      std: 0.09
    }
    bias_filler {
      type: "constant"
      value: 0.2
    }
  }
}
layer {
  name: "inception_3a/relu_3x3_reduce"
  type: "ReLU"
  bottom: "inception_3a/3x3_reduce"
  top: "inception_3a/3x3_reduce"
}
layer {
  name: "inception_3a/3x3"
  type: "Convolution"
  bottom: "inception_3a/3x3_reduce"
  top: "inception_3a/3x3"
  param {
    lr_mult: 1
    decay_mult: 1
  }
  param {
    lr_mult: 2
    decay_mult: 0
  }
  convolution_param {
    num_output: 128
    pad: 1
    kernel_size: 3
    weight_filler {
      type: "xavier"
      std: 0.03
    }
    bias_filler {
      type: "constant"
      value: 0.2
    }
  }
}
layer {
  name: "inception_3a/relu_3x3"
  type: "ReLU"
  bottom: "inception_3a/3x3"
  top: "inception_3a/3x3"
}
layer {
  name: "inception_3a/5x5_reduce"
  type: "Convolution"
  bottom: "pool2/3x3_s2"
  top: "inception_3a/5x5_reduce"
  param {
    lr_mult: 1
    decay_mult: 1
  }
  param {
    lr_mult: 2
    decay_mult: 0
  }
  convolution_param {
    num_output: 16
    kernel_size: 1
    weight_filler {
      type: "xavier"
      std: 0.2
    }
    bias_filler {
      type: "constant"
      value: 0.2
    }
  }
}
layer {
  name: "inception_3a/relu_5x5_reduce"
  type: "ReLU"
  bottom: "inception_3a/5x5_reduce"
  top: "inception_3a/5x5_reduce"
}
layer {
  name: "inception_3a/5x5"
  type: "Convolution"
  bottom: "inception_3a/5x5_reduce"
  top: "inception_3a/5x5"
  param {
    lr_mult: 1
    decay_mult: 1
  }
  param {
    lr_mult: 2
    decay_mult: 0
  }
  convolution_param {
    num_output: 32
    pad: 2
    kernel_size: 5
    weight_filler {
      type: "xavier"
      std: 0.03
    }
    bias_filler {
      type: "constant"
      value: 0.2
    }
  }
}
layer {
  name: "inception_3a/relu_5x5"
  type: "ReLU"
  bottom: "inception_3a/5x5"
  top: "inception_3a/5x5"
}
layer {
  name: "inception_3a/pool"
  type: "Pooling"
  bottom: "pool2/3x3_s2"
  top: "inception_3a/pool"
  pooling_param {
    pool: MAX
    kernel_size: 3
    stride: 1
    pad: 1
  }
}
layer {
  name: "inception_3a/pool_proj"
  type: "Convolution"
  bottom: "inception_3a/pool"
  top: "inception_3a/pool_proj"
  param {
    lr_mult: 1
    decay_mult: 1
  }
  param {
    lr_mult: 2
    decay_mult: 0
  }
  convolution_param {
    num_output: 32
    kernel_size: 1
    weight_filler {
      type: "xavier"
      std: 0.1
    }
    bias_filler {
      type: "constant"
      value: 0.2
    }
  }
}
layer {
  name: "inception_3a/relu_pool_proj"
  type: "ReLU"
  bottom: "inception_3a/pool_proj"
  top: "inception_3a/pool_proj"
}
layer {
  name: "inception_3a/output"
  type: "Concat"
  bottom: "inception_3a/1x1"
  bottom: "inception_3a/3x3"
  bottom: "inception_3a/5x5"
  bottom: "inception_3a/pool_proj"
  top: "inception_3a/output"
}
layer {
  name: "inception_3b/1x1"
  type: "Convolution"
  bottom: "inception_3a/output"
  top: "inception_3b/1x1"
  param {
    lr_mult: 1
    decay_mult: 1
  }
  param {
    lr_mult: 2
    decay_mult: 0
  }
  convolution_param {
    num_output: 128
    kernel_size: 1
    weight_filler {
      type: "xavier"
      std: 0.03
    }
    bias_filler {
      type: "constant"
      value: 0.2
    }
  }
}
layer {
  name: "inception_3b/relu_1x1"
  type: "ReLU"
  bottom: "inception_3b/1x1"
  top: "inception_3b/1x1"
}
layer {
  name: "inception_3b/3x3_reduce"
  type: "Convolution"
  bottom: "inception_3a/output"
  top: "inception_3b/3x3_reduce"
  param {
    lr_mult: 1
    decay_mult: 1
  }
  param {
    lr_mult: 2
    decay_mult: 0
  }
  convolution_param {
    num_output: 128
    kernel_size: 1
    weight_filler {
      type: "xavier"
      std: 0.09
    }
    bias_filler {
      type: "constant"
      value: 0.2
    }
  }
}
layer {
  name: "inception_3b/relu_3x3_reduce"
  type: "ReLU"
  bottom: "inception_3b/3x3_reduce"
  top: "inception_3b/3x3_reduce"
}
layer {
  name: "inception_3b/3x3"
  type: "Convolution"
  bottom: "inception_3b/3x3_reduce"
  top: "inception_3b/3x3"
  param {
    lr_mult: 1
    decay_mult: 1
  }
  param {
    lr_mult: 2
    decay_mult: 0
  }
  convolution_param {
    num_output: 192
    pad: 1
    kernel_size: 3
    weight_filler {
      type: "xavier"
      std: 0.03
    }
    bias_filler {
      type: "constant"
      value: 0.2
    }
  }
}
layer {
  name: "inception_3b/relu_3x3"
  type: "ReLU"
  bottom: "inception_3b/3x3"
  top: "inception_3b/3x3"
}
layer {
  name: "inception_3b/5x5_reduce"
  type: "Convolution"
  bottom: "inception_3a/output"
  top: "inception_3b/5x5_reduce"
  param {
    lr_mult: 1
    decay_mult: 1
  }
  param {
    lr_mult: 2
    decay_mult: 0
  }
  convolution_param {
    num_output: 32
    kernel_size: 1
    weight_filler {
      type: "xavier"
      std: 0.2
    }
    bias_filler {
      type: "constant"
      value: 0.2
    }
  }
}
layer {
  name: "inception_3b/relu_5x5_reduce"
  type: "ReLU"
  bottom: "inception_3b/5x5_reduce"
  top: "inception_3b/5x5_reduce"
}
layer {
  name: "inception_3b/5x5"
  type: "Convolution"
  bottom: "inception_3b/5x5_reduce"
  top: "inception_3b/5x5"
  param {
    lr_mult: 1
    decay_mult: 1
  }
  param {
    lr_mult: 2
    decay_mult: 0
  }
  convolution_param {
    num_output: 96
    pad: 2
    kernel_size: 5
    weight_filler {
      type: "xavier"
      std: 0.03
    }
    bias_filler {
      type: "constant"
      value: 0.2
    }
  }
}
layer {
  name: "inception_3b/relu_5x5"
  type: "ReLU"
  bottom: "inception_3b/5x5"
  top: "inception_3b/5x5"
}
layer {
  name: "inception_3b/pool"
  type: "Pooling"
  bottom: "inception_3a/output"
  top: "inception_3b/pool"
  pooling_param {
    pool: MAX
    kernel_size: 3
    stride: 1
    pad: 1
  }
}
layer {
  name: "inception_3b/pool_proj"
  type: "Convolution"
  bottom: "inception_3b/pool"
  top: "inception_3b/pool_proj"
  param {
    lr_mult: 1
    decay_mult: 1
  }
  param {
    lr_mult: 2
    decay_mult: 0
  }
  convolution_param {
    num_output: 64
    kernel_size: 1
    weight_filler {
      type: "xavier"
      std: 0.1
    }
    bias_filler {
      type: "constant"
      value: 0.2
    }
  }
}
layer {
  name: "inception_3b/relu_pool_proj"
  type: "ReLU"
  bottom: "inception_3b/pool_proj"
  top: "inception_3b/pool_proj"
}
layer {
  name: "inception_3b/output"
  type: "Concat"
  bottom: "inception_3b/1x1"
  bottom: "inception_3b/3x3"
  bottom: "inception_3b/5x5"
  bottom: "inception_3b/pool_proj"
  top: "inception_3b/output"
}
layer {
  name: "pool3/3x3_s2"
  type: "Pooling"
  bottom: "inception_3b/output"
  top: "pool3/3x3_s2"
  pooling_param {
    pool: MAX
    kernel_size: 3
    stride: 2
  }
}
layer {
  name: "inception_4a/1x1"
  type: "Convolution"
  bottom: "pool3/3x3_s2"
  top: "inception_4a/1x1"
  param {
    lr_mult: 1
    decay_mult: 1
  }
  param {
    lr_mult: 2
    decay_mult: 0
  }
  convolution_param {
    num_output: 192
    kernel_size: 1
    weight_filler {
      type: "xavier"
      std: 0.03
    }
    bias_filler {
      type: "constant"
      value: 0.2
    }
  }
}
layer {
  name: "inception_4a/relu_1x1"
  type: "ReLU"
  bottom: "inception_4a/1x1"
  top: "inception_4a/1x1"
}
layer {
  name: "inception_4a/3x3_reduce"
  type: "Convolution"
  bottom: "pool3/3x3_s2"
  top: "inception_4a/3x3_reduce"
  param {
    lr_mult: 1
    decay_mult: 1
  }
  param {
    lr_mult: 2
    decay_mult: 0
  }
  convolution_param {
    num_output: 96
    kernel_size: 1
    weight_filler {
      type: "xavier"
      std: 0.09
    }
    bias_filler {
      type: "constant"
      value: 0.2
    }
  }
}
layer {
  name: "inception_4a/relu_3x3_reduce"
  type: "ReLU"
  bottom: "inception_4a/3x3_reduce"
  top: "inception_4a/3x3_reduce"
}
layer {
  name: "inception_4a/3x3"
  type: "Convolution"
  bottom: "inception_4a/3x3_reduce"
  top: "inception_4a/3x3"
  param {
    lr_mult: 1
    decay_mult: 1
  }
  param {
    lr_mult: 2
    decay_mult: 0
  }
  convolution_param {
    num_output: 208
    pad: 1
    kernel_size: 3
    weight_filler {
      type: "xavier"
      std: 0.03
    }
    bias_filler {
      type: "constant"
      value: 0.2
    }
  }
}
layer {
  name: "inception_4a/relu_3x3"
  type: "ReLU"
  bottom: "inception_4a/3x3"
  top: "inception_4a/3x3"
}
layer {
  name: "inception_4a/5x5_reduce"
  type: "Convolution"
  bottom: "pool3/3x3_s2"
  top: "inception_4a/5x5_reduce"
  param {
    lr_mult: 1
    decay_mult: 1
  }
  param {
    lr_mult: 2
    decay_mult: 0
  }
  convolution_param {
    num_output: 16
    kernel_size: 1
    weight_filler {
      type: "xavier"
      std: 0.2
    }
    bias_filler {
      type: "constant"
      value: 0.2
    }
  }
}
layer {
  name: "inception_4a/relu_5x5_reduce"
  type: "ReLU"
  bottom: "inception_4a/5x5_reduce"
  top: "inception_4a/5x5_reduce"
}
layer {
  name: "inception_4a/5x5"
  type: "Convolution"
  bottom: "inception_4a/5x5_reduce"
  top: "inception_4a/5x5"
  param {
    lr_mult: 1
    decay_mult: 1
  }
  param {
    lr_mult: 2
    decay_mult: 0
  }
  convolution_param {
    num_output: 48
    pad: 2
    kernel_size: 5
    weight_filler {
      type: "xavier"
      std: 0.03
    }
    bias_filler {
      type: "constant"
      value: 0.2
    }
  }
}
layer {
  name: "inception_4a/relu_5x5"
  type: "ReLU"
  bottom: "inception_4a/5x5"
  top: "inception_4a/5x5"
}
layer {
  name: "inception_4a/pool"
  type: "Pooling"
  bottom: "pool3/3x3_s2"
  top: "inception_4a/pool"
  pooling_param {
    pool: MAX
    kernel_size: 3
    stride: 1
    pad: 1
  }
}
layer {
  name: "inception_4a/pool_proj"
  type: "Convolution"
  bottom: "inception_4a/pool"
  top: "inception_4a/pool_proj"
  param {
    lr_mult: 1
    decay_mult: 1
  }
  param {
    lr_mult: 2
    decay_mult: 0
  }
  convolution_param {
    num_output: 64
    kernel_size: 1
    weight_filler {
      type: "xavier"
      std: 0.1
    }
    bias_filler {
      type: "constant"
      value: 0.2
    }
  }
}
layer {
  name: "inception_4a/relu_pool_proj"
  type: "ReLU"
  bottom: "inception_4a/pool_proj"
  top: "inception_4a/pool_proj"
}
layer {
  name: "inception_4a/output"
  type: "Concat"
  bottom: "inception_4a/1x1"
  bottom: "inception_4a/3x3"
  bottom: "inception_4a/5x5"
  bottom: "inception_4a/pool_proj"
  top: "inception_4a/output"
}
layer {
  name: "loss1/ave_pool"
  type: "Pooling"
  bottom: "inception_4a/output"
  top: "loss1/ave_pool"
  pooling_param {
    pool: AVE
    kernel_size: 5
    stride: 3
  }
}
layer {
  name: "loss1/conv"
  type: "Convolution"
  bottom: "loss1/ave_pool"
  top: "loss1/conv"
  param {
    lr_mult: 1
    decay_mult: 1
  }
  param {
    lr_mult: 2
    decay_mult: 0
  }
  convolution_param {
    num_output: 128
    kernel_size: 1
    weight_filler {
      type: "xavier"
      std: 0.08
    }
    bias_filler {
      type: "constant"
      value: 0.2
    }
  }
}
layer {
  name: "loss1/relu_conv"
  type: "ReLU"
  bottom: "loss1/conv"
  top: "loss1/conv"
}
layer {
  name: "loss1/fc"
  type: "InnerProduct"
  bottom: "loss1/conv"
  top: "loss1/fc"
  param {
    lr_mult: 1
    decay_mult: 1
  }
  param {
    lr_mult: 2
    decay_mult: 0
  }
  inner_product_param {
    num_output: 1024
    weight_filler {
      type: "xavier"
      std: 0.02
    }
    bias_filler {
      type: "constant"
      value: 0.2
    }
  }
}
layer {
  name: "loss1/relu_fc"
  type: "ReLU"
  bottom: "loss1/fc"
  top: "loss1/fc"
}
layer {
  name: "loss1/drop_fc"
  type: "Dropout"
  bottom: "loss1/fc"
  top: "loss1/fc"
  dropout_param {
    dropout_ratio: 0.7
  }
}
layer {
  name: "loss1/classifier_plantvillage"
  type: "InnerProduct"
  bottom: "loss1/fc"
  top: "loss1/classifier_plantvillage"
  param {
    lr_mult: 1
    decay_mult: 1
  }
  param {
    lr_mult: 2
    decay_mult: 0
  }
  inner_product_param {
    num_output: 38
    weight_filler {
      type: "xavier"
      std: 0.0009765625
    }
    bias_filler {
      type: "constant"
      value: 0
    }
  }
}
layer {
  name: "inception_4b/1x1"
  type: "Convolution"
  bottom: "inception_4a/output"
  top: "inception_4b/1x1"
  param {
    lr_mult: 1
    decay_mult: 1
  }
  param {
    lr_mult: 2
    decay_mult: 0
  }
  convolution_param {
    num_output: 160
    kernel_size: 1
    weight_filler {
      type: "xavier"
      std: 0.03
    }
    bias_filler {
      type: "constant"
      value: 0.2
    }
  }
}
layer {
  name: "inception_4b/relu_1x1"
  type: "ReLU"
  bottom: "inception_4b/1x1"
  top: "inception_4b/1x1"
}
layer {
  name: "inception_4b/3x3_reduce"
  type: "Convolution"
  bottom: "inception_4a/output"
  top: "inception_4b/3x3_reduce"
  param {
    lr_mult: 1
    decay_mult: 1
  }
  param {
    lr_mult: 2
    decay_mult: 0
  }
  convolution_param {
    num_output: 112
    kernel_size: 1
    weight_filler {
      type: "xavier"
      std: 0.09
    }
    bias_filler {
      type: "constant"
      value: 0.2
    }
  }
}
layer {
  name: "inception_4b/relu_3x3_reduce"
  type: "ReLU"
  bottom: "inception_4b/3x3_reduce"
  top: "inception_4b/3x3_reduce"
}
layer {
  name: "inception_4b/3x3"
  type: "Convolution"
  bottom: "inception_4b/3x3_reduce"
  top: "inception_4b/3x3"
  param {
    lr_mult: 1
    decay_mult: 1
  }
  param {
    lr_mult: 2
    decay_mult: 0
  }
  convolution_param {
    num_output: 224
    pad: 1
    kernel_size: 3
    weight_filler {
      type: "xavier"
      std: 0.03
    }
    bias_filler {
      type: "constant"
      value: 0.2
    }
  }
}
layer {
  name: "inception_4b/relu_3x3"
  type: "ReLU"
  bottom: "inception_4b/3x3"
  top: "inception_4b/3x3"
}
layer {
  name: "inception_4b/5x5_reduce"
  type: "Convolution"
  bottom: "inception_4a/output"
  top: "inception_4b/5x5_reduce"
  param {
    lr_mult: 1
    decay_mult: 1
  }
  param {
    lr_mult: 2
    decay_mult: 0
  }
  convolution_param {
    num_output: 24
    kernel_size: 1
    weight_filler {
      type: "xavier"
      std: 0.2
    }
    bias_filler {
      type: "constant"
      value: 0.2
    }
  }
}
layer {
  name: "inception_4b/relu_5x5_reduce"
  type: "ReLU"
  bottom: "inception_4b/5x5_reduce"
  top: "inception_4b/5x5_reduce"
}
layer {
  name: "inception_4b/5x5"
  type: "Convolution"
  bottom: "inception_4b/5x5_reduce"
  top: "inception_4b/5x5"
  param {
    lr_mult: 1
    decay_mult: 1
  }
  param {
    lr_mult: 2
    decay_mult: 0
  }
  convolution_param {
    num_output: 64
    pad: 2
    kernel_size: 5
    weight_filler {
      type: "xavier"
      std: 0.03
    }
    bias_filler {
      type: "constant"
      value: 0.2
    }
  }
}
layer {
  name: "inception_4b/relu_5x5"
  type: "ReLU"
  bottom: "inception_4b/5x5"
  top: "inception_4b/5x5"
}
layer {
  name: "inception_4b/pool"
  type: "Pooling"
  bottom: "inception_4a/output"
  top: "inception_4b/pool"
  pooling_param {
    pool: MAX
    kernel_size: 3
    stride: 1
    pad: 1
  }
}
layer {
  name: "inception_4b/pool_proj"
  type: "Convolution"
  bottom: "inception_4b/pool"
  top: "inception_4b/pool_proj"
  param {
    lr_mult: 1
    decay_mult: 1
  }
  param {
    lr_mult: 2
    decay_mult: 0
  }
  convolution_param {
    num_output: 64
    kernel_size: 1
    weight_filler {
      type: "xavier"
      std: 0.1
    }
    bias_filler {
      type: "constant"
      value: 0.2
    }
  }
}
layer {
  name: "inception_4b/relu_pool_proj"
  type: "ReLU"
  bottom: "inception_4b/pool_proj"
  top: "inception_4b/pool_proj"
}
layer {
  name: "inception_4b/output"
  type: "Concat"
  bottom: "inception_4b/1x1"
  bottom: "inception_4b/3x3"
  bottom: "inception_4b/5x5"
  bottom: "inception_4b/pool_proj"
  top: "inception_4b/output"
}
layer {
  name: "inception_4c/1x1"
  type: "Convolution"
  bottom: "inception_4b/output"
  top: "inception_4c/1x1"
  param {
    lr_mult: 1
    decay_mult: 1
  }
  param {
    lr_mult: 2
    decay_mult: 0
  }
  convolution_param {
    num_output: 128
    kernel_size: 1
    weight_filler {
      type: "xavier"
      std: 0.03
    }
    bias_filler {
      type: "constant"
      value: 0.2
    }
  }
}
layer {
  name: "inception_4c/relu_1x1"
  type: "ReLU"
  bottom: "inception_4c/1x1"
  top: "inception_4c/1x1"
}
layer {
  name: "inception_4c/3x3_reduce"
  type: "Convolution"
  bottom: "inception_4b/output"
  top: "inception_4c/3x3_reduce"
  param {
    lr_mult: 1
    decay_mult: 1
  }
  param {
    lr_mult: 2
    decay_mult: 0
  }
  convolution_param {
    num_output: 128
    kernel_size: 1
    weight_filler {
      type: "xavier"
      std: 0.09
    }
    bias_filler {
      type: "constant"
      value: 0.2
    }
  }
}
layer {
  name: "inception_4c/relu_3x3_reduce"
  type: "ReLU"
  bottom: "inception_4c/3x3_reduce"
  top: "inception_4c/3x3_reduce"
}
layer {
  name: "inception_4c/3x3"
  type: "Convolution"
  bottom: "inception_4c/3x3_reduce"
  top: "inception_4c/3x3"
  param {
    lr_mult: 1
    decay_mult: 1
  }
  param {
    lr_mult: 2
    decay_mult: 0
  }
  convolution_param {
    num_output: 256
    pad: 1
    kernel_size: 3
    weight_filler {
      type: "xavier"
      std: 0.03
    }
    bias_filler {
      type: "constant"
      value: 0.2
    }
  }
}
layer {
  name: "inception_4c/relu_3x3"
  type: "ReLU"
  bottom: "inception_4c/3x3"
  top: "inception_4c/3x3"
}
layer {
  name: "inception_4c/5x5_reduce"
  type: "Convolution"
  bottom: "inception_4b/output"
  top: "inception_4c/5x5_reduce"
  param {
    lr_mult: 1
    decay_mult: 1
  }
  param {
    lr_mult: 2
    decay_mult: 0
  }
  convolution_param {
    num_output: 24
    kernel_size: 1
    weight_filler {
      type: "xavier"
      std: 0.2
    }
    bias_filler {
      type: "constant"
      value: 0.2
    }
  }
}
layer {
  name: "inception_4c/relu_5x5_reduce"
  type: "ReLU"
  bottom: "inception_4c/5x5_reduce"
  top: "inception_4c/5x5_reduce"
}
layer {
  name: "inception_4c/5x5"
  type: "Convolution"
  bottom: "inception_4c/5x5_reduce"
  top: "inception_4c/5x5"
  param {
    lr_mult: 1
    decay_mult: 1
  }
  param {
    lr_mult: 2
    decay_mult: 0
  }
  convolution_param {
    num_output: 64
    pad: 2
    kernel_size: 5
    weight_filler {
      type: "xavier"
      std: 0.03
    }
    bias_filler {
      type: "constant"
      value: 0.2
    }
  }
}
layer {
  name: "inception_4c/relu_5x5"
  type: "ReLU"
  bottom: "inception_4c/5x5"
  top: "inception_4c/5x5"
}
layer {
  name: "inception_4c/pool"
  type: "Pooling"
  bottom: "inception_4b/output"
  top: "inception_4c/pool"
  pooling_param {
    pool: MAX
    kernel_size: 3
    stride: 1
    pad: 1
  }
}
layer {
  name: "inception_4c/pool_proj"
  type: "Convolution"
  bottom: "inception_4c/pool"
  top: "inception_4c/pool_proj"
  param {
    lr_mult: 1
    decay_mult: 1
  }
  param {
    lr_mult: 2
    decay_mult: 0
  }
  convolution_param {
    num_output: 64
    kernel_size: 1
    weight_filler {
      type: "xavier"
      std: 0.1
    }
    bias_filler {
      type: "constant"
      value: 0.2
    }
  }
}
layer {
  name: "inception_4c/relu_pool_proj"
  type: "ReLU"
  bottom: "inception_4c/pool_proj"
  top: "inception_4c/pool_proj"
}
layer {
  name: "inception_4c/output"
  type: "Concat"
  bottom: "inception_4c/1x1"
  bottom: "inception_4c/3x3"
  bottom: "inception_4c/5x5"
  bottom: "inception_4c/pool_proj"
  top: "inception_4c/output"
}
layer {
  name: "inception_4d/1x1"
  type: "Convolution"
  bottom: "inception_4c/output"
  top: "inception_4d/1x1"
  param {
    lr_mult: 1
    decay_mult: 1
  }
  param {
    lr_mult: 2
    decay_mult: 0
  }
  convolution_param {
    num_output: 112
    kernel_size: 1
    weight_filler {
      type: "xavier"
      std: 0.03
    }
    bias_filler {
      type: "constant"
      value: 0.2
    }
  }
}
layer {
  name: "inception_4d/relu_1x1"
  type: "ReLU"
  bottom: "inception_4d/1x1"
  top: "inception_4d/1x1"
}
layer {
  name: "inception_4d/3x3_reduce"
  type: "Convolution"
  bottom: "inception_4c/output"
  top: "inception_4d/3x3_reduce"
  param {
    lr_mult: 1
    decay_mult: 1
  }
  param {
    lr_mult: 2
    decay_mult: 0
  }
  convolution_param {
    num_output: 144
    kernel_size: 1
    weight_filler {
      type: "xavier"
      std: 0.09
    }
    bias_filler {
      type: "constant"
      value: 0.2
    }
  }
}
layer {
  name: "inception_4d/relu_3x3_reduce"
  type: "ReLU"
  bottom: "inception_4d/3x3_reduce"
  top: "inception_4d/3x3_reduce"
}
layer {
  name: "inception_4d/3x3"
  type: "Convolution"
  bottom: "inception_4d/3x3_reduce"
  top: "inception_4d/3x3"
  param {
    lr_mult: 1
    decay_mult: 1
  }
  param {
    lr_mult: 2
    decay_mult: 0
  }
  convolution_param {
    num_output: 288
    pad: 1
    kernel_size: 3
    weight_filler {
      type: "xavier"
      std: 0.03
    }
    bias_filler {
      type: "constant"
      value: 0.2
    }
  }
}
layer {
  name: "inception_4d/relu_3x3"
  type: "ReLU"
  bottom: "inception_4d/3x3"
  top: "inception_4d/3x3"
}
layer {
  name: "inception_4d/5x5_reduce"
  type: "Convolution"
  bottom: "inception_4c/output"
  top: "inception_4d/5x5_reduce"
  param {
    lr_mult: 1
    decay_mult: 1
  }
  param {
    lr_mult: 2
    decay_mult: 0
  }
  convolution_param {
    num_output: 32
    kernel_size: 1
    weight_filler {
      type: "xavier"
      std: 0.2
    }
    bias_filler {
      type: "constant"
      value: 0.2
    }
  }
}
layer {
  name: "inception_4d/relu_5x5_reduce"
  type: "ReLU"
  bottom: "inception_4d/5x5_reduce"
  top: "inception_4d/5x5_reduce"
}
layer {
  name: "inception_4d/5x5"
  type: "Convolution"
  bottom: "inception_4d/5x5_reduce"
  top: "inception_4d/5x5"
  param {
    lr_mult: 1
    decay_mult: 1
  }
  param {
    lr_mult: 2
    decay_mult: 0
  }
  convolution_param {
    num_output: 64
    pad: 2
    kernel_size: 5
    weight_filler {
      type: "xavier"
      std: 0.03
    }
    bias_filler {
      type: "constant"
      value: 0.2
    }
  }
}
layer {
  name: "inception_4d/relu_5x5"
  type: "ReLU"
  bottom: "inception_4d/5x5"
  top: "inception_4d/5x5"
}
layer {
  name: "inception_4d/pool"
  type: "Pooling"
  bottom: "inception_4c/output"
  top: "inception_4d/pool"
  pooling_param {
    pool: MAX
    kernel_size: 3
    stride: 1
    pad: 1
  }
}
layer {
  name: "inception_4d/pool_proj"
  type: "Convolution"
  bottom: "inception_4d/pool"
  top: "inception_4d/pool_proj"
  param {
    lr_mult: 1
    decay_mult: 1
  }
  param {
    lr_mult: 2
    decay_mult: 0
  }
  convolution_param {
    num_output: 64
    kernel_size: 1
    weight_filler {
      type: "xavier"
      std: 0.1
    }
    bias_filler {
      type: "constant"
      value: 0.2
    }
  }
}
layer {
  name: "inception_4d/relu_pool_proj"
  type: "ReLU"
  bottom: "inception_4d/pool_proj"
  top: "inception_4d/pool_proj"
}
layer {
  name: "inception_4d/output"
  type: "Concat"
  bottom: "inception_4d/1x1"
  bottom: "inception_4d/3x3"
  bottom: "inception_4d/5x5"
  bottom: "inception_4d/pool_proj"
  top: "inception_4d/output"
}
layer {
  name: "loss2/ave_pool"
  type: "Pooling"
  bottom: "inception_4d/output"
  top: "loss2/ave_pool"
  pooling_param {
    pool: AVE
    kernel_size: 5
    stride: 3
  }
}
layer {
  name: "loss2/conv"
  type: "Convolution"
  bottom: "loss2/ave_pool"
  top: "loss2/conv"
  param {
    lr_mult: 1
    decay_mult: 1
  }
  param {
    lr_mult: 2
    decay_mult: 0
  }
  convolution_param {
    num_output: 128
    kernel_size: 1
    weight_filler {
      type: "xavier"
      std: 0.08
    }
    bias_filler {
      type: "constant"
      value: 0.2
    }
  }
}
layer {
  name: "loss2/relu_conv"
  type: "ReLU"
  bottom: "loss2/conv"
  top: "loss2/conv"
}
layer {
  name: "loss2/fc"
  type: "InnerProduct"
  bottom: "loss2/conv"
  top: "loss2/fc"
  param {
    lr_mult: 1
    decay_mult: 1
  }
  param {
    lr_mult: 2
    decay_mult: 0
  }
  inner_product_param {
    num_output: 1024
    weight_filler {
      type: "xavier"
      std: 0.02
    }
    bias_filler {
      type: "constant"
      value: 0.2
    }
  }
}
layer {
  name: "loss2/relu_fc"
  type: "ReLU"
  bottom: "loss2/fc"
  top: "loss2/fc"
}
layer {
  name: "loss2/drop_fc"
  type: "Dropout"
  bottom: "loss2/fc"
  top: "loss2/fc"
  dropout_param {
    dropout_ratio: 0.7
  }
}
layer {
  name: "loss2/classifier_plantvillage"
  type: "InnerProduct"
  bottom: "loss2/fc"
  top: "loss2/classifier_plantvillage"
  param {
    lr_mult: 1
    decay_mult: 1
  }
  param {
    lr_mult: 2
    decay_mult: 0
  }
  inner_product_param {
    num_output: 38
    weight_filler {
      type: "xavier"
      std: 0.0009765625
    }
    bias_filler {
      type: "constant"
      value: 0
    }
  }
}
layer {
  name: "inception_4e/1x1"
  type: "Convolution"
  bottom: "inception_4d/output"
  top: "inception_4e/1x1"
  param {
    lr_mult: 1
    decay_mult: 1
  }
  param {
    lr_mult: 2
    decay_mult: 0
  }
  convolution_param {
    num_output: 256
    kernel_size: 1
    weight_filler {
      type: "xavier"
      std: 0.03
    }
    bias_filler {
      type: "constant"
      value: 0.2
    }
  }
}
layer {
  name: "inception_4e/relu_1x1"
  type: "ReLU"
  bottom: "inception_4e/1x1"
  top: "inception_4e/1x1"
}
layer {
  name: "inception_4e/3x3_reduce"
  type: "Convolution"
  bottom: "inception_4d/output"
  top: "inception_4e/3x3_reduce"
  param {
    lr_mult: 1
    decay_mult: 1
  }
  param {
    lr_mult: 2
    decay_mult: 0
  }
  convolution_param {
    num_output: 160
    kernel_size: 1
    weight_filler {
      type: "xavier"
      std: 0.09
    }
    bias_filler {
      type: "constant"
      value: 0.2
    }
  }
}
layer {
  name: "inception_4e/relu_3x3_reduce"
  type: "ReLU"
  bottom: "inception_4e/3x3_reduce"
  top: "inception_4e/3x3_reduce"
}
layer {
  name: "inception_4e/3x3"
  type: "Convolution"
  bottom: "inception_4e/3x3_reduce"
  top: "inception_4e/3x3"
  param {
    lr_mult: 1
    decay_mult: 1
  }
  param {
    lr_mult: 2
    decay_mult: 0
  }
  convolution_param {
    num_output: 320
    pad: 1
    kernel_size: 3
    weight_filler {
      type: "xavier"
      std: 0.03
    }
    bias_filler {
      type: "constant"
      value: 0.2
    }
  }
}
layer {
  name: "inception_4e/relu_3x3"
  type: "ReLU"
  bottom: "inception_4e/3x3"
  top: "inception_4e/3x3"
}
layer {
  name: "inception_4e/5x5_reduce"
  type: "Convolution"
  bottom: "inception_4d/output"
  top: "inception_4e/5x5_reduce"
  param {
    lr_mult: 1
    decay_mult: 1
  }
  param {
    lr_mult: 2
    decay_mult: 0
  }
  convolution_param {
    num_output: 32
    kernel_size: 1
    weight_filler {
      type: "xavier"
      std: 0.2
    }
    bias_filler {
      type: "constant"
      value: 0.2
    }
  }
}
layer {
  name: "inception_4e/relu_5x5_reduce"
  type: "ReLU"
  bottom: "inception_4e/5x5_reduce"
  top: "inception_4e/5x5_reduce"
}
layer {
  name: "inception_4e/5x5"
  type: "Convolution"
  bottom: "inception_4e/5x5_reduce"
  top: "inception_4e/5x5"
  p
I0403 19:26:37.215042  9245 layer_factory.hpp:77] Creating layer data
I0403 19:26:37.215770  9245 net.cpp:91] Creating Layer data
I0403 19:26:37.215811  9245 net.cpp:399] data -> data
I0403 19:26:37.215875  9245 net.cpp:399] data -> label
I0403 19:26:37.215920  9245 data_transformer.cpp:25] Loading mean file from: /home/mohanty/data/final_dataset/lmdb/color-60-40/mean.binaryproto
I0403 19:26:37.217242  9249 db_lmdb.cpp:38] Opened lmdb /home/mohanty/data/final_dataset/lmdb/color-60-40/test_db
I0403 19:26:37.231726  9245 data_layer.cpp:41] output data size: 24,3,224,224
I0403 19:26:37.263265  9245 net.cpp:141] Setting up data
I0403 19:26:37.263357  9245 net.cpp:148] Top shape: 24 3 224 224 (3612672)
I0403 19:26:37.263384  9245 net.cpp:148] Top shape: 24 (24)
I0403 19:26:37.263403  9245 net.cpp:156] Memory required for data: 14450784
I0403 19:26:37.263438  9245 layer_factory.hpp:77] Creating layer label_data_1_split
I0403 19:26:37.263478  9245 net.cpp:91] Creating Layer label_data_1_split
I0403 19:26:37.263501  9245 net.cpp:425] label_data_1_split <- label
I0403 19:26:37.263541  9245 net.cpp:399] label_data_1_split -> label_data_1_split_0
I0403 19:26:37.263578  9245 net.cpp:399] label_data_1_split -> label_data_1_split_1
I0403 19:26:37.263603  9245 net.cpp:399] label_data_1_split -> label_data_1_split_2
I0403 19:26:37.263628  9245 net.cpp:399] label_data_1_split -> label_data_1_split_3
I0403 19:26:37.263653  9245 net.cpp:399] label_data_1_split -> label_data_1_split_4
I0403 19:26:37.263676  9245 net.cpp:399] label_data_1_split -> label_data_1_split_5
I0403 19:26:37.263698  9245 net.cpp:399] label_data_1_split -> label_data_1_split_6
I0403 19:26:37.263721  9245 net.cpp:399] label_data_1_split -> label_data_1_split_7
I0403 19:26:37.263746  9245 net.cpp:399] label_data_1_split -> label_data_1_split_8
I0403 19:26:37.263768  9245 net.cpp:399] label_data_1_split -> label_data_1_split_9
I0403 19:26:37.263906  9245 net.cpp:141] Setting up label_data_1_split
I0403 19:26:37.263934  9245 net.cpp:148] Top shape: 24 (24)
I0403 19:26:37.263957  9245 net.cpp:148] Top shape: 24 (24)
I0403 19:26:37.263975  9245 net.cpp:148] Top shape: 24 (24)
I0403 19:26:37.263993  9245 net.cpp:148] Top shape: 24 (24)
I0403 19:26:37.264011  9245 net.cpp:148] Top shape: 24 (24)
I0403 19:26:37.264030  9245 net.cpp:148] Top shape: 24 (24)
I0403 19:26:37.264048  9245 net.cpp:148] Top shape: 24 (24)
I0403 19:26:37.264067  9245 net.cpp:148] Top shape: 24 (24)
I0403 19:26:37.264086  9245 net.cpp:148] Top shape: 24 (24)
I0403 19:26:37.264106  9245 net.cpp:148] Top shape: 24 (24)
I0403 19:26:37.264154  9245 net.cpp:156] Memory required for data: 14451744
I0403 19:26:37.264174  9245 layer_factory.hpp:77] Creating layer conv1/7x7_s2
I0403 19:26:37.264215  9245 net.cpp:91] Creating Layer conv1/7x7_s2
I0403 19:26:37.264238  9245 net.cpp:425] conv1/7x7_s2 <- data
I0403 19:26:37.264261  9245 net.cpp:399] conv1/7x7_s2 -> conv1/7x7_s2
I0403 19:26:37.428881  9245 net.cpp:141] Setting up conv1/7x7_s2
I0403 19:26:37.428968  9245 net.cpp:148] Top shape: 24 64 112 112 (19267584)
I0403 19:26:37.429002  9245 net.cpp:156] Memory required for data: 91522080
I0403 19:26:37.429042  9245 layer_factory.hpp:77] Creating layer conv1/relu_7x7
I0403 19:26:37.429076  9245 net.cpp:91] Creating Layer conv1/relu_7x7
I0403 19:26:37.429100  9245 net.cpp:425] conv1/relu_7x7 <- conv1/7x7_s2
I0403 19:26:37.429128  9245 net.cpp:386] conv1/relu_7x7 -> conv1/7x7_s2 (in-place)
I0403 19:26:37.429464  9245 net.cpp:141] Setting up conv1/relu_7x7
I0403 19:26:37.429498  9245 net.cpp:148] Top shape: 24 64 112 112 (19267584)
I0403 19:26:37.429517  9245 net.cpp:156] Memory required for data: 168592416
I0403 19:26:37.429534  9245 layer_factory.hpp:77] Creating layer pool1/3x3_s2
I0403 19:26:37.429566  9245 net.cpp:91] Creating Layer pool1/3x3_s2
I0403 19:26:37.429589  9245 net.cpp:425] pool1/3x3_s2 <- conv1/7x7_s2
I0403 19:26:37.429616  9245 net.cpp:399] pool1/3x3_s2 -> pool1/3x3_s2
I0403 19:26:37.429710  9245 net.cpp:141] Setting up pool1/3x3_s2
I0403 19:26:37.429740  9245 net.cpp:148] Top shape: 24 64 56 56 (4816896)
I0403 19:26:37.429759  9245 net.cpp:156] Memory required for data: 187860000
I0403 19:26:37.429777  9245 layer_factory.hpp:77] Creating layer pool1/norm1
I0403 19:26:37.429811  9245 net.cpp:91] Creating Layer pool1/norm1
I0403 19:26:37.429834  9245 net.cpp:425] pool1/norm1 <- pool1/3x3_s2
I0403 19:26:37.429858  9245 net.cpp:399] pool1/norm1 -> pool1/norm1
I0403 19:26:37.430224  9245 net.cpp:141] Setting up pool1/norm1
I0403 19:26:37.430259  9245 net.cpp:148] Top shape: 24 64 56 56 (4816896)
I0403 19:26:37.430279  9245 net.cpp:156] Memory required for data: 207127584
I0403 19:26:37.430296  9245 layer_factory.hpp:77] Creating layer conv2/3x3_reduce
I0403 19:26:37.430330  9245 net.cpp:91] Creating Layer conv2/3x3_reduce
I0403 19:26:37.430352  9245 net.cpp:425] conv2/3x3_reduce <- pool1/norm1
I0403 19:26:37.430378  9245 net.cpp:399] conv2/3x3_reduce -> conv2/3x3_reduce
I0403 19:26:37.432113  9245 net.cpp:141] Setting up conv2/3x3_reduce
I0403 19:26:37.432154  9245 net.cpp:148] Top shape: 24 64 56 56 (4816896)
I0403 19:26:37.432174  9245 net.cpp:156] Memory required for data: 226395168
I0403 19:26:37.432199  9245 layer_factory.hpp:77] Creating layer conv2/relu_3x3_reduce
I0403 19:26:37.432222  9245 net.cpp:91] Creating Layer conv2/relu_3x3_reduce
I0403 19:26:37.432242  9245 net.cpp:425] conv2/relu_3x3_reduce <- conv2/3x3_reduce
I0403 19:26:37.432265  9245 net.cpp:386] conv2/relu_3x3_reduce -> conv2/3x3_reduce (in-place)
I0403 19:26:37.432605  9245 net.cpp:141] Setting up conv2/relu_3x3_reduce
I0403 19:26:37.432641  9245 net.cpp:148] Top shape: 24 64 56 56 (4816896)
I0403 19:26:37.432693  9245 net.cpp:156] Memory required for data: 245662752
I0403 19:26:37.432716  9245 layer_factory.hpp:77] Creating layer conv2/3x3
I0403 19:26:37.432746  9245 net.cpp:91] Creating Layer conv2/3x3
I0403 19:26:37.432768  9245 net.cpp:425] conv2/3x3 <- conv2/3x3_reduce
I0403 19:26:37.432792  9245 net.cpp:399] conv2/3x3 -> conv2/3x3
I0403 19:26:37.435618  9245 net.cpp:141] Setting up conv2/3x3
I0403 19:26:37.435659  9245 net.cpp:148] Top shape: 24 192 56 56 (14450688)
I0403 19:26:37.435681  9245 net.cpp:156] Memory required for data: 303465504
I0403 19:26:37.435708  9245 layer_factory.hpp:77] Creating layer conv2/relu_3x3
I0403 19:26:37.435732  9245 net.cpp:91] Creating Layer conv2/relu_3x3
I0403 19:26:37.435752  9245 net.cpp:425] conv2/relu_3x3 <- conv2/3x3
I0403 19:26:37.435775  9245 net.cpp:386] conv2/relu_3x3 -> conv2/3x3 (in-place)
I0403 19:26:37.435992  9245 net.cpp:141] Setting up conv2/relu_3x3
I0403 19:26:37.436024  9245 net.cpp:148] Top shape: 24 192 56 56 (14450688)
I0403 19:26:37.436070  9245 net.cpp:156] Memory required for data: 361268256
I0403 19:26:37.436089  9245 layer_factory.hpp:77] Creating layer conv2/norm2
I0403 19:26:37.436115  9245 net.cpp:91] Creating Layer conv2/norm2
I0403 19:26:37.436137  9245 net.cpp:425] conv2/norm2 <- conv2/3x3
I0403 19:26:37.436163  9245 net.cpp:399] conv2/norm2 -> conv2/norm2
I0403 19:26:37.436556  9245 net.cpp:141] Setting up conv2/norm2
I0403 19:26:37.436590  9245 net.cpp:148] Top shape: 24 192 56 56 (14450688)
I0403 19:26:37.436610  9245 net.cpp:156] Memory required for data: 419071008
I0403 19:26:37.436630  9245 layer_factory.hpp:77] Creating layer pool2/3x3_s2
I0403 19:26:37.436655  9245 net.cpp:91] Creating Layer pool2/3x3_s2
I0403 19:26:37.436674  9245 net.cpp:425] pool2/3x3_s2 <- conv2/norm2
I0403 19:26:37.436696  9245 net.cpp:399] pool2/3x3_s2 -> pool2/3x3_s2
I0403 19:26:37.436763  9245 net.cpp:141] Setting up pool2/3x3_s2
I0403 19:26:37.436791  9245 net.cpp:148] Top shape: 24 192 28 28 (3612672)
I0403 19:26:37.436810  9245 net.cpp:156] Memory required for data: 433521696
I0403 19:26:37.436828  9245 layer_factory.hpp:77] Creating layer pool2/3x3_s2_pool2/3x3_s2_0_split
I0403 19:26:37.436849  9245 net.cpp:91] Creating Layer pool2/3x3_s2_pool2/3x3_s2_0_split
I0403 19:26:37.436869  9245 net.cpp:425] pool2/3x3_s2_pool2/3x3_s2_0_split <- pool2/3x3_s2
I0403 19:26:37.436892  9245 net.cpp:399] pool2/3x3_s2_pool2/3x3_s2_0_split -> pool2/3x3_s2_pool2/3x3_s2_0_split_0
I0403 19:26:37.436978  9245 net.cpp:399] pool2/3x3_s2_pool2/3x3_s2_0_split -> pool2/3x3_s2_pool2/3x3_s2_0_split_1
I0403 19:26:37.437008  9245 net.cpp:399] pool2/3x3_s2_pool2/3x3_s2_0_split -> pool2/3x3_s2_pool2/3x3_s2_0_split_2
I0403 19:26:37.437033  9245 net.cpp:399] pool2/3x3_s2_pool2/3x3_s2_0_split -> pool2/3x3_s2_pool2/3x3_s2_0_split_3
I0403 19:26:37.437122  9245 net.cpp:141] Setting up pool2/3x3_s2_pool2/3x3_s2_0_split
I0403 19:26:37.437155  9245 net.cpp:148] Top shape: 24 192 28 28 (3612672)
I0403 19:26:37.437175  9245 net.cpp:148] Top shape: 24 192 28 28 (3612672)
I0403 19:26:37.437196  9245 net.cpp:148] Top shape: 24 192 28 28 (3612672)
I0403 19:26:37.437214  9245 net.cpp:148] Top shape: 24 192 28 28 (3612672)
I0403 19:26:37.437232  9245 net.cpp:156] Memory required for data: 491324448
I0403 19:26:37.437252  9245 layer_factory.hpp:77] Creating layer inception_3a/1x1
I0403 19:26:37.437283  9245 net.cpp:91] Creating Layer inception_3a/1x1
I0403 19:26:37.437305  9245 net.cpp:425] inception_3a/1x1 <- pool2/3x3_s2_pool2/3x3_s2_0_split_0
I0403 19:26:37.437328  9245 net.cpp:399] inception_3a/1x1 -> inception_3a/1x1
I0403 19:26:37.439213  9245 net.cpp:141] Setting up inception_3a/1x1
I0403 19:26:37.439251  9245 net.cpp:148] Top shape: 24 64 28 28 (1204224)
I0403 19:26:37.439272  9245 net.cpp:156] Memory required for data: 496141344
I0403 19:26:37.439296  9245 layer_factory.hpp:77] Creating layer inception_3a/relu_1x1
I0403 19:26:37.439321  9245 net.cpp:91] Creating Layer inception_3a/relu_1x1
I0403 19:26:37.439340  9245 net.cpp:425] inception_3a/relu_1x1 <- inception_3a/1x1
I0403 19:26:37.439362  9245 net.cpp:386] inception_3a/relu_1x1 -> inception_3a/1x1 (in-place)
I0403 19:26:37.439585  9245 net.cpp:141] Setting up inception_3a/relu_1x1
I0403 19:26:37.439616  9245 net.cpp:148] Top shape: 24 64 28 28 (1204224)
I0403 19:26:37.439635  9245 net.cpp:156] Memory required for data: 500958240
I0403 19:26:37.439652  9245 layer_factory.hpp:77] Creating layer inception_3a/3x3_reduce
I0403 19:26:37.439680  9245 net.cpp:91] Creating Layer inception_3a/3x3_reduce
I0403 19:26:37.439703  9245 net.cpp:425] inception_3a/3x3_reduce <- pool2/3x3_s2_pool2/3x3_s2_0_split_1
I0403 19:26:37.439729  9245 net.cpp:399] inception_3a/3x3_reduce -> inception_3a/3x3_reduce
I0403 19:26:37.441802  9245 net.cpp:141] Setting up inception_3a/3x3_reduce
I0403 19:26:37.441840  9245 net.cpp:148] Top shape: 24 96 28 28 (1806336)
I0403 19:26:37.441860  9245 net.cpp:156] Memory required for data: 508183584
I0403 19:26:37.441887  9245 layer_factory.hpp:77] Creating layer inception_3a/relu_3x3_reduce
I0403 19:26:37.441931  9245 net.cpp:91] Creating Layer inception_3a/relu_3x3_reduce
I0403 19:26:37.441953  9245 net.cpp:425] inception_3a/relu_3x3_reduce <- inception_3a/3x3_reduce
I0403 19:26:37.441978  9245 net.cpp:386] inception_3a/relu_3x3_reduce -> inception_3a/3x3_reduce (in-place)
I0403 19:26:37.442201  9245 net.cpp:141] Setting up inception_3a/relu_3x3_reduce
I0403 19:26:37.442232  9245 net.cpp:148] Top shape: 24 96 28 28 (1806336)
I0403 19:26:37.442252  9245 net.cpp:156] Memory required for data: 515408928
I0403 19:26:37.442270  9245 layer_factory.hpp:77] Creating layer inception_3a/3x3
I0403 19:26:37.442298  9245 net.cpp:91] Creating Layer inception_3a/3x3
I0403 19:26:37.442318  9245 net.cpp:425] inception_3a/3x3 <- inception_3a/3x3_reduce
I0403 19:26:37.442345  9245 net.cpp:399] inception_3a/3x3 -> inception_3a/3x3
I0403 19:26:37.444423  9245 net.cpp:141] Setting up inception_3a/3x3
I0403 19:26:37.444465  9245 net.cpp:148] Top shape: 24 128 28 28 (2408448)
I0403 19:26:37.444488  9245 net.cpp:156] Memory required for data: 525042720
I0403 19:26:37.444510  9245 layer_factory.hpp:77] Creating layer inception_3a/relu_3x3
I0403 19:26:37.444533  9245 net.cpp:91] Creating Layer inception_3a/relu_3x3
I0403 19:26:37.444553  9245 net.cpp:425] inception_3a/relu_3x3 <- inception_3a/3x3
I0403 19:26:37.444578  9245 net.cpp:386] inception_3a/relu_3x3 -> inception_3a/3x3 (in-place)
I0403 19:26:37.444908  9245 net.cpp:141] Setting up inception_3a/relu_3x3
I0403 19:26:37.444944  9245 net.cpp:148] Top shape: 24 128 28 28 (2408448)
I0403 19:26:37.444964  9245 net.cpp:156] Memory required for data: 534676512
I0403 19:26:37.444983  9245 layer_factory.hpp:77] Creating layer inception_3a/5x5_reduce
I0403 19:26:37.445010  9245 net.cpp:91] Creating Layer inception_3a/5x5_reduce
I0403 19:26:37.445034  9245 net.cpp:425] inception_3a/5x5_reduce <- pool2/3x3_s2_pool2/3x3_s2_0_split_2
I0403 19:26:37.445056  9245 net.cpp:399] inception_3a/5x5_reduce -> inception_3a/5x5_reduce
I0403 19:26:37.446290  9245 net.cpp:141] Setting up inception_3a/5x5_reduce
I0403 19:26:37.446328  9245 net.cpp:148] Top shape: 24 16 28 28 (301056)
I0403 19:26:37.446348  9245 net.cpp:156] Memory required for data: 535880736
I0403 19:26:37.446372  9245 layer_factory.hpp:77] Creating layer inception_3a/relu_5x5_reduce
I0403 19:26:37.446394  9245 net.cpp:91] Creating Layer inception_3a/relu_5x5_reduce
I0403 19:26:37.446415  9245 net.cpp:425] inception_3a/relu_5x5_reduce <- inception_3a/5x5_reduce
I0403 19:26:37.446439  9245 net.cpp:386] inception_3a/relu_5x5_reduce -> inception_3a/5x5_reduce (in-place)
I0403 19:26:37.446792  9245 net.cpp:141] Setting up inception_3a/relu_5x5_reduce
I0403 19:26:37.446825  9245 net.cpp:148] Top shape: 24 16 28 28 (301056)
I0403 19:26:37.446843  9245 net.cpp:156] Memory required for data: 537084960
I0403 19:26:37.446862  9245 layer_factory.hpp:77] Creating layer inception_3a/5x5
I0403 19:26:37.446890  9245 net.cpp:91] Creating Layer inception_3a/5x5
I0403 19:26:37.446913  9245 net.cpp:425] inception_3a/5x5 <- inception_3a/5x5_reduce
I0403 19:26:37.446938  9245 net.cpp:399] inception_3a/5x5 -> inception_3a/5x5
I0403 19:26:37.448155  9245 net.cpp:141] Setting up inception_3a/5x5
I0403 19:26:37.448191  9245 net.cpp:148] Top shape: 24 32 28 28 (602112)
I0403 19:26:37.448212  9245 net.cpp:156] Memory required for data: 539493408
I0403 19:26:37.448235  9245 layer_factory.hpp:77] Creating layer inception_3a/relu_5x5
I0403 19:26:37.448257  9245 net.cpp:91] Creating Layer inception_3a/relu_5x5
I0403 19:26:37.448278  9245 net.cpp:425] inception_3a/relu_5x5 <- inception_3a/5x5
I0403 19:26:37.448303  9245 net.cpp:386] inception_3a/relu_5x5 -> inception_3a/5x5 (in-place)
I0403 19:26:37.448524  9245 net.cpp:141] Setting up inception_3a/relu_5x5
I0403 19:26:37.448556  9245 net.cpp:148] Top shape: 24 32 28 28 (602112)
I0403 19:26:37.448575  9245 net.cpp:156] Memory required for data: 541901856
I0403 19:26:37.448591  9245 layer_factory.hpp:77] Creating layer inception_3a/pool
I0403 19:26:37.448613  9245 net.cpp:91] Creating Layer inception_3a/pool
I0403 19:26:37.448633  9245 net.cpp:425] inception_3a/pool <- pool2/3x3_s2_pool2/3x3_s2_0_split_3
I0403 19:26:37.448676  9245 net.cpp:399] inception_3a/pool -> inception_3a/pool
I0403 19:26:37.448747  9245 net.cpp:141] Setting up inception_3a/pool
I0403 19:26:37.448777  9245 net.cpp:148] Top shape: 24 192 28 28 (3612672)
I0403 19:26:37.448796  9245 net.cpp:156] Memory required for data: 556352544
I0403 19:26:37.448813  9245 layer_factory.hpp:77] Creating layer inception_3a/pool_proj
I0403 19:26:37.448843  9245 net.cpp:91] Creating Layer inception_3a/pool_proj
I0403 19:26:37.448863  9245 net.cpp:425] inception_3a/pool_proj <- inception_3a/pool
I0403 19:26:37.448886  9245 net.cpp:399] inception_3a/pool_proj -> inception_3a/pool_proj
I0403 19:26:37.450062  9245 net.cpp:141] Setting up inception_3a/pool_proj
I0403 19:26:37.450096  9245 net.cpp:148] Top shape: 24 32 28 28 (602112)
I0403 19:26:37.450114  9245 net.cpp:156] Memory required for data: 558760992
I0403 19:26:37.450144  9245 layer_factory.hpp:77] Creating layer inception_3a/relu_pool_proj
I0403 19:26:37.450168  9245 net.cpp:91] Creating Layer inception_3a/relu_pool_proj
I0403 19:26:37.450188  9245 net.cpp:425] inception_3a/relu_pool_proj <- inception_3a/pool_proj
I0403 19:26:37.450212  9245 net.cpp:386] inception_3a/relu_pool_proj -> inception_3a/pool_proj (in-place)
I0403 19:26:37.450551  9245 net.cpp:141] Setting up inception_3a/relu_pool_proj
I0403 19:26:37.450585  9245 net.cpp:148] Top shape: 24 32 28 28 (602112)
I0403 19:26:37.450604  9245 net.cpp:156] Memory required for data: 561169440
I0403 19:26:37.450623  9245 layer_factory.hpp:77] Creating layer inception_3a/output
I0403 19:26:37.450645  9245 net.cpp:91] Creating Layer inception_3a/output
I0403 19:26:37.450665  9245 net.cpp:425] inception_3a/output <- inception_3a/1x1
I0403 19:26:37.450685  9245 net.cpp:425] inception_3a/output <- inception_3a/3x3
I0403 19:26:37.450706  9245 net.cpp:425] inception_3a/output <- inception_3a/5x5
I0403 19:26:37.450724  9245 net.cpp:425] inception_3a/output <- inception_3a/pool_proj
I0403 19:26:37.450748  9245 net.cpp:399] inception_3a/output -> inception_3a/output
I0403 19:26:37.450804  9245 net.cpp:141] Setting up inception_3a/output
I0403 19:26:37.450834  9245 net.cpp:148] Top shape: 24 256 28 28 (4816896)
I0403 19:26:37.450851  9245 net.cpp:156] Memory required for data: 580437024
I0403 19:26:37.450868  9245 layer_factory.hpp:77] Creating layer inception_3a/output_inception_3a/output_0_split
I0403 19:26:37.450893  9245 net.cpp:91] Creating Layer inception_3a/output_inception_3a/output_0_split
I0403 19:26:37.450918  9245 net.cpp:425] inception_3a/output_inception_3a/output_0_split <- inception_3a/output
I0403 19:26:37.450942  9245 net.cpp:399] inception_3a/output_inception_3a/output_0_split -> inception_3a/output_inception_3a/output_0_split_0
I0403 19:26:37.450966  9245 net.cpp:399] inception_3a/output_inception_3a/output_0_split -> inception_3a/output_inception_3a/output_0_split_1
I0403 19:26:37.451000  9245 net.cpp:399] inception_3a/output_inception_3a/output_0_split -> inception_3a/output_inception_3a/output_0_split_2
I0403 19:26:37.451027  9245 net.cpp:399] inception_3a/output_inception_3a/output_0_split -> inception_3a/output_inception_3a/output_0_split_3
I0403 19:26:37.451115  9245 net.cpp:141] Setting up inception_3a/output_inception_3a/output_0_split
I0403 19:26:37.451145  9245 net.cpp:148] Top shape: 24 256 28 28 (4816896)
I0403 19:26:37.451167  9245 net.cpp:148] Top shape: 24 256 28 28 (4816896)
I0403 19:26:37.451187  9245 net.cpp:148] Top shape: 24 256 28 28 (4816896)
I0403 19:26:37.451207  9245 net.cpp:148] Top shape: 24 256 28 28 (4816896)
I0403 19:26:37.451225  9245 net.cpp:156] Memory required for data: 657507360
I0403 19:26:37.451243  9245 layer_factory.hpp:77] Creating layer inception_3b/1x1
I0403 19:26:37.451270  9245 net.cpp:91] Creating Layer inception_3b/1x1
I0403 19:26:37.451292  9245 net.cpp:425] inception_3b/1x1 <- inception_3a/output_inception_3a/output_0_split_0
I0403 19:26:37.451315  9245 net.cpp:399] inception_3b/1x1 -> inception_3b/1x1
I0403 19:26:37.452715  9245 net.cpp:141] Setting up inception_3b/1x1
I0403 19:26:37.452764  9245 net.cpp:148] Top shape: 24 128 28 28 (2408448)
I0403 19:26:37.452785  9245 net.cpp:156] Memory required for data: 667141152
I0403 19:26:37.452810  9245 layer_factory.hpp:77] Creating layer inception_3b/relu_1x1
I0403 19:26:37.452841  9245 net.cpp:91] Creating Layer inception_3b/relu_1x1
I0403 19:26:37.452862  9245 net.cpp:425] inception_3b/relu_1x1 <- inception_3b/1x1
I0403 19:26:37.452883  9245 net.cpp:386] inception_3b/relu_1x1 -> inception_3b/1x1 (in-place)
I0403 19:26:37.453115  9245 net.cpp:141] Setting up inception_3b/relu_1x1
I0403 19:26:37.453150  9245 net.cpp:148] Top shape: 24 128 28 28 (2408448)
I0403 19:26:37.453168  9245 net.cpp:156] Memory required for data: 676774944
I0403 19:26:37.453187  9245 layer_factory.hpp:77] Creating layer inception_3b/3x3_reduce
I0403 19:26:37.453215  9245 net.cpp:91] Creating Layer inception_3b/3x3_reduce
I0403 19:26:37.453236  9245 net.cpp:425] inception_3b/3x3_reduce <- inception_3a/output_inception_3a/output_0_split_1
I0403 19:26:37.453260  9245 net.cpp:399] inception_3b/3x3_reduce -> inception_3b/3x3_reduce
I0403 19:26:37.454641  9245 net.cpp:141] Setting up inception_3b/3x3_reduce
I0403 19:26:37.454674  9245 net.cpp:148] Top shape: 24 128 28 28 (2408448)
I0403 19:26:37.454701  9245 net.cpp:156] Memory required for data: 686408736
I0403 19:26:37.454725  9245 layer_factory.hpp:77] Creating layer inception_3b/relu_3x3_reduce
I0403 19:26:37.454751  9245 net.cpp:91] Creating Layer inception_3b/relu_3x3_reduce
I0403 19:26:37.454772  9245 net.cpp:425] inception_3b/relu_3x3_reduce <- inception_3b/3x3_reduce
I0403 19:26:37.454793  9245 net.cpp:386] inception_3b/relu_3x3_reduce -> inception_3b/3x3_reduce (in-place)
I0403 19:26:37.455006  9245 net.cpp:141] Setting up inception_3b/relu_3x3_reduce
I0403 19:26:37.455039  9245 net.cpp:148] Top shape: 24 128 28 28 (2408448)
I0403 19:26:37.455060  9245 net.cpp:156] Memory required for data: 696042528
I0403 19:26:37.455078  9245 layer_factory.hpp:77] Creating layer inception_3b/3x3
I0403 19:26:37.455107  9245 net.cpp:91] Creating Layer inception_3b/3x3
I0403 19:26:37.455129  9245 net.cpp:425] inception_3b/3x3 <- inception_3b/3x3_reduce
I0403 19:26:37.455157  9245 net.cpp:399] inception_3b/3x3 -> inception_3b/3x3
I0403 19:26:37.458686  9245 net.cpp:141] Setting up inception_3b/3x3
I0403 19:26:37.458724  9245 net.cpp:148] Top shape: 24 192 28 28 (3612672)
I0403 19:26:37.458745  9245 net.cpp:156] Memory required for data: 710493216
I0403 19:26:37.458767  9245 layer_factory.hpp:77] Creating layer inception_3b/relu_3x3
I0403 19:26:37.458789  9245 net.cpp:91] Creating Layer inception_3b/relu_3x3
I0403 19:26:37.458811  9245 net.cpp:425] inception_3b/relu_3x3 <- inception_3b/3x3
I0403 19:26:37.458834  9245 net.cpp:386] inception_3b/relu_3x3 -> inception_3b/3x3 (in-place)
I0403 19:26:37.459164  9245 net.cpp:141] Setting up inception_3b/relu_3x3
I0403 19:26:37.459202  9245 net.cpp:148] Top shape: 24 192 28 28 (3612672)
I0403 19:26:37.459220  9245 net.cpp:156] Memory required for data: 724943904
I0403 19:26:37.459239  9245 layer_factory.hpp:77] Creating layer inception_3b/5x5_reduce
I0403 19:26:37.459267  9245 net.cpp:91] Creating Layer inception_3b/5x5_reduce
I0403 19:26:37.459290  9245 net.cpp:425] inception_3b/5x5_reduce <- inception_3a/output_inception_3a/output_0_split_2
I0403 19:26:37.459313  9245 net.cpp:399] inception_3b/5x5_reduce -> inception_3b/5x5_reduce
I0403 19:26:37.460517  9245 net.cpp:141] Setting up inception_3b/5x5_reduce
I0403 19:26:37.460580  9245 net.cpp:148] Top shape: 24 32 28 28 (602112)
I0403 19:26:37.460619  9245 net.cpp:156] Memory required for data: 727352352
I0403 19:26:37.460644  9245 layer_factory.hpp:77] Creating layer inception_3b/relu_5x5_reduce
I0403 19:26:37.460666  9245 net.cpp:91] Creating Layer inception_3b/relu_5x5_reduce
I0403 19:26:37.460685  9245 net.cpp:425] inception_3b/relu_5x5_reduce <- inception_3b/5x5_reduce
I0403 19:26:37.460711  9245 net.cpp:386] inception_3b/relu_5x5_reduce -> inception_3b/5x5_reduce (in-place)
I0403 19:26:37.460925  9245 net.cpp:141] Setting up inception_3b/relu_5x5_reduce
I0403 19:26:37.460996  9245 net.cpp:148] Top shape: 24 32 28 28 (602112)
I0403 19:26:37.461031  9245 net.cpp:156] Memory required for data: 729760800
I0403 19:26:37.461071  9245 layer_factory.hpp:77] Creating layer inception_3b/5x5
I0403 19:26:37.461098  9245 net.cpp:91] Creating Layer inception_3b/5x5
I0403 19:26:37.461120  9245 net.cpp:425] inception_3b/5x5 <- inception_3b/5x5_reduce
I0403 19:26:37.461145  9245 net.cpp:399] inception_3b/5x5 -> inception_3b/5x5
I0403 19:26:37.463538  9245 net.cpp:141] Setting up inception_3b/5x5
I0403 19:26:37.463574  9245 net.cpp:148] Top shape: 24 96 28 28 (1806336)
I0403 19:26:37.463593  9245 net.cpp:156] Memory required for data: 736986144
I0403 19:26:37.463618  9245 layer_factory.hpp:77] Creating layer inception_3b/relu_5x5
I0403 19:26:37.463642  9245 net.cpp:91] Creating Layer inception_3b/relu_5x5
I0403 19:26:37.463663  9245 net.cpp:425] inception_3b/relu_5x5 <- inception_3b/5x5
I0403 19:26:37.463688  9245 net.cpp:386] inception_3b/relu_5x5 -> inception_3b/5x5 (in-place)
I0403 19:26:37.463923  9245 net.cpp:141] Setting up inception_3b/relu_5x5
I0403 19:26:37.463955  9245 net.cpp:148] Top shape: 24 96 28 28 (1806336)
I0403 19:26:37.463973  9245 net.cpp:156] Memory required for data: 744211488
I0403 19:26:37.463992  9245 layer_factory.hpp:77] Creating layer inception_3b/pool
I0403 19:26:37.464015  9245 net.cpp:91] Creating Layer inception_3b/pool
I0403 19:26:37.464035  9245 net.cpp:425] inception_3b/pool <- inception_3a/output_inception_3a/output_0_split_3
I0403 19:26:37.464056  9245 net.cpp:399] inception_3b/pool -> inception_3b/pool
I0403 19:26:37.464123  9245 net.cpp:141] Setting up inception_3b/pool
I0403 19:26:37.464153  9245 net.cpp:148] Top shape: 24 256 28 28 (4816896)
I0403 19:26:37.464169  9245 net.cpp:156] Memory required for data: 763479072
I0403 19:26:37.464189  9245 layer_factory.hpp:77] Creating layer inception_3b/pool_proj
I0403 19:26:37.464215  9245 net.cpp:91] Creating Layer inception_3b/pool_proj
I0403 19:26:37.464239  9245 net.cpp:425] inception_3b/pool_proj <- inception_3b/pool
I0403 19:26:37.464262  9245 net.cpp:399] inception_3b/pool_proj -> inception_3b/pool_proj
I0403 19:26:37.465558  9245 net.cpp:141] Setting up inception_3b/pool_proj
I0403 19:26:37.465591  9245 net.cpp:148] Top shape: 24 64 28 28 (1204224)
I0403 19:26:37.465610  9245 net.cpp:156] Memory required for data: 768295968
I0403 19:26:37.465633  9245 layer_factory.hpp:77] Creating layer inception_3b/relu_pool_proj
I0403 19:26:37.465656  9245 net.cpp:91] Creating Layer inception_3b/relu_pool_proj
I0403 19:26:37.465675  9245 net.cpp:425] inception_3b/relu_pool_proj <- inception_3b/pool_proj
I0403 19:26:37.465704  9245 net.cpp:386] inception_3b/relu_pool_proj -> inception_3b/pool_proj (in-place)
I0403 19:26:37.466176  9245 net.cpp:141] Setting up inception_3b/relu_pool_proj
I0403 19:26:37.466207  9245 net.cpp:148] Top shape: 24 64 28 28 (1204224)
I0403 19:26:37.466226  9245 net.cpp:156] Memory required for data: 773112864
I0403 19:26:37.466244  9245 layer_factory.hpp:77] Creating layer inception_3b/output
I0403 19:26:37.466266  9245 net.cpp:91] Creating Layer inception_3b/output
I0403 19:26:37.466285  9245 net.cpp:425] inception_3b/output <- inception_3b/1x1
I0403 19:26:37.466306  9245 net.cpp:425] inception_3b/output <- inception_3b/3x3
I0403 19:26:37.466325  9245 net.cpp:425] inception_3b/output <- inception_3b/5x5
I0403 19:26:37.466344  9245 net.cpp:425] inception_3b/output <- inception_3b/pool_proj
I0403 19:26:37.466367  9245 net.cpp:399] inception_3b/output -> inception_3b/output
I0403 19:26:37.466420  9245 net.cpp:141] Setting up inception_3b/output
I0403 19:26:37.466449  9245 net.cpp:148] Top shape: 24 480 28 28 (9031680)
I0403 19:26:37.466477  9245 net.cpp:156] Memory required for data: 809239584
I0403 19:26:37.466495  9245 layer_factory.hpp:77] Creating layer pool3/3x3_s2
I0403 19:26:37.466521  9245 net.cpp:91] Creating Layer pool3/3x3_s2
I0403 19:26:37.466541  9245 net.cpp:425] pool3/3x3_s2 <- inception_3b/output
I0403 19:26:37.466565  9245 net.cpp:399] pool3/3x3_s2 -> pool3/3x3_s2
I0403 19:26:37.466652  9245 net.cpp:141] Setting up pool3/3x3_s2
I0403 19:26:37.466681  9245 net.cpp:148] Top shape: 24 480 14 14 (2257920)
I0403 19:26:37.466699  9245 net.cpp:156] Memory required for data: 818271264
I0403 19:26:37.466717  9245 layer_factory.hpp:77] Creating layer pool3/3x3_s2_pool3/3x3_s2_0_split
I0403 19:26:37.466740  9245 net.cpp:91] Creating Layer pool3/3x3_s2_pool3/3x3_s2_0_split
I0403 19:26:37.466760  9245 net.cpp:425] pool3/3x3_s2_pool3/3x3_s2_0_split <- pool3/3x3_s2
I0403 19:26:37.466781  9245 net.cpp:399] pool3/3x3_s2_pool3/3x3_s2_0_split -> pool3/3x3_s2_pool3/3x3_s2_0_split_0
I0403 19:26:37.466805  9245 net.cpp:399] pool3/3x3_s2_pool3/3x3_s2_0_split -> pool3/3x3_s2_pool3/3x3_s2_0_split_1
I0403 19:26:37.466830  9245 net.cpp:399] pool3/3x3_s2_pool3/3x3_s2_0_split -> pool3/3x3_s2_pool3/3x3_s2_0_split_2
I0403 19:26:37.466851  9245 net.cpp:399] pool3/3x3_s2_pool3/3x3_s2_0_split -> pool3/3x3_s2_pool3/3x3_s2_0_split_3
I0403 19:26:37.466943  9245 net.cpp:141] Setting up pool3/3x3_s2_pool3/3x3_s2_0_split
I0403 19:26:37.466972  9245 net.cpp:148] Top shape: 24 480 14 14 (2257920)
I0403 19:26:37.466992  9245 net.cpp:148] Top shape: 24 480 14 14 (2257920)
I0403 19:26:37.467011  9245 net.cpp:148] Top shape: 24 480 14 14 (2257920)
I0403 19:26:37.467031  9245 net.cpp:148] Top shape: 24 480 14 14 (2257920)
I0403 19:26:37.467048  9245 net.cpp:156] Memory required for data: 854397984
I0403 19:26:37.467067  9245 layer_factory.hpp:77] Creating layer inception_4a/1x1
I0403 19:26:37.467092  9245 net.cpp:91] Creating Layer inception_4a/1x1
I0403 19:26:37.467114  9245 net.cpp:425] inception_4a/1x1 <- pool3/3x3_s2_pool3/3x3_s2_0_split_0
I0403 19:26:37.467141  9245 net.cpp:399] inception_4a/1x1 -> inception_4a/1x1
I0403 19:26:37.469050  9245 net.cpp:141] Setting up inception_4a/1x1
I0403 19:26:37.469084  9245 net.cpp:148] Top shape: 24 192 14 14 (903168)
I0403 19:26:37.469104  9245 net.cpp:156] Memory required for data: 858010656
I0403 19:26:37.469126  9245 layer_factory.hpp:77] Creating layer inception_4a/relu_1x1
I0403 19:26:37.469151  9245 net.cpp:91] Creating Layer inception_4a/relu_1x1
I0403 19:26:37.469172  9245 net.cpp:425] inception_4a/relu_1x1 <- inception_4a/1x1
I0403 19:26:37.469194  9245 net.cpp:386] inception_4a/relu_1x1 -> inception_4a/1x1 (in-place)
I0403 19:26:37.469408  9245 net.cpp:141] Setting up inception_4a/relu_1x1
I0403 19:26:37.469442  9245 net.cpp:148] Top shape: 24 192 14 14 (903168)
I0403 19:26:37.469472  9245 net.cpp:156] Memory required for data: 861623328
I0403 19:26:37.469492  9245 layer_factory.hpp:77] Creating layer inception_4a/3x3_reduce
I0403 19:26:37.469517  9245 net.cpp:91] Creating Layer inception_4a/3x3_reduce
I0403 19:26:37.469547  9245 net.cpp:425] inception_4a/3x3_reduce <- pool3/3x3_s2_pool3/3x3_s2_0_split_1
I0403 19:26:37.469573  9245 net.cpp:399] inception_4a/3x3_reduce -> inception_4a/3x3_reduce
I0403 19:26:37.471114  9245 net.cpp:141] Setting up inception_4a/3x3_reduce
I0403 19:26:37.471148  9245 net.cpp:148] Top shape: 24 96 14 14 (451584)
I0403 19:26:37.471168  9245 net.cpp:156] Memory required for data: 863429664
I0403 19:26:37.471196  9245 layer_factory.hpp:77] Creating layer inception_4a/relu_3x3_reduce
I0403 19:26:37.471221  9245 net.cpp:91] Creating Layer inception_4a/relu_3x3_reduce
I0403 19:26:37.471241  9245 net.cpp:425] inception_4a/relu_3x3_reduce <- inception_4a/3x3_reduce
I0403 19:26:37.471264  9245 net.cpp:386] inception_4a/relu_3x3_reduce -> inception_4a/3x3_reduce (in-place)
I0403 19:26:37.471485  9245 net.cpp:141] Setting up inception_4a/relu_3x3_reduce
I0403 19:26:37.471515  9245 net.cpp:148] Top shape: 24 96 14 14 (451584)
I0403 19:26:37.471535  9245 net.cpp:156] Memory required for data: 865236000
I0403 19:26:37.471552  9245 layer_factory.hpp:77] Creating layer inception_4a/3x3
I0403 19:26:37.471580  9245 net.cpp:91] Creating Layer inception_4a/3x3
I0403 19:26:37.471601  9245 net.cpp:425] inception_4a/3x3 <- inception_4a/3x3_reduce
I0403 19:26:37.471627  9245 net.cpp:399] inception_4a/3x3 -> inception_4a/3x3
I0403 19:26:37.474872  9245 net.cpp:141] Setting up inception_4a/3x3
I0403 19:26:37.474907  9245 net.cpp:148] Top shape: 24 208 14 14 (978432)
I0403 19:26:37.474927  9245 net.cpp:156] Memory required for data: 869149728
I0403 19:26:37.474949  9245 layer_factory.hpp:77] Creating layer inception_4a/relu_3x3
I0403 19:26:37.474974  9245 net.cpp:91] Creating Layer inception_4a/relu_3x3
I0403 19:26:37.474997  9245 net.cpp:425] inception_4a/relu_3x3 <- inception_4a/3x3
I0403 19:26:37.475019  9245 net.cpp:386] inception_4a/relu_3x3 -> inception_4a/3x3 (in-place)
I0403 19:26:37.475359  9245 net.cpp:141] Setting up inception_4a/relu_3x3
I0403 19:26:37.475391  9245 net.cpp:148] Top shape: 24 208 14 14 (978432)
I0403 19:26:37.475409  9245 net.cpp:156] Memory required for data: 873063456
I0403 19:26:37.475428  9245 layer_factory.hpp:77] Creating layer inception_4a/5x5_reduce
I0403 19:26:37.475466  9245 net.cpp:91] Creating Layer inception_4a/5x5_reduce
I0403 19:26:37.475491  9245 net.cpp:425] inception_4a/5x5_reduce <- pool3/3x3_s2_pool3/3x3_s2_0_split_2
I0403 19:26:37.475514  9245 net.cpp:399] inception_4a/5x5_reduce -> inception_4a/5x5_reduce
I0403 19:26:37.476752  9245 net.cpp:141] Setting up inception_4a/5x5_reduce
I0403 19:26:37.476785  9245 net.cpp:148] Top shape: 24 16 14 14 (75264)
I0403 19:26:37.476804  9245 net.cpp:156] Memory required for data: 873364512
I0403 19:26:37.476830  9245 layer_factory.hpp:77] Creating layer inception_4a/relu_5x5_reduce
I0403 19:26:37.476852  9245 net.cpp:91] Creating Layer inception_4a/relu_5x5_reduce
I0403 19:26:37.476873  9245 net.cpp:425] inception_4a/relu_5x5_reduce <- inception_4a/5x5_reduce
I0403 19:26:37.476894  9245 net.cpp:386] inception_4a/relu_5x5_reduce -> inception_4a/5x5_reduce (in-place)
I0403 19:26:37.477116  9245 net.cpp:141] Setting up inception_4a/relu_5x5_reduce
I0403 19:26:37.477147  9245 net.cpp:148] Top shape: 24 16 14 14 (75264)
I0403 19:26:37.477164  9245 net.cpp:156] Memory required for data: 873665568
I0403 19:26:37.477183  9245 layer_factory.hpp:77] Creating layer inception_4a/5x5
I0403 19:26:37.477210  9245 net.cpp:91] Creating Layer inception_4a/5x5
I0403 19:26:37.477232  9245 net.cpp:425] inception_4a/5x5 <- inception_4a/5x5_reduce
I0403 19:26:37.477257  9245 net.cpp:399] inception_4a/5x5 -> inception_4a/5x5
I0403 19:26:37.478585  9245 net.cpp:141] Setting up inception_4a/5x5
I0403 19:26:37.478620  9245 net.cpp:148] Top shape: 24 48 14 14 (225792)
I0403 19:26:37.478637  9245 net.cpp:156] Memory required for data: 874568736
I0403 19:26:37.478662  9245 layer_factory.hpp:77] Creating layer inception_4a/relu_5x5
I0403 19:26:37.478682  9245 net.cpp:91] Creating Layer inception_4a/relu_5x5
I0403 19:26:37.478701  9245 net.cpp:425] inception_4a/relu_5x5 <- inception_4a/5x5
I0403 19:26:37.478724  9245 net.cpp:386] inception_4a/relu_5x5 -> inception_4a/5x5 (in-place)
I0403 19:26:37.478946  9245 net.cpp:141] Setting up inception_4a/relu_5x5
I0403 19:26:37.478977  9245 net.cpp:148] Top shape: 24 48 14 14 (225792)
I0403 19:26:37.478996  9245 net.cpp:156] Memory required for data: 875471904
I0403 19:26:37.479014  9245 layer_factory.hpp:77] Creating layer inception_4a/pool
I0403 19:26:37.479039  9245 net.cpp:91] Creating Layer inception_4a/pool
I0403 19:26:37.479059  9245 net.cpp:425] inception_4a/pool <- pool3/3x3_s2_pool3/3x3_s2_0_split_3
I0403 19:26:37.479081  9245 net.cpp:399] inception_4a/pool -> inception_4a/pool
I0403 19:26:37.479156  9245 net.cpp:141] Setting up inception_4a/pool
I0403 19:26:37.479187  9245 net.cpp:148] Top shape: 24 480 14 14 (2257920)
I0403 19:26:37.479205  9245 net.cpp:156] Memory required for data: 884503584
I0403 19:26:37.479223  9245 layer_factory.hpp:77] Creating layer inception_4a/pool_proj
I0403 19:26:37.479249  9245 net.cpp:91] Creating Layer inception_4a/pool_proj
I0403 19:26:37.479271  9245 net.cpp:425] inception_4a/pool_proj <- inception_4a/pool
I0403 19:26:37.479296  9245 net.cpp:399] inception_4a/pool_proj -> inception_4a/pool_proj
I0403 19:26:37.480728  9245 net.cpp:141] Setting up inception_4a/pool_proj
I0403 19:26:37.480763  9245 net.cpp:148] Top shape: 24 64 14 14 (301056)
I0403 19:26:37.480800  9245 net.cpp:156] Memory required for data: 885707808
I0403 19:26:37.480824  9245 layer_factory.hpp:77] Creating layer inception_4a/relu_pool_proj
I0403 19:26:37.480849  9245 net.cpp:91] Creating Layer inception_4a/relu_pool_proj
I0403 19:26:37.480870  9245 net.cpp:425] inception_4a/relu_pool_proj <- inception_4a/pool_proj
I0403 19:26:37.480892  9245 net.cpp:386] inception_4a/relu_pool_proj -> inception_4a/pool_proj (in-place)
I0403 19:26:37.481242  9245 net.cpp:141] Setting up inception_4a/relu_pool_proj
I0403 19:26:37.481274  9245 net.cpp:148] Top shape: 24 64 14 14 (301056)
I0403 19:26:37.481293  9245 net.cpp:156] Memory required for data: 886912032
I0403 19:26:37.481312  9245 layer_factory.hpp:77] Creating layer inception_4a/output
I0403 19:26:37.481333  9245 net.cpp:91] Creating Layer inception_4a/output
I0403 19:26:37.481353  9245 net.cpp:425] inception_4a/output <- inception_4a/1x1
I0403 19:26:37.481372  9245 net.cpp:425] inception_4a/output <- inception_4a/3x3
I0403 19:26:37.481397  9245 net.cpp:425] inception_4a/output <- inception_4a/5x5
I0403 19:26:37.481416  9245 net.cpp:425] inception_4a/output <- inception_4a/pool_proj
I0403 19:26:37.481437  9245 net.cpp:399] inception_4a/output -> inception_4a/output
I0403 19:26:37.481498  9245 net.cpp:141] Setting up inception_4a/output
I0403 19:26:37.481529  9245 net.cpp:148] Top shape: 24 512 14 14 (2408448)
I0403 19:26:37.481549  9245 net.cpp:156] Memory required for data: 896545824
I0403 19:26:37.481567  9245 layer_factory.hpp:77] Creating layer inception_4a/output_inception_4a/output_0_split
I0403 19:26:37.481590  9245 net.cpp:91] Creating Layer inception_4a/output_inception_4a/output_0_split
I0403 19:26:37.481608  9245 net.cpp:425] inception_4a/output_inception_4a/output_0_split <- inception_4a/output
I0403 19:26:37.481632  9245 net.cpp:399] inception_4a/output_inception_4a/output_0_split -> inception_4a/output_inception_4a/output_0_split_0
I0403 19:26:37.481659  9245 net.cpp:399] inception_4a/output_inception_4a/output_0_split -> inception_4a/output_inception_4a/output_0_split_1
I0403 19:26:37.481684  9245 net.cpp:399] inception_4a/output_inception_4a/output_0_split -> inception_4a/output_inception_4a/output_0_split_2
I0403 19:26:37.481710  9245 net.cpp:399] inception_4a/output_inception_4a/output_0_split -> inception_4a/output_inception_4a/output_0_split_3
I0403 19:26:37.481734  9245 net.cpp:399] inception_4a/output_inception_4a/output_0_split -> inception_4a/output_inception_4a/output_0_split_4
I0403 19:26:37.481847  9245 net.cpp:141] Setting up inception_4a/output_inception_4a/output_0_split
I0403 19:26:37.481874  9245 net.cpp:148] Top shape: 24 512 14 14 (2408448)
I0403 19:26:37.481897  9245 net.cpp:148] Top shape: 24 512 14 14 (2408448)
I0403 19:26:37.481919  9245 net.cpp:148] Top shape: 24 512 14 14 (2408448)
I0403 19:26:37.481936  9245 net.cpp:148] Top shape: 24 512 14 14 (2408448)
I0403 19:26:37.481956  9245 net.cpp:148] Top shape: 24 512 14 14 (2408448)
I0403 19:26:37.481972  9245 net.cpp:156] Memory required for data: 944714784
I0403 19:26:37.481989  9245 layer_factory.hpp:77] Creating layer loss1/ave_pool
I0403 19:26:37.482012  9245 net.cpp:91] Creating Layer loss1/ave_pool
I0403 19:26:37.482030  9245 net.cpp:425] loss1/ave_pool <- inception_4a/output_inception_4a/output_0_split_0
I0403 19:26:37.482055  9245 net.cpp:399] loss1/ave_pool -> loss1/ave_pool
I0403 19:26:37.482306  9245 net.cpp:141] Setting up loss1/ave_pool
I0403 19:26:37.482337  9245 net.cpp:148] Top shape: 24 512 4 4 (196608)
I0403 19:26:37.482355  9245 net.cpp:156] Memory required for data: 945501216
I0403 19:26:37.482372  9245 layer_factory.hpp:77] Creating layer loss1/conv
I0403 19:26:37.482403  9245 net.cpp:91] Creating Layer loss1/conv
I0403 19:26:37.482425  9245 net.cpp:425] loss1/conv <- loss1/ave_pool
I0403 19:26:37.482450  9245 net.cpp:399] loss1/conv -> loss1/conv
I0403 19:26:37.484180  9245 net.cpp:141] Setting up loss1/conv
I0403 19:26:37.484215  9245 net.cpp:148] Top shape: 24 128 4 4 (49152)
I0403 19:26:37.484235  9245 net.cpp:156] Memory required for data: 945697824
I0403 19:26:37.484275  9245 layer_factory.hpp:77] Creating layer loss1/relu_conv
I0403 19:26:37.484302  9245 net.cpp:91] Creating Layer loss1/relu_conv
I0403 19:26:37.484323  9245 net.cpp:425] loss1/relu_conv <- loss1/conv
I0403 19:26:37.484345  9245 net.cpp:386] loss1/relu_conv -> loss1/conv (in-place)
I0403 19:26:37.484688  9245 net.cpp:141] Setting up loss1/relu_conv
I0403 19:26:37.484720  9245 net.cpp:148] Top shape: 24 128 4 4 (49152)
I0403 19:26:37.484738  9245 net.cpp:156] Memory required for data: 945894432
I0403 19:26:37.484756  9245 layer_factory.hpp:77] Creating layer loss1/fc
I0403 19:26:37.484788  9245 net.cpp:91] Creating Layer loss1/fc
I0403 19:26:37.484812  9245 net.cpp:425] loss1/fc <- loss1/conv
I0403 19:26:37.484838  9245 net.cpp:399] loss1/fc -> loss1/fc
I0403 19:26:37.506853  9245 net.cpp:141] Setting up loss1/fc
I0403 19:26:37.506893  9245 net.cpp:148] Top shape: 24 1024 (24576)
I0403 19:26:37.506913  9245 net.cpp:156] Memory required for data: 945992736
I0403 19:26:37.506937  9245 layer_factory.hpp:77] Creating layer loss1/relu_fc
I0403 19:26:37.506960  9245 net.cpp:91] Creating Layer loss1/relu_fc
I0403 19:26:37.506980  9245 net.cpp:425] loss1/relu_fc <- loss1/fc
I0403 19:26:37.507005  9245 net.cpp:386] loss1/relu_fc -> loss1/fc (in-place)
I0403 19:26:37.507236  9245 net.cpp:141] Setting up loss1/relu_fc
I0403 19:26:37.507269  9245 net.cpp:148] Top shape: 24 1024 (24576)
I0403 19:26:37.507289  9245 net.cpp:156] Memory required for data: 946091040
I0403 19:26:37.507307  9245 layer_factory.hpp:77] Creating layer loss1/drop_fc
I0403 19:26:37.507341  9245 net.cpp:91] Creating Layer loss1/drop_fc
I0403 19:26:37.507364  9245 net.cpp:425] loss1/drop_fc <- loss1/fc
I0403 19:26:37.507386  9245 net.cpp:386] loss1/drop_fc -> loss1/fc (in-place)
I0403 19:26:37.507452  9245 net.cpp:141] Setting up loss1/drop_fc
I0403 19:26:37.507488  9245 net.cpp:148] Top shape: 24 1024 (24576)
I0403 19:26:37.507505  9245 net.cpp:156] Memory required for data: 946189344
I0403 19:26:37.507524  9245 layer_factory.hpp:77] Creating layer loss1/classifier_plantvillage
I0403 19:26:37.507547  9245 net.cpp:91] Creating Layer loss1/classifier_plantvillage
I0403 19:26:37.507567  9245 net.cpp:425] loss1/classifier_plantvillage <- loss1/fc
I0403 19:26:37.507594  9245 net.cpp:399] loss1/classifier_plantvillage -> loss1/classifier_plantvillage
I0403 19:26:37.508693  9245 net.cpp:141] Setting up loss1/classifier_plantvillage
I0403 19:26:37.508730  9245 net.cpp:148] Top shape: 24 38 (912)
I0403 19:26:37.508749  9245 net.cpp:156] Memory required for data: 946192992
I0403 19:26:37.508772  9245 layer_factory.hpp:77] Creating layer loss1/classifier_plantvillage_loss1/classifier_plantvillage_0_split
I0403 19:26:37.508797  9245 net.cpp:91] Creating Layer loss1/classifier_plantvillage_loss1/classifier_plantvillage_0_split
I0403 19:26:37.508819  9245 net.cpp:425] loss1/classifier_plantvillage_loss1/classifier_plantvillage_0_split <- loss1/classifier_plantvillage
I0403 19:26:37.508841  9245 net.cpp:399] loss1/classifier_plantvillage_loss1/classifier_plantvillage_0_split -> loss1/classifier_plantvillage_loss1/classifier_plantvillage_0_split_0
I0403 19:26:37.508867  9245 net.cpp:399] loss1/classifier_plantvillage_loss1/classifier_plantvillage_0_split -> loss1/classifier_plantvillage_loss1/classifier_plantvillage_0_split_1
I0403 19:26:37.508893  9245 net.cpp:399] loss1/classifier_plantvillage_loss1/classifier_plantvillage_0_split -> loss1/classifier_plantvillage_loss1/classifier_plantvillage_0_split_2
I0403 19:26:37.508977  9245 net.cpp:141] Setting up loss1/classifier_plantvillage_loss1/classifier_plantvillage_0_split
I0403 19:26:37.509006  9245 net.cpp:148] Top shape: 24 38 (912)
I0403 19:26:37.509026  9245 net.cpp:148] Top shape: 24 38 (912)
I0403 19:26:37.509045  9245 net.cpp:148] Top shape: 24 38 (912)
I0403 19:26:37.509063  9245 net.cpp:156] Memory required for data: 946203936
I0403 19:26:37.509079  9245 layer_factory.hpp:77] Creating layer inception_4b/1x1
I0403 19:26:37.509106  9245 net.cpp:91] Creating Layer inception_4b/1x1
I0403 19:26:37.509147  9245 net.cpp:425] inception_4b/1x1 <- inception_4a/output_inception_4a/output_0_split_1
I0403 19:26:37.509172  9245 net.cpp:399] inception_4b/1x1 -> inception_4b/1x1
I0403 19:26:37.511179  9245 net.cpp:141] Setting up inception_4b/1x1
I0403 19:26:37.511214  9245 net.cpp:148] Top shape: 24 160 14 14 (752640)
I0403 19:26:37.511234  9245 net.cpp:156] Memory required for data: 949214496
I0403 19:26:37.511257  9245 layer_factory.hpp:77] Creating layer inception_4b/relu_1x1
I0403 19:26:37.511281  9245 net.cpp:91] Creating Layer inception_4b/relu_1x1
I0403 19:26:37.511301  9245 net.cpp:425] inception_4b/relu_1x1 <- inception_4b/1x1
I0403 19:26:37.511323  9245 net.cpp:386] inception_4b/relu_1x1 -> inception_4b/1x1 (in-place)
I0403 19:26:37.511556  9245 net.cpp:141] Setting up inception_4b/relu_1x1
I0403 19:26:37.511587  9245 net.cpp:148] Top shape: 24 160 14 14 (752640)
I0403 19:26:37.511606  9245 net.cpp:156] Memory required for data: 952225056
I0403 19:26:37.511625  9245 layer_factory.hpp:77] Creating layer inception_4b/3x3_reduce
I0403 19:26:37.511651  9245 net.cpp:91] Creating Layer inception_4b/3x3_reduce
I0403 19:26:37.511674  9245 net.cpp:425] inception_4b/3x3_reduce <- inception_4a/output_inception_4a/output_0_split_2
I0403 19:26:37.511704  9245 net.cpp:399] inception_4b/3x3_reduce -> inception_4b/3x3_reduce
I0403 19:26:37.513365  9245 net.cpp:141] Setting up inception_4b/3x3_reduce
I0403 19:26:37.513398  9245 net.cpp:148] Top shape: 24 112 14 14 (526848)
I0403 19:26:37.513428  9245 net.cpp:156] Memory required for data: 954332448
I0403 19:26:37.513452  9245 layer_factory.hpp:77] Creating layer inception_4b/relu_3x3_reduce
I0403 19:26:37.513479  9245 net.cpp:91] Creating Layer inception_4b/relu_3x3_reduce
I0403 19:26:37.513500  9245 net.cpp:425] inception_4b/relu_3x3_reduce <- inception_4b/3x3_reduce
I0403 19:26:37.513525  9245 net.cpp:386] inception_4b/relu_3x3_reduce -> inception_4b/3x3_reduce (in-place)
I0403 19:26:37.513875  9245 net.cpp:141] Setting up inception_4b/relu_3x3_reduce
I0403 19:26:37.513907  9245 net.cpp:148] Top shape: 24 112 14 14 (526848)
I0403 19:26:37.513926  9245 net.cpp:156] Memory required for data: 956439840
I0403 19:26:37.513943  9245 layer_factory.hpp:77] Creating layer inception_4b/3x3
I0403 19:26:37.513972  9245 net.cpp:91] Creating Layer inception_4b/3x3
I0403 19:26:37.513993  9245 net.cpp:425] inception_4b/3x3 <- inception_4b/3x3_reduce
I0403 19:26:37.514019  9245 net.cpp:399] inception_4b/3x3 -> inception_4b/3x3
I0403 19:26:37.517653  9245 net.cpp:141] Setting up inception_4b/3x3
I0403 19:26:37.517688  9245 net.cpp:148] Top shape: 24 224 14 14 (1053696)
I0403 19:26:37.517719  9245 net.cpp:156] Memory required for data: 960654624
I0403 19:26:37.517742  9245 layer_factory.hpp:77] Creating layer inception_4b/relu_3x3
I0403 19:26:37.517766  9245 net.cpp:91] Creating Layer inception_4b/relu_3x3
I0403 19:26:37.517787  9245 net.cpp:425] inception_4b/relu_3x3 <- inception_4b/3x3
I0403 19:26:37.517809  9245 net.cpp:386] inception_4b/relu_3x3 -> inception_4b/3x3 (in-place)
I0403 19:26:37.518034  9245 net.cpp:141] Setting up inception_4b/relu_3x3
I0403 19:26:37.518069  9245 net.cpp:148] Top shape: 24 224 14 14 (1053696)
I0403 19:26:37.518088  9245 net.cpp:156] Memory required for data: 964869408
I0403 19:26:37.518106  9245 layer_factory.hpp:77] Creating layer inception_4b/5x5_reduce
I0403 19:26:37.518136  9245 net.cpp:91] Creating Layer inception_4b/5x5_reduce
I0403 19:26:37.518157  9245 net.cpp:425] inception_4b/5x5_reduce <- inception_4a/output_inception_4a/output_0_split_3
I0403 19:26:37.518180  9245 net.cpp:399] inception_4b/5x5_reduce -> inception_4b/5x5_reduce
I0403 19:26:37.519511  9245 net.cpp:141] Setting up inception_4b/5x5_reduce
I0403 19:26:37.519548  9245 net.cpp:148] Top shape: 24 24 14 14 (112896)
I0403 19:26:37.519568  9245 net.cpp:156] Memory required for data: 965320992
I0403 19:26:37.519592  9245 layer_factory.hpp:77] Creating layer inception_4b/relu_5x5_reduce
I0403 19:26:37.519613  9245 net.cpp:91] Creating Layer inception_4b/relu_5x5_reduce
I0403 19:26:37.519656  9245 net.cpp:425] inception_4b/relu_5x5_reduce <- inception_4b/5x5_reduce
I0403 19:26:37.519681  9245 net.cpp:386] inception_4b/relu_5x5_reduce -> inception_4b/5x5_reduce (in-place)
I0403 19:26:37.519912  9245 net.cpp:141] Setting up inception_4b/relu_5x5_reduce
I0403 19:26:37.519943  9245 net.cpp:148] Top shape: 24 24 14 14 (112896)
I0403 19:26:37.519961  9245 net.cpp:156] Memory required for data: 965772576
I0403 19:26:37.519979  9245 layer_factory.hpp:77] Creating layer inception_4b/5x5
I0403 19:26:37.520007  9245 net.cpp:91] Creating Layer inception_4b/5x5
I0403 19:26:37.520030  9245 net.cpp:425] inception_4b/5x5 <- inception_4b/5x5_reduce
I0403 19:26:37.520056  9245 net.cpp:399] inception_4b/5x5 -> inception_4b/5x5
I0403 19:26:37.521564  9245 net.cpp:141] Setting up inception_4b/5x5
I0403 19:26:37.521598  9245 net.cpp:148] Top shape: 24 64 14 14 (301056)
I0403 19:26:37.521617  9245 net.cpp:156] Memory required for data: 966976800
I0403 19:26:37.521641  9245 layer_factory.hpp:77] Creating layer inception_4b/relu_5x5
I0403 19:26:37.521666  9245 net.cpp:91] Creating Layer inception_4b/relu_5x5
I0403 19:26:37.521687  9245 net.cpp:425] inception_4b/relu_5x5 <- inception_4b/5x5
I0403 19:26:37.521709  9245 net.cpp:386] inception_4b/relu_5x5 -> inception_4b/5x5 (in-place)
I0403 19:26:37.522060  9245 net.cpp:141] Setting up inception_4b/relu_5x5
I0403 19:26:37.522094  9245 net.cpp:148] Top shape: 24 64 14 14 (301056)
I0403 19:26:37.522110  9245 net.cpp:156] Memory required for data: 968181024
I0403 19:26:37.522128  9245 layer_factory.hpp:77] Creating layer inception_4b/pool
I0403 19:26:37.522157  9245 net.cpp:91] Creating Layer inception_4b/pool
I0403 19:26:37.522179  9245 net.cpp:425] inception_4b/pool <- inception_4a/output_inception_4a/output_0_split_4
I0403 19:26:37.522205  9245 net.cpp:399] inception_4b/pool -> inception_4b/pool
I0403 19:26:37.522282  9245 net.cpp:141] Setting up inception_4b/pool
I0403 19:26:37.522312  9245 net.cpp:148] Top shape: 24 512 14 14 (2408448)
I0403 19:26:37.522331  9245 net.cpp:156] Memory required for data: 977814816
I0403 19:26:37.522351  9245 layer_factory.hpp:77] Creating layer inception_4b/pool_proj
I0403 19:26:37.522377  9245 net.cpp:91] Creating Layer inception_4b/pool_proj
I0403 19:26:37.522398  9245 net.cpp:425] inception_4b/pool_proj <- inception_4b/pool
I0403 19:26:37.522423  9245 net.cpp:399] inception_4b/pool_proj -> inception_4b/pool_proj
I0403 19:26:37.523895  9245 net.cpp:141] Setting up inception_4b/pool_proj
I0403 19:26:37.523932  9245 net.cpp:148] Top shape: 24 64 14 14 (301056)
I0403 19:26:37.523952  9245 net.cpp:156] Memory required for data: 979019040
I0403 19:26:37.523975  9245 layer_factory.hpp:77] Creating layer inception_4b/relu_pool_proj
I0403 19:26:37.523998  9245 net.cpp:91] Creating Layer inception_4b/relu_pool_proj
I0403 19:26:37.524019  9245 net.cpp:425] inception_4b/relu_pool_proj <- inception_4b/pool_proj
I0403 19:26:37.524044  9245 net.cpp:386] inception_4b/relu_pool_proj -> inception_4b/pool_proj (in-place)
I0403 19:26:37.524266  9245 net.cpp:141] Setting up inception_4b/relu_pool_proj
I0403 19:26:37.524297  9245 net.cpp:148] Top shape: 24 64 14 14 (301056)
I0403 19:26:37.524315  9245 net.cpp:156] Memory required for data: 980223264
I0403 19:26:37.524333  9245 layer_factory.hpp:77] Creating layer inception_4b/output
I0403 19:26:37.524355  9245 net.cpp:91] Creating Layer inception_4b/output
I0403 19:26:37.524375  9245 net.cpp:425] inception_4b/output <- inception_4b/1x1
I0403 19:26:37.524397  9245 net.cpp:425] inception_4b/output <- inception_4b/3x3
I0403 19:26:37.524416  9245 net.cpp:425] inception_4b/output <- inception_4b/5x5
I0403 19:26:37.524435  9245 net.cpp:425] inception_4b/output <- inception_4b/pool_proj
I0403 19:26:37.524464  9245 net.cpp:399] inception_4b/output -> inception_4b/output
I0403 19:26:37.524523  9245 net.cpp:141] Setting up inception_4b/output
I0403 19:26:37.524555  9245 net.cpp:148] Top shape: 24 512 14 14 (2408448)
I0403 19:26:37.524575  9245 net.cpp:156] Memory required for data: 989857056
I0403 19:26:37.524612  9245 layer_factory.hpp:77] Creating layer inception_4b/output_inception_4b/output_0_split
I0403 19:26:37.524636  9245 net.cpp:91] Creating Layer inception_4b/output_inception_4b/output_0_split
I0403 19:26:37.524657  9245 net.cpp:425] inception_4b/output_inception_4b/output_0_split <- inception_4b/output
I0403 19:26:37.524677  9245 net.cpp:399] inception_4b/output_inception_4b/output_0_split -> inception_4b/output_inception_4b/output_0_split_0
I0403 19:26:37.524705  9245 net.cpp:399] inception_4b/output_inception_4b/output_0_split -> inception_4b/output_inception_4b/output_0_split_1
I0403 19:26:37.524731  9245 net.cpp:399] inception_4b/output_inception_4b/output_0_split -> inception_4b/output_inception_4b/output_0_split_2
I0403 19:26:37.524756  9245 net.cpp:399] inception_4b/output_inception_4b/output_0_split -> inception_4b/output_inception_4b/output_0_split_3
I0403 19:26:37.524860  9245 net.cpp:141] Setting up inception_4b/output_inception_4b/output_0_split
I0403 19:26:37.524890  9245 net.cpp:148] Top shape: 24 512 14 14 (2408448)
I0403 19:26:37.524910  9245 net.cpp:148] Top shape: 24 512 14 14 (2408448)
I0403 19:26:37.524930  9245 net.cpp:148] Top shape: 24 512 14 14 (2408448)
I0403 19:26:37.524950  9245 net.cpp:148] Top shape: 24 512 14 14 (2408448)
I0403 19:26:37.524967  9245 net.cpp:156] Memory required for data: 1028392224
I0403 19:26:37.524986  9245 layer_factory.hpp:77] Creating layer inception_4c/1x1
I0403 19:26:37.525014  9245 net.cpp:91] Creating Layer inception_4c/1x1
I0403 19:26:37.525037  9245 net.cpp:425] inception_4c/1x1 <- inception_4b/output_inception_4b/output_0_split_0
I0403 19:26:37.525059  9245 net.cpp:399] inception_4c/1x1 -> inception_4c/1x1
I0403 19:26:37.526844  9245 net.cpp:141] Setting up inception_4c/1x1
I0403 19:26:37.526878  9245 net.cpp:148] Top shape: 24 128 14 14 (602112)
I0403 19:26:37.526898  9245 net.cpp:156] Memory required for data: 1030800672
I0403 19:26:37.526921  9245 layer_factory.hpp:77] Creating layer inception_4c/relu_1x1
I0403 19:26:37.526943  9245 net.cpp:91] Creating Layer inception_4c/relu_1x1
I0403 19:26:37.526970  9245 net.cpp:425] inception_4c/relu_1x1 <- inception_4c/1x1
I0403 19:26:37.526995  9245 net.cpp:386] inception_4c/relu_1x1 -> inception_4c/1x1 (in-place)
I0403 19:26:37.527218  9245 net.cpp:141] Setting up inception_4c/relu_1x1
I0403 19:26:37.527250  9245 net.cpp:148] Top shape: 24 128 14 14 (602112)
I0403 19:26:37.527267  9245 net.cpp:156] Memory required for data: 1033209120
I0403 19:26:37.527286  9245 layer_factory.hpp:77] Creating layer inception_4c/3x3_reduce
I0403 19:26:37.527313  9245 net.cpp:91] Creating Layer inception_4c/3x3_reduce
I0403 19:26:37.527336  9245 net.cpp:425] inception_4c/3x3_reduce <- inception_4b/output_inception_4b/output_0_split_1
I0403 19:26:37.527365  9245 net.cpp:399] inception_4c/3x3_reduce -> inception_4c/3x3_reduce
I0403 19:26:37.529747  9245 net.cpp:141] Setting up inception_4c/3x3_reduce
I0403 19:26:37.529785  9245 net.cpp:148] Top shape: 24 128 14 14 (602112)
I0403 19:26:37.529808  9245 net.cpp:156] Memory required for data: 1035617568
I0403 19:26:37.529829  9245 layer_factory.hpp:77] Creating layer inception_4c/relu_3x3_reduce
I0403 19:26:37.529852  9245 net.cpp:91] Creating Layer inception_4c/relu_3x3_reduce
I0403 19:26:37.529872  9245 net.cpp:425] inception_4c/relu_3x3_reduce <- inception_4c/3x3_reduce
I0403 19:26:37.529894  9245 net.cpp:386] inception_4c/relu_3x3_reduce -> inception_4c/3x3_reduce (in-place)
I0403 19:26:37.530244  9245 net.cpp:141] Setting up inception_4c/relu_3x3_reduce
I0403 19:26:37.530280  9245 net.cpp:148] Top shape: 24 128 14 14 (602112)
I0403 19:26:37.530303  9245 net.cpp:156] Memory required for data: 1038026016
I0403 19:26:37.530321  9245 layer_factory.hpp:77] Creating layer inception_4c/3x3
I0403 19:26:37.530350  9245 net.cpp:91] Creating Layer inception_4c/3x3
I0403 19:26:37.530371  9245 net.cpp:425] inception_4c/3x3 <- inception_4c/3x3_reduce
I0403 19:26:37.530395  9245 net.cpp:399] inception_4c/3x3 -> inception_4c/3x3
I0403 19:26:37.534791  9245 net.cpp:141] Setting up inception_4c/3x3
I0403 19:26:37.534844  9245 net.cpp:148] Top shape: 24 256 14 14 (1204224)
I0403 19:26:37.534865  9245 net.cpp:156] Memory required for data: 1042842912
I0403 19:26:37.534905  9245 layer_factory.hpp:77] Creating layer inception_4c/relu_3x3
I0403 19:26:37.534931  9245 net.cpp:91] Creating Layer inception_4c/relu_3x3
I0403 19:26:37.534951  9245 net.cpp:425] inception_4c/relu_3x3 <- inception_4c/3x3
I0403 19:26:37.534976  9245 net.cpp:386] inception_4c/relu_3x3 -> inception_4c/3x3 (in-place)
I0403 19:26:37.535197  9245 net.cpp:141] Setting up inception_4c/relu_3x3
I0403 19:26:37.535230  9245 net.cpp:148] Top shape: 24 256 14 14 (1204224)
I0403 19:26:37.535249  9245 net.cpp:156] Memory required for data: 1047659808
I0403 19:26:37.535269  9245 layer_factory.hpp:77] Creating layer inception_4c/5x5_reduce
I0403 19:26:37.535296  9245 net.cpp:91] Creating Layer inception_4c/5x5_reduce
I0403 19:26:37.535320  9245 net.cpp:425] inception_4c/5x5_reduce <- inception_4b/output_inception_4b/output_0_split_2
I0403 19:26:37.535343  9245 net.cpp:399] inception_4c/5x5_reduce -> inception_4c/5x5_reduce
I0403 19:26:37.536682  9245 net.cpp:141] Setting up inception_4c/5x5_reduce
I0403 19:26:37.536720  9245 net.cpp:148] Top shape: 24 24 14 14 (112896)
I0403 19:26:37.536741  9245 net.cpp:156] Memory required for data: 1048111392
I0403 19:26:37.536764  9245 layer_factory.hpp:77] Creating layer inception_4c/relu_5x5_reduce
I0403 19:26:37.536787  9245 net.cpp:91] Creating Layer inception_4c/relu_5x5_reduce
I0403 19:26:37.536806  9245 net.cpp:425] inception_4c/relu_5x5_reduce <- inception_4c/5x5_reduce
I0403 19:26:37.536826  9245 net.cpp:386] inception_4c/relu_5x5_reduce -> inception_4c/5x5_reduce (in-place)
I0403 19:26:37.537055  9245 net.cpp:141] Setting up inception_4c/relu_5x5_reduce
I0403 19:26:37.537086  9245 net.cpp:148] Top shape: 24 24 14 14 (112896)
I0403 19:26:37.537104  9245 net.cpp:156] Memory required for data: 1048562976
I0403 19:26:37.537122  9245 layer_factory.hpp:77] Creating layer inception_4c/5x5
I0403 19:26:37.537149  9245 net.cpp:91] Creating Layer inception_4c/5x5
I0403 19:26:37.537173  9245 net.cpp:425] inception_4c/5x5 <- inception_4c/5x5_reduce
I0403 19:26:37.537197  9245 net.cpp:399] inception_4c/5x5 -> inception_4c/5x5
I0403 19:26:37.538723  9245 net.cpp:141] Setting up inception_4c/5x5
I0403 19:26:37.538758  9245 net.cpp:148] Top shape: 24 64 14 14 (301056)
I0403 19:26:37.538776  9245 net.cpp:156] Memory required for data: 1049767200
I0403 19:26:37.538799  9245 layer_factory.hpp:77] Creating layer inception_4c/relu_5x5
I0403 19:26:37.538820  9245 net.cpp:91] Creating Layer inception_4c/relu_5x5
I0403 19:26:37.538841  9245 net.cpp:425] inception_4c/relu_5x5 <- inception_4c/5x5
I0403 19:26:37.538864  9245 net.cpp:386] inception_4c/relu_5x5 -> inception_4c/5x5 (in-place)
I0403 19:26:37.539212  9245 net.cpp:141] Setting up inception_4c/relu_5x5
I0403 19:26:37.539245  9245 net.cpp:148] Top shape: 24 64 14 14 (301056)
I0403 19:26:37.539264  9245 net.cpp:156] Memory required for data: 1050971424
I0403 19:26:37.539283  9245 layer_factory.hpp:77] Creating layer inception_4c/pool
I0403 19:26:37.539304  9245 net.cpp:91] Creating Layer inception_4c/pool
I0403 19:26:37.539324  9245 net.cpp:425] inception_4c/pool <- inception_4b/output_inception_4b/output_0_split_3
I0403 19:26:37.539350  9245 net.cpp:399] inception_4c/pool -> inception_4c/pool
I0403 19:26:37.539440  9245 net.cpp:141] Setting up inception_4c/pool
I0403 19:26:37.539475  9245 net.cpp:148] Top shape: 24 512 14 14 (2408448)
I0403 19:26:37.539495  9245 net.cpp:156] Memory required for data: 1060605216
I0403 19:26:37.539513  9245 layer_factory.hpp:77] Creating layer inception_4c/pool_proj
I0403 19:26:37.539541  9245 net.cpp:91] Creating Layer inception_4c/pool_proj
I0403 19:26:37.539564  9245 net.cpp:425] inception_4c/pool_proj <- inception_4c/pool
I0403 19:26:37.539587  9245 net.cpp:399] inception_4c/pool_proj -> inception_4c/pool_proj
I0403 19:26:37.541090  9245 net.cpp:141] Setting up inception_4c/pool_proj
I0403 19:26:37.541133  9245 net.cpp:148] Top shape: 24 64 14 14 (301056)
I0403 19:26:37.541169  9245 net.cpp:156] Memory required for data: 1061809440
I0403 19:26:37.541194  9245 layer_factory.hpp:77] Creating layer inception_4c/relu_pool_proj
I0403 19:26:37.541216  9245 net.cpp:91] Creating Layer inception_4c/relu_pool_proj
I0403 19:26:37.541235  9245 net.cpp:425] inception_4c/relu_pool_proj <- inception_4c/pool_proj
I0403 19:26:37.541259  9245 net.cpp:386] inception_4c/relu_pool_proj -> inception_4c/pool_proj (in-place)
I0403 19:26:37.541492  9245 net.cpp:141] Setting up inception_4c/relu_pool_proj
I0403 19:26:37.541523  9245 net.cpp:148] Top shape: 24 64 14 14 (301056)
I0403 19:26:37.541541  9245 net.cpp:156] Memory required for data: 1063013664
I0403 19:26:37.541560  9245 layer_factory.hpp:77] Creating layer inception_4c/output
I0403 19:26:37.541581  9245 net.cpp:91] Creating Layer inception_4c/output
I0403 19:26:37.541600  9245 net.cpp:425] inception_4c/output <- inception_4c/1x1
I0403 19:26:37.541620  9245 net.cpp:425] inception_4c/output <- inception_4c/3x3
I0403 19:26:37.541640  9245 net.cpp:425] inception_4c/output <- inception_4c/5x5
I0403 19:26:37.541661  9245 net.cpp:425] inception_4c/output <- inception_4c/pool_proj
I0403 19:26:37.541682  9245 net.cpp:399] inception_4c/output -> inception_4c/output
I0403 19:26:37.541738  9245 net.cpp:141] Setting up inception_4c/output
I0403 19:26:37.541769  9245 net.cpp:148] Top shape: 24 512 14 14 (2408448)
I0403 19:26:37.541788  9245 net.cpp:156] Memory required for data: 1072647456
I0403 19:26:37.541806  9245 layer_factory.hpp:77] Creating layer inception_4c/output_inception_4c/output_0_split
I0403 19:26:37.541827  9245 net.cpp:91] Creating Layer inception_4c/output_inception_4c/output_0_split
I0403 19:26:37.541846  9245 net.cpp:425] inception_4c/output_inception_4c/output_0_split <- inception_4c/output
I0403 19:26:37.541867  9245 net.cpp:399] inception_4c/output_inception_4c/output_0_split -> inception_4c/output_inception_4c/output_0_split_0
I0403 19:26:37.541893  9245 net.cpp:399] inception_4c/output_inception_4c/output_0_split -> inception_4c/output_inception_4c/output_0_split_1
I0403 19:26:37.541919  9245 net.cpp:399] inception_4c/output_inception_4c/output_0_split -> inception_4c/output_inception_4c/output_0_split_2
I0403 19:26:37.541944  9245 net.cpp:399] inception_4c/output_inception_4c/output_0_split -> inception_4c/output_inception_4c/output_0_split_3
I0403 19:26:37.542050  9245 net.cpp:141] Setting up inception_4c/output_inception_4c/output_0_split
I0403 19:26:37.542079  9245 net.cpp:148] Top shape: 24 512 14 14 (2408448)
I0403 19:26:37.542099  9245 net.cpp:148] Top shape: 24 512 14 14 (2408448)
I0403 19:26:37.542119  9245 net.cpp:148] Top shape: 24 512 14 14 (2408448)
I0403 19:26:37.542137  9245 net.cpp:148] Top shape: 24 512 14 14 (2408448)
I0403 19:26:37.542153  9245 net.cpp:156] Memory required for data: 1111182624
I0403 19:26:37.542171  9245 layer_factory.hpp:77] Creating layer inception_4d/1x1
I0403 19:26:37.542198  9245 net.cpp:91] Creating Layer inception_4d/1x1
I0403 19:26:37.542219  9245 net.cpp:425] inception_4d/1x1 <- inception_4c/output_inception_4c/output_0_split_0
I0403 19:26:37.542245  9245 net.cpp:399] inception_4d/1x1 -> inception_4d/1x1
I0403 19:26:37.543961  9245 net.cpp:141] Setting up inception_4d/1x1
I0403 19:26:37.543995  9245 net.cpp:148] Top shape: 24 112 14 14 (526848)
I0403 19:26:37.544014  9245 net.cpp:156] Memory required for data: 1113290016
I0403 19:26:37.544037  9245 layer_factory.hpp:77] Creating layer inception_4d/relu_1x1
I0403 19:26:37.544061  9245 net.cpp:91] Creating Layer inception_4d/relu_1x1
I0403 19:26:37.544083  9245 net.cpp:425] inception_4d/relu_1x1 <- inception_4d/1x1
I0403 19:26:37.544105  9245 net.cpp:386] inception_4d/relu_1x1 -> inception_4d/1x1 (in-place)
I0403 19:26:37.544330  9245 net.cpp:141] Setting up inception_4d/relu_1x1
I0403 19:26:37.544363  9245 net.cpp:148] Top shape: 24 112 14 14 (526848)
I0403 19:26:37.544383  9245 net.cpp:156] Memory required for data: 1115397408
I0403 19:26:37.544401  9245 layer_factory.hpp:77] Creating layer inception_4d/3x3_reduce
I0403 19:26:37.544446  9245 net.cpp:91] Creating Layer inception_4d/3x3_reduce
I0403 19:26:37.544477  9245 net.cpp:425] inception_4d/3x3_reduce <- inception_4c/output_inception_4c/output_0_split_1
I0403 19:26:37.544502  9245 net.cpp:399] inception_4d/3x3_reduce -> inception_4d/3x3_reduce
I0403 19:26:37.546346  9245 net.cpp:141] Setting up inception_4d/3x3_reduce
I0403 19:26:37.546380  9245 net.cpp:148] Top shape: 24 144 14 14 (677376)
I0403 19:26:37.546399  9245 net.cpp:156] Memory required for data: 1118106912
I0403 19:26:37.546422  9245 layer_factory.hpp:77] Creating layer inception_4d/relu_3x3_reduce
I0403 19:26:37.546447  9245 net.cpp:91] Creating Layer inception_4d/relu_3x3_reduce
I0403 19:26:37.546476  9245 net.cpp:425] inception_4d/relu_3x3_reduce <- inception_4d/3x3_reduce
I0403 19:26:37.546499  9245 net.cpp:386] inception_4d/relu_3x3_reduce -> inception_4d/3x3_reduce (in-place)
I0403 19:26:37.546849  9245 net.cpp:141] Setting up inception_4d/relu_3x3_reduce
I0403 19:26:37.546881  9245 net.cpp:148] Top shape: 24 144 14 14 (677376)
I0403 19:26:37.546900  9245 net.cpp:156] Memory required for data: 1120816416
I0403 19:26:37.546917  9245 layer_factory.hpp:77] Creating layer inception_4d/3x3
I0403 19:26:37.546944  9245 net.cpp:91] Creating Layer inception_4d/3x3
I0403 19:26:37.546967  9245 net.cpp:425] inception_4d/3x3 <- inception_4d/3x3_reduce
I0403 19:26:37.546993  9245 net.cpp:399] inception_4d/3x3 -> inception_4d/3x3
I0403 19:26:37.552222  9245 net.cpp:141] Setting up inception_4d/3x3
I0403 19:26:37.552258  9245 net.cpp:148] Top shape: 24 288 14 14 (1354752)
I0403 19:26:37.552278  9245 net.cpp:156] Memory required for data: 1126235424
I0403 19:26:37.552301  9245 layer_factory.hpp:77] Creating layer inception_4d/relu_3x3
I0403 19:26:37.552326  9245 net.cpp:91] Creating Layer inception_4d/relu_3x3
I0403 19:26:37.552347  9245 net.cpp:425] inception_4d/relu_3x3 <- inception_4d/3x3
I0403 19:26:37.552367  9245 net.cpp:386] inception_4d/relu_3x3 -> inception_4d/3x3 (in-place)
I0403 19:26:37.552609  9245 net.cpp:141] Setting up inception_4d/relu_3x3
I0403 19:26:37.552644  9245 net.cpp:148] Top shape: 24 288 14 14 (1354752)
I0403 19:26:37.552664  9245 net.cpp:156] Memory required for data: 1131654432
I0403 19:26:37.552681  9245 layer_factory.hpp:77] Creating layer inception_4d/5x5_reduce
I0403 19:26:37.552709  9245 net.cpp:91] Creating Layer inception_4d/5x5_reduce
I0403 19:26:37.552731  9245 net.cpp:425] inception_4d/5x5_reduce <- inception_4c/output_inception_4c/output_0_split_2
I0403 19:26:37.552755  9245 net.cpp:399] inception_4d/5x5_reduce -> inception_4d/5x5_reduce
I0403 19:26:37.554149  9245 net.cpp:141] Setting up inception_4d/5x5_reduce
I0403 19:26:37.554183  9245 net.cpp:148] Top shape: 24 32 14 14 (150528)
I0403 19:26:37.554201  9245 net.cpp:156] Memory required for data: 1132256544
I0403 19:26:37.554224  9245 layer_factory.hpp:77] Creating layer inception_4d/relu_5x5_reduce
I0403 19:26:37.554250  9245 net.cpp:91] Creating Layer inception_4d/relu_5x5_reduce
I0403 19:26:37.554271  9245 net.cpp:425] inception_4d/relu_5x5_reduce <- inception_4d/5x5_reduce
I0403 19:26:37.554292  9245 net.cpp:386] inception_4d/relu_5x5_reduce -> inception_4d/5x5_reduce (in-place)
I0403 19:26:37.554533  9245 net.cpp:141] Setting up inception_4d/relu_5x5_reduce
I0403 19:26:37.554568  9245 net.cpp:148] Top shape: 24 32 14 14 (150528)
I0403 19:26:37.554589  9245 net.cpp:156] Memory required for data: 1132858656
I0403 19:26:37.554606  9245 layer_factory.hpp:77] Creating layer inception_4d/5x5
I0403 19:26:37.554633  9245 net.cpp:91] Creating Layer inception_4d/5x5
I0403 19:26:37.554654  9245 net.cpp:425] inception_4d/5x5 <- inception_4d/5x5_reduce
I0403 19:26:37.554678  9245 net.cpp:399] inception_4d/5x5 -> inception_4d/5x5
I0403 19:26:37.556490  9245 net.cpp:141] Setting up inception_4d/5x5
I0403 19:26:37.556524  9245 net.cpp:148] Top shape: 24 64 14 14 (301056)
I0403 19:26:37.556545  9245 net.cpp:156] Memory required for data: 1134062880
I0403 19:26:37.556567  9245 layer_factory.hpp:77] Creating layer inception_4d/relu_5x5
I0403 19:26:37.556609  9245 net.cpp:91] Creating Layer inception_4d/relu_5x5
I0403 19:26:37.556632  9245 net.cpp:425] inception_4d/relu_5x5 <- inception_4d/5x5
I0403 19:26:37.556655  9245 net.cpp:386] inception_4d/relu_5x5 -> inception_4d/5x5 (in-place)
I0403 19:26:37.557029  9245 net.cpp:141] Setting up inception_4d/relu_5x5
I0403 19:26:37.557061  9245 net.cpp:148] Top shape: 24 64 14 14 (301056)
I0403 19:26:37.557080  9245 net.cpp:156] Memory required for data: 1135267104
I0403 19:26:37.557098  9245 layer_factory.hpp:77] Creating layer inception_4d/pool
I0403 19:26:37.557121  9245 net.cpp:91] Creating Layer inception_4d/pool
I0403 19:26:37.557139  9245 net.cpp:425] inception_4d/pool <- inception_4c/output_inception_4c/output_0_split_3
I0403 19:26:37.557164  9245 net.cpp:399] inception_4d/pool -> inception_4d/pool
I0403 19:26:37.557247  9245 net.cpp:141] Setting up inception_4d/pool
I0403 19:26:37.557276  9245 net.cpp:148] Top shape: 24 512 14 14 (2408448)
I0403 19:26:37.557294  9245 net.cpp:156] Memory required for data: 1144900896
I0403 19:26:37.557313  9245 layer_factory.hpp:77] Creating layer inception_4d/pool_proj
I0403 19:26:37.557342  9245 net.cpp:91] Creating Layer inception_4d/pool_proj
I0403 19:26:37.557364  9245 net.cpp:425] inception_4d/pool_proj <- inception_4d/pool
I0403 19:26:37.557386  9245 net.cpp:399] inception_4d/pool_proj -> inception_4d/pool_proj
I0403 19:26:37.559542  9245 net.cpp:141] Setting up inception_4d/pool_proj
I0403 19:26:37.559578  9245 net.cpp:148] Top shape: 24 64 14 14 (301056)
I0403 19:26:37.559597  9245 net.cpp:156] Memory required for data: 1146105120
I0403 19:26:37.559620  9245 layer_factory.hpp:77] Creating layer inception_4d/relu_pool_proj
I0403 19:26:37.559646  9245 net.cpp:91] Creating Layer inception_4d/relu_pool_proj
I0403 19:26:37.559667  9245 net.cpp:425] inception_4d/relu_pool_proj <- inception_4d/pool_proj
I0403 19:26:37.559689  9245 net.cpp:386] inception_4d/relu_pool_proj -> inception_4d/pool_proj (in-place)
I0403 19:26:37.559916  9245 net.cpp:141] Setting up inception_4d/relu_pool_proj
I0403 19:26:37.559950  9245 net.cpp:148] Top shape: 24 64 14 14 (301056)
I0403 19:26:37.559969  9245 net.cpp:156] Memory required for data: 1147309344
I0403 19:26:37.559988  9245 layer_factory.hpp:77] Creating layer inception_4d/output
I0403 19:26:37.560009  9245 net.cpp:91] Creating Layer inception_4d/output
I0403 19:26:37.560029  9245 net.cpp:425] inception_4d/output <- inception_4d/1x1
I0403 19:26:37.560050  9245 net.cpp:425] inception_4d/output <- inception_4d/3x3
I0403 19:26:37.560070  9245 net.cpp:425] inception_4d/output <- inception_4d/5x5
I0403 19:26:37.560089  9245 net.cpp:425] inception_4d/output <- inception_4d/pool_proj
I0403 19:26:37.560113  9245 net.cpp:399] inception_4d/output -> inception_4d/output
I0403 19:26:37.560171  9245 net.cpp:141] Setting up inception_4d/output
I0403 19:26:37.560200  9245 net.cpp:148] Top shape: 24 528 14 14 (2483712)
I0403 19:26:37.560219  9245 net.cpp:156] Memory required for data: 1157244192
I0403 19:26:37.560236  9245 layer_factory.hpp:77] Creating layer inception_4d/output_inception_4d/output_0_split
I0403 19:26:37.560262  9245 net.cpp:91] Creating Layer inception_4d/output_inception_4d/output_0_split
I0403 19:26:37.560283  9245 net.cpp:425] inception_4d/output_inception_4d/output_0_split <- inception_4d/output
I0403 19:26:37.560305  9245 net.cpp:399] inception_4d/output_inception_4d/output_0_split -> inception_4d/output_inception_4d/output_0_split_0
I0403 19:26:37.560330  9245 net.cpp:399] inception_4d/output_inception_4d/output_0_split -> inception_4d/output_inception_4d/output_0_split_1
I0403 19:26:37.560361  9245 net.cpp:399] inception_4d/output_inception_4d/output_0_split -> inception_4d/output_inception_4d/output_0_split_2
I0403 19:26:37.560387  9245 net.cpp:399] inception_4d/output_inception_4d/output_0_split -> inception_4d/output_inception_4d/output_0_split_3
I0403 19:26:37.560412  9245 net.cpp:399] inception_4d/output_inception_4d/output_0_split -> inception_4d/output_inception_4d/output_0_split_4
I0403 19:26:37.560556  9245 net.cpp:141] Setting up inception_4d/output_inception_4d/output_0_split
I0403 19:26:37.560601  9245 net.cpp:148] Top shape: 24 528 14 14 (2483712)
I0403 19:26:37.560623  9245 net.cpp:148] Top shape: 24 528 14 14 (2483712)
I0403 19:26:37.560642  9245 net.cpp:148] Top shape: 24 528 14 14 (2483712)
I0403 19:26:37.560663  9245 net.cpp:148] Top shape: 24 528 14 14 (2483712)
I0403 19:26:37.560683  9245 net.cpp:148] Top shape: 24 528 14 14 (2483712)
I0403 19:26:37.560699  9245 net.cpp:156] Memory required for data: 1206918432
I0403 19:26:37.560719  9245 layer_factory.hpp:77] Creating layer loss2/ave_pool
I0403 19:26:37.560744  9245 net.cpp:91] Creating Layer loss2/ave_pool
I0403 19:26:37.560766  9245 net.cpp:425] loss2/ave_pool <- inception_4d/output_inception_4d/output_0_split_0
I0403 19:26:37.560789  9245 net.cpp:399] loss2/ave_pool -> loss2/ave_pool
I0403 19:26:37.561168  9245 net.cpp:141] Setting up loss2/ave_pool
I0403 19:26:37.561202  9245 net.cpp:148] Top shape: 24 528 4 4 (202752)
I0403 19:26:37.561219  9245 net.cpp:156] Memory required for data: 1207729440
I0403 19:26:37.561238  9245 layer_factory.hpp:77] Creating layer loss2/conv
I0403 19:26:37.561265  9245 net.cpp:91] Creating Layer loss2/conv
I0403 19:26:37.561287  9245 net.cpp:425] loss2/conv <- loss2/ave_pool
I0403 19:26:37.561313  9245 net.cpp:399] loss2/conv -> loss2/conv
I0403 19:26:37.563623  9245 net.cpp:141] Setting up loss2/conv
I0403 19:26:37.563662  9245 net.cpp:148] Top shape: 24 128 4 4 (49152)
I0403 19:26:37.563683  9245 net.cpp:156] Memory required for data: 1207926048
I0403 19:26:37.563705  9245 layer_factory.hpp:77] Creating layer loss2/relu_conv
I0403 19:26:37.563729  9245 net.cpp:91] Creating Layer loss2/relu_conv
I0403 19:26:37.563748  9245 net.cpp:425] loss2/relu_conv <- loss2/conv
I0403 19:26:37.563772  9245 net.cpp:386] loss2/relu_conv -> loss2/conv (in-place)
I0403 19:26:37.564116  9245 net.cpp:141] Setting up loss2/relu_conv
I0403 19:26:37.564151  9245 net.cpp:148] Top shape: 24 128 4 4 (49152)
I0403 19:26:37.564170  9245 net.cpp:156] Memory required for data: 1208122656
I0403 19:26:37.564189  9245 layer_factory.hpp:77] Creating layer loss2/fc
I0403 19:26:37.564213  9245 net.cpp:91] Creating Layer loss2/fc
I0403 19:26:37.564232  9245 net.cpp:425] loss2/fc <- loss2/conv
I0403 19:26:37.564260  9245 net.cpp:399] loss2/fc -> loss2/fc
I0403 19:26:37.586100  9245 net.cpp:141] Setting up loss2/fc
I0403 19:26:37.586140  9245 net.cpp:148] Top shape: 24 1024 (24576)
I0403 19:26:37.586164  9245 net.cpp:156] Memory required for data: 1208220960
I0403 19:26:37.586186  9245 layer_factory.hpp:77] Creating layer loss2/relu_fc
I0403 19:26:37.586212  9245 net.cpp:91] Creating Layer loss2/relu_fc
I0403 19:26:37.586235  9245 net.cpp:425] loss2/relu_fc <- loss2/fc
I0403 19:26:37.586256  9245 net.cpp:386] loss2/relu_fc -> loss2/fc (in-place)
I0403 19:26:37.586634  9245 net.cpp:141] Setting up loss2/relu_fc
I0403 19:26:37.586666  9245 net.cpp:148] Top shape: 24 1024 (24576)
I0403 19:26:37.586685  9245 net.cpp:156] Memory required for data: 1208319264
I0403 19:26:37.586704  9245 layer_factory.hpp:77] Creating layer loss2/drop_fc
I0403 19:26:37.586730  9245 net.cpp:91] Creating Layer loss2/drop_fc
I0403 19:26:37.586751  9245 net.cpp:425] loss2/drop_fc <- loss2/fc
I0403 19:26:37.586772  9245 net.cpp:386] loss2/drop_fc -> loss2/fc (in-place)
I0403 19:26:37.586836  9245 net.cpp:141] Setting up loss2/drop_fc
I0403 19:26:37.586866  9245 net.cpp:148] Top shape: 24 1024 (24576)
I0403 19:26:37.586884  9245 net.cpp:156] Memory required for data: 1208417568
I0403 19:26:37.586902  9245 layer_factory.hpp:77] Creating layer loss2/classifier_plantvillage
I0403 19:26:37.586930  9245 net.cpp:91] Creating Layer loss2/classifier_plantvillage
I0403 19:26:37.586951  9245 net.cpp:425] loss2/classifier_plantvillage <- loss2/fc
I0403 19:26:37.586973  9245 net.cpp:399] loss2/classifier_plantvillage -> loss2/classifier_plantvillage
I0403 19:26:37.587472  9245 net.cpp:141] Setting up loss2/classifier_plantvillage
I0403 19:26:37.587503  9245 net.cpp:148] Top shape: 24 38 (912)
I0403 19:26:37.587522  9245 net.cpp:156] Memory required for data: 1208421216
I0403 19:26:37.587564  9245 layer_factory.hpp:77] Creating layer loss2/classifier_plantvillage_loss2/classifier_plantvillage_0_split
I0403 19:26:37.587589  9245 net.cpp:91] Creating Layer loss2/classifier_plantvillage_loss2/classifier_plantvillage_0_split
I0403 19:26:37.587609  9245 net.cpp:425] loss2/classifier_plantvillage_loss2/classifier_plantvillage_0_split <- loss2/classifier_plantvillage
I0403 19:26:37.587635  9245 net.cpp:399] loss2/classifier_plantvillage_loss2/classifier_plantvillage_0_split -> loss2/classifier_plantvillage_loss2/classifier_plantvillage_0_split_0
I0403 19:26:37.587661  9245 net.cpp:399] loss2/classifier_plantvillage_loss2/classifier_plantvillage_0_split -> loss2/classifier_plantvillage_loss2/classifier_plantvillage_0_split_1
I0403 19:26:37.587685  9245 net.cpp:399] loss2/classifier_plantvillage_loss2/classifier_plantvillage_0_split -> loss2/classifier_plantvillage_loss2/classifier_plantvillage_0_split_2
I0403 19:26:37.587779  9245 net.cpp:141] Setting up loss2/classifier_plantvillage_loss2/classifier_plantvillage_0_split
I0403 19:26:37.587811  9245 net.cpp:148] Top shape: 24 38 (912)
I0403 19:26:37.587832  9245 net.cpp:148] Top shape: 24 38 (912)
I0403 19:26:37.587852  9245 net.cpp:148] Top shape: 24 38 (912)
I0403 19:26:37.587868  9245 net.cpp:156] Memory required for data: 1208432160
I0403 19:26:37.587887  9245 layer_factory.hpp:77] Creating layer inception_4e/1x1
I0403 19:26:37.587910  9245 net.cpp:91] Creating Layer inception_4e/1x1
I0403 19:26:37.587931  9245 net.cpp:425] inception_4e/1x1 <- inception_4d/output_inception_4d/output_0_split_1
I0403 19:26:37.587955  9245 net.cpp:399] inception_4e/1x1 -> inception_4e/1x1
I0403 19:26:37.590207  9245 net.cpp:141] Setting up inception_4e/1x1
I0403 19:26:37.590242  9245 net.cpp:148] Top shape: 24 256 14 14 (1204224)
I0403 19:26:37.590262  9245 net.cpp:156] Memory required for data: 1213249056
I0403 19:26:37.590286  9245 layer_factory.hpp:77] Creating layer inception_4e/relu_1x1
I0403 19:26:37.590307  9245 net.cpp:91] Creating Layer inception_4e/relu_1x1
I0403 19:26:37.590327  9245 net.cpp:425] inception_4e/relu_1x1 <- inception_4e/1x1
I0403 19:26:37.590350  9245 net.cpp:386] inception_4e/relu_1x1 -> inception_4e/1x1 (in-place)
I0403 19:26:37.590721  9245 net.cpp:141] Setting up inception_4e/relu_1x1
I0403 19:26:37.590754  9245 net.cpp:148] Top shape: 24 256 14 14 (1204224)
I0403 19:26:37.590772  9245 net.cpp:156] Memory required for data: 1218065952
I0403 19:26:37.590791  9245 layer_factory.hpp:77] Creating layer inception_4e/3x3_reduce
I0403 19:26:37.590819  9245 net.cpp:91] Creating Layer inception_4e/3x3_reduce
I0403 19:26:37.590842  9245 net.cpp:425] inception_4e/3x3_reduce <- inception_4d/output_inception_4d/output_0_split_2
I0403 19:26:37.590867  9245 net.cpp:399] inception_4e/3x3_reduce -> inception_4e/3x3_reduce
I0403 19:26:37.593447  9245 net.cpp:141] Setting up inception_4e/3x3_reduce
I0403 19:26:37.593494  9245 net.cpp:148] Top shape: 24 160 14 14 (752640)
I0403 19:26:37.593515  9245 net.cpp:156] Memory required for data: 1221076512
I0403 19:26:37.593539  9245 layer_factory.hpp:77] Creating layer inception_4e/relu_3x3_reduce
I0403 19:26:37.593561  9245 net.cpp:91] Creating Layer inception_4e/relu_3x3_reduce
I0403 19:26:37.593581  9245 net.cpp:425] inception_4e/relu_3x3_reduce <- inception_4e/3x3_reduce
I0403 19:26:37.593605  9245 net.cpp:386] inception_4e/relu_3x3_reduce -> inception_4e/3x3_reduce (in-place)
I0403 19:26:37.593842  9245 net.cpp:141] Setting up inception_4e/relu_3x3_reduce
I0403 19:26:37.593873  9245 net.cpp:148] Top shape: 24 160 14 14 (752640)
I0403 19:26:37.593890  9245 net.cpp:156] Memory required for data: 1224087072
I0403 19:26:37.593909  9245 layer_factory.hpp:77] Creating layer inception_4e/3x3
I0403 19:26:37.593936  9245 net.cpp:91] Creating Layer inception_4e/3x3
I0403 19:26:37.593958  9245 net.cpp:425] inception_4e/3x3 <- inception_4e/3x3_reduce
I0403 19:26:37.593984  9245 net.cpp:399] inception_4e/3x3 -> inception_4e/3x3
I0403 19:26:37.600162  9245 net.cpp:141] Setting up inception_4e/3x3
I0403 19:26:37.600213  9245 net.cpp:148] Top shape: 24 320 14 14 (1505280)
I0403 19:26:37.600234  9245 net.cpp:156] Memory required for data: 1230108192
I0403 19:26:37.600257  9245 layer_factory.hpp:77] Creating layer inception_4e/relu_3x3
I0403 19:26:37.600282  9245 net.cpp:91] Creating Layer inception_4e/relu_3x3
I0403 19:26:37.600303  9245 net.cpp:425] inception_4e/relu_3x3 <- inception_4e/3x3
I0403 19:26:37.600325  9245 net.cpp:386] inception_4e/relu_3x3 -> inception_4e/3x3 (in-place)
I0403 19:26:37.600697  9245 net.cpp:141] Setting up inception_4e/relu_3x3
I0403 19:26:37.600731  9245 net.cpp:148] Top shape: 24 320 14 14 (1505280)
I0403 19:26:37.600750  9245 net.cpp:156] Memory required for data: 1236129312
I0403 19:26:37.600769  9245 layer_factory.hpp:77] Creating layer inception_4e/5x5_reduce
I0403 19:26:37.600800  9245 net.cpp:91] Creating Layer inception_4e/5x5_reduce
I0403 19:26:37.600823  9245 net.cpp:425] inception_4e/5x5_reduce <- inception_4d/output_inception_4d/output_0_split_3
I0403 19:26:37.600852  9245 net.cpp:399] inception_4e/5x5_reduce -> inception_4e/5x5_reduce
I0403 19:26:37.602171  9245 net.cpp:141] Setting up inception_4e/5x5_reduce
I0403 19:26:37.602207  9245 net.cpp:148] Top shape: 24 32 14 14 (150528)
I0403 19:26:37.602227  9245 net.cpp:156] Memory required for data: 1236731424
I0403 19:26:37.602251  9245 layer_factory.hpp:77] Creating layer inception_4e/relu_5x5_reduce
I0403 19:26:37.602273  9245 net.cpp:91] Creating Layer inception_4e/relu_5x5_reduce
I0403 19:26:37.602293  9245 net.cpp:425] inception_4e/relu_5x5_reduce <- inception_4e/5x5_reduce
I0403 19:26:37.602319  9245 net.cpp:386] inception_4e/relu_5x5_reduce -> inception_4e/5x5_reduce (in-place)
I0403 19:26:37.602694  9245 net.cpp:141] Setting up inception_4e/relu_5x5_reduce
I0403 19:26:37.602727  9245 net.cpp:148] Top shape: 24 32 14 14 (150528)
I0403 19:26:37.602746  9245 net.cpp:156] Memory required for data: 1237333536
I0403 19:26:37.602766  9245 layer_factory.hpp:77] Creating layer inception_4e/5x5
I0403 19:26:37.602809  9245 net.cpp:91] Creating Layer inception_4e/5x5
I0403 19:26:37.602833  9245 net.cpp:425] inception_4e/5x5 <- inception_4e/5x5_reduce
I0403 19:26:37.602857  9245 net.cpp:399] inception_4e/5x5 -> inception_4e/5x5
I0403 19:26:37.605126  9245 net.cpp:141] Setting up inception_4e/5x5
I0403 19:26:37.605164  9245 net.cpp:148] Top shape: 24 128 14 14 (602112)
I0403 19:26:37.605185  9245 net.cpp:156] Memory required for data: 1239741984
I0403 19:26:37.605208  9245 layer_factory.hpp:77] Creating layer inception_4e/relu_5x5
I0403 19:26:37.605231  9245 net.cpp:91] Creating Layer inception_4e/relu_5x5
I0403 19:26:37.605250  9245 net.cpp:425] inception_4e/relu_5x5 <- inception_4e/5x5
I0403 19:26:37.605270  9245 net.cpp:386] inception_4e/relu_5x5 -> inception_4e/5x5 (in-place)
I0403 19:26:37.605525  9245 net.cpp:141] Setting up inception_4e/relu_5x5
I0403 19:26:37.605556  9245 net.cpp:148] Top shape: 24 128 14 14 (602112)
I0403 19:26:37.605574  9245 net.cpp:156] Memory required for data: 1242150432
I0403 19:26:37.605592  9245 layer_factory.hpp:77] Creating layer inception_4e/pool
I0403 19:26:37.605617  9245 net.cpp:91] Creating Layer inception_4e/pool
I0403 19:26:37.605635  9245 net.cpp:425] inception_4e/pool <- inception_4d/output_inception_4d/output_0_split_4
I0403 19:26:37.605662  9245 net.cpp:399] inception_4e/pool -> inception_4e/pool
I0403 19:26:37.605747  9245 net.cpp:141] Setting up inception_4e/pool
I0403 19:26:37.605780  9245 net.cpp:148] Top shape: 24 528 14 14 (2483712)
I0403 19:26:37.605800  9245 net.cpp:156] Memory required for data: 1252085280
I0403 19:26:37.605818  9245 layer_factory.hpp:77] Creating layer inception_4e/pool_proj
I0403 19:26:37.605845  9245 net.cpp:91] Creating Layer inception_4e/pool_proj
I0403 19:26:37.605868  9245 net.cpp:425] inception_4e/pool_proj <- inception_4e/pool
I0403 19:26:37.605891  9245 net.cpp:399] inception_4e/pool_proj -> inception_4e/pool_proj
I0403 19:26:37.607738  9245 net.cpp:141] Setting up inception_4e/pool_proj
I0403 19:26:37.607772  9245 net.cpp:148] Top shape: 24 128 14 14 (602112)
I0403 19:26:37.607811  9245 net.cpp:156] Memory required for data: 1254493728
I0403 19:26:37.607836  9245 layer_factory.hpp:77] Creating layer inception_4e/relu_pool_proj
I0403 19:26:37.607857  9245 net.cpp:91] Creating Layer inception_4e/relu_pool_proj
I0403 19:26:37.607877  9245 net.cpp:425] inception_4e/relu_pool_proj <- inception_4e/pool_proj
I0403 19:26:37.607898  9245 net.cpp:386] inception_4e/relu_pool_proj -> inception_4e/pool_proj (in-place)
I0403 19:26:37.608258  9245 net.cpp:141] Setting up inception_4e/relu_pool_proj
I0403 19:26:37.608290  9245 net.cpp:148] Top shape: 24 128 14 14 (602112)
I0403 19:26:37.608314  9245 net.cpp:156] Memory required for data: 1256902176
I0403 19:26:37.608332  9245 layer_factory.hpp:77] Creating layer inception_4e/output
I0403 19:26:37.608355  9245 net.cpp:91] Creating Layer inception_4e/output
I0403 19:26:37.608372  9245 net.cpp:425] inception_4e/output <- inception_4e/1x1
I0403 19:26:37.608392  9245 net.cpp:425] inception_4e/output <- inception_4e/3x3
I0403 19:26:37.608412  9245 net.cpp:425] inception_4e/output <- inception_4e/5x5
I0403 19:26:37.608431  9245 net.cpp:425] inception_4e/output <- inception_4e/pool_proj
I0403 19:26:37.608451  9245 net.cpp:399] inception_4e/output -> inception_4e/output
I0403 19:26:37.608523  9245 net.cpp:141] Setting up inception_4e/output
I0403 19:26:37.608568  9245 net.cpp:148] Top shape: 24 832 14 14 (3913728)
I0403 19:26:37.608588  9245 net.cpp:156] Memory required for data: 1272557088
I0403 19:26:37.608608  9245 layer_factory.hpp:77] Creating layer pool4/3x3_s2
I0403 19:26:37.608628  9245 net.cpp:91] Creating Layer pool4/3x3_s2
I0403 19:26:37.608650  9245 net.cpp:425] pool4/3x3_s2 <- inception_4e/output
I0403 19:26:37.608674  9245 net.cpp:399] pool4/3x3_s2 -> pool4/3x3_s2
I0403 19:26:37.608759  9245 net.cpp:141] Setting up pool4/3x3_s2
I0403 19:26:37.608789  9245 net.cpp:148] Top shape: 24 832 7 7 (978432)
I0403 19:26:37.608808  9245 net.cpp:156] Memory required for data: 1276470816
I0403 19:26:37.608826  9245 layer_factory.hpp:77] Creating layer pool4/3x3_s2_pool4/3x3_s2_0_split
I0403 19:26:37.608847  9245 net.cpp:91] Creating Layer pool4/3x3_s2_pool4/3x3_s2_0_split
I0403 19:26:37.608866  9245 net.cpp:425] pool4/3x3_s2_pool4/3x3_s2_0_split <- pool4/3x3_s2
I0403 19:26:37.608891  9245 net.cpp:399] pool4/3x3_s2_pool4/3x3_s2_0_split -> pool4/3x3_s2_pool4/3x3_s2_0_split_0
I0403 19:26:37.608917  9245 net.cpp:399] pool4/3x3_s2_pool4/3x3_s2_0_split -> pool4/3x3_s2_pool4/3x3_s2_0_split_1
I0403 19:26:37.608944  9245 net.cpp:399] pool4/3x3_s2_pool4/3x3_s2_0_split -> pool4/3x3_s2_pool4/3x3_s2_0_split_2
I0403 19:26:37.608968  9245 net.cpp:399] pool4/3x3_s2_pool4/3x3_s2_0_split -> pool4/3x3_s2_pool4/3x3_s2_0_split_3
I0403 19:26:37.609078  9245 net.cpp:141] Setting up pool4/3x3_s2_pool4/3x3_s2_0_split
I0403 19:26:37.609107  9245 net.cpp:148] Top shape: 24 832 7 7 (978432)
I0403 19:26:37.609127  9245 net.cpp:148] Top shape: 24 832 7 7 (978432)
I0403 19:26:37.609146  9245 net.cpp:148] Top shape: 24 832 7 7 (978432)
I0403 19:26:37.609166  9245 net.cpp:148] Top shape: 24 832 7 7 (978432)
I0403 19:26:37.609184  9245 net.cpp:156] Memory required for data: 1292125728
I0403 19:26:37.609201  9245 layer_factory.hpp:77] Creating layer inception_5a/1x1
I0403 19:26:37.609230  9245 net.cpp:91] Creating Layer inception_5a/1x1
I0403 19:26:37.609251  9245 net.cpp:425] inception_5a/1x1 <- pool4/3x3_s2_pool4/3x3_s2_0_split_0
I0403 19:26:37.609274  9245 net.cpp:399] inception_5a/1x1 -> inception_5a/1x1
I0403 19:26:37.612773  9245 net.cpp:141] Setting up inception_5a/1x1
I0403 19:26:37.612812  9245 net.cpp:148] Top shape: 24 256 7 7 (301056)
I0403 19:26:37.612833  9245 net.cpp:156] Memory required for data: 1293329952
I0403 19:26:37.612856  9245 layer_factory.hpp:77] Creating layer inception_5a/relu_1x1
I0403 19:26:37.612879  9245 net.cpp:91] Creating Layer inception_5a/relu_1x1
I0403 19:26:37.612900  9245 net.cpp:425] inception_5a/relu_1x1 <- inception_5a/1x1
I0403 19:26:37.612925  9245 net.cpp:386] inception_5a/relu_1x1 -> inception_5a/1x1 (in-place)
I0403 19:26:37.613301  9245 net.cpp:141] Setting up inception_5a/relu_1x1
I0403 19:26:37.613337  9245 net.cpp:148] Top shape: 24 256 7 7 (301056)
I0403 19:26:37.613359  9245 net.cpp:156] Memory required for data: 1294534176
I0403 19:26:37.613379  9245 layer_factory.hpp:77] Creating layer inception_5a/3x3_reduce
I0403 19:26:37.613406  9245 net.cpp:91] Creating Layer inception_5a/3x3_reduce
I0403 19:26:37.613430  9245 net.cpp:425] inception_5a/3x3_reduce <- pool4/3x3_s2_pool4/3x3_s2_0_split_1
I0403 19:26:37.613452  9245 net.cpp:399] inception_5a/3x3_reduce -> inception_5a/3x3_reduce
I0403 19:26:37.616456  9245 net.cpp:141] Setting up inception_5a/3x3_reduce
I0403 19:26:37.616500  9245 net.cpp:148] Top shape: 24 160 7 7 (188160)
I0403 19:26:37.616519  9245 net.cpp:156] Memory required for data: 1295286816
I0403 19:26:37.616542  9245 layer_factory.hpp:77] Creating layer inception_5a/relu_3x3_reduce
I0403 19:26:37.616569  9245 net.cpp:91] Creating Layer inception_5a/relu_3x3_reduce
I0403 19:26:37.616590  9245 net.cpp:425] inception_5a/relu_3x3_reduce <- inception_5a/3x3_reduce
I0403 19:26:37.616612  9245 net.cpp:386] inception_5a/relu_3x3_reduce -> inception_5a/3x3_reduce (in-place)
I0403 19:26:37.616844  9245 net.cpp:141] Setting up inception_5a/relu_3x3_reduce
I0403 19:26:37.616878  9245 net.cpp:148] Top shape: 24 160 7 7 (188160)
I0403 19:26:37.616896  9245 net.cpp:156] Memory required for data: 1296039456
I0403 19:26:37.616914  9245 layer_factory.hpp:77] Creating layer inception_5a/3x3
I0403 19:26:37.616943  9245 net.cpp:91] Creating Layer inception_5a/3x3
I0403 19:26:37.616966  9245 net.cpp:425] inception_5a/3x3 <- inception_5a/3x3_reduce
I0403 19:26:37.616989  9245 net.cpp:399] inception_5a/3x3 -> inception_5a/3x3
I0403 19:26:37.623208  9245 net.cpp:141] Setting up inception_5a/3x3
I0403 19:26:37.623247  9245 net.cpp:148] Top shape: 24 320 7 7 (376320)
I0403 19:26:37.623270  9245 net.cpp:156] Memory required for data: 1297544736
I0403 19:26:37.623294  9245 layer_factory.hpp:77] Creating layer inception_5a/relu_3x3
I0403 19:26:37.623317  9245 net.cpp:91] Creating Layer inception_5a/relu_3x3
I0403 19:26:37.623337  9245 net.cpp:425] inception_5a/relu_3x3 <- inception_5a/3x3
I0403 19:26:37.623359  9245 net.cpp:386] inception_5a/relu_3x3 -> inception_5a/3x3 (in-place)
I0403 19:26:37.623726  9245 net.cpp:141] Setting up inception_5a/relu_3x3
I0403 19:26:37.623762  9245 net.cpp:148] Top shape: 24 320 7 7 (376320)
I0403 19:26:37.623782  9245 net.cpp:156] Memory required for data: 1299050016
I0403 19:26:37.623801  9245 layer_factory.hpp:77] Creating layer inception_5a/5x5_reduce
I0403 19:26:37.623829  9245 net.cpp:91] Creating Layer inception_5a/5x5_reduce
I0403 19:26:37.623852  9245 net.cpp:425] inception_5a/5x5_reduce <- pool4/3x3_s2_pool4/3x3_s2_0_split_2
I0403 19:26:37.623878  9245 net.cpp:399] inception_5a/5x5_reduce -> inception_5a/5x5_reduce
I0403 19:26:37.625314  9245 net.cpp:141] Setting up inception_5a/5x5_reduce
I0403 19:26:37.625352  9245 net.cpp:148] Top shape: 24 32 7 7 (37632)
I0403 19:26:37.625375  9245 net.cpp:156] Memory required for data: 1299200544
I0403 19:26:37.625397  9245 layer_factory.hpp:77] Creating layer inception_5a/relu_5x5_reduce
I0403 19:26:37.625418  9245 net.cpp:91] Creating Layer inception_5a/relu_5x5_reduce
I0403 19:26:37.625438  9245 net.cpp:425] inception_5a/relu_5x5_reduce <- inception_5a/5x5_reduce
I0403 19:26:37.625468  9245 net.cpp:386] inception_5a/relu_5x5_reduce -> inception_5a/5x5_reduce (in-place)
I0403 19:26:37.625833  9245 net.cpp:141] Setting up inception_5a/relu_5x5_reduce
I0403 19:26:37.625871  9245 net.cpp:148] Top shape: 24 32 7 7 (37632)
I0403 19:26:37.625892  9245 net.cpp:156] Memory required for data: 1299351072
I0403 19:26:37.625911  9245 layer_factory.hpp:77] Creating layer inception_5a/5x5
I0403 19:26:37.625938  9245 net.cpp:91] Creating Layer inception_5a/5x5
I0403 19:26:37.625960  9245 net.cpp:425] inception_5a/5x5 <- inception_5a/5x5_reduce
I0403 19:26:37.625987  9245 net.cpp:399] inception_5a/5x5 -> inception_5a/5x5
I0403 19:26:37.628103  9245 net.cpp:141] Setting up inception_5a/5x5
I0403 19:26:37.628154  9245 net.cpp:148] Top shape: 24 128 7 7 (150528)
I0403 19:26:37.628175  9245 net.cpp:156] Memory required for data: 1299953184
I0403 19:26:37.628198  9245 layer_factory.hpp:77] Creating layer inception_5a/relu_5x5
I0403 19:26:37.628221  9245 net.cpp:91] Creating Layer inception_5a/relu_5x5
I0403 19:26:37.628239  9245 net.cpp:425] inception_5a/relu_5x5 <- inception_5a/5x5
I0403 19:26:37.628262  9245 net.cpp:386] inception_5a/relu_5x5 -> inception_5a/5x5 (in-place)
I0403 19:26:37.628509  9245 net.cpp:141] Setting up inception_5a/relu_5x5
I0403 19:26:37.628541  9245 net.cpp:148] Top shape: 24 128 7 7 (150528)
I0403 19:26:37.628559  9245 net.cpp:156] Memory required for data: 1300555296
I0403 19:26:37.628577  9245 layer_factory.hpp:77] Creating layer inception_5a/pool
I0403 19:26:37.628600  9245 net.cpp:91] Creating Layer inception_5a/pool
I0403 19:26:37.628619  9245 net.cpp:425] inception_5a/pool <- pool4/3x3_s2_pool4/3x3_s2_0_split_3
I0403 19:26:37.628645  9245 net.cpp:399] inception_5a/pool -> inception_5a/pool
I0403 19:26:37.628731  9245 net.cpp:141] Setting up inception_5a/pool
I0403 19:26:37.628764  9245 net.cpp:148] Top shape: 24 832 7 7 (978432)
I0403 19:26:37.628796  9245 net.cpp:156] Memory required for data: 1304469024
I0403 19:26:37.628815  9245 layer_factory.hpp:77] Creating layer inception_5a/pool_proj
I0403 19:26:37.628842  9245 net.cpp:91] Creating Layer inception_5a/pool_proj
I0403 19:26:37.628865  9245 net.cpp:425] inception_5a/pool_proj <- inception_5a/pool
I0403 19:26:37.628887  9245 net.cpp:399] inception_5a/pool_proj -> inception_5a/pool_proj
I0403 19:26:37.631690  9245 net.cpp:141] Setting up inception_5a/pool_proj
I0403 19:26:37.631726  9245 net.cpp:148] Top shape: 24 128 7 7 (150528)
I0403 19:26:37.631747  9245 net.cpp:156] Memory required for data: 1305071136
I0403 19:26:37.631769  9245 layer_factory.hpp:77] Creating layer inception_5a/relu_pool_proj
I0403 19:26:37.631795  9245 net.cpp:91] Creating Layer inception_5a/relu_pool_proj
I0403 19:26:37.631819  9245 net.cpp:425] inception_5a/relu_pool_proj <- inception_5a/pool_proj
I0403 19:26:37.631839  9245 net.cpp:386] inception_5a/relu_pool_proj -> inception_5a/pool_proj (in-place)
I0403 19:26:37.632207  9245 net.cpp:141] Setting up inception_5a/relu_pool_proj
I0403 19:26:37.632239  9245 net.cpp:148] Top shape: 24 128 7 7 (150528)
I0403 19:26:37.632258  9245 net.cpp:156] Memory required for data: 1305673248
I0403 19:26:37.632277  9245 layer_factory.hpp:77] Creating layer inception_5a/output
I0403 19:26:37.632304  9245 net.cpp:91] Creating Layer inception_5a/output
I0403 19:26:37.632333  9245 net.cpp:425] inception_5a/output <- inception_5a/1x1
I0403 19:26:37.632354  9245 net.cpp:425] inception_5a/output <- inception_5a/3x3
I0403 19:26:37.632374  9245 net.cpp:425] inception_5a/output <- inception_5a/5x5
I0403 19:26:37.632392  9245 net.cpp:425] inception_5a/output <- inception_5a/pool_proj
I0403 19:26:37.632413  9245 net.cpp:399] inception_5a/output -> inception_5a/output
I0403 19:26:37.632499  9245 net.cpp:141] Setting up inception_5a/output
I0403 19:26:37.632531  9245 net.cpp:148] Top shape: 24 832 7 7 (978432)
I0403 19:26:37.632550  9245 net.cpp:156] Memory required for data: 1309586976
I0403 19:26:37.632566  9245 layer_factory.hpp:77] Creating layer inception_5a/output_inception_5a/output_0_split
I0403 19:26:37.632587  9245 net.cpp:91] Creating Layer inception_5a/output_inception_5a/output_0_split
I0403 19:26:37.632607  9245 net.cpp:425] inception_5a/output_inception_5a/output_0_split <- inception_5a/output
I0403 19:26:37.632632  9245 net.cpp:399] inception_5a/output_inception_5a/output_0_split -> inception_5a/output_inception_5a/output_0_split_0
I0403 19:26:37.632658  9245 net.cpp:399] inception_5a/output_inception_5a/output_0_split -> inception_5a/output_inception_5a/output_0_split_1
I0403 19:26:37.632684  9245 net.cpp:399] inception_5a/output_inception_5a/output_0_split -> inception_5a/output_inception_5a/output_0_split_2
I0403 19:26:37.632709  9245 net.cpp:399] inception_5a/output_inception_5a/output_0_split -> inception_5a/output_inception_5a/output_0_split_3
I0403 19:26:37.632848  9245 net.cpp:141] Setting up inception_5a/output_inception_5a/output_0_split
I0403 19:26:37.632880  9245 net.cpp:148] Top shape: 24 832 7 7 (978432)
I0403 19:26:37.632901  9245 net.cpp:148] Top shape: 24 832 7 7 (978432)
I0403 19:26:37.632920  9245 net.cpp:148] Top shape: 24 832 7 7 (978432)
I0403 19:26:37.632941  9245 net.cpp:148] Top shape: 24 832 7 7 (978432)
I0403 19:26:37.632957  9245 net.cpp:156] Memory required for data: 1325241888
I0403 19:26:37.632975  9245 layer_factory.hpp:77] Creating layer inception_5b/1x1
I0403 19:26:37.633002  9245 net.cpp:91] Creating Layer inception_5b/1x1
I0403 19:26:37.633024  9245 net.cpp:425] inception_5b/1x1 <- inception_5a/output_inception_5a/output_0_split_0
I0403 19:26:37.633050  9245 net.cpp:399] inception_5b/1x1 -> inception_5b/1x1
I0403 19:26:37.637657  9245 net.cpp:141] Setting up inception_5b/1x1
I0403 19:26:37.637694  9245 net.cpp:148] Top shape: 24 384 7 7 (451584)
I0403 19:26:37.637714  9245 net.cpp:156] Memory required for data: 1327048224
I0403 19:26:37.637737  9245 layer_factory.hpp:77] Creating layer inception_5b/relu_1x1
I0403 19:26:37.637763  9245 net.cpp:91] Creating Layer inception_5b/relu_1x1
I0403 19:26:37.637784  9245 net.cpp:425] inception_5b/relu_1x1 <- inception_5b/1x1
I0403 19:26:37.637804  9245 net.cpp:386] inception_5b/relu_1x1 -> inception_5b/1x1 (in-place)
I0403 19:26:37.638175  9245 net.cpp:141] Setting up inception_5b/relu_1x1
I0403 19:26:37.638207  9245 net.cpp:148] Top shape: 24 384 7 7 (451584)
I0403 19:26:37.638226  9245 net.cpp:156] Memory required for data: 1328854560
I0403 19:26:37.638247  9245 layer_factory.hpp:77] Creating layer inception_5b/3x3_reduce
I0403 19:26:37.638284  9245 net.cpp:91] Creating Layer inception_5b/3x3_reduce
I0403 19:26:37.638311  9245 net.cpp:425] inception_5b/3x3_reduce <- inception_5a/output_inception_5a/output_0_split_1
I0403 19:26:37.638337  9245 net.cpp:399] inception_5b/3x3_reduce -> inception_5b/3x3_reduce
I0403 19:26:37.641615  9245 net.cpp:141] Setting up inception_5b/3x3_reduce
I0403 19:26:37.641652  9245 net.cpp:148] Top shape: 24 192 7 7 (225792)
I0403 19:26:37.641672  9245 net.cpp:156] Memory required for data: 1329757728
I0403 19:26:37.641695  9245 layer_factory.hpp:77] Creating layer inception_5b/relu_3x3_reduce
I0403 19:26:37.641721  9245 net.cpp:91] Creating Layer inception_5b/relu_3x3_reduce
I0403 19:26:37.641742  9245 net.cpp:425] inception_5b/relu_3x3_reduce <- inception_5b/3x3_reduce
I0403 19:26:37.641764  9245 net.cpp:386] inception_5b/relu_3x3_reduce -> inception_5b/3x3_reduce (in-place)
I0403 19:26:37.642000  9245 net.cpp:141] Setting up inception_5b/relu_3x3_reduce
I0403 19:26:37.642035  9245 net.cpp:148] Top shape: 24 192 7 7 (225792)
I0403 19:26:37.642055  9245 net.cpp:156] Memory required for data: 1330660896
I0403 19:26:37.642074  9245 layer_factory.hpp:77] Creating layer inception_5b/3x3
I0403 19:26:37.642102  9245 net.cpp:91] Creating Layer inception_5b/3x3
I0403 19:26:37.642122  9245 net.cpp:425] inception_5b/3x3 <- inception_5b/3x3_reduce
I0403 19:26:37.642145  9245 net.cpp:399] inception_5b/3x3 -> inception_5b/3x3
I0403 19:26:37.650480  9245 net.cpp:141] Setting up inception_5b/3x3
I0403 19:26:37.650516  9245 net.cpp:148] Top shape: 24 384 7 7 (451584)
I0403 19:26:37.650534  9245 net.cpp:156] Memory required for data: 1332467232
I0403 19:26:37.650558  9245 layer_factory.hpp:77] Creating layer inception_5b/relu_3x3
I0403 19:26:37.650583  9245 net.cpp:91] Creating Layer inception_5b/relu_3x3
I0403 19:26:37.650605  9245 net.cpp:425] inception_5b/relu_3x3 <- inception_5b/3x3
I0403 19:26:37.650626  9245 net.cpp:386] inception_5b/relu_3x3 -> inception_5b/3x3 (in-place)
I0403 19:26:37.650993  9245 net.cpp:141] Setting up inception_5b/relu_3x3
I0403 19:26:37.651026  9245 net.cpp:148] Top shape: 24 384 7 7 (451584)
I0403 19:26:37.651046  9245 net.cpp:156] Memory required for data: 1334273568
I0403 19:26:37.651063  9245 layer_factory.hpp:77] Creating layer inception_5b/5x5_reduce
I0403 19:26:37.651113  9245 net.cpp:91] Creating Layer inception_5b/5x5_reduce
I0403 19:26:37.651137  9245 net.cpp:425] inception_5b/5x5_reduce <- inception_5a/output_inception_5a/output_0_split_2
I0403 19:26:37.651161  9245 net.cpp:399] inception_5b/5x5_reduce -> inception_5b/5x5_reduce
I0403 19:26:37.652747  9245 net.cpp:141] Setting up inception_5b/5x5_reduce
I0403 19:26:37.652782  9245 net.cpp:148] Top shape: 24 48 7 7 (56448)
I0403 19:26:37.652806  9245 net.cpp:156] Memory required for data: 1334499360
I0403 19:26:37.652828  9245 layer_factory.hpp:77] Creating layer inception_5b/relu_5x5_reduce
I0403 19:26:37.652861  9245 net.cpp:91] Creating Layer inception_5b/relu_5x5_reduce
I0403 19:26:37.652881  9245 net.cpp:425] inception_5b/relu_5x5_reduce <- inception_5b/5x5_reduce
I0403 19:26:37.652904  9245 net.cpp:386] inception_5b/relu_5x5_reduce -> inception_5b/5x5_reduce (in-place)
I0403 19:26:37.653362  9245 net.cpp:141] Setting up inception_5b/relu_5x5_reduce
I0403 19:26:37.653395  9245 net.cpp:148] Top shape: 24 48 7 7 (56448)
I0403 19:26:37.653414  9245 net.cpp:156] Memory required for data: 1334725152
I0403 19:26:37.653432  9245 layer_factory.hpp:77] Creating layer inception_5b/5x5
I0403 19:26:37.653465  9245 net.cpp:91] Creating Layer inception_5b/5x5
I0403 19:26:37.653489  9245 net.cpp:425] inception_5b/5x5 <- inception_5b/5x5_reduce
I0403 19:26:37.653514  9245 net.cpp:399] inception_5b/5x5 -> inception_5b/5x5
I0403 19:26:37.656050  9245 net.cpp:141] Setting up inception_5b/5x5
I0403 19:26:37.656087  9245 net.cpp:148] Top shape: 24 128 7 7 (150528)
I0403 19:26:37.656108  9245 net.cpp:156] Memory required for data: 1335327264
I0403 19:26:37.656131  9245 layer_factory.hpp:77] Creating layer inception_5b/relu_5x5
I0403 19:26:37.656154  9245 net.cpp:91] Creating Layer inception_5b/relu_5x5
I0403 19:26:37.656175  9245 net.cpp:425] inception_5b/relu_5x5 <- inception_5b/5x5
I0403 19:26:37.656200  9245 net.cpp:386] inception_5b/relu_5x5 -> inception_5b/5x5 (in-place)
I0403 19:26:37.656442  9245 net.cpp:141] Setting up inception_5b/relu_5x5
I0403 19:26:37.656481  9245 net.cpp:148] Top shape: 24 128 7 7 (150528)
I0403 19:26:37.656500  9245 net.cpp:156] Memory required for data: 1335929376
I0403 19:26:37.656519  9245 layer_factory.hpp:77] Creating layer inception_5b/pool
I0403 19:26:37.656541  9245 net.cpp:91] Creating Layer inception_5b/pool
I0403 19:26:37.656563  9245 net.cpp:425] inception_5b/pool <- inception_5a/output_inception_5a/output_0_split_3
I0403 19:26:37.656587  9245 net.cpp:399] inception_5b/pool -> inception_5b/pool
I0403 19:26:37.656677  9245 net.cpp:141] Setting up inception_5b/pool
I0403 19:26:37.656707  9245 net.cpp:148] Top shape: 24 832 7 7 (978432)
I0403 19:26:37.656724  9245 net.cpp:156] Memory required for data: 1339843104
I0403 19:26:37.656744  9245 layer_factory.hpp:77] Creating layer inception_5b/pool_proj
I0403 19:26:37.656772  9245 net.cpp:91] Creating Layer inception_5b/pool_proj
I0403 19:26:37.656795  9245 net.cpp:425] inception_5b/pool_proj <- inception_5b/pool
I0403 19:26:37.656817  9245 net.cpp:399] inception_5b/pool_proj -> inception_5b/pool_proj
I0403 19:26:37.659642  9245 net.cpp:141] Setting up inception_5b/pool_proj
I0403 19:26:37.659682  9245 net.cpp:148] Top shape: 24 128 7 7 (150528)
I0403 19:26:37.659703  9245 net.cpp:156] Memory required for data: 1340445216
I0403 19:26:37.659728  9245 layer_factory.hpp:77] Creating layer inception_5b/relu_pool_proj
I0403 19:26:37.659749  9245 net.cpp:91] Creating Layer inception_5b/relu_pool_proj
I0403 19:26:37.659770  9245 net.cpp:425] inception_5b/relu_pool_proj <- inception_5b/pool_proj
I0403 19:26:37.659791  9245 net.cpp:386] inception_5b/relu_pool_proj -> inception_5b/pool_proj (in-place)
I0403 19:26:37.660159  9245 net.cpp:141] Setting up inception_5b/relu_pool_proj
I0403 19:26:37.660195  9245 net.cpp:148] Top shape: 24 128 7 7 (150528)
I0403 19:26:37.660215  9245 net.cpp:156] Memory required for data: 1341047328
I0403 19:26:37.660233  9245 layer_factory.hpp:77] Creating layer inception_5b/output
I0403 19:26:37.660255  9245 net.cpp:91] Creating Layer inception_5b/output
I0403 19:26:37.660292  9245 net.cpp:425] inception_5b/output <- inception_5b/1x1
I0403 19:26:37.660315  9245 net.cpp:425] inception_5b/output <- inception_5b/3x3
I0403 19:26:37.660336  9245 net.cpp:425] inception_5b/output <- inception_5b/5x5
I0403 19:26:37.660356  9245 net.cpp:425] inception_5b/output <- inception_5b/pool_proj
I0403 19:26:37.660377  9245 net.cpp:399] inception_5b/output -> inception_5b/output
I0403 19:26:37.660442  9245 net.cpp:141] Setting up inception_5b/output
I0403 19:26:37.660480  9245 net.cpp:148] Top shape: 24 1024 7 7 (1204224)
I0403 19:26:37.660500  9245 net.cpp:156] Memory required for data: 1345864224
I0403 19:26:37.660517  9245 layer_factory.hpp:77] Creating layer pool5/7x7_s1
I0403 19:26:37.660542  9245 net.cpp:91] Creating Layer pool5/7x7_s1
I0403 19:26:37.660564  9245 net.cpp:425] pool5/7x7_s1 <- inception_5b/output
I0403 19:26:37.660586  9245 net.cpp:399] pool5/7x7_s1 -> pool5/7x7_s1
I0403 19:26:37.660854  9245 net.cpp:141] Setting up pool5/7x7_s1
I0403 19:26:37.660889  9245 net.cpp:148] Top shape: 24 1024 1 1 (24576)
I0403 19:26:37.660908  9245 net.cpp:156] Memory required for data: 1345962528
I0403 19:26:37.660926  9245 layer_factory.hpp:77] Creating layer pool5/drop_7x7_s1
I0403 19:26:37.660949  9245 net.cpp:91] Creating Layer pool5/drop_7x7_s1
I0403 19:26:37.660969  9245 net.cpp:425] pool5/drop_7x7_s1 <- pool5/7x7_s1
I0403 19:26:37.660990  9245 net.cpp:386] pool5/drop_7x7_s1 -> pool5/7x7_s1 (in-place)
I0403 19:26:37.661053  9245 net.cpp:141] Setting up pool5/drop_7x7_s1
I0403 19:26:37.661082  9245 net.cpp:148] Top shape: 24 1024 1 1 (24576)
I0403 19:26:37.661100  9245 net.cpp:156] Memory required for data: 1346060832
I0403 19:26:37.661119  9245 layer_factory.hpp:77] Creating layer loss3/classifier_plantvillage
I0403 19:26:37.661144  9245 net.cpp:91] Creating Layer loss3/classifier_plantvillage
I0403 19:26:37.661164  9245 net.cpp:425] loss3/classifier_plantvillage <- pool5/7x7_s1
I0403 19:26:37.661187  9245 net.cpp:399] loss3/classifier_plantvillage -> loss3/classifier_plantvillage
I0403 19:26:37.661720  9245 net.cpp:141] Setting up loss3/classifier_plantvillage
I0403 19:26:37.661751  9245 net.cpp:148] Top shape: 24 38 (912)
I0403 19:26:37.661769  9245 net.cpp:156] Memory required for data: 1346064480
I0403 19:26:37.661792  9245 layer_factory.hpp:77] Creating layer loss3/classifier_plantvillage_loss3/classifier_plantvillage_0_split
I0403 19:26:37.661813  9245 net.cpp:91] Creating Layer loss3/classifier_plantvillage_loss3/classifier_plantvillage_0_split
I0403 19:26:37.661834  9245 net.cpp:425] loss3/classifier_plantvillage_loss3/classifier_plantvillage_0_split <- loss3/classifier_plantvillage
I0403 19:26:37.661859  9245 net.cpp:399] loss3/classifier_plantvillage_loss3/classifier_plantvillage_0_split -> loss3/classifier_plantvillage_loss3/classifier_plantvillage_0_split_0
I0403 19:26:37.661886  9245 net.cpp:399] loss3/classifier_plantvillage_loss3/classifier_plantvillage_0_split -> loss3/classifier_plantvillage_loss3/classifier_plantvillage_0_split_1
I0403 19:26:37.661912  9245 net.cpp:399] loss3/classifier_plantvillage_loss3/classifier_plantvillage_0_split -> loss3/classifier_plantvillage_loss3/classifier_plantvillage_0_split_2
I0403 19:26:37.661937  9245 net.cpp:399] loss3/classifier_plantvillage_loss3/classifier_plantvillage_0_split -> loss3/classifier_plantvillage_loss3/classifier_plantvillage_0_split_3
I0403 19:26:37.662067  9245 net.cpp:141] Setting up loss3/classifier_plantvillage_loss3/classifier_plantvillage_0_split
I0403 19:26:37.662096  9245 net.cpp:148] Top shape: 24 38 (912)
I0403 19:26:37.662117  9245 net.cpp:148] Top shape: 24 38 (912)
I0403 19:26:37.662137  9245 net.cpp:148] Top shape: 24 38 (912)
I0403 19:26:37.662155  9245 net.cpp:148] Top shape: 24 38 (912)
I0403 19:26:37.662173  9245 net.cpp:156] Memory required for data: 1346079072
I0403 19:26:37.662191  9245 layer_factory.hpp:77] Creating layer loss1/loss
I0403 19:26:37.662219  9245 net.cpp:91] Creating Layer loss1/loss
I0403 19:26:37.662240  9245 net.cpp:425] loss1/loss <- loss1/classifier_plantvillage_loss1/classifier_plantvillage_0_split_0
I0403 19:26:37.662277  9245 net.cpp:425] loss1/loss <- label_data_1_split_0
…
