…
I0403 19:14:01.672698  8968 net.cpp:313] The NetState phase (1) differed from the phase (0) specified by a rule in layer data
I0403 19:14:01.673838  8968 net.cpp:49] Initializing net from parameters: 
state {
  phase: TEST
}
layer {
  name: "data"
  type: "Data"
  top: "data"
  top: "label"
  include {
    phase: TEST
  }
  transform_param {
    mirror: false
    crop_size: 224
    mean_file: "/home/mohanty/data/final_dataset/lmdb/color-60-40/mean.binaryproto"
  }
  data_param {
    source: "/home/mohanty/data/final_dataset/lmdb/color-60-40/test_db"
    batch_size: 24
    backend: LMDB
  }
}
layer {
  name: "conv1/7x7_s2"
  type: "Convolution"
  bottom: "data"
  top: "conv1/7x7_s2"
  param {
    lr_mult: 1
    decay_mult: 1
  }
  param {
    lr_mult: 2
    decay_mult: 0
  }
  convolution_param {
    num_output: 64
    pad: 3
    kernel_size: 7
    stride: 2
    weight_filler {
      type: "xavier"
      std: 0.1
    }
    bias_filler {
      type: "constant"
      value: 0.2
    }
  }
}
layer {
  name: "conv1/relu_7x7"
  type: "ReLU"
  bottom: "conv1/7x7_s2"
  top: "conv1/7x7_s2"
}
layer {
  name: "pool1/3x3_s2"
  type: "Pooling"
  bottom: "conv1/7x7_s2"
  top: "pool1/3x3_s2"
  pooling_param {
    pool: MAX
    kernel_size: 3
    stride: 2
  }
}
layer {
  name: "pool1/norm1"
  type: "LRN"
  bottom: "pool1/3x3_s2"
  top: "pool1/norm1"
  lrn_param {
    local_size: 5
    alpha: 0.0001
    beta: 0.75
  }
}
layer {
  name: "conv2/3x3_reduce"
  type: "Convolution"
  bottom: "pool1/norm1"
  top: "conv2/3x3_reduce"
  param {
    lr_mult: 1
    decay_mult: 1
  }
  param {
    lr_mult: 2
    decay_mult: 0
  }
  convolution_param {
    num_output: 64
    kernel_size: 1
    weight_filler {
      type: "xavier"
      std: 0.1
    }
    bias_filler {
      type: "constant"
      value: 0.2
    }
  }
}
layer {
  name: "conv2/relu_3x3_reduce"
  type: "ReLU"
  bottom: "conv2/3x3_reduce"
  top: "conv2/3x3_reduce"
}
layer {
  name: "conv2/3x3"
  type: "Convolution"
  bottom: "conv2/3x3_reduce"
  top: "conv2/3x3"
  param {
    lr_mult: 1
    decay_mult: 1
  }
  param {
    lr_mult: 2
    decay_mult: 0
  }
  convolution_param {
    num_output: 192
    pad: 1
    kernel_size: 3
    weight_filler {
      type: "xavier"
      std: 0.03
    }
    bias_filler {
      type: "constant"
      value: 0.2
    }
  }
}
layer {
  name: "conv2/relu_3x3"
  type: "ReLU"
  bottom: "conv2/3x3"
  top: "conv2/3x3"
}
layer {
  name: "conv2/norm2"
  type: "LRN"
  bottom: "conv2/3x3"
  top: "conv2/norm2"
  lrn_param {
    local_size: 5
    alpha: 0.0001
    beta: 0.75
  }
}
layer {
  name: "pool2/3x3_s2"
  type: "Pooling"
  bottom: "conv2/norm2"
  top: "pool2/3x3_s2"
  pooling_param {
    pool: MAX
    kernel_size: 3
    stride: 2
  }
}
layer {
  name: "inception_3a/1x1"
  type: "Convolution"
  bottom: "pool2/3x3_s2"
  top: "inception_3a/1x1"
  param {
    lr_mult: 1
    decay_mult: 1
  }
  param {
    lr_mult: 2
    decay_mult: 0
  }
  convolution_param {
    num_output: 64
    kernel_size: 1
    weight_filler {
      type: "xavier"
      std: 0.03
    }
    bias_filler {
      type: "constant"
      value: 0.2
    }
  }
}
layer {
  name: "inception_3a/relu_1x1"
  type: "ReLU"
  bottom: "inception_3a/1x1"
  top: "inception_3a/1x1"
}
layer {
  name: "inception_3a/3x3_reduce"
  type: "Convolution"
  bottom: "pool2/3x3_s2"
  top: "inception_3a/3x3_reduce"
  param {
    lr_mult: 1
    decay_mult: 1
  }
  param {
    lr_mult: 2
    decay_mult: 0
  }
  convolution_param {
    num_output: 96
    kernel_size: 1
    weight_filler {
      type: "xavier"
      std: 0.09
    }
    bias_filler {
      type: "constant"
      value: 0.2
    }
  }
}
layer {
  name: "inception_3a/relu_3x3_reduce"
  type: "ReLU"
  bottom: "inception_3a/3x3_reduce"
  top: "inception_3a/3x3_reduce"
}
layer {
  name: "inception_3a/3x3"
  type: "Convolution"
  bottom: "inception_3a/3x3_reduce"
  top: "inception_3a/3x3"
  param {
    lr_mult: 1
    decay_mult: 1
  }
  param {
    lr_mult: 2
    decay_mult: 0
  }
  convolution_param {
    num_output: 128
    pad: 1
    kernel_size: 3
    weight_filler {
      type: "xavier"
      std: 0.03
    }
    bias_filler {
      type: "constant"
      value: 0.2
    }
  }
}
layer {
  name: "inception_3a/relu_3x3"
  type: "ReLU"
  bottom: "inception_3a/3x3"
  top: "inception_3a/3x3"
}
layer {
  name: "inception_3a/5x5_reduce"
  type: "Convolution"
  bottom: "pool2/3x3_s2"
  top: "inception_3a/5x5_reduce"
  param {
    lr_mult: 1
    decay_mult: 1
  }
  param {
    lr_mult: 2
    decay_mult: 0
  }
  convolution_param {
    num_output: 16
    kernel_size: 1
    weight_filler {
      type: "xavier"
      std: 0.2
    }
    bias_filler {
      type: "constant"
      value: 0.2
    }
  }
}
layer {
  name: "inception_3a/relu_5x5_reduce"
  type: "ReLU"
  bottom: "inception_3a/5x5_reduce"
  top: "inception_3a/5x5_reduce"
}
layer {
  name: "inception_3a/5x5"
  type: "Convolution"
  bottom: "inception_3a/5x5_reduce"
  top: "inception_3a/5x5"
  param {
    lr_mult: 1
    decay_mult: 1
  }
  param {
    lr_mult: 2
    decay_mult: 0
  }
  convolution_param {
    num_output: 32
    pad: 2
    kernel_size: 5
    weight_filler {
      type: "xavier"
      std: 0.03
    }
    bias_filler {
      type: "constant"
      value: 0.2
    }
  }
}
layer {
  name: "inception_3a/relu_5x5"
  type: "ReLU"
  bottom: "inception_3a/5x5"
  top: "inception_3a/5x5"
}
layer {
  name: "inception_3a/pool"
  type: "Pooling"
  bottom: "pool2/3x3_s2"
  top: "inception_3a/pool"
  pooling_param {
    pool: MAX
    kernel_size: 3
    stride: 1
    pad: 1
  }
}
layer {
  name: "inception_3a/pool_proj"
  type: "Convolution"
  bottom: "inception_3a/pool"
  top: "inception_3a/pool_proj"
  param {
    lr_mult: 1
    decay_mult: 1
  }
  param {
    lr_mult: 2
    decay_mult: 0
  }
  convolution_param {
    num_output: 32
    kernel_size: 1
    weight_filler {
      type: "xavier"
      std: 0.1
    }
    bias_filler {
      type: "constant"
      value: 0.2
    }
  }
}
layer {
  name: "inception_3a/relu_pool_proj"
  type: "ReLU"
  bottom: "inception_3a/pool_proj"
  top: "inception_3a/pool_proj"
}
layer {
  name: "inception_3a/output"
  type: "Concat"
  bottom: "inception_3a/1x1"
  bottom: "inception_3a/3x3"
  bottom: "inception_3a/5x5"
  bottom: "inception_3a/pool_proj"
  top: "inception_3a/output"
}
layer {
  name: "inception_3b/1x1"
  type: "Convolution"
  bottom: "inception_3a/output"
  top: "inception_3b/1x1"
  param {
    lr_mult: 1
    decay_mult: 1
  }
  param {
    lr_mult: 2
    decay_mult: 0
  }
  convolution_param {
    num_output: 128
    kernel_size: 1
    weight_filler {
      type: "xavier"
      std: 0.03
    }
    bias_filler {
      type: "constant"
      value: 0.2
    }
  }
}
layer {
  name: "inception_3b/relu_1x1"
  type: "ReLU"
  bottom: "inception_3b/1x1"
  top: "inception_3b/1x1"
}
layer {
  name: "inception_3b/3x3_reduce"
  type: "Convolution"
  bottom: "inception_3a/output"
  top: "inception_3b/3x3_reduce"
  param {
    lr_mult: 1
    decay_mult: 1
  }
  param {
    lr_mult: 2
    decay_mult: 0
  }
  convolution_param {
    num_output: 128
    kernel_size: 1
    weight_filler {
      type: "xavier"
      std: 0.09
    }
    bias_filler {
      type: "constant"
      value: 0.2
    }
  }
}
layer {
  name: "inception_3b/relu_3x3_reduce"
  type: "ReLU"
  bottom: "inception_3b/3x3_reduce"
  top: "inception_3b/3x3_reduce"
}
layer {
  name: "inception_3b/3x3"
  type: "Convolution"
  bottom: "inception_3b/3x3_reduce"
  top: "inception_3b/3x3"
  param {
    lr_mult: 1
    decay_mult: 1
  }
  param {
    lr_mult: 2
    decay_mult: 0
  }
  convolution_param {
    num_output: 192
    pad: 1
    kernel_size: 3
    weight_filler {
      type: "xavier"
      std: 0.03
    }
    bias_filler {
      type: "constant"
      value: 0.2
    }
  }
}
layer {
  name: "inception_3b/relu_3x3"
  type: "ReLU"
  bottom: "inception_3b/3x3"
  top: "inception_3b/3x3"
}
layer {
  name: "inception_3b/5x5_reduce"
  type: "Convolution"
  bottom: "inception_3a/output"
  top: "inception_3b/5x5_reduce"
  param {
    lr_mult: 1
    decay_mult: 1
  }
  param {
    lr_mult: 2
    decay_mult: 0
  }
  convolution_param {
    num_output: 32
    kernel_size: 1
    weight_filler {
      type: "xavier"
      std: 0.2
    }
    bias_filler {
      type: "constant"
      value: 0.2
    }
  }
}
layer {
  name: "inception_3b/relu_5x5_reduce"
  type: "ReLU"
  bottom: "inception_3b/5x5_reduce"
  top: "inception_3b/5x5_reduce"
}
layer {
  name: "inception_3b/5x5"
  type: "Convolution"
  bottom: "inception_3b/5x5_reduce"
  top: "inception_3b/5x5"
  param {
    lr_mult: 1
    decay_mult: 1
  }
  param {
    lr_mult: 2
    decay_mult: 0
  }
  convolution_param {
    num_output: 96
    pad: 2
    kernel_size: 5
    weight_filler {
      type: "xavier"
      std: 0.03
    }
    bias_filler {
      type: "constant"
      value: 0.2
    }
  }
}
layer {
  name: "inception_3b/relu_5x5"
  type: "ReLU"
  bottom: "inception_3b/5x5"
  top: "inception_3b/5x5"
}
layer {
  name: "inception_3b/pool"
  type: "Pooling"
  bottom: "inception_3a/output"
  top: "inception_3b/pool"
  pooling_param {
    pool: MAX
    kernel_size: 3
    stride: 1
    pad: 1
  }
}
layer {
  name: "inception_3b/pool_proj"
  type: "Convolution"
  bottom: "inception_3b/pool"
  top: "inception_3b/pool_proj"
  param {
    lr_mult: 1
    decay_mult: 1
  }
  param {
    lr_mult: 2
    decay_mult: 0
  }
  convolution_param {
    num_output: 64
    kernel_size: 1
    weight_filler {
      type: "xavier"
      std: 0.1
    }
    bias_filler {
      type: "constant"
      value: 0.2
    }
  }
}
layer {
  name: "inception_3b/relu_pool_proj"
  type: "ReLU"
  bottom: "inception_3b/pool_proj"
  top: "inception_3b/pool_proj"
}
layer {
  name: "inception_3b/output"
  type: "Concat"
  bottom: "inception_3b/1x1"
  bottom: "inception_3b/3x3"
  bottom: "inception_3b/5x5"
  bottom: "inception_3b/pool_proj"
  top: "inception_3b/output"
}
layer {
  name: "pool3/3x3_s2"
  type: "Pooling"
  bottom: "inception_3b/output"
  top: "pool3/3x3_s2"
  pooling_param {
    pool: MAX
    kernel_size: 3
    stride: 2
  }
}
layer {
  name: "inception_4a/1x1"
  type: "Convolution"
  bottom: "pool3/3x3_s2"
  top: "inception_4a/1x1"
  param {
    lr_mult: 1
    decay_mult: 1
  }
  param {
    lr_mult: 2
    decay_mult: 0
  }
  convolution_param {
    num_output: 192
    kernel_size: 1
    weight_filler {
      type: "xavier"
      std: 0.03
    }
    bias_filler {
      type: "constant"
      value: 0.2
    }
  }
}
layer {
  name: "inception_4a/relu_1x1"
  type: "ReLU"
  bottom: "inception_4a/1x1"
  top: "inception_4a/1x1"
}
layer {
  name: "inception_4a/3x3_reduce"
  type: "Convolution"
  bottom: "pool3/3x3_s2"
  top: "inception_4a/3x3_reduce"
  param {
    lr_mult: 1
    decay_mult: 1
  }
  param {
    lr_mult: 2
    decay_mult: 0
  }
  convolution_param {
    num_output: 96
    kernel_size: 1
    weight_filler {
      type: "xavier"
      std: 0.09
    }
    bias_filler {
      type: "constant"
      value: 0.2
    }
  }
}
layer {
  name: "inception_4a/relu_3x3_reduce"
  type: "ReLU"
  bottom: "inception_4a/3x3_reduce"
  top: "inception_4a/3x3_reduce"
}
layer {
  name: "inception_4a/3x3"
  type: "Convolution"
  bottom: "inception_4a/3x3_reduce"
  top: "inception_4a/3x3"
  param {
    lr_mult: 1
    decay_mult: 1
  }
  param {
    lr_mult: 2
    decay_mult: 0
  }
  convolution_param {
    num_output: 208
    pad: 1
    kernel_size: 3
    weight_filler {
      type: "xavier"
      std: 0.03
    }
    bias_filler {
      type: "constant"
      value: 0.2
    }
  }
}
layer {
  name: "inception_4a/relu_3x3"
  type: "ReLU"
  bottom: "inception_4a/3x3"
  top: "inception_4a/3x3"
}
layer {
  name: "inception_4a/5x5_reduce"
  type: "Convolution"
  bottom: "pool3/3x3_s2"
  top: "inception_4a/5x5_reduce"
  param {
    lr_mult: 1
    decay_mult: 1
  }
  param {
    lr_mult: 2
    decay_mult: 0
  }
  convolution_param {
    num_output: 16
    kernel_size: 1
    weight_filler {
      type: "xavier"
      std: 0.2
    }
    bias_filler {
      type: "constant"
      value: 0.2
    }
  }
}
layer {
  name: "inception_4a/relu_5x5_reduce"
  type: "ReLU"
  bottom: "inception_4a/5x5_reduce"
  top: "inception_4a/5x5_reduce"
}
layer {
  name: "inception_4a/5x5"
  type: "Convolution"
  bottom: "inception_4a/5x5_reduce"
  top: "inception_4a/5x5"
  param {
    lr_mult: 1
    decay_mult: 1
  }
  param {
    lr_mult: 2
    decay_mult: 0
  }
  convolution_param {
    num_output: 48
    pad: 2
    kernel_size: 5
    weight_filler {
      type: "xavier"
      std: 0.03
    }
    bias_filler {
      type: "constant"
      value: 0.2
    }
  }
}
layer {
  name: "inception_4a/relu_5x5"
  type: "ReLU"
  bottom: "inception_4a/5x5"
  top: "inception_4a/5x5"
}
layer {
  name: "inception_4a/pool"
  type: "Pooling"
  bottom: "pool3/3x3_s2"
  top: "inception_4a/pool"
  pooling_param {
    pool: MAX
    kernel_size: 3
    stride: 1
    pad: 1
  }
}
layer {
  name: "inception_4a/pool_proj"
  type: "Convolution"
  bottom: "inception_4a/pool"
  top: "inception_4a/pool_proj"
  param {
    lr_mult: 1
    decay_mult: 1
  }
  param {
    lr_mult: 2
    decay_mult: 0
  }
  convolution_param {
    num_output: 64
    kernel_size: 1
    weight_filler {
      type: "xavier"
      std: 0.1
    }
    bias_filler {
      type: "constant"
      value: 0.2
    }
  }
}
layer {
  name: "inception_4a/relu_pool_proj"
  type: "ReLU"
  bottom: "inception_4a/pool_proj"
  top: "inception_4a/pool_proj"
}
layer {
  name: "inception_4a/output"
  type: "Concat"
  bottom: "inception_4a/1x1"
  bottom: "inception_4a/3x3"
  bottom: "inception_4a/5x5"
  bottom: "inception_4a/pool_proj"
  top: "inception_4a/output"
}
layer {
  name: "loss1/ave_pool"
  type: "Pooling"
  bottom: "inception_4a/output"
  top: "loss1/ave_pool"
  pooling_param {
    pool: AVE
    kernel_size: 5
    stride: 3
  }
}
layer {
  name: "loss1/conv"
  type: "Convolution"
  bottom: "loss1/ave_pool"
  top: "loss1/conv"
  param {
    lr_mult: 1
    decay_mult: 1
  }
  param {
    lr_mult: 2
    decay_mult: 0
  }
  convolution_param {
    num_output: 128
    kernel_size: 1
    weight_filler {
      type: "xavier"
      std: 0.08
    }
    bias_filler {
      type: "constant"
      value: 0.2
    }
  }
}
layer {
  name: "loss1/relu_conv"
  type: "ReLU"
  bottom: "loss1/conv"
  top: "loss1/conv"
}
layer {
  name: "loss1/fc"
  type: "InnerProduct"
  bottom: "loss1/conv"
  top: "loss1/fc"
  param {
    lr_mult: 1
    decay_mult: 1
  }
  param {
    lr_mult: 2
    decay_mult: 0
  }
  inner_product_param {
    num_output: 1024
    weight_filler {
      type: "xavier"
      std: 0.02
    }
    bias_filler {
      type: "constant"
      value: 0.2
    }
  }
}
layer {
  name: "loss1/relu_fc"
  type: "ReLU"
  bottom: "loss1/fc"
  top: "loss1/fc"
}
layer {
  name: "loss1/drop_fc"
  type: "Dropout"
  bottom: "loss1/fc"
  top: "loss1/fc"
  dropout_param {
    dropout_ratio: 0.7
  }
}
layer {
  name: "loss1/classifier_plantvillage"
  type: "InnerProduct"
  bottom: "loss1/fc"
  top: "loss1/classifier_plantvillage"
  param {
    lr_mult: 1
    decay_mult: 1
  }
  param {
    lr_mult: 2
    decay_mult: 0
  }
  inner_product_param {
    num_output: 38
    weight_filler {
      type: "xavier"
      std: 0.0009765625
    }
    bias_filler {
      type: "constant"
      value: 0
    }
  }
}
layer {
  name: "inception_4b/1x1"
  type: "Convolution"
  bottom: "inception_4a/output"
  top: "inception_4b/1x1"
  param {
    lr_mult: 1
    decay_mult: 1
  }
  param {
    lr_mult: 2
    decay_mult: 0
  }
  convolution_param {
    num_output: 160
    kernel_size: 1
    weight_filler {
      type: "xavier"
      std: 0.03
    }
    bias_filler {
      type: "constant"
      value: 0.2
    }
  }
}
layer {
  name: "inception_4b/relu_1x1"
  type: "ReLU"
  bottom: "inception_4b/1x1"
  top: "inception_4b/1x1"
}
layer {
  name: "inception_4b/3x3_reduce"
  type: "Convolution"
  bottom: "inception_4a/output"
  top: "inception_4b/3x3_reduce"
  param {
    lr_mult: 1
    decay_mult: 1
  }
  param {
    lr_mult: 2
    decay_mult: 0
  }
  convolution_param {
    num_output: 112
    kernel_size: 1
    weight_filler {
      type: "xavier"
      std: 0.09
    }
    bias_filler {
      type: "constant"
      value: 0.2
    }
  }
}
layer {
  name: "inception_4b/relu_3x3_reduce"
  type: "ReLU"
  bottom: "inception_4b/3x3_reduce"
  top: "inception_4b/3x3_reduce"
}
layer {
  name: "inception_4b/3x3"
  type: "Convolution"
  bottom: "inception_4b/3x3_reduce"
  top: "inception_4b/3x3"
  param {
    lr_mult: 1
    decay_mult: 1
  }
  param {
    lr_mult: 2
    decay_mult: 0
  }
  convolution_param {
    num_output: 224
    pad: 1
    kernel_size: 3
    weight_filler {
      type: "xavier"
      std: 0.03
    }
    bias_filler {
      type: "constant"
      value: 0.2
    }
  }
}
layer {
  name: "inception_4b/relu_3x3"
  type: "ReLU"
  bottom: "inception_4b/3x3"
  top: "inception_4b/3x3"
}
layer {
  name: "inception_4b/5x5_reduce"
  type: "Convolution"
  bottom: "inception_4a/output"
  top: "inception_4b/5x5_reduce"
  param {
    lr_mult: 1
    decay_mult: 1
  }
  param {
    lr_mult: 2
    decay_mult: 0
  }
  convolution_param {
    num_output: 24
    kernel_size: 1
    weight_filler {
      type: "xavier"
      std: 0.2
    }
    bias_filler {
      type: "constant"
      value: 0.2
    }
  }
}
layer {
  name: "inception_4b/relu_5x5_reduce"
  type: "ReLU"
  bottom: "inception_4b/5x5_reduce"
  top: "inception_4b/5x5_reduce"
}
layer {
  name: "inception_4b/5x5"
  type: "Convolution"
  bottom: "inception_4b/5x5_reduce"
  top: "inception_4b/5x5"
  param {
    lr_mult: 1
    decay_mult: 1
  }
  param {
    lr_mult: 2
    decay_mult: 0
  }
  convolution_param {
    num_output: 64
    pad: 2
    kernel_size: 5
    weight_filler {
      type: "xavier"
      std: 0.03
    }
    bias_filler {
      type: "constant"
      value: 0.2
    }
  }
}
layer {
  name: "inception_4b/relu_5x5"
  type: "ReLU"
  bottom: "inception_4b/5x5"
  top: "inception_4b/5x5"
}
layer {
  name: "inception_4b/pool"
  type: "Pooling"
  bottom: "inception_4a/output"
  top: "inception_4b/pool"
  pooling_param {
    pool: MAX
    kernel_size: 3
    stride: 1
    pad: 1
  }
}
layer {
  name: "inception_4b/pool_proj"
  type: "Convolution"
  bottom: "inception_4b/pool"
  top: "inception_4b/pool_proj"
  param {
    lr_mult: 1
    decay_mult: 1
  }
  param {
    lr_mult: 2
    decay_mult: 0
  }
  convolution_param {
    num_output: 64
    kernel_size: 1
    weight_filler {
      type: "xavier"
      std: 0.1
    }
    bias_filler {
      type: "constant"
      value: 0.2
    }
  }
}
layer {
  name: "inception_4b/relu_pool_proj"
  type: "ReLU"
  bottom: "inception_4b/pool_proj"
  top: "inception_4b/pool_proj"
}
layer {
  name: "inception_4b/output"
  type: "Concat"
  bottom: "inception_4b/1x1"
  bottom: "inception_4b/3x3"
  bottom: "inception_4b/5x5"
  bottom: "inception_4b/pool_proj"
  top: "inception_4b/output"
}
layer {
  name: "inception_4c/1x1"
  type: "Convolution"
  bottom: "inception_4b/output"
  top: "inception_4c/1x1"
  param {
    lr_mult: 1
    decay_mult: 1
  }
  param {
    lr_mult: 2
    decay_mult: 0
  }
  convolution_param {
    num_output: 128
    kernel_size: 1
    weight_filler {
      type: "xavier"
      std: 0.03
    }
    bias_filler {
      type: "constant"
      value: 0.2
    }
  }
}
layer {
  name: "inception_4c/relu_1x1"
  type: "ReLU"
  bottom: "inception_4c/1x1"
  top: "inception_4c/1x1"
}
layer {
  name: "inception_4c/3x3_reduce"
  type: "Convolution"
  bottom: "inception_4b/output"
  top: "inception_4c/3x3_reduce"
  param {
    lr_mult: 1
    decay_mult: 1
  }
  param {
    lr_mult: 2
    decay_mult: 0
  }
  convolution_param {
    num_output: 128
    kernel_size: 1
    weight_filler {
      type: "xavier"
      std: 0.09
    }
    bias_filler {
      type: "constant"
      value: 0.2
    }
  }
}
layer {
  name: "inception_4c/relu_3x3_reduce"
  type: "ReLU"
  bottom: "inception_4c/3x3_reduce"
  top: "inception_4c/3x3_reduce"
}
layer {
  name: "inception_4c/3x3"
  type: "Convolution"
  bottom: "inception_4c/3x3_reduce"
  top: "inception_4c/3x3"
  param {
    lr_mult: 1
    decay_mult: 1
  }
  param {
    lr_mult: 2
    decay_mult: 0
  }
  convolution_param {
    num_output: 256
    pad: 1
    kernel_size: 3
    weight_filler {
      type: "xavier"
      std: 0.03
    }
    bias_filler {
      type: "constant"
      value: 0.2
    }
  }
}
layer {
  name: "inception_4c/relu_3x3"
  type: "ReLU"
  bottom: "inception_4c/3x3"
  top: "inception_4c/3x3"
}
layer {
  name: "inception_4c/5x5_reduce"
  type: "Convolution"
  bottom: "inception_4b/output"
  top: "inception_4c/5x5_reduce"
  param {
    lr_mult: 1
    decay_mult: 1
  }
  param {
    lr_mult: 2
    decay_mult: 0
  }
  convolution_param {
    num_output: 24
    kernel_size: 1
    weight_filler {
      type: "xavier"
      std: 0.2
    }
    bias_filler {
      type: "constant"
      value: 0.2
    }
  }
}
layer {
  name: "inception_4c/relu_5x5_reduce"
  type: "ReLU"
  bottom: "inception_4c/5x5_reduce"
  top: "inception_4c/5x5_reduce"
}
layer {
  name: "inception_4c/5x5"
  type: "Convolution"
  bottom: "inception_4c/5x5_reduce"
  top: "inception_4c/5x5"
  param {
    lr_mult: 1
    decay_mult: 1
  }
  param {
    lr_mult: 2
    decay_mult: 0
  }
  convolution_param {
    num_output: 64
    pad: 2
    kernel_size: 5
    weight_filler {
      type: "xavier"
      std: 0.03
    }
    bias_filler {
      type: "constant"
      value: 0.2
    }
  }
}
layer {
  name: "inception_4c/relu_5x5"
  type: "ReLU"
  bottom: "inception_4c/5x5"
  top: "inception_4c/5x5"
}
layer {
  name: "inception_4c/pool"
  type: "Pooling"
  bottom: "inception_4b/output"
  top: "inception_4c/pool"
  pooling_param {
    pool: MAX
    kernel_size: 3
    stride: 1
    pad: 1
  }
}
layer {
  name: "inception_4c/pool_proj"
  type: "Convolution"
  bottom: "inception_4c/pool"
  top: "inception_4c/pool_proj"
  param {
    lr_mult: 1
    decay_mult: 1
  }
  param {
    lr_mult: 2
    decay_mult: 0
  }
  convolution_param {
    num_output: 64
    kernel_size: 1
    weight_filler {
      type: "xavier"
      std: 0.1
    }
    bias_filler {
      type: "constant"
      value: 0.2
    }
  }
}
layer {
  name: "inception_4c/relu_pool_proj"
  type: "ReLU"
  bottom: "inception_4c/pool_proj"
  top: "inception_4c/pool_proj"
}
layer {
  name: "inception_4c/output"
  type: "Concat"
  bottom: "inception_4c/1x1"
  bottom: "inception_4c/3x3"
  bottom: "inception_4c/5x5"
  bottom: "inception_4c/pool_proj"
  top: "inception_4c/output"
}
layer {
  name: "inception_4d/1x1"
  type: "Convolution"
  bottom: "inception_4c/output"
  top: "inception_4d/1x1"
  param {
    lr_mult: 1
    decay_mult: 1
  }
  param {
    lr_mult: 2
    decay_mult: 0
  }
  convolution_param {
    num_output: 112
    kernel_size: 1
    weight_filler {
      type: "xavier"
      std: 0.03
    }
    bias_filler {
      type: "constant"
      value: 0.2
    }
  }
}
layer {
  name: "inception_4d/relu_1x1"
  type: "ReLU"
  bottom: "inception_4d/1x1"
  top: "inception_4d/1x1"
}
layer {
  name: "inception_4d/3x3_reduce"
  type: "Convolution"
  bottom: "inception_4c/output"
  top: "inception_4d/3x3_reduce"
  param {
    lr_mult: 1
    decay_mult: 1
  }
  param {
    lr_mult: 2
    decay_mult: 0
  }
  convolution_param {
    num_output: 144
    kernel_size: 1
    weight_filler {
      type: "xavier"
      std: 0.09
    }
    bias_filler {
      type: "constant"
      value: 0.2
    }
  }
}
layer {
  name: "inception_4d/relu_3x3_reduce"
  type: "ReLU"
  bottom: "inception_4d/3x3_reduce"
  top: "inception_4d/3x3_reduce"
}
layer {
  name: "inception_4d/3x3"
  type: "Convolution"
  bottom: "inception_4d/3x3_reduce"
  top: "inception_4d/3x3"
  param {
    lr_mult: 1
    decay_mult: 1
  }
  param {
    lr_mult: 2
    decay_mult: 0
  }
  convolution_param {
    num_output: 288
    pad: 1
    kernel_size: 3
    weight_filler {
      type: "xavier"
      std: 0.03
    }
    bias_filler {
      type: "constant"
      value: 0.2
    }
  }
}
layer {
  name: "inception_4d/relu_3x3"
  type: "ReLU"
  bottom: "inception_4d/3x3"
  top: "inception_4d/3x3"
}
layer {
  name: "inception_4d/5x5_reduce"
  type: "Convolution"
  bottom: "inception_4c/output"
  top: "inception_4d/5x5_reduce"
  param {
    lr_mult: 1
    decay_mult: 1
  }
  param {
    lr_mult: 2
    decay_mult: 0
  }
  convolution_param {
    num_output: 32
    kernel_size: 1
    weight_filler {
      type: "xavier"
      std: 0.2
    }
    bias_filler {
      type: "constant"
      value: 0.2
    }
  }
}
layer {
  name: "inception_4d/relu_5x5_reduce"
  type: "ReLU"
  bottom: "inception_4d/5x5_reduce"
  top: "inception_4d/5x5_reduce"
}
layer {
  name: "inception_4d/5x5"
  type: "Convolution"
  bottom: "inception_4d/5x5_reduce"
  top: "inception_4d/5x5"
  param {
    lr_mult: 1
    decay_mult: 1
  }
  param {
    lr_mult: 2
    decay_mult: 0
  }
  convolution_param {
    num_output: 64
    pad: 2
    kernel_size: 5
    weight_filler {
      type: "xavier"
      std: 0.03
    }
    bias_filler {
      type: "constant"
      value: 0.2
    }
  }
}
layer {
  name: "inception_4d/relu_5x5"
  type: "ReLU"
  bottom: "inception_4d/5x5"
  top: "inception_4d/5x5"
}
layer {
  name: "inception_4d/pool"
  type: "Pooling"
  bottom: "inception_4c/output"
  top: "inception_4d/pool"
  pooling_param {
    pool: MAX
    kernel_size: 3
    stride: 1
    pad: 1
  }
}
layer {
  name: "inception_4d/pool_proj"
  type: "Convolution"
  bottom: "inception_4d/pool"
  top: "inception_4d/pool_proj"
  param {
    lr_mult: 1
    decay_mult: 1
  }
  param {
    lr_mult: 2
    decay_mult: 0
  }
  convolution_param {
    num_output: 64
    kernel_size: 1
    weight_filler {
      type: "xavier"
      std: 0.1
    }
    bias_filler {
      type: "constant"
      value: 0.2
    }
  }
}
layer {
  name: "inception_4d/relu_pool_proj"
  type: "ReLU"
  bottom: "inception_4d/pool_proj"
  top: "inception_4d/pool_proj"
}
layer {
  name: "inception_4d/output"
  type: "Concat"
  bottom: "inception_4d/1x1"
  bottom: "inception_4d/3x3"
  bottom: "inception_4d/5x5"
  bottom: "inception_4d/pool_proj"
  top: "inception_4d/output"
}
layer {
  name: "loss2/ave_pool"
  type: "Pooling"
  bottom: "inception_4d/output"
  top: "loss2/ave_pool"
  pooling_param {
    pool: AVE
    kernel_size: 5
    stride: 3
  }
}
layer {
  name: "loss2/conv"
  type: "Convolution"
  bottom: "loss2/ave_pool"
  top: "loss2/conv"
  param {
    lr_mult: 1
    decay_mult: 1
  }
  param {
    lr_mult: 2
    decay_mult: 0
  }
  convolution_param {
    num_output: 128
    kernel_size: 1
    weight_filler {
      type: "xavier"
      std: 0.08
    }
    bias_filler {
      type: "constant"
      value: 0.2
    }
  }
}
layer {
  name: "loss2/relu_conv"
  type: "ReLU"
  bottom: "loss2/conv"
  top: "loss2/conv"
}
layer {
  name: "loss2/fc"
  type: "InnerProduct"
  bottom: "loss2/conv"
  top: "loss2/fc"
  param {
    lr_mult: 1
    decay_mult: 1
  }
  param {
    lr_mult: 2
    decay_mult: 0
  }
  inner_product_param {
    num_output: 1024
    weight_filler {
      type: "xavier"
      std: 0.02
    }
    bias_filler {
      type: "constant"
      value: 0.2
    }
  }
}
layer {
  name: "loss2/relu_fc"
  type: "ReLU"
  bottom: "loss2/fc"
  top: "loss2/fc"
}
layer {
  name: "loss2/drop_fc"
  type: "Dropout"
  bottom: "loss2/fc"
  top: "loss2/fc"
  dropout_param {
    dropout_ratio: 0.7
  }
}
layer {
  name: "loss2/classifier_plantvillage"
  type: "InnerProduct"
  bottom: "loss2/fc"
  top: "loss2/classifier_plantvillage"
  param {
    lr_mult: 1
    decay_mult: 1
  }
  param {
    lr_mult: 2
    decay_mult: 0
  }
  inner_product_param {
    num_output: 38
    weight_filler {
      type: "xavier"
      std: 0.0009765625
    }
    bias_filler {
      type: "constant"
      value: 0
    }
  }
}
layer {
  name: "inception_4e/1x1"
  type: "Convolution"
  bottom: "inception_4d/output"
  top: "inception_4e/1x1"
  param {
    lr_mult: 1
    decay_mult: 1
  }
  param {
    lr_mult: 2
    decay_mult: 0
  }
  convolution_param {
    num_output: 256
    kernel_size: 1
    weight_filler {
      type: "xavier"
      std: 0.03
    }
    bias_filler {
      type: "constant"
      value: 0.2
    }
  }
}
layer {
  name: "inception_4e/relu_1x1"
  type: "ReLU"
  bottom: "inception_4e/1x1"
  top: "inception_4e/1x1"
}
layer {
  name: "inception_4e/3x3_reduce"
  type: "Convolution"
  bottom: "inception_4d/output"
  top: "inception_4e/3x3_reduce"
  param {
    lr_mult: 1
    decay_mult: 1
  }
  param {
    lr_mult: 2
    decay_mult: 0
  }
  convolution_param {
    num_output: 160
    kernel_size: 1
    weight_filler {
      type: "xavier"
      std: 0.09
    }
    bias_filler {
      type: "constant"
      value: 0.2
    }
  }
}
layer {
  name: "inception_4e/relu_3x3_reduce"
  type: "ReLU"
  bottom: "inception_4e/3x3_reduce"
  top: "inception_4e/3x3_reduce"
}
layer {
  name: "inception_4e/3x3"
  type: "Convolution"
  bottom: "inception_4e/3x3_reduce"
  top: "inception_4e/3x3"
  param {
    lr_mult: 1
    decay_mult: 1
  }
  param {
    lr_mult: 2
    decay_mult: 0
  }
  convolution_param {
    num_output: 320
    pad: 1
    kernel_size: 3
    weight_filler {
      type: "xavier"
      std: 0.03
    }
    bias_filler {
      type: "constant"
      value: 0.2
    }
  }
}
layer {
  name: "inception_4e/relu_3x3"
  type: "ReLU"
  bottom: "inception_4e/3x3"
  top: "inception_4e/3x3"
}
layer {
  name: "inception_4e/5x5_reduce"
  type: "Convolution"
  bottom: "inception_4d/output"
  top: "inception_4e/5x5_reduce"
  param {
    lr_mult: 1
    decay_mult: 1
  }
  param {
    lr_mult: 2
    decay_mult: 0
  }
  convolution_param {
    num_output: 32
    kernel_size: 1
    weight_filler {
      type: "xavier"
      std: 0.2
    }
    bias_filler {
      type: "constant"
      value: 0.2
    }
  }
}
layer {
  name: "inception_4e/relu_5x5_reduce"
  type: "ReLU"
  bottom: "inception_4e/5x5_reduce"
  top: "inception_4e/5x5_reduce"
}
layer {
  name: "inception_4e/5x5"
  type: "Convolution"
  bottom: "inception_4e/5x5_reduce"
  top: "inception_4e/5x5"
  p
I0403 19:14:01.675367  8968 layer_factory.hpp:77] Creating layer data
I0403 19:14:01.675978  8968 net.cpp:91] Creating Layer data
I0403 19:14:01.676012  8968 net.cpp:399] data -> data
I0403 19:14:01.676067  8968 net.cpp:399] data -> label
I0403 19:14:01.676105  8968 data_transformer.cpp:25] Loading mean file from: /home/mohanty/data/final_dataset/lmdb/color-60-40/mean.binaryproto
I0403 19:14:01.683379  8971 db_lmdb.cpp:38] Opened lmdb /home/mohanty/data/final_dataset/lmdb/color-60-40/test_db
I0403 19:14:01.689088  8968 data_layer.cpp:41] output data size: 24,3,224,224
I0403 19:14:01.715138  8968 net.cpp:141] Setting up data
I0403 19:14:01.715219  8968 net.cpp:148] Top shape: 24 3 224 224 (3612672)
I0403 19:14:01.715240  8968 net.cpp:148] Top shape: 24 (24)
I0403 19:14:01.715255  8968 net.cpp:156] Memory required for data: 14450784
I0403 19:14:01.715286  8968 layer_factory.hpp:77] Creating layer label_data_1_split
I0403 19:14:01.715314  8968 net.cpp:91] Creating Layer label_data_1_split
I0403 19:14:01.715332  8968 net.cpp:425] label_data_1_split <- label
I0403 19:14:01.715368  8968 net.cpp:399] label_data_1_split -> label_data_1_split_0
I0403 19:14:01.715399  8968 net.cpp:399] label_data_1_split -> label_data_1_split_1
I0403 19:14:01.715420  8968 net.cpp:399] label_data_1_split -> label_data_1_split_2
I0403 19:14:01.715446  8968 net.cpp:399] label_data_1_split -> label_data_1_split_3
I0403 19:14:01.715467  8968 net.cpp:399] label_data_1_split -> label_data_1_split_4
I0403 19:14:01.715487  8968 net.cpp:399] label_data_1_split -> label_data_1_split_5
I0403 19:14:01.715507  8968 net.cpp:399] label_data_1_split -> label_data_1_split_6
I0403 19:14:01.715526  8968 net.cpp:399] label_data_1_split -> label_data_1_split_7
I0403 19:14:01.715545  8968 net.cpp:399] label_data_1_split -> label_data_1_split_8
I0403 19:14:01.715564  8968 net.cpp:399] label_data_1_split -> label_data_1_split_9
I0403 19:14:01.715677  8968 net.cpp:141] Setting up label_data_1_split
I0403 19:14:01.715701  8968 net.cpp:148] Top shape: 24 (24)
I0403 19:14:01.715718  8968 net.cpp:148] Top shape: 24 (24)
I0403 19:14:01.715733  8968 net.cpp:148] Top shape: 24 (24)
I0403 19:14:01.715749  8968 net.cpp:148] Top shape: 24 (24)
I0403 19:14:01.715764  8968 net.cpp:148] Top shape: 24 (24)
I0403 19:14:01.715780  8968 net.cpp:148] Top shape: 24 (24)
I0403 19:14:01.715796  8968 net.cpp:148] Top shape: 24 (24)
I0403 19:14:01.715811  8968 net.cpp:148] Top shape: 24 (24)
I0403 19:14:01.715826  8968 net.cpp:148] Top shape: 24 (24)
I0403 19:14:01.715842  8968 net.cpp:148] Top shape: 24 (24)
I0403 19:14:01.715879  8968 net.cpp:156] Memory required for data: 14451744
I0403 19:14:01.715895  8968 layer_factory.hpp:77] Creating layer conv1/7x7_s2
I0403 19:14:01.715929  8968 net.cpp:91] Creating Layer conv1/7x7_s2
I0403 19:14:01.715948  8968 net.cpp:425] conv1/7x7_s2 <- data
I0403 19:14:01.715967  8968 net.cpp:399] conv1/7x7_s2 -> conv1/7x7_s2
I0403 19:14:01.849607  8968 net.cpp:141] Setting up conv1/7x7_s2
I0403 19:14:01.849685  8968 net.cpp:148] Top shape: 24 64 112 112 (19267584)
I0403 19:14:01.849704  8968 net.cpp:156] Memory required for data: 91522080
I0403 19:14:01.849737  8968 layer_factory.hpp:77] Creating layer conv1/relu_7x7
I0403 19:14:01.849766  8968 net.cpp:91] Creating Layer conv1/relu_7x7
I0403 19:14:01.849786  8968 net.cpp:425] conv1/relu_7x7 <- conv1/7x7_s2
I0403 19:14:01.849805  8968 net.cpp:386] conv1/relu_7x7 -> conv1/7x7_s2 (in-place)
I0403 19:14:01.850083  8968 net.cpp:141] Setting up conv1/relu_7x7
I0403 19:14:01.850111  8968 net.cpp:148] Top shape: 24 64 112 112 (19267584)
I0403 19:14:01.850128  8968 net.cpp:156] Memory required for data: 168592416
I0403 19:14:01.850143  8968 layer_factory.hpp:77] Creating layer pool1/3x3_s2
I0403 19:14:01.850170  8968 net.cpp:91] Creating Layer pool1/3x3_s2
I0403 19:14:01.850189  8968 net.cpp:425] pool1/3x3_s2 <- conv1/7x7_s2
I0403 19:14:01.850206  8968 net.cpp:399] pool1/3x3_s2 -> pool1/3x3_s2
I0403 19:14:01.850282  8968 net.cpp:141] Setting up pool1/3x3_s2
I0403 19:14:01.850306  8968 net.cpp:148] Top shape: 24 64 56 56 (4816896)
I0403 19:14:01.850322  8968 net.cpp:156] Memory required for data: 187860000
I0403 19:14:01.850337  8968 layer_factory.hpp:77] Creating layer pool1/norm1
I0403 19:14:01.850363  8968 net.cpp:91] Creating Layer pool1/norm1
I0403 19:14:01.850380  8968 net.cpp:425] pool1/norm1 <- pool1/3x3_s2
I0403 19:14:01.850399  8968 net.cpp:399] pool1/norm1 -> pool1/norm1
I0403 19:14:01.850682  8968 net.cpp:141] Setting up pool1/norm1
I0403 19:14:01.850708  8968 net.cpp:148] Top shape: 24 64 56 56 (4816896)
I0403 19:14:01.850724  8968 net.cpp:156] Memory required for data: 207127584
I0403 19:14:01.850739  8968 layer_factory.hpp:77] Creating layer conv2/3x3_reduce
I0403 19:14:01.850775  8968 net.cpp:91] Creating Layer conv2/3x3_reduce
I0403 19:14:01.850790  8968 net.cpp:425] conv2/3x3_reduce <- pool1/norm1
I0403 19:14:01.850808  8968 net.cpp:399] conv2/3x3_reduce -> conv2/3x3_reduce
I0403 19:14:01.852114  8968 net.cpp:141] Setting up conv2/3x3_reduce
I0403 19:14:01.852144  8968 net.cpp:148] Top shape: 24 64 56 56 (4816896)
I0403 19:14:01.852159  8968 net.cpp:156] Memory required for data: 226395168
I0403 19:14:01.852180  8968 layer_factory.hpp:77] Creating layer conv2/relu_3x3_reduce
I0403 19:14:01.852200  8968 net.cpp:91] Creating Layer conv2/relu_3x3_reduce
I0403 19:14:01.852216  8968 net.cpp:425] conv2/relu_3x3_reduce <- conv2/3x3_reduce
I0403 19:14:01.852232  8968 net.cpp:386] conv2/relu_3x3_reduce -> conv2/3x3_reduce (in-place)
I0403 19:14:01.852484  8968 net.cpp:141] Setting up conv2/relu_3x3_reduce
I0403 19:14:01.852511  8968 net.cpp:148] Top shape: 24 64 56 56 (4816896)
I0403 19:14:01.852526  8968 net.cpp:156] Memory required for data: 245662752
I0403 19:14:01.852542  8968 layer_factory.hpp:77] Creating layer conv2/3x3
I0403 19:14:01.852563  8968 net.cpp:91] Creating Layer conv2/3x3
I0403 19:14:01.852581  8968 net.cpp:425] conv2/3x3 <- conv2/3x3_reduce
I0403 19:14:01.852599  8968 net.cpp:399] conv2/3x3 -> conv2/3x3
I0403 19:14:01.854807  8968 net.cpp:141] Setting up conv2/3x3
I0403 19:14:01.854838  8968 net.cpp:148] Top shape: 24 192 56 56 (14450688)
I0403 19:14:01.854854  8968 net.cpp:156] Memory required for data: 303465504
I0403 19:14:01.854876  8968 layer_factory.hpp:77] Creating layer conv2/relu_3x3
I0403 19:14:01.854893  8968 net.cpp:91] Creating Layer conv2/relu_3x3
I0403 19:14:01.854909  8968 net.cpp:425] conv2/relu_3x3 <- conv2/3x3
I0403 19:14:01.854928  8968 net.cpp:386] conv2/relu_3x3 -> conv2/3x3 (in-place)
I0403 19:14:01.855103  8968 net.cpp:141] Setting up conv2/relu_3x3
I0403 19:14:01.855129  8968 net.cpp:148] Top shape: 24 192 56 56 (14450688)
I0403 19:14:01.855180  8968 net.cpp:156] Memory required for data: 361268256
I0403 19:14:01.855196  8968 layer_factory.hpp:77] Creating layer conv2/norm2
I0403 19:14:01.855216  8968 net.cpp:91] Creating Layer conv2/norm2
I0403 19:14:01.855232  8968 net.cpp:425] conv2/norm2 <- conv2/3x3
I0403 19:14:01.855250  8968 net.cpp:399] conv2/norm2 -> conv2/norm2
I0403 19:14:01.855547  8968 net.cpp:141] Setting up conv2/norm2
I0403 19:14:01.855574  8968 net.cpp:148] Top shape: 24 192 56 56 (14450688)
I0403 19:14:01.855589  8968 net.cpp:156] Memory required for data: 419071008
I0403 19:14:01.855604  8968 layer_factory.hpp:77] Creating layer pool2/3x3_s2
I0403 19:14:01.855624  8968 net.cpp:91] Creating Layer pool2/3x3_s2
I0403 19:14:01.855640  8968 net.cpp:425] pool2/3x3_s2 <- conv2/norm2
I0403 19:14:01.855659  8968 net.cpp:399] pool2/3x3_s2 -> pool2/3x3_s2
I0403 19:14:01.855710  8968 net.cpp:141] Setting up pool2/3x3_s2
I0403 19:14:01.855733  8968 net.cpp:148] Top shape: 24 192 28 28 (3612672)
I0403 19:14:01.855748  8968 net.cpp:156] Memory required for data: 433521696
I0403 19:14:01.855763  8968 layer_factory.hpp:77] Creating layer pool2/3x3_s2_pool2/3x3_s2_0_split
I0403 19:14:01.855780  8968 net.cpp:91] Creating Layer pool2/3x3_s2_pool2/3x3_s2_0_split
I0403 19:14:01.855797  8968 net.cpp:425] pool2/3x3_s2_pool2/3x3_s2_0_split <- pool2/3x3_s2
I0403 19:14:01.855816  8968 net.cpp:399] pool2/3x3_s2_pool2/3x3_s2_0_split -> pool2/3x3_s2_pool2/3x3_s2_0_split_0
I0403 19:14:01.855836  8968 net.cpp:399] pool2/3x3_s2_pool2/3x3_s2_0_split -> pool2/3x3_s2_pool2/3x3_s2_0_split_1
I0403 19:14:01.855857  8968 net.cpp:399] pool2/3x3_s2_pool2/3x3_s2_0_split -> pool2/3x3_s2_pool2/3x3_s2_0_split_2
I0403 19:14:01.855876  8968 net.cpp:399] pool2/3x3_s2_pool2/3x3_s2_0_split -> pool2/3x3_s2_pool2/3x3_s2_0_split_3
I0403 19:14:01.855944  8968 net.cpp:141] Setting up pool2/3x3_s2_pool2/3x3_s2_0_split
I0403 19:14:01.855970  8968 net.cpp:148] Top shape: 24 192 28 28 (3612672)
I0403 19:14:01.855988  8968 net.cpp:148] Top shape: 24 192 28 28 (3612672)
I0403 19:14:01.856004  8968 net.cpp:148] Top shape: 24 192 28 28 (3612672)
I0403 19:14:01.856020  8968 net.cpp:148] Top shape: 24 192 28 28 (3612672)
I0403 19:14:01.856034  8968 net.cpp:156] Memory required for data: 491324448
I0403 19:14:01.856048  8968 layer_factory.hpp:77] Creating layer inception_3a/1x1
I0403 19:14:01.856070  8968 net.cpp:91] Creating Layer inception_3a/1x1
I0403 19:14:01.856087  8968 net.cpp:425] inception_3a/1x1 <- pool2/3x3_s2_pool2/3x3_s2_0_split_0
I0403 19:14:01.856106  8968 net.cpp:399] inception_3a/1x1 -> inception_3a/1x1
I0403 19:14:01.857580  8968 net.cpp:141] Setting up inception_3a/1x1
I0403 19:14:01.857609  8968 net.cpp:148] Top shape: 24 64 28 28 (1204224)
I0403 19:14:01.857625  8968 net.cpp:156] Memory required for data: 496141344
I0403 19:14:01.857642  8968 layer_factory.hpp:77] Creating layer inception_3a/relu_1x1
I0403 19:14:01.857662  8968 net.cpp:91] Creating Layer inception_3a/relu_1x1
I0403 19:14:01.857681  8968 net.cpp:425] inception_3a/relu_1x1 <- inception_3a/1x1
I0403 19:14:01.857698  8968 net.cpp:386] inception_3a/relu_1x1 -> inception_3a/1x1 (in-place)
I0403 19:14:01.857859  8968 net.cpp:141] Setting up inception_3a/relu_1x1
I0403 19:14:01.857885  8968 net.cpp:148] Top shape: 24 64 28 28 (1204224)
I0403 19:14:01.857902  8968 net.cpp:156] Memory required for data: 500958240
I0403 19:14:01.857915  8968 layer_factory.hpp:77] Creating layer inception_3a/3x3_reduce
I0403 19:14:01.857938  8968 net.cpp:91] Creating Layer inception_3a/3x3_reduce
I0403 19:14:01.857954  8968 net.cpp:425] inception_3a/3x3_reduce <- pool2/3x3_s2_pool2/3x3_s2_0_split_1
I0403 19:14:01.857972  8968 net.cpp:399] inception_3a/3x3_reduce -> inception_3a/3x3_reduce
I0403 19:14:01.859570  8968 net.cpp:141] Setting up inception_3a/3x3_reduce
I0403 19:14:01.859599  8968 net.cpp:148] Top shape: 24 96 28 28 (1806336)
I0403 19:14:01.859614  8968 net.cpp:156] Memory required for data: 508183584
I0403 19:14:01.859637  8968 layer_factory.hpp:77] Creating layer inception_3a/relu_3x3_reduce
I0403 19:14:01.859671  8968 net.cpp:91] Creating Layer inception_3a/relu_3x3_reduce
I0403 19:14:01.859689  8968 net.cpp:425] inception_3a/relu_3x3_reduce <- inception_3a/3x3_reduce
I0403 19:14:01.859709  8968 net.cpp:386] inception_3a/relu_3x3_reduce -> inception_3a/3x3_reduce (in-place)
I0403 19:14:01.859879  8968 net.cpp:141] Setting up inception_3a/relu_3x3_reduce
I0403 19:14:01.859904  8968 net.cpp:148] Top shape: 24 96 28 28 (1806336)
I0403 19:14:01.859917  8968 net.cpp:156] Memory required for data: 515408928
I0403 19:14:01.859932  8968 layer_factory.hpp:77] Creating layer inception_3a/3x3
I0403 19:14:01.859958  8968 net.cpp:91] Creating Layer inception_3a/3x3
I0403 19:14:01.859977  8968 net.cpp:425] inception_3a/3x3 <- inception_3a/3x3_reduce
I0403 19:14:01.859997  8968 net.cpp:399] inception_3a/3x3 -> inception_3a/3x3
I0403 19:14:01.861533  8968 net.cpp:141] Setting up inception_3a/3x3
I0403 19:14:01.861562  8968 net.cpp:148] Top shape: 24 128 28 28 (2408448)
I0403 19:14:01.861577  8968 net.cpp:156] Memory required for data: 525042720
I0403 19:14:01.861595  8968 layer_factory.hpp:77] Creating layer inception_3a/relu_3x3
I0403 19:14:01.861613  8968 net.cpp:91] Creating Layer inception_3a/relu_3x3
I0403 19:14:01.861630  8968 net.cpp:425] inception_3a/relu_3x3 <- inception_3a/3x3
I0403 19:14:01.861649  8968 net.cpp:386] inception_3a/relu_3x3 -> inception_3a/3x3 (in-place)
I0403 19:14:01.861901  8968 net.cpp:141] Setting up inception_3a/relu_3x3
I0403 19:14:01.861928  8968 net.cpp:148] Top shape: 24 128 28 28 (2408448)
I0403 19:14:01.861943  8968 net.cpp:156] Memory required for data: 534676512
I0403 19:14:01.861958  8968 layer_factory.hpp:77] Creating layer inception_3a/5x5_reduce
I0403 19:14:01.861979  8968 net.cpp:91] Creating Layer inception_3a/5x5_reduce
I0403 19:14:01.861997  8968 net.cpp:425] inception_3a/5x5_reduce <- pool2/3x3_s2_pool2/3x3_s2_0_split_2
I0403 19:14:01.862015  8968 net.cpp:399] inception_3a/5x5_reduce -> inception_3a/5x5_reduce
I0403 19:14:01.862917  8968 net.cpp:141] Setting up inception_3a/5x5_reduce
I0403 19:14:01.862947  8968 net.cpp:148] Top shape: 24 16 28 28 (301056)
I0403 19:14:01.862963  8968 net.cpp:156] Memory required for data: 535880736
I0403 19:14:01.862988  8968 layer_factory.hpp:77] Creating layer inception_3a/relu_5x5_reduce
I0403 19:14:01.863008  8968 net.cpp:91] Creating Layer inception_3a/relu_5x5_reduce
I0403 19:14:01.863023  8968 net.cpp:425] inception_3a/relu_5x5_reduce <- inception_3a/5x5_reduce
I0403 19:14:01.863044  8968 net.cpp:386] inception_3a/relu_5x5_reduce -> inception_3a/5x5_reduce (in-place)
I0403 19:14:01.863311  8968 net.cpp:141] Setting up inception_3a/relu_5x5_reduce
I0403 19:14:01.863337  8968 net.cpp:148] Top shape: 24 16 28 28 (301056)
I0403 19:14:01.863351  8968 net.cpp:156] Memory required for data: 537084960
I0403 19:14:01.863365  8968 layer_factory.hpp:77] Creating layer inception_3a/5x5
I0403 19:14:01.863389  8968 net.cpp:91] Creating Layer inception_3a/5x5
I0403 19:14:01.863405  8968 net.cpp:425] inception_3a/5x5 <- inception_3a/5x5_reduce
I0403 19:14:01.863425  8968 net.cpp:399] inception_3a/5x5 -> inception_3a/5x5
I0403 19:14:01.864367  8968 net.cpp:141] Setting up inception_3a/5x5
I0403 19:14:01.864395  8968 net.cpp:148] Top shape: 24 32 28 28 (602112)
I0403 19:14:01.864410  8968 net.cpp:156] Memory required for data: 539493408
I0403 19:14:01.864431  8968 layer_factory.hpp:77] Creating layer inception_3a/relu_5x5
I0403 19:14:01.864454  8968 net.cpp:91] Creating Layer inception_3a/relu_5x5
I0403 19:14:01.864471  8968 net.cpp:425] inception_3a/relu_5x5 <- inception_3a/5x5
I0403 19:14:01.864490  8968 net.cpp:386] inception_3a/relu_5x5 -> inception_3a/5x5 (in-place)
I0403 19:14:01.864650  8968 net.cpp:141] Setting up inception_3a/relu_5x5
I0403 19:14:01.864675  8968 net.cpp:148] Top shape: 24 32 28 28 (602112)
I0403 19:14:01.864688  8968 net.cpp:156] Memory required for data: 541901856
I0403 19:14:01.864702  8968 layer_factory.hpp:77] Creating layer inception_3a/pool
I0403 19:14:01.864720  8968 net.cpp:91] Creating Layer inception_3a/pool
I0403 19:14:01.864735  8968 net.cpp:425] inception_3a/pool <- pool2/3x3_s2_pool2/3x3_s2_0_split_3
I0403 19:14:01.864769  8968 net.cpp:399] inception_3a/pool -> inception_3a/pool
I0403 19:14:01.864825  8968 net.cpp:141] Setting up inception_3a/pool
I0403 19:14:01.864850  8968 net.cpp:148] Top shape: 24 192 28 28 (3612672)
I0403 19:14:01.864863  8968 net.cpp:156] Memory required for data: 556352544
I0403 19:14:01.864878  8968 layer_factory.hpp:77] Creating layer inception_3a/pool_proj
I0403 19:14:01.864902  8968 net.cpp:91] Creating Layer inception_3a/pool_proj
I0403 19:14:01.864920  8968 net.cpp:425] inception_3a/pool_proj <- inception_3a/pool
I0403 19:14:01.864938  8968 net.cpp:399] inception_3a/pool_proj -> inception_3a/pool_proj
I0403 19:14:01.865840  8968 net.cpp:141] Setting up inception_3a/pool_proj
I0403 19:14:01.865867  8968 net.cpp:148] Top shape: 24 32 28 28 (602112)
I0403 19:14:01.865882  8968 net.cpp:156] Memory required for data: 558760992
I0403 19:14:01.865906  8968 layer_factory.hpp:77] Creating layer inception_3a/relu_pool_proj
I0403 19:14:01.865926  8968 net.cpp:91] Creating Layer inception_3a/relu_pool_proj
I0403 19:14:01.865942  8968 net.cpp:425] inception_3a/relu_pool_proj <- inception_3a/pool_proj
I0403 19:14:01.865960  8968 net.cpp:386] inception_3a/relu_pool_proj -> inception_3a/pool_proj (in-place)
I0403 19:14:01.866219  8968 net.cpp:141] Setting up inception_3a/relu_pool_proj
I0403 19:14:01.866250  8968 net.cpp:148] Top shape: 24 32 28 28 (602112)
I0403 19:14:01.866266  8968 net.cpp:156] Memory required for data: 561169440
I0403 19:14:01.866281  8968 layer_factory.hpp:77] Creating layer inception_3a/output
I0403 19:14:01.866298  8968 net.cpp:91] Creating Layer inception_3a/output
I0403 19:14:01.866313  8968 net.cpp:425] inception_3a/output <- inception_3a/1x1
I0403 19:14:01.866329  8968 net.cpp:425] inception_3a/output <- inception_3a/3x3
I0403 19:14:01.866344  8968 net.cpp:425] inception_3a/output <- inception_3a/5x5
I0403 19:14:01.866359  8968 net.cpp:425] inception_3a/output <- inception_3a/pool_proj
I0403 19:14:01.866376  8968 net.cpp:399] inception_3a/output -> inception_3a/output
I0403 19:14:01.866420  8968 net.cpp:141] Setting up inception_3a/output
I0403 19:14:01.866447  8968 net.cpp:148] Top shape: 24 256 28 28 (4816896)
I0403 19:14:01.866461  8968 net.cpp:156] Memory required for data: 580437024
I0403 19:14:01.866475  8968 layer_factory.hpp:77] Creating layer inception_3a/output_inception_3a/output_0_split
I0403 19:14:01.866492  8968 net.cpp:91] Creating Layer inception_3a/output_inception_3a/output_0_split
I0403 19:14:01.866508  8968 net.cpp:425] inception_3a/output_inception_3a/output_0_split <- inception_3a/output
I0403 19:14:01.866536  8968 net.cpp:399] inception_3a/output_inception_3a/output_0_split -> inception_3a/output_inception_3a/output_0_split_0
I0403 19:14:01.866556  8968 net.cpp:399] inception_3a/output_inception_3a/output_0_split -> inception_3a/output_inception_3a/output_0_split_1
I0403 19:14:01.866581  8968 net.cpp:399] inception_3a/output_inception_3a/output_0_split -> inception_3a/output_inception_3a/output_0_split_2
I0403 19:14:01.866603  8968 net.cpp:399] inception_3a/output_inception_3a/output_0_split -> inception_3a/output_inception_3a/output_0_split_3
I0403 19:14:01.866672  8968 net.cpp:141] Setting up inception_3a/output_inception_3a/output_0_split
I0403 19:14:01.866695  8968 net.cpp:148] Top shape: 24 256 28 28 (4816896)
I0403 19:14:01.866714  8968 net.cpp:148] Top shape: 24 256 28 28 (4816896)
I0403 19:14:01.866731  8968 net.cpp:148] Top shape: 24 256 28 28 (4816896)
I0403 19:14:01.866746  8968 net.cpp:148] Top shape: 24 256 28 28 (4816896)
I0403 19:14:01.866760  8968 net.cpp:156] Memory required for data: 657507360
I0403 19:14:01.866773  8968 layer_factory.hpp:77] Creating layer inception_3b/1x1
I0403 19:14:01.866793  8968 net.cpp:91] Creating Layer inception_3b/1x1
I0403 19:14:01.866811  8968 net.cpp:425] inception_3b/1x1 <- inception_3a/output_inception_3a/output_0_split_0
I0403 19:14:01.866832  8968 net.cpp:399] inception_3b/1x1 -> inception_3b/1x1
I0403 19:14:01.867985  8968 net.cpp:141] Setting up inception_3b/1x1
I0403 19:14:01.868023  8968 net.cpp:148] Top shape: 24 128 28 28 (2408448)
I0403 19:14:01.868039  8968 net.cpp:156] Memory required for data: 667141152
I0403 19:14:01.868057  8968 layer_factory.hpp:77] Creating layer inception_3b/relu_1x1
I0403 19:14:01.868077  8968 net.cpp:91] Creating Layer inception_3b/relu_1x1
I0403 19:14:01.868093  8968 net.cpp:425] inception_3b/relu_1x1 <- inception_3b/1x1
I0403 19:14:01.868111  8968 net.cpp:386] inception_3b/relu_1x1 -> inception_3b/1x1 (in-place)
I0403 19:14:01.868274  8968 net.cpp:141] Setting up inception_3b/relu_1x1
I0403 19:14:01.868300  8968 net.cpp:148] Top shape: 24 128 28 28 (2408448)
I0403 19:14:01.868315  8968 net.cpp:156] Memory required for data: 676774944
I0403 19:14:01.868330  8968 layer_factory.hpp:77] Creating layer inception_3b/3x3_reduce
I0403 19:14:01.868350  8968 net.cpp:91] Creating Layer inception_3b/3x3_reduce
I0403 19:14:01.868368  8968 net.cpp:425] inception_3b/3x3_reduce <- inception_3a/output_inception_3a/output_0_split_1
I0403 19:14:01.868387  8968 net.cpp:399] inception_3b/3x3_reduce -> inception_3b/3x3_reduce
I0403 19:14:01.869456  8968 net.cpp:141] Setting up inception_3b/3x3_reduce
I0403 19:14:01.869488  8968 net.cpp:148] Top shape: 24 128 28 28 (2408448)
I0403 19:14:01.869503  8968 net.cpp:156] Memory required for data: 686408736
I0403 19:14:01.869520  8968 layer_factory.hpp:77] Creating layer inception_3b/relu_3x3_reduce
I0403 19:14:01.869541  8968 net.cpp:91] Creating Layer inception_3b/relu_3x3_reduce
I0403 19:14:01.869560  8968 net.cpp:425] inception_3b/relu_3x3_reduce <- inception_3b/3x3_reduce
I0403 19:14:01.869577  8968 net.cpp:386] inception_3b/relu_3x3_reduce -> inception_3b/3x3_reduce (in-place)
I0403 19:14:01.869738  8968 net.cpp:141] Setting up inception_3b/relu_3x3_reduce
I0403 19:14:01.869768  8968 net.cpp:148] Top shape: 24 128 28 28 (2408448)
I0403 19:14:01.869783  8968 net.cpp:156] Memory required for data: 696042528
I0403 19:14:01.869797  8968 layer_factory.hpp:77] Creating layer inception_3b/3x3
I0403 19:14:01.869822  8968 net.cpp:91] Creating Layer inception_3b/3x3
I0403 19:14:01.869839  8968 net.cpp:425] inception_3b/3x3 <- inception_3b/3x3_reduce
I0403 19:14:01.869860  8968 net.cpp:399] inception_3b/3x3 -> inception_3b/3x3
I0403 19:14:01.872583  8968 net.cpp:141] Setting up inception_3b/3x3
I0403 19:14:01.872611  8968 net.cpp:148] Top shape: 24 192 28 28 (3612672)
I0403 19:14:01.872627  8968 net.cpp:156] Memory required for data: 710493216
I0403 19:14:01.872648  8968 layer_factory.hpp:77] Creating layer inception_3b/relu_3x3
I0403 19:14:01.872666  8968 net.cpp:91] Creating Layer inception_3b/relu_3x3
I0403 19:14:01.872683  8968 net.cpp:425] inception_3b/relu_3x3 <- inception_3b/3x3
I0403 19:14:01.872699  8968 net.cpp:386] inception_3b/relu_3x3 -> inception_3b/3x3 (in-place)
I0403 19:14:01.872957  8968 net.cpp:141] Setting up inception_3b/relu_3x3
I0403 19:14:01.872987  8968 net.cpp:148] Top shape: 24 192 28 28 (3612672)
I0403 19:14:01.873003  8968 net.cpp:156] Memory required for data: 724943904
I0403 19:14:01.873018  8968 layer_factory.hpp:77] Creating layer inception_3b/5x5_reduce
I0403 19:14:01.873039  8968 net.cpp:91] Creating Layer inception_3b/5x5_reduce
I0403 19:14:01.873057  8968 net.cpp:425] inception_3b/5x5_reduce <- inception_3a/output_inception_3a/output_0_split_2
I0403 19:14:01.873075  8968 net.cpp:399] inception_3b/5x5_reduce -> inception_3b/5x5_reduce
I0403 19:14:01.873998  8968 net.cpp:141] Setting up inception_3b/5x5_reduce
I0403 19:14:01.874027  8968 net.cpp:148] Top shape: 24 32 28 28 (602112)
I0403 19:14:01.874042  8968 net.cpp:156] Memory required for data: 727352352
I0403 19:14:01.874058  8968 layer_factory.hpp:77] Creating layer inception_3b/relu_5x5_reduce
I0403 19:14:01.874078  8968 net.cpp:91] Creating Layer inception_3b/relu_5x5_reduce
I0403 19:14:01.874094  8968 net.cpp:425] inception_3b/relu_5x5_reduce <- inception_3b/5x5_reduce
I0403 19:14:01.874112  8968 net.cpp:386] inception_3b/relu_5x5_reduce -> inception_3b/5x5_reduce (in-place)
I0403 19:14:01.874284  8968 net.cpp:141] Setting up inception_3b/relu_5x5_reduce
I0403 19:14:01.874320  8968 net.cpp:148] Top shape: 24 32 28 28 (602112)
I0403 19:14:01.874336  8968 net.cpp:156] Memory required for data: 729760800
I0403 19:14:01.874348  8968 layer_factory.hpp:77] Creating layer inception_3b/5x5
I0403 19:14:01.874371  8968 net.cpp:91] Creating Layer inception_3b/5x5
I0403 19:14:01.874388  8968 net.cpp:425] inception_3b/5x5 <- inception_3b/5x5_reduce
I0403 19:14:01.874410  8968 net.cpp:399] inception_3b/5x5 -> inception_3b/5x5
I0403 19:14:01.876255  8968 net.cpp:141] Setting up inception_3b/5x5
I0403 19:14:01.876283  8968 net.cpp:148] Top shape: 24 96 28 28 (1806336)
I0403 19:14:01.876299  8968 net.cpp:156] Memory required for data: 736986144
I0403 19:14:01.876317  8968 layer_factory.hpp:77] Creating layer inception_3b/relu_5x5
I0403 19:14:01.876337  8968 net.cpp:91] Creating Layer inception_3b/relu_5x5
I0403 19:14:01.876353  8968 net.cpp:425] inception_3b/relu_5x5 <- inception_3b/5x5
I0403 19:14:01.876370  8968 net.cpp:386] inception_3b/relu_5x5 -> inception_3b/5x5 (in-place)
I0403 19:14:01.876557  8968 net.cpp:141] Setting up inception_3b/relu_5x5
I0403 19:14:01.876581  8968 net.cpp:148] Top shape: 24 96 28 28 (1806336)
I0403 19:14:01.876595  8968 net.cpp:156] Memory required for data: 744211488
I0403 19:14:01.876610  8968 layer_factory.hpp:77] Creating layer inception_3b/pool
I0403 19:14:01.876627  8968 net.cpp:91] Creating Layer inception_3b/pool
I0403 19:14:01.876642  8968 net.cpp:425] inception_3b/pool <- inception_3a/output_inception_3a/output_0_split_3
I0403 19:14:01.876660  8968 net.cpp:399] inception_3b/pool -> inception_3b/pool
I0403 19:14:01.876713  8968 net.cpp:141] Setting up inception_3b/pool
I0403 19:14:01.876736  8968 net.cpp:148] Top shape: 24 256 28 28 (4816896)
I0403 19:14:01.876751  8968 net.cpp:156] Memory required for data: 763479072
I0403 19:14:01.876765  8968 layer_factory.hpp:77] Creating layer inception_3b/pool_proj
I0403 19:14:01.876786  8968 net.cpp:91] Creating Layer inception_3b/pool_proj
I0403 19:14:01.876804  8968 net.cpp:425] inception_3b/pool_proj <- inception_3b/pool
I0403 19:14:01.876824  8968 net.cpp:399] inception_3b/pool_proj -> inception_3b/pool_proj
I0403 19:14:01.877809  8968 net.cpp:141] Setting up inception_3b/pool_proj
I0403 19:14:01.877835  8968 net.cpp:148] Top shape: 24 64 28 28 (1204224)
I0403 19:14:01.877851  8968 net.cpp:156] Memory required for data: 768295968
I0403 19:14:01.877868  8968 layer_factory.hpp:77] Creating layer inception_3b/relu_pool_proj
I0403 19:14:01.877887  8968 net.cpp:91] Creating Layer inception_3b/relu_pool_proj
I0403 19:14:01.877902  8968 net.cpp:425] inception_3b/relu_pool_proj <- inception_3b/pool_proj
I0403 19:14:01.877921  8968 net.cpp:386] inception_3b/relu_pool_proj -> inception_3b/pool_proj (in-place)
I0403 19:14:01.878279  8968 net.cpp:141] Setting up inception_3b/relu_pool_proj
I0403 19:14:01.878307  8968 net.cpp:148] Top shape: 24 64 28 28 (1204224)
I0403 19:14:01.878322  8968 net.cpp:156] Memory required for data: 773112864
I0403 19:14:01.878339  8968 layer_factory.hpp:77] Creating layer inception_3b/output
I0403 19:14:01.878355  8968 net.cpp:91] Creating Layer inception_3b/output
I0403 19:14:01.878371  8968 net.cpp:425] inception_3b/output <- inception_3b/1x1
I0403 19:14:01.878386  8968 net.cpp:425] inception_3b/output <- inception_3b/3x3
I0403 19:14:01.878402  8968 net.cpp:425] inception_3b/output <- inception_3b/5x5
I0403 19:14:01.878417  8968 net.cpp:425] inception_3b/output <- inception_3b/pool_proj
I0403 19:14:01.878442  8968 net.cpp:399] inception_3b/output -> inception_3b/output
I0403 19:14:01.878485  8968 net.cpp:141] Setting up inception_3b/output
I0403 19:14:01.878507  8968 net.cpp:148] Top shape: 24 480 28 28 (9031680)
I0403 19:14:01.878522  8968 net.cpp:156] Memory required for data: 809239584
I0403 19:14:01.878536  8968 layer_factory.hpp:77] Creating layer pool3/3x3_s2
I0403 19:14:01.878556  8968 net.cpp:91] Creating Layer pool3/3x3_s2
I0403 19:14:01.878573  8968 net.cpp:425] pool3/3x3_s2 <- inception_3b/output
I0403 19:14:01.878589  8968 net.cpp:399] pool3/3x3_s2 -> pool3/3x3_s2
I0403 19:14:01.878659  8968 net.cpp:141] Setting up pool3/3x3_s2
I0403 19:14:01.878682  8968 net.cpp:148] Top shape: 24 480 14 14 (2257920)
I0403 19:14:01.878696  8968 net.cpp:156] Memory required for data: 818271264
I0403 19:14:01.878711  8968 layer_factory.hpp:77] Creating layer pool3/3x3_s2_pool3/3x3_s2_0_split
I0403 19:14:01.878727  8968 net.cpp:91] Creating Layer pool3/3x3_s2_pool3/3x3_s2_0_split
I0403 19:14:01.878741  8968 net.cpp:425] pool3/3x3_s2_pool3/3x3_s2_0_split <- pool3/3x3_s2
I0403 19:14:01.878761  8968 net.cpp:399] pool3/3x3_s2_pool3/3x3_s2_0_split -> pool3/3x3_s2_pool3/3x3_s2_0_split_0
I0403 19:14:01.878779  8968 net.cpp:399] pool3/3x3_s2_pool3/3x3_s2_0_split -> pool3/3x3_s2_pool3/3x3_s2_0_split_1
I0403 19:14:01.878799  8968 net.cpp:399] pool3/3x3_s2_pool3/3x3_s2_0_split -> pool3/3x3_s2_pool3/3x3_s2_0_split_2
I0403 19:14:01.878818  8968 net.cpp:399] pool3/3x3_s2_pool3/3x3_s2_0_split -> pool3/3x3_s2_pool3/3x3_s2_0_split_3
I0403 19:14:01.878891  8968 net.cpp:141] Setting up pool3/3x3_s2_pool3/3x3_s2_0_split
I0403 19:14:01.878913  8968 net.cpp:148] Top shape: 24 480 14 14 (2257920)
I0403 19:14:01.878929  8968 net.cpp:148] Top shape: 24 480 14 14 (2257920)
I0403 19:14:01.878944  8968 net.cpp:148] Top shape: 24 480 14 14 (2257920)
I0403 19:14:01.878960  8968 net.cpp:148] Top shape: 24 480 14 14 (2257920)
I0403 19:14:01.878973  8968 net.cpp:156] Memory required for data: 854397984
I0403 19:14:01.878988  8968 layer_factory.hpp:77] Creating layer inception_4a/1x1
I0403 19:14:01.879009  8968 net.cpp:91] Creating Layer inception_4a/1x1
I0403 19:14:01.879026  8968 net.cpp:425] inception_4a/1x1 <- pool3/3x3_s2_pool3/3x3_s2_0_split_0
I0403 19:14:01.879047  8968 net.cpp:399] inception_4a/1x1 -> inception_4a/1x1
I0403 19:14:01.880553  8968 net.cpp:141] Setting up inception_4a/1x1
I0403 19:14:01.880580  8968 net.cpp:148] Top shape: 24 192 14 14 (903168)
I0403 19:14:01.880595  8968 net.cpp:156] Memory required for data: 858010656
I0403 19:14:01.880614  8968 layer_factory.hpp:77] Creating layer inception_4a/relu_1x1
I0403 19:14:01.880630  8968 net.cpp:91] Creating Layer inception_4a/relu_1x1
I0403 19:14:01.880646  8968 net.cpp:425] inception_4a/relu_1x1 <- inception_4a/1x1
I0403 19:14:01.880664  8968 net.cpp:386] inception_4a/relu_1x1 -> inception_4a/1x1 (in-place)
I0403 19:14:01.880833  8968 net.cpp:141] Setting up inception_4a/relu_1x1
I0403 19:14:01.880858  8968 net.cpp:148] Top shape: 24 192 14 14 (903168)
I0403 19:14:01.880872  8968 net.cpp:156] Memory required for data: 861623328
I0403 19:14:01.880887  8968 layer_factory.hpp:77] Creating layer inception_4a/3x3_reduce
I0403 19:14:01.880908  8968 net.cpp:91] Creating Layer inception_4a/3x3_reduce
I0403 19:14:01.880926  8968 net.cpp:425] inception_4a/3x3_reduce <- pool3/3x3_s2_pool3/3x3_s2_0_split_1
I0403 19:14:01.880947  8968 net.cpp:399] inception_4a/3x3_reduce -> inception_4a/3x3_reduce
I0403 19:14:01.882148  8968 net.cpp:141] Setting up inception_4a/3x3_reduce
I0403 19:14:01.882174  8968 net.cpp:148] Top shape: 24 96 14 14 (451584)
I0403 19:14:01.882190  8968 net.cpp:156] Memory required for data: 863429664
I0403 19:14:01.882215  8968 layer_factory.hpp:77] Creating layer inception_4a/relu_3x3_reduce
I0403 19:14:01.882239  8968 net.cpp:91] Creating Layer inception_4a/relu_3x3_reduce
I0403 19:14:01.882256  8968 net.cpp:425] inception_4a/relu_3x3_reduce <- inception_4a/3x3_reduce
I0403 19:14:01.882274  8968 net.cpp:386] inception_4a/relu_3x3_reduce -> inception_4a/3x3_reduce (in-place)
I0403 19:14:01.882448  8968 net.cpp:141] Setting up inception_4a/relu_3x3_reduce
I0403 19:14:01.882473  8968 net.cpp:148] Top shape: 24 96 14 14 (451584)
I0403 19:14:01.882488  8968 net.cpp:156] Memory required for data: 865236000
I0403 19:14:01.882503  8968 layer_factory.hpp:77] Creating layer inception_4a/3x3
I0403 19:14:01.882532  8968 net.cpp:91] Creating Layer inception_4a/3x3
I0403 19:14:01.882550  8968 net.cpp:425] inception_4a/3x3 <- inception_4a/3x3_reduce
I0403 19:14:01.882571  8968 net.cpp:399] inception_4a/3x3 -> inception_4a/3x3
I0403 19:14:01.885112  8968 net.cpp:141] Setting up inception_4a/3x3
I0403 19:14:01.885139  8968 net.cpp:148] Top shape: 24 208 14 14 (978432)
I0403 19:14:01.885155  8968 net.cpp:156] Memory required for data: 869149728
I0403 19:14:01.885174  8968 layer_factory.hpp:77] Creating layer inception_4a/relu_3x3
I0403 19:14:01.885195  8968 net.cpp:91] Creating Layer inception_4a/relu_3x3
I0403 19:14:01.885212  8968 net.cpp:425] inception_4a/relu_3x3 <- inception_4a/3x3
I0403 19:14:01.885231  8968 net.cpp:386] inception_4a/relu_3x3 -> inception_4a/3x3 (in-place)
I0403 19:14:01.885498  8968 net.cpp:141] Setting up inception_4a/relu_3x3
I0403 19:14:01.885524  8968 net.cpp:148] Top shape: 24 208 14 14 (978432)
I0403 19:14:01.885538  8968 net.cpp:156] Memory required for data: 873063456
I0403 19:14:01.885552  8968 layer_factory.hpp:77] Creating layer inception_4a/5x5_reduce
I0403 19:14:01.885574  8968 net.cpp:91] Creating Layer inception_4a/5x5_reduce
I0403 19:14:01.885591  8968 net.cpp:425] inception_4a/5x5_reduce <- pool3/3x3_s2_pool3/3x3_s2_0_split_2
I0403 19:14:01.885613  8968 net.cpp:399] inception_4a/5x5_reduce -> inception_4a/5x5_reduce
I0403 19:14:01.886587  8968 net.cpp:141] Setting up inception_4a/5x5_reduce
I0403 19:14:01.886615  8968 net.cpp:148] Top shape: 24 16 14 14 (75264)
I0403 19:14:01.886629  8968 net.cpp:156] Memory required for data: 873364512
I0403 19:14:01.886656  8968 layer_factory.hpp:77] Creating layer inception_4a/relu_5x5_reduce
I0403 19:14:01.886675  8968 net.cpp:91] Creating Layer inception_4a/relu_5x5_reduce
I0403 19:14:01.886693  8968 net.cpp:425] inception_4a/relu_5x5_reduce <- inception_4a/5x5_reduce
I0403 19:14:01.886720  8968 net.cpp:386] inception_4a/relu_5x5_reduce -> inception_4a/5x5_reduce (in-place)
I0403 19:14:01.886886  8968 net.cpp:141] Setting up inception_4a/relu_5x5_reduce
I0403 19:14:01.886910  8968 net.cpp:148] Top shape: 24 16 14 14 (75264)
I0403 19:14:01.886924  8968 net.cpp:156] Memory required for data: 873665568
I0403 19:14:01.886940  8968 layer_factory.hpp:77] Creating layer inception_4a/5x5
I0403 19:14:01.886961  8968 net.cpp:91] Creating Layer inception_4a/5x5
I0403 19:14:01.886978  8968 net.cpp:425] inception_4a/5x5 <- inception_4a/5x5_reduce
I0403 19:14:01.886999  8968 net.cpp:399] inception_4a/5x5 -> inception_4a/5x5
I0403 19:14:01.888031  8968 net.cpp:141] Setting up inception_4a/5x5
I0403 19:14:01.888059  8968 net.cpp:148] Top shape: 24 48 14 14 (225792)
I0403 19:14:01.888075  8968 net.cpp:156] Memory required for data: 874568736
I0403 19:14:01.888093  8968 layer_factory.hpp:77] Creating layer inception_4a/relu_5x5
I0403 19:14:01.888113  8968 net.cpp:91] Creating Layer inception_4a/relu_5x5
I0403 19:14:01.888130  8968 net.cpp:425] inception_4a/relu_5x5 <- inception_4a/5x5
I0403 19:14:01.888149  8968 net.cpp:386] inception_4a/relu_5x5 -> inception_4a/5x5 (in-place)
I0403 19:14:01.888324  8968 net.cpp:141] Setting up inception_4a/relu_5x5
I0403 19:14:01.888347  8968 net.cpp:148] Top shape: 24 48 14 14 (225792)
I0403 19:14:01.888365  8968 net.cpp:156] Memory required for data: 875471904
I0403 19:14:01.888381  8968 layer_factory.hpp:77] Creating layer inception_4a/pool
I0403 19:14:01.888398  8968 net.cpp:91] Creating Layer inception_4a/pool
I0403 19:14:01.888414  8968 net.cpp:425] inception_4a/pool <- pool3/3x3_s2_pool3/3x3_s2_0_split_3
I0403 19:14:01.888437  8968 net.cpp:399] inception_4a/pool -> inception_4a/pool
I0403 19:14:01.888499  8968 net.cpp:141] Setting up inception_4a/pool
I0403 19:14:01.888523  8968 net.cpp:148] Top shape: 24 480 14 14 (2257920)
I0403 19:14:01.888537  8968 net.cpp:156] Memory required for data: 884503584
I0403 19:14:01.888551  8968 layer_factory.hpp:77] Creating layer inception_4a/pool_proj
I0403 19:14:01.888572  8968 net.cpp:91] Creating Layer inception_4a/pool_proj
I0403 19:14:01.888591  8968 net.cpp:425] inception_4a/pool_proj <- inception_4a/pool
I0403 19:14:01.888609  8968 net.cpp:399] inception_4a/pool_proj -> inception_4a/pool_proj
I0403 19:14:01.889716  8968 net.cpp:141] Setting up inception_4a/pool_proj
I0403 19:14:01.889744  8968 net.cpp:148] Top shape: 24 64 14 14 (301056)
I0403 19:14:01.889772  8968 net.cpp:156] Memory required for data: 885707808
I0403 19:14:01.889791  8968 layer_factory.hpp:77] Creating layer inception_4a/relu_pool_proj
I0403 19:14:01.889811  8968 net.cpp:91] Creating Layer inception_4a/relu_pool_proj
I0403 19:14:01.889827  8968 net.cpp:425] inception_4a/relu_pool_proj <- inception_4a/pool_proj
I0403 19:14:01.889845  8968 net.cpp:386] inception_4a/relu_pool_proj -> inception_4a/pool_proj (in-place)
I0403 19:14:01.890107  8968 net.cpp:141] Setting up inception_4a/relu_pool_proj
I0403 19:14:01.890132  8968 net.cpp:148] Top shape: 24 64 14 14 (301056)
I0403 19:14:01.890148  8968 net.cpp:156] Memory required for data: 886912032
I0403 19:14:01.890163  8968 layer_factory.hpp:77] Creating layer inception_4a/output
I0403 19:14:01.890179  8968 net.cpp:91] Creating Layer inception_4a/output
I0403 19:14:01.890195  8968 net.cpp:425] inception_4a/output <- inception_4a/1x1
I0403 19:14:01.890211  8968 net.cpp:425] inception_4a/output <- inception_4a/3x3
I0403 19:14:01.890226  8968 net.cpp:425] inception_4a/output <- inception_4a/5x5
I0403 19:14:01.890241  8968 net.cpp:425] inception_4a/output <- inception_4a/pool_proj
I0403 19:14:01.890269  8968 net.cpp:399] inception_4a/output -> inception_4a/output
I0403 19:14:01.890312  8968 net.cpp:141] Setting up inception_4a/output
I0403 19:14:01.890337  8968 net.cpp:148] Top shape: 24 512 14 14 (2408448)
I0403 19:14:01.890363  8968 net.cpp:156] Memory required for data: 896545824
I0403 19:14:01.890377  8968 layer_factory.hpp:77] Creating layer inception_4a/output_inception_4a/output_0_split
I0403 19:14:01.890393  8968 net.cpp:91] Creating Layer inception_4a/output_inception_4a/output_0_split
I0403 19:14:01.890408  8968 net.cpp:425] inception_4a/output_inception_4a/output_0_split <- inception_4a/output
I0403 19:14:01.890435  8968 net.cpp:399] inception_4a/output_inception_4a/output_0_split -> inception_4a/output_inception_4a/output_0_split_0
I0403 19:14:01.890457  8968 net.cpp:399] inception_4a/output_inception_4a/output_0_split -> inception_4a/output_inception_4a/output_0_split_1
I0403 19:14:01.890478  8968 net.cpp:399] inception_4a/output_inception_4a/output_0_split -> inception_4a/output_inception_4a/output_0_split_2
I0403 19:14:01.890499  8968 net.cpp:399] inception_4a/output_inception_4a/output_0_split -> inception_4a/output_inception_4a/output_0_split_3
I0403 19:14:01.890519  8968 net.cpp:399] inception_4a/output_inception_4a/output_0_split -> inception_4a/output_inception_4a/output_0_split_4
I0403 19:14:01.890606  8968 net.cpp:141] Setting up inception_4a/output_inception_4a/output_0_split
I0403 19:14:01.890630  8968 net.cpp:148] Top shape: 24 512 14 14 (2408448)
I0403 19:14:01.890655  8968 net.cpp:148] Top shape: 24 512 14 14 (2408448)
I0403 19:14:01.890671  8968 net.cpp:148] Top shape: 24 512 14 14 (2408448)
I0403 19:14:01.890686  8968 net.cpp:148] Top shape: 24 512 14 14 (2408448)
I0403 19:14:01.890700  8968 net.cpp:148] Top shape: 24 512 14 14 (2408448)
I0403 19:14:01.890719  8968 net.cpp:156] Memory required for data: 944714784
I0403 19:14:01.890734  8968 layer_factory.hpp:77] Creating layer loss1/ave_pool
I0403 19:14:01.890754  8968 net.cpp:91] Creating Layer loss1/ave_pool
I0403 19:14:01.890771  8968 net.cpp:425] loss1/ave_pool <- inception_4a/output_inception_4a/output_0_split_0
I0403 19:14:01.890789  8968 net.cpp:399] loss1/ave_pool -> loss1/ave_pool
I0403 19:14:01.890983  8968 net.cpp:141] Setting up loss1/ave_pool
I0403 19:14:01.891008  8968 net.cpp:148] Top shape: 24 512 4 4 (196608)
I0403 19:14:01.891022  8968 net.cpp:156] Memory required for data: 945501216
I0403 19:14:01.891037  8968 layer_factory.hpp:77] Creating layer loss1/conv
I0403 19:14:01.891058  8968 net.cpp:91] Creating Layer loss1/conv
I0403 19:14:01.891075  8968 net.cpp:425] loss1/conv <- loss1/ave_pool
I0403 19:14:01.891095  8968 net.cpp:399] loss1/conv -> loss1/conv
I0403 19:14:01.892406  8968 net.cpp:141] Setting up loss1/conv
I0403 19:14:01.892442  8968 net.cpp:148] Top shape: 24 128 4 4 (49152)
I0403 19:14:01.892462  8968 net.cpp:156] Memory required for data: 945697824
I0403 19:14:01.892493  8968 layer_factory.hpp:77] Creating layer loss1/relu_conv
I0403 19:14:01.892513  8968 net.cpp:91] Creating Layer loss1/relu_conv
I0403 19:14:01.892532  8968 net.cpp:425] loss1/relu_conv <- loss1/conv
I0403 19:14:01.892549  8968 net.cpp:386] loss1/relu_conv -> loss1/conv (in-place)
I0403 19:14:01.892817  8968 net.cpp:141] Setting up loss1/relu_conv
I0403 19:14:01.892843  8968 net.cpp:148] Top shape: 24 128 4 4 (49152)
I0403 19:14:01.892856  8968 net.cpp:156] Memory required for data: 945894432
I0403 19:14:01.892871  8968 layer_factory.hpp:77] Creating layer loss1/fc
I0403 19:14:01.892897  8968 net.cpp:91] Creating Layer loss1/fc
I0403 19:14:01.892915  8968 net.cpp:425] loss1/fc <- loss1/conv
I0403 19:14:01.892936  8968 net.cpp:399] loss1/fc -> loss1/fc
I0403 19:14:01.909669  8968 net.cpp:141] Setting up loss1/fc
I0403 19:14:01.909700  8968 net.cpp:148] Top shape: 24 1024 (24576)
I0403 19:14:01.909716  8968 net.cpp:156] Memory required for data: 945992736
I0403 19:14:01.909734  8968 layer_factory.hpp:77] Creating layer loss1/relu_fc
I0403 19:14:01.909752  8968 net.cpp:91] Creating Layer loss1/relu_fc
I0403 19:14:01.909768  8968 net.cpp:425] loss1/relu_fc <- loss1/fc
I0403 19:14:01.909787  8968 net.cpp:386] loss1/relu_fc -> loss1/fc (in-place)
I0403 19:14:01.909960  8968 net.cpp:141] Setting up loss1/relu_fc
I0403 19:14:01.909986  8968 net.cpp:148] Top shape: 24 1024 (24576)
I0403 19:14:01.909999  8968 net.cpp:156] Memory required for data: 946091040
I0403 19:14:01.910014  8968 layer_factory.hpp:77] Creating layer loss1/drop_fc
I0403 19:14:01.910040  8968 net.cpp:91] Creating Layer loss1/drop_fc
I0403 19:14:01.910058  8968 net.cpp:425] loss1/drop_fc <- loss1/fc
I0403 19:14:01.910074  8968 net.cpp:386] loss1/drop_fc -> loss1/fc (in-place)
I0403 19:14:01.910123  8968 net.cpp:141] Setting up loss1/drop_fc
I0403 19:14:01.910148  8968 net.cpp:148] Top shape: 24 1024 (24576)
I0403 19:14:01.910162  8968 net.cpp:156] Memory required for data: 946189344
I0403 19:14:01.910177  8968 layer_factory.hpp:77] Creating layer loss1/classifier_plantvillage
I0403 19:14:01.910195  8968 net.cpp:91] Creating Layer loss1/classifier_plantvillage
I0403 19:14:01.910212  8968 net.cpp:425] loss1/classifier_plantvillage <- loss1/fc
I0403 19:14:01.910231  8968 net.cpp:399] loss1/classifier_plantvillage -> loss1/classifier_plantvillage
I0403 19:14:01.911082  8968 net.cpp:141] Setting up loss1/classifier_plantvillage
I0403 19:14:01.911109  8968 net.cpp:148] Top shape: 24 38 (912)
I0403 19:14:01.911124  8968 net.cpp:156] Memory required for data: 946192992
I0403 19:14:01.911142  8968 layer_factory.hpp:77] Creating layer loss1/classifier_plantvillage_loss1/classifier_plantvillage_0_split
I0403 19:14:01.911159  8968 net.cpp:91] Creating Layer loss1/classifier_plantvillage_loss1/classifier_plantvillage_0_split
I0403 19:14:01.911175  8968 net.cpp:425] loss1/classifier_plantvillage_loss1/classifier_plantvillage_0_split <- loss1/classifier_plantvillage
I0403 19:14:01.911195  8968 net.cpp:399] loss1/classifier_plantvillage_loss1/classifier_plantvillage_0_split -> loss1/classifier_plantvillage_loss1/classifier_plantvillage_0_split_0
I0403 19:14:01.911216  8968 net.cpp:399] loss1/classifier_plantvillage_loss1/classifier_plantvillage_0_split -> loss1/classifier_plantvillage_loss1/classifier_plantvillage_0_split_1
I0403 19:14:01.911237  8968 net.cpp:399] loss1/classifier_plantvillage_loss1/classifier_plantvillage_0_split -> loss1/classifier_plantvillage_loss1/classifier_plantvillage_0_split_2
I0403 19:14:01.911311  8968 net.cpp:141] Setting up loss1/classifier_plantvillage_loss1/classifier_plantvillage_0_split
I0403 19:14:01.911334  8968 net.cpp:148] Top shape: 24 38 (912)
I0403 19:14:01.911350  8968 net.cpp:148] Top shape: 24 38 (912)
I0403 19:14:01.911365  8968 net.cpp:148] Top shape: 24 38 (912)
I0403 19:14:01.911378  8968 net.cpp:156] Memory required for data: 946203936
I0403 19:14:01.911392  8968 layer_factory.hpp:77] Creating layer inception_4b/1x1
I0403 19:14:01.911413  8968 net.cpp:91] Creating Layer inception_4b/1x1
I0403 19:14:01.911448  8968 net.cpp:425] inception_4b/1x1 <- inception_4a/output_inception_4a/output_0_split_1
I0403 19:14:01.911468  8968 net.cpp:399] inception_4b/1x1 -> inception_4b/1x1
I0403 19:14:01.913028  8968 net.cpp:141] Setting up inception_4b/1x1
I0403 19:14:01.913056  8968 net.cpp:148] Top shape: 24 160 14 14 (752640)
I0403 19:14:01.913071  8968 net.cpp:156] Memory required for data: 949214496
I0403 19:14:01.913090  8968 layer_factory.hpp:77] Creating layer inception_4b/relu_1x1
I0403 19:14:01.913112  8968 net.cpp:91] Creating Layer inception_4b/relu_1x1
I0403 19:14:01.913130  8968 net.cpp:425] inception_4b/relu_1x1 <- inception_4b/1x1
I0403 19:14:01.913146  8968 net.cpp:386] inception_4b/relu_1x1 -> inception_4b/1x1 (in-place)
I0403 19:14:01.913313  8968 net.cpp:141] Setting up inception_4b/relu_1x1
I0403 19:14:01.913339  8968 net.cpp:148] Top shape: 24 160 14 14 (752640)
I0403 19:14:01.913364  8968 net.cpp:156] Memory required for data: 952225056
I0403 19:14:01.913379  8968 layer_factory.hpp:77] Creating layer inception_4b/3x3_reduce
I0403 19:14:01.913403  8968 net.cpp:91] Creating Layer inception_4b/3x3_reduce
I0403 19:14:01.913420  8968 net.cpp:425] inception_4b/3x3_reduce <- inception_4a/output_inception_4a/output_0_split_2
I0403 19:14:01.913447  8968 net.cpp:399] inception_4b/3x3_reduce -> inception_4b/3x3_reduce
I0403 19:14:01.914728  8968 net.cpp:141] Setting up inception_4b/3x3_reduce
I0403 19:14:01.914758  8968 net.cpp:148] Top shape: 24 112 14 14 (526848)
I0403 19:14:01.914777  8968 net.cpp:156] Memory required for data: 954332448
I0403 19:14:01.914794  8968 layer_factory.hpp:77] Creating layer inception_4b/relu_3x3_reduce
I0403 19:14:01.914813  8968 net.cpp:91] Creating Layer inception_4b/relu_3x3_reduce
I0403 19:14:01.914829  8968 net.cpp:425] inception_4b/relu_3x3_reduce <- inception_4b/3x3_reduce
I0403 19:14:01.914845  8968 net.cpp:386] inception_4b/relu_3x3_reduce -> inception_4b/3x3_reduce (in-place)
I0403 19:14:01.915107  8968 net.cpp:141] Setting up inception_4b/relu_3x3_reduce
I0403 19:14:01.915135  8968 net.cpp:148] Top shape: 24 112 14 14 (526848)
I0403 19:14:01.915150  8968 net.cpp:156] Memory required for data: 956439840
I0403 19:14:01.915165  8968 layer_factory.hpp:77] Creating layer inception_4b/3x3
I0403 19:14:01.915186  8968 net.cpp:91] Creating Layer inception_4b/3x3
I0403 19:14:01.915205  8968 net.cpp:425] inception_4b/3x3 <- inception_4b/3x3_reduce
I0403 19:14:01.915223  8968 net.cpp:399] inception_4b/3x3 -> inception_4b/3x3
I0403 19:14:01.918054  8968 net.cpp:141] Setting up inception_4b/3x3
I0403 19:14:01.918083  8968 net.cpp:148] Top shape: 24 224 14 14 (1053696)
I0403 19:14:01.918098  8968 net.cpp:156] Memory required for data: 960654624
I0403 19:14:01.918117  8968 layer_factory.hpp:77] Creating layer inception_4b/relu_3x3
I0403 19:14:01.918133  8968 net.cpp:91] Creating Layer inception_4b/relu_3x3
I0403 19:14:01.918149  8968 net.cpp:425] inception_4b/relu_3x3 <- inception_4b/3x3
I0403 19:14:01.918169  8968 net.cpp:386] inception_4b/relu_3x3 -> inception_4b/3x3 (in-place)
I0403 19:14:01.918350  8968 net.cpp:141] Setting up inception_4b/relu_3x3
I0403 19:14:01.918375  8968 net.cpp:148] Top shape: 24 224 14 14 (1053696)
I0403 19:14:01.918390  8968 net.cpp:156] Memory required for data: 964869408
I0403 19:14:01.918403  8968 layer_factory.hpp:77] Creating layer inception_4b/5x5_reduce
I0403 19:14:01.918424  8968 net.cpp:91] Creating Layer inception_4b/5x5_reduce
I0403 19:14:01.918447  8968 net.cpp:425] inception_4b/5x5_reduce <- inception_4a/output_inception_4a/output_0_split_3
I0403 19:14:01.918469  8968 net.cpp:399] inception_4b/5x5_reduce -> inception_4b/5x5_reduce
I0403 19:14:01.919502  8968 net.cpp:141] Setting up inception_4b/5x5_reduce
I0403 19:14:01.919533  8968 net.cpp:148] Top shape: 24 24 14 14 (112896)
I0403 19:14:01.919548  8968 net.cpp:156] Memory required for data: 965320992
I0403 19:14:01.919566  8968 layer_factory.hpp:77] Creating layer inception_4b/relu_5x5_reduce
I0403 19:14:01.919584  8968 net.cpp:91] Creating Layer inception_4b/relu_5x5_reduce
I0403 19:14:01.919613  8968 net.cpp:425] inception_4b/relu_5x5_reduce <- inception_4b/5x5_reduce
I0403 19:14:01.919632  8968 net.cpp:386] inception_4b/relu_5x5_reduce -> inception_4b/5x5_reduce (in-place)
I0403 19:14:01.919812  8968 net.cpp:141] Setting up inception_4b/relu_5x5_reduce
I0403 19:14:01.919836  8968 net.cpp:148] Top shape: 24 24 14 14 (112896)
I0403 19:14:01.919852  8968 net.cpp:156] Memory required for data: 965772576
I0403 19:14:01.919867  8968 layer_factory.hpp:77] Creating layer inception_4b/5x5
I0403 19:14:01.919888  8968 net.cpp:91] Creating Layer inception_4b/5x5
I0403 19:14:01.919906  8968 net.cpp:425] inception_4b/5x5 <- inception_4b/5x5_reduce
I0403 19:14:01.919929  8968 net.cpp:399] inception_4b/5x5 -> inception_4b/5x5
I0403 19:14:01.921079  8968 net.cpp:141] Setting up inception_4b/5x5
I0403 19:14:01.921106  8968 net.cpp:148] Top shape: 24 64 14 14 (301056)
I0403 19:14:01.921121  8968 net.cpp:156] Memory required for data: 966976800
I0403 19:14:01.921139  8968 layer_factory.hpp:77] Creating layer inception_4b/relu_5x5
I0403 19:14:01.921159  8968 net.cpp:91] Creating Layer inception_4b/relu_5x5
I0403 19:14:01.921176  8968 net.cpp:425] inception_4b/relu_5x5 <- inception_4b/5x5
I0403 19:14:01.921195  8968 net.cpp:386] inception_4b/relu_5x5 -> inception_4b/5x5 (in-place)
I0403 19:14:01.921466  8968 net.cpp:141] Setting up inception_4b/relu_5x5
I0403 19:14:01.921491  8968 net.cpp:148] Top shape: 24 64 14 14 (301056)
I0403 19:14:01.921506  8968 net.cpp:156] Memory required for data: 968181024
I0403 19:14:01.921521  8968 layer_factory.hpp:77] Creating layer inception_4b/pool
I0403 19:14:01.921540  8968 net.cpp:91] Creating Layer inception_4b/pool
I0403 19:14:01.921558  8968 net.cpp:425] inception_4b/pool <- inception_4a/output_inception_4a/output_0_split_4
I0403 19:14:01.921576  8968 net.cpp:399] inception_4b/pool -> inception_4b/pool
I0403 19:14:01.921638  8968 net.cpp:141] Setting up inception_4b/pool
I0403 19:14:01.921661  8968 net.cpp:148] Top shape: 24 512 14 14 (2408448)
I0403 19:14:01.921676  8968 net.cpp:156] Memory required for data: 977814816
I0403 19:14:01.921690  8968 layer_factory.hpp:77] Creating layer inception_4b/pool_proj
I0403 19:14:01.921712  8968 net.cpp:91] Creating Layer inception_4b/pool_proj
I0403 19:14:01.921730  8968 net.cpp:425] inception_4b/pool_proj <- inception_4b/pool
I0403 19:14:01.921749  8968 net.cpp:399] inception_4b/pool_proj -> inception_4b/pool_proj
I0403 19:14:01.922891  8968 net.cpp:141] Setting up inception_4b/pool_proj
I0403 19:14:01.922919  8968 net.cpp:148] Top shape: 24 64 14 14 (301056)
I0403 19:14:01.922935  8968 net.cpp:156] Memory required for data: 979019040
I0403 19:14:01.922952  8968 layer_factory.hpp:77] Creating layer inception_4b/relu_pool_proj
I0403 19:14:01.922971  8968 net.cpp:91] Creating Layer inception_4b/relu_pool_proj
I0403 19:14:01.922987  8968 net.cpp:425] inception_4b/relu_pool_proj <- inception_4b/pool_proj
I0403 19:14:01.923005  8968 net.cpp:386] inception_4b/relu_pool_proj -> inception_4b/pool_proj (in-place)
I0403 19:14:01.923177  8968 net.cpp:141] Setting up inception_4b/relu_pool_proj
I0403 19:14:01.923200  8968 net.cpp:148] Top shape: 24 64 14 14 (301056)
I0403 19:14:01.923216  8968 net.cpp:156] Memory required for data: 980223264
I0403 19:14:01.923230  8968 layer_factory.hpp:77] Creating layer inception_4b/output
I0403 19:14:01.923246  8968 net.cpp:91] Creating Layer inception_4b/output
I0403 19:14:01.923261  8968 net.cpp:425] inception_4b/output <- inception_4b/1x1
I0403 19:14:01.923280  8968 net.cpp:425] inception_4b/output <- inception_4b/3x3
I0403 19:14:01.923295  8968 net.cpp:425] inception_4b/output <- inception_4b/5x5
I0403 19:14:01.923310  8968 net.cpp:425] inception_4b/output <- inception_4b/pool_proj
I0403 19:14:01.923328  8968 net.cpp:399] inception_4b/output -> inception_4b/output
I0403 19:14:01.923372  8968 net.cpp:141] Setting up inception_4b/output
I0403 19:14:01.923398  8968 net.cpp:148] Top shape: 24 512 14 14 (2408448)
I0403 19:14:01.923413  8968 net.cpp:156] Memory required for data: 989857056
I0403 19:14:01.923444  8968 layer_factory.hpp:77] Creating layer inception_4b/output_inception_4b/output_0_split
I0403 19:14:01.923463  8968 net.cpp:91] Creating Layer inception_4b/output_inception_4b/output_0_split
I0403 19:14:01.923480  8968 net.cpp:425] inception_4b/output_inception_4b/output_0_split <- inception_4b/output
I0403 19:14:01.923496  8968 net.cpp:399] inception_4b/output_inception_4b/output_0_split -> inception_4b/output_inception_4b/output_0_split_0
I0403 19:14:01.923514  8968 net.cpp:399] inception_4b/output_inception_4b/output_0_split -> inception_4b/output_inception_4b/output_0_split_1
I0403 19:14:01.923538  8968 net.cpp:399] inception_4b/output_inception_4b/output_0_split -> inception_4b/output_inception_4b/output_0_split_2
I0403 19:14:01.923562  8968 net.cpp:399] inception_4b/output_inception_4b/output_0_split -> inception_4b/output_inception_4b/output_0_split_3
I0403 19:14:01.923642  8968 net.cpp:141] Setting up inception_4b/output_inception_4b/output_0_split
I0403 19:14:01.923666  8968 net.cpp:148] Top shape: 24 512 14 14 (2408448)
I0403 19:14:01.923682  8968 net.cpp:148] Top shape: 24 512 14 14 (2408448)
I0403 19:14:01.923696  8968 net.cpp:148] Top shape: 24 512 14 14 (2408448)
I0403 19:14:01.923712  8968 net.cpp:148] Top shape: 24 512 14 14 (2408448)
I0403 19:14:01.923725  8968 net.cpp:156] Memory required for data: 1028392224
I0403 19:14:01.923739  8968 layer_factory.hpp:77] Creating layer inception_4c/1x1
I0403 19:14:01.923760  8968 net.cpp:91] Creating Layer inception_4c/1x1
I0403 19:14:01.923779  8968 net.cpp:425] inception_4c/1x1 <- inception_4b/output_inception_4b/output_0_split_0
I0403 19:14:01.923797  8968 net.cpp:399] inception_4c/1x1 -> inception_4c/1x1
I0403 19:14:01.925212  8968 net.cpp:141] Setting up inception_4c/1x1
I0403 19:14:01.925240  8968 net.cpp:148] Top shape: 24 128 14 14 (602112)
I0403 19:14:01.925256  8968 net.cpp:156] Memory required for data: 1030800672
I0403 19:14:01.925274  8968 layer_factory.hpp:77] Creating layer inception_4c/relu_1x1
I0403 19:14:01.925292  8968 net.cpp:91] Creating Layer inception_4c/relu_1x1
I0403 19:14:01.925307  8968 net.cpp:425] inception_4c/relu_1x1 <- inception_4c/1x1
I0403 19:14:01.925325  8968 net.cpp:386] inception_4c/relu_1x1 -> inception_4c/1x1 (in-place)
I0403 19:14:01.925504  8968 net.cpp:141] Setting up inception_4c/relu_1x1
I0403 19:14:01.925529  8968 net.cpp:148] Top shape: 24 128 14 14 (602112)
I0403 19:14:01.925544  8968 net.cpp:156] Memory required for data: 1033209120
I0403 19:14:01.925559  8968 layer_factory.hpp:77] Creating layer inception_4c/3x3_reduce
I0403 19:14:01.925580  8968 net.cpp:91] Creating Layer inception_4c/3x3_reduce
I0403 19:14:01.925598  8968 net.cpp:425] inception_4c/3x3_reduce <- inception_4b/output_inception_4b/output_0_split_1
I0403 19:14:01.925618  8968 net.cpp:399] inception_4c/3x3_reduce -> inception_4c/3x3_reduce
I0403 19:14:01.927453  8968 net.cpp:141] Setting up inception_4c/3x3_reduce
I0403 19:14:01.927481  8968 net.cpp:148] Top shape: 24 128 14 14 (602112)
I0403 19:14:01.927496  8968 net.cpp:156] Memory required for data: 1035617568
I0403 19:14:01.927515  8968 layer_factory.hpp:77] Creating layer inception_4c/relu_3x3_reduce
I0403 19:14:01.927534  8968 net.cpp:91] Creating Layer inception_4c/relu_3x3_reduce
I0403 19:14:01.927553  8968 net.cpp:425] inception_4c/relu_3x3_reduce <- inception_4c/3x3_reduce
I0403 19:14:01.927569  8968 net.cpp:386] inception_4c/relu_3x3_reduce -> inception_4c/3x3_reduce (in-place)
I0403 19:14:01.927842  8968 net.cpp:141] Setting up inception_4c/relu_3x3_reduce
I0403 19:14:01.927868  8968 net.cpp:148] Top shape: 24 128 14 14 (602112)
I0403 19:14:01.927883  8968 net.cpp:156] Memory required for data: 1038026016
I0403 19:14:01.927898  8968 layer_factory.hpp:77] Creating layer inception_4c/3x3
I0403 19:14:01.927919  8968 net.cpp:91] Creating Layer inception_4c/3x3
I0403 19:14:01.927937  8968 net.cpp:425] inception_4c/3x3 <- inception_4c/3x3_reduce
I0403 19:14:01.927959  8968 net.cpp:399] inception_4c/3x3 -> inception_4c/3x3
I0403 19:14:01.931334  8968 net.cpp:141] Setting up inception_4c/3x3
I0403 19:14:01.931372  8968 net.cpp:148] Top shape: 24 256 14 14 (1204224)
I0403 19:14:01.931390  8968 net.cpp:156] Memory required for data: 1042842912
I0403 19:14:01.931421  8968 layer_factory.hpp:77] Creating layer inception_4c/relu_3x3
I0403 19:14:01.931449  8968 net.cpp:91] Creating Layer inception_4c/relu_3x3
I0403 19:14:01.931466  8968 net.cpp:425] inception_4c/relu_3x3 <- inception_4c/3x3
I0403 19:14:01.931484  8968 net.cpp:386] inception_4c/relu_3x3 -> inception_4c/3x3 (in-place)
I0403 19:14:01.931655  8968 net.cpp:141] Setting up inception_4c/relu_3x3
I0403 19:14:01.931682  8968 net.cpp:148] Top shape: 24 256 14 14 (1204224)
I0403 19:14:01.931697  8968 net.cpp:156] Memory required for data: 1047659808
I0403 19:14:01.931712  8968 layer_factory.hpp:77] Creating layer inception_4c/5x5_reduce
I0403 19:14:01.931735  8968 net.cpp:91] Creating Layer inception_4c/5x5_reduce
I0403 19:14:01.931752  8968 net.cpp:425] inception_4c/5x5_reduce <- inception_4b/output_inception_4b/output_0_split_2
I0403 19:14:01.931772  8968 net.cpp:399] inception_4c/5x5_reduce -> inception_4c/5x5_reduce
I0403 19:14:01.932807  8968 net.cpp:141] Setting up inception_4c/5x5_reduce
I0403 19:14:01.932837  8968 net.cpp:148] Top shape: 24 24 14 14 (112896)
I0403 19:14:01.932854  8968 net.cpp:156] Memory required for data: 1048111392
I0403 19:14:01.932873  8968 layer_factory.hpp:77] Creating layer inception_4c/relu_5x5_reduce
I0403 19:14:01.932890  8968 net.cpp:91] Creating Layer inception_4c/relu_5x5_reduce
I0403 19:14:01.932907  8968 net.cpp:425] inception_4c/relu_5x5_reduce <- inception_4c/5x5_reduce
I0403 19:14:01.932924  8968 net.cpp:386] inception_4c/relu_5x5_reduce -> inception_4c/5x5_reduce (in-place)
I0403 19:14:01.933099  8968 net.cpp:141] Setting up inception_4c/relu_5x5_reduce
I0403 19:14:01.933125  8968 net.cpp:148] Top shape: 24 24 14 14 (112896)
I0403 19:14:01.933140  8968 net.cpp:156] Memory required for data: 1048562976
I0403 19:14:01.933154  8968 layer_factory.hpp:77] Creating layer inception_4c/5x5
I0403 19:14:01.933176  8968 net.cpp:91] Creating Layer inception_4c/5x5
I0403 19:14:01.933192  8968 net.cpp:425] inception_4c/5x5 <- inception_4c/5x5_reduce
I0403 19:14:01.933212  8968 net.cpp:399] inception_4c/5x5 -> inception_4c/5x5
I0403 19:14:01.934376  8968 net.cpp:141] Setting up inception_4c/5x5
I0403 19:14:01.934403  8968 net.cpp:148] Top shape: 24 64 14 14 (301056)
I0403 19:14:01.934418  8968 net.cpp:156] Memory required for data: 1049767200
I0403 19:14:01.934442  8968 layer_factory.hpp:77] Creating layer inception_4c/relu_5x5
I0403 19:14:01.934459  8968 net.cpp:91] Creating Layer inception_4c/relu_5x5
I0403 19:14:01.934476  8968 net.cpp:425] inception_4c/relu_5x5 <- inception_4c/5x5
I0403 19:14:01.934495  8968 net.cpp:386] inception_4c/relu_5x5 -> inception_4c/5x5 (in-place)
I0403 19:14:01.934770  8968 net.cpp:141] Setting up inception_4c/relu_5x5
I0403 19:14:01.934797  8968 net.cpp:148] Top shape: 24 64 14 14 (301056)
I0403 19:14:01.934811  8968 net.cpp:156] Memory required for data: 1050971424
I0403 19:14:01.934826  8968 layer_factory.hpp:77] Creating layer inception_4c/pool
I0403 19:14:01.934845  8968 net.cpp:91] Creating Layer inception_4c/pool
I0403 19:14:01.934861  8968 net.cpp:425] inception_4c/pool <- inception_4b/output_inception_4b/output_0_split_3
I0403 19:14:01.934881  8968 net.cpp:399] inception_4c/pool -> inception_4c/pool
I0403 19:14:01.934945  8968 net.cpp:141] Setting up inception_4c/pool
I0403 19:14:01.934969  8968 net.cpp:148] Top shape: 24 512 14 14 (2408448)
I0403 19:14:01.934984  8968 net.cpp:156] Memory required for data: 1060605216
I0403 19:14:01.934998  8968 layer_factory.hpp:77] Creating layer inception_4c/pool_proj
I0403 19:14:01.935021  8968 net.cpp:91] Creating Layer inception_4c/pool_proj
I0403 19:14:01.935039  8968 net.cpp:425] inception_4c/pool_proj <- inception_4c/pool
I0403 19:14:01.935057  8968 net.cpp:399] inception_4c/pool_proj -> inception_4c/pool_proj
I0403 19:14:01.936206  8968 net.cpp:141] Setting up inception_4c/pool_proj
I0403 19:14:01.936234  8968 net.cpp:148] Top shape: 24 64 14 14 (301056)
I0403 19:14:01.936262  8968 net.cpp:156] Memory required for data: 1061809440
I0403 19:14:01.936281  8968 layer_factory.hpp:77] Creating layer inception_4c/relu_pool_proj
I0403 19:14:01.936300  8968 net.cpp:91] Creating Layer inception_4c/relu_pool_proj
I0403 19:14:01.936318  8968 net.cpp:425] inception_4c/relu_pool_proj <- inception_4c/pool_proj
I0403 19:14:01.936336  8968 net.cpp:386] inception_4c/relu_pool_proj -> inception_4c/pool_proj (in-place)
I0403 19:14:01.936513  8968 net.cpp:141] Setting up inception_4c/relu_pool_proj
I0403 19:14:01.936538  8968 net.cpp:148] Top shape: 24 64 14 14 (301056)
I0403 19:14:01.936553  8968 net.cpp:156] Memory required for data: 1063013664
I0403 19:14:01.936566  8968 layer_factory.hpp:77] Creating layer inception_4c/output
I0403 19:14:01.936583  8968 net.cpp:91] Creating Layer inception_4c/output
I0403 19:14:01.936599  8968 net.cpp:425] inception_4c/output <- inception_4c/1x1
I0403 19:14:01.936614  8968 net.cpp:425] inception_4c/output <- inception_4c/3x3
I0403 19:14:01.936630  8968 net.cpp:425] inception_4c/output <- inception_4c/5x5
I0403 19:14:01.936646  8968 net.cpp:425] inception_4c/output <- inception_4c/pool_proj
I0403 19:14:01.936666  8968 net.cpp:399] inception_4c/output -> inception_4c/output
I0403 19:14:01.936712  8968 net.cpp:141] Setting up inception_4c/output
I0403 19:14:01.936738  8968 net.cpp:148] Top shape: 24 512 14 14 (2408448)
I0403 19:14:01.936753  8968 net.cpp:156] Memory required for data: 1072647456
I0403 19:14:01.936769  8968 layer_factory.hpp:77] Creating layer inception_4c/output_inception_4c/output_0_split
I0403 19:14:01.936784  8968 net.cpp:91] Creating Layer inception_4c/output_inception_4c/output_0_split
I0403 19:14:01.936800  8968 net.cpp:425] inception_4c/output_inception_4c/output_0_split <- inception_4c/output
I0403 19:14:01.936816  8968 net.cpp:399] inception_4c/output_inception_4c/output_0_split -> inception_4c/output_inception_4c/output_0_split_0
I0403 19:14:01.936836  8968 net.cpp:399] inception_4c/output_inception_4c/output_0_split -> inception_4c/output_inception_4c/output_0_split_1
I0403 19:14:01.936857  8968 net.cpp:399] inception_4c/output_inception_4c/output_0_split -> inception_4c/output_inception_4c/output_0_split_2
I0403 19:14:01.936880  8968 net.cpp:399] inception_4c/output_inception_4c/output_0_split -> inception_4c/output_inception_4c/output_0_split_3
I0403 19:14:01.936966  8968 net.cpp:141] Setting up inception_4c/output_inception_4c/output_0_split
I0403 19:14:01.936990  8968 net.cpp:148] Top shape: 24 512 14 14 (2408448)
I0403 19:14:01.937006  8968 net.cpp:148] Top shape: 24 512 14 14 (2408448)
I0403 19:14:01.937021  8968 net.cpp:148] Top shape: 24 512 14 14 (2408448)
I0403 19:14:01.937036  8968 net.cpp:148] Top shape: 24 512 14 14 (2408448)
I0403 19:14:01.937050  8968 net.cpp:156] Memory required for data: 1111182624
I0403 19:14:01.937064  8968 layer_factory.hpp:77] Creating layer inception_4d/1x1
I0403 19:14:01.937086  8968 net.cpp:91] Creating Layer inception_4d/1x1
I0403 19:14:01.937104  8968 net.cpp:425] inception_4d/1x1 <- inception_4c/output_inception_4c/output_0_split_0
I0403 19:14:01.937124  8968 net.cpp:399] inception_4d/1x1 -> inception_4d/1x1
I0403 19:14:01.938422  8968 net.cpp:141] Setting up inception_4d/1x1
I0403 19:14:01.938453  8968 net.cpp:148] Top shape: 24 112 14 14 (526848)
I0403 19:14:01.938468  8968 net.cpp:156] Memory required for data: 1113290016
I0403 19:14:01.938487  8968 layer_factory.hpp:77] Creating layer inception_4d/relu_1x1
I0403 19:14:01.938506  8968 net.cpp:91] Creating Layer inception_4d/relu_1x1
I0403 19:14:01.938524  8968 net.cpp:425] inception_4d/relu_1x1 <- inception_4d/1x1
I0403 19:14:01.938541  8968 net.cpp:386] inception_4d/relu_1x1 -> inception_4d/1x1 (in-place)
I0403 19:14:01.938716  8968 net.cpp:141] Setting up inception_4d/relu_1x1
I0403 19:14:01.938743  8968 net.cpp:148] Top shape: 24 112 14 14 (526848)
I0403 19:14:01.938757  8968 net.cpp:156] Memory required for data: 1115397408
I0403 19:14:01.938771  8968 layer_factory.hpp:77] Creating layer inception_4d/3x3_reduce
I0403 19:14:01.938804  8968 net.cpp:91] Creating Layer inception_4d/3x3_reduce
I0403 19:14:01.938822  8968 net.cpp:425] inception_4d/3x3_reduce <- inception_4c/output_inception_4c/output_0_split_1
I0403 19:14:01.938844  8968 net.cpp:399] inception_4d/3x3_reduce -> inception_4d/3x3_reduce
I0403 19:14:01.940265  8968 net.cpp:141] Setting up inception_4d/3x3_reduce
I0403 19:14:01.940292  8968 net.cpp:148] Top shape: 24 144 14 14 (677376)
I0403 19:14:01.940309  8968 net.cpp:156] Memory required for data: 1118106912
I0403 19:14:01.940325  8968 layer_factory.hpp:77] Creating layer inception_4d/relu_3x3_reduce
I0403 19:14:01.940343  8968 net.cpp:91] Creating Layer inception_4d/relu_3x3_reduce
I0403 19:14:01.940358  8968 net.cpp:425] inception_4d/relu_3x3_reduce <- inception_4d/3x3_reduce
I0403 19:14:01.940378  8968 net.cpp:386] inception_4d/relu_3x3_reduce -> inception_4d/3x3_reduce (in-place)
I0403 19:14:01.940661  8968 net.cpp:141] Setting up inception_4d/relu_3x3_reduce
I0403 19:14:01.940687  8968 net.cpp:148] Top shape: 24 144 14 14 (677376)
I0403 19:14:01.940702  8968 net.cpp:156] Memory required for data: 1120816416
I0403 19:14:01.940716  8968 layer_factory.hpp:77] Creating layer inception_4d/3x3
I0403 19:14:01.940738  8968 net.cpp:91] Creating Layer inception_4d/3x3
I0403 19:14:01.940757  8968 net.cpp:425] inception_4d/3x3 <- inception_4d/3x3_reduce
I0403 19:14:01.940778  8968 net.cpp:399] inception_4d/3x3 -> inception_4d/3x3
I0403 19:14:01.944857  8968 net.cpp:141] Setting up inception_4d/3x3
I0403 19:14:01.944885  8968 net.cpp:148] Top shape: 24 288 14 14 (1354752)
I0403 19:14:01.944900  8968 net.cpp:156] Memory required for data: 1126235424
I0403 19:14:01.944918  8968 layer_factory.hpp:77] Creating layer inception_4d/relu_3x3
I0403 19:14:01.944938  8968 net.cpp:91] Creating Layer inception_4d/relu_3x3
I0403 19:14:01.944957  8968 net.cpp:425] inception_4d/relu_3x3 <- inception_4d/3x3
I0403 19:14:01.944974  8968 net.cpp:386] inception_4d/relu_3x3 -> inception_4d/3x3 (in-place)
I0403 19:14:01.945147  8968 net.cpp:141] Setting up inception_4d/relu_3x3
I0403 19:14:01.945173  8968 net.cpp:148] Top shape: 24 288 14 14 (1354752)
I0403 19:14:01.945188  8968 net.cpp:156] Memory required for data: 1131654432
I0403 19:14:01.945201  8968 layer_factory.hpp:77] Creating layer inception_4d/5x5_reduce
I0403 19:14:01.945226  8968 net.cpp:91] Creating Layer inception_4d/5x5_reduce
I0403 19:14:01.945245  8968 net.cpp:425] inception_4d/5x5_reduce <- inception_4c/output_inception_4c/output_0_split_2
I0403 19:14:01.945263  8968 net.cpp:399] inception_4d/5x5_reduce -> inception_4d/5x5_reduce
I0403 19:14:01.946342  8968 net.cpp:141] Setting up inception_4d/5x5_reduce
I0403 19:14:01.946370  8968 net.cpp:148] Top shape: 24 32 14 14 (150528)
I0403 19:14:01.946385  8968 net.cpp:156] Memory required for data: 1132256544
I0403 19:14:01.946403  8968 layer_factory.hpp:77] Creating layer inception_4d/relu_5x5_reduce
I0403 19:14:01.946424  8968 net.cpp:91] Creating Layer inception_4d/relu_5x5_reduce
I0403 19:14:01.946446  8968 net.cpp:425] inception_4d/relu_5x5_reduce <- inception_4d/5x5_reduce
I0403 19:14:01.946463  8968 net.cpp:386] inception_4d/relu_5x5_reduce -> inception_4d/5x5_reduce (in-place)
I0403 19:14:01.946636  8968 net.cpp:141] Setting up inception_4d/relu_5x5_reduce
I0403 19:14:01.946665  8968 net.cpp:148] Top shape: 24 32 14 14 (150528)
I0403 19:14:01.946681  8968 net.cpp:156] Memory required for data: 1132858656
I0403 19:14:01.946696  8968 layer_factory.hpp:77] Creating layer inception_4d/5x5
I0403 19:14:01.946717  8968 net.cpp:91] Creating Layer inception_4d/5x5
I0403 19:14:01.946734  8968 net.cpp:425] inception_4d/5x5 <- inception_4d/5x5_reduce
I0403 19:14:01.946753  8968 net.cpp:399] inception_4d/5x5 -> inception_4d/5x5
I0403 19:14:01.948127  8968 net.cpp:141] Setting up inception_4d/5x5
I0403 19:14:01.948158  8968 net.cpp:148] Top shape: 24 64 14 14 (301056)
I0403 19:14:01.948173  8968 net.cpp:156] Memory required for data: 1134062880
I0403 19:14:01.948194  8968 layer_factory.hpp:77] Creating layer inception_4d/relu_5x5
I0403 19:14:01.948225  8968 net.cpp:91] Creating Layer inception_4d/relu_5x5
I0403 19:14:01.948242  8968 net.cpp:425] inception_4d/relu_5x5 <- inception_4d/5x5
I0403 19:14:01.948259  8968 net.cpp:386] inception_4d/relu_5x5 -> inception_4d/5x5 (in-place)
I0403 19:14:01.948545  8968 net.cpp:141] Setting up inception_4d/relu_5x5
I0403 19:14:01.948573  8968 net.cpp:148] Top shape: 24 64 14 14 (301056)
I0403 19:14:01.948590  8968 net.cpp:156] Memory required for data: 1135267104
I0403 19:14:01.948604  8968 layer_factory.hpp:77] Creating layer inception_4d/pool
I0403 19:14:01.948621  8968 net.cpp:91] Creating Layer inception_4d/pool
I0403 19:14:01.948638  8968 net.cpp:425] inception_4d/pool <- inception_4c/output_inception_4c/output_0_split_3
I0403 19:14:01.948659  8968 net.cpp:399] inception_4d/pool -> inception_4d/pool
I0403 19:14:01.948724  8968 net.cpp:141] Setting up inception_4d/pool
I0403 19:14:01.948747  8968 net.cpp:148] Top shape: 24 512 14 14 (2408448)
I0403 19:14:01.948761  8968 net.cpp:156] Memory required for data: 1144900896
I0403 19:14:01.948776  8968 layer_factory.hpp:77] Creating layer inception_4d/pool_proj
I0403 19:14:01.948799  8968 net.cpp:91] Creating Layer inception_4d/pool_proj
I0403 19:14:01.948817  8968 net.cpp:425] inception_4d/pool_proj <- inception_4d/pool
I0403 19:14:01.948837  8968 net.cpp:399] inception_4d/pool_proj -> inception_4d/pool_proj
I0403 19:14:01.950489  8968 net.cpp:141] Setting up inception_4d/pool_proj
I0403 19:14:01.950518  8968 net.cpp:148] Top shape: 24 64 14 14 (301056)
I0403 19:14:01.950534  8968 net.cpp:156] Memory required for data: 1146105120
I0403 19:14:01.950552  8968 layer_factory.hpp:77] Creating layer inception_4d/relu_pool_proj
I0403 19:14:01.950572  8968 net.cpp:91] Creating Layer inception_4d/relu_pool_proj
I0403 19:14:01.950590  8968 net.cpp:425] inception_4d/relu_pool_proj <- inception_4d/pool_proj
I0403 19:14:01.950608  8968 net.cpp:386] inception_4d/relu_pool_proj -> inception_4d/pool_proj (in-place)
I0403 19:14:01.950783  8968 net.cpp:141] Setting up inception_4d/relu_pool_proj
I0403 19:14:01.950809  8968 net.cpp:148] Top shape: 24 64 14 14 (301056)
I0403 19:14:01.950824  8968 net.cpp:156] Memory required for data: 1147309344
I0403 19:14:01.950839  8968 layer_factory.hpp:77] Creating layer inception_4d/output
I0403 19:14:01.950856  8968 net.cpp:91] Creating Layer inception_4d/output
I0403 19:14:01.950871  8968 net.cpp:425] inception_4d/output <- inception_4d/1x1
I0403 19:14:01.950888  8968 net.cpp:425] inception_4d/output <- inception_4d/3x3
I0403 19:14:01.950904  8968 net.cpp:425] inception_4d/output <- inception_4d/5x5
I0403 19:14:01.950919  8968 net.cpp:425] inception_4d/output <- inception_4d/pool_proj
I0403 19:14:01.950935  8968 net.cpp:399] inception_4d/output -> inception_4d/output
I0403 19:14:01.950983  8968 net.cpp:141] Setting up inception_4d/output
I0403 19:14:01.951006  8968 net.cpp:148] Top shape: 24 528 14 14 (2483712)
I0403 19:14:01.951020  8968 net.cpp:156] Memory required for data: 1157244192
I0403 19:14:01.951035  8968 layer_factory.hpp:77] Creating layer inception_4d/output_inception_4d/output_0_split
I0403 19:14:01.951052  8968 net.cpp:91] Creating Layer inception_4d/output_inception_4d/output_0_split
I0403 19:14:01.951068  8968 net.cpp:425] inception_4d/output_inception_4d/output_0_split <- inception_4d/output
I0403 19:14:01.951088  8968 net.cpp:399] inception_4d/output_inception_4d/output_0_split -> inception_4d/output_inception_4d/output_0_split_0
I0403 19:14:01.951110  8968 net.cpp:399] inception_4d/output_inception_4d/output_0_split -> inception_4d/output_inception_4d/output_0_split_1
I0403 19:14:01.951131  8968 net.cpp:399] inception_4d/output_inception_4d/output_0_split -> inception_4d/output_inception_4d/output_0_split_2
I0403 19:14:01.951158  8968 net.cpp:399] inception_4d/output_inception_4d/output_0_split -> inception_4d/output_inception_4d/output_0_split_3
I0403 19:14:01.951176  8968 net.cpp:399] inception_4d/output_inception_4d/output_0_split -> inception_4d/output_inception_4d/output_0_split_4
I0403 19:14:01.951273  8968 net.cpp:141] Setting up inception_4d/output_inception_4d/output_0_split
I0403 19:14:01.951308  8968 net.cpp:148] Top shape: 24 528 14 14 (2483712)
I0403 19:14:01.951325  8968 net.cpp:148] Top shape: 24 528 14 14 (2483712)
I0403 19:14:01.951341  8968 net.cpp:148] Top shape: 24 528 14 14 (2483712)
I0403 19:14:01.951357  8968 net.cpp:148] Top shape: 24 528 14 14 (2483712)
I0403 19:14:01.951372  8968 net.cpp:148] Top shape: 24 528 14 14 (2483712)
I0403 19:14:01.951385  8968 net.cpp:156] Memory required for data: 1206918432
I0403 19:14:01.951400  8968 layer_factory.hpp:77] Creating layer loss2/ave_pool
I0403 19:14:01.951417  8968 net.cpp:91] Creating Layer loss2/ave_pool
I0403 19:14:01.951438  8968 net.cpp:425] loss2/ave_pool <- inception_4d/output_inception_4d/output_0_split_0
I0403 19:14:01.951462  8968 net.cpp:399] loss2/ave_pool -> loss2/ave_pool
I0403 19:14:01.951761  8968 net.cpp:141] Setting up loss2/ave_pool
I0403 19:14:01.951786  8968 net.cpp:148] Top shape: 24 528 4 4 (202752)
I0403 19:14:01.951802  8968 net.cpp:156] Memory required for data: 1207729440
I0403 19:14:01.951815  8968 layer_factory.hpp:77] Creating layer loss2/conv
I0403 19:14:01.951838  8968 net.cpp:91] Creating Layer loss2/conv
I0403 19:14:01.951854  8968 net.cpp:425] loss2/conv <- loss2/ave_pool
I0403 19:14:01.951876  8968 net.cpp:399] loss2/conv -> loss2/conv
I0403 19:14:01.953660  8968 net.cpp:141] Setting up loss2/conv
I0403 19:14:01.953691  8968 net.cpp:148] Top shape: 24 128 4 4 (49152)
I0403 19:14:01.953706  8968 net.cpp:156] Memory required for data: 1207926048
I0403 19:14:01.953723  8968 layer_factory.hpp:77] Creating layer loss2/relu_conv
I0403 19:14:01.953742  8968 net.cpp:91] Creating Layer loss2/relu_conv
I0403 19:14:01.953758  8968 net.cpp:425] loss2/relu_conv <- loss2/conv
I0403 19:14:01.953778  8968 net.cpp:386] loss2/relu_conv -> loss2/conv (in-place)
I0403 19:14:01.954047  8968 net.cpp:141] Setting up loss2/relu_conv
I0403 19:14:01.954076  8968 net.cpp:148] Top shape: 24 128 4 4 (49152)
I0403 19:14:01.954092  8968 net.cpp:156] Memory required for data: 1208122656
I0403 19:14:01.954107  8968 layer_factory.hpp:77] Creating layer loss2/fc
I0403 19:14:01.954124  8968 net.cpp:91] Creating Layer loss2/fc
I0403 19:14:01.954140  8968 net.cpp:425] loss2/fc <- loss2/conv
I0403 19:14:01.954164  8968 net.cpp:399] loss2/fc -> loss2/fc
I0403 19:14:01.970818  8968 net.cpp:141] Setting up loss2/fc
I0403 19:14:01.970849  8968 net.cpp:148] Top shape: 24 1024 (24576)
I0403 19:14:01.970865  8968 net.cpp:156] Memory required for data: 1208220960
I0403 19:14:01.970882  8968 layer_factory.hpp:77] Creating layer loss2/relu_fc
I0403 19:14:01.970902  8968 net.cpp:91] Creating Layer loss2/relu_fc
I0403 19:14:01.970919  8968 net.cpp:425] loss2/relu_fc <- loss2/fc
I0403 19:14:01.970937  8968 net.cpp:386] loss2/relu_fc -> loss2/fc (in-place)
I0403 19:14:01.971221  8968 net.cpp:141] Setting up loss2/relu_fc
I0403 19:14:01.971247  8968 net.cpp:148] Top shape: 24 1024 (24576)
I0403 19:14:01.971262  8968 net.cpp:156] Memory required for data: 1208319264
I0403 19:14:01.971276  8968 layer_factory.hpp:77] Creating layer loss2/drop_fc
I0403 19:14:01.971295  8968 net.cpp:91] Creating Layer loss2/drop_fc
I0403 19:14:01.971314  8968 net.cpp:425] loss2/drop_fc <- loss2/fc
I0403 19:14:01.971333  8968 net.cpp:386] loss2/drop_fc -> loss2/fc (in-place)
I0403 19:14:01.971381  8968 net.cpp:141] Setting up loss2/drop_fc
I0403 19:14:01.971405  8968 net.cpp:148] Top shape: 24 1024 (24576)
I0403 19:14:01.971418  8968 net.cpp:156] Memory required for data: 1208417568
I0403 19:14:01.971438  8968 layer_factory.hpp:77] Creating layer loss2/classifier_plantvillage
I0403 19:14:01.971457  8968 net.cpp:91] Creating Layer loss2/classifier_plantvillage
I0403 19:14:01.971473  8968 net.cpp:425] loss2/classifier_plantvillage <- loss2/fc
I0403 19:14:01.971496  8968 net.cpp:399] loss2/classifier_plantvillage -> loss2/classifier_plantvillage
I0403 19:14:01.971879  8968 net.cpp:141] Setting up loss2/classifier_plantvillage
I0403 19:14:01.971904  8968 net.cpp:148] Top shape: 24 38 (912)
I0403 19:14:01.971918  8968 net.cpp:156] Memory required for data: 1208421216
I0403 19:14:01.971951  8968 layer_factory.hpp:77] Creating layer loss2/classifier_plantvillage_loss2/classifier_plantvillage_0_split
I0403 19:14:01.971971  8968 net.cpp:91] Creating Layer loss2/classifier_plantvillage_loss2/classifier_plantvillage_0_split
I0403 19:14:01.971987  8968 net.cpp:425] loss2/classifier_plantvillage_loss2/classifier_plantvillage_0_split <- loss2/classifier_plantvillage
I0403 19:14:01.972007  8968 net.cpp:399] loss2/classifier_plantvillage_loss2/classifier_plantvillage_0_split -> loss2/classifier_plantvillage_loss2/classifier_plantvillage_0_split_0
I0403 19:14:01.972029  8968 net.cpp:399] loss2/classifier_plantvillage_loss2/classifier_plantvillage_0_split -> loss2/classifier_plantvillage_loss2/classifier_plantvillage_0_split_1
I0403 19:14:01.972049  8968 net.cpp:399] loss2/classifier_plantvillage_loss2/classifier_plantvillage_0_split -> loss2/classifier_plantvillage_loss2/classifier_plantvillage_0_split_2
I0403 19:14:01.972123  8968 net.cpp:141] Setting up loss2/classifier_plantvillage_loss2/classifier_plantvillage_0_split
I0403 19:14:01.972149  8968 net.cpp:148] Top shape: 24 38 (912)
I0403 19:14:01.972165  8968 net.cpp:148] Top shape: 24 38 (912)
I0403 19:14:01.972183  8968 net.cpp:148] Top shape: 24 38 (912)
I0403 19:14:01.972198  8968 net.cpp:156] Memory required for data: 1208432160
I0403 19:14:01.972211  8968 layer_factory.hpp:77] Creating layer inception_4e/1x1
I0403 19:14:01.972230  8968 net.cpp:91] Creating Layer inception_4e/1x1
I0403 19:14:01.972247  8968 net.cpp:425] inception_4e/1x1 <- inception_4d/output_inception_4d/output_0_split_1
I0403 19:14:01.972265  8968 net.cpp:399] inception_4e/1x1 -> inception_4e/1x1
I0403 19:14:01.974035  8968 net.cpp:141] Setting up inception_4e/1x1
I0403 19:14:01.974063  8968 net.cpp:148] Top shape: 24 256 14 14 (1204224)
I0403 19:14:01.974079  8968 net.cpp:156] Memory required for data: 1213249056
I0403 19:14:01.974097  8968 layer_factory.hpp:77] Creating layer inception_4e/relu_1x1
I0403 19:14:01.974115  8968 net.cpp:91] Creating Layer inception_4e/relu_1x1
I0403 19:14:01.974133  8968 net.cpp:425] inception_4e/relu_1x1 <- inception_4e/1x1
I0403 19:14:01.974151  8968 net.cpp:386] inception_4e/relu_1x1 -> inception_4e/1x1 (in-place)
I0403 19:14:01.974442  8968 net.cpp:141] Setting up inception_4e/relu_1x1
I0403 19:14:01.974468  8968 net.cpp:148] Top shape: 24 256 14 14 (1204224)
I0403 19:14:01.974483  8968 net.cpp:156] Memory required for data: 1218065952
I0403 19:14:01.974499  8968 layer_factory.hpp:77] Creating layer inception_4e/3x3_reduce
I0403 19:14:01.974520  8968 net.cpp:91] Creating Layer inception_4e/3x3_reduce
I0403 19:14:01.974539  8968 net.cpp:425] inception_4e/3x3_reduce <- inception_4d/output_inception_4d/output_0_split_2
I0403 19:14:01.974560  8968 net.cpp:399] inception_4e/3x3_reduce -> inception_4e/3x3_reduce
I0403 19:14:01.976552  8968 net.cpp:141] Setting up inception_4e/3x3_reduce
I0403 19:14:01.976583  8968 net.cpp:148] Top shape: 24 160 14 14 (752640)
I0403 19:14:01.976599  8968 net.cpp:156] Memory required for data: 1221076512
I0403 19:14:01.976618  8968 layer_factory.hpp:77] Creating layer inception_4e/relu_3x3_reduce
I0403 19:14:01.976636  8968 net.cpp:91] Creating Layer inception_4e/relu_3x3_reduce
I0403 19:14:01.976654  8968 net.cpp:425] inception_4e/relu_3x3_reduce <- inception_4e/3x3_reduce
I0403 19:14:01.976672  8968 net.cpp:386] inception_4e/relu_3x3_reduce -> inception_4e/3x3_reduce (in-place)
I0403 19:14:01.976848  8968 net.cpp:141] Setting up inception_4e/relu_3x3_reduce
I0403 19:14:01.976873  8968 net.cpp:148] Top shape: 24 160 14 14 (752640)
I0403 19:14:01.976887  8968 net.cpp:156] Memory required for data: 1224087072
I0403 19:14:01.976902  8968 layer_factory.hpp:77] Creating layer inception_4e/3x3
I0403 19:14:01.976923  8968 net.cpp:91] Creating Layer inception_4e/3x3
I0403 19:14:01.976941  8968 net.cpp:425] inception_4e/3x3 <- inception_4e/3x3_reduce
I0403 19:14:01.976963  8968 net.cpp:399] inception_4e/3x3 -> inception_4e/3x3
I0403 19:14:01.981674  8968 net.cpp:141] Setting up inception_4e/3x3
I0403 19:14:01.981714  8968 net.cpp:148] Top shape: 24 320 14 14 (1505280)
I0403 19:14:01.981729  8968 net.cpp:156] Memory required for data: 1230108192
I0403 19:14:01.981747  8968 layer_factory.hpp:77] Creating layer inception_4e/relu_3x3
I0403 19:14:01.981766  8968 net.cpp:91] Creating Layer inception_4e/relu_3x3
I0403 19:14:01.981782  8968 net.cpp:425] inception_4e/relu_3x3 <- inception_4e/3x3
I0403 19:14:01.981802  8968 net.cpp:386] inception_4e/relu_3x3 -> inception_4e/3x3 (in-place)
I0403 19:14:01.982089  8968 net.cpp:141] Setting up inception_4e/relu_3x3
I0403 19:14:01.982115  8968 net.cpp:148] Top shape: 24 320 14 14 (1505280)
I0403 19:14:01.982130  8968 net.cpp:156] Memory required for data: 1236129312
I0403 19:14:01.982144  8968 layer_factory.hpp:77] Creating layer inception_4e/5x5_reduce
I0403 19:14:01.982173  8968 net.cpp:91] Creating Layer inception_4e/5x5_reduce
I0403 19:14:01.982194  8968 net.cpp:425] inception_4e/5x5_reduce <- inception_4d/output_inception_4d/output_0_split_3
I0403 19:14:01.982215  8968 net.cpp:399] inception_4e/5x5_reduce -> inception_4e/5x5_reduce
I0403 19:14:01.983233  8968 net.cpp:141] Setting up inception_4e/5x5_reduce
I0403 19:14:01.983263  8968 net.cpp:148] Top shape: 24 32 14 14 (150528)
I0403 19:14:01.983280  8968 net.cpp:156] Memory required for data: 1236731424
I0403 19:14:01.983297  8968 layer_factory.hpp:77] Creating layer inception_4e/relu_5x5_reduce
I0403 19:14:01.983316  8968 net.cpp:91] Creating Layer inception_4e/relu_5x5_reduce
I0403 19:14:01.983332  8968 net.cpp:425] inception_4e/relu_5x5_reduce <- inception_4e/5x5_reduce
I0403 19:14:01.983350  8968 net.cpp:386] inception_4e/relu_5x5_reduce -> inception_4e/5x5_reduce (in-place)
I0403 19:14:01.983638  8968 net.cpp:141] Setting up inception_4e/relu_5x5_reduce
I0403 19:14:01.983666  8968 net.cpp:148] Top shape: 24 32 14 14 (150528)
I0403 19:14:01.983683  8968 net.cpp:156] Memory required for data: 1237333536
I0403 19:14:01.983698  8968 layer_factory.hpp:77] Creating layer inception_4e/5x5
I0403 19:14:01.983737  8968 net.cpp:91] Creating Layer inception_4e/5x5
I0403 19:14:01.983757  8968 net.cpp:425] inception_4e/5x5 <- inception_4e/5x5_reduce
I0403 19:14:01.983775  8968 net.cpp:399] inception_4e/5x5 -> inception_4e/5x5
I0403 19:14:01.985518  8968 net.cpp:141] Setting up inception_4e/5x5
I0403 19:14:01.985545  8968 net.cpp:148] Top shape: 24 128 14 14 (602112)
I0403 19:14:01.985560  8968 net.cpp:156] Memory required for data: 1239741984
I0403 19:14:01.985579  8968 layer_factory.hpp:77] Creating layer inception_4e/relu_5x5
I0403 19:14:01.985599  8968 net.cpp:91] Creating Layer inception_4e/relu_5x5
I0403 19:14:01.985616  8968 net.cpp:425] inception_4e/relu_5x5 <- inception_4e/5x5
I0403 19:14:01.985633  8968 net.cpp:386] inception_4e/relu_5x5 -> inception_4e/5x5 (in-place)
I0403 19:14:01.985821  8968 net.cpp:141] Setting up inception_4e/relu_5x5
I0403 19:14:01.985848  8968 net.cpp:148] Top shape: 24 128 14 14 (602112)
I0403 19:14:01.985863  8968 net.cpp:156] Memory required for data: 1242150432
I0403 19:14:01.985878  8968 layer_factory.hpp:77] Creating layer inception_4e/pool
I0403 19:14:01.985896  8968 net.cpp:91] Creating Layer inception_4e/pool
I0403 19:14:01.985913  8968 net.cpp:425] inception_4e/pool <- inception_4d/output_inception_4d/output_0_split_4
I0403 19:14:01.985932  8968 net.cpp:399] inception_4e/pool -> inception_4e/pool
I0403 19:14:01.985999  8968 net.cpp:141] Setting up inception_4e/pool
I0403 19:14:01.986023  8968 net.cpp:148] Top shape: 24 528 14 14 (2483712)
I0403 19:14:01.986038  8968 net.cpp:156] Memory required for data: 1252085280
I0403 19:14:01.986053  8968 layer_factory.hpp:77] Creating layer inception_4e/pool_proj
I0403 19:14:01.986074  8968 net.cpp:91] Creating Layer inception_4e/pool_proj
I0403 19:14:01.986093  8968 net.cpp:425] inception_4e/pool_proj <- inception_4e/pool
I0403 19:14:01.986114  8968 net.cpp:399] inception_4e/pool_proj -> inception_4e/pool_proj
I0403 19:14:01.987550  8968 net.cpp:141] Setting up inception_4e/pool_proj
I0403 19:14:01.987576  8968 net.cpp:148] Top shape: 24 128 14 14 (602112)
I0403 19:14:01.987606  8968 net.cpp:156] Memory required for data: 1254493728
I0403 19:14:01.987624  8968 layer_factory.hpp:77] Creating layer inception_4e/relu_pool_proj
I0403 19:14:01.987644  8968 net.cpp:91] Creating Layer inception_4e/relu_pool_proj
I0403 19:14:01.987661  8968 net.cpp:425] inception_4e/relu_pool_proj <- inception_4e/pool_proj
I0403 19:14:01.987679  8968 net.cpp:386] inception_4e/relu_pool_proj -> inception_4e/pool_proj (in-place)
I0403 19:14:01.987967  8968 net.cpp:141] Setting up inception_4e/relu_pool_proj
I0403 19:14:01.987993  8968 net.cpp:148] Top shape: 24 128 14 14 (602112)
I0403 19:14:01.988009  8968 net.cpp:156] Memory required for data: 1256902176
I0403 19:14:01.988023  8968 layer_factory.hpp:77] Creating layer inception_4e/output
I0403 19:14:01.988042  8968 net.cpp:91] Creating Layer inception_4e/output
I0403 19:14:01.988059  8968 net.cpp:425] inception_4e/output <- inception_4e/1x1
I0403 19:14:01.988076  8968 net.cpp:425] inception_4e/output <- inception_4e/3x3
I0403 19:14:01.988092  8968 net.cpp:425] inception_4e/output <- inception_4e/5x5
I0403 19:14:01.988107  8968 net.cpp:425] inception_4e/output <- inception_4e/pool_proj
I0403 19:14:01.988122  8968 net.cpp:399] inception_4e/output -> inception_4e/output
I0403 19:14:01.988171  8968 net.cpp:141] Setting up inception_4e/output
I0403 19:14:01.988195  8968 net.cpp:148] Top shape: 24 832 14 14 (3913728)
I0403 19:14:01.988210  8968 net.cpp:156] Memory required for data: 1272557088
I0403 19:14:01.988225  8968 layer_factory.hpp:77] Creating layer pool4/3x3_s2
I0403 19:14:01.988242  8968 net.cpp:91] Creating Layer pool4/3x3_s2
I0403 19:14:01.988257  8968 net.cpp:425] pool4/3x3_s2 <- inception_4e/output
I0403 19:14:01.988276  8968 net.cpp:399] pool4/3x3_s2 -> pool4/3x3_s2
I0403 19:14:01.988342  8968 net.cpp:141] Setting up pool4/3x3_s2
I0403 19:14:01.988368  8968 net.cpp:148] Top shape: 24 832 7 7 (978432)
I0403 19:14:01.988382  8968 net.cpp:156] Memory required for data: 1276470816
I0403 19:14:01.988397  8968 layer_factory.hpp:77] Creating layer pool4/3x3_s2_pool4/3x3_s2_0_split
I0403 19:14:01.988414  8968 net.cpp:91] Creating Layer pool4/3x3_s2_pool4/3x3_s2_0_split
I0403 19:14:01.988432  8968 net.cpp:425] pool4/3x3_s2_pool4/3x3_s2_0_split <- pool4/3x3_s2
I0403 19:14:01.988451  8968 net.cpp:399] pool4/3x3_s2_pool4/3x3_s2_0_split -> pool4/3x3_s2_pool4/3x3_s2_0_split_0
I0403 19:14:01.988473  8968 net.cpp:399] pool4/3x3_s2_pool4/3x3_s2_0_split -> pool4/3x3_s2_pool4/3x3_s2_0_split_1
I0403 19:14:01.988495  8968 net.cpp:399] pool4/3x3_s2_pool4/3x3_s2_0_split -> pool4/3x3_s2_pool4/3x3_s2_0_split_2
I0403 19:14:01.988517  8968 net.cpp:399] pool4/3x3_s2_pool4/3x3_s2_0_split -> pool4/3x3_s2_pool4/3x3_s2_0_split_3
I0403 19:14:01.988605  8968 net.cpp:141] Setting up pool4/3x3_s2_pool4/3x3_s2_0_split
I0403 19:14:01.988627  8968 net.cpp:148] Top shape: 24 832 7 7 (978432)
I0403 19:14:01.988643  8968 net.cpp:148] Top shape: 24 832 7 7 (978432)
I0403 19:14:01.988658  8968 net.cpp:148] Top shape: 24 832 7 7 (978432)
I0403 19:14:01.988674  8968 net.cpp:148] Top shape: 24 832 7 7 (978432)
I0403 19:14:01.988687  8968 net.cpp:156] Memory required for data: 1292125728
I0403 19:14:01.988703  8968 layer_factory.hpp:77] Creating layer inception_5a/1x1
I0403 19:14:01.988724  8968 net.cpp:91] Creating Layer inception_5a/1x1
I0403 19:14:01.988745  8968 net.cpp:425] inception_5a/1x1 <- pool4/3x3_s2_pool4/3x3_s2_0_split_0
I0403 19:14:01.988765  8968 net.cpp:399] inception_5a/1x1 -> inception_5a/1x1
I0403 19:14:01.991513  8968 net.cpp:141] Setting up inception_5a/1x1
I0403 19:14:01.991541  8968 net.cpp:148] Top shape: 24 256 7 7 (301056)
I0403 19:14:01.991556  8968 net.cpp:156] Memory required for data: 1293329952
I0403 19:14:01.991575  8968 layer_factory.hpp:77] Creating layer inception_5a/relu_1x1
I0403 19:14:01.991596  8968 net.cpp:91] Creating Layer inception_5a/relu_1x1
I0403 19:14:01.991614  8968 net.cpp:425] inception_5a/relu_1x1 <- inception_5a/1x1
I0403 19:14:01.991631  8968 net.cpp:386] inception_5a/relu_1x1 -> inception_5a/1x1 (in-place)
I0403 19:14:01.992094  8968 net.cpp:141] Setting up inception_5a/relu_1x1
I0403 19:14:01.992120  8968 net.cpp:148] Top shape: 24 256 7 7 (301056)
I0403 19:14:01.992136  8968 net.cpp:156] Memory required for data: 1294534176
I0403 19:14:01.992151  8968 layer_factory.hpp:77] Creating layer inception_5a/3x3_reduce
I0403 19:14:01.992174  8968 net.cpp:91] Creating Layer inception_5a/3x3_reduce
I0403 19:14:01.992202  8968 net.cpp:425] inception_5a/3x3_reduce <- pool4/3x3_s2_pool4/3x3_s2_0_split_1
I0403 19:14:01.992223  8968 net.cpp:399] inception_5a/3x3_reduce -> inception_5a/3x3_reduce
I0403 19:14:01.994560  8968 net.cpp:141] Setting up inception_5a/3x3_reduce
I0403 19:14:01.994590  8968 net.cpp:148] Top shape: 24 160 7 7 (188160)
I0403 19:14:01.994606  8968 net.cpp:156] Memory required for data: 1295286816
I0403 19:14:01.994624  8968 layer_factory.hpp:77] Creating layer inception_5a/relu_3x3_reduce
I0403 19:14:01.994644  8968 net.cpp:91] Creating Layer inception_5a/relu_3x3_reduce
I0403 19:14:01.994662  8968 net.cpp:425] inception_5a/relu_3x3_reduce <- inception_5a/3x3_reduce
I0403 19:14:01.994678  8968 net.cpp:386] inception_5a/relu_3x3_reduce -> inception_5a/3x3_reduce (in-place)
I0403 19:14:01.994854  8968 net.cpp:141] Setting up inception_5a/relu_3x3_reduce
I0403 19:14:01.994880  8968 net.cpp:148] Top shape: 24 160 7 7 (188160)
I0403 19:14:01.994895  8968 net.cpp:156] Memory required for data: 1296039456
I0403 19:14:01.994910  8968 layer_factory.hpp:77] Creating layer inception_5a/3x3
I0403 19:14:01.994933  8968 net.cpp:91] Creating Layer inception_5a/3x3
I0403 19:14:01.994952  8968 net.cpp:425] inception_5a/3x3 <- inception_5a/3x3_reduce
I0403 19:14:01.994971  8968 net.cpp:399] inception_5a/3x3 -> inception_5a/3x3
I0403 19:14:01.999732  8968 net.cpp:141] Setting up inception_5a/3x3
I0403 19:14:01.999761  8968 net.cpp:148] Top shape: 24 320 7 7 (376320)
I0403 19:14:01.999778  8968 net.cpp:156] Memory required for data: 1297544736
I0403 19:14:01.999797  8968 layer_factory.hpp:77] Creating layer inception_5a/relu_3x3
I0403 19:14:01.999815  8968 net.cpp:91] Creating Layer inception_5a/relu_3x3
I0403 19:14:01.999832  8968 net.cpp:425] inception_5a/relu_3x3 <- inception_5a/3x3
I0403 19:14:01.999850  8968 net.cpp:386] inception_5a/relu_3x3 -> inception_5a/3x3 (in-place)
I0403 19:14:02.000129  8968 net.cpp:141] Setting up inception_5a/relu_3x3
I0403 19:14:02.000157  8968 net.cpp:148] Top shape: 24 320 7 7 (376320)
I0403 19:14:02.000174  8968 net.cpp:156] Memory required for data: 1299050016
I0403 19:14:02.000191  8968 layer_factory.hpp:77] Creating layer inception_5a/5x5_reduce
I0403 19:14:02.000211  8968 net.cpp:91] Creating Layer inception_5a/5x5_reduce
I0403 19:14:02.000228  8968 net.cpp:425] inception_5a/5x5_reduce <- pool4/3x3_s2_pool4/3x3_s2_0_split_2
I0403 19:14:02.000252  8968 net.cpp:399] inception_5a/5x5_reduce -> inception_5a/5x5_reduce
I0403 19:14:02.001371  8968 net.cpp:141] Setting up inception_5a/5x5_reduce
I0403 19:14:02.001402  8968 net.cpp:148] Top shape: 24 32 7 7 (37632)
I0403 19:14:02.001418  8968 net.cpp:156] Memory required for data: 1299200544
I0403 19:14:02.001442  8968 layer_factory.hpp:77] Creating layer inception_5a/relu_5x5_reduce
I0403 19:14:02.001461  8968 net.cpp:91] Creating Layer inception_5a/relu_5x5_reduce
I0403 19:14:02.001478  8968 net.cpp:425] inception_5a/relu_5x5_reduce <- inception_5a/5x5_reduce
I0403 19:14:02.001498  8968 net.cpp:386] inception_5a/relu_5x5_reduce -> inception_5a/5x5_reduce (in-place)
I0403 19:14:02.001785  8968 net.cpp:141] Setting up inception_5a/relu_5x5_reduce
I0403 19:14:02.001812  8968 net.cpp:148] Top shape: 24 32 7 7 (37632)
I0403 19:14:02.001828  8968 net.cpp:156] Memory required for data: 1299351072
I0403 19:14:02.001843  8968 layer_factory.hpp:77] Creating layer inception_5a/5x5
I0403 19:14:02.001866  8968 net.cpp:91] Creating Layer inception_5a/5x5
I0403 19:14:02.001883  8968 net.cpp:425] inception_5a/5x5 <- inception_5a/5x5_reduce
I0403 19:14:02.001902  8968 net.cpp:399] inception_5a/5x5 -> inception_5a/5x5
I0403 19:14:02.003547  8968 net.cpp:141] Setting up inception_5a/5x5
I0403 19:14:02.003587  8968 net.cpp:148] Top shape: 24 128 7 7 (150528)
I0403 19:14:02.003605  8968 net.cpp:156] Memory required for data: 1299953184
I0403 19:14:02.003624  8968 layer_factory.hpp:77] Creating layer inception_5a/relu_5x5
I0403 19:14:02.003641  8968 net.cpp:91] Creating Layer inception_5a/relu_5x5
I0403 19:14:02.003657  8968 net.cpp:425] inception_5a/relu_5x5 <- inception_5a/5x5
I0403 19:14:02.003674  8968 net.cpp:386] inception_5a/relu_5x5 -> inception_5a/5x5 (in-place)
I0403 19:14:02.003859  8968 net.cpp:141] Setting up inception_5a/relu_5x5
I0403 19:14:02.003885  8968 net.cpp:148] Top shape: 24 128 7 7 (150528)
I0403 19:14:02.003901  8968 net.cpp:156] Memory required for data: 1300555296
I0403 19:14:02.003916  8968 layer_factory.hpp:77] Creating layer inception_5a/pool
I0403 19:14:02.003933  8968 net.cpp:91] Creating Layer inception_5a/pool
I0403 19:14:02.003949  8968 net.cpp:425] inception_5a/pool <- pool4/3x3_s2_pool4/3x3_s2_0_split_3
I0403 19:14:02.003969  8968 net.cpp:399] inception_5a/pool -> inception_5a/pool
I0403 19:14:02.004037  8968 net.cpp:141] Setting up inception_5a/pool
I0403 19:14:02.004062  8968 net.cpp:148] Top shape: 24 832 7 7 (978432)
I0403 19:14:02.004078  8968 net.cpp:156] Memory required for data: 1304469024
I0403 19:14:02.004092  8968 layer_factory.hpp:77] Creating layer inception_5a/pool_proj
I0403 19:14:02.004112  8968 net.cpp:91] Creating Layer inception_5a/pool_proj
I0403 19:14:02.004128  8968 net.cpp:425] inception_5a/pool_proj <- inception_5a/pool
I0403 19:14:02.004148  8968 net.cpp:399] inception_5a/pool_proj -> inception_5a/pool_proj
I0403 19:14:02.006292  8968 net.cpp:141] Setting up inception_5a/pool_proj
I0403 19:14:02.006320  8968 net.cpp:148] Top shape: 24 128 7 7 (150528)
I0403 19:14:02.006336  8968 net.cpp:156] Memory required for data: 1305071136
I0403 19:14:02.006353  8968 layer_factory.hpp:77] Creating layer inception_5a/relu_pool_proj
I0403 19:14:02.006373  8968 net.cpp:91] Creating Layer inception_5a/relu_pool_proj
I0403 19:14:02.006392  8968 net.cpp:425] inception_5a/relu_pool_proj <- inception_5a/pool_proj
I0403 19:14:02.006408  8968 net.cpp:386] inception_5a/relu_pool_proj -> inception_5a/pool_proj (in-place)
I0403 19:14:02.006690  8968 net.cpp:141] Setting up inception_5a/relu_pool_proj
I0403 19:14:02.006716  8968 net.cpp:148] Top shape: 24 128 7 7 (150528)
I0403 19:14:02.006731  8968 net.cpp:156] Memory required for data: 1305673248
I0403 19:14:02.006745  8968 layer_factory.hpp:77] Creating layer inception_5a/output
I0403 19:14:02.006764  8968 net.cpp:91] Creating Layer inception_5a/output
I0403 19:14:02.006780  8968 net.cpp:425] inception_5a/output <- inception_5a/1x1
I0403 19:14:02.006798  8968 net.cpp:425] inception_5a/output <- inception_5a/3x3
I0403 19:14:02.006814  8968 net.cpp:425] inception_5a/output <- inception_5a/5x5
I0403 19:14:02.006830  8968 net.cpp:425] inception_5a/output <- inception_5a/pool_proj
I0403 19:14:02.006846  8968 net.cpp:399] inception_5a/output -> inception_5a/output
I0403 19:14:02.006896  8968 net.cpp:141] Setting up inception_5a/output
I0403 19:14:02.006919  8968 net.cpp:148] Top shape: 24 832 7 7 (978432)
I0403 19:14:02.006934  8968 net.cpp:156] Memory required for data: 1309586976
I0403 19:14:02.006949  8968 layer_factory.hpp:77] Creating layer inception_5a/output_inception_5a/output_0_split
I0403 19:14:02.006965  8968 net.cpp:91] Creating Layer inception_5a/output_inception_5a/output_0_split
I0403 19:14:02.006980  8968 net.cpp:425] inception_5a/output_inception_5a/output_0_split <- inception_5a/output
I0403 19:14:02.006999  8968 net.cpp:399] inception_5a/output_inception_5a/output_0_split -> inception_5a/output_inception_5a/output_0_split_0
I0403 19:14:02.007020  8968 net.cpp:399] inception_5a/output_inception_5a/output_0_split -> inception_5a/output_inception_5a/output_0_split_1
I0403 19:14:02.007041  8968 net.cpp:399] inception_5a/output_inception_5a/output_0_split -> inception_5a/output_inception_5a/output_0_split_2
I0403 19:14:02.007062  8968 net.cpp:399] inception_5a/output_inception_5a/output_0_split -> inception_5a/output_inception_5a/output_0_split_3
I0403 19:14:02.007170  8968 net.cpp:141] Setting up inception_5a/output_inception_5a/output_0_split
I0403 19:14:02.007197  8968 net.cpp:148] Top shape: 24 832 7 7 (978432)
I0403 19:14:02.007215  8968 net.cpp:148] Top shape: 24 832 7 7 (978432)
I0403 19:14:02.007230  8968 net.cpp:148] Top shape: 24 832 7 7 (978432)
I0403 19:14:02.007246  8968 net.cpp:148] Top shape: 24 832 7 7 (978432)
I0403 19:14:02.007261  8968 net.cpp:156] Memory required for data: 1325241888
I0403 19:14:02.007275  8968 layer_factory.hpp:77] Creating layer inception_5b/1x1
I0403 19:14:02.007297  8968 net.cpp:91] Creating Layer inception_5b/1x1
I0403 19:14:02.007313  8968 net.cpp:425] inception_5b/1x1 <- inception_5a/output_inception_5a/output_0_split_0
I0403 19:14:02.007331  8968 net.cpp:399] inception_5b/1x1 -> inception_5b/1x1
I0403 19:14:02.010902  8968 net.cpp:141] Setting up inception_5b/1x1
I0403 19:14:02.010932  8968 net.cpp:148] Top shape: 24 384 7 7 (451584)
I0403 19:14:02.010947  8968 net.cpp:156] Memory required for data: 1327048224
I0403 19:14:02.010967  8968 layer_factory.hpp:77] Creating layer inception_5b/relu_1x1
I0403 19:14:02.010987  8968 net.cpp:91] Creating Layer inception_5b/relu_1x1
I0403 19:14:02.011003  8968 net.cpp:425] inception_5b/relu_1x1 <- inception_5b/1x1
I0403 19:14:02.011020  8968 net.cpp:386] inception_5b/relu_1x1 -> inception_5b/1x1 (in-place)
I0403 19:14:02.011308  8968 net.cpp:141] Setting up inception_5b/relu_1x1
I0403 19:14:02.011334  8968 net.cpp:148] Top shape: 24 384 7 7 (451584)
I0403 19:14:02.011349  8968 net.cpp:156] Memory required for data: 1328854560
I0403 19:14:02.011364  8968 layer_factory.hpp:77] Creating layer inception_5b/3x3_reduce
I0403 19:14:02.011386  8968 net.cpp:91] Creating Layer inception_5b/3x3_reduce
I0403 19:14:02.011404  8968 net.cpp:425] inception_5b/3x3_reduce <- inception_5a/output_inception_5a/output_0_split_1
I0403 19:14:02.011426  8968 net.cpp:399] inception_5b/3x3_reduce -> inception_5b/3x3_reduce
I0403 19:14:02.013955  8968 net.cpp:141] Setting up inception_5b/3x3_reduce
I0403 19:14:02.013984  8968 net.cpp:148] Top shape: 24 192 7 7 (225792)
I0403 19:14:02.013999  8968 net.cpp:156] Memory required for data: 1329757728
I0403 19:14:02.014017  8968 layer_factory.hpp:77] Creating layer inception_5b/relu_3x3_reduce
I0403 19:14:02.014037  8968 net.cpp:91] Creating Layer inception_5b/relu_3x3_reduce
I0403 19:14:02.014055  8968 net.cpp:425] inception_5b/relu_3x3_reduce <- inception_5b/3x3_reduce
I0403 19:14:02.014072  8968 net.cpp:386] inception_5b/relu_3x3_reduce -> inception_5b/3x3_reduce (in-place)
I0403 19:14:02.014255  8968 net.cpp:141] Setting up inception_5b/relu_3x3_reduce
I0403 19:14:02.014281  8968 net.cpp:148] Top shape: 24 192 7 7 (225792)
I0403 19:14:02.014298  8968 net.cpp:156] Memory required for data: 1330660896
I0403 19:14:02.014313  8968 layer_factory.hpp:77] Creating layer inception_5b/3x3
I0403 19:14:02.014336  8968 net.cpp:91] Creating Layer inception_5b/3x3
I0403 19:14:02.014354  8968 net.cpp:425] inception_5b/3x3 <- inception_5b/3x3_reduce
I0403 19:14:02.014374  8968 net.cpp:399] inception_5b/3x3 -> inception_5b/3x3
I0403 19:14:02.020721  8968 net.cpp:141] Setting up inception_5b/3x3
I0403 19:14:02.020748  8968 net.cpp:148] Top shape: 24 384 7 7 (451584)
I0403 19:14:02.020764  8968 net.cpp:156] Memory required for data: 1332467232
I0403 19:14:02.020782  8968 layer_factory.hpp:77] Creating layer inception_5b/relu_3x3
I0403 19:14:02.020802  8968 net.cpp:91] Creating Layer inception_5b/relu_3x3
I0403 19:14:02.020820  8968 net.cpp:425] inception_5b/relu_3x3 <- inception_5b/3x3
I0403 19:14:02.020838  8968 net.cpp:386] inception_5b/relu_3x3 -> inception_5b/3x3 (in-place)
I0403 19:14:02.021119  8968 net.cpp:141] Setting up inception_5b/relu_3x3
I0403 19:14:02.021145  8968 net.cpp:148] Top shape: 24 384 7 7 (451584)
I0403 19:14:02.021160  8968 net.cpp:156] Memory required for data: 1334273568
I0403 19:14:02.021174  8968 layer_factory.hpp:77] Creating layer inception_5b/5x5_reduce
I0403 19:14:02.021210  8968 net.cpp:91] Creating Layer inception_5b/5x5_reduce
I0403 19:14:02.021231  8968 net.cpp:425] inception_5b/5x5_reduce <- inception_5a/output_inception_5a/output_0_split_2
I0403 19:14:02.021255  8968 net.cpp:399] inception_5b/5x5_reduce -> inception_5b/5x5_reduce
I0403 19:14:02.022487  8968 net.cpp:141] Setting up inception_5b/5x5_reduce
I0403 19:14:02.022516  8968 net.cpp:148] Top shape: 24 48 7 7 (56448)
I0403 19:14:02.022532  8968 net.cpp:156] Memory required for data: 1334499360
I0403 19:14:02.022552  8968 layer_factory.hpp:77] Creating layer inception_5b/relu_5x5_reduce
I0403 19:14:02.022572  8968 net.cpp:91] Creating Layer inception_5b/relu_5x5_reduce
I0403 19:14:02.022590  8968 net.cpp:425] inception_5b/relu_5x5_reduce <- inception_5b/5x5_reduce
I0403 19:14:02.022608  8968 net.cpp:386] inception_5b/relu_5x5_reduce -> inception_5b/5x5_reduce (in-place)
I0403 19:14:02.022977  8968 net.cpp:141] Setting up inception_5b/relu_5x5_reduce
I0403 19:14:02.023005  8968 net.cpp:148] Top shape: 24 48 7 7 (56448)
I0403 19:14:02.023020  8968 net.cpp:156] Memory required for data: 1334725152
I0403 19:14:02.023035  8968 layer_factory.hpp:77] Creating layer inception_5b/5x5
I0403 19:14:02.023054  8968 net.cpp:91] Creating Layer inception_5b/5x5
I0403 19:14:02.023072  8968 net.cpp:425] inception_5b/5x5 <- inception_5b/5x5_reduce
I0403 19:14:02.023089  8968 net.cpp:399] inception_5b/5x5 -> inception_5b/5x5
I0403 19:14:02.025059  8968 net.cpp:141] Setting up inception_5b/5x5
I0403 19:14:02.025086  8968 net.cpp:148] Top shape: 24 128 7 7 (150528)
I0403 19:14:02.025101  8968 net.cpp:156] Memory required for data: 1335327264
I0403 19:14:02.025120  8968 layer_factory.hpp:77] Creating layer inception_5b/relu_5x5
I0403 19:14:02.025138  8968 net.cpp:91] Creating Layer inception_5b/relu_5x5
I0403 19:14:02.025156  8968 net.cpp:425] inception_5b/relu_5x5 <- inception_5b/5x5
I0403 19:14:02.025172  8968 net.cpp:386] inception_5b/relu_5x5 -> inception_5b/5x5 (in-place)
I0403 19:14:02.025357  8968 net.cpp:141] Setting up inception_5b/relu_5x5
I0403 19:14:02.025382  8968 net.cpp:148] Top shape: 24 128 7 7 (150528)
I0403 19:14:02.025398  8968 net.cpp:156] Memory required for data: 1335929376
I0403 19:14:02.025411  8968 layer_factory.hpp:77] Creating layer inception_5b/pool
I0403 19:14:02.025432  8968 net.cpp:91] Creating Layer inception_5b/pool
I0403 19:14:02.025450  8968 net.cpp:425] inception_5b/pool <- inception_5a/output_inception_5a/output_0_split_3
I0403 19:14:02.025471  8968 net.cpp:399] inception_5b/pool -> inception_5b/pool
I0403 19:14:02.025542  8968 net.cpp:141] Setting up inception_5b/pool
I0403 19:14:02.025565  8968 net.cpp:148] Top shape: 24 832 7 7 (978432)
I0403 19:14:02.025579  8968 net.cpp:156] Memory required for data: 1339843104
I0403 19:14:02.025593  8968 layer_factory.hpp:77] Creating layer inception_5b/pool_proj
I0403 19:14:02.025616  8968 net.cpp:91] Creating Layer inception_5b/pool_proj
I0403 19:14:02.025635  8968 net.cpp:425] inception_5b/pool_proj <- inception_5b/pool
I0403 19:14:02.025653  8968 net.cpp:399] inception_5b/pool_proj -> inception_5b/pool_proj
I0403 19:14:02.027832  8968 net.cpp:141] Setting up inception_5b/pool_proj
I0403 19:14:02.027860  8968 net.cpp:148] Top shape: 24 128 7 7 (150528)
I0403 19:14:02.027876  8968 net.cpp:156] Memory required for data: 1340445216
I0403 19:14:02.027894  8968 layer_factory.hpp:77] Creating layer inception_5b/relu_pool_proj
I0403 19:14:02.027914  8968 net.cpp:91] Creating Layer inception_5b/relu_pool_proj
I0403 19:14:02.027931  8968 net.cpp:425] inception_5b/relu_pool_proj <- inception_5b/pool_proj
I0403 19:14:02.027950  8968 net.cpp:386] inception_5b/relu_pool_proj -> inception_5b/pool_proj (in-place)
I0403 19:14:02.028234  8968 net.cpp:141] Setting up inception_5b/relu_pool_proj
I0403 19:14:02.028259  8968 net.cpp:148] Top shape: 24 128 7 7 (150528)
I0403 19:14:02.028273  8968 net.cpp:156] Memory required for data: 1341047328
I0403 19:14:02.028287  8968 layer_factory.hpp:77] Creating layer inception_5b/output
I0403 19:14:02.028308  8968 net.cpp:91] Creating Layer inception_5b/output
I0403 19:14:02.028337  8968 net.cpp:425] inception_5b/output <- inception_5b/1x1
I0403 19:14:02.028355  8968 net.cpp:425] inception_5b/output <- inception_5b/3x3
I0403 19:14:02.028372  8968 net.cpp:425] inception_5b/output <- inception_5b/5x5
I0403 19:14:02.028386  8968 net.cpp:425] inception_5b/output <- inception_5b/pool_proj
I0403 19:14:02.028404  8968 net.cpp:399] inception_5b/output -> inception_5b/output
I0403 19:14:02.028460  8968 net.cpp:141] Setting up inception_5b/output
I0403 19:14:02.028484  8968 net.cpp:148] Top shape: 24 1024 7 7 (1204224)
I0403 19:14:02.028499  8968 net.cpp:156] Memory required for data: 1345864224
I0403 19:14:02.028513  8968 layer_factory.hpp:77] Creating layer pool5/7x7_s1
I0403 19:14:02.028529  8968 net.cpp:91] Creating Layer pool5/7x7_s1
I0403 19:14:02.028545  8968 net.cpp:425] pool5/7x7_s1 <- inception_5b/output
I0403 19:14:02.028565  8968 net.cpp:399] pool5/7x7_s1 -> pool5/7x7_s1
I0403 19:14:02.028774  8968 net.cpp:141] Setting up pool5/7x7_s1
I0403 19:14:02.028800  8968 net.cpp:148] Top shape: 24 1024 1 1 (24576)
I0403 19:14:02.028815  8968 net.cpp:156] Memory required for data: 1345962528
I0403 19:14:02.028831  8968 layer_factory.hpp:77] Creating layer pool5/drop_7x7_s1
I0403 19:14:02.028847  8968 net.cpp:91] Creating Layer pool5/drop_7x7_s1
I0403 19:14:02.028862  8968 net.cpp:425] pool5/drop_7x7_s1 <- pool5/7x7_s1
I0403 19:14:02.028879  8968 net.cpp:386] pool5/drop_7x7_s1 -> pool5/7x7_s1 (in-place)
I0403 19:14:02.028929  8968 net.cpp:141] Setting up pool5/drop_7x7_s1
I0403 19:14:02.028951  8968 net.cpp:148] Top shape: 24 1024 1 1 (24576)
I0403 19:14:02.028966  8968 net.cpp:156] Memory required for data: 1346060832
I0403 19:14:02.028980  8968 layer_factory.hpp:77] Creating layer loss3/classifier_plantvillage
I0403 19:14:02.029001  8968 net.cpp:91] Creating Layer loss3/classifier_plantvillage
I0403 19:14:02.029018  8968 net.cpp:425] loss3/classifier_plantvillage <- pool5/7x7_s1
I0403 19:14:02.029037  8968 net.cpp:399] loss3/classifier_plantvillage -> loss3/classifier_plantvillage
I0403 19:14:02.029446  8968 net.cpp:141] Setting up loss3/classifier_plantvillage
I0403 19:14:02.029470  8968 net.cpp:148] Top shape: 24 38 (912)
I0403 19:14:02.029485  8968 net.cpp:156] Memory required for data: 1346064480
I0403 19:14:02.029502  8968 layer_factory.hpp:77] Creating layer loss3/classifier_plantvillage_loss3/classifier_plantvillage_0_split
I0403 19:14:02.029520  8968 net.cpp:91] Creating Layer loss3/classifier_plantvillage_loss3/classifier_plantvillage_0_split
I0403 19:14:02.029536  8968 net.cpp:425] loss3/classifier_plantvillage_loss3/classifier_plantvillage_0_split <- loss3/classifier_plantvillage
I0403 19:14:02.029557  8968 net.cpp:399] loss3/classifier_plantvillage_loss3/classifier_plantvillage_0_split -> loss3/classifier_plantvillage_loss3/classifier_plantvillage_0_split_0
I0403 19:14:02.029577  8968 net.cpp:399] loss3/classifier_plantvillage_loss3/classifier_plantvillage_0_split -> loss3/classifier_plantvillage_loss3/classifier_plantvillage_0_split_1
I0403 19:14:02.029597  8968 net.cpp:399] loss3/classifier_plantvillage_loss3/classifier_plantvillage_0_split -> loss3/classifier_plantvillage_loss3/classifier_plantvillage_0_split_2
I0403 19:14:02.029618  8968 net.cpp:399] loss3/classifier_plantvillage_loss3/classifier_plantvillage_0_split -> loss3/classifier_plantvillage_loss3/classifier_plantvillage_0_split_3
I0403 19:14:02.029716  8968 net.cpp:141] Setting up loss3/classifier_plantvillage_loss3/classifier_plantvillage_0_split
I0403 19:14:02.029741  8968 net.cpp:148] Top shape: 24 38 (912)
I0403 19:14:02.029757  8968 net.cpp:148] Top shape: 24 38 (912)
I0403 19:14:02.029772  8968 net.cpp:148] Top shape: 24 38 (912)
I0403 19:14:02.029788  8968 net.cpp:148] Top shape: 24 38 (912)
I0403 19:14:02.029800  8968 net.cpp:156] Memory required for data: 1346079072
I0403 19:14:02.029814  8968 layer_factory.hpp:77] Creating layer loss1/loss
I0403 19:14:02.029836  8968 net.cpp:91] Creating Layer loss1/loss
I0403 19:14:02.029853  8968 net.cpp:425] loss1/loss <- loss1/classifier_plantvillage_loss1/classifier_plantvillage_0_split_0
I0403 19:14:02.029883  8968 net.cpp:425] loss1/loss <- label_data_1_split_0
…
