…
I0403 19:15:25.712702  8990 net.cpp:313] The NetState phase (1) differed from the phase (0) specified by a rule in layer data
I0403 19:15:25.714115  8990 net.cpp:49] Initializing net from parameters: 
state {
  phase: TEST
}
layer {
  name: "data"
  type: "Data"
  top: "data"
  top: "label"
  include {
    phase: TEST
  }
  transform_param {
    mirror: false
    crop_size: 224
    mean_file: "/home/mohanty/data/final_dataset/lmdb/color-60-40/mean.binaryproto"
  }
  data_param {
    source: "/home/mohanty/data/final_dataset/lmdb/color-60-40/test_db"
    batch_size: 24
    backend: LMDB
  }
}
layer {
  name: "conv1/7x7_s2"
  type: "Convolution"
  bottom: "data"
  top: "conv1/7x7_s2"
  param {
    lr_mult: 1
    decay_mult: 1
  }
  param {
    lr_mult: 2
    decay_mult: 0
  }
  convolution_param {
    num_output: 64
    pad: 3
    kernel_size: 7
    stride: 2
    weight_filler {
      type: "xavier"
      std: 0.1
    }
    bias_filler {
      type: "constant"
      value: 0.2
    }
  }
}
layer {
  name: "conv1/relu_7x7"
  type: "ReLU"
  bottom: "conv1/7x7_s2"
  top: "conv1/7x7_s2"
}
layer {
  name: "pool1/3x3_s2"
  type: "Pooling"
  bottom: "conv1/7x7_s2"
  top: "pool1/3x3_s2"
  pooling_param {
    pool: MAX
    kernel_size: 3
    stride: 2
  }
}
layer {
  name: "pool1/norm1"
  type: "LRN"
  bottom: "pool1/3x3_s2"
  top: "pool1/norm1"
  lrn_param {
    local_size: 5
    alpha: 0.0001
    beta: 0.75
  }
}
layer {
  name: "conv2/3x3_reduce"
  type: "Convolution"
  bottom: "pool1/norm1"
  top: "conv2/3x3_reduce"
  param {
    lr_mult: 1
    decay_mult: 1
  }
  param {
    lr_mult: 2
    decay_mult: 0
  }
  convolution_param {
    num_output: 64
    kernel_size: 1
    weight_filler {
      type: "xavier"
      std: 0.1
    }
    bias_filler {
      type: "constant"
      value: 0.2
    }
  }
}
layer {
  name: "conv2/relu_3x3_reduce"
  type: "ReLU"
  bottom: "conv2/3x3_reduce"
  top: "conv2/3x3_reduce"
}
layer {
  name: "conv2/3x3"
  type: "Convolution"
  bottom: "conv2/3x3_reduce"
  top: "conv2/3x3"
  param {
    lr_mult: 1
    decay_mult: 1
  }
  param {
    lr_mult: 2
    decay_mult: 0
  }
  convolution_param {
    num_output: 192
    pad: 1
    kernel_size: 3
    weight_filler {
      type: "xavier"
      std: 0.03
    }
    bias_filler {
      type: "constant"
      value: 0.2
    }
  }
}
layer {
  name: "conv2/relu_3x3"
  type: "ReLU"
  bottom: "conv2/3x3"
  top: "conv2/3x3"
}
layer {
  name: "conv2/norm2"
  type: "LRN"
  bottom: "conv2/3x3"
  top: "conv2/norm2"
  lrn_param {
    local_size: 5
    alpha: 0.0001
    beta: 0.75
  }
}
layer {
  name: "pool2/3x3_s2"
  type: "Pooling"
  bottom: "conv2/norm2"
  top: "pool2/3x3_s2"
  pooling_param {
    pool: MAX
    kernel_size: 3
    stride: 2
  }
}
layer {
  name: "inception_3a/1x1"
  type: "Convolution"
  bottom: "pool2/3x3_s2"
  top: "inception_3a/1x1"
  param {
    lr_mult: 1
    decay_mult: 1
  }
  param {
    lr_mult: 2
    decay_mult: 0
  }
  convolution_param {
    num_output: 64
    kernel_size: 1
    weight_filler {
      type: "xavier"
      std: 0.03
    }
    bias_filler {
      type: "constant"
      value: 0.2
    }
  }
}
layer {
  name: "inception_3a/relu_1x1"
  type: "ReLU"
  bottom: "inception_3a/1x1"
  top: "inception_3a/1x1"
}
layer {
  name: "inception_3a/3x3_reduce"
  type: "Convolution"
  bottom: "pool2/3x3_s2"
  top: "inception_3a/3x3_reduce"
  param {
    lr_mult: 1
    decay_mult: 1
  }
  param {
    lr_mult: 2
    decay_mult: 0
  }
  convolution_param {
    num_output: 96
    kernel_size: 1
    weight_filler {
      type: "xavier"
      std: 0.09
    }
    bias_filler {
      type: "constant"
      value: 0.2
    }
  }
}
layer {
  name: "inception_3a/relu_3x3_reduce"
  type: "ReLU"
  bottom: "inception_3a/3x3_reduce"
  top: "inception_3a/3x3_reduce"
}
layer {
  name: "inception_3a/3x3"
  type: "Convolution"
  bottom: "inception_3a/3x3_reduce"
  top: "inception_3a/3x3"
  param {
    lr_mult: 1
    decay_mult: 1
  }
  param {
    lr_mult: 2
    decay_mult: 0
  }
  convolution_param {
    num_output: 128
    pad: 1
    kernel_size: 3
    weight_filler {
      type: "xavier"
      std: 0.03
    }
    bias_filler {
      type: "constant"
      value: 0.2
    }
  }
}
layer {
  name: "inception_3a/relu_3x3"
  type: "ReLU"
  bottom: "inception_3a/3x3"
  top: "inception_3a/3x3"
}
layer {
  name: "inception_3a/5x5_reduce"
  type: "Convolution"
  bottom: "pool2/3x3_s2"
  top: "inception_3a/5x5_reduce"
  param {
    lr_mult: 1
    decay_mult: 1
  }
  param {
    lr_mult: 2
    decay_mult: 0
  }
  convolution_param {
    num_output: 16
    kernel_size: 1
    weight_filler {
      type: "xavier"
      std: 0.2
    }
    bias_filler {
      type: "constant"
      value: 0.2
    }
  }
}
layer {
  name: "inception_3a/relu_5x5_reduce"
  type: "ReLU"
  bottom: "inception_3a/5x5_reduce"
  top: "inception_3a/5x5_reduce"
}
layer {
  name: "inception_3a/5x5"
  type: "Convolution"
  bottom: "inception_3a/5x5_reduce"
  top: "inception_3a/5x5"
  param {
    lr_mult: 1
    decay_mult: 1
  }
  param {
    lr_mult: 2
    decay_mult: 0
  }
  convolution_param {
    num_output: 32
    pad: 2
    kernel_size: 5
    weight_filler {
      type: "xavier"
      std: 0.03
    }
    bias_filler {
      type: "constant"
      value: 0.2
    }
  }
}
layer {
  name: "inception_3a/relu_5x5"
  type: "ReLU"
  bottom: "inception_3a/5x5"
  top: "inception_3a/5x5"
}
layer {
  name: "inception_3a/pool"
  type: "Pooling"
  bottom: "pool2/3x3_s2"
  top: "inception_3a/pool"
  pooling_param {
    pool: MAX
    kernel_size: 3
    stride: 1
    pad: 1
  }
}
layer {
  name: "inception_3a/pool_proj"
  type: "Convolution"
  bottom: "inception_3a/pool"
  top: "inception_3a/pool_proj"
  param {
    lr_mult: 1
    decay_mult: 1
  }
  param {
    lr_mult: 2
    decay_mult: 0
  }
  convolution_param {
    num_output: 32
    kernel_size: 1
    weight_filler {
      type: "xavier"
      std: 0.1
    }
    bias_filler {
      type: "constant"
      value: 0.2
    }
  }
}
layer {
  name: "inception_3a/relu_pool_proj"
  type: "ReLU"
  bottom: "inception_3a/pool_proj"
  top: "inception_3a/pool_proj"
}
layer {
  name: "inception_3a/output"
  type: "Concat"
  bottom: "inception_3a/1x1"
  bottom: "inception_3a/3x3"
  bottom: "inception_3a/5x5"
  bottom: "inception_3a/pool_proj"
  top: "inception_3a/output"
}
layer {
  name: "inception_3b/1x1"
  type: "Convolution"
  bottom: "inception_3a/output"
  top: "inception_3b/1x1"
  param {
    lr_mult: 1
    decay_mult: 1
  }
  param {
    lr_mult: 2
    decay_mult: 0
  }
  convolution_param {
    num_output: 128
    kernel_size: 1
    weight_filler {
      type: "xavier"
      std: 0.03
    }
    bias_filler {
      type: "constant"
      value: 0.2
    }
  }
}
layer {
  name: "inception_3b/relu_1x1"
  type: "ReLU"
  bottom: "inception_3b/1x1"
  top: "inception_3b/1x1"
}
layer {
  name: "inception_3b/3x3_reduce"
  type: "Convolution"
  bottom: "inception_3a/output"
  top: "inception_3b/3x3_reduce"
  param {
    lr_mult: 1
    decay_mult: 1
  }
  param {
    lr_mult: 2
    decay_mult: 0
  }
  convolution_param {
    num_output: 128
    kernel_size: 1
    weight_filler {
      type: "xavier"
      std: 0.09
    }
    bias_filler {
      type: "constant"
      value: 0.2
    }
  }
}
layer {
  name: "inception_3b/relu_3x3_reduce"
  type: "ReLU"
  bottom: "inception_3b/3x3_reduce"
  top: "inception_3b/3x3_reduce"
}
layer {
  name: "inception_3b/3x3"
  type: "Convolution"
  bottom: "inception_3b/3x3_reduce"
  top: "inception_3b/3x3"
  param {
    lr_mult: 1
    decay_mult: 1
  }
  param {
    lr_mult: 2
    decay_mult: 0
  }
  convolution_param {
    num_output: 192
    pad: 1
    kernel_size: 3
    weight_filler {
      type: "xavier"
      std: 0.03
    }
    bias_filler {
      type: "constant"
      value: 0.2
    }
  }
}
layer {
  name: "inception_3b/relu_3x3"
  type: "ReLU"
  bottom: "inception_3b/3x3"
  top: "inception_3b/3x3"
}
layer {
  name: "inception_3b/5x5_reduce"
  type: "Convolution"
  bottom: "inception_3a/output"
  top: "inception_3b/5x5_reduce"
  param {
    lr_mult: 1
    decay_mult: 1
  }
  param {
    lr_mult: 2
    decay_mult: 0
  }
  convolution_param {
    num_output: 32
    kernel_size: 1
    weight_filler {
      type: "xavier"
      std: 0.2
    }
    bias_filler {
      type: "constant"
      value: 0.2
    }
  }
}
layer {
  name: "inception_3b/relu_5x5_reduce"
  type: "ReLU"
  bottom: "inception_3b/5x5_reduce"
  top: "inception_3b/5x5_reduce"
}
layer {
  name: "inception_3b/5x5"
  type: "Convolution"
  bottom: "inception_3b/5x5_reduce"
  top: "inception_3b/5x5"
  param {
    lr_mult: 1
    decay_mult: 1
  }
  param {
    lr_mult: 2
    decay_mult: 0
  }
  convolution_param {
    num_output: 96
    pad: 2
    kernel_size: 5
    weight_filler {
      type: "xavier"
      std: 0.03
    }
    bias_filler {
      type: "constant"
      value: 0.2
    }
  }
}
layer {
  name: "inception_3b/relu_5x5"
  type: "ReLU"
  bottom: "inception_3b/5x5"
  top: "inception_3b/5x5"
}
layer {
  name: "inception_3b/pool"
  type: "Pooling"
  bottom: "inception_3a/output"
  top: "inception_3b/pool"
  pooling_param {
    pool: MAX
    kernel_size: 3
    stride: 1
    pad: 1
  }
}
layer {
  name: "inception_3b/pool_proj"
  type: "Convolution"
  bottom: "inception_3b/pool"
  top: "inception_3b/pool_proj"
  param {
    lr_mult: 1
    decay_mult: 1
  }
  param {
    lr_mult: 2
    decay_mult: 0
  }
  convolution_param {
    num_output: 64
    kernel_size: 1
    weight_filler {
      type: "xavier"
      std: 0.1
    }
    bias_filler {
      type: "constant"
      value: 0.2
    }
  }
}
layer {
  name: "inception_3b/relu_pool_proj"
  type: "ReLU"
  bottom: "inception_3b/pool_proj"
  top: "inception_3b/pool_proj"
}
layer {
  name: "inception_3b/output"
  type: "Concat"
  bottom: "inception_3b/1x1"
  bottom: "inception_3b/3x3"
  bottom: "inception_3b/5x5"
  bottom: "inception_3b/pool_proj"
  top: "inception_3b/output"
}
layer {
  name: "pool3/3x3_s2"
  type: "Pooling"
  bottom: "inception_3b/output"
  top: "pool3/3x3_s2"
  pooling_param {
    pool: MAX
    kernel_size: 3
    stride: 2
  }
}
layer {
  name: "inception_4a/1x1"
  type: "Convolution"
  bottom: "pool3/3x3_s2"
  top: "inception_4a/1x1"
  param {
    lr_mult: 1
    decay_mult: 1
  }
  param {
    lr_mult: 2
    decay_mult: 0
  }
  convolution_param {
    num_output: 192
    kernel_size: 1
    weight_filler {
      type: "xavier"
      std: 0.03
    }
    bias_filler {
      type: "constant"
      value: 0.2
    }
  }
}
layer {
  name: "inception_4a/relu_1x1"
  type: "ReLU"
  bottom: "inception_4a/1x1"
  top: "inception_4a/1x1"
}
layer {
  name: "inception_4a/3x3_reduce"
  type: "Convolution"
  bottom: "pool3/3x3_s2"
  top: "inception_4a/3x3_reduce"
  param {
    lr_mult: 1
    decay_mult: 1
  }
  param {
    lr_mult: 2
    decay_mult: 0
  }
  convolution_param {
    num_output: 96
    kernel_size: 1
    weight_filler {
      type: "xavier"
      std: 0.09
    }
    bias_filler {
      type: "constant"
      value: 0.2
    }
  }
}
layer {
  name: "inception_4a/relu_3x3_reduce"
  type: "ReLU"
  bottom: "inception_4a/3x3_reduce"
  top: "inception_4a/3x3_reduce"
}
layer {
  name: "inception_4a/3x3"
  type: "Convolution"
  bottom: "inception_4a/3x3_reduce"
  top: "inception_4a/3x3"
  param {
    lr_mult: 1
    decay_mult: 1
  }
  param {
    lr_mult: 2
    decay_mult: 0
  }
  convolution_param {
    num_output: 208
    pad: 1
    kernel_size: 3
    weight_filler {
      type: "xavier"
      std: 0.03
    }
    bias_filler {
      type: "constant"
      value: 0.2
    }
  }
}
layer {
  name: "inception_4a/relu_3x3"
  type: "ReLU"
  bottom: "inception_4a/3x3"
  top: "inception_4a/3x3"
}
layer {
  name: "inception_4a/5x5_reduce"
  type: "Convolution"
  bottom: "pool3/3x3_s2"
  top: "inception_4a/5x5_reduce"
  param {
    lr_mult: 1
    decay_mult: 1
  }
  param {
    lr_mult: 2
    decay_mult: 0
  }
  convolution_param {
    num_output: 16
    kernel_size: 1
    weight_filler {
      type: "xavier"
      std: 0.2
    }
    bias_filler {
      type: "constant"
      value: 0.2
    }
  }
}
layer {
  name: "inception_4a/relu_5x5_reduce"
  type: "ReLU"
  bottom: "inception_4a/5x5_reduce"
  top: "inception_4a/5x5_reduce"
}
layer {
  name: "inception_4a/5x5"
  type: "Convolution"
  bottom: "inception_4a/5x5_reduce"
  top: "inception_4a/5x5"
  param {
    lr_mult: 1
    decay_mult: 1
  }
  param {
    lr_mult: 2
    decay_mult: 0
  }
  convolution_param {
    num_output: 48
    pad: 2
    kernel_size: 5
    weight_filler {
      type: "xavier"
      std: 0.03
    }
    bias_filler {
      type: "constant"
      value: 0.2
    }
  }
}
layer {
  name: "inception_4a/relu_5x5"
  type: "ReLU"
  bottom: "inception_4a/5x5"
  top: "inception_4a/5x5"
}
layer {
  name: "inception_4a/pool"
  type: "Pooling"
  bottom: "pool3/3x3_s2"
  top: "inception_4a/pool"
  pooling_param {
    pool: MAX
    kernel_size: 3
    stride: 1
    pad: 1
  }
}
layer {
  name: "inception_4a/pool_proj"
  type: "Convolution"
  bottom: "inception_4a/pool"
  top: "inception_4a/pool_proj"
  param {
    lr_mult: 1
    decay_mult: 1
  }
  param {
    lr_mult: 2
    decay_mult: 0
  }
  convolution_param {
    num_output: 64
    kernel_size: 1
    weight_filler {
      type: "xavier"
      std: 0.1
    }
    bias_filler {
      type: "constant"
      value: 0.2
    }
  }
}
layer {
  name: "inception_4a/relu_pool_proj"
  type: "ReLU"
  bottom: "inception_4a/pool_proj"
  top: "inception_4a/pool_proj"
}
layer {
  name: "inception_4a/output"
  type: "Concat"
  bottom: "inception_4a/1x1"
  bottom: "inception_4a/3x3"
  bottom: "inception_4a/5x5"
  bottom: "inception_4a/pool_proj"
  top: "inception_4a/output"
}
layer {
  name: "loss1/ave_pool"
  type: "Pooling"
  bottom: "inception_4a/output"
  top: "loss1/ave_pool"
  pooling_param {
    pool: AVE
    kernel_size: 5
    stride: 3
  }
}
layer {
  name: "loss1/conv"
  type: "Convolution"
  bottom: "loss1/ave_pool"
  top: "loss1/conv"
  param {
    lr_mult: 1
    decay_mult: 1
  }
  param {
    lr_mult: 2
    decay_mult: 0
  }
  convolution_param {
    num_output: 128
    kernel_size: 1
    weight_filler {
      type: "xavier"
      std: 0.08
    }
    bias_filler {
      type: "constant"
      value: 0.2
    }
  }
}
layer {
  name: "loss1/relu_conv"
  type: "ReLU"
  bottom: "loss1/conv"
  top: "loss1/conv"
}
layer {
  name: "loss1/fc"
  type: "InnerProduct"
  bottom: "loss1/conv"
  top: "loss1/fc"
  param {
    lr_mult: 1
    decay_mult: 1
  }
  param {
    lr_mult: 2
    decay_mult: 0
  }
  inner_product_param {
    num_output: 1024
    weight_filler {
      type: "xavier"
      std: 0.02
    }
    bias_filler {
      type: "constant"
      value: 0.2
    }
  }
}
layer {
  name: "loss1/relu_fc"
  type: "ReLU"
  bottom: "loss1/fc"
  top: "loss1/fc"
}
layer {
  name: "loss1/drop_fc"
  type: "Dropout"
  bottom: "loss1/fc"
  top: "loss1/fc"
  dropout_param {
    dropout_ratio: 0.7
  }
}
layer {
  name: "loss1/classifier_plantvillage"
  type: "InnerProduct"
  bottom: "loss1/fc"
  top: "loss1/classifier_plantvillage"
  param {
    lr_mult: 1
    decay_mult: 1
  }
  param {
    lr_mult: 2
    decay_mult: 0
  }
  inner_product_param {
    num_output: 38
    weight_filler {
      type: "xavier"
      std: 0.0009765625
    }
    bias_filler {
      type: "constant"
      value: 0
    }
  }
}
layer {
  name: "inception_4b/1x1"
  type: "Convolution"
  bottom: "inception_4a/output"
  top: "inception_4b/1x1"
  param {
    lr_mult: 1
    decay_mult: 1
  }
  param {
    lr_mult: 2
    decay_mult: 0
  }
  convolution_param {
    num_output: 160
    kernel_size: 1
    weight_filler {
      type: "xavier"
      std: 0.03
    }
    bias_filler {
      type: "constant"
      value: 0.2
    }
  }
}
layer {
  name: "inception_4b/relu_1x1"
  type: "ReLU"
  bottom: "inception_4b/1x1"
  top: "inception_4b/1x1"
}
layer {
  name: "inception_4b/3x3_reduce"
  type: "Convolution"
  bottom: "inception_4a/output"
  top: "inception_4b/3x3_reduce"
  param {
    lr_mult: 1
    decay_mult: 1
  }
  param {
    lr_mult: 2
    decay_mult: 0
  }
  convolution_param {
    num_output: 112
    kernel_size: 1
    weight_filler {
      type: "xavier"
      std: 0.09
    }
    bias_filler {
      type: "constant"
      value: 0.2
    }
  }
}
layer {
  name: "inception_4b/relu_3x3_reduce"
  type: "ReLU"
  bottom: "inception_4b/3x3_reduce"
  top: "inception_4b/3x3_reduce"
}
layer {
  name: "inception_4b/3x3"
  type: "Convolution"
  bottom: "inception_4b/3x3_reduce"
  top: "inception_4b/3x3"
  param {
    lr_mult: 1
    decay_mult: 1
  }
  param {
    lr_mult: 2
    decay_mult: 0
  }
  convolution_param {
    num_output: 224
    pad: 1
    kernel_size: 3
    weight_filler {
      type: "xavier"
      std: 0.03
    }
    bias_filler {
      type: "constant"
      value: 0.2
    }
  }
}
layer {
  name: "inception_4b/relu_3x3"
  type: "ReLU"
  bottom: "inception_4b/3x3"
  top: "inception_4b/3x3"
}
layer {
  name: "inception_4b/5x5_reduce"
  type: "Convolution"
  bottom: "inception_4a/output"
  top: "inception_4b/5x5_reduce"
  param {
    lr_mult: 1
    decay_mult: 1
  }
  param {
    lr_mult: 2
    decay_mult: 0
  }
  convolution_param {
    num_output: 24
    kernel_size: 1
    weight_filler {
      type: "xavier"
      std: 0.2
    }
    bias_filler {
      type: "constant"
      value: 0.2
    }
  }
}
layer {
  name: "inception_4b/relu_5x5_reduce"
  type: "ReLU"
  bottom: "inception_4b/5x5_reduce"
  top: "inception_4b/5x5_reduce"
}
layer {
  name: "inception_4b/5x5"
  type: "Convolution"
  bottom: "inception_4b/5x5_reduce"
  top: "inception_4b/5x5"
  param {
    lr_mult: 1
    decay_mult: 1
  }
  param {
    lr_mult: 2
    decay_mult: 0
  }
  convolution_param {
    num_output: 64
    pad: 2
    kernel_size: 5
    weight_filler {
      type: "xavier"
      std: 0.03
    }
    bias_filler {
      type: "constant"
      value: 0.2
    }
  }
}
layer {
  name: "inception_4b/relu_5x5"
  type: "ReLU"
  bottom: "inception_4b/5x5"
  top: "inception_4b/5x5"
}
layer {
  name: "inception_4b/pool"
  type: "Pooling"
  bottom: "inception_4a/output"
  top: "inception_4b/pool"
  pooling_param {
    pool: MAX
    kernel_size: 3
    stride: 1
    pad: 1
  }
}
layer {
  name: "inception_4b/pool_proj"
  type: "Convolution"
  bottom: "inception_4b/pool"
  top: "inception_4b/pool_proj"
  param {
    lr_mult: 1
    decay_mult: 1
  }
  param {
    lr_mult: 2
    decay_mult: 0
  }
  convolution_param {
    num_output: 64
    kernel_size: 1
    weight_filler {
      type: "xavier"
      std: 0.1
    }
    bias_filler {
      type: "constant"
      value: 0.2
    }
  }
}
layer {
  name: "inception_4b/relu_pool_proj"
  type: "ReLU"
  bottom: "inception_4b/pool_proj"
  top: "inception_4b/pool_proj"
}
layer {
  name: "inception_4b/output"
  type: "Concat"
  bottom: "inception_4b/1x1"
  bottom: "inception_4b/3x3"
  bottom: "inception_4b/5x5"
  bottom: "inception_4b/pool_proj"
  top: "inception_4b/output"
}
layer {
  name: "inception_4c/1x1"
  type: "Convolution"
  bottom: "inception_4b/output"
  top: "inception_4c/1x1"
  param {
    lr_mult: 1
    decay_mult: 1
  }
  param {
    lr_mult: 2
    decay_mult: 0
  }
  convolution_param {
    num_output: 128
    kernel_size: 1
    weight_filler {
      type: "xavier"
      std: 0.03
    }
    bias_filler {
      type: "constant"
      value: 0.2
    }
  }
}
layer {
  name: "inception_4c/relu_1x1"
  type: "ReLU"
  bottom: "inception_4c/1x1"
  top: "inception_4c/1x1"
}
layer {
  name: "inception_4c/3x3_reduce"
  type: "Convolution"
  bottom: "inception_4b/output"
  top: "inception_4c/3x3_reduce"
  param {
    lr_mult: 1
    decay_mult: 1
  }
  param {
    lr_mult: 2
    decay_mult: 0
  }
  convolution_param {
    num_output: 128
    kernel_size: 1
    weight_filler {
      type: "xavier"
      std: 0.09
    }
    bias_filler {
      type: "constant"
      value: 0.2
    }
  }
}
layer {
  name: "inception_4c/relu_3x3_reduce"
  type: "ReLU"
  bottom: "inception_4c/3x3_reduce"
  top: "inception_4c/3x3_reduce"
}
layer {
  name: "inception_4c/3x3"
  type: "Convolution"
  bottom: "inception_4c/3x3_reduce"
  top: "inception_4c/3x3"
  param {
    lr_mult: 1
    decay_mult: 1
  }
  param {
    lr_mult: 2
    decay_mult: 0
  }
  convolution_param {
    num_output: 256
    pad: 1
    kernel_size: 3
    weight_filler {
      type: "xavier"
      std: 0.03
    }
    bias_filler {
      type: "constant"
      value: 0.2
    }
  }
}
layer {
  name: "inception_4c/relu_3x3"
  type: "ReLU"
  bottom: "inception_4c/3x3"
  top: "inception_4c/3x3"
}
layer {
  name: "inception_4c/5x5_reduce"
  type: "Convolution"
  bottom: "inception_4b/output"
  top: "inception_4c/5x5_reduce"
  param {
    lr_mult: 1
    decay_mult: 1
  }
  param {
    lr_mult: 2
    decay_mult: 0
  }
  convolution_param {
    num_output: 24
    kernel_size: 1
    weight_filler {
      type: "xavier"
      std: 0.2
    }
    bias_filler {
      type: "constant"
      value: 0.2
    }
  }
}
layer {
  name: "inception_4c/relu_5x5_reduce"
  type: "ReLU"
  bottom: "inception_4c/5x5_reduce"
  top: "inception_4c/5x5_reduce"
}
layer {
  name: "inception_4c/5x5"
  type: "Convolution"
  bottom: "inception_4c/5x5_reduce"
  top: "inception_4c/5x5"
  param {
    lr_mult: 1
    decay_mult: 1
  }
  param {
    lr_mult: 2
    decay_mult: 0
  }
  convolution_param {
    num_output: 64
    pad: 2
    kernel_size: 5
    weight_filler {
      type: "xavier"
      std: 0.03
    }
    bias_filler {
      type: "constant"
      value: 0.2
    }
  }
}
layer {
  name: "inception_4c/relu_5x5"
  type: "ReLU"
  bottom: "inception_4c/5x5"
  top: "inception_4c/5x5"
}
layer {
  name: "inception_4c/pool"
  type: "Pooling"
  bottom: "inception_4b/output"
  top: "inception_4c/pool"
  pooling_param {
    pool: MAX
    kernel_size: 3
    stride: 1
    pad: 1
  }
}
layer {
  name: "inception_4c/pool_proj"
  type: "Convolution"
  bottom: "inception_4c/pool"
  top: "inception_4c/pool_proj"
  param {
    lr_mult: 1
    decay_mult: 1
  }
  param {
    lr_mult: 2
    decay_mult: 0
  }
  convolution_param {
    num_output: 64
    kernel_size: 1
    weight_filler {
      type: "xavier"
      std: 0.1
    }
    bias_filler {
      type: "constant"
      value: 0.2
    }
  }
}
layer {
  name: "inception_4c/relu_pool_proj"
  type: "ReLU"
  bottom: "inception_4c/pool_proj"
  top: "inception_4c/pool_proj"
}
layer {
  name: "inception_4c/output"
  type: "Concat"
  bottom: "inception_4c/1x1"
  bottom: "inception_4c/3x3"
  bottom: "inception_4c/5x5"
  bottom: "inception_4c/pool_proj"
  top: "inception_4c/output"
}
layer {
  name: "inception_4d/1x1"
  type: "Convolution"
  bottom: "inception_4c/output"
  top: "inception_4d/1x1"
  param {
    lr_mult: 1
    decay_mult: 1
  }
  param {
    lr_mult: 2
    decay_mult: 0
  }
  convolution_param {
    num_output: 112
    kernel_size: 1
    weight_filler {
      type: "xavier"
      std: 0.03
    }
    bias_filler {
      type: "constant"
      value: 0.2
    }
  }
}
layer {
  name: "inception_4d/relu_1x1"
  type: "ReLU"
  bottom: "inception_4d/1x1"
  top: "inception_4d/1x1"
}
layer {
  name: "inception_4d/3x3_reduce"
  type: "Convolution"
  bottom: "inception_4c/output"
  top: "inception_4d/3x3_reduce"
  param {
    lr_mult: 1
    decay_mult: 1
  }
  param {
    lr_mult: 2
    decay_mult: 0
  }
  convolution_param {
    num_output: 144
    kernel_size: 1
    weight_filler {
      type: "xavier"
      std: 0.09
    }
    bias_filler {
      type: "constant"
      value: 0.2
    }
  }
}
layer {
  name: "inception_4d/relu_3x3_reduce"
  type: "ReLU"
  bottom: "inception_4d/3x3_reduce"
  top: "inception_4d/3x3_reduce"
}
layer {
  name: "inception_4d/3x3"
  type: "Convolution"
  bottom: "inception_4d/3x3_reduce"
  top: "inception_4d/3x3"
  param {
    lr_mult: 1
    decay_mult: 1
  }
  param {
    lr_mult: 2
    decay_mult: 0
  }
  convolution_param {
    num_output: 288
    pad: 1
    kernel_size: 3
    weight_filler {
      type: "xavier"
      std: 0.03
    }
    bias_filler {
      type: "constant"
      value: 0.2
    }
  }
}
layer {
  name: "inception_4d/relu_3x3"
  type: "ReLU"
  bottom: "inception_4d/3x3"
  top: "inception_4d/3x3"
}
layer {
  name: "inception_4d/5x5_reduce"
  type: "Convolution"
  bottom: "inception_4c/output"
  top: "inception_4d/5x5_reduce"
  param {
    lr_mult: 1
    decay_mult: 1
  }
  param {
    lr_mult: 2
    decay_mult: 0
  }
  convolution_param {
    num_output: 32
    kernel_size: 1
    weight_filler {
      type: "xavier"
      std: 0.2
    }
    bias_filler {
      type: "constant"
      value: 0.2
    }
  }
}
layer {
  name: "inception_4d/relu_5x5_reduce"
  type: "ReLU"
  bottom: "inception_4d/5x5_reduce"
  top: "inception_4d/5x5_reduce"
}
layer {
  name: "inception_4d/5x5"
  type: "Convolution"
  bottom: "inception_4d/5x5_reduce"
  top: "inception_4d/5x5"
  param {
    lr_mult: 1
    decay_mult: 1
  }
  param {
    lr_mult: 2
    decay_mult: 0
  }
  convolution_param {
    num_output: 64
    pad: 2
    kernel_size: 5
    weight_filler {
      type: "xavier"
      std: 0.03
    }
    bias_filler {
      type: "constant"
      value: 0.2
    }
  }
}
layer {
  name: "inception_4d/relu_5x5"
  type: "ReLU"
  bottom: "inception_4d/5x5"
  top: "inception_4d/5x5"
}
layer {
  name: "inception_4d/pool"
  type: "Pooling"
  bottom: "inception_4c/output"
  top: "inception_4d/pool"
  pooling_param {
    pool: MAX
    kernel_size: 3
    stride: 1
    pad: 1
  }
}
layer {
  name: "inception_4d/pool_proj"
  type: "Convolution"
  bottom: "inception_4d/pool"
  top: "inception_4d/pool_proj"
  param {
    lr_mult: 1
    decay_mult: 1
  }
  param {
    lr_mult: 2
    decay_mult: 0
  }
  convolution_param {
    num_output: 64
    kernel_size: 1
    weight_filler {
      type: "xavier"
      std: 0.1
    }
    bias_filler {
      type: "constant"
      value: 0.2
    }
  }
}
layer {
  name: "inception_4d/relu_pool_proj"
  type: "ReLU"
  bottom: "inception_4d/pool_proj"
  top: "inception_4d/pool_proj"
}
layer {
  name: "inception_4d/output"
  type: "Concat"
  bottom: "inception_4d/1x1"
  bottom: "inception_4d/3x3"
  bottom: "inception_4d/5x5"
  bottom: "inception_4d/pool_proj"
  top: "inception_4d/output"
}
layer {
  name: "loss2/ave_pool"
  type: "Pooling"
  bottom: "inception_4d/output"
  top: "loss2/ave_pool"
  pooling_param {
    pool: AVE
    kernel_size: 5
    stride: 3
  }
}
layer {
  name: "loss2/conv"
  type: "Convolution"
  bottom: "loss2/ave_pool"
  top: "loss2/conv"
  param {
    lr_mult: 1
    decay_mult: 1
  }
  param {
    lr_mult: 2
    decay_mult: 0
  }
  convolution_param {
    num_output: 128
    kernel_size: 1
    weight_filler {
      type: "xavier"
      std: 0.08
    }
    bias_filler {
      type: "constant"
      value: 0.2
    }
  }
}
layer {
  name: "loss2/relu_conv"
  type: "ReLU"
  bottom: "loss2/conv"
  top: "loss2/conv"
}
layer {
  name: "loss2/fc"
  type: "InnerProduct"
  bottom: "loss2/conv"
  top: "loss2/fc"
  param {
    lr_mult: 1
    decay_mult: 1
  }
  param {
    lr_mult: 2
    decay_mult: 0
  }
  inner_product_param {
    num_output: 1024
    weight_filler {
      type: "xavier"
      std: 0.02
    }
    bias_filler {
      type: "constant"
      value: 0.2
    }
  }
}
layer {
  name: "loss2/relu_fc"
  type: "ReLU"
  bottom: "loss2/fc"
  top: "loss2/fc"
}
layer {
  name: "loss2/drop_fc"
  type: "Dropout"
  bottom: "loss2/fc"
  top: "loss2/fc"
  dropout_param {
    dropout_ratio: 0.7
  }
}
layer {
  name: "loss2/classifier_plantvillage"
  type: "InnerProduct"
  bottom: "loss2/fc"
  top: "loss2/classifier_plantvillage"
  param {
    lr_mult: 1
    decay_mult: 1
  }
  param {
    lr_mult: 2
    decay_mult: 0
  }
  inner_product_param {
    num_output: 38
    weight_filler {
      type: "xavier"
      std: 0.0009765625
    }
    bias_filler {
      type: "constant"
      value: 0
    }
  }
}
layer {
  name: "inception_4e/1x1"
  type: "Convolution"
  bottom: "inception_4d/output"
  top: "inception_4e/1x1"
  param {
    lr_mult: 1
    decay_mult: 1
  }
  param {
    lr_mult: 2
    decay_mult: 0
  }
  convolution_param {
    num_output: 256
    kernel_size: 1
    weight_filler {
      type: "xavier"
      std: 0.03
    }
    bias_filler {
      type: "constant"
      value: 0.2
    }
  }
}
layer {
  name: "inception_4e/relu_1x1"
  type: "ReLU"
  bottom: "inception_4e/1x1"
  top: "inception_4e/1x1"
}
layer {
  name: "inception_4e/3x3_reduce"
  type: "Convolution"
  bottom: "inception_4d/output"
  top: "inception_4e/3x3_reduce"
  param {
    lr_mult: 1
    decay_mult: 1
  }
  param {
    lr_mult: 2
    decay_mult: 0
  }
  convolution_param {
    num_output: 160
    kernel_size: 1
    weight_filler {
      type: "xavier"
      std: 0.09
    }
    bias_filler {
      type: "constant"
      value: 0.2
    }
  }
}
layer {
  name: "inception_4e/relu_3x3_reduce"
  type: "ReLU"
  bottom: "inception_4e/3x3_reduce"
  top: "inception_4e/3x3_reduce"
}
layer {
  name: "inception_4e/3x3"
  type: "Convolution"
  bottom: "inception_4e/3x3_reduce"
  top: "inception_4e/3x3"
  param {
    lr_mult: 1
    decay_mult: 1
  }
  param {
    lr_mult: 2
    decay_mult: 0
  }
  convolution_param {
    num_output: 320
    pad: 1
    kernel_size: 3
    weight_filler {
      type: "xavier"
      std: 0.03
    }
    bias_filler {
      type: "constant"
      value: 0.2
    }
  }
}
layer {
  name: "inception_4e/relu_3x3"
  type: "ReLU"
  bottom: "inception_4e/3x3"
  top: "inception_4e/3x3"
}
layer {
  name: "inception_4e/5x5_reduce"
  type: "Convolution"
  bottom: "inception_4d/output"
  top: "inception_4e/5x5_reduce"
  param {
    lr_mult: 1
    decay_mult: 1
  }
  param {
    lr_mult: 2
    decay_mult: 0
  }
  convolution_param {
    num_output: 32
    kernel_size: 1
    weight_filler {
      type: "xavier"
      std: 0.2
    }
    bias_filler {
      type: "constant"
      value: 0.2
    }
  }
}
layer {
  name: "inception_4e/relu_5x5_reduce"
  type: "ReLU"
  bottom: "inception_4e/5x5_reduce"
  top: "inception_4e/5x5_reduce"
}
layer {
  name: "inception_4e/5x5"
  type: "Convolution"
  bottom: "inception_4e/5x5_reduce"
  top: "inception_4e/5x5"
  p
I0403 19:15:25.716047  8990 layer_factory.hpp:77] Creating layer data
I0403 19:15:25.716783  8990 net.cpp:91] Creating Layer data
I0403 19:15:25.716823  8990 net.cpp:399] data -> data
I0403 19:15:25.716889  8990 net.cpp:399] data -> label
I0403 19:15:25.716934  8990 data_transformer.cpp:25] Loading mean file from: /home/mohanty/data/final_dataset/lmdb/color-60-40/mean.binaryproto
I0403 19:15:25.718246  8994 db_lmdb.cpp:38] Opened lmdb /home/mohanty/data/final_dataset/lmdb/color-60-40/test_db
I0403 19:15:25.732836  8990 data_layer.cpp:41] output data size: 24,3,224,224
I0403 19:15:25.764494  8990 net.cpp:141] Setting up data
I0403 19:15:25.764580  8990 net.cpp:148] Top shape: 24 3 224 224 (3612672)
I0403 19:15:25.764608  8990 net.cpp:148] Top shape: 24 (24)
I0403 19:15:25.764627  8990 net.cpp:156] Memory required for data: 14450784
I0403 19:15:25.764662  8990 layer_factory.hpp:77] Creating layer label_data_1_split
I0403 19:15:25.764698  8990 net.cpp:91] Creating Layer label_data_1_split
I0403 19:15:25.764720  8990 net.cpp:425] label_data_1_split <- label
I0403 19:15:25.764761  8990 net.cpp:399] label_data_1_split -> label_data_1_split_0
I0403 19:15:25.764796  8990 net.cpp:399] label_data_1_split -> label_data_1_split_1
I0403 19:15:25.764822  8990 net.cpp:399] label_data_1_split -> label_data_1_split_2
I0403 19:15:25.764848  8990 net.cpp:399] label_data_1_split -> label_data_1_split_3
I0403 19:15:25.764873  8990 net.cpp:399] label_data_1_split -> label_data_1_split_4
I0403 19:15:25.764897  8990 net.cpp:399] label_data_1_split -> label_data_1_split_5
I0403 19:15:25.764921  8990 net.cpp:399] label_data_1_split -> label_data_1_split_6
I0403 19:15:25.764946  8990 net.cpp:399] label_data_1_split -> label_data_1_split_7
I0403 19:15:25.764971  8990 net.cpp:399] label_data_1_split -> label_data_1_split_8
I0403 19:15:25.764994  8990 net.cpp:399] label_data_1_split -> label_data_1_split_9
I0403 19:15:25.765136  8990 net.cpp:141] Setting up label_data_1_split
I0403 19:15:25.765163  8990 net.cpp:148] Top shape: 24 (24)
I0403 19:15:25.765185  8990 net.cpp:148] Top shape: 24 (24)
I0403 19:15:25.765205  8990 net.cpp:148] Top shape: 24 (24)
I0403 19:15:25.765226  8990 net.cpp:148] Top shape: 24 (24)
I0403 19:15:25.765245  8990 net.cpp:148] Top shape: 24 (24)
I0403 19:15:25.765265  8990 net.cpp:148] Top shape: 24 (24)
I0403 19:15:25.765285  8990 net.cpp:148] Top shape: 24 (24)
I0403 19:15:25.765303  8990 net.cpp:148] Top shape: 24 (24)
I0403 19:15:25.765323  8990 net.cpp:148] Top shape: 24 (24)
I0403 19:15:25.765343  8990 net.cpp:148] Top shape: 24 (24)
I0403 19:15:25.765398  8990 net.cpp:156] Memory required for data: 14451744
I0403 19:15:25.765419  8990 layer_factory.hpp:77] Creating layer conv1/7x7_s2
I0403 19:15:25.765465  8990 net.cpp:91] Creating Layer conv1/7x7_s2
I0403 19:15:25.765491  8990 net.cpp:425] conv1/7x7_s2 <- data
I0403 19:15:25.765517  8990 net.cpp:399] conv1/7x7_s2 -> conv1/7x7_s2
I0403 19:15:25.926944  8990 net.cpp:141] Setting up conv1/7x7_s2
I0403 19:15:25.927021  8990 net.cpp:148] Top shape: 24 64 112 112 (19267584)
I0403 19:15:25.927042  8990 net.cpp:156] Memory required for data: 91522080
I0403 19:15:25.927083  8990 layer_factory.hpp:77] Creating layer conv1/relu_7x7
I0403 19:15:25.927117  8990 net.cpp:91] Creating Layer conv1/relu_7x7
I0403 19:15:25.927142  8990 net.cpp:425] conv1/relu_7x7 <- conv1/7x7_s2
I0403 19:15:25.927167  8990 net.cpp:386] conv1/relu_7x7 -> conv1/7x7_s2 (in-place)
I0403 19:15:25.927490  8990 net.cpp:141] Setting up conv1/relu_7x7
I0403 19:15:25.927525  8990 net.cpp:148] Top shape: 24 64 112 112 (19267584)
I0403 19:15:25.927543  8990 net.cpp:156] Memory required for data: 168592416
I0403 19:15:25.927562  8990 layer_factory.hpp:77] Creating layer pool1/3x3_s2
I0403 19:15:25.927594  8990 net.cpp:91] Creating Layer pool1/3x3_s2
I0403 19:15:25.927615  8990 net.cpp:425] pool1/3x3_s2 <- conv1/7x7_s2
I0403 19:15:25.927641  8990 net.cpp:399] pool1/3x3_s2 -> pool1/3x3_s2
I0403 19:15:25.927737  8990 net.cpp:141] Setting up pool1/3x3_s2
I0403 19:15:25.927767  8990 net.cpp:148] Top shape: 24 64 56 56 (4816896)
I0403 19:15:25.927785  8990 net.cpp:156] Memory required for data: 187860000
I0403 19:15:25.927803  8990 layer_factory.hpp:77] Creating layer pool1/norm1
I0403 19:15:25.927837  8990 net.cpp:91] Creating Layer pool1/norm1
I0403 19:15:25.927860  8990 net.cpp:425] pool1/norm1 <- pool1/3x3_s2
I0403 19:15:25.927886  8990 net.cpp:399] pool1/norm1 -> pool1/norm1
I0403 19:15:25.928246  8990 net.cpp:141] Setting up pool1/norm1
I0403 19:15:25.928279  8990 net.cpp:148] Top shape: 24 64 56 56 (4816896)
I0403 19:15:25.928302  8990 net.cpp:156] Memory required for data: 207127584
I0403 19:15:25.928321  8990 layer_factory.hpp:77] Creating layer conv2/3x3_reduce
I0403 19:15:25.928354  8990 net.cpp:91] Creating Layer conv2/3x3_reduce
I0403 19:15:25.928377  8990 net.cpp:425] conv2/3x3_reduce <- pool1/norm1
I0403 19:15:25.928405  8990 net.cpp:399] conv2/3x3_reduce -> conv2/3x3_reduce
I0403 19:15:25.930068  8990 net.cpp:141] Setting up conv2/3x3_reduce
I0403 19:15:25.930107  8990 net.cpp:148] Top shape: 24 64 56 56 (4816896)
I0403 19:15:25.930131  8990 net.cpp:156] Memory required for data: 226395168
I0403 19:15:25.930158  8990 layer_factory.hpp:77] Creating layer conv2/relu_3x3_reduce
I0403 19:15:25.930181  8990 net.cpp:91] Creating Layer conv2/relu_3x3_reduce
I0403 19:15:25.930202  8990 net.cpp:425] conv2/relu_3x3_reduce <- conv2/3x3_reduce
I0403 19:15:25.930224  8990 net.cpp:386] conv2/relu_3x3_reduce -> conv2/3x3_reduce (in-place)
I0403 19:15:25.930559  8990 net.cpp:141] Setting up conv2/relu_3x3_reduce
I0403 19:15:25.930594  8990 net.cpp:148] Top shape: 24 64 56 56 (4816896)
I0403 19:15:25.930614  8990 net.cpp:156] Memory required for data: 245662752
I0403 19:15:25.930634  8990 layer_factory.hpp:77] Creating layer conv2/3x3
I0403 19:15:25.930662  8990 net.cpp:91] Creating Layer conv2/3x3
I0403 19:15:25.930685  8990 net.cpp:425] conv2/3x3 <- conv2/3x3_reduce
I0403 19:15:25.930708  8990 net.cpp:399] conv2/3x3 -> conv2/3x3
I0403 19:15:25.933454  8990 net.cpp:141] Setting up conv2/3x3
I0403 19:15:25.933500  8990 net.cpp:148] Top shape: 24 192 56 56 (14450688)
I0403 19:15:25.933529  8990 net.cpp:156] Memory required for data: 303465504
I0403 19:15:25.933555  8990 layer_factory.hpp:77] Creating layer conv2/relu_3x3
I0403 19:15:25.933579  8990 net.cpp:91] Creating Layer conv2/relu_3x3
I0403 19:15:25.933599  8990 net.cpp:425] conv2/relu_3x3 <- conv2/3x3
I0403 19:15:25.933621  8990 net.cpp:386] conv2/relu_3x3 -> conv2/3x3 (in-place)
I0403 19:15:25.933838  8990 net.cpp:141] Setting up conv2/relu_3x3
I0403 19:15:25.933871  8990 net.cpp:148] Top shape: 24 192 56 56 (14450688)
I0403 19:15:25.933928  8990 net.cpp:156] Memory required for data: 361268256
I0403 19:15:25.933948  8990 layer_factory.hpp:77] Creating layer conv2/norm2
I0403 19:15:25.933979  8990 net.cpp:91] Creating Layer conv2/norm2
I0403 19:15:25.934001  8990 net.cpp:425] conv2/norm2 <- conv2/3x3
I0403 19:15:25.934023  8990 net.cpp:399] conv2/norm2 -> conv2/norm2
I0403 19:15:25.934389  8990 net.cpp:141] Setting up conv2/norm2
I0403 19:15:25.934422  8990 net.cpp:148] Top shape: 24 192 56 56 (14450688)
I0403 19:15:25.934443  8990 net.cpp:156] Memory required for data: 419071008
I0403 19:15:25.934466  8990 layer_factory.hpp:77] Creating layer pool2/3x3_s2
I0403 19:15:25.934494  8990 net.cpp:91] Creating Layer pool2/3x3_s2
I0403 19:15:25.934514  8990 net.cpp:425] pool2/3x3_s2 <- conv2/norm2
I0403 19:15:25.934537  8990 net.cpp:399] pool2/3x3_s2 -> pool2/3x3_s2
I0403 19:15:25.934603  8990 net.cpp:141] Setting up pool2/3x3_s2
I0403 19:15:25.934631  8990 net.cpp:148] Top shape: 24 192 28 28 (3612672)
I0403 19:15:25.934649  8990 net.cpp:156] Memory required for data: 433521696
I0403 19:15:25.934669  8990 layer_factory.hpp:77] Creating layer pool2/3x3_s2_pool2/3x3_s2_0_split
I0403 19:15:25.934690  8990 net.cpp:91] Creating Layer pool2/3x3_s2_pool2/3x3_s2_0_split
I0403 19:15:25.934710  8990 net.cpp:425] pool2/3x3_s2_pool2/3x3_s2_0_split <- pool2/3x3_s2
I0403 19:15:25.934733  8990 net.cpp:399] pool2/3x3_s2_pool2/3x3_s2_0_split -> pool2/3x3_s2_pool2/3x3_s2_0_split_0
I0403 19:15:25.934759  8990 net.cpp:399] pool2/3x3_s2_pool2/3x3_s2_0_split -> pool2/3x3_s2_pool2/3x3_s2_0_split_1
I0403 19:15:25.934783  8990 net.cpp:399] pool2/3x3_s2_pool2/3x3_s2_0_split -> pool2/3x3_s2_pool2/3x3_s2_0_split_2
I0403 19:15:25.934808  8990 net.cpp:399] pool2/3x3_s2_pool2/3x3_s2_0_split -> pool2/3x3_s2_pool2/3x3_s2_0_split_3
I0403 19:15:25.934896  8990 net.cpp:141] Setting up pool2/3x3_s2_pool2/3x3_s2_0_split
I0403 19:15:25.934928  8990 net.cpp:148] Top shape: 24 192 28 28 (3612672)
I0403 19:15:25.934950  8990 net.cpp:148] Top shape: 24 192 28 28 (3612672)
I0403 19:15:25.934970  8990 net.cpp:148] Top shape: 24 192 28 28 (3612672)
I0403 19:15:25.934990  8990 net.cpp:148] Top shape: 24 192 28 28 (3612672)
I0403 19:15:25.935008  8990 net.cpp:156] Memory required for data: 491324448
I0403 19:15:25.935026  8990 layer_factory.hpp:77] Creating layer inception_3a/1x1
I0403 19:15:25.935055  8990 net.cpp:91] Creating Layer inception_3a/1x1
I0403 19:15:25.935076  8990 net.cpp:425] inception_3a/1x1 <- pool2/3x3_s2_pool2/3x3_s2_0_split_0
I0403 19:15:25.935099  8990 net.cpp:399] inception_3a/1x1 -> inception_3a/1x1
I0403 19:15:25.936933  8990 net.cpp:141] Setting up inception_3a/1x1
I0403 19:15:25.936969  8990 net.cpp:148] Top shape: 24 64 28 28 (1204224)
I0403 19:15:25.936990  8990 net.cpp:156] Memory required for data: 496141344
I0403 19:15:25.937013  8990 layer_factory.hpp:77] Creating layer inception_3a/relu_1x1
I0403 19:15:25.937039  8990 net.cpp:91] Creating Layer inception_3a/relu_1x1
I0403 19:15:25.937060  8990 net.cpp:425] inception_3a/relu_1x1 <- inception_3a/1x1
I0403 19:15:25.937083  8990 net.cpp:386] inception_3a/relu_1x1 -> inception_3a/1x1 (in-place)
I0403 19:15:25.937301  8990 net.cpp:141] Setting up inception_3a/relu_1x1
I0403 19:15:25.937332  8990 net.cpp:148] Top shape: 24 64 28 28 (1204224)
I0403 19:15:25.937351  8990 net.cpp:156] Memory required for data: 500958240
I0403 19:15:25.937371  8990 layer_factory.hpp:77] Creating layer inception_3a/3x3_reduce
I0403 19:15:25.937397  8990 net.cpp:91] Creating Layer inception_3a/3x3_reduce
I0403 19:15:25.937419  8990 net.cpp:425] inception_3a/3x3_reduce <- pool2/3x3_s2_pool2/3x3_s2_0_split_1
I0403 19:15:25.937448  8990 net.cpp:399] inception_3a/3x3_reduce -> inception_3a/3x3_reduce
I0403 19:15:25.939446  8990 net.cpp:141] Setting up inception_3a/3x3_reduce
I0403 19:15:25.939491  8990 net.cpp:148] Top shape: 24 96 28 28 (1806336)
I0403 19:15:25.939512  8990 net.cpp:156] Memory required for data: 508183584
I0403 19:15:25.939539  8990 layer_factory.hpp:77] Creating layer inception_3a/relu_3x3_reduce
I0403 19:15:25.939582  8990 net.cpp:91] Creating Layer inception_3a/relu_3x3_reduce
I0403 19:15:25.939604  8990 net.cpp:425] inception_3a/relu_3x3_reduce <- inception_3a/3x3_reduce
I0403 19:15:25.939630  8990 net.cpp:386] inception_3a/relu_3x3_reduce -> inception_3a/3x3_reduce (in-place)
I0403 19:15:25.939849  8990 net.cpp:141] Setting up inception_3a/relu_3x3_reduce
I0403 19:15:25.939879  8990 net.cpp:148] Top shape: 24 96 28 28 (1806336)
I0403 19:15:25.939898  8990 net.cpp:156] Memory required for data: 515408928
I0403 19:15:25.939916  8990 layer_factory.hpp:77] Creating layer inception_3a/3x3
I0403 19:15:25.939945  8990 net.cpp:91] Creating Layer inception_3a/3x3
I0403 19:15:25.939966  8990 net.cpp:425] inception_3a/3x3 <- inception_3a/3x3_reduce
I0403 19:15:25.939995  8990 net.cpp:399] inception_3a/3x3 -> inception_3a/3x3
I0403 19:15:25.942005  8990 net.cpp:141] Setting up inception_3a/3x3
I0403 19:15:25.942044  8990 net.cpp:148] Top shape: 24 128 28 28 (2408448)
I0403 19:15:25.942065  8990 net.cpp:156] Memory required for data: 525042720
I0403 19:15:25.942087  8990 layer_factory.hpp:77] Creating layer inception_3a/relu_3x3
I0403 19:15:25.942111  8990 net.cpp:91] Creating Layer inception_3a/relu_3x3
I0403 19:15:25.942129  8990 net.cpp:425] inception_3a/relu_3x3 <- inception_3a/3x3
I0403 19:15:25.942153  8990 net.cpp:386] inception_3a/relu_3x3 -> inception_3a/3x3 (in-place)
I0403 19:15:25.942489  8990 net.cpp:141] Setting up inception_3a/relu_3x3
I0403 19:15:25.942525  8990 net.cpp:148] Top shape: 24 128 28 28 (2408448)
I0403 19:15:25.942545  8990 net.cpp:156] Memory required for data: 534676512
I0403 19:15:25.942565  8990 layer_factory.hpp:77] Creating layer inception_3a/5x5_reduce
I0403 19:15:25.942594  8990 net.cpp:91] Creating Layer inception_3a/5x5_reduce
I0403 19:15:25.942615  8990 net.cpp:425] inception_3a/5x5_reduce <- pool2/3x3_s2_pool2/3x3_s2_0_split_2
I0403 19:15:25.942639  8990 net.cpp:399] inception_3a/5x5_reduce -> inception_3a/5x5_reduce
I0403 19:15:25.943792  8990 net.cpp:141] Setting up inception_3a/5x5_reduce
I0403 19:15:25.943830  8990 net.cpp:148] Top shape: 24 16 28 28 (301056)
I0403 19:15:25.943850  8990 net.cpp:156] Memory required for data: 535880736
I0403 19:15:25.943873  8990 layer_factory.hpp:77] Creating layer inception_3a/relu_5x5_reduce
I0403 19:15:25.943895  8990 net.cpp:91] Creating Layer inception_3a/relu_5x5_reduce
I0403 19:15:25.943914  8990 net.cpp:425] inception_3a/relu_5x5_reduce <- inception_3a/5x5_reduce
I0403 19:15:25.943940  8990 net.cpp:386] inception_3a/relu_5x5_reduce -> inception_3a/5x5_reduce (in-place)
I0403 19:15:25.944280  8990 net.cpp:141] Setting up inception_3a/relu_5x5_reduce
I0403 19:15:25.944314  8990 net.cpp:148] Top shape: 24 16 28 28 (301056)
I0403 19:15:25.944332  8990 net.cpp:156] Memory required for data: 537084960
I0403 19:15:25.944351  8990 layer_factory.hpp:77] Creating layer inception_3a/5x5
I0403 19:15:25.944380  8990 net.cpp:91] Creating Layer inception_3a/5x5
I0403 19:15:25.944401  8990 net.cpp:425] inception_3a/5x5 <- inception_3a/5x5_reduce
I0403 19:15:25.944435  8990 net.cpp:399] inception_3a/5x5 -> inception_3a/5x5
I0403 19:15:25.945653  8990 net.cpp:141] Setting up inception_3a/5x5
I0403 19:15:25.945688  8990 net.cpp:148] Top shape: 24 32 28 28 (602112)
I0403 19:15:25.945708  8990 net.cpp:156] Memory required for data: 539493408
I0403 19:15:25.945730  8990 layer_factory.hpp:77] Creating layer inception_3a/relu_5x5
I0403 19:15:25.945755  8990 net.cpp:91] Creating Layer inception_3a/relu_5x5
I0403 19:15:25.945777  8990 net.cpp:425] inception_3a/relu_5x5 <- inception_3a/5x5
I0403 19:15:25.945799  8990 net.cpp:386] inception_3a/relu_5x5 -> inception_3a/5x5 (in-place)
I0403 19:15:25.946010  8990 net.cpp:141] Setting up inception_3a/relu_5x5
I0403 19:15:25.946041  8990 net.cpp:148] Top shape: 24 32 28 28 (602112)
I0403 19:15:25.946060  8990 net.cpp:156] Memory required for data: 541901856
I0403 19:15:25.946079  8990 layer_factory.hpp:77] Creating layer inception_3a/pool
I0403 19:15:25.946101  8990 net.cpp:91] Creating Layer inception_3a/pool
I0403 19:15:25.946121  8990 net.cpp:425] inception_3a/pool <- pool2/3x3_s2_pool2/3x3_s2_0_split_3
I0403 19:15:25.946166  8990 net.cpp:399] inception_3a/pool -> inception_3a/pool
I0403 19:15:25.946243  8990 net.cpp:141] Setting up inception_3a/pool
I0403 19:15:25.946271  8990 net.cpp:148] Top shape: 24 192 28 28 (3612672)
I0403 19:15:25.946290  8990 net.cpp:156] Memory required for data: 556352544
I0403 19:15:25.946307  8990 layer_factory.hpp:77] Creating layer inception_3a/pool_proj
I0403 19:15:25.946337  8990 net.cpp:91] Creating Layer inception_3a/pool_proj
I0403 19:15:25.946360  8990 net.cpp:425] inception_3a/pool_proj <- inception_3a/pool
I0403 19:15:25.946383  8990 net.cpp:399] inception_3a/pool_proj -> inception_3a/pool_proj
I0403 19:15:25.947588  8990 net.cpp:141] Setting up inception_3a/pool_proj
I0403 19:15:25.947623  8990 net.cpp:148] Top shape: 24 32 28 28 (602112)
I0403 19:15:25.947643  8990 net.cpp:156] Memory required for data: 558760992
I0403 19:15:25.947671  8990 layer_factory.hpp:77] Creating layer inception_3a/relu_pool_proj
I0403 19:15:25.947698  8990 net.cpp:91] Creating Layer inception_3a/relu_pool_proj
I0403 19:15:25.947717  8990 net.cpp:425] inception_3a/relu_pool_proj <- inception_3a/pool_proj
I0403 19:15:25.947742  8990 net.cpp:386] inception_3a/relu_pool_proj -> inception_3a/pool_proj (in-place)
I0403 19:15:25.948071  8990 net.cpp:141] Setting up inception_3a/relu_pool_proj
I0403 19:15:25.948107  8990 net.cpp:148] Top shape: 24 32 28 28 (602112)
I0403 19:15:25.948127  8990 net.cpp:156] Memory required for data: 561169440
I0403 19:15:25.948146  8990 layer_factory.hpp:77] Creating layer inception_3a/output
I0403 19:15:25.948168  8990 net.cpp:91] Creating Layer inception_3a/output
I0403 19:15:25.948189  8990 net.cpp:425] inception_3a/output <- inception_3a/1x1
I0403 19:15:25.948211  8990 net.cpp:425] inception_3a/output <- inception_3a/3x3
I0403 19:15:25.948230  8990 net.cpp:425] inception_3a/output <- inception_3a/5x5
I0403 19:15:25.948251  8990 net.cpp:425] inception_3a/output <- inception_3a/pool_proj
I0403 19:15:25.948271  8990 net.cpp:399] inception_3a/output -> inception_3a/output
I0403 19:15:25.948333  8990 net.cpp:141] Setting up inception_3a/output
I0403 19:15:25.948361  8990 net.cpp:148] Top shape: 24 256 28 28 (4816896)
I0403 19:15:25.948380  8990 net.cpp:156] Memory required for data: 580437024
I0403 19:15:25.948400  8990 layer_factory.hpp:77] Creating layer inception_3a/output_inception_3a/output_0_split
I0403 19:15:25.948429  8990 net.cpp:91] Creating Layer inception_3a/output_inception_3a/output_0_split
I0403 19:15:25.948451  8990 net.cpp:425] inception_3a/output_inception_3a/output_0_split <- inception_3a/output
I0403 19:15:25.948479  8990 net.cpp:399] inception_3a/output_inception_3a/output_0_split -> inception_3a/output_inception_3a/output_0_split_0
I0403 19:15:25.948504  8990 net.cpp:399] inception_3a/output_inception_3a/output_0_split -> inception_3a/output_inception_3a/output_0_split_1
I0403 19:15:25.948536  8990 net.cpp:399] inception_3a/output_inception_3a/output_0_split -> inception_3a/output_inception_3a/output_0_split_2
I0403 19:15:25.948565  8990 net.cpp:399] inception_3a/output_inception_3a/output_0_split -> inception_3a/output_inception_3a/output_0_split_3
I0403 19:15:25.948654  8990 net.cpp:141] Setting up inception_3a/output_inception_3a/output_0_split
I0403 19:15:25.948683  8990 net.cpp:148] Top shape: 24 256 28 28 (4816896)
I0403 19:15:25.948706  8990 net.cpp:148] Top shape: 24 256 28 28 (4816896)
I0403 19:15:25.948729  8990 net.cpp:148] Top shape: 24 256 28 28 (4816896)
I0403 19:15:25.948750  8990 net.cpp:148] Top shape: 24 256 28 28 (4816896)
I0403 19:15:25.948773  8990 net.cpp:156] Memory required for data: 657507360
I0403 19:15:25.948791  8990 layer_factory.hpp:77] Creating layer inception_3b/1x1
I0403 19:15:25.948817  8990 net.cpp:91] Creating Layer inception_3b/1x1
I0403 19:15:25.948837  8990 net.cpp:425] inception_3b/1x1 <- inception_3a/output_inception_3a/output_0_split_0
I0403 19:15:25.948863  8990 net.cpp:399] inception_3b/1x1 -> inception_3b/1x1
I0403 19:15:25.950253  8990 net.cpp:141] Setting up inception_3b/1x1
I0403 19:15:25.950300  8990 net.cpp:148] Top shape: 24 128 28 28 (2408448)
I0403 19:15:25.950320  8990 net.cpp:156] Memory required for data: 667141152
I0403 19:15:25.950343  8990 layer_factory.hpp:77] Creating layer inception_3b/relu_1x1
I0403 19:15:25.950368  8990 net.cpp:91] Creating Layer inception_3b/relu_1x1
I0403 19:15:25.950399  8990 net.cpp:425] inception_3b/relu_1x1 <- inception_3b/1x1
I0403 19:15:25.950422  8990 net.cpp:386] inception_3b/relu_1x1 -> inception_3b/1x1 (in-place)
I0403 19:15:25.950645  8990 net.cpp:141] Setting up inception_3b/relu_1x1
I0403 19:15:25.950678  8990 net.cpp:148] Top shape: 24 128 28 28 (2408448)
I0403 19:15:25.950698  8990 net.cpp:156] Memory required for data: 676774944
I0403 19:15:25.950717  8990 layer_factory.hpp:77] Creating layer inception_3b/3x3_reduce
I0403 19:15:25.950745  8990 net.cpp:91] Creating Layer inception_3b/3x3_reduce
I0403 19:15:25.950767  8990 net.cpp:425] inception_3b/3x3_reduce <- inception_3a/output_inception_3a/output_0_split_1
I0403 19:15:25.950790  8990 net.cpp:399] inception_3b/3x3_reduce -> inception_3b/3x3_reduce
I0403 19:15:25.952157  8990 net.cpp:141] Setting up inception_3b/3x3_reduce
I0403 19:15:25.952201  8990 net.cpp:148] Top shape: 24 128 28 28 (2408448)
I0403 19:15:25.952222  8990 net.cpp:156] Memory required for data: 686408736
I0403 19:15:25.952244  8990 layer_factory.hpp:77] Creating layer inception_3b/relu_3x3_reduce
I0403 19:15:25.952270  8990 net.cpp:91] Creating Layer inception_3b/relu_3x3_reduce
I0403 19:15:25.952291  8990 net.cpp:425] inception_3b/relu_3x3_reduce <- inception_3b/3x3_reduce
I0403 19:15:25.952313  8990 net.cpp:386] inception_3b/relu_3x3_reduce -> inception_3b/3x3_reduce (in-place)
I0403 19:15:25.952534  8990 net.cpp:141] Setting up inception_3b/relu_3x3_reduce
I0403 19:15:25.952569  8990 net.cpp:148] Top shape: 24 128 28 28 (2408448)
I0403 19:15:25.952589  8990 net.cpp:156] Memory required for data: 696042528
I0403 19:15:25.952607  8990 layer_factory.hpp:77] Creating layer inception_3b/3x3
I0403 19:15:25.952637  8990 net.cpp:91] Creating Layer inception_3b/3x3
I0403 19:15:25.952661  8990 net.cpp:425] inception_3b/3x3 <- inception_3b/3x3_reduce
I0403 19:15:25.952692  8990 net.cpp:399] inception_3b/3x3 -> inception_3b/3x3
I0403 19:15:25.956197  8990 net.cpp:141] Setting up inception_3b/3x3
I0403 19:15:25.956236  8990 net.cpp:148] Top shape: 24 192 28 28 (3612672)
I0403 19:15:25.956257  8990 net.cpp:156] Memory required for data: 710493216
I0403 19:15:25.956280  8990 layer_factory.hpp:77] Creating layer inception_3b/relu_3x3
I0403 19:15:25.956302  8990 net.cpp:91] Creating Layer inception_3b/relu_3x3
I0403 19:15:25.956321  8990 net.cpp:425] inception_3b/relu_3x3 <- inception_3b/3x3
I0403 19:15:25.956346  8990 net.cpp:386] inception_3b/relu_3x3 -> inception_3b/3x3 (in-place)
I0403 19:15:25.956683  8990 net.cpp:141] Setting up inception_3b/relu_3x3
I0403 19:15:25.956718  8990 net.cpp:148] Top shape: 24 192 28 28 (3612672)
I0403 19:15:25.956738  8990 net.cpp:156] Memory required for data: 724943904
I0403 19:15:25.956758  8990 layer_factory.hpp:77] Creating layer inception_3b/5x5_reduce
I0403 19:15:25.956787  8990 net.cpp:91] Creating Layer inception_3b/5x5_reduce
I0403 19:15:25.956810  8990 net.cpp:425] inception_3b/5x5_reduce <- inception_3a/output_inception_3a/output_0_split_2
I0403 19:15:25.956835  8990 net.cpp:399] inception_3b/5x5_reduce -> inception_3b/5x5_reduce
I0403 19:15:25.958026  8990 net.cpp:141] Setting up inception_3b/5x5_reduce
I0403 19:15:25.958063  8990 net.cpp:148] Top shape: 24 32 28 28 (602112)
I0403 19:15:25.958082  8990 net.cpp:156] Memory required for data: 727352352
I0403 19:15:25.958106  8990 layer_factory.hpp:77] Creating layer inception_3b/relu_5x5_reduce
I0403 19:15:25.958128  8990 net.cpp:91] Creating Layer inception_3b/relu_5x5_reduce
I0403 19:15:25.958148  8990 net.cpp:425] inception_3b/relu_5x5_reduce <- inception_3b/5x5_reduce
I0403 19:15:25.958171  8990 net.cpp:386] inception_3b/relu_5x5_reduce -> inception_3b/5x5_reduce (in-place)
I0403 19:15:25.958391  8990 net.cpp:141] Setting up inception_3b/relu_5x5_reduce
I0403 19:15:25.958438  8990 net.cpp:148] Top shape: 24 32 28 28 (602112)
I0403 19:15:25.958461  8990 net.cpp:156] Memory required for data: 729760800
I0403 19:15:25.958482  8990 layer_factory.hpp:77] Creating layer inception_3b/5x5
I0403 19:15:25.958511  8990 net.cpp:91] Creating Layer inception_3b/5x5
I0403 19:15:25.958534  8990 net.cpp:425] inception_3b/5x5 <- inception_3b/5x5_reduce
I0403 19:15:25.958560  8990 net.cpp:399] inception_3b/5x5 -> inception_3b/5x5
I0403 19:15:25.960916  8990 net.cpp:141] Setting up inception_3b/5x5
I0403 19:15:25.960950  8990 net.cpp:148] Top shape: 24 96 28 28 (1806336)
I0403 19:15:25.960970  8990 net.cpp:156] Memory required for data: 736986144
I0403 19:15:25.960994  8990 layer_factory.hpp:77] Creating layer inception_3b/relu_5x5
I0403 19:15:25.961019  8990 net.cpp:91] Creating Layer inception_3b/relu_5x5
I0403 19:15:25.961040  8990 net.cpp:425] inception_3b/relu_5x5 <- inception_3b/5x5
I0403 19:15:25.961062  8990 net.cpp:386] inception_3b/relu_5x5 -> inception_3b/5x5 (in-place)
I0403 19:15:25.961300  8990 net.cpp:141] Setting up inception_3b/relu_5x5
I0403 19:15:25.961331  8990 net.cpp:148] Top shape: 24 96 28 28 (1806336)
I0403 19:15:25.961350  8990 net.cpp:156] Memory required for data: 744211488
I0403 19:15:25.961369  8990 layer_factory.hpp:77] Creating layer inception_3b/pool
I0403 19:15:25.961390  8990 net.cpp:91] Creating Layer inception_3b/pool
I0403 19:15:25.961410  8990 net.cpp:425] inception_3b/pool <- inception_3a/output_inception_3a/output_0_split_3
I0403 19:15:25.961432  8990 net.cpp:399] inception_3b/pool -> inception_3b/pool
I0403 19:15:25.961505  8990 net.cpp:141] Setting up inception_3b/pool
I0403 19:15:25.961534  8990 net.cpp:148] Top shape: 24 256 28 28 (4816896)
I0403 19:15:25.961552  8990 net.cpp:156] Memory required for data: 763479072
I0403 19:15:25.961570  8990 layer_factory.hpp:77] Creating layer inception_3b/pool_proj
I0403 19:15:25.961598  8990 net.cpp:91] Creating Layer inception_3b/pool_proj
I0403 19:15:25.961621  8990 net.cpp:425] inception_3b/pool_proj <- inception_3b/pool
I0403 19:15:25.961647  8990 net.cpp:399] inception_3b/pool_proj -> inception_3b/pool_proj
I0403 19:15:25.962941  8990 net.cpp:141] Setting up inception_3b/pool_proj
I0403 19:15:25.962976  8990 net.cpp:148] Top shape: 24 64 28 28 (1204224)
I0403 19:15:25.962996  8990 net.cpp:156] Memory required for data: 768295968
I0403 19:15:25.963018  8990 layer_factory.hpp:77] Creating layer inception_3b/relu_pool_proj
I0403 19:15:25.963040  8990 net.cpp:91] Creating Layer inception_3b/relu_pool_proj
I0403 19:15:25.963060  8990 net.cpp:425] inception_3b/relu_pool_proj <- inception_3b/pool_proj
I0403 19:15:25.963085  8990 net.cpp:386] inception_3b/relu_pool_proj -> inception_3b/pool_proj (in-place)
I0403 19:15:25.963554  8990 net.cpp:141] Setting up inception_3b/relu_pool_proj
I0403 19:15:25.963589  8990 net.cpp:148] Top shape: 24 64 28 28 (1204224)
I0403 19:15:25.963609  8990 net.cpp:156] Memory required for data: 773112864
I0403 19:15:25.963629  8990 layer_factory.hpp:77] Creating layer inception_3b/output
I0403 19:15:25.963651  8990 net.cpp:91] Creating Layer inception_3b/output
I0403 19:15:25.963670  8990 net.cpp:425] inception_3b/output <- inception_3b/1x1
I0403 19:15:25.963691  8990 net.cpp:425] inception_3b/output <- inception_3b/3x3
I0403 19:15:25.963711  8990 net.cpp:425] inception_3b/output <- inception_3b/5x5
I0403 19:15:25.963731  8990 net.cpp:425] inception_3b/output <- inception_3b/pool_proj
I0403 19:15:25.963754  8990 net.cpp:399] inception_3b/output -> inception_3b/output
I0403 19:15:25.963809  8990 net.cpp:141] Setting up inception_3b/output
I0403 19:15:25.963837  8990 net.cpp:148] Top shape: 24 480 28 28 (9031680)
I0403 19:15:25.963855  8990 net.cpp:156] Memory required for data: 809239584
I0403 19:15:25.963873  8990 layer_factory.hpp:77] Creating layer pool3/3x3_s2
I0403 19:15:25.963899  8990 net.cpp:91] Creating Layer pool3/3x3_s2
I0403 19:15:25.963919  8990 net.cpp:425] pool3/3x3_s2 <- inception_3b/output
I0403 19:15:25.963942  8990 net.cpp:399] pool3/3x3_s2 -> pool3/3x3_s2
I0403 19:15:25.964040  8990 net.cpp:141] Setting up pool3/3x3_s2
I0403 19:15:25.964069  8990 net.cpp:148] Top shape: 24 480 14 14 (2257920)
I0403 19:15:25.964087  8990 net.cpp:156] Memory required for data: 818271264
I0403 19:15:25.964104  8990 layer_factory.hpp:77] Creating layer pool3/3x3_s2_pool3/3x3_s2_0_split
I0403 19:15:25.964128  8990 net.cpp:91] Creating Layer pool3/3x3_s2_pool3/3x3_s2_0_split
I0403 19:15:25.964148  8990 net.cpp:425] pool3/3x3_s2_pool3/3x3_s2_0_split <- pool3/3x3_s2
I0403 19:15:25.964170  8990 net.cpp:399] pool3/3x3_s2_pool3/3x3_s2_0_split -> pool3/3x3_s2_pool3/3x3_s2_0_split_0
I0403 19:15:25.964195  8990 net.cpp:399] pool3/3x3_s2_pool3/3x3_s2_0_split -> pool3/3x3_s2_pool3/3x3_s2_0_split_1
I0403 19:15:25.964220  8990 net.cpp:399] pool3/3x3_s2_pool3/3x3_s2_0_split -> pool3/3x3_s2_pool3/3x3_s2_0_split_2
I0403 19:15:25.964243  8990 net.cpp:399] pool3/3x3_s2_pool3/3x3_s2_0_split -> pool3/3x3_s2_pool3/3x3_s2_0_split_3
I0403 19:15:25.964335  8990 net.cpp:141] Setting up pool3/3x3_s2_pool3/3x3_s2_0_split
I0403 19:15:25.964364  8990 net.cpp:148] Top shape: 24 480 14 14 (2257920)
I0403 19:15:25.964385  8990 net.cpp:148] Top shape: 24 480 14 14 (2257920)
I0403 19:15:25.964404  8990 net.cpp:148] Top shape: 24 480 14 14 (2257920)
I0403 19:15:25.964424  8990 net.cpp:148] Top shape: 24 480 14 14 (2257920)
I0403 19:15:25.964442  8990 net.cpp:156] Memory required for data: 854397984
I0403 19:15:25.964463  8990 layer_factory.hpp:77] Creating layer inception_4a/1x1
I0403 19:15:25.964493  8990 net.cpp:91] Creating Layer inception_4a/1x1
I0403 19:15:25.964515  8990 net.cpp:425] inception_4a/1x1 <- pool3/3x3_s2_pool3/3x3_s2_0_split_0
I0403 19:15:25.964543  8990 net.cpp:399] inception_4a/1x1 -> inception_4a/1x1
I0403 19:15:25.966447  8990 net.cpp:141] Setting up inception_4a/1x1
I0403 19:15:25.966487  8990 net.cpp:148] Top shape: 24 192 14 14 (903168)
I0403 19:15:25.966506  8990 net.cpp:156] Memory required for data: 858010656
I0403 19:15:25.966529  8990 layer_factory.hpp:77] Creating layer inception_4a/relu_1x1
I0403 19:15:25.966554  8990 net.cpp:91] Creating Layer inception_4a/relu_1x1
I0403 19:15:25.966575  8990 net.cpp:425] inception_4a/relu_1x1 <- inception_4a/1x1
I0403 19:15:25.966599  8990 net.cpp:386] inception_4a/relu_1x1 -> inception_4a/1x1 (in-place)
I0403 19:15:25.966819  8990 net.cpp:141] Setting up inception_4a/relu_1x1
I0403 19:15:25.966848  8990 net.cpp:148] Top shape: 24 192 14 14 (903168)
I0403 19:15:25.966872  8990 net.cpp:156] Memory required for data: 861623328
I0403 19:15:25.966892  8990 layer_factory.hpp:77] Creating layer inception_4a/3x3_reduce
I0403 19:15:25.966915  8990 net.cpp:91] Creating Layer inception_4a/3x3_reduce
I0403 19:15:25.966936  8990 net.cpp:425] inception_4a/3x3_reduce <- pool3/3x3_s2_pool3/3x3_s2_0_split_1
I0403 19:15:25.966964  8990 net.cpp:399] inception_4a/3x3_reduce -> inception_4a/3x3_reduce
I0403 19:15:25.968498  8990 net.cpp:141] Setting up inception_4a/3x3_reduce
I0403 19:15:25.968533  8990 net.cpp:148] Top shape: 24 96 14 14 (451584)
I0403 19:15:25.968552  8990 net.cpp:156] Memory required for data: 863429664
I0403 19:15:25.968583  8990 layer_factory.hpp:77] Creating layer inception_4a/relu_3x3_reduce
I0403 19:15:25.968607  8990 net.cpp:91] Creating Layer inception_4a/relu_3x3_reduce
I0403 19:15:25.968627  8990 net.cpp:425] inception_4a/relu_3x3_reduce <- inception_4a/3x3_reduce
I0403 19:15:25.968652  8990 net.cpp:386] inception_4a/relu_3x3_reduce -> inception_4a/3x3_reduce (in-place)
I0403 19:15:25.968861  8990 net.cpp:141] Setting up inception_4a/relu_3x3_reduce
I0403 19:15:25.968893  8990 net.cpp:148] Top shape: 24 96 14 14 (451584)
I0403 19:15:25.968910  8990 net.cpp:156] Memory required for data: 865236000
I0403 19:15:25.968929  8990 layer_factory.hpp:77] Creating layer inception_4a/3x3
I0403 19:15:25.968957  8990 net.cpp:91] Creating Layer inception_4a/3x3
I0403 19:15:25.968978  8990 net.cpp:425] inception_4a/3x3 <- inception_4a/3x3_reduce
I0403 19:15:25.969004  8990 net.cpp:399] inception_4a/3x3 -> inception_4a/3x3
I0403 19:15:25.972232  8990 net.cpp:141] Setting up inception_4a/3x3
I0403 19:15:25.972268  8990 net.cpp:148] Top shape: 24 208 14 14 (978432)
I0403 19:15:25.972287  8990 net.cpp:156] Memory required for data: 869149728
I0403 19:15:25.972311  8990 layer_factory.hpp:77] Creating layer inception_4a/relu_3x3
I0403 19:15:25.972335  8990 net.cpp:91] Creating Layer inception_4a/relu_3x3
I0403 19:15:25.972357  8990 net.cpp:425] inception_4a/relu_3x3 <- inception_4a/3x3
I0403 19:15:25.972378  8990 net.cpp:386] inception_4a/relu_3x3 -> inception_4a/3x3 (in-place)
I0403 19:15:25.972725  8990 net.cpp:141] Setting up inception_4a/relu_3x3
I0403 19:15:25.972759  8990 net.cpp:148] Top shape: 24 208 14 14 (978432)
I0403 19:15:25.972779  8990 net.cpp:156] Memory required for data: 873063456
I0403 19:15:25.972798  8990 layer_factory.hpp:77] Creating layer inception_4a/5x5_reduce
I0403 19:15:25.972826  8990 net.cpp:91] Creating Layer inception_4a/5x5_reduce
I0403 19:15:25.972853  8990 net.cpp:425] inception_4a/5x5_reduce <- pool3/3x3_s2_pool3/3x3_s2_0_split_2
I0403 19:15:25.972877  8990 net.cpp:399] inception_4a/5x5_reduce -> inception_4a/5x5_reduce
I0403 19:15:25.974110  8990 net.cpp:141] Setting up inception_4a/5x5_reduce
I0403 19:15:25.974144  8990 net.cpp:148] Top shape: 24 16 14 14 (75264)
I0403 19:15:25.974164  8990 net.cpp:156] Memory required for data: 873364512
I0403 19:15:25.974189  8990 layer_factory.hpp:77] Creating layer inception_4a/relu_5x5_reduce
I0403 19:15:25.974213  8990 net.cpp:91] Creating Layer inception_4a/relu_5x5_reduce
I0403 19:15:25.974234  8990 net.cpp:425] inception_4a/relu_5x5_reduce <- inception_4a/5x5_reduce
I0403 19:15:25.974256  8990 net.cpp:386] inception_4a/relu_5x5_reduce -> inception_4a/5x5_reduce (in-place)
I0403 19:15:25.974483  8990 net.cpp:141] Setting up inception_4a/relu_5x5_reduce
I0403 19:15:25.974514  8990 net.cpp:148] Top shape: 24 16 14 14 (75264)
I0403 19:15:25.974532  8990 net.cpp:156] Memory required for data: 873665568
I0403 19:15:25.974551  8990 layer_factory.hpp:77] Creating layer inception_4a/5x5
I0403 19:15:25.974578  8990 net.cpp:91] Creating Layer inception_4a/5x5
I0403 19:15:25.974601  8990 net.cpp:425] inception_4a/5x5 <- inception_4a/5x5_reduce
I0403 19:15:25.974628  8990 net.cpp:399] inception_4a/5x5 -> inception_4a/5x5
I0403 19:15:25.975939  8990 net.cpp:141] Setting up inception_4a/5x5
I0403 19:15:25.975972  8990 net.cpp:148] Top shape: 24 48 14 14 (225792)
I0403 19:15:25.975992  8990 net.cpp:156] Memory required for data: 874568736
I0403 19:15:25.976014  8990 layer_factory.hpp:77] Creating layer inception_4a/relu_5x5
I0403 19:15:25.976037  8990 net.cpp:91] Creating Layer inception_4a/relu_5x5
I0403 19:15:25.976057  8990 net.cpp:425] inception_4a/relu_5x5 <- inception_4a/5x5
I0403 19:15:25.976081  8990 net.cpp:386] inception_4a/relu_5x5 -> inception_4a/5x5 (in-place)
I0403 19:15:25.976297  8990 net.cpp:141] Setting up inception_4a/relu_5x5
I0403 19:15:25.976328  8990 net.cpp:148] Top shape: 24 48 14 14 (225792)
I0403 19:15:25.976346  8990 net.cpp:156] Memory required for data: 875471904
I0403 19:15:25.976366  8990 layer_factory.hpp:77] Creating layer inception_4a/pool
I0403 19:15:25.976390  8990 net.cpp:91] Creating Layer inception_4a/pool
I0403 19:15:25.976411  8990 net.cpp:425] inception_4a/pool <- pool3/3x3_s2_pool3/3x3_s2_0_split_3
I0403 19:15:25.976435  8990 net.cpp:399] inception_4a/pool -> inception_4a/pool
I0403 19:15:25.976516  8990 net.cpp:141] Setting up inception_4a/pool
I0403 19:15:25.976547  8990 net.cpp:148] Top shape: 24 480 14 14 (2257920)
I0403 19:15:25.976564  8990 net.cpp:156] Memory required for data: 884503584
I0403 19:15:25.976583  8990 layer_factory.hpp:77] Creating layer inception_4a/pool_proj
I0403 19:15:25.976610  8990 net.cpp:91] Creating Layer inception_4a/pool_proj
I0403 19:15:25.976631  8990 net.cpp:425] inception_4a/pool_proj <- inception_4a/pool
I0403 19:15:25.976658  8990 net.cpp:399] inception_4a/pool_proj -> inception_4a/pool_proj
I0403 19:15:25.978080  8990 net.cpp:141] Setting up inception_4a/pool_proj
I0403 19:15:25.978116  8990 net.cpp:148] Top shape: 24 64 14 14 (301056)
I0403 19:15:25.978157  8990 net.cpp:156] Memory required for data: 885707808
I0403 19:15:25.978180  8990 layer_factory.hpp:77] Creating layer inception_4a/relu_pool_proj
I0403 19:15:25.978207  8990 net.cpp:91] Creating Layer inception_4a/relu_pool_proj
I0403 19:15:25.978229  8990 net.cpp:425] inception_4a/relu_pool_proj <- inception_4a/pool_proj
I0403 19:15:25.978251  8990 net.cpp:386] inception_4a/relu_pool_proj -> inception_4a/pool_proj (in-place)
I0403 19:15:25.978600  8990 net.cpp:141] Setting up inception_4a/relu_pool_proj
I0403 19:15:25.978632  8990 net.cpp:148] Top shape: 24 64 14 14 (301056)
I0403 19:15:25.978651  8990 net.cpp:156] Memory required for data: 886912032
I0403 19:15:25.978670  8990 layer_factory.hpp:77] Creating layer inception_4a/output
I0403 19:15:25.978693  8990 net.cpp:91] Creating Layer inception_4a/output
I0403 19:15:25.978711  8990 net.cpp:425] inception_4a/output <- inception_4a/1x1
I0403 19:15:25.978731  8990 net.cpp:425] inception_4a/output <- inception_4a/3x3
I0403 19:15:25.978751  8990 net.cpp:425] inception_4a/output <- inception_4a/5x5
I0403 19:15:25.978772  8990 net.cpp:425] inception_4a/output <- inception_4a/pool_proj
I0403 19:15:25.978796  8990 net.cpp:399] inception_4a/output -> inception_4a/output
I0403 19:15:25.978852  8990 net.cpp:141] Setting up inception_4a/output
I0403 19:15:25.978883  8990 net.cpp:148] Top shape: 24 512 14 14 (2408448)
I0403 19:15:25.978904  8990 net.cpp:156] Memory required for data: 896545824
I0403 19:15:25.978922  8990 layer_factory.hpp:77] Creating layer inception_4a/output_inception_4a/output_0_split
I0403 19:15:25.978945  8990 net.cpp:91] Creating Layer inception_4a/output_inception_4a/output_0_split
I0403 19:15:25.978965  8990 net.cpp:425] inception_4a/output_inception_4a/output_0_split <- inception_4a/output
I0403 19:15:25.978989  8990 net.cpp:399] inception_4a/output_inception_4a/output_0_split -> inception_4a/output_inception_4a/output_0_split_0
I0403 19:15:25.979015  8990 net.cpp:399] inception_4a/output_inception_4a/output_0_split -> inception_4a/output_inception_4a/output_0_split_1
I0403 19:15:25.979043  8990 net.cpp:399] inception_4a/output_inception_4a/output_0_split -> inception_4a/output_inception_4a/output_0_split_2
I0403 19:15:25.979068  8990 net.cpp:399] inception_4a/output_inception_4a/output_0_split -> inception_4a/output_inception_4a/output_0_split_3
I0403 19:15:25.979091  8990 net.cpp:399] inception_4a/output_inception_4a/output_0_split -> inception_4a/output_inception_4a/output_0_split_4
I0403 19:15:25.979207  8990 net.cpp:141] Setting up inception_4a/output_inception_4a/output_0_split
I0403 19:15:25.979236  8990 net.cpp:148] Top shape: 24 512 14 14 (2408448)
I0403 19:15:25.979259  8990 net.cpp:148] Top shape: 24 512 14 14 (2408448)
I0403 19:15:25.979280  8990 net.cpp:148] Top shape: 24 512 14 14 (2408448)
I0403 19:15:25.979300  8990 net.cpp:148] Top shape: 24 512 14 14 (2408448)
I0403 19:15:25.979320  8990 net.cpp:148] Top shape: 24 512 14 14 (2408448)
I0403 19:15:25.979336  8990 net.cpp:156] Memory required for data: 944714784
I0403 19:15:25.979354  8990 layer_factory.hpp:77] Creating layer loss1/ave_pool
I0403 19:15:25.979377  8990 net.cpp:91] Creating Layer loss1/ave_pool
I0403 19:15:25.979396  8990 net.cpp:425] loss1/ave_pool <- inception_4a/output_inception_4a/output_0_split_0
I0403 19:15:25.979423  8990 net.cpp:399] loss1/ave_pool -> loss1/ave_pool
I0403 19:15:25.979681  8990 net.cpp:141] Setting up loss1/ave_pool
I0403 19:15:25.979712  8990 net.cpp:148] Top shape: 24 512 4 4 (196608)
I0403 19:15:25.979730  8990 net.cpp:156] Memory required for data: 945501216
I0403 19:15:25.979749  8990 layer_factory.hpp:77] Creating layer loss1/conv
I0403 19:15:25.979778  8990 net.cpp:91] Creating Layer loss1/conv
I0403 19:15:25.979799  8990 net.cpp:425] loss1/conv <- loss1/ave_pool
I0403 19:15:25.979825  8990 net.cpp:399] loss1/conv -> loss1/conv
I0403 19:15:25.981546  8990 net.cpp:141] Setting up loss1/conv
I0403 19:15:25.981581  8990 net.cpp:148] Top shape: 24 128 4 4 (49152)
I0403 19:15:25.981601  8990 net.cpp:156] Memory required for data: 945697824
I0403 19:15:25.981642  8990 layer_factory.hpp:77] Creating layer loss1/relu_conv
I0403 19:15:25.981668  8990 net.cpp:91] Creating Layer loss1/relu_conv
I0403 19:15:25.981689  8990 net.cpp:425] loss1/relu_conv <- loss1/conv
I0403 19:15:25.981711  8990 net.cpp:386] loss1/relu_conv -> loss1/conv (in-place)
I0403 19:15:25.982046  8990 net.cpp:141] Setting up loss1/relu_conv
I0403 19:15:25.982079  8990 net.cpp:148] Top shape: 24 128 4 4 (49152)
I0403 19:15:25.982098  8990 net.cpp:156] Memory required for data: 945894432
I0403 19:15:25.982117  8990 layer_factory.hpp:77] Creating layer loss1/fc
I0403 19:15:25.982151  8990 net.cpp:91] Creating Layer loss1/fc
I0403 19:15:25.982174  8990 net.cpp:425] loss1/fc <- loss1/conv
I0403 19:15:25.982200  8990 net.cpp:399] loss1/fc -> loss1/fc
I0403 19:15:26.004096  8990 net.cpp:141] Setting up loss1/fc
I0403 19:15:26.004138  8990 net.cpp:148] Top shape: 24 1024 (24576)
I0403 19:15:26.004158  8990 net.cpp:156] Memory required for data: 945992736
I0403 19:15:26.004181  8990 layer_factory.hpp:77] Creating layer loss1/relu_fc
I0403 19:15:26.004204  8990 net.cpp:91] Creating Layer loss1/relu_fc
I0403 19:15:26.004225  8990 net.cpp:425] loss1/relu_fc <- loss1/fc
I0403 19:15:26.004250  8990 net.cpp:386] loss1/relu_fc -> loss1/fc (in-place)
I0403 19:15:26.004485  8990 net.cpp:141] Setting up loss1/relu_fc
I0403 19:15:26.004519  8990 net.cpp:148] Top shape: 24 1024 (24576)
I0403 19:15:26.004539  8990 net.cpp:156] Memory required for data: 946091040
I0403 19:15:26.004559  8990 layer_factory.hpp:77] Creating layer loss1/drop_fc
I0403 19:15:26.004591  8990 net.cpp:91] Creating Layer loss1/drop_fc
I0403 19:15:26.004614  8990 net.cpp:425] loss1/drop_fc <- loss1/fc
I0403 19:15:26.004637  8990 net.cpp:386] loss1/drop_fc -> loss1/fc (in-place)
I0403 19:15:26.004703  8990 net.cpp:141] Setting up loss1/drop_fc
I0403 19:15:26.004731  8990 net.cpp:148] Top shape: 24 1024 (24576)
I0403 19:15:26.004750  8990 net.cpp:156] Memory required for data: 946189344
I0403 19:15:26.004770  8990 layer_factory.hpp:77] Creating layer loss1/classifier_plantvillage
I0403 19:15:26.004793  8990 net.cpp:91] Creating Layer loss1/classifier_plantvillage
I0403 19:15:26.004812  8990 net.cpp:425] loss1/classifier_plantvillage <- loss1/fc
I0403 19:15:26.004839  8990 net.cpp:399] loss1/classifier_plantvillage -> loss1/classifier_plantvillage
I0403 19:15:26.005921  8990 net.cpp:141] Setting up loss1/classifier_plantvillage
I0403 19:15:26.005956  8990 net.cpp:148] Top shape: 24 38 (912)
I0403 19:15:26.005976  8990 net.cpp:156] Memory required for data: 946192992
I0403 19:15:26.006000  8990 layer_factory.hpp:77] Creating layer loss1/classifier_plantvillage_loss1/classifier_plantvillage_0_split
I0403 19:15:26.006026  8990 net.cpp:91] Creating Layer loss1/classifier_plantvillage_loss1/classifier_plantvillage_0_split
I0403 19:15:26.006045  8990 net.cpp:425] loss1/classifier_plantvillage_loss1/classifier_plantvillage_0_split <- loss1/classifier_plantvillage
I0403 19:15:26.006068  8990 net.cpp:399] loss1/classifier_plantvillage_loss1/classifier_plantvillage_0_split -> loss1/classifier_plantvillage_loss1/classifier_plantvillage_0_split_0
I0403 19:15:26.006094  8990 net.cpp:399] loss1/classifier_plantvillage_loss1/classifier_plantvillage_0_split -> loss1/classifier_plantvillage_loss1/classifier_plantvillage_0_split_1
I0403 19:15:26.006119  8990 net.cpp:399] loss1/classifier_plantvillage_loss1/classifier_plantvillage_0_split -> loss1/classifier_plantvillage_loss1/classifier_plantvillage_0_split_2
I0403 19:15:26.006204  8990 net.cpp:141] Setting up loss1/classifier_plantvillage_loss1/classifier_plantvillage_0_split
I0403 19:15:26.006233  8990 net.cpp:148] Top shape: 24 38 (912)
I0403 19:15:26.006253  8990 net.cpp:148] Top shape: 24 38 (912)
I0403 19:15:26.006273  8990 net.cpp:148] Top shape: 24 38 (912)
I0403 19:15:26.006290  8990 net.cpp:156] Memory required for data: 946203936
I0403 19:15:26.006309  8990 layer_factory.hpp:77] Creating layer inception_4b/1x1
I0403 19:15:26.006337  8990 net.cpp:91] Creating Layer inception_4b/1x1
I0403 19:15:26.006376  8990 net.cpp:425] inception_4b/1x1 <- inception_4a/output_inception_4a/output_0_split_1
I0403 19:15:26.006402  8990 net.cpp:399] inception_4b/1x1 -> inception_4b/1x1
I0403 19:15:26.008394  8990 net.cpp:141] Setting up inception_4b/1x1
I0403 19:15:26.008429  8990 net.cpp:148] Top shape: 24 160 14 14 (752640)
I0403 19:15:26.008448  8990 net.cpp:156] Memory required for data: 949214496
I0403 19:15:26.008478  8990 layer_factory.hpp:77] Creating layer inception_4b/relu_1x1
I0403 19:15:26.008505  8990 net.cpp:91] Creating Layer inception_4b/relu_1x1
I0403 19:15:26.008527  8990 net.cpp:425] inception_4b/relu_1x1 <- inception_4b/1x1
I0403 19:15:26.008550  8990 net.cpp:386] inception_4b/relu_1x1 -> inception_4b/1x1 (in-place)
I0403 19:15:26.008774  8990 net.cpp:141] Setting up inception_4b/relu_1x1
I0403 19:15:26.008805  8990 net.cpp:148] Top shape: 24 160 14 14 (752640)
I0403 19:15:26.008823  8990 net.cpp:156] Memory required for data: 952225056
I0403 19:15:26.008842  8990 layer_factory.hpp:77] Creating layer inception_4b/3x3_reduce
I0403 19:15:26.008869  8990 net.cpp:91] Creating Layer inception_4b/3x3_reduce
I0403 19:15:26.008891  8990 net.cpp:425] inception_4b/3x3_reduce <- inception_4a/output_inception_4a/output_0_split_2
I0403 19:15:26.008919  8990 net.cpp:399] inception_4b/3x3_reduce -> inception_4b/3x3_reduce
I0403 19:15:26.010577  8990 net.cpp:141] Setting up inception_4b/3x3_reduce
I0403 19:15:26.010612  8990 net.cpp:148] Top shape: 24 112 14 14 (526848)
I0403 19:15:26.010632  8990 net.cpp:156] Memory required for data: 954332448
I0403 19:15:26.010655  8990 layer_factory.hpp:77] Creating layer inception_4b/relu_3x3_reduce
I0403 19:15:26.010679  8990 net.cpp:91] Creating Layer inception_4b/relu_3x3_reduce
I0403 19:15:26.010699  8990 net.cpp:425] inception_4b/relu_3x3_reduce <- inception_4b/3x3_reduce
I0403 19:15:26.010725  8990 net.cpp:386] inception_4b/relu_3x3_reduce -> inception_4b/3x3_reduce (in-place)
I0403 19:15:26.011070  8990 net.cpp:141] Setting up inception_4b/relu_3x3_reduce
I0403 19:15:26.011102  8990 net.cpp:148] Top shape: 24 112 14 14 (526848)
I0403 19:15:26.011121  8990 net.cpp:156] Memory required for data: 956439840
I0403 19:15:26.011139  8990 layer_factory.hpp:77] Creating layer inception_4b/3x3
I0403 19:15:26.011168  8990 net.cpp:91] Creating Layer inception_4b/3x3
I0403 19:15:26.011193  8990 net.cpp:425] inception_4b/3x3 <- inception_4b/3x3_reduce
I0403 19:15:26.011220  8990 net.cpp:399] inception_4b/3x3 -> inception_4b/3x3
I0403 19:15:26.014835  8990 net.cpp:141] Setting up inception_4b/3x3
I0403 19:15:26.014871  8990 net.cpp:148] Top shape: 24 224 14 14 (1053696)
I0403 19:15:26.014890  8990 net.cpp:156] Memory required for data: 960654624
I0403 19:15:26.014914  8990 layer_factory.hpp:77] Creating layer inception_4b/relu_3x3
I0403 19:15:26.014940  8990 net.cpp:91] Creating Layer inception_4b/relu_3x3
I0403 19:15:26.014961  8990 net.cpp:425] inception_4b/relu_3x3 <- inception_4b/3x3
I0403 19:15:26.014983  8990 net.cpp:386] inception_4b/relu_3x3 -> inception_4b/3x3 (in-place)
I0403 19:15:26.015207  8990 net.cpp:141] Setting up inception_4b/relu_3x3
I0403 19:15:26.015240  8990 net.cpp:148] Top shape: 24 224 14 14 (1053696)
I0403 19:15:26.015259  8990 net.cpp:156] Memory required for data: 964869408
I0403 19:15:26.015278  8990 layer_factory.hpp:77] Creating layer inception_4b/5x5_reduce
I0403 19:15:26.015305  8990 net.cpp:91] Creating Layer inception_4b/5x5_reduce
I0403 19:15:26.015324  8990 net.cpp:425] inception_4b/5x5_reduce <- inception_4a/output_inception_4a/output_0_split_3
I0403 19:15:26.015352  8990 net.cpp:399] inception_4b/5x5_reduce -> inception_4b/5x5_reduce
I0403 19:15:26.016683  8990 net.cpp:141] Setting up inception_4b/5x5_reduce
I0403 19:15:26.016731  8990 net.cpp:148] Top shape: 24 24 14 14 (112896)
I0403 19:15:26.016751  8990 net.cpp:156] Memory required for data: 965320992
I0403 19:15:26.016782  8990 layer_factory.hpp:77] Creating layer inception_4b/relu_5x5_reduce
I0403 19:15:26.016805  8990 net.cpp:91] Creating Layer inception_4b/relu_5x5_reduce
I0403 19:15:26.016844  8990 net.cpp:425] inception_4b/relu_5x5_reduce <- inception_4b/5x5_reduce
I0403 19:15:26.016867  8990 net.cpp:386] inception_4b/relu_5x5_reduce -> inception_4b/5x5_reduce (in-place)
I0403 19:15:26.017093  8990 net.cpp:141] Setting up inception_4b/relu_5x5_reduce
I0403 19:15:26.017124  8990 net.cpp:148] Top shape: 24 24 14 14 (112896)
I0403 19:15:26.017143  8990 net.cpp:156] Memory required for data: 965772576
I0403 19:15:26.017161  8990 layer_factory.hpp:77] Creating layer inception_4b/5x5
I0403 19:15:26.017190  8990 net.cpp:91] Creating Layer inception_4b/5x5
I0403 19:15:26.017211  8990 net.cpp:425] inception_4b/5x5 <- inception_4b/5x5_reduce
I0403 19:15:26.017238  8990 net.cpp:399] inception_4b/5x5 -> inception_4b/5x5
I0403 19:15:26.018734  8990 net.cpp:141] Setting up inception_4b/5x5
I0403 19:15:26.018769  8990 net.cpp:148] Top shape: 24 64 14 14 (301056)
I0403 19:15:26.018789  8990 net.cpp:156] Memory required for data: 966976800
I0403 19:15:26.018810  8990 layer_factory.hpp:77] Creating layer inception_4b/relu_5x5
I0403 19:15:26.018836  8990 net.cpp:91] Creating Layer inception_4b/relu_5x5
I0403 19:15:26.018858  8990 net.cpp:425] inception_4b/relu_5x5 <- inception_4b/5x5
I0403 19:15:26.018880  8990 net.cpp:386] inception_4b/relu_5x5 -> inception_4b/5x5 (in-place)
I0403 19:15:26.019217  8990 net.cpp:141] Setting up inception_4b/relu_5x5
I0403 19:15:26.019249  8990 net.cpp:148] Top shape: 24 64 14 14 (301056)
I0403 19:15:26.019268  8990 net.cpp:156] Memory required for data: 968181024
I0403 19:15:26.019286  8990 layer_factory.hpp:77] Creating layer inception_4b/pool
I0403 19:15:26.019315  8990 net.cpp:91] Creating Layer inception_4b/pool
I0403 19:15:26.019337  8990 net.cpp:425] inception_4b/pool <- inception_4a/output_inception_4a/output_0_split_4
I0403 19:15:26.019361  8990 net.cpp:399] inception_4b/pool -> inception_4b/pool
I0403 19:15:26.019441  8990 net.cpp:141] Setting up inception_4b/pool
I0403 19:15:26.019475  8990 net.cpp:148] Top shape: 24 512 14 14 (2408448)
I0403 19:15:26.019495  8990 net.cpp:156] Memory required for data: 977814816
I0403 19:15:26.019515  8990 layer_factory.hpp:77] Creating layer inception_4b/pool_proj
I0403 19:15:26.019542  8990 net.cpp:91] Creating Layer inception_4b/pool_proj
I0403 19:15:26.019564  8990 net.cpp:425] inception_4b/pool_proj <- inception_4b/pool
I0403 19:15:26.019592  8990 net.cpp:399] inception_4b/pool_proj -> inception_4b/pool_proj
I0403 19:15:26.021045  8990 net.cpp:141] Setting up inception_4b/pool_proj
I0403 19:15:26.021082  8990 net.cpp:148] Top shape: 24 64 14 14 (301056)
I0403 19:15:26.021102  8990 net.cpp:156] Memory required for data: 979019040
I0403 19:15:26.021126  8990 layer_factory.hpp:77] Creating layer inception_4b/relu_pool_proj
I0403 19:15:26.021148  8990 net.cpp:91] Creating Layer inception_4b/relu_pool_proj
I0403 19:15:26.021169  8990 net.cpp:425] inception_4b/relu_pool_proj <- inception_4b/pool_proj
I0403 19:15:26.021194  8990 net.cpp:386] inception_4b/relu_pool_proj -> inception_4b/pool_proj (in-place)
I0403 19:15:26.021414  8990 net.cpp:141] Setting up inception_4b/relu_pool_proj
I0403 19:15:26.021445  8990 net.cpp:148] Top shape: 24 64 14 14 (301056)
I0403 19:15:26.021468  8990 net.cpp:156] Memory required for data: 980223264
I0403 19:15:26.021497  8990 layer_factory.hpp:77] Creating layer inception_4b/output
I0403 19:15:26.021518  8990 net.cpp:91] Creating Layer inception_4b/output
I0403 19:15:26.021538  8990 net.cpp:425] inception_4b/output <- inception_4b/1x1
I0403 19:15:26.021559  8990 net.cpp:425] inception_4b/output <- inception_4b/3x3
I0403 19:15:26.021579  8990 net.cpp:425] inception_4b/output <- inception_4b/5x5
I0403 19:15:26.021600  8990 net.cpp:425] inception_4b/output <- inception_4b/pool_proj
I0403 19:15:26.021623  8990 net.cpp:399] inception_4b/output -> inception_4b/output
I0403 19:15:26.021682  8990 net.cpp:141] Setting up inception_4b/output
I0403 19:15:26.021713  8990 net.cpp:148] Top shape: 24 512 14 14 (2408448)
I0403 19:15:26.021733  8990 net.cpp:156] Memory required for data: 989857056
I0403 19:15:26.021780  8990 layer_factory.hpp:77] Creating layer inception_4b/output_inception_4b/output_0_split
I0403 19:15:26.021801  8990 net.cpp:91] Creating Layer inception_4b/output_inception_4b/output_0_split
I0403 19:15:26.021821  8990 net.cpp:425] inception_4b/output_inception_4b/output_0_split <- inception_4b/output
I0403 19:15:26.021843  8990 net.cpp:399] inception_4b/output_inception_4b/output_0_split -> inception_4b/output_inception_4b/output_0_split_0
I0403 19:15:26.021872  8990 net.cpp:399] inception_4b/output_inception_4b/output_0_split -> inception_4b/output_inception_4b/output_0_split_1
I0403 19:15:26.021898  8990 net.cpp:399] inception_4b/output_inception_4b/output_0_split -> inception_4b/output_inception_4b/output_0_split_2
I0403 19:15:26.021925  8990 net.cpp:399] inception_4b/output_inception_4b/output_0_split -> inception_4b/output_inception_4b/output_0_split_3
I0403 19:15:26.022033  8990 net.cpp:141] Setting up inception_4b/output_inception_4b/output_0_split
I0403 19:15:26.022071  8990 net.cpp:148] Top shape: 24 512 14 14 (2408448)
I0403 19:15:26.022091  8990 net.cpp:148] Top shape: 24 512 14 14 (2408448)
I0403 19:15:26.022111  8990 net.cpp:148] Top shape: 24 512 14 14 (2408448)
I0403 19:15:26.022130  8990 net.cpp:148] Top shape: 24 512 14 14 (2408448)
I0403 19:15:26.022148  8990 net.cpp:156] Memory required for data: 1028392224
I0403 19:15:26.022167  8990 layer_factory.hpp:77] Creating layer inception_4c/1x1
I0403 19:15:26.022197  8990 net.cpp:91] Creating Layer inception_4c/1x1
I0403 19:15:26.022220  8990 net.cpp:425] inception_4c/1x1 <- inception_4b/output_inception_4b/output_0_split_0
I0403 19:15:26.022244  8990 net.cpp:399] inception_4c/1x1 -> inception_4c/1x1
I0403 19:15:26.024015  8990 net.cpp:141] Setting up inception_4c/1x1
I0403 19:15:26.024050  8990 net.cpp:148] Top shape: 24 128 14 14 (602112)
I0403 19:15:26.024070  8990 net.cpp:156] Memory required for data: 1030800672
I0403 19:15:26.024093  8990 layer_factory.hpp:77] Creating layer inception_4c/relu_1x1
I0403 19:15:26.024116  8990 net.cpp:91] Creating Layer inception_4c/relu_1x1
I0403 19:15:26.024135  8990 net.cpp:425] inception_4c/relu_1x1 <- inception_4c/1x1
I0403 19:15:26.024159  8990 net.cpp:386] inception_4c/relu_1x1 -> inception_4c/1x1 (in-place)
I0403 19:15:26.024381  8990 net.cpp:141] Setting up inception_4c/relu_1x1
I0403 19:15:26.024412  8990 net.cpp:148] Top shape: 24 128 14 14 (602112)
I0403 19:15:26.024430  8990 net.cpp:156] Memory required for data: 1033209120
I0403 19:15:26.024448  8990 layer_factory.hpp:77] Creating layer inception_4c/3x3_reduce
I0403 19:15:26.024482  8990 net.cpp:91] Creating Layer inception_4c/3x3_reduce
I0403 19:15:26.024507  8990 net.cpp:425] inception_4c/3x3_reduce <- inception_4b/output_inception_4b/output_0_split_1
I0403 19:15:26.024535  8990 net.cpp:399] inception_4c/3x3_reduce -> inception_4c/3x3_reduce
I0403 19:15:26.026886  8990 net.cpp:141] Setting up inception_4c/3x3_reduce
I0403 19:15:26.026926  8990 net.cpp:148] Top shape: 24 128 14 14 (602112)
I0403 19:15:26.026947  8990 net.cpp:156] Memory required for data: 1035617568
I0403 19:15:26.026971  8990 layer_factory.hpp:77] Creating layer inception_4c/relu_3x3_reduce
I0403 19:15:26.026993  8990 net.cpp:91] Creating Layer inception_4c/relu_3x3_reduce
I0403 19:15:26.027012  8990 net.cpp:425] inception_4c/relu_3x3_reduce <- inception_4c/3x3_reduce
I0403 19:15:26.027034  8990 net.cpp:386] inception_4c/relu_3x3_reduce -> inception_4c/3x3_reduce (in-place)
I0403 19:15:26.027377  8990 net.cpp:141] Setting up inception_4c/relu_3x3_reduce
I0403 19:15:26.027412  8990 net.cpp:148] Top shape: 24 128 14 14 (602112)
I0403 19:15:26.027432  8990 net.cpp:156] Memory required for data: 1038026016
I0403 19:15:26.027452  8990 layer_factory.hpp:77] Creating layer inception_4c/3x3
I0403 19:15:26.027483  8990 net.cpp:91] Creating Layer inception_4c/3x3
I0403 19:15:26.027505  8990 net.cpp:425] inception_4c/3x3 <- inception_4c/3x3_reduce
I0403 19:15:26.027534  8990 net.cpp:399] inception_4c/3x3 -> inception_4c/3x3
I0403 19:15:26.031882  8990 net.cpp:141] Setting up inception_4c/3x3
I0403 19:15:26.031934  8990 net.cpp:148] Top shape: 24 256 14 14 (1204224)
I0403 19:15:26.031956  8990 net.cpp:156] Memory required for data: 1042842912
I0403 19:15:26.031997  8990 layer_factory.hpp:77] Creating layer inception_4c/relu_3x3
I0403 19:15:26.032022  8990 net.cpp:91] Creating Layer inception_4c/relu_3x3
I0403 19:15:26.032043  8990 net.cpp:425] inception_4c/relu_3x3 <- inception_4c/3x3
I0403 19:15:26.032071  8990 net.cpp:386] inception_4c/relu_3x3 -> inception_4c/3x3 (in-place)
I0403 19:15:26.032292  8990 net.cpp:141] Setting up inception_4c/relu_3x3
I0403 19:15:26.032326  8990 net.cpp:148] Top shape: 24 256 14 14 (1204224)
I0403 19:15:26.032347  8990 net.cpp:156] Memory required for data: 1047659808
I0403 19:15:26.032366  8990 layer_factory.hpp:77] Creating layer inception_4c/5x5_reduce
I0403 19:15:26.032395  8990 net.cpp:91] Creating Layer inception_4c/5x5_reduce
I0403 19:15:26.032425  8990 net.cpp:425] inception_4c/5x5_reduce <- inception_4b/output_inception_4b/output_0_split_2
I0403 19:15:26.032450  8990 net.cpp:399] inception_4c/5x5_reduce -> inception_4c/5x5_reduce
I0403 19:15:26.033790  8990 net.cpp:141] Setting up inception_4c/5x5_reduce
I0403 19:15:26.033829  8990 net.cpp:148] Top shape: 24 24 14 14 (112896)
I0403 19:15:26.033850  8990 net.cpp:156] Memory required for data: 1048111392
I0403 19:15:26.033874  8990 layer_factory.hpp:77] Creating layer inception_4c/relu_5x5_reduce
I0403 19:15:26.033896  8990 net.cpp:91] Creating Layer inception_4c/relu_5x5_reduce
I0403 19:15:26.033917  8990 net.cpp:425] inception_4c/relu_5x5_reduce <- inception_4c/5x5_reduce
I0403 19:15:26.033938  8990 net.cpp:386] inception_4c/relu_5x5_reduce -> inception_4c/5x5_reduce (in-place)
I0403 19:15:26.034167  8990 net.cpp:141] Setting up inception_4c/relu_5x5_reduce
I0403 19:15:26.034199  8990 net.cpp:148] Top shape: 24 24 14 14 (112896)
I0403 19:15:26.034217  8990 net.cpp:156] Memory required for data: 1048562976
I0403 19:15:26.034236  8990 layer_factory.hpp:77] Creating layer inception_4c/5x5
I0403 19:15:26.034265  8990 net.cpp:91] Creating Layer inception_4c/5x5
I0403 19:15:26.034286  8990 net.cpp:425] inception_4c/5x5 <- inception_4c/5x5_reduce
I0403 19:15:26.034312  8990 net.cpp:399] inception_4c/5x5 -> inception_4c/5x5
I0403 19:15:26.035827  8990 net.cpp:141] Setting up inception_4c/5x5
I0403 19:15:26.035862  8990 net.cpp:148] Top shape: 24 64 14 14 (301056)
I0403 19:15:26.035881  8990 net.cpp:156] Memory required for data: 1049767200
I0403 19:15:26.035905  8990 layer_factory.hpp:77] Creating layer inception_4c/relu_5x5
I0403 19:15:26.035928  8990 net.cpp:91] Creating Layer inception_4c/relu_5x5
I0403 19:15:26.035959  8990 net.cpp:425] inception_4c/relu_5x5 <- inception_4c/5x5
I0403 19:15:26.035984  8990 net.cpp:386] inception_4c/relu_5x5 -> inception_4c/5x5 (in-place)
I0403 19:15:26.036334  8990 net.cpp:141] Setting up inception_4c/relu_5x5
I0403 19:15:26.036365  8990 net.cpp:148] Top shape: 24 64 14 14 (301056)
I0403 19:15:26.036384  8990 net.cpp:156] Memory required for data: 1050971424
I0403 19:15:26.036403  8990 layer_factory.hpp:77] Creating layer inception_4c/pool
I0403 19:15:26.036425  8990 net.cpp:91] Creating Layer inception_4c/pool
I0403 19:15:26.036447  8990 net.cpp:425] inception_4c/pool <- inception_4b/output_inception_4b/output_0_split_3
I0403 19:15:26.036478  8990 net.cpp:399] inception_4c/pool -> inception_4c/pool
I0403 19:15:26.036562  8990 net.cpp:141] Setting up inception_4c/pool
I0403 19:15:26.036592  8990 net.cpp:148] Top shape: 24 512 14 14 (2408448)
I0403 19:15:26.036610  8990 net.cpp:156] Memory required for data: 1060605216
I0403 19:15:26.036629  8990 layer_factory.hpp:77] Creating layer inception_4c/pool_proj
I0403 19:15:26.036659  8990 net.cpp:91] Creating Layer inception_4c/pool_proj
I0403 19:15:26.036681  8990 net.cpp:425] inception_4c/pool_proj <- inception_4c/pool
I0403 19:15:26.036705  8990 net.cpp:399] inception_4c/pool_proj -> inception_4c/pool_proj
I0403 19:15:26.038208  8990 net.cpp:141] Setting up inception_4c/pool_proj
I0403 19:15:26.038245  8990 net.cpp:148] Top shape: 24 64 14 14 (301056)
I0403 19:15:26.038282  8990 net.cpp:156] Memory required for data: 1061809440
I0403 19:15:26.038307  8990 layer_factory.hpp:77] Creating layer inception_4c/relu_pool_proj
I0403 19:15:26.038329  8990 net.cpp:91] Creating Layer inception_4c/relu_pool_proj
I0403 19:15:26.038350  8990 net.cpp:425] inception_4c/relu_pool_proj <- inception_4c/pool_proj
I0403 19:15:26.038375  8990 net.cpp:386] inception_4c/relu_pool_proj -> inception_4c/pool_proj (in-place)
I0403 19:15:26.038605  8990 net.cpp:141] Setting up inception_4c/relu_pool_proj
I0403 19:15:26.038636  8990 net.cpp:148] Top shape: 24 64 14 14 (301056)
I0403 19:15:26.038655  8990 net.cpp:156] Memory required for data: 1063013664
I0403 19:15:26.038673  8990 layer_factory.hpp:77] Creating layer inception_4c/output
I0403 19:15:26.038697  8990 net.cpp:91] Creating Layer inception_4c/output
I0403 19:15:26.038715  8990 net.cpp:425] inception_4c/output <- inception_4c/1x1
I0403 19:15:26.038735  8990 net.cpp:425] inception_4c/output <- inception_4c/3x3
I0403 19:15:26.038755  8990 net.cpp:425] inception_4c/output <- inception_4c/5x5
I0403 19:15:26.038775  8990 net.cpp:425] inception_4c/output <- inception_4c/pool_proj
I0403 19:15:26.038800  8990 net.cpp:399] inception_4c/output -> inception_4c/output
I0403 19:15:26.038856  8990 net.cpp:141] Setting up inception_4c/output
I0403 19:15:26.038889  8990 net.cpp:148] Top shape: 24 512 14 14 (2408448)
I0403 19:15:26.038909  8990 net.cpp:156] Memory required for data: 1072647456
I0403 19:15:26.038928  8990 layer_factory.hpp:77] Creating layer inception_4c/output_inception_4c/output_0_split
I0403 19:15:26.038949  8990 net.cpp:91] Creating Layer inception_4c/output_inception_4c/output_0_split
I0403 19:15:26.038969  8990 net.cpp:425] inception_4c/output_inception_4c/output_0_split <- inception_4c/output
I0403 19:15:26.038991  8990 net.cpp:399] inception_4c/output_inception_4c/output_0_split -> inception_4c/output_inception_4c/output_0_split_0
I0403 19:15:26.039016  8990 net.cpp:399] inception_4c/output_inception_4c/output_0_split -> inception_4c/output_inception_4c/output_0_split_1
I0403 19:15:26.039043  8990 net.cpp:399] inception_4c/output_inception_4c/output_0_split -> inception_4c/output_inception_4c/output_0_split_2
I0403 19:15:26.039072  8990 net.cpp:399] inception_4c/output_inception_4c/output_0_split -> inception_4c/output_inception_4c/output_0_split_3
I0403 19:15:26.039180  8990 net.cpp:141] Setting up inception_4c/output_inception_4c/output_0_split
I0403 19:15:26.039209  8990 net.cpp:148] Top shape: 24 512 14 14 (2408448)
I0403 19:15:26.039230  8990 net.cpp:148] Top shape: 24 512 14 14 (2408448)
I0403 19:15:26.039250  8990 net.cpp:148] Top shape: 24 512 14 14 (2408448)
I0403 19:15:26.039269  8990 net.cpp:148] Top shape: 24 512 14 14 (2408448)
I0403 19:15:26.039286  8990 net.cpp:156] Memory required for data: 1111182624
I0403 19:15:26.039304  8990 layer_factory.hpp:77] Creating layer inception_4d/1x1
I0403 19:15:26.039335  8990 net.cpp:91] Creating Layer inception_4d/1x1
I0403 19:15:26.039357  8990 net.cpp:425] inception_4d/1x1 <- inception_4c/output_inception_4c/output_0_split_0
I0403 19:15:26.039384  8990 net.cpp:399] inception_4d/1x1 -> inception_4d/1x1
I0403 19:15:26.041090  8990 net.cpp:141] Setting up inception_4d/1x1
I0403 19:15:26.041126  8990 net.cpp:148] Top shape: 24 112 14 14 (526848)
I0403 19:15:26.041146  8990 net.cpp:156] Memory required for data: 1113290016
I0403 19:15:26.041170  8990 layer_factory.hpp:77] Creating layer inception_4d/relu_1x1
I0403 19:15:26.041195  8990 net.cpp:91] Creating Layer inception_4d/relu_1x1
I0403 19:15:26.041218  8990 net.cpp:425] inception_4d/relu_1x1 <- inception_4d/1x1
I0403 19:15:26.041239  8990 net.cpp:386] inception_4d/relu_1x1 -> inception_4d/1x1 (in-place)
I0403 19:15:26.041476  8990 net.cpp:141] Setting up inception_4d/relu_1x1
I0403 19:15:26.041509  8990 net.cpp:148] Top shape: 24 112 14 14 (526848)
I0403 19:15:26.041530  8990 net.cpp:156] Memory required for data: 1115397408
I0403 19:15:26.041549  8990 layer_factory.hpp:77] Creating layer inception_4d/3x3_reduce
I0403 19:15:26.041594  8990 net.cpp:91] Creating Layer inception_4d/3x3_reduce
I0403 19:15:26.041618  8990 net.cpp:425] inception_4d/3x3_reduce <- inception_4c/output_inception_4c/output_0_split_1
I0403 19:15:26.041642  8990 net.cpp:399] inception_4d/3x3_reduce -> inception_4d/3x3_reduce
I0403 19:15:26.043500  8990 net.cpp:141] Setting up inception_4d/3x3_reduce
I0403 19:15:26.043535  8990 net.cpp:148] Top shape: 24 144 14 14 (677376)
I0403 19:15:26.043555  8990 net.cpp:156] Memory required for data: 1118106912
I0403 19:15:26.043577  8990 layer_factory.hpp:77] Creating layer inception_4d/relu_3x3_reduce
I0403 19:15:26.043603  8990 net.cpp:91] Creating Layer inception_4d/relu_3x3_reduce
I0403 19:15:26.043625  8990 net.cpp:425] inception_4d/relu_3x3_reduce <- inception_4d/3x3_reduce
I0403 19:15:26.043648  8990 net.cpp:386] inception_4d/relu_3x3_reduce -> inception_4d/3x3_reduce (in-place)
I0403 19:15:26.044000  8990 net.cpp:141] Setting up inception_4d/relu_3x3_reduce
I0403 19:15:26.044034  8990 net.cpp:148] Top shape: 24 144 14 14 (677376)
I0403 19:15:26.044052  8990 net.cpp:156] Memory required for data: 1120816416
I0403 19:15:26.044070  8990 layer_factory.hpp:77] Creating layer inception_4d/3x3
I0403 19:15:26.044098  8990 net.cpp:91] Creating Layer inception_4d/3x3
I0403 19:15:26.044121  8990 net.cpp:425] inception_4d/3x3 <- inception_4d/3x3_reduce
I0403 19:15:26.044148  8990 net.cpp:399] inception_4d/3x3 -> inception_4d/3x3
I0403 19:15:26.049384  8990 net.cpp:141] Setting up inception_4d/3x3
I0403 19:15:26.049422  8990 net.cpp:148] Top shape: 24 288 14 14 (1354752)
I0403 19:15:26.049442  8990 net.cpp:156] Memory required for data: 1126235424
I0403 19:15:26.049469  8990 layer_factory.hpp:77] Creating layer inception_4d/relu_3x3
I0403 19:15:26.049499  8990 net.cpp:91] Creating Layer inception_4d/relu_3x3
I0403 19:15:26.049520  8990 net.cpp:425] inception_4d/relu_3x3 <- inception_4d/3x3
I0403 19:15:26.049542  8990 net.cpp:386] inception_4d/relu_3x3 -> inception_4d/3x3 (in-place)
I0403 19:15:26.049775  8990 net.cpp:141] Setting up inception_4d/relu_3x3
I0403 19:15:26.049808  8990 net.cpp:148] Top shape: 24 288 14 14 (1354752)
I0403 19:15:26.049829  8990 net.cpp:156] Memory required for data: 1131654432
I0403 19:15:26.049846  8990 layer_factory.hpp:77] Creating layer inception_4d/5x5_reduce
I0403 19:15:26.049875  8990 net.cpp:91] Creating Layer inception_4d/5x5_reduce
I0403 19:15:26.049896  8990 net.cpp:425] inception_4d/5x5_reduce <- inception_4c/output_inception_4c/output_0_split_2
I0403 19:15:26.049921  8990 net.cpp:399] inception_4d/5x5_reduce -> inception_4d/5x5_reduce
I0403 19:15:26.051308  8990 net.cpp:141] Setting up inception_4d/5x5_reduce
I0403 19:15:26.051342  8990 net.cpp:148] Top shape: 24 32 14 14 (150528)
I0403 19:15:26.051362  8990 net.cpp:156] Memory required for data: 1132256544
I0403 19:15:26.051385  8990 layer_factory.hpp:77] Creating layer inception_4d/relu_5x5_reduce
I0403 19:15:26.051410  8990 net.cpp:91] Creating Layer inception_4d/relu_5x5_reduce
I0403 19:15:26.051434  8990 net.cpp:425] inception_4d/relu_5x5_reduce <- inception_4d/5x5_reduce
I0403 19:15:26.051455  8990 net.cpp:386] inception_4d/relu_5x5_reduce -> inception_4d/5x5_reduce (in-place)
I0403 19:15:26.051689  8990 net.cpp:141] Setting up inception_4d/relu_5x5_reduce
I0403 19:15:26.051724  8990 net.cpp:148] Top shape: 24 32 14 14 (150528)
I0403 19:15:26.051744  8990 net.cpp:156] Memory required for data: 1132858656
I0403 19:15:26.051764  8990 layer_factory.hpp:77] Creating layer inception_4d/5x5
I0403 19:15:26.051791  8990 net.cpp:91] Creating Layer inception_4d/5x5
I0403 19:15:26.051813  8990 net.cpp:425] inception_4d/5x5 <- inception_4d/5x5_reduce
I0403 19:15:26.051837  8990 net.cpp:399] inception_4d/5x5 -> inception_4d/5x5
I0403 19:15:26.053653  8990 net.cpp:141] Setting up inception_4d/5x5
I0403 19:15:26.053689  8990 net.cpp:148] Top shape: 24 64 14 14 (301056)
I0403 19:15:26.053709  8990 net.cpp:156] Memory required for data: 1134062880
I0403 19:15:26.053732  8990 layer_factory.hpp:77] Creating layer inception_4d/relu_5x5
I0403 19:15:26.053772  8990 net.cpp:91] Creating Layer inception_4d/relu_5x5
I0403 19:15:26.053803  8990 net.cpp:425] inception_4d/relu_5x5 <- inception_4d/5x5
I0403 19:15:26.053828  8990 net.cpp:386] inception_4d/relu_5x5 -> inception_4d/5x5 (in-place)
I0403 19:15:26.054200  8990 net.cpp:141] Setting up inception_4d/relu_5x5
I0403 19:15:26.054234  8990 net.cpp:148] Top shape: 24 64 14 14 (301056)
I0403 19:15:26.054253  8990 net.cpp:156] Memory required for data: 1135267104
I0403 19:15:26.054272  8990 layer_factory.hpp:77] Creating layer inception_4d/pool
I0403 19:15:26.054294  8990 net.cpp:91] Creating Layer inception_4d/pool
I0403 19:15:26.054314  8990 net.cpp:425] inception_4d/pool <- inception_4c/output_inception_4c/output_0_split_3
I0403 19:15:26.054339  8990 net.cpp:399] inception_4d/pool -> inception_4d/pool
I0403 19:15:26.054424  8990 net.cpp:141] Setting up inception_4d/pool
I0403 19:15:26.054452  8990 net.cpp:148] Top shape: 24 512 14 14 (2408448)
I0403 19:15:26.054481  8990 net.cpp:156] Memory required for data: 1144900896
I0403 19:15:26.054499  8990 layer_factory.hpp:77] Creating layer inception_4d/pool_proj
I0403 19:15:26.054529  8990 net.cpp:91] Creating Layer inception_4d/pool_proj
I0403 19:15:26.054551  8990 net.cpp:425] inception_4d/pool_proj <- inception_4d/pool
I0403 19:15:26.054575  8990 net.cpp:399] inception_4d/pool_proj -> inception_4d/pool_proj
I0403 19:15:26.056694  8990 net.cpp:141] Setting up inception_4d/pool_proj
I0403 19:15:26.056730  8990 net.cpp:148] Top shape: 24 64 14 14 (301056)
I0403 19:15:26.056749  8990 net.cpp:156] Memory required for data: 1146105120
I0403 19:15:26.056771  8990 layer_factory.hpp:77] Creating layer inception_4d/relu_pool_proj
I0403 19:15:26.056797  8990 net.cpp:91] Creating Layer inception_4d/relu_pool_proj
I0403 19:15:26.056818  8990 net.cpp:425] inception_4d/relu_pool_proj <- inception_4d/pool_proj
I0403 19:15:26.056839  8990 net.cpp:386] inception_4d/relu_pool_proj -> inception_4d/pool_proj (in-place)
I0403 19:15:26.057067  8990 net.cpp:141] Setting up inception_4d/relu_pool_proj
I0403 19:15:26.057101  8990 net.cpp:148] Top shape: 24 64 14 14 (301056)
I0403 19:15:26.057121  8990 net.cpp:156] Memory required for data: 1147309344
I0403 19:15:26.057138  8990 layer_factory.hpp:77] Creating layer inception_4d/output
I0403 19:15:26.057159  8990 net.cpp:91] Creating Layer inception_4d/output
I0403 19:15:26.057179  8990 net.cpp:425] inception_4d/output <- inception_4d/1x1
I0403 19:15:26.057200  8990 net.cpp:425] inception_4d/output <- inception_4d/3x3
I0403 19:15:26.057220  8990 net.cpp:425] inception_4d/output <- inception_4d/5x5
I0403 19:15:26.057240  8990 net.cpp:425] inception_4d/output <- inception_4d/pool_proj
I0403 19:15:26.057265  8990 net.cpp:399] inception_4d/output -> inception_4d/output
I0403 19:15:26.057324  8990 net.cpp:141] Setting up inception_4d/output
I0403 19:15:26.057353  8990 net.cpp:148] Top shape: 24 528 14 14 (2483712)
I0403 19:15:26.057371  8990 net.cpp:156] Memory required for data: 1157244192
I0403 19:15:26.057390  8990 layer_factory.hpp:77] Creating layer inception_4d/output_inception_4d/output_0_split
I0403 19:15:26.057415  8990 net.cpp:91] Creating Layer inception_4d/output_inception_4d/output_0_split
I0403 19:15:26.057436  8990 net.cpp:425] inception_4d/output_inception_4d/output_0_split <- inception_4d/output
I0403 19:15:26.057466  8990 net.cpp:399] inception_4d/output_inception_4d/output_0_split -> inception_4d/output_inception_4d/output_0_split_0
I0403 19:15:26.057493  8990 net.cpp:399] inception_4d/output_inception_4d/output_0_split -> inception_4d/output_inception_4d/output_0_split_1
I0403 19:15:26.057535  8990 net.cpp:399] inception_4d/output_inception_4d/output_0_split -> inception_4d/output_inception_4d/output_0_split_2
I0403 19:15:26.057562  8990 net.cpp:399] inception_4d/output_inception_4d/output_0_split -> inception_4d/output_inception_4d/output_0_split_3
I0403 19:15:26.057587  8990 net.cpp:399] inception_4d/output_inception_4d/output_0_split -> inception_4d/output_inception_4d/output_0_split_4
I0403 19:15:26.057711  8990 net.cpp:141] Setting up inception_4d/output_inception_4d/output_0_split
I0403 19:15:26.057755  8990 net.cpp:148] Top shape: 24 528 14 14 (2483712)
I0403 19:15:26.057776  8990 net.cpp:148] Top shape: 24 528 14 14 (2483712)
I0403 19:15:26.057806  8990 net.cpp:148] Top shape: 24 528 14 14 (2483712)
I0403 19:15:26.057826  8990 net.cpp:148] Top shape: 24 528 14 14 (2483712)
I0403 19:15:26.057845  8990 net.cpp:148] Top shape: 24 528 14 14 (2483712)
I0403 19:15:26.057863  8990 net.cpp:156] Memory required for data: 1206918432
I0403 19:15:26.057881  8990 layer_factory.hpp:77] Creating layer loss2/ave_pool
I0403 19:15:26.057907  8990 net.cpp:91] Creating Layer loss2/ave_pool
I0403 19:15:26.057929  8990 net.cpp:425] loss2/ave_pool <- inception_4d/output_inception_4d/output_0_split_0
I0403 19:15:26.057952  8990 net.cpp:399] loss2/ave_pool -> loss2/ave_pool
I0403 19:15:26.058333  8990 net.cpp:141] Setting up loss2/ave_pool
I0403 19:15:26.058367  8990 net.cpp:148] Top shape: 24 528 4 4 (202752)
I0403 19:15:26.058387  8990 net.cpp:156] Memory required for data: 1207729440
I0403 19:15:26.058405  8990 layer_factory.hpp:77] Creating layer loss2/conv
I0403 19:15:26.058434  8990 net.cpp:91] Creating Layer loss2/conv
I0403 19:15:26.058456  8990 net.cpp:425] loss2/conv <- loss2/ave_pool
I0403 19:15:26.058491  8990 net.cpp:399] loss2/conv -> loss2/conv
I0403 19:15:26.060778  8990 net.cpp:141] Setting up loss2/conv
I0403 19:15:26.060816  8990 net.cpp:148] Top shape: 24 128 4 4 (49152)
I0403 19:15:26.060837  8990 net.cpp:156] Memory required for data: 1207926048
I0403 19:15:26.060861  8990 layer_factory.hpp:77] Creating layer loss2/relu_conv
I0403 19:15:26.060883  8990 net.cpp:91] Creating Layer loss2/relu_conv
I0403 19:15:26.060904  8990 net.cpp:425] loss2/relu_conv <- loss2/conv
I0403 19:15:26.060928  8990 net.cpp:386] loss2/relu_conv -> loss2/conv (in-place)
I0403 19:15:26.061271  8990 net.cpp:141] Setting up loss2/relu_conv
I0403 19:15:26.061306  8990 net.cpp:148] Top shape: 24 128 4 4 (49152)
I0403 19:15:26.061326  8990 net.cpp:156] Memory required for data: 1208122656
I0403 19:15:26.061345  8990 layer_factory.hpp:77] Creating layer loss2/fc
I0403 19:15:26.061368  8990 net.cpp:91] Creating Layer loss2/fc
I0403 19:15:26.061388  8990 net.cpp:425] loss2/fc <- loss2/conv
I0403 19:15:26.061415  8990 net.cpp:399] loss2/fc -> loss2/fc
I0403 19:15:26.083289  8990 net.cpp:141] Setting up loss2/fc
I0403 19:15:26.083328  8990 net.cpp:148] Top shape: 24 1024 (24576)
I0403 19:15:26.083348  8990 net.cpp:156] Memory required for data: 1208220960
I0403 19:15:26.083372  8990 layer_factory.hpp:77] Creating layer loss2/relu_fc
I0403 19:15:26.083398  8990 net.cpp:91] Creating Layer loss2/relu_fc
I0403 19:15:26.083420  8990 net.cpp:425] loss2/relu_fc <- loss2/fc
I0403 19:15:26.083442  8990 net.cpp:386] loss2/relu_fc -> loss2/fc (in-place)
I0403 19:15:26.083813  8990 net.cpp:141] Setting up loss2/relu_fc
I0403 19:15:26.083847  8990 net.cpp:148] Top shape: 24 1024 (24576)
I0403 19:15:26.083865  8990 net.cpp:156] Memory required for data: 1208319264
I0403 19:15:26.083884  8990 layer_factory.hpp:77] Creating layer loss2/drop_fc
I0403 19:15:26.083910  8990 net.cpp:91] Creating Layer loss2/drop_fc
I0403 19:15:26.083931  8990 net.cpp:425] loss2/drop_fc <- loss2/fc
I0403 19:15:26.083953  8990 net.cpp:386] loss2/drop_fc -> loss2/fc (in-place)
I0403 19:15:26.084017  8990 net.cpp:141] Setting up loss2/drop_fc
I0403 19:15:26.084046  8990 net.cpp:148] Top shape: 24 1024 (24576)
I0403 19:15:26.084065  8990 net.cpp:156] Memory required for data: 1208417568
I0403 19:15:26.084084  8990 layer_factory.hpp:77] Creating layer loss2/classifier_plantvillage
I0403 19:15:26.084110  8990 net.cpp:91] Creating Layer loss2/classifier_plantvillage
I0403 19:15:26.084132  8990 net.cpp:425] loss2/classifier_plantvillage <- loss2/fc
I0403 19:15:26.084156  8990 net.cpp:399] loss2/classifier_plantvillage -> loss2/classifier_plantvillage
I0403 19:15:26.084661  8990 net.cpp:141] Setting up loss2/classifier_plantvillage
I0403 19:15:26.084692  8990 net.cpp:148] Top shape: 24 38 (912)
I0403 19:15:26.084710  8990 net.cpp:156] Memory required for data: 1208421216
I0403 19:15:26.084753  8990 layer_factory.hpp:77] Creating layer loss2/classifier_plantvillage_loss2/classifier_plantvillage_0_split
I0403 19:15:26.084776  8990 net.cpp:91] Creating Layer loss2/classifier_plantvillage_loss2/classifier_plantvillage_0_split
I0403 19:15:26.084796  8990 net.cpp:425] loss2/classifier_plantvillage_loss2/classifier_plantvillage_0_split <- loss2/classifier_plantvillage
I0403 19:15:26.084821  8990 net.cpp:399] loss2/classifier_plantvillage_loss2/classifier_plantvillage_0_split -> loss2/classifier_plantvillage_loss2/classifier_plantvillage_0_split_0
I0403 19:15:26.084848  8990 net.cpp:399] loss2/classifier_plantvillage_loss2/classifier_plantvillage_0_split -> loss2/classifier_plantvillage_loss2/classifier_plantvillage_0_split_1
I0403 19:15:26.084873  8990 net.cpp:399] loss2/classifier_plantvillage_loss2/classifier_plantvillage_0_split -> loss2/classifier_plantvillage_loss2/classifier_plantvillage_0_split_2
I0403 19:15:26.084969  8990 net.cpp:141] Setting up loss2/classifier_plantvillage_loss2/classifier_plantvillage_0_split
I0403 19:15:26.085000  8990 net.cpp:148] Top shape: 24 38 (912)
I0403 19:15:26.085022  8990 net.cpp:148] Top shape: 24 38 (912)
I0403 19:15:26.085042  8990 net.cpp:148] Top shape: 24 38 (912)
I0403 19:15:26.085060  8990 net.cpp:156] Memory required for data: 1208432160
I0403 19:15:26.085078  8990 layer_factory.hpp:77] Creating layer inception_4e/1x1
I0403 19:15:26.085103  8990 net.cpp:91] Creating Layer inception_4e/1x1
I0403 19:15:26.085124  8990 net.cpp:425] inception_4e/1x1 <- inception_4d/output_inception_4d/output_0_split_1
I0403 19:15:26.085149  8990 net.cpp:399] inception_4e/1x1 -> inception_4e/1x1
I0403 19:15:26.087378  8990 net.cpp:141] Setting up inception_4e/1x1
I0403 19:15:26.087437  8990 net.cpp:148] Top shape: 24 256 14 14 (1204224)
I0403 19:15:26.087481  8990 net.cpp:156] Memory required for data: 1213249056
I0403 19:15:26.087507  8990 layer_factory.hpp:77] Creating layer inception_4e/relu_1x1
I0403 19:15:26.087528  8990 net.cpp:91] Creating Layer inception_4e/relu_1x1
I0403 19:15:26.087556  8990 net.cpp:425] inception_4e/relu_1x1 <- inception_4e/1x1
I0403 19:15:26.087582  8990 net.cpp:386] inception_4e/relu_1x1 -> inception_4e/1x1 (in-place)
I0403 19:15:26.087949  8990 net.cpp:141] Setting up inception_4e/relu_1x1
I0403 19:15:26.087981  8990 net.cpp:148] Top shape: 24 256 14 14 (1204224)
I0403 19:15:26.088001  8990 net.cpp:156] Memory required for data: 1218065952
I0403 19:15:26.088021  8990 layer_factory.hpp:77] Creating layer inception_4e/3x3_reduce
I0403 19:15:26.088049  8990 net.cpp:91] Creating Layer inception_4e/3x3_reduce
I0403 19:15:26.088071  8990 net.cpp:425] inception_4e/3x3_reduce <- inception_4d/output_inception_4d/output_0_split_2
I0403 19:15:26.088101  8990 net.cpp:399] inception_4e/3x3_reduce -> inception_4e/3x3_reduce
I0403 19:15:26.090683  8990 net.cpp:141] Setting up inception_4e/3x3_reduce
I0403 19:15:26.090723  8990 net.cpp:148] Top shape: 24 160 14 14 (752640)
I0403 19:15:26.090744  8990 net.cpp:156] Memory required for data: 1221076512
I0403 19:15:26.090769  8990 layer_factory.hpp:77] Creating layer inception_4e/relu_3x3_reduce
I0403 19:15:26.090790  8990 net.cpp:91] Creating Layer inception_4e/relu_3x3_reduce
I0403 19:15:26.090811  8990 net.cpp:425] inception_4e/relu_3x3_reduce <- inception_4e/3x3_reduce
I0403 19:15:26.090836  8990 net.cpp:386] inception_4e/relu_3x3_reduce -> inception_4e/3x3_reduce (in-place)
I0403 19:15:26.091064  8990 net.cpp:141] Setting up inception_4e/relu_3x3_reduce
I0403 19:15:26.091095  8990 net.cpp:148] Top shape: 24 160 14 14 (752640)
I0403 19:15:26.091114  8990 net.cpp:156] Memory required for data: 1224087072
I0403 19:15:26.091131  8990 layer_factory.hpp:77] Creating layer inception_4e/3x3
I0403 19:15:26.091158  8990 net.cpp:91] Creating Layer inception_4e/3x3
I0403 19:15:26.091181  8990 net.cpp:425] inception_4e/3x3 <- inception_4e/3x3_reduce
I0403 19:15:26.091209  8990 net.cpp:399] inception_4e/3x3 -> inception_4e/3x3
I0403 19:15:26.097406  8990 net.cpp:141] Setting up inception_4e/3x3
I0403 19:15:26.097463  8990 net.cpp:148] Top shape: 24 320 14 14 (1505280)
I0403 19:15:26.097486  8990 net.cpp:156] Memory required for data: 1230108192
I0403 19:15:26.097511  8990 layer_factory.hpp:77] Creating layer inception_4e/relu_3x3
I0403 19:15:26.097532  8990 net.cpp:91] Creating Layer inception_4e/relu_3x3
I0403 19:15:26.097554  8990 net.cpp:425] inception_4e/relu_3x3 <- inception_4e/3x3
I0403 19:15:26.097579  8990 net.cpp:386] inception_4e/relu_3x3 -> inception_4e/3x3 (in-place)
I0403 19:15:26.097945  8990 net.cpp:141] Setting up inception_4e/relu_3x3
I0403 19:15:26.097977  8990 net.cpp:148] Top shape: 24 320 14 14 (1505280)
I0403 19:15:26.097997  8990 net.cpp:156] Memory required for data: 1236129312
I0403 19:15:26.098017  8990 layer_factory.hpp:77] Creating layer inception_4e/5x5_reduce
I0403 19:15:26.098047  8990 net.cpp:91] Creating Layer inception_4e/5x5_reduce
I0403 19:15:26.098070  8990 net.cpp:425] inception_4e/5x5_reduce <- inception_4d/output_inception_4d/output_0_split_3
I0403 19:15:26.098099  8990 net.cpp:399] inception_4e/5x5_reduce -> inception_4e/5x5_reduce
I0403 19:15:26.099406  8990 net.cpp:141] Setting up inception_4e/5x5_reduce
I0403 19:15:26.099442  8990 net.cpp:148] Top shape: 24 32 14 14 (150528)
I0403 19:15:26.099468  8990 net.cpp:156] Memory required for data: 1236731424
I0403 19:15:26.099494  8990 layer_factory.hpp:77] Creating layer inception_4e/relu_5x5_reduce
I0403 19:15:26.099517  8990 net.cpp:91] Creating Layer inception_4e/relu_5x5_reduce
I0403 19:15:26.099539  8990 net.cpp:425] inception_4e/relu_5x5_reduce <- inception_4e/5x5_reduce
I0403 19:15:26.099563  8990 net.cpp:386] inception_4e/relu_5x5_reduce -> inception_4e/5x5_reduce (in-place)
I0403 19:15:26.099927  8990 net.cpp:141] Setting up inception_4e/relu_5x5_reduce
I0403 19:15:26.099961  8990 net.cpp:148] Top shape: 24 32 14 14 (150528)
I0403 19:15:26.099979  8990 net.cpp:156] Memory required for data: 1237333536
I0403 19:15:26.099998  8990 layer_factory.hpp:77] Creating layer inception_4e/5x5
I0403 19:15:26.100044  8990 net.cpp:91] Creating Layer inception_4e/5x5
I0403 19:15:26.100069  8990 net.cpp:425] inception_4e/5x5 <- inception_4e/5x5_reduce
I0403 19:15:26.100092  8990 net.cpp:399] inception_4e/5x5 -> inception_4e/5x5
I0403 19:15:26.102337  8990 net.cpp:141] Setting up inception_4e/5x5
I0403 19:15:26.102376  8990 net.cpp:148] Top shape: 24 128 14 14 (602112)
I0403 19:15:26.102397  8990 net.cpp:156] Memory required for data: 1239741984
I0403 19:15:26.102421  8990 layer_factory.hpp:77] Creating layer inception_4e/relu_5x5
I0403 19:15:26.102443  8990 net.cpp:91] Creating Layer inception_4e/relu_5x5
I0403 19:15:26.102479  8990 net.cpp:425] inception_4e/relu_5x5 <- inception_4e/5x5
I0403 19:15:26.102504  8990 net.cpp:386] inception_4e/relu_5x5 -> inception_4e/5x5 (in-place)
I0403 19:15:26.102756  8990 net.cpp:141] Setting up inception_4e/relu_5x5
I0403 19:15:26.102790  8990 net.cpp:148] Top shape: 24 128 14 14 (602112)
I0403 19:15:26.102810  8990 net.cpp:156] Memory required for data: 1242150432
I0403 19:15:26.102828  8990 layer_factory.hpp:77] Creating layer inception_4e/pool
I0403 19:15:26.102851  8990 net.cpp:91] Creating Layer inception_4e/pool
I0403 19:15:26.102871  8990 net.cpp:425] inception_4e/pool <- inception_4d/output_inception_4d/output_0_split_4
I0403 19:15:26.102896  8990 net.cpp:399] inception_4e/pool -> inception_4e/pool
I0403 19:15:26.102982  8990 net.cpp:141] Setting up inception_4e/pool
I0403 19:15:26.103014  8990 net.cpp:148] Top shape: 24 528 14 14 (2483712)
I0403 19:15:26.103034  8990 net.cpp:156] Memory required for data: 1252085280
I0403 19:15:26.103052  8990 layer_factory.hpp:77] Creating layer inception_4e/pool_proj
I0403 19:15:26.103080  8990 net.cpp:91] Creating Layer inception_4e/pool_proj
I0403 19:15:26.103101  8990 net.cpp:425] inception_4e/pool_proj <- inception_4e/pool
I0403 19:15:26.103126  8990 net.cpp:399] inception_4e/pool_proj -> inception_4e/pool_proj
I0403 19:15:26.104967  8990 net.cpp:141] Setting up inception_4e/pool_proj
I0403 19:15:26.105002  8990 net.cpp:148] Top shape: 24 128 14 14 (602112)
I0403 19:15:26.105038  8990 net.cpp:156] Memory required for data: 1254493728
I0403 19:15:26.105063  8990 layer_factory.hpp:77] Creating layer inception_4e/relu_pool_proj
I0403 19:15:26.105113  8990 net.cpp:91] Creating Layer inception_4e/relu_pool_proj
I0403 19:15:26.105132  8990 net.cpp:425] inception_4e/relu_pool_proj <- inception_4e/pool_proj
I0403 19:15:26.105155  8990 net.cpp:386] inception_4e/relu_pool_proj -> inception_4e/pool_proj (in-place)
I0403 19:15:26.105521  8990 net.cpp:141] Setting up inception_4e/relu_pool_proj
I0403 19:15:26.105553  8990 net.cpp:148] Top shape: 24 128 14 14 (602112)
I0403 19:15:26.105572  8990 net.cpp:156] Memory required for data: 1256902176
I0403 19:15:26.105592  8990 layer_factory.hpp:77] Creating layer inception_4e/output
I0403 19:15:26.105617  8990 net.cpp:91] Creating Layer inception_4e/output
I0403 19:15:26.105638  8990 net.cpp:425] inception_4e/output <- inception_4e/1x1
I0403 19:15:26.105659  8990 net.cpp:425] inception_4e/output <- inception_4e/3x3
I0403 19:15:26.105679  8990 net.cpp:425] inception_4e/output <- inception_4e/5x5
I0403 19:15:26.105698  8990 net.cpp:425] inception_4e/output <- inception_4e/pool_proj
I0403 19:15:26.105720  8990 net.cpp:399] inception_4e/output -> inception_4e/output
I0403 19:15:26.105784  8990 net.cpp:141] Setting up inception_4e/output
I0403 19:15:26.105813  8990 net.cpp:148] Top shape: 24 832 14 14 (3913728)
I0403 19:15:26.105834  8990 net.cpp:156] Memory required for data: 1272557088
I0403 19:15:26.105852  8990 layer_factory.hpp:77] Creating layer pool4/3x3_s2
I0403 19:15:26.105875  8990 net.cpp:91] Creating Layer pool4/3x3_s2
I0403 19:15:26.105893  8990 net.cpp:425] pool4/3x3_s2 <- inception_4e/output
I0403 19:15:26.105918  8990 net.cpp:399] pool4/3x3_s2 -> pool4/3x3_s2
I0403 19:15:26.106003  8990 net.cpp:141] Setting up pool4/3x3_s2
I0403 19:15:26.106034  8990 net.cpp:148] Top shape: 24 832 7 7 (978432)
I0403 19:15:26.106052  8990 net.cpp:156] Memory required for data: 1276470816
I0403 19:15:26.106070  8990 layer_factory.hpp:77] Creating layer pool4/3x3_s2_pool4/3x3_s2_0_split
I0403 19:15:26.106091  8990 net.cpp:91] Creating Layer pool4/3x3_s2_pool4/3x3_s2_0_split
I0403 19:15:26.106111  8990 net.cpp:425] pool4/3x3_s2_pool4/3x3_s2_0_split <- pool4/3x3_s2
I0403 19:15:26.106135  8990 net.cpp:399] pool4/3x3_s2_pool4/3x3_s2_0_split -> pool4/3x3_s2_pool4/3x3_s2_0_split_0
I0403 19:15:26.106163  8990 net.cpp:399] pool4/3x3_s2_pool4/3x3_s2_0_split -> pool4/3x3_s2_pool4/3x3_s2_0_split_1
I0403 19:15:26.106191  8990 net.cpp:399] pool4/3x3_s2_pool4/3x3_s2_0_split -> pool4/3x3_s2_pool4/3x3_s2_0_split_2
I0403 19:15:26.106217  8990 net.cpp:399] pool4/3x3_s2_pool4/3x3_s2_0_split -> pool4/3x3_s2_pool4/3x3_s2_0_split_3
I0403 19:15:26.106330  8990 net.cpp:141] Setting up pool4/3x3_s2_pool4/3x3_s2_0_split
I0403 19:15:26.106359  8990 net.cpp:148] Top shape: 24 832 7 7 (978432)
I0403 19:15:26.106379  8990 net.cpp:148] Top shape: 24 832 7 7 (978432)
I0403 19:15:26.106400  8990 net.cpp:148] Top shape: 24 832 7 7 (978432)
I0403 19:15:26.106420  8990 net.cpp:148] Top shape: 24 832 7 7 (978432)
I0403 19:15:26.106437  8990 net.cpp:156] Memory required for data: 1292125728
I0403 19:15:26.106456  8990 layer_factory.hpp:77] Creating layer inception_5a/1x1
I0403 19:15:26.106497  8990 net.cpp:91] Creating Layer inception_5a/1x1
I0403 19:15:26.106519  8990 net.cpp:425] inception_5a/1x1 <- pool4/3x3_s2_pool4/3x3_s2_0_split_0
I0403 19:15:26.106554  8990 net.cpp:399] inception_5a/1x1 -> inception_5a/1x1
I0403 19:15:26.110024  8990 net.cpp:141] Setting up inception_5a/1x1
I0403 19:15:26.110062  8990 net.cpp:148] Top shape: 24 256 7 7 (301056)
I0403 19:15:26.110083  8990 net.cpp:156] Memory required for data: 1293329952
I0403 19:15:26.110107  8990 layer_factory.hpp:77] Creating layer inception_5a/relu_1x1
I0403 19:15:26.110129  8990 net.cpp:91] Creating Layer inception_5a/relu_1x1
I0403 19:15:26.110149  8990 net.cpp:425] inception_5a/relu_1x1 <- inception_5a/1x1
I0403 19:15:26.110174  8990 net.cpp:386] inception_5a/relu_1x1 -> inception_5a/1x1 (in-place)
I0403 19:15:26.110563  8990 net.cpp:141] Setting up inception_5a/relu_1x1
I0403 19:15:26.110599  8990 net.cpp:148] Top shape: 24 256 7 7 (301056)
I0403 19:15:26.110618  8990 net.cpp:156] Memory required for data: 1294534176
I0403 19:15:26.110637  8990 layer_factory.hpp:77] Creating layer inception_5a/3x3_reduce
I0403 19:15:26.110666  8990 net.cpp:91] Creating Layer inception_5a/3x3_reduce
I0403 19:15:26.110687  8990 net.cpp:425] inception_5a/3x3_reduce <- pool4/3x3_s2_pool4/3x3_s2_0_split_1
I0403 19:15:26.110710  8990 net.cpp:399] inception_5a/3x3_reduce -> inception_5a/3x3_reduce
I0403 19:15:26.113706  8990 net.cpp:141] Setting up inception_5a/3x3_reduce
I0403 19:15:26.113744  8990 net.cpp:148] Top shape: 24 160 7 7 (188160)
I0403 19:15:26.113762  8990 net.cpp:156] Memory required for data: 1295286816
I0403 19:15:26.113786  8990 layer_factory.hpp:77] Creating layer inception_5a/relu_3x3_reduce
I0403 19:15:26.113812  8990 net.cpp:91] Creating Layer inception_5a/relu_3x3_reduce
I0403 19:15:26.113836  8990 net.cpp:425] inception_5a/relu_3x3_reduce <- inception_5a/3x3_reduce
I0403 19:15:26.113857  8990 net.cpp:386] inception_5a/relu_3x3_reduce -> inception_5a/3x3_reduce (in-place)
I0403 19:15:26.114089  8990 net.cpp:141] Setting up inception_5a/relu_3x3_reduce
I0403 19:15:26.114120  8990 net.cpp:148] Top shape: 24 160 7 7 (188160)
I0403 19:15:26.114138  8990 net.cpp:156] Memory required for data: 1296039456
I0403 19:15:26.114157  8990 layer_factory.hpp:77] Creating layer inception_5a/3x3
I0403 19:15:26.114188  8990 net.cpp:91] Creating Layer inception_5a/3x3
I0403 19:15:26.114212  8990 net.cpp:425] inception_5a/3x3 <- inception_5a/3x3_reduce
I0403 19:15:26.114235  8990 net.cpp:399] inception_5a/3x3 -> inception_5a/3x3
I0403 19:15:26.120431  8990 net.cpp:141] Setting up inception_5a/3x3
I0403 19:15:26.120476  8990 net.cpp:148] Top shape: 24 320 7 7 (376320)
I0403 19:15:26.120499  8990 net.cpp:156] Memory required for data: 1297544736
I0403 19:15:26.120533  8990 layer_factory.hpp:77] Creating layer inception_5a/relu_3x3
I0403 19:15:26.120555  8990 net.cpp:91] Creating Layer inception_5a/relu_3x3
I0403 19:15:26.120575  8990 net.cpp:425] inception_5a/relu_3x3 <- inception_5a/3x3
I0403 19:15:26.120597  8990 net.cpp:386] inception_5a/relu_3x3 -> inception_5a/3x3 (in-place)
I0403 19:15:26.120957  8990 net.cpp:141] Setting up inception_5a/relu_3x3
I0403 19:15:26.120993  8990 net.cpp:148] Top shape: 24 320 7 7 (376320)
I0403 19:15:26.121013  8990 net.cpp:156] Memory required for data: 1299050016
I0403 19:15:26.121032  8990 layer_factory.hpp:77] Creating layer inception_5a/5x5_reduce
I0403 19:15:26.121060  8990 net.cpp:91] Creating Layer inception_5a/5x5_reduce
I0403 19:15:26.121083  8990 net.cpp:425] inception_5a/5x5_reduce <- pool4/3x3_s2_pool4/3x3_s2_0_split_2
I0403 19:15:26.121109  8990 net.cpp:399] inception_5a/5x5_reduce -> inception_5a/5x5_reduce
I0403 19:15:26.122563  8990 net.cpp:141] Setting up inception_5a/5x5_reduce
I0403 19:15:26.122601  8990 net.cpp:148] Top shape: 24 32 7 7 (37632)
I0403 19:15:26.122623  8990 net.cpp:156] Memory required for data: 1299200544
I0403 19:15:26.122648  8990 layer_factory.hpp:77] Creating layer inception_5a/relu_5x5_reduce
I0403 19:15:26.122670  8990 net.cpp:91] Creating Layer inception_5a/relu_5x5_reduce
I0403 19:15:26.122690  8990 net.cpp:425] inception_5a/relu_5x5_reduce <- inception_5a/5x5_reduce
I0403 19:15:26.122719  8990 net.cpp:386] inception_5a/relu_5x5_reduce -> inception_5a/5x5_reduce (in-place)
I0403 19:15:26.123078  8990 net.cpp:141] Setting up inception_5a/relu_5x5_reduce
I0403 19:15:26.123113  8990 net.cpp:148] Top shape: 24 32 7 7 (37632)
I0403 19:15:26.123133  8990 net.cpp:156] Memory required for data: 1299351072
I0403 19:15:26.123153  8990 layer_factory.hpp:77] Creating layer inception_5a/5x5
I0403 19:15:26.123181  8990 net.cpp:91] Creating Layer inception_5a/5x5
I0403 19:15:26.123203  8990 net.cpp:425] inception_5a/5x5 <- inception_5a/5x5_reduce
I0403 19:15:26.123230  8990 net.cpp:399] inception_5a/5x5 -> inception_5a/5x5
I0403 19:15:26.125340  8990 net.cpp:141] Setting up inception_5a/5x5
I0403 19:15:26.125393  8990 net.cpp:148] Top shape: 24 128 7 7 (150528)
I0403 19:15:26.125416  8990 net.cpp:156] Memory required for data: 1299953184
I0403 19:15:26.125438  8990 layer_factory.hpp:77] Creating layer inception_5a/relu_5x5
I0403 19:15:26.125466  8990 net.cpp:91] Creating Layer inception_5a/relu_5x5
I0403 19:15:26.125489  8990 net.cpp:425] inception_5a/relu_5x5 <- inception_5a/5x5
I0403 19:15:26.125510  8990 net.cpp:386] inception_5a/relu_5x5 -> inception_5a/5x5 (in-place)
I0403 19:15:26.125752  8990 net.cpp:141] Setting up inception_5a/relu_5x5
I0403 19:15:26.125783  8990 net.cpp:148] Top shape: 24 128 7 7 (150528)
I0403 19:15:26.125802  8990 net.cpp:156] Memory required for data: 1300555296
I0403 19:15:26.125821  8990 layer_factory.hpp:77] Creating layer inception_5a/pool
I0403 19:15:26.125844  8990 net.cpp:91] Creating Layer inception_5a/pool
I0403 19:15:26.125864  8990 net.cpp:425] inception_5a/pool <- pool4/3x3_s2_pool4/3x3_s2_0_split_3
I0403 19:15:26.125888  8990 net.cpp:399] inception_5a/pool -> inception_5a/pool
I0403 19:15:26.125977  8990 net.cpp:141] Setting up inception_5a/pool
I0403 19:15:26.126009  8990 net.cpp:148] Top shape: 24 832 7 7 (978432)
I0403 19:15:26.126029  8990 net.cpp:156] Memory required for data: 1304469024
I0403 19:15:26.126049  8990 layer_factory.hpp:77] Creating layer inception_5a/pool_proj
I0403 19:15:26.126075  8990 net.cpp:91] Creating Layer inception_5a/pool_proj
I0403 19:15:26.126097  8990 net.cpp:425] inception_5a/pool_proj <- inception_5a/pool
I0403 19:15:26.126121  8990 net.cpp:399] inception_5a/pool_proj -> inception_5a/pool_proj
I0403 19:15:26.128901  8990 net.cpp:141] Setting up inception_5a/pool_proj
I0403 19:15:26.128937  8990 net.cpp:148] Top shape: 24 128 7 7 (150528)
I0403 19:15:26.128958  8990 net.cpp:156] Memory required for data: 1305071136
I0403 19:15:26.128983  8990 layer_factory.hpp:77] Creating layer inception_5a/relu_pool_proj
I0403 19:15:26.129009  8990 net.cpp:91] Creating Layer inception_5a/relu_pool_proj
I0403 19:15:26.129031  8990 net.cpp:425] inception_5a/relu_pool_proj <- inception_5a/pool_proj
I0403 19:15:26.129055  8990 net.cpp:386] inception_5a/relu_pool_proj -> inception_5a/pool_proj (in-place)
I0403 19:15:26.129412  8990 net.cpp:141] Setting up inception_5a/relu_pool_proj
I0403 19:15:26.129453  8990 net.cpp:148] Top shape: 24 128 7 7 (150528)
I0403 19:15:26.129480  8990 net.cpp:156] Memory required for data: 1305673248
I0403 19:15:26.129500  8990 layer_factory.hpp:77] Creating layer inception_5a/output
I0403 19:15:26.129526  8990 net.cpp:91] Creating Layer inception_5a/output
I0403 19:15:26.129547  8990 net.cpp:425] inception_5a/output <- inception_5a/1x1
I0403 19:15:26.129570  8990 net.cpp:425] inception_5a/output <- inception_5a/3x3
I0403 19:15:26.129591  8990 net.cpp:425] inception_5a/output <- inception_5a/5x5
I0403 19:15:26.129611  8990 net.cpp:425] inception_5a/output <- inception_5a/pool_proj
I0403 19:15:26.129632  8990 net.cpp:399] inception_5a/output -> inception_5a/output
I0403 19:15:26.129698  8990 net.cpp:141] Setting up inception_5a/output
I0403 19:15:26.129726  8990 net.cpp:148] Top shape: 24 832 7 7 (978432)
I0403 19:15:26.129745  8990 net.cpp:156] Memory required for data: 1309586976
I0403 19:15:26.129763  8990 layer_factory.hpp:77] Creating layer inception_5a/output_inception_5a/output_0_split
I0403 19:15:26.129786  8990 net.cpp:91] Creating Layer inception_5a/output_inception_5a/output_0_split
I0403 19:15:26.129804  8990 net.cpp:425] inception_5a/output_inception_5a/output_0_split <- inception_5a/output
I0403 19:15:26.129829  8990 net.cpp:399] inception_5a/output_inception_5a/output_0_split -> inception_5a/output_inception_5a/output_0_split_0
I0403 19:15:26.129863  8990 net.cpp:399] inception_5a/output_inception_5a/output_0_split -> inception_5a/output_inception_5a/output_0_split_1
I0403 19:15:26.129889  8990 net.cpp:399] inception_5a/output_inception_5a/output_0_split -> inception_5a/output_inception_5a/output_0_split_2
I0403 19:15:26.129916  8990 net.cpp:399] inception_5a/output_inception_5a/output_0_split -> inception_5a/output_inception_5a/output_0_split_3
I0403 19:15:26.130056  8990 net.cpp:141] Setting up inception_5a/output_inception_5a/output_0_split
I0403 19:15:26.130089  8990 net.cpp:148] Top shape: 24 832 7 7 (978432)
I0403 19:15:26.130111  8990 net.cpp:148] Top shape: 24 832 7 7 (978432)
I0403 19:15:26.130131  8990 net.cpp:148] Top shape: 24 832 7 7 (978432)
I0403 19:15:26.130151  8990 net.cpp:148] Top shape: 24 832 7 7 (978432)
I0403 19:15:26.130169  8990 net.cpp:156] Memory required for data: 1325241888
I0403 19:15:26.130188  8990 layer_factory.hpp:77] Creating layer inception_5b/1x1
I0403 19:15:26.130216  8990 net.cpp:91] Creating Layer inception_5b/1x1
I0403 19:15:26.130242  8990 net.cpp:425] inception_5b/1x1 <- inception_5a/output_inception_5a/output_0_split_0
I0403 19:15:26.130266  8990 net.cpp:399] inception_5b/1x1 -> inception_5b/1x1
I0403 19:15:26.134872  8990 net.cpp:141] Setting up inception_5b/1x1
I0403 19:15:26.134909  8990 net.cpp:148] Top shape: 24 384 7 7 (451584)
I0403 19:15:26.134929  8990 net.cpp:156] Memory required for data: 1327048224
I0403 19:15:26.134953  8990 layer_factory.hpp:77] Creating layer inception_5b/relu_1x1
I0403 19:15:26.134979  8990 net.cpp:91] Creating Layer inception_5b/relu_1x1
I0403 19:15:26.135001  8990 net.cpp:425] inception_5b/relu_1x1 <- inception_5b/1x1
I0403 19:15:26.135023  8990 net.cpp:386] inception_5b/relu_1x1 -> inception_5b/1x1 (in-place)
I0403 19:15:26.135397  8990 net.cpp:141] Setting up inception_5b/relu_1x1
I0403 19:15:26.135431  8990 net.cpp:148] Top shape: 24 384 7 7 (451584)
I0403 19:15:26.135449  8990 net.cpp:156] Memory required for data: 1328854560
I0403 19:15:26.135474  8990 layer_factory.hpp:77] Creating layer inception_5b/3x3_reduce
I0403 19:15:26.135504  8990 net.cpp:91] Creating Layer inception_5b/3x3_reduce
I0403 19:15:26.135530  8990 net.cpp:425] inception_5b/3x3_reduce <- inception_5a/output_inception_5a/output_0_split_1
I0403 19:15:26.135557  8990 net.cpp:399] inception_5b/3x3_reduce -> inception_5b/3x3_reduce
I0403 19:15:26.138794  8990 net.cpp:141] Setting up inception_5b/3x3_reduce
I0403 19:15:26.138833  8990 net.cpp:148] Top shape: 24 192 7 7 (225792)
I0403 19:15:26.138852  8990 net.cpp:156] Memory required for data: 1329757728
I0403 19:15:26.138875  8990 layer_factory.hpp:77] Creating layer inception_5b/relu_3x3_reduce
I0403 19:15:26.138901  8990 net.cpp:91] Creating Layer inception_5b/relu_3x3_reduce
I0403 19:15:26.138922  8990 net.cpp:425] inception_5b/relu_3x3_reduce <- inception_5b/3x3_reduce
I0403 19:15:26.138944  8990 net.cpp:386] inception_5b/relu_3x3_reduce -> inception_5b/3x3_reduce (in-place)
I0403 19:15:26.139180  8990 net.cpp:141] Setting up inception_5b/relu_3x3_reduce
I0403 19:15:26.139214  8990 net.cpp:148] Top shape: 24 192 7 7 (225792)
I0403 19:15:26.139235  8990 net.cpp:156] Memory required for data: 1330660896
I0403 19:15:26.139252  8990 layer_factory.hpp:77] Creating layer inception_5b/3x3
I0403 19:15:26.139281  8990 net.cpp:91] Creating Layer inception_5b/3x3
I0403 19:15:26.139304  8990 net.cpp:425] inception_5b/3x3 <- inception_5b/3x3_reduce
I0403 19:15:26.139333  8990 net.cpp:399] inception_5b/3x3 -> inception_5b/3x3
I0403 19:15:26.147666  8990 net.cpp:141] Setting up inception_5b/3x3
I0403 19:15:26.147702  8990 net.cpp:148] Top shape: 24 384 7 7 (451584)
I0403 19:15:26.147722  8990 net.cpp:156] Memory required for data: 1332467232
I0403 19:15:26.147745  8990 layer_factory.hpp:77] Creating layer inception_5b/relu_3x3
I0403 19:15:26.147773  8990 net.cpp:91] Creating Layer inception_5b/relu_3x3
I0403 19:15:26.147795  8990 net.cpp:425] inception_5b/relu_3x3 <- inception_5b/3x3
I0403 19:15:26.147817  8990 net.cpp:386] inception_5b/relu_3x3 -> inception_5b/3x3 (in-place)
I0403 19:15:26.148180  8990 net.cpp:141] Setting up inception_5b/relu_3x3
I0403 19:15:26.148211  8990 net.cpp:148] Top shape: 24 384 7 7 (451584)
I0403 19:15:26.148241  8990 net.cpp:156] Memory required for data: 1334273568
I0403 19:15:26.148258  8990 layer_factory.hpp:77] Creating layer inception_5b/5x5_reduce
I0403 19:15:26.148308  8990 net.cpp:91] Creating Layer inception_5b/5x5_reduce
I0403 19:15:26.148334  8990 net.cpp:425] inception_5b/5x5_reduce <- inception_5a/output_inception_5a/output_0_split_2
I0403 19:15:26.148358  8990 net.cpp:399] inception_5b/5x5_reduce -> inception_5b/5x5_reduce
I0403 19:15:26.149948  8990 net.cpp:141] Setting up inception_5b/5x5_reduce
I0403 19:15:26.149983  8990 net.cpp:148] Top shape: 24 48 7 7 (56448)
I0403 19:15:26.150002  8990 net.cpp:156] Memory required for data: 1334499360
I0403 19:15:26.150027  8990 layer_factory.hpp:77] Creating layer inception_5b/relu_5x5_reduce
I0403 19:15:26.150051  8990 net.cpp:91] Creating Layer inception_5b/relu_5x5_reduce
I0403 19:15:26.150071  8990 net.cpp:425] inception_5b/relu_5x5_reduce <- inception_5b/5x5_reduce
I0403 19:15:26.150094  8990 net.cpp:386] inception_5b/relu_5x5_reduce -> inception_5b/5x5_reduce (in-place)
I0403 19:15:26.150564  8990 net.cpp:141] Setting up inception_5b/relu_5x5_reduce
I0403 19:15:26.150599  8990 net.cpp:148] Top shape: 24 48 7 7 (56448)
I0403 19:15:26.150617  8990 net.cpp:156] Memory required for data: 1334725152
I0403 19:15:26.150636  8990 layer_factory.hpp:77] Creating layer inception_5b/5x5
I0403 19:15:26.150662  8990 net.cpp:91] Creating Layer inception_5b/5x5
I0403 19:15:26.150683  8990 net.cpp:425] inception_5b/5x5 <- inception_5b/5x5_reduce
I0403 19:15:26.150707  8990 net.cpp:399] inception_5b/5x5 -> inception_5b/5x5
I0403 19:15:26.153240  8990 net.cpp:141] Setting up inception_5b/5x5
I0403 19:15:26.153277  8990 net.cpp:148] Top shape: 24 128 7 7 (150528)
I0403 19:15:26.153300  8990 net.cpp:156] Memory required for data: 1335327264
I0403 19:15:26.153322  8990 layer_factory.hpp:77] Creating layer inception_5b/relu_5x5
I0403 19:15:26.153344  8990 net.cpp:91] Creating Layer inception_5b/relu_5x5
I0403 19:15:26.153365  8990 net.cpp:425] inception_5b/relu_5x5 <- inception_5b/5x5
I0403 19:15:26.153390  8990 net.cpp:386] inception_5b/relu_5x5 -> inception_5b/5x5 (in-place)
I0403 19:15:26.153641  8990 net.cpp:141] Setting up inception_5b/relu_5x5
I0403 19:15:26.153673  8990 net.cpp:148] Top shape: 24 128 7 7 (150528)
I0403 19:15:26.153692  8990 net.cpp:156] Memory required for data: 1335929376
I0403 19:15:26.153712  8990 layer_factory.hpp:77] Creating layer inception_5b/pool
I0403 19:15:26.153733  8990 net.cpp:91] Creating Layer inception_5b/pool
I0403 19:15:26.153753  8990 net.cpp:425] inception_5b/pool <- inception_5a/output_inception_5a/output_0_split_3
I0403 19:15:26.153779  8990 net.cpp:399] inception_5b/pool -> inception_5b/pool
I0403 19:15:26.153870  8990 net.cpp:141] Setting up inception_5b/pool
I0403 19:15:26.153900  8990 net.cpp:148] Top shape: 24 832 7 7 (978432)
I0403 19:15:26.153918  8990 net.cpp:156] Memory required for data: 1339843104
I0403 19:15:26.153936  8990 layer_factory.hpp:77] Creating layer inception_5b/pool_proj
I0403 19:15:26.153966  8990 net.cpp:91] Creating Layer inception_5b/pool_proj
I0403 19:15:26.153988  8990 net.cpp:425] inception_5b/pool_proj <- inception_5b/pool
I0403 19:15:26.154011  8990 net.cpp:399] inception_5b/pool_proj -> inception_5b/pool_proj
I0403 19:15:26.156837  8990 net.cpp:141] Setting up inception_5b/pool_proj
I0403 19:15:26.156877  8990 net.cpp:148] Top shape: 24 128 7 7 (150528)
I0403 19:15:26.156898  8990 net.cpp:156] Memory required for data: 1340445216
I0403 19:15:26.156921  8990 layer_factory.hpp:77] Creating layer inception_5b/relu_pool_proj
I0403 19:15:26.156944  8990 net.cpp:91] Creating Layer inception_5b/relu_pool_proj
I0403 19:15:26.156965  8990 net.cpp:425] inception_5b/relu_pool_proj <- inception_5b/pool_proj
I0403 19:15:26.156988  8990 net.cpp:386] inception_5b/relu_pool_proj -> inception_5b/pool_proj (in-place)
I0403 19:15:26.157351  8990 net.cpp:141] Setting up inception_5b/relu_pool_proj
I0403 19:15:26.157387  8990 net.cpp:148] Top shape: 24 128 7 7 (150528)
I0403 19:15:26.157407  8990 net.cpp:156] Memory required for data: 1341047328
I0403 19:15:26.157426  8990 layer_factory.hpp:77] Creating layer inception_5b/output
I0403 19:15:26.157449  8990 net.cpp:91] Creating Layer inception_5b/output
I0403 19:15:26.157495  8990 net.cpp:425] inception_5b/output <- inception_5b/1x1
I0403 19:15:26.157517  8990 net.cpp:425] inception_5b/output <- inception_5b/3x3
I0403 19:15:26.157537  8990 net.cpp:425] inception_5b/output <- inception_5b/5x5
I0403 19:15:26.157557  8990 net.cpp:425] inception_5b/output <- inception_5b/pool_proj
I0403 19:15:26.157579  8990 net.cpp:399] inception_5b/output -> inception_5b/output
I0403 19:15:26.157646  8990 net.cpp:141] Setting up inception_5b/output
I0403 19:15:26.157676  8990 net.cpp:148] Top shape: 24 1024 7 7 (1204224)
I0403 19:15:26.157696  8990 net.cpp:156] Memory required for data: 1345864224
I0403 19:15:26.157714  8990 layer_factory.hpp:77] Creating layer pool5/7x7_s1
I0403 19:15:26.157740  8990 net.cpp:91] Creating Layer pool5/7x7_s1
I0403 19:15:26.157763  8990 net.cpp:425] pool5/7x7_s1 <- inception_5b/output
I0403 19:15:26.157785  8990 net.cpp:399] pool5/7x7_s1 -> pool5/7x7_s1
I0403 19:15:26.158053  8990 net.cpp:141] Setting up pool5/7x7_s1
I0403 19:15:26.158087  8990 net.cpp:148] Top shape: 24 1024 1 1 (24576)
I0403 19:15:26.158108  8990 net.cpp:156] Memory required for data: 1345962528
I0403 19:15:26.158126  8990 layer_factory.hpp:77] Creating layer pool5/drop_7x7_s1
I0403 19:15:26.158149  8990 net.cpp:91] Creating Layer pool5/drop_7x7_s1
I0403 19:15:26.158169  8990 net.cpp:425] pool5/drop_7x7_s1 <- pool5/7x7_s1
I0403 19:15:26.158190  8990 net.cpp:386] pool5/drop_7x7_s1 -> pool5/7x7_s1 (in-place)
I0403 19:15:26.158255  8990 net.cpp:141] Setting up pool5/drop_7x7_s1
I0403 19:15:26.158284  8990 net.cpp:148] Top shape: 24 1024 1 1 (24576)
I0403 19:15:26.158303  8990 net.cpp:156] Memory required for data: 1346060832
I0403 19:15:26.158323  8990 layer_factory.hpp:77] Creating layer loss3/classifier_plantvillage
I0403 19:15:26.158349  8990 net.cpp:91] Creating Layer loss3/classifier_plantvillage
I0403 19:15:26.158371  8990 net.cpp:425] loss3/classifier_plantvillage <- pool5/7x7_s1
I0403 19:15:26.158393  8990 net.cpp:399] loss3/classifier_plantvillage -> loss3/classifier_plantvillage
I0403 19:15:26.158929  8990 net.cpp:141] Setting up loss3/classifier_plantvillage
I0403 19:15:26.158959  8990 net.cpp:148] Top shape: 24 38 (912)
I0403 19:15:26.158978  8990 net.cpp:156] Memory required for data: 1346064480
I0403 19:15:26.159000  8990 layer_factory.hpp:77] Creating layer loss3/classifier_plantvillage_loss3/classifier_plantvillage_0_split
I0403 19:15:26.159024  8990 net.cpp:91] Creating Layer loss3/classifier_plantvillage_loss3/classifier_plantvillage_0_split
I0403 19:15:26.159045  8990 net.cpp:425] loss3/classifier_plantvillage_loss3/classifier_plantvillage_0_split <- loss3/classifier_plantvillage
I0403 19:15:26.159071  8990 net.cpp:399] loss3/classifier_plantvillage_loss3/classifier_plantvillage_0_split -> loss3/classifier_plantvillage_loss3/classifier_plantvillage_0_split_0
I0403 19:15:26.159099  8990 net.cpp:399] loss3/classifier_plantvillage_loss3/classifier_plantvillage_0_split -> loss3/classifier_plantvillage_loss3/classifier_plantvillage_0_split_1
I0403 19:15:26.159126  8990 net.cpp:399] loss3/classifier_plantvillage_loss3/classifier_plantvillage_0_split -> loss3/classifier_plantvillage_loss3/classifier_plantvillage_0_split_2
I0403 19:15:26.159150  8990 net.cpp:399] loss3/classifier_plantvillage_loss3/classifier_plantvillage_0_split -> loss3/classifier_plantvillage_loss3/classifier_plantvillage_0_split_3
I0403 19:15:26.159279  8990 net.cpp:141] Setting up loss3/classifier_plantvillage_loss3/classifier_plantvillage_0_split
I0403 19:15:26.159312  8990 net.cpp:148] Top shape: 24 38 (912)
I0403 19:15:26.159334  8990 net.cpp:148] Top shape: 24 38 (912)
I0403 19:15:26.159353  8990 net.cpp:148] Top shape: 24 38 (912)
I0403 19:15:26.159373  8990 net.cpp:148] Top shape: 24 38 (912)
I0403 19:15:26.159389  8990 net.cpp:156] Memory required for data: 1346079072
I0403 19:15:26.159407  8990 layer_factory.hpp:77] Creating layer loss1/loss
I0403 19:15:26.159435  8990 net.cpp:91] Creating Layer loss1/loss
I0403 19:15:26.159462  8990 net.cpp:425] loss1/loss <- loss1/classifier_plantvillage_loss1/classifier_plantvillage_0_split_0
I0403 19:15:26.159502  8990 net.cpp:425] loss1/loss <- label_data_1_split_0
…
