…
I0403 19:25:12.845196  9212 net.cpp:313] The NetState phase (1) differed from the phase (0) specified by a rule in layer data
I0403 19:25:12.846292  9212 net.cpp:49] Initializing net from parameters: 
state {
  phase: TEST
}
layer {
  name: "data"
  type: "Data"
  top: "data"
  top: "label"
  include {
    phase: TEST
  }
  transform_param {
    mirror: false
    crop_size: 224
    mean_file: "/home/mohanty/data/final_dataset/lmdb/color-60-40/mean.binaryproto"
  }
  data_param {
    source: "/home/mohanty/data/final_dataset/lmdb/color-60-40/test_db"
    batch_size: 24
    backend: LMDB
  }
}
layer {
  name: "conv1/7x7_s2"
  type: "Convolution"
  bottom: "data"
  top: "conv1/7x7_s2"
  param {
    lr_mult: 1
    decay_mult: 1
  }
  param {
    lr_mult: 2
    decay_mult: 0
  }
  convolution_param {
    num_output: 64
    pad: 3
    kernel_size: 7
    stride: 2
    weight_filler {
      type: "xavier"
      std: 0.1
    }
    bias_filler {
      type: "constant"
      value: 0.2
    }
  }
}
layer {
  name: "conv1/relu_7x7"
  type: "ReLU"
  bottom: "conv1/7x7_s2"
  top: "conv1/7x7_s2"
}
layer {
  name: "pool1/3x3_s2"
  type: "Pooling"
  bottom: "conv1/7x7_s2"
  top: "pool1/3x3_s2"
  pooling_param {
    pool: MAX
    kernel_size: 3
    stride: 2
  }
}
layer {
  name: "pool1/norm1"
  type: "LRN"
  bottom: "pool1/3x3_s2"
  top: "pool1/norm1"
  lrn_param {
    local_size: 5
    alpha: 0.0001
    beta: 0.75
  }
}
layer {
  name: "conv2/3x3_reduce"
  type: "Convolution"
  bottom: "pool1/norm1"
  top: "conv2/3x3_reduce"
  param {
    lr_mult: 1
    decay_mult: 1
  }
  param {
    lr_mult: 2
    decay_mult: 0
  }
  convolution_param {
    num_output: 64
    kernel_size: 1
    weight_filler {
      type: "xavier"
      std: 0.1
    }
    bias_filler {
      type: "constant"
      value: 0.2
    }
  }
}
layer {
  name: "conv2/relu_3x3_reduce"
  type: "ReLU"
  bottom: "conv2/3x3_reduce"
  top: "conv2/3x3_reduce"
}
layer {
  name: "conv2/3x3"
  type: "Convolution"
  bottom: "conv2/3x3_reduce"
  top: "conv2/3x3"
  param {
    lr_mult: 1
    decay_mult: 1
  }
  param {
    lr_mult: 2
    decay_mult: 0
  }
  convolution_param {
    num_output: 192
    pad: 1
    kernel_size: 3
    weight_filler {
      type: "xavier"
      std: 0.03
    }
    bias_filler {
      type: "constant"
      value: 0.2
    }
  }
}
layer {
  name: "conv2/relu_3x3"
  type: "ReLU"
  bottom: "conv2/3x3"
  top: "conv2/3x3"
}
layer {
  name: "conv2/norm2"
  type: "LRN"
  bottom: "conv2/3x3"
  top: "conv2/norm2"
  lrn_param {
    local_size: 5
    alpha: 0.0001
    beta: 0.75
  }
}
layer {
  name: "pool2/3x3_s2"
  type: "Pooling"
  bottom: "conv2/norm2"
  top: "pool2/3x3_s2"
  pooling_param {
    pool: MAX
    kernel_size: 3
    stride: 2
  }
}
layer {
  name: "inception_3a/1x1"
  type: "Convolution"
  bottom: "pool2/3x3_s2"
  top: "inception_3a/1x1"
  param {
    lr_mult: 1
    decay_mult: 1
  }
  param {
    lr_mult: 2
    decay_mult: 0
  }
  convolution_param {
    num_output: 64
    kernel_size: 1
    weight_filler {
      type: "xavier"
      std: 0.03
    }
    bias_filler {
      type: "constant"
      value: 0.2
    }
  }
}
layer {
  name: "inception_3a/relu_1x1"
  type: "ReLU"
  bottom: "inception_3a/1x1"
  top: "inception_3a/1x1"
}
layer {
  name: "inception_3a/3x3_reduce"
  type: "Convolution"
  bottom: "pool2/3x3_s2"
  top: "inception_3a/3x3_reduce"
  param {
    lr_mult: 1
    decay_mult: 1
  }
  param {
    lr_mult: 2
    decay_mult: 0
  }
  convolution_param {
    num_output: 96
    kernel_size: 1
    weight_filler {
      type: "xavier"
      std: 0.09
    }
    bias_filler {
      type: "constant"
      value: 0.2
    }
  }
}
layer {
  name: "inception_3a/relu_3x3_reduce"
  type: "ReLU"
  bottom: "inception_3a/3x3_reduce"
  top: "inception_3a/3x3_reduce"
}
layer {
  name: "inception_3a/3x3"
  type: "Convolution"
  bottom: "inception_3a/3x3_reduce"
  top: "inception_3a/3x3"
  param {
    lr_mult: 1
    decay_mult: 1
  }
  param {
    lr_mult: 2
    decay_mult: 0
  }
  convolution_param {
    num_output: 128
    pad: 1
    kernel_size: 3
    weight_filler {
      type: "xavier"
      std: 0.03
    }
    bias_filler {
      type: "constant"
      value: 0.2
    }
  }
}
layer {
  name: "inception_3a/relu_3x3"
  type: "ReLU"
  bottom: "inception_3a/3x3"
  top: "inception_3a/3x3"
}
layer {
  name: "inception_3a/5x5_reduce"
  type: "Convolution"
  bottom: "pool2/3x3_s2"
  top: "inception_3a/5x5_reduce"
  param {
    lr_mult: 1
    decay_mult: 1
  }
  param {
    lr_mult: 2
    decay_mult: 0
  }
  convolution_param {
    num_output: 16
    kernel_size: 1
    weight_filler {
      type: "xavier"
      std: 0.2
    }
    bias_filler {
      type: "constant"
      value: 0.2
    }
  }
}
layer {
  name: "inception_3a/relu_5x5_reduce"
  type: "ReLU"
  bottom: "inception_3a/5x5_reduce"
  top: "inception_3a/5x5_reduce"
}
layer {
  name: "inception_3a/5x5"
  type: "Convolution"
  bottom: "inception_3a/5x5_reduce"
  top: "inception_3a/5x5"
  param {
    lr_mult: 1
    decay_mult: 1
  }
  param {
    lr_mult: 2
    decay_mult: 0
  }
  convolution_param {
    num_output: 32
    pad: 2
    kernel_size: 5
    weight_filler {
      type: "xavier"
      std: 0.03
    }
    bias_filler {
      type: "constant"
      value: 0.2
    }
  }
}
layer {
  name: "inception_3a/relu_5x5"
  type: "ReLU"
  bottom: "inception_3a/5x5"
  top: "inception_3a/5x5"
}
layer {
  name: "inception_3a/pool"
  type: "Pooling"
  bottom: "pool2/3x3_s2"
  top: "inception_3a/pool"
  pooling_param {
    pool: MAX
    kernel_size: 3
    stride: 1
    pad: 1
  }
}
layer {
  name: "inception_3a/pool_proj"
  type: "Convolution"
  bottom: "inception_3a/pool"
  top: "inception_3a/pool_proj"
  param {
    lr_mult: 1
    decay_mult: 1
  }
  param {
    lr_mult: 2
    decay_mult: 0
  }
  convolution_param {
    num_output: 32
    kernel_size: 1
    weight_filler {
      type: "xavier"
      std: 0.1
    }
    bias_filler {
      type: "constant"
      value: 0.2
    }
  }
}
layer {
  name: "inception_3a/relu_pool_proj"
  type: "ReLU"
  bottom: "inception_3a/pool_proj"
  top: "inception_3a/pool_proj"
}
layer {
  name: "inception_3a/output"
  type: "Concat"
  bottom: "inception_3a/1x1"
  bottom: "inception_3a/3x3"
  bottom: "inception_3a/5x5"
  bottom: "inception_3a/pool_proj"
  top: "inception_3a/output"
}
layer {
  name: "inception_3b/1x1"
  type: "Convolution"
  bottom: "inception_3a/output"
  top: "inception_3b/1x1"
  param {
    lr_mult: 1
    decay_mult: 1
  }
  param {
    lr_mult: 2
    decay_mult: 0
  }
  convolution_param {
    num_output: 128
    kernel_size: 1
    weight_filler {
      type: "xavier"
      std: 0.03
    }
    bias_filler {
      type: "constant"
      value: 0.2
    }
  }
}
layer {
  name: "inception_3b/relu_1x1"
  type: "ReLU"
  bottom: "inception_3b/1x1"
  top: "inception_3b/1x1"
}
layer {
  name: "inception_3b/3x3_reduce"
  type: "Convolution"
  bottom: "inception_3a/output"
  top: "inception_3b/3x3_reduce"
  param {
    lr_mult: 1
    decay_mult: 1
  }
  param {
    lr_mult: 2
    decay_mult: 0
  }
  convolution_param {
    num_output: 128
    kernel_size: 1
    weight_filler {
      type: "xavier"
      std: 0.09
    }
    bias_filler {
      type: "constant"
      value: 0.2
    }
  }
}
layer {
  name: "inception_3b/relu_3x3_reduce"
  type: "ReLU"
  bottom: "inception_3b/3x3_reduce"
  top: "inception_3b/3x3_reduce"
}
layer {
  name: "inception_3b/3x3"
  type: "Convolution"
  bottom: "inception_3b/3x3_reduce"
  top: "inception_3b/3x3"
  param {
    lr_mult: 1
    decay_mult: 1
  }
  param {
    lr_mult: 2
    decay_mult: 0
  }
  convolution_param {
    num_output: 192
    pad: 1
    kernel_size: 3
    weight_filler {
      type: "xavier"
      std: 0.03
    }
    bias_filler {
      type: "constant"
      value: 0.2
    }
  }
}
layer {
  name: "inception_3b/relu_3x3"
  type: "ReLU"
  bottom: "inception_3b/3x3"
  top: "inception_3b/3x3"
}
layer {
  name: "inception_3b/5x5_reduce"
  type: "Convolution"
  bottom: "inception_3a/output"
  top: "inception_3b/5x5_reduce"
  param {
    lr_mult: 1
    decay_mult: 1
  }
  param {
    lr_mult: 2
    decay_mult: 0
  }
  convolution_param {
    num_output: 32
    kernel_size: 1
    weight_filler {
      type: "xavier"
      std: 0.2
    }
    bias_filler {
      type: "constant"
      value: 0.2
    }
  }
}
layer {
  name: "inception_3b/relu_5x5_reduce"
  type: "ReLU"
  bottom: "inception_3b/5x5_reduce"
  top: "inception_3b/5x5_reduce"
}
layer {
  name: "inception_3b/5x5"
  type: "Convolution"
  bottom: "inception_3b/5x5_reduce"
  top: "inception_3b/5x5"
  param {
    lr_mult: 1
    decay_mult: 1
  }
  param {
    lr_mult: 2
    decay_mult: 0
  }
  convolution_param {
    num_output: 96
    pad: 2
    kernel_size: 5
    weight_filler {
      type: "xavier"
      std: 0.03
    }
    bias_filler {
      type: "constant"
      value: 0.2
    }
  }
}
layer {
  name: "inception_3b/relu_5x5"
  type: "ReLU"
  bottom: "inception_3b/5x5"
  top: "inception_3b/5x5"
}
layer {
  name: "inception_3b/pool"
  type: "Pooling"
  bottom: "inception_3a/output"
  top: "inception_3b/pool"
  pooling_param {
    pool: MAX
    kernel_size: 3
    stride: 1
    pad: 1
  }
}
layer {
  name: "inception_3b/pool_proj"
  type: "Convolution"
  bottom: "inception_3b/pool"
  top: "inception_3b/pool_proj"
  param {
    lr_mult: 1
    decay_mult: 1
  }
  param {
    lr_mult: 2
    decay_mult: 0
  }
  convolution_param {
    num_output: 64
    kernel_size: 1
    weight_filler {
      type: "xavier"
      std: 0.1
    }
    bias_filler {
      type: "constant"
      value: 0.2
    }
  }
}
layer {
  name: "inception_3b/relu_pool_proj"
  type: "ReLU"
  bottom: "inception_3b/pool_proj"
  top: "inception_3b/pool_proj"
}
layer {
  name: "inception_3b/output"
  type: "Concat"
  bottom: "inception_3b/1x1"
  bottom: "inception_3b/3x3"
  bottom: "inception_3b/5x5"
  bottom: "inception_3b/pool_proj"
  top: "inception_3b/output"
}
layer {
  name: "pool3/3x3_s2"
  type: "Pooling"
  bottom: "inception_3b/output"
  top: "pool3/3x3_s2"
  pooling_param {
    pool: MAX
    kernel_size: 3
    stride: 2
  }
}
layer {
  name: "inception_4a/1x1"
  type: "Convolution"
  bottom: "pool3/3x3_s2"
  top: "inception_4a/1x1"
  param {
    lr_mult: 1
    decay_mult: 1
  }
  param {
    lr_mult: 2
    decay_mult: 0
  }
  convolution_param {
    num_output: 192
    kernel_size: 1
    weight_filler {
      type: "xavier"
      std: 0.03
    }
    bias_filler {
      type: "constant"
      value: 0.2
    }
  }
}
layer {
  name: "inception_4a/relu_1x1"
  type: "ReLU"
  bottom: "inception_4a/1x1"
  top: "inception_4a/1x1"
}
layer {
  name: "inception_4a/3x3_reduce"
  type: "Convolution"
  bottom: "pool3/3x3_s2"
  top: "inception_4a/3x3_reduce"
  param {
    lr_mult: 1
    decay_mult: 1
  }
  param {
    lr_mult: 2
    decay_mult: 0
  }
  convolution_param {
    num_output: 96
    kernel_size: 1
    weight_filler {
      type: "xavier"
      std: 0.09
    }
    bias_filler {
      type: "constant"
      value: 0.2
    }
  }
}
layer {
  name: "inception_4a/relu_3x3_reduce"
  type: "ReLU"
  bottom: "inception_4a/3x3_reduce"
  top: "inception_4a/3x3_reduce"
}
layer {
  name: "inception_4a/3x3"
  type: "Convolution"
  bottom: "inception_4a/3x3_reduce"
  top: "inception_4a/3x3"
  param {
    lr_mult: 1
    decay_mult: 1
  }
  param {
    lr_mult: 2
    decay_mult: 0
  }
  convolution_param {
    num_output: 208
    pad: 1
    kernel_size: 3
    weight_filler {
      type: "xavier"
      std: 0.03
    }
    bias_filler {
      type: "constant"
      value: 0.2
    }
  }
}
layer {
  name: "inception_4a/relu_3x3"
  type: "ReLU"
  bottom: "inception_4a/3x3"
  top: "inception_4a/3x3"
}
layer {
  name: "inception_4a/5x5_reduce"
  type: "Convolution"
  bottom: "pool3/3x3_s2"
  top: "inception_4a/5x5_reduce"
  param {
    lr_mult: 1
    decay_mult: 1
  }
  param {
    lr_mult: 2
    decay_mult: 0
  }
  convolution_param {
    num_output: 16
    kernel_size: 1
    weight_filler {
      type: "xavier"
      std: 0.2
    }
    bias_filler {
      type: "constant"
      value: 0.2
    }
  }
}
layer {
  name: "inception_4a/relu_5x5_reduce"
  type: "ReLU"
  bottom: "inception_4a/5x5_reduce"
  top: "inception_4a/5x5_reduce"
}
layer {
  name: "inception_4a/5x5"
  type: "Convolution"
  bottom: "inception_4a/5x5_reduce"
  top: "inception_4a/5x5"
  param {
    lr_mult: 1
    decay_mult: 1
  }
  param {
    lr_mult: 2
    decay_mult: 0
  }
  convolution_param {
    num_output: 48
    pad: 2
    kernel_size: 5
    weight_filler {
      type: "xavier"
      std: 0.03
    }
    bias_filler {
      type: "constant"
      value: 0.2
    }
  }
}
layer {
  name: "inception_4a/relu_5x5"
  type: "ReLU"
  bottom: "inception_4a/5x5"
  top: "inception_4a/5x5"
}
layer {
  name: "inception_4a/pool"
  type: "Pooling"
  bottom: "pool3/3x3_s2"
  top: "inception_4a/pool"
  pooling_param {
    pool: MAX
    kernel_size: 3
    stride: 1
    pad: 1
  }
}
layer {
  name: "inception_4a/pool_proj"
  type: "Convolution"
  bottom: "inception_4a/pool"
  top: "inception_4a/pool_proj"
  param {
    lr_mult: 1
    decay_mult: 1
  }
  param {
    lr_mult: 2
    decay_mult: 0
  }
  convolution_param {
    num_output: 64
    kernel_size: 1
    weight_filler {
      type: "xavier"
      std: 0.1
    }
    bias_filler {
      type: "constant"
      value: 0.2
    }
  }
}
layer {
  name: "inception_4a/relu_pool_proj"
  type: "ReLU"
  bottom: "inception_4a/pool_proj"
  top: "inception_4a/pool_proj"
}
layer {
  name: "inception_4a/output"
  type: "Concat"
  bottom: "inception_4a/1x1"
  bottom: "inception_4a/3x3"
  bottom: "inception_4a/5x5"
  bottom: "inception_4a/pool_proj"
  top: "inception_4a/output"
}
layer {
  name: "loss1/ave_pool"
  type: "Pooling"
  bottom: "inception_4a/output"
  top: "loss1/ave_pool"
  pooling_param {
    pool: AVE
    kernel_size: 5
    stride: 3
  }
}
layer {
  name: "loss1/conv"
  type: "Convolution"
  bottom: "loss1/ave_pool"
  top: "loss1/conv"
  param {
    lr_mult: 1
    decay_mult: 1
  }
  param {
    lr_mult: 2
    decay_mult: 0
  }
  convolution_param {
    num_output: 128
    kernel_size: 1
    weight_filler {
      type: "xavier"
      std: 0.08
    }
    bias_filler {
      type: "constant"
      value: 0.2
    }
  }
}
layer {
  name: "loss1/relu_conv"
  type: "ReLU"
  bottom: "loss1/conv"
  top: "loss1/conv"
}
layer {
  name: "loss1/fc"
  type: "InnerProduct"
  bottom: "loss1/conv"
  top: "loss1/fc"
  param {
    lr_mult: 1
    decay_mult: 1
  }
  param {
    lr_mult: 2
    decay_mult: 0
  }
  inner_product_param {
    num_output: 1024
    weight_filler {
      type: "xavier"
      std: 0.02
    }
    bias_filler {
      type: "constant"
      value: 0.2
    }
  }
}
layer {
  name: "loss1/relu_fc"
  type: "ReLU"
  bottom: "loss1/fc"
  top: "loss1/fc"
}
layer {
  name: "loss1/drop_fc"
  type: "Dropout"
  bottom: "loss1/fc"
  top: "loss1/fc"
  dropout_param {
    dropout_ratio: 0.7
  }
}
layer {
  name: "loss1/classifier_plantvillage"
  type: "InnerProduct"
  bottom: "loss1/fc"
  top: "loss1/classifier_plantvillage"
  param {
    lr_mult: 1
    decay_mult: 1
  }
  param {
    lr_mult: 2
    decay_mult: 0
  }
  inner_product_param {
    num_output: 38
    weight_filler {
      type: "xavier"
      std: 0.0009765625
    }
    bias_filler {
      type: "constant"
      value: 0
    }
  }
}
layer {
  name: "inception_4b/1x1"
  type: "Convolution"
  bottom: "inception_4a/output"
  top: "inception_4b/1x1"
  param {
    lr_mult: 1
    decay_mult: 1
  }
  param {
    lr_mult: 2
    decay_mult: 0
  }
  convolution_param {
    num_output: 160
    kernel_size: 1
    weight_filler {
      type: "xavier"
      std: 0.03
    }
    bias_filler {
      type: "constant"
      value: 0.2
    }
  }
}
layer {
  name: "inception_4b/relu_1x1"
  type: "ReLU"
  bottom: "inception_4b/1x1"
  top: "inception_4b/1x1"
}
layer {
  name: "inception_4b/3x3_reduce"
  type: "Convolution"
  bottom: "inception_4a/output"
  top: "inception_4b/3x3_reduce"
  param {
    lr_mult: 1
    decay_mult: 1
  }
  param {
    lr_mult: 2
    decay_mult: 0
  }
  convolution_param {
    num_output: 112
    kernel_size: 1
    weight_filler {
      type: "xavier"
      std: 0.09
    }
    bias_filler {
      type: "constant"
      value: 0.2
    }
  }
}
layer {
  name: "inception_4b/relu_3x3_reduce"
  type: "ReLU"
  bottom: "inception_4b/3x3_reduce"
  top: "inception_4b/3x3_reduce"
}
layer {
  name: "inception_4b/3x3"
  type: "Convolution"
  bottom: "inception_4b/3x3_reduce"
  top: "inception_4b/3x3"
  param {
    lr_mult: 1
    decay_mult: 1
  }
  param {
    lr_mult: 2
    decay_mult: 0
  }
  convolution_param {
    num_output: 224
    pad: 1
    kernel_size: 3
    weight_filler {
      type: "xavier"
      std: 0.03
    }
    bias_filler {
      type: "constant"
      value: 0.2
    }
  }
}
layer {
  name: "inception_4b/relu_3x3"
  type: "ReLU"
  bottom: "inception_4b/3x3"
  top: "inception_4b/3x3"
}
layer {
  name: "inception_4b/5x5_reduce"
  type: "Convolution"
  bottom: "inception_4a/output"
  top: "inception_4b/5x5_reduce"
  param {
    lr_mult: 1
    decay_mult: 1
  }
  param {
    lr_mult: 2
    decay_mult: 0
  }
  convolution_param {
    num_output: 24
    kernel_size: 1
    weight_filler {
      type: "xavier"
      std: 0.2
    }
    bias_filler {
      type: "constant"
      value: 0.2
    }
  }
}
layer {
  name: "inception_4b/relu_5x5_reduce"
  type: "ReLU"
  bottom: "inception_4b/5x5_reduce"
  top: "inception_4b/5x5_reduce"
}
layer {
  name: "inception_4b/5x5"
  type: "Convolution"
  bottom: "inception_4b/5x5_reduce"
  top: "inception_4b/5x5"
  param {
    lr_mult: 1
    decay_mult: 1
  }
  param {
    lr_mult: 2
    decay_mult: 0
  }
  convolution_param {
    num_output: 64
    pad: 2
    kernel_size: 5
    weight_filler {
      type: "xavier"
      std: 0.03
    }
    bias_filler {
      type: "constant"
      value: 0.2
    }
  }
}
layer {
  name: "inception_4b/relu_5x5"
  type: "ReLU"
  bottom: "inception_4b/5x5"
  top: "inception_4b/5x5"
}
layer {
  name: "inception_4b/pool"
  type: "Pooling"
  bottom: "inception_4a/output"
  top: "inception_4b/pool"
  pooling_param {
    pool: MAX
    kernel_size: 3
    stride: 1
    pad: 1
  }
}
layer {
  name: "inception_4b/pool_proj"
  type: "Convolution"
  bottom: "inception_4b/pool"
  top: "inception_4b/pool_proj"
  param {
    lr_mult: 1
    decay_mult: 1
  }
  param {
    lr_mult: 2
    decay_mult: 0
  }
  convolution_param {
    num_output: 64
    kernel_size: 1
    weight_filler {
      type: "xavier"
      std: 0.1
    }
    bias_filler {
      type: "constant"
      value: 0.2
    }
  }
}
layer {
  name: "inception_4b/relu_pool_proj"
  type: "ReLU"
  bottom: "inception_4b/pool_proj"
  top: "inception_4b/pool_proj"
}
layer {
  name: "inception_4b/output"
  type: "Concat"
  bottom: "inception_4b/1x1"
  bottom: "inception_4b/3x3"
  bottom: "inception_4b/5x5"
  bottom: "inception_4b/pool_proj"
  top: "inception_4b/output"
}
layer {
  name: "inception_4c/1x1"
  type: "Convolution"
  bottom: "inception_4b/output"
  top: "inception_4c/1x1"
  param {
    lr_mult: 1
    decay_mult: 1
  }
  param {
    lr_mult: 2
    decay_mult: 0
  }
  convolution_param {
    num_output: 128
    kernel_size: 1
    weight_filler {
      type: "xavier"
      std: 0.03
    }
    bias_filler {
      type: "constant"
      value: 0.2
    }
  }
}
layer {
  name: "inception_4c/relu_1x1"
  type: "ReLU"
  bottom: "inception_4c/1x1"
  top: "inception_4c/1x1"
}
layer {
  name: "inception_4c/3x3_reduce"
  type: "Convolution"
  bottom: "inception_4b/output"
  top: "inception_4c/3x3_reduce"
  param {
    lr_mult: 1
    decay_mult: 1
  }
  param {
    lr_mult: 2
    decay_mult: 0
  }
  convolution_param {
    num_output: 128
    kernel_size: 1
    weight_filler {
      type: "xavier"
      std: 0.09
    }
    bias_filler {
      type: "constant"
      value: 0.2
    }
  }
}
layer {
  name: "inception_4c/relu_3x3_reduce"
  type: "ReLU"
  bottom: "inception_4c/3x3_reduce"
  top: "inception_4c/3x3_reduce"
}
layer {
  name: "inception_4c/3x3"
  type: "Convolution"
  bottom: "inception_4c/3x3_reduce"
  top: "inception_4c/3x3"
  param {
    lr_mult: 1
    decay_mult: 1
  }
  param {
    lr_mult: 2
    decay_mult: 0
  }
  convolution_param {
    num_output: 256
    pad: 1
    kernel_size: 3
    weight_filler {
      type: "xavier"
      std: 0.03
    }
    bias_filler {
      type: "constant"
      value: 0.2
    }
  }
}
layer {
  name: "inception_4c/relu_3x3"
  type: "ReLU"
  bottom: "inception_4c/3x3"
  top: "inception_4c/3x3"
}
layer {
  name: "inception_4c/5x5_reduce"
  type: "Convolution"
  bottom: "inception_4b/output"
  top: "inception_4c/5x5_reduce"
  param {
    lr_mult: 1
    decay_mult: 1
  }
  param {
    lr_mult: 2
    decay_mult: 0
  }
  convolution_param {
    num_output: 24
    kernel_size: 1
    weight_filler {
      type: "xavier"
      std: 0.2
    }
    bias_filler {
      type: "constant"
      value: 0.2
    }
  }
}
layer {
  name: "inception_4c/relu_5x5_reduce"
  type: "ReLU"
  bottom: "inception_4c/5x5_reduce"
  top: "inception_4c/5x5_reduce"
}
layer {
  name: "inception_4c/5x5"
  type: "Convolution"
  bottom: "inception_4c/5x5_reduce"
  top: "inception_4c/5x5"
  param {
    lr_mult: 1
    decay_mult: 1
  }
  param {
    lr_mult: 2
    decay_mult: 0
  }
  convolution_param {
    num_output: 64
    pad: 2
    kernel_size: 5
    weight_filler {
      type: "xavier"
      std: 0.03
    }
    bias_filler {
      type: "constant"
      value: 0.2
    }
  }
}
layer {
  name: "inception_4c/relu_5x5"
  type: "ReLU"
  bottom: "inception_4c/5x5"
  top: "inception_4c/5x5"
}
layer {
  name: "inception_4c/pool"
  type: "Pooling"
  bottom: "inception_4b/output"
  top: "inception_4c/pool"
  pooling_param {
    pool: MAX
    kernel_size: 3
    stride: 1
    pad: 1
  }
}
layer {
  name: "inception_4c/pool_proj"
  type: "Convolution"
  bottom: "inception_4c/pool"
  top: "inception_4c/pool_proj"
  param {
    lr_mult: 1
    decay_mult: 1
  }
  param {
    lr_mult: 2
    decay_mult: 0
  }
  convolution_param {
    num_output: 64
    kernel_size: 1
    weight_filler {
      type: "xavier"
      std: 0.1
    }
    bias_filler {
      type: "constant"
      value: 0.2
    }
  }
}
layer {
  name: "inception_4c/relu_pool_proj"
  type: "ReLU"
  bottom: "inception_4c/pool_proj"
  top: "inception_4c/pool_proj"
}
layer {
  name: "inception_4c/output"
  type: "Concat"
  bottom: "inception_4c/1x1"
  bottom: "inception_4c/3x3"
  bottom: "inception_4c/5x5"
  bottom: "inception_4c/pool_proj"
  top: "inception_4c/output"
}
layer {
  name: "inception_4d/1x1"
  type: "Convolution"
  bottom: "inception_4c/output"
  top: "inception_4d/1x1"
  param {
    lr_mult: 1
    decay_mult: 1
  }
  param {
    lr_mult: 2
    decay_mult: 0
  }
  convolution_param {
    num_output: 112
    kernel_size: 1
    weight_filler {
      type: "xavier"
      std: 0.03
    }
    bias_filler {
      type: "constant"
      value: 0.2
    }
  }
}
layer {
  name: "inception_4d/relu_1x1"
  type: "ReLU"
  bottom: "inception_4d/1x1"
  top: "inception_4d/1x1"
}
layer {
  name: "inception_4d/3x3_reduce"
  type: "Convolution"
  bottom: "inception_4c/output"
  top: "inception_4d/3x3_reduce"
  param {
    lr_mult: 1
    decay_mult: 1
  }
  param {
    lr_mult: 2
    decay_mult: 0
  }
  convolution_param {
    num_output: 144
    kernel_size: 1
    weight_filler {
      type: "xavier"
      std: 0.09
    }
    bias_filler {
      type: "constant"
      value: 0.2
    }
  }
}
layer {
  name: "inception_4d/relu_3x3_reduce"
  type: "ReLU"
  bottom: "inception_4d/3x3_reduce"
  top: "inception_4d/3x3_reduce"
}
layer {
  name: "inception_4d/3x3"
  type: "Convolution"
  bottom: "inception_4d/3x3_reduce"
  top: "inception_4d/3x3"
  param {
    lr_mult: 1
    decay_mult: 1
  }
  param {
    lr_mult: 2
    decay_mult: 0
  }
  convolution_param {
    num_output: 288
    pad: 1
    kernel_size: 3
    weight_filler {
      type: "xavier"
      std: 0.03
    }
    bias_filler {
      type: "constant"
      value: 0.2
    }
  }
}
layer {
  name: "inception_4d/relu_3x3"
  type: "ReLU"
  bottom: "inception_4d/3x3"
  top: "inception_4d/3x3"
}
layer {
  name: "inception_4d/5x5_reduce"
  type: "Convolution"
  bottom: "inception_4c/output"
  top: "inception_4d/5x5_reduce"
  param {
    lr_mult: 1
    decay_mult: 1
  }
  param {
    lr_mult: 2
    decay_mult: 0
  }
  convolution_param {
    num_output: 32
    kernel_size: 1
    weight_filler {
      type: "xavier"
      std: 0.2
    }
    bias_filler {
      type: "constant"
      value: 0.2
    }
  }
}
layer {
  name: "inception_4d/relu_5x5_reduce"
  type: "ReLU"
  bottom: "inception_4d/5x5_reduce"
  top: "inception_4d/5x5_reduce"
}
layer {
  name: "inception_4d/5x5"
  type: "Convolution"
  bottom: "inception_4d/5x5_reduce"
  top: "inception_4d/5x5"
  param {
    lr_mult: 1
    decay_mult: 1
  }
  param {
    lr_mult: 2
    decay_mult: 0
  }
  convolution_param {
    num_output: 64
    pad: 2
    kernel_size: 5
    weight_filler {
      type: "xavier"
      std: 0.03
    }
    bias_filler {
      type: "constant"
      value: 0.2
    }
  }
}
layer {
  name: "inception_4d/relu_5x5"
  type: "ReLU"
  bottom: "inception_4d/5x5"
  top: "inception_4d/5x5"
}
layer {
  name: "inception_4d/pool"
  type: "Pooling"
  bottom: "inception_4c/output"
  top: "inception_4d/pool"
  pooling_param {
    pool: MAX
    kernel_size: 3
    stride: 1
    pad: 1
  }
}
layer {
  name: "inception_4d/pool_proj"
  type: "Convolution"
  bottom: "inception_4d/pool"
  top: "inception_4d/pool_proj"
  param {
    lr_mult: 1
    decay_mult: 1
  }
  param {
    lr_mult: 2
    decay_mult: 0
  }
  convolution_param {
    num_output: 64
    kernel_size: 1
    weight_filler {
      type: "xavier"
      std: 0.1
    }
    bias_filler {
      type: "constant"
      value: 0.2
    }
  }
}
layer {
  name: "inception_4d/relu_pool_proj"
  type: "ReLU"
  bottom: "inception_4d/pool_proj"
  top: "inception_4d/pool_proj"
}
layer {
  name: "inception_4d/output"
  type: "Concat"
  bottom: "inception_4d/1x1"
  bottom: "inception_4d/3x3"
  bottom: "inception_4d/5x5"
  bottom: "inception_4d/pool_proj"
  top: "inception_4d/output"
}
layer {
  name: "loss2/ave_pool"
  type: "Pooling"
  bottom: "inception_4d/output"
  top: "loss2/ave_pool"
  pooling_param {
    pool: AVE
    kernel_size: 5
    stride: 3
  }
}
layer {
  name: "loss2/conv"
  type: "Convolution"
  bottom: "loss2/ave_pool"
  top: "loss2/conv"
  param {
    lr_mult: 1
    decay_mult: 1
  }
  param {
    lr_mult: 2
    decay_mult: 0
  }
  convolution_param {
    num_output: 128
    kernel_size: 1
    weight_filler {
      type: "xavier"
      std: 0.08
    }
    bias_filler {
      type: "constant"
      value: 0.2
    }
  }
}
layer {
  name: "loss2/relu_conv"
  type: "ReLU"
  bottom: "loss2/conv"
  top: "loss2/conv"
}
layer {
  name: "loss2/fc"
  type: "InnerProduct"
  bottom: "loss2/conv"
  top: "loss2/fc"
  param {
    lr_mult: 1
    decay_mult: 1
  }
  param {
    lr_mult: 2
    decay_mult: 0
  }
  inner_product_param {
    num_output: 1024
    weight_filler {
      type: "xavier"
      std: 0.02
    }
    bias_filler {
      type: "constant"
      value: 0.2
    }
  }
}
layer {
  name: "loss2/relu_fc"
  type: "ReLU"
  bottom: "loss2/fc"
  top: "loss2/fc"
}
layer {
  name: "loss2/drop_fc"
  type: "Dropout"
  bottom: "loss2/fc"
  top: "loss2/fc"
  dropout_param {
    dropout_ratio: 0.7
  }
}
layer {
  name: "loss2/classifier_plantvillage"
  type: "InnerProduct"
  bottom: "loss2/fc"
  top: "loss2/classifier_plantvillage"
  param {
    lr_mult: 1
    decay_mult: 1
  }
  param {
    lr_mult: 2
    decay_mult: 0
  }
  inner_product_param {
    num_output: 38
    weight_filler {
      type: "xavier"
      std: 0.0009765625
    }
    bias_filler {
      type: "constant"
      value: 0
    }
  }
}
layer {
  name: "inception_4e/1x1"
  type: "Convolution"
  bottom: "inception_4d/output"
  top: "inception_4e/1x1"
  param {
    lr_mult: 1
    decay_mult: 1
  }
  param {
    lr_mult: 2
    decay_mult: 0
  }
  convolution_param {
    num_output: 256
    kernel_size: 1
    weight_filler {
      type: "xavier"
      std: 0.03
    }
    bias_filler {
      type: "constant"
      value: 0.2
    }
  }
}
layer {
  name: "inception_4e/relu_1x1"
  type: "ReLU"
  bottom: "inception_4e/1x1"
  top: "inception_4e/1x1"
}
layer {
  name: "inception_4e/3x3_reduce"
  type: "Convolution"
  bottom: "inception_4d/output"
  top: "inception_4e/3x3_reduce"
  param {
    lr_mult: 1
    decay_mult: 1
  }
  param {
    lr_mult: 2
    decay_mult: 0
  }
  convolution_param {
    num_output: 160
    kernel_size: 1
    weight_filler {
      type: "xavier"
      std: 0.09
    }
    bias_filler {
      type: "constant"
      value: 0.2
    }
  }
}
layer {
  name: "inception_4e/relu_3x3_reduce"
  type: "ReLU"
  bottom: "inception_4e/3x3_reduce"
  top: "inception_4e/3x3_reduce"
}
layer {
  name: "inception_4e/3x3"
  type: "Convolution"
  bottom: "inception_4e/3x3_reduce"
  top: "inception_4e/3x3"
  param {
    lr_mult: 1
    decay_mult: 1
  }
  param {
    lr_mult: 2
    decay_mult: 0
  }
  convolution_param {
    num_output: 320
    pad: 1
    kernel_size: 3
    weight_filler {
      type: "xavier"
      std: 0.03
    }
    bias_filler {
      type: "constant"
      value: 0.2
    }
  }
}
layer {
  name: "inception_4e/relu_3x3"
  type: "ReLU"
  bottom: "inception_4e/3x3"
  top: "inception_4e/3x3"
}
layer {
  name: "inception_4e/5x5_reduce"
  type: "Convolution"
  bottom: "inception_4d/output"
  top: "inception_4e/5x5_reduce"
  param {
    lr_mult: 1
    decay_mult: 1
  }
  param {
    lr_mult: 2
    decay_mult: 0
  }
  convolution_param {
    num_output: 32
    kernel_size: 1
    weight_filler {
      type: "xavier"
      std: 0.2
    }
    bias_filler {
      type: "constant"
      value: 0.2
    }
  }
}
layer {
  name: "inception_4e/relu_5x5_reduce"
  type: "ReLU"
  bottom: "inception_4e/5x5_reduce"
  top: "inception_4e/5x5_reduce"
}
layer {
  name: "inception_4e/5x5"
  type: "Convolution"
  bottom: "inception_4e/5x5_reduce"
  top: "inception_4e/5x5"
  p
I0403 19:25:12.848008  9212 layer_factory.hpp:77] Creating layer data
I0403 19:25:12.848585  9212 net.cpp:91] Creating Layer data
I0403 19:25:12.848616  9212 net.cpp:399] data -> data
I0403 19:25:12.848670  9212 net.cpp:399] data -> label
I0403 19:25:12.848707  9212 data_transformer.cpp:25] Loading mean file from: /home/mohanty/data/final_dataset/lmdb/color-60-40/mean.binaryproto
I0403 19:25:12.850005  9215 db_lmdb.cpp:38] Opened lmdb /home/mohanty/data/final_dataset/lmdb/color-60-40/test_db
I0403 19:25:12.861775  9212 data_layer.cpp:41] output data size: 24,3,224,224
I0403 19:25:12.888855  9212 net.cpp:141] Setting up data
I0403 19:25:12.888933  9212 net.cpp:148] Top shape: 24 3 224 224 (3612672)
I0403 19:25:12.888957  9212 net.cpp:148] Top shape: 24 (24)
I0403 19:25:12.888972  9212 net.cpp:156] Memory required for data: 14450784
I0403 19:25:12.889001  9212 layer_factory.hpp:77] Creating layer label_data_1_split
I0403 19:25:12.889029  9212 net.cpp:91] Creating Layer label_data_1_split
I0403 19:25:12.889045  9212 net.cpp:425] label_data_1_split <- label
I0403 19:25:12.889080  9212 net.cpp:399] label_data_1_split -> label_data_1_split_0
I0403 19:25:12.889107  9212 net.cpp:399] label_data_1_split -> label_data_1_split_1
I0403 19:25:12.889128  9212 net.cpp:399] label_data_1_split -> label_data_1_split_2
I0403 19:25:12.889148  9212 net.cpp:399] label_data_1_split -> label_data_1_split_3
I0403 19:25:12.889166  9212 net.cpp:399] label_data_1_split -> label_data_1_split_4
I0403 19:25:12.889186  9212 net.cpp:399] label_data_1_split -> label_data_1_split_5
I0403 19:25:12.889205  9212 net.cpp:399] label_data_1_split -> label_data_1_split_6
I0403 19:25:12.889226  9212 net.cpp:399] label_data_1_split -> label_data_1_split_7
I0403 19:25:12.889246  9212 net.cpp:399] label_data_1_split -> label_data_1_split_8
I0403 19:25:12.889266  9212 net.cpp:399] label_data_1_split -> label_data_1_split_9
I0403 19:25:12.889380  9212 net.cpp:141] Setting up label_data_1_split
I0403 19:25:12.889402  9212 net.cpp:148] Top shape: 24 (24)
I0403 19:25:12.889420  9212 net.cpp:148] Top shape: 24 (24)
I0403 19:25:12.889436  9212 net.cpp:148] Top shape: 24 (24)
I0403 19:25:12.889453  9212 net.cpp:148] Top shape: 24 (24)
I0403 19:25:12.889473  9212 net.cpp:148] Top shape: 24 (24)
I0403 19:25:12.889489  9212 net.cpp:148] Top shape: 24 (24)
I0403 19:25:12.889505  9212 net.cpp:148] Top shape: 24 (24)
I0403 19:25:12.889521  9212 net.cpp:148] Top shape: 24 (24)
I0403 19:25:12.889536  9212 net.cpp:148] Top shape: 24 (24)
I0403 19:25:12.889554  9212 net.cpp:148] Top shape: 24 (24)
I0403 19:25:12.889607  9212 net.cpp:156] Memory required for data: 14451744
I0403 19:25:12.889623  9212 layer_factory.hpp:77] Creating layer conv1/7x7_s2
I0403 19:25:12.889655  9212 net.cpp:91] Creating Layer conv1/7x7_s2
I0403 19:25:12.889673  9212 net.cpp:425] conv1/7x7_s2 <- data
I0403 19:25:12.889693  9212 net.cpp:399] conv1/7x7_s2 -> conv1/7x7_s2
I0403 19:25:13.024726  9212 net.cpp:141] Setting up conv1/7x7_s2
I0403 19:25:13.024807  9212 net.cpp:148] Top shape: 24 64 112 112 (19267584)
I0403 19:25:13.024826  9212 net.cpp:156] Memory required for data: 91522080
I0403 19:25:13.024863  9212 layer_factory.hpp:77] Creating layer conv1/relu_7x7
I0403 19:25:13.024893  9212 net.cpp:91] Creating Layer conv1/relu_7x7
I0403 19:25:13.024912  9212 net.cpp:425] conv1/relu_7x7 <- conv1/7x7_s2
I0403 19:25:13.024932  9212 net.cpp:386] conv1/relu_7x7 -> conv1/7x7_s2 (in-place)
I0403 19:25:13.025188  9212 net.cpp:141] Setting up conv1/relu_7x7
I0403 19:25:13.025216  9212 net.cpp:148] Top shape: 24 64 112 112 (19267584)
I0403 19:25:13.025236  9212 net.cpp:156] Memory required for data: 168592416
I0403 19:25:13.025255  9212 layer_factory.hpp:77] Creating layer pool1/3x3_s2
I0403 19:25:13.025287  9212 net.cpp:91] Creating Layer pool1/3x3_s2
I0403 19:25:13.025305  9212 net.cpp:425] pool1/3x3_s2 <- conv1/7x7_s2
I0403 19:25:13.025328  9212 net.cpp:399] pool1/3x3_s2 -> pool1/3x3_s2
I0403 19:25:13.025430  9212 net.cpp:141] Setting up pool1/3x3_s2
I0403 19:25:13.025456  9212 net.cpp:148] Top shape: 24 64 56 56 (4816896)
I0403 19:25:13.025480  9212 net.cpp:156] Memory required for data: 187860000
I0403 19:25:13.025495  9212 layer_factory.hpp:77] Creating layer pool1/norm1
I0403 19:25:13.025526  9212 net.cpp:91] Creating Layer pool1/norm1
I0403 19:25:13.025543  9212 net.cpp:425] pool1/norm1 <- pool1/3x3_s2
I0403 19:25:13.025563  9212 net.cpp:399] pool1/norm1 -> pool1/norm1
I0403 19:25:13.025846  9212 net.cpp:141] Setting up pool1/norm1
I0403 19:25:13.025874  9212 net.cpp:148] Top shape: 24 64 56 56 (4816896)
I0403 19:25:13.025892  9212 net.cpp:156] Memory required for data: 207127584
I0403 19:25:13.025908  9212 layer_factory.hpp:77] Creating layer conv2/3x3_reduce
I0403 19:25:13.025941  9212 net.cpp:91] Creating Layer conv2/3x3_reduce
I0403 19:25:13.025961  9212 net.cpp:425] conv2/3x3_reduce <- pool1/norm1
I0403 19:25:13.025982  9212 net.cpp:399] conv2/3x3_reduce -> conv2/3x3_reduce
I0403 19:25:13.027389  9212 net.cpp:141] Setting up conv2/3x3_reduce
I0403 19:25:13.027423  9212 net.cpp:148] Top shape: 24 64 56 56 (4816896)
I0403 19:25:13.027441  9212 net.cpp:156] Memory required for data: 226395168
I0403 19:25:13.027474  9212 layer_factory.hpp:77] Creating layer conv2/relu_3x3_reduce
I0403 19:25:13.027503  9212 net.cpp:91] Creating Layer conv2/relu_3x3_reduce
I0403 19:25:13.027523  9212 net.cpp:425] conv2/relu_3x3_reduce <- conv2/3x3_reduce
I0403 19:25:13.027552  9212 net.cpp:386] conv2/relu_3x3_reduce -> conv2/3x3_reduce (in-place)
I0403 19:25:13.027827  9212 net.cpp:141] Setting up conv2/relu_3x3_reduce
I0403 19:25:13.027858  9212 net.cpp:148] Top shape: 24 64 56 56 (4816896)
I0403 19:25:13.027880  9212 net.cpp:156] Memory required for data: 245662752
I0403 19:25:13.027896  9212 layer_factory.hpp:77] Creating layer conv2/3x3
I0403 19:25:13.027926  9212 net.cpp:91] Creating Layer conv2/3x3
I0403 19:25:13.027953  9212 net.cpp:425] conv2/3x3 <- conv2/3x3_reduce
I0403 19:25:13.027978  9212 net.cpp:399] conv2/3x3 -> conv2/3x3
I0403 19:25:13.030287  9212 net.cpp:141] Setting up conv2/3x3
I0403 19:25:13.030364  9212 net.cpp:148] Top shape: 24 192 56 56 (14450688)
I0403 19:25:13.030422  9212 net.cpp:156] Memory required for data: 303465504
I0403 19:25:13.030498  9212 layer_factory.hpp:77] Creating layer conv2/relu_3x3
I0403 19:25:13.030546  9212 net.cpp:91] Creating Layer conv2/relu_3x3
I0403 19:25:13.030573  9212 net.cpp:425] conv2/relu_3x3 <- conv2/3x3
I0403 19:25:13.030614  9212 net.cpp:386] conv2/relu_3x3 -> conv2/3x3 (in-place)
I0403 19:25:13.030807  9212 net.cpp:141] Setting up conv2/relu_3x3
I0403 19:25:13.030841  9212 net.cpp:148] Top shape: 24 192 56 56 (14450688)
I0403 19:25:13.030922  9212 net.cpp:156] Memory required for data: 361268256
I0403 19:25:13.030953  9212 layer_factory.hpp:77] Creating layer conv2/norm2
I0403 19:25:13.030992  9212 net.cpp:91] Creating Layer conv2/norm2
I0403 19:25:13.031008  9212 net.cpp:425] conv2/norm2 <- conv2/3x3
I0403 19:25:13.031034  9212 net.cpp:399] conv2/norm2 -> conv2/norm2
I0403 19:25:13.031360  9212 net.cpp:141] Setting up conv2/norm2
I0403 19:25:13.031393  9212 net.cpp:148] Top shape: 24 192 56 56 (14450688)
I0403 19:25:13.031424  9212 net.cpp:156] Memory required for data: 419071008
I0403 19:25:13.031441  9212 layer_factory.hpp:77] Creating layer pool2/3x3_s2
I0403 19:25:13.031464  9212 net.cpp:91] Creating Layer pool2/3x3_s2
I0403 19:25:13.031504  9212 net.cpp:425] pool2/3x3_s2 <- conv2/norm2
I0403 19:25:13.031527  9212 net.cpp:399] pool2/3x3_s2 -> pool2/3x3_s2
I0403 19:25:13.031586  9212 net.cpp:141] Setting up pool2/3x3_s2
I0403 19:25:13.031621  9212 net.cpp:148] Top shape: 24 192 28 28 (3612672)
I0403 19:25:13.031638  9212 net.cpp:156] Memory required for data: 433521696
I0403 19:25:13.031666  9212 layer_factory.hpp:77] Creating layer pool2/3x3_s2_pool2/3x3_s2_0_split
I0403 19:25:13.031687  9212 net.cpp:91] Creating Layer pool2/3x3_s2_pool2/3x3_s2_0_split
I0403 19:25:13.031705  9212 net.cpp:425] pool2/3x3_s2_pool2/3x3_s2_0_split <- pool2/3x3_s2
I0403 19:25:13.031735  9212 net.cpp:399] pool2/3x3_s2_pool2/3x3_s2_0_split -> pool2/3x3_s2_pool2/3x3_s2_0_split_0
I0403 19:25:13.031766  9212 net.cpp:399] pool2/3x3_s2_pool2/3x3_s2_0_split -> pool2/3x3_s2_pool2/3x3_s2_0_split_1
I0403 19:25:13.031800  9212 net.cpp:399] pool2/3x3_s2_pool2/3x3_s2_0_split -> pool2/3x3_s2_pool2/3x3_s2_0_split_2
I0403 19:25:13.031836  9212 net.cpp:399] pool2/3x3_s2_pool2/3x3_s2_0_split -> pool2/3x3_s2_pool2/3x3_s2_0_split_3
I0403 19:25:13.031915  9212 net.cpp:141] Setting up pool2/3x3_s2_pool2/3x3_s2_0_split
I0403 19:25:13.031944  9212 net.cpp:148] Top shape: 24 192 28 28 (3612672)
I0403 19:25:13.031970  9212 net.cpp:148] Top shape: 24 192 28 28 (3612672)
I0403 19:25:13.031992  9212 net.cpp:148] Top shape: 24 192 28 28 (3612672)
I0403 19:25:13.032008  9212 net.cpp:148] Top shape: 24 192 28 28 (3612672)
I0403 19:25:13.032035  9212 net.cpp:156] Memory required for data: 491324448
I0403 19:25:13.032071  9212 layer_factory.hpp:77] Creating layer inception_3a/1x1
I0403 19:25:13.032105  9212 net.cpp:91] Creating Layer inception_3a/1x1
I0403 19:25:13.032132  9212 net.cpp:425] inception_3a/1x1 <- pool2/3x3_s2_pool2/3x3_s2_0_split_0
I0403 19:25:13.032163  9212 net.cpp:399] inception_3a/1x1 -> inception_3a/1x1
I0403 19:25:13.033725  9212 net.cpp:141] Setting up inception_3a/1x1
I0403 19:25:13.033761  9212 net.cpp:148] Top shape: 24 64 28 28 (1204224)
I0403 19:25:13.033787  9212 net.cpp:156] Memory required for data: 496141344
I0403 19:25:13.033810  9212 layer_factory.hpp:77] Creating layer inception_3a/relu_1x1
I0403 19:25:13.033838  9212 net.cpp:91] Creating Layer inception_3a/relu_1x1
I0403 19:25:13.033864  9212 net.cpp:425] inception_3a/relu_1x1 <- inception_3a/1x1
I0403 19:25:13.033888  9212 net.cpp:386] inception_3a/relu_1x1 -> inception_3a/1x1 (in-place)
I0403 19:25:13.034061  9212 net.cpp:141] Setting up inception_3a/relu_1x1
I0403 19:25:13.034091  9212 net.cpp:148] Top shape: 24 64 28 28 (1204224)
I0403 19:25:13.034114  9212 net.cpp:156] Memory required for data: 500958240
I0403 19:25:13.034137  9212 layer_factory.hpp:77] Creating layer inception_3a/3x3_reduce
I0403 19:25:13.034167  9212 net.cpp:91] Creating Layer inception_3a/3x3_reduce
I0403 19:25:13.034190  9212 net.cpp:425] inception_3a/3x3_reduce <- pool2/3x3_s2_pool2/3x3_s2_0_split_1
I0403 19:25:13.034219  9212 net.cpp:399] inception_3a/3x3_reduce -> inception_3a/3x3_reduce
I0403 19:25:13.035930  9212 net.cpp:141] Setting up inception_3a/3x3_reduce
I0403 19:25:13.035967  9212 net.cpp:148] Top shape: 24 96 28 28 (1806336)
I0403 19:25:13.035984  9212 net.cpp:156] Memory required for data: 508183584
I0403 19:25:13.036010  9212 layer_factory.hpp:77] Creating layer inception_3a/relu_3x3_reduce
I0403 19:25:13.036061  9212 net.cpp:91] Creating Layer inception_3a/relu_3x3_reduce
I0403 19:25:13.036080  9212 net.cpp:425] inception_3a/relu_3x3_reduce <- inception_3a/3x3_reduce
I0403 19:25:13.036099  9212 net.cpp:386] inception_3a/relu_3x3_reduce -> inception_3a/3x3_reduce (in-place)
I0403 19:25:13.036285  9212 net.cpp:141] Setting up inception_3a/relu_3x3_reduce
I0403 19:25:13.036311  9212 net.cpp:148] Top shape: 24 96 28 28 (1806336)
I0403 19:25:13.036329  9212 net.cpp:156] Memory required for data: 515408928
I0403 19:25:13.036345  9212 layer_factory.hpp:77] Creating layer inception_3a/3x3
I0403 19:25:13.036368  9212 net.cpp:91] Creating Layer inception_3a/3x3
I0403 19:25:13.036386  9212 net.cpp:425] inception_3a/3x3 <- inception_3a/3x3_reduce
I0403 19:25:13.036411  9212 net.cpp:399] inception_3a/3x3 -> inception_3a/3x3
I0403 19:25:13.038051  9212 net.cpp:141] Setting up inception_3a/3x3
I0403 19:25:13.038087  9212 net.cpp:148] Top shape: 24 128 28 28 (2408448)
I0403 19:25:13.038106  9212 net.cpp:156] Memory required for data: 525042720
I0403 19:25:13.038130  9212 layer_factory.hpp:77] Creating layer inception_3a/relu_3x3
I0403 19:25:13.038153  9212 net.cpp:91] Creating Layer inception_3a/relu_3x3
I0403 19:25:13.038174  9212 net.cpp:425] inception_3a/relu_3x3 <- inception_3a/3x3
I0403 19:25:13.038192  9212 net.cpp:386] inception_3a/relu_3x3 -> inception_3a/3x3 (in-place)
I0403 19:25:13.038473  9212 net.cpp:141] Setting up inception_3a/relu_3x3
I0403 19:25:13.038506  9212 net.cpp:148] Top shape: 24 128 28 28 (2408448)
I0403 19:25:13.038527  9212 net.cpp:156] Memory required for data: 534676512
I0403 19:25:13.038552  9212 layer_factory.hpp:77] Creating layer inception_3a/5x5_reduce
I0403 19:25:13.038576  9212 net.cpp:91] Creating Layer inception_3a/5x5_reduce
I0403 19:25:13.038604  9212 net.cpp:425] inception_3a/5x5_reduce <- pool2/3x3_s2_pool2/3x3_s2_0_split_2
I0403 19:25:13.038631  9212 net.cpp:399] inception_3a/5x5_reduce -> inception_3a/5x5_reduce
I0403 19:25:13.039569  9212 net.cpp:141] Setting up inception_3a/5x5_reduce
I0403 19:25:13.039597  9212 net.cpp:148] Top shape: 24 16 28 28 (301056)
I0403 19:25:13.039614  9212 net.cpp:156] Memory required for data: 535880736
I0403 19:25:13.039633  9212 layer_factory.hpp:77] Creating layer inception_3a/relu_5x5_reduce
I0403 19:25:13.039659  9212 net.cpp:91] Creating Layer inception_3a/relu_5x5_reduce
I0403 19:25:13.039679  9212 net.cpp:425] inception_3a/relu_5x5_reduce <- inception_3a/5x5_reduce
I0403 19:25:13.039697  9212 net.cpp:386] inception_3a/relu_5x5_reduce -> inception_3a/5x5_reduce (in-place)
I0403 19:25:13.039976  9212 net.cpp:141] Setting up inception_3a/relu_5x5_reduce
I0403 19:25:13.040010  9212 net.cpp:148] Top shape: 24 16 28 28 (301056)
I0403 19:25:13.040029  9212 net.cpp:156] Memory required for data: 537084960
I0403 19:25:13.040043  9212 layer_factory.hpp:77] Creating layer inception_3a/5x5
I0403 19:25:13.040067  9212 net.cpp:91] Creating Layer inception_3a/5x5
I0403 19:25:13.040091  9212 net.cpp:425] inception_3a/5x5 <- inception_3a/5x5_reduce
I0403 19:25:13.040112  9212 net.cpp:399] inception_3a/5x5 -> inception_3a/5x5
I0403 19:25:13.041086  9212 net.cpp:141] Setting up inception_3a/5x5
I0403 19:25:13.041113  9212 net.cpp:148] Top shape: 24 32 28 28 (602112)
I0403 19:25:13.041131  9212 net.cpp:156] Memory required for data: 539493408
I0403 19:25:13.041149  9212 layer_factory.hpp:77] Creating layer inception_3a/relu_5x5
I0403 19:25:13.041169  9212 net.cpp:91] Creating Layer inception_3a/relu_5x5
I0403 19:25:13.041193  9212 net.cpp:425] inception_3a/relu_5x5 <- inception_3a/5x5
I0403 19:25:13.041218  9212 net.cpp:386] inception_3a/relu_5x5 -> inception_3a/5x5 (in-place)
I0403 19:25:13.041384  9212 net.cpp:141] Setting up inception_3a/relu_5x5
I0403 19:25:13.041410  9212 net.cpp:148] Top shape: 24 32 28 28 (602112)
I0403 19:25:13.041430  9212 net.cpp:156] Memory required for data: 541901856
I0403 19:25:13.041450  9212 layer_factory.hpp:77] Creating layer inception_3a/pool
I0403 19:25:13.041481  9212 net.cpp:91] Creating Layer inception_3a/pool
I0403 19:25:13.041501  9212 net.cpp:425] inception_3a/pool <- pool2/3x3_s2_pool2/3x3_s2_0_split_3
I0403 19:25:13.041537  9212 net.cpp:399] inception_3a/pool -> inception_3a/pool
I0403 19:25:13.041600  9212 net.cpp:141] Setting up inception_3a/pool
I0403 19:25:13.041630  9212 net.cpp:148] Top shape: 24 192 28 28 (3612672)
I0403 19:25:13.041647  9212 net.cpp:156] Memory required for data: 556352544
I0403 19:25:13.041667  9212 layer_factory.hpp:77] Creating layer inception_3a/pool_proj
I0403 19:25:13.041697  9212 net.cpp:91] Creating Layer inception_3a/pool_proj
I0403 19:25:13.041718  9212 net.cpp:425] inception_3a/pool_proj <- inception_3a/pool
I0403 19:25:13.041749  9212 net.cpp:399] inception_3a/pool_proj -> inception_3a/pool_proj
I0403 19:25:13.042726  9212 net.cpp:141] Setting up inception_3a/pool_proj
I0403 19:25:13.042760  9212 net.cpp:148] Top shape: 24 32 28 28 (602112)
I0403 19:25:13.042783  9212 net.cpp:156] Memory required for data: 558760992
I0403 19:25:13.042814  9212 layer_factory.hpp:77] Creating layer inception_3a/relu_pool_proj
I0403 19:25:13.042843  9212 net.cpp:91] Creating Layer inception_3a/relu_pool_proj
I0403 19:25:13.042861  9212 net.cpp:425] inception_3a/relu_pool_proj <- inception_3a/pool_proj
I0403 19:25:13.042886  9212 net.cpp:386] inception_3a/relu_pool_proj -> inception_3a/pool_proj (in-place)
I0403 19:25:13.043146  9212 net.cpp:141] Setting up inception_3a/relu_pool_proj
I0403 19:25:13.043179  9212 net.cpp:148] Top shape: 24 32 28 28 (602112)
I0403 19:25:13.043198  9212 net.cpp:156] Memory required for data: 561169440
I0403 19:25:13.043223  9212 layer_factory.hpp:77] Creating layer inception_3a/output
I0403 19:25:13.043244  9212 net.cpp:91] Creating Layer inception_3a/output
I0403 19:25:13.043267  9212 net.cpp:425] inception_3a/output <- inception_3a/1x1
I0403 19:25:13.043290  9212 net.cpp:425] inception_3a/output <- inception_3a/3x3
I0403 19:25:13.043308  9212 net.cpp:425] inception_3a/output <- inception_3a/5x5
I0403 19:25:13.043329  9212 net.cpp:425] inception_3a/output <- inception_3a/pool_proj
I0403 19:25:13.043346  9212 net.cpp:399] inception_3a/output -> inception_3a/output
I0403 19:25:13.043393  9212 net.cpp:141] Setting up inception_3a/output
I0403 19:25:13.043424  9212 net.cpp:148] Top shape: 24 256 28 28 (4816896)
I0403 19:25:13.043448  9212 net.cpp:156] Memory required for data: 580437024
I0403 19:25:13.043473  9212 layer_factory.hpp:77] Creating layer inception_3a/output_inception_3a/output_0_split
I0403 19:25:13.043500  9212 net.cpp:91] Creating Layer inception_3a/output_inception_3a/output_0_split
I0403 19:25:13.043519  9212 net.cpp:425] inception_3a/output_inception_3a/output_0_split <- inception_3a/output
I0403 19:25:13.043547  9212 net.cpp:399] inception_3a/output_inception_3a/output_0_split -> inception_3a/output_inception_3a/output_0_split_0
I0403 19:25:13.043577  9212 net.cpp:399] inception_3a/output_inception_3a/output_0_split -> inception_3a/output_inception_3a/output_0_split_1
I0403 19:25:13.043601  9212 net.cpp:399] inception_3a/output_inception_3a/output_0_split -> inception_3a/output_inception_3a/output_0_split_2
I0403 19:25:13.043632  9212 net.cpp:399] inception_3a/output_inception_3a/output_0_split -> inception_3a/output_inception_3a/output_0_split_3
I0403 19:25:13.043706  9212 net.cpp:141] Setting up inception_3a/output_inception_3a/output_0_split
I0403 19:25:13.043733  9212 net.cpp:148] Top shape: 24 256 28 28 (4816896)
I0403 19:25:13.043758  9212 net.cpp:148] Top shape: 24 256 28 28 (4816896)
I0403 19:25:13.043777  9212 net.cpp:148] Top shape: 24 256 28 28 (4816896)
I0403 19:25:13.043799  9212 net.cpp:148] Top shape: 24 256 28 28 (4816896)
I0403 19:25:13.043823  9212 net.cpp:156] Memory required for data: 657507360
I0403 19:25:13.043838  9212 layer_factory.hpp:77] Creating layer inception_3b/1x1
I0403 19:25:13.043865  9212 net.cpp:91] Creating Layer inception_3b/1x1
I0403 19:25:13.043890  9212 net.cpp:425] inception_3b/1x1 <- inception_3a/output_inception_3a/output_0_split_0
I0403 19:25:13.043915  9212 net.cpp:399] inception_3b/1x1 -> inception_3b/1x1
I0403 19:25:13.045022  9212 net.cpp:141] Setting up inception_3b/1x1
I0403 19:25:13.045065  9212 net.cpp:148] Top shape: 24 128 28 28 (2408448)
I0403 19:25:13.045089  9212 net.cpp:156] Memory required for data: 667141152
I0403 19:25:13.045115  9212 layer_factory.hpp:77] Creating layer inception_3b/relu_1x1
I0403 19:25:13.045138  9212 net.cpp:91] Creating Layer inception_3b/relu_1x1
I0403 19:25:13.045164  9212 net.cpp:425] inception_3b/relu_1x1 <- inception_3b/1x1
I0403 19:25:13.045195  9212 net.cpp:386] inception_3b/relu_1x1 -> inception_3b/1x1 (in-place)
I0403 19:25:13.045373  9212 net.cpp:141] Setting up inception_3b/relu_1x1
I0403 19:25:13.045408  9212 net.cpp:148] Top shape: 24 128 28 28 (2408448)
I0403 19:25:13.045426  9212 net.cpp:156] Memory required for data: 676774944
I0403 19:25:13.045444  9212 layer_factory.hpp:77] Creating layer inception_3b/3x3_reduce
I0403 19:25:13.045474  9212 net.cpp:91] Creating Layer inception_3b/3x3_reduce
I0403 19:25:13.045495  9212 net.cpp:425] inception_3b/3x3_reduce <- inception_3a/output_inception_3a/output_0_split_1
I0403 19:25:13.045518  9212 net.cpp:399] inception_3b/3x3_reduce -> inception_3b/3x3_reduce
I0403 19:25:13.046617  9212 net.cpp:141] Setting up inception_3b/3x3_reduce
I0403 19:25:13.046648  9212 net.cpp:148] Top shape: 24 128 28 28 (2408448)
I0403 19:25:13.046672  9212 net.cpp:156] Memory required for data: 686408736
I0403 19:25:13.046695  9212 layer_factory.hpp:77] Creating layer inception_3b/relu_3x3_reduce
I0403 19:25:13.046730  9212 net.cpp:91] Creating Layer inception_3b/relu_3x3_reduce
I0403 19:25:13.046809  9212 net.cpp:425] inception_3b/relu_3x3_reduce <- inception_3b/3x3_reduce
I0403 19:25:13.046857  9212 net.cpp:386] inception_3b/relu_3x3_reduce -> inception_3b/3x3_reduce (in-place)
I0403 19:25:13.047029  9212 net.cpp:141] Setting up inception_3b/relu_3x3_reduce
I0403 19:25:13.047060  9212 net.cpp:148] Top shape: 24 128 28 28 (2408448)
I0403 19:25:13.047076  9212 net.cpp:156] Memory required for data: 696042528
I0403 19:25:13.047092  9212 layer_factory.hpp:77] Creating layer inception_3b/3x3
I0403 19:25:13.047121  9212 net.cpp:91] Creating Layer inception_3b/3x3
I0403 19:25:13.047139  9212 net.cpp:425] inception_3b/3x3 <- inception_3b/3x3_reduce
I0403 19:25:13.047161  9212 net.cpp:399] inception_3b/3x3 -> inception_3b/3x3
I0403 19:25:13.049994  9212 net.cpp:141] Setting up inception_3b/3x3
I0403 19:25:13.050029  9212 net.cpp:148] Top shape: 24 192 28 28 (3612672)
I0403 19:25:13.050051  9212 net.cpp:156] Memory required for data: 710493216
I0403 19:25:13.050078  9212 layer_factory.hpp:77] Creating layer inception_3b/relu_3x3
I0403 19:25:13.050110  9212 net.cpp:91] Creating Layer inception_3b/relu_3x3
I0403 19:25:13.050135  9212 net.cpp:425] inception_3b/relu_3x3 <- inception_3b/3x3
I0403 19:25:13.050158  9212 net.cpp:386] inception_3b/relu_3x3 -> inception_3b/3x3 (in-place)
I0403 19:25:13.050469  9212 net.cpp:141] Setting up inception_3b/relu_3x3
I0403 19:25:13.050500  9212 net.cpp:148] Top shape: 24 192 28 28 (3612672)
I0403 19:25:13.050534  9212 net.cpp:156] Memory required for data: 724943904
I0403 19:25:13.050554  9212 layer_factory.hpp:77] Creating layer inception_3b/5x5_reduce
I0403 19:25:13.050580  9212 net.cpp:91] Creating Layer inception_3b/5x5_reduce
I0403 19:25:13.050601  9212 net.cpp:425] inception_3b/5x5_reduce <- inception_3a/output_inception_3a/output_0_split_2
I0403 19:25:13.050629  9212 net.cpp:399] inception_3b/5x5_reduce -> inception_3b/5x5_reduce
I0403 19:25:13.051605  9212 net.cpp:141] Setting up inception_3b/5x5_reduce
I0403 19:25:13.051638  9212 net.cpp:148] Top shape: 24 32 28 28 (602112)
I0403 19:25:13.051659  9212 net.cpp:156] Memory required for data: 727352352
I0403 19:25:13.051684  9212 layer_factory.hpp:77] Creating layer inception_3b/relu_5x5_reduce
I0403 19:25:13.051707  9212 net.cpp:91] Creating Layer inception_3b/relu_5x5_reduce
I0403 19:25:13.051729  9212 net.cpp:425] inception_3b/relu_5x5_reduce <- inception_3b/5x5_reduce
I0403 19:25:13.051754  9212 net.cpp:386] inception_3b/relu_5x5_reduce -> inception_3b/5x5_reduce (in-place)
I0403 19:25:13.051925  9212 net.cpp:141] Setting up inception_3b/relu_5x5_reduce
I0403 19:25:13.051966  9212 net.cpp:148] Top shape: 24 32 28 28 (602112)
I0403 19:25:13.051987  9212 net.cpp:156] Memory required for data: 729760800
I0403 19:25:13.052007  9212 layer_factory.hpp:77] Creating layer inception_3b/5x5
I0403 19:25:13.052039  9212 net.cpp:91] Creating Layer inception_3b/5x5
I0403 19:25:13.052060  9212 net.cpp:425] inception_3b/5x5 <- inception_3b/5x5_reduce
I0403 19:25:13.052086  9212 net.cpp:399] inception_3b/5x5 -> inception_3b/5x5
I0403 19:25:13.054019  9212 net.cpp:141] Setting up inception_3b/5x5
I0403 19:25:13.054051  9212 net.cpp:148] Top shape: 24 96 28 28 (1806336)
I0403 19:25:13.054069  9212 net.cpp:156] Memory required for data: 736986144
I0403 19:25:13.054087  9212 layer_factory.hpp:77] Creating layer inception_3b/relu_5x5
I0403 19:25:13.054106  9212 net.cpp:91] Creating Layer inception_3b/relu_5x5
I0403 19:25:13.054122  9212 net.cpp:425] inception_3b/relu_5x5 <- inception_3b/5x5
I0403 19:25:13.054142  9212 net.cpp:386] inception_3b/relu_5x5 -> inception_3b/5x5 (in-place)
I0403 19:25:13.054342  9212 net.cpp:141] Setting up inception_3b/relu_5x5
I0403 19:25:13.054368  9212 net.cpp:148] Top shape: 24 96 28 28 (1806336)
I0403 19:25:13.054384  9212 net.cpp:156] Memory required for data: 744211488
I0403 19:25:13.054399  9212 layer_factory.hpp:77] Creating layer inception_3b/pool
I0403 19:25:13.054419  9212 net.cpp:91] Creating Layer inception_3b/pool
I0403 19:25:13.054436  9212 net.cpp:425] inception_3b/pool <- inception_3a/output_inception_3a/output_0_split_3
I0403 19:25:13.054455  9212 net.cpp:399] inception_3b/pool -> inception_3b/pool
I0403 19:25:13.054519  9212 net.cpp:141] Setting up inception_3b/pool
I0403 19:25:13.054556  9212 net.cpp:148] Top shape: 24 256 28 28 (4816896)
I0403 19:25:13.054571  9212 net.cpp:156] Memory required for data: 763479072
I0403 19:25:13.054587  9212 layer_factory.hpp:77] Creating layer inception_3b/pool_proj
I0403 19:25:13.054622  9212 net.cpp:91] Creating Layer inception_3b/pool_proj
I0403 19:25:13.054641  9212 net.cpp:425] inception_3b/pool_proj <- inception_3b/pool
I0403 19:25:13.054662  9212 net.cpp:399] inception_3b/pool_proj -> inception_3b/pool_proj
I0403 19:25:13.055701  9212 net.cpp:141] Setting up inception_3b/pool_proj
I0403 19:25:13.055737  9212 net.cpp:148] Top shape: 24 64 28 28 (1204224)
I0403 19:25:13.055763  9212 net.cpp:156] Memory required for data: 768295968
I0403 19:25:13.055785  9212 layer_factory.hpp:77] Creating layer inception_3b/relu_pool_proj
I0403 19:25:13.055812  9212 net.cpp:91] Creating Layer inception_3b/relu_pool_proj
I0403 19:25:13.055835  9212 net.cpp:425] inception_3b/relu_pool_proj <- inception_3b/pool_proj
I0403 19:25:13.055853  9212 net.cpp:386] inception_3b/relu_pool_proj -> inception_3b/pool_proj (in-place)
I0403 19:25:13.056229  9212 net.cpp:141] Setting up inception_3b/relu_pool_proj
I0403 19:25:13.056301  9212 net.cpp:148] Top shape: 24 64 28 28 (1204224)
I0403 19:25:13.056324  9212 net.cpp:156] Memory required for data: 773112864
I0403 19:25:13.056341  9212 layer_factory.hpp:77] Creating layer inception_3b/output
I0403 19:25:13.056368  9212 net.cpp:91] Creating Layer inception_3b/output
I0403 19:25:13.056391  9212 net.cpp:425] inception_3b/output <- inception_3b/1x1
I0403 19:25:13.056417  9212 net.cpp:425] inception_3b/output <- inception_3b/3x3
I0403 19:25:13.056435  9212 net.cpp:425] inception_3b/output <- inception_3b/5x5
I0403 19:25:13.056506  9212 net.cpp:425] inception_3b/output <- inception_3b/pool_proj
I0403 19:25:13.056535  9212 net.cpp:399] inception_3b/output -> inception_3b/output
I0403 19:25:13.056589  9212 net.cpp:141] Setting up inception_3b/output
I0403 19:25:13.056622  9212 net.cpp:148] Top shape: 24 480 28 28 (9031680)
I0403 19:25:13.056643  9212 net.cpp:156] Memory required for data: 809239584
I0403 19:25:13.056660  9212 layer_factory.hpp:77] Creating layer pool3/3x3_s2
I0403 19:25:13.056681  9212 net.cpp:91] Creating Layer pool3/3x3_s2
I0403 19:25:13.056697  9212 net.cpp:425] pool3/3x3_s2 <- inception_3b/output
I0403 19:25:13.056726  9212 net.cpp:399] pool3/3x3_s2 -> pool3/3x3_s2
I0403 19:25:13.056808  9212 net.cpp:141] Setting up pool3/3x3_s2
I0403 19:25:13.056836  9212 net.cpp:148] Top shape: 24 480 14 14 (2257920)
I0403 19:25:13.056857  9212 net.cpp:156] Memory required for data: 818271264
I0403 19:25:13.056875  9212 layer_factory.hpp:77] Creating layer pool3/3x3_s2_pool3/3x3_s2_0_split
I0403 19:25:13.056893  9212 net.cpp:91] Creating Layer pool3/3x3_s2_pool3/3x3_s2_0_split
I0403 19:25:13.056918  9212 net.cpp:425] pool3/3x3_s2_pool3/3x3_s2_0_split <- pool3/3x3_s2
I0403 19:25:13.056939  9212 net.cpp:399] pool3/3x3_s2_pool3/3x3_s2_0_split -> pool3/3x3_s2_pool3/3x3_s2_0_split_0
I0403 19:25:13.056968  9212 net.cpp:399] pool3/3x3_s2_pool3/3x3_s2_0_split -> pool3/3x3_s2_pool3/3x3_s2_0_split_1
I0403 19:25:13.057000  9212 net.cpp:399] pool3/3x3_s2_pool3/3x3_s2_0_split -> pool3/3x3_s2_pool3/3x3_s2_0_split_2
I0403 19:25:13.057024  9212 net.cpp:399] pool3/3x3_s2_pool3/3x3_s2_0_split -> pool3/3x3_s2_pool3/3x3_s2_0_split_3
I0403 19:25:13.057102  9212 net.cpp:141] Setting up pool3/3x3_s2_pool3/3x3_s2_0_split
I0403 19:25:13.057132  9212 net.cpp:148] Top shape: 24 480 14 14 (2257920)
I0403 19:25:13.057159  9212 net.cpp:148] Top shape: 24 480 14 14 (2257920)
I0403 19:25:13.057180  9212 net.cpp:148] Top shape: 24 480 14 14 (2257920)
I0403 19:25:13.057200  9212 net.cpp:148] Top shape: 24 480 14 14 (2257920)
I0403 19:25:13.057217  9212 net.cpp:156] Memory required for data: 854397984
I0403 19:25:13.057235  9212 layer_factory.hpp:77] Creating layer inception_4a/1x1
I0403 19:25:13.057265  9212 net.cpp:91] Creating Layer inception_4a/1x1
I0403 19:25:13.057297  9212 net.cpp:425] inception_4a/1x1 <- pool3/3x3_s2_pool3/3x3_s2_0_split_0
I0403 19:25:13.057332  9212 net.cpp:399] inception_4a/1x1 -> inception_4a/1x1
I0403 19:25:13.058852  9212 net.cpp:141] Setting up inception_4a/1x1
I0403 19:25:13.058887  9212 net.cpp:148] Top shape: 24 192 14 14 (903168)
I0403 19:25:13.058910  9212 net.cpp:156] Memory required for data: 858010656
I0403 19:25:13.058931  9212 layer_factory.hpp:77] Creating layer inception_4a/relu_1x1
I0403 19:25:13.058954  9212 net.cpp:91] Creating Layer inception_4a/relu_1x1
I0403 19:25:13.058975  9212 net.cpp:425] inception_4a/relu_1x1 <- inception_4a/1x1
I0403 19:25:13.059005  9212 net.cpp:386] inception_4a/relu_1x1 -> inception_4a/1x1 (in-place)
I0403 19:25:13.059183  9212 net.cpp:141] Setting up inception_4a/relu_1x1
I0403 19:25:13.059217  9212 net.cpp:148] Top shape: 24 192 14 14 (903168)
I0403 19:25:13.059242  9212 net.cpp:156] Memory required for data: 861623328
I0403 19:25:13.059263  9212 layer_factory.hpp:77] Creating layer inception_4a/3x3_reduce
I0403 19:25:13.059293  9212 net.cpp:91] Creating Layer inception_4a/3x3_reduce
I0403 19:25:13.059316  9212 net.cpp:425] inception_4a/3x3_reduce <- pool3/3x3_s2_pool3/3x3_s2_0_split_1
I0403 19:25:13.059343  9212 net.cpp:399] inception_4a/3x3_reduce -> inception_4a/3x3_reduce
I0403 19:25:13.060577  9212 net.cpp:141] Setting up inception_4a/3x3_reduce
I0403 19:25:13.060613  9212 net.cpp:148] Top shape: 24 96 14 14 (451584)
I0403 19:25:13.060633  9212 net.cpp:156] Memory required for data: 863429664
I0403 19:25:13.060659  9212 layer_factory.hpp:77] Creating layer inception_4a/relu_3x3_reduce
I0403 19:25:13.060685  9212 net.cpp:91] Creating Layer inception_4a/relu_3x3_reduce
I0403 19:25:13.060706  9212 net.cpp:425] inception_4a/relu_3x3_reduce <- inception_4a/3x3_reduce
I0403 19:25:13.060731  9212 net.cpp:386] inception_4a/relu_3x3_reduce -> inception_4a/3x3_reduce (in-place)
I0403 19:25:13.060904  9212 net.cpp:141] Setting up inception_4a/relu_3x3_reduce
I0403 19:25:13.060935  9212 net.cpp:148] Top shape: 24 96 14 14 (451584)
I0403 19:25:13.060956  9212 net.cpp:156] Memory required for data: 865236000
I0403 19:25:13.060982  9212 layer_factory.hpp:77] Creating layer inception_4a/3x3
I0403 19:25:13.061007  9212 net.cpp:91] Creating Layer inception_4a/3x3
I0403 19:25:13.061028  9212 net.cpp:425] inception_4a/3x3 <- inception_4a/3x3_reduce
I0403 19:25:13.061054  9212 net.cpp:399] inception_4a/3x3 -> inception_4a/3x3
I0403 19:25:13.063659  9212 net.cpp:141] Setting up inception_4a/3x3
I0403 19:25:13.063695  9212 net.cpp:148] Top shape: 24 208 14 14 (978432)
I0403 19:25:13.063714  9212 net.cpp:156] Memory required for data: 869149728
I0403 19:25:13.063740  9212 layer_factory.hpp:77] Creating layer inception_4a/relu_3x3
I0403 19:25:13.063762  9212 net.cpp:91] Creating Layer inception_4a/relu_3x3
I0403 19:25:13.063788  9212 net.cpp:425] inception_4a/relu_3x3 <- inception_4a/3x3
I0403 19:25:13.063815  9212 net.cpp:386] inception_4a/relu_3x3 -> inception_4a/3x3 (in-place)
I0403 19:25:13.064091  9212 net.cpp:141] Setting up inception_4a/relu_3x3
I0403 19:25:13.064127  9212 net.cpp:148] Top shape: 24 208 14 14 (978432)
I0403 19:25:13.064152  9212 net.cpp:156] Memory required for data: 873063456
I0403 19:25:13.064172  9212 layer_factory.hpp:77] Creating layer inception_4a/5x5_reduce
I0403 19:25:13.064199  9212 net.cpp:91] Creating Layer inception_4a/5x5_reduce
I0403 19:25:13.064218  9212 net.cpp:425] inception_4a/5x5_reduce <- pool3/3x3_s2_pool3/3x3_s2_0_split_2
I0403 19:25:13.064249  9212 net.cpp:399] inception_4a/5x5_reduce -> inception_4a/5x5_reduce
I0403 19:25:13.065294  9212 net.cpp:141] Setting up inception_4a/5x5_reduce
I0403 19:25:13.065337  9212 net.cpp:148] Top shape: 24 16 14 14 (75264)
I0403 19:25:13.065361  9212 net.cpp:156] Memory required for data: 873364512
I0403 19:25:13.065398  9212 layer_factory.hpp:77] Creating layer inception_4a/relu_5x5_reduce
I0403 19:25:13.065434  9212 net.cpp:91] Creating Layer inception_4a/relu_5x5_reduce
I0403 19:25:13.065464  9212 net.cpp:425] inception_4a/relu_5x5_reduce <- inception_4a/5x5_reduce
I0403 19:25:13.065491  9212 net.cpp:386] inception_4a/relu_5x5_reduce -> inception_4a/5x5_reduce (in-place)
I0403 19:25:13.065686  9212 net.cpp:141] Setting up inception_4a/relu_5x5_reduce
I0403 19:25:13.065712  9212 net.cpp:148] Top shape: 24 16 14 14 (75264)
I0403 19:25:13.065727  9212 net.cpp:156] Memory required for data: 873665568
I0403 19:25:13.065742  9212 layer_factory.hpp:77] Creating layer inception_4a/5x5
I0403 19:25:13.065767  9212 net.cpp:91] Creating Layer inception_4a/5x5
I0403 19:25:13.065793  9212 net.cpp:425] inception_4a/5x5 <- inception_4a/5x5_reduce
I0403 19:25:13.065819  9212 net.cpp:399] inception_4a/5x5 -> inception_4a/5x5
I0403 19:25:13.066890  9212 net.cpp:141] Setting up inception_4a/5x5
I0403 19:25:13.066925  9212 net.cpp:148] Top shape: 24 48 14 14 (225792)
I0403 19:25:13.066942  9212 net.cpp:156] Memory required for data: 874568736
I0403 19:25:13.066969  9212 layer_factory.hpp:77] Creating layer inception_4a/relu_5x5
I0403 19:25:13.066998  9212 net.cpp:91] Creating Layer inception_4a/relu_5x5
I0403 19:25:13.067023  9212 net.cpp:425] inception_4a/relu_5x5 <- inception_4a/5x5
I0403 19:25:13.067046  9212 net.cpp:386] inception_4a/relu_5x5 -> inception_4a/5x5 (in-place)
I0403 19:25:13.067224  9212 net.cpp:141] Setting up inception_4a/relu_5x5
I0403 19:25:13.067260  9212 net.cpp:148] Top shape: 24 48 14 14 (225792)
I0403 19:25:13.067288  9212 net.cpp:156] Memory required for data: 875471904
I0403 19:25:13.067315  9212 layer_factory.hpp:77] Creating layer inception_4a/pool
I0403 19:25:13.067335  9212 net.cpp:91] Creating Layer inception_4a/pool
I0403 19:25:13.067361  9212 net.cpp:425] inception_4a/pool <- pool3/3x3_s2_pool3/3x3_s2_0_split_3
I0403 19:25:13.067384  9212 net.cpp:399] inception_4a/pool -> inception_4a/pool
I0403 19:25:13.067450  9212 net.cpp:141] Setting up inception_4a/pool
I0403 19:25:13.067499  9212 net.cpp:148] Top shape: 24 480 14 14 (2257920)
I0403 19:25:13.067517  9212 net.cpp:156] Memory required for data: 884503584
I0403 19:25:13.067536  9212 layer_factory.hpp:77] Creating layer inception_4a/pool_proj
I0403 19:25:13.067580  9212 net.cpp:91] Creating Layer inception_4a/pool_proj
I0403 19:25:13.067605  9212 net.cpp:425] inception_4a/pool_proj <- inception_4a/pool
I0403 19:25:13.067625  9212 net.cpp:399] inception_4a/pool_proj -> inception_4a/pool_proj
I0403 19:25:13.068795  9212 net.cpp:141] Setting up inception_4a/pool_proj
I0403 19:25:13.068835  9212 net.cpp:148] Top shape: 24 64 14 14 (301056)
I0403 19:25:13.068871  9212 net.cpp:156] Memory required for data: 885707808
I0403 19:25:13.068892  9212 layer_factory.hpp:77] Creating layer inception_4a/relu_pool_proj
I0403 19:25:13.068918  9212 net.cpp:91] Creating Layer inception_4a/relu_pool_proj
I0403 19:25:13.068940  9212 net.cpp:425] inception_4a/relu_pool_proj <- inception_4a/pool_proj
I0403 19:25:13.068958  9212 net.cpp:386] inception_4a/relu_pool_proj -> inception_4a/pool_proj (in-place)
I0403 19:25:13.069242  9212 net.cpp:141] Setting up inception_4a/relu_pool_proj
I0403 19:25:13.069288  9212 net.cpp:148] Top shape: 24 64 14 14 (301056)
I0403 19:25:13.069310  9212 net.cpp:156] Memory required for data: 886912032
I0403 19:25:13.069329  9212 layer_factory.hpp:77] Creating layer inception_4a/output
I0403 19:25:13.069349  9212 net.cpp:91] Creating Layer inception_4a/output
I0403 19:25:13.069370  9212 net.cpp:425] inception_4a/output <- inception_4a/1x1
I0403 19:25:13.069396  9212 net.cpp:425] inception_4a/output <- inception_4a/3x3
I0403 19:25:13.069416  9212 net.cpp:425] inception_4a/output <- inception_4a/5x5
I0403 19:25:13.069435  9212 net.cpp:425] inception_4a/output <- inception_4a/pool_proj
I0403 19:25:13.069464  9212 net.cpp:399] inception_4a/output -> inception_4a/output
I0403 19:25:13.069520  9212 net.cpp:141] Setting up inception_4a/output
I0403 19:25:13.069545  9212 net.cpp:148] Top shape: 24 512 14 14 (2408448)
I0403 19:25:13.069561  9212 net.cpp:156] Memory required for data: 896545824
I0403 19:25:13.069593  9212 layer_factory.hpp:77] Creating layer inception_4a/output_inception_4a/output_0_split
I0403 19:25:13.069615  9212 net.cpp:91] Creating Layer inception_4a/output_inception_4a/output_0_split
I0403 19:25:13.069639  9212 net.cpp:425] inception_4a/output_inception_4a/output_0_split <- inception_4a/output
I0403 19:25:13.069658  9212 net.cpp:399] inception_4a/output_inception_4a/output_0_split -> inception_4a/output_inception_4a/output_0_split_0
I0403 19:25:13.069684  9212 net.cpp:399] inception_4a/output_inception_4a/output_0_split -> inception_4a/output_inception_4a/output_0_split_1
I0403 19:25:13.069705  9212 net.cpp:399] inception_4a/output_inception_4a/output_0_split -> inception_4a/output_inception_4a/output_0_split_2
I0403 19:25:13.069730  9212 net.cpp:399] inception_4a/output_inception_4a/output_0_split -> inception_4a/output_inception_4a/output_0_split_3
I0403 19:25:13.069752  9212 net.cpp:399] inception_4a/output_inception_4a/output_0_split -> inception_4a/output_inception_4a/output_0_split_4
I0403 19:25:13.069849  9212 net.cpp:141] Setting up inception_4a/output_inception_4a/output_0_split
I0403 19:25:13.069877  9212 net.cpp:148] Top shape: 24 512 14 14 (2408448)
I0403 19:25:13.069895  9212 net.cpp:148] Top shape: 24 512 14 14 (2408448)
I0403 19:25:13.069918  9212 net.cpp:148] Top shape: 24 512 14 14 (2408448)
I0403 19:25:13.069937  9212 net.cpp:148] Top shape: 24 512 14 14 (2408448)
I0403 19:25:13.069962  9212 net.cpp:148] Top shape: 24 512 14 14 (2408448)
I0403 19:25:13.069980  9212 net.cpp:156] Memory required for data: 944714784
I0403 19:25:13.069996  9212 layer_factory.hpp:77] Creating layer loss1/ave_pool
I0403 19:25:13.070021  9212 net.cpp:91] Creating Layer loss1/ave_pool
I0403 19:25:13.070040  9212 net.cpp:425] loss1/ave_pool <- inception_4a/output_inception_4a/output_0_split_0
I0403 19:25:13.070065  9212 net.cpp:399] loss1/ave_pool -> loss1/ave_pool
I0403 19:25:13.070266  9212 net.cpp:141] Setting up loss1/ave_pool
I0403 19:25:13.070293  9212 net.cpp:148] Top shape: 24 512 4 4 (196608)
I0403 19:25:13.070312  9212 net.cpp:156] Memory required for data: 945501216
I0403 19:25:13.070330  9212 layer_factory.hpp:77] Creating layer loss1/conv
I0403 19:25:13.070358  9212 net.cpp:91] Creating Layer loss1/conv
I0403 19:25:13.070384  9212 net.cpp:425] loss1/conv <- loss1/ave_pool
I0403 19:25:13.070405  9212 net.cpp:399] loss1/conv -> loss1/conv
I0403 19:25:13.071779  9212 net.cpp:141] Setting up loss1/conv
I0403 19:25:13.071810  9212 net.cpp:148] Top shape: 24 128 4 4 (49152)
I0403 19:25:13.071830  9212 net.cpp:156] Memory required for data: 945697824
I0403 19:25:13.071867  9212 layer_factory.hpp:77] Creating layer loss1/relu_conv
I0403 19:25:13.071893  9212 net.cpp:91] Creating Layer loss1/relu_conv
I0403 19:25:13.071920  9212 net.cpp:425] loss1/relu_conv <- loss1/conv
I0403 19:25:13.071943  9212 net.cpp:386] loss1/relu_conv -> loss1/conv (in-place)
I0403 19:25:13.072224  9212 net.cpp:141] Setting up loss1/relu_conv
I0403 19:25:13.072254  9212 net.cpp:148] Top shape: 24 128 4 4 (49152)
I0403 19:25:13.072270  9212 net.cpp:156] Memory required for data: 945894432
I0403 19:25:13.072290  9212 layer_factory.hpp:77] Creating layer loss1/fc
I0403 19:25:13.072321  9212 net.cpp:91] Creating Layer loss1/fc
I0403 19:25:13.072343  9212 net.cpp:425] loss1/fc <- loss1/conv
I0403 19:25:13.072371  9212 net.cpp:399] loss1/fc -> loss1/fc
I0403 19:25:13.089880  9212 net.cpp:141] Setting up loss1/fc
I0403 19:25:13.089922  9212 net.cpp:148] Top shape: 24 1024 (24576)
I0403 19:25:13.089946  9212 net.cpp:156] Memory required for data: 945992736
I0403 19:25:13.089965  9212 layer_factory.hpp:77] Creating layer loss1/relu_fc
I0403 19:25:13.089987  9212 net.cpp:91] Creating Layer loss1/relu_fc
I0403 19:25:13.090003  9212 net.cpp:425] loss1/relu_fc <- loss1/fc
I0403 19:25:13.090020  9212 net.cpp:386] loss1/relu_fc -> loss1/fc (in-place)
I0403 19:25:13.090204  9212 net.cpp:141] Setting up loss1/relu_fc
I0403 19:25:13.090231  9212 net.cpp:148] Top shape: 24 1024 (24576)
I0403 19:25:13.090255  9212 net.cpp:156] Memory required for data: 946091040
I0403 19:25:13.090277  9212 layer_factory.hpp:77] Creating layer loss1/drop_fc
I0403 19:25:13.090304  9212 net.cpp:91] Creating Layer loss1/drop_fc
I0403 19:25:13.090328  9212 net.cpp:425] loss1/drop_fc <- loss1/fc
I0403 19:25:13.090349  9212 net.cpp:386] loss1/drop_fc -> loss1/fc (in-place)
I0403 19:25:13.090405  9212 net.cpp:141] Setting up loss1/drop_fc
I0403 19:25:13.090432  9212 net.cpp:148] Top shape: 24 1024 (24576)
I0403 19:25:13.090447  9212 net.cpp:156] Memory required for data: 946189344
I0403 19:25:13.090468  9212 layer_factory.hpp:77] Creating layer loss1/classifier_plantvillage
I0403 19:25:13.090508  9212 net.cpp:91] Creating Layer loss1/classifier_plantvillage
I0403 19:25:13.090526  9212 net.cpp:425] loss1/classifier_plantvillage <- loss1/fc
I0403 19:25:13.090546  9212 net.cpp:399] loss1/classifier_plantvillage -> loss1/classifier_plantvillage
I0403 19:25:13.091439  9212 net.cpp:141] Setting up loss1/classifier_plantvillage
I0403 19:25:13.091472  9212 net.cpp:148] Top shape: 24 38 (912)
I0403 19:25:13.091490  9212 net.cpp:156] Memory required for data: 946192992
I0403 19:25:13.091508  9212 layer_factory.hpp:77] Creating layer loss1/classifier_plantvillage_loss1/classifier_plantvillage_0_split
I0403 19:25:13.091527  9212 net.cpp:91] Creating Layer loss1/classifier_plantvillage_loss1/classifier_plantvillage_0_split
I0403 19:25:13.091544  9212 net.cpp:425] loss1/classifier_plantvillage_loss1/classifier_plantvillage_0_split <- loss1/classifier_plantvillage
I0403 19:25:13.091563  9212 net.cpp:399] loss1/classifier_plantvillage_loss1/classifier_plantvillage_0_split -> loss1/classifier_plantvillage_loss1/classifier_plantvillage_0_split_0
I0403 19:25:13.091584  9212 net.cpp:399] loss1/classifier_plantvillage_loss1/classifier_plantvillage_0_split -> loss1/classifier_plantvillage_loss1/classifier_plantvillage_0_split_1
I0403 19:25:13.091603  9212 net.cpp:399] loss1/classifier_plantvillage_loss1/classifier_plantvillage_0_split -> loss1/classifier_plantvillage_loss1/classifier_plantvillage_0_split_2
I0403 19:25:13.091667  9212 net.cpp:141] Setting up loss1/classifier_plantvillage_loss1/classifier_plantvillage_0_split
I0403 19:25:13.091688  9212 net.cpp:148] Top shape: 24 38 (912)
I0403 19:25:13.091704  9212 net.cpp:148] Top shape: 24 38 (912)
I0403 19:25:13.091719  9212 net.cpp:148] Top shape: 24 38 (912)
I0403 19:25:13.091733  9212 net.cpp:156] Memory required for data: 946203936
I0403 19:25:13.091747  9212 layer_factory.hpp:77] Creating layer inception_4b/1x1
I0403 19:25:13.091769  9212 net.cpp:91] Creating Layer inception_4b/1x1
I0403 19:25:13.091799  9212 net.cpp:425] inception_4b/1x1 <- inception_4a/output_inception_4a/output_0_split_1
I0403 19:25:13.091820  9212 net.cpp:399] inception_4b/1x1 -> inception_4b/1x1
I0403 19:25:13.093433  9212 net.cpp:141] Setting up inception_4b/1x1
I0403 19:25:13.093467  9212 net.cpp:148] Top shape: 24 160 14 14 (752640)
I0403 19:25:13.093485  9212 net.cpp:156] Memory required for data: 949214496
I0403 19:25:13.093505  9212 layer_factory.hpp:77] Creating layer inception_4b/relu_1x1
I0403 19:25:13.093525  9212 net.cpp:91] Creating Layer inception_4b/relu_1x1
I0403 19:25:13.093543  9212 net.cpp:425] inception_4b/relu_1x1 <- inception_4b/1x1
I0403 19:25:13.093559  9212 net.cpp:386] inception_4b/relu_1x1 -> inception_4b/1x1 (in-place)
I0403 19:25:13.093744  9212 net.cpp:141] Setting up inception_4b/relu_1x1
I0403 19:25:13.093768  9212 net.cpp:148] Top shape: 24 160 14 14 (752640)
I0403 19:25:13.093782  9212 net.cpp:156] Memory required for data: 952225056
I0403 19:25:13.093797  9212 layer_factory.hpp:77] Creating layer inception_4b/3x3_reduce
I0403 19:25:13.093819  9212 net.cpp:91] Creating Layer inception_4b/3x3_reduce
I0403 19:25:13.093837  9212 net.cpp:425] inception_4b/3x3_reduce <- inception_4a/output_inception_4a/output_0_split_2
I0403 19:25:13.093855  9212 net.cpp:399] inception_4b/3x3_reduce -> inception_4b/3x3_reduce
I0403 19:25:13.095201  9212 net.cpp:141] Setting up inception_4b/3x3_reduce
I0403 19:25:13.095227  9212 net.cpp:148] Top shape: 24 112 14 14 (526848)
I0403 19:25:13.095242  9212 net.cpp:156] Memory required for data: 954332448
I0403 19:25:13.095259  9212 layer_factory.hpp:77] Creating layer inception_4b/relu_3x3_reduce
I0403 19:25:13.095279  9212 net.cpp:91] Creating Layer inception_4b/relu_3x3_reduce
I0403 19:25:13.095296  9212 net.cpp:425] inception_4b/relu_3x3_reduce <- inception_4b/3x3_reduce
I0403 19:25:13.095312  9212 net.cpp:386] inception_4b/relu_3x3_reduce -> inception_4b/3x3_reduce (in-place)
I0403 19:25:13.095595  9212 net.cpp:141] Setting up inception_4b/relu_3x3_reduce
I0403 19:25:13.095620  9212 net.cpp:148] Top shape: 24 112 14 14 (526848)
I0403 19:25:13.095635  9212 net.cpp:156] Memory required for data: 956439840
I0403 19:25:13.095650  9212 layer_factory.hpp:77] Creating layer inception_4b/3x3
I0403 19:25:13.095672  9212 net.cpp:91] Creating Layer inception_4b/3x3
I0403 19:25:13.095690  9212 net.cpp:425] inception_4b/3x3 <- inception_4b/3x3_reduce
I0403 19:25:13.095710  9212 net.cpp:399] inception_4b/3x3 -> inception_4b/3x3
I0403 19:25:13.098659  9212 net.cpp:141] Setting up inception_4b/3x3
I0403 19:25:13.098690  9212 net.cpp:148] Top shape: 24 224 14 14 (1053696)
I0403 19:25:13.098704  9212 net.cpp:156] Memory required for data: 960654624
I0403 19:25:13.098722  9212 layer_factory.hpp:77] Creating layer inception_4b/relu_3x3
I0403 19:25:13.098740  9212 net.cpp:91] Creating Layer inception_4b/relu_3x3
I0403 19:25:13.098757  9212 net.cpp:425] inception_4b/relu_3x3 <- inception_4b/3x3
I0403 19:25:13.098778  9212 net.cpp:386] inception_4b/relu_3x3 -> inception_4b/3x3 (in-place)
I0403 19:25:13.098951  9212 net.cpp:141] Setting up inception_4b/relu_3x3
I0403 19:25:13.098975  9212 net.cpp:148] Top shape: 24 224 14 14 (1053696)
I0403 19:25:13.098990  9212 net.cpp:156] Memory required for data: 964869408
I0403 19:25:13.099005  9212 layer_factory.hpp:77] Creating layer inception_4b/5x5_reduce
I0403 19:25:13.099028  9212 net.cpp:91] Creating Layer inception_4b/5x5_reduce
I0403 19:25:13.099045  9212 net.cpp:425] inception_4b/5x5_reduce <- inception_4a/output_inception_4a/output_0_split_3
I0403 19:25:13.099067  9212 net.cpp:399] inception_4b/5x5_reduce -> inception_4b/5x5_reduce
I0403 19:25:13.100126  9212 net.cpp:141] Setting up inception_4b/5x5_reduce
I0403 19:25:13.100153  9212 net.cpp:148] Top shape: 24 24 14 14 (112896)
I0403 19:25:13.100168  9212 net.cpp:156] Memory required for data: 965320992
I0403 19:25:13.100188  9212 layer_factory.hpp:77] Creating layer inception_4b/relu_5x5_reduce
I0403 19:25:13.100214  9212 net.cpp:91] Creating Layer inception_4b/relu_5x5_reduce
I0403 19:25:13.100244  9212 net.cpp:425] inception_4b/relu_5x5_reduce <- inception_4b/5x5_reduce
I0403 19:25:13.100262  9212 net.cpp:386] inception_4b/relu_5x5_reduce -> inception_4b/5x5_reduce (in-place)
I0403 19:25:13.100437  9212 net.cpp:141] Setting up inception_4b/relu_5x5_reduce
I0403 19:25:13.100468  9212 net.cpp:148] Top shape: 24 24 14 14 (112896)
I0403 19:25:13.100484  9212 net.cpp:156] Memory required for data: 965772576
I0403 19:25:13.100498  9212 layer_factory.hpp:77] Creating layer inception_4b/5x5
I0403 19:25:13.100528  9212 net.cpp:91] Creating Layer inception_4b/5x5
I0403 19:25:13.100546  9212 net.cpp:425] inception_4b/5x5 <- inception_4b/5x5_reduce
I0403 19:25:13.100565  9212 net.cpp:399] inception_4b/5x5 -> inception_4b/5x5
I0403 19:25:13.101790  9212 net.cpp:141] Setting up inception_4b/5x5
I0403 19:25:13.101816  9212 net.cpp:148] Top shape: 24 64 14 14 (301056)
I0403 19:25:13.101831  9212 net.cpp:156] Memory required for data: 966976800
I0403 19:25:13.101850  9212 layer_factory.hpp:77] Creating layer inception_4b/relu_5x5
I0403 19:25:13.101871  9212 net.cpp:91] Creating Layer inception_4b/relu_5x5
I0403 19:25:13.101886  9212 net.cpp:425] inception_4b/relu_5x5 <- inception_4b/5x5
I0403 19:25:13.101903  9212 net.cpp:386] inception_4b/relu_5x5 -> inception_4b/5x5 (in-place)
I0403 19:25:13.102195  9212 net.cpp:141] Setting up inception_4b/relu_5x5
I0403 19:25:13.102221  9212 net.cpp:148] Top shape: 24 64 14 14 (301056)
I0403 19:25:13.102236  9212 net.cpp:156] Memory required for data: 968181024
I0403 19:25:13.102252  9212 layer_factory.hpp:77] Creating layer inception_4b/pool
I0403 19:25:13.102270  9212 net.cpp:91] Creating Layer inception_4b/pool
I0403 19:25:13.102286  9212 net.cpp:425] inception_4b/pool <- inception_4a/output_inception_4a/output_0_split_4
I0403 19:25:13.102308  9212 net.cpp:399] inception_4b/pool -> inception_4b/pool
I0403 19:25:13.102385  9212 net.cpp:141] Setting up inception_4b/pool
I0403 19:25:13.102412  9212 net.cpp:148] Top shape: 24 512 14 14 (2408448)
I0403 19:25:13.102427  9212 net.cpp:156] Memory required for data: 977814816
I0403 19:25:13.102440  9212 layer_factory.hpp:77] Creating layer inception_4b/pool_proj
I0403 19:25:13.102473  9212 net.cpp:91] Creating Layer inception_4b/pool_proj
I0403 19:25:13.102491  9212 net.cpp:425] inception_4b/pool_proj <- inception_4b/pool
I0403 19:25:13.102512  9212 net.cpp:399] inception_4b/pool_proj -> inception_4b/pool_proj
I0403 19:25:13.103675  9212 net.cpp:141] Setting up inception_4b/pool_proj
I0403 19:25:13.103703  9212 net.cpp:148] Top shape: 24 64 14 14 (301056)
I0403 19:25:13.103718  9212 net.cpp:156] Memory required for data: 979019040
I0403 19:25:13.103736  9212 layer_factory.hpp:77] Creating layer inception_4b/relu_pool_proj
I0403 19:25:13.103757  9212 net.cpp:91] Creating Layer inception_4b/relu_pool_proj
I0403 19:25:13.103775  9212 net.cpp:425] inception_4b/relu_pool_proj <- inception_4b/pool_proj
I0403 19:25:13.103791  9212 net.cpp:386] inception_4b/relu_pool_proj -> inception_4b/pool_proj (in-place)
I0403 19:25:13.103970  9212 net.cpp:141] Setting up inception_4b/relu_pool_proj
I0403 19:25:13.103992  9212 net.cpp:148] Top shape: 24 64 14 14 (301056)
I0403 19:25:13.104007  9212 net.cpp:156] Memory required for data: 980223264
I0403 19:25:13.104022  9212 layer_factory.hpp:77] Creating layer inception_4b/output
I0403 19:25:13.104049  9212 net.cpp:91] Creating Layer inception_4b/output
I0403 19:25:13.104066  9212 net.cpp:425] inception_4b/output <- inception_4b/1x1
I0403 19:25:13.104084  9212 net.cpp:425] inception_4b/output <- inception_4b/3x3
I0403 19:25:13.104100  9212 net.cpp:425] inception_4b/output <- inception_4b/5x5
I0403 19:25:13.104115  9212 net.cpp:425] inception_4b/output <- inception_4b/pool_proj
I0403 19:25:13.104131  9212 net.cpp:399] inception_4b/output -> inception_4b/output
I0403 19:25:13.104177  9212 net.cpp:141] Setting up inception_4b/output
I0403 19:25:13.104199  9212 net.cpp:148] Top shape: 24 512 14 14 (2408448)
I0403 19:25:13.104213  9212 net.cpp:156] Memory required for data: 989857056
I0403 19:25:13.104240  9212 layer_factory.hpp:77] Creating layer inception_4b/output_inception_4b/output_0_split
I0403 19:25:13.104259  9212 net.cpp:91] Creating Layer inception_4b/output_inception_4b/output_0_split
I0403 19:25:13.104272  9212 net.cpp:425] inception_4b/output_inception_4b/output_0_split <- inception_4b/output
I0403 19:25:13.104291  9212 net.cpp:399] inception_4b/output_inception_4b/output_0_split -> inception_4b/output_inception_4b/output_0_split_0
I0403 19:25:13.104313  9212 net.cpp:399] inception_4b/output_inception_4b/output_0_split -> inception_4b/output_inception_4b/output_0_split_1
I0403 19:25:13.104334  9212 net.cpp:399] inception_4b/output_inception_4b/output_0_split -> inception_4b/output_inception_4b/output_0_split_2
I0403 19:25:13.104354  9212 net.cpp:399] inception_4b/output_inception_4b/output_0_split -> inception_4b/output_inception_4b/output_0_split_3
I0403 19:25:13.104437  9212 net.cpp:141] Setting up inception_4b/output_inception_4b/output_0_split
I0403 19:25:13.104463  9212 net.cpp:148] Top shape: 24 512 14 14 (2408448)
I0403 19:25:13.104480  9212 net.cpp:148] Top shape: 24 512 14 14 (2408448)
I0403 19:25:13.104495  9212 net.cpp:148] Top shape: 24 512 14 14 (2408448)
I0403 19:25:13.113440  9212 net.cpp:148] Top shape: 24 512 14 14 (2408448)
I0403 19:25:13.113456  9212 net.cpp:156] Memory required for data: 1028392224
I0403 19:25:13.113487  9212 layer_factory.hpp:77] Creating layer inception_4c/1x1
I0403 19:25:13.113528  9212 net.cpp:91] Creating Layer inception_4c/1x1
I0403 19:25:13.113553  9212 net.cpp:425] inception_4c/1x1 <- inception_4b/output_inception_4b/output_0_split_0
I0403 19:25:13.113575  9212 net.cpp:399] inception_4c/1x1 -> inception_4c/1x1
I0403 19:25:13.115010  9212 net.cpp:141] Setting up inception_4c/1x1
I0403 19:25:13.115036  9212 net.cpp:148] Top shape: 24 128 14 14 (602112)
I0403 19:25:13.115051  9212 net.cpp:156] Memory required for data: 1030800672
I0403 19:25:13.115075  9212 layer_factory.hpp:77] Creating layer inception_4c/relu_1x1
I0403 19:25:13.115097  9212 net.cpp:91] Creating Layer inception_4c/relu_1x1
I0403 19:25:13.115113  9212 net.cpp:425] inception_4c/relu_1x1 <- inception_4c/1x1
I0403 19:25:13.115129  9212 net.cpp:386] inception_4c/relu_1x1 -> inception_4c/1x1 (in-place)
I0403 19:25:13.115309  9212 net.cpp:141] Setting up inception_4c/relu_1x1
I0403 19:25:13.115334  9212 net.cpp:148] Top shape: 24 128 14 14 (602112)
I0403 19:25:13.115348  9212 net.cpp:156] Memory required for data: 1033209120
I0403 19:25:13.115363  9212 layer_factory.hpp:77] Creating layer inception_4c/3x3_reduce
I0403 19:25:13.115386  9212 net.cpp:91] Creating Layer inception_4c/3x3_reduce
I0403 19:25:13.115402  9212 net.cpp:425] inception_4c/3x3_reduce <- inception_4b/output_inception_4b/output_0_split_1
I0403 19:25:13.115423  9212 net.cpp:399] inception_4c/3x3_reduce -> inception_4c/3x3_reduce
I0403 19:25:13.117316  9212 net.cpp:141] Setting up inception_4c/3x3_reduce
I0403 19:25:13.117344  9212 net.cpp:148] Top shape: 24 128 14 14 (602112)
I0403 19:25:13.117358  9212 net.cpp:156] Memory required for data: 1035617568
I0403 19:25:13.117377  9212 layer_factory.hpp:77] Creating layer inception_4c/relu_3x3_reduce
I0403 19:25:13.117393  9212 net.cpp:91] Creating Layer inception_4c/relu_3x3_reduce
I0403 19:25:13.117408  9212 net.cpp:425] inception_4c/relu_3x3_reduce <- inception_4c/3x3_reduce
I0403 19:25:13.117427  9212 net.cpp:386] inception_4c/relu_3x3_reduce -> inception_4c/3x3_reduce (in-place)
I0403 19:25:13.117807  9212 net.cpp:141] Setting up inception_4c/relu_3x3_reduce
I0403 19:25:13.117833  9212 net.cpp:148] Top shape: 24 128 14 14 (602112)
I0403 19:25:13.117849  9212 net.cpp:156] Memory required for data: 1038026016
I0403 19:25:13.117864  9212 layer_factory.hpp:77] Creating layer inception_4c/3x3
I0403 19:25:13.117887  9212 net.cpp:91] Creating Layer inception_4c/3x3
I0403 19:25:13.117903  9212 net.cpp:425] inception_4c/3x3 <- inception_4c/3x3_reduce
I0403 19:25:13.117924  9212 net.cpp:399] inception_4c/3x3 -> inception_4c/3x3
I0403 19:25:13.121410  9212 net.cpp:141] Setting up inception_4c/3x3
I0403 19:25:13.121450  9212 net.cpp:148] Top shape: 24 256 14 14 (1204224)
I0403 19:25:13.121472  9212 net.cpp:156] Memory required for data: 1042842912
I0403 19:25:13.121516  9212 layer_factory.hpp:77] Creating layer inception_4c/relu_3x3
I0403 19:25:13.121541  9212 net.cpp:91] Creating Layer inception_4c/relu_3x3
I0403 19:25:13.121558  9212 net.cpp:425] inception_4c/relu_3x3 <- inception_4c/3x3
I0403 19:25:13.121577  9212 net.cpp:386] inception_4c/relu_3x3 -> inception_4c/3x3 (in-place)
I0403 19:25:13.121760  9212 net.cpp:141] Setting up inception_4c/relu_3x3
I0403 19:25:13.121799  9212 net.cpp:148] Top shape: 24 256 14 14 (1204224)
I0403 19:25:13.121814  9212 net.cpp:156] Memory required for data: 1047659808
I0403 19:25:13.121829  9212 layer_factory.hpp:77] Creating layer inception_4c/5x5_reduce
I0403 19:25:13.121851  9212 net.cpp:91] Creating Layer inception_4c/5x5_reduce
I0403 19:25:13.121868  9212 net.cpp:425] inception_4c/5x5_reduce <- inception_4b/output_inception_4b/output_0_split_2
I0403 19:25:13.121891  9212 net.cpp:399] inception_4c/5x5_reduce -> inception_4c/5x5_reduce
I0403 19:25:13.122974  9212 net.cpp:141] Setting up inception_4c/5x5_reduce
I0403 19:25:13.123002  9212 net.cpp:148] Top shape: 24 24 14 14 (112896)
I0403 19:25:13.123015  9212 net.cpp:156] Memory required for data: 1048111392
I0403 19:25:13.123034  9212 layer_factory.hpp:77] Creating layer inception_4c/relu_5x5_reduce
I0403 19:25:13.123054  9212 net.cpp:91] Creating Layer inception_4c/relu_5x5_reduce
I0403 19:25:13.123070  9212 net.cpp:425] inception_4c/relu_5x5_reduce <- inception_4c/5x5_reduce
I0403 19:25:13.123088  9212 net.cpp:386] inception_4c/relu_5x5_reduce -> inception_4c/5x5_reduce (in-place)
I0403 19:25:13.123267  9212 net.cpp:141] Setting up inception_4c/relu_5x5_reduce
I0403 19:25:13.123294  9212 net.cpp:148] Top shape: 24 24 14 14 (112896)
I0403 19:25:13.123309  9212 net.cpp:156] Memory required for data: 1048562976
I0403 19:25:13.123324  9212 layer_factory.hpp:77] Creating layer inception_4c/5x5
I0403 19:25:13.123344  9212 net.cpp:91] Creating Layer inception_4c/5x5
I0403 19:25:13.123360  9212 net.cpp:425] inception_4c/5x5 <- inception_4c/5x5_reduce
I0403 19:25:13.123381  9212 net.cpp:399] inception_4c/5x5 -> inception_4c/5x5
I0403 19:25:13.124603  9212 net.cpp:141] Setting up inception_4c/5x5
I0403 19:25:13.124630  9212 net.cpp:148] Top shape: 24 64 14 14 (301056)
I0403 19:25:13.124646  9212 net.cpp:156] Memory required for data: 1049767200
I0403 19:25:13.124665  9212 layer_factory.hpp:77] Creating layer inception_4c/relu_5x5
I0403 19:25:13.124685  9212 net.cpp:91] Creating Layer inception_4c/relu_5x5
I0403 19:25:13.124701  9212 net.cpp:425] inception_4c/relu_5x5 <- inception_4c/5x5
I0403 19:25:13.124719  9212 net.cpp:386] inception_4c/relu_5x5 -> inception_4c/5x5 (in-place)
I0403 19:25:13.125000  9212 net.cpp:141] Setting up inception_4c/relu_5x5
I0403 19:25:13.125025  9212 net.cpp:148] Top shape: 24 64 14 14 (301056)
I0403 19:25:13.125038  9212 net.cpp:156] Memory required for data: 1050971424
I0403 19:25:13.125053  9212 layer_factory.hpp:77] Creating layer inception_4c/pool
I0403 19:25:13.125073  9212 net.cpp:91] Creating Layer inception_4c/pool
I0403 19:25:13.125092  9212 net.cpp:425] inception_4c/pool <- inception_4b/output_inception_4b/output_0_split_3
I0403 19:25:13.125110  9212 net.cpp:399] inception_4c/pool -> inception_4c/pool
I0403 19:25:13.125175  9212 net.cpp:141] Setting up inception_4c/pool
I0403 19:25:13.125198  9212 net.cpp:148] Top shape: 24 512 14 14 (2408448)
I0403 19:25:13.125213  9212 net.cpp:156] Memory required for data: 1060605216
I0403 19:25:13.125228  9212 layer_factory.hpp:77] Creating layer inception_4c/pool_proj
I0403 19:25:13.125250  9212 net.cpp:91] Creating Layer inception_4c/pool_proj
I0403 19:25:13.125267  9212 net.cpp:425] inception_4c/pool_proj <- inception_4c/pool
I0403 19:25:13.125290  9212 net.cpp:399] inception_4c/pool_proj -> inception_4c/pool_proj
I0403 19:25:13.126528  9212 net.cpp:141] Setting up inception_4c/pool_proj
I0403 19:25:13.126555  9212 net.cpp:148] Top shape: 24 64 14 14 (301056)
I0403 19:25:13.126585  9212 net.cpp:156] Memory required for data: 1061809440
I0403 19:25:13.126605  9212 layer_factory.hpp:77] Creating layer inception_4c/relu_pool_proj
I0403 19:25:13.126626  9212 net.cpp:91] Creating Layer inception_4c/relu_pool_proj
I0403 19:25:13.126642  9212 net.cpp:425] inception_4c/relu_pool_proj <- inception_4c/pool_proj
I0403 19:25:13.126659  9212 net.cpp:386] inception_4c/relu_pool_proj -> inception_4c/pool_proj (in-place)
I0403 19:25:13.126840  9212 net.cpp:141] Setting up inception_4c/relu_pool_proj
I0403 19:25:13.126864  9212 net.cpp:148] Top shape: 24 64 14 14 (301056)
I0403 19:25:13.126879  9212 net.cpp:156] Memory required for data: 1063013664
I0403 19:25:13.126893  9212 layer_factory.hpp:77] Creating layer inception_4c/output
I0403 19:25:13.126912  9212 net.cpp:91] Creating Layer inception_4c/output
I0403 19:25:13.126929  9212 net.cpp:425] inception_4c/output <- inception_4c/1x1
I0403 19:25:13.126945  9212 net.cpp:425] inception_4c/output <- inception_4c/3x3
I0403 19:25:13.126961  9212 net.cpp:425] inception_4c/output <- inception_4c/5x5
I0403 19:25:13.126976  9212 net.cpp:425] inception_4c/output <- inception_4c/pool_proj
I0403 19:25:13.126992  9212 net.cpp:399] inception_4c/output -> inception_4c/output
I0403 19:25:13.127039  9212 net.cpp:141] Setting up inception_4c/output
I0403 19:25:13.127061  9212 net.cpp:148] Top shape: 24 512 14 14 (2408448)
I0403 19:25:13.127075  9212 net.cpp:156] Memory required for data: 1072647456
I0403 19:25:13.127090  9212 layer_factory.hpp:77] Creating layer inception_4c/output_inception_4c/output_0_split
I0403 19:25:13.127107  9212 net.cpp:91] Creating Layer inception_4c/output_inception_4c/output_0_split
I0403 19:25:13.127122  9212 net.cpp:425] inception_4c/output_inception_4c/output_0_split <- inception_4c/output
I0403 19:25:13.127141  9212 net.cpp:399] inception_4c/output_inception_4c/output_0_split -> inception_4c/output_inception_4c/output_0_split_0
I0403 19:25:13.127161  9212 net.cpp:399] inception_4c/output_inception_4c/output_0_split -> inception_4c/output_inception_4c/output_0_split_1
I0403 19:25:13.127180  9212 net.cpp:399] inception_4c/output_inception_4c/output_0_split -> inception_4c/output_inception_4c/output_0_split_2
I0403 19:25:13.127199  9212 net.cpp:399] inception_4c/output_inception_4c/output_0_split -> inception_4c/output_inception_4c/output_0_split_3
I0403 19:25:13.127284  9212 net.cpp:141] Setting up inception_4c/output_inception_4c/output_0_split
I0403 19:25:13.127308  9212 net.cpp:148] Top shape: 24 512 14 14 (2408448)
I0403 19:25:13.127326  9212 net.cpp:148] Top shape: 24 512 14 14 (2408448)
I0403 19:25:13.127341  9212 net.cpp:148] Top shape: 24 512 14 14 (2408448)
I0403 19:25:13.127357  9212 net.cpp:148] Top shape: 24 512 14 14 (2408448)
I0403 19:25:13.127370  9212 net.cpp:156] Memory required for data: 1111182624
I0403 19:25:13.127385  9212 layer_factory.hpp:77] Creating layer inception_4d/1x1
I0403 19:25:13.127408  9212 net.cpp:91] Creating Layer inception_4d/1x1
I0403 19:25:13.127425  9212 net.cpp:425] inception_4d/1x1 <- inception_4c/output_inception_4c/output_0_split_0
I0403 19:25:13.127445  9212 net.cpp:399] inception_4d/1x1 -> inception_4d/1x1
I0403 19:25:13.128798  9212 net.cpp:141] Setting up inception_4d/1x1
I0403 19:25:13.128826  9212 net.cpp:148] Top shape: 24 112 14 14 (526848)
I0403 19:25:13.128842  9212 net.cpp:156] Memory required for data: 1113290016
I0403 19:25:13.128860  9212 layer_factory.hpp:77] Creating layer inception_4d/relu_1x1
I0403 19:25:13.128877  9212 net.cpp:91] Creating Layer inception_4d/relu_1x1
I0403 19:25:13.128893  9212 net.cpp:425] inception_4d/relu_1x1 <- inception_4d/1x1
I0403 19:25:13.128912  9212 net.cpp:386] inception_4d/relu_1x1 -> inception_4d/1x1 (in-place)
I0403 19:25:13.129091  9212 net.cpp:141] Setting up inception_4d/relu_1x1
I0403 19:25:13.129114  9212 net.cpp:148] Top shape: 24 112 14 14 (526848)
I0403 19:25:13.129128  9212 net.cpp:156] Memory required for data: 1115397408
I0403 19:25:13.129142  9212 layer_factory.hpp:77] Creating layer inception_4d/3x3_reduce
I0403 19:25:13.129178  9212 net.cpp:91] Creating Layer inception_4d/3x3_reduce
I0403 19:25:13.129194  9212 net.cpp:425] inception_4d/3x3_reduce <- inception_4c/output_inception_4c/output_0_split_1
I0403 19:25:13.129215  9212 net.cpp:399] inception_4d/3x3_reduce -> inception_4d/3x3_reduce
I0403 19:25:13.130826  9212 net.cpp:141] Setting up inception_4d/3x3_reduce
I0403 19:25:13.130856  9212 net.cpp:148] Top shape: 24 144 14 14 (677376)
I0403 19:25:13.130872  9212 net.cpp:156] Memory required for data: 1118106912
I0403 19:25:13.130889  9212 layer_factory.hpp:77] Creating layer inception_4d/relu_3x3_reduce
I0403 19:25:13.130908  9212 net.cpp:91] Creating Layer inception_4d/relu_3x3_reduce
I0403 19:25:13.130924  9212 net.cpp:425] inception_4d/relu_3x3_reduce <- inception_4d/3x3_reduce
I0403 19:25:13.130941  9212 net.cpp:386] inception_4d/relu_3x3_reduce -> inception_4d/3x3_reduce (in-place)
I0403 19:25:13.131225  9212 net.cpp:141] Setting up inception_4d/relu_3x3_reduce
I0403 19:25:13.131253  9212 net.cpp:148] Top shape: 24 144 14 14 (677376)
I0403 19:25:13.131270  9212 net.cpp:156] Memory required for data: 1120816416
I0403 19:25:13.131285  9212 layer_factory.hpp:77] Creating layer inception_4d/3x3
I0403 19:25:13.131307  9212 net.cpp:91] Creating Layer inception_4d/3x3
I0403 19:25:13.131325  9212 net.cpp:425] inception_4d/3x3 <- inception_4d/3x3_reduce
I0403 19:25:13.131345  9212 net.cpp:399] inception_4d/3x3 -> inception_4d/3x3
I0403 19:25:13.135535  9212 net.cpp:141] Setting up inception_4d/3x3
I0403 19:25:13.135563  9212 net.cpp:148] Top shape: 24 288 14 14 (1354752)
I0403 19:25:13.135577  9212 net.cpp:156] Memory required for data: 1126235424
I0403 19:25:13.135596  9212 layer_factory.hpp:77] Creating layer inception_4d/relu_3x3
I0403 19:25:13.135613  9212 net.cpp:91] Creating Layer inception_4d/relu_3x3
I0403 19:25:13.135629  9212 net.cpp:425] inception_4d/relu_3x3 <- inception_4d/3x3
I0403 19:25:13.135648  9212 net.cpp:386] inception_4d/relu_3x3 -> inception_4d/3x3 (in-place)
I0403 19:25:13.135825  9212 net.cpp:141] Setting up inception_4d/relu_3x3
I0403 19:25:13.135850  9212 net.cpp:148] Top shape: 24 288 14 14 (1354752)
I0403 19:25:13.135864  9212 net.cpp:156] Memory required for data: 1131654432
I0403 19:25:13.135879  9212 layer_factory.hpp:77] Creating layer inception_4d/5x5_reduce
I0403 19:25:13.135900  9212 net.cpp:91] Creating Layer inception_4d/5x5_reduce
I0403 19:25:13.135918  9212 net.cpp:425] inception_4d/5x5_reduce <- inception_4c/output_inception_4c/output_0_split_2
I0403 19:25:13.135938  9212 net.cpp:399] inception_4d/5x5_reduce -> inception_4d/5x5_reduce
I0403 19:25:13.137053  9212 net.cpp:141] Setting up inception_4d/5x5_reduce
I0403 19:25:13.137084  9212 net.cpp:148] Top shape: 24 32 14 14 (150528)
I0403 19:25:13.137099  9212 net.cpp:156] Memory required for data: 1132256544
I0403 19:25:13.137118  9212 layer_factory.hpp:77] Creating layer inception_4d/relu_5x5_reduce
I0403 19:25:13.137136  9212 net.cpp:91] Creating Layer inception_4d/relu_5x5_reduce
I0403 19:25:13.137152  9212 net.cpp:425] inception_4d/relu_5x5_reduce <- inception_4d/5x5_reduce
I0403 19:25:13.137172  9212 net.cpp:386] inception_4d/relu_5x5_reduce -> inception_4d/5x5_reduce (in-place)
I0403 19:25:13.137356  9212 net.cpp:141] Setting up inception_4d/relu_5x5_reduce
I0403 19:25:13.137382  9212 net.cpp:148] Top shape: 24 32 14 14 (150528)
I0403 19:25:13.137395  9212 net.cpp:156] Memory required for data: 1132858656
I0403 19:25:13.137410  9212 layer_factory.hpp:77] Creating layer inception_4d/5x5
I0403 19:25:13.137433  9212 net.cpp:91] Creating Layer inception_4d/5x5
I0403 19:25:13.137449  9212 net.cpp:425] inception_4d/5x5 <- inception_4d/5x5_reduce
I0403 19:25:13.137476  9212 net.cpp:399] inception_4d/5x5 -> inception_4d/5x5
I0403 19:25:13.138939  9212 net.cpp:141] Setting up inception_4d/5x5
I0403 19:25:13.138967  9212 net.cpp:148] Top shape: 24 64 14 14 (301056)
I0403 19:25:13.138981  9212 net.cpp:156] Memory required for data: 1134062880
I0403 19:25:13.139000  9212 layer_factory.hpp:77] Creating layer inception_4d/relu_5x5
I0403 19:25:13.139037  9212 net.cpp:91] Creating Layer inception_4d/relu_5x5
I0403 19:25:13.139055  9212 net.cpp:425] inception_4d/relu_5x5 <- inception_4d/5x5
I0403 19:25:13.139072  9212 net.cpp:386] inception_4d/relu_5x5 -> inception_4d/5x5 (in-place)
I0403 19:25:13.139364  9212 net.cpp:141] Setting up inception_4d/relu_5x5
I0403 19:25:13.139389  9212 net.cpp:148] Top shape: 24 64 14 14 (301056)
I0403 19:25:13.139405  9212 net.cpp:156] Memory required for data: 1135267104
I0403 19:25:13.139420  9212 layer_factory.hpp:77] Creating layer inception_4d/pool
I0403 19:25:13.139441  9212 net.cpp:91] Creating Layer inception_4d/pool
I0403 19:25:13.139457  9212 net.cpp:425] inception_4d/pool <- inception_4c/output_inception_4c/output_0_split_3
I0403 19:25:13.139483  9212 net.cpp:399] inception_4d/pool -> inception_4d/pool
I0403 19:25:13.139549  9212 net.cpp:141] Setting up inception_4d/pool
I0403 19:25:13.139572  9212 net.cpp:148] Top shape: 24 512 14 14 (2408448)
I0403 19:25:13.139587  9212 net.cpp:156] Memory required for data: 1144900896
I0403 19:25:13.139602  9212 layer_factory.hpp:77] Creating layer inception_4d/pool_proj
I0403 19:25:13.139624  9212 net.cpp:91] Creating Layer inception_4d/pool_proj
I0403 19:25:13.139642  9212 net.cpp:425] inception_4d/pool_proj <- inception_4d/pool
I0403 19:25:13.139663  9212 net.cpp:399] inception_4d/pool_proj -> inception_4d/pool_proj
I0403 19:25:13.141460  9212 net.cpp:141] Setting up inception_4d/pool_proj
I0403 19:25:13.141490  9212 net.cpp:148] Top shape: 24 64 14 14 (301056)
I0403 19:25:13.141520  9212 net.cpp:156] Memory required for data: 1146105120
I0403 19:25:13.141538  9212 layer_factory.hpp:77] Creating layer inception_4d/relu_pool_proj
I0403 19:25:13.141557  9212 net.cpp:91] Creating Layer inception_4d/relu_pool_proj
I0403 19:25:13.141573  9212 net.cpp:425] inception_4d/relu_pool_proj <- inception_4d/pool_proj
I0403 19:25:13.141594  9212 net.cpp:386] inception_4d/relu_pool_proj -> inception_4d/pool_proj (in-place)
I0403 19:25:13.141782  9212 net.cpp:141] Setting up inception_4d/relu_pool_proj
I0403 19:25:13.141820  9212 net.cpp:148] Top shape: 24 64 14 14 (301056)
I0403 19:25:13.141834  9212 net.cpp:156] Memory required for data: 1147309344
I0403 19:25:13.141849  9212 layer_factory.hpp:77] Creating layer inception_4d/output
I0403 19:25:13.141870  9212 net.cpp:91] Creating Layer inception_4d/output
I0403 19:25:13.141885  9212 net.cpp:425] inception_4d/output <- inception_4d/1x1
I0403 19:25:13.141901  9212 net.cpp:425] inception_4d/output <- inception_4d/3x3
I0403 19:25:13.141917  9212 net.cpp:425] inception_4d/output <- inception_4d/5x5
I0403 19:25:13.141933  9212 net.cpp:425] inception_4d/output <- inception_4d/pool_proj
I0403 19:25:13.141952  9212 net.cpp:399] inception_4d/output -> inception_4d/output
I0403 19:25:13.141999  9212 net.cpp:141] Setting up inception_4d/output
I0403 19:25:13.142024  9212 net.cpp:148] Top shape: 24 528 14 14 (2483712)
I0403 19:25:13.142038  9212 net.cpp:156] Memory required for data: 1157244192
I0403 19:25:13.142053  9212 layer_factory.hpp:77] Creating layer inception_4d/output_inception_4d/output_0_split
I0403 19:25:13.142071  9212 net.cpp:91] Creating Layer inception_4d/output_inception_4d/output_0_split
I0403 19:25:13.142086  9212 net.cpp:425] inception_4d/output_inception_4d/output_0_split <- inception_4d/output
I0403 19:25:13.142107  9212 net.cpp:399] inception_4d/output_inception_4d/output_0_split -> inception_4d/output_inception_4d/output_0_split_0
I0403 19:25:13.142127  9212 net.cpp:399] inception_4d/output_inception_4d/output_0_split -> inception_4d/output_inception_4d/output_0_split_1
I0403 19:25:13.142148  9212 net.cpp:399] inception_4d/output_inception_4d/output_0_split -> inception_4d/output_inception_4d/output_0_split_2
I0403 19:25:13.142168  9212 net.cpp:399] inception_4d/output_inception_4d/output_0_split -> inception_4d/output_inception_4d/output_0_split_3
I0403 19:25:13.142187  9212 net.cpp:399] inception_4d/output_inception_4d/output_0_split -> inception_4d/output_inception_4d/output_0_split_4
I0403 19:25:13.142287  9212 net.cpp:141] Setting up inception_4d/output_inception_4d/output_0_split
I0403 19:25:13.142323  9212 net.cpp:148] Top shape: 24 528 14 14 (2483712)
I0403 19:25:13.142343  9212 net.cpp:148] Top shape: 24 528 14 14 (2483712)
I0403 19:25:13.142359  9212 net.cpp:148] Top shape: 24 528 14 14 (2483712)
I0403 19:25:13.142375  9212 net.cpp:148] Top shape: 24 528 14 14 (2483712)
I0403 19:25:13.142390  9212 net.cpp:148] Top shape: 24 528 14 14 (2483712)
I0403 19:25:13.142403  9212 net.cpp:156] Memory required for data: 1206918432
I0403 19:25:13.142419  9212 layer_factory.hpp:77] Creating layer loss2/ave_pool
I0403 19:25:13.142437  9212 net.cpp:91] Creating Layer loss2/ave_pool
I0403 19:25:13.142453  9212 net.cpp:425] loss2/ave_pool <- inception_4d/output_inception_4d/output_0_split_0
I0403 19:25:13.142487  9212 net.cpp:399] loss2/ave_pool -> loss2/ave_pool
I0403 19:25:13.142796  9212 net.cpp:141] Setting up loss2/ave_pool
I0403 19:25:13.142822  9212 net.cpp:148] Top shape: 24 528 4 4 (202752)
I0403 19:25:13.142837  9212 net.cpp:156] Memory required for data: 1207729440
I0403 19:25:13.142851  9212 layer_factory.hpp:77] Creating layer loss2/conv
I0403 19:25:13.142874  9212 net.cpp:91] Creating Layer loss2/conv
I0403 19:25:13.142891  9212 net.cpp:425] loss2/conv <- loss2/ave_pool
I0403 19:25:13.142913  9212 net.cpp:399] loss2/conv -> loss2/conv
I0403 19:25:13.144763  9212 net.cpp:141] Setting up loss2/conv
I0403 19:25:13.144790  9212 net.cpp:148] Top shape: 24 128 4 4 (49152)
I0403 19:25:13.144806  9212 net.cpp:156] Memory required for data: 1207926048
I0403 19:25:13.144825  9212 layer_factory.hpp:77] Creating layer loss2/relu_conv
I0403 19:25:13.144846  9212 net.cpp:91] Creating Layer loss2/relu_conv
I0403 19:25:13.144863  9212 net.cpp:425] loss2/relu_conv <- loss2/conv
I0403 19:25:13.144881  9212 net.cpp:386] loss2/relu_conv -> loss2/conv (in-place)
I0403 19:25:13.145165  9212 net.cpp:141] Setting up loss2/relu_conv
I0403 19:25:13.145192  9212 net.cpp:148] Top shape: 24 128 4 4 (49152)
I0403 19:25:13.145207  9212 net.cpp:156] Memory required for data: 1208122656
I0403 19:25:13.145223  9212 layer_factory.hpp:77] Creating layer loss2/fc
I0403 19:25:13.145244  9212 net.cpp:91] Creating Layer loss2/fc
I0403 19:25:13.145262  9212 net.cpp:425] loss2/fc <- loss2/conv
I0403 19:25:13.145280  9212 net.cpp:399] loss2/fc -> loss2/fc
I0403 19:25:13.162139  9212 net.cpp:141] Setting up loss2/fc
I0403 19:25:13.162171  9212 net.cpp:148] Top shape: 24 1024 (24576)
I0403 19:25:13.162199  9212 net.cpp:156] Memory required for data: 1208220960
I0403 19:25:13.162221  9212 layer_factory.hpp:77] Creating layer loss2/relu_fc
I0403 19:25:13.162240  9212 net.cpp:91] Creating Layer loss2/relu_fc
I0403 19:25:13.162256  9212 net.cpp:425] loss2/relu_fc <- loss2/fc
I0403 19:25:13.162276  9212 net.cpp:386] loss2/relu_fc -> loss2/fc (in-place)
I0403 19:25:13.162588  9212 net.cpp:141] Setting up loss2/relu_fc
I0403 19:25:13.162614  9212 net.cpp:148] Top shape: 24 1024 (24576)
I0403 19:25:13.162629  9212 net.cpp:156] Memory required for data: 1208319264
I0403 19:25:13.162644  9212 layer_factory.hpp:77] Creating layer loss2/drop_fc
I0403 19:25:13.162662  9212 net.cpp:91] Creating Layer loss2/drop_fc
I0403 19:25:13.162678  9212 net.cpp:425] loss2/drop_fc <- loss2/fc
I0403 19:25:13.162696  9212 net.cpp:386] loss2/drop_fc -> loss2/fc (in-place)
I0403 19:25:13.162744  9212 net.cpp:141] Setting up loss2/drop_fc
I0403 19:25:13.162770  9212 net.cpp:148] Top shape: 24 1024 (24576)
I0403 19:25:13.162786  9212 net.cpp:156] Memory required for data: 1208417568
I0403 19:25:13.162799  9212 layer_factory.hpp:77] Creating layer loss2/classifier_plantvillage
I0403 19:25:13.162817  9212 net.cpp:91] Creating Layer loss2/classifier_plantvillage
I0403 19:25:13.162833  9212 net.cpp:425] loss2/classifier_plantvillage <- loss2/fc
I0403 19:25:13.162853  9212 net.cpp:399] loss2/classifier_plantvillage -> loss2/classifier_plantvillage
I0403 19:25:13.163228  9212 net.cpp:141] Setting up loss2/classifier_plantvillage
I0403 19:25:13.163255  9212 net.cpp:148] Top shape: 24 38 (912)
I0403 19:25:13.163271  9212 net.cpp:156] Memory required for data: 1208421216
I0403 19:25:13.163302  9212 layer_factory.hpp:77] Creating layer loss2/classifier_plantvillage_loss2/classifier_plantvillage_0_split
I0403 19:25:13.163321  9212 net.cpp:91] Creating Layer loss2/classifier_plantvillage_loss2/classifier_plantvillage_0_split
I0403 19:25:13.163337  9212 net.cpp:425] loss2/classifier_plantvillage_loss2/classifier_plantvillage_0_split <- loss2/classifier_plantvillage
I0403 19:25:13.163355  9212 net.cpp:399] loss2/classifier_plantvillage_loss2/classifier_plantvillage_0_split -> loss2/classifier_plantvillage_loss2/classifier_plantvillage_0_split_0
I0403 19:25:13.163375  9212 net.cpp:399] loss2/classifier_plantvillage_loss2/classifier_plantvillage_0_split -> loss2/classifier_plantvillage_loss2/classifier_plantvillage_0_split_1
I0403 19:25:13.163399  9212 net.cpp:399] loss2/classifier_plantvillage_loss2/classifier_plantvillage_0_split -> loss2/classifier_plantvillage_loss2/classifier_plantvillage_0_split_2
I0403 19:25:13.163481  9212 net.cpp:141] Setting up loss2/classifier_plantvillage_loss2/classifier_plantvillage_0_split
I0403 19:25:13.163504  9212 net.cpp:148] Top shape: 24 38 (912)
I0403 19:25:13.163521  9212 net.cpp:148] Top shape: 24 38 (912)
I0403 19:25:13.163537  9212 net.cpp:148] Top shape: 24 38 (912)
I0403 19:25:13.163550  9212 net.cpp:156] Memory required for data: 1208432160
I0403 19:25:13.163564  9212 layer_factory.hpp:77] Creating layer inception_4e/1x1
I0403 19:25:13.163584  9212 net.cpp:91] Creating Layer inception_4e/1x1
I0403 19:25:13.163602  9212 net.cpp:425] inception_4e/1x1 <- inception_4d/output_inception_4d/output_0_split_1
I0403 19:25:13.163624  9212 net.cpp:399] inception_4e/1x1 -> inception_4e/1x1
I0403 19:25:13.165419  9212 net.cpp:141] Setting up inception_4e/1x1
I0403 19:25:13.165448  9212 net.cpp:148] Top shape: 24 256 14 14 (1204224)
I0403 19:25:13.165480  9212 net.cpp:156] Memory required for data: 1213249056
I0403 19:25:13.165500  9212 layer_factory.hpp:77] Creating layer inception_4e/relu_1x1
I0403 19:25:13.165521  9212 net.cpp:91] Creating Layer inception_4e/relu_1x1
I0403 19:25:13.165539  9212 net.cpp:425] inception_4e/relu_1x1 <- inception_4e/1x1
I0403 19:25:13.165558  9212 net.cpp:386] inception_4e/relu_1x1 -> inception_4e/1x1 (in-place)
I0403 19:25:13.165940  9212 net.cpp:141] Setting up inception_4e/relu_1x1
I0403 19:25:13.165967  9212 net.cpp:148] Top shape: 24 256 14 14 (1204224)
I0403 19:25:13.165982  9212 net.cpp:156] Memory required for data: 1218065952
I0403 19:25:13.165997  9212 layer_factory.hpp:77] Creating layer inception_4e/3x3_reduce
I0403 19:25:13.166021  9212 net.cpp:91] Creating Layer inception_4e/3x3_reduce
I0403 19:25:13.166039  9212 net.cpp:425] inception_4e/3x3_reduce <- inception_4d/output_inception_4d/output_0_split_2
I0403 19:25:13.166059  9212 net.cpp:399] inception_4e/3x3_reduce -> inception_4e/3x3_reduce
I0403 19:25:13.168118  9212 net.cpp:141] Setting up inception_4e/3x3_reduce
I0403 19:25:13.168146  9212 net.cpp:148] Top shape: 24 160 14 14 (752640)
I0403 19:25:13.168164  9212 net.cpp:156] Memory required for data: 1221076512
I0403 19:25:13.168195  9212 layer_factory.hpp:77] Creating layer inception_4e/relu_3x3_reduce
I0403 19:25:13.168217  9212 net.cpp:91] Creating Layer inception_4e/relu_3x3_reduce
I0403 19:25:13.168233  9212 net.cpp:425] inception_4e/relu_3x3_reduce <- inception_4e/3x3_reduce
I0403 19:25:13.168264  9212 net.cpp:386] inception_4e/relu_3x3_reduce -> inception_4e/3x3_reduce (in-place)
I0403 19:25:13.168462  9212 net.cpp:141] Setting up inception_4e/relu_3x3_reduce
I0403 19:25:13.168503  9212 net.cpp:148] Top shape: 24 160 14 14 (752640)
I0403 19:25:13.168520  9212 net.cpp:156] Memory required for data: 1224087072
I0403 19:25:13.168536  9212 layer_factory.hpp:77] Creating layer inception_4e/3x3
I0403 19:25:13.168570  9212 net.cpp:91] Creating Layer inception_4e/3x3
I0403 19:25:13.168593  9212 net.cpp:425] inception_4e/3x3 <- inception_4e/3x3_reduce
I0403 19:25:13.168612  9212 net.cpp:399] inception_4e/3x3 -> inception_4e/3x3
I0403 19:25:13.173605  9212 net.cpp:141] Setting up inception_4e/3x3
I0403 19:25:13.173650  9212 net.cpp:148] Top shape: 24 320 14 14 (1505280)
I0403 19:25:13.173668  9212 net.cpp:156] Memory required for data: 1230108192
I0403 19:25:13.173686  9212 layer_factory.hpp:77] Creating layer inception_4e/relu_3x3
I0403 19:25:13.173704  9212 net.cpp:91] Creating Layer inception_4e/relu_3x3
I0403 19:25:13.173722  9212 net.cpp:425] inception_4e/relu_3x3 <- inception_4e/3x3
I0403 19:25:13.173741  9212 net.cpp:386] inception_4e/relu_3x3 -> inception_4e/3x3 (in-place)
I0403 19:25:13.174038  9212 net.cpp:141] Setting up inception_4e/relu_3x3
I0403 19:25:13.174067  9212 net.cpp:148] Top shape: 24 320 14 14 (1505280)
I0403 19:25:13.174085  9212 net.cpp:156] Memory required for data: 1236129312
I0403 19:25:13.174100  9212 layer_factory.hpp:77] Creating layer inception_4e/5x5_reduce
I0403 19:25:13.174124  9212 net.cpp:91] Creating Layer inception_4e/5x5_reduce
I0403 19:25:13.174142  9212 net.cpp:425] inception_4e/5x5_reduce <- inception_4d/output_inception_4d/output_0_split_3
I0403 19:25:13.174162  9212 net.cpp:399] inception_4e/5x5_reduce -> inception_4e/5x5_reduce
I0403 19:25:13.175288  9212 net.cpp:141] Setting up inception_4e/5x5_reduce
I0403 19:25:13.175317  9212 net.cpp:148] Top shape: 24 32 14 14 (150528)
I0403 19:25:13.175333  9212 net.cpp:156] Memory required for data: 1236731424
I0403 19:25:13.175351  9212 layer_factory.hpp:77] Creating layer inception_4e/relu_5x5_reduce
I0403 19:25:13.175374  9212 net.cpp:91] Creating Layer inception_4e/relu_5x5_reduce
I0403 19:25:13.175391  9212 net.cpp:425] inception_4e/relu_5x5_reduce <- inception_4e/5x5_reduce
I0403 19:25:13.175410  9212 net.cpp:386] inception_4e/relu_5x5_reduce -> inception_4e/5x5_reduce (in-place)
I0403 19:25:13.175714  9212 net.cpp:141] Setting up inception_4e/relu_5x5_reduce
I0403 19:25:13.175740  9212 net.cpp:148] Top shape: 24 32 14 14 (150528)
I0403 19:25:13.175756  9212 net.cpp:156] Memory required for data: 1237333536
I0403 19:25:13.175771  9212 layer_factory.hpp:77] Creating layer inception_4e/5x5
I0403 19:25:13.175808  9212 net.cpp:91] Creating Layer inception_4e/5x5
I0403 19:25:13.175828  9212 net.cpp:425] inception_4e/5x5 <- inception_4e/5x5_reduce
I0403 19:25:13.175851  9212 net.cpp:399] inception_4e/5x5 -> inception_4e/5x5
I0403 19:25:13.177734  9212 net.cpp:141] Setting up inception_4e/5x5
I0403 19:25:13.177762  9212 net.cpp:148] Top shape: 24 128 14 14 (602112)
I0403 19:25:13.177791  9212 net.cpp:156] Memory required for data: 1239741984
I0403 19:25:13.177811  9212 layer_factory.hpp:77] Creating layer inception_4e/relu_5x5
I0403 19:25:13.177829  9212 net.cpp:91] Creating Layer inception_4e/relu_5x5
I0403 19:25:13.177845  9212 net.cpp:425] inception_4e/relu_5x5 <- inception_4e/5x5
I0403 19:25:13.177865  9212 net.cpp:386] inception_4e/relu_5x5 -> inception_4e/5x5 (in-place)
I0403 19:25:13.178057  9212 net.cpp:141] Setting up inception_4e/relu_5x5
I0403 19:25:13.178083  9212 net.cpp:148] Top shape: 24 128 14 14 (602112)
I0403 19:25:13.178098  9212 net.cpp:156] Memory required for data: 1242150432
I0403 19:25:13.178113  9212 layer_factory.hpp:77] Creating layer inception_4e/pool
I0403 19:25:13.178134  9212 net.cpp:91] Creating Layer inception_4e/pool
I0403 19:25:13.178153  9212 net.cpp:425] inception_4e/pool <- inception_4d/output_inception_4d/output_0_split_4
I0403 19:25:13.178170  9212 net.cpp:399] inception_4e/pool -> inception_4e/pool
I0403 19:25:13.178241  9212 net.cpp:141] Setting up inception_4e/pool
I0403 19:25:13.178266  9212 net.cpp:148] Top shape: 24 528 14 14 (2483712)
I0403 19:25:13.178280  9212 net.cpp:156] Memory required for data: 1252085280
I0403 19:25:13.178295  9212 layer_factory.hpp:77] Creating layer inception_4e/pool_proj
I0403 19:25:13.178318  9212 net.cpp:91] Creating Layer inception_4e/pool_proj
I0403 19:25:13.178336  9212 net.cpp:425] inception_4e/pool_proj <- inception_4e/pool
I0403 19:25:13.178357  9212 net.cpp:399] inception_4e/pool_proj -> inception_4e/pool_proj
I0403 19:25:13.179875  9212 net.cpp:141] Setting up inception_4e/pool_proj
I0403 19:25:13.179904  9212 net.cpp:148] Top shape: 24 128 14 14 (602112)
I0403 19:25:13.179934  9212 net.cpp:156] Memory required for data: 1254493728
I0403 19:25:13.179955  9212 layer_factory.hpp:77] Creating layer inception_4e/relu_pool_proj
I0403 19:25:13.179972  9212 net.cpp:91] Creating Layer inception_4e/relu_pool_proj
I0403 19:25:13.179988  9212 net.cpp:425] inception_4e/relu_pool_proj <- inception_4e/pool_proj
I0403 19:25:13.180008  9212 net.cpp:386] inception_4e/relu_pool_proj -> inception_4e/pool_proj (in-place)
I0403 19:25:13.180358  9212 net.cpp:141] Setting up inception_4e/relu_pool_proj
I0403 19:25:13.180385  9212 net.cpp:148] Top shape: 24 128 14 14 (602112)
I0403 19:25:13.180402  9212 net.cpp:156] Memory required for data: 1256902176
I0403 19:25:13.180419  9212 layer_factory.hpp:77] Creating layer inception_4e/output
I0403 19:25:13.180438  9212 net.cpp:91] Creating Layer inception_4e/output
I0403 19:25:13.180454  9212 net.cpp:425] inception_4e/output <- inception_4e/1x1
I0403 19:25:13.180477  9212 net.cpp:425] inception_4e/output <- inception_4e/3x3
I0403 19:25:13.180495  9212 net.cpp:425] inception_4e/output <- inception_4e/5x5
I0403 19:25:13.180511  9212 net.cpp:425] inception_4e/output <- inception_4e/pool_proj
I0403 19:25:13.180531  9212 net.cpp:399] inception_4e/output -> inception_4e/output
I0403 19:25:13.180594  9212 net.cpp:141] Setting up inception_4e/output
I0403 19:25:13.180620  9212 net.cpp:148] Top shape: 24 832 14 14 (3913728)
I0403 19:25:13.180637  9212 net.cpp:156] Memory required for data: 1272557088
I0403 19:25:13.180652  9212 layer_factory.hpp:77] Creating layer pool4/3x3_s2
I0403 19:25:13.180670  9212 net.cpp:91] Creating Layer pool4/3x3_s2
I0403 19:25:13.180686  9212 net.cpp:425] pool4/3x3_s2 <- inception_4e/output
I0403 19:25:13.180704  9212 net.cpp:399] pool4/3x3_s2 -> pool4/3x3_s2
I0403 19:25:13.180771  9212 net.cpp:141] Setting up pool4/3x3_s2
I0403 19:25:13.180794  9212 net.cpp:148] Top shape: 24 832 7 7 (978432)
I0403 19:25:13.180809  9212 net.cpp:156] Memory required for data: 1276470816
I0403 19:25:13.180825  9212 layer_factory.hpp:77] Creating layer pool4/3x3_s2_pool4/3x3_s2_0_split
I0403 19:25:13.180842  9212 net.cpp:91] Creating Layer pool4/3x3_s2_pool4/3x3_s2_0_split
I0403 19:25:13.180857  9212 net.cpp:425] pool4/3x3_s2_pool4/3x3_s2_0_split <- pool4/3x3_s2
I0403 19:25:13.180877  9212 net.cpp:399] pool4/3x3_s2_pool4/3x3_s2_0_split -> pool4/3x3_s2_pool4/3x3_s2_0_split_0
I0403 19:25:13.180899  9212 net.cpp:399] pool4/3x3_s2_pool4/3x3_s2_0_split -> pool4/3x3_s2_pool4/3x3_s2_0_split_1
I0403 19:25:13.180919  9212 net.cpp:399] pool4/3x3_s2_pool4/3x3_s2_0_split -> pool4/3x3_s2_pool4/3x3_s2_0_split_2
I0403 19:25:13.180943  9212 net.cpp:399] pool4/3x3_s2_pool4/3x3_s2_0_split -> pool4/3x3_s2_pool4/3x3_s2_0_split_3
I0403 19:25:13.181035  9212 net.cpp:141] Setting up pool4/3x3_s2_pool4/3x3_s2_0_split
I0403 19:25:13.181059  9212 net.cpp:148] Top shape: 24 832 7 7 (978432)
I0403 19:25:13.181077  9212 net.cpp:148] Top shape: 24 832 7 7 (978432)
I0403 19:25:13.181092  9212 net.cpp:148] Top shape: 24 832 7 7 (978432)
I0403 19:25:13.181108  9212 net.cpp:148] Top shape: 24 832 7 7 (978432)
I0403 19:25:13.181123  9212 net.cpp:156] Memory required for data: 1292125728
I0403 19:25:13.181138  9212 layer_factory.hpp:77] Creating layer inception_5a/1x1
I0403 19:25:13.181160  9212 net.cpp:91] Creating Layer inception_5a/1x1
I0403 19:25:13.181177  9212 net.cpp:425] inception_5a/1x1 <- pool4/3x3_s2_pool4/3x3_s2_0_split_0
I0403 19:25:13.181200  9212 net.cpp:399] inception_5a/1x1 -> inception_5a/1x1
I0403 19:25:13.184041  9212 net.cpp:141] Setting up inception_5a/1x1
I0403 19:25:13.184072  9212 net.cpp:148] Top shape: 24 256 7 7 (301056)
I0403 19:25:13.184087  9212 net.cpp:156] Memory required for data: 1293329952
I0403 19:25:13.184104  9212 layer_factory.hpp:77] Creating layer inception_5a/relu_1x1
I0403 19:25:13.184124  9212 net.cpp:91] Creating Layer inception_5a/relu_1x1
I0403 19:25:13.184141  9212 net.cpp:425] inception_5a/relu_1x1 <- inception_5a/1x1
I0403 19:25:13.184160  9212 net.cpp:386] inception_5a/relu_1x1 -> inception_5a/1x1 (in-place)
I0403 19:25:13.184484  9212 net.cpp:141] Setting up inception_5a/relu_1x1
I0403 19:25:13.184511  9212 net.cpp:148] Top shape: 24 256 7 7 (301056)
I0403 19:25:13.184527  9212 net.cpp:156] Memory required for data: 1294534176
I0403 19:25:13.184542  9212 layer_factory.hpp:77] Creating layer inception_5a/3x3_reduce
I0403 19:25:13.184577  9212 net.cpp:91] Creating Layer inception_5a/3x3_reduce
I0403 19:25:13.184595  9212 net.cpp:425] inception_5a/3x3_reduce <- pool4/3x3_s2_pool4/3x3_s2_0_split_1
I0403 19:25:13.184617  9212 net.cpp:399] inception_5a/3x3_reduce -> inception_5a/3x3_reduce
I0403 19:25:13.186964  9212 net.cpp:141] Setting up inception_5a/3x3_reduce
I0403 19:25:13.186995  9212 net.cpp:148] Top shape: 24 160 7 7 (188160)
I0403 19:25:13.187011  9212 net.cpp:156] Memory required for data: 1295286816
I0403 19:25:13.187031  9212 layer_factory.hpp:77] Creating layer inception_5a/relu_3x3_reduce
I0403 19:25:13.187048  9212 net.cpp:91] Creating Layer inception_5a/relu_3x3_reduce
I0403 19:25:13.187064  9212 net.cpp:425] inception_5a/relu_3x3_reduce <- inception_5a/3x3_reduce
I0403 19:25:13.187083  9212 net.cpp:386] inception_5a/relu_3x3_reduce -> inception_5a/3x3_reduce (in-place)
I0403 19:25:13.187265  9212 net.cpp:141] Setting up inception_5a/relu_3x3_reduce
I0403 19:25:13.187304  9212 net.cpp:148] Top shape: 24 160 7 7 (188160)
I0403 19:25:13.187319  9212 net.cpp:156] Memory required for data: 1296039456
I0403 19:25:13.187335  9212 layer_factory.hpp:77] Creating layer inception_5a/3x3
I0403 19:25:13.187357  9212 net.cpp:91] Creating Layer inception_5a/3x3
I0403 19:25:13.187376  9212 net.cpp:425] inception_5a/3x3 <- inception_5a/3x3_reduce
I0403 19:25:13.187397  9212 net.cpp:399] inception_5a/3x3 -> inception_5a/3x3
I0403 19:25:13.192217  9212 net.cpp:141] Setting up inception_5a/3x3
I0403 19:25:13.192247  9212 net.cpp:148] Top shape: 24 320 7 7 (376320)
I0403 19:25:13.192263  9212 net.cpp:156] Memory required for data: 1297544736
I0403 19:25:13.192281  9212 layer_factory.hpp:77] Creating layer inception_5a/relu_3x3
I0403 19:25:13.192301  9212 net.cpp:91] Creating Layer inception_5a/relu_3x3
I0403 19:25:13.192318  9212 net.cpp:425] inception_5a/relu_3x3 <- inception_5a/3x3
I0403 19:25:13.192337  9212 net.cpp:386] inception_5a/relu_3x3 -> inception_5a/3x3 (in-place)
I0403 19:25:13.192631  9212 net.cpp:141] Setting up inception_5a/relu_3x3
I0403 19:25:13.192656  9212 net.cpp:148] Top shape: 24 320 7 7 (376320)
I0403 19:25:13.192672  9212 net.cpp:156] Memory required for data: 1299050016
I0403 19:25:13.192687  9212 layer_factory.hpp:77] Creating layer inception_5a/5x5_reduce
I0403 19:25:13.192709  9212 net.cpp:91] Creating Layer inception_5a/5x5_reduce
I0403 19:25:13.192726  9212 net.cpp:425] inception_5a/5x5_reduce <- pool4/3x3_s2_pool4/3x3_s2_0_split_2
I0403 19:25:13.192747  9212 net.cpp:399] inception_5a/5x5_reduce -> inception_5a/5x5_reduce
I0403 19:25:13.193874  9212 net.cpp:141] Setting up inception_5a/5x5_reduce
I0403 19:25:13.193905  9212 net.cpp:148] Top shape: 24 32 7 7 (37632)
I0403 19:25:13.193922  9212 net.cpp:156] Memory required for data: 1299200544
I0403 19:25:13.193941  9212 layer_factory.hpp:77] Creating layer inception_5a/relu_5x5_reduce
I0403 19:25:13.193959  9212 net.cpp:91] Creating Layer inception_5a/relu_5x5_reduce
I0403 19:25:13.193976  9212 net.cpp:425] inception_5a/relu_5x5_reduce <- inception_5a/5x5_reduce
I0403 19:25:13.193994  9212 net.cpp:386] inception_5a/relu_5x5_reduce -> inception_5a/5x5_reduce (in-place)
I0403 19:25:13.194792  9212 net.cpp:141] Setting up inception_5a/relu_5x5_reduce
I0403 19:25:13.194885  9212 net.cpp:148] Top shape: 24 32 7 7 (37632)
I0403 19:25:13.194929  9212 net.cpp:156] Memory required for data: 1299351072
I0403 19:25:13.194972  9212 layer_factory.hpp:77] Creating layer inception_5a/5x5
I0403 19:25:13.195039  9212 net.cpp:91] Creating Layer inception_5a/5x5
I0403 19:25:13.195088  9212 net.cpp:425] inception_5a/5x5 <- inception_5a/5x5_reduce
I0403 19:25:13.195147  9212 net.cpp:399] inception_5a/5x5 -> inception_5a/5x5
I0403 19:25:13.199885  9212 net.cpp:141] Setting up inception_5a/5x5
I0403 19:25:13.200000  9212 net.cpp:148] Top shape: 24 128 7 7 (150528)
I0403 19:25:13.200043  9212 net.cpp:156] Memory required for data: 1299953184
I0403 19:25:13.200094  9212 layer_factory.hpp:77] Creating layer inception_5a/relu_5x5
I0403 19:25:13.200150  9212 net.cpp:91] Creating Layer inception_5a/relu_5x5
I0403 19:25:13.200193  9212 net.cpp:425] inception_5a/relu_5x5 <- inception_5a/5x5
I0403 19:25:13.200239  9212 net.cpp:386] inception_5a/relu_5x5 -> inception_5a/5x5 (in-place)
I0403 19:25:13.200760  9212 net.cpp:141] Setting up inception_5a/relu_5x5
I0403 19:25:13.200827  9212 net.cpp:148] Top shape: 24 128 7 7 (150528)
I0403 19:25:13.200865  9212 net.cpp:156] Memory required for data: 1300555296
I0403 19:25:13.200906  9212 layer_factory.hpp:77] Creating layer inception_5a/pool
I0403 19:25:13.200958  9212 net.cpp:91] Creating Layer inception_5a/pool
I0403 19:25:13.201002  9212 net.cpp:425] inception_5a/pool <- pool4/3x3_s2_pool4/3x3_s2_0_split_3
I0403 19:25:13.201050  9212 net.cpp:399] inception_5a/pool -> inception_5a/pool
I0403 19:25:13.201248  9212 net.cpp:141] Setting up inception_5a/pool
I0403 19:25:13.201310  9212 net.cpp:148] Top shape: 24 832 7 7 (978432)
I0403 19:25:13.201349  9212 net.cpp:156] Memory required for data: 1304469024
I0403 19:25:13.201387  9212 layer_factory.hpp:77] Creating layer inception_5a/pool_proj
I0403 19:25:13.201457  9212 net.cpp:91] Creating Layer inception_5a/pool_proj
I0403 19:25:13.201506  9212 net.cpp:425] inception_5a/pool_proj <- inception_5a/pool
I0403 19:25:13.201560  9212 net.cpp:399] inception_5a/pool_proj -> inception_5a/pool_proj
I0403 19:25:13.204444  9212 net.cpp:141] Setting up inception_5a/pool_proj
I0403 19:25:13.204474  9212 net.cpp:148] Top shape: 24 128 7 7 (150528)
I0403 19:25:13.204493  9212 net.cpp:156] Memory required for data: 1305071136
I0403 19:25:13.204510  9212 layer_factory.hpp:77] Creating layer inception_5a/relu_pool_proj
I0403 19:25:13.204529  9212 net.cpp:91] Creating Layer inception_5a/relu_pool_proj
I0403 19:25:13.204546  9212 net.cpp:425] inception_5a/relu_pool_proj <- inception_5a/pool_proj
I0403 19:25:13.204567  9212 net.cpp:386] inception_5a/relu_pool_proj -> inception_5a/pool_proj (in-place)
I0403 19:25:13.204859  9212 net.cpp:141] Setting up inception_5a/relu_pool_proj
I0403 19:25:13.204885  9212 net.cpp:148] Top shape: 24 128 7 7 (150528)
I0403 19:25:13.204901  9212 net.cpp:156] Memory required for data: 1305673248
I0403 19:25:13.204916  9212 layer_factory.hpp:77] Creating layer inception_5a/output
I0403 19:25:13.204934  9212 net.cpp:91] Creating Layer inception_5a/output
I0403 19:25:13.204951  9212 net.cpp:425] inception_5a/output <- inception_5a/1x1
I0403 19:25:13.204968  9212 net.cpp:425] inception_5a/output <- inception_5a/3x3
I0403 19:25:13.204985  9212 net.cpp:425] inception_5a/output <- inception_5a/5x5
I0403 19:25:13.205001  9212 net.cpp:425] inception_5a/output <- inception_5a/pool_proj
I0403 19:25:13.205021  9212 net.cpp:399] inception_5a/output -> inception_5a/output
I0403 19:25:13.205070  9212 net.cpp:141] Setting up inception_5a/output
I0403 19:25:13.205097  9212 net.cpp:148] Top shape: 24 832 7 7 (978432)
I0403 19:25:13.205113  9212 net.cpp:156] Memory required for data: 1309586976
I0403 19:25:13.205128  9212 layer_factory.hpp:77] Creating layer inception_5a/output_inception_5a/output_0_split
I0403 19:25:13.205145  9212 net.cpp:91] Creating Layer inception_5a/output_inception_5a/output_0_split
I0403 19:25:13.205162  9212 net.cpp:425] inception_5a/output_inception_5a/output_0_split <- inception_5a/output
I0403 19:25:13.205179  9212 net.cpp:399] inception_5a/output_inception_5a/output_0_split -> inception_5a/output_inception_5a/output_0_split_0
I0403 19:25:13.205205  9212 net.cpp:399] inception_5a/output_inception_5a/output_0_split -> inception_5a/output_inception_5a/output_0_split_1
I0403 19:25:13.205225  9212 net.cpp:399] inception_5a/output_inception_5a/output_0_split -> inception_5a/output_inception_5a/output_0_split_2
I0403 19:25:13.205245  9212 net.cpp:399] inception_5a/output_inception_5a/output_0_split -> inception_5a/output_inception_5a/output_0_split_3
I0403 19:25:13.205356  9212 net.cpp:141] Setting up inception_5a/output_inception_5a/output_0_split
I0403 19:25:13.205380  9212 net.cpp:148] Top shape: 24 832 7 7 (978432)
I0403 19:25:13.205399  9212 net.cpp:148] Top shape: 24 832 7 7 (978432)
I0403 19:25:13.205415  9212 net.cpp:148] Top shape: 24 832 7 7 (978432)
I0403 19:25:13.205435  9212 net.cpp:148] Top shape: 24 832 7 7 (978432)
I0403 19:25:13.205451  9212 net.cpp:156] Memory required for data: 1325241888
I0403 19:25:13.205466  9212 layer_factory.hpp:77] Creating layer inception_5b/1x1
I0403 19:25:13.205488  9212 net.cpp:91] Creating Layer inception_5b/1x1
I0403 19:25:13.205507  9212 net.cpp:425] inception_5b/1x1 <- inception_5a/output_inception_5a/output_0_split_0
I0403 19:25:13.205528  9212 net.cpp:399] inception_5b/1x1 -> inception_5b/1x1
I0403 19:25:13.209233  9212 net.cpp:141] Setting up inception_5b/1x1
I0403 19:25:13.209265  9212 net.cpp:148] Top shape: 24 384 7 7 (451584)
I0403 19:25:13.209283  9212 net.cpp:156] Memory required for data: 1327048224
I0403 19:25:13.209302  9212 layer_factory.hpp:77] Creating layer inception_5b/relu_1x1
I0403 19:25:13.209321  9212 net.cpp:91] Creating Layer inception_5b/relu_1x1
I0403 19:25:13.209337  9212 net.cpp:425] inception_5b/relu_1x1 <- inception_5b/1x1
I0403 19:25:13.209357  9212 net.cpp:386] inception_5b/relu_1x1 -> inception_5b/1x1 (in-place)
I0403 19:25:13.209661  9212 net.cpp:141] Setting up inception_5b/relu_1x1
I0403 19:25:13.209687  9212 net.cpp:148] Top shape: 24 384 7 7 (451584)
I0403 19:25:13.209703  9212 net.cpp:156] Memory required for data: 1328854560
I0403 19:25:13.209718  9212 layer_factory.hpp:77] Creating layer inception_5b/3x3_reduce
I0403 19:25:13.209740  9212 net.cpp:91] Creating Layer inception_5b/3x3_reduce
I0403 19:25:13.209758  9212 net.cpp:425] inception_5b/3x3_reduce <- inception_5a/output_inception_5a/output_0_split_1
I0403 19:25:13.209791  9212 net.cpp:399] inception_5b/3x3_reduce -> inception_5b/3x3_reduce
I0403 19:25:13.212425  9212 net.cpp:141] Setting up inception_5b/3x3_reduce
I0403 19:25:13.212469  9212 net.cpp:148] Top shape: 24 192 7 7 (225792)
I0403 19:25:13.212487  9212 net.cpp:156] Memory required for data: 1329757728
I0403 19:25:13.212507  9212 layer_factory.hpp:77] Creating layer inception_5b/relu_3x3_reduce
I0403 19:25:13.212525  9212 net.cpp:91] Creating Layer inception_5b/relu_3x3_reduce
I0403 19:25:13.212543  9212 net.cpp:425] inception_5b/relu_3x3_reduce <- inception_5b/3x3_reduce
I0403 19:25:13.212563  9212 net.cpp:386] inception_5b/relu_3x3_reduce -> inception_5b/3x3_reduce (in-place)
I0403 19:25:13.212750  9212 net.cpp:141] Setting up inception_5b/relu_3x3_reduce
I0403 19:25:13.212776  9212 net.cpp:148] Top shape: 24 192 7 7 (225792)
I0403 19:25:13.212790  9212 net.cpp:156] Memory required for data: 1330660896
I0403 19:25:13.212805  9212 layer_factory.hpp:77] Creating layer inception_5b/3x3
I0403 19:25:13.212827  9212 net.cpp:91] Creating Layer inception_5b/3x3
I0403 19:25:13.212846  9212 net.cpp:425] inception_5b/3x3 <- inception_5b/3x3_reduce
I0403 19:25:13.212868  9212 net.cpp:399] inception_5b/3x3 -> inception_5b/3x3
I0403 19:25:13.219526  9212 net.cpp:141] Setting up inception_5b/3x3
I0403 19:25:13.219555  9212 net.cpp:148] Top shape: 24 384 7 7 (451584)
I0403 19:25:13.219573  9212 net.cpp:156] Memory required for data: 1332467232
I0403 19:25:13.219593  9212 layer_factory.hpp:77] Creating layer inception_5b/relu_3x3
I0403 19:25:13.219612  9212 net.cpp:91] Creating Layer inception_5b/relu_3x3
I0403 19:25:13.219636  9212 net.cpp:425] inception_5b/relu_3x3 <- inception_5b/3x3
I0403 19:25:13.219655  9212 net.cpp:386] inception_5b/relu_3x3 -> inception_5b/3x3 (in-place)
I0403 19:25:13.219964  9212 net.cpp:141] Setting up inception_5b/relu_3x3
I0403 19:25:13.219990  9212 net.cpp:148] Top shape: 24 384 7 7 (451584)
I0403 19:25:13.220006  9212 net.cpp:156] Memory required for data: 1334273568
I0403 19:25:13.220022  9212 layer_factory.hpp:77] Creating layer inception_5b/5x5_reduce
I0403 19:25:13.220059  9212 net.cpp:91] Creating Layer inception_5b/5x5_reduce
I0403 19:25:13.220080  9212 net.cpp:425] inception_5b/5x5_reduce <- inception_5a/output_inception_5a/output_0_split_2
I0403 19:25:13.220103  9212 net.cpp:399] inception_5b/5x5_reduce -> inception_5b/5x5_reduce
I0403 19:25:13.221348  9212 net.cpp:141] Setting up inception_5b/5x5_reduce
I0403 19:25:13.221376  9212 net.cpp:148] Top shape: 24 48 7 7 (56448)
I0403 19:25:13.221391  9212 net.cpp:156] Memory required for data: 1334499360
I0403 19:25:13.221410  9212 layer_factory.hpp:77] Creating layer inception_5b/relu_5x5_reduce
I0403 19:25:13.221434  9212 net.cpp:91] Creating Layer inception_5b/relu_5x5_reduce
I0403 19:25:13.221451  9212 net.cpp:425] inception_5b/relu_5x5_reduce <- inception_5b/5x5_reduce
I0403 19:25:13.221472  9212 net.cpp:386] inception_5b/relu_5x5_reduce -> inception_5b/5x5_reduce (in-place)
I0403 19:25:13.221837  9212 net.cpp:141] Setting up inception_5b/relu_5x5_reduce
I0403 19:25:13.221864  9212 net.cpp:148] Top shape: 24 48 7 7 (56448)
I0403 19:25:13.221880  9212 net.cpp:156] Memory required for data: 1334725152
I0403 19:25:13.221895  9212 layer_factory.hpp:77] Creating layer inception_5b/5x5
I0403 19:25:13.221915  9212 net.cpp:91] Creating Layer inception_5b/5x5
I0403 19:25:13.221933  9212 net.cpp:425] inception_5b/5x5 <- inception_5b/5x5_reduce
I0403 19:25:13.221951  9212 net.cpp:399] inception_5b/5x5 -> inception_5b/5x5
I0403 19:25:13.223970  9212 net.cpp:141] Setting up inception_5b/5x5
I0403 19:25:13.223999  9212 net.cpp:148] Top shape: 24 128 7 7 (150528)
I0403 19:25:13.224014  9212 net.cpp:156] Memory required for data: 1335327264
I0403 19:25:13.224033  9212 layer_factory.hpp:77] Creating layer inception_5b/relu_5x5
I0403 19:25:13.224053  9212 net.cpp:91] Creating Layer inception_5b/relu_5x5
I0403 19:25:13.224071  9212 net.cpp:425] inception_5b/relu_5x5 <- inception_5b/5x5
I0403 19:25:13.224089  9212 net.cpp:386] inception_5b/relu_5x5 -> inception_5b/5x5 (in-place)
I0403 19:25:13.224279  9212 net.cpp:141] Setting up inception_5b/relu_5x5
I0403 19:25:13.224304  9212 net.cpp:148] Top shape: 24 128 7 7 (150528)
I0403 19:25:13.224319  9212 net.cpp:156] Memory required for data: 1335929376
I0403 19:25:13.224335  9212 layer_factory.hpp:77] Creating layer inception_5b/pool
I0403 19:25:13.224357  9212 net.cpp:91] Creating Layer inception_5b/pool
I0403 19:25:13.224375  9212 net.cpp:425] inception_5b/pool <- inception_5a/output_inception_5a/output_0_split_3
I0403 19:25:13.224393  9212 net.cpp:399] inception_5b/pool -> inception_5b/pool
I0403 19:25:13.224475  9212 net.cpp:141] Setting up inception_5b/pool
I0403 19:25:13.224501  9212 net.cpp:148] Top shape: 24 832 7 7 (978432)
I0403 19:25:13.224516  9212 net.cpp:156] Memory required for data: 1339843104
I0403 19:25:13.224532  9212 layer_factory.hpp:77] Creating layer inception_5b/pool_proj
I0403 19:25:13.224555  9212 net.cpp:91] Creating Layer inception_5b/pool_proj
I0403 19:25:13.224575  9212 net.cpp:425] inception_5b/pool_proj <- inception_5b/pool
I0403 19:25:13.224596  9212 net.cpp:399] inception_5b/pool_proj -> inception_5b/pool_proj
I0403 19:25:13.226855  9212 net.cpp:141] Setting up inception_5b/pool_proj
I0403 19:25:13.226886  9212 net.cpp:148] Top shape: 24 128 7 7 (150528)
I0403 19:25:13.226902  9212 net.cpp:156] Memory required for data: 1340445216
I0403 19:25:13.226922  9212 layer_factory.hpp:77] Creating layer inception_5b/relu_pool_proj
I0403 19:25:13.226940  9212 net.cpp:91] Creating Layer inception_5b/relu_pool_proj
I0403 19:25:13.226956  9212 net.cpp:425] inception_5b/relu_pool_proj <- inception_5b/pool_proj
I0403 19:25:13.226975  9212 net.cpp:386] inception_5b/relu_pool_proj -> inception_5b/pool_proj (in-place)
I0403 19:25:13.227283  9212 net.cpp:141] Setting up inception_5b/relu_pool_proj
I0403 19:25:13.227309  9212 net.cpp:148] Top shape: 24 128 7 7 (150528)
I0403 19:25:13.227325  9212 net.cpp:156] Memory required for data: 1341047328
I0403 19:25:13.227341  9212 layer_factory.hpp:77] Creating layer inception_5b/output
I0403 19:25:13.227360  9212 net.cpp:91] Creating Layer inception_5b/output
I0403 19:25:13.227391  9212 net.cpp:425] inception_5b/output <- inception_5b/1x1
I0403 19:25:13.227409  9212 net.cpp:425] inception_5b/output <- inception_5b/3x3
I0403 19:25:13.227427  9212 net.cpp:425] inception_5b/output <- inception_5b/5x5
I0403 19:25:13.227447  9212 net.cpp:425] inception_5b/output <- inception_5b/pool_proj
I0403 19:25:13.227468  9212 net.cpp:399] inception_5b/output -> inception_5b/output
I0403 19:25:13.227532  9212 net.cpp:141] Setting up inception_5b/output
I0403 19:25:13.227560  9212 net.cpp:148] Top shape: 24 1024 7 7 (1204224)
I0403 19:25:13.227576  9212 net.cpp:156] Memory required for data: 1345864224
I0403 19:25:13.227591  9212 layer_factory.hpp:77] Creating layer pool5/7x7_s1
I0403 19:25:13.227609  9212 net.cpp:91] Creating Layer pool5/7x7_s1
I0403 19:25:13.227627  9212 net.cpp:425] pool5/7x7_s1 <- inception_5b/output
I0403 19:25:13.227648  9212 net.cpp:399] pool5/7x7_s1 -> pool5/7x7_s1
I0403 19:25:13.227861  9212 net.cpp:141] Setting up pool5/7x7_s1
I0403 19:25:13.227886  9212 net.cpp:148] Top shape: 24 1024 1 1 (24576)
I0403 19:25:13.227901  9212 net.cpp:156] Memory required for data: 1345962528
I0403 19:25:13.227916  9212 layer_factory.hpp:77] Creating layer pool5/drop_7x7_s1
I0403 19:25:13.227934  9212 net.cpp:91] Creating Layer pool5/drop_7x7_s1
I0403 19:25:13.227951  9212 net.cpp:425] pool5/drop_7x7_s1 <- pool5/7x7_s1
I0403 19:25:13.227970  9212 net.cpp:386] pool5/drop_7x7_s1 -> pool5/7x7_s1 (in-place)
I0403 19:25:13.228023  9212 net.cpp:141] Setting up pool5/drop_7x7_s1
I0403 19:25:13.228046  9212 net.cpp:148] Top shape: 24 1024 1 1 (24576)
I0403 19:25:13.228061  9212 net.cpp:156] Memory required for data: 1346060832
I0403 19:25:13.228075  9212 layer_factory.hpp:77] Creating layer loss3/classifier_plantvillage
I0403 19:25:13.228096  9212 net.cpp:91] Creating Layer loss3/classifier_plantvillage
I0403 19:25:13.228112  9212 net.cpp:425] loss3/classifier_plantvillage <- pool5/7x7_s1
I0403 19:25:13.228133  9212 net.cpp:399] loss3/classifier_plantvillage -> loss3/classifier_plantvillage
I0403 19:25:13.228559  9212 net.cpp:141] Setting up loss3/classifier_plantvillage
I0403 19:25:13.228585  9212 net.cpp:148] Top shape: 24 38 (912)
I0403 19:25:13.228600  9212 net.cpp:156] Memory required for data: 1346064480
I0403 19:25:13.228618  9212 layer_factory.hpp:77] Creating layer loss3/classifier_plantvillage_loss3/classifier_plantvillage_0_split
I0403 19:25:13.228641  9212 net.cpp:91] Creating Layer loss3/classifier_plantvillage_loss3/classifier_plantvillage_0_split
I0403 19:25:13.228659  9212 net.cpp:425] loss3/classifier_plantvillage_loss3/classifier_plantvillage_0_split <- loss3/classifier_plantvillage
I0403 19:25:13.228677  9212 net.cpp:399] loss3/classifier_plantvillage_loss3/classifier_plantvillage_0_split -> loss3/classifier_plantvillage_loss3/classifier_plantvillage_0_split_0
I0403 19:25:13.228701  9212 net.cpp:399] loss3/classifier_plantvillage_loss3/classifier_plantvillage_0_split -> loss3/classifier_plantvillage_loss3/classifier_plantvillage_0_split_1
I0403 19:25:13.228723  9212 net.cpp:399] loss3/classifier_plantvillage_loss3/classifier_plantvillage_0_split -> loss3/classifier_plantvillage_loss3/classifier_plantvillage_0_split_2
I0403 19:25:13.228744  9212 net.cpp:399] loss3/classifier_plantvillage_loss3/classifier_plantvillage_0_split -> loss3/classifier_plantvillage_loss3/classifier_plantvillage_0_split_3
I0403 19:25:13.228842  9212 net.cpp:141] Setting up loss3/classifier_plantvillage_loss3/classifier_plantvillage_0_split
I0403 19:25:13.228866  9212 net.cpp:148] Top shape: 24 38 (912)
I0403 19:25:13.228883  9212 net.cpp:148] Top shape: 24 38 (912)
I0403 19:25:13.228899  9212 net.cpp:148] Top shape: 24 38 (912)
I0403 19:25:13.228919  9212 net.cpp:148] Top shape: 24 38 (912)
I0403 19:25:13.228935  9212 net.cpp:156] Memory required for data: 1346079072
I0403 19:25:13.228950  9212 layer_factory.hpp:77] Creating layer loss1/loss
I0403 19:25:13.228972  9212 net.cpp:91] Creating Layer loss1/loss
I0403 19:25:13.228991  9212 net.cpp:425] loss1/loss <- loss1/classifier_plantvillage_loss1/classifier_plantvillage_0_split_0
I0403 19:25:13.229023  9212 net.cpp:425] loss1/loss <- label_data_1_split_0
…
