…
I0403 19:32:13.063647  9357 net.cpp:313] The NetState phase (1) differed from the phase (0) specified by a rule in layer data
I0403 19:32:13.064741  9357 net.cpp:49] Initializing net from parameters: 
state {
  phase: TEST
}
layer {
  name: "data"
  type: "Data"
  top: "data"
  top: "label"
  include {
    phase: TEST
  }
  transform_param {
    mirror: false
    crop_size: 224
    mean_file: "/home/mohanty/data/final_dataset/lmdb/color-60-40/mean.binaryproto"
  }
  data_param {
    source: "/home/mohanty/data/final_dataset/lmdb/color-60-40/test_db"
    batch_size: 24
    backend: LMDB
  }
}
layer {
  name: "conv1/7x7_s2"
  type: "Convolution"
  bottom: "data"
  top: "conv1/7x7_s2"
  param {
    lr_mult: 1
    decay_mult: 1
  }
  param {
    lr_mult: 2
    decay_mult: 0
  }
  convolution_param {
    num_output: 64
    pad: 3
    kernel_size: 7
    stride: 2
    weight_filler {
      type: "xavier"
      std: 0.1
    }
    bias_filler {
      type: "constant"
      value: 0.2
    }
  }
}
layer {
  name: "conv1/relu_7x7"
  type: "ReLU"
  bottom: "conv1/7x7_s2"
  top: "conv1/7x7_s2"
}
layer {
  name: "pool1/3x3_s2"
  type: "Pooling"
  bottom: "conv1/7x7_s2"
  top: "pool1/3x3_s2"
  pooling_param {
    pool: MAX
    kernel_size: 3
    stride: 2
  }
}
layer {
  name: "pool1/norm1"
  type: "LRN"
  bottom: "pool1/3x3_s2"
  top: "pool1/norm1"
  lrn_param {
    local_size: 5
    alpha: 0.0001
    beta: 0.75
  }
}
layer {
  name: "conv2/3x3_reduce"
  type: "Convolution"
  bottom: "pool1/norm1"
  top: "conv2/3x3_reduce"
  param {
    lr_mult: 1
    decay_mult: 1
  }
  param {
    lr_mult: 2
    decay_mult: 0
  }
  convolution_param {
    num_output: 64
    kernel_size: 1
    weight_filler {
      type: "xavier"
      std: 0.1
    }
    bias_filler {
      type: "constant"
      value: 0.2
    }
  }
}
layer {
  name: "conv2/relu_3x3_reduce"
  type: "ReLU"
  bottom: "conv2/3x3_reduce"
  top: "conv2/3x3_reduce"
}
layer {
  name: "conv2/3x3"
  type: "Convolution"
  bottom: "conv2/3x3_reduce"
  top: "conv2/3x3"
  param {
    lr_mult: 1
    decay_mult: 1
  }
  param {
    lr_mult: 2
    decay_mult: 0
  }
  convolution_param {
    num_output: 192
    pad: 1
    kernel_size: 3
    weight_filler {
      type: "xavier"
      std: 0.03
    }
    bias_filler {
      type: "constant"
      value: 0.2
    }
  }
}
layer {
  name: "conv2/relu_3x3"
  type: "ReLU"
  bottom: "conv2/3x3"
  top: "conv2/3x3"
}
layer {
  name: "conv2/norm2"
  type: "LRN"
  bottom: "conv2/3x3"
  top: "conv2/norm2"
  lrn_param {
    local_size: 5
    alpha: 0.0001
    beta: 0.75
  }
}
layer {
  name: "pool2/3x3_s2"
  type: "Pooling"
  bottom: "conv2/norm2"
  top: "pool2/3x3_s2"
  pooling_param {
    pool: MAX
    kernel_size: 3
    stride: 2
  }
}
layer {
  name: "inception_3a/1x1"
  type: "Convolution"
  bottom: "pool2/3x3_s2"
  top: "inception_3a/1x1"
  param {
    lr_mult: 1
    decay_mult: 1
  }
  param {
    lr_mult: 2
    decay_mult: 0
  }
  convolution_param {
    num_output: 64
    kernel_size: 1
    weight_filler {
      type: "xavier"
      std: 0.03
    }
    bias_filler {
      type: "constant"
      value: 0.2
    }
  }
}
layer {
  name: "inception_3a/relu_1x1"
  type: "ReLU"
  bottom: "inception_3a/1x1"
  top: "inception_3a/1x1"
}
layer {
  name: "inception_3a/3x3_reduce"
  type: "Convolution"
  bottom: "pool2/3x3_s2"
  top: "inception_3a/3x3_reduce"
  param {
    lr_mult: 1
    decay_mult: 1
  }
  param {
    lr_mult: 2
    decay_mult: 0
  }
  convolution_param {
    num_output: 96
    kernel_size: 1
    weight_filler {
      type: "xavier"
      std: 0.09
    }
    bias_filler {
      type: "constant"
      value: 0.2
    }
  }
}
layer {
  name: "inception_3a/relu_3x3_reduce"
  type: "ReLU"
  bottom: "inception_3a/3x3_reduce"
  top: "inception_3a/3x3_reduce"
}
layer {
  name: "inception_3a/3x3"
  type: "Convolution"
  bottom: "inception_3a/3x3_reduce"
  top: "inception_3a/3x3"
  param {
    lr_mult: 1
    decay_mult: 1
  }
  param {
    lr_mult: 2
    decay_mult: 0
  }
  convolution_param {
    num_output: 128
    pad: 1
    kernel_size: 3
    weight_filler {
      type: "xavier"
      std: 0.03
    }
    bias_filler {
      type: "constant"
      value: 0.2
    }
  }
}
layer {
  name: "inception_3a/relu_3x3"
  type: "ReLU"
  bottom: "inception_3a/3x3"
  top: "inception_3a/3x3"
}
layer {
  name: "inception_3a/5x5_reduce"
  type: "Convolution"
  bottom: "pool2/3x3_s2"
  top: "inception_3a/5x5_reduce"
  param {
    lr_mult: 1
    decay_mult: 1
  }
  param {
    lr_mult: 2
    decay_mult: 0
  }
  convolution_param {
    num_output: 16
    kernel_size: 1
    weight_filler {
      type: "xavier"
      std: 0.2
    }
    bias_filler {
      type: "constant"
      value: 0.2
    }
  }
}
layer {
  name: "inception_3a/relu_5x5_reduce"
  type: "ReLU"
  bottom: "inception_3a/5x5_reduce"
  top: "inception_3a/5x5_reduce"
}
layer {
  name: "inception_3a/5x5"
  type: "Convolution"
  bottom: "inception_3a/5x5_reduce"
  top: "inception_3a/5x5"
  param {
    lr_mult: 1
    decay_mult: 1
  }
  param {
    lr_mult: 2
    decay_mult: 0
  }
  convolution_param {
    num_output: 32
    pad: 2
    kernel_size: 5
    weight_filler {
      type: "xavier"
      std: 0.03
    }
    bias_filler {
      type: "constant"
      value: 0.2
    }
  }
}
layer {
  name: "inception_3a/relu_5x5"
  type: "ReLU"
  bottom: "inception_3a/5x5"
  top: "inception_3a/5x5"
}
layer {
  name: "inception_3a/pool"
  type: "Pooling"
  bottom: "pool2/3x3_s2"
  top: "inception_3a/pool"
  pooling_param {
    pool: MAX
    kernel_size: 3
    stride: 1
    pad: 1
  }
}
layer {
  name: "inception_3a/pool_proj"
  type: "Convolution"
  bottom: "inception_3a/pool"
  top: "inception_3a/pool_proj"
  param {
    lr_mult: 1
    decay_mult: 1
  }
  param {
    lr_mult: 2
    decay_mult: 0
  }
  convolution_param {
    num_output: 32
    kernel_size: 1
    weight_filler {
      type: "xavier"
      std: 0.1
    }
    bias_filler {
      type: "constant"
      value: 0.2
    }
  }
}
layer {
  name: "inception_3a/relu_pool_proj"
  type: "ReLU"
  bottom: "inception_3a/pool_proj"
  top: "inception_3a/pool_proj"
}
layer {
  name: "inception_3a/output"
  type: "Concat"
  bottom: "inception_3a/1x1"
  bottom: "inception_3a/3x3"
  bottom: "inception_3a/5x5"
  bottom: "inception_3a/pool_proj"
  top: "inception_3a/output"
}
layer {
  name: "inception_3b/1x1"
  type: "Convolution"
  bottom: "inception_3a/output"
  top: "inception_3b/1x1"
  param {
    lr_mult: 1
    decay_mult: 1
  }
  param {
    lr_mult: 2
    decay_mult: 0
  }
  convolution_param {
    num_output: 128
    kernel_size: 1
    weight_filler {
      type: "xavier"
      std: 0.03
    }
    bias_filler {
      type: "constant"
      value: 0.2
    }
  }
}
layer {
  name: "inception_3b/relu_1x1"
  type: "ReLU"
  bottom: "inception_3b/1x1"
  top: "inception_3b/1x1"
}
layer {
  name: "inception_3b/3x3_reduce"
  type: "Convolution"
  bottom: "inception_3a/output"
  top: "inception_3b/3x3_reduce"
  param {
    lr_mult: 1
    decay_mult: 1
  }
  param {
    lr_mult: 2
    decay_mult: 0
  }
  convolution_param {
    num_output: 128
    kernel_size: 1
    weight_filler {
      type: "xavier"
      std: 0.09
    }
    bias_filler {
      type: "constant"
      value: 0.2
    }
  }
}
layer {
  name: "inception_3b/relu_3x3_reduce"
  type: "ReLU"
  bottom: "inception_3b/3x3_reduce"
  top: "inception_3b/3x3_reduce"
}
layer {
  name: "inception_3b/3x3"
  type: "Convolution"
  bottom: "inception_3b/3x3_reduce"
  top: "inception_3b/3x3"
  param {
    lr_mult: 1
    decay_mult: 1
  }
  param {
    lr_mult: 2
    decay_mult: 0
  }
  convolution_param {
    num_output: 192
    pad: 1
    kernel_size: 3
    weight_filler {
      type: "xavier"
      std: 0.03
    }
    bias_filler {
      type: "constant"
      value: 0.2
    }
  }
}
layer {
  name: "inception_3b/relu_3x3"
  type: "ReLU"
  bottom: "inception_3b/3x3"
  top: "inception_3b/3x3"
}
layer {
  name: "inception_3b/5x5_reduce"
  type: "Convolution"
  bottom: "inception_3a/output"
  top: "inception_3b/5x5_reduce"
  param {
    lr_mult: 1
    decay_mult: 1
  }
  param {
    lr_mult: 2
    decay_mult: 0
  }
  convolution_param {
    num_output: 32
    kernel_size: 1
    weight_filler {
      type: "xavier"
      std: 0.2
    }
    bias_filler {
      type: "constant"
      value: 0.2
    }
  }
}
layer {
  name: "inception_3b/relu_5x5_reduce"
  type: "ReLU"
  bottom: "inception_3b/5x5_reduce"
  top: "inception_3b/5x5_reduce"
}
layer {
  name: "inception_3b/5x5"
  type: "Convolution"
  bottom: "inception_3b/5x5_reduce"
  top: "inception_3b/5x5"
  param {
    lr_mult: 1
    decay_mult: 1
  }
  param {
    lr_mult: 2
    decay_mult: 0
  }
  convolution_param {
    num_output: 96
    pad: 2
    kernel_size: 5
    weight_filler {
      type: "xavier"
      std: 0.03
    }
    bias_filler {
      type: "constant"
      value: 0.2
    }
  }
}
layer {
  name: "inception_3b/relu_5x5"
  type: "ReLU"
  bottom: "inception_3b/5x5"
  top: "inception_3b/5x5"
}
layer {
  name: "inception_3b/pool"
  type: "Pooling"
  bottom: "inception_3a/output"
  top: "inception_3b/pool"
  pooling_param {
    pool: MAX
    kernel_size: 3
    stride: 1
    pad: 1
  }
}
layer {
  name: "inception_3b/pool_proj"
  type: "Convolution"
  bottom: "inception_3b/pool"
  top: "inception_3b/pool_proj"
  param {
    lr_mult: 1
    decay_mult: 1
  }
  param {
    lr_mult: 2
    decay_mult: 0
  }
  convolution_param {
    num_output: 64
    kernel_size: 1
    weight_filler {
      type: "xavier"
      std: 0.1
    }
    bias_filler {
      type: "constant"
      value: 0.2
    }
  }
}
layer {
  name: "inception_3b/relu_pool_proj"
  type: "ReLU"
  bottom: "inception_3b/pool_proj"
  top: "inception_3b/pool_proj"
}
layer {
  name: "inception_3b/output"
  type: "Concat"
  bottom: "inception_3b/1x1"
  bottom: "inception_3b/3x3"
  bottom: "inception_3b/5x5"
  bottom: "inception_3b/pool_proj"
  top: "inception_3b/output"
}
layer {
  name: "pool3/3x3_s2"
  type: "Pooling"
  bottom: "inception_3b/output"
  top: "pool3/3x3_s2"
  pooling_param {
    pool: MAX
    kernel_size: 3
    stride: 2
  }
}
layer {
  name: "inception_4a/1x1"
  type: "Convolution"
  bottom: "pool3/3x3_s2"
  top: "inception_4a/1x1"
  param {
    lr_mult: 1
    decay_mult: 1
  }
  param {
    lr_mult: 2
    decay_mult: 0
  }
  convolution_param {
    num_output: 192
    kernel_size: 1
    weight_filler {
      type: "xavier"
      std: 0.03
    }
    bias_filler {
      type: "constant"
      value: 0.2
    }
  }
}
layer {
  name: "inception_4a/relu_1x1"
  type: "ReLU"
  bottom: "inception_4a/1x1"
  top: "inception_4a/1x1"
}
layer {
  name: "inception_4a/3x3_reduce"
  type: "Convolution"
  bottom: "pool3/3x3_s2"
  top: "inception_4a/3x3_reduce"
  param {
    lr_mult: 1
    decay_mult: 1
  }
  param {
    lr_mult: 2
    decay_mult: 0
  }
  convolution_param {
    num_output: 96
    kernel_size: 1
    weight_filler {
      type: "xavier"
      std: 0.09
    }
    bias_filler {
      type: "constant"
      value: 0.2
    }
  }
}
layer {
  name: "inception_4a/relu_3x3_reduce"
  type: "ReLU"
  bottom: "inception_4a/3x3_reduce"
  top: "inception_4a/3x3_reduce"
}
layer {
  name: "inception_4a/3x3"
  type: "Convolution"
  bottom: "inception_4a/3x3_reduce"
  top: "inception_4a/3x3"
  param {
    lr_mult: 1
    decay_mult: 1
  }
  param {
    lr_mult: 2
    decay_mult: 0
  }
  convolution_param {
    num_output: 208
    pad: 1
    kernel_size: 3
    weight_filler {
      type: "xavier"
      std: 0.03
    }
    bias_filler {
      type: "constant"
      value: 0.2
    }
  }
}
layer {
  name: "inception_4a/relu_3x3"
  type: "ReLU"
  bottom: "inception_4a/3x3"
  top: "inception_4a/3x3"
}
layer {
  name: "inception_4a/5x5_reduce"
  type: "Convolution"
  bottom: "pool3/3x3_s2"
  top: "inception_4a/5x5_reduce"
  param {
    lr_mult: 1
    decay_mult: 1
  }
  param {
    lr_mult: 2
    decay_mult: 0
  }
  convolution_param {
    num_output: 16
    kernel_size: 1
    weight_filler {
      type: "xavier"
      std: 0.2
    }
    bias_filler {
      type: "constant"
      value: 0.2
    }
  }
}
layer {
  name: "inception_4a/relu_5x5_reduce"
  type: "ReLU"
  bottom: "inception_4a/5x5_reduce"
  top: "inception_4a/5x5_reduce"
}
layer {
  name: "inception_4a/5x5"
  type: "Convolution"
  bottom: "inception_4a/5x5_reduce"
  top: "inception_4a/5x5"
  param {
    lr_mult: 1
    decay_mult: 1
  }
  param {
    lr_mult: 2
    decay_mult: 0
  }
  convolution_param {
    num_output: 48
    pad: 2
    kernel_size: 5
    weight_filler {
      type: "xavier"
      std: 0.03
    }
    bias_filler {
      type: "constant"
      value: 0.2
    }
  }
}
layer {
  name: "inception_4a/relu_5x5"
  type: "ReLU"
  bottom: "inception_4a/5x5"
  top: "inception_4a/5x5"
}
layer {
  name: "inception_4a/pool"
  type: "Pooling"
  bottom: "pool3/3x3_s2"
  top: "inception_4a/pool"
  pooling_param {
    pool: MAX
    kernel_size: 3
    stride: 1
    pad: 1
  }
}
layer {
  name: "inception_4a/pool_proj"
  type: "Convolution"
  bottom: "inception_4a/pool"
  top: "inception_4a/pool_proj"
  param {
    lr_mult: 1
    decay_mult: 1
  }
  param {
    lr_mult: 2
    decay_mult: 0
  }
  convolution_param {
    num_output: 64
    kernel_size: 1
    weight_filler {
      type: "xavier"
      std: 0.1
    }
    bias_filler {
      type: "constant"
      value: 0.2
    }
  }
}
layer {
  name: "inception_4a/relu_pool_proj"
  type: "ReLU"
  bottom: "inception_4a/pool_proj"
  top: "inception_4a/pool_proj"
}
layer {
  name: "inception_4a/output"
  type: "Concat"
  bottom: "inception_4a/1x1"
  bottom: "inception_4a/3x3"
  bottom: "inception_4a/5x5"
  bottom: "inception_4a/pool_proj"
  top: "inception_4a/output"
}
layer {
  name: "loss1/ave_pool"
  type: "Pooling"
  bottom: "inception_4a/output"
  top: "loss1/ave_pool"
  pooling_param {
    pool: AVE
    kernel_size: 5
    stride: 3
  }
}
layer {
  name: "loss1/conv"
  type: "Convolution"
  bottom: "loss1/ave_pool"
  top: "loss1/conv"
  param {
    lr_mult: 1
    decay_mult: 1
  }
  param {
    lr_mult: 2
    decay_mult: 0
  }
  convolution_param {
    num_output: 128
    kernel_size: 1
    weight_filler {
      type: "xavier"
      std: 0.08
    }
    bias_filler {
      type: "constant"
      value: 0.2
    }
  }
}
layer {
  name: "loss1/relu_conv"
  type: "ReLU"
  bottom: "loss1/conv"
  top: "loss1/conv"
}
layer {
  name: "loss1/fc"
  type: "InnerProduct"
  bottom: "loss1/conv"
  top: "loss1/fc"
  param {
    lr_mult: 1
    decay_mult: 1
  }
  param {
    lr_mult: 2
    decay_mult: 0
  }
  inner_product_param {
    num_output: 1024
    weight_filler {
      type: "xavier"
      std: 0.02
    }
    bias_filler {
      type: "constant"
      value: 0.2
    }
  }
}
layer {
  name: "loss1/relu_fc"
  type: "ReLU"
  bottom: "loss1/fc"
  top: "loss1/fc"
}
layer {
  name: "loss1/drop_fc"
  type: "Dropout"
  bottom: "loss1/fc"
  top: "loss1/fc"
  dropout_param {
    dropout_ratio: 0.7
  }
}
layer {
  name: "loss1/classifier_plantvillage"
  type: "InnerProduct"
  bottom: "loss1/fc"
  top: "loss1/classifier_plantvillage"
  param {
    lr_mult: 1
    decay_mult: 1
  }
  param {
    lr_mult: 2
    decay_mult: 0
  }
  inner_product_param {
    num_output: 38
    weight_filler {
      type: "xavier"
      std: 0.0009765625
    }
    bias_filler {
      type: "constant"
      value: 0
    }
  }
}
layer {
  name: "inception_4b/1x1"
  type: "Convolution"
  bottom: "inception_4a/output"
  top: "inception_4b/1x1"
  param {
    lr_mult: 1
    decay_mult: 1
  }
  param {
    lr_mult: 2
    decay_mult: 0
  }
  convolution_param {
    num_output: 160
    kernel_size: 1
    weight_filler {
      type: "xavier"
      std: 0.03
    }
    bias_filler {
      type: "constant"
      value: 0.2
    }
  }
}
layer {
  name: "inception_4b/relu_1x1"
  type: "ReLU"
  bottom: "inception_4b/1x1"
  top: "inception_4b/1x1"
}
layer {
  name: "inception_4b/3x3_reduce"
  type: "Convolution"
  bottom: "inception_4a/output"
  top: "inception_4b/3x3_reduce"
  param {
    lr_mult: 1
    decay_mult: 1
  }
  param {
    lr_mult: 2
    decay_mult: 0
  }
  convolution_param {
    num_output: 112
    kernel_size: 1
    weight_filler {
      type: "xavier"
      std: 0.09
    }
    bias_filler {
      type: "constant"
      value: 0.2
    }
  }
}
layer {
  name: "inception_4b/relu_3x3_reduce"
  type: "ReLU"
  bottom: "inception_4b/3x3_reduce"
  top: "inception_4b/3x3_reduce"
}
layer {
  name: "inception_4b/3x3"
  type: "Convolution"
  bottom: "inception_4b/3x3_reduce"
  top: "inception_4b/3x3"
  param {
    lr_mult: 1
    decay_mult: 1
  }
  param {
    lr_mult: 2
    decay_mult: 0
  }
  convolution_param {
    num_output: 224
    pad: 1
    kernel_size: 3
    weight_filler {
      type: "xavier"
      std: 0.03
    }
    bias_filler {
      type: "constant"
      value: 0.2
    }
  }
}
layer {
  name: "inception_4b/relu_3x3"
  type: "ReLU"
  bottom: "inception_4b/3x3"
  top: "inception_4b/3x3"
}
layer {
  name: "inception_4b/5x5_reduce"
  type: "Convolution"
  bottom: "inception_4a/output"
  top: "inception_4b/5x5_reduce"
  param {
    lr_mult: 1
    decay_mult: 1
  }
  param {
    lr_mult: 2
    decay_mult: 0
  }
  convolution_param {
    num_output: 24
    kernel_size: 1
    weight_filler {
      type: "xavier"
      std: 0.2
    }
    bias_filler {
      type: "constant"
      value: 0.2
    }
  }
}
layer {
  name: "inception_4b/relu_5x5_reduce"
  type: "ReLU"
  bottom: "inception_4b/5x5_reduce"
  top: "inception_4b/5x5_reduce"
}
layer {
  name: "inception_4b/5x5"
  type: "Convolution"
  bottom: "inception_4b/5x5_reduce"
  top: "inception_4b/5x5"
  param {
    lr_mult: 1
    decay_mult: 1
  }
  param {
    lr_mult: 2
    decay_mult: 0
  }
  convolution_param {
    num_output: 64
    pad: 2
    kernel_size: 5
    weight_filler {
      type: "xavier"
      std: 0.03
    }
    bias_filler {
      type: "constant"
      value: 0.2
    }
  }
}
layer {
  name: "inception_4b/relu_5x5"
  type: "ReLU"
  bottom: "inception_4b/5x5"
  top: "inception_4b/5x5"
}
layer {
  name: "inception_4b/pool"
  type: "Pooling"
  bottom: "inception_4a/output"
  top: "inception_4b/pool"
  pooling_param {
    pool: MAX
    kernel_size: 3
    stride: 1
    pad: 1
  }
}
layer {
  name: "inception_4b/pool_proj"
  type: "Convolution"
  bottom: "inception_4b/pool"
  top: "inception_4b/pool_proj"
  param {
    lr_mult: 1
    decay_mult: 1
  }
  param {
    lr_mult: 2
    decay_mult: 0
  }
  convolution_param {
    num_output: 64
    kernel_size: 1
    weight_filler {
      type: "xavier"
      std: 0.1
    }
    bias_filler {
      type: "constant"
      value: 0.2
    }
  }
}
layer {
  name: "inception_4b/relu_pool_proj"
  type: "ReLU"
  bottom: "inception_4b/pool_proj"
  top: "inception_4b/pool_proj"
}
layer {
  name: "inception_4b/output"
  type: "Concat"
  bottom: "inception_4b/1x1"
  bottom: "inception_4b/3x3"
  bottom: "inception_4b/5x5"
  bottom: "inception_4b/pool_proj"
  top: "inception_4b/output"
}
layer {
  name: "inception_4c/1x1"
  type: "Convolution"
  bottom: "inception_4b/output"
  top: "inception_4c/1x1"
  param {
    lr_mult: 1
    decay_mult: 1
  }
  param {
    lr_mult: 2
    decay_mult: 0
  }
  convolution_param {
    num_output: 128
    kernel_size: 1
    weight_filler {
      type: "xavier"
      std: 0.03
    }
    bias_filler {
      type: "constant"
      value: 0.2
    }
  }
}
layer {
  name: "inception_4c/relu_1x1"
  type: "ReLU"
  bottom: "inception_4c/1x1"
  top: "inception_4c/1x1"
}
layer {
  name: "inception_4c/3x3_reduce"
  type: "Convolution"
  bottom: "inception_4b/output"
  top: "inception_4c/3x3_reduce"
  param {
    lr_mult: 1
    decay_mult: 1
  }
  param {
    lr_mult: 2
    decay_mult: 0
  }
  convolution_param {
    num_output: 128
    kernel_size: 1
    weight_filler {
      type: "xavier"
      std: 0.09
    }
    bias_filler {
      type: "constant"
      value: 0.2
    }
  }
}
layer {
  name: "inception_4c/relu_3x3_reduce"
  type: "ReLU"
  bottom: "inception_4c/3x3_reduce"
  top: "inception_4c/3x3_reduce"
}
layer {
  name: "inception_4c/3x3"
  type: "Convolution"
  bottom: "inception_4c/3x3_reduce"
  top: "inception_4c/3x3"
  param {
    lr_mult: 1
    decay_mult: 1
  }
  param {
    lr_mult: 2
    decay_mult: 0
  }
  convolution_param {
    num_output: 256
    pad: 1
    kernel_size: 3
    weight_filler {
      type: "xavier"
      std: 0.03
    }
    bias_filler {
      type: "constant"
      value: 0.2
    }
  }
}
layer {
  name: "inception_4c/relu_3x3"
  type: "ReLU"
  bottom: "inception_4c/3x3"
  top: "inception_4c/3x3"
}
layer {
  name: "inception_4c/5x5_reduce"
  type: "Convolution"
  bottom: "inception_4b/output"
  top: "inception_4c/5x5_reduce"
  param {
    lr_mult: 1
    decay_mult: 1
  }
  param {
    lr_mult: 2
    decay_mult: 0
  }
  convolution_param {
    num_output: 24
    kernel_size: 1
    weight_filler {
      type: "xavier"
      std: 0.2
    }
    bias_filler {
      type: "constant"
      value: 0.2
    }
  }
}
layer {
  name: "inception_4c/relu_5x5_reduce"
  type: "ReLU"
  bottom: "inception_4c/5x5_reduce"
  top: "inception_4c/5x5_reduce"
}
layer {
  name: "inception_4c/5x5"
  type: "Convolution"
  bottom: "inception_4c/5x5_reduce"
  top: "inception_4c/5x5"
  param {
    lr_mult: 1
    decay_mult: 1
  }
  param {
    lr_mult: 2
    decay_mult: 0
  }
  convolution_param {
    num_output: 64
    pad: 2
    kernel_size: 5
    weight_filler {
      type: "xavier"
      std: 0.03
    }
    bias_filler {
      type: "constant"
      value: 0.2
    }
  }
}
layer {
  name: "inception_4c/relu_5x5"
  type: "ReLU"
  bottom: "inception_4c/5x5"
  top: "inception_4c/5x5"
}
layer {
  name: "inception_4c/pool"
  type: "Pooling"
  bottom: "inception_4b/output"
  top: "inception_4c/pool"
  pooling_param {
    pool: MAX
    kernel_size: 3
    stride: 1
    pad: 1
  }
}
layer {
  name: "inception_4c/pool_proj"
  type: "Convolution"
  bottom: "inception_4c/pool"
  top: "inception_4c/pool_proj"
  param {
    lr_mult: 1
    decay_mult: 1
  }
  param {
    lr_mult: 2
    decay_mult: 0
  }
  convolution_param {
    num_output: 64
    kernel_size: 1
    weight_filler {
      type: "xavier"
      std: 0.1
    }
    bias_filler {
      type: "constant"
      value: 0.2
    }
  }
}
layer {
  name: "inception_4c/relu_pool_proj"
  type: "ReLU"
  bottom: "inception_4c/pool_proj"
  top: "inception_4c/pool_proj"
}
layer {
  name: "inception_4c/output"
  type: "Concat"
  bottom: "inception_4c/1x1"
  bottom: "inception_4c/3x3"
  bottom: "inception_4c/5x5"
  bottom: "inception_4c/pool_proj"
  top: "inception_4c/output"
}
layer {
  name: "inception_4d/1x1"
  type: "Convolution"
  bottom: "inception_4c/output"
  top: "inception_4d/1x1"
  param {
    lr_mult: 1
    decay_mult: 1
  }
  param {
    lr_mult: 2
    decay_mult: 0
  }
  convolution_param {
    num_output: 112
    kernel_size: 1
    weight_filler {
      type: "xavier"
      std: 0.03
    }
    bias_filler {
      type: "constant"
      value: 0.2
    }
  }
}
layer {
  name: "inception_4d/relu_1x1"
  type: "ReLU"
  bottom: "inception_4d/1x1"
  top: "inception_4d/1x1"
}
layer {
  name: "inception_4d/3x3_reduce"
  type: "Convolution"
  bottom: "inception_4c/output"
  top: "inception_4d/3x3_reduce"
  param {
    lr_mult: 1
    decay_mult: 1
  }
  param {
    lr_mult: 2
    decay_mult: 0
  }
  convolution_param {
    num_output: 144
    kernel_size: 1
    weight_filler {
      type: "xavier"
      std: 0.09
    }
    bias_filler {
      type: "constant"
      value: 0.2
    }
  }
}
layer {
  name: "inception_4d/relu_3x3_reduce"
  type: "ReLU"
  bottom: "inception_4d/3x3_reduce"
  top: "inception_4d/3x3_reduce"
}
layer {
  name: "inception_4d/3x3"
  type: "Convolution"
  bottom: "inception_4d/3x3_reduce"
  top: "inception_4d/3x3"
  param {
    lr_mult: 1
    decay_mult: 1
  }
  param {
    lr_mult: 2
    decay_mult: 0
  }
  convolution_param {
    num_output: 288
    pad: 1
    kernel_size: 3
    weight_filler {
      type: "xavier"
      std: 0.03
    }
    bias_filler {
      type: "constant"
      value: 0.2
    }
  }
}
layer {
  name: "inception_4d/relu_3x3"
  type: "ReLU"
  bottom: "inception_4d/3x3"
  top: "inception_4d/3x3"
}
layer {
  name: "inception_4d/5x5_reduce"
  type: "Convolution"
  bottom: "inception_4c/output"
  top: "inception_4d/5x5_reduce"
  param {
    lr_mult: 1
    decay_mult: 1
  }
  param {
    lr_mult: 2
    decay_mult: 0
  }
  convolution_param {
    num_output: 32
    kernel_size: 1
    weight_filler {
      type: "xavier"
      std: 0.2
    }
    bias_filler {
      type: "constant"
      value: 0.2
    }
  }
}
layer {
  name: "inception_4d/relu_5x5_reduce"
  type: "ReLU"
  bottom: "inception_4d/5x5_reduce"
  top: "inception_4d/5x5_reduce"
}
layer {
  name: "inception_4d/5x5"
  type: "Convolution"
  bottom: "inception_4d/5x5_reduce"
  top: "inception_4d/5x5"
  param {
    lr_mult: 1
    decay_mult: 1
  }
  param {
    lr_mult: 2
    decay_mult: 0
  }
  convolution_param {
    num_output: 64
    pad: 2
    kernel_size: 5
    weight_filler {
      type: "xavier"
      std: 0.03
    }
    bias_filler {
      type: "constant"
      value: 0.2
    }
  }
}
layer {
  name: "inception_4d/relu_5x5"
  type: "ReLU"
  bottom: "inception_4d/5x5"
  top: "inception_4d/5x5"
}
layer {
  name: "inception_4d/pool"
  type: "Pooling"
  bottom: "inception_4c/output"
  top: "inception_4d/pool"
  pooling_param {
    pool: MAX
    kernel_size: 3
    stride: 1
    pad: 1
  }
}
layer {
  name: "inception_4d/pool_proj"
  type: "Convolution"
  bottom: "inception_4d/pool"
  top: "inception_4d/pool_proj"
  param {
    lr_mult: 1
    decay_mult: 1
  }
  param {
    lr_mult: 2
    decay_mult: 0
  }
  convolution_param {
    num_output: 64
    kernel_size: 1
    weight_filler {
      type: "xavier"
      std: 0.1
    }
    bias_filler {
      type: "constant"
      value: 0.2
    }
  }
}
layer {
  name: "inception_4d/relu_pool_proj"
  type: "ReLU"
  bottom: "inception_4d/pool_proj"
  top: "inception_4d/pool_proj"
}
layer {
  name: "inception_4d/output"
  type: "Concat"
  bottom: "inception_4d/1x1"
  bottom: "inception_4d/3x3"
  bottom: "inception_4d/5x5"
  bottom: "inception_4d/pool_proj"
  top: "inception_4d/output"
}
layer {
  name: "loss2/ave_pool"
  type: "Pooling"
  bottom: "inception_4d/output"
  top: "loss2/ave_pool"
  pooling_param {
    pool: AVE
    kernel_size: 5
    stride: 3
  }
}
layer {
  name: "loss2/conv"
  type: "Convolution"
  bottom: "loss2/ave_pool"
  top: "loss2/conv"
  param {
    lr_mult: 1
    decay_mult: 1
  }
  param {
    lr_mult: 2
    decay_mult: 0
  }
  convolution_param {
    num_output: 128
    kernel_size: 1
    weight_filler {
      type: "xavier"
      std: 0.08
    }
    bias_filler {
      type: "constant"
      value: 0.2
    }
  }
}
layer {
  name: "loss2/relu_conv"
  type: "ReLU"
  bottom: "loss2/conv"
  top: "loss2/conv"
}
layer {
  name: "loss2/fc"
  type: "InnerProduct"
  bottom: "loss2/conv"
  top: "loss2/fc"
  param {
    lr_mult: 1
    decay_mult: 1
  }
  param {
    lr_mult: 2
    decay_mult: 0
  }
  inner_product_param {
    num_output: 1024
    weight_filler {
      type: "xavier"
      std: 0.02
    }
    bias_filler {
      type: "constant"
      value: 0.2
    }
  }
}
layer {
  name: "loss2/relu_fc"
  type: "ReLU"
  bottom: "loss2/fc"
  top: "loss2/fc"
}
layer {
  name: "loss2/drop_fc"
  type: "Dropout"
  bottom: "loss2/fc"
  top: "loss2/fc"
  dropout_param {
    dropout_ratio: 0.7
  }
}
layer {
  name: "loss2/classifier_plantvillage"
  type: "InnerProduct"
  bottom: "loss2/fc"
  top: "loss2/classifier_plantvillage"
  param {
    lr_mult: 1
    decay_mult: 1
  }
  param {
    lr_mult: 2
    decay_mult: 0
  }
  inner_product_param {
    num_output: 38
    weight_filler {
      type: "xavier"
      std: 0.0009765625
    }
    bias_filler {
      type: "constant"
      value: 0
    }
  }
}
layer {
  name: "inception_4e/1x1"
  type: "Convolution"
  bottom: "inception_4d/output"
  top: "inception_4e/1x1"
  param {
    lr_mult: 1
    decay_mult: 1
  }
  param {
    lr_mult: 2
    decay_mult: 0
  }
  convolution_param {
    num_output: 256
    kernel_size: 1
    weight_filler {
      type: "xavier"
      std: 0.03
    }
    bias_filler {
      type: "constant"
      value: 0.2
    }
  }
}
layer {
  name: "inception_4e/relu_1x1"
  type: "ReLU"
  bottom: "inception_4e/1x1"
  top: "inception_4e/1x1"
}
layer {
  name: "inception_4e/3x3_reduce"
  type: "Convolution"
  bottom: "inception_4d/output"
  top: "inception_4e/3x3_reduce"
  param {
    lr_mult: 1
    decay_mult: 1
  }
  param {
    lr_mult: 2
    decay_mult: 0
  }
  convolution_param {
    num_output: 160
    kernel_size: 1
    weight_filler {
      type: "xavier"
      std: 0.09
    }
    bias_filler {
      type: "constant"
      value: 0.2
    }
  }
}
layer {
  name: "inception_4e/relu_3x3_reduce"
  type: "ReLU"
  bottom: "inception_4e/3x3_reduce"
  top: "inception_4e/3x3_reduce"
}
layer {
  name: "inception_4e/3x3"
  type: "Convolution"
  bottom: "inception_4e/3x3_reduce"
  top: "inception_4e/3x3"
  param {
    lr_mult: 1
    decay_mult: 1
  }
  param {
    lr_mult: 2
    decay_mult: 0
  }
  convolution_param {
    num_output: 320
    pad: 1
    kernel_size: 3
    weight_filler {
      type: "xavier"
      std: 0.03
    }
    bias_filler {
      type: "constant"
      value: 0.2
    }
  }
}
layer {
  name: "inception_4e/relu_3x3"
  type: "ReLU"
  bottom: "inception_4e/3x3"
  top: "inception_4e/3x3"
}
layer {
  name: "inception_4e/5x5_reduce"
  type: "Convolution"
  bottom: "inception_4d/output"
  top: "inception_4e/5x5_reduce"
  param {
    lr_mult: 1
    decay_mult: 1
  }
  param {
    lr_mult: 2
    decay_mult: 0
  }
  convolution_param {
    num_output: 32
    kernel_size: 1
    weight_filler {
      type: "xavier"
      std: 0.2
    }
    bias_filler {
      type: "constant"
      value: 0.2
    }
  }
}
layer {
  name: "inception_4e/relu_5x5_reduce"
  type: "ReLU"
  bottom: "inception_4e/5x5_reduce"
  top: "inception_4e/5x5_reduce"
}
layer {
  name: "inception_4e/5x5"
  type: "Convolution"
  bottom: "inception_4e/5x5_reduce"
  top: "inception_4e/5x5"
  p
I0403 19:32:13.066339  9357 layer_factory.hpp:77] Creating layer data
I0403 19:32:13.066936  9357 net.cpp:91] Creating Layer data
I0403 19:32:13.066968  9357 net.cpp:399] data -> data
I0403 19:32:13.067028  9357 net.cpp:399] data -> label
I0403 19:32:13.067065  9357 data_transformer.cpp:25] Loading mean file from: /home/mohanty/data/final_dataset/lmdb/color-60-40/mean.binaryproto
I0403 19:32:13.068274  9359 db_lmdb.cpp:38] Opened lmdb /home/mohanty/data/final_dataset/lmdb/color-60-40/test_db
I0403 19:32:13.080646  9357 data_layer.cpp:41] output data size: 24,3,224,224
I0403 19:32:13.106680  9357 net.cpp:141] Setting up data
I0403 19:32:13.106760  9357 net.cpp:148] Top shape: 24 3 224 224 (3612672)
I0403 19:32:13.106783  9357 net.cpp:148] Top shape: 24 (24)
I0403 19:32:13.106799  9357 net.cpp:156] Memory required for data: 14450784
I0403 19:32:13.106828  9357 layer_factory.hpp:77] Creating layer label_data_1_split
I0403 19:32:13.106858  9357 net.cpp:91] Creating Layer label_data_1_split
I0403 19:32:13.106875  9357 net.cpp:425] label_data_1_split <- label
I0403 19:32:13.106910  9357 net.cpp:399] label_data_1_split -> label_data_1_split_0
I0403 19:32:13.106938  9357 net.cpp:399] label_data_1_split -> label_data_1_split_1
I0403 19:32:13.106959  9357 net.cpp:399] label_data_1_split -> label_data_1_split_2
I0403 19:32:13.106979  9357 net.cpp:399] label_data_1_split -> label_data_1_split_3
I0403 19:32:13.106999  9357 net.cpp:399] label_data_1_split -> label_data_1_split_4
I0403 19:32:13.107019  9357 net.cpp:399] label_data_1_split -> label_data_1_split_5
I0403 19:32:13.107036  9357 net.cpp:399] label_data_1_split -> label_data_1_split_6
I0403 19:32:13.107056  9357 net.cpp:399] label_data_1_split -> label_data_1_split_7
I0403 19:32:13.107075  9357 net.cpp:399] label_data_1_split -> label_data_1_split_8
I0403 19:32:13.107095  9357 net.cpp:399] label_data_1_split -> label_data_1_split_9
I0403 19:32:13.107203  9357 net.cpp:141] Setting up label_data_1_split
I0403 19:32:13.107226  9357 net.cpp:148] Top shape: 24 (24)
I0403 19:32:13.107244  9357 net.cpp:148] Top shape: 24 (24)
I0403 19:32:13.107259  9357 net.cpp:148] Top shape: 24 (24)
I0403 19:32:13.107275  9357 net.cpp:148] Top shape: 24 (24)
I0403 19:32:13.107290  9357 net.cpp:148] Top shape: 24 (24)
I0403 19:32:13.107305  9357 net.cpp:148] Top shape: 24 (24)
I0403 19:32:13.107321  9357 net.cpp:148] Top shape: 24 (24)
I0403 19:32:13.107336  9357 net.cpp:148] Top shape: 24 (24)
I0403 19:32:13.107352  9357 net.cpp:148] Top shape: 24 (24)
I0403 19:32:13.107367  9357 net.cpp:148] Top shape: 24 (24)
I0403 19:32:13.107419  9357 net.cpp:156] Memory required for data: 14451744
I0403 19:32:13.107441  9357 layer_factory.hpp:77] Creating layer conv1/7x7_s2
I0403 19:32:13.107477  9357 net.cpp:91] Creating Layer conv1/7x7_s2
I0403 19:32:13.107496  9357 net.cpp:425] conv1/7x7_s2 <- data
I0403 19:32:13.107516  9357 net.cpp:399] conv1/7x7_s2 -> conv1/7x7_s2
I0403 19:32:13.245007  9357 net.cpp:141] Setting up conv1/7x7_s2
I0403 19:32:13.245085  9357 net.cpp:148] Top shape: 24 64 112 112 (19267584)
I0403 19:32:13.245102  9357 net.cpp:156] Memory required for data: 91522080
I0403 19:32:13.245137  9357 layer_factory.hpp:77] Creating layer conv1/relu_7x7
I0403 19:32:13.245165  9357 net.cpp:91] Creating Layer conv1/relu_7x7
I0403 19:32:13.245184  9357 net.cpp:425] conv1/relu_7x7 <- conv1/7x7_s2
I0403 19:32:13.245204  9357 net.cpp:386] conv1/relu_7x7 -> conv1/7x7_s2 (in-place)
I0403 19:32:13.245463  9357 net.cpp:141] Setting up conv1/relu_7x7
I0403 19:32:13.245492  9357 net.cpp:148] Top shape: 24 64 112 112 (19267584)
I0403 19:32:13.245509  9357 net.cpp:156] Memory required for data: 168592416
I0403 19:32:13.245525  9357 layer_factory.hpp:77] Creating layer pool1/3x3_s2
I0403 19:32:13.245553  9357 net.cpp:91] Creating Layer pool1/3x3_s2
I0403 19:32:13.245571  9357 net.cpp:425] pool1/3x3_s2 <- conv1/7x7_s2
I0403 19:32:13.245589  9357 net.cpp:399] pool1/3x3_s2 -> pool1/3x3_s2
I0403 19:32:13.245666  9357 net.cpp:141] Setting up pool1/3x3_s2
I0403 19:32:13.245692  9357 net.cpp:148] Top shape: 24 64 56 56 (4816896)
I0403 19:32:13.245707  9357 net.cpp:156] Memory required for data: 187860000
I0403 19:32:13.245723  9357 layer_factory.hpp:77] Creating layer pool1/norm1
I0403 19:32:13.245748  9357 net.cpp:91] Creating Layer pool1/norm1
I0403 19:32:13.245766  9357 net.cpp:425] pool1/norm1 <- pool1/3x3_s2
I0403 19:32:13.245784  9357 net.cpp:399] pool1/norm1 -> pool1/norm1
I0403 19:32:13.246064  9357 net.cpp:141] Setting up pool1/norm1
I0403 19:32:13.246093  9357 net.cpp:148] Top shape: 24 64 56 56 (4816896)
I0403 19:32:13.246109  9357 net.cpp:156] Memory required for data: 207127584
I0403 19:32:13.246124  9357 layer_factory.hpp:77] Creating layer conv2/3x3_reduce
I0403 19:32:13.246148  9357 net.cpp:91] Creating Layer conv2/3x3_reduce
I0403 19:32:13.246165  9357 net.cpp:425] conv2/3x3_reduce <- pool1/norm1
I0403 19:32:13.246183  9357 net.cpp:399] conv2/3x3_reduce -> conv2/3x3_reduce
I0403 19:32:13.247618  9357 net.cpp:141] Setting up conv2/3x3_reduce
I0403 19:32:13.247648  9357 net.cpp:148] Top shape: 24 64 56 56 (4816896)
I0403 19:32:13.247665  9357 net.cpp:156] Memory required for data: 226395168
I0403 19:32:13.247689  9357 layer_factory.hpp:77] Creating layer conv2/relu_3x3_reduce
I0403 19:32:13.247707  9357 net.cpp:91] Creating Layer conv2/relu_3x3_reduce
I0403 19:32:13.247727  9357 net.cpp:425] conv2/relu_3x3_reduce <- conv2/3x3_reduce
I0403 19:32:13.247743  9357 net.cpp:386] conv2/relu_3x3_reduce -> conv2/3x3_reduce (in-place)
I0403 19:32:13.248009  9357 net.cpp:141] Setting up conv2/relu_3x3_reduce
I0403 19:32:13.248037  9357 net.cpp:148] Top shape: 24 64 56 56 (4816896)
I0403 19:32:13.248054  9357 net.cpp:156] Memory required for data: 245662752
I0403 19:32:13.248070  9357 layer_factory.hpp:77] Creating layer conv2/3x3
I0403 19:32:13.248093  9357 net.cpp:91] Creating Layer conv2/3x3
I0403 19:32:13.248111  9357 net.cpp:425] conv2/3x3 <- conv2/3x3_reduce
I0403 19:32:13.248134  9357 net.cpp:399] conv2/3x3 -> conv2/3x3
I0403 19:32:13.250470  9357 net.cpp:141] Setting up conv2/3x3
I0403 19:32:13.250502  9357 net.cpp:148] Top shape: 24 192 56 56 (14450688)
I0403 19:32:13.250519  9357 net.cpp:156] Memory required for data: 303465504
I0403 19:32:13.250552  9357 layer_factory.hpp:77] Creating layer conv2/relu_3x3
I0403 19:32:13.250573  9357 net.cpp:91] Creating Layer conv2/relu_3x3
I0403 19:32:13.250589  9357 net.cpp:425] conv2/relu_3x3 <- conv2/3x3
I0403 19:32:13.250607  9357 net.cpp:386] conv2/relu_3x3 -> conv2/3x3 (in-place)
I0403 19:32:13.250776  9357 net.cpp:141] Setting up conv2/relu_3x3
I0403 19:32:13.250800  9357 net.cpp:148] Top shape: 24 192 56 56 (14450688)
I0403 19:32:13.250849  9357 net.cpp:156] Memory required for data: 361268256
I0403 19:32:13.250864  9357 layer_factory.hpp:77] Creating layer conv2/norm2
I0403 19:32:13.250883  9357 net.cpp:91] Creating Layer conv2/norm2
I0403 19:32:13.250900  9357 net.cpp:425] conv2/norm2 <- conv2/3x3
I0403 19:32:13.250921  9357 net.cpp:399] conv2/norm2 -> conv2/norm2
I0403 19:32:13.251211  9357 net.cpp:141] Setting up conv2/norm2
I0403 19:32:13.251241  9357 net.cpp:148] Top shape: 24 192 56 56 (14450688)
I0403 19:32:13.251257  9357 net.cpp:156] Memory required for data: 419071008
I0403 19:32:13.251272  9357 layer_factory.hpp:77] Creating layer pool2/3x3_s2
I0403 19:32:13.251291  9357 net.cpp:91] Creating Layer pool2/3x3_s2
I0403 19:32:13.251307  9357 net.cpp:425] pool2/3x3_s2 <- conv2/norm2
I0403 19:32:13.251327  9357 net.cpp:399] pool2/3x3_s2 -> pool2/3x3_s2
I0403 19:32:13.251376  9357 net.cpp:141] Setting up pool2/3x3_s2
I0403 19:32:13.251401  9357 net.cpp:148] Top shape: 24 192 28 28 (3612672)
I0403 19:32:13.251416  9357 net.cpp:156] Memory required for data: 433521696
I0403 19:32:13.251435  9357 layer_factory.hpp:77] Creating layer pool2/3x3_s2_pool2/3x3_s2_0_split
I0403 19:32:13.251454  9357 net.cpp:91] Creating Layer pool2/3x3_s2_pool2/3x3_s2_0_split
I0403 19:32:13.251471  9357 net.cpp:425] pool2/3x3_s2_pool2/3x3_s2_0_split <- pool2/3x3_s2
I0403 19:32:13.251489  9357 net.cpp:399] pool2/3x3_s2_pool2/3x3_s2_0_split -> pool2/3x3_s2_pool2/3x3_s2_0_split_0
I0403 19:32:13.251508  9357 net.cpp:399] pool2/3x3_s2_pool2/3x3_s2_0_split -> pool2/3x3_s2_pool2/3x3_s2_0_split_1
I0403 19:32:13.251530  9357 net.cpp:399] pool2/3x3_s2_pool2/3x3_s2_0_split -> pool2/3x3_s2_pool2/3x3_s2_0_split_2
I0403 19:32:13.251550  9357 net.cpp:399] pool2/3x3_s2_pool2/3x3_s2_0_split -> pool2/3x3_s2_pool2/3x3_s2_0_split_3
I0403 19:32:13.251619  9357 net.cpp:141] Setting up pool2/3x3_s2_pool2/3x3_s2_0_split
I0403 19:32:13.251643  9357 net.cpp:148] Top shape: 24 192 28 28 (3612672)
I0403 19:32:13.251660  9357 net.cpp:148] Top shape: 24 192 28 28 (3612672)
I0403 19:32:13.251677  9357 net.cpp:148] Top shape: 24 192 28 28 (3612672)
I0403 19:32:13.251693  9357 net.cpp:148] Top shape: 24 192 28 28 (3612672)
I0403 19:32:13.251706  9357 net.cpp:156] Memory required for data: 491324448
I0403 19:32:13.251720  9357 layer_factory.hpp:77] Creating layer inception_3a/1x1
I0403 19:32:13.251742  9357 net.cpp:91] Creating Layer inception_3a/1x1
I0403 19:32:13.251760  9357 net.cpp:425] inception_3a/1x1 <- pool2/3x3_s2_pool2/3x3_s2_0_split_0
I0403 19:32:13.251781  9357 net.cpp:399] inception_3a/1x1 -> inception_3a/1x1
I0403 19:32:13.253267  9357 net.cpp:141] Setting up inception_3a/1x1
I0403 19:32:13.253295  9357 net.cpp:148] Top shape: 24 64 28 28 (1204224)
I0403 19:32:13.253312  9357 net.cpp:156] Memory required for data: 496141344
I0403 19:32:13.253332  9357 layer_factory.hpp:77] Creating layer inception_3a/relu_1x1
I0403 19:32:13.253350  9357 net.cpp:91] Creating Layer inception_3a/relu_1x1
I0403 19:32:13.253366  9357 net.cpp:425] inception_3a/relu_1x1 <- inception_3a/1x1
I0403 19:32:13.253386  9357 net.cpp:386] inception_3a/relu_1x1 -> inception_3a/1x1 (in-place)
I0403 19:32:13.253556  9357 net.cpp:141] Setting up inception_3a/relu_1x1
I0403 19:32:13.253582  9357 net.cpp:148] Top shape: 24 64 28 28 (1204224)
I0403 19:32:13.253597  9357 net.cpp:156] Memory required for data: 500958240
I0403 19:32:13.253612  9357 layer_factory.hpp:77] Creating layer inception_3a/3x3_reduce
I0403 19:32:13.253633  9357 net.cpp:91] Creating Layer inception_3a/3x3_reduce
I0403 19:32:13.253651  9357 net.cpp:425] inception_3a/3x3_reduce <- pool2/3x3_s2_pool2/3x3_s2_0_split_1
I0403 19:32:13.253671  9357 net.cpp:399] inception_3a/3x3_reduce -> inception_3a/3x3_reduce
I0403 19:32:13.255313  9357 net.cpp:141] Setting up inception_3a/3x3_reduce
I0403 19:32:13.255362  9357 net.cpp:148] Top shape: 24 96 28 28 (1806336)
I0403 19:32:13.255394  9357 net.cpp:156] Memory required for data: 508183584
I0403 19:32:13.255439  9357 layer_factory.hpp:77] Creating layer inception_3a/relu_3x3_reduce
I0403 19:32:13.255496  9357 net.cpp:91] Creating Layer inception_3a/relu_3x3_reduce
I0403 19:32:13.255530  9357 net.cpp:425] inception_3a/relu_3x3_reduce <- inception_3a/3x3_reduce
I0403 19:32:13.255579  9357 net.cpp:386] inception_3a/relu_3x3_reduce -> inception_3a/3x3_reduce (in-place)
I0403 19:32:13.255764  9357 net.cpp:141] Setting up inception_3a/relu_3x3_reduce
I0403 19:32:13.255816  9357 net.cpp:148] Top shape: 24 96 28 28 (1806336)
I0403 19:32:13.255858  9357 net.cpp:156] Memory required for data: 515408928
I0403 19:32:13.255903  9357 layer_factory.hpp:77] Creating layer inception_3a/3x3
I0403 19:32:13.255945  9357 net.cpp:91] Creating Layer inception_3a/3x3
I0403 19:32:13.255985  9357 net.cpp:425] inception_3a/3x3 <- inception_3a/3x3_reduce
I0403 19:32:13.256031  9357 net.cpp:399] inception_3a/3x3 -> inception_3a/3x3
I0403 19:32:13.380051  9357 net.cpp:141] Setting up inception_3a/3x3
I0403 19:32:13.380867  9357 net.cpp:148] Top shape: 24 128 28 28 (2408448)
I0403 19:32:13.380925  9357 net.cpp:156] Memory required for data: 525042720
I0403 19:32:13.380954  9357 layer_factory.hpp:77] Creating layer inception_3a/relu_3x3
I0403 19:32:13.380992  9357 net.cpp:91] Creating Layer inception_3a/relu_3x3
I0403 19:32:13.381016  9357 net.cpp:425] inception_3a/relu_3x3 <- inception_3a/3x3
I0403 19:32:13.381038  9357 net.cpp:386] inception_3a/relu_3x3 -> inception_3a/3x3 (in-place)
I0403 19:32:13.396183  9357 net.cpp:141] Setting up inception_3a/relu_3x3
I0403 19:32:13.396356  9357 net.cpp:148] Top shape: 24 128 28 28 (2408448)
I0403 19:32:13.396387  9357 net.cpp:156] Memory required for data: 534676512
I0403 19:32:13.396474  9357 layer_factory.hpp:77] Creating layer inception_3a/5x5_reduce
I0403 19:32:13.396538  9357 net.cpp:91] Creating Layer inception_3a/5x5_reduce
I0403 19:32:13.396608  9357 net.cpp:425] inception_3a/5x5_reduce <- pool2/3x3_s2_pool2/3x3_s2_0_split_2
I0403 19:32:13.396703  9357 net.cpp:399] inception_3a/5x5_reduce -> inception_3a/5x5_reduce
I0403 19:32:13.399108  9357 net.cpp:141] Setting up inception_3a/5x5_reduce
I0403 19:32:13.399226  9357 net.cpp:148] Top shape: 24 16 28 28 (301056)
I0403 19:32:13.399272  9357 net.cpp:156] Memory required for data: 535880736
I0403 19:32:13.399349  9357 layer_factory.hpp:77] Creating layer inception_3a/relu_5x5_reduce
I0403 19:32:13.399443  9357 net.cpp:91] Creating Layer inception_3a/relu_5x5_reduce
I0403 19:32:13.399497  9357 net.cpp:425] inception_3a/relu_5x5_reduce <- inception_3a/5x5_reduce
I0403 19:32:13.399544  9357 net.cpp:386] inception_3a/relu_5x5_reduce -> inception_3a/5x5_reduce (in-place)
I0403 19:32:13.400254  9357 net.cpp:141] Setting up inception_3a/relu_5x5_reduce
I0403 19:32:13.400348  9357 net.cpp:148] Top shape: 24 16 28 28 (301056)
I0403 19:32:13.400388  9357 net.cpp:156] Memory required for data: 537084960
I0403 19:32:13.400468  9357 layer_factory.hpp:77] Creating layer inception_3a/5x5
I0403 19:32:13.400554  9357 net.cpp:91] Creating Layer inception_3a/5x5
I0403 19:32:13.400601  9357 net.cpp:425] inception_3a/5x5 <- inception_3a/5x5_reduce
I0403 19:32:13.400673  9357 net.cpp:399] inception_3a/5x5 -> inception_3a/5x5
I0403 19:32:13.402827  9357 net.cpp:141] Setting up inception_3a/5x5
I0403 19:32:13.402858  9357 net.cpp:148] Top shape: 24 32 28 28 (602112)
I0403 19:32:13.402873  9357 net.cpp:156] Memory required for data: 539493408
I0403 19:32:13.402894  9357 layer_factory.hpp:77] Creating layer inception_3a/relu_5x5
I0403 19:32:13.402912  9357 net.cpp:91] Creating Layer inception_3a/relu_5x5
I0403 19:32:13.402930  9357 net.cpp:425] inception_3a/relu_5x5 <- inception_3a/5x5
I0403 19:32:13.402951  9357 net.cpp:386] inception_3a/relu_5x5 -> inception_3a/5x5 (in-place)
I0403 19:32:13.403128  9357 net.cpp:141] Setting up inception_3a/relu_5x5
I0403 19:32:13.403156  9357 net.cpp:148] Top shape: 24 32 28 28 (602112)
I0403 19:32:13.403172  9357 net.cpp:156] Memory required for data: 541901856
I0403 19:32:13.403187  9357 layer_factory.hpp:77] Creating layer inception_3a/pool
I0403 19:32:13.403211  9357 net.cpp:91] Creating Layer inception_3a/pool
I0403 19:32:13.403228  9357 net.cpp:425] inception_3a/pool <- pool2/3x3_s2_pool2/3x3_s2_0_split_3
I0403 19:32:13.403286  9357 net.cpp:399] inception_3a/pool -> inception_3a/pool
I0403 19:32:13.403352  9357 net.cpp:141] Setting up inception_3a/pool
I0403 19:32:13.403378  9357 net.cpp:148] Top shape: 24 192 28 28 (3612672)
I0403 19:32:13.403393  9357 net.cpp:156] Memory required for data: 556352544
I0403 19:32:13.403409  9357 layer_factory.hpp:77] Creating layer inception_3a/pool_proj
I0403 19:32:13.403437  9357 net.cpp:91] Creating Layer inception_3a/pool_proj
I0403 19:32:13.403463  9357 net.cpp:425] inception_3a/pool_proj <- inception_3a/pool
I0403 19:32:13.403487  9357 net.cpp:399] inception_3a/pool_proj -> inception_3a/pool_proj
I0403 19:32:13.404464  9357 net.cpp:141] Setting up inception_3a/pool_proj
I0403 19:32:13.404496  9357 net.cpp:148] Top shape: 24 32 28 28 (602112)
I0403 19:32:13.404513  9357 net.cpp:156] Memory required for data: 558760992
I0403 19:32:13.404539  9357 layer_factory.hpp:77] Creating layer inception_3a/relu_pool_proj
I0403 19:32:13.404561  9357 net.cpp:91] Creating Layer inception_3a/relu_pool_proj
I0403 19:32:13.404579  9357 net.cpp:425] inception_3a/relu_pool_proj <- inception_3a/pool_proj
I0403 19:32:13.404598  9357 net.cpp:386] inception_3a/relu_pool_proj -> inception_3a/pool_proj (in-place)
I0403 19:32:13.404881  9357 net.cpp:141] Setting up inception_3a/relu_pool_proj
I0403 19:32:13.404908  9357 net.cpp:148] Top shape: 24 32 28 28 (602112)
I0403 19:32:13.404925  9357 net.cpp:156] Memory required for data: 561169440
I0403 19:32:13.404943  9357 layer_factory.hpp:77] Creating layer inception_3a/output
I0403 19:32:13.404963  9357 net.cpp:91] Creating Layer inception_3a/output
I0403 19:32:13.404979  9357 net.cpp:425] inception_3a/output <- inception_3a/1x1
I0403 19:32:13.404999  9357 net.cpp:425] inception_3a/output <- inception_3a/3x3
I0403 19:32:13.405014  9357 net.cpp:425] inception_3a/output <- inception_3a/5x5
I0403 19:32:13.405031  9357 net.cpp:425] inception_3a/output <- inception_3a/pool_proj
I0403 19:32:13.405051  9357 net.cpp:399] inception_3a/output -> inception_3a/output
I0403 19:32:13.405103  9357 net.cpp:141] Setting up inception_3a/output
I0403 19:32:13.405129  9357 net.cpp:148] Top shape: 24 256 28 28 (4816896)
I0403 19:32:13.405145  9357 net.cpp:156] Memory required for data: 580437024
I0403 19:32:13.405160  9357 layer_factory.hpp:77] Creating layer inception_3a/output_inception_3a/output_0_split
I0403 19:32:13.405179  9357 net.cpp:91] Creating Layer inception_3a/output_inception_3a/output_0_split
I0403 19:32:13.405197  9357 net.cpp:425] inception_3a/output_inception_3a/output_0_split <- inception_3a/output
I0403 19:32:13.405218  9357 net.cpp:399] inception_3a/output_inception_3a/output_0_split -> inception_3a/output_inception_3a/output_0_split_0
I0403 19:32:13.405238  9357 net.cpp:399] inception_3a/output_inception_3a/output_0_split -> inception_3a/output_inception_3a/output_0_split_1
I0403 19:32:13.405264  9357 net.cpp:399] inception_3a/output_inception_3a/output_0_split -> inception_3a/output_inception_3a/output_0_split_2
I0403 19:32:13.405287  9357 net.cpp:399] inception_3a/output_inception_3a/output_0_split -> inception_3a/output_inception_3a/output_0_split_3
I0403 19:32:13.405369  9357 net.cpp:141] Setting up inception_3a/output_inception_3a/output_0_split
I0403 19:32:13.405393  9357 net.cpp:148] Top shape: 24 256 28 28 (4816896)
I0403 19:32:13.405412  9357 net.cpp:148] Top shape: 24 256 28 28 (4816896)
I0403 19:32:13.405436  9357 net.cpp:148] Top shape: 24 256 28 28 (4816896)
I0403 19:32:13.405455  9357 net.cpp:148] Top shape: 24 256 28 28 (4816896)
I0403 19:32:13.405472  9357 net.cpp:156] Memory required for data: 657507360
I0403 19:32:13.405488  9357 layer_factory.hpp:77] Creating layer inception_3b/1x1
I0403 19:32:13.405514  9357 net.cpp:91] Creating Layer inception_3b/1x1
I0403 19:32:13.405531  9357 net.cpp:425] inception_3b/1x1 <- inception_3a/output_inception_3a/output_0_split_0
I0403 19:32:13.405555  9357 net.cpp:399] inception_3b/1x1 -> inception_3b/1x1
I0403 19:32:13.406886  9357 net.cpp:141] Setting up inception_3b/1x1
I0403 19:32:13.406934  9357 net.cpp:148] Top shape: 24 128 28 28 (2408448)
I0403 19:32:13.406955  9357 net.cpp:156] Memory required for data: 667141152
I0403 19:32:13.406975  9357 layer_factory.hpp:77] Creating layer inception_3b/relu_1x1
I0403 19:32:13.406993  9357 net.cpp:91] Creating Layer inception_3b/relu_1x1
I0403 19:32:13.407011  9357 net.cpp:425] inception_3b/relu_1x1 <- inception_3b/1x1
I0403 19:32:13.407032  9357 net.cpp:386] inception_3b/relu_1x1 -> inception_3b/1x1 (in-place)
I0403 19:32:13.407212  9357 net.cpp:141] Setting up inception_3b/relu_1x1
I0403 19:32:13.407241  9357 net.cpp:148] Top shape: 24 128 28 28 (2408448)
I0403 19:32:13.407269  9357 net.cpp:156] Memory required for data: 676774944
I0403 19:32:13.407305  9357 layer_factory.hpp:77] Creating layer inception_3b/3x3_reduce
I0403 19:32:13.407333  9357 net.cpp:91] Creating Layer inception_3b/3x3_reduce
I0403 19:32:13.407361  9357 net.cpp:425] inception_3b/3x3_reduce <- inception_3a/output_inception_3a/output_0_split_1
I0403 19:32:13.407387  9357 net.cpp:399] inception_3b/3x3_reduce -> inception_3b/3x3_reduce
I0403 19:32:13.408571  9357 net.cpp:141] Setting up inception_3b/3x3_reduce
I0403 19:32:13.408601  9357 net.cpp:148] Top shape: 24 128 28 28 (2408448)
I0403 19:32:13.408618  9357 net.cpp:156] Memory required for data: 686408736
I0403 19:32:13.408638  9357 layer_factory.hpp:77] Creating layer inception_3b/relu_3x3_reduce
I0403 19:32:13.408660  9357 net.cpp:91] Creating Layer inception_3b/relu_3x3_reduce
I0403 19:32:13.408676  9357 net.cpp:425] inception_3b/relu_3x3_reduce <- inception_3b/3x3_reduce
I0403 19:32:13.408697  9357 net.cpp:386] inception_3b/relu_3x3_reduce -> inception_3b/3x3_reduce (in-place)
I0403 19:32:13.408877  9357 net.cpp:141] Setting up inception_3b/relu_3x3_reduce
I0403 19:32:13.408905  9357 net.cpp:148] Top shape: 24 128 28 28 (2408448)
I0403 19:32:13.408921  9357 net.cpp:156] Memory required for data: 696042528
I0403 19:32:13.408936  9357 layer_factory.hpp:77] Creating layer inception_3b/3x3
I0403 19:32:13.408965  9357 net.cpp:91] Creating Layer inception_3b/3x3
I0403 19:32:13.408984  9357 net.cpp:425] inception_3b/3x3 <- inception_3b/3x3_reduce
I0403 19:32:13.409003  9357 net.cpp:399] inception_3b/3x3 -> inception_3b/3x3
I0403 19:32:13.412035  9357 net.cpp:141] Setting up inception_3b/3x3
I0403 19:32:13.412065  9357 net.cpp:148] Top shape: 24 192 28 28 (3612672)
I0403 19:32:13.412082  9357 net.cpp:156] Memory required for data: 710493216
I0403 19:32:13.412101  9357 layer_factory.hpp:77] Creating layer inception_3b/relu_3x3
I0403 19:32:13.412122  9357 net.cpp:91] Creating Layer inception_3b/relu_3x3
I0403 19:32:13.412140  9357 net.cpp:425] inception_3b/relu_3x3 <- inception_3b/3x3
I0403 19:32:13.412158  9357 net.cpp:386] inception_3b/relu_3x3 -> inception_3b/3x3 (in-place)
I0403 19:32:13.412447  9357 net.cpp:141] Setting up inception_3b/relu_3x3
I0403 19:32:13.412477  9357 net.cpp:148] Top shape: 24 192 28 28 (3612672)
I0403 19:32:13.412492  9357 net.cpp:156] Memory required for data: 724943904
I0403 19:32:13.412509  9357 layer_factory.hpp:77] Creating layer inception_3b/5x5_reduce
I0403 19:32:13.412536  9357 net.cpp:91] Creating Layer inception_3b/5x5_reduce
I0403 19:32:13.412556  9357 net.cpp:425] inception_3b/5x5_reduce <- inception_3a/output_inception_3a/output_0_split_2
I0403 19:32:13.412578  9357 net.cpp:399] inception_3b/5x5_reduce -> inception_3b/5x5_reduce
I0403 19:32:13.413581  9357 net.cpp:141] Setting up inception_3b/5x5_reduce
I0403 19:32:13.413615  9357 net.cpp:148] Top shape: 24 32 28 28 (602112)
I0403 19:32:13.413632  9357 net.cpp:156] Memory required for data: 727352352
I0403 19:32:13.413651  9357 layer_factory.hpp:77] Creating layer inception_3b/relu_5x5_reduce
I0403 19:32:13.413671  9357 net.cpp:91] Creating Layer inception_3b/relu_5x5_reduce
I0403 19:32:13.413687  9357 net.cpp:425] inception_3b/relu_5x5_reduce <- inception_3b/5x5_reduce
I0403 19:32:13.413707  9357 net.cpp:386] inception_3b/relu_5x5_reduce -> inception_3b/5x5_reduce (in-place)
I0403 19:32:13.413890  9357 net.cpp:141] Setting up inception_3b/relu_5x5_reduce
I0403 19:32:13.413934  9357 net.cpp:148] Top shape: 24 32 28 28 (602112)
I0403 19:32:13.413951  9357 net.cpp:156] Memory required for data: 729760800
I0403 19:32:13.413969  9357 layer_factory.hpp:77] Creating layer inception_3b/5x5
I0403 19:32:13.413991  9357 net.cpp:91] Creating Layer inception_3b/5x5
I0403 19:32:13.414011  9357 net.cpp:425] inception_3b/5x5 <- inception_3b/5x5_reduce
I0403 19:32:13.414032  9357 net.cpp:399] inception_3b/5x5 -> inception_3b/5x5
I0403 19:32:13.416044  9357 net.cpp:141] Setting up inception_3b/5x5
I0403 19:32:13.416074  9357 net.cpp:148] Top shape: 24 96 28 28 (1806336)
I0403 19:32:13.416091  9357 net.cpp:156] Memory required for data: 736986144
I0403 19:32:13.416111  9357 layer_factory.hpp:77] Creating layer inception_3b/relu_5x5
I0403 19:32:13.416131  9357 net.cpp:91] Creating Layer inception_3b/relu_5x5
I0403 19:32:13.416148  9357 net.cpp:425] inception_3b/relu_5x5 <- inception_3b/5x5
I0403 19:32:13.416169  9357 net.cpp:386] inception_3b/relu_5x5 -> inception_3b/5x5 (in-place)
I0403 19:32:13.416369  9357 net.cpp:141] Setting up inception_3b/relu_5x5
I0403 19:32:13.416396  9357 net.cpp:148] Top shape: 24 96 28 28 (1806336)
I0403 19:32:13.416412  9357 net.cpp:156] Memory required for data: 744211488
I0403 19:32:13.416436  9357 layer_factory.hpp:77] Creating layer inception_3b/pool
I0403 19:32:13.416456  9357 net.cpp:91] Creating Layer inception_3b/pool
I0403 19:32:13.416474  9357 net.cpp:425] inception_3b/pool <- inception_3a/output_inception_3a/output_0_split_3
I0403 19:32:13.416494  9357 net.cpp:399] inception_3b/pool -> inception_3b/pool
I0403 19:32:13.416556  9357 net.cpp:141] Setting up inception_3b/pool
I0403 19:32:13.416582  9357 net.cpp:148] Top shape: 24 256 28 28 (4816896)
I0403 19:32:13.416597  9357 net.cpp:156] Memory required for data: 763479072
I0403 19:32:13.416615  9357 layer_factory.hpp:77] Creating layer inception_3b/pool_proj
I0403 19:32:13.416637  9357 net.cpp:91] Creating Layer inception_3b/pool_proj
I0403 19:32:13.416658  9357 net.cpp:425] inception_3b/pool_proj <- inception_3b/pool
I0403 19:32:13.416679  9357 net.cpp:399] inception_3b/pool_proj -> inception_3b/pool_proj
I0403 19:32:13.417752  9357 net.cpp:141] Setting up inception_3b/pool_proj
I0403 19:32:13.417784  9357 net.cpp:148] Top shape: 24 64 28 28 (1204224)
I0403 19:32:13.417801  9357 net.cpp:156] Memory required for data: 768295968
I0403 19:32:13.417821  9357 layer_factory.hpp:77] Creating layer inception_3b/relu_pool_proj
I0403 19:32:13.417840  9357 net.cpp:91] Creating Layer inception_3b/relu_pool_proj
I0403 19:32:13.417857  9357 net.cpp:425] inception_3b/relu_pool_proj <- inception_3b/pool_proj
I0403 19:32:13.417876  9357 net.cpp:386] inception_3b/relu_pool_proj -> inception_3b/pool_proj (in-place)
I0403 19:32:13.418268  9357 net.cpp:141] Setting up inception_3b/relu_pool_proj
I0403 19:32:13.418298  9357 net.cpp:148] Top shape: 24 64 28 28 (1204224)
I0403 19:32:13.418314  9357 net.cpp:156] Memory required for data: 773112864
I0403 19:32:13.418331  9357 layer_factory.hpp:77] Creating layer inception_3b/output
I0403 19:32:13.418352  9357 net.cpp:91] Creating Layer inception_3b/output
I0403 19:32:13.418375  9357 net.cpp:425] inception_3b/output <- inception_3b/1x1
I0403 19:32:13.418401  9357 net.cpp:425] inception_3b/output <- inception_3b/3x3
I0403 19:32:13.418426  9357 net.cpp:425] inception_3b/output <- inception_3b/5x5
I0403 19:32:13.418455  9357 net.cpp:425] inception_3b/output <- inception_3b/pool_proj
I0403 19:32:13.418475  9357 net.cpp:399] inception_3b/output -> inception_3b/output
I0403 19:32:13.418524  9357 net.cpp:141] Setting up inception_3b/output
I0403 19:32:13.418556  9357 net.cpp:148] Top shape: 24 480 28 28 (9031680)
I0403 19:32:13.418578  9357 net.cpp:156] Memory required for data: 809239584
I0403 19:32:13.418603  9357 layer_factory.hpp:77] Creating layer pool3/3x3_s2
I0403 19:32:13.418629  9357 net.cpp:91] Creating Layer pool3/3x3_s2
I0403 19:32:13.418647  9357 net.cpp:425] pool3/3x3_s2 <- inception_3b/output
I0403 19:32:13.418673  9357 net.cpp:399] pool3/3x3_s2 -> pool3/3x3_s2
I0403 19:32:13.418753  9357 net.cpp:141] Setting up pool3/3x3_s2
I0403 19:32:13.418787  9357 net.cpp:148] Top shape: 24 480 14 14 (2257920)
I0403 19:32:13.418802  9357 net.cpp:156] Memory required for data: 818271264
I0403 19:32:13.418817  9357 layer_factory.hpp:77] Creating layer pool3/3x3_s2_pool3/3x3_s2_0_split
I0403 19:32:13.418841  9357 net.cpp:91] Creating Layer pool3/3x3_s2_pool3/3x3_s2_0_split
I0403 19:32:13.418861  9357 net.cpp:425] pool3/3x3_s2_pool3/3x3_s2_0_split <- pool3/3x3_s2
I0403 19:32:13.418882  9357 net.cpp:399] pool3/3x3_s2_pool3/3x3_s2_0_split -> pool3/3x3_s2_pool3/3x3_s2_0_split_0
I0403 19:32:13.418905  9357 net.cpp:399] pool3/3x3_s2_pool3/3x3_s2_0_split -> pool3/3x3_s2_pool3/3x3_s2_0_split_1
I0403 19:32:13.418926  9357 net.cpp:399] pool3/3x3_s2_pool3/3x3_s2_0_split -> pool3/3x3_s2_pool3/3x3_s2_0_split_2
I0403 19:32:13.418946  9357 net.cpp:399] pool3/3x3_s2_pool3/3x3_s2_0_split -> pool3/3x3_s2_pool3/3x3_s2_0_split_3
I0403 19:32:13.419030  9357 net.cpp:141] Setting up pool3/3x3_s2_pool3/3x3_s2_0_split
I0403 19:32:13.419057  9357 net.cpp:148] Top shape: 24 480 14 14 (2257920)
I0403 19:32:13.419080  9357 net.cpp:148] Top shape: 24 480 14 14 (2257920)
I0403 19:32:13.419100  9357 net.cpp:148] Top shape: 24 480 14 14 (2257920)
I0403 19:32:13.419117  9357 net.cpp:148] Top shape: 24 480 14 14 (2257920)
I0403 19:32:13.419133  9357 net.cpp:156] Memory required for data: 854397984
I0403 19:32:13.419148  9357 layer_factory.hpp:77] Creating layer inception_4a/1x1
I0403 19:32:13.419180  9357 net.cpp:91] Creating Layer inception_4a/1x1
I0403 19:32:13.419200  9357 net.cpp:425] inception_4a/1x1 <- pool3/3x3_s2_pool3/3x3_s2_0_split_0
I0403 19:32:13.419229  9357 net.cpp:399] inception_4a/1x1 -> inception_4a/1x1
I0403 19:32:13.420866  9357 net.cpp:141] Setting up inception_4a/1x1
I0403 19:32:13.420902  9357 net.cpp:148] Top shape: 24 192 14 14 (903168)
I0403 19:32:13.420922  9357 net.cpp:156] Memory required for data: 858010656
I0403 19:32:13.420943  9357 layer_factory.hpp:77] Creating layer inception_4a/relu_1x1
I0403 19:32:13.420964  9357 net.cpp:91] Creating Layer inception_4a/relu_1x1
I0403 19:32:13.420982  9357 net.cpp:425] inception_4a/relu_1x1 <- inception_4a/1x1
I0403 19:32:13.421001  9357 net.cpp:386] inception_4a/relu_1x1 -> inception_4a/1x1 (in-place)
I0403 19:32:13.421187  9357 net.cpp:141] Setting up inception_4a/relu_1x1
I0403 19:32:13.421222  9357 net.cpp:148] Top shape: 24 192 14 14 (903168)
I0403 19:32:13.421241  9357 net.cpp:156] Memory required for data: 861623328
I0403 19:32:13.421257  9357 layer_factory.hpp:77] Creating layer inception_4a/3x3_reduce
I0403 19:32:13.421283  9357 net.cpp:91] Creating Layer inception_4a/3x3_reduce
I0403 19:32:13.421300  9357 net.cpp:425] inception_4a/3x3_reduce <- pool3/3x3_s2_pool3/3x3_s2_0_split_1
I0403 19:32:13.421322  9357 net.cpp:399] inception_4a/3x3_reduce -> inception_4a/3x3_reduce
I0403 19:32:13.422652  9357 net.cpp:141] Setting up inception_4a/3x3_reduce
I0403 19:32:13.422680  9357 net.cpp:148] Top shape: 24 96 14 14 (451584)
I0403 19:32:13.422696  9357 net.cpp:156] Memory required for data: 863429664
I0403 19:32:13.422724  9357 layer_factory.hpp:77] Creating layer inception_4a/relu_3x3_reduce
I0403 19:32:13.422746  9357 net.cpp:91] Creating Layer inception_4a/relu_3x3_reduce
I0403 19:32:13.422763  9357 net.cpp:425] inception_4a/relu_3x3_reduce <- inception_4a/3x3_reduce
I0403 19:32:13.422782  9357 net.cpp:386] inception_4a/relu_3x3_reduce -> inception_4a/3x3_reduce (in-place)
I0403 19:32:13.422961  9357 net.cpp:141] Setting up inception_4a/relu_3x3_reduce
I0403 19:32:13.422992  9357 net.cpp:148] Top shape: 24 96 14 14 (451584)
I0403 19:32:13.423008  9357 net.cpp:156] Memory required for data: 865236000
I0403 19:32:13.423023  9357 layer_factory.hpp:77] Creating layer inception_4a/3x3
I0403 19:32:13.423046  9357 net.cpp:91] Creating Layer inception_4a/3x3
I0403 19:32:13.423064  9357 net.cpp:425] inception_4a/3x3 <- inception_4a/3x3_reduce
I0403 19:32:13.423084  9357 net.cpp:399] inception_4a/3x3 -> inception_4a/3x3
I0403 19:32:13.425837  9357 net.cpp:141] Setting up inception_4a/3x3
I0403 19:32:13.425868  9357 net.cpp:148] Top shape: 24 208 14 14 (978432)
I0403 19:32:13.425885  9357 net.cpp:156] Memory required for data: 869149728
I0403 19:32:13.425906  9357 layer_factory.hpp:77] Creating layer inception_4a/relu_3x3
I0403 19:32:13.425925  9357 net.cpp:91] Creating Layer inception_4a/relu_3x3
I0403 19:32:13.425942  9357 net.cpp:425] inception_4a/relu_3x3 <- inception_4a/3x3
I0403 19:32:13.425962  9357 net.cpp:386] inception_4a/relu_3x3 -> inception_4a/3x3 (in-place)
I0403 19:32:13.426249  9357 net.cpp:141] Setting up inception_4a/relu_3x3
I0403 19:32:13.426276  9357 net.cpp:148] Top shape: 24 208 14 14 (978432)
I0403 19:32:13.426293  9357 net.cpp:156] Memory required for data: 873063456
I0403 19:32:13.426309  9357 layer_factory.hpp:77] Creating layer inception_4a/5x5_reduce
I0403 19:32:13.426332  9357 net.cpp:91] Creating Layer inception_4a/5x5_reduce
I0403 19:32:13.426352  9357 net.cpp:425] inception_4a/5x5_reduce <- pool3/3x3_s2_pool3/3x3_s2_0_split_2
I0403 19:32:13.426375  9357 net.cpp:399] inception_4a/5x5_reduce -> inception_4a/5x5_reduce
I0403 19:32:13.427420  9357 net.cpp:141] Setting up inception_4a/5x5_reduce
I0403 19:32:13.427453  9357 net.cpp:148] Top shape: 24 16 14 14 (75264)
I0403 19:32:13.427470  9357 net.cpp:156] Memory required for data: 873364512
I0403 19:32:13.427491  9357 layer_factory.hpp:77] Creating layer inception_4a/relu_5x5_reduce
I0403 19:32:13.427510  9357 net.cpp:91] Creating Layer inception_4a/relu_5x5_reduce
I0403 19:32:13.427526  9357 net.cpp:425] inception_4a/relu_5x5_reduce <- inception_4a/5x5_reduce
I0403 19:32:13.427546  9357 net.cpp:386] inception_4a/relu_5x5_reduce -> inception_4a/5x5_reduce (in-place)
I0403 19:32:13.427733  9357 net.cpp:141] Setting up inception_4a/relu_5x5_reduce
I0403 19:32:13.427762  9357 net.cpp:148] Top shape: 24 16 14 14 (75264)
I0403 19:32:13.427777  9357 net.cpp:156] Memory required for data: 873665568
I0403 19:32:13.427793  9357 layer_factory.hpp:77] Creating layer inception_4a/5x5
I0403 19:32:13.427816  9357 net.cpp:91] Creating Layer inception_4a/5x5
I0403 19:32:13.427834  9357 net.cpp:425] inception_4a/5x5 <- inception_4a/5x5_reduce
I0403 19:32:13.427857  9357 net.cpp:399] inception_4a/5x5 -> inception_4a/5x5
I0403 19:32:13.428975  9357 net.cpp:141] Setting up inception_4a/5x5
I0403 19:32:13.429004  9357 net.cpp:148] Top shape: 24 48 14 14 (225792)
I0403 19:32:13.429021  9357 net.cpp:156] Memory required for data: 874568736
I0403 19:32:13.429041  9357 layer_factory.hpp:77] Creating layer inception_4a/relu_5x5
I0403 19:32:13.429062  9357 net.cpp:91] Creating Layer inception_4a/relu_5x5
I0403 19:32:13.429080  9357 net.cpp:425] inception_4a/relu_5x5 <- inception_4a/5x5
I0403 19:32:13.429097  9357 net.cpp:386] inception_4a/relu_5x5 -> inception_4a/5x5 (in-place)
I0403 19:32:13.429282  9357 net.cpp:141] Setting up inception_4a/relu_5x5
I0403 19:32:13.429311  9357 net.cpp:148] Top shape: 24 48 14 14 (225792)
I0403 19:32:13.429327  9357 net.cpp:156] Memory required for data: 875471904
I0403 19:32:13.429343  9357 layer_factory.hpp:77] Creating layer inception_4a/pool
I0403 19:32:13.429363  9357 net.cpp:91] Creating Layer inception_4a/pool
I0403 19:32:13.429379  9357 net.cpp:425] inception_4a/pool <- pool3/3x3_s2_pool3/3x3_s2_0_split_3
I0403 19:32:13.429400  9357 net.cpp:399] inception_4a/pool -> inception_4a/pool
I0403 19:32:13.429468  9357 net.cpp:141] Setting up inception_4a/pool
I0403 19:32:13.429494  9357 net.cpp:148] Top shape: 24 480 14 14 (2257920)
I0403 19:32:13.429509  9357 net.cpp:156] Memory required for data: 884503584
I0403 19:32:13.429525  9357 layer_factory.hpp:77] Creating layer inception_4a/pool_proj
I0403 19:32:13.429548  9357 net.cpp:91] Creating Layer inception_4a/pool_proj
I0403 19:32:13.429569  9357 net.cpp:425] inception_4a/pool_proj <- inception_4a/pool
I0403 19:32:13.429589  9357 net.cpp:399] inception_4a/pool_proj -> inception_4a/pool_proj
I0403 19:32:13.430791  9357 net.cpp:141] Setting up inception_4a/pool_proj
I0403 19:32:13.430821  9357 net.cpp:148] Top shape: 24 64 14 14 (301056)
I0403 19:32:13.430853  9357 net.cpp:156] Memory required for data: 885707808
I0403 19:32:13.430874  9357 layer_factory.hpp:77] Creating layer inception_4a/relu_pool_proj
I0403 19:32:13.430896  9357 net.cpp:91] Creating Layer inception_4a/relu_pool_proj
I0403 19:32:13.430915  9357 net.cpp:425] inception_4a/relu_pool_proj <- inception_4a/pool_proj
I0403 19:32:13.430933  9357 net.cpp:386] inception_4a/relu_pool_proj -> inception_4a/pool_proj (in-place)
I0403 19:32:13.431228  9357 net.cpp:141] Setting up inception_4a/relu_pool_proj
I0403 19:32:13.431257  9357 net.cpp:148] Top shape: 24 64 14 14 (301056)
I0403 19:32:13.431273  9357 net.cpp:156] Memory required for data: 886912032
I0403 19:32:13.431289  9357 layer_factory.hpp:77] Creating layer inception_4a/output
I0403 19:32:13.431309  9357 net.cpp:91] Creating Layer inception_4a/output
I0403 19:32:13.431327  9357 net.cpp:425] inception_4a/output <- inception_4a/1x1
I0403 19:32:13.431344  9357 net.cpp:425] inception_4a/output <- inception_4a/3x3
I0403 19:32:13.431362  9357 net.cpp:425] inception_4a/output <- inception_4a/5x5
I0403 19:32:13.431380  9357 net.cpp:425] inception_4a/output <- inception_4a/pool_proj
I0403 19:32:13.431397  9357 net.cpp:399] inception_4a/output -> inception_4a/output
I0403 19:32:13.431449  9357 net.cpp:141] Setting up inception_4a/output
I0403 19:32:13.431474  9357 net.cpp:148] Top shape: 24 512 14 14 (2408448)
I0403 19:32:13.431489  9357 net.cpp:156] Memory required for data: 896545824
I0403 19:32:13.431506  9357 layer_factory.hpp:77] Creating layer inception_4a/output_inception_4a/output_0_split
I0403 19:32:13.431525  9357 net.cpp:91] Creating Layer inception_4a/output_inception_4a/output_0_split
I0403 19:32:13.431541  9357 net.cpp:425] inception_4a/output_inception_4a/output_0_split <- inception_4a/output
I0403 19:32:13.431561  9357 net.cpp:399] inception_4a/output_inception_4a/output_0_split -> inception_4a/output_inception_4a/output_0_split_0
I0403 19:32:13.431584  9357 net.cpp:399] inception_4a/output_inception_4a/output_0_split -> inception_4a/output_inception_4a/output_0_split_1
I0403 19:32:13.431605  9357 net.cpp:399] inception_4a/output_inception_4a/output_0_split -> inception_4a/output_inception_4a/output_0_split_2
I0403 19:32:13.431628  9357 net.cpp:399] inception_4a/output_inception_4a/output_0_split -> inception_4a/output_inception_4a/output_0_split_3
I0403 19:32:13.431651  9357 net.cpp:399] inception_4a/output_inception_4a/output_0_split -> inception_4a/output_inception_4a/output_0_split_4
I0403 19:32:13.431746  9357 net.cpp:141] Setting up inception_4a/output_inception_4a/output_0_split
I0403 19:32:13.431769  9357 net.cpp:148] Top shape: 24 512 14 14 (2408448)
I0403 19:32:13.431787  9357 net.cpp:148] Top shape: 24 512 14 14 (2408448)
I0403 19:32:13.431803  9357 net.cpp:148] Top shape: 24 512 14 14 (2408448)
I0403 19:32:13.431821  9357 net.cpp:148] Top shape: 24 512 14 14 (2408448)
I0403 19:32:13.431838  9357 net.cpp:148] Top shape: 24 512 14 14 (2408448)
I0403 19:32:13.431852  9357 net.cpp:156] Memory required for data: 944714784
I0403 19:32:13.431869  9357 layer_factory.hpp:77] Creating layer loss1/ave_pool
I0403 19:32:13.431887  9357 net.cpp:91] Creating Layer loss1/ave_pool
I0403 19:32:13.431905  9357 net.cpp:425] loss1/ave_pool <- inception_4a/output_inception_4a/output_0_split_0
I0403 19:32:13.431934  9357 net.cpp:399] loss1/ave_pool -> loss1/ave_pool
I0403 19:32:13.432152  9357 net.cpp:141] Setting up loss1/ave_pool
I0403 19:32:13.432180  9357 net.cpp:148] Top shape: 24 512 4 4 (196608)
I0403 19:32:13.432195  9357 net.cpp:156] Memory required for data: 945501216
I0403 19:32:13.432211  9357 layer_factory.hpp:77] Creating layer loss1/conv
I0403 19:32:13.432235  9357 net.cpp:91] Creating Layer loss1/conv
I0403 19:32:13.432255  9357 net.cpp:425] loss1/conv <- loss1/ave_pool
I0403 19:32:13.432276  9357 net.cpp:399] loss1/conv -> loss1/conv
I0403 19:32:13.433742  9357 net.cpp:141] Setting up loss1/conv
I0403 19:32:13.433770  9357 net.cpp:148] Top shape: 24 128 4 4 (49152)
I0403 19:32:13.433789  9357 net.cpp:156] Memory required for data: 945697824
I0403 19:32:13.433822  9357 layer_factory.hpp:77] Creating layer loss1/relu_conv
I0403 19:32:13.433842  9357 net.cpp:91] Creating Layer loss1/relu_conv
I0403 19:32:13.433858  9357 net.cpp:425] loss1/relu_conv <- loss1/conv
I0403 19:32:13.433879  9357 net.cpp:386] loss1/relu_conv -> loss1/conv (in-place)
I0403 19:32:13.434180  9357 net.cpp:141] Setting up loss1/relu_conv
I0403 19:32:13.434208  9357 net.cpp:148] Top shape: 24 128 4 4 (49152)
I0403 19:32:13.434224  9357 net.cpp:156] Memory required for data: 945894432
I0403 19:32:13.434240  9357 layer_factory.hpp:77] Creating layer loss1/fc
I0403 19:32:13.434265  9357 net.cpp:91] Creating Layer loss1/fc
I0403 19:32:13.434284  9357 net.cpp:425] loss1/fc <- loss1/conv
I0403 19:32:13.434308  9357 net.cpp:399] loss1/fc -> loss1/fc
I0403 19:32:13.452216  9357 net.cpp:141] Setting up loss1/fc
I0403 19:32:13.452270  9357 net.cpp:148] Top shape: 24 1024 (24576)
I0403 19:32:13.452286  9357 net.cpp:156] Memory required for data: 945992736
I0403 19:32:13.452306  9357 layer_factory.hpp:77] Creating layer loss1/relu_fc
I0403 19:32:13.452327  9357 net.cpp:91] Creating Layer loss1/relu_fc
I0403 19:32:13.452344  9357 net.cpp:425] loss1/relu_fc <- loss1/fc
I0403 19:32:13.452363  9357 net.cpp:386] loss1/relu_fc -> loss1/fc (in-place)
I0403 19:32:13.452574  9357 net.cpp:141] Setting up loss1/relu_fc
I0403 19:32:13.452600  9357 net.cpp:148] Top shape: 24 1024 (24576)
I0403 19:32:13.452615  9357 net.cpp:156] Memory required for data: 946091040
I0403 19:32:13.452630  9357 layer_factory.hpp:77] Creating layer loss1/drop_fc
I0403 19:32:13.452656  9357 net.cpp:91] Creating Layer loss1/drop_fc
I0403 19:32:13.452674  9357 net.cpp:425] loss1/drop_fc <- loss1/fc
I0403 19:32:13.452694  9357 net.cpp:386] loss1/drop_fc -> loss1/fc (in-place)
I0403 19:32:13.452746  9357 net.cpp:141] Setting up loss1/drop_fc
I0403 19:32:13.452770  9357 net.cpp:148] Top shape: 24 1024 (24576)
I0403 19:32:13.452785  9357 net.cpp:156] Memory required for data: 946189344
I0403 19:32:13.452801  9357 layer_factory.hpp:77] Creating layer loss1/classifier_plantvillage
I0403 19:32:13.452824  9357 net.cpp:91] Creating Layer loss1/classifier_plantvillage
I0403 19:32:13.452841  9357 net.cpp:425] loss1/classifier_plantvillage <- loss1/fc
I0403 19:32:13.452858  9357 net.cpp:399] loss1/classifier_plantvillage -> loss1/classifier_plantvillage
I0403 19:32:13.453771  9357 net.cpp:141] Setting up loss1/classifier_plantvillage
I0403 19:32:13.453812  9357 net.cpp:148] Top shape: 24 38 (912)
I0403 19:32:13.453829  9357 net.cpp:156] Memory required for data: 946192992
I0403 19:32:13.453847  9357 layer_factory.hpp:77] Creating layer loss1/classifier_plantvillage_loss1/classifier_plantvillage_0_split
I0403 19:32:13.453866  9357 net.cpp:91] Creating Layer loss1/classifier_plantvillage_loss1/classifier_plantvillage_0_split
I0403 19:32:13.453881  9357 net.cpp:425] loss1/classifier_plantvillage_loss1/classifier_plantvillage_0_split <- loss1/classifier_plantvillage
I0403 19:32:13.453901  9357 net.cpp:399] loss1/classifier_plantvillage_loss1/classifier_plantvillage_0_split -> loss1/classifier_plantvillage_loss1/classifier_plantvillage_0_split_0
I0403 19:32:13.453923  9357 net.cpp:399] loss1/classifier_plantvillage_loss1/classifier_plantvillage_0_split -> loss1/classifier_plantvillage_loss1/classifier_plantvillage_0_split_1
I0403 19:32:13.453944  9357 net.cpp:399] loss1/classifier_plantvillage_loss1/classifier_plantvillage_0_split -> loss1/classifier_plantvillage_loss1/classifier_plantvillage_0_split_2
I0403 19:32:13.454011  9357 net.cpp:141] Setting up loss1/classifier_plantvillage_loss1/classifier_plantvillage_0_split
I0403 19:32:13.454035  9357 net.cpp:148] Top shape: 24 38 (912)
I0403 19:32:13.454051  9357 net.cpp:148] Top shape: 24 38 (912)
I0403 19:32:13.454067  9357 net.cpp:148] Top shape: 24 38 (912)
I0403 19:32:13.454082  9357 net.cpp:156] Memory required for data: 946203936
I0403 19:32:13.454100  9357 layer_factory.hpp:77] Creating layer inception_4b/1x1
I0403 19:32:13.454133  9357 net.cpp:91] Creating Layer inception_4b/1x1
I0403 19:32:13.454167  9357 net.cpp:425] inception_4b/1x1 <- inception_4a/output_inception_4a/output_0_split_1
I0403 19:32:13.454190  9357 net.cpp:399] inception_4b/1x1 -> inception_4b/1x1
I0403 19:32:13.455790  9357 net.cpp:141] Setting up inception_4b/1x1
I0403 19:32:13.455817  9357 net.cpp:148] Top shape: 24 160 14 14 (752640)
I0403 19:32:13.455832  9357 net.cpp:156] Memory required for data: 949214496
I0403 19:32:13.455852  9357 layer_factory.hpp:77] Creating layer inception_4b/relu_1x1
I0403 19:32:13.455868  9357 net.cpp:91] Creating Layer inception_4b/relu_1x1
I0403 19:32:13.455884  9357 net.cpp:425] inception_4b/relu_1x1 <- inception_4b/1x1
I0403 19:32:13.455904  9357 net.cpp:386] inception_4b/relu_1x1 -> inception_4b/1x1 (in-place)
I0403 19:32:13.456079  9357 net.cpp:141] Setting up inception_4b/relu_1x1
I0403 19:32:13.456104  9357 net.cpp:148] Top shape: 24 160 14 14 (752640)
I0403 19:32:13.456120  9357 net.cpp:156] Memory required for data: 952225056
I0403 19:32:13.456135  9357 layer_factory.hpp:77] Creating layer inception_4b/3x3_reduce
I0403 19:32:13.456156  9357 net.cpp:91] Creating Layer inception_4b/3x3_reduce
I0403 19:32:13.456174  9357 net.cpp:425] inception_4b/3x3_reduce <- inception_4a/output_inception_4a/output_0_split_2
I0403 19:32:13.456195  9357 net.cpp:399] inception_4b/3x3_reduce -> inception_4b/3x3_reduce
I0403 19:32:13.457511  9357 net.cpp:141] Setting up inception_4b/3x3_reduce
I0403 19:32:13.457538  9357 net.cpp:148] Top shape: 24 112 14 14 (526848)
I0403 19:32:13.457553  9357 net.cpp:156] Memory required for data: 954332448
I0403 19:32:13.457572  9357 layer_factory.hpp:77] Creating layer inception_4b/relu_3x3_reduce
I0403 19:32:13.457592  9357 net.cpp:91] Creating Layer inception_4b/relu_3x3_reduce
I0403 19:32:13.457608  9357 net.cpp:425] inception_4b/relu_3x3_reduce <- inception_4b/3x3_reduce
I0403 19:32:13.457626  9357 net.cpp:386] inception_4b/relu_3x3_reduce -> inception_4b/3x3_reduce (in-place)
I0403 19:32:13.457902  9357 net.cpp:141] Setting up inception_4b/relu_3x3_reduce
I0403 19:32:13.457928  9357 net.cpp:148] Top shape: 24 112 14 14 (526848)
I0403 19:32:13.457944  9357 net.cpp:156] Memory required for data: 956439840
I0403 19:32:13.457958  9357 layer_factory.hpp:77] Creating layer inception_4b/3x3
I0403 19:32:13.457980  9357 net.cpp:91] Creating Layer inception_4b/3x3
I0403 19:32:13.457998  9357 net.cpp:425] inception_4b/3x3 <- inception_4b/3x3_reduce
I0403 19:32:13.458019  9357 net.cpp:399] inception_4b/3x3 -> inception_4b/3x3
I0403 19:32:13.460913  9357 net.cpp:141] Setting up inception_4b/3x3
I0403 19:32:13.460945  9357 net.cpp:148] Top shape: 24 224 14 14 (1053696)
I0403 19:32:13.460963  9357 net.cpp:156] Memory required for data: 960654624
I0403 19:32:13.460981  9357 layer_factory.hpp:77] Creating layer inception_4b/relu_3x3
I0403 19:32:13.460999  9357 net.cpp:91] Creating Layer inception_4b/relu_3x3
I0403 19:32:13.461015  9357 net.cpp:425] inception_4b/relu_3x3 <- inception_4b/3x3
I0403 19:32:13.461032  9357 net.cpp:386] inception_4b/relu_3x3 -> inception_4b/3x3 (in-place)
I0403 19:32:13.461210  9357 net.cpp:141] Setting up inception_4b/relu_3x3
I0403 19:32:13.461235  9357 net.cpp:148] Top shape: 24 224 14 14 (1053696)
I0403 19:32:13.461249  9357 net.cpp:156] Memory required for data: 964869408
I0403 19:32:13.461263  9357 layer_factory.hpp:77] Creating layer inception_4b/5x5_reduce
I0403 19:32:13.461287  9357 net.cpp:91] Creating Layer inception_4b/5x5_reduce
I0403 19:32:13.461304  9357 net.cpp:425] inception_4b/5x5_reduce <- inception_4a/output_inception_4a/output_0_split_3
I0403 19:32:13.461326  9357 net.cpp:399] inception_4b/5x5_reduce -> inception_4b/5x5_reduce
I0403 19:32:13.462376  9357 net.cpp:141] Setting up inception_4b/5x5_reduce
I0403 19:32:13.462404  9357 net.cpp:148] Top shape: 24 24 14 14 (112896)
I0403 19:32:13.462419  9357 net.cpp:156] Memory required for data: 965320992
I0403 19:32:13.462450  9357 layer_factory.hpp:77] Creating layer inception_4b/relu_5x5_reduce
I0403 19:32:13.462473  9357 net.cpp:91] Creating Layer inception_4b/relu_5x5_reduce
I0403 19:32:13.462503  9357 net.cpp:425] inception_4b/relu_5x5_reduce <- inception_4b/5x5_reduce
I0403 19:32:13.462523  9357 net.cpp:386] inception_4b/relu_5x5_reduce -> inception_4b/5x5_reduce (in-place)
I0403 19:32:13.462704  9357 net.cpp:141] Setting up inception_4b/relu_5x5_reduce
I0403 19:32:13.462730  9357 net.cpp:148] Top shape: 24 24 14 14 (112896)
I0403 19:32:13.462745  9357 net.cpp:156] Memory required for data: 965772576
I0403 19:32:13.462760  9357 layer_factory.hpp:77] Creating layer inception_4b/5x5
I0403 19:32:13.462785  9357 net.cpp:91] Creating Layer inception_4b/5x5
I0403 19:32:13.462802  9357 net.cpp:425] inception_4b/5x5 <- inception_4b/5x5_reduce
I0403 19:32:13.462821  9357 net.cpp:399] inception_4b/5x5 -> inception_4b/5x5
I0403 19:32:13.464010  9357 net.cpp:141] Setting up inception_4b/5x5
I0403 19:32:13.464035  9357 net.cpp:148] Top shape: 24 64 14 14 (301056)
I0403 19:32:13.464051  9357 net.cpp:156] Memory required for data: 966976800
I0403 19:32:13.464069  9357 layer_factory.hpp:77] Creating layer inception_4b/relu_5x5
I0403 19:32:13.464087  9357 net.cpp:91] Creating Layer inception_4b/relu_5x5
I0403 19:32:13.464103  9357 net.cpp:425] inception_4b/relu_5x5 <- inception_4b/5x5
I0403 19:32:13.464123  9357 net.cpp:386] inception_4b/relu_5x5 -> inception_4b/5x5 (in-place)
I0403 19:32:13.464400  9357 net.cpp:141] Setting up inception_4b/relu_5x5
I0403 19:32:13.464426  9357 net.cpp:148] Top shape: 24 64 14 14 (301056)
I0403 19:32:13.464445  9357 net.cpp:156] Memory required for data: 968181024
I0403 19:32:13.464462  9357 layer_factory.hpp:77] Creating layer inception_4b/pool
I0403 19:32:13.464480  9357 net.cpp:91] Creating Layer inception_4b/pool
I0403 19:32:13.464496  9357 net.cpp:425] inception_4b/pool <- inception_4a/output_inception_4a/output_0_split_4
I0403 19:32:13.464517  9357 net.cpp:399] inception_4b/pool -> inception_4b/pool
I0403 19:32:13.464582  9357 net.cpp:141] Setting up inception_4b/pool
I0403 19:32:13.464607  9357 net.cpp:148] Top shape: 24 512 14 14 (2408448)
I0403 19:32:13.464622  9357 net.cpp:156] Memory required for data: 977814816
I0403 19:32:13.464637  9357 layer_factory.hpp:77] Creating layer inception_4b/pool_proj
I0403 19:32:13.464659  9357 net.cpp:91] Creating Layer inception_4b/pool_proj
I0403 19:32:13.464678  9357 net.cpp:425] inception_4b/pool_proj <- inception_4b/pool
I0403 19:32:13.464695  9357 net.cpp:399] inception_4b/pool_proj -> inception_4b/pool_proj
I0403 19:32:13.465857  9357 net.cpp:141] Setting up inception_4b/pool_proj
I0403 19:32:13.465884  9357 net.cpp:148] Top shape: 24 64 14 14 (301056)
I0403 19:32:13.465899  9357 net.cpp:156] Memory required for data: 979019040
I0403 19:32:13.465919  9357 layer_factory.hpp:77] Creating layer inception_4b/relu_pool_proj
I0403 19:32:13.465937  9357 net.cpp:91] Creating Layer inception_4b/relu_pool_proj
I0403 19:32:13.465955  9357 net.cpp:425] inception_4b/relu_pool_proj <- inception_4b/pool_proj
I0403 19:32:13.465972  9357 net.cpp:386] inception_4b/relu_pool_proj -> inception_4b/pool_proj (in-place)
I0403 19:32:13.466148  9357 net.cpp:141] Setting up inception_4b/relu_pool_proj
I0403 19:32:13.466174  9357 net.cpp:148] Top shape: 24 64 14 14 (301056)
I0403 19:32:13.466192  9357 net.cpp:156] Memory required for data: 980223264
I0403 19:32:13.466207  9357 layer_factory.hpp:77] Creating layer inception_4b/output
I0403 19:32:13.466224  9357 net.cpp:91] Creating Layer inception_4b/output
I0403 19:32:13.466240  9357 net.cpp:425] inception_4b/output <- inception_4b/1x1
I0403 19:32:13.466258  9357 net.cpp:425] inception_4b/output <- inception_4b/3x3
I0403 19:32:13.466274  9357 net.cpp:425] inception_4b/output <- inception_4b/5x5
I0403 19:32:13.466289  9357 net.cpp:425] inception_4b/output <- inception_4b/pool_proj
I0403 19:32:13.466305  9357 net.cpp:399] inception_4b/output -> inception_4b/output
I0403 19:32:13.466351  9357 net.cpp:141] Setting up inception_4b/output
I0403 19:32:13.466374  9357 net.cpp:148] Top shape: 24 512 14 14 (2408448)
I0403 19:32:13.466388  9357 net.cpp:156] Memory required for data: 989857056
I0403 19:32:13.466416  9357 layer_factory.hpp:77] Creating layer inception_4b/output_inception_4b/output_0_split
I0403 19:32:13.466440  9357 net.cpp:91] Creating Layer inception_4b/output_inception_4b/output_0_split
I0403 19:32:13.466459  9357 net.cpp:425] inception_4b/output_inception_4b/output_0_split <- inception_4b/output
I0403 19:32:13.466480  9357 net.cpp:399] inception_4b/output_inception_4b/output_0_split -> inception_4b/output_inception_4b/output_0_split_0
I0403 19:32:13.466500  9357 net.cpp:399] inception_4b/output_inception_4b/output_0_split -> inception_4b/output_inception_4b/output_0_split_1
I0403 19:32:13.466521  9357 net.cpp:399] inception_4b/output_inception_4b/output_0_split -> inception_4b/output_inception_4b/output_0_split_2
I0403 19:32:13.466542  9357 net.cpp:399] inception_4b/output_inception_4b/output_0_split -> inception_4b/output_inception_4b/output_0_split_3
I0403 19:32:13.466621  9357 net.cpp:141] Setting up inception_4b/output_inception_4b/output_0_split
I0403 19:32:13.466645  9357 net.cpp:148] Top shape: 24 512 14 14 (2408448)
I0403 19:32:13.466661  9357 net.cpp:148] Top shape: 24 512 14 14 (2408448)
I0403 19:32:13.466677  9357 net.cpp:148] Top shape: 24 512 14 14 (2408448)
I0403 19:32:13.466692  9357 net.cpp:148] Top shape: 24 512 14 14 (2408448)
I0403 19:32:13.466706  9357 net.cpp:156] Memory required for data: 1028392224
I0403 19:32:13.466720  9357 layer_factory.hpp:77] Creating layer inception_4c/1x1
I0403 19:32:13.466742  9357 net.cpp:91] Creating Layer inception_4c/1x1
I0403 19:32:13.466758  9357 net.cpp:425] inception_4c/1x1 <- inception_4b/output_inception_4b/output_0_split_0
I0403 19:32:13.466779  9357 net.cpp:399] inception_4c/1x1 -> inception_4c/1x1
I0403 19:32:13.468173  9357 net.cpp:141] Setting up inception_4c/1x1
I0403 19:32:13.468214  9357 net.cpp:148] Top shape: 24 128 14 14 (602112)
I0403 19:32:13.468260  9357 net.cpp:156] Memory required for data: 1030800672
I0403 19:32:13.468299  9357 layer_factory.hpp:77] Creating layer inception_4c/relu_1x1
I0403 19:32:13.468344  9357 net.cpp:91] Creating Layer inception_4c/relu_1x1
I0403 19:32:13.468401  9357 net.cpp:425] inception_4c/relu_1x1 <- inception_4c/1x1
I0403 19:32:13.468449  9357 net.cpp:386] inception_4c/relu_1x1 -> inception_4c/1x1 (in-place)
I0403 19:32:13.468647  9357 net.cpp:141] Setting up inception_4c/relu_1x1
I0403 19:32:13.468675  9357 net.cpp:148] Top shape: 24 128 14 14 (602112)
I0403 19:32:13.468699  9357 net.cpp:156] Memory required for data: 1033209120
I0403 19:32:13.468715  9357 layer_factory.hpp:77] Creating layer inception_4c/3x3_reduce
I0403 19:32:13.468736  9357 net.cpp:91] Creating Layer inception_4c/3x3_reduce
I0403 19:32:13.468762  9357 net.cpp:425] inception_4c/3x3_reduce <- inception_4b/output_inception_4b/output_0_split_1
I0403 19:32:13.468788  9357 net.cpp:399] inception_4c/3x3_reduce -> inception_4c/3x3_reduce
I0403 19:32:13.470685  9357 net.cpp:141] Setting up inception_4c/3x3_reduce
I0403 19:32:13.470715  9357 net.cpp:148] Top shape: 24 128 14 14 (602112)
I0403 19:32:13.470731  9357 net.cpp:156] Memory required for data: 1035617568
I0403 19:32:13.470749  9357 layer_factory.hpp:77] Creating layer inception_4c/relu_3x3_reduce
I0403 19:32:13.470767  9357 net.cpp:91] Creating Layer inception_4c/relu_3x3_reduce
I0403 19:32:13.470782  9357 net.cpp:425] inception_4c/relu_3x3_reduce <- inception_4c/3x3_reduce
I0403 19:32:13.470803  9357 net.cpp:386] inception_4c/relu_3x3_reduce -> inception_4c/3x3_reduce (in-place)
I0403 19:32:13.471078  9357 net.cpp:141] Setting up inception_4c/relu_3x3_reduce
I0403 19:32:13.471104  9357 net.cpp:148] Top shape: 24 128 14 14 (602112)
I0403 19:32:13.471119  9357 net.cpp:156] Memory required for data: 1038026016
I0403 19:32:13.471134  9357 layer_factory.hpp:77] Creating layer inception_4c/3x3
I0403 19:32:13.471156  9357 net.cpp:91] Creating Layer inception_4c/3x3
I0403 19:32:13.471174  9357 net.cpp:425] inception_4c/3x3 <- inception_4c/3x3_reduce
I0403 19:32:13.471197  9357 net.cpp:399] inception_4c/3x3 -> inception_4c/3x3
I0403 19:32:13.474694  9357 net.cpp:141] Setting up inception_4c/3x3
I0403 19:32:13.474736  9357 net.cpp:148] Top shape: 24 256 14 14 (1204224)
I0403 19:32:13.474753  9357 net.cpp:156] Memory required for data: 1042842912
I0403 19:32:13.474786  9357 layer_factory.hpp:77] Creating layer inception_4c/relu_3x3
I0403 19:32:13.474805  9357 net.cpp:91] Creating Layer inception_4c/relu_3x3
I0403 19:32:13.474822  9357 net.cpp:425] inception_4c/relu_3x3 <- inception_4c/3x3
I0403 19:32:13.474840  9357 net.cpp:386] inception_4c/relu_3x3 -> inception_4c/3x3 (in-place)
I0403 19:32:13.475018  9357 net.cpp:141] Setting up inception_4c/relu_3x3
I0403 19:32:13.475044  9357 net.cpp:148] Top shape: 24 256 14 14 (1204224)
I0403 19:32:13.475059  9357 net.cpp:156] Memory required for data: 1047659808
I0403 19:32:13.475075  9357 layer_factory.hpp:77] Creating layer inception_4c/5x5_reduce
I0403 19:32:13.475097  9357 net.cpp:91] Creating Layer inception_4c/5x5_reduce
I0403 19:32:13.475114  9357 net.cpp:425] inception_4c/5x5_reduce <- inception_4b/output_inception_4b/output_0_split_2
I0403 19:32:13.475136  9357 net.cpp:399] inception_4c/5x5_reduce -> inception_4c/5x5_reduce
I0403 19:32:13.476191  9357 net.cpp:141] Setting up inception_4c/5x5_reduce
I0403 19:32:13.476219  9357 net.cpp:148] Top shape: 24 24 14 14 (112896)
I0403 19:32:13.476235  9357 net.cpp:156] Memory required for data: 1048111392
I0403 19:32:13.476254  9357 layer_factory.hpp:77] Creating layer inception_4c/relu_5x5_reduce
I0403 19:32:13.476274  9357 net.cpp:91] Creating Layer inception_4c/relu_5x5_reduce
I0403 19:32:13.476289  9357 net.cpp:425] inception_4c/relu_5x5_reduce <- inception_4c/5x5_reduce
I0403 19:32:13.476306  9357 net.cpp:386] inception_4c/relu_5x5_reduce -> inception_4c/5x5_reduce (in-place)
I0403 19:32:13.476487  9357 net.cpp:141] Setting up inception_4c/relu_5x5_reduce
I0403 19:32:13.476512  9357 net.cpp:148] Top shape: 24 24 14 14 (112896)
I0403 19:32:13.476527  9357 net.cpp:156] Memory required for data: 1048562976
I0403 19:32:13.476542  9357 layer_factory.hpp:77] Creating layer inception_4c/5x5
I0403 19:32:13.476565  9357 net.cpp:91] Creating Layer inception_4c/5x5
I0403 19:32:13.476583  9357 net.cpp:425] inception_4c/5x5 <- inception_4c/5x5_reduce
I0403 19:32:13.476603  9357 net.cpp:399] inception_4c/5x5 -> inception_4c/5x5
I0403 19:32:13.477803  9357 net.cpp:141] Setting up inception_4c/5x5
I0403 19:32:13.477830  9357 net.cpp:148] Top shape: 24 64 14 14 (301056)
I0403 19:32:13.477846  9357 net.cpp:156] Memory required for data: 1049767200
I0403 19:32:13.477865  9357 layer_factory.hpp:77] Creating layer inception_4c/relu_5x5
I0403 19:32:13.477885  9357 net.cpp:91] Creating Layer inception_4c/relu_5x5
I0403 19:32:13.477902  9357 net.cpp:425] inception_4c/relu_5x5 <- inception_4c/5x5
I0403 19:32:13.477918  9357 net.cpp:386] inception_4c/relu_5x5 -> inception_4c/5x5 (in-place)
I0403 19:32:13.478198  9357 net.cpp:141] Setting up inception_4c/relu_5x5
I0403 19:32:13.478224  9357 net.cpp:148] Top shape: 24 64 14 14 (301056)
I0403 19:32:13.478240  9357 net.cpp:156] Memory required for data: 1050971424
I0403 19:32:13.478255  9357 layer_factory.hpp:77] Creating layer inception_4c/pool
I0403 19:32:13.478274  9357 net.cpp:91] Creating Layer inception_4c/pool
I0403 19:32:13.478291  9357 net.cpp:425] inception_4c/pool <- inception_4b/output_inception_4b/output_0_split_3
I0403 19:32:13.478308  9357 net.cpp:399] inception_4c/pool -> inception_4c/pool
I0403 19:32:13.478373  9357 net.cpp:141] Setting up inception_4c/pool
I0403 19:32:13.478396  9357 net.cpp:148] Top shape: 24 512 14 14 (2408448)
I0403 19:32:13.478411  9357 net.cpp:156] Memory required for data: 1060605216
I0403 19:32:13.478430  9357 layer_factory.hpp:77] Creating layer inception_4c/pool_proj
I0403 19:32:13.478454  9357 net.cpp:91] Creating Layer inception_4c/pool_proj
I0403 19:32:13.478471  9357 net.cpp:425] inception_4c/pool_proj <- inception_4c/pool
I0403 19:32:13.478492  9357 net.cpp:399] inception_4c/pool_proj -> inception_4c/pool_proj
I0403 19:32:13.479676  9357 net.cpp:141] Setting up inception_4c/pool_proj
I0403 19:32:13.479704  9357 net.cpp:148] Top shape: 24 64 14 14 (301056)
I0403 19:32:13.479734  9357 net.cpp:156] Memory required for data: 1061809440
I0403 19:32:13.479754  9357 layer_factory.hpp:77] Creating layer inception_4c/relu_pool_proj
I0403 19:32:13.479771  9357 net.cpp:91] Creating Layer inception_4c/relu_pool_proj
I0403 19:32:13.479787  9357 net.cpp:425] inception_4c/relu_pool_proj <- inception_4c/pool_proj
I0403 19:32:13.479806  9357 net.cpp:386] inception_4c/relu_pool_proj -> inception_4c/pool_proj (in-place)
I0403 19:32:13.479985  9357 net.cpp:141] Setting up inception_4c/relu_pool_proj
I0403 19:32:13.480010  9357 net.cpp:148] Top shape: 24 64 14 14 (301056)
I0403 19:32:13.480026  9357 net.cpp:156] Memory required for data: 1063013664
I0403 19:32:13.480041  9357 layer_factory.hpp:77] Creating layer inception_4c/output
I0403 19:32:13.480060  9357 net.cpp:91] Creating Layer inception_4c/output
I0403 19:32:13.480077  9357 net.cpp:425] inception_4c/output <- inception_4c/1x1
I0403 19:32:13.480093  9357 net.cpp:425] inception_4c/output <- inception_4c/3x3
I0403 19:32:13.480109  9357 net.cpp:425] inception_4c/output <- inception_4c/5x5
I0403 19:32:13.480124  9357 net.cpp:425] inception_4c/output <- inception_4c/pool_proj
I0403 19:32:13.480141  9357 net.cpp:399] inception_4c/output -> inception_4c/output
I0403 19:32:13.480187  9357 net.cpp:141] Setting up inception_4c/output
I0403 19:32:13.480211  9357 net.cpp:148] Top shape: 24 512 14 14 (2408448)
I0403 19:32:13.480226  9357 net.cpp:156] Memory required for data: 1072647456
I0403 19:32:13.480240  9357 layer_factory.hpp:77] Creating layer inception_4c/output_inception_4c/output_0_split
I0403 19:32:13.480257  9357 net.cpp:91] Creating Layer inception_4c/output_inception_4c/output_0_split
I0403 19:32:13.480273  9357 net.cpp:425] inception_4c/output_inception_4c/output_0_split <- inception_4c/output
I0403 19:32:13.480293  9357 net.cpp:399] inception_4c/output_inception_4c/output_0_split -> inception_4c/output_inception_4c/output_0_split_0
I0403 19:32:13.480314  9357 net.cpp:399] inception_4c/output_inception_4c/output_0_split -> inception_4c/output_inception_4c/output_0_split_1
I0403 19:32:13.480332  9357 net.cpp:399] inception_4c/output_inception_4c/output_0_split -> inception_4c/output_inception_4c/output_0_split_2
I0403 19:32:13.480351  9357 net.cpp:399] inception_4c/output_inception_4c/output_0_split -> inception_4c/output_inception_4c/output_0_split_3
I0403 19:32:13.480456  9357 net.cpp:141] Setting up inception_4c/output_inception_4c/output_0_split
I0403 19:32:13.480481  9357 net.cpp:148] Top shape: 24 512 14 14 (2408448)
I0403 19:32:13.480499  9357 net.cpp:148] Top shape: 24 512 14 14 (2408448)
I0403 19:32:13.480515  9357 net.cpp:148] Top shape: 24 512 14 14 (2408448)
I0403 19:32:13.480531  9357 net.cpp:148] Top shape: 24 512 14 14 (2408448)
I0403 19:32:13.480545  9357 net.cpp:156] Memory required for data: 1111182624
I0403 19:32:13.480559  9357 layer_factory.hpp:77] Creating layer inception_4d/1x1
I0403 19:32:13.480582  9357 net.cpp:91] Creating Layer inception_4d/1x1
I0403 19:32:13.480602  9357 net.cpp:425] inception_4d/1x1 <- inception_4c/output_inception_4c/output_0_split_0
I0403 19:32:13.480623  9357 net.cpp:399] inception_4d/1x1 -> inception_4d/1x1
I0403 19:32:13.482003  9357 net.cpp:141] Setting up inception_4d/1x1
I0403 19:32:13.482035  9357 net.cpp:148] Top shape: 24 112 14 14 (526848)
I0403 19:32:13.482053  9357 net.cpp:156] Memory required for data: 1113290016
I0403 19:32:13.482071  9357 layer_factory.hpp:77] Creating layer inception_4d/relu_1x1
I0403 19:32:13.482089  9357 net.cpp:91] Creating Layer inception_4d/relu_1x1
I0403 19:32:13.482106  9357 net.cpp:425] inception_4d/relu_1x1 <- inception_4d/1x1
I0403 19:32:13.482127  9357 net.cpp:386] inception_4d/relu_1x1 -> inception_4d/1x1 (in-place)
I0403 19:32:13.482316  9357 net.cpp:141] Setting up inception_4d/relu_1x1
I0403 19:32:13.482341  9357 net.cpp:148] Top shape: 24 112 14 14 (526848)
I0403 19:32:13.482357  9357 net.cpp:156] Memory required for data: 1115397408
I0403 19:32:13.482372  9357 layer_factory.hpp:77] Creating layer inception_4d/3x3_reduce
I0403 19:32:13.482409  9357 net.cpp:91] Creating Layer inception_4d/3x3_reduce
I0403 19:32:13.482436  9357 net.cpp:425] inception_4d/3x3_reduce <- inception_4c/output_inception_4c/output_0_split_1
I0403 19:32:13.482463  9357 net.cpp:399] inception_4d/3x3_reduce -> inception_4d/3x3_reduce
I0403 19:32:13.483975  9357 net.cpp:141] Setting up inception_4d/3x3_reduce
I0403 19:32:13.484004  9357 net.cpp:148] Top shape: 24 144 14 14 (677376)
I0403 19:32:13.484020  9357 net.cpp:156] Memory required for data: 1118106912
I0403 19:32:13.484038  9357 layer_factory.hpp:77] Creating layer inception_4d/relu_3x3_reduce
I0403 19:32:13.484060  9357 net.cpp:91] Creating Layer inception_4d/relu_3x3_reduce
I0403 19:32:13.484076  9357 net.cpp:425] inception_4d/relu_3x3_reduce <- inception_4d/3x3_reduce
I0403 19:32:13.484096  9357 net.cpp:386] inception_4d/relu_3x3_reduce -> inception_4d/3x3_reduce (in-place)
I0403 19:32:13.484386  9357 net.cpp:141] Setting up inception_4d/relu_3x3_reduce
I0403 19:32:13.484412  9357 net.cpp:148] Top shape: 24 144 14 14 (677376)
I0403 19:32:13.484431  9357 net.cpp:156] Memory required for data: 1120816416
I0403 19:32:13.484447  9357 layer_factory.hpp:77] Creating layer inception_4d/3x3
I0403 19:32:13.484475  9357 net.cpp:91] Creating Layer inception_4d/3x3
I0403 19:32:13.484494  9357 net.cpp:425] inception_4d/3x3 <- inception_4d/3x3_reduce
I0403 19:32:13.484513  9357 net.cpp:399] inception_4d/3x3 -> inception_4d/3x3
I0403 19:32:13.488747  9357 net.cpp:141] Setting up inception_4d/3x3
I0403 19:32:13.488778  9357 net.cpp:148] Top shape: 24 288 14 14 (1354752)
I0403 19:32:13.488795  9357 net.cpp:156] Memory required for data: 1126235424
I0403 19:32:13.488816  9357 layer_factory.hpp:77] Creating layer inception_4d/relu_3x3
I0403 19:32:13.488833  9357 net.cpp:91] Creating Layer inception_4d/relu_3x3
I0403 19:32:13.488850  9357 net.cpp:425] inception_4d/relu_3x3 <- inception_4d/3x3
I0403 19:32:13.488870  9357 net.cpp:386] inception_4d/relu_3x3 -> inception_4d/3x3 (in-place)
I0403 19:32:13.489055  9357 net.cpp:141] Setting up inception_4d/relu_3x3
I0403 19:32:13.489083  9357 net.cpp:148] Top shape: 24 288 14 14 (1354752)
I0403 19:32:13.489097  9357 net.cpp:156] Memory required for data: 1131654432
I0403 19:32:13.489112  9357 layer_factory.hpp:77] Creating layer inception_4d/5x5_reduce
I0403 19:32:13.489135  9357 net.cpp:91] Creating Layer inception_4d/5x5_reduce
I0403 19:32:13.489153  9357 net.cpp:425] inception_4d/5x5_reduce <- inception_4c/output_inception_4c/output_0_split_2
I0403 19:32:13.489174  9357 net.cpp:399] inception_4d/5x5_reduce -> inception_4d/5x5_reduce
I0403 19:32:13.490313  9357 net.cpp:141] Setting up inception_4d/5x5_reduce
I0403 19:32:13.490341  9357 net.cpp:148] Top shape: 24 32 14 14 (150528)
I0403 19:32:13.490357  9357 net.cpp:156] Memory required for data: 1132256544
I0403 19:32:13.490376  9357 layer_factory.hpp:77] Creating layer inception_4d/relu_5x5_reduce
I0403 19:32:13.490394  9357 net.cpp:91] Creating Layer inception_4d/relu_5x5_reduce
I0403 19:32:13.490411  9357 net.cpp:425] inception_4d/relu_5x5_reduce <- inception_4d/5x5_reduce
I0403 19:32:13.490435  9357 net.cpp:386] inception_4d/relu_5x5_reduce -> inception_4d/5x5_reduce (in-place)
I0403 19:32:13.490624  9357 net.cpp:141] Setting up inception_4d/relu_5x5_reduce
I0403 19:32:13.490650  9357 net.cpp:148] Top shape: 24 32 14 14 (150528)
I0403 19:32:13.490665  9357 net.cpp:156] Memory required for data: 1132858656
I0403 19:32:13.490681  9357 layer_factory.hpp:77] Creating layer inception_4d/5x5
I0403 19:32:13.490703  9357 net.cpp:91] Creating Layer inception_4d/5x5
I0403 19:32:13.490722  9357 net.cpp:425] inception_4d/5x5 <- inception_4d/5x5_reduce
I0403 19:32:13.490743  9357 net.cpp:399] inception_4d/5x5 -> inception_4d/5x5
I0403 19:32:13.492193  9357 net.cpp:141] Setting up inception_4d/5x5
I0403 19:32:13.492221  9357 net.cpp:148] Top shape: 24 64 14 14 (301056)
I0403 19:32:13.492238  9357 net.cpp:156] Memory required for data: 1134062880
I0403 19:32:13.492257  9357 layer_factory.hpp:77] Creating layer inception_4d/relu_5x5
I0403 19:32:13.492295  9357 net.cpp:91] Creating Layer inception_4d/relu_5x5
I0403 19:32:13.492313  9357 net.cpp:425] inception_4d/relu_5x5 <- inception_4d/5x5
I0403 19:32:13.492331  9357 net.cpp:386] inception_4d/relu_5x5 -> inception_4d/5x5 (in-place)
I0403 19:32:13.492660  9357 net.cpp:141] Setting up inception_4d/relu_5x5
I0403 19:32:13.492689  9357 net.cpp:148] Top shape: 24 64 14 14 (301056)
I0403 19:32:13.492707  9357 net.cpp:156] Memory required for data: 1135267104
I0403 19:32:13.492722  9357 layer_factory.hpp:77] Creating layer inception_4d/pool
I0403 19:32:13.492755  9357 net.cpp:91] Creating Layer inception_4d/pool
I0403 19:32:13.492774  9357 net.cpp:425] inception_4d/pool <- inception_4c/output_inception_4c/output_0_split_3
I0403 19:32:13.492792  9357 net.cpp:399] inception_4d/pool -> inception_4d/pool
I0403 19:32:13.492859  9357 net.cpp:141] Setting up inception_4d/pool
I0403 19:32:13.492884  9357 net.cpp:148] Top shape: 24 512 14 14 (2408448)
I0403 19:32:13.492899  9357 net.cpp:156] Memory required for data: 1144900896
I0403 19:32:13.492914  9357 layer_factory.hpp:77] Creating layer inception_4d/pool_proj
I0403 19:32:13.492938  9357 net.cpp:91] Creating Layer inception_4d/pool_proj
I0403 19:32:13.492956  9357 net.cpp:425] inception_4d/pool_proj <- inception_4d/pool
I0403 19:32:13.492977  9357 net.cpp:399] inception_4d/pool_proj -> inception_4d/pool_proj
I0403 19:32:13.494724  9357 net.cpp:141] Setting up inception_4d/pool_proj
I0403 19:32:13.494756  9357 net.cpp:148] Top shape: 24 64 14 14 (301056)
I0403 19:32:13.494773  9357 net.cpp:156] Memory required for data: 1146105120
I0403 19:32:13.494793  9357 layer_factory.hpp:77] Creating layer inception_4d/relu_pool_proj
I0403 19:32:13.494812  9357 net.cpp:91] Creating Layer inception_4d/relu_pool_proj
I0403 19:32:13.494829  9357 net.cpp:425] inception_4d/relu_pool_proj <- inception_4d/pool_proj
I0403 19:32:13.494849  9357 net.cpp:386] inception_4d/relu_pool_proj -> inception_4d/pool_proj (in-place)
I0403 19:32:13.495035  9357 net.cpp:141] Setting up inception_4d/relu_pool_proj
I0403 19:32:13.495061  9357 net.cpp:148] Top shape: 24 64 14 14 (301056)
I0403 19:32:13.495076  9357 net.cpp:156] Memory required for data: 1147309344
I0403 19:32:13.495092  9357 layer_factory.hpp:77] Creating layer inception_4d/output
I0403 19:32:13.495110  9357 net.cpp:91] Creating Layer inception_4d/output
I0403 19:32:13.495126  9357 net.cpp:425] inception_4d/output <- inception_4d/1x1
I0403 19:32:13.495143  9357 net.cpp:425] inception_4d/output <- inception_4d/3x3
I0403 19:32:13.495160  9357 net.cpp:425] inception_4d/output <- inception_4d/5x5
I0403 19:32:13.495177  9357 net.cpp:425] inception_4d/output <- inception_4d/pool_proj
I0403 19:32:13.495196  9357 net.cpp:399] inception_4d/output -> inception_4d/output
I0403 19:32:13.495245  9357 net.cpp:141] Setting up inception_4d/output
I0403 19:32:13.495270  9357 net.cpp:148] Top shape: 24 528 14 14 (2483712)
I0403 19:32:13.495285  9357 net.cpp:156] Memory required for data: 1157244192
I0403 19:32:13.495301  9357 layer_factory.hpp:77] Creating layer inception_4d/output_inception_4d/output_0_split
I0403 19:32:13.495319  9357 net.cpp:91] Creating Layer inception_4d/output_inception_4d/output_0_split
I0403 19:32:13.495337  9357 net.cpp:425] inception_4d/output_inception_4d/output_0_split <- inception_4d/output
I0403 19:32:13.495359  9357 net.cpp:399] inception_4d/output_inception_4d/output_0_split -> inception_4d/output_inception_4d/output_0_split_0
I0403 19:32:13.495381  9357 net.cpp:399] inception_4d/output_inception_4d/output_0_split -> inception_4d/output_inception_4d/output_0_split_1
I0403 19:32:13.495403  9357 net.cpp:399] inception_4d/output_inception_4d/output_0_split -> inception_4d/output_inception_4d/output_0_split_2
I0403 19:32:13.495424  9357 net.cpp:399] inception_4d/output_inception_4d/output_0_split -> inception_4d/output_inception_4d/output_0_split_3
I0403 19:32:13.495450  9357 net.cpp:399] inception_4d/output_inception_4d/output_0_split -> inception_4d/output_inception_4d/output_0_split_4
I0403 19:32:13.495554  9357 net.cpp:141] Setting up inception_4d/output_inception_4d/output_0_split
I0403 19:32:13.495594  9357 net.cpp:148] Top shape: 24 528 14 14 (2483712)
I0403 19:32:13.495614  9357 net.cpp:148] Top shape: 24 528 14 14 (2483712)
I0403 19:32:13.495630  9357 net.cpp:148] Top shape: 24 528 14 14 (2483712)
I0403 19:32:13.495645  9357 net.cpp:148] Top shape: 24 528 14 14 (2483712)
I0403 19:32:13.495661  9357 net.cpp:148] Top shape: 24 528 14 14 (2483712)
I0403 19:32:13.495676  9357 net.cpp:156] Memory required for data: 1206918432
I0403 19:32:13.495692  9357 layer_factory.hpp:77] Creating layer loss2/ave_pool
I0403 19:32:13.495710  9357 net.cpp:91] Creating Layer loss2/ave_pool
I0403 19:32:13.495726  9357 net.cpp:425] loss2/ave_pool <- inception_4d/output_inception_4d/output_0_split_0
I0403 19:32:13.495748  9357 net.cpp:399] loss2/ave_pool -> loss2/ave_pool
I0403 19:32:13.496064  9357 net.cpp:141] Setting up loss2/ave_pool
I0403 19:32:13.496093  9357 net.cpp:148] Top shape: 24 528 4 4 (202752)
I0403 19:32:13.496109  9357 net.cpp:156] Memory required for data: 1207729440
I0403 19:32:13.496125  9357 layer_factory.hpp:77] Creating layer loss2/conv
I0403 19:32:13.496147  9357 net.cpp:91] Creating Layer loss2/conv
I0403 19:32:13.496166  9357 net.cpp:425] loss2/conv <- loss2/ave_pool
I0403 19:32:13.496188  9357 net.cpp:399] loss2/conv -> loss2/conv
I0403 19:32:13.498073  9357 net.cpp:141] Setting up loss2/conv
I0403 19:32:13.498101  9357 net.cpp:148] Top shape: 24 128 4 4 (49152)
I0403 19:32:13.498118  9357 net.cpp:156] Memory required for data: 1207926048
I0403 19:32:13.498137  9357 layer_factory.hpp:77] Creating layer loss2/relu_conv
I0403 19:32:13.498158  9357 net.cpp:91] Creating Layer loss2/relu_conv
I0403 19:32:13.498175  9357 net.cpp:425] loss2/relu_conv <- loss2/conv
I0403 19:32:13.498194  9357 net.cpp:386] loss2/relu_conv -> loss2/conv (in-place)
I0403 19:32:13.498507  9357 net.cpp:141] Setting up loss2/relu_conv
I0403 19:32:13.498533  9357 net.cpp:148] Top shape: 24 128 4 4 (49152)
I0403 19:32:13.498548  9357 net.cpp:156] Memory required for data: 1208122656
I0403 19:32:13.498563  9357 layer_factory.hpp:77] Creating layer loss2/fc
I0403 19:32:13.498584  9357 net.cpp:91] Creating Layer loss2/fc
I0403 19:32:13.498600  9357 net.cpp:425] loss2/fc <- loss2/conv
I0403 19:32:13.498621  9357 net.cpp:399] loss2/fc -> loss2/fc
I0403 19:32:13.515728  9357 net.cpp:141] Setting up loss2/fc
I0403 19:32:13.515765  9357 net.cpp:148] Top shape: 24 1024 (24576)
I0403 19:32:13.515781  9357 net.cpp:156] Memory required for data: 1208220960
I0403 19:32:13.515799  9357 layer_factory.hpp:77] Creating layer loss2/relu_fc
I0403 19:32:13.515818  9357 net.cpp:91] Creating Layer loss2/relu_fc
I0403 19:32:13.515835  9357 net.cpp:425] loss2/relu_fc <- loss2/fc
I0403 19:32:13.515853  9357 net.cpp:386] loss2/relu_fc -> loss2/fc (in-place)
I0403 19:32:13.516145  9357 net.cpp:141] Setting up loss2/relu_fc
I0403 19:32:13.516172  9357 net.cpp:148] Top shape: 24 1024 (24576)
I0403 19:32:13.516186  9357 net.cpp:156] Memory required for data: 1208319264
I0403 19:32:13.516201  9357 layer_factory.hpp:77] Creating layer loss2/drop_fc
I0403 19:32:13.516219  9357 net.cpp:91] Creating Layer loss2/drop_fc
I0403 19:32:13.516235  9357 net.cpp:425] loss2/drop_fc <- loss2/fc
I0403 19:32:13.516257  9357 net.cpp:386] loss2/drop_fc -> loss2/fc (in-place)
I0403 19:32:13.516304  9357 net.cpp:141] Setting up loss2/drop_fc
I0403 19:32:13.516330  9357 net.cpp:148] Top shape: 24 1024 (24576)
I0403 19:32:13.516345  9357 net.cpp:156] Memory required for data: 1208417568
I0403 19:32:13.516360  9357 layer_factory.hpp:77] Creating layer loss2/classifier_plantvillage
I0403 19:32:13.516379  9357 net.cpp:91] Creating Layer loss2/classifier_plantvillage
I0403 19:32:13.516396  9357 net.cpp:425] loss2/classifier_plantvillage <- loss2/fc
I0403 19:32:13.516417  9357 net.cpp:399] loss2/classifier_plantvillage -> loss2/classifier_plantvillage
I0403 19:32:13.516810  9357 net.cpp:141] Setting up loss2/classifier_plantvillage
I0403 19:32:13.516836  9357 net.cpp:148] Top shape: 24 38 (912)
I0403 19:32:13.516851  9357 net.cpp:156] Memory required for data: 1208421216
I0403 19:32:13.516886  9357 layer_factory.hpp:77] Creating layer loss2/classifier_plantvillage_loss2/classifier_plantvillage_0_split
I0403 19:32:13.516907  9357 net.cpp:91] Creating Layer loss2/classifier_plantvillage_loss2/classifier_plantvillage_0_split
I0403 19:32:13.516926  9357 net.cpp:425] loss2/classifier_plantvillage_loss2/classifier_plantvillage_0_split <- loss2/classifier_plantvillage
I0403 19:32:13.516944  9357 net.cpp:399] loss2/classifier_plantvillage_loss2/classifier_plantvillage_0_split -> loss2/classifier_plantvillage_loss2/classifier_plantvillage_0_split_0
I0403 19:32:13.516964  9357 net.cpp:399] loss2/classifier_plantvillage_loss2/classifier_plantvillage_0_split -> loss2/classifier_plantvillage_loss2/classifier_plantvillage_0_split_1
I0403 19:32:13.516986  9357 net.cpp:399] loss2/classifier_plantvillage_loss2/classifier_plantvillage_0_split -> loss2/classifier_plantvillage_loss2/classifier_plantvillage_0_split_2
I0403 19:32:13.517060  9357 net.cpp:141] Setting up loss2/classifier_plantvillage_loss2/classifier_plantvillage_0_split
I0403 19:32:13.517084  9357 net.cpp:148] Top shape: 24 38 (912)
I0403 19:32:13.517101  9357 net.cpp:148] Top shape: 24 38 (912)
I0403 19:32:13.517117  9357 net.cpp:148] Top shape: 24 38 (912)
I0403 19:32:13.517130  9357 net.cpp:156] Memory required for data: 1208432160
I0403 19:32:13.517144  9357 layer_factory.hpp:77] Creating layer inception_4e/1x1
I0403 19:32:13.517166  9357 net.cpp:91] Creating Layer inception_4e/1x1
I0403 19:32:13.517192  9357 net.cpp:425] inception_4e/1x1 <- inception_4d/output_inception_4d/output_0_split_1
I0403 19:32:13.517213  9357 net.cpp:399] inception_4e/1x1 -> inception_4e/1x1
I0403 19:32:13.518975  9357 net.cpp:141] Setting up inception_4e/1x1
I0403 19:32:13.519003  9357 net.cpp:148] Top shape: 24 256 14 14 (1204224)
I0403 19:32:13.519019  9357 net.cpp:156] Memory required for data: 1213249056
I0403 19:32:13.519037  9357 layer_factory.hpp:77] Creating layer inception_4e/relu_1x1
I0403 19:32:13.519057  9357 net.cpp:91] Creating Layer inception_4e/relu_1x1
I0403 19:32:13.519075  9357 net.cpp:425] inception_4e/relu_1x1 <- inception_4e/1x1
I0403 19:32:13.519093  9357 net.cpp:386] inception_4e/relu_1x1 -> inception_4e/1x1 (in-place)
I0403 19:32:13.519399  9357 net.cpp:141] Setting up inception_4e/relu_1x1
I0403 19:32:13.519425  9357 net.cpp:148] Top shape: 24 256 14 14 (1204224)
I0403 19:32:13.519448  9357 net.cpp:156] Memory required for data: 1218065952
I0403 19:32:13.519462  9357 layer_factory.hpp:77] Creating layer inception_4e/3x3_reduce
I0403 19:32:13.519497  9357 net.cpp:91] Creating Layer inception_4e/3x3_reduce
I0403 19:32:13.519515  9357 net.cpp:425] inception_4e/3x3_reduce <- inception_4d/output_inception_4d/output_0_split_2
I0403 19:32:13.519537  9357 net.cpp:399] inception_4e/3x3_reduce -> inception_4e/3x3_reduce
I0403 19:32:13.521582  9357 net.cpp:141] Setting up inception_4e/3x3_reduce
I0403 19:32:13.521610  9357 net.cpp:148] Top shape: 24 160 14 14 (752640)
I0403 19:32:13.521626  9357 net.cpp:156] Memory required for data: 1221076512
I0403 19:32:13.521646  9357 layer_factory.hpp:77] Creating layer inception_4e/relu_3x3_reduce
I0403 19:32:13.521666  9357 net.cpp:91] Creating Layer inception_4e/relu_3x3_reduce
I0403 19:32:13.521683  9357 net.cpp:425] inception_4e/relu_3x3_reduce <- inception_4e/3x3_reduce
I0403 19:32:13.521700  9357 net.cpp:386] inception_4e/relu_3x3_reduce -> inception_4e/3x3_reduce (in-place)
I0403 19:32:13.521879  9357 net.cpp:141] Setting up inception_4e/relu_3x3_reduce
I0403 19:32:13.521910  9357 net.cpp:148] Top shape: 24 160 14 14 (752640)
I0403 19:32:13.521926  9357 net.cpp:156] Memory required for data: 1224087072
I0403 19:32:13.521941  9357 layer_factory.hpp:77] Creating layer inception_4e/3x3
I0403 19:32:13.521961  9357 net.cpp:91] Creating Layer inception_4e/3x3
I0403 19:32:13.521977  9357 net.cpp:425] inception_4e/3x3 <- inception_4e/3x3_reduce
I0403 19:32:13.521997  9357 net.cpp:399] inception_4e/3x3 -> inception_4e/3x3
I0403 19:32:13.526865  9357 net.cpp:141] Setting up inception_4e/3x3
I0403 19:32:13.526909  9357 net.cpp:148] Top shape: 24 320 14 14 (1505280)
I0403 19:32:13.526927  9357 net.cpp:156] Memory required for data: 1230108192
I0403 19:32:13.526947  9357 layer_factory.hpp:77] Creating layer inception_4e/relu_3x3
I0403 19:32:13.526964  9357 net.cpp:91] Creating Layer inception_4e/relu_3x3
I0403 19:32:13.526980  9357 net.cpp:425] inception_4e/relu_3x3 <- inception_4e/3x3
I0403 19:32:13.526999  9357 net.cpp:386] inception_4e/relu_3x3 -> inception_4e/3x3 (in-place)
I0403 19:32:13.527298  9357 net.cpp:141] Setting up inception_4e/relu_3x3
I0403 19:32:13.527330  9357 net.cpp:148] Top shape: 24 320 14 14 (1505280)
I0403 19:32:13.527349  9357 net.cpp:156] Memory required for data: 1236129312
I0403 19:32:13.527369  9357 layer_factory.hpp:77] Creating layer inception_4e/5x5_reduce
I0403 19:32:13.527395  9357 net.cpp:91] Creating Layer inception_4e/5x5_reduce
I0403 19:32:13.527420  9357 net.cpp:425] inception_4e/5x5_reduce <- inception_4d/output_inception_4d/output_0_split_3
I0403 19:32:13.527452  9357 net.cpp:399] inception_4e/5x5_reduce -> inception_4e/5x5_reduce
I0403 19:32:13.528496  9357 net.cpp:141] Setting up inception_4e/5x5_reduce
I0403 19:32:13.528524  9357 net.cpp:148] Top shape: 24 32 14 14 (150528)
I0403 19:32:13.528540  9357 net.cpp:156] Memory required for data: 1236731424
I0403 19:32:13.528560  9357 layer_factory.hpp:77] Creating layer inception_4e/relu_5x5_reduce
I0403 19:32:13.528579  9357 net.cpp:91] Creating Layer inception_4e/relu_5x5_reduce
I0403 19:32:13.528595  9357 net.cpp:425] inception_4e/relu_5x5_reduce <- inception_4e/5x5_reduce
I0403 19:32:13.528612  9357 net.cpp:386] inception_4e/relu_5x5_reduce -> inception_4e/5x5_reduce (in-place)
I0403 19:32:13.528906  9357 net.cpp:141] Setting up inception_4e/relu_5x5_reduce
I0403 19:32:13.528933  9357 net.cpp:148] Top shape: 24 32 14 14 (150528)
I0403 19:32:13.528949  9357 net.cpp:156] Memory required for data: 1237333536
I0403 19:32:13.528964  9357 layer_factory.hpp:77] Creating layer inception_4e/5x5
I0403 19:32:13.529002  9357 net.cpp:91] Creating Layer inception_4e/5x5
I0403 19:32:13.529022  9357 net.cpp:425] inception_4e/5x5 <- inception_4e/5x5_reduce
I0403 19:32:13.529042  9357 net.cpp:399] inception_4e/5x5 -> inception_4e/5x5
I0403 19:32:15.534792  9357 net.cpp:141] Setting up inception_4e/5x5
I0403 19:32:15.534953  9357 net.cpp:148] Top shape: 24 128 14 14 (602112)
I0403 19:32:15.534998  9357 net.cpp:156] Memory required for data: 1239741984
I0403 19:32:15.535058  9357 layer_factory.hpp:77] Creating layer inception_4e/relu_5x5
I0403 19:32:15.535115  9357 net.cpp:91] Creating Layer inception_4e/relu_5x5
I0403 19:32:15.535168  9357 net.cpp:425] inception_4e/relu_5x5 <- inception_4e/5x5
I0403 19:32:15.535217  9357 net.cpp:386] inception_4e/relu_5x5 -> inception_4e/5x5 (in-place)
I0403 19:32:15.535764  9357 net.cpp:141] Setting up inception_4e/relu_5x5
I0403 19:32:15.535831  9357 net.cpp:148] Top shape: 24 128 14 14 (602112)
I0403 19:32:15.535871  9357 net.cpp:156] Memory required for data: 1242150432
I0403 19:32:15.535908  9357 layer_factory.hpp:77] Creating layer inception_4e/pool
I0403 19:32:15.535962  9357 net.cpp:91] Creating Layer inception_4e/pool
I0403 19:32:15.536005  9357 net.cpp:425] inception_4e/pool <- inception_4d/output_inception_4d/output_0_split_4
I0403 19:32:15.536052  9357 net.cpp:399] inception_4e/pool -> inception_4e/pool
I0403 19:32:15.536250  9357 net.cpp:141] Setting up inception_4e/pool
I0403 19:32:15.536314  9357 net.cpp:148] Top shape: 24 528 14 14 (2483712)
I0403 19:32:15.536352  9357 net.cpp:156] Memory required for data: 1252085280
I0403 19:32:15.536391  9357 layer_factory.hpp:77] Creating layer inception_4e/pool_proj
I0403 19:32:15.536465  9357 net.cpp:91] Creating Layer inception_4e/pool_proj
I0403 19:32:15.536514  9357 net.cpp:425] inception_4e/pool_proj <- inception_4e/pool
I0403 19:32:15.536571  9357 net.cpp:399] inception_4e/pool_proj -> inception_4e/pool_proj
I0403 19:32:15.540782  9357 net.cpp:141] Setting up inception_4e/pool_proj
I0403 19:32:15.540868  9357 net.cpp:148] Top shape: 24 128 14 14 (602112)
I0403 19:32:15.540971  9357 net.cpp:156] Memory required for data: 1254493728
I0403 19:32:15.541024  9357 layer_factory.hpp:77] Creating layer inception_4e/relu_pool_proj
I0403 19:32:15.541071  9357 net.cpp:91] Creating Layer inception_4e/relu_pool_proj
I0403 19:32:15.541113  9357 net.cpp:425] inception_4e/relu_pool_proj <- inception_4e/pool_proj
I0403 19:32:15.541163  9357 net.cpp:386] inception_4e/relu_pool_proj -> inception_4e/pool_proj (in-place)
I0403 19:32:15.547382  9357 net.cpp:141] Setting up inception_4e/relu_pool_proj
I0403 19:32:15.547600  9357 net.cpp:148] Top shape: 24 128 14 14 (602112)
I0403 19:32:15.547648  9357 net.cpp:156] Memory required for data: 1256902176
I0403 19:32:15.547695  9357 layer_factory.hpp:77] Creating layer inception_4e/output
I0403 19:32:15.547751  9357 net.cpp:91] Creating Layer inception_4e/output
I0403 19:32:15.547798  9357 net.cpp:425] inception_4e/output <- inception_4e/1x1
I0403 19:32:15.547848  9357 net.cpp:425] inception_4e/output <- inception_4e/3x3
I0403 19:32:15.547893  9357 net.cpp:425] inception_4e/output <- inception_4e/5x5
I0403 19:32:15.547936  9357 net.cpp:425] inception_4e/output <- inception_4e/pool_proj
I0403 19:32:15.547988  9357 net.cpp:399] inception_4e/output -> inception_4e/output
I0403 19:32:15.548161  9357 net.cpp:141] Setting up inception_4e/output
I0403 19:32:15.548223  9357 net.cpp:148] Top shape: 24 832 14 14 (3913728)
I0403 19:32:15.548264  9357 net.cpp:156] Memory required for data: 1272557088
I0403 19:32:15.548301  9357 layer_factory.hpp:77] Creating layer pool4/3x3_s2
I0403 19:32:15.548359  9357 net.cpp:91] Creating Layer pool4/3x3_s2
I0403 19:32:15.548404  9357 net.cpp:425] pool4/3x3_s2 <- inception_4e/output
I0403 19:32:15.548465  9357 net.cpp:399] pool4/3x3_s2 -> pool4/3x3_s2
I0403 19:32:15.548663  9357 net.cpp:141] Setting up pool4/3x3_s2
I0403 19:32:15.548725  9357 net.cpp:148] Top shape: 24 832 7 7 (978432)
I0403 19:32:15.548764  9357 net.cpp:156] Memory required for data: 1276470816
I0403 19:32:15.548801  9357 layer_factory.hpp:77] Creating layer pool4/3x3_s2_pool4/3x3_s2_0_split
I0403 19:32:15.548856  9357 net.cpp:91] Creating Layer pool4/3x3_s2_pool4/3x3_s2_0_split
I0403 19:32:15.548902  9357 net.cpp:425] pool4/3x3_s2_pool4/3x3_s2_0_split <- pool4/3x3_s2
I0403 19:32:15.548949  9357 net.cpp:399] pool4/3x3_s2_pool4/3x3_s2_0_split -> pool4/3x3_s2_pool4/3x3_s2_0_split_0
I0403 19:32:15.549000  9357 net.cpp:399] pool4/3x3_s2_pool4/3x3_s2_0_split -> pool4/3x3_s2_pool4/3x3_s2_0_split_1
I0403 19:32:15.549052  9357 net.cpp:399] pool4/3x3_s2_pool4/3x3_s2_0_split -> pool4/3x3_s2_pool4/3x3_s2_0_split_2
I0403 19:32:15.549103  9357 net.cpp:399] pool4/3x3_s2_pool4/3x3_s2_0_split -> pool4/3x3_s2_pool4/3x3_s2_0_split_3
I0403 19:32:15.549340  9357 net.cpp:141] Setting up pool4/3x3_s2_pool4/3x3_s2_0_split
I0403 19:32:15.549401  9357 net.cpp:148] Top shape: 24 832 7 7 (978432)
I0403 19:32:15.549455  9357 net.cpp:148] Top shape: 24 832 7 7 (978432)
I0403 19:32:15.549497  9357 net.cpp:148] Top shape: 24 832 7 7 (978432)
I0403 19:32:15.549540  9357 net.cpp:148] Top shape: 24 832 7 7 (978432)
I0403 19:32:15.549576  9357 net.cpp:156] Memory required for data: 1292125728
I0403 19:32:15.549613  9357 layer_factory.hpp:77] Creating layer inception_5a/1x1
I0403 19:32:15.549679  9357 net.cpp:91] Creating Layer inception_5a/1x1
I0403 19:32:15.549724  9357 net.cpp:425] inception_5a/1x1 <- pool4/3x3_s2_pool4/3x3_s2_0_split_0
I0403 19:32:15.549780  9357 net.cpp:399] inception_5a/1x1 -> inception_5a/1x1
I0403 19:32:15.562919  9357 net.cpp:141] Setting up inception_5a/1x1
I0403 19:32:15.563046  9357 net.cpp:148] Top shape: 24 256 7 7 (301056)
I0403 19:32:15.563077  9357 net.cpp:156] Memory required for data: 1293329952
I0403 19:32:15.563120  9357 layer_factory.hpp:77] Creating layer inception_5a/relu_1x1
I0403 19:32:15.563166  9357 net.cpp:91] Creating Layer inception_5a/relu_1x1
I0403 19:32:15.563201  9357 net.cpp:425] inception_5a/relu_1x1 <- inception_5a/1x1
I0403 19:32:15.563240  9357 net.cpp:386] inception_5a/relu_1x1 -> inception_5a/1x1 (in-place)
I0403 19:32:15.569681  9357 net.cpp:141] Setting up inception_5a/relu_1x1
I0403 19:32:15.569815  9357 net.cpp:148] Top shape: 24 256 7 7 (301056)
I0403 19:32:15.569846  9357 net.cpp:156] Memory required for data: 1294534176
I0403 19:32:15.569880  9357 layer_factory.hpp:77] Creating layer inception_5a/3x3_reduce
I0403 19:32:15.569938  9357 net.cpp:91] Creating Layer inception_5a/3x3_reduce
I0403 19:32:15.569977  9357 net.cpp:425] inception_5a/3x3_reduce <- pool4/3x3_s2_pool4/3x3_s2_0_split_1
I0403 19:32:15.570024  9357 net.cpp:399] inception_5a/3x3_reduce -> inception_5a/3x3_reduce
I0403 19:32:15.584705  9357 net.cpp:141] Setting up inception_5a/3x3_reduce
I0403 19:32:15.584811  9357 net.cpp:148] Top shape: 24 160 7 7 (188160)
I0403 19:32:15.584833  9357 net.cpp:156] Memory required for data: 1295286816
I0403 19:32:15.584863  9357 layer_factory.hpp:77] Creating layer inception_5a/relu_3x3_reduce
I0403 19:32:15.584893  9357 net.cpp:91] Creating Layer inception_5a/relu_3x3_reduce
I0403 19:32:15.584918  9357 net.cpp:425] inception_5a/relu_3x3_reduce <- inception_5a/3x3_reduce
I0403 19:32:15.584945  9357 net.cpp:386] inception_5a/relu_3x3_reduce -> inception_5a/3x3_reduce (in-place)
I0403 19:32:15.585191  9357 net.cpp:141] Setting up inception_5a/relu_3x3_reduce
I0403 19:32:15.585222  9357 net.cpp:148] Top shape: 24 160 7 7 (188160)
I0403 19:32:15.585240  9357 net.cpp:156] Memory required for data: 1296039456
I0403 19:32:15.585259  9357 layer_factory.hpp:77] Creating layer inception_5a/3x3
I0403 19:32:15.585299  9357 net.cpp:91] Creating Layer inception_5a/3x3
I0403 19:32:15.585319  9357 net.cpp:425] inception_5a/3x3 <- inception_5a/3x3_reduce
I0403 19:32:15.585348  9357 net.cpp:399] inception_5a/3x3 -> inception_5a/3x3
I0403 19:32:15.599311  9357 net.cpp:141] Setting up inception_5a/3x3
I0403 19:32:15.599436  9357 net.cpp:148] Top shape: 24 320 7 7 (376320)
I0403 19:32:15.599467  9357 net.cpp:156] Memory required for data: 1297544736
I0403 19:32:15.599503  9357 layer_factory.hpp:77] Creating layer inception_5a/relu_3x3
I0403 19:32:15.599542  9357 net.cpp:91] Creating Layer inception_5a/relu_3x3
I0403 19:32:15.599572  9357 net.cpp:425] inception_5a/relu_3x3 <- inception_5a/3x3
I0403 19:32:15.599604  9357 net.cpp:386] inception_5a/relu_3x3 -> inception_5a/3x3 (in-place)
I0403 19:32:15.605554  9357 net.cpp:141] Setting up inception_5a/relu_3x3
I0403 19:32:15.605681  9357 net.cpp:148] Top shape: 24 320 7 7 (376320)
I0403 19:32:15.605712  9357 net.cpp:156] Memory required for data: 1299050016
I0403 19:32:15.605748  9357 layer_factory.hpp:77] Creating layer inception_5a/5x5_reduce
I0403 19:32:15.605819  9357 net.cpp:91] Creating Layer inception_5a/5x5_reduce
I0403 19:32:15.605859  9357 net.cpp:425] inception_5a/5x5_reduce <- pool4/3x3_s2_pool4/3x3_s2_0_split_2
I0403 19:32:15.605909  9357 net.cpp:399] inception_5a/5x5_reduce -> inception_5a/5x5_reduce
I0403 19:32:15.613209  9357 net.cpp:141] Setting up inception_5a/5x5_reduce
I0403 19:32:15.613307  9357 net.cpp:148] Top shape: 24 32 7 7 (37632)
I0403 19:32:15.613328  9357 net.cpp:156] Memory required for data: 1299200544
I0403 19:32:15.613359  9357 layer_factory.hpp:77] Creating layer inception_5a/relu_5x5_reduce
I0403 19:32:15.613391  9357 net.cpp:91] Creating Layer inception_5a/relu_5x5_reduce
I0403 19:32:15.613417  9357 net.cpp:425] inception_5a/relu_5x5_reduce <- inception_5a/5x5_reduce
I0403 19:32:15.613450  9357 net.cpp:386] inception_5a/relu_5x5_reduce -> inception_5a/5x5_reduce (in-place)
I0403 19:32:15.619375  9357 net.cpp:141] Setting up inception_5a/relu_5x5_reduce
I0403 19:32:15.619479  9357 net.cpp:148] Top shape: 24 32 7 7 (37632)
I0403 19:32:15.619500  9357 net.cpp:156] Memory required for data: 1299351072
I0403 19:32:15.619524  9357 layer_factory.hpp:77] Creating layer inception_5a/5x5
I0403 19:32:15.619565  9357 net.cpp:91] Creating Layer inception_5a/5x5
I0403 19:32:15.619590  9357 net.cpp:425] inception_5a/5x5 <- inception_5a/5x5_reduce
I0403 19:32:15.619622  9357 net.cpp:399] inception_5a/5x5 -> inception_5a/5x5
I0403 19:32:15.626797  9357 net.cpp:141] Setting up inception_5a/5x5
I0403 19:32:15.626935  9357 net.cpp:148] Top shape: 24 128 7 7 (150528)
I0403 19:32:15.626956  9357 net.cpp:156] Memory required for data: 1299953184
I0403 19:32:15.626987  9357 layer_factory.hpp:77] Creating layer inception_5a/relu_5x5
I0403 19:32:15.627020  9357 net.cpp:91] Creating Layer inception_5a/relu_5x5
I0403 19:32:15.627046  9357 net.cpp:425] inception_5a/relu_5x5 <- inception_5a/5x5
I0403 19:32:15.627073  9357 net.cpp:386] inception_5a/relu_5x5 -> inception_5a/5x5 (in-place)
I0403 19:32:15.627318  9357 net.cpp:141] Setting up inception_5a/relu_5x5
I0403 19:32:15.627349  9357 net.cpp:148] Top shape: 24 128 7 7 (150528)
I0403 19:32:15.627368  9357 net.cpp:156] Memory required for data: 1300555296
I0403 19:32:15.627387  9357 layer_factory.hpp:77] Creating layer inception_5a/pool
I0403 19:32:15.627413  9357 net.cpp:91] Creating Layer inception_5a/pool
I0403 19:32:15.627442  9357 net.cpp:425] inception_5a/pool <- pool4/3x3_s2_pool4/3x3_s2_0_split_3
I0403 19:32:15.627467  9357 net.cpp:399] inception_5a/pool -> inception_5a/pool
I0403 19:32:15.627571  9357 net.cpp:141] Setting up inception_5a/pool
I0403 19:32:15.627601  9357 net.cpp:148] Top shape: 24 832 7 7 (978432)
I0403 19:32:15.627619  9357 net.cpp:156] Memory required for data: 1304469024
I0403 19:32:15.627637  9357 layer_factory.hpp:77] Creating layer inception_5a/pool_proj
I0403 19:32:15.627671  9357 net.cpp:91] Creating Layer inception_5a/pool_proj
I0403 19:32:15.627693  9357 net.cpp:425] inception_5a/pool_proj <- inception_5a/pool
I0403 19:32:15.627720  9357 net.cpp:399] inception_5a/pool_proj -> inception_5a/pool_proj
I0403 19:32:15.641235  9357 net.cpp:141] Setting up inception_5a/pool_proj
I0403 19:32:15.641360  9357 net.cpp:148] Top shape: 24 128 7 7 (150528)
I0403 19:32:15.641389  9357 net.cpp:156] Memory required for data: 1305071136
I0403 19:32:15.641451  9357 layer_factory.hpp:77] Creating layer inception_5a/relu_pool_proj
I0403 19:32:15.641496  9357 net.cpp:91] Creating Layer inception_5a/relu_pool_proj
I0403 19:32:15.641531  9357 net.cpp:425] inception_5a/relu_pool_proj <- inception_5a/pool_proj
I0403 19:32:15.641573  9357 net.cpp:386] inception_5a/relu_pool_proj -> inception_5a/pool_proj (in-place)
I0403 19:32:15.647583  9357 net.cpp:141] Setting up inception_5a/relu_pool_proj
I0403 19:32:15.647732  9357 net.cpp:148] Top shape: 24 128 7 7 (150528)
I0403 19:32:15.647773  9357 net.cpp:156] Memory required for data: 1305673248
I0403 19:32:15.647817  9357 layer_factory.hpp:77] Creating layer inception_5a/output
I0403 19:32:15.647871  9357 net.cpp:91] Creating Layer inception_5a/output
I0403 19:32:15.647918  9357 net.cpp:425] inception_5a/output <- inception_5a/1x1
I0403 19:32:15.647969  9357 net.cpp:425] inception_5a/output <- inception_5a/3x3
I0403 19:32:15.648012  9357 net.cpp:425] inception_5a/output <- inception_5a/5x5
I0403 19:32:15.648056  9357 net.cpp:425] inception_5a/output <- inception_5a/pool_proj
I0403 19:32:15.648107  9357 net.cpp:399] inception_5a/output -> inception_5a/output
I0403 19:32:15.648277  9357 net.cpp:141] Setting up inception_5a/output
I0403 19:32:15.648346  9357 net.cpp:148] Top shape: 24 832 7 7 (978432)
I0403 19:32:15.648386  9357 net.cpp:156] Memory required for data: 1309586976
I0403 19:32:15.648422  9357 layer_factory.hpp:77] Creating layer inception_5a/output_inception_5a/output_0_split
I0403 19:32:15.648483  9357 net.cpp:91] Creating Layer inception_5a/output_inception_5a/output_0_split
I0403 19:32:15.648525  9357 net.cpp:425] inception_5a/output_inception_5a/output_0_split <- inception_5a/output
I0403 19:32:15.648571  9357 net.cpp:399] inception_5a/output_inception_5a/output_0_split -> inception_5a/output_inception_5a/output_0_split_0
I0403 19:32:15.648625  9357 net.cpp:399] inception_5a/output_inception_5a/output_0_split -> inception_5a/output_inception_5a/output_0_split_1
I0403 19:32:15.648684  9357 net.cpp:399] inception_5a/output_inception_5a/output_0_split -> inception_5a/output_inception_5a/output_0_split_2
I0403 19:32:15.648739  9357 net.cpp:399] inception_5a/output_inception_5a/output_0_split -> inception_5a/output_inception_5a/output_0_split_3
I0403 19:32:15.649083  9357 net.cpp:141] Setting up inception_5a/output_inception_5a/output_0_split
I0403 19:32:15.649147  9357 net.cpp:148] Top shape: 24 832 7 7 (978432)
I0403 19:32:15.649189  9357 net.cpp:148] Top shape: 24 832 7 7 (978432)
I0403 19:32:15.649230  9357 net.cpp:148] Top shape: 24 832 7 7 (978432)
I0403 19:32:15.649271  9357 net.cpp:148] Top shape: 24 832 7 7 (978432)
I0403 19:32:15.649308  9357 net.cpp:156] Memory required for data: 1325241888
I0403 19:32:15.649346  9357 layer_factory.hpp:77] Creating layer inception_5b/1x1
I0403 19:32:15.649415  9357 net.cpp:91] Creating Layer inception_5b/1x1
I0403 19:32:15.649473  9357 net.cpp:425] inception_5b/1x1 <- inception_5a/output_inception_5a/output_0_split_0
I0403 19:32:15.649530  9357 net.cpp:399] inception_5b/1x1 -> inception_5b/1x1
I0403 19:32:15.661711  9357 net.cpp:141] Setting up inception_5b/1x1
I0403 19:32:15.661819  9357 net.cpp:148] Top shape: 24 384 7 7 (451584)
I0403 19:32:15.661840  9357 net.cpp:156] Memory required for data: 1327048224
I0403 19:32:15.661870  9357 layer_factory.hpp:77] Creating layer inception_5b/relu_1x1
I0403 19:32:15.661900  9357 net.cpp:91] Creating Layer inception_5b/relu_1x1
I0403 19:32:15.661923  9357 net.cpp:425] inception_5b/relu_1x1 <- inception_5b/1x1
I0403 19:32:15.661952  9357 net.cpp:386] inception_5b/relu_1x1 -> inception_5b/1x1 (in-place)
I0403 19:32:15.665782  9357 net.cpp:141] Setting up inception_5b/relu_1x1
I0403 19:32:15.665904  9357 net.cpp:148] Top shape: 24 384 7 7 (451584)
I0403 19:32:15.665935  9357 net.cpp:156] Memory required for data: 1328854560
I0403 19:32:15.665966  9357 layer_factory.hpp:77] Creating layer inception_5b/3x3_reduce
I0403 19:32:15.666019  9357 net.cpp:91] Creating Layer inception_5b/3x3_reduce
I0403 19:32:15.666054  9357 net.cpp:425] inception_5b/3x3_reduce <- inception_5a/output_inception_5a/output_0_split_1
I0403 19:32:15.666095  9357 net.cpp:399] inception_5b/3x3_reduce -> inception_5b/3x3_reduce
I0403 19:32:15.671042  9357 net.cpp:141] Setting up inception_5b/3x3_reduce
I0403 19:32:15.671097  9357 net.cpp:148] Top shape: 24 192 7 7 (225792)
I0403 19:32:15.671124  9357 net.cpp:156] Memory required for data: 1329757728
I0403 19:32:15.671159  9357 layer_factory.hpp:77] Creating layer inception_5b/relu_3x3_reduce
I0403 19:32:15.671201  9357 net.cpp:91] Creating Layer inception_5b/relu_3x3_reduce
I0403 19:32:15.671231  9357 net.cpp:425] inception_5b/relu_3x3_reduce <- inception_5b/3x3_reduce
I0403 19:32:15.671265  9357 net.cpp:386] inception_5b/relu_3x3_reduce -> inception_5b/3x3_reduce (in-place)
I0403 19:32:15.671630  9357 net.cpp:141] Setting up inception_5b/relu_3x3_reduce
I0403 19:32:15.671675  9357 net.cpp:148] Top shape: 24 192 7 7 (225792)
I0403 19:32:15.671701  9357 net.cpp:156] Memory required for data: 1330660896
I0403 19:32:15.671727  9357 layer_factory.hpp:77] Creating layer inception_5b/3x3
I0403 19:32:15.671767  9357 net.cpp:91] Creating Layer inception_5b/3x3
I0403 19:32:15.671797  9357 net.cpp:425] inception_5b/3x3 <- inception_5b/3x3_reduce
I0403 19:32:15.671834  9357 net.cpp:399] inception_5b/3x3 -> inception_5b/3x3
I0403 19:32:15.680433  9357 net.cpp:141] Setting up inception_5b/3x3
I0403 19:32:15.680472  9357 net.cpp:148] Top shape: 24 384 7 7 (451584)
I0403 19:32:15.680500  9357 net.cpp:156] Memory required for data: 1332467232
I0403 19:32:15.680524  9357 layer_factory.hpp:77] Creating layer inception_5b/relu_3x3
I0403 19:32:15.680546  9357 net.cpp:91] Creating Layer inception_5b/relu_3x3
I0403 19:32:15.680568  9357 net.cpp:425] inception_5b/relu_3x3 <- inception_5b/3x3
I0403 19:32:15.680593  9357 net.cpp:386] inception_5b/relu_3x3 -> inception_5b/3x3 (in-place)
I0403 19:32:15.680958  9357 net.cpp:141] Setting up inception_5b/relu_3x3
I0403 19:32:15.681006  9357 net.cpp:148] Top shape: 24 384 7 7 (451584)
I0403 19:32:15.681057  9357 net.cpp:156] Memory required for data: 1334273568
I0403 19:32:15.681113  9357 layer_factory.hpp:77] Creating layer inception_5b/5x5_reduce
I0403 19:32:15.681183  9357 net.cpp:91] Creating Layer inception_5b/5x5_reduce
I0403 19:32:15.681210  9357 net.cpp:425] inception_5b/5x5_reduce <- inception_5a/output_inception_5a/output_0_split_2
I0403 19:32:15.681239  9357 net.cpp:399] inception_5b/5x5_reduce -> inception_5b/5x5_reduce
I0403 19:32:15.682823  9357 net.cpp:141] Setting up inception_5b/5x5_reduce
I0403 19:32:15.682862  9357 net.cpp:148] Top shape: 24 48 7 7 (56448)
I0403 19:32:15.682881  9357 net.cpp:156] Memory required for data: 1334499360
I0403 19:32:15.682905  9357 layer_factory.hpp:77] Creating layer inception_5b/relu_5x5_reduce
I0403 19:32:15.682927  9357 net.cpp:91] Creating Layer inception_5b/relu_5x5_reduce
I0403 19:32:15.682947  9357 net.cpp:425] inception_5b/relu_5x5_reduce <- inception_5b/5x5_reduce
I0403 19:32:15.682971  9357 net.cpp:386] inception_5b/relu_5x5_reduce -> inception_5b/5x5_reduce (in-place)
I0403 19:32:15.683425  9357 net.cpp:141] Setting up inception_5b/relu_5x5_reduce
I0403 19:32:15.683465  9357 net.cpp:148] Top shape: 24 48 7 7 (56448)
I0403 19:32:15.683483  9357 net.cpp:156] Memory required for data: 1334725152
I0403 19:32:15.683502  9357 layer_factory.hpp:77] Creating layer inception_5b/5x5
I0403 19:32:15.683527  9357 net.cpp:91] Creating Layer inception_5b/5x5
I0403 19:32:15.683548  9357 net.cpp:425] inception_5b/5x5 <- inception_5b/5x5_reduce
I0403 19:32:15.683573  9357 net.cpp:399] inception_5b/5x5 -> inception_5b/5x5
I0403 19:32:15.686130  9357 net.cpp:141] Setting up inception_5b/5x5
I0403 19:32:15.686164  9357 net.cpp:148] Top shape: 24 128 7 7 (150528)
I0403 19:32:15.686183  9357 net.cpp:156] Memory required for data: 1335327264
I0403 19:32:15.686206  9357 layer_factory.hpp:77] Creating layer inception_5b/relu_5x5
I0403 19:32:15.686231  9357 net.cpp:91] Creating Layer inception_5b/relu_5x5
I0403 19:32:15.686252  9357 net.cpp:425] inception_5b/relu_5x5 <- inception_5b/5x5
I0403 19:32:15.686275  9357 net.cpp:386] inception_5b/relu_5x5 -> inception_5b/5x5 (in-place)
I0403 19:32:15.686522  9357 net.cpp:141] Setting up inception_5b/relu_5x5
I0403 19:32:15.686553  9357 net.cpp:148] Top shape: 24 128 7 7 (150528)
I0403 19:32:15.686573  9357 net.cpp:156] Memory required for data: 1335929376
I0403 19:32:15.686592  9357 layer_factory.hpp:77] Creating layer inception_5b/pool
I0403 19:32:15.686625  9357 net.cpp:91] Creating Layer inception_5b/pool
I0403 19:32:15.686646  9357 net.cpp:425] inception_5b/pool <- inception_5a/output_inception_5a/output_0_split_3
I0403 19:32:15.686669  9357 net.cpp:399] inception_5b/pool -> inception_5b/pool
I0403 19:32:15.686765  9357 net.cpp:141] Setting up inception_5b/pool
I0403 19:32:15.686795  9357 net.cpp:148] Top shape: 24 832 7 7 (978432)
I0403 19:32:15.686813  9357 net.cpp:156] Memory required for data: 1339843104
I0403 19:32:15.686832  9357 layer_factory.hpp:77] Creating layer inception_5b/pool_proj
I0403 19:32:15.686863  9357 net.cpp:91] Creating Layer inception_5b/pool_proj
I0403 19:32:15.686884  9357 net.cpp:425] inception_5b/pool_proj <- inception_5b/pool
I0403 19:32:15.686911  9357 net.cpp:399] inception_5b/pool_proj -> inception_5b/pool_proj
I0403 19:32:15.689738  9357 net.cpp:141] Setting up inception_5b/pool_proj
I0403 19:32:15.689774  9357 net.cpp:148] Top shape: 24 128 7 7 (150528)
I0403 19:32:15.689795  9357 net.cpp:156] Memory required for data: 1340445216
I0403 19:32:15.689818  9357 layer_factory.hpp:77] Creating layer inception_5b/relu_pool_proj
I0403 19:32:15.689841  9357 net.cpp:91] Creating Layer inception_5b/relu_pool_proj
I0403 19:32:15.689862  9357 net.cpp:425] inception_5b/relu_pool_proj <- inception_5b/pool_proj
I0403 19:32:15.689887  9357 net.cpp:386] inception_5b/relu_pool_proj -> inception_5b/pool_proj (in-place)
I0403 19:32:15.690248  9357 net.cpp:141] Setting up inception_5b/relu_pool_proj
I0403 19:32:15.690280  9357 net.cpp:148] Top shape: 24 128 7 7 (150528)
I0403 19:32:15.690299  9357 net.cpp:156] Memory required for data: 1341047328
I0403 19:32:15.690318  9357 layer_factory.hpp:77] Creating layer inception_5b/output
I0403 19:32:15.690341  9357 net.cpp:91] Creating Layer inception_5b/output
I0403 19:32:15.690382  9357 net.cpp:425] inception_5b/output <- inception_5b/1x1
I0403 19:32:15.690412  9357 net.cpp:425] inception_5b/output <- inception_5b/3x3
I0403 19:32:15.690446  9357 net.cpp:425] inception_5b/output <- inception_5b/5x5
I0403 19:32:15.690469  9357 net.cpp:425] inception_5b/output <- inception_5b/pool_proj
I0403 19:32:15.690495  9357 net.cpp:399] inception_5b/output -> inception_5b/output
I0403 19:32:15.690558  9357 net.cpp:141] Setting up inception_5b/output
I0403 19:32:15.690592  9357 net.cpp:148] Top shape: 24 1024 7 7 (1204224)
I0403 19:32:15.690610  9357 net.cpp:156] Memory required for data: 1345864224
I0403 19:32:15.690629  9357 layer_factory.hpp:77] Creating layer pool5/7x7_s1
I0403 19:32:15.690652  9357 net.cpp:91] Creating Layer pool5/7x7_s1
I0403 19:32:15.690672  9357 net.cpp:425] pool5/7x7_s1 <- inception_5b/output
I0403 19:32:15.690699  9357 net.cpp:399] pool5/7x7_s1 -> pool5/7x7_s1
I0403 19:32:15.690973  9357 net.cpp:141] Setting up pool5/7x7_s1
I0403 19:32:15.691004  9357 net.cpp:148] Top shape: 24 1024 1 1 (24576)
I0403 19:32:15.691023  9357 net.cpp:156] Memory required for data: 1345962528
I0403 19:32:15.691042  9357 layer_factory.hpp:77] Creating layer pool5/drop_7x7_s1
I0403 19:32:15.691066  9357 net.cpp:91] Creating Layer pool5/drop_7x7_s1
I0403 19:32:15.691085  9357 net.cpp:425] pool5/drop_7x7_s1 <- pool5/7x7_s1
I0403 19:32:15.691110  9357 net.cpp:386] pool5/drop_7x7_s1 -> pool5/7x7_s1 (in-place)
I0403 19:32:15.691172  9357 net.cpp:141] Setting up pool5/drop_7x7_s1
I0403 19:32:15.691205  9357 net.cpp:148] Top shape: 24 1024 1 1 (24576)
I0403 19:32:15.691225  9357 net.cpp:156] Memory required for data: 1346060832
I0403 19:32:15.691242  9357 layer_factory.hpp:77] Creating layer loss3/classifier_plantvillage
I0403 19:32:15.691267  9357 net.cpp:91] Creating Layer loss3/classifier_plantvillage
I0403 19:32:15.691287  9357 net.cpp:425] loss3/classifier_plantvillage <- pool5/7x7_s1
I0403 19:32:15.691314  9357 net.cpp:399] loss3/classifier_plantvillage -> loss3/classifier_plantvillage
I0403 19:32:15.691844  9357 net.cpp:141] Setting up loss3/classifier_plantvillage
I0403 19:32:15.691880  9357 net.cpp:148] Top shape: 24 38 (912)
I0403 19:32:15.691900  9357 net.cpp:156] Memory required for data: 1346064480
I0403 19:32:15.691922  9357 layer_factory.hpp:77] Creating layer loss3/classifier_plantvillage_loss3/classifier_plantvillage_0_split
I0403 19:32:15.691947  9357 net.cpp:91] Creating Layer loss3/classifier_plantvillage_loss3/classifier_plantvillage_0_split
I0403 19:32:15.691967  9357 net.cpp:425] loss3/classifier_plantvillage_loss3/classifier_plantvillage_0_split <- loss3/classifier_plantvillage
I0403 19:32:15.691988  9357 net.cpp:399] loss3/classifier_plantvillage_loss3/classifier_plantvillage_0_split -> loss3/classifier_plantvillage_loss3/classifier_plantvillage_0_split_0
I0403 19:32:15.692013  9357 net.cpp:399] loss3/classifier_plantvillage_loss3/classifier_plantvillage_0_split -> loss3/classifier_plantvillage_loss3/classifier_plantvillage_0_split_1
I0403 19:32:15.692041  9357 net.cpp:399] loss3/classifier_plantvillage_loss3/classifier_plantvillage_0_split -> loss3/classifier_plantvillage_loss3/classifier_plantvillage_0_split_2
I0403 19:32:15.692067  9357 net.cpp:399] loss3/classifier_plantvillage_loss3/classifier_plantvillage_0_split -> loss3/classifier_plantvillage_loss3/classifier_plantvillage_0_split_3
I0403 19:32:15.692193  9357 net.cpp:141] Setting up loss3/classifier_plantvillage_loss3/classifier_plantvillage_0_split
I0403 19:32:15.692224  9357 net.cpp:148] Top shape: 24 38 (912)
I0403 19:32:15.692244  9357 net.cpp:148] Top shape: 24 38 (912)
I0403 19:32:15.692262  9357 net.cpp:148] Top shape: 24 38 (912)
I0403 19:32:15.692281  9357 net.cpp:148] Top shape: 24 38 (912)
I0403 19:32:15.692298  9357 net.cpp:156] Memory required for data: 1346079072
I0403 19:32:15.692317  9357 layer_factory.hpp:77] Creating layer loss1/loss
I0403 19:32:15.692348  9357 net.cpp:91] Creating Layer loss1/loss
I0403 19:32:15.692378  9357 net.cpp:425] loss1/loss <- loss1/classifier_plantvillage_loss1/classifier_plantvillage_0_split_0
I0403 19:32:15.692416  9357 net.cpp:425] loss1/loss <- label_data_1_split_0
…
