…
I0403 19:47:36.131901  9677 net.cpp:313] The NetState phase (1) differed from the phase (0) specified by a rule in layer data
I0403 19:47:36.133666  9677 net.cpp:49] Initializing net from parameters: 
state {
  phase: TEST
}
layer {
  name: "data"
  type: "Data"
  top: "data"
  top: "label"
  include {
    phase: TEST
  }
  transform_param {
    mirror: false
    crop_size: 224
    mean_file: "/home/mohanty/data/final_dataset/lmdb/color-60-40/mean.binaryproto"
  }
  data_param {
    source: "/home/mohanty/data/final_dataset/lmdb/color-60-40/test_db"
    batch_size: 24
    backend: LMDB
  }
}
layer {
  name: "conv1/7x7_s2"
  type: "Convolution"
  bottom: "data"
  top: "conv1/7x7_s2"
  param {
    lr_mult: 1
    decay_mult: 1
  }
  param {
    lr_mult: 2
    decay_mult: 0
  }
  convolution_param {
    num_output: 64
    pad: 3
    kernel_size: 7
    stride: 2
    weight_filler {
      type: "xavier"
      std: 0.1
    }
    bias_filler {
      type: "constant"
      value: 0.2
    }
  }
}
layer {
  name: "conv1/relu_7x7"
  type: "ReLU"
  bottom: "conv1/7x7_s2"
  top: "conv1/7x7_s2"
}
layer {
  name: "pool1/3x3_s2"
  type: "Pooling"
  bottom: "conv1/7x7_s2"
  top: "pool1/3x3_s2"
  pooling_param {
    pool: MAX
    kernel_size: 3
    stride: 2
  }
}
layer {
  name: "pool1/norm1"
  type: "LRN"
  bottom: "pool1/3x3_s2"
  top: "pool1/norm1"
  lrn_param {
    local_size: 5
    alpha: 0.0001
    beta: 0.75
  }
}
layer {
  name: "conv2/3x3_reduce"
  type: "Convolution"
  bottom: "pool1/norm1"
  top: "conv2/3x3_reduce"
  param {
    lr_mult: 1
    decay_mult: 1
  }
  param {
    lr_mult: 2
    decay_mult: 0
  }
  convolution_param {
    num_output: 64
    kernel_size: 1
    weight_filler {
      type: "xavier"
      std: 0.1
    }
    bias_filler {
      type: "constant"
      value: 0.2
    }
  }
}
layer {
  name: "conv2/relu_3x3_reduce"
  type: "ReLU"
  bottom: "conv2/3x3_reduce"
  top: "conv2/3x3_reduce"
}
layer {
  name: "conv2/3x3"
  type: "Convolution"
  bottom: "conv2/3x3_reduce"
  top: "conv2/3x3"
  param {
    lr_mult: 1
    decay_mult: 1
  }
  param {
    lr_mult: 2
    decay_mult: 0
  }
  convolution_param {
    num_output: 192
    pad: 1
    kernel_size: 3
    weight_filler {
      type: "xavier"
      std: 0.03
    }
    bias_filler {
      type: "constant"
      value: 0.2
    }
  }
}
layer {
  name: "conv2/relu_3x3"
  type: "ReLU"
  bottom: "conv2/3x3"
  top: "conv2/3x3"
}
layer {
  name: "conv2/norm2"
  type: "LRN"
  bottom: "conv2/3x3"
  top: "conv2/norm2"
  lrn_param {
    local_size: 5
    alpha: 0.0001
    beta: 0.75
  }
}
layer {
  name: "pool2/3x3_s2"
  type: "Pooling"
  bottom: "conv2/norm2"
  top: "pool2/3x3_s2"
  pooling_param {
    pool: MAX
    kernel_size: 3
    stride: 2
  }
}
layer {
  name: "inception_3a/1x1"
  type: "Convolution"
  bottom: "pool2/3x3_s2"
  top: "inception_3a/1x1"
  param {
    lr_mult: 1
    decay_mult: 1
  }
  param {
    lr_mult: 2
    decay_mult: 0
  }
  convolution_param {
    num_output: 64
    kernel_size: 1
    weight_filler {
      type: "xavier"
      std: 0.03
    }
    bias_filler {
      type: "constant"
      value: 0.2
    }
  }
}
layer {
  name: "inception_3a/relu_1x1"
  type: "ReLU"
  bottom: "inception_3a/1x1"
  top: "inception_3a/1x1"
}
layer {
  name: "inception_3a/3x3_reduce"
  type: "Convolution"
  bottom: "pool2/3x3_s2"
  top: "inception_3a/3x3_reduce"
  param {
    lr_mult: 1
    decay_mult: 1
  }
  param {
    lr_mult: 2
    decay_mult: 0
  }
  convolution_param {
    num_output: 96
    kernel_size: 1
    weight_filler {
      type: "xavier"
      std: 0.09
    }
    bias_filler {
      type: "constant"
      value: 0.2
    }
  }
}
layer {
  name: "inception_3a/relu_3x3_reduce"
  type: "ReLU"
  bottom: "inception_3a/3x3_reduce"
  top: "inception_3a/3x3_reduce"
}
layer {
  name: "inception_3a/3x3"
  type: "Convolution"
  bottom: "inception_3a/3x3_reduce"
  top: "inception_3a/3x3"
  param {
    lr_mult: 1
    decay_mult: 1
  }
  param {
    lr_mult: 2
    decay_mult: 0
  }
  convolution_param {
    num_output: 128
    pad: 1
    kernel_size: 3
    weight_filler {
      type: "xavier"
      std: 0.03
    }
    bias_filler {
      type: "constant"
      value: 0.2
    }
  }
}
layer {
  name: "inception_3a/relu_3x3"
  type: "ReLU"
  bottom: "inception_3a/3x3"
  top: "inception_3a/3x3"
}
layer {
  name: "inception_3a/5x5_reduce"
  type: "Convolution"
  bottom: "pool2/3x3_s2"
  top: "inception_3a/5x5_reduce"
  param {
    lr_mult: 1
    decay_mult: 1
  }
  param {
    lr_mult: 2
    decay_mult: 0
  }
  convolution_param {
    num_output: 16
    kernel_size: 1
    weight_filler {
      type: "xavier"
      std: 0.2
    }
    bias_filler {
      type: "constant"
      value: 0.2
    }
  }
}
layer {
  name: "inception_3a/relu_5x5_reduce"
  type: "ReLU"
  bottom: "inception_3a/5x5_reduce"
  top: "inception_3a/5x5_reduce"
}
layer {
  name: "inception_3a/5x5"
  type: "Convolution"
  bottom: "inception_3a/5x5_reduce"
  top: "inception_3a/5x5"
  param {
    lr_mult: 1
    decay_mult: 1
  }
  param {
    lr_mult: 2
    decay_mult: 0
  }
  convolution_param {
    num_output: 32
    pad: 2
    kernel_size: 5
    weight_filler {
      type: "xavier"
      std: 0.03
    }
    bias_filler {
      type: "constant"
      value: 0.2
    }
  }
}
layer {
  name: "inception_3a/relu_5x5"
  type: "ReLU"
  bottom: "inception_3a/5x5"
  top: "inception_3a/5x5"
}
layer {
  name: "inception_3a/pool"
  type: "Pooling"
  bottom: "pool2/3x3_s2"
  top: "inception_3a/pool"
  pooling_param {
    pool: MAX
    kernel_size: 3
    stride: 1
    pad: 1
  }
}
layer {
  name: "inception_3a/pool_proj"
  type: "Convolution"
  bottom: "inception_3a/pool"
  top: "inception_3a/pool_proj"
  param {
    lr_mult: 1
    decay_mult: 1
  }
  param {
    lr_mult: 2
    decay_mult: 0
  }
  convolution_param {
    num_output: 32
    kernel_size: 1
    weight_filler {
      type: "xavier"
      std: 0.1
    }
    bias_filler {
      type: "constant"
      value: 0.2
    }
  }
}
layer {
  name: "inception_3a/relu_pool_proj"
  type: "ReLU"
  bottom: "inception_3a/pool_proj"
  top: "inception_3a/pool_proj"
}
layer {
  name: "inception_3a/output"
  type: "Concat"
  bottom: "inception_3a/1x1"
  bottom: "inception_3a/3x3"
  bottom: "inception_3a/5x5"
  bottom: "inception_3a/pool_proj"
  top: "inception_3a/output"
}
layer {
  name: "inception_3b/1x1"
  type: "Convolution"
  bottom: "inception_3a/output"
  top: "inception_3b/1x1"
  param {
    lr_mult: 1
    decay_mult: 1
  }
  param {
    lr_mult: 2
    decay_mult: 0
  }
  convolution_param {
    num_output: 128
    kernel_size: 1
    weight_filler {
      type: "xavier"
      std: 0.03
    }
    bias_filler {
      type: "constant"
      value: 0.2
    }
  }
}
layer {
  name: "inception_3b/relu_1x1"
  type: "ReLU"
  bottom: "inception_3b/1x1"
  top: "inception_3b/1x1"
}
layer {
  name: "inception_3b/3x3_reduce"
  type: "Convolution"
  bottom: "inception_3a/output"
  top: "inception_3b/3x3_reduce"
  param {
    lr_mult: 1
    decay_mult: 1
  }
  param {
    lr_mult: 2
    decay_mult: 0
  }
  convolution_param {
    num_output: 128
    kernel_size: 1
    weight_filler {
      type: "xavier"
      std: 0.09
    }
    bias_filler {
      type: "constant"
      value: 0.2
    }
  }
}
layer {
  name: "inception_3b/relu_3x3_reduce"
  type: "ReLU"
  bottom: "inception_3b/3x3_reduce"
  top: "inception_3b/3x3_reduce"
}
layer {
  name: "inception_3b/3x3"
  type: "Convolution"
  bottom: "inception_3b/3x3_reduce"
  top: "inception_3b/3x3"
  param {
    lr_mult: 1
    decay_mult: 1
  }
  param {
    lr_mult: 2
    decay_mult: 0
  }
  convolution_param {
    num_output: 192
    pad: 1
    kernel_size: 3
    weight_filler {
      type: "xavier"
      std: 0.03
    }
    bias_filler {
      type: "constant"
      value: 0.2
    }
  }
}
layer {
  name: "inception_3b/relu_3x3"
  type: "ReLU"
  bottom: "inception_3b/3x3"
  top: "inception_3b/3x3"
}
layer {
  name: "inception_3b/5x5_reduce"
  type: "Convolution"
  bottom: "inception_3a/output"
  top: "inception_3b/5x5_reduce"
  param {
    lr_mult: 1
    decay_mult: 1
  }
  param {
    lr_mult: 2
    decay_mult: 0
  }
  convolution_param {
    num_output: 32
    kernel_size: 1
    weight_filler {
      type: "xavier"
      std: 0.2
    }
    bias_filler {
      type: "constant"
      value: 0.2
    }
  }
}
layer {
  name: "inception_3b/relu_5x5_reduce"
  type: "ReLU"
  bottom: "inception_3b/5x5_reduce"
  top: "inception_3b/5x5_reduce"
}
layer {
  name: "inception_3b/5x5"
  type: "Convolution"
  bottom: "inception_3b/5x5_reduce"
  top: "inception_3b/5x5"
  param {
    lr_mult: 1
    decay_mult: 1
  }
  param {
    lr_mult: 2
    decay_mult: 0
  }
  convolution_param {
    num_output: 96
    pad: 2
    kernel_size: 5
    weight_filler {
      type: "xavier"
      std: 0.03
    }
    bias_filler {
      type: "constant"
      value: 0.2
    }
  }
}
layer {
  name: "inception_3b/relu_5x5"
  type: "ReLU"
  bottom: "inception_3b/5x5"
  top: "inception_3b/5x5"
}
layer {
  name: "inception_3b/pool"
  type: "Pooling"
  bottom: "inception_3a/output"
  top: "inception_3b/pool"
  pooling_param {
    pool: MAX
    kernel_size: 3
    stride: 1
    pad: 1
  }
}
layer {
  name: "inception_3b/pool_proj"
  type: "Convolution"
  bottom: "inception_3b/pool"
  top: "inception_3b/pool_proj"
  param {
    lr_mult: 1
    decay_mult: 1
  }
  param {
    lr_mult: 2
    decay_mult: 0
  }
  convolution_param {
    num_output: 64
    kernel_size: 1
    weight_filler {
      type: "xavier"
      std: 0.1
    }
    bias_filler {
      type: "constant"
      value: 0.2
    }
  }
}
layer {
  name: "inception_3b/relu_pool_proj"
  type: "ReLU"
  bottom: "inception_3b/pool_proj"
  top: "inception_3b/pool_proj"
}
layer {
  name: "inception_3b/output"
  type: "Concat"
  bottom: "inception_3b/1x1"
  bottom: "inception_3b/3x3"
  bottom: "inception_3b/5x5"
  bottom: "inception_3b/pool_proj"
  top: "inception_3b/output"
}
layer {
  name: "pool3/3x3_s2"
  type: "Pooling"
  bottom: "inception_3b/output"
  top: "pool3/3x3_s2"
  pooling_param {
    pool: MAX
    kernel_size: 3
    stride: 2
  }
}
layer {
  name: "inception_4a/1x1"
  type: "Convolution"
  bottom: "pool3/3x3_s2"
  top: "inception_4a/1x1"
  param {
    lr_mult: 1
    decay_mult: 1
  }
  param {
    lr_mult: 2
    decay_mult: 0
  }
  convolution_param {
    num_output: 192
    kernel_size: 1
    weight_filler {
      type: "xavier"
      std: 0.03
    }
    bias_filler {
      type: "constant"
      value: 0.2
    }
  }
}
layer {
  name: "inception_4a/relu_1x1"
  type: "ReLU"
  bottom: "inception_4a/1x1"
  top: "inception_4a/1x1"
}
layer {
  name: "inception_4a/3x3_reduce"
  type: "Convolution"
  bottom: "pool3/3x3_s2"
  top: "inception_4a/3x3_reduce"
  param {
    lr_mult: 1
    decay_mult: 1
  }
  param {
    lr_mult: 2
    decay_mult: 0
  }
  convolution_param {
    num_output: 96
    kernel_size: 1
    weight_filler {
      type: "xavier"
      std: 0.09
    }
    bias_filler {
      type: "constant"
      value: 0.2
    }
  }
}
layer {
  name: "inception_4a/relu_3x3_reduce"
  type: "ReLU"
  bottom: "inception_4a/3x3_reduce"
  top: "inception_4a/3x3_reduce"
}
layer {
  name: "inception_4a/3x3"
  type: "Convolution"
  bottom: "inception_4a/3x3_reduce"
  top: "inception_4a/3x3"
  param {
    lr_mult: 1
    decay_mult: 1
  }
  param {
    lr_mult: 2
    decay_mult: 0
  }
  convolution_param {
    num_output: 208
    pad: 1
    kernel_size: 3
    weight_filler {
      type: "xavier"
      std: 0.03
    }
    bias_filler {
      type: "constant"
      value: 0.2
    }
  }
}
layer {
  name: "inception_4a/relu_3x3"
  type: "ReLU"
  bottom: "inception_4a/3x3"
  top: "inception_4a/3x3"
}
layer {
  name: "inception_4a/5x5_reduce"
  type: "Convolution"
  bottom: "pool3/3x3_s2"
  top: "inception_4a/5x5_reduce"
  param {
    lr_mult: 1
    decay_mult: 1
  }
  param {
    lr_mult: 2
    decay_mult: 0
  }
  convolution_param {
    num_output: 16
    kernel_size: 1
    weight_filler {
      type: "xavier"
      std: 0.2
    }
    bias_filler {
      type: "constant"
      value: 0.2
    }
  }
}
layer {
  name: "inception_4a/relu_5x5_reduce"
  type: "ReLU"
  bottom: "inception_4a/5x5_reduce"
  top: "inception_4a/5x5_reduce"
}
layer {
  name: "inception_4a/5x5"
  type: "Convolution"
  bottom: "inception_4a/5x5_reduce"
  top: "inception_4a/5x5"
  param {
    lr_mult: 1
    decay_mult: 1
  }
  param {
    lr_mult: 2
    decay_mult: 0
  }
  convolution_param {
    num_output: 48
    pad: 2
    kernel_size: 5
    weight_filler {
      type: "xavier"
      std: 0.03
    }
    bias_filler {
      type: "constant"
      value: 0.2
    }
  }
}
layer {
  name: "inception_4a/relu_5x5"
  type: "ReLU"
  bottom: "inception_4a/5x5"
  top: "inception_4a/5x5"
}
layer {
  name: "inception_4a/pool"
  type: "Pooling"
  bottom: "pool3/3x3_s2"
  top: "inception_4a/pool"
  pooling_param {
    pool: MAX
    kernel_size: 3
    stride: 1
    pad: 1
  }
}
layer {
  name: "inception_4a/pool_proj"
  type: "Convolution"
  bottom: "inception_4a/pool"
  top: "inception_4a/pool_proj"
  param {
    lr_mult: 1
    decay_mult: 1
  }
  param {
    lr_mult: 2
    decay_mult: 0
  }
  convolution_param {
    num_output: 64
    kernel_size: 1
    weight_filler {
      type: "xavier"
      std: 0.1
    }
    bias_filler {
      type: "constant"
      value: 0.2
    }
  }
}
layer {
  name: "inception_4a/relu_pool_proj"
  type: "ReLU"
  bottom: "inception_4a/pool_proj"
  top: "inception_4a/pool_proj"
}
layer {
  name: "inception_4a/output"
  type: "Concat"
  bottom: "inception_4a/1x1"
  bottom: "inception_4a/3x3"
  bottom: "inception_4a/5x5"
  bottom: "inception_4a/pool_proj"
  top: "inception_4a/output"
}
layer {
  name: "loss1/ave_pool"
  type: "Pooling"
  bottom: "inception_4a/output"
  top: "loss1/ave_pool"
  pooling_param {
    pool: AVE
    kernel_size: 5
    stride: 3
  }
}
layer {
  name: "loss1/conv"
  type: "Convolution"
  bottom: "loss1/ave_pool"
  top: "loss1/conv"
  param {
    lr_mult: 1
    decay_mult: 1
  }
  param {
    lr_mult: 2
    decay_mult: 0
  }
  convolution_param {
    num_output: 128
    kernel_size: 1
    weight_filler {
      type: "xavier"
      std: 0.08
    }
    bias_filler {
      type: "constant"
      value: 0.2
    }
  }
}
layer {
  name: "loss1/relu_conv"
  type: "ReLU"
  bottom: "loss1/conv"
  top: "loss1/conv"
}
layer {
  name: "loss1/fc"
  type: "InnerProduct"
  bottom: "loss1/conv"
  top: "loss1/fc"
  param {
    lr_mult: 1
    decay_mult: 1
  }
  param {
    lr_mult: 2
    decay_mult: 0
  }
  inner_product_param {
    num_output: 1024
    weight_filler {
      type: "xavier"
      std: 0.02
    }
    bias_filler {
      type: "constant"
      value: 0.2
    }
  }
}
layer {
  name: "loss1/relu_fc"
  type: "ReLU"
  bottom: "loss1/fc"
  top: "loss1/fc"
}
layer {
  name: "loss1/drop_fc"
  type: "Dropout"
  bottom: "loss1/fc"
  top: "loss1/fc"
  dropout_param {
    dropout_ratio: 0.7
  }
}
layer {
  name: "loss1/classifier_plantvillage"
  type: "InnerProduct"
  bottom: "loss1/fc"
  top: "loss1/classifier_plantvillage"
  param {
    lr_mult: 1
    decay_mult: 1
  }
  param {
    lr_mult: 2
    decay_mult: 0
  }
  inner_product_param {
    num_output: 38
    weight_filler {
      type: "xavier"
      std: 0.0009765625
    }
    bias_filler {
      type: "constant"
      value: 0
    }
  }
}
layer {
  name: "inception_4b/1x1"
  type: "Convolution"
  bottom: "inception_4a/output"
  top: "inception_4b/1x1"
  param {
    lr_mult: 1
    decay_mult: 1
  }
  param {
    lr_mult: 2
    decay_mult: 0
  }
  convolution_param {
    num_output: 160
    kernel_size: 1
    weight_filler {
      type: "xavier"
      std: 0.03
    }
    bias_filler {
      type: "constant"
      value: 0.2
    }
  }
}
layer {
  name: "inception_4b/relu_1x1"
  type: "ReLU"
  bottom: "inception_4b/1x1"
  top: "inception_4b/1x1"
}
layer {
  name: "inception_4b/3x3_reduce"
  type: "Convolution"
  bottom: "inception_4a/output"
  top: "inception_4b/3x3_reduce"
  param {
    lr_mult: 1
    decay_mult: 1
  }
  param {
    lr_mult: 2
    decay_mult: 0
  }
  convolution_param {
    num_output: 112
    kernel_size: 1
    weight_filler {
      type: "xavier"
      std: 0.09
    }
    bias_filler {
      type: "constant"
      value: 0.2
    }
  }
}
layer {
  name: "inception_4b/relu_3x3_reduce"
  type: "ReLU"
  bottom: "inception_4b/3x3_reduce"
  top: "inception_4b/3x3_reduce"
}
layer {
  name: "inception_4b/3x3"
  type: "Convolution"
  bottom: "inception_4b/3x3_reduce"
  top: "inception_4b/3x3"
  param {
    lr_mult: 1
    decay_mult: 1
  }
  param {
    lr_mult: 2
    decay_mult: 0
  }
  convolution_param {
    num_output: 224
    pad: 1
    kernel_size: 3
    weight_filler {
      type: "xavier"
      std: 0.03
    }
    bias_filler {
      type: "constant"
      value: 0.2
    }
  }
}
layer {
  name: "inception_4b/relu_3x3"
  type: "ReLU"
  bottom: "inception_4b/3x3"
  top: "inception_4b/3x3"
}
layer {
  name: "inception_4b/5x5_reduce"
  type: "Convolution"
  bottom: "inception_4a/output"
  top: "inception_4b/5x5_reduce"
  param {
    lr_mult: 1
    decay_mult: 1
  }
  param {
    lr_mult: 2
    decay_mult: 0
  }
  convolution_param {
    num_output: 24
    kernel_size: 1
    weight_filler {
      type: "xavier"
      std: 0.2
    }
    bias_filler {
      type: "constant"
      value: 0.2
    }
  }
}
layer {
  name: "inception_4b/relu_5x5_reduce"
  type: "ReLU"
  bottom: "inception_4b/5x5_reduce"
  top: "inception_4b/5x5_reduce"
}
layer {
  name: "inception_4b/5x5"
  type: "Convolution"
  bottom: "inception_4b/5x5_reduce"
  top: "inception_4b/5x5"
  param {
    lr_mult: 1
    decay_mult: 1
  }
  param {
    lr_mult: 2
    decay_mult: 0
  }
  convolution_param {
    num_output: 64
    pad: 2
    kernel_size: 5
    weight_filler {
      type: "xavier"
      std: 0.03
    }
    bias_filler {
      type: "constant"
      value: 0.2
    }
  }
}
layer {
  name: "inception_4b/relu_5x5"
  type: "ReLU"
  bottom: "inception_4b/5x5"
  top: "inception_4b/5x5"
}
layer {
  name: "inception_4b/pool"
  type: "Pooling"
  bottom: "inception_4a/output"
  top: "inception_4b/pool"
  pooling_param {
    pool: MAX
    kernel_size: 3
    stride: 1
    pad: 1
  }
}
layer {
  name: "inception_4b/pool_proj"
  type: "Convolution"
  bottom: "inception_4b/pool"
  top: "inception_4b/pool_proj"
  param {
    lr_mult: 1
    decay_mult: 1
  }
  param {
    lr_mult: 2
    decay_mult: 0
  }
  convolution_param {
    num_output: 64
    kernel_size: 1
    weight_filler {
      type: "xavier"
      std: 0.1
    }
    bias_filler {
      type: "constant"
      value: 0.2
    }
  }
}
layer {
  name: "inception_4b/relu_pool_proj"
  type: "ReLU"
  bottom: "inception_4b/pool_proj"
  top: "inception_4b/pool_proj"
}
layer {
  name: "inception_4b/output"
  type: "Concat"
  bottom: "inception_4b/1x1"
  bottom: "inception_4b/3x3"
  bottom: "inception_4b/5x5"
  bottom: "inception_4b/pool_proj"
  top: "inception_4b/output"
}
layer {
  name: "inception_4c/1x1"
  type: "Convolution"
  bottom: "inception_4b/output"
  top: "inception_4c/1x1"
  param {
    lr_mult: 1
    decay_mult: 1
  }
  param {
    lr_mult: 2
    decay_mult: 0
  }
  convolution_param {
    num_output: 128
    kernel_size: 1
    weight_filler {
      type: "xavier"
      std: 0.03
    }
    bias_filler {
      type: "constant"
      value: 0.2
    }
  }
}
layer {
  name: "inception_4c/relu_1x1"
  type: "ReLU"
  bottom: "inception_4c/1x1"
  top: "inception_4c/1x1"
}
layer {
  name: "inception_4c/3x3_reduce"
  type: "Convolution"
  bottom: "inception_4b/output"
  top: "inception_4c/3x3_reduce"
  param {
    lr_mult: 1
    decay_mult: 1
  }
  param {
    lr_mult: 2
    decay_mult: 0
  }
  convolution_param {
    num_output: 128
    kernel_size: 1
    weight_filler {
      type: "xavier"
      std: 0.09
    }
    bias_filler {
      type: "constant"
      value: 0.2
    }
  }
}
layer {
  name: "inception_4c/relu_3x3_reduce"
  type: "ReLU"
  bottom: "inception_4c/3x3_reduce"
  top: "inception_4c/3x3_reduce"
}
layer {
  name: "inception_4c/3x3"
  type: "Convolution"
  bottom: "inception_4c/3x3_reduce"
  top: "inception_4c/3x3"
  param {
    lr_mult: 1
    decay_mult: 1
  }
  param {
    lr_mult: 2
    decay_mult: 0
  }
  convolution_param {
    num_output: 256
    pad: 1
    kernel_size: 3
    weight_filler {
      type: "xavier"
      std: 0.03
    }
    bias_filler {
      type: "constant"
      value: 0.2
    }
  }
}
layer {
  name: "inception_4c/relu_3x3"
  type: "ReLU"
  bottom: "inception_4c/3x3"
  top: "inception_4c/3x3"
}
layer {
  name: "inception_4c/5x5_reduce"
  type: "Convolution"
  bottom: "inception_4b/output"
  top: "inception_4c/5x5_reduce"
  param {
    lr_mult: 1
    decay_mult: 1
  }
  param {
    lr_mult: 2
    decay_mult: 0
  }
  convolution_param {
    num_output: 24
    kernel_size: 1
    weight_filler {
      type: "xavier"
      std: 0.2
    }
    bias_filler {
      type: "constant"
      value: 0.2
    }
  }
}
layer {
  name: "inception_4c/relu_5x5_reduce"
  type: "ReLU"
  bottom: "inception_4c/5x5_reduce"
  top: "inception_4c/5x5_reduce"
}
layer {
  name: "inception_4c/5x5"
  type: "Convolution"
  bottom: "inception_4c/5x5_reduce"
  top: "inception_4c/5x5"
  param {
    lr_mult: 1
    decay_mult: 1
  }
  param {
    lr_mult: 2
    decay_mult: 0
  }
  convolution_param {
    num_output: 64
    pad: 2
    kernel_size: 5
    weight_filler {
      type: "xavier"
      std: 0.03
    }
    bias_filler {
      type: "constant"
      value: 0.2
    }
  }
}
layer {
  name: "inception_4c/relu_5x5"
  type: "ReLU"
  bottom: "inception_4c/5x5"
  top: "inception_4c/5x5"
}
layer {
  name: "inception_4c/pool"
  type: "Pooling"
  bottom: "inception_4b/output"
  top: "inception_4c/pool"
  pooling_param {
    pool: MAX
    kernel_size: 3
    stride: 1
    pad: 1
  }
}
layer {
  name: "inception_4c/pool_proj"
  type: "Convolution"
  bottom: "inception_4c/pool"
  top: "inception_4c/pool_proj"
  param {
    lr_mult: 1
    decay_mult: 1
  }
  param {
    lr_mult: 2
    decay_mult: 0
  }
  convolution_param {
    num_output: 64
    kernel_size: 1
    weight_filler {
      type: "xavier"
      std: 0.1
    }
    bias_filler {
      type: "constant"
      value: 0.2
    }
  }
}
layer {
  name: "inception_4c/relu_pool_proj"
  type: "ReLU"
  bottom: "inception_4c/pool_proj"
  top: "inception_4c/pool_proj"
}
layer {
  name: "inception_4c/output"
  type: "Concat"
  bottom: "inception_4c/1x1"
  bottom: "inception_4c/3x3"
  bottom: "inception_4c/5x5"
  bottom: "inception_4c/pool_proj"
  top: "inception_4c/output"
}
layer {
  name: "inception_4d/1x1"
  type: "Convolution"
  bottom: "inception_4c/output"
  top: "inception_4d/1x1"
  param {
    lr_mult: 1
    decay_mult: 1
  }
  param {
    lr_mult: 2
    decay_mult: 0
  }
  convolution_param {
    num_output: 112
    kernel_size: 1
    weight_filler {
      type: "xavier"
      std: 0.03
    }
    bias_filler {
      type: "constant"
      value: 0.2
    }
  }
}
layer {
  name: "inception_4d/relu_1x1"
  type: "ReLU"
  bottom: "inception_4d/1x1"
  top: "inception_4d/1x1"
}
layer {
  name: "inception_4d/3x3_reduce"
  type: "Convolution"
  bottom: "inception_4c/output"
  top: "inception_4d/3x3_reduce"
  param {
    lr_mult: 1
    decay_mult: 1
  }
  param {
    lr_mult: 2
    decay_mult: 0
  }
  convolution_param {
    num_output: 144
    kernel_size: 1
    weight_filler {
      type: "xavier"
      std: 0.09
    }
    bias_filler {
      type: "constant"
      value: 0.2
    }
  }
}
layer {
  name: "inception_4d/relu_3x3_reduce"
  type: "ReLU"
  bottom: "inception_4d/3x3_reduce"
  top: "inception_4d/3x3_reduce"
}
layer {
  name: "inception_4d/3x3"
  type: "Convolution"
  bottom: "inception_4d/3x3_reduce"
  top: "inception_4d/3x3"
  param {
    lr_mult: 1
    decay_mult: 1
  }
  param {
    lr_mult: 2
    decay_mult: 0
  }
  convolution_param {
    num_output: 288
    pad: 1
    kernel_size: 3
    weight_filler {
      type: "xavier"
      std: 0.03
    }
    bias_filler {
      type: "constant"
      value: 0.2
    }
  }
}
layer {
  name: "inception_4d/relu_3x3"
  type: "ReLU"
  bottom: "inception_4d/3x3"
  top: "inception_4d/3x3"
}
layer {
  name: "inception_4d/5x5_reduce"
  type: "Convolution"
  bottom: "inception_4c/output"
  top: "inception_4d/5x5_reduce"
  param {
    lr_mult: 1
    decay_mult: 1
  }
  param {
    lr_mult: 2
    decay_mult: 0
  }
  convolution_param {
    num_output: 32
    kernel_size: 1
    weight_filler {
      type: "xavier"
      std: 0.2
    }
    bias_filler {
      type: "constant"
      value: 0.2
    }
  }
}
layer {
  name: "inception_4d/relu_5x5_reduce"
  type: "ReLU"
  bottom: "inception_4d/5x5_reduce"
  top: "inception_4d/5x5_reduce"
}
layer {
  name: "inception_4d/5x5"
  type: "Convolution"
  bottom: "inception_4d/5x5_reduce"
  top: "inception_4d/5x5"
  param {
    lr_mult: 1
    decay_mult: 1
  }
  param {
    lr_mult: 2
    decay_mult: 0
  }
  convolution_param {
    num_output: 64
    pad: 2
    kernel_size: 5
    weight_filler {
      type: "xavier"
      std: 0.03
    }
    bias_filler {
      type: "constant"
      value: 0.2
    }
  }
}
layer {
  name: "inception_4d/relu_5x5"
  type: "ReLU"
  bottom: "inception_4d/5x5"
  top: "inception_4d/5x5"
}
layer {
  name: "inception_4d/pool"
  type: "Pooling"
  bottom: "inception_4c/output"
  top: "inception_4d/pool"
  pooling_param {
    pool: MAX
    kernel_size: 3
    stride: 1
    pad: 1
  }
}
layer {
  name: "inception_4d/pool_proj"
  type: "Convolution"
  bottom: "inception_4d/pool"
  top: "inception_4d/pool_proj"
  param {
    lr_mult: 1
    decay_mult: 1
  }
  param {
    lr_mult: 2
    decay_mult: 0
  }
  convolution_param {
    num_output: 64
    kernel_size: 1
    weight_filler {
      type: "xavier"
      std: 0.1
    }
    bias_filler {
      type: "constant"
      value: 0.2
    }
  }
}
layer {
  name: "inception_4d/relu_pool_proj"
  type: "ReLU"
  bottom: "inception_4d/pool_proj"
  top: "inception_4d/pool_proj"
}
layer {
  name: "inception_4d/output"
  type: "Concat"
  bottom: "inception_4d/1x1"
  bottom: "inception_4d/3x3"
  bottom: "inception_4d/5x5"
  bottom: "inception_4d/pool_proj"
  top: "inception_4d/output"
}
layer {
  name: "loss2/ave_pool"
  type: "Pooling"
  bottom: "inception_4d/output"
  top: "loss2/ave_pool"
  pooling_param {
    pool: AVE
    kernel_size: 5
    stride: 3
  }
}
layer {
  name: "loss2/conv"
  type: "Convolution"
  bottom: "loss2/ave_pool"
  top: "loss2/conv"
  param {
    lr_mult: 1
    decay_mult: 1
  }
  param {
    lr_mult: 2
    decay_mult: 0
  }
  convolution_param {
    num_output: 128
    kernel_size: 1
    weight_filler {
      type: "xavier"
      std: 0.08
    }
    bias_filler {
      type: "constant"
      value: 0.2
    }
  }
}
layer {
  name: "loss2/relu_conv"
  type: "ReLU"
  bottom: "loss2/conv"
  top: "loss2/conv"
}
layer {
  name: "loss2/fc"
  type: "InnerProduct"
  bottom: "loss2/conv"
  top: "loss2/fc"
  param {
    lr_mult: 1
    decay_mult: 1
  }
  param {
    lr_mult: 2
    decay_mult: 0
  }
  inner_product_param {
    num_output: 1024
    weight_filler {
      type: "xavier"
      std: 0.02
    }
    bias_filler {
      type: "constant"
      value: 0.2
    }
  }
}
layer {
  name: "loss2/relu_fc"
  type: "ReLU"
  bottom: "loss2/fc"
  top: "loss2/fc"
}
layer {
  name: "loss2/drop_fc"
  type: "Dropout"
  bottom: "loss2/fc"
  top: "loss2/fc"
  dropout_param {
    dropout_ratio: 0.7
  }
}
layer {
  name: "loss2/classifier_plantvillage"
  type: "InnerProduct"
  bottom: "loss2/fc"
  top: "loss2/classifier_plantvillage"
  param {
    lr_mult: 1
    decay_mult: 1
  }
  param {
    lr_mult: 2
    decay_mult: 0
  }
  inner_product_param {
    num_output: 38
    weight_filler {
      type: "xavier"
      std: 0.0009765625
    }
    bias_filler {
      type: "constant"
      value: 0
    }
  }
}
layer {
  name: "inception_4e/1x1"
  type: "Convolution"
  bottom: "inception_4d/output"
  top: "inception_4e/1x1"
  param {
    lr_mult: 1
    decay_mult: 1
  }
  param {
    lr_mult: 2
    decay_mult: 0
  }
  convolution_param {
    num_output: 256
    kernel_size: 1
    weight_filler {
      type: "xavier"
      std: 0.03
    }
    bias_filler {
      type: "constant"
      value: 0.2
    }
  }
}
layer {
  name: "inception_4e/relu_1x1"
  type: "ReLU"
  bottom: "inception_4e/1x1"
  top: "inception_4e/1x1"
}
layer {
  name: "inception_4e/3x3_reduce"
  type: "Convolution"
  bottom: "inception_4d/output"
  top: "inception_4e/3x3_reduce"
  param {
    lr_mult: 1
    decay_mult: 1
  }
  param {
    lr_mult: 2
    decay_mult: 0
  }
  convolution_param {
    num_output: 160
    kernel_size: 1
    weight_filler {
      type: "xavier"
      std: 0.09
    }
    bias_filler {
      type: "constant"
      value: 0.2
    }
  }
}
layer {
  name: "inception_4e/relu_3x3_reduce"
  type: "ReLU"
  bottom: "inception_4e/3x3_reduce"
  top: "inception_4e/3x3_reduce"
}
layer {
  name: "inception_4e/3x3"
  type: "Convolution"
  bottom: "inception_4e/3x3_reduce"
  top: "inception_4e/3x3"
  param {
    lr_mult: 1
    decay_mult: 1
  }
  param {
    lr_mult: 2
    decay_mult: 0
  }
  convolution_param {
    num_output: 320
    pad: 1
    kernel_size: 3
    weight_filler {
      type: "xavier"
      std: 0.03
    }
    bias_filler {
      type: "constant"
      value: 0.2
    }
  }
}
layer {
  name: "inception_4e/relu_3x3"
  type: "ReLU"
  bottom: "inception_4e/3x3"
  top: "inception_4e/3x3"
}
layer {
  name: "inception_4e/5x5_reduce"
  type: "Convolution"
  bottom: "inception_4d/output"
  top: "inception_4e/5x5_reduce"
  param {
    lr_mult: 1
    decay_mult: 1
  }
  param {
    lr_mult: 2
    decay_mult: 0
  }
  convolution_param {
    num_output: 32
    kernel_size: 1
    weight_filler {
      type: "xavier"
      std: 0.2
    }
    bias_filler {
      type: "constant"
      value: 0.2
    }
  }
}
layer {
  name: "inception_4e/relu_5x5_reduce"
  type: "ReLU"
  bottom: "inception_4e/5x5_reduce"
  top: "inception_4e/5x5_reduce"
}
layer {
  name: "inception_4e/5x5"
  type: "Convolution"
  bottom: "inception_4e/5x5_reduce"
  top: "inception_4e/5x5"
  p
I0403 19:47:36.135679  9677 layer_factory.hpp:77] Creating layer data
I0403 19:47:36.136410  9677 net.cpp:91] Creating Layer data
I0403 19:47:36.136445  9677 net.cpp:399] data -> data
I0403 19:47:36.136520  9677 net.cpp:399] data -> label
I0403 19:47:36.136569  9677 data_transformer.cpp:25] Loading mean file from: /home/mohanty/data/final_dataset/lmdb/color-60-40/mean.binaryproto
I0403 19:47:36.137862  9680 db_lmdb.cpp:38] Opened lmdb /home/mohanty/data/final_dataset/lmdb/color-60-40/test_db
I0403 19:47:36.152555  9677 data_layer.cpp:41] output data size: 24,3,224,224
I0403 19:47:36.184187  9677 net.cpp:141] Setting up data
I0403 19:47:36.184278  9677 net.cpp:148] Top shape: 24 3 224 224 (3612672)
I0403 19:47:36.184305  9677 net.cpp:148] Top shape: 24 (24)
I0403 19:47:36.184324  9677 net.cpp:156] Memory required for data: 14450784
I0403 19:47:36.184357  9677 layer_factory.hpp:77] Creating layer label_data_1_split
I0403 19:47:36.184391  9677 net.cpp:91] Creating Layer label_data_1_split
I0403 19:47:36.184414  9677 net.cpp:425] label_data_1_split <- label
I0403 19:47:36.184454  9677 net.cpp:399] label_data_1_split -> label_data_1_split_0
I0403 19:47:36.184495  9677 net.cpp:399] label_data_1_split -> label_data_1_split_1
I0403 19:47:36.184521  9677 net.cpp:399] label_data_1_split -> label_data_1_split_2
I0403 19:47:36.184547  9677 net.cpp:399] label_data_1_split -> label_data_1_split_3
I0403 19:47:36.184571  9677 net.cpp:399] label_data_1_split -> label_data_1_split_4
I0403 19:47:36.184597  9677 net.cpp:399] label_data_1_split -> label_data_1_split_5
I0403 19:47:36.184620  9677 net.cpp:399] label_data_1_split -> label_data_1_split_6
I0403 19:47:36.184643  9677 net.cpp:399] label_data_1_split -> label_data_1_split_7
I0403 19:47:36.184666  9677 net.cpp:399] label_data_1_split -> label_data_1_split_8
I0403 19:47:36.184690  9677 net.cpp:399] label_data_1_split -> label_data_1_split_9
I0403 19:47:36.184830  9677 net.cpp:141] Setting up label_data_1_split
I0403 19:47:36.184859  9677 net.cpp:148] Top shape: 24 (24)
I0403 19:47:36.184880  9677 net.cpp:148] Top shape: 24 (24)
I0403 19:47:36.184900  9677 net.cpp:148] Top shape: 24 (24)
I0403 19:47:36.184919  9677 net.cpp:148] Top shape: 24 (24)
I0403 19:47:36.184939  9677 net.cpp:148] Top shape: 24 (24)
I0403 19:47:36.184957  9677 net.cpp:148] Top shape: 24 (24)
I0403 19:47:36.184975  9677 net.cpp:148] Top shape: 24 (24)
I0403 19:47:36.184995  9677 net.cpp:148] Top shape: 24 (24)
I0403 19:47:36.185014  9677 net.cpp:148] Top shape: 24 (24)
I0403 19:47:36.185034  9677 net.cpp:148] Top shape: 24 (24)
I0403 19:47:36.185083  9677 net.cpp:156] Memory required for data: 14451744
I0403 19:47:36.185103  9677 layer_factory.hpp:77] Creating layer conv1/7x7_s2
I0403 19:47:36.185145  9677 net.cpp:91] Creating Layer conv1/7x7_s2
I0403 19:47:36.185168  9677 net.cpp:425] conv1/7x7_s2 <- data
I0403 19:47:36.185191  9677 net.cpp:399] conv1/7x7_s2 -> conv1/7x7_s2
I0403 19:47:36.353960  9677 net.cpp:141] Setting up conv1/7x7_s2
I0403 19:47:36.354048  9677 net.cpp:148] Top shape: 24 64 112 112 (19267584)
I0403 19:47:36.354069  9677 net.cpp:156] Memory required for data: 91522080
I0403 19:47:36.354110  9677 layer_factory.hpp:77] Creating layer conv1/relu_7x7
I0403 19:47:36.354146  9677 net.cpp:91] Creating Layer conv1/relu_7x7
I0403 19:47:36.354167  9677 net.cpp:425] conv1/relu_7x7 <- conv1/7x7_s2
I0403 19:47:36.354192  9677 net.cpp:386] conv1/relu_7x7 -> conv1/7x7_s2 (in-place)
I0403 19:47:36.354543  9677 net.cpp:141] Setting up conv1/relu_7x7
I0403 19:47:36.354578  9677 net.cpp:148] Top shape: 24 64 112 112 (19267584)
I0403 19:47:36.354598  9677 net.cpp:156] Memory required for data: 168592416
I0403 19:47:36.354616  9677 layer_factory.hpp:77] Creating layer pool1/3x3_s2
I0403 19:47:36.354650  9677 net.cpp:91] Creating Layer pool1/3x3_s2
I0403 19:47:36.354671  9677 net.cpp:425] pool1/3x3_s2 <- conv1/7x7_s2
I0403 19:47:36.354692  9677 net.cpp:399] pool1/3x3_s2 -> pool1/3x3_s2
I0403 19:47:36.354785  9677 net.cpp:141] Setting up pool1/3x3_s2
I0403 19:47:36.354815  9677 net.cpp:148] Top shape: 24 64 56 56 (4816896)
I0403 19:47:36.354832  9677 net.cpp:156] Memory required for data: 187860000
I0403 19:47:36.354851  9677 layer_factory.hpp:77] Creating layer pool1/norm1
I0403 19:47:36.354882  9677 net.cpp:91] Creating Layer pool1/norm1
I0403 19:47:36.354904  9677 net.cpp:425] pool1/norm1 <- pool1/3x3_s2
I0403 19:47:36.354925  9677 net.cpp:399] pool1/norm1 -> pool1/norm1
I0403 19:47:36.355268  9677 net.cpp:141] Setting up pool1/norm1
I0403 19:47:36.355301  9677 net.cpp:148] Top shape: 24 64 56 56 (4816896)
I0403 19:47:36.355320  9677 net.cpp:156] Memory required for data: 207127584
I0403 19:47:36.355339  9677 layer_factory.hpp:77] Creating layer conv2/3x3_reduce
I0403 19:47:36.355368  9677 net.cpp:91] Creating Layer conv2/3x3_reduce
I0403 19:47:36.355387  9677 net.cpp:425] conv2/3x3_reduce <- pool1/norm1
I0403 19:47:36.355409  9677 net.cpp:399] conv2/3x3_reduce -> conv2/3x3_reduce
I0403 19:47:36.357051  9677 net.cpp:141] Setting up conv2/3x3_reduce
I0403 19:47:36.357087  9677 net.cpp:148] Top shape: 24 64 56 56 (4816896)
I0403 19:47:36.357107  9677 net.cpp:156] Memory required for data: 226395168
I0403 19:47:36.357132  9677 layer_factory.hpp:77] Creating layer conv2/relu_3x3_reduce
I0403 19:47:36.357157  9677 net.cpp:91] Creating Layer conv2/relu_3x3_reduce
I0403 19:47:36.357178  9677 net.cpp:425] conv2/relu_3x3_reduce <- conv2/3x3_reduce
I0403 19:47:36.357200  9677 net.cpp:386] conv2/relu_3x3_reduce -> conv2/3x3_reduce (in-place)
I0403 19:47:36.357525  9677 net.cpp:141] Setting up conv2/relu_3x3_reduce
I0403 19:47:36.357558  9677 net.cpp:148] Top shape: 24 64 56 56 (4816896)
I0403 19:47:36.357576  9677 net.cpp:156] Memory required for data: 245662752
I0403 19:47:36.357594  9677 layer_factory.hpp:77] Creating layer conv2/3x3
I0403 19:47:36.357625  9677 net.cpp:91] Creating Layer conv2/3x3
I0403 19:47:36.357646  9677 net.cpp:425] conv2/3x3 <- conv2/3x3_reduce
I0403 19:47:36.357671  9677 net.cpp:399] conv2/3x3 -> conv2/3x3
I0403 19:47:36.360564  9677 net.cpp:141] Setting up conv2/3x3
I0403 19:47:36.360604  9677 net.cpp:148] Top shape: 24 192 56 56 (14450688)
I0403 19:47:36.360623  9677 net.cpp:156] Memory required for data: 303465504
I0403 19:47:36.360649  9677 layer_factory.hpp:77] Creating layer conv2/relu_3x3
I0403 19:47:36.360676  9677 net.cpp:91] Creating Layer conv2/relu_3x3
I0403 19:47:36.360697  9677 net.cpp:425] conv2/relu_3x3 <- conv2/3x3
I0403 19:47:36.360719  9677 net.cpp:386] conv2/relu_3x3 -> conv2/3x3 (in-place)
I0403 19:47:36.360936  9677 net.cpp:141] Setting up conv2/relu_3x3
I0403 19:47:36.360966  9677 net.cpp:148] Top shape: 24 192 56 56 (14450688)
I0403 19:47:36.361019  9677 net.cpp:156] Memory required for data: 361268256
I0403 19:47:36.361038  9677 layer_factory.hpp:77] Creating layer conv2/norm2
I0403 19:47:36.361064  9677 net.cpp:91] Creating Layer conv2/norm2
I0403 19:47:36.361084  9677 net.cpp:425] conv2/norm2 <- conv2/3x3
I0403 19:47:36.361106  9677 net.cpp:399] conv2/norm2 -> conv2/norm2
I0403 19:47:36.361495  9677 net.cpp:141] Setting up conv2/norm2
I0403 19:47:36.361527  9677 net.cpp:148] Top shape: 24 192 56 56 (14450688)
I0403 19:47:36.361546  9677 net.cpp:156] Memory required for data: 419071008
I0403 19:47:36.361564  9677 layer_factory.hpp:77] Creating layer pool2/3x3_s2
I0403 19:47:36.361588  9677 net.cpp:91] Creating Layer pool2/3x3_s2
I0403 19:47:36.361609  9677 net.cpp:425] pool2/3x3_s2 <- conv2/norm2
I0403 19:47:36.361631  9677 net.cpp:399] pool2/3x3_s2 -> pool2/3x3_s2
I0403 19:47:36.361697  9677 net.cpp:141] Setting up pool2/3x3_s2
I0403 19:47:36.361726  9677 net.cpp:148] Top shape: 24 192 28 28 (3612672)
I0403 19:47:36.361743  9677 net.cpp:156] Memory required for data: 433521696
I0403 19:47:36.361762  9677 layer_factory.hpp:77] Creating layer pool2/3x3_s2_pool2/3x3_s2_0_split
I0403 19:47:36.361783  9677 net.cpp:91] Creating Layer pool2/3x3_s2_pool2/3x3_s2_0_split
I0403 19:47:36.361802  9677 net.cpp:425] pool2/3x3_s2_pool2/3x3_s2_0_split <- pool2/3x3_s2
I0403 19:47:36.361826  9677 net.cpp:399] pool2/3x3_s2_pool2/3x3_s2_0_split -> pool2/3x3_s2_pool2/3x3_s2_0_split_0
I0403 19:47:36.361851  9677 net.cpp:399] pool2/3x3_s2_pool2/3x3_s2_0_split -> pool2/3x3_s2_pool2/3x3_s2_0_split_1
I0403 19:47:36.361876  9677 net.cpp:399] pool2/3x3_s2_pool2/3x3_s2_0_split -> pool2/3x3_s2_pool2/3x3_s2_0_split_2
I0403 19:47:36.361898  9677 net.cpp:399] pool2/3x3_s2_pool2/3x3_s2_0_split -> pool2/3x3_s2_pool2/3x3_s2_0_split_3
I0403 19:47:36.361982  9677 net.cpp:141] Setting up pool2/3x3_s2_pool2/3x3_s2_0_split
I0403 19:47:36.362013  9677 net.cpp:148] Top shape: 24 192 28 28 (3612672)
I0403 19:47:36.362035  9677 net.cpp:148] Top shape: 24 192 28 28 (3612672)
I0403 19:47:36.362054  9677 net.cpp:148] Top shape: 24 192 28 28 (3612672)
I0403 19:47:36.362072  9677 net.cpp:148] Top shape: 24 192 28 28 (3612672)
I0403 19:47:36.362089  9677 net.cpp:156] Memory required for data: 491324448
I0403 19:47:36.362107  9677 layer_factory.hpp:77] Creating layer inception_3a/1x1
I0403 19:47:36.362134  9677 net.cpp:91] Creating Layer inception_3a/1x1
I0403 19:47:36.362155  9677 net.cpp:425] inception_3a/1x1 <- pool2/3x3_s2_pool2/3x3_s2_0_split_0
I0403 19:47:36.362179  9677 net.cpp:399] inception_3a/1x1 -> inception_3a/1x1
I0403 19:47:36.364027  9677 net.cpp:141] Setting up inception_3a/1x1
I0403 19:47:36.364064  9677 net.cpp:148] Top shape: 24 64 28 28 (1204224)
I0403 19:47:36.364084  9677 net.cpp:156] Memory required for data: 496141344
I0403 19:47:36.364107  9677 layer_factory.hpp:77] Creating layer inception_3a/relu_1x1
I0403 19:47:36.364132  9677 net.cpp:91] Creating Layer inception_3a/relu_1x1
I0403 19:47:36.364151  9677 net.cpp:425] inception_3a/relu_1x1 <- inception_3a/1x1
I0403 19:47:36.364173  9677 net.cpp:386] inception_3a/relu_1x1 -> inception_3a/1x1 (in-place)
I0403 19:47:36.364387  9677 net.cpp:141] Setting up inception_3a/relu_1x1
I0403 19:47:36.364420  9677 net.cpp:148] Top shape: 24 64 28 28 (1204224)
I0403 19:47:36.364439  9677 net.cpp:156] Memory required for data: 500958240
I0403 19:47:36.364457  9677 layer_factory.hpp:77] Creating layer inception_3a/3x3_reduce
I0403 19:47:36.364491  9677 net.cpp:91] Creating Layer inception_3a/3x3_reduce
I0403 19:47:36.364513  9677 net.cpp:425] inception_3a/3x3_reduce <- pool2/3x3_s2_pool2/3x3_s2_0_split_1
I0403 19:47:36.364537  9677 net.cpp:399] inception_3a/3x3_reduce -> inception_3a/3x3_reduce
I0403 19:47:36.366585  9677 net.cpp:141] Setting up inception_3a/3x3_reduce
I0403 19:47:36.366621  9677 net.cpp:148] Top shape: 24 96 28 28 (1806336)
I0403 19:47:36.366641  9677 net.cpp:156] Memory required for data: 508183584
I0403 19:47:36.366667  9677 layer_factory.hpp:77] Creating layer inception_3a/relu_3x3_reduce
I0403 19:47:36.366711  9677 net.cpp:91] Creating Layer inception_3a/relu_3x3_reduce
I0403 19:47:36.366734  9677 net.cpp:425] inception_3a/relu_3x3_reduce <- inception_3a/3x3_reduce
I0403 19:47:36.366757  9677 net.cpp:386] inception_3a/relu_3x3_reduce -> inception_3a/3x3_reduce (in-place)
I0403 19:47:36.366981  9677 net.cpp:141] Setting up inception_3a/relu_3x3_reduce
I0403 19:47:36.367012  9677 net.cpp:148] Top shape: 24 96 28 28 (1806336)
I0403 19:47:36.367029  9677 net.cpp:156] Memory required for data: 515408928
I0403 19:47:36.367048  9677 layer_factory.hpp:77] Creating layer inception_3a/3x3
I0403 19:47:36.367075  9677 net.cpp:91] Creating Layer inception_3a/3x3
I0403 19:47:36.367096  9677 net.cpp:425] inception_3a/3x3 <- inception_3a/3x3_reduce
I0403 19:47:36.367125  9677 net.cpp:399] inception_3a/3x3 -> inception_3a/3x3
I0403 19:47:36.369127  9677 net.cpp:141] Setting up inception_3a/3x3
I0403 19:47:36.369164  9677 net.cpp:148] Top shape: 24 128 28 28 (2408448)
I0403 19:47:36.369184  9677 net.cpp:156] Memory required for data: 525042720
I0403 19:47:36.369207  9677 layer_factory.hpp:77] Creating layer inception_3a/relu_3x3
I0403 19:47:36.369230  9677 net.cpp:91] Creating Layer inception_3a/relu_3x3
I0403 19:47:36.369249  9677 net.cpp:425] inception_3a/relu_3x3 <- inception_3a/3x3
I0403 19:47:36.369271  9677 net.cpp:386] inception_3a/relu_3x3 -> inception_3a/3x3 (in-place)
I0403 19:47:36.369611  9677 net.cpp:141] Setting up inception_3a/relu_3x3
I0403 19:47:36.369647  9677 net.cpp:148] Top shape: 24 128 28 28 (2408448)
I0403 19:47:36.369666  9677 net.cpp:156] Memory required for data: 534676512
I0403 19:47:36.369684  9677 layer_factory.hpp:77] Creating layer inception_3a/5x5_reduce
I0403 19:47:36.369711  9677 net.cpp:91] Creating Layer inception_3a/5x5_reduce
I0403 19:47:36.369732  9677 net.cpp:425] inception_3a/5x5_reduce <- pool2/3x3_s2_pool2/3x3_s2_0_split_2
I0403 19:47:36.369756  9677 net.cpp:399] inception_3a/5x5_reduce -> inception_3a/5x5_reduce
I0403 19:47:36.370929  9677 net.cpp:141] Setting up inception_3a/5x5_reduce
I0403 19:47:36.370966  9677 net.cpp:148] Top shape: 24 16 28 28 (301056)
I0403 19:47:36.370986  9677 net.cpp:156] Memory required for data: 535880736
I0403 19:47:36.371008  9677 layer_factory.hpp:77] Creating layer inception_3a/relu_5x5_reduce
I0403 19:47:36.371031  9677 net.cpp:91] Creating Layer inception_3a/relu_5x5_reduce
I0403 19:47:36.371050  9677 net.cpp:425] inception_3a/relu_5x5_reduce <- inception_3a/5x5_reduce
I0403 19:47:36.371074  9677 net.cpp:386] inception_3a/relu_5x5_reduce -> inception_3a/5x5_reduce (in-place)
I0403 19:47:36.371422  9677 net.cpp:141] Setting up inception_3a/relu_5x5_reduce
I0403 19:47:36.371454  9677 net.cpp:148] Top shape: 24 16 28 28 (301056)
I0403 19:47:36.371479  9677 net.cpp:156] Memory required for data: 537084960
I0403 19:47:36.371498  9677 layer_factory.hpp:77] Creating layer inception_3a/5x5
I0403 19:47:36.371526  9677 net.cpp:91] Creating Layer inception_3a/5x5
I0403 19:47:36.371548  9677 net.cpp:425] inception_3a/5x5 <- inception_3a/5x5_reduce
I0403 19:47:36.371573  9677 net.cpp:399] inception_3a/5x5 -> inception_3a/5x5
I0403 19:47:36.372814  9677 net.cpp:141] Setting up inception_3a/5x5
I0403 19:47:36.372848  9677 net.cpp:148] Top shape: 24 32 28 28 (602112)
I0403 19:47:36.372871  9677 net.cpp:156] Memory required for data: 539493408
I0403 19:47:36.372895  9677 layer_factory.hpp:77] Creating layer inception_3a/relu_5x5
I0403 19:47:36.372916  9677 net.cpp:91] Creating Layer inception_3a/relu_5x5
I0403 19:47:36.372936  9677 net.cpp:425] inception_3a/relu_5x5 <- inception_3a/5x5
I0403 19:47:36.372957  9677 net.cpp:386] inception_3a/relu_5x5 -> inception_3a/5x5 (in-place)
I0403 19:47:36.373175  9677 net.cpp:141] Setting up inception_3a/relu_5x5
I0403 19:47:36.373208  9677 net.cpp:148] Top shape: 24 32 28 28 (602112)
I0403 19:47:36.373226  9677 net.cpp:156] Memory required for data: 541901856
I0403 19:47:36.373245  9677 layer_factory.hpp:77] Creating layer inception_3a/pool
I0403 19:47:36.373267  9677 net.cpp:91] Creating Layer inception_3a/pool
I0403 19:47:36.373286  9677 net.cpp:425] inception_3a/pool <- pool2/3x3_s2_pool2/3x3_s2_0_split_3
I0403 19:47:36.373327  9677 net.cpp:399] inception_3a/pool -> inception_3a/pool
I0403 19:47:36.373397  9677 net.cpp:141] Setting up inception_3a/pool
I0403 19:47:36.373430  9677 net.cpp:148] Top shape: 24 192 28 28 (3612672)
I0403 19:47:36.373448  9677 net.cpp:156] Memory required for data: 556352544
I0403 19:47:36.373472  9677 layer_factory.hpp:77] Creating layer inception_3a/pool_proj
I0403 19:47:36.373498  9677 net.cpp:91] Creating Layer inception_3a/pool_proj
I0403 19:47:36.373518  9677 net.cpp:425] inception_3a/pool_proj <- inception_3a/pool
I0403 19:47:36.373544  9677 net.cpp:399] inception_3a/pool_proj -> inception_3a/pool_proj
I0403 19:47:36.374730  9677 net.cpp:141] Setting up inception_3a/pool_proj
I0403 19:47:36.374764  9677 net.cpp:148] Top shape: 24 32 28 28 (602112)
I0403 19:47:36.374783  9677 net.cpp:156] Memory required for data: 558760992
I0403 19:47:36.374812  9677 layer_factory.hpp:77] Creating layer inception_3a/relu_pool_proj
I0403 19:47:36.374836  9677 net.cpp:91] Creating Layer inception_3a/relu_pool_proj
I0403 19:47:36.374856  9677 net.cpp:425] inception_3a/relu_pool_proj <- inception_3a/pool_proj
I0403 19:47:36.374879  9677 net.cpp:386] inception_3a/relu_pool_proj -> inception_3a/pool_proj (in-place)
I0403 19:47:36.375216  9677 net.cpp:141] Setting up inception_3a/relu_pool_proj
I0403 19:47:36.375250  9677 net.cpp:148] Top shape: 24 32 28 28 (602112)
I0403 19:47:36.375269  9677 net.cpp:156] Memory required for data: 561169440
I0403 19:47:36.375288  9677 layer_factory.hpp:77] Creating layer inception_3a/output
I0403 19:47:36.375310  9677 net.cpp:91] Creating Layer inception_3a/output
I0403 19:47:36.375330  9677 net.cpp:425] inception_3a/output <- inception_3a/1x1
I0403 19:47:36.375350  9677 net.cpp:425] inception_3a/output <- inception_3a/3x3
I0403 19:47:36.375370  9677 net.cpp:425] inception_3a/output <- inception_3a/5x5
I0403 19:47:36.375390  9677 net.cpp:425] inception_3a/output <- inception_3a/pool_proj
I0403 19:47:36.375409  9677 net.cpp:399] inception_3a/output -> inception_3a/output
I0403 19:47:36.375473  9677 net.cpp:141] Setting up inception_3a/output
I0403 19:47:36.375502  9677 net.cpp:148] Top shape: 24 256 28 28 (4816896)
I0403 19:47:36.375519  9677 net.cpp:156] Memory required for data: 580437024
I0403 19:47:36.375537  9677 layer_factory.hpp:77] Creating layer inception_3a/output_inception_3a/output_0_split
I0403 19:47:36.375561  9677 net.cpp:91] Creating Layer inception_3a/output_inception_3a/output_0_split
I0403 19:47:36.375581  9677 net.cpp:425] inception_3a/output_inception_3a/output_0_split <- inception_3a/output
I0403 19:47:36.375602  9677 net.cpp:399] inception_3a/output_inception_3a/output_0_split -> inception_3a/output_inception_3a/output_0_split_0
I0403 19:47:36.375625  9677 net.cpp:399] inception_3a/output_inception_3a/output_0_split -> inception_3a/output_inception_3a/output_0_split_1
I0403 19:47:36.375654  9677 net.cpp:399] inception_3a/output_inception_3a/output_0_split -> inception_3a/output_inception_3a/output_0_split_2
I0403 19:47:36.375680  9677 net.cpp:399] inception_3a/output_inception_3a/output_0_split -> inception_3a/output_inception_3a/output_0_split_3
I0403 19:47:36.375772  9677 net.cpp:141] Setting up inception_3a/output_inception_3a/output_0_split
I0403 19:47:36.375802  9677 net.cpp:148] Top shape: 24 256 28 28 (4816896)
I0403 19:47:36.375821  9677 net.cpp:148] Top shape: 24 256 28 28 (4816896)
I0403 19:47:36.375840  9677 net.cpp:148] Top shape: 24 256 28 28 (4816896)
I0403 19:47:36.375859  9677 net.cpp:148] Top shape: 24 256 28 28 (4816896)
I0403 19:47:36.375875  9677 net.cpp:156] Memory required for data: 657507360
I0403 19:47:36.375893  9677 layer_factory.hpp:77] Creating layer inception_3b/1x1
I0403 19:47:36.375921  9677 net.cpp:91] Creating Layer inception_3b/1x1
I0403 19:47:36.375943  9677 net.cpp:425] inception_3b/1x1 <- inception_3a/output_inception_3a/output_0_split_0
I0403 19:47:36.375967  9677 net.cpp:399] inception_3b/1x1 -> inception_3b/1x1
I0403 19:47:36.377341  9677 net.cpp:141] Setting up inception_3b/1x1
I0403 19:47:36.377390  9677 net.cpp:148] Top shape: 24 128 28 28 (2408448)
I0403 19:47:36.377409  9677 net.cpp:156] Memory required for data: 667141152
I0403 19:47:36.377434  9677 layer_factory.hpp:77] Creating layer inception_3b/relu_1x1
I0403 19:47:36.377465  9677 net.cpp:91] Creating Layer inception_3b/relu_1x1
I0403 19:47:36.377490  9677 net.cpp:425] inception_3b/relu_1x1 <- inception_3b/1x1
I0403 19:47:36.377511  9677 net.cpp:386] inception_3b/relu_1x1 -> inception_3b/1x1 (in-place)
I0403 19:47:36.377725  9677 net.cpp:141] Setting up inception_3b/relu_1x1
I0403 19:47:36.377760  9677 net.cpp:148] Top shape: 24 128 28 28 (2408448)
I0403 19:47:36.377781  9677 net.cpp:156] Memory required for data: 676774944
I0403 19:47:36.377810  9677 layer_factory.hpp:77] Creating layer inception_3b/3x3_reduce
I0403 19:47:36.377861  9677 net.cpp:91] Creating Layer inception_3b/3x3_reduce
I0403 19:47:36.377884  9677 net.cpp:425] inception_3b/3x3_reduce <- inception_3a/output_inception_3a/output_0_split_1
I0403 19:47:36.377908  9677 net.cpp:399] inception_3b/3x3_reduce -> inception_3b/3x3_reduce
I0403 19:47:36.379297  9677 net.cpp:141] Setting up inception_3b/3x3_reduce
I0403 19:47:36.379333  9677 net.cpp:148] Top shape: 24 128 28 28 (2408448)
I0403 19:47:36.379350  9677 net.cpp:156] Memory required for data: 686408736
I0403 19:47:36.379372  9677 layer_factory.hpp:77] Creating layer inception_3b/relu_3x3_reduce
I0403 19:47:36.379397  9677 net.cpp:91] Creating Layer inception_3b/relu_3x3_reduce
I0403 19:47:36.379417  9677 net.cpp:425] inception_3b/relu_3x3_reduce <- inception_3b/3x3_reduce
I0403 19:47:36.379439  9677 net.cpp:386] inception_3b/relu_3x3_reduce -> inception_3b/3x3_reduce (in-place)
I0403 19:47:36.379658  9677 net.cpp:141] Setting up inception_3b/relu_3x3_reduce
I0403 19:47:36.379690  9677 net.cpp:148] Top shape: 24 128 28 28 (2408448)
I0403 19:47:36.379709  9677 net.cpp:156] Memory required for data: 696042528
I0403 19:47:36.379726  9677 layer_factory.hpp:77] Creating layer inception_3b/3x3
I0403 19:47:36.379757  9677 net.cpp:91] Creating Layer inception_3b/3x3
I0403 19:47:36.379778  9677 net.cpp:425] inception_3b/3x3 <- inception_3b/3x3_reduce
I0403 19:47:36.379804  9677 net.cpp:399] inception_3b/3x3 -> inception_3b/3x3
I0403 19:47:36.383354  9677 net.cpp:141] Setting up inception_3b/3x3
I0403 19:47:36.383394  9677 net.cpp:148] Top shape: 24 192 28 28 (3612672)
I0403 19:47:36.383415  9677 net.cpp:156] Memory required for data: 710493216
I0403 19:47:36.383438  9677 layer_factory.hpp:77] Creating layer inception_3b/relu_3x3
I0403 19:47:36.383466  9677 net.cpp:91] Creating Layer inception_3b/relu_3x3
I0403 19:47:36.383486  9677 net.cpp:425] inception_3b/relu_3x3 <- inception_3b/3x3
I0403 19:47:36.383508  9677 net.cpp:386] inception_3b/relu_3x3 -> inception_3b/3x3 (in-place)
I0403 19:47:36.383843  9677 net.cpp:141] Setting up inception_3b/relu_3x3
I0403 19:47:36.383878  9677 net.cpp:148] Top shape: 24 192 28 28 (3612672)
I0403 19:47:36.383898  9677 net.cpp:156] Memory required for data: 724943904
I0403 19:47:36.383918  9677 layer_factory.hpp:77] Creating layer inception_3b/5x5_reduce
I0403 19:47:36.383944  9677 net.cpp:91] Creating Layer inception_3b/5x5_reduce
I0403 19:47:36.383966  9677 net.cpp:425] inception_3b/5x5_reduce <- inception_3a/output_inception_3a/output_0_split_2
I0403 19:47:36.383990  9677 net.cpp:399] inception_3b/5x5_reduce -> inception_3b/5x5_reduce
I0403 19:47:36.385197  9677 net.cpp:141] Setting up inception_3b/5x5_reduce
I0403 19:47:36.385234  9677 net.cpp:148] Top shape: 24 32 28 28 (602112)
I0403 19:47:36.385254  9677 net.cpp:156] Memory required for data: 727352352
I0403 19:47:36.385277  9677 layer_factory.hpp:77] Creating layer inception_3b/relu_5x5_reduce
I0403 19:47:36.385299  9677 net.cpp:91] Creating Layer inception_3b/relu_5x5_reduce
I0403 19:47:36.385318  9677 net.cpp:425] inception_3b/relu_5x5_reduce <- inception_3b/5x5_reduce
I0403 19:47:36.385339  9677 net.cpp:386] inception_3b/relu_5x5_reduce -> inception_3b/5x5_reduce (in-place)
I0403 19:47:36.385562  9677 net.cpp:141] Setting up inception_3b/relu_5x5_reduce
I0403 19:47:36.385609  9677 net.cpp:148] Top shape: 24 32 28 28 (602112)
I0403 19:47:36.385629  9677 net.cpp:156] Memory required for data: 729760800
I0403 19:47:36.385656  9677 layer_factory.hpp:77] Creating layer inception_3b/5x5
I0403 19:47:36.385684  9677 net.cpp:91] Creating Layer inception_3b/5x5
I0403 19:47:36.385704  9677 net.cpp:425] inception_3b/5x5 <- inception_3b/5x5_reduce
I0403 19:47:36.385735  9677 net.cpp:399] inception_3b/5x5 -> inception_3b/5x5
I0403 19:47:36.388135  9677 net.cpp:141] Setting up inception_3b/5x5
I0403 19:47:36.388171  9677 net.cpp:148] Top shape: 24 96 28 28 (1806336)
I0403 19:47:36.388192  9677 net.cpp:156] Memory required for data: 736986144
I0403 19:47:36.388216  9677 layer_factory.hpp:77] Creating layer inception_3b/relu_5x5
I0403 19:47:36.388241  9677 net.cpp:91] Creating Layer inception_3b/relu_5x5
I0403 19:47:36.388262  9677 net.cpp:425] inception_3b/relu_5x5 <- inception_3b/5x5
I0403 19:47:36.388283  9677 net.cpp:386] inception_3b/relu_5x5 -> inception_3b/5x5 (in-place)
I0403 19:47:36.388525  9677 net.cpp:141] Setting up inception_3b/relu_5x5
I0403 19:47:36.388556  9677 net.cpp:148] Top shape: 24 96 28 28 (1806336)
I0403 19:47:36.388576  9677 net.cpp:156] Memory required for data: 744211488
I0403 19:47:36.388594  9677 layer_factory.hpp:77] Creating layer inception_3b/pool
I0403 19:47:36.388617  9677 net.cpp:91] Creating Layer inception_3b/pool
I0403 19:47:36.388635  9677 net.cpp:425] inception_3b/pool <- inception_3a/output_inception_3a/output_0_split_3
I0403 19:47:36.388658  9677 net.cpp:399] inception_3b/pool -> inception_3b/pool
I0403 19:47:36.388725  9677 net.cpp:141] Setting up inception_3b/pool
I0403 19:47:36.388754  9677 net.cpp:148] Top shape: 24 256 28 28 (4816896)
I0403 19:47:36.388772  9677 net.cpp:156] Memory required for data: 763479072
I0403 19:47:36.388789  9677 layer_factory.hpp:77] Creating layer inception_3b/pool_proj
I0403 19:47:36.388816  9677 net.cpp:91] Creating Layer inception_3b/pool_proj
I0403 19:47:36.388838  9677 net.cpp:425] inception_3b/pool_proj <- inception_3b/pool
I0403 19:47:36.388864  9677 net.cpp:399] inception_3b/pool_proj -> inception_3b/pool_proj
I0403 19:47:36.390161  9677 net.cpp:141] Setting up inception_3b/pool_proj
I0403 19:47:36.390197  9677 net.cpp:148] Top shape: 24 64 28 28 (1204224)
I0403 19:47:36.390216  9677 net.cpp:156] Memory required for data: 768295968
I0403 19:47:36.390239  9677 layer_factory.hpp:77] Creating layer inception_3b/relu_pool_proj
I0403 19:47:36.390259  9677 net.cpp:91] Creating Layer inception_3b/relu_pool_proj
I0403 19:47:36.390278  9677 net.cpp:425] inception_3b/relu_pool_proj <- inception_3b/pool_proj
I0403 19:47:36.390303  9677 net.cpp:386] inception_3b/relu_pool_proj -> inception_3b/pool_proj (in-place)
I0403 19:47:36.390781  9677 net.cpp:141] Setting up inception_3b/relu_pool_proj
I0403 19:47:36.390815  9677 net.cpp:148] Top shape: 24 64 28 28 (1204224)
I0403 19:47:36.390832  9677 net.cpp:156] Memory required for data: 773112864
I0403 19:47:36.390851  9677 layer_factory.hpp:77] Creating layer inception_3b/output
I0403 19:47:36.390872  9677 net.cpp:91] Creating Layer inception_3b/output
I0403 19:47:36.390892  9677 net.cpp:425] inception_3b/output <- inception_3b/1x1
I0403 19:47:36.390913  9677 net.cpp:425] inception_3b/output <- inception_3b/3x3
I0403 19:47:36.390933  9677 net.cpp:425] inception_3b/output <- inception_3b/5x5
I0403 19:47:36.390951  9677 net.cpp:425] inception_3b/output <- inception_3b/pool_proj
I0403 19:47:36.390974  9677 net.cpp:399] inception_3b/output -> inception_3b/output
I0403 19:47:36.391028  9677 net.cpp:141] Setting up inception_3b/output
I0403 19:47:36.391055  9677 net.cpp:148] Top shape: 24 480 28 28 (9031680)
I0403 19:47:36.391077  9677 net.cpp:156] Memory required for data: 809239584
I0403 19:47:36.391096  9677 layer_factory.hpp:77] Creating layer pool3/3x3_s2
I0403 19:47:36.391119  9677 net.cpp:91] Creating Layer pool3/3x3_s2
I0403 19:47:36.391137  9677 net.cpp:425] pool3/3x3_s2 <- inception_3b/output
I0403 19:47:36.391158  9677 net.cpp:399] pool3/3x3_s2 -> pool3/3x3_s2
I0403 19:47:36.391248  9677 net.cpp:141] Setting up pool3/3x3_s2
I0403 19:47:36.391278  9677 net.cpp:148] Top shape: 24 480 14 14 (2257920)
I0403 19:47:36.391296  9677 net.cpp:156] Memory required for data: 818271264
I0403 19:47:36.391314  9677 layer_factory.hpp:77] Creating layer pool3/3x3_s2_pool3/3x3_s2_0_split
I0403 19:47:36.391335  9677 net.cpp:91] Creating Layer pool3/3x3_s2_pool3/3x3_s2_0_split
I0403 19:47:36.391353  9677 net.cpp:425] pool3/3x3_s2_pool3/3x3_s2_0_split <- pool3/3x3_s2
I0403 19:47:36.391378  9677 net.cpp:399] pool3/3x3_s2_pool3/3x3_s2_0_split -> pool3/3x3_s2_pool3/3x3_s2_0_split_0
I0403 19:47:36.391403  9677 net.cpp:399] pool3/3x3_s2_pool3/3x3_s2_0_split -> pool3/3x3_s2_pool3/3x3_s2_0_split_1
I0403 19:47:36.391427  9677 net.cpp:399] pool3/3x3_s2_pool3/3x3_s2_0_split -> pool3/3x3_s2_pool3/3x3_s2_0_split_2
I0403 19:47:36.391450  9677 net.cpp:399] pool3/3x3_s2_pool3/3x3_s2_0_split -> pool3/3x3_s2_pool3/3x3_s2_0_split_3
I0403 19:47:36.391551  9677 net.cpp:141] Setting up pool3/3x3_s2_pool3/3x3_s2_0_split
I0403 19:47:36.391582  9677 net.cpp:148] Top shape: 24 480 14 14 (2257920)
I0403 19:47:36.391604  9677 net.cpp:148] Top shape: 24 480 14 14 (2257920)
I0403 19:47:36.391623  9677 net.cpp:148] Top shape: 24 480 14 14 (2257920)
I0403 19:47:36.391643  9677 net.cpp:148] Top shape: 24 480 14 14 (2257920)
I0403 19:47:36.391659  9677 net.cpp:156] Memory required for data: 854397984
I0403 19:47:36.391679  9677 layer_factory.hpp:77] Creating layer inception_4a/1x1
I0403 19:47:36.391705  9677 net.cpp:91] Creating Layer inception_4a/1x1
I0403 19:47:36.391726  9677 net.cpp:425] inception_4a/1x1 <- pool3/3x3_s2_pool3/3x3_s2_0_split_0
I0403 19:47:36.391752  9677 net.cpp:399] inception_4a/1x1 -> inception_4a/1x1
I0403 19:47:36.393682  9677 net.cpp:141] Setting up inception_4a/1x1
I0403 19:47:36.393718  9677 net.cpp:148] Top shape: 24 192 14 14 (903168)
I0403 19:47:36.393735  9677 net.cpp:156] Memory required for data: 858010656
I0403 19:47:36.393757  9677 layer_factory.hpp:77] Creating layer inception_4a/relu_1x1
I0403 19:47:36.393782  9677 net.cpp:91] Creating Layer inception_4a/relu_1x1
I0403 19:47:36.393803  9677 net.cpp:425] inception_4a/relu_1x1 <- inception_4a/1x1
I0403 19:47:36.393824  9677 net.cpp:386] inception_4a/relu_1x1 -> inception_4a/1x1 (in-place)
I0403 19:47:36.394038  9677 net.cpp:141] Setting up inception_4a/relu_1x1
I0403 19:47:36.394068  9677 net.cpp:148] Top shape: 24 192 14 14 (903168)
I0403 19:47:36.394086  9677 net.cpp:156] Memory required for data: 861623328
I0403 19:47:36.394104  9677 layer_factory.hpp:77] Creating layer inception_4a/3x3_reduce
I0403 19:47:36.394132  9677 net.cpp:91] Creating Layer inception_4a/3x3_reduce
I0403 19:47:36.394155  9677 net.cpp:425] inception_4a/3x3_reduce <- pool3/3x3_s2_pool3/3x3_s2_0_split_1
I0403 19:47:36.394181  9677 net.cpp:399] inception_4a/3x3_reduce -> inception_4a/3x3_reduce
I0403 19:47:36.395745  9677 net.cpp:141] Setting up inception_4a/3x3_reduce
I0403 19:47:36.395778  9677 net.cpp:148] Top shape: 24 96 14 14 (451584)
I0403 19:47:36.395798  9677 net.cpp:156] Memory required for data: 863429664
I0403 19:47:36.395829  9677 layer_factory.hpp:77] Creating layer inception_4a/relu_3x3_reduce
I0403 19:47:36.395853  9677 net.cpp:91] Creating Layer inception_4a/relu_3x3_reduce
I0403 19:47:36.395874  9677 net.cpp:425] inception_4a/relu_3x3_reduce <- inception_4a/3x3_reduce
I0403 19:47:36.395898  9677 net.cpp:386] inception_4a/relu_3x3_reduce -> inception_4a/3x3_reduce (in-place)
I0403 19:47:36.396118  9677 net.cpp:141] Setting up inception_4a/relu_3x3_reduce
I0403 19:47:36.396148  9677 net.cpp:148] Top shape: 24 96 14 14 (451584)
I0403 19:47:36.396167  9677 net.cpp:156] Memory required for data: 865236000
I0403 19:47:36.396186  9677 layer_factory.hpp:77] Creating layer inception_4a/3x3
I0403 19:47:36.396214  9677 net.cpp:91] Creating Layer inception_4a/3x3
I0403 19:47:36.396235  9677 net.cpp:425] inception_4a/3x3 <- inception_4a/3x3_reduce
I0403 19:47:36.396261  9677 net.cpp:399] inception_4a/3x3 -> inception_4a/3x3
I0403 19:47:36.399523  9677 net.cpp:141] Setting up inception_4a/3x3
I0403 19:47:36.399557  9677 net.cpp:148] Top shape: 24 208 14 14 (978432)
I0403 19:47:36.399576  9677 net.cpp:156] Memory required for data: 869149728
I0403 19:47:36.399598  9677 layer_factory.hpp:77] Creating layer inception_4a/relu_3x3
I0403 19:47:36.399623  9677 net.cpp:91] Creating Layer inception_4a/relu_3x3
I0403 19:47:36.399644  9677 net.cpp:425] inception_4a/relu_3x3 <- inception_4a/3x3
I0403 19:47:36.399667  9677 net.cpp:386] inception_4a/relu_3x3 -> inception_4a/3x3 (in-place)
I0403 19:47:36.400008  9677 net.cpp:141] Setting up inception_4a/relu_3x3
I0403 19:47:36.400041  9677 net.cpp:148] Top shape: 24 208 14 14 (978432)
I0403 19:47:36.400059  9677 net.cpp:156] Memory required for data: 873063456
I0403 19:47:36.400079  9677 layer_factory.hpp:77] Creating layer inception_4a/5x5_reduce
I0403 19:47:36.400105  9677 net.cpp:91] Creating Layer inception_4a/5x5_reduce
I0403 19:47:36.400126  9677 net.cpp:425] inception_4a/5x5_reduce <- pool3/3x3_s2_pool3/3x3_s2_0_split_2
I0403 19:47:36.400152  9677 net.cpp:399] inception_4a/5x5_reduce -> inception_4a/5x5_reduce
I0403 19:47:36.401404  9677 net.cpp:141] Setting up inception_4a/5x5_reduce
I0403 19:47:36.401438  9677 net.cpp:148] Top shape: 24 16 14 14 (75264)
I0403 19:47:36.401466  9677 net.cpp:156] Memory required for data: 873364512
I0403 19:47:36.401490  9677 layer_factory.hpp:77] Creating layer inception_4a/relu_5x5_reduce
I0403 19:47:36.401513  9677 net.cpp:91] Creating Layer inception_4a/relu_5x5_reduce
I0403 19:47:36.401532  9677 net.cpp:425] inception_4a/relu_5x5_reduce <- inception_4a/5x5_reduce
I0403 19:47:36.401554  9677 net.cpp:386] inception_4a/relu_5x5_reduce -> inception_4a/5x5_reduce (in-place)
I0403 19:47:36.401778  9677 net.cpp:141] Setting up inception_4a/relu_5x5_reduce
I0403 19:47:36.401811  9677 net.cpp:148] Top shape: 24 16 14 14 (75264)
I0403 19:47:36.401830  9677 net.cpp:156] Memory required for data: 873665568
I0403 19:47:36.401849  9677 layer_factory.hpp:77] Creating layer inception_4a/5x5
I0403 19:47:36.401875  9677 net.cpp:91] Creating Layer inception_4a/5x5
I0403 19:47:36.401896  9677 net.cpp:425] inception_4a/5x5 <- inception_4a/5x5_reduce
I0403 19:47:36.401919  9677 net.cpp:399] inception_4a/5x5 -> inception_4a/5x5
I0403 19:47:36.403257  9677 net.cpp:141] Setting up inception_4a/5x5
I0403 19:47:36.403292  9677 net.cpp:148] Top shape: 24 48 14 14 (225792)
I0403 19:47:36.403311  9677 net.cpp:156] Memory required for data: 874568736
I0403 19:47:36.403336  9677 layer_factory.hpp:77] Creating layer inception_4a/relu_5x5
I0403 19:47:36.403357  9677 net.cpp:91] Creating Layer inception_4a/relu_5x5
I0403 19:47:36.403376  9677 net.cpp:425] inception_4a/relu_5x5 <- inception_4a/5x5
I0403 19:47:36.403400  9677 net.cpp:386] inception_4a/relu_5x5 -> inception_4a/5x5 (in-place)
I0403 19:47:36.403631  9677 net.cpp:141] Setting up inception_4a/relu_5x5
I0403 19:47:36.403662  9677 net.cpp:148] Top shape: 24 48 14 14 (225792)
I0403 19:47:36.403681  9677 net.cpp:156] Memory required for data: 875471904
I0403 19:47:36.403699  9677 layer_factory.hpp:77] Creating layer inception_4a/pool
I0403 19:47:36.403724  9677 net.cpp:91] Creating Layer inception_4a/pool
I0403 19:47:36.403745  9677 net.cpp:425] inception_4a/pool <- pool3/3x3_s2_pool3/3x3_s2_0_split_3
I0403 19:47:36.403769  9677 net.cpp:399] inception_4a/pool -> inception_4a/pool
I0403 19:47:36.403843  9677 net.cpp:141] Setting up inception_4a/pool
I0403 19:47:36.403873  9677 net.cpp:148] Top shape: 24 480 14 14 (2257920)
I0403 19:47:36.403892  9677 net.cpp:156] Memory required for data: 884503584
I0403 19:47:36.403908  9677 layer_factory.hpp:77] Creating layer inception_4a/pool_proj
I0403 19:47:36.403936  9677 net.cpp:91] Creating Layer inception_4a/pool_proj
I0403 19:47:36.403959  9677 net.cpp:425] inception_4a/pool_proj <- inception_4a/pool
I0403 19:47:36.403983  9677 net.cpp:399] inception_4a/pool_proj -> inception_4a/pool_proj
I0403 19:47:36.405416  9677 net.cpp:141] Setting up inception_4a/pool_proj
I0403 19:47:36.405450  9677 net.cpp:148] Top shape: 24 64 14 14 (301056)
I0403 19:47:36.405493  9677 net.cpp:156] Memory required for data: 885707808
I0403 19:47:36.405517  9677 layer_factory.hpp:77] Creating layer inception_4a/relu_pool_proj
I0403 19:47:36.405539  9677 net.cpp:91] Creating Layer inception_4a/relu_pool_proj
I0403 19:47:36.405560  9677 net.cpp:425] inception_4a/relu_pool_proj <- inception_4a/pool_proj
I0403 19:47:36.405586  9677 net.cpp:386] inception_4a/relu_pool_proj -> inception_4a/pool_proj (in-place)
I0403 19:47:36.405936  9677 net.cpp:141] Setting up inception_4a/relu_pool_proj
I0403 19:47:36.405968  9677 net.cpp:148] Top shape: 24 64 14 14 (301056)
I0403 19:47:36.405987  9677 net.cpp:156] Memory required for data: 886912032
I0403 19:47:36.406004  9677 layer_factory.hpp:77] Creating layer inception_4a/output
I0403 19:47:36.406025  9677 net.cpp:91] Creating Layer inception_4a/output
I0403 19:47:36.406045  9677 net.cpp:425] inception_4a/output <- inception_4a/1x1
I0403 19:47:36.406066  9677 net.cpp:425] inception_4a/output <- inception_4a/3x3
I0403 19:47:36.406086  9677 net.cpp:425] inception_4a/output <- inception_4a/5x5
I0403 19:47:36.406105  9677 net.cpp:425] inception_4a/output <- inception_4a/pool_proj
I0403 19:47:36.406129  9677 net.cpp:399] inception_4a/output -> inception_4a/output
I0403 19:47:36.406196  9677 net.cpp:141] Setting up inception_4a/output
I0403 19:47:36.406229  9677 net.cpp:148] Top shape: 24 512 14 14 (2408448)
I0403 19:47:36.406249  9677 net.cpp:156] Memory required for data: 896545824
I0403 19:47:36.406267  9677 layer_factory.hpp:77] Creating layer inception_4a/output_inception_4a/output_0_split
I0403 19:47:36.406289  9677 net.cpp:91] Creating Layer inception_4a/output_inception_4a/output_0_split
I0403 19:47:36.406308  9677 net.cpp:425] inception_4a/output_inception_4a/output_0_split <- inception_4a/output
I0403 19:47:36.406332  9677 net.cpp:399] inception_4a/output_inception_4a/output_0_split -> inception_4a/output_inception_4a/output_0_split_0
I0403 19:47:36.406366  9677 net.cpp:399] inception_4a/output_inception_4a/output_0_split -> inception_4a/output_inception_4a/output_0_split_1
I0403 19:47:36.406393  9677 net.cpp:399] inception_4a/output_inception_4a/output_0_split -> inception_4a/output_inception_4a/output_0_split_2
I0403 19:47:36.406419  9677 net.cpp:399] inception_4a/output_inception_4a/output_0_split -> inception_4a/output_inception_4a/output_0_split_3
I0403 19:47:36.406443  9677 net.cpp:399] inception_4a/output_inception_4a/output_0_split -> inception_4a/output_inception_4a/output_0_split_4
I0403 19:47:36.406574  9677 net.cpp:141] Setting up inception_4a/output_inception_4a/output_0_split
I0403 19:47:36.406607  9677 net.cpp:148] Top shape: 24 512 14 14 (2408448)
I0403 19:47:36.406630  9677 net.cpp:148] Top shape: 24 512 14 14 (2408448)
I0403 19:47:36.406648  9677 net.cpp:148] Top shape: 24 512 14 14 (2408448)
I0403 19:47:36.406667  9677 net.cpp:148] Top shape: 24 512 14 14 (2408448)
I0403 19:47:36.406687  9677 net.cpp:148] Top shape: 24 512 14 14 (2408448)
I0403 19:47:36.406704  9677 net.cpp:156] Memory required for data: 944714784
I0403 19:47:36.406721  9677 layer_factory.hpp:77] Creating layer loss1/ave_pool
I0403 19:47:36.406744  9677 net.cpp:91] Creating Layer loss1/ave_pool
I0403 19:47:36.406762  9677 net.cpp:425] loss1/ave_pool <- inception_4a/output_inception_4a/output_0_split_0
I0403 19:47:36.406816  9677 net.cpp:399] loss1/ave_pool -> loss1/ave_pool
I0403 19:47:36.407102  9677 net.cpp:141] Setting up loss1/ave_pool
I0403 19:47:36.407135  9677 net.cpp:148] Top shape: 24 512 4 4 (196608)
I0403 19:47:36.407155  9677 net.cpp:156] Memory required for data: 945501216
I0403 19:47:36.407173  9677 layer_factory.hpp:77] Creating layer loss1/conv
I0403 19:47:36.407209  9677 net.cpp:91] Creating Layer loss1/conv
I0403 19:47:36.407232  9677 net.cpp:425] loss1/conv <- loss1/ave_pool
I0403 19:47:36.407258  9677 net.cpp:399] loss1/conv -> loss1/conv
I0403 19:47:36.408982  9677 net.cpp:141] Setting up loss1/conv
I0403 19:47:36.409016  9677 net.cpp:148] Top shape: 24 128 4 4 (49152)
I0403 19:47:36.409040  9677 net.cpp:156] Memory required for data: 945697824
I0403 19:47:36.409080  9677 layer_factory.hpp:77] Creating layer loss1/relu_conv
I0403 19:47:36.409106  9677 net.cpp:91] Creating Layer loss1/relu_conv
I0403 19:47:36.409127  9677 net.cpp:425] loss1/relu_conv <- loss1/conv
I0403 19:47:36.409148  9677 net.cpp:386] loss1/relu_conv -> loss1/conv (in-place)
I0403 19:47:36.409497  9677 net.cpp:141] Setting up loss1/relu_conv
I0403 19:47:36.409530  9677 net.cpp:148] Top shape: 24 128 4 4 (49152)
I0403 19:47:36.409549  9677 net.cpp:156] Memory required for data: 945894432
I0403 19:47:36.409569  9677 layer_factory.hpp:77] Creating layer loss1/fc
I0403 19:47:36.409601  9677 net.cpp:91] Creating Layer loss1/fc
I0403 19:47:36.409623  9677 net.cpp:425] loss1/fc <- loss1/conv
I0403 19:47:36.409646  9677 net.cpp:399] loss1/fc -> loss1/fc
I0403 19:47:36.431571  9677 net.cpp:141] Setting up loss1/fc
I0403 19:47:36.431612  9677 net.cpp:148] Top shape: 24 1024 (24576)
I0403 19:47:36.431632  9677 net.cpp:156] Memory required for data: 945992736
I0403 19:47:36.431655  9677 layer_factory.hpp:77] Creating layer loss1/relu_fc
I0403 19:47:36.431676  9677 net.cpp:91] Creating Layer loss1/relu_fc
I0403 19:47:36.431696  9677 net.cpp:425] loss1/relu_fc <- loss1/fc
I0403 19:47:36.431720  9677 net.cpp:386] loss1/relu_fc -> loss1/fc (in-place)
I0403 19:47:36.431957  9677 net.cpp:141] Setting up loss1/relu_fc
I0403 19:47:36.431987  9677 net.cpp:148] Top shape: 24 1024 (24576)
I0403 19:47:36.432004  9677 net.cpp:156] Memory required for data: 946091040
I0403 19:47:36.432023  9677 layer_factory.hpp:77] Creating layer loss1/drop_fc
I0403 19:47:36.432060  9677 net.cpp:91] Creating Layer loss1/drop_fc
I0403 19:47:36.432082  9677 net.cpp:425] loss1/drop_fc <- loss1/fc
I0403 19:47:36.432103  9677 net.cpp:386] loss1/drop_fc -> loss1/fc (in-place)
I0403 19:47:36.432168  9677 net.cpp:141] Setting up loss1/drop_fc
I0403 19:47:36.432200  9677 net.cpp:148] Top shape: 24 1024 (24576)
I0403 19:47:36.432220  9677 net.cpp:156] Memory required for data: 946189344
I0403 19:47:36.432240  9677 layer_factory.hpp:77] Creating layer loss1/classifier_plantvillage
I0403 19:47:36.432262  9677 net.cpp:91] Creating Layer loss1/classifier_plantvillage
I0403 19:47:36.432291  9677 net.cpp:425] loss1/classifier_plantvillage <- loss1/fc
I0403 19:47:36.432315  9677 net.cpp:399] loss1/classifier_plantvillage -> loss1/classifier_plantvillage
I0403 19:47:36.433423  9677 net.cpp:141] Setting up loss1/classifier_plantvillage
I0403 19:47:36.433457  9677 net.cpp:148] Top shape: 24 38 (912)
I0403 19:47:36.433482  9677 net.cpp:156] Memory required for data: 946192992
I0403 19:47:36.433506  9677 layer_factory.hpp:77] Creating layer loss1/classifier_plantvillage_loss1/classifier_plantvillage_0_split
I0403 19:47:36.433531  9677 net.cpp:91] Creating Layer loss1/classifier_plantvillage_loss1/classifier_plantvillage_0_split
I0403 19:47:36.433550  9677 net.cpp:425] loss1/classifier_plantvillage_loss1/classifier_plantvillage_0_split <- loss1/classifier_plantvillage
I0403 19:47:36.433573  9677 net.cpp:399] loss1/classifier_plantvillage_loss1/classifier_plantvillage_0_split -> loss1/classifier_plantvillage_loss1/classifier_plantvillage_0_split_0
I0403 19:47:36.433598  9677 net.cpp:399] loss1/classifier_plantvillage_loss1/classifier_plantvillage_0_split -> loss1/classifier_plantvillage_loss1/classifier_plantvillage_0_split_1
I0403 19:47:36.433621  9677 net.cpp:399] loss1/classifier_plantvillage_loss1/classifier_plantvillage_0_split -> loss1/classifier_plantvillage_loss1/classifier_plantvillage_0_split_2
I0403 19:47:36.433706  9677 net.cpp:141] Setting up loss1/classifier_plantvillage_loss1/classifier_plantvillage_0_split
I0403 19:47:36.433734  9677 net.cpp:148] Top shape: 24 38 (912)
I0403 19:47:36.433754  9677 net.cpp:148] Top shape: 24 38 (912)
I0403 19:47:36.433773  9677 net.cpp:148] Top shape: 24 38 (912)
I0403 19:47:36.433790  9677 net.cpp:156] Memory required for data: 946203936
I0403 19:47:36.433809  9677 layer_factory.hpp:77] Creating layer inception_4b/1x1
I0403 19:47:36.433833  9677 net.cpp:91] Creating Layer inception_4b/1x1
I0403 19:47:36.433871  9677 net.cpp:425] inception_4b/1x1 <- inception_4a/output_inception_4a/output_0_split_1
I0403 19:47:36.433899  9677 net.cpp:399] inception_4b/1x1 -> inception_4b/1x1
I0403 19:47:36.435912  9677 net.cpp:141] Setting up inception_4b/1x1
I0403 19:47:36.435948  9677 net.cpp:148] Top shape: 24 160 14 14 (752640)
I0403 19:47:36.435968  9677 net.cpp:156] Memory required for data: 949214496
I0403 19:47:36.435991  9677 layer_factory.hpp:77] Creating layer inception_4b/relu_1x1
I0403 19:47:36.436017  9677 net.cpp:91] Creating Layer inception_4b/relu_1x1
I0403 19:47:36.436036  9677 net.cpp:425] inception_4b/relu_1x1 <- inception_4b/1x1
I0403 19:47:36.436058  9677 net.cpp:386] inception_4b/relu_1x1 -> inception_4b/1x1 (in-place)
I0403 19:47:36.436281  9677 net.cpp:141] Setting up inception_4b/relu_1x1
I0403 19:47:36.436316  9677 net.cpp:148] Top shape: 24 160 14 14 (752640)
I0403 19:47:36.436334  9677 net.cpp:156] Memory required for data: 952225056
I0403 19:47:36.436352  9677 layer_factory.hpp:77] Creating layer inception_4b/3x3_reduce
I0403 19:47:36.436384  9677 net.cpp:91] Creating Layer inception_4b/3x3_reduce
I0403 19:47:36.436406  9677 net.cpp:425] inception_4b/3x3_reduce <- inception_4a/output_inception_4a/output_0_split_2
I0403 19:47:36.436429  9677 net.cpp:399] inception_4b/3x3_reduce -> inception_4b/3x3_reduce
I0403 19:47:36.438089  9677 net.cpp:141] Setting up inception_4b/3x3_reduce
I0403 19:47:36.438127  9677 net.cpp:148] Top shape: 24 112 14 14 (526848)
I0403 19:47:36.438148  9677 net.cpp:156] Memory required for data: 954332448
I0403 19:47:36.438170  9677 layer_factory.hpp:77] Creating layer inception_4b/relu_3x3_reduce
I0403 19:47:36.438194  9677 net.cpp:91] Creating Layer inception_4b/relu_3x3_reduce
I0403 19:47:36.438212  9677 net.cpp:425] inception_4b/relu_3x3_reduce <- inception_4b/3x3_reduce
I0403 19:47:36.438237  9677 net.cpp:386] inception_4b/relu_3x3_reduce -> inception_4b/3x3_reduce (in-place)
I0403 19:47:36.438592  9677 net.cpp:141] Setting up inception_4b/relu_3x3_reduce
I0403 19:47:36.438627  9677 net.cpp:148] Top shape: 24 112 14 14 (526848)
I0403 19:47:36.438647  9677 net.cpp:156] Memory required for data: 956439840
I0403 19:47:36.438666  9677 layer_factory.hpp:77] Creating layer inception_4b/3x3
I0403 19:47:36.438694  9677 net.cpp:91] Creating Layer inception_4b/3x3
I0403 19:47:36.438716  9677 net.cpp:425] inception_4b/3x3 <- inception_4b/3x3_reduce
I0403 19:47:36.438740  9677 net.cpp:399] inception_4b/3x3 -> inception_4b/3x3
I0403 19:47:36.442380  9677 net.cpp:141] Setting up inception_4b/3x3
I0403 19:47:36.442417  9677 net.cpp:148] Top shape: 24 224 14 14 (1053696)
I0403 19:47:36.442437  9677 net.cpp:156] Memory required for data: 960654624
I0403 19:47:36.442482  9677 layer_factory.hpp:77] Creating layer inception_4b/relu_3x3
I0403 19:47:36.442512  9677 net.cpp:91] Creating Layer inception_4b/relu_3x3
I0403 19:47:36.442533  9677 net.cpp:425] inception_4b/relu_3x3 <- inception_4b/3x3
I0403 19:47:36.442554  9677 net.cpp:386] inception_4b/relu_3x3 -> inception_4b/3x3 (in-place)
I0403 19:47:36.442781  9677 net.cpp:141] Setting up inception_4b/relu_3x3
I0403 19:47:36.442813  9677 net.cpp:148] Top shape: 24 224 14 14 (1053696)
I0403 19:47:36.442831  9677 net.cpp:156] Memory required for data: 964869408
I0403 19:47:36.442849  9677 layer_factory.hpp:77] Creating layer inception_4b/5x5_reduce
I0403 19:47:36.442879  9677 net.cpp:91] Creating Layer inception_4b/5x5_reduce
I0403 19:47:36.442901  9677 net.cpp:425] inception_4b/5x5_reduce <- inception_4a/output_inception_4a/output_0_split_3
I0403 19:47:36.442924  9677 net.cpp:399] inception_4b/5x5_reduce -> inception_4b/5x5_reduce
I0403 19:47:36.444259  9677 net.cpp:141] Setting up inception_4b/5x5_reduce
I0403 19:47:36.444293  9677 net.cpp:148] Top shape: 24 24 14 14 (112896)
I0403 19:47:36.444313  9677 net.cpp:156] Memory required for data: 965320992
I0403 19:47:36.444337  9677 layer_factory.hpp:77] Creating layer inception_4b/relu_5x5_reduce
I0403 19:47:36.444360  9677 net.cpp:91] Creating Layer inception_4b/relu_5x5_reduce
I0403 19:47:36.444398  9677 net.cpp:425] inception_4b/relu_5x5_reduce <- inception_4b/5x5_reduce
I0403 19:47:36.444422  9677 net.cpp:386] inception_4b/relu_5x5_reduce -> inception_4b/5x5_reduce (in-place)
I0403 19:47:36.444656  9677 net.cpp:141] Setting up inception_4b/relu_5x5_reduce
I0403 19:47:36.444689  9677 net.cpp:148] Top shape: 24 24 14 14 (112896)
I0403 19:47:36.444706  9677 net.cpp:156] Memory required for data: 965772576
I0403 19:47:36.444725  9677 layer_factory.hpp:77] Creating layer inception_4b/5x5
I0403 19:47:36.444752  9677 net.cpp:91] Creating Layer inception_4b/5x5
I0403 19:47:36.444774  9677 net.cpp:425] inception_4b/5x5 <- inception_4b/5x5_reduce
I0403 19:47:36.444800  9677 net.cpp:399] inception_4b/5x5 -> inception_4b/5x5
I0403 19:47:36.446305  9677 net.cpp:141] Setting up inception_4b/5x5
I0403 19:47:36.446338  9677 net.cpp:148] Top shape: 24 64 14 14 (301056)
I0403 19:47:36.446357  9677 net.cpp:156] Memory required for data: 966976800
I0403 19:47:36.446380  9677 layer_factory.hpp:77] Creating layer inception_4b/relu_5x5
I0403 19:47:36.446406  9677 net.cpp:91] Creating Layer inception_4b/relu_5x5
I0403 19:47:36.446426  9677 net.cpp:425] inception_4b/relu_5x5 <- inception_4b/5x5
I0403 19:47:36.446447  9677 net.cpp:386] inception_4b/relu_5x5 -> inception_4b/5x5 (in-place)
I0403 19:47:36.446805  9677 net.cpp:141] Setting up inception_4b/relu_5x5
I0403 19:47:36.446836  9677 net.cpp:148] Top shape: 24 64 14 14 (301056)
I0403 19:47:36.446854  9677 net.cpp:156] Memory required for data: 968181024
I0403 19:47:36.446873  9677 layer_factory.hpp:77] Creating layer inception_4b/pool
I0403 19:47:36.446898  9677 net.cpp:91] Creating Layer inception_4b/pool
I0403 19:47:36.446919  9677 net.cpp:425] inception_4b/pool <- inception_4a/output_inception_4a/output_0_split_4
I0403 19:47:36.446943  9677 net.cpp:399] inception_4b/pool -> inception_4b/pool
I0403 19:47:36.447021  9677 net.cpp:141] Setting up inception_4b/pool
I0403 19:47:36.447051  9677 net.cpp:148] Top shape: 24 512 14 14 (2408448)
I0403 19:47:36.447068  9677 net.cpp:156] Memory required for data: 977814816
I0403 19:47:36.447087  9677 layer_factory.hpp:77] Creating layer inception_4b/pool_proj
I0403 19:47:36.447113  9677 net.cpp:91] Creating Layer inception_4b/pool_proj
I0403 19:47:36.447136  9677 net.cpp:425] inception_4b/pool_proj <- inception_4b/pool
I0403 19:47:36.447162  9677 net.cpp:399] inception_4b/pool_proj -> inception_4b/pool_proj
I0403 19:47:36.448653  9677 net.cpp:141] Setting up inception_4b/pool_proj
I0403 19:47:36.448691  9677 net.cpp:148] Top shape: 24 64 14 14 (301056)
I0403 19:47:36.448711  9677 net.cpp:156] Memory required for data: 979019040
I0403 19:47:36.448734  9677 layer_factory.hpp:77] Creating layer inception_4b/relu_pool_proj
I0403 19:47:36.448755  9677 net.cpp:91] Creating Layer inception_4b/relu_pool_proj
I0403 19:47:36.448775  9677 net.cpp:425] inception_4b/relu_pool_proj <- inception_4b/pool_proj
I0403 19:47:36.448796  9677 net.cpp:386] inception_4b/relu_pool_proj -> inception_4b/pool_proj (in-place)
I0403 19:47:36.449023  9677 net.cpp:141] Setting up inception_4b/relu_pool_proj
I0403 19:47:36.449053  9677 net.cpp:148] Top shape: 24 64 14 14 (301056)
I0403 19:47:36.449070  9677 net.cpp:156] Memory required for data: 980223264
I0403 19:47:36.449089  9677 layer_factory.hpp:77] Creating layer inception_4b/output
I0403 19:47:36.449110  9677 net.cpp:91] Creating Layer inception_4b/output
I0403 19:47:36.449128  9677 net.cpp:425] inception_4b/output <- inception_4b/1x1
I0403 19:47:36.449148  9677 net.cpp:425] inception_4b/output <- inception_4b/3x3
I0403 19:47:36.449168  9677 net.cpp:425] inception_4b/output <- inception_4b/5x5
I0403 19:47:36.449188  9677 net.cpp:425] inception_4b/output <- inception_4b/pool_proj
I0403 19:47:36.449211  9677 net.cpp:399] inception_4b/output -> inception_4b/output
I0403 19:47:36.449266  9677 net.cpp:141] Setting up inception_4b/output
I0403 19:47:36.449295  9677 net.cpp:148] Top shape: 24 512 14 14 (2408448)
I0403 19:47:36.449313  9677 net.cpp:156] Memory required for data: 989857056
I0403 19:47:36.449348  9677 layer_factory.hpp:77] Creating layer inception_4b/output_inception_4b/output_0_split
I0403 19:47:36.449374  9677 net.cpp:91] Creating Layer inception_4b/output_inception_4b/output_0_split
I0403 19:47:36.449393  9677 net.cpp:425] inception_4b/output_inception_4b/output_0_split <- inception_4b/output
I0403 19:47:36.449415  9677 net.cpp:399] inception_4b/output_inception_4b/output_0_split -> inception_4b/output_inception_4b/output_0_split_0
I0403 19:47:36.449442  9677 net.cpp:399] inception_4b/output_inception_4b/output_0_split -> inception_4b/output_inception_4b/output_0_split_1
I0403 19:47:36.449476  9677 net.cpp:399] inception_4b/output_inception_4b/output_0_split -> inception_4b/output_inception_4b/output_0_split_2
I0403 19:47:36.449501  9677 net.cpp:399] inception_4b/output_inception_4b/output_0_split -> inception_4b/output_inception_4b/output_0_split_3
I0403 19:47:36.449605  9677 net.cpp:141] Setting up inception_4b/output_inception_4b/output_0_split
I0403 19:47:36.449635  9677 net.cpp:148] Top shape: 24 512 14 14 (2408448)
I0403 19:47:36.449653  9677 net.cpp:148] Top shape: 24 512 14 14 (2408448)
I0403 19:47:36.449672  9677 net.cpp:148] Top shape: 24 512 14 14 (2408448)
I0403 19:47:36.449692  9677 net.cpp:148] Top shape: 24 512 14 14 (2408448)
I0403 19:47:36.449708  9677 net.cpp:156] Memory required for data: 1028392224
I0403 19:47:36.449726  9677 layer_factory.hpp:77] Creating layer inception_4c/1x1
I0403 19:47:36.449753  9677 net.cpp:91] Creating Layer inception_4c/1x1
I0403 19:47:36.449775  9677 net.cpp:425] inception_4c/1x1 <- inception_4b/output_inception_4b/output_0_split_0
I0403 19:47:36.449801  9677 net.cpp:399] inception_4c/1x1 -> inception_4c/1x1
I0403 19:47:36.451583  9677 net.cpp:141] Setting up inception_4c/1x1
I0403 19:47:36.451619  9677 net.cpp:148] Top shape: 24 128 14 14 (602112)
I0403 19:47:36.451638  9677 net.cpp:156] Memory required for data: 1030800672
I0403 19:47:36.451661  9677 layer_factory.hpp:77] Creating layer inception_4c/relu_1x1
I0403 19:47:36.451683  9677 net.cpp:91] Creating Layer inception_4c/relu_1x1
I0403 19:47:36.451709  9677 net.cpp:425] inception_4c/relu_1x1 <- inception_4c/1x1
I0403 19:47:36.451730  9677 net.cpp:386] inception_4c/relu_1x1 -> inception_4c/1x1 (in-place)
I0403 19:47:36.451951  9677 net.cpp:141] Setting up inception_4c/relu_1x1
I0403 19:47:36.451982  9677 net.cpp:148] Top shape: 24 128 14 14 (602112)
I0403 19:47:36.451999  9677 net.cpp:156] Memory required for data: 1033209120
I0403 19:47:36.452018  9677 layer_factory.hpp:77] Creating layer inception_4c/3x3_reduce
I0403 19:47:36.452045  9677 net.cpp:91] Creating Layer inception_4c/3x3_reduce
I0403 19:47:36.452065  9677 net.cpp:425] inception_4c/3x3_reduce <- inception_4b/output_inception_4b/output_0_split_1
I0403 19:47:36.452090  9677 net.cpp:399] inception_4c/3x3_reduce -> inception_4c/3x3_reduce
I0403 19:47:36.454466  9677 net.cpp:141] Setting up inception_4c/3x3_reduce
I0403 19:47:36.454504  9677 net.cpp:148] Top shape: 24 128 14 14 (602112)
I0403 19:47:36.454524  9677 net.cpp:156] Memory required for data: 1035617568
I0403 19:47:36.454547  9677 layer_factory.hpp:77] Creating layer inception_4c/relu_3x3_reduce
I0403 19:47:36.454572  9677 net.cpp:91] Creating Layer inception_4c/relu_3x3_reduce
I0403 19:47:36.454594  9677 net.cpp:425] inception_4c/relu_3x3_reduce <- inception_4c/3x3_reduce
I0403 19:47:36.454617  9677 net.cpp:386] inception_4c/relu_3x3_reduce -> inception_4c/3x3_reduce (in-place)
I0403 19:47:36.454974  9677 net.cpp:141] Setting up inception_4c/relu_3x3_reduce
I0403 19:47:36.455006  9677 net.cpp:148] Top shape: 24 128 14 14 (602112)
I0403 19:47:36.455024  9677 net.cpp:156] Memory required for data: 1038026016
I0403 19:47:36.455042  9677 layer_factory.hpp:77] Creating layer inception_4c/3x3
I0403 19:47:36.455070  9677 net.cpp:91] Creating Layer inception_4c/3x3
I0403 19:47:36.455095  9677 net.cpp:425] inception_4c/3x3 <- inception_4c/3x3_reduce
I0403 19:47:36.455118  9677 net.cpp:399] inception_4c/3x3 -> inception_4c/3x3
I0403 19:47:36.459523  9677 net.cpp:141] Setting up inception_4c/3x3
I0403 19:47:36.459576  9677 net.cpp:148] Top shape: 24 256 14 14 (1204224)
I0403 19:47:36.459597  9677 net.cpp:156] Memory required for data: 1042842912
I0403 19:47:36.459637  9677 layer_factory.hpp:77] Creating layer inception_4c/relu_3x3
I0403 19:47:36.459662  9677 net.cpp:91] Creating Layer inception_4c/relu_3x3
I0403 19:47:36.459682  9677 net.cpp:425] inception_4c/relu_3x3 <- inception_4c/3x3
I0403 19:47:36.459702  9677 net.cpp:386] inception_4c/relu_3x3 -> inception_4c/3x3 (in-place)
I0403 19:47:36.459929  9677 net.cpp:141] Setting up inception_4c/relu_3x3
I0403 19:47:36.459964  9677 net.cpp:148] Top shape: 24 256 14 14 (1204224)
I0403 19:47:36.459982  9677 net.cpp:156] Memory required for data: 1047659808
I0403 19:47:36.460001  9677 layer_factory.hpp:77] Creating layer inception_4c/5x5_reduce
I0403 19:47:36.460034  9677 net.cpp:91] Creating Layer inception_4c/5x5_reduce
I0403 19:47:36.460057  9677 net.cpp:425] inception_4c/5x5_reduce <- inception_4b/output_inception_4b/output_0_split_2
I0403 19:47:36.460080  9677 net.cpp:399] inception_4c/5x5_reduce -> inception_4c/5x5_reduce
I0403 19:47:36.461457  9677 net.cpp:141] Setting up inception_4c/5x5_reduce
I0403 19:47:36.461496  9677 net.cpp:148] Top shape: 24 24 14 14 (112896)
I0403 19:47:36.461518  9677 net.cpp:156] Memory required for data: 1048111392
I0403 19:47:36.461540  9677 layer_factory.hpp:77] Creating layer inception_4c/relu_5x5_reduce
I0403 19:47:36.461566  9677 net.cpp:91] Creating Layer inception_4c/relu_5x5_reduce
I0403 19:47:36.461586  9677 net.cpp:425] inception_4c/relu_5x5_reduce <- inception_4c/5x5_reduce
I0403 19:47:36.461608  9677 net.cpp:386] inception_4c/relu_5x5_reduce -> inception_4c/5x5_reduce (in-place)
I0403 19:47:36.461838  9677 net.cpp:141] Setting up inception_4c/relu_5x5_reduce
I0403 19:47:36.461869  9677 net.cpp:148] Top shape: 24 24 14 14 (112896)
I0403 19:47:36.461886  9677 net.cpp:156] Memory required for data: 1048562976
I0403 19:47:36.461906  9677 layer_factory.hpp:77] Creating layer inception_4c/5x5
I0403 19:47:36.461935  9677 net.cpp:91] Creating Layer inception_4c/5x5
I0403 19:47:36.461956  9677 net.cpp:425] inception_4c/5x5 <- inception_4c/5x5_reduce
I0403 19:47:36.461983  9677 net.cpp:399] inception_4c/5x5 -> inception_4c/5x5
I0403 19:47:36.463539  9677 net.cpp:141] Setting up inception_4c/5x5
I0403 19:47:36.463587  9677 net.cpp:148] Top shape: 24 64 14 14 (301056)
I0403 19:47:36.463605  9677 net.cpp:156] Memory required for data: 1049767200
I0403 19:47:36.463627  9677 layer_factory.hpp:77] Creating layer inception_4c/relu_5x5
I0403 19:47:36.463649  9677 net.cpp:91] Creating Layer inception_4c/relu_5x5
I0403 19:47:36.463670  9677 net.cpp:425] inception_4c/relu_5x5 <- inception_4c/5x5
I0403 19:47:36.463693  9677 net.cpp:386] inception_4c/relu_5x5 -> inception_4c/5x5 (in-place)
I0403 19:47:36.464046  9677 net.cpp:141] Setting up inception_4c/relu_5x5
I0403 19:47:36.464082  9677 net.cpp:148] Top shape: 24 64 14 14 (301056)
I0403 19:47:36.464102  9677 net.cpp:156] Memory required for data: 1050971424
I0403 19:47:36.464118  9677 layer_factory.hpp:77] Creating layer inception_4c/pool
I0403 19:47:36.464140  9677 net.cpp:91] Creating Layer inception_4c/pool
I0403 19:47:36.464160  9677 net.cpp:425] inception_4c/pool <- inception_4b/output_inception_4b/output_0_split_3
I0403 19:47:36.464185  9677 net.cpp:399] inception_4c/pool -> inception_4c/pool
I0403 19:47:36.464267  9677 net.cpp:141] Setting up inception_4c/pool
I0403 19:47:36.464298  9677 net.cpp:148] Top shape: 24 512 14 14 (2408448)
I0403 19:47:36.464318  9677 net.cpp:156] Memory required for data: 1060605216
I0403 19:47:36.464336  9677 layer_factory.hpp:77] Creating layer inception_4c/pool_proj
I0403 19:47:36.464368  9677 net.cpp:91] Creating Layer inception_4c/pool_proj
I0403 19:47:36.464390  9677 net.cpp:425] inception_4c/pool_proj <- inception_4c/pool
I0403 19:47:36.464413  9677 net.cpp:399] inception_4c/pool_proj -> inception_4c/pool_proj
I0403 19:47:36.465934  9677 net.cpp:141] Setting up inception_4c/pool_proj
I0403 19:47:36.465972  9677 net.cpp:148] Top shape: 24 64 14 14 (301056)
I0403 19:47:36.466009  9677 net.cpp:156] Memory required for data: 1061809440
I0403 19:47:36.466034  9677 layer_factory.hpp:77] Creating layer inception_4c/relu_pool_proj
I0403 19:47:36.466055  9677 net.cpp:91] Creating Layer inception_4c/relu_pool_proj
I0403 19:47:36.466076  9677 net.cpp:425] inception_4c/relu_pool_proj <- inception_4c/pool_proj
I0403 19:47:36.466099  9677 net.cpp:386] inception_4c/relu_pool_proj -> inception_4c/pool_proj (in-place)
I0403 19:47:36.466323  9677 net.cpp:141] Setting up inception_4c/relu_pool_proj
I0403 19:47:36.466364  9677 net.cpp:148] Top shape: 24 64 14 14 (301056)
I0403 19:47:36.466384  9677 net.cpp:156] Memory required for data: 1063013664
I0403 19:47:36.466403  9677 layer_factory.hpp:77] Creating layer inception_4c/output
I0403 19:47:36.466423  9677 net.cpp:91] Creating Layer inception_4c/output
I0403 19:47:36.466442  9677 net.cpp:425] inception_4c/output <- inception_4c/1x1
I0403 19:47:36.466467  9677 net.cpp:425] inception_4c/output <- inception_4c/3x3
I0403 19:47:36.466511  9677 net.cpp:425] inception_4c/output <- inception_4c/5x5
I0403 19:47:36.466532  9677 net.cpp:425] inception_4c/output <- inception_4c/pool_proj
I0403 19:47:36.466554  9677 net.cpp:399] inception_4c/output -> inception_4c/output
I0403 19:47:36.466629  9677 net.cpp:141] Setting up inception_4c/output
I0403 19:47:36.466660  9677 net.cpp:148] Top shape: 24 512 14 14 (2408448)
I0403 19:47:36.466678  9677 net.cpp:156] Memory required for data: 1072647456
I0403 19:47:36.466696  9677 layer_factory.hpp:77] Creating layer inception_4c/output_inception_4c/output_0_split
I0403 19:47:36.466719  9677 net.cpp:91] Creating Layer inception_4c/output_inception_4c/output_0_split
I0403 19:47:36.466740  9677 net.cpp:425] inception_4c/output_inception_4c/output_0_split <- inception_4c/output
I0403 19:47:36.466761  9677 net.cpp:399] inception_4c/output_inception_4c/output_0_split -> inception_4c/output_inception_4c/output_0_split_0
I0403 19:47:36.466791  9677 net.cpp:399] inception_4c/output_inception_4c/output_0_split -> inception_4c/output_inception_4c/output_0_split_1
I0403 19:47:36.466820  9677 net.cpp:399] inception_4c/output_inception_4c/output_0_split -> inception_4c/output_inception_4c/output_0_split_2
I0403 19:47:36.466845  9677 net.cpp:399] inception_4c/output_inception_4c/output_0_split -> inception_4c/output_inception_4c/output_0_split_3
I0403 19:47:36.466965  9677 net.cpp:141] Setting up inception_4c/output_inception_4c/output_0_split
I0403 19:47:36.467013  9677 net.cpp:148] Top shape: 24 512 14 14 (2408448)
I0403 19:47:36.467041  9677 net.cpp:148] Top shape: 24 512 14 14 (2408448)
I0403 19:47:36.467070  9677 net.cpp:148] Top shape: 24 512 14 14 (2408448)
I0403 19:47:36.467089  9677 net.cpp:148] Top shape: 24 512 14 14 (2408448)
I0403 19:47:36.467106  9677 net.cpp:156] Memory required for data: 1111182624
I0403 19:47:36.467123  9677 layer_factory.hpp:77] Creating layer inception_4d/1x1
I0403 19:47:36.467149  9677 net.cpp:91] Creating Layer inception_4d/1x1
I0403 19:47:36.467171  9677 net.cpp:425] inception_4d/1x1 <- inception_4c/output_inception_4c/output_0_split_0
I0403 19:47:36.467196  9677 net.cpp:399] inception_4d/1x1 -> inception_4d/1x1
I0403 19:47:36.468909  9677 net.cpp:141] Setting up inception_4d/1x1
I0403 19:47:36.468943  9677 net.cpp:148] Top shape: 24 112 14 14 (526848)
I0403 19:47:36.468962  9677 net.cpp:156] Memory required for data: 1113290016
I0403 19:47:36.468986  9677 layer_factory.hpp:77] Creating layer inception_4d/relu_1x1
I0403 19:47:36.469009  9677 net.cpp:91] Creating Layer inception_4d/relu_1x1
I0403 19:47:36.469032  9677 net.cpp:425] inception_4d/relu_1x1 <- inception_4d/1x1
I0403 19:47:36.469053  9677 net.cpp:386] inception_4d/relu_1x1 -> inception_4d/1x1 (in-place)
I0403 19:47:36.469283  9677 net.cpp:141] Setting up inception_4d/relu_1x1
I0403 19:47:36.469313  9677 net.cpp:148] Top shape: 24 112 14 14 (526848)
I0403 19:47:36.469331  9677 net.cpp:156] Memory required for data: 1115397408
I0403 19:47:36.469350  9677 layer_factory.hpp:77] Creating layer inception_4d/3x3_reduce
I0403 19:47:36.469399  9677 net.cpp:91] Creating Layer inception_4d/3x3_reduce
I0403 19:47:36.469424  9677 net.cpp:425] inception_4d/3x3_reduce <- inception_4c/output_inception_4c/output_0_split_1
I0403 19:47:36.469446  9677 net.cpp:399] inception_4d/3x3_reduce -> inception_4d/3x3_reduce
I0403 19:47:36.471309  9677 net.cpp:141] Setting up inception_4d/3x3_reduce
I0403 19:47:36.471344  9677 net.cpp:148] Top shape: 24 144 14 14 (677376)
I0403 19:47:36.471362  9677 net.cpp:156] Memory required for data: 1118106912
I0403 19:47:36.471385  9677 layer_factory.hpp:77] Creating layer inception_4d/relu_3x3_reduce
I0403 19:47:36.471406  9677 net.cpp:91] Creating Layer inception_4d/relu_3x3_reduce
I0403 19:47:36.471426  9677 net.cpp:425] inception_4d/relu_3x3_reduce <- inception_4d/3x3_reduce
I0403 19:47:36.471451  9677 net.cpp:386] inception_4d/relu_3x3_reduce -> inception_4d/3x3_reduce (in-place)
I0403 19:47:36.471819  9677 net.cpp:141] Setting up inception_4d/relu_3x3_reduce
I0403 19:47:36.471851  9677 net.cpp:148] Top shape: 24 144 14 14 (677376)
I0403 19:47:36.471870  9677 net.cpp:156] Memory required for data: 1120816416
I0403 19:47:36.471889  9677 layer_factory.hpp:77] Creating layer inception_4d/3x3
I0403 19:47:36.471917  9677 net.cpp:91] Creating Layer inception_4d/3x3
I0403 19:47:36.471938  9677 net.cpp:425] inception_4d/3x3 <- inception_4d/3x3_reduce
I0403 19:47:36.471963  9677 net.cpp:399] inception_4d/3x3 -> inception_4d/3x3
I0403 19:47:36.477233  9677 net.cpp:141] Setting up inception_4d/3x3
I0403 19:47:36.477270  9677 net.cpp:148] Top shape: 24 288 14 14 (1354752)
I0403 19:47:36.477289  9677 net.cpp:156] Memory required for data: 1126235424
I0403 19:47:36.477311  9677 layer_factory.hpp:77] Creating layer inception_4d/relu_3x3
I0403 19:47:36.477336  9677 net.cpp:91] Creating Layer inception_4d/relu_3x3
I0403 19:47:36.477358  9677 net.cpp:425] inception_4d/relu_3x3 <- inception_4d/3x3
I0403 19:47:36.477380  9677 net.cpp:386] inception_4d/relu_3x3 -> inception_4d/3x3 (in-place)
I0403 19:47:36.477612  9677 net.cpp:141] Setting up inception_4d/relu_3x3
I0403 19:47:36.477645  9677 net.cpp:148] Top shape: 24 288 14 14 (1354752)
I0403 19:47:36.477665  9677 net.cpp:156] Memory required for data: 1131654432
I0403 19:47:36.477684  9677 layer_factory.hpp:77] Creating layer inception_4d/5x5_reduce
I0403 19:47:36.477711  9677 net.cpp:91] Creating Layer inception_4d/5x5_reduce
I0403 19:47:36.477733  9677 net.cpp:425] inception_4d/5x5_reduce <- inception_4c/output_inception_4c/output_0_split_2
I0403 19:47:36.477756  9677 net.cpp:399] inception_4d/5x5_reduce -> inception_4d/5x5_reduce
I0403 19:47:36.479187  9677 net.cpp:141] Setting up inception_4d/5x5_reduce
I0403 19:47:36.479221  9677 net.cpp:148] Top shape: 24 32 14 14 (150528)
I0403 19:47:36.479240  9677 net.cpp:156] Memory required for data: 1132256544
I0403 19:47:36.479262  9677 layer_factory.hpp:77] Creating layer inception_4d/relu_5x5_reduce
I0403 19:47:36.479295  9677 net.cpp:91] Creating Layer inception_4d/relu_5x5_reduce
I0403 19:47:36.479315  9677 net.cpp:425] inception_4d/relu_5x5_reduce <- inception_4d/5x5_reduce
I0403 19:47:36.479336  9677 net.cpp:386] inception_4d/relu_5x5_reduce -> inception_4d/5x5_reduce (in-place)
I0403 19:47:36.479583  9677 net.cpp:141] Setting up inception_4d/relu_5x5_reduce
I0403 19:47:36.479614  9677 net.cpp:148] Top shape: 24 32 14 14 (150528)
I0403 19:47:36.479631  9677 net.cpp:156] Memory required for data: 1132858656
I0403 19:47:36.479650  9677 layer_factory.hpp:77] Creating layer inception_4d/5x5
I0403 19:47:36.479679  9677 net.cpp:91] Creating Layer inception_4d/5x5
I0403 19:47:36.479702  9677 net.cpp:425] inception_4d/5x5 <- inception_4d/5x5_reduce
I0403 19:47:36.479725  9677 net.cpp:399] inception_4d/5x5 -> inception_4d/5x5
I0403 19:47:36.481559  9677 net.cpp:141] Setting up inception_4d/5x5
I0403 19:47:36.481596  9677 net.cpp:148] Top shape: 24 64 14 14 (301056)
I0403 19:47:36.481616  9677 net.cpp:156] Memory required for data: 1134062880
I0403 19:47:36.481640  9677 layer_factory.hpp:77] Creating layer inception_4d/relu_5x5
I0403 19:47:36.481680  9677 net.cpp:91] Creating Layer inception_4d/relu_5x5
I0403 19:47:36.481701  9677 net.cpp:425] inception_4d/relu_5x5 <- inception_4d/5x5
I0403 19:47:36.481725  9677 net.cpp:386] inception_4d/relu_5x5 -> inception_4d/5x5 (in-place)
I0403 19:47:36.482095  9677 net.cpp:141] Setting up inception_4d/relu_5x5
I0403 19:47:36.482131  9677 net.cpp:148] Top shape: 24 64 14 14 (301056)
I0403 19:47:36.482149  9677 net.cpp:156] Memory required for data: 1135267104
I0403 19:47:36.482168  9677 layer_factory.hpp:77] Creating layer inception_4d/pool
I0403 19:47:36.482192  9677 net.cpp:91] Creating Layer inception_4d/pool
I0403 19:47:36.482211  9677 net.cpp:425] inception_4d/pool <- inception_4c/output_inception_4c/output_0_split_3
I0403 19:47:36.482237  9677 net.cpp:399] inception_4d/pool -> inception_4d/pool
I0403 19:47:36.482321  9677 net.cpp:141] Setting up inception_4d/pool
I0403 19:47:36.482349  9677 net.cpp:148] Top shape: 24 512 14 14 (2408448)
I0403 19:47:36.482368  9677 net.cpp:156] Memory required for data: 1144900896
I0403 19:47:36.482386  9677 layer_factory.hpp:77] Creating layer inception_4d/pool_proj
I0403 19:47:36.482414  9677 net.cpp:91] Creating Layer inception_4d/pool_proj
I0403 19:47:36.482435  9677 net.cpp:425] inception_4d/pool_proj <- inception_4d/pool
I0403 19:47:36.482475  9677 net.cpp:399] inception_4d/pool_proj -> inception_4d/pool_proj
I0403 19:47:36.484648  9677 net.cpp:141] Setting up inception_4d/pool_proj
I0403 19:47:36.484684  9677 net.cpp:148] Top shape: 24 64 14 14 (301056)
I0403 19:47:36.484704  9677 net.cpp:156] Memory required for data: 1146105120
I0403 19:47:36.484726  9677 layer_factory.hpp:77] Creating layer inception_4d/relu_pool_proj
I0403 19:47:36.484751  9677 net.cpp:91] Creating Layer inception_4d/relu_pool_proj
I0403 19:47:36.484772  9677 net.cpp:425] inception_4d/relu_pool_proj <- inception_4d/pool_proj
I0403 19:47:36.484794  9677 net.cpp:386] inception_4d/relu_pool_proj -> inception_4d/pool_proj (in-place)
I0403 19:47:36.485029  9677 net.cpp:141] Setting up inception_4d/relu_pool_proj
I0403 19:47:36.485064  9677 net.cpp:148] Top shape: 24 64 14 14 (301056)
I0403 19:47:36.485083  9677 net.cpp:156] Memory required for data: 1147309344
I0403 19:47:36.485101  9677 layer_factory.hpp:77] Creating layer inception_4d/output
I0403 19:47:36.485122  9677 net.cpp:91] Creating Layer inception_4d/output
I0403 19:47:36.485142  9677 net.cpp:425] inception_4d/output <- inception_4d/1x1
I0403 19:47:36.485162  9677 net.cpp:425] inception_4d/output <- inception_4d/3x3
I0403 19:47:36.485183  9677 net.cpp:425] inception_4d/output <- inception_4d/5x5
I0403 19:47:36.485203  9677 net.cpp:425] inception_4d/output <- inception_4d/pool_proj
I0403 19:47:36.485222  9677 net.cpp:399] inception_4d/output -> inception_4d/output
I0403 19:47:36.485285  9677 net.cpp:141] Setting up inception_4d/output
I0403 19:47:36.485314  9677 net.cpp:148] Top shape: 24 528 14 14 (2483712)
I0403 19:47:36.485332  9677 net.cpp:156] Memory required for data: 1157244192
I0403 19:47:36.485350  9677 layer_factory.hpp:77] Creating layer inception_4d/output_inception_4d/output_0_split
I0403 19:47:36.485374  9677 net.cpp:91] Creating Layer inception_4d/output_inception_4d/output_0_split
I0403 19:47:36.485394  9677 net.cpp:425] inception_4d/output_inception_4d/output_0_split <- inception_4d/output
I0403 19:47:36.485416  9677 net.cpp:399] inception_4d/output_inception_4d/output_0_split -> inception_4d/output_inception_4d/output_0_split_0
I0403 19:47:36.485442  9677 net.cpp:399] inception_4d/output_inception_4d/output_0_split -> inception_4d/output_inception_4d/output_0_split_1
I0403 19:47:36.485481  9677 net.cpp:399] inception_4d/output_inception_4d/output_0_split -> inception_4d/output_inception_4d/output_0_split_2
I0403 19:47:36.485513  9677 net.cpp:399] inception_4d/output_inception_4d/output_0_split -> inception_4d/output_inception_4d/output_0_split_3
I0403 19:47:36.485541  9677 net.cpp:399] inception_4d/output_inception_4d/output_0_split -> inception_4d/output_inception_4d/output_0_split_4
I0403 19:47:36.485671  9677 net.cpp:141] Setting up inception_4d/output_inception_4d/output_0_split
I0403 19:47:36.485716  9677 net.cpp:148] Top shape: 24 528 14 14 (2483712)
I0403 19:47:36.485738  9677 net.cpp:148] Top shape: 24 528 14 14 (2483712)
I0403 19:47:36.485756  9677 net.cpp:148] Top shape: 24 528 14 14 (2483712)
I0403 19:47:36.485775  9677 net.cpp:148] Top shape: 24 528 14 14 (2483712)
I0403 19:47:36.485795  9677 net.cpp:148] Top shape: 24 528 14 14 (2483712)
I0403 19:47:36.485811  9677 net.cpp:156] Memory required for data: 1206918432
I0403 19:47:36.485831  9677 layer_factory.hpp:77] Creating layer loss2/ave_pool
I0403 19:47:36.485855  9677 net.cpp:91] Creating Layer loss2/ave_pool
I0403 19:47:36.485875  9677 net.cpp:425] loss2/ave_pool <- inception_4d/output_inception_4d/output_0_split_0
I0403 19:47:36.485898  9677 net.cpp:399] loss2/ave_pool -> loss2/ave_pool
I0403 19:47:36.486276  9677 net.cpp:141] Setting up loss2/ave_pool
I0403 19:47:36.486310  9677 net.cpp:148] Top shape: 24 528 4 4 (202752)
I0403 19:47:36.486328  9677 net.cpp:156] Memory required for data: 1207729440
I0403 19:47:36.486347  9677 layer_factory.hpp:77] Creating layer loss2/conv
I0403 19:47:36.486374  9677 net.cpp:91] Creating Layer loss2/conv
I0403 19:47:36.486397  9677 net.cpp:425] loss2/conv <- loss2/ave_pool
I0403 19:47:36.486423  9677 net.cpp:399] loss2/conv -> loss2/conv
I0403 19:47:36.488754  9677 net.cpp:141] Setting up loss2/conv
I0403 19:47:36.488795  9677 net.cpp:148] Top shape: 24 128 4 4 (49152)
I0403 19:47:36.488814  9677 net.cpp:156] Memory required for data: 1207926048
I0403 19:47:36.488837  9677 layer_factory.hpp:77] Creating layer loss2/relu_conv
I0403 19:47:36.488859  9677 net.cpp:91] Creating Layer loss2/relu_conv
I0403 19:47:36.488879  9677 net.cpp:425] loss2/relu_conv <- loss2/conv
I0403 19:47:36.488903  9677 net.cpp:386] loss2/relu_conv -> loss2/conv (in-place)
I0403 19:47:36.489344  9677 net.cpp:141] Setting up loss2/relu_conv
I0403 19:47:36.489380  9677 net.cpp:148] Top shape: 24 128 4 4 (49152)
I0403 19:47:36.489399  9677 net.cpp:156] Memory required for data: 1208122656
I0403 19:47:36.489418  9677 layer_factory.hpp:77] Creating layer loss2/fc
I0403 19:47:36.489442  9677 net.cpp:91] Creating Layer loss2/fc
I0403 19:47:36.489467  9677 net.cpp:425] loss2/fc <- loss2/conv
I0403 19:47:36.489495  9677 net.cpp:399] loss2/fc -> loss2/fc
I0403 19:47:36.511333  9677 net.cpp:141] Setting up loss2/fc
I0403 19:47:36.511376  9677 net.cpp:148] Top shape: 24 1024 (24576)
I0403 19:47:36.511396  9677 net.cpp:156] Memory required for data: 1208220960
I0403 19:47:36.511420  9677 layer_factory.hpp:77] Creating layer loss2/relu_fc
I0403 19:47:36.511442  9677 net.cpp:91] Creating Layer loss2/relu_fc
I0403 19:47:36.511467  9677 net.cpp:425] loss2/relu_fc <- loss2/fc
I0403 19:47:36.511490  9677 net.cpp:386] loss2/relu_fc -> loss2/fc (in-place)
I0403 19:47:36.511868  9677 net.cpp:141] Setting up loss2/relu_fc
I0403 19:47:36.511901  9677 net.cpp:148] Top shape: 24 1024 (24576)
I0403 19:47:36.511919  9677 net.cpp:156] Memory required for data: 1208319264
I0403 19:47:36.511937  9677 layer_factory.hpp:77] Creating layer loss2/drop_fc
I0403 19:47:36.511962  9677 net.cpp:91] Creating Layer loss2/drop_fc
I0403 19:47:36.511983  9677 net.cpp:425] loss2/drop_fc <- loss2/fc
I0403 19:47:36.512006  9677 net.cpp:386] loss2/drop_fc -> loss2/fc (in-place)
I0403 19:47:36.512068  9677 net.cpp:141] Setting up loss2/drop_fc
I0403 19:47:36.512099  9677 net.cpp:148] Top shape: 24 1024 (24576)
I0403 19:47:36.512116  9677 net.cpp:156] Memory required for data: 1208417568
I0403 19:47:36.512135  9677 layer_factory.hpp:77] Creating layer loss2/classifier_plantvillage
I0403 19:47:36.512159  9677 net.cpp:91] Creating Layer loss2/classifier_plantvillage
I0403 19:47:36.512181  9677 net.cpp:425] loss2/classifier_plantvillage <- loss2/fc
I0403 19:47:36.512203  9677 net.cpp:399] loss2/classifier_plantvillage -> loss2/classifier_plantvillage
I0403 19:47:36.512717  9677 net.cpp:141] Setting up loss2/classifier_plantvillage
I0403 19:47:36.512748  9677 net.cpp:148] Top shape: 24 38 (912)
I0403 19:47:36.512766  9677 net.cpp:156] Memory required for data: 1208421216
I0403 19:47:36.512809  9677 layer_factory.hpp:77] Creating layer loss2/classifier_plantvillage_loss2/classifier_plantvillage_0_split
I0403 19:47:36.512831  9677 net.cpp:91] Creating Layer loss2/classifier_plantvillage_loss2/classifier_plantvillage_0_split
I0403 19:47:36.512851  9677 net.cpp:425] loss2/classifier_plantvillage_loss2/classifier_plantvillage_0_split <- loss2/classifier_plantvillage
I0403 19:47:36.512876  9677 net.cpp:399] loss2/classifier_plantvillage_loss2/classifier_plantvillage_0_split -> loss2/classifier_plantvillage_loss2/classifier_plantvillage_0_split_0
I0403 19:47:36.512903  9677 net.cpp:399] loss2/classifier_plantvillage_loss2/classifier_plantvillage_0_split -> loss2/classifier_plantvillage_loss2/classifier_plantvillage_0_split_1
I0403 19:47:36.512928  9677 net.cpp:399] loss2/classifier_plantvillage_loss2/classifier_plantvillage_0_split -> loss2/classifier_plantvillage_loss2/classifier_plantvillage_0_split_2
I0403 19:47:36.513025  9677 net.cpp:141] Setting up loss2/classifier_plantvillage_loss2/classifier_plantvillage_0_split
I0403 19:47:36.513057  9677 net.cpp:148] Top shape: 24 38 (912)
I0403 19:47:36.513077  9677 net.cpp:148] Top shape: 24 38 (912)
I0403 19:47:36.513097  9677 net.cpp:148] Top shape: 24 38 (912)
I0403 19:47:36.513114  9677 net.cpp:156] Memory required for data: 1208432160
I0403 19:47:36.513133  9677 layer_factory.hpp:77] Creating layer inception_4e/1x1
I0403 19:47:36.513159  9677 net.cpp:91] Creating Layer inception_4e/1x1
I0403 19:47:36.513182  9677 net.cpp:425] inception_4e/1x1 <- inception_4d/output_inception_4d/output_0_split_1
I0403 19:47:36.513206  9677 net.cpp:399] inception_4e/1x1 -> inception_4e/1x1
I0403 19:47:36.515447  9677 net.cpp:141] Setting up inception_4e/1x1
I0403 19:47:36.515491  9677 net.cpp:148] Top shape: 24 256 14 14 (1204224)
I0403 19:47:36.515511  9677 net.cpp:156] Memory required for data: 1213249056
I0403 19:47:36.515534  9677 layer_factory.hpp:77] Creating layer inception_4e/relu_1x1
I0403 19:47:36.515557  9677 net.cpp:91] Creating Layer inception_4e/relu_1x1
I0403 19:47:36.515575  9677 net.cpp:425] inception_4e/relu_1x1 <- inception_4e/1x1
I0403 19:47:36.515599  9677 net.cpp:386] inception_4e/relu_1x1 -> inception_4e/1x1 (in-place)
I0403 19:47:36.515956  9677 net.cpp:141] Setting up inception_4e/relu_1x1
I0403 19:47:36.515992  9677 net.cpp:148] Top shape: 24 256 14 14 (1204224)
I0403 19:47:36.516012  9677 net.cpp:156] Memory required for data: 1218065952
I0403 19:47:36.516031  9677 layer_factory.hpp:77] Creating layer inception_4e/3x3_reduce
I0403 19:47:36.516058  9677 net.cpp:91] Creating Layer inception_4e/3x3_reduce
I0403 19:47:36.516079  9677 net.cpp:425] inception_4e/3x3_reduce <- inception_4d/output_inception_4d/output_0_split_2
I0403 19:47:36.516103  9677 net.cpp:399] inception_4e/3x3_reduce -> inception_4e/3x3_reduce
I0403 19:47:36.518678  9677 net.cpp:141] Setting up inception_4e/3x3_reduce
I0403 19:47:36.518718  9677 net.cpp:148] Top shape: 24 160 14 14 (752640)
I0403 19:47:36.518740  9677 net.cpp:156] Memory required for data: 1221076512
I0403 19:47:36.518764  9677 layer_factory.hpp:77] Creating layer inception_4e/relu_3x3_reduce
I0403 19:47:36.518785  9677 net.cpp:91] Creating Layer inception_4e/relu_3x3_reduce
I0403 19:47:36.518805  9677 net.cpp:425] inception_4e/relu_3x3_reduce <- inception_4e/3x3_reduce
I0403 19:47:36.518826  9677 net.cpp:386] inception_4e/relu_3x3_reduce -> inception_4e/3x3_reduce (in-place)
I0403 19:47:36.519059  9677 net.cpp:141] Setting up inception_4e/relu_3x3_reduce
I0403 19:47:36.519090  9677 net.cpp:148] Top shape: 24 160 14 14 (752640)
I0403 19:47:36.519109  9677 net.cpp:156] Memory required for data: 1224087072
I0403 19:47:36.519126  9677 layer_factory.hpp:77] Creating layer inception_4e/3x3
I0403 19:47:36.519152  9677 net.cpp:91] Creating Layer inception_4e/3x3
I0403 19:47:36.519175  9677 net.cpp:425] inception_4e/3x3 <- inception_4e/3x3_reduce
I0403 19:47:36.519201  9677 net.cpp:399] inception_4e/3x3 -> inception_4e/3x3
I0403 19:47:36.525413  9677 net.cpp:141] Setting up inception_4e/3x3
I0403 19:47:36.525468  9677 net.cpp:148] Top shape: 24 320 14 14 (1505280)
I0403 19:47:36.525490  9677 net.cpp:156] Memory required for data: 1230108192
I0403 19:47:36.525513  9677 layer_factory.hpp:77] Creating layer inception_4e/relu_3x3
I0403 19:47:36.525537  9677 net.cpp:91] Creating Layer inception_4e/relu_3x3
I0403 19:47:36.525562  9677 net.cpp:425] inception_4e/relu_3x3 <- inception_4e/3x3
I0403 19:47:36.525583  9677 net.cpp:386] inception_4e/relu_3x3 -> inception_4e/3x3 (in-place)
I0403 19:47:36.525949  9677 net.cpp:141] Setting up inception_4e/relu_3x3
I0403 19:47:36.525981  9677 net.cpp:148] Top shape: 24 320 14 14 (1505280)
I0403 19:47:36.526000  9677 net.cpp:156] Memory required for data: 1236129312
I0403 19:47:36.526018  9677 layer_factory.hpp:77] Creating layer inception_4e/5x5_reduce
I0403 19:47:36.526046  9677 net.cpp:91] Creating Layer inception_4e/5x5_reduce
I0403 19:47:36.526067  9677 net.cpp:425] inception_4e/5x5_reduce <- inception_4d/output_inception_4d/output_0_split_3
I0403 19:47:36.526094  9677 net.cpp:399] inception_4e/5x5_reduce -> inception_4e/5x5_reduce
I0403 19:47:36.527441  9677 net.cpp:141] Setting up inception_4e/5x5_reduce
I0403 19:47:36.527484  9677 net.cpp:148] Top shape: 24 32 14 14 (150528)
I0403 19:47:36.527506  9677 net.cpp:156] Memory required for data: 1236731424
I0403 19:47:36.527529  9677 layer_factory.hpp:77] Creating layer inception_4e/relu_5x5_reduce
I0403 19:47:36.527550  9677 net.cpp:91] Creating Layer inception_4e/relu_5x5_reduce
I0403 19:47:36.527571  9677 net.cpp:425] inception_4e/relu_5x5_reduce <- inception_4e/5x5_reduce
I0403 19:47:36.527595  9677 net.cpp:386] inception_4e/relu_5x5_reduce -> inception_4e/5x5_reduce (in-place)
I0403 19:47:36.527966  9677 net.cpp:141] Setting up inception_4e/relu_5x5_reduce
I0403 19:47:36.528002  9677 net.cpp:148] Top shape: 24 32 14 14 (150528)
I0403 19:47:36.528020  9677 net.cpp:156] Memory required for data: 1237333536
I0403 19:47:36.528039  9677 layer_factory.hpp:77] Creating layer inception_4e/5x5
I0403 19:47:36.528090  9677 net.cpp:91] Creating Layer inception_4e/5x5
I0403 19:47:36.528112  9677 net.cpp:425] inception_4e/5x5 <- inception_4e/5x5_reduce
I0403 19:47:36.528136  9677 net.cpp:399] inception_4e/5x5 -> inception_4e/5x5
I0403 19:47:36.530397  9677 net.cpp:141] Setting up inception_4e/5x5
I0403 19:47:36.530432  9677 net.cpp:148] Top shape: 24 128 14 14 (602112)
I0403 19:47:36.530452  9677 net.cpp:156] Memory required for data: 1239741984
I0403 19:47:36.530480  9677 layer_factory.hpp:77] Creating layer inception_4e/relu_5x5
I0403 19:47:36.530506  9677 net.cpp:91] Creating Layer inception_4e/relu_5x5
I0403 19:47:36.530529  9677 net.cpp:425] inception_4e/relu_5x5 <- inception_4e/5x5
I0403 19:47:36.530561  9677 net.cpp:386] inception_4e/relu_5x5 -> inception_4e/5x5 (in-place)
I0403 19:47:36.530800  9677 net.cpp:141] Setting up inception_4e/relu_5x5
I0403 19:47:36.530834  9677 net.cpp:148] Top shape: 24 128 14 14 (602112)
I0403 19:47:36.530853  9677 net.cpp:156] Memory required for data: 1242150432
I0403 19:47:36.530870  9677 layer_factory.hpp:77] Creating layer inception_4e/pool
I0403 19:47:36.530892  9677 net.cpp:91] Creating Layer inception_4e/pool
I0403 19:47:36.530912  9677 net.cpp:425] inception_4e/pool <- inception_4d/output_inception_4d/output_0_split_4
I0403 19:47:36.530936  9677 net.cpp:399] inception_4e/pool -> inception_4e/pool
I0403 19:47:36.531023  9677 net.cpp:141] Setting up inception_4e/pool
I0403 19:47:36.531052  9677 net.cpp:148] Top shape: 24 528 14 14 (2483712)
I0403 19:47:36.531070  9677 net.cpp:156] Memory required for data: 1252085280
I0403 19:47:36.531087  9677 layer_factory.hpp:77] Creating layer inception_4e/pool_proj
I0403 19:47:36.531116  9677 net.cpp:91] Creating Layer inception_4e/pool_proj
I0403 19:47:36.531137  9677 net.cpp:425] inception_4e/pool_proj <- inception_4e/pool
I0403 19:47:36.531162  9677 net.cpp:399] inception_4e/pool_proj -> inception_4e/pool_proj
I0403 19:47:36.533016  9677 net.cpp:141] Setting up inception_4e/pool_proj
I0403 19:47:36.533051  9677 net.cpp:148] Top shape: 24 128 14 14 (602112)
I0403 19:47:36.533087  9677 net.cpp:156] Memory required for data: 1254493728
I0403 19:47:36.533113  9677 layer_factory.hpp:77] Creating layer inception_4e/relu_pool_proj
I0403 19:47:36.533138  9677 net.cpp:91] Creating Layer inception_4e/relu_pool_proj
I0403 19:47:36.533159  9677 net.cpp:425] inception_4e/relu_pool_proj <- inception_4e/pool_proj
I0403 19:47:36.533180  9677 net.cpp:386] inception_4e/relu_pool_proj -> inception_4e/pool_proj (in-place)
I0403 19:47:36.533540  9677 net.cpp:141] Setting up inception_4e/relu_pool_proj
I0403 19:47:36.533572  9677 net.cpp:148] Top shape: 24 128 14 14 (602112)
I0403 19:47:36.533591  9677 net.cpp:156] Memory required for data: 1256902176
I0403 19:47:36.533609  9677 layer_factory.hpp:77] Creating layer inception_4e/output
I0403 19:47:36.533633  9677 net.cpp:91] Creating Layer inception_4e/output
I0403 19:47:36.533653  9677 net.cpp:425] inception_4e/output <- inception_4e/1x1
I0403 19:47:36.533674  9677 net.cpp:425] inception_4e/output <- inception_4e/3x3
I0403 19:47:36.533694  9677 net.cpp:425] inception_4e/output <- inception_4e/5x5
I0403 19:47:36.533712  9677 net.cpp:425] inception_4e/output <- inception_4e/pool_proj
I0403 19:47:36.533733  9677 net.cpp:399] inception_4e/output -> inception_4e/output
I0403 19:47:36.533795  9677 net.cpp:141] Setting up inception_4e/output
I0403 19:47:36.533825  9677 net.cpp:148] Top shape: 24 832 14 14 (3913728)
I0403 19:47:36.533843  9677 net.cpp:156] Memory required for data: 1272557088
I0403 19:47:36.533862  9677 layer_factory.hpp:77] Creating layer pool4/3x3_s2
I0403 19:47:36.533885  9677 net.cpp:91] Creating Layer pool4/3x3_s2
I0403 19:47:36.533905  9677 net.cpp:425] pool4/3x3_s2 <- inception_4e/output
I0403 19:47:36.533932  9677 net.cpp:399] pool4/3x3_s2 -> pool4/3x3_s2
I0403 19:47:36.534015  9677 net.cpp:141] Setting up pool4/3x3_s2
I0403 19:47:36.534045  9677 net.cpp:148] Top shape: 24 832 7 7 (978432)
I0403 19:47:36.534063  9677 net.cpp:156] Memory required for data: 1276470816
I0403 19:47:36.534081  9677 layer_factory.hpp:77] Creating layer pool4/3x3_s2_pool4/3x3_s2_0_split
I0403 19:47:36.534106  9677 net.cpp:91] Creating Layer pool4/3x3_s2_pool4/3x3_s2_0_split
I0403 19:47:36.534127  9677 net.cpp:425] pool4/3x3_s2_pool4/3x3_s2_0_split <- pool4/3x3_s2
I0403 19:47:36.534152  9677 net.cpp:399] pool4/3x3_s2_pool4/3x3_s2_0_split -> pool4/3x3_s2_pool4/3x3_s2_0_split_0
I0403 19:47:36.534178  9677 net.cpp:399] pool4/3x3_s2_pool4/3x3_s2_0_split -> pool4/3x3_s2_pool4/3x3_s2_0_split_1
I0403 19:47:36.534204  9677 net.cpp:399] pool4/3x3_s2_pool4/3x3_s2_0_split -> pool4/3x3_s2_pool4/3x3_s2_0_split_2
I0403 19:47:36.534229  9677 net.cpp:399] pool4/3x3_s2_pool4/3x3_s2_0_split -> pool4/3x3_s2_pool4/3x3_s2_0_split_3
I0403 19:47:36.534342  9677 net.cpp:141] Setting up pool4/3x3_s2_pool4/3x3_s2_0_split
I0403 19:47:36.534371  9677 net.cpp:148] Top shape: 24 832 7 7 (978432)
I0403 19:47:36.534391  9677 net.cpp:148] Top shape: 24 832 7 7 (978432)
I0403 19:47:36.534410  9677 net.cpp:148] Top shape: 24 832 7 7 (978432)
I0403 19:47:36.534430  9677 net.cpp:148] Top shape: 24 832 7 7 (978432)
I0403 19:47:36.534446  9677 net.cpp:156] Memory required for data: 1292125728
I0403 19:47:36.534469  9677 layer_factory.hpp:77] Creating layer inception_5a/1x1
I0403 19:47:36.534498  9677 net.cpp:91] Creating Layer inception_5a/1x1
I0403 19:47:36.534519  9677 net.cpp:425] inception_5a/1x1 <- pool4/3x3_s2_pool4/3x3_s2_0_split_0
I0403 19:47:36.534549  9677 net.cpp:399] inception_5a/1x1 -> inception_5a/1x1
I0403 19:47:36.538048  9677 net.cpp:141] Setting up inception_5a/1x1
I0403 19:47:36.538089  9677 net.cpp:148] Top shape: 24 256 7 7 (301056)
I0403 19:47:36.538110  9677 net.cpp:156] Memory required for data: 1293329952
I0403 19:47:36.538132  9677 layer_factory.hpp:77] Creating layer inception_5a/relu_1x1
I0403 19:47:36.538154  9677 net.cpp:91] Creating Layer inception_5a/relu_1x1
I0403 19:47:36.538173  9677 net.cpp:425] inception_5a/relu_1x1 <- inception_5a/1x1
I0403 19:47:36.538194  9677 net.cpp:386] inception_5a/relu_1x1 -> inception_5a/1x1 (in-place)
I0403 19:47:36.538590  9677 net.cpp:141] Setting up inception_5a/relu_1x1
I0403 19:47:36.538625  9677 net.cpp:148] Top shape: 24 256 7 7 (301056)
I0403 19:47:36.538645  9677 net.cpp:156] Memory required for data: 1294534176
I0403 19:47:36.538664  9677 layer_factory.hpp:77] Creating layer inception_5a/3x3_reduce
I0403 19:47:36.538691  9677 net.cpp:91] Creating Layer inception_5a/3x3_reduce
I0403 19:47:36.538713  9677 net.cpp:425] inception_5a/3x3_reduce <- pool4/3x3_s2_pool4/3x3_s2_0_split_1
I0403 19:47:36.538736  9677 net.cpp:399] inception_5a/3x3_reduce -> inception_5a/3x3_reduce
I0403 19:47:36.541757  9677 net.cpp:141] Setting up inception_5a/3x3_reduce
I0403 19:47:36.541795  9677 net.cpp:148] Top shape: 24 160 7 7 (188160)
I0403 19:47:36.541815  9677 net.cpp:156] Memory required for data: 1295286816
I0403 19:47:36.541837  9677 layer_factory.hpp:77] Creating layer inception_5a/relu_3x3_reduce
I0403 19:47:36.541862  9677 net.cpp:91] Creating Layer inception_5a/relu_3x3_reduce
I0403 19:47:36.541882  9677 net.cpp:425] inception_5a/relu_3x3_reduce <- inception_5a/3x3_reduce
I0403 19:47:36.541903  9677 net.cpp:386] inception_5a/relu_3x3_reduce -> inception_5a/3x3_reduce (in-place)
I0403 19:47:36.542136  9677 net.cpp:141] Setting up inception_5a/relu_3x3_reduce
I0403 19:47:36.542167  9677 net.cpp:148] Top shape: 24 160 7 7 (188160)
I0403 19:47:36.542188  9677 net.cpp:156] Memory required for data: 1296039456
I0403 19:47:36.542207  9677 layer_factory.hpp:77] Creating layer inception_5a/3x3
I0403 19:47:36.542233  9677 net.cpp:91] Creating Layer inception_5a/3x3
I0403 19:47:36.542263  9677 net.cpp:425] inception_5a/3x3 <- inception_5a/3x3_reduce
I0403 19:47:36.542290  9677 net.cpp:399] inception_5a/3x3 -> inception_5a/3x3
I0403 19:47:36.548521  9677 net.cpp:141] Setting up inception_5a/3x3
I0403 19:47:36.548558  9677 net.cpp:148] Top shape: 24 320 7 7 (376320)
I0403 19:47:36.548578  9677 net.cpp:156] Memory required for data: 1297544736
I0403 19:47:36.548600  9677 layer_factory.hpp:77] Creating layer inception_5a/relu_3x3
I0403 19:47:36.548626  9677 net.cpp:91] Creating Layer inception_5a/relu_3x3
I0403 19:47:36.548647  9677 net.cpp:425] inception_5a/relu_3x3 <- inception_5a/3x3
I0403 19:47:36.548669  9677 net.cpp:386] inception_5a/relu_3x3 -> inception_5a/3x3 (in-place)
I0403 19:47:36.549029  9677 net.cpp:141] Setting up inception_5a/relu_3x3
I0403 19:47:36.549062  9677 net.cpp:148] Top shape: 24 320 7 7 (376320)
I0403 19:47:36.549080  9677 net.cpp:156] Memory required for data: 1299050016
I0403 19:47:36.549098  9677 layer_factory.hpp:77] Creating layer inception_5a/5x5_reduce
I0403 19:47:36.549129  9677 net.cpp:91] Creating Layer inception_5a/5x5_reduce
I0403 19:47:36.549152  9677 net.cpp:425] inception_5a/5x5_reduce <- pool4/3x3_s2_pool4/3x3_s2_0_split_2
I0403 19:47:36.549175  9677 net.cpp:399] inception_5a/5x5_reduce -> inception_5a/5x5_reduce
I0403 19:47:36.550640  9677 net.cpp:141] Setting up inception_5a/5x5_reduce
I0403 19:47:36.550678  9677 net.cpp:148] Top shape: 24 32 7 7 (37632)
I0403 19:47:36.550698  9677 net.cpp:156] Memory required for data: 1299200544
I0403 19:47:36.550720  9677 layer_factory.hpp:77] Creating layer inception_5a/relu_5x5_reduce
I0403 19:47:36.550742  9677 net.cpp:91] Creating Layer inception_5a/relu_5x5_reduce
I0403 19:47:36.550762  9677 net.cpp:425] inception_5a/relu_5x5_reduce <- inception_5a/5x5_reduce
I0403 19:47:36.550783  9677 net.cpp:386] inception_5a/relu_5x5_reduce -> inception_5a/5x5_reduce (in-place)
I0403 19:47:36.551147  9677 net.cpp:141] Setting up inception_5a/relu_5x5_reduce
I0403 19:47:36.551185  9677 net.cpp:148] Top shape: 24 32 7 7 (37632)
I0403 19:47:36.551205  9677 net.cpp:156] Memory required for data: 1299351072
I0403 19:47:36.551224  9677 layer_factory.hpp:77] Creating layer inception_5a/5x5
I0403 19:47:36.551251  9677 net.cpp:91] Creating Layer inception_5a/5x5
I0403 19:47:36.551272  9677 net.cpp:425] inception_5a/5x5 <- inception_5a/5x5_reduce
I0403 19:47:36.551297  9677 net.cpp:399] inception_5a/5x5 -> inception_5a/5x5
I0403 19:47:36.553557  9677 net.cpp:141] Setting up inception_5a/5x5
I0403 19:47:36.553608  9677 net.cpp:148] Top shape: 24 128 7 7 (150528)
I0403 19:47:36.553629  9677 net.cpp:156] Memory required for data: 1299953184
I0403 19:47:36.553653  9677 layer_factory.hpp:77] Creating layer inception_5a/relu_5x5
I0403 19:47:36.553679  9677 net.cpp:91] Creating Layer inception_5a/relu_5x5
I0403 19:47:36.553701  9677 net.cpp:425] inception_5a/relu_5x5 <- inception_5a/5x5
I0403 19:47:36.553722  9677 net.cpp:386] inception_5a/relu_5x5 -> inception_5a/5x5 (in-place)
I0403 19:47:36.553958  9677 net.cpp:141] Setting up inception_5a/relu_5x5
I0403 19:47:36.553989  9677 net.cpp:148] Top shape: 24 128 7 7 (150528)
I0403 19:47:36.554008  9677 net.cpp:156] Memory required for data: 1300555296
I0403 19:47:36.554026  9677 layer_factory.hpp:77] Creating layer inception_5a/pool
I0403 19:47:36.554047  9677 net.cpp:91] Creating Layer inception_5a/pool
I0403 19:47:36.554066  9677 net.cpp:425] inception_5a/pool <- pool4/3x3_s2_pool4/3x3_s2_0_split_3
I0403 19:47:36.554092  9677 net.cpp:399] inception_5a/pool -> inception_5a/pool
I0403 19:47:36.554180  9677 net.cpp:141] Setting up inception_5a/pool
I0403 19:47:36.554210  9677 net.cpp:148] Top shape: 24 832 7 7 (978432)
I0403 19:47:36.554229  9677 net.cpp:156] Memory required for data: 1304469024
I0403 19:47:36.554246  9677 layer_factory.hpp:77] Creating layer inception_5a/pool_proj
I0403 19:47:36.554276  9677 net.cpp:91] Creating Layer inception_5a/pool_proj
I0403 19:47:36.554298  9677 net.cpp:425] inception_5a/pool_proj <- inception_5a/pool
I0403 19:47:36.554322  9677 net.cpp:399] inception_5a/pool_proj -> inception_5a/pool_proj
I0403 19:47:36.557145  9677 net.cpp:141] Setting up inception_5a/pool_proj
I0403 19:47:36.557181  9677 net.cpp:148] Top shape: 24 128 7 7 (150528)
I0403 19:47:36.557201  9677 net.cpp:156] Memory required for data: 1305071136
I0403 19:47:36.557224  9677 layer_factory.hpp:77] Creating layer inception_5a/relu_pool_proj
I0403 19:47:36.557250  9677 net.cpp:91] Creating Layer inception_5a/relu_pool_proj
I0403 19:47:36.557271  9677 net.cpp:425] inception_5a/relu_pool_proj <- inception_5a/pool_proj
I0403 19:47:36.557291  9677 net.cpp:386] inception_5a/relu_pool_proj -> inception_5a/pool_proj (in-place)
I0403 19:47:36.557667  9677 net.cpp:141] Setting up inception_5a/relu_pool_proj
I0403 19:47:36.557701  9677 net.cpp:148] Top shape: 24 128 7 7 (150528)
I0403 19:47:36.557719  9677 net.cpp:156] Memory required for data: 1305673248
I0403 19:47:36.557737  9677 layer_factory.hpp:77] Creating layer inception_5a/output
I0403 19:47:36.557761  9677 net.cpp:91] Creating Layer inception_5a/output
I0403 19:47:36.557781  9677 net.cpp:425] inception_5a/output <- inception_5a/1x1
I0403 19:47:36.557802  9677 net.cpp:425] inception_5a/output <- inception_5a/3x3
I0403 19:47:36.557822  9677 net.cpp:425] inception_5a/output <- inception_5a/5x5
I0403 19:47:36.557843  9677 net.cpp:425] inception_5a/output <- inception_5a/pool_proj
I0403 19:47:36.557863  9677 net.cpp:399] inception_5a/output -> inception_5a/output
I0403 19:47:36.557927  9677 net.cpp:141] Setting up inception_5a/output
I0403 19:47:36.557955  9677 net.cpp:148] Top shape: 24 832 7 7 (978432)
I0403 19:47:36.557973  9677 net.cpp:156] Memory required for data: 1309586976
I0403 19:47:36.557991  9677 layer_factory.hpp:77] Creating layer inception_5a/output_inception_5a/output_0_split
I0403 19:47:36.558012  9677 net.cpp:91] Creating Layer inception_5a/output_inception_5a/output_0_split
I0403 19:47:36.558032  9677 net.cpp:425] inception_5a/output_inception_5a/output_0_split <- inception_5a/output
I0403 19:47:36.558055  9677 net.cpp:399] inception_5a/output_inception_5a/output_0_split -> inception_5a/output_inception_5a/output_0_split_0
I0403 19:47:36.558080  9677 net.cpp:399] inception_5a/output_inception_5a/output_0_split -> inception_5a/output_inception_5a/output_0_split_1
I0403 19:47:36.558106  9677 net.cpp:399] inception_5a/output_inception_5a/output_0_split -> inception_5a/output_inception_5a/output_0_split_2
I0403 19:47:36.558131  9677 net.cpp:399] inception_5a/output_inception_5a/output_0_split -> inception_5a/output_inception_5a/output_0_split_3
I0403 19:47:36.558269  9677 net.cpp:141] Setting up inception_5a/output_inception_5a/output_0_split
I0403 19:47:36.558301  9677 net.cpp:148] Top shape: 24 832 7 7 (978432)
I0403 19:47:36.558322  9677 net.cpp:148] Top shape: 24 832 7 7 (978432)
I0403 19:47:36.558341  9677 net.cpp:148] Top shape: 24 832 7 7 (978432)
I0403 19:47:36.558360  9677 net.cpp:148] Top shape: 24 832 7 7 (978432)
I0403 19:47:36.558377  9677 net.cpp:156] Memory required for data: 1325241888
I0403 19:47:36.558395  9677 layer_factory.hpp:77] Creating layer inception_5b/1x1
I0403 19:47:36.558423  9677 net.cpp:91] Creating Layer inception_5b/1x1
I0403 19:47:36.558445  9677 net.cpp:425] inception_5b/1x1 <- inception_5a/output_inception_5a/output_0_split_0
I0403 19:47:36.558473  9677 net.cpp:399] inception_5b/1x1 -> inception_5b/1x1
I0403 19:47:36.563105  9677 net.cpp:141] Setting up inception_5b/1x1
I0403 19:47:36.563145  9677 net.cpp:148] Top shape: 24 384 7 7 (451584)
I0403 19:47:36.563165  9677 net.cpp:156] Memory required for data: 1327048224
I0403 19:47:36.563187  9677 layer_factory.hpp:77] Creating layer inception_5b/relu_1x1
I0403 19:47:36.563212  9677 net.cpp:91] Creating Layer inception_5b/relu_1x1
I0403 19:47:36.563233  9677 net.cpp:425] inception_5b/relu_1x1 <- inception_5b/1x1
I0403 19:47:36.563256  9677 net.cpp:386] inception_5b/relu_1x1 -> inception_5b/1x1 (in-place)
I0403 19:47:36.563632  9677 net.cpp:141] Setting up inception_5b/relu_1x1
I0403 19:47:36.563664  9677 net.cpp:148] Top shape: 24 384 7 7 (451584)
I0403 19:47:36.563683  9677 net.cpp:156] Memory required for data: 1328854560
I0403 19:47:36.563701  9677 layer_factory.hpp:77] Creating layer inception_5b/3x3_reduce
I0403 19:47:36.563729  9677 net.cpp:91] Creating Layer inception_5b/3x3_reduce
I0403 19:47:36.563751  9677 net.cpp:425] inception_5b/3x3_reduce <- inception_5a/output_inception_5a/output_0_split_1
I0403 19:47:36.563782  9677 net.cpp:399] inception_5b/3x3_reduce -> inception_5b/3x3_reduce
I0403 19:47:36.567054  9677 net.cpp:141] Setting up inception_5b/3x3_reduce
I0403 19:47:36.567091  9677 net.cpp:148] Top shape: 24 192 7 7 (225792)
I0403 19:47:36.567111  9677 net.cpp:156] Memory required for data: 1329757728
I0403 19:47:36.567133  9677 layer_factory.hpp:77] Creating layer inception_5b/relu_3x3_reduce
I0403 19:47:36.567159  9677 net.cpp:91] Creating Layer inception_5b/relu_3x3_reduce
I0403 19:47:36.567179  9677 net.cpp:425] inception_5b/relu_3x3_reduce <- inception_5b/3x3_reduce
I0403 19:47:36.567201  9677 net.cpp:386] inception_5b/relu_3x3_reduce -> inception_5b/3x3_reduce (in-place)
I0403 19:47:36.567440  9677 net.cpp:141] Setting up inception_5b/relu_3x3_reduce
I0403 19:47:36.567477  9677 net.cpp:148] Top shape: 24 192 7 7 (225792)
I0403 19:47:36.567497  9677 net.cpp:156] Memory required for data: 1330660896
I0403 19:47:36.567517  9677 layer_factory.hpp:77] Creating layer inception_5b/3x3
I0403 19:47:36.567545  9677 net.cpp:91] Creating Layer inception_5b/3x3
I0403 19:47:36.567567  9677 net.cpp:425] inception_5b/3x3 <- inception_5b/3x3_reduce
I0403 19:47:36.567591  9677 net.cpp:399] inception_5b/3x3 -> inception_5b/3x3
I0403 19:47:36.575927  9677 net.cpp:141] Setting up inception_5b/3x3
I0403 19:47:36.575963  9677 net.cpp:148] Top shape: 24 384 7 7 (451584)
I0403 19:47:36.575983  9677 net.cpp:156] Memory required for data: 1332467232
I0403 19:47:36.576004  9677 layer_factory.hpp:77] Creating layer inception_5b/relu_3x3
I0403 19:47:36.576030  9677 net.cpp:91] Creating Layer inception_5b/relu_3x3
I0403 19:47:36.576050  9677 net.cpp:425] inception_5b/relu_3x3 <- inception_5b/3x3
I0403 19:47:36.576071  9677 net.cpp:386] inception_5b/relu_3x3 -> inception_5b/3x3 (in-place)
I0403 19:47:36.576437  9677 net.cpp:141] Setting up inception_5b/relu_3x3
I0403 19:47:36.576475  9677 net.cpp:148] Top shape: 24 384 7 7 (451584)
I0403 19:47:36.576494  9677 net.cpp:156] Memory required for data: 1334273568
I0403 19:47:36.576513  9677 layer_factory.hpp:77] Creating layer inception_5b/5x5_reduce
I0403 19:47:36.576558  9677 net.cpp:91] Creating Layer inception_5b/5x5_reduce
I0403 19:47:36.576582  9677 net.cpp:425] inception_5b/5x5_reduce <- inception_5a/output_inception_5a/output_0_split_2
I0403 19:47:36.576609  9677 net.cpp:399] inception_5b/5x5_reduce -> inception_5b/5x5_reduce
I0403 19:47:36.578202  9677 net.cpp:141] Setting up inception_5b/5x5_reduce
I0403 19:47:36.578236  9677 net.cpp:148] Top shape: 24 48 7 7 (56448)
I0403 19:47:36.578255  9677 net.cpp:156] Memory required for data: 1334499360
I0403 19:47:36.578277  9677 layer_factory.hpp:77] Creating layer inception_5b/relu_5x5_reduce
I0403 19:47:36.578302  9677 net.cpp:91] Creating Layer inception_5b/relu_5x5_reduce
I0403 19:47:36.578323  9677 net.cpp:425] inception_5b/relu_5x5_reduce <- inception_5b/5x5_reduce
I0403 19:47:36.578346  9677 net.cpp:386] inception_5b/relu_5x5_reduce -> inception_5b/5x5_reduce (in-place)
I0403 19:47:36.578804  9677 net.cpp:141] Setting up inception_5b/relu_5x5_reduce
I0403 19:47:36.578837  9677 net.cpp:148] Top shape: 24 48 7 7 (56448)
I0403 19:47:36.578855  9677 net.cpp:156] Memory required for data: 1334725152
I0403 19:47:36.578873  9677 layer_factory.hpp:77] Creating layer inception_5b/5x5
I0403 19:47:36.578897  9677 net.cpp:91] Creating Layer inception_5b/5x5
I0403 19:47:36.578918  9677 net.cpp:425] inception_5b/5x5 <- inception_5b/5x5_reduce
I0403 19:47:36.578941  9677 net.cpp:399] inception_5b/5x5 -> inception_5b/5x5
I0403 19:47:36.581490  9677 net.cpp:141] Setting up inception_5b/5x5
I0403 19:47:36.581527  9677 net.cpp:148] Top shape: 24 128 7 7 (150528)
I0403 19:47:36.581557  9677 net.cpp:156] Memory required for data: 1335327264
I0403 19:47:36.581579  9677 layer_factory.hpp:77] Creating layer inception_5b/relu_5x5
I0403 19:47:36.581601  9677 net.cpp:91] Creating Layer inception_5b/relu_5x5
I0403 19:47:36.581621  9677 net.cpp:425] inception_5b/relu_5x5 <- inception_5b/5x5
I0403 19:47:36.581642  9677 net.cpp:386] inception_5b/relu_5x5 -> inception_5b/5x5 (in-place)
I0403 19:47:36.581886  9677 net.cpp:141] Setting up inception_5b/relu_5x5
I0403 19:47:36.581919  9677 net.cpp:148] Top shape: 24 128 7 7 (150528)
I0403 19:47:36.581938  9677 net.cpp:156] Memory required for data: 1335929376
I0403 19:47:36.581956  9677 layer_factory.hpp:77] Creating layer inception_5b/pool
I0403 19:47:36.581984  9677 net.cpp:91] Creating Layer inception_5b/pool
I0403 19:47:36.582003  9677 net.cpp:425] inception_5b/pool <- inception_5a/output_inception_5a/output_0_split_3
I0403 19:47:36.582027  9677 net.cpp:399] inception_5b/pool -> inception_5b/pool
I0403 19:47:36.582118  9677 net.cpp:141] Setting up inception_5b/pool
I0403 19:47:36.582151  9677 net.cpp:148] Top shape: 24 832 7 7 (978432)
I0403 19:47:36.582170  9677 net.cpp:156] Memory required for data: 1339843104
I0403 19:47:36.582191  9677 layer_factory.hpp:77] Creating layer inception_5b/pool_proj
I0403 19:47:36.582218  9677 net.cpp:91] Creating Layer inception_5b/pool_proj
I0403 19:47:36.582239  9677 net.cpp:425] inception_5b/pool_proj <- inception_5b/pool
I0403 19:47:36.582263  9677 net.cpp:399] inception_5b/pool_proj -> inception_5b/pool_proj
I0403 19:47:36.585113  9677 net.cpp:141] Setting up inception_5b/pool_proj
I0403 19:47:36.585150  9677 net.cpp:148] Top shape: 24 128 7 7 (150528)
I0403 19:47:36.585170  9677 net.cpp:156] Memory required for data: 1340445216
I0403 19:47:36.585194  9677 layer_factory.hpp:77] Creating layer inception_5b/relu_pool_proj
I0403 19:47:36.585228  9677 net.cpp:91] Creating Layer inception_5b/relu_pool_proj
I0403 19:47:36.585249  9677 net.cpp:425] inception_5b/relu_pool_proj <- inception_5b/pool_proj
I0403 19:47:36.585271  9677 net.cpp:386] inception_5b/relu_pool_proj -> inception_5b/pool_proj (in-place)
I0403 19:47:36.585647  9677 net.cpp:141] Setting up inception_5b/relu_pool_proj
I0403 19:47:36.585680  9677 net.cpp:148] Top shape: 24 128 7 7 (150528)
I0403 19:47:36.585700  9677 net.cpp:156] Memory required for data: 1341047328
I0403 19:47:36.585718  9677 layer_factory.hpp:77] Creating layer inception_5b/output
I0403 19:47:36.585742  9677 net.cpp:91] Creating Layer inception_5b/output
I0403 19:47:36.585779  9677 net.cpp:425] inception_5b/output <- inception_5b/1x1
I0403 19:47:36.585803  9677 net.cpp:425] inception_5b/output <- inception_5b/3x3
I0403 19:47:36.585822  9677 net.cpp:425] inception_5b/output <- inception_5b/5x5
I0403 19:47:36.585842  9677 net.cpp:425] inception_5b/output <- inception_5b/pool_proj
I0403 19:47:36.585863  9677 net.cpp:399] inception_5b/output -> inception_5b/output
I0403 19:47:36.585929  9677 net.cpp:141] Setting up inception_5b/output
I0403 19:47:36.585958  9677 net.cpp:148] Top shape: 24 1024 7 7 (1204224)
I0403 19:47:36.585976  9677 net.cpp:156] Memory required for data: 1345864224
I0403 19:47:36.585995  9677 layer_factory.hpp:77] Creating layer pool5/7x7_s1
I0403 19:47:36.586016  9677 net.cpp:91] Creating Layer pool5/7x7_s1
I0403 19:47:36.586036  9677 net.cpp:425] pool5/7x7_s1 <- inception_5b/output
I0403 19:47:36.586061  9677 net.cpp:399] pool5/7x7_s1 -> pool5/7x7_s1
I0403 19:47:36.586330  9677 net.cpp:141] Setting up pool5/7x7_s1
I0403 19:47:36.586361  9677 net.cpp:148] Top shape: 24 1024 1 1 (24576)
I0403 19:47:36.586380  9677 net.cpp:156] Memory required for data: 1345962528
I0403 19:47:36.586397  9677 layer_factory.hpp:77] Creating layer pool5/drop_7x7_s1
I0403 19:47:36.586422  9677 net.cpp:91] Creating Layer pool5/drop_7x7_s1
I0403 19:47:36.586443  9677 net.cpp:425] pool5/drop_7x7_s1 <- pool5/7x7_s1
I0403 19:47:36.586470  9677 net.cpp:386] pool5/drop_7x7_s1 -> pool5/7x7_s1 (in-place)
I0403 19:47:36.586537  9677 net.cpp:141] Setting up pool5/drop_7x7_s1
I0403 19:47:36.586566  9677 net.cpp:148] Top shape: 24 1024 1 1 (24576)
I0403 19:47:36.586585  9677 net.cpp:156] Memory required for data: 1346060832
I0403 19:47:36.586603  9677 layer_factory.hpp:77] Creating layer loss3/classifier_plantvillage
I0403 19:47:36.586628  9677 net.cpp:91] Creating Layer loss3/classifier_plantvillage
I0403 19:47:36.586649  9677 net.cpp:425] loss3/classifier_plantvillage <- pool5/7x7_s1
I0403 19:47:36.586671  9677 net.cpp:399] loss3/classifier_plantvillage -> loss3/classifier_plantvillage
I0403 19:47:36.587201  9677 net.cpp:141] Setting up loss3/classifier_plantvillage
I0403 19:47:36.587231  9677 net.cpp:148] Top shape: 24 38 (912)
I0403 19:47:36.587249  9677 net.cpp:156] Memory required for data: 1346064480
I0403 19:47:36.587272  9677 layer_factory.hpp:77] Creating layer loss3/classifier_plantvillage_loss3/classifier_plantvillage_0_split
I0403 19:47:36.587293  9677 net.cpp:91] Creating Layer loss3/classifier_plantvillage_loss3/classifier_plantvillage_0_split
I0403 19:47:36.587313  9677 net.cpp:425] loss3/classifier_plantvillage_loss3/classifier_plantvillage_0_split <- loss3/classifier_plantvillage
I0403 19:47:36.587338  9677 net.cpp:399] loss3/classifier_plantvillage_loss3/classifier_plantvillage_0_split -> loss3/classifier_plantvillage_loss3/classifier_plantvillage_0_split_0
I0403 19:47:36.587363  9677 net.cpp:399] loss3/classifier_plantvillage_loss3/classifier_plantvillage_0_split -> loss3/classifier_plantvillage_loss3/classifier_plantvillage_0_split_1
I0403 19:47:36.587388  9677 net.cpp:399] loss3/classifier_plantvillage_loss3/classifier_plantvillage_0_split -> loss3/classifier_plantvillage_loss3/classifier_plantvillage_0_split_2
I0403 19:47:36.587414  9677 net.cpp:399] loss3/classifier_plantvillage_loss3/classifier_plantvillage_0_split -> loss3/classifier_plantvillage_loss3/classifier_plantvillage_0_split_3
I0403 19:47:36.587546  9677 net.cpp:141] Setting up loss3/classifier_plantvillage_loss3/classifier_plantvillage_0_split
I0403 19:47:36.587576  9677 net.cpp:148] Top shape: 24 38 (912)
I0403 19:47:36.587597  9677 net.cpp:148] Top shape: 24 38 (912)
I0403 19:47:36.587616  9677 net.cpp:148] Top shape: 24 38 (912)
I0403 19:47:36.587636  9677 net.cpp:148] Top shape: 24 38 (912)
I0403 19:47:36.587653  9677 net.cpp:156] Memory required for data: 1346079072
I0403 19:47:36.587671  9677 layer_factory.hpp:77] Creating layer loss1/loss
I0403 19:47:36.587699  9677 net.cpp:91] Creating Layer loss1/loss
I0403 19:47:36.587721  9677 net.cpp:425] loss1/loss <- loss1/classifier_plantvillage_loss1/classifier_plantvillage_0_split_0
I0403 19:47:36.587760  9677 net.cpp:425] loss1/loss <- label_data_1_split_0
…
