…
I0403 19:36:25.754432  9449 net.cpp:313] The NetState phase (1) differed from the phase (0) specified by a rule in layer data
I0403 19:36:25.755859  9449 net.cpp:49] Initializing net from parameters: 
state {
  phase: TEST
}
layer {
  name: "data"
  type: "Data"
  top: "data"
  top: "label"
  include {
    phase: TEST
  }
  transform_param {
    mirror: false
    crop_size: 224
    mean_file: "/home/mohanty/data/final_dataset/lmdb/color-60-40/mean.binaryproto"
  }
  data_param {
    source: "/home/mohanty/data/final_dataset/lmdb/color-60-40/test_db"
    batch_size: 24
    backend: LMDB
  }
}
layer {
  name: "conv1/7x7_s2"
  type: "Convolution"
  bottom: "data"
  top: "conv1/7x7_s2"
  param {
    lr_mult: 1
    decay_mult: 1
  }
  param {
    lr_mult: 2
    decay_mult: 0
  }
  convolution_param {
    num_output: 64
    pad: 3
    kernel_size: 7
    stride: 2
    weight_filler {
      type: "xavier"
      std: 0.1
    }
    bias_filler {
      type: "constant"
      value: 0.2
    }
  }
}
layer {
  name: "conv1/relu_7x7"
  type: "ReLU"
  bottom: "conv1/7x7_s2"
  top: "conv1/7x7_s2"
}
layer {
  name: "pool1/3x3_s2"
  type: "Pooling"
  bottom: "conv1/7x7_s2"
  top: "pool1/3x3_s2"
  pooling_param {
    pool: MAX
    kernel_size: 3
    stride: 2
  }
}
layer {
  name: "pool1/norm1"
  type: "LRN"
  bottom: "pool1/3x3_s2"
  top: "pool1/norm1"
  lrn_param {
    local_size: 5
    alpha: 0.0001
    beta: 0.75
  }
}
layer {
  name: "conv2/3x3_reduce"
  type: "Convolution"
  bottom: "pool1/norm1"
  top: "conv2/3x3_reduce"
  param {
    lr_mult: 1
    decay_mult: 1
  }
  param {
    lr_mult: 2
    decay_mult: 0
  }
  convolution_param {
    num_output: 64
    kernel_size: 1
    weight_filler {
      type: "xavier"
      std: 0.1
    }
    bias_filler {
      type: "constant"
      value: 0.2
    }
  }
}
layer {
  name: "conv2/relu_3x3_reduce"
  type: "ReLU"
  bottom: "conv2/3x3_reduce"
  top: "conv2/3x3_reduce"
}
layer {
  name: "conv2/3x3"
  type: "Convolution"
  bottom: "conv2/3x3_reduce"
  top: "conv2/3x3"
  param {
    lr_mult: 1
    decay_mult: 1
  }
  param {
    lr_mult: 2
    decay_mult: 0
  }
  convolution_param {
    num_output: 192
    pad: 1
    kernel_size: 3
    weight_filler {
      type: "xavier"
      std: 0.03
    }
    bias_filler {
      type: "constant"
      value: 0.2
    }
  }
}
layer {
  name: "conv2/relu_3x3"
  type: "ReLU"
  bottom: "conv2/3x3"
  top: "conv2/3x3"
}
layer {
  name: "conv2/norm2"
  type: "LRN"
  bottom: "conv2/3x3"
  top: "conv2/norm2"
  lrn_param {
    local_size: 5
    alpha: 0.0001
    beta: 0.75
  }
}
layer {
  name: "pool2/3x3_s2"
  type: "Pooling"
  bottom: "conv2/norm2"
  top: "pool2/3x3_s2"
  pooling_param {
    pool: MAX
    kernel_size: 3
    stride: 2
  }
}
layer {
  name: "inception_3a/1x1"
  type: "Convolution"
  bottom: "pool2/3x3_s2"
  top: "inception_3a/1x1"
  param {
    lr_mult: 1
    decay_mult: 1
  }
  param {
    lr_mult: 2
    decay_mult: 0
  }
  convolution_param {
    num_output: 64
    kernel_size: 1
    weight_filler {
      type: "xavier"
      std: 0.03
    }
    bias_filler {
      type: "constant"
      value: 0.2
    }
  }
}
layer {
  name: "inception_3a/relu_1x1"
  type: "ReLU"
  bottom: "inception_3a/1x1"
  top: "inception_3a/1x1"
}
layer {
  name: "inception_3a/3x3_reduce"
  type: "Convolution"
  bottom: "pool2/3x3_s2"
  top: "inception_3a/3x3_reduce"
  param {
    lr_mult: 1
    decay_mult: 1
  }
  param {
    lr_mult: 2
    decay_mult: 0
  }
  convolution_param {
    num_output: 96
    kernel_size: 1
    weight_filler {
      type: "xavier"
      std: 0.09
    }
    bias_filler {
      type: "constant"
      value: 0.2
    }
  }
}
layer {
  name: "inception_3a/relu_3x3_reduce"
  type: "ReLU"
  bottom: "inception_3a/3x3_reduce"
  top: "inception_3a/3x3_reduce"
}
layer {
  name: "inception_3a/3x3"
  type: "Convolution"
  bottom: "inception_3a/3x3_reduce"
  top: "inception_3a/3x3"
  param {
    lr_mult: 1
    decay_mult: 1
  }
  param {
    lr_mult: 2
    decay_mult: 0
  }
  convolution_param {
    num_output: 128
    pad: 1
    kernel_size: 3
    weight_filler {
      type: "xavier"
      std: 0.03
    }
    bias_filler {
      type: "constant"
      value: 0.2
    }
  }
}
layer {
  name: "inception_3a/relu_3x3"
  type: "ReLU"
  bottom: "inception_3a/3x3"
  top: "inception_3a/3x3"
}
layer {
  name: "inception_3a/5x5_reduce"
  type: "Convolution"
  bottom: "pool2/3x3_s2"
  top: "inception_3a/5x5_reduce"
  param {
    lr_mult: 1
    decay_mult: 1
  }
  param {
    lr_mult: 2
    decay_mult: 0
  }
  convolution_param {
    num_output: 16
    kernel_size: 1
    weight_filler {
      type: "xavier"
      std: 0.2
    }
    bias_filler {
      type: "constant"
      value: 0.2
    }
  }
}
layer {
  name: "inception_3a/relu_5x5_reduce"
  type: "ReLU"
  bottom: "inception_3a/5x5_reduce"
  top: "inception_3a/5x5_reduce"
}
layer {
  name: "inception_3a/5x5"
  type: "Convolution"
  bottom: "inception_3a/5x5_reduce"
  top: "inception_3a/5x5"
  param {
    lr_mult: 1
    decay_mult: 1
  }
  param {
    lr_mult: 2
    decay_mult: 0
  }
  convolution_param {
    num_output: 32
    pad: 2
    kernel_size: 5
    weight_filler {
      type: "xavier"
      std: 0.03
    }
    bias_filler {
      type: "constant"
      value: 0.2
    }
  }
}
layer {
  name: "inception_3a/relu_5x5"
  type: "ReLU"
  bottom: "inception_3a/5x5"
  top: "inception_3a/5x5"
}
layer {
  name: "inception_3a/pool"
  type: "Pooling"
  bottom: "pool2/3x3_s2"
  top: "inception_3a/pool"
  pooling_param {
    pool: MAX
    kernel_size: 3
    stride: 1
    pad: 1
  }
}
layer {
  name: "inception_3a/pool_proj"
  type: "Convolution"
  bottom: "inception_3a/pool"
  top: "inception_3a/pool_proj"
  param {
    lr_mult: 1
    decay_mult: 1
  }
  param {
    lr_mult: 2
    decay_mult: 0
  }
  convolution_param {
    num_output: 32
    kernel_size: 1
    weight_filler {
      type: "xavier"
      std: 0.1
    }
    bias_filler {
      type: "constant"
      value: 0.2
    }
  }
}
layer {
  name: "inception_3a/relu_pool_proj"
  type: "ReLU"
  bottom: "inception_3a/pool_proj"
  top: "inception_3a/pool_proj"
}
layer {
  name: "inception_3a/output"
  type: "Concat"
  bottom: "inception_3a/1x1"
  bottom: "inception_3a/3x3"
  bottom: "inception_3a/5x5"
  bottom: "inception_3a/pool_proj"
  top: "inception_3a/output"
}
layer {
  name: "inception_3b/1x1"
  type: "Convolution"
  bottom: "inception_3a/output"
  top: "inception_3b/1x1"
  param {
    lr_mult: 1
    decay_mult: 1
  }
  param {
    lr_mult: 2
    decay_mult: 0
  }
  convolution_param {
    num_output: 128
    kernel_size: 1
    weight_filler {
      type: "xavier"
      std: 0.03
    }
    bias_filler {
      type: "constant"
      value: 0.2
    }
  }
}
layer {
  name: "inception_3b/relu_1x1"
  type: "ReLU"
  bottom: "inception_3b/1x1"
  top: "inception_3b/1x1"
}
layer {
  name: "inception_3b/3x3_reduce"
  type: "Convolution"
  bottom: "inception_3a/output"
  top: "inception_3b/3x3_reduce"
  param {
    lr_mult: 1
    decay_mult: 1
  }
  param {
    lr_mult: 2
    decay_mult: 0
  }
  convolution_param {
    num_output: 128
    kernel_size: 1
    weight_filler {
      type: "xavier"
      std: 0.09
    }
    bias_filler {
      type: "constant"
      value: 0.2
    }
  }
}
layer {
  name: "inception_3b/relu_3x3_reduce"
  type: "ReLU"
  bottom: "inception_3b/3x3_reduce"
  top: "inception_3b/3x3_reduce"
}
layer {
  name: "inception_3b/3x3"
  type: "Convolution"
  bottom: "inception_3b/3x3_reduce"
  top: "inception_3b/3x3"
  param {
    lr_mult: 1
    decay_mult: 1
  }
  param {
    lr_mult: 2
    decay_mult: 0
  }
  convolution_param {
    num_output: 192
    pad: 1
    kernel_size: 3
    weight_filler {
      type: "xavier"
      std: 0.03
    }
    bias_filler {
      type: "constant"
      value: 0.2
    }
  }
}
layer {
  name: "inception_3b/relu_3x3"
  type: "ReLU"
  bottom: "inception_3b/3x3"
  top: "inception_3b/3x3"
}
layer {
  name: "inception_3b/5x5_reduce"
  type: "Convolution"
  bottom: "inception_3a/output"
  top: "inception_3b/5x5_reduce"
  param {
    lr_mult: 1
    decay_mult: 1
  }
  param {
    lr_mult: 2
    decay_mult: 0
  }
  convolution_param {
    num_output: 32
    kernel_size: 1
    weight_filler {
      type: "xavier"
      std: 0.2
    }
    bias_filler {
      type: "constant"
      value: 0.2
    }
  }
}
layer {
  name: "inception_3b/relu_5x5_reduce"
  type: "ReLU"
  bottom: "inception_3b/5x5_reduce"
  top: "inception_3b/5x5_reduce"
}
layer {
  name: "inception_3b/5x5"
  type: "Convolution"
  bottom: "inception_3b/5x5_reduce"
  top: "inception_3b/5x5"
  param {
    lr_mult: 1
    decay_mult: 1
  }
  param {
    lr_mult: 2
    decay_mult: 0
  }
  convolution_param {
    num_output: 96
    pad: 2
    kernel_size: 5
    weight_filler {
      type: "xavier"
      std: 0.03
    }
    bias_filler {
      type: "constant"
      value: 0.2
    }
  }
}
layer {
  name: "inception_3b/relu_5x5"
  type: "ReLU"
  bottom: "inception_3b/5x5"
  top: "inception_3b/5x5"
}
layer {
  name: "inception_3b/pool"
  type: "Pooling"
  bottom: "inception_3a/output"
  top: "inception_3b/pool"
  pooling_param {
    pool: MAX
    kernel_size: 3
    stride: 1
    pad: 1
  }
}
layer {
  name: "inception_3b/pool_proj"
  type: "Convolution"
  bottom: "inception_3b/pool"
  top: "inception_3b/pool_proj"
  param {
    lr_mult: 1
    decay_mult: 1
  }
  param {
    lr_mult: 2
    decay_mult: 0
  }
  convolution_param {
    num_output: 64
    kernel_size: 1
    weight_filler {
      type: "xavier"
      std: 0.1
    }
    bias_filler {
      type: "constant"
      value: 0.2
    }
  }
}
layer {
  name: "inception_3b/relu_pool_proj"
  type: "ReLU"
  bottom: "inception_3b/pool_proj"
  top: "inception_3b/pool_proj"
}
layer {
  name: "inception_3b/output"
  type: "Concat"
  bottom: "inception_3b/1x1"
  bottom: "inception_3b/3x3"
  bottom: "inception_3b/5x5"
  bottom: "inception_3b/pool_proj"
  top: "inception_3b/output"
}
layer {
  name: "pool3/3x3_s2"
  type: "Pooling"
  bottom: "inception_3b/output"
  top: "pool3/3x3_s2"
  pooling_param {
    pool: MAX
    kernel_size: 3
    stride: 2
  }
}
layer {
  name: "inception_4a/1x1"
  type: "Convolution"
  bottom: "pool3/3x3_s2"
  top: "inception_4a/1x1"
  param {
    lr_mult: 1
    decay_mult: 1
  }
  param {
    lr_mult: 2
    decay_mult: 0
  }
  convolution_param {
    num_output: 192
    kernel_size: 1
    weight_filler {
      type: "xavier"
      std: 0.03
    }
    bias_filler {
      type: "constant"
      value: 0.2
    }
  }
}
layer {
  name: "inception_4a/relu_1x1"
  type: "ReLU"
  bottom: "inception_4a/1x1"
  top: "inception_4a/1x1"
}
layer {
  name: "inception_4a/3x3_reduce"
  type: "Convolution"
  bottom: "pool3/3x3_s2"
  top: "inception_4a/3x3_reduce"
  param {
    lr_mult: 1
    decay_mult: 1
  }
  param {
    lr_mult: 2
    decay_mult: 0
  }
  convolution_param {
    num_output: 96
    kernel_size: 1
    weight_filler {
      type: "xavier"
      std: 0.09
    }
    bias_filler {
      type: "constant"
      value: 0.2
    }
  }
}
layer {
  name: "inception_4a/relu_3x3_reduce"
  type: "ReLU"
  bottom: "inception_4a/3x3_reduce"
  top: "inception_4a/3x3_reduce"
}
layer {
  name: "inception_4a/3x3"
  type: "Convolution"
  bottom: "inception_4a/3x3_reduce"
  top: "inception_4a/3x3"
  param {
    lr_mult: 1
    decay_mult: 1
  }
  param {
    lr_mult: 2
    decay_mult: 0
  }
  convolution_param {
    num_output: 208
    pad: 1
    kernel_size: 3
    weight_filler {
      type: "xavier"
      std: 0.03
    }
    bias_filler {
      type: "constant"
      value: 0.2
    }
  }
}
layer {
  name: "inception_4a/relu_3x3"
  type: "ReLU"
  bottom: "inception_4a/3x3"
  top: "inception_4a/3x3"
}
layer {
  name: "inception_4a/5x5_reduce"
  type: "Convolution"
  bottom: "pool3/3x3_s2"
  top: "inception_4a/5x5_reduce"
  param {
    lr_mult: 1
    decay_mult: 1
  }
  param {
    lr_mult: 2
    decay_mult: 0
  }
  convolution_param {
    num_output: 16
    kernel_size: 1
    weight_filler {
      type: "xavier"
      std: 0.2
    }
    bias_filler {
      type: "constant"
      value: 0.2
    }
  }
}
layer {
  name: "inception_4a/relu_5x5_reduce"
  type: "ReLU"
  bottom: "inception_4a/5x5_reduce"
  top: "inception_4a/5x5_reduce"
}
layer {
  name: "inception_4a/5x5"
  type: "Convolution"
  bottom: "inception_4a/5x5_reduce"
  top: "inception_4a/5x5"
  param {
    lr_mult: 1
    decay_mult: 1
  }
  param {
    lr_mult: 2
    decay_mult: 0
  }
  convolution_param {
    num_output: 48
    pad: 2
    kernel_size: 5
    weight_filler {
      type: "xavier"
      std: 0.03
    }
    bias_filler {
      type: "constant"
      value: 0.2
    }
  }
}
layer {
  name: "inception_4a/relu_5x5"
  type: "ReLU"
  bottom: "inception_4a/5x5"
  top: "inception_4a/5x5"
}
layer {
  name: "inception_4a/pool"
  type: "Pooling"
  bottom: "pool3/3x3_s2"
  top: "inception_4a/pool"
  pooling_param {
    pool: MAX
    kernel_size: 3
    stride: 1
    pad: 1
  }
}
layer {
  name: "inception_4a/pool_proj"
  type: "Convolution"
  bottom: "inception_4a/pool"
  top: "inception_4a/pool_proj"
  param {
    lr_mult: 1
    decay_mult: 1
  }
  param {
    lr_mult: 2
    decay_mult: 0
  }
  convolution_param {
    num_output: 64
    kernel_size: 1
    weight_filler {
      type: "xavier"
      std: 0.1
    }
    bias_filler {
      type: "constant"
      value: 0.2
    }
  }
}
layer {
  name: "inception_4a/relu_pool_proj"
  type: "ReLU"
  bottom: "inception_4a/pool_proj"
  top: "inception_4a/pool_proj"
}
layer {
  name: "inception_4a/output"
  type: "Concat"
  bottom: "inception_4a/1x1"
  bottom: "inception_4a/3x3"
  bottom: "inception_4a/5x5"
  bottom: "inception_4a/pool_proj"
  top: "inception_4a/output"
}
layer {
  name: "loss1/ave_pool"
  type: "Pooling"
  bottom: "inception_4a/output"
  top: "loss1/ave_pool"
  pooling_param {
    pool: AVE
    kernel_size: 5
    stride: 3
  }
}
layer {
  name: "loss1/conv"
  type: "Convolution"
  bottom: "loss1/ave_pool"
  top: "loss1/conv"
  param {
    lr_mult: 1
    decay_mult: 1
  }
  param {
    lr_mult: 2
    decay_mult: 0
  }
  convolution_param {
    num_output: 128
    kernel_size: 1
    weight_filler {
      type: "xavier"
      std: 0.08
    }
    bias_filler {
      type: "constant"
      value: 0.2
    }
  }
}
layer {
  name: "loss1/relu_conv"
  type: "ReLU"
  bottom: "loss1/conv"
  top: "loss1/conv"
}
layer {
  name: "loss1/fc"
  type: "InnerProduct"
  bottom: "loss1/conv"
  top: "loss1/fc"
  param {
    lr_mult: 1
    decay_mult: 1
  }
  param {
    lr_mult: 2
    decay_mult: 0
  }
  inner_product_param {
    num_output: 1024
    weight_filler {
      type: "xavier"
      std: 0.02
    }
    bias_filler {
      type: "constant"
      value: 0.2
    }
  }
}
layer {
  name: "loss1/relu_fc"
  type: "ReLU"
  bottom: "loss1/fc"
  top: "loss1/fc"
}
layer {
  name: "loss1/drop_fc"
  type: "Dropout"
  bottom: "loss1/fc"
  top: "loss1/fc"
  dropout_param {
    dropout_ratio: 0.7
  }
}
layer {
  name: "loss1/classifier_plantvillage"
  type: "InnerProduct"
  bottom: "loss1/fc"
  top: "loss1/classifier_plantvillage"
  param {
    lr_mult: 1
    decay_mult: 1
  }
  param {
    lr_mult: 2
    decay_mult: 0
  }
  inner_product_param {
    num_output: 38
    weight_filler {
      type: "xavier"
      std: 0.0009765625
    }
    bias_filler {
      type: "constant"
      value: 0
    }
  }
}
layer {
  name: "inception_4b/1x1"
  type: "Convolution"
  bottom: "inception_4a/output"
  top: "inception_4b/1x1"
  param {
    lr_mult: 1
    decay_mult: 1
  }
  param {
    lr_mult: 2
    decay_mult: 0
  }
  convolution_param {
    num_output: 160
    kernel_size: 1
    weight_filler {
      type: "xavier"
      std: 0.03
    }
    bias_filler {
      type: "constant"
      value: 0.2
    }
  }
}
layer {
  name: "inception_4b/relu_1x1"
  type: "ReLU"
  bottom: "inception_4b/1x1"
  top: "inception_4b/1x1"
}
layer {
  name: "inception_4b/3x3_reduce"
  type: "Convolution"
  bottom: "inception_4a/output"
  top: "inception_4b/3x3_reduce"
  param {
    lr_mult: 1
    decay_mult: 1
  }
  param {
    lr_mult: 2
    decay_mult: 0
  }
  convolution_param {
    num_output: 112
    kernel_size: 1
    weight_filler {
      type: "xavier"
      std: 0.09
    }
    bias_filler {
      type: "constant"
      value: 0.2
    }
  }
}
layer {
  name: "inception_4b/relu_3x3_reduce"
  type: "ReLU"
  bottom: "inception_4b/3x3_reduce"
  top: "inception_4b/3x3_reduce"
}
layer {
  name: "inception_4b/3x3"
  type: "Convolution"
  bottom: "inception_4b/3x3_reduce"
  top: "inception_4b/3x3"
  param {
    lr_mult: 1
    decay_mult: 1
  }
  param {
    lr_mult: 2
    decay_mult: 0
  }
  convolution_param {
    num_output: 224
    pad: 1
    kernel_size: 3
    weight_filler {
      type: "xavier"
      std: 0.03
    }
    bias_filler {
      type: "constant"
      value: 0.2
    }
  }
}
layer {
  name: "inception_4b/relu_3x3"
  type: "ReLU"
  bottom: "inception_4b/3x3"
  top: "inception_4b/3x3"
}
layer {
  name: "inception_4b/5x5_reduce"
  type: "Convolution"
  bottom: "inception_4a/output"
  top: "inception_4b/5x5_reduce"
  param {
    lr_mult: 1
    decay_mult: 1
  }
  param {
    lr_mult: 2
    decay_mult: 0
  }
  convolution_param {
    num_output: 24
    kernel_size: 1
    weight_filler {
      type: "xavier"
      std: 0.2
    }
    bias_filler {
      type: "constant"
      value: 0.2
    }
  }
}
layer {
  name: "inception_4b/relu_5x5_reduce"
  type: "ReLU"
  bottom: "inception_4b/5x5_reduce"
  top: "inception_4b/5x5_reduce"
}
layer {
  name: "inception_4b/5x5"
  type: "Convolution"
  bottom: "inception_4b/5x5_reduce"
  top: "inception_4b/5x5"
  param {
    lr_mult: 1
    decay_mult: 1
  }
  param {
    lr_mult: 2
    decay_mult: 0
  }
  convolution_param {
    num_output: 64
    pad: 2
    kernel_size: 5
    weight_filler {
      type: "xavier"
      std: 0.03
    }
    bias_filler {
      type: "constant"
      value: 0.2
    }
  }
}
layer {
  name: "inception_4b/relu_5x5"
  type: "ReLU"
  bottom: "inception_4b/5x5"
  top: "inception_4b/5x5"
}
layer {
  name: "inception_4b/pool"
  type: "Pooling"
  bottom: "inception_4a/output"
  top: "inception_4b/pool"
  pooling_param {
    pool: MAX
    kernel_size: 3
    stride: 1
    pad: 1
  }
}
layer {
  name: "inception_4b/pool_proj"
  type: "Convolution"
  bottom: "inception_4b/pool"
  top: "inception_4b/pool_proj"
  param {
    lr_mult: 1
    decay_mult: 1
  }
  param {
    lr_mult: 2
    decay_mult: 0
  }
  convolution_param {
    num_output: 64
    kernel_size: 1
    weight_filler {
      type: "xavier"
      std: 0.1
    }
    bias_filler {
      type: "constant"
      value: 0.2
    }
  }
}
layer {
  name: "inception_4b/relu_pool_proj"
  type: "ReLU"
  bottom: "inception_4b/pool_proj"
  top: "inception_4b/pool_proj"
}
layer {
  name: "inception_4b/output"
  type: "Concat"
  bottom: "inception_4b/1x1"
  bottom: "inception_4b/3x3"
  bottom: "inception_4b/5x5"
  bottom: "inception_4b/pool_proj"
  top: "inception_4b/output"
}
layer {
  name: "inception_4c/1x1"
  type: "Convolution"
  bottom: "inception_4b/output"
  top: "inception_4c/1x1"
  param {
    lr_mult: 1
    decay_mult: 1
  }
  param {
    lr_mult: 2
    decay_mult: 0
  }
  convolution_param {
    num_output: 128
    kernel_size: 1
    weight_filler {
      type: "xavier"
      std: 0.03
    }
    bias_filler {
      type: "constant"
      value: 0.2
    }
  }
}
layer {
  name: "inception_4c/relu_1x1"
  type: "ReLU"
  bottom: "inception_4c/1x1"
  top: "inception_4c/1x1"
}
layer {
  name: "inception_4c/3x3_reduce"
  type: "Convolution"
  bottom: "inception_4b/output"
  top: "inception_4c/3x3_reduce"
  param {
    lr_mult: 1
    decay_mult: 1
  }
  param {
    lr_mult: 2
    decay_mult: 0
  }
  convolution_param {
    num_output: 128
    kernel_size: 1
    weight_filler {
      type: "xavier"
      std: 0.09
    }
    bias_filler {
      type: "constant"
      value: 0.2
    }
  }
}
layer {
  name: "inception_4c/relu_3x3_reduce"
  type: "ReLU"
  bottom: "inception_4c/3x3_reduce"
  top: "inception_4c/3x3_reduce"
}
layer {
  name: "inception_4c/3x3"
  type: "Convolution"
  bottom: "inception_4c/3x3_reduce"
  top: "inception_4c/3x3"
  param {
    lr_mult: 1
    decay_mult: 1
  }
  param {
    lr_mult: 2
    decay_mult: 0
  }
  convolution_param {
    num_output: 256
    pad: 1
    kernel_size: 3
    weight_filler {
      type: "xavier"
      std: 0.03
    }
    bias_filler {
      type: "constant"
      value: 0.2
    }
  }
}
layer {
  name: "inception_4c/relu_3x3"
  type: "ReLU"
  bottom: "inception_4c/3x3"
  top: "inception_4c/3x3"
}
layer {
  name: "inception_4c/5x5_reduce"
  type: "Convolution"
  bottom: "inception_4b/output"
  top: "inception_4c/5x5_reduce"
  param {
    lr_mult: 1
    decay_mult: 1
  }
  param {
    lr_mult: 2
    decay_mult: 0
  }
  convolution_param {
    num_output: 24
    kernel_size: 1
    weight_filler {
      type: "xavier"
      std: 0.2
    }
    bias_filler {
      type: "constant"
      value: 0.2
    }
  }
}
layer {
  name: "inception_4c/relu_5x5_reduce"
  type: "ReLU"
  bottom: "inception_4c/5x5_reduce"
  top: "inception_4c/5x5_reduce"
}
layer {
  name: "inception_4c/5x5"
  type: "Convolution"
  bottom: "inception_4c/5x5_reduce"
  top: "inception_4c/5x5"
  param {
    lr_mult: 1
    decay_mult: 1
  }
  param {
    lr_mult: 2
    decay_mult: 0
  }
  convolution_param {
    num_output: 64
    pad: 2
    kernel_size: 5
    weight_filler {
      type: "xavier"
      std: 0.03
    }
    bias_filler {
      type: "constant"
      value: 0.2
    }
  }
}
layer {
  name: "inception_4c/relu_5x5"
  type: "ReLU"
  bottom: "inception_4c/5x5"
  top: "inception_4c/5x5"
}
layer {
  name: "inception_4c/pool"
  type: "Pooling"
  bottom: "inception_4b/output"
  top: "inception_4c/pool"
  pooling_param {
    pool: MAX
    kernel_size: 3
    stride: 1
    pad: 1
  }
}
layer {
  name: "inception_4c/pool_proj"
  type: "Convolution"
  bottom: "inception_4c/pool"
  top: "inception_4c/pool_proj"
  param {
    lr_mult: 1
    decay_mult: 1
  }
  param {
    lr_mult: 2
    decay_mult: 0
  }
  convolution_param {
    num_output: 64
    kernel_size: 1
    weight_filler {
      type: "xavier"
      std: 0.1
    }
    bias_filler {
      type: "constant"
      value: 0.2
    }
  }
}
layer {
  name: "inception_4c/relu_pool_proj"
  type: "ReLU"
  bottom: "inception_4c/pool_proj"
  top: "inception_4c/pool_proj"
}
layer {
  name: "inception_4c/output"
  type: "Concat"
  bottom: "inception_4c/1x1"
  bottom: "inception_4c/3x3"
  bottom: "inception_4c/5x5"
  bottom: "inception_4c/pool_proj"
  top: "inception_4c/output"
}
layer {
  name: "inception_4d/1x1"
  type: "Convolution"
  bottom: "inception_4c/output"
  top: "inception_4d/1x1"
  param {
    lr_mult: 1
    decay_mult: 1
  }
  param {
    lr_mult: 2
    decay_mult: 0
  }
  convolution_param {
    num_output: 112
    kernel_size: 1
    weight_filler {
      type: "xavier"
      std: 0.03
    }
    bias_filler {
      type: "constant"
      value: 0.2
    }
  }
}
layer {
  name: "inception_4d/relu_1x1"
  type: "ReLU"
  bottom: "inception_4d/1x1"
  top: "inception_4d/1x1"
}
layer {
  name: "inception_4d/3x3_reduce"
  type: "Convolution"
  bottom: "inception_4c/output"
  top: "inception_4d/3x3_reduce"
  param {
    lr_mult: 1
    decay_mult: 1
  }
  param {
    lr_mult: 2
    decay_mult: 0
  }
  convolution_param {
    num_output: 144
    kernel_size: 1
    weight_filler {
      type: "xavier"
      std: 0.09
    }
    bias_filler {
      type: "constant"
      value: 0.2
    }
  }
}
layer {
  name: "inception_4d/relu_3x3_reduce"
  type: "ReLU"
  bottom: "inception_4d/3x3_reduce"
  top: "inception_4d/3x3_reduce"
}
layer {
  name: "inception_4d/3x3"
  type: "Convolution"
  bottom: "inception_4d/3x3_reduce"
  top: "inception_4d/3x3"
  param {
    lr_mult: 1
    decay_mult: 1
  }
  param {
    lr_mult: 2
    decay_mult: 0
  }
  convolution_param {
    num_output: 288
    pad: 1
    kernel_size: 3
    weight_filler {
      type: "xavier"
      std: 0.03
    }
    bias_filler {
      type: "constant"
      value: 0.2
    }
  }
}
layer {
  name: "inception_4d/relu_3x3"
  type: "ReLU"
  bottom: "inception_4d/3x3"
  top: "inception_4d/3x3"
}
layer {
  name: "inception_4d/5x5_reduce"
  type: "Convolution"
  bottom: "inception_4c/output"
  top: "inception_4d/5x5_reduce"
  param {
    lr_mult: 1
    decay_mult: 1
  }
  param {
    lr_mult: 2
    decay_mult: 0
  }
  convolution_param {
    num_output: 32
    kernel_size: 1
    weight_filler {
      type: "xavier"
      std: 0.2
    }
    bias_filler {
      type: "constant"
      value: 0.2
    }
  }
}
layer {
  name: "inception_4d/relu_5x5_reduce"
  type: "ReLU"
  bottom: "inception_4d/5x5_reduce"
  top: "inception_4d/5x5_reduce"
}
layer {
  name: "inception_4d/5x5"
  type: "Convolution"
  bottom: "inception_4d/5x5_reduce"
  top: "inception_4d/5x5"
  param {
    lr_mult: 1
    decay_mult: 1
  }
  param {
    lr_mult: 2
    decay_mult: 0
  }
  convolution_param {
    num_output: 64
    pad: 2
    kernel_size: 5
    weight_filler {
      type: "xavier"
      std: 0.03
    }
    bias_filler {
      type: "constant"
      value: 0.2
    }
  }
}
layer {
  name: "inception_4d/relu_5x5"
  type: "ReLU"
  bottom: "inception_4d/5x5"
  top: "inception_4d/5x5"
}
layer {
  name: "inception_4d/pool"
  type: "Pooling"
  bottom: "inception_4c/output"
  top: "inception_4d/pool"
  pooling_param {
    pool: MAX
    kernel_size: 3
    stride: 1
    pad: 1
  }
}
layer {
  name: "inception_4d/pool_proj"
  type: "Convolution"
  bottom: "inception_4d/pool"
  top: "inception_4d/pool_proj"
  param {
    lr_mult: 1
    decay_mult: 1
  }
  param {
    lr_mult: 2
    decay_mult: 0
  }
  convolution_param {
    num_output: 64
    kernel_size: 1
    weight_filler {
      type: "xavier"
      std: 0.1
    }
    bias_filler {
      type: "constant"
      value: 0.2
    }
  }
}
layer {
  name: "inception_4d/relu_pool_proj"
  type: "ReLU"
  bottom: "inception_4d/pool_proj"
  top: "inception_4d/pool_proj"
}
layer {
  name: "inception_4d/output"
  type: "Concat"
  bottom: "inception_4d/1x1"
  bottom: "inception_4d/3x3"
  bottom: "inception_4d/5x5"
  bottom: "inception_4d/pool_proj"
  top: "inception_4d/output"
}
layer {
  name: "loss2/ave_pool"
  type: "Pooling"
  bottom: "inception_4d/output"
  top: "loss2/ave_pool"
  pooling_param {
    pool: AVE
    kernel_size: 5
    stride: 3
  }
}
layer {
  name: "loss2/conv"
  type: "Convolution"
  bottom: "loss2/ave_pool"
  top: "loss2/conv"
  param {
    lr_mult: 1
    decay_mult: 1
  }
  param {
    lr_mult: 2
    decay_mult: 0
  }
  convolution_param {
    num_output: 128
    kernel_size: 1
    weight_filler {
      type: "xavier"
      std: 0.08
    }
    bias_filler {
      type: "constant"
      value: 0.2
    }
  }
}
layer {
  name: "loss2/relu_conv"
  type: "ReLU"
  bottom: "loss2/conv"
  top: "loss2/conv"
}
layer {
  name: "loss2/fc"
  type: "InnerProduct"
  bottom: "loss2/conv"
  top: "loss2/fc"
  param {
    lr_mult: 1
    decay_mult: 1
  }
  param {
    lr_mult: 2
    decay_mult: 0
  }
  inner_product_param {
    num_output: 1024
    weight_filler {
      type: "xavier"
      std: 0.02
    }
    bias_filler {
      type: "constant"
      value: 0.2
    }
  }
}
layer {
  name: "loss2/relu_fc"
  type: "ReLU"
  bottom: "loss2/fc"
  top: "loss2/fc"
}
layer {
  name: "loss2/drop_fc"
  type: "Dropout"
  bottom: "loss2/fc"
  top: "loss2/fc"
  dropout_param {
    dropout_ratio: 0.7
  }
}
layer {
  name: "loss2/classifier_plantvillage"
  type: "InnerProduct"
  bottom: "loss2/fc"
  top: "loss2/classifier_plantvillage"
  param {
    lr_mult: 1
    decay_mult: 1
  }
  param {
    lr_mult: 2
    decay_mult: 0
  }
  inner_product_param {
    num_output: 38
    weight_filler {
      type: "xavier"
      std: 0.0009765625
    }
    bias_filler {
      type: "constant"
      value: 0
    }
  }
}
layer {
  name: "inception_4e/1x1"
  type: "Convolution"
  bottom: "inception_4d/output"
  top: "inception_4e/1x1"
  param {
    lr_mult: 1
    decay_mult: 1
  }
  param {
    lr_mult: 2
    decay_mult: 0
  }
  convolution_param {
    num_output: 256
    kernel_size: 1
    weight_filler {
      type: "xavier"
      std: 0.03
    }
    bias_filler {
      type: "constant"
      value: 0.2
    }
  }
}
layer {
  name: "inception_4e/relu_1x1"
  type: "ReLU"
  bottom: "inception_4e/1x1"
  top: "inception_4e/1x1"
}
layer {
  name: "inception_4e/3x3_reduce"
  type: "Convolution"
  bottom: "inception_4d/output"
  top: "inception_4e/3x3_reduce"
  param {
    lr_mult: 1
    decay_mult: 1
  }
  param {
    lr_mult: 2
    decay_mult: 0
  }
  convolution_param {
    num_output: 160
    kernel_size: 1
    weight_filler {
      type: "xavier"
      std: 0.09
    }
    bias_filler {
      type: "constant"
      value: 0.2
    }
  }
}
layer {
  name: "inception_4e/relu_3x3_reduce"
  type: "ReLU"
  bottom: "inception_4e/3x3_reduce"
  top: "inception_4e/3x3_reduce"
}
layer {
  name: "inception_4e/3x3"
  type: "Convolution"
  bottom: "inception_4e/3x3_reduce"
  top: "inception_4e/3x3"
  param {
    lr_mult: 1
    decay_mult: 1
  }
  param {
    lr_mult: 2
    decay_mult: 0
  }
  convolution_param {
    num_output: 320
    pad: 1
    kernel_size: 3
    weight_filler {
      type: "xavier"
      std: 0.03
    }
    bias_filler {
      type: "constant"
      value: 0.2
    }
  }
}
layer {
  name: "inception_4e/relu_3x3"
  type: "ReLU"
  bottom: "inception_4e/3x3"
  top: "inception_4e/3x3"
}
layer {
  name: "inception_4e/5x5_reduce"
  type: "Convolution"
  bottom: "inception_4d/output"
  top: "inception_4e/5x5_reduce"
  param {
    lr_mult: 1
    decay_mult: 1
  }
  param {
    lr_mult: 2
    decay_mult: 0
  }
  convolution_param {
    num_output: 32
    kernel_size: 1
    weight_filler {
      type: "xavier"
      std: 0.2
    }
    bias_filler {
      type: "constant"
      value: 0.2
    }
  }
}
layer {
  name: "inception_4e/relu_5x5_reduce"
  type: "ReLU"
  bottom: "inception_4e/5x5_reduce"
  top: "inception_4e/5x5_reduce"
}
layer {
  name: "inception_4e/5x5"
  type: "Convolution"
  bottom: "inception_4e/5x5_reduce"
  top: "inception_4e/5x5"
  p
I0403 19:36:25.757637  9449 layer_factory.hpp:77] Creating layer data
I0403 19:36:25.758364  9449 net.cpp:91] Creating Layer data
I0403 19:36:25.758400  9449 net.cpp:399] data -> data
I0403 19:36:25.758471  9449 net.cpp:399] data -> label
I0403 19:36:25.758520  9449 data_transformer.cpp:25] Loading mean file from: /home/mohanty/data/final_dataset/lmdb/color-60-40/mean.binaryproto
I0403 19:36:25.759883  9451 db_lmdb.cpp:38] Opened lmdb /home/mohanty/data/final_dataset/lmdb/color-60-40/test_db
I0403 19:36:25.774428  9449 data_layer.cpp:41] output data size: 24,3,224,224
I0403 19:36:25.806011  9449 net.cpp:141] Setting up data
I0403 19:36:25.806104  9449 net.cpp:148] Top shape: 24 3 224 224 (3612672)
I0403 19:36:25.806133  9449 net.cpp:148] Top shape: 24 (24)
I0403 19:36:25.806151  9449 net.cpp:156] Memory required for data: 14450784
I0403 19:36:25.806186  9449 layer_factory.hpp:77] Creating layer label_data_1_split
I0403 19:36:25.806221  9449 net.cpp:91] Creating Layer label_data_1_split
I0403 19:36:25.806243  9449 net.cpp:425] label_data_1_split <- label
I0403 19:36:25.806285  9449 net.cpp:399] label_data_1_split -> label_data_1_split_0
I0403 19:36:25.806320  9449 net.cpp:399] label_data_1_split -> label_data_1_split_1
I0403 19:36:25.806345  9449 net.cpp:399] label_data_1_split -> label_data_1_split_2
I0403 19:36:25.806370  9449 net.cpp:399] label_data_1_split -> label_data_1_split_3
I0403 19:36:25.806393  9449 net.cpp:399] label_data_1_split -> label_data_1_split_4
I0403 19:36:25.806418  9449 net.cpp:399] label_data_1_split -> label_data_1_split_5
I0403 19:36:25.806442  9449 net.cpp:399] label_data_1_split -> label_data_1_split_6
I0403 19:36:25.806473  9449 net.cpp:399] label_data_1_split -> label_data_1_split_7
I0403 19:36:25.806499  9449 net.cpp:399] label_data_1_split -> label_data_1_split_8
I0403 19:36:25.806524  9449 net.cpp:399] label_data_1_split -> label_data_1_split_9
I0403 19:36:25.806661  9449 net.cpp:141] Setting up label_data_1_split
I0403 19:36:25.806690  9449 net.cpp:148] Top shape: 24 (24)
I0403 19:36:25.806711  9449 net.cpp:148] Top shape: 24 (24)
I0403 19:36:25.806731  9449 net.cpp:148] Top shape: 24 (24)
I0403 19:36:25.806751  9449 net.cpp:148] Top shape: 24 (24)
I0403 19:36:25.806771  9449 net.cpp:148] Top shape: 24 (24)
I0403 19:36:25.806788  9449 net.cpp:148] Top shape: 24 (24)
I0403 19:36:25.806807  9449 net.cpp:148] Top shape: 24 (24)
I0403 19:36:25.806826  9449 net.cpp:148] Top shape: 24 (24)
I0403 19:36:25.806846  9449 net.cpp:148] Top shape: 24 (24)
I0403 19:36:25.806867  9449 net.cpp:148] Top shape: 24 (24)
I0403 19:36:25.806924  9449 net.cpp:156] Memory required for data: 14451744
I0403 19:36:25.806943  9449 layer_factory.hpp:77] Creating layer conv1/7x7_s2
I0403 19:36:25.806984  9449 net.cpp:91] Creating Layer conv1/7x7_s2
I0403 19:36:25.807008  9449 net.cpp:425] conv1/7x7_s2 <- data
I0403 19:36:25.807031  9449 net.cpp:399] conv1/7x7_s2 -> conv1/7x7_s2
I0403 19:36:25.972798  9449 net.cpp:141] Setting up conv1/7x7_s2
I0403 19:36:25.972888  9449 net.cpp:148] Top shape: 24 64 112 112 (19267584)
I0403 19:36:25.972910  9449 net.cpp:156] Memory required for data: 91522080
I0403 19:36:25.972950  9449 layer_factory.hpp:77] Creating layer conv1/relu_7x7
I0403 19:36:25.972985  9449 net.cpp:91] Creating Layer conv1/relu_7x7
I0403 19:36:25.973009  9449 net.cpp:425] conv1/relu_7x7 <- conv1/7x7_s2
I0403 19:36:25.973033  9449 net.cpp:386] conv1/relu_7x7 -> conv1/7x7_s2 (in-place)
I0403 19:36:25.973341  9449 net.cpp:141] Setting up conv1/relu_7x7
I0403 19:36:25.973376  9449 net.cpp:148] Top shape: 24 64 112 112 (19267584)
I0403 19:36:25.973394  9449 net.cpp:156] Memory required for data: 168592416
I0403 19:36:25.973414  9449 layer_factory.hpp:77] Creating layer pool1/3x3_s2
I0403 19:36:25.973445  9449 net.cpp:91] Creating Layer pool1/3x3_s2
I0403 19:36:25.973471  9449 net.cpp:425] pool1/3x3_s2 <- conv1/7x7_s2
I0403 19:36:25.973495  9449 net.cpp:399] pool1/3x3_s2 -> pool1/3x3_s2
I0403 19:36:25.973587  9449 net.cpp:141] Setting up pool1/3x3_s2
I0403 19:36:25.973618  9449 net.cpp:148] Top shape: 24 64 56 56 (4816896)
I0403 19:36:25.973635  9449 net.cpp:156] Memory required for data: 187860000
I0403 19:36:25.973654  9449 layer_factory.hpp:77] Creating layer pool1/norm1
I0403 19:36:25.973685  9449 net.cpp:91] Creating Layer pool1/norm1
I0403 19:36:25.973706  9449 net.cpp:425] pool1/norm1 <- pool1/3x3_s2
I0403 19:36:25.973728  9449 net.cpp:399] pool1/norm1 -> pool1/norm1
I0403 19:36:25.974071  9449 net.cpp:141] Setting up pool1/norm1
I0403 19:36:25.974105  9449 net.cpp:148] Top shape: 24 64 56 56 (4816896)
I0403 19:36:25.974125  9449 net.cpp:156] Memory required for data: 207127584
I0403 19:36:25.974145  9449 layer_factory.hpp:77] Creating layer conv2/3x3_reduce
I0403 19:36:25.974177  9449 net.cpp:91] Creating Layer conv2/3x3_reduce
I0403 19:36:25.974197  9449 net.cpp:425] conv2/3x3_reduce <- pool1/norm1
I0403 19:36:25.974220  9449 net.cpp:399] conv2/3x3_reduce -> conv2/3x3_reduce
I0403 19:36:25.975929  9449 net.cpp:141] Setting up conv2/3x3_reduce
I0403 19:36:25.975965  9449 net.cpp:148] Top shape: 24 64 56 56 (4816896)
I0403 19:36:25.975986  9449 net.cpp:156] Memory required for data: 226395168
I0403 19:36:25.976011  9449 layer_factory.hpp:77] Creating layer conv2/relu_3x3_reduce
I0403 19:36:25.976037  9449 net.cpp:91] Creating Layer conv2/relu_3x3_reduce
I0403 19:36:25.976058  9449 net.cpp:425] conv2/relu_3x3_reduce <- conv2/3x3_reduce
I0403 19:36:25.976079  9449 net.cpp:386] conv2/relu_3x3_reduce -> conv2/3x3_reduce (in-place)
I0403 19:36:25.976395  9449 net.cpp:141] Setting up conv2/relu_3x3_reduce
I0403 19:36:25.976429  9449 net.cpp:148] Top shape: 24 64 56 56 (4816896)
I0403 19:36:25.976449  9449 net.cpp:156] Memory required for data: 245662752
I0403 19:36:25.976475  9449 layer_factory.hpp:77] Creating layer conv2/3x3
I0403 19:36:25.976514  9449 net.cpp:91] Creating Layer conv2/3x3
I0403 19:36:25.976537  9449 net.cpp:425] conv2/3x3 <- conv2/3x3_reduce
I0403 19:36:25.976560  9449 net.cpp:399] conv2/3x3 -> conv2/3x3
I0403 19:36:25.979401  9449 net.cpp:141] Setting up conv2/3x3
I0403 19:36:25.979439  9449 net.cpp:148] Top shape: 24 192 56 56 (14450688)
I0403 19:36:25.979465  9449 net.cpp:156] Memory required for data: 303465504
I0403 19:36:25.979493  9449 layer_factory.hpp:77] Creating layer conv2/relu_3x3
I0403 19:36:25.979521  9449 net.cpp:91] Creating Layer conv2/relu_3x3
I0403 19:36:25.979542  9449 net.cpp:425] conv2/relu_3x3 <- conv2/3x3
I0403 19:36:25.979563  9449 net.cpp:386] conv2/relu_3x3 -> conv2/3x3 (in-place)
I0403 19:36:25.979775  9449 net.cpp:141] Setting up conv2/relu_3x3
I0403 19:36:25.979806  9449 net.cpp:148] Top shape: 24 192 56 56 (14450688)
I0403 19:36:25.979864  9449 net.cpp:156] Memory required for data: 361268256
I0403 19:36:25.979884  9449 layer_factory.hpp:77] Creating layer conv2/norm2
I0403 19:36:25.979908  9449 net.cpp:91] Creating Layer conv2/norm2
I0403 19:36:25.979929  9449 net.cpp:425] conv2/norm2 <- conv2/3x3
I0403 19:36:25.979954  9449 net.cpp:399] conv2/norm2 -> conv2/norm2
I0403 19:36:25.980315  9449 net.cpp:141] Setting up conv2/norm2
I0403 19:36:25.980348  9449 net.cpp:148] Top shape: 24 192 56 56 (14450688)
I0403 19:36:25.980367  9449 net.cpp:156] Memory required for data: 419071008
I0403 19:36:25.980386  9449 layer_factory.hpp:77] Creating layer pool2/3x3_s2
I0403 19:36:25.980408  9449 net.cpp:91] Creating Layer pool2/3x3_s2
I0403 19:36:25.980428  9449 net.cpp:425] pool2/3x3_s2 <- conv2/norm2
I0403 19:36:25.980453  9449 net.cpp:399] pool2/3x3_s2 -> pool2/3x3_s2
I0403 19:36:25.980522  9449 net.cpp:141] Setting up pool2/3x3_s2
I0403 19:36:25.980552  9449 net.cpp:148] Top shape: 24 192 28 28 (3612672)
I0403 19:36:25.980571  9449 net.cpp:156] Memory required for data: 433521696
I0403 19:36:25.980589  9449 layer_factory.hpp:77] Creating layer pool2/3x3_s2_pool2/3x3_s2_0_split
I0403 19:36:25.980614  9449 net.cpp:91] Creating Layer pool2/3x3_s2_pool2/3x3_s2_0_split
I0403 19:36:25.980634  9449 net.cpp:425] pool2/3x3_s2_pool2/3x3_s2_0_split <- pool2/3x3_s2
I0403 19:36:25.980662  9449 net.cpp:399] pool2/3x3_s2_pool2/3x3_s2_0_split -> pool2/3x3_s2_pool2/3x3_s2_0_split_0
I0403 19:36:25.980690  9449 net.cpp:399] pool2/3x3_s2_pool2/3x3_s2_0_split -> pool2/3x3_s2_pool2/3x3_s2_0_split_1
I0403 19:36:25.980713  9449 net.cpp:399] pool2/3x3_s2_pool2/3x3_s2_0_split -> pool2/3x3_s2_pool2/3x3_s2_0_split_2
I0403 19:36:25.980736  9449 net.cpp:399] pool2/3x3_s2_pool2/3x3_s2_0_split -> pool2/3x3_s2_pool2/3x3_s2_0_split_3
I0403 19:36:25.980818  9449 net.cpp:141] Setting up pool2/3x3_s2_pool2/3x3_s2_0_split
I0403 19:36:25.980850  9449 net.cpp:148] Top shape: 24 192 28 28 (3612672)
I0403 19:36:25.980871  9449 net.cpp:148] Top shape: 24 192 28 28 (3612672)
I0403 19:36:25.980892  9449 net.cpp:148] Top shape: 24 192 28 28 (3612672)
I0403 19:36:25.980911  9449 net.cpp:148] Top shape: 24 192 28 28 (3612672)
I0403 19:36:25.980928  9449 net.cpp:156] Memory required for data: 491324448
I0403 19:36:25.980947  9449 layer_factory.hpp:77] Creating layer inception_3a/1x1
I0403 19:36:25.980974  9449 net.cpp:91] Creating Layer inception_3a/1x1
I0403 19:36:25.980996  9449 net.cpp:425] inception_3a/1x1 <- pool2/3x3_s2_pool2/3x3_s2_0_split_0
I0403 19:36:25.981019  9449 net.cpp:399] inception_3a/1x1 -> inception_3a/1x1
I0403 19:36:25.982918  9449 net.cpp:141] Setting up inception_3a/1x1
I0403 19:36:25.982955  9449 net.cpp:148] Top shape: 24 64 28 28 (1204224)
I0403 19:36:25.982975  9449 net.cpp:156] Memory required for data: 496141344
I0403 19:36:25.983000  9449 layer_factory.hpp:77] Creating layer inception_3a/relu_1x1
I0403 19:36:25.983024  9449 net.cpp:91] Creating Layer inception_3a/relu_1x1
I0403 19:36:25.983044  9449 net.cpp:425] inception_3a/relu_1x1 <- inception_3a/1x1
I0403 19:36:25.983067  9449 net.cpp:386] inception_3a/relu_1x1 -> inception_3a/1x1 (in-place)
I0403 19:36:25.983307  9449 net.cpp:141] Setting up inception_3a/relu_1x1
I0403 19:36:25.983342  9449 net.cpp:148] Top shape: 24 64 28 28 (1204224)
I0403 19:36:25.983362  9449 net.cpp:156] Memory required for data: 500958240
I0403 19:36:25.983381  9449 layer_factory.hpp:77] Creating layer inception_3a/3x3_reduce
I0403 19:36:25.983409  9449 net.cpp:91] Creating Layer inception_3a/3x3_reduce
I0403 19:36:25.983431  9449 net.cpp:425] inception_3a/3x3_reduce <- pool2/3x3_s2_pool2/3x3_s2_0_split_1
I0403 19:36:25.983454  9449 net.cpp:399] inception_3a/3x3_reduce -> inception_3a/3x3_reduce
I0403 19:36:25.985550  9449 net.cpp:141] Setting up inception_3a/3x3_reduce
I0403 19:36:25.985587  9449 net.cpp:148] Top shape: 24 96 28 28 (1806336)
I0403 19:36:25.985606  9449 net.cpp:156] Memory required for data: 508183584
I0403 19:36:25.985633  9449 layer_factory.hpp:77] Creating layer inception_3a/relu_3x3_reduce
I0403 19:36:25.985679  9449 net.cpp:91] Creating Layer inception_3a/relu_3x3_reduce
I0403 19:36:25.985702  9449 net.cpp:425] inception_3a/relu_3x3_reduce <- inception_3a/3x3_reduce
I0403 19:36:25.985728  9449 net.cpp:386] inception_3a/relu_3x3_reduce -> inception_3a/3x3_reduce (in-place)
I0403 19:36:25.985949  9449 net.cpp:141] Setting up inception_3a/relu_3x3_reduce
I0403 19:36:25.985981  9449 net.cpp:148] Top shape: 24 96 28 28 (1806336)
I0403 19:36:25.985999  9449 net.cpp:156] Memory required for data: 515408928
I0403 19:36:25.986021  9449 layer_factory.hpp:77] Creating layer inception_3a/3x3
I0403 19:36:25.986047  9449 net.cpp:91] Creating Layer inception_3a/3x3
I0403 19:36:25.986069  9449 net.cpp:425] inception_3a/3x3 <- inception_3a/3x3_reduce
I0403 19:36:25.986095  9449 net.cpp:399] inception_3a/3x3 -> inception_3a/3x3
I0403 19:36:25.988126  9449 net.cpp:141] Setting up inception_3a/3x3
I0403 19:36:25.988162  9449 net.cpp:148] Top shape: 24 128 28 28 (2408448)
I0403 19:36:25.988189  9449 net.cpp:156] Memory required for data: 525042720
I0403 19:36:25.988212  9449 layer_factory.hpp:77] Creating layer inception_3a/relu_3x3
I0403 19:36:25.988235  9449 net.cpp:91] Creating Layer inception_3a/relu_3x3
I0403 19:36:25.988255  9449 net.cpp:425] inception_3a/relu_3x3 <- inception_3a/3x3
I0403 19:36:25.988276  9449 net.cpp:386] inception_3a/relu_3x3 -> inception_3a/3x3 (in-place)
I0403 19:36:25.988607  9449 net.cpp:141] Setting up inception_3a/relu_3x3
I0403 19:36:25.988642  9449 net.cpp:148] Top shape: 24 128 28 28 (2408448)
I0403 19:36:25.988664  9449 net.cpp:156] Memory required for data: 534676512
I0403 19:36:25.988682  9449 layer_factory.hpp:77] Creating layer inception_3a/5x5_reduce
I0403 19:36:25.988708  9449 net.cpp:91] Creating Layer inception_3a/5x5_reduce
I0403 19:36:25.988729  9449 net.cpp:425] inception_3a/5x5_reduce <- pool2/3x3_s2_pool2/3x3_s2_0_split_2
I0403 19:36:25.988754  9449 net.cpp:399] inception_3a/5x5_reduce -> inception_3a/5x5_reduce
I0403 19:36:25.989910  9449 net.cpp:141] Setting up inception_3a/5x5_reduce
I0403 19:36:25.989948  9449 net.cpp:148] Top shape: 24 16 28 28 (301056)
I0403 19:36:25.989969  9449 net.cpp:156] Memory required for data: 535880736
I0403 19:36:25.989991  9449 layer_factory.hpp:77] Creating layer inception_3a/relu_5x5_reduce
I0403 19:36:25.990015  9449 net.cpp:91] Creating Layer inception_3a/relu_5x5_reduce
I0403 19:36:25.990033  9449 net.cpp:425] inception_3a/relu_5x5_reduce <- inception_3a/5x5_reduce
I0403 19:36:25.990056  9449 net.cpp:386] inception_3a/relu_5x5_reduce -> inception_3a/5x5_reduce (in-place)
I0403 19:36:25.990406  9449 net.cpp:141] Setting up inception_3a/relu_5x5_reduce
I0403 19:36:25.990439  9449 net.cpp:148] Top shape: 24 16 28 28 (301056)
I0403 19:36:25.990463  9449 net.cpp:156] Memory required for data: 537084960
I0403 19:36:25.990483  9449 layer_factory.hpp:77] Creating layer inception_3a/5x5
I0403 19:36:25.990512  9449 net.cpp:91] Creating Layer inception_3a/5x5
I0403 19:36:25.990535  9449 net.cpp:425] inception_3a/5x5 <- inception_3a/5x5_reduce
I0403 19:36:25.990561  9449 net.cpp:399] inception_3a/5x5 -> inception_3a/5x5
I0403 19:36:25.991775  9449 net.cpp:141] Setting up inception_3a/5x5
I0403 19:36:25.991809  9449 net.cpp:148] Top shape: 24 32 28 28 (602112)
I0403 19:36:25.991828  9449 net.cpp:156] Memory required for data: 539493408
I0403 19:36:25.991852  9449 layer_factory.hpp:77] Creating layer inception_3a/relu_5x5
I0403 19:36:25.991878  9449 net.cpp:91] Creating Layer inception_3a/relu_5x5
I0403 19:36:25.991897  9449 net.cpp:425] inception_3a/relu_5x5 <- inception_3a/5x5
I0403 19:36:25.991919  9449 net.cpp:386] inception_3a/relu_5x5 -> inception_3a/5x5 (in-place)
I0403 19:36:25.992136  9449 net.cpp:141] Setting up inception_3a/relu_5x5
I0403 19:36:25.992169  9449 net.cpp:148] Top shape: 24 32 28 28 (602112)
I0403 19:36:25.992190  9449 net.cpp:156] Memory required for data: 541901856
I0403 19:36:25.992209  9449 layer_factory.hpp:77] Creating layer inception_3a/pool
I0403 19:36:25.992230  9449 net.cpp:91] Creating Layer inception_3a/pool
I0403 19:36:25.992250  9449 net.cpp:425] inception_3a/pool <- pool2/3x3_s2_pool2/3x3_s2_0_split_3
I0403 19:36:25.992295  9449 net.cpp:399] inception_3a/pool -> inception_3a/pool
I0403 19:36:25.992367  9449 net.cpp:141] Setting up inception_3a/pool
I0403 19:36:25.992396  9449 net.cpp:148] Top shape: 24 192 28 28 (3612672)
I0403 19:36:25.992414  9449 net.cpp:156] Memory required for data: 556352544
I0403 19:36:25.992434  9449 layer_factory.hpp:77] Creating layer inception_3a/pool_proj
I0403 19:36:25.992475  9449 net.cpp:91] Creating Layer inception_3a/pool_proj
I0403 19:36:25.992499  9449 net.cpp:425] inception_3a/pool_proj <- inception_3a/pool
I0403 19:36:25.992525  9449 net.cpp:399] inception_3a/pool_proj -> inception_3a/pool_proj
I0403 19:36:25.993701  9449 net.cpp:141] Setting up inception_3a/pool_proj
I0403 19:36:25.993736  9449 net.cpp:148] Top shape: 24 32 28 28 (602112)
I0403 19:36:25.993757  9449 net.cpp:156] Memory required for data: 558760992
I0403 19:36:25.993787  9449 layer_factory.hpp:77] Creating layer inception_3a/relu_pool_proj
I0403 19:36:25.993810  9449 net.cpp:91] Creating Layer inception_3a/relu_pool_proj
I0403 19:36:25.993830  9449 net.cpp:425] inception_3a/relu_pool_proj <- inception_3a/pool_proj
I0403 19:36:25.993852  9449 net.cpp:386] inception_3a/relu_pool_proj -> inception_3a/pool_proj (in-place)
I0403 19:36:25.994175  9449 net.cpp:141] Setting up inception_3a/relu_pool_proj
I0403 19:36:25.994209  9449 net.cpp:148] Top shape: 24 32 28 28 (602112)
I0403 19:36:25.994231  9449 net.cpp:156] Memory required for data: 561169440
I0403 19:36:25.994251  9449 layer_factory.hpp:77] Creating layer inception_3a/output
I0403 19:36:25.994273  9449 net.cpp:91] Creating Layer inception_3a/output
I0403 19:36:25.994292  9449 net.cpp:425] inception_3a/output <- inception_3a/1x1
I0403 19:36:25.994313  9449 net.cpp:425] inception_3a/output <- inception_3a/3x3
I0403 19:36:25.994333  9449 net.cpp:425] inception_3a/output <- inception_3a/5x5
I0403 19:36:25.994354  9449 net.cpp:425] inception_3a/output <- inception_3a/pool_proj
I0403 19:36:25.994375  9449 net.cpp:399] inception_3a/output -> inception_3a/output
I0403 19:36:25.994432  9449 net.cpp:141] Setting up inception_3a/output
I0403 19:36:25.994465  9449 net.cpp:148] Top shape: 24 256 28 28 (4816896)
I0403 19:36:25.994488  9449 net.cpp:156] Memory required for data: 580437024
I0403 19:36:25.994506  9449 layer_factory.hpp:77] Creating layer inception_3a/output_inception_3a/output_0_split
I0403 19:36:25.994526  9449 net.cpp:91] Creating Layer inception_3a/output_inception_3a/output_0_split
I0403 19:36:25.994545  9449 net.cpp:425] inception_3a/output_inception_3a/output_0_split <- inception_3a/output
I0403 19:36:25.994570  9449 net.cpp:399] inception_3a/output_inception_3a/output_0_split -> inception_3a/output_inception_3a/output_0_split_0
I0403 19:36:25.994593  9449 net.cpp:399] inception_3a/output_inception_3a/output_0_split -> inception_3a/output_inception_3a/output_0_split_1
I0403 19:36:25.994624  9449 net.cpp:399] inception_3a/output_inception_3a/output_0_split -> inception_3a/output_inception_3a/output_0_split_2
I0403 19:36:25.994652  9449 net.cpp:399] inception_3a/output_inception_3a/output_0_split -> inception_3a/output_inception_3a/output_0_split_3
I0403 19:36:25.994747  9449 net.cpp:141] Setting up inception_3a/output_inception_3a/output_0_split
I0403 19:36:25.994777  9449 net.cpp:148] Top shape: 24 256 28 28 (4816896)
I0403 19:36:25.994798  9449 net.cpp:148] Top shape: 24 256 28 28 (4816896)
I0403 19:36:25.994817  9449 net.cpp:148] Top shape: 24 256 28 28 (4816896)
I0403 19:36:25.994837  9449 net.cpp:148] Top shape: 24 256 28 28 (4816896)
I0403 19:36:25.994853  9449 net.cpp:156] Memory required for data: 657507360
I0403 19:36:25.994873  9449 layer_factory.hpp:77] Creating layer inception_3b/1x1
I0403 19:36:25.994900  9449 net.cpp:91] Creating Layer inception_3b/1x1
I0403 19:36:25.994923  9449 net.cpp:425] inception_3b/1x1 <- inception_3a/output_inception_3a/output_0_split_0
I0403 19:36:25.994949  9449 net.cpp:399] inception_3b/1x1 -> inception_3b/1x1
I0403 19:36:25.996317  9449 net.cpp:141] Setting up inception_3b/1x1
I0403 19:36:25.996367  9449 net.cpp:148] Top shape: 24 128 28 28 (2408448)
I0403 19:36:25.996387  9449 net.cpp:156] Memory required for data: 667141152
I0403 19:36:25.996410  9449 layer_factory.hpp:77] Creating layer inception_3b/relu_1x1
I0403 19:36:25.996435  9449 net.cpp:91] Creating Layer inception_3b/relu_1x1
I0403 19:36:25.996462  9449 net.cpp:425] inception_3b/relu_1x1 <- inception_3b/1x1
I0403 19:36:25.996487  9449 net.cpp:386] inception_3b/relu_1x1 -> inception_3b/1x1 (in-place)
I0403 19:36:25.996700  9449 net.cpp:141] Setting up inception_3b/relu_1x1
I0403 19:36:25.996732  9449 net.cpp:148] Top shape: 24 128 28 28 (2408448)
I0403 19:36:25.996752  9449 net.cpp:156] Memory required for data: 676774944
I0403 19:36:25.996770  9449 layer_factory.hpp:77] Creating layer inception_3b/3x3_reduce
I0403 19:36:25.996796  9449 net.cpp:91] Creating Layer inception_3b/3x3_reduce
I0403 19:36:25.996816  9449 net.cpp:425] inception_3b/3x3_reduce <- inception_3a/output_inception_3a/output_0_split_1
I0403 19:36:25.996843  9449 net.cpp:399] inception_3b/3x3_reduce -> inception_3b/3x3_reduce
I0403 19:36:25.998217  9449 net.cpp:141] Setting up inception_3b/3x3_reduce
I0403 19:36:25.998251  9449 net.cpp:148] Top shape: 24 128 28 28 (2408448)
I0403 19:36:25.998271  9449 net.cpp:156] Memory required for data: 686408736
I0403 19:36:25.998294  9449 layer_factory.hpp:77] Creating layer inception_3b/relu_3x3_reduce
I0403 19:36:25.998320  9449 net.cpp:91] Creating Layer inception_3b/relu_3x3_reduce
I0403 19:36:25.998342  9449 net.cpp:425] inception_3b/relu_3x3_reduce <- inception_3b/3x3_reduce
I0403 19:36:25.998363  9449 net.cpp:386] inception_3b/relu_3x3_reduce -> inception_3b/3x3_reduce (in-place)
I0403 19:36:25.998579  9449 net.cpp:141] Setting up inception_3b/relu_3x3_reduce
I0403 19:36:25.998610  9449 net.cpp:148] Top shape: 24 128 28 28 (2408448)
I0403 19:36:25.998628  9449 net.cpp:156] Memory required for data: 696042528
I0403 19:36:25.998646  9449 layer_factory.hpp:77] Creating layer inception_3b/3x3
I0403 19:36:25.998679  9449 net.cpp:91] Creating Layer inception_3b/3x3
I0403 19:36:25.998703  9449 net.cpp:425] inception_3b/3x3 <- inception_3b/3x3_reduce
I0403 19:36:25.998728  9449 net.cpp:399] inception_3b/3x3 -> inception_3b/3x3
I0403 19:36:26.002259  9449 net.cpp:141] Setting up inception_3b/3x3
I0403 19:36:26.002295  9449 net.cpp:148] Top shape: 24 192 28 28 (3612672)
I0403 19:36:26.002321  9449 net.cpp:156] Memory required for data: 710493216
I0403 19:36:26.002343  9449 layer_factory.hpp:77] Creating layer inception_3b/relu_3x3
I0403 19:36:26.002364  9449 net.cpp:91] Creating Layer inception_3b/relu_3x3
I0403 19:36:26.002383  9449 net.cpp:425] inception_3b/relu_3x3 <- inception_3b/3x3
I0403 19:36:26.002405  9449 net.cpp:386] inception_3b/relu_3x3 -> inception_3b/3x3 (in-place)
I0403 19:36:26.002753  9449 net.cpp:141] Setting up inception_3b/relu_3x3
I0403 19:36:26.002787  9449 net.cpp:148] Top shape: 24 192 28 28 (3612672)
I0403 19:36:26.002810  9449 net.cpp:156] Memory required for data: 724943904
I0403 19:36:26.002828  9449 layer_factory.hpp:77] Creating layer inception_3b/5x5_reduce
I0403 19:36:26.002854  9449 net.cpp:91] Creating Layer inception_3b/5x5_reduce
I0403 19:36:26.002876  9449 net.cpp:425] inception_3b/5x5_reduce <- inception_3a/output_inception_3a/output_0_split_2
I0403 19:36:26.002900  9449 net.cpp:399] inception_3b/5x5_reduce -> inception_3b/5x5_reduce
I0403 19:36:26.004101  9449 net.cpp:141] Setting up inception_3b/5x5_reduce
I0403 19:36:26.004134  9449 net.cpp:148] Top shape: 24 32 28 28 (602112)
I0403 19:36:26.004153  9449 net.cpp:156] Memory required for data: 727352352
I0403 19:36:26.004180  9449 layer_factory.hpp:77] Creating layer inception_3b/relu_5x5_reduce
I0403 19:36:26.004205  9449 net.cpp:91] Creating Layer inception_3b/relu_5x5_reduce
I0403 19:36:26.004227  9449 net.cpp:425] inception_3b/relu_5x5_reduce <- inception_3b/5x5_reduce
I0403 19:36:26.004248  9449 net.cpp:386] inception_3b/relu_5x5_reduce -> inception_3b/5x5_reduce (in-place)
I0403 19:36:26.004472  9449 net.cpp:141] Setting up inception_3b/relu_5x5_reduce
I0403 19:36:26.004520  9449 net.cpp:148] Top shape: 24 32 28 28 (602112)
I0403 19:36:26.004540  9449 net.cpp:156] Memory required for data: 729760800
I0403 19:36:26.004559  9449 layer_factory.hpp:77] Creating layer inception_3b/5x5
I0403 19:36:26.004587  9449 net.cpp:91] Creating Layer inception_3b/5x5
I0403 19:36:26.004609  9449 net.cpp:425] inception_3b/5x5 <- inception_3b/5x5_reduce
I0403 19:36:26.004632  9449 net.cpp:399] inception_3b/5x5 -> inception_3b/5x5
I0403 19:36:26.007009  9449 net.cpp:141] Setting up inception_3b/5x5
I0403 19:36:26.007045  9449 net.cpp:148] Top shape: 24 96 28 28 (1806336)
I0403 19:36:26.007064  9449 net.cpp:156] Memory required for data: 736986144
I0403 19:36:26.007088  9449 layer_factory.hpp:77] Creating layer inception_3b/relu_5x5
I0403 19:36:26.007113  9449 net.cpp:91] Creating Layer inception_3b/relu_5x5
I0403 19:36:26.007134  9449 net.cpp:425] inception_3b/relu_5x5 <- inception_3b/5x5
I0403 19:36:26.007156  9449 net.cpp:386] inception_3b/relu_5x5 -> inception_3b/5x5 (in-place)
I0403 19:36:26.007388  9449 net.cpp:141] Setting up inception_3b/relu_5x5
I0403 19:36:26.007421  9449 net.cpp:148] Top shape: 24 96 28 28 (1806336)
I0403 19:36:26.007438  9449 net.cpp:156] Memory required for data: 744211488
I0403 19:36:26.007462  9449 layer_factory.hpp:77] Creating layer inception_3b/pool
I0403 19:36:26.007486  9449 net.cpp:91] Creating Layer inception_3b/pool
I0403 19:36:26.007508  9449 net.cpp:425] inception_3b/pool <- inception_3a/output_inception_3a/output_0_split_3
I0403 19:36:26.007531  9449 net.cpp:399] inception_3b/pool -> inception_3b/pool
I0403 19:36:26.007598  9449 net.cpp:141] Setting up inception_3b/pool
I0403 19:36:26.007628  9449 net.cpp:148] Top shape: 24 256 28 28 (4816896)
I0403 19:36:26.007647  9449 net.cpp:156] Memory required for data: 763479072
I0403 19:36:26.007665  9449 layer_factory.hpp:77] Creating layer inception_3b/pool_proj
I0403 19:36:26.007697  9449 net.cpp:91] Creating Layer inception_3b/pool_proj
I0403 19:36:26.007720  9449 net.cpp:425] inception_3b/pool_proj <- inception_3b/pool
I0403 19:36:26.007747  9449 net.cpp:399] inception_3b/pool_proj -> inception_3b/pool_proj
I0403 19:36:26.009019  9449 net.cpp:141] Setting up inception_3b/pool_proj
I0403 19:36:26.009057  9449 net.cpp:148] Top shape: 24 64 28 28 (1204224)
I0403 19:36:26.009076  9449 net.cpp:156] Memory required for data: 768295968
I0403 19:36:26.009100  9449 layer_factory.hpp:77] Creating layer inception_3b/relu_pool_proj
I0403 19:36:26.009124  9449 net.cpp:91] Creating Layer inception_3b/relu_pool_proj
I0403 19:36:26.009145  9449 net.cpp:425] inception_3b/relu_pool_proj <- inception_3b/pool_proj
I0403 19:36:26.009168  9449 net.cpp:386] inception_3b/relu_pool_proj -> inception_3b/pool_proj (in-place)
I0403 19:36:26.009626  9449 net.cpp:141] Setting up inception_3b/relu_pool_proj
I0403 19:36:26.009662  9449 net.cpp:148] Top shape: 24 64 28 28 (1204224)
I0403 19:36:26.009682  9449 net.cpp:156] Memory required for data: 773112864
I0403 19:36:26.009701  9449 layer_factory.hpp:77] Creating layer inception_3b/output
I0403 19:36:26.009724  9449 net.cpp:91] Creating Layer inception_3b/output
I0403 19:36:26.009743  9449 net.cpp:425] inception_3b/output <- inception_3b/1x1
I0403 19:36:26.009764  9449 net.cpp:425] inception_3b/output <- inception_3b/3x3
I0403 19:36:26.009784  9449 net.cpp:425] inception_3b/output <- inception_3b/5x5
I0403 19:36:26.009804  9449 net.cpp:425] inception_3b/output <- inception_3b/pool_proj
I0403 19:36:26.009825  9449 net.cpp:399] inception_3b/output -> inception_3b/output
I0403 19:36:26.009881  9449 net.cpp:141] Setting up inception_3b/output
I0403 19:36:26.009908  9449 net.cpp:148] Top shape: 24 480 28 28 (9031680)
I0403 19:36:26.009927  9449 net.cpp:156] Memory required for data: 809239584
I0403 19:36:26.009944  9449 layer_factory.hpp:77] Creating layer pool3/3x3_s2
I0403 19:36:26.009968  9449 net.cpp:91] Creating Layer pool3/3x3_s2
I0403 19:36:26.009989  9449 net.cpp:425] pool3/3x3_s2 <- inception_3b/output
I0403 19:36:26.010012  9449 net.cpp:399] pool3/3x3_s2 -> pool3/3x3_s2
I0403 19:36:26.010102  9449 net.cpp:141] Setting up pool3/3x3_s2
I0403 19:36:26.010133  9449 net.cpp:148] Top shape: 24 480 14 14 (2257920)
I0403 19:36:26.010150  9449 net.cpp:156] Memory required for data: 818271264
I0403 19:36:26.010169  9449 layer_factory.hpp:77] Creating layer pool3/3x3_s2_pool3/3x3_s2_0_split
I0403 19:36:26.010191  9449 net.cpp:91] Creating Layer pool3/3x3_s2_pool3/3x3_s2_0_split
I0403 19:36:26.010210  9449 net.cpp:425] pool3/3x3_s2_pool3/3x3_s2_0_split <- pool3/3x3_s2
I0403 19:36:26.010233  9449 net.cpp:399] pool3/3x3_s2_pool3/3x3_s2_0_split -> pool3/3x3_s2_pool3/3x3_s2_0_split_0
I0403 19:36:26.010259  9449 net.cpp:399] pool3/3x3_s2_pool3/3x3_s2_0_split -> pool3/3x3_s2_pool3/3x3_s2_0_split_1
I0403 19:36:26.010285  9449 net.cpp:399] pool3/3x3_s2_pool3/3x3_s2_0_split -> pool3/3x3_s2_pool3/3x3_s2_0_split_2
I0403 19:36:26.010309  9449 net.cpp:399] pool3/3x3_s2_pool3/3x3_s2_0_split -> pool3/3x3_s2_pool3/3x3_s2_0_split_3
I0403 19:36:26.010403  9449 net.cpp:141] Setting up pool3/3x3_s2_pool3/3x3_s2_0_split
I0403 19:36:26.010435  9449 net.cpp:148] Top shape: 24 480 14 14 (2257920)
I0403 19:36:26.010457  9449 net.cpp:148] Top shape: 24 480 14 14 (2257920)
I0403 19:36:26.010483  9449 net.cpp:148] Top shape: 24 480 14 14 (2257920)
I0403 19:36:26.010502  9449 net.cpp:148] Top shape: 24 480 14 14 (2257920)
I0403 19:36:26.010519  9449 net.cpp:156] Memory required for data: 854397984
I0403 19:36:26.010537  9449 layer_factory.hpp:77] Creating layer inception_4a/1x1
I0403 19:36:26.010565  9449 net.cpp:91] Creating Layer inception_4a/1x1
I0403 19:36:26.010591  9449 net.cpp:425] inception_4a/1x1 <- pool3/3x3_s2_pool3/3x3_s2_0_split_0
I0403 19:36:26.010615  9449 net.cpp:399] inception_4a/1x1 -> inception_4a/1x1
I0403 19:36:26.012544  9449 net.cpp:141] Setting up inception_4a/1x1
I0403 19:36:26.012579  9449 net.cpp:148] Top shape: 24 192 14 14 (903168)
I0403 19:36:26.012599  9449 net.cpp:156] Memory required for data: 858010656
I0403 19:36:26.012622  9449 layer_factory.hpp:77] Creating layer inception_4a/relu_1x1
I0403 19:36:26.012645  9449 net.cpp:91] Creating Layer inception_4a/relu_1x1
I0403 19:36:26.012663  9449 net.cpp:425] inception_4a/relu_1x1 <- inception_4a/1x1
I0403 19:36:26.012687  9449 net.cpp:386] inception_4a/relu_1x1 -> inception_4a/1x1 (in-place)
I0403 19:36:26.012907  9449 net.cpp:141] Setting up inception_4a/relu_1x1
I0403 19:36:26.012938  9449 net.cpp:148] Top shape: 24 192 14 14 (903168)
I0403 19:36:26.012956  9449 net.cpp:156] Memory required for data: 861623328
I0403 19:36:26.012975  9449 layer_factory.hpp:77] Creating layer inception_4a/3x3_reduce
I0403 19:36:26.013002  9449 net.cpp:91] Creating Layer inception_4a/3x3_reduce
I0403 19:36:26.013025  9449 net.cpp:425] inception_4a/3x3_reduce <- pool3/3x3_s2_pool3/3x3_s2_0_split_1
I0403 19:36:26.013051  9449 net.cpp:399] inception_4a/3x3_reduce -> inception_4a/3x3_reduce
I0403 19:36:26.014605  9449 net.cpp:141] Setting up inception_4a/3x3_reduce
I0403 19:36:26.014639  9449 net.cpp:148] Top shape: 24 96 14 14 (451584)
I0403 19:36:26.014659  9449 net.cpp:156] Memory required for data: 863429664
I0403 19:36:26.014690  9449 layer_factory.hpp:77] Creating layer inception_4a/relu_3x3_reduce
I0403 19:36:26.014714  9449 net.cpp:91] Creating Layer inception_4a/relu_3x3_reduce
I0403 19:36:26.014734  9449 net.cpp:425] inception_4a/relu_3x3_reduce <- inception_4a/3x3_reduce
I0403 19:36:26.014760  9449 net.cpp:386] inception_4a/relu_3x3_reduce -> inception_4a/3x3_reduce (in-place)
I0403 19:36:26.014972  9449 net.cpp:141] Setting up inception_4a/relu_3x3_reduce
I0403 19:36:26.015004  9449 net.cpp:148] Top shape: 24 96 14 14 (451584)
I0403 19:36:26.015023  9449 net.cpp:156] Memory required for data: 865236000
I0403 19:36:26.015041  9449 layer_factory.hpp:77] Creating layer inception_4a/3x3
I0403 19:36:26.015069  9449 net.cpp:91] Creating Layer inception_4a/3x3
I0403 19:36:26.015091  9449 net.cpp:425] inception_4a/3x3 <- inception_4a/3x3_reduce
I0403 19:36:26.015117  9449 net.cpp:399] inception_4a/3x3 -> inception_4a/3x3
I0403 19:36:26.018360  9449 net.cpp:141] Setting up inception_4a/3x3
I0403 19:36:26.018396  9449 net.cpp:148] Top shape: 24 208 14 14 (978432)
I0403 19:36:26.018416  9449 net.cpp:156] Memory required for data: 869149728
I0403 19:36:26.018440  9449 layer_factory.hpp:77] Creating layer inception_4a/relu_3x3
I0403 19:36:26.018473  9449 net.cpp:91] Creating Layer inception_4a/relu_3x3
I0403 19:36:26.018498  9449 net.cpp:425] inception_4a/relu_3x3 <- inception_4a/3x3
I0403 19:36:26.018520  9449 net.cpp:386] inception_4a/relu_3x3 -> inception_4a/3x3 (in-place)
I0403 19:36:26.018854  9449 net.cpp:141] Setting up inception_4a/relu_3x3
I0403 19:36:26.018887  9449 net.cpp:148] Top shape: 24 208 14 14 (978432)
I0403 19:36:26.018906  9449 net.cpp:156] Memory required for data: 873063456
I0403 19:36:26.018924  9449 layer_factory.hpp:77] Creating layer inception_4a/5x5_reduce
I0403 19:36:26.018952  9449 net.cpp:91] Creating Layer inception_4a/5x5_reduce
I0403 19:36:26.018975  9449 net.cpp:425] inception_4a/5x5_reduce <- pool3/3x3_s2_pool3/3x3_s2_0_split_2
I0403 19:36:26.019001  9449 net.cpp:399] inception_4a/5x5_reduce -> inception_4a/5x5_reduce
I0403 19:36:26.020229  9449 net.cpp:141] Setting up inception_4a/5x5_reduce
I0403 19:36:26.020264  9449 net.cpp:148] Top shape: 24 16 14 14 (75264)
I0403 19:36:26.020298  9449 net.cpp:156] Memory required for data: 873364512
I0403 19:36:26.020334  9449 layer_factory.hpp:77] Creating layer inception_4a/relu_5x5_reduce
I0403 19:36:26.020359  9449 net.cpp:91] Creating Layer inception_4a/relu_5x5_reduce
I0403 19:36:26.020409  9449 net.cpp:425] inception_4a/relu_5x5_reduce <- inception_4a/5x5_reduce
I0403 19:36:26.020457  9449 net.cpp:386] inception_4a/relu_5x5_reduce -> inception_4a/5x5_reduce (in-place)
I0403 19:36:26.020685  9449 net.cpp:141] Setting up inception_4a/relu_5x5_reduce
I0403 19:36:26.020738  9449 net.cpp:148] Top shape: 24 16 14 14 (75264)
I0403 19:36:26.020767  9449 net.cpp:156] Memory required for data: 873665568
I0403 19:36:26.020792  9449 layer_factory.hpp:77] Creating layer inception_4a/5x5
I0403 19:36:26.020828  9449 net.cpp:91] Creating Layer inception_4a/5x5
I0403 19:36:26.020884  9449 net.cpp:425] inception_4a/5x5 <- inception_4a/5x5_reduce
I0403 19:36:26.020970  9449 net.cpp:399] inception_4a/5x5 -> inception_4a/5x5
I0403 19:36:26.022295  9449 net.cpp:141] Setting up inception_4a/5x5
I0403 19:36:26.022333  9449 net.cpp:148] Top shape: 24 48 14 14 (225792)
I0403 19:36:26.022353  9449 net.cpp:156] Memory required for data: 874568736
I0403 19:36:26.022377  9449 layer_factory.hpp:77] Creating layer inception_4a/relu_5x5
I0403 19:36:26.022399  9449 net.cpp:91] Creating Layer inception_4a/relu_5x5
I0403 19:36:26.022420  9449 net.cpp:425] inception_4a/relu_5x5 <- inception_4a/5x5
I0403 19:36:26.022444  9449 net.cpp:386] inception_4a/relu_5x5 -> inception_4a/5x5 (in-place)
I0403 19:36:26.022680  9449 net.cpp:141] Setting up inception_4a/relu_5x5
I0403 19:36:26.022713  9449 net.cpp:148] Top shape: 24 48 14 14 (225792)
I0403 19:36:26.022732  9449 net.cpp:156] Memory required for data: 875471904
I0403 19:36:26.022755  9449 layer_factory.hpp:77] Creating layer inception_4a/pool
I0403 19:36:26.022778  9449 net.cpp:91] Creating Layer inception_4a/pool
I0403 19:36:26.022797  9449 net.cpp:425] inception_4a/pool <- pool3/3x3_s2_pool3/3x3_s2_0_split_3
I0403 19:36:26.022824  9449 net.cpp:399] inception_4a/pool -> inception_4a/pool
I0403 19:36:26.022898  9449 net.cpp:141] Setting up inception_4a/pool
I0403 19:36:26.022927  9449 net.cpp:148] Top shape: 24 480 14 14 (2257920)
I0403 19:36:26.022946  9449 net.cpp:156] Memory required for data: 884503584
I0403 19:36:26.022964  9449 layer_factory.hpp:77] Creating layer inception_4a/pool_proj
I0403 19:36:26.022992  9449 net.cpp:91] Creating Layer inception_4a/pool_proj
I0403 19:36:26.023015  9449 net.cpp:425] inception_4a/pool_proj <- inception_4a/pool
I0403 19:36:26.023041  9449 net.cpp:399] inception_4a/pool_proj -> inception_4a/pool_proj
I0403 19:36:26.024456  9449 net.cpp:141] Setting up inception_4a/pool_proj
I0403 19:36:26.024498  9449 net.cpp:148] Top shape: 24 64 14 14 (301056)
I0403 19:36:26.024538  9449 net.cpp:156] Memory required for data: 885707808
I0403 19:36:26.024562  9449 layer_factory.hpp:77] Creating layer inception_4a/relu_pool_proj
I0403 19:36:26.024585  9449 net.cpp:91] Creating Layer inception_4a/relu_pool_proj
I0403 19:36:26.024605  9449 net.cpp:425] inception_4a/relu_pool_proj <- inception_4a/pool_proj
I0403 19:36:26.024631  9449 net.cpp:386] inception_4a/relu_pool_proj -> inception_4a/pool_proj (in-place)
I0403 19:36:26.024972  9449 net.cpp:141] Setting up inception_4a/relu_pool_proj
I0403 19:36:26.025005  9449 net.cpp:148] Top shape: 24 64 14 14 (301056)
I0403 19:36:26.025025  9449 net.cpp:156] Memory required for data: 886912032
I0403 19:36:26.025043  9449 layer_factory.hpp:77] Creating layer inception_4a/output
I0403 19:36:26.025065  9449 net.cpp:91] Creating Layer inception_4a/output
I0403 19:36:26.025085  9449 net.cpp:425] inception_4a/output <- inception_4a/1x1
I0403 19:36:26.025107  9449 net.cpp:425] inception_4a/output <- inception_4a/3x3
I0403 19:36:26.025128  9449 net.cpp:425] inception_4a/output <- inception_4a/5x5
I0403 19:36:26.025148  9449 net.cpp:425] inception_4a/output <- inception_4a/pool_proj
I0403 19:36:26.025172  9449 net.cpp:399] inception_4a/output -> inception_4a/output
I0403 19:36:26.025228  9449 net.cpp:141] Setting up inception_4a/output
I0403 19:36:26.025259  9449 net.cpp:148] Top shape: 24 512 14 14 (2408448)
I0403 19:36:26.025279  9449 net.cpp:156] Memory required for data: 896545824
I0403 19:36:26.025297  9449 layer_factory.hpp:77] Creating layer inception_4a/output_inception_4a/output_0_split
I0403 19:36:26.025320  9449 net.cpp:91] Creating Layer inception_4a/output_inception_4a/output_0_split
I0403 19:36:26.025339  9449 net.cpp:425] inception_4a/output_inception_4a/output_0_split <- inception_4a/output
I0403 19:36:26.025360  9449 net.cpp:399] inception_4a/output_inception_4a/output_0_split -> inception_4a/output_inception_4a/output_0_split_0
I0403 19:36:26.025388  9449 net.cpp:399] inception_4a/output_inception_4a/output_0_split -> inception_4a/output_inception_4a/output_0_split_1
I0403 19:36:26.025415  9449 net.cpp:399] inception_4a/output_inception_4a/output_0_split -> inception_4a/output_inception_4a/output_0_split_2
I0403 19:36:26.025441  9449 net.cpp:399] inception_4a/output_inception_4a/output_0_split -> inception_4a/output_inception_4a/output_0_split_3
I0403 19:36:26.025475  9449 net.cpp:399] inception_4a/output_inception_4a/output_0_split -> inception_4a/output_inception_4a/output_0_split_4
I0403 19:36:26.025591  9449 net.cpp:141] Setting up inception_4a/output_inception_4a/output_0_split
I0403 19:36:26.025621  9449 net.cpp:148] Top shape: 24 512 14 14 (2408448)
I0403 19:36:26.025641  9449 net.cpp:148] Top shape: 24 512 14 14 (2408448)
I0403 19:36:26.025661  9449 net.cpp:148] Top shape: 24 512 14 14 (2408448)
I0403 19:36:26.025681  9449 net.cpp:148] Top shape: 24 512 14 14 (2408448)
I0403 19:36:26.025701  9449 net.cpp:148] Top shape: 24 512 14 14 (2408448)
I0403 19:36:26.025717  9449 net.cpp:156] Memory required for data: 944714784
I0403 19:36:26.025737  9449 layer_factory.hpp:77] Creating layer loss1/ave_pool
I0403 19:36:26.025761  9449 net.cpp:91] Creating Layer loss1/ave_pool
I0403 19:36:26.025782  9449 net.cpp:425] loss1/ave_pool <- inception_4a/output_inception_4a/output_0_split_0
I0403 19:36:26.025804  9449 net.cpp:399] loss1/ave_pool -> loss1/ave_pool
I0403 19:36:26.026062  9449 net.cpp:141] Setting up loss1/ave_pool
I0403 19:36:26.026093  9449 net.cpp:148] Top shape: 24 512 4 4 (196608)
I0403 19:36:26.026118  9449 net.cpp:156] Memory required for data: 945501216
I0403 19:36:26.026136  9449 layer_factory.hpp:77] Creating layer loss1/conv
I0403 19:36:26.026165  9449 net.cpp:91] Creating Layer loss1/conv
I0403 19:36:26.026187  9449 net.cpp:425] loss1/conv <- loss1/ave_pool
I0403 19:36:26.026212  9449 net.cpp:399] loss1/conv -> loss1/conv
I0403 19:36:26.027936  9449 net.cpp:141] Setting up loss1/conv
I0403 19:36:26.027971  9449 net.cpp:148] Top shape: 24 128 4 4 (49152)
I0403 19:36:26.027992  9449 net.cpp:156] Memory required for data: 945697824
I0403 19:36:26.028033  9449 layer_factory.hpp:77] Creating layer loss1/relu_conv
I0403 19:36:26.028061  9449 net.cpp:91] Creating Layer loss1/relu_conv
I0403 19:36:26.028081  9449 net.cpp:425] loss1/relu_conv <- loss1/conv
I0403 19:36:26.028103  9449 net.cpp:386] loss1/relu_conv -> loss1/conv (in-place)
I0403 19:36:26.028445  9449 net.cpp:141] Setting up loss1/relu_conv
I0403 19:36:26.028484  9449 net.cpp:148] Top shape: 24 128 4 4 (49152)
I0403 19:36:26.028504  9449 net.cpp:156] Memory required for data: 945894432
I0403 19:36:26.028524  9449 layer_factory.hpp:77] Creating layer loss1/fc
I0403 19:36:26.028558  9449 net.cpp:91] Creating Layer loss1/fc
I0403 19:36:26.028581  9449 net.cpp:425] loss1/fc <- loss1/conv
I0403 19:36:26.028604  9449 net.cpp:399] loss1/fc -> loss1/fc
I0403 19:36:26.050611  9449 net.cpp:141] Setting up loss1/fc
I0403 19:36:26.050652  9449 net.cpp:148] Top shape: 24 1024 (24576)
I0403 19:36:26.050674  9449 net.cpp:156] Memory required for data: 945992736
I0403 19:36:26.050698  9449 layer_factory.hpp:77] Creating layer loss1/relu_fc
I0403 19:36:26.050721  9449 net.cpp:91] Creating Layer loss1/relu_fc
I0403 19:36:26.050741  9449 net.cpp:425] loss1/relu_fc <- loss1/fc
I0403 19:36:26.050765  9449 net.cpp:386] loss1/relu_fc -> loss1/fc (in-place)
I0403 19:36:26.051002  9449 net.cpp:141] Setting up loss1/relu_fc
I0403 19:36:26.051033  9449 net.cpp:148] Top shape: 24 1024 (24576)
I0403 19:36:26.051051  9449 net.cpp:156] Memory required for data: 946091040
I0403 19:36:26.051070  9449 layer_factory.hpp:77] Creating layer loss1/drop_fc
I0403 19:36:26.051105  9449 net.cpp:91] Creating Layer loss1/drop_fc
I0403 19:36:26.051127  9449 net.cpp:425] loss1/drop_fc <- loss1/fc
I0403 19:36:26.051149  9449 net.cpp:386] loss1/drop_fc -> loss1/fc (in-place)
I0403 19:36:26.051211  9449 net.cpp:141] Setting up loss1/drop_fc
I0403 19:36:26.051244  9449 net.cpp:148] Top shape: 24 1024 (24576)
I0403 19:36:26.051265  9449 net.cpp:156] Memory required for data: 946189344
I0403 19:36:26.051285  9449 layer_factory.hpp:77] Creating layer loss1/classifier_plantvillage
I0403 19:36:26.051306  9449 net.cpp:91] Creating Layer loss1/classifier_plantvillage
I0403 19:36:26.051327  9449 net.cpp:425] loss1/classifier_plantvillage <- loss1/fc
I0403 19:36:26.051353  9449 net.cpp:399] loss1/classifier_plantvillage -> loss1/classifier_plantvillage
I0403 19:36:26.052449  9449 net.cpp:141] Setting up loss1/classifier_plantvillage
I0403 19:36:26.052498  9449 net.cpp:148] Top shape: 24 38 (912)
I0403 19:36:26.052520  9449 net.cpp:156] Memory required for data: 946192992
I0403 19:36:26.052542  9449 layer_factory.hpp:77] Creating layer loss1/classifier_plantvillage_loss1/classifier_plantvillage_0_split
I0403 19:36:26.052567  9449 net.cpp:91] Creating Layer loss1/classifier_plantvillage_loss1/classifier_plantvillage_0_split
I0403 19:36:26.052588  9449 net.cpp:425] loss1/classifier_plantvillage_loss1/classifier_plantvillage_0_split <- loss1/classifier_plantvillage
I0403 19:36:26.052611  9449 net.cpp:399] loss1/classifier_plantvillage_loss1/classifier_plantvillage_0_split -> loss1/classifier_plantvillage_loss1/classifier_plantvillage_0_split_0
I0403 19:36:26.052635  9449 net.cpp:399] loss1/classifier_plantvillage_loss1/classifier_plantvillage_0_split -> loss1/classifier_plantvillage_loss1/classifier_plantvillage_0_split_1
I0403 19:36:26.052660  9449 net.cpp:399] loss1/classifier_plantvillage_loss1/classifier_plantvillage_0_split -> loss1/classifier_plantvillage_loss1/classifier_plantvillage_0_split_2
I0403 19:36:26.052742  9449 net.cpp:141] Setting up loss1/classifier_plantvillage_loss1/classifier_plantvillage_0_split
I0403 19:36:26.052774  9449 net.cpp:148] Top shape: 24 38 (912)
I0403 19:36:26.052796  9449 net.cpp:148] Top shape: 24 38 (912)
I0403 19:36:26.052815  9449 net.cpp:148] Top shape: 24 38 (912)
I0403 19:36:26.052832  9449 net.cpp:156] Memory required for data: 946203936
I0403 19:36:26.052851  9449 layer_factory.hpp:77] Creating layer inception_4b/1x1
I0403 19:36:26.052875  9449 net.cpp:91] Creating Layer inception_4b/1x1
I0403 19:36:26.052916  9449 net.cpp:425] inception_4b/1x1 <- inception_4a/output_inception_4a/output_0_split_1
I0403 19:36:26.052942  9449 net.cpp:399] inception_4b/1x1 -> inception_4b/1x1
I0403 19:36:26.054935  9449 net.cpp:141] Setting up inception_4b/1x1
I0403 19:36:26.054970  9449 net.cpp:148] Top shape: 24 160 14 14 (752640)
I0403 19:36:26.054991  9449 net.cpp:156] Memory required for data: 949214496
I0403 19:36:26.055014  9449 layer_factory.hpp:77] Creating layer inception_4b/relu_1x1
I0403 19:36:26.055039  9449 net.cpp:91] Creating Layer inception_4b/relu_1x1
I0403 19:36:26.055061  9449 net.cpp:425] inception_4b/relu_1x1 <- inception_4b/1x1
I0403 19:36:26.055084  9449 net.cpp:386] inception_4b/relu_1x1 -> inception_4b/1x1 (in-place)
I0403 19:36:26.055310  9449 net.cpp:141] Setting up inception_4b/relu_1x1
I0403 19:36:26.055342  9449 net.cpp:148] Top shape: 24 160 14 14 (752640)
I0403 19:36:26.055362  9449 net.cpp:156] Memory required for data: 952225056
I0403 19:36:26.055380  9449 layer_factory.hpp:77] Creating layer inception_4b/3x3_reduce
I0403 19:36:26.055409  9449 net.cpp:91] Creating Layer inception_4b/3x3_reduce
I0403 19:36:26.055431  9449 net.cpp:425] inception_4b/3x3_reduce <- inception_4a/output_inception_4a/output_0_split_2
I0403 19:36:26.055455  9449 net.cpp:399] inception_4b/3x3_reduce -> inception_4b/3x3_reduce
I0403 19:36:26.057108  9449 net.cpp:141] Setting up inception_4b/3x3_reduce
I0403 19:36:26.057147  9449 net.cpp:148] Top shape: 24 112 14 14 (526848)
I0403 19:36:26.057168  9449 net.cpp:156] Memory required for data: 954332448
I0403 19:36:26.057193  9449 layer_factory.hpp:77] Creating layer inception_4b/relu_3x3_reduce
I0403 19:36:26.057214  9449 net.cpp:91] Creating Layer inception_4b/relu_3x3_reduce
I0403 19:36:26.057235  9449 net.cpp:425] inception_4b/relu_3x3_reduce <- inception_4b/3x3_reduce
I0403 19:36:26.057258  9449 net.cpp:386] inception_4b/relu_3x3_reduce -> inception_4b/3x3_reduce (in-place)
I0403 19:36:26.057608  9449 net.cpp:141] Setting up inception_4b/relu_3x3_reduce
I0403 19:36:26.057646  9449 net.cpp:148] Top shape: 24 112 14 14 (526848)
I0403 19:36:26.057665  9449 net.cpp:156] Memory required for data: 956439840
I0403 19:36:26.057684  9449 layer_factory.hpp:77] Creating layer inception_4b/3x3
I0403 19:36:26.057713  9449 net.cpp:91] Creating Layer inception_4b/3x3
I0403 19:36:26.057735  9449 net.cpp:425] inception_4b/3x3 <- inception_4b/3x3_reduce
I0403 19:36:26.057760  9449 net.cpp:399] inception_4b/3x3 -> inception_4b/3x3
I0403 19:36:26.061394  9449 net.cpp:141] Setting up inception_4b/3x3
I0403 19:36:26.061432  9449 net.cpp:148] Top shape: 24 224 14 14 (1053696)
I0403 19:36:26.061451  9449 net.cpp:156] Memory required for data: 960654624
I0403 19:36:26.061482  9449 layer_factory.hpp:77] Creating layer inception_4b/relu_3x3
I0403 19:36:26.061507  9449 net.cpp:91] Creating Layer inception_4b/relu_3x3
I0403 19:36:26.061532  9449 net.cpp:425] inception_4b/relu_3x3 <- inception_4b/3x3
I0403 19:36:26.061554  9449 net.cpp:386] inception_4b/relu_3x3 -> inception_4b/3x3 (in-place)
I0403 19:36:26.061774  9449 net.cpp:141] Setting up inception_4b/relu_3x3
I0403 19:36:26.061806  9449 net.cpp:148] Top shape: 24 224 14 14 (1053696)
I0403 19:36:26.061825  9449 net.cpp:156] Memory required for data: 964869408
I0403 19:36:26.061843  9449 layer_factory.hpp:77] Creating layer inception_4b/5x5_reduce
I0403 19:36:26.061872  9449 net.cpp:91] Creating Layer inception_4b/5x5_reduce
I0403 19:36:26.061892  9449 net.cpp:425] inception_4b/5x5_reduce <- inception_4a/output_inception_4a/output_0_split_3
I0403 19:36:26.061920  9449 net.cpp:399] inception_4b/5x5_reduce -> inception_4b/5x5_reduce
I0403 19:36:26.063249  9449 net.cpp:141] Setting up inception_4b/5x5_reduce
I0403 19:36:26.063283  9449 net.cpp:148] Top shape: 24 24 14 14 (112896)
I0403 19:36:26.063303  9449 net.cpp:156] Memory required for data: 965320992
I0403 19:36:26.063326  9449 layer_factory.hpp:77] Creating layer inception_4b/relu_5x5_reduce
I0403 19:36:26.063352  9449 net.cpp:91] Creating Layer inception_4b/relu_5x5_reduce
I0403 19:36:26.063390  9449 net.cpp:425] inception_4b/relu_5x5_reduce <- inception_4b/5x5_reduce
I0403 19:36:26.063413  9449 net.cpp:386] inception_4b/relu_5x5_reduce -> inception_4b/5x5_reduce (in-place)
I0403 19:36:26.063647  9449 net.cpp:141] Setting up inception_4b/relu_5x5_reduce
I0403 19:36:26.063679  9449 net.cpp:148] Top shape: 24 24 14 14 (112896)
I0403 19:36:26.063699  9449 net.cpp:156] Memory required for data: 965772576
I0403 19:36:26.063717  9449 layer_factory.hpp:77] Creating layer inception_4b/5x5
I0403 19:36:26.063745  9449 net.cpp:91] Creating Layer inception_4b/5x5
I0403 19:36:26.063767  9449 net.cpp:425] inception_4b/5x5 <- inception_4b/5x5_reduce
I0403 19:36:26.063793  9449 net.cpp:399] inception_4b/5x5 -> inception_4b/5x5
I0403 19:36:26.065279  9449 net.cpp:141] Setting up inception_4b/5x5
I0403 19:36:26.065313  9449 net.cpp:148] Top shape: 24 64 14 14 (301056)
I0403 19:36:26.065332  9449 net.cpp:156] Memory required for data: 966976800
I0403 19:36:26.065356  9449 layer_factory.hpp:77] Creating layer inception_4b/relu_5x5
I0403 19:36:26.065382  9449 net.cpp:91] Creating Layer inception_4b/relu_5x5
I0403 19:36:26.065403  9449 net.cpp:425] inception_4b/relu_5x5 <- inception_4b/5x5
I0403 19:36:26.065425  9449 net.cpp:386] inception_4b/relu_5x5 -> inception_4b/5x5 (in-place)
I0403 19:36:26.065783  9449 net.cpp:141] Setting up inception_4b/relu_5x5
I0403 19:36:26.065815  9449 net.cpp:148] Top shape: 24 64 14 14 (301056)
I0403 19:36:26.065834  9449 net.cpp:156] Memory required for data: 968181024
I0403 19:36:26.065853  9449 layer_factory.hpp:77] Creating layer inception_4b/pool
I0403 19:36:26.065879  9449 net.cpp:91] Creating Layer inception_4b/pool
I0403 19:36:26.065901  9449 net.cpp:425] inception_4b/pool <- inception_4a/output_inception_4a/output_0_split_4
I0403 19:36:26.065923  9449 net.cpp:399] inception_4b/pool -> inception_4b/pool
I0403 19:36:26.066005  9449 net.cpp:141] Setting up inception_4b/pool
I0403 19:36:26.066035  9449 net.cpp:148] Top shape: 24 512 14 14 (2408448)
I0403 19:36:26.066053  9449 net.cpp:156] Memory required for data: 977814816
I0403 19:36:26.066071  9449 layer_factory.hpp:77] Creating layer inception_4b/pool_proj
I0403 19:36:26.066099  9449 net.cpp:91] Creating Layer inception_4b/pool_proj
I0403 19:36:26.066121  9449 net.cpp:425] inception_4b/pool_proj <- inception_4b/pool
I0403 19:36:26.066148  9449 net.cpp:399] inception_4b/pool_proj -> inception_4b/pool_proj
I0403 19:36:26.067792  9449 net.cpp:141] Setting up inception_4b/pool_proj
I0403 19:36:26.067827  9449 net.cpp:148] Top shape: 24 64 14 14 (301056)
I0403 19:36:26.067852  9449 net.cpp:156] Memory required for data: 979019040
I0403 19:36:26.067876  9449 layer_factory.hpp:77] Creating layer inception_4b/relu_pool_proj
I0403 19:36:26.067898  9449 net.cpp:91] Creating Layer inception_4b/relu_pool_proj
I0403 19:36:26.067917  9449 net.cpp:425] inception_4b/relu_pool_proj <- inception_4b/pool_proj
I0403 19:36:26.067939  9449 net.cpp:386] inception_4b/relu_pool_proj -> inception_4b/pool_proj (in-place)
I0403 19:36:26.068163  9449 net.cpp:141] Setting up inception_4b/relu_pool_proj
I0403 19:36:26.068198  9449 net.cpp:148] Top shape: 24 64 14 14 (301056)
I0403 19:36:26.068220  9449 net.cpp:156] Memory required for data: 980223264
I0403 19:36:26.068239  9449 layer_factory.hpp:77] Creating layer inception_4b/output
I0403 19:36:26.068261  9449 net.cpp:91] Creating Layer inception_4b/output
I0403 19:36:26.068281  9449 net.cpp:425] inception_4b/output <- inception_4b/1x1
I0403 19:36:26.068303  9449 net.cpp:425] inception_4b/output <- inception_4b/3x3
I0403 19:36:26.068323  9449 net.cpp:425] inception_4b/output <- inception_4b/5x5
I0403 19:36:26.068344  9449 net.cpp:425] inception_4b/output <- inception_4b/pool_proj
I0403 19:36:26.068367  9449 net.cpp:399] inception_4b/output -> inception_4b/output
I0403 19:36:26.068423  9449 net.cpp:141] Setting up inception_4b/output
I0403 19:36:26.068451  9449 net.cpp:148] Top shape: 24 512 14 14 (2408448)
I0403 19:36:26.068476  9449 net.cpp:156] Memory required for data: 989857056
I0403 19:36:26.068512  9449 layer_factory.hpp:77] Creating layer inception_4b/output_inception_4b/output_0_split
I0403 19:36:26.068539  9449 net.cpp:91] Creating Layer inception_4b/output_inception_4b/output_0_split
I0403 19:36:26.068560  9449 net.cpp:425] inception_4b/output_inception_4b/output_0_split <- inception_4b/output
I0403 19:36:26.068583  9449 net.cpp:399] inception_4b/output_inception_4b/output_0_split -> inception_4b/output_inception_4b/output_0_split_0
I0403 19:36:26.068606  9449 net.cpp:399] inception_4b/output_inception_4b/output_0_split -> inception_4b/output_inception_4b/output_0_split_1
I0403 19:36:26.068635  9449 net.cpp:399] inception_4b/output_inception_4b/output_0_split -> inception_4b/output_inception_4b/output_0_split_2
I0403 19:36:26.068660  9449 net.cpp:399] inception_4b/output_inception_4b/output_0_split -> inception_4b/output_inception_4b/output_0_split_3
I0403 19:36:26.068761  9449 net.cpp:141] Setting up inception_4b/output_inception_4b/output_0_split
I0403 19:36:26.068791  9449 net.cpp:148] Top shape: 24 512 14 14 (2408448)
I0403 19:36:26.068812  9449 net.cpp:148] Top shape: 24 512 14 14 (2408448)
I0403 19:36:26.068832  9449 net.cpp:148] Top shape: 24 512 14 14 (2408448)
I0403 19:36:26.068852  9449 net.cpp:148] Top shape: 24 512 14 14 (2408448)
I0403 19:36:26.068869  9449 net.cpp:156] Memory required for data: 1028392224
I0403 19:36:26.068888  9449 layer_factory.hpp:77] Creating layer inception_4c/1x1
I0403 19:36:26.068917  9449 net.cpp:91] Creating Layer inception_4c/1x1
I0403 19:36:26.068938  9449 net.cpp:425] inception_4c/1x1 <- inception_4b/output_inception_4b/output_0_split_0
I0403 19:36:26.068964  9449 net.cpp:399] inception_4c/1x1 -> inception_4c/1x1
I0403 19:36:26.070721  9449 net.cpp:141] Setting up inception_4c/1x1
I0403 19:36:26.070760  9449 net.cpp:148] Top shape: 24 128 14 14 (602112)
I0403 19:36:26.070781  9449 net.cpp:156] Memory required for data: 1030800672
I0403 19:36:26.070804  9449 layer_factory.hpp:77] Creating layer inception_4c/relu_1x1
I0403 19:36:26.070827  9449 net.cpp:91] Creating Layer inception_4c/relu_1x1
I0403 19:36:26.070847  9449 net.cpp:425] inception_4c/relu_1x1 <- inception_4c/1x1
I0403 19:36:26.070869  9449 net.cpp:386] inception_4c/relu_1x1 -> inception_4c/1x1 (in-place)
I0403 19:36:26.071089  9449 net.cpp:141] Setting up inception_4c/relu_1x1
I0403 19:36:26.071120  9449 net.cpp:148] Top shape: 24 128 14 14 (602112)
I0403 19:36:26.071140  9449 net.cpp:156] Memory required for data: 1033209120
I0403 19:36:26.071157  9449 layer_factory.hpp:77] Creating layer inception_4c/3x3_reduce
I0403 19:36:26.071185  9449 net.cpp:91] Creating Layer inception_4c/3x3_reduce
I0403 19:36:26.071207  9449 net.cpp:425] inception_4c/3x3_reduce <- inception_4b/output_inception_4b/output_0_split_1
I0403 19:36:26.071233  9449 net.cpp:399] inception_4c/3x3_reduce -> inception_4c/3x3_reduce
I0403 19:36:26.073622  9449 net.cpp:141] Setting up inception_4c/3x3_reduce
I0403 19:36:26.073662  9449 net.cpp:148] Top shape: 24 128 14 14 (602112)
I0403 19:36:26.073683  9449 net.cpp:156] Memory required for data: 1035617568
I0403 19:36:26.073706  9449 layer_factory.hpp:77] Creating layer inception_4c/relu_3x3_reduce
I0403 19:36:26.073735  9449 net.cpp:91] Creating Layer inception_4c/relu_3x3_reduce
I0403 19:36:26.073756  9449 net.cpp:425] inception_4c/relu_3x3_reduce <- inception_4c/3x3_reduce
I0403 19:36:26.073778  9449 net.cpp:386] inception_4c/relu_3x3_reduce -> inception_4c/3x3_reduce (in-place)
I0403 19:36:26.074132  9449 net.cpp:141] Setting up inception_4c/relu_3x3_reduce
I0403 19:36:26.074164  9449 net.cpp:148] Top shape: 24 128 14 14 (602112)
I0403 19:36:26.074184  9449 net.cpp:156] Memory required for data: 1038026016
I0403 19:36:26.074203  9449 layer_factory.hpp:77] Creating layer inception_4c/3x3
I0403 19:36:26.074230  9449 net.cpp:91] Creating Layer inception_4c/3x3
I0403 19:36:26.074252  9449 net.cpp:425] inception_4c/3x3 <- inception_4c/3x3_reduce
I0403 19:36:26.074280  9449 net.cpp:399] inception_4c/3x3 -> inception_4c/3x3
I0403 19:36:26.078690  9449 net.cpp:141] Setting up inception_4c/3x3
I0403 19:36:26.078740  9449 net.cpp:148] Top shape: 24 256 14 14 (1204224)
I0403 19:36:26.078760  9449 net.cpp:156] Memory required for data: 1042842912
I0403 19:36:26.078799  9449 layer_factory.hpp:77] Creating layer inception_4c/relu_3x3
I0403 19:36:26.078827  9449 net.cpp:91] Creating Layer inception_4c/relu_3x3
I0403 19:36:26.078848  9449 net.cpp:425] inception_4c/relu_3x3 <- inception_4c/3x3
I0403 19:36:26.078869  9449 net.cpp:386] inception_4c/relu_3x3 -> inception_4c/3x3 (in-place)
I0403 19:36:26.079097  9449 net.cpp:141] Setting up inception_4c/relu_3x3
I0403 19:36:26.079128  9449 net.cpp:148] Top shape: 24 256 14 14 (1204224)
I0403 19:36:26.079146  9449 net.cpp:156] Memory required for data: 1047659808
I0403 19:36:26.079166  9449 layer_factory.hpp:77] Creating layer inception_4c/5x5_reduce
I0403 19:36:26.079197  9449 net.cpp:91] Creating Layer inception_4c/5x5_reduce
I0403 19:36:26.079228  9449 net.cpp:425] inception_4c/5x5_reduce <- inception_4b/output_inception_4b/output_0_split_2
I0403 19:36:26.079252  9449 net.cpp:399] inception_4c/5x5_reduce -> inception_4c/5x5_reduce
I0403 19:36:26.080592  9449 net.cpp:141] Setting up inception_4c/5x5_reduce
I0403 19:36:26.080627  9449 net.cpp:148] Top shape: 24 24 14 14 (112896)
I0403 19:36:26.080646  9449 net.cpp:156] Memory required for data: 1048111392
I0403 19:36:26.080669  9449 layer_factory.hpp:77] Creating layer inception_4c/relu_5x5_reduce
I0403 19:36:26.080693  9449 net.cpp:91] Creating Layer inception_4c/relu_5x5_reduce
I0403 19:36:26.080715  9449 net.cpp:425] inception_4c/relu_5x5_reduce <- inception_4c/5x5_reduce
I0403 19:36:26.080736  9449 net.cpp:386] inception_4c/relu_5x5_reduce -> inception_4c/5x5_reduce (in-place)
I0403 19:36:26.080968  9449 net.cpp:141] Setting up inception_4c/relu_5x5_reduce
I0403 19:36:26.081001  9449 net.cpp:148] Top shape: 24 24 14 14 (112896)
I0403 19:36:26.081020  9449 net.cpp:156] Memory required for data: 1048562976
I0403 19:36:26.081039  9449 layer_factory.hpp:77] Creating layer inception_4c/5x5
I0403 19:36:26.081066  9449 net.cpp:91] Creating Layer inception_4c/5x5
I0403 19:36:26.081089  9449 net.cpp:425] inception_4c/5x5 <- inception_4c/5x5_reduce
I0403 19:36:26.081115  9449 net.cpp:399] inception_4c/5x5 -> inception_4c/5x5
I0403 19:36:26.082655  9449 net.cpp:141] Setting up inception_4c/5x5
I0403 19:36:26.082693  9449 net.cpp:148] Top shape: 24 64 14 14 (301056)
I0403 19:36:26.082715  9449 net.cpp:156] Memory required for data: 1049767200
I0403 19:36:26.082737  9449 layer_factory.hpp:77] Creating layer inception_4c/relu_5x5
I0403 19:36:26.082761  9449 net.cpp:91] Creating Layer inception_4c/relu_5x5
I0403 19:36:26.082780  9449 net.cpp:425] inception_4c/relu_5x5 <- inception_4c/5x5
I0403 19:36:26.082804  9449 net.cpp:386] inception_4c/relu_5x5 -> inception_4c/5x5 (in-place)
I0403 19:36:26.083155  9449 net.cpp:141] Setting up inception_4c/relu_5x5
I0403 19:36:26.083194  9449 net.cpp:148] Top shape: 24 64 14 14 (301056)
I0403 19:36:26.083214  9449 net.cpp:156] Memory required for data: 1050971424
I0403 19:36:26.083235  9449 layer_factory.hpp:77] Creating layer inception_4c/pool
I0403 19:36:26.083256  9449 net.cpp:91] Creating Layer inception_4c/pool
I0403 19:36:26.083277  9449 net.cpp:425] inception_4c/pool <- inception_4b/output_inception_4b/output_0_split_3
I0403 19:36:26.083303  9449 net.cpp:399] inception_4c/pool -> inception_4c/pool
I0403 19:36:26.083384  9449 net.cpp:141] Setting up inception_4c/pool
I0403 19:36:26.083416  9449 net.cpp:148] Top shape: 24 512 14 14 (2408448)
I0403 19:36:26.083436  9449 net.cpp:156] Memory required for data: 1060605216
I0403 19:36:26.083452  9449 layer_factory.hpp:77] Creating layer inception_4c/pool_proj
I0403 19:36:26.083487  9449 net.cpp:91] Creating Layer inception_4c/pool_proj
I0403 19:36:26.083510  9449 net.cpp:425] inception_4c/pool_proj <- inception_4c/pool
I0403 19:36:26.083536  9449 net.cpp:399] inception_4c/pool_proj -> inception_4c/pool_proj
I0403 19:36:26.085028  9449 net.cpp:141] Setting up inception_4c/pool_proj
I0403 19:36:26.085064  9449 net.cpp:148] Top shape: 24 64 14 14 (301056)
I0403 19:36:26.085101  9449 net.cpp:156] Memory required for data: 1061809440
I0403 19:36:26.085125  9449 layer_factory.hpp:77] Creating layer inception_4c/relu_pool_proj
I0403 19:36:26.085155  9449 net.cpp:91] Creating Layer inception_4c/relu_pool_proj
I0403 19:36:26.085183  9449 net.cpp:425] inception_4c/relu_pool_proj <- inception_4c/pool_proj
I0403 19:36:26.085206  9449 net.cpp:386] inception_4c/relu_pool_proj -> inception_4c/pool_proj (in-place)
I0403 19:36:26.085429  9449 net.cpp:141] Setting up inception_4c/relu_pool_proj
I0403 19:36:26.085467  9449 net.cpp:148] Top shape: 24 64 14 14 (301056)
I0403 19:36:26.085490  9449 net.cpp:156] Memory required for data: 1063013664
I0403 19:36:26.085508  9449 layer_factory.hpp:77] Creating layer inception_4c/output
I0403 19:36:26.085530  9449 net.cpp:91] Creating Layer inception_4c/output
I0403 19:36:26.085549  9449 net.cpp:425] inception_4c/output <- inception_4c/1x1
I0403 19:36:26.085571  9449 net.cpp:425] inception_4c/output <- inception_4c/3x3
I0403 19:36:26.085590  9449 net.cpp:425] inception_4c/output <- inception_4c/5x5
I0403 19:36:26.085609  9449 net.cpp:425] inception_4c/output <- inception_4c/pool_proj
I0403 19:36:26.085633  9449 net.cpp:399] inception_4c/output -> inception_4c/output
I0403 19:36:26.085696  9449 net.cpp:141] Setting up inception_4c/output
I0403 19:36:26.085726  9449 net.cpp:148] Top shape: 24 512 14 14 (2408448)
I0403 19:36:26.085752  9449 net.cpp:156] Memory required for data: 1072647456
I0403 19:36:26.085769  9449 layer_factory.hpp:77] Creating layer inception_4c/output_inception_4c/output_0_split
I0403 19:36:26.085794  9449 net.cpp:91] Creating Layer inception_4c/output_inception_4c/output_0_split
I0403 19:36:26.085814  9449 net.cpp:425] inception_4c/output_inception_4c/output_0_split <- inception_4c/output
I0403 19:36:26.085836  9449 net.cpp:399] inception_4c/output_inception_4c/output_0_split -> inception_4c/output_inception_4c/output_0_split_0
I0403 19:36:26.085860  9449 net.cpp:399] inception_4c/output_inception_4c/output_0_split -> inception_4c/output_inception_4c/output_0_split_1
I0403 19:36:26.085888  9449 net.cpp:399] inception_4c/output_inception_4c/output_0_split -> inception_4c/output_inception_4c/output_0_split_2
I0403 19:36:26.085914  9449 net.cpp:399] inception_4c/output_inception_4c/output_0_split -> inception_4c/output_inception_4c/output_0_split_3
I0403 19:36:26.086019  9449 net.cpp:141] Setting up inception_4c/output_inception_4c/output_0_split
I0403 19:36:26.086047  9449 net.cpp:148] Top shape: 24 512 14 14 (2408448)
I0403 19:36:26.086066  9449 net.cpp:148] Top shape: 24 512 14 14 (2408448)
I0403 19:36:26.086086  9449 net.cpp:148] Top shape: 24 512 14 14 (2408448)
I0403 19:36:26.086105  9449 net.cpp:148] Top shape: 24 512 14 14 (2408448)
I0403 19:36:26.086122  9449 net.cpp:156] Memory required for data: 1111182624
I0403 19:36:26.086140  9449 layer_factory.hpp:77] Creating layer inception_4d/1x1
I0403 19:36:26.086169  9449 net.cpp:91] Creating Layer inception_4d/1x1
I0403 19:36:26.086190  9449 net.cpp:425] inception_4d/1x1 <- inception_4c/output_inception_4c/output_0_split_0
I0403 19:36:26.086215  9449 net.cpp:399] inception_4d/1x1 -> inception_4d/1x1
I0403 19:36:26.087915  9449 net.cpp:141] Setting up inception_4d/1x1
I0403 19:36:26.087950  9449 net.cpp:148] Top shape: 24 112 14 14 (526848)
I0403 19:36:26.087970  9449 net.cpp:156] Memory required for data: 1113290016
I0403 19:36:26.087992  9449 layer_factory.hpp:77] Creating layer inception_4d/relu_1x1
I0403 19:36:26.088018  9449 net.cpp:91] Creating Layer inception_4d/relu_1x1
I0403 19:36:26.088042  9449 net.cpp:425] inception_4d/relu_1x1 <- inception_4d/1x1
I0403 19:36:26.088063  9449 net.cpp:386] inception_4d/relu_1x1 -> inception_4d/1x1 (in-place)
I0403 19:36:26.088290  9449 net.cpp:141] Setting up inception_4d/relu_1x1
I0403 19:36:26.088321  9449 net.cpp:148] Top shape: 24 112 14 14 (526848)
I0403 19:36:26.088340  9449 net.cpp:156] Memory required for data: 1115397408
I0403 19:36:26.088358  9449 layer_factory.hpp:77] Creating layer inception_4d/3x3_reduce
I0403 19:36:26.088405  9449 net.cpp:91] Creating Layer inception_4d/3x3_reduce
I0403 19:36:26.088429  9449 net.cpp:425] inception_4d/3x3_reduce <- inception_4c/output_inception_4c/output_0_split_1
I0403 19:36:26.088452  9449 net.cpp:399] inception_4d/3x3_reduce -> inception_4d/3x3_reduce
I0403 19:36:26.090312  9449 net.cpp:141] Setting up inception_4d/3x3_reduce
I0403 19:36:26.090347  9449 net.cpp:148] Top shape: 24 144 14 14 (677376)
I0403 19:36:26.090365  9449 net.cpp:156] Memory required for data: 1118106912
I0403 19:36:26.090389  9449 layer_factory.hpp:77] Creating layer inception_4d/relu_3x3_reduce
I0403 19:36:26.090412  9449 net.cpp:91] Creating Layer inception_4d/relu_3x3_reduce
I0403 19:36:26.090433  9449 net.cpp:425] inception_4d/relu_3x3_reduce <- inception_4d/3x3_reduce
I0403 19:36:26.090457  9449 net.cpp:386] inception_4d/relu_3x3_reduce -> inception_4d/3x3_reduce (in-place)
I0403 19:36:26.090818  9449 net.cpp:141] Setting up inception_4d/relu_3x3_reduce
I0403 19:36:26.090852  9449 net.cpp:148] Top shape: 24 144 14 14 (677376)
I0403 19:36:26.090872  9449 net.cpp:156] Memory required for data: 1120816416
I0403 19:36:26.090890  9449 layer_factory.hpp:77] Creating layer inception_4d/3x3
I0403 19:36:26.090919  9449 net.cpp:91] Creating Layer inception_4d/3x3
I0403 19:36:26.090947  9449 net.cpp:425] inception_4d/3x3 <- inception_4d/3x3_reduce
I0403 19:36:26.090975  9449 net.cpp:399] inception_4d/3x3 -> inception_4d/3x3
I0403 19:36:26.096222  9449 net.cpp:141] Setting up inception_4d/3x3
I0403 19:36:26.096259  9449 net.cpp:148] Top shape: 24 288 14 14 (1354752)
I0403 19:36:26.096281  9449 net.cpp:156] Memory required for data: 1126235424
I0403 19:36:26.096303  9449 layer_factory.hpp:77] Creating layer inception_4d/relu_3x3
I0403 19:36:26.096328  9449 net.cpp:91] Creating Layer inception_4d/relu_3x3
I0403 19:36:26.096349  9449 net.cpp:425] inception_4d/relu_3x3 <- inception_4d/3x3
I0403 19:36:26.096372  9449 net.cpp:386] inception_4d/relu_3x3 -> inception_4d/3x3 (in-place)
I0403 19:36:26.096603  9449 net.cpp:141] Setting up inception_4d/relu_3x3
I0403 19:36:26.096638  9449 net.cpp:148] Top shape: 24 288 14 14 (1354752)
I0403 19:36:26.096657  9449 net.cpp:156] Memory required for data: 1131654432
I0403 19:36:26.096678  9449 layer_factory.hpp:77] Creating layer inception_4d/5x5_reduce
I0403 19:36:26.096703  9449 net.cpp:91] Creating Layer inception_4d/5x5_reduce
I0403 19:36:26.096722  9449 net.cpp:425] inception_4d/5x5_reduce <- inception_4c/output_inception_4c/output_0_split_2
I0403 19:36:26.096750  9449 net.cpp:399] inception_4d/5x5_reduce -> inception_4d/5x5_reduce
I0403 19:36:26.098155  9449 net.cpp:141] Setting up inception_4d/5x5_reduce
I0403 19:36:26.098191  9449 net.cpp:148] Top shape: 24 32 14 14 (150528)
I0403 19:36:26.098211  9449 net.cpp:156] Memory required for data: 1132256544
I0403 19:36:26.098240  9449 layer_factory.hpp:77] Creating layer inception_4d/relu_5x5_reduce
I0403 19:36:26.098265  9449 net.cpp:91] Creating Layer inception_4d/relu_5x5_reduce
I0403 19:36:26.098286  9449 net.cpp:425] inception_4d/relu_5x5_reduce <- inception_4d/5x5_reduce
I0403 19:36:26.098309  9449 net.cpp:386] inception_4d/relu_5x5_reduce -> inception_4d/5x5_reduce (in-place)
I0403 19:36:26.098556  9449 net.cpp:141] Setting up inception_4d/relu_5x5_reduce
I0403 19:36:26.098587  9449 net.cpp:148] Top shape: 24 32 14 14 (150528)
I0403 19:36:26.098605  9449 net.cpp:156] Memory required for data: 1132858656
I0403 19:36:26.098625  9449 layer_factory.hpp:77] Creating layer inception_4d/5x5
I0403 19:36:26.098654  9449 net.cpp:91] Creating Layer inception_4d/5x5
I0403 19:36:26.098677  9449 net.cpp:425] inception_4d/5x5 <- inception_4d/5x5_reduce
I0403 19:36:26.098701  9449 net.cpp:399] inception_4d/5x5 -> inception_4d/5x5
I0403 19:36:26.100502  9449 net.cpp:141] Setting up inception_4d/5x5
I0403 19:36:26.100538  9449 net.cpp:148] Top shape: 24 64 14 14 (301056)
I0403 19:36:26.100559  9449 net.cpp:156] Memory required for data: 1134062880
I0403 19:36:26.100584  9449 layer_factory.hpp:77] Creating layer inception_4d/relu_5x5
I0403 19:36:26.100625  9449 net.cpp:91] Creating Layer inception_4d/relu_5x5
I0403 19:36:26.100646  9449 net.cpp:425] inception_4d/relu_5x5 <- inception_4d/5x5
I0403 19:36:26.100671  9449 net.cpp:386] inception_4d/relu_5x5 -> inception_4d/5x5 (in-place)
I0403 19:36:26.101037  9449 net.cpp:141] Setting up inception_4d/relu_5x5
I0403 19:36:26.101073  9449 net.cpp:148] Top shape: 24 64 14 14 (301056)
I0403 19:36:26.101092  9449 net.cpp:156] Memory required for data: 1135267104
I0403 19:36:26.101112  9449 layer_factory.hpp:77] Creating layer inception_4d/pool
I0403 19:36:26.101135  9449 net.cpp:91] Creating Layer inception_4d/pool
I0403 19:36:26.101155  9449 net.cpp:425] inception_4d/pool <- inception_4c/output_inception_4c/output_0_split_3
I0403 19:36:26.101179  9449 net.cpp:399] inception_4d/pool -> inception_4d/pool
I0403 19:36:26.101263  9449 net.cpp:141] Setting up inception_4d/pool
I0403 19:36:26.101291  9449 net.cpp:148] Top shape: 24 512 14 14 (2408448)
I0403 19:36:26.101311  9449 net.cpp:156] Memory required for data: 1144900896
I0403 19:36:26.101330  9449 layer_factory.hpp:77] Creating layer inception_4d/pool_proj
I0403 19:36:26.101357  9449 net.cpp:91] Creating Layer inception_4d/pool_proj
I0403 19:36:26.101378  9449 net.cpp:425] inception_4d/pool_proj <- inception_4d/pool
I0403 19:36:26.101404  9449 net.cpp:399] inception_4d/pool_proj -> inception_4d/pool_proj
I0403 19:36:26.103584  9449 net.cpp:141] Setting up inception_4d/pool_proj
I0403 19:36:26.103621  9449 net.cpp:148] Top shape: 24 64 14 14 (301056)
I0403 19:36:26.103641  9449 net.cpp:156] Memory required for data: 1146105120
I0403 19:36:26.103664  9449 layer_factory.hpp:77] Creating layer inception_4d/relu_pool_proj
I0403 19:36:26.103688  9449 net.cpp:91] Creating Layer inception_4d/relu_pool_proj
I0403 19:36:26.103709  9449 net.cpp:425] inception_4d/relu_pool_proj <- inception_4d/pool_proj
I0403 19:36:26.103730  9449 net.cpp:386] inception_4d/relu_pool_proj -> inception_4d/pool_proj (in-place)
I0403 19:36:26.103958  9449 net.cpp:141] Setting up inception_4d/relu_pool_proj
I0403 19:36:26.103993  9449 net.cpp:148] Top shape: 24 64 14 14 (301056)
I0403 19:36:26.104013  9449 net.cpp:156] Memory required for data: 1147309344
I0403 19:36:26.104033  9449 layer_factory.hpp:77] Creating layer inception_4d/output
I0403 19:36:26.104054  9449 net.cpp:91] Creating Layer inception_4d/output
I0403 19:36:26.104074  9449 net.cpp:425] inception_4d/output <- inception_4d/1x1
I0403 19:36:26.104094  9449 net.cpp:425] inception_4d/output <- inception_4d/3x3
I0403 19:36:26.104120  9449 net.cpp:425] inception_4d/output <- inception_4d/5x5
I0403 19:36:26.104140  9449 net.cpp:425] inception_4d/output <- inception_4d/pool_proj
I0403 19:36:26.104161  9449 net.cpp:399] inception_4d/output -> inception_4d/output
I0403 19:36:26.104220  9449 net.cpp:141] Setting up inception_4d/output
I0403 19:36:26.104250  9449 net.cpp:148] Top shape: 24 528 14 14 (2483712)
I0403 19:36:26.104269  9449 net.cpp:156] Memory required for data: 1157244192
I0403 19:36:26.104286  9449 layer_factory.hpp:77] Creating layer inception_4d/output_inception_4d/output_0_split
I0403 19:36:26.104311  9449 net.cpp:91] Creating Layer inception_4d/output_inception_4d/output_0_split
I0403 19:36:26.104332  9449 net.cpp:425] inception_4d/output_inception_4d/output_0_split <- inception_4d/output
I0403 19:36:26.104354  9449 net.cpp:399] inception_4d/output_inception_4d/output_0_split -> inception_4d/output_inception_4d/output_0_split_0
I0403 19:36:26.104378  9449 net.cpp:399] inception_4d/output_inception_4d/output_0_split -> inception_4d/output_inception_4d/output_0_split_1
I0403 19:36:26.104403  9449 net.cpp:399] inception_4d/output_inception_4d/output_0_split -> inception_4d/output_inception_4d/output_0_split_2
I0403 19:36:26.104428  9449 net.cpp:399] inception_4d/output_inception_4d/output_0_split -> inception_4d/output_inception_4d/output_0_split_3
I0403 19:36:26.104454  9449 net.cpp:399] inception_4d/output_inception_4d/output_0_split -> inception_4d/output_inception_4d/output_0_split_4
I0403 19:36:26.104593  9449 net.cpp:141] Setting up inception_4d/output_inception_4d/output_0_split
I0403 19:36:26.104636  9449 net.cpp:148] Top shape: 24 528 14 14 (2483712)
I0403 19:36:26.104658  9449 net.cpp:148] Top shape: 24 528 14 14 (2483712)
I0403 19:36:26.104678  9449 net.cpp:148] Top shape: 24 528 14 14 (2483712)
I0403 19:36:26.104697  9449 net.cpp:148] Top shape: 24 528 14 14 (2483712)
I0403 19:36:26.104715  9449 net.cpp:148] Top shape: 24 528 14 14 (2483712)
I0403 19:36:26.104732  9449 net.cpp:156] Memory required for data: 1206918432
I0403 19:36:26.104751  9449 layer_factory.hpp:77] Creating layer loss2/ave_pool
I0403 19:36:26.104773  9449 net.cpp:91] Creating Layer loss2/ave_pool
I0403 19:36:26.104794  9449 net.cpp:425] loss2/ave_pool <- inception_4d/output_inception_4d/output_0_split_0
I0403 19:36:26.104818  9449 net.cpp:399] loss2/ave_pool -> loss2/ave_pool
I0403 19:36:26.105201  9449 net.cpp:141] Setting up loss2/ave_pool
I0403 19:36:26.105233  9449 net.cpp:148] Top shape: 24 528 4 4 (202752)
I0403 19:36:26.105253  9449 net.cpp:156] Memory required for data: 1207729440
I0403 19:36:26.105273  9449 layer_factory.hpp:77] Creating layer loss2/conv
I0403 19:36:26.105300  9449 net.cpp:91] Creating Layer loss2/conv
I0403 19:36:26.105322  9449 net.cpp:425] loss2/conv <- loss2/ave_pool
I0403 19:36:26.105352  9449 net.cpp:399] loss2/conv -> loss2/conv
I0403 19:36:26.107673  9449 net.cpp:141] Setting up loss2/conv
I0403 19:36:26.107712  9449 net.cpp:148] Top shape: 24 128 4 4 (49152)
I0403 19:36:26.107733  9449 net.cpp:156] Memory required for data: 1207926048
I0403 19:36:26.107756  9449 layer_factory.hpp:77] Creating layer loss2/relu_conv
I0403 19:36:26.107779  9449 net.cpp:91] Creating Layer loss2/relu_conv
I0403 19:36:26.107800  9449 net.cpp:425] loss2/relu_conv <- loss2/conv
I0403 19:36:26.107820  9449 net.cpp:386] loss2/relu_conv -> loss2/conv (in-place)
I0403 19:36:26.108168  9449 net.cpp:141] Setting up loss2/relu_conv
I0403 19:36:26.108206  9449 net.cpp:148] Top shape: 24 128 4 4 (49152)
I0403 19:36:26.108248  9449 net.cpp:156] Memory required for data: 1208122656
I0403 19:36:26.108273  9449 layer_factory.hpp:77] Creating layer loss2/fc
I0403 19:36:26.108304  9449 net.cpp:91] Creating Layer loss2/fc
I0403 19:36:26.108325  9449 net.cpp:425] loss2/fc <- loss2/conv
I0403 19:36:26.108350  9449 net.cpp:399] loss2/fc -> loss2/fc
I0403 19:36:26.130195  9449 net.cpp:141] Setting up loss2/fc
I0403 19:36:26.130237  9449 net.cpp:148] Top shape: 24 1024 (24576)
I0403 19:36:26.130256  9449 net.cpp:156] Memory required for data: 1208220960
I0403 19:36:26.130280  9449 layer_factory.hpp:77] Creating layer loss2/relu_fc
I0403 19:36:26.130305  9449 net.cpp:91] Creating Layer loss2/relu_fc
I0403 19:36:26.130326  9449 net.cpp:425] loss2/relu_fc <- loss2/fc
I0403 19:36:26.130348  9449 net.cpp:386] loss2/relu_fc -> loss2/fc (in-place)
I0403 19:36:26.130723  9449 net.cpp:141] Setting up loss2/relu_fc
I0403 19:36:26.130756  9449 net.cpp:148] Top shape: 24 1024 (24576)
I0403 19:36:26.130775  9449 net.cpp:156] Memory required for data: 1208319264
I0403 19:36:26.130795  9449 layer_factory.hpp:77] Creating layer loss2/drop_fc
I0403 19:36:26.130820  9449 net.cpp:91] Creating Layer loss2/drop_fc
I0403 19:36:26.130843  9449 net.cpp:425] loss2/drop_fc <- loss2/fc
I0403 19:36:26.130866  9449 net.cpp:386] loss2/drop_fc -> loss2/fc (in-place)
I0403 19:36:26.130928  9449 net.cpp:141] Setting up loss2/drop_fc
I0403 19:36:26.130959  9449 net.cpp:148] Top shape: 24 1024 (24576)
I0403 19:36:26.130976  9449 net.cpp:156] Memory required for data: 1208417568
I0403 19:36:26.130995  9449 layer_factory.hpp:77] Creating layer loss2/classifier_plantvillage
I0403 19:36:26.131017  9449 net.cpp:91] Creating Layer loss2/classifier_plantvillage
I0403 19:36:26.131042  9449 net.cpp:425] loss2/classifier_plantvillage <- loss2/fc
I0403 19:36:26.131064  9449 net.cpp:399] loss2/classifier_plantvillage -> loss2/classifier_plantvillage
I0403 19:36:26.131569  9449 net.cpp:141] Setting up loss2/classifier_plantvillage
I0403 19:36:26.131602  9449 net.cpp:148] Top shape: 24 38 (912)
I0403 19:36:26.131619  9449 net.cpp:156] Memory required for data: 1208421216
I0403 19:36:26.131660  9449 layer_factory.hpp:77] Creating layer loss2/classifier_plantvillage_loss2/classifier_plantvillage_0_split
I0403 19:36:26.131685  9449 net.cpp:91] Creating Layer loss2/classifier_plantvillage_loss2/classifier_plantvillage_0_split
I0403 19:36:26.131705  9449 net.cpp:425] loss2/classifier_plantvillage_loss2/classifier_plantvillage_0_split <- loss2/classifier_plantvillage
I0403 19:36:26.131731  9449 net.cpp:399] loss2/classifier_plantvillage_loss2/classifier_plantvillage_0_split -> loss2/classifier_plantvillage_loss2/classifier_plantvillage_0_split_0
I0403 19:36:26.131757  9449 net.cpp:399] loss2/classifier_plantvillage_loss2/classifier_plantvillage_0_split -> loss2/classifier_plantvillage_loss2/classifier_plantvillage_0_split_1
I0403 19:36:26.131783  9449 net.cpp:399] loss2/classifier_plantvillage_loss2/classifier_plantvillage_0_split -> loss2/classifier_plantvillage_loss2/classifier_plantvillage_0_split_2
I0403 19:36:26.131877  9449 net.cpp:141] Setting up loss2/classifier_plantvillage_loss2/classifier_plantvillage_0_split
I0403 19:36:26.131909  9449 net.cpp:148] Top shape: 24 38 (912)
I0403 19:36:26.131930  9449 net.cpp:148] Top shape: 24 38 (912)
I0403 19:36:26.131950  9449 net.cpp:148] Top shape: 24 38 (912)
I0403 19:36:26.131968  9449 net.cpp:156] Memory required for data: 1208432160
I0403 19:36:26.131985  9449 layer_factory.hpp:77] Creating layer inception_4e/1x1
I0403 19:36:26.132011  9449 net.cpp:91] Creating Layer inception_4e/1x1
I0403 19:36:26.132035  9449 net.cpp:425] inception_4e/1x1 <- inception_4d/output_inception_4d/output_0_split_1
I0403 19:36:26.132057  9449 net.cpp:399] inception_4e/1x1 -> inception_4e/1x1
I0403 19:36:26.134326  9449 net.cpp:141] Setting up inception_4e/1x1
I0403 19:36:26.134364  9449 net.cpp:148] Top shape: 24 256 14 14 (1204224)
I0403 19:36:26.134387  9449 net.cpp:156] Memory required for data: 1213249056
I0403 19:36:26.134409  9449 layer_factory.hpp:77] Creating layer inception_4e/relu_1x1
I0403 19:36:26.134433  9449 net.cpp:91] Creating Layer inception_4e/relu_1x1
I0403 19:36:26.134451  9449 net.cpp:425] inception_4e/relu_1x1 <- inception_4e/1x1
I0403 19:36:26.134485  9449 net.cpp:386] inception_4e/relu_1x1 -> inception_4e/1x1 (in-place)
I0403 19:36:26.134850  9449 net.cpp:141] Setting up inception_4e/relu_1x1
I0403 19:36:26.134884  9449 net.cpp:148] Top shape: 24 256 14 14 (1204224)
I0403 19:36:26.134904  9449 net.cpp:156] Memory required for data: 1218065952
I0403 19:36:26.134923  9449 layer_factory.hpp:77] Creating layer inception_4e/3x3_reduce
I0403 19:36:26.134951  9449 net.cpp:91] Creating Layer inception_4e/3x3_reduce
I0403 19:36:26.134974  9449 net.cpp:425] inception_4e/3x3_reduce <- inception_4d/output_inception_4d/output_0_split_2
I0403 19:36:26.134996  9449 net.cpp:399] inception_4e/3x3_reduce -> inception_4e/3x3_reduce
I0403 19:36:26.137588  9449 net.cpp:141] Setting up inception_4e/3x3_reduce
I0403 19:36:26.137626  9449 net.cpp:148] Top shape: 24 160 14 14 (752640)
I0403 19:36:26.137647  9449 net.cpp:156] Memory required for data: 1221076512
I0403 19:36:26.137671  9449 layer_factory.hpp:77] Creating layer inception_4e/relu_3x3_reduce
I0403 19:36:26.137694  9449 net.cpp:91] Creating Layer inception_4e/relu_3x3_reduce
I0403 19:36:26.137714  9449 net.cpp:425] inception_4e/relu_3x3_reduce <- inception_4e/3x3_reduce
I0403 19:36:26.137735  9449 net.cpp:386] inception_4e/relu_3x3_reduce -> inception_4e/3x3_reduce (in-place)
I0403 19:36:26.137969  9449 net.cpp:141] Setting up inception_4e/relu_3x3_reduce
I0403 19:36:26.138007  9449 net.cpp:148] Top shape: 24 160 14 14 (752640)
I0403 19:36:26.138026  9449 net.cpp:156] Memory required for data: 1224087072
I0403 19:36:26.138046  9449 layer_factory.hpp:77] Creating layer inception_4e/3x3
I0403 19:36:26.138073  9449 net.cpp:91] Creating Layer inception_4e/3x3
I0403 19:36:26.138095  9449 net.cpp:425] inception_4e/3x3 <- inception_4e/3x3_reduce
I0403 19:36:26.138123  9449 net.cpp:399] inception_4e/3x3 -> inception_4e/3x3
I0403 19:36:26.144311  9449 net.cpp:141] Setting up inception_4e/3x3
I0403 19:36:26.144362  9449 net.cpp:148] Top shape: 24 320 14 14 (1505280)
I0403 19:36:26.144383  9449 net.cpp:156] Memory required for data: 1230108192
I0403 19:36:26.144407  9449 layer_factory.hpp:77] Creating layer inception_4e/relu_3x3
I0403 19:36:26.144429  9449 net.cpp:91] Creating Layer inception_4e/relu_3x3
I0403 19:36:26.144457  9449 net.cpp:425] inception_4e/relu_3x3 <- inception_4e/3x3
I0403 19:36:26.144490  9449 net.cpp:386] inception_4e/relu_3x3 -> inception_4e/3x3 (in-place)
I0403 19:36:26.144857  9449 net.cpp:141] Setting up inception_4e/relu_3x3
I0403 19:36:26.144891  9449 net.cpp:148] Top shape: 24 320 14 14 (1505280)
I0403 19:36:26.144912  9449 net.cpp:156] Memory required for data: 1236129312
I0403 19:36:26.144930  9449 layer_factory.hpp:77] Creating layer inception_4e/5x5_reduce
I0403 19:36:26.144958  9449 net.cpp:91] Creating Layer inception_4e/5x5_reduce
I0403 19:36:26.144980  9449 net.cpp:425] inception_4e/5x5_reduce <- inception_4d/output_inception_4d/output_0_split_3
I0403 19:36:26.145007  9449 net.cpp:399] inception_4e/5x5_reduce -> inception_4e/5x5_reduce
I0403 19:36:26.146329  9449 net.cpp:141] Setting up inception_4e/5x5_reduce
I0403 19:36:26.146366  9449 net.cpp:148] Top shape: 24 32 14 14 (150528)
I0403 19:36:26.146389  9449 net.cpp:156] Memory required for data: 1236731424
I0403 19:36:26.146412  9449 layer_factory.hpp:77] Creating layer inception_4e/relu_5x5_reduce
I0403 19:36:26.146435  9449 net.cpp:91] Creating Layer inception_4e/relu_5x5_reduce
I0403 19:36:26.146456  9449 net.cpp:425] inception_4e/relu_5x5_reduce <- inception_4e/5x5_reduce
I0403 19:36:26.146492  9449 net.cpp:386] inception_4e/relu_5x5_reduce -> inception_4e/5x5_reduce (in-place)
I0403 19:36:26.146857  9449 net.cpp:141] Setting up inception_4e/relu_5x5_reduce
I0403 19:36:26.146893  9449 net.cpp:148] Top shape: 24 32 14 14 (150528)
I0403 19:36:26.146914  9449 net.cpp:156] Memory required for data: 1237333536
I0403 19:36:26.146932  9449 layer_factory.hpp:77] Creating layer inception_4e/5x5
I0403 19:36:26.146982  9449 net.cpp:91] Creating Layer inception_4e/5x5
I0403 19:36:26.147007  9449 net.cpp:425] inception_4e/5x5 <- inception_4e/5x5_reduce
I0403 19:36:26.147032  9449 net.cpp:399] inception_4e/5x5 -> inception_4e/5x5
I0403 19:36:26.149309  9449 net.cpp:141] Setting up inception_4e/5x5
I0403 19:36:26.149344  9449 net.cpp:148] Top shape: 24 128 14 14 (602112)
I0403 19:36:26.149364  9449 net.cpp:156] Memory required for data: 1239741984
I0403 19:36:26.149389  9449 layer_factory.hpp:77] Creating layer inception_4e/relu_5x5
I0403 19:36:26.149415  9449 net.cpp:91] Creating Layer inception_4e/relu_5x5
I0403 19:36:26.149436  9449 net.cpp:425] inception_4e/relu_5x5 <- inception_4e/5x5
I0403 19:36:26.149466  9449 net.cpp:386] inception_4e/relu_5x5 -> inception_4e/5x5 (in-place)
I0403 19:36:26.149713  9449 net.cpp:141] Setting up inception_4e/relu_5x5
I0403 19:36:26.149746  9449 net.cpp:148] Top shape: 24 128 14 14 (602112)
I0403 19:36:26.149766  9449 net.cpp:156] Memory required for data: 1242150432
I0403 19:36:26.149785  9449 layer_factory.hpp:77] Creating layer inception_4e/pool
I0403 19:36:26.149807  9449 net.cpp:91] Creating Layer inception_4e/pool
I0403 19:36:26.149828  9449 net.cpp:425] inception_4e/pool <- inception_4d/output_inception_4d/output_0_split_4
I0403 19:36:26.149853  9449 net.cpp:399] inception_4e/pool -> inception_4e/pool
I0403 19:36:26.149940  9449 net.cpp:141] Setting up inception_4e/pool
I0403 19:36:26.149971  9449 net.cpp:148] Top shape: 24 528 14 14 (2483712)
I0403 19:36:26.149989  9449 net.cpp:156] Memory required for data: 1252085280
I0403 19:36:26.150007  9449 layer_factory.hpp:77] Creating layer inception_4e/pool_proj
I0403 19:36:26.150035  9449 net.cpp:91] Creating Layer inception_4e/pool_proj
I0403 19:36:26.150056  9449 net.cpp:425] inception_4e/pool_proj <- inception_4e/pool
I0403 19:36:26.150084  9449 net.cpp:399] inception_4e/pool_proj -> inception_4e/pool_proj
I0403 19:36:26.151952  9449 net.cpp:141] Setting up inception_4e/pool_proj
I0403 19:36:26.151991  9449 net.cpp:148] Top shape: 24 128 14 14 (602112)
I0403 19:36:26.152029  9449 net.cpp:156] Memory required for data: 1254493728
I0403 19:36:26.152053  9449 layer_factory.hpp:77] Creating layer inception_4e/relu_pool_proj
I0403 19:36:26.152078  9449 net.cpp:91] Creating Layer inception_4e/relu_pool_proj
I0403 19:36:26.152101  9449 net.cpp:425] inception_4e/relu_pool_proj <- inception_4e/pool_proj
I0403 19:36:26.152122  9449 net.cpp:386] inception_4e/relu_pool_proj -> inception_4e/pool_proj (in-place)
I0403 19:36:26.152495  9449 net.cpp:141] Setting up inception_4e/relu_pool_proj
I0403 19:36:26.152529  9449 net.cpp:148] Top shape: 24 128 14 14 (602112)
I0403 19:36:26.152549  9449 net.cpp:156] Memory required for data: 1256902176
I0403 19:36:26.152567  9449 layer_factory.hpp:77] Creating layer inception_4e/output
I0403 19:36:26.152590  9449 net.cpp:91] Creating Layer inception_4e/output
I0403 19:36:26.152608  9449 net.cpp:425] inception_4e/output <- inception_4e/1x1
I0403 19:36:26.152631  9449 net.cpp:425] inception_4e/output <- inception_4e/3x3
I0403 19:36:26.152650  9449 net.cpp:425] inception_4e/output <- inception_4e/5x5
I0403 19:36:26.152670  9449 net.cpp:425] inception_4e/output <- inception_4e/pool_proj
I0403 19:36:26.152694  9449 net.cpp:399] inception_4e/output -> inception_4e/output
I0403 19:36:26.152758  9449 net.cpp:141] Setting up inception_4e/output
I0403 19:36:26.152787  9449 net.cpp:148] Top shape: 24 832 14 14 (3913728)
I0403 19:36:26.152806  9449 net.cpp:156] Memory required for data: 1272557088
I0403 19:36:26.152825  9449 layer_factory.hpp:77] Creating layer pool4/3x3_s2
I0403 19:36:26.152845  9449 net.cpp:91] Creating Layer pool4/3x3_s2
I0403 19:36:26.152865  9449 net.cpp:425] pool4/3x3_s2 <- inception_4e/output
I0403 19:36:26.152890  9449 net.cpp:399] pool4/3x3_s2 -> pool4/3x3_s2
I0403 19:36:26.152973  9449 net.cpp:141] Setting up pool4/3x3_s2
I0403 19:36:26.153003  9449 net.cpp:148] Top shape: 24 832 7 7 (978432)
I0403 19:36:26.153023  9449 net.cpp:156] Memory required for data: 1276470816
I0403 19:36:26.153041  9449 layer_factory.hpp:77] Creating layer pool4/3x3_s2_pool4/3x3_s2_0_split
I0403 19:36:26.153066  9449 net.cpp:91] Creating Layer pool4/3x3_s2_pool4/3x3_s2_0_split
I0403 19:36:26.153087  9449 net.cpp:425] pool4/3x3_s2_pool4/3x3_s2_0_split <- pool4/3x3_s2
I0403 19:36:26.153108  9449 net.cpp:399] pool4/3x3_s2_pool4/3x3_s2_0_split -> pool4/3x3_s2_pool4/3x3_s2_0_split_0
I0403 19:36:26.153136  9449 net.cpp:399] pool4/3x3_s2_pool4/3x3_s2_0_split -> pool4/3x3_s2_pool4/3x3_s2_0_split_1
I0403 19:36:26.153162  9449 net.cpp:399] pool4/3x3_s2_pool4/3x3_s2_0_split -> pool4/3x3_s2_pool4/3x3_s2_0_split_2
I0403 19:36:26.153187  9449 net.cpp:399] pool4/3x3_s2_pool4/3x3_s2_0_split -> pool4/3x3_s2_pool4/3x3_s2_0_split_3
I0403 19:36:26.153297  9449 net.cpp:141] Setting up pool4/3x3_s2_pool4/3x3_s2_0_split
I0403 19:36:26.153326  9449 net.cpp:148] Top shape: 24 832 7 7 (978432)
I0403 19:36:26.153347  9449 net.cpp:148] Top shape: 24 832 7 7 (978432)
I0403 19:36:26.153367  9449 net.cpp:148] Top shape: 24 832 7 7 (978432)
I0403 19:36:26.153388  9449 net.cpp:148] Top shape: 24 832 7 7 (978432)
I0403 19:36:26.153406  9449 net.cpp:156] Memory required for data: 1292125728
I0403 19:36:26.153425  9449 layer_factory.hpp:77] Creating layer inception_5a/1x1
I0403 19:36:26.153453  9449 net.cpp:91] Creating Layer inception_5a/1x1
I0403 19:36:26.153484  9449 net.cpp:425] inception_5a/1x1 <- pool4/3x3_s2_pool4/3x3_s2_0_split_0
I0403 19:36:26.153512  9449 net.cpp:399] inception_5a/1x1 -> inception_5a/1x1
I0403 19:36:26.157008  9449 net.cpp:141] Setting up inception_5a/1x1
I0403 19:36:26.157047  9449 net.cpp:148] Top shape: 24 256 7 7 (301056)
I0403 19:36:26.157071  9449 net.cpp:156] Memory required for data: 1293329952
I0403 19:36:26.157094  9449 layer_factory.hpp:77] Creating layer inception_5a/relu_1x1
I0403 19:36:26.157116  9449 net.cpp:91] Creating Layer inception_5a/relu_1x1
I0403 19:36:26.157136  9449 net.cpp:425] inception_5a/relu_1x1 <- inception_5a/1x1
I0403 19:36:26.157158  9449 net.cpp:386] inception_5a/relu_1x1 -> inception_5a/1x1 (in-place)
I0403 19:36:26.157547  9449 net.cpp:141] Setting up inception_5a/relu_1x1
I0403 19:36:26.157580  9449 net.cpp:148] Top shape: 24 256 7 7 (301056)
I0403 19:36:26.157603  9449 net.cpp:156] Memory required for data: 1294534176
I0403 19:36:26.157621  9449 layer_factory.hpp:77] Creating layer inception_5a/3x3_reduce
I0403 19:36:26.157647  9449 net.cpp:91] Creating Layer inception_5a/3x3_reduce
I0403 19:36:26.157668  9449 net.cpp:425] inception_5a/3x3_reduce <- pool4/3x3_s2_pool4/3x3_s2_0_split_1
I0403 19:36:26.157696  9449 net.cpp:399] inception_5a/3x3_reduce -> inception_5a/3x3_reduce
I0403 19:36:26.160717  9449 net.cpp:141] Setting up inception_5a/3x3_reduce
I0403 19:36:26.160753  9449 net.cpp:148] Top shape: 24 160 7 7 (188160)
I0403 19:36:26.160773  9449 net.cpp:156] Memory required for data: 1295286816
I0403 19:36:26.160795  9449 layer_factory.hpp:77] Creating layer inception_5a/relu_3x3_reduce
I0403 19:36:26.160818  9449 net.cpp:91] Creating Layer inception_5a/relu_3x3_reduce
I0403 19:36:26.160840  9449 net.cpp:425] inception_5a/relu_3x3_reduce <- inception_5a/3x3_reduce
I0403 19:36:26.160863  9449 net.cpp:386] inception_5a/relu_3x3_reduce -> inception_5a/3x3_reduce (in-place)
I0403 19:36:26.161098  9449 net.cpp:141] Setting up inception_5a/relu_3x3_reduce
I0403 19:36:26.161129  9449 net.cpp:148] Top shape: 24 160 7 7 (188160)
I0403 19:36:26.161149  9449 net.cpp:156] Memory required for data: 1296039456
I0403 19:36:26.161166  9449 layer_factory.hpp:77] Creating layer inception_5a/3x3
I0403 19:36:26.161195  9449 net.cpp:91] Creating Layer inception_5a/3x3
I0403 19:36:26.161216  9449 net.cpp:425] inception_5a/3x3 <- inception_5a/3x3_reduce
I0403 19:36:26.161244  9449 net.cpp:399] inception_5a/3x3 -> inception_5a/3x3
I0403 19:36:26.167511  9449 net.cpp:141] Setting up inception_5a/3x3
I0403 19:36:26.167549  9449 net.cpp:148] Top shape: 24 320 7 7 (376320)
I0403 19:36:26.167568  9449 net.cpp:156] Memory required for data: 1297544736
I0403 19:36:26.167592  9449 layer_factory.hpp:77] Creating layer inception_5a/relu_3x3
I0403 19:36:26.167618  9449 net.cpp:91] Creating Layer inception_5a/relu_3x3
I0403 19:36:26.167639  9449 net.cpp:425] inception_5a/relu_3x3 <- inception_5a/3x3
I0403 19:36:26.167665  9449 net.cpp:386] inception_5a/relu_3x3 -> inception_5a/3x3 (in-place)
I0403 19:36:26.168025  9449 net.cpp:141] Setting up inception_5a/relu_3x3
I0403 19:36:26.168059  9449 net.cpp:148] Top shape: 24 320 7 7 (376320)
I0403 19:36:26.168078  9449 net.cpp:156] Memory required for data: 1299050016
I0403 19:36:26.168097  9449 layer_factory.hpp:77] Creating layer inception_5a/5x5_reduce
I0403 19:36:26.168125  9449 net.cpp:91] Creating Layer inception_5a/5x5_reduce
I0403 19:36:26.168153  9449 net.cpp:425] inception_5a/5x5_reduce <- pool4/3x3_s2_pool4/3x3_s2_0_split_2
I0403 19:36:26.168176  9449 net.cpp:399] inception_5a/5x5_reduce -> inception_5a/5x5_reduce
I0403 19:36:26.169625  9449 net.cpp:141] Setting up inception_5a/5x5_reduce
I0403 19:36:26.169662  9449 net.cpp:148] Top shape: 24 32 7 7 (37632)
I0403 19:36:26.169684  9449 net.cpp:156] Memory required for data: 1299200544
I0403 19:36:26.169708  9449 layer_factory.hpp:77] Creating layer inception_5a/relu_5x5_reduce
I0403 19:36:26.169730  9449 net.cpp:91] Creating Layer inception_5a/relu_5x5_reduce
I0403 19:36:26.169750  9449 net.cpp:425] inception_5a/relu_5x5_reduce <- inception_5a/5x5_reduce
I0403 19:36:26.169770  9449 net.cpp:386] inception_5a/relu_5x5_reduce -> inception_5a/5x5_reduce (in-place)
I0403 19:36:26.170142  9449 net.cpp:141] Setting up inception_5a/relu_5x5_reduce
I0403 19:36:26.170177  9449 net.cpp:148] Top shape: 24 32 7 7 (37632)
I0403 19:36:26.170197  9449 net.cpp:156] Memory required for data: 1299351072
I0403 19:36:26.170217  9449 layer_factory.hpp:77] Creating layer inception_5a/5x5
I0403 19:36:26.170245  9449 net.cpp:91] Creating Layer inception_5a/5x5
I0403 19:36:26.170267  9449 net.cpp:425] inception_5a/5x5 <- inception_5a/5x5_reduce
I0403 19:36:26.170291  9449 net.cpp:399] inception_5a/5x5 -> inception_5a/5x5
I0403 19:36:26.172423  9449 net.cpp:141] Setting up inception_5a/5x5
I0403 19:36:26.172485  9449 net.cpp:148] Top shape: 24 128 7 7 (150528)
I0403 19:36:26.172509  9449 net.cpp:156] Memory required for data: 1299953184
I0403 19:36:26.172533  9449 layer_factory.hpp:77] Creating layer inception_5a/relu_5x5
I0403 19:36:26.172559  9449 net.cpp:91] Creating Layer inception_5a/relu_5x5
I0403 19:36:26.172579  9449 net.cpp:425] inception_5a/relu_5x5 <- inception_5a/5x5
I0403 19:36:26.172600  9449 net.cpp:386] inception_5a/relu_5x5 -> inception_5a/5x5 (in-place)
I0403 19:36:26.172835  9449 net.cpp:141] Setting up inception_5a/relu_5x5
I0403 19:36:26.172869  9449 net.cpp:148] Top shape: 24 128 7 7 (150528)
I0403 19:36:26.172889  9449 net.cpp:156] Memory required for data: 1300555296
I0403 19:36:26.172909  9449 layer_factory.hpp:77] Creating layer inception_5a/pool
I0403 19:36:26.172930  9449 net.cpp:91] Creating Layer inception_5a/pool
I0403 19:36:26.172950  9449 net.cpp:425] inception_5a/pool <- pool4/3x3_s2_pool4/3x3_s2_0_split_3
I0403 19:36:26.172976  9449 net.cpp:399] inception_5a/pool -> inception_5a/pool
I0403 19:36:26.173063  9449 net.cpp:141] Setting up inception_5a/pool
I0403 19:36:26.173094  9449 net.cpp:148] Top shape: 24 832 7 7 (978432)
I0403 19:36:26.173111  9449 net.cpp:156] Memory required for data: 1304469024
I0403 19:36:26.173130  9449 layer_factory.hpp:77] Creating layer inception_5a/pool_proj
I0403 19:36:26.173158  9449 net.cpp:91] Creating Layer inception_5a/pool_proj
I0403 19:36:26.173182  9449 net.cpp:425] inception_5a/pool_proj <- inception_5a/pool
I0403 19:36:26.173205  9449 net.cpp:399] inception_5a/pool_proj -> inception_5a/pool_proj
I0403 19:36:26.176005  9449 net.cpp:141] Setting up inception_5a/pool_proj
I0403 19:36:26.176043  9449 net.cpp:148] Top shape: 24 128 7 7 (150528)
I0403 19:36:26.176062  9449 net.cpp:156] Memory required for data: 1305071136
I0403 19:36:26.176085  9449 layer_factory.hpp:77] Creating layer inception_5a/relu_pool_proj
I0403 19:36:26.176111  9449 net.cpp:91] Creating Layer inception_5a/relu_pool_proj
I0403 19:36:26.176132  9449 net.cpp:425] inception_5a/relu_pool_proj <- inception_5a/pool_proj
I0403 19:36:26.176153  9449 net.cpp:386] inception_5a/relu_pool_proj -> inception_5a/pool_proj (in-place)
I0403 19:36:26.176662  9449 net.cpp:141] Setting up inception_5a/relu_pool_proj
I0403 19:36:26.176695  9449 net.cpp:148] Top shape: 24 128 7 7 (150528)
I0403 19:36:26.176714  9449 net.cpp:156] Memory required for data: 1305673248
I0403 19:36:26.176733  9449 layer_factory.hpp:77] Creating layer inception_5a/output
I0403 19:36:26.176759  9449 net.cpp:91] Creating Layer inception_5a/output
I0403 19:36:26.176780  9449 net.cpp:425] inception_5a/output <- inception_5a/1x1
I0403 19:36:26.176802  9449 net.cpp:425] inception_5a/output <- inception_5a/3x3
I0403 19:36:26.176822  9449 net.cpp:425] inception_5a/output <- inception_5a/5x5
I0403 19:36:26.176842  9449 net.cpp:425] inception_5a/output <- inception_5a/pool_proj
I0403 19:36:26.176862  9449 net.cpp:399] inception_5a/output -> inception_5a/output
I0403 19:36:26.176924  9449 net.cpp:141] Setting up inception_5a/output
I0403 19:36:26.176957  9449 net.cpp:148] Top shape: 24 832 7 7 (978432)
I0403 19:36:26.176976  9449 net.cpp:156] Memory required for data: 1309586976
I0403 19:36:26.176995  9449 layer_factory.hpp:77] Creating layer inception_5a/output_inception_5a/output_0_split
I0403 19:36:26.177016  9449 net.cpp:91] Creating Layer inception_5a/output_inception_5a/output_0_split
I0403 19:36:26.177036  9449 net.cpp:425] inception_5a/output_inception_5a/output_0_split <- inception_5a/output
I0403 19:36:26.177060  9449 net.cpp:399] inception_5a/output_inception_5a/output_0_split -> inception_5a/output_inception_5a/output_0_split_0
I0403 19:36:26.177086  9449 net.cpp:399] inception_5a/output_inception_5a/output_0_split -> inception_5a/output_inception_5a/output_0_split_1
I0403 19:36:26.177112  9449 net.cpp:399] inception_5a/output_inception_5a/output_0_split -> inception_5a/output_inception_5a/output_0_split_2
I0403 19:36:26.177136  9449 net.cpp:399] inception_5a/output_inception_5a/output_0_split -> inception_5a/output_inception_5a/output_0_split_3
I0403 19:36:26.177275  9449 net.cpp:141] Setting up inception_5a/output_inception_5a/output_0_split
I0403 19:36:26.177309  9449 net.cpp:148] Top shape: 24 832 7 7 (978432)
I0403 19:36:26.177330  9449 net.cpp:148] Top shape: 24 832 7 7 (978432)
I0403 19:36:26.177350  9449 net.cpp:148] Top shape: 24 832 7 7 (978432)
I0403 19:36:26.177369  9449 net.cpp:148] Top shape: 24 832 7 7 (978432)
I0403 19:36:26.177387  9449 net.cpp:156] Memory required for data: 1325241888
I0403 19:36:26.177407  9449 layer_factory.hpp:77] Creating layer inception_5b/1x1
I0403 19:36:26.177433  9449 net.cpp:91] Creating Layer inception_5b/1x1
I0403 19:36:26.177456  9449 net.cpp:425] inception_5b/1x1 <- inception_5a/output_inception_5a/output_0_split_0
I0403 19:36:26.177489  9449 net.cpp:399] inception_5b/1x1 -> inception_5b/1x1
I0403 19:36:26.182111  9449 net.cpp:141] Setting up inception_5b/1x1
I0403 19:36:26.182149  9449 net.cpp:148] Top shape: 24 384 7 7 (451584)
I0403 19:36:26.182169  9449 net.cpp:156] Memory required for data: 1327048224
I0403 19:36:26.182193  9449 layer_factory.hpp:77] Creating layer inception_5b/relu_1x1
I0403 19:36:26.182215  9449 net.cpp:91] Creating Layer inception_5b/relu_1x1
I0403 19:36:26.182236  9449 net.cpp:425] inception_5b/relu_1x1 <- inception_5b/1x1
I0403 19:36:26.182262  9449 net.cpp:386] inception_5b/relu_1x1 -> inception_5b/1x1 (in-place)
I0403 19:36:26.182652  9449 net.cpp:141] Setting up inception_5b/relu_1x1
I0403 19:36:26.182685  9449 net.cpp:148] Top shape: 24 384 7 7 (451584)
I0403 19:36:26.182703  9449 net.cpp:156] Memory required for data: 1328854560
I0403 19:36:26.182723  9449 layer_factory.hpp:77] Creating layer inception_5b/3x3_reduce
I0403 19:36:26.182752  9449 net.cpp:91] Creating Layer inception_5b/3x3_reduce
I0403 19:36:26.182775  9449 net.cpp:425] inception_5b/3x3_reduce <- inception_5a/output_inception_5a/output_0_split_1
I0403 19:36:26.182803  9449 net.cpp:399] inception_5b/3x3_reduce -> inception_5b/3x3_reduce
I0403 19:36:26.186056  9449 net.cpp:141] Setting up inception_5b/3x3_reduce
I0403 19:36:26.186094  9449 net.cpp:148] Top shape: 24 192 7 7 (225792)
I0403 19:36:26.186115  9449 net.cpp:156] Memory required for data: 1329757728
I0403 19:36:26.186137  9449 layer_factory.hpp:77] Creating layer inception_5b/relu_3x3_reduce
I0403 19:36:26.186163  9449 net.cpp:91] Creating Layer inception_5b/relu_3x3_reduce
I0403 19:36:26.186185  9449 net.cpp:425] inception_5b/relu_3x3_reduce <- inception_5b/3x3_reduce
I0403 19:36:26.186208  9449 net.cpp:386] inception_5b/relu_3x3_reduce -> inception_5b/3x3_reduce (in-place)
I0403 19:36:26.186444  9449 net.cpp:141] Setting up inception_5b/relu_3x3_reduce
I0403 19:36:26.186483  9449 net.cpp:148] Top shape: 24 192 7 7 (225792)
I0403 19:36:26.186503  9449 net.cpp:156] Memory required for data: 1330660896
I0403 19:36:26.186522  9449 layer_factory.hpp:77] Creating layer inception_5b/3x3
I0403 19:36:26.186553  9449 net.cpp:91] Creating Layer inception_5b/3x3
I0403 19:36:26.186575  9449 net.cpp:425] inception_5b/3x3 <- inception_5b/3x3_reduce
I0403 19:36:26.186599  9449 net.cpp:399] inception_5b/3x3 -> inception_5b/3x3
I0403 19:36:26.194944  9449 net.cpp:141] Setting up inception_5b/3x3
I0403 19:36:26.194982  9449 net.cpp:148] Top shape: 24 384 7 7 (451584)
I0403 19:36:26.195003  9449 net.cpp:156] Memory required for data: 1332467232
I0403 19:36:26.195025  9449 layer_factory.hpp:77] Creating layer inception_5b/relu_3x3
I0403 19:36:26.195050  9449 net.cpp:91] Creating Layer inception_5b/relu_3x3
I0403 19:36:26.195073  9449 net.cpp:425] inception_5b/relu_3x3 <- inception_5b/3x3
I0403 19:36:26.195096  9449 net.cpp:386] inception_5b/relu_3x3 -> inception_5b/3x3 (in-place)
I0403 19:36:26.195475  9449 net.cpp:141] Setting up inception_5b/relu_3x3
I0403 19:36:26.195508  9449 net.cpp:148] Top shape: 24 384 7 7 (451584)
I0403 19:36:26.195528  9449 net.cpp:156] Memory required for data: 1334273568
I0403 19:36:26.195546  9449 layer_factory.hpp:77] Creating layer inception_5b/5x5_reduce
I0403 19:36:26.195592  9449 net.cpp:91] Creating Layer inception_5b/5x5_reduce
I0403 19:36:26.195618  9449 net.cpp:425] inception_5b/5x5_reduce <- inception_5a/output_inception_5a/output_0_split_2
I0403 19:36:26.195646  9449 net.cpp:399] inception_5b/5x5_reduce -> inception_5b/5x5_reduce
I0403 19:36:26.197230  9449 net.cpp:141] Setting up inception_5b/5x5_reduce
I0403 19:36:26.197283  9449 net.cpp:148] Top shape: 24 48 7 7 (56448)
I0403 19:36:26.197335  9449 net.cpp:156] Memory required for data: 1334499360
I0403 19:36:26.197389  9449 layer_factory.hpp:77] Creating layer inception_5b/relu_5x5_reduce
I0403 19:36:26.197433  9449 net.cpp:91] Creating Layer inception_5b/relu_5x5_reduce
I0403 19:36:26.197479  9449 net.cpp:425] inception_5b/relu_5x5_reduce <- inception_5b/5x5_reduce
I0403 19:36:26.197536  9449 net.cpp:386] inception_5b/relu_5x5_reduce -> inception_5b/5x5_reduce (in-place)
I0403 19:36:26.197993  9449 net.cpp:141] Setting up inception_5b/relu_5x5_reduce
I0403 19:36:26.198027  9449 net.cpp:148] Top shape: 24 48 7 7 (56448)
I0403 19:36:26.198046  9449 net.cpp:156] Memory required for data: 1334725152
I0403 19:36:26.198065  9449 layer_factory.hpp:77] Creating layer inception_5b/5x5
I0403 19:36:26.198091  9449 net.cpp:91] Creating Layer inception_5b/5x5
I0403 19:36:26.198113  9449 net.cpp:425] inception_5b/5x5 <- inception_5b/5x5_reduce
I0403 19:36:26.198137  9449 net.cpp:399] inception_5b/5x5 -> inception_5b/5x5
I0403 19:36:26.200675  9449 net.cpp:141] Setting up inception_5b/5x5
I0403 19:36:26.200711  9449 net.cpp:148] Top shape: 24 128 7 7 (150528)
I0403 19:36:26.200736  9449 net.cpp:156] Memory required for data: 1335327264
I0403 19:36:26.200759  9449 layer_factory.hpp:77] Creating layer inception_5b/relu_5x5
I0403 19:36:26.200781  9449 net.cpp:91] Creating Layer inception_5b/relu_5x5
I0403 19:36:26.200803  9449 net.cpp:425] inception_5b/relu_5x5 <- inception_5b/5x5
I0403 19:36:26.200824  9449 net.cpp:386] inception_5b/relu_5x5 -> inception_5b/5x5 (in-place)
I0403 19:36:26.201071  9449 net.cpp:141] Setting up inception_5b/relu_5x5
I0403 19:36:26.201105  9449 net.cpp:148] Top shape: 24 128 7 7 (150528)
I0403 19:36:26.201127  9449 net.cpp:156] Memory required for data: 1335929376
I0403 19:36:26.201144  9449 layer_factory.hpp:77] Creating layer inception_5b/pool
I0403 19:36:26.201166  9449 net.cpp:91] Creating Layer inception_5b/pool
I0403 19:36:26.201186  9449 net.cpp:425] inception_5b/pool <- inception_5a/output_inception_5a/output_0_split_3
I0403 19:36:26.201212  9449 net.cpp:399] inception_5b/pool -> inception_5b/pool
I0403 19:36:26.201304  9449 net.cpp:141] Setting up inception_5b/pool
I0403 19:36:26.201338  9449 net.cpp:148] Top shape: 24 832 7 7 (978432)
I0403 19:36:26.201357  9449 net.cpp:156] Memory required for data: 1339843104
I0403 19:36:26.201380  9449 layer_factory.hpp:77] Creating layer inception_5b/pool_proj
I0403 19:36:26.201406  9449 net.cpp:91] Creating Layer inception_5b/pool_proj
I0403 19:36:26.201427  9449 net.cpp:425] inception_5b/pool_proj <- inception_5b/pool
I0403 19:36:26.201453  9449 net.cpp:399] inception_5b/pool_proj -> inception_5b/pool_proj
I0403 19:36:26.204296  9449 net.cpp:141] Setting up inception_5b/pool_proj
I0403 19:36:26.204336  9449 net.cpp:148] Top shape: 24 128 7 7 (150528)
I0403 19:36:26.204358  9449 net.cpp:156] Memory required for data: 1340445216
I0403 19:36:26.204388  9449 layer_factory.hpp:77] Creating layer inception_5b/relu_pool_proj
I0403 19:36:26.204416  9449 net.cpp:91] Creating Layer inception_5b/relu_pool_proj
I0403 19:36:26.204437  9449 net.cpp:425] inception_5b/relu_pool_proj <- inception_5b/pool_proj
I0403 19:36:26.204468  9449 net.cpp:386] inception_5b/relu_pool_proj -> inception_5b/pool_proj (in-place)
I0403 19:36:26.204833  9449 net.cpp:141] Setting up inception_5b/relu_pool_proj
I0403 19:36:26.204867  9449 net.cpp:148] Top shape: 24 128 7 7 (150528)
I0403 19:36:26.204886  9449 net.cpp:156] Memory required for data: 1341047328
I0403 19:36:26.204906  9449 layer_factory.hpp:77] Creating layer inception_5b/output
I0403 19:36:26.204928  9449 net.cpp:91] Creating Layer inception_5b/output
I0403 19:36:26.204967  9449 net.cpp:425] inception_5b/output <- inception_5b/1x1
I0403 19:36:26.204993  9449 net.cpp:425] inception_5b/output <- inception_5b/3x3
I0403 19:36:26.205015  9449 net.cpp:425] inception_5b/output <- inception_5b/5x5
I0403 19:36:26.205035  9449 net.cpp:425] inception_5b/output <- inception_5b/pool_proj
I0403 19:36:26.205057  9449 net.cpp:399] inception_5b/output -> inception_5b/output
I0403 19:36:26.205123  9449 net.cpp:141] Setting up inception_5b/output
I0403 19:36:26.205158  9449 net.cpp:148] Top shape: 24 1024 7 7 (1204224)
I0403 19:36:26.205178  9449 net.cpp:156] Memory required for data: 1345864224
I0403 19:36:26.205198  9449 layer_factory.hpp:77] Creating layer pool5/7x7_s1
I0403 19:36:26.205220  9449 net.cpp:91] Creating Layer pool5/7x7_s1
I0403 19:36:26.205240  9449 net.cpp:425] pool5/7x7_s1 <- inception_5b/output
I0403 19:36:26.205266  9449 net.cpp:399] pool5/7x7_s1 -> pool5/7x7_s1
I0403 19:36:26.205549  9449 net.cpp:141] Setting up pool5/7x7_s1
I0403 19:36:26.205580  9449 net.cpp:148] Top shape: 24 1024 1 1 (24576)
I0403 19:36:26.205600  9449 net.cpp:156] Memory required for data: 1345962528
I0403 19:36:26.205618  9449 layer_factory.hpp:77] Creating layer pool5/drop_7x7_s1
I0403 19:36:26.205642  9449 net.cpp:91] Creating Layer pool5/drop_7x7_s1
I0403 19:36:26.205663  9449 net.cpp:425] pool5/drop_7x7_s1 <- pool5/7x7_s1
I0403 19:36:26.205685  9449 net.cpp:386] pool5/drop_7x7_s1 -> pool5/7x7_s1 (in-place)
I0403 19:36:26.205749  9449 net.cpp:141] Setting up pool5/drop_7x7_s1
I0403 19:36:26.205778  9449 net.cpp:148] Top shape: 24 1024 1 1 (24576)
I0403 19:36:26.205797  9449 net.cpp:156] Memory required for data: 1346060832
I0403 19:36:26.205816  9449 layer_factory.hpp:77] Creating layer loss3/classifier_plantvillage
I0403 19:36:26.205840  9449 net.cpp:91] Creating Layer loss3/classifier_plantvillage
I0403 19:36:26.205860  9449 net.cpp:425] loss3/classifier_plantvillage <- pool5/7x7_s1
I0403 19:36:26.205888  9449 net.cpp:399] loss3/classifier_plantvillage -> loss3/classifier_plantvillage
I0403 19:36:26.206416  9449 net.cpp:141] Setting up loss3/classifier_plantvillage
I0403 19:36:26.206447  9449 net.cpp:148] Top shape: 24 38 (912)
I0403 19:36:26.206475  9449 net.cpp:156] Memory required for data: 1346064480
I0403 19:36:26.206499  9449 layer_factory.hpp:77] Creating layer loss3/classifier_plantvillage_loss3/classifier_plantvillage_0_split
I0403 19:36:26.206524  9449 net.cpp:91] Creating Layer loss3/classifier_plantvillage_loss3/classifier_plantvillage_0_split
I0403 19:36:26.206544  9449 net.cpp:425] loss3/classifier_plantvillage_loss3/classifier_plantvillage_0_split <- loss3/classifier_plantvillage
I0403 19:36:26.206573  9449 net.cpp:399] loss3/classifier_plantvillage_loss3/classifier_plantvillage_0_split -> loss3/classifier_plantvillage_loss3/classifier_plantvillage_0_split_0
I0403 19:36:26.206598  9449 net.cpp:399] loss3/classifier_plantvillage_loss3/classifier_plantvillage_0_split -> loss3/classifier_plantvillage_loss3/classifier_plantvillage_0_split_1
I0403 19:36:26.206624  9449 net.cpp:399] loss3/classifier_plantvillage_loss3/classifier_plantvillage_0_split -> loss3/classifier_plantvillage_loss3/classifier_plantvillage_0_split_2
I0403 19:36:26.206646  9449 net.cpp:399] loss3/classifier_plantvillage_loss3/classifier_plantvillage_0_split -> loss3/classifier_plantvillage_loss3/classifier_plantvillage_0_split_3
I0403 19:36:26.206771  9449 net.cpp:141] Setting up loss3/classifier_plantvillage_loss3/classifier_plantvillage_0_split
I0403 19:36:26.206801  9449 net.cpp:148] Top shape: 24 38 (912)
I0403 19:36:26.206821  9449 net.cpp:148] Top shape: 24 38 (912)
I0403 19:36:26.206840  9449 net.cpp:148] Top shape: 24 38 (912)
I0403 19:36:26.206861  9449 net.cpp:148] Top shape: 24 38 (912)
I0403 19:36:26.206877  9449 net.cpp:156] Memory required for data: 1346079072
I0403 19:36:26.206897  9449 layer_factory.hpp:77] Creating layer loss1/loss
I0403 19:36:26.206925  9449 net.cpp:91] Creating Layer loss1/loss
I0403 19:36:26.206945  9449 net.cpp:425] loss1/loss <- loss1/classifier_plantvillage_loss1/classifier_plantvillage_0_split_0
I0403 19:36:26.206984  9449 net.cpp:425] loss1/loss <- label_data_1_split_0
…
