…
I0403 19:23:47.984853  9189 net.cpp:313] The NetState phase (1) differed from the phase (0) specified by a rule in layer data
I0403 19:23:47.985960  9189 net.cpp:49] Initializing net from parameters: 
state {
  phase: TEST
}
layer {
  name: "data"
  type: "Data"
  top: "data"
  top: "label"
  include {
    phase: TEST
  }
  transform_param {
    mirror: false
    crop_size: 224
    mean_file: "/home/mohanty/data/final_dataset/lmdb/color-60-40/mean.binaryproto"
  }
  data_param {
    source: "/home/mohanty/data/final_dataset/lmdb/color-60-40/test_db"
    batch_size: 24
    backend: LMDB
  }
}
layer {
  name: "conv1/7x7_s2"
  type: "Convolution"
  bottom: "data"
  top: "conv1/7x7_s2"
  param {
    lr_mult: 1
    decay_mult: 1
  }
  param {
    lr_mult: 2
    decay_mult: 0
  }
  convolution_param {
    num_output: 64
    pad: 3
    kernel_size: 7
    stride: 2
    weight_filler {
      type: "xavier"
      std: 0.1
    }
    bias_filler {
      type: "constant"
      value: 0.2
    }
  }
}
layer {
  name: "conv1/relu_7x7"
  type: "ReLU"
  bottom: "conv1/7x7_s2"
  top: "conv1/7x7_s2"
}
layer {
  name: "pool1/3x3_s2"
  type: "Pooling"
  bottom: "conv1/7x7_s2"
  top: "pool1/3x3_s2"
  pooling_param {
    pool: MAX
    kernel_size: 3
    stride: 2
  }
}
layer {
  name: "pool1/norm1"
  type: "LRN"
  bottom: "pool1/3x3_s2"
  top: "pool1/norm1"
  lrn_param {
    local_size: 5
    alpha: 0.0001
    beta: 0.75
  }
}
layer {
  name: "conv2/3x3_reduce"
  type: "Convolution"
  bottom: "pool1/norm1"
  top: "conv2/3x3_reduce"
  param {
    lr_mult: 1
    decay_mult: 1
  }
  param {
    lr_mult: 2
    decay_mult: 0
  }
  convolution_param {
    num_output: 64
    kernel_size: 1
    weight_filler {
      type: "xavier"
      std: 0.1
    }
    bias_filler {
      type: "constant"
      value: 0.2
    }
  }
}
layer {
  name: "conv2/relu_3x3_reduce"
  type: "ReLU"
  bottom: "conv2/3x3_reduce"
  top: "conv2/3x3_reduce"
}
layer {
  name: "conv2/3x3"
  type: "Convolution"
  bottom: "conv2/3x3_reduce"
  top: "conv2/3x3"
  param {
    lr_mult: 1
    decay_mult: 1
  }
  param {
    lr_mult: 2
    decay_mult: 0
  }
  convolution_param {
    num_output: 192
    pad: 1
    kernel_size: 3
    weight_filler {
      type: "xavier"
      std: 0.03
    }
    bias_filler {
      type: "constant"
      value: 0.2
    }
  }
}
layer {
  name: "conv2/relu_3x3"
  type: "ReLU"
  bottom: "conv2/3x3"
  top: "conv2/3x3"
}
layer {
  name: "conv2/norm2"
  type: "LRN"
  bottom: "conv2/3x3"
  top: "conv2/norm2"
  lrn_param {
    local_size: 5
    alpha: 0.0001
    beta: 0.75
  }
}
layer {
  name: "pool2/3x3_s2"
  type: "Pooling"
  bottom: "conv2/norm2"
  top: "pool2/3x3_s2"
  pooling_param {
    pool: MAX
    kernel_size: 3
    stride: 2
  }
}
layer {
  name: "inception_3a/1x1"
  type: "Convolution"
  bottom: "pool2/3x3_s2"
  top: "inception_3a/1x1"
  param {
    lr_mult: 1
    decay_mult: 1
  }
  param {
    lr_mult: 2
    decay_mult: 0
  }
  convolution_param {
    num_output: 64
    kernel_size: 1
    weight_filler {
      type: "xavier"
      std: 0.03
    }
    bias_filler {
      type: "constant"
      value: 0.2
    }
  }
}
layer {
  name: "inception_3a/relu_1x1"
  type: "ReLU"
  bottom: "inception_3a/1x1"
  top: "inception_3a/1x1"
}
layer {
  name: "inception_3a/3x3_reduce"
  type: "Convolution"
  bottom: "pool2/3x3_s2"
  top: "inception_3a/3x3_reduce"
  param {
    lr_mult: 1
    decay_mult: 1
  }
  param {
    lr_mult: 2
    decay_mult: 0
  }
  convolution_param {
    num_output: 96
    kernel_size: 1
    weight_filler {
      type: "xavier"
      std: 0.09
    }
    bias_filler {
      type: "constant"
      value: 0.2
    }
  }
}
layer {
  name: "inception_3a/relu_3x3_reduce"
  type: "ReLU"
  bottom: "inception_3a/3x3_reduce"
  top: "inception_3a/3x3_reduce"
}
layer {
  name: "inception_3a/3x3"
  type: "Convolution"
  bottom: "inception_3a/3x3_reduce"
  top: "inception_3a/3x3"
  param {
    lr_mult: 1
    decay_mult: 1
  }
  param {
    lr_mult: 2
    decay_mult: 0
  }
  convolution_param {
    num_output: 128
    pad: 1
    kernel_size: 3
    weight_filler {
      type: "xavier"
      std: 0.03
    }
    bias_filler {
      type: "constant"
      value: 0.2
    }
  }
}
layer {
  name: "inception_3a/relu_3x3"
  type: "ReLU"
  bottom: "inception_3a/3x3"
  top: "inception_3a/3x3"
}
layer {
  name: "inception_3a/5x5_reduce"
  type: "Convolution"
  bottom: "pool2/3x3_s2"
  top: "inception_3a/5x5_reduce"
  param {
    lr_mult: 1
    decay_mult: 1
  }
  param {
    lr_mult: 2
    decay_mult: 0
  }
  convolution_param {
    num_output: 16
    kernel_size: 1
    weight_filler {
      type: "xavier"
      std: 0.2
    }
    bias_filler {
      type: "constant"
      value: 0.2
    }
  }
}
layer {
  name: "inception_3a/relu_5x5_reduce"
  type: "ReLU"
  bottom: "inception_3a/5x5_reduce"
  top: "inception_3a/5x5_reduce"
}
layer {
  name: "inception_3a/5x5"
  type: "Convolution"
  bottom: "inception_3a/5x5_reduce"
  top: "inception_3a/5x5"
  param {
    lr_mult: 1
    decay_mult: 1
  }
  param {
    lr_mult: 2
    decay_mult: 0
  }
  convolution_param {
    num_output: 32
    pad: 2
    kernel_size: 5
    weight_filler {
      type: "xavier"
      std: 0.03
    }
    bias_filler {
      type: "constant"
      value: 0.2
    }
  }
}
layer {
  name: "inception_3a/relu_5x5"
  type: "ReLU"
  bottom: "inception_3a/5x5"
  top: "inception_3a/5x5"
}
layer {
  name: "inception_3a/pool"
  type: "Pooling"
  bottom: "pool2/3x3_s2"
  top: "inception_3a/pool"
  pooling_param {
    pool: MAX
    kernel_size: 3
    stride: 1
    pad: 1
  }
}
layer {
  name: "inception_3a/pool_proj"
  type: "Convolution"
  bottom: "inception_3a/pool"
  top: "inception_3a/pool_proj"
  param {
    lr_mult: 1
    decay_mult: 1
  }
  param {
    lr_mult: 2
    decay_mult: 0
  }
  convolution_param {
    num_output: 32
    kernel_size: 1
    weight_filler {
      type: "xavier"
      std: 0.1
    }
    bias_filler {
      type: "constant"
      value: 0.2
    }
  }
}
layer {
  name: "inception_3a/relu_pool_proj"
  type: "ReLU"
  bottom: "inception_3a/pool_proj"
  top: "inception_3a/pool_proj"
}
layer {
  name: "inception_3a/output"
  type: "Concat"
  bottom: "inception_3a/1x1"
  bottom: "inception_3a/3x3"
  bottom: "inception_3a/5x5"
  bottom: "inception_3a/pool_proj"
  top: "inception_3a/output"
}
layer {
  name: "inception_3b/1x1"
  type: "Convolution"
  bottom: "inception_3a/output"
  top: "inception_3b/1x1"
  param {
    lr_mult: 1
    decay_mult: 1
  }
  param {
    lr_mult: 2
    decay_mult: 0
  }
  convolution_param {
    num_output: 128
    kernel_size: 1
    weight_filler {
      type: "xavier"
      std: 0.03
    }
    bias_filler {
      type: "constant"
      value: 0.2
    }
  }
}
layer {
  name: "inception_3b/relu_1x1"
  type: "ReLU"
  bottom: "inception_3b/1x1"
  top: "inception_3b/1x1"
}
layer {
  name: "inception_3b/3x3_reduce"
  type: "Convolution"
  bottom: "inception_3a/output"
  top: "inception_3b/3x3_reduce"
  param {
    lr_mult: 1
    decay_mult: 1
  }
  param {
    lr_mult: 2
    decay_mult: 0
  }
  convolution_param {
    num_output: 128
    kernel_size: 1
    weight_filler {
      type: "xavier"
      std: 0.09
    }
    bias_filler {
      type: "constant"
      value: 0.2
    }
  }
}
layer {
  name: "inception_3b/relu_3x3_reduce"
  type: "ReLU"
  bottom: "inception_3b/3x3_reduce"
  top: "inception_3b/3x3_reduce"
}
layer {
  name: "inception_3b/3x3"
  type: "Convolution"
  bottom: "inception_3b/3x3_reduce"
  top: "inception_3b/3x3"
  param {
    lr_mult: 1
    decay_mult: 1
  }
  param {
    lr_mult: 2
    decay_mult: 0
  }
  convolution_param {
    num_output: 192
    pad: 1
    kernel_size: 3
    weight_filler {
      type: "xavier"
      std: 0.03
    }
    bias_filler {
      type: "constant"
      value: 0.2
    }
  }
}
layer {
  name: "inception_3b/relu_3x3"
  type: "ReLU"
  bottom: "inception_3b/3x3"
  top: "inception_3b/3x3"
}
layer {
  name: "inception_3b/5x5_reduce"
  type: "Convolution"
  bottom: "inception_3a/output"
  top: "inception_3b/5x5_reduce"
  param {
    lr_mult: 1
    decay_mult: 1
  }
  param {
    lr_mult: 2
    decay_mult: 0
  }
  convolution_param {
    num_output: 32
    kernel_size: 1
    weight_filler {
      type: "xavier"
      std: 0.2
    }
    bias_filler {
      type: "constant"
      value: 0.2
    }
  }
}
layer {
  name: "inception_3b/relu_5x5_reduce"
  type: "ReLU"
  bottom: "inception_3b/5x5_reduce"
  top: "inception_3b/5x5_reduce"
}
layer {
  name: "inception_3b/5x5"
  type: "Convolution"
  bottom: "inception_3b/5x5_reduce"
  top: "inception_3b/5x5"
  param {
    lr_mult: 1
    decay_mult: 1
  }
  param {
    lr_mult: 2
    decay_mult: 0
  }
  convolution_param {
    num_output: 96
    pad: 2
    kernel_size: 5
    weight_filler {
      type: "xavier"
      std: 0.03
    }
    bias_filler {
      type: "constant"
      value: 0.2
    }
  }
}
layer {
  name: "inception_3b/relu_5x5"
  type: "ReLU"
  bottom: "inception_3b/5x5"
  top: "inception_3b/5x5"
}
layer {
  name: "inception_3b/pool"
  type: "Pooling"
  bottom: "inception_3a/output"
  top: "inception_3b/pool"
  pooling_param {
    pool: MAX
    kernel_size: 3
    stride: 1
    pad: 1
  }
}
layer {
  name: "inception_3b/pool_proj"
  type: "Convolution"
  bottom: "inception_3b/pool"
  top: "inception_3b/pool_proj"
  param {
    lr_mult: 1
    decay_mult: 1
  }
  param {
    lr_mult: 2
    decay_mult: 0
  }
  convolution_param {
    num_output: 64
    kernel_size: 1
    weight_filler {
      type: "xavier"
      std: 0.1
    }
    bias_filler {
      type: "constant"
      value: 0.2
    }
  }
}
layer {
  name: "inception_3b/relu_pool_proj"
  type: "ReLU"
  bottom: "inception_3b/pool_proj"
  top: "inception_3b/pool_proj"
}
layer {
  name: "inception_3b/output"
  type: "Concat"
  bottom: "inception_3b/1x1"
  bottom: "inception_3b/3x3"
  bottom: "inception_3b/5x5"
  bottom: "inception_3b/pool_proj"
  top: "inception_3b/output"
}
layer {
  name: "pool3/3x3_s2"
  type: "Pooling"
  bottom: "inception_3b/output"
  top: "pool3/3x3_s2"
  pooling_param {
    pool: MAX
    kernel_size: 3
    stride: 2
  }
}
layer {
  name: "inception_4a/1x1"
  type: "Convolution"
  bottom: "pool3/3x3_s2"
  top: "inception_4a/1x1"
  param {
    lr_mult: 1
    decay_mult: 1
  }
  param {
    lr_mult: 2
    decay_mult: 0
  }
  convolution_param {
    num_output: 192
    kernel_size: 1
    weight_filler {
      type: "xavier"
      std: 0.03
    }
    bias_filler {
      type: "constant"
      value: 0.2
    }
  }
}
layer {
  name: "inception_4a/relu_1x1"
  type: "ReLU"
  bottom: "inception_4a/1x1"
  top: "inception_4a/1x1"
}
layer {
  name: "inception_4a/3x3_reduce"
  type: "Convolution"
  bottom: "pool3/3x3_s2"
  top: "inception_4a/3x3_reduce"
  param {
    lr_mult: 1
    decay_mult: 1
  }
  param {
    lr_mult: 2
    decay_mult: 0
  }
  convolution_param {
    num_output: 96
    kernel_size: 1
    weight_filler {
      type: "xavier"
      std: 0.09
    }
    bias_filler {
      type: "constant"
      value: 0.2
    }
  }
}
layer {
  name: "inception_4a/relu_3x3_reduce"
  type: "ReLU"
  bottom: "inception_4a/3x3_reduce"
  top: "inception_4a/3x3_reduce"
}
layer {
  name: "inception_4a/3x3"
  type: "Convolution"
  bottom: "inception_4a/3x3_reduce"
  top: "inception_4a/3x3"
  param {
    lr_mult: 1
    decay_mult: 1
  }
  param {
    lr_mult: 2
    decay_mult: 0
  }
  convolution_param {
    num_output: 208
    pad: 1
    kernel_size: 3
    weight_filler {
      type: "xavier"
      std: 0.03
    }
    bias_filler {
      type: "constant"
      value: 0.2
    }
  }
}
layer {
  name: "inception_4a/relu_3x3"
  type: "ReLU"
  bottom: "inception_4a/3x3"
  top: "inception_4a/3x3"
}
layer {
  name: "inception_4a/5x5_reduce"
  type: "Convolution"
  bottom: "pool3/3x3_s2"
  top: "inception_4a/5x5_reduce"
  param {
    lr_mult: 1
    decay_mult: 1
  }
  param {
    lr_mult: 2
    decay_mult: 0
  }
  convolution_param {
    num_output: 16
    kernel_size: 1
    weight_filler {
      type: "xavier"
      std: 0.2
    }
    bias_filler {
      type: "constant"
      value: 0.2
    }
  }
}
layer {
  name: "inception_4a/relu_5x5_reduce"
  type: "ReLU"
  bottom: "inception_4a/5x5_reduce"
  top: "inception_4a/5x5_reduce"
}
layer {
  name: "inception_4a/5x5"
  type: "Convolution"
  bottom: "inception_4a/5x5_reduce"
  top: "inception_4a/5x5"
  param {
    lr_mult: 1
    decay_mult: 1
  }
  param {
    lr_mult: 2
    decay_mult: 0
  }
  convolution_param {
    num_output: 48
    pad: 2
    kernel_size: 5
    weight_filler {
      type: "xavier"
      std: 0.03
    }
    bias_filler {
      type: "constant"
      value: 0.2
    }
  }
}
layer {
  name: "inception_4a/relu_5x5"
  type: "ReLU"
  bottom: "inception_4a/5x5"
  top: "inception_4a/5x5"
}
layer {
  name: "inception_4a/pool"
  type: "Pooling"
  bottom: "pool3/3x3_s2"
  top: "inception_4a/pool"
  pooling_param {
    pool: MAX
    kernel_size: 3
    stride: 1
    pad: 1
  }
}
layer {
  name: "inception_4a/pool_proj"
  type: "Convolution"
  bottom: "inception_4a/pool"
  top: "inception_4a/pool_proj"
  param {
    lr_mult: 1
    decay_mult: 1
  }
  param {
    lr_mult: 2
    decay_mult: 0
  }
  convolution_param {
    num_output: 64
    kernel_size: 1
    weight_filler {
      type: "xavier"
      std: 0.1
    }
    bias_filler {
      type: "constant"
      value: 0.2
    }
  }
}
layer {
  name: "inception_4a/relu_pool_proj"
  type: "ReLU"
  bottom: "inception_4a/pool_proj"
  top: "inception_4a/pool_proj"
}
layer {
  name: "inception_4a/output"
  type: "Concat"
  bottom: "inception_4a/1x1"
  bottom: "inception_4a/3x3"
  bottom: "inception_4a/5x5"
  bottom: "inception_4a/pool_proj"
  top: "inception_4a/output"
}
layer {
  name: "loss1/ave_pool"
  type: "Pooling"
  bottom: "inception_4a/output"
  top: "loss1/ave_pool"
  pooling_param {
    pool: AVE
    kernel_size: 5
    stride: 3
  }
}
layer {
  name: "loss1/conv"
  type: "Convolution"
  bottom: "loss1/ave_pool"
  top: "loss1/conv"
  param {
    lr_mult: 1
    decay_mult: 1
  }
  param {
    lr_mult: 2
    decay_mult: 0
  }
  convolution_param {
    num_output: 128
    kernel_size: 1
    weight_filler {
      type: "xavier"
      std: 0.08
    }
    bias_filler {
      type: "constant"
      value: 0.2
    }
  }
}
layer {
  name: "loss1/relu_conv"
  type: "ReLU"
  bottom: "loss1/conv"
  top: "loss1/conv"
}
layer {
  name: "loss1/fc"
  type: "InnerProduct"
  bottom: "loss1/conv"
  top: "loss1/fc"
  param {
    lr_mult: 1
    decay_mult: 1
  }
  param {
    lr_mult: 2
    decay_mult: 0
  }
  inner_product_param {
    num_output: 1024
    weight_filler {
      type: "xavier"
      std: 0.02
    }
    bias_filler {
      type: "constant"
      value: 0.2
    }
  }
}
layer {
  name: "loss1/relu_fc"
  type: "ReLU"
  bottom: "loss1/fc"
  top: "loss1/fc"
}
layer {
  name: "loss1/drop_fc"
  type: "Dropout"
  bottom: "loss1/fc"
  top: "loss1/fc"
  dropout_param {
    dropout_ratio: 0.7
  }
}
layer {
  name: "loss1/classifier_plantvillage"
  type: "InnerProduct"
  bottom: "loss1/fc"
  top: "loss1/classifier_plantvillage"
  param {
    lr_mult: 1
    decay_mult: 1
  }
  param {
    lr_mult: 2
    decay_mult: 0
  }
  inner_product_param {
    num_output: 38
    weight_filler {
      type: "xavier"
      std: 0.0009765625
    }
    bias_filler {
      type: "constant"
      value: 0
    }
  }
}
layer {
  name: "inception_4b/1x1"
  type: "Convolution"
  bottom: "inception_4a/output"
  top: "inception_4b/1x1"
  param {
    lr_mult: 1
    decay_mult: 1
  }
  param {
    lr_mult: 2
    decay_mult: 0
  }
  convolution_param {
    num_output: 160
    kernel_size: 1
    weight_filler {
      type: "xavier"
      std: 0.03
    }
    bias_filler {
      type: "constant"
      value: 0.2
    }
  }
}
layer {
  name: "inception_4b/relu_1x1"
  type: "ReLU"
  bottom: "inception_4b/1x1"
  top: "inception_4b/1x1"
}
layer {
  name: "inception_4b/3x3_reduce"
  type: "Convolution"
  bottom: "inception_4a/output"
  top: "inception_4b/3x3_reduce"
  param {
    lr_mult: 1
    decay_mult: 1
  }
  param {
    lr_mult: 2
    decay_mult: 0
  }
  convolution_param {
    num_output: 112
    kernel_size: 1
    weight_filler {
      type: "xavier"
      std: 0.09
    }
    bias_filler {
      type: "constant"
      value: 0.2
    }
  }
}
layer {
  name: "inception_4b/relu_3x3_reduce"
  type: "ReLU"
  bottom: "inception_4b/3x3_reduce"
  top: "inception_4b/3x3_reduce"
}
layer {
  name: "inception_4b/3x3"
  type: "Convolution"
  bottom: "inception_4b/3x3_reduce"
  top: "inception_4b/3x3"
  param {
    lr_mult: 1
    decay_mult: 1
  }
  param {
    lr_mult: 2
    decay_mult: 0
  }
  convolution_param {
    num_output: 224
    pad: 1
    kernel_size: 3
    weight_filler {
      type: "xavier"
      std: 0.03
    }
    bias_filler {
      type: "constant"
      value: 0.2
    }
  }
}
layer {
  name: "inception_4b/relu_3x3"
  type: "ReLU"
  bottom: "inception_4b/3x3"
  top: "inception_4b/3x3"
}
layer {
  name: "inception_4b/5x5_reduce"
  type: "Convolution"
  bottom: "inception_4a/output"
  top: "inception_4b/5x5_reduce"
  param {
    lr_mult: 1
    decay_mult: 1
  }
  param {
    lr_mult: 2
    decay_mult: 0
  }
  convolution_param {
    num_output: 24
    kernel_size: 1
    weight_filler {
      type: "xavier"
      std: 0.2
    }
    bias_filler {
      type: "constant"
      value: 0.2
    }
  }
}
layer {
  name: "inception_4b/relu_5x5_reduce"
  type: "ReLU"
  bottom: "inception_4b/5x5_reduce"
  top: "inception_4b/5x5_reduce"
}
layer {
  name: "inception_4b/5x5"
  type: "Convolution"
  bottom: "inception_4b/5x5_reduce"
  top: "inception_4b/5x5"
  param {
    lr_mult: 1
    decay_mult: 1
  }
  param {
    lr_mult: 2
    decay_mult: 0
  }
  convolution_param {
    num_output: 64
    pad: 2
    kernel_size: 5
    weight_filler {
      type: "xavier"
      std: 0.03
    }
    bias_filler {
      type: "constant"
      value: 0.2
    }
  }
}
layer {
  name: "inception_4b/relu_5x5"
  type: "ReLU"
  bottom: "inception_4b/5x5"
  top: "inception_4b/5x5"
}
layer {
  name: "inception_4b/pool"
  type: "Pooling"
  bottom: "inception_4a/output"
  top: "inception_4b/pool"
  pooling_param {
    pool: MAX
    kernel_size: 3
    stride: 1
    pad: 1
  }
}
layer {
  name: "inception_4b/pool_proj"
  type: "Convolution"
  bottom: "inception_4b/pool"
  top: "inception_4b/pool_proj"
  param {
    lr_mult: 1
    decay_mult: 1
  }
  param {
    lr_mult: 2
    decay_mult: 0
  }
  convolution_param {
    num_output: 64
    kernel_size: 1
    weight_filler {
      type: "xavier"
      std: 0.1
    }
    bias_filler {
      type: "constant"
      value: 0.2
    }
  }
}
layer {
  name: "inception_4b/relu_pool_proj"
  type: "ReLU"
  bottom: "inception_4b/pool_proj"
  top: "inception_4b/pool_proj"
}
layer {
  name: "inception_4b/output"
  type: "Concat"
  bottom: "inception_4b/1x1"
  bottom: "inception_4b/3x3"
  bottom: "inception_4b/5x5"
  bottom: "inception_4b/pool_proj"
  top: "inception_4b/output"
}
layer {
  name: "inception_4c/1x1"
  type: "Convolution"
  bottom: "inception_4b/output"
  top: "inception_4c/1x1"
  param {
    lr_mult: 1
    decay_mult: 1
  }
  param {
    lr_mult: 2
    decay_mult: 0
  }
  convolution_param {
    num_output: 128
    kernel_size: 1
    weight_filler {
      type: "xavier"
      std: 0.03
    }
    bias_filler {
      type: "constant"
      value: 0.2
    }
  }
}
layer {
  name: "inception_4c/relu_1x1"
  type: "ReLU"
  bottom: "inception_4c/1x1"
  top: "inception_4c/1x1"
}
layer {
  name: "inception_4c/3x3_reduce"
  type: "Convolution"
  bottom: "inception_4b/output"
  top: "inception_4c/3x3_reduce"
  param {
    lr_mult: 1
    decay_mult: 1
  }
  param {
    lr_mult: 2
    decay_mult: 0
  }
  convolution_param {
    num_output: 128
    kernel_size: 1
    weight_filler {
      type: "xavier"
      std: 0.09
    }
    bias_filler {
      type: "constant"
      value: 0.2
    }
  }
}
layer {
  name: "inception_4c/relu_3x3_reduce"
  type: "ReLU"
  bottom: "inception_4c/3x3_reduce"
  top: "inception_4c/3x3_reduce"
}
layer {
  name: "inception_4c/3x3"
  type: "Convolution"
  bottom: "inception_4c/3x3_reduce"
  top: "inception_4c/3x3"
  param {
    lr_mult: 1
    decay_mult: 1
  }
  param {
    lr_mult: 2
    decay_mult: 0
  }
  convolution_param {
    num_output: 256
    pad: 1
    kernel_size: 3
    weight_filler {
      type: "xavier"
      std: 0.03
    }
    bias_filler {
      type: "constant"
      value: 0.2
    }
  }
}
layer {
  name: "inception_4c/relu_3x3"
  type: "ReLU"
  bottom: "inception_4c/3x3"
  top: "inception_4c/3x3"
}
layer {
  name: "inception_4c/5x5_reduce"
  type: "Convolution"
  bottom: "inception_4b/output"
  top: "inception_4c/5x5_reduce"
  param {
    lr_mult: 1
    decay_mult: 1
  }
  param {
    lr_mult: 2
    decay_mult: 0
  }
  convolution_param {
    num_output: 24
    kernel_size: 1
    weight_filler {
      type: "xavier"
      std: 0.2
    }
    bias_filler {
      type: "constant"
      value: 0.2
    }
  }
}
layer {
  name: "inception_4c/relu_5x5_reduce"
  type: "ReLU"
  bottom: "inception_4c/5x5_reduce"
  top: "inception_4c/5x5_reduce"
}
layer {
  name: "inception_4c/5x5"
  type: "Convolution"
  bottom: "inception_4c/5x5_reduce"
  top: "inception_4c/5x5"
  param {
    lr_mult: 1
    decay_mult: 1
  }
  param {
    lr_mult: 2
    decay_mult: 0
  }
  convolution_param {
    num_output: 64
    pad: 2
    kernel_size: 5
    weight_filler {
      type: "xavier"
      std: 0.03
    }
    bias_filler {
      type: "constant"
      value: 0.2
    }
  }
}
layer {
  name: "inception_4c/relu_5x5"
  type: "ReLU"
  bottom: "inception_4c/5x5"
  top: "inception_4c/5x5"
}
layer {
  name: "inception_4c/pool"
  type: "Pooling"
  bottom: "inception_4b/output"
  top: "inception_4c/pool"
  pooling_param {
    pool: MAX
    kernel_size: 3
    stride: 1
    pad: 1
  }
}
layer {
  name: "inception_4c/pool_proj"
  type: "Convolution"
  bottom: "inception_4c/pool"
  top: "inception_4c/pool_proj"
  param {
    lr_mult: 1
    decay_mult: 1
  }
  param {
    lr_mult: 2
    decay_mult: 0
  }
  convolution_param {
    num_output: 64
    kernel_size: 1
    weight_filler {
      type: "xavier"
      std: 0.1
    }
    bias_filler {
      type: "constant"
      value: 0.2
    }
  }
}
layer {
  name: "inception_4c/relu_pool_proj"
  type: "ReLU"
  bottom: "inception_4c/pool_proj"
  top: "inception_4c/pool_proj"
}
layer {
  name: "inception_4c/output"
  type: "Concat"
  bottom: "inception_4c/1x1"
  bottom: "inception_4c/3x3"
  bottom: "inception_4c/5x5"
  bottom: "inception_4c/pool_proj"
  top: "inception_4c/output"
}
layer {
  name: "inception_4d/1x1"
  type: "Convolution"
  bottom: "inception_4c/output"
  top: "inception_4d/1x1"
  param {
    lr_mult: 1
    decay_mult: 1
  }
  param {
    lr_mult: 2
    decay_mult: 0
  }
  convolution_param {
    num_output: 112
    kernel_size: 1
    weight_filler {
      type: "xavier"
      std: 0.03
    }
    bias_filler {
      type: "constant"
      value: 0.2
    }
  }
}
layer {
  name: "inception_4d/relu_1x1"
  type: "ReLU"
  bottom: "inception_4d/1x1"
  top: "inception_4d/1x1"
}
layer {
  name: "inception_4d/3x3_reduce"
  type: "Convolution"
  bottom: "inception_4c/output"
  top: "inception_4d/3x3_reduce"
  param {
    lr_mult: 1
    decay_mult: 1
  }
  param {
    lr_mult: 2
    decay_mult: 0
  }
  convolution_param {
    num_output: 144
    kernel_size: 1
    weight_filler {
      type: "xavier"
      std: 0.09
    }
    bias_filler {
      type: "constant"
      value: 0.2
    }
  }
}
layer {
  name: "inception_4d/relu_3x3_reduce"
  type: "ReLU"
  bottom: "inception_4d/3x3_reduce"
  top: "inception_4d/3x3_reduce"
}
layer {
  name: "inception_4d/3x3"
  type: "Convolution"
  bottom: "inception_4d/3x3_reduce"
  top: "inception_4d/3x3"
  param {
    lr_mult: 1
    decay_mult: 1
  }
  param {
    lr_mult: 2
    decay_mult: 0
  }
  convolution_param {
    num_output: 288
    pad: 1
    kernel_size: 3
    weight_filler {
      type: "xavier"
      std: 0.03
    }
    bias_filler {
      type: "constant"
      value: 0.2
    }
  }
}
layer {
  name: "inception_4d/relu_3x3"
  type: "ReLU"
  bottom: "inception_4d/3x3"
  top: "inception_4d/3x3"
}
layer {
  name: "inception_4d/5x5_reduce"
  type: "Convolution"
  bottom: "inception_4c/output"
  top: "inception_4d/5x5_reduce"
  param {
    lr_mult: 1
    decay_mult: 1
  }
  param {
    lr_mult: 2
    decay_mult: 0
  }
  convolution_param {
    num_output: 32
    kernel_size: 1
    weight_filler {
      type: "xavier"
      std: 0.2
    }
    bias_filler {
      type: "constant"
      value: 0.2
    }
  }
}
layer {
  name: "inception_4d/relu_5x5_reduce"
  type: "ReLU"
  bottom: "inception_4d/5x5_reduce"
  top: "inception_4d/5x5_reduce"
}
layer {
  name: "inception_4d/5x5"
  type: "Convolution"
  bottom: "inception_4d/5x5_reduce"
  top: "inception_4d/5x5"
  param {
    lr_mult: 1
    decay_mult: 1
  }
  param {
    lr_mult: 2
    decay_mult: 0
  }
  convolution_param {
    num_output: 64
    pad: 2
    kernel_size: 5
    weight_filler {
      type: "xavier"
      std: 0.03
    }
    bias_filler {
      type: "constant"
      value: 0.2
    }
  }
}
layer {
  name: "inception_4d/relu_5x5"
  type: "ReLU"
  bottom: "inception_4d/5x5"
  top: "inception_4d/5x5"
}
layer {
  name: "inception_4d/pool"
  type: "Pooling"
  bottom: "inception_4c/output"
  top: "inception_4d/pool"
  pooling_param {
    pool: MAX
    kernel_size: 3
    stride: 1
    pad: 1
  }
}
layer {
  name: "inception_4d/pool_proj"
  type: "Convolution"
  bottom: "inception_4d/pool"
  top: "inception_4d/pool_proj"
  param {
    lr_mult: 1
    decay_mult: 1
  }
  param {
    lr_mult: 2
    decay_mult: 0
  }
  convolution_param {
    num_output: 64
    kernel_size: 1
    weight_filler {
      type: "xavier"
      std: 0.1
    }
    bias_filler {
      type: "constant"
      value: 0.2
    }
  }
}
layer {
  name: "inception_4d/relu_pool_proj"
  type: "ReLU"
  bottom: "inception_4d/pool_proj"
  top: "inception_4d/pool_proj"
}
layer {
  name: "inception_4d/output"
  type: "Concat"
  bottom: "inception_4d/1x1"
  bottom: "inception_4d/3x3"
  bottom: "inception_4d/5x5"
  bottom: "inception_4d/pool_proj"
  top: "inception_4d/output"
}
layer {
  name: "loss2/ave_pool"
  type: "Pooling"
  bottom: "inception_4d/output"
  top: "loss2/ave_pool"
  pooling_param {
    pool: AVE
    kernel_size: 5
    stride: 3
  }
}
layer {
  name: "loss2/conv"
  type: "Convolution"
  bottom: "loss2/ave_pool"
  top: "loss2/conv"
  param {
    lr_mult: 1
    decay_mult: 1
  }
  param {
    lr_mult: 2
    decay_mult: 0
  }
  convolution_param {
    num_output: 128
    kernel_size: 1
    weight_filler {
      type: "xavier"
      std: 0.08
    }
    bias_filler {
      type: "constant"
      value: 0.2
    }
  }
}
layer {
  name: "loss2/relu_conv"
  type: "ReLU"
  bottom: "loss2/conv"
  top: "loss2/conv"
}
layer {
  name: "loss2/fc"
  type: "InnerProduct"
  bottom: "loss2/conv"
  top: "loss2/fc"
  param {
    lr_mult: 1
    decay_mult: 1
  }
  param {
    lr_mult: 2
    decay_mult: 0
  }
  inner_product_param {
    num_output: 1024
    weight_filler {
      type: "xavier"
      std: 0.02
    }
    bias_filler {
      type: "constant"
      value: 0.2
    }
  }
}
layer {
  name: "loss2/relu_fc"
  type: "ReLU"
  bottom: "loss2/fc"
  top: "loss2/fc"
}
layer {
  name: "loss2/drop_fc"
  type: "Dropout"
  bottom: "loss2/fc"
  top: "loss2/fc"
  dropout_param {
    dropout_ratio: 0.7
  }
}
layer {
  name: "loss2/classifier_plantvillage"
  type: "InnerProduct"
  bottom: "loss2/fc"
  top: "loss2/classifier_plantvillage"
  param {
    lr_mult: 1
    decay_mult: 1
  }
  param {
    lr_mult: 2
    decay_mult: 0
  }
  inner_product_param {
    num_output: 38
    weight_filler {
      type: "xavier"
      std: 0.0009765625
    }
    bias_filler {
      type: "constant"
      value: 0
    }
  }
}
layer {
  name: "inception_4e/1x1"
  type: "Convolution"
  bottom: "inception_4d/output"
  top: "inception_4e/1x1"
  param {
    lr_mult: 1
    decay_mult: 1
  }
  param {
    lr_mult: 2
    decay_mult: 0
  }
  convolution_param {
    num_output: 256
    kernel_size: 1
    weight_filler {
      type: "xavier"
      std: 0.03
    }
    bias_filler {
      type: "constant"
      value: 0.2
    }
  }
}
layer {
  name: "inception_4e/relu_1x1"
  type: "ReLU"
  bottom: "inception_4e/1x1"
  top: "inception_4e/1x1"
}
layer {
  name: "inception_4e/3x3_reduce"
  type: "Convolution"
  bottom: "inception_4d/output"
  top: "inception_4e/3x3_reduce"
  param {
    lr_mult: 1
    decay_mult: 1
  }
  param {
    lr_mult: 2
    decay_mult: 0
  }
  convolution_param {
    num_output: 160
    kernel_size: 1
    weight_filler {
      type: "xavier"
      std: 0.09
    }
    bias_filler {
      type: "constant"
      value: 0.2
    }
  }
}
layer {
  name: "inception_4e/relu_3x3_reduce"
  type: "ReLU"
  bottom: "inception_4e/3x3_reduce"
  top: "inception_4e/3x3_reduce"
}
layer {
  name: "inception_4e/3x3"
  type: "Convolution"
  bottom: "inception_4e/3x3_reduce"
  top: "inception_4e/3x3"
  param {
    lr_mult: 1
    decay_mult: 1
  }
  param {
    lr_mult: 2
    decay_mult: 0
  }
  convolution_param {
    num_output: 320
    pad: 1
    kernel_size: 3
    weight_filler {
      type: "xavier"
      std: 0.03
    }
    bias_filler {
      type: "constant"
      value: 0.2
    }
  }
}
layer {
  name: "inception_4e/relu_3x3"
  type: "ReLU"
  bottom: "inception_4e/3x3"
  top: "inception_4e/3x3"
}
layer {
  name: "inception_4e/5x5_reduce"
  type: "Convolution"
  bottom: "inception_4d/output"
  top: "inception_4e/5x5_reduce"
  param {
    lr_mult: 1
    decay_mult: 1
  }
  param {
    lr_mult: 2
    decay_mult: 0
  }
  convolution_param {
    num_output: 32
    kernel_size: 1
    weight_filler {
      type: "xavier"
      std: 0.2
    }
    bias_filler {
      type: "constant"
      value: 0.2
    }
  }
}
layer {
  name: "inception_4e/relu_5x5_reduce"
  type: "ReLU"
  bottom: "inception_4e/5x5_reduce"
  top: "inception_4e/5x5_reduce"
}
layer {
  name: "inception_4e/5x5"
  type: "Convolution"
  bottom: "inception_4e/5x5_reduce"
  top: "inception_4e/5x5"
  p
I0403 19:23:47.987666  9189 layer_factory.hpp:77] Creating layer data
I0403 19:23:47.988270  9189 net.cpp:91] Creating Layer data
I0403 19:23:47.988315  9189 net.cpp:399] data -> data
I0403 19:23:47.988373  9189 net.cpp:399] data -> label
I0403 19:23:47.988411  9189 data_transformer.cpp:25] Loading mean file from: /home/mohanty/data/final_dataset/lmdb/color-60-40/mean.binaryproto
I0403 19:23:47.989605  9191 db_lmdb.cpp:38] Opened lmdb /home/mohanty/data/final_dataset/lmdb/color-60-40/test_db
I0403 19:23:48.001555  9189 data_layer.cpp:41] output data size: 24,3,224,224
I0403 19:23:48.028367  9189 net.cpp:141] Setting up data
I0403 19:23:48.028446  9189 net.cpp:148] Top shape: 24 3 224 224 (3612672)
I0403 19:23:48.028470  9189 net.cpp:148] Top shape: 24 (24)
I0403 19:23:48.028486  9189 net.cpp:156] Memory required for data: 14450784
I0403 19:23:48.028517  9189 layer_factory.hpp:77] Creating layer label_data_1_split
I0403 19:23:48.028547  9189 net.cpp:91] Creating Layer label_data_1_split
I0403 19:23:48.028565  9189 net.cpp:425] label_data_1_split <- label
I0403 19:23:48.028599  9189 net.cpp:399] label_data_1_split -> label_data_1_split_0
I0403 19:23:48.028630  9189 net.cpp:399] label_data_1_split -> label_data_1_split_1
I0403 19:23:48.028650  9189 net.cpp:399] label_data_1_split -> label_data_1_split_2
I0403 19:23:48.028671  9189 net.cpp:399] label_data_1_split -> label_data_1_split_3
I0403 19:23:48.028692  9189 net.cpp:399] label_data_1_split -> label_data_1_split_4
I0403 19:23:48.028712  9189 net.cpp:399] label_data_1_split -> label_data_1_split_5
I0403 19:23:48.028733  9189 net.cpp:399] label_data_1_split -> label_data_1_split_6
I0403 19:23:48.028753  9189 net.cpp:399] label_data_1_split -> label_data_1_split_7
I0403 19:23:48.028772  9189 net.cpp:399] label_data_1_split -> label_data_1_split_8
I0403 19:23:48.028792  9189 net.cpp:399] label_data_1_split -> label_data_1_split_9
I0403 19:23:48.028908  9189 net.cpp:141] Setting up label_data_1_split
I0403 19:23:48.028931  9189 net.cpp:148] Top shape: 24 (24)
I0403 19:23:48.028949  9189 net.cpp:148] Top shape: 24 (24)
I0403 19:23:48.028965  9189 net.cpp:148] Top shape: 24 (24)
I0403 19:23:48.028981  9189 net.cpp:148] Top shape: 24 (24)
I0403 19:23:48.028996  9189 net.cpp:148] Top shape: 24 (24)
I0403 19:23:48.029012  9189 net.cpp:148] Top shape: 24 (24)
I0403 19:23:48.029029  9189 net.cpp:148] Top shape: 24 (24)
I0403 19:23:48.029045  9189 net.cpp:148] Top shape: 24 (24)
I0403 19:23:48.029060  9189 net.cpp:148] Top shape: 24 (24)
I0403 19:23:48.029077  9189 net.cpp:148] Top shape: 24 (24)
I0403 19:23:48.029127  9189 net.cpp:156] Memory required for data: 14451744
I0403 19:23:48.029145  9189 layer_factory.hpp:77] Creating layer conv1/7x7_s2
I0403 19:23:48.029187  9189 net.cpp:91] Creating Layer conv1/7x7_s2
I0403 19:23:48.029206  9189 net.cpp:425] conv1/7x7_s2 <- data
I0403 19:23:48.029235  9189 net.cpp:399] conv1/7x7_s2 -> conv1/7x7_s2
I0403 19:23:48.164247  9189 net.cpp:141] Setting up conv1/7x7_s2
I0403 19:23:48.164325  9189 net.cpp:148] Top shape: 24 64 112 112 (19267584)
I0403 19:23:48.164342  9189 net.cpp:156] Memory required for data: 91522080
I0403 19:23:48.164376  9189 layer_factory.hpp:77] Creating layer conv1/relu_7x7
I0403 19:23:48.164407  9189 net.cpp:91] Creating Layer conv1/relu_7x7
I0403 19:23:48.164425  9189 net.cpp:425] conv1/relu_7x7 <- conv1/7x7_s2
I0403 19:23:48.164455  9189 net.cpp:386] conv1/relu_7x7 -> conv1/7x7_s2 (in-place)
I0403 19:23:48.164739  9189 net.cpp:141] Setting up conv1/relu_7x7
I0403 19:23:48.164767  9189 net.cpp:148] Top shape: 24 64 112 112 (19267584)
I0403 19:23:48.164784  9189 net.cpp:156] Memory required for data: 168592416
I0403 19:23:48.164799  9189 layer_factory.hpp:77] Creating layer pool1/3x3_s2
I0403 19:23:48.164829  9189 net.cpp:91] Creating Layer pool1/3x3_s2
I0403 19:23:48.164847  9189 net.cpp:425] pool1/3x3_s2 <- conv1/7x7_s2
I0403 19:23:48.164867  9189 net.cpp:399] pool1/3x3_s2 -> pool1/3x3_s2
I0403 19:23:48.164948  9189 net.cpp:141] Setting up pool1/3x3_s2
I0403 19:23:48.164974  9189 net.cpp:148] Top shape: 24 64 56 56 (4816896)
I0403 19:23:48.164990  9189 net.cpp:156] Memory required for data: 187860000
I0403 19:23:48.165004  9189 layer_factory.hpp:77] Creating layer pool1/norm1
I0403 19:23:48.165036  9189 net.cpp:91] Creating Layer pool1/norm1
I0403 19:23:48.165055  9189 net.cpp:425] pool1/norm1 <- pool1/3x3_s2
I0403 19:23:48.165073  9189 net.cpp:399] pool1/norm1 -> pool1/norm1
I0403 19:23:48.165385  9189 net.cpp:141] Setting up pool1/norm1
I0403 19:23:48.165413  9189 net.cpp:148] Top shape: 24 64 56 56 (4816896)
I0403 19:23:48.165433  9189 net.cpp:156] Memory required for data: 207127584
I0403 19:23:48.165452  9189 layer_factory.hpp:77] Creating layer conv2/3x3_reduce
I0403 19:23:48.165480  9189 net.cpp:91] Creating Layer conv2/3x3_reduce
I0403 19:23:48.165498  9189 net.cpp:425] conv2/3x3_reduce <- pool1/norm1
I0403 19:23:48.165519  9189 net.cpp:399] conv2/3x3_reduce -> conv2/3x3_reduce
I0403 19:23:48.166936  9189 net.cpp:141] Setting up conv2/3x3_reduce
I0403 19:23:48.166966  9189 net.cpp:148] Top shape: 24 64 56 56 (4816896)
I0403 19:23:48.166983  9189 net.cpp:156] Memory required for data: 226395168
I0403 19:23:48.167004  9189 layer_factory.hpp:77] Creating layer conv2/relu_3x3_reduce
I0403 19:23:48.167023  9189 net.cpp:91] Creating Layer conv2/relu_3x3_reduce
I0403 19:23:48.167039  9189 net.cpp:425] conv2/relu_3x3_reduce <- conv2/3x3_reduce
I0403 19:23:48.167059  9189 net.cpp:386] conv2/relu_3x3_reduce -> conv2/3x3_reduce (in-place)
I0403 19:23:48.167328  9189 net.cpp:141] Setting up conv2/relu_3x3_reduce
I0403 19:23:48.167356  9189 net.cpp:148] Top shape: 24 64 56 56 (4816896)
I0403 19:23:48.167371  9189 net.cpp:156] Memory required for data: 245662752
I0403 19:23:48.167387  9189 layer_factory.hpp:77] Creating layer conv2/3x3
I0403 19:23:48.167413  9189 net.cpp:91] Creating Layer conv2/3x3
I0403 19:23:48.167436  9189 net.cpp:425] conv2/3x3 <- conv2/3x3_reduce
I0403 19:23:48.167461  9189 net.cpp:399] conv2/3x3 -> conv2/3x3
I0403 19:23:48.169759  9189 net.cpp:141] Setting up conv2/3x3
I0403 19:23:48.169790  9189 net.cpp:148] Top shape: 24 192 56 56 (14450688)
I0403 19:23:48.169807  9189 net.cpp:156] Memory required for data: 303465504
I0403 19:23:48.169829  9189 layer_factory.hpp:77] Creating layer conv2/relu_3x3
I0403 19:23:48.169849  9189 net.cpp:91] Creating Layer conv2/relu_3x3
I0403 19:23:48.169867  9189 net.cpp:425] conv2/relu_3x3 <- conv2/3x3
I0403 19:23:48.169886  9189 net.cpp:386] conv2/relu_3x3 -> conv2/3x3 (in-place)
I0403 19:23:48.170064  9189 net.cpp:141] Setting up conv2/relu_3x3
I0403 19:23:48.170091  9189 net.cpp:148] Top shape: 24 192 56 56 (14450688)
I0403 19:23:48.170146  9189 net.cpp:156] Memory required for data: 361268256
I0403 19:23:48.170163  9189 layer_factory.hpp:77] Creating layer conv2/norm2
I0403 19:23:48.170181  9189 net.cpp:91] Creating Layer conv2/norm2
I0403 19:23:48.170197  9189 net.cpp:425] conv2/norm2 <- conv2/3x3
I0403 19:23:48.170217  9189 net.cpp:399] conv2/norm2 -> conv2/norm2
I0403 19:23:48.170526  9189 net.cpp:141] Setting up conv2/norm2
I0403 19:23:48.170557  9189 net.cpp:148] Top shape: 24 192 56 56 (14450688)
I0403 19:23:48.170572  9189 net.cpp:156] Memory required for data: 419071008
I0403 19:23:48.170588  9189 layer_factory.hpp:77] Creating layer pool2/3x3_s2
I0403 19:23:48.170605  9189 net.cpp:91] Creating Layer pool2/3x3_s2
I0403 19:23:48.170629  9189 net.cpp:425] pool2/3x3_s2 <- conv2/norm2
I0403 19:23:48.170650  9189 net.cpp:399] pool2/3x3_s2 -> pool2/3x3_s2
I0403 19:23:48.170706  9189 net.cpp:141] Setting up pool2/3x3_s2
I0403 19:23:48.170729  9189 net.cpp:148] Top shape: 24 192 28 28 (3612672)
I0403 19:23:48.170745  9189 net.cpp:156] Memory required for data: 433521696
I0403 19:23:48.170761  9189 layer_factory.hpp:77] Creating layer pool2/3x3_s2_pool2/3x3_s2_0_split
I0403 19:23:48.170781  9189 net.cpp:91] Creating Layer pool2/3x3_s2_pool2/3x3_s2_0_split
I0403 19:23:48.170799  9189 net.cpp:425] pool2/3x3_s2_pool2/3x3_s2_0_split <- pool2/3x3_s2
I0403 19:23:48.170815  9189 net.cpp:399] pool2/3x3_s2_pool2/3x3_s2_0_split -> pool2/3x3_s2_pool2/3x3_s2_0_split_0
I0403 19:23:48.170836  9189 net.cpp:399] pool2/3x3_s2_pool2/3x3_s2_0_split -> pool2/3x3_s2_pool2/3x3_s2_0_split_1
I0403 19:23:48.170858  9189 net.cpp:399] pool2/3x3_s2_pool2/3x3_s2_0_split -> pool2/3x3_s2_pool2/3x3_s2_0_split_2
I0403 19:23:48.170879  9189 net.cpp:399] pool2/3x3_s2_pool2/3x3_s2_0_split -> pool2/3x3_s2_pool2/3x3_s2_0_split_3
I0403 19:23:48.170951  9189 net.cpp:141] Setting up pool2/3x3_s2_pool2/3x3_s2_0_split
I0403 19:23:48.170975  9189 net.cpp:148] Top shape: 24 192 28 28 (3612672)
I0403 19:23:48.170992  9189 net.cpp:148] Top shape: 24 192 28 28 (3612672)
I0403 19:23:48.171010  9189 net.cpp:148] Top shape: 24 192 28 28 (3612672)
I0403 19:23:48.171025  9189 net.cpp:148] Top shape: 24 192 28 28 (3612672)
I0403 19:23:48.171041  9189 net.cpp:156] Memory required for data: 491324448
I0403 19:23:48.171056  9189 layer_factory.hpp:77] Creating layer inception_3a/1x1
I0403 19:23:48.171080  9189 net.cpp:91] Creating Layer inception_3a/1x1
I0403 19:23:48.171097  9189 net.cpp:425] inception_3a/1x1 <- pool2/3x3_s2_pool2/3x3_s2_0_split_0
I0403 19:23:48.171118  9189 net.cpp:399] inception_3a/1x1 -> inception_3a/1x1
I0403 19:23:48.172670  9189 net.cpp:141] Setting up inception_3a/1x1
I0403 19:23:48.172700  9189 net.cpp:148] Top shape: 24 64 28 28 (1204224)
I0403 19:23:48.172718  9189 net.cpp:156] Memory required for data: 496141344
I0403 19:23:48.172735  9189 layer_factory.hpp:77] Creating layer inception_3a/relu_1x1
I0403 19:23:48.172755  9189 net.cpp:91] Creating Layer inception_3a/relu_1x1
I0403 19:23:48.172771  9189 net.cpp:425] inception_3a/relu_1x1 <- inception_3a/1x1
I0403 19:23:48.172792  9189 net.cpp:386] inception_3a/relu_1x1 -> inception_3a/1x1 (in-place)
I0403 19:23:48.172968  9189 net.cpp:141] Setting up inception_3a/relu_1x1
I0403 19:23:48.172996  9189 net.cpp:148] Top shape: 24 64 28 28 (1204224)
I0403 19:23:48.173010  9189 net.cpp:156] Memory required for data: 500958240
I0403 19:23:48.173025  9189 layer_factory.hpp:77] Creating layer inception_3a/3x3_reduce
I0403 19:23:48.173048  9189 net.cpp:91] Creating Layer inception_3a/3x3_reduce
I0403 19:23:48.173066  9189 net.cpp:425] inception_3a/3x3_reduce <- pool2/3x3_s2_pool2/3x3_s2_0_split_1
I0403 19:23:48.173092  9189 net.cpp:399] inception_3a/3x3_reduce -> inception_3a/3x3_reduce
I0403 19:23:48.174789  9189 net.cpp:141] Setting up inception_3a/3x3_reduce
I0403 19:23:48.174819  9189 net.cpp:148] Top shape: 24 96 28 28 (1806336)
I0403 19:23:48.174836  9189 net.cpp:156] Memory required for data: 508183584
I0403 19:23:48.174857  9189 layer_factory.hpp:77] Creating layer inception_3a/relu_3x3_reduce
I0403 19:23:48.174895  9189 net.cpp:91] Creating Layer inception_3a/relu_3x3_reduce
I0403 19:23:48.174913  9189 net.cpp:425] inception_3a/relu_3x3_reduce <- inception_3a/3x3_reduce
I0403 19:23:48.174932  9189 net.cpp:386] inception_3a/relu_3x3_reduce -> inception_3a/3x3_reduce (in-place)
I0403 19:23:48.175117  9189 net.cpp:141] Setting up inception_3a/relu_3x3_reduce
I0403 19:23:48.175145  9189 net.cpp:148] Top shape: 24 96 28 28 (1806336)
I0403 19:23:48.175161  9189 net.cpp:156] Memory required for data: 515408928
I0403 19:23:48.175176  9189 layer_factory.hpp:77] Creating layer inception_3a/3x3
I0403 19:23:48.175199  9189 net.cpp:91] Creating Layer inception_3a/3x3
I0403 19:23:48.175217  9189 net.cpp:425] inception_3a/3x3 <- inception_3a/3x3_reduce
I0403 19:23:48.175241  9189 net.cpp:399] inception_3a/3x3 -> inception_3a/3x3
I0403 19:23:48.176892  9189 net.cpp:141] Setting up inception_3a/3x3
I0403 19:23:48.176920  9189 net.cpp:148] Top shape: 24 128 28 28 (2408448)
I0403 19:23:48.176936  9189 net.cpp:156] Memory required for data: 525042720
I0403 19:23:48.176954  9189 layer_factory.hpp:77] Creating layer inception_3a/relu_3x3
I0403 19:23:48.176975  9189 net.cpp:91] Creating Layer inception_3a/relu_3x3
I0403 19:23:48.176992  9189 net.cpp:425] inception_3a/relu_3x3 <- inception_3a/3x3
I0403 19:23:48.177011  9189 net.cpp:386] inception_3a/relu_3x3 -> inception_3a/3x3 (in-place)
I0403 19:23:48.177292  9189 net.cpp:141] Setting up inception_3a/relu_3x3
I0403 19:23:48.177320  9189 net.cpp:148] Top shape: 24 128 28 28 (2408448)
I0403 19:23:48.177335  9189 net.cpp:156] Memory required for data: 534676512
I0403 19:23:48.177351  9189 layer_factory.hpp:77] Creating layer inception_3a/5x5_reduce
I0403 19:23:48.177374  9189 net.cpp:91] Creating Layer inception_3a/5x5_reduce
I0403 19:23:48.177392  9189 net.cpp:425] inception_3a/5x5_reduce <- pool2/3x3_s2_pool2/3x3_s2_0_split_2
I0403 19:23:48.177414  9189 net.cpp:399] inception_3a/5x5_reduce -> inception_3a/5x5_reduce
I0403 19:23:48.178393  9189 net.cpp:141] Setting up inception_3a/5x5_reduce
I0403 19:23:48.178422  9189 net.cpp:148] Top shape: 24 16 28 28 (301056)
I0403 19:23:48.178443  9189 net.cpp:156] Memory required for data: 535880736
I0403 19:23:48.178464  9189 layer_factory.hpp:77] Creating layer inception_3a/relu_5x5_reduce
I0403 19:23:48.178488  9189 net.cpp:91] Creating Layer inception_3a/relu_5x5_reduce
I0403 19:23:48.178505  9189 net.cpp:425] inception_3a/relu_5x5_reduce <- inception_3a/5x5_reduce
I0403 19:23:48.178524  9189 net.cpp:386] inception_3a/relu_5x5_reduce -> inception_3a/5x5_reduce (in-place)
I0403 19:23:48.178823  9189 net.cpp:141] Setting up inception_3a/relu_5x5_reduce
I0403 19:23:48.178849  9189 net.cpp:148] Top shape: 24 16 28 28 (301056)
I0403 19:23:48.178869  9189 net.cpp:156] Memory required for data: 537084960
I0403 19:23:48.178884  9189 layer_factory.hpp:77] Creating layer inception_3a/5x5
I0403 19:23:48.178905  9189 net.cpp:91] Creating Layer inception_3a/5x5
I0403 19:23:48.178920  9189 net.cpp:425] inception_3a/5x5 <- inception_3a/5x5_reduce
I0403 19:23:48.178941  9189 net.cpp:399] inception_3a/5x5 -> inception_3a/5x5
I0403 19:23:48.179966  9189 net.cpp:141] Setting up inception_3a/5x5
I0403 19:23:48.179996  9189 net.cpp:148] Top shape: 24 32 28 28 (602112)
I0403 19:23:48.180011  9189 net.cpp:156] Memory required for data: 539493408
I0403 19:23:48.180030  9189 layer_factory.hpp:77] Creating layer inception_3a/relu_5x5
I0403 19:23:48.180047  9189 net.cpp:91] Creating Layer inception_3a/relu_5x5
I0403 19:23:48.180066  9189 net.cpp:425] inception_3a/relu_5x5 <- inception_3a/5x5
I0403 19:23:48.180083  9189 net.cpp:386] inception_3a/relu_5x5 -> inception_3a/5x5 (in-place)
I0403 19:23:48.180299  9189 net.cpp:141] Setting up inception_3a/relu_5x5
I0403 19:23:48.180325  9189 net.cpp:148] Top shape: 24 32 28 28 (602112)
I0403 19:23:48.180341  9189 net.cpp:156] Memory required for data: 541901856
I0403 19:23:48.180356  9189 layer_factory.hpp:77] Creating layer inception_3a/pool
I0403 19:23:48.180377  9189 net.cpp:91] Creating Layer inception_3a/pool
I0403 19:23:48.180393  9189 net.cpp:425] inception_3a/pool <- pool2/3x3_s2_pool2/3x3_s2_0_split_3
I0403 19:23:48.180431  9189 net.cpp:399] inception_3a/pool -> inception_3a/pool
I0403 19:23:48.180502  9189 net.cpp:141] Setting up inception_3a/pool
I0403 19:23:48.180527  9189 net.cpp:148] Top shape: 24 192 28 28 (3612672)
I0403 19:23:48.180542  9189 net.cpp:156] Memory required for data: 556352544
I0403 19:23:48.180558  9189 layer_factory.hpp:77] Creating layer inception_3a/pool_proj
I0403 19:23:48.180580  9189 net.cpp:91] Creating Layer inception_3a/pool_proj
I0403 19:23:48.180598  9189 net.cpp:425] inception_3a/pool_proj <- inception_3a/pool
I0403 19:23:48.180620  9189 net.cpp:399] inception_3a/pool_proj -> inception_3a/pool_proj
I0403 19:23:48.181592  9189 net.cpp:141] Setting up inception_3a/pool_proj
I0403 19:23:48.181623  9189 net.cpp:148] Top shape: 24 32 28 28 (602112)
I0403 19:23:48.181640  9189 net.cpp:156] Memory required for data: 558760992
I0403 19:23:48.181663  9189 layer_factory.hpp:77] Creating layer inception_3a/relu_pool_proj
I0403 19:23:48.181684  9189 net.cpp:91] Creating Layer inception_3a/relu_pool_proj
I0403 19:23:48.181706  9189 net.cpp:425] inception_3a/relu_pool_proj <- inception_3a/pool_proj
I0403 19:23:48.181726  9189 net.cpp:386] inception_3a/relu_pool_proj -> inception_3a/pool_proj (in-place)
I0403 19:23:48.182001  9189 net.cpp:141] Setting up inception_3a/relu_pool_proj
I0403 19:23:48.182029  9189 net.cpp:148] Top shape: 24 32 28 28 (602112)
I0403 19:23:48.182044  9189 net.cpp:156] Memory required for data: 561169440
I0403 19:23:48.182059  9189 layer_factory.hpp:77] Creating layer inception_3a/output
I0403 19:23:48.182077  9189 net.cpp:91] Creating Layer inception_3a/output
I0403 19:23:48.182092  9189 net.cpp:425] inception_3a/output <- inception_3a/1x1
I0403 19:23:48.182109  9189 net.cpp:425] inception_3a/output <- inception_3a/3x3
I0403 19:23:48.182126  9189 net.cpp:425] inception_3a/output <- inception_3a/5x5
I0403 19:23:48.182142  9189 net.cpp:425] inception_3a/output <- inception_3a/pool_proj
I0403 19:23:48.182173  9189 net.cpp:399] inception_3a/output -> inception_3a/output
I0403 19:23:48.182219  9189 net.cpp:141] Setting up inception_3a/output
I0403 19:23:48.182245  9189 net.cpp:148] Top shape: 24 256 28 28 (4816896)
I0403 19:23:48.182261  9189 net.cpp:156] Memory required for data: 580437024
I0403 19:23:48.182276  9189 layer_factory.hpp:77] Creating layer inception_3a/output_inception_3a/output_0_split
I0403 19:23:48.182294  9189 net.cpp:91] Creating Layer inception_3a/output_inception_3a/output_0_split
I0403 19:23:48.182310  9189 net.cpp:425] inception_3a/output_inception_3a/output_0_split <- inception_3a/output
I0403 19:23:48.182330  9189 net.cpp:399] inception_3a/output_inception_3a/output_0_split -> inception_3a/output_inception_3a/output_0_split_0
I0403 19:23:48.182351  9189 net.cpp:399] inception_3a/output_inception_3a/output_0_split -> inception_3a/output_inception_3a/output_0_split_1
I0403 19:23:48.182374  9189 net.cpp:399] inception_3a/output_inception_3a/output_0_split -> inception_3a/output_inception_3a/output_0_split_2
I0403 19:23:48.182395  9189 net.cpp:399] inception_3a/output_inception_3a/output_0_split -> inception_3a/output_inception_3a/output_0_split_3
I0403 19:23:48.182492  9189 net.cpp:141] Setting up inception_3a/output_inception_3a/output_0_split
I0403 19:23:48.182517  9189 net.cpp:148] Top shape: 24 256 28 28 (4816896)
I0403 19:23:48.182534  9189 net.cpp:148] Top shape: 24 256 28 28 (4816896)
I0403 19:23:48.182551  9189 net.cpp:148] Top shape: 24 256 28 28 (4816896)
I0403 19:23:48.182569  9189 net.cpp:148] Top shape: 24 256 28 28 (4816896)
I0403 19:23:48.182584  9189 net.cpp:156] Memory required for data: 657507360
I0403 19:23:48.182598  9189 layer_factory.hpp:77] Creating layer inception_3b/1x1
I0403 19:23:48.182621  9189 net.cpp:91] Creating Layer inception_3b/1x1
I0403 19:23:48.182639  9189 net.cpp:425] inception_3b/1x1 <- inception_3a/output_inception_3a/output_0_split_0
I0403 19:23:48.182662  9189 net.cpp:399] inception_3b/1x1 -> inception_3b/1x1
I0403 19:23:48.183797  9189 net.cpp:141] Setting up inception_3b/1x1
I0403 19:23:48.183840  9189 net.cpp:148] Top shape: 24 128 28 28 (2408448)
I0403 19:23:48.183857  9189 net.cpp:156] Memory required for data: 667141152
I0403 19:23:48.183876  9189 layer_factory.hpp:77] Creating layer inception_3b/relu_1x1
I0403 19:23:48.183894  9189 net.cpp:91] Creating Layer inception_3b/relu_1x1
I0403 19:23:48.183912  9189 net.cpp:425] inception_3b/relu_1x1 <- inception_3b/1x1
I0403 19:23:48.183930  9189 net.cpp:386] inception_3b/relu_1x1 -> inception_3b/1x1 (in-place)
I0403 19:23:48.184108  9189 net.cpp:141] Setting up inception_3b/relu_1x1
I0403 19:23:48.184134  9189 net.cpp:148] Top shape: 24 128 28 28 (2408448)
I0403 19:23:48.184150  9189 net.cpp:156] Memory required for data: 676774944
I0403 19:23:48.184165  9189 layer_factory.hpp:77] Creating layer inception_3b/3x3_reduce
I0403 19:23:48.184187  9189 net.cpp:91] Creating Layer inception_3b/3x3_reduce
I0403 19:23:48.184207  9189 net.cpp:425] inception_3b/3x3_reduce <- inception_3a/output_inception_3a/output_0_split_1
I0403 19:23:48.184228  9189 net.cpp:399] inception_3b/3x3_reduce -> inception_3b/3x3_reduce
I0403 19:23:48.185362  9189 net.cpp:141] Setting up inception_3b/3x3_reduce
I0403 19:23:48.185394  9189 net.cpp:148] Top shape: 24 128 28 28 (2408448)
I0403 19:23:48.185410  9189 net.cpp:156] Memory required for data: 686408736
I0403 19:23:48.185434  9189 layer_factory.hpp:77] Creating layer inception_3b/relu_3x3_reduce
I0403 19:23:48.185453  9189 net.cpp:91] Creating Layer inception_3b/relu_3x3_reduce
I0403 19:23:48.185470  9189 net.cpp:425] inception_3b/relu_3x3_reduce <- inception_3b/3x3_reduce
I0403 19:23:48.185492  9189 net.cpp:386] inception_3b/relu_3x3_reduce -> inception_3b/3x3_reduce (in-place)
I0403 19:23:48.185667  9189 net.cpp:141] Setting up inception_3b/relu_3x3_reduce
I0403 19:23:48.185693  9189 net.cpp:148] Top shape: 24 128 28 28 (2408448)
I0403 19:23:48.185708  9189 net.cpp:156] Memory required for data: 696042528
I0403 19:23:48.185722  9189 layer_factory.hpp:77] Creating layer inception_3b/3x3
I0403 19:23:48.185748  9189 net.cpp:91] Creating Layer inception_3b/3x3
I0403 19:23:48.185767  9189 net.cpp:425] inception_3b/3x3 <- inception_3b/3x3_reduce
I0403 19:23:48.185786  9189 net.cpp:399] inception_3b/3x3 -> inception_3b/3x3
I0403 19:23:48.188685  9189 net.cpp:141] Setting up inception_3b/3x3
I0403 19:23:48.188715  9189 net.cpp:148] Top shape: 24 192 28 28 (3612672)
I0403 19:23:48.188731  9189 net.cpp:156] Memory required for data: 710493216
I0403 19:23:48.188750  9189 layer_factory.hpp:77] Creating layer inception_3b/relu_3x3
I0403 19:23:48.188771  9189 net.cpp:91] Creating Layer inception_3b/relu_3x3
I0403 19:23:48.188788  9189 net.cpp:425] inception_3b/relu_3x3 <- inception_3b/3x3
I0403 19:23:48.188807  9189 net.cpp:386] inception_3b/relu_3x3 -> inception_3b/3x3 (in-place)
I0403 19:23:48.189080  9189 net.cpp:141] Setting up inception_3b/relu_3x3
I0403 19:23:48.189107  9189 net.cpp:148] Top shape: 24 192 28 28 (3612672)
I0403 19:23:48.189123  9189 net.cpp:156] Memory required for data: 724943904
I0403 19:23:48.189139  9189 layer_factory.hpp:77] Creating layer inception_3b/5x5_reduce
I0403 19:23:48.189162  9189 net.cpp:91] Creating Layer inception_3b/5x5_reduce
I0403 19:23:48.189183  9189 net.cpp:425] inception_3b/5x5_reduce <- inception_3a/output_inception_3a/output_0_split_2
I0403 19:23:48.189205  9189 net.cpp:399] inception_3b/5x5_reduce -> inception_3b/5x5_reduce
I0403 19:23:48.190197  9189 net.cpp:141] Setting up inception_3b/5x5_reduce
I0403 19:23:48.190227  9189 net.cpp:148] Top shape: 24 32 28 28 (602112)
I0403 19:23:48.190243  9189 net.cpp:156] Memory required for data: 727352352
I0403 19:23:48.190261  9189 layer_factory.hpp:77] Creating layer inception_3b/relu_5x5_reduce
I0403 19:23:48.190284  9189 net.cpp:91] Creating Layer inception_3b/relu_5x5_reduce
I0403 19:23:48.190301  9189 net.cpp:425] inception_3b/relu_5x5_reduce <- inception_3b/5x5_reduce
I0403 19:23:48.190320  9189 net.cpp:386] inception_3b/relu_5x5_reduce -> inception_3b/5x5_reduce (in-place)
I0403 19:23:48.190500  9189 net.cpp:141] Setting up inception_3b/relu_5x5_reduce
I0403 19:23:48.190536  9189 net.cpp:148] Top shape: 24 32 28 28 (602112)
I0403 19:23:48.190553  9189 net.cpp:156] Memory required for data: 729760800
I0403 19:23:48.190567  9189 layer_factory.hpp:77] Creating layer inception_3b/5x5
I0403 19:23:48.190589  9189 net.cpp:91] Creating Layer inception_3b/5x5
I0403 19:23:48.190608  9189 net.cpp:425] inception_3b/5x5 <- inception_3b/5x5_reduce
I0403 19:23:48.190634  9189 net.cpp:399] inception_3b/5x5 -> inception_3b/5x5
I0403 19:23:48.192621  9189 net.cpp:141] Setting up inception_3b/5x5
I0403 19:23:48.192654  9189 net.cpp:148] Top shape: 24 96 28 28 (1806336)
I0403 19:23:48.192680  9189 net.cpp:156] Memory required for data: 736986144
I0403 19:23:48.192699  9189 layer_factory.hpp:77] Creating layer inception_3b/relu_5x5
I0403 19:23:48.192718  9189 net.cpp:91] Creating Layer inception_3b/relu_5x5
I0403 19:23:48.192734  9189 net.cpp:425] inception_3b/relu_5x5 <- inception_3b/5x5
I0403 19:23:48.192752  9189 net.cpp:386] inception_3b/relu_5x5 -> inception_3b/5x5 (in-place)
I0403 19:23:48.192947  9189 net.cpp:141] Setting up inception_3b/relu_5x5
I0403 19:23:48.192975  9189 net.cpp:148] Top shape: 24 96 28 28 (1806336)
I0403 19:23:48.192991  9189 net.cpp:156] Memory required for data: 744211488
I0403 19:23:48.193006  9189 layer_factory.hpp:77] Creating layer inception_3b/pool
I0403 19:23:48.193022  9189 net.cpp:91] Creating Layer inception_3b/pool
I0403 19:23:48.193039  9189 net.cpp:425] inception_3b/pool <- inception_3a/output_inception_3a/output_0_split_3
I0403 19:23:48.193058  9189 net.cpp:399] inception_3b/pool -> inception_3b/pool
I0403 19:23:48.193114  9189 net.cpp:141] Setting up inception_3b/pool
I0403 19:23:48.193138  9189 net.cpp:148] Top shape: 24 256 28 28 (4816896)
I0403 19:23:48.193155  9189 net.cpp:156] Memory required for data: 763479072
I0403 19:23:48.193169  9189 layer_factory.hpp:77] Creating layer inception_3b/pool_proj
I0403 19:23:48.193195  9189 net.cpp:91] Creating Layer inception_3b/pool_proj
I0403 19:23:48.193214  9189 net.cpp:425] inception_3b/pool_proj <- inception_3b/pool
I0403 19:23:48.193233  9189 net.cpp:399] inception_3b/pool_proj -> inception_3b/pool_proj
I0403 19:23:48.194308  9189 net.cpp:141] Setting up inception_3b/pool_proj
I0403 19:23:48.194337  9189 net.cpp:148] Top shape: 24 64 28 28 (1204224)
I0403 19:23:48.194353  9189 net.cpp:156] Memory required for data: 768295968
I0403 19:23:48.194372  9189 layer_factory.hpp:77] Creating layer inception_3b/relu_pool_proj
I0403 19:23:48.194393  9189 net.cpp:91] Creating Layer inception_3b/relu_pool_proj
I0403 19:23:48.194411  9189 net.cpp:425] inception_3b/relu_pool_proj <- inception_3b/pool_proj
I0403 19:23:48.194432  9189 net.cpp:386] inception_3b/relu_pool_proj -> inception_3b/pool_proj (in-place)
I0403 19:23:48.194833  9189 net.cpp:141] Setting up inception_3b/relu_pool_proj
I0403 19:23:48.194859  9189 net.cpp:148] Top shape: 24 64 28 28 (1204224)
I0403 19:23:48.194875  9189 net.cpp:156] Memory required for data: 773112864
I0403 19:23:48.194891  9189 layer_factory.hpp:77] Creating layer inception_3b/output
I0403 19:23:48.194912  9189 net.cpp:91] Creating Layer inception_3b/output
I0403 19:23:48.194928  9189 net.cpp:425] inception_3b/output <- inception_3b/1x1
I0403 19:23:48.194946  9189 net.cpp:425] inception_3b/output <- inception_3b/3x3
I0403 19:23:48.194962  9189 net.cpp:425] inception_3b/output <- inception_3b/5x5
I0403 19:23:48.194978  9189 net.cpp:425] inception_3b/output <- inception_3b/pool_proj
I0403 19:23:48.194996  9189 net.cpp:399] inception_3b/output -> inception_3b/output
I0403 19:23:48.195041  9189 net.cpp:141] Setting up inception_3b/output
I0403 19:23:48.195065  9189 net.cpp:148] Top shape: 24 480 28 28 (9031680)
I0403 19:23:48.195080  9189 net.cpp:156] Memory required for data: 809239584
I0403 19:23:48.195096  9189 layer_factory.hpp:77] Creating layer pool3/3x3_s2
I0403 19:23:48.195113  9189 net.cpp:91] Creating Layer pool3/3x3_s2
I0403 19:23:48.195129  9189 net.cpp:425] pool3/3x3_s2 <- inception_3b/output
I0403 19:23:48.195150  9189 net.cpp:399] pool3/3x3_s2 -> pool3/3x3_s2
I0403 19:23:48.195221  9189 net.cpp:141] Setting up pool3/3x3_s2
I0403 19:23:48.195247  9189 net.cpp:148] Top shape: 24 480 14 14 (2257920)
I0403 19:23:48.195264  9189 net.cpp:156] Memory required for data: 818271264
I0403 19:23:48.195279  9189 layer_factory.hpp:77] Creating layer pool3/3x3_s2_pool3/3x3_s2_0_split
I0403 19:23:48.195297  9189 net.cpp:91] Creating Layer pool3/3x3_s2_pool3/3x3_s2_0_split
I0403 19:23:48.195313  9189 net.cpp:425] pool3/3x3_s2_pool3/3x3_s2_0_split <- pool3/3x3_s2
I0403 19:23:48.195330  9189 net.cpp:399] pool3/3x3_s2_pool3/3x3_s2_0_split -> pool3/3x3_s2_pool3/3x3_s2_0_split_0
I0403 19:23:48.195353  9189 net.cpp:399] pool3/3x3_s2_pool3/3x3_s2_0_split -> pool3/3x3_s2_pool3/3x3_s2_0_split_1
I0403 19:23:48.195374  9189 net.cpp:399] pool3/3x3_s2_pool3/3x3_s2_0_split -> pool3/3x3_s2_pool3/3x3_s2_0_split_2
I0403 19:23:48.195394  9189 net.cpp:399] pool3/3x3_s2_pool3/3x3_s2_0_split -> pool3/3x3_s2_pool3/3x3_s2_0_split_3
I0403 19:23:48.195475  9189 net.cpp:141] Setting up pool3/3x3_s2_pool3/3x3_s2_0_split
I0403 19:23:48.195498  9189 net.cpp:148] Top shape: 24 480 14 14 (2257920)
I0403 19:23:48.195516  9189 net.cpp:148] Top shape: 24 480 14 14 (2257920)
I0403 19:23:48.195533  9189 net.cpp:148] Top shape: 24 480 14 14 (2257920)
I0403 19:23:48.195549  9189 net.cpp:148] Top shape: 24 480 14 14 (2257920)
I0403 19:23:48.195564  9189 net.cpp:156] Memory required for data: 854397984
I0403 19:23:48.195580  9189 layer_factory.hpp:77] Creating layer inception_4a/1x1
I0403 19:23:48.195601  9189 net.cpp:91] Creating Layer inception_4a/1x1
I0403 19:23:48.195621  9189 net.cpp:425] inception_4a/1x1 <- pool3/3x3_s2_pool3/3x3_s2_0_split_0
I0403 19:23:48.195641  9189 net.cpp:399] inception_4a/1x1 -> inception_4a/1x1
I0403 19:23:48.197203  9189 net.cpp:141] Setting up inception_4a/1x1
I0403 19:23:48.197232  9189 net.cpp:148] Top shape: 24 192 14 14 (903168)
I0403 19:23:48.197247  9189 net.cpp:156] Memory required for data: 858010656
I0403 19:23:48.197268  9189 layer_factory.hpp:77] Creating layer inception_4a/relu_1x1
I0403 19:23:48.197288  9189 net.cpp:91] Creating Layer inception_4a/relu_1x1
I0403 19:23:48.197305  9189 net.cpp:425] inception_4a/relu_1x1 <- inception_4a/1x1
I0403 19:23:48.197322  9189 net.cpp:386] inception_4a/relu_1x1 -> inception_4a/1x1 (in-place)
I0403 19:23:48.197506  9189 net.cpp:141] Setting up inception_4a/relu_1x1
I0403 19:23:48.197533  9189 net.cpp:148] Top shape: 24 192 14 14 (903168)
I0403 19:23:48.197548  9189 net.cpp:156] Memory required for data: 861623328
I0403 19:23:48.197563  9189 layer_factory.hpp:77] Creating layer inception_4a/3x3_reduce
I0403 19:23:48.197587  9189 net.cpp:91] Creating Layer inception_4a/3x3_reduce
I0403 19:23:48.197604  9189 net.cpp:425] inception_4a/3x3_reduce <- pool3/3x3_s2_pool3/3x3_s2_0_split_1
I0403 19:23:48.197629  9189 net.cpp:399] inception_4a/3x3_reduce -> inception_4a/3x3_reduce
I0403 19:23:48.198912  9189 net.cpp:141] Setting up inception_4a/3x3_reduce
I0403 19:23:48.198943  9189 net.cpp:148] Top shape: 24 96 14 14 (451584)
I0403 19:23:48.198961  9189 net.cpp:156] Memory required for data: 863429664
I0403 19:23:48.198983  9189 layer_factory.hpp:77] Creating layer inception_4a/relu_3x3_reduce
I0403 19:23:48.199005  9189 net.cpp:91] Creating Layer inception_4a/relu_3x3_reduce
I0403 19:23:48.199023  9189 net.cpp:425] inception_4a/relu_3x3_reduce <- inception_4a/3x3_reduce
I0403 19:23:48.199040  9189 net.cpp:386] inception_4a/relu_3x3_reduce -> inception_4a/3x3_reduce (in-place)
I0403 19:23:48.199221  9189 net.cpp:141] Setting up inception_4a/relu_3x3_reduce
I0403 19:23:48.199259  9189 net.cpp:148] Top shape: 24 96 14 14 (451584)
I0403 19:23:48.199273  9189 net.cpp:156] Memory required for data: 865236000
I0403 19:23:48.199290  9189 layer_factory.hpp:77] Creating layer inception_4a/3x3
I0403 19:23:48.199312  9189 net.cpp:91] Creating Layer inception_4a/3x3
I0403 19:23:48.199331  9189 net.cpp:425] inception_4a/3x3 <- inception_4a/3x3_reduce
I0403 19:23:48.199352  9189 net.cpp:399] inception_4a/3x3 -> inception_4a/3x3
I0403 19:23:48.202033  9189 net.cpp:141] Setting up inception_4a/3x3
I0403 19:23:48.202064  9189 net.cpp:148] Top shape: 24 208 14 14 (978432)
I0403 19:23:48.202082  9189 net.cpp:156] Memory required for data: 869149728
I0403 19:23:48.202101  9189 layer_factory.hpp:77] Creating layer inception_4a/relu_3x3
I0403 19:23:48.202119  9189 net.cpp:91] Creating Layer inception_4a/relu_3x3
I0403 19:23:48.202136  9189 net.cpp:425] inception_4a/relu_3x3 <- inception_4a/3x3
I0403 19:23:48.202154  9189 net.cpp:386] inception_4a/relu_3x3 -> inception_4a/3x3 (in-place)
I0403 19:23:48.202450  9189 net.cpp:141] Setting up inception_4a/relu_3x3
I0403 19:23:48.202486  9189 net.cpp:148] Top shape: 24 208 14 14 (978432)
I0403 19:23:48.202502  9189 net.cpp:156] Memory required for data: 873063456
I0403 19:23:48.202519  9189 layer_factory.hpp:77] Creating layer inception_4a/5x5_reduce
I0403 19:23:48.202550  9189 net.cpp:91] Creating Layer inception_4a/5x5_reduce
I0403 19:23:48.202569  9189 net.cpp:425] inception_4a/5x5_reduce <- pool3/3x3_s2_pool3/3x3_s2_0_split_2
I0403 19:23:48.202589  9189 net.cpp:399] inception_4a/5x5_reduce -> inception_4a/5x5_reduce
I0403 19:23:48.203625  9189 net.cpp:141] Setting up inception_4a/5x5_reduce
I0403 19:23:48.203655  9189 net.cpp:148] Top shape: 24 16 14 14 (75264)
I0403 19:23:48.203670  9189 net.cpp:156] Memory required for data: 873364512
I0403 19:23:48.203690  9189 layer_factory.hpp:77] Creating layer inception_4a/relu_5x5_reduce
I0403 19:23:48.203706  9189 net.cpp:91] Creating Layer inception_4a/relu_5x5_reduce
I0403 19:23:48.203725  9189 net.cpp:425] inception_4a/relu_5x5_reduce <- inception_4a/5x5_reduce
I0403 19:23:48.203743  9189 net.cpp:386] inception_4a/relu_5x5_reduce -> inception_4a/5x5_reduce (in-place)
I0403 19:23:48.203925  9189 net.cpp:141] Setting up inception_4a/relu_5x5_reduce
I0403 19:23:48.203950  9189 net.cpp:148] Top shape: 24 16 14 14 (75264)
I0403 19:23:48.203966  9189 net.cpp:156] Memory required for data: 873665568
I0403 19:23:48.203981  9189 layer_factory.hpp:77] Creating layer inception_4a/5x5
I0403 19:23:48.204005  9189 net.cpp:91] Creating Layer inception_4a/5x5
I0403 19:23:48.204021  9189 net.cpp:425] inception_4a/5x5 <- inception_4a/5x5_reduce
I0403 19:23:48.204043  9189 net.cpp:399] inception_4a/5x5 -> inception_4a/5x5
I0403 19:23:48.205137  9189 net.cpp:141] Setting up inception_4a/5x5
I0403 19:23:48.205166  9189 net.cpp:148] Top shape: 24 48 14 14 (225792)
I0403 19:23:48.205181  9189 net.cpp:156] Memory required for data: 874568736
I0403 19:23:48.205199  9189 layer_factory.hpp:77] Creating layer inception_4a/relu_5x5
I0403 19:23:48.205222  9189 net.cpp:91] Creating Layer inception_4a/relu_5x5
I0403 19:23:48.205240  9189 net.cpp:425] inception_4a/relu_5x5 <- inception_4a/5x5
I0403 19:23:48.205257  9189 net.cpp:386] inception_4a/relu_5x5 -> inception_4a/5x5 (in-place)
I0403 19:23:48.205447  9189 net.cpp:141] Setting up inception_4a/relu_5x5
I0403 19:23:48.205474  9189 net.cpp:148] Top shape: 24 48 14 14 (225792)
I0403 19:23:48.205490  9189 net.cpp:156] Memory required for data: 875471904
I0403 19:23:48.205505  9189 layer_factory.hpp:77] Creating layer inception_4a/pool
I0403 19:23:48.205523  9189 net.cpp:91] Creating Layer inception_4a/pool
I0403 19:23:48.205539  9189 net.cpp:425] inception_4a/pool <- pool3/3x3_s2_pool3/3x3_s2_0_split_3
I0403 19:23:48.205559  9189 net.cpp:399] inception_4a/pool -> inception_4a/pool
I0403 19:23:48.205621  9189 net.cpp:141] Setting up inception_4a/pool
I0403 19:23:48.205643  9189 net.cpp:148] Top shape: 24 480 14 14 (2257920)
I0403 19:23:48.205658  9189 net.cpp:156] Memory required for data: 884503584
I0403 19:23:48.205673  9189 layer_factory.hpp:77] Creating layer inception_4a/pool_proj
I0403 19:23:48.205696  9189 net.cpp:91] Creating Layer inception_4a/pool_proj
I0403 19:23:48.205713  9189 net.cpp:425] inception_4a/pool_proj <- inception_4a/pool
I0403 19:23:48.205736  9189 net.cpp:399] inception_4a/pool_proj -> inception_4a/pool_proj
I0403 19:23:48.206903  9189 net.cpp:141] Setting up inception_4a/pool_proj
I0403 19:23:48.206935  9189 net.cpp:148] Top shape: 24 64 14 14 (301056)
I0403 19:23:48.206966  9189 net.cpp:156] Memory required for data: 885707808
I0403 19:23:48.206986  9189 layer_factory.hpp:77] Creating layer inception_4a/relu_pool_proj
I0403 19:23:48.207005  9189 net.cpp:91] Creating Layer inception_4a/relu_pool_proj
I0403 19:23:48.207021  9189 net.cpp:425] inception_4a/relu_pool_proj <- inception_4a/pool_proj
I0403 19:23:48.207039  9189 net.cpp:386] inception_4a/relu_pool_proj -> inception_4a/pool_proj (in-place)
I0403 19:23:48.207334  9189 net.cpp:141] Setting up inception_4a/relu_pool_proj
I0403 19:23:48.207362  9189 net.cpp:148] Top shape: 24 64 14 14 (301056)
I0403 19:23:48.207378  9189 net.cpp:156] Memory required for data: 886912032
I0403 19:23:48.207394  9189 layer_factory.hpp:77] Creating layer inception_4a/output
I0403 19:23:48.207412  9189 net.cpp:91] Creating Layer inception_4a/output
I0403 19:23:48.207432  9189 net.cpp:425] inception_4a/output <- inception_4a/1x1
I0403 19:23:48.207448  9189 net.cpp:425] inception_4a/output <- inception_4a/3x3
I0403 19:23:48.207466  9189 net.cpp:425] inception_4a/output <- inception_4a/5x5
I0403 19:23:48.207484  9189 net.cpp:425] inception_4a/output <- inception_4a/pool_proj
I0403 19:23:48.207501  9189 net.cpp:399] inception_4a/output -> inception_4a/output
I0403 19:23:48.207556  9189 net.cpp:141] Setting up inception_4a/output
I0403 19:23:48.207581  9189 net.cpp:148] Top shape: 24 512 14 14 (2408448)
I0403 19:23:48.207595  9189 net.cpp:156] Memory required for data: 896545824
I0403 19:23:48.207610  9189 layer_factory.hpp:77] Creating layer inception_4a/output_inception_4a/output_0_split
I0403 19:23:48.207628  9189 net.cpp:91] Creating Layer inception_4a/output_inception_4a/output_0_split
I0403 19:23:48.207648  9189 net.cpp:425] inception_4a/output_inception_4a/output_0_split <- inception_4a/output
I0403 19:23:48.207665  9189 net.cpp:399] inception_4a/output_inception_4a/output_0_split -> inception_4a/output_inception_4a/output_0_split_0
I0403 19:23:48.207685  9189 net.cpp:399] inception_4a/output_inception_4a/output_0_split -> inception_4a/output_inception_4a/output_0_split_1
I0403 19:23:48.207705  9189 net.cpp:399] inception_4a/output_inception_4a/output_0_split -> inception_4a/output_inception_4a/output_0_split_2
I0403 19:23:48.207726  9189 net.cpp:399] inception_4a/output_inception_4a/output_0_split -> inception_4a/output_inception_4a/output_0_split_3
I0403 19:23:48.207748  9189 net.cpp:399] inception_4a/output_inception_4a/output_0_split -> inception_4a/output_inception_4a/output_0_split_4
I0403 19:23:48.207844  9189 net.cpp:141] Setting up inception_4a/output_inception_4a/output_0_split
I0403 19:23:48.207867  9189 net.cpp:148] Top shape: 24 512 14 14 (2408448)
I0403 19:23:48.207885  9189 net.cpp:148] Top shape: 24 512 14 14 (2408448)
I0403 19:23:48.207902  9189 net.cpp:148] Top shape: 24 512 14 14 (2408448)
I0403 19:23:48.207918  9189 net.cpp:148] Top shape: 24 512 14 14 (2408448)
I0403 19:23:48.207933  9189 net.cpp:148] Top shape: 24 512 14 14 (2408448)
I0403 19:23:48.207948  9189 net.cpp:156] Memory required for data: 944714784
I0403 19:23:48.207963  9189 layer_factory.hpp:77] Creating layer loss1/ave_pool
I0403 19:23:48.207981  9189 net.cpp:91] Creating Layer loss1/ave_pool
I0403 19:23:48.207998  9189 net.cpp:425] loss1/ave_pool <- inception_4a/output_inception_4a/output_0_split_0
I0403 19:23:48.208016  9189 net.cpp:399] loss1/ave_pool -> loss1/ave_pool
I0403 19:23:48.208227  9189 net.cpp:141] Setting up loss1/ave_pool
I0403 19:23:48.208256  9189 net.cpp:148] Top shape: 24 512 4 4 (196608)
I0403 19:23:48.208273  9189 net.cpp:156] Memory required for data: 945501216
I0403 19:23:48.208289  9189 layer_factory.hpp:77] Creating layer loss1/conv
I0403 19:23:48.208310  9189 net.cpp:91] Creating Layer loss1/conv
I0403 19:23:48.208326  9189 net.cpp:425] loss1/conv <- loss1/ave_pool
I0403 19:23:48.208348  9189 net.cpp:399] loss1/conv -> loss1/conv
I0403 19:23:48.209776  9189 net.cpp:141] Setting up loss1/conv
I0403 19:23:48.209807  9189 net.cpp:148] Top shape: 24 128 4 4 (49152)
I0403 19:23:48.209825  9189 net.cpp:156] Memory required for data: 945697824
I0403 19:23:48.209858  9189 layer_factory.hpp:77] Creating layer loss1/relu_conv
I0403 19:23:48.209878  9189 net.cpp:91] Creating Layer loss1/relu_conv
I0403 19:23:48.209894  9189 net.cpp:425] loss1/relu_conv <- loss1/conv
I0403 19:23:48.209914  9189 net.cpp:386] loss1/relu_conv -> loss1/conv (in-place)
I0403 19:23:48.210204  9189 net.cpp:141] Setting up loss1/relu_conv
I0403 19:23:48.210234  9189 net.cpp:148] Top shape: 24 128 4 4 (49152)
I0403 19:23:48.210252  9189 net.cpp:156] Memory required for data: 945894432
I0403 19:23:48.210268  9189 layer_factory.hpp:77] Creating layer loss1/fc
I0403 19:23:48.210294  9189 net.cpp:91] Creating Layer loss1/fc
I0403 19:23:48.210311  9189 net.cpp:425] loss1/fc <- loss1/conv
I0403 19:23:48.210333  9189 net.cpp:399] loss1/fc -> loss1/fc
I0403 19:23:48.227848  9189 net.cpp:141] Setting up loss1/fc
I0403 19:23:48.227881  9189 net.cpp:148] Top shape: 24 1024 (24576)
I0403 19:23:48.227897  9189 net.cpp:156] Memory required for data: 945992736
I0403 19:23:48.227916  9189 layer_factory.hpp:77] Creating layer loss1/relu_fc
I0403 19:23:48.227936  9189 net.cpp:91] Creating Layer loss1/relu_fc
I0403 19:23:48.227952  9189 net.cpp:425] loss1/relu_fc <- loss1/fc
I0403 19:23:48.227968  9189 net.cpp:386] loss1/relu_fc -> loss1/fc (in-place)
I0403 19:23:48.228154  9189 net.cpp:141] Setting up loss1/relu_fc
I0403 19:23:48.228179  9189 net.cpp:148] Top shape: 24 1024 (24576)
I0403 19:23:48.228194  9189 net.cpp:156] Memory required for data: 946091040
I0403 19:23:48.228209  9189 layer_factory.hpp:77] Creating layer loss1/drop_fc
I0403 19:23:48.228235  9189 net.cpp:91] Creating Layer loss1/drop_fc
I0403 19:23:48.228253  9189 net.cpp:425] loss1/drop_fc <- loss1/fc
I0403 19:23:48.228273  9189 net.cpp:386] loss1/drop_fc -> loss1/fc (in-place)
I0403 19:23:48.228324  9189 net.cpp:141] Setting up loss1/drop_fc
I0403 19:23:48.228348  9189 net.cpp:148] Top shape: 24 1024 (24576)
I0403 19:23:48.228363  9189 net.cpp:156] Memory required for data: 946189344
I0403 19:23:48.228377  9189 layer_factory.hpp:77] Creating layer loss1/classifier_plantvillage
I0403 19:23:48.228399  9189 net.cpp:91] Creating Layer loss1/classifier_plantvillage
I0403 19:23:48.228417  9189 net.cpp:425] loss1/classifier_plantvillage <- loss1/fc
I0403 19:23:48.228441  9189 net.cpp:399] loss1/classifier_plantvillage -> loss1/classifier_plantvillage
I0403 19:23:48.229327  9189 net.cpp:141] Setting up loss1/classifier_plantvillage
I0403 19:23:48.229358  9189 net.cpp:148] Top shape: 24 38 (912)
I0403 19:23:48.229374  9189 net.cpp:156] Memory required for data: 946192992
I0403 19:23:48.229393  9189 layer_factory.hpp:77] Creating layer loss1/classifier_plantvillage_loss1/classifier_plantvillage_0_split
I0403 19:23:48.229410  9189 net.cpp:91] Creating Layer loss1/classifier_plantvillage_loss1/classifier_plantvillage_0_split
I0403 19:23:48.229429  9189 net.cpp:425] loss1/classifier_plantvillage_loss1/classifier_plantvillage_0_split <- loss1/classifier_plantvillage
I0403 19:23:48.229450  9189 net.cpp:399] loss1/classifier_plantvillage_loss1/classifier_plantvillage_0_split -> loss1/classifier_plantvillage_loss1/classifier_plantvillage_0_split_0
I0403 19:23:48.229472  9189 net.cpp:399] loss1/classifier_plantvillage_loss1/classifier_plantvillage_0_split -> loss1/classifier_plantvillage_loss1/classifier_plantvillage_0_split_1
I0403 19:23:48.229492  9189 net.cpp:399] loss1/classifier_plantvillage_loss1/classifier_plantvillage_0_split -> loss1/classifier_plantvillage_loss1/classifier_plantvillage_0_split_2
I0403 19:23:48.229555  9189 net.cpp:141] Setting up loss1/classifier_plantvillage_loss1/classifier_plantvillage_0_split
I0403 19:23:48.229578  9189 net.cpp:148] Top shape: 24 38 (912)
I0403 19:23:48.229594  9189 net.cpp:148] Top shape: 24 38 (912)
I0403 19:23:48.229610  9189 net.cpp:148] Top shape: 24 38 (912)
I0403 19:23:48.229624  9189 net.cpp:156] Memory required for data: 946203936
I0403 19:23:48.229640  9189 layer_factory.hpp:77] Creating layer inception_4b/1x1
I0403 19:23:48.229661  9189 net.cpp:91] Creating Layer inception_4b/1x1
I0403 19:23:48.229696  9189 net.cpp:425] inception_4b/1x1 <- inception_4a/output_inception_4a/output_0_split_1
I0403 19:23:48.229715  9189 net.cpp:399] inception_4b/1x1 -> inception_4b/1x1
I0403 19:23:48.231328  9189 net.cpp:141] Setting up inception_4b/1x1
I0403 19:23:48.231355  9189 net.cpp:148] Top shape: 24 160 14 14 (752640)
I0403 19:23:48.231372  9189 net.cpp:156] Memory required for data: 949214496
I0403 19:23:48.231390  9189 layer_factory.hpp:77] Creating layer inception_4b/relu_1x1
I0403 19:23:48.231407  9189 net.cpp:91] Creating Layer inception_4b/relu_1x1
I0403 19:23:48.231423  9189 net.cpp:425] inception_4b/relu_1x1 <- inception_4b/1x1
I0403 19:23:48.231447  9189 net.cpp:386] inception_4b/relu_1x1 -> inception_4b/1x1 (in-place)
I0403 19:23:48.231626  9189 net.cpp:141] Setting up inception_4b/relu_1x1
I0403 19:23:48.231652  9189 net.cpp:148] Top shape: 24 160 14 14 (752640)
I0403 19:23:48.231667  9189 net.cpp:156] Memory required for data: 952225056
I0403 19:23:48.231683  9189 layer_factory.hpp:77] Creating layer inception_4b/3x3_reduce
I0403 19:23:48.231710  9189 net.cpp:91] Creating Layer inception_4b/3x3_reduce
I0403 19:23:48.231729  9189 net.cpp:425] inception_4b/3x3_reduce <- inception_4a/output_inception_4a/output_0_split_2
I0403 19:23:48.231750  9189 net.cpp:399] inception_4b/3x3_reduce -> inception_4b/3x3_reduce
I0403 19:23:48.233078  9189 net.cpp:141] Setting up inception_4b/3x3_reduce
I0403 19:23:48.233105  9189 net.cpp:148] Top shape: 24 112 14 14 (526848)
I0403 19:23:48.233120  9189 net.cpp:156] Memory required for data: 954332448
I0403 19:23:48.233139  9189 layer_factory.hpp:77] Creating layer inception_4b/relu_3x3_reduce
I0403 19:23:48.233160  9189 net.cpp:91] Creating Layer inception_4b/relu_3x3_reduce
I0403 19:23:48.233175  9189 net.cpp:425] inception_4b/relu_3x3_reduce <- inception_4b/3x3_reduce
I0403 19:23:48.233192  9189 net.cpp:386] inception_4b/relu_3x3_reduce -> inception_4b/3x3_reduce (in-place)
I0403 19:23:48.233476  9189 net.cpp:141] Setting up inception_4b/relu_3x3_reduce
I0403 19:23:48.233503  9189 net.cpp:148] Top shape: 24 112 14 14 (526848)
I0403 19:23:48.233518  9189 net.cpp:156] Memory required for data: 956439840
I0403 19:23:48.233533  9189 layer_factory.hpp:77] Creating layer inception_4b/3x3
I0403 19:23:48.233556  9189 net.cpp:91] Creating Layer inception_4b/3x3
I0403 19:23:48.233572  9189 net.cpp:425] inception_4b/3x3 <- inception_4b/3x3_reduce
I0403 19:23:48.233593  9189 net.cpp:399] inception_4b/3x3 -> inception_4b/3x3
I0403 19:23:48.236500  9189 net.cpp:141] Setting up inception_4b/3x3
I0403 19:23:48.236529  9189 net.cpp:148] Top shape: 24 224 14 14 (1053696)
I0403 19:23:48.236546  9189 net.cpp:156] Memory required for data: 960654624
I0403 19:23:48.236565  9189 layer_factory.hpp:77] Creating layer inception_4b/relu_3x3
I0403 19:23:48.236584  9189 net.cpp:91] Creating Layer inception_4b/relu_3x3
I0403 19:23:48.236600  9189 net.cpp:425] inception_4b/relu_3x3 <- inception_4b/3x3
I0403 19:23:48.236618  9189 net.cpp:386] inception_4b/relu_3x3 -> inception_4b/3x3 (in-place)
I0403 19:23:48.236804  9189 net.cpp:141] Setting up inception_4b/relu_3x3
I0403 19:23:48.236829  9189 net.cpp:148] Top shape: 24 224 14 14 (1053696)
I0403 19:23:48.236843  9189 net.cpp:156] Memory required for data: 964869408
I0403 19:23:48.236858  9189 layer_factory.hpp:77] Creating layer inception_4b/5x5_reduce
I0403 19:23:48.236881  9189 net.cpp:91] Creating Layer inception_4b/5x5_reduce
I0403 19:23:48.236898  9189 net.cpp:425] inception_4b/5x5_reduce <- inception_4a/output_inception_4a/output_0_split_3
I0403 19:23:48.236922  9189 net.cpp:399] inception_4b/5x5_reduce -> inception_4b/5x5_reduce
I0403 19:23:48.238000  9189 net.cpp:141] Setting up inception_4b/5x5_reduce
I0403 19:23:48.238029  9189 net.cpp:148] Top shape: 24 24 14 14 (112896)
I0403 19:23:48.238044  9189 net.cpp:156] Memory required for data: 965320992
I0403 19:23:48.238062  9189 layer_factory.hpp:77] Creating layer inception_4b/relu_5x5_reduce
I0403 19:23:48.238080  9189 net.cpp:91] Creating Layer inception_4b/relu_5x5_reduce
I0403 19:23:48.238111  9189 net.cpp:425] inception_4b/relu_5x5_reduce <- inception_4b/5x5_reduce
I0403 19:23:48.238132  9189 net.cpp:386] inception_4b/relu_5x5_reduce -> inception_4b/5x5_reduce (in-place)
I0403 19:23:48.238317  9189 net.cpp:141] Setting up inception_4b/relu_5x5_reduce
I0403 19:23:48.238340  9189 net.cpp:148] Top shape: 24 24 14 14 (112896)
I0403 19:23:48.238355  9189 net.cpp:156] Memory required for data: 965772576
I0403 19:23:48.238369  9189 layer_factory.hpp:77] Creating layer inception_4b/5x5
I0403 19:23:48.238392  9189 net.cpp:91] Creating Layer inception_4b/5x5
I0403 19:23:48.238410  9189 net.cpp:425] inception_4b/5x5 <- inception_4b/5x5_reduce
I0403 19:23:48.238435  9189 net.cpp:399] inception_4b/5x5 -> inception_4b/5x5
I0403 19:23:48.239653  9189 net.cpp:141] Setting up inception_4b/5x5
I0403 19:23:48.239681  9189 net.cpp:148] Top shape: 24 64 14 14 (301056)
I0403 19:23:48.239696  9189 net.cpp:156] Memory required for data: 966976800
I0403 19:23:48.239713  9189 layer_factory.hpp:77] Creating layer inception_4b/relu_5x5
I0403 19:23:48.239732  9189 net.cpp:91] Creating Layer inception_4b/relu_5x5
I0403 19:23:48.239748  9189 net.cpp:425] inception_4b/relu_5x5 <- inception_4b/5x5
I0403 19:23:48.239768  9189 net.cpp:386] inception_4b/relu_5x5 -> inception_4b/5x5 (in-place)
I0403 19:23:48.240056  9189 net.cpp:141] Setting up inception_4b/relu_5x5
I0403 19:23:48.240082  9189 net.cpp:148] Top shape: 24 64 14 14 (301056)
I0403 19:23:48.240097  9189 net.cpp:156] Memory required for data: 968181024
I0403 19:23:48.240113  9189 layer_factory.hpp:77] Creating layer inception_4b/pool
I0403 19:23:48.240131  9189 net.cpp:91] Creating Layer inception_4b/pool
I0403 19:23:48.240147  9189 net.cpp:425] inception_4b/pool <- inception_4a/output_inception_4a/output_0_split_4
I0403 19:23:48.240167  9189 net.cpp:399] inception_4b/pool -> inception_4b/pool
I0403 19:23:48.240231  9189 net.cpp:141] Setting up inception_4b/pool
I0403 19:23:48.240257  9189 net.cpp:148] Top shape: 24 512 14 14 (2408448)
I0403 19:23:48.240272  9189 net.cpp:156] Memory required for data: 977814816
I0403 19:23:48.240288  9189 layer_factory.hpp:77] Creating layer inception_4b/pool_proj
I0403 19:23:48.240309  9189 net.cpp:91] Creating Layer inception_4b/pool_proj
I0403 19:23:48.240326  9189 net.cpp:425] inception_4b/pool_proj <- inception_4b/pool
I0403 19:23:48.240345  9189 net.cpp:399] inception_4b/pool_proj -> inception_4b/pool_proj
I0403 19:23:48.241536  9189 net.cpp:141] Setting up inception_4b/pool_proj
I0403 19:23:48.241564  9189 net.cpp:148] Top shape: 24 64 14 14 (301056)
I0403 19:23:48.241580  9189 net.cpp:156] Memory required for data: 979019040
I0403 19:23:48.241598  9189 layer_factory.hpp:77] Creating layer inception_4b/relu_pool_proj
I0403 19:23:48.241618  9189 net.cpp:91] Creating Layer inception_4b/relu_pool_proj
I0403 19:23:48.241636  9189 net.cpp:425] inception_4b/relu_pool_proj <- inception_4b/pool_proj
I0403 19:23:48.241654  9189 net.cpp:386] inception_4b/relu_pool_proj -> inception_4b/pool_proj (in-place)
I0403 19:23:48.241834  9189 net.cpp:141] Setting up inception_4b/relu_pool_proj
I0403 19:23:48.241859  9189 net.cpp:148] Top shape: 24 64 14 14 (301056)
I0403 19:23:48.241874  9189 net.cpp:156] Memory required for data: 980223264
I0403 19:23:48.241889  9189 layer_factory.hpp:77] Creating layer inception_4b/output
I0403 19:23:48.241909  9189 net.cpp:91] Creating Layer inception_4b/output
I0403 19:23:48.241925  9189 net.cpp:425] inception_4b/output <- inception_4b/1x1
I0403 19:23:48.241941  9189 net.cpp:425] inception_4b/output <- inception_4b/3x3
I0403 19:23:48.241956  9189 net.cpp:425] inception_4b/output <- inception_4b/5x5
I0403 19:23:48.241972  9189 net.cpp:425] inception_4b/output <- inception_4b/pool_proj
I0403 19:23:48.241989  9189 net.cpp:399] inception_4b/output -> inception_4b/output
I0403 19:23:48.242036  9189 net.cpp:141] Setting up inception_4b/output
I0403 19:23:48.242060  9189 net.cpp:148] Top shape: 24 512 14 14 (2408448)
I0403 19:23:48.242074  9189 net.cpp:156] Memory required for data: 989857056
I0403 19:23:48.242101  9189 layer_factory.hpp:77] Creating layer inception_4b/output_inception_4b/output_0_split
I0403 19:23:48.242120  9189 net.cpp:91] Creating Layer inception_4b/output_inception_4b/output_0_split
I0403 19:23:48.242136  9189 net.cpp:425] inception_4b/output_inception_4b/output_0_split <- inception_4b/output
I0403 19:23:48.242156  9189 net.cpp:399] inception_4b/output_inception_4b/output_0_split -> inception_4b/output_inception_4b/output_0_split_0
I0403 19:23:48.242177  9189 net.cpp:399] inception_4b/output_inception_4b/output_0_split -> inception_4b/output_inception_4b/output_0_split_1
I0403 19:23:48.242198  9189 net.cpp:399] inception_4b/output_inception_4b/output_0_split -> inception_4b/output_inception_4b/output_0_split_2
I0403 19:23:48.242218  9189 net.cpp:399] inception_4b/output_inception_4b/output_0_split -> inception_4b/output_inception_4b/output_0_split_3
I0403 19:23:48.242300  9189 net.cpp:141] Setting up inception_4b/output_inception_4b/output_0_split
I0403 19:23:48.242326  9189 net.cpp:148] Top shape: 24 512 14 14 (2408448)
I0403 19:23:48.242343  9189 net.cpp:148] Top shape: 24 512 14 14 (2408448)
I0403 19:23:48.242360  9189 net.cpp:148] Top shape: 24 512 14 14 (2408448)
I0403 19:23:48.242377  9189 net.cpp:148] Top shape: 24 512 14 14 (2408448)
I0403 19:23:48.242390  9189 net.cpp:156] Memory required for data: 1028392224
I0403 19:23:48.242405  9189 layer_factory.hpp:77] Creating layer inception_4c/1x1
I0403 19:23:48.242439  9189 net.cpp:91] Creating Layer inception_4c/1x1
I0403 19:23:48.242460  9189 net.cpp:425] inception_4c/1x1 <- inception_4b/output_inception_4b/output_0_split_0
I0403 19:23:48.242480  9189 net.cpp:399] inception_4c/1x1 -> inception_4c/1x1
I0403 19:23:48.243890  9189 net.cpp:141] Setting up inception_4c/1x1
I0403 19:23:48.243917  9189 net.cpp:148] Top shape: 24 128 14 14 (602112)
I0403 19:23:48.243933  9189 net.cpp:156] Memory required for data: 1030800672
I0403 19:23:48.243950  9189 layer_factory.hpp:77] Creating layer inception_4c/relu_1x1
I0403 19:23:48.243973  9189 net.cpp:91] Creating Layer inception_4c/relu_1x1
I0403 19:23:48.243989  9189 net.cpp:425] inception_4c/relu_1x1 <- inception_4c/1x1
I0403 19:23:48.244007  9189 net.cpp:386] inception_4c/relu_1x1 -> inception_4c/1x1 (in-place)
I0403 19:23:48.244189  9189 net.cpp:141] Setting up inception_4c/relu_1x1
I0403 19:23:48.244217  9189 net.cpp:148] Top shape: 24 128 14 14 (602112)
I0403 19:23:48.244232  9189 net.cpp:156] Memory required for data: 1033209120
I0403 19:23:48.244247  9189 layer_factory.hpp:77] Creating layer inception_4c/3x3_reduce
I0403 19:23:48.244268  9189 net.cpp:91] Creating Layer inception_4c/3x3_reduce
I0403 19:23:48.244287  9189 net.cpp:425] inception_4c/3x3_reduce <- inception_4b/output_inception_4b/output_0_split_1
I0403 19:23:48.244309  9189 net.cpp:399] inception_4c/3x3_reduce -> inception_4c/3x3_reduce
I0403 19:23:48.246230  9189 net.cpp:141] Setting up inception_4c/3x3_reduce
I0403 19:23:48.246269  9189 net.cpp:148] Top shape: 24 128 14 14 (602112)
I0403 19:23:48.246285  9189 net.cpp:156] Memory required for data: 1035617568
I0403 19:23:48.246304  9189 layer_factory.hpp:77] Creating layer inception_4c/relu_3x3_reduce
I0403 19:23:48.246322  9189 net.cpp:91] Creating Layer inception_4c/relu_3x3_reduce
I0403 19:23:48.246338  9189 net.cpp:425] inception_4c/relu_3x3_reduce <- inception_4c/3x3_reduce
I0403 19:23:48.246357  9189 net.cpp:386] inception_4c/relu_3x3_reduce -> inception_4c/3x3_reduce (in-place)
I0403 19:23:48.246656  9189 net.cpp:141] Setting up inception_4c/relu_3x3_reduce
I0403 19:23:48.246683  9189 net.cpp:148] Top shape: 24 128 14 14 (602112)
I0403 19:23:48.246698  9189 net.cpp:156] Memory required for data: 1038026016
I0403 19:23:48.246714  9189 layer_factory.hpp:77] Creating layer inception_4c/3x3
I0403 19:23:48.246737  9189 net.cpp:91] Creating Layer inception_4c/3x3
I0403 19:23:48.246755  9189 net.cpp:425] inception_4c/3x3 <- inception_4c/3x3_reduce
I0403 19:23:48.246778  9189 net.cpp:399] inception_4c/3x3 -> inception_4c/3x3
I0403 19:23:48.250285  9189 net.cpp:141] Setting up inception_4c/3x3
I0403 19:23:48.250326  9189 net.cpp:148] Top shape: 24 256 14 14 (1204224)
I0403 19:23:48.250344  9189 net.cpp:156] Memory required for data: 1042842912
I0403 19:23:48.250375  9189 layer_factory.hpp:77] Creating layer inception_4c/relu_3x3
I0403 19:23:48.250397  9189 net.cpp:91] Creating Layer inception_4c/relu_3x3
I0403 19:23:48.250414  9189 net.cpp:425] inception_4c/relu_3x3 <- inception_4c/3x3
I0403 19:23:48.250437  9189 net.cpp:386] inception_4c/relu_3x3 -> inception_4c/3x3 (in-place)
I0403 19:23:48.250618  9189 net.cpp:141] Setting up inception_4c/relu_3x3
I0403 19:23:48.250643  9189 net.cpp:148] Top shape: 24 256 14 14 (1204224)
I0403 19:23:48.250658  9189 net.cpp:156] Memory required for data: 1047659808
I0403 19:23:48.250674  9189 layer_factory.hpp:77] Creating layer inception_4c/5x5_reduce
I0403 19:23:48.250699  9189 net.cpp:91] Creating Layer inception_4c/5x5_reduce
I0403 19:23:48.250717  9189 net.cpp:425] inception_4c/5x5_reduce <- inception_4b/output_inception_4b/output_0_split_2
I0403 19:23:48.250738  9189 net.cpp:399] inception_4c/5x5_reduce -> inception_4c/5x5_reduce
I0403 19:23:48.251813  9189 net.cpp:141] Setting up inception_4c/5x5_reduce
I0403 19:23:48.251842  9189 net.cpp:148] Top shape: 24 24 14 14 (112896)
I0403 19:23:48.251857  9189 net.cpp:156] Memory required for data: 1048111392
I0403 19:23:48.251875  9189 layer_factory.hpp:77] Creating layer inception_4c/relu_5x5_reduce
I0403 19:23:48.251893  9189 net.cpp:91] Creating Layer inception_4c/relu_5x5_reduce
I0403 19:23:48.251907  9189 net.cpp:425] inception_4c/relu_5x5_reduce <- inception_4c/5x5_reduce
I0403 19:23:48.251926  9189 net.cpp:386] inception_4c/relu_5x5_reduce -> inception_4c/5x5_reduce (in-place)
I0403 19:23:48.252115  9189 net.cpp:141] Setting up inception_4c/relu_5x5_reduce
I0403 19:23:48.252140  9189 net.cpp:148] Top shape: 24 24 14 14 (112896)
I0403 19:23:48.252156  9189 net.cpp:156] Memory required for data: 1048562976
I0403 19:23:48.252171  9189 layer_factory.hpp:77] Creating layer inception_4c/5x5
I0403 19:23:48.252192  9189 net.cpp:91] Creating Layer inception_4c/5x5
I0403 19:23:48.252210  9189 net.cpp:425] inception_4c/5x5 <- inception_4c/5x5_reduce
I0403 19:23:48.252230  9189 net.cpp:399] inception_4c/5x5 -> inception_4c/5x5
I0403 19:23:48.253475  9189 net.cpp:141] Setting up inception_4c/5x5
I0403 19:23:48.253504  9189 net.cpp:148] Top shape: 24 64 14 14 (301056)
I0403 19:23:48.253520  9189 net.cpp:156] Memory required for data: 1049767200
I0403 19:23:48.253537  9189 layer_factory.hpp:77] Creating layer inception_4c/relu_5x5
I0403 19:23:48.253557  9189 net.cpp:91] Creating Layer inception_4c/relu_5x5
I0403 19:23:48.253574  9189 net.cpp:425] inception_4c/relu_5x5 <- inception_4c/5x5
I0403 19:23:48.253592  9189 net.cpp:386] inception_4c/relu_5x5 -> inception_4c/5x5 (in-place)
I0403 19:23:48.253880  9189 net.cpp:141] Setting up inception_4c/relu_5x5
I0403 19:23:48.253906  9189 net.cpp:148] Top shape: 24 64 14 14 (301056)
I0403 19:23:48.253921  9189 net.cpp:156] Memory required for data: 1050971424
I0403 19:23:48.253937  9189 layer_factory.hpp:77] Creating layer inception_4c/pool
I0403 19:23:48.253957  9189 net.cpp:91] Creating Layer inception_4c/pool
I0403 19:23:48.253973  9189 net.cpp:425] inception_4c/pool <- inception_4b/output_inception_4b/output_0_split_3
I0403 19:23:48.253998  9189 net.cpp:399] inception_4c/pool -> inception_4c/pool
I0403 19:23:48.254065  9189 net.cpp:141] Setting up inception_4c/pool
I0403 19:23:48.254088  9189 net.cpp:148] Top shape: 24 512 14 14 (2408448)
I0403 19:23:48.254104  9189 net.cpp:156] Memory required for data: 1060605216
I0403 19:23:48.254118  9189 layer_factory.hpp:77] Creating layer inception_4c/pool_proj
I0403 19:23:48.254143  9189 net.cpp:91] Creating Layer inception_4c/pool_proj
I0403 19:23:48.254160  9189 net.cpp:425] inception_4c/pool_proj <- inception_4c/pool
I0403 19:23:48.254182  9189 net.cpp:399] inception_4c/pool_proj -> inception_4c/pool_proj
I0403 19:23:48.255403  9189 net.cpp:141] Setting up inception_4c/pool_proj
I0403 19:23:48.255435  9189 net.cpp:148] Top shape: 24 64 14 14 (301056)
I0403 19:23:48.255466  9189 net.cpp:156] Memory required for data: 1061809440
I0403 19:23:48.255486  9189 layer_factory.hpp:77] Creating layer inception_4c/relu_pool_proj
I0403 19:23:48.255504  9189 net.cpp:91] Creating Layer inception_4c/relu_pool_proj
I0403 19:23:48.255522  9189 net.cpp:425] inception_4c/relu_pool_proj <- inception_4c/pool_proj
I0403 19:23:48.255538  9189 net.cpp:386] inception_4c/relu_pool_proj -> inception_4c/pool_proj (in-place)
I0403 19:23:48.255722  9189 net.cpp:141] Setting up inception_4c/relu_pool_proj
I0403 19:23:48.255746  9189 net.cpp:148] Top shape: 24 64 14 14 (301056)
I0403 19:23:48.255761  9189 net.cpp:156] Memory required for data: 1063013664
I0403 19:23:48.255775  9189 layer_factory.hpp:77] Creating layer inception_4c/output
I0403 19:23:48.255795  9189 net.cpp:91] Creating Layer inception_4c/output
I0403 19:23:48.255811  9189 net.cpp:425] inception_4c/output <- inception_4c/1x1
I0403 19:23:48.255837  9189 net.cpp:425] inception_4c/output <- inception_4c/3x3
I0403 19:23:48.255856  9189 net.cpp:425] inception_4c/output <- inception_4c/5x5
I0403 19:23:48.255872  9189 net.cpp:425] inception_4c/output <- inception_4c/pool_proj
I0403 19:23:48.255890  9189 net.cpp:399] inception_4c/output -> inception_4c/output
I0403 19:23:48.255938  9189 net.cpp:141] Setting up inception_4c/output
I0403 19:23:48.255961  9189 net.cpp:148] Top shape: 24 512 14 14 (2408448)
I0403 19:23:48.255975  9189 net.cpp:156] Memory required for data: 1072647456
I0403 19:23:48.255990  9189 layer_factory.hpp:77] Creating layer inception_4c/output_inception_4c/output_0_split
I0403 19:23:48.256006  9189 net.cpp:91] Creating Layer inception_4c/output_inception_4c/output_0_split
I0403 19:23:48.256022  9189 net.cpp:425] inception_4c/output_inception_4c/output_0_split <- inception_4c/output
I0403 19:23:48.256042  9189 net.cpp:399] inception_4c/output_inception_4c/output_0_split -> inception_4c/output_inception_4c/output_0_split_0
I0403 19:23:48.256062  9189 net.cpp:399] inception_4c/output_inception_4c/output_0_split -> inception_4c/output_inception_4c/output_0_split_1
I0403 19:23:48.256083  9189 net.cpp:399] inception_4c/output_inception_4c/output_0_split -> inception_4c/output_inception_4c/output_0_split_2
I0403 19:23:48.256103  9189 net.cpp:399] inception_4c/output_inception_4c/output_0_split -> inception_4c/output_inception_4c/output_0_split_3
I0403 19:23:48.256189  9189 net.cpp:141] Setting up inception_4c/output_inception_4c/output_0_split
I0403 19:23:48.256213  9189 net.cpp:148] Top shape: 24 512 14 14 (2408448)
I0403 19:23:48.256230  9189 net.cpp:148] Top shape: 24 512 14 14 (2408448)
I0403 19:23:48.256247  9189 net.cpp:148] Top shape: 24 512 14 14 (2408448)
I0403 19:23:48.256263  9189 net.cpp:148] Top shape: 24 512 14 14 (2408448)
I0403 19:23:48.256276  9189 net.cpp:156] Memory required for data: 1111182624
I0403 19:23:48.256291  9189 layer_factory.hpp:77] Creating layer inception_4d/1x1
I0403 19:23:48.256314  9189 net.cpp:91] Creating Layer inception_4d/1x1
I0403 19:23:48.256330  9189 net.cpp:425] inception_4d/1x1 <- inception_4c/output_inception_4c/output_0_split_0
I0403 19:23:48.256350  9189 net.cpp:399] inception_4d/1x1 -> inception_4d/1x1
I0403 19:23:48.257714  9189 net.cpp:141] Setting up inception_4d/1x1
I0403 19:23:48.257743  9189 net.cpp:148] Top shape: 24 112 14 14 (526848)
I0403 19:23:48.257760  9189 net.cpp:156] Memory required for data: 1113290016
I0403 19:23:48.257778  9189 layer_factory.hpp:77] Creating layer inception_4d/relu_1x1
I0403 19:23:48.257797  9189 net.cpp:91] Creating Layer inception_4d/relu_1x1
I0403 19:23:48.257812  9189 net.cpp:425] inception_4d/relu_1x1 <- inception_4d/1x1
I0403 19:23:48.257833  9189 net.cpp:386] inception_4d/relu_1x1 -> inception_4d/1x1 (in-place)
I0403 19:23:48.258015  9189 net.cpp:141] Setting up inception_4d/relu_1x1
I0403 19:23:48.258040  9189 net.cpp:148] Top shape: 24 112 14 14 (526848)
I0403 19:23:48.258055  9189 net.cpp:156] Memory required for data: 1115397408
I0403 19:23:48.258070  9189 layer_factory.hpp:77] Creating layer inception_4d/3x3_reduce
I0403 19:23:48.258108  9189 net.cpp:91] Creating Layer inception_4d/3x3_reduce
I0403 19:23:48.258128  9189 net.cpp:425] inception_4d/3x3_reduce <- inception_4c/output_inception_4c/output_0_split_1
I0403 19:23:48.258149  9189 net.cpp:399] inception_4d/3x3_reduce -> inception_4d/3x3_reduce
I0403 19:23:48.259649  9189 net.cpp:141] Setting up inception_4d/3x3_reduce
I0403 19:23:48.259678  9189 net.cpp:148] Top shape: 24 144 14 14 (677376)
I0403 19:23:48.259695  9189 net.cpp:156] Memory required for data: 1118106912
I0403 19:23:48.259712  9189 layer_factory.hpp:77] Creating layer inception_4d/relu_3x3_reduce
I0403 19:23:48.259733  9189 net.cpp:91] Creating Layer inception_4d/relu_3x3_reduce
I0403 19:23:48.259750  9189 net.cpp:425] inception_4d/relu_3x3_reduce <- inception_4d/3x3_reduce
I0403 19:23:48.259768  9189 net.cpp:386] inception_4d/relu_3x3_reduce -> inception_4d/3x3_reduce (in-place)
I0403 19:23:48.260054  9189 net.cpp:141] Setting up inception_4d/relu_3x3_reduce
I0403 19:23:48.260081  9189 net.cpp:148] Top shape: 24 144 14 14 (677376)
I0403 19:23:48.260095  9189 net.cpp:156] Memory required for data: 1120816416
I0403 19:23:48.260110  9189 layer_factory.hpp:77] Creating layer inception_4d/3x3
I0403 19:23:48.260133  9189 net.cpp:91] Creating Layer inception_4d/3x3
I0403 19:23:48.260151  9189 net.cpp:425] inception_4d/3x3 <- inception_4d/3x3_reduce
I0403 19:23:48.260172  9189 net.cpp:399] inception_4d/3x3 -> inception_4d/3x3
I0403 19:23:48.264358  9189 net.cpp:141] Setting up inception_4d/3x3
I0403 19:23:48.264389  9189 net.cpp:148] Top shape: 24 288 14 14 (1354752)
I0403 19:23:48.264405  9189 net.cpp:156] Memory required for data: 1126235424
I0403 19:23:48.264425  9189 layer_factory.hpp:77] Creating layer inception_4d/relu_3x3
I0403 19:23:48.264446  9189 net.cpp:91] Creating Layer inception_4d/relu_3x3
I0403 19:23:48.264463  9189 net.cpp:425] inception_4d/relu_3x3 <- inception_4d/3x3
I0403 19:23:48.264483  9189 net.cpp:386] inception_4d/relu_3x3 -> inception_4d/3x3 (in-place)
I0403 19:23:48.264669  9189 net.cpp:141] Setting up inception_4d/relu_3x3
I0403 19:23:48.264694  9189 net.cpp:148] Top shape: 24 288 14 14 (1354752)
I0403 19:23:48.264709  9189 net.cpp:156] Memory required for data: 1131654432
I0403 19:23:48.264724  9189 layer_factory.hpp:77] Creating layer inception_4d/5x5_reduce
I0403 19:23:48.264747  9189 net.cpp:91] Creating Layer inception_4d/5x5_reduce
I0403 19:23:48.264765  9189 net.cpp:425] inception_4d/5x5_reduce <- inception_4c/output_inception_4c/output_0_split_2
I0403 19:23:48.264787  9189 net.cpp:399] inception_4d/5x5_reduce -> inception_4d/5x5_reduce
I0403 19:23:48.265928  9189 net.cpp:141] Setting up inception_4d/5x5_reduce
I0403 19:23:48.265959  9189 net.cpp:148] Top shape: 24 32 14 14 (150528)
I0403 19:23:48.265974  9189 net.cpp:156] Memory required for data: 1132256544
I0403 19:23:48.265993  9189 layer_factory.hpp:77] Creating layer inception_4d/relu_5x5_reduce
I0403 19:23:48.266011  9189 net.cpp:91] Creating Layer inception_4d/relu_5x5_reduce
I0403 19:23:48.266027  9189 net.cpp:425] inception_4d/relu_5x5_reduce <- inception_4d/5x5_reduce
I0403 19:23:48.266047  9189 net.cpp:386] inception_4d/relu_5x5_reduce -> inception_4d/5x5_reduce (in-place)
I0403 19:23:48.266237  9189 net.cpp:141] Setting up inception_4d/relu_5x5_reduce
I0403 19:23:48.266263  9189 net.cpp:148] Top shape: 24 32 14 14 (150528)
I0403 19:23:48.266276  9189 net.cpp:156] Memory required for data: 1132858656
I0403 19:23:48.266291  9189 layer_factory.hpp:77] Creating layer inception_4d/5x5
I0403 19:23:48.266314  9189 net.cpp:91] Creating Layer inception_4d/5x5
I0403 19:23:48.266330  9189 net.cpp:425] inception_4d/5x5 <- inception_4d/5x5_reduce
I0403 19:23:48.266351  9189 net.cpp:399] inception_4d/5x5 -> inception_4d/5x5
I0403 19:23:48.267822  9189 net.cpp:141] Setting up inception_4d/5x5
I0403 19:23:48.267849  9189 net.cpp:148] Top shape: 24 64 14 14 (301056)
I0403 19:23:48.267864  9189 net.cpp:156] Memory required for data: 1134062880
I0403 19:23:48.267884  9189 layer_factory.hpp:77] Creating layer inception_4d/relu_5x5
I0403 19:23:48.267920  9189 net.cpp:91] Creating Layer inception_4d/relu_5x5
I0403 19:23:48.267937  9189 net.cpp:425] inception_4d/relu_5x5 <- inception_4d/5x5
I0403 19:23:48.267954  9189 net.cpp:386] inception_4d/relu_5x5 -> inception_4d/5x5 (in-place)
I0403 19:23:48.268252  9189 net.cpp:141] Setting up inception_4d/relu_5x5
I0403 19:23:48.268280  9189 net.cpp:148] Top shape: 24 64 14 14 (301056)
I0403 19:23:48.268295  9189 net.cpp:156] Memory required for data: 1135267104
I0403 19:23:48.268309  9189 layer_factory.hpp:77] Creating layer inception_4d/pool
I0403 19:23:48.268327  9189 net.cpp:91] Creating Layer inception_4d/pool
I0403 19:23:48.268342  9189 net.cpp:425] inception_4d/pool <- inception_4c/output_inception_4c/output_0_split_3
I0403 19:23:48.268363  9189 net.cpp:399] inception_4d/pool -> inception_4d/pool
I0403 19:23:48.268445  9189 net.cpp:141] Setting up inception_4d/pool
I0403 19:23:48.268471  9189 net.cpp:148] Top shape: 24 512 14 14 (2408448)
I0403 19:23:48.268486  9189 net.cpp:156] Memory required for data: 1144900896
I0403 19:23:48.268501  9189 layer_factory.hpp:77] Creating layer inception_4d/pool_proj
I0403 19:23:48.268522  9189 net.cpp:91] Creating Layer inception_4d/pool_proj
I0403 19:23:48.268539  9189 net.cpp:425] inception_4d/pool_proj <- inception_4d/pool
I0403 19:23:48.268559  9189 net.cpp:399] inception_4d/pool_proj -> inception_4d/pool_proj
I0403 19:23:48.270305  9189 net.cpp:141] Setting up inception_4d/pool_proj
I0403 19:23:48.270336  9189 net.cpp:148] Top shape: 24 64 14 14 (301056)
I0403 19:23:48.270352  9189 net.cpp:156] Memory required for data: 1146105120
I0403 19:23:48.270371  9189 layer_factory.hpp:77] Creating layer inception_4d/relu_pool_proj
I0403 19:23:48.270388  9189 net.cpp:91] Creating Layer inception_4d/relu_pool_proj
I0403 19:23:48.270404  9189 net.cpp:425] inception_4d/relu_pool_proj <- inception_4d/pool_proj
I0403 19:23:48.270423  9189 net.cpp:386] inception_4d/relu_pool_proj -> inception_4d/pool_proj (in-place)
I0403 19:23:48.270617  9189 net.cpp:141] Setting up inception_4d/relu_pool_proj
I0403 19:23:48.270643  9189 net.cpp:148] Top shape: 24 64 14 14 (301056)
I0403 19:23:48.270659  9189 net.cpp:156] Memory required for data: 1147309344
I0403 19:23:48.270673  9189 layer_factory.hpp:77] Creating layer inception_4d/output
I0403 19:23:48.270690  9189 net.cpp:91] Creating Layer inception_4d/output
I0403 19:23:48.270706  9189 net.cpp:425] inception_4d/output <- inception_4d/1x1
I0403 19:23:48.270722  9189 net.cpp:425] inception_4d/output <- inception_4d/3x3
I0403 19:23:48.270738  9189 net.cpp:425] inception_4d/output <- inception_4d/5x5
I0403 19:23:48.270755  9189 net.cpp:425] inception_4d/output <- inception_4d/pool_proj
I0403 19:23:48.270774  9189 net.cpp:399] inception_4d/output -> inception_4d/output
I0403 19:23:48.270820  9189 net.cpp:141] Setting up inception_4d/output
I0403 19:23:48.270846  9189 net.cpp:148] Top shape: 24 528 14 14 (2483712)
I0403 19:23:48.270862  9189 net.cpp:156] Memory required for data: 1157244192
I0403 19:23:48.270877  9189 layer_factory.hpp:77] Creating layer inception_4d/output_inception_4d/output_0_split
I0403 19:23:48.270895  9189 net.cpp:91] Creating Layer inception_4d/output_inception_4d/output_0_split
I0403 19:23:48.270911  9189 net.cpp:425] inception_4d/output_inception_4d/output_0_split <- inception_4d/output
I0403 19:23:48.270931  9189 net.cpp:399] inception_4d/output_inception_4d/output_0_split -> inception_4d/output_inception_4d/output_0_split_0
I0403 19:23:48.270951  9189 net.cpp:399] inception_4d/output_inception_4d/output_0_split -> inception_4d/output_inception_4d/output_0_split_1
I0403 19:23:48.270972  9189 net.cpp:399] inception_4d/output_inception_4d/output_0_split -> inception_4d/output_inception_4d/output_0_split_2
I0403 19:23:48.270992  9189 net.cpp:399] inception_4d/output_inception_4d/output_0_split -> inception_4d/output_inception_4d/output_0_split_3
I0403 19:23:48.271011  9189 net.cpp:399] inception_4d/output_inception_4d/output_0_split -> inception_4d/output_inception_4d/output_0_split_4
I0403 19:23:48.271112  9189 net.cpp:141] Setting up inception_4d/output_inception_4d/output_0_split
I0403 19:23:48.271147  9189 net.cpp:148] Top shape: 24 528 14 14 (2483712)
I0403 19:23:48.271167  9189 net.cpp:148] Top shape: 24 528 14 14 (2483712)
I0403 19:23:48.271184  9189 net.cpp:148] Top shape: 24 528 14 14 (2483712)
I0403 19:23:48.271200  9189 net.cpp:148] Top shape: 24 528 14 14 (2483712)
I0403 19:23:48.271217  9189 net.cpp:148] Top shape: 24 528 14 14 (2483712)
I0403 19:23:48.271231  9189 net.cpp:156] Memory required for data: 1206918432
I0403 19:23:48.271246  9189 layer_factory.hpp:77] Creating layer loss2/ave_pool
I0403 19:23:48.271265  9189 net.cpp:91] Creating Layer loss2/ave_pool
I0403 19:23:48.271281  9189 net.cpp:425] loss2/ave_pool <- inception_4d/output_inception_4d/output_0_split_0
I0403 19:23:48.271301  9189 net.cpp:399] loss2/ave_pool -> loss2/ave_pool
I0403 19:23:48.271618  9189 net.cpp:141] Setting up loss2/ave_pool
I0403 19:23:48.271646  9189 net.cpp:148] Top shape: 24 528 4 4 (202752)
I0403 19:23:48.271661  9189 net.cpp:156] Memory required for data: 1207729440
I0403 19:23:48.271675  9189 layer_factory.hpp:77] Creating layer loss2/conv
I0403 19:23:48.271698  9189 net.cpp:91] Creating Layer loss2/conv
I0403 19:23:48.271716  9189 net.cpp:425] loss2/conv <- loss2/ave_pool
I0403 19:23:48.271739  9189 net.cpp:399] loss2/conv -> loss2/conv
I0403 19:23:48.273612  9189 net.cpp:141] Setting up loss2/conv
I0403 19:23:48.273641  9189 net.cpp:148] Top shape: 24 128 4 4 (49152)
I0403 19:23:48.273656  9189 net.cpp:156] Memory required for data: 1207926048
I0403 19:23:48.273675  9189 layer_factory.hpp:77] Creating layer loss2/relu_conv
I0403 19:23:48.273695  9189 net.cpp:91] Creating Layer loss2/relu_conv
I0403 19:23:48.273712  9189 net.cpp:425] loss2/relu_conv <- loss2/conv
I0403 19:23:48.273730  9189 net.cpp:386] loss2/relu_conv -> loss2/conv (in-place)
I0403 19:23:48.274013  9189 net.cpp:141] Setting up loss2/relu_conv
I0403 19:23:48.274044  9189 net.cpp:148] Top shape: 24 128 4 4 (49152)
I0403 19:23:48.274060  9189 net.cpp:156] Memory required for data: 1208122656
I0403 19:23:48.274075  9189 layer_factory.hpp:77] Creating layer loss2/fc
I0403 19:23:48.274096  9189 net.cpp:91] Creating Layer loss2/fc
I0403 19:23:48.274111  9189 net.cpp:425] loss2/fc <- loss2/conv
I0403 19:23:48.274130  9189 net.cpp:399] loss2/fc -> loss2/fc
I0403 19:23:48.291244  9189 net.cpp:141] Setting up loss2/fc
I0403 19:23:48.291276  9189 net.cpp:148] Top shape: 24 1024 (24576)
I0403 19:23:48.291291  9189 net.cpp:156] Memory required for data: 1208220960
I0403 19:23:48.291311  9189 layer_factory.hpp:77] Creating layer loss2/relu_fc
I0403 19:23:48.291327  9189 net.cpp:91] Creating Layer loss2/relu_fc
I0403 19:23:48.291343  9189 net.cpp:425] loss2/relu_fc <- loss2/fc
I0403 19:23:48.291363  9189 net.cpp:386] loss2/relu_fc -> loss2/fc (in-place)
I0403 19:23:48.291668  9189 net.cpp:141] Setting up loss2/relu_fc
I0403 19:23:48.291694  9189 net.cpp:148] Top shape: 24 1024 (24576)
I0403 19:23:48.291710  9189 net.cpp:156] Memory required for data: 1208319264
I0403 19:23:48.291725  9189 layer_factory.hpp:77] Creating layer loss2/drop_fc
I0403 19:23:48.291743  9189 net.cpp:91] Creating Layer loss2/drop_fc
I0403 19:23:48.291759  9189 net.cpp:425] loss2/drop_fc <- loss2/fc
I0403 19:23:48.291779  9189 net.cpp:386] loss2/drop_fc -> loss2/fc (in-place)
I0403 19:23:48.291826  9189 net.cpp:141] Setting up loss2/drop_fc
I0403 19:23:48.291849  9189 net.cpp:148] Top shape: 24 1024 (24576)
I0403 19:23:48.291864  9189 net.cpp:156] Memory required for data: 1208417568
I0403 19:23:48.291879  9189 layer_factory.hpp:77] Creating layer loss2/classifier_plantvillage
I0403 19:23:48.291900  9189 net.cpp:91] Creating Layer loss2/classifier_plantvillage
I0403 19:23:48.291918  9189 net.cpp:425] loss2/classifier_plantvillage <- loss2/fc
I0403 19:23:48.291939  9189 net.cpp:399] loss2/classifier_plantvillage -> loss2/classifier_plantvillage
I0403 19:23:48.292327  9189 net.cpp:141] Setting up loss2/classifier_plantvillage
I0403 19:23:48.292353  9189 net.cpp:148] Top shape: 24 38 (912)
I0403 19:23:48.292368  9189 net.cpp:156] Memory required for data: 1208421216
I0403 19:23:48.292402  9189 layer_factory.hpp:77] Creating layer loss2/classifier_plantvillage_loss2/classifier_plantvillage_0_split
I0403 19:23:48.292423  9189 net.cpp:91] Creating Layer loss2/classifier_plantvillage_loss2/classifier_plantvillage_0_split
I0403 19:23:48.292450  9189 net.cpp:425] loss2/classifier_plantvillage_loss2/classifier_plantvillage_0_split <- loss2/classifier_plantvillage
I0403 19:23:48.292469  9189 net.cpp:399] loss2/classifier_plantvillage_loss2/classifier_plantvillage_0_split -> loss2/classifier_plantvillage_loss2/classifier_plantvillage_0_split_0
I0403 19:23:48.292489  9189 net.cpp:399] loss2/classifier_plantvillage_loss2/classifier_plantvillage_0_split -> loss2/classifier_plantvillage_loss2/classifier_plantvillage_0_split_1
I0403 19:23:48.292510  9189 net.cpp:399] loss2/classifier_plantvillage_loss2/classifier_plantvillage_0_split -> loss2/classifier_plantvillage_loss2/classifier_plantvillage_0_split_2
I0403 19:23:48.292589  9189 net.cpp:141] Setting up loss2/classifier_plantvillage_loss2/classifier_plantvillage_0_split
I0403 19:23:48.292613  9189 net.cpp:148] Top shape: 24 38 (912)
I0403 19:23:48.292629  9189 net.cpp:148] Top shape: 24 38 (912)
I0403 19:23:48.292645  9189 net.cpp:148] Top shape: 24 38 (912)
I0403 19:23:48.292660  9189 net.cpp:156] Memory required for data: 1208432160
I0403 19:23:48.292675  9189 layer_factory.hpp:77] Creating layer inception_4e/1x1
I0403 19:23:48.292695  9189 net.cpp:91] Creating Layer inception_4e/1x1
I0403 19:23:48.292711  9189 net.cpp:425] inception_4e/1x1 <- inception_4d/output_inception_4d/output_0_split_1
I0403 19:23:48.292732  9189 net.cpp:399] inception_4e/1x1 -> inception_4e/1x1
I0403 19:23:48.294526  9189 net.cpp:141] Setting up inception_4e/1x1
I0403 19:23:48.294554  9189 net.cpp:148] Top shape: 24 256 14 14 (1204224)
I0403 19:23:48.294569  9189 net.cpp:156] Memory required for data: 1213249056
I0403 19:23:48.294589  9189 layer_factory.hpp:77] Creating layer inception_4e/relu_1x1
I0403 19:23:48.294610  9189 net.cpp:91] Creating Layer inception_4e/relu_1x1
I0403 19:23:48.294626  9189 net.cpp:425] inception_4e/relu_1x1 <- inception_4e/1x1
I0403 19:23:48.294644  9189 net.cpp:386] inception_4e/relu_1x1 -> inception_4e/1x1 (in-place)
I0403 19:23:48.294939  9189 net.cpp:141] Setting up inception_4e/relu_1x1
I0403 19:23:48.294965  9189 net.cpp:148] Top shape: 24 256 14 14 (1204224)
I0403 19:23:48.294981  9189 net.cpp:156] Memory required for data: 1218065952
I0403 19:23:48.294996  9189 layer_factory.hpp:77] Creating layer inception_4e/3x3_reduce
I0403 19:23:48.295018  9189 net.cpp:91] Creating Layer inception_4e/3x3_reduce
I0403 19:23:48.295037  9189 net.cpp:425] inception_4e/3x3_reduce <- inception_4d/output_inception_4d/output_0_split_2
I0403 19:23:48.295058  9189 net.cpp:399] inception_4e/3x3_reduce -> inception_4e/3x3_reduce
I0403 19:23:48.297147  9189 net.cpp:141] Setting up inception_4e/3x3_reduce
I0403 19:23:48.297175  9189 net.cpp:148] Top shape: 24 160 14 14 (752640)
I0403 19:23:48.297190  9189 net.cpp:156] Memory required for data: 1221076512
I0403 19:23:48.297209  9189 layer_factory.hpp:77] Creating layer inception_4e/relu_3x3_reduce
I0403 19:23:48.297230  9189 net.cpp:91] Creating Layer inception_4e/relu_3x3_reduce
I0403 19:23:48.297246  9189 net.cpp:425] inception_4e/relu_3x3_reduce <- inception_4e/3x3_reduce
I0403 19:23:48.297265  9189 net.cpp:386] inception_4e/relu_3x3_reduce -> inception_4e/3x3_reduce (in-place)
I0403 19:23:48.297456  9189 net.cpp:141] Setting up inception_4e/relu_3x3_reduce
I0403 19:23:48.297479  9189 net.cpp:148] Top shape: 24 160 14 14 (752640)
I0403 19:23:48.297494  9189 net.cpp:156] Memory required for data: 1224087072
I0403 19:23:48.297508  9189 layer_factory.hpp:77] Creating layer inception_4e/3x3
I0403 19:23:48.297533  9189 net.cpp:91] Creating Layer inception_4e/3x3
I0403 19:23:48.297550  9189 net.cpp:425] inception_4e/3x3 <- inception_4e/3x3_reduce
I0403 19:23:48.297569  9189 net.cpp:399] inception_4e/3x3 -> inception_4e/3x3
I0403 19:23:48.302476  9189 net.cpp:141] Setting up inception_4e/3x3
I0403 19:23:48.302515  9189 net.cpp:148] Top shape: 24 320 14 14 (1505280)
I0403 19:23:48.302532  9189 net.cpp:156] Memory required for data: 1230108192
I0403 19:23:48.302551  9189 layer_factory.hpp:77] Creating layer inception_4e/relu_3x3
I0403 19:23:48.302572  9189 net.cpp:91] Creating Layer inception_4e/relu_3x3
I0403 19:23:48.302589  9189 net.cpp:425] inception_4e/relu_3x3 <- inception_4e/3x3
I0403 19:23:48.302608  9189 net.cpp:386] inception_4e/relu_3x3 -> inception_4e/3x3 (in-place)
I0403 19:23:48.302908  9189 net.cpp:141] Setting up inception_4e/relu_3x3
I0403 19:23:48.302937  9189 net.cpp:148] Top shape: 24 320 14 14 (1505280)
I0403 19:23:48.302953  9189 net.cpp:156] Memory required for data: 1236129312
I0403 19:23:48.302968  9189 layer_factory.hpp:77] Creating layer inception_4e/5x5_reduce
I0403 19:23:48.302991  9189 net.cpp:91] Creating Layer inception_4e/5x5_reduce
I0403 19:23:48.303009  9189 net.cpp:425] inception_4e/5x5_reduce <- inception_4d/output_inception_4d/output_0_split_3
I0403 19:23:48.303030  9189 net.cpp:399] inception_4e/5x5_reduce -> inception_4e/5x5_reduce
I0403 19:23:48.304102  9189 net.cpp:141] Setting up inception_4e/5x5_reduce
I0403 19:23:48.304131  9189 net.cpp:148] Top shape: 24 32 14 14 (150528)
I0403 19:23:48.304146  9189 net.cpp:156] Memory required for data: 1236731424
I0403 19:23:48.304164  9189 layer_factory.hpp:77] Creating layer inception_4e/relu_5x5_reduce
I0403 19:23:48.304184  9189 net.cpp:91] Creating Layer inception_4e/relu_5x5_reduce
I0403 19:23:48.304201  9189 net.cpp:425] inception_4e/relu_5x5_reduce <- inception_4e/5x5_reduce
I0403 19:23:48.304221  9189 net.cpp:386] inception_4e/relu_5x5_reduce -> inception_4e/5x5_reduce (in-place)
I0403 19:23:48.304523  9189 net.cpp:141] Setting up inception_4e/relu_5x5_reduce
I0403 19:23:48.304550  9189 net.cpp:148] Top shape: 24 32 14 14 (150528)
I0403 19:23:48.304565  9189 net.cpp:156] Memory required for data: 1237333536
I0403 19:23:48.304580  9189 layer_factory.hpp:77] Creating layer inception_4e/5x5
I0403 19:23:48.304617  9189 net.cpp:91] Creating Layer inception_4e/5x5
I0403 19:23:48.304636  9189 net.cpp:425] inception_4e/5x5 <- inception_4e/5x5_reduce
I0403 19:23:48.304656  9189 net.cpp:399] inception_4e/5x5 -> inception_4e/5x5
I0403 19:23:48.306484  9189 net.cpp:141] Setting up inception_4e/5x5
I0403 19:23:48.306512  9189 net.cpp:148] Top shape: 24 128 14 14 (602112)
I0403 19:23:48.306527  9189 net.cpp:156] Memory required for data: 1239741984
I0403 19:23:48.306545  9189 layer_factory.hpp:77] Creating layer inception_4e/relu_5x5
I0403 19:23:48.306563  9189 net.cpp:91] Creating Layer inception_4e/relu_5x5
I0403 19:23:48.306581  9189 net.cpp:425] inception_4e/relu_5x5 <- inception_4e/5x5
I0403 19:23:48.306601  9189 net.cpp:386] inception_4e/relu_5x5 -> inception_4e/5x5 (in-place)
I0403 19:23:48.306798  9189 net.cpp:141] Setting up inception_4e/relu_5x5
I0403 19:23:48.306825  9189 net.cpp:148] Top shape: 24 128 14 14 (602112)
I0403 19:23:48.306840  9189 net.cpp:156] Memory required for data: 1242150432
I0403 19:23:48.306854  9189 layer_factory.hpp:77] Creating layer inception_4e/pool
I0403 19:23:48.306875  9189 net.cpp:91] Creating Layer inception_4e/pool
I0403 19:23:48.306891  9189 net.cpp:425] inception_4e/pool <- inception_4d/output_inception_4d/output_0_split_4
I0403 19:23:48.306910  9189 net.cpp:399] inception_4e/pool -> inception_4e/pool
I0403 19:23:48.306980  9189 net.cpp:141] Setting up inception_4e/pool
I0403 19:23:48.307003  9189 net.cpp:148] Top shape: 24 528 14 14 (2483712)
I0403 19:23:48.307018  9189 net.cpp:156] Memory required for data: 1252085280
I0403 19:23:48.307032  9189 layer_factory.hpp:77] Creating layer inception_4e/pool_proj
I0403 19:23:48.307054  9189 net.cpp:91] Creating Layer inception_4e/pool_proj
I0403 19:23:48.307072  9189 net.cpp:425] inception_4e/pool_proj <- inception_4e/pool
I0403 19:23:48.307093  9189 net.cpp:399] inception_4e/pool_proj -> inception_4e/pool_proj
I0403 19:23:48.308593  9189 net.cpp:141] Setting up inception_4e/pool_proj
I0403 19:23:48.308622  9189 net.cpp:148] Top shape: 24 128 14 14 (602112)
I0403 19:23:48.308651  9189 net.cpp:156] Memory required for data: 1254493728
I0403 19:23:48.308670  9189 layer_factory.hpp:77] Creating layer inception_4e/relu_pool_proj
I0403 19:23:48.308688  9189 net.cpp:91] Creating Layer inception_4e/relu_pool_proj
I0403 19:23:48.308706  9189 net.cpp:425] inception_4e/relu_pool_proj <- inception_4e/pool_proj
I0403 19:23:48.308724  9189 net.cpp:386] inception_4e/relu_pool_proj -> inception_4e/pool_proj (in-place)
I0403 19:23:48.309016  9189 net.cpp:141] Setting up inception_4e/relu_pool_proj
I0403 19:23:48.309043  9189 net.cpp:148] Top shape: 24 128 14 14 (602112)
I0403 19:23:48.309058  9189 net.cpp:156] Memory required for data: 1256902176
I0403 19:23:48.309073  9189 layer_factory.hpp:77] Creating layer inception_4e/output
I0403 19:23:48.309092  9189 net.cpp:91] Creating Layer inception_4e/output
I0403 19:23:48.309106  9189 net.cpp:425] inception_4e/output <- inception_4e/1x1
I0403 19:23:48.309123  9189 net.cpp:425] inception_4e/output <- inception_4e/3x3
I0403 19:23:48.309140  9189 net.cpp:425] inception_4e/output <- inception_4e/5x5
I0403 19:23:48.309157  9189 net.cpp:425] inception_4e/output <- inception_4e/pool_proj
I0403 19:23:48.309176  9189 net.cpp:399] inception_4e/output -> inception_4e/output
I0403 19:23:48.309226  9189 net.cpp:141] Setting up inception_4e/output
I0403 19:23:48.309249  9189 net.cpp:148] Top shape: 24 832 14 14 (3913728)
I0403 19:23:48.309270  9189 net.cpp:156] Memory required for data: 1272557088
I0403 19:23:48.309285  9189 layer_factory.hpp:77] Creating layer pool4/3x3_s2
I0403 19:23:48.309303  9189 net.cpp:91] Creating Layer pool4/3x3_s2
I0403 19:23:48.309319  9189 net.cpp:425] pool4/3x3_s2 <- inception_4e/output
I0403 19:23:48.309337  9189 net.cpp:399] pool4/3x3_s2 -> pool4/3x3_s2
I0403 19:23:48.309404  9189 net.cpp:141] Setting up pool4/3x3_s2
I0403 19:23:48.309432  9189 net.cpp:148] Top shape: 24 832 7 7 (978432)
I0403 19:23:48.309448  9189 net.cpp:156] Memory required for data: 1276470816
I0403 19:23:48.309463  9189 layer_factory.hpp:77] Creating layer pool4/3x3_s2_pool4/3x3_s2_0_split
I0403 19:23:48.309479  9189 net.cpp:91] Creating Layer pool4/3x3_s2_pool4/3x3_s2_0_split
I0403 19:23:48.309496  9189 net.cpp:425] pool4/3x3_s2_pool4/3x3_s2_0_split <- pool4/3x3_s2
I0403 19:23:48.309517  9189 net.cpp:399] pool4/3x3_s2_pool4/3x3_s2_0_split -> pool4/3x3_s2_pool4/3x3_s2_0_split_0
I0403 19:23:48.309537  9189 net.cpp:399] pool4/3x3_s2_pool4/3x3_s2_0_split -> pool4/3x3_s2_pool4/3x3_s2_0_split_1
I0403 19:23:48.309557  9189 net.cpp:399] pool4/3x3_s2_pool4/3x3_s2_0_split -> pool4/3x3_s2_pool4/3x3_s2_0_split_2
I0403 19:23:48.309576  9189 net.cpp:399] pool4/3x3_s2_pool4/3x3_s2_0_split -> pool4/3x3_s2_pool4/3x3_s2_0_split_3
I0403 19:23:48.309669  9189 net.cpp:141] Setting up pool4/3x3_s2_pool4/3x3_s2_0_split
I0403 19:23:48.309692  9189 net.cpp:148] Top shape: 24 832 7 7 (978432)
I0403 19:23:48.309710  9189 net.cpp:148] Top shape: 24 832 7 7 (978432)
I0403 19:23:48.309727  9189 net.cpp:148] Top shape: 24 832 7 7 (978432)
I0403 19:23:48.309743  9189 net.cpp:148] Top shape: 24 832 7 7 (978432)
I0403 19:23:48.309758  9189 net.cpp:156] Memory required for data: 1292125728
I0403 19:23:48.309772  9189 layer_factory.hpp:77] Creating layer inception_5a/1x1
I0403 19:23:48.309794  9189 net.cpp:91] Creating Layer inception_5a/1x1
I0403 19:23:48.309811  9189 net.cpp:425] inception_5a/1x1 <- pool4/3x3_s2_pool4/3x3_s2_0_split_0
I0403 19:23:48.309834  9189 net.cpp:399] inception_5a/1x1 -> inception_5a/1x1
I0403 19:23:48.312662  9189 net.cpp:141] Setting up inception_5a/1x1
I0403 19:23:48.312691  9189 net.cpp:148] Top shape: 24 256 7 7 (301056)
I0403 19:23:48.312707  9189 net.cpp:156] Memory required for data: 1293329952
I0403 19:23:48.312726  9189 layer_factory.hpp:77] Creating layer inception_5a/relu_1x1
I0403 19:23:48.312746  9189 net.cpp:91] Creating Layer inception_5a/relu_1x1
I0403 19:23:48.312762  9189 net.cpp:425] inception_5a/relu_1x1 <- inception_5a/1x1
I0403 19:23:48.312779  9189 net.cpp:386] inception_5a/relu_1x1 -> inception_5a/1x1 (in-place)
I0403 19:23:48.313094  9189 net.cpp:141] Setting up inception_5a/relu_1x1
I0403 19:23:48.313120  9189 net.cpp:148] Top shape: 24 256 7 7 (301056)
I0403 19:23:48.313136  9189 net.cpp:156] Memory required for data: 1294534176
I0403 19:23:48.313153  9189 layer_factory.hpp:77] Creating layer inception_5a/3x3_reduce
I0403 19:23:48.313175  9189 net.cpp:91] Creating Layer inception_5a/3x3_reduce
I0403 19:23:48.313194  9189 net.cpp:425] inception_5a/3x3_reduce <- pool4/3x3_s2_pool4/3x3_s2_0_split_1
I0403 19:23:48.313215  9189 net.cpp:399] inception_5a/3x3_reduce -> inception_5a/3x3_reduce
I0403 19:23:48.315657  9189 net.cpp:141] Setting up inception_5a/3x3_reduce
I0403 19:23:48.315688  9189 net.cpp:148] Top shape: 24 160 7 7 (188160)
I0403 19:23:48.315868  9189 net.cpp:156] Memory required for data: 1295286816
I0403 19:23:48.315891  9189 layer_factory.hpp:77] Creating layer inception_5a/relu_3x3_reduce
I0403 19:23:48.315908  9189 net.cpp:91] Creating Layer inception_5a/relu_3x3_reduce
I0403 19:23:48.315923  9189 net.cpp:425] inception_5a/relu_3x3_reduce <- inception_5a/3x3_reduce
I0403 19:23:48.315940  9189 net.cpp:386] inception_5a/relu_3x3_reduce -> inception_5a/3x3_reduce (in-place)
I0403 19:23:48.316138  9189 net.cpp:141] Setting up inception_5a/relu_3x3_reduce
I0403 19:23:48.316164  9189 net.cpp:148] Top shape: 24 160 7 7 (188160)
I0403 19:23:48.316179  9189 net.cpp:156] Memory required for data: 1296039456
I0403 19:23:48.316193  9189 layer_factory.hpp:77] Creating layer inception_5a/3x3
I0403 19:23:48.316217  9189 net.cpp:91] Creating Layer inception_5a/3x3
I0403 19:23:48.316234  9189 net.cpp:425] inception_5a/3x3 <- inception_5a/3x3_reduce
I0403 19:23:48.316257  9189 net.cpp:399] inception_5a/3x3 -> inception_5a/3x3
I0403 19:23:48.321270  9189 net.cpp:141] Setting up inception_5a/3x3
I0403 19:23:48.321300  9189 net.cpp:148] Top shape: 24 320 7 7 (376320)
I0403 19:23:48.321316  9189 net.cpp:156] Memory required for data: 1297544736
I0403 19:23:48.321334  9189 layer_factory.hpp:77] Creating layer inception_5a/relu_3x3
I0403 19:23:48.321352  9189 net.cpp:91] Creating Layer inception_5a/relu_3x3
I0403 19:23:48.321369  9189 net.cpp:425] inception_5a/relu_3x3 <- inception_5a/3x3
I0403 19:23:48.321389  9189 net.cpp:386] inception_5a/relu_3x3 -> inception_5a/3x3 (in-place)
I0403 19:23:48.321687  9189 net.cpp:141] Setting up inception_5a/relu_3x3
I0403 19:23:48.321714  9189 net.cpp:148] Top shape: 24 320 7 7 (376320)
I0403 19:23:48.321729  9189 net.cpp:156] Memory required for data: 1299050016
I0403 19:23:48.321753  9189 layer_factory.hpp:77] Creating layer inception_5a/5x5_reduce
I0403 19:23:48.321777  9189 net.cpp:91] Creating Layer inception_5a/5x5_reduce
I0403 19:23:48.321795  9189 net.cpp:425] inception_5a/5x5_reduce <- pool4/3x3_s2_pool4/3x3_s2_0_split_2
I0403 19:23:48.321817  9189 net.cpp:399] inception_5a/5x5_reduce -> inception_5a/5x5_reduce
I0403 19:23:48.322999  9189 net.cpp:141] Setting up inception_5a/5x5_reduce
I0403 19:23:48.323029  9189 net.cpp:148] Top shape: 24 32 7 7 (37632)
I0403 19:23:48.323045  9189 net.cpp:156] Memory required for data: 1299200544
I0403 19:23:48.323062  9189 layer_factory.hpp:77] Creating layer inception_5a/relu_5x5_reduce
I0403 19:23:48.323083  9189 net.cpp:91] Creating Layer inception_5a/relu_5x5_reduce
I0403 19:23:48.323101  9189 net.cpp:425] inception_5a/relu_5x5_reduce <- inception_5a/5x5_reduce
I0403 19:23:48.323118  9189 net.cpp:386] inception_5a/relu_5x5_reduce -> inception_5a/5x5_reduce (in-place)
I0403 19:23:48.323421  9189 net.cpp:141] Setting up inception_5a/relu_5x5_reduce
I0403 19:23:48.323451  9189 net.cpp:148] Top shape: 24 32 7 7 (37632)
I0403 19:23:48.323467  9189 net.cpp:156] Memory required for data: 1299351072
I0403 19:23:48.323482  9189 layer_factory.hpp:77] Creating layer inception_5a/5x5
I0403 19:23:48.323503  9189 net.cpp:91] Creating Layer inception_5a/5x5
I0403 19:23:48.323521  9189 net.cpp:425] inception_5a/5x5 <- inception_5a/5x5_reduce
I0403 19:23:48.323544  9189 net.cpp:399] inception_5a/5x5 -> inception_5a/5x5
I0403 19:23:48.325248  9189 net.cpp:141] Setting up inception_5a/5x5
I0403 19:23:48.325287  9189 net.cpp:148] Top shape: 24 128 7 7 (150528)
I0403 19:23:48.325304  9189 net.cpp:156] Memory required for data: 1299953184
I0403 19:23:48.325322  9189 layer_factory.hpp:77] Creating layer inception_5a/relu_5x5
I0403 19:23:48.325340  9189 net.cpp:91] Creating Layer inception_5a/relu_5x5
I0403 19:23:48.325357  9189 net.cpp:425] inception_5a/relu_5x5 <- inception_5a/5x5
I0403 19:23:48.325377  9189 net.cpp:386] inception_5a/relu_5x5 -> inception_5a/5x5 (in-place)
I0403 19:23:48.325574  9189 net.cpp:141] Setting up inception_5a/relu_5x5
I0403 19:23:48.325599  9189 net.cpp:148] Top shape: 24 128 7 7 (150528)
I0403 19:23:48.325614  9189 net.cpp:156] Memory required for data: 1300555296
I0403 19:23:48.325629  9189 layer_factory.hpp:77] Creating layer inception_5a/pool
I0403 19:23:48.325650  9189 net.cpp:91] Creating Layer inception_5a/pool
I0403 19:23:48.325666  9189 net.cpp:425] inception_5a/pool <- pool4/3x3_s2_pool4/3x3_s2_0_split_3
I0403 19:23:48.325685  9189 net.cpp:399] inception_5a/pool -> inception_5a/pool
I0403 19:23:48.325754  9189 net.cpp:141] Setting up inception_5a/pool
I0403 19:23:48.325778  9189 net.cpp:148] Top shape: 24 832 7 7 (978432)
I0403 19:23:48.325793  9189 net.cpp:156] Memory required for data: 1304469024
I0403 19:23:48.325809  9189 layer_factory.hpp:77] Creating layer inception_5a/pool_proj
I0403 19:23:48.325829  9189 net.cpp:91] Creating Layer inception_5a/pool_proj
I0403 19:23:48.325846  9189 net.cpp:425] inception_5a/pool_proj <- inception_5a/pool
I0403 19:23:48.325867  9189 net.cpp:399] inception_5a/pool_proj -> inception_5a/pool_proj
I0403 19:23:48.328121  9189 net.cpp:141] Setting up inception_5a/pool_proj
I0403 19:23:48.328155  9189 net.cpp:148] Top shape: 24 128 7 7 (150528)
I0403 19:23:48.328171  9189 net.cpp:156] Memory required for data: 1305071136
I0403 19:23:48.328189  9189 layer_factory.hpp:77] Creating layer inception_5a/relu_pool_proj
I0403 19:23:48.328207  9189 net.cpp:91] Creating Layer inception_5a/relu_pool_proj
I0403 19:23:48.328225  9189 net.cpp:425] inception_5a/relu_pool_proj <- inception_5a/pool_proj
I0403 19:23:48.328245  9189 net.cpp:386] inception_5a/relu_pool_proj -> inception_5a/pool_proj (in-place)
I0403 19:23:48.328549  9189 net.cpp:141] Setting up inception_5a/relu_pool_proj
I0403 19:23:48.328577  9189 net.cpp:148] Top shape: 24 128 7 7 (150528)
I0403 19:23:48.328593  9189 net.cpp:156] Memory required for data: 1305673248
I0403 19:23:48.328608  9189 layer_factory.hpp:77] Creating layer inception_5a/output
I0403 19:23:48.328625  9189 net.cpp:91] Creating Layer inception_5a/output
I0403 19:23:48.328641  9189 net.cpp:425] inception_5a/output <- inception_5a/1x1
I0403 19:23:48.328658  9189 net.cpp:425] inception_5a/output <- inception_5a/3x3
I0403 19:23:48.328675  9189 net.cpp:425] inception_5a/output <- inception_5a/5x5
I0403 19:23:48.328691  9189 net.cpp:425] inception_5a/output <- inception_5a/pool_proj
I0403 19:23:48.328711  9189 net.cpp:399] inception_5a/output -> inception_5a/output
I0403 19:23:48.328759  9189 net.cpp:141] Setting up inception_5a/output
I0403 19:23:48.328783  9189 net.cpp:148] Top shape: 24 832 7 7 (978432)
I0403 19:23:48.328799  9189 net.cpp:156] Memory required for data: 1309586976
I0403 19:23:48.328814  9189 layer_factory.hpp:77] Creating layer inception_5a/output_inception_5a/output_0_split
I0403 19:23:48.328835  9189 net.cpp:91] Creating Layer inception_5a/output_inception_5a/output_0_split
I0403 19:23:48.328850  9189 net.cpp:425] inception_5a/output_inception_5a/output_0_split <- inception_5a/output
I0403 19:23:48.328869  9189 net.cpp:399] inception_5a/output_inception_5a/output_0_split -> inception_5a/output_inception_5a/output_0_split_0
I0403 19:23:48.328888  9189 net.cpp:399] inception_5a/output_inception_5a/output_0_split -> inception_5a/output_inception_5a/output_0_split_1
I0403 19:23:48.328912  9189 net.cpp:399] inception_5a/output_inception_5a/output_0_split -> inception_5a/output_inception_5a/output_0_split_2
I0403 19:23:48.328934  9189 net.cpp:399] inception_5a/output_inception_5a/output_0_split -> inception_5a/output_inception_5a/output_0_split_3
I0403 19:23:48.329043  9189 net.cpp:141] Setting up inception_5a/output_inception_5a/output_0_split
I0403 19:23:48.329067  9189 net.cpp:148] Top shape: 24 832 7 7 (978432)
I0403 19:23:48.329084  9189 net.cpp:148] Top shape: 24 832 7 7 (978432)
I0403 19:23:48.329100  9189 net.cpp:148] Top shape: 24 832 7 7 (978432)
I0403 19:23:48.329118  9189 net.cpp:148] Top shape: 24 832 7 7 (978432)
I0403 19:23:48.329131  9189 net.cpp:156] Memory required for data: 1325241888
I0403 19:23:48.329147  9189 layer_factory.hpp:77] Creating layer inception_5b/1x1
I0403 19:23:48.329169  9189 net.cpp:91] Creating Layer inception_5b/1x1
I0403 19:23:48.329188  9189 net.cpp:425] inception_5b/1x1 <- inception_5a/output_inception_5a/output_0_split_0
I0403 19:23:48.329210  9189 net.cpp:399] inception_5b/1x1 -> inception_5b/1x1
I0403 19:23:48.332923  9189 net.cpp:141] Setting up inception_5b/1x1
I0403 19:23:48.332955  9189 net.cpp:148] Top shape: 24 384 7 7 (451584)
I0403 19:23:48.332972  9189 net.cpp:156] Memory required for data: 1327048224
I0403 19:23:48.332990  9189 layer_factory.hpp:77] Creating layer inception_5b/relu_1x1
I0403 19:23:48.333008  9189 net.cpp:91] Creating Layer inception_5b/relu_1x1
I0403 19:23:48.333024  9189 net.cpp:425] inception_5b/relu_1x1 <- inception_5b/1x1
I0403 19:23:48.333041  9189 net.cpp:386] inception_5b/relu_1x1 -> inception_5b/1x1 (in-place)
I0403 19:23:48.333345  9189 net.cpp:141] Setting up inception_5b/relu_1x1
I0403 19:23:48.333374  9189 net.cpp:148] Top shape: 24 384 7 7 (451584)
I0403 19:23:48.333390  9189 net.cpp:156] Memory required for data: 1328854560
I0403 19:23:48.333405  9189 layer_factory.hpp:77] Creating layer inception_5b/3x3_reduce
I0403 19:23:48.333433  9189 net.cpp:91] Creating Layer inception_5b/3x3_reduce
I0403 19:23:48.333454  9189 net.cpp:425] inception_5b/3x3_reduce <- inception_5a/output_inception_5a/output_0_split_1
I0403 19:23:48.333473  9189 net.cpp:399] inception_5b/3x3_reduce -> inception_5b/3x3_reduce
I0403 19:23:48.336092  9189 net.cpp:141] Setting up inception_5b/3x3_reduce
I0403 19:23:48.336123  9189 net.cpp:148] Top shape: 24 192 7 7 (225792)
I0403 19:23:48.336141  9189 net.cpp:156] Memory required for data: 1329757728
I0403 19:23:48.336160  9189 layer_factory.hpp:77] Creating layer inception_5b/relu_3x3_reduce
I0403 19:23:48.336179  9189 net.cpp:91] Creating Layer inception_5b/relu_3x3_reduce
I0403 19:23:48.336194  9189 net.cpp:425] inception_5b/relu_3x3_reduce <- inception_5b/3x3_reduce
I0403 19:23:48.336215  9189 net.cpp:386] inception_5b/relu_3x3_reduce -> inception_5b/3x3_reduce (in-place)
I0403 19:23:48.336407  9189 net.cpp:141] Setting up inception_5b/relu_3x3_reduce
I0403 19:23:48.336438  9189 net.cpp:148] Top shape: 24 192 7 7 (225792)
I0403 19:23:48.336455  9189 net.cpp:156] Memory required for data: 1330660896
I0403 19:23:48.336469  9189 layer_factory.hpp:77] Creating layer inception_5b/3x3
I0403 19:23:48.336491  9189 net.cpp:91] Creating Layer inception_5b/3x3
I0403 19:23:48.336509  9189 net.cpp:425] inception_5b/3x3 <- inception_5b/3x3_reduce
I0403 19:23:48.336532  9189 net.cpp:399] inception_5b/3x3 -> inception_5b/3x3
I0403 19:23:48.343111  9189 net.cpp:141] Setting up inception_5b/3x3
I0403 19:23:48.343142  9189 net.cpp:148] Top shape: 24 384 7 7 (451584)
I0403 19:23:48.343158  9189 net.cpp:156] Memory required for data: 1332467232
I0403 19:23:48.343176  9189 layer_factory.hpp:77] Creating layer inception_5b/relu_3x3
I0403 19:23:48.343196  9189 net.cpp:91] Creating Layer inception_5b/relu_3x3
I0403 19:23:48.343214  9189 net.cpp:425] inception_5b/relu_3x3 <- inception_5b/3x3
I0403 19:23:48.343233  9189 net.cpp:386] inception_5b/relu_3x3 -> inception_5b/3x3 (in-place)
I0403 19:23:48.343560  9189 net.cpp:141] Setting up inception_5b/relu_3x3
I0403 19:23:48.343590  9189 net.cpp:148] Top shape: 24 384 7 7 (451584)
I0403 19:23:48.343605  9189 net.cpp:156] Memory required for data: 1334273568
I0403 19:23:48.343619  9189 layer_factory.hpp:77] Creating layer inception_5b/5x5_reduce
I0403 19:23:48.343657  9189 net.cpp:91] Creating Layer inception_5b/5x5_reduce
I0403 19:23:48.343675  9189 net.cpp:425] inception_5b/5x5_reduce <- inception_5a/output_inception_5a/output_0_split_2
I0403 19:23:48.343695  9189 net.cpp:399] inception_5b/5x5_reduce -> inception_5b/5x5_reduce
I0403 19:23:48.344979  9189 net.cpp:141] Setting up inception_5b/5x5_reduce
I0403 19:23:48.345007  9189 net.cpp:148] Top shape: 24 48 7 7 (56448)
I0403 19:23:48.345023  9189 net.cpp:156] Memory required for data: 1334499360
I0403 19:23:48.345042  9189 layer_factory.hpp:77] Creating layer inception_5b/relu_5x5_reduce
I0403 19:23:48.345059  9189 net.cpp:91] Creating Layer inception_5b/relu_5x5_reduce
I0403 19:23:48.345075  9189 net.cpp:425] inception_5b/relu_5x5_reduce <- inception_5b/5x5_reduce
I0403 19:23:48.345094  9189 net.cpp:386] inception_5b/relu_5x5_reduce -> inception_5b/5x5_reduce (in-place)
I0403 19:23:48.345480  9189 net.cpp:141] Setting up inception_5b/relu_5x5_reduce
I0403 19:23:48.345509  9189 net.cpp:148] Top shape: 24 48 7 7 (56448)
I0403 19:23:48.345523  9189 net.cpp:156] Memory required for data: 1334725152
I0403 19:23:48.345538  9189 layer_factory.hpp:77] Creating layer inception_5b/5x5
I0403 19:23:48.345557  9189 net.cpp:91] Creating Layer inception_5b/5x5
I0403 19:23:48.345576  9189 net.cpp:425] inception_5b/5x5 <- inception_5b/5x5_reduce
I0403 19:23:48.345594  9189 net.cpp:399] inception_5b/5x5 -> inception_5b/5x5
I0403 19:23:48.347631  9189 net.cpp:141] Setting up inception_5b/5x5
I0403 19:23:48.347659  9189 net.cpp:148] Top shape: 24 128 7 7 (150528)
I0403 19:23:48.347676  9189 net.cpp:156] Memory required for data: 1335327264
I0403 19:23:48.347692  9189 layer_factory.hpp:77] Creating layer inception_5b/relu_5x5
I0403 19:23:48.347713  9189 net.cpp:91] Creating Layer inception_5b/relu_5x5
I0403 19:23:48.347729  9189 net.cpp:425] inception_5b/relu_5x5 <- inception_5b/5x5
I0403 19:23:48.347748  9189 net.cpp:386] inception_5b/relu_5x5 -> inception_5b/5x5 (in-place)
I0403 19:23:48.347954  9189 net.cpp:141] Setting up inception_5b/relu_5x5
I0403 19:23:48.347980  9189 net.cpp:148] Top shape: 24 128 7 7 (150528)
I0403 19:23:48.347995  9189 net.cpp:156] Memory required for data: 1335929376
I0403 19:23:48.348008  9189 layer_factory.hpp:77] Creating layer inception_5b/pool
I0403 19:23:48.348028  9189 net.cpp:91] Creating Layer inception_5b/pool
I0403 19:23:48.348047  9189 net.cpp:425] inception_5b/pool <- inception_5a/output_inception_5a/output_0_split_3
I0403 19:23:48.348065  9189 net.cpp:399] inception_5b/pool -> inception_5b/pool
I0403 19:23:48.348139  9189 net.cpp:141] Setting up inception_5b/pool
I0403 19:23:48.348162  9189 net.cpp:148] Top shape: 24 832 7 7 (978432)
I0403 19:23:48.348177  9189 net.cpp:156] Memory required for data: 1339843104
I0403 19:23:48.348192  9189 layer_factory.hpp:77] Creating layer inception_5b/pool_proj
I0403 19:23:48.348214  9189 net.cpp:91] Creating Layer inception_5b/pool_proj
I0403 19:23:48.348232  9189 net.cpp:425] inception_5b/pool_proj <- inception_5b/pool
I0403 19:23:48.348253  9189 net.cpp:399] inception_5b/pool_proj -> inception_5b/pool_proj
I0403 19:23:48.350533  9189 net.cpp:141] Setting up inception_5b/pool_proj
I0403 19:23:48.350563  9189 net.cpp:148] Top shape: 24 128 7 7 (150528)
I0403 19:23:48.350579  9189 net.cpp:156] Memory required for data: 1340445216
I0403 19:23:48.350597  9189 layer_factory.hpp:77] Creating layer inception_5b/relu_pool_proj
I0403 19:23:48.350615  9189 net.cpp:91] Creating Layer inception_5b/relu_pool_proj
I0403 19:23:48.350632  9189 net.cpp:425] inception_5b/relu_pool_proj <- inception_5b/pool_proj
I0403 19:23:48.350654  9189 net.cpp:386] inception_5b/relu_pool_proj -> inception_5b/pool_proj (in-place)
I0403 19:23:48.350951  9189 net.cpp:141] Setting up inception_5b/relu_pool_proj
I0403 19:23:48.350978  9189 net.cpp:148] Top shape: 24 128 7 7 (150528)
I0403 19:23:48.350993  9189 net.cpp:156] Memory required for data: 1341047328
I0403 19:23:48.351009  9189 layer_factory.hpp:77] Creating layer inception_5b/output
I0403 19:23:48.351027  9189 net.cpp:91] Creating Layer inception_5b/output
I0403 19:23:48.351058  9189 net.cpp:425] inception_5b/output <- inception_5b/1x1
I0403 19:23:48.351076  9189 net.cpp:425] inception_5b/output <- inception_5b/3x3
I0403 19:23:48.351094  9189 net.cpp:425] inception_5b/output <- inception_5b/5x5
I0403 19:23:48.351110  9189 net.cpp:425] inception_5b/output <- inception_5b/pool_proj
I0403 19:23:48.351130  9189 net.cpp:399] inception_5b/output -> inception_5b/output
I0403 19:23:48.351181  9189 net.cpp:141] Setting up inception_5b/output
I0403 19:23:48.351208  9189 net.cpp:148] Top shape: 24 1024 7 7 (1204224)
I0403 19:23:48.351223  9189 net.cpp:156] Memory required for data: 1345864224
I0403 19:23:48.351238  9189 layer_factory.hpp:77] Creating layer pool5/7x7_s1
I0403 19:23:48.351256  9189 net.cpp:91] Creating Layer pool5/7x7_s1
I0403 19:23:48.351272  9189 net.cpp:425] pool5/7x7_s1 <- inception_5b/output
I0403 19:23:48.351290  9189 net.cpp:399] pool5/7x7_s1 -> pool5/7x7_s1
I0403 19:23:48.351514  9189 net.cpp:141] Setting up pool5/7x7_s1
I0403 19:23:48.351541  9189 net.cpp:148] Top shape: 24 1024 1 1 (24576)
I0403 19:23:48.351557  9189 net.cpp:156] Memory required for data: 1345962528
I0403 19:23:48.351572  9189 layer_factory.hpp:77] Creating layer pool5/drop_7x7_s1
I0403 19:23:48.351589  9189 net.cpp:91] Creating Layer pool5/drop_7x7_s1
I0403 19:23:48.351605  9189 net.cpp:425] pool5/drop_7x7_s1 <- pool5/7x7_s1
I0403 19:23:48.351625  9189 net.cpp:386] pool5/drop_7x7_s1 -> pool5/7x7_s1 (in-place)
I0403 19:23:48.351676  9189 net.cpp:141] Setting up pool5/drop_7x7_s1
I0403 19:23:48.351703  9189 net.cpp:148] Top shape: 24 1024 1 1 (24576)
I0403 19:23:48.351717  9189 net.cpp:156] Memory required for data: 1346060832
I0403 19:23:48.351733  9189 layer_factory.hpp:77] Creating layer loss3/classifier_plantvillage
I0403 19:23:48.351752  9189 net.cpp:91] Creating Layer loss3/classifier_plantvillage
I0403 19:23:48.351768  9189 net.cpp:425] loss3/classifier_plantvillage <- pool5/7x7_s1
I0403 19:23:48.351788  9189 net.cpp:399] loss3/classifier_plantvillage -> loss3/classifier_plantvillage
I0403 19:23:48.352207  9189 net.cpp:141] Setting up loss3/classifier_plantvillage
I0403 19:23:48.352232  9189 net.cpp:148] Top shape: 24 38 (912)
I0403 19:23:48.352247  9189 net.cpp:156] Memory required for data: 1346064480
I0403 19:23:48.352265  9189 layer_factory.hpp:77] Creating layer loss3/classifier_plantvillage_loss3/classifier_plantvillage_0_split
I0403 19:23:48.352286  9189 net.cpp:91] Creating Layer loss3/classifier_plantvillage_loss3/classifier_plantvillage_0_split
I0403 19:23:48.352304  9189 net.cpp:425] loss3/classifier_plantvillage_loss3/classifier_plantvillage_0_split <- loss3/classifier_plantvillage
I0403 19:23:48.352322  9189 net.cpp:399] loss3/classifier_plantvillage_loss3/classifier_plantvillage_0_split -> loss3/classifier_plantvillage_loss3/classifier_plantvillage_0_split_0
I0403 19:23:48.352344  9189 net.cpp:399] loss3/classifier_plantvillage_loss3/classifier_plantvillage_0_split -> loss3/classifier_plantvillage_loss3/classifier_plantvillage_0_split_1
I0403 19:23:48.352366  9189 net.cpp:399] loss3/classifier_plantvillage_loss3/classifier_plantvillage_0_split -> loss3/classifier_plantvillage_loss3/classifier_plantvillage_0_split_2
I0403 19:23:48.352388  9189 net.cpp:399] loss3/classifier_plantvillage_loss3/classifier_plantvillage_0_split -> loss3/classifier_plantvillage_loss3/classifier_plantvillage_0_split_3
I0403 19:23:48.352501  9189 net.cpp:141] Setting up loss3/classifier_plantvillage_loss3/classifier_plantvillage_0_split
I0403 19:23:48.352526  9189 net.cpp:148] Top shape: 24 38 (912)
I0403 19:23:48.352543  9189 net.cpp:148] Top shape: 24 38 (912)
I0403 19:23:48.352560  9189 net.cpp:148] Top shape: 24 38 (912)
I0403 19:23:48.352576  9189 net.cpp:148] Top shape: 24 38 (912)
I0403 19:23:48.352589  9189 net.cpp:156] Memory required for data: 1346079072
I0403 19:23:48.352604  9189 layer_factory.hpp:77] Creating layer loss1/loss
I0403 19:23:48.352627  9189 net.cpp:91] Creating Layer loss1/loss
I0403 19:23:48.352645  9189 net.cpp:425] loss1/loss <- loss1/classifier_plantvillage_loss1/classifier_plantvillage_0_split_0
I0403 19:23:48.352677  9189 net.cpp:425] loss1/loss <- label_data_1_split_0
…
