…
I0403 19:30:50.030647  9331 net.cpp:313] The NetState phase (1) differed from the phase (0) specified by a rule in layer data
I0403 19:30:50.032935  9331 net.cpp:49] Initializing net from parameters: 
state {
  phase: TEST
}
layer {
  name: "data"
  type: "Data"
  top: "data"
  top: "label"
  include {
    phase: TEST
  }
  transform_param {
    mirror: false
    crop_size: 224
    mean_file: "/home/mohanty/data/final_dataset/lmdb/color-60-40/mean.binaryproto"
  }
  data_param {
    source: "/home/mohanty/data/final_dataset/lmdb/color-60-40/test_db"
    batch_size: 24
    backend: LMDB
  }
}
layer {
  name: "conv1/7x7_s2"
  type: "Convolution"
  bottom: "data"
  top: "conv1/7x7_s2"
  param {
    lr_mult: 1
    decay_mult: 1
  }
  param {
    lr_mult: 2
    decay_mult: 0
  }
  convolution_param {
    num_output: 64
    pad: 3
    kernel_size: 7
    stride: 2
    weight_filler {
      type: "xavier"
      std: 0.1
    }
    bias_filler {
      type: "constant"
      value: 0.2
    }
  }
}
layer {
  name: "conv1/relu_7x7"
  type: "ReLU"
  bottom: "conv1/7x7_s2"
  top: "conv1/7x7_s2"
}
layer {
  name: "pool1/3x3_s2"
  type: "Pooling"
  bottom: "conv1/7x7_s2"
  top: "pool1/3x3_s2"
  pooling_param {
    pool: MAX
    kernel_size: 3
    stride: 2
  }
}
layer {
  name: "pool1/norm1"
  type: "LRN"
  bottom: "pool1/3x3_s2"
  top: "pool1/norm1"
  lrn_param {
    local_size: 5
    alpha: 0.0001
    beta: 0.75
  }
}
layer {
  name: "conv2/3x3_reduce"
  type: "Convolution"
  bottom: "pool1/norm1"
  top: "conv2/3x3_reduce"
  param {
    lr_mult: 1
    decay_mult: 1
  }
  param {
    lr_mult: 2
    decay_mult: 0
  }
  convolution_param {
    num_output: 64
    kernel_size: 1
    weight_filler {
      type: "xavier"
      std: 0.1
    }
    bias_filler {
      type: "constant"
      value: 0.2
    }
  }
}
layer {
  name: "conv2/relu_3x3_reduce"
  type: "ReLU"
  bottom: "conv2/3x3_reduce"
  top: "conv2/3x3_reduce"
}
layer {
  name: "conv2/3x3"
  type: "Convolution"
  bottom: "conv2/3x3_reduce"
  top: "conv2/3x3"
  param {
    lr_mult: 1
    decay_mult: 1
  }
  param {
    lr_mult: 2
    decay_mult: 0
  }
  convolution_param {
    num_output: 192
    pad: 1
    kernel_size: 3
    weight_filler {
      type: "xavier"
      std: 0.03
    }
    bias_filler {
      type: "constant"
      value: 0.2
    }
  }
}
layer {
  name: "conv2/relu_3x3"
  type: "ReLU"
  bottom: "conv2/3x3"
  top: "conv2/3x3"
}
layer {
  name: "conv2/norm2"
  type: "LRN"
  bottom: "conv2/3x3"
  top: "conv2/norm2"
  lrn_param {
    local_size: 5
    alpha: 0.0001
    beta: 0.75
  }
}
layer {
  name: "pool2/3x3_s2"
  type: "Pooling"
  bottom: "conv2/norm2"
  top: "pool2/3x3_s2"
  pooling_param {
    pool: MAX
    kernel_size: 3
    stride: 2
  }
}
layer {
  name: "inception_3a/1x1"
  type: "Convolution"
  bottom: "pool2/3x3_s2"
  top: "inception_3a/1x1"
  param {
    lr_mult: 1
    decay_mult: 1
  }
  param {
    lr_mult: 2
    decay_mult: 0
  }
  convolution_param {
    num_output: 64
    kernel_size: 1
    weight_filler {
      type: "xavier"
      std: 0.03
    }
    bias_filler {
      type: "constant"
      value: 0.2
    }
  }
}
layer {
  name: "inception_3a/relu_1x1"
  type: "ReLU"
  bottom: "inception_3a/1x1"
  top: "inception_3a/1x1"
}
layer {
  name: "inception_3a/3x3_reduce"
  type: "Convolution"
  bottom: "pool2/3x3_s2"
  top: "inception_3a/3x3_reduce"
  param {
    lr_mult: 1
    decay_mult: 1
  }
  param {
    lr_mult: 2
    decay_mult: 0
  }
  convolution_param {
    num_output: 96
    kernel_size: 1
    weight_filler {
      type: "xavier"
      std: 0.09
    }
    bias_filler {
      type: "constant"
      value: 0.2
    }
  }
}
layer {
  name: "inception_3a/relu_3x3_reduce"
  type: "ReLU"
  bottom: "inception_3a/3x3_reduce"
  top: "inception_3a/3x3_reduce"
}
layer {
  name: "inception_3a/3x3"
  type: "Convolution"
  bottom: "inception_3a/3x3_reduce"
  top: "inception_3a/3x3"
  param {
    lr_mult: 1
    decay_mult: 1
  }
  param {
    lr_mult: 2
    decay_mult: 0
  }
  convolution_param {
    num_output: 128
    pad: 1
    kernel_size: 3
    weight_filler {
      type: "xavier"
      std: 0.03
    }
    bias_filler {
      type: "constant"
      value: 0.2
    }
  }
}
layer {
  name: "inception_3a/relu_3x3"
  type: "ReLU"
  bottom: "inception_3a/3x3"
  top: "inception_3a/3x3"
}
layer {
  name: "inception_3a/5x5_reduce"
  type: "Convolution"
  bottom: "pool2/3x3_s2"
  top: "inception_3a/5x5_reduce"
  param {
    lr_mult: 1
    decay_mult: 1
  }
  param {
    lr_mult: 2
    decay_mult: 0
  }
  convolution_param {
    num_output: 16
    kernel_size: 1
    weight_filler {
      type: "xavier"
      std: 0.2
    }
    bias_filler {
      type: "constant"
      value: 0.2
    }
  }
}
layer {
  name: "inception_3a/relu_5x5_reduce"
  type: "ReLU"
  bottom: "inception_3a/5x5_reduce"
  top: "inception_3a/5x5_reduce"
}
layer {
  name: "inception_3a/5x5"
  type: "Convolution"
  bottom: "inception_3a/5x5_reduce"
  top: "inception_3a/5x5"
  param {
    lr_mult: 1
    decay_mult: 1
  }
  param {
    lr_mult: 2
    decay_mult: 0
  }
  convolution_param {
    num_output: 32
    pad: 2
    kernel_size: 5
    weight_filler {
      type: "xavier"
      std: 0.03
    }
    bias_filler {
      type: "constant"
      value: 0.2
    }
  }
}
layer {
  name: "inception_3a/relu_5x5"
  type: "ReLU"
  bottom: "inception_3a/5x5"
  top: "inception_3a/5x5"
}
layer {
  name: "inception_3a/pool"
  type: "Pooling"
  bottom: "pool2/3x3_s2"
  top: "inception_3a/pool"
  pooling_param {
    pool: MAX
    kernel_size: 3
    stride: 1
    pad: 1
  }
}
layer {
  name: "inception_3a/pool_proj"
  type: "Convolution"
  bottom: "inception_3a/pool"
  top: "inception_3a/pool_proj"
  param {
    lr_mult: 1
    decay_mult: 1
  }
  param {
    lr_mult: 2
    decay_mult: 0
  }
  convolution_param {
    num_output: 32
    kernel_size: 1
    weight_filler {
      type: "xavier"
      std: 0.1
    }
    bias_filler {
      type: "constant"
      value: 0.2
    }
  }
}
layer {
  name: "inception_3a/relu_pool_proj"
  type: "ReLU"
  bottom: "inception_3a/pool_proj"
  top: "inception_3a/pool_proj"
}
layer {
  name: "inception_3a/output"
  type: "Concat"
  bottom: "inception_3a/1x1"
  bottom: "inception_3a/3x3"
  bottom: "inception_3a/5x5"
  bottom: "inception_3a/pool_proj"
  top: "inception_3a/output"
}
layer {
  name: "inception_3b/1x1"
  type: "Convolution"
  bottom: "inception_3a/output"
  top: "inception_3b/1x1"
  param {
    lr_mult: 1
    decay_mult: 1
  }
  param {
    lr_mult: 2
    decay_mult: 0
  }
  convolution_param {
    num_output: 128
    kernel_size: 1
    weight_filler {
      type: "xavier"
      std: 0.03
    }
    bias_filler {
      type: "constant"
      value: 0.2
    }
  }
}
layer {
  name: "inception_3b/relu_1x1"
  type: "ReLU"
  bottom: "inception_3b/1x1"
  top: "inception_3b/1x1"
}
layer {
  name: "inception_3b/3x3_reduce"
  type: "Convolution"
  bottom: "inception_3a/output"
  top: "inception_3b/3x3_reduce"
  param {
    lr_mult: 1
    decay_mult: 1
  }
  param {
    lr_mult: 2
    decay_mult: 0
  }
  convolution_param {
    num_output: 128
    kernel_size: 1
    weight_filler {
      type: "xavier"
      std: 0.09
    }
    bias_filler {
      type: "constant"
      value: 0.2
    }
  }
}
layer {
  name: "inception_3b/relu_3x3_reduce"
  type: "ReLU"
  bottom: "inception_3b/3x3_reduce"
  top: "inception_3b/3x3_reduce"
}
layer {
  name: "inception_3b/3x3"
  type: "Convolution"
  bottom: "inception_3b/3x3_reduce"
  top: "inception_3b/3x3"
  param {
    lr_mult: 1
    decay_mult: 1
  }
  param {
    lr_mult: 2
    decay_mult: 0
  }
  convolution_param {
    num_output: 192
    pad: 1
    kernel_size: 3
    weight_filler {
      type: "xavier"
      std: 0.03
    }
    bias_filler {
      type: "constant"
      value: 0.2
    }
  }
}
layer {
  name: "inception_3b/relu_3x3"
  type: "ReLU"
  bottom: "inception_3b/3x3"
  top: "inception_3b/3x3"
}
layer {
  name: "inception_3b/5x5_reduce"
  type: "Convolution"
  bottom: "inception_3a/output"
  top: "inception_3b/5x5_reduce"
  param {
    lr_mult: 1
    decay_mult: 1
  }
  param {
    lr_mult: 2
    decay_mult: 0
  }
  convolution_param {
    num_output: 32
    kernel_size: 1
    weight_filler {
      type: "xavier"
      std: 0.2
    }
    bias_filler {
      type: "constant"
      value: 0.2
    }
  }
}
layer {
  name: "inception_3b/relu_5x5_reduce"
  type: "ReLU"
  bottom: "inception_3b/5x5_reduce"
  top: "inception_3b/5x5_reduce"
}
layer {
  name: "inception_3b/5x5"
  type: "Convolution"
  bottom: "inception_3b/5x5_reduce"
  top: "inception_3b/5x5"
  param {
    lr_mult: 1
    decay_mult: 1
  }
  param {
    lr_mult: 2
    decay_mult: 0
  }
  convolution_param {
    num_output: 96
    pad: 2
    kernel_size: 5
    weight_filler {
      type: "xavier"
      std: 0.03
    }
    bias_filler {
      type: "constant"
      value: 0.2
    }
  }
}
layer {
  name: "inception_3b/relu_5x5"
  type: "ReLU"
  bottom: "inception_3b/5x5"
  top: "inception_3b/5x5"
}
layer {
  name: "inception_3b/pool"
  type: "Pooling"
  bottom: "inception_3a/output"
  top: "inception_3b/pool"
  pooling_param {
    pool: MAX
    kernel_size: 3
    stride: 1
    pad: 1
  }
}
layer {
  name: "inception_3b/pool_proj"
  type: "Convolution"
  bottom: "inception_3b/pool"
  top: "inception_3b/pool_proj"
  param {
    lr_mult: 1
    decay_mult: 1
  }
  param {
    lr_mult: 2
    decay_mult: 0
  }
  convolution_param {
    num_output: 64
    kernel_size: 1
    weight_filler {
      type: "xavier"
      std: 0.1
    }
    bias_filler {
      type: "constant"
      value: 0.2
    }
  }
}
layer {
  name: "inception_3b/relu_pool_proj"
  type: "ReLU"
  bottom: "inception_3b/pool_proj"
  top: "inception_3b/pool_proj"
}
layer {
  name: "inception_3b/output"
  type: "Concat"
  bottom: "inception_3b/1x1"
  bottom: "inception_3b/3x3"
  bottom: "inception_3b/5x5"
  bottom: "inception_3b/pool_proj"
  top: "inception_3b/output"
}
layer {
  name: "pool3/3x3_s2"
  type: "Pooling"
  bottom: "inception_3b/output"
  top: "pool3/3x3_s2"
  pooling_param {
    pool: MAX
    kernel_size: 3
    stride: 2
  }
}
layer {
  name: "inception_4a/1x1"
  type: "Convolution"
  bottom: "pool3/3x3_s2"
  top: "inception_4a/1x1"
  param {
    lr_mult: 1
    decay_mult: 1
  }
  param {
    lr_mult: 2
    decay_mult: 0
  }
  convolution_param {
    num_output: 192
    kernel_size: 1
    weight_filler {
      type: "xavier"
      std: 0.03
    }
    bias_filler {
      type: "constant"
      value: 0.2
    }
  }
}
layer {
  name: "inception_4a/relu_1x1"
  type: "ReLU"
  bottom: "inception_4a/1x1"
  top: "inception_4a/1x1"
}
layer {
  name: "inception_4a/3x3_reduce"
  type: "Convolution"
  bottom: "pool3/3x3_s2"
  top: "inception_4a/3x3_reduce"
  param {
    lr_mult: 1
    decay_mult: 1
  }
  param {
    lr_mult: 2
    decay_mult: 0
  }
  convolution_param {
    num_output: 96
    kernel_size: 1
    weight_filler {
      type: "xavier"
      std: 0.09
    }
    bias_filler {
      type: "constant"
      value: 0.2
    }
  }
}
layer {
  name: "inception_4a/relu_3x3_reduce"
  type: "ReLU"
  bottom: "inception_4a/3x3_reduce"
  top: "inception_4a/3x3_reduce"
}
layer {
  name: "inception_4a/3x3"
  type: "Convolution"
  bottom: "inception_4a/3x3_reduce"
  top: "inception_4a/3x3"
  param {
    lr_mult: 1
    decay_mult: 1
  }
  param {
    lr_mult: 2
    decay_mult: 0
  }
  convolution_param {
    num_output: 208
    pad: 1
    kernel_size: 3
    weight_filler {
      type: "xavier"
      std: 0.03
    }
    bias_filler {
      type: "constant"
      value: 0.2
    }
  }
}
layer {
  name: "inception_4a/relu_3x3"
  type: "ReLU"
  bottom: "inception_4a/3x3"
  top: "inception_4a/3x3"
}
layer {
  name: "inception_4a/5x5_reduce"
  type: "Convolution"
  bottom: "pool3/3x3_s2"
  top: "inception_4a/5x5_reduce"
  param {
    lr_mult: 1
    decay_mult: 1
  }
  param {
    lr_mult: 2
    decay_mult: 0
  }
  convolution_param {
    num_output: 16
    kernel_size: 1
    weight_filler {
      type: "xavier"
      std: 0.2
    }
    bias_filler {
      type: "constant"
      value: 0.2
    }
  }
}
layer {
  name: "inception_4a/relu_5x5_reduce"
  type: "ReLU"
  bottom: "inception_4a/5x5_reduce"
  top: "inception_4a/5x5_reduce"
}
layer {
  name: "inception_4a/5x5"
  type: "Convolution"
  bottom: "inception_4a/5x5_reduce"
  top: "inception_4a/5x5"
  param {
    lr_mult: 1
    decay_mult: 1
  }
  param {
    lr_mult: 2
    decay_mult: 0
  }
  convolution_param {
    num_output: 48
    pad: 2
    kernel_size: 5
    weight_filler {
      type: "xavier"
      std: 0.03
    }
    bias_filler {
      type: "constant"
      value: 0.2
    }
  }
}
layer {
  name: "inception_4a/relu_5x5"
  type: "ReLU"
  bottom: "inception_4a/5x5"
  top: "inception_4a/5x5"
}
layer {
  name: "inception_4a/pool"
  type: "Pooling"
  bottom: "pool3/3x3_s2"
  top: "inception_4a/pool"
  pooling_param {
    pool: MAX
    kernel_size: 3
    stride: 1
    pad: 1
  }
}
layer {
  name: "inception_4a/pool_proj"
  type: "Convolution"
  bottom: "inception_4a/pool"
  top: "inception_4a/pool_proj"
  param {
    lr_mult: 1
    decay_mult: 1
  }
  param {
    lr_mult: 2
    decay_mult: 0
  }
  convolution_param {
    num_output: 64
    kernel_size: 1
    weight_filler {
      type: "xavier"
      std: 0.1
    }
    bias_filler {
      type: "constant"
      value: 0.2
    }
  }
}
layer {
  name: "inception_4a/relu_pool_proj"
  type: "ReLU"
  bottom: "inception_4a/pool_proj"
  top: "inception_4a/pool_proj"
}
layer {
  name: "inception_4a/output"
  type: "Concat"
  bottom: "inception_4a/1x1"
  bottom: "inception_4a/3x3"
  bottom: "inception_4a/5x5"
  bottom: "inception_4a/pool_proj"
  top: "inception_4a/output"
}
layer {
  name: "loss1/ave_pool"
  type: "Pooling"
  bottom: "inception_4a/output"
  top: "loss1/ave_pool"
  pooling_param {
    pool: AVE
    kernel_size: 5
    stride: 3
  }
}
layer {
  name: "loss1/conv"
  type: "Convolution"
  bottom: "loss1/ave_pool"
  top: "loss1/conv"
  param {
    lr_mult: 1
    decay_mult: 1
  }
  param {
    lr_mult: 2
    decay_mult: 0
  }
  convolution_param {
    num_output: 128
    kernel_size: 1
    weight_filler {
      type: "xavier"
      std: 0.08
    }
    bias_filler {
      type: "constant"
      value: 0.2
    }
  }
}
layer {
  name: "loss1/relu_conv"
  type: "ReLU"
  bottom: "loss1/conv"
  top: "loss1/conv"
}
layer {
  name: "loss1/fc"
  type: "InnerProduct"
  bottom: "loss1/conv"
  top: "loss1/fc"
  param {
    lr_mult: 1
    decay_mult: 1
  }
  param {
    lr_mult: 2
    decay_mult: 0
  }
  inner_product_param {
    num_output: 1024
    weight_filler {
      type: "xavier"
      std: 0.02
    }
    bias_filler {
      type: "constant"
      value: 0.2
    }
  }
}
layer {
  name: "loss1/relu_fc"
  type: "ReLU"
  bottom: "loss1/fc"
  top: "loss1/fc"
}
layer {
  name: "loss1/drop_fc"
  type: "Dropout"
  bottom: "loss1/fc"
  top: "loss1/fc"
  dropout_param {
    dropout_ratio: 0.7
  }
}
layer {
  name: "loss1/classifier_plantvillage"
  type: "InnerProduct"
  bottom: "loss1/fc"
  top: "loss1/classifier_plantvillage"
  param {
    lr_mult: 1
    decay_mult: 1
  }
  param {
    lr_mult: 2
    decay_mult: 0
  }
  inner_product_param {
    num_output: 38
    weight_filler {
      type: "xavier"
      std: 0.0009765625
    }
    bias_filler {
      type: "constant"
      value: 0
    }
  }
}
layer {
  name: "inception_4b/1x1"
  type: "Convolution"
  bottom: "inception_4a/output"
  top: "inception_4b/1x1"
  param {
    lr_mult: 1
    decay_mult: 1
  }
  param {
    lr_mult: 2
    decay_mult: 0
  }
  convolution_param {
    num_output: 160
    kernel_size: 1
    weight_filler {
      type: "xavier"
      std: 0.03
    }
    bias_filler {
      type: "constant"
      value: 0.2
    }
  }
}
layer {
  name: "inception_4b/relu_1x1"
  type: "ReLU"
  bottom: "inception_4b/1x1"
  top: "inception_4b/1x1"
}
layer {
  name: "inception_4b/3x3_reduce"
  type: "Convolution"
  bottom: "inception_4a/output"
  top: "inception_4b/3x3_reduce"
  param {
    lr_mult: 1
    decay_mult: 1
  }
  param {
    lr_mult: 2
    decay_mult: 0
  }
  convolution_param {
    num_output: 112
    kernel_size: 1
    weight_filler {
      type: "xavier"
      std: 0.09
    }
    bias_filler {
      type: "constant"
      value: 0.2
    }
  }
}
layer {
  name: "inception_4b/relu_3x3_reduce"
  type: "ReLU"
  bottom: "inception_4b/3x3_reduce"
  top: "inception_4b/3x3_reduce"
}
layer {
  name: "inception_4b/3x3"
  type: "Convolution"
  bottom: "inception_4b/3x3_reduce"
  top: "inception_4b/3x3"
  param {
    lr_mult: 1
    decay_mult: 1
  }
  param {
    lr_mult: 2
    decay_mult: 0
  }
  convolution_param {
    num_output: 224
    pad: 1
    kernel_size: 3
    weight_filler {
      type: "xavier"
      std: 0.03
    }
    bias_filler {
      type: "constant"
      value: 0.2
    }
  }
}
layer {
  name: "inception_4b/relu_3x3"
  type: "ReLU"
  bottom: "inception_4b/3x3"
  top: "inception_4b/3x3"
}
layer {
  name: "inception_4b/5x5_reduce"
  type: "Convolution"
  bottom: "inception_4a/output"
  top: "inception_4b/5x5_reduce"
  param {
    lr_mult: 1
    decay_mult: 1
  }
  param {
    lr_mult: 2
    decay_mult: 0
  }
  convolution_param {
    num_output: 24
    kernel_size: 1
    weight_filler {
      type: "xavier"
      std: 0.2
    }
    bias_filler {
      type: "constant"
      value: 0.2
    }
  }
}
layer {
  name: "inception_4b/relu_5x5_reduce"
  type: "ReLU"
  bottom: "inception_4b/5x5_reduce"
  top: "inception_4b/5x5_reduce"
}
layer {
  name: "inception_4b/5x5"
  type: "Convolution"
  bottom: "inception_4b/5x5_reduce"
  top: "inception_4b/5x5"
  param {
    lr_mult: 1
    decay_mult: 1
  }
  param {
    lr_mult: 2
    decay_mult: 0
  }
  convolution_param {
    num_output: 64
    pad: 2
    kernel_size: 5
    weight_filler {
      type: "xavier"
      std: 0.03
    }
    bias_filler {
      type: "constant"
      value: 0.2
    }
  }
}
layer {
  name: "inception_4b/relu_5x5"
  type: "ReLU"
  bottom: "inception_4b/5x5"
  top: "inception_4b/5x5"
}
layer {
  name: "inception_4b/pool"
  type: "Pooling"
  bottom: "inception_4a/output"
  top: "inception_4b/pool"
  pooling_param {
    pool: MAX
    kernel_size: 3
    stride: 1
    pad: 1
  }
}
layer {
  name: "inception_4b/pool_proj"
  type: "Convolution"
  bottom: "inception_4b/pool"
  top: "inception_4b/pool_proj"
  param {
    lr_mult: 1
    decay_mult: 1
  }
  param {
    lr_mult: 2
    decay_mult: 0
  }
  convolution_param {
    num_output: 64
    kernel_size: 1
    weight_filler {
      type: "xavier"
      std: 0.1
    }
    bias_filler {
      type: "constant"
      value: 0.2
    }
  }
}
layer {
  name: "inception_4b/relu_pool_proj"
  type: "ReLU"
  bottom: "inception_4b/pool_proj"
  top: "inception_4b/pool_proj"
}
layer {
  name: "inception_4b/output"
  type: "Concat"
  bottom: "inception_4b/1x1"
  bottom: "inception_4b/3x3"
  bottom: "inception_4b/5x5"
  bottom: "inception_4b/pool_proj"
  top: "inception_4b/output"
}
layer {
  name: "inception_4c/1x1"
  type: "Convolution"
  bottom: "inception_4b/output"
  top: "inception_4c/1x1"
  param {
    lr_mult: 1
    decay_mult: 1
  }
  param {
    lr_mult: 2
    decay_mult: 0
  }
  convolution_param {
    num_output: 128
    kernel_size: 1
    weight_filler {
      type: "xavier"
      std: 0.03
    }
    bias_filler {
      type: "constant"
      value: 0.2
    }
  }
}
layer {
  name: "inception_4c/relu_1x1"
  type: "ReLU"
  bottom: "inception_4c/1x1"
  top: "inception_4c/1x1"
}
layer {
  name: "inception_4c/3x3_reduce"
  type: "Convolution"
  bottom: "inception_4b/output"
  top: "inception_4c/3x3_reduce"
  param {
    lr_mult: 1
    decay_mult: 1
  }
  param {
    lr_mult: 2
    decay_mult: 0
  }
  convolution_param {
    num_output: 128
    kernel_size: 1
    weight_filler {
      type: "xavier"
      std: 0.09
    }
    bias_filler {
      type: "constant"
      value: 0.2
    }
  }
}
layer {
  name: "inception_4c/relu_3x3_reduce"
  type: "ReLU"
  bottom: "inception_4c/3x3_reduce"
  top: "inception_4c/3x3_reduce"
}
layer {
  name: "inception_4c/3x3"
  type: "Convolution"
  bottom: "inception_4c/3x3_reduce"
  top: "inception_4c/3x3"
  param {
    lr_mult: 1
    decay_mult: 1
  }
  param {
    lr_mult: 2
    decay_mult: 0
  }
  convolution_param {
    num_output: 256
    pad: 1
    kernel_size: 3
    weight_filler {
      type: "xavier"
      std: 0.03
    }
    bias_filler {
      type: "constant"
      value: 0.2
    }
  }
}
layer {
  name: "inception_4c/relu_3x3"
  type: "ReLU"
  bottom: "inception_4c/3x3"
  top: "inception_4c/3x3"
}
layer {
  name: "inception_4c/5x5_reduce"
  type: "Convolution"
  bottom: "inception_4b/output"
  top: "inception_4c/5x5_reduce"
  param {
    lr_mult: 1
    decay_mult: 1
  }
  param {
    lr_mult: 2
    decay_mult: 0
  }
  convolution_param {
    num_output: 24
    kernel_size: 1
    weight_filler {
      type: "xavier"
      std: 0.2
    }
    bias_filler {
      type: "constant"
      value: 0.2
    }
  }
}
layer {
  name: "inception_4c/relu_5x5_reduce"
  type: "ReLU"
  bottom: "inception_4c/5x5_reduce"
  top: "inception_4c/5x5_reduce"
}
layer {
  name: "inception_4c/5x5"
  type: "Convolution"
  bottom: "inception_4c/5x5_reduce"
  top: "inception_4c/5x5"
  param {
    lr_mult: 1
    decay_mult: 1
  }
  param {
    lr_mult: 2
    decay_mult: 0
  }
  convolution_param {
    num_output: 64
    pad: 2
    kernel_size: 5
    weight_filler {
      type: "xavier"
      std: 0.03
    }
    bias_filler {
      type: "constant"
      value: 0.2
    }
  }
}
layer {
  name: "inception_4c/relu_5x5"
  type: "ReLU"
  bottom: "inception_4c/5x5"
  top: "inception_4c/5x5"
}
layer {
  name: "inception_4c/pool"
  type: "Pooling"
  bottom: "inception_4b/output"
  top: "inception_4c/pool"
  pooling_param {
    pool: MAX
    kernel_size: 3
    stride: 1
    pad: 1
  }
}
layer {
  name: "inception_4c/pool_proj"
  type: "Convolution"
  bottom: "inception_4c/pool"
  top: "inception_4c/pool_proj"
  param {
    lr_mult: 1
    decay_mult: 1
  }
  param {
    lr_mult: 2
    decay_mult: 0
  }
  convolution_param {
    num_output: 64
    kernel_size: 1
    weight_filler {
      type: "xavier"
      std: 0.1
    }
    bias_filler {
      type: "constant"
      value: 0.2
    }
  }
}
layer {
  name: "inception_4c/relu_pool_proj"
  type: "ReLU"
  bottom: "inception_4c/pool_proj"
  top: "inception_4c/pool_proj"
}
layer {
  name: "inception_4c/output"
  type: "Concat"
  bottom: "inception_4c/1x1"
  bottom: "inception_4c/3x3"
  bottom: "inception_4c/5x5"
  bottom: "inception_4c/pool_proj"
  top: "inception_4c/output"
}
layer {
  name: "inception_4d/1x1"
  type: "Convolution"
  bottom: "inception_4c/output"
  top: "inception_4d/1x1"
  param {
    lr_mult: 1
    decay_mult: 1
  }
  param {
    lr_mult: 2
    decay_mult: 0
  }
  convolution_param {
    num_output: 112
    kernel_size: 1
    weight_filler {
      type: "xavier"
      std: 0.03
    }
    bias_filler {
      type: "constant"
      value: 0.2
    }
  }
}
layer {
  name: "inception_4d/relu_1x1"
  type: "ReLU"
  bottom: "inception_4d/1x1"
  top: "inception_4d/1x1"
}
layer {
  name: "inception_4d/3x3_reduce"
  type: "Convolution"
  bottom: "inception_4c/output"
  top: "inception_4d/3x3_reduce"
  param {
    lr_mult: 1
    decay_mult: 1
  }
  param {
    lr_mult: 2
    decay_mult: 0
  }
  convolution_param {
    num_output: 144
    kernel_size: 1
    weight_filler {
      type: "xavier"
      std: 0.09
    }
    bias_filler {
      type: "constant"
      value: 0.2
    }
  }
}
layer {
  name: "inception_4d/relu_3x3_reduce"
  type: "ReLU"
  bottom: "inception_4d/3x3_reduce"
  top: "inception_4d/3x3_reduce"
}
layer {
  name: "inception_4d/3x3"
  type: "Convolution"
  bottom: "inception_4d/3x3_reduce"
  top: "inception_4d/3x3"
  param {
    lr_mult: 1
    decay_mult: 1
  }
  param {
    lr_mult: 2
    decay_mult: 0
  }
  convolution_param {
    num_output: 288
    pad: 1
    kernel_size: 3
    weight_filler {
      type: "xavier"
      std: 0.03
    }
    bias_filler {
      type: "constant"
      value: 0.2
    }
  }
}
layer {
  name: "inception_4d/relu_3x3"
  type: "ReLU"
  bottom: "inception_4d/3x3"
  top: "inception_4d/3x3"
}
layer {
  name: "inception_4d/5x5_reduce"
  type: "Convolution"
  bottom: "inception_4c/output"
  top: "inception_4d/5x5_reduce"
  param {
    lr_mult: 1
    decay_mult: 1
  }
  param {
    lr_mult: 2
    decay_mult: 0
  }
  convolution_param {
    num_output: 32
    kernel_size: 1
    weight_filler {
      type: "xavier"
      std: 0.2
    }
    bias_filler {
      type: "constant"
      value: 0.2
    }
  }
}
layer {
  name: "inception_4d/relu_5x5_reduce"
  type: "ReLU"
  bottom: "inception_4d/5x5_reduce"
  top: "inception_4d/5x5_reduce"
}
layer {
  name: "inception_4d/5x5"
  type: "Convolution"
  bottom: "inception_4d/5x5_reduce"
  top: "inception_4d/5x5"
  param {
    lr_mult: 1
    decay_mult: 1
  }
  param {
    lr_mult: 2
    decay_mult: 0
  }
  convolution_param {
    num_output: 64
    pad: 2
    kernel_size: 5
    weight_filler {
      type: "xavier"
      std: 0.03
    }
    bias_filler {
      type: "constant"
      value: 0.2
    }
  }
}
layer {
  name: "inception_4d/relu_5x5"
  type: "ReLU"
  bottom: "inception_4d/5x5"
  top: "inception_4d/5x5"
}
layer {
  name: "inception_4d/pool"
  type: "Pooling"
  bottom: "inception_4c/output"
  top: "inception_4d/pool"
  pooling_param {
    pool: MAX
    kernel_size: 3
    stride: 1
    pad: 1
  }
}
layer {
  name: "inception_4d/pool_proj"
  type: "Convolution"
  bottom: "inception_4d/pool"
  top: "inception_4d/pool_proj"
  param {
    lr_mult: 1
    decay_mult: 1
  }
  param {
    lr_mult: 2
    decay_mult: 0
  }
  convolution_param {
    num_output: 64
    kernel_size: 1
    weight_filler {
      type: "xavier"
      std: 0.1
    }
    bias_filler {
      type: "constant"
      value: 0.2
    }
  }
}
layer {
  name: "inception_4d/relu_pool_proj"
  type: "ReLU"
  bottom: "inception_4d/pool_proj"
  top: "inception_4d/pool_proj"
}
layer {
  name: "inception_4d/output"
  type: "Concat"
  bottom: "inception_4d/1x1"
  bottom: "inception_4d/3x3"
  bottom: "inception_4d/5x5"
  bottom: "inception_4d/pool_proj"
  top: "inception_4d/output"
}
layer {
  name: "loss2/ave_pool"
  type: "Pooling"
  bottom: "inception_4d/output"
  top: "loss2/ave_pool"
  pooling_param {
    pool: AVE
    kernel_size: 5
    stride: 3
  }
}
layer {
  name: "loss2/conv"
  type: "Convolution"
  bottom: "loss2/ave_pool"
  top: "loss2/conv"
  param {
    lr_mult: 1
    decay_mult: 1
  }
  param {
    lr_mult: 2
    decay_mult: 0
  }
  convolution_param {
    num_output: 128
    kernel_size: 1
    weight_filler {
      type: "xavier"
      std: 0.08
    }
    bias_filler {
      type: "constant"
      value: 0.2
    }
  }
}
layer {
  name: "loss2/relu_conv"
  type: "ReLU"
  bottom: "loss2/conv"
  top: "loss2/conv"
}
layer {
  name: "loss2/fc"
  type: "InnerProduct"
  bottom: "loss2/conv"
  top: "loss2/fc"
  param {
    lr_mult: 1
    decay_mult: 1
  }
  param {
    lr_mult: 2
    decay_mult: 0
  }
  inner_product_param {
    num_output: 1024
    weight_filler {
      type: "xavier"
      std: 0.02
    }
    bias_filler {
      type: "constant"
      value: 0.2
    }
  }
}
layer {
  name: "loss2/relu_fc"
  type: "ReLU"
  bottom: "loss2/fc"
  top: "loss2/fc"
}
layer {
  name: "loss2/drop_fc"
  type: "Dropout"
  bottom: "loss2/fc"
  top: "loss2/fc"
  dropout_param {
    dropout_ratio: 0.7
  }
}
layer {
  name: "loss2/classifier_plantvillage"
  type: "InnerProduct"
  bottom: "loss2/fc"
  top: "loss2/classifier_plantvillage"
  param {
    lr_mult: 1
    decay_mult: 1
  }
  param {
    lr_mult: 2
    decay_mult: 0
  }
  inner_product_param {
    num_output: 38
    weight_filler {
      type: "xavier"
      std: 0.0009765625
    }
    bias_filler {
      type: "constant"
      value: 0
    }
  }
}
layer {
  name: "inception_4e/1x1"
  type: "Convolution"
  bottom: "inception_4d/output"
  top: "inception_4e/1x1"
  param {
    lr_mult: 1
    decay_mult: 1
  }
  param {
    lr_mult: 2
    decay_mult: 0
  }
  convolution_param {
    num_output: 256
    kernel_size: 1
    weight_filler {
      type: "xavier"
      std: 0.03
    }
    bias_filler {
      type: "constant"
      value: 0.2
    }
  }
}
layer {
  name: "inception_4e/relu_1x1"
  type: "ReLU"
  bottom: "inception_4e/1x1"
  top: "inception_4e/1x1"
}
layer {
  name: "inception_4e/3x3_reduce"
  type: "Convolution"
  bottom: "inception_4d/output"
  top: "inception_4e/3x3_reduce"
  param {
    lr_mult: 1
    decay_mult: 1
  }
  param {
    lr_mult: 2
    decay_mult: 0
  }
  convolution_param {
    num_output: 160
    kernel_size: 1
    weight_filler {
      type: "xavier"
      std: 0.09
    }
    bias_filler {
      type: "constant"
      value: 0.2
    }
  }
}
layer {
  name: "inception_4e/relu_3x3_reduce"
  type: "ReLU"
  bottom: "inception_4e/3x3_reduce"
  top: "inception_4e/3x3_reduce"
}
layer {
  name: "inception_4e/3x3"
  type: "Convolution"
  bottom: "inception_4e/3x3_reduce"
  top: "inception_4e/3x3"
  param {
    lr_mult: 1
    decay_mult: 1
  }
  param {
    lr_mult: 2
    decay_mult: 0
  }
  convolution_param {
    num_output: 320
    pad: 1
    kernel_size: 3
    weight_filler {
      type: "xavier"
      std: 0.03
    }
    bias_filler {
      type: "constant"
      value: 0.2
    }
  }
}
layer {
  name: "inception_4e/relu_3x3"
  type: "ReLU"
  bottom: "inception_4e/3x3"
  top: "inception_4e/3x3"
}
layer {
  name: "inception_4e/5x5_reduce"
  type: "Convolution"
  bottom: "inception_4d/output"
  top: "inception_4e/5x5_reduce"
  param {
    lr_mult: 1
    decay_mult: 1
  }
  param {
    lr_mult: 2
    decay_mult: 0
  }
  convolution_param {
    num_output: 32
    kernel_size: 1
    weight_filler {
      type: "xavier"
      std: 0.2
    }
    bias_filler {
      type: "constant"
      value: 0.2
    }
  }
}
layer {
  name: "inception_4e/relu_5x5_reduce"
  type: "ReLU"
  bottom: "inception_4e/5x5_reduce"
  top: "inception_4e/5x5_reduce"
}
layer {
  name: "inception_4e/5x5"
  type: "Convolution"
  bottom: "inception_4e/5x5_reduce"
  top: "inception_4e/5x5"
  p
I0403 19:30:50.034502  9331 layer_factory.hpp:77] Creating layer data
I0403 19:30:50.035081  9331 net.cpp:91] Creating Layer data
I0403 19:30:50.035115  9331 net.cpp:399] data -> data
I0403 19:30:50.035171  9331 net.cpp:399] data -> label
I0403 19:30:50.035210  9331 data_transformer.cpp:25] Loading mean file from: /home/mohanty/data/final_dataset/lmdb/color-60-40/mean.binaryproto
I0403 19:30:50.036420  9333 db_lmdb.cpp:38] Opened lmdb /home/mohanty/data/final_dataset/lmdb/color-60-40/test_db
I0403 19:30:50.048099  9331 data_layer.cpp:41] output data size: 24,3,224,224
I0403 19:30:50.074091  9331 net.cpp:141] Setting up data
I0403 19:30:50.074167  9331 net.cpp:148] Top shape: 24 3 224 224 (3612672)
I0403 19:30:50.074189  9331 net.cpp:148] Top shape: 24 (24)
I0403 19:30:50.074208  9331 net.cpp:156] Memory required for data: 14450784
I0403 19:30:50.074239  9331 layer_factory.hpp:77] Creating layer label_data_1_split
I0403 19:30:50.074277  9331 net.cpp:91] Creating Layer label_data_1_split
I0403 19:30:50.074296  9331 net.cpp:425] label_data_1_split <- label
I0403 19:30:50.074331  9331 net.cpp:399] label_data_1_split -> label_data_1_split_0
I0403 19:30:50.074360  9331 net.cpp:399] label_data_1_split -> label_data_1_split_1
I0403 19:30:50.074383  9331 net.cpp:399] label_data_1_split -> label_data_1_split_2
I0403 19:30:50.074404  9331 net.cpp:399] label_data_1_split -> label_data_1_split_3
I0403 19:30:50.074422  9331 net.cpp:399] label_data_1_split -> label_data_1_split_4
I0403 19:30:50.074441  9331 net.cpp:399] label_data_1_split -> label_data_1_split_5
I0403 19:30:50.074470  9331 net.cpp:399] label_data_1_split -> label_data_1_split_6
I0403 19:30:50.074493  9331 net.cpp:399] label_data_1_split -> label_data_1_split_7
I0403 19:30:50.074514  9331 net.cpp:399] label_data_1_split -> label_data_1_split_8
I0403 19:30:50.074534  9331 net.cpp:399] label_data_1_split -> label_data_1_split_9
I0403 19:30:50.074647  9331 net.cpp:141] Setting up label_data_1_split
I0403 19:30:50.074671  9331 net.cpp:148] Top shape: 24 (24)
I0403 19:30:50.074687  9331 net.cpp:148] Top shape: 24 (24)
I0403 19:30:50.074703  9331 net.cpp:148] Top shape: 24 (24)
I0403 19:30:50.074719  9331 net.cpp:148] Top shape: 24 (24)
I0403 19:30:50.074735  9331 net.cpp:148] Top shape: 24 (24)
I0403 19:30:50.074751  9331 net.cpp:148] Top shape: 24 (24)
I0403 19:30:50.074767  9331 net.cpp:148] Top shape: 24 (24)
I0403 19:30:50.074784  9331 net.cpp:148] Top shape: 24 (24)
I0403 19:30:50.074800  9331 net.cpp:148] Top shape: 24 (24)
I0403 19:30:50.074815  9331 net.cpp:148] Top shape: 24 (24)
I0403 19:30:50.074870  9331 net.cpp:156] Memory required for data: 14451744
I0403 19:30:50.074887  9331 layer_factory.hpp:77] Creating layer conv1/7x7_s2
I0403 19:30:50.074923  9331 net.cpp:91] Creating Layer conv1/7x7_s2
I0403 19:30:50.074941  9331 net.cpp:425] conv1/7x7_s2 <- data
I0403 19:30:50.074960  9331 net.cpp:399] conv1/7x7_s2 -> conv1/7x7_s2
I0403 19:30:50.210582  9331 net.cpp:141] Setting up conv1/7x7_s2
I0403 19:30:50.210657  9331 net.cpp:148] Top shape: 24 64 112 112 (19267584)
I0403 19:30:50.210675  9331 net.cpp:156] Memory required for data: 91522080
I0403 19:30:50.210710  9331 layer_factory.hpp:77] Creating layer conv1/relu_7x7
I0403 19:30:50.210737  9331 net.cpp:91] Creating Layer conv1/relu_7x7
I0403 19:30:50.210757  9331 net.cpp:425] conv1/relu_7x7 <- conv1/7x7_s2
I0403 19:30:50.210774  9331 net.cpp:386] conv1/relu_7x7 -> conv1/7x7_s2 (in-place)
I0403 19:30:50.211026  9331 net.cpp:141] Setting up conv1/relu_7x7
I0403 19:30:50.211053  9331 net.cpp:148] Top shape: 24 64 112 112 (19267584)
I0403 19:30:50.211069  9331 net.cpp:156] Memory required for data: 168592416
I0403 19:30:50.211084  9331 layer_factory.hpp:77] Creating layer pool1/3x3_s2
I0403 19:30:50.211110  9331 net.cpp:91] Creating Layer pool1/3x3_s2
I0403 19:30:50.211128  9331 net.cpp:425] pool1/3x3_s2 <- conv1/7x7_s2
I0403 19:30:50.211148  9331 net.cpp:399] pool1/3x3_s2 -> pool1/3x3_s2
I0403 19:30:50.211246  9331 net.cpp:141] Setting up pool1/3x3_s2
I0403 19:30:50.211272  9331 net.cpp:148] Top shape: 24 64 56 56 (4816896)
I0403 19:30:50.211287  9331 net.cpp:156] Memory required for data: 187860000
I0403 19:30:50.211302  9331 layer_factory.hpp:77] Creating layer pool1/norm1
I0403 19:30:50.211328  9331 net.cpp:91] Creating Layer pool1/norm1
I0403 19:30:50.211345  9331 net.cpp:425] pool1/norm1 <- pool1/3x3_s2
I0403 19:30:50.211362  9331 net.cpp:399] pool1/norm1 -> pool1/norm1
I0403 19:30:50.211653  9331 net.cpp:141] Setting up pool1/norm1
I0403 19:30:50.211680  9331 net.cpp:148] Top shape: 24 64 56 56 (4816896)
I0403 19:30:50.211697  9331 net.cpp:156] Memory required for data: 207127584
I0403 19:30:50.211714  9331 layer_factory.hpp:77] Creating layer conv2/3x3_reduce
I0403 19:30:50.211740  9331 net.cpp:91] Creating Layer conv2/3x3_reduce
I0403 19:30:50.211755  9331 net.cpp:425] conv2/3x3_reduce <- pool1/norm1
I0403 19:30:50.211774  9331 net.cpp:399] conv2/3x3_reduce -> conv2/3x3_reduce
I0403 19:30:50.213182  9331 net.cpp:141] Setting up conv2/3x3_reduce
I0403 19:30:50.213213  9331 net.cpp:148] Top shape: 24 64 56 56 (4816896)
I0403 19:30:50.213230  9331 net.cpp:156] Memory required for data: 226395168
I0403 19:30:50.213251  9331 layer_factory.hpp:77] Creating layer conv2/relu_3x3_reduce
I0403 19:30:50.213270  9331 net.cpp:91] Creating Layer conv2/relu_3x3_reduce
I0403 19:30:50.213287  9331 net.cpp:425] conv2/relu_3x3_reduce <- conv2/3x3_reduce
I0403 19:30:50.213307  9331 net.cpp:386] conv2/relu_3x3_reduce -> conv2/3x3_reduce (in-place)
I0403 19:30:50.213574  9331 net.cpp:141] Setting up conv2/relu_3x3_reduce
I0403 19:30:50.213601  9331 net.cpp:148] Top shape: 24 64 56 56 (4816896)
I0403 19:30:50.213620  9331 net.cpp:156] Memory required for data: 245662752
I0403 19:30:50.213635  9331 layer_factory.hpp:77] Creating layer conv2/3x3
I0403 19:30:50.213659  9331 net.cpp:91] Creating Layer conv2/3x3
I0403 19:30:50.213675  9331 net.cpp:425] conv2/3x3 <- conv2/3x3_reduce
I0403 19:30:50.213696  9331 net.cpp:399] conv2/3x3 -> conv2/3x3
I0403 19:30:50.215962  9331 net.cpp:141] Setting up conv2/3x3
I0403 19:30:50.216015  9331 net.cpp:148] Top shape: 24 192 56 56 (14450688)
I0403 19:30:50.216035  9331 net.cpp:156] Memory required for data: 303465504
I0403 19:30:50.216056  9331 layer_factory.hpp:77] Creating layer conv2/relu_3x3
I0403 19:30:50.216078  9331 net.cpp:91] Creating Layer conv2/relu_3x3
I0403 19:30:50.216094  9331 net.cpp:425] conv2/relu_3x3 <- conv2/3x3
I0403 19:30:50.216111  9331 net.cpp:386] conv2/relu_3x3 -> conv2/3x3 (in-place)
I0403 19:30:50.216284  9331 net.cpp:141] Setting up conv2/relu_3x3
I0403 19:30:50.216312  9331 net.cpp:148] Top shape: 24 192 56 56 (14450688)
I0403 19:30:50.216362  9331 net.cpp:156] Memory required for data: 361268256
I0403 19:30:50.216378  9331 layer_factory.hpp:77] Creating layer conv2/norm2
I0403 19:30:50.216397  9331 net.cpp:91] Creating Layer conv2/norm2
I0403 19:30:50.216411  9331 net.cpp:425] conv2/norm2 <- conv2/3x3
I0403 19:30:50.216433  9331 net.cpp:399] conv2/norm2 -> conv2/norm2
I0403 19:30:50.216737  9331 net.cpp:141] Setting up conv2/norm2
I0403 19:30:50.216764  9331 net.cpp:148] Top shape: 24 192 56 56 (14450688)
I0403 19:30:50.216779  9331 net.cpp:156] Memory required for data: 419071008
I0403 19:30:50.216795  9331 layer_factory.hpp:77] Creating layer pool2/3x3_s2
I0403 19:30:50.216814  9331 net.cpp:91] Creating Layer pool2/3x3_s2
I0403 19:30:50.216828  9331 net.cpp:425] pool2/3x3_s2 <- conv2/norm2
I0403 19:30:50.216848  9331 net.cpp:399] pool2/3x3_s2 -> pool2/3x3_s2
I0403 19:30:50.216900  9331 net.cpp:141] Setting up pool2/3x3_s2
I0403 19:30:50.216924  9331 net.cpp:148] Top shape: 24 192 28 28 (3612672)
I0403 19:30:50.216938  9331 net.cpp:156] Memory required for data: 433521696
I0403 19:30:50.216953  9331 layer_factory.hpp:77] Creating layer pool2/3x3_s2_pool2/3x3_s2_0_split
I0403 19:30:50.216972  9331 net.cpp:91] Creating Layer pool2/3x3_s2_pool2/3x3_s2_0_split
I0403 19:30:50.216987  9331 net.cpp:425] pool2/3x3_s2_pool2/3x3_s2_0_split <- pool2/3x3_s2
I0403 19:30:50.217007  9331 net.cpp:399] pool2/3x3_s2_pool2/3x3_s2_0_split -> pool2/3x3_s2_pool2/3x3_s2_0_split_0
I0403 19:30:50.217031  9331 net.cpp:399] pool2/3x3_s2_pool2/3x3_s2_0_split -> pool2/3x3_s2_pool2/3x3_s2_0_split_1
I0403 19:30:50.217051  9331 net.cpp:399] pool2/3x3_s2_pool2/3x3_s2_0_split -> pool2/3x3_s2_pool2/3x3_s2_0_split_2
I0403 19:30:50.217072  9331 net.cpp:399] pool2/3x3_s2_pool2/3x3_s2_0_split -> pool2/3x3_s2_pool2/3x3_s2_0_split_3
I0403 19:30:50.217138  9331 net.cpp:141] Setting up pool2/3x3_s2_pool2/3x3_s2_0_split
I0403 19:30:50.217160  9331 net.cpp:148] Top shape: 24 192 28 28 (3612672)
I0403 19:30:50.217177  9331 net.cpp:148] Top shape: 24 192 28 28 (3612672)
I0403 19:30:50.217193  9331 net.cpp:148] Top shape: 24 192 28 28 (3612672)
I0403 19:30:50.217208  9331 net.cpp:148] Top shape: 24 192 28 28 (3612672)
I0403 19:30:50.217222  9331 net.cpp:156] Memory required for data: 491324448
I0403 19:30:50.217236  9331 layer_factory.hpp:77] Creating layer inception_3a/1x1
I0403 19:30:50.217258  9331 net.cpp:91] Creating Layer inception_3a/1x1
I0403 19:30:50.217275  9331 net.cpp:425] inception_3a/1x1 <- pool2/3x3_s2_pool2/3x3_s2_0_split_0
I0403 19:30:50.217296  9331 net.cpp:399] inception_3a/1x1 -> inception_3a/1x1
I0403 19:30:50.218782  9331 net.cpp:141] Setting up inception_3a/1x1
I0403 19:30:50.218811  9331 net.cpp:148] Top shape: 24 64 28 28 (1204224)
I0403 19:30:50.218827  9331 net.cpp:156] Memory required for data: 496141344
I0403 19:30:50.218847  9331 layer_factory.hpp:77] Creating layer inception_3a/relu_1x1
I0403 19:30:50.218866  9331 net.cpp:91] Creating Layer inception_3a/relu_1x1
I0403 19:30:50.218881  9331 net.cpp:425] inception_3a/relu_1x1 <- inception_3a/1x1
I0403 19:30:50.218899  9331 net.cpp:386] inception_3a/relu_1x1 -> inception_3a/1x1 (in-place)
I0403 19:30:50.219065  9331 net.cpp:141] Setting up inception_3a/relu_1x1
I0403 19:30:50.219090  9331 net.cpp:148] Top shape: 24 64 28 28 (1204224)
I0403 19:30:50.219105  9331 net.cpp:156] Memory required for data: 500958240
I0403 19:30:50.219120  9331 layer_factory.hpp:77] Creating layer inception_3a/3x3_reduce
I0403 19:30:50.219141  9331 net.cpp:91] Creating Layer inception_3a/3x3_reduce
I0403 19:30:50.219161  9331 net.cpp:425] inception_3a/3x3_reduce <- pool2/3x3_s2_pool2/3x3_s2_0_split_1
I0403 19:30:50.219182  9331 net.cpp:399] inception_3a/3x3_reduce -> inception_3a/3x3_reduce
I0403 19:30:50.220784  9331 net.cpp:141] Setting up inception_3a/3x3_reduce
I0403 19:30:50.220813  9331 net.cpp:148] Top shape: 24 96 28 28 (1806336)
I0403 19:30:50.220829  9331 net.cpp:156] Memory required for data: 508183584
I0403 19:30:50.220850  9331 layer_factory.hpp:77] Creating layer inception_3a/relu_3x3_reduce
I0403 19:30:50.220886  9331 net.cpp:91] Creating Layer inception_3a/relu_3x3_reduce
I0403 19:30:50.220904  9331 net.cpp:425] inception_3a/relu_3x3_reduce <- inception_3a/3x3_reduce
I0403 19:30:50.220921  9331 net.cpp:386] inception_3a/relu_3x3_reduce -> inception_3a/3x3_reduce (in-place)
I0403 19:30:50.221091  9331 net.cpp:141] Setting up inception_3a/relu_3x3_reduce
I0403 19:30:50.221114  9331 net.cpp:148] Top shape: 24 96 28 28 (1806336)
I0403 19:30:50.221129  9331 net.cpp:156] Memory required for data: 515408928
I0403 19:30:50.221144  9331 layer_factory.hpp:77] Creating layer inception_3a/3x3
I0403 19:30:50.221166  9331 net.cpp:91] Creating Layer inception_3a/3x3
I0403 19:30:50.221184  9331 net.cpp:425] inception_3a/3x3 <- inception_3a/3x3_reduce
I0403 19:30:50.221205  9331 net.cpp:399] inception_3a/3x3 -> inception_3a/3x3
I0403 19:30:50.222756  9331 net.cpp:141] Setting up inception_3a/3x3
I0403 19:30:50.222784  9331 net.cpp:148] Top shape: 24 128 28 28 (2408448)
I0403 19:30:50.222800  9331 net.cpp:156] Memory required for data: 525042720
I0403 19:30:50.222817  9331 layer_factory.hpp:77] Creating layer inception_3a/relu_3x3
I0403 19:30:50.222836  9331 net.cpp:91] Creating Layer inception_3a/relu_3x3
I0403 19:30:50.222853  9331 net.cpp:425] inception_3a/relu_3x3 <- inception_3a/3x3
I0403 19:30:50.222870  9331 net.cpp:386] inception_3a/relu_3x3 -> inception_3a/3x3 (in-place)
I0403 19:30:50.223131  9331 net.cpp:141] Setting up inception_3a/relu_3x3
I0403 19:30:50.223157  9331 net.cpp:148] Top shape: 24 128 28 28 (2408448)
I0403 19:30:50.223173  9331 net.cpp:156] Memory required for data: 534676512
I0403 19:30:50.223187  9331 layer_factory.hpp:77] Creating layer inception_3a/5x5_reduce
I0403 19:30:50.223211  9331 net.cpp:91] Creating Layer inception_3a/5x5_reduce
I0403 19:30:50.223227  9331 net.cpp:425] inception_3a/5x5_reduce <- pool2/3x3_s2_pool2/3x3_s2_0_split_2
I0403 19:30:50.223248  9331 net.cpp:399] inception_3a/5x5_reduce -> inception_3a/5x5_reduce
I0403 19:30:50.224161  9331 net.cpp:141] Setting up inception_3a/5x5_reduce
I0403 19:30:50.224189  9331 net.cpp:148] Top shape: 24 16 28 28 (301056)
I0403 19:30:50.224205  9331 net.cpp:156] Memory required for data: 535880736
I0403 19:30:50.224223  9331 layer_factory.hpp:77] Creating layer inception_3a/relu_5x5_reduce
I0403 19:30:50.224246  9331 net.cpp:91] Creating Layer inception_3a/relu_5x5_reduce
I0403 19:30:50.224261  9331 net.cpp:425] inception_3a/relu_5x5_reduce <- inception_3a/5x5_reduce
I0403 19:30:50.224278  9331 net.cpp:386] inception_3a/relu_5x5_reduce -> inception_3a/5x5_reduce (in-place)
I0403 19:30:50.224563  9331 net.cpp:141] Setting up inception_3a/relu_5x5_reduce
I0403 19:30:50.224591  9331 net.cpp:148] Top shape: 24 16 28 28 (301056)
I0403 19:30:50.224607  9331 net.cpp:156] Memory required for data: 537084960
I0403 19:30:50.224622  9331 layer_factory.hpp:77] Creating layer inception_3a/5x5
I0403 19:30:50.224643  9331 net.cpp:91] Creating Layer inception_3a/5x5
I0403 19:30:50.224661  9331 net.cpp:425] inception_3a/5x5 <- inception_3a/5x5_reduce
I0403 19:30:50.224678  9331 net.cpp:399] inception_3a/5x5 -> inception_3a/5x5
I0403 19:30:50.225651  9331 net.cpp:141] Setting up inception_3a/5x5
I0403 19:30:50.225677  9331 net.cpp:148] Top shape: 24 32 28 28 (602112)
I0403 19:30:50.225693  9331 net.cpp:156] Memory required for data: 539493408
I0403 19:30:50.225711  9331 layer_factory.hpp:77] Creating layer inception_3a/relu_5x5
I0403 19:30:50.225730  9331 net.cpp:91] Creating Layer inception_3a/relu_5x5
I0403 19:30:50.225749  9331 net.cpp:425] inception_3a/relu_5x5 <- inception_3a/5x5
I0403 19:30:50.225765  9331 net.cpp:386] inception_3a/relu_5x5 -> inception_3a/5x5 (in-place)
I0403 19:30:50.225926  9331 net.cpp:141] Setting up inception_3a/relu_5x5
I0403 19:30:50.225950  9331 net.cpp:148] Top shape: 24 32 28 28 (602112)
I0403 19:30:50.225965  9331 net.cpp:156] Memory required for data: 541901856
I0403 19:30:50.225980  9331 layer_factory.hpp:77] Creating layer inception_3a/pool
I0403 19:30:50.225999  9331 net.cpp:91] Creating Layer inception_3a/pool
I0403 19:30:50.226016  9331 net.cpp:425] inception_3a/pool <- pool2/3x3_s2_pool2/3x3_s2_0_split_3
I0403 19:30:50.226047  9331 net.cpp:399] inception_3a/pool -> inception_3a/pool
I0403 19:30:50.226104  9331 net.cpp:141] Setting up inception_3a/pool
I0403 19:30:50.226127  9331 net.cpp:148] Top shape: 24 192 28 28 (3612672)
I0403 19:30:50.226142  9331 net.cpp:156] Memory required for data: 556352544
I0403 19:30:50.226156  9331 layer_factory.hpp:77] Creating layer inception_3a/pool_proj
I0403 19:30:50.226177  9331 net.cpp:91] Creating Layer inception_3a/pool_proj
I0403 19:30:50.226196  9331 net.cpp:425] inception_3a/pool_proj <- inception_3a/pool
I0403 19:30:50.226217  9331 net.cpp:399] inception_3a/pool_proj -> inception_3a/pool_proj
I0403 19:30:50.227131  9331 net.cpp:141] Setting up inception_3a/pool_proj
I0403 19:30:50.227161  9331 net.cpp:148] Top shape: 24 32 28 28 (602112)
I0403 19:30:50.227177  9331 net.cpp:156] Memory required for data: 558760992
I0403 19:30:50.227200  9331 layer_factory.hpp:77] Creating layer inception_3a/relu_pool_proj
I0403 19:30:50.227221  9331 net.cpp:91] Creating Layer inception_3a/relu_pool_proj
I0403 19:30:50.227237  9331 net.cpp:425] inception_3a/relu_pool_proj <- inception_3a/pool_proj
I0403 19:30:50.227255  9331 net.cpp:386] inception_3a/relu_pool_proj -> inception_3a/pool_proj (in-place)
I0403 19:30:50.227520  9331 net.cpp:141] Setting up inception_3a/relu_pool_proj
I0403 19:30:50.227546  9331 net.cpp:148] Top shape: 24 32 28 28 (602112)
I0403 19:30:50.227560  9331 net.cpp:156] Memory required for data: 561169440
I0403 19:30:50.227576  9331 layer_factory.hpp:77] Creating layer inception_3a/output
I0403 19:30:50.227596  9331 net.cpp:91] Creating Layer inception_3a/output
I0403 19:30:50.227610  9331 net.cpp:425] inception_3a/output <- inception_3a/1x1
I0403 19:30:50.227627  9331 net.cpp:425] inception_3a/output <- inception_3a/3x3
I0403 19:30:50.227643  9331 net.cpp:425] inception_3a/output <- inception_3a/5x5
I0403 19:30:50.227658  9331 net.cpp:425] inception_3a/output <- inception_3a/pool_proj
I0403 19:30:50.227674  9331 net.cpp:399] inception_3a/output -> inception_3a/output
I0403 19:30:50.227720  9331 net.cpp:141] Setting up inception_3a/output
I0403 19:30:50.227741  9331 net.cpp:148] Top shape: 24 256 28 28 (4816896)
I0403 19:30:50.227756  9331 net.cpp:156] Memory required for data: 580437024
I0403 19:30:50.227771  9331 layer_factory.hpp:77] Creating layer inception_3a/output_inception_3a/output_0_split
I0403 19:30:50.227787  9331 net.cpp:91] Creating Layer inception_3a/output_inception_3a/output_0_split
I0403 19:30:50.227802  9331 net.cpp:425] inception_3a/output_inception_3a/output_0_split <- inception_3a/output
I0403 19:30:50.227821  9331 net.cpp:399] inception_3a/output_inception_3a/output_0_split -> inception_3a/output_inception_3a/output_0_split_0
I0403 19:30:50.227841  9331 net.cpp:399] inception_3a/output_inception_3a/output_0_split -> inception_3a/output_inception_3a/output_0_split_1
I0403 19:30:50.227862  9331 net.cpp:399] inception_3a/output_inception_3a/output_0_split -> inception_3a/output_inception_3a/output_0_split_2
I0403 19:30:50.227880  9331 net.cpp:399] inception_3a/output_inception_3a/output_0_split -> inception_3a/output_inception_3a/output_0_split_3
I0403 19:30:50.227955  9331 net.cpp:141] Setting up inception_3a/output_inception_3a/output_0_split
I0403 19:30:50.227978  9331 net.cpp:148] Top shape: 24 256 28 28 (4816896)
I0403 19:30:50.227995  9331 net.cpp:148] Top shape: 24 256 28 28 (4816896)
I0403 19:30:50.228013  9331 net.cpp:148] Top shape: 24 256 28 28 (4816896)
I0403 19:30:50.228027  9331 net.cpp:148] Top shape: 24 256 28 28 (4816896)
I0403 19:30:50.228041  9331 net.cpp:156] Memory required for data: 657507360
I0403 19:30:50.228055  9331 layer_factory.hpp:77] Creating layer inception_3b/1x1
I0403 19:30:50.228077  9331 net.cpp:91] Creating Layer inception_3b/1x1
I0403 19:30:50.228094  9331 net.cpp:425] inception_3b/1x1 <- inception_3a/output_inception_3a/output_0_split_0
I0403 19:30:50.228116  9331 net.cpp:399] inception_3b/1x1 -> inception_3b/1x1
I0403 19:30:50.229187  9331 net.cpp:141] Setting up inception_3b/1x1
I0403 19:30:50.229224  9331 net.cpp:148] Top shape: 24 128 28 28 (2408448)
I0403 19:30:50.229240  9331 net.cpp:156] Memory required for data: 667141152
I0403 19:30:50.229259  9331 layer_factory.hpp:77] Creating layer inception_3b/relu_1x1
I0403 19:30:50.229275  9331 net.cpp:91] Creating Layer inception_3b/relu_1x1
I0403 19:30:50.229290  9331 net.cpp:425] inception_3b/relu_1x1 <- inception_3b/1x1
I0403 19:30:50.229310  9331 net.cpp:386] inception_3b/relu_1x1 -> inception_3b/1x1 (in-place)
I0403 19:30:50.229485  9331 net.cpp:141] Setting up inception_3b/relu_1x1
I0403 19:30:50.229511  9331 net.cpp:148] Top shape: 24 128 28 28 (2408448)
I0403 19:30:50.229524  9331 net.cpp:156] Memory required for data: 676774944
I0403 19:30:50.229538  9331 layer_factory.hpp:77] Creating layer inception_3b/3x3_reduce
I0403 19:30:50.229560  9331 net.cpp:91] Creating Layer inception_3b/3x3_reduce
I0403 19:30:50.229578  9331 net.cpp:425] inception_3b/3x3_reduce <- inception_3a/output_inception_3a/output_0_split_1
I0403 19:30:50.229598  9331 net.cpp:399] inception_3b/3x3_reduce -> inception_3b/3x3_reduce
I0403 19:30:50.230669  9331 net.cpp:141] Setting up inception_3b/3x3_reduce
I0403 19:30:50.230696  9331 net.cpp:148] Top shape: 24 128 28 28 (2408448)
I0403 19:30:50.230712  9331 net.cpp:156] Memory required for data: 686408736
I0403 19:30:50.230729  9331 layer_factory.hpp:77] Creating layer inception_3b/relu_3x3_reduce
I0403 19:30:50.230746  9331 net.cpp:91] Creating Layer inception_3b/relu_3x3_reduce
I0403 19:30:50.230762  9331 net.cpp:425] inception_3b/relu_3x3_reduce <- inception_3b/3x3_reduce
I0403 19:30:50.230782  9331 net.cpp:386] inception_3b/relu_3x3_reduce -> inception_3b/3x3_reduce (in-place)
I0403 19:30:50.230944  9331 net.cpp:141] Setting up inception_3b/relu_3x3_reduce
I0403 19:30:50.230969  9331 net.cpp:148] Top shape: 24 128 28 28 (2408448)
I0403 19:30:50.230983  9331 net.cpp:156] Memory required for data: 696042528
I0403 19:30:50.230998  9331 layer_factory.hpp:77] Creating layer inception_3b/3x3
I0403 19:30:50.231021  9331 net.cpp:91] Creating Layer inception_3b/3x3
I0403 19:30:50.231040  9331 net.cpp:425] inception_3b/3x3 <- inception_3b/3x3_reduce
I0403 19:30:50.231058  9331 net.cpp:399] inception_3b/3x3 -> inception_3b/3x3
I0403 19:30:50.233809  9331 net.cpp:141] Setting up inception_3b/3x3
I0403 19:30:50.233837  9331 net.cpp:148] Top shape: 24 192 28 28 (3612672)
I0403 19:30:50.233853  9331 net.cpp:156] Memory required for data: 710493216
I0403 19:30:50.233871  9331 layer_factory.hpp:77] Creating layer inception_3b/relu_3x3
I0403 19:30:50.233892  9331 net.cpp:91] Creating Layer inception_3b/relu_3x3
I0403 19:30:50.233908  9331 net.cpp:425] inception_3b/relu_3x3 <- inception_3b/3x3
I0403 19:30:50.233927  9331 net.cpp:386] inception_3b/relu_3x3 -> inception_3b/3x3 (in-place)
I0403 19:30:50.234186  9331 net.cpp:141] Setting up inception_3b/relu_3x3
I0403 19:30:50.234212  9331 net.cpp:148] Top shape: 24 192 28 28 (3612672)
I0403 19:30:50.234227  9331 net.cpp:156] Memory required for data: 724943904
I0403 19:30:50.234241  9331 layer_factory.hpp:77] Creating layer inception_3b/5x5_reduce
I0403 19:30:50.234263  9331 net.cpp:91] Creating Layer inception_3b/5x5_reduce
I0403 19:30:50.234280  9331 net.cpp:425] inception_3b/5x5_reduce <- inception_3a/output_inception_3a/output_0_split_2
I0403 19:30:50.234302  9331 net.cpp:399] inception_3b/5x5_reduce -> inception_3b/5x5_reduce
I0403 19:30:50.235239  9331 net.cpp:141] Setting up inception_3b/5x5_reduce
I0403 19:30:50.235267  9331 net.cpp:148] Top shape: 24 32 28 28 (602112)
I0403 19:30:50.235282  9331 net.cpp:156] Memory required for data: 727352352
I0403 19:30:50.235301  9331 layer_factory.hpp:77] Creating layer inception_3b/relu_5x5_reduce
I0403 19:30:50.235321  9331 net.cpp:91] Creating Layer inception_3b/relu_5x5_reduce
I0403 19:30:50.235337  9331 net.cpp:425] inception_3b/relu_5x5_reduce <- inception_3b/5x5_reduce
I0403 19:30:50.235354  9331 net.cpp:386] inception_3b/relu_5x5_reduce -> inception_3b/5x5_reduce (in-place)
I0403 19:30:50.235530  9331 net.cpp:141] Setting up inception_3b/relu_5x5_reduce
I0403 19:30:50.235566  9331 net.cpp:148] Top shape: 24 32 28 28 (602112)
I0403 19:30:50.235581  9331 net.cpp:156] Memory required for data: 729760800
I0403 19:30:50.235597  9331 layer_factory.hpp:77] Creating layer inception_3b/5x5
I0403 19:30:50.235620  9331 net.cpp:91] Creating Layer inception_3b/5x5
I0403 19:30:50.235637  9331 net.cpp:425] inception_3b/5x5 <- inception_3b/5x5_reduce
I0403 19:30:50.235656  9331 net.cpp:399] inception_3b/5x5 -> inception_3b/5x5
I0403 19:30:50.237512  9331 net.cpp:141] Setting up inception_3b/5x5
I0403 19:30:50.237543  9331 net.cpp:148] Top shape: 24 96 28 28 (1806336)
I0403 19:30:50.237560  9331 net.cpp:156] Memory required for data: 736986144
I0403 19:30:50.237578  9331 layer_factory.hpp:77] Creating layer inception_3b/relu_5x5
I0403 19:30:50.237596  9331 net.cpp:91] Creating Layer inception_3b/relu_5x5
I0403 19:30:50.237612  9331 net.cpp:425] inception_3b/relu_5x5 <- inception_3b/5x5
I0403 19:30:50.237632  9331 net.cpp:386] inception_3b/relu_5x5 -> inception_3b/5x5 (in-place)
I0403 19:30:50.237814  9331 net.cpp:141] Setting up inception_3b/relu_5x5
I0403 19:30:50.237839  9331 net.cpp:148] Top shape: 24 96 28 28 (1806336)
I0403 19:30:50.237854  9331 net.cpp:156] Memory required for data: 744211488
I0403 19:30:50.237869  9331 layer_factory.hpp:77] Creating layer inception_3b/pool
I0403 19:30:50.237885  9331 net.cpp:91] Creating Layer inception_3b/pool
I0403 19:30:50.237901  9331 net.cpp:425] inception_3b/pool <- inception_3a/output_inception_3a/output_0_split_3
I0403 19:30:50.237920  9331 net.cpp:399] inception_3b/pool -> inception_3b/pool
I0403 19:30:50.237972  9331 net.cpp:141] Setting up inception_3b/pool
I0403 19:30:50.237996  9331 net.cpp:148] Top shape: 24 256 28 28 (4816896)
I0403 19:30:50.238011  9331 net.cpp:156] Memory required for data: 763479072
I0403 19:30:50.238025  9331 layer_factory.hpp:77] Creating layer inception_3b/pool_proj
I0403 19:30:50.238047  9331 net.cpp:91] Creating Layer inception_3b/pool_proj
I0403 19:30:50.238065  9331 net.cpp:425] inception_3b/pool_proj <- inception_3b/pool
I0403 19:30:50.238090  9331 net.cpp:399] inception_3b/pool_proj -> inception_3b/pool_proj
I0403 19:30:50.239091  9331 net.cpp:141] Setting up inception_3b/pool_proj
I0403 19:30:50.239119  9331 net.cpp:148] Top shape: 24 64 28 28 (1204224)
I0403 19:30:50.239135  9331 net.cpp:156] Memory required for data: 768295968
I0403 19:30:50.239156  9331 layer_factory.hpp:77] Creating layer inception_3b/relu_pool_proj
I0403 19:30:50.239173  9331 net.cpp:91] Creating Layer inception_3b/relu_pool_proj
I0403 19:30:50.239190  9331 net.cpp:425] inception_3b/relu_pool_proj <- inception_3b/pool_proj
I0403 19:30:50.239208  9331 net.cpp:386] inception_3b/relu_pool_proj -> inception_3b/pool_proj (in-place)
I0403 19:30:50.239591  9331 net.cpp:141] Setting up inception_3b/relu_pool_proj
I0403 19:30:50.239617  9331 net.cpp:148] Top shape: 24 64 28 28 (1204224)
I0403 19:30:50.239634  9331 net.cpp:156] Memory required for data: 773112864
I0403 19:30:50.239650  9331 layer_factory.hpp:77] Creating layer inception_3b/output
I0403 19:30:50.239666  9331 net.cpp:91] Creating Layer inception_3b/output
I0403 19:30:50.239681  9331 net.cpp:425] inception_3b/output <- inception_3b/1x1
I0403 19:30:50.239697  9331 net.cpp:425] inception_3b/output <- inception_3b/3x3
I0403 19:30:50.239712  9331 net.cpp:425] inception_3b/output <- inception_3b/5x5
I0403 19:30:50.239727  9331 net.cpp:425] inception_3b/output <- inception_3b/pool_proj
I0403 19:30:50.239743  9331 net.cpp:399] inception_3b/output -> inception_3b/output
I0403 19:30:50.239785  9331 net.cpp:141] Setting up inception_3b/output
I0403 19:30:50.239809  9331 net.cpp:148] Top shape: 24 480 28 28 (9031680)
I0403 19:30:50.239825  9331 net.cpp:156] Memory required for data: 809239584
I0403 19:30:50.239840  9331 layer_factory.hpp:77] Creating layer pool3/3x3_s2
I0403 19:30:50.239856  9331 net.cpp:91] Creating Layer pool3/3x3_s2
I0403 19:30:50.239876  9331 net.cpp:425] pool3/3x3_s2 <- inception_3b/output
I0403 19:30:50.239892  9331 net.cpp:399] pool3/3x3_s2 -> pool3/3x3_s2
I0403 19:30:50.239960  9331 net.cpp:141] Setting up pool3/3x3_s2
I0403 19:30:50.239984  9331 net.cpp:148] Top shape: 24 480 14 14 (2257920)
I0403 19:30:50.240000  9331 net.cpp:156] Memory required for data: 818271264
I0403 19:30:50.240015  9331 layer_factory.hpp:77] Creating layer pool3/3x3_s2_pool3/3x3_s2_0_split
I0403 19:30:50.240031  9331 net.cpp:91] Creating Layer pool3/3x3_s2_pool3/3x3_s2_0_split
I0403 19:30:50.240046  9331 net.cpp:425] pool3/3x3_s2_pool3/3x3_s2_0_split <- pool3/3x3_s2
I0403 19:30:50.240064  9331 net.cpp:399] pool3/3x3_s2_pool3/3x3_s2_0_split -> pool3/3x3_s2_pool3/3x3_s2_0_split_0
I0403 19:30:50.240084  9331 net.cpp:399] pool3/3x3_s2_pool3/3x3_s2_0_split -> pool3/3x3_s2_pool3/3x3_s2_0_split_1
I0403 19:30:50.240104  9331 net.cpp:399] pool3/3x3_s2_pool3/3x3_s2_0_split -> pool3/3x3_s2_pool3/3x3_s2_0_split_2
I0403 19:30:50.240123  9331 net.cpp:399] pool3/3x3_s2_pool3/3x3_s2_0_split -> pool3/3x3_s2_pool3/3x3_s2_0_split_3
I0403 19:30:50.240195  9331 net.cpp:141] Setting up pool3/3x3_s2_pool3/3x3_s2_0_split
I0403 19:30:50.240217  9331 net.cpp:148] Top shape: 24 480 14 14 (2257920)
I0403 19:30:50.240232  9331 net.cpp:148] Top shape: 24 480 14 14 (2257920)
I0403 19:30:50.240247  9331 net.cpp:148] Top shape: 24 480 14 14 (2257920)
I0403 19:30:50.240263  9331 net.cpp:148] Top shape: 24 480 14 14 (2257920)
I0403 19:30:50.240277  9331 net.cpp:156] Memory required for data: 854397984
I0403 19:30:50.240291  9331 layer_factory.hpp:77] Creating layer inception_4a/1x1
I0403 19:30:50.240314  9331 net.cpp:91] Creating Layer inception_4a/1x1
I0403 19:30:50.240331  9331 net.cpp:425] inception_4a/1x1 <- pool3/3x3_s2_pool3/3x3_s2_0_split_0
I0403 19:30:50.240350  9331 net.cpp:399] inception_4a/1x1 -> inception_4a/1x1
I0403 19:30:50.241844  9331 net.cpp:141] Setting up inception_4a/1x1
I0403 19:30:50.241873  9331 net.cpp:148] Top shape: 24 192 14 14 (903168)
I0403 19:30:50.241890  9331 net.cpp:156] Memory required for data: 858010656
I0403 19:30:50.241909  9331 layer_factory.hpp:77] Creating layer inception_4a/relu_1x1
I0403 19:30:50.241925  9331 net.cpp:91] Creating Layer inception_4a/relu_1x1
I0403 19:30:50.241940  9331 net.cpp:425] inception_4a/relu_1x1 <- inception_4a/1x1
I0403 19:30:50.241960  9331 net.cpp:386] inception_4a/relu_1x1 -> inception_4a/1x1 (in-place)
I0403 19:30:50.242127  9331 net.cpp:141] Setting up inception_4a/relu_1x1
I0403 19:30:50.242152  9331 net.cpp:148] Top shape: 24 192 14 14 (903168)
I0403 19:30:50.242167  9331 net.cpp:156] Memory required for data: 861623328
I0403 19:30:50.242182  9331 layer_factory.hpp:77] Creating layer inception_4a/3x3_reduce
I0403 19:30:50.242203  9331 net.cpp:91] Creating Layer inception_4a/3x3_reduce
I0403 19:30:50.242221  9331 net.cpp:425] inception_4a/3x3_reduce <- pool3/3x3_s2_pool3/3x3_s2_0_split_1
I0403 19:30:50.242243  9331 net.cpp:399] inception_4a/3x3_reduce -> inception_4a/3x3_reduce
I0403 19:30:50.243428  9331 net.cpp:141] Setting up inception_4a/3x3_reduce
I0403 19:30:50.243463  9331 net.cpp:148] Top shape: 24 96 14 14 (451584)
I0403 19:30:50.243482  9331 net.cpp:156] Memory required for data: 863429664
I0403 19:30:50.243505  9331 layer_factory.hpp:77] Creating layer inception_4a/relu_3x3_reduce
I0403 19:30:50.243526  9331 net.cpp:91] Creating Layer inception_4a/relu_3x3_reduce
I0403 19:30:50.243542  9331 net.cpp:425] inception_4a/relu_3x3_reduce <- inception_4a/3x3_reduce
I0403 19:30:50.243559  9331 net.cpp:386] inception_4a/relu_3x3_reduce -> inception_4a/3x3_reduce (in-place)
I0403 19:30:50.243724  9331 net.cpp:141] Setting up inception_4a/relu_3x3_reduce
I0403 19:30:50.243748  9331 net.cpp:148] Top shape: 24 96 14 14 (451584)
I0403 19:30:50.243762  9331 net.cpp:156] Memory required for data: 865236000
I0403 19:30:50.243777  9331 layer_factory.hpp:77] Creating layer inception_4a/3x3
I0403 19:30:50.243798  9331 net.cpp:91] Creating Layer inception_4a/3x3
I0403 19:30:50.243816  9331 net.cpp:425] inception_4a/3x3 <- inception_4a/3x3_reduce
I0403 19:30:50.243837  9331 net.cpp:399] inception_4a/3x3 -> inception_4a/3x3
I0403 19:30:50.246353  9331 net.cpp:141] Setting up inception_4a/3x3
I0403 19:30:50.246382  9331 net.cpp:148] Top shape: 24 208 14 14 (978432)
I0403 19:30:50.246398  9331 net.cpp:156] Memory required for data: 869149728
I0403 19:30:50.246417  9331 layer_factory.hpp:77] Creating layer inception_4a/relu_3x3
I0403 19:30:50.246433  9331 net.cpp:91] Creating Layer inception_4a/relu_3x3
I0403 19:30:50.246451  9331 net.cpp:425] inception_4a/relu_3x3 <- inception_4a/3x3
I0403 19:30:50.246477  9331 net.cpp:386] inception_4a/relu_3x3 -> inception_4a/3x3 (in-place)
I0403 19:30:50.246738  9331 net.cpp:141] Setting up inception_4a/relu_3x3
I0403 19:30:50.246764  9331 net.cpp:148] Top shape: 24 208 14 14 (978432)
I0403 19:30:50.246779  9331 net.cpp:156] Memory required for data: 873063456
I0403 19:30:50.246793  9331 layer_factory.hpp:77] Creating layer inception_4a/5x5_reduce
I0403 19:30:50.246816  9331 net.cpp:91] Creating Layer inception_4a/5x5_reduce
I0403 19:30:50.246834  9331 net.cpp:425] inception_4a/5x5_reduce <- pool3/3x3_s2_pool3/3x3_s2_0_split_2
I0403 19:30:50.246855  9331 net.cpp:399] inception_4a/5x5_reduce -> inception_4a/5x5_reduce
I0403 19:30:50.247812  9331 net.cpp:141] Setting up inception_4a/5x5_reduce
I0403 19:30:50.247839  9331 net.cpp:148] Top shape: 24 16 14 14 (75264)
I0403 19:30:50.247859  9331 net.cpp:156] Memory required for data: 873364512
I0403 19:30:50.247879  9331 layer_factory.hpp:77] Creating layer inception_4a/relu_5x5_reduce
I0403 19:30:50.247898  9331 net.cpp:91] Creating Layer inception_4a/relu_5x5_reduce
I0403 19:30:50.247941  9331 net.cpp:425] inception_4a/relu_5x5_reduce <- inception_4a/5x5_reduce
I0403 19:30:50.247958  9331 net.cpp:386] inception_4a/relu_5x5_reduce -> inception_4a/5x5_reduce (in-place)
I0403 19:30:50.248136  9331 net.cpp:141] Setting up inception_4a/relu_5x5_reduce
I0403 19:30:50.248160  9331 net.cpp:148] Top shape: 24 16 14 14 (75264)
I0403 19:30:50.248175  9331 net.cpp:156] Memory required for data: 873665568
I0403 19:30:50.248208  9331 layer_factory.hpp:77] Creating layer inception_4a/5x5
I0403 19:30:50.248235  9331 net.cpp:91] Creating Layer inception_4a/5x5
I0403 19:30:50.248283  9331 net.cpp:425] inception_4a/5x5 <- inception_4a/5x5_reduce
I0403 19:30:50.248323  9331 net.cpp:399] inception_4a/5x5 -> inception_4a/5x5
I0403 19:30:50.249387  9331 net.cpp:141] Setting up inception_4a/5x5
I0403 19:30:50.249419  9331 net.cpp:148] Top shape: 24 48 14 14 (225792)
I0403 19:30:50.249462  9331 net.cpp:156] Memory required for data: 874568736
I0403 19:30:50.249483  9331 layer_factory.hpp:77] Creating layer inception_4a/relu_5x5
I0403 19:30:50.249502  9331 net.cpp:91] Creating Layer inception_4a/relu_5x5
I0403 19:30:50.249517  9331 net.cpp:425] inception_4a/relu_5x5 <- inception_4a/5x5
I0403 19:30:50.249533  9331 net.cpp:386] inception_4a/relu_5x5 -> inception_4a/5x5 (in-place)
I0403 19:30:50.249701  9331 net.cpp:141] Setting up inception_4a/relu_5x5
I0403 19:30:50.249747  9331 net.cpp:148] Top shape: 24 48 14 14 (225792)
I0403 19:30:50.249791  9331 net.cpp:156] Memory required for data: 875471904
I0403 19:30:50.249825  9331 layer_factory.hpp:77] Creating layer inception_4a/pool
I0403 19:30:50.249850  9331 net.cpp:91] Creating Layer inception_4a/pool
I0403 19:30:50.249876  9331 net.cpp:425] inception_4a/pool <- pool3/3x3_s2_pool3/3x3_s2_0_split_3
I0403 19:30:50.249902  9331 net.cpp:399] inception_4a/pool -> inception_4a/pool
I0403 19:30:50.249981  9331 net.cpp:141] Setting up inception_4a/pool
I0403 19:30:50.250007  9331 net.cpp:148] Top shape: 24 480 14 14 (2257920)
I0403 19:30:50.250022  9331 net.cpp:156] Memory required for data: 884503584
I0403 19:30:50.250037  9331 layer_factory.hpp:77] Creating layer inception_4a/pool_proj
I0403 19:30:50.250056  9331 net.cpp:91] Creating Layer inception_4a/pool_proj
I0403 19:30:50.250073  9331 net.cpp:425] inception_4a/pool_proj <- inception_4a/pool
I0403 19:30:50.250094  9331 net.cpp:399] inception_4a/pool_proj -> inception_4a/pool_proj
I0403 19:30:50.251190  9331 net.cpp:141] Setting up inception_4a/pool_proj
I0403 19:30:50.251221  9331 net.cpp:148] Top shape: 24 64 14 14 (301056)
I0403 19:30:50.251251  9331 net.cpp:156] Memory required for data: 885707808
I0403 19:30:50.251271  9331 layer_factory.hpp:77] Creating layer inception_4a/relu_pool_proj
I0403 19:30:50.251289  9331 net.cpp:91] Creating Layer inception_4a/relu_pool_proj
I0403 19:30:50.251305  9331 net.cpp:425] inception_4a/relu_pool_proj <- inception_4a/pool_proj
I0403 19:30:50.251322  9331 net.cpp:386] inception_4a/relu_pool_proj -> inception_4a/pool_proj (in-place)
I0403 19:30:50.251595  9331 net.cpp:141] Setting up inception_4a/relu_pool_proj
I0403 19:30:50.251623  9331 net.cpp:148] Top shape: 24 64 14 14 (301056)
I0403 19:30:50.251639  9331 net.cpp:156] Memory required for data: 886912032
I0403 19:30:50.251653  9331 layer_factory.hpp:77] Creating layer inception_4a/output
I0403 19:30:50.251669  9331 net.cpp:91] Creating Layer inception_4a/output
I0403 19:30:50.251684  9331 net.cpp:425] inception_4a/output <- inception_4a/1x1
I0403 19:30:50.251701  9331 net.cpp:425] inception_4a/output <- inception_4a/3x3
I0403 19:30:50.251718  9331 net.cpp:425] inception_4a/output <- inception_4a/5x5
I0403 19:30:50.251734  9331 net.cpp:425] inception_4a/output <- inception_4a/pool_proj
I0403 19:30:50.251750  9331 net.cpp:399] inception_4a/output -> inception_4a/output
I0403 19:30:50.251793  9331 net.cpp:141] Setting up inception_4a/output
I0403 19:30:50.251816  9331 net.cpp:148] Top shape: 24 512 14 14 (2408448)
I0403 19:30:50.251832  9331 net.cpp:156] Memory required for data: 896545824
I0403 19:30:50.251845  9331 layer_factory.hpp:77] Creating layer inception_4a/output_inception_4a/output_0_split
I0403 19:30:50.251865  9331 net.cpp:91] Creating Layer inception_4a/output_inception_4a/output_0_split
I0403 19:30:50.251880  9331 net.cpp:425] inception_4a/output_inception_4a/output_0_split <- inception_4a/output
I0403 19:30:50.251898  9331 net.cpp:399] inception_4a/output_inception_4a/output_0_split -> inception_4a/output_inception_4a/output_0_split_0
I0403 19:30:50.251916  9331 net.cpp:399] inception_4a/output_inception_4a/output_0_split -> inception_4a/output_inception_4a/output_0_split_1
I0403 19:30:50.251936  9331 net.cpp:399] inception_4a/output_inception_4a/output_0_split -> inception_4a/output_inception_4a/output_0_split_2
I0403 19:30:50.251960  9331 net.cpp:399] inception_4a/output_inception_4a/output_0_split -> inception_4a/output_inception_4a/output_0_split_3
I0403 19:30:50.251981  9331 net.cpp:399] inception_4a/output_inception_4a/output_0_split -> inception_4a/output_inception_4a/output_0_split_4
I0403 19:30:50.252073  9331 net.cpp:141] Setting up inception_4a/output_inception_4a/output_0_split
I0403 19:30:50.252095  9331 net.cpp:148] Top shape: 24 512 14 14 (2408448)
I0403 19:30:50.252111  9331 net.cpp:148] Top shape: 24 512 14 14 (2408448)
I0403 19:30:50.252126  9331 net.cpp:148] Top shape: 24 512 14 14 (2408448)
I0403 19:30:50.252142  9331 net.cpp:148] Top shape: 24 512 14 14 (2408448)
I0403 19:30:50.252158  9331 net.cpp:148] Top shape: 24 512 14 14 (2408448)
I0403 19:30:50.252171  9331 net.cpp:156] Memory required for data: 944714784
I0403 19:30:50.252187  9331 layer_factory.hpp:77] Creating layer loss1/ave_pool
I0403 19:30:50.252207  9331 net.cpp:91] Creating Layer loss1/ave_pool
I0403 19:30:50.252221  9331 net.cpp:425] loss1/ave_pool <- inception_4a/output_inception_4a/output_0_split_0
I0403 19:30:50.252239  9331 net.cpp:399] loss1/ave_pool -> loss1/ave_pool
I0403 19:30:50.252434  9331 net.cpp:141] Setting up loss1/ave_pool
I0403 19:30:50.252471  9331 net.cpp:148] Top shape: 24 512 4 4 (196608)
I0403 19:30:50.252490  9331 net.cpp:156] Memory required for data: 945501216
I0403 19:30:50.252506  9331 layer_factory.hpp:77] Creating layer loss1/conv
I0403 19:30:50.252527  9331 net.cpp:91] Creating Layer loss1/conv
I0403 19:30:50.252544  9331 net.cpp:425] loss1/conv <- loss1/ave_pool
I0403 19:30:50.252563  9331 net.cpp:399] loss1/conv -> loss1/conv
I0403 19:30:50.253895  9331 net.cpp:141] Setting up loss1/conv
I0403 19:30:50.253921  9331 net.cpp:148] Top shape: 24 128 4 4 (49152)
I0403 19:30:50.253937  9331 net.cpp:156] Memory required for data: 945697824
I0403 19:30:50.253969  9331 layer_factory.hpp:77] Creating layer loss1/relu_conv
I0403 19:30:50.253989  9331 net.cpp:91] Creating Layer loss1/relu_conv
I0403 19:30:50.254004  9331 net.cpp:425] loss1/relu_conv <- loss1/conv
I0403 19:30:50.254022  9331 net.cpp:386] loss1/relu_conv -> loss1/conv (in-place)
I0403 19:30:50.254293  9331 net.cpp:141] Setting up loss1/relu_conv
I0403 19:30:50.254319  9331 net.cpp:148] Top shape: 24 128 4 4 (49152)
I0403 19:30:50.254334  9331 net.cpp:156] Memory required for data: 945894432
I0403 19:30:50.254349  9331 layer_factory.hpp:77] Creating layer loss1/fc
I0403 19:30:50.254375  9331 net.cpp:91] Creating Layer loss1/fc
I0403 19:30:50.254395  9331 net.cpp:425] loss1/fc <- loss1/conv
I0403 19:30:50.254413  9331 net.cpp:399] loss1/fc -> loss1/fc
I0403 19:30:50.271204  9331 net.cpp:141] Setting up loss1/fc
I0403 19:30:50.271234  9331 net.cpp:148] Top shape: 24 1024 (24576)
I0403 19:30:50.271250  9331 net.cpp:156] Memory required for data: 945992736
I0403 19:30:50.271268  9331 layer_factory.hpp:77] Creating layer loss1/relu_fc
I0403 19:30:50.271291  9331 net.cpp:91] Creating Layer loss1/relu_fc
I0403 19:30:50.271307  9331 net.cpp:425] loss1/relu_fc <- loss1/fc
I0403 19:30:50.271327  9331 net.cpp:386] loss1/relu_fc -> loss1/fc (in-place)
I0403 19:30:50.271508  9331 net.cpp:141] Setting up loss1/relu_fc
I0403 19:30:50.271533  9331 net.cpp:148] Top shape: 24 1024 (24576)
I0403 19:30:50.271548  9331 net.cpp:156] Memory required for data: 946091040
I0403 19:30:50.271563  9331 layer_factory.hpp:77] Creating layer loss1/drop_fc
I0403 19:30:50.271587  9331 net.cpp:91] Creating Layer loss1/drop_fc
I0403 19:30:50.271605  9331 net.cpp:425] loss1/drop_fc <- loss1/fc
I0403 19:30:50.271625  9331 net.cpp:386] loss1/drop_fc -> loss1/fc (in-place)
I0403 19:30:50.271673  9331 net.cpp:141] Setting up loss1/drop_fc
I0403 19:30:50.271697  9331 net.cpp:148] Top shape: 24 1024 (24576)
I0403 19:30:50.271710  9331 net.cpp:156] Memory required for data: 946189344
I0403 19:30:50.271725  9331 layer_factory.hpp:77] Creating layer loss1/classifier_plantvillage
I0403 19:30:50.271747  9331 net.cpp:91] Creating Layer loss1/classifier_plantvillage
I0403 19:30:50.271764  9331 net.cpp:425] loss1/classifier_plantvillage <- loss1/fc
I0403 19:30:50.271785  9331 net.cpp:399] loss1/classifier_plantvillage -> loss1/classifier_plantvillage
I0403 19:30:50.272657  9331 net.cpp:141] Setting up loss1/classifier_plantvillage
I0403 19:30:50.272686  9331 net.cpp:148] Top shape: 24 38 (912)
I0403 19:30:50.272703  9331 net.cpp:156] Memory required for data: 946192992
I0403 19:30:50.272722  9331 layer_factory.hpp:77] Creating layer loss1/classifier_plantvillage_loss1/classifier_plantvillage_0_split
I0403 19:30:50.272738  9331 net.cpp:91] Creating Layer loss1/classifier_plantvillage_loss1/classifier_plantvillage_0_split
I0403 19:30:50.272753  9331 net.cpp:425] loss1/classifier_plantvillage_loss1/classifier_plantvillage_0_split <- loss1/classifier_plantvillage
I0403 19:30:50.272773  9331 net.cpp:399] loss1/classifier_plantvillage_loss1/classifier_plantvillage_0_split -> loss1/classifier_plantvillage_loss1/classifier_plantvillage_0_split_0
I0403 19:30:50.272794  9331 net.cpp:399] loss1/classifier_plantvillage_loss1/classifier_plantvillage_0_split -> loss1/classifier_plantvillage_loss1/classifier_plantvillage_0_split_1
I0403 19:30:50.272814  9331 net.cpp:399] loss1/classifier_plantvillage_loss1/classifier_plantvillage_0_split -> loss1/classifier_plantvillage_loss1/classifier_plantvillage_0_split_2
I0403 19:30:50.272878  9331 net.cpp:141] Setting up loss1/classifier_plantvillage_loss1/classifier_plantvillage_0_split
I0403 19:30:50.272900  9331 net.cpp:148] Top shape: 24 38 (912)
I0403 19:30:50.272917  9331 net.cpp:148] Top shape: 24 38 (912)
I0403 19:30:50.272933  9331 net.cpp:148] Top shape: 24 38 (912)
I0403 19:30:50.272946  9331 net.cpp:156] Memory required for data: 946203936
I0403 19:30:50.272960  9331 layer_factory.hpp:77] Creating layer inception_4b/1x1
I0403 19:30:50.272986  9331 net.cpp:91] Creating Layer inception_4b/1x1
I0403 19:30:50.273017  9331 net.cpp:425] inception_4b/1x1 <- inception_4a/output_inception_4a/output_0_split_1
I0403 19:30:50.273036  9331 net.cpp:399] inception_4b/1x1 -> inception_4b/1x1
I0403 19:30:50.274581  9331 net.cpp:141] Setting up inception_4b/1x1
I0403 19:30:50.274610  9331 net.cpp:148] Top shape: 24 160 14 14 (752640)
I0403 19:30:50.274636  9331 net.cpp:156] Memory required for data: 949214496
I0403 19:30:50.274653  9331 layer_factory.hpp:77] Creating layer inception_4b/relu_1x1
I0403 19:30:50.274672  9331 net.cpp:91] Creating Layer inception_4b/relu_1x1
I0403 19:30:50.274690  9331 net.cpp:425] inception_4b/relu_1x1 <- inception_4b/1x1
I0403 19:30:50.274708  9331 net.cpp:386] inception_4b/relu_1x1 -> inception_4b/1x1 (in-place)
I0403 19:30:50.274879  9331 net.cpp:141] Setting up inception_4b/relu_1x1
I0403 19:30:50.274904  9331 net.cpp:148] Top shape: 24 160 14 14 (752640)
I0403 19:30:50.274919  9331 net.cpp:156] Memory required for data: 952225056
I0403 19:30:50.274932  9331 layer_factory.hpp:77] Creating layer inception_4b/3x3_reduce
I0403 19:30:50.274955  9331 net.cpp:91] Creating Layer inception_4b/3x3_reduce
I0403 19:30:50.274973  9331 net.cpp:425] inception_4b/3x3_reduce <- inception_4a/output_inception_4a/output_0_split_2
I0403 19:30:50.274992  9331 net.cpp:399] inception_4b/3x3_reduce -> inception_4b/3x3_reduce
I0403 19:30:50.276267  9331 net.cpp:141] Setting up inception_4b/3x3_reduce
I0403 19:30:50.276293  9331 net.cpp:148] Top shape: 24 112 14 14 (526848)
I0403 19:30:50.276309  9331 net.cpp:156] Memory required for data: 954332448
I0403 19:30:50.276327  9331 layer_factory.hpp:77] Creating layer inception_4b/relu_3x3_reduce
I0403 19:30:50.276347  9331 net.cpp:91] Creating Layer inception_4b/relu_3x3_reduce
I0403 19:30:50.276365  9331 net.cpp:425] inception_4b/relu_3x3_reduce <- inception_4b/3x3_reduce
I0403 19:30:50.276382  9331 net.cpp:386] inception_4b/relu_3x3_reduce -> inception_4b/3x3_reduce (in-place)
I0403 19:30:50.276653  9331 net.cpp:141] Setting up inception_4b/relu_3x3_reduce
I0403 19:30:50.276679  9331 net.cpp:148] Top shape: 24 112 14 14 (526848)
I0403 19:30:50.276693  9331 net.cpp:156] Memory required for data: 956439840
I0403 19:30:50.276707  9331 layer_factory.hpp:77] Creating layer inception_4b/3x3
I0403 19:30:50.276729  9331 net.cpp:91] Creating Layer inception_4b/3x3
I0403 19:30:50.276747  9331 net.cpp:425] inception_4b/3x3 <- inception_4b/3x3_reduce
I0403 19:30:50.276769  9331 net.cpp:399] inception_4b/3x3 -> inception_4b/3x3
I0403 19:30:50.279589  9331 net.cpp:141] Setting up inception_4b/3x3
I0403 19:30:50.279619  9331 net.cpp:148] Top shape: 24 224 14 14 (1053696)
I0403 19:30:50.279636  9331 net.cpp:156] Memory required for data: 960654624
I0403 19:30:50.279654  9331 layer_factory.hpp:77] Creating layer inception_4b/relu_3x3
I0403 19:30:50.279672  9331 net.cpp:91] Creating Layer inception_4b/relu_3x3
I0403 19:30:50.279688  9331 net.cpp:425] inception_4b/relu_3x3 <- inception_4b/3x3
I0403 19:30:50.279708  9331 net.cpp:386] inception_4b/relu_3x3 -> inception_4b/3x3 (in-place)
I0403 19:30:50.279877  9331 net.cpp:141] Setting up inception_4b/relu_3x3
I0403 19:30:50.279902  9331 net.cpp:148] Top shape: 24 224 14 14 (1053696)
I0403 19:30:50.279917  9331 net.cpp:156] Memory required for data: 964869408
I0403 19:30:50.279932  9331 layer_factory.hpp:77] Creating layer inception_4b/5x5_reduce
I0403 19:30:50.279953  9331 net.cpp:91] Creating Layer inception_4b/5x5_reduce
I0403 19:30:50.279971  9331 net.cpp:425] inception_4b/5x5_reduce <- inception_4a/output_inception_4a/output_0_split_3
I0403 19:30:50.279994  9331 net.cpp:399] inception_4b/5x5_reduce -> inception_4b/5x5_reduce
I0403 19:30:50.281013  9331 net.cpp:141] Setting up inception_4b/5x5_reduce
I0403 19:30:50.281039  9331 net.cpp:148] Top shape: 24 24 14 14 (112896)
I0403 19:30:50.281054  9331 net.cpp:156] Memory required for data: 965320992
I0403 19:30:50.281071  9331 layer_factory.hpp:77] Creating layer inception_4b/relu_5x5_reduce
I0403 19:30:50.281091  9331 net.cpp:91] Creating Layer inception_4b/relu_5x5_reduce
I0403 19:30:50.281121  9331 net.cpp:425] inception_4b/relu_5x5_reduce <- inception_4b/5x5_reduce
I0403 19:30:50.281141  9331 net.cpp:386] inception_4b/relu_5x5_reduce -> inception_4b/5x5_reduce (in-place)
I0403 19:30:50.281311  9331 net.cpp:141] Setting up inception_4b/relu_5x5_reduce
I0403 19:30:50.281338  9331 net.cpp:148] Top shape: 24 24 14 14 (112896)
I0403 19:30:50.281354  9331 net.cpp:156] Memory required for data: 965772576
I0403 19:30:50.281369  9331 layer_factory.hpp:77] Creating layer inception_4b/5x5
I0403 19:30:50.281390  9331 net.cpp:91] Creating Layer inception_4b/5x5
I0403 19:30:50.281406  9331 net.cpp:425] inception_4b/5x5 <- inception_4b/5x5_reduce
I0403 19:30:50.281424  9331 net.cpp:399] inception_4b/5x5 -> inception_4b/5x5
I0403 19:30:50.282604  9331 net.cpp:141] Setting up inception_4b/5x5
I0403 19:30:50.282632  9331 net.cpp:148] Top shape: 24 64 14 14 (301056)
I0403 19:30:50.282647  9331 net.cpp:156] Memory required for data: 966976800
I0403 19:30:50.282666  9331 layer_factory.hpp:77] Creating layer inception_4b/relu_5x5
I0403 19:30:50.282686  9331 net.cpp:91] Creating Layer inception_4b/relu_5x5
I0403 19:30:50.282703  9331 net.cpp:425] inception_4b/relu_5x5 <- inception_4b/5x5
I0403 19:30:50.282721  9331 net.cpp:386] inception_4b/relu_5x5 -> inception_4b/5x5 (in-place)
I0403 19:30:50.282989  9331 net.cpp:141] Setting up inception_4b/relu_5x5
I0403 19:30:50.283015  9331 net.cpp:148] Top shape: 24 64 14 14 (301056)
I0403 19:30:50.283030  9331 net.cpp:156] Memory required for data: 968181024
I0403 19:30:50.283046  9331 layer_factory.hpp:77] Creating layer inception_4b/pool
I0403 19:30:50.283063  9331 net.cpp:91] Creating Layer inception_4b/pool
I0403 19:30:50.283083  9331 net.cpp:425] inception_4b/pool <- inception_4a/output_inception_4a/output_0_split_4
I0403 19:30:50.283102  9331 net.cpp:399] inception_4b/pool -> inception_4b/pool
I0403 19:30:50.283162  9331 net.cpp:141] Setting up inception_4b/pool
I0403 19:30:50.283186  9331 net.cpp:148] Top shape: 24 512 14 14 (2408448)
I0403 19:30:50.283201  9331 net.cpp:156] Memory required for data: 977814816
I0403 19:30:50.283215  9331 layer_factory.hpp:77] Creating layer inception_4b/pool_proj
I0403 19:30:50.283236  9331 net.cpp:91] Creating Layer inception_4b/pool_proj
I0403 19:30:50.283254  9331 net.cpp:425] inception_4b/pool_proj <- inception_4b/pool
I0403 19:30:50.283274  9331 net.cpp:399] inception_4b/pool_proj -> inception_4b/pool_proj
I0403 19:30:50.284414  9331 net.cpp:141] Setting up inception_4b/pool_proj
I0403 19:30:50.284440  9331 net.cpp:148] Top shape: 24 64 14 14 (301056)
I0403 19:30:50.284456  9331 net.cpp:156] Memory required for data: 979019040
I0403 19:30:50.284482  9331 layer_factory.hpp:77] Creating layer inception_4b/relu_pool_proj
I0403 19:30:50.284503  9331 net.cpp:91] Creating Layer inception_4b/relu_pool_proj
I0403 19:30:50.284520  9331 net.cpp:425] inception_4b/relu_pool_proj <- inception_4b/pool_proj
I0403 19:30:50.284538  9331 net.cpp:386] inception_4b/relu_pool_proj -> inception_4b/pool_proj (in-place)
I0403 19:30:50.284708  9331 net.cpp:141] Setting up inception_4b/relu_pool_proj
I0403 19:30:50.284734  9331 net.cpp:148] Top shape: 24 64 14 14 (301056)
I0403 19:30:50.284749  9331 net.cpp:156] Memory required for data: 980223264
I0403 19:30:50.284762  9331 layer_factory.hpp:77] Creating layer inception_4b/output
I0403 19:30:50.284781  9331 net.cpp:91] Creating Layer inception_4b/output
I0403 19:30:50.284798  9331 net.cpp:425] inception_4b/output <- inception_4b/1x1
I0403 19:30:50.284816  9331 net.cpp:425] inception_4b/output <- inception_4b/3x3
I0403 19:30:50.284831  9331 net.cpp:425] inception_4b/output <- inception_4b/5x5
I0403 19:30:50.284845  9331 net.cpp:425] inception_4b/output <- inception_4b/pool_proj
I0403 19:30:50.284862  9331 net.cpp:399] inception_4b/output -> inception_4b/output
I0403 19:30:50.284907  9331 net.cpp:141] Setting up inception_4b/output
I0403 19:30:50.284929  9331 net.cpp:148] Top shape: 24 512 14 14 (2408448)
I0403 19:30:50.284943  9331 net.cpp:156] Memory required for data: 989857056
I0403 19:30:50.284972  9331 layer_factory.hpp:77] Creating layer inception_4b/output_inception_4b/output_0_split
I0403 19:30:50.284991  9331 net.cpp:91] Creating Layer inception_4b/output_inception_4b/output_0_split
I0403 19:30:50.285006  9331 net.cpp:425] inception_4b/output_inception_4b/output_0_split <- inception_4b/output
I0403 19:30:50.285025  9331 net.cpp:399] inception_4b/output_inception_4b/output_0_split -> inception_4b/output_inception_4b/output_0_split_0
I0403 19:30:50.285045  9331 net.cpp:399] inception_4b/output_inception_4b/output_0_split -> inception_4b/output_inception_4b/output_0_split_1
I0403 19:30:50.285064  9331 net.cpp:399] inception_4b/output_inception_4b/output_0_split -> inception_4b/output_inception_4b/output_0_split_2
I0403 19:30:50.285084  9331 net.cpp:399] inception_4b/output_inception_4b/output_0_split -> inception_4b/output_inception_4b/output_0_split_3
I0403 19:30:50.285169  9331 net.cpp:141] Setting up inception_4b/output_inception_4b/output_0_split
I0403 19:30:50.285193  9331 net.cpp:148] Top shape: 24 512 14 14 (2408448)
I0403 19:30:50.285209  9331 net.cpp:148] Top shape: 24 512 14 14 (2408448)
I0403 19:30:50.285225  9331 net.cpp:148] Top shape: 24 512 14 14 (2408448)
I0403 19:30:50.285240  9331 net.cpp:148] Top shape: 24 512 14 14 (2408448)
I0403 19:30:50.285254  9331 net.cpp:156] Memory required for data: 1028392224
I0403 19:30:50.285269  9331 layer_factory.hpp:77] Creating layer inception_4c/1x1
I0403 19:30:50.285290  9331 net.cpp:91] Creating Layer inception_4c/1x1
I0403 19:30:50.285305  9331 net.cpp:425] inception_4c/1x1 <- inception_4b/output_inception_4b/output_0_split_0
I0403 19:30:50.285327  9331 net.cpp:399] inception_4c/1x1 -> inception_4c/1x1
I0403 19:30:50.286695  9331 net.cpp:141] Setting up inception_4c/1x1
I0403 19:30:50.286726  9331 net.cpp:148] Top shape: 24 128 14 14 (602112)
I0403 19:30:50.286744  9331 net.cpp:156] Memory required for data: 1030800672
I0403 19:30:50.286761  9331 layer_factory.hpp:77] Creating layer inception_4c/relu_1x1
I0403 19:30:50.286780  9331 net.cpp:91] Creating Layer inception_4c/relu_1x1
I0403 19:30:50.286798  9331 net.cpp:425] inception_4c/relu_1x1 <- inception_4c/1x1
I0403 19:30:50.286815  9331 net.cpp:386] inception_4c/relu_1x1 -> inception_4c/1x1 (in-place)
I0403 19:30:50.286984  9331 net.cpp:141] Setting up inception_4c/relu_1x1
I0403 19:30:50.287009  9331 net.cpp:148] Top shape: 24 128 14 14 (602112)
I0403 19:30:50.287022  9331 net.cpp:156] Memory required for data: 1033209120
I0403 19:30:50.287037  9331 layer_factory.hpp:77] Creating layer inception_4c/3x3_reduce
I0403 19:30:50.287058  9331 net.cpp:91] Creating Layer inception_4c/3x3_reduce
I0403 19:30:50.287075  9331 net.cpp:425] inception_4c/3x3_reduce <- inception_4b/output_inception_4b/output_0_split_1
I0403 19:30:50.287096  9331 net.cpp:399] inception_4c/3x3_reduce -> inception_4c/3x3_reduce
I0403 19:30:50.288951  9331 net.cpp:141] Setting up inception_4c/3x3_reduce
I0403 19:30:50.288981  9331 net.cpp:148] Top shape: 24 128 14 14 (602112)
I0403 19:30:50.288996  9331 net.cpp:156] Memory required for data: 1035617568
I0403 19:30:50.289014  9331 layer_factory.hpp:77] Creating layer inception_4c/relu_3x3_reduce
I0403 19:30:50.289031  9331 net.cpp:91] Creating Layer inception_4c/relu_3x3_reduce
I0403 19:30:50.289047  9331 net.cpp:425] inception_4c/relu_3x3_reduce <- inception_4c/3x3_reduce
I0403 19:30:50.289067  9331 net.cpp:386] inception_4c/relu_3x3_reduce -> inception_4c/3x3_reduce (in-place)
I0403 19:30:50.289338  9331 net.cpp:141] Setting up inception_4c/relu_3x3_reduce
I0403 19:30:50.289363  9331 net.cpp:148] Top shape: 24 128 14 14 (602112)
I0403 19:30:50.289378  9331 net.cpp:156] Memory required for data: 1038026016
I0403 19:30:50.289393  9331 layer_factory.hpp:77] Creating layer inception_4c/3x3
I0403 19:30:50.289415  9331 net.cpp:91] Creating Layer inception_4c/3x3
I0403 19:30:50.289433  9331 net.cpp:425] inception_4c/3x3 <- inception_4c/3x3_reduce
I0403 19:30:50.289454  9331 net.cpp:399] inception_4c/3x3 -> inception_4c/3x3
I0403 19:30:50.292911  9331 net.cpp:141] Setting up inception_4c/3x3
I0403 19:30:50.292953  9331 net.cpp:148] Top shape: 24 256 14 14 (1204224)
I0403 19:30:50.292968  9331 net.cpp:156] Memory required for data: 1042842912
I0403 19:30:50.292999  9331 layer_factory.hpp:77] Creating layer inception_4c/relu_3x3
I0403 19:30:50.293021  9331 net.cpp:91] Creating Layer inception_4c/relu_3x3
I0403 19:30:50.293038  9331 net.cpp:425] inception_4c/relu_3x3 <- inception_4c/3x3
I0403 19:30:50.293056  9331 net.cpp:386] inception_4c/relu_3x3 -> inception_4c/3x3 (in-place)
I0403 19:30:50.293232  9331 net.cpp:141] Setting up inception_4c/relu_3x3
I0403 19:30:50.293257  9331 net.cpp:148] Top shape: 24 256 14 14 (1204224)
I0403 19:30:50.293272  9331 net.cpp:156] Memory required for data: 1047659808
I0403 19:30:50.293285  9331 layer_factory.hpp:77] Creating layer inception_4c/5x5_reduce
I0403 19:30:50.293306  9331 net.cpp:91] Creating Layer inception_4c/5x5_reduce
I0403 19:30:50.293323  9331 net.cpp:425] inception_4c/5x5_reduce <- inception_4b/output_inception_4b/output_0_split_2
I0403 19:30:50.293345  9331 net.cpp:399] inception_4c/5x5_reduce -> inception_4c/5x5_reduce
I0403 19:30:50.294381  9331 net.cpp:141] Setting up inception_4c/5x5_reduce
I0403 19:30:50.294409  9331 net.cpp:148] Top shape: 24 24 14 14 (112896)
I0403 19:30:50.294423  9331 net.cpp:156] Memory required for data: 1048111392
I0403 19:30:50.294441  9331 layer_factory.hpp:77] Creating layer inception_4c/relu_5x5_reduce
I0403 19:30:50.294468  9331 net.cpp:91] Creating Layer inception_4c/relu_5x5_reduce
I0403 19:30:50.294486  9331 net.cpp:425] inception_4c/relu_5x5_reduce <- inception_4c/5x5_reduce
I0403 19:30:50.294504  9331 net.cpp:386] inception_4c/relu_5x5_reduce -> inception_4c/5x5_reduce (in-place)
I0403 19:30:50.294677  9331 net.cpp:141] Setting up inception_4c/relu_5x5_reduce
I0403 19:30:50.294703  9331 net.cpp:148] Top shape: 24 24 14 14 (112896)
I0403 19:30:50.294720  9331 net.cpp:156] Memory required for data: 1048562976
I0403 19:30:50.294734  9331 layer_factory.hpp:77] Creating layer inception_4c/5x5
I0403 19:30:50.294754  9331 net.cpp:91] Creating Layer inception_4c/5x5
I0403 19:30:50.294771  9331 net.cpp:425] inception_4c/5x5 <- inception_4c/5x5_reduce
I0403 19:30:50.294792  9331 net.cpp:399] inception_4c/5x5 -> inception_4c/5x5
I0403 19:30:50.295971  9331 net.cpp:141] Setting up inception_4c/5x5
I0403 19:30:50.295997  9331 net.cpp:148] Top shape: 24 64 14 14 (301056)
I0403 19:30:50.296013  9331 net.cpp:156] Memory required for data: 1049767200
I0403 19:30:50.296031  9331 layer_factory.hpp:77] Creating layer inception_4c/relu_5x5
I0403 19:30:50.296051  9331 net.cpp:91] Creating Layer inception_4c/relu_5x5
I0403 19:30:50.296068  9331 net.cpp:425] inception_4c/relu_5x5 <- inception_4c/5x5
I0403 19:30:50.296085  9331 net.cpp:386] inception_4c/relu_5x5 -> inception_4c/5x5 (in-place)
I0403 19:30:50.296360  9331 net.cpp:141] Setting up inception_4c/relu_5x5
I0403 19:30:50.296386  9331 net.cpp:148] Top shape: 24 64 14 14 (301056)
I0403 19:30:50.296399  9331 net.cpp:156] Memory required for data: 1050971424
I0403 19:30:50.296414  9331 layer_factory.hpp:77] Creating layer inception_4c/pool
I0403 19:30:50.296434  9331 net.cpp:91] Creating Layer inception_4c/pool
I0403 19:30:50.296450  9331 net.cpp:425] inception_4c/pool <- inception_4b/output_inception_4b/output_0_split_3
I0403 19:30:50.296473  9331 net.cpp:399] inception_4c/pool -> inception_4c/pool
I0403 19:30:50.296540  9331 net.cpp:141] Setting up inception_4c/pool
I0403 19:30:50.296563  9331 net.cpp:148] Top shape: 24 512 14 14 (2408448)
I0403 19:30:50.296578  9331 net.cpp:156] Memory required for data: 1060605216
I0403 19:30:50.296593  9331 layer_factory.hpp:77] Creating layer inception_4c/pool_proj
I0403 19:30:50.296614  9331 net.cpp:91] Creating Layer inception_4c/pool_proj
I0403 19:30:50.296632  9331 net.cpp:425] inception_4c/pool_proj <- inception_4c/pool
I0403 19:30:50.296653  9331 net.cpp:399] inception_4c/pool_proj -> inception_4c/pool_proj
I0403 19:30:50.297807  9331 net.cpp:141] Setting up inception_4c/pool_proj
I0403 19:30:50.297835  9331 net.cpp:148] Top shape: 24 64 14 14 (301056)
I0403 19:30:50.297864  9331 net.cpp:156] Memory required for data: 1061809440
I0403 19:30:50.297883  9331 layer_factory.hpp:77] Creating layer inception_4c/relu_pool_proj
I0403 19:30:50.297904  9331 net.cpp:91] Creating Layer inception_4c/relu_pool_proj
I0403 19:30:50.297920  9331 net.cpp:425] inception_4c/relu_pool_proj <- inception_4c/pool_proj
I0403 19:30:50.297937  9331 net.cpp:386] inception_4c/relu_pool_proj -> inception_4c/pool_proj (in-place)
I0403 19:30:50.298110  9331 net.cpp:141] Setting up inception_4c/relu_pool_proj
I0403 19:30:50.298135  9331 net.cpp:148] Top shape: 24 64 14 14 (301056)
I0403 19:30:50.298151  9331 net.cpp:156] Memory required for data: 1063013664
I0403 19:30:50.298166  9331 layer_factory.hpp:77] Creating layer inception_4c/output
I0403 19:30:50.298197  9331 net.cpp:91] Creating Layer inception_4c/output
I0403 19:30:50.298213  9331 net.cpp:425] inception_4c/output <- inception_4c/1x1
I0403 19:30:50.298229  9331 net.cpp:425] inception_4c/output <- inception_4c/3x3
I0403 19:30:50.298245  9331 net.cpp:425] inception_4c/output <- inception_4c/5x5
I0403 19:30:50.298261  9331 net.cpp:425] inception_4c/output <- inception_4c/pool_proj
I0403 19:30:50.298279  9331 net.cpp:399] inception_4c/output -> inception_4c/output
I0403 19:30:50.298324  9331 net.cpp:141] Setting up inception_4c/output
I0403 19:30:50.298348  9331 net.cpp:148] Top shape: 24 512 14 14 (2408448)
I0403 19:30:50.298363  9331 net.cpp:156] Memory required for data: 1072647456
I0403 19:30:50.298377  9331 layer_factory.hpp:77] Creating layer inception_4c/output_inception_4c/output_0_split
I0403 19:30:50.298394  9331 net.cpp:91] Creating Layer inception_4c/output_inception_4c/output_0_split
I0403 19:30:50.298409  9331 net.cpp:425] inception_4c/output_inception_4c/output_0_split <- inception_4c/output
I0403 19:30:50.298429  9331 net.cpp:399] inception_4c/output_inception_4c/output_0_split -> inception_4c/output_inception_4c/output_0_split_0
I0403 19:30:50.298449  9331 net.cpp:399] inception_4c/output_inception_4c/output_0_split -> inception_4c/output_inception_4c/output_0_split_1
I0403 19:30:50.298475  9331 net.cpp:399] inception_4c/output_inception_4c/output_0_split -> inception_4c/output_inception_4c/output_0_split_2
I0403 19:30:50.298508  9331 net.cpp:399] inception_4c/output_inception_4c/output_0_split -> inception_4c/output_inception_4c/output_0_split_3
I0403 19:30:50.298593  9331 net.cpp:141] Setting up inception_4c/output_inception_4c/output_0_split
I0403 19:30:50.298617  9331 net.cpp:148] Top shape: 24 512 14 14 (2408448)
I0403 19:30:50.298634  9331 net.cpp:148] Top shape: 24 512 14 14 (2408448)
I0403 19:30:50.298648  9331 net.cpp:148] Top shape: 24 512 14 14 (2408448)
I0403 19:30:50.298663  9331 net.cpp:148] Top shape: 24 512 14 14 (2408448)
I0403 19:30:50.298676  9331 net.cpp:156] Memory required for data: 1111182624
I0403 19:30:50.298691  9331 layer_factory.hpp:77] Creating layer inception_4d/1x1
I0403 19:30:50.298712  9331 net.cpp:91] Creating Layer inception_4d/1x1
I0403 19:30:50.298728  9331 net.cpp:425] inception_4d/1x1 <- inception_4c/output_inception_4c/output_0_split_0
I0403 19:30:50.298748  9331 net.cpp:399] inception_4d/1x1 -> inception_4d/1x1
I0403 19:30:50.300060  9331 net.cpp:141] Setting up inception_4d/1x1
I0403 19:30:50.300089  9331 net.cpp:148] Top shape: 24 112 14 14 (526848)
I0403 19:30:50.300107  9331 net.cpp:156] Memory required for data: 1113290016
I0403 19:30:50.300124  9331 layer_factory.hpp:77] Creating layer inception_4d/relu_1x1
I0403 19:30:50.300142  9331 net.cpp:91] Creating Layer inception_4d/relu_1x1
I0403 19:30:50.300156  9331 net.cpp:425] inception_4d/relu_1x1 <- inception_4d/1x1
I0403 19:30:50.300175  9331 net.cpp:386] inception_4d/relu_1x1 -> inception_4d/1x1 (in-place)
I0403 19:30:50.300360  9331 net.cpp:141] Setting up inception_4d/relu_1x1
I0403 19:30:50.300384  9331 net.cpp:148] Top shape: 24 112 14 14 (526848)
I0403 19:30:50.300400  9331 net.cpp:156] Memory required for data: 1115397408
I0403 19:30:50.300415  9331 layer_factory.hpp:77] Creating layer inception_4d/3x3_reduce
I0403 19:30:50.300449  9331 net.cpp:91] Creating Layer inception_4d/3x3_reduce
I0403 19:30:50.300473  9331 net.cpp:425] inception_4d/3x3_reduce <- inception_4c/output_inception_4c/output_0_split_1
I0403 19:30:50.300495  9331 net.cpp:399] inception_4d/3x3_reduce -> inception_4d/3x3_reduce
I0403 19:30:50.301928  9331 net.cpp:141] Setting up inception_4d/3x3_reduce
I0403 19:30:50.301959  9331 net.cpp:148] Top shape: 24 144 14 14 (677376)
I0403 19:30:50.301975  9331 net.cpp:156] Memory required for data: 1118106912
I0403 19:30:50.301993  9331 layer_factory.hpp:77] Creating layer inception_4d/relu_3x3_reduce
I0403 19:30:50.302011  9331 net.cpp:91] Creating Layer inception_4d/relu_3x3_reduce
I0403 19:30:50.302026  9331 net.cpp:425] inception_4d/relu_3x3_reduce <- inception_4d/3x3_reduce
I0403 19:30:50.302043  9331 net.cpp:386] inception_4d/relu_3x3_reduce -> inception_4d/3x3_reduce (in-place)
I0403 19:30:50.302320  9331 net.cpp:141] Setting up inception_4d/relu_3x3_reduce
I0403 19:30:50.302348  9331 net.cpp:148] Top shape: 24 144 14 14 (677376)
I0403 19:30:50.302364  9331 net.cpp:156] Memory required for data: 1120816416
I0403 19:30:50.302379  9331 layer_factory.hpp:77] Creating layer inception_4d/3x3
I0403 19:30:50.302400  9331 net.cpp:91] Creating Layer inception_4d/3x3
I0403 19:30:50.302418  9331 net.cpp:425] inception_4d/3x3 <- inception_4d/3x3_reduce
I0403 19:30:50.302436  9331 net.cpp:399] inception_4d/3x3 -> inception_4d/3x3
I0403 19:30:50.306470  9331 net.cpp:141] Setting up inception_4d/3x3
I0403 19:30:50.306499  9331 net.cpp:148] Top shape: 24 288 14 14 (1354752)
I0403 19:30:50.306515  9331 net.cpp:156] Memory required for data: 1126235424
I0403 19:30:50.306534  9331 layer_factory.hpp:77] Creating layer inception_4d/relu_3x3
I0403 19:30:50.306551  9331 net.cpp:91] Creating Layer inception_4d/relu_3x3
I0403 19:30:50.306566  9331 net.cpp:425] inception_4d/relu_3x3 <- inception_4d/3x3
I0403 19:30:50.306586  9331 net.cpp:386] inception_4d/relu_3x3 -> inception_4d/3x3 (in-place)
I0403 19:30:50.306759  9331 net.cpp:141] Setting up inception_4d/relu_3x3
I0403 19:30:50.306784  9331 net.cpp:148] Top shape: 24 288 14 14 (1354752)
I0403 19:30:50.306799  9331 net.cpp:156] Memory required for data: 1131654432
I0403 19:30:50.306814  9331 layer_factory.hpp:77] Creating layer inception_4d/5x5_reduce
I0403 19:30:50.306835  9331 net.cpp:91] Creating Layer inception_4d/5x5_reduce
I0403 19:30:50.306854  9331 net.cpp:425] inception_4d/5x5_reduce <- inception_4c/output_inception_4c/output_0_split_2
I0403 19:30:50.306874  9331 net.cpp:399] inception_4d/5x5_reduce -> inception_4d/5x5_reduce
I0403 19:30:50.307970  9331 net.cpp:141] Setting up inception_4d/5x5_reduce
I0403 19:30:50.307996  9331 net.cpp:148] Top shape: 24 32 14 14 (150528)
I0403 19:30:50.308012  9331 net.cpp:156] Memory required for data: 1132256544
I0403 19:30:50.308030  9331 layer_factory.hpp:77] Creating layer inception_4d/relu_5x5_reduce
I0403 19:30:50.308048  9331 net.cpp:91] Creating Layer inception_4d/relu_5x5_reduce
I0403 19:30:50.308063  9331 net.cpp:425] inception_4d/relu_5x5_reduce <- inception_4d/5x5_reduce
I0403 19:30:50.308082  9331 net.cpp:386] inception_4d/relu_5x5_reduce -> inception_4d/5x5_reduce (in-place)
I0403 19:30:50.308259  9331 net.cpp:141] Setting up inception_4d/relu_5x5_reduce
I0403 19:30:50.308284  9331 net.cpp:148] Top shape: 24 32 14 14 (150528)
I0403 19:30:50.308300  9331 net.cpp:156] Memory required for data: 1132858656
I0403 19:30:50.308315  9331 layer_factory.hpp:77] Creating layer inception_4d/5x5
I0403 19:30:50.308336  9331 net.cpp:91] Creating Layer inception_4d/5x5
I0403 19:30:50.308352  9331 net.cpp:425] inception_4d/5x5 <- inception_4d/5x5_reduce
I0403 19:30:50.308373  9331 net.cpp:399] inception_4d/5x5 -> inception_4d/5x5
I0403 19:30:50.309770  9331 net.cpp:141] Setting up inception_4d/5x5
I0403 19:30:50.309798  9331 net.cpp:148] Top shape: 24 64 14 14 (301056)
I0403 19:30:50.309813  9331 net.cpp:156] Memory required for data: 1134062880
I0403 19:30:50.309831  9331 layer_factory.hpp:77] Creating layer inception_4d/relu_5x5
I0403 19:30:50.309865  9331 net.cpp:91] Creating Layer inception_4d/relu_5x5
I0403 19:30:50.309883  9331 net.cpp:425] inception_4d/relu_5x5 <- inception_4d/5x5
I0403 19:30:50.309901  9331 net.cpp:386] inception_4d/relu_5x5 -> inception_4d/5x5 (in-place)
I0403 19:30:50.310184  9331 net.cpp:141] Setting up inception_4d/relu_5x5
I0403 19:30:50.310211  9331 net.cpp:148] Top shape: 24 64 14 14 (301056)
I0403 19:30:50.310226  9331 net.cpp:156] Memory required for data: 1135267104
I0403 19:30:50.310241  9331 layer_factory.hpp:77] Creating layer inception_4d/pool
I0403 19:30:50.310261  9331 net.cpp:91] Creating Layer inception_4d/pool
I0403 19:30:50.310276  9331 net.cpp:425] inception_4d/pool <- inception_4c/output_inception_4c/output_0_split_3
I0403 19:30:50.310294  9331 net.cpp:399] inception_4d/pool -> inception_4d/pool
I0403 19:30:50.310359  9331 net.cpp:141] Setting up inception_4d/pool
I0403 19:30:50.310382  9331 net.cpp:148] Top shape: 24 512 14 14 (2408448)
I0403 19:30:50.310396  9331 net.cpp:156] Memory required for data: 1144900896
I0403 19:30:50.310410  9331 layer_factory.hpp:77] Creating layer inception_4d/pool_proj
I0403 19:30:50.310431  9331 net.cpp:91] Creating Layer inception_4d/pool_proj
I0403 19:30:50.310449  9331 net.cpp:425] inception_4d/pool_proj <- inception_4d/pool
I0403 19:30:50.310477  9331 net.cpp:399] inception_4d/pool_proj -> inception_4d/pool_proj
I0403 19:30:50.312147  9331 net.cpp:141] Setting up inception_4d/pool_proj
I0403 19:30:50.312176  9331 net.cpp:148] Top shape: 24 64 14 14 (301056)
I0403 19:30:50.312191  9331 net.cpp:156] Memory required for data: 1146105120
I0403 19:30:50.312209  9331 layer_factory.hpp:77] Creating layer inception_4d/relu_pool_proj
I0403 19:30:50.312227  9331 net.cpp:91] Creating Layer inception_4d/relu_pool_proj
I0403 19:30:50.312242  9331 net.cpp:425] inception_4d/relu_pool_proj <- inception_4d/pool_proj
I0403 19:30:50.312263  9331 net.cpp:386] inception_4d/relu_pool_proj -> inception_4d/pool_proj (in-place)
I0403 19:30:50.312449  9331 net.cpp:141] Setting up inception_4d/relu_pool_proj
I0403 19:30:50.312484  9331 net.cpp:148] Top shape: 24 64 14 14 (301056)
I0403 19:30:50.312500  9331 net.cpp:156] Memory required for data: 1147309344
I0403 19:30:50.312515  9331 layer_factory.hpp:77] Creating layer inception_4d/output
I0403 19:30:50.312536  9331 net.cpp:91] Creating Layer inception_4d/output
I0403 19:30:50.312552  9331 net.cpp:425] inception_4d/output <- inception_4d/1x1
I0403 19:30:50.312569  9331 net.cpp:425] inception_4d/output <- inception_4d/3x3
I0403 19:30:50.312594  9331 net.cpp:425] inception_4d/output <- inception_4d/5x5
I0403 19:30:50.312609  9331 net.cpp:425] inception_4d/output <- inception_4d/pool_proj
I0403 19:30:50.312630  9331 net.cpp:399] inception_4d/output -> inception_4d/output
I0403 19:30:50.312677  9331 net.cpp:141] Setting up inception_4d/output
I0403 19:30:50.312701  9331 net.cpp:148] Top shape: 24 528 14 14 (2483712)
I0403 19:30:50.312716  9331 net.cpp:156] Memory required for data: 1157244192
I0403 19:30:50.312731  9331 layer_factory.hpp:77] Creating layer inception_4d/output_inception_4d/output_0_split
I0403 19:30:50.312748  9331 net.cpp:91] Creating Layer inception_4d/output_inception_4d/output_0_split
I0403 19:30:50.312763  9331 net.cpp:425] inception_4d/output_inception_4d/output_0_split <- inception_4d/output
I0403 19:30:50.312782  9331 net.cpp:399] inception_4d/output_inception_4d/output_0_split -> inception_4d/output_inception_4d/output_0_split_0
I0403 19:30:50.312803  9331 net.cpp:399] inception_4d/output_inception_4d/output_0_split -> inception_4d/output_inception_4d/output_0_split_1
I0403 19:30:50.312822  9331 net.cpp:399] inception_4d/output_inception_4d/output_0_split -> inception_4d/output_inception_4d/output_0_split_2
I0403 19:30:50.312842  9331 net.cpp:399] inception_4d/output_inception_4d/output_0_split -> inception_4d/output_inception_4d/output_0_split_3
I0403 19:30:50.312862  9331 net.cpp:399] inception_4d/output_inception_4d/output_0_split -> inception_4d/output_inception_4d/output_0_split_4
I0403 19:30:50.312961  9331 net.cpp:141] Setting up inception_4d/output_inception_4d/output_0_split
I0403 19:30:50.312995  9331 net.cpp:148] Top shape: 24 528 14 14 (2483712)
I0403 19:30:50.313014  9331 net.cpp:148] Top shape: 24 528 14 14 (2483712)
I0403 19:30:50.313030  9331 net.cpp:148] Top shape: 24 528 14 14 (2483712)
I0403 19:30:50.313046  9331 net.cpp:148] Top shape: 24 528 14 14 (2483712)
I0403 19:30:50.313061  9331 net.cpp:148] Top shape: 24 528 14 14 (2483712)
I0403 19:30:50.313074  9331 net.cpp:156] Memory required for data: 1206918432
I0403 19:30:50.313088  9331 layer_factory.hpp:77] Creating layer loss2/ave_pool
I0403 19:30:50.313104  9331 net.cpp:91] Creating Layer loss2/ave_pool
I0403 19:30:50.313119  9331 net.cpp:425] loss2/ave_pool <- inception_4d/output_inception_4d/output_0_split_0
I0403 19:30:50.313139  9331 net.cpp:399] loss2/ave_pool -> loss2/ave_pool
I0403 19:30:50.313441  9331 net.cpp:141] Setting up loss2/ave_pool
I0403 19:30:50.313474  9331 net.cpp:148] Top shape: 24 528 4 4 (202752)
I0403 19:30:50.313490  9331 net.cpp:156] Memory required for data: 1207729440
I0403 19:30:50.313505  9331 layer_factory.hpp:77] Creating layer loss2/conv
I0403 19:30:50.313527  9331 net.cpp:91] Creating Layer loss2/conv
I0403 19:30:50.313545  9331 net.cpp:425] loss2/conv <- loss2/ave_pool
I0403 19:30:50.313567  9331 net.cpp:399] loss2/conv -> loss2/conv
I0403 19:30:50.315368  9331 net.cpp:141] Setting up loss2/conv
I0403 19:30:50.315397  9331 net.cpp:148] Top shape: 24 128 4 4 (49152)
I0403 19:30:50.315412  9331 net.cpp:156] Memory required for data: 1207926048
I0403 19:30:50.315429  9331 layer_factory.hpp:77] Creating layer loss2/relu_conv
I0403 19:30:50.315448  9331 net.cpp:91] Creating Layer loss2/relu_conv
I0403 19:30:50.315471  9331 net.cpp:425] loss2/relu_conv <- loss2/conv
I0403 19:30:50.315490  9331 net.cpp:386] loss2/relu_conv -> loss2/conv (in-place)
I0403 19:30:50.315768  9331 net.cpp:141] Setting up loss2/relu_conv
I0403 19:30:50.315793  9331 net.cpp:148] Top shape: 24 128 4 4 (49152)
I0403 19:30:50.315807  9331 net.cpp:156] Memory required for data: 1208122656
I0403 19:30:50.315822  9331 layer_factory.hpp:77] Creating layer loss2/fc
I0403 19:30:50.315842  9331 net.cpp:91] Creating Layer loss2/fc
I0403 19:30:50.315858  9331 net.cpp:425] loss2/fc <- loss2/conv
I0403 19:30:50.315877  9331 net.cpp:399] loss2/fc -> loss2/fc
I0403 19:30:50.332542  9331 net.cpp:141] Setting up loss2/fc
I0403 19:30:50.332576  9331 net.cpp:148] Top shape: 24 1024 (24576)
I0403 19:30:50.332589  9331 net.cpp:156] Memory required for data: 1208220960
I0403 19:30:50.332608  9331 layer_factory.hpp:77] Creating layer loss2/relu_fc
I0403 19:30:50.332625  9331 net.cpp:91] Creating Layer loss2/relu_fc
I0403 19:30:50.332643  9331 net.cpp:425] loss2/relu_fc <- loss2/fc
I0403 19:30:50.332664  9331 net.cpp:386] loss2/relu_fc -> loss2/fc (in-place)
I0403 19:30:50.332950  9331 net.cpp:141] Setting up loss2/relu_fc
I0403 19:30:50.332976  9331 net.cpp:148] Top shape: 24 1024 (24576)
I0403 19:30:50.332993  9331 net.cpp:156] Memory required for data: 1208319264
I0403 19:30:50.333006  9331 layer_factory.hpp:77] Creating layer loss2/drop_fc
I0403 19:30:50.333024  9331 net.cpp:91] Creating Layer loss2/drop_fc
I0403 19:30:50.333040  9331 net.cpp:425] loss2/drop_fc <- loss2/fc
I0403 19:30:50.333060  9331 net.cpp:386] loss2/drop_fc -> loss2/fc (in-place)
I0403 19:30:50.333107  9331 net.cpp:141] Setting up loss2/drop_fc
I0403 19:30:50.333134  9331 net.cpp:148] Top shape: 24 1024 (24576)
I0403 19:30:50.333149  9331 net.cpp:156] Memory required for data: 1208417568
I0403 19:30:50.333165  9331 layer_factory.hpp:77] Creating layer loss2/classifier_plantvillage
I0403 19:30:50.333183  9331 net.cpp:91] Creating Layer loss2/classifier_plantvillage
I0403 19:30:50.333197  9331 net.cpp:425] loss2/classifier_plantvillage <- loss2/fc
I0403 19:30:50.333217  9331 net.cpp:399] loss2/classifier_plantvillage -> loss2/classifier_plantvillage
I0403 19:30:50.333600  9331 net.cpp:141] Setting up loss2/classifier_plantvillage
I0403 19:30:50.333627  9331 net.cpp:148] Top shape: 24 38 (912)
I0403 19:30:50.333644  9331 net.cpp:156] Memory required for data: 1208421216
I0403 19:30:50.333679  9331 layer_factory.hpp:77] Creating layer loss2/classifier_plantvillage_loss2/classifier_plantvillage_0_split
I0403 19:30:50.333698  9331 net.cpp:91] Creating Layer loss2/classifier_plantvillage_loss2/classifier_plantvillage_0_split
I0403 19:30:50.333714  9331 net.cpp:425] loss2/classifier_plantvillage_loss2/classifier_plantvillage_0_split <- loss2/classifier_plantvillage
I0403 19:30:50.333730  9331 net.cpp:399] loss2/classifier_plantvillage_loss2/classifier_plantvillage_0_split -> loss2/classifier_plantvillage_loss2/classifier_plantvillage_0_split_0
I0403 19:30:50.333750  9331 net.cpp:399] loss2/classifier_plantvillage_loss2/classifier_plantvillage_0_split -> loss2/classifier_plantvillage_loss2/classifier_plantvillage_0_split_1
I0403 19:30:50.333773  9331 net.cpp:399] loss2/classifier_plantvillage_loss2/classifier_plantvillage_0_split -> loss2/classifier_plantvillage_loss2/classifier_plantvillage_0_split_2
I0403 19:30:50.333848  9331 net.cpp:141] Setting up loss2/classifier_plantvillage_loss2/classifier_plantvillage_0_split
I0403 19:30:50.333871  9331 net.cpp:148] Top shape: 24 38 (912)
I0403 19:30:50.333887  9331 net.cpp:148] Top shape: 24 38 (912)
I0403 19:30:50.333902  9331 net.cpp:148] Top shape: 24 38 (912)
I0403 19:30:50.333917  9331 net.cpp:156] Memory required for data: 1208432160
I0403 19:30:50.333930  9331 layer_factory.hpp:77] Creating layer inception_4e/1x1
I0403 19:30:50.333950  9331 net.cpp:91] Creating Layer inception_4e/1x1
I0403 19:30:50.333966  9331 net.cpp:425] inception_4e/1x1 <- inception_4d/output_inception_4d/output_0_split_1
I0403 19:30:50.333986  9331 net.cpp:399] inception_4e/1x1 -> inception_4e/1x1
I0403 19:30:50.335711  9331 net.cpp:141] Setting up inception_4e/1x1
I0403 19:30:50.335738  9331 net.cpp:148] Top shape: 24 256 14 14 (1204224)
I0403 19:30:50.335754  9331 net.cpp:156] Memory required for data: 1213249056
I0403 19:30:50.335772  9331 layer_factory.hpp:77] Creating layer inception_4e/relu_1x1
I0403 19:30:50.335791  9331 net.cpp:91] Creating Layer inception_4e/relu_1x1
I0403 19:30:50.335808  9331 net.cpp:425] inception_4e/relu_1x1 <- inception_4e/1x1
I0403 19:30:50.335825  9331 net.cpp:386] inception_4e/relu_1x1 -> inception_4e/1x1 (in-place)
I0403 19:30:50.336104  9331 net.cpp:141] Setting up inception_4e/relu_1x1
I0403 19:30:50.336129  9331 net.cpp:148] Top shape: 24 256 14 14 (1204224)
I0403 19:30:50.336144  9331 net.cpp:156] Memory required for data: 1218065952
I0403 19:30:50.336159  9331 layer_factory.hpp:77] Creating layer inception_4e/3x3_reduce
I0403 19:30:50.336182  9331 net.cpp:91] Creating Layer inception_4e/3x3_reduce
I0403 19:30:50.336199  9331 net.cpp:425] inception_4e/3x3_reduce <- inception_4d/output_inception_4d/output_0_split_2
I0403 19:30:50.336217  9331 net.cpp:399] inception_4e/3x3_reduce -> inception_4e/3x3_reduce
I0403 19:30:50.338228  9331 net.cpp:141] Setting up inception_4e/3x3_reduce
I0403 19:30:50.338271  9331 net.cpp:148] Top shape: 24 160 14 14 (752640)
I0403 19:30:50.338297  9331 net.cpp:156] Memory required for data: 1221076512
I0403 19:30:50.338332  9331 layer_factory.hpp:77] Creating layer inception_4e/relu_3x3_reduce
I0403 19:30:50.338363  9331 net.cpp:91] Creating Layer inception_4e/relu_3x3_reduce
I0403 19:30:50.338383  9331 net.cpp:425] inception_4e/relu_3x3_reduce <- inception_4e/3x3_reduce
I0403 19:30:50.338409  9331 net.cpp:386] inception_4e/relu_3x3_reduce -> inception_4e/3x3_reduce (in-place)
I0403 19:30:50.338594  9331 net.cpp:141] Setting up inception_4e/relu_3x3_reduce
I0403 19:30:50.338621  9331 net.cpp:148] Top shape: 24 160 14 14 (752640)
I0403 19:30:50.338637  9331 net.cpp:156] Memory required for data: 1224087072
I0403 19:30:50.338652  9331 layer_factory.hpp:77] Creating layer inception_4e/3x3
I0403 19:30:50.338675  9331 net.cpp:91] Creating Layer inception_4e/3x3
I0403 19:30:50.338692  9331 net.cpp:425] inception_4e/3x3 <- inception_4e/3x3_reduce
I0403 19:30:50.338711  9331 net.cpp:399] inception_4e/3x3 -> inception_4e/3x3
I0403 19:30:50.343456  9331 net.cpp:141] Setting up inception_4e/3x3
I0403 19:30:50.343502  9331 net.cpp:148] Top shape: 24 320 14 14 (1505280)
I0403 19:30:50.343520  9331 net.cpp:156] Memory required for data: 1230108192
I0403 19:30:50.343538  9331 layer_factory.hpp:77] Creating layer inception_4e/relu_3x3
I0403 19:30:50.343556  9331 net.cpp:91] Creating Layer inception_4e/relu_3x3
I0403 19:30:50.343574  9331 net.cpp:425] inception_4e/relu_3x3 <- inception_4e/3x3
I0403 19:30:50.343593  9331 net.cpp:386] inception_4e/relu_3x3 -> inception_4e/3x3 (in-place)
I0403 19:30:50.343881  9331 net.cpp:141] Setting up inception_4e/relu_3x3
I0403 19:30:50.343914  9331 net.cpp:148] Top shape: 24 320 14 14 (1505280)
I0403 19:30:50.343930  9331 net.cpp:156] Memory required for data: 1236129312
I0403 19:30:50.343945  9331 layer_factory.hpp:77] Creating layer inception_4e/5x5_reduce
I0403 19:30:50.343968  9331 net.cpp:91] Creating Layer inception_4e/5x5_reduce
I0403 19:30:50.343987  9331 net.cpp:425] inception_4e/5x5_reduce <- inception_4d/output_inception_4d/output_0_split_3
I0403 19:30:50.344008  9331 net.cpp:399] inception_4e/5x5_reduce -> inception_4e/5x5_reduce
I0403 19:30:50.345031  9331 net.cpp:141] Setting up inception_4e/5x5_reduce
I0403 19:30:50.345058  9331 net.cpp:148] Top shape: 24 32 14 14 (150528)
I0403 19:30:50.345074  9331 net.cpp:156] Memory required for data: 1236731424
I0403 19:30:50.345091  9331 layer_factory.hpp:77] Creating layer inception_4e/relu_5x5_reduce
I0403 19:30:50.345110  9331 net.cpp:91] Creating Layer inception_4e/relu_5x5_reduce
I0403 19:30:50.345127  9331 net.cpp:425] inception_4e/relu_5x5_reduce <- inception_4e/5x5_reduce
I0403 19:30:50.345144  9331 net.cpp:386] inception_4e/relu_5x5_reduce -> inception_4e/5x5_reduce (in-place)
I0403 19:30:50.345432  9331 net.cpp:141] Setting up inception_4e/relu_5x5_reduce
I0403 19:30:50.345456  9331 net.cpp:148] Top shape: 24 32 14 14 (150528)
I0403 19:30:50.345480  9331 net.cpp:156] Memory required for data: 1237333536
I0403 19:30:50.345496  9331 layer_factory.hpp:77] Creating layer inception_4e/5x5
I0403 19:30:50.345531  9331 net.cpp:91] Creating Layer inception_4e/5x5
I0403 19:30:50.345551  9331 net.cpp:425] inception_4e/5x5 <- inception_4e/5x5_reduce
I0403 19:30:50.345573  9331 net.cpp:399] inception_4e/5x5 -> inception_4e/5x5
I0403 19:30:50.347324  9331 net.cpp:141] Setting up inception_4e/5x5
I0403 19:30:50.347352  9331 net.cpp:148] Top shape: 24 128 14 14 (602112)
I0403 19:30:50.347368  9331 net.cpp:156] Memory required for data: 1239741984
I0403 19:30:50.347386  9331 layer_factory.hpp:77] Creating layer inception_4e/relu_5x5
I0403 19:30:50.347404  9331 net.cpp:91] Creating Layer inception_4e/relu_5x5
I0403 19:30:50.347419  9331 net.cpp:425] inception_4e/relu_5x5 <- inception_4e/5x5
I0403 19:30:50.347437  9331 net.cpp:386] inception_4e/relu_5x5 -> inception_4e/5x5 (in-place)
I0403 19:30:50.347630  9331 net.cpp:141] Setting up inception_4e/relu_5x5
I0403 19:30:50.347654  9331 net.cpp:148] Top shape: 24 128 14 14 (602112)
I0403 19:30:50.347669  9331 net.cpp:156] Memory required for data: 1242150432
I0403 19:30:50.347684  9331 layer_factory.hpp:77] Creating layer inception_4e/pool
I0403 19:30:50.347703  9331 net.cpp:91] Creating Layer inception_4e/pool
I0403 19:30:50.347719  9331 net.cpp:425] inception_4e/pool <- inception_4d/output_inception_4d/output_0_split_4
I0403 19:30:50.347738  9331 net.cpp:399] inception_4e/pool -> inception_4e/pool
I0403 19:30:50.347805  9331 net.cpp:141] Setting up inception_4e/pool
I0403 19:30:50.347828  9331 net.cpp:148] Top shape: 24 528 14 14 (2483712)
I0403 19:30:50.347843  9331 net.cpp:156] Memory required for data: 1252085280
I0403 19:30:50.347857  9331 layer_factory.hpp:77] Creating layer inception_4e/pool_proj
I0403 19:30:50.347880  9331 net.cpp:91] Creating Layer inception_4e/pool_proj
I0403 19:30:50.347898  9331 net.cpp:425] inception_4e/pool_proj <- inception_4e/pool
I0403 19:30:50.347918  9331 net.cpp:399] inception_4e/pool_proj -> inception_4e/pool_proj
I0403 19:30:50.349340  9331 net.cpp:141] Setting up inception_4e/pool_proj
I0403 19:30:50.349369  9331 net.cpp:148] Top shape: 24 128 14 14 (602112)
I0403 19:30:50.349397  9331 net.cpp:156] Memory required for data: 1254493728
I0403 19:30:50.349416  9331 layer_factory.hpp:77] Creating layer inception_4e/relu_pool_proj
I0403 19:30:50.349434  9331 net.cpp:91] Creating Layer inception_4e/relu_pool_proj
I0403 19:30:50.349449  9331 net.cpp:425] inception_4e/relu_pool_proj <- inception_4e/pool_proj
I0403 19:30:50.349475  9331 net.cpp:386] inception_4e/relu_pool_proj -> inception_4e/pool_proj (in-place)
I0403 19:30:50.349757  9331 net.cpp:141] Setting up inception_4e/relu_pool_proj
I0403 19:30:50.349783  9331 net.cpp:148] Top shape: 24 128 14 14 (602112)
I0403 19:30:50.349798  9331 net.cpp:156] Memory required for data: 1256902176
I0403 19:30:50.349813  9331 layer_factory.hpp:77] Creating layer inception_4e/output
I0403 19:30:50.349830  9331 net.cpp:91] Creating Layer inception_4e/output
I0403 19:30:50.349845  9331 net.cpp:425] inception_4e/output <- inception_4e/1x1
I0403 19:30:50.349861  9331 net.cpp:425] inception_4e/output <- inception_4e/3x3
I0403 19:30:50.349877  9331 net.cpp:425] inception_4e/output <- inception_4e/5x5
I0403 19:30:50.349894  9331 net.cpp:425] inception_4e/output <- inception_4e/pool_proj
I0403 19:30:50.349912  9331 net.cpp:399] inception_4e/output -> inception_4e/output
I0403 19:30:50.349959  9331 net.cpp:141] Setting up inception_4e/output
I0403 19:30:50.349985  9331 net.cpp:148] Top shape: 24 832 14 14 (3913728)
I0403 19:30:50.350000  9331 net.cpp:156] Memory required for data: 1272557088
I0403 19:30:50.350015  9331 layer_factory.hpp:77] Creating layer pool4/3x3_s2
I0403 19:30:50.350033  9331 net.cpp:91] Creating Layer pool4/3x3_s2
I0403 19:30:50.350047  9331 net.cpp:425] pool4/3x3_s2 <- inception_4e/output
I0403 19:30:50.350065  9331 net.cpp:399] pool4/3x3_s2 -> pool4/3x3_s2
I0403 19:30:50.350131  9331 net.cpp:141] Setting up pool4/3x3_s2
I0403 19:30:50.350154  9331 net.cpp:148] Top shape: 24 832 7 7 (978432)
I0403 19:30:50.350168  9331 net.cpp:156] Memory required for data: 1276470816
I0403 19:30:50.350183  9331 layer_factory.hpp:77] Creating layer pool4/3x3_s2_pool4/3x3_s2_0_split
I0403 19:30:50.350203  9331 net.cpp:91] Creating Layer pool4/3x3_s2_pool4/3x3_s2_0_split
I0403 19:30:50.350219  9331 net.cpp:425] pool4/3x3_s2_pool4/3x3_s2_0_split <- pool4/3x3_s2
I0403 19:30:50.350234  9331 net.cpp:399] pool4/3x3_s2_pool4/3x3_s2_0_split -> pool4/3x3_s2_pool4/3x3_s2_0_split_0
I0403 19:30:50.350253  9331 net.cpp:399] pool4/3x3_s2_pool4/3x3_s2_0_split -> pool4/3x3_s2_pool4/3x3_s2_0_split_1
I0403 19:30:50.350272  9331 net.cpp:399] pool4/3x3_s2_pool4/3x3_s2_0_split -> pool4/3x3_s2_pool4/3x3_s2_0_split_2
I0403 19:30:50.350296  9331 net.cpp:399] pool4/3x3_s2_pool4/3x3_s2_0_split -> pool4/3x3_s2_pool4/3x3_s2_0_split_3
I0403 19:30:50.350383  9331 net.cpp:141] Setting up pool4/3x3_s2_pool4/3x3_s2_0_split
I0403 19:30:50.350406  9331 net.cpp:148] Top shape: 24 832 7 7 (978432)
I0403 19:30:50.350424  9331 net.cpp:148] Top shape: 24 832 7 7 (978432)
I0403 19:30:50.350438  9331 net.cpp:148] Top shape: 24 832 7 7 (978432)
I0403 19:30:50.350453  9331 net.cpp:148] Top shape: 24 832 7 7 (978432)
I0403 19:30:50.350476  9331 net.cpp:156] Memory required for data: 1292125728
I0403 19:30:50.350492  9331 layer_factory.hpp:77] Creating layer inception_5a/1x1
I0403 19:30:50.350514  9331 net.cpp:91] Creating Layer inception_5a/1x1
I0403 19:30:50.350533  9331 net.cpp:425] inception_5a/1x1 <- pool4/3x3_s2_pool4/3x3_s2_0_split_0
I0403 19:30:50.350553  9331 net.cpp:399] inception_5a/1x1 -> inception_5a/1x1
I0403 19:30:50.353251  9331 net.cpp:141] Setting up inception_5a/1x1
I0403 19:30:50.353279  9331 net.cpp:148] Top shape: 24 256 7 7 (301056)
I0403 19:30:50.353296  9331 net.cpp:156] Memory required for data: 1293329952
I0403 19:30:50.353314  9331 layer_factory.hpp:77] Creating layer inception_5a/relu_1x1
I0403 19:30:50.353334  9331 net.cpp:91] Creating Layer inception_5a/relu_1x1
I0403 19:30:50.353351  9331 net.cpp:425] inception_5a/relu_1x1 <- inception_5a/1x1
I0403 19:30:50.353368  9331 net.cpp:386] inception_5a/relu_1x1 -> inception_5a/1x1 (in-place)
I0403 19:30:50.353674  9331 net.cpp:141] Setting up inception_5a/relu_1x1
I0403 19:30:50.353700  9331 net.cpp:148] Top shape: 24 256 7 7 (301056)
I0403 19:30:50.353716  9331 net.cpp:156] Memory required for data: 1294534176
I0403 19:30:50.353730  9331 layer_factory.hpp:77] Creating layer inception_5a/3x3_reduce
I0403 19:30:50.353752  9331 net.cpp:91] Creating Layer inception_5a/3x3_reduce
I0403 19:30:50.353770  9331 net.cpp:425] inception_5a/3x3_reduce <- pool4/3x3_s2_pool4/3x3_s2_0_split_1
I0403 19:30:50.353790  9331 net.cpp:399] inception_5a/3x3_reduce -> inception_5a/3x3_reduce
I0403 19:30:50.356127  9331 net.cpp:141] Setting up inception_5a/3x3_reduce
I0403 19:30:50.356154  9331 net.cpp:148] Top shape: 24 160 7 7 (188160)
I0403 19:30:50.356169  9331 net.cpp:156] Memory required for data: 1295286816
I0403 19:30:50.356189  9331 layer_factory.hpp:77] Creating layer inception_5a/relu_3x3_reduce
I0403 19:30:50.356205  9331 net.cpp:91] Creating Layer inception_5a/relu_3x3_reduce
I0403 19:30:50.356221  9331 net.cpp:425] inception_5a/relu_3x3_reduce <- inception_5a/3x3_reduce
I0403 19:30:50.356241  9331 net.cpp:386] inception_5a/relu_3x3_reduce -> inception_5a/3x3_reduce (in-place)
I0403 19:30:50.356420  9331 net.cpp:141] Setting up inception_5a/relu_3x3_reduce
I0403 19:30:50.356446  9331 net.cpp:148] Top shape: 24 160 7 7 (188160)
I0403 19:30:50.356465  9331 net.cpp:156] Memory required for data: 1296039456
I0403 19:30:50.356482  9331 layer_factory.hpp:77] Creating layer inception_5a/3x3
I0403 19:30:50.356505  9331 net.cpp:91] Creating Layer inception_5a/3x3
I0403 19:30:50.356523  9331 net.cpp:425] inception_5a/3x3 <- inception_5a/3x3_reduce
I0403 19:30:50.356544  9331 net.cpp:399] inception_5a/3x3 -> inception_5a/3x3
I0403 19:30:50.361340  9331 net.cpp:141] Setting up inception_5a/3x3
I0403 19:30:50.361368  9331 net.cpp:148] Top shape: 24 320 7 7 (376320)
I0403 19:30:50.361383  9331 net.cpp:156] Memory required for data: 1297544736
I0403 19:30:50.361402  9331 layer_factory.hpp:77] Creating layer inception_5a/relu_3x3
I0403 19:30:50.361423  9331 net.cpp:91] Creating Layer inception_5a/relu_3x3
I0403 19:30:50.361439  9331 net.cpp:425] inception_5a/relu_3x3 <- inception_5a/3x3
I0403 19:30:50.361455  9331 net.cpp:386] inception_5a/relu_3x3 -> inception_5a/3x3 (in-place)
I0403 19:30:50.361748  9331 net.cpp:141] Setting up inception_5a/relu_3x3
I0403 19:30:50.361774  9331 net.cpp:148] Top shape: 24 320 7 7 (376320)
I0403 19:30:50.361789  9331 net.cpp:156] Memory required for data: 1299050016
I0403 19:30:50.361805  9331 layer_factory.hpp:77] Creating layer inception_5a/5x5_reduce
I0403 19:30:50.361826  9331 net.cpp:91] Creating Layer inception_5a/5x5_reduce
I0403 19:30:50.361843  9331 net.cpp:425] inception_5a/5x5_reduce <- pool4/3x3_s2_pool4/3x3_s2_0_split_2
I0403 19:30:50.361865  9331 net.cpp:399] inception_5a/5x5_reduce -> inception_5a/5x5_reduce
I0403 19:30:50.362984  9331 net.cpp:141] Setting up inception_5a/5x5_reduce
I0403 19:30:50.363015  9331 net.cpp:148] Top shape: 24 32 7 7 (37632)
I0403 19:30:50.363031  9331 net.cpp:156] Memory required for data: 1299200544
I0403 19:30:50.363049  9331 layer_factory.hpp:77] Creating layer inception_5a/relu_5x5_reduce
I0403 19:30:50.363067  9331 net.cpp:91] Creating Layer inception_5a/relu_5x5_reduce
I0403 19:30:50.363082  9331 net.cpp:425] inception_5a/relu_5x5_reduce <- inception_5a/5x5_reduce
I0403 19:30:50.363098  9331 net.cpp:386] inception_5a/relu_5x5_reduce -> inception_5a/5x5_reduce (in-place)
I0403 19:30:50.363386  9331 net.cpp:141] Setting up inception_5a/relu_5x5_reduce
I0403 19:30:50.363412  9331 net.cpp:148] Top shape: 24 32 7 7 (37632)
I0403 19:30:50.363427  9331 net.cpp:156] Memory required for data: 1299351072
I0403 19:30:50.363442  9331 layer_factory.hpp:77] Creating layer inception_5a/5x5
I0403 19:30:50.363471  9331 net.cpp:91] Creating Layer inception_5a/5x5
I0403 19:30:50.363490  9331 net.cpp:425] inception_5a/5x5 <- inception_5a/5x5_reduce
I0403 19:30:50.363512  9331 net.cpp:399] inception_5a/5x5 -> inception_5a/5x5
I0403 19:30:50.365142  9331 net.cpp:141] Setting up inception_5a/5x5
I0403 19:30:50.365180  9331 net.cpp:148] Top shape: 24 128 7 7 (150528)
I0403 19:30:50.365196  9331 net.cpp:156] Memory required for data: 1299953184
I0403 19:30:50.365216  9331 layer_factory.hpp:77] Creating layer inception_5a/relu_5x5
I0403 19:30:50.365234  9331 net.cpp:91] Creating Layer inception_5a/relu_5x5
I0403 19:30:50.365252  9331 net.cpp:425] inception_5a/relu_5x5 <- inception_5a/5x5
I0403 19:30:50.365269  9331 net.cpp:386] inception_5a/relu_5x5 -> inception_5a/5x5 (in-place)
I0403 19:30:50.365449  9331 net.cpp:141] Setting up inception_5a/relu_5x5
I0403 19:30:50.365480  9331 net.cpp:148] Top shape: 24 128 7 7 (150528)
I0403 19:30:50.365499  9331 net.cpp:156] Memory required for data: 1300555296
I0403 19:30:50.365514  9331 layer_factory.hpp:77] Creating layer inception_5a/pool
I0403 19:30:50.365531  9331 net.cpp:91] Creating Layer inception_5a/pool
I0403 19:30:50.365546  9331 net.cpp:425] inception_5a/pool <- pool4/3x3_s2_pool4/3x3_s2_0_split_3
I0403 19:30:50.365563  9331 net.cpp:399] inception_5a/pool -> inception_5a/pool
I0403 19:30:50.365631  9331 net.cpp:141] Setting up inception_5a/pool
I0403 19:30:50.365654  9331 net.cpp:148] Top shape: 24 832 7 7 (978432)
I0403 19:30:50.365669  9331 net.cpp:156] Memory required for data: 1304469024
I0403 19:30:50.365684  9331 layer_factory.hpp:77] Creating layer inception_5a/pool_proj
I0403 19:30:50.365705  9331 net.cpp:91] Creating Layer inception_5a/pool_proj
I0403 19:30:50.365723  9331 net.cpp:425] inception_5a/pool_proj <- inception_5a/pool
I0403 19:30:50.365744  9331 net.cpp:399] inception_5a/pool_proj -> inception_5a/pool_proj
I0403 19:30:50.367915  9331 net.cpp:141] Setting up inception_5a/pool_proj
I0403 19:30:50.367944  9331 net.cpp:148] Top shape: 24 128 7 7 (150528)
I0403 19:30:50.367959  9331 net.cpp:156] Memory required for data: 1305071136
I0403 19:30:50.367977  9331 layer_factory.hpp:77] Creating layer inception_5a/relu_pool_proj
I0403 19:30:50.367996  9331 net.cpp:91] Creating Layer inception_5a/relu_pool_proj
I0403 19:30:50.368016  9331 net.cpp:425] inception_5a/relu_pool_proj <- inception_5a/pool_proj
I0403 19:30:50.368033  9331 net.cpp:386] inception_5a/relu_pool_proj -> inception_5a/pool_proj (in-place)
I0403 19:30:50.368311  9331 net.cpp:141] Setting up inception_5a/relu_pool_proj
I0403 19:30:50.368337  9331 net.cpp:148] Top shape: 24 128 7 7 (150528)
I0403 19:30:50.368352  9331 net.cpp:156] Memory required for data: 1305673248
I0403 19:30:50.368368  9331 layer_factory.hpp:77] Creating layer inception_5a/output
I0403 19:30:50.368384  9331 net.cpp:91] Creating Layer inception_5a/output
I0403 19:30:50.368402  9331 net.cpp:425] inception_5a/output <- inception_5a/1x1
I0403 19:30:50.368418  9331 net.cpp:425] inception_5a/output <- inception_5a/3x3
I0403 19:30:50.368433  9331 net.cpp:425] inception_5a/output <- inception_5a/5x5
I0403 19:30:50.368448  9331 net.cpp:425] inception_5a/output <- inception_5a/pool_proj
I0403 19:30:50.368474  9331 net.cpp:399] inception_5a/output -> inception_5a/output
I0403 19:30:50.368525  9331 net.cpp:141] Setting up inception_5a/output
I0403 19:30:50.368551  9331 net.cpp:148] Top shape: 24 832 7 7 (978432)
I0403 19:30:50.368567  9331 net.cpp:156] Memory required for data: 1309586976
I0403 19:30:50.368582  9331 layer_factory.hpp:77] Creating layer inception_5a/output_inception_5a/output_0_split
I0403 19:30:50.368597  9331 net.cpp:91] Creating Layer inception_5a/output_inception_5a/output_0_split
I0403 19:30:50.368613  9331 net.cpp:425] inception_5a/output_inception_5a/output_0_split <- inception_5a/output
I0403 19:30:50.368629  9331 net.cpp:399] inception_5a/output_inception_5a/output_0_split -> inception_5a/output_inception_5a/output_0_split_0
I0403 19:30:50.368654  9331 net.cpp:399] inception_5a/output_inception_5a/output_0_split -> inception_5a/output_inception_5a/output_0_split_1
I0403 19:30:50.368674  9331 net.cpp:399] inception_5a/output_inception_5a/output_0_split -> inception_5a/output_inception_5a/output_0_split_2
I0403 19:30:50.368693  9331 net.cpp:399] inception_5a/output_inception_5a/output_0_split -> inception_5a/output_inception_5a/output_0_split_3
I0403 19:30:50.368798  9331 net.cpp:141] Setting up inception_5a/output_inception_5a/output_0_split
I0403 19:30:50.368823  9331 net.cpp:148] Top shape: 24 832 7 7 (978432)
I0403 19:30:50.368839  9331 net.cpp:148] Top shape: 24 832 7 7 (978432)
I0403 19:30:50.368855  9331 net.cpp:148] Top shape: 24 832 7 7 (978432)
I0403 19:30:50.368871  9331 net.cpp:148] Top shape: 24 832 7 7 (978432)
I0403 19:30:50.368885  9331 net.cpp:156] Memory required for data: 1325241888
I0403 19:30:50.368899  9331 layer_factory.hpp:77] Creating layer inception_5b/1x1
I0403 19:30:50.368921  9331 net.cpp:91] Creating Layer inception_5b/1x1
I0403 19:30:50.368938  9331 net.cpp:425] inception_5b/1x1 <- inception_5a/output_inception_5a/output_0_split_0
I0403 19:30:50.368960  9331 net.cpp:399] inception_5b/1x1 -> inception_5b/1x1
I0403 19:30:50.372540  9331 net.cpp:141] Setting up inception_5b/1x1
I0403 19:30:50.372570  9331 net.cpp:148] Top shape: 24 384 7 7 (451584)
I0403 19:30:50.372586  9331 net.cpp:156] Memory required for data: 1327048224
I0403 19:30:50.372603  9331 layer_factory.hpp:77] Creating layer inception_5b/relu_1x1
I0403 19:30:50.372622  9331 net.cpp:91] Creating Layer inception_5b/relu_1x1
I0403 19:30:50.372638  9331 net.cpp:425] inception_5b/relu_1x1 <- inception_5b/1x1
I0403 19:30:50.372658  9331 net.cpp:386] inception_5b/relu_1x1 -> inception_5b/1x1 (in-place)
I0403 19:30:50.372956  9331 net.cpp:141] Setting up inception_5b/relu_1x1
I0403 19:30:50.372982  9331 net.cpp:148] Top shape: 24 384 7 7 (451584)
I0403 19:30:50.372997  9331 net.cpp:156] Memory required for data: 1328854560
I0403 19:30:50.373011  9331 layer_factory.hpp:77] Creating layer inception_5b/3x3_reduce
I0403 19:30:50.373034  9331 net.cpp:91] Creating Layer inception_5b/3x3_reduce
I0403 19:30:50.373051  9331 net.cpp:425] inception_5b/3x3_reduce <- inception_5a/output_inception_5a/output_0_split_1
I0403 19:30:50.373073  9331 net.cpp:399] inception_5b/3x3_reduce -> inception_5b/3x3_reduce
I0403 19:30:50.375622  9331 net.cpp:141] Setting up inception_5b/3x3_reduce
I0403 19:30:50.375653  9331 net.cpp:148] Top shape: 24 192 7 7 (225792)
I0403 19:30:50.375669  9331 net.cpp:156] Memory required for data: 1329757728
I0403 19:30:50.375687  9331 layer_factory.hpp:77] Creating layer inception_5b/relu_3x3_reduce
I0403 19:30:50.375705  9331 net.cpp:91] Creating Layer inception_5b/relu_3x3_reduce
I0403 19:30:50.375730  9331 net.cpp:425] inception_5b/relu_3x3_reduce <- inception_5b/3x3_reduce
I0403 19:30:50.375748  9331 net.cpp:386] inception_5b/relu_3x3_reduce -> inception_5b/3x3_reduce (in-place)
I0403 19:30:50.375928  9331 net.cpp:141] Setting up inception_5b/relu_3x3_reduce
I0403 19:30:50.375953  9331 net.cpp:148] Top shape: 24 192 7 7 (225792)
I0403 19:30:50.375967  9331 net.cpp:156] Memory required for data: 1330660896
I0403 19:30:50.375982  9331 layer_factory.hpp:77] Creating layer inception_5b/3x3
I0403 19:30:50.376003  9331 net.cpp:91] Creating Layer inception_5b/3x3
I0403 19:30:50.376021  9331 net.cpp:425] inception_5b/3x3 <- inception_5b/3x3_reduce
I0403 19:30:50.376042  9331 net.cpp:399] inception_5b/3x3 -> inception_5b/3x3
I0403 19:30:50.382479  9331 net.cpp:141] Setting up inception_5b/3x3
I0403 19:30:50.382508  9331 net.cpp:148] Top shape: 24 384 7 7 (451584)
I0403 19:30:50.382524  9331 net.cpp:156] Memory required for data: 1332467232
I0403 19:30:50.382542  9331 layer_factory.hpp:77] Creating layer inception_5b/relu_3x3
I0403 19:30:50.382560  9331 net.cpp:91] Creating Layer inception_5b/relu_3x3
I0403 19:30:50.382581  9331 net.cpp:425] inception_5b/relu_3x3 <- inception_5b/3x3
I0403 19:30:50.382599  9331 net.cpp:386] inception_5b/relu_3x3 -> inception_5b/3x3 (in-place)
I0403 19:30:50.382882  9331 net.cpp:141] Setting up inception_5b/relu_3x3
I0403 19:30:50.382908  9331 net.cpp:148] Top shape: 24 384 7 7 (451584)
I0403 19:30:50.382923  9331 net.cpp:156] Memory required for data: 1334273568
I0403 19:30:50.382938  9331 layer_factory.hpp:77] Creating layer inception_5b/5x5_reduce
I0403 19:30:50.382975  9331 net.cpp:91] Creating Layer inception_5b/5x5_reduce
I0403 19:30:50.382995  9331 net.cpp:425] inception_5b/5x5_reduce <- inception_5a/output_inception_5a/output_0_split_2
I0403 19:30:50.383018  9331 net.cpp:399] inception_5b/5x5_reduce -> inception_5b/5x5_reduce
I0403 19:30:50.384227  9331 net.cpp:141] Setting up inception_5b/5x5_reduce
I0403 19:30:50.384254  9331 net.cpp:148] Top shape: 24 48 7 7 (56448)
I0403 19:30:50.384270  9331 net.cpp:156] Memory required for data: 1334499360
I0403 19:30:50.384289  9331 layer_factory.hpp:77] Creating layer inception_5b/relu_5x5_reduce
I0403 19:30:50.384305  9331 net.cpp:91] Creating Layer inception_5b/relu_5x5_reduce
I0403 19:30:50.384321  9331 net.cpp:425] inception_5b/relu_5x5_reduce <- inception_5b/5x5_reduce
I0403 19:30:50.384341  9331 net.cpp:386] inception_5b/relu_5x5_reduce -> inception_5b/5x5_reduce (in-place)
I0403 19:30:50.384702  9331 net.cpp:141] Setting up inception_5b/relu_5x5_reduce
I0403 19:30:50.384727  9331 net.cpp:148] Top shape: 24 48 7 7 (56448)
I0403 19:30:50.384742  9331 net.cpp:156] Memory required for data: 1334725152
I0403 19:30:50.384757  9331 layer_factory.hpp:77] Creating layer inception_5b/5x5
I0403 19:30:50.384778  9331 net.cpp:91] Creating Layer inception_5b/5x5
I0403 19:30:50.384793  9331 net.cpp:425] inception_5b/5x5 <- inception_5b/5x5_reduce
I0403 19:30:50.384814  9331 net.cpp:399] inception_5b/5x5 -> inception_5b/5x5
I0403 19:30:50.386765  9331 net.cpp:141] Setting up inception_5b/5x5
I0403 19:30:50.386792  9331 net.cpp:148] Top shape: 24 128 7 7 (150528)
I0403 19:30:50.386807  9331 net.cpp:156] Memory required for data: 1335327264
I0403 19:30:50.386824  9331 layer_factory.hpp:77] Creating layer inception_5b/relu_5x5
I0403 19:30:50.386844  9331 net.cpp:91] Creating Layer inception_5b/relu_5x5
I0403 19:30:50.386862  9331 net.cpp:425] inception_5b/relu_5x5 <- inception_5b/5x5
I0403 19:30:50.386878  9331 net.cpp:386] inception_5b/relu_5x5 -> inception_5b/5x5 (in-place)
I0403 19:30:50.387063  9331 net.cpp:141] Setting up inception_5b/relu_5x5
I0403 19:30:50.387087  9331 net.cpp:148] Top shape: 24 128 7 7 (150528)
I0403 19:30:50.387102  9331 net.cpp:156] Memory required for data: 1335929376
I0403 19:30:50.387116  9331 layer_factory.hpp:77] Creating layer inception_5b/pool
I0403 19:30:50.387136  9331 net.cpp:91] Creating Layer inception_5b/pool
I0403 19:30:50.387153  9331 net.cpp:425] inception_5b/pool <- inception_5a/output_inception_5a/output_0_split_3
I0403 19:30:50.387171  9331 net.cpp:399] inception_5b/pool -> inception_5b/pool
I0403 19:30:50.387241  9331 net.cpp:141] Setting up inception_5b/pool
I0403 19:30:50.387264  9331 net.cpp:148] Top shape: 24 832 7 7 (978432)
I0403 19:30:50.387280  9331 net.cpp:156] Memory required for data: 1339843104
I0403 19:30:50.387296  9331 layer_factory.hpp:77] Creating layer inception_5b/pool_proj
I0403 19:30:50.387317  9331 net.cpp:91] Creating Layer inception_5b/pool_proj
I0403 19:30:50.387334  9331 net.cpp:425] inception_5b/pool_proj <- inception_5b/pool
I0403 19:30:50.387356  9331 net.cpp:399] inception_5b/pool_proj -> inception_5b/pool_proj
I0403 19:30:50.389598  9331 net.cpp:141] Setting up inception_5b/pool_proj
I0403 19:30:50.389628  9331 net.cpp:148] Top shape: 24 128 7 7 (150528)
I0403 19:30:50.389644  9331 net.cpp:156] Memory required for data: 1340445216
I0403 19:30:50.389663  9331 layer_factory.hpp:77] Creating layer inception_5b/relu_pool_proj
I0403 19:30:50.389681  9331 net.cpp:91] Creating Layer inception_5b/relu_pool_proj
I0403 19:30:50.389696  9331 net.cpp:425] inception_5b/relu_pool_proj <- inception_5b/pool_proj
I0403 19:30:50.389716  9331 net.cpp:386] inception_5b/relu_pool_proj -> inception_5b/pool_proj (in-place)
I0403 19:30:50.389998  9331 net.cpp:141] Setting up inception_5b/relu_pool_proj
I0403 19:30:50.390025  9331 net.cpp:148] Top shape: 24 128 7 7 (150528)
I0403 19:30:50.390040  9331 net.cpp:156] Memory required for data: 1341047328
I0403 19:30:50.390056  9331 layer_factory.hpp:77] Creating layer inception_5b/output
I0403 19:30:50.390072  9331 net.cpp:91] Creating Layer inception_5b/output
I0403 19:30:50.390102  9331 net.cpp:425] inception_5b/output <- inception_5b/1x1
I0403 19:30:50.390120  9331 net.cpp:425] inception_5b/output <- inception_5b/3x3
I0403 19:30:50.390137  9331 net.cpp:425] inception_5b/output <- inception_5b/5x5
I0403 19:30:50.390152  9331 net.cpp:425] inception_5b/output <- inception_5b/pool_proj
I0403 19:30:50.390172  9331 net.cpp:399] inception_5b/output -> inception_5b/output
I0403 19:30:50.390221  9331 net.cpp:141] Setting up inception_5b/output
I0403 19:30:50.390249  9331 net.cpp:148] Top shape: 24 1024 7 7 (1204224)
I0403 19:30:50.390262  9331 net.cpp:156] Memory required for data: 1345864224
I0403 19:30:50.390277  9331 layer_factory.hpp:77] Creating layer pool5/7x7_s1
I0403 19:30:50.390305  9331 net.cpp:91] Creating Layer pool5/7x7_s1
I0403 19:30:50.390321  9331 net.cpp:425] pool5/7x7_s1 <- inception_5b/output
I0403 19:30:50.390341  9331 net.cpp:399] pool5/7x7_s1 -> pool5/7x7_s1
I0403 19:30:50.390558  9331 net.cpp:141] Setting up pool5/7x7_s1
I0403 19:30:50.390583  9331 net.cpp:148] Top shape: 24 1024 1 1 (24576)
I0403 19:30:50.390599  9331 net.cpp:156] Memory required for data: 1345962528
I0403 19:30:50.390612  9331 layer_factory.hpp:77] Creating layer pool5/drop_7x7_s1
I0403 19:30:50.390630  9331 net.cpp:91] Creating Layer pool5/drop_7x7_s1
I0403 19:30:50.390645  9331 net.cpp:425] pool5/drop_7x7_s1 <- pool5/7x7_s1
I0403 19:30:50.390661  9331 net.cpp:386] pool5/drop_7x7_s1 -> pool5/7x7_s1 (in-place)
I0403 19:30:50.390712  9331 net.cpp:141] Setting up pool5/drop_7x7_s1
I0403 19:30:50.390734  9331 net.cpp:148] Top shape: 24 1024 1 1 (24576)
I0403 19:30:50.390749  9331 net.cpp:156] Memory required for data: 1346060832
I0403 19:30:50.390763  9331 layer_factory.hpp:77] Creating layer loss3/classifier_plantvillage
I0403 19:30:50.390784  9331 net.cpp:91] Creating Layer loss3/classifier_plantvillage
I0403 19:30:50.390799  9331 net.cpp:425] loss3/classifier_plantvillage <- pool5/7x7_s1
I0403 19:30:50.390817  9331 net.cpp:399] loss3/classifier_plantvillage -> loss3/classifier_plantvillage
I0403 19:30:50.391237  9331 net.cpp:141] Setting up loss3/classifier_plantvillage
I0403 19:30:50.391263  9331 net.cpp:148] Top shape: 24 38 (912)
I0403 19:30:50.391278  9331 net.cpp:156] Memory required for data: 1346064480
I0403 19:30:50.391296  9331 layer_factory.hpp:77] Creating layer loss3/classifier_plantvillage_loss3/classifier_plantvillage_0_split
I0403 19:30:50.391317  9331 net.cpp:91] Creating Layer loss3/classifier_plantvillage_loss3/classifier_plantvillage_0_split
I0403 19:30:50.391335  9331 net.cpp:425] loss3/classifier_plantvillage_loss3/classifier_plantvillage_0_split <- loss3/classifier_plantvillage
I0403 19:30:50.391355  9331 net.cpp:399] loss3/classifier_plantvillage_loss3/classifier_plantvillage_0_split -> loss3/classifier_plantvillage_loss3/classifier_plantvillage_0_split_0
I0403 19:30:50.391376  9331 net.cpp:399] loss3/classifier_plantvillage_loss3/classifier_plantvillage_0_split -> loss3/classifier_plantvillage_loss3/classifier_plantvillage_0_split_1
I0403 19:30:50.391397  9331 net.cpp:399] loss3/classifier_plantvillage_loss3/classifier_plantvillage_0_split -> loss3/classifier_plantvillage_loss3/classifier_plantvillage_0_split_2
I0403 19:30:50.391417  9331 net.cpp:399] loss3/classifier_plantvillage_loss3/classifier_plantvillage_0_split -> loss3/classifier_plantvillage_loss3/classifier_plantvillage_0_split_3
I0403 19:30:50.391530  9331 net.cpp:141] Setting up loss3/classifier_plantvillage_loss3/classifier_plantvillage_0_split
I0403 19:30:50.391553  9331 net.cpp:148] Top shape: 24 38 (912)
I0403 19:30:50.391571  9331 net.cpp:148] Top shape: 24 38 (912)
I0403 19:30:50.391585  9331 net.cpp:148] Top shape: 24 38 (912)
I0403 19:30:50.391600  9331 net.cpp:148] Top shape: 24 38 (912)
I0403 19:30:50.391614  9331 net.cpp:156] Memory required for data: 1346079072
I0403 19:30:50.391629  9331 layer_factory.hpp:77] Creating layer loss1/loss
I0403 19:30:50.391651  9331 net.cpp:91] Creating Layer loss1/loss
I0403 19:30:50.391669  9331 net.cpp:425] loss1/loss <- loss1/classifier_plantvillage_loss1/classifier_plantvillage_0_split_0
I0403 19:30:50.391700  9331 net.cpp:425] loss1/loss <- label_data_1_split_0
…
