…
I0403 19:48:59.824997  9703 net.cpp:313] The NetState phase (1) differed from the phase (0) specified by a rule in layer data
I0403 19:48:59.826463  9703 net.cpp:49] Initializing net from parameters: 
state {
  phase: TEST
}
layer {
  name: "data"
  type: "Data"
  top: "data"
  top: "label"
  include {
    phase: TEST
  }
  transform_param {
    mirror: false
    crop_size: 224
    mean_file: "/home/mohanty/data/final_dataset/lmdb/color-60-40/mean.binaryproto"
  }
  data_param {
    source: "/home/mohanty/data/final_dataset/lmdb/color-60-40/test_db"
    batch_size: 24
    backend: LMDB
  }
}
layer {
  name: "conv1/7x7_s2"
  type: "Convolution"
  bottom: "data"
  top: "conv1/7x7_s2"
  param {
    lr_mult: 1
    decay_mult: 1
  }
  param {
    lr_mult: 2
    decay_mult: 0
  }
  convolution_param {
    num_output: 64
    pad: 3
    kernel_size: 7
    stride: 2
    weight_filler {
      type: "xavier"
      std: 0.1
    }
    bias_filler {
      type: "constant"
      value: 0.2
    }
  }
}
layer {
  name: "conv1/relu_7x7"
  type: "ReLU"
  bottom: "conv1/7x7_s2"
  top: "conv1/7x7_s2"
}
layer {
  name: "pool1/3x3_s2"
  type: "Pooling"
  bottom: "conv1/7x7_s2"
  top: "pool1/3x3_s2"
  pooling_param {
    pool: MAX
    kernel_size: 3
    stride: 2
  }
}
layer {
  name: "pool1/norm1"
  type: "LRN"
  bottom: "pool1/3x3_s2"
  top: "pool1/norm1"
  lrn_param {
    local_size: 5
    alpha: 0.0001
    beta: 0.75
  }
}
layer {
  name: "conv2/3x3_reduce"
  type: "Convolution"
  bottom: "pool1/norm1"
  top: "conv2/3x3_reduce"
  param {
    lr_mult: 1
    decay_mult: 1
  }
  param {
    lr_mult: 2
    decay_mult: 0
  }
  convolution_param {
    num_output: 64
    kernel_size: 1
    weight_filler {
      type: "xavier"
      std: 0.1
    }
    bias_filler {
      type: "constant"
      value: 0.2
    }
  }
}
layer {
  name: "conv2/relu_3x3_reduce"
  type: "ReLU"
  bottom: "conv2/3x3_reduce"
  top: "conv2/3x3_reduce"
}
layer {
  name: "conv2/3x3"
  type: "Convolution"
  bottom: "conv2/3x3_reduce"
  top: "conv2/3x3"
  param {
    lr_mult: 1
    decay_mult: 1
  }
  param {
    lr_mult: 2
    decay_mult: 0
  }
  convolution_param {
    num_output: 192
    pad: 1
    kernel_size: 3
    weight_filler {
      type: "xavier"
      std: 0.03
    }
    bias_filler {
      type: "constant"
      value: 0.2
    }
  }
}
layer {
  name: "conv2/relu_3x3"
  type: "ReLU"
  bottom: "conv2/3x3"
  top: "conv2/3x3"
}
layer {
  name: "conv2/norm2"
  type: "LRN"
  bottom: "conv2/3x3"
  top: "conv2/norm2"
  lrn_param {
    local_size: 5
    alpha: 0.0001
    beta: 0.75
  }
}
layer {
  name: "pool2/3x3_s2"
  type: "Pooling"
  bottom: "conv2/norm2"
  top: "pool2/3x3_s2"
  pooling_param {
    pool: MAX
    kernel_size: 3
    stride: 2
  }
}
layer {
  name: "inception_3a/1x1"
  type: "Convolution"
  bottom: "pool2/3x3_s2"
  top: "inception_3a/1x1"
  param {
    lr_mult: 1
    decay_mult: 1
  }
  param {
    lr_mult: 2
    decay_mult: 0
  }
  convolution_param {
    num_output: 64
    kernel_size: 1
    weight_filler {
      type: "xavier"
      std: 0.03
    }
    bias_filler {
      type: "constant"
      value: 0.2
    }
  }
}
layer {
  name: "inception_3a/relu_1x1"
  type: "ReLU"
  bottom: "inception_3a/1x1"
  top: "inception_3a/1x1"
}
layer {
  name: "inception_3a/3x3_reduce"
  type: "Convolution"
  bottom: "pool2/3x3_s2"
  top: "inception_3a/3x3_reduce"
  param {
    lr_mult: 1
    decay_mult: 1
  }
  param {
    lr_mult: 2
    decay_mult: 0
  }
  convolution_param {
    num_output: 96
    kernel_size: 1
    weight_filler {
      type: "xavier"
      std: 0.09
    }
    bias_filler {
      type: "constant"
      value: 0.2
    }
  }
}
layer {
  name: "inception_3a/relu_3x3_reduce"
  type: "ReLU"
  bottom: "inception_3a/3x3_reduce"
  top: "inception_3a/3x3_reduce"
}
layer {
  name: "inception_3a/3x3"
  type: "Convolution"
  bottom: "inception_3a/3x3_reduce"
  top: "inception_3a/3x3"
  param {
    lr_mult: 1
    decay_mult: 1
  }
  param {
    lr_mult: 2
    decay_mult: 0
  }
  convolution_param {
    num_output: 128
    pad: 1
    kernel_size: 3
    weight_filler {
      type: "xavier"
      std: 0.03
    }
    bias_filler {
      type: "constant"
      value: 0.2
    }
  }
}
layer {
  name: "inception_3a/relu_3x3"
  type: "ReLU"
  bottom: "inception_3a/3x3"
  top: "inception_3a/3x3"
}
layer {
  name: "inception_3a/5x5_reduce"
  type: "Convolution"
  bottom: "pool2/3x3_s2"
  top: "inception_3a/5x5_reduce"
  param {
    lr_mult: 1
    decay_mult: 1
  }
  param {
    lr_mult: 2
    decay_mult: 0
  }
  convolution_param {
    num_output: 16
    kernel_size: 1
    weight_filler {
      type: "xavier"
      std: 0.2
    }
    bias_filler {
      type: "constant"
      value: 0.2
    }
  }
}
layer {
  name: "inception_3a/relu_5x5_reduce"
  type: "ReLU"
  bottom: "inception_3a/5x5_reduce"
  top: "inception_3a/5x5_reduce"
}
layer {
  name: "inception_3a/5x5"
  type: "Convolution"
  bottom: "inception_3a/5x5_reduce"
  top: "inception_3a/5x5"
  param {
    lr_mult: 1
    decay_mult: 1
  }
  param {
    lr_mult: 2
    decay_mult: 0
  }
  convolution_param {
    num_output: 32
    pad: 2
    kernel_size: 5
    weight_filler {
      type: "xavier"
      std: 0.03
    }
    bias_filler {
      type: "constant"
      value: 0.2
    }
  }
}
layer {
  name: "inception_3a/relu_5x5"
  type: "ReLU"
  bottom: "inception_3a/5x5"
  top: "inception_3a/5x5"
}
layer {
  name: "inception_3a/pool"
  type: "Pooling"
  bottom: "pool2/3x3_s2"
  top: "inception_3a/pool"
  pooling_param {
    pool: MAX
    kernel_size: 3
    stride: 1
    pad: 1
  }
}
layer {
  name: "inception_3a/pool_proj"
  type: "Convolution"
  bottom: "inception_3a/pool"
  top: "inception_3a/pool_proj"
  param {
    lr_mult: 1
    decay_mult: 1
  }
  param {
    lr_mult: 2
    decay_mult: 0
  }
  convolution_param {
    num_output: 32
    kernel_size: 1
    weight_filler {
      type: "xavier"
      std: 0.1
    }
    bias_filler {
      type: "constant"
      value: 0.2
    }
  }
}
layer {
  name: "inception_3a/relu_pool_proj"
  type: "ReLU"
  bottom: "inception_3a/pool_proj"
  top: "inception_3a/pool_proj"
}
layer {
  name: "inception_3a/output"
  type: "Concat"
  bottom: "inception_3a/1x1"
  bottom: "inception_3a/3x3"
  bottom: "inception_3a/5x5"
  bottom: "inception_3a/pool_proj"
  top: "inception_3a/output"
}
layer {
  name: "inception_3b/1x1"
  type: "Convolution"
  bottom: "inception_3a/output"
  top: "inception_3b/1x1"
  param {
    lr_mult: 1
    decay_mult: 1
  }
  param {
    lr_mult: 2
    decay_mult: 0
  }
  convolution_param {
    num_output: 128
    kernel_size: 1
    weight_filler {
      type: "xavier"
      std: 0.03
    }
    bias_filler {
      type: "constant"
      value: 0.2
    }
  }
}
layer {
  name: "inception_3b/relu_1x1"
  type: "ReLU"
  bottom: "inception_3b/1x1"
  top: "inception_3b/1x1"
}
layer {
  name: "inception_3b/3x3_reduce"
  type: "Convolution"
  bottom: "inception_3a/output"
  top: "inception_3b/3x3_reduce"
  param {
    lr_mult: 1
    decay_mult: 1
  }
  param {
    lr_mult: 2
    decay_mult: 0
  }
  convolution_param {
    num_output: 128
    kernel_size: 1
    weight_filler {
      type: "xavier"
      std: 0.09
    }
    bias_filler {
      type: "constant"
      value: 0.2
    }
  }
}
layer {
  name: "inception_3b/relu_3x3_reduce"
  type: "ReLU"
  bottom: "inception_3b/3x3_reduce"
  top: "inception_3b/3x3_reduce"
}
layer {
  name: "inception_3b/3x3"
  type: "Convolution"
  bottom: "inception_3b/3x3_reduce"
  top: "inception_3b/3x3"
  param {
    lr_mult: 1
    decay_mult: 1
  }
  param {
    lr_mult: 2
    decay_mult: 0
  }
  convolution_param {
    num_output: 192
    pad: 1
    kernel_size: 3
    weight_filler {
      type: "xavier"
      std: 0.03
    }
    bias_filler {
      type: "constant"
      value: 0.2
    }
  }
}
layer {
  name: "inception_3b/relu_3x3"
  type: "ReLU"
  bottom: "inception_3b/3x3"
  top: "inception_3b/3x3"
}
layer {
  name: "inception_3b/5x5_reduce"
  type: "Convolution"
  bottom: "inception_3a/output"
  top: "inception_3b/5x5_reduce"
  param {
    lr_mult: 1
    decay_mult: 1
  }
  param {
    lr_mult: 2
    decay_mult: 0
  }
  convolution_param {
    num_output: 32
    kernel_size: 1
    weight_filler {
      type: "xavier"
      std: 0.2
    }
    bias_filler {
      type: "constant"
      value: 0.2
    }
  }
}
layer {
  name: "inception_3b/relu_5x5_reduce"
  type: "ReLU"
  bottom: "inception_3b/5x5_reduce"
  top: "inception_3b/5x5_reduce"
}
layer {
  name: "inception_3b/5x5"
  type: "Convolution"
  bottom: "inception_3b/5x5_reduce"
  top: "inception_3b/5x5"
  param {
    lr_mult: 1
    decay_mult: 1
  }
  param {
    lr_mult: 2
    decay_mult: 0
  }
  convolution_param {
    num_output: 96
    pad: 2
    kernel_size: 5
    weight_filler {
      type: "xavier"
      std: 0.03
    }
    bias_filler {
      type: "constant"
      value: 0.2
    }
  }
}
layer {
  name: "inception_3b/relu_5x5"
  type: "ReLU"
  bottom: "inception_3b/5x5"
  top: "inception_3b/5x5"
}
layer {
  name: "inception_3b/pool"
  type: "Pooling"
  bottom: "inception_3a/output"
  top: "inception_3b/pool"
  pooling_param {
    pool: MAX
    kernel_size: 3
    stride: 1
    pad: 1
  }
}
layer {
  name: "inception_3b/pool_proj"
  type: "Convolution"
  bottom: "inception_3b/pool"
  top: "inception_3b/pool_proj"
  param {
    lr_mult: 1
    decay_mult: 1
  }
  param {
    lr_mult: 2
    decay_mult: 0
  }
  convolution_param {
    num_output: 64
    kernel_size: 1
    weight_filler {
      type: "xavier"
      std: 0.1
    }
    bias_filler {
      type: "constant"
      value: 0.2
    }
  }
}
layer {
  name: "inception_3b/relu_pool_proj"
  type: "ReLU"
  bottom: "inception_3b/pool_proj"
  top: "inception_3b/pool_proj"
}
layer {
  name: "inception_3b/output"
  type: "Concat"
  bottom: "inception_3b/1x1"
  bottom: "inception_3b/3x3"
  bottom: "inception_3b/5x5"
  bottom: "inception_3b/pool_proj"
  top: "inception_3b/output"
}
layer {
  name: "pool3/3x3_s2"
  type: "Pooling"
  bottom: "inception_3b/output"
  top: "pool3/3x3_s2"
  pooling_param {
    pool: MAX
    kernel_size: 3
    stride: 2
  }
}
layer {
  name: "inception_4a/1x1"
  type: "Convolution"
  bottom: "pool3/3x3_s2"
  top: "inception_4a/1x1"
  param {
    lr_mult: 1
    decay_mult: 1
  }
  param {
    lr_mult: 2
    decay_mult: 0
  }
  convolution_param {
    num_output: 192
    kernel_size: 1
    weight_filler {
      type: "xavier"
      std: 0.03
    }
    bias_filler {
      type: "constant"
      value: 0.2
    }
  }
}
layer {
  name: "inception_4a/relu_1x1"
  type: "ReLU"
  bottom: "inception_4a/1x1"
  top: "inception_4a/1x1"
}
layer {
  name: "inception_4a/3x3_reduce"
  type: "Convolution"
  bottom: "pool3/3x3_s2"
  top: "inception_4a/3x3_reduce"
  param {
    lr_mult: 1
    decay_mult: 1
  }
  param {
    lr_mult: 2
    decay_mult: 0
  }
  convolution_param {
    num_output: 96
    kernel_size: 1
    weight_filler {
      type: "xavier"
      std: 0.09
    }
    bias_filler {
      type: "constant"
      value: 0.2
    }
  }
}
layer {
  name: "inception_4a/relu_3x3_reduce"
  type: "ReLU"
  bottom: "inception_4a/3x3_reduce"
  top: "inception_4a/3x3_reduce"
}
layer {
  name: "inception_4a/3x3"
  type: "Convolution"
  bottom: "inception_4a/3x3_reduce"
  top: "inception_4a/3x3"
  param {
    lr_mult: 1
    decay_mult: 1
  }
  param {
    lr_mult: 2
    decay_mult: 0
  }
  convolution_param {
    num_output: 208
    pad: 1
    kernel_size: 3
    weight_filler {
      type: "xavier"
      std: 0.03
    }
    bias_filler {
      type: "constant"
      value: 0.2
    }
  }
}
layer {
  name: "inception_4a/relu_3x3"
  type: "ReLU"
  bottom: "inception_4a/3x3"
  top: "inception_4a/3x3"
}
layer {
  name: "inception_4a/5x5_reduce"
  type: "Convolution"
  bottom: "pool3/3x3_s2"
  top: "inception_4a/5x5_reduce"
  param {
    lr_mult: 1
    decay_mult: 1
  }
  param {
    lr_mult: 2
    decay_mult: 0
  }
  convolution_param {
    num_output: 16
    kernel_size: 1
    weight_filler {
      type: "xavier"
      std: 0.2
    }
    bias_filler {
      type: "constant"
      value: 0.2
    }
  }
}
layer {
  name: "inception_4a/relu_5x5_reduce"
  type: "ReLU"
  bottom: "inception_4a/5x5_reduce"
  top: "inception_4a/5x5_reduce"
}
layer {
  name: "inception_4a/5x5"
  type: "Convolution"
  bottom: "inception_4a/5x5_reduce"
  top: "inception_4a/5x5"
  param {
    lr_mult: 1
    decay_mult: 1
  }
  param {
    lr_mult: 2
    decay_mult: 0
  }
  convolution_param {
    num_output: 48
    pad: 2
    kernel_size: 5
    weight_filler {
      type: "xavier"
      std: 0.03
    }
    bias_filler {
      type: "constant"
      value: 0.2
    }
  }
}
layer {
  name: "inception_4a/relu_5x5"
  type: "ReLU"
  bottom: "inception_4a/5x5"
  top: "inception_4a/5x5"
}
layer {
  name: "inception_4a/pool"
  type: "Pooling"
  bottom: "pool3/3x3_s2"
  top: "inception_4a/pool"
  pooling_param {
    pool: MAX
    kernel_size: 3
    stride: 1
    pad: 1
  }
}
layer {
  name: "inception_4a/pool_proj"
  type: "Convolution"
  bottom: "inception_4a/pool"
  top: "inception_4a/pool_proj"
  param {
    lr_mult: 1
    decay_mult: 1
  }
  param {
    lr_mult: 2
    decay_mult: 0
  }
  convolution_param {
    num_output: 64
    kernel_size: 1
    weight_filler {
      type: "xavier"
      std: 0.1
    }
    bias_filler {
      type: "constant"
      value: 0.2
    }
  }
}
layer {
  name: "inception_4a/relu_pool_proj"
  type: "ReLU"
  bottom: "inception_4a/pool_proj"
  top: "inception_4a/pool_proj"
}
layer {
  name: "inception_4a/output"
  type: "Concat"
  bottom: "inception_4a/1x1"
  bottom: "inception_4a/3x3"
  bottom: "inception_4a/5x5"
  bottom: "inception_4a/pool_proj"
  top: "inception_4a/output"
}
layer {
  name: "loss1/ave_pool"
  type: "Pooling"
  bottom: "inception_4a/output"
  top: "loss1/ave_pool"
  pooling_param {
    pool: AVE
    kernel_size: 5
    stride: 3
  }
}
layer {
  name: "loss1/conv"
  type: "Convolution"
  bottom: "loss1/ave_pool"
  top: "loss1/conv"
  param {
    lr_mult: 1
    decay_mult: 1
  }
  param {
    lr_mult: 2
    decay_mult: 0
  }
  convolution_param {
    num_output: 128
    kernel_size: 1
    weight_filler {
      type: "xavier"
      std: 0.08
    }
    bias_filler {
      type: "constant"
      value: 0.2
    }
  }
}
layer {
  name: "loss1/relu_conv"
  type: "ReLU"
  bottom: "loss1/conv"
  top: "loss1/conv"
}
layer {
  name: "loss1/fc"
  type: "InnerProduct"
  bottom: "loss1/conv"
  top: "loss1/fc"
  param {
    lr_mult: 1
    decay_mult: 1
  }
  param {
    lr_mult: 2
    decay_mult: 0
  }
  inner_product_param {
    num_output: 1024
    weight_filler {
      type: "xavier"
      std: 0.02
    }
    bias_filler {
      type: "constant"
      value: 0.2
    }
  }
}
layer {
  name: "loss1/relu_fc"
  type: "ReLU"
  bottom: "loss1/fc"
  top: "loss1/fc"
}
layer {
  name: "loss1/drop_fc"
  type: "Dropout"
  bottom: "loss1/fc"
  top: "loss1/fc"
  dropout_param {
    dropout_ratio: 0.7
  }
}
layer {
  name: "loss1/classifier_plantvillage"
  type: "InnerProduct"
  bottom: "loss1/fc"
  top: "loss1/classifier_plantvillage"
  param {
    lr_mult: 1
    decay_mult: 1
  }
  param {
    lr_mult: 2
    decay_mult: 0
  }
  inner_product_param {
    num_output: 38
    weight_filler {
      type: "xavier"
      std: 0.0009765625
    }
    bias_filler {
      type: "constant"
      value: 0
    }
  }
}
layer {
  name: "inception_4b/1x1"
  type: "Convolution"
  bottom: "inception_4a/output"
  top: "inception_4b/1x1"
  param {
    lr_mult: 1
    decay_mult: 1
  }
  param {
    lr_mult: 2
    decay_mult: 0
  }
  convolution_param {
    num_output: 160
    kernel_size: 1
    weight_filler {
      type: "xavier"
      std: 0.03
    }
    bias_filler {
      type: "constant"
      value: 0.2
    }
  }
}
layer {
  name: "inception_4b/relu_1x1"
  type: "ReLU"
  bottom: "inception_4b/1x1"
  top: "inception_4b/1x1"
}
layer {
  name: "inception_4b/3x3_reduce"
  type: "Convolution"
  bottom: "inception_4a/output"
  top: "inception_4b/3x3_reduce"
  param {
    lr_mult: 1
    decay_mult: 1
  }
  param {
    lr_mult: 2
    decay_mult: 0
  }
  convolution_param {
    num_output: 112
    kernel_size: 1
    weight_filler {
      type: "xavier"
      std: 0.09
    }
    bias_filler {
      type: "constant"
      value: 0.2
    }
  }
}
layer {
  name: "inception_4b/relu_3x3_reduce"
  type: "ReLU"
  bottom: "inception_4b/3x3_reduce"
  top: "inception_4b/3x3_reduce"
}
layer {
  name: "inception_4b/3x3"
  type: "Convolution"
  bottom: "inception_4b/3x3_reduce"
  top: "inception_4b/3x3"
  param {
    lr_mult: 1
    decay_mult: 1
  }
  param {
    lr_mult: 2
    decay_mult: 0
  }
  convolution_param {
    num_output: 224
    pad: 1
    kernel_size: 3
    weight_filler {
      type: "xavier"
      std: 0.03
    }
    bias_filler {
      type: "constant"
      value: 0.2
    }
  }
}
layer {
  name: "inception_4b/relu_3x3"
  type: "ReLU"
  bottom: "inception_4b/3x3"
  top: "inception_4b/3x3"
}
layer {
  name: "inception_4b/5x5_reduce"
  type: "Convolution"
  bottom: "inception_4a/output"
  top: "inception_4b/5x5_reduce"
  param {
    lr_mult: 1
    decay_mult: 1
  }
  param {
    lr_mult: 2
    decay_mult: 0
  }
  convolution_param {
    num_output: 24
    kernel_size: 1
    weight_filler {
      type: "xavier"
      std: 0.2
    }
    bias_filler {
      type: "constant"
      value: 0.2
    }
  }
}
layer {
  name: "inception_4b/relu_5x5_reduce"
  type: "ReLU"
  bottom: "inception_4b/5x5_reduce"
  top: "inception_4b/5x5_reduce"
}
layer {
  name: "inception_4b/5x5"
  type: "Convolution"
  bottom: "inception_4b/5x5_reduce"
  top: "inception_4b/5x5"
  param {
    lr_mult: 1
    decay_mult: 1
  }
  param {
    lr_mult: 2
    decay_mult: 0
  }
  convolution_param {
    num_output: 64
    pad: 2
    kernel_size: 5
    weight_filler {
      type: "xavier"
      std: 0.03
    }
    bias_filler {
      type: "constant"
      value: 0.2
    }
  }
}
layer {
  name: "inception_4b/relu_5x5"
  type: "ReLU"
  bottom: "inception_4b/5x5"
  top: "inception_4b/5x5"
}
layer {
  name: "inception_4b/pool"
  type: "Pooling"
  bottom: "inception_4a/output"
  top: "inception_4b/pool"
  pooling_param {
    pool: MAX
    kernel_size: 3
    stride: 1
    pad: 1
  }
}
layer {
  name: "inception_4b/pool_proj"
  type: "Convolution"
  bottom: "inception_4b/pool"
  top: "inception_4b/pool_proj"
  param {
    lr_mult: 1
    decay_mult: 1
  }
  param {
    lr_mult: 2
    decay_mult: 0
  }
  convolution_param {
    num_output: 64
    kernel_size: 1
    weight_filler {
      type: "xavier"
      std: 0.1
    }
    bias_filler {
      type: "constant"
      value: 0.2
    }
  }
}
layer {
  name: "inception_4b/relu_pool_proj"
  type: "ReLU"
  bottom: "inception_4b/pool_proj"
  top: "inception_4b/pool_proj"
}
layer {
  name: "inception_4b/output"
  type: "Concat"
  bottom: "inception_4b/1x1"
  bottom: "inception_4b/3x3"
  bottom: "inception_4b/5x5"
  bottom: "inception_4b/pool_proj"
  top: "inception_4b/output"
}
layer {
  name: "inception_4c/1x1"
  type: "Convolution"
  bottom: "inception_4b/output"
  top: "inception_4c/1x1"
  param {
    lr_mult: 1
    decay_mult: 1
  }
  param {
    lr_mult: 2
    decay_mult: 0
  }
  convolution_param {
    num_output: 128
    kernel_size: 1
    weight_filler {
      type: "xavier"
      std: 0.03
    }
    bias_filler {
      type: "constant"
      value: 0.2
    }
  }
}
layer {
  name: "inception_4c/relu_1x1"
  type: "ReLU"
  bottom: "inception_4c/1x1"
  top: "inception_4c/1x1"
}
layer {
  name: "inception_4c/3x3_reduce"
  type: "Convolution"
  bottom: "inception_4b/output"
  top: "inception_4c/3x3_reduce"
  param {
    lr_mult: 1
    decay_mult: 1
  }
  param {
    lr_mult: 2
    decay_mult: 0
  }
  convolution_param {
    num_output: 128
    kernel_size: 1
    weight_filler {
      type: "xavier"
      std: 0.09
    }
    bias_filler {
      type: "constant"
      value: 0.2
    }
  }
}
layer {
  name: "inception_4c/relu_3x3_reduce"
  type: "ReLU"
  bottom: "inception_4c/3x3_reduce"
  top: "inception_4c/3x3_reduce"
}
layer {
  name: "inception_4c/3x3"
  type: "Convolution"
  bottom: "inception_4c/3x3_reduce"
  top: "inception_4c/3x3"
  param {
    lr_mult: 1
    decay_mult: 1
  }
  param {
    lr_mult: 2
    decay_mult: 0
  }
  convolution_param {
    num_output: 256
    pad: 1
    kernel_size: 3
    weight_filler {
      type: "xavier"
      std: 0.03
    }
    bias_filler {
      type: "constant"
      value: 0.2
    }
  }
}
layer {
  name: "inception_4c/relu_3x3"
  type: "ReLU"
  bottom: "inception_4c/3x3"
  top: "inception_4c/3x3"
}
layer {
  name: "inception_4c/5x5_reduce"
  type: "Convolution"
  bottom: "inception_4b/output"
  top: "inception_4c/5x5_reduce"
  param {
    lr_mult: 1
    decay_mult: 1
  }
  param {
    lr_mult: 2
    decay_mult: 0
  }
  convolution_param {
    num_output: 24
    kernel_size: 1
    weight_filler {
      type: "xavier"
      std: 0.2
    }
    bias_filler {
      type: "constant"
      value: 0.2
    }
  }
}
layer {
  name: "inception_4c/relu_5x5_reduce"
  type: "ReLU"
  bottom: "inception_4c/5x5_reduce"
  top: "inception_4c/5x5_reduce"
}
layer {
  name: "inception_4c/5x5"
  type: "Convolution"
  bottom: "inception_4c/5x5_reduce"
  top: "inception_4c/5x5"
  param {
    lr_mult: 1
    decay_mult: 1
  }
  param {
    lr_mult: 2
    decay_mult: 0
  }
  convolution_param {
    num_output: 64
    pad: 2
    kernel_size: 5
    weight_filler {
      type: "xavier"
      std: 0.03
    }
    bias_filler {
      type: "constant"
      value: 0.2
    }
  }
}
layer {
  name: "inception_4c/relu_5x5"
  type: "ReLU"
  bottom: "inception_4c/5x5"
  top: "inception_4c/5x5"
}
layer {
  name: "inception_4c/pool"
  type: "Pooling"
  bottom: "inception_4b/output"
  top: "inception_4c/pool"
  pooling_param {
    pool: MAX
    kernel_size: 3
    stride: 1
    pad: 1
  }
}
layer {
  name: "inception_4c/pool_proj"
  type: "Convolution"
  bottom: "inception_4c/pool"
  top: "inception_4c/pool_proj"
  param {
    lr_mult: 1
    decay_mult: 1
  }
  param {
    lr_mult: 2
    decay_mult: 0
  }
  convolution_param {
    num_output: 64
    kernel_size: 1
    weight_filler {
      type: "xavier"
      std: 0.1
    }
    bias_filler {
      type: "constant"
      value: 0.2
    }
  }
}
layer {
  name: "inception_4c/relu_pool_proj"
  type: "ReLU"
  bottom: "inception_4c/pool_proj"
  top: "inception_4c/pool_proj"
}
layer {
  name: "inception_4c/output"
  type: "Concat"
  bottom: "inception_4c/1x1"
  bottom: "inception_4c/3x3"
  bottom: "inception_4c/5x5"
  bottom: "inception_4c/pool_proj"
  top: "inception_4c/output"
}
layer {
  name: "inception_4d/1x1"
  type: "Convolution"
  bottom: "inception_4c/output"
  top: "inception_4d/1x1"
  param {
    lr_mult: 1
    decay_mult: 1
  }
  param {
    lr_mult: 2
    decay_mult: 0
  }
  convolution_param {
    num_output: 112
    kernel_size: 1
    weight_filler {
      type: "xavier"
      std: 0.03
    }
    bias_filler {
      type: "constant"
      value: 0.2
    }
  }
}
layer {
  name: "inception_4d/relu_1x1"
  type: "ReLU"
  bottom: "inception_4d/1x1"
  top: "inception_4d/1x1"
}
layer {
  name: "inception_4d/3x3_reduce"
  type: "Convolution"
  bottom: "inception_4c/output"
  top: "inception_4d/3x3_reduce"
  param {
    lr_mult: 1
    decay_mult: 1
  }
  param {
    lr_mult: 2
    decay_mult: 0
  }
  convolution_param {
    num_output: 144
    kernel_size: 1
    weight_filler {
      type: "xavier"
      std: 0.09
    }
    bias_filler {
      type: "constant"
      value: 0.2
    }
  }
}
layer {
  name: "inception_4d/relu_3x3_reduce"
  type: "ReLU"
  bottom: "inception_4d/3x3_reduce"
  top: "inception_4d/3x3_reduce"
}
layer {
  name: "inception_4d/3x3"
  type: "Convolution"
  bottom: "inception_4d/3x3_reduce"
  top: "inception_4d/3x3"
  param {
    lr_mult: 1
    decay_mult: 1
  }
  param {
    lr_mult: 2
    decay_mult: 0
  }
  convolution_param {
    num_output: 288
    pad: 1
    kernel_size: 3
    weight_filler {
      type: "xavier"
      std: 0.03
    }
    bias_filler {
      type: "constant"
      value: 0.2
    }
  }
}
layer {
  name: "inception_4d/relu_3x3"
  type: "ReLU"
  bottom: "inception_4d/3x3"
  top: "inception_4d/3x3"
}
layer {
  name: "inception_4d/5x5_reduce"
  type: "Convolution"
  bottom: "inception_4c/output"
  top: "inception_4d/5x5_reduce"
  param {
    lr_mult: 1
    decay_mult: 1
  }
  param {
    lr_mult: 2
    decay_mult: 0
  }
  convolution_param {
    num_output: 32
    kernel_size: 1
    weight_filler {
      type: "xavier"
      std: 0.2
    }
    bias_filler {
      type: "constant"
      value: 0.2
    }
  }
}
layer {
  name: "inception_4d/relu_5x5_reduce"
  type: "ReLU"
  bottom: "inception_4d/5x5_reduce"
  top: "inception_4d/5x5_reduce"
}
layer {
  name: "inception_4d/5x5"
  type: "Convolution"
  bottom: "inception_4d/5x5_reduce"
  top: "inception_4d/5x5"
  param {
    lr_mult: 1
    decay_mult: 1
  }
  param {
    lr_mult: 2
    decay_mult: 0
  }
  convolution_param {
    num_output: 64
    pad: 2
    kernel_size: 5
    weight_filler {
      type: "xavier"
      std: 0.03
    }
    bias_filler {
      type: "constant"
      value: 0.2
    }
  }
}
layer {
  name: "inception_4d/relu_5x5"
  type: "ReLU"
  bottom: "inception_4d/5x5"
  top: "inception_4d/5x5"
}
layer {
  name: "inception_4d/pool"
  type: "Pooling"
  bottom: "inception_4c/output"
  top: "inception_4d/pool"
  pooling_param {
    pool: MAX
    kernel_size: 3
    stride: 1
    pad: 1
  }
}
layer {
  name: "inception_4d/pool_proj"
  type: "Convolution"
  bottom: "inception_4d/pool"
  top: "inception_4d/pool_proj"
  param {
    lr_mult: 1
    decay_mult: 1
  }
  param {
    lr_mult: 2
    decay_mult: 0
  }
  convolution_param {
    num_output: 64
    kernel_size: 1
    weight_filler {
      type: "xavier"
      std: 0.1
    }
    bias_filler {
      type: "constant"
      value: 0.2
    }
  }
}
layer {
  name: "inception_4d/relu_pool_proj"
  type: "ReLU"
  bottom: "inception_4d/pool_proj"
  top: "inception_4d/pool_proj"
}
layer {
  name: "inception_4d/output"
  type: "Concat"
  bottom: "inception_4d/1x1"
  bottom: "inception_4d/3x3"
  bottom: "inception_4d/5x5"
  bottom: "inception_4d/pool_proj"
  top: "inception_4d/output"
}
layer {
  name: "loss2/ave_pool"
  type: "Pooling"
  bottom: "inception_4d/output"
  top: "loss2/ave_pool"
  pooling_param {
    pool: AVE
    kernel_size: 5
    stride: 3
  }
}
layer {
  name: "loss2/conv"
  type: "Convolution"
  bottom: "loss2/ave_pool"
  top: "loss2/conv"
  param {
    lr_mult: 1
    decay_mult: 1
  }
  param {
    lr_mult: 2
    decay_mult: 0
  }
  convolution_param {
    num_output: 128
    kernel_size: 1
    weight_filler {
      type: "xavier"
      std: 0.08
    }
    bias_filler {
      type: "constant"
      value: 0.2
    }
  }
}
layer {
  name: "loss2/relu_conv"
  type: "ReLU"
  bottom: "loss2/conv"
  top: "loss2/conv"
}
layer {
  name: "loss2/fc"
  type: "InnerProduct"
  bottom: "loss2/conv"
  top: "loss2/fc"
  param {
    lr_mult: 1
    decay_mult: 1
  }
  param {
    lr_mult: 2
    decay_mult: 0
  }
  inner_product_param {
    num_output: 1024
    weight_filler {
      type: "xavier"
      std: 0.02
    }
    bias_filler {
      type: "constant"
      value: 0.2
    }
  }
}
layer {
  name: "loss2/relu_fc"
  type: "ReLU"
  bottom: "loss2/fc"
  top: "loss2/fc"
}
layer {
  name: "loss2/drop_fc"
  type: "Dropout"
  bottom: "loss2/fc"
  top: "loss2/fc"
  dropout_param {
    dropout_ratio: 0.7
  }
}
layer {
  name: "loss2/classifier_plantvillage"
  type: "InnerProduct"
  bottom: "loss2/fc"
  top: "loss2/classifier_plantvillage"
  param {
    lr_mult: 1
    decay_mult: 1
  }
  param {
    lr_mult: 2
    decay_mult: 0
  }
  inner_product_param {
    num_output: 38
    weight_filler {
      type: "xavier"
      std: 0.0009765625
    }
    bias_filler {
      type: "constant"
      value: 0
    }
  }
}
layer {
  name: "inception_4e/1x1"
  type: "Convolution"
  bottom: "inception_4d/output"
  top: "inception_4e/1x1"
  param {
    lr_mult: 1
    decay_mult: 1
  }
  param {
    lr_mult: 2
    decay_mult: 0
  }
  convolution_param {
    num_output: 256
    kernel_size: 1
    weight_filler {
      type: "xavier"
      std: 0.03
    }
    bias_filler {
      type: "constant"
      value: 0.2
    }
  }
}
layer {
  name: "inception_4e/relu_1x1"
  type: "ReLU"
  bottom: "inception_4e/1x1"
  top: "inception_4e/1x1"
}
layer {
  name: "inception_4e/3x3_reduce"
  type: "Convolution"
  bottom: "inception_4d/output"
  top: "inception_4e/3x3_reduce"
  param {
    lr_mult: 1
    decay_mult: 1
  }
  param {
    lr_mult: 2
    decay_mult: 0
  }
  convolution_param {
    num_output: 160
    kernel_size: 1
    weight_filler {
      type: "xavier"
      std: 0.09
    }
    bias_filler {
      type: "constant"
      value: 0.2
    }
  }
}
layer {
  name: "inception_4e/relu_3x3_reduce"
  type: "ReLU"
  bottom: "inception_4e/3x3_reduce"
  top: "inception_4e/3x3_reduce"
}
layer {
  name: "inception_4e/3x3"
  type: "Convolution"
  bottom: "inception_4e/3x3_reduce"
  top: "inception_4e/3x3"
  param {
    lr_mult: 1
    decay_mult: 1
  }
  param {
    lr_mult: 2
    decay_mult: 0
  }
  convolution_param {
    num_output: 320
    pad: 1
    kernel_size: 3
    weight_filler {
      type: "xavier"
      std: 0.03
    }
    bias_filler {
      type: "constant"
      value: 0.2
    }
  }
}
layer {
  name: "inception_4e/relu_3x3"
  type: "ReLU"
  bottom: "inception_4e/3x3"
  top: "inception_4e/3x3"
}
layer {
  name: "inception_4e/5x5_reduce"
  type: "Convolution"
  bottom: "inception_4d/output"
  top: "inception_4e/5x5_reduce"
  param {
    lr_mult: 1
    decay_mult: 1
  }
  param {
    lr_mult: 2
    decay_mult: 0
  }
  convolution_param {
    num_output: 32
    kernel_size: 1
    weight_filler {
      type: "xavier"
      std: 0.2
    }
    bias_filler {
      type: "constant"
      value: 0.2
    }
  }
}
layer {
  name: "inception_4e/relu_5x5_reduce"
  type: "ReLU"
  bottom: "inception_4e/5x5_reduce"
  top: "inception_4e/5x5_reduce"
}
layer {
  name: "inception_4e/5x5"
  type: "Convolution"
  bottom: "inception_4e/5x5_reduce"
  top: "inception_4e/5x5"
  p
I0403 19:48:59.828379  9703 layer_factory.hpp:77] Creating layer data
I0403 19:48:59.829109  9703 net.cpp:91] Creating Layer data
I0403 19:48:59.829147  9703 net.cpp:399] data -> data
I0403 19:48:59.829216  9703 net.cpp:399] data -> label
I0403 19:48:59.829262  9703 data_transformer.cpp:25] Loading mean file from: /home/mohanty/data/final_dataset/lmdb/color-60-40/mean.binaryproto
I0403 19:48:59.830698  9705 db_lmdb.cpp:38] Opened lmdb /home/mohanty/data/final_dataset/lmdb/color-60-40/test_db
I0403 19:48:59.845407  9703 data_layer.cpp:41] output data size: 24,3,224,224
I0403 19:48:59.877656  9703 net.cpp:141] Setting up data
I0403 19:48:59.877749  9703 net.cpp:148] Top shape: 24 3 224 224 (3612672)
I0403 19:48:59.877776  9703 net.cpp:148] Top shape: 24 (24)
I0403 19:48:59.877795  9703 net.cpp:156] Memory required for data: 14450784
I0403 19:48:59.877831  9703 layer_factory.hpp:77] Creating layer label_data_1_split
I0403 19:48:59.877866  9703 net.cpp:91] Creating Layer label_data_1_split
I0403 19:48:59.877887  9703 net.cpp:425] label_data_1_split <- label
I0403 19:48:59.877928  9703 net.cpp:399] label_data_1_split -> label_data_1_split_0
I0403 19:48:59.877961  9703 net.cpp:399] label_data_1_split -> label_data_1_split_1
I0403 19:48:59.877986  9703 net.cpp:399] label_data_1_split -> label_data_1_split_2
I0403 19:48:59.878012  9703 net.cpp:399] label_data_1_split -> label_data_1_split_3
I0403 19:48:59.878036  9703 net.cpp:399] label_data_1_split -> label_data_1_split_4
I0403 19:48:59.878059  9703 net.cpp:399] label_data_1_split -> label_data_1_split_5
I0403 19:48:59.878082  9703 net.cpp:399] label_data_1_split -> label_data_1_split_6
I0403 19:48:59.878108  9703 net.cpp:399] label_data_1_split -> label_data_1_split_7
I0403 19:48:59.878130  9703 net.cpp:399] label_data_1_split -> label_data_1_split_8
I0403 19:48:59.878154  9703 net.cpp:399] label_data_1_split -> label_data_1_split_9
I0403 19:48:59.878294  9703 net.cpp:141] Setting up label_data_1_split
I0403 19:48:59.878321  9703 net.cpp:148] Top shape: 24 (24)
I0403 19:48:59.878342  9703 net.cpp:148] Top shape: 24 (24)
I0403 19:48:59.878361  9703 net.cpp:148] Top shape: 24 (24)
I0403 19:48:59.878381  9703 net.cpp:148] Top shape: 24 (24)
I0403 19:48:59.878401  9703 net.cpp:148] Top shape: 24 (24)
I0403 19:48:59.878419  9703 net.cpp:148] Top shape: 24 (24)
I0403 19:48:59.878438  9703 net.cpp:148] Top shape: 24 (24)
I0403 19:48:59.878463  9703 net.cpp:148] Top shape: 24 (24)
I0403 19:48:59.878484  9703 net.cpp:148] Top shape: 24 (24)
I0403 19:48:59.878504  9703 net.cpp:148] Top shape: 24 (24)
I0403 19:48:59.878556  9703 net.cpp:156] Memory required for data: 14451744
I0403 19:48:59.878576  9703 layer_factory.hpp:77] Creating layer conv1/7x7_s2
I0403 19:48:59.878625  9703 net.cpp:91] Creating Layer conv1/7x7_s2
I0403 19:48:59.878648  9703 net.cpp:425] conv1/7x7_s2 <- data
I0403 19:48:59.878670  9703 net.cpp:399] conv1/7x7_s2 -> conv1/7x7_s2
I0403 19:49:00.043735  9703 net.cpp:141] Setting up conv1/7x7_s2
I0403 19:49:00.043848  9703 net.cpp:148] Top shape: 24 64 112 112 (19267584)
I0403 19:49:00.043872  9703 net.cpp:156] Memory required for data: 91522080
I0403 19:49:00.043915  9703 layer_factory.hpp:77] Creating layer conv1/relu_7x7
I0403 19:49:00.043949  9703 net.cpp:91] Creating Layer conv1/relu_7x7
I0403 19:49:00.043972  9703 net.cpp:425] conv1/relu_7x7 <- conv1/7x7_s2
I0403 19:49:00.043998  9703 net.cpp:386] conv1/relu_7x7 -> conv1/7x7_s2 (in-place)
I0403 19:49:00.044332  9703 net.cpp:141] Setting up conv1/relu_7x7
I0403 19:49:00.044365  9703 net.cpp:148] Top shape: 24 64 112 112 (19267584)
I0403 19:49:00.044385  9703 net.cpp:156] Memory required for data: 168592416
I0403 19:49:00.044404  9703 layer_factory.hpp:77] Creating layer pool1/3x3_s2
I0403 19:49:00.044445  9703 net.cpp:91] Creating Layer pool1/3x3_s2
I0403 19:49:00.044477  9703 net.cpp:425] pool1/3x3_s2 <- conv1/7x7_s2
I0403 19:49:00.044502  9703 net.cpp:399] pool1/3x3_s2 -> pool1/3x3_s2
I0403 19:49:00.044600  9703 net.cpp:141] Setting up pool1/3x3_s2
I0403 19:49:00.044631  9703 net.cpp:148] Top shape: 24 64 56 56 (4816896)
I0403 19:49:00.044648  9703 net.cpp:156] Memory required for data: 187860000
I0403 19:49:00.044667  9703 layer_factory.hpp:77] Creating layer pool1/norm1
I0403 19:49:00.044698  9703 net.cpp:91] Creating Layer pool1/norm1
I0403 19:49:00.044720  9703 net.cpp:425] pool1/norm1 <- pool1/3x3_s2
I0403 19:49:00.044749  9703 net.cpp:399] pool1/norm1 -> pool1/norm1
I0403 19:49:00.045117  9703 net.cpp:141] Setting up pool1/norm1
I0403 19:49:00.045150  9703 net.cpp:148] Top shape: 24 64 56 56 (4816896)
I0403 19:49:00.045171  9703 net.cpp:156] Memory required for data: 207127584
I0403 19:49:00.045191  9703 layer_factory.hpp:77] Creating layer conv2/3x3_reduce
I0403 19:49:00.045224  9703 net.cpp:91] Creating Layer conv2/3x3_reduce
I0403 19:49:00.045248  9703 net.cpp:425] conv2/3x3_reduce <- pool1/norm1
I0403 19:49:00.045274  9703 net.cpp:399] conv2/3x3_reduce -> conv2/3x3_reduce
I0403 19:49:00.047009  9703 net.cpp:141] Setting up conv2/3x3_reduce
I0403 19:49:00.047047  9703 net.cpp:148] Top shape: 24 64 56 56 (4816896)
I0403 19:49:00.047068  9703 net.cpp:156] Memory required for data: 226395168
I0403 19:49:00.047097  9703 layer_factory.hpp:77] Creating layer conv2/relu_3x3_reduce
I0403 19:49:00.047122  9703 net.cpp:91] Creating Layer conv2/relu_3x3_reduce
I0403 19:49:00.047142  9703 net.cpp:425] conv2/relu_3x3_reduce <- conv2/3x3_reduce
I0403 19:49:00.047163  9703 net.cpp:386] conv2/relu_3x3_reduce -> conv2/3x3_reduce (in-place)
I0403 19:49:00.047497  9703 net.cpp:141] Setting up conv2/relu_3x3_reduce
I0403 19:49:00.047531  9703 net.cpp:148] Top shape: 24 64 56 56 (4816896)
I0403 19:49:00.047551  9703 net.cpp:156] Memory required for data: 245662752
I0403 19:49:00.047570  9703 layer_factory.hpp:77] Creating layer conv2/3x3
I0403 19:49:00.047600  9703 net.cpp:91] Creating Layer conv2/3x3
I0403 19:49:00.047621  9703 net.cpp:425] conv2/3x3 <- conv2/3x3_reduce
I0403 19:49:00.047643  9703 net.cpp:399] conv2/3x3 -> conv2/3x3
I0403 19:49:00.050549  9703 net.cpp:141] Setting up conv2/3x3
I0403 19:49:00.050590  9703 net.cpp:148] Top shape: 24 192 56 56 (14450688)
I0403 19:49:00.050612  9703 net.cpp:156] Memory required for data: 303465504
I0403 19:49:00.050639  9703 layer_factory.hpp:77] Creating layer conv2/relu_3x3
I0403 19:49:00.050662  9703 net.cpp:91] Creating Layer conv2/relu_3x3
I0403 19:49:00.050679  9703 net.cpp:425] conv2/relu_3x3 <- conv2/3x3
I0403 19:49:00.050704  9703 net.cpp:386] conv2/relu_3x3 -> conv2/3x3 (in-place)
I0403 19:49:00.050925  9703 net.cpp:141] Setting up conv2/relu_3x3
I0403 19:49:00.050956  9703 net.cpp:148] Top shape: 24 192 56 56 (14450688)
I0403 19:49:00.051014  9703 net.cpp:156] Memory required for data: 361268256
I0403 19:49:00.051035  9703 layer_factory.hpp:77] Creating layer conv2/norm2
I0403 19:49:00.051060  9703 net.cpp:91] Creating Layer conv2/norm2
I0403 19:49:00.051081  9703 net.cpp:425] conv2/norm2 <- conv2/3x3
I0403 19:49:00.051102  9703 net.cpp:399] conv2/norm2 -> conv2/norm2
I0403 19:49:00.051482  9703 net.cpp:141] Setting up conv2/norm2
I0403 19:49:00.051517  9703 net.cpp:148] Top shape: 24 192 56 56 (14450688)
I0403 19:49:00.051535  9703 net.cpp:156] Memory required for data: 419071008
I0403 19:49:00.051554  9703 layer_factory.hpp:77] Creating layer pool2/3x3_s2
I0403 19:49:00.051587  9703 net.cpp:91] Creating Layer pool2/3x3_s2
I0403 19:49:00.051609  9703 net.cpp:425] pool2/3x3_s2 <- conv2/norm2
I0403 19:49:00.051630  9703 net.cpp:399] pool2/3x3_s2 -> pool2/3x3_s2
I0403 19:49:00.051693  9703 net.cpp:141] Setting up pool2/3x3_s2
I0403 19:49:00.051723  9703 net.cpp:148] Top shape: 24 192 28 28 (3612672)
I0403 19:49:00.051741  9703 net.cpp:156] Memory required for data: 433521696
I0403 19:49:00.051760  9703 layer_factory.hpp:77] Creating layer pool2/3x3_s2_pool2/3x3_s2_0_split
I0403 19:49:00.051782  9703 net.cpp:91] Creating Layer pool2/3x3_s2_pool2/3x3_s2_0_split
I0403 19:49:00.051800  9703 net.cpp:425] pool2/3x3_s2_pool2/3x3_s2_0_split <- pool2/3x3_s2
I0403 19:49:00.051825  9703 net.cpp:399] pool2/3x3_s2_pool2/3x3_s2_0_split -> pool2/3x3_s2_pool2/3x3_s2_0_split_0
I0403 19:49:00.051848  9703 net.cpp:399] pool2/3x3_s2_pool2/3x3_s2_0_split -> pool2/3x3_s2_pool2/3x3_s2_0_split_1
I0403 19:49:00.051873  9703 net.cpp:399] pool2/3x3_s2_pool2/3x3_s2_0_split -> pool2/3x3_s2_pool2/3x3_s2_0_split_2
I0403 19:49:00.051897  9703 net.cpp:399] pool2/3x3_s2_pool2/3x3_s2_0_split -> pool2/3x3_s2_pool2/3x3_s2_0_split_3
I0403 19:49:00.051983  9703 net.cpp:141] Setting up pool2/3x3_s2_pool2/3x3_s2_0_split
I0403 19:49:00.052011  9703 net.cpp:148] Top shape: 24 192 28 28 (3612672)
I0403 19:49:00.052042  9703 net.cpp:148] Top shape: 24 192 28 28 (3612672)
I0403 19:49:00.052062  9703 net.cpp:148] Top shape: 24 192 28 28 (3612672)
I0403 19:49:00.052080  9703 net.cpp:148] Top shape: 24 192 28 28 (3612672)
I0403 19:49:00.052098  9703 net.cpp:156] Memory required for data: 491324448
I0403 19:49:00.052116  9703 layer_factory.hpp:77] Creating layer inception_3a/1x1
I0403 19:49:00.052144  9703 net.cpp:91] Creating Layer inception_3a/1x1
I0403 19:49:00.052165  9703 net.cpp:425] inception_3a/1x1 <- pool2/3x3_s2_pool2/3x3_s2_0_split_0
I0403 19:49:00.052191  9703 net.cpp:399] inception_3a/1x1 -> inception_3a/1x1
I0403 19:49:00.054111  9703 net.cpp:141] Setting up inception_3a/1x1
I0403 19:49:00.054149  9703 net.cpp:148] Top shape: 24 64 28 28 (1204224)
I0403 19:49:00.054172  9703 net.cpp:156] Memory required for data: 496141344
I0403 19:49:00.054195  9703 layer_factory.hpp:77] Creating layer inception_3a/relu_1x1
I0403 19:49:00.054219  9703 net.cpp:91] Creating Layer inception_3a/relu_1x1
I0403 19:49:00.054249  9703 net.cpp:425] inception_3a/relu_1x1 <- inception_3a/1x1
I0403 19:49:00.054270  9703 net.cpp:386] inception_3a/relu_1x1 -> inception_3a/1x1 (in-place)
I0403 19:49:00.054563  9703 net.cpp:141] Setting up inception_3a/relu_1x1
I0403 19:49:00.054595  9703 net.cpp:148] Top shape: 24 64 28 28 (1204224)
I0403 19:49:00.054613  9703 net.cpp:156] Memory required for data: 500958240
I0403 19:49:00.054631  9703 layer_factory.hpp:77] Creating layer inception_3a/3x3_reduce
I0403 19:49:00.054661  9703 net.cpp:91] Creating Layer inception_3a/3x3_reduce
I0403 19:49:00.054682  9703 net.cpp:425] inception_3a/3x3_reduce <- pool2/3x3_s2_pool2/3x3_s2_0_split_1
I0403 19:49:00.054708  9703 net.cpp:399] inception_3a/3x3_reduce -> inception_3a/3x3_reduce
I0403 19:49:00.056815  9703 net.cpp:141] Setting up inception_3a/3x3_reduce
I0403 19:49:00.056855  9703 net.cpp:148] Top shape: 24 96 28 28 (1806336)
I0403 19:49:00.056876  9703 net.cpp:156] Memory required for data: 508183584
I0403 19:49:00.056905  9703 layer_factory.hpp:77] Creating layer inception_3a/relu_3x3_reduce
I0403 19:49:00.056947  9703 net.cpp:91] Creating Layer inception_3a/relu_3x3_reduce
I0403 19:49:00.056969  9703 net.cpp:425] inception_3a/relu_3x3_reduce <- inception_3a/3x3_reduce
I0403 19:49:00.056994  9703 net.cpp:386] inception_3a/relu_3x3_reduce -> inception_3a/3x3_reduce (in-place)
I0403 19:49:00.057219  9703 net.cpp:141] Setting up inception_3a/relu_3x3_reduce
I0403 19:49:00.057252  9703 net.cpp:148] Top shape: 24 96 28 28 (1806336)
I0403 19:49:00.057271  9703 net.cpp:156] Memory required for data: 515408928
I0403 19:49:00.057289  9703 layer_factory.hpp:77] Creating layer inception_3a/3x3
I0403 19:49:00.057318  9703 net.cpp:91] Creating Layer inception_3a/3x3
I0403 19:49:00.057340  9703 net.cpp:425] inception_3a/3x3 <- inception_3a/3x3_reduce
I0403 19:49:00.057363  9703 net.cpp:399] inception_3a/3x3 -> inception_3a/3x3
I0403 19:49:00.059357  9703 net.cpp:141] Setting up inception_3a/3x3
I0403 19:49:00.059396  9703 net.cpp:148] Top shape: 24 128 28 28 (2408448)
I0403 19:49:00.059414  9703 net.cpp:156] Memory required for data: 525042720
I0403 19:49:00.059437  9703 layer_factory.hpp:77] Creating layer inception_3a/relu_3x3
I0403 19:49:00.059463  9703 net.cpp:91] Creating Layer inception_3a/relu_3x3
I0403 19:49:00.059484  9703 net.cpp:425] inception_3a/relu_3x3 <- inception_3a/3x3
I0403 19:49:00.059510  9703 net.cpp:386] inception_3a/relu_3x3 -> inception_3a/3x3 (in-place)
I0403 19:49:00.059839  9703 net.cpp:141] Setting up inception_3a/relu_3x3
I0403 19:49:00.059872  9703 net.cpp:148] Top shape: 24 128 28 28 (2408448)
I0403 19:49:00.059890  9703 net.cpp:156] Memory required for data: 534676512
I0403 19:49:00.059908  9703 layer_factory.hpp:77] Creating layer inception_3a/5x5_reduce
I0403 19:49:00.059937  9703 net.cpp:91] Creating Layer inception_3a/5x5_reduce
I0403 19:49:00.059957  9703 net.cpp:425] inception_3a/5x5_reduce <- pool2/3x3_s2_pool2/3x3_s2_0_split_2
I0403 19:49:00.059984  9703 net.cpp:399] inception_3a/5x5_reduce -> inception_3a/5x5_reduce
I0403 19:49:00.061146  9703 net.cpp:141] Setting up inception_3a/5x5_reduce
I0403 19:49:00.061182  9703 net.cpp:148] Top shape: 24 16 28 28 (301056)
I0403 19:49:00.061200  9703 net.cpp:156] Memory required for data: 535880736
I0403 19:49:00.061223  9703 layer_factory.hpp:77] Creating layer inception_3a/relu_5x5_reduce
I0403 19:49:00.061245  9703 net.cpp:91] Creating Layer inception_3a/relu_5x5_reduce
I0403 19:49:00.061265  9703 net.cpp:425] inception_3a/relu_5x5_reduce <- inception_3a/5x5_reduce
I0403 19:49:00.061290  9703 net.cpp:386] inception_3a/relu_5x5_reduce -> inception_3a/5x5_reduce (in-place)
I0403 19:49:00.061641  9703 net.cpp:141] Setting up inception_3a/relu_5x5_reduce
I0403 19:49:00.061674  9703 net.cpp:148] Top shape: 24 16 28 28 (301056)
I0403 19:49:00.061692  9703 net.cpp:156] Memory required for data: 537084960
I0403 19:49:00.061712  9703 layer_factory.hpp:77] Creating layer inception_3a/5x5
I0403 19:49:00.061738  9703 net.cpp:91] Creating Layer inception_3a/5x5
I0403 19:49:00.061760  9703 net.cpp:425] inception_3a/5x5 <- inception_3a/5x5_reduce
I0403 19:49:00.061786  9703 net.cpp:399] inception_3a/5x5 -> inception_3a/5x5
I0403 19:49:00.063026  9703 net.cpp:141] Setting up inception_3a/5x5
I0403 19:49:00.063065  9703 net.cpp:148] Top shape: 24 32 28 28 (602112)
I0403 19:49:00.063084  9703 net.cpp:156] Memory required for data: 539493408
I0403 19:49:00.063107  9703 layer_factory.hpp:77] Creating layer inception_3a/relu_5x5
I0403 19:49:00.063130  9703 net.cpp:91] Creating Layer inception_3a/relu_5x5
I0403 19:49:00.063149  9703 net.cpp:425] inception_3a/relu_5x5 <- inception_3a/5x5
I0403 19:49:00.063171  9703 net.cpp:386] inception_3a/relu_5x5 -> inception_3a/5x5 (in-place)
I0403 19:49:00.063383  9703 net.cpp:141] Setting up inception_3a/relu_5x5
I0403 19:49:00.063415  9703 net.cpp:148] Top shape: 24 32 28 28 (602112)
I0403 19:49:00.063432  9703 net.cpp:156] Memory required for data: 541901856
I0403 19:49:00.063451  9703 layer_factory.hpp:77] Creating layer inception_3a/pool
I0403 19:49:00.063477  9703 net.cpp:91] Creating Layer inception_3a/pool
I0403 19:49:00.063498  9703 net.cpp:425] inception_3a/pool <- pool2/3x3_s2_pool2/3x3_s2_0_split_3
I0403 19:49:00.063540  9703 net.cpp:399] inception_3a/pool -> inception_3a/pool
I0403 19:49:00.063611  9703 net.cpp:141] Setting up inception_3a/pool
I0403 19:49:00.063648  9703 net.cpp:148] Top shape: 24 192 28 28 (3612672)
I0403 19:49:00.063666  9703 net.cpp:156] Memory required for data: 556352544
I0403 19:49:00.063685  9703 layer_factory.hpp:77] Creating layer inception_3a/pool_proj
I0403 19:49:00.063711  9703 net.cpp:91] Creating Layer inception_3a/pool_proj
I0403 19:49:00.063732  9703 net.cpp:425] inception_3a/pool_proj <- inception_3a/pool
I0403 19:49:00.063756  9703 net.cpp:399] inception_3a/pool_proj -> inception_3a/pool_proj
I0403 19:49:00.064924  9703 net.cpp:141] Setting up inception_3a/pool_proj
I0403 19:49:00.064959  9703 net.cpp:148] Top shape: 24 32 28 28 (602112)
I0403 19:49:00.064977  9703 net.cpp:156] Memory required for data: 558760992
I0403 19:49:00.065007  9703 layer_factory.hpp:77] Creating layer inception_3a/relu_pool_proj
I0403 19:49:00.065032  9703 net.cpp:91] Creating Layer inception_3a/relu_pool_proj
I0403 19:49:00.065052  9703 net.cpp:425] inception_3a/relu_pool_proj <- inception_3a/pool_proj
I0403 19:49:00.065076  9703 net.cpp:386] inception_3a/relu_pool_proj -> inception_3a/pool_proj (in-place)
I0403 19:49:00.065423  9703 net.cpp:141] Setting up inception_3a/relu_pool_proj
I0403 19:49:00.065464  9703 net.cpp:148] Top shape: 24 32 28 28 (602112)
I0403 19:49:00.065485  9703 net.cpp:156] Memory required for data: 561169440
I0403 19:49:00.065503  9703 layer_factory.hpp:77] Creating layer inception_3a/output
I0403 19:49:00.065526  9703 net.cpp:91] Creating Layer inception_3a/output
I0403 19:49:00.065544  9703 net.cpp:425] inception_3a/output <- inception_3a/1x1
I0403 19:49:00.065565  9703 net.cpp:425] inception_3a/output <- inception_3a/3x3
I0403 19:49:00.065583  9703 net.cpp:425] inception_3a/output <- inception_3a/5x5
I0403 19:49:00.065603  9703 net.cpp:425] inception_3a/output <- inception_3a/pool_proj
I0403 19:49:00.065623  9703 net.cpp:399] inception_3a/output -> inception_3a/output
I0403 19:49:00.065683  9703 net.cpp:141] Setting up inception_3a/output
I0403 19:49:00.065712  9703 net.cpp:148] Top shape: 24 256 28 28 (4816896)
I0403 19:49:00.065731  9703 net.cpp:156] Memory required for data: 580437024
I0403 19:49:00.065748  9703 layer_factory.hpp:77] Creating layer inception_3a/output_inception_3a/output_0_split
I0403 19:49:00.065773  9703 net.cpp:91] Creating Layer inception_3a/output_inception_3a/output_0_split
I0403 19:49:00.065793  9703 net.cpp:425] inception_3a/output_inception_3a/output_0_split <- inception_3a/output
I0403 19:49:00.065814  9703 net.cpp:399] inception_3a/output_inception_3a/output_0_split -> inception_3a/output_inception_3a/output_0_split_0
I0403 19:49:00.065836  9703 net.cpp:399] inception_3a/output_inception_3a/output_0_split -> inception_3a/output_inception_3a/output_0_split_1
I0403 19:49:00.065866  9703 net.cpp:399] inception_3a/output_inception_3a/output_0_split -> inception_3a/output_inception_3a/output_0_split_2
I0403 19:49:00.065892  9703 net.cpp:399] inception_3a/output_inception_3a/output_0_split -> inception_3a/output_inception_3a/output_0_split_3
I0403 19:49:00.065992  9703 net.cpp:141] Setting up inception_3a/output_inception_3a/output_0_split
I0403 19:49:00.066021  9703 net.cpp:148] Top shape: 24 256 28 28 (4816896)
I0403 19:49:00.066042  9703 net.cpp:148] Top shape: 24 256 28 28 (4816896)
I0403 19:49:00.066062  9703 net.cpp:148] Top shape: 24 256 28 28 (4816896)
I0403 19:49:00.066082  9703 net.cpp:148] Top shape: 24 256 28 28 (4816896)
I0403 19:49:00.066098  9703 net.cpp:156] Memory required for data: 657507360
I0403 19:49:00.066117  9703 layer_factory.hpp:77] Creating layer inception_3b/1x1
I0403 19:49:00.066148  9703 net.cpp:91] Creating Layer inception_3b/1x1
I0403 19:49:00.066169  9703 net.cpp:425] inception_3b/1x1 <- inception_3a/output_inception_3a/output_0_split_0
I0403 19:49:00.066193  9703 net.cpp:399] inception_3b/1x1 -> inception_3b/1x1
I0403 19:49:00.067591  9703 net.cpp:141] Setting up inception_3b/1x1
I0403 19:49:00.067641  9703 net.cpp:148] Top shape: 24 128 28 28 (2408448)
I0403 19:49:00.067662  9703 net.cpp:156] Memory required for data: 667141152
I0403 19:49:00.067684  9703 layer_factory.hpp:77] Creating layer inception_3b/relu_1x1
I0403 19:49:00.067709  9703 net.cpp:91] Creating Layer inception_3b/relu_1x1
I0403 19:49:00.067730  9703 net.cpp:425] inception_3b/relu_1x1 <- inception_3b/1x1
I0403 19:49:00.067751  9703 net.cpp:386] inception_3b/relu_1x1 -> inception_3b/1x1 (in-place)
I0403 19:49:00.067971  9703 net.cpp:141] Setting up inception_3b/relu_1x1
I0403 19:49:00.068002  9703 net.cpp:148] Top shape: 24 128 28 28 (2408448)
I0403 19:49:00.068020  9703 net.cpp:156] Memory required for data: 676774944
I0403 19:49:00.068039  9703 layer_factory.hpp:77] Creating layer inception_3b/3x3_reduce
I0403 19:49:00.068066  9703 net.cpp:91] Creating Layer inception_3b/3x3_reduce
I0403 19:49:00.068089  9703 net.cpp:425] inception_3b/3x3_reduce <- inception_3a/output_inception_3a/output_0_split_1
I0403 19:49:00.068114  9703 net.cpp:399] inception_3b/3x3_reduce -> inception_3b/3x3_reduce
I0403 19:49:00.069485  9703 net.cpp:141] Setting up inception_3b/3x3_reduce
I0403 19:49:00.069520  9703 net.cpp:148] Top shape: 24 128 28 28 (2408448)
I0403 19:49:00.069545  9703 net.cpp:156] Memory required for data: 686408736
I0403 19:49:00.069573  9703 layer_factory.hpp:77] Creating layer inception_3b/relu_3x3_reduce
I0403 19:49:00.069596  9703 net.cpp:91] Creating Layer inception_3b/relu_3x3_reduce
I0403 19:49:00.069614  9703 net.cpp:425] inception_3b/relu_3x3_reduce <- inception_3b/3x3_reduce
I0403 19:49:00.069636  9703 net.cpp:386] inception_3b/relu_3x3_reduce -> inception_3b/3x3_reduce (in-place)
I0403 19:49:00.069846  9703 net.cpp:141] Setting up inception_3b/relu_3x3_reduce
I0403 19:49:00.069880  9703 net.cpp:148] Top shape: 24 128 28 28 (2408448)
I0403 19:49:00.069897  9703 net.cpp:156] Memory required for data: 696042528
I0403 19:49:00.069916  9703 layer_factory.hpp:77] Creating layer inception_3b/3x3
I0403 19:49:00.069947  9703 net.cpp:91] Creating Layer inception_3b/3x3
I0403 19:49:00.069970  9703 net.cpp:425] inception_3b/3x3 <- inception_3b/3x3_reduce
I0403 19:49:00.069996  9703 net.cpp:399] inception_3b/3x3 -> inception_3b/3x3
I0403 19:49:00.073544  9703 net.cpp:141] Setting up inception_3b/3x3
I0403 19:49:00.073590  9703 net.cpp:148] Top shape: 24 192 28 28 (3612672)
I0403 19:49:00.073609  9703 net.cpp:156] Memory required for data: 710493216
I0403 19:49:00.073633  9703 layer_factory.hpp:77] Creating layer inception_3b/relu_3x3
I0403 19:49:00.073657  9703 net.cpp:91] Creating Layer inception_3b/relu_3x3
I0403 19:49:00.073675  9703 net.cpp:425] inception_3b/relu_3x3 <- inception_3b/3x3
I0403 19:49:00.073699  9703 net.cpp:386] inception_3b/relu_3x3 -> inception_3b/3x3 (in-place)
I0403 19:49:00.074043  9703 net.cpp:141] Setting up inception_3b/relu_3x3
I0403 19:49:00.074077  9703 net.cpp:148] Top shape: 24 192 28 28 (3612672)
I0403 19:49:00.074096  9703 net.cpp:156] Memory required for data: 724943904
I0403 19:49:00.074115  9703 layer_factory.hpp:77] Creating layer inception_3b/5x5_reduce
I0403 19:49:00.074142  9703 net.cpp:91] Creating Layer inception_3b/5x5_reduce
I0403 19:49:00.074163  9703 net.cpp:425] inception_3b/5x5_reduce <- inception_3a/output_inception_3a/output_0_split_2
I0403 19:49:00.074192  9703 net.cpp:399] inception_3b/5x5_reduce -> inception_3b/5x5_reduce
I0403 19:49:00.075400  9703 net.cpp:141] Setting up inception_3b/5x5_reduce
I0403 19:49:00.075443  9703 net.cpp:148] Top shape: 24 32 28 28 (602112)
I0403 19:49:00.075469  9703 net.cpp:156] Memory required for data: 727352352
I0403 19:49:00.075508  9703 layer_factory.hpp:77] Creating layer inception_3b/relu_5x5_reduce
I0403 19:49:00.075552  9703 net.cpp:91] Creating Layer inception_3b/relu_5x5_reduce
I0403 19:49:00.075573  9703 net.cpp:425] inception_3b/relu_5x5_reduce <- inception_3b/5x5_reduce
I0403 19:49:00.075598  9703 net.cpp:386] inception_3b/relu_5x5_reduce -> inception_3b/5x5_reduce (in-place)
I0403 19:49:00.075814  9703 net.cpp:141] Setting up inception_3b/relu_5x5_reduce
I0403 19:49:00.075886  9703 net.cpp:148] Top shape: 24 32 28 28 (602112)
I0403 19:49:00.075918  9703 net.cpp:156] Memory required for data: 729760800
I0403 19:49:00.075950  9703 layer_factory.hpp:77] Creating layer inception_3b/5x5
I0403 19:49:00.075987  9703 net.cpp:91] Creating Layer inception_3b/5x5
I0403 19:49:00.076009  9703 net.cpp:425] inception_3b/5x5 <- inception_3b/5x5_reduce
I0403 19:49:00.076036  9703 net.cpp:399] inception_3b/5x5 -> inception_3b/5x5
I0403 19:49:00.078433  9703 net.cpp:141] Setting up inception_3b/5x5
I0403 19:49:00.078474  9703 net.cpp:148] Top shape: 24 96 28 28 (1806336)
I0403 19:49:00.078495  9703 net.cpp:156] Memory required for data: 736986144
I0403 19:49:00.078517  9703 layer_factory.hpp:77] Creating layer inception_3b/relu_5x5
I0403 19:49:00.078542  9703 net.cpp:91] Creating Layer inception_3b/relu_5x5
I0403 19:49:00.078572  9703 net.cpp:425] inception_3b/relu_5x5 <- inception_3b/5x5
I0403 19:49:00.078593  9703 net.cpp:386] inception_3b/relu_5x5 -> inception_3b/5x5 (in-place)
I0403 19:49:00.078829  9703 net.cpp:141] Setting up inception_3b/relu_5x5
I0403 19:49:00.078858  9703 net.cpp:148] Top shape: 24 96 28 28 (1806336)
I0403 19:49:00.078877  9703 net.cpp:156] Memory required for data: 744211488
I0403 19:49:00.078896  9703 layer_factory.hpp:77] Creating layer inception_3b/pool
I0403 19:49:00.078917  9703 net.cpp:91] Creating Layer inception_3b/pool
I0403 19:49:00.078938  9703 net.cpp:425] inception_3b/pool <- inception_3a/output_inception_3a/output_0_split_3
I0403 19:49:00.078959  9703 net.cpp:399] inception_3b/pool -> inception_3b/pool
I0403 19:49:00.079026  9703 net.cpp:141] Setting up inception_3b/pool
I0403 19:49:00.079054  9703 net.cpp:148] Top shape: 24 256 28 28 (4816896)
I0403 19:49:00.079077  9703 net.cpp:156] Memory required for data: 763479072
I0403 19:49:00.079097  9703 layer_factory.hpp:77] Creating layer inception_3b/pool_proj
I0403 19:49:00.079123  9703 net.cpp:91] Creating Layer inception_3b/pool_proj
I0403 19:49:00.079144  9703 net.cpp:425] inception_3b/pool_proj <- inception_3b/pool
I0403 19:49:00.079171  9703 net.cpp:399] inception_3b/pool_proj -> inception_3b/pool_proj
I0403 19:49:00.080479  9703 net.cpp:141] Setting up inception_3b/pool_proj
I0403 19:49:00.080514  9703 net.cpp:148] Top shape: 24 64 28 28 (1204224)
I0403 19:49:00.080533  9703 net.cpp:156] Memory required for data: 768295968
I0403 19:49:00.080555  9703 layer_factory.hpp:77] Creating layer inception_3b/relu_pool_proj
I0403 19:49:00.080580  9703 net.cpp:91] Creating Layer inception_3b/relu_pool_proj
I0403 19:49:00.080600  9703 net.cpp:425] inception_3b/relu_pool_proj <- inception_3b/pool_proj
I0403 19:49:00.080622  9703 net.cpp:386] inception_3b/relu_pool_proj -> inception_3b/pool_proj (in-place)
I0403 19:49:00.081095  9703 net.cpp:141] Setting up inception_3b/relu_pool_proj
I0403 19:49:00.081128  9703 net.cpp:148] Top shape: 24 64 28 28 (1204224)
I0403 19:49:00.081146  9703 net.cpp:156] Memory required for data: 773112864
I0403 19:49:00.081166  9703 layer_factory.hpp:77] Creating layer inception_3b/output
I0403 19:49:00.081187  9703 net.cpp:91] Creating Layer inception_3b/output
I0403 19:49:00.081205  9703 net.cpp:425] inception_3b/output <- inception_3b/1x1
I0403 19:49:00.081226  9703 net.cpp:425] inception_3b/output <- inception_3b/3x3
I0403 19:49:00.081248  9703 net.cpp:425] inception_3b/output <- inception_3b/5x5
I0403 19:49:00.081269  9703 net.cpp:425] inception_3b/output <- inception_3b/pool_proj
I0403 19:49:00.081300  9703 net.cpp:399] inception_3b/output -> inception_3b/output
I0403 19:49:00.081352  9703 net.cpp:141] Setting up inception_3b/output
I0403 19:49:00.081394  9703 net.cpp:148] Top shape: 24 480 28 28 (9031680)
I0403 19:49:00.081413  9703 net.cpp:156] Memory required for data: 809239584
I0403 19:49:00.081431  9703 layer_factory.hpp:77] Creating layer pool3/3x3_s2
I0403 19:49:00.081454  9703 net.cpp:91] Creating Layer pool3/3x3_s2
I0403 19:49:00.081480  9703 net.cpp:425] pool3/3x3_s2 <- inception_3b/output
I0403 19:49:00.081502  9703 net.cpp:399] pool3/3x3_s2 -> pool3/3x3_s2
I0403 19:49:00.081591  9703 net.cpp:141] Setting up pool3/3x3_s2
I0403 19:49:00.081621  9703 net.cpp:148] Top shape: 24 480 14 14 (2257920)
I0403 19:49:00.081639  9703 net.cpp:156] Memory required for data: 818271264
I0403 19:49:00.081657  9703 layer_factory.hpp:77] Creating layer pool3/3x3_s2_pool3/3x3_s2_0_split
I0403 19:49:00.081681  9703 net.cpp:91] Creating Layer pool3/3x3_s2_pool3/3x3_s2_0_split
I0403 19:49:00.081701  9703 net.cpp:425] pool3/3x3_s2_pool3/3x3_s2_0_split <- pool3/3x3_s2
I0403 19:49:00.081722  9703 net.cpp:399] pool3/3x3_s2_pool3/3x3_s2_0_split -> pool3/3x3_s2_pool3/3x3_s2_0_split_0
I0403 19:49:00.081745  9703 net.cpp:399] pool3/3x3_s2_pool3/3x3_s2_0_split -> pool3/3x3_s2_pool3/3x3_s2_0_split_1
I0403 19:49:00.081769  9703 net.cpp:399] pool3/3x3_s2_pool3/3x3_s2_0_split -> pool3/3x3_s2_pool3/3x3_s2_0_split_2
I0403 19:49:00.081799  9703 net.cpp:399] pool3/3x3_s2_pool3/3x3_s2_0_split -> pool3/3x3_s2_pool3/3x3_s2_0_split_3
I0403 19:49:00.081893  9703 net.cpp:141] Setting up pool3/3x3_s2_pool3/3x3_s2_0_split
I0403 19:49:00.081923  9703 net.cpp:148] Top shape: 24 480 14 14 (2257920)
I0403 19:49:00.081943  9703 net.cpp:148] Top shape: 24 480 14 14 (2257920)
I0403 19:49:00.081961  9703 net.cpp:148] Top shape: 24 480 14 14 (2257920)
I0403 19:49:00.081980  9703 net.cpp:148] Top shape: 24 480 14 14 (2257920)
I0403 19:49:00.081998  9703 net.cpp:156] Memory required for data: 854397984
I0403 19:49:00.082016  9703 layer_factory.hpp:77] Creating layer inception_4a/1x1
I0403 19:49:00.082044  9703 net.cpp:91] Creating Layer inception_4a/1x1
I0403 19:49:00.082065  9703 net.cpp:425] inception_4a/1x1 <- pool3/3x3_s2_pool3/3x3_s2_0_split_0
I0403 19:49:00.082092  9703 net.cpp:399] inception_4a/1x1 -> inception_4a/1x1
I0403 19:49:00.084012  9703 net.cpp:141] Setting up inception_4a/1x1
I0403 19:49:00.084046  9703 net.cpp:148] Top shape: 24 192 14 14 (903168)
I0403 19:49:00.084066  9703 net.cpp:156] Memory required for data: 858010656
I0403 19:49:00.084089  9703 layer_factory.hpp:77] Creating layer inception_4a/relu_1x1
I0403 19:49:00.084115  9703 net.cpp:91] Creating Layer inception_4a/relu_1x1
I0403 19:49:00.084134  9703 net.cpp:425] inception_4a/relu_1x1 <- inception_4a/1x1
I0403 19:49:00.084157  9703 net.cpp:386] inception_4a/relu_1x1 -> inception_4a/1x1 (in-place)
I0403 19:49:00.084368  9703 net.cpp:141] Setting up inception_4a/relu_1x1
I0403 19:49:00.084398  9703 net.cpp:148] Top shape: 24 192 14 14 (903168)
I0403 19:49:00.084416  9703 net.cpp:156] Memory required for data: 861623328
I0403 19:49:00.084434  9703 layer_factory.hpp:77] Creating layer inception_4a/3x3_reduce
I0403 19:49:00.084470  9703 net.cpp:91] Creating Layer inception_4a/3x3_reduce
I0403 19:49:00.084494  9703 net.cpp:425] inception_4a/3x3_reduce <- pool3/3x3_s2_pool3/3x3_s2_0_split_1
I0403 19:49:00.084518  9703 net.cpp:399] inception_4a/3x3_reduce -> inception_4a/3x3_reduce
I0403 19:49:00.086074  9703 net.cpp:141] Setting up inception_4a/3x3_reduce
I0403 19:49:00.086108  9703 net.cpp:148] Top shape: 24 96 14 14 (451584)
I0403 19:49:00.086128  9703 net.cpp:156] Memory required for data: 863429664
I0403 19:49:00.086158  9703 layer_factory.hpp:77] Creating layer inception_4a/relu_3x3_reduce
I0403 19:49:00.086184  9703 net.cpp:91] Creating Layer inception_4a/relu_3x3_reduce
I0403 19:49:00.086204  9703 net.cpp:425] inception_4a/relu_3x3_reduce <- inception_4a/3x3_reduce
I0403 19:49:00.086227  9703 net.cpp:386] inception_4a/relu_3x3_reduce -> inception_4a/3x3_reduce (in-place)
I0403 19:49:00.086449  9703 net.cpp:141] Setting up inception_4a/relu_3x3_reduce
I0403 19:49:00.086485  9703 net.cpp:148] Top shape: 24 96 14 14 (451584)
I0403 19:49:00.086504  9703 net.cpp:156] Memory required for data: 865236000
I0403 19:49:00.086524  9703 layer_factory.hpp:77] Creating layer inception_4a/3x3
I0403 19:49:00.086552  9703 net.cpp:91] Creating Layer inception_4a/3x3
I0403 19:49:00.086581  9703 net.cpp:425] inception_4a/3x3 <- inception_4a/3x3_reduce
I0403 19:49:00.086604  9703 net.cpp:399] inception_4a/3x3 -> inception_4a/3x3
I0403 19:49:00.089851  9703 net.cpp:141] Setting up inception_4a/3x3
I0403 19:49:00.089890  9703 net.cpp:148] Top shape: 24 208 14 14 (978432)
I0403 19:49:00.089910  9703 net.cpp:156] Memory required for data: 869149728
I0403 19:49:00.089933  9703 layer_factory.hpp:77] Creating layer inception_4a/relu_3x3
I0403 19:49:00.089956  9703 net.cpp:91] Creating Layer inception_4a/relu_3x3
I0403 19:49:00.089975  9703 net.cpp:425] inception_4a/relu_3x3 <- inception_4a/3x3
I0403 19:49:00.089997  9703 net.cpp:386] inception_4a/relu_3x3 -> inception_4a/3x3 (in-place)
I0403 19:49:00.090332  9703 net.cpp:141] Setting up inception_4a/relu_3x3
I0403 19:49:00.090368  9703 net.cpp:148] Top shape: 24 208 14 14 (978432)
I0403 19:49:00.090386  9703 net.cpp:156] Memory required for data: 873063456
I0403 19:49:00.090404  9703 layer_factory.hpp:77] Creating layer inception_4a/5x5_reduce
I0403 19:49:00.090430  9703 net.cpp:91] Creating Layer inception_4a/5x5_reduce
I0403 19:49:00.090450  9703 net.cpp:425] inception_4a/5x5_reduce <- pool3/3x3_s2_pool3/3x3_s2_0_split_2
I0403 19:49:00.090493  9703 net.cpp:399] inception_4a/5x5_reduce -> inception_4a/5x5_reduce
I0403 19:49:00.091728  9703 net.cpp:141] Setting up inception_4a/5x5_reduce
I0403 19:49:00.091766  9703 net.cpp:148] Top shape: 24 16 14 14 (75264)
I0403 19:49:00.091785  9703 net.cpp:156] Memory required for data: 873364512
I0403 19:49:00.091809  9703 layer_factory.hpp:77] Creating layer inception_4a/relu_5x5_reduce
I0403 19:49:00.091830  9703 net.cpp:91] Creating Layer inception_4a/relu_5x5_reduce
I0403 19:49:00.091850  9703 net.cpp:425] inception_4a/relu_5x5_reduce <- inception_4a/5x5_reduce
I0403 19:49:00.091872  9703 net.cpp:386] inception_4a/relu_5x5_reduce -> inception_4a/5x5_reduce (in-place)
I0403 19:49:00.092088  9703 net.cpp:141] Setting up inception_4a/relu_5x5_reduce
I0403 19:49:00.092119  9703 net.cpp:148] Top shape: 24 16 14 14 (75264)
I0403 19:49:00.092138  9703 net.cpp:156] Memory required for data: 873665568
I0403 19:49:00.092156  9703 layer_factory.hpp:77] Creating layer inception_4a/5x5
I0403 19:49:00.092183  9703 net.cpp:91] Creating Layer inception_4a/5x5
I0403 19:49:00.092205  9703 net.cpp:425] inception_4a/5x5 <- inception_4a/5x5_reduce
I0403 19:49:00.092231  9703 net.cpp:399] inception_4a/5x5 -> inception_4a/5x5
I0403 19:49:00.093556  9703 net.cpp:141] Setting up inception_4a/5x5
I0403 19:49:00.093590  9703 net.cpp:148] Top shape: 24 48 14 14 (225792)
I0403 19:49:00.093611  9703 net.cpp:156] Memory required for data: 874568736
I0403 19:49:00.093633  9703 layer_factory.hpp:77] Creating layer inception_4a/relu_5x5
I0403 19:49:00.093655  9703 net.cpp:91] Creating Layer inception_4a/relu_5x5
I0403 19:49:00.093675  9703 net.cpp:425] inception_4a/relu_5x5 <- inception_4a/5x5
I0403 19:49:00.093699  9703 net.cpp:386] inception_4a/relu_5x5 -> inception_4a/5x5 (in-place)
I0403 19:49:00.093927  9703 net.cpp:141] Setting up inception_4a/relu_5x5
I0403 19:49:00.093958  9703 net.cpp:148] Top shape: 24 48 14 14 (225792)
I0403 19:49:00.093976  9703 net.cpp:156] Memory required for data: 875471904
I0403 19:49:00.093994  9703 layer_factory.hpp:77] Creating layer inception_4a/pool
I0403 19:49:00.094018  9703 net.cpp:91] Creating Layer inception_4a/pool
I0403 19:49:00.094039  9703 net.cpp:425] inception_4a/pool <- pool3/3x3_s2_pool3/3x3_s2_0_split_3
I0403 19:49:00.094061  9703 net.cpp:399] inception_4a/pool -> inception_4a/pool
I0403 19:49:00.094135  9703 net.cpp:141] Setting up inception_4a/pool
I0403 19:49:00.094164  9703 net.cpp:148] Top shape: 24 480 14 14 (2257920)
I0403 19:49:00.094182  9703 net.cpp:156] Memory required for data: 884503584
I0403 19:49:00.094200  9703 layer_factory.hpp:77] Creating layer inception_4a/pool_proj
I0403 19:49:00.094226  9703 net.cpp:91] Creating Layer inception_4a/pool_proj
I0403 19:49:00.094250  9703 net.cpp:425] inception_4a/pool_proj <- inception_4a/pool
I0403 19:49:00.094275  9703 net.cpp:399] inception_4a/pool_proj -> inception_4a/pool_proj
I0403 19:49:00.095722  9703 net.cpp:141] Setting up inception_4a/pool_proj
I0403 19:49:00.095757  9703 net.cpp:148] Top shape: 24 64 14 14 (301056)
I0403 19:49:00.095794  9703 net.cpp:156] Memory required for data: 885707808
I0403 19:49:00.095819  9703 layer_factory.hpp:77] Creating layer inception_4a/relu_pool_proj
I0403 19:49:00.095845  9703 net.cpp:91] Creating Layer inception_4a/relu_pool_proj
I0403 19:49:00.095866  9703 net.cpp:425] inception_4a/relu_pool_proj <- inception_4a/pool_proj
I0403 19:49:00.095888  9703 net.cpp:386] inception_4a/relu_pool_proj -> inception_4a/pool_proj (in-place)
I0403 19:49:00.096245  9703 net.cpp:141] Setting up inception_4a/relu_pool_proj
I0403 19:49:00.096276  9703 net.cpp:148] Top shape: 24 64 14 14 (301056)
I0403 19:49:00.096294  9703 net.cpp:156] Memory required for data: 886912032
I0403 19:49:00.096313  9703 layer_factory.hpp:77] Creating layer inception_4a/output
I0403 19:49:00.096334  9703 net.cpp:91] Creating Layer inception_4a/output
I0403 19:49:00.096354  9703 net.cpp:425] inception_4a/output <- inception_4a/1x1
I0403 19:49:00.096375  9703 net.cpp:425] inception_4a/output <- inception_4a/3x3
I0403 19:49:00.096395  9703 net.cpp:425] inception_4a/output <- inception_4a/5x5
I0403 19:49:00.096415  9703 net.cpp:425] inception_4a/output <- inception_4a/pool_proj
I0403 19:49:00.096437  9703 net.cpp:399] inception_4a/output -> inception_4a/output
I0403 19:49:00.096500  9703 net.cpp:141] Setting up inception_4a/output
I0403 19:49:00.096530  9703 net.cpp:148] Top shape: 24 512 14 14 (2408448)
I0403 19:49:00.096549  9703 net.cpp:156] Memory required for data: 896545824
I0403 19:49:00.096566  9703 layer_factory.hpp:77] Creating layer inception_4a/output_inception_4a/output_0_split
I0403 19:49:00.096588  9703 net.cpp:91] Creating Layer inception_4a/output_inception_4a/output_0_split
I0403 19:49:00.096608  9703 net.cpp:425] inception_4a/output_inception_4a/output_0_split <- inception_4a/output
I0403 19:49:00.096633  9703 net.cpp:399] inception_4a/output_inception_4a/output_0_split -> inception_4a/output_inception_4a/output_0_split_0
I0403 19:49:00.096659  9703 net.cpp:399] inception_4a/output_inception_4a/output_0_split -> inception_4a/output_inception_4a/output_0_split_1
I0403 19:49:00.096685  9703 net.cpp:399] inception_4a/output_inception_4a/output_0_split -> inception_4a/output_inception_4a/output_0_split_2
I0403 19:49:00.096719  9703 net.cpp:399] inception_4a/output_inception_4a/output_0_split -> inception_4a/output_inception_4a/output_0_split_3
I0403 19:49:00.096743  9703 net.cpp:399] inception_4a/output_inception_4a/output_0_split -> inception_4a/output_inception_4a/output_0_split_4
I0403 19:49:00.096853  9703 net.cpp:141] Setting up inception_4a/output_inception_4a/output_0_split
I0403 19:49:00.096884  9703 net.cpp:148] Top shape: 24 512 14 14 (2408448)
I0403 19:49:00.096906  9703 net.cpp:148] Top shape: 24 512 14 14 (2408448)
I0403 19:49:00.096926  9703 net.cpp:148] Top shape: 24 512 14 14 (2408448)
I0403 19:49:00.096946  9703 net.cpp:148] Top shape: 24 512 14 14 (2408448)
I0403 19:49:00.096966  9703 net.cpp:148] Top shape: 24 512 14 14 (2408448)
I0403 19:49:00.096982  9703 net.cpp:156] Memory required for data: 944714784
I0403 19:49:00.097000  9703 layer_factory.hpp:77] Creating layer loss1/ave_pool
I0403 19:49:00.097021  9703 net.cpp:91] Creating Layer loss1/ave_pool
I0403 19:49:00.097041  9703 net.cpp:425] loss1/ave_pool <- inception_4a/output_inception_4a/output_0_split_0
I0403 19:49:00.097066  9703 net.cpp:399] loss1/ave_pool -> loss1/ave_pool
I0403 19:49:00.097319  9703 net.cpp:141] Setting up loss1/ave_pool
I0403 19:49:00.097352  9703 net.cpp:148] Top shape: 24 512 4 4 (196608)
I0403 19:49:00.097370  9703 net.cpp:156] Memory required for data: 945501216
I0403 19:49:00.097388  9703 layer_factory.hpp:77] Creating layer loss1/conv
I0403 19:49:00.097415  9703 net.cpp:91] Creating Layer loss1/conv
I0403 19:49:00.097436  9703 net.cpp:425] loss1/conv <- loss1/ave_pool
I0403 19:49:00.097471  9703 net.cpp:399] loss1/conv -> loss1/conv
I0403 19:49:00.099175  9703 net.cpp:141] Setting up loss1/conv
I0403 19:49:00.099213  9703 net.cpp:148] Top shape: 24 128 4 4 (49152)
I0403 19:49:00.099233  9703 net.cpp:156] Memory required for data: 945697824
I0403 19:49:00.099274  9703 layer_factory.hpp:77] Creating layer loss1/relu_conv
I0403 19:49:00.099298  9703 net.cpp:91] Creating Layer loss1/relu_conv
I0403 19:49:00.099318  9703 net.cpp:425] loss1/relu_conv <- loss1/conv
I0403 19:49:00.099340  9703 net.cpp:386] loss1/relu_conv -> loss1/conv (in-place)
I0403 19:49:00.099694  9703 net.cpp:141] Setting up loss1/relu_conv
I0403 19:49:00.099730  9703 net.cpp:148] Top shape: 24 128 4 4 (49152)
I0403 19:49:00.099748  9703 net.cpp:156] Memory required for data: 945894432
I0403 19:49:00.099766  9703 layer_factory.hpp:77] Creating layer loss1/fc
I0403 19:49:00.099807  9703 net.cpp:91] Creating Layer loss1/fc
I0403 19:49:00.099828  9703 net.cpp:425] loss1/fc <- loss1/conv
I0403 19:49:00.099855  9703 net.cpp:399] loss1/fc -> loss1/fc
I0403 19:49:00.121881  9703 net.cpp:141] Setting up loss1/fc
I0403 19:49:00.121973  9703 net.cpp:148] Top shape: 24 1024 (24576)
I0403 19:49:00.121994  9703 net.cpp:156] Memory required for data: 945992736
I0403 19:49:00.122021  9703 layer_factory.hpp:77] Creating layer loss1/relu_fc
I0403 19:49:00.122053  9703 net.cpp:91] Creating Layer loss1/relu_fc
I0403 19:49:00.122076  9703 net.cpp:425] loss1/relu_fc <- loss1/fc
I0403 19:49:00.122102  9703 net.cpp:386] loss1/relu_fc -> loss1/fc (in-place)
I0403 19:49:00.122402  9703 net.cpp:141] Setting up loss1/relu_fc
I0403 19:49:00.122436  9703 net.cpp:148] Top shape: 24 1024 (24576)
I0403 19:49:00.122453  9703 net.cpp:156] Memory required for data: 946091040
I0403 19:49:00.122489  9703 layer_factory.hpp:77] Creating layer loss1/drop_fc
I0403 19:49:00.122529  9703 net.cpp:91] Creating Layer loss1/drop_fc
I0403 19:49:00.122550  9703 net.cpp:425] loss1/drop_fc <- loss1/fc
I0403 19:49:00.122571  9703 net.cpp:386] loss1/drop_fc -> loss1/fc (in-place)
I0403 19:49:00.122642  9703 net.cpp:141] Setting up loss1/drop_fc
I0403 19:49:00.122671  9703 net.cpp:148] Top shape: 24 1024 (24576)
I0403 19:49:00.122689  9703 net.cpp:156] Memory required for data: 946189344
I0403 19:49:00.122707  9703 layer_factory.hpp:77] Creating layer loss1/classifier_plantvillage
I0403 19:49:00.122732  9703 net.cpp:91] Creating Layer loss1/classifier_plantvillage
I0403 19:49:00.122757  9703 net.cpp:425] loss1/classifier_plantvillage <- loss1/fc
I0403 19:49:00.122781  9703 net.cpp:399] loss1/classifier_plantvillage -> loss1/classifier_plantvillage
I0403 19:49:00.124022  9703 net.cpp:141] Setting up loss1/classifier_plantvillage
I0403 19:49:00.124060  9703 net.cpp:148] Top shape: 24 38 (912)
I0403 19:49:00.124080  9703 net.cpp:156] Memory required for data: 946192992
I0403 19:49:00.124102  9703 layer_factory.hpp:77] Creating layer loss1/classifier_plantvillage_loss1/classifier_plantvillage_0_split
I0403 19:49:00.124125  9703 net.cpp:91] Creating Layer loss1/classifier_plantvillage_loss1/classifier_plantvillage_0_split
I0403 19:49:00.124145  9703 net.cpp:425] loss1/classifier_plantvillage_loss1/classifier_plantvillage_0_split <- loss1/classifier_plantvillage
I0403 19:49:00.124166  9703 net.cpp:399] loss1/classifier_plantvillage_loss1/classifier_plantvillage_0_split -> loss1/classifier_plantvillage_loss1/classifier_plantvillage_0_split_0
I0403 19:49:00.124198  9703 net.cpp:399] loss1/classifier_plantvillage_loss1/classifier_plantvillage_0_split -> loss1/classifier_plantvillage_loss1/classifier_plantvillage_0_split_1
I0403 19:49:00.124222  9703 net.cpp:399] loss1/classifier_plantvillage_loss1/classifier_plantvillage_0_split -> loss1/classifier_plantvillage_loss1/classifier_plantvillage_0_split_2
I0403 19:49:00.124305  9703 net.cpp:141] Setting up loss1/classifier_plantvillage_loss1/classifier_plantvillage_0_split
I0403 19:49:00.124335  9703 net.cpp:148] Top shape: 24 38 (912)
I0403 19:49:00.124354  9703 net.cpp:148] Top shape: 24 38 (912)
I0403 19:49:00.124374  9703 net.cpp:148] Top shape: 24 38 (912)
I0403 19:49:00.124392  9703 net.cpp:156] Memory required for data: 946203936
I0403 19:49:00.124410  9703 layer_factory.hpp:77] Creating layer inception_4b/1x1
I0403 19:49:00.124439  9703 net.cpp:91] Creating Layer inception_4b/1x1
I0403 19:49:00.124511  9703 net.cpp:425] inception_4b/1x1 <- inception_4a/output_inception_4a/output_0_split_1
I0403 19:49:00.124541  9703 net.cpp:399] inception_4b/1x1 -> inception_4b/1x1
I0403 19:49:00.126626  9703 net.cpp:141] Setting up inception_4b/1x1
I0403 19:49:00.126663  9703 net.cpp:148] Top shape: 24 160 14 14 (752640)
I0403 19:49:00.126684  9703 net.cpp:156] Memory required for data: 949214496
I0403 19:49:00.126708  9703 layer_factory.hpp:77] Creating layer inception_4b/relu_1x1
I0403 19:49:00.126729  9703 net.cpp:91] Creating Layer inception_4b/relu_1x1
I0403 19:49:00.126749  9703 net.cpp:425] inception_4b/relu_1x1 <- inception_4b/1x1
I0403 19:49:00.126771  9703 net.cpp:386] inception_4b/relu_1x1 -> inception_4b/1x1 (in-place)
I0403 19:49:00.126991  9703 net.cpp:141] Setting up inception_4b/relu_1x1
I0403 19:49:00.127022  9703 net.cpp:148] Top shape: 24 160 14 14 (752640)
I0403 19:49:00.127039  9703 net.cpp:156] Memory required for data: 952225056
I0403 19:49:00.127058  9703 layer_factory.hpp:77] Creating layer inception_4b/3x3_reduce
I0403 19:49:00.127086  9703 net.cpp:91] Creating Layer inception_4b/3x3_reduce
I0403 19:49:00.127107  9703 net.cpp:425] inception_4b/3x3_reduce <- inception_4a/output_inception_4a/output_0_split_2
I0403 19:49:00.127133  9703 net.cpp:399] inception_4b/3x3_reduce -> inception_4b/3x3_reduce
I0403 19:49:00.128805  9703 net.cpp:141] Setting up inception_4b/3x3_reduce
I0403 19:49:00.128839  9703 net.cpp:148] Top shape: 24 112 14 14 (526848)
I0403 19:49:00.128859  9703 net.cpp:156] Memory required for data: 954332448
I0403 19:49:00.128881  9703 layer_factory.hpp:77] Creating layer inception_4b/relu_3x3_reduce
I0403 19:49:00.128903  9703 net.cpp:91] Creating Layer inception_4b/relu_3x3_reduce
I0403 19:49:00.128924  9703 net.cpp:425] inception_4b/relu_3x3_reduce <- inception_4b/3x3_reduce
I0403 19:49:00.128949  9703 net.cpp:386] inception_4b/relu_3x3_reduce -> inception_4b/3x3_reduce (in-place)
I0403 19:49:00.129292  9703 net.cpp:141] Setting up inception_4b/relu_3x3_reduce
I0403 19:49:00.129325  9703 net.cpp:148] Top shape: 24 112 14 14 (526848)
I0403 19:49:00.129343  9703 net.cpp:156] Memory required for data: 956439840
I0403 19:49:00.129361  9703 layer_factory.hpp:77] Creating layer inception_4b/3x3
I0403 19:49:00.129390  9703 net.cpp:91] Creating Layer inception_4b/3x3
I0403 19:49:00.129410  9703 net.cpp:425] inception_4b/3x3 <- inception_4b/3x3_reduce
I0403 19:49:00.129437  9703 net.cpp:399] inception_4b/3x3 -> inception_4b/3x3
I0403 19:49:00.133100  9703 net.cpp:141] Setting up inception_4b/3x3
I0403 19:49:00.133138  9703 net.cpp:148] Top shape: 24 224 14 14 (1053696)
I0403 19:49:00.133158  9703 net.cpp:156] Memory required for data: 960654624
I0403 19:49:00.133183  9703 layer_factory.hpp:77] Creating layer inception_4b/relu_3x3
I0403 19:49:00.133208  9703 net.cpp:91] Creating Layer inception_4b/relu_3x3
I0403 19:49:00.133227  9703 net.cpp:425] inception_4b/relu_3x3 <- inception_4b/3x3
I0403 19:49:00.133249  9703 net.cpp:386] inception_4b/relu_3x3 -> inception_4b/3x3 (in-place)
I0403 19:49:00.133479  9703 net.cpp:141] Setting up inception_4b/relu_3x3
I0403 19:49:00.133512  9703 net.cpp:148] Top shape: 24 224 14 14 (1053696)
I0403 19:49:00.133533  9703 net.cpp:156] Memory required for data: 964869408
I0403 19:49:00.133550  9703 layer_factory.hpp:77] Creating layer inception_4b/5x5_reduce
I0403 19:49:00.133577  9703 net.cpp:91] Creating Layer inception_4b/5x5_reduce
I0403 19:49:00.133599  9703 net.cpp:425] inception_4b/5x5_reduce <- inception_4a/output_inception_4a/output_0_split_3
I0403 19:49:00.133623  9703 net.cpp:399] inception_4b/5x5_reduce -> inception_4b/5x5_reduce
I0403 19:49:00.134963  9703 net.cpp:141] Setting up inception_4b/5x5_reduce
I0403 19:49:00.134999  9703 net.cpp:148] Top shape: 24 24 14 14 (112896)
I0403 19:49:00.135020  9703 net.cpp:156] Memory required for data: 965320992
I0403 19:49:00.135043  9703 layer_factory.hpp:77] Creating layer inception_4b/relu_5x5_reduce
I0403 19:49:00.135066  9703 net.cpp:91] Creating Layer inception_4b/relu_5x5_reduce
I0403 19:49:00.135103  9703 net.cpp:425] inception_4b/relu_5x5_reduce <- inception_4b/5x5_reduce
I0403 19:49:00.135130  9703 net.cpp:386] inception_4b/relu_5x5_reduce -> inception_4b/5x5_reduce (in-place)
I0403 19:49:00.135351  9703 net.cpp:141] Setting up inception_4b/relu_5x5_reduce
I0403 19:49:00.135382  9703 net.cpp:148] Top shape: 24 24 14 14 (112896)
I0403 19:49:00.135401  9703 net.cpp:156] Memory required for data: 965772576
I0403 19:49:00.135421  9703 layer_factory.hpp:77] Creating layer inception_4b/5x5
I0403 19:49:00.135449  9703 net.cpp:91] Creating Layer inception_4b/5x5
I0403 19:49:00.135483  9703 net.cpp:425] inception_4b/5x5 <- inception_4b/5x5_reduce
I0403 19:49:00.135510  9703 net.cpp:399] inception_4b/5x5 -> inception_4b/5x5
I0403 19:49:00.137013  9703 net.cpp:141] Setting up inception_4b/5x5
I0403 19:49:00.137051  9703 net.cpp:148] Top shape: 24 64 14 14 (301056)
I0403 19:49:00.137071  9703 net.cpp:156] Memory required for data: 966976800
I0403 19:49:00.137094  9703 layer_factory.hpp:77] Creating layer inception_4b/relu_5x5
I0403 19:49:00.137115  9703 net.cpp:91] Creating Layer inception_4b/relu_5x5
I0403 19:49:00.137135  9703 net.cpp:425] inception_4b/relu_5x5 <- inception_4b/5x5
I0403 19:49:00.137156  9703 net.cpp:386] inception_4b/relu_5x5 -> inception_4b/5x5 (in-place)
I0403 19:49:00.137508  9703 net.cpp:141] Setting up inception_4b/relu_5x5
I0403 19:49:00.137543  9703 net.cpp:148] Top shape: 24 64 14 14 (301056)
I0403 19:49:00.137563  9703 net.cpp:156] Memory required for data: 968181024
I0403 19:49:00.137583  9703 layer_factory.hpp:77] Creating layer inception_4b/pool
I0403 19:49:00.137606  9703 net.cpp:91] Creating Layer inception_4b/pool
I0403 19:49:00.137626  9703 net.cpp:425] inception_4b/pool <- inception_4a/output_inception_4a/output_0_split_4
I0403 19:49:00.137648  9703 net.cpp:399] inception_4b/pool -> inception_4b/pool
I0403 19:49:00.137732  9703 net.cpp:141] Setting up inception_4b/pool
I0403 19:49:00.137760  9703 net.cpp:148] Top shape: 24 512 14 14 (2408448)
I0403 19:49:00.137778  9703 net.cpp:156] Memory required for data: 977814816
I0403 19:49:00.137796  9703 layer_factory.hpp:77] Creating layer inception_4b/pool_proj
I0403 19:49:00.137825  9703 net.cpp:91] Creating Layer inception_4b/pool_proj
I0403 19:49:00.137846  9703 net.cpp:425] inception_4b/pool_proj <- inception_4b/pool
I0403 19:49:00.137872  9703 net.cpp:399] inception_4b/pool_proj -> inception_4b/pool_proj
I0403 19:49:00.139349  9703 net.cpp:141] Setting up inception_4b/pool_proj
I0403 19:49:00.139386  9703 net.cpp:148] Top shape: 24 64 14 14 (301056)
I0403 19:49:00.139405  9703 net.cpp:156] Memory required for data: 979019040
I0403 19:49:00.139430  9703 layer_factory.hpp:77] Creating layer inception_4b/relu_pool_proj
I0403 19:49:00.139451  9703 net.cpp:91] Creating Layer inception_4b/relu_pool_proj
I0403 19:49:00.139484  9703 net.cpp:425] inception_4b/relu_pool_proj <- inception_4b/pool_proj
I0403 19:49:00.139511  9703 net.cpp:386] inception_4b/relu_pool_proj -> inception_4b/pool_proj (in-place)
I0403 19:49:00.139734  9703 net.cpp:141] Setting up inception_4b/relu_pool_proj
I0403 19:49:00.139765  9703 net.cpp:148] Top shape: 24 64 14 14 (301056)
I0403 19:49:00.139785  9703 net.cpp:156] Memory required for data: 980223264
I0403 19:49:00.139802  9703 layer_factory.hpp:77] Creating layer inception_4b/output
I0403 19:49:00.139825  9703 net.cpp:91] Creating Layer inception_4b/output
I0403 19:49:00.139843  9703 net.cpp:425] inception_4b/output <- inception_4b/1x1
I0403 19:49:00.139864  9703 net.cpp:425] inception_4b/output <- inception_4b/3x3
I0403 19:49:00.139884  9703 net.cpp:425] inception_4b/output <- inception_4b/5x5
I0403 19:49:00.139904  9703 net.cpp:425] inception_4b/output <- inception_4b/pool_proj
I0403 19:49:00.139928  9703 net.cpp:399] inception_4b/output -> inception_4b/output
I0403 19:49:00.139984  9703 net.cpp:141] Setting up inception_4b/output
I0403 19:49:00.140015  9703 net.cpp:148] Top shape: 24 512 14 14 (2408448)
I0403 19:49:00.140034  9703 net.cpp:156] Memory required for data: 989857056
I0403 19:49:00.140069  9703 layer_factory.hpp:77] Creating layer inception_4b/output_inception_4b/output_0_split
I0403 19:49:00.140094  9703 net.cpp:91] Creating Layer inception_4b/output_inception_4b/output_0_split
I0403 19:49:00.140112  9703 net.cpp:425] inception_4b/output_inception_4b/output_0_split <- inception_4b/output
I0403 19:49:00.140137  9703 net.cpp:399] inception_4b/output_inception_4b/output_0_split -> inception_4b/output_inception_4b/output_0_split_0
I0403 19:49:00.140162  9703 net.cpp:399] inception_4b/output_inception_4b/output_0_split -> inception_4b/output_inception_4b/output_0_split_1
I0403 19:49:00.140187  9703 net.cpp:399] inception_4b/output_inception_4b/output_0_split -> inception_4b/output_inception_4b/output_0_split_2
I0403 19:49:00.140213  9703 net.cpp:399] inception_4b/output_inception_4b/output_0_split -> inception_4b/output_inception_4b/output_0_split_3
I0403 19:49:00.140313  9703 net.cpp:141] Setting up inception_4b/output_inception_4b/output_0_split
I0403 19:49:00.140346  9703 net.cpp:148] Top shape: 24 512 14 14 (2408448)
I0403 19:49:00.140367  9703 net.cpp:148] Top shape: 24 512 14 14 (2408448)
I0403 19:49:00.140385  9703 net.cpp:148] Top shape: 24 512 14 14 (2408448)
I0403 19:49:00.140405  9703 net.cpp:148] Top shape: 24 512 14 14 (2408448)
I0403 19:49:00.140422  9703 net.cpp:156] Memory required for data: 1028392224
I0403 19:49:00.140440  9703 layer_factory.hpp:77] Creating layer inception_4c/1x1
I0403 19:49:00.140472  9703 net.cpp:91] Creating Layer inception_4c/1x1
I0403 19:49:00.140494  9703 net.cpp:425] inception_4c/1x1 <- inception_4b/output_inception_4b/output_0_split_0
I0403 19:49:00.140521  9703 net.cpp:399] inception_4c/1x1 -> inception_4c/1x1
I0403 19:49:00.142293  9703 net.cpp:141] Setting up inception_4c/1x1
I0403 19:49:00.142328  9703 net.cpp:148] Top shape: 24 128 14 14 (602112)
I0403 19:49:00.142348  9703 net.cpp:156] Memory required for data: 1030800672
I0403 19:49:00.142370  9703 layer_factory.hpp:77] Creating layer inception_4c/relu_1x1
I0403 19:49:00.142396  9703 net.cpp:91] Creating Layer inception_4c/relu_1x1
I0403 19:49:00.142416  9703 net.cpp:425] inception_4c/relu_1x1 <- inception_4c/1x1
I0403 19:49:00.142438  9703 net.cpp:386] inception_4c/relu_1x1 -> inception_4c/1x1 (in-place)
I0403 19:49:00.142679  9703 net.cpp:141] Setting up inception_4c/relu_1x1
I0403 19:49:00.142710  9703 net.cpp:148] Top shape: 24 128 14 14 (602112)
I0403 19:49:00.142729  9703 net.cpp:156] Memory required for data: 1033209120
I0403 19:49:00.142746  9703 layer_factory.hpp:77] Creating layer inception_4c/3x3_reduce
I0403 19:49:00.142777  9703 net.cpp:91] Creating Layer inception_4c/3x3_reduce
I0403 19:49:00.142799  9703 net.cpp:425] inception_4c/3x3_reduce <- inception_4b/output_inception_4b/output_0_split_1
I0403 19:49:00.142822  9703 net.cpp:399] inception_4c/3x3_reduce -> inception_4c/3x3_reduce
I0403 19:49:00.145247  9703 net.cpp:141] Setting up inception_4c/3x3_reduce
I0403 19:49:00.145287  9703 net.cpp:148] Top shape: 24 128 14 14 (602112)
I0403 19:49:00.145308  9703 net.cpp:156] Memory required for data: 1035617568
I0403 19:49:00.145330  9703 layer_factory.hpp:77] Creating layer inception_4c/relu_3x3_reduce
I0403 19:49:00.145354  9703 net.cpp:91] Creating Layer inception_4c/relu_3x3_reduce
I0403 19:49:00.145372  9703 net.cpp:425] inception_4c/relu_3x3_reduce <- inception_4c/3x3_reduce
I0403 19:49:00.145396  9703 net.cpp:386] inception_4c/relu_3x3_reduce -> inception_4c/3x3_reduce (in-place)
I0403 19:49:00.145745  9703 net.cpp:141] Setting up inception_4c/relu_3x3_reduce
I0403 19:49:00.145781  9703 net.cpp:148] Top shape: 24 128 14 14 (602112)
I0403 19:49:00.145800  9703 net.cpp:156] Memory required for data: 1038026016
I0403 19:49:00.145819  9703 layer_factory.hpp:77] Creating layer inception_4c/3x3
I0403 19:49:00.145849  9703 net.cpp:91] Creating Layer inception_4c/3x3
I0403 19:49:00.145871  9703 net.cpp:425] inception_4c/3x3 <- inception_4c/3x3_reduce
I0403 19:49:00.145896  9703 net.cpp:399] inception_4c/3x3 -> inception_4c/3x3
I0403 19:49:00.150305  9703 net.cpp:141] Setting up inception_4c/3x3
I0403 19:49:00.150359  9703 net.cpp:148] Top shape: 24 256 14 14 (1204224)
I0403 19:49:00.150394  9703 net.cpp:156] Memory required for data: 1042842912
I0403 19:49:00.150436  9703 layer_factory.hpp:77] Creating layer inception_4c/relu_3x3
I0403 19:49:00.150466  9703 net.cpp:91] Creating Layer inception_4c/relu_3x3
I0403 19:49:00.150497  9703 net.cpp:425] inception_4c/relu_3x3 <- inception_4c/3x3
I0403 19:49:00.150522  9703 net.cpp:386] inception_4c/relu_3x3 -> inception_4c/3x3 (in-place)
I0403 19:49:00.150744  9703 net.cpp:141] Setting up inception_4c/relu_3x3
I0403 19:49:00.150779  9703 net.cpp:148] Top shape: 24 256 14 14 (1204224)
I0403 19:49:00.150797  9703 net.cpp:156] Memory required for data: 1047659808
I0403 19:49:00.150816  9703 layer_factory.hpp:77] Creating layer inception_4c/5x5_reduce
I0403 19:49:00.150846  9703 net.cpp:91] Creating Layer inception_4c/5x5_reduce
I0403 19:49:00.150867  9703 net.cpp:425] inception_4c/5x5_reduce <- inception_4b/output_inception_4b/output_0_split_2
I0403 19:49:00.150892  9703 net.cpp:399] inception_4c/5x5_reduce -> inception_4c/5x5_reduce
I0403 19:49:00.152221  9703 net.cpp:141] Setting up inception_4c/5x5_reduce
I0403 19:49:00.152258  9703 net.cpp:148] Top shape: 24 24 14 14 (112896)
I0403 19:49:00.152278  9703 net.cpp:156] Memory required for data: 1048111392
I0403 19:49:00.152302  9703 layer_factory.hpp:77] Creating layer inception_4c/relu_5x5_reduce
I0403 19:49:00.152324  9703 net.cpp:91] Creating Layer inception_4c/relu_5x5_reduce
I0403 19:49:00.152345  9703 net.cpp:425] inception_4c/relu_5x5_reduce <- inception_4c/5x5_reduce
I0403 19:49:00.152369  9703 net.cpp:386] inception_4c/relu_5x5_reduce -> inception_4c/5x5_reduce (in-place)
I0403 19:49:00.152621  9703 net.cpp:141] Setting up inception_4c/relu_5x5_reduce
I0403 19:49:00.152652  9703 net.cpp:148] Top shape: 24 24 14 14 (112896)
I0403 19:49:00.152670  9703 net.cpp:156] Memory required for data: 1048562976
I0403 19:49:00.152689  9703 layer_factory.hpp:77] Creating layer inception_4c/5x5
I0403 19:49:00.152717  9703 net.cpp:91] Creating Layer inception_4c/5x5
I0403 19:49:00.152739  9703 net.cpp:425] inception_4c/5x5 <- inception_4c/5x5_reduce
I0403 19:49:00.152765  9703 net.cpp:399] inception_4c/5x5 -> inception_4c/5x5
I0403 19:49:00.154291  9703 net.cpp:141] Setting up inception_4c/5x5
I0403 19:49:00.154326  9703 net.cpp:148] Top shape: 24 64 14 14 (301056)
I0403 19:49:00.154345  9703 net.cpp:156] Memory required for data: 1049767200
I0403 19:49:00.154368  9703 layer_factory.hpp:77] Creating layer inception_4c/relu_5x5
I0403 19:49:00.154393  9703 net.cpp:91] Creating Layer inception_4c/relu_5x5
I0403 19:49:00.154413  9703 net.cpp:425] inception_4c/relu_5x5 <- inception_4c/5x5
I0403 19:49:00.154436  9703 net.cpp:386] inception_4c/relu_5x5 -> inception_4c/5x5 (in-place)
I0403 19:49:00.154794  9703 net.cpp:141] Setting up inception_4c/relu_5x5
I0403 19:49:00.154826  9703 net.cpp:148] Top shape: 24 64 14 14 (301056)
I0403 19:49:00.154844  9703 net.cpp:156] Memory required for data: 1050971424
I0403 19:49:00.154863  9703 layer_factory.hpp:77] Creating layer inception_4c/pool
I0403 19:49:00.154886  9703 net.cpp:91] Creating Layer inception_4c/pool
I0403 19:49:00.154909  9703 net.cpp:425] inception_4c/pool <- inception_4b/output_inception_4b/output_0_split_3
I0403 19:49:00.154932  9703 net.cpp:399] inception_4c/pool -> inception_4c/pool
I0403 19:49:00.155012  9703 net.cpp:141] Setting up inception_4c/pool
I0403 19:49:00.155041  9703 net.cpp:148] Top shape: 24 512 14 14 (2408448)
I0403 19:49:00.155061  9703 net.cpp:156] Memory required for data: 1060605216
I0403 19:49:00.155079  9703 layer_factory.hpp:77] Creating layer inception_4c/pool_proj
I0403 19:49:00.155107  9703 net.cpp:91] Creating Layer inception_4c/pool_proj
I0403 19:49:00.155129  9703 net.cpp:425] inception_4c/pool_proj <- inception_4c/pool
I0403 19:49:00.155155  9703 net.cpp:399] inception_4c/pool_proj -> inception_4c/pool_proj
I0403 19:49:00.156661  9703 net.cpp:141] Setting up inception_4c/pool_proj
I0403 19:49:00.156699  9703 net.cpp:148] Top shape: 24 64 14 14 (301056)
I0403 19:49:00.156736  9703 net.cpp:156] Memory required for data: 1061809440
I0403 19:49:00.156761  9703 layer_factory.hpp:77] Creating layer inception_4c/relu_pool_proj
I0403 19:49:00.156785  9703 net.cpp:91] Creating Layer inception_4c/relu_pool_proj
I0403 19:49:00.156805  9703 net.cpp:425] inception_4c/relu_pool_proj <- inception_4c/pool_proj
I0403 19:49:00.156828  9703 net.cpp:386] inception_4c/relu_pool_proj -> inception_4c/pool_proj (in-place)
I0403 19:49:00.157060  9703 net.cpp:141] Setting up inception_4c/relu_pool_proj
I0403 19:49:00.157093  9703 net.cpp:148] Top shape: 24 64 14 14 (301056)
I0403 19:49:00.157110  9703 net.cpp:156] Memory required for data: 1063013664
I0403 19:49:00.157130  9703 layer_factory.hpp:77] Creating layer inception_4c/output
I0403 19:49:00.157151  9703 net.cpp:91] Creating Layer inception_4c/output
I0403 19:49:00.157171  9703 net.cpp:425] inception_4c/output <- inception_4c/1x1
I0403 19:49:00.157213  9703 net.cpp:425] inception_4c/output <- inception_4c/3x3
I0403 19:49:00.157232  9703 net.cpp:425] inception_4c/output <- inception_4c/5x5
I0403 19:49:00.157253  9703 net.cpp:425] inception_4c/output <- inception_4c/pool_proj
I0403 19:49:00.157276  9703 net.cpp:399] inception_4c/output -> inception_4c/output
I0403 19:49:00.157333  9703 net.cpp:141] Setting up inception_4c/output
I0403 19:49:00.157366  9703 net.cpp:148] Top shape: 24 512 14 14 (2408448)
I0403 19:49:00.157384  9703 net.cpp:156] Memory required for data: 1072647456
I0403 19:49:00.157402  9703 layer_factory.hpp:77] Creating layer inception_4c/output_inception_4c/output_0_split
I0403 19:49:00.157424  9703 net.cpp:91] Creating Layer inception_4c/output_inception_4c/output_0_split
I0403 19:49:00.157444  9703 net.cpp:425] inception_4c/output_inception_4c/output_0_split <- inception_4c/output
I0403 19:49:00.157475  9703 net.cpp:399] inception_4c/output_inception_4c/output_0_split -> inception_4c/output_inception_4c/output_0_split_0
I0403 19:49:00.157510  9703 net.cpp:399] inception_4c/output_inception_4c/output_0_split -> inception_4c/output_inception_4c/output_0_split_1
I0403 19:49:00.157533  9703 net.cpp:399] inception_4c/output_inception_4c/output_0_split -> inception_4c/output_inception_4c/output_0_split_2
I0403 19:49:00.157557  9703 net.cpp:399] inception_4c/output_inception_4c/output_0_split -> inception_4c/output_inception_4c/output_0_split_3
I0403 19:49:00.157661  9703 net.cpp:141] Setting up inception_4c/output_inception_4c/output_0_split
I0403 19:49:00.157691  9703 net.cpp:148] Top shape: 24 512 14 14 (2408448)
I0403 19:49:00.157716  9703 net.cpp:148] Top shape: 24 512 14 14 (2408448)
I0403 19:49:00.157735  9703 net.cpp:148] Top shape: 24 512 14 14 (2408448)
I0403 19:49:00.157754  9703 net.cpp:148] Top shape: 24 512 14 14 (2408448)
I0403 19:49:00.157770  9703 net.cpp:156] Memory required for data: 1111182624
I0403 19:49:00.157788  9703 layer_factory.hpp:77] Creating layer inception_4d/1x1
I0403 19:49:00.157812  9703 net.cpp:91] Creating Layer inception_4d/1x1
I0403 19:49:00.157835  9703 net.cpp:425] inception_4d/1x1 <- inception_4c/output_inception_4c/output_0_split_0
I0403 19:49:00.157860  9703 net.cpp:399] inception_4d/1x1 -> inception_4d/1x1
I0403 19:49:00.159564  9703 net.cpp:141] Setting up inception_4d/1x1
I0403 19:49:00.159598  9703 net.cpp:148] Top shape: 24 112 14 14 (526848)
I0403 19:49:00.159618  9703 net.cpp:156] Memory required for data: 1113290016
I0403 19:49:00.159641  9703 layer_factory.hpp:77] Creating layer inception_4d/relu_1x1
I0403 19:49:00.159667  9703 net.cpp:91] Creating Layer inception_4d/relu_1x1
I0403 19:49:00.159687  9703 net.cpp:425] inception_4d/relu_1x1 <- inception_4d/1x1
I0403 19:49:00.159708  9703 net.cpp:386] inception_4d/relu_1x1 -> inception_4d/1x1 (in-place)
I0403 19:49:00.159937  9703 net.cpp:141] Setting up inception_4d/relu_1x1
I0403 19:49:00.159970  9703 net.cpp:148] Top shape: 24 112 14 14 (526848)
I0403 19:49:00.159988  9703 net.cpp:156] Memory required for data: 1115397408
I0403 19:49:00.160007  9703 layer_factory.hpp:77] Creating layer inception_4d/3x3_reduce
I0403 19:49:00.160053  9703 net.cpp:91] Creating Layer inception_4d/3x3_reduce
I0403 19:49:00.160076  9703 net.cpp:425] inception_4d/3x3_reduce <- inception_4c/output_inception_4c/output_0_split_1
I0403 19:49:00.160100  9703 net.cpp:399] inception_4d/3x3_reduce -> inception_4d/3x3_reduce
I0403 19:49:00.161968  9703 net.cpp:141] Setting up inception_4d/3x3_reduce
I0403 19:49:00.162003  9703 net.cpp:148] Top shape: 24 144 14 14 (677376)
I0403 19:49:00.162022  9703 net.cpp:156] Memory required for data: 1118106912
I0403 19:49:00.162045  9703 layer_factory.hpp:77] Creating layer inception_4d/relu_3x3_reduce
I0403 19:49:00.162070  9703 net.cpp:91] Creating Layer inception_4d/relu_3x3_reduce
I0403 19:49:00.162091  9703 net.cpp:425] inception_4d/relu_3x3_reduce <- inception_4d/3x3_reduce
I0403 19:49:00.162112  9703 net.cpp:386] inception_4d/relu_3x3_reduce -> inception_4d/3x3_reduce (in-place)
I0403 19:49:00.162484  9703 net.cpp:141] Setting up inception_4d/relu_3x3_reduce
I0403 19:49:00.162524  9703 net.cpp:148] Top shape: 24 144 14 14 (677376)
I0403 19:49:00.162544  9703 net.cpp:156] Memory required for data: 1120816416
I0403 19:49:00.162562  9703 layer_factory.hpp:77] Creating layer inception_4d/3x3
I0403 19:49:00.162590  9703 net.cpp:91] Creating Layer inception_4d/3x3
I0403 19:49:00.162611  9703 net.cpp:425] inception_4d/3x3 <- inception_4d/3x3_reduce
I0403 19:49:00.162638  9703 net.cpp:399] inception_4d/3x3 -> inception_4d/3x3
I0403 19:49:00.168226  9703 net.cpp:141] Setting up inception_4d/3x3
I0403 19:49:00.168264  9703 net.cpp:148] Top shape: 24 288 14 14 (1354752)
I0403 19:49:00.168283  9703 net.cpp:156] Memory required for data: 1126235424
I0403 19:49:00.168306  9703 layer_factory.hpp:77] Creating layer inception_4d/relu_3x3
I0403 19:49:00.168332  9703 net.cpp:91] Creating Layer inception_4d/relu_3x3
I0403 19:49:00.168354  9703 net.cpp:425] inception_4d/relu_3x3 <- inception_4d/3x3
I0403 19:49:00.168376  9703 net.cpp:386] inception_4d/relu_3x3 -> inception_4d/3x3 (in-place)
I0403 19:49:00.168609  9703 net.cpp:141] Setting up inception_4d/relu_3x3
I0403 19:49:00.168640  9703 net.cpp:148] Top shape: 24 288 14 14 (1354752)
I0403 19:49:00.168659  9703 net.cpp:156] Memory required for data: 1131654432
I0403 19:49:00.168678  9703 layer_factory.hpp:77] Creating layer inception_4d/5x5_reduce
I0403 19:49:00.168705  9703 net.cpp:91] Creating Layer inception_4d/5x5_reduce
I0403 19:49:00.168728  9703 net.cpp:425] inception_4d/5x5_reduce <- inception_4c/output_inception_4c/output_0_split_2
I0403 19:49:00.168754  9703 net.cpp:399] inception_4d/5x5_reduce -> inception_4d/5x5_reduce
I0403 19:49:00.170159  9703 net.cpp:141] Setting up inception_4d/5x5_reduce
I0403 19:49:00.170195  9703 net.cpp:148] Top shape: 24 32 14 14 (150528)
I0403 19:49:00.170217  9703 net.cpp:156] Memory required for data: 1132256544
I0403 19:49:00.170241  9703 layer_factory.hpp:77] Creating layer inception_4d/relu_5x5_reduce
I0403 19:49:00.170264  9703 net.cpp:91] Creating Layer inception_4d/relu_5x5_reduce
I0403 19:49:00.170284  9703 net.cpp:425] inception_4d/relu_5x5_reduce <- inception_4d/5x5_reduce
I0403 19:49:00.170305  9703 net.cpp:386] inception_4d/relu_5x5_reduce -> inception_4d/5x5_reduce (in-place)
I0403 19:49:00.170542  9703 net.cpp:141] Setting up inception_4d/relu_5x5_reduce
I0403 19:49:00.170573  9703 net.cpp:148] Top shape: 24 32 14 14 (150528)
I0403 19:49:00.170593  9703 net.cpp:156] Memory required for data: 1132858656
I0403 19:49:00.170610  9703 layer_factory.hpp:77] Creating layer inception_4d/5x5
I0403 19:49:00.170637  9703 net.cpp:91] Creating Layer inception_4d/5x5
I0403 19:49:00.170660  9703 net.cpp:425] inception_4d/5x5 <- inception_4d/5x5_reduce
I0403 19:49:00.170683  9703 net.cpp:399] inception_4d/5x5 -> inception_4d/5x5
I0403 19:49:00.172509  9703 net.cpp:141] Setting up inception_4d/5x5
I0403 19:49:00.172544  9703 net.cpp:148] Top shape: 24 64 14 14 (301056)
I0403 19:49:00.172564  9703 net.cpp:156] Memory required for data: 1134062880
I0403 19:49:00.172587  9703 layer_factory.hpp:77] Creating layer inception_4d/relu_5x5
I0403 19:49:00.172626  9703 net.cpp:91] Creating Layer inception_4d/relu_5x5
I0403 19:49:00.172647  9703 net.cpp:425] inception_4d/relu_5x5 <- inception_4d/5x5
I0403 19:49:00.172672  9703 net.cpp:386] inception_4d/relu_5x5 -> inception_4d/5x5 (in-place)
I0403 19:49:00.173043  9703 net.cpp:141] Setting up inception_4d/relu_5x5
I0403 19:49:00.173076  9703 net.cpp:148] Top shape: 24 64 14 14 (301056)
I0403 19:49:00.173095  9703 net.cpp:156] Memory required for data: 1135267104
I0403 19:49:00.173115  9703 layer_factory.hpp:77] Creating layer inception_4d/pool
I0403 19:49:00.173136  9703 net.cpp:91] Creating Layer inception_4d/pool
I0403 19:49:00.173156  9703 net.cpp:425] inception_4d/pool <- inception_4c/output_inception_4c/output_0_split_3
I0403 19:49:00.173182  9703 net.cpp:399] inception_4d/pool -> inception_4d/pool
I0403 19:49:00.173262  9703 net.cpp:141] Setting up inception_4d/pool
I0403 19:49:00.173296  9703 net.cpp:148] Top shape: 24 512 14 14 (2408448)
I0403 19:49:00.173316  9703 net.cpp:156] Memory required for data: 1144900896
I0403 19:49:00.173334  9703 layer_factory.hpp:77] Creating layer inception_4d/pool_proj
I0403 19:49:00.173369  9703 net.cpp:91] Creating Layer inception_4d/pool_proj
I0403 19:49:00.173391  9703 net.cpp:425] inception_4d/pool_proj <- inception_4d/pool
I0403 19:49:00.173414  9703 net.cpp:399] inception_4d/pool_proj -> inception_4d/pool_proj
I0403 19:49:00.175602  9703 net.cpp:141] Setting up inception_4d/pool_proj
I0403 19:49:00.175639  9703 net.cpp:148] Top shape: 24 64 14 14 (301056)
I0403 19:49:00.175658  9703 net.cpp:156] Memory required for data: 1146105120
I0403 19:49:00.175681  9703 layer_factory.hpp:77] Creating layer inception_4d/relu_pool_proj
I0403 19:49:00.175706  9703 net.cpp:91] Creating Layer inception_4d/relu_pool_proj
I0403 19:49:00.175727  9703 net.cpp:425] inception_4d/relu_pool_proj <- inception_4d/pool_proj
I0403 19:49:00.175750  9703 net.cpp:386] inception_4d/relu_pool_proj -> inception_4d/pool_proj (in-place)
I0403 19:49:00.175982  9703 net.cpp:141] Setting up inception_4d/relu_pool_proj
I0403 19:49:00.176013  9703 net.cpp:148] Top shape: 24 64 14 14 (301056)
I0403 19:49:00.176033  9703 net.cpp:156] Memory required for data: 1147309344
I0403 19:49:00.176049  9703 layer_factory.hpp:77] Creating layer inception_4d/output
I0403 19:49:00.176071  9703 net.cpp:91] Creating Layer inception_4d/output
I0403 19:49:00.176090  9703 net.cpp:425] inception_4d/output <- inception_4d/1x1
I0403 19:49:00.176110  9703 net.cpp:425] inception_4d/output <- inception_4d/3x3
I0403 19:49:00.176129  9703 net.cpp:425] inception_4d/output <- inception_4d/5x5
I0403 19:49:00.176149  9703 net.cpp:425] inception_4d/output <- inception_4d/pool_proj
I0403 19:49:00.176172  9703 net.cpp:399] inception_4d/output -> inception_4d/output
I0403 19:49:00.176229  9703 net.cpp:141] Setting up inception_4d/output
I0403 19:49:00.176259  9703 net.cpp:148] Top shape: 24 528 14 14 (2483712)
I0403 19:49:00.176280  9703 net.cpp:156] Memory required for data: 1157244192
I0403 19:49:00.176301  9703 layer_factory.hpp:77] Creating layer inception_4d/output_inception_4d/output_0_split
I0403 19:49:00.176322  9703 net.cpp:91] Creating Layer inception_4d/output_inception_4d/output_0_split
I0403 19:49:00.176342  9703 net.cpp:425] inception_4d/output_inception_4d/output_0_split <- inception_4d/output
I0403 19:49:00.176363  9703 net.cpp:399] inception_4d/output_inception_4d/output_0_split -> inception_4d/output_inception_4d/output_0_split_0
I0403 19:49:00.176388  9703 net.cpp:399] inception_4d/output_inception_4d/output_0_split -> inception_4d/output_inception_4d/output_0_split_1
I0403 19:49:00.176416  9703 net.cpp:399] inception_4d/output_inception_4d/output_0_split -> inception_4d/output_inception_4d/output_0_split_2
I0403 19:49:00.176442  9703 net.cpp:399] inception_4d/output_inception_4d/output_0_split -> inception_4d/output_inception_4d/output_0_split_3
I0403 19:49:00.176473  9703 net.cpp:399] inception_4d/output_inception_4d/output_0_split -> inception_4d/output_inception_4d/output_0_split_4
I0403 19:49:00.176601  9703 net.cpp:141] Setting up inception_4d/output_inception_4d/output_0_split
I0403 19:49:00.176647  9703 net.cpp:148] Top shape: 24 528 14 14 (2483712)
I0403 19:49:00.176668  9703 net.cpp:148] Top shape: 24 528 14 14 (2483712)
I0403 19:49:00.176688  9703 net.cpp:148] Top shape: 24 528 14 14 (2483712)
I0403 19:49:00.176707  9703 net.cpp:148] Top shape: 24 528 14 14 (2483712)
I0403 19:49:00.176728  9703 net.cpp:148] Top shape: 24 528 14 14 (2483712)
I0403 19:49:00.176743  9703 net.cpp:156] Memory required for data: 1206918432
I0403 19:49:00.176761  9703 layer_factory.hpp:77] Creating layer loss2/ave_pool
I0403 19:49:00.176786  9703 net.cpp:91] Creating Layer loss2/ave_pool
I0403 19:49:00.176806  9703 net.cpp:425] loss2/ave_pool <- inception_4d/output_inception_4d/output_0_split_0
I0403 19:49:00.176829  9703 net.cpp:399] loss2/ave_pool -> loss2/ave_pool
I0403 19:49:00.177208  9703 net.cpp:141] Setting up loss2/ave_pool
I0403 19:49:00.177242  9703 net.cpp:148] Top shape: 24 528 4 4 (202752)
I0403 19:49:00.177261  9703 net.cpp:156] Memory required for data: 1207729440
I0403 19:49:00.177280  9703 layer_factory.hpp:77] Creating layer loss2/conv
I0403 19:49:00.177310  9703 net.cpp:91] Creating Layer loss2/conv
I0403 19:49:00.177332  9703 net.cpp:425] loss2/conv <- loss2/ave_pool
I0403 19:49:00.177356  9703 net.cpp:399] loss2/conv -> loss2/conv
I0403 19:49:00.179705  9703 net.cpp:141] Setting up loss2/conv
I0403 19:49:00.179741  9703 net.cpp:148] Top shape: 24 128 4 4 (49152)
I0403 19:49:00.179761  9703 net.cpp:156] Memory required for data: 1207926048
I0403 19:49:00.179785  9703 layer_factory.hpp:77] Creating layer loss2/relu_conv
I0403 19:49:00.179807  9703 net.cpp:91] Creating Layer loss2/relu_conv
I0403 19:49:00.179826  9703 net.cpp:425] loss2/relu_conv <- loss2/conv
I0403 19:49:00.179850  9703 net.cpp:386] loss2/relu_conv -> loss2/conv (in-place)
I0403 19:49:00.180194  9703 net.cpp:141] Setting up loss2/relu_conv
I0403 19:49:00.180227  9703 net.cpp:148] Top shape: 24 128 4 4 (49152)
I0403 19:49:00.180246  9703 net.cpp:156] Memory required for data: 1208122656
I0403 19:49:00.180264  9703 layer_factory.hpp:77] Creating layer loss2/fc
I0403 19:49:00.180287  9703 net.cpp:91] Creating Layer loss2/fc
I0403 19:49:00.180307  9703 net.cpp:425] loss2/fc <- loss2/conv
I0403 19:49:00.180333  9703 net.cpp:399] loss2/fc -> loss2/fc
I0403 19:49:00.202812  9703 net.cpp:141] Setting up loss2/fc
I0403 19:49:00.202855  9703 net.cpp:148] Top shape: 24 1024 (24576)
I0403 19:49:00.202874  9703 net.cpp:156] Memory required for data: 1208220960
I0403 19:49:00.202898  9703 layer_factory.hpp:77] Creating layer loss2/relu_fc
I0403 19:49:00.202919  9703 net.cpp:91] Creating Layer loss2/relu_fc
I0403 19:49:00.202940  9703 net.cpp:425] loss2/relu_fc <- loss2/fc
I0403 19:49:00.202961  9703 net.cpp:386] loss2/relu_fc -> loss2/fc (in-place)
I0403 19:49:00.203335  9703 net.cpp:141] Setting up loss2/relu_fc
I0403 19:49:00.203379  9703 net.cpp:148] Top shape: 24 1024 (24576)
I0403 19:49:00.203398  9703 net.cpp:156] Memory required for data: 1208319264
I0403 19:49:00.203416  9703 layer_factory.hpp:77] Creating layer loss2/drop_fc
I0403 19:49:00.203438  9703 net.cpp:91] Creating Layer loss2/drop_fc
I0403 19:49:00.203464  9703 net.cpp:425] loss2/drop_fc <- loss2/fc
I0403 19:49:00.203487  9703 net.cpp:386] loss2/drop_fc -> loss2/fc (in-place)
I0403 19:49:00.203552  9703 net.cpp:141] Setting up loss2/drop_fc
I0403 19:49:00.203580  9703 net.cpp:148] Top shape: 24 1024 (24576)
I0403 19:49:00.203598  9703 net.cpp:156] Memory required for data: 1208417568
I0403 19:49:00.203615  9703 layer_factory.hpp:77] Creating layer loss2/classifier_plantvillage
I0403 19:49:00.203639  9703 net.cpp:91] Creating Layer loss2/classifier_plantvillage
I0403 19:49:00.203660  9703 net.cpp:425] loss2/classifier_plantvillage <- loss2/fc
I0403 19:49:00.203683  9703 net.cpp:399] loss2/classifier_plantvillage -> loss2/classifier_plantvillage
I0403 19:49:00.204211  9703 net.cpp:141] Setting up loss2/classifier_plantvillage
I0403 19:49:00.204241  9703 net.cpp:148] Top shape: 24 38 (912)
I0403 19:49:00.204259  9703 net.cpp:156] Memory required for data: 1208421216
I0403 19:49:00.204303  9703 layer_factory.hpp:77] Creating layer loss2/classifier_plantvillage_loss2/classifier_plantvillage_0_split
I0403 19:49:00.204326  9703 net.cpp:91] Creating Layer loss2/classifier_plantvillage_loss2/classifier_plantvillage_0_split
I0403 19:49:00.204345  9703 net.cpp:425] loss2/classifier_plantvillage_loss2/classifier_plantvillage_0_split <- loss2/classifier_plantvillage
I0403 19:49:00.204371  9703 net.cpp:399] loss2/classifier_plantvillage_loss2/classifier_plantvillage_0_split -> loss2/classifier_plantvillage_loss2/classifier_plantvillage_0_split_0
I0403 19:49:00.204396  9703 net.cpp:399] loss2/classifier_plantvillage_loss2/classifier_plantvillage_0_split -> loss2/classifier_plantvillage_loss2/classifier_plantvillage_0_split_1
I0403 19:49:00.204421  9703 net.cpp:399] loss2/classifier_plantvillage_loss2/classifier_plantvillage_0_split -> loss2/classifier_plantvillage_loss2/classifier_plantvillage_0_split_2
I0403 19:49:00.204532  9703 net.cpp:141] Setting up loss2/classifier_plantvillage_loss2/classifier_plantvillage_0_split
I0403 19:49:00.204562  9703 net.cpp:148] Top shape: 24 38 (912)
I0403 19:49:00.204582  9703 net.cpp:148] Top shape: 24 38 (912)
I0403 19:49:00.204602  9703 net.cpp:148] Top shape: 24 38 (912)
I0403 19:49:00.204619  9703 net.cpp:156] Memory required for data: 1208432160
I0403 19:49:00.204638  9703 layer_factory.hpp:77] Creating layer inception_4e/1x1
I0403 19:49:00.204664  9703 net.cpp:91] Creating Layer inception_4e/1x1
I0403 19:49:00.204686  9703 net.cpp:425] inception_4e/1x1 <- inception_4d/output_inception_4d/output_0_split_1
I0403 19:49:00.204710  9703 net.cpp:399] inception_4e/1x1 -> inception_4e/1x1
I0403 19:49:00.206970  9703 net.cpp:141] Setting up inception_4e/1x1
I0403 19:49:00.207005  9703 net.cpp:148] Top shape: 24 256 14 14 (1204224)
I0403 19:49:00.207025  9703 net.cpp:156] Memory required for data: 1213249056
I0403 19:49:00.207046  9703 layer_factory.hpp:77] Creating layer inception_4e/relu_1x1
I0403 19:49:00.207072  9703 net.cpp:91] Creating Layer inception_4e/relu_1x1
I0403 19:49:00.207093  9703 net.cpp:425] inception_4e/relu_1x1 <- inception_4e/1x1
I0403 19:49:00.207113  9703 net.cpp:386] inception_4e/relu_1x1 -> inception_4e/1x1 (in-place)
I0403 19:49:00.207473  9703 net.cpp:141] Setting up inception_4e/relu_1x1
I0403 19:49:00.207509  9703 net.cpp:148] Top shape: 24 256 14 14 (1204224)
I0403 19:49:00.207527  9703 net.cpp:156] Memory required for data: 1218065952
I0403 19:49:00.207547  9703 layer_factory.hpp:77] Creating layer inception_4e/3x3_reduce
I0403 19:49:00.207574  9703 net.cpp:91] Creating Layer inception_4e/3x3_reduce
I0403 19:49:00.207597  9703 net.cpp:425] inception_4e/3x3_reduce <- inception_4d/output_inception_4d/output_0_split_2
I0403 19:49:00.207623  9703 net.cpp:399] inception_4e/3x3_reduce -> inception_4e/3x3_reduce
I0403 19:49:00.210202  9703 net.cpp:141] Setting up inception_4e/3x3_reduce
I0403 19:49:00.210237  9703 net.cpp:148] Top shape: 24 160 14 14 (752640)
I0403 19:49:00.210256  9703 net.cpp:156] Memory required for data: 1221076512
I0403 19:49:00.210279  9703 layer_factory.hpp:77] Creating layer inception_4e/relu_3x3_reduce
I0403 19:49:00.210301  9703 net.cpp:91] Creating Layer inception_4e/relu_3x3_reduce
I0403 19:49:00.210321  9703 net.cpp:425] inception_4e/relu_3x3_reduce <- inception_4e/3x3_reduce
I0403 19:49:00.210345  9703 net.cpp:386] inception_4e/relu_3x3_reduce -> inception_4e/3x3_reduce (in-place)
I0403 19:49:00.210584  9703 net.cpp:141] Setting up inception_4e/relu_3x3_reduce
I0403 19:49:00.210615  9703 net.cpp:148] Top shape: 24 160 14 14 (752640)
I0403 19:49:00.210633  9703 net.cpp:156] Memory required for data: 1224087072
I0403 19:49:00.210651  9703 layer_factory.hpp:77] Creating layer inception_4e/3x3
I0403 19:49:00.210680  9703 net.cpp:91] Creating Layer inception_4e/3x3
I0403 19:49:00.210701  9703 net.cpp:425] inception_4e/3x3 <- inception_4e/3x3_reduce
I0403 19:49:00.210726  9703 net.cpp:399] inception_4e/3x3 -> inception_4e/3x3
I0403 19:49:00.216938  9703 net.cpp:141] Setting up inception_4e/3x3
I0403 19:49:00.216994  9703 net.cpp:148] Top shape: 24 320 14 14 (1505280)
I0403 19:49:00.217015  9703 net.cpp:156] Memory required for data: 1230108192
I0403 19:49:00.217038  9703 layer_factory.hpp:77] Creating layer inception_4e/relu_3x3
I0403 19:49:00.217063  9703 net.cpp:91] Creating Layer inception_4e/relu_3x3
I0403 19:49:00.217085  9703 net.cpp:425] inception_4e/relu_3x3 <- inception_4e/3x3
I0403 19:49:00.217106  9703 net.cpp:386] inception_4e/relu_3x3 -> inception_4e/3x3 (in-place)
I0403 19:49:00.219765  9703 net.cpp:141] Setting up inception_4e/relu_3x3
I0403 19:49:00.219816  9703 net.cpp:148] Top shape: 24 320 14 14 (1505280)
I0403 19:49:00.219836  9703 net.cpp:156] Memory required for data: 1236129312
I0403 19:49:00.219856  9703 layer_factory.hpp:77] Creating layer inception_4e/5x5_reduce
I0403 19:49:00.219892  9703 net.cpp:91] Creating Layer inception_4e/5x5_reduce
I0403 19:49:00.219915  9703 net.cpp:425] inception_4e/5x5_reduce <- inception_4d/output_inception_4d/output_0_split_3
I0403 19:49:00.219944  9703 net.cpp:399] inception_4e/5x5_reduce -> inception_4e/5x5_reduce
I0403 19:49:00.221302  9703 net.cpp:141] Setting up inception_4e/5x5_reduce
I0403 19:49:00.221341  9703 net.cpp:148] Top shape: 24 32 14 14 (150528)
I0403 19:49:00.221364  9703 net.cpp:156] Memory required for data: 1236731424
I0403 19:49:00.221387  9703 layer_factory.hpp:77] Creating layer inception_4e/relu_5x5_reduce
I0403 19:49:00.221410  9703 net.cpp:91] Creating Layer inception_4e/relu_5x5_reduce
I0403 19:49:00.221429  9703 net.cpp:425] inception_4e/relu_5x5_reduce <- inception_4e/5x5_reduce
I0403 19:49:00.221454  9703 net.cpp:386] inception_4e/relu_5x5_reduce -> inception_4e/5x5_reduce (in-place)
I0403 19:49:00.221825  9703 net.cpp:141] Setting up inception_4e/relu_5x5_reduce
I0403 19:49:00.221860  9703 net.cpp:148] Top shape: 24 32 14 14 (150528)
I0403 19:49:00.221879  9703 net.cpp:156] Memory required for data: 1237333536
I0403 19:49:00.221897  9703 layer_factory.hpp:77] Creating layer inception_4e/5x5
I0403 19:49:00.221946  9703 net.cpp:91] Creating Layer inception_4e/5x5
I0403 19:49:00.221968  9703 net.cpp:425] inception_4e/5x5 <- inception_4e/5x5_reduce
I0403 19:49:00.221993  9703 net.cpp:399] inception_4e/5x5 -> inception_4e/5x5
I0403 19:49:00.224586  9703 net.cpp:141] Setting up inception_4e/5x5
I0403 19:49:00.224632  9703 net.cpp:148] Top shape: 24 128 14 14 (602112)
I0403 19:49:00.224658  9703 net.cpp:156] Memory required for data: 1239741984
I0403 19:49:00.224689  9703 layer_factory.hpp:77] Creating layer inception_4e/relu_5x5
I0403 19:49:00.224714  9703 net.cpp:91] Creating Layer inception_4e/relu_5x5
I0403 19:49:00.224737  9703 net.cpp:425] inception_4e/relu_5x5 <- inception_4e/5x5
I0403 19:49:00.224766  9703 net.cpp:386] inception_4e/relu_5x5 -> inception_4e/5x5 (in-place)
I0403 19:49:00.225052  9703 net.cpp:141] Setting up inception_4e/relu_5x5
I0403 19:49:00.225090  9703 net.cpp:148] Top shape: 24 128 14 14 (602112)
I0403 19:49:00.225111  9703 net.cpp:156] Memory required for data: 1242150432
I0403 19:49:00.225133  9703 layer_factory.hpp:77] Creating layer inception_4e/pool
I0403 19:49:00.225160  9703 net.cpp:91] Creating Layer inception_4e/pool
I0403 19:49:00.225186  9703 net.cpp:425] inception_4e/pool <- inception_4d/output_inception_4d/output_0_split_4
I0403 19:49:00.225215  9703 net.cpp:399] inception_4e/pool -> inception_4e/pool
I0403 19:49:00.225328  9703 net.cpp:141] Setting up inception_4e/pool
I0403 19:49:00.225363  9703 net.cpp:148] Top shape: 24 528 14 14 (2483712)
I0403 19:49:00.225384  9703 net.cpp:156] Memory required for data: 1252085280
I0403 19:49:00.225404  9703 layer_factory.hpp:77] Creating layer inception_4e/pool_proj
I0403 19:49:00.225438  9703 net.cpp:91] Creating Layer inception_4e/pool_proj
I0403 19:49:00.225471  9703 net.cpp:425] inception_4e/pool_proj <- inception_4e/pool
I0403 19:49:00.225502  9703 net.cpp:399] inception_4e/pool_proj -> inception_4e/pool_proj
I0403 19:49:00.227680  9703 net.cpp:141] Setting up inception_4e/pool_proj
I0403 19:49:00.227722  9703 net.cpp:148] Top shape: 24 128 14 14 (602112)
I0403 19:49:00.227767  9703 net.cpp:156] Memory required for data: 1254493728
I0403 19:49:00.227795  9703 layer_factory.hpp:77] Creating layer inception_4e/relu_pool_proj
I0403 19:49:00.227824  9703 net.cpp:91] Creating Layer inception_4e/relu_pool_proj
I0403 19:49:00.227849  9703 net.cpp:425] inception_4e/relu_pool_proj <- inception_4e/pool_proj
I0403 19:49:00.227874  9703 net.cpp:386] inception_4e/relu_pool_proj -> inception_4e/pool_proj (in-place)
I0403 19:49:00.228289  9703 net.cpp:141] Setting up inception_4e/relu_pool_proj
I0403 19:49:00.228328  9703 net.cpp:148] Top shape: 24 128 14 14 (602112)
I0403 19:49:00.228349  9703 net.cpp:156] Memory required for data: 1256902176
I0403 19:49:00.228371  9703 layer_factory.hpp:77] Creating layer inception_4e/output
I0403 19:49:00.228400  9703 net.cpp:91] Creating Layer inception_4e/output
I0403 19:49:00.228425  9703 net.cpp:425] inception_4e/output <- inception_4e/1x1
I0403 19:49:00.228449  9703 net.cpp:425] inception_4e/output <- inception_4e/3x3
I0403 19:49:00.228479  9703 net.cpp:425] inception_4e/output <- inception_4e/5x5
I0403 19:49:00.228504  9703 net.cpp:425] inception_4e/output <- inception_4e/pool_proj
I0403 19:49:00.228530  9703 net.cpp:399] inception_4e/output -> inception_4e/output
I0403 19:49:00.228605  9703 net.cpp:141] Setting up inception_4e/output
I0403 19:49:00.228638  9703 net.cpp:148] Top shape: 24 832 14 14 (3913728)
I0403 19:49:00.228660  9703 net.cpp:156] Memory required for data: 1272557088
I0403 19:49:00.228682  9703 layer_factory.hpp:77] Creating layer pool4/3x3_s2
I0403 19:49:00.228706  9703 net.cpp:91] Creating Layer pool4/3x3_s2
I0403 19:49:00.228729  9703 net.cpp:425] pool4/3x3_s2 <- inception_4e/output
I0403 19:49:00.228757  9703 net.cpp:399] pool4/3x3_s2 -> pool4/3x3_s2
I0403 19:49:00.228859  9703 net.cpp:141] Setting up pool4/3x3_s2
I0403 19:49:00.228894  9703 net.cpp:148] Top shape: 24 832 7 7 (978432)
I0403 19:49:00.228915  9703 net.cpp:156] Memory required for data: 1276470816
I0403 19:49:00.228936  9703 layer_factory.hpp:77] Creating layer pool4/3x3_s2_pool4/3x3_s2_0_split
I0403 19:49:00.228961  9703 net.cpp:91] Creating Layer pool4/3x3_s2_pool4/3x3_s2_0_split
I0403 19:49:00.228983  9703 net.cpp:425] pool4/3x3_s2_pool4/3x3_s2_0_split <- pool4/3x3_s2
I0403 19:49:00.229013  9703 net.cpp:399] pool4/3x3_s2_pool4/3x3_s2_0_split -> pool4/3x3_s2_pool4/3x3_s2_0_split_0
I0403 19:49:00.229043  9703 net.cpp:399] pool4/3x3_s2_pool4/3x3_s2_0_split -> pool4/3x3_s2_pool4/3x3_s2_0_split_1
I0403 19:49:00.229071  9703 net.cpp:399] pool4/3x3_s2_pool4/3x3_s2_0_split -> pool4/3x3_s2_pool4/3x3_s2_0_split_2
I0403 19:49:00.229099  9703 net.cpp:399] pool4/3x3_s2_pool4/3x3_s2_0_split -> pool4/3x3_s2_pool4/3x3_s2_0_split_3
I0403 19:49:00.229233  9703 net.cpp:141] Setting up pool4/3x3_s2_pool4/3x3_s2_0_split
I0403 19:49:00.229279  9703 net.cpp:148] Top shape: 24 832 7 7 (978432)
I0403 19:49:00.229303  9703 net.cpp:148] Top shape: 24 832 7 7 (978432)
I0403 19:49:00.229326  9703 net.cpp:148] Top shape: 24 832 7 7 (978432)
I0403 19:49:00.229348  9703 net.cpp:148] Top shape: 24 832 7 7 (978432)
I0403 19:49:00.229368  9703 net.cpp:156] Memory required for data: 1292125728
I0403 19:49:00.229390  9703 layer_factory.hpp:77] Creating layer inception_5a/1x1
I0403 19:49:00.229423  9703 net.cpp:91] Creating Layer inception_5a/1x1
I0403 19:49:00.229449  9703 net.cpp:425] inception_5a/1x1 <- pool4/3x3_s2_pool4/3x3_s2_0_split_0
I0403 19:49:00.229483  9703 net.cpp:399] inception_5a/1x1 -> inception_5a/1x1
I0403 19:49:00.233449  9703 net.cpp:141] Setting up inception_5a/1x1
I0403 19:49:00.233492  9703 net.cpp:148] Top shape: 24 256 7 7 (301056)
I0403 19:49:00.233512  9703 net.cpp:156] Memory required for data: 1293329952
I0403 19:49:00.233544  9703 layer_factory.hpp:77] Creating layer inception_5a/relu_1x1
I0403 19:49:00.233566  9703 net.cpp:91] Creating Layer inception_5a/relu_1x1
I0403 19:49:00.233585  9703 net.cpp:425] inception_5a/relu_1x1 <- inception_5a/1x1
I0403 19:49:00.233610  9703 net.cpp:386] inception_5a/relu_1x1 -> inception_5a/1x1 (in-place)
I0403 19:49:00.233988  9703 net.cpp:141] Setting up inception_5a/relu_1x1
I0403 19:49:00.234022  9703 net.cpp:148] Top shape: 24 256 7 7 (301056)
I0403 19:49:00.234042  9703 net.cpp:156] Memory required for data: 1294534176
I0403 19:49:00.234061  9703 layer_factory.hpp:77] Creating layer inception_5a/3x3_reduce
I0403 19:49:00.234089  9703 net.cpp:91] Creating Layer inception_5a/3x3_reduce
I0403 19:49:00.234112  9703 net.cpp:425] inception_5a/3x3_reduce <- pool4/3x3_s2_pool4/3x3_s2_0_split_1
I0403 19:49:00.234139  9703 net.cpp:399] inception_5a/3x3_reduce -> inception_5a/3x3_reduce
I0403 19:49:00.237138  9703 net.cpp:141] Setting up inception_5a/3x3_reduce
I0403 19:49:00.237174  9703 net.cpp:148] Top shape: 24 160 7 7 (188160)
I0403 19:49:00.237195  9703 net.cpp:156] Memory required for data: 1295286816
I0403 19:49:00.237218  9703 layer_factory.hpp:77] Creating layer inception_5a/relu_3x3_reduce
I0403 19:49:00.237242  9703 net.cpp:91] Creating Layer inception_5a/relu_3x3_reduce
I0403 19:49:00.237267  9703 net.cpp:425] inception_5a/relu_3x3_reduce <- inception_5a/3x3_reduce
I0403 19:49:00.237287  9703 net.cpp:386] inception_5a/relu_3x3_reduce -> inception_5a/3x3_reduce (in-place)
I0403 19:49:00.237524  9703 net.cpp:141] Setting up inception_5a/relu_3x3_reduce
I0403 19:49:00.237566  9703 net.cpp:148] Top shape: 24 160 7 7 (188160)
I0403 19:49:00.237586  9703 net.cpp:156] Memory required for data: 1296039456
I0403 19:49:00.237604  9703 layer_factory.hpp:77] Creating layer inception_5a/3x3
I0403 19:49:00.237632  9703 net.cpp:91] Creating Layer inception_5a/3x3
I0403 19:49:00.237655  9703 net.cpp:425] inception_5a/3x3 <- inception_5a/3x3_reduce
I0403 19:49:00.237679  9703 net.cpp:399] inception_5a/3x3 -> inception_5a/3x3
I0403 19:49:00.243928  9703 net.cpp:141] Setting up inception_5a/3x3
I0403 19:49:00.243971  9703 net.cpp:148] Top shape: 24 320 7 7 (376320)
I0403 19:49:00.243993  9703 net.cpp:156] Memory required for data: 1297544736
I0403 19:49:00.244015  9703 layer_factory.hpp:77] Creating layer inception_5a/relu_3x3
I0403 19:49:00.244037  9703 net.cpp:91] Creating Layer inception_5a/relu_3x3
I0403 19:49:00.244057  9703 net.cpp:425] inception_5a/relu_3x3 <- inception_5a/3x3
I0403 19:49:00.244081  9703 net.cpp:386] inception_5a/relu_3x3 -> inception_5a/3x3 (in-place)
I0403 19:49:00.244437  9703 net.cpp:141] Setting up inception_5a/relu_3x3
I0403 19:49:00.244477  9703 net.cpp:148] Top shape: 24 320 7 7 (376320)
I0403 19:49:00.244498  9703 net.cpp:156] Memory required for data: 1299050016
I0403 19:49:00.244518  9703 layer_factory.hpp:77] Creating layer inception_5a/5x5_reduce
I0403 19:49:00.244547  9703 net.cpp:91] Creating Layer inception_5a/5x5_reduce
I0403 19:49:00.244570  9703 net.cpp:425] inception_5a/5x5_reduce <- pool4/3x3_s2_pool4/3x3_s2_0_split_2
I0403 19:49:00.244593  9703 net.cpp:399] inception_5a/5x5_reduce -> inception_5a/5x5_reduce
I0403 19:49:00.246037  9703 net.cpp:141] Setting up inception_5a/5x5_reduce
I0403 19:49:00.246076  9703 net.cpp:148] Top shape: 24 32 7 7 (37632)
I0403 19:49:00.246096  9703 net.cpp:156] Memory required for data: 1299200544
I0403 19:49:00.246119  9703 layer_factory.hpp:77] Creating layer inception_5a/relu_5x5_reduce
I0403 19:49:00.246141  9703 net.cpp:91] Creating Layer inception_5a/relu_5x5_reduce
I0403 19:49:00.246161  9703 net.cpp:425] inception_5a/relu_5x5_reduce <- inception_5a/5x5_reduce
I0403 19:49:00.246186  9703 net.cpp:386] inception_5a/relu_5x5_reduce -> inception_5a/5x5_reduce (in-place)
I0403 19:49:00.246556  9703 net.cpp:141] Setting up inception_5a/relu_5x5_reduce
I0403 19:49:00.246587  9703 net.cpp:148] Top shape: 24 32 7 7 (37632)
I0403 19:49:00.246606  9703 net.cpp:156] Memory required for data: 1299351072
I0403 19:49:00.246625  9703 layer_factory.hpp:77] Creating layer inception_5a/5x5
I0403 19:49:00.246654  9703 net.cpp:91] Creating Layer inception_5a/5x5
I0403 19:49:00.246675  9703 net.cpp:425] inception_5a/5x5 <- inception_5a/5x5_reduce
I0403 19:49:00.246702  9703 net.cpp:399] inception_5a/5x5 -> inception_5a/5x5
I0403 19:49:00.248829  9703 net.cpp:141] Setting up inception_5a/5x5
I0403 19:49:00.248881  9703 net.cpp:148] Top shape: 24 128 7 7 (150528)
I0403 19:49:00.248903  9703 net.cpp:156] Memory required for data: 1299953184
I0403 19:49:00.248926  9703 layer_factory.hpp:77] Creating layer inception_5a/relu_5x5
I0403 19:49:00.248949  9703 net.cpp:91] Creating Layer inception_5a/relu_5x5
I0403 19:49:00.248967  9703 net.cpp:425] inception_5a/relu_5x5 <- inception_5a/5x5
I0403 19:49:00.248996  9703 net.cpp:386] inception_5a/relu_5x5 -> inception_5a/5x5 (in-place)
I0403 19:49:00.249233  9703 net.cpp:141] Setting up inception_5a/relu_5x5
I0403 19:49:00.249272  9703 net.cpp:148] Top shape: 24 128 7 7 (150528)
I0403 19:49:00.249290  9703 net.cpp:156] Memory required for data: 1300555296
I0403 19:49:00.249310  9703 layer_factory.hpp:77] Creating layer inception_5a/pool
I0403 19:49:00.249331  9703 net.cpp:91] Creating Layer inception_5a/pool
I0403 19:49:00.249351  9703 net.cpp:425] inception_5a/pool <- pool4/3x3_s2_pool4/3x3_s2_0_split_3
I0403 19:49:00.249377  9703 net.cpp:399] inception_5a/pool -> inception_5a/pool
I0403 19:49:00.249469  9703 net.cpp:141] Setting up inception_5a/pool
I0403 19:49:00.249498  9703 net.cpp:148] Top shape: 24 832 7 7 (978432)
I0403 19:49:00.249516  9703 net.cpp:156] Memory required for data: 1304469024
I0403 19:49:00.249542  9703 layer_factory.hpp:77] Creating layer inception_5a/pool_proj
I0403 19:49:00.249572  9703 net.cpp:91] Creating Layer inception_5a/pool_proj
I0403 19:49:00.249594  9703 net.cpp:425] inception_5a/pool_proj <- inception_5a/pool
I0403 19:49:00.249619  9703 net.cpp:399] inception_5a/pool_proj -> inception_5a/pool_proj
I0403 19:49:00.252413  9703 net.cpp:141] Setting up inception_5a/pool_proj
I0403 19:49:00.252451  9703 net.cpp:148] Top shape: 24 128 7 7 (150528)
I0403 19:49:00.252504  9703 net.cpp:156] Memory required for data: 1305071136
I0403 19:49:00.252531  9703 layer_factory.hpp:77] Creating layer inception_5a/relu_pool_proj
I0403 19:49:00.252552  9703 net.cpp:91] Creating Layer inception_5a/relu_pool_proj
I0403 19:49:00.252571  9703 net.cpp:425] inception_5a/relu_pool_proj <- inception_5a/pool_proj
I0403 19:49:00.252593  9703 net.cpp:386] inception_5a/relu_pool_proj -> inception_5a/pool_proj (in-place)
I0403 19:49:00.252964  9703 net.cpp:141] Setting up inception_5a/relu_pool_proj
I0403 19:49:00.253013  9703 net.cpp:148] Top shape: 24 128 7 7 (150528)
I0403 19:49:00.253054  9703 net.cpp:156] Memory required for data: 1305673248
I0403 19:49:00.253095  9703 layer_factory.hpp:77] Creating layer inception_5a/output
I0403 19:49:00.253135  9703 net.cpp:91] Creating Layer inception_5a/output
I0403 19:49:00.253168  9703 net.cpp:425] inception_5a/output <- inception_5a/1x1
I0403 19:49:00.253190  9703 net.cpp:425] inception_5a/output <- inception_5a/3x3
I0403 19:49:00.253211  9703 net.cpp:425] inception_5a/output <- inception_5a/5x5
I0403 19:49:00.253229  9703 net.cpp:425] inception_5a/output <- inception_5a/pool_proj
I0403 19:49:00.253258  9703 net.cpp:399] inception_5a/output -> inception_5a/output
I0403 19:49:00.253321  9703 net.cpp:141] Setting up inception_5a/output
I0403 19:49:00.253350  9703 net.cpp:148] Top shape: 24 832 7 7 (978432)
I0403 19:49:00.253368  9703 net.cpp:156] Memory required for data: 1309586976
I0403 19:49:00.253386  9703 layer_factory.hpp:77] Creating layer inception_5a/output_inception_5a/output_0_split
I0403 19:49:00.253407  9703 net.cpp:91] Creating Layer inception_5a/output_inception_5a/output_0_split
I0403 19:49:00.253432  9703 net.cpp:425] inception_5a/output_inception_5a/output_0_split <- inception_5a/output
I0403 19:49:00.253453  9703 net.cpp:399] inception_5a/output_inception_5a/output_0_split -> inception_5a/output_inception_5a/output_0_split_0
I0403 19:49:00.253484  9703 net.cpp:399] inception_5a/output_inception_5a/output_0_split -> inception_5a/output_inception_5a/output_0_split_1
I0403 19:49:00.253510  9703 net.cpp:399] inception_5a/output_inception_5a/output_0_split -> inception_5a/output_inception_5a/output_0_split_2
I0403 19:49:00.253535  9703 net.cpp:399] inception_5a/output_inception_5a/output_0_split -> inception_5a/output_inception_5a/output_0_split_3
I0403 19:49:00.253674  9703 net.cpp:141] Setting up inception_5a/output_inception_5a/output_0_split
I0403 19:49:00.253705  9703 net.cpp:148] Top shape: 24 832 7 7 (978432)
I0403 19:49:00.253726  9703 net.cpp:148] Top shape: 24 832 7 7 (978432)
I0403 19:49:00.253746  9703 net.cpp:148] Top shape: 24 832 7 7 (978432)
I0403 19:49:00.253765  9703 net.cpp:148] Top shape: 24 832 7 7 (978432)
I0403 19:49:00.253782  9703 net.cpp:156] Memory required for data: 1325241888
I0403 19:49:00.253800  9703 layer_factory.hpp:77] Creating layer inception_5b/1x1
I0403 19:49:00.253828  9703 net.cpp:91] Creating Layer inception_5b/1x1
I0403 19:49:00.253849  9703 net.cpp:425] inception_5b/1x1 <- inception_5a/output_inception_5a/output_0_split_0
I0403 19:49:00.253876  9703 net.cpp:399] inception_5b/1x1 -> inception_5b/1x1
I0403 19:49:00.258501  9703 net.cpp:141] Setting up inception_5b/1x1
I0403 19:49:00.258538  9703 net.cpp:148] Top shape: 24 384 7 7 (451584)
I0403 19:49:00.258561  9703 net.cpp:156] Memory required for data: 1327048224
I0403 19:49:00.258584  9703 layer_factory.hpp:77] Creating layer inception_5b/relu_1x1
I0403 19:49:00.258610  9703 net.cpp:91] Creating Layer inception_5b/relu_1x1
I0403 19:49:00.258631  9703 net.cpp:425] inception_5b/relu_1x1 <- inception_5b/1x1
I0403 19:49:00.258652  9703 net.cpp:386] inception_5b/relu_1x1 -> inception_5b/1x1 (in-place)
I0403 19:49:00.259027  9703 net.cpp:141] Setting up inception_5b/relu_1x1
I0403 19:49:00.259057  9703 net.cpp:148] Top shape: 24 384 7 7 (451584)
I0403 19:49:00.259076  9703 net.cpp:156] Memory required for data: 1328854560
I0403 19:49:00.259094  9703 layer_factory.hpp:77] Creating layer inception_5b/3x3_reduce
I0403 19:49:00.259122  9703 net.cpp:91] Creating Layer inception_5b/3x3_reduce
I0403 19:49:00.259145  9703 net.cpp:425] inception_5b/3x3_reduce <- inception_5a/output_inception_5a/output_0_split_1
I0403 19:49:00.259176  9703 net.cpp:399] inception_5b/3x3_reduce -> inception_5b/3x3_reduce
I0403 19:49:00.262493  9703 net.cpp:141] Setting up inception_5b/3x3_reduce
I0403 19:49:00.262531  9703 net.cpp:148] Top shape: 24 192 7 7 (225792)
I0403 19:49:00.262562  9703 net.cpp:156] Memory required for data: 1329757728
I0403 19:49:00.262585  9703 layer_factory.hpp:77] Creating layer inception_5b/relu_3x3_reduce
I0403 19:49:00.262609  9703 net.cpp:91] Creating Layer inception_5b/relu_3x3_reduce
I0403 19:49:00.262627  9703 net.cpp:425] inception_5b/relu_3x3_reduce <- inception_5b/3x3_reduce
I0403 19:49:00.262650  9703 net.cpp:386] inception_5b/relu_3x3_reduce -> inception_5b/3x3_reduce (in-place)
I0403 19:49:00.262887  9703 net.cpp:141] Setting up inception_5b/relu_3x3_reduce
I0403 19:49:00.262922  9703 net.cpp:148] Top shape: 24 192 7 7 (225792)
I0403 19:49:00.262940  9703 net.cpp:156] Memory required for data: 1330660896
I0403 19:49:00.262959  9703 layer_factory.hpp:77] Creating layer inception_5b/3x3
I0403 19:49:00.262985  9703 net.cpp:91] Creating Layer inception_5b/3x3
I0403 19:49:00.263007  9703 net.cpp:425] inception_5b/3x3 <- inception_5b/3x3_reduce
I0403 19:49:00.263032  9703 net.cpp:399] inception_5b/3x3 -> inception_5b/3x3
I0403 19:49:00.271387  9703 net.cpp:141] Setting up inception_5b/3x3
I0403 19:49:00.271427  9703 net.cpp:148] Top shape: 24 384 7 7 (451584)
I0403 19:49:00.271450  9703 net.cpp:156] Memory required for data: 1332467232
I0403 19:49:00.271478  9703 layer_factory.hpp:77] Creating layer inception_5b/relu_3x3
I0403 19:49:00.271502  9703 net.cpp:91] Creating Layer inception_5b/relu_3x3
I0403 19:49:00.271522  9703 net.cpp:425] inception_5b/relu_3x3 <- inception_5b/3x3
I0403 19:49:00.271543  9703 net.cpp:386] inception_5b/relu_3x3 -> inception_5b/3x3 (in-place)
I0403 19:49:00.271908  9703 net.cpp:141] Setting up inception_5b/relu_3x3
I0403 19:49:00.271944  9703 net.cpp:148] Top shape: 24 384 7 7 (451584)
I0403 19:49:00.271965  9703 net.cpp:156] Memory required for data: 1334273568
I0403 19:49:00.271984  9703 layer_factory.hpp:77] Creating layer inception_5b/5x5_reduce
I0403 19:49:00.272030  9703 net.cpp:91] Creating Layer inception_5b/5x5_reduce
I0403 19:49:00.272055  9703 net.cpp:425] inception_5b/5x5_reduce <- inception_5a/output_inception_5a/output_0_split_2
I0403 19:49:00.272079  9703 net.cpp:399] inception_5b/5x5_reduce -> inception_5b/5x5_reduce
I0403 19:49:00.273675  9703 net.cpp:141] Setting up inception_5b/5x5_reduce
I0403 19:49:00.273710  9703 net.cpp:148] Top shape: 24 48 7 7 (56448)
I0403 19:49:00.273730  9703 net.cpp:156] Memory required for data: 1334499360
I0403 19:49:00.273752  9703 layer_factory.hpp:77] Creating layer inception_5b/relu_5x5_reduce
I0403 19:49:00.273782  9703 net.cpp:91] Creating Layer inception_5b/relu_5x5_reduce
I0403 19:49:00.273810  9703 net.cpp:425] inception_5b/relu_5x5_reduce <- inception_5b/5x5_reduce
I0403 19:49:00.273833  9703 net.cpp:386] inception_5b/relu_5x5_reduce -> inception_5b/5x5_reduce (in-place)
I0403 19:49:00.274294  9703 net.cpp:141] Setting up inception_5b/relu_5x5_reduce
I0403 19:49:00.274327  9703 net.cpp:148] Top shape: 24 48 7 7 (56448)
I0403 19:49:00.274346  9703 net.cpp:156] Memory required for data: 1334725152
I0403 19:49:00.274365  9703 layer_factory.hpp:77] Creating layer inception_5b/5x5
I0403 19:49:00.274390  9703 net.cpp:91] Creating Layer inception_5b/5x5
I0403 19:49:00.274410  9703 net.cpp:425] inception_5b/5x5 <- inception_5b/5x5_reduce
I0403 19:49:00.274435  9703 net.cpp:399] inception_5b/5x5 -> inception_5b/5x5
I0403 19:49:00.276988  9703 net.cpp:141] Setting up inception_5b/5x5
I0403 19:49:00.277027  9703 net.cpp:148] Top shape: 24 128 7 7 (150528)
I0403 19:49:00.277047  9703 net.cpp:156] Memory required for data: 1335327264
I0403 19:49:00.277071  9703 layer_factory.hpp:77] Creating layer inception_5b/relu_5x5
I0403 19:49:00.277093  9703 net.cpp:91] Creating Layer inception_5b/relu_5x5
I0403 19:49:00.277114  9703 net.cpp:425] inception_5b/relu_5x5 <- inception_5b/5x5
I0403 19:49:00.277138  9703 net.cpp:386] inception_5b/relu_5x5 -> inception_5b/5x5 (in-place)
I0403 19:49:00.277386  9703 net.cpp:141] Setting up inception_5b/relu_5x5
I0403 19:49:00.277417  9703 net.cpp:148] Top shape: 24 128 7 7 (150528)
I0403 19:49:00.277436  9703 net.cpp:156] Memory required for data: 1335929376
I0403 19:49:00.277454  9703 layer_factory.hpp:77] Creating layer inception_5b/pool
I0403 19:49:00.277483  9703 net.cpp:91] Creating Layer inception_5b/pool
I0403 19:49:00.277508  9703 net.cpp:425] inception_5b/pool <- inception_5a/output_inception_5a/output_0_split_3
I0403 19:49:00.277532  9703 net.cpp:399] inception_5b/pool -> inception_5b/pool
I0403 19:49:00.277624  9703 net.cpp:141] Setting up inception_5b/pool
I0403 19:49:00.277654  9703 net.cpp:148] Top shape: 24 832 7 7 (978432)
I0403 19:49:00.277673  9703 net.cpp:156] Memory required for data: 1339843104
I0403 19:49:00.277691  9703 layer_factory.hpp:77] Creating layer inception_5b/pool_proj
I0403 19:49:00.277719  9703 net.cpp:91] Creating Layer inception_5b/pool_proj
I0403 19:49:00.277741  9703 net.cpp:425] inception_5b/pool_proj <- inception_5b/pool
I0403 19:49:00.277767  9703 net.cpp:399] inception_5b/pool_proj -> inception_5b/pool_proj
I0403 19:49:00.280614  9703 net.cpp:141] Setting up inception_5b/pool_proj
I0403 19:49:00.280652  9703 net.cpp:148] Top shape: 24 128 7 7 (150528)
I0403 19:49:00.280671  9703 net.cpp:156] Memory required for data: 1340445216
I0403 19:49:00.280697  9703 layer_factory.hpp:77] Creating layer inception_5b/relu_pool_proj
I0403 19:49:00.280721  9703 net.cpp:91] Creating Layer inception_5b/relu_pool_proj
I0403 19:49:00.280743  9703 net.cpp:425] inception_5b/relu_pool_proj <- inception_5b/pool_proj
I0403 19:49:00.280766  9703 net.cpp:386] inception_5b/relu_pool_proj -> inception_5b/pool_proj (in-place)
I0403 19:49:00.281131  9703 net.cpp:141] Setting up inception_5b/relu_pool_proj
I0403 19:49:00.281169  9703 net.cpp:148] Top shape: 24 128 7 7 (150528)
I0403 19:49:00.281189  9703 net.cpp:156] Memory required for data: 1341047328
I0403 19:49:00.281208  9703 layer_factory.hpp:77] Creating layer inception_5b/output
I0403 19:49:00.281237  9703 net.cpp:91] Creating Layer inception_5b/output
I0403 19:49:00.281286  9703 net.cpp:425] inception_5b/output <- inception_5b/1x1
I0403 19:49:00.281307  9703 net.cpp:425] inception_5b/output <- inception_5b/3x3
I0403 19:49:00.281327  9703 net.cpp:425] inception_5b/output <- inception_5b/5x5
I0403 19:49:00.281347  9703 net.cpp:425] inception_5b/output <- inception_5b/pool_proj
I0403 19:49:00.281369  9703 net.cpp:399] inception_5b/output -> inception_5b/output
I0403 19:49:00.281435  9703 net.cpp:141] Setting up inception_5b/output
I0403 19:49:00.281469  9703 net.cpp:148] Top shape: 24 1024 7 7 (1204224)
I0403 19:49:00.281491  9703 net.cpp:156] Memory required for data: 1345864224
I0403 19:49:00.281508  9703 layer_factory.hpp:77] Creating layer pool5/7x7_s1
I0403 19:49:00.281533  9703 net.cpp:91] Creating Layer pool5/7x7_s1
I0403 19:49:00.281560  9703 net.cpp:425] pool5/7x7_s1 <- inception_5b/output
I0403 19:49:00.281584  9703 net.cpp:399] pool5/7x7_s1 -> pool5/7x7_s1
I0403 19:49:00.281854  9703 net.cpp:141] Setting up pool5/7x7_s1
I0403 19:49:00.281889  9703 net.cpp:148] Top shape: 24 1024 1 1 (24576)
I0403 19:49:00.281909  9703 net.cpp:156] Memory required for data: 1345962528
I0403 19:49:00.281929  9703 layer_factory.hpp:77] Creating layer pool5/drop_7x7_s1
I0403 19:49:00.281950  9703 net.cpp:91] Creating Layer pool5/drop_7x7_s1
I0403 19:49:00.281970  9703 net.cpp:425] pool5/drop_7x7_s1 <- pool5/7x7_s1
I0403 19:49:00.281994  9703 net.cpp:386] pool5/drop_7x7_s1 -> pool5/7x7_s1 (in-place)
I0403 19:49:00.282054  9703 net.cpp:141] Setting up pool5/drop_7x7_s1
I0403 19:49:00.282083  9703 net.cpp:148] Top shape: 24 1024 1 1 (24576)
I0403 19:49:00.282101  9703 net.cpp:156] Memory required for data: 1346060832
I0403 19:49:00.282119  9703 layer_factory.hpp:77] Creating layer loss3/classifier_plantvillage
I0403 19:49:00.282145  9703 net.cpp:91] Creating Layer loss3/classifier_plantvillage
I0403 19:49:00.282167  9703 net.cpp:425] loss3/classifier_plantvillage <- pool5/7x7_s1
I0403 19:49:00.282192  9703 net.cpp:399] loss3/classifier_plantvillage -> loss3/classifier_plantvillage
I0403 19:49:00.282733  9703 net.cpp:141] Setting up loss3/classifier_plantvillage
I0403 19:49:00.282765  9703 net.cpp:148] Top shape: 24 38 (912)
I0403 19:49:00.282783  9703 net.cpp:156] Memory required for data: 1346064480
I0403 19:49:00.282806  9703 layer_factory.hpp:77] Creating layer loss3/classifier_plantvillage_loss3/classifier_plantvillage_0_split
I0403 19:49:00.282834  9703 net.cpp:91] Creating Layer loss3/classifier_plantvillage_loss3/classifier_plantvillage_0_split
I0403 19:49:00.282855  9703 net.cpp:425] loss3/classifier_plantvillage_loss3/classifier_plantvillage_0_split <- loss3/classifier_plantvillage
I0403 19:49:00.282876  9703 net.cpp:399] loss3/classifier_plantvillage_loss3/classifier_plantvillage_0_split -> loss3/classifier_plantvillage_loss3/classifier_plantvillage_0_split_0
I0403 19:49:00.282902  9703 net.cpp:399] loss3/classifier_plantvillage_loss3/classifier_plantvillage_0_split -> loss3/classifier_plantvillage_loss3/classifier_plantvillage_0_split_1
I0403 19:49:00.282927  9703 net.cpp:399] loss3/classifier_plantvillage_loss3/classifier_plantvillage_0_split -> loss3/classifier_plantvillage_loss3/classifier_plantvillage_0_split_2
I0403 19:49:00.282951  9703 net.cpp:399] loss3/classifier_plantvillage_loss3/classifier_plantvillage_0_split -> loss3/classifier_plantvillage_loss3/classifier_plantvillage_0_split_3
I0403 19:49:00.283077  9703 net.cpp:141] Setting up loss3/classifier_plantvillage_loss3/classifier_plantvillage_0_split
I0403 19:49:00.283107  9703 net.cpp:148] Top shape: 24 38 (912)
I0403 19:49:00.283128  9703 net.cpp:148] Top shape: 24 38 (912)
I0403 19:49:00.283148  9703 net.cpp:148] Top shape: 24 38 (912)
I0403 19:49:00.283166  9703 net.cpp:148] Top shape: 24 38 (912)
I0403 19:49:00.283184  9703 net.cpp:156] Memory required for data: 1346079072
I0403 19:49:00.283201  9703 layer_factory.hpp:77] Creating layer loss1/loss
I0403 19:49:00.283229  9703 net.cpp:91] Creating Layer loss1/loss
I0403 19:49:00.283251  9703 net.cpp:425] loss1/loss <- loss1/classifier_plantvillage_loss1/classifier_plantvillage_0_split_0
I0403 19:49:00.283288  9703 net.cpp:425] loss1/loss <- label_data_1_split_0
…
