…
I0403 19:37:49.574522  9477 net.cpp:313] The NetState phase (1) differed from the phase (0) specified by a rule in layer data
I0403 19:37:49.575964  9477 net.cpp:49] Initializing net from parameters: 
state {
  phase: TEST
}
layer {
  name: "data"
  type: "Data"
  top: "data"
  top: "label"
  include {
    phase: TEST
  }
  transform_param {
    mirror: false
    crop_size: 224
    mean_file: "/home/mohanty/data/final_dataset/lmdb/color-60-40/mean.binaryproto"
  }
  data_param {
    source: "/home/mohanty/data/final_dataset/lmdb/color-60-40/test_db"
    batch_size: 24
    backend: LMDB
  }
}
layer {
  name: "conv1/7x7_s2"
  type: "Convolution"
  bottom: "data"
  top: "conv1/7x7_s2"
  param {
    lr_mult: 1
    decay_mult: 1
  }
  param {
    lr_mult: 2
    decay_mult: 0
  }
  convolution_param {
    num_output: 64
    pad: 3
    kernel_size: 7
    stride: 2
    weight_filler {
      type: "xavier"
      std: 0.1
    }
    bias_filler {
      type: "constant"
      value: 0.2
    }
  }
}
layer {
  name: "conv1/relu_7x7"
  type: "ReLU"
  bottom: "conv1/7x7_s2"
  top: "conv1/7x7_s2"
}
layer {
  name: "pool1/3x3_s2"
  type: "Pooling"
  bottom: "conv1/7x7_s2"
  top: "pool1/3x3_s2"
  pooling_param {
    pool: MAX
    kernel_size: 3
    stride: 2
  }
}
layer {
  name: "pool1/norm1"
  type: "LRN"
  bottom: "pool1/3x3_s2"
  top: "pool1/norm1"
  lrn_param {
    local_size: 5
    alpha: 0.0001
    beta: 0.75
  }
}
layer {
  name: "conv2/3x3_reduce"
  type: "Convolution"
  bottom: "pool1/norm1"
  top: "conv2/3x3_reduce"
  param {
    lr_mult: 1
    decay_mult: 1
  }
  param {
    lr_mult: 2
    decay_mult: 0
  }
  convolution_param {
    num_output: 64
    kernel_size: 1
    weight_filler {
      type: "xavier"
      std: 0.1
    }
    bias_filler {
      type: "constant"
      value: 0.2
    }
  }
}
layer {
  name: "conv2/relu_3x3_reduce"
  type: "ReLU"
  bottom: "conv2/3x3_reduce"
  top: "conv2/3x3_reduce"
}
layer {
  name: "conv2/3x3"
  type: "Convolution"
  bottom: "conv2/3x3_reduce"
  top: "conv2/3x3"
  param {
    lr_mult: 1
    decay_mult: 1
  }
  param {
    lr_mult: 2
    decay_mult: 0
  }
  convolution_param {
    num_output: 192
    pad: 1
    kernel_size: 3
    weight_filler {
      type: "xavier"
      std: 0.03
    }
    bias_filler {
      type: "constant"
      value: 0.2
    }
  }
}
layer {
  name: "conv2/relu_3x3"
  type: "ReLU"
  bottom: "conv2/3x3"
  top: "conv2/3x3"
}
layer {
  name: "conv2/norm2"
  type: "LRN"
  bottom: "conv2/3x3"
  top: "conv2/norm2"
  lrn_param {
    local_size: 5
    alpha: 0.0001
    beta: 0.75
  }
}
layer {
  name: "pool2/3x3_s2"
  type: "Pooling"
  bottom: "conv2/norm2"
  top: "pool2/3x3_s2"
  pooling_param {
    pool: MAX
    kernel_size: 3
    stride: 2
  }
}
layer {
  name: "inception_3a/1x1"
  type: "Convolution"
  bottom: "pool2/3x3_s2"
  top: "inception_3a/1x1"
  param {
    lr_mult: 1
    decay_mult: 1
  }
  param {
    lr_mult: 2
    decay_mult: 0
  }
  convolution_param {
    num_output: 64
    kernel_size: 1
    weight_filler {
      type: "xavier"
      std: 0.03
    }
    bias_filler {
      type: "constant"
      value: 0.2
    }
  }
}
layer {
  name: "inception_3a/relu_1x1"
  type: "ReLU"
  bottom: "inception_3a/1x1"
  top: "inception_3a/1x1"
}
layer {
  name: "inception_3a/3x3_reduce"
  type: "Convolution"
  bottom: "pool2/3x3_s2"
  top: "inception_3a/3x3_reduce"
  param {
    lr_mult: 1
    decay_mult: 1
  }
  param {
    lr_mult: 2
    decay_mult: 0
  }
  convolution_param {
    num_output: 96
    kernel_size: 1
    weight_filler {
      type: "xavier"
      std: 0.09
    }
    bias_filler {
      type: "constant"
      value: 0.2
    }
  }
}
layer {
  name: "inception_3a/relu_3x3_reduce"
  type: "ReLU"
  bottom: "inception_3a/3x3_reduce"
  top: "inception_3a/3x3_reduce"
}
layer {
  name: "inception_3a/3x3"
  type: "Convolution"
  bottom: "inception_3a/3x3_reduce"
  top: "inception_3a/3x3"
  param {
    lr_mult: 1
    decay_mult: 1
  }
  param {
    lr_mult: 2
    decay_mult: 0
  }
  convolution_param {
    num_output: 128
    pad: 1
    kernel_size: 3
    weight_filler {
      type: "xavier"
      std: 0.03
    }
    bias_filler {
      type: "constant"
      value: 0.2
    }
  }
}
layer {
  name: "inception_3a/relu_3x3"
  type: "ReLU"
  bottom: "inception_3a/3x3"
  top: "inception_3a/3x3"
}
layer {
  name: "inception_3a/5x5_reduce"
  type: "Convolution"
  bottom: "pool2/3x3_s2"
  top: "inception_3a/5x5_reduce"
  param {
    lr_mult: 1
    decay_mult: 1
  }
  param {
    lr_mult: 2
    decay_mult: 0
  }
  convolution_param {
    num_output: 16
    kernel_size: 1
    weight_filler {
      type: "xavier"
      std: 0.2
    }
    bias_filler {
      type: "constant"
      value: 0.2
    }
  }
}
layer {
  name: "inception_3a/relu_5x5_reduce"
  type: "ReLU"
  bottom: "inception_3a/5x5_reduce"
  top: "inception_3a/5x5_reduce"
}
layer {
  name: "inception_3a/5x5"
  type: "Convolution"
  bottom: "inception_3a/5x5_reduce"
  top: "inception_3a/5x5"
  param {
    lr_mult: 1
    decay_mult: 1
  }
  param {
    lr_mult: 2
    decay_mult: 0
  }
  convolution_param {
    num_output: 32
    pad: 2
    kernel_size: 5
    weight_filler {
      type: "xavier"
      std: 0.03
    }
    bias_filler {
      type: "constant"
      value: 0.2
    }
  }
}
layer {
  name: "inception_3a/relu_5x5"
  type: "ReLU"
  bottom: "inception_3a/5x5"
  top: "inception_3a/5x5"
}
layer {
  name: "inception_3a/pool"
  type: "Pooling"
  bottom: "pool2/3x3_s2"
  top: "inception_3a/pool"
  pooling_param {
    pool: MAX
    kernel_size: 3
    stride: 1
    pad: 1
  }
}
layer {
  name: "inception_3a/pool_proj"
  type: "Convolution"
  bottom: "inception_3a/pool"
  top: "inception_3a/pool_proj"
  param {
    lr_mult: 1
    decay_mult: 1
  }
  param {
    lr_mult: 2
    decay_mult: 0
  }
  convolution_param {
    num_output: 32
    kernel_size: 1
    weight_filler {
      type: "xavier"
      std: 0.1
    }
    bias_filler {
      type: "constant"
      value: 0.2
    }
  }
}
layer {
  name: "inception_3a/relu_pool_proj"
  type: "ReLU"
  bottom: "inception_3a/pool_proj"
  top: "inception_3a/pool_proj"
}
layer {
  name: "inception_3a/output"
  type: "Concat"
  bottom: "inception_3a/1x1"
  bottom: "inception_3a/3x3"
  bottom: "inception_3a/5x5"
  bottom: "inception_3a/pool_proj"
  top: "inception_3a/output"
}
layer {
  name: "inception_3b/1x1"
  type: "Convolution"
  bottom: "inception_3a/output"
  top: "inception_3b/1x1"
  param {
    lr_mult: 1
    decay_mult: 1
  }
  param {
    lr_mult: 2
    decay_mult: 0
  }
  convolution_param {
    num_output: 128
    kernel_size: 1
    weight_filler {
      type: "xavier"
      std: 0.03
    }
    bias_filler {
      type: "constant"
      value: 0.2
    }
  }
}
layer {
  name: "inception_3b/relu_1x1"
  type: "ReLU"
  bottom: "inception_3b/1x1"
  top: "inception_3b/1x1"
}
layer {
  name: "inception_3b/3x3_reduce"
  type: "Convolution"
  bottom: "inception_3a/output"
  top: "inception_3b/3x3_reduce"
  param {
    lr_mult: 1
    decay_mult: 1
  }
  param {
    lr_mult: 2
    decay_mult: 0
  }
  convolution_param {
    num_output: 128
    kernel_size: 1
    weight_filler {
      type: "xavier"
      std: 0.09
    }
    bias_filler {
      type: "constant"
      value: 0.2
    }
  }
}
layer {
  name: "inception_3b/relu_3x3_reduce"
  type: "ReLU"
  bottom: "inception_3b/3x3_reduce"
  top: "inception_3b/3x3_reduce"
}
layer {
  name: "inception_3b/3x3"
  type: "Convolution"
  bottom: "inception_3b/3x3_reduce"
  top: "inception_3b/3x3"
  param {
    lr_mult: 1
    decay_mult: 1
  }
  param {
    lr_mult: 2
    decay_mult: 0
  }
  convolution_param {
    num_output: 192
    pad: 1
    kernel_size: 3
    weight_filler {
      type: "xavier"
      std: 0.03
    }
    bias_filler {
      type: "constant"
      value: 0.2
    }
  }
}
layer {
  name: "inception_3b/relu_3x3"
  type: "ReLU"
  bottom: "inception_3b/3x3"
  top: "inception_3b/3x3"
}
layer {
  name: "inception_3b/5x5_reduce"
  type: "Convolution"
  bottom: "inception_3a/output"
  top: "inception_3b/5x5_reduce"
  param {
    lr_mult: 1
    decay_mult: 1
  }
  param {
    lr_mult: 2
    decay_mult: 0
  }
  convolution_param {
    num_output: 32
    kernel_size: 1
    weight_filler {
      type: "xavier"
      std: 0.2
    }
    bias_filler {
      type: "constant"
      value: 0.2
    }
  }
}
layer {
  name: "inception_3b/relu_5x5_reduce"
  type: "ReLU"
  bottom: "inception_3b/5x5_reduce"
  top: "inception_3b/5x5_reduce"
}
layer {
  name: "inception_3b/5x5"
  type: "Convolution"
  bottom: "inception_3b/5x5_reduce"
  top: "inception_3b/5x5"
  param {
    lr_mult: 1
    decay_mult: 1
  }
  param {
    lr_mult: 2
    decay_mult: 0
  }
  convolution_param {
    num_output: 96
    pad: 2
    kernel_size: 5
    weight_filler {
      type: "xavier"
      std: 0.03
    }
    bias_filler {
      type: "constant"
      value: 0.2
    }
  }
}
layer {
  name: "inception_3b/relu_5x5"
  type: "ReLU"
  bottom: "inception_3b/5x5"
  top: "inception_3b/5x5"
}
layer {
  name: "inception_3b/pool"
  type: "Pooling"
  bottom: "inception_3a/output"
  top: "inception_3b/pool"
  pooling_param {
    pool: MAX
    kernel_size: 3
    stride: 1
    pad: 1
  }
}
layer {
  name: "inception_3b/pool_proj"
  type: "Convolution"
  bottom: "inception_3b/pool"
  top: "inception_3b/pool_proj"
  param {
    lr_mult: 1
    decay_mult: 1
  }
  param {
    lr_mult: 2
    decay_mult: 0
  }
  convolution_param {
    num_output: 64
    kernel_size: 1
    weight_filler {
      type: "xavier"
      std: 0.1
    }
    bias_filler {
      type: "constant"
      value: 0.2
    }
  }
}
layer {
  name: "inception_3b/relu_pool_proj"
  type: "ReLU"
  bottom: "inception_3b/pool_proj"
  top: "inception_3b/pool_proj"
}
layer {
  name: "inception_3b/output"
  type: "Concat"
  bottom: "inception_3b/1x1"
  bottom: "inception_3b/3x3"
  bottom: "inception_3b/5x5"
  bottom: "inception_3b/pool_proj"
  top: "inception_3b/output"
}
layer {
  name: "pool3/3x3_s2"
  type: "Pooling"
  bottom: "inception_3b/output"
  top: "pool3/3x3_s2"
  pooling_param {
    pool: MAX
    kernel_size: 3
    stride: 2
  }
}
layer {
  name: "inception_4a/1x1"
  type: "Convolution"
  bottom: "pool3/3x3_s2"
  top: "inception_4a/1x1"
  param {
    lr_mult: 1
    decay_mult: 1
  }
  param {
    lr_mult: 2
    decay_mult: 0
  }
  convolution_param {
    num_output: 192
    kernel_size: 1
    weight_filler {
      type: "xavier"
      std: 0.03
    }
    bias_filler {
      type: "constant"
      value: 0.2
    }
  }
}
layer {
  name: "inception_4a/relu_1x1"
  type: "ReLU"
  bottom: "inception_4a/1x1"
  top: "inception_4a/1x1"
}
layer {
  name: "inception_4a/3x3_reduce"
  type: "Convolution"
  bottom: "pool3/3x3_s2"
  top: "inception_4a/3x3_reduce"
  param {
    lr_mult: 1
    decay_mult: 1
  }
  param {
    lr_mult: 2
    decay_mult: 0
  }
  convolution_param {
    num_output: 96
    kernel_size: 1
    weight_filler {
      type: "xavier"
      std: 0.09
    }
    bias_filler {
      type: "constant"
      value: 0.2
    }
  }
}
layer {
  name: "inception_4a/relu_3x3_reduce"
  type: "ReLU"
  bottom: "inception_4a/3x3_reduce"
  top: "inception_4a/3x3_reduce"
}
layer {
  name: "inception_4a/3x3"
  type: "Convolution"
  bottom: "inception_4a/3x3_reduce"
  top: "inception_4a/3x3"
  param {
    lr_mult: 1
    decay_mult: 1
  }
  param {
    lr_mult: 2
    decay_mult: 0
  }
  convolution_param {
    num_output: 208
    pad: 1
    kernel_size: 3
    weight_filler {
      type: "xavier"
      std: 0.03
    }
    bias_filler {
      type: "constant"
      value: 0.2
    }
  }
}
layer {
  name: "inception_4a/relu_3x3"
  type: "ReLU"
  bottom: "inception_4a/3x3"
  top: "inception_4a/3x3"
}
layer {
  name: "inception_4a/5x5_reduce"
  type: "Convolution"
  bottom: "pool3/3x3_s2"
  top: "inception_4a/5x5_reduce"
  param {
    lr_mult: 1
    decay_mult: 1
  }
  param {
    lr_mult: 2
    decay_mult: 0
  }
  convolution_param {
    num_output: 16
    kernel_size: 1
    weight_filler {
      type: "xavier"
      std: 0.2
    }
    bias_filler {
      type: "constant"
      value: 0.2
    }
  }
}
layer {
  name: "inception_4a/relu_5x5_reduce"
  type: "ReLU"
  bottom: "inception_4a/5x5_reduce"
  top: "inception_4a/5x5_reduce"
}
layer {
  name: "inception_4a/5x5"
  type: "Convolution"
  bottom: "inception_4a/5x5_reduce"
  top: "inception_4a/5x5"
  param {
    lr_mult: 1
    decay_mult: 1
  }
  param {
    lr_mult: 2
    decay_mult: 0
  }
  convolution_param {
    num_output: 48
    pad: 2
    kernel_size: 5
    weight_filler {
      type: "xavier"
      std: 0.03
    }
    bias_filler {
      type: "constant"
      value: 0.2
    }
  }
}
layer {
  name: "inception_4a/relu_5x5"
  type: "ReLU"
  bottom: "inception_4a/5x5"
  top: "inception_4a/5x5"
}
layer {
  name: "inception_4a/pool"
  type: "Pooling"
  bottom: "pool3/3x3_s2"
  top: "inception_4a/pool"
  pooling_param {
    pool: MAX
    kernel_size: 3
    stride: 1
    pad: 1
  }
}
layer {
  name: "inception_4a/pool_proj"
  type: "Convolution"
  bottom: "inception_4a/pool"
  top: "inception_4a/pool_proj"
  param {
    lr_mult: 1
    decay_mult: 1
  }
  param {
    lr_mult: 2
    decay_mult: 0
  }
  convolution_param {
    num_output: 64
    kernel_size: 1
    weight_filler {
      type: "xavier"
      std: 0.1
    }
    bias_filler {
      type: "constant"
      value: 0.2
    }
  }
}
layer {
  name: "inception_4a/relu_pool_proj"
  type: "ReLU"
  bottom: "inception_4a/pool_proj"
  top: "inception_4a/pool_proj"
}
layer {
  name: "inception_4a/output"
  type: "Concat"
  bottom: "inception_4a/1x1"
  bottom: "inception_4a/3x3"
  bottom: "inception_4a/5x5"
  bottom: "inception_4a/pool_proj"
  top: "inception_4a/output"
}
layer {
  name: "loss1/ave_pool"
  type: "Pooling"
  bottom: "inception_4a/output"
  top: "loss1/ave_pool"
  pooling_param {
    pool: AVE
    kernel_size: 5
    stride: 3
  }
}
layer {
  name: "loss1/conv"
  type: "Convolution"
  bottom: "loss1/ave_pool"
  top: "loss1/conv"
  param {
    lr_mult: 1
    decay_mult: 1
  }
  param {
    lr_mult: 2
    decay_mult: 0
  }
  convolution_param {
    num_output: 128
    kernel_size: 1
    weight_filler {
      type: "xavier"
      std: 0.08
    }
    bias_filler {
      type: "constant"
      value: 0.2
    }
  }
}
layer {
  name: "loss1/relu_conv"
  type: "ReLU"
  bottom: "loss1/conv"
  top: "loss1/conv"
}
layer {
  name: "loss1/fc"
  type: "InnerProduct"
  bottom: "loss1/conv"
  top: "loss1/fc"
  param {
    lr_mult: 1
    decay_mult: 1
  }
  param {
    lr_mult: 2
    decay_mult: 0
  }
  inner_product_param {
    num_output: 1024
    weight_filler {
      type: "xavier"
      std: 0.02
    }
    bias_filler {
      type: "constant"
      value: 0.2
    }
  }
}
layer {
  name: "loss1/relu_fc"
  type: "ReLU"
  bottom: "loss1/fc"
  top: "loss1/fc"
}
layer {
  name: "loss1/drop_fc"
  type: "Dropout"
  bottom: "loss1/fc"
  top: "loss1/fc"
  dropout_param {
    dropout_ratio: 0.7
  }
}
layer {
  name: "loss1/classifier_plantvillage"
  type: "InnerProduct"
  bottom: "loss1/fc"
  top: "loss1/classifier_plantvillage"
  param {
    lr_mult: 1
    decay_mult: 1
  }
  param {
    lr_mult: 2
    decay_mult: 0
  }
  inner_product_param {
    num_output: 38
    weight_filler {
      type: "xavier"
      std: 0.0009765625
    }
    bias_filler {
      type: "constant"
      value: 0
    }
  }
}
layer {
  name: "inception_4b/1x1"
  type: "Convolution"
  bottom: "inception_4a/output"
  top: "inception_4b/1x1"
  param {
    lr_mult: 1
    decay_mult: 1
  }
  param {
    lr_mult: 2
    decay_mult: 0
  }
  convolution_param {
    num_output: 160
    kernel_size: 1
    weight_filler {
      type: "xavier"
      std: 0.03
    }
    bias_filler {
      type: "constant"
      value: 0.2
    }
  }
}
layer {
  name: "inception_4b/relu_1x1"
  type: "ReLU"
  bottom: "inception_4b/1x1"
  top: "inception_4b/1x1"
}
layer {
  name: "inception_4b/3x3_reduce"
  type: "Convolution"
  bottom: "inception_4a/output"
  top: "inception_4b/3x3_reduce"
  param {
    lr_mult: 1
    decay_mult: 1
  }
  param {
    lr_mult: 2
    decay_mult: 0
  }
  convolution_param {
    num_output: 112
    kernel_size: 1
    weight_filler {
      type: "xavier"
      std: 0.09
    }
    bias_filler {
      type: "constant"
      value: 0.2
    }
  }
}
layer {
  name: "inception_4b/relu_3x3_reduce"
  type: "ReLU"
  bottom: "inception_4b/3x3_reduce"
  top: "inception_4b/3x3_reduce"
}
layer {
  name: "inception_4b/3x3"
  type: "Convolution"
  bottom: "inception_4b/3x3_reduce"
  top: "inception_4b/3x3"
  param {
    lr_mult: 1
    decay_mult: 1
  }
  param {
    lr_mult: 2
    decay_mult: 0
  }
  convolution_param {
    num_output: 224
    pad: 1
    kernel_size: 3
    weight_filler {
      type: "xavier"
      std: 0.03
    }
    bias_filler {
      type: "constant"
      value: 0.2
    }
  }
}
layer {
  name: "inception_4b/relu_3x3"
  type: "ReLU"
  bottom: "inception_4b/3x3"
  top: "inception_4b/3x3"
}
layer {
  name: "inception_4b/5x5_reduce"
  type: "Convolution"
  bottom: "inception_4a/output"
  top: "inception_4b/5x5_reduce"
  param {
    lr_mult: 1
    decay_mult: 1
  }
  param {
    lr_mult: 2
    decay_mult: 0
  }
  convolution_param {
    num_output: 24
    kernel_size: 1
    weight_filler {
      type: "xavier"
      std: 0.2
    }
    bias_filler {
      type: "constant"
      value: 0.2
    }
  }
}
layer {
  name: "inception_4b/relu_5x5_reduce"
  type: "ReLU"
  bottom: "inception_4b/5x5_reduce"
  top: "inception_4b/5x5_reduce"
}
layer {
  name: "inception_4b/5x5"
  type: "Convolution"
  bottom: "inception_4b/5x5_reduce"
  top: "inception_4b/5x5"
  param {
    lr_mult: 1
    decay_mult: 1
  }
  param {
    lr_mult: 2
    decay_mult: 0
  }
  convolution_param {
    num_output: 64
    pad: 2
    kernel_size: 5
    weight_filler {
      type: "xavier"
      std: 0.03
    }
    bias_filler {
      type: "constant"
      value: 0.2
    }
  }
}
layer {
  name: "inception_4b/relu_5x5"
  type: "ReLU"
  bottom: "inception_4b/5x5"
  top: "inception_4b/5x5"
}
layer {
  name: "inception_4b/pool"
  type: "Pooling"
  bottom: "inception_4a/output"
  top: "inception_4b/pool"
  pooling_param {
    pool: MAX
    kernel_size: 3
    stride: 1
    pad: 1
  }
}
layer {
  name: "inception_4b/pool_proj"
  type: "Convolution"
  bottom: "inception_4b/pool"
  top: "inception_4b/pool_proj"
  param {
    lr_mult: 1
    decay_mult: 1
  }
  param {
    lr_mult: 2
    decay_mult: 0
  }
  convolution_param {
    num_output: 64
    kernel_size: 1
    weight_filler {
      type: "xavier"
      std: 0.1
    }
    bias_filler {
      type: "constant"
      value: 0.2
    }
  }
}
layer {
  name: "inception_4b/relu_pool_proj"
  type: "ReLU"
  bottom: "inception_4b/pool_proj"
  top: "inception_4b/pool_proj"
}
layer {
  name: "inception_4b/output"
  type: "Concat"
  bottom: "inception_4b/1x1"
  bottom: "inception_4b/3x3"
  bottom: "inception_4b/5x5"
  bottom: "inception_4b/pool_proj"
  top: "inception_4b/output"
}
layer {
  name: "inception_4c/1x1"
  type: "Convolution"
  bottom: "inception_4b/output"
  top: "inception_4c/1x1"
  param {
    lr_mult: 1
    decay_mult: 1
  }
  param {
    lr_mult: 2
    decay_mult: 0
  }
  convolution_param {
    num_output: 128
    kernel_size: 1
    weight_filler {
      type: "xavier"
      std: 0.03
    }
    bias_filler {
      type: "constant"
      value: 0.2
    }
  }
}
layer {
  name: "inception_4c/relu_1x1"
  type: "ReLU"
  bottom: "inception_4c/1x1"
  top: "inception_4c/1x1"
}
layer {
  name: "inception_4c/3x3_reduce"
  type: "Convolution"
  bottom: "inception_4b/output"
  top: "inception_4c/3x3_reduce"
  param {
    lr_mult: 1
    decay_mult: 1
  }
  param {
    lr_mult: 2
    decay_mult: 0
  }
  convolution_param {
    num_output: 128
    kernel_size: 1
    weight_filler {
      type: "xavier"
      std: 0.09
    }
    bias_filler {
      type: "constant"
      value: 0.2
    }
  }
}
layer {
  name: "inception_4c/relu_3x3_reduce"
  type: "ReLU"
  bottom: "inception_4c/3x3_reduce"
  top: "inception_4c/3x3_reduce"
}
layer {
  name: "inception_4c/3x3"
  type: "Convolution"
  bottom: "inception_4c/3x3_reduce"
  top: "inception_4c/3x3"
  param {
    lr_mult: 1
    decay_mult: 1
  }
  param {
    lr_mult: 2
    decay_mult: 0
  }
  convolution_param {
    num_output: 256
    pad: 1
    kernel_size: 3
    weight_filler {
      type: "xavier"
      std: 0.03
    }
    bias_filler {
      type: "constant"
      value: 0.2
    }
  }
}
layer {
  name: "inception_4c/relu_3x3"
  type: "ReLU"
  bottom: "inception_4c/3x3"
  top: "inception_4c/3x3"
}
layer {
  name: "inception_4c/5x5_reduce"
  type: "Convolution"
  bottom: "inception_4b/output"
  top: "inception_4c/5x5_reduce"
  param {
    lr_mult: 1
    decay_mult: 1
  }
  param {
    lr_mult: 2
    decay_mult: 0
  }
  convolution_param {
    num_output: 24
    kernel_size: 1
    weight_filler {
      type: "xavier"
      std: 0.2
    }
    bias_filler {
      type: "constant"
      value: 0.2
    }
  }
}
layer {
  name: "inception_4c/relu_5x5_reduce"
  type: "ReLU"
  bottom: "inception_4c/5x5_reduce"
  top: "inception_4c/5x5_reduce"
}
layer {
  name: "inception_4c/5x5"
  type: "Convolution"
  bottom: "inception_4c/5x5_reduce"
  top: "inception_4c/5x5"
  param {
    lr_mult: 1
    decay_mult: 1
  }
  param {
    lr_mult: 2
    decay_mult: 0
  }
  convolution_param {
    num_output: 64
    pad: 2
    kernel_size: 5
    weight_filler {
      type: "xavier"
      std: 0.03
    }
    bias_filler {
      type: "constant"
      value: 0.2
    }
  }
}
layer {
  name: "inception_4c/relu_5x5"
  type: "ReLU"
  bottom: "inception_4c/5x5"
  top: "inception_4c/5x5"
}
layer {
  name: "inception_4c/pool"
  type: "Pooling"
  bottom: "inception_4b/output"
  top: "inception_4c/pool"
  pooling_param {
    pool: MAX
    kernel_size: 3
    stride: 1
    pad: 1
  }
}
layer {
  name: "inception_4c/pool_proj"
  type: "Convolution"
  bottom: "inception_4c/pool"
  top: "inception_4c/pool_proj"
  param {
    lr_mult: 1
    decay_mult: 1
  }
  param {
    lr_mult: 2
    decay_mult: 0
  }
  convolution_param {
    num_output: 64
    kernel_size: 1
    weight_filler {
      type: "xavier"
      std: 0.1
    }
    bias_filler {
      type: "constant"
      value: 0.2
    }
  }
}
layer {
  name: "inception_4c/relu_pool_proj"
  type: "ReLU"
  bottom: "inception_4c/pool_proj"
  top: "inception_4c/pool_proj"
}
layer {
  name: "inception_4c/output"
  type: "Concat"
  bottom: "inception_4c/1x1"
  bottom: "inception_4c/3x3"
  bottom: "inception_4c/5x5"
  bottom: "inception_4c/pool_proj"
  top: "inception_4c/output"
}
layer {
  name: "inception_4d/1x1"
  type: "Convolution"
  bottom: "inception_4c/output"
  top: "inception_4d/1x1"
  param {
    lr_mult: 1
    decay_mult: 1
  }
  param {
    lr_mult: 2
    decay_mult: 0
  }
  convolution_param {
    num_output: 112
    kernel_size: 1
    weight_filler {
      type: "xavier"
      std: 0.03
    }
    bias_filler {
      type: "constant"
      value: 0.2
    }
  }
}
layer {
  name: "inception_4d/relu_1x1"
  type: "ReLU"
  bottom: "inception_4d/1x1"
  top: "inception_4d/1x1"
}
layer {
  name: "inception_4d/3x3_reduce"
  type: "Convolution"
  bottom: "inception_4c/output"
  top: "inception_4d/3x3_reduce"
  param {
    lr_mult: 1
    decay_mult: 1
  }
  param {
    lr_mult: 2
    decay_mult: 0
  }
  convolution_param {
    num_output: 144
    kernel_size: 1
    weight_filler {
      type: "xavier"
      std: 0.09
    }
    bias_filler {
      type: "constant"
      value: 0.2
    }
  }
}
layer {
  name: "inception_4d/relu_3x3_reduce"
  type: "ReLU"
  bottom: "inception_4d/3x3_reduce"
  top: "inception_4d/3x3_reduce"
}
layer {
  name: "inception_4d/3x3"
  type: "Convolution"
  bottom: "inception_4d/3x3_reduce"
  top: "inception_4d/3x3"
  param {
    lr_mult: 1
    decay_mult: 1
  }
  param {
    lr_mult: 2
    decay_mult: 0
  }
  convolution_param {
    num_output: 288
    pad: 1
    kernel_size: 3
    weight_filler {
      type: "xavier"
      std: 0.03
    }
    bias_filler {
      type: "constant"
      value: 0.2
    }
  }
}
layer {
  name: "inception_4d/relu_3x3"
  type: "ReLU"
  bottom: "inception_4d/3x3"
  top: "inception_4d/3x3"
}
layer {
  name: "inception_4d/5x5_reduce"
  type: "Convolution"
  bottom: "inception_4c/output"
  top: "inception_4d/5x5_reduce"
  param {
    lr_mult: 1
    decay_mult: 1
  }
  param {
    lr_mult: 2
    decay_mult: 0
  }
  convolution_param {
    num_output: 32
    kernel_size: 1
    weight_filler {
      type: "xavier"
      std: 0.2
    }
    bias_filler {
      type: "constant"
      value: 0.2
    }
  }
}
layer {
  name: "inception_4d/relu_5x5_reduce"
  type: "ReLU"
  bottom: "inception_4d/5x5_reduce"
  top: "inception_4d/5x5_reduce"
}
layer {
  name: "inception_4d/5x5"
  type: "Convolution"
  bottom: "inception_4d/5x5_reduce"
  top: "inception_4d/5x5"
  param {
    lr_mult: 1
    decay_mult: 1
  }
  param {
    lr_mult: 2
    decay_mult: 0
  }
  convolution_param {
    num_output: 64
    pad: 2
    kernel_size: 5
    weight_filler {
      type: "xavier"
      std: 0.03
    }
    bias_filler {
      type: "constant"
      value: 0.2
    }
  }
}
layer {
  name: "inception_4d/relu_5x5"
  type: "ReLU"
  bottom: "inception_4d/5x5"
  top: "inception_4d/5x5"
}
layer {
  name: "inception_4d/pool"
  type: "Pooling"
  bottom: "inception_4c/output"
  top: "inception_4d/pool"
  pooling_param {
    pool: MAX
    kernel_size: 3
    stride: 1
    pad: 1
  }
}
layer {
  name: "inception_4d/pool_proj"
  type: "Convolution"
  bottom: "inception_4d/pool"
  top: "inception_4d/pool_proj"
  param {
    lr_mult: 1
    decay_mult: 1
  }
  param {
    lr_mult: 2
    decay_mult: 0
  }
  convolution_param {
    num_output: 64
    kernel_size: 1
    weight_filler {
      type: "xavier"
      std: 0.1
    }
    bias_filler {
      type: "constant"
      value: 0.2
    }
  }
}
layer {
  name: "inception_4d/relu_pool_proj"
  type: "ReLU"
  bottom: "inception_4d/pool_proj"
  top: "inception_4d/pool_proj"
}
layer {
  name: "inception_4d/output"
  type: "Concat"
  bottom: "inception_4d/1x1"
  bottom: "inception_4d/3x3"
  bottom: "inception_4d/5x5"
  bottom: "inception_4d/pool_proj"
  top: "inception_4d/output"
}
layer {
  name: "loss2/ave_pool"
  type: "Pooling"
  bottom: "inception_4d/output"
  top: "loss2/ave_pool"
  pooling_param {
    pool: AVE
    kernel_size: 5
    stride: 3
  }
}
layer {
  name: "loss2/conv"
  type: "Convolution"
  bottom: "loss2/ave_pool"
  top: "loss2/conv"
  param {
    lr_mult: 1
    decay_mult: 1
  }
  param {
    lr_mult: 2
    decay_mult: 0
  }
  convolution_param {
    num_output: 128
    kernel_size: 1
    weight_filler {
      type: "xavier"
      std: 0.08
    }
    bias_filler {
      type: "constant"
      value: 0.2
    }
  }
}
layer {
  name: "loss2/relu_conv"
  type: "ReLU"
  bottom: "loss2/conv"
  top: "loss2/conv"
}
layer {
  name: "loss2/fc"
  type: "InnerProduct"
  bottom: "loss2/conv"
  top: "loss2/fc"
  param {
    lr_mult: 1
    decay_mult: 1
  }
  param {
    lr_mult: 2
    decay_mult: 0
  }
  inner_product_param {
    num_output: 1024
    weight_filler {
      type: "xavier"
      std: 0.02
    }
    bias_filler {
      type: "constant"
      value: 0.2
    }
  }
}
layer {
  name: "loss2/relu_fc"
  type: "ReLU"
  bottom: "loss2/fc"
  top: "loss2/fc"
}
layer {
  name: "loss2/drop_fc"
  type: "Dropout"
  bottom: "loss2/fc"
  top: "loss2/fc"
  dropout_param {
    dropout_ratio: 0.7
  }
}
layer {
  name: "loss2/classifier_plantvillage"
  type: "InnerProduct"
  bottom: "loss2/fc"
  top: "loss2/classifier_plantvillage"
  param {
    lr_mult: 1
    decay_mult: 1
  }
  param {
    lr_mult: 2
    decay_mult: 0
  }
  inner_product_param {
    num_output: 38
    weight_filler {
      type: "xavier"
      std: 0.0009765625
    }
    bias_filler {
      type: "constant"
      value: 0
    }
  }
}
layer {
  name: "inception_4e/1x1"
  type: "Convolution"
  bottom: "inception_4d/output"
  top: "inception_4e/1x1"
  param {
    lr_mult: 1
    decay_mult: 1
  }
  param {
    lr_mult: 2
    decay_mult: 0
  }
  convolution_param {
    num_output: 256
    kernel_size: 1
    weight_filler {
      type: "xavier"
      std: 0.03
    }
    bias_filler {
      type: "constant"
      value: 0.2
    }
  }
}
layer {
  name: "inception_4e/relu_1x1"
  type: "ReLU"
  bottom: "inception_4e/1x1"
  top: "inception_4e/1x1"
}
layer {
  name: "inception_4e/3x3_reduce"
  type: "Convolution"
  bottom: "inception_4d/output"
  top: "inception_4e/3x3_reduce"
  param {
    lr_mult: 1
    decay_mult: 1
  }
  param {
    lr_mult: 2
    decay_mult: 0
  }
  convolution_param {
    num_output: 160
    kernel_size: 1
    weight_filler {
      type: "xavier"
      std: 0.09
    }
    bias_filler {
      type: "constant"
      value: 0.2
    }
  }
}
layer {
  name: "inception_4e/relu_3x3_reduce"
  type: "ReLU"
  bottom: "inception_4e/3x3_reduce"
  top: "inception_4e/3x3_reduce"
}
layer {
  name: "inception_4e/3x3"
  type: "Convolution"
  bottom: "inception_4e/3x3_reduce"
  top: "inception_4e/3x3"
  param {
    lr_mult: 1
    decay_mult: 1
  }
  param {
    lr_mult: 2
    decay_mult: 0
  }
  convolution_param {
    num_output: 320
    pad: 1
    kernel_size: 3
    weight_filler {
      type: "xavier"
      std: 0.03
    }
    bias_filler {
      type: "constant"
      value: 0.2
    }
  }
}
layer {
  name: "inception_4e/relu_3x3"
  type: "ReLU"
  bottom: "inception_4e/3x3"
  top: "inception_4e/3x3"
}
layer {
  name: "inception_4e/5x5_reduce"
  type: "Convolution"
  bottom: "inception_4d/output"
  top: "inception_4e/5x5_reduce"
  param {
    lr_mult: 1
    decay_mult: 1
  }
  param {
    lr_mult: 2
    decay_mult: 0
  }
  convolution_param {
    num_output: 32
    kernel_size: 1
    weight_filler {
      type: "xavier"
      std: 0.2
    }
    bias_filler {
      type: "constant"
      value: 0.2
    }
  }
}
layer {
  name: "inception_4e/relu_5x5_reduce"
  type: "ReLU"
  bottom: "inception_4e/5x5_reduce"
  top: "inception_4e/5x5_reduce"
}
layer {
  name: "inception_4e/5x5"
  type: "Convolution"
  bottom: "inception_4e/5x5_reduce"
  top: "inception_4e/5x5"
  p
I0403 19:37:49.577741  9477 layer_factory.hpp:77] Creating layer data
I0403 19:37:49.578510  9477 net.cpp:91] Creating Layer data
I0403 19:37:49.578559  9477 net.cpp:399] data -> data
I0403 19:37:49.578624  9477 net.cpp:399] data -> label
I0403 19:37:49.578670  9477 data_transformer.cpp:25] Loading mean file from: /home/mohanty/data/final_dataset/lmdb/color-60-40/mean.binaryproto
I0403 19:37:49.580081  9479 db_lmdb.cpp:38] Opened lmdb /home/mohanty/data/final_dataset/lmdb/color-60-40/test_db
I0403 19:37:49.594727  9477 data_layer.cpp:41] output data size: 24,3,224,224
I0403 19:37:49.626472  9477 net.cpp:141] Setting up data
I0403 19:37:49.626564  9477 net.cpp:148] Top shape: 24 3 224 224 (3612672)
I0403 19:37:49.626591  9477 net.cpp:148] Top shape: 24 (24)
I0403 19:37:49.626610  9477 net.cpp:156] Memory required for data: 14450784
I0403 19:37:49.626646  9477 layer_factory.hpp:77] Creating layer label_data_1_split
I0403 19:37:49.626682  9477 net.cpp:91] Creating Layer label_data_1_split
I0403 19:37:49.626704  9477 net.cpp:425] label_data_1_split <- label
I0403 19:37:49.626744  9477 net.cpp:399] label_data_1_split -> label_data_1_split_0
I0403 19:37:49.626780  9477 net.cpp:399] label_data_1_split -> label_data_1_split_1
I0403 19:37:49.626806  9477 net.cpp:399] label_data_1_split -> label_data_1_split_2
I0403 19:37:49.626832  9477 net.cpp:399] label_data_1_split -> label_data_1_split_3
I0403 19:37:49.626857  9477 net.cpp:399] label_data_1_split -> label_data_1_split_4
I0403 19:37:49.626881  9477 net.cpp:399] label_data_1_split -> label_data_1_split_5
I0403 19:37:49.626905  9477 net.cpp:399] label_data_1_split -> label_data_1_split_6
I0403 19:37:49.626930  9477 net.cpp:399] label_data_1_split -> label_data_1_split_7
I0403 19:37:49.626953  9477 net.cpp:399] label_data_1_split -> label_data_1_split_8
I0403 19:37:49.626978  9477 net.cpp:399] label_data_1_split -> label_data_1_split_9
I0403 19:37:49.627117  9477 net.cpp:141] Setting up label_data_1_split
I0403 19:37:49.627147  9477 net.cpp:148] Top shape: 24 (24)
I0403 19:37:49.627169  9477 net.cpp:148] Top shape: 24 (24)
I0403 19:37:49.627192  9477 net.cpp:148] Top shape: 24 (24)
I0403 19:37:49.627213  9477 net.cpp:148] Top shape: 24 (24)
I0403 19:37:49.627231  9477 net.cpp:148] Top shape: 24 (24)
I0403 19:37:49.627250  9477 net.cpp:148] Top shape: 24 (24)
I0403 19:37:49.627270  9477 net.cpp:148] Top shape: 24 (24)
I0403 19:37:49.627290  9477 net.cpp:148] Top shape: 24 (24)
I0403 19:37:49.627310  9477 net.cpp:148] Top shape: 24 (24)
I0403 19:37:49.627329  9477 net.cpp:148] Top shape: 24 (24)
I0403 19:37:49.627388  9477 net.cpp:156] Memory required for data: 14451744
I0403 19:37:49.627408  9477 layer_factory.hpp:77] Creating layer conv1/7x7_s2
I0403 19:37:49.627449  9477 net.cpp:91] Creating Layer conv1/7x7_s2
I0403 19:37:49.627476  9477 net.cpp:425] conv1/7x7_s2 <- data
I0403 19:37:49.627501  9477 net.cpp:399] conv1/7x7_s2 -> conv1/7x7_s2
I0403 19:37:49.789010  9477 net.cpp:141] Setting up conv1/7x7_s2
I0403 19:37:49.789098  9477 net.cpp:148] Top shape: 24 64 112 112 (19267584)
I0403 19:37:49.789119  9477 net.cpp:156] Memory required for data: 91522080
I0403 19:37:49.789162  9477 layer_factory.hpp:77] Creating layer conv1/relu_7x7
I0403 19:37:49.789199  9477 net.cpp:91] Creating Layer conv1/relu_7x7
I0403 19:37:49.789223  9477 net.cpp:425] conv1/relu_7x7 <- conv1/7x7_s2
I0403 19:37:49.789247  9477 net.cpp:386] conv1/relu_7x7 -> conv1/7x7_s2 (in-place)
I0403 19:37:49.789593  9477 net.cpp:141] Setting up conv1/relu_7x7
I0403 19:37:49.789626  9477 net.cpp:148] Top shape: 24 64 112 112 (19267584)
I0403 19:37:49.789645  9477 net.cpp:156] Memory required for data: 168592416
I0403 19:37:49.789664  9477 layer_factory.hpp:77] Creating layer pool1/3x3_s2
I0403 19:37:49.789697  9477 net.cpp:91] Creating Layer pool1/3x3_s2
I0403 19:37:49.789719  9477 net.cpp:425] pool1/3x3_s2 <- conv1/7x7_s2
I0403 19:37:49.789743  9477 net.cpp:399] pool1/3x3_s2 -> pool1/3x3_s2
I0403 19:37:49.789836  9477 net.cpp:141] Setting up pool1/3x3_s2
I0403 19:37:49.789870  9477 net.cpp:148] Top shape: 24 64 56 56 (4816896)
I0403 19:37:49.789888  9477 net.cpp:156] Memory required for data: 187860000
I0403 19:37:49.789906  9477 layer_factory.hpp:77] Creating layer pool1/norm1
I0403 19:37:49.789938  9477 net.cpp:91] Creating Layer pool1/norm1
I0403 19:37:49.789959  9477 net.cpp:425] pool1/norm1 <- pool1/3x3_s2
I0403 19:37:49.789984  9477 net.cpp:399] pool1/norm1 -> pool1/norm1
I0403 19:37:49.790354  9477 net.cpp:141] Setting up pool1/norm1
I0403 19:37:49.790388  9477 net.cpp:148] Top shape: 24 64 56 56 (4816896)
I0403 19:37:49.790407  9477 net.cpp:156] Memory required for data: 207127584
I0403 19:37:49.790426  9477 layer_factory.hpp:77] Creating layer conv2/3x3_reduce
I0403 19:37:49.790465  9477 net.cpp:91] Creating Layer conv2/3x3_reduce
I0403 19:37:49.790489  9477 net.cpp:425] conv2/3x3_reduce <- pool1/norm1
I0403 19:37:49.790515  9477 net.cpp:399] conv2/3x3_reduce -> conv2/3x3_reduce
I0403 19:37:49.792201  9477 net.cpp:141] Setting up conv2/3x3_reduce
I0403 19:37:49.792239  9477 net.cpp:148] Top shape: 24 64 56 56 (4816896)
I0403 19:37:49.792259  9477 net.cpp:156] Memory required for data: 226395168
I0403 19:37:49.792285  9477 layer_factory.hpp:77] Creating layer conv2/relu_3x3_reduce
I0403 19:37:49.792315  9477 net.cpp:91] Creating Layer conv2/relu_3x3_reduce
I0403 19:37:49.792337  9477 net.cpp:425] conv2/relu_3x3_reduce <- conv2/3x3_reduce
I0403 19:37:49.792358  9477 net.cpp:386] conv2/relu_3x3_reduce -> conv2/3x3_reduce (in-place)
I0403 19:37:49.792695  9477 net.cpp:141] Setting up conv2/relu_3x3_reduce
I0403 19:37:49.792728  9477 net.cpp:148] Top shape: 24 64 56 56 (4816896)
I0403 19:37:49.792747  9477 net.cpp:156] Memory required for data: 245662752
I0403 19:37:49.792768  9477 layer_factory.hpp:77] Creating layer conv2/3x3
I0403 19:37:49.792800  9477 net.cpp:91] Creating Layer conv2/3x3
I0403 19:37:49.792822  9477 net.cpp:425] conv2/3x3 <- conv2/3x3_reduce
I0403 19:37:49.792846  9477 net.cpp:399] conv2/3x3 -> conv2/3x3
I0403 19:37:49.795745  9477 net.cpp:141] Setting up conv2/3x3
I0403 19:37:49.795786  9477 net.cpp:148] Top shape: 24 192 56 56 (14450688)
I0403 19:37:49.795809  9477 net.cpp:156] Memory required for data: 303465504
I0403 19:37:49.795835  9477 layer_factory.hpp:77] Creating layer conv2/relu_3x3
I0403 19:37:49.795858  9477 net.cpp:91] Creating Layer conv2/relu_3x3
I0403 19:37:49.795877  9477 net.cpp:425] conv2/relu_3x3 <- conv2/3x3
I0403 19:37:49.795902  9477 net.cpp:386] conv2/relu_3x3 -> conv2/3x3 (in-place)
I0403 19:37:49.796114  9477 net.cpp:141] Setting up conv2/relu_3x3
I0403 19:37:49.796146  9477 net.cpp:148] Top shape: 24 192 56 56 (14450688)
I0403 19:37:49.796201  9477 net.cpp:156] Memory required for data: 361268256
I0403 19:37:49.796222  9477 layer_factory.hpp:77] Creating layer conv2/norm2
I0403 19:37:49.796258  9477 net.cpp:91] Creating Layer conv2/norm2
I0403 19:37:49.796279  9477 net.cpp:425] conv2/norm2 <- conv2/3x3
I0403 19:37:49.796301  9477 net.cpp:399] conv2/norm2 -> conv2/norm2
I0403 19:37:49.796670  9477 net.cpp:141] Setting up conv2/norm2
I0403 19:37:49.796705  9477 net.cpp:148] Top shape: 24 192 56 56 (14450688)
I0403 19:37:49.796723  9477 net.cpp:156] Memory required for data: 419071008
I0403 19:37:49.796741  9477 layer_factory.hpp:77] Creating layer pool2/3x3_s2
I0403 19:37:49.796767  9477 net.cpp:91] Creating Layer pool2/3x3_s2
I0403 19:37:49.796787  9477 net.cpp:425] pool2/3x3_s2 <- conv2/norm2
I0403 19:37:49.796809  9477 net.cpp:399] pool2/3x3_s2 -> pool2/3x3_s2
I0403 19:37:49.796877  9477 net.cpp:141] Setting up pool2/3x3_s2
I0403 19:37:49.796906  9477 net.cpp:148] Top shape: 24 192 28 28 (3612672)
I0403 19:37:49.796924  9477 net.cpp:156] Memory required for data: 433521696
I0403 19:37:49.796943  9477 layer_factory.hpp:77] Creating layer pool2/3x3_s2_pool2/3x3_s2_0_split
I0403 19:37:49.796965  9477 net.cpp:91] Creating Layer pool2/3x3_s2_pool2/3x3_s2_0_split
I0403 19:37:49.796985  9477 net.cpp:425] pool2/3x3_s2_pool2/3x3_s2_0_split <- pool2/3x3_s2
I0403 19:37:49.797013  9477 net.cpp:399] pool2/3x3_s2_pool2/3x3_s2_0_split -> pool2/3x3_s2_pool2/3x3_s2_0_split_0
I0403 19:37:49.797041  9477 net.cpp:399] pool2/3x3_s2_pool2/3x3_s2_0_split -> pool2/3x3_s2_pool2/3x3_s2_0_split_1
I0403 19:37:49.797066  9477 net.cpp:399] pool2/3x3_s2_pool2/3x3_s2_0_split -> pool2/3x3_s2_pool2/3x3_s2_0_split_2
I0403 19:37:49.797091  9477 net.cpp:399] pool2/3x3_s2_pool2/3x3_s2_0_split -> pool2/3x3_s2_pool2/3x3_s2_0_split_3
I0403 19:37:49.797175  9477 net.cpp:141] Setting up pool2/3x3_s2_pool2/3x3_s2_0_split
I0403 19:37:49.797206  9477 net.cpp:148] Top shape: 24 192 28 28 (3612672)
I0403 19:37:49.797226  9477 net.cpp:148] Top shape: 24 192 28 28 (3612672)
I0403 19:37:49.797245  9477 net.cpp:148] Top shape: 24 192 28 28 (3612672)
I0403 19:37:49.797266  9477 net.cpp:148] Top shape: 24 192 28 28 (3612672)
I0403 19:37:49.797283  9477 net.cpp:156] Memory required for data: 491324448
I0403 19:37:49.797302  9477 layer_factory.hpp:77] Creating layer inception_3a/1x1
I0403 19:37:49.797329  9477 net.cpp:91] Creating Layer inception_3a/1x1
I0403 19:37:49.797350  9477 net.cpp:425] inception_3a/1x1 <- pool2/3x3_s2_pool2/3x3_s2_0_split_0
I0403 19:37:49.797376  9477 net.cpp:399] inception_3a/1x1 -> inception_3a/1x1
I0403 19:37:49.799212  9477 net.cpp:141] Setting up inception_3a/1x1
I0403 19:37:49.799248  9477 net.cpp:148] Top shape: 24 64 28 28 (1204224)
I0403 19:37:49.799273  9477 net.cpp:156] Memory required for data: 496141344
I0403 19:37:49.799298  9477 layer_factory.hpp:77] Creating layer inception_3a/relu_1x1
I0403 19:37:49.799321  9477 net.cpp:91] Creating Layer inception_3a/relu_1x1
I0403 19:37:49.799341  9477 net.cpp:425] inception_3a/relu_1x1 <- inception_3a/1x1
I0403 19:37:49.799363  9477 net.cpp:386] inception_3a/relu_1x1 -> inception_3a/1x1 (in-place)
I0403 19:37:49.799582  9477 net.cpp:141] Setting up inception_3a/relu_1x1
I0403 19:37:49.799617  9477 net.cpp:148] Top shape: 24 64 28 28 (1204224)
I0403 19:37:49.799635  9477 net.cpp:156] Memory required for data: 500958240
I0403 19:37:49.799654  9477 layer_factory.hpp:77] Creating layer inception_3a/3x3_reduce
I0403 19:37:49.799681  9477 net.cpp:91] Creating Layer inception_3a/3x3_reduce
I0403 19:37:49.799702  9477 net.cpp:425] inception_3a/3x3_reduce <- pool2/3x3_s2_pool2/3x3_s2_0_split_1
I0403 19:37:49.799727  9477 net.cpp:399] inception_3a/3x3_reduce -> inception_3a/3x3_reduce
I0403 19:37:49.801753  9477 net.cpp:141] Setting up inception_3a/3x3_reduce
I0403 19:37:49.801789  9477 net.cpp:148] Top shape: 24 96 28 28 (1806336)
I0403 19:37:49.801808  9477 net.cpp:156] Memory required for data: 508183584
I0403 19:37:49.801836  9477 layer_factory.hpp:77] Creating layer inception_3a/relu_3x3_reduce
I0403 19:37:49.801882  9477 net.cpp:91] Creating Layer inception_3a/relu_3x3_reduce
I0403 19:37:49.801903  9477 net.cpp:425] inception_3a/relu_3x3_reduce <- inception_3a/3x3_reduce
I0403 19:37:49.801928  9477 net.cpp:386] inception_3a/relu_3x3_reduce -> inception_3a/3x3_reduce (in-place)
I0403 19:37:49.802145  9477 net.cpp:141] Setting up inception_3a/relu_3x3_reduce
I0403 19:37:49.802176  9477 net.cpp:148] Top shape: 24 96 28 28 (1806336)
I0403 19:37:49.802196  9477 net.cpp:156] Memory required for data: 515408928
I0403 19:37:49.802216  9477 layer_factory.hpp:77] Creating layer inception_3a/3x3
I0403 19:37:49.802243  9477 net.cpp:91] Creating Layer inception_3a/3x3
I0403 19:37:49.802264  9477 net.cpp:425] inception_3a/3x3 <- inception_3a/3x3_reduce
I0403 19:37:49.802292  9477 net.cpp:399] inception_3a/3x3 -> inception_3a/3x3
I0403 19:37:49.804299  9477 net.cpp:141] Setting up inception_3a/3x3
I0403 19:37:49.804338  9477 net.cpp:148] Top shape: 24 128 28 28 (2408448)
I0403 19:37:49.804359  9477 net.cpp:156] Memory required for data: 525042720
I0403 19:37:49.804383  9477 layer_factory.hpp:77] Creating layer inception_3a/relu_3x3
I0403 19:37:49.804404  9477 net.cpp:91] Creating Layer inception_3a/relu_3x3
I0403 19:37:49.804425  9477 net.cpp:425] inception_3a/relu_3x3 <- inception_3a/3x3
I0403 19:37:49.804445  9477 net.cpp:386] inception_3a/relu_3x3 -> inception_3a/3x3 (in-place)
I0403 19:37:49.804785  9477 net.cpp:141] Setting up inception_3a/relu_3x3
I0403 19:37:49.804826  9477 net.cpp:148] Top shape: 24 128 28 28 (2408448)
I0403 19:37:49.804846  9477 net.cpp:156] Memory required for data: 534676512
I0403 19:37:49.804864  9477 layer_factory.hpp:77] Creating layer inception_3a/5x5_reduce
I0403 19:37:49.804891  9477 net.cpp:91] Creating Layer inception_3a/5x5_reduce
I0403 19:37:49.804913  9477 net.cpp:425] inception_3a/5x5_reduce <- pool2/3x3_s2_pool2/3x3_s2_0_split_2
I0403 19:37:49.804937  9477 net.cpp:399] inception_3a/5x5_reduce -> inception_3a/5x5_reduce
I0403 19:37:49.806128  9477 net.cpp:141] Setting up inception_3a/5x5_reduce
I0403 19:37:49.806164  9477 net.cpp:148] Top shape: 24 16 28 28 (301056)
I0403 19:37:49.806185  9477 net.cpp:156] Memory required for data: 535880736
I0403 19:37:49.806210  9477 layer_factory.hpp:77] Creating layer inception_3a/relu_5x5_reduce
I0403 19:37:49.806231  9477 net.cpp:91] Creating Layer inception_3a/relu_5x5_reduce
I0403 19:37:49.806252  9477 net.cpp:425] inception_3a/relu_5x5_reduce <- inception_3a/5x5_reduce
I0403 19:37:49.806277  9477 net.cpp:386] inception_3a/relu_5x5_reduce -> inception_3a/5x5_reduce (in-place)
I0403 19:37:49.806624  9477 net.cpp:141] Setting up inception_3a/relu_5x5_reduce
I0403 19:37:49.806658  9477 net.cpp:148] Top shape: 24 16 28 28 (301056)
I0403 19:37:49.806676  9477 net.cpp:156] Memory required for data: 537084960
I0403 19:37:49.806695  9477 layer_factory.hpp:77] Creating layer inception_3a/5x5
I0403 19:37:49.806722  9477 net.cpp:91] Creating Layer inception_3a/5x5
I0403 19:37:49.806745  9477 net.cpp:425] inception_3a/5x5 <- inception_3a/5x5_reduce
I0403 19:37:49.806771  9477 net.cpp:399] inception_3a/5x5 -> inception_3a/5x5
I0403 19:37:49.807983  9477 net.cpp:141] Setting up inception_3a/5x5
I0403 19:37:49.808020  9477 net.cpp:148] Top shape: 24 32 28 28 (602112)
I0403 19:37:49.808042  9477 net.cpp:156] Memory required for data: 539493408
I0403 19:37:49.808065  9477 layer_factory.hpp:77] Creating layer inception_3a/relu_5x5
I0403 19:37:49.808087  9477 net.cpp:91] Creating Layer inception_3a/relu_5x5
I0403 19:37:49.808107  9477 net.cpp:425] inception_3a/relu_5x5 <- inception_3a/5x5
I0403 19:37:49.808128  9477 net.cpp:386] inception_3a/relu_5x5 -> inception_3a/5x5 (in-place)
I0403 19:37:49.808338  9477 net.cpp:141] Setting up inception_3a/relu_5x5
I0403 19:37:49.808370  9477 net.cpp:148] Top shape: 24 32 28 28 (602112)
I0403 19:37:49.808389  9477 net.cpp:156] Memory required for data: 541901856
I0403 19:37:49.808408  9477 layer_factory.hpp:77] Creating layer inception_3a/pool
I0403 19:37:49.808430  9477 net.cpp:91] Creating Layer inception_3a/pool
I0403 19:37:49.808449  9477 net.cpp:425] inception_3a/pool <- pool2/3x3_s2_pool2/3x3_s2_0_split_3
I0403 19:37:49.808503  9477 net.cpp:399] inception_3a/pool -> inception_3a/pool
I0403 19:37:49.808575  9477 net.cpp:141] Setting up inception_3a/pool
I0403 19:37:49.808609  9477 net.cpp:148] Top shape: 24 192 28 28 (3612672)
I0403 19:37:49.808626  9477 net.cpp:156] Memory required for data: 556352544
I0403 19:37:49.808645  9477 layer_factory.hpp:77] Creating layer inception_3a/pool_proj
I0403 19:37:49.808675  9477 net.cpp:91] Creating Layer inception_3a/pool_proj
I0403 19:37:49.808696  9477 net.cpp:425] inception_3a/pool_proj <- inception_3a/pool
I0403 19:37:49.808720  9477 net.cpp:399] inception_3a/pool_proj -> inception_3a/pool_proj
I0403 19:37:49.809876  9477 net.cpp:141] Setting up inception_3a/pool_proj
I0403 19:37:49.809911  9477 net.cpp:148] Top shape: 24 32 28 28 (602112)
I0403 19:37:49.809931  9477 net.cpp:156] Memory required for data: 558760992
I0403 19:37:49.809960  9477 layer_factory.hpp:77] Creating layer inception_3a/relu_pool_proj
I0403 19:37:49.809985  9477 net.cpp:91] Creating Layer inception_3a/relu_pool_proj
I0403 19:37:49.810005  9477 net.cpp:425] inception_3a/relu_pool_proj <- inception_3a/pool_proj
I0403 19:37:49.810030  9477 net.cpp:386] inception_3a/relu_pool_proj -> inception_3a/pool_proj (in-place)
I0403 19:37:49.810356  9477 net.cpp:141] Setting up inception_3a/relu_pool_proj
I0403 19:37:49.810391  9477 net.cpp:148] Top shape: 24 32 28 28 (602112)
I0403 19:37:49.810411  9477 net.cpp:156] Memory required for data: 561169440
I0403 19:37:49.810431  9477 layer_factory.hpp:77] Creating layer inception_3a/output
I0403 19:37:49.810452  9477 net.cpp:91] Creating Layer inception_3a/output
I0403 19:37:49.810478  9477 net.cpp:425] inception_3a/output <- inception_3a/1x1
I0403 19:37:49.810500  9477 net.cpp:425] inception_3a/output <- inception_3a/3x3
I0403 19:37:49.810520  9477 net.cpp:425] inception_3a/output <- inception_3a/5x5
I0403 19:37:49.810539  9477 net.cpp:425] inception_3a/output <- inception_3a/pool_proj
I0403 19:37:49.810560  9477 net.cpp:399] inception_3a/output -> inception_3a/output
I0403 19:37:49.810618  9477 net.cpp:141] Setting up inception_3a/output
I0403 19:37:49.810648  9477 net.cpp:148] Top shape: 24 256 28 28 (4816896)
I0403 19:37:49.810667  9477 net.cpp:156] Memory required for data: 580437024
I0403 19:37:49.810684  9477 layer_factory.hpp:77] Creating layer inception_3a/output_inception_3a/output_0_split
I0403 19:37:49.810708  9477 net.cpp:91] Creating Layer inception_3a/output_inception_3a/output_0_split
I0403 19:37:49.810729  9477 net.cpp:425] inception_3a/output_inception_3a/output_0_split <- inception_3a/output
I0403 19:37:49.810751  9477 net.cpp:399] inception_3a/output_inception_3a/output_0_split -> inception_3a/output_inception_3a/output_0_split_0
I0403 19:37:49.810775  9477 net.cpp:399] inception_3a/output_inception_3a/output_0_split -> inception_3a/output_inception_3a/output_0_split_1
I0403 19:37:49.810806  9477 net.cpp:399] inception_3a/output_inception_3a/output_0_split -> inception_3a/output_inception_3a/output_0_split_2
I0403 19:37:49.810832  9477 net.cpp:399] inception_3a/output_inception_3a/output_0_split -> inception_3a/output_inception_3a/output_0_split_3
I0403 19:37:49.810925  9477 net.cpp:141] Setting up inception_3a/output_inception_3a/output_0_split
I0403 19:37:49.810953  9477 net.cpp:148] Top shape: 24 256 28 28 (4816896)
I0403 19:37:49.810974  9477 net.cpp:148] Top shape: 24 256 28 28 (4816896)
I0403 19:37:49.810994  9477 net.cpp:148] Top shape: 24 256 28 28 (4816896)
I0403 19:37:49.811014  9477 net.cpp:148] Top shape: 24 256 28 28 (4816896)
I0403 19:37:49.811033  9477 net.cpp:156] Memory required for data: 657507360
I0403 19:37:49.811051  9477 layer_factory.hpp:77] Creating layer inception_3b/1x1
I0403 19:37:49.811081  9477 net.cpp:91] Creating Layer inception_3b/1x1
I0403 19:37:49.811103  9477 net.cpp:425] inception_3b/1x1 <- inception_3a/output_inception_3a/output_0_split_0
I0403 19:37:49.811127  9477 net.cpp:399] inception_3b/1x1 -> inception_3b/1x1
I0403 19:37:49.812505  9477 net.cpp:141] Setting up inception_3b/1x1
I0403 19:37:49.812554  9477 net.cpp:148] Top shape: 24 128 28 28 (2408448)
I0403 19:37:49.812574  9477 net.cpp:156] Memory required for data: 667141152
I0403 19:37:49.812597  9477 layer_factory.hpp:77] Creating layer inception_3b/relu_1x1
I0403 19:37:49.812623  9477 net.cpp:91] Creating Layer inception_3b/relu_1x1
I0403 19:37:49.812643  9477 net.cpp:425] inception_3b/relu_1x1 <- inception_3b/1x1
I0403 19:37:49.812664  9477 net.cpp:386] inception_3b/relu_1x1 -> inception_3b/1x1 (in-place)
I0403 19:37:49.812880  9477 net.cpp:141] Setting up inception_3b/relu_1x1
I0403 19:37:49.812914  9477 net.cpp:148] Top shape: 24 128 28 28 (2408448)
I0403 19:37:49.812933  9477 net.cpp:156] Memory required for data: 676774944
I0403 19:37:49.812952  9477 layer_factory.hpp:77] Creating layer inception_3b/3x3_reduce
I0403 19:37:49.812979  9477 net.cpp:91] Creating Layer inception_3b/3x3_reduce
I0403 19:37:49.813001  9477 net.cpp:425] inception_3b/3x3_reduce <- inception_3a/output_inception_3a/output_0_split_1
I0403 19:37:49.813025  9477 net.cpp:399] inception_3b/3x3_reduce -> inception_3b/3x3_reduce
I0403 19:37:49.814395  9477 net.cpp:141] Setting up inception_3b/3x3_reduce
I0403 19:37:49.814430  9477 net.cpp:148] Top shape: 24 128 28 28 (2408448)
I0403 19:37:49.814450  9477 net.cpp:156] Memory required for data: 686408736
I0403 19:37:49.814478  9477 layer_factory.hpp:77] Creating layer inception_3b/relu_3x3_reduce
I0403 19:37:49.814505  9477 net.cpp:91] Creating Layer inception_3b/relu_3x3_reduce
I0403 19:37:49.814527  9477 net.cpp:425] inception_3b/relu_3x3_reduce <- inception_3b/3x3_reduce
I0403 19:37:49.814549  9477 net.cpp:386] inception_3b/relu_3x3_reduce -> inception_3b/3x3_reduce (in-place)
I0403 19:37:49.814759  9477 net.cpp:141] Setting up inception_3b/relu_3x3_reduce
I0403 19:37:49.814793  9477 net.cpp:148] Top shape: 24 128 28 28 (2408448)
I0403 19:37:49.814813  9477 net.cpp:156] Memory required for data: 696042528
I0403 19:37:49.814832  9477 layer_factory.hpp:77] Creating layer inception_3b/3x3
I0403 19:37:49.814862  9477 net.cpp:91] Creating Layer inception_3b/3x3
I0403 19:37:49.814882  9477 net.cpp:425] inception_3b/3x3 <- inception_3b/3x3_reduce
I0403 19:37:49.814908  9477 net.cpp:399] inception_3b/3x3 -> inception_3b/3x3
I0403 19:37:49.818431  9477 net.cpp:141] Setting up inception_3b/3x3
I0403 19:37:49.818480  9477 net.cpp:148] Top shape: 24 192 28 28 (3612672)
I0403 19:37:49.818502  9477 net.cpp:156] Memory required for data: 710493216
I0403 19:37:49.818526  9477 layer_factory.hpp:77] Creating layer inception_3b/relu_3x3
I0403 19:37:49.818548  9477 net.cpp:91] Creating Layer inception_3b/relu_3x3
I0403 19:37:49.818567  9477 net.cpp:425] inception_3b/relu_3x3 <- inception_3b/3x3
I0403 19:37:49.818588  9477 net.cpp:386] inception_3b/relu_3x3 -> inception_3b/3x3 (in-place)
I0403 19:37:49.818927  9477 net.cpp:141] Setting up inception_3b/relu_3x3
I0403 19:37:49.818961  9477 net.cpp:148] Top shape: 24 192 28 28 (3612672)
I0403 19:37:49.818982  9477 net.cpp:156] Memory required for data: 724943904
I0403 19:37:49.819001  9477 layer_factory.hpp:77] Creating layer inception_3b/5x5_reduce
I0403 19:37:49.819028  9477 net.cpp:91] Creating Layer inception_3b/5x5_reduce
I0403 19:37:49.819049  9477 net.cpp:425] inception_3b/5x5_reduce <- inception_3a/output_inception_3a/output_0_split_2
I0403 19:37:49.819073  9477 net.cpp:399] inception_3b/5x5_reduce -> inception_3b/5x5_reduce
I0403 19:37:49.820282  9477 net.cpp:141] Setting up inception_3b/5x5_reduce
I0403 19:37:49.820319  9477 net.cpp:148] Top shape: 24 32 28 28 (602112)
I0403 19:37:49.820340  9477 net.cpp:156] Memory required for data: 727352352
I0403 19:37:49.820364  9477 layer_factory.hpp:77] Creating layer inception_3b/relu_5x5_reduce
I0403 19:37:49.820386  9477 net.cpp:91] Creating Layer inception_3b/relu_5x5_reduce
I0403 19:37:49.820406  9477 net.cpp:425] inception_3b/relu_5x5_reduce <- inception_3b/5x5_reduce
I0403 19:37:49.820428  9477 net.cpp:386] inception_3b/relu_5x5_reduce -> inception_3b/5x5_reduce (in-place)
I0403 19:37:49.820657  9477 net.cpp:141] Setting up inception_3b/relu_5x5_reduce
I0403 19:37:49.820704  9477 net.cpp:148] Top shape: 24 32 28 28 (602112)
I0403 19:37:49.820724  9477 net.cpp:156] Memory required for data: 729760800
I0403 19:37:49.820742  9477 layer_factory.hpp:77] Creating layer inception_3b/5x5
I0403 19:37:49.820770  9477 net.cpp:91] Creating Layer inception_3b/5x5
I0403 19:37:49.820792  9477 net.cpp:425] inception_3b/5x5 <- inception_3b/5x5_reduce
I0403 19:37:49.820818  9477 net.cpp:399] inception_3b/5x5 -> inception_3b/5x5
I0403 19:37:49.823204  9477 net.cpp:141] Setting up inception_3b/5x5
I0403 19:37:49.823240  9477 net.cpp:148] Top shape: 24 96 28 28 (1806336)
I0403 19:37:49.823259  9477 net.cpp:156] Memory required for data: 736986144
I0403 19:37:49.823282  9477 layer_factory.hpp:77] Creating layer inception_3b/relu_5x5
I0403 19:37:49.823308  9477 net.cpp:91] Creating Layer inception_3b/relu_5x5
I0403 19:37:49.823328  9477 net.cpp:425] inception_3b/relu_5x5 <- inception_3b/5x5
I0403 19:37:49.823350  9477 net.cpp:386] inception_3b/relu_5x5 -> inception_3b/5x5 (in-place)
I0403 19:37:49.823596  9477 net.cpp:141] Setting up inception_3b/relu_5x5
I0403 19:37:49.823629  9477 net.cpp:148] Top shape: 24 96 28 28 (1806336)
I0403 19:37:49.823648  9477 net.cpp:156] Memory required for data: 744211488
I0403 19:37:49.823667  9477 layer_factory.hpp:77] Creating layer inception_3b/pool
I0403 19:37:49.823688  9477 net.cpp:91] Creating Layer inception_3b/pool
I0403 19:37:49.823709  9477 net.cpp:425] inception_3b/pool <- inception_3a/output_inception_3a/output_0_split_3
I0403 19:37:49.823740  9477 net.cpp:399] inception_3b/pool -> inception_3b/pool
I0403 19:37:49.823808  9477 net.cpp:141] Setting up inception_3b/pool
I0403 19:37:49.823837  9477 net.cpp:148] Top shape: 24 256 28 28 (4816896)
I0403 19:37:49.823856  9477 net.cpp:156] Memory required for data: 763479072
I0403 19:37:49.823874  9477 layer_factory.hpp:77] Creating layer inception_3b/pool_proj
I0403 19:37:49.823902  9477 net.cpp:91] Creating Layer inception_3b/pool_proj
I0403 19:37:49.823923  9477 net.cpp:425] inception_3b/pool_proj <- inception_3b/pool
I0403 19:37:49.823950  9477 net.cpp:399] inception_3b/pool_proj -> inception_3b/pool_proj
I0403 19:37:49.825222  9477 net.cpp:141] Setting up inception_3b/pool_proj
I0403 19:37:49.825256  9477 net.cpp:148] Top shape: 24 64 28 28 (1204224)
I0403 19:37:49.825275  9477 net.cpp:156] Memory required for data: 768295968
I0403 19:37:49.825299  9477 layer_factory.hpp:77] Creating layer inception_3b/relu_pool_proj
I0403 19:37:49.825323  9477 net.cpp:91] Creating Layer inception_3b/relu_pool_proj
I0403 19:37:49.825343  9477 net.cpp:425] inception_3b/relu_pool_proj <- inception_3b/pool_proj
I0403 19:37:49.825366  9477 net.cpp:386] inception_3b/relu_pool_proj -> inception_3b/pool_proj (in-place)
I0403 19:37:49.825837  9477 net.cpp:141] Setting up inception_3b/relu_pool_proj
I0403 19:37:49.825870  9477 net.cpp:148] Top shape: 24 64 28 28 (1204224)
I0403 19:37:49.825889  9477 net.cpp:156] Memory required for data: 773112864
I0403 19:37:49.825907  9477 layer_factory.hpp:77] Creating layer inception_3b/output
I0403 19:37:49.825929  9477 net.cpp:91] Creating Layer inception_3b/output
I0403 19:37:49.825948  9477 net.cpp:425] inception_3b/output <- inception_3b/1x1
I0403 19:37:49.825969  9477 net.cpp:425] inception_3b/output <- inception_3b/3x3
I0403 19:37:49.825989  9477 net.cpp:425] inception_3b/output <- inception_3b/5x5
I0403 19:37:49.826010  9477 net.cpp:425] inception_3b/output <- inception_3b/pool_proj
I0403 19:37:49.826035  9477 net.cpp:399] inception_3b/output -> inception_3b/output
I0403 19:37:49.826087  9477 net.cpp:141] Setting up inception_3b/output
I0403 19:37:49.826119  9477 net.cpp:148] Top shape: 24 480 28 28 (9031680)
I0403 19:37:49.826138  9477 net.cpp:156] Memory required for data: 809239584
I0403 19:37:49.826158  9477 layer_factory.hpp:77] Creating layer pool3/3x3_s2
I0403 19:37:49.826179  9477 net.cpp:91] Creating Layer pool3/3x3_s2
I0403 19:37:49.826198  9477 net.cpp:425] pool3/3x3_s2 <- inception_3b/output
I0403 19:37:49.826220  9477 net.cpp:399] pool3/3x3_s2 -> pool3/3x3_s2
I0403 19:37:49.826308  9477 net.cpp:141] Setting up pool3/3x3_s2
I0403 19:37:49.826339  9477 net.cpp:148] Top shape: 24 480 14 14 (2257920)
I0403 19:37:49.826356  9477 net.cpp:156] Memory required for data: 818271264
I0403 19:37:49.826375  9477 layer_factory.hpp:77] Creating layer pool3/3x3_s2_pool3/3x3_s2_0_split
I0403 19:37:49.826396  9477 net.cpp:91] Creating Layer pool3/3x3_s2_pool3/3x3_s2_0_split
I0403 19:37:49.826414  9477 net.cpp:425] pool3/3x3_s2_pool3/3x3_s2_0_split <- pool3/3x3_s2
I0403 19:37:49.826438  9477 net.cpp:399] pool3/3x3_s2_pool3/3x3_s2_0_split -> pool3/3x3_s2_pool3/3x3_s2_0_split_0
I0403 19:37:49.826469  9477 net.cpp:399] pool3/3x3_s2_pool3/3x3_s2_0_split -> pool3/3x3_s2_pool3/3x3_s2_0_split_1
I0403 19:37:49.826495  9477 net.cpp:399] pool3/3x3_s2_pool3/3x3_s2_0_split -> pool3/3x3_s2_pool3/3x3_s2_0_split_2
I0403 19:37:49.826524  9477 net.cpp:399] pool3/3x3_s2_pool3/3x3_s2_0_split -> pool3/3x3_s2_pool3/3x3_s2_0_split_3
I0403 19:37:49.826618  9477 net.cpp:141] Setting up pool3/3x3_s2_pool3/3x3_s2_0_split
I0403 19:37:49.826647  9477 net.cpp:148] Top shape: 24 480 14 14 (2257920)
I0403 19:37:49.826668  9477 net.cpp:148] Top shape: 24 480 14 14 (2257920)
I0403 19:37:49.826688  9477 net.cpp:148] Top shape: 24 480 14 14 (2257920)
I0403 19:37:49.826706  9477 net.cpp:148] Top shape: 24 480 14 14 (2257920)
I0403 19:37:49.826725  9477 net.cpp:156] Memory required for data: 854397984
I0403 19:37:49.826742  9477 layer_factory.hpp:77] Creating layer inception_4a/1x1
I0403 19:37:49.826771  9477 net.cpp:91] Creating Layer inception_4a/1x1
I0403 19:37:49.826792  9477 net.cpp:425] inception_4a/1x1 <- pool3/3x3_s2_pool3/3x3_s2_0_split_0
I0403 19:37:49.826818  9477 net.cpp:399] inception_4a/1x1 -> inception_4a/1x1
I0403 19:37:49.828716  9477 net.cpp:141] Setting up inception_4a/1x1
I0403 19:37:49.828752  9477 net.cpp:148] Top shape: 24 192 14 14 (903168)
I0403 19:37:49.828771  9477 net.cpp:156] Memory required for data: 858010656
I0403 19:37:49.828794  9477 layer_factory.hpp:77] Creating layer inception_4a/relu_1x1
I0403 19:37:49.828819  9477 net.cpp:91] Creating Layer inception_4a/relu_1x1
I0403 19:37:49.828840  9477 net.cpp:425] inception_4a/relu_1x1 <- inception_4a/1x1
I0403 19:37:49.828860  9477 net.cpp:386] inception_4a/relu_1x1 -> inception_4a/1x1 (in-place)
I0403 19:37:49.829071  9477 net.cpp:141] Setting up inception_4a/relu_1x1
I0403 19:37:49.829102  9477 net.cpp:148] Top shape: 24 192 14 14 (903168)
I0403 19:37:49.829121  9477 net.cpp:156] Memory required for data: 861623328
I0403 19:37:49.829138  9477 layer_factory.hpp:77] Creating layer inception_4a/3x3_reduce
I0403 19:37:49.829169  9477 net.cpp:91] Creating Layer inception_4a/3x3_reduce
I0403 19:37:49.829192  9477 net.cpp:425] inception_4a/3x3_reduce <- pool3/3x3_s2_pool3/3x3_s2_0_split_1
I0403 19:37:49.829216  9477 net.cpp:399] inception_4a/3x3_reduce -> inception_4a/3x3_reduce
I0403 19:37:49.830752  9477 net.cpp:141] Setting up inception_4a/3x3_reduce
I0403 19:37:49.830786  9477 net.cpp:148] Top shape: 24 96 14 14 (451584)
I0403 19:37:49.830806  9477 net.cpp:156] Memory required for data: 863429664
I0403 19:37:49.830842  9477 layer_factory.hpp:77] Creating layer inception_4a/relu_3x3_reduce
I0403 19:37:49.830868  9477 net.cpp:91] Creating Layer inception_4a/relu_3x3_reduce
I0403 19:37:49.830888  9477 net.cpp:425] inception_4a/relu_3x3_reduce <- inception_4a/3x3_reduce
I0403 19:37:49.830917  9477 net.cpp:386] inception_4a/relu_3x3_reduce -> inception_4a/3x3_reduce (in-place)
I0403 19:37:49.831130  9477 net.cpp:141] Setting up inception_4a/relu_3x3_reduce
I0403 19:37:49.831161  9477 net.cpp:148] Top shape: 24 96 14 14 (451584)
I0403 19:37:49.831183  9477 net.cpp:156] Memory required for data: 865236000
I0403 19:37:49.831202  9477 layer_factory.hpp:77] Creating layer inception_4a/3x3
I0403 19:37:49.831228  9477 net.cpp:91] Creating Layer inception_4a/3x3
I0403 19:37:49.831250  9477 net.cpp:425] inception_4a/3x3 <- inception_4a/3x3_reduce
I0403 19:37:49.831276  9477 net.cpp:399] inception_4a/3x3 -> inception_4a/3x3
I0403 19:37:49.834558  9477 net.cpp:141] Setting up inception_4a/3x3
I0403 19:37:49.834594  9477 net.cpp:148] Top shape: 24 208 14 14 (978432)
I0403 19:37:49.834612  9477 net.cpp:156] Memory required for data: 869149728
I0403 19:37:49.834635  9477 layer_factory.hpp:77] Creating layer inception_4a/relu_3x3
I0403 19:37:49.834661  9477 net.cpp:91] Creating Layer inception_4a/relu_3x3
I0403 19:37:49.834681  9477 net.cpp:425] inception_4a/relu_3x3 <- inception_4a/3x3
I0403 19:37:49.834703  9477 net.cpp:386] inception_4a/relu_3x3 -> inception_4a/3x3 (in-place)
I0403 19:37:49.835041  9477 net.cpp:141] Setting up inception_4a/relu_3x3
I0403 19:37:49.835073  9477 net.cpp:148] Top shape: 24 208 14 14 (978432)
I0403 19:37:49.835093  9477 net.cpp:156] Memory required for data: 873063456
I0403 19:37:49.835110  9477 layer_factory.hpp:77] Creating layer inception_4a/5x5_reduce
I0403 19:37:49.835142  9477 net.cpp:91] Creating Layer inception_4a/5x5_reduce
I0403 19:37:49.835165  9477 net.cpp:425] inception_4a/5x5_reduce <- pool3/3x3_s2_pool3/3x3_s2_0_split_2
I0403 19:37:49.835192  9477 net.cpp:399] inception_4a/5x5_reduce -> inception_4a/5x5_reduce
I0403 19:37:49.836421  9477 net.cpp:141] Setting up inception_4a/5x5_reduce
I0403 19:37:49.836462  9477 net.cpp:148] Top shape: 24 16 14 14 (75264)
I0403 19:37:49.836485  9477 net.cpp:156] Memory required for data: 873364512
I0403 19:37:49.836508  9477 layer_factory.hpp:77] Creating layer inception_4a/relu_5x5_reduce
I0403 19:37:49.836530  9477 net.cpp:91] Creating Layer inception_4a/relu_5x5_reduce
I0403 19:37:49.836550  9477 net.cpp:425] inception_4a/relu_5x5_reduce <- inception_4a/5x5_reduce
I0403 19:37:49.836571  9477 net.cpp:386] inception_4a/relu_5x5_reduce -> inception_4a/5x5_reduce (in-place)
I0403 19:37:49.836791  9477 net.cpp:141] Setting up inception_4a/relu_5x5_reduce
I0403 19:37:49.836824  9477 net.cpp:148] Top shape: 24 16 14 14 (75264)
I0403 19:37:49.836843  9477 net.cpp:156] Memory required for data: 873665568
I0403 19:37:49.836861  9477 layer_factory.hpp:77] Creating layer inception_4a/5x5
I0403 19:37:49.836889  9477 net.cpp:91] Creating Layer inception_4a/5x5
I0403 19:37:49.836910  9477 net.cpp:425] inception_4a/5x5 <- inception_4a/5x5_reduce
I0403 19:37:49.836935  9477 net.cpp:399] inception_4a/5x5 -> inception_4a/5x5
I0403 19:37:49.838238  9477 net.cpp:141] Setting up inception_4a/5x5
I0403 19:37:49.838274  9477 net.cpp:148] Top shape: 24 48 14 14 (225792)
I0403 19:37:49.838294  9477 net.cpp:156] Memory required for data: 874568736
I0403 19:37:49.838316  9477 layer_factory.hpp:77] Creating layer inception_4a/relu_5x5
I0403 19:37:49.838340  9477 net.cpp:91] Creating Layer inception_4a/relu_5x5
I0403 19:37:49.838359  9477 net.cpp:425] inception_4a/relu_5x5 <- inception_4a/5x5
I0403 19:37:49.838383  9477 net.cpp:386] inception_4a/relu_5x5 -> inception_4a/5x5 (in-place)
I0403 19:37:49.838605  9477 net.cpp:141] Setting up inception_4a/relu_5x5
I0403 19:37:49.838637  9477 net.cpp:148] Top shape: 24 48 14 14 (225792)
I0403 19:37:49.838656  9477 net.cpp:156] Memory required for data: 875471904
I0403 19:37:49.838675  9477 layer_factory.hpp:77] Creating layer inception_4a/pool
I0403 19:37:49.838699  9477 net.cpp:91] Creating Layer inception_4a/pool
I0403 19:37:49.838719  9477 net.cpp:425] inception_4a/pool <- pool3/3x3_s2_pool3/3x3_s2_0_split_3
I0403 19:37:49.838742  9477 net.cpp:399] inception_4a/pool -> inception_4a/pool
I0403 19:37:49.838819  9477 net.cpp:141] Setting up inception_4a/pool
I0403 19:37:49.838847  9477 net.cpp:148] Top shape: 24 480 14 14 (2257920)
I0403 19:37:49.838865  9477 net.cpp:156] Memory required for data: 884503584
I0403 19:37:49.838883  9477 layer_factory.hpp:77] Creating layer inception_4a/pool_proj
I0403 19:37:49.838915  9477 net.cpp:91] Creating Layer inception_4a/pool_proj
I0403 19:37:49.838937  9477 net.cpp:425] inception_4a/pool_proj <- inception_4a/pool
I0403 19:37:49.838964  9477 net.cpp:399] inception_4a/pool_proj -> inception_4a/pool_proj
I0403 19:37:49.840371  9477 net.cpp:141] Setting up inception_4a/pool_proj
I0403 19:37:49.840406  9477 net.cpp:148] Top shape: 24 64 14 14 (301056)
I0403 19:37:49.840445  9477 net.cpp:156] Memory required for data: 885707808
I0403 19:37:49.840476  9477 layer_factory.hpp:77] Creating layer inception_4a/relu_pool_proj
I0403 19:37:49.840503  9477 net.cpp:91] Creating Layer inception_4a/relu_pool_proj
I0403 19:37:49.840526  9477 net.cpp:425] inception_4a/relu_pool_proj <- inception_4a/pool_proj
I0403 19:37:49.840548  9477 net.cpp:386] inception_4a/relu_pool_proj -> inception_4a/pool_proj (in-place)
I0403 19:37:49.840883  9477 net.cpp:141] Setting up inception_4a/relu_pool_proj
I0403 19:37:49.840915  9477 net.cpp:148] Top shape: 24 64 14 14 (301056)
I0403 19:37:49.840934  9477 net.cpp:156] Memory required for data: 886912032
I0403 19:37:49.840953  9477 layer_factory.hpp:77] Creating layer inception_4a/output
I0403 19:37:49.840975  9477 net.cpp:91] Creating Layer inception_4a/output
I0403 19:37:49.840996  9477 net.cpp:425] inception_4a/output <- inception_4a/1x1
I0403 19:37:49.841017  9477 net.cpp:425] inception_4a/output <- inception_4a/3x3
I0403 19:37:49.841037  9477 net.cpp:425] inception_4a/output <- inception_4a/5x5
I0403 19:37:49.841055  9477 net.cpp:425] inception_4a/output <- inception_4a/pool_proj
I0403 19:37:49.841078  9477 net.cpp:399] inception_4a/output -> inception_4a/output
I0403 19:37:49.841133  9477 net.cpp:141] Setting up inception_4a/output
I0403 19:37:49.841166  9477 net.cpp:148] Top shape: 24 512 14 14 (2408448)
I0403 19:37:49.841187  9477 net.cpp:156] Memory required for data: 896545824
I0403 19:37:49.841205  9477 layer_factory.hpp:77] Creating layer inception_4a/output_inception_4a/output_0_split
I0403 19:37:49.841228  9477 net.cpp:91] Creating Layer inception_4a/output_inception_4a/output_0_split
I0403 19:37:49.841246  9477 net.cpp:425] inception_4a/output_inception_4a/output_0_split <- inception_4a/output
I0403 19:37:49.841271  9477 net.cpp:399] inception_4a/output_inception_4a/output_0_split -> inception_4a/output_inception_4a/output_0_split_0
I0403 19:37:49.841298  9477 net.cpp:399] inception_4a/output_inception_4a/output_0_split -> inception_4a/output_inception_4a/output_0_split_1
I0403 19:37:49.841325  9477 net.cpp:399] inception_4a/output_inception_4a/output_0_split -> inception_4a/output_inception_4a/output_0_split_2
I0403 19:37:49.841351  9477 net.cpp:399] inception_4a/output_inception_4a/output_0_split -> inception_4a/output_inception_4a/output_0_split_3
I0403 19:37:49.841387  9477 net.cpp:399] inception_4a/output_inception_4a/output_0_split -> inception_4a/output_inception_4a/output_0_split_4
I0403 19:37:49.841505  9477 net.cpp:141] Setting up inception_4a/output_inception_4a/output_0_split
I0403 19:37:49.841536  9477 net.cpp:148] Top shape: 24 512 14 14 (2408448)
I0403 19:37:49.841557  9477 net.cpp:148] Top shape: 24 512 14 14 (2408448)
I0403 19:37:49.841578  9477 net.cpp:148] Top shape: 24 512 14 14 (2408448)
I0403 19:37:49.841598  9477 net.cpp:148] Top shape: 24 512 14 14 (2408448)
I0403 19:37:49.841619  9477 net.cpp:148] Top shape: 24 512 14 14 (2408448)
I0403 19:37:49.841635  9477 net.cpp:156] Memory required for data: 944714784
I0403 19:37:49.841653  9477 layer_factory.hpp:77] Creating layer loss1/ave_pool
I0403 19:37:49.841675  9477 net.cpp:91] Creating Layer loss1/ave_pool
I0403 19:37:49.841696  9477 net.cpp:425] loss1/ave_pool <- inception_4a/output_inception_4a/output_0_split_0
I0403 19:37:49.841717  9477 net.cpp:399] loss1/ave_pool -> loss1/ave_pool
I0403 19:37:49.841972  9477 net.cpp:141] Setting up loss1/ave_pool
I0403 19:37:49.842005  9477 net.cpp:148] Top shape: 24 512 4 4 (196608)
I0403 19:37:49.842023  9477 net.cpp:156] Memory required for data: 945501216
I0403 19:37:49.842041  9477 layer_factory.hpp:77] Creating layer loss1/conv
I0403 19:37:49.842070  9477 net.cpp:91] Creating Layer loss1/conv
I0403 19:37:49.842092  9477 net.cpp:425] loss1/conv <- loss1/ave_pool
I0403 19:37:49.842118  9477 net.cpp:399] loss1/conv -> loss1/conv
I0403 19:37:49.843834  9477 net.cpp:141] Setting up loss1/conv
I0403 19:37:49.843873  9477 net.cpp:148] Top shape: 24 128 4 4 (49152)
I0403 19:37:49.843894  9477 net.cpp:156] Memory required for data: 945697824
I0403 19:37:49.843935  9477 layer_factory.hpp:77] Creating layer loss1/relu_conv
I0403 19:37:49.843957  9477 net.cpp:91] Creating Layer loss1/relu_conv
I0403 19:37:49.843977  9477 net.cpp:425] loss1/relu_conv <- loss1/conv
I0403 19:37:49.843998  9477 net.cpp:386] loss1/relu_conv -> loss1/conv (in-place)
I0403 19:37:49.844336  9477 net.cpp:141] Setting up loss1/relu_conv
I0403 19:37:49.844372  9477 net.cpp:148] Top shape: 24 128 4 4 (49152)
I0403 19:37:49.844393  9477 net.cpp:156] Memory required for data: 945894432
I0403 19:37:49.844411  9477 layer_factory.hpp:77] Creating layer loss1/fc
I0403 19:37:49.844441  9477 net.cpp:91] Creating Layer loss1/fc
I0403 19:37:49.844468  9477 net.cpp:425] loss1/fc <- loss1/conv
I0403 19:37:49.844497  9477 net.cpp:399] loss1/fc -> loss1/fc
I0403 19:37:49.866441  9477 net.cpp:141] Setting up loss1/fc
I0403 19:37:49.866487  9477 net.cpp:148] Top shape: 24 1024 (24576)
I0403 19:37:49.866505  9477 net.cpp:156] Memory required for data: 945992736
I0403 19:37:49.866528  9477 layer_factory.hpp:77] Creating layer loss1/relu_fc
I0403 19:37:49.866554  9477 net.cpp:91] Creating Layer loss1/relu_fc
I0403 19:37:49.866575  9477 net.cpp:425] loss1/relu_fc <- loss1/fc
I0403 19:37:49.866597  9477 net.cpp:386] loss1/relu_fc -> loss1/fc (in-place)
I0403 19:37:49.866822  9477 net.cpp:141] Setting up loss1/relu_fc
I0403 19:37:49.866854  9477 net.cpp:148] Top shape: 24 1024 (24576)
I0403 19:37:49.866873  9477 net.cpp:156] Memory required for data: 946091040
I0403 19:37:49.866890  9477 layer_factory.hpp:77] Creating layer loss1/drop_fc
I0403 19:37:49.866925  9477 net.cpp:91] Creating Layer loss1/drop_fc
I0403 19:37:49.866946  9477 net.cpp:425] loss1/drop_fc <- loss1/fc
I0403 19:37:49.866968  9477 net.cpp:386] loss1/drop_fc -> loss1/fc (in-place)
I0403 19:37:49.867032  9477 net.cpp:141] Setting up loss1/drop_fc
I0403 19:37:49.867063  9477 net.cpp:148] Top shape: 24 1024 (24576)
I0403 19:37:49.867082  9477 net.cpp:156] Memory required for data: 946189344
I0403 19:37:49.867101  9477 layer_factory.hpp:77] Creating layer loss1/classifier_plantvillage
I0403 19:37:49.867125  9477 net.cpp:91] Creating Layer loss1/classifier_plantvillage
I0403 19:37:49.867144  9477 net.cpp:425] loss1/classifier_plantvillage <- loss1/fc
I0403 19:37:49.867172  9477 net.cpp:399] loss1/classifier_plantvillage -> loss1/classifier_plantvillage
I0403 19:37:49.868270  9477 net.cpp:141] Setting up loss1/classifier_plantvillage
I0403 19:37:49.868309  9477 net.cpp:148] Top shape: 24 38 (912)
I0403 19:37:49.868330  9477 net.cpp:156] Memory required for data: 946192992
I0403 19:37:49.868352  9477 layer_factory.hpp:77] Creating layer loss1/classifier_plantvillage_loss1/classifier_plantvillage_0_split
I0403 19:37:49.868374  9477 net.cpp:91] Creating Layer loss1/classifier_plantvillage_loss1/classifier_plantvillage_0_split
I0403 19:37:49.868394  9477 net.cpp:425] loss1/classifier_plantvillage_loss1/classifier_plantvillage_0_split <- loss1/classifier_plantvillage
I0403 19:37:49.868417  9477 net.cpp:399] loss1/classifier_plantvillage_loss1/classifier_plantvillage_0_split -> loss1/classifier_plantvillage_loss1/classifier_plantvillage_0_split_0
I0403 19:37:49.868441  9477 net.cpp:399] loss1/classifier_plantvillage_loss1/classifier_plantvillage_0_split -> loss1/classifier_plantvillage_loss1/classifier_plantvillage_0_split_1
I0403 19:37:49.868470  9477 net.cpp:399] loss1/classifier_plantvillage_loss1/classifier_plantvillage_0_split -> loss1/classifier_plantvillage_loss1/classifier_plantvillage_0_split_2
I0403 19:37:49.868553  9477 net.cpp:141] Setting up loss1/classifier_plantvillage_loss1/classifier_plantvillage_0_split
I0403 19:37:49.868583  9477 net.cpp:148] Top shape: 24 38 (912)
I0403 19:37:49.868605  9477 net.cpp:148] Top shape: 24 38 (912)
I0403 19:37:49.868625  9477 net.cpp:148] Top shape: 24 38 (912)
I0403 19:37:49.868643  9477 net.cpp:156] Memory required for data: 946203936
I0403 19:37:49.868661  9477 layer_factory.hpp:77] Creating layer inception_4b/1x1
I0403 19:37:49.868686  9477 net.cpp:91] Creating Layer inception_4b/1x1
I0403 19:37:49.868726  9477 net.cpp:425] inception_4b/1x1 <- inception_4a/output_inception_4a/output_0_split_1
I0403 19:37:49.868755  9477 net.cpp:399] inception_4b/1x1 -> inception_4b/1x1
I0403 19:37:49.870736  9477 net.cpp:141] Setting up inception_4b/1x1
I0403 19:37:49.870775  9477 net.cpp:148] Top shape: 24 160 14 14 (752640)
I0403 19:37:49.870797  9477 net.cpp:156] Memory required for data: 949214496
I0403 19:37:49.870820  9477 layer_factory.hpp:77] Creating layer inception_4b/relu_1x1
I0403 19:37:49.870843  9477 net.cpp:91] Creating Layer inception_4b/relu_1x1
I0403 19:37:49.870862  9477 net.cpp:425] inception_4b/relu_1x1 <- inception_4b/1x1
I0403 19:37:49.870884  9477 net.cpp:386] inception_4b/relu_1x1 -> inception_4b/1x1 (in-place)
I0403 19:37:49.871103  9477 net.cpp:141] Setting up inception_4b/relu_1x1
I0403 19:37:49.871137  9477 net.cpp:148] Top shape: 24 160 14 14 (752640)
I0403 19:37:49.871157  9477 net.cpp:156] Memory required for data: 952225056
I0403 19:37:49.871176  9477 layer_factory.hpp:77] Creating layer inception_4b/3x3_reduce
I0403 19:37:49.871206  9477 net.cpp:91] Creating Layer inception_4b/3x3_reduce
I0403 19:37:49.871227  9477 net.cpp:425] inception_4b/3x3_reduce <- inception_4a/output_inception_4a/output_0_split_2
I0403 19:37:49.871256  9477 net.cpp:399] inception_4b/3x3_reduce -> inception_4b/3x3_reduce
I0403 19:37:49.872897  9477 net.cpp:141] Setting up inception_4b/3x3_reduce
I0403 19:37:49.872936  9477 net.cpp:148] Top shape: 24 112 14 14 (526848)
I0403 19:37:49.872957  9477 net.cpp:156] Memory required for data: 954332448
I0403 19:37:49.872982  9477 layer_factory.hpp:77] Creating layer inception_4b/relu_3x3_reduce
I0403 19:37:49.873003  9477 net.cpp:91] Creating Layer inception_4b/relu_3x3_reduce
I0403 19:37:49.873023  9477 net.cpp:425] inception_4b/relu_3x3_reduce <- inception_4b/3x3_reduce
I0403 19:37:49.873050  9477 net.cpp:386] inception_4b/relu_3x3_reduce -> inception_4b/3x3_reduce (in-place)
I0403 19:37:49.873385  9477 net.cpp:141] Setting up inception_4b/relu_3x3_reduce
I0403 19:37:49.873421  9477 net.cpp:148] Top shape: 24 112 14 14 (526848)
I0403 19:37:49.873440  9477 net.cpp:156] Memory required for data: 956439840
I0403 19:37:49.873464  9477 layer_factory.hpp:77] Creating layer inception_4b/3x3
I0403 19:37:49.873494  9477 net.cpp:91] Creating Layer inception_4b/3x3
I0403 19:37:49.873517  9477 net.cpp:425] inception_4b/3x3 <- inception_4b/3x3_reduce
I0403 19:37:49.873540  9477 net.cpp:399] inception_4b/3x3 -> inception_4b/3x3
I0403 19:37:49.877154  9477 net.cpp:141] Setting up inception_4b/3x3
I0403 19:37:49.877190  9477 net.cpp:148] Top shape: 24 224 14 14 (1053696)
I0403 19:37:49.877210  9477 net.cpp:156] Memory required for data: 960654624
I0403 19:37:49.877233  9477 layer_factory.hpp:77] Creating layer inception_4b/relu_3x3
I0403 19:37:49.877257  9477 net.cpp:91] Creating Layer inception_4b/relu_3x3
I0403 19:37:49.877279  9477 net.cpp:425] inception_4b/relu_3x3 <- inception_4b/3x3
I0403 19:37:49.877301  9477 net.cpp:386] inception_4b/relu_3x3 -> inception_4b/3x3 (in-place)
I0403 19:37:49.877528  9477 net.cpp:141] Setting up inception_4b/relu_3x3
I0403 19:37:49.877560  9477 net.cpp:148] Top shape: 24 224 14 14 (1053696)
I0403 19:37:49.877578  9477 net.cpp:156] Memory required for data: 964869408
I0403 19:37:49.877598  9477 layer_factory.hpp:77] Creating layer inception_4b/5x5_reduce
I0403 19:37:49.877632  9477 net.cpp:91] Creating Layer inception_4b/5x5_reduce
I0403 19:37:49.877655  9477 net.cpp:425] inception_4b/5x5_reduce <- inception_4a/output_inception_4a/output_0_split_3
I0403 19:37:49.877679  9477 net.cpp:399] inception_4b/5x5_reduce -> inception_4b/5x5_reduce
I0403 19:37:49.878998  9477 net.cpp:141] Setting up inception_4b/5x5_reduce
I0403 19:37:49.879034  9477 net.cpp:148] Top shape: 24 24 14 14 (112896)
I0403 19:37:49.879055  9477 net.cpp:156] Memory required for data: 965320992
I0403 19:37:49.879078  9477 layer_factory.hpp:77] Creating layer inception_4b/relu_5x5_reduce
I0403 19:37:49.879101  9477 net.cpp:91] Creating Layer inception_4b/relu_5x5_reduce
I0403 19:37:49.879138  9477 net.cpp:425] inception_4b/relu_5x5_reduce <- inception_4b/5x5_reduce
I0403 19:37:49.879173  9477 net.cpp:386] inception_4b/relu_5x5_reduce -> inception_4b/5x5_reduce (in-place)
I0403 19:37:49.879395  9477 net.cpp:141] Setting up inception_4b/relu_5x5_reduce
I0403 19:37:49.879426  9477 net.cpp:148] Top shape: 24 24 14 14 (112896)
I0403 19:37:49.879444  9477 net.cpp:156] Memory required for data: 965772576
I0403 19:37:49.879467  9477 layer_factory.hpp:77] Creating layer inception_4b/5x5
I0403 19:37:49.879498  9477 net.cpp:91] Creating Layer inception_4b/5x5
I0403 19:37:49.879521  9477 net.cpp:425] inception_4b/5x5 <- inception_4b/5x5_reduce
I0403 19:37:49.879547  9477 net.cpp:399] inception_4b/5x5 -> inception_4b/5x5
I0403 19:37:49.881036  9477 net.cpp:141] Setting up inception_4b/5x5
I0403 19:37:49.881073  9477 net.cpp:148] Top shape: 24 64 14 14 (301056)
I0403 19:37:49.881093  9477 net.cpp:156] Memory required for data: 966976800
I0403 19:37:49.881116  9477 layer_factory.hpp:77] Creating layer inception_4b/relu_5x5
I0403 19:37:49.881139  9477 net.cpp:91] Creating Layer inception_4b/relu_5x5
I0403 19:37:49.881158  9477 net.cpp:425] inception_4b/relu_5x5 <- inception_4b/5x5
I0403 19:37:49.881181  9477 net.cpp:386] inception_4b/relu_5x5 -> inception_4b/5x5 (in-place)
I0403 19:37:49.881526  9477 net.cpp:141] Setting up inception_4b/relu_5x5
I0403 19:37:49.881562  9477 net.cpp:148] Top shape: 24 64 14 14 (301056)
I0403 19:37:49.881582  9477 net.cpp:156] Memory required for data: 968181024
I0403 19:37:49.881600  9477 layer_factory.hpp:77] Creating layer inception_4b/pool
I0403 19:37:49.881623  9477 net.cpp:91] Creating Layer inception_4b/pool
I0403 19:37:49.881644  9477 net.cpp:425] inception_4b/pool <- inception_4a/output_inception_4a/output_0_split_4
I0403 19:37:49.881667  9477 net.cpp:399] inception_4b/pool -> inception_4b/pool
I0403 19:37:49.881747  9477 net.cpp:141] Setting up inception_4b/pool
I0403 19:37:49.881777  9477 net.cpp:148] Top shape: 24 512 14 14 (2408448)
I0403 19:37:49.881794  9477 net.cpp:156] Memory required for data: 977814816
I0403 19:37:49.881814  9477 layer_factory.hpp:77] Creating layer inception_4b/pool_proj
I0403 19:37:49.881844  9477 net.cpp:91] Creating Layer inception_4b/pool_proj
I0403 19:37:49.881866  9477 net.cpp:425] inception_4b/pool_proj <- inception_4b/pool
I0403 19:37:49.881894  9477 net.cpp:399] inception_4b/pool_proj -> inception_4b/pool_proj
I0403 19:37:49.883399  9477 net.cpp:141] Setting up inception_4b/pool_proj
I0403 19:37:49.883438  9477 net.cpp:148] Top shape: 24 64 14 14 (301056)
I0403 19:37:49.883465  9477 net.cpp:156] Memory required for data: 979019040
I0403 19:37:49.883491  9477 layer_factory.hpp:77] Creating layer inception_4b/relu_pool_proj
I0403 19:37:49.883514  9477 net.cpp:91] Creating Layer inception_4b/relu_pool_proj
I0403 19:37:49.883534  9477 net.cpp:425] inception_4b/relu_pool_proj <- inception_4b/pool_proj
I0403 19:37:49.883556  9477 net.cpp:386] inception_4b/relu_pool_proj -> inception_4b/pool_proj (in-place)
I0403 19:37:49.883780  9477 net.cpp:141] Setting up inception_4b/relu_pool_proj
I0403 19:37:49.883811  9477 net.cpp:148] Top shape: 24 64 14 14 (301056)
I0403 19:37:49.883831  9477 net.cpp:156] Memory required for data: 980223264
I0403 19:37:49.883848  9477 layer_factory.hpp:77] Creating layer inception_4b/output
I0403 19:37:49.883872  9477 net.cpp:91] Creating Layer inception_4b/output
I0403 19:37:49.883890  9477 net.cpp:425] inception_4b/output <- inception_4b/1x1
I0403 19:37:49.883911  9477 net.cpp:425] inception_4b/output <- inception_4b/3x3
I0403 19:37:49.883931  9477 net.cpp:425] inception_4b/output <- inception_4b/5x5
I0403 19:37:49.883950  9477 net.cpp:425] inception_4b/output <- inception_4b/pool_proj
I0403 19:37:49.883975  9477 net.cpp:399] inception_4b/output -> inception_4b/output
I0403 19:37:49.884030  9477 net.cpp:141] Setting up inception_4b/output
I0403 19:37:49.884063  9477 net.cpp:148] Top shape: 24 512 14 14 (2408448)
I0403 19:37:49.884083  9477 net.cpp:156] Memory required for data: 989857056
I0403 19:37:49.884119  9477 layer_factory.hpp:77] Creating layer inception_4b/output_inception_4b/output_0_split
I0403 19:37:49.884141  9477 net.cpp:91] Creating Layer inception_4b/output_inception_4b/output_0_split
I0403 19:37:49.884161  9477 net.cpp:425] inception_4b/output_inception_4b/output_0_split <- inception_4b/output
I0403 19:37:49.884186  9477 net.cpp:399] inception_4b/output_inception_4b/output_0_split -> inception_4b/output_inception_4b/output_0_split_0
I0403 19:37:49.884212  9477 net.cpp:399] inception_4b/output_inception_4b/output_0_split -> inception_4b/output_inception_4b/output_0_split_1
I0403 19:37:49.884238  9477 net.cpp:399] inception_4b/output_inception_4b/output_0_split -> inception_4b/output_inception_4b/output_0_split_2
I0403 19:37:49.884263  9477 net.cpp:399] inception_4b/output_inception_4b/output_0_split -> inception_4b/output_inception_4b/output_0_split_3
I0403 19:37:49.884361  9477 net.cpp:141] Setting up inception_4b/output_inception_4b/output_0_split
I0403 19:37:49.884392  9477 net.cpp:148] Top shape: 24 512 14 14 (2408448)
I0403 19:37:49.884412  9477 net.cpp:148] Top shape: 24 512 14 14 (2408448)
I0403 19:37:49.884431  9477 net.cpp:148] Top shape: 24 512 14 14 (2408448)
I0403 19:37:49.884451  9477 net.cpp:148] Top shape: 24 512 14 14 (2408448)
I0403 19:37:49.884474  9477 net.cpp:156] Memory required for data: 1028392224
I0403 19:37:49.884493  9477 layer_factory.hpp:77] Creating layer inception_4c/1x1
I0403 19:37:49.884521  9477 net.cpp:91] Creating Layer inception_4c/1x1
I0403 19:37:49.884541  9477 net.cpp:425] inception_4c/1x1 <- inception_4b/output_inception_4b/output_0_split_0
I0403 19:37:49.884567  9477 net.cpp:399] inception_4c/1x1 -> inception_4c/1x1
I0403 19:37:49.886301  9477 net.cpp:141] Setting up inception_4c/1x1
I0403 19:37:49.886335  9477 net.cpp:148] Top shape: 24 128 14 14 (602112)
I0403 19:37:49.886355  9477 net.cpp:156] Memory required for data: 1030800672
I0403 19:37:49.886379  9477 layer_factory.hpp:77] Creating layer inception_4c/relu_1x1
I0403 19:37:49.886409  9477 net.cpp:91] Creating Layer inception_4c/relu_1x1
I0403 19:37:49.886430  9477 net.cpp:425] inception_4c/relu_1x1 <- inception_4c/1x1
I0403 19:37:49.886452  9477 net.cpp:386] inception_4c/relu_1x1 -> inception_4c/1x1 (in-place)
I0403 19:37:49.886679  9477 net.cpp:141] Setting up inception_4c/relu_1x1
I0403 19:37:49.886711  9477 net.cpp:148] Top shape: 24 128 14 14 (602112)
I0403 19:37:49.886730  9477 net.cpp:156] Memory required for data: 1033209120
I0403 19:37:49.886749  9477 layer_factory.hpp:77] Creating layer inception_4c/3x3_reduce
I0403 19:37:49.886777  9477 net.cpp:91] Creating Layer inception_4c/3x3_reduce
I0403 19:37:49.886801  9477 net.cpp:425] inception_4c/3x3_reduce <- inception_4b/output_inception_4b/output_0_split_1
I0403 19:37:49.886826  9477 net.cpp:399] inception_4c/3x3_reduce -> inception_4c/3x3_reduce
I0403 19:37:49.889171  9477 net.cpp:141] Setting up inception_4c/3x3_reduce
I0403 19:37:49.889209  9477 net.cpp:148] Top shape: 24 128 14 14 (602112)
I0403 19:37:49.889228  9477 net.cpp:156] Memory required for data: 1035617568
I0403 19:37:49.889251  9477 layer_factory.hpp:77] Creating layer inception_4c/relu_3x3_reduce
I0403 19:37:49.889277  9477 net.cpp:91] Creating Layer inception_4c/relu_3x3_reduce
I0403 19:37:49.889297  9477 net.cpp:425] inception_4c/relu_3x3_reduce <- inception_4c/3x3_reduce
I0403 19:37:49.889319  9477 net.cpp:386] inception_4c/relu_3x3_reduce -> inception_4c/3x3_reduce (in-place)
I0403 19:37:49.889667  9477 net.cpp:141] Setting up inception_4c/relu_3x3_reduce
I0403 19:37:49.889701  9477 net.cpp:148] Top shape: 24 128 14 14 (602112)
I0403 19:37:49.889719  9477 net.cpp:156] Memory required for data: 1038026016
I0403 19:37:49.889739  9477 layer_factory.hpp:77] Creating layer inception_4c/3x3
I0403 19:37:49.889772  9477 net.cpp:91] Creating Layer inception_4c/3x3
I0403 19:37:49.889796  9477 net.cpp:425] inception_4c/3x3 <- inception_4c/3x3_reduce
I0403 19:37:49.889819  9477 net.cpp:399] inception_4c/3x3 -> inception_4c/3x3
I0403 19:37:49.894215  9477 net.cpp:141] Setting up inception_4c/3x3
I0403 19:37:49.894270  9477 net.cpp:148] Top shape: 24 256 14 14 (1204224)
I0403 19:37:49.894292  9477 net.cpp:156] Memory required for data: 1042842912
I0403 19:37:49.894332  9477 layer_factory.hpp:77] Creating layer inception_4c/relu_3x3
I0403 19:37:49.894358  9477 net.cpp:91] Creating Layer inception_4c/relu_3x3
I0403 19:37:49.894379  9477 net.cpp:425] inception_4c/relu_3x3 <- inception_4c/3x3
I0403 19:37:49.894402  9477 net.cpp:386] inception_4c/relu_3x3 -> inception_4c/3x3 (in-place)
I0403 19:37:49.894630  9477 net.cpp:141] Setting up inception_4c/relu_3x3
I0403 19:37:49.894665  9477 net.cpp:148] Top shape: 24 256 14 14 (1204224)
I0403 19:37:49.894685  9477 net.cpp:156] Memory required for data: 1047659808
I0403 19:37:49.894703  9477 layer_factory.hpp:77] Creating layer inception_4c/5x5_reduce
I0403 19:37:49.894732  9477 net.cpp:91] Creating Layer inception_4c/5x5_reduce
I0403 19:37:49.894754  9477 net.cpp:425] inception_4c/5x5_reduce <- inception_4b/output_inception_4b/output_0_split_2
I0403 19:37:49.894779  9477 net.cpp:399] inception_4c/5x5_reduce -> inception_4c/5x5_reduce
I0403 19:37:49.896107  9477 net.cpp:141] Setting up inception_4c/5x5_reduce
I0403 19:37:49.896144  9477 net.cpp:148] Top shape: 24 24 14 14 (112896)
I0403 19:37:49.896165  9477 net.cpp:156] Memory required for data: 1048111392
I0403 19:37:49.896190  9477 layer_factory.hpp:77] Creating layer inception_4c/relu_5x5_reduce
I0403 19:37:49.896214  9477 net.cpp:91] Creating Layer inception_4c/relu_5x5_reduce
I0403 19:37:49.896234  9477 net.cpp:425] inception_4c/relu_5x5_reduce <- inception_4c/5x5_reduce
I0403 19:37:49.896261  9477 net.cpp:386] inception_4c/relu_5x5_reduce -> inception_4c/5x5_reduce (in-place)
I0403 19:37:49.896492  9477 net.cpp:141] Setting up inception_4c/relu_5x5_reduce
I0403 19:37:49.896523  9477 net.cpp:148] Top shape: 24 24 14 14 (112896)
I0403 19:37:49.896543  9477 net.cpp:156] Memory required for data: 1048562976
I0403 19:37:49.896560  9477 layer_factory.hpp:77] Creating layer inception_4c/5x5
I0403 19:37:49.896589  9477 net.cpp:91] Creating Layer inception_4c/5x5
I0403 19:37:49.896610  9477 net.cpp:425] inception_4c/5x5 <- inception_4c/5x5_reduce
I0403 19:37:49.896636  9477 net.cpp:399] inception_4c/5x5 -> inception_4c/5x5
I0403 19:37:49.898140  9477 net.cpp:141] Setting up inception_4c/5x5
I0403 19:37:49.898175  9477 net.cpp:148] Top shape: 24 64 14 14 (301056)
I0403 19:37:49.898196  9477 net.cpp:156] Memory required for data: 1049767200
I0403 19:37:49.898219  9477 layer_factory.hpp:77] Creating layer inception_4c/relu_5x5
I0403 19:37:49.898241  9477 net.cpp:91] Creating Layer inception_4c/relu_5x5
I0403 19:37:49.898263  9477 net.cpp:425] inception_4c/relu_5x5 <- inception_4c/5x5
I0403 19:37:49.898285  9477 net.cpp:386] inception_4c/relu_5x5 -> inception_4c/5x5 (in-place)
I0403 19:37:49.898638  9477 net.cpp:141] Setting up inception_4c/relu_5x5
I0403 19:37:49.898670  9477 net.cpp:148] Top shape: 24 64 14 14 (301056)
I0403 19:37:49.898689  9477 net.cpp:156] Memory required for data: 1050971424
I0403 19:37:49.898708  9477 layer_factory.hpp:77] Creating layer inception_4c/pool
I0403 19:37:49.898730  9477 net.cpp:91] Creating Layer inception_4c/pool
I0403 19:37:49.898749  9477 net.cpp:425] inception_4c/pool <- inception_4b/output_inception_4b/output_0_split_3
I0403 19:37:49.898775  9477 net.cpp:399] inception_4c/pool -> inception_4c/pool
I0403 19:37:49.898856  9477 net.cpp:141] Setting up inception_4c/pool
I0403 19:37:49.898890  9477 net.cpp:148] Top shape: 24 512 14 14 (2408448)
I0403 19:37:49.898910  9477 net.cpp:156] Memory required for data: 1060605216
I0403 19:37:49.898926  9477 layer_factory.hpp:77] Creating layer inception_4c/pool_proj
I0403 19:37:49.898954  9477 net.cpp:91] Creating Layer inception_4c/pool_proj
I0403 19:37:49.898977  9477 net.cpp:425] inception_4c/pool_proj <- inception_4c/pool
I0403 19:37:49.898999  9477 net.cpp:399] inception_4c/pool_proj -> inception_4c/pool_proj
I0403 19:37:49.900496  9477 net.cpp:141] Setting up inception_4c/pool_proj
I0403 19:37:49.900535  9477 net.cpp:148] Top shape: 24 64 14 14 (301056)
I0403 19:37:49.900571  9477 net.cpp:156] Memory required for data: 1061809440
I0403 19:37:49.900595  9477 layer_factory.hpp:77] Creating layer inception_4c/relu_pool_proj
I0403 19:37:49.900619  9477 net.cpp:91] Creating Layer inception_4c/relu_pool_proj
I0403 19:37:49.900640  9477 net.cpp:425] inception_4c/relu_pool_proj <- inception_4c/pool_proj
I0403 19:37:49.900661  9477 net.cpp:386] inception_4c/relu_pool_proj -> inception_4c/pool_proj (in-place)
I0403 19:37:49.900892  9477 net.cpp:141] Setting up inception_4c/relu_pool_proj
I0403 19:37:49.900924  9477 net.cpp:148] Top shape: 24 64 14 14 (301056)
I0403 19:37:49.900943  9477 net.cpp:156] Memory required for data: 1063013664
I0403 19:37:49.900960  9477 layer_factory.hpp:77] Creating layer inception_4c/output
I0403 19:37:49.900982  9477 net.cpp:91] Creating Layer inception_4c/output
I0403 19:37:49.901001  9477 net.cpp:425] inception_4c/output <- inception_4c/1x1
I0403 19:37:49.901022  9477 net.cpp:425] inception_4c/output <- inception_4c/3x3
I0403 19:37:49.901041  9477 net.cpp:425] inception_4c/output <- inception_4c/5x5
I0403 19:37:49.901062  9477 net.cpp:425] inception_4c/output <- inception_4c/pool_proj
I0403 19:37:49.901085  9477 net.cpp:399] inception_4c/output -> inception_4c/output
I0403 19:37:49.901144  9477 net.cpp:141] Setting up inception_4c/output
I0403 19:37:49.901175  9477 net.cpp:148] Top shape: 24 512 14 14 (2408448)
I0403 19:37:49.901197  9477 net.cpp:156] Memory required for data: 1072647456
I0403 19:37:49.901216  9477 layer_factory.hpp:77] Creating layer inception_4c/output_inception_4c/output_0_split
I0403 19:37:49.901237  9477 net.cpp:91] Creating Layer inception_4c/output_inception_4c/output_0_split
I0403 19:37:49.901257  9477 net.cpp:425] inception_4c/output_inception_4c/output_0_split <- inception_4c/output
I0403 19:37:49.901279  9477 net.cpp:399] inception_4c/output_inception_4c/output_0_split -> inception_4c/output_inception_4c/output_0_split_0
I0403 19:37:49.901309  9477 net.cpp:399] inception_4c/output_inception_4c/output_0_split -> inception_4c/output_inception_4c/output_0_split_1
I0403 19:37:49.901334  9477 net.cpp:399] inception_4c/output_inception_4c/output_0_split -> inception_4c/output_inception_4c/output_0_split_2
I0403 19:37:49.901358  9477 net.cpp:399] inception_4c/output_inception_4c/output_0_split -> inception_4c/output_inception_4c/output_0_split_3
I0403 19:37:49.901469  9477 net.cpp:141] Setting up inception_4c/output_inception_4c/output_0_split
I0403 19:37:49.901499  9477 net.cpp:148] Top shape: 24 512 14 14 (2408448)
I0403 19:37:49.901520  9477 net.cpp:148] Top shape: 24 512 14 14 (2408448)
I0403 19:37:49.901540  9477 net.cpp:148] Top shape: 24 512 14 14 (2408448)
I0403 19:37:49.901561  9477 net.cpp:148] Top shape: 24 512 14 14 (2408448)
I0403 19:37:49.901577  9477 net.cpp:156] Memory required for data: 1111182624
I0403 19:37:49.901597  9477 layer_factory.hpp:77] Creating layer inception_4d/1x1
I0403 19:37:49.901624  9477 net.cpp:91] Creating Layer inception_4d/1x1
I0403 19:37:49.901645  9477 net.cpp:425] inception_4d/1x1 <- inception_4c/output_inception_4c/output_0_split_0
I0403 19:37:49.901670  9477 net.cpp:399] inception_4d/1x1 -> inception_4d/1x1
I0403 19:37:49.903373  9477 net.cpp:141] Setting up inception_4d/1x1
I0403 19:37:49.903409  9477 net.cpp:148] Top shape: 24 112 14 14 (526848)
I0403 19:37:49.903427  9477 net.cpp:156] Memory required for data: 1113290016
I0403 19:37:49.903450  9477 layer_factory.hpp:77] Creating layer inception_4d/relu_1x1
I0403 19:37:49.903482  9477 net.cpp:91] Creating Layer inception_4d/relu_1x1
I0403 19:37:49.903503  9477 net.cpp:425] inception_4d/relu_1x1 <- inception_4d/1x1
I0403 19:37:49.903529  9477 net.cpp:386] inception_4d/relu_1x1 -> inception_4d/1x1 (in-place)
I0403 19:37:49.903758  9477 net.cpp:141] Setting up inception_4d/relu_1x1
I0403 19:37:49.903791  9477 net.cpp:148] Top shape: 24 112 14 14 (526848)
I0403 19:37:49.903811  9477 net.cpp:156] Memory required for data: 1115397408
I0403 19:37:49.903831  9477 layer_factory.hpp:77] Creating layer inception_4d/3x3_reduce
I0403 19:37:49.903878  9477 net.cpp:91] Creating Layer inception_4d/3x3_reduce
I0403 19:37:49.903901  9477 net.cpp:425] inception_4d/3x3_reduce <- inception_4c/output_inception_4c/output_0_split_1
I0403 19:37:49.903925  9477 net.cpp:399] inception_4d/3x3_reduce -> inception_4d/3x3_reduce
I0403 19:37:49.905776  9477 net.cpp:141] Setting up inception_4d/3x3_reduce
I0403 19:37:49.905810  9477 net.cpp:148] Top shape: 24 144 14 14 (677376)
I0403 19:37:49.905829  9477 net.cpp:156] Memory required for data: 1118106912
I0403 19:37:49.905853  9477 layer_factory.hpp:77] Creating layer inception_4d/relu_3x3_reduce
I0403 19:37:49.905874  9477 net.cpp:91] Creating Layer inception_4d/relu_3x3_reduce
I0403 19:37:49.905894  9477 net.cpp:425] inception_4d/relu_3x3_reduce <- inception_4d/3x3_reduce
I0403 19:37:49.905921  9477 net.cpp:386] inception_4d/relu_3x3_reduce -> inception_4d/3x3_reduce (in-place)
I0403 19:37:49.906271  9477 net.cpp:141] Setting up inception_4d/relu_3x3_reduce
I0403 19:37:49.906304  9477 net.cpp:148] Top shape: 24 144 14 14 (677376)
I0403 19:37:49.906323  9477 net.cpp:156] Memory required for data: 1120816416
I0403 19:37:49.906342  9477 layer_factory.hpp:77] Creating layer inception_4d/3x3
I0403 19:37:49.906370  9477 net.cpp:91] Creating Layer inception_4d/3x3
I0403 19:37:49.906393  9477 net.cpp:425] inception_4d/3x3 <- inception_4d/3x3_reduce
I0403 19:37:49.906419  9477 net.cpp:399] inception_4d/3x3 -> inception_4d/3x3
I0403 19:37:49.911691  9477 net.cpp:141] Setting up inception_4d/3x3
I0403 19:37:49.911727  9477 net.cpp:148] Top shape: 24 288 14 14 (1354752)
I0403 19:37:49.911746  9477 net.cpp:156] Memory required for data: 1126235424
I0403 19:37:49.911769  9477 layer_factory.hpp:77] Creating layer inception_4d/relu_3x3
I0403 19:37:49.911794  9477 net.cpp:91] Creating Layer inception_4d/relu_3x3
I0403 19:37:49.911816  9477 net.cpp:425] inception_4d/relu_3x3 <- inception_4d/3x3
I0403 19:37:49.911839  9477 net.cpp:386] inception_4d/relu_3x3 -> inception_4d/3x3 (in-place)
I0403 19:37:49.912066  9477 net.cpp:141] Setting up inception_4d/relu_3x3
I0403 19:37:49.912101  9477 net.cpp:148] Top shape: 24 288 14 14 (1354752)
I0403 19:37:49.912130  9477 net.cpp:156] Memory required for data: 1131654432
I0403 19:37:49.912148  9477 layer_factory.hpp:77] Creating layer inception_4d/5x5_reduce
I0403 19:37:49.912176  9477 net.cpp:91] Creating Layer inception_4d/5x5_reduce
I0403 19:37:49.912199  9477 net.cpp:425] inception_4d/5x5_reduce <- inception_4c/output_inception_4c/output_0_split_2
I0403 19:37:49.912223  9477 net.cpp:399] inception_4d/5x5_reduce -> inception_4d/5x5_reduce
I0403 19:37:49.913646  9477 net.cpp:141] Setting up inception_4d/5x5_reduce
I0403 19:37:49.913682  9477 net.cpp:148] Top shape: 24 32 14 14 (150528)
I0403 19:37:49.913702  9477 net.cpp:156] Memory required for data: 1132256544
I0403 19:37:49.913725  9477 layer_factory.hpp:77] Creating layer inception_4d/relu_5x5_reduce
I0403 19:37:49.913750  9477 net.cpp:91] Creating Layer inception_4d/relu_5x5_reduce
I0403 19:37:49.913772  9477 net.cpp:425] inception_4d/relu_5x5_reduce <- inception_4d/5x5_reduce
I0403 19:37:49.913795  9477 net.cpp:386] inception_4d/relu_5x5_reduce -> inception_4d/5x5_reduce (in-place)
I0403 19:37:49.914031  9477 net.cpp:141] Setting up inception_4d/relu_5x5_reduce
I0403 19:37:49.914064  9477 net.cpp:148] Top shape: 24 32 14 14 (150528)
I0403 19:37:49.914083  9477 net.cpp:156] Memory required for data: 1132858656
I0403 19:37:49.914103  9477 layer_factory.hpp:77] Creating layer inception_4d/5x5
I0403 19:37:49.914131  9477 net.cpp:91] Creating Layer inception_4d/5x5
I0403 19:37:49.914155  9477 net.cpp:425] inception_4d/5x5 <- inception_4d/5x5_reduce
I0403 19:37:49.914178  9477 net.cpp:399] inception_4d/5x5 -> inception_4d/5x5
I0403 19:37:49.915979  9477 net.cpp:141] Setting up inception_4d/5x5
I0403 19:37:49.916018  9477 net.cpp:148] Top shape: 24 64 14 14 (301056)
I0403 19:37:49.916038  9477 net.cpp:156] Memory required for data: 1134062880
I0403 19:37:49.916062  9477 layer_factory.hpp:77] Creating layer inception_4d/relu_5x5
I0403 19:37:49.916102  9477 net.cpp:91] Creating Layer inception_4d/relu_5x5
I0403 19:37:49.916123  9477 net.cpp:425] inception_4d/relu_5x5 <- inception_4d/5x5
I0403 19:37:49.916147  9477 net.cpp:386] inception_4d/relu_5x5 -> inception_4d/5x5 (in-place)
I0403 19:37:49.916524  9477 net.cpp:141] Setting up inception_4d/relu_5x5
I0403 19:37:49.916560  9477 net.cpp:148] Top shape: 24 64 14 14 (301056)
I0403 19:37:49.916580  9477 net.cpp:156] Memory required for data: 1135267104
I0403 19:37:49.916599  9477 layer_factory.hpp:77] Creating layer inception_4d/pool
I0403 19:37:49.916621  9477 net.cpp:91] Creating Layer inception_4d/pool
I0403 19:37:49.916642  9477 net.cpp:425] inception_4d/pool <- inception_4c/output_inception_4c/output_0_split_3
I0403 19:37:49.916668  9477 net.cpp:399] inception_4d/pool -> inception_4d/pool
I0403 19:37:49.916750  9477 net.cpp:141] Setting up inception_4d/pool
I0403 19:37:49.916785  9477 net.cpp:148] Top shape: 24 512 14 14 (2408448)
I0403 19:37:49.916802  9477 net.cpp:156] Memory required for data: 1144900896
I0403 19:37:49.916821  9477 layer_factory.hpp:77] Creating layer inception_4d/pool_proj
I0403 19:37:49.916847  9477 net.cpp:91] Creating Layer inception_4d/pool_proj
I0403 19:37:49.916868  9477 net.cpp:425] inception_4d/pool_proj <- inception_4d/pool
I0403 19:37:49.916894  9477 net.cpp:399] inception_4d/pool_proj -> inception_4d/pool_proj
I0403 19:37:49.919023  9477 net.cpp:141] Setting up inception_4d/pool_proj
I0403 19:37:49.919059  9477 net.cpp:148] Top shape: 24 64 14 14 (301056)
I0403 19:37:49.919078  9477 net.cpp:156] Memory required for data: 1146105120
I0403 19:37:49.919102  9477 layer_factory.hpp:77] Creating layer inception_4d/relu_pool_proj
I0403 19:37:49.919128  9477 net.cpp:91] Creating Layer inception_4d/relu_pool_proj
I0403 19:37:49.919148  9477 net.cpp:425] inception_4d/relu_pool_proj <- inception_4d/pool_proj
I0403 19:37:49.919170  9477 net.cpp:386] inception_4d/relu_pool_proj -> inception_4d/pool_proj (in-place)
I0403 19:37:49.919402  9477 net.cpp:141] Setting up inception_4d/relu_pool_proj
I0403 19:37:49.919437  9477 net.cpp:148] Top shape: 24 64 14 14 (301056)
I0403 19:37:49.919456  9477 net.cpp:156] Memory required for data: 1147309344
I0403 19:37:49.919484  9477 layer_factory.hpp:77] Creating layer inception_4d/output
I0403 19:37:49.919507  9477 net.cpp:91] Creating Layer inception_4d/output
I0403 19:37:49.919526  9477 net.cpp:425] inception_4d/output <- inception_4d/1x1
I0403 19:37:49.919548  9477 net.cpp:425] inception_4d/output <- inception_4d/3x3
I0403 19:37:49.919567  9477 net.cpp:425] inception_4d/output <- inception_4d/5x5
I0403 19:37:49.919589  9477 net.cpp:425] inception_4d/output <- inception_4d/pool_proj
I0403 19:37:49.919610  9477 net.cpp:399] inception_4d/output -> inception_4d/output
I0403 19:37:49.919670  9477 net.cpp:141] Setting up inception_4d/output
I0403 19:37:49.919699  9477 net.cpp:148] Top shape: 24 528 14 14 (2483712)
I0403 19:37:49.919718  9477 net.cpp:156] Memory required for data: 1157244192
I0403 19:37:49.919736  9477 layer_factory.hpp:77] Creating layer inception_4d/output_inception_4d/output_0_split
I0403 19:37:49.919760  9477 net.cpp:91] Creating Layer inception_4d/output_inception_4d/output_0_split
I0403 19:37:49.919780  9477 net.cpp:425] inception_4d/output_inception_4d/output_0_split <- inception_4d/output
I0403 19:37:49.919802  9477 net.cpp:399] inception_4d/output_inception_4d/output_0_split -> inception_4d/output_inception_4d/output_0_split_0
I0403 19:37:49.919827  9477 net.cpp:399] inception_4d/output_inception_4d/output_0_split -> inception_4d/output_inception_4d/output_0_split_1
I0403 19:37:49.919853  9477 net.cpp:399] inception_4d/output_inception_4d/output_0_split -> inception_4d/output_inception_4d/output_0_split_2
I0403 19:37:49.919883  9477 net.cpp:399] inception_4d/output_inception_4d/output_0_split -> inception_4d/output_inception_4d/output_0_split_3
I0403 19:37:49.919909  9477 net.cpp:399] inception_4d/output_inception_4d/output_0_split -> inception_4d/output_inception_4d/output_0_split_4
I0403 19:37:49.920035  9477 net.cpp:141] Setting up inception_4d/output_inception_4d/output_0_split
I0403 19:37:49.920079  9477 net.cpp:148] Top shape: 24 528 14 14 (2483712)
I0403 19:37:49.920101  9477 net.cpp:148] Top shape: 24 528 14 14 (2483712)
I0403 19:37:49.920121  9477 net.cpp:148] Top shape: 24 528 14 14 (2483712)
I0403 19:37:49.920141  9477 net.cpp:148] Top shape: 24 528 14 14 (2483712)
I0403 19:37:49.920161  9477 net.cpp:148] Top shape: 24 528 14 14 (2483712)
I0403 19:37:49.920178  9477 net.cpp:156] Memory required for data: 1206918432
I0403 19:37:49.920197  9477 layer_factory.hpp:77] Creating layer loss2/ave_pool
I0403 19:37:49.920222  9477 net.cpp:91] Creating Layer loss2/ave_pool
I0403 19:37:49.920243  9477 net.cpp:425] loss2/ave_pool <- inception_4d/output_inception_4d/output_0_split_0
I0403 19:37:49.920265  9477 net.cpp:399] loss2/ave_pool -> loss2/ave_pool
I0403 19:37:49.920655  9477 net.cpp:141] Setting up loss2/ave_pool
I0403 19:37:49.920688  9477 net.cpp:148] Top shape: 24 528 4 4 (202752)
I0403 19:37:49.920707  9477 net.cpp:156] Memory required for data: 1207729440
I0403 19:37:49.920727  9477 layer_factory.hpp:77] Creating layer loss2/conv
I0403 19:37:49.920754  9477 net.cpp:91] Creating Layer loss2/conv
I0403 19:37:49.920778  9477 net.cpp:425] loss2/conv <- loss2/ave_pool
I0403 19:37:49.920802  9477 net.cpp:399] loss2/conv -> loss2/conv
I0403 19:37:49.923116  9477 net.cpp:141] Setting up loss2/conv
I0403 19:37:49.923152  9477 net.cpp:148] Top shape: 24 128 4 4 (49152)
I0403 19:37:49.923171  9477 net.cpp:156] Memory required for data: 1207926048
I0403 19:37:49.923197  9477 layer_factory.hpp:77] Creating layer loss2/relu_conv
I0403 19:37:49.923218  9477 net.cpp:91] Creating Layer loss2/relu_conv
I0403 19:37:49.923238  9477 net.cpp:425] loss2/relu_conv <- loss2/conv
I0403 19:37:49.923264  9477 net.cpp:386] loss2/relu_conv -> loss2/conv (in-place)
I0403 19:37:49.923622  9477 net.cpp:141] Setting up loss2/relu_conv
I0403 19:37:49.923655  9477 net.cpp:148] Top shape: 24 128 4 4 (49152)
I0403 19:37:49.923674  9477 net.cpp:156] Memory required for data: 1208122656
I0403 19:37:49.923694  9477 layer_factory.hpp:77] Creating layer loss2/fc
I0403 19:37:49.923717  9477 net.cpp:91] Creating Layer loss2/fc
I0403 19:37:49.923738  9477 net.cpp:425] loss2/fc <- loss2/conv
I0403 19:37:49.923763  9477 net.cpp:399] loss2/fc -> loss2/fc
I0403 19:37:49.945626  9477 net.cpp:141] Setting up loss2/fc
I0403 19:37:49.945673  9477 net.cpp:148] Top shape: 24 1024 (24576)
I0403 19:37:49.945694  9477 net.cpp:156] Memory required for data: 1208220960
I0403 19:37:49.945716  9477 layer_factory.hpp:77] Creating layer loss2/relu_fc
I0403 19:37:49.945739  9477 net.cpp:91] Creating Layer loss2/relu_fc
I0403 19:37:49.945760  9477 net.cpp:425] loss2/relu_fc <- loss2/fc
I0403 19:37:49.945782  9477 net.cpp:386] loss2/relu_fc -> loss2/fc (in-place)
I0403 19:37:49.946146  9477 net.cpp:141] Setting up loss2/relu_fc
I0403 19:37:49.946182  9477 net.cpp:148] Top shape: 24 1024 (24576)
I0403 19:37:49.946204  9477 net.cpp:156] Memory required for data: 1208319264
I0403 19:37:49.946223  9477 layer_factory.hpp:77] Creating layer loss2/drop_fc
I0403 19:37:49.946246  9477 net.cpp:91] Creating Layer loss2/drop_fc
I0403 19:37:49.946266  9477 net.cpp:425] loss2/drop_fc <- loss2/fc
I0403 19:37:49.946288  9477 net.cpp:386] loss2/drop_fc -> loss2/fc (in-place)
I0403 19:37:49.946351  9477 net.cpp:141] Setting up loss2/drop_fc
I0403 19:37:49.946379  9477 net.cpp:148] Top shape: 24 1024 (24576)
I0403 19:37:49.946398  9477 net.cpp:156] Memory required for data: 1208417568
I0403 19:37:49.946416  9477 layer_factory.hpp:77] Creating layer loss2/classifier_plantvillage
I0403 19:37:49.946441  9477 net.cpp:91] Creating Layer loss2/classifier_plantvillage
I0403 19:37:49.946470  9477 net.cpp:425] loss2/classifier_plantvillage <- loss2/fc
I0403 19:37:49.946494  9477 net.cpp:399] loss2/classifier_plantvillage -> loss2/classifier_plantvillage
I0403 19:37:49.946997  9477 net.cpp:141] Setting up loss2/classifier_plantvillage
I0403 19:37:49.947037  9477 net.cpp:148] Top shape: 24 38 (912)
I0403 19:37:49.947055  9477 net.cpp:156] Memory required for data: 1208421216
I0403 19:37:49.947098  9477 layer_factory.hpp:77] Creating layer loss2/classifier_plantvillage_loss2/classifier_plantvillage_0_split
I0403 19:37:49.947121  9477 net.cpp:91] Creating Layer loss2/classifier_plantvillage_loss2/classifier_plantvillage_0_split
I0403 19:37:49.947141  9477 net.cpp:425] loss2/classifier_plantvillage_loss2/classifier_plantvillage_0_split <- loss2/classifier_plantvillage
I0403 19:37:49.947166  9477 net.cpp:399] loss2/classifier_plantvillage_loss2/classifier_plantvillage_0_split -> loss2/classifier_plantvillage_loss2/classifier_plantvillage_0_split_0
I0403 19:37:49.947192  9477 net.cpp:399] loss2/classifier_plantvillage_loss2/classifier_plantvillage_0_split -> loss2/classifier_plantvillage_loss2/classifier_plantvillage_0_split_1
I0403 19:37:49.947218  9477 net.cpp:399] loss2/classifier_plantvillage_loss2/classifier_plantvillage_0_split -> loss2/classifier_plantvillage_loss2/classifier_plantvillage_0_split_2
I0403 19:37:49.947315  9477 net.cpp:141] Setting up loss2/classifier_plantvillage_loss2/classifier_plantvillage_0_split
I0403 19:37:49.947347  9477 net.cpp:148] Top shape: 24 38 (912)
I0403 19:37:49.947370  9477 net.cpp:148] Top shape: 24 38 (912)
I0403 19:37:49.947389  9477 net.cpp:148] Top shape: 24 38 (912)
I0403 19:37:49.947407  9477 net.cpp:156] Memory required for data: 1208432160
I0403 19:37:49.947425  9477 layer_factory.hpp:77] Creating layer inception_4e/1x1
I0403 19:37:49.947453  9477 net.cpp:91] Creating Layer inception_4e/1x1
I0403 19:37:49.947482  9477 net.cpp:425] inception_4e/1x1 <- inception_4d/output_inception_4d/output_0_split_1
I0403 19:37:49.947509  9477 net.cpp:399] inception_4e/1x1 -> inception_4e/1x1
I0403 19:37:49.949756  9477 net.cpp:141] Setting up inception_4e/1x1
I0403 19:37:49.949792  9477 net.cpp:148] Top shape: 24 256 14 14 (1204224)
I0403 19:37:49.949811  9477 net.cpp:156] Memory required for data: 1213249056
I0403 19:37:49.949834  9477 layer_factory.hpp:77] Creating layer inception_4e/relu_1x1
I0403 19:37:49.949856  9477 net.cpp:91] Creating Layer inception_4e/relu_1x1
I0403 19:37:49.949878  9477 net.cpp:425] inception_4e/relu_1x1 <- inception_4e/1x1
I0403 19:37:49.949903  9477 net.cpp:386] inception_4e/relu_1x1 -> inception_4e/1x1 (in-place)
I0403 19:37:49.950261  9477 net.cpp:141] Setting up inception_4e/relu_1x1
I0403 19:37:49.950294  9477 net.cpp:148] Top shape: 24 256 14 14 (1204224)
I0403 19:37:49.950314  9477 net.cpp:156] Memory required for data: 1218065952
I0403 19:37:49.950332  9477 layer_factory.hpp:77] Creating layer inception_4e/3x3_reduce
I0403 19:37:49.950361  9477 net.cpp:91] Creating Layer inception_4e/3x3_reduce
I0403 19:37:49.950382  9477 net.cpp:425] inception_4e/3x3_reduce <- inception_4d/output_inception_4d/output_0_split_2
I0403 19:37:49.950408  9477 net.cpp:399] inception_4e/3x3_reduce -> inception_4e/3x3_reduce
I0403 19:37:49.952991  9477 net.cpp:141] Setting up inception_4e/3x3_reduce
I0403 19:37:49.953032  9477 net.cpp:148] Top shape: 24 160 14 14 (752640)
I0403 19:37:49.953052  9477 net.cpp:156] Memory required for data: 1221076512
I0403 19:37:49.953075  9477 layer_factory.hpp:77] Creating layer inception_4e/relu_3x3_reduce
I0403 19:37:49.953099  9477 net.cpp:91] Creating Layer inception_4e/relu_3x3_reduce
I0403 19:37:49.953119  9477 net.cpp:425] inception_4e/relu_3x3_reduce <- inception_4e/3x3_reduce
I0403 19:37:49.953145  9477 net.cpp:386] inception_4e/relu_3x3_reduce -> inception_4e/3x3_reduce (in-place)
I0403 19:37:49.953377  9477 net.cpp:141] Setting up inception_4e/relu_3x3_reduce
I0403 19:37:49.953408  9477 net.cpp:148] Top shape: 24 160 14 14 (752640)
I0403 19:37:49.953428  9477 net.cpp:156] Memory required for data: 1224087072
I0403 19:37:49.953445  9477 layer_factory.hpp:77] Creating layer inception_4e/3x3
I0403 19:37:49.953482  9477 net.cpp:91] Creating Layer inception_4e/3x3
I0403 19:37:49.953506  9477 net.cpp:425] inception_4e/3x3 <- inception_4e/3x3_reduce
I0403 19:37:49.953533  9477 net.cpp:399] inception_4e/3x3 -> inception_4e/3x3
I0403 19:37:49.959705  9477 net.cpp:141] Setting up inception_4e/3x3
I0403 19:37:49.959760  9477 net.cpp:148] Top shape: 24 320 14 14 (1505280)
I0403 19:37:49.959780  9477 net.cpp:156] Memory required for data: 1230108192
I0403 19:37:49.959803  9477 layer_factory.hpp:77] Creating layer inception_4e/relu_3x3
I0403 19:37:49.959830  9477 net.cpp:91] Creating Layer inception_4e/relu_3x3
I0403 19:37:49.959851  9477 net.cpp:425] inception_4e/relu_3x3 <- inception_4e/3x3
I0403 19:37:49.959873  9477 net.cpp:386] inception_4e/relu_3x3 -> inception_4e/3x3 (in-place)
I0403 19:37:49.960237  9477 net.cpp:141] Setting up inception_4e/relu_3x3
I0403 19:37:49.960269  9477 net.cpp:148] Top shape: 24 320 14 14 (1505280)
I0403 19:37:49.960288  9477 net.cpp:156] Memory required for data: 1236129312
I0403 19:37:49.960306  9477 layer_factory.hpp:77] Creating layer inception_4e/5x5_reduce
I0403 19:37:49.960335  9477 net.cpp:91] Creating Layer inception_4e/5x5_reduce
I0403 19:37:49.960356  9477 net.cpp:425] inception_4e/5x5_reduce <- inception_4d/output_inception_4d/output_0_split_3
I0403 19:37:49.960382  9477 net.cpp:399] inception_4e/5x5_reduce -> inception_4e/5x5_reduce
I0403 19:37:49.961710  9477 net.cpp:141] Setting up inception_4e/5x5_reduce
I0403 19:37:49.961750  9477 net.cpp:148] Top shape: 24 32 14 14 (150528)
I0403 19:37:49.961771  9477 net.cpp:156] Memory required for data: 1236731424
I0403 19:37:49.961792  9477 layer_factory.hpp:77] Creating layer inception_4e/relu_5x5_reduce
I0403 19:37:49.961815  9477 net.cpp:91] Creating Layer inception_4e/relu_5x5_reduce
I0403 19:37:49.961836  9477 net.cpp:425] inception_4e/relu_5x5_reduce <- inception_4e/5x5_reduce
I0403 19:37:49.961861  9477 net.cpp:386] inception_4e/relu_5x5_reduce -> inception_4e/5x5_reduce (in-place)
I0403 19:37:49.962221  9477 net.cpp:141] Setting up inception_4e/relu_5x5_reduce
I0403 19:37:49.962256  9477 net.cpp:148] Top shape: 24 32 14 14 (150528)
I0403 19:37:49.962276  9477 net.cpp:156] Memory required for data: 1237333536
I0403 19:37:49.962296  9477 layer_factory.hpp:77] Creating layer inception_4e/5x5
I0403 19:37:49.962343  9477 net.cpp:91] Creating Layer inception_4e/5x5
I0403 19:37:49.962368  9477 net.cpp:425] inception_4e/5x5 <- inception_4e/5x5_reduce
I0403 19:37:49.962393  9477 net.cpp:399] inception_4e/5x5 -> inception_4e/5x5
I0403 19:37:49.964658  9477 net.cpp:141] Setting up inception_4e/5x5
I0403 19:37:49.964692  9477 net.cpp:148] Top shape: 24 128 14 14 (602112)
I0403 19:37:49.964711  9477 net.cpp:156] Memory required for data: 1239741984
I0403 19:37:49.964735  9477 layer_factory.hpp:77] Creating layer inception_4e/relu_5x5
I0403 19:37:49.964761  9477 net.cpp:91] Creating Layer inception_4e/relu_5x5
I0403 19:37:49.964781  9477 net.cpp:425] inception_4e/relu_5x5 <- inception_4e/5x5
I0403 19:37:49.964802  9477 net.cpp:386] inception_4e/relu_5x5 -> inception_4e/5x5 (in-place)
I0403 19:37:49.965049  9477 net.cpp:141] Setting up inception_4e/relu_5x5
I0403 19:37:49.965081  9477 net.cpp:148] Top shape: 24 128 14 14 (602112)
I0403 19:37:49.965100  9477 net.cpp:156] Memory required for data: 1242150432
I0403 19:37:49.965118  9477 layer_factory.hpp:77] Creating layer inception_4e/pool
I0403 19:37:49.965140  9477 net.cpp:91] Creating Layer inception_4e/pool
I0403 19:37:49.965160  9477 net.cpp:425] inception_4e/pool <- inception_4d/output_inception_4d/output_0_split_4
I0403 19:37:49.965185  9477 net.cpp:399] inception_4e/pool -> inception_4e/pool
I0403 19:37:49.965275  9477 net.cpp:141] Setting up inception_4e/pool
I0403 19:37:49.965306  9477 net.cpp:148] Top shape: 24 528 14 14 (2483712)
I0403 19:37:49.965323  9477 net.cpp:156] Memory required for data: 1252085280
I0403 19:37:49.965342  9477 layer_factory.hpp:77] Creating layer inception_4e/pool_proj
I0403 19:37:49.965370  9477 net.cpp:91] Creating Layer inception_4e/pool_proj
I0403 19:37:49.965392  9477 net.cpp:425] inception_4e/pool_proj <- inception_4e/pool
I0403 19:37:49.965415  9477 net.cpp:399] inception_4e/pool_proj -> inception_4e/pool_proj
I0403 19:37:49.967258  9477 net.cpp:141] Setting up inception_4e/pool_proj
I0403 19:37:49.967293  9477 net.cpp:148] Top shape: 24 128 14 14 (602112)
I0403 19:37:49.967329  9477 net.cpp:156] Memory required for data: 1254493728
I0403 19:37:49.967355  9477 layer_factory.hpp:77] Creating layer inception_4e/relu_pool_proj
I0403 19:37:49.967380  9477 net.cpp:91] Creating Layer inception_4e/relu_pool_proj
I0403 19:37:49.967401  9477 net.cpp:425] inception_4e/relu_pool_proj <- inception_4e/pool_proj
I0403 19:37:49.967423  9477 net.cpp:386] inception_4e/relu_pool_proj -> inception_4e/pool_proj (in-place)
I0403 19:37:49.967789  9477 net.cpp:141] Setting up inception_4e/relu_pool_proj
I0403 19:37:49.967823  9477 net.cpp:148] Top shape: 24 128 14 14 (602112)
I0403 19:37:49.967841  9477 net.cpp:156] Memory required for data: 1256902176
I0403 19:37:49.967861  9477 layer_factory.hpp:77] Creating layer inception_4e/output
I0403 19:37:49.967886  9477 net.cpp:91] Creating Layer inception_4e/output
I0403 19:37:49.967907  9477 net.cpp:425] inception_4e/output <- inception_4e/1x1
I0403 19:37:49.967929  9477 net.cpp:425] inception_4e/output <- inception_4e/3x3
I0403 19:37:49.967949  9477 net.cpp:425] inception_4e/output <- inception_4e/5x5
I0403 19:37:49.967969  9477 net.cpp:425] inception_4e/output <- inception_4e/pool_proj
I0403 19:37:49.967990  9477 net.cpp:399] inception_4e/output -> inception_4e/output
I0403 19:37:49.968055  9477 net.cpp:141] Setting up inception_4e/output
I0403 19:37:49.968086  9477 net.cpp:148] Top shape: 24 832 14 14 (3913728)
I0403 19:37:49.968103  9477 net.cpp:156] Memory required for data: 1272557088
I0403 19:37:49.968122  9477 layer_factory.hpp:77] Creating layer pool4/3x3_s2
I0403 19:37:49.968143  9477 net.cpp:91] Creating Layer pool4/3x3_s2
I0403 19:37:49.968174  9477 net.cpp:425] pool4/3x3_s2 <- inception_4e/output
I0403 19:37:49.968200  9477 net.cpp:399] pool4/3x3_s2 -> pool4/3x3_s2
I0403 19:37:49.968284  9477 net.cpp:141] Setting up pool4/3x3_s2
I0403 19:37:49.968314  9477 net.cpp:148] Top shape: 24 832 7 7 (978432)
I0403 19:37:49.968333  9477 net.cpp:156] Memory required for data: 1276470816
I0403 19:37:49.968351  9477 layer_factory.hpp:77] Creating layer pool4/3x3_s2_pool4/3x3_s2_0_split
I0403 19:37:49.968376  9477 net.cpp:91] Creating Layer pool4/3x3_s2_pool4/3x3_s2_0_split
I0403 19:37:49.968399  9477 net.cpp:425] pool4/3x3_s2_pool4/3x3_s2_0_split <- pool4/3x3_s2
I0403 19:37:49.968422  9477 net.cpp:399] pool4/3x3_s2_pool4/3x3_s2_0_split -> pool4/3x3_s2_pool4/3x3_s2_0_split_0
I0403 19:37:49.968448  9477 net.cpp:399] pool4/3x3_s2_pool4/3x3_s2_0_split -> pool4/3x3_s2_pool4/3x3_s2_0_split_1
I0403 19:37:49.968487  9477 net.cpp:399] pool4/3x3_s2_pool4/3x3_s2_0_split -> pool4/3x3_s2_pool4/3x3_s2_0_split_2
I0403 19:37:49.968514  9477 net.cpp:399] pool4/3x3_s2_pool4/3x3_s2_0_split -> pool4/3x3_s2_pool4/3x3_s2_0_split_3
I0403 19:37:49.968629  9477 net.cpp:141] Setting up pool4/3x3_s2_pool4/3x3_s2_0_split
I0403 19:37:49.968662  9477 net.cpp:148] Top shape: 24 832 7 7 (978432)
I0403 19:37:49.968683  9477 net.cpp:148] Top shape: 24 832 7 7 (978432)
I0403 19:37:49.968703  9477 net.cpp:148] Top shape: 24 832 7 7 (978432)
I0403 19:37:49.968722  9477 net.cpp:148] Top shape: 24 832 7 7 (978432)
I0403 19:37:49.968740  9477 net.cpp:156] Memory required for data: 1292125728
I0403 19:37:49.968758  9477 layer_factory.hpp:77] Creating layer inception_5a/1x1
I0403 19:37:49.968783  9477 net.cpp:91] Creating Layer inception_5a/1x1
I0403 19:37:49.968802  9477 net.cpp:425] inception_5a/1x1 <- pool4/3x3_s2_pool4/3x3_s2_0_split_0
I0403 19:37:49.968829  9477 net.cpp:399] inception_5a/1x1 -> inception_5a/1x1
I0403 19:37:49.972317  9477 net.cpp:141] Setting up inception_5a/1x1
I0403 19:37:49.972357  9477 net.cpp:148] Top shape: 24 256 7 7 (301056)
I0403 19:37:49.972378  9477 net.cpp:156] Memory required for data: 1293329952
I0403 19:37:49.972400  9477 layer_factory.hpp:77] Creating layer inception_5a/relu_1x1
I0403 19:37:49.972422  9477 net.cpp:91] Creating Layer inception_5a/relu_1x1
I0403 19:37:49.972442  9477 net.cpp:425] inception_5a/relu_1x1 <- inception_5a/1x1
I0403 19:37:49.972477  9477 net.cpp:386] inception_5a/relu_1x1 -> inception_5a/1x1 (in-place)
I0403 19:37:49.972859  9477 net.cpp:141] Setting up inception_5a/relu_1x1
I0403 19:37:49.972895  9477 net.cpp:148] Top shape: 24 256 7 7 (301056)
I0403 19:37:49.972914  9477 net.cpp:156] Memory required for data: 1294534176
I0403 19:37:49.972934  9477 layer_factory.hpp:77] Creating layer inception_5a/3x3_reduce
I0403 19:37:49.972962  9477 net.cpp:91] Creating Layer inception_5a/3x3_reduce
I0403 19:37:49.972985  9477 net.cpp:425] inception_5a/3x3_reduce <- pool4/3x3_s2_pool4/3x3_s2_0_split_1
I0403 19:37:49.973008  9477 net.cpp:399] inception_5a/3x3_reduce -> inception_5a/3x3_reduce
I0403 19:37:49.976006  9477 net.cpp:141] Setting up inception_5a/3x3_reduce
I0403 19:37:49.976042  9477 net.cpp:148] Top shape: 24 160 7 7 (188160)
I0403 19:37:49.976063  9477 net.cpp:156] Memory required for data: 1295286816
I0403 19:37:49.976085  9477 layer_factory.hpp:77] Creating layer inception_5a/relu_3x3_reduce
I0403 19:37:49.976110  9477 net.cpp:91] Creating Layer inception_5a/relu_3x3_reduce
I0403 19:37:49.976131  9477 net.cpp:425] inception_5a/relu_3x3_reduce <- inception_5a/3x3_reduce
I0403 19:37:49.976153  9477 net.cpp:386] inception_5a/relu_3x3_reduce -> inception_5a/3x3_reduce (in-place)
I0403 19:37:49.976383  9477 net.cpp:141] Setting up inception_5a/relu_3x3_reduce
I0403 19:37:49.976418  9477 net.cpp:148] Top shape: 24 160 7 7 (188160)
I0403 19:37:49.976438  9477 net.cpp:156] Memory required for data: 1296039456
I0403 19:37:49.976456  9477 layer_factory.hpp:77] Creating layer inception_5a/3x3
I0403 19:37:49.976490  9477 net.cpp:91] Creating Layer inception_5a/3x3
I0403 19:37:49.976513  9477 net.cpp:425] inception_5a/3x3 <- inception_5a/3x3_reduce
I0403 19:37:49.976538  9477 net.cpp:399] inception_5a/3x3 -> inception_5a/3x3
I0403 19:37:49.982753  9477 net.cpp:141] Setting up inception_5a/3x3
I0403 19:37:49.982792  9477 net.cpp:148] Top shape: 24 320 7 7 (376320)
I0403 19:37:49.982815  9477 net.cpp:156] Memory required for data: 1297544736
I0403 19:37:49.982838  9477 layer_factory.hpp:77] Creating layer inception_5a/relu_3x3
I0403 19:37:49.982861  9477 net.cpp:91] Creating Layer inception_5a/relu_3x3
I0403 19:37:49.982882  9477 net.cpp:425] inception_5a/relu_3x3 <- inception_5a/3x3
I0403 19:37:49.982905  9477 net.cpp:386] inception_5a/relu_3x3 -> inception_5a/3x3 (in-place)
I0403 19:37:49.983270  9477 net.cpp:141] Setting up inception_5a/relu_3x3
I0403 19:37:49.983306  9477 net.cpp:148] Top shape: 24 320 7 7 (376320)
I0403 19:37:49.983327  9477 net.cpp:156] Memory required for data: 1299050016
I0403 19:37:49.983347  9477 layer_factory.hpp:77] Creating layer inception_5a/5x5_reduce
I0403 19:37:49.983377  9477 net.cpp:91] Creating Layer inception_5a/5x5_reduce
I0403 19:37:49.983400  9477 net.cpp:425] inception_5a/5x5_reduce <- pool4/3x3_s2_pool4/3x3_s2_0_split_2
I0403 19:37:49.983423  9477 net.cpp:399] inception_5a/5x5_reduce -> inception_5a/5x5_reduce
I0403 19:37:49.984863  9477 net.cpp:141] Setting up inception_5a/5x5_reduce
I0403 19:37:49.984900  9477 net.cpp:148] Top shape: 24 32 7 7 (37632)
I0403 19:37:49.984921  9477 net.cpp:156] Memory required for data: 1299200544
I0403 19:37:49.984943  9477 layer_factory.hpp:77] Creating layer inception_5a/relu_5x5_reduce
I0403 19:37:49.984966  9477 net.cpp:91] Creating Layer inception_5a/relu_5x5_reduce
I0403 19:37:49.984987  9477 net.cpp:425] inception_5a/relu_5x5_reduce <- inception_5a/5x5_reduce
I0403 19:37:49.985018  9477 net.cpp:386] inception_5a/relu_5x5_reduce -> inception_5a/5x5_reduce (in-place)
I0403 19:37:49.985393  9477 net.cpp:141] Setting up inception_5a/relu_5x5_reduce
I0403 19:37:49.985425  9477 net.cpp:148] Top shape: 24 32 7 7 (37632)
I0403 19:37:49.985445  9477 net.cpp:156] Memory required for data: 1299351072
I0403 19:37:49.985471  9477 layer_factory.hpp:77] Creating layer inception_5a/5x5
I0403 19:37:49.985502  9477 net.cpp:91] Creating Layer inception_5a/5x5
I0403 19:37:49.985523  9477 net.cpp:425] inception_5a/5x5 <- inception_5a/5x5_reduce
I0403 19:37:49.985550  9477 net.cpp:399] inception_5a/5x5 -> inception_5a/5x5
I0403 19:37:49.987676  9477 net.cpp:141] Setting up inception_5a/5x5
I0403 19:37:49.987725  9477 net.cpp:148] Top shape: 24 128 7 7 (150528)
I0403 19:37:49.987746  9477 net.cpp:156] Memory required for data: 1299953184
I0403 19:37:49.987768  9477 layer_factory.hpp:77] Creating layer inception_5a/relu_5x5
I0403 19:37:49.987794  9477 net.cpp:91] Creating Layer inception_5a/relu_5x5
I0403 19:37:49.987817  9477 net.cpp:425] inception_5a/relu_5x5 <- inception_5a/5x5
I0403 19:37:49.987839  9477 net.cpp:386] inception_5a/relu_5x5 -> inception_5a/5x5 (in-place)
I0403 19:37:49.988075  9477 net.cpp:141] Setting up inception_5a/relu_5x5
I0403 19:37:49.988106  9477 net.cpp:148] Top shape: 24 128 7 7 (150528)
I0403 19:37:49.988126  9477 net.cpp:156] Memory required for data: 1300555296
I0403 19:37:49.988144  9477 layer_factory.hpp:77] Creating layer inception_5a/pool
I0403 19:37:49.988167  9477 net.cpp:91] Creating Layer inception_5a/pool
I0403 19:37:49.988186  9477 net.cpp:425] inception_5a/pool <- pool4/3x3_s2_pool4/3x3_s2_0_split_3
I0403 19:37:49.988212  9477 net.cpp:399] inception_5a/pool -> inception_5a/pool
I0403 19:37:49.988301  9477 net.cpp:141] Setting up inception_5a/pool
I0403 19:37:49.988330  9477 net.cpp:148] Top shape: 24 832 7 7 (978432)
I0403 19:37:49.988348  9477 net.cpp:156] Memory required for data: 1304469024
I0403 19:37:49.988368  9477 layer_factory.hpp:77] Creating layer inception_5a/pool_proj
I0403 19:37:49.988396  9477 net.cpp:91] Creating Layer inception_5a/pool_proj
I0403 19:37:49.988418  9477 net.cpp:425] inception_5a/pool_proj <- inception_5a/pool
I0403 19:37:49.988441  9477 net.cpp:399] inception_5a/pool_proj -> inception_5a/pool_proj
I0403 19:37:49.991243  9477 net.cpp:141] Setting up inception_5a/pool_proj
I0403 19:37:49.991281  9477 net.cpp:148] Top shape: 24 128 7 7 (150528)
I0403 19:37:49.991299  9477 net.cpp:156] Memory required for data: 1305071136
I0403 19:37:49.991323  9477 layer_factory.hpp:77] Creating layer inception_5a/relu_pool_proj
I0403 19:37:49.991349  9477 net.cpp:91] Creating Layer inception_5a/relu_pool_proj
I0403 19:37:49.991371  9477 net.cpp:425] inception_5a/relu_pool_proj <- inception_5a/pool_proj
I0403 19:37:49.991394  9477 net.cpp:386] inception_5a/relu_pool_proj -> inception_5a/pool_proj (in-place)
I0403 19:37:49.991765  9477 net.cpp:141] Setting up inception_5a/relu_pool_proj
I0403 19:37:49.991797  9477 net.cpp:148] Top shape: 24 128 7 7 (150528)
I0403 19:37:49.991817  9477 net.cpp:156] Memory required for data: 1305673248
I0403 19:37:49.991837  9477 layer_factory.hpp:77] Creating layer inception_5a/output
I0403 19:37:49.991861  9477 net.cpp:91] Creating Layer inception_5a/output
I0403 19:37:49.991883  9477 net.cpp:425] inception_5a/output <- inception_5a/1x1
I0403 19:37:49.991902  9477 net.cpp:425] inception_5a/output <- inception_5a/3x3
I0403 19:37:49.991924  9477 net.cpp:425] inception_5a/output <- inception_5a/5x5
I0403 19:37:49.991943  9477 net.cpp:425] inception_5a/output <- inception_5a/pool_proj
I0403 19:37:49.991964  9477 net.cpp:399] inception_5a/output -> inception_5a/output
I0403 19:37:49.992027  9477 net.cpp:141] Setting up inception_5a/output
I0403 19:37:49.992056  9477 net.cpp:148] Top shape: 24 832 7 7 (978432)
I0403 19:37:49.992074  9477 net.cpp:156] Memory required for data: 1309586976
I0403 19:37:49.992094  9477 layer_factory.hpp:77] Creating layer inception_5a/output_inception_5a/output_0_split
I0403 19:37:49.992115  9477 net.cpp:91] Creating Layer inception_5a/output_inception_5a/output_0_split
I0403 19:37:49.992135  9477 net.cpp:425] inception_5a/output_inception_5a/output_0_split <- inception_5a/output
I0403 19:37:49.992159  9477 net.cpp:399] inception_5a/output_inception_5a/output_0_split -> inception_5a/output_inception_5a/output_0_split_0
I0403 19:37:49.992184  9477 net.cpp:399] inception_5a/output_inception_5a/output_0_split -> inception_5a/output_inception_5a/output_0_split_1
I0403 19:37:49.992211  9477 net.cpp:399] inception_5a/output_inception_5a/output_0_split -> inception_5a/output_inception_5a/output_0_split_2
I0403 19:37:49.992236  9477 net.cpp:399] inception_5a/output_inception_5a/output_0_split -> inception_5a/output_inception_5a/output_0_split_3
I0403 19:37:49.992375  9477 net.cpp:141] Setting up inception_5a/output_inception_5a/output_0_split
I0403 19:37:49.992406  9477 net.cpp:148] Top shape: 24 832 7 7 (978432)
I0403 19:37:49.992427  9477 net.cpp:148] Top shape: 24 832 7 7 (978432)
I0403 19:37:49.992446  9477 net.cpp:148] Top shape: 24 832 7 7 (978432)
I0403 19:37:49.992481  9477 net.cpp:148] Top shape: 24 832 7 7 (978432)
I0403 19:37:49.992501  9477 net.cpp:156] Memory required for data: 1325241888
I0403 19:37:49.992521  9477 layer_factory.hpp:77] Creating layer inception_5b/1x1
I0403 19:37:49.992548  9477 net.cpp:91] Creating Layer inception_5b/1x1
I0403 19:37:49.992571  9477 net.cpp:425] inception_5b/1x1 <- inception_5a/output_inception_5a/output_0_split_0
I0403 19:37:49.992599  9477 net.cpp:399] inception_5b/1x1 -> inception_5b/1x1
I0403 19:37:49.997215  9477 net.cpp:141] Setting up inception_5b/1x1
I0403 19:37:49.997254  9477 net.cpp:148] Top shape: 24 384 7 7 (451584)
I0403 19:37:49.997274  9477 net.cpp:156] Memory required for data: 1327048224
I0403 19:37:49.997298  9477 layer_factory.hpp:77] Creating layer inception_5b/relu_1x1
I0403 19:37:49.997324  9477 net.cpp:91] Creating Layer inception_5b/relu_1x1
I0403 19:37:49.997344  9477 net.cpp:425] inception_5b/relu_1x1 <- inception_5b/1x1
I0403 19:37:49.997366  9477 net.cpp:386] inception_5b/relu_1x1 -> inception_5b/1x1 (in-place)
I0403 19:37:49.997742  9477 net.cpp:141] Setting up inception_5b/relu_1x1
I0403 19:37:49.997776  9477 net.cpp:148] Top shape: 24 384 7 7 (451584)
I0403 19:37:49.997794  9477 net.cpp:156] Memory required for data: 1328854560
I0403 19:37:49.997813  9477 layer_factory.hpp:77] Creating layer inception_5b/3x3_reduce
I0403 19:37:49.997841  9477 net.cpp:91] Creating Layer inception_5b/3x3_reduce
I0403 19:37:49.997864  9477 net.cpp:425] inception_5b/3x3_reduce <- inception_5a/output_inception_5a/output_0_split_1
I0403 19:37:49.997892  9477 net.cpp:399] inception_5b/3x3_reduce -> inception_5b/3x3_reduce
I0403 19:37:50.001170  9477 net.cpp:141] Setting up inception_5b/3x3_reduce
I0403 19:37:50.001209  9477 net.cpp:148] Top shape: 24 192 7 7 (225792)
I0403 19:37:50.001229  9477 net.cpp:156] Memory required for data: 1329757728
I0403 19:37:50.001252  9477 layer_factory.hpp:77] Creating layer inception_5b/relu_3x3_reduce
I0403 19:37:50.001278  9477 net.cpp:91] Creating Layer inception_5b/relu_3x3_reduce
I0403 19:37:50.001301  9477 net.cpp:425] inception_5b/relu_3x3_reduce <- inception_5b/3x3_reduce
I0403 19:37:50.001322  9477 net.cpp:386] inception_5b/relu_3x3_reduce -> inception_5b/3x3_reduce (in-place)
I0403 19:37:50.001570  9477 net.cpp:141] Setting up inception_5b/relu_3x3_reduce
I0403 19:37:50.001605  9477 net.cpp:148] Top shape: 24 192 7 7 (225792)
I0403 19:37:50.001626  9477 net.cpp:156] Memory required for data: 1330660896
I0403 19:37:50.001644  9477 layer_factory.hpp:77] Creating layer inception_5b/3x3
I0403 19:37:50.001672  9477 net.cpp:91] Creating Layer inception_5b/3x3
I0403 19:37:50.001694  9477 net.cpp:425] inception_5b/3x3 <- inception_5b/3x3_reduce
I0403 19:37:50.001718  9477 net.cpp:399] inception_5b/3x3 -> inception_5b/3x3
I0403 19:37:50.010046  9477 net.cpp:141] Setting up inception_5b/3x3
I0403 19:37:50.010082  9477 net.cpp:148] Top shape: 24 384 7 7 (451584)
I0403 19:37:50.010100  9477 net.cpp:156] Memory required for data: 1332467232
I0403 19:37:50.010124  9477 layer_factory.hpp:77] Creating layer inception_5b/relu_3x3
I0403 19:37:50.010150  9477 net.cpp:91] Creating Layer inception_5b/relu_3x3
I0403 19:37:50.010171  9477 net.cpp:425] inception_5b/relu_3x3 <- inception_5b/3x3
I0403 19:37:50.010192  9477 net.cpp:386] inception_5b/relu_3x3 -> inception_5b/3x3 (in-place)
I0403 19:37:50.010562  9477 net.cpp:141] Setting up inception_5b/relu_3x3
I0403 19:37:50.010596  9477 net.cpp:148] Top shape: 24 384 7 7 (451584)
I0403 19:37:50.010615  9477 net.cpp:156] Memory required for data: 1334273568
I0403 19:37:50.010634  9477 layer_factory.hpp:77] Creating layer inception_5b/5x5_reduce
I0403 19:37:50.010679  9477 net.cpp:91] Creating Layer inception_5b/5x5_reduce
I0403 19:37:50.010704  9477 net.cpp:425] inception_5b/5x5_reduce <- inception_5a/output_inception_5a/output_0_split_2
I0403 19:37:50.010730  9477 net.cpp:399] inception_5b/5x5_reduce -> inception_5b/5x5_reduce
I0403 19:37:50.012308  9477 net.cpp:141] Setting up inception_5b/5x5_reduce
I0403 19:37:50.012344  9477 net.cpp:148] Top shape: 24 48 7 7 (56448)
I0403 19:37:50.012363  9477 net.cpp:156] Memory required for data: 1334499360
I0403 19:37:50.012387  9477 layer_factory.hpp:77] Creating layer inception_5b/relu_5x5_reduce
I0403 19:37:50.012413  9477 net.cpp:91] Creating Layer inception_5b/relu_5x5_reduce
I0403 19:37:50.012434  9477 net.cpp:425] inception_5b/relu_5x5_reduce <- inception_5b/5x5_reduce
I0403 19:37:50.012454  9477 net.cpp:386] inception_5b/relu_5x5_reduce -> inception_5b/5x5_reduce (in-place)
I0403 19:37:50.012928  9477 net.cpp:141] Setting up inception_5b/relu_5x5_reduce
I0403 19:37:50.012961  9477 net.cpp:148] Top shape: 24 48 7 7 (56448)
I0403 19:37:50.012981  9477 net.cpp:156] Memory required for data: 1334725152
I0403 19:37:50.013000  9477 layer_factory.hpp:77] Creating layer inception_5b/5x5
I0403 19:37:50.013026  9477 net.cpp:91] Creating Layer inception_5b/5x5
I0403 19:37:50.013048  9477 net.cpp:425] inception_5b/5x5 <- inception_5b/5x5_reduce
I0403 19:37:50.013072  9477 net.cpp:399] inception_5b/5x5 -> inception_5b/5x5
I0403 19:37:50.015627  9477 net.cpp:141] Setting up inception_5b/5x5
I0403 19:37:50.015666  9477 net.cpp:148] Top shape: 24 128 7 7 (150528)
I0403 19:37:50.015687  9477 net.cpp:156] Memory required for data: 1335327264
I0403 19:37:50.015710  9477 layer_factory.hpp:77] Creating layer inception_5b/relu_5x5
I0403 19:37:50.015733  9477 net.cpp:91] Creating Layer inception_5b/relu_5x5
I0403 19:37:50.015753  9477 net.cpp:425] inception_5b/relu_5x5 <- inception_5b/5x5
I0403 19:37:50.015774  9477 net.cpp:386] inception_5b/relu_5x5 -> inception_5b/5x5 (in-place)
I0403 19:37:50.016021  9477 net.cpp:141] Setting up inception_5b/relu_5x5
I0403 19:37:50.016052  9477 net.cpp:148] Top shape: 24 128 7 7 (150528)
I0403 19:37:50.016072  9477 net.cpp:156] Memory required for data: 1335929376
I0403 19:37:50.016089  9477 layer_factory.hpp:77] Creating layer inception_5b/pool
I0403 19:37:50.016113  9477 net.cpp:91] Creating Layer inception_5b/pool
I0403 19:37:50.016132  9477 net.cpp:425] inception_5b/pool <- inception_5a/output_inception_5a/output_0_split_3
I0403 19:37:50.016157  9477 net.cpp:399] inception_5b/pool -> inception_5b/pool
I0403 19:37:50.016247  9477 net.cpp:141] Setting up inception_5b/pool
I0403 19:37:50.016281  9477 net.cpp:148] Top shape: 24 832 7 7 (978432)
I0403 19:37:50.016300  9477 net.cpp:156] Memory required for data: 1339843104
I0403 19:37:50.016319  9477 layer_factory.hpp:77] Creating layer inception_5b/pool_proj
I0403 19:37:50.016346  9477 net.cpp:91] Creating Layer inception_5b/pool_proj
I0403 19:37:50.016369  9477 net.cpp:425] inception_5b/pool_proj <- inception_5b/pool
I0403 19:37:50.016392  9477 net.cpp:399] inception_5b/pool_proj -> inception_5b/pool_proj
I0403 19:37:50.019220  9477 net.cpp:141] Setting up inception_5b/pool_proj
I0403 19:37:50.019258  9477 net.cpp:148] Top shape: 24 128 7 7 (150528)
I0403 19:37:50.019278  9477 net.cpp:156] Memory required for data: 1340445216
I0403 19:37:50.019300  9477 layer_factory.hpp:77] Creating layer inception_5b/relu_pool_proj
I0403 19:37:50.019325  9477 net.cpp:91] Creating Layer inception_5b/relu_pool_proj
I0403 19:37:50.019347  9477 net.cpp:425] inception_5b/relu_pool_proj <- inception_5b/pool_proj
I0403 19:37:50.019371  9477 net.cpp:386] inception_5b/relu_pool_proj -> inception_5b/pool_proj (in-place)
I0403 19:37:50.019747  9477 net.cpp:141] Setting up inception_5b/relu_pool_proj
I0403 19:37:50.019779  9477 net.cpp:148] Top shape: 24 128 7 7 (150528)
I0403 19:37:50.019798  9477 net.cpp:156] Memory required for data: 1341047328
I0403 19:37:50.019816  9477 layer_factory.hpp:77] Creating layer inception_5b/output
I0403 19:37:50.019842  9477 net.cpp:91] Creating Layer inception_5b/output
I0403 19:37:50.019886  9477 net.cpp:425] inception_5b/output <- inception_5b/1x1
I0403 19:37:50.019909  9477 net.cpp:425] inception_5b/output <- inception_5b/3x3
I0403 19:37:50.019930  9477 net.cpp:425] inception_5b/output <- inception_5b/5x5
I0403 19:37:50.019951  9477 net.cpp:425] inception_5b/output <- inception_5b/pool_proj
I0403 19:37:50.019973  9477 net.cpp:399] inception_5b/output -> inception_5b/output
I0403 19:37:50.020040  9477 net.cpp:141] Setting up inception_5b/output
I0403 19:37:50.020069  9477 net.cpp:148] Top shape: 24 1024 7 7 (1204224)
I0403 19:37:50.020087  9477 net.cpp:156] Memory required for data: 1345864224
I0403 19:37:50.020107  9477 layer_factory.hpp:77] Creating layer pool5/7x7_s1
I0403 19:37:50.020128  9477 net.cpp:91] Creating Layer pool5/7x7_s1
I0403 19:37:50.020148  9477 net.cpp:425] pool5/7x7_s1 <- inception_5b/output
I0403 19:37:50.020172  9477 net.cpp:399] pool5/7x7_s1 -> pool5/7x7_s1
I0403 19:37:50.020443  9477 net.cpp:141] Setting up pool5/7x7_s1
I0403 19:37:50.020486  9477 net.cpp:148] Top shape: 24 1024 1 1 (24576)
I0403 19:37:50.020508  9477 net.cpp:156] Memory required for data: 1345962528
I0403 19:37:50.020526  9477 layer_factory.hpp:77] Creating layer pool5/drop_7x7_s1
I0403 19:37:50.020548  9477 net.cpp:91] Creating Layer pool5/drop_7x7_s1
I0403 19:37:50.020567  9477 net.cpp:425] pool5/drop_7x7_s1 <- pool5/7x7_s1
I0403 19:37:50.020588  9477 net.cpp:386] pool5/drop_7x7_s1 -> pool5/7x7_s1 (in-place)
I0403 19:37:50.020653  9477 net.cpp:141] Setting up pool5/drop_7x7_s1
I0403 19:37:50.020681  9477 net.cpp:148] Top shape: 24 1024 1 1 (24576)
I0403 19:37:50.020700  9477 net.cpp:156] Memory required for data: 1346060832
I0403 19:37:50.020719  9477 layer_factory.hpp:77] Creating layer loss3/classifier_plantvillage
I0403 19:37:50.020745  9477 net.cpp:91] Creating Layer loss3/classifier_plantvillage
I0403 19:37:50.020767  9477 net.cpp:425] loss3/classifier_plantvillage <- pool5/7x7_s1
I0403 19:37:50.020790  9477 net.cpp:399] loss3/classifier_plantvillage -> loss3/classifier_plantvillage
I0403 19:37:50.021316  9477 net.cpp:141] Setting up loss3/classifier_plantvillage
I0403 19:37:50.021347  9477 net.cpp:148] Top shape: 24 38 (912)
I0403 19:37:50.021366  9477 net.cpp:156] Memory required for data: 1346064480
I0403 19:37:50.021389  9477 layer_factory.hpp:77] Creating layer loss3/classifier_plantvillage_loss3/classifier_plantvillage_0_split
I0403 19:37:50.021411  9477 net.cpp:91] Creating Layer loss3/classifier_plantvillage_loss3/classifier_plantvillage_0_split
I0403 19:37:50.021430  9477 net.cpp:425] loss3/classifier_plantvillage_loss3/classifier_plantvillage_0_split <- loss3/classifier_plantvillage
I0403 19:37:50.021457  9477 net.cpp:399] loss3/classifier_plantvillage_loss3/classifier_plantvillage_0_split -> loss3/classifier_plantvillage_loss3/classifier_plantvillage_0_split_0
I0403 19:37:50.021492  9477 net.cpp:399] loss3/classifier_plantvillage_loss3/classifier_plantvillage_0_split -> loss3/classifier_plantvillage_loss3/classifier_plantvillage_0_split_1
I0403 19:37:50.021518  9477 net.cpp:399] loss3/classifier_plantvillage_loss3/classifier_plantvillage_0_split -> loss3/classifier_plantvillage_loss3/classifier_plantvillage_0_split_2
I0403 19:37:50.021543  9477 net.cpp:399] loss3/classifier_plantvillage_loss3/classifier_plantvillage_0_split -> loss3/classifier_plantvillage_loss3/classifier_plantvillage_0_split_3
I0403 19:37:50.021669  9477 net.cpp:141] Setting up loss3/classifier_plantvillage_loss3/classifier_plantvillage_0_split
I0403 19:37:50.021699  9477 net.cpp:148] Top shape: 24 38 (912)
I0403 19:37:50.021719  9477 net.cpp:148] Top shape: 24 38 (912)
I0403 19:37:50.021739  9477 net.cpp:148] Top shape: 24 38 (912)
I0403 19:37:50.021759  9477 net.cpp:148] Top shape: 24 38 (912)
I0403 19:37:50.021776  9477 net.cpp:156] Memory required for data: 1346079072
I0403 19:37:50.021795  9477 layer_factory.hpp:77] Creating layer loss1/loss
I0403 19:37:50.021822  9477 net.cpp:91] Creating Layer loss1/loss
I0403 19:37:50.021844  9477 net.cpp:425] loss1/loss <- loss1/classifier_plantvillage_loss1/classifier_plantvillage_0_split_0
I0403 19:37:50.021883  9477 net.cpp:425] loss1/loss <- label_data_1_split_0
…
