…
I0403 19:18:12.674944  9067 net.cpp:313] The NetState phase (1) differed from the phase (0) specified by a rule in layer data
I0403 19:18:12.676126  9067 net.cpp:49] Initializing net from parameters: 
state {
  phase: TEST
}
layer {
  name: "data"
  type: "Data"
  top: "data"
  top: "label"
  include {
    phase: TEST
  }
  transform_param {
    mirror: false
    crop_size: 224
    mean_file: "/home/mohanty/data/final_dataset/lmdb/color-60-40/mean.binaryproto"
  }
  data_param {
    source: "/home/mohanty/data/final_dataset/lmdb/color-60-40/test_db"
    batch_size: 24
    backend: LMDB
  }
}
layer {
  name: "conv1/7x7_s2"
  type: "Convolution"
  bottom: "data"
  top: "conv1/7x7_s2"
  param {
    lr_mult: 1
    decay_mult: 1
  }
  param {
    lr_mult: 2
    decay_mult: 0
  }
  convolution_param {
    num_output: 64
    pad: 3
    kernel_size: 7
    stride: 2
    weight_filler {
      type: "xavier"
      std: 0.1
    }
    bias_filler {
      type: "constant"
      value: 0.2
    }
  }
}
layer {
  name: "conv1/relu_7x7"
  type: "ReLU"
  bottom: "conv1/7x7_s2"
  top: "conv1/7x7_s2"
}
layer {
  name: "pool1/3x3_s2"
  type: "Pooling"
  bottom: "conv1/7x7_s2"
  top: "pool1/3x3_s2"
  pooling_param {
    pool: MAX
    kernel_size: 3
    stride: 2
  }
}
layer {
  name: "pool1/norm1"
  type: "LRN"
  bottom: "pool1/3x3_s2"
  top: "pool1/norm1"
  lrn_param {
    local_size: 5
    alpha: 0.0001
    beta: 0.75
  }
}
layer {
  name: "conv2/3x3_reduce"
  type: "Convolution"
  bottom: "pool1/norm1"
  top: "conv2/3x3_reduce"
  param {
    lr_mult: 1
    decay_mult: 1
  }
  param {
    lr_mult: 2
    decay_mult: 0
  }
  convolution_param {
    num_output: 64
    kernel_size: 1
    weight_filler {
      type: "xavier"
      std: 0.1
    }
    bias_filler {
      type: "constant"
      value: 0.2
    }
  }
}
layer {
  name: "conv2/relu_3x3_reduce"
  type: "ReLU"
  bottom: "conv2/3x3_reduce"
  top: "conv2/3x3_reduce"
}
layer {
  name: "conv2/3x3"
  type: "Convolution"
  bottom: "conv2/3x3_reduce"
  top: "conv2/3x3"
  param {
    lr_mult: 1
    decay_mult: 1
  }
  param {
    lr_mult: 2
    decay_mult: 0
  }
  convolution_param {
    num_output: 192
    pad: 1
    kernel_size: 3
    weight_filler {
      type: "xavier"
      std: 0.03
    }
    bias_filler {
      type: "constant"
      value: 0.2
    }
  }
}
layer {
  name: "conv2/relu_3x3"
  type: "ReLU"
  bottom: "conv2/3x3"
  top: "conv2/3x3"
}
layer {
  name: "conv2/norm2"
  type: "LRN"
  bottom: "conv2/3x3"
  top: "conv2/norm2"
  lrn_param {
    local_size: 5
    alpha: 0.0001
    beta: 0.75
  }
}
layer {
  name: "pool2/3x3_s2"
  type: "Pooling"
  bottom: "conv2/norm2"
  top: "pool2/3x3_s2"
  pooling_param {
    pool: MAX
    kernel_size: 3
    stride: 2
  }
}
layer {
  name: "inception_3a/1x1"
  type: "Convolution"
  bottom: "pool2/3x3_s2"
  top: "inception_3a/1x1"
  param {
    lr_mult: 1
    decay_mult: 1
  }
  param {
    lr_mult: 2
    decay_mult: 0
  }
  convolution_param {
    num_output: 64
    kernel_size: 1
    weight_filler {
      type: "xavier"
      std: 0.03
    }
    bias_filler {
      type: "constant"
      value: 0.2
    }
  }
}
layer {
  name: "inception_3a/relu_1x1"
  type: "ReLU"
  bottom: "inception_3a/1x1"
  top: "inception_3a/1x1"
}
layer {
  name: "inception_3a/3x3_reduce"
  type: "Convolution"
  bottom: "pool2/3x3_s2"
  top: "inception_3a/3x3_reduce"
  param {
    lr_mult: 1
    decay_mult: 1
  }
  param {
    lr_mult: 2
    decay_mult: 0
  }
  convolution_param {
    num_output: 96
    kernel_size: 1
    weight_filler {
      type: "xavier"
      std: 0.09
    }
    bias_filler {
      type: "constant"
      value: 0.2
    }
  }
}
layer {
  name: "inception_3a/relu_3x3_reduce"
  type: "ReLU"
  bottom: "inception_3a/3x3_reduce"
  top: "inception_3a/3x3_reduce"
}
layer {
  name: "inception_3a/3x3"
  type: "Convolution"
  bottom: "inception_3a/3x3_reduce"
  top: "inception_3a/3x3"
  param {
    lr_mult: 1
    decay_mult: 1
  }
  param {
    lr_mult: 2
    decay_mult: 0
  }
  convolution_param {
    num_output: 128
    pad: 1
    kernel_size: 3
    weight_filler {
      type: "xavier"
      std: 0.03
    }
    bias_filler {
      type: "constant"
      value: 0.2
    }
  }
}
layer {
  name: "inception_3a/relu_3x3"
  type: "ReLU"
  bottom: "inception_3a/3x3"
  top: "inception_3a/3x3"
}
layer {
  name: "inception_3a/5x5_reduce"
  type: "Convolution"
  bottom: "pool2/3x3_s2"
  top: "inception_3a/5x5_reduce"
  param {
    lr_mult: 1
    decay_mult: 1
  }
  param {
    lr_mult: 2
    decay_mult: 0
  }
  convolution_param {
    num_output: 16
    kernel_size: 1
    weight_filler {
      type: "xavier"
      std: 0.2
    }
    bias_filler {
      type: "constant"
      value: 0.2
    }
  }
}
layer {
  name: "inception_3a/relu_5x5_reduce"
  type: "ReLU"
  bottom: "inception_3a/5x5_reduce"
  top: "inception_3a/5x5_reduce"
}
layer {
  name: "inception_3a/5x5"
  type: "Convolution"
  bottom: "inception_3a/5x5_reduce"
  top: "inception_3a/5x5"
  param {
    lr_mult: 1
    decay_mult: 1
  }
  param {
    lr_mult: 2
    decay_mult: 0
  }
  convolution_param {
    num_output: 32
    pad: 2
    kernel_size: 5
    weight_filler {
      type: "xavier"
      std: 0.03
    }
    bias_filler {
      type: "constant"
      value: 0.2
    }
  }
}
layer {
  name: "inception_3a/relu_5x5"
  type: "ReLU"
  bottom: "inception_3a/5x5"
  top: "inception_3a/5x5"
}
layer {
  name: "inception_3a/pool"
  type: "Pooling"
  bottom: "pool2/3x3_s2"
  top: "inception_3a/pool"
  pooling_param {
    pool: MAX
    kernel_size: 3
    stride: 1
    pad: 1
  }
}
layer {
  name: "inception_3a/pool_proj"
  type: "Convolution"
  bottom: "inception_3a/pool"
  top: "inception_3a/pool_proj"
  param {
    lr_mult: 1
    decay_mult: 1
  }
  param {
    lr_mult: 2
    decay_mult: 0
  }
  convolution_param {
    num_output: 32
    kernel_size: 1
    weight_filler {
      type: "xavier"
      std: 0.1
    }
    bias_filler {
      type: "constant"
      value: 0.2
    }
  }
}
layer {
  name: "inception_3a/relu_pool_proj"
  type: "ReLU"
  bottom: "inception_3a/pool_proj"
  top: "inception_3a/pool_proj"
}
layer {
  name: "inception_3a/output"
  type: "Concat"
  bottom: "inception_3a/1x1"
  bottom: "inception_3a/3x3"
  bottom: "inception_3a/5x5"
  bottom: "inception_3a/pool_proj"
  top: "inception_3a/output"
}
layer {
  name: "inception_3b/1x1"
  type: "Convolution"
  bottom: "inception_3a/output"
  top: "inception_3b/1x1"
  param {
    lr_mult: 1
    decay_mult: 1
  }
  param {
    lr_mult: 2
    decay_mult: 0
  }
  convolution_param {
    num_output: 128
    kernel_size: 1
    weight_filler {
      type: "xavier"
      std: 0.03
    }
    bias_filler {
      type: "constant"
      value: 0.2
    }
  }
}
layer {
  name: "inception_3b/relu_1x1"
  type: "ReLU"
  bottom: "inception_3b/1x1"
  top: "inception_3b/1x1"
}
layer {
  name: "inception_3b/3x3_reduce"
  type: "Convolution"
  bottom: "inception_3a/output"
  top: "inception_3b/3x3_reduce"
  param {
    lr_mult: 1
    decay_mult: 1
  }
  param {
    lr_mult: 2
    decay_mult: 0
  }
  convolution_param {
    num_output: 128
    kernel_size: 1
    weight_filler {
      type: "xavier"
      std: 0.09
    }
    bias_filler {
      type: "constant"
      value: 0.2
    }
  }
}
layer {
  name: "inception_3b/relu_3x3_reduce"
  type: "ReLU"
  bottom: "inception_3b/3x3_reduce"
  top: "inception_3b/3x3_reduce"
}
layer {
  name: "inception_3b/3x3"
  type: "Convolution"
  bottom: "inception_3b/3x3_reduce"
  top: "inception_3b/3x3"
  param {
    lr_mult: 1
    decay_mult: 1
  }
  param {
    lr_mult: 2
    decay_mult: 0
  }
  convolution_param {
    num_output: 192
    pad: 1
    kernel_size: 3
    weight_filler {
      type: "xavier"
      std: 0.03
    }
    bias_filler {
      type: "constant"
      value: 0.2
    }
  }
}
layer {
  name: "inception_3b/relu_3x3"
  type: "ReLU"
  bottom: "inception_3b/3x3"
  top: "inception_3b/3x3"
}
layer {
  name: "inception_3b/5x5_reduce"
  type: "Convolution"
  bottom: "inception_3a/output"
  top: "inception_3b/5x5_reduce"
  param {
    lr_mult: 1
    decay_mult: 1
  }
  param {
    lr_mult: 2
    decay_mult: 0
  }
  convolution_param {
    num_output: 32
    kernel_size: 1
    weight_filler {
      type: "xavier"
      std: 0.2
    }
    bias_filler {
      type: "constant"
      value: 0.2
    }
  }
}
layer {
  name: "inception_3b/relu_5x5_reduce"
  type: "ReLU"
  bottom: "inception_3b/5x5_reduce"
  top: "inception_3b/5x5_reduce"
}
layer {
  name: "inception_3b/5x5"
  type: "Convolution"
  bottom: "inception_3b/5x5_reduce"
  top: "inception_3b/5x5"
  param {
    lr_mult: 1
    decay_mult: 1
  }
  param {
    lr_mult: 2
    decay_mult: 0
  }
  convolution_param {
    num_output: 96
    pad: 2
    kernel_size: 5
    weight_filler {
      type: "xavier"
      std: 0.03
    }
    bias_filler {
      type: "constant"
      value: 0.2
    }
  }
}
layer {
  name: "inception_3b/relu_5x5"
  type: "ReLU"
  bottom: "inception_3b/5x5"
  top: "inception_3b/5x5"
}
layer {
  name: "inception_3b/pool"
  type: "Pooling"
  bottom: "inception_3a/output"
  top: "inception_3b/pool"
  pooling_param {
    pool: MAX
    kernel_size: 3
    stride: 1
    pad: 1
  }
}
layer {
  name: "inception_3b/pool_proj"
  type: "Convolution"
  bottom: "inception_3b/pool"
  top: "inception_3b/pool_proj"
  param {
    lr_mult: 1
    decay_mult: 1
  }
  param {
    lr_mult: 2
    decay_mult: 0
  }
  convolution_param {
    num_output: 64
    kernel_size: 1
    weight_filler {
      type: "xavier"
      std: 0.1
    }
    bias_filler {
      type: "constant"
      value: 0.2
    }
  }
}
layer {
  name: "inception_3b/relu_pool_proj"
  type: "ReLU"
  bottom: "inception_3b/pool_proj"
  top: "inception_3b/pool_proj"
}
layer {
  name: "inception_3b/output"
  type: "Concat"
  bottom: "inception_3b/1x1"
  bottom: "inception_3b/3x3"
  bottom: "inception_3b/5x5"
  bottom: "inception_3b/pool_proj"
  top: "inception_3b/output"
}
layer {
  name: "pool3/3x3_s2"
  type: "Pooling"
  bottom: "inception_3b/output"
  top: "pool3/3x3_s2"
  pooling_param {
    pool: MAX
    kernel_size: 3
    stride: 2
  }
}
layer {
  name: "inception_4a/1x1"
  type: "Convolution"
  bottom: "pool3/3x3_s2"
  top: "inception_4a/1x1"
  param {
    lr_mult: 1
    decay_mult: 1
  }
  param {
    lr_mult: 2
    decay_mult: 0
  }
  convolution_param {
    num_output: 192
    kernel_size: 1
    weight_filler {
      type: "xavier"
      std: 0.03
    }
    bias_filler {
      type: "constant"
      value: 0.2
    }
  }
}
layer {
  name: "inception_4a/relu_1x1"
  type: "ReLU"
  bottom: "inception_4a/1x1"
  top: "inception_4a/1x1"
}
layer {
  name: "inception_4a/3x3_reduce"
  type: "Convolution"
  bottom: "pool3/3x3_s2"
  top: "inception_4a/3x3_reduce"
  param {
    lr_mult: 1
    decay_mult: 1
  }
  param {
    lr_mult: 2
    decay_mult: 0
  }
  convolution_param {
    num_output: 96
    kernel_size: 1
    weight_filler {
      type: "xavier"
      std: 0.09
    }
    bias_filler {
      type: "constant"
      value: 0.2
    }
  }
}
layer {
  name: "inception_4a/relu_3x3_reduce"
  type: "ReLU"
  bottom: "inception_4a/3x3_reduce"
  top: "inception_4a/3x3_reduce"
}
layer {
  name: "inception_4a/3x3"
  type: "Convolution"
  bottom: "inception_4a/3x3_reduce"
  top: "inception_4a/3x3"
  param {
    lr_mult: 1
    decay_mult: 1
  }
  param {
    lr_mult: 2
    decay_mult: 0
  }
  convolution_param {
    num_output: 208
    pad: 1
    kernel_size: 3
    weight_filler {
      type: "xavier"
      std: 0.03
    }
    bias_filler {
      type: "constant"
      value: 0.2
    }
  }
}
layer {
  name: "inception_4a/relu_3x3"
  type: "ReLU"
  bottom: "inception_4a/3x3"
  top: "inception_4a/3x3"
}
layer {
  name: "inception_4a/5x5_reduce"
  type: "Convolution"
  bottom: "pool3/3x3_s2"
  top: "inception_4a/5x5_reduce"
  param {
    lr_mult: 1
    decay_mult: 1
  }
  param {
    lr_mult: 2
    decay_mult: 0
  }
  convolution_param {
    num_output: 16
    kernel_size: 1
    weight_filler {
      type: "xavier"
      std: 0.2
    }
    bias_filler {
      type: "constant"
      value: 0.2
    }
  }
}
layer {
  name: "inception_4a/relu_5x5_reduce"
  type: "ReLU"
  bottom: "inception_4a/5x5_reduce"
  top: "inception_4a/5x5_reduce"
}
layer {
  name: "inception_4a/5x5"
  type: "Convolution"
  bottom: "inception_4a/5x5_reduce"
  top: "inception_4a/5x5"
  param {
    lr_mult: 1
    decay_mult: 1
  }
  param {
    lr_mult: 2
    decay_mult: 0
  }
  convolution_param {
    num_output: 48
    pad: 2
    kernel_size: 5
    weight_filler {
      type: "xavier"
      std: 0.03
    }
    bias_filler {
      type: "constant"
      value: 0.2
    }
  }
}
layer {
  name: "inception_4a/relu_5x5"
  type: "ReLU"
  bottom: "inception_4a/5x5"
  top: "inception_4a/5x5"
}
layer {
  name: "inception_4a/pool"
  type: "Pooling"
  bottom: "pool3/3x3_s2"
  top: "inception_4a/pool"
  pooling_param {
    pool: MAX
    kernel_size: 3
    stride: 1
    pad: 1
  }
}
layer {
  name: "inception_4a/pool_proj"
  type: "Convolution"
  bottom: "inception_4a/pool"
  top: "inception_4a/pool_proj"
  param {
    lr_mult: 1
    decay_mult: 1
  }
  param {
    lr_mult: 2
    decay_mult: 0
  }
  convolution_param {
    num_output: 64
    kernel_size: 1
    weight_filler {
      type: "xavier"
      std: 0.1
    }
    bias_filler {
      type: "constant"
      value: 0.2
    }
  }
}
layer {
  name: "inception_4a/relu_pool_proj"
  type: "ReLU"
  bottom: "inception_4a/pool_proj"
  top: "inception_4a/pool_proj"
}
layer {
  name: "inception_4a/output"
  type: "Concat"
  bottom: "inception_4a/1x1"
  bottom: "inception_4a/3x3"
  bottom: "inception_4a/5x5"
  bottom: "inception_4a/pool_proj"
  top: "inception_4a/output"
}
layer {
  name: "loss1/ave_pool"
  type: "Pooling"
  bottom: "inception_4a/output"
  top: "loss1/ave_pool"
  pooling_param {
    pool: AVE
    kernel_size: 5
    stride: 3
  }
}
layer {
  name: "loss1/conv"
  type: "Convolution"
  bottom: "loss1/ave_pool"
  top: "loss1/conv"
  param {
    lr_mult: 1
    decay_mult: 1
  }
  param {
    lr_mult: 2
    decay_mult: 0
  }
  convolution_param {
    num_output: 128
    kernel_size: 1
    weight_filler {
      type: "xavier"
      std: 0.08
    }
    bias_filler {
      type: "constant"
      value: 0.2
    }
  }
}
layer {
  name: "loss1/relu_conv"
  type: "ReLU"
  bottom: "loss1/conv"
  top: "loss1/conv"
}
layer {
  name: "loss1/fc"
  type: "InnerProduct"
  bottom: "loss1/conv"
  top: "loss1/fc"
  param {
    lr_mult: 1
    decay_mult: 1
  }
  param {
    lr_mult: 2
    decay_mult: 0
  }
  inner_product_param {
    num_output: 1024
    weight_filler {
      type: "xavier"
      std: 0.02
    }
    bias_filler {
      type: "constant"
      value: 0.2
    }
  }
}
layer {
  name: "loss1/relu_fc"
  type: "ReLU"
  bottom: "loss1/fc"
  top: "loss1/fc"
}
layer {
  name: "loss1/drop_fc"
  type: "Dropout"
  bottom: "loss1/fc"
  top: "loss1/fc"
  dropout_param {
    dropout_ratio: 0.7
  }
}
layer {
  name: "loss1/classifier_plantvillage"
  type: "InnerProduct"
  bottom: "loss1/fc"
  top: "loss1/classifier_plantvillage"
  param {
    lr_mult: 1
    decay_mult: 1
  }
  param {
    lr_mult: 2
    decay_mult: 0
  }
  inner_product_param {
    num_output: 38
    weight_filler {
      type: "xavier"
      std: 0.0009765625
    }
    bias_filler {
      type: "constant"
      value: 0
    }
  }
}
layer {
  name: "inception_4b/1x1"
  type: "Convolution"
  bottom: "inception_4a/output"
  top: "inception_4b/1x1"
  param {
    lr_mult: 1
    decay_mult: 1
  }
  param {
    lr_mult: 2
    decay_mult: 0
  }
  convolution_param {
    num_output: 160
    kernel_size: 1
    weight_filler {
      type: "xavier"
      std: 0.03
    }
    bias_filler {
      type: "constant"
      value: 0.2
    }
  }
}
layer {
  name: "inception_4b/relu_1x1"
  type: "ReLU"
  bottom: "inception_4b/1x1"
  top: "inception_4b/1x1"
}
layer {
  name: "inception_4b/3x3_reduce"
  type: "Convolution"
  bottom: "inception_4a/output"
  top: "inception_4b/3x3_reduce"
  param {
    lr_mult: 1
    decay_mult: 1
  }
  param {
    lr_mult: 2
    decay_mult: 0
  }
  convolution_param {
    num_output: 112
    kernel_size: 1
    weight_filler {
      type: "xavier"
      std: 0.09
    }
    bias_filler {
      type: "constant"
      value: 0.2
    }
  }
}
layer {
  name: "inception_4b/relu_3x3_reduce"
  type: "ReLU"
  bottom: "inception_4b/3x3_reduce"
  top: "inception_4b/3x3_reduce"
}
layer {
  name: "inception_4b/3x3"
  type: "Convolution"
  bottom: "inception_4b/3x3_reduce"
  top: "inception_4b/3x3"
  param {
    lr_mult: 1
    decay_mult: 1
  }
  param {
    lr_mult: 2
    decay_mult: 0
  }
  convolution_param {
    num_output: 224
    pad: 1
    kernel_size: 3
    weight_filler {
      type: "xavier"
      std: 0.03
    }
    bias_filler {
      type: "constant"
      value: 0.2
    }
  }
}
layer {
  name: "inception_4b/relu_3x3"
  type: "ReLU"
  bottom: "inception_4b/3x3"
  top: "inception_4b/3x3"
}
layer {
  name: "inception_4b/5x5_reduce"
  type: "Convolution"
  bottom: "inception_4a/output"
  top: "inception_4b/5x5_reduce"
  param {
    lr_mult: 1
    decay_mult: 1
  }
  param {
    lr_mult: 2
    decay_mult: 0
  }
  convolution_param {
    num_output: 24
    kernel_size: 1
    weight_filler {
      type: "xavier"
      std: 0.2
    }
    bias_filler {
      type: "constant"
      value: 0.2
    }
  }
}
layer {
  name: "inception_4b/relu_5x5_reduce"
  type: "ReLU"
  bottom: "inception_4b/5x5_reduce"
  top: "inception_4b/5x5_reduce"
}
layer {
  name: "inception_4b/5x5"
  type: "Convolution"
  bottom: "inception_4b/5x5_reduce"
  top: "inception_4b/5x5"
  param {
    lr_mult: 1
    decay_mult: 1
  }
  param {
    lr_mult: 2
    decay_mult: 0
  }
  convolution_param {
    num_output: 64
    pad: 2
    kernel_size: 5
    weight_filler {
      type: "xavier"
      std: 0.03
    }
    bias_filler {
      type: "constant"
      value: 0.2
    }
  }
}
layer {
  name: "inception_4b/relu_5x5"
  type: "ReLU"
  bottom: "inception_4b/5x5"
  top: "inception_4b/5x5"
}
layer {
  name: "inception_4b/pool"
  type: "Pooling"
  bottom: "inception_4a/output"
  top: "inception_4b/pool"
  pooling_param {
    pool: MAX
    kernel_size: 3
    stride: 1
    pad: 1
  }
}
layer {
  name: "inception_4b/pool_proj"
  type: "Convolution"
  bottom: "inception_4b/pool"
  top: "inception_4b/pool_proj"
  param {
    lr_mult: 1
    decay_mult: 1
  }
  param {
    lr_mult: 2
    decay_mult: 0
  }
  convolution_param {
    num_output: 64
    kernel_size: 1
    weight_filler {
      type: "xavier"
      std: 0.1
    }
    bias_filler {
      type: "constant"
      value: 0.2
    }
  }
}
layer {
  name: "inception_4b/relu_pool_proj"
  type: "ReLU"
  bottom: "inception_4b/pool_proj"
  top: "inception_4b/pool_proj"
}
layer {
  name: "inception_4b/output"
  type: "Concat"
  bottom: "inception_4b/1x1"
  bottom: "inception_4b/3x3"
  bottom: "inception_4b/5x5"
  bottom: "inception_4b/pool_proj"
  top: "inception_4b/output"
}
layer {
  name: "inception_4c/1x1"
  type: "Convolution"
  bottom: "inception_4b/output"
  top: "inception_4c/1x1"
  param {
    lr_mult: 1
    decay_mult: 1
  }
  param {
    lr_mult: 2
    decay_mult: 0
  }
  convolution_param {
    num_output: 128
    kernel_size: 1
    weight_filler {
      type: "xavier"
      std: 0.03
    }
    bias_filler {
      type: "constant"
      value: 0.2
    }
  }
}
layer {
  name: "inception_4c/relu_1x1"
  type: "ReLU"
  bottom: "inception_4c/1x1"
  top: "inception_4c/1x1"
}
layer {
  name: "inception_4c/3x3_reduce"
  type: "Convolution"
  bottom: "inception_4b/output"
  top: "inception_4c/3x3_reduce"
  param {
    lr_mult: 1
    decay_mult: 1
  }
  param {
    lr_mult: 2
    decay_mult: 0
  }
  convolution_param {
    num_output: 128
    kernel_size: 1
    weight_filler {
      type: "xavier"
      std: 0.09
    }
    bias_filler {
      type: "constant"
      value: 0.2
    }
  }
}
layer {
  name: "inception_4c/relu_3x3_reduce"
  type: "ReLU"
  bottom: "inception_4c/3x3_reduce"
  top: "inception_4c/3x3_reduce"
}
layer {
  name: "inception_4c/3x3"
  type: "Convolution"
  bottom: "inception_4c/3x3_reduce"
  top: "inception_4c/3x3"
  param {
    lr_mult: 1
    decay_mult: 1
  }
  param {
    lr_mult: 2
    decay_mult: 0
  }
  convolution_param {
    num_output: 256
    pad: 1
    kernel_size: 3
    weight_filler {
      type: "xavier"
      std: 0.03
    }
    bias_filler {
      type: "constant"
      value: 0.2
    }
  }
}
layer {
  name: "inception_4c/relu_3x3"
  type: "ReLU"
  bottom: "inception_4c/3x3"
  top: "inception_4c/3x3"
}
layer {
  name: "inception_4c/5x5_reduce"
  type: "Convolution"
  bottom: "inception_4b/output"
  top: "inception_4c/5x5_reduce"
  param {
    lr_mult: 1
    decay_mult: 1
  }
  param {
    lr_mult: 2
    decay_mult: 0
  }
  convolution_param {
    num_output: 24
    kernel_size: 1
    weight_filler {
      type: "xavier"
      std: 0.2
    }
    bias_filler {
      type: "constant"
      value: 0.2
    }
  }
}
layer {
  name: "inception_4c/relu_5x5_reduce"
  type: "ReLU"
  bottom: "inception_4c/5x5_reduce"
  top: "inception_4c/5x5_reduce"
}
layer {
  name: "inception_4c/5x5"
  type: "Convolution"
  bottom: "inception_4c/5x5_reduce"
  top: "inception_4c/5x5"
  param {
    lr_mult: 1
    decay_mult: 1
  }
  param {
    lr_mult: 2
    decay_mult: 0
  }
  convolution_param {
    num_output: 64
    pad: 2
    kernel_size: 5
    weight_filler {
      type: "xavier"
      std: 0.03
    }
    bias_filler {
      type: "constant"
      value: 0.2
    }
  }
}
layer {
  name: "inception_4c/relu_5x5"
  type: "ReLU"
  bottom: "inception_4c/5x5"
  top: "inception_4c/5x5"
}
layer {
  name: "inception_4c/pool"
  type: "Pooling"
  bottom: "inception_4b/output"
  top: "inception_4c/pool"
  pooling_param {
    pool: MAX
    kernel_size: 3
    stride: 1
    pad: 1
  }
}
layer {
  name: "inception_4c/pool_proj"
  type: "Convolution"
  bottom: "inception_4c/pool"
  top: "inception_4c/pool_proj"
  param {
    lr_mult: 1
    decay_mult: 1
  }
  param {
    lr_mult: 2
    decay_mult: 0
  }
  convolution_param {
    num_output: 64
    kernel_size: 1
    weight_filler {
      type: "xavier"
      std: 0.1
    }
    bias_filler {
      type: "constant"
      value: 0.2
    }
  }
}
layer {
  name: "inception_4c/relu_pool_proj"
  type: "ReLU"
  bottom: "inception_4c/pool_proj"
  top: "inception_4c/pool_proj"
}
layer {
  name: "inception_4c/output"
  type: "Concat"
  bottom: "inception_4c/1x1"
  bottom: "inception_4c/3x3"
  bottom: "inception_4c/5x5"
  bottom: "inception_4c/pool_proj"
  top: "inception_4c/output"
}
layer {
  name: "inception_4d/1x1"
  type: "Convolution"
  bottom: "inception_4c/output"
  top: "inception_4d/1x1"
  param {
    lr_mult: 1
    decay_mult: 1
  }
  param {
    lr_mult: 2
    decay_mult: 0
  }
  convolution_param {
    num_output: 112
    kernel_size: 1
    weight_filler {
      type: "xavier"
      std: 0.03
    }
    bias_filler {
      type: "constant"
      value: 0.2
    }
  }
}
layer {
  name: "inception_4d/relu_1x1"
  type: "ReLU"
  bottom: "inception_4d/1x1"
  top: "inception_4d/1x1"
}
layer {
  name: "inception_4d/3x3_reduce"
  type: "Convolution"
  bottom: "inception_4c/output"
  top: "inception_4d/3x3_reduce"
  param {
    lr_mult: 1
    decay_mult: 1
  }
  param {
    lr_mult: 2
    decay_mult: 0
  }
  convolution_param {
    num_output: 144
    kernel_size: 1
    weight_filler {
      type: "xavier"
      std: 0.09
    }
    bias_filler {
      type: "constant"
      value: 0.2
    }
  }
}
layer {
  name: "inception_4d/relu_3x3_reduce"
  type: "ReLU"
  bottom: "inception_4d/3x3_reduce"
  top: "inception_4d/3x3_reduce"
}
layer {
  name: "inception_4d/3x3"
  type: "Convolution"
  bottom: "inception_4d/3x3_reduce"
  top: "inception_4d/3x3"
  param {
    lr_mult: 1
    decay_mult: 1
  }
  param {
    lr_mult: 2
    decay_mult: 0
  }
  convolution_param {
    num_output: 288
    pad: 1
    kernel_size: 3
    weight_filler {
      type: "xavier"
      std: 0.03
    }
    bias_filler {
      type: "constant"
      value: 0.2
    }
  }
}
layer {
  name: "inception_4d/relu_3x3"
  type: "ReLU"
  bottom: "inception_4d/3x3"
  top: "inception_4d/3x3"
}
layer {
  name: "inception_4d/5x5_reduce"
  type: "Convolution"
  bottom: "inception_4c/output"
  top: "inception_4d/5x5_reduce"
  param {
    lr_mult: 1
    decay_mult: 1
  }
  param {
    lr_mult: 2
    decay_mult: 0
  }
  convolution_param {
    num_output: 32
    kernel_size: 1
    weight_filler {
      type: "xavier"
      std: 0.2
    }
    bias_filler {
      type: "constant"
      value: 0.2
    }
  }
}
layer {
  name: "inception_4d/relu_5x5_reduce"
  type: "ReLU"
  bottom: "inception_4d/5x5_reduce"
  top: "inception_4d/5x5_reduce"
}
layer {
  name: "inception_4d/5x5"
  type: "Convolution"
  bottom: "inception_4d/5x5_reduce"
  top: "inception_4d/5x5"
  param {
    lr_mult: 1
    decay_mult: 1
  }
  param {
    lr_mult: 2
    decay_mult: 0
  }
  convolution_param {
    num_output: 64
    pad: 2
    kernel_size: 5
    weight_filler {
      type: "xavier"
      std: 0.03
    }
    bias_filler {
      type: "constant"
      value: 0.2
    }
  }
}
layer {
  name: "inception_4d/relu_5x5"
  type: "ReLU"
  bottom: "inception_4d/5x5"
  top: "inception_4d/5x5"
}
layer {
  name: "inception_4d/pool"
  type: "Pooling"
  bottom: "inception_4c/output"
  top: "inception_4d/pool"
  pooling_param {
    pool: MAX
    kernel_size: 3
    stride: 1
    pad: 1
  }
}
layer {
  name: "inception_4d/pool_proj"
  type: "Convolution"
  bottom: "inception_4d/pool"
  top: "inception_4d/pool_proj"
  param {
    lr_mult: 1
    decay_mult: 1
  }
  param {
    lr_mult: 2
    decay_mult: 0
  }
  convolution_param {
    num_output: 64
    kernel_size: 1
    weight_filler {
      type: "xavier"
      std: 0.1
    }
    bias_filler {
      type: "constant"
      value: 0.2
    }
  }
}
layer {
  name: "inception_4d/relu_pool_proj"
  type: "ReLU"
  bottom: "inception_4d/pool_proj"
  top: "inception_4d/pool_proj"
}
layer {
  name: "inception_4d/output"
  type: "Concat"
  bottom: "inception_4d/1x1"
  bottom: "inception_4d/3x3"
  bottom: "inception_4d/5x5"
  bottom: "inception_4d/pool_proj"
  top: "inception_4d/output"
}
layer {
  name: "loss2/ave_pool"
  type: "Pooling"
  bottom: "inception_4d/output"
  top: "loss2/ave_pool"
  pooling_param {
    pool: AVE
    kernel_size: 5
    stride: 3
  }
}
layer {
  name: "loss2/conv"
  type: "Convolution"
  bottom: "loss2/ave_pool"
  top: "loss2/conv"
  param {
    lr_mult: 1
    decay_mult: 1
  }
  param {
    lr_mult: 2
    decay_mult: 0
  }
  convolution_param {
    num_output: 128
    kernel_size: 1
    weight_filler {
      type: "xavier"
      std: 0.08
    }
    bias_filler {
      type: "constant"
      value: 0.2
    }
  }
}
layer {
  name: "loss2/relu_conv"
  type: "ReLU"
  bottom: "loss2/conv"
  top: "loss2/conv"
}
layer {
  name: "loss2/fc"
  type: "InnerProduct"
  bottom: "loss2/conv"
  top: "loss2/fc"
  param {
    lr_mult: 1
    decay_mult: 1
  }
  param {
    lr_mult: 2
    decay_mult: 0
  }
  inner_product_param {
    num_output: 1024
    weight_filler {
      type: "xavier"
      std: 0.02
    }
    bias_filler {
      type: "constant"
      value: 0.2
    }
  }
}
layer {
  name: "loss2/relu_fc"
  type: "ReLU"
  bottom: "loss2/fc"
  top: "loss2/fc"
}
layer {
  name: "loss2/drop_fc"
  type: "Dropout"
  bottom: "loss2/fc"
  top: "loss2/fc"
  dropout_param {
    dropout_ratio: 0.7
  }
}
layer {
  name: "loss2/classifier_plantvillage"
  type: "InnerProduct"
  bottom: "loss2/fc"
  top: "loss2/classifier_plantvillage"
  param {
    lr_mult: 1
    decay_mult: 1
  }
  param {
    lr_mult: 2
    decay_mult: 0
  }
  inner_product_param {
    num_output: 38
    weight_filler {
      type: "xavier"
      std: 0.0009765625
    }
    bias_filler {
      type: "constant"
      value: 0
    }
  }
}
layer {
  name: "inception_4e/1x1"
  type: "Convolution"
  bottom: "inception_4d/output"
  top: "inception_4e/1x1"
  param {
    lr_mult: 1
    decay_mult: 1
  }
  param {
    lr_mult: 2
    decay_mult: 0
  }
  convolution_param {
    num_output: 256
    kernel_size: 1
    weight_filler {
      type: "xavier"
      std: 0.03
    }
    bias_filler {
      type: "constant"
      value: 0.2
    }
  }
}
layer {
  name: "inception_4e/relu_1x1"
  type: "ReLU"
  bottom: "inception_4e/1x1"
  top: "inception_4e/1x1"
}
layer {
  name: "inception_4e/3x3_reduce"
  type: "Convolution"
  bottom: "inception_4d/output"
  top: "inception_4e/3x3_reduce"
  param {
    lr_mult: 1
    decay_mult: 1
  }
  param {
    lr_mult: 2
    decay_mult: 0
  }
  convolution_param {
    num_output: 160
    kernel_size: 1
    weight_filler {
      type: "xavier"
      std: 0.09
    }
    bias_filler {
      type: "constant"
      value: 0.2
    }
  }
}
layer {
  name: "inception_4e/relu_3x3_reduce"
  type: "ReLU"
  bottom: "inception_4e/3x3_reduce"
  top: "inception_4e/3x3_reduce"
}
layer {
  name: "inception_4e/3x3"
  type: "Convolution"
  bottom: "inception_4e/3x3_reduce"
  top: "inception_4e/3x3"
  param {
    lr_mult: 1
    decay_mult: 1
  }
  param {
    lr_mult: 2
    decay_mult: 0
  }
  convolution_param {
    num_output: 320
    pad: 1
    kernel_size: 3
    weight_filler {
      type: "xavier"
      std: 0.03
    }
    bias_filler {
      type: "constant"
      value: 0.2
    }
  }
}
layer {
  name: "inception_4e/relu_3x3"
  type: "ReLU"
  bottom: "inception_4e/3x3"
  top: "inception_4e/3x3"
}
layer {
  name: "inception_4e/5x5_reduce"
  type: "Convolution"
  bottom: "inception_4d/output"
  top: "inception_4e/5x5_reduce"
  param {
    lr_mult: 1
    decay_mult: 1
  }
  param {
    lr_mult: 2
    decay_mult: 0
  }
  convolution_param {
    num_output: 32
    kernel_size: 1
    weight_filler {
      type: "xavier"
      std: 0.2
    }
    bias_filler {
      type: "constant"
      value: 0.2
    }
  }
}
layer {
  name: "inception_4e/relu_5x5_reduce"
  type: "ReLU"
  bottom: "inception_4e/5x5_reduce"
  top: "inception_4e/5x5_reduce"
}
layer {
  name: "inception_4e/5x5"
  type: "Convolution"
  bottom: "inception_4e/5x5_reduce"
  top: "inception_4e/5x5"
  p
I0403 19:18:12.677796  9067 layer_factory.hpp:77] Creating layer data
I0403 19:18:12.678375  9067 net.cpp:91] Creating Layer data
I0403 19:18:12.678406  9067 net.cpp:399] data -> data
I0403 19:18:12.678468  9067 net.cpp:399] data -> label
I0403 19:18:12.678506  9067 data_transformer.cpp:25] Loading mean file from: /home/mohanty/data/final_dataset/lmdb/color-60-40/mean.binaryproto
I0403 19:18:12.679628  9070 db_lmdb.cpp:38] Opened lmdb /home/mohanty/data/final_dataset/lmdb/color-60-40/test_db
I0403 19:18:12.691313  9067 data_layer.cpp:41] output data size: 24,3,224,224
I0403 19:18:12.717335  9067 net.cpp:141] Setting up data
I0403 19:18:12.717411  9067 net.cpp:148] Top shape: 24 3 224 224 (3612672)
I0403 19:18:12.717434  9067 net.cpp:148] Top shape: 24 (24)
I0403 19:18:12.717449  9067 net.cpp:156] Memory required for data: 14450784
I0403 19:18:12.717485  9067 layer_factory.hpp:77] Creating layer label_data_1_split
I0403 19:18:12.717514  9067 net.cpp:91] Creating Layer label_data_1_split
I0403 19:18:12.717535  9067 net.cpp:425] label_data_1_split <- label
I0403 19:18:12.717571  9067 net.cpp:399] label_data_1_split -> label_data_1_split_0
I0403 19:18:12.717599  9067 net.cpp:399] label_data_1_split -> label_data_1_split_1
I0403 19:18:12.717622  9067 net.cpp:399] label_data_1_split -> label_data_1_split_2
I0403 19:18:12.717643  9067 net.cpp:399] label_data_1_split -> label_data_1_split_3
I0403 19:18:12.717663  9067 net.cpp:399] label_data_1_split -> label_data_1_split_4
I0403 19:18:12.717684  9067 net.cpp:399] label_data_1_split -> label_data_1_split_5
I0403 19:18:12.717703  9067 net.cpp:399] label_data_1_split -> label_data_1_split_6
I0403 19:18:12.717723  9067 net.cpp:399] label_data_1_split -> label_data_1_split_7
I0403 19:18:12.717742  9067 net.cpp:399] label_data_1_split -> label_data_1_split_8
I0403 19:18:12.717762  9067 net.cpp:399] label_data_1_split -> label_data_1_split_9
I0403 19:18:12.717875  9067 net.cpp:141] Setting up label_data_1_split
I0403 19:18:12.717898  9067 net.cpp:148] Top shape: 24 (24)
I0403 19:18:12.717916  9067 net.cpp:148] Top shape: 24 (24)
I0403 19:18:12.717931  9067 net.cpp:148] Top shape: 24 (24)
I0403 19:18:12.717947  9067 net.cpp:148] Top shape: 24 (24)
I0403 19:18:12.717962  9067 net.cpp:148] Top shape: 24 (24)
I0403 19:18:12.717978  9067 net.cpp:148] Top shape: 24 (24)
I0403 19:18:12.717994  9067 net.cpp:148] Top shape: 24 (24)
I0403 19:18:12.718010  9067 net.cpp:148] Top shape: 24 (24)
I0403 19:18:12.718026  9067 net.cpp:148] Top shape: 24 (24)
I0403 19:18:12.718042  9067 net.cpp:148] Top shape: 24 (24)
I0403 19:18:12.718089  9067 net.cpp:156] Memory required for data: 14451744
I0403 19:18:12.718106  9067 layer_factory.hpp:77] Creating layer conv1/7x7_s2
I0403 19:18:12.718140  9067 net.cpp:91] Creating Layer conv1/7x7_s2
I0403 19:18:12.718160  9067 net.cpp:425] conv1/7x7_s2 <- data
I0403 19:18:12.718202  9067 net.cpp:399] conv1/7x7_s2 -> conv1/7x7_s2
I0403 19:18:12.850236  9067 net.cpp:141] Setting up conv1/7x7_s2
I0403 19:18:12.850311  9067 net.cpp:148] Top shape: 24 64 112 112 (19267584)
I0403 19:18:12.850329  9067 net.cpp:156] Memory required for data: 91522080
I0403 19:18:12.850364  9067 layer_factory.hpp:77] Creating layer conv1/relu_7x7
I0403 19:18:12.850394  9067 net.cpp:91] Creating Layer conv1/relu_7x7
I0403 19:18:12.850415  9067 net.cpp:425] conv1/relu_7x7 <- conv1/7x7_s2
I0403 19:18:12.850435  9067 net.cpp:386] conv1/relu_7x7 -> conv1/7x7_s2 (in-place)
I0403 19:18:12.850693  9067 net.cpp:141] Setting up conv1/relu_7x7
I0403 19:18:12.850720  9067 net.cpp:148] Top shape: 24 64 112 112 (19267584)
I0403 19:18:12.850736  9067 net.cpp:156] Memory required for data: 168592416
I0403 19:18:12.850752  9067 layer_factory.hpp:77] Creating layer pool1/3x3_s2
I0403 19:18:12.850780  9067 net.cpp:91] Creating Layer pool1/3x3_s2
I0403 19:18:12.850797  9067 net.cpp:425] pool1/3x3_s2 <- conv1/7x7_s2
I0403 19:18:12.850816  9067 net.cpp:399] pool1/3x3_s2 -> pool1/3x3_s2
I0403 19:18:12.850890  9067 net.cpp:141] Setting up pool1/3x3_s2
I0403 19:18:12.850914  9067 net.cpp:148] Top shape: 24 64 56 56 (4816896)
I0403 19:18:12.850929  9067 net.cpp:156] Memory required for data: 187860000
I0403 19:18:12.850945  9067 layer_factory.hpp:77] Creating layer pool1/norm1
I0403 19:18:12.850970  9067 net.cpp:91] Creating Layer pool1/norm1
I0403 19:18:12.850988  9067 net.cpp:425] pool1/norm1 <- pool1/3x3_s2
I0403 19:18:12.851007  9067 net.cpp:399] pool1/norm1 -> pool1/norm1
I0403 19:18:12.851287  9067 net.cpp:141] Setting up pool1/norm1
I0403 19:18:12.851315  9067 net.cpp:148] Top shape: 24 64 56 56 (4816896)
I0403 19:18:12.851330  9067 net.cpp:156] Memory required for data: 207127584
I0403 19:18:12.851346  9067 layer_factory.hpp:77] Creating layer conv2/3x3_reduce
I0403 19:18:12.851377  9067 net.cpp:91] Creating Layer conv2/3x3_reduce
I0403 19:18:12.851395  9067 net.cpp:425] conv2/3x3_reduce <- pool1/norm1
I0403 19:18:12.851414  9067 net.cpp:399] conv2/3x3_reduce -> conv2/3x3_reduce
I0403 19:18:12.852728  9067 net.cpp:141] Setting up conv2/3x3_reduce
I0403 19:18:12.852757  9067 net.cpp:148] Top shape: 24 64 56 56 (4816896)
I0403 19:18:12.852773  9067 net.cpp:156] Memory required for data: 226395168
I0403 19:18:12.852794  9067 layer_factory.hpp:77] Creating layer conv2/relu_3x3_reduce
I0403 19:18:12.852814  9067 net.cpp:91] Creating Layer conv2/relu_3x3_reduce
I0403 19:18:12.852830  9067 net.cpp:425] conv2/relu_3x3_reduce <- conv2/3x3_reduce
I0403 19:18:12.852849  9067 net.cpp:386] conv2/relu_3x3_reduce -> conv2/3x3_reduce (in-place)
I0403 19:18:12.853096  9067 net.cpp:141] Setting up conv2/relu_3x3_reduce
I0403 19:18:12.853123  9067 net.cpp:148] Top shape: 24 64 56 56 (4816896)
I0403 19:18:12.853138  9067 net.cpp:156] Memory required for data: 245662752
I0403 19:18:12.853153  9067 layer_factory.hpp:77] Creating layer conv2/3x3
I0403 19:18:12.853174  9067 net.cpp:91] Creating Layer conv2/3x3
I0403 19:18:12.853191  9067 net.cpp:425] conv2/3x3 <- conv2/3x3_reduce
I0403 19:18:12.853211  9067 net.cpp:399] conv2/3x3 -> conv2/3x3
I0403 19:18:12.855417  9067 net.cpp:141] Setting up conv2/3x3
I0403 19:18:12.855448  9067 net.cpp:148] Top shape: 24 192 56 56 (14450688)
I0403 19:18:12.855471  9067 net.cpp:156] Memory required for data: 303465504
I0403 19:18:12.855495  9067 layer_factory.hpp:77] Creating layer conv2/relu_3x3
I0403 19:18:12.855518  9067 net.cpp:91] Creating Layer conv2/relu_3x3
I0403 19:18:12.855537  9067 net.cpp:425] conv2/relu_3x3 <- conv2/3x3
I0403 19:18:12.855556  9067 net.cpp:386] conv2/relu_3x3 -> conv2/3x3 (in-place)
I0403 19:18:12.855739  9067 net.cpp:141] Setting up conv2/relu_3x3
I0403 19:18:12.855767  9067 net.cpp:148] Top shape: 24 192 56 56 (14450688)
I0403 19:18:12.855818  9067 net.cpp:156] Memory required for data: 361268256
I0403 19:18:12.855835  9067 layer_factory.hpp:77] Creating layer conv2/norm2
I0403 19:18:12.855854  9067 net.cpp:91] Creating Layer conv2/norm2
I0403 19:18:12.855870  9067 net.cpp:425] conv2/norm2 <- conv2/3x3
I0403 19:18:12.855890  9067 net.cpp:399] conv2/norm2 -> conv2/norm2
I0403 19:18:12.856189  9067 net.cpp:141] Setting up conv2/norm2
I0403 19:18:12.856216  9067 net.cpp:148] Top shape: 24 192 56 56 (14450688)
I0403 19:18:12.856232  9067 net.cpp:156] Memory required for data: 419071008
I0403 19:18:12.856247  9067 layer_factory.hpp:77] Creating layer pool2/3x3_s2
I0403 19:18:12.856266  9067 net.cpp:91] Creating Layer pool2/3x3_s2
I0403 19:18:12.856281  9067 net.cpp:425] pool2/3x3_s2 <- conv2/norm2
I0403 19:18:12.856302  9067 net.cpp:399] pool2/3x3_s2 -> pool2/3x3_s2
I0403 19:18:12.856354  9067 net.cpp:141] Setting up pool2/3x3_s2
I0403 19:18:12.856380  9067 net.cpp:148] Top shape: 24 192 28 28 (3612672)
I0403 19:18:12.856396  9067 net.cpp:156] Memory required for data: 433521696
I0403 19:18:12.856412  9067 layer_factory.hpp:77] Creating layer pool2/3x3_s2_pool2/3x3_s2_0_split
I0403 19:18:12.856431  9067 net.cpp:91] Creating Layer pool2/3x3_s2_pool2/3x3_s2_0_split
I0403 19:18:12.856446  9067 net.cpp:425] pool2/3x3_s2_pool2/3x3_s2_0_split <- pool2/3x3_s2
I0403 19:18:12.856467  9067 net.cpp:399] pool2/3x3_s2_pool2/3x3_s2_0_split -> pool2/3x3_s2_pool2/3x3_s2_0_split_0
I0403 19:18:12.856492  9067 net.cpp:399] pool2/3x3_s2_pool2/3x3_s2_0_split -> pool2/3x3_s2_pool2/3x3_s2_0_split_1
I0403 19:18:12.856514  9067 net.cpp:399] pool2/3x3_s2_pool2/3x3_s2_0_split -> pool2/3x3_s2_pool2/3x3_s2_0_split_2
I0403 19:18:12.856535  9067 net.cpp:399] pool2/3x3_s2_pool2/3x3_s2_0_split -> pool2/3x3_s2_pool2/3x3_s2_0_split_3
I0403 19:18:12.856603  9067 net.cpp:141] Setting up pool2/3x3_s2_pool2/3x3_s2_0_split
I0403 19:18:12.856626  9067 net.cpp:148] Top shape: 24 192 28 28 (3612672)
I0403 19:18:12.856643  9067 net.cpp:148] Top shape: 24 192 28 28 (3612672)
I0403 19:18:12.856659  9067 net.cpp:148] Top shape: 24 192 28 28 (3612672)
I0403 19:18:12.856675  9067 net.cpp:148] Top shape: 24 192 28 28 (3612672)
I0403 19:18:12.856690  9067 net.cpp:156] Memory required for data: 491324448
I0403 19:18:12.856705  9067 layer_factory.hpp:77] Creating layer inception_3a/1x1
I0403 19:18:12.856727  9067 net.cpp:91] Creating Layer inception_3a/1x1
I0403 19:18:12.856745  9067 net.cpp:425] inception_3a/1x1 <- pool2/3x3_s2_pool2/3x3_s2_0_split_0
I0403 19:18:12.856767  9067 net.cpp:399] inception_3a/1x1 -> inception_3a/1x1
I0403 19:18:12.858258  9067 net.cpp:141] Setting up inception_3a/1x1
I0403 19:18:12.858289  9067 net.cpp:148] Top shape: 24 64 28 28 (1204224)
I0403 19:18:12.858306  9067 net.cpp:156] Memory required for data: 496141344
I0403 19:18:12.858325  9067 layer_factory.hpp:77] Creating layer inception_3a/relu_1x1
I0403 19:18:12.858343  9067 net.cpp:91] Creating Layer inception_3a/relu_1x1
I0403 19:18:12.858360  9067 net.cpp:425] inception_3a/relu_1x1 <- inception_3a/1x1
I0403 19:18:12.858379  9067 net.cpp:386] inception_3a/relu_1x1 -> inception_3a/1x1 (in-place)
I0403 19:18:12.858556  9067 net.cpp:141] Setting up inception_3a/relu_1x1
I0403 19:18:12.858582  9067 net.cpp:148] Top shape: 24 64 28 28 (1204224)
I0403 19:18:12.858597  9067 net.cpp:156] Memory required for data: 500958240
I0403 19:18:12.858613  9067 layer_factory.hpp:77] Creating layer inception_3a/3x3_reduce
I0403 19:18:12.858635  9067 net.cpp:91] Creating Layer inception_3a/3x3_reduce
I0403 19:18:12.858654  9067 net.cpp:425] inception_3a/3x3_reduce <- pool2/3x3_s2_pool2/3x3_s2_0_split_1
I0403 19:18:12.858675  9067 net.cpp:399] inception_3a/3x3_reduce -> inception_3a/3x3_reduce
I0403 19:18:12.860352  9067 net.cpp:141] Setting up inception_3a/3x3_reduce
I0403 19:18:12.860380  9067 net.cpp:148] Top shape: 24 96 28 28 (1806336)
I0403 19:18:12.860396  9067 net.cpp:156] Memory required for data: 508183584
I0403 19:18:12.860419  9067 layer_factory.hpp:77] Creating layer inception_3a/relu_3x3_reduce
I0403 19:18:12.860471  9067 net.cpp:91] Creating Layer inception_3a/relu_3x3_reduce
I0403 19:18:12.860491  9067 net.cpp:425] inception_3a/relu_3x3_reduce <- inception_3a/3x3_reduce
I0403 19:18:12.860509  9067 net.cpp:386] inception_3a/relu_3x3_reduce -> inception_3a/3x3_reduce (in-place)
I0403 19:18:12.860679  9067 net.cpp:141] Setting up inception_3a/relu_3x3_reduce
I0403 19:18:12.860704  9067 net.cpp:148] Top shape: 24 96 28 28 (1806336)
I0403 19:18:12.860719  9067 net.cpp:156] Memory required for data: 515408928
I0403 19:18:12.860734  9067 layer_factory.hpp:77] Creating layer inception_3a/3x3
I0403 19:18:12.860757  9067 net.cpp:91] Creating Layer inception_3a/3x3
I0403 19:18:12.860775  9067 net.cpp:425] inception_3a/3x3 <- inception_3a/3x3_reduce
I0403 19:18:12.860796  9067 net.cpp:399] inception_3a/3x3 -> inception_3a/3x3
I0403 19:18:12.862329  9067 net.cpp:141] Setting up inception_3a/3x3
I0403 19:18:12.862356  9067 net.cpp:148] Top shape: 24 128 28 28 (2408448)
I0403 19:18:12.862371  9067 net.cpp:156] Memory required for data: 525042720
I0403 19:18:12.862390  9067 layer_factory.hpp:77] Creating layer inception_3a/relu_3x3
I0403 19:18:12.862409  9067 net.cpp:91] Creating Layer inception_3a/relu_3x3
I0403 19:18:12.862426  9067 net.cpp:425] inception_3a/relu_3x3 <- inception_3a/3x3
I0403 19:18:12.862444  9067 net.cpp:386] inception_3a/relu_3x3 -> inception_3a/3x3 (in-place)
I0403 19:18:12.862714  9067 net.cpp:141] Setting up inception_3a/relu_3x3
I0403 19:18:12.862738  9067 net.cpp:148] Top shape: 24 128 28 28 (2408448)
I0403 19:18:12.862754  9067 net.cpp:156] Memory required for data: 534676512
I0403 19:18:12.862769  9067 layer_factory.hpp:77] Creating layer inception_3a/5x5_reduce
I0403 19:18:12.862792  9067 net.cpp:91] Creating Layer inception_3a/5x5_reduce
I0403 19:18:12.862809  9067 net.cpp:425] inception_3a/5x5_reduce <- pool2/3x3_s2_pool2/3x3_s2_0_split_2
I0403 19:18:12.862830  9067 net.cpp:399] inception_3a/5x5_reduce -> inception_3a/5x5_reduce
I0403 19:18:12.863761  9067 net.cpp:141] Setting up inception_3a/5x5_reduce
I0403 19:18:12.863788  9067 net.cpp:148] Top shape: 24 16 28 28 (301056)
I0403 19:18:12.863806  9067 net.cpp:156] Memory required for data: 535880736
I0403 19:18:12.863824  9067 layer_factory.hpp:77] Creating layer inception_3a/relu_5x5_reduce
I0403 19:18:12.863845  9067 net.cpp:91] Creating Layer inception_3a/relu_5x5_reduce
I0403 19:18:12.863862  9067 net.cpp:425] inception_3a/relu_5x5_reduce <- inception_3a/5x5_reduce
I0403 19:18:12.863880  9067 net.cpp:386] inception_3a/relu_5x5_reduce -> inception_3a/5x5_reduce (in-place)
I0403 19:18:12.864156  9067 net.cpp:141] Setting up inception_3a/relu_5x5_reduce
I0403 19:18:12.864184  9067 net.cpp:148] Top shape: 24 16 28 28 (301056)
I0403 19:18:12.864202  9067 net.cpp:156] Memory required for data: 537084960
I0403 19:18:12.864217  9067 layer_factory.hpp:77] Creating layer inception_3a/5x5
I0403 19:18:12.864239  9067 net.cpp:91] Creating Layer inception_3a/5x5
I0403 19:18:12.864258  9067 net.cpp:425] inception_3a/5x5 <- inception_3a/5x5_reduce
I0403 19:18:12.864277  9067 net.cpp:399] inception_3a/5x5 -> inception_3a/5x5
I0403 19:18:12.865231  9067 net.cpp:141] Setting up inception_3a/5x5
I0403 19:18:12.865257  9067 net.cpp:148] Top shape: 24 32 28 28 (602112)
I0403 19:18:12.865272  9067 net.cpp:156] Memory required for data: 539493408
I0403 19:18:12.865290  9067 layer_factory.hpp:77] Creating layer inception_3a/relu_5x5
I0403 19:18:12.865311  9067 net.cpp:91] Creating Layer inception_3a/relu_5x5
I0403 19:18:12.865329  9067 net.cpp:425] inception_3a/relu_5x5 <- inception_3a/5x5
I0403 19:18:12.865346  9067 net.cpp:386] inception_3a/relu_5x5 -> inception_3a/5x5 (in-place)
I0403 19:18:12.865519  9067 net.cpp:141] Setting up inception_3a/relu_5x5
I0403 19:18:12.865545  9067 net.cpp:148] Top shape: 24 32 28 28 (602112)
I0403 19:18:12.865561  9067 net.cpp:156] Memory required for data: 541901856
I0403 19:18:12.865576  9067 layer_factory.hpp:77] Creating layer inception_3a/pool
I0403 19:18:12.865593  9067 net.cpp:91] Creating Layer inception_3a/pool
I0403 19:18:12.865609  9067 net.cpp:425] inception_3a/pool <- pool2/3x3_s2_pool2/3x3_s2_0_split_3
I0403 19:18:12.865641  9067 net.cpp:399] inception_3a/pool -> inception_3a/pool
I0403 19:18:12.865700  9067 net.cpp:141] Setting up inception_3a/pool
I0403 19:18:12.865723  9067 net.cpp:148] Top shape: 24 192 28 28 (3612672)
I0403 19:18:12.865738  9067 net.cpp:156] Memory required for data: 556352544
I0403 19:18:12.865753  9067 layer_factory.hpp:77] Creating layer inception_3a/pool_proj
I0403 19:18:12.865775  9067 net.cpp:91] Creating Layer inception_3a/pool_proj
I0403 19:18:12.865793  9067 net.cpp:425] inception_3a/pool_proj <- inception_3a/pool
I0403 19:18:12.865816  9067 net.cpp:399] inception_3a/pool_proj -> inception_3a/pool_proj
I0403 19:18:12.866732  9067 net.cpp:141] Setting up inception_3a/pool_proj
I0403 19:18:12.866760  9067 net.cpp:148] Top shape: 24 32 28 28 (602112)
I0403 19:18:12.866775  9067 net.cpp:156] Memory required for data: 558760992
I0403 19:18:12.866796  9067 layer_factory.hpp:77] Creating layer inception_3a/relu_pool_proj
I0403 19:18:12.866817  9067 net.cpp:91] Creating Layer inception_3a/relu_pool_proj
I0403 19:18:12.866835  9067 net.cpp:425] inception_3a/relu_pool_proj <- inception_3a/pool_proj
I0403 19:18:12.866852  9067 net.cpp:386] inception_3a/relu_pool_proj -> inception_3a/pool_proj (in-place)
I0403 19:18:12.867115  9067 net.cpp:141] Setting up inception_3a/relu_pool_proj
I0403 19:18:12.867141  9067 net.cpp:148] Top shape: 24 32 28 28 (602112)
I0403 19:18:12.867156  9067 net.cpp:156] Memory required for data: 561169440
I0403 19:18:12.867171  9067 layer_factory.hpp:77] Creating layer inception_3a/output
I0403 19:18:12.867189  9067 net.cpp:91] Creating Layer inception_3a/output
I0403 19:18:12.867204  9067 net.cpp:425] inception_3a/output <- inception_3a/1x1
I0403 19:18:12.867224  9067 net.cpp:425] inception_3a/output <- inception_3a/3x3
I0403 19:18:12.867240  9067 net.cpp:425] inception_3a/output <- inception_3a/5x5
I0403 19:18:12.867257  9067 net.cpp:425] inception_3a/output <- inception_3a/pool_proj
I0403 19:18:12.867274  9067 net.cpp:399] inception_3a/output -> inception_3a/output
I0403 19:18:12.867333  9067 net.cpp:141] Setting up inception_3a/output
I0403 19:18:12.867357  9067 net.cpp:148] Top shape: 24 256 28 28 (4816896)
I0403 19:18:12.867372  9067 net.cpp:156] Memory required for data: 580437024
I0403 19:18:12.867388  9067 layer_factory.hpp:77] Creating layer inception_3a/output_inception_3a/output_0_split
I0403 19:18:12.867405  9067 net.cpp:91] Creating Layer inception_3a/output_inception_3a/output_0_split
I0403 19:18:12.867420  9067 net.cpp:425] inception_3a/output_inception_3a/output_0_split <- inception_3a/output
I0403 19:18:12.867440  9067 net.cpp:399] inception_3a/output_inception_3a/output_0_split -> inception_3a/output_inception_3a/output_0_split_0
I0403 19:18:12.867466  9067 net.cpp:399] inception_3a/output_inception_3a/output_0_split -> inception_3a/output_inception_3a/output_0_split_1
I0403 19:18:12.867491  9067 net.cpp:399] inception_3a/output_inception_3a/output_0_split -> inception_3a/output_inception_3a/output_0_split_2
I0403 19:18:12.867516  9067 net.cpp:399] inception_3a/output_inception_3a/output_0_split -> inception_3a/output_inception_3a/output_0_split_3
I0403 19:18:12.867599  9067 net.cpp:141] Setting up inception_3a/output_inception_3a/output_0_split
I0403 19:18:12.867621  9067 net.cpp:148] Top shape: 24 256 28 28 (4816896)
I0403 19:18:12.867640  9067 net.cpp:148] Top shape: 24 256 28 28 (4816896)
I0403 19:18:12.867655  9067 net.cpp:148] Top shape: 24 256 28 28 (4816896)
I0403 19:18:12.867671  9067 net.cpp:148] Top shape: 24 256 28 28 (4816896)
I0403 19:18:12.867684  9067 net.cpp:156] Memory required for data: 657507360
I0403 19:18:12.867698  9067 layer_factory.hpp:77] Creating layer inception_3b/1x1
I0403 19:18:12.867720  9067 net.cpp:91] Creating Layer inception_3b/1x1
I0403 19:18:12.867739  9067 net.cpp:425] inception_3b/1x1 <- inception_3a/output_inception_3a/output_0_split_0
I0403 19:18:12.867759  9067 net.cpp:399] inception_3b/1x1 -> inception_3b/1x1
I0403 19:18:12.868826  9067 net.cpp:141] Setting up inception_3b/1x1
I0403 19:18:12.868868  9067 net.cpp:148] Top shape: 24 128 28 28 (2408448)
I0403 19:18:12.868885  9067 net.cpp:156] Memory required for data: 667141152
I0403 19:18:12.868902  9067 layer_factory.hpp:77] Creating layer inception_3b/relu_1x1
I0403 19:18:12.868921  9067 net.cpp:91] Creating Layer inception_3b/relu_1x1
I0403 19:18:12.868942  9067 net.cpp:425] inception_3b/relu_1x1 <- inception_3b/1x1
I0403 19:18:12.868962  9067 net.cpp:386] inception_3b/relu_1x1 -> inception_3b/1x1 (in-place)
I0403 19:18:12.869124  9067 net.cpp:141] Setting up inception_3b/relu_1x1
I0403 19:18:12.869149  9067 net.cpp:148] Top shape: 24 128 28 28 (2408448)
I0403 19:18:12.869164  9067 net.cpp:156] Memory required for data: 676774944
I0403 19:18:12.869179  9067 layer_factory.hpp:77] Creating layer inception_3b/3x3_reduce
I0403 19:18:12.869201  9067 net.cpp:91] Creating Layer inception_3b/3x3_reduce
I0403 19:18:12.869220  9067 net.cpp:425] inception_3b/3x3_reduce <- inception_3a/output_inception_3a/output_0_split_1
I0403 19:18:12.869240  9067 net.cpp:399] inception_3b/3x3_reduce -> inception_3b/3x3_reduce
I0403 19:18:12.870303  9067 net.cpp:141] Setting up inception_3b/3x3_reduce
I0403 19:18:12.870331  9067 net.cpp:148] Top shape: 24 128 28 28 (2408448)
I0403 19:18:12.870347  9067 net.cpp:156] Memory required for data: 686408736
I0403 19:18:12.870364  9067 layer_factory.hpp:77] Creating layer inception_3b/relu_3x3_reduce
I0403 19:18:12.870381  9067 net.cpp:91] Creating Layer inception_3b/relu_3x3_reduce
I0403 19:18:12.870396  9067 net.cpp:425] inception_3b/relu_3x3_reduce <- inception_3b/3x3_reduce
I0403 19:18:12.870415  9067 net.cpp:386] inception_3b/relu_3x3_reduce -> inception_3b/3x3_reduce (in-place)
I0403 19:18:12.870581  9067 net.cpp:141] Setting up inception_3b/relu_3x3_reduce
I0403 19:18:12.870606  9067 net.cpp:148] Top shape: 24 128 28 28 (2408448)
I0403 19:18:12.870622  9067 net.cpp:156] Memory required for data: 696042528
I0403 19:18:12.870637  9067 layer_factory.hpp:77] Creating layer inception_3b/3x3
I0403 19:18:12.870666  9067 net.cpp:91] Creating Layer inception_3b/3x3
I0403 19:18:12.870684  9067 net.cpp:425] inception_3b/3x3 <- inception_3b/3x3_reduce
I0403 19:18:12.870703  9067 net.cpp:399] inception_3b/3x3 -> inception_3b/3x3
I0403 19:18:12.873477  9067 net.cpp:141] Setting up inception_3b/3x3
I0403 19:18:12.873505  9067 net.cpp:148] Top shape: 24 192 28 28 (3612672)
I0403 19:18:12.873522  9067 net.cpp:156] Memory required for data: 710493216
I0403 19:18:12.873541  9067 layer_factory.hpp:77] Creating layer inception_3b/relu_3x3
I0403 19:18:12.873560  9067 net.cpp:91] Creating Layer inception_3b/relu_3x3
I0403 19:18:12.873577  9067 net.cpp:425] inception_3b/relu_3x3 <- inception_3b/3x3
I0403 19:18:12.873594  9067 net.cpp:386] inception_3b/relu_3x3 -> inception_3b/3x3 (in-place)
I0403 19:18:12.873852  9067 net.cpp:141] Setting up inception_3b/relu_3x3
I0403 19:18:12.873878  9067 net.cpp:148] Top shape: 24 192 28 28 (3612672)
I0403 19:18:12.873893  9067 net.cpp:156] Memory required for data: 724943904
I0403 19:18:12.873909  9067 layer_factory.hpp:77] Creating layer inception_3b/5x5_reduce
I0403 19:18:12.873931  9067 net.cpp:91] Creating Layer inception_3b/5x5_reduce
I0403 19:18:12.873950  9067 net.cpp:425] inception_3b/5x5_reduce <- inception_3a/output_inception_3a/output_0_split_2
I0403 19:18:12.873970  9067 net.cpp:399] inception_3b/5x5_reduce -> inception_3b/5x5_reduce
I0403 19:18:12.874902  9067 net.cpp:141] Setting up inception_3b/5x5_reduce
I0403 19:18:12.874928  9067 net.cpp:148] Top shape: 24 32 28 28 (602112)
I0403 19:18:12.874944  9067 net.cpp:156] Memory required for data: 727352352
I0403 19:18:12.874963  9067 layer_factory.hpp:77] Creating layer inception_3b/relu_5x5_reduce
I0403 19:18:12.874984  9067 net.cpp:91] Creating Layer inception_3b/relu_5x5_reduce
I0403 19:18:12.875000  9067 net.cpp:425] inception_3b/relu_5x5_reduce <- inception_3b/5x5_reduce
I0403 19:18:12.875018  9067 net.cpp:386] inception_3b/relu_5x5_reduce -> inception_3b/5x5_reduce (in-place)
I0403 19:18:12.875185  9067 net.cpp:141] Setting up inception_3b/relu_5x5_reduce
I0403 19:18:12.875223  9067 net.cpp:148] Top shape: 24 32 28 28 (602112)
I0403 19:18:12.875241  9067 net.cpp:156] Memory required for data: 729760800
I0403 19:18:12.875255  9067 layer_factory.hpp:77] Creating layer inception_3b/5x5
I0403 19:18:12.875289  9067 net.cpp:91] Creating Layer inception_3b/5x5
I0403 19:18:12.875309  9067 net.cpp:425] inception_3b/5x5 <- inception_3b/5x5_reduce
I0403 19:18:12.875329  9067 net.cpp:399] inception_3b/5x5 -> inception_3b/5x5
I0403 19:18:12.877209  9067 net.cpp:141] Setting up inception_3b/5x5
I0403 19:18:12.877238  9067 net.cpp:148] Top shape: 24 96 28 28 (1806336)
I0403 19:18:12.877254  9067 net.cpp:156] Memory required for data: 736986144
I0403 19:18:12.877271  9067 layer_factory.hpp:77] Creating layer inception_3b/relu_5x5
I0403 19:18:12.877290  9067 net.cpp:91] Creating Layer inception_3b/relu_5x5
I0403 19:18:12.877306  9067 net.cpp:425] inception_3b/relu_5x5 <- inception_3b/5x5
I0403 19:18:12.877326  9067 net.cpp:386] inception_3b/relu_5x5 -> inception_3b/5x5 (in-place)
I0403 19:18:12.877511  9067 net.cpp:141] Setting up inception_3b/relu_5x5
I0403 19:18:12.877535  9067 net.cpp:148] Top shape: 24 96 28 28 (1806336)
I0403 19:18:12.877550  9067 net.cpp:156] Memory required for data: 744211488
I0403 19:18:12.877565  9067 layer_factory.hpp:77] Creating layer inception_3b/pool
I0403 19:18:12.877583  9067 net.cpp:91] Creating Layer inception_3b/pool
I0403 19:18:12.877600  9067 net.cpp:425] inception_3b/pool <- inception_3a/output_inception_3a/output_0_split_3
I0403 19:18:12.877619  9067 net.cpp:399] inception_3b/pool -> inception_3b/pool
I0403 19:18:12.877671  9067 net.cpp:141] Setting up inception_3b/pool
I0403 19:18:12.877693  9067 net.cpp:148] Top shape: 24 256 28 28 (4816896)
I0403 19:18:12.877708  9067 net.cpp:156] Memory required for data: 763479072
I0403 19:18:12.877722  9067 layer_factory.hpp:77] Creating layer inception_3b/pool_proj
I0403 19:18:12.877744  9067 net.cpp:91] Creating Layer inception_3b/pool_proj
I0403 19:18:12.877763  9067 net.cpp:425] inception_3b/pool_proj <- inception_3b/pool
I0403 19:18:12.877784  9067 net.cpp:399] inception_3b/pool_proj -> inception_3b/pool_proj
I0403 19:18:12.878773  9067 net.cpp:141] Setting up inception_3b/pool_proj
I0403 19:18:12.878806  9067 net.cpp:148] Top shape: 24 64 28 28 (1204224)
I0403 19:18:12.878823  9067 net.cpp:156] Memory required for data: 768295968
I0403 19:18:12.878842  9067 layer_factory.hpp:77] Creating layer inception_3b/relu_pool_proj
I0403 19:18:12.878861  9067 net.cpp:91] Creating Layer inception_3b/relu_pool_proj
I0403 19:18:12.878877  9067 net.cpp:425] inception_3b/relu_pool_proj <- inception_3b/pool_proj
I0403 19:18:12.878895  9067 net.cpp:386] inception_3b/relu_pool_proj -> inception_3b/pool_proj (in-place)
I0403 19:18:12.879261  9067 net.cpp:141] Setting up inception_3b/relu_pool_proj
I0403 19:18:12.879298  9067 net.cpp:148] Top shape: 24 64 28 28 (1204224)
I0403 19:18:12.879314  9067 net.cpp:156] Memory required for data: 773112864
I0403 19:18:12.879329  9067 layer_factory.hpp:77] Creating layer inception_3b/output
I0403 19:18:12.879348  9067 net.cpp:91] Creating Layer inception_3b/output
I0403 19:18:12.879366  9067 net.cpp:425] inception_3b/output <- inception_3b/1x1
I0403 19:18:12.879384  9067 net.cpp:425] inception_3b/output <- inception_3b/3x3
I0403 19:18:12.879400  9067 net.cpp:425] inception_3b/output <- inception_3b/5x5
I0403 19:18:12.879415  9067 net.cpp:425] inception_3b/output <- inception_3b/pool_proj
I0403 19:18:12.879433  9067 net.cpp:399] inception_3b/output -> inception_3b/output
I0403 19:18:12.879480  9067 net.cpp:141] Setting up inception_3b/output
I0403 19:18:12.879504  9067 net.cpp:148] Top shape: 24 480 28 28 (9031680)
I0403 19:18:12.879519  9067 net.cpp:156] Memory required for data: 809239584
I0403 19:18:12.879534  9067 layer_factory.hpp:77] Creating layer pool3/3x3_s2
I0403 19:18:12.879551  9067 net.cpp:91] Creating Layer pool3/3x3_s2
I0403 19:18:12.879580  9067 net.cpp:425] pool3/3x3_s2 <- inception_3b/output
I0403 19:18:12.879601  9067 net.cpp:399] pool3/3x3_s2 -> pool3/3x3_s2
I0403 19:18:12.879670  9067 net.cpp:141] Setting up pool3/3x3_s2
I0403 19:18:12.879693  9067 net.cpp:148] Top shape: 24 480 14 14 (2257920)
I0403 19:18:12.879709  9067 net.cpp:156] Memory required for data: 818271264
I0403 19:18:12.879724  9067 layer_factory.hpp:77] Creating layer pool3/3x3_s2_pool3/3x3_s2_0_split
I0403 19:18:12.879742  9067 net.cpp:91] Creating Layer pool3/3x3_s2_pool3/3x3_s2_0_split
I0403 19:18:12.879760  9067 net.cpp:425] pool3/3x3_s2_pool3/3x3_s2_0_split <- pool3/3x3_s2
I0403 19:18:12.879778  9067 net.cpp:399] pool3/3x3_s2_pool3/3x3_s2_0_split -> pool3/3x3_s2_pool3/3x3_s2_0_split_0
I0403 19:18:12.879799  9067 net.cpp:399] pool3/3x3_s2_pool3/3x3_s2_0_split -> pool3/3x3_s2_pool3/3x3_s2_0_split_1
I0403 19:18:12.879819  9067 net.cpp:399] pool3/3x3_s2_pool3/3x3_s2_0_split -> pool3/3x3_s2_pool3/3x3_s2_0_split_2
I0403 19:18:12.879838  9067 net.cpp:399] pool3/3x3_s2_pool3/3x3_s2_0_split -> pool3/3x3_s2_pool3/3x3_s2_0_split_3
I0403 19:18:12.879909  9067 net.cpp:141] Setting up pool3/3x3_s2_pool3/3x3_s2_0_split
I0403 19:18:12.879935  9067 net.cpp:148] Top shape: 24 480 14 14 (2257920)
I0403 19:18:12.879952  9067 net.cpp:148] Top shape: 24 480 14 14 (2257920)
I0403 19:18:12.879968  9067 net.cpp:148] Top shape: 24 480 14 14 (2257920)
I0403 19:18:12.879984  9067 net.cpp:148] Top shape: 24 480 14 14 (2257920)
I0403 19:18:12.879997  9067 net.cpp:156] Memory required for data: 854397984
I0403 19:18:12.880012  9067 layer_factory.hpp:77] Creating layer inception_4a/1x1
I0403 19:18:12.880033  9067 net.cpp:91] Creating Layer inception_4a/1x1
I0403 19:18:12.880051  9067 net.cpp:425] inception_4a/1x1 <- pool3/3x3_s2_pool3/3x3_s2_0_split_0
I0403 19:18:12.880071  9067 net.cpp:399] inception_4a/1x1 -> inception_4a/1x1
I0403 19:18:12.881547  9067 net.cpp:141] Setting up inception_4a/1x1
I0403 19:18:12.881577  9067 net.cpp:148] Top shape: 24 192 14 14 (903168)
I0403 19:18:12.881592  9067 net.cpp:156] Memory required for data: 858010656
I0403 19:18:12.881611  9067 layer_factory.hpp:77] Creating layer inception_4a/relu_1x1
I0403 19:18:12.881629  9067 net.cpp:91] Creating Layer inception_4a/relu_1x1
I0403 19:18:12.881646  9067 net.cpp:425] inception_4a/relu_1x1 <- inception_4a/1x1
I0403 19:18:12.881666  9067 net.cpp:386] inception_4a/relu_1x1 -> inception_4a/1x1 (in-place)
I0403 19:18:12.881834  9067 net.cpp:141] Setting up inception_4a/relu_1x1
I0403 19:18:12.881858  9067 net.cpp:148] Top shape: 24 192 14 14 (903168)
I0403 19:18:12.881873  9067 net.cpp:156] Memory required for data: 861623328
I0403 19:18:12.881888  9067 layer_factory.hpp:77] Creating layer inception_4a/3x3_reduce
I0403 19:18:12.881911  9067 net.cpp:91] Creating Layer inception_4a/3x3_reduce
I0403 19:18:12.881927  9067 net.cpp:425] inception_4a/3x3_reduce <- pool3/3x3_s2_pool3/3x3_s2_0_split_1
I0403 19:18:12.881953  9067 net.cpp:399] inception_4a/3x3_reduce -> inception_4a/3x3_reduce
I0403 19:18:12.883152  9067 net.cpp:141] Setting up inception_4a/3x3_reduce
I0403 19:18:12.883182  9067 net.cpp:148] Top shape: 24 96 14 14 (451584)
I0403 19:18:12.883198  9067 net.cpp:156] Memory required for data: 863429664
I0403 19:18:12.883224  9067 layer_factory.hpp:77] Creating layer inception_4a/relu_3x3_reduce
I0403 19:18:12.883244  9067 net.cpp:91] Creating Layer inception_4a/relu_3x3_reduce
I0403 19:18:12.883260  9067 net.cpp:425] inception_4a/relu_3x3_reduce <- inception_4a/3x3_reduce
I0403 19:18:12.883287  9067 net.cpp:386] inception_4a/relu_3x3_reduce -> inception_4a/3x3_reduce (in-place)
I0403 19:18:12.883461  9067 net.cpp:141] Setting up inception_4a/relu_3x3_reduce
I0403 19:18:12.883487  9067 net.cpp:148] Top shape: 24 96 14 14 (451584)
I0403 19:18:12.883502  9067 net.cpp:156] Memory required for data: 865236000
I0403 19:18:12.883518  9067 layer_factory.hpp:77] Creating layer inception_4a/3x3
I0403 19:18:12.883540  9067 net.cpp:91] Creating Layer inception_4a/3x3
I0403 19:18:12.883558  9067 net.cpp:425] inception_4a/3x3 <- inception_4a/3x3_reduce
I0403 19:18:12.883591  9067 net.cpp:399] inception_4a/3x3 -> inception_4a/3x3
I0403 19:18:12.886102  9067 net.cpp:141] Setting up inception_4a/3x3
I0403 19:18:12.886131  9067 net.cpp:148] Top shape: 24 208 14 14 (978432)
I0403 19:18:12.886145  9067 net.cpp:156] Memory required for data: 869149728
I0403 19:18:12.886164  9067 layer_factory.hpp:77] Creating layer inception_4a/relu_3x3
I0403 19:18:12.886184  9067 net.cpp:91] Creating Layer inception_4a/relu_3x3
I0403 19:18:12.886200  9067 net.cpp:425] inception_4a/relu_3x3 <- inception_4a/3x3
I0403 19:18:12.886220  9067 net.cpp:386] inception_4a/relu_3x3 -> inception_4a/3x3 (in-place)
I0403 19:18:12.886492  9067 net.cpp:141] Setting up inception_4a/relu_3x3
I0403 19:18:12.886518  9067 net.cpp:148] Top shape: 24 208 14 14 (978432)
I0403 19:18:12.886533  9067 net.cpp:156] Memory required for data: 873063456
I0403 19:18:12.886549  9067 layer_factory.hpp:77] Creating layer inception_4a/5x5_reduce
I0403 19:18:12.886571  9067 net.cpp:91] Creating Layer inception_4a/5x5_reduce
I0403 19:18:12.886590  9067 net.cpp:425] inception_4a/5x5_reduce <- pool3/3x3_s2_pool3/3x3_s2_0_split_2
I0403 19:18:12.886611  9067 net.cpp:399] inception_4a/5x5_reduce -> inception_4a/5x5_reduce
I0403 19:18:12.887601  9067 net.cpp:141] Setting up inception_4a/5x5_reduce
I0403 19:18:12.887644  9067 net.cpp:148] Top shape: 24 16 14 14 (75264)
I0403 19:18:12.887681  9067 net.cpp:156] Memory required for data: 873364512
I0403 19:18:12.887723  9067 layer_factory.hpp:77] Creating layer inception_4a/relu_5x5_reduce
I0403 19:18:12.887773  9067 net.cpp:91] Creating Layer inception_4a/relu_5x5_reduce
I0403 19:18:12.887809  9067 net.cpp:425] inception_4a/relu_5x5_reduce <- inception_4a/5x5_reduce
I0403 19:18:12.887846  9067 net.cpp:386] inception_4a/relu_5x5_reduce -> inception_4a/5x5_reduce (in-place)
I0403 19:18:12.888037  9067 net.cpp:141] Setting up inception_4a/relu_5x5_reduce
I0403 19:18:12.888067  9067 net.cpp:148] Top shape: 24 16 14 14 (75264)
I0403 19:18:12.888082  9067 net.cpp:156] Memory required for data: 873665568
I0403 19:18:12.888098  9067 layer_factory.hpp:77] Creating layer inception_4a/5x5
I0403 19:18:12.888125  9067 net.cpp:91] Creating Layer inception_4a/5x5
I0403 19:18:12.888142  9067 net.cpp:425] inception_4a/5x5 <- inception_4a/5x5_reduce
I0403 19:18:12.888164  9067 net.cpp:399] inception_4a/5x5 -> inception_4a/5x5
I0403 19:18:12.889184  9067 net.cpp:141] Setting up inception_4a/5x5
I0403 19:18:12.889211  9067 net.cpp:148] Top shape: 24 48 14 14 (225792)
I0403 19:18:12.889227  9067 net.cpp:156] Memory required for data: 874568736
I0403 19:18:12.889245  9067 layer_factory.hpp:77] Creating layer inception_4a/relu_5x5
I0403 19:18:12.889266  9067 net.cpp:91] Creating Layer inception_4a/relu_5x5
I0403 19:18:12.889284  9067 net.cpp:425] inception_4a/relu_5x5 <- inception_4a/5x5
I0403 19:18:12.889302  9067 net.cpp:386] inception_4a/relu_5x5 -> inception_4a/5x5 (in-place)
I0403 19:18:12.889482  9067 net.cpp:141] Setting up inception_4a/relu_5x5
I0403 19:18:12.889506  9067 net.cpp:148] Top shape: 24 48 14 14 (225792)
I0403 19:18:12.889521  9067 net.cpp:156] Memory required for data: 875471904
I0403 19:18:12.889536  9067 layer_factory.hpp:77] Creating layer inception_4a/pool
I0403 19:18:12.889554  9067 net.cpp:91] Creating Layer inception_4a/pool
I0403 19:18:12.889569  9067 net.cpp:425] inception_4a/pool <- pool3/3x3_s2_pool3/3x3_s2_0_split_3
I0403 19:18:12.889591  9067 net.cpp:399] inception_4a/pool -> inception_4a/pool
I0403 19:18:12.889649  9067 net.cpp:141] Setting up inception_4a/pool
I0403 19:18:12.889673  9067 net.cpp:148] Top shape: 24 480 14 14 (2257920)
I0403 19:18:12.889688  9067 net.cpp:156] Memory required for data: 884503584
I0403 19:18:12.889703  9067 layer_factory.hpp:77] Creating layer inception_4a/pool_proj
I0403 19:18:12.889725  9067 net.cpp:91] Creating Layer inception_4a/pool_proj
I0403 19:18:12.889742  9067 net.cpp:425] inception_4a/pool_proj <- inception_4a/pool
I0403 19:18:12.889761  9067 net.cpp:399] inception_4a/pool_proj -> inception_4a/pool_proj
I0403 19:18:12.890851  9067 net.cpp:141] Setting up inception_4a/pool_proj
I0403 19:18:12.890880  9067 net.cpp:148] Top shape: 24 64 14 14 (301056)
I0403 19:18:12.890909  9067 net.cpp:156] Memory required for data: 885707808
I0403 19:18:12.890930  9067 layer_factory.hpp:77] Creating layer inception_4a/relu_pool_proj
I0403 19:18:12.890949  9067 net.cpp:91] Creating Layer inception_4a/relu_pool_proj
I0403 19:18:12.890966  9067 net.cpp:425] inception_4a/relu_pool_proj <- inception_4a/pool_proj
I0403 19:18:12.890987  9067 net.cpp:386] inception_4a/relu_pool_proj -> inception_4a/pool_proj (in-place)
I0403 19:18:12.891266  9067 net.cpp:141] Setting up inception_4a/relu_pool_proj
I0403 19:18:12.891295  9067 net.cpp:148] Top shape: 24 64 14 14 (301056)
I0403 19:18:12.891332  9067 net.cpp:156] Memory required for data: 886912032
I0403 19:18:12.891383  9067 layer_factory.hpp:77] Creating layer inception_4a/output
I0403 19:18:12.891432  9067 net.cpp:91] Creating Layer inception_4a/output
I0403 19:18:12.891477  9067 net.cpp:425] inception_4a/output <- inception_4a/1x1
I0403 19:18:12.891497  9067 net.cpp:425] inception_4a/output <- inception_4a/3x3
I0403 19:18:12.891532  9067 net.cpp:425] inception_4a/output <- inception_4a/5x5
I0403 19:18:12.891548  9067 net.cpp:425] inception_4a/output <- inception_4a/pool_proj
I0403 19:18:12.891567  9067 net.cpp:399] inception_4a/output -> inception_4a/output
I0403 19:18:12.891609  9067 net.cpp:141] Setting up inception_4a/output
I0403 19:18:12.891633  9067 net.cpp:148] Top shape: 24 512 14 14 (2408448)
I0403 19:18:12.891647  9067 net.cpp:156] Memory required for data: 896545824
I0403 19:18:12.891662  9067 layer_factory.hpp:77] Creating layer inception_4a/output_inception_4a/output_0_split
I0403 19:18:12.891682  9067 net.cpp:91] Creating Layer inception_4a/output_inception_4a/output_0_split
I0403 19:18:12.891700  9067 net.cpp:425] inception_4a/output_inception_4a/output_0_split <- inception_4a/output
I0403 19:18:12.891717  9067 net.cpp:399] inception_4a/output_inception_4a/output_0_split -> inception_4a/output_inception_4a/output_0_split_0
I0403 19:18:12.891736  9067 net.cpp:399] inception_4a/output_inception_4a/output_0_split -> inception_4a/output_inception_4a/output_0_split_1
I0403 19:18:12.891760  9067 net.cpp:399] inception_4a/output_inception_4a/output_0_split -> inception_4a/output_inception_4a/output_0_split_2
I0403 19:18:12.891782  9067 net.cpp:399] inception_4a/output_inception_4a/output_0_split -> inception_4a/output_inception_4a/output_0_split_3
I0403 19:18:12.891803  9067 net.cpp:399] inception_4a/output_inception_4a/output_0_split -> inception_4a/output_inception_4a/output_0_split_4
I0403 19:18:12.891888  9067 net.cpp:141] Setting up inception_4a/output_inception_4a/output_0_split
I0403 19:18:12.891912  9067 net.cpp:148] Top shape: 24 512 14 14 (2408448)
I0403 19:18:12.891928  9067 net.cpp:148] Top shape: 24 512 14 14 (2408448)
I0403 19:18:12.891944  9067 net.cpp:148] Top shape: 24 512 14 14 (2408448)
I0403 19:18:12.891960  9067 net.cpp:148] Top shape: 24 512 14 14 (2408448)
I0403 19:18:12.891976  9067 net.cpp:148] Top shape: 24 512 14 14 (2408448)
I0403 19:18:12.891989  9067 net.cpp:156] Memory required for data: 944714784
I0403 19:18:12.892004  9067 layer_factory.hpp:77] Creating layer loss1/ave_pool
I0403 19:18:12.892020  9067 net.cpp:91] Creating Layer loss1/ave_pool
I0403 19:18:12.892035  9067 net.cpp:425] loss1/ave_pool <- inception_4a/output_inception_4a/output_0_split_0
I0403 19:18:12.892055  9067 net.cpp:399] loss1/ave_pool -> loss1/ave_pool
I0403 19:18:12.892256  9067 net.cpp:141] Setting up loss1/ave_pool
I0403 19:18:12.892283  9067 net.cpp:148] Top shape: 24 512 4 4 (196608)
I0403 19:18:12.892298  9067 net.cpp:156] Memory required for data: 945501216
I0403 19:18:12.892313  9067 layer_factory.hpp:77] Creating layer loss1/conv
I0403 19:18:12.892334  9067 net.cpp:91] Creating Layer loss1/conv
I0403 19:18:12.892354  9067 net.cpp:425] loss1/conv <- loss1/ave_pool
I0403 19:18:12.892372  9067 net.cpp:399] loss1/conv -> loss1/conv
I0403 19:18:12.893698  9067 net.cpp:141] Setting up loss1/conv
I0403 19:18:12.893726  9067 net.cpp:148] Top shape: 24 128 4 4 (49152)
I0403 19:18:12.893741  9067 net.cpp:156] Memory required for data: 945697824
I0403 19:18:12.893775  9067 layer_factory.hpp:77] Creating layer loss1/relu_conv
I0403 19:18:12.893795  9067 net.cpp:91] Creating Layer loss1/relu_conv
I0403 19:18:12.893811  9067 net.cpp:425] loss1/relu_conv <- loss1/conv
I0403 19:18:12.893831  9067 net.cpp:386] loss1/relu_conv -> loss1/conv (in-place)
I0403 19:18:12.894094  9067 net.cpp:141] Setting up loss1/relu_conv
I0403 19:18:12.894121  9067 net.cpp:148] Top shape: 24 128 4 4 (49152)
I0403 19:18:12.894136  9067 net.cpp:156] Memory required for data: 945894432
I0403 19:18:12.894152  9067 layer_factory.hpp:77] Creating layer loss1/fc
I0403 19:18:12.894176  9067 net.cpp:91] Creating Layer loss1/fc
I0403 19:18:12.894194  9067 net.cpp:425] loss1/fc <- loss1/conv
I0403 19:18:12.894215  9067 net.cpp:399] loss1/fc -> loss1/fc
I0403 19:18:12.911084  9067 net.cpp:141] Setting up loss1/fc
I0403 19:18:12.911116  9067 net.cpp:148] Top shape: 24 1024 (24576)
I0403 19:18:12.911133  9067 net.cpp:156] Memory required for data: 945992736
I0403 19:18:12.911151  9067 layer_factory.hpp:77] Creating layer loss1/relu_fc
I0403 19:18:12.911170  9067 net.cpp:91] Creating Layer loss1/relu_fc
I0403 19:18:12.911190  9067 net.cpp:425] loss1/relu_fc <- loss1/fc
I0403 19:18:12.911207  9067 net.cpp:386] loss1/relu_fc -> loss1/fc (in-place)
I0403 19:18:12.911387  9067 net.cpp:141] Setting up loss1/relu_fc
I0403 19:18:12.911412  9067 net.cpp:148] Top shape: 24 1024 (24576)
I0403 19:18:12.911427  9067 net.cpp:156] Memory required for data: 946091040
I0403 19:18:12.911442  9067 layer_factory.hpp:77] Creating layer loss1/drop_fc
I0403 19:18:12.911470  9067 net.cpp:91] Creating Layer loss1/drop_fc
I0403 19:18:12.911489  9067 net.cpp:425] loss1/drop_fc <- loss1/fc
I0403 19:18:12.911509  9067 net.cpp:386] loss1/drop_fc -> loss1/fc (in-place)
I0403 19:18:12.911561  9067 net.cpp:141] Setting up loss1/drop_fc
I0403 19:18:12.911583  9067 net.cpp:148] Top shape: 24 1024 (24576)
I0403 19:18:12.911603  9067 net.cpp:156] Memory required for data: 946189344
I0403 19:18:12.911619  9067 layer_factory.hpp:77] Creating layer loss1/classifier_plantvillage
I0403 19:18:12.911638  9067 net.cpp:91] Creating Layer loss1/classifier_plantvillage
I0403 19:18:12.911654  9067 net.cpp:425] loss1/classifier_plantvillage <- loss1/fc
I0403 19:18:12.911675  9067 net.cpp:399] loss1/classifier_plantvillage -> loss1/classifier_plantvillage
I0403 19:18:12.912567  9067 net.cpp:141] Setting up loss1/classifier_plantvillage
I0403 19:18:12.912595  9067 net.cpp:148] Top shape: 24 38 (912)
I0403 19:18:12.912611  9067 net.cpp:156] Memory required for data: 946192992
I0403 19:18:12.912628  9067 layer_factory.hpp:77] Creating layer loss1/classifier_plantvillage_loss1/classifier_plantvillage_0_split
I0403 19:18:12.912647  9067 net.cpp:91] Creating Layer loss1/classifier_plantvillage_loss1/classifier_plantvillage_0_split
I0403 19:18:12.912664  9067 net.cpp:425] loss1/classifier_plantvillage_loss1/classifier_plantvillage_0_split <- loss1/classifier_plantvillage
I0403 19:18:12.912684  9067 net.cpp:399] loss1/classifier_plantvillage_loss1/classifier_plantvillage_0_split -> loss1/classifier_plantvillage_loss1/classifier_plantvillage_0_split_0
I0403 19:18:12.912706  9067 net.cpp:399] loss1/classifier_plantvillage_loss1/classifier_plantvillage_0_split -> loss1/classifier_plantvillage_loss1/classifier_plantvillage_0_split_1
I0403 19:18:12.912726  9067 net.cpp:399] loss1/classifier_plantvillage_loss1/classifier_plantvillage_0_split -> loss1/classifier_plantvillage_loss1/classifier_plantvillage_0_split_2
I0403 19:18:12.912789  9067 net.cpp:141] Setting up loss1/classifier_plantvillage_loss1/classifier_plantvillage_0_split
I0403 19:18:12.912812  9067 net.cpp:148] Top shape: 24 38 (912)
I0403 19:18:12.912829  9067 net.cpp:148] Top shape: 24 38 (912)
I0403 19:18:12.912845  9067 net.cpp:148] Top shape: 24 38 (912)
I0403 19:18:12.912860  9067 net.cpp:156] Memory required for data: 946203936
I0403 19:18:12.912875  9067 layer_factory.hpp:77] Creating layer inception_4b/1x1
I0403 19:18:12.912896  9067 net.cpp:91] Creating Layer inception_4b/1x1
I0403 19:18:12.912930  9067 net.cpp:425] inception_4b/1x1 <- inception_4a/output_inception_4a/output_0_split_1
I0403 19:18:12.912950  9067 net.cpp:399] inception_4b/1x1 -> inception_4b/1x1
I0403 19:18:12.914499  9067 net.cpp:141] Setting up inception_4b/1x1
I0403 19:18:12.914527  9067 net.cpp:148] Top shape: 24 160 14 14 (752640)
I0403 19:18:12.914543  9067 net.cpp:156] Memory required for data: 949214496
I0403 19:18:12.914562  9067 layer_factory.hpp:77] Creating layer inception_4b/relu_1x1
I0403 19:18:12.914583  9067 net.cpp:91] Creating Layer inception_4b/relu_1x1
I0403 19:18:12.914602  9067 net.cpp:425] inception_4b/relu_1x1 <- inception_4b/1x1
I0403 19:18:12.914619  9067 net.cpp:386] inception_4b/relu_1x1 -> inception_4b/1x1 (in-place)
I0403 19:18:12.914785  9067 net.cpp:141] Setting up inception_4b/relu_1x1
I0403 19:18:12.914810  9067 net.cpp:148] Top shape: 24 160 14 14 (752640)
I0403 19:18:12.914827  9067 net.cpp:156] Memory required for data: 952225056
I0403 19:18:12.914844  9067 layer_factory.hpp:77] Creating layer inception_4b/3x3_reduce
I0403 19:18:12.914862  9067 net.cpp:91] Creating Layer inception_4b/3x3_reduce
I0403 19:18:12.914880  9067 net.cpp:425] inception_4b/3x3_reduce <- inception_4a/output_inception_4a/output_0_split_2
I0403 19:18:12.914902  9067 net.cpp:399] inception_4b/3x3_reduce -> inception_4b/3x3_reduce
I0403 19:18:12.916178  9067 net.cpp:141] Setting up inception_4b/3x3_reduce
I0403 19:18:12.916206  9067 net.cpp:148] Top shape: 24 112 14 14 (526848)
I0403 19:18:12.916223  9067 net.cpp:156] Memory required for data: 954332448
I0403 19:18:12.916240  9067 layer_factory.hpp:77] Creating layer inception_4b/relu_3x3_reduce
I0403 19:18:12.916272  9067 net.cpp:91] Creating Layer inception_4b/relu_3x3_reduce
I0403 19:18:12.916290  9067 net.cpp:425] inception_4b/relu_3x3_reduce <- inception_4b/3x3_reduce
I0403 19:18:12.916307  9067 net.cpp:386] inception_4b/relu_3x3_reduce -> inception_4b/3x3_reduce (in-place)
I0403 19:18:12.916594  9067 net.cpp:141] Setting up inception_4b/relu_3x3_reduce
I0403 19:18:12.916620  9067 net.cpp:148] Top shape: 24 112 14 14 (526848)
I0403 19:18:12.916635  9067 net.cpp:156] Memory required for data: 956439840
I0403 19:18:12.916651  9067 layer_factory.hpp:77] Creating layer inception_4b/3x3
I0403 19:18:12.916672  9067 net.cpp:91] Creating Layer inception_4b/3x3
I0403 19:18:12.916690  9067 net.cpp:425] inception_4b/3x3 <- inception_4b/3x3_reduce
I0403 19:18:12.916712  9067 net.cpp:399] inception_4b/3x3 -> inception_4b/3x3
I0403 19:18:12.919504  9067 net.cpp:141] Setting up inception_4b/3x3
I0403 19:18:12.919533  9067 net.cpp:148] Top shape: 24 224 14 14 (1053696)
I0403 19:18:12.919550  9067 net.cpp:156] Memory required for data: 960654624
I0403 19:18:12.919569  9067 layer_factory.hpp:77] Creating layer inception_4b/relu_3x3
I0403 19:18:12.919589  9067 net.cpp:91] Creating Layer inception_4b/relu_3x3
I0403 19:18:12.919605  9067 net.cpp:425] inception_4b/relu_3x3 <- inception_4b/3x3
I0403 19:18:12.919625  9067 net.cpp:386] inception_4b/relu_3x3 -> inception_4b/3x3 (in-place)
I0403 19:18:12.919798  9067 net.cpp:141] Setting up inception_4b/relu_3x3
I0403 19:18:12.919823  9067 net.cpp:148] Top shape: 24 224 14 14 (1053696)
I0403 19:18:12.919838  9067 net.cpp:156] Memory required for data: 964869408
I0403 19:18:12.919853  9067 layer_factory.hpp:77] Creating layer inception_4b/5x5_reduce
I0403 19:18:12.919875  9067 net.cpp:91] Creating Layer inception_4b/5x5_reduce
I0403 19:18:12.919893  9067 net.cpp:425] inception_4b/5x5_reduce <- inception_4a/output_inception_4a/output_0_split_3
I0403 19:18:12.919914  9067 net.cpp:399] inception_4b/5x5_reduce -> inception_4b/5x5_reduce
I0403 19:18:12.920959  9067 net.cpp:141] Setting up inception_4b/5x5_reduce
I0403 19:18:12.920987  9067 net.cpp:148] Top shape: 24 24 14 14 (112896)
I0403 19:18:12.921003  9067 net.cpp:156] Memory required for data: 965320992
I0403 19:18:12.921021  9067 layer_factory.hpp:77] Creating layer inception_4b/relu_5x5_reduce
I0403 19:18:12.921041  9067 net.cpp:91] Creating Layer inception_4b/relu_5x5_reduce
I0403 19:18:12.921072  9067 net.cpp:425] inception_4b/relu_5x5_reduce <- inception_4b/5x5_reduce
I0403 19:18:12.921092  9067 net.cpp:386] inception_4b/relu_5x5_reduce -> inception_4b/5x5_reduce (in-place)
I0403 19:18:12.921288  9067 net.cpp:141] Setting up inception_4b/relu_5x5_reduce
I0403 19:18:12.921316  9067 net.cpp:148] Top shape: 24 24 14 14 (112896)
I0403 19:18:12.921331  9067 net.cpp:156] Memory required for data: 965772576
I0403 19:18:12.921346  9067 layer_factory.hpp:77] Creating layer inception_4b/5x5
I0403 19:18:12.921367  9067 net.cpp:91] Creating Layer inception_4b/5x5
I0403 19:18:12.921386  9067 net.cpp:425] inception_4b/5x5 <- inception_4b/5x5_reduce
I0403 19:18:12.921404  9067 net.cpp:399] inception_4b/5x5 -> inception_4b/5x5
I0403 19:18:12.922566  9067 net.cpp:141] Setting up inception_4b/5x5
I0403 19:18:12.922595  9067 net.cpp:148] Top shape: 24 64 14 14 (301056)
I0403 19:18:12.922610  9067 net.cpp:156] Memory required for data: 966976800
I0403 19:18:12.922627  9067 layer_factory.hpp:77] Creating layer inception_4b/relu_5x5
I0403 19:18:12.922648  9067 net.cpp:91] Creating Layer inception_4b/relu_5x5
I0403 19:18:12.922667  9067 net.cpp:425] inception_4b/relu_5x5 <- inception_4b/5x5
I0403 19:18:12.922685  9067 net.cpp:386] inception_4b/relu_5x5 -> inception_4b/5x5 (in-place)
I0403 19:18:12.922956  9067 net.cpp:141] Setting up inception_4b/relu_5x5
I0403 19:18:12.922982  9067 net.cpp:148] Top shape: 24 64 14 14 (301056)
I0403 19:18:12.922998  9067 net.cpp:156] Memory required for data: 968181024
I0403 19:18:12.923013  9067 layer_factory.hpp:77] Creating layer inception_4b/pool
I0403 19:18:12.923032  9067 net.cpp:91] Creating Layer inception_4b/pool
I0403 19:18:12.923048  9067 net.cpp:425] inception_4b/pool <- inception_4a/output_inception_4a/output_0_split_4
I0403 19:18:12.923071  9067 net.cpp:399] inception_4b/pool -> inception_4b/pool
I0403 19:18:12.923156  9067 net.cpp:141] Setting up inception_4b/pool
I0403 19:18:12.923180  9067 net.cpp:148] Top shape: 24 512 14 14 (2408448)
I0403 19:18:12.923195  9067 net.cpp:156] Memory required for data: 977814816
I0403 19:18:12.923210  9067 layer_factory.hpp:77] Creating layer inception_4b/pool_proj
I0403 19:18:12.923233  9067 net.cpp:91] Creating Layer inception_4b/pool_proj
I0403 19:18:12.923254  9067 net.cpp:425] inception_4b/pool_proj <- inception_4b/pool
I0403 19:18:12.923272  9067 net.cpp:399] inception_4b/pool_proj -> inception_4b/pool_proj
I0403 19:18:12.924417  9067 net.cpp:141] Setting up inception_4b/pool_proj
I0403 19:18:12.924445  9067 net.cpp:148] Top shape: 24 64 14 14 (301056)
I0403 19:18:12.924486  9067 net.cpp:156] Memory required for data: 979019040
I0403 19:18:12.924507  9067 layer_factory.hpp:77] Creating layer inception_4b/relu_pool_proj
I0403 19:18:12.924530  9067 net.cpp:91] Creating Layer inception_4b/relu_pool_proj
I0403 19:18:12.924559  9067 net.cpp:425] inception_4b/relu_pool_proj <- inception_4b/pool_proj
I0403 19:18:12.924577  9067 net.cpp:386] inception_4b/relu_pool_proj -> inception_4b/pool_proj (in-place)
I0403 19:18:12.924748  9067 net.cpp:141] Setting up inception_4b/relu_pool_proj
I0403 19:18:12.924777  9067 net.cpp:148] Top shape: 24 64 14 14 (301056)
I0403 19:18:12.924793  9067 net.cpp:156] Memory required for data: 980223264
I0403 19:18:12.924809  9067 layer_factory.hpp:77] Creating layer inception_4b/output
I0403 19:18:12.924826  9067 net.cpp:91] Creating Layer inception_4b/output
I0403 19:18:12.924842  9067 net.cpp:425] inception_4b/output <- inception_4b/1x1
I0403 19:18:12.924875  9067 net.cpp:425] inception_4b/output <- inception_4b/3x3
I0403 19:18:12.924926  9067 net.cpp:425] inception_4b/output <- inception_4b/5x5
I0403 19:18:12.924988  9067 net.cpp:425] inception_4b/output <- inception_4b/pool_proj
I0403 19:18:12.925060  9067 net.cpp:399] inception_4b/output -> inception_4b/output
I0403 19:18:12.925163  9067 net.cpp:141] Setting up inception_4b/output
I0403 19:18:12.925204  9067 net.cpp:148] Top shape: 24 512 14 14 (2408448)
I0403 19:18:12.925232  9067 net.cpp:156] Memory required for data: 989857056
I0403 19:18:12.925273  9067 layer_factory.hpp:77] Creating layer inception_4b/output_inception_4b/output_0_split
I0403 19:18:12.925304  9067 net.cpp:91] Creating Layer inception_4b/output_inception_4b/output_0_split
I0403 19:18:12.925323  9067 net.cpp:425] inception_4b/output_inception_4b/output_0_split <- inception_4b/output
I0403 19:18:12.925340  9067 net.cpp:399] inception_4b/output_inception_4b/output_0_split -> inception_4b/output_inception_4b/output_0_split_0
I0403 19:18:12.925361  9067 net.cpp:399] inception_4b/output_inception_4b/output_0_split -> inception_4b/output_inception_4b/output_0_split_1
I0403 19:18:12.925380  9067 net.cpp:399] inception_4b/output_inception_4b/output_0_split -> inception_4b/output_inception_4b/output_0_split_2
I0403 19:18:12.925401  9067 net.cpp:399] inception_4b/output_inception_4b/output_0_split -> inception_4b/output_inception_4b/output_0_split_3
I0403 19:18:12.925487  9067 net.cpp:141] Setting up inception_4b/output_inception_4b/output_0_split
I0403 19:18:12.925510  9067 net.cpp:148] Top shape: 24 512 14 14 (2408448)
I0403 19:18:12.925526  9067 net.cpp:148] Top shape: 24 512 14 14 (2408448)
I0403 19:18:12.925542  9067 net.cpp:148] Top shape: 24 512 14 14 (2408448)
I0403 19:18:12.925557  9067 net.cpp:148] Top shape: 24 512 14 14 (2408448)
I0403 19:18:12.925570  9067 net.cpp:156] Memory required for data: 1028392224
I0403 19:18:12.925586  9067 layer_factory.hpp:77] Creating layer inception_4c/1x1
I0403 19:18:12.925607  9067 net.cpp:91] Creating Layer inception_4c/1x1
I0403 19:18:12.925626  9067 net.cpp:425] inception_4c/1x1 <- inception_4b/output_inception_4b/output_0_split_0
I0403 19:18:12.925645  9067 net.cpp:399] inception_4c/1x1 -> inception_4c/1x1
I0403 19:18:12.927002  9067 net.cpp:141] Setting up inception_4c/1x1
I0403 19:18:12.927033  9067 net.cpp:148] Top shape: 24 128 14 14 (602112)
I0403 19:18:12.927069  9067 net.cpp:156] Memory required for data: 1030800672
I0403 19:18:12.927114  9067 layer_factory.hpp:77] Creating layer inception_4c/relu_1x1
I0403 19:18:12.927158  9067 net.cpp:91] Creating Layer inception_4c/relu_1x1
I0403 19:18:12.927176  9067 net.cpp:425] inception_4c/relu_1x1 <- inception_4c/1x1
I0403 19:18:12.927193  9067 net.cpp:386] inception_4c/relu_1x1 -> inception_4c/1x1 (in-place)
I0403 19:18:12.927381  9067 net.cpp:141] Setting up inception_4c/relu_1x1
I0403 19:18:12.927407  9067 net.cpp:148] Top shape: 24 128 14 14 (602112)
I0403 19:18:12.927423  9067 net.cpp:156] Memory required for data: 1033209120
I0403 19:18:12.927438  9067 layer_factory.hpp:77] Creating layer inception_4c/3x3_reduce
I0403 19:18:12.927464  9067 net.cpp:91] Creating Layer inception_4c/3x3_reduce
I0403 19:18:12.927484  9067 net.cpp:425] inception_4c/3x3_reduce <- inception_4b/output_inception_4b/output_0_split_1
I0403 19:18:12.927506  9067 net.cpp:399] inception_4c/3x3_reduce -> inception_4c/3x3_reduce
I0403 19:18:12.929384  9067 net.cpp:141] Setting up inception_4c/3x3_reduce
I0403 19:18:12.929412  9067 net.cpp:148] Top shape: 24 128 14 14 (602112)
I0403 19:18:12.929428  9067 net.cpp:156] Memory required for data: 1035617568
I0403 19:18:12.929447  9067 layer_factory.hpp:77] Creating layer inception_4c/relu_3x3_reduce
I0403 19:18:12.929473  9067 net.cpp:91] Creating Layer inception_4c/relu_3x3_reduce
I0403 19:18:12.929492  9067 net.cpp:425] inception_4c/relu_3x3_reduce <- inception_4c/3x3_reduce
I0403 19:18:12.929509  9067 net.cpp:386] inception_4c/relu_3x3_reduce -> inception_4c/3x3_reduce (in-place)
I0403 19:18:12.929781  9067 net.cpp:141] Setting up inception_4c/relu_3x3_reduce
I0403 19:18:12.929807  9067 net.cpp:148] Top shape: 24 128 14 14 (602112)
I0403 19:18:12.929822  9067 net.cpp:156] Memory required for data: 1038026016
I0403 19:18:12.929838  9067 layer_factory.hpp:77] Creating layer inception_4c/3x3
I0403 19:18:12.929860  9067 net.cpp:91] Creating Layer inception_4c/3x3
I0403 19:18:12.929878  9067 net.cpp:425] inception_4c/3x3 <- inception_4c/3x3_reduce
I0403 19:18:12.929900  9067 net.cpp:399] inception_4c/3x3 -> inception_4c/3x3
I0403 19:18:12.933352  9067 net.cpp:141] Setting up inception_4c/3x3
I0403 19:18:12.933392  9067 net.cpp:148] Top shape: 24 256 14 14 (1204224)
I0403 19:18:12.933408  9067 net.cpp:156] Memory required for data: 1042842912
I0403 19:18:12.933440  9067 layer_factory.hpp:77] Creating layer inception_4c/relu_3x3
I0403 19:18:12.933467  9067 net.cpp:91] Creating Layer inception_4c/relu_3x3
I0403 19:18:12.933486  9067 net.cpp:425] inception_4c/relu_3x3 <- inception_4c/3x3
I0403 19:18:12.933504  9067 net.cpp:386] inception_4c/relu_3x3 -> inception_4c/3x3 (in-place)
I0403 19:18:12.933677  9067 net.cpp:141] Setting up inception_4c/relu_3x3
I0403 19:18:12.933702  9067 net.cpp:148] Top shape: 24 256 14 14 (1204224)
I0403 19:18:12.933717  9067 net.cpp:156] Memory required for data: 1047659808
I0403 19:18:12.933732  9067 layer_factory.hpp:77] Creating layer inception_4c/5x5_reduce
I0403 19:18:12.933754  9067 net.cpp:91] Creating Layer inception_4c/5x5_reduce
I0403 19:18:12.933773  9067 net.cpp:425] inception_4c/5x5_reduce <- inception_4b/output_inception_4b/output_0_split_2
I0403 19:18:12.933796  9067 net.cpp:399] inception_4c/5x5_reduce -> inception_4c/5x5_reduce
I0403 19:18:12.934823  9067 net.cpp:141] Setting up inception_4c/5x5_reduce
I0403 19:18:12.934850  9067 net.cpp:148] Top shape: 24 24 14 14 (112896)
I0403 19:18:12.934866  9067 net.cpp:156] Memory required for data: 1048111392
I0403 19:18:12.934885  9067 layer_factory.hpp:77] Creating layer inception_4c/relu_5x5_reduce
I0403 19:18:12.934906  9067 net.cpp:91] Creating Layer inception_4c/relu_5x5_reduce
I0403 19:18:12.934923  9067 net.cpp:425] inception_4c/relu_5x5_reduce <- inception_4c/5x5_reduce
I0403 19:18:12.934942  9067 net.cpp:386] inception_4c/relu_5x5_reduce -> inception_4c/5x5_reduce (in-place)
I0403 19:18:12.935127  9067 net.cpp:141] Setting up inception_4c/relu_5x5_reduce
I0403 19:18:12.935151  9067 net.cpp:148] Top shape: 24 24 14 14 (112896)
I0403 19:18:12.935166  9067 net.cpp:156] Memory required for data: 1048562976
I0403 19:18:12.935184  9067 layer_factory.hpp:77] Creating layer inception_4c/5x5
I0403 19:18:12.935206  9067 net.cpp:91] Creating Layer inception_4c/5x5
I0403 19:18:12.935226  9067 net.cpp:425] inception_4c/5x5 <- inception_4c/5x5_reduce
I0403 19:18:12.935245  9067 net.cpp:399] inception_4c/5x5 -> inception_4c/5x5
I0403 19:18:12.936434  9067 net.cpp:141] Setting up inception_4c/5x5
I0403 19:18:12.936466  9067 net.cpp:148] Top shape: 24 64 14 14 (301056)
I0403 19:18:12.936486  9067 net.cpp:156] Memory required for data: 1049767200
I0403 19:18:12.936517  9067 layer_factory.hpp:77] Creating layer inception_4c/relu_5x5
I0403 19:18:12.936534  9067 net.cpp:91] Creating Layer inception_4c/relu_5x5
I0403 19:18:12.936552  9067 net.cpp:425] inception_4c/relu_5x5 <- inception_4c/5x5
I0403 19:18:12.936569  9067 net.cpp:386] inception_4c/relu_5x5 -> inception_4c/5x5 (in-place)
I0403 19:18:12.936844  9067 net.cpp:141] Setting up inception_4c/relu_5x5
I0403 19:18:12.936872  9067 net.cpp:148] Top shape: 24 64 14 14 (301056)
I0403 19:18:12.936888  9067 net.cpp:156] Memory required for data: 1050971424
I0403 19:18:12.936904  9067 layer_factory.hpp:77] Creating layer inception_4c/pool
I0403 19:18:12.936921  9067 net.cpp:91] Creating Layer inception_4c/pool
I0403 19:18:12.936938  9067 net.cpp:425] inception_4c/pool <- inception_4b/output_inception_4b/output_0_split_3
I0403 19:18:12.936957  9067 net.cpp:399] inception_4c/pool -> inception_4c/pool
I0403 19:18:12.937021  9067 net.cpp:141] Setting up inception_4c/pool
I0403 19:18:12.937043  9067 net.cpp:148] Top shape: 24 512 14 14 (2408448)
I0403 19:18:12.937058  9067 net.cpp:156] Memory required for data: 1060605216
I0403 19:18:12.937073  9067 layer_factory.hpp:77] Creating layer inception_4c/pool_proj
I0403 19:18:12.937095  9067 net.cpp:91] Creating Layer inception_4c/pool_proj
I0403 19:18:12.937114  9067 net.cpp:425] inception_4c/pool_proj <- inception_4c/pool
I0403 19:18:12.937137  9067 net.cpp:399] inception_4c/pool_proj -> inception_4c/pool_proj
I0403 19:18:12.938303  9067 net.cpp:141] Setting up inception_4c/pool_proj
I0403 19:18:12.938331  9067 net.cpp:148] Top shape: 24 64 14 14 (301056)
I0403 19:18:12.938361  9067 net.cpp:156] Memory required for data: 1061809440
I0403 19:18:12.938381  9067 layer_factory.hpp:77] Creating layer inception_4c/relu_pool_proj
I0403 19:18:12.938416  9067 net.cpp:91] Creating Layer inception_4c/relu_pool_proj
I0403 19:18:12.938434  9067 net.cpp:425] inception_4c/relu_pool_proj <- inception_4c/pool_proj
I0403 19:18:12.938452  9067 net.cpp:386] inception_4c/relu_pool_proj -> inception_4c/pool_proj (in-place)
I0403 19:18:12.938632  9067 net.cpp:141] Setting up inception_4c/relu_pool_proj
I0403 19:18:12.938658  9067 net.cpp:148] Top shape: 24 64 14 14 (301056)
I0403 19:18:12.938674  9067 net.cpp:156] Memory required for data: 1063013664
I0403 19:18:12.938690  9067 layer_factory.hpp:77] Creating layer inception_4c/output
I0403 19:18:12.938707  9067 net.cpp:91] Creating Layer inception_4c/output
I0403 19:18:12.938724  9067 net.cpp:425] inception_4c/output <- inception_4c/1x1
I0403 19:18:12.938740  9067 net.cpp:425] inception_4c/output <- inception_4c/3x3
I0403 19:18:12.938756  9067 net.cpp:425] inception_4c/output <- inception_4c/5x5
I0403 19:18:12.938773  9067 net.cpp:425] inception_4c/output <- inception_4c/pool_proj
I0403 19:18:12.938789  9067 net.cpp:399] inception_4c/output -> inception_4c/output
I0403 19:18:12.938835  9067 net.cpp:141] Setting up inception_4c/output
I0403 19:18:12.938859  9067 net.cpp:148] Top shape: 24 512 14 14 (2408448)
I0403 19:18:12.938874  9067 net.cpp:156] Memory required for data: 1072647456
I0403 19:18:12.938889  9067 layer_factory.hpp:77] Creating layer inception_4c/output_inception_4c/output_0_split
I0403 19:18:12.938907  9067 net.cpp:91] Creating Layer inception_4c/output_inception_4c/output_0_split
I0403 19:18:12.938925  9067 net.cpp:425] inception_4c/output_inception_4c/output_0_split <- inception_4c/output
I0403 19:18:12.938942  9067 net.cpp:399] inception_4c/output_inception_4c/output_0_split -> inception_4c/output_inception_4c/output_0_split_0
I0403 19:18:12.938964  9067 net.cpp:399] inception_4c/output_inception_4c/output_0_split -> inception_4c/output_inception_4c/output_0_split_1
I0403 19:18:12.938984  9067 net.cpp:399] inception_4c/output_inception_4c/output_0_split -> inception_4c/output_inception_4c/output_0_split_2
I0403 19:18:12.939004  9067 net.cpp:399] inception_4c/output_inception_4c/output_0_split -> inception_4c/output_inception_4c/output_0_split_3
I0403 19:18:12.939085  9067 net.cpp:141] Setting up inception_4c/output_inception_4c/output_0_split
I0403 19:18:12.939108  9067 net.cpp:148] Top shape: 24 512 14 14 (2408448)
I0403 19:18:12.939124  9067 net.cpp:148] Top shape: 24 512 14 14 (2408448)
I0403 19:18:12.939141  9067 net.cpp:148] Top shape: 24 512 14 14 (2408448)
I0403 19:18:12.939157  9067 net.cpp:148] Top shape: 24 512 14 14 (2408448)
I0403 19:18:12.939170  9067 net.cpp:156] Memory required for data: 1111182624
I0403 19:18:12.939185  9067 layer_factory.hpp:77] Creating layer inception_4d/1x1
I0403 19:18:12.939208  9067 net.cpp:91] Creating Layer inception_4d/1x1
I0403 19:18:12.939225  9067 net.cpp:425] inception_4d/1x1 <- inception_4c/output_inception_4c/output_0_split_0
I0403 19:18:12.939247  9067 net.cpp:399] inception_4d/1x1 -> inception_4d/1x1
I0403 19:18:12.940593  9067 net.cpp:141] Setting up inception_4d/1x1
I0403 19:18:12.940621  9067 net.cpp:148] Top shape: 24 112 14 14 (526848)
I0403 19:18:12.940637  9067 net.cpp:156] Memory required for data: 1113290016
I0403 19:18:12.940655  9067 layer_factory.hpp:77] Creating layer inception_4d/relu_1x1
I0403 19:18:12.940672  9067 net.cpp:91] Creating Layer inception_4d/relu_1x1
I0403 19:18:12.940690  9067 net.cpp:425] inception_4d/relu_1x1 <- inception_4d/1x1
I0403 19:18:12.940709  9067 net.cpp:386] inception_4d/relu_1x1 -> inception_4d/1x1 (in-place)
I0403 19:18:12.940886  9067 net.cpp:141] Setting up inception_4d/relu_1x1
I0403 19:18:12.940910  9067 net.cpp:148] Top shape: 24 112 14 14 (526848)
I0403 19:18:12.940925  9067 net.cpp:156] Memory required for data: 1115397408
I0403 19:18:12.940940  9067 layer_factory.hpp:77] Creating layer inception_4d/3x3_reduce
I0403 19:18:12.940978  9067 net.cpp:91] Creating Layer inception_4d/3x3_reduce
I0403 19:18:12.940996  9067 net.cpp:425] inception_4d/3x3_reduce <- inception_4c/output_inception_4c/output_0_split_1
I0403 19:18:12.941020  9067 net.cpp:399] inception_4d/3x3_reduce -> inception_4d/3x3_reduce
I0403 19:18:12.942476  9067 net.cpp:141] Setting up inception_4d/3x3_reduce
I0403 19:18:12.942507  9067 net.cpp:148] Top shape: 24 144 14 14 (677376)
I0403 19:18:12.942523  9067 net.cpp:156] Memory required for data: 1118106912
I0403 19:18:12.942541  9067 layer_factory.hpp:77] Creating layer inception_4d/relu_3x3_reduce
I0403 19:18:12.942559  9067 net.cpp:91] Creating Layer inception_4d/relu_3x3_reduce
I0403 19:18:12.942576  9067 net.cpp:425] inception_4d/relu_3x3_reduce <- inception_4d/3x3_reduce
I0403 19:18:12.942596  9067 net.cpp:386] inception_4d/relu_3x3_reduce -> inception_4d/3x3_reduce (in-place)
I0403 19:18:12.942883  9067 net.cpp:141] Setting up inception_4d/relu_3x3_reduce
I0403 19:18:12.942910  9067 net.cpp:148] Top shape: 24 144 14 14 (677376)
I0403 19:18:12.942927  9067 net.cpp:156] Memory required for data: 1120816416
I0403 19:18:12.942942  9067 layer_factory.hpp:77] Creating layer inception_4d/3x3
I0403 19:18:12.942965  9067 net.cpp:91] Creating Layer inception_4d/3x3
I0403 19:18:12.942983  9067 net.cpp:425] inception_4d/3x3 <- inception_4d/3x3_reduce
I0403 19:18:12.943002  9067 net.cpp:399] inception_4d/3x3 -> inception_4d/3x3
I0403 19:18:12.947059  9067 net.cpp:141] Setting up inception_4d/3x3
I0403 19:18:12.947088  9067 net.cpp:148] Top shape: 24 288 14 14 (1354752)
I0403 19:18:12.947105  9067 net.cpp:156] Memory required for data: 1126235424
I0403 19:18:12.947124  9067 layer_factory.hpp:77] Creating layer inception_4d/relu_3x3
I0403 19:18:12.947142  9067 net.cpp:91] Creating Layer inception_4d/relu_3x3
I0403 19:18:12.947165  9067 net.cpp:425] inception_4d/relu_3x3 <- inception_4d/3x3
I0403 19:18:12.947182  9067 net.cpp:386] inception_4d/relu_3x3 -> inception_4d/3x3 (in-place)
I0403 19:18:12.947357  9067 net.cpp:141] Setting up inception_4d/relu_3x3
I0403 19:18:12.947383  9067 net.cpp:148] Top shape: 24 288 14 14 (1354752)
I0403 19:18:12.947399  9067 net.cpp:156] Memory required for data: 1131654432
I0403 19:18:12.947414  9067 layer_factory.hpp:77] Creating layer inception_4d/5x5_reduce
I0403 19:18:12.947437  9067 net.cpp:91] Creating Layer inception_4d/5x5_reduce
I0403 19:18:12.947463  9067 net.cpp:425] inception_4d/5x5_reduce <- inception_4c/output_inception_4c/output_0_split_2
I0403 19:18:12.947489  9067 net.cpp:399] inception_4d/5x5_reduce -> inception_4d/5x5_reduce
I0403 19:18:12.948602  9067 net.cpp:141] Setting up inception_4d/5x5_reduce
I0403 19:18:12.948631  9067 net.cpp:148] Top shape: 24 32 14 14 (150528)
I0403 19:18:12.948645  9067 net.cpp:156] Memory required for data: 1132256544
I0403 19:18:12.948664  9067 layer_factory.hpp:77] Creating layer inception_4d/relu_5x5_reduce
I0403 19:18:12.948681  9067 net.cpp:91] Creating Layer inception_4d/relu_5x5_reduce
I0403 19:18:12.948698  9067 net.cpp:425] inception_4d/relu_5x5_reduce <- inception_4d/5x5_reduce
I0403 19:18:12.948717  9067 net.cpp:386] inception_4d/relu_5x5_reduce -> inception_4d/5x5_reduce (in-place)
I0403 19:18:12.948899  9067 net.cpp:141] Setting up inception_4d/relu_5x5_reduce
I0403 19:18:12.948923  9067 net.cpp:148] Top shape: 24 32 14 14 (150528)
I0403 19:18:12.948940  9067 net.cpp:156] Memory required for data: 1132858656
I0403 19:18:12.948956  9067 layer_factory.hpp:77] Creating layer inception_4d/5x5
I0403 19:18:12.948976  9067 net.cpp:91] Creating Layer inception_4d/5x5
I0403 19:18:12.948995  9067 net.cpp:425] inception_4d/5x5 <- inception_4d/5x5_reduce
I0403 19:18:12.949017  9067 net.cpp:399] inception_4d/5x5 -> inception_4d/5x5
I0403 19:18:12.950404  9067 net.cpp:141] Setting up inception_4d/5x5
I0403 19:18:12.950431  9067 net.cpp:148] Top shape: 24 64 14 14 (301056)
I0403 19:18:12.950449  9067 net.cpp:156] Memory required for data: 1134062880
I0403 19:18:12.950487  9067 layer_factory.hpp:77] Creating layer inception_4d/relu_5x5
I0403 19:18:12.950523  9067 net.cpp:91] Creating Layer inception_4d/relu_5x5
I0403 19:18:12.950541  9067 net.cpp:425] inception_4d/relu_5x5 <- inception_4d/5x5
I0403 19:18:12.950559  9067 net.cpp:386] inception_4d/relu_5x5 -> inception_4d/5x5 (in-place)
I0403 19:18:12.950845  9067 net.cpp:141] Setting up inception_4d/relu_5x5
I0403 19:18:12.950871  9067 net.cpp:148] Top shape: 24 64 14 14 (301056)
I0403 19:18:12.950886  9067 net.cpp:156] Memory required for data: 1135267104
I0403 19:18:12.950902  9067 layer_factory.hpp:77] Creating layer inception_4d/pool
I0403 19:18:12.950923  9067 net.cpp:91] Creating Layer inception_4d/pool
I0403 19:18:12.950943  9067 net.cpp:425] inception_4d/pool <- inception_4c/output_inception_4c/output_0_split_3
I0403 19:18:12.950963  9067 net.cpp:399] inception_4d/pool -> inception_4d/pool
I0403 19:18:12.951026  9067 net.cpp:141] Setting up inception_4d/pool
I0403 19:18:12.951050  9067 net.cpp:148] Top shape: 24 512 14 14 (2408448)
I0403 19:18:12.951066  9067 net.cpp:156] Memory required for data: 1144900896
I0403 19:18:12.951081  9067 layer_factory.hpp:77] Creating layer inception_4d/pool_proj
I0403 19:18:12.951103  9067 net.cpp:91] Creating Layer inception_4d/pool_proj
I0403 19:18:12.951127  9067 net.cpp:425] inception_4d/pool_proj <- inception_4d/pool
I0403 19:18:12.951149  9067 net.cpp:399] inception_4d/pool_proj -> inception_4d/pool_proj
I0403 19:18:12.952859  9067 net.cpp:141] Setting up inception_4d/pool_proj
I0403 19:18:12.952888  9067 net.cpp:148] Top shape: 24 64 14 14 (301056)
I0403 19:18:12.952903  9067 net.cpp:156] Memory required for data: 1146105120
I0403 19:18:12.952921  9067 layer_factory.hpp:77] Creating layer inception_4d/relu_pool_proj
I0403 19:18:12.952941  9067 net.cpp:91] Creating Layer inception_4d/relu_pool_proj
I0403 19:18:12.952961  9067 net.cpp:425] inception_4d/relu_pool_proj <- inception_4d/pool_proj
I0403 19:18:12.952980  9067 net.cpp:386] inception_4d/relu_pool_proj -> inception_4d/pool_proj (in-place)
I0403 19:18:12.953156  9067 net.cpp:141] Setting up inception_4d/relu_pool_proj
I0403 19:18:12.953181  9067 net.cpp:148] Top shape: 24 64 14 14 (301056)
I0403 19:18:12.953197  9067 net.cpp:156] Memory required for data: 1147309344
I0403 19:18:12.953212  9067 layer_factory.hpp:77] Creating layer inception_4d/output
I0403 19:18:12.953233  9067 net.cpp:91] Creating Layer inception_4d/output
I0403 19:18:12.953248  9067 net.cpp:425] inception_4d/output <- inception_4d/1x1
I0403 19:18:12.953266  9067 net.cpp:425] inception_4d/output <- inception_4d/3x3
I0403 19:18:12.953282  9067 net.cpp:425] inception_4d/output <- inception_4d/5x5
I0403 19:18:12.953299  9067 net.cpp:425] inception_4d/output <- inception_4d/pool_proj
I0403 19:18:12.953316  9067 net.cpp:399] inception_4d/output -> inception_4d/output
I0403 19:18:12.953363  9067 net.cpp:141] Setting up inception_4d/output
I0403 19:18:12.953387  9067 net.cpp:148] Top shape: 24 528 14 14 (2483712)
I0403 19:18:12.953402  9067 net.cpp:156] Memory required for data: 1157244192
I0403 19:18:12.953416  9067 layer_factory.hpp:77] Creating layer inception_4d/output_inception_4d/output_0_split
I0403 19:18:12.953433  9067 net.cpp:91] Creating Layer inception_4d/output_inception_4d/output_0_split
I0403 19:18:12.953449  9067 net.cpp:425] inception_4d/output_inception_4d/output_0_split <- inception_4d/output
I0403 19:18:12.953475  9067 net.cpp:399] inception_4d/output_inception_4d/output_0_split -> inception_4d/output_inception_4d/output_0_split_0
I0403 19:18:12.953498  9067 net.cpp:399] inception_4d/output_inception_4d/output_0_split -> inception_4d/output_inception_4d/output_0_split_1
I0403 19:18:12.953519  9067 net.cpp:399] inception_4d/output_inception_4d/output_0_split -> inception_4d/output_inception_4d/output_0_split_2
I0403 19:18:12.953539  9067 net.cpp:399] inception_4d/output_inception_4d/output_0_split -> inception_4d/output_inception_4d/output_0_split_3
I0403 19:18:12.953559  9067 net.cpp:399] inception_4d/output_inception_4d/output_0_split -> inception_4d/output_inception_4d/output_0_split_4
I0403 19:18:12.953660  9067 net.cpp:141] Setting up inception_4d/output_inception_4d/output_0_split
I0403 19:18:12.953696  9067 net.cpp:148] Top shape: 24 528 14 14 (2483712)
I0403 19:18:12.953713  9067 net.cpp:148] Top shape: 24 528 14 14 (2483712)
I0403 19:18:12.953729  9067 net.cpp:148] Top shape: 24 528 14 14 (2483712)
I0403 19:18:12.953744  9067 net.cpp:148] Top shape: 24 528 14 14 (2483712)
I0403 19:18:12.953760  9067 net.cpp:148] Top shape: 24 528 14 14 (2483712)
I0403 19:18:12.953775  9067 net.cpp:156] Memory required for data: 1206918432
I0403 19:18:12.953789  9067 layer_factory.hpp:77] Creating layer loss2/ave_pool
I0403 19:18:12.953807  9067 net.cpp:91] Creating Layer loss2/ave_pool
I0403 19:18:12.953822  9067 net.cpp:425] loss2/ave_pool <- inception_4d/output_inception_4d/output_0_split_0
I0403 19:18:12.953843  9067 net.cpp:399] loss2/ave_pool -> loss2/ave_pool
I0403 19:18:12.954141  9067 net.cpp:141] Setting up loss2/ave_pool
I0403 19:18:12.954167  9067 net.cpp:148] Top shape: 24 528 4 4 (202752)
I0403 19:18:12.954185  9067 net.cpp:156] Memory required for data: 1207729440
I0403 19:18:12.954200  9067 layer_factory.hpp:77] Creating layer loss2/conv
I0403 19:18:12.954222  9067 net.cpp:91] Creating Layer loss2/conv
I0403 19:18:12.954241  9067 net.cpp:425] loss2/conv <- loss2/ave_pool
I0403 19:18:12.954262  9067 net.cpp:399] loss2/conv -> loss2/conv
I0403 19:18:12.956058  9067 net.cpp:141] Setting up loss2/conv
I0403 19:18:12.956087  9067 net.cpp:148] Top shape: 24 128 4 4 (49152)
I0403 19:18:12.956102  9067 net.cpp:156] Memory required for data: 1207926048
I0403 19:18:12.956121  9067 layer_factory.hpp:77] Creating layer loss2/relu_conv
I0403 19:18:12.956141  9067 net.cpp:91] Creating Layer loss2/relu_conv
I0403 19:18:12.956158  9067 net.cpp:425] loss2/relu_conv <- loss2/conv
I0403 19:18:12.956176  9067 net.cpp:386] loss2/relu_conv -> loss2/conv (in-place)
I0403 19:18:12.956480  9067 net.cpp:141] Setting up loss2/relu_conv
I0403 19:18:12.956507  9067 net.cpp:148] Top shape: 24 128 4 4 (49152)
I0403 19:18:12.956523  9067 net.cpp:156] Memory required for data: 1208122656
I0403 19:18:12.956539  9067 layer_factory.hpp:77] Creating layer loss2/fc
I0403 19:18:12.956560  9067 net.cpp:91] Creating Layer loss2/fc
I0403 19:18:12.956589  9067 net.cpp:425] loss2/fc <- loss2/conv
I0403 19:18:12.956611  9067 net.cpp:399] loss2/fc -> loss2/fc
I0403 19:18:12.973516  9067 net.cpp:141] Setting up loss2/fc
I0403 19:18:12.973549  9067 net.cpp:148] Top shape: 24 1024 (24576)
I0403 19:18:12.973565  9067 net.cpp:156] Memory required for data: 1208220960
I0403 19:18:12.973584  9067 layer_factory.hpp:77] Creating layer loss2/relu_fc
I0403 19:18:12.973603  9067 net.cpp:91] Creating Layer loss2/relu_fc
I0403 19:18:12.973620  9067 net.cpp:425] loss2/relu_fc <- loss2/fc
I0403 19:18:12.973641  9067 net.cpp:386] loss2/relu_fc -> loss2/fc (in-place)
I0403 19:18:12.973937  9067 net.cpp:141] Setting up loss2/relu_fc
I0403 19:18:12.973963  9067 net.cpp:148] Top shape: 24 1024 (24576)
I0403 19:18:12.973978  9067 net.cpp:156] Memory required for data: 1208319264
I0403 19:18:12.973994  9067 layer_factory.hpp:77] Creating layer loss2/drop_fc
I0403 19:18:12.974012  9067 net.cpp:91] Creating Layer loss2/drop_fc
I0403 19:18:12.974028  9067 net.cpp:425] loss2/drop_fc <- loss2/fc
I0403 19:18:12.974048  9067 net.cpp:386] loss2/drop_fc -> loss2/fc (in-place)
I0403 19:18:12.974095  9067 net.cpp:141] Setting up loss2/drop_fc
I0403 19:18:12.974122  9067 net.cpp:148] Top shape: 24 1024 (24576)
I0403 19:18:12.974136  9067 net.cpp:156] Memory required for data: 1208417568
I0403 19:18:12.974150  9067 layer_factory.hpp:77] Creating layer loss2/classifier_plantvillage
I0403 19:18:12.974169  9067 net.cpp:91] Creating Layer loss2/classifier_plantvillage
I0403 19:18:12.974186  9067 net.cpp:425] loss2/classifier_plantvillage <- loss2/fc
I0403 19:18:12.974208  9067 net.cpp:399] loss2/classifier_plantvillage -> loss2/classifier_plantvillage
I0403 19:18:12.974591  9067 net.cpp:141] Setting up loss2/classifier_plantvillage
I0403 19:18:12.974617  9067 net.cpp:148] Top shape: 24 38 (912)
I0403 19:18:12.974632  9067 net.cpp:156] Memory required for data: 1208421216
I0403 19:18:12.974666  9067 layer_factory.hpp:77] Creating layer loss2/classifier_plantvillage_loss2/classifier_plantvillage_0_split
I0403 19:18:12.974688  9067 net.cpp:91] Creating Layer loss2/classifier_plantvillage_loss2/classifier_plantvillage_0_split
I0403 19:18:12.974705  9067 net.cpp:425] loss2/classifier_plantvillage_loss2/classifier_plantvillage_0_split <- loss2/classifier_plantvillage
I0403 19:18:12.974722  9067 net.cpp:399] loss2/classifier_plantvillage_loss2/classifier_plantvillage_0_split -> loss2/classifier_plantvillage_loss2/classifier_plantvillage_0_split_0
I0403 19:18:12.974746  9067 net.cpp:399] loss2/classifier_plantvillage_loss2/classifier_plantvillage_0_split -> loss2/classifier_plantvillage_loss2/classifier_plantvillage_0_split_1
I0403 19:18:12.974766  9067 net.cpp:399] loss2/classifier_plantvillage_loss2/classifier_plantvillage_0_split -> loss2/classifier_plantvillage_loss2/classifier_plantvillage_0_split_2
I0403 19:18:12.974840  9067 net.cpp:141] Setting up loss2/classifier_plantvillage_loss2/classifier_plantvillage_0_split
I0403 19:18:12.974864  9067 net.cpp:148] Top shape: 24 38 (912)
I0403 19:18:12.974879  9067 net.cpp:148] Top shape: 24 38 (912)
I0403 19:18:12.974895  9067 net.cpp:148] Top shape: 24 38 (912)
I0403 19:18:12.974908  9067 net.cpp:156] Memory required for data: 1208432160
I0403 19:18:12.974923  9067 layer_factory.hpp:77] Creating layer inception_4e/1x1
I0403 19:18:12.974944  9067 net.cpp:91] Creating Layer inception_4e/1x1
I0403 19:18:12.974962  9067 net.cpp:425] inception_4e/1x1 <- inception_4d/output_inception_4d/output_0_split_1
I0403 19:18:12.974982  9067 net.cpp:399] inception_4e/1x1 -> inception_4e/1x1
I0403 19:18:12.976766  9067 net.cpp:141] Setting up inception_4e/1x1
I0403 19:18:12.976797  9067 net.cpp:148] Top shape: 24 256 14 14 (1204224)
I0403 19:18:12.976814  9067 net.cpp:156] Memory required for data: 1213249056
I0403 19:18:12.976832  9067 layer_factory.hpp:77] Creating layer inception_4e/relu_1x1
I0403 19:18:12.976850  9067 net.cpp:91] Creating Layer inception_4e/relu_1x1
I0403 19:18:12.976866  9067 net.cpp:425] inception_4e/relu_1x1 <- inception_4e/1x1
I0403 19:18:12.976884  9067 net.cpp:386] inception_4e/relu_1x1 -> inception_4e/1x1 (in-place)
I0403 19:18:12.977167  9067 net.cpp:141] Setting up inception_4e/relu_1x1
I0403 19:18:12.977197  9067 net.cpp:148] Top shape: 24 256 14 14 (1204224)
I0403 19:18:12.977213  9067 net.cpp:156] Memory required for data: 1218065952
I0403 19:18:12.977229  9067 layer_factory.hpp:77] Creating layer inception_4e/3x3_reduce
I0403 19:18:12.977251  9067 net.cpp:91] Creating Layer inception_4e/3x3_reduce
I0403 19:18:12.977267  9067 net.cpp:425] inception_4e/3x3_reduce <- inception_4d/output_inception_4d/output_0_split_2
I0403 19:18:12.977288  9067 net.cpp:399] inception_4e/3x3_reduce -> inception_4e/3x3_reduce
I0403 19:18:12.979298  9067 net.cpp:141] Setting up inception_4e/3x3_reduce
I0403 19:18:12.979327  9067 net.cpp:148] Top shape: 24 160 14 14 (752640)
I0403 19:18:12.979343  9067 net.cpp:156] Memory required for data: 1221076512
I0403 19:18:12.979362  9067 layer_factory.hpp:77] Creating layer inception_4e/relu_3x3_reduce
I0403 19:18:12.979382  9067 net.cpp:91] Creating Layer inception_4e/relu_3x3_reduce
I0403 19:18:12.979398  9067 net.cpp:425] inception_4e/relu_3x3_reduce <- inception_4e/3x3_reduce
I0403 19:18:12.979416  9067 net.cpp:386] inception_4e/relu_3x3_reduce -> inception_4e/3x3_reduce (in-place)
I0403 19:18:12.979600  9067 net.cpp:141] Setting up inception_4e/relu_3x3_reduce
I0403 19:18:12.979629  9067 net.cpp:148] Top shape: 24 160 14 14 (752640)
I0403 19:18:12.979646  9067 net.cpp:156] Memory required for data: 1224087072
I0403 19:18:12.979661  9067 layer_factory.hpp:77] Creating layer inception_4e/3x3
I0403 19:18:12.979683  9067 net.cpp:91] Creating Layer inception_4e/3x3
I0403 19:18:12.979702  9067 net.cpp:425] inception_4e/3x3 <- inception_4e/3x3_reduce
I0403 19:18:12.979722  9067 net.cpp:399] inception_4e/3x3 -> inception_4e/3x3
I0403 19:18:12.984560  9067 net.cpp:141] Setting up inception_4e/3x3
I0403 19:18:12.984602  9067 net.cpp:148] Top shape: 24 320 14 14 (1505280)
I0403 19:18:12.984621  9067 net.cpp:156] Memory required for data: 1230108192
I0403 19:18:12.984639  9067 layer_factory.hpp:77] Creating layer inception_4e/relu_3x3
I0403 19:18:12.984658  9067 net.cpp:91] Creating Layer inception_4e/relu_3x3
I0403 19:18:12.984673  9067 net.cpp:425] inception_4e/relu_3x3 <- inception_4e/3x3
I0403 19:18:12.984689  9067 net.cpp:386] inception_4e/relu_3x3 -> inception_4e/3x3 (in-place)
I0403 19:18:12.984978  9067 net.cpp:141] Setting up inception_4e/relu_3x3
I0403 19:18:12.985004  9067 net.cpp:148] Top shape: 24 320 14 14 (1505280)
I0403 19:18:12.985019  9067 net.cpp:156] Memory required for data: 1236129312
I0403 19:18:12.985035  9067 layer_factory.hpp:77] Creating layer inception_4e/5x5_reduce
I0403 19:18:12.985059  9067 net.cpp:91] Creating Layer inception_4e/5x5_reduce
I0403 19:18:12.985076  9067 net.cpp:425] inception_4e/5x5_reduce <- inception_4d/output_inception_4d/output_0_split_3
I0403 19:18:12.985098  9067 net.cpp:399] inception_4e/5x5_reduce -> inception_4e/5x5_reduce
I0403 19:18:12.986120  9067 net.cpp:141] Setting up inception_4e/5x5_reduce
I0403 19:18:12.986148  9067 net.cpp:148] Top shape: 24 32 14 14 (150528)
I0403 19:18:12.986165  9067 net.cpp:156] Memory required for data: 1236731424
I0403 19:18:12.986186  9067 layer_factory.hpp:77] Creating layer inception_4e/relu_5x5_reduce
I0403 19:18:12.986205  9067 net.cpp:91] Creating Layer inception_4e/relu_5x5_reduce
I0403 19:18:12.986222  9067 net.cpp:425] inception_4e/relu_5x5_reduce <- inception_4e/5x5_reduce
I0403 19:18:12.986240  9067 net.cpp:386] inception_4e/relu_5x5_reduce -> inception_4e/5x5_reduce (in-place)
I0403 19:18:12.986536  9067 net.cpp:141] Setting up inception_4e/relu_5x5_reduce
I0403 19:18:12.986562  9067 net.cpp:148] Top shape: 24 32 14 14 (150528)
I0403 19:18:12.986577  9067 net.cpp:156] Memory required for data: 1237333536
I0403 19:18:12.986593  9067 layer_factory.hpp:77] Creating layer inception_4e/5x5
I0403 19:18:12.986631  9067 net.cpp:91] Creating Layer inception_4e/5x5
I0403 19:18:12.986651  9067 net.cpp:425] inception_4e/5x5 <- inception_4e/5x5_reduce
I0403 19:18:12.986676  9067 net.cpp:399] inception_4e/5x5 -> inception_4e/5x5
I0403 19:18:12.988436  9067 net.cpp:141] Setting up inception_4e/5x5
I0403 19:18:12.988468  9067 net.cpp:148] Top shape: 24 128 14 14 (602112)
I0403 19:18:12.988484  9067 net.cpp:156] Memory required for data: 1239741984
I0403 19:18:12.988503  9067 layer_factory.hpp:77] Creating layer inception_4e/relu_5x5
I0403 19:18:12.988524  9067 net.cpp:91] Creating Layer inception_4e/relu_5x5
I0403 19:18:12.988543  9067 net.cpp:425] inception_4e/relu_5x5 <- inception_4e/5x5
I0403 19:18:12.988561  9067 net.cpp:386] inception_4e/relu_5x5 -> inception_4e/5x5 (in-place)
I0403 19:18:12.988749  9067 net.cpp:141] Setting up inception_4e/relu_5x5
I0403 19:18:12.988775  9067 net.cpp:148] Top shape: 24 128 14 14 (602112)
I0403 19:18:12.988790  9067 net.cpp:156] Memory required for data: 1242150432
I0403 19:18:12.988806  9067 layer_factory.hpp:77] Creating layer inception_4e/pool
I0403 19:18:12.988826  9067 net.cpp:91] Creating Layer inception_4e/pool
I0403 19:18:12.988843  9067 net.cpp:425] inception_4e/pool <- inception_4d/output_inception_4d/output_0_split_4
I0403 19:18:12.988862  9067 net.cpp:399] inception_4e/pool -> inception_4e/pool
I0403 19:18:12.988929  9067 net.cpp:141] Setting up inception_4e/pool
I0403 19:18:12.988953  9067 net.cpp:148] Top shape: 24 528 14 14 (2483712)
I0403 19:18:12.988968  9067 net.cpp:156] Memory required for data: 1252085280
I0403 19:18:12.988983  9067 layer_factory.hpp:77] Creating layer inception_4e/pool_proj
I0403 19:18:12.989006  9067 net.cpp:91] Creating Layer inception_4e/pool_proj
I0403 19:18:12.989023  9067 net.cpp:425] inception_4e/pool_proj <- inception_4e/pool
I0403 19:18:12.989043  9067 net.cpp:399] inception_4e/pool_proj -> inception_4e/pool_proj
I0403 19:18:12.990512  9067 net.cpp:141] Setting up inception_4e/pool_proj
I0403 19:18:12.990540  9067 net.cpp:148] Top shape: 24 128 14 14 (602112)
I0403 19:18:12.990569  9067 net.cpp:156] Memory required for data: 1254493728
I0403 19:18:12.990588  9067 layer_factory.hpp:77] Creating layer inception_4e/relu_pool_proj
I0403 19:18:12.990608  9067 net.cpp:91] Creating Layer inception_4e/relu_pool_proj
I0403 19:18:12.990627  9067 net.cpp:425] inception_4e/relu_pool_proj <- inception_4e/pool_proj
I0403 19:18:12.990644  9067 net.cpp:386] inception_4e/relu_pool_proj -> inception_4e/pool_proj (in-place)
I0403 19:18:12.990923  9067 net.cpp:141] Setting up inception_4e/relu_pool_proj
I0403 19:18:12.990950  9067 net.cpp:148] Top shape: 24 128 14 14 (602112)
I0403 19:18:12.990967  9067 net.cpp:156] Memory required for data: 1256902176
I0403 19:18:12.990981  9067 layer_factory.hpp:77] Creating layer inception_4e/output
I0403 19:18:12.990999  9067 net.cpp:91] Creating Layer inception_4e/output
I0403 19:18:12.991015  9067 net.cpp:425] inception_4e/output <- inception_4e/1x1
I0403 19:18:12.991032  9067 net.cpp:425] inception_4e/output <- inception_4e/3x3
I0403 19:18:12.991050  9067 net.cpp:425] inception_4e/output <- inception_4e/5x5
I0403 19:18:12.991065  9067 net.cpp:425] inception_4e/output <- inception_4e/pool_proj
I0403 19:18:12.991083  9067 net.cpp:399] inception_4e/output -> inception_4e/output
I0403 19:18:12.991132  9067 net.cpp:141] Setting up inception_4e/output
I0403 19:18:12.991160  9067 net.cpp:148] Top shape: 24 832 14 14 (3913728)
I0403 19:18:12.991178  9067 net.cpp:156] Memory required for data: 1272557088
I0403 19:18:12.991194  9067 layer_factory.hpp:77] Creating layer pool4/3x3_s2
I0403 19:18:12.991210  9067 net.cpp:91] Creating Layer pool4/3x3_s2
I0403 19:18:12.991238  9067 net.cpp:425] pool4/3x3_s2 <- inception_4e/output
I0403 19:18:12.991261  9067 net.cpp:399] pool4/3x3_s2 -> pool4/3x3_s2
I0403 19:18:12.991341  9067 net.cpp:141] Setting up pool4/3x3_s2
I0403 19:18:12.991366  9067 net.cpp:148] Top shape: 24 832 7 7 (978432)
I0403 19:18:12.991382  9067 net.cpp:156] Memory required for data: 1276470816
I0403 19:18:12.991399  9067 layer_factory.hpp:77] Creating layer pool4/3x3_s2_pool4/3x3_s2_0_split
I0403 19:18:12.991418  9067 net.cpp:91] Creating Layer pool4/3x3_s2_pool4/3x3_s2_0_split
I0403 19:18:12.991436  9067 net.cpp:425] pool4/3x3_s2_pool4/3x3_s2_0_split <- pool4/3x3_s2
I0403 19:18:12.991454  9067 net.cpp:399] pool4/3x3_s2_pool4/3x3_s2_0_split -> pool4/3x3_s2_pool4/3x3_s2_0_split_0
I0403 19:18:12.991482  9067 net.cpp:399] pool4/3x3_s2_pool4/3x3_s2_0_split -> pool4/3x3_s2_pool4/3x3_s2_0_split_1
I0403 19:18:12.991538  9067 net.cpp:399] pool4/3x3_s2_pool4/3x3_s2_0_split -> pool4/3x3_s2_pool4/3x3_s2_0_split_2
I0403 19:18:12.991591  9067 net.cpp:399] pool4/3x3_s2_pool4/3x3_s2_0_split -> pool4/3x3_s2_pool4/3x3_s2_0_split_3
I0403 19:18:12.991714  9067 net.cpp:141] Setting up pool4/3x3_s2_pool4/3x3_s2_0_split
I0403 19:18:12.991739  9067 net.cpp:148] Top shape: 24 832 7 7 (978432)
I0403 19:18:12.991755  9067 net.cpp:148] Top shape: 24 832 7 7 (978432)
I0403 19:18:12.991772  9067 net.cpp:148] Top shape: 24 832 7 7 (978432)
I0403 19:18:12.991788  9067 net.cpp:148] Top shape: 24 832 7 7 (978432)
I0403 19:18:12.991801  9067 net.cpp:156] Memory required for data: 1292125728
I0403 19:18:12.991816  9067 layer_factory.hpp:77] Creating layer inception_5a/1x1
I0403 19:18:12.991837  9067 net.cpp:91] Creating Layer inception_5a/1x1
I0403 19:18:12.991857  9067 net.cpp:425] inception_5a/1x1 <- pool4/3x3_s2_pool4/3x3_s2_0_split_0
I0403 19:18:12.991878  9067 net.cpp:399] inception_5a/1x1 -> inception_5a/1x1
I0403 19:18:12.994676  9067 net.cpp:141] Setting up inception_5a/1x1
I0403 19:18:12.994705  9067 net.cpp:148] Top shape: 24 256 7 7 (301056)
I0403 19:18:12.994722  9067 net.cpp:156] Memory required for data: 1293329952
I0403 19:18:12.994741  9067 layer_factory.hpp:77] Creating layer inception_5a/relu_1x1
I0403 19:18:12.994761  9067 net.cpp:91] Creating Layer inception_5a/relu_1x1
I0403 19:18:12.994779  9067 net.cpp:425] inception_5a/relu_1x1 <- inception_5a/1x1
I0403 19:18:12.994798  9067 net.cpp:386] inception_5a/relu_1x1 -> inception_5a/1x1 (in-place)
I0403 19:18:12.995107  9067 net.cpp:141] Setting up inception_5a/relu_1x1
I0403 19:18:12.995134  9067 net.cpp:148] Top shape: 24 256 7 7 (301056)
I0403 19:18:12.995151  9067 net.cpp:156] Memory required for data: 1294534176
I0403 19:18:12.995167  9067 layer_factory.hpp:77] Creating layer inception_5a/3x3_reduce
I0403 19:18:12.995190  9067 net.cpp:91] Creating Layer inception_5a/3x3_reduce
I0403 19:18:12.995209  9067 net.cpp:425] inception_5a/3x3_reduce <- pool4/3x3_s2_pool4/3x3_s2_0_split_1
I0403 19:18:12.995246  9067 net.cpp:399] inception_5a/3x3_reduce -> inception_5a/3x3_reduce
I0403 19:18:12.997665  9067 net.cpp:141] Setting up inception_5a/3x3_reduce
I0403 19:18:12.997696  9067 net.cpp:148] Top shape: 24 160 7 7 (188160)
I0403 19:18:12.997714  9067 net.cpp:156] Memory required for data: 1295286816
I0403 19:18:12.997735  9067 layer_factory.hpp:77] Creating layer inception_5a/relu_3x3_reduce
I0403 19:18:12.997752  9067 net.cpp:91] Creating Layer inception_5a/relu_3x3_reduce
I0403 19:18:12.997769  9067 net.cpp:425] inception_5a/relu_3x3_reduce <- inception_5a/3x3_reduce
I0403 19:18:12.997791  9067 net.cpp:386] inception_5a/relu_3x3_reduce -> inception_5a/3x3_reduce (in-place)
I0403 19:18:12.997975  9067 net.cpp:141] Setting up inception_5a/relu_3x3_reduce
I0403 19:18:12.998002  9067 net.cpp:148] Top shape: 24 160 7 7 (188160)
I0403 19:18:12.998018  9067 net.cpp:156] Memory required for data: 1296039456
I0403 19:18:12.998033  9067 layer_factory.hpp:77] Creating layer inception_5a/3x3
I0403 19:18:12.998055  9067 net.cpp:91] Creating Layer inception_5a/3x3
I0403 19:18:12.998075  9067 net.cpp:425] inception_5a/3x3 <- inception_5a/3x3_reduce
I0403 19:18:12.998098  9067 net.cpp:399] inception_5a/3x3 -> inception_5a/3x3
I0403 19:18:13.002920  9067 net.cpp:141] Setting up inception_5a/3x3
I0403 19:18:13.002949  9067 net.cpp:148] Top shape: 24 320 7 7 (376320)
I0403 19:18:13.002965  9067 net.cpp:156] Memory required for data: 1297544736
I0403 19:18:13.002985  9067 layer_factory.hpp:77] Creating layer inception_5a/relu_3x3
I0403 19:18:13.003005  9067 net.cpp:91] Creating Layer inception_5a/relu_3x3
I0403 19:18:13.003023  9067 net.cpp:425] inception_5a/relu_3x3 <- inception_5a/3x3
I0403 19:18:13.003041  9067 net.cpp:386] inception_5a/relu_3x3 -> inception_5a/3x3 (in-place)
I0403 19:18:13.003331  9067 net.cpp:141] Setting up inception_5a/relu_3x3
I0403 19:18:13.003357  9067 net.cpp:148] Top shape: 24 320 7 7 (376320)
I0403 19:18:13.003373  9067 net.cpp:156] Memory required for data: 1299050016
I0403 19:18:13.003389  9067 layer_factory.hpp:77] Creating layer inception_5a/5x5_reduce
I0403 19:18:13.003410  9067 net.cpp:91] Creating Layer inception_5a/5x5_reduce
I0403 19:18:13.003430  9067 net.cpp:425] inception_5a/5x5_reduce <- pool4/3x3_s2_pool4/3x3_s2_0_split_2
I0403 19:18:13.003451  9067 net.cpp:399] inception_5a/5x5_reduce -> inception_5a/5x5_reduce
I0403 19:18:13.004580  9067 net.cpp:141] Setting up inception_5a/5x5_reduce
I0403 19:18:13.004609  9067 net.cpp:148] Top shape: 24 32 7 7 (37632)
I0403 19:18:13.004652  9067 net.cpp:156] Memory required for data: 1299200544
I0403 19:18:13.004701  9067 layer_factory.hpp:77] Creating layer inception_5a/relu_5x5_reduce
I0403 19:18:13.004751  9067 net.cpp:91] Creating Layer inception_5a/relu_5x5_reduce
I0403 19:18:13.004771  9067 net.cpp:425] inception_5a/relu_5x5_reduce <- inception_5a/5x5_reduce
I0403 19:18:13.004789  9067 net.cpp:386] inception_5a/relu_5x5_reduce -> inception_5a/5x5_reduce (in-place)
I0403 19:18:13.005082  9067 net.cpp:141] Setting up inception_5a/relu_5x5_reduce
I0403 19:18:13.005108  9067 net.cpp:148] Top shape: 24 32 7 7 (37632)
I0403 19:18:13.005125  9067 net.cpp:156] Memory required for data: 1299351072
I0403 19:18:13.005139  9067 layer_factory.hpp:77] Creating layer inception_5a/5x5
I0403 19:18:13.005162  9067 net.cpp:91] Creating Layer inception_5a/5x5
I0403 19:18:13.005183  9067 net.cpp:425] inception_5a/5x5 <- inception_5a/5x5_reduce
I0403 19:18:13.005203  9067 net.cpp:399] inception_5a/5x5 -> inception_5a/5x5
I0403 19:18:13.006844  9067 net.cpp:141] Setting up inception_5a/5x5
I0403 19:18:13.006882  9067 net.cpp:148] Top shape: 24 128 7 7 (150528)
I0403 19:18:13.006899  9067 net.cpp:156] Memory required for data: 1299953184
I0403 19:18:13.006918  9067 layer_factory.hpp:77] Creating layer inception_5a/relu_5x5
I0403 19:18:13.006939  9067 net.cpp:91] Creating Layer inception_5a/relu_5x5
I0403 19:18:13.006958  9067 net.cpp:425] inception_5a/relu_5x5 <- inception_5a/5x5
I0403 19:18:13.006974  9067 net.cpp:386] inception_5a/relu_5x5 -> inception_5a/5x5 (in-place)
I0403 19:18:13.007158  9067 net.cpp:141] Setting up inception_5a/relu_5x5
I0403 19:18:13.007185  9067 net.cpp:148] Top shape: 24 128 7 7 (150528)
I0403 19:18:13.007200  9067 net.cpp:156] Memory required for data: 1300555296
I0403 19:18:13.007216  9067 layer_factory.hpp:77] Creating layer inception_5a/pool
I0403 19:18:13.007236  9067 net.cpp:91] Creating Layer inception_5a/pool
I0403 19:18:13.007254  9067 net.cpp:425] inception_5a/pool <- pool4/3x3_s2_pool4/3x3_s2_0_split_3
I0403 19:18:13.007272  9067 net.cpp:399] inception_5a/pool -> inception_5a/pool
I0403 19:18:13.007342  9067 net.cpp:141] Setting up inception_5a/pool
I0403 19:18:13.007366  9067 net.cpp:148] Top shape: 24 832 7 7 (978432)
I0403 19:18:13.007381  9067 net.cpp:156] Memory required for data: 1304469024
I0403 19:18:13.007397  9067 layer_factory.hpp:77] Creating layer inception_5a/pool_proj
I0403 19:18:13.007418  9067 net.cpp:91] Creating Layer inception_5a/pool_proj
I0403 19:18:13.007436  9067 net.cpp:425] inception_5a/pool_proj <- inception_5a/pool
I0403 19:18:13.007462  9067 net.cpp:399] inception_5a/pool_proj -> inception_5a/pool_proj
I0403 19:18:13.009629  9067 net.cpp:141] Setting up inception_5a/pool_proj
I0403 19:18:13.009659  9067 net.cpp:148] Top shape: 24 128 7 7 (150528)
I0403 19:18:13.009675  9067 net.cpp:156] Memory required for data: 1305071136
I0403 19:18:13.009692  9067 layer_factory.hpp:77] Creating layer inception_5a/relu_pool_proj
I0403 19:18:13.009711  9067 net.cpp:91] Creating Layer inception_5a/relu_pool_proj
I0403 19:18:13.009727  9067 net.cpp:425] inception_5a/relu_pool_proj <- inception_5a/pool_proj
I0403 19:18:13.009752  9067 net.cpp:386] inception_5a/relu_pool_proj -> inception_5a/pool_proj (in-place)
I0403 19:18:13.010032  9067 net.cpp:141] Setting up inception_5a/relu_pool_proj
I0403 19:18:13.010082  9067 net.cpp:148] Top shape: 24 128 7 7 (150528)
I0403 19:18:13.010125  9067 net.cpp:156] Memory required for data: 1305673248
I0403 19:18:13.010166  9067 layer_factory.hpp:77] Creating layer inception_5a/output
I0403 19:18:13.010185  9067 net.cpp:91] Creating Layer inception_5a/output
I0403 19:18:13.010200  9067 net.cpp:425] inception_5a/output <- inception_5a/1x1
I0403 19:18:13.010217  9067 net.cpp:425] inception_5a/output <- inception_5a/3x3
I0403 19:18:13.010234  9067 net.cpp:425] inception_5a/output <- inception_5a/5x5
I0403 19:18:13.010252  9067 net.cpp:425] inception_5a/output <- inception_5a/pool_proj
I0403 19:18:13.010272  9067 net.cpp:399] inception_5a/output -> inception_5a/output
I0403 19:18:13.010319  9067 net.cpp:141] Setting up inception_5a/output
I0403 19:18:13.010345  9067 net.cpp:148] Top shape: 24 832 7 7 (978432)
I0403 19:18:13.010361  9067 net.cpp:156] Memory required for data: 1309586976
I0403 19:18:13.010377  9067 layer_factory.hpp:77] Creating layer inception_5a/output_inception_5a/output_0_split
I0403 19:18:13.010395  9067 net.cpp:91] Creating Layer inception_5a/output_inception_5a/output_0_split
I0403 19:18:13.010411  9067 net.cpp:425] inception_5a/output_inception_5a/output_0_split <- inception_5a/output
I0403 19:18:13.010431  9067 net.cpp:399] inception_5a/output_inception_5a/output_0_split -> inception_5a/output_inception_5a/output_0_split_0
I0403 19:18:13.010452  9067 net.cpp:399] inception_5a/output_inception_5a/output_0_split -> inception_5a/output_inception_5a/output_0_split_1
I0403 19:18:13.010478  9067 net.cpp:399] inception_5a/output_inception_5a/output_0_split -> inception_5a/output_inception_5a/output_0_split_2
I0403 19:18:13.010499  9067 net.cpp:399] inception_5a/output_inception_5a/output_0_split -> inception_5a/output_inception_5a/output_0_split_3
I0403 19:18:13.010608  9067 net.cpp:141] Setting up inception_5a/output_inception_5a/output_0_split
I0403 19:18:13.010633  9067 net.cpp:148] Top shape: 24 832 7 7 (978432)
I0403 19:18:13.010650  9067 net.cpp:148] Top shape: 24 832 7 7 (978432)
I0403 19:18:13.010666  9067 net.cpp:148] Top shape: 24 832 7 7 (978432)
I0403 19:18:13.010681  9067 net.cpp:148] Top shape: 24 832 7 7 (978432)
I0403 19:18:13.010695  9067 net.cpp:156] Memory required for data: 1325241888
I0403 19:18:13.010710  9067 layer_factory.hpp:77] Creating layer inception_5b/1x1
I0403 19:18:13.010733  9067 net.cpp:91] Creating Layer inception_5b/1x1
I0403 19:18:13.010752  9067 net.cpp:425] inception_5b/1x1 <- inception_5a/output_inception_5a/output_0_split_0
I0403 19:18:13.010771  9067 net.cpp:399] inception_5b/1x1 -> inception_5b/1x1
I0403 19:18:13.014344  9067 net.cpp:141] Setting up inception_5b/1x1
I0403 19:18:13.014376  9067 net.cpp:148] Top shape: 24 384 7 7 (451584)
I0403 19:18:13.014394  9067 net.cpp:156] Memory required for data: 1327048224
I0403 19:18:13.014412  9067 layer_factory.hpp:77] Creating layer inception_5b/relu_1x1
I0403 19:18:13.014430  9067 net.cpp:91] Creating Layer inception_5b/relu_1x1
I0403 19:18:13.014447  9067 net.cpp:425] inception_5b/relu_1x1 <- inception_5b/1x1
I0403 19:18:13.014472  9067 net.cpp:386] inception_5b/relu_1x1 -> inception_5b/1x1 (in-place)
I0403 19:18:13.014781  9067 net.cpp:141] Setting up inception_5b/relu_1x1
I0403 19:18:13.014809  9067 net.cpp:148] Top shape: 24 384 7 7 (451584)
I0403 19:18:13.014827  9067 net.cpp:156] Memory required for data: 1328854560
I0403 19:18:13.014842  9067 layer_factory.hpp:77] Creating layer inception_5b/3x3_reduce
I0403 19:18:13.014866  9067 net.cpp:91] Creating Layer inception_5b/3x3_reduce
I0403 19:18:13.014885  9067 net.cpp:425] inception_5b/3x3_reduce <- inception_5a/output_inception_5a/output_0_split_1
I0403 19:18:13.014915  9067 net.cpp:399] inception_5b/3x3_reduce -> inception_5b/3x3_reduce
I0403 19:18:13.017462  9067 net.cpp:141] Setting up inception_5b/3x3_reduce
I0403 19:18:13.017491  9067 net.cpp:148] Top shape: 24 192 7 7 (225792)
I0403 19:18:13.017508  9067 net.cpp:156] Memory required for data: 1329757728
I0403 19:18:13.017526  9067 layer_factory.hpp:77] Creating layer inception_5b/relu_3x3_reduce
I0403 19:18:13.017544  9067 net.cpp:91] Creating Layer inception_5b/relu_3x3_reduce
I0403 19:18:13.017561  9067 net.cpp:425] inception_5b/relu_3x3_reduce <- inception_5b/3x3_reduce
I0403 19:18:13.017581  9067 net.cpp:386] inception_5b/relu_3x3_reduce -> inception_5b/3x3_reduce (in-place)
I0403 19:18:13.017765  9067 net.cpp:141] Setting up inception_5b/relu_3x3_reduce
I0403 19:18:13.017791  9067 net.cpp:148] Top shape: 24 192 7 7 (225792)
I0403 19:18:13.017805  9067 net.cpp:156] Memory required for data: 1330660896
I0403 19:18:13.017820  9067 layer_factory.hpp:77] Creating layer inception_5b/3x3
I0403 19:18:13.017841  9067 net.cpp:91] Creating Layer inception_5b/3x3
I0403 19:18:13.017859  9067 net.cpp:425] inception_5b/3x3 <- inception_5b/3x3_reduce
I0403 19:18:13.017881  9067 net.cpp:399] inception_5b/3x3 -> inception_5b/3x3
I0403 19:18:13.024286  9067 net.cpp:141] Setting up inception_5b/3x3
I0403 19:18:13.024314  9067 net.cpp:148] Top shape: 24 384 7 7 (451584)
I0403 19:18:13.024332  9067 net.cpp:156] Memory required for data: 1332467232
I0403 19:18:13.024350  9067 layer_factory.hpp:77] Creating layer inception_5b/relu_3x3
I0403 19:18:13.024369  9067 net.cpp:91] Creating Layer inception_5b/relu_3x3
I0403 19:18:13.024384  9067 net.cpp:425] inception_5b/relu_3x3 <- inception_5b/3x3
I0403 19:18:13.024405  9067 net.cpp:386] inception_5b/relu_3x3 -> inception_5b/3x3 (in-place)
I0403 19:18:13.024698  9067 net.cpp:141] Setting up inception_5b/relu_3x3
I0403 19:18:13.024724  9067 net.cpp:148] Top shape: 24 384 7 7 (451584)
I0403 19:18:13.024740  9067 net.cpp:156] Memory required for data: 1334273568
I0403 19:18:13.024755  9067 layer_factory.hpp:77] Creating layer inception_5b/5x5_reduce
I0403 19:18:13.024792  9067 net.cpp:91] Creating Layer inception_5b/5x5_reduce
I0403 19:18:13.024812  9067 net.cpp:425] inception_5b/5x5_reduce <- inception_5a/output_inception_5a/output_0_split_2
I0403 19:18:13.024835  9067 net.cpp:399] inception_5b/5x5_reduce -> inception_5b/5x5_reduce
I0403 19:18:13.026051  9067 net.cpp:141] Setting up inception_5b/5x5_reduce
I0403 19:18:13.026077  9067 net.cpp:148] Top shape: 24 48 7 7 (56448)
I0403 19:18:13.026093  9067 net.cpp:156] Memory required for data: 1334499360
I0403 19:18:13.026111  9067 layer_factory.hpp:77] Creating layer inception_5b/relu_5x5_reduce
I0403 19:18:13.026130  9067 net.cpp:91] Creating Layer inception_5b/relu_5x5_reduce
I0403 19:18:13.026149  9067 net.cpp:425] inception_5b/relu_5x5_reduce <- inception_5b/5x5_reduce
I0403 19:18:13.026167  9067 net.cpp:386] inception_5b/relu_5x5_reduce -> inception_5b/5x5_reduce (in-place)
I0403 19:18:13.026526  9067 net.cpp:141] Setting up inception_5b/relu_5x5_reduce
I0403 19:18:13.026553  9067 net.cpp:148] Top shape: 24 48 7 7 (56448)
I0403 19:18:13.026571  9067 net.cpp:156] Memory required for data: 1334725152
I0403 19:18:13.026585  9067 layer_factory.hpp:77] Creating layer inception_5b/5x5
I0403 19:18:13.026605  9067 net.cpp:91] Creating Layer inception_5b/5x5
I0403 19:18:13.026623  9067 net.cpp:425] inception_5b/5x5 <- inception_5b/5x5_reduce
I0403 19:18:13.026643  9067 net.cpp:399] inception_5b/5x5 -> inception_5b/5x5
I0403 19:18:13.028626  9067 net.cpp:141] Setting up inception_5b/5x5
I0403 19:18:13.028653  9067 net.cpp:148] Top shape: 24 128 7 7 (150528)
I0403 19:18:13.028669  9067 net.cpp:156] Memory required for data: 1335327264
I0403 19:18:13.028687  9067 layer_factory.hpp:77] Creating layer inception_5b/relu_5x5
I0403 19:18:13.028708  9067 net.cpp:91] Creating Layer inception_5b/relu_5x5
I0403 19:18:13.028728  9067 net.cpp:425] inception_5b/relu_5x5 <- inception_5b/5x5
I0403 19:18:13.028745  9067 net.cpp:386] inception_5b/relu_5x5 -> inception_5b/5x5 (in-place)
I0403 19:18:13.028933  9067 net.cpp:141] Setting up inception_5b/relu_5x5
I0403 19:18:13.028959  9067 net.cpp:148] Top shape: 24 128 7 7 (150528)
I0403 19:18:13.028975  9067 net.cpp:156] Memory required for data: 1335929376
I0403 19:18:13.028991  9067 layer_factory.hpp:77] Creating layer inception_5b/pool
I0403 19:18:13.029008  9067 net.cpp:91] Creating Layer inception_5b/pool
I0403 19:18:13.029024  9067 net.cpp:425] inception_5b/pool <- inception_5a/output_inception_5a/output_0_split_3
I0403 19:18:13.029042  9067 net.cpp:399] inception_5b/pool -> inception_5b/pool
I0403 19:18:13.029114  9067 net.cpp:141] Setting up inception_5b/pool
I0403 19:18:13.029137  9067 net.cpp:148] Top shape: 24 832 7 7 (978432)
I0403 19:18:13.029152  9067 net.cpp:156] Memory required for data: 1339843104
I0403 19:18:13.029167  9067 layer_factory.hpp:77] Creating layer inception_5b/pool_proj
I0403 19:18:13.029191  9067 net.cpp:91] Creating Layer inception_5b/pool_proj
I0403 19:18:13.029209  9067 net.cpp:425] inception_5b/pool_proj <- inception_5b/pool
I0403 19:18:13.029230  9067 net.cpp:399] inception_5b/pool_proj -> inception_5b/pool_proj
I0403 19:18:13.031440  9067 net.cpp:141] Setting up inception_5b/pool_proj
I0403 19:18:13.031473  9067 net.cpp:148] Top shape: 24 128 7 7 (150528)
I0403 19:18:13.031491  9067 net.cpp:156] Memory required for data: 1340445216
I0403 19:18:13.031512  9067 layer_factory.hpp:77] Creating layer inception_5b/relu_pool_proj
I0403 19:18:13.031535  9067 net.cpp:91] Creating Layer inception_5b/relu_pool_proj
I0403 19:18:13.031554  9067 net.cpp:425] inception_5b/relu_pool_proj <- inception_5b/pool_proj
I0403 19:18:13.031584  9067 net.cpp:386] inception_5b/relu_pool_proj -> inception_5b/pool_proj (in-place)
I0403 19:18:13.031872  9067 net.cpp:141] Setting up inception_5b/relu_pool_proj
I0403 19:18:13.031899  9067 net.cpp:148] Top shape: 24 128 7 7 (150528)
I0403 19:18:13.031915  9067 net.cpp:156] Memory required for data: 1341047328
I0403 19:18:13.031930  9067 layer_factory.hpp:77] Creating layer inception_5b/output
I0403 19:18:13.031947  9067 net.cpp:91] Creating Layer inception_5b/output
I0403 19:18:13.031977  9067 net.cpp:425] inception_5b/output <- inception_5b/1x1
I0403 19:18:13.031996  9067 net.cpp:425] inception_5b/output <- inception_5b/3x3
I0403 19:18:13.032011  9067 net.cpp:425] inception_5b/output <- inception_5b/5x5
I0403 19:18:13.032028  9067 net.cpp:425] inception_5b/output <- inception_5b/pool_proj
I0403 19:18:13.032048  9067 net.cpp:399] inception_5b/output -> inception_5b/output
I0403 19:18:13.032099  9067 net.cpp:141] Setting up inception_5b/output
I0403 19:18:13.032125  9067 net.cpp:148] Top shape: 24 1024 7 7 (1204224)
I0403 19:18:13.032142  9067 net.cpp:156] Memory required for data: 1345864224
I0403 19:18:13.032157  9067 layer_factory.hpp:77] Creating layer pool5/7x7_s1
I0403 19:18:13.032176  9067 net.cpp:91] Creating Layer pool5/7x7_s1
I0403 19:18:13.032192  9067 net.cpp:425] pool5/7x7_s1 <- inception_5b/output
I0403 19:18:13.032215  9067 net.cpp:399] pool5/7x7_s1 -> pool5/7x7_s1
I0403 19:18:13.032423  9067 net.cpp:141] Setting up pool5/7x7_s1
I0403 19:18:13.032447  9067 net.cpp:148] Top shape: 24 1024 1 1 (24576)
I0403 19:18:13.032472  9067 net.cpp:156] Memory required for data: 1345962528
I0403 19:18:13.032490  9067 layer_factory.hpp:77] Creating layer pool5/drop_7x7_s1
I0403 19:18:13.032511  9067 net.cpp:91] Creating Layer pool5/drop_7x7_s1
I0403 19:18:13.032529  9067 net.cpp:425] pool5/drop_7x7_s1 <- pool5/7x7_s1
I0403 19:18:13.032546  9067 net.cpp:386] pool5/drop_7x7_s1 -> pool5/7x7_s1 (in-place)
I0403 19:18:13.032594  9067 net.cpp:141] Setting up pool5/drop_7x7_s1
I0403 19:18:13.032619  9067 net.cpp:148] Top shape: 24 1024 1 1 (24576)
I0403 19:18:13.032635  9067 net.cpp:156] Memory required for data: 1346060832
I0403 19:18:13.032650  9067 layer_factory.hpp:77] Creating layer loss3/classifier_plantvillage
I0403 19:18:13.032670  9067 net.cpp:91] Creating Layer loss3/classifier_plantvillage
I0403 19:18:13.032686  9067 net.cpp:425] loss3/classifier_plantvillage <- pool5/7x7_s1
I0403 19:18:13.032707  9067 net.cpp:399] loss3/classifier_plantvillage -> loss3/classifier_plantvillage
I0403 19:18:13.033113  9067 net.cpp:141] Setting up loss3/classifier_plantvillage
I0403 19:18:13.033136  9067 net.cpp:148] Top shape: 24 38 (912)
I0403 19:18:13.033152  9067 net.cpp:156] Memory required for data: 1346064480
I0403 19:18:13.033170  9067 layer_factory.hpp:77] Creating layer loss3/classifier_plantvillage_loss3/classifier_plantvillage_0_split
I0403 19:18:13.033190  9067 net.cpp:91] Creating Layer loss3/classifier_plantvillage_loss3/classifier_plantvillage_0_split
I0403 19:18:13.033206  9067 net.cpp:425] loss3/classifier_plantvillage_loss3/classifier_plantvillage_0_split <- loss3/classifier_plantvillage
I0403 19:18:13.033224  9067 net.cpp:399] loss3/classifier_plantvillage_loss3/classifier_plantvillage_0_split -> loss3/classifier_plantvillage_loss3/classifier_plantvillage_0_split_0
I0403 19:18:13.033247  9067 net.cpp:399] loss3/classifier_plantvillage_loss3/classifier_plantvillage_0_split -> loss3/classifier_plantvillage_loss3/classifier_plantvillage_0_split_1
I0403 19:18:13.033269  9067 net.cpp:399] loss3/classifier_plantvillage_loss3/classifier_plantvillage_0_split -> loss3/classifier_plantvillage_loss3/classifier_plantvillage_0_split_2
I0403 19:18:13.033290  9067 net.cpp:399] loss3/classifier_plantvillage_loss3/classifier_plantvillage_0_split -> loss3/classifier_plantvillage_loss3/classifier_plantvillage_0_split_3
I0403 19:18:13.033390  9067 net.cpp:141] Setting up loss3/classifier_plantvillage_loss3/classifier_plantvillage_0_split
I0403 19:18:13.033414  9067 net.cpp:148] Top shape: 24 38 (912)
I0403 19:18:13.033430  9067 net.cpp:148] Top shape: 24 38 (912)
I0403 19:18:13.033447  9067 net.cpp:148] Top shape: 24 38 (912)
I0403 19:18:13.033466  9067 net.cpp:148] Top shape: 24 38 (912)
I0403 19:18:13.033483  9067 net.cpp:156] Memory required for data: 1346079072
I0403 19:18:13.033498  9067 layer_factory.hpp:77] Creating layer loss1/loss
I0403 19:18:13.033522  9067 net.cpp:91] Creating Layer loss1/loss
I0403 19:18:13.033542  9067 net.cpp:425] loss1/loss <- loss1/classifier_plantvillage_loss1/classifier_plantvillage_0_split_0
I0403 19:18:13.033574  9067 net.cpp:425] loss1/loss <- label_data_1_split_0
…
