…
I0403 19:33:38.773833  9384 net.cpp:313] The NetState phase (1) differed from the phase (0) specified by a rule in layer data
I0403 19:33:38.774966  9384 net.cpp:49] Initializing net from parameters: 
state {
  phase: TEST
}
layer {
  name: "data"
  type: "Data"
  top: "data"
  top: "label"
  include {
    phase: TEST
  }
  transform_param {
    mirror: false
    crop_size: 224
    mean_file: "/home/mohanty/data/final_dataset/lmdb/color-60-40/mean.binaryproto"
  }
  data_param {
    source: "/home/mohanty/data/final_dataset/lmdb/color-60-40/test_db"
    batch_size: 24
    backend: LMDB
  }
}
layer {
  name: "conv1/7x7_s2"
  type: "Convolution"
  bottom: "data"
  top: "conv1/7x7_s2"
  param {
    lr_mult: 1
    decay_mult: 1
  }
  param {
    lr_mult: 2
    decay_mult: 0
  }
  convolution_param {
    num_output: 64
    pad: 3
    kernel_size: 7
    stride: 2
    weight_filler {
      type: "xavier"
      std: 0.1
    }
    bias_filler {
      type: "constant"
      value: 0.2
    }
  }
}
layer {
  name: "conv1/relu_7x7"
  type: "ReLU"
  bottom: "conv1/7x7_s2"
  top: "conv1/7x7_s2"
}
layer {
  name: "pool1/3x3_s2"
  type: "Pooling"
  bottom: "conv1/7x7_s2"
  top: "pool1/3x3_s2"
  pooling_param {
    pool: MAX
    kernel_size: 3
    stride: 2
  }
}
layer {
  name: "pool1/norm1"
  type: "LRN"
  bottom: "pool1/3x3_s2"
  top: "pool1/norm1"
  lrn_param {
    local_size: 5
    alpha: 0.0001
    beta: 0.75
  }
}
layer {
  name: "conv2/3x3_reduce"
  type: "Convolution"
  bottom: "pool1/norm1"
  top: "conv2/3x3_reduce"
  param {
    lr_mult: 1
    decay_mult: 1
  }
  param {
    lr_mult: 2
    decay_mult: 0
  }
  convolution_param {
    num_output: 64
    kernel_size: 1
    weight_filler {
      type: "xavier"
      std: 0.1
    }
    bias_filler {
      type: "constant"
      value: 0.2
    }
  }
}
layer {
  name: "conv2/relu_3x3_reduce"
  type: "ReLU"
  bottom: "conv2/3x3_reduce"
  top: "conv2/3x3_reduce"
}
layer {
  name: "conv2/3x3"
  type: "Convolution"
  bottom: "conv2/3x3_reduce"
  top: "conv2/3x3"
  param {
    lr_mult: 1
    decay_mult: 1
  }
  param {
    lr_mult: 2
    decay_mult: 0
  }
  convolution_param {
    num_output: 192
    pad: 1
    kernel_size: 3
    weight_filler {
      type: "xavier"
      std: 0.03
    }
    bias_filler {
      type: "constant"
      value: 0.2
    }
  }
}
layer {
  name: "conv2/relu_3x3"
  type: "ReLU"
  bottom: "conv2/3x3"
  top: "conv2/3x3"
}
layer {
  name: "conv2/norm2"
  type: "LRN"
  bottom: "conv2/3x3"
  top: "conv2/norm2"
  lrn_param {
    local_size: 5
    alpha: 0.0001
    beta: 0.75
  }
}
layer {
  name: "pool2/3x3_s2"
  type: "Pooling"
  bottom: "conv2/norm2"
  top: "pool2/3x3_s2"
  pooling_param {
    pool: MAX
    kernel_size: 3
    stride: 2
  }
}
layer {
  name: "inception_3a/1x1"
  type: "Convolution"
  bottom: "pool2/3x3_s2"
  top: "inception_3a/1x1"
  param {
    lr_mult: 1
    decay_mult: 1
  }
  param {
    lr_mult: 2
    decay_mult: 0
  }
  convolution_param {
    num_output: 64
    kernel_size: 1
    weight_filler {
      type: "xavier"
      std: 0.03
    }
    bias_filler {
      type: "constant"
      value: 0.2
    }
  }
}
layer {
  name: "inception_3a/relu_1x1"
  type: "ReLU"
  bottom: "inception_3a/1x1"
  top: "inception_3a/1x1"
}
layer {
  name: "inception_3a/3x3_reduce"
  type: "Convolution"
  bottom: "pool2/3x3_s2"
  top: "inception_3a/3x3_reduce"
  param {
    lr_mult: 1
    decay_mult: 1
  }
  param {
    lr_mult: 2
    decay_mult: 0
  }
  convolution_param {
    num_output: 96
    kernel_size: 1
    weight_filler {
      type: "xavier"
      std: 0.09
    }
    bias_filler {
      type: "constant"
      value: 0.2
    }
  }
}
layer {
  name: "inception_3a/relu_3x3_reduce"
  type: "ReLU"
  bottom: "inception_3a/3x3_reduce"
  top: "inception_3a/3x3_reduce"
}
layer {
  name: "inception_3a/3x3"
  type: "Convolution"
  bottom: "inception_3a/3x3_reduce"
  top: "inception_3a/3x3"
  param {
    lr_mult: 1
    decay_mult: 1
  }
  param {
    lr_mult: 2
    decay_mult: 0
  }
  convolution_param {
    num_output: 128
    pad: 1
    kernel_size: 3
    weight_filler {
      type: "xavier"
      std: 0.03
    }
    bias_filler {
      type: "constant"
      value: 0.2
    }
  }
}
layer {
  name: "inception_3a/relu_3x3"
  type: "ReLU"
  bottom: "inception_3a/3x3"
  top: "inception_3a/3x3"
}
layer {
  name: "inception_3a/5x5_reduce"
  type: "Convolution"
  bottom: "pool2/3x3_s2"
  top: "inception_3a/5x5_reduce"
  param {
    lr_mult: 1
    decay_mult: 1
  }
  param {
    lr_mult: 2
    decay_mult: 0
  }
  convolution_param {
    num_output: 16
    kernel_size: 1
    weight_filler {
      type: "xavier"
      std: 0.2
    }
    bias_filler {
      type: "constant"
      value: 0.2
    }
  }
}
layer {
  name: "inception_3a/relu_5x5_reduce"
  type: "ReLU"
  bottom: "inception_3a/5x5_reduce"
  top: "inception_3a/5x5_reduce"
}
layer {
  name: "inception_3a/5x5"
  type: "Convolution"
  bottom: "inception_3a/5x5_reduce"
  top: "inception_3a/5x5"
  param {
    lr_mult: 1
    decay_mult: 1
  }
  param {
    lr_mult: 2
    decay_mult: 0
  }
  convolution_param {
    num_output: 32
    pad: 2
    kernel_size: 5
    weight_filler {
      type: "xavier"
      std: 0.03
    }
    bias_filler {
      type: "constant"
      value: 0.2
    }
  }
}
layer {
  name: "inception_3a/relu_5x5"
  type: "ReLU"
  bottom: "inception_3a/5x5"
  top: "inception_3a/5x5"
}
layer {
  name: "inception_3a/pool"
  type: "Pooling"
  bottom: "pool2/3x3_s2"
  top: "inception_3a/pool"
  pooling_param {
    pool: MAX
    kernel_size: 3
    stride: 1
    pad: 1
  }
}
layer {
  name: "inception_3a/pool_proj"
  type: "Convolution"
  bottom: "inception_3a/pool"
  top: "inception_3a/pool_proj"
  param {
    lr_mult: 1
    decay_mult: 1
  }
  param {
    lr_mult: 2
    decay_mult: 0
  }
  convolution_param {
    num_output: 32
    kernel_size: 1
    weight_filler {
      type: "xavier"
      std: 0.1
    }
    bias_filler {
      type: "constant"
      value: 0.2
    }
  }
}
layer {
  name: "inception_3a/relu_pool_proj"
  type: "ReLU"
  bottom: "inception_3a/pool_proj"
  top: "inception_3a/pool_proj"
}
layer {
  name: "inception_3a/output"
  type: "Concat"
  bottom: "inception_3a/1x1"
  bottom: "inception_3a/3x3"
  bottom: "inception_3a/5x5"
  bottom: "inception_3a/pool_proj"
  top: "inception_3a/output"
}
layer {
  name: "inception_3b/1x1"
  type: "Convolution"
  bottom: "inception_3a/output"
  top: "inception_3b/1x1"
  param {
    lr_mult: 1
    decay_mult: 1
  }
  param {
    lr_mult: 2
    decay_mult: 0
  }
  convolution_param {
    num_output: 128
    kernel_size: 1
    weight_filler {
      type: "xavier"
      std: 0.03
    }
    bias_filler {
      type: "constant"
      value: 0.2
    }
  }
}
layer {
  name: "inception_3b/relu_1x1"
  type: "ReLU"
  bottom: "inception_3b/1x1"
  top: "inception_3b/1x1"
}
layer {
  name: "inception_3b/3x3_reduce"
  type: "Convolution"
  bottom: "inception_3a/output"
  top: "inception_3b/3x3_reduce"
  param {
    lr_mult: 1
    decay_mult: 1
  }
  param {
    lr_mult: 2
    decay_mult: 0
  }
  convolution_param {
    num_output: 128
    kernel_size: 1
    weight_filler {
      type: "xavier"
      std: 0.09
    }
    bias_filler {
      type: "constant"
      value: 0.2
    }
  }
}
layer {
  name: "inception_3b/relu_3x3_reduce"
  type: "ReLU"
  bottom: "inception_3b/3x3_reduce"
  top: "inception_3b/3x3_reduce"
}
layer {
  name: "inception_3b/3x3"
  type: "Convolution"
  bottom: "inception_3b/3x3_reduce"
  top: "inception_3b/3x3"
  param {
    lr_mult: 1
    decay_mult: 1
  }
  param {
    lr_mult: 2
    decay_mult: 0
  }
  convolution_param {
    num_output: 192
    pad: 1
    kernel_size: 3
    weight_filler {
      type: "xavier"
      std: 0.03
    }
    bias_filler {
      type: "constant"
      value: 0.2
    }
  }
}
layer {
  name: "inception_3b/relu_3x3"
  type: "ReLU"
  bottom: "inception_3b/3x3"
  top: "inception_3b/3x3"
}
layer {
  name: "inception_3b/5x5_reduce"
  type: "Convolution"
  bottom: "inception_3a/output"
  top: "inception_3b/5x5_reduce"
  param {
    lr_mult: 1
    decay_mult: 1
  }
  param {
    lr_mult: 2
    decay_mult: 0
  }
  convolution_param {
    num_output: 32
    kernel_size: 1
    weight_filler {
      type: "xavier"
      std: 0.2
    }
    bias_filler {
      type: "constant"
      value: 0.2
    }
  }
}
layer {
  name: "inception_3b/relu_5x5_reduce"
  type: "ReLU"
  bottom: "inception_3b/5x5_reduce"
  top: "inception_3b/5x5_reduce"
}
layer {
  name: "inception_3b/5x5"
  type: "Convolution"
  bottom: "inception_3b/5x5_reduce"
  top: "inception_3b/5x5"
  param {
    lr_mult: 1
    decay_mult: 1
  }
  param {
    lr_mult: 2
    decay_mult: 0
  }
  convolution_param {
    num_output: 96
    pad: 2
    kernel_size: 5
    weight_filler {
      type: "xavier"
      std: 0.03
    }
    bias_filler {
      type: "constant"
      value: 0.2
    }
  }
}
layer {
  name: "inception_3b/relu_5x5"
  type: "ReLU"
  bottom: "inception_3b/5x5"
  top: "inception_3b/5x5"
}
layer {
  name: "inception_3b/pool"
  type: "Pooling"
  bottom: "inception_3a/output"
  top: "inception_3b/pool"
  pooling_param {
    pool: MAX
    kernel_size: 3
    stride: 1
    pad: 1
  }
}
layer {
  name: "inception_3b/pool_proj"
  type: "Convolution"
  bottom: "inception_3b/pool"
  top: "inception_3b/pool_proj"
  param {
    lr_mult: 1
    decay_mult: 1
  }
  param {
    lr_mult: 2
    decay_mult: 0
  }
  convolution_param {
    num_output: 64
    kernel_size: 1
    weight_filler {
      type: "xavier"
      std: 0.1
    }
    bias_filler {
      type: "constant"
      value: 0.2
    }
  }
}
layer {
  name: "inception_3b/relu_pool_proj"
  type: "ReLU"
  bottom: "inception_3b/pool_proj"
  top: "inception_3b/pool_proj"
}
layer {
  name: "inception_3b/output"
  type: "Concat"
  bottom: "inception_3b/1x1"
  bottom: "inception_3b/3x3"
  bottom: "inception_3b/5x5"
  bottom: "inception_3b/pool_proj"
  top: "inception_3b/output"
}
layer {
  name: "pool3/3x3_s2"
  type: "Pooling"
  bottom: "inception_3b/output"
  top: "pool3/3x3_s2"
  pooling_param {
    pool: MAX
    kernel_size: 3
    stride: 2
  }
}
layer {
  name: "inception_4a/1x1"
  type: "Convolution"
  bottom: "pool3/3x3_s2"
  top: "inception_4a/1x1"
  param {
    lr_mult: 1
    decay_mult: 1
  }
  param {
    lr_mult: 2
    decay_mult: 0
  }
  convolution_param {
    num_output: 192
    kernel_size: 1
    weight_filler {
      type: "xavier"
      std: 0.03
    }
    bias_filler {
      type: "constant"
      value: 0.2
    }
  }
}
layer {
  name: "inception_4a/relu_1x1"
  type: "ReLU"
  bottom: "inception_4a/1x1"
  top: "inception_4a/1x1"
}
layer {
  name: "inception_4a/3x3_reduce"
  type: "Convolution"
  bottom: "pool3/3x3_s2"
  top: "inception_4a/3x3_reduce"
  param {
    lr_mult: 1
    decay_mult: 1
  }
  param {
    lr_mult: 2
    decay_mult: 0
  }
  convolution_param {
    num_output: 96
    kernel_size: 1
    weight_filler {
      type: "xavier"
      std: 0.09
    }
    bias_filler {
      type: "constant"
      value: 0.2
    }
  }
}
layer {
  name: "inception_4a/relu_3x3_reduce"
  type: "ReLU"
  bottom: "inception_4a/3x3_reduce"
  top: "inception_4a/3x3_reduce"
}
layer {
  name: "inception_4a/3x3"
  type: "Convolution"
  bottom: "inception_4a/3x3_reduce"
  top: "inception_4a/3x3"
  param {
    lr_mult: 1
    decay_mult: 1
  }
  param {
    lr_mult: 2
    decay_mult: 0
  }
  convolution_param {
    num_output: 208
    pad: 1
    kernel_size: 3
    weight_filler {
      type: "xavier"
      std: 0.03
    }
    bias_filler {
      type: "constant"
      value: 0.2
    }
  }
}
layer {
  name: "inception_4a/relu_3x3"
  type: "ReLU"
  bottom: "inception_4a/3x3"
  top: "inception_4a/3x3"
}
layer {
  name: "inception_4a/5x5_reduce"
  type: "Convolution"
  bottom: "pool3/3x3_s2"
  top: "inception_4a/5x5_reduce"
  param {
    lr_mult: 1
    decay_mult: 1
  }
  param {
    lr_mult: 2
    decay_mult: 0
  }
  convolution_param {
    num_output: 16
    kernel_size: 1
    weight_filler {
      type: "xavier"
      std: 0.2
    }
    bias_filler {
      type: "constant"
      value: 0.2
    }
  }
}
layer {
  name: "inception_4a/relu_5x5_reduce"
  type: "ReLU"
  bottom: "inception_4a/5x5_reduce"
  top: "inception_4a/5x5_reduce"
}
layer {
  name: "inception_4a/5x5"
  type: "Convolution"
  bottom: "inception_4a/5x5_reduce"
  top: "inception_4a/5x5"
  param {
    lr_mult: 1
    decay_mult: 1
  }
  param {
    lr_mult: 2
    decay_mult: 0
  }
  convolution_param {
    num_output: 48
    pad: 2
    kernel_size: 5
    weight_filler {
      type: "xavier"
      std: 0.03
    }
    bias_filler {
      type: "constant"
      value: 0.2
    }
  }
}
layer {
  name: "inception_4a/relu_5x5"
  type: "ReLU"
  bottom: "inception_4a/5x5"
  top: "inception_4a/5x5"
}
layer {
  name: "inception_4a/pool"
  type: "Pooling"
  bottom: "pool3/3x3_s2"
  top: "inception_4a/pool"
  pooling_param {
    pool: MAX
    kernel_size: 3
    stride: 1
    pad: 1
  }
}
layer {
  name: "inception_4a/pool_proj"
  type: "Convolution"
  bottom: "inception_4a/pool"
  top: "inception_4a/pool_proj"
  param {
    lr_mult: 1
    decay_mult: 1
  }
  param {
    lr_mult: 2
    decay_mult: 0
  }
  convolution_param {
    num_output: 64
    kernel_size: 1
    weight_filler {
      type: "xavier"
      std: 0.1
    }
    bias_filler {
      type: "constant"
      value: 0.2
    }
  }
}
layer {
  name: "inception_4a/relu_pool_proj"
  type: "ReLU"
  bottom: "inception_4a/pool_proj"
  top: "inception_4a/pool_proj"
}
layer {
  name: "inception_4a/output"
  type: "Concat"
  bottom: "inception_4a/1x1"
  bottom: "inception_4a/3x3"
  bottom: "inception_4a/5x5"
  bottom: "inception_4a/pool_proj"
  top: "inception_4a/output"
}
layer {
  name: "loss1/ave_pool"
  type: "Pooling"
  bottom: "inception_4a/output"
  top: "loss1/ave_pool"
  pooling_param {
    pool: AVE
    kernel_size: 5
    stride: 3
  }
}
layer {
  name: "loss1/conv"
  type: "Convolution"
  bottom: "loss1/ave_pool"
  top: "loss1/conv"
  param {
    lr_mult: 1
    decay_mult: 1
  }
  param {
    lr_mult: 2
    decay_mult: 0
  }
  convolution_param {
    num_output: 128
    kernel_size: 1
    weight_filler {
      type: "xavier"
      std: 0.08
    }
    bias_filler {
      type: "constant"
      value: 0.2
    }
  }
}
layer {
  name: "loss1/relu_conv"
  type: "ReLU"
  bottom: "loss1/conv"
  top: "loss1/conv"
}
layer {
  name: "loss1/fc"
  type: "InnerProduct"
  bottom: "loss1/conv"
  top: "loss1/fc"
  param {
    lr_mult: 1
    decay_mult: 1
  }
  param {
    lr_mult: 2
    decay_mult: 0
  }
  inner_product_param {
    num_output: 1024
    weight_filler {
      type: "xavier"
      std: 0.02
    }
    bias_filler {
      type: "constant"
      value: 0.2
    }
  }
}
layer {
  name: "loss1/relu_fc"
  type: "ReLU"
  bottom: "loss1/fc"
  top: "loss1/fc"
}
layer {
  name: "loss1/drop_fc"
  type: "Dropout"
  bottom: "loss1/fc"
  top: "loss1/fc"
  dropout_param {
    dropout_ratio: 0.7
  }
}
layer {
  name: "loss1/classifier_plantvillage"
  type: "InnerProduct"
  bottom: "loss1/fc"
  top: "loss1/classifier_plantvillage"
  param {
    lr_mult: 1
    decay_mult: 1
  }
  param {
    lr_mult: 2
    decay_mult: 0
  }
  inner_product_param {
    num_output: 38
    weight_filler {
      type: "xavier"
      std: 0.0009765625
    }
    bias_filler {
      type: "constant"
      value: 0
    }
  }
}
layer {
  name: "inception_4b/1x1"
  type: "Convolution"
  bottom: "inception_4a/output"
  top: "inception_4b/1x1"
  param {
    lr_mult: 1
    decay_mult: 1
  }
  param {
    lr_mult: 2
    decay_mult: 0
  }
  convolution_param {
    num_output: 160
    kernel_size: 1
    weight_filler {
      type: "xavier"
      std: 0.03
    }
    bias_filler {
      type: "constant"
      value: 0.2
    }
  }
}
layer {
  name: "inception_4b/relu_1x1"
  type: "ReLU"
  bottom: "inception_4b/1x1"
  top: "inception_4b/1x1"
}
layer {
  name: "inception_4b/3x3_reduce"
  type: "Convolution"
  bottom: "inception_4a/output"
  top: "inception_4b/3x3_reduce"
  param {
    lr_mult: 1
    decay_mult: 1
  }
  param {
    lr_mult: 2
    decay_mult: 0
  }
  convolution_param {
    num_output: 112
    kernel_size: 1
    weight_filler {
      type: "xavier"
      std: 0.09
    }
    bias_filler {
      type: "constant"
      value: 0.2
    }
  }
}
layer {
  name: "inception_4b/relu_3x3_reduce"
  type: "ReLU"
  bottom: "inception_4b/3x3_reduce"
  top: "inception_4b/3x3_reduce"
}
layer {
  name: "inception_4b/3x3"
  type: "Convolution"
  bottom: "inception_4b/3x3_reduce"
  top: "inception_4b/3x3"
  param {
    lr_mult: 1
    decay_mult: 1
  }
  param {
    lr_mult: 2
    decay_mult: 0
  }
  convolution_param {
    num_output: 224
    pad: 1
    kernel_size: 3
    weight_filler {
      type: "xavier"
      std: 0.03
    }
    bias_filler {
      type: "constant"
      value: 0.2
    }
  }
}
layer {
  name: "inception_4b/relu_3x3"
  type: "ReLU"
  bottom: "inception_4b/3x3"
  top: "inception_4b/3x3"
}
layer {
  name: "inception_4b/5x5_reduce"
  type: "Convolution"
  bottom: "inception_4a/output"
  top: "inception_4b/5x5_reduce"
  param {
    lr_mult: 1
    decay_mult: 1
  }
  param {
    lr_mult: 2
    decay_mult: 0
  }
  convolution_param {
    num_output: 24
    kernel_size: 1
    weight_filler {
      type: "xavier"
      std: 0.2
    }
    bias_filler {
      type: "constant"
      value: 0.2
    }
  }
}
layer {
  name: "inception_4b/relu_5x5_reduce"
  type: "ReLU"
  bottom: "inception_4b/5x5_reduce"
  top: "inception_4b/5x5_reduce"
}
layer {
  name: "inception_4b/5x5"
  type: "Convolution"
  bottom: "inception_4b/5x5_reduce"
  top: "inception_4b/5x5"
  param {
    lr_mult: 1
    decay_mult: 1
  }
  param {
    lr_mult: 2
    decay_mult: 0
  }
  convolution_param {
    num_output: 64
    pad: 2
    kernel_size: 5
    weight_filler {
      type: "xavier"
      std: 0.03
    }
    bias_filler {
      type: "constant"
      value: 0.2
    }
  }
}
layer {
  name: "inception_4b/relu_5x5"
  type: "ReLU"
  bottom: "inception_4b/5x5"
  top: "inception_4b/5x5"
}
layer {
  name: "inception_4b/pool"
  type: "Pooling"
  bottom: "inception_4a/output"
  top: "inception_4b/pool"
  pooling_param {
    pool: MAX
    kernel_size: 3
    stride: 1
    pad: 1
  }
}
layer {
  name: "inception_4b/pool_proj"
  type: "Convolution"
  bottom: "inception_4b/pool"
  top: "inception_4b/pool_proj"
  param {
    lr_mult: 1
    decay_mult: 1
  }
  param {
    lr_mult: 2
    decay_mult: 0
  }
  convolution_param {
    num_output: 64
    kernel_size: 1
    weight_filler {
      type: "xavier"
      std: 0.1
    }
    bias_filler {
      type: "constant"
      value: 0.2
    }
  }
}
layer {
  name: "inception_4b/relu_pool_proj"
  type: "ReLU"
  bottom: "inception_4b/pool_proj"
  top: "inception_4b/pool_proj"
}
layer {
  name: "inception_4b/output"
  type: "Concat"
  bottom: "inception_4b/1x1"
  bottom: "inception_4b/3x3"
  bottom: "inception_4b/5x5"
  bottom: "inception_4b/pool_proj"
  top: "inception_4b/output"
}
layer {
  name: "inception_4c/1x1"
  type: "Convolution"
  bottom: "inception_4b/output"
  top: "inception_4c/1x1"
  param {
    lr_mult: 1
    decay_mult: 1
  }
  param {
    lr_mult: 2
    decay_mult: 0
  }
  convolution_param {
    num_output: 128
    kernel_size: 1
    weight_filler {
      type: "xavier"
      std: 0.03
    }
    bias_filler {
      type: "constant"
      value: 0.2
    }
  }
}
layer {
  name: "inception_4c/relu_1x1"
  type: "ReLU"
  bottom: "inception_4c/1x1"
  top: "inception_4c/1x1"
}
layer {
  name: "inception_4c/3x3_reduce"
  type: "Convolution"
  bottom: "inception_4b/output"
  top: "inception_4c/3x3_reduce"
  param {
    lr_mult: 1
    decay_mult: 1
  }
  param {
    lr_mult: 2
    decay_mult: 0
  }
  convolution_param {
    num_output: 128
    kernel_size: 1
    weight_filler {
      type: "xavier"
      std: 0.09
    }
    bias_filler {
      type: "constant"
      value: 0.2
    }
  }
}
layer {
  name: "inception_4c/relu_3x3_reduce"
  type: "ReLU"
  bottom: "inception_4c/3x3_reduce"
  top: "inception_4c/3x3_reduce"
}
layer {
  name: "inception_4c/3x3"
  type: "Convolution"
  bottom: "inception_4c/3x3_reduce"
  top: "inception_4c/3x3"
  param {
    lr_mult: 1
    decay_mult: 1
  }
  param {
    lr_mult: 2
    decay_mult: 0
  }
  convolution_param {
    num_output: 256
    pad: 1
    kernel_size: 3
    weight_filler {
      type: "xavier"
      std: 0.03
    }
    bias_filler {
      type: "constant"
      value: 0.2
    }
  }
}
layer {
  name: "inception_4c/relu_3x3"
  type: "ReLU"
  bottom: "inception_4c/3x3"
  top: "inception_4c/3x3"
}
layer {
  name: "inception_4c/5x5_reduce"
  type: "Convolution"
  bottom: "inception_4b/output"
  top: "inception_4c/5x5_reduce"
  param {
    lr_mult: 1
    decay_mult: 1
  }
  param {
    lr_mult: 2
    decay_mult: 0
  }
  convolution_param {
    num_output: 24
    kernel_size: 1
    weight_filler {
      type: "xavier"
      std: 0.2
    }
    bias_filler {
      type: "constant"
      value: 0.2
    }
  }
}
layer {
  name: "inception_4c/relu_5x5_reduce"
  type: "ReLU"
  bottom: "inception_4c/5x5_reduce"
  top: "inception_4c/5x5_reduce"
}
layer {
  name: "inception_4c/5x5"
  type: "Convolution"
  bottom: "inception_4c/5x5_reduce"
  top: "inception_4c/5x5"
  param {
    lr_mult: 1
    decay_mult: 1
  }
  param {
    lr_mult: 2
    decay_mult: 0
  }
  convolution_param {
    num_output: 64
    pad: 2
    kernel_size: 5
    weight_filler {
      type: "xavier"
      std: 0.03
    }
    bias_filler {
      type: "constant"
      value: 0.2
    }
  }
}
layer {
  name: "inception_4c/relu_5x5"
  type: "ReLU"
  bottom: "inception_4c/5x5"
  top: "inception_4c/5x5"
}
layer {
  name: "inception_4c/pool"
  type: "Pooling"
  bottom: "inception_4b/output"
  top: "inception_4c/pool"
  pooling_param {
    pool: MAX
    kernel_size: 3
    stride: 1
    pad: 1
  }
}
layer {
  name: "inception_4c/pool_proj"
  type: "Convolution"
  bottom: "inception_4c/pool"
  top: "inception_4c/pool_proj"
  param {
    lr_mult: 1
    decay_mult: 1
  }
  param {
    lr_mult: 2
    decay_mult: 0
  }
  convolution_param {
    num_output: 64
    kernel_size: 1
    weight_filler {
      type: "xavier"
      std: 0.1
    }
    bias_filler {
      type: "constant"
      value: 0.2
    }
  }
}
layer {
  name: "inception_4c/relu_pool_proj"
  type: "ReLU"
  bottom: "inception_4c/pool_proj"
  top: "inception_4c/pool_proj"
}
layer {
  name: "inception_4c/output"
  type: "Concat"
  bottom: "inception_4c/1x1"
  bottom: "inception_4c/3x3"
  bottom: "inception_4c/5x5"
  bottom: "inception_4c/pool_proj"
  top: "inception_4c/output"
}
layer {
  name: "inception_4d/1x1"
  type: "Convolution"
  bottom: "inception_4c/output"
  top: "inception_4d/1x1"
  param {
    lr_mult: 1
    decay_mult: 1
  }
  param {
    lr_mult: 2
    decay_mult: 0
  }
  convolution_param {
    num_output: 112
    kernel_size: 1
    weight_filler {
      type: "xavier"
      std: 0.03
    }
    bias_filler {
      type: "constant"
      value: 0.2
    }
  }
}
layer {
  name: "inception_4d/relu_1x1"
  type: "ReLU"
  bottom: "inception_4d/1x1"
  top: "inception_4d/1x1"
}
layer {
  name: "inception_4d/3x3_reduce"
  type: "Convolution"
  bottom: "inception_4c/output"
  top: "inception_4d/3x3_reduce"
  param {
    lr_mult: 1
    decay_mult: 1
  }
  param {
    lr_mult: 2
    decay_mult: 0
  }
  convolution_param {
    num_output: 144
    kernel_size: 1
    weight_filler {
      type: "xavier"
      std: 0.09
    }
    bias_filler {
      type: "constant"
      value: 0.2
    }
  }
}
layer {
  name: "inception_4d/relu_3x3_reduce"
  type: "ReLU"
  bottom: "inception_4d/3x3_reduce"
  top: "inception_4d/3x3_reduce"
}
layer {
  name: "inception_4d/3x3"
  type: "Convolution"
  bottom: "inception_4d/3x3_reduce"
  top: "inception_4d/3x3"
  param {
    lr_mult: 1
    decay_mult: 1
  }
  param {
    lr_mult: 2
    decay_mult: 0
  }
  convolution_param {
    num_output: 288
    pad: 1
    kernel_size: 3
    weight_filler {
      type: "xavier"
      std: 0.03
    }
    bias_filler {
      type: "constant"
      value: 0.2
    }
  }
}
layer {
  name: "inception_4d/relu_3x3"
  type: "ReLU"
  bottom: "inception_4d/3x3"
  top: "inception_4d/3x3"
}
layer {
  name: "inception_4d/5x5_reduce"
  type: "Convolution"
  bottom: "inception_4c/output"
  top: "inception_4d/5x5_reduce"
  param {
    lr_mult: 1
    decay_mult: 1
  }
  param {
    lr_mult: 2
    decay_mult: 0
  }
  convolution_param {
    num_output: 32
    kernel_size: 1
    weight_filler {
      type: "xavier"
      std: 0.2
    }
    bias_filler {
      type: "constant"
      value: 0.2
    }
  }
}
layer {
  name: "inception_4d/relu_5x5_reduce"
  type: "ReLU"
  bottom: "inception_4d/5x5_reduce"
  top: "inception_4d/5x5_reduce"
}
layer {
  name: "inception_4d/5x5"
  type: "Convolution"
  bottom: "inception_4d/5x5_reduce"
  top: "inception_4d/5x5"
  param {
    lr_mult: 1
    decay_mult: 1
  }
  param {
    lr_mult: 2
    decay_mult: 0
  }
  convolution_param {
    num_output: 64
    pad: 2
    kernel_size: 5
    weight_filler {
      type: "xavier"
      std: 0.03
    }
    bias_filler {
      type: "constant"
      value: 0.2
    }
  }
}
layer {
  name: "inception_4d/relu_5x5"
  type: "ReLU"
  bottom: "inception_4d/5x5"
  top: "inception_4d/5x5"
}
layer {
  name: "inception_4d/pool"
  type: "Pooling"
  bottom: "inception_4c/output"
  top: "inception_4d/pool"
  pooling_param {
    pool: MAX
    kernel_size: 3
    stride: 1
    pad: 1
  }
}
layer {
  name: "inception_4d/pool_proj"
  type: "Convolution"
  bottom: "inception_4d/pool"
  top: "inception_4d/pool_proj"
  param {
    lr_mult: 1
    decay_mult: 1
  }
  param {
    lr_mult: 2
    decay_mult: 0
  }
  convolution_param {
    num_output: 64
    kernel_size: 1
    weight_filler {
      type: "xavier"
      std: 0.1
    }
    bias_filler {
      type: "constant"
      value: 0.2
    }
  }
}
layer {
  name: "inception_4d/relu_pool_proj"
  type: "ReLU"
  bottom: "inception_4d/pool_proj"
  top: "inception_4d/pool_proj"
}
layer {
  name: "inception_4d/output"
  type: "Concat"
  bottom: "inception_4d/1x1"
  bottom: "inception_4d/3x3"
  bottom: "inception_4d/5x5"
  bottom: "inception_4d/pool_proj"
  top: "inception_4d/output"
}
layer {
  name: "loss2/ave_pool"
  type: "Pooling"
  bottom: "inception_4d/output"
  top: "loss2/ave_pool"
  pooling_param {
    pool: AVE
    kernel_size: 5
    stride: 3
  }
}
layer {
  name: "loss2/conv"
  type: "Convolution"
  bottom: "loss2/ave_pool"
  top: "loss2/conv"
  param {
    lr_mult: 1
    decay_mult: 1
  }
  param {
    lr_mult: 2
    decay_mult: 0
  }
  convolution_param {
    num_output: 128
    kernel_size: 1
    weight_filler {
      type: "xavier"
      std: 0.08
    }
    bias_filler {
      type: "constant"
      value: 0.2
    }
  }
}
layer {
  name: "loss2/relu_conv"
  type: "ReLU"
  bottom: "loss2/conv"
  top: "loss2/conv"
}
layer {
  name: "loss2/fc"
  type: "InnerProduct"
  bottom: "loss2/conv"
  top: "loss2/fc"
  param {
    lr_mult: 1
    decay_mult: 1
  }
  param {
    lr_mult: 2
    decay_mult: 0
  }
  inner_product_param {
    num_output: 1024
    weight_filler {
      type: "xavier"
      std: 0.02
    }
    bias_filler {
      type: "constant"
      value: 0.2
    }
  }
}
layer {
  name: "loss2/relu_fc"
  type: "ReLU"
  bottom: "loss2/fc"
  top: "loss2/fc"
}
layer {
  name: "loss2/drop_fc"
  type: "Dropout"
  bottom: "loss2/fc"
  top: "loss2/fc"
  dropout_param {
    dropout_ratio: 0.7
  }
}
layer {
  name: "loss2/classifier_plantvillage"
  type: "InnerProduct"
  bottom: "loss2/fc"
  top: "loss2/classifier_plantvillage"
  param {
    lr_mult: 1
    decay_mult: 1
  }
  param {
    lr_mult: 2
    decay_mult: 0
  }
  inner_product_param {
    num_output: 38
    weight_filler {
      type: "xavier"
      std: 0.0009765625
    }
    bias_filler {
      type: "constant"
      value: 0
    }
  }
}
layer {
  name: "inception_4e/1x1"
  type: "Convolution"
  bottom: "inception_4d/output"
  top: "inception_4e/1x1"
  param {
    lr_mult: 1
    decay_mult: 1
  }
  param {
    lr_mult: 2
    decay_mult: 0
  }
  convolution_param {
    num_output: 256
    kernel_size: 1
    weight_filler {
      type: "xavier"
      std: 0.03
    }
    bias_filler {
      type: "constant"
      value: 0.2
    }
  }
}
layer {
  name: "inception_4e/relu_1x1"
  type: "ReLU"
  bottom: "inception_4e/1x1"
  top: "inception_4e/1x1"
}
layer {
  name: "inception_4e/3x3_reduce"
  type: "Convolution"
  bottom: "inception_4d/output"
  top: "inception_4e/3x3_reduce"
  param {
    lr_mult: 1
    decay_mult: 1
  }
  param {
    lr_mult: 2
    decay_mult: 0
  }
  convolution_param {
    num_output: 160
    kernel_size: 1
    weight_filler {
      type: "xavier"
      std: 0.09
    }
    bias_filler {
      type: "constant"
      value: 0.2
    }
  }
}
layer {
  name: "inception_4e/relu_3x3_reduce"
  type: "ReLU"
  bottom: "inception_4e/3x3_reduce"
  top: "inception_4e/3x3_reduce"
}
layer {
  name: "inception_4e/3x3"
  type: "Convolution"
  bottom: "inception_4e/3x3_reduce"
  top: "inception_4e/3x3"
  param {
    lr_mult: 1
    decay_mult: 1
  }
  param {
    lr_mult: 2
    decay_mult: 0
  }
  convolution_param {
    num_output: 320
    pad: 1
    kernel_size: 3
    weight_filler {
      type: "xavier"
      std: 0.03
    }
    bias_filler {
      type: "constant"
      value: 0.2
    }
  }
}
layer {
  name: "inception_4e/relu_3x3"
  type: "ReLU"
  bottom: "inception_4e/3x3"
  top: "inception_4e/3x3"
}
layer {
  name: "inception_4e/5x5_reduce"
  type: "Convolution"
  bottom: "inception_4d/output"
  top: "inception_4e/5x5_reduce"
  param {
    lr_mult: 1
    decay_mult: 1
  }
  param {
    lr_mult: 2
    decay_mult: 0
  }
  convolution_param {
    num_output: 32
    kernel_size: 1
    weight_filler {
      type: "xavier"
      std: 0.2
    }
    bias_filler {
      type: "constant"
      value: 0.2
    }
  }
}
layer {
  name: "inception_4e/relu_5x5_reduce"
  type: "ReLU"
  bottom: "inception_4e/5x5_reduce"
  top: "inception_4e/5x5_reduce"
}
layer {
  name: "inception_4e/5x5"
  type: "Convolution"
  bottom: "inception_4e/5x5_reduce"
  top: "inception_4e/5x5"
  p
I0403 19:33:38.776724  9384 layer_factory.hpp:77] Creating layer data
I0403 19:33:38.777318  9384 net.cpp:91] Creating Layer data
I0403 19:33:38.777353  9384 net.cpp:399] data -> data
I0403 19:33:38.777412  9384 net.cpp:399] data -> label
I0403 19:33:38.777451  9384 data_transformer.cpp:25] Loading mean file from: /home/mohanty/data/final_dataset/lmdb/color-60-40/mean.binaryproto
I0403 19:33:38.778658  9386 db_lmdb.cpp:38] Opened lmdb /home/mohanty/data/final_dataset/lmdb/color-60-40/test_db
I0403 19:33:38.790515  9384 data_layer.cpp:41] output data size: 24,3,224,224
I0403 19:33:38.816596  9384 net.cpp:141] Setting up data
I0403 19:33:38.816673  9384 net.cpp:148] Top shape: 24 3 224 224 (3612672)
I0403 19:33:38.816694  9384 net.cpp:148] Top shape: 24 (24)
I0403 19:33:38.816710  9384 net.cpp:156] Memory required for data: 14450784
I0403 19:33:38.816740  9384 layer_factory.hpp:77] Creating layer label_data_1_split
I0403 19:33:38.816769  9384 net.cpp:91] Creating Layer label_data_1_split
I0403 19:33:38.816787  9384 net.cpp:425] label_data_1_split <- label
I0403 19:33:38.816823  9384 net.cpp:399] label_data_1_split -> label_data_1_split_0
I0403 19:33:38.816854  9384 net.cpp:399] label_data_1_split -> label_data_1_split_1
I0403 19:33:38.816875  9384 net.cpp:399] label_data_1_split -> label_data_1_split_2
I0403 19:33:38.816896  9384 net.cpp:399] label_data_1_split -> label_data_1_split_3
I0403 19:33:38.816915  9384 net.cpp:399] label_data_1_split -> label_data_1_split_4
I0403 19:33:38.816936  9384 net.cpp:399] label_data_1_split -> label_data_1_split_5
I0403 19:33:38.816956  9384 net.cpp:399] label_data_1_split -> label_data_1_split_6
I0403 19:33:38.816977  9384 net.cpp:399] label_data_1_split -> label_data_1_split_7
I0403 19:33:38.816997  9384 net.cpp:399] label_data_1_split -> label_data_1_split_8
I0403 19:33:38.817018  9384 net.cpp:399] label_data_1_split -> label_data_1_split_9
I0403 19:33:38.817128  9384 net.cpp:141] Setting up label_data_1_split
I0403 19:33:38.817152  9384 net.cpp:148] Top shape: 24 (24)
I0403 19:33:38.817178  9384 net.cpp:148] Top shape: 24 (24)
I0403 19:33:38.817196  9384 net.cpp:148] Top shape: 24 (24)
I0403 19:33:38.817212  9384 net.cpp:148] Top shape: 24 (24)
I0403 19:33:38.817229  9384 net.cpp:148] Top shape: 24 (24)
I0403 19:33:38.817245  9384 net.cpp:148] Top shape: 24 (24)
I0403 19:33:38.817261  9384 net.cpp:148] Top shape: 24 (24)
I0403 19:33:38.817276  9384 net.cpp:148] Top shape: 24 (24)
I0403 19:33:38.817292  9384 net.cpp:148] Top shape: 24 (24)
I0403 19:33:38.817308  9384 net.cpp:148] Top shape: 24 (24)
I0403 19:33:38.817355  9384 net.cpp:156] Memory required for data: 14451744
I0403 19:33:38.817370  9384 layer_factory.hpp:77] Creating layer conv1/7x7_s2
I0403 19:33:38.817404  9384 net.cpp:91] Creating Layer conv1/7x7_s2
I0403 19:33:38.817422  9384 net.cpp:425] conv1/7x7_s2 <- data
I0403 19:33:38.817442  9384 net.cpp:399] conv1/7x7_s2 -> conv1/7x7_s2
I0403 19:33:38.951933  9384 net.cpp:141] Setting up conv1/7x7_s2
I0403 19:33:38.952000  9384 net.cpp:148] Top shape: 24 64 112 112 (19267584)
I0403 19:33:38.952019  9384 net.cpp:156] Memory required for data: 91522080
I0403 19:33:38.952054  9384 layer_factory.hpp:77] Creating layer conv1/relu_7x7
I0403 19:33:38.952083  9384 net.cpp:91] Creating Layer conv1/relu_7x7
I0403 19:33:38.952102  9384 net.cpp:425] conv1/relu_7x7 <- conv1/7x7_s2
I0403 19:33:38.952122  9384 net.cpp:386] conv1/relu_7x7 -> conv1/7x7_s2 (in-place)
I0403 19:33:38.952374  9384 net.cpp:141] Setting up conv1/relu_7x7
I0403 19:33:38.952402  9384 net.cpp:148] Top shape: 24 64 112 112 (19267584)
I0403 19:33:38.952419  9384 net.cpp:156] Memory required for data: 168592416
I0403 19:33:38.952433  9384 layer_factory.hpp:77] Creating layer pool1/3x3_s2
I0403 19:33:38.952471  9384 net.cpp:91] Creating Layer pool1/3x3_s2
I0403 19:33:38.952491  9384 net.cpp:425] pool1/3x3_s2 <- conv1/7x7_s2
I0403 19:33:38.952510  9384 net.cpp:399] pool1/3x3_s2 -> pool1/3x3_s2
I0403 19:33:38.952595  9384 net.cpp:141] Setting up pool1/3x3_s2
I0403 19:33:38.952620  9384 net.cpp:148] Top shape: 24 64 56 56 (4816896)
I0403 19:33:38.952636  9384 net.cpp:156] Memory required for data: 187860000
I0403 19:33:38.952651  9384 layer_factory.hpp:77] Creating layer pool1/norm1
I0403 19:33:38.952677  9384 net.cpp:91] Creating Layer pool1/norm1
I0403 19:33:38.952695  9384 net.cpp:425] pool1/norm1 <- pool1/3x3_s2
I0403 19:33:38.952714  9384 net.cpp:399] pool1/norm1 -> pool1/norm1
I0403 19:33:38.952996  9384 net.cpp:141] Setting up pool1/norm1
I0403 19:33:38.953024  9384 net.cpp:148] Top shape: 24 64 56 56 (4816896)
I0403 19:33:38.953040  9384 net.cpp:156] Memory required for data: 207127584
I0403 19:33:38.953055  9384 layer_factory.hpp:77] Creating layer conv2/3x3_reduce
I0403 19:33:38.953084  9384 net.cpp:91] Creating Layer conv2/3x3_reduce
I0403 19:33:38.953104  9384 net.cpp:425] conv2/3x3_reduce <- pool1/norm1
I0403 19:33:38.953125  9384 net.cpp:399] conv2/3x3_reduce -> conv2/3x3_reduce
I0403 19:33:38.954535  9384 net.cpp:141] Setting up conv2/3x3_reduce
I0403 19:33:38.954566  9384 net.cpp:148] Top shape: 24 64 56 56 (4816896)
I0403 19:33:38.954584  9384 net.cpp:156] Memory required for data: 226395168
I0403 19:33:38.954607  9384 layer_factory.hpp:77] Creating layer conv2/relu_3x3_reduce
I0403 19:33:38.954625  9384 net.cpp:91] Creating Layer conv2/relu_3x3_reduce
I0403 19:33:38.954641  9384 net.cpp:425] conv2/relu_3x3_reduce <- conv2/3x3_reduce
I0403 19:33:38.954661  9384 net.cpp:386] conv2/relu_3x3_reduce -> conv2/3x3_reduce (in-place)
I0403 19:33:38.954926  9384 net.cpp:141] Setting up conv2/relu_3x3_reduce
I0403 19:33:38.954954  9384 net.cpp:148] Top shape: 24 64 56 56 (4816896)
I0403 19:33:38.954972  9384 net.cpp:156] Memory required for data: 245662752
I0403 19:33:38.954987  9384 layer_factory.hpp:77] Creating layer conv2/3x3
I0403 19:33:38.955065  9384 net.cpp:91] Creating Layer conv2/3x3
I0403 19:33:38.955083  9384 net.cpp:425] conv2/3x3 <- conv2/3x3_reduce
I0403 19:33:38.955106  9384 net.cpp:399] conv2/3x3 -> conv2/3x3
I0403 19:33:38.957355  9384 net.cpp:141] Setting up conv2/3x3
I0403 19:33:38.957389  9384 net.cpp:148] Top shape: 24 192 56 56 (14450688)
I0403 19:33:38.957406  9384 net.cpp:156] Memory required for data: 303465504
I0403 19:33:38.957429  9384 layer_factory.hpp:77] Creating layer conv2/relu_3x3
I0403 19:33:38.957449  9384 net.cpp:91] Creating Layer conv2/relu_3x3
I0403 19:33:38.957471  9384 net.cpp:425] conv2/relu_3x3 <- conv2/3x3
I0403 19:33:38.957492  9384 net.cpp:386] conv2/relu_3x3 -> conv2/3x3 (in-place)
I0403 19:33:38.957662  9384 net.cpp:141] Setting up conv2/relu_3x3
I0403 19:33:38.957689  9384 net.cpp:148] Top shape: 24 192 56 56 (14450688)
I0403 19:33:38.957739  9384 net.cpp:156] Memory required for data: 361268256
I0403 19:33:38.957756  9384 layer_factory.hpp:77] Creating layer conv2/norm2
I0403 19:33:38.957777  9384 net.cpp:91] Creating Layer conv2/norm2
I0403 19:33:38.957794  9384 net.cpp:425] conv2/norm2 <- conv2/3x3
I0403 19:33:38.957815  9384 net.cpp:399] conv2/norm2 -> conv2/norm2
I0403 19:33:38.958106  9384 net.cpp:141] Setting up conv2/norm2
I0403 19:33:38.958137  9384 net.cpp:148] Top shape: 24 192 56 56 (14450688)
I0403 19:33:38.958155  9384 net.cpp:156] Memory required for data: 419071008
I0403 19:33:38.958170  9384 layer_factory.hpp:77] Creating layer pool2/3x3_s2
I0403 19:33:38.958190  9384 net.cpp:91] Creating Layer pool2/3x3_s2
I0403 19:33:38.958206  9384 net.cpp:425] pool2/3x3_s2 <- conv2/norm2
I0403 19:33:38.958227  9384 net.cpp:399] pool2/3x3_s2 -> pool2/3x3_s2
I0403 19:33:38.958278  9384 net.cpp:141] Setting up pool2/3x3_s2
I0403 19:33:38.958302  9384 net.cpp:148] Top shape: 24 192 28 28 (3612672)
I0403 19:33:38.958343  9384 net.cpp:156] Memory required for data: 433521696
I0403 19:33:38.958371  9384 layer_factory.hpp:77] Creating layer pool2/3x3_s2_pool2/3x3_s2_0_split
I0403 19:33:38.958391  9384 net.cpp:91] Creating Layer pool2/3x3_s2_pool2/3x3_s2_0_split
I0403 19:33:38.958407  9384 net.cpp:425] pool2/3x3_s2_pool2/3x3_s2_0_split <- pool2/3x3_s2
I0403 19:33:38.958426  9384 net.cpp:399] pool2/3x3_s2_pool2/3x3_s2_0_split -> pool2/3x3_s2_pool2/3x3_s2_0_split_0
I0403 19:33:38.958446  9384 net.cpp:399] pool2/3x3_s2_pool2/3x3_s2_0_split -> pool2/3x3_s2_pool2/3x3_s2_0_split_1
I0403 19:33:38.958470  9384 net.cpp:399] pool2/3x3_s2_pool2/3x3_s2_0_split -> pool2/3x3_s2_pool2/3x3_s2_0_split_2
I0403 19:33:38.958495  9384 net.cpp:399] pool2/3x3_s2_pool2/3x3_s2_0_split -> pool2/3x3_s2_pool2/3x3_s2_0_split_3
I0403 19:33:38.958572  9384 net.cpp:141] Setting up pool2/3x3_s2_pool2/3x3_s2_0_split
I0403 19:33:38.958596  9384 net.cpp:148] Top shape: 24 192 28 28 (3612672)
I0403 19:33:38.958612  9384 net.cpp:148] Top shape: 24 192 28 28 (3612672)
I0403 19:33:38.958628  9384 net.cpp:148] Top shape: 24 192 28 28 (3612672)
I0403 19:33:38.958644  9384 net.cpp:148] Top shape: 24 192 28 28 (3612672)
I0403 19:33:38.958658  9384 net.cpp:156] Memory required for data: 491324448
I0403 19:33:38.958673  9384 layer_factory.hpp:77] Creating layer inception_3a/1x1
I0403 19:33:38.958695  9384 net.cpp:91] Creating Layer inception_3a/1x1
I0403 19:33:38.958714  9384 net.cpp:425] inception_3a/1x1 <- pool2/3x3_s2_pool2/3x3_s2_0_split_0
I0403 19:33:38.958734  9384 net.cpp:399] inception_3a/1x1 -> inception_3a/1x1
I0403 19:33:38.960270  9384 net.cpp:141] Setting up inception_3a/1x1
I0403 19:33:38.960300  9384 net.cpp:148] Top shape: 24 64 28 28 (1204224)
I0403 19:33:38.960316  9384 net.cpp:156] Memory required for data: 496141344
I0403 19:33:38.960335  9384 layer_factory.hpp:77] Creating layer inception_3a/relu_1x1
I0403 19:33:38.960355  9384 net.cpp:91] Creating Layer inception_3a/relu_1x1
I0403 19:33:38.960371  9384 net.cpp:425] inception_3a/relu_1x1 <- inception_3a/1x1
I0403 19:33:38.960391  9384 net.cpp:386] inception_3a/relu_1x1 -> inception_3a/1x1 (in-place)
I0403 19:33:38.960563  9384 net.cpp:141] Setting up inception_3a/relu_1x1
I0403 19:33:38.960589  9384 net.cpp:148] Top shape: 24 64 28 28 (1204224)
I0403 19:33:38.960604  9384 net.cpp:156] Memory required for data: 500958240
I0403 19:33:38.960619  9384 layer_factory.hpp:77] Creating layer inception_3a/3x3_reduce
I0403 19:33:38.960645  9384 net.cpp:91] Creating Layer inception_3a/3x3_reduce
I0403 19:33:38.960664  9384 net.cpp:425] inception_3a/3x3_reduce <- pool2/3x3_s2_pool2/3x3_s2_0_split_1
I0403 19:33:38.960685  9384 net.cpp:399] inception_3a/3x3_reduce -> inception_3a/3x3_reduce
I0403 19:33:38.962399  9384 net.cpp:141] Setting up inception_3a/3x3_reduce
I0403 19:33:38.962432  9384 net.cpp:148] Top shape: 24 96 28 28 (1806336)
I0403 19:33:38.962450  9384 net.cpp:156] Memory required for data: 508183584
I0403 19:33:38.962486  9384 layer_factory.hpp:77] Creating layer inception_3a/relu_3x3_reduce
I0403 19:33:38.962523  9384 net.cpp:91] Creating Layer inception_3a/relu_3x3_reduce
I0403 19:33:38.962553  9384 net.cpp:425] inception_3a/relu_3x3_reduce <- inception_3a/3x3_reduce
I0403 19:33:38.962570  9384 net.cpp:386] inception_3a/relu_3x3_reduce -> inception_3a/3x3_reduce (in-place)
I0403 19:33:38.962746  9384 net.cpp:141] Setting up inception_3a/relu_3x3_reduce
I0403 19:33:38.962775  9384 net.cpp:148] Top shape: 24 96 28 28 (1806336)
I0403 19:33:38.962791  9384 net.cpp:156] Memory required for data: 515408928
I0403 19:33:38.962808  9384 layer_factory.hpp:77] Creating layer inception_3a/3x3
I0403 19:33:38.962832  9384 net.cpp:91] Creating Layer inception_3a/3x3
I0403 19:33:38.962851  9384 net.cpp:425] inception_3a/3x3 <- inception_3a/3x3_reduce
I0403 19:33:38.962870  9384 net.cpp:399] inception_3a/3x3 -> inception_3a/3x3
I0403 19:33:38.964434  9384 net.cpp:141] Setting up inception_3a/3x3
I0403 19:33:38.964467  9384 net.cpp:148] Top shape: 24 128 28 28 (2408448)
I0403 19:33:38.964484  9384 net.cpp:156] Memory required for data: 525042720
I0403 19:33:38.964504  9384 layer_factory.hpp:77] Creating layer inception_3a/relu_3x3
I0403 19:33:38.964521  9384 net.cpp:91] Creating Layer inception_3a/relu_3x3
I0403 19:33:38.964536  9384 net.cpp:425] inception_3a/relu_3x3 <- inception_3a/3x3
I0403 19:33:38.964556  9384 net.cpp:386] inception_3a/relu_3x3 -> inception_3a/3x3 (in-place)
I0403 19:33:38.964818  9384 net.cpp:141] Setting up inception_3a/relu_3x3
I0403 19:33:38.964844  9384 net.cpp:148] Top shape: 24 128 28 28 (2408448)
I0403 19:33:38.964859  9384 net.cpp:156] Memory required for data: 534676512
I0403 19:33:38.964875  9384 layer_factory.hpp:77] Creating layer inception_3a/5x5_reduce
I0403 19:33:38.964897  9384 net.cpp:91] Creating Layer inception_3a/5x5_reduce
I0403 19:33:38.964915  9384 net.cpp:425] inception_3a/5x5_reduce <- pool2/3x3_s2_pool2/3x3_s2_0_split_2
I0403 19:33:38.964936  9384 net.cpp:399] inception_3a/5x5_reduce -> inception_3a/5x5_reduce
I0403 19:33:38.965873  9384 net.cpp:141] Setting up inception_3a/5x5_reduce
I0403 19:33:38.965901  9384 net.cpp:148] Top shape: 24 16 28 28 (301056)
I0403 19:33:38.965916  9384 net.cpp:156] Memory required for data: 535880736
I0403 19:33:38.965935  9384 layer_factory.hpp:77] Creating layer inception_3a/relu_5x5_reduce
I0403 19:33:38.965955  9384 net.cpp:91] Creating Layer inception_3a/relu_5x5_reduce
I0403 19:33:38.965971  9384 net.cpp:425] inception_3a/relu_5x5_reduce <- inception_3a/5x5_reduce
I0403 19:33:38.965988  9384 net.cpp:386] inception_3a/relu_5x5_reduce -> inception_3a/5x5_reduce (in-place)
I0403 19:33:38.966264  9384 net.cpp:141] Setting up inception_3a/relu_5x5_reduce
I0403 19:33:38.966289  9384 net.cpp:148] Top shape: 24 16 28 28 (301056)
I0403 19:33:38.966305  9384 net.cpp:156] Memory required for data: 537084960
I0403 19:33:38.966320  9384 layer_factory.hpp:77] Creating layer inception_3a/5x5
I0403 19:33:38.966343  9384 net.cpp:91] Creating Layer inception_3a/5x5
I0403 19:33:38.966362  9384 net.cpp:425] inception_3a/5x5 <- inception_3a/5x5_reduce
I0403 19:33:38.966382  9384 net.cpp:399] inception_3a/5x5 -> inception_3a/5x5
I0403 19:33:38.967325  9384 net.cpp:141] Setting up inception_3a/5x5
I0403 19:33:38.967352  9384 net.cpp:148] Top shape: 24 32 28 28 (602112)
I0403 19:33:38.967368  9384 net.cpp:156] Memory required for data: 539493408
I0403 19:33:38.967386  9384 layer_factory.hpp:77] Creating layer inception_3a/relu_5x5
I0403 19:33:38.967404  9384 net.cpp:91] Creating Layer inception_3a/relu_5x5
I0403 19:33:38.967419  9384 net.cpp:425] inception_3a/relu_5x5 <- inception_3a/5x5
I0403 19:33:38.967439  9384 net.cpp:386] inception_3a/relu_5x5 -> inception_3a/5x5 (in-place)
I0403 19:33:38.967608  9384 net.cpp:141] Setting up inception_3a/relu_5x5
I0403 19:33:38.967633  9384 net.cpp:148] Top shape: 24 32 28 28 (602112)
I0403 19:33:38.967648  9384 net.cpp:156] Memory required for data: 541901856
I0403 19:33:38.967664  9384 layer_factory.hpp:77] Creating layer inception_3a/pool
I0403 19:33:38.967684  9384 net.cpp:91] Creating Layer inception_3a/pool
I0403 19:33:38.967701  9384 net.cpp:425] inception_3a/pool <- pool2/3x3_s2_pool2/3x3_s2_0_split_3
I0403 19:33:38.967732  9384 net.cpp:399] inception_3a/pool -> inception_3a/pool
I0403 19:33:38.967789  9384 net.cpp:141] Setting up inception_3a/pool
I0403 19:33:38.967813  9384 net.cpp:148] Top shape: 24 192 28 28 (3612672)
I0403 19:33:38.967828  9384 net.cpp:156] Memory required for data: 556352544
I0403 19:33:38.967842  9384 layer_factory.hpp:77] Creating layer inception_3a/pool_proj
I0403 19:33:38.967864  9384 net.cpp:91] Creating Layer inception_3a/pool_proj
I0403 19:33:38.967882  9384 net.cpp:425] inception_3a/pool_proj <- inception_3a/pool
I0403 19:33:38.967905  9384 net.cpp:399] inception_3a/pool_proj -> inception_3a/pool_proj
I0403 19:33:38.968808  9384 net.cpp:141] Setting up inception_3a/pool_proj
I0403 19:33:38.968837  9384 net.cpp:148] Top shape: 24 32 28 28 (602112)
I0403 19:33:38.968854  9384 net.cpp:156] Memory required for data: 558760992
I0403 19:33:38.968878  9384 layer_factory.hpp:77] Creating layer inception_3a/relu_pool_proj
I0403 19:33:38.968897  9384 net.cpp:91] Creating Layer inception_3a/relu_pool_proj
I0403 19:33:38.968914  9384 net.cpp:425] inception_3a/relu_pool_proj <- inception_3a/pool_proj
I0403 19:33:38.968931  9384 net.cpp:386] inception_3a/relu_pool_proj -> inception_3a/pool_proj (in-place)
I0403 19:33:38.969188  9384 net.cpp:141] Setting up inception_3a/relu_pool_proj
I0403 19:33:38.969215  9384 net.cpp:148] Top shape: 24 32 28 28 (602112)
I0403 19:33:38.969230  9384 net.cpp:156] Memory required for data: 561169440
I0403 19:33:38.969245  9384 layer_factory.hpp:77] Creating layer inception_3a/output
I0403 19:33:38.969264  9384 net.cpp:91] Creating Layer inception_3a/output
I0403 19:33:38.969277  9384 net.cpp:425] inception_3a/output <- inception_3a/1x1
I0403 19:33:38.969295  9384 net.cpp:425] inception_3a/output <- inception_3a/3x3
I0403 19:33:38.969310  9384 net.cpp:425] inception_3a/output <- inception_3a/5x5
I0403 19:33:38.969327  9384 net.cpp:425] inception_3a/output <- inception_3a/pool_proj
I0403 19:33:38.969347  9384 net.cpp:399] inception_3a/output -> inception_3a/output
I0403 19:33:38.969393  9384 net.cpp:141] Setting up inception_3a/output
I0403 19:33:38.969416  9384 net.cpp:148] Top shape: 24 256 28 28 (4816896)
I0403 19:33:38.969431  9384 net.cpp:156] Memory required for data: 580437024
I0403 19:33:38.969446  9384 layer_factory.hpp:77] Creating layer inception_3a/output_inception_3a/output_0_split
I0403 19:33:38.969467  9384 net.cpp:91] Creating Layer inception_3a/output_inception_3a/output_0_split
I0403 19:33:38.969485  9384 net.cpp:425] inception_3a/output_inception_3a/output_0_split <- inception_3a/output
I0403 19:33:38.969502  9384 net.cpp:399] inception_3a/output_inception_3a/output_0_split -> inception_3a/output_inception_3a/output_0_split_0
I0403 19:33:38.969524  9384 net.cpp:399] inception_3a/output_inception_3a/output_0_split -> inception_3a/output_inception_3a/output_0_split_1
I0403 19:33:38.969548  9384 net.cpp:399] inception_3a/output_inception_3a/output_0_split -> inception_3a/output_inception_3a/output_0_split_2
I0403 19:33:38.969569  9384 net.cpp:399] inception_3a/output_inception_3a/output_0_split -> inception_3a/output_inception_3a/output_0_split_3
I0403 19:33:38.969641  9384 net.cpp:141] Setting up inception_3a/output_inception_3a/output_0_split
I0403 19:33:38.969666  9384 net.cpp:148] Top shape: 24 256 28 28 (4816896)
I0403 19:33:38.969683  9384 net.cpp:148] Top shape: 24 256 28 28 (4816896)
I0403 19:33:38.969699  9384 net.cpp:148] Top shape: 24 256 28 28 (4816896)
I0403 19:33:38.969714  9384 net.cpp:148] Top shape: 24 256 28 28 (4816896)
I0403 19:33:38.969728  9384 net.cpp:156] Memory required for data: 657507360
I0403 19:33:38.969743  9384 layer_factory.hpp:77] Creating layer inception_3b/1x1
I0403 19:33:38.969769  9384 net.cpp:91] Creating Layer inception_3b/1x1
I0403 19:33:38.969786  9384 net.cpp:425] inception_3b/1x1 <- inception_3a/output_inception_3a/output_0_split_0
I0403 19:33:38.969807  9384 net.cpp:399] inception_3b/1x1 -> inception_3b/1x1
I0403 19:33:38.970883  9384 net.cpp:141] Setting up inception_3b/1x1
I0403 19:33:38.970924  9384 net.cpp:148] Top shape: 24 128 28 28 (2408448)
I0403 19:33:38.970942  9384 net.cpp:156] Memory required for data: 667141152
I0403 19:33:38.970960  9384 layer_factory.hpp:77] Creating layer inception_3b/relu_1x1
I0403 19:33:38.970978  9384 net.cpp:91] Creating Layer inception_3b/relu_1x1
I0403 19:33:38.970994  9384 net.cpp:425] inception_3b/relu_1x1 <- inception_3b/1x1
I0403 19:33:38.971015  9384 net.cpp:386] inception_3b/relu_1x1 -> inception_3b/1x1 (in-place)
I0403 19:33:38.971176  9384 net.cpp:141] Setting up inception_3b/relu_1x1
I0403 19:33:38.971201  9384 net.cpp:148] Top shape: 24 128 28 28 (2408448)
I0403 19:33:38.971216  9384 net.cpp:156] Memory required for data: 676774944
I0403 19:33:38.971231  9384 layer_factory.hpp:77] Creating layer inception_3b/3x3_reduce
I0403 19:33:38.971253  9384 net.cpp:91] Creating Layer inception_3b/3x3_reduce
I0403 19:33:38.971271  9384 net.cpp:425] inception_3b/3x3_reduce <- inception_3a/output_inception_3a/output_0_split_1
I0403 19:33:38.971293  9384 net.cpp:399] inception_3b/3x3_reduce -> inception_3b/3x3_reduce
I0403 19:33:38.972357  9384 net.cpp:141] Setting up inception_3b/3x3_reduce
I0403 19:33:38.972386  9384 net.cpp:148] Top shape: 24 128 28 28 (2408448)
I0403 19:33:38.972403  9384 net.cpp:156] Memory required for data: 686408736
I0403 19:33:38.972420  9384 layer_factory.hpp:77] Creating layer inception_3b/relu_3x3_reduce
I0403 19:33:38.972440  9384 net.cpp:91] Creating Layer inception_3b/relu_3x3_reduce
I0403 19:33:38.972455  9384 net.cpp:425] inception_3b/relu_3x3_reduce <- inception_3b/3x3_reduce
I0403 19:33:38.972496  9384 net.cpp:386] inception_3b/relu_3x3_reduce -> inception_3b/3x3_reduce (in-place)
I0403 19:33:38.972662  9384 net.cpp:141] Setting up inception_3b/relu_3x3_reduce
I0403 19:33:38.972697  9384 net.cpp:148] Top shape: 24 128 28 28 (2408448)
I0403 19:33:38.972712  9384 net.cpp:156] Memory required for data: 696042528
I0403 19:33:38.972728  9384 layer_factory.hpp:77] Creating layer inception_3b/3x3
I0403 19:33:38.972754  9384 net.cpp:91] Creating Layer inception_3b/3x3
I0403 19:33:38.972771  9384 net.cpp:425] inception_3b/3x3 <- inception_3b/3x3_reduce
I0403 19:33:38.972790  9384 net.cpp:399] inception_3b/3x3 -> inception_3b/3x3
I0403 19:33:38.975527  9384 net.cpp:141] Setting up inception_3b/3x3
I0403 19:33:38.975554  9384 net.cpp:148] Top shape: 24 192 28 28 (3612672)
I0403 19:33:38.975570  9384 net.cpp:156] Memory required for data: 710493216
I0403 19:33:38.975589  9384 layer_factory.hpp:77] Creating layer inception_3b/relu_3x3
I0403 19:33:38.975606  9384 net.cpp:91] Creating Layer inception_3b/relu_3x3
I0403 19:33:38.975622  9384 net.cpp:425] inception_3b/relu_3x3 <- inception_3b/3x3
I0403 19:33:38.975643  9384 net.cpp:386] inception_3b/relu_3x3 -> inception_3b/3x3 (in-place)
I0403 19:33:38.975910  9384 net.cpp:141] Setting up inception_3b/relu_3x3
I0403 19:33:38.975937  9384 net.cpp:148] Top shape: 24 192 28 28 (3612672)
I0403 19:33:38.975951  9384 net.cpp:156] Memory required for data: 724943904
I0403 19:33:38.975966  9384 layer_factory.hpp:77] Creating layer inception_3b/5x5_reduce
I0403 19:33:38.975989  9384 net.cpp:91] Creating Layer inception_3b/5x5_reduce
I0403 19:33:38.976007  9384 net.cpp:425] inception_3b/5x5_reduce <- inception_3a/output_inception_3a/output_0_split_2
I0403 19:33:38.976029  9384 net.cpp:399] inception_3b/5x5_reduce -> inception_3b/5x5_reduce
I0403 19:33:38.976974  9384 net.cpp:141] Setting up inception_3b/5x5_reduce
I0403 19:33:38.977001  9384 net.cpp:148] Top shape: 24 32 28 28 (602112)
I0403 19:33:38.977017  9384 net.cpp:156] Memory required for data: 727352352
I0403 19:33:38.977035  9384 layer_factory.hpp:77] Creating layer inception_3b/relu_5x5_reduce
I0403 19:33:38.977053  9384 net.cpp:91] Creating Layer inception_3b/relu_5x5_reduce
I0403 19:33:38.977069  9384 net.cpp:425] inception_3b/relu_5x5_reduce <- inception_3b/5x5_reduce
I0403 19:33:38.977089  9384 net.cpp:386] inception_3b/relu_5x5_reduce -> inception_3b/5x5_reduce (in-place)
I0403 19:33:38.977267  9384 net.cpp:141] Setting up inception_3b/relu_5x5_reduce
I0403 19:33:38.977304  9384 net.cpp:148] Top shape: 24 32 28 28 (602112)
I0403 19:33:38.977320  9384 net.cpp:156] Memory required for data: 729760800
I0403 19:33:38.977336  9384 layer_factory.hpp:77] Creating layer inception_3b/5x5
I0403 19:33:38.977362  9384 net.cpp:91] Creating Layer inception_3b/5x5
I0403 19:33:38.977380  9384 net.cpp:425] inception_3b/5x5 <- inception_3b/5x5_reduce
I0403 19:33:38.977403  9384 net.cpp:399] inception_3b/5x5 -> inception_3b/5x5
I0403 19:33:38.979331  9384 net.cpp:141] Setting up inception_3b/5x5
I0403 19:33:38.979362  9384 net.cpp:148] Top shape: 24 96 28 28 (1806336)
I0403 19:33:38.979379  9384 net.cpp:156] Memory required for data: 736986144
I0403 19:33:38.979398  9384 layer_factory.hpp:77] Creating layer inception_3b/relu_5x5
I0403 19:33:38.979416  9384 net.cpp:91] Creating Layer inception_3b/relu_5x5
I0403 19:33:38.979434  9384 net.cpp:425] inception_3b/relu_5x5 <- inception_3b/5x5
I0403 19:33:38.979451  9384 net.cpp:386] inception_3b/relu_5x5 -> inception_3b/5x5 (in-place)
I0403 19:33:38.979642  9384 net.cpp:141] Setting up inception_3b/relu_5x5
I0403 19:33:38.979668  9384 net.cpp:148] Top shape: 24 96 28 28 (1806336)
I0403 19:33:38.979683  9384 net.cpp:156] Memory required for data: 744211488
I0403 19:33:38.979698  9384 layer_factory.hpp:77] Creating layer inception_3b/pool
I0403 19:33:38.979717  9384 net.cpp:91] Creating Layer inception_3b/pool
I0403 19:33:38.979733  9384 net.cpp:425] inception_3b/pool <- inception_3a/output_inception_3a/output_0_split_3
I0403 19:33:38.979751  9384 net.cpp:399] inception_3b/pool -> inception_3b/pool
I0403 19:33:38.979805  9384 net.cpp:141] Setting up inception_3b/pool
I0403 19:33:38.979832  9384 net.cpp:148] Top shape: 24 256 28 28 (4816896)
I0403 19:33:38.979847  9384 net.cpp:156] Memory required for data: 763479072
I0403 19:33:38.979862  9384 layer_factory.hpp:77] Creating layer inception_3b/pool_proj
I0403 19:33:38.979885  9384 net.cpp:91] Creating Layer inception_3b/pool_proj
I0403 19:33:38.979903  9384 net.cpp:425] inception_3b/pool_proj <- inception_3b/pool
I0403 19:33:38.979923  9384 net.cpp:399] inception_3b/pool_proj -> inception_3b/pool_proj
I0403 19:33:38.980927  9384 net.cpp:141] Setting up inception_3b/pool_proj
I0403 19:33:38.980954  9384 net.cpp:148] Top shape: 24 64 28 28 (1204224)
I0403 19:33:38.980969  9384 net.cpp:156] Memory required for data: 768295968
I0403 19:33:38.980988  9384 layer_factory.hpp:77] Creating layer inception_3b/relu_pool_proj
I0403 19:33:38.981008  9384 net.cpp:91] Creating Layer inception_3b/relu_pool_proj
I0403 19:33:38.981024  9384 net.cpp:425] inception_3b/relu_pool_proj <- inception_3b/pool_proj
I0403 19:33:38.981041  9384 net.cpp:386] inception_3b/relu_pool_proj -> inception_3b/pool_proj (in-place)
I0403 19:33:38.981411  9384 net.cpp:141] Setting up inception_3b/relu_pool_proj
I0403 19:33:38.981437  9384 net.cpp:148] Top shape: 24 64 28 28 (1204224)
I0403 19:33:38.981453  9384 net.cpp:156] Memory required for data: 773112864
I0403 19:33:38.981473  9384 layer_factory.hpp:77] Creating layer inception_3b/output
I0403 19:33:38.981492  9384 net.cpp:91] Creating Layer inception_3b/output
I0403 19:33:38.981506  9384 net.cpp:425] inception_3b/output <- inception_3b/1x1
I0403 19:33:38.981525  9384 net.cpp:425] inception_3b/output <- inception_3b/3x3
I0403 19:33:38.981544  9384 net.cpp:425] inception_3b/output <- inception_3b/5x5
I0403 19:33:38.981560  9384 net.cpp:425] inception_3b/output <- inception_3b/pool_proj
I0403 19:33:38.981578  9384 net.cpp:399] inception_3b/output -> inception_3b/output
I0403 19:33:38.981622  9384 net.cpp:141] Setting up inception_3b/output
I0403 19:33:38.981644  9384 net.cpp:148] Top shape: 24 480 28 28 (9031680)
I0403 19:33:38.981659  9384 net.cpp:156] Memory required for data: 809239584
I0403 19:33:38.981673  9384 layer_factory.hpp:77] Creating layer pool3/3x3_s2
I0403 19:33:38.981690  9384 net.cpp:91] Creating Layer pool3/3x3_s2
I0403 19:33:38.981708  9384 net.cpp:425] pool3/3x3_s2 <- inception_3b/output
I0403 19:33:38.981727  9384 net.cpp:399] pool3/3x3_s2 -> pool3/3x3_s2
I0403 19:33:38.981796  9384 net.cpp:141] Setting up pool3/3x3_s2
I0403 19:33:38.981818  9384 net.cpp:148] Top shape: 24 480 14 14 (2257920)
I0403 19:33:38.981832  9384 net.cpp:156] Memory required for data: 818271264
I0403 19:33:38.981848  9384 layer_factory.hpp:77] Creating layer pool3/3x3_s2_pool3/3x3_s2_0_split
I0403 19:33:38.981866  9384 net.cpp:91] Creating Layer pool3/3x3_s2_pool3/3x3_s2_0_split
I0403 19:33:38.981883  9384 net.cpp:425] pool3/3x3_s2_pool3/3x3_s2_0_split <- pool3/3x3_s2
I0403 19:33:38.981899  9384 net.cpp:399] pool3/3x3_s2_pool3/3x3_s2_0_split -> pool3/3x3_s2_pool3/3x3_s2_0_split_0
I0403 19:33:38.981921  9384 net.cpp:399] pool3/3x3_s2_pool3/3x3_s2_0_split -> pool3/3x3_s2_pool3/3x3_s2_0_split_1
I0403 19:33:38.981940  9384 net.cpp:399] pool3/3x3_s2_pool3/3x3_s2_0_split -> pool3/3x3_s2_pool3/3x3_s2_0_split_2
I0403 19:33:38.981961  9384 net.cpp:399] pool3/3x3_s2_pool3/3x3_s2_0_split -> pool3/3x3_s2_pool3/3x3_s2_0_split_3
I0403 19:33:38.982031  9384 net.cpp:141] Setting up pool3/3x3_s2_pool3/3x3_s2_0_split
I0403 19:33:38.982054  9384 net.cpp:148] Top shape: 24 480 14 14 (2257920)
I0403 19:33:38.982069  9384 net.cpp:148] Top shape: 24 480 14 14 (2257920)
I0403 19:33:38.982085  9384 net.cpp:148] Top shape: 24 480 14 14 (2257920)
I0403 19:33:38.982100  9384 net.cpp:148] Top shape: 24 480 14 14 (2257920)
I0403 19:33:38.982113  9384 net.cpp:156] Memory required for data: 854397984
I0403 19:33:38.982128  9384 layer_factory.hpp:77] Creating layer inception_4a/1x1
I0403 19:33:38.982151  9384 net.cpp:91] Creating Layer inception_4a/1x1
I0403 19:33:38.982177  9384 net.cpp:425] inception_4a/1x1 <- pool3/3x3_s2_pool3/3x3_s2_0_split_0
I0403 19:33:38.982198  9384 net.cpp:399] inception_4a/1x1 -> inception_4a/1x1
I0403 19:33:38.983683  9384 net.cpp:141] Setting up inception_4a/1x1
I0403 19:33:38.983713  9384 net.cpp:148] Top shape: 24 192 14 14 (903168)
I0403 19:33:38.983731  9384 net.cpp:156] Memory required for data: 858010656
I0403 19:33:38.983749  9384 layer_factory.hpp:77] Creating layer inception_4a/relu_1x1
I0403 19:33:38.983767  9384 net.cpp:91] Creating Layer inception_4a/relu_1x1
I0403 19:33:38.983783  9384 net.cpp:425] inception_4a/relu_1x1 <- inception_4a/1x1
I0403 19:33:38.983799  9384 net.cpp:386] inception_4a/relu_1x1 -> inception_4a/1x1 (in-place)
I0403 19:33:38.983965  9384 net.cpp:141] Setting up inception_4a/relu_1x1
I0403 19:33:38.983995  9384 net.cpp:148] Top shape: 24 192 14 14 (903168)
I0403 19:33:38.984011  9384 net.cpp:156] Memory required for data: 861623328
I0403 19:33:38.984027  9384 layer_factory.hpp:77] Creating layer inception_4a/3x3_reduce
I0403 19:33:38.984048  9384 net.cpp:91] Creating Layer inception_4a/3x3_reduce
I0403 19:33:38.984066  9384 net.cpp:425] inception_4a/3x3_reduce <- pool3/3x3_s2_pool3/3x3_s2_0_split_1
I0403 19:33:38.984084  9384 net.cpp:399] inception_4a/3x3_reduce -> inception_4a/3x3_reduce
I0403 19:33:38.985270  9384 net.cpp:141] Setting up inception_4a/3x3_reduce
I0403 19:33:38.985298  9384 net.cpp:148] Top shape: 24 96 14 14 (451584)
I0403 19:33:38.985313  9384 net.cpp:156] Memory required for data: 863429664
I0403 19:33:38.985338  9384 layer_factory.hpp:77] Creating layer inception_4a/relu_3x3_reduce
I0403 19:33:38.985358  9384 net.cpp:91] Creating Layer inception_4a/relu_3x3_reduce
I0403 19:33:38.985374  9384 net.cpp:425] inception_4a/relu_3x3_reduce <- inception_4a/3x3_reduce
I0403 19:33:38.985391  9384 net.cpp:386] inception_4a/relu_3x3_reduce -> inception_4a/3x3_reduce (in-place)
I0403 19:33:38.985561  9384 net.cpp:141] Setting up inception_4a/relu_3x3_reduce
I0403 19:33:38.985589  9384 net.cpp:148] Top shape: 24 96 14 14 (451584)
I0403 19:33:38.985604  9384 net.cpp:156] Memory required for data: 865236000
I0403 19:33:38.985620  9384 layer_factory.hpp:77] Creating layer inception_4a/3x3
I0403 19:33:38.985641  9384 net.cpp:91] Creating Layer inception_4a/3x3
I0403 19:33:38.985658  9384 net.cpp:425] inception_4a/3x3 <- inception_4a/3x3_reduce
I0403 19:33:38.985677  9384 net.cpp:399] inception_4a/3x3 -> inception_4a/3x3
I0403 19:33:38.988193  9384 net.cpp:141] Setting up inception_4a/3x3
I0403 19:33:38.988224  9384 net.cpp:148] Top shape: 24 208 14 14 (978432)
I0403 19:33:38.988239  9384 net.cpp:156] Memory required for data: 869149728
I0403 19:33:38.988256  9384 layer_factory.hpp:77] Creating layer inception_4a/relu_3x3
I0403 19:33:38.988273  9384 net.cpp:91] Creating Layer inception_4a/relu_3x3
I0403 19:33:38.988289  9384 net.cpp:425] inception_4a/relu_3x3 <- inception_4a/3x3
I0403 19:33:38.988308  9384 net.cpp:386] inception_4a/relu_3x3 -> inception_4a/3x3 (in-place)
I0403 19:33:38.988576  9384 net.cpp:141] Setting up inception_4a/relu_3x3
I0403 19:33:38.988603  9384 net.cpp:148] Top shape: 24 208 14 14 (978432)
I0403 19:33:38.988620  9384 net.cpp:156] Memory required for data: 873063456
I0403 19:33:38.988633  9384 layer_factory.hpp:77] Creating layer inception_4a/5x5_reduce
I0403 19:33:38.988656  9384 net.cpp:91] Creating Layer inception_4a/5x5_reduce
I0403 19:33:38.988673  9384 net.cpp:425] inception_4a/5x5_reduce <- pool3/3x3_s2_pool3/3x3_s2_0_split_2
I0403 19:33:38.988695  9384 net.cpp:399] inception_4a/5x5_reduce -> inception_4a/5x5_reduce
I0403 19:33:38.989652  9384 net.cpp:141] Setting up inception_4a/5x5_reduce
I0403 19:33:38.989680  9384 net.cpp:148] Top shape: 24 16 14 14 (75264)
I0403 19:33:38.989693  9384 net.cpp:156] Memory required for data: 873364512
I0403 19:33:38.989711  9384 layer_factory.hpp:77] Creating layer inception_4a/relu_5x5_reduce
I0403 19:33:38.989728  9384 net.cpp:91] Creating Layer inception_4a/relu_5x5_reduce
I0403 19:33:38.989744  9384 net.cpp:425] inception_4a/relu_5x5_reduce <- inception_4a/5x5_reduce
I0403 19:33:38.989764  9384 net.cpp:386] inception_4a/relu_5x5_reduce -> inception_4a/5x5_reduce (in-place)
I0403 19:33:38.989940  9384 net.cpp:141] Setting up inception_4a/relu_5x5_reduce
I0403 19:33:38.989965  9384 net.cpp:148] Top shape: 24 16 14 14 (75264)
I0403 19:33:38.989980  9384 net.cpp:156] Memory required for data: 873665568
I0403 19:33:38.989995  9384 layer_factory.hpp:77] Creating layer inception_4a/5x5
I0403 19:33:38.990017  9384 net.cpp:91] Creating Layer inception_4a/5x5
I0403 19:33:38.990036  9384 net.cpp:425] inception_4a/5x5 <- inception_4a/5x5_reduce
I0403 19:33:38.990056  9384 net.cpp:399] inception_4a/5x5 -> inception_4a/5x5
I0403 19:33:38.991102  9384 net.cpp:141] Setting up inception_4a/5x5
I0403 19:33:38.991129  9384 net.cpp:148] Top shape: 24 48 14 14 (225792)
I0403 19:33:38.991144  9384 net.cpp:156] Memory required for data: 874568736
I0403 19:33:38.991163  9384 layer_factory.hpp:77] Creating layer inception_4a/relu_5x5
I0403 19:33:38.991183  9384 net.cpp:91] Creating Layer inception_4a/relu_5x5
I0403 19:33:38.991200  9384 net.cpp:425] inception_4a/relu_5x5 <- inception_4a/5x5
I0403 19:33:38.991219  9384 net.cpp:386] inception_4a/relu_5x5 -> inception_4a/5x5 (in-place)
I0403 19:33:38.991390  9384 net.cpp:141] Setting up inception_4a/relu_5x5
I0403 19:33:38.991416  9384 net.cpp:148] Top shape: 24 48 14 14 (225792)
I0403 19:33:38.991433  9384 net.cpp:156] Memory required for data: 875471904
I0403 19:33:38.991448  9384 layer_factory.hpp:77] Creating layer inception_4a/pool
I0403 19:33:38.991471  9384 net.cpp:91] Creating Layer inception_4a/pool
I0403 19:33:38.991487  9384 net.cpp:425] inception_4a/pool <- pool3/3x3_s2_pool3/3x3_s2_0_split_3
I0403 19:33:38.991506  9384 net.cpp:399] inception_4a/pool -> inception_4a/pool
I0403 19:33:38.991565  9384 net.cpp:141] Setting up inception_4a/pool
I0403 19:33:38.991588  9384 net.cpp:148] Top shape: 24 480 14 14 (2257920)
I0403 19:33:38.991603  9384 net.cpp:156] Memory required for data: 884503584
I0403 19:33:38.991618  9384 layer_factory.hpp:77] Creating layer inception_4a/pool_proj
I0403 19:33:38.991641  9384 net.cpp:91] Creating Layer inception_4a/pool_proj
I0403 19:33:38.991657  9384 net.cpp:425] inception_4a/pool_proj <- inception_4a/pool
I0403 19:33:38.991678  9384 net.cpp:399] inception_4a/pool_proj -> inception_4a/pool_proj
I0403 19:33:38.992780  9384 net.cpp:141] Setting up inception_4a/pool_proj
I0403 19:33:38.992807  9384 net.cpp:148] Top shape: 24 64 14 14 (301056)
I0403 19:33:38.992840  9384 net.cpp:156] Memory required for data: 885707808
I0403 19:33:38.992859  9384 layer_factory.hpp:77] Creating layer inception_4a/relu_pool_proj
I0403 19:33:38.992880  9384 net.cpp:91] Creating Layer inception_4a/relu_pool_proj
I0403 19:33:38.992897  9384 net.cpp:425] inception_4a/relu_pool_proj <- inception_4a/pool_proj
I0403 19:33:38.992915  9384 net.cpp:386] inception_4a/relu_pool_proj -> inception_4a/pool_proj (in-place)
I0403 19:33:38.993183  9384 net.cpp:141] Setting up inception_4a/relu_pool_proj
I0403 19:33:38.993209  9384 net.cpp:148] Top shape: 24 64 14 14 (301056)
I0403 19:33:38.993224  9384 net.cpp:156] Memory required for data: 886912032
I0403 19:33:38.993239  9384 layer_factory.hpp:77] Creating layer inception_4a/output
I0403 19:33:38.993258  9384 net.cpp:91] Creating Layer inception_4a/output
I0403 19:33:38.993275  9384 net.cpp:425] inception_4a/output <- inception_4a/1x1
I0403 19:33:38.993291  9384 net.cpp:425] inception_4a/output <- inception_4a/3x3
I0403 19:33:38.993307  9384 net.cpp:425] inception_4a/output <- inception_4a/5x5
I0403 19:33:38.993324  9384 net.cpp:425] inception_4a/output <- inception_4a/pool_proj
I0403 19:33:38.993341  9384 net.cpp:399] inception_4a/output -> inception_4a/output
I0403 19:33:38.993386  9384 net.cpp:141] Setting up inception_4a/output
I0403 19:33:38.993408  9384 net.cpp:148] Top shape: 24 512 14 14 (2408448)
I0403 19:33:38.993423  9384 net.cpp:156] Memory required for data: 896545824
I0403 19:33:38.993438  9384 layer_factory.hpp:77] Creating layer inception_4a/output_inception_4a/output_0_split
I0403 19:33:38.993455  9384 net.cpp:91] Creating Layer inception_4a/output_inception_4a/output_0_split
I0403 19:33:38.993475  9384 net.cpp:425] inception_4a/output_inception_4a/output_0_split <- inception_4a/output
I0403 19:33:38.993495  9384 net.cpp:399] inception_4a/output_inception_4a/output_0_split -> inception_4a/output_inception_4a/output_0_split_0
I0403 19:33:38.993516  9384 net.cpp:399] inception_4a/output_inception_4a/output_0_split -> inception_4a/output_inception_4a/output_0_split_1
I0403 19:33:38.993536  9384 net.cpp:399] inception_4a/output_inception_4a/output_0_split -> inception_4a/output_inception_4a/output_0_split_2
I0403 19:33:38.993556  9384 net.cpp:399] inception_4a/output_inception_4a/output_0_split -> inception_4a/output_inception_4a/output_0_split_3
I0403 19:33:38.993580  9384 net.cpp:399] inception_4a/output_inception_4a/output_0_split -> inception_4a/output_inception_4a/output_0_split_4
I0403 19:33:38.993669  9384 net.cpp:141] Setting up inception_4a/output_inception_4a/output_0_split
I0403 19:33:38.993691  9384 net.cpp:148] Top shape: 24 512 14 14 (2408448)
I0403 19:33:38.993707  9384 net.cpp:148] Top shape: 24 512 14 14 (2408448)
I0403 19:33:38.993722  9384 net.cpp:148] Top shape: 24 512 14 14 (2408448)
I0403 19:33:38.993737  9384 net.cpp:148] Top shape: 24 512 14 14 (2408448)
I0403 19:33:38.993752  9384 net.cpp:148] Top shape: 24 512 14 14 (2408448)
I0403 19:33:38.993767  9384 net.cpp:156] Memory required for data: 944714784
I0403 19:33:38.993780  9384 layer_factory.hpp:77] Creating layer loss1/ave_pool
I0403 19:33:38.993798  9384 net.cpp:91] Creating Layer loss1/ave_pool
I0403 19:33:38.993813  9384 net.cpp:425] loss1/ave_pool <- inception_4a/output_inception_4a/output_0_split_0
I0403 19:33:38.993831  9384 net.cpp:399] loss1/ave_pool -> loss1/ave_pool
I0403 19:33:38.994030  9384 net.cpp:141] Setting up loss1/ave_pool
I0403 19:33:38.994056  9384 net.cpp:148] Top shape: 24 512 4 4 (196608)
I0403 19:33:38.994071  9384 net.cpp:156] Memory required for data: 945501216
I0403 19:33:38.994086  9384 layer_factory.hpp:77] Creating layer loss1/conv
I0403 19:33:38.994109  9384 net.cpp:91] Creating Layer loss1/conv
I0403 19:33:38.994127  9384 net.cpp:425] loss1/conv <- loss1/ave_pool
I0403 19:33:38.994146  9384 net.cpp:399] loss1/conv -> loss1/conv
I0403 19:33:38.995468  9384 net.cpp:141] Setting up loss1/conv
I0403 19:33:38.995496  9384 net.cpp:148] Top shape: 24 128 4 4 (49152)
I0403 19:33:38.995512  9384 net.cpp:156] Memory required for data: 945697824
I0403 19:33:38.995542  9384 layer_factory.hpp:77] Creating layer loss1/relu_conv
I0403 19:33:38.995560  9384 net.cpp:91] Creating Layer loss1/relu_conv
I0403 19:33:38.995576  9384 net.cpp:425] loss1/relu_conv <- loss1/conv
I0403 19:33:38.995595  9384 net.cpp:386] loss1/relu_conv -> loss1/conv (in-place)
I0403 19:33:38.995863  9384 net.cpp:141] Setting up loss1/relu_conv
I0403 19:33:38.995889  9384 net.cpp:148] Top shape: 24 128 4 4 (49152)
I0403 19:33:38.995903  9384 net.cpp:156] Memory required for data: 945894432
I0403 19:33:38.995918  9384 layer_factory.hpp:77] Creating layer loss1/fc
I0403 19:33:38.995942  9384 net.cpp:91] Creating Layer loss1/fc
I0403 19:33:38.995960  9384 net.cpp:425] loss1/fc <- loss1/conv
I0403 19:33:38.995982  9384 net.cpp:399] loss1/fc -> loss1/fc
I0403 19:33:39.012755  9384 net.cpp:141] Setting up loss1/fc
I0403 19:33:39.012789  9384 net.cpp:148] Top shape: 24 1024 (24576)
I0403 19:33:39.012806  9384 net.cpp:156] Memory required for data: 945992736
I0403 19:33:39.012825  9384 layer_factory.hpp:77] Creating layer loss1/relu_fc
I0403 19:33:39.012845  9384 net.cpp:91] Creating Layer loss1/relu_fc
I0403 19:33:39.012861  9384 net.cpp:425] loss1/relu_fc <- loss1/fc
I0403 19:33:39.012877  9384 net.cpp:386] loss1/relu_fc -> loss1/fc (in-place)
I0403 19:33:39.013057  9384 net.cpp:141] Setting up loss1/relu_fc
I0403 19:33:39.013084  9384 net.cpp:148] Top shape: 24 1024 (24576)
I0403 19:33:39.013100  9384 net.cpp:156] Memory required for data: 946091040
I0403 19:33:39.013116  9384 layer_factory.hpp:77] Creating layer loss1/drop_fc
I0403 19:33:39.013142  9384 net.cpp:91] Creating Layer loss1/drop_fc
I0403 19:33:39.013161  9384 net.cpp:425] loss1/drop_fc <- loss1/fc
I0403 19:33:39.013180  9384 net.cpp:386] loss1/drop_fc -> loss1/fc (in-place)
I0403 19:33:39.013231  9384 net.cpp:141] Setting up loss1/drop_fc
I0403 19:33:39.013254  9384 net.cpp:148] Top shape: 24 1024 (24576)
I0403 19:33:39.013269  9384 net.cpp:156] Memory required for data: 946189344
I0403 19:33:39.013285  9384 layer_factory.hpp:77] Creating layer loss1/classifier_plantvillage
I0403 19:33:39.013306  9384 net.cpp:91] Creating Layer loss1/classifier_plantvillage
I0403 19:33:39.013322  9384 net.cpp:425] loss1/classifier_plantvillage <- loss1/fc
I0403 19:33:39.013340  9384 net.cpp:399] loss1/classifier_plantvillage -> loss1/classifier_plantvillage
I0403 19:33:39.014209  9384 net.cpp:141] Setting up loss1/classifier_plantvillage
I0403 19:33:39.014240  9384 net.cpp:148] Top shape: 24 38 (912)
I0403 19:33:39.014257  9384 net.cpp:156] Memory required for data: 946192992
I0403 19:33:39.014276  9384 layer_factory.hpp:77] Creating layer loss1/classifier_plantvillage_loss1/classifier_plantvillage_0_split
I0403 19:33:39.014299  9384 net.cpp:91] Creating Layer loss1/classifier_plantvillage_loss1/classifier_plantvillage_0_split
I0403 19:33:39.014315  9384 net.cpp:425] loss1/classifier_plantvillage_loss1/classifier_plantvillage_0_split <- loss1/classifier_plantvillage
I0403 19:33:39.014333  9384 net.cpp:399] loss1/classifier_plantvillage_loss1/classifier_plantvillage_0_split -> loss1/classifier_plantvillage_loss1/classifier_plantvillage_0_split_0
I0403 19:33:39.014356  9384 net.cpp:399] loss1/classifier_plantvillage_loss1/classifier_plantvillage_0_split -> loss1/classifier_plantvillage_loss1/classifier_plantvillage_0_split_1
I0403 19:33:39.014379  9384 net.cpp:399] loss1/classifier_plantvillage_loss1/classifier_plantvillage_0_split -> loss1/classifier_plantvillage_loss1/classifier_plantvillage_0_split_2
I0403 19:33:39.014444  9384 net.cpp:141] Setting up loss1/classifier_plantvillage_loss1/classifier_plantvillage_0_split
I0403 19:33:39.014472  9384 net.cpp:148] Top shape: 24 38 (912)
I0403 19:33:39.014489  9384 net.cpp:148] Top shape: 24 38 (912)
I0403 19:33:39.014505  9384 net.cpp:148] Top shape: 24 38 (912)
I0403 19:33:39.014519  9384 net.cpp:156] Memory required for data: 946203936
I0403 19:33:39.014534  9384 layer_factory.hpp:77] Creating layer inception_4b/1x1
I0403 19:33:39.014554  9384 net.cpp:91] Creating Layer inception_4b/1x1
I0403 19:33:39.014595  9384 net.cpp:425] inception_4b/1x1 <- inception_4a/output_inception_4a/output_0_split_1
I0403 19:33:39.014616  9384 net.cpp:399] inception_4b/1x1 -> inception_4b/1x1
I0403 19:33:39.016175  9384 net.cpp:141] Setting up inception_4b/1x1
I0403 19:33:39.016203  9384 net.cpp:148] Top shape: 24 160 14 14 (752640)
I0403 19:33:39.016218  9384 net.cpp:156] Memory required for data: 949214496
I0403 19:33:39.016237  9384 layer_factory.hpp:77] Creating layer inception_4b/relu_1x1
I0403 19:33:39.016255  9384 net.cpp:91] Creating Layer inception_4b/relu_1x1
I0403 19:33:39.016271  9384 net.cpp:425] inception_4b/relu_1x1 <- inception_4b/1x1
I0403 19:33:39.016291  9384 net.cpp:386] inception_4b/relu_1x1 -> inception_4b/1x1 (in-place)
I0403 19:33:39.016468  9384 net.cpp:141] Setting up inception_4b/relu_1x1
I0403 19:33:39.016494  9384 net.cpp:148] Top shape: 24 160 14 14 (752640)
I0403 19:33:39.016508  9384 net.cpp:156] Memory required for data: 952225056
I0403 19:33:39.016522  9384 layer_factory.hpp:77] Creating layer inception_4b/3x3_reduce
I0403 19:33:39.016544  9384 net.cpp:91] Creating Layer inception_4b/3x3_reduce
I0403 19:33:39.016563  9384 net.cpp:425] inception_4b/3x3_reduce <- inception_4a/output_inception_4a/output_0_split_2
I0403 19:33:39.016587  9384 net.cpp:399] inception_4b/3x3_reduce -> inception_4b/3x3_reduce
I0403 19:33:39.017863  9384 net.cpp:141] Setting up inception_4b/3x3_reduce
I0403 19:33:39.017890  9384 net.cpp:148] Top shape: 24 112 14 14 (526848)
I0403 19:33:39.017905  9384 net.cpp:156] Memory required for data: 954332448
I0403 19:33:39.017923  9384 layer_factory.hpp:77] Creating layer inception_4b/relu_3x3_reduce
I0403 19:33:39.017946  9384 net.cpp:91] Creating Layer inception_4b/relu_3x3_reduce
I0403 19:33:39.017962  9384 net.cpp:425] inception_4b/relu_3x3_reduce <- inception_4b/3x3_reduce
I0403 19:33:39.017981  9384 net.cpp:386] inception_4b/relu_3x3_reduce -> inception_4b/3x3_reduce (in-place)
I0403 19:33:39.018246  9384 net.cpp:141] Setting up inception_4b/relu_3x3_reduce
I0403 19:33:39.018272  9384 net.cpp:148] Top shape: 24 112 14 14 (526848)
I0403 19:33:39.018297  9384 net.cpp:156] Memory required for data: 956439840
I0403 19:33:39.018312  9384 layer_factory.hpp:77] Creating layer inception_4b/3x3
I0403 19:33:39.018334  9384 net.cpp:91] Creating Layer inception_4b/3x3
I0403 19:33:39.018353  9384 net.cpp:425] inception_4b/3x3 <- inception_4b/3x3_reduce
I0403 19:33:39.018375  9384 net.cpp:399] inception_4b/3x3 -> inception_4b/3x3
I0403 19:33:39.021206  9384 net.cpp:141] Setting up inception_4b/3x3
I0403 19:33:39.021239  9384 net.cpp:148] Top shape: 24 224 14 14 (1053696)
I0403 19:33:39.021255  9384 net.cpp:156] Memory required for data: 960654624
I0403 19:33:39.021272  9384 layer_factory.hpp:77] Creating layer inception_4b/relu_3x3
I0403 19:33:39.021291  9384 net.cpp:91] Creating Layer inception_4b/relu_3x3
I0403 19:33:39.021307  9384 net.cpp:425] inception_4b/relu_3x3 <- inception_4b/3x3
I0403 19:33:39.021324  9384 net.cpp:386] inception_4b/relu_3x3 -> inception_4b/3x3 (in-place)
I0403 19:33:39.021504  9384 net.cpp:141] Setting up inception_4b/relu_3x3
I0403 19:33:39.021531  9384 net.cpp:148] Top shape: 24 224 14 14 (1053696)
I0403 19:33:39.021548  9384 net.cpp:156] Memory required for data: 964869408
I0403 19:33:39.021563  9384 layer_factory.hpp:77] Creating layer inception_4b/5x5_reduce
I0403 19:33:39.021586  9384 net.cpp:91] Creating Layer inception_4b/5x5_reduce
I0403 19:33:39.021603  9384 net.cpp:425] inception_4b/5x5_reduce <- inception_4a/output_inception_4a/output_0_split_3
I0403 19:33:39.021625  9384 net.cpp:399] inception_4b/5x5_reduce -> inception_4b/5x5_reduce
I0403 19:33:39.022672  9384 net.cpp:141] Setting up inception_4b/5x5_reduce
I0403 19:33:39.022699  9384 net.cpp:148] Top shape: 24 24 14 14 (112896)
I0403 19:33:39.022716  9384 net.cpp:156] Memory required for data: 965320992
I0403 19:33:39.022733  9384 layer_factory.hpp:77] Creating layer inception_4b/relu_5x5_reduce
I0403 19:33:39.022754  9384 net.cpp:91] Creating Layer inception_4b/relu_5x5_reduce
I0403 19:33:39.022785  9384 net.cpp:425] inception_4b/relu_5x5_reduce <- inception_4b/5x5_reduce
I0403 19:33:39.022804  9384 net.cpp:386] inception_4b/relu_5x5_reduce -> inception_4b/5x5_reduce (in-place)
I0403 19:33:39.022975  9384 net.cpp:141] Setting up inception_4b/relu_5x5_reduce
I0403 19:33:39.023000  9384 net.cpp:148] Top shape: 24 24 14 14 (112896)
I0403 19:33:39.023015  9384 net.cpp:156] Memory required for data: 965772576
I0403 19:33:39.023030  9384 layer_factory.hpp:77] Creating layer inception_4b/5x5
I0403 19:33:39.023051  9384 net.cpp:91] Creating Layer inception_4b/5x5
I0403 19:33:39.023068  9384 net.cpp:425] inception_4b/5x5 <- inception_4b/5x5_reduce
I0403 19:33:39.023090  9384 net.cpp:399] inception_4b/5x5 -> inception_4b/5x5
I0403 19:33:39.024252  9384 net.cpp:141] Setting up inception_4b/5x5
I0403 19:33:39.024281  9384 net.cpp:148] Top shape: 24 64 14 14 (301056)
I0403 19:33:39.024296  9384 net.cpp:156] Memory required for data: 966976800
I0403 19:33:39.024314  9384 layer_factory.hpp:77] Creating layer inception_4b/relu_5x5
I0403 19:33:39.024333  9384 net.cpp:91] Creating Layer inception_4b/relu_5x5
I0403 19:33:39.024348  9384 net.cpp:425] inception_4b/relu_5x5 <- inception_4b/5x5
I0403 19:33:39.024368  9384 net.cpp:386] inception_4b/relu_5x5 -> inception_4b/5x5 (in-place)
I0403 19:33:39.024651  9384 net.cpp:141] Setting up inception_4b/relu_5x5
I0403 19:33:39.024677  9384 net.cpp:148] Top shape: 24 64 14 14 (301056)
I0403 19:33:39.024693  9384 net.cpp:156] Memory required for data: 968181024
I0403 19:33:39.024706  9384 layer_factory.hpp:77] Creating layer inception_4b/pool
I0403 19:33:39.024725  9384 net.cpp:91] Creating Layer inception_4b/pool
I0403 19:33:39.024742  9384 net.cpp:425] inception_4b/pool <- inception_4a/output_inception_4a/output_0_split_4
I0403 19:33:39.024763  9384 net.cpp:399] inception_4b/pool -> inception_4b/pool
I0403 19:33:39.024827  9384 net.cpp:141] Setting up inception_4b/pool
I0403 19:33:39.024850  9384 net.cpp:148] Top shape: 24 512 14 14 (2408448)
I0403 19:33:39.024865  9384 net.cpp:156] Memory required for data: 977814816
I0403 19:33:39.024880  9384 layer_factory.hpp:77] Creating layer inception_4b/pool_proj
I0403 19:33:39.024904  9384 net.cpp:91] Creating Layer inception_4b/pool_proj
I0403 19:33:39.024922  9384 net.cpp:425] inception_4b/pool_proj <- inception_4b/pool
I0403 19:33:39.024940  9384 net.cpp:399] inception_4b/pool_proj -> inception_4b/pool_proj
I0403 19:33:39.026079  9384 net.cpp:141] Setting up inception_4b/pool_proj
I0403 19:33:39.026106  9384 net.cpp:148] Top shape: 24 64 14 14 (301056)
I0403 19:33:39.026121  9384 net.cpp:156] Memory required for data: 979019040
I0403 19:33:39.026139  9384 layer_factory.hpp:77] Creating layer inception_4b/relu_pool_proj
I0403 19:33:39.026157  9384 net.cpp:91] Creating Layer inception_4b/relu_pool_proj
I0403 19:33:39.026173  9384 net.cpp:425] inception_4b/relu_pool_proj <- inception_4b/pool_proj
I0403 19:33:39.026195  9384 net.cpp:386] inception_4b/relu_pool_proj -> inception_4b/pool_proj (in-place)
I0403 19:33:39.026367  9384 net.cpp:141] Setting up inception_4b/relu_pool_proj
I0403 19:33:39.026392  9384 net.cpp:148] Top shape: 24 64 14 14 (301056)
I0403 19:33:39.026407  9384 net.cpp:156] Memory required for data: 980223264
I0403 19:33:39.026420  9384 layer_factory.hpp:77] Creating layer inception_4b/output
I0403 19:33:39.026439  9384 net.cpp:91] Creating Layer inception_4b/output
I0403 19:33:39.026456  9384 net.cpp:425] inception_4b/output <- inception_4b/1x1
I0403 19:33:39.026479  9384 net.cpp:425] inception_4b/output <- inception_4b/3x3
I0403 19:33:39.026495  9384 net.cpp:425] inception_4b/output <- inception_4b/5x5
I0403 19:33:39.026510  9384 net.cpp:425] inception_4b/output <- inception_4b/pool_proj
I0403 19:33:39.026527  9384 net.cpp:399] inception_4b/output -> inception_4b/output
I0403 19:33:39.026573  9384 net.cpp:141] Setting up inception_4b/output
I0403 19:33:39.026597  9384 net.cpp:148] Top shape: 24 512 14 14 (2408448)
I0403 19:33:39.026612  9384 net.cpp:156] Memory required for data: 989857056
I0403 19:33:39.026640  9384 layer_factory.hpp:77] Creating layer inception_4b/output_inception_4b/output_0_split
I0403 19:33:39.026659  9384 net.cpp:91] Creating Layer inception_4b/output_inception_4b/output_0_split
I0403 19:33:39.026674  9384 net.cpp:425] inception_4b/output_inception_4b/output_0_split <- inception_4b/output
I0403 19:33:39.026693  9384 net.cpp:399] inception_4b/output_inception_4b/output_0_split -> inception_4b/output_inception_4b/output_0_split_0
I0403 19:33:39.026715  9384 net.cpp:399] inception_4b/output_inception_4b/output_0_split -> inception_4b/output_inception_4b/output_0_split_1
I0403 19:33:39.026736  9384 net.cpp:399] inception_4b/output_inception_4b/output_0_split -> inception_4b/output_inception_4b/output_0_split_2
I0403 19:33:39.026757  9384 net.cpp:399] inception_4b/output_inception_4b/output_0_split -> inception_4b/output_inception_4b/output_0_split_3
I0403 19:33:39.026834  9384 net.cpp:141] Setting up inception_4b/output_inception_4b/output_0_split
I0403 19:33:39.026860  9384 net.cpp:148] Top shape: 24 512 14 14 (2408448)
I0403 19:33:39.026878  9384 net.cpp:148] Top shape: 24 512 14 14 (2408448)
I0403 19:33:39.026895  9384 net.cpp:148] Top shape: 24 512 14 14 (2408448)
I0403 19:33:39.026911  9384 net.cpp:148] Top shape: 24 512 14 14 (2408448)
I0403 19:33:39.026926  9384 net.cpp:156] Memory required for data: 1028392224
I0403 19:33:39.026939  9384 layer_factory.hpp:77] Creating layer inception_4c/1x1
I0403 19:33:39.026960  9384 net.cpp:91] Creating Layer inception_4c/1x1
I0403 19:33:39.026979  9384 net.cpp:425] inception_4c/1x1 <- inception_4b/output_inception_4b/output_0_split_0
I0403 19:33:39.027000  9384 net.cpp:399] inception_4c/1x1 -> inception_4c/1x1
I0403 19:33:39.028357  9384 net.cpp:141] Setting up inception_4c/1x1
I0403 19:33:39.028384  9384 net.cpp:148] Top shape: 24 128 14 14 (602112)
I0403 19:33:39.028400  9384 net.cpp:156] Memory required for data: 1030800672
I0403 19:33:39.028419  9384 layer_factory.hpp:77] Creating layer inception_4c/relu_1x1
I0403 19:33:39.028440  9384 net.cpp:91] Creating Layer inception_4c/relu_1x1
I0403 19:33:39.028457  9384 net.cpp:425] inception_4c/relu_1x1 <- inception_4c/1x1
I0403 19:33:39.028481  9384 net.cpp:386] inception_4c/relu_1x1 -> inception_4c/1x1 (in-place)
I0403 19:33:39.028653  9384 net.cpp:141] Setting up inception_4c/relu_1x1
I0403 19:33:39.028681  9384 net.cpp:148] Top shape: 24 128 14 14 (602112)
I0403 19:33:39.028697  9384 net.cpp:156] Memory required for data: 1033209120
I0403 19:33:39.028712  9384 layer_factory.hpp:77] Creating layer inception_4c/3x3_reduce
I0403 19:33:39.028734  9384 net.cpp:91] Creating Layer inception_4c/3x3_reduce
I0403 19:33:39.028753  9384 net.cpp:425] inception_4c/3x3_reduce <- inception_4b/output_inception_4b/output_0_split_1
I0403 19:33:39.028771  9384 net.cpp:399] inception_4c/3x3_reduce -> inception_4c/3x3_reduce
I0403 19:33:39.030624  9384 net.cpp:141] Setting up inception_4c/3x3_reduce
I0403 19:33:39.030657  9384 net.cpp:148] Top shape: 24 128 14 14 (602112)
I0403 19:33:39.030673  9384 net.cpp:156] Memory required for data: 1035617568
I0403 19:33:39.030691  9384 layer_factory.hpp:77] Creating layer inception_4c/relu_3x3_reduce
I0403 19:33:39.030709  9384 net.cpp:91] Creating Layer inception_4c/relu_3x3_reduce
I0403 19:33:39.030725  9384 net.cpp:425] inception_4c/relu_3x3_reduce <- inception_4c/3x3_reduce
I0403 19:33:39.030745  9384 net.cpp:386] inception_4c/relu_3x3_reduce -> inception_4c/3x3_reduce (in-place)
I0403 19:33:39.031015  9384 net.cpp:141] Setting up inception_4c/relu_3x3_reduce
I0403 19:33:39.031044  9384 net.cpp:148] Top shape: 24 128 14 14 (602112)
I0403 19:33:39.031060  9384 net.cpp:156] Memory required for data: 1038026016
I0403 19:33:39.031075  9384 layer_factory.hpp:77] Creating layer inception_4c/3x3
I0403 19:33:39.031098  9384 net.cpp:91] Creating Layer inception_4c/3x3
I0403 19:33:39.031118  9384 net.cpp:425] inception_4c/3x3 <- inception_4c/3x3_reduce
I0403 19:33:39.031137  9384 net.cpp:399] inception_4c/3x3 -> inception_4c/3x3
I0403 19:33:39.034566  9384 net.cpp:141] Setting up inception_4c/3x3
I0403 19:33:39.034607  9384 net.cpp:148] Top shape: 24 256 14 14 (1204224)
I0403 19:33:39.034624  9384 net.cpp:156] Memory required for data: 1042842912
I0403 19:33:39.034657  9384 layer_factory.hpp:77] Creating layer inception_4c/relu_3x3
I0403 19:33:39.034677  9384 net.cpp:91] Creating Layer inception_4c/relu_3x3
I0403 19:33:39.034693  9384 net.cpp:425] inception_4c/relu_3x3 <- inception_4c/3x3
I0403 19:33:39.034713  9384 net.cpp:386] inception_4c/relu_3x3 -> inception_4c/3x3 (in-place)
I0403 19:33:39.034891  9384 net.cpp:141] Setting up inception_4c/relu_3x3
I0403 19:33:39.034916  9384 net.cpp:148] Top shape: 24 256 14 14 (1204224)
I0403 19:33:39.034931  9384 net.cpp:156] Memory required for data: 1047659808
I0403 19:33:39.034947  9384 layer_factory.hpp:77] Creating layer inception_4c/5x5_reduce
I0403 19:33:39.034970  9384 net.cpp:91] Creating Layer inception_4c/5x5_reduce
I0403 19:33:39.034987  9384 net.cpp:425] inception_4c/5x5_reduce <- inception_4b/output_inception_4b/output_0_split_2
I0403 19:33:39.035009  9384 net.cpp:399] inception_4c/5x5_reduce -> inception_4c/5x5_reduce
I0403 19:33:39.036063  9384 net.cpp:141] Setting up inception_4c/5x5_reduce
I0403 19:33:39.036090  9384 net.cpp:148] Top shape: 24 24 14 14 (112896)
I0403 19:33:39.036108  9384 net.cpp:156] Memory required for data: 1048111392
I0403 19:33:39.036125  9384 layer_factory.hpp:77] Creating layer inception_4c/relu_5x5_reduce
I0403 19:33:39.036144  9384 net.cpp:91] Creating Layer inception_4c/relu_5x5_reduce
I0403 19:33:39.036162  9384 net.cpp:425] inception_4c/relu_5x5_reduce <- inception_4c/5x5_reduce
I0403 19:33:39.036181  9384 net.cpp:386] inception_4c/relu_5x5_reduce -> inception_4c/5x5_reduce (in-place)
I0403 19:33:39.036363  9384 net.cpp:141] Setting up inception_4c/relu_5x5_reduce
I0403 19:33:39.036387  9384 net.cpp:148] Top shape: 24 24 14 14 (112896)
I0403 19:33:39.036402  9384 net.cpp:156] Memory required for data: 1048562976
I0403 19:33:39.036418  9384 layer_factory.hpp:77] Creating layer inception_4c/5x5
I0403 19:33:39.036440  9384 net.cpp:91] Creating Layer inception_4c/5x5
I0403 19:33:39.036461  9384 net.cpp:425] inception_4c/5x5 <- inception_4c/5x5_reduce
I0403 19:33:39.036484  9384 net.cpp:399] inception_4c/5x5 -> inception_4c/5x5
I0403 19:33:39.037672  9384 net.cpp:141] Setting up inception_4c/5x5
I0403 19:33:39.037699  9384 net.cpp:148] Top shape: 24 64 14 14 (301056)
I0403 19:33:39.037715  9384 net.cpp:156] Memory required for data: 1049767200
I0403 19:33:39.037734  9384 layer_factory.hpp:77] Creating layer inception_4c/relu_5x5
I0403 19:33:39.037753  9384 net.cpp:91] Creating Layer inception_4c/relu_5x5
I0403 19:33:39.037771  9384 net.cpp:425] inception_4c/relu_5x5 <- inception_4c/5x5
I0403 19:33:39.037789  9384 net.cpp:386] inception_4c/relu_5x5 -> inception_4c/5x5 (in-place)
I0403 19:33:39.038069  9384 net.cpp:141] Setting up inception_4c/relu_5x5
I0403 19:33:39.038095  9384 net.cpp:148] Top shape: 24 64 14 14 (301056)
I0403 19:33:39.038110  9384 net.cpp:156] Memory required for data: 1050971424
I0403 19:33:39.038125  9384 layer_factory.hpp:77] Creating layer inception_4c/pool
I0403 19:33:39.038147  9384 net.cpp:91] Creating Layer inception_4c/pool
I0403 19:33:39.038164  9384 net.cpp:425] inception_4c/pool <- inception_4b/output_inception_4b/output_0_split_3
I0403 19:33:39.038182  9384 net.cpp:399] inception_4c/pool -> inception_4c/pool
I0403 19:33:39.038249  9384 net.cpp:141] Setting up inception_4c/pool
I0403 19:33:39.038272  9384 net.cpp:148] Top shape: 24 512 14 14 (2408448)
I0403 19:33:39.038287  9384 net.cpp:156] Memory required for data: 1060605216
I0403 19:33:39.038302  9384 layer_factory.hpp:77] Creating layer inception_4c/pool_proj
I0403 19:33:39.038326  9384 net.cpp:91] Creating Layer inception_4c/pool_proj
I0403 19:33:39.038343  9384 net.cpp:425] inception_4c/pool_proj <- inception_4c/pool
I0403 19:33:39.038364  9384 net.cpp:399] inception_4c/pool_proj -> inception_4c/pool_proj
I0403 19:33:39.039544  9384 net.cpp:141] Setting up inception_4c/pool_proj
I0403 19:33:39.039572  9384 net.cpp:148] Top shape: 24 64 14 14 (301056)
I0403 19:33:39.039600  9384 net.cpp:156] Memory required for data: 1061809440
I0403 19:33:39.039620  9384 layer_factory.hpp:77] Creating layer inception_4c/relu_pool_proj
I0403 19:33:39.039638  9384 net.cpp:91] Creating Layer inception_4c/relu_pool_proj
I0403 19:33:39.039654  9384 net.cpp:425] inception_4c/relu_pool_proj <- inception_4c/pool_proj
I0403 19:33:39.039674  9384 net.cpp:386] inception_4c/relu_pool_proj -> inception_4c/pool_proj (in-place)
I0403 19:33:39.039850  9384 net.cpp:141] Setting up inception_4c/relu_pool_proj
I0403 19:33:39.039875  9384 net.cpp:148] Top shape: 24 64 14 14 (301056)
I0403 19:33:39.039891  9384 net.cpp:156] Memory required for data: 1063013664
I0403 19:33:39.039906  9384 layer_factory.hpp:77] Creating layer inception_4c/output
I0403 19:33:39.039927  9384 net.cpp:91] Creating Layer inception_4c/output
I0403 19:33:39.039942  9384 net.cpp:425] inception_4c/output <- inception_4c/1x1
I0403 19:33:39.039959  9384 net.cpp:425] inception_4c/output <- inception_4c/3x3
I0403 19:33:39.039975  9384 net.cpp:425] inception_4c/output <- inception_4c/5x5
I0403 19:33:39.039991  9384 net.cpp:425] inception_4c/output <- inception_4c/pool_proj
I0403 19:33:39.040009  9384 net.cpp:399] inception_4c/output -> inception_4c/output
I0403 19:33:39.040055  9384 net.cpp:141] Setting up inception_4c/output
I0403 19:33:39.040079  9384 net.cpp:148] Top shape: 24 512 14 14 (2408448)
I0403 19:33:39.040093  9384 net.cpp:156] Memory required for data: 1072647456
I0403 19:33:39.040107  9384 layer_factory.hpp:77] Creating layer inception_4c/output_inception_4c/output_0_split
I0403 19:33:39.040124  9384 net.cpp:91] Creating Layer inception_4c/output_inception_4c/output_0_split
I0403 19:33:39.040140  9384 net.cpp:425] inception_4c/output_inception_4c/output_0_split <- inception_4c/output
I0403 19:33:39.040160  9384 net.cpp:399] inception_4c/output_inception_4c/output_0_split -> inception_4c/output_inception_4c/output_0_split_0
I0403 19:33:39.040181  9384 net.cpp:399] inception_4c/output_inception_4c/output_0_split -> inception_4c/output_inception_4c/output_0_split_1
I0403 19:33:39.040202  9384 net.cpp:399] inception_4c/output_inception_4c/output_0_split -> inception_4c/output_inception_4c/output_0_split_2
I0403 19:33:39.040221  9384 net.cpp:399] inception_4c/output_inception_4c/output_0_split -> inception_4c/output_inception_4c/output_0_split_3
I0403 19:33:39.040307  9384 net.cpp:141] Setting up inception_4c/output_inception_4c/output_0_split
I0403 19:33:39.040335  9384 net.cpp:148] Top shape: 24 512 14 14 (2408448)
I0403 19:33:39.040352  9384 net.cpp:148] Top shape: 24 512 14 14 (2408448)
I0403 19:33:39.040369  9384 net.cpp:148] Top shape: 24 512 14 14 (2408448)
I0403 19:33:39.040385  9384 net.cpp:148] Top shape: 24 512 14 14 (2408448)
I0403 19:33:39.040400  9384 net.cpp:156] Memory required for data: 1111182624
I0403 19:33:39.040421  9384 layer_factory.hpp:77] Creating layer inception_4d/1x1
I0403 19:33:39.040444  9384 net.cpp:91] Creating Layer inception_4d/1x1
I0403 19:33:39.040467  9384 net.cpp:425] inception_4d/1x1 <- inception_4c/output_inception_4c/output_0_split_0
I0403 19:33:39.040487  9384 net.cpp:399] inception_4d/1x1 -> inception_4d/1x1
I0403 19:33:39.041831  9384 net.cpp:141] Setting up inception_4d/1x1
I0403 19:33:39.041860  9384 net.cpp:148] Top shape: 24 112 14 14 (526848)
I0403 19:33:39.041877  9384 net.cpp:156] Memory required for data: 1113290016
I0403 19:33:39.041896  9384 layer_factory.hpp:77] Creating layer inception_4d/relu_1x1
I0403 19:33:39.041914  9384 net.cpp:91] Creating Layer inception_4d/relu_1x1
I0403 19:33:39.041929  9384 net.cpp:425] inception_4d/relu_1x1 <- inception_4d/1x1
I0403 19:33:39.041946  9384 net.cpp:386] inception_4d/relu_1x1 -> inception_4d/1x1 (in-place)
I0403 19:33:39.042125  9384 net.cpp:141] Setting up inception_4d/relu_1x1
I0403 19:33:39.042158  9384 net.cpp:148] Top shape: 24 112 14 14 (526848)
I0403 19:33:39.042173  9384 net.cpp:156] Memory required for data: 1115397408
I0403 19:33:39.042191  9384 layer_factory.hpp:77] Creating layer inception_4d/3x3_reduce
I0403 19:33:39.042227  9384 net.cpp:91] Creating Layer inception_4d/3x3_reduce
I0403 19:33:39.042245  9384 net.cpp:425] inception_4d/3x3_reduce <- inception_4c/output_inception_4c/output_0_split_1
I0403 19:33:39.042268  9384 net.cpp:399] inception_4d/3x3_reduce -> inception_4d/3x3_reduce
I0403 19:33:39.043722  9384 net.cpp:141] Setting up inception_4d/3x3_reduce
I0403 19:33:39.043751  9384 net.cpp:148] Top shape: 24 144 14 14 (677376)
I0403 19:33:39.043766  9384 net.cpp:156] Memory required for data: 1118106912
I0403 19:33:39.043784  9384 layer_factory.hpp:77] Creating layer inception_4d/relu_3x3_reduce
I0403 19:33:39.043805  9384 net.cpp:91] Creating Layer inception_4d/relu_3x3_reduce
I0403 19:33:39.043823  9384 net.cpp:425] inception_4d/relu_3x3_reduce <- inception_4d/3x3_reduce
I0403 19:33:39.043841  9384 net.cpp:386] inception_4d/relu_3x3_reduce -> inception_4d/3x3_reduce (in-place)
I0403 19:33:39.044116  9384 net.cpp:141] Setting up inception_4d/relu_3x3_reduce
I0403 19:33:39.044142  9384 net.cpp:148] Top shape: 24 144 14 14 (677376)
I0403 19:33:39.044157  9384 net.cpp:156] Memory required for data: 1120816416
I0403 19:33:39.044172  9384 layer_factory.hpp:77] Creating layer inception_4d/3x3
I0403 19:33:39.044195  9384 net.cpp:91] Creating Layer inception_4d/3x3
I0403 19:33:39.044215  9384 net.cpp:425] inception_4d/3x3 <- inception_4d/3x3_reduce
I0403 19:33:39.044234  9384 net.cpp:399] inception_4d/3x3 -> inception_4d/3x3
I0403 19:33:39.048265  9384 net.cpp:141] Setting up inception_4d/3x3
I0403 19:33:39.048296  9384 net.cpp:148] Top shape: 24 288 14 14 (1354752)
I0403 19:33:39.048312  9384 net.cpp:156] Memory required for data: 1126235424
I0403 19:33:39.048331  9384 layer_factory.hpp:77] Creating layer inception_4d/relu_3x3
I0403 19:33:39.048348  9384 net.cpp:91] Creating Layer inception_4d/relu_3x3
I0403 19:33:39.048364  9384 net.cpp:425] inception_4d/relu_3x3 <- inception_4d/3x3
I0403 19:33:39.048385  9384 net.cpp:386] inception_4d/relu_3x3 -> inception_4d/3x3 (in-place)
I0403 19:33:39.048564  9384 net.cpp:141] Setting up inception_4d/relu_3x3
I0403 19:33:39.048589  9384 net.cpp:148] Top shape: 24 288 14 14 (1354752)
I0403 19:33:39.048604  9384 net.cpp:156] Memory required for data: 1131654432
I0403 19:33:39.048619  9384 layer_factory.hpp:77] Creating layer inception_4d/5x5_reduce
I0403 19:33:39.048640  9384 net.cpp:91] Creating Layer inception_4d/5x5_reduce
I0403 19:33:39.048660  9384 net.cpp:425] inception_4d/5x5_reduce <- inception_4c/output_inception_4c/output_0_split_2
I0403 19:33:39.048681  9384 net.cpp:399] inception_4d/5x5_reduce -> inception_4d/5x5_reduce
I0403 19:33:39.049772  9384 net.cpp:141] Setting up inception_4d/5x5_reduce
I0403 19:33:39.049801  9384 net.cpp:148] Top shape: 24 32 14 14 (150528)
I0403 19:33:39.049818  9384 net.cpp:156] Memory required for data: 1132256544
I0403 19:33:39.049835  9384 layer_factory.hpp:77] Creating layer inception_4d/relu_5x5_reduce
I0403 19:33:39.049854  9384 net.cpp:91] Creating Layer inception_4d/relu_5x5_reduce
I0403 19:33:39.049871  9384 net.cpp:425] inception_4d/relu_5x5_reduce <- inception_4d/5x5_reduce
I0403 19:33:39.049890  9384 net.cpp:386] inception_4d/relu_5x5_reduce -> inception_4d/5x5_reduce (in-place)
I0403 19:33:39.050071  9384 net.cpp:141] Setting up inception_4d/relu_5x5_reduce
I0403 19:33:39.050096  9384 net.cpp:148] Top shape: 24 32 14 14 (150528)
I0403 19:33:39.050112  9384 net.cpp:156] Memory required for data: 1132858656
I0403 19:33:39.050127  9384 layer_factory.hpp:77] Creating layer inception_4d/5x5
I0403 19:33:39.050155  9384 net.cpp:91] Creating Layer inception_4d/5x5
I0403 19:33:39.050173  9384 net.cpp:425] inception_4d/5x5 <- inception_4d/5x5_reduce
I0403 19:33:39.050196  9384 net.cpp:399] inception_4d/5x5 -> inception_4d/5x5
I0403 19:33:39.051614  9384 net.cpp:141] Setting up inception_4d/5x5
I0403 19:33:39.051642  9384 net.cpp:148] Top shape: 24 64 14 14 (301056)
I0403 19:33:39.051658  9384 net.cpp:156] Memory required for data: 1134062880
I0403 19:33:39.051676  9384 layer_factory.hpp:77] Creating layer inception_4d/relu_5x5
I0403 19:33:39.051712  9384 net.cpp:91] Creating Layer inception_4d/relu_5x5
I0403 19:33:39.051729  9384 net.cpp:425] inception_4d/relu_5x5 <- inception_4d/5x5
I0403 19:33:39.051748  9384 net.cpp:386] inception_4d/relu_5x5 -> inception_4d/5x5 (in-place)
I0403 19:33:39.052037  9384 net.cpp:141] Setting up inception_4d/relu_5x5
I0403 19:33:39.052063  9384 net.cpp:148] Top shape: 24 64 14 14 (301056)
I0403 19:33:39.052078  9384 net.cpp:156] Memory required for data: 1135267104
I0403 19:33:39.052093  9384 layer_factory.hpp:77] Creating layer inception_4d/pool
I0403 19:33:39.052112  9384 net.cpp:91] Creating Layer inception_4d/pool
I0403 19:33:39.052130  9384 net.cpp:425] inception_4d/pool <- inception_4c/output_inception_4c/output_0_split_3
I0403 19:33:39.052150  9384 net.cpp:399] inception_4d/pool -> inception_4d/pool
I0403 19:33:39.052214  9384 net.cpp:141] Setting up inception_4d/pool
I0403 19:33:39.052238  9384 net.cpp:148] Top shape: 24 512 14 14 (2408448)
I0403 19:33:39.052253  9384 net.cpp:156] Memory required for data: 1144900896
I0403 19:33:39.052268  9384 layer_factory.hpp:77] Creating layer inception_4d/pool_proj
I0403 19:33:39.052290  9384 net.cpp:91] Creating Layer inception_4d/pool_proj
I0403 19:33:39.052309  9384 net.cpp:425] inception_4d/pool_proj <- inception_4d/pool
I0403 19:33:39.052328  9384 net.cpp:399] inception_4d/pool_proj -> inception_4d/pool_proj
I0403 19:33:39.054024  9384 net.cpp:141] Setting up inception_4d/pool_proj
I0403 19:33:39.054055  9384 net.cpp:148] Top shape: 24 64 14 14 (301056)
I0403 19:33:39.054072  9384 net.cpp:156] Memory required for data: 1146105120
I0403 19:33:39.054091  9384 layer_factory.hpp:77] Creating layer inception_4d/relu_pool_proj
I0403 19:33:39.054110  9384 net.cpp:91] Creating Layer inception_4d/relu_pool_proj
I0403 19:33:39.054126  9384 net.cpp:425] inception_4d/relu_pool_proj <- inception_4d/pool_proj
I0403 19:33:39.054147  9384 net.cpp:386] inception_4d/relu_pool_proj -> inception_4d/pool_proj (in-place)
I0403 19:33:39.054322  9384 net.cpp:141] Setting up inception_4d/relu_pool_proj
I0403 19:33:39.054347  9384 net.cpp:148] Top shape: 24 64 14 14 (301056)
I0403 19:33:39.054361  9384 net.cpp:156] Memory required for data: 1147309344
I0403 19:33:39.054376  9384 layer_factory.hpp:77] Creating layer inception_4d/output
I0403 19:33:39.054394  9384 net.cpp:91] Creating Layer inception_4d/output
I0403 19:33:39.054410  9384 net.cpp:425] inception_4d/output <- inception_4d/1x1
I0403 19:33:39.054433  9384 net.cpp:425] inception_4d/output <- inception_4d/3x3
I0403 19:33:39.054450  9384 net.cpp:425] inception_4d/output <- inception_4d/5x5
I0403 19:33:39.054472  9384 net.cpp:425] inception_4d/output <- inception_4d/pool_proj
I0403 19:33:39.054494  9384 net.cpp:399] inception_4d/output -> inception_4d/output
I0403 19:33:39.054540  9384 net.cpp:141] Setting up inception_4d/output
I0403 19:33:39.054566  9384 net.cpp:148] Top shape: 24 528 14 14 (2483712)
I0403 19:33:39.054582  9384 net.cpp:156] Memory required for data: 1157244192
I0403 19:33:39.054597  9384 layer_factory.hpp:77] Creating layer inception_4d/output_inception_4d/output_0_split
I0403 19:33:39.054615  9384 net.cpp:91] Creating Layer inception_4d/output_inception_4d/output_0_split
I0403 19:33:39.054630  9384 net.cpp:425] inception_4d/output_inception_4d/output_0_split <- inception_4d/output
I0403 19:33:39.054651  9384 net.cpp:399] inception_4d/output_inception_4d/output_0_split -> inception_4d/output_inception_4d/output_0_split_0
I0403 19:33:39.054672  9384 net.cpp:399] inception_4d/output_inception_4d/output_0_split -> inception_4d/output_inception_4d/output_0_split_1
I0403 19:33:39.054693  9384 net.cpp:399] inception_4d/output_inception_4d/output_0_split -> inception_4d/output_inception_4d/output_0_split_2
I0403 19:33:39.054715  9384 net.cpp:399] inception_4d/output_inception_4d/output_0_split -> inception_4d/output_inception_4d/output_0_split_3
I0403 19:33:39.054735  9384 net.cpp:399] inception_4d/output_inception_4d/output_0_split -> inception_4d/output_inception_4d/output_0_split_4
I0403 19:33:39.054832  9384 net.cpp:141] Setting up inception_4d/output_inception_4d/output_0_split
I0403 19:33:39.054869  9384 net.cpp:148] Top shape: 24 528 14 14 (2483712)
I0403 19:33:39.054888  9384 net.cpp:148] Top shape: 24 528 14 14 (2483712)
I0403 19:33:39.054904  9384 net.cpp:148] Top shape: 24 528 14 14 (2483712)
I0403 19:33:39.054919  9384 net.cpp:148] Top shape: 24 528 14 14 (2483712)
I0403 19:33:39.054934  9384 net.cpp:148] Top shape: 24 528 14 14 (2483712)
I0403 19:33:39.054949  9384 net.cpp:156] Memory required for data: 1206918432
I0403 19:33:39.054963  9384 layer_factory.hpp:77] Creating layer loss2/ave_pool
I0403 19:33:39.054982  9384 net.cpp:91] Creating Layer loss2/ave_pool
I0403 19:33:39.054997  9384 net.cpp:425] loss2/ave_pool <- inception_4d/output_inception_4d/output_0_split_0
I0403 19:33:39.055017  9384 net.cpp:399] loss2/ave_pool -> loss2/ave_pool
I0403 19:33:39.055331  9384 net.cpp:141] Setting up loss2/ave_pool
I0403 19:33:39.055361  9384 net.cpp:148] Top shape: 24 528 4 4 (202752)
I0403 19:33:39.055378  9384 net.cpp:156] Memory required for data: 1207729440
I0403 19:33:39.055393  9384 layer_factory.hpp:77] Creating layer loss2/conv
I0403 19:33:39.055418  9384 net.cpp:91] Creating Layer loss2/conv
I0403 19:33:39.055436  9384 net.cpp:425] loss2/conv <- loss2/ave_pool
I0403 19:33:39.055456  9384 net.cpp:399] loss2/conv -> loss2/conv
I0403 19:33:39.057278  9384 net.cpp:141] Setting up loss2/conv
I0403 19:33:39.057307  9384 net.cpp:148] Top shape: 24 128 4 4 (49152)
I0403 19:33:39.057322  9384 net.cpp:156] Memory required for data: 1207926048
I0403 19:33:39.057339  9384 layer_factory.hpp:77] Creating layer loss2/relu_conv
I0403 19:33:39.057360  9384 net.cpp:91] Creating Layer loss2/relu_conv
I0403 19:33:39.057379  9384 net.cpp:425] loss2/relu_conv <- loss2/conv
I0403 19:33:39.057396  9384 net.cpp:386] loss2/relu_conv -> loss2/conv (in-place)
I0403 19:33:39.057675  9384 net.cpp:141] Setting up loss2/relu_conv
I0403 19:33:39.057703  9384 net.cpp:148] Top shape: 24 128 4 4 (49152)
I0403 19:33:39.057728  9384 net.cpp:156] Memory required for data: 1208122656
I0403 19:33:39.057742  9384 layer_factory.hpp:77] Creating layer loss2/fc
I0403 19:33:39.057763  9384 net.cpp:91] Creating Layer loss2/fc
I0403 19:33:39.057790  9384 net.cpp:425] loss2/fc <- loss2/conv
I0403 19:33:39.057811  9384 net.cpp:399] loss2/fc -> loss2/fc
I0403 19:33:39.074479  9384 net.cpp:141] Setting up loss2/fc
I0403 19:33:39.074512  9384 net.cpp:148] Top shape: 24 1024 (24576)
I0403 19:33:39.074528  9384 net.cpp:156] Memory required for data: 1208220960
I0403 19:33:39.074548  9384 layer_factory.hpp:77] Creating layer loss2/relu_fc
I0403 19:33:39.074565  9384 net.cpp:91] Creating Layer loss2/relu_fc
I0403 19:33:39.074582  9384 net.cpp:425] loss2/relu_fc <- loss2/fc
I0403 19:33:39.074602  9384 net.cpp:386] loss2/relu_fc -> loss2/fc (in-place)
I0403 19:33:39.074890  9384 net.cpp:141] Setting up loss2/relu_fc
I0403 19:33:39.074916  9384 net.cpp:148] Top shape: 24 1024 (24576)
I0403 19:33:39.074933  9384 net.cpp:156] Memory required for data: 1208319264
I0403 19:33:39.074947  9384 layer_factory.hpp:77] Creating layer loss2/drop_fc
I0403 19:33:39.074966  9384 net.cpp:91] Creating Layer loss2/drop_fc
I0403 19:33:39.074982  9384 net.cpp:425] loss2/drop_fc <- loss2/fc
I0403 19:33:39.075003  9384 net.cpp:386] loss2/drop_fc -> loss2/fc (in-place)
I0403 19:33:39.075050  9384 net.cpp:141] Setting up loss2/drop_fc
I0403 19:33:39.075075  9384 net.cpp:148] Top shape: 24 1024 (24576)
I0403 19:33:39.075093  9384 net.cpp:156] Memory required for data: 1208417568
I0403 19:33:39.075108  9384 layer_factory.hpp:77] Creating layer loss2/classifier_plantvillage
I0403 19:33:39.075125  9384 net.cpp:91] Creating Layer loss2/classifier_plantvillage
I0403 19:33:39.075141  9384 net.cpp:425] loss2/classifier_plantvillage <- loss2/fc
I0403 19:33:39.075162  9384 net.cpp:399] loss2/classifier_plantvillage -> loss2/classifier_plantvillage
I0403 19:33:39.075551  9384 net.cpp:141] Setting up loss2/classifier_plantvillage
I0403 19:33:39.075584  9384 net.cpp:148] Top shape: 24 38 (912)
I0403 19:33:39.075598  9384 net.cpp:156] Memory required for data: 1208421216
I0403 19:33:39.075633  9384 layer_factory.hpp:77] Creating layer loss2/classifier_plantvillage_loss2/classifier_plantvillage_0_split
I0403 19:33:39.075654  9384 net.cpp:91] Creating Layer loss2/classifier_plantvillage_loss2/classifier_plantvillage_0_split
I0403 19:33:39.075671  9384 net.cpp:425] loss2/classifier_plantvillage_loss2/classifier_plantvillage_0_split <- loss2/classifier_plantvillage
I0403 19:33:39.075688  9384 net.cpp:399] loss2/classifier_plantvillage_loss2/classifier_plantvillage_0_split -> loss2/classifier_plantvillage_loss2/classifier_plantvillage_0_split_0
I0403 19:33:39.075708  9384 net.cpp:399] loss2/classifier_plantvillage_loss2/classifier_plantvillage_0_split -> loss2/classifier_plantvillage_loss2/classifier_plantvillage_0_split_1
I0403 19:33:39.075729  9384 net.cpp:399] loss2/classifier_plantvillage_loss2/classifier_plantvillage_0_split -> loss2/classifier_plantvillage_loss2/classifier_plantvillage_0_split_2
I0403 19:33:39.075806  9384 net.cpp:141] Setting up loss2/classifier_plantvillage_loss2/classifier_plantvillage_0_split
I0403 19:33:39.075830  9384 net.cpp:148] Top shape: 24 38 (912)
I0403 19:33:39.075846  9384 net.cpp:148] Top shape: 24 38 (912)
I0403 19:33:39.075861  9384 net.cpp:148] Top shape: 24 38 (912)
I0403 19:33:39.075875  9384 net.cpp:156] Memory required for data: 1208432160
I0403 19:33:39.075889  9384 layer_factory.hpp:77] Creating layer inception_4e/1x1
I0403 19:33:39.075911  9384 net.cpp:91] Creating Layer inception_4e/1x1
I0403 19:33:39.075929  9384 net.cpp:425] inception_4e/1x1 <- inception_4d/output_inception_4d/output_0_split_1
I0403 19:33:39.075949  9384 net.cpp:399] inception_4e/1x1 -> inception_4e/1x1
I0403 19:33:39.077666  9384 net.cpp:141] Setting up inception_4e/1x1
I0403 19:33:39.077693  9384 net.cpp:148] Top shape: 24 256 14 14 (1204224)
I0403 19:33:39.077709  9384 net.cpp:156] Memory required for data: 1213249056
I0403 19:33:39.077728  9384 layer_factory.hpp:77] Creating layer inception_4e/relu_1x1
I0403 19:33:39.077747  9384 net.cpp:91] Creating Layer inception_4e/relu_1x1
I0403 19:33:39.077764  9384 net.cpp:425] inception_4e/relu_1x1 <- inception_4e/1x1
I0403 19:33:39.077782  9384 net.cpp:386] inception_4e/relu_1x1 -> inception_4e/1x1 (in-place)
I0403 19:33:39.078063  9384 net.cpp:141] Setting up inception_4e/relu_1x1
I0403 19:33:39.078089  9384 net.cpp:148] Top shape: 24 256 14 14 (1204224)
I0403 19:33:39.078104  9384 net.cpp:156] Memory required for data: 1218065952
I0403 19:33:39.078119  9384 layer_factory.hpp:77] Creating layer inception_4e/3x3_reduce
I0403 19:33:39.078141  9384 net.cpp:91] Creating Layer inception_4e/3x3_reduce
I0403 19:33:39.078160  9384 net.cpp:425] inception_4e/3x3_reduce <- inception_4d/output_inception_4d/output_0_split_2
I0403 19:33:39.078181  9384 net.cpp:399] inception_4e/3x3_reduce -> inception_4e/3x3_reduce
I0403 19:33:39.080246  9384 net.cpp:141] Setting up inception_4e/3x3_reduce
I0403 19:33:39.080276  9384 net.cpp:148] Top shape: 24 160 14 14 (752640)
I0403 19:33:39.080292  9384 net.cpp:156] Memory required for data: 1221076512
I0403 19:33:39.080310  9384 layer_factory.hpp:77] Creating layer inception_4e/relu_3x3_reduce
I0403 19:33:39.080328  9384 net.cpp:91] Creating Layer inception_4e/relu_3x3_reduce
I0403 19:33:39.080343  9384 net.cpp:425] inception_4e/relu_3x3_reduce <- inception_4e/3x3_reduce
I0403 19:33:39.080363  9384 net.cpp:386] inception_4e/relu_3x3_reduce -> inception_4e/3x3_reduce (in-place)
I0403 19:33:39.080544  9384 net.cpp:141] Setting up inception_4e/relu_3x3_reduce
I0403 19:33:39.080570  9384 net.cpp:148] Top shape: 24 160 14 14 (752640)
I0403 19:33:39.080585  9384 net.cpp:156] Memory required for data: 1224087072
I0403 19:33:39.080600  9384 layer_factory.hpp:77] Creating layer inception_4e/3x3
I0403 19:33:39.080621  9384 net.cpp:91] Creating Layer inception_4e/3x3
I0403 19:33:39.080639  9384 net.cpp:425] inception_4e/3x3 <- inception_4e/3x3_reduce
I0403 19:33:39.080660  9384 net.cpp:399] inception_4e/3x3 -> inception_4e/3x3
I0403 19:33:39.085417  9384 net.cpp:141] Setting up inception_4e/3x3
I0403 19:33:39.085456  9384 net.cpp:148] Top shape: 24 320 14 14 (1505280)
I0403 19:33:39.085477  9384 net.cpp:156] Memory required for data: 1230108192
I0403 19:33:39.085496  9384 layer_factory.hpp:77] Creating layer inception_4e/relu_3x3
I0403 19:33:39.085518  9384 net.cpp:91] Creating Layer inception_4e/relu_3x3
I0403 19:33:39.085535  9384 net.cpp:425] inception_4e/relu_3x3 <- inception_4e/3x3
I0403 19:33:39.085551  9384 net.cpp:386] inception_4e/relu_3x3 -> inception_4e/3x3 (in-place)
I0403 19:33:39.085839  9384 net.cpp:141] Setting up inception_4e/relu_3x3
I0403 19:33:39.085868  9384 net.cpp:148] Top shape: 24 320 14 14 (1505280)
I0403 19:33:39.085886  9384 net.cpp:156] Memory required for data: 1236129312
I0403 19:33:39.085901  9384 layer_factory.hpp:77] Creating layer inception_4e/5x5_reduce
I0403 19:33:39.085923  9384 net.cpp:91] Creating Layer inception_4e/5x5_reduce
I0403 19:33:39.085942  9384 net.cpp:425] inception_4e/5x5_reduce <- inception_4d/output_inception_4d/output_0_split_3
I0403 19:33:39.085961  9384 net.cpp:399] inception_4e/5x5_reduce -> inception_4e/5x5_reduce
I0403 19:33:39.086984  9384 net.cpp:141] Setting up inception_4e/5x5_reduce
I0403 19:33:39.087013  9384 net.cpp:148] Top shape: 24 32 14 14 (150528)
I0403 19:33:39.087028  9384 net.cpp:156] Memory required for data: 1236731424
I0403 19:33:39.087046  9384 layer_factory.hpp:77] Creating layer inception_4e/relu_5x5_reduce
I0403 19:33:39.087067  9384 net.cpp:91] Creating Layer inception_4e/relu_5x5_reduce
I0403 19:33:39.087085  9384 net.cpp:425] inception_4e/relu_5x5_reduce <- inception_4e/5x5_reduce
I0403 19:33:39.087103  9384 net.cpp:386] inception_4e/relu_5x5_reduce -> inception_4e/5x5_reduce (in-place)
I0403 19:33:39.087398  9384 net.cpp:141] Setting up inception_4e/relu_5x5_reduce
I0403 19:33:39.087432  9384 net.cpp:148] Top shape: 24 32 14 14 (150528)
I0403 19:33:39.087447  9384 net.cpp:156] Memory required for data: 1237333536
I0403 19:33:39.087466  9384 layer_factory.hpp:77] Creating layer inception_4e/5x5
I0403 19:33:39.087507  9384 net.cpp:91] Creating Layer inception_4e/5x5
I0403 19:33:39.087527  9384 net.cpp:425] inception_4e/5x5 <- inception_4e/5x5_reduce
I0403 19:33:39.087548  9384 net.cpp:399] inception_4e/5x5 -> inception_4e/5x5
I0403 19:33:39.089300  9384 net.cpp:141] Setting up inception_4e/5x5
I0403 19:33:39.089329  9384 net.cpp:148] Top shape: 24 128 14 14 (602112)
I0403 19:33:39.089345  9384 net.cpp:156] Memory required for data: 1239741984
I0403 19:33:39.089365  9384 layer_factory.hpp:77] Creating layer inception_4e/relu_5x5
I0403 19:33:39.089383  9384 net.cpp:91] Creating Layer inception_4e/relu_5x5
I0403 19:33:39.089401  9384 net.cpp:425] inception_4e/relu_5x5 <- inception_4e/5x5
I0403 19:33:39.089419  9384 net.cpp:386] inception_4e/relu_5x5 -> inception_4e/5x5 (in-place)
I0403 19:33:39.089610  9384 net.cpp:141] Setting up inception_4e/relu_5x5
I0403 19:33:39.089635  9384 net.cpp:148] Top shape: 24 128 14 14 (602112)
I0403 19:33:39.089650  9384 net.cpp:156] Memory required for data: 1242150432
I0403 19:33:39.089665  9384 layer_factory.hpp:77] Creating layer inception_4e/pool
I0403 19:33:39.089684  9384 net.cpp:91] Creating Layer inception_4e/pool
I0403 19:33:39.089700  9384 net.cpp:425] inception_4e/pool <- inception_4d/output_inception_4d/output_0_split_4
I0403 19:33:39.089720  9384 net.cpp:399] inception_4e/pool -> inception_4e/pool
I0403 19:33:39.089790  9384 net.cpp:141] Setting up inception_4e/pool
I0403 19:33:39.089815  9384 net.cpp:148] Top shape: 24 528 14 14 (2483712)
I0403 19:33:39.089829  9384 net.cpp:156] Memory required for data: 1252085280
I0403 19:33:39.089844  9384 layer_factory.hpp:77] Creating layer inception_4e/pool_proj
I0403 19:33:39.089867  9384 net.cpp:91] Creating Layer inception_4e/pool_proj
I0403 19:33:39.089884  9384 net.cpp:425] inception_4e/pool_proj <- inception_4e/pool
I0403 19:33:39.089905  9384 net.cpp:399] inception_4e/pool_proj -> inception_4e/pool_proj
I0403 19:33:39.091343  9384 net.cpp:141] Setting up inception_4e/pool_proj
I0403 19:33:39.091374  9384 net.cpp:148] Top shape: 24 128 14 14 (602112)
I0403 19:33:39.091403  9384 net.cpp:156] Memory required for data: 1254493728
I0403 19:33:39.091423  9384 layer_factory.hpp:77] Creating layer inception_4e/relu_pool_proj
I0403 19:33:39.091439  9384 net.cpp:91] Creating Layer inception_4e/relu_pool_proj
I0403 19:33:39.091456  9384 net.cpp:425] inception_4e/relu_pool_proj <- inception_4e/pool_proj
I0403 19:33:39.091482  9384 net.cpp:386] inception_4e/relu_pool_proj -> inception_4e/pool_proj (in-place)
I0403 19:33:39.091765  9384 net.cpp:141] Setting up inception_4e/relu_pool_proj
I0403 19:33:39.091796  9384 net.cpp:148] Top shape: 24 128 14 14 (602112)
I0403 19:33:39.091814  9384 net.cpp:156] Memory required for data: 1256902176
I0403 19:33:39.091828  9384 layer_factory.hpp:77] Creating layer inception_4e/output
I0403 19:33:39.091845  9384 net.cpp:91] Creating Layer inception_4e/output
I0403 19:33:39.091861  9384 net.cpp:425] inception_4e/output <- inception_4e/1x1
I0403 19:33:39.091882  9384 net.cpp:425] inception_4e/output <- inception_4e/3x3
I0403 19:33:39.091900  9384 net.cpp:425] inception_4e/output <- inception_4e/5x5
I0403 19:33:39.091918  9384 net.cpp:425] inception_4e/output <- inception_4e/pool_proj
I0403 19:33:39.091938  9384 net.cpp:399] inception_4e/output -> inception_4e/output
I0403 19:33:39.091985  9384 net.cpp:141] Setting up inception_4e/output
I0403 19:33:39.092010  9384 net.cpp:148] Top shape: 24 832 14 14 (3913728)
I0403 19:33:39.092023  9384 net.cpp:156] Memory required for data: 1272557088
I0403 19:33:39.092038  9384 layer_factory.hpp:77] Creating layer pool4/3x3_s2
I0403 19:33:39.092057  9384 net.cpp:91] Creating Layer pool4/3x3_s2
I0403 19:33:39.092073  9384 net.cpp:425] pool4/3x3_s2 <- inception_4e/output
I0403 19:33:39.092092  9384 net.cpp:399] pool4/3x3_s2 -> pool4/3x3_s2
I0403 19:33:39.092159  9384 net.cpp:141] Setting up pool4/3x3_s2
I0403 19:33:39.092191  9384 net.cpp:148] Top shape: 24 832 7 7 (978432)
I0403 19:33:39.092206  9384 net.cpp:156] Memory required for data: 1276470816
I0403 19:33:39.092221  9384 layer_factory.hpp:77] Creating layer pool4/3x3_s2_pool4/3x3_s2_0_split
I0403 19:33:39.092238  9384 net.cpp:91] Creating Layer pool4/3x3_s2_pool4/3x3_s2_0_split
I0403 19:33:39.092253  9384 net.cpp:425] pool4/3x3_s2_pool4/3x3_s2_0_split <- pool4/3x3_s2
I0403 19:33:39.092272  9384 net.cpp:399] pool4/3x3_s2_pool4/3x3_s2_0_split -> pool4/3x3_s2_pool4/3x3_s2_0_split_0
I0403 19:33:39.092294  9384 net.cpp:399] pool4/3x3_s2_pool4/3x3_s2_0_split -> pool4/3x3_s2_pool4/3x3_s2_0_split_1
I0403 19:33:39.092315  9384 net.cpp:399] pool4/3x3_s2_pool4/3x3_s2_0_split -> pool4/3x3_s2_pool4/3x3_s2_0_split_2
I0403 19:33:39.092336  9384 net.cpp:399] pool4/3x3_s2_pool4/3x3_s2_0_split -> pool4/3x3_s2_pool4/3x3_s2_0_split_3
I0403 19:33:39.092423  9384 net.cpp:141] Setting up pool4/3x3_s2_pool4/3x3_s2_0_split
I0403 19:33:39.092447  9384 net.cpp:148] Top shape: 24 832 7 7 (978432)
I0403 19:33:39.092473  9384 net.cpp:148] Top shape: 24 832 7 7 (978432)
I0403 19:33:39.092492  9384 net.cpp:148] Top shape: 24 832 7 7 (978432)
I0403 19:33:39.092509  9384 net.cpp:148] Top shape: 24 832 7 7 (978432)
I0403 19:33:39.092524  9384 net.cpp:156] Memory required for data: 1292125728
I0403 19:33:39.092538  9384 layer_factory.hpp:77] Creating layer inception_5a/1x1
I0403 19:33:39.092561  9384 net.cpp:91] Creating Layer inception_5a/1x1
I0403 19:33:39.092579  9384 net.cpp:425] inception_5a/1x1 <- pool4/3x3_s2_pool4/3x3_s2_0_split_0
I0403 19:33:39.092602  9384 net.cpp:399] inception_5a/1x1 -> inception_5a/1x1
I0403 19:33:39.095299  9384 net.cpp:141] Setting up inception_5a/1x1
I0403 19:33:39.095327  9384 net.cpp:148] Top shape: 24 256 7 7 (301056)
I0403 19:33:39.095345  9384 net.cpp:156] Memory required for data: 1293329952
I0403 19:33:39.095362  9384 layer_factory.hpp:77] Creating layer inception_5a/relu_1x1
I0403 19:33:39.095381  9384 net.cpp:91] Creating Layer inception_5a/relu_1x1
I0403 19:33:39.095396  9384 net.cpp:425] inception_5a/relu_1x1 <- inception_5a/1x1
I0403 19:33:39.095415  9384 net.cpp:386] inception_5a/relu_1x1 -> inception_5a/1x1 (in-place)
I0403 19:33:39.095726  9384 net.cpp:141] Setting up inception_5a/relu_1x1
I0403 19:33:39.095752  9384 net.cpp:148] Top shape: 24 256 7 7 (301056)
I0403 19:33:39.095767  9384 net.cpp:156] Memory required for data: 1294534176
I0403 19:33:39.095783  9384 layer_factory.hpp:77] Creating layer inception_5a/3x3_reduce
I0403 19:33:39.095805  9384 net.cpp:91] Creating Layer inception_5a/3x3_reduce
I0403 19:33:39.095824  9384 net.cpp:425] inception_5a/3x3_reduce <- pool4/3x3_s2_pool4/3x3_s2_0_split_1
I0403 19:33:39.095846  9384 net.cpp:399] inception_5a/3x3_reduce -> inception_5a/3x3_reduce
I0403 19:33:39.098191  9384 net.cpp:141] Setting up inception_5a/3x3_reduce
I0403 19:33:39.098219  9384 net.cpp:148] Top shape: 24 160 7 7 (188160)
I0403 19:33:39.098234  9384 net.cpp:156] Memory required for data: 1295286816
I0403 19:33:39.098255  9384 layer_factory.hpp:77] Creating layer inception_5a/relu_3x3_reduce
I0403 19:33:39.098275  9384 net.cpp:91] Creating Layer inception_5a/relu_3x3_reduce
I0403 19:33:39.098292  9384 net.cpp:425] inception_5a/relu_3x3_reduce <- inception_5a/3x3_reduce
I0403 19:33:39.098309  9384 net.cpp:386] inception_5a/relu_3x3_reduce -> inception_5a/3x3_reduce (in-place)
I0403 19:33:39.098496  9384 net.cpp:141] Setting up inception_5a/relu_3x3_reduce
I0403 19:33:39.098521  9384 net.cpp:148] Top shape: 24 160 7 7 (188160)
I0403 19:33:39.098536  9384 net.cpp:156] Memory required for data: 1296039456
I0403 19:33:39.098551  9384 layer_factory.hpp:77] Creating layer inception_5a/3x3
I0403 19:33:39.098574  9384 net.cpp:91] Creating Layer inception_5a/3x3
I0403 19:33:39.098592  9384 net.cpp:425] inception_5a/3x3 <- inception_5a/3x3_reduce
I0403 19:33:39.098613  9384 net.cpp:399] inception_5a/3x3 -> inception_5a/3x3
I0403 19:33:39.103396  9384 net.cpp:141] Setting up inception_5a/3x3
I0403 19:33:39.103425  9384 net.cpp:148] Top shape: 24 320 7 7 (376320)
I0403 19:33:39.103441  9384 net.cpp:156] Memory required for data: 1297544736
I0403 19:33:39.103463  9384 layer_factory.hpp:77] Creating layer inception_5a/relu_3x3
I0403 19:33:39.103483  9384 net.cpp:91] Creating Layer inception_5a/relu_3x3
I0403 19:33:39.103500  9384 net.cpp:425] inception_5a/relu_3x3 <- inception_5a/3x3
I0403 19:33:39.103520  9384 net.cpp:386] inception_5a/relu_3x3 -> inception_5a/3x3 (in-place)
I0403 19:33:39.103811  9384 net.cpp:141] Setting up inception_5a/relu_3x3
I0403 19:33:39.103839  9384 net.cpp:148] Top shape: 24 320 7 7 (376320)
I0403 19:33:39.103854  9384 net.cpp:156] Memory required for data: 1299050016
I0403 19:33:39.103869  9384 layer_factory.hpp:77] Creating layer inception_5a/5x5_reduce
I0403 19:33:39.103893  9384 net.cpp:91] Creating Layer inception_5a/5x5_reduce
I0403 19:33:39.103912  9384 net.cpp:425] inception_5a/5x5_reduce <- pool4/3x3_s2_pool4/3x3_s2_0_split_2
I0403 19:33:39.103934  9384 net.cpp:399] inception_5a/5x5_reduce -> inception_5a/5x5_reduce
I0403 19:33:39.105058  9384 net.cpp:141] Setting up inception_5a/5x5_reduce
I0403 19:33:39.105087  9384 net.cpp:148] Top shape: 24 32 7 7 (37632)
I0403 19:33:39.105103  9384 net.cpp:156] Memory required for data: 1299200544
I0403 19:33:39.105121  9384 layer_factory.hpp:77] Creating layer inception_5a/relu_5x5_reduce
I0403 19:33:39.105141  9384 net.cpp:91] Creating Layer inception_5a/relu_5x5_reduce
I0403 19:33:39.105159  9384 net.cpp:425] inception_5a/relu_5x5_reduce <- inception_5a/5x5_reduce
I0403 19:33:39.105178  9384 net.cpp:386] inception_5a/relu_5x5_reduce -> inception_5a/5x5_reduce (in-place)
I0403 19:33:39.105475  9384 net.cpp:141] Setting up inception_5a/relu_5x5_reduce
I0403 19:33:39.105500  9384 net.cpp:148] Top shape: 24 32 7 7 (37632)
I0403 19:33:39.105516  9384 net.cpp:156] Memory required for data: 1299351072
I0403 19:33:39.105530  9384 layer_factory.hpp:77] Creating layer inception_5a/5x5
I0403 19:33:39.105554  9384 net.cpp:91] Creating Layer inception_5a/5x5
I0403 19:33:39.105572  9384 net.cpp:425] inception_5a/5x5 <- inception_5a/5x5_reduce
I0403 19:33:39.105594  9384 net.cpp:399] inception_5a/5x5 -> inception_5a/5x5
I0403 19:33:39.107230  9384 net.cpp:141] Setting up inception_5a/5x5
I0403 19:33:39.107270  9384 net.cpp:148] Top shape: 24 128 7 7 (150528)
I0403 19:33:39.107295  9384 net.cpp:156] Memory required for data: 1299953184
I0403 19:33:39.107312  9384 layer_factory.hpp:77] Creating layer inception_5a/relu_5x5
I0403 19:33:39.107329  9384 net.cpp:91] Creating Layer inception_5a/relu_5x5
I0403 19:33:39.107347  9384 net.cpp:425] inception_5a/relu_5x5 <- inception_5a/5x5
I0403 19:33:39.107367  9384 net.cpp:386] inception_5a/relu_5x5 -> inception_5a/5x5 (in-place)
I0403 19:33:39.107554  9384 net.cpp:141] Setting up inception_5a/relu_5x5
I0403 19:33:39.107589  9384 net.cpp:148] Top shape: 24 128 7 7 (150528)
I0403 19:33:39.107604  9384 net.cpp:156] Memory required for data: 1300555296
I0403 19:33:39.107619  9384 layer_factory.hpp:77] Creating layer inception_5a/pool
I0403 19:33:39.107638  9384 net.cpp:91] Creating Layer inception_5a/pool
I0403 19:33:39.107657  9384 net.cpp:425] inception_5a/pool <- pool4/3x3_s2_pool4/3x3_s2_0_split_3
I0403 19:33:39.107676  9384 net.cpp:399] inception_5a/pool -> inception_5a/pool
I0403 19:33:39.107745  9384 net.cpp:141] Setting up inception_5a/pool
I0403 19:33:39.107769  9384 net.cpp:148] Top shape: 24 832 7 7 (978432)
I0403 19:33:39.107784  9384 net.cpp:156] Memory required for data: 1304469024
I0403 19:33:39.107798  9384 layer_factory.hpp:77] Creating layer inception_5a/pool_proj
I0403 19:33:39.107820  9384 net.cpp:91] Creating Layer inception_5a/pool_proj
I0403 19:33:39.107837  9384 net.cpp:425] inception_5a/pool_proj <- inception_5a/pool
I0403 19:33:39.107858  9384 net.cpp:399] inception_5a/pool_proj -> inception_5a/pool_proj
I0403 19:33:39.110028  9384 net.cpp:141] Setting up inception_5a/pool_proj
I0403 19:33:39.110059  9384 net.cpp:148] Top shape: 24 128 7 7 (150528)
I0403 19:33:39.110074  9384 net.cpp:156] Memory required for data: 1305071136
I0403 19:33:39.110092  9384 layer_factory.hpp:77] Creating layer inception_5a/relu_pool_proj
I0403 19:33:39.110110  9384 net.cpp:91] Creating Layer inception_5a/relu_pool_proj
I0403 19:33:39.110126  9384 net.cpp:425] inception_5a/relu_pool_proj <- inception_5a/pool_proj
I0403 19:33:39.110146  9384 net.cpp:386] inception_5a/relu_pool_proj -> inception_5a/pool_proj (in-place)
I0403 19:33:39.110427  9384 net.cpp:141] Setting up inception_5a/relu_pool_proj
I0403 19:33:39.110455  9384 net.cpp:148] Top shape: 24 128 7 7 (150528)
I0403 19:33:39.110476  9384 net.cpp:156] Memory required for data: 1305673248
I0403 19:33:39.110492  9384 layer_factory.hpp:77] Creating layer inception_5a/output
I0403 19:33:39.110510  9384 net.cpp:91] Creating Layer inception_5a/output
I0403 19:33:39.110527  9384 net.cpp:425] inception_5a/output <- inception_5a/1x1
I0403 19:33:39.110544  9384 net.cpp:425] inception_5a/output <- inception_5a/3x3
I0403 19:33:39.110560  9384 net.cpp:425] inception_5a/output <- inception_5a/5x5
I0403 19:33:39.110575  9384 net.cpp:425] inception_5a/output <- inception_5a/pool_proj
I0403 19:33:39.110594  9384 net.cpp:399] inception_5a/output -> inception_5a/output
I0403 19:33:39.110644  9384 net.cpp:141] Setting up inception_5a/output
I0403 19:33:39.110668  9384 net.cpp:148] Top shape: 24 832 7 7 (978432)
I0403 19:33:39.110682  9384 net.cpp:156] Memory required for data: 1309586976
I0403 19:33:39.110697  9384 layer_factory.hpp:77] Creating layer inception_5a/output_inception_5a/output_0_split
I0403 19:33:39.110716  9384 net.cpp:91] Creating Layer inception_5a/output_inception_5a/output_0_split
I0403 19:33:39.110733  9384 net.cpp:425] inception_5a/output_inception_5a/output_0_split <- inception_5a/output
I0403 19:33:39.110751  9384 net.cpp:399] inception_5a/output_inception_5a/output_0_split -> inception_5a/output_inception_5a/output_0_split_0
I0403 19:33:39.110772  9384 net.cpp:399] inception_5a/output_inception_5a/output_0_split -> inception_5a/output_inception_5a/output_0_split_1
I0403 19:33:39.110792  9384 net.cpp:399] inception_5a/output_inception_5a/output_0_split -> inception_5a/output_inception_5a/output_0_split_2
I0403 19:33:39.110816  9384 net.cpp:399] inception_5a/output_inception_5a/output_0_split -> inception_5a/output_inception_5a/output_0_split_3
I0403 19:33:39.110924  9384 net.cpp:141] Setting up inception_5a/output_inception_5a/output_0_split
I0403 19:33:39.110949  9384 net.cpp:148] Top shape: 24 832 7 7 (978432)
I0403 19:33:39.110965  9384 net.cpp:148] Top shape: 24 832 7 7 (978432)
I0403 19:33:39.110981  9384 net.cpp:148] Top shape: 24 832 7 7 (978432)
I0403 19:33:39.110997  9384 net.cpp:148] Top shape: 24 832 7 7 (978432)
I0403 19:33:39.111011  9384 net.cpp:156] Memory required for data: 1325241888
I0403 19:33:39.111026  9384 layer_factory.hpp:77] Creating layer inception_5b/1x1
I0403 19:33:39.111047  9384 net.cpp:91] Creating Layer inception_5b/1x1
I0403 19:33:39.111065  9384 net.cpp:425] inception_5b/1x1 <- inception_5a/output_inception_5a/output_0_split_0
I0403 19:33:39.111088  9384 net.cpp:399] inception_5b/1x1 -> inception_5b/1x1
I0403 19:33:39.114672  9384 net.cpp:141] Setting up inception_5b/1x1
I0403 19:33:39.114704  9384 net.cpp:148] Top shape: 24 384 7 7 (451584)
I0403 19:33:39.114720  9384 net.cpp:156] Memory required for data: 1327048224
I0403 19:33:39.114738  9384 layer_factory.hpp:77] Creating layer inception_5b/relu_1x1
I0403 19:33:39.114755  9384 net.cpp:91] Creating Layer inception_5b/relu_1x1
I0403 19:33:39.114771  9384 net.cpp:425] inception_5b/relu_1x1 <- inception_5b/1x1
I0403 19:33:39.114791  9384 net.cpp:386] inception_5b/relu_1x1 -> inception_5b/1x1 (in-place)
I0403 19:33:39.115087  9384 net.cpp:141] Setting up inception_5b/relu_1x1
I0403 19:33:39.115114  9384 net.cpp:148] Top shape: 24 384 7 7 (451584)
I0403 19:33:39.115131  9384 net.cpp:156] Memory required for data: 1328854560
I0403 19:33:39.115147  9384 layer_factory.hpp:77] Creating layer inception_5b/3x3_reduce
I0403 19:33:39.115170  9384 net.cpp:91] Creating Layer inception_5b/3x3_reduce
I0403 19:33:39.115188  9384 net.cpp:425] inception_5b/3x3_reduce <- inception_5a/output_inception_5a/output_0_split_1
I0403 19:33:39.115208  9384 net.cpp:399] inception_5b/3x3_reduce -> inception_5b/3x3_reduce
I0403 19:33:39.117754  9384 net.cpp:141] Setting up inception_5b/3x3_reduce
I0403 19:33:39.117786  9384 net.cpp:148] Top shape: 24 192 7 7 (225792)
I0403 19:33:39.117804  9384 net.cpp:156] Memory required for data: 1329757728
I0403 19:33:39.117823  9384 layer_factory.hpp:77] Creating layer inception_5b/relu_3x3_reduce
I0403 19:33:39.117841  9384 net.cpp:91] Creating Layer inception_5b/relu_3x3_reduce
I0403 19:33:39.117857  9384 net.cpp:425] inception_5b/relu_3x3_reduce <- inception_5b/3x3_reduce
I0403 19:33:39.117876  9384 net.cpp:386] inception_5b/relu_3x3_reduce -> inception_5b/3x3_reduce (in-place)
I0403 19:33:39.118058  9384 net.cpp:141] Setting up inception_5b/relu_3x3_reduce
I0403 19:33:39.118083  9384 net.cpp:148] Top shape: 24 192 7 7 (225792)
I0403 19:33:39.118098  9384 net.cpp:156] Memory required for data: 1330660896
I0403 19:33:39.118113  9384 layer_factory.hpp:77] Creating layer inception_5b/3x3
I0403 19:33:39.118134  9384 net.cpp:91] Creating Layer inception_5b/3x3
I0403 19:33:39.118152  9384 net.cpp:425] inception_5b/3x3 <- inception_5b/3x3_reduce
I0403 19:33:39.118175  9384 net.cpp:399] inception_5b/3x3 -> inception_5b/3x3
I0403 19:33:39.124549  9384 net.cpp:141] Setting up inception_5b/3x3
I0403 19:33:39.124580  9384 net.cpp:148] Top shape: 24 384 7 7 (451584)
I0403 19:33:39.124596  9384 net.cpp:156] Memory required for data: 1332467232
I0403 19:33:39.124614  9384 layer_factory.hpp:77] Creating layer inception_5b/relu_3x3
I0403 19:33:39.124632  9384 net.cpp:91] Creating Layer inception_5b/relu_3x3
I0403 19:33:39.124647  9384 net.cpp:425] inception_5b/relu_3x3 <- inception_5b/3x3
I0403 19:33:39.124667  9384 net.cpp:386] inception_5b/relu_3x3 -> inception_5b/3x3 (in-place)
I0403 19:33:39.124954  9384 net.cpp:141] Setting up inception_5b/relu_3x3
I0403 19:33:39.124981  9384 net.cpp:148] Top shape: 24 384 7 7 (451584)
I0403 19:33:39.124997  9384 net.cpp:156] Memory required for data: 1334273568
I0403 19:33:39.125012  9384 layer_factory.hpp:77] Creating layer inception_5b/5x5_reduce
I0403 19:33:39.125051  9384 net.cpp:91] Creating Layer inception_5b/5x5_reduce
I0403 19:33:39.125069  9384 net.cpp:425] inception_5b/5x5_reduce <- inception_5a/output_inception_5a/output_0_split_2
I0403 19:33:39.125090  9384 net.cpp:399] inception_5b/5x5_reduce -> inception_5b/5x5_reduce
I0403 19:33:39.126308  9384 net.cpp:141] Setting up inception_5b/5x5_reduce
I0403 19:33:39.126338  9384 net.cpp:148] Top shape: 24 48 7 7 (56448)
I0403 19:33:39.126355  9384 net.cpp:156] Memory required for data: 1334499360
I0403 19:33:39.126374  9384 layer_factory.hpp:77] Creating layer inception_5b/relu_5x5_reduce
I0403 19:33:39.126394  9384 net.cpp:91] Creating Layer inception_5b/relu_5x5_reduce
I0403 19:33:39.126410  9384 net.cpp:425] inception_5b/relu_5x5_reduce <- inception_5b/5x5_reduce
I0403 19:33:39.126433  9384 net.cpp:386] inception_5b/relu_5x5_reduce -> inception_5b/5x5_reduce (in-place)
I0403 19:33:39.126799  9384 net.cpp:141] Setting up inception_5b/relu_5x5_reduce
I0403 19:33:39.126827  9384 net.cpp:148] Top shape: 24 48 7 7 (56448)
I0403 19:33:39.126840  9384 net.cpp:156] Memory required for data: 1334725152
I0403 19:33:39.126855  9384 layer_factory.hpp:77] Creating layer inception_5b/5x5
I0403 19:33:39.126876  9384 net.cpp:91] Creating Layer inception_5b/5x5
I0403 19:33:39.126893  9384 net.cpp:425] inception_5b/5x5 <- inception_5b/5x5_reduce
I0403 19:33:39.126912  9384 net.cpp:399] inception_5b/5x5 -> inception_5b/5x5
I0403 19:33:39.128872  9384 net.cpp:141] Setting up inception_5b/5x5
I0403 19:33:39.128901  9384 net.cpp:148] Top shape: 24 128 7 7 (150528)
I0403 19:33:39.128916  9384 net.cpp:156] Memory required for data: 1335327264
I0403 19:33:39.128933  9384 layer_factory.hpp:77] Creating layer inception_5b/relu_5x5
I0403 19:33:39.128952  9384 net.cpp:91] Creating Layer inception_5b/relu_5x5
I0403 19:33:39.128968  9384 net.cpp:425] inception_5b/relu_5x5 <- inception_5b/5x5
I0403 19:33:39.128988  9384 net.cpp:386] inception_5b/relu_5x5 -> inception_5b/5x5 (in-place)
I0403 19:33:39.129176  9384 net.cpp:141] Setting up inception_5b/relu_5x5
I0403 19:33:39.129201  9384 net.cpp:148] Top shape: 24 128 7 7 (150528)
I0403 19:33:39.129216  9384 net.cpp:156] Memory required for data: 1335929376
I0403 19:33:39.129231  9384 layer_factory.hpp:77] Creating layer inception_5b/pool
I0403 19:33:39.129252  9384 net.cpp:91] Creating Layer inception_5b/pool
I0403 19:33:39.129269  9384 net.cpp:425] inception_5b/pool <- inception_5a/output_inception_5a/output_0_split_3
I0403 19:33:39.129288  9384 net.cpp:399] inception_5b/pool -> inception_5b/pool
I0403 19:33:39.129360  9384 net.cpp:141] Setting up inception_5b/pool
I0403 19:33:39.129384  9384 net.cpp:148] Top shape: 24 832 7 7 (978432)
I0403 19:33:39.129400  9384 net.cpp:156] Memory required for data: 1339843104
I0403 19:33:39.129415  9384 layer_factory.hpp:77] Creating layer inception_5b/pool_proj
I0403 19:33:39.129436  9384 net.cpp:91] Creating Layer inception_5b/pool_proj
I0403 19:33:39.129456  9384 net.cpp:425] inception_5b/pool_proj <- inception_5b/pool
I0403 19:33:39.129482  9384 net.cpp:399] inception_5b/pool_proj -> inception_5b/pool_proj
I0403 19:33:39.131691  9384 net.cpp:141] Setting up inception_5b/pool_proj
I0403 19:33:39.131724  9384 net.cpp:148] Top shape: 24 128 7 7 (150528)
I0403 19:33:39.131742  9384 net.cpp:156] Memory required for data: 1340445216
I0403 19:33:39.131760  9384 layer_factory.hpp:77] Creating layer inception_5b/relu_pool_proj
I0403 19:33:39.131778  9384 net.cpp:91] Creating Layer inception_5b/relu_pool_proj
I0403 19:33:39.131795  9384 net.cpp:425] inception_5b/relu_pool_proj <- inception_5b/pool_proj
I0403 19:33:39.131814  9384 net.cpp:386] inception_5b/relu_pool_proj -> inception_5b/pool_proj (in-place)
I0403 19:33:39.132098  9384 net.cpp:141] Setting up inception_5b/relu_pool_proj
I0403 19:33:39.132128  9384 net.cpp:148] Top shape: 24 128 7 7 (150528)
I0403 19:33:39.132143  9384 net.cpp:156] Memory required for data: 1341047328
I0403 19:33:39.132158  9384 layer_factory.hpp:77] Creating layer inception_5b/output
I0403 19:33:39.132174  9384 net.cpp:91] Creating Layer inception_5b/output
I0403 19:33:39.132205  9384 net.cpp:425] inception_5b/output <- inception_5b/1x1
I0403 19:33:39.132223  9384 net.cpp:425] inception_5b/output <- inception_5b/3x3
I0403 19:33:39.132243  9384 net.cpp:425] inception_5b/output <- inception_5b/5x5
I0403 19:33:39.132269  9384 net.cpp:425] inception_5b/output <- inception_5b/pool_proj
I0403 19:33:39.132292  9384 net.cpp:399] inception_5b/output -> inception_5b/output
I0403 19:33:39.132340  9384 net.cpp:141] Setting up inception_5b/output
I0403 19:33:39.132364  9384 net.cpp:148] Top shape: 24 1024 7 7 (1204224)
I0403 19:33:39.132378  9384 net.cpp:156] Memory required for data: 1345864224
I0403 19:33:39.132393  9384 layer_factory.hpp:77] Creating layer pool5/7x7_s1
I0403 19:33:39.132416  9384 net.cpp:91] Creating Layer pool5/7x7_s1
I0403 19:33:39.132433  9384 net.cpp:425] pool5/7x7_s1 <- inception_5b/output
I0403 19:33:39.132452  9384 net.cpp:399] pool5/7x7_s1 -> pool5/7x7_s1
I0403 19:33:39.132679  9384 net.cpp:141] Setting up pool5/7x7_s1
I0403 19:33:39.132705  9384 net.cpp:148] Top shape: 24 1024 1 1 (24576)
I0403 19:33:39.132720  9384 net.cpp:156] Memory required for data: 1345962528
I0403 19:33:39.132735  9384 layer_factory.hpp:77] Creating layer pool5/drop_7x7_s1
I0403 19:33:39.132753  9384 net.cpp:91] Creating Layer pool5/drop_7x7_s1
I0403 19:33:39.132769  9384 net.cpp:425] pool5/drop_7x7_s1 <- pool5/7x7_s1
I0403 19:33:39.132789  9384 net.cpp:386] pool5/drop_7x7_s1 -> pool5/7x7_s1 (in-place)
I0403 19:33:39.132838  9384 net.cpp:141] Setting up pool5/drop_7x7_s1
I0403 19:33:39.132864  9384 net.cpp:148] Top shape: 24 1024 1 1 (24576)
I0403 19:33:39.132879  9384 net.cpp:156] Memory required for data: 1346060832
I0403 19:33:39.132894  9384 layer_factory.hpp:77] Creating layer loss3/classifier_plantvillage
I0403 19:33:39.132915  9384 net.cpp:91] Creating Layer loss3/classifier_plantvillage
I0403 19:33:39.132930  9384 net.cpp:425] loss3/classifier_plantvillage <- pool5/7x7_s1
I0403 19:33:39.132951  9384 net.cpp:399] loss3/classifier_plantvillage -> loss3/classifier_plantvillage
I0403 19:33:39.133354  9384 net.cpp:141] Setting up loss3/classifier_plantvillage
I0403 19:33:39.133381  9384 net.cpp:148] Top shape: 24 38 (912)
I0403 19:33:39.133399  9384 net.cpp:156] Memory required for data: 1346064480
I0403 19:33:39.133416  9384 layer_factory.hpp:77] Creating layer loss3/classifier_plantvillage_loss3/classifier_plantvillage_0_split
I0403 19:33:39.133435  9384 net.cpp:91] Creating Layer loss3/classifier_plantvillage_loss3/classifier_plantvillage_0_split
I0403 19:33:39.133451  9384 net.cpp:425] loss3/classifier_plantvillage_loss3/classifier_plantvillage_0_split <- loss3/classifier_plantvillage
I0403 19:33:39.133473  9384 net.cpp:399] loss3/classifier_plantvillage_loss3/classifier_plantvillage_0_split -> loss3/classifier_plantvillage_loss3/classifier_plantvillage_0_split_0
I0403 19:33:39.133494  9384 net.cpp:399] loss3/classifier_plantvillage_loss3/classifier_plantvillage_0_split -> loss3/classifier_plantvillage_loss3/classifier_plantvillage_0_split_1
I0403 19:33:39.133515  9384 net.cpp:399] loss3/classifier_plantvillage_loss3/classifier_plantvillage_0_split -> loss3/classifier_plantvillage_loss3/classifier_plantvillage_0_split_2
I0403 19:33:39.133539  9384 net.cpp:399] loss3/classifier_plantvillage_loss3/classifier_plantvillage_0_split -> loss3/classifier_plantvillage_loss3/classifier_plantvillage_0_split_3
I0403 19:33:39.133641  9384 net.cpp:141] Setting up loss3/classifier_plantvillage_loss3/classifier_plantvillage_0_split
I0403 19:33:39.133664  9384 net.cpp:148] Top shape: 24 38 (912)
I0403 19:33:39.133684  9384 net.cpp:148] Top shape: 24 38 (912)
I0403 19:33:39.133702  9384 net.cpp:148] Top shape: 24 38 (912)
I0403 19:33:39.133716  9384 net.cpp:148] Top shape: 24 38 (912)
I0403 19:33:39.133729  9384 net.cpp:156] Memory required for data: 1346079072
I0403 19:33:39.133745  9384 layer_factory.hpp:77] Creating layer loss1/loss
I0403 19:33:39.133769  9384 net.cpp:91] Creating Layer loss1/loss
I0403 19:33:39.133787  9384 net.cpp:425] loss1/loss <- loss1/classifier_plantvillage_loss1/classifier_plantvillage_0_split_0
I0403 19:33:39.133818  9384 net.cpp:425] loss1/loss <- label_data_1_split_0
…
