…
I0403 19:16:49.404769  9047 net.cpp:313] The NetState phase (1) differed from the phase (0) specified by a rule in layer data
I0403 19:16:49.406172  9047 net.cpp:49] Initializing net from parameters: 
state {
  phase: TEST
}
layer {
  name: "data"
  type: "Data"
  top: "data"
  top: "label"
  include {
    phase: TEST
  }
  transform_param {
    mirror: false
    crop_size: 224
    mean_file: "/home/mohanty/data/final_dataset/lmdb/color-60-40/mean.binaryproto"
  }
  data_param {
    source: "/home/mohanty/data/final_dataset/lmdb/color-60-40/test_db"
    batch_size: 24
    backend: LMDB
  }
}
layer {
  name: "conv1/7x7_s2"
  type: "Convolution"
  bottom: "data"
  top: "conv1/7x7_s2"
  param {
    lr_mult: 1
    decay_mult: 1
  }
  param {
    lr_mult: 2
    decay_mult: 0
  }
  convolution_param {
    num_output: 64
    pad: 3
    kernel_size: 7
    stride: 2
    weight_filler {
      type: "xavier"
      std: 0.1
    }
    bias_filler {
      type: "constant"
      value: 0.2
    }
  }
}
layer {
  name: "conv1/relu_7x7"
  type: "ReLU"
  bottom: "conv1/7x7_s2"
  top: "conv1/7x7_s2"
}
layer {
  name: "pool1/3x3_s2"
  type: "Pooling"
  bottom: "conv1/7x7_s2"
  top: "pool1/3x3_s2"
  pooling_param {
    pool: MAX
    kernel_size: 3
    stride: 2
  }
}
layer {
  name: "pool1/norm1"
  type: "LRN"
  bottom: "pool1/3x3_s2"
  top: "pool1/norm1"
  lrn_param {
    local_size: 5
    alpha: 0.0001
    beta: 0.75
  }
}
layer {
  name: "conv2/3x3_reduce"
  type: "Convolution"
  bottom: "pool1/norm1"
  top: "conv2/3x3_reduce"
  param {
    lr_mult: 1
    decay_mult: 1
  }
  param {
    lr_mult: 2
    decay_mult: 0
  }
  convolution_param {
    num_output: 64
    kernel_size: 1
    weight_filler {
      type: "xavier"
      std: 0.1
    }
    bias_filler {
      type: "constant"
      value: 0.2
    }
  }
}
layer {
  name: "conv2/relu_3x3_reduce"
  type: "ReLU"
  bottom: "conv2/3x3_reduce"
  top: "conv2/3x3_reduce"
}
layer {
  name: "conv2/3x3"
  type: "Convolution"
  bottom: "conv2/3x3_reduce"
  top: "conv2/3x3"
  param {
    lr_mult: 1
    decay_mult: 1
  }
  param {
    lr_mult: 2
    decay_mult: 0
  }
  convolution_param {
    num_output: 192
    pad: 1
    kernel_size: 3
    weight_filler {
      type: "xavier"
      std: 0.03
    }
    bias_filler {
      type: "constant"
      value: 0.2
    }
  }
}
layer {
  name: "conv2/relu_3x3"
  type: "ReLU"
  bottom: "conv2/3x3"
  top: "conv2/3x3"
}
layer {
  name: "conv2/norm2"
  type: "LRN"
  bottom: "conv2/3x3"
  top: "conv2/norm2"
  lrn_param {
    local_size: 5
    alpha: 0.0001
    beta: 0.75
  }
}
layer {
  name: "pool2/3x3_s2"
  type: "Pooling"
  bottom: "conv2/norm2"
  top: "pool2/3x3_s2"
  pooling_param {
    pool: MAX
    kernel_size: 3
    stride: 2
  }
}
layer {
  name: "inception_3a/1x1"
  type: "Convolution"
  bottom: "pool2/3x3_s2"
  top: "inception_3a/1x1"
  param {
    lr_mult: 1
    decay_mult: 1
  }
  param {
    lr_mult: 2
    decay_mult: 0
  }
  convolution_param {
    num_output: 64
    kernel_size: 1
    weight_filler {
      type: "xavier"
      std: 0.03
    }
    bias_filler {
      type: "constant"
      value: 0.2
    }
  }
}
layer {
  name: "inception_3a/relu_1x1"
  type: "ReLU"
  bottom: "inception_3a/1x1"
  top: "inception_3a/1x1"
}
layer {
  name: "inception_3a/3x3_reduce"
  type: "Convolution"
  bottom: "pool2/3x3_s2"
  top: "inception_3a/3x3_reduce"
  param {
    lr_mult: 1
    decay_mult: 1
  }
  param {
    lr_mult: 2
    decay_mult: 0
  }
  convolution_param {
    num_output: 96
    kernel_size: 1
    weight_filler {
      type: "xavier"
      std: 0.09
    }
    bias_filler {
      type: "constant"
      value: 0.2
    }
  }
}
layer {
  name: "inception_3a/relu_3x3_reduce"
  type: "ReLU"
  bottom: "inception_3a/3x3_reduce"
  top: "inception_3a/3x3_reduce"
}
layer {
  name: "inception_3a/3x3"
  type: "Convolution"
  bottom: "inception_3a/3x3_reduce"
  top: "inception_3a/3x3"
  param {
    lr_mult: 1
    decay_mult: 1
  }
  param {
    lr_mult: 2
    decay_mult: 0
  }
  convolution_param {
    num_output: 128
    pad: 1
    kernel_size: 3
    weight_filler {
      type: "xavier"
      std: 0.03
    }
    bias_filler {
      type: "constant"
      value: 0.2
    }
  }
}
layer {
  name: "inception_3a/relu_3x3"
  type: "ReLU"
  bottom: "inception_3a/3x3"
  top: "inception_3a/3x3"
}
layer {
  name: "inception_3a/5x5_reduce"
  type: "Convolution"
  bottom: "pool2/3x3_s2"
  top: "inception_3a/5x5_reduce"
  param {
    lr_mult: 1
    decay_mult: 1
  }
  param {
    lr_mult: 2
    decay_mult: 0
  }
  convolution_param {
    num_output: 16
    kernel_size: 1
    weight_filler {
      type: "xavier"
      std: 0.2
    }
    bias_filler {
      type: "constant"
      value: 0.2
    }
  }
}
layer {
  name: "inception_3a/relu_5x5_reduce"
  type: "ReLU"
  bottom: "inception_3a/5x5_reduce"
  top: "inception_3a/5x5_reduce"
}
layer {
  name: "inception_3a/5x5"
  type: "Convolution"
  bottom: "inception_3a/5x5_reduce"
  top: "inception_3a/5x5"
  param {
    lr_mult: 1
    decay_mult: 1
  }
  param {
    lr_mult: 2
    decay_mult: 0
  }
  convolution_param {
    num_output: 32
    pad: 2
    kernel_size: 5
    weight_filler {
      type: "xavier"
      std: 0.03
    }
    bias_filler {
      type: "constant"
      value: 0.2
    }
  }
}
layer {
  name: "inception_3a/relu_5x5"
  type: "ReLU"
  bottom: "inception_3a/5x5"
  top: "inception_3a/5x5"
}
layer {
  name: "inception_3a/pool"
  type: "Pooling"
  bottom: "pool2/3x3_s2"
  top: "inception_3a/pool"
  pooling_param {
    pool: MAX
    kernel_size: 3
    stride: 1
    pad: 1
  }
}
layer {
  name: "inception_3a/pool_proj"
  type: "Convolution"
  bottom: "inception_3a/pool"
  top: "inception_3a/pool_proj"
  param {
    lr_mult: 1
    decay_mult: 1
  }
  param {
    lr_mult: 2
    decay_mult: 0
  }
  convolution_param {
    num_output: 32
    kernel_size: 1
    weight_filler {
      type: "xavier"
      std: 0.1
    }
    bias_filler {
      type: "constant"
      value: 0.2
    }
  }
}
layer {
  name: "inception_3a/relu_pool_proj"
  type: "ReLU"
  bottom: "inception_3a/pool_proj"
  top: "inception_3a/pool_proj"
}
layer {
  name: "inception_3a/output"
  type: "Concat"
  bottom: "inception_3a/1x1"
  bottom: "inception_3a/3x3"
  bottom: "inception_3a/5x5"
  bottom: "inception_3a/pool_proj"
  top: "inception_3a/output"
}
layer {
  name: "inception_3b/1x1"
  type: "Convolution"
  bottom: "inception_3a/output"
  top: "inception_3b/1x1"
  param {
    lr_mult: 1
    decay_mult: 1
  }
  param {
    lr_mult: 2
    decay_mult: 0
  }
  convolution_param {
    num_output: 128
    kernel_size: 1
    weight_filler {
      type: "xavier"
      std: 0.03
    }
    bias_filler {
      type: "constant"
      value: 0.2
    }
  }
}
layer {
  name: "inception_3b/relu_1x1"
  type: "ReLU"
  bottom: "inception_3b/1x1"
  top: "inception_3b/1x1"
}
layer {
  name: "inception_3b/3x3_reduce"
  type: "Convolution"
  bottom: "inception_3a/output"
  top: "inception_3b/3x3_reduce"
  param {
    lr_mult: 1
    decay_mult: 1
  }
  param {
    lr_mult: 2
    decay_mult: 0
  }
  convolution_param {
    num_output: 128
    kernel_size: 1
    weight_filler {
      type: "xavier"
      std: 0.09
    }
    bias_filler {
      type: "constant"
      value: 0.2
    }
  }
}
layer {
  name: "inception_3b/relu_3x3_reduce"
  type: "ReLU"
  bottom: "inception_3b/3x3_reduce"
  top: "inception_3b/3x3_reduce"
}
layer {
  name: "inception_3b/3x3"
  type: "Convolution"
  bottom: "inception_3b/3x3_reduce"
  top: "inception_3b/3x3"
  param {
    lr_mult: 1
    decay_mult: 1
  }
  param {
    lr_mult: 2
    decay_mult: 0
  }
  convolution_param {
    num_output: 192
    pad: 1
    kernel_size: 3
    weight_filler {
      type: "xavier"
      std: 0.03
    }
    bias_filler {
      type: "constant"
      value: 0.2
    }
  }
}
layer {
  name: "inception_3b/relu_3x3"
  type: "ReLU"
  bottom: "inception_3b/3x3"
  top: "inception_3b/3x3"
}
layer {
  name: "inception_3b/5x5_reduce"
  type: "Convolution"
  bottom: "inception_3a/output"
  top: "inception_3b/5x5_reduce"
  param {
    lr_mult: 1
    decay_mult: 1
  }
  param {
    lr_mult: 2
    decay_mult: 0
  }
  convolution_param {
    num_output: 32
    kernel_size: 1
    weight_filler {
      type: "xavier"
      std: 0.2
    }
    bias_filler {
      type: "constant"
      value: 0.2
    }
  }
}
layer {
  name: "inception_3b/relu_5x5_reduce"
  type: "ReLU"
  bottom: "inception_3b/5x5_reduce"
  top: "inception_3b/5x5_reduce"
}
layer {
  name: "inception_3b/5x5"
  type: "Convolution"
  bottom: "inception_3b/5x5_reduce"
  top: "inception_3b/5x5"
  param {
    lr_mult: 1
    decay_mult: 1
  }
  param {
    lr_mult: 2
    decay_mult: 0
  }
  convolution_param {
    num_output: 96
    pad: 2
    kernel_size: 5
    weight_filler {
      type: "xavier"
      std: 0.03
    }
    bias_filler {
      type: "constant"
      value: 0.2
    }
  }
}
layer {
  name: "inception_3b/relu_5x5"
  type: "ReLU"
  bottom: "inception_3b/5x5"
  top: "inception_3b/5x5"
}
layer {
  name: "inception_3b/pool"
  type: "Pooling"
  bottom: "inception_3a/output"
  top: "inception_3b/pool"
  pooling_param {
    pool: MAX
    kernel_size: 3
    stride: 1
    pad: 1
  }
}
layer {
  name: "inception_3b/pool_proj"
  type: "Convolution"
  bottom: "inception_3b/pool"
  top: "inception_3b/pool_proj"
  param {
    lr_mult: 1
    decay_mult: 1
  }
  param {
    lr_mult: 2
    decay_mult: 0
  }
  convolution_param {
    num_output: 64
    kernel_size: 1
    weight_filler {
      type: "xavier"
      std: 0.1
    }
    bias_filler {
      type: "constant"
      value: 0.2
    }
  }
}
layer {
  name: "inception_3b/relu_pool_proj"
  type: "ReLU"
  bottom: "inception_3b/pool_proj"
  top: "inception_3b/pool_proj"
}
layer {
  name: "inception_3b/output"
  type: "Concat"
  bottom: "inception_3b/1x1"
  bottom: "inception_3b/3x3"
  bottom: "inception_3b/5x5"
  bottom: "inception_3b/pool_proj"
  top: "inception_3b/output"
}
layer {
  name: "pool3/3x3_s2"
  type: "Pooling"
  bottom: "inception_3b/output"
  top: "pool3/3x3_s2"
  pooling_param {
    pool: MAX
    kernel_size: 3
    stride: 2
  }
}
layer {
  name: "inception_4a/1x1"
  type: "Convolution"
  bottom: "pool3/3x3_s2"
  top: "inception_4a/1x1"
  param {
    lr_mult: 1
    decay_mult: 1
  }
  param {
    lr_mult: 2
    decay_mult: 0
  }
  convolution_param {
    num_output: 192
    kernel_size: 1
    weight_filler {
      type: "xavier"
      std: 0.03
    }
    bias_filler {
      type: "constant"
      value: 0.2
    }
  }
}
layer {
  name: "inception_4a/relu_1x1"
  type: "ReLU"
  bottom: "inception_4a/1x1"
  top: "inception_4a/1x1"
}
layer {
  name: "inception_4a/3x3_reduce"
  type: "Convolution"
  bottom: "pool3/3x3_s2"
  top: "inception_4a/3x3_reduce"
  param {
    lr_mult: 1
    decay_mult: 1
  }
  param {
    lr_mult: 2
    decay_mult: 0
  }
  convolution_param {
    num_output: 96
    kernel_size: 1
    weight_filler {
      type: "xavier"
      std: 0.09
    }
    bias_filler {
      type: "constant"
      value: 0.2
    }
  }
}
layer {
  name: "inception_4a/relu_3x3_reduce"
  type: "ReLU"
  bottom: "inception_4a/3x3_reduce"
  top: "inception_4a/3x3_reduce"
}
layer {
  name: "inception_4a/3x3"
  type: "Convolution"
  bottom: "inception_4a/3x3_reduce"
  top: "inception_4a/3x3"
  param {
    lr_mult: 1
    decay_mult: 1
  }
  param {
    lr_mult: 2
    decay_mult: 0
  }
  convolution_param {
    num_output: 208
    pad: 1
    kernel_size: 3
    weight_filler {
      type: "xavier"
      std: 0.03
    }
    bias_filler {
      type: "constant"
      value: 0.2
    }
  }
}
layer {
  name: "inception_4a/relu_3x3"
  type: "ReLU"
  bottom: "inception_4a/3x3"
  top: "inception_4a/3x3"
}
layer {
  name: "inception_4a/5x5_reduce"
  type: "Convolution"
  bottom: "pool3/3x3_s2"
  top: "inception_4a/5x5_reduce"
  param {
    lr_mult: 1
    decay_mult: 1
  }
  param {
    lr_mult: 2
    decay_mult: 0
  }
  convolution_param {
    num_output: 16
    kernel_size: 1
    weight_filler {
      type: "xavier"
      std: 0.2
    }
    bias_filler {
      type: "constant"
      value: 0.2
    }
  }
}
layer {
  name: "inception_4a/relu_5x5_reduce"
  type: "ReLU"
  bottom: "inception_4a/5x5_reduce"
  top: "inception_4a/5x5_reduce"
}
layer {
  name: "inception_4a/5x5"
  type: "Convolution"
  bottom: "inception_4a/5x5_reduce"
  top: "inception_4a/5x5"
  param {
    lr_mult: 1
    decay_mult: 1
  }
  param {
    lr_mult: 2
    decay_mult: 0
  }
  convolution_param {
    num_output: 48
    pad: 2
    kernel_size: 5
    weight_filler {
      type: "xavier"
      std: 0.03
    }
    bias_filler {
      type: "constant"
      value: 0.2
    }
  }
}
layer {
  name: "inception_4a/relu_5x5"
  type: "ReLU"
  bottom: "inception_4a/5x5"
  top: "inception_4a/5x5"
}
layer {
  name: "inception_4a/pool"
  type: "Pooling"
  bottom: "pool3/3x3_s2"
  top: "inception_4a/pool"
  pooling_param {
    pool: MAX
    kernel_size: 3
    stride: 1
    pad: 1
  }
}
layer {
  name: "inception_4a/pool_proj"
  type: "Convolution"
  bottom: "inception_4a/pool"
  top: "inception_4a/pool_proj"
  param {
    lr_mult: 1
    decay_mult: 1
  }
  param {
    lr_mult: 2
    decay_mult: 0
  }
  convolution_param {
    num_output: 64
    kernel_size: 1
    weight_filler {
      type: "xavier"
      std: 0.1
    }
    bias_filler {
      type: "constant"
      value: 0.2
    }
  }
}
layer {
  name: "inception_4a/relu_pool_proj"
  type: "ReLU"
  bottom: "inception_4a/pool_proj"
  top: "inception_4a/pool_proj"
}
layer {
  name: "inception_4a/output"
  type: "Concat"
  bottom: "inception_4a/1x1"
  bottom: "inception_4a/3x3"
  bottom: "inception_4a/5x5"
  bottom: "inception_4a/pool_proj"
  top: "inception_4a/output"
}
layer {
  name: "loss1/ave_pool"
  type: "Pooling"
  bottom: "inception_4a/output"
  top: "loss1/ave_pool"
  pooling_param {
    pool: AVE
    kernel_size: 5
    stride: 3
  }
}
layer {
  name: "loss1/conv"
  type: "Convolution"
  bottom: "loss1/ave_pool"
  top: "loss1/conv"
  param {
    lr_mult: 1
    decay_mult: 1
  }
  param {
    lr_mult: 2
    decay_mult: 0
  }
  convolution_param {
    num_output: 128
    kernel_size: 1
    weight_filler {
      type: "xavier"
      std: 0.08
    }
    bias_filler {
      type: "constant"
      value: 0.2
    }
  }
}
layer {
  name: "loss1/relu_conv"
  type: "ReLU"
  bottom: "loss1/conv"
  top: "loss1/conv"
}
layer {
  name: "loss1/fc"
  type: "InnerProduct"
  bottom: "loss1/conv"
  top: "loss1/fc"
  param {
    lr_mult: 1
    decay_mult: 1
  }
  param {
    lr_mult: 2
    decay_mult: 0
  }
  inner_product_param {
    num_output: 1024
    weight_filler {
      type: "xavier"
      std: 0.02
    }
    bias_filler {
      type: "constant"
      value: 0.2
    }
  }
}
layer {
  name: "loss1/relu_fc"
  type: "ReLU"
  bottom: "loss1/fc"
  top: "loss1/fc"
}
layer {
  name: "loss1/drop_fc"
  type: "Dropout"
  bottom: "loss1/fc"
  top: "loss1/fc"
  dropout_param {
    dropout_ratio: 0.7
  }
}
layer {
  name: "loss1/classifier_plantvillage"
  type: "InnerProduct"
  bottom: "loss1/fc"
  top: "loss1/classifier_plantvillage"
  param {
    lr_mult: 1
    decay_mult: 1
  }
  param {
    lr_mult: 2
    decay_mult: 0
  }
  inner_product_param {
    num_output: 38
    weight_filler {
      type: "xavier"
      std: 0.0009765625
    }
    bias_filler {
      type: "constant"
      value: 0
    }
  }
}
layer {
  name: "inception_4b/1x1"
  type: "Convolution"
  bottom: "inception_4a/output"
  top: "inception_4b/1x1"
  param {
    lr_mult: 1
    decay_mult: 1
  }
  param {
    lr_mult: 2
    decay_mult: 0
  }
  convolution_param {
    num_output: 160
    kernel_size: 1
    weight_filler {
      type: "xavier"
      std: 0.03
    }
    bias_filler {
      type: "constant"
      value: 0.2
    }
  }
}
layer {
  name: "inception_4b/relu_1x1"
  type: "ReLU"
  bottom: "inception_4b/1x1"
  top: "inception_4b/1x1"
}
layer {
  name: "inception_4b/3x3_reduce"
  type: "Convolution"
  bottom: "inception_4a/output"
  top: "inception_4b/3x3_reduce"
  param {
    lr_mult: 1
    decay_mult: 1
  }
  param {
    lr_mult: 2
    decay_mult: 0
  }
  convolution_param {
    num_output: 112
    kernel_size: 1
    weight_filler {
      type: "xavier"
      std: 0.09
    }
    bias_filler {
      type: "constant"
      value: 0.2
    }
  }
}
layer {
  name: "inception_4b/relu_3x3_reduce"
  type: "ReLU"
  bottom: "inception_4b/3x3_reduce"
  top: "inception_4b/3x3_reduce"
}
layer {
  name: "inception_4b/3x3"
  type: "Convolution"
  bottom: "inception_4b/3x3_reduce"
  top: "inception_4b/3x3"
  param {
    lr_mult: 1
    decay_mult: 1
  }
  param {
    lr_mult: 2
    decay_mult: 0
  }
  convolution_param {
    num_output: 224
    pad: 1
    kernel_size: 3
    weight_filler {
      type: "xavier"
      std: 0.03
    }
    bias_filler {
      type: "constant"
      value: 0.2
    }
  }
}
layer {
  name: "inception_4b/relu_3x3"
  type: "ReLU"
  bottom: "inception_4b/3x3"
  top: "inception_4b/3x3"
}
layer {
  name: "inception_4b/5x5_reduce"
  type: "Convolution"
  bottom: "inception_4a/output"
  top: "inception_4b/5x5_reduce"
  param {
    lr_mult: 1
    decay_mult: 1
  }
  param {
    lr_mult: 2
    decay_mult: 0
  }
  convolution_param {
    num_output: 24
    kernel_size: 1
    weight_filler {
      type: "xavier"
      std: 0.2
    }
    bias_filler {
      type: "constant"
      value: 0.2
    }
  }
}
layer {
  name: "inception_4b/relu_5x5_reduce"
  type: "ReLU"
  bottom: "inception_4b/5x5_reduce"
  top: "inception_4b/5x5_reduce"
}
layer {
  name: "inception_4b/5x5"
  type: "Convolution"
  bottom: "inception_4b/5x5_reduce"
  top: "inception_4b/5x5"
  param {
    lr_mult: 1
    decay_mult: 1
  }
  param {
    lr_mult: 2
    decay_mult: 0
  }
  convolution_param {
    num_output: 64
    pad: 2
    kernel_size: 5
    weight_filler {
      type: "xavier"
      std: 0.03
    }
    bias_filler {
      type: "constant"
      value: 0.2
    }
  }
}
layer {
  name: "inception_4b/relu_5x5"
  type: "ReLU"
  bottom: "inception_4b/5x5"
  top: "inception_4b/5x5"
}
layer {
  name: "inception_4b/pool"
  type: "Pooling"
  bottom: "inception_4a/output"
  top: "inception_4b/pool"
  pooling_param {
    pool: MAX
    kernel_size: 3
    stride: 1
    pad: 1
  }
}
layer {
  name: "inception_4b/pool_proj"
  type: "Convolution"
  bottom: "inception_4b/pool"
  top: "inception_4b/pool_proj"
  param {
    lr_mult: 1
    decay_mult: 1
  }
  param {
    lr_mult: 2
    decay_mult: 0
  }
  convolution_param {
    num_output: 64
    kernel_size: 1
    weight_filler {
      type: "xavier"
      std: 0.1
    }
    bias_filler {
      type: "constant"
      value: 0.2
    }
  }
}
layer {
  name: "inception_4b/relu_pool_proj"
  type: "ReLU"
  bottom: "inception_4b/pool_proj"
  top: "inception_4b/pool_proj"
}
layer {
  name: "inception_4b/output"
  type: "Concat"
  bottom: "inception_4b/1x1"
  bottom: "inception_4b/3x3"
  bottom: "inception_4b/5x5"
  bottom: "inception_4b/pool_proj"
  top: "inception_4b/output"
}
layer {
  name: "inception_4c/1x1"
  type: "Convolution"
  bottom: "inception_4b/output"
  top: "inception_4c/1x1"
  param {
    lr_mult: 1
    decay_mult: 1
  }
  param {
    lr_mult: 2
    decay_mult: 0
  }
  convolution_param {
    num_output: 128
    kernel_size: 1
    weight_filler {
      type: "xavier"
      std: 0.03
    }
    bias_filler {
      type: "constant"
      value: 0.2
    }
  }
}
layer {
  name: "inception_4c/relu_1x1"
  type: "ReLU"
  bottom: "inception_4c/1x1"
  top: "inception_4c/1x1"
}
layer {
  name: "inception_4c/3x3_reduce"
  type: "Convolution"
  bottom: "inception_4b/output"
  top: "inception_4c/3x3_reduce"
  param {
    lr_mult: 1
    decay_mult: 1
  }
  param {
    lr_mult: 2
    decay_mult: 0
  }
  convolution_param {
    num_output: 128
    kernel_size: 1
    weight_filler {
      type: "xavier"
      std: 0.09
    }
    bias_filler {
      type: "constant"
      value: 0.2
    }
  }
}
layer {
  name: "inception_4c/relu_3x3_reduce"
  type: "ReLU"
  bottom: "inception_4c/3x3_reduce"
  top: "inception_4c/3x3_reduce"
}
layer {
  name: "inception_4c/3x3"
  type: "Convolution"
  bottom: "inception_4c/3x3_reduce"
  top: "inception_4c/3x3"
  param {
    lr_mult: 1
    decay_mult: 1
  }
  param {
    lr_mult: 2
    decay_mult: 0
  }
  convolution_param {
    num_output: 256
    pad: 1
    kernel_size: 3
    weight_filler {
      type: "xavier"
      std: 0.03
    }
    bias_filler {
      type: "constant"
      value: 0.2
    }
  }
}
layer {
  name: "inception_4c/relu_3x3"
  type: "ReLU"
  bottom: "inception_4c/3x3"
  top: "inception_4c/3x3"
}
layer {
  name: "inception_4c/5x5_reduce"
  type: "Convolution"
  bottom: "inception_4b/output"
  top: "inception_4c/5x5_reduce"
  param {
    lr_mult: 1
    decay_mult: 1
  }
  param {
    lr_mult: 2
    decay_mult: 0
  }
  convolution_param {
    num_output: 24
    kernel_size: 1
    weight_filler {
      type: "xavier"
      std: 0.2
    }
    bias_filler {
      type: "constant"
      value: 0.2
    }
  }
}
layer {
  name: "inception_4c/relu_5x5_reduce"
  type: "ReLU"
  bottom: "inception_4c/5x5_reduce"
  top: "inception_4c/5x5_reduce"
}
layer {
  name: "inception_4c/5x5"
  type: "Convolution"
  bottom: "inception_4c/5x5_reduce"
  top: "inception_4c/5x5"
  param {
    lr_mult: 1
    decay_mult: 1
  }
  param {
    lr_mult: 2
    decay_mult: 0
  }
  convolution_param {
    num_output: 64
    pad: 2
    kernel_size: 5
    weight_filler {
      type: "xavier"
      std: 0.03
    }
    bias_filler {
      type: "constant"
      value: 0.2
    }
  }
}
layer {
  name: "inception_4c/relu_5x5"
  type: "ReLU"
  bottom: "inception_4c/5x5"
  top: "inception_4c/5x5"
}
layer {
  name: "inception_4c/pool"
  type: "Pooling"
  bottom: "inception_4b/output"
  top: "inception_4c/pool"
  pooling_param {
    pool: MAX
    kernel_size: 3
    stride: 1
    pad: 1
  }
}
layer {
  name: "inception_4c/pool_proj"
  type: "Convolution"
  bottom: "inception_4c/pool"
  top: "inception_4c/pool_proj"
  param {
    lr_mult: 1
    decay_mult: 1
  }
  param {
    lr_mult: 2
    decay_mult: 0
  }
  convolution_param {
    num_output: 64
    kernel_size: 1
    weight_filler {
      type: "xavier"
      std: 0.1
    }
    bias_filler {
      type: "constant"
      value: 0.2
    }
  }
}
layer {
  name: "inception_4c/relu_pool_proj"
  type: "ReLU"
  bottom: "inception_4c/pool_proj"
  top: "inception_4c/pool_proj"
}
layer {
  name: "inception_4c/output"
  type: "Concat"
  bottom: "inception_4c/1x1"
  bottom: "inception_4c/3x3"
  bottom: "inception_4c/5x5"
  bottom: "inception_4c/pool_proj"
  top: "inception_4c/output"
}
layer {
  name: "inception_4d/1x1"
  type: "Convolution"
  bottom: "inception_4c/output"
  top: "inception_4d/1x1"
  param {
    lr_mult: 1
    decay_mult: 1
  }
  param {
    lr_mult: 2
    decay_mult: 0
  }
  convolution_param {
    num_output: 112
    kernel_size: 1
    weight_filler {
      type: "xavier"
      std: 0.03
    }
    bias_filler {
      type: "constant"
      value: 0.2
    }
  }
}
layer {
  name: "inception_4d/relu_1x1"
  type: "ReLU"
  bottom: "inception_4d/1x1"
  top: "inception_4d/1x1"
}
layer {
  name: "inception_4d/3x3_reduce"
  type: "Convolution"
  bottom: "inception_4c/output"
  top: "inception_4d/3x3_reduce"
  param {
    lr_mult: 1
    decay_mult: 1
  }
  param {
    lr_mult: 2
    decay_mult: 0
  }
  convolution_param {
    num_output: 144
    kernel_size: 1
    weight_filler {
      type: "xavier"
      std: 0.09
    }
    bias_filler {
      type: "constant"
      value: 0.2
    }
  }
}
layer {
  name: "inception_4d/relu_3x3_reduce"
  type: "ReLU"
  bottom: "inception_4d/3x3_reduce"
  top: "inception_4d/3x3_reduce"
}
layer {
  name: "inception_4d/3x3"
  type: "Convolution"
  bottom: "inception_4d/3x3_reduce"
  top: "inception_4d/3x3"
  param {
    lr_mult: 1
    decay_mult: 1
  }
  param {
    lr_mult: 2
    decay_mult: 0
  }
  convolution_param {
    num_output: 288
    pad: 1
    kernel_size: 3
    weight_filler {
      type: "xavier"
      std: 0.03
    }
    bias_filler {
      type: "constant"
      value: 0.2
    }
  }
}
layer {
  name: "inception_4d/relu_3x3"
  type: "ReLU"
  bottom: "inception_4d/3x3"
  top: "inception_4d/3x3"
}
layer {
  name: "inception_4d/5x5_reduce"
  type: "Convolution"
  bottom: "inception_4c/output"
  top: "inception_4d/5x5_reduce"
  param {
    lr_mult: 1
    decay_mult: 1
  }
  param {
    lr_mult: 2
    decay_mult: 0
  }
  convolution_param {
    num_output: 32
    kernel_size: 1
    weight_filler {
      type: "xavier"
      std: 0.2
    }
    bias_filler {
      type: "constant"
      value: 0.2
    }
  }
}
layer {
  name: "inception_4d/relu_5x5_reduce"
  type: "ReLU"
  bottom: "inception_4d/5x5_reduce"
  top: "inception_4d/5x5_reduce"
}
layer {
  name: "inception_4d/5x5"
  type: "Convolution"
  bottom: "inception_4d/5x5_reduce"
  top: "inception_4d/5x5"
  param {
    lr_mult: 1
    decay_mult: 1
  }
  param {
    lr_mult: 2
    decay_mult: 0
  }
  convolution_param {
    num_output: 64
    pad: 2
    kernel_size: 5
    weight_filler {
      type: "xavier"
      std: 0.03
    }
    bias_filler {
      type: "constant"
      value: 0.2
    }
  }
}
layer {
  name: "inception_4d/relu_5x5"
  type: "ReLU"
  bottom: "inception_4d/5x5"
  top: "inception_4d/5x5"
}
layer {
  name: "inception_4d/pool"
  type: "Pooling"
  bottom: "inception_4c/output"
  top: "inception_4d/pool"
  pooling_param {
    pool: MAX
    kernel_size: 3
    stride: 1
    pad: 1
  }
}
layer {
  name: "inception_4d/pool_proj"
  type: "Convolution"
  bottom: "inception_4d/pool"
  top: "inception_4d/pool_proj"
  param {
    lr_mult: 1
    decay_mult: 1
  }
  param {
    lr_mult: 2
    decay_mult: 0
  }
  convolution_param {
    num_output: 64
    kernel_size: 1
    weight_filler {
      type: "xavier"
      std: 0.1
    }
    bias_filler {
      type: "constant"
      value: 0.2
    }
  }
}
layer {
  name: "inception_4d/relu_pool_proj"
  type: "ReLU"
  bottom: "inception_4d/pool_proj"
  top: "inception_4d/pool_proj"
}
layer {
  name: "inception_4d/output"
  type: "Concat"
  bottom: "inception_4d/1x1"
  bottom: "inception_4d/3x3"
  bottom: "inception_4d/5x5"
  bottom: "inception_4d/pool_proj"
  top: "inception_4d/output"
}
layer {
  name: "loss2/ave_pool"
  type: "Pooling"
  bottom: "inception_4d/output"
  top: "loss2/ave_pool"
  pooling_param {
    pool: AVE
    kernel_size: 5
    stride: 3
  }
}
layer {
  name: "loss2/conv"
  type: "Convolution"
  bottom: "loss2/ave_pool"
  top: "loss2/conv"
  param {
    lr_mult: 1
    decay_mult: 1
  }
  param {
    lr_mult: 2
    decay_mult: 0
  }
  convolution_param {
    num_output: 128
    kernel_size: 1
    weight_filler {
      type: "xavier"
      std: 0.08
    }
    bias_filler {
      type: "constant"
      value: 0.2
    }
  }
}
layer {
  name: "loss2/relu_conv"
  type: "ReLU"
  bottom: "loss2/conv"
  top: "loss2/conv"
}
layer {
  name: "loss2/fc"
  type: "InnerProduct"
  bottom: "loss2/conv"
  top: "loss2/fc"
  param {
    lr_mult: 1
    decay_mult: 1
  }
  param {
    lr_mult: 2
    decay_mult: 0
  }
  inner_product_param {
    num_output: 1024
    weight_filler {
      type: "xavier"
      std: 0.02
    }
    bias_filler {
      type: "constant"
      value: 0.2
    }
  }
}
layer {
  name: "loss2/relu_fc"
  type: "ReLU"
  bottom: "loss2/fc"
  top: "loss2/fc"
}
layer {
  name: "loss2/drop_fc"
  type: "Dropout"
  bottom: "loss2/fc"
  top: "loss2/fc"
  dropout_param {
    dropout_ratio: 0.7
  }
}
layer {
  name: "loss2/classifier_plantvillage"
  type: "InnerProduct"
  bottom: "loss2/fc"
  top: "loss2/classifier_plantvillage"
  param {
    lr_mult: 1
    decay_mult: 1
  }
  param {
    lr_mult: 2
    decay_mult: 0
  }
  inner_product_param {
    num_output: 38
    weight_filler {
      type: "xavier"
      std: 0.0009765625
    }
    bias_filler {
      type: "constant"
      value: 0
    }
  }
}
layer {
  name: "inception_4e/1x1"
  type: "Convolution"
  bottom: "inception_4d/output"
  top: "inception_4e/1x1"
  param {
    lr_mult: 1
    decay_mult: 1
  }
  param {
    lr_mult: 2
    decay_mult: 0
  }
  convolution_param {
    num_output: 256
    kernel_size: 1
    weight_filler {
      type: "xavier"
      std: 0.03
    }
    bias_filler {
      type: "constant"
      value: 0.2
    }
  }
}
layer {
  name: "inception_4e/relu_1x1"
  type: "ReLU"
  bottom: "inception_4e/1x1"
  top: "inception_4e/1x1"
}
layer {
  name: "inception_4e/3x3_reduce"
  type: "Convolution"
  bottom: "inception_4d/output"
  top: "inception_4e/3x3_reduce"
  param {
    lr_mult: 1
    decay_mult: 1
  }
  param {
    lr_mult: 2
    decay_mult: 0
  }
  convolution_param {
    num_output: 160
    kernel_size: 1
    weight_filler {
      type: "xavier"
      std: 0.09
    }
    bias_filler {
      type: "constant"
      value: 0.2
    }
  }
}
layer {
  name: "inception_4e/relu_3x3_reduce"
  type: "ReLU"
  bottom: "inception_4e/3x3_reduce"
  top: "inception_4e/3x3_reduce"
}
layer {
  name: "inception_4e/3x3"
  type: "Convolution"
  bottom: "inception_4e/3x3_reduce"
  top: "inception_4e/3x3"
  param {
    lr_mult: 1
    decay_mult: 1
  }
  param {
    lr_mult: 2
    decay_mult: 0
  }
  convolution_param {
    num_output: 320
    pad: 1
    kernel_size: 3
    weight_filler {
      type: "xavier"
      std: 0.03
    }
    bias_filler {
      type: "constant"
      value: 0.2
    }
  }
}
layer {
  name: "inception_4e/relu_3x3"
  type: "ReLU"
  bottom: "inception_4e/3x3"
  top: "inception_4e/3x3"
}
layer {
  name: "inception_4e/5x5_reduce"
  type: "Convolution"
  bottom: "inception_4d/output"
  top: "inception_4e/5x5_reduce"
  param {
    lr_mult: 1
    decay_mult: 1
  }
  param {
    lr_mult: 2
    decay_mult: 0
  }
  convolution_param {
    num_output: 32
    kernel_size: 1
    weight_filler {
      type: "xavier"
      std: 0.2
    }
    bias_filler {
      type: "constant"
      value: 0.2
    }
  }
}
layer {
  name: "inception_4e/relu_5x5_reduce"
  type: "ReLU"
  bottom: "inception_4e/5x5_reduce"
  top: "inception_4e/5x5_reduce"
}
layer {
  name: "inception_4e/5x5"
  type: "Convolution"
  bottom: "inception_4e/5x5_reduce"
  top: "inception_4e/5x5"
  p
I0403 19:16:49.408146  9047 layer_factory.hpp:77] Creating layer data
I0403 19:16:49.408891  9047 net.cpp:91] Creating Layer data
I0403 19:16:49.408931  9047 net.cpp:399] data -> data
I0403 19:16:49.408998  9047 net.cpp:399] data -> label
I0403 19:16:49.409044  9047 data_transformer.cpp:25] Loading mean file from: /home/mohanty/data/final_dataset/lmdb/color-60-40/mean.binaryproto
I0403 19:16:49.410431  9049 db_lmdb.cpp:38] Opened lmdb /home/mohanty/data/final_dataset/lmdb/color-60-40/test_db
I0403 19:16:49.425010  9047 data_layer.cpp:41] output data size: 24,3,224,224
I0403 19:16:49.456677  9047 net.cpp:141] Setting up data
I0403 19:16:49.456764  9047 net.cpp:148] Top shape: 24 3 224 224 (3612672)
I0403 19:16:49.456792  9047 net.cpp:148] Top shape: 24 (24)
I0403 19:16:49.456811  9047 net.cpp:156] Memory required for data: 14450784
I0403 19:16:49.456845  9047 layer_factory.hpp:77] Creating layer label_data_1_split
I0403 19:16:49.456878  9047 net.cpp:91] Creating Layer label_data_1_split
I0403 19:16:49.456900  9047 net.cpp:425] label_data_1_split <- label
I0403 19:16:49.456940  9047 net.cpp:399] label_data_1_split -> label_data_1_split_0
I0403 19:16:49.456974  9047 net.cpp:399] label_data_1_split -> label_data_1_split_1
I0403 19:16:49.457000  9047 net.cpp:399] label_data_1_split -> label_data_1_split_2
I0403 19:16:49.457026  9047 net.cpp:399] label_data_1_split -> label_data_1_split_3
I0403 19:16:49.457048  9047 net.cpp:399] label_data_1_split -> label_data_1_split_4
I0403 19:16:49.457072  9047 net.cpp:399] label_data_1_split -> label_data_1_split_5
I0403 19:16:49.457095  9047 net.cpp:399] label_data_1_split -> label_data_1_split_6
I0403 19:16:49.457120  9047 net.cpp:399] label_data_1_split -> label_data_1_split_7
I0403 19:16:49.457144  9047 net.cpp:399] label_data_1_split -> label_data_1_split_8
I0403 19:16:49.457201  9047 net.cpp:399] label_data_1_split -> label_data_1_split_9
I0403 19:16:49.457373  9047 net.cpp:141] Setting up label_data_1_split
I0403 19:16:49.457403  9047 net.cpp:148] Top shape: 24 (24)
I0403 19:16:49.457425  9047 net.cpp:148] Top shape: 24 (24)
I0403 19:16:49.457444  9047 net.cpp:148] Top shape: 24 (24)
I0403 19:16:49.457469  9047 net.cpp:148] Top shape: 24 (24)
I0403 19:16:49.457490  9047 net.cpp:148] Top shape: 24 (24)
I0403 19:16:49.457509  9047 net.cpp:148] Top shape: 24 (24)
I0403 19:16:49.457528  9047 net.cpp:148] Top shape: 24 (24)
I0403 19:16:49.457548  9047 net.cpp:148] Top shape: 24 (24)
I0403 19:16:49.457567  9047 net.cpp:148] Top shape: 24 (24)
I0403 19:16:49.457587  9047 net.cpp:148] Top shape: 24 (24)
I0403 19:16:49.457638  9047 net.cpp:156] Memory required for data: 14451744
I0403 19:16:49.457659  9047 layer_factory.hpp:77] Creating layer conv1/7x7_s2
I0403 19:16:49.457701  9047 net.cpp:91] Creating Layer conv1/7x7_s2
I0403 19:16:49.457726  9047 net.cpp:425] conv1/7x7_s2 <- data
I0403 19:16:49.457751  9047 net.cpp:399] conv1/7x7_s2 -> conv1/7x7_s2
I0403 19:16:49.619102  9047 net.cpp:141] Setting up conv1/7x7_s2
I0403 19:16:49.619196  9047 net.cpp:148] Top shape: 24 64 112 112 (19267584)
I0403 19:16:49.619217  9047 net.cpp:156] Memory required for data: 91522080
I0403 19:16:49.619257  9047 layer_factory.hpp:77] Creating layer conv1/relu_7x7
I0403 19:16:49.619292  9047 net.cpp:91] Creating Layer conv1/relu_7x7
I0403 19:16:49.619314  9047 net.cpp:425] conv1/relu_7x7 <- conv1/7x7_s2
I0403 19:16:49.619336  9047 net.cpp:386] conv1/relu_7x7 -> conv1/7x7_s2 (in-place)
I0403 19:16:49.619663  9047 net.cpp:141] Setting up conv1/relu_7x7
I0403 19:16:49.619699  9047 net.cpp:148] Top shape: 24 64 112 112 (19267584)
I0403 19:16:49.619719  9047 net.cpp:156] Memory required for data: 168592416
I0403 19:16:49.619736  9047 layer_factory.hpp:77] Creating layer pool1/3x3_s2
I0403 19:16:49.619768  9047 net.cpp:91] Creating Layer pool1/3x3_s2
I0403 19:16:49.619789  9047 net.cpp:425] pool1/3x3_s2 <- conv1/7x7_s2
I0403 19:16:49.619813  9047 net.cpp:399] pool1/3x3_s2 -> pool1/3x3_s2
I0403 19:16:49.619905  9047 net.cpp:141] Setting up pool1/3x3_s2
I0403 19:16:49.619935  9047 net.cpp:148] Top shape: 24 64 56 56 (4816896)
I0403 19:16:49.619953  9047 net.cpp:156] Memory required for data: 187860000
I0403 19:16:49.619971  9047 layer_factory.hpp:77] Creating layer pool1/norm1
I0403 19:16:49.620002  9047 net.cpp:91] Creating Layer pool1/norm1
I0403 19:16:49.620024  9047 net.cpp:425] pool1/norm1 <- pool1/3x3_s2
I0403 19:16:49.620046  9047 net.cpp:399] pool1/norm1 -> pool1/norm1
I0403 19:16:49.620414  9047 net.cpp:141] Setting up pool1/norm1
I0403 19:16:49.620450  9047 net.cpp:148] Top shape: 24 64 56 56 (4816896)
I0403 19:16:49.620476  9047 net.cpp:156] Memory required for data: 207127584
I0403 19:16:49.620496  9047 layer_factory.hpp:77] Creating layer conv2/3x3_reduce
I0403 19:16:49.620528  9047 net.cpp:91] Creating Layer conv2/3x3_reduce
I0403 19:16:49.620551  9047 net.cpp:425] conv2/3x3_reduce <- pool1/norm1
I0403 19:16:49.620574  9047 net.cpp:399] conv2/3x3_reduce -> conv2/3x3_reduce
I0403 19:16:49.622256  9047 net.cpp:141] Setting up conv2/3x3_reduce
I0403 19:16:49.622292  9047 net.cpp:148] Top shape: 24 64 56 56 (4816896)
I0403 19:16:49.622311  9047 net.cpp:156] Memory required for data: 226395168
I0403 19:16:49.622337  9047 layer_factory.hpp:77] Creating layer conv2/relu_3x3_reduce
I0403 19:16:49.622362  9047 net.cpp:91] Creating Layer conv2/relu_3x3_reduce
I0403 19:16:49.622383  9047 net.cpp:425] conv2/relu_3x3_reduce <- conv2/3x3_reduce
I0403 19:16:49.622406  9047 net.cpp:386] conv2/relu_3x3_reduce -> conv2/3x3_reduce (in-place)
I0403 19:16:49.622741  9047 net.cpp:141] Setting up conv2/relu_3x3_reduce
I0403 19:16:49.622773  9047 net.cpp:148] Top shape: 24 64 56 56 (4816896)
I0403 19:16:49.622792  9047 net.cpp:156] Memory required for data: 245662752
I0403 19:16:49.622812  9047 layer_factory.hpp:77] Creating layer conv2/3x3
I0403 19:16:49.622840  9047 net.cpp:91] Creating Layer conv2/3x3
I0403 19:16:49.622862  9047 net.cpp:425] conv2/3x3 <- conv2/3x3_reduce
I0403 19:16:49.622889  9047 net.cpp:399] conv2/3x3 -> conv2/3x3
I0403 19:16:49.625659  9047 net.cpp:141] Setting up conv2/3x3
I0403 19:16:49.625697  9047 net.cpp:148] Top shape: 24 192 56 56 (14450688)
I0403 19:16:49.625716  9047 net.cpp:156] Memory required for data: 303465504
I0403 19:16:49.625746  9047 layer_factory.hpp:77] Creating layer conv2/relu_3x3
I0403 19:16:49.625771  9047 net.cpp:91] Creating Layer conv2/relu_3x3
I0403 19:16:49.625790  9047 net.cpp:425] conv2/relu_3x3 <- conv2/3x3
I0403 19:16:49.625811  9047 net.cpp:386] conv2/relu_3x3 -> conv2/3x3 (in-place)
I0403 19:16:49.626024  9047 net.cpp:141] Setting up conv2/relu_3x3
I0403 19:16:49.626060  9047 net.cpp:148] Top shape: 24 192 56 56 (14450688)
I0403 19:16:49.626118  9047 net.cpp:156] Memory required for data: 361268256
I0403 19:16:49.626138  9047 layer_factory.hpp:77] Creating layer conv2/norm2
I0403 19:16:49.626162  9047 net.cpp:91] Creating Layer conv2/norm2
I0403 19:16:49.626180  9047 net.cpp:425] conv2/norm2 <- conv2/3x3
I0403 19:16:49.626207  9047 net.cpp:399] conv2/norm2 -> conv2/norm2
I0403 19:16:49.626580  9047 net.cpp:141] Setting up conv2/norm2
I0403 19:16:49.626615  9047 net.cpp:148] Top shape: 24 192 56 56 (14450688)
I0403 19:16:49.626633  9047 net.cpp:156] Memory required for data: 419071008
I0403 19:16:49.626652  9047 layer_factory.hpp:77] Creating layer pool2/3x3_s2
I0403 19:16:49.626673  9047 net.cpp:91] Creating Layer pool2/3x3_s2
I0403 19:16:49.626693  9047 net.cpp:425] pool2/3x3_s2 <- conv2/norm2
I0403 19:16:49.626716  9047 net.cpp:399] pool2/3x3_s2 -> pool2/3x3_s2
I0403 19:16:49.626780  9047 net.cpp:141] Setting up pool2/3x3_s2
I0403 19:16:49.626811  9047 net.cpp:148] Top shape: 24 192 28 28 (3612672)
I0403 19:16:49.626829  9047 net.cpp:156] Memory required for data: 433521696
I0403 19:16:49.626847  9047 layer_factory.hpp:77] Creating layer pool2/3x3_s2_pool2/3x3_s2_0_split
I0403 19:16:49.626868  9047 net.cpp:91] Creating Layer pool2/3x3_s2_pool2/3x3_s2_0_split
I0403 19:16:49.626888  9047 net.cpp:425] pool2/3x3_s2_pool2/3x3_s2_0_split <- pool2/3x3_s2
I0403 19:16:49.626909  9047 net.cpp:399] pool2/3x3_s2_pool2/3x3_s2_0_split -> pool2/3x3_s2_pool2/3x3_s2_0_split_0
I0403 19:16:49.626935  9047 net.cpp:399] pool2/3x3_s2_pool2/3x3_s2_0_split -> pool2/3x3_s2_pool2/3x3_s2_0_split_1
I0403 19:16:49.626960  9047 net.cpp:399] pool2/3x3_s2_pool2/3x3_s2_0_split -> pool2/3x3_s2_pool2/3x3_s2_0_split_2
I0403 19:16:49.626981  9047 net.cpp:399] pool2/3x3_s2_pool2/3x3_s2_0_split -> pool2/3x3_s2_pool2/3x3_s2_0_split_3
I0403 19:16:49.627069  9047 net.cpp:141] Setting up pool2/3x3_s2_pool2/3x3_s2_0_split
I0403 19:16:49.627097  9047 net.cpp:148] Top shape: 24 192 28 28 (3612672)
I0403 19:16:49.627118  9047 net.cpp:148] Top shape: 24 192 28 28 (3612672)
I0403 19:16:49.627137  9047 net.cpp:148] Top shape: 24 192 28 28 (3612672)
I0403 19:16:49.627156  9047 net.cpp:148] Top shape: 24 192 28 28 (3612672)
I0403 19:16:49.627173  9047 net.cpp:156] Memory required for data: 491324448
I0403 19:16:49.627193  9047 layer_factory.hpp:77] Creating layer inception_3a/1x1
I0403 19:16:49.627223  9047 net.cpp:91] Creating Layer inception_3a/1x1
I0403 19:16:49.627243  9047 net.cpp:425] inception_3a/1x1 <- pool2/3x3_s2_pool2/3x3_s2_0_split_0
I0403 19:16:49.627266  9047 net.cpp:399] inception_3a/1x1 -> inception_3a/1x1
I0403 19:16:49.629122  9047 net.cpp:141] Setting up inception_3a/1x1
I0403 19:16:49.629158  9047 net.cpp:148] Top shape: 24 64 28 28 (1204224)
I0403 19:16:49.629178  9047 net.cpp:156] Memory required for data: 496141344
I0403 19:16:49.629200  9047 layer_factory.hpp:77] Creating layer inception_3a/relu_1x1
I0403 19:16:49.629225  9047 net.cpp:91] Creating Layer inception_3a/relu_1x1
I0403 19:16:49.629245  9047 net.cpp:425] inception_3a/relu_1x1 <- inception_3a/1x1
I0403 19:16:49.629267  9047 net.cpp:386] inception_3a/relu_1x1 -> inception_3a/1x1 (in-place)
I0403 19:16:49.629488  9047 net.cpp:141] Setting up inception_3a/relu_1x1
I0403 19:16:49.629523  9047 net.cpp:148] Top shape: 24 64 28 28 (1204224)
I0403 19:16:49.629542  9047 net.cpp:156] Memory required for data: 500958240
I0403 19:16:49.629560  9047 layer_factory.hpp:77] Creating layer inception_3a/3x3_reduce
I0403 19:16:49.629587  9047 net.cpp:91] Creating Layer inception_3a/3x3_reduce
I0403 19:16:49.629608  9047 net.cpp:425] inception_3a/3x3_reduce <- pool2/3x3_s2_pool2/3x3_s2_0_split_1
I0403 19:16:49.629636  9047 net.cpp:399] inception_3a/3x3_reduce -> inception_3a/3x3_reduce
I0403 19:16:49.631676  9047 net.cpp:141] Setting up inception_3a/3x3_reduce
I0403 19:16:49.631713  9047 net.cpp:148] Top shape: 24 96 28 28 (1806336)
I0403 19:16:49.631733  9047 net.cpp:156] Memory required for data: 508183584
I0403 19:16:49.631763  9047 layer_factory.hpp:77] Creating layer inception_3a/relu_3x3_reduce
I0403 19:16:49.631808  9047 net.cpp:91] Creating Layer inception_3a/relu_3x3_reduce
I0403 19:16:49.631829  9047 net.cpp:425] inception_3a/relu_3x3_reduce <- inception_3a/3x3_reduce
I0403 19:16:49.631851  9047 net.cpp:386] inception_3a/relu_3x3_reduce -> inception_3a/3x3_reduce (in-place)
I0403 19:16:49.632078  9047 net.cpp:141] Setting up inception_3a/relu_3x3_reduce
I0403 19:16:49.632108  9047 net.cpp:148] Top shape: 24 96 28 28 (1806336)
I0403 19:16:49.632128  9047 net.cpp:156] Memory required for data: 515408928
I0403 19:16:49.632145  9047 layer_factory.hpp:77] Creating layer inception_3a/3x3
I0403 19:16:49.632199  9047 net.cpp:91] Creating Layer inception_3a/3x3
I0403 19:16:49.632252  9047 net.cpp:425] inception_3a/3x3 <- inception_3a/3x3_reduce
I0403 19:16:49.632307  9047 net.cpp:399] inception_3a/3x3 -> inception_3a/3x3
I0403 19:16:49.634321  9047 net.cpp:141] Setting up inception_3a/3x3
I0403 19:16:49.634357  9047 net.cpp:148] Top shape: 24 128 28 28 (2408448)
I0403 19:16:49.634377  9047 net.cpp:156] Memory required for data: 525042720
I0403 19:16:49.634399  9047 layer_factory.hpp:77] Creating layer inception_3a/relu_3x3
I0403 19:16:49.634424  9047 net.cpp:91] Creating Layer inception_3a/relu_3x3
I0403 19:16:49.634445  9047 net.cpp:425] inception_3a/relu_3x3 <- inception_3a/3x3
I0403 19:16:49.634472  9047 net.cpp:386] inception_3a/relu_3x3 -> inception_3a/3x3 (in-place)
I0403 19:16:49.634804  9047 net.cpp:141] Setting up inception_3a/relu_3x3
I0403 19:16:49.634838  9047 net.cpp:148] Top shape: 24 128 28 28 (2408448)
I0403 19:16:49.634858  9047 net.cpp:156] Memory required for data: 534676512
I0403 19:16:49.634876  9047 layer_factory.hpp:77] Creating layer inception_3a/5x5_reduce
I0403 19:16:49.634904  9047 net.cpp:91] Creating Layer inception_3a/5x5_reduce
I0403 19:16:49.634925  9047 net.cpp:425] inception_3a/5x5_reduce <- pool2/3x3_s2_pool2/3x3_s2_0_split_2
I0403 19:16:49.634951  9047 net.cpp:399] inception_3a/5x5_reduce -> inception_3a/5x5_reduce
I0403 19:16:49.636116  9047 net.cpp:141] Setting up inception_3a/5x5_reduce
I0403 19:16:49.636149  9047 net.cpp:148] Top shape: 24 16 28 28 (301056)
I0403 19:16:49.636168  9047 net.cpp:156] Memory required for data: 535880736
I0403 19:16:49.636193  9047 layer_factory.hpp:77] Creating layer inception_3a/relu_5x5_reduce
I0403 19:16:49.636219  9047 net.cpp:91] Creating Layer inception_3a/relu_5x5_reduce
I0403 19:16:49.636240  9047 net.cpp:425] inception_3a/relu_5x5_reduce <- inception_3a/5x5_reduce
I0403 19:16:49.636260  9047 net.cpp:386] inception_3a/relu_5x5_reduce -> inception_3a/5x5_reduce (in-place)
I0403 19:16:49.636611  9047 net.cpp:141] Setting up inception_3a/relu_5x5_reduce
I0403 19:16:49.636647  9047 net.cpp:148] Top shape: 24 16 28 28 (301056)
I0403 19:16:49.636667  9047 net.cpp:156] Memory required for data: 537084960
I0403 19:16:49.636685  9047 layer_factory.hpp:77] Creating layer inception_3a/5x5
I0403 19:16:49.636713  9047 net.cpp:91] Creating Layer inception_3a/5x5
I0403 19:16:49.636735  9047 net.cpp:425] inception_3a/5x5 <- inception_3a/5x5_reduce
I0403 19:16:49.636759  9047 net.cpp:399] inception_3a/5x5 -> inception_3a/5x5
I0403 19:16:49.638028  9047 net.cpp:141] Setting up inception_3a/5x5
I0403 19:16:49.638063  9047 net.cpp:148] Top shape: 24 32 28 28 (602112)
I0403 19:16:49.638083  9047 net.cpp:156] Memory required for data: 539493408
I0403 19:16:49.638106  9047 layer_factory.hpp:77] Creating layer inception_3a/relu_5x5
I0403 19:16:49.638131  9047 net.cpp:91] Creating Layer inception_3a/relu_5x5
I0403 19:16:49.638151  9047 net.cpp:425] inception_3a/relu_5x5 <- inception_3a/5x5
I0403 19:16:49.638172  9047 net.cpp:386] inception_3a/relu_5x5 -> inception_3a/5x5 (in-place)
I0403 19:16:49.638386  9047 net.cpp:141] Setting up inception_3a/relu_5x5
I0403 19:16:49.638418  9047 net.cpp:148] Top shape: 24 32 28 28 (602112)
I0403 19:16:49.638438  9047 net.cpp:156] Memory required for data: 541901856
I0403 19:16:49.638461  9047 layer_factory.hpp:77] Creating layer inception_3a/pool
I0403 19:16:49.638485  9047 net.cpp:91] Creating Layer inception_3a/pool
I0403 19:16:49.638505  9047 net.cpp:425] inception_3a/pool <- pool2/3x3_s2_pool2/3x3_s2_0_split_3
I0403 19:16:49.638545  9047 net.cpp:399] inception_3a/pool -> inception_3a/pool
I0403 19:16:49.638618  9047 net.cpp:141] Setting up inception_3a/pool
I0403 19:16:49.638648  9047 net.cpp:148] Top shape: 24 192 28 28 (3612672)
I0403 19:16:49.638665  9047 net.cpp:156] Memory required for data: 556352544
I0403 19:16:49.638684  9047 layer_factory.hpp:77] Creating layer inception_3a/pool_proj
I0403 19:16:49.638711  9047 net.cpp:91] Creating Layer inception_3a/pool_proj
I0403 19:16:49.638732  9047 net.cpp:425] inception_3a/pool_proj <- inception_3a/pool
I0403 19:16:49.638759  9047 net.cpp:399] inception_3a/pool_proj -> inception_3a/pool_proj
I0403 19:16:49.639925  9047 net.cpp:141] Setting up inception_3a/pool_proj
I0403 19:16:49.639961  9047 net.cpp:148] Top shape: 24 32 28 28 (602112)
I0403 19:16:49.639979  9047 net.cpp:156] Memory required for data: 558760992
I0403 19:16:49.640007  9047 layer_factory.hpp:77] Creating layer inception_3a/relu_pool_proj
I0403 19:16:49.640034  9047 net.cpp:91] Creating Layer inception_3a/relu_pool_proj
I0403 19:16:49.640055  9047 net.cpp:425] inception_3a/relu_pool_proj <- inception_3a/pool_proj
I0403 19:16:49.640077  9047 net.cpp:386] inception_3a/relu_pool_proj -> inception_3a/pool_proj (in-place)
I0403 19:16:49.640406  9047 net.cpp:141] Setting up inception_3a/relu_pool_proj
I0403 19:16:49.640439  9047 net.cpp:148] Top shape: 24 32 28 28 (602112)
I0403 19:16:49.640457  9047 net.cpp:156] Memory required for data: 561169440
I0403 19:16:49.640482  9047 layer_factory.hpp:77] Creating layer inception_3a/output
I0403 19:16:49.640508  9047 net.cpp:91] Creating Layer inception_3a/output
I0403 19:16:49.640528  9047 net.cpp:425] inception_3a/output <- inception_3a/1x1
I0403 19:16:49.640549  9047 net.cpp:425] inception_3a/output <- inception_3a/3x3
I0403 19:16:49.640568  9047 net.cpp:425] inception_3a/output <- inception_3a/5x5
I0403 19:16:49.640588  9047 net.cpp:425] inception_3a/output <- inception_3a/pool_proj
I0403 19:16:49.640609  9047 net.cpp:399] inception_3a/output -> inception_3a/output
I0403 19:16:49.640667  9047 net.cpp:141] Setting up inception_3a/output
I0403 19:16:49.640696  9047 net.cpp:148] Top shape: 24 256 28 28 (4816896)
I0403 19:16:49.640713  9047 net.cpp:156] Memory required for data: 580437024
I0403 19:16:49.640732  9047 layer_factory.hpp:77] Creating layer inception_3a/output_inception_3a/output_0_split
I0403 19:16:49.640753  9047 net.cpp:91] Creating Layer inception_3a/output_inception_3a/output_0_split
I0403 19:16:49.640771  9047 net.cpp:425] inception_3a/output_inception_3a/output_0_split <- inception_3a/output
I0403 19:16:49.640796  9047 net.cpp:399] inception_3a/output_inception_3a/output_0_split -> inception_3a/output_inception_3a/output_0_split_0
I0403 19:16:49.640821  9047 net.cpp:399] inception_3a/output_inception_3a/output_0_split -> inception_3a/output_inception_3a/output_0_split_1
I0403 19:16:49.640856  9047 net.cpp:399] inception_3a/output_inception_3a/output_0_split -> inception_3a/output_inception_3a/output_0_split_2
I0403 19:16:49.640882  9047 net.cpp:399] inception_3a/output_inception_3a/output_0_split -> inception_3a/output_inception_3a/output_0_split_3
I0403 19:16:49.640974  9047 net.cpp:141] Setting up inception_3a/output_inception_3a/output_0_split
I0403 19:16:49.641001  9047 net.cpp:148] Top shape: 24 256 28 28 (4816896)
I0403 19:16:49.641022  9047 net.cpp:148] Top shape: 24 256 28 28 (4816896)
I0403 19:16:49.641042  9047 net.cpp:148] Top shape: 24 256 28 28 (4816896)
I0403 19:16:49.641062  9047 net.cpp:148] Top shape: 24 256 28 28 (4816896)
I0403 19:16:49.641078  9047 net.cpp:156] Memory required for data: 657507360
I0403 19:16:49.641095  9047 layer_factory.hpp:77] Creating layer inception_3b/1x1
I0403 19:16:49.641124  9047 net.cpp:91] Creating Layer inception_3b/1x1
I0403 19:16:49.641144  9047 net.cpp:425] inception_3b/1x1 <- inception_3a/output_inception_3a/output_0_split_0
I0403 19:16:49.641170  9047 net.cpp:399] inception_3b/1x1 -> inception_3b/1x1
I0403 19:16:49.642560  9047 net.cpp:141] Setting up inception_3b/1x1
I0403 19:16:49.642608  9047 net.cpp:148] Top shape: 24 128 28 28 (2408448)
I0403 19:16:49.642628  9047 net.cpp:156] Memory required for data: 667141152
I0403 19:16:49.642652  9047 layer_factory.hpp:77] Creating layer inception_3b/relu_1x1
I0403 19:16:49.642678  9047 net.cpp:91] Creating Layer inception_3b/relu_1x1
I0403 19:16:49.642699  9047 net.cpp:425] inception_3b/relu_1x1 <- inception_3b/1x1
I0403 19:16:49.642720  9047 net.cpp:386] inception_3b/relu_1x1 -> inception_3b/1x1 (in-place)
I0403 19:16:49.642930  9047 net.cpp:141] Setting up inception_3b/relu_1x1
I0403 19:16:49.642961  9047 net.cpp:148] Top shape: 24 128 28 28 (2408448)
I0403 19:16:49.642979  9047 net.cpp:156] Memory required for data: 676774944
I0403 19:16:49.642997  9047 layer_factory.hpp:77] Creating layer inception_3b/3x3_reduce
I0403 19:16:49.643026  9047 net.cpp:91] Creating Layer inception_3b/3x3_reduce
I0403 19:16:49.643051  9047 net.cpp:425] inception_3b/3x3_reduce <- inception_3a/output_inception_3a/output_0_split_1
I0403 19:16:49.643074  9047 net.cpp:399] inception_3b/3x3_reduce -> inception_3b/3x3_reduce
I0403 19:16:49.644449  9047 net.cpp:141] Setting up inception_3b/3x3_reduce
I0403 19:16:49.644490  9047 net.cpp:148] Top shape: 24 128 28 28 (2408448)
I0403 19:16:49.644508  9047 net.cpp:156] Memory required for data: 686408736
I0403 19:16:49.644532  9047 layer_factory.hpp:77] Creating layer inception_3b/relu_3x3_reduce
I0403 19:16:49.644556  9047 net.cpp:91] Creating Layer inception_3b/relu_3x3_reduce
I0403 19:16:49.644574  9047 net.cpp:425] inception_3b/relu_3x3_reduce <- inception_3b/3x3_reduce
I0403 19:16:49.644598  9047 net.cpp:386] inception_3b/relu_3x3_reduce -> inception_3b/3x3_reduce (in-place)
I0403 19:16:49.644811  9047 net.cpp:141] Setting up inception_3b/relu_3x3_reduce
I0403 19:16:49.644842  9047 net.cpp:148] Top shape: 24 128 28 28 (2408448)
I0403 19:16:49.644860  9047 net.cpp:156] Memory required for data: 696042528
I0403 19:16:49.644878  9047 layer_factory.hpp:77] Creating layer inception_3b/3x3
I0403 19:16:49.644911  9047 net.cpp:91] Creating Layer inception_3b/3x3
I0403 19:16:49.644933  9047 net.cpp:425] inception_3b/3x3 <- inception_3b/3x3_reduce
I0403 19:16:49.644968  9047 net.cpp:399] inception_3b/3x3 -> inception_3b/3x3
I0403 19:16:49.648540  9047 net.cpp:141] Setting up inception_3b/3x3
I0403 19:16:49.648574  9047 net.cpp:148] Top shape: 24 192 28 28 (3612672)
I0403 19:16:49.648594  9047 net.cpp:156] Memory required for data: 710493216
I0403 19:16:49.648617  9047 layer_factory.hpp:77] Creating layer inception_3b/relu_3x3
I0403 19:16:49.648643  9047 net.cpp:91] Creating Layer inception_3b/relu_3x3
I0403 19:16:49.648664  9047 net.cpp:425] inception_3b/relu_3x3 <- inception_3b/3x3
I0403 19:16:49.648686  9047 net.cpp:386] inception_3b/relu_3x3 -> inception_3b/3x3 (in-place)
I0403 19:16:49.649014  9047 net.cpp:141] Setting up inception_3b/relu_3x3
I0403 19:16:49.649046  9047 net.cpp:148] Top shape: 24 192 28 28 (3612672)
I0403 19:16:49.649065  9047 net.cpp:156] Memory required for data: 724943904
I0403 19:16:49.649085  9047 layer_factory.hpp:77] Creating layer inception_3b/5x5_reduce
I0403 19:16:49.649113  9047 net.cpp:91] Creating Layer inception_3b/5x5_reduce
I0403 19:16:49.649135  9047 net.cpp:425] inception_3b/5x5_reduce <- inception_3a/output_inception_3a/output_0_split_2
I0403 19:16:49.649163  9047 net.cpp:399] inception_3b/5x5_reduce -> inception_3b/5x5_reduce
I0403 19:16:49.650374  9047 net.cpp:141] Setting up inception_3b/5x5_reduce
I0403 19:16:49.650409  9047 net.cpp:148] Top shape: 24 32 28 28 (602112)
I0403 19:16:49.650429  9047 net.cpp:156] Memory required for data: 727352352
I0403 19:16:49.650451  9047 layer_factory.hpp:77] Creating layer inception_3b/relu_5x5_reduce
I0403 19:16:49.650482  9047 net.cpp:91] Creating Layer inception_3b/relu_5x5_reduce
I0403 19:16:49.650506  9047 net.cpp:425] inception_3b/relu_5x5_reduce <- inception_3b/5x5_reduce
I0403 19:16:49.650527  9047 net.cpp:386] inception_3b/relu_5x5_reduce -> inception_3b/5x5_reduce (in-place)
I0403 19:16:49.650741  9047 net.cpp:141] Setting up inception_3b/relu_5x5_reduce
I0403 19:16:49.650820  9047 net.cpp:148] Top shape: 24 32 28 28 (602112)
I0403 19:16:49.650840  9047 net.cpp:156] Memory required for data: 729760800
I0403 19:16:49.650857  9047 layer_factory.hpp:77] Creating layer inception_3b/5x5
I0403 19:16:49.650885  9047 net.cpp:91] Creating Layer inception_3b/5x5
I0403 19:16:49.650907  9047 net.cpp:425] inception_3b/5x5 <- inception_3b/5x5_reduce
I0403 19:16:49.650930  9047 net.cpp:399] inception_3b/5x5 -> inception_3b/5x5
I0403 19:16:49.653312  9047 net.cpp:141] Setting up inception_3b/5x5
I0403 19:16:49.653348  9047 net.cpp:148] Top shape: 24 96 28 28 (1806336)
I0403 19:16:49.653367  9047 net.cpp:156] Memory required for data: 736986144
I0403 19:16:49.653390  9047 layer_factory.hpp:77] Creating layer inception_3b/relu_5x5
I0403 19:16:49.653412  9047 net.cpp:91] Creating Layer inception_3b/relu_5x5
I0403 19:16:49.653432  9047 net.cpp:425] inception_3b/relu_5x5 <- inception_3b/5x5
I0403 19:16:49.653455  9047 net.cpp:386] inception_3b/relu_5x5 -> inception_3b/5x5 (in-place)
I0403 19:16:49.653702  9047 net.cpp:141] Setting up inception_3b/relu_5x5
I0403 19:16:49.653733  9047 net.cpp:148] Top shape: 24 96 28 28 (1806336)
I0403 19:16:49.653751  9047 net.cpp:156] Memory required for data: 744211488
I0403 19:16:49.653770  9047 layer_factory.hpp:77] Creating layer inception_3b/pool
I0403 19:16:49.653792  9047 net.cpp:91] Creating Layer inception_3b/pool
I0403 19:16:49.653812  9047 net.cpp:425] inception_3b/pool <- inception_3a/output_inception_3a/output_0_split_3
I0403 19:16:49.653834  9047 net.cpp:399] inception_3b/pool -> inception_3b/pool
I0403 19:16:49.653903  9047 net.cpp:141] Setting up inception_3b/pool
I0403 19:16:49.653930  9047 net.cpp:148] Top shape: 24 256 28 28 (4816896)
I0403 19:16:49.653949  9047 net.cpp:156] Memory required for data: 763479072
I0403 19:16:49.653969  9047 layer_factory.hpp:77] Creating layer inception_3b/pool_proj
I0403 19:16:49.653995  9047 net.cpp:91] Creating Layer inception_3b/pool_proj
I0403 19:16:49.654027  9047 net.cpp:425] inception_3b/pool_proj <- inception_3b/pool
I0403 19:16:49.654053  9047 net.cpp:399] inception_3b/pool_proj -> inception_3b/pool_proj
I0403 19:16:49.655328  9047 net.cpp:141] Setting up inception_3b/pool_proj
I0403 19:16:49.655364  9047 net.cpp:148] Top shape: 24 64 28 28 (1204224)
I0403 19:16:49.655385  9047 net.cpp:156] Memory required for data: 768295968
I0403 19:16:49.655408  9047 layer_factory.hpp:77] Creating layer inception_3b/relu_pool_proj
I0403 19:16:49.655431  9047 net.cpp:91] Creating Layer inception_3b/relu_pool_proj
I0403 19:16:49.655449  9047 net.cpp:425] inception_3b/relu_pool_proj <- inception_3b/pool_proj
I0403 19:16:49.655478  9047 net.cpp:386] inception_3b/relu_pool_proj -> inception_3b/pool_proj (in-place)
I0403 19:16:49.655941  9047 net.cpp:141] Setting up inception_3b/relu_pool_proj
I0403 19:16:49.655973  9047 net.cpp:148] Top shape: 24 64 28 28 (1204224)
I0403 19:16:49.655993  9047 net.cpp:156] Memory required for data: 773112864
I0403 19:16:49.656013  9047 layer_factory.hpp:77] Creating layer inception_3b/output
I0403 19:16:49.656036  9047 net.cpp:91] Creating Layer inception_3b/output
I0403 19:16:49.656057  9047 net.cpp:425] inception_3b/output <- inception_3b/1x1
I0403 19:16:49.656078  9047 net.cpp:425] inception_3b/output <- inception_3b/3x3
I0403 19:16:49.656098  9047 net.cpp:425] inception_3b/output <- inception_3b/5x5
I0403 19:16:49.656117  9047 net.cpp:425] inception_3b/output <- inception_3b/pool_proj
I0403 19:16:49.656138  9047 net.cpp:399] inception_3b/output -> inception_3b/output
I0403 19:16:49.656193  9047 net.cpp:141] Setting up inception_3b/output
I0403 19:16:49.656246  9047 net.cpp:148] Top shape: 24 480 28 28 (9031680)
I0403 19:16:49.656285  9047 net.cpp:156] Memory required for data: 809239584
I0403 19:16:49.656337  9047 layer_factory.hpp:77] Creating layer pool3/3x3_s2
I0403 19:16:49.656401  9047 net.cpp:91] Creating Layer pool3/3x3_s2
I0403 19:16:49.656500  9047 net.cpp:425] pool3/3x3_s2 <- inception_3b/output
I0403 19:16:49.656543  9047 net.cpp:399] pool3/3x3_s2 -> pool3/3x3_s2
I0403 19:16:49.656666  9047 net.cpp:141] Setting up pool3/3x3_s2
I0403 19:16:49.656698  9047 net.cpp:148] Top shape: 24 480 14 14 (2257920)
I0403 19:16:49.656719  9047 net.cpp:156] Memory required for data: 818271264
I0403 19:16:49.656740  9047 layer_factory.hpp:77] Creating layer pool3/3x3_s2_pool3/3x3_s2_0_split
I0403 19:16:49.656762  9047 net.cpp:91] Creating Layer pool3/3x3_s2_pool3/3x3_s2_0_split
I0403 19:16:49.656781  9047 net.cpp:425] pool3/3x3_s2_pool3/3x3_s2_0_split <- pool3/3x3_s2
I0403 19:16:49.656806  9047 net.cpp:399] pool3/3x3_s2_pool3/3x3_s2_0_split -> pool3/3x3_s2_pool3/3x3_s2_0_split_0
I0403 19:16:49.656831  9047 net.cpp:399] pool3/3x3_s2_pool3/3x3_s2_0_split -> pool3/3x3_s2_pool3/3x3_s2_0_split_1
I0403 19:16:49.656854  9047 net.cpp:399] pool3/3x3_s2_pool3/3x3_s2_0_split -> pool3/3x3_s2_pool3/3x3_s2_0_split_2
I0403 19:16:49.656878  9047 net.cpp:399] pool3/3x3_s2_pool3/3x3_s2_0_split -> pool3/3x3_s2_pool3/3x3_s2_0_split_3
I0403 19:16:49.656972  9047 net.cpp:141] Setting up pool3/3x3_s2_pool3/3x3_s2_0_split
I0403 19:16:49.657003  9047 net.cpp:148] Top shape: 24 480 14 14 (2257920)
I0403 19:16:49.657023  9047 net.cpp:148] Top shape: 24 480 14 14 (2257920)
I0403 19:16:49.657042  9047 net.cpp:148] Top shape: 24 480 14 14 (2257920)
I0403 19:16:49.657061  9047 net.cpp:148] Top shape: 24 480 14 14 (2257920)
I0403 19:16:49.657078  9047 net.cpp:156] Memory required for data: 854397984
I0403 19:16:49.657096  9047 layer_factory.hpp:77] Creating layer inception_4a/1x1
I0403 19:16:49.657124  9047 net.cpp:91] Creating Layer inception_4a/1x1
I0403 19:16:49.657145  9047 net.cpp:425] inception_4a/1x1 <- pool3/3x3_s2_pool3/3x3_s2_0_split_0
I0403 19:16:49.657168  9047 net.cpp:399] inception_4a/1x1 -> inception_4a/1x1
I0403 19:16:49.659093  9047 net.cpp:141] Setting up inception_4a/1x1
I0403 19:16:49.659128  9047 net.cpp:148] Top shape: 24 192 14 14 (903168)
I0403 19:16:49.659147  9047 net.cpp:156] Memory required for data: 858010656
I0403 19:16:49.659170  9047 layer_factory.hpp:77] Creating layer inception_4a/relu_1x1
I0403 19:16:49.659193  9047 net.cpp:91] Creating Layer inception_4a/relu_1x1
I0403 19:16:49.659212  9047 net.cpp:425] inception_4a/relu_1x1 <- inception_4a/1x1
I0403 19:16:49.659236  9047 net.cpp:386] inception_4a/relu_1x1 -> inception_4a/1x1 (in-place)
I0403 19:16:49.659461  9047 net.cpp:141] Setting up inception_4a/relu_1x1
I0403 19:16:49.659494  9047 net.cpp:148] Top shape: 24 192 14 14 (903168)
I0403 19:16:49.659513  9047 net.cpp:156] Memory required for data: 861623328
I0403 19:16:49.659533  9047 layer_factory.hpp:77] Creating layer inception_4a/3x3_reduce
I0403 19:16:49.659559  9047 net.cpp:91] Creating Layer inception_4a/3x3_reduce
I0403 19:16:49.659581  9047 net.cpp:425] inception_4a/3x3_reduce <- pool3/3x3_s2_pool3/3x3_s2_0_split_1
I0403 19:16:49.659607  9047 net.cpp:399] inception_4a/3x3_reduce -> inception_4a/3x3_reduce
I0403 19:16:49.661164  9047 net.cpp:141] Setting up inception_4a/3x3_reduce
I0403 19:16:49.661201  9047 net.cpp:148] Top shape: 24 96 14 14 (451584)
I0403 19:16:49.661221  9047 net.cpp:156] Memory required for data: 863429664
I0403 19:16:49.661252  9047 layer_factory.hpp:77] Creating layer inception_4a/relu_3x3_reduce
I0403 19:16:49.661275  9047 net.cpp:91] Creating Layer inception_4a/relu_3x3_reduce
I0403 19:16:49.661295  9047 net.cpp:425] inception_4a/relu_3x3_reduce <- inception_4a/3x3_reduce
I0403 19:16:49.661317  9047 net.cpp:386] inception_4a/relu_3x3_reduce -> inception_4a/3x3_reduce (in-place)
I0403 19:16:49.661540  9047 net.cpp:141] Setting up inception_4a/relu_3x3_reduce
I0403 19:16:49.661571  9047 net.cpp:148] Top shape: 24 96 14 14 (451584)
I0403 19:16:49.661588  9047 net.cpp:156] Memory required for data: 865236000
I0403 19:16:49.661629  9047 layer_factory.hpp:77] Creating layer inception_4a/3x3
I0403 19:16:49.661689  9047 net.cpp:91] Creating Layer inception_4a/3x3
I0403 19:16:49.661732  9047 net.cpp:425] inception_4a/3x3 <- inception_4a/3x3_reduce
I0403 19:16:49.661777  9047 net.cpp:399] inception_4a/3x3 -> inception_4a/3x3
I0403 19:16:49.665043  9047 net.cpp:141] Setting up inception_4a/3x3
I0403 19:16:49.665078  9047 net.cpp:148] Top shape: 24 208 14 14 (978432)
I0403 19:16:49.665097  9047 net.cpp:156] Memory required for data: 869149728
I0403 19:16:49.665120  9047 layer_factory.hpp:77] Creating layer inception_4a/relu_3x3
I0403 19:16:49.665141  9047 net.cpp:91] Creating Layer inception_4a/relu_3x3
I0403 19:16:49.665161  9047 net.cpp:425] inception_4a/relu_3x3 <- inception_4a/3x3
I0403 19:16:49.665185  9047 net.cpp:386] inception_4a/relu_3x3 -> inception_4a/3x3 (in-place)
I0403 19:16:49.665530  9047 net.cpp:141] Setting up inception_4a/relu_3x3
I0403 19:16:49.665563  9047 net.cpp:148] Top shape: 24 208 14 14 (978432)
I0403 19:16:49.665583  9047 net.cpp:156] Memory required for data: 873063456
I0403 19:16:49.665602  9047 layer_factory.hpp:77] Creating layer inception_4a/5x5_reduce
I0403 19:16:49.665630  9047 net.cpp:91] Creating Layer inception_4a/5x5_reduce
I0403 19:16:49.665652  9047 net.cpp:425] inception_4a/5x5_reduce <- pool3/3x3_s2_pool3/3x3_s2_0_split_2
I0403 19:16:49.665678  9047 net.cpp:399] inception_4a/5x5_reduce -> inception_4a/5x5_reduce
I0403 19:16:49.666909  9047 net.cpp:141] Setting up inception_4a/5x5_reduce
I0403 19:16:49.666944  9047 net.cpp:148] Top shape: 24 16 14 14 (75264)
I0403 19:16:49.666963  9047 net.cpp:156] Memory required for data: 873364512
I0403 19:16:49.666986  9047 layer_factory.hpp:77] Creating layer inception_4a/relu_5x5_reduce
I0403 19:16:49.667011  9047 net.cpp:91] Creating Layer inception_4a/relu_5x5_reduce
I0403 19:16:49.667032  9047 net.cpp:425] inception_4a/relu_5x5_reduce <- inception_4a/5x5_reduce
I0403 19:16:49.667053  9047 net.cpp:386] inception_4a/relu_5x5_reduce -> inception_4a/5x5_reduce (in-place)
I0403 19:16:49.667268  9047 net.cpp:141] Setting up inception_4a/relu_5x5_reduce
I0403 19:16:49.667327  9047 net.cpp:148] Top shape: 24 16 14 14 (75264)
I0403 19:16:49.667376  9047 net.cpp:156] Memory required for data: 873665568
I0403 19:16:49.667420  9047 layer_factory.hpp:77] Creating layer inception_4a/5x5
I0403 19:16:49.667449  9047 net.cpp:91] Creating Layer inception_4a/5x5
I0403 19:16:49.667476  9047 net.cpp:425] inception_4a/5x5 <- inception_4a/5x5_reduce
I0403 19:16:49.667501  9047 net.cpp:399] inception_4a/5x5 -> inception_4a/5x5
I0403 19:16:49.668826  9047 net.cpp:141] Setting up inception_4a/5x5
I0403 19:16:49.668860  9047 net.cpp:148] Top shape: 24 48 14 14 (225792)
I0403 19:16:49.668880  9047 net.cpp:156] Memory required for data: 874568736
I0403 19:16:49.668910  9047 layer_factory.hpp:77] Creating layer inception_4a/relu_5x5
I0403 19:16:49.668934  9047 net.cpp:91] Creating Layer inception_4a/relu_5x5
I0403 19:16:49.668954  9047 net.cpp:425] inception_4a/relu_5x5 <- inception_4a/5x5
I0403 19:16:49.668977  9047 net.cpp:386] inception_4a/relu_5x5 -> inception_4a/5x5 (in-place)
I0403 19:16:49.669196  9047 net.cpp:141] Setting up inception_4a/relu_5x5
I0403 19:16:49.669226  9047 net.cpp:148] Top shape: 24 48 14 14 (225792)
I0403 19:16:49.669245  9047 net.cpp:156] Memory required for data: 875471904
I0403 19:16:49.669263  9047 layer_factory.hpp:77] Creating layer inception_4a/pool
I0403 19:16:49.669284  9047 net.cpp:91] Creating Layer inception_4a/pool
I0403 19:16:49.669304  9047 net.cpp:425] inception_4a/pool <- pool3/3x3_s2_pool3/3x3_s2_0_split_3
I0403 19:16:49.669329  9047 net.cpp:399] inception_4a/pool -> inception_4a/pool
I0403 19:16:49.669431  9047 net.cpp:141] Setting up inception_4a/pool
I0403 19:16:49.669466  9047 net.cpp:148] Top shape: 24 480 14 14 (2257920)
I0403 19:16:49.669486  9047 net.cpp:156] Memory required for data: 884503584
I0403 19:16:49.669504  9047 layer_factory.hpp:77] Creating layer inception_4a/pool_proj
I0403 19:16:49.669533  9047 net.cpp:91] Creating Layer inception_4a/pool_proj
I0403 19:16:49.669554  9047 net.cpp:425] inception_4a/pool_proj <- inception_4a/pool
I0403 19:16:49.669579  9047 net.cpp:399] inception_4a/pool_proj -> inception_4a/pool_proj
I0403 19:16:49.670985  9047 net.cpp:141] Setting up inception_4a/pool_proj
I0403 19:16:49.671022  9047 net.cpp:148] Top shape: 24 64 14 14 (301056)
I0403 19:16:49.671061  9047 net.cpp:156] Memory required for data: 885707808
I0403 19:16:49.671087  9047 layer_factory.hpp:77] Creating layer inception_4a/relu_pool_proj
I0403 19:16:49.671108  9047 net.cpp:91] Creating Layer inception_4a/relu_pool_proj
I0403 19:16:49.671129  9047 net.cpp:425] inception_4a/relu_pool_proj <- inception_4a/pool_proj
I0403 19:16:49.671154  9047 net.cpp:386] inception_4a/relu_pool_proj -> inception_4a/pool_proj (in-place)
I0403 19:16:49.671499  9047 net.cpp:141] Setting up inception_4a/relu_pool_proj
I0403 19:16:49.671533  9047 net.cpp:148] Top shape: 24 64 14 14 (301056)
I0403 19:16:49.671555  9047 net.cpp:156] Memory required for data: 886912032
I0403 19:16:49.671574  9047 layer_factory.hpp:77] Creating layer inception_4a/output
I0403 19:16:49.671596  9047 net.cpp:91] Creating Layer inception_4a/output
I0403 19:16:49.671615  9047 net.cpp:425] inception_4a/output <- inception_4a/1x1
I0403 19:16:49.671635  9047 net.cpp:425] inception_4a/output <- inception_4a/3x3
I0403 19:16:49.671663  9047 net.cpp:425] inception_4a/output <- inception_4a/5x5
I0403 19:16:49.671684  9047 net.cpp:425] inception_4a/output <- inception_4a/pool_proj
I0403 19:16:49.671707  9047 net.cpp:399] inception_4a/output -> inception_4a/output
I0403 19:16:49.671761  9047 net.cpp:141] Setting up inception_4a/output
I0403 19:16:49.671789  9047 net.cpp:148] Top shape: 24 512 14 14 (2408448)
I0403 19:16:49.671808  9047 net.cpp:156] Memory required for data: 896545824
I0403 19:16:49.671826  9047 layer_factory.hpp:77] Creating layer inception_4a/output_inception_4a/output_0_split
I0403 19:16:49.671851  9047 net.cpp:91] Creating Layer inception_4a/output_inception_4a/output_0_split
I0403 19:16:49.671871  9047 net.cpp:425] inception_4a/output_inception_4a/output_0_split <- inception_4a/output
I0403 19:16:49.671893  9047 net.cpp:399] inception_4a/output_inception_4a/output_0_split -> inception_4a/output_inception_4a/output_0_split_0
I0403 19:16:49.671921  9047 net.cpp:399] inception_4a/output_inception_4a/output_0_split -> inception_4a/output_inception_4a/output_0_split_1
I0403 19:16:49.671947  9047 net.cpp:399] inception_4a/output_inception_4a/output_0_split -> inception_4a/output_inception_4a/output_0_split_2
I0403 19:16:49.671972  9047 net.cpp:399] inception_4a/output_inception_4a/output_0_split -> inception_4a/output_inception_4a/output_0_split_3
I0403 19:16:49.671998  9047 net.cpp:399] inception_4a/output_inception_4a/output_0_split -> inception_4a/output_inception_4a/output_0_split_4
I0403 19:16:49.672116  9047 net.cpp:141] Setting up inception_4a/output_inception_4a/output_0_split
I0403 19:16:49.672145  9047 net.cpp:148] Top shape: 24 512 14 14 (2408448)
I0403 19:16:49.672165  9047 net.cpp:148] Top shape: 24 512 14 14 (2408448)
I0403 19:16:49.672186  9047 net.cpp:148] Top shape: 24 512 14 14 (2408448)
I0403 19:16:49.672205  9047 net.cpp:148] Top shape: 24 512 14 14 (2408448)
I0403 19:16:49.672225  9047 net.cpp:148] Top shape: 24 512 14 14 (2408448)
I0403 19:16:49.672241  9047 net.cpp:156] Memory required for data: 944714784
I0403 19:16:49.672260  9047 layer_factory.hpp:77] Creating layer loss1/ave_pool
I0403 19:16:49.672286  9047 net.cpp:91] Creating Layer loss1/ave_pool
I0403 19:16:49.672307  9047 net.cpp:425] loss1/ave_pool <- inception_4a/output_inception_4a/output_0_split_0
I0403 19:16:49.672327  9047 net.cpp:399] loss1/ave_pool -> loss1/ave_pool
I0403 19:16:49.672593  9047 net.cpp:141] Setting up loss1/ave_pool
I0403 19:16:49.672628  9047 net.cpp:148] Top shape: 24 512 4 4 (196608)
I0403 19:16:49.672651  9047 net.cpp:156] Memory required for data: 945501216
I0403 19:16:49.672669  9047 layer_factory.hpp:77] Creating layer loss1/conv
I0403 19:16:49.672696  9047 net.cpp:91] Creating Layer loss1/conv
I0403 19:16:49.672718  9047 net.cpp:425] loss1/conv <- loss1/ave_pool
I0403 19:16:49.672740  9047 net.cpp:399] loss1/conv -> loss1/conv
I0403 19:16:49.674448  9047 net.cpp:141] Setting up loss1/conv
I0403 19:16:49.674486  9047 net.cpp:148] Top shape: 24 128 4 4 (49152)
I0403 19:16:49.674510  9047 net.cpp:156] Memory required for data: 945697824
I0403 19:16:49.674552  9047 layer_factory.hpp:77] Creating layer loss1/relu_conv
I0403 19:16:49.674581  9047 net.cpp:91] Creating Layer loss1/relu_conv
I0403 19:16:49.674602  9047 net.cpp:425] loss1/relu_conv <- loss1/conv
I0403 19:16:49.674623  9047 net.cpp:386] loss1/relu_conv -> loss1/conv (in-place)
I0403 19:16:49.674969  9047 net.cpp:141] Setting up loss1/relu_conv
I0403 19:16:49.675003  9047 net.cpp:148] Top shape: 24 128 4 4 (49152)
I0403 19:16:49.675021  9047 net.cpp:156] Memory required for data: 945894432
I0403 19:16:49.675040  9047 layer_factory.hpp:77] Creating layer loss1/fc
I0403 19:16:49.675076  9047 net.cpp:91] Creating Layer loss1/fc
I0403 19:16:49.675099  9047 net.cpp:425] loss1/fc <- loss1/conv
I0403 19:16:49.675122  9047 net.cpp:399] loss1/fc -> loss1/fc
I0403 19:16:49.697000  9047 net.cpp:141] Setting up loss1/fc
I0403 19:16:49.697037  9047 net.cpp:148] Top shape: 24 1024 (24576)
I0403 19:16:49.697057  9047 net.cpp:156] Memory required for data: 945992736
I0403 19:16:49.697080  9047 layer_factory.hpp:77] Creating layer loss1/relu_fc
I0403 19:16:49.697103  9047 net.cpp:91] Creating Layer loss1/relu_fc
I0403 19:16:49.697124  9047 net.cpp:425] loss1/relu_fc <- loss1/fc
I0403 19:16:49.697151  9047 net.cpp:386] loss1/relu_fc -> loss1/fc (in-place)
I0403 19:16:49.697377  9047 net.cpp:141] Setting up loss1/relu_fc
I0403 19:16:49.697409  9047 net.cpp:148] Top shape: 24 1024 (24576)
I0403 19:16:49.697427  9047 net.cpp:156] Memory required for data: 946091040
I0403 19:16:49.697446  9047 layer_factory.hpp:77] Creating layer loss1/drop_fc
I0403 19:16:49.697484  9047 net.cpp:91] Creating Layer loss1/drop_fc
I0403 19:16:49.697506  9047 net.cpp:425] loss1/drop_fc <- loss1/fc
I0403 19:16:49.697530  9047 net.cpp:386] loss1/drop_fc -> loss1/fc (in-place)
I0403 19:16:49.697592  9047 net.cpp:141] Setting up loss1/drop_fc
I0403 19:16:49.697625  9047 net.cpp:148] Top shape: 24 1024 (24576)
I0403 19:16:49.697644  9047 net.cpp:156] Memory required for data: 946189344
I0403 19:16:49.697664  9047 layer_factory.hpp:77] Creating layer loss1/classifier_plantvillage
I0403 19:16:49.697687  9047 net.cpp:91] Creating Layer loss1/classifier_plantvillage
I0403 19:16:49.697705  9047 net.cpp:425] loss1/classifier_plantvillage <- loss1/fc
I0403 19:16:49.697731  9047 net.cpp:399] loss1/classifier_plantvillage -> loss1/classifier_plantvillage
I0403 19:16:49.698815  9047 net.cpp:141] Setting up loss1/classifier_plantvillage
I0403 19:16:49.698850  9047 net.cpp:148] Top shape: 24 38 (912)
I0403 19:16:49.698869  9047 net.cpp:156] Memory required for data: 946192992
I0403 19:16:49.698892  9047 layer_factory.hpp:77] Creating layer loss1/classifier_plantvillage_loss1/classifier_plantvillage_0_split
I0403 19:16:49.698915  9047 net.cpp:91] Creating Layer loss1/classifier_plantvillage_loss1/classifier_plantvillage_0_split
I0403 19:16:49.698935  9047 net.cpp:425] loss1/classifier_plantvillage_loss1/classifier_plantvillage_0_split <- loss1/classifier_plantvillage
I0403 19:16:49.698958  9047 net.cpp:399] loss1/classifier_plantvillage_loss1/classifier_plantvillage_0_split -> loss1/classifier_plantvillage_loss1/classifier_plantvillage_0_split_0
I0403 19:16:49.698984  9047 net.cpp:399] loss1/classifier_plantvillage_loss1/classifier_plantvillage_0_split -> loss1/classifier_plantvillage_loss1/classifier_plantvillage_0_split_1
I0403 19:16:49.699009  9047 net.cpp:399] loss1/classifier_plantvillage_loss1/classifier_plantvillage_0_split -> loss1/classifier_plantvillage_loss1/classifier_plantvillage_0_split_2
I0403 19:16:49.699092  9047 net.cpp:141] Setting up loss1/classifier_plantvillage_loss1/classifier_plantvillage_0_split
I0403 19:16:49.699121  9047 net.cpp:148] Top shape: 24 38 (912)
I0403 19:16:49.699141  9047 net.cpp:148] Top shape: 24 38 (912)
I0403 19:16:49.699162  9047 net.cpp:148] Top shape: 24 38 (912)
I0403 19:16:49.699177  9047 net.cpp:156] Memory required for data: 946203936
I0403 19:16:49.699195  9047 layer_factory.hpp:77] Creating layer inception_4b/1x1
I0403 19:16:49.699223  9047 net.cpp:91] Creating Layer inception_4b/1x1
I0403 19:16:49.699264  9047 net.cpp:425] inception_4b/1x1 <- inception_4a/output_inception_4a/output_0_split_1
I0403 19:16:49.699290  9047 net.cpp:399] inception_4b/1x1 -> inception_4b/1x1
I0403 19:16:49.701285  9047 net.cpp:141] Setting up inception_4b/1x1
I0403 19:16:49.701323  9047 net.cpp:148] Top shape: 24 160 14 14 (752640)
I0403 19:16:49.701341  9047 net.cpp:156] Memory required for data: 949214496
I0403 19:16:49.701364  9047 layer_factory.hpp:77] Creating layer inception_4b/relu_1x1
I0403 19:16:49.701388  9047 net.cpp:91] Creating Layer inception_4b/relu_1x1
I0403 19:16:49.701409  9047 net.cpp:425] inception_4b/relu_1x1 <- inception_4b/1x1
I0403 19:16:49.701431  9047 net.cpp:386] inception_4b/relu_1x1 -> inception_4b/1x1 (in-place)
I0403 19:16:49.701658  9047 net.cpp:141] Setting up inception_4b/relu_1x1
I0403 19:16:49.701692  9047 net.cpp:148] Top shape: 24 160 14 14 (752640)
I0403 19:16:49.701711  9047 net.cpp:156] Memory required for data: 952225056
I0403 19:16:49.701730  9047 layer_factory.hpp:77] Creating layer inception_4b/3x3_reduce
I0403 19:16:49.701761  9047 net.cpp:91] Creating Layer inception_4b/3x3_reduce
I0403 19:16:49.701783  9047 net.cpp:425] inception_4b/3x3_reduce <- inception_4a/output_inception_4a/output_0_split_2
I0403 19:16:49.701807  9047 net.cpp:399] inception_4b/3x3_reduce -> inception_4b/3x3_reduce
I0403 19:16:49.703447  9047 net.cpp:141] Setting up inception_4b/3x3_reduce
I0403 19:16:49.703487  9047 net.cpp:148] Top shape: 24 112 14 14 (526848)
I0403 19:16:49.703513  9047 net.cpp:156] Memory required for data: 954332448
I0403 19:16:49.703536  9047 layer_factory.hpp:77] Creating layer inception_4b/relu_3x3_reduce
I0403 19:16:49.703558  9047 net.cpp:91] Creating Layer inception_4b/relu_3x3_reduce
I0403 19:16:49.703578  9047 net.cpp:425] inception_4b/relu_3x3_reduce <- inception_4b/3x3_reduce
I0403 19:16:49.703600  9047 net.cpp:386] inception_4b/relu_3x3_reduce -> inception_4b/3x3_reduce (in-place)
I0403 19:16:49.703945  9047 net.cpp:141] Setting up inception_4b/relu_3x3_reduce
I0403 19:16:49.703977  9047 net.cpp:148] Top shape: 24 112 14 14 (526848)
I0403 19:16:49.703999  9047 net.cpp:156] Memory required for data: 956439840
I0403 19:16:49.704017  9047 layer_factory.hpp:77] Creating layer inception_4b/3x3
I0403 19:16:49.704041  9047 net.cpp:91] Creating Layer inception_4b/3x3
I0403 19:16:49.704063  9047 net.cpp:425] inception_4b/3x3 <- inception_4b/3x3_reduce
I0403 19:16:49.704090  9047 net.cpp:399] inception_4b/3x3 -> inception_4b/3x3
I0403 19:16:49.707720  9047 net.cpp:141] Setting up inception_4b/3x3
I0403 19:16:49.707756  9047 net.cpp:148] Top shape: 24 224 14 14 (1053696)
I0403 19:16:49.707775  9047 net.cpp:156] Memory required for data: 960654624
I0403 19:16:49.707798  9047 layer_factory.hpp:77] Creating layer inception_4b/relu_3x3
I0403 19:16:49.707819  9047 net.cpp:91] Creating Layer inception_4b/relu_3x3
I0403 19:16:49.707840  9047 net.cpp:425] inception_4b/relu_3x3 <- inception_4b/3x3
I0403 19:16:49.707864  9047 net.cpp:386] inception_4b/relu_3x3 -> inception_4b/3x3 (in-place)
I0403 19:16:49.708089  9047 net.cpp:141] Setting up inception_4b/relu_3x3
I0403 19:16:49.708140  9047 net.cpp:148] Top shape: 24 224 14 14 (1053696)
I0403 19:16:49.708159  9047 net.cpp:156] Memory required for data: 964869408
I0403 19:16:49.708178  9047 layer_factory.hpp:77] Creating layer inception_4b/5x5_reduce
I0403 19:16:49.708205  9047 net.cpp:91] Creating Layer inception_4b/5x5_reduce
I0403 19:16:49.708227  9047 net.cpp:425] inception_4b/5x5_reduce <- inception_4a/output_inception_4a/output_0_split_3
I0403 19:16:49.708256  9047 net.cpp:399] inception_4b/5x5_reduce -> inception_4b/5x5_reduce
I0403 19:16:49.709599  9047 net.cpp:141] Setting up inception_4b/5x5_reduce
I0403 19:16:49.709635  9047 net.cpp:148] Top shape: 24 24 14 14 (112896)
I0403 19:16:49.709653  9047 net.cpp:156] Memory required for data: 965320992
I0403 19:16:49.709676  9047 layer_factory.hpp:77] Creating layer inception_4b/relu_5x5_reduce
I0403 19:16:49.709702  9047 net.cpp:91] Creating Layer inception_4b/relu_5x5_reduce
I0403 19:16:49.709740  9047 net.cpp:425] inception_4b/relu_5x5_reduce <- inception_4b/5x5_reduce
I0403 19:16:49.709764  9047 net.cpp:386] inception_4b/relu_5x5_reduce -> inception_4b/5x5_reduce (in-place)
I0403 19:16:49.709990  9047 net.cpp:141] Setting up inception_4b/relu_5x5_reduce
I0403 19:16:49.710023  9047 net.cpp:148] Top shape: 24 24 14 14 (112896)
I0403 19:16:49.710042  9047 net.cpp:156] Memory required for data: 965772576
I0403 19:16:49.710062  9047 layer_factory.hpp:77] Creating layer inception_4b/5x5
I0403 19:16:49.710088  9047 net.cpp:91] Creating Layer inception_4b/5x5
I0403 19:16:49.710110  9047 net.cpp:425] inception_4b/5x5 <- inception_4b/5x5_reduce
I0403 19:16:49.710134  9047 net.cpp:399] inception_4b/5x5 -> inception_4b/5x5
I0403 19:16:49.711640  9047 net.cpp:141] Setting up inception_4b/5x5
I0403 19:16:49.711674  9047 net.cpp:148] Top shape: 24 64 14 14 (301056)
I0403 19:16:49.711694  9047 net.cpp:156] Memory required for data: 966976800
I0403 19:16:49.711717  9047 layer_factory.hpp:77] Creating layer inception_4b/relu_5x5
I0403 19:16:49.711746  9047 net.cpp:91] Creating Layer inception_4b/relu_5x5
I0403 19:16:49.711768  9047 net.cpp:425] inception_4b/relu_5x5 <- inception_4b/5x5
I0403 19:16:49.711789  9047 net.cpp:386] inception_4b/relu_5x5 -> inception_4b/5x5 (in-place)
I0403 19:16:49.712132  9047 net.cpp:141] Setting up inception_4b/relu_5x5
I0403 19:16:49.712167  9047 net.cpp:148] Top shape: 24 64 14 14 (301056)
I0403 19:16:49.712187  9047 net.cpp:156] Memory required for data: 968181024
I0403 19:16:49.712204  9047 layer_factory.hpp:77] Creating layer inception_4b/pool
I0403 19:16:49.712227  9047 net.cpp:91] Creating Layer inception_4b/pool
I0403 19:16:49.712249  9047 net.cpp:425] inception_4b/pool <- inception_4a/output_inception_4a/output_0_split_4
I0403 19:16:49.712275  9047 net.cpp:399] inception_4b/pool -> inception_4b/pool
I0403 19:16:49.712355  9047 net.cpp:141] Setting up inception_4b/pool
I0403 19:16:49.712385  9047 net.cpp:148] Top shape: 24 512 14 14 (2408448)
I0403 19:16:49.712404  9047 net.cpp:156] Memory required for data: 977814816
I0403 19:16:49.712421  9047 layer_factory.hpp:77] Creating layer inception_4b/pool_proj
I0403 19:16:49.712448  9047 net.cpp:91] Creating Layer inception_4b/pool_proj
I0403 19:16:49.712484  9047 net.cpp:425] inception_4b/pool_proj <- inception_4b/pool
I0403 19:16:49.712513  9047 net.cpp:399] inception_4b/pool_proj -> inception_4b/pool_proj
I0403 19:16:49.713979  9047 net.cpp:141] Setting up inception_4b/pool_proj
I0403 19:16:49.714015  9047 net.cpp:148] Top shape: 24 64 14 14 (301056)
I0403 19:16:49.714033  9047 net.cpp:156] Memory required for data: 979019040
I0403 19:16:49.714056  9047 layer_factory.hpp:77] Creating layer inception_4b/relu_pool_proj
I0403 19:16:49.714082  9047 net.cpp:91] Creating Layer inception_4b/relu_pool_proj
I0403 19:16:49.714103  9047 net.cpp:425] inception_4b/relu_pool_proj <- inception_4b/pool_proj
I0403 19:16:49.714125  9047 net.cpp:386] inception_4b/relu_pool_proj -> inception_4b/pool_proj (in-place)
I0403 19:16:49.714346  9047 net.cpp:141] Setting up inception_4b/relu_pool_proj
I0403 19:16:49.714381  9047 net.cpp:148] Top shape: 24 64 14 14 (301056)
I0403 19:16:49.714401  9047 net.cpp:156] Memory required for data: 980223264
I0403 19:16:49.714419  9047 layer_factory.hpp:77] Creating layer inception_4b/output
I0403 19:16:49.714442  9047 net.cpp:91] Creating Layer inception_4b/output
I0403 19:16:49.714467  9047 net.cpp:425] inception_4b/output <- inception_4b/1x1
I0403 19:16:49.714495  9047 net.cpp:425] inception_4b/output <- inception_4b/3x3
I0403 19:16:49.714515  9047 net.cpp:425] inception_4b/output <- inception_4b/5x5
I0403 19:16:49.714534  9047 net.cpp:425] inception_4b/output <- inception_4b/pool_proj
I0403 19:16:49.714555  9047 net.cpp:399] inception_4b/output -> inception_4b/output
I0403 19:16:49.714612  9047 net.cpp:141] Setting up inception_4b/output
I0403 19:16:49.714642  9047 net.cpp:148] Top shape: 24 512 14 14 (2408448)
I0403 19:16:49.714660  9047 net.cpp:156] Memory required for data: 989857056
I0403 19:16:49.714695  9047 layer_factory.hpp:77] Creating layer inception_4b/output_inception_4b/output_0_split
I0403 19:16:49.714721  9047 net.cpp:91] Creating Layer inception_4b/output_inception_4b/output_0_split
I0403 19:16:49.714742  9047 net.cpp:425] inception_4b/output_inception_4b/output_0_split <- inception_4b/output
I0403 19:16:49.714763  9047 net.cpp:399] inception_4b/output_inception_4b/output_0_split -> inception_4b/output_inception_4b/output_0_split_0
I0403 19:16:49.714788  9047 net.cpp:399] inception_4b/output_inception_4b/output_0_split -> inception_4b/output_inception_4b/output_0_split_1
I0403 19:16:49.714813  9047 net.cpp:399] inception_4b/output_inception_4b/output_0_split -> inception_4b/output_inception_4b/output_0_split_2
I0403 19:16:49.714838  9047 net.cpp:399] inception_4b/output_inception_4b/output_0_split -> inception_4b/output_inception_4b/output_0_split_3
I0403 19:16:49.714941  9047 net.cpp:141] Setting up inception_4b/output_inception_4b/output_0_split
I0403 19:16:49.714969  9047 net.cpp:148] Top shape: 24 512 14 14 (2408448)
I0403 19:16:49.714990  9047 net.cpp:148] Top shape: 24 512 14 14 (2408448)
I0403 19:16:49.715009  9047 net.cpp:148] Top shape: 24 512 14 14 (2408448)
I0403 19:16:49.715029  9047 net.cpp:148] Top shape: 24 512 14 14 (2408448)
I0403 19:16:49.715045  9047 net.cpp:156] Memory required for data: 1028392224
I0403 19:16:49.715065  9047 layer_factory.hpp:77] Creating layer inception_4c/1x1
I0403 19:16:49.715095  9047 net.cpp:91] Creating Layer inception_4c/1x1
I0403 19:16:49.715117  9047 net.cpp:425] inception_4c/1x1 <- inception_4b/output_inception_4b/output_0_split_0
I0403 19:16:49.715143  9047 net.cpp:399] inception_4c/1x1 -> inception_4c/1x1
I0403 19:16:49.716895  9047 net.cpp:141] Setting up inception_4c/1x1
I0403 19:16:49.716933  9047 net.cpp:148] Top shape: 24 128 14 14 (602112)
I0403 19:16:49.716954  9047 net.cpp:156] Memory required for data: 1030800672
I0403 19:16:49.716979  9047 layer_factory.hpp:77] Creating layer inception_4c/relu_1x1
I0403 19:16:49.717000  9047 net.cpp:91] Creating Layer inception_4c/relu_1x1
I0403 19:16:49.717020  9047 net.cpp:425] inception_4c/relu_1x1 <- inception_4c/1x1
I0403 19:16:49.717044  9047 net.cpp:386] inception_4c/relu_1x1 -> inception_4c/1x1 (in-place)
I0403 19:16:49.717272  9047 net.cpp:141] Setting up inception_4c/relu_1x1
I0403 19:16:49.717303  9047 net.cpp:148] Top shape: 24 128 14 14 (602112)
I0403 19:16:49.717322  9047 net.cpp:156] Memory required for data: 1033209120
I0403 19:16:49.717341  9047 layer_factory.hpp:77] Creating layer inception_4c/3x3_reduce
I0403 19:16:49.717370  9047 net.cpp:91] Creating Layer inception_4c/3x3_reduce
I0403 19:16:49.717391  9047 net.cpp:425] inception_4c/3x3_reduce <- inception_4b/output_inception_4b/output_0_split_1
I0403 19:16:49.717416  9047 net.cpp:399] inception_4c/3x3_reduce -> inception_4c/3x3_reduce
I0403 19:16:49.719763  9047 net.cpp:141] Setting up inception_4c/3x3_reduce
I0403 19:16:49.719799  9047 net.cpp:148] Top shape: 24 128 14 14 (602112)
I0403 19:16:49.719818  9047 net.cpp:156] Memory required for data: 1035617568
I0403 19:16:49.719842  9047 layer_factory.hpp:77] Creating layer inception_4c/relu_3x3_reduce
I0403 19:16:49.719867  9047 net.cpp:91] Creating Layer inception_4c/relu_3x3_reduce
I0403 19:16:49.719887  9047 net.cpp:425] inception_4c/relu_3x3_reduce <- inception_4c/3x3_reduce
I0403 19:16:49.719909  9047 net.cpp:386] inception_4c/relu_3x3_reduce -> inception_4c/3x3_reduce (in-place)
I0403 19:16:49.720258  9047 net.cpp:141] Setting up inception_4c/relu_3x3_reduce
I0403 19:16:49.720291  9047 net.cpp:148] Top shape: 24 128 14 14 (602112)
I0403 19:16:49.720310  9047 net.cpp:156] Memory required for data: 1038026016
I0403 19:16:49.720329  9047 layer_factory.hpp:77] Creating layer inception_4c/3x3
I0403 19:16:49.720356  9047 net.cpp:91] Creating Layer inception_4c/3x3
I0403 19:16:49.720378  9047 net.cpp:425] inception_4c/3x3 <- inception_4c/3x3_reduce
I0403 19:16:49.720403  9047 net.cpp:399] inception_4c/3x3 -> inception_4c/3x3
I0403 19:16:49.724807  9047 net.cpp:141] Setting up inception_4c/3x3
I0403 19:16:49.724876  9047 net.cpp:148] Top shape: 24 256 14 14 (1204224)
I0403 19:16:49.724931  9047 net.cpp:156] Memory required for data: 1042842912
I0403 19:16:49.725003  9047 layer_factory.hpp:77] Creating layer inception_4c/relu_3x3
I0403 19:16:49.725033  9047 net.cpp:91] Creating Layer inception_4c/relu_3x3
I0403 19:16:49.725052  9047 net.cpp:425] inception_4c/relu_3x3 <- inception_4c/3x3
I0403 19:16:49.725074  9047 net.cpp:386] inception_4c/relu_3x3 -> inception_4c/3x3 (in-place)
I0403 19:16:49.725301  9047 net.cpp:141] Setting up inception_4c/relu_3x3
I0403 19:16:49.725332  9047 net.cpp:148] Top shape: 24 256 14 14 (1204224)
I0403 19:16:49.725352  9047 net.cpp:156] Memory required for data: 1047659808
I0403 19:16:49.725370  9047 layer_factory.hpp:77] Creating layer inception_4c/5x5_reduce
I0403 19:16:49.725399  9047 net.cpp:91] Creating Layer inception_4c/5x5_reduce
I0403 19:16:49.725420  9047 net.cpp:425] inception_4c/5x5_reduce <- inception_4b/output_inception_4b/output_0_split_2
I0403 19:16:49.725446  9047 net.cpp:399] inception_4c/5x5_reduce -> inception_4c/5x5_reduce
I0403 19:16:49.726789  9047 net.cpp:141] Setting up inception_4c/5x5_reduce
I0403 19:16:49.726824  9047 net.cpp:148] Top shape: 24 24 14 14 (112896)
I0403 19:16:49.726845  9047 net.cpp:156] Memory required for data: 1048111392
I0403 19:16:49.726868  9047 layer_factory.hpp:77] Creating layer inception_4c/relu_5x5_reduce
I0403 19:16:49.726893  9047 net.cpp:91] Creating Layer inception_4c/relu_5x5_reduce
I0403 19:16:49.726914  9047 net.cpp:425] inception_4c/relu_5x5_reduce <- inception_4c/5x5_reduce
I0403 19:16:49.726938  9047 net.cpp:386] inception_4c/relu_5x5_reduce -> inception_4c/5x5_reduce (in-place)
I0403 19:16:49.727187  9047 net.cpp:141] Setting up inception_4c/relu_5x5_reduce
I0403 19:16:49.727222  9047 net.cpp:148] Top shape: 24 24 14 14 (112896)
I0403 19:16:49.727241  9047 net.cpp:156] Memory required for data: 1048562976
I0403 19:16:49.727260  9047 layer_factory.hpp:77] Creating layer inception_4c/5x5
I0403 19:16:49.727288  9047 net.cpp:91] Creating Layer inception_4c/5x5
I0403 19:16:49.727309  9047 net.cpp:425] inception_4c/5x5 <- inception_4c/5x5_reduce
I0403 19:16:49.727332  9047 net.cpp:399] inception_4c/5x5 -> inception_4c/5x5
I0403 19:16:49.728857  9047 net.cpp:141] Setting up inception_4c/5x5
I0403 19:16:49.728914  9047 net.cpp:148] Top shape: 24 64 14 14 (301056)
I0403 19:16:49.728960  9047 net.cpp:156] Memory required for data: 1049767200
I0403 19:16:49.729012  9047 layer_factory.hpp:77] Creating layer inception_4c/relu_5x5
I0403 19:16:49.729037  9047 net.cpp:91] Creating Layer inception_4c/relu_5x5
I0403 19:16:49.729056  9047 net.cpp:425] inception_4c/relu_5x5 <- inception_4c/5x5
I0403 19:16:49.729077  9047 net.cpp:386] inception_4c/relu_5x5 -> inception_4c/5x5 (in-place)
I0403 19:16:49.729430  9047 net.cpp:141] Setting up inception_4c/relu_5x5
I0403 19:16:49.729471  9047 net.cpp:148] Top shape: 24 64 14 14 (301056)
I0403 19:16:49.729492  9047 net.cpp:156] Memory required for data: 1050971424
I0403 19:16:49.729512  9047 layer_factory.hpp:77] Creating layer inception_4c/pool
I0403 19:16:49.729534  9047 net.cpp:91] Creating Layer inception_4c/pool
I0403 19:16:49.729555  9047 net.cpp:425] inception_4c/pool <- inception_4b/output_inception_4b/output_0_split_3
I0403 19:16:49.729578  9047 net.cpp:399] inception_4c/pool -> inception_4c/pool
I0403 19:16:49.729660  9047 net.cpp:141] Setting up inception_4c/pool
I0403 19:16:49.729688  9047 net.cpp:148] Top shape: 24 512 14 14 (2408448)
I0403 19:16:49.729707  9047 net.cpp:156] Memory required for data: 1060605216
I0403 19:16:49.729725  9047 layer_factory.hpp:77] Creating layer inception_4c/pool_proj
I0403 19:16:49.729753  9047 net.cpp:91] Creating Layer inception_4c/pool_proj
I0403 19:16:49.729775  9047 net.cpp:425] inception_4c/pool_proj <- inception_4c/pool
I0403 19:16:49.729801  9047 net.cpp:399] inception_4c/pool_proj -> inception_4c/pool_proj
I0403 19:16:49.731303  9047 net.cpp:141] Setting up inception_4c/pool_proj
I0403 19:16:49.731339  9047 net.cpp:148] Top shape: 24 64 14 14 (301056)
I0403 19:16:49.731374  9047 net.cpp:156] Memory required for data: 1061809440
I0403 19:16:49.731400  9047 layer_factory.hpp:77] Creating layer inception_4c/relu_pool_proj
I0403 19:16:49.731425  9047 net.cpp:91] Creating Layer inception_4c/relu_pool_proj
I0403 19:16:49.731446  9047 net.cpp:425] inception_4c/relu_pool_proj <- inception_4c/pool_proj
I0403 19:16:49.731472  9047 net.cpp:386] inception_4c/relu_pool_proj -> inception_4c/pool_proj (in-place)
I0403 19:16:49.731698  9047 net.cpp:141] Setting up inception_4c/relu_pool_proj
I0403 19:16:49.731734  9047 net.cpp:148] Top shape: 24 64 14 14 (301056)
I0403 19:16:49.731751  9047 net.cpp:156] Memory required for data: 1063013664
I0403 19:16:49.731771  9047 layer_factory.hpp:77] Creating layer inception_4c/output
I0403 19:16:49.731793  9047 net.cpp:91] Creating Layer inception_4c/output
I0403 19:16:49.731812  9047 net.cpp:425] inception_4c/output <- inception_4c/1x1
I0403 19:16:49.731832  9047 net.cpp:425] inception_4c/output <- inception_4c/3x3
I0403 19:16:49.731853  9047 net.cpp:425] inception_4c/output <- inception_4c/5x5
I0403 19:16:49.731873  9047 net.cpp:425] inception_4c/output <- inception_4c/pool_proj
I0403 19:16:49.731892  9047 net.cpp:399] inception_4c/output -> inception_4c/output
I0403 19:16:49.731951  9047 net.cpp:141] Setting up inception_4c/output
I0403 19:16:49.731981  9047 net.cpp:148] Top shape: 24 512 14 14 (2408448)
I0403 19:16:49.731998  9047 net.cpp:156] Memory required for data: 1072647456
I0403 19:16:49.732017  9047 layer_factory.hpp:77] Creating layer inception_4c/output_inception_4c/output_0_split
I0403 19:16:49.732040  9047 net.cpp:91] Creating Layer inception_4c/output_inception_4c/output_0_split
I0403 19:16:49.732060  9047 net.cpp:425] inception_4c/output_inception_4c/output_0_split <- inception_4c/output
I0403 19:16:49.732081  9047 net.cpp:399] inception_4c/output_inception_4c/output_0_split -> inception_4c/output_inception_4c/output_0_split_0
I0403 19:16:49.732106  9047 net.cpp:399] inception_4c/output_inception_4c/output_0_split -> inception_4c/output_inception_4c/output_0_split_1
I0403 19:16:49.732131  9047 net.cpp:399] inception_4c/output_inception_4c/output_0_split -> inception_4c/output_inception_4c/output_0_split_2
I0403 19:16:49.732156  9047 net.cpp:399] inception_4c/output_inception_4c/output_0_split -> inception_4c/output_inception_4c/output_0_split_3
I0403 19:16:49.732264  9047 net.cpp:141] Setting up inception_4c/output_inception_4c/output_0_split
I0403 19:16:49.732292  9047 net.cpp:148] Top shape: 24 512 14 14 (2408448)
I0403 19:16:49.732312  9047 net.cpp:148] Top shape: 24 512 14 14 (2408448)
I0403 19:16:49.732331  9047 net.cpp:148] Top shape: 24 512 14 14 (2408448)
I0403 19:16:49.732350  9047 net.cpp:148] Top shape: 24 512 14 14 (2408448)
I0403 19:16:49.732368  9047 net.cpp:156] Memory required for data: 1111182624
I0403 19:16:49.732386  9047 layer_factory.hpp:77] Creating layer inception_4d/1x1
I0403 19:16:49.732414  9047 net.cpp:91] Creating Layer inception_4d/1x1
I0403 19:16:49.732435  9047 net.cpp:425] inception_4d/1x1 <- inception_4c/output_inception_4c/output_0_split_0
I0403 19:16:49.732471  9047 net.cpp:399] inception_4d/1x1 -> inception_4d/1x1
I0403 19:16:49.734199  9047 net.cpp:141] Setting up inception_4d/1x1
I0403 19:16:49.734235  9047 net.cpp:148] Top shape: 24 112 14 14 (526848)
I0403 19:16:49.734253  9047 net.cpp:156] Memory required for data: 1113290016
I0403 19:16:49.734277  9047 layer_factory.hpp:77] Creating layer inception_4d/relu_1x1
I0403 19:16:49.734299  9047 net.cpp:91] Creating Layer inception_4d/relu_1x1
I0403 19:16:49.734319  9047 net.cpp:425] inception_4d/relu_1x1 <- inception_4d/1x1
I0403 19:16:49.734344  9047 net.cpp:386] inception_4d/relu_1x1 -> inception_4d/1x1 (in-place)
I0403 19:16:49.734578  9047 net.cpp:141] Setting up inception_4d/relu_1x1
I0403 19:16:49.734611  9047 net.cpp:148] Top shape: 24 112 14 14 (526848)
I0403 19:16:49.734629  9047 net.cpp:156] Memory required for data: 1115397408
I0403 19:16:49.734647  9047 layer_factory.hpp:77] Creating layer inception_4d/3x3_reduce
I0403 19:16:49.734693  9047 net.cpp:91] Creating Layer inception_4d/3x3_reduce
I0403 19:16:49.734716  9047 net.cpp:425] inception_4d/3x3_reduce <- inception_4c/output_inception_4c/output_0_split_1
I0403 19:16:49.734742  9047 net.cpp:399] inception_4d/3x3_reduce -> inception_4d/3x3_reduce
I0403 19:16:49.736604  9047 net.cpp:141] Setting up inception_4d/3x3_reduce
I0403 19:16:49.736641  9047 net.cpp:148] Top shape: 24 144 14 14 (677376)
I0403 19:16:49.736663  9047 net.cpp:156] Memory required for data: 1118106912
I0403 19:16:49.736686  9047 layer_factory.hpp:77] Creating layer inception_4d/relu_3x3_reduce
I0403 19:16:49.736709  9047 net.cpp:91] Creating Layer inception_4d/relu_3x3_reduce
I0403 19:16:49.736729  9047 net.cpp:425] inception_4d/relu_3x3_reduce <- inception_4d/3x3_reduce
I0403 19:16:49.736753  9047 net.cpp:386] inception_4d/relu_3x3_reduce -> inception_4d/3x3_reduce (in-place)
I0403 19:16:49.737110  9047 net.cpp:141] Setting up inception_4d/relu_3x3_reduce
I0403 19:16:49.737146  9047 net.cpp:148] Top shape: 24 144 14 14 (677376)
I0403 19:16:49.737166  9047 net.cpp:156] Memory required for data: 1120816416
I0403 19:16:49.737185  9047 layer_factory.hpp:77] Creating layer inception_4d/3x3
I0403 19:16:49.737211  9047 net.cpp:91] Creating Layer inception_4d/3x3
I0403 19:16:49.737233  9047 net.cpp:425] inception_4d/3x3 <- inception_4d/3x3_reduce
I0403 19:16:49.737257  9047 net.cpp:399] inception_4d/3x3 -> inception_4d/3x3
I0403 19:16:49.742496  9047 net.cpp:141] Setting up inception_4d/3x3
I0403 19:16:49.742533  9047 net.cpp:148] Top shape: 24 288 14 14 (1354752)
I0403 19:16:49.742553  9047 net.cpp:156] Memory required for data: 1126235424
I0403 19:16:49.742575  9047 layer_factory.hpp:77] Creating layer inception_4d/relu_3x3
I0403 19:16:49.742601  9047 net.cpp:91] Creating Layer inception_4d/relu_3x3
I0403 19:16:49.742620  9047 net.cpp:425] inception_4d/relu_3x3 <- inception_4d/3x3
I0403 19:16:49.742642  9047 net.cpp:386] inception_4d/relu_3x3 -> inception_4d/3x3 (in-place)
I0403 19:16:49.742866  9047 net.cpp:141] Setting up inception_4d/relu_3x3
I0403 19:16:49.742897  9047 net.cpp:148] Top shape: 24 288 14 14 (1354752)
I0403 19:16:49.742915  9047 net.cpp:156] Memory required for data: 1131654432
I0403 19:16:49.742933  9047 layer_factory.hpp:77] Creating layer inception_4d/5x5_reduce
I0403 19:16:49.742960  9047 net.cpp:91] Creating Layer inception_4d/5x5_reduce
I0403 19:16:49.742983  9047 net.cpp:425] inception_4d/5x5_reduce <- inception_4c/output_inception_4c/output_0_split_2
I0403 19:16:49.743010  9047 net.cpp:399] inception_4d/5x5_reduce -> inception_4d/5x5_reduce
I0403 19:16:49.744428  9047 net.cpp:141] Setting up inception_4d/5x5_reduce
I0403 19:16:49.744468  9047 net.cpp:148] Top shape: 24 32 14 14 (150528)
I0403 19:16:49.744489  9047 net.cpp:156] Memory required for data: 1132256544
I0403 19:16:49.744513  9047 layer_factory.hpp:77] Creating layer inception_4d/relu_5x5_reduce
I0403 19:16:49.744535  9047 net.cpp:91] Creating Layer inception_4d/relu_5x5_reduce
I0403 19:16:49.744555  9047 net.cpp:425] inception_4d/relu_5x5_reduce <- inception_4d/5x5_reduce
I0403 19:16:49.744580  9047 net.cpp:386] inception_4d/relu_5x5_reduce -> inception_4d/5x5_reduce (in-place)
I0403 19:16:49.744812  9047 net.cpp:141] Setting up inception_4d/relu_5x5_reduce
I0403 19:16:49.744843  9047 net.cpp:148] Top shape: 24 32 14 14 (150528)
I0403 19:16:49.744863  9047 net.cpp:156] Memory required for data: 1132858656
I0403 19:16:49.744881  9047 layer_factory.hpp:77] Creating layer inception_4d/5x5
I0403 19:16:49.744909  9047 net.cpp:91] Creating Layer inception_4d/5x5
I0403 19:16:49.744930  9047 net.cpp:425] inception_4d/5x5 <- inception_4d/5x5_reduce
I0403 19:16:49.744957  9047 net.cpp:399] inception_4d/5x5 -> inception_4d/5x5
I0403 19:16:49.746752  9047 net.cpp:141] Setting up inception_4d/5x5
I0403 19:16:49.746786  9047 net.cpp:148] Top shape: 24 64 14 14 (301056)
I0403 19:16:49.746805  9047 net.cpp:156] Memory required for data: 1134062880
I0403 19:16:49.746829  9047 layer_factory.hpp:77] Creating layer inception_4d/relu_5x5
I0403 19:16:49.746873  9047 net.cpp:91] Creating Layer inception_4d/relu_5x5
I0403 19:16:49.746894  9047 net.cpp:425] inception_4d/relu_5x5 <- inception_4d/5x5
I0403 19:16:49.746917  9047 net.cpp:386] inception_4d/relu_5x5 -> inception_4d/5x5 (in-place)
I0403 19:16:49.747278  9047 net.cpp:141] Setting up inception_4d/relu_5x5
I0403 19:16:49.747313  9047 net.cpp:148] Top shape: 24 64 14 14 (301056)
I0403 19:16:49.747335  9047 net.cpp:156] Memory required for data: 1135267104
I0403 19:16:49.747354  9047 layer_factory.hpp:77] Creating layer inception_4d/pool
I0403 19:16:49.747377  9047 net.cpp:91] Creating Layer inception_4d/pool
I0403 19:16:49.747398  9047 net.cpp:425] inception_4d/pool <- inception_4c/output_inception_4c/output_0_split_3
I0403 19:16:49.747421  9047 net.cpp:399] inception_4d/pool -> inception_4d/pool
I0403 19:16:49.747510  9047 net.cpp:141] Setting up inception_4d/pool
I0403 19:16:49.747565  9047 net.cpp:148] Top shape: 24 512 14 14 (2408448)
I0403 19:16:49.747617  9047 net.cpp:156] Memory required for data: 1144900896
I0403 19:16:49.747642  9047 layer_factory.hpp:77] Creating layer inception_4d/pool_proj
I0403 19:16:49.747669  9047 net.cpp:91] Creating Layer inception_4d/pool_proj
I0403 19:16:49.747690  9047 net.cpp:425] inception_4d/pool_proj <- inception_4d/pool
I0403 19:16:49.747717  9047 net.cpp:399] inception_4d/pool_proj -> inception_4d/pool_proj
I0403 19:16:49.749851  9047 net.cpp:141] Setting up inception_4d/pool_proj
I0403 19:16:49.749889  9047 net.cpp:148] Top shape: 24 64 14 14 (301056)
I0403 19:16:49.749908  9047 net.cpp:156] Memory required for data: 1146105120
I0403 19:16:49.749933  9047 layer_factory.hpp:77] Creating layer inception_4d/relu_pool_proj
I0403 19:16:49.749958  9047 net.cpp:91] Creating Layer inception_4d/relu_pool_proj
I0403 19:16:49.749979  9047 net.cpp:425] inception_4d/relu_pool_proj <- inception_4d/pool_proj
I0403 19:16:49.750001  9047 net.cpp:386] inception_4d/relu_pool_proj -> inception_4d/pool_proj (in-place)
I0403 19:16:49.750227  9047 net.cpp:141] Setting up inception_4d/relu_pool_proj
I0403 19:16:49.750259  9047 net.cpp:148] Top shape: 24 64 14 14 (301056)
I0403 19:16:49.750278  9047 net.cpp:156] Memory required for data: 1147309344
I0403 19:16:49.750296  9047 layer_factory.hpp:77] Creating layer inception_4d/output
I0403 19:16:49.750319  9047 net.cpp:91] Creating Layer inception_4d/output
I0403 19:16:49.750340  9047 net.cpp:425] inception_4d/output <- inception_4d/1x1
I0403 19:16:49.750361  9047 net.cpp:425] inception_4d/output <- inception_4d/3x3
I0403 19:16:49.750380  9047 net.cpp:425] inception_4d/output <- inception_4d/5x5
I0403 19:16:49.750401  9047 net.cpp:425] inception_4d/output <- inception_4d/pool_proj
I0403 19:16:49.750422  9047 net.cpp:399] inception_4d/output -> inception_4d/output
I0403 19:16:49.750488  9047 net.cpp:141] Setting up inception_4d/output
I0403 19:16:49.750519  9047 net.cpp:148] Top shape: 24 528 14 14 (2483712)
I0403 19:16:49.750536  9047 net.cpp:156] Memory required for data: 1157244192
I0403 19:16:49.750555  9047 layer_factory.hpp:77] Creating layer inception_4d/output_inception_4d/output_0_split
I0403 19:16:49.750577  9047 net.cpp:91] Creating Layer inception_4d/output_inception_4d/output_0_split
I0403 19:16:49.750597  9047 net.cpp:425] inception_4d/output_inception_4d/output_0_split <- inception_4d/output
I0403 19:16:49.750622  9047 net.cpp:399] inception_4d/output_inception_4d/output_0_split -> inception_4d/output_inception_4d/output_0_split_0
I0403 19:16:49.750648  9047 net.cpp:399] inception_4d/output_inception_4d/output_0_split -> inception_4d/output_inception_4d/output_0_split_1
I0403 19:16:49.750674  9047 net.cpp:399] inception_4d/output_inception_4d/output_0_split -> inception_4d/output_inception_4d/output_0_split_2
I0403 19:16:49.750699  9047 net.cpp:399] inception_4d/output_inception_4d/output_0_split -> inception_4d/output_inception_4d/output_0_split_3
I0403 19:16:49.750725  9047 net.cpp:399] inception_4d/output_inception_4d/output_0_split -> inception_4d/output_inception_4d/output_0_split_4
I0403 19:16:49.750854  9047 net.cpp:141] Setting up inception_4d/output_inception_4d/output_0_split
I0403 19:16:49.750896  9047 net.cpp:148] Top shape: 24 528 14 14 (2483712)
I0403 19:16:49.750919  9047 net.cpp:148] Top shape: 24 528 14 14 (2483712)
I0403 19:16:49.750938  9047 net.cpp:148] Top shape: 24 528 14 14 (2483712)
I0403 19:16:49.750957  9047 net.cpp:148] Top shape: 24 528 14 14 (2483712)
I0403 19:16:49.750977  9047 net.cpp:148] Top shape: 24 528 14 14 (2483712)
I0403 19:16:49.750993  9047 net.cpp:156] Memory required for data: 1206918432
I0403 19:16:49.751011  9047 layer_factory.hpp:77] Creating layer loss2/ave_pool
I0403 19:16:49.751034  9047 net.cpp:91] Creating Layer loss2/ave_pool
I0403 19:16:49.751055  9047 net.cpp:425] loss2/ave_pool <- inception_4d/output_inception_4d/output_0_split_0
I0403 19:16:49.751080  9047 net.cpp:399] loss2/ave_pool -> loss2/ave_pool
I0403 19:16:49.751478  9047 net.cpp:141] Setting up loss2/ave_pool
I0403 19:16:49.751512  9047 net.cpp:148] Top shape: 24 528 4 4 (202752)
I0403 19:16:49.751530  9047 net.cpp:156] Memory required for data: 1207729440
I0403 19:16:49.751549  9047 layer_factory.hpp:77] Creating layer loss2/conv
I0403 19:16:49.751577  9047 net.cpp:91] Creating Layer loss2/conv
I0403 19:16:49.751601  9047 net.cpp:425] loss2/conv <- loss2/ave_pool
I0403 19:16:49.751628  9047 net.cpp:399] loss2/conv -> loss2/conv
I0403 19:16:49.753948  9047 net.cpp:141] Setting up loss2/conv
I0403 19:16:49.753988  9047 net.cpp:148] Top shape: 24 128 4 4 (49152)
I0403 19:16:49.754006  9047 net.cpp:156] Memory required for data: 1207926048
I0403 19:16:49.754029  9047 layer_factory.hpp:77] Creating layer loss2/relu_conv
I0403 19:16:49.754055  9047 net.cpp:91] Creating Layer loss2/relu_conv
I0403 19:16:49.754076  9047 net.cpp:425] loss2/relu_conv <- loss2/conv
I0403 19:16:49.754097  9047 net.cpp:386] loss2/relu_conv -> loss2/conv (in-place)
I0403 19:16:49.754451  9047 net.cpp:141] Setting up loss2/relu_conv
I0403 19:16:49.754489  9047 net.cpp:148] Top shape: 24 128 4 4 (49152)
I0403 19:16:49.754508  9047 net.cpp:156] Memory required for data: 1208122656
I0403 19:16:49.754528  9047 layer_factory.hpp:77] Creating layer loss2/fc
I0403 19:16:49.754554  9047 net.cpp:91] Creating Layer loss2/fc
I0403 19:16:49.754575  9047 net.cpp:425] loss2/fc <- loss2/conv
I0403 19:16:49.754601  9047 net.cpp:399] loss2/fc -> loss2/fc
I0403 19:16:49.776386  9047 net.cpp:141] Setting up loss2/fc
I0403 19:16:49.776425  9047 net.cpp:148] Top shape: 24 1024 (24576)
I0403 19:16:49.776444  9047 net.cpp:156] Memory required for data: 1208220960
I0403 19:16:49.776471  9047 layer_factory.hpp:77] Creating layer loss2/relu_fc
I0403 19:16:49.776497  9047 net.cpp:91] Creating Layer loss2/relu_fc
I0403 19:16:49.776518  9047 net.cpp:425] loss2/relu_fc <- loss2/fc
I0403 19:16:49.776543  9047 net.cpp:386] loss2/relu_fc -> loss2/fc (in-place)
I0403 19:16:49.776902  9047 net.cpp:141] Setting up loss2/relu_fc
I0403 19:16:49.776937  9047 net.cpp:148] Top shape: 24 1024 (24576)
I0403 19:16:49.776954  9047 net.cpp:156] Memory required for data: 1208319264
I0403 19:16:49.776973  9047 layer_factory.hpp:77] Creating layer loss2/drop_fc
I0403 19:16:49.776995  9047 net.cpp:91] Creating Layer loss2/drop_fc
I0403 19:16:49.777015  9047 net.cpp:425] loss2/drop_fc <- loss2/fc
I0403 19:16:49.777040  9047 net.cpp:386] loss2/drop_fc -> loss2/fc (in-place)
I0403 19:16:49.777104  9047 net.cpp:141] Setting up loss2/drop_fc
I0403 19:16:49.777132  9047 net.cpp:148] Top shape: 24 1024 (24576)
I0403 19:16:49.777150  9047 net.cpp:156] Memory required for data: 1208417568
I0403 19:16:49.777168  9047 layer_factory.hpp:77] Creating layer loss2/classifier_plantvillage
I0403 19:16:49.777194  9047 net.cpp:91] Creating Layer loss2/classifier_plantvillage
I0403 19:16:49.777214  9047 net.cpp:425] loss2/classifier_plantvillage <- loss2/fc
I0403 19:16:49.777240  9047 net.cpp:399] loss2/classifier_plantvillage -> loss2/classifier_plantvillage
I0403 19:16:49.777741  9047 net.cpp:141] Setting up loss2/classifier_plantvillage
I0403 19:16:49.777773  9047 net.cpp:148] Top shape: 24 38 (912)
I0403 19:16:49.777792  9047 net.cpp:156] Memory required for data: 1208421216
I0403 19:16:49.777834  9047 layer_factory.hpp:77] Creating layer loss2/classifier_plantvillage_loss2/classifier_plantvillage_0_split
I0403 19:16:49.777860  9047 net.cpp:91] Creating Layer loss2/classifier_plantvillage_loss2/classifier_plantvillage_0_split
I0403 19:16:49.777881  9047 net.cpp:425] loss2/classifier_plantvillage_loss2/classifier_plantvillage_0_split <- loss2/classifier_plantvillage
I0403 19:16:49.777904  9047 net.cpp:399] loss2/classifier_plantvillage_loss2/classifier_plantvillage_0_split -> loss2/classifier_plantvillage_loss2/classifier_plantvillage_0_split_0
I0403 19:16:49.777932  9047 net.cpp:399] loss2/classifier_plantvillage_loss2/classifier_plantvillage_0_split -> loss2/classifier_plantvillage_loss2/classifier_plantvillage_0_split_1
I0403 19:16:49.777956  9047 net.cpp:399] loss2/classifier_plantvillage_loss2/classifier_plantvillage_0_split -> loss2/classifier_plantvillage_loss2/classifier_plantvillage_0_split_2
I0403 19:16:49.778051  9047 net.cpp:141] Setting up loss2/classifier_plantvillage_loss2/classifier_plantvillage_0_split
I0403 19:16:49.778079  9047 net.cpp:148] Top shape: 24 38 (912)
I0403 19:16:49.778100  9047 net.cpp:148] Top shape: 24 38 (912)
I0403 19:16:49.778120  9047 net.cpp:148] Top shape: 24 38 (912)
I0403 19:16:49.778137  9047 net.cpp:156] Memory required for data: 1208432160
I0403 19:16:49.778156  9047 layer_factory.hpp:77] Creating layer inception_4e/1x1
I0403 19:16:49.778183  9047 net.cpp:91] Creating Layer inception_4e/1x1
I0403 19:16:49.778206  9047 net.cpp:425] inception_4e/1x1 <- inception_4d/output_inception_4d/output_0_split_1
I0403 19:16:49.778229  9047 net.cpp:399] inception_4e/1x1 -> inception_4e/1x1
I0403 19:16:49.780465  9047 net.cpp:141] Setting up inception_4e/1x1
I0403 19:16:49.780504  9047 net.cpp:148] Top shape: 24 256 14 14 (1204224)
I0403 19:16:49.780526  9047 net.cpp:156] Memory required for data: 1213249056
I0403 19:16:49.780550  9047 layer_factory.hpp:77] Creating layer inception_4e/relu_1x1
I0403 19:16:49.780571  9047 net.cpp:91] Creating Layer inception_4e/relu_1x1
I0403 19:16:49.780591  9047 net.cpp:425] inception_4e/relu_1x1 <- inception_4e/1x1
I0403 19:16:49.780612  9047 net.cpp:386] inception_4e/relu_1x1 -> inception_4e/1x1 (in-place)
I0403 19:16:49.780972  9047 net.cpp:141] Setting up inception_4e/relu_1x1
I0403 19:16:49.781008  9047 net.cpp:148] Top shape: 24 256 14 14 (1204224)
I0403 19:16:49.781028  9047 net.cpp:156] Memory required for data: 1218065952
I0403 19:16:49.781046  9047 layer_factory.hpp:77] Creating layer inception_4e/3x3_reduce
I0403 19:16:49.781075  9047 net.cpp:91] Creating Layer inception_4e/3x3_reduce
I0403 19:16:49.781096  9047 net.cpp:425] inception_4e/3x3_reduce <- inception_4d/output_inception_4d/output_0_split_2
I0403 19:16:49.781121  9047 net.cpp:399] inception_4e/3x3_reduce -> inception_4e/3x3_reduce
I0403 19:16:49.783727  9047 net.cpp:141] Setting up inception_4e/3x3_reduce
I0403 19:16:49.783764  9047 net.cpp:148] Top shape: 24 160 14 14 (752640)
I0403 19:16:49.783784  9047 net.cpp:156] Memory required for data: 1221076512
I0403 19:16:49.783807  9047 layer_factory.hpp:77] Creating layer inception_4e/relu_3x3_reduce
I0403 19:16:49.783833  9047 net.cpp:91] Creating Layer inception_4e/relu_3x3_reduce
I0403 19:16:49.783854  9047 net.cpp:425] inception_4e/relu_3x3_reduce <- inception_4e/3x3_reduce
I0403 19:16:49.783875  9047 net.cpp:386] inception_4e/relu_3x3_reduce -> inception_4e/3x3_reduce (in-place)
I0403 19:16:49.784103  9047 net.cpp:141] Setting up inception_4e/relu_3x3_reduce
I0403 19:16:49.784142  9047 net.cpp:148] Top shape: 24 160 14 14 (752640)
I0403 19:16:49.784160  9047 net.cpp:156] Memory required for data: 1224087072
I0403 19:16:49.784179  9047 layer_factory.hpp:77] Creating layer inception_4e/3x3
I0403 19:16:49.784207  9047 net.cpp:91] Creating Layer inception_4e/3x3
I0403 19:16:49.784229  9047 net.cpp:425] inception_4e/3x3 <- inception_4e/3x3_reduce
I0403 19:16:49.784252  9047 net.cpp:399] inception_4e/3x3 -> inception_4e/3x3
I0403 19:16:49.790421  9047 net.cpp:141] Setting up inception_4e/3x3
I0403 19:16:49.790480  9047 net.cpp:148] Top shape: 24 320 14 14 (1505280)
I0403 19:16:49.790503  9047 net.cpp:156] Memory required for data: 1230108192
I0403 19:16:49.790525  9047 layer_factory.hpp:77] Creating layer inception_4e/relu_3x3
I0403 19:16:49.790547  9047 net.cpp:91] Creating Layer inception_4e/relu_3x3
I0403 19:16:49.790568  9047 net.cpp:425] inception_4e/relu_3x3 <- inception_4e/3x3
I0403 19:16:49.790592  9047 net.cpp:386] inception_4e/relu_3x3 -> inception_4e/3x3 (in-place)
I0403 19:16:49.790957  9047 net.cpp:141] Setting up inception_4e/relu_3x3
I0403 19:16:49.790990  9047 net.cpp:148] Top shape: 24 320 14 14 (1505280)
I0403 19:16:49.791008  9047 net.cpp:156] Memory required for data: 1236129312
I0403 19:16:49.791026  9047 layer_factory.hpp:77] Creating layer inception_4e/5x5_reduce
I0403 19:16:49.791055  9047 net.cpp:91] Creating Layer inception_4e/5x5_reduce
I0403 19:16:49.791077  9047 net.cpp:425] inception_4e/5x5_reduce <- inception_4d/output_inception_4d/output_0_split_3
I0403 19:16:49.791105  9047 net.cpp:399] inception_4e/5x5_reduce -> inception_4e/5x5_reduce
I0403 19:16:49.792423  9047 net.cpp:141] Setting up inception_4e/5x5_reduce
I0403 19:16:49.792469  9047 net.cpp:148] Top shape: 24 32 14 14 (150528)
I0403 19:16:49.792492  9047 net.cpp:156] Memory required for data: 1236731424
I0403 19:16:49.792516  9047 layer_factory.hpp:77] Creating layer inception_4e/relu_5x5_reduce
I0403 19:16:49.792542  9047 net.cpp:91] Creating Layer inception_4e/relu_5x5_reduce
I0403 19:16:49.792563  9047 net.cpp:425] inception_4e/relu_5x5_reduce <- inception_4e/5x5_reduce
I0403 19:16:49.792585  9047 net.cpp:386] inception_4e/relu_5x5_reduce -> inception_4e/5x5_reduce (in-place)
I0403 19:16:49.792963  9047 net.cpp:141] Setting up inception_4e/relu_5x5_reduce
I0403 19:16:49.792995  9047 net.cpp:148] Top shape: 24 32 14 14 (150528)
I0403 19:16:49.793014  9047 net.cpp:156] Memory required for data: 1237333536
I0403 19:16:49.793031  9047 layer_factory.hpp:77] Creating layer inception_4e/5x5
I0403 19:16:49.793081  9047 net.cpp:91] Creating Layer inception_4e/5x5
I0403 19:16:49.793107  9047 net.cpp:425] inception_4e/5x5 <- inception_4e/5x5_reduce
I0403 19:16:49.793133  9047 net.cpp:399] inception_4e/5x5 -> inception_4e/5x5
I0403 19:16:49.795397  9047 net.cpp:141] Setting up inception_4e/5x5
I0403 19:16:49.795431  9047 net.cpp:148] Top shape: 24 128 14 14 (602112)
I0403 19:16:49.795450  9047 net.cpp:156] Memory required for data: 1239741984
I0403 19:16:49.795478  9047 layer_factory.hpp:77] Creating layer inception_4e/relu_5x5
I0403 19:16:49.795506  9047 net.cpp:91] Creating Layer inception_4e/relu_5x5
I0403 19:16:49.795526  9047 net.cpp:425] inception_4e/relu_5x5 <- inception_4e/5x5
I0403 19:16:49.795547  9047 net.cpp:386] inception_4e/relu_5x5 -> inception_4e/5x5 (in-place)
I0403 19:16:49.795789  9047 net.cpp:141] Setting up inception_4e/relu_5x5
I0403 19:16:49.795819  9047 net.cpp:148] Top shape: 24 128 14 14 (602112)
I0403 19:16:49.795838  9047 net.cpp:156] Memory required for data: 1242150432
I0403 19:16:49.795856  9047 layer_factory.hpp:77] Creating layer inception_4e/pool
I0403 19:16:49.795881  9047 net.cpp:91] Creating Layer inception_4e/pool
I0403 19:16:49.795902  9047 net.cpp:425] inception_4e/pool <- inception_4d/output_inception_4d/output_0_split_4
I0403 19:16:49.795924  9047 net.cpp:399] inception_4e/pool -> inception_4e/pool
I0403 19:16:49.796011  9047 net.cpp:141] Setting up inception_4e/pool
I0403 19:16:49.796041  9047 net.cpp:148] Top shape: 24 528 14 14 (2483712)
I0403 19:16:49.796058  9047 net.cpp:156] Memory required for data: 1252085280
I0403 19:16:49.796077  9047 layer_factory.hpp:77] Creating layer inception_4e/pool_proj
I0403 19:16:49.796104  9047 net.cpp:91] Creating Layer inception_4e/pool_proj
I0403 19:16:49.796126  9047 net.cpp:425] inception_4e/pool_proj <- inception_4e/pool
I0403 19:16:49.796152  9047 net.cpp:399] inception_4e/pool_proj -> inception_4e/pool_proj
I0403 19:16:49.798018  9047 net.cpp:141] Setting up inception_4e/pool_proj
I0403 19:16:49.798053  9047 net.cpp:148] Top shape: 24 128 14 14 (602112)
I0403 19:16:49.798090  9047 net.cpp:156] Memory required for data: 1254493728
I0403 19:16:49.798115  9047 layer_factory.hpp:77] Creating layer inception_4e/relu_pool_proj
I0403 19:16:49.798141  9047 net.cpp:91] Creating Layer inception_4e/relu_pool_proj
I0403 19:16:49.798159  9047 net.cpp:425] inception_4e/relu_pool_proj <- inception_4e/pool_proj
I0403 19:16:49.798180  9047 net.cpp:386] inception_4e/relu_pool_proj -> inception_4e/pool_proj (in-place)
I0403 19:16:49.798547  9047 net.cpp:141] Setting up inception_4e/relu_pool_proj
I0403 19:16:49.798580  9047 net.cpp:148] Top shape: 24 128 14 14 (602112)
I0403 19:16:49.798599  9047 net.cpp:156] Memory required for data: 1256902176
I0403 19:16:49.798619  9047 layer_factory.hpp:77] Creating layer inception_4e/output
I0403 19:16:49.798641  9047 net.cpp:91] Creating Layer inception_4e/output
I0403 19:16:49.798660  9047 net.cpp:425] inception_4e/output <- inception_4e/1x1
I0403 19:16:49.798681  9047 net.cpp:425] inception_4e/output <- inception_4e/3x3
I0403 19:16:49.798702  9047 net.cpp:425] inception_4e/output <- inception_4e/5x5
I0403 19:16:49.798722  9047 net.cpp:425] inception_4e/output <- inception_4e/pool_proj
I0403 19:16:49.798745  9047 net.cpp:399] inception_4e/output -> inception_4e/output
I0403 19:16:49.798805  9047 net.cpp:141] Setting up inception_4e/output
I0403 19:16:49.798837  9047 net.cpp:148] Top shape: 24 832 14 14 (3913728)
I0403 19:16:49.798856  9047 net.cpp:156] Memory required for data: 1272557088
I0403 19:16:49.798877  9047 layer_factory.hpp:77] Creating layer pool4/3x3_s2
I0403 19:16:49.798898  9047 net.cpp:91] Creating Layer pool4/3x3_s2
I0403 19:16:49.798918  9047 net.cpp:425] pool4/3x3_s2 <- inception_4e/output
I0403 19:16:49.798945  9047 net.cpp:399] pool4/3x3_s2 -> pool4/3x3_s2
I0403 19:16:49.799027  9047 net.cpp:141] Setting up pool4/3x3_s2
I0403 19:16:49.799057  9047 net.cpp:148] Top shape: 24 832 7 7 (978432)
I0403 19:16:49.799075  9047 net.cpp:156] Memory required for data: 1276470816
I0403 19:16:49.799094  9047 layer_factory.hpp:77] Creating layer pool4/3x3_s2_pool4/3x3_s2_0_split
I0403 19:16:49.799118  9047 net.cpp:91] Creating Layer pool4/3x3_s2_pool4/3x3_s2_0_split
I0403 19:16:49.799137  9047 net.cpp:425] pool4/3x3_s2_pool4/3x3_s2_0_split <- pool4/3x3_s2
I0403 19:16:49.799160  9047 net.cpp:399] pool4/3x3_s2_pool4/3x3_s2_0_split -> pool4/3x3_s2_pool4/3x3_s2_0_split_0
I0403 19:16:49.799183  9047 net.cpp:399] pool4/3x3_s2_pool4/3x3_s2_0_split -> pool4/3x3_s2_pool4/3x3_s2_0_split_1
I0403 19:16:49.799208  9047 net.cpp:399] pool4/3x3_s2_pool4/3x3_s2_0_split -> pool4/3x3_s2_pool4/3x3_s2_0_split_2
I0403 19:16:49.799235  9047 net.cpp:399] pool4/3x3_s2_pool4/3x3_s2_0_split -> pool4/3x3_s2_pool4/3x3_s2_0_split_3
I0403 19:16:49.799350  9047 net.cpp:141] Setting up pool4/3x3_s2_pool4/3x3_s2_0_split
I0403 19:16:49.799378  9047 net.cpp:148] Top shape: 24 832 7 7 (978432)
I0403 19:16:49.799399  9047 net.cpp:148] Top shape: 24 832 7 7 (978432)
I0403 19:16:49.799417  9047 net.cpp:148] Top shape: 24 832 7 7 (978432)
I0403 19:16:49.799437  9047 net.cpp:148] Top shape: 24 832 7 7 (978432)
I0403 19:16:49.799453  9047 net.cpp:156] Memory required for data: 1292125728
I0403 19:16:49.799490  9047 layer_factory.hpp:77] Creating layer inception_5a/1x1
I0403 19:16:49.799518  9047 net.cpp:91] Creating Layer inception_5a/1x1
I0403 19:16:49.799540  9047 net.cpp:425] inception_5a/1x1 <- pool4/3x3_s2_pool4/3x3_s2_0_split_0
I0403 19:16:49.799566  9047 net.cpp:399] inception_5a/1x1 -> inception_5a/1x1
I0403 19:16:49.803057  9047 net.cpp:141] Setting up inception_5a/1x1
I0403 19:16:49.803094  9047 net.cpp:148] Top shape: 24 256 7 7 (301056)
I0403 19:16:49.803114  9047 net.cpp:156] Memory required for data: 1293329952
I0403 19:16:49.803138  9047 layer_factory.hpp:77] Creating layer inception_5a/relu_1x1
I0403 19:16:49.803164  9047 net.cpp:91] Creating Layer inception_5a/relu_1x1
I0403 19:16:49.803185  9047 net.cpp:425] inception_5a/relu_1x1 <- inception_5a/1x1
I0403 19:16:49.803207  9047 net.cpp:386] inception_5a/relu_1x1 -> inception_5a/1x1 (in-place)
I0403 19:16:49.803596  9047 net.cpp:141] Setting up inception_5a/relu_1x1
I0403 19:16:49.803629  9047 net.cpp:148] Top shape: 24 256 7 7 (301056)
I0403 19:16:49.803648  9047 net.cpp:156] Memory required for data: 1294534176
I0403 19:16:49.803666  9047 layer_factory.hpp:77] Creating layer inception_5a/3x3_reduce
I0403 19:16:49.803695  9047 net.cpp:91] Creating Layer inception_5a/3x3_reduce
I0403 19:16:49.803716  9047 net.cpp:425] inception_5a/3x3_reduce <- pool4/3x3_s2_pool4/3x3_s2_0_split_1
I0403 19:16:49.803743  9047 net.cpp:399] inception_5a/3x3_reduce -> inception_5a/3x3_reduce
I0403 19:16:49.806746  9047 net.cpp:141] Setting up inception_5a/3x3_reduce
I0403 19:16:49.806785  9047 net.cpp:148] Top shape: 24 160 7 7 (188160)
I0403 19:16:49.806804  9047 net.cpp:156] Memory required for data: 1295286816
I0403 19:16:49.806828  9047 layer_factory.hpp:77] Creating layer inception_5a/relu_3x3_reduce
I0403 19:16:49.806850  9047 net.cpp:91] Creating Layer inception_5a/relu_3x3_reduce
I0403 19:16:49.806870  9047 net.cpp:425] inception_5a/relu_3x3_reduce <- inception_5a/3x3_reduce
I0403 19:16:49.806895  9047 net.cpp:386] inception_5a/relu_3x3_reduce -> inception_5a/3x3_reduce (in-place)
I0403 19:16:49.807128  9047 net.cpp:141] Setting up inception_5a/relu_3x3_reduce
I0403 19:16:49.807159  9047 net.cpp:148] Top shape: 24 160 7 7 (188160)
I0403 19:16:49.807178  9047 net.cpp:156] Memory required for data: 1296039456
I0403 19:16:49.807196  9047 layer_factory.hpp:77] Creating layer inception_5a/3x3
I0403 19:16:49.807224  9047 net.cpp:91] Creating Layer inception_5a/3x3
I0403 19:16:49.807245  9047 net.cpp:425] inception_5a/3x3 <- inception_5a/3x3_reduce
I0403 19:16:49.807273  9047 net.cpp:399] inception_5a/3x3 -> inception_5a/3x3
I0403 19:16:49.813503  9047 net.cpp:141] Setting up inception_5a/3x3
I0403 19:16:49.813541  9047 net.cpp:148] Top shape: 24 320 7 7 (376320)
I0403 19:16:49.813561  9047 net.cpp:156] Memory required for data: 1297544736
I0403 19:16:49.813585  9047 layer_factory.hpp:77] Creating layer inception_5a/relu_3x3
I0403 19:16:49.813609  9047 net.cpp:91] Creating Layer inception_5a/relu_3x3
I0403 19:16:49.813652  9047 net.cpp:425] inception_5a/relu_3x3 <- inception_5a/3x3
I0403 19:16:49.813705  9047 net.cpp:386] inception_5a/relu_3x3 -> inception_5a/3x3 (in-place)
I0403 19:16:49.814095  9047 net.cpp:141] Setting up inception_5a/relu_3x3
I0403 19:16:49.814128  9047 net.cpp:148] Top shape: 24 320 7 7 (376320)
I0403 19:16:49.814146  9047 net.cpp:156] Memory required for data: 1299050016
I0403 19:16:49.814164  9047 layer_factory.hpp:77] Creating layer inception_5a/5x5_reduce
I0403 19:16:49.814193  9047 net.cpp:91] Creating Layer inception_5a/5x5_reduce
I0403 19:16:49.814216  9047 net.cpp:425] inception_5a/5x5_reduce <- pool4/3x3_s2_pool4/3x3_s2_0_split_2
I0403 19:16:49.814244  9047 net.cpp:399] inception_5a/5x5_reduce -> inception_5a/5x5_reduce
I0403 19:16:49.815701  9047 net.cpp:141] Setting up inception_5a/5x5_reduce
I0403 19:16:49.815737  9047 net.cpp:148] Top shape: 24 32 7 7 (37632)
I0403 19:16:49.815757  9047 net.cpp:156] Memory required for data: 1299200544
I0403 19:16:49.815780  9047 layer_factory.hpp:77] Creating layer inception_5a/relu_5x5_reduce
I0403 19:16:49.815805  9047 net.cpp:91] Creating Layer inception_5a/relu_5x5_reduce
I0403 19:16:49.815826  9047 net.cpp:425] inception_5a/relu_5x5_reduce <- inception_5a/5x5_reduce
I0403 19:16:49.815848  9047 net.cpp:386] inception_5a/relu_5x5_reduce -> inception_5a/5x5_reduce (in-place)
I0403 19:16:49.816216  9047 net.cpp:141] Setting up inception_5a/relu_5x5_reduce
I0403 19:16:49.816248  9047 net.cpp:148] Top shape: 24 32 7 7 (37632)
I0403 19:16:49.816267  9047 net.cpp:156] Memory required for data: 1299351072
I0403 19:16:49.816285  9047 layer_factory.hpp:77] Creating layer inception_5a/5x5
I0403 19:16:49.816314  9047 net.cpp:91] Creating Layer inception_5a/5x5
I0403 19:16:49.816336  9047 net.cpp:425] inception_5a/5x5 <- inception_5a/5x5_reduce
I0403 19:16:49.816360  9047 net.cpp:399] inception_5a/5x5 -> inception_5a/5x5
I0403 19:16:49.818500  9047 net.cpp:141] Setting up inception_5a/5x5
I0403 19:16:49.818550  9047 net.cpp:148] Top shape: 24 128 7 7 (150528)
I0403 19:16:49.818569  9047 net.cpp:156] Memory required for data: 1299953184
I0403 19:16:49.818593  9047 layer_factory.hpp:77] Creating layer inception_5a/relu_5x5
I0403 19:16:49.818619  9047 net.cpp:91] Creating Layer inception_5a/relu_5x5
I0403 19:16:49.818640  9047 net.cpp:425] inception_5a/relu_5x5 <- inception_5a/5x5
I0403 19:16:49.818663  9047 net.cpp:386] inception_5a/relu_5x5 -> inception_5a/5x5 (in-place)
I0403 19:16:49.818910  9047 net.cpp:141] Setting up inception_5a/relu_5x5
I0403 19:16:49.818941  9047 net.cpp:148] Top shape: 24 128 7 7 (150528)
I0403 19:16:49.818960  9047 net.cpp:156] Memory required for data: 1300555296
I0403 19:16:49.818977  9047 layer_factory.hpp:77] Creating layer inception_5a/pool
I0403 19:16:49.819002  9047 net.cpp:91] Creating Layer inception_5a/pool
I0403 19:16:49.819023  9047 net.cpp:425] inception_5a/pool <- pool4/3x3_s2_pool4/3x3_s2_0_split_3
I0403 19:16:49.819049  9047 net.cpp:399] inception_5a/pool -> inception_5a/pool
I0403 19:16:49.819136  9047 net.cpp:141] Setting up inception_5a/pool
I0403 19:16:49.819166  9047 net.cpp:148] Top shape: 24 832 7 7 (978432)
I0403 19:16:49.819186  9047 net.cpp:156] Memory required for data: 1304469024
I0403 19:16:49.819203  9047 layer_factory.hpp:77] Creating layer inception_5a/pool_proj
I0403 19:16:49.819231  9047 net.cpp:91] Creating Layer inception_5a/pool_proj
I0403 19:16:49.819252  9047 net.cpp:425] inception_5a/pool_proj <- inception_5a/pool
I0403 19:16:49.819278  9047 net.cpp:399] inception_5a/pool_proj -> inception_5a/pool_proj
I0403 19:16:49.822113  9047 net.cpp:141] Setting up inception_5a/pool_proj
I0403 19:16:49.822150  9047 net.cpp:148] Top shape: 24 128 7 7 (150528)
I0403 19:16:49.822170  9047 net.cpp:156] Memory required for data: 1305071136
I0403 19:16:49.822193  9047 layer_factory.hpp:77] Creating layer inception_5a/relu_pool_proj
I0403 19:16:49.822216  9047 net.cpp:91] Creating Layer inception_5a/relu_pool_proj
I0403 19:16:49.822237  9047 net.cpp:425] inception_5a/relu_pool_proj <- inception_5a/pool_proj
I0403 19:16:49.822262  9047 net.cpp:386] inception_5a/relu_pool_proj -> inception_5a/pool_proj (in-place)
I0403 19:16:49.822633  9047 net.cpp:141] Setting up inception_5a/relu_pool_proj
I0403 19:16:49.822667  9047 net.cpp:148] Top shape: 24 128 7 7 (150528)
I0403 19:16:49.822685  9047 net.cpp:156] Memory required for data: 1305673248
I0403 19:16:49.822705  9047 layer_factory.hpp:77] Creating layer inception_5a/output
I0403 19:16:49.822726  9047 net.cpp:91] Creating Layer inception_5a/output
I0403 19:16:49.822746  9047 net.cpp:425] inception_5a/output <- inception_5a/1x1
I0403 19:16:49.822767  9047 net.cpp:425] inception_5a/output <- inception_5a/3x3
I0403 19:16:49.822788  9047 net.cpp:425] inception_5a/output <- inception_5a/5x5
I0403 19:16:49.822808  9047 net.cpp:425] inception_5a/output <- inception_5a/pool_proj
I0403 19:16:49.822832  9047 net.cpp:399] inception_5a/output -> inception_5a/output
I0403 19:16:49.822893  9047 net.cpp:141] Setting up inception_5a/output
I0403 19:16:49.822926  9047 net.cpp:148] Top shape: 24 832 7 7 (978432)
I0403 19:16:49.822947  9047 net.cpp:156] Memory required for data: 1309586976
I0403 19:16:49.822964  9047 layer_factory.hpp:77] Creating layer inception_5a/output_inception_5a/output_0_split
I0403 19:16:49.822985  9047 net.cpp:91] Creating Layer inception_5a/output_inception_5a/output_0_split
I0403 19:16:49.823025  9047 net.cpp:425] inception_5a/output_inception_5a/output_0_split <- inception_5a/output
I0403 19:16:49.823074  9047 net.cpp:399] inception_5a/output_inception_5a/output_0_split -> inception_5a/output_inception_5a/output_0_split_0
I0403 19:16:49.823125  9047 net.cpp:399] inception_5a/output_inception_5a/output_0_split -> inception_5a/output_inception_5a/output_0_split_1
I0403 19:16:49.823153  9047 net.cpp:399] inception_5a/output_inception_5a/output_0_split -> inception_5a/output_inception_5a/output_0_split_2
I0403 19:16:49.823178  9047 net.cpp:399] inception_5a/output_inception_5a/output_0_split -> inception_5a/output_inception_5a/output_0_split_3
I0403 19:16:49.823319  9047 net.cpp:141] Setting up inception_5a/output_inception_5a/output_0_split
I0403 19:16:49.823350  9047 net.cpp:148] Top shape: 24 832 7 7 (978432)
I0403 19:16:49.823370  9047 net.cpp:148] Top shape: 24 832 7 7 (978432)
I0403 19:16:49.823390  9047 net.cpp:148] Top shape: 24 832 7 7 (978432)
I0403 19:16:49.823410  9047 net.cpp:148] Top shape: 24 832 7 7 (978432)
I0403 19:16:49.823426  9047 net.cpp:156] Memory required for data: 1325241888
I0403 19:16:49.823444  9047 layer_factory.hpp:77] Creating layer inception_5b/1x1
I0403 19:16:49.823479  9047 net.cpp:91] Creating Layer inception_5b/1x1
I0403 19:16:49.823503  9047 net.cpp:425] inception_5b/1x1 <- inception_5a/output_inception_5a/output_0_split_0
I0403 19:16:49.823529  9047 net.cpp:399] inception_5b/1x1 -> inception_5b/1x1
I0403 19:16:49.828146  9047 net.cpp:141] Setting up inception_5b/1x1
I0403 19:16:49.828184  9047 net.cpp:148] Top shape: 24 384 7 7 (451584)
I0403 19:16:49.828203  9047 net.cpp:156] Memory required for data: 1327048224
I0403 19:16:49.828227  9047 layer_factory.hpp:77] Creating layer inception_5b/relu_1x1
I0403 19:16:49.828279  9047 net.cpp:91] Creating Layer inception_5b/relu_1x1
I0403 19:16:49.828331  9047 net.cpp:425] inception_5b/relu_1x1 <- inception_5b/1x1
I0403 19:16:49.828382  9047 net.cpp:386] inception_5b/relu_1x1 -> inception_5b/1x1 (in-place)
I0403 19:16:49.828788  9047 net.cpp:141] Setting up inception_5b/relu_1x1
I0403 19:16:49.828829  9047 net.cpp:148] Top shape: 24 384 7 7 (451584)
I0403 19:16:49.828853  9047 net.cpp:156] Memory required for data: 1328854560
I0403 19:16:49.828874  9047 layer_factory.hpp:77] Creating layer inception_5b/3x3_reduce
I0403 19:16:49.828903  9047 net.cpp:91] Creating Layer inception_5b/3x3_reduce
I0403 19:16:49.828927  9047 net.cpp:425] inception_5b/3x3_reduce <- inception_5a/output_inception_5a/output_0_split_1
I0403 19:16:49.828954  9047 net.cpp:399] inception_5b/3x3_reduce -> inception_5b/3x3_reduce
I0403 19:16:49.832243  9047 net.cpp:141] Setting up inception_5b/3x3_reduce
I0403 19:16:49.832284  9047 net.cpp:148] Top shape: 24 192 7 7 (225792)
I0403 19:16:49.832304  9047 net.cpp:156] Memory required for data: 1329757728
I0403 19:16:49.832327  9047 layer_factory.hpp:77] Creating layer inception_5b/relu_3x3_reduce
I0403 19:16:49.832350  9047 net.cpp:91] Creating Layer inception_5b/relu_3x3_reduce
I0403 19:16:49.832370  9047 net.cpp:425] inception_5b/relu_3x3_reduce <- inception_5b/3x3_reduce
I0403 19:16:49.832394  9047 net.cpp:386] inception_5b/relu_3x3_reduce -> inception_5b/3x3_reduce (in-place)
I0403 19:16:49.832644  9047 net.cpp:141] Setting up inception_5b/relu_3x3_reduce
I0403 19:16:49.832676  9047 net.cpp:148] Top shape: 24 192 7 7 (225792)
I0403 19:16:49.832695  9047 net.cpp:156] Memory required for data: 1330660896
I0403 19:16:49.832713  9047 layer_factory.hpp:77] Creating layer inception_5b/3x3
I0403 19:16:49.832741  9047 net.cpp:91] Creating Layer inception_5b/3x3
I0403 19:16:49.832762  9047 net.cpp:425] inception_5b/3x3 <- inception_5b/3x3_reduce
I0403 19:16:49.832789  9047 net.cpp:399] inception_5b/3x3 -> inception_5b/3x3
I0403 19:16:49.841099  9047 net.cpp:141] Setting up inception_5b/3x3
I0403 19:16:49.841135  9047 net.cpp:148] Top shape: 24 384 7 7 (451584)
I0403 19:16:49.841156  9047 net.cpp:156] Memory required for data: 1332467232
I0403 19:16:49.841177  9047 layer_factory.hpp:77] Creating layer inception_5b/relu_3x3
I0403 19:16:49.841199  9047 net.cpp:91] Creating Layer inception_5b/relu_3x3
I0403 19:16:49.841219  9047 net.cpp:425] inception_5b/relu_3x3 <- inception_5b/3x3
I0403 19:16:49.841244  9047 net.cpp:386] inception_5b/relu_3x3 -> inception_5b/3x3 (in-place)
I0403 19:16:49.841639  9047 net.cpp:141] Setting up inception_5b/relu_3x3
I0403 19:16:49.841672  9047 net.cpp:148] Top shape: 24 384 7 7 (451584)
I0403 19:16:49.841691  9047 net.cpp:156] Memory required for data: 1334273568
I0403 19:16:49.841709  9047 layer_factory.hpp:77] Creating layer inception_5b/5x5_reduce
I0403 19:16:49.841755  9047 net.cpp:91] Creating Layer inception_5b/5x5_reduce
I0403 19:16:49.841779  9047 net.cpp:425] inception_5b/5x5_reduce <- inception_5a/output_inception_5a/output_0_split_2
I0403 19:16:49.841809  9047 net.cpp:399] inception_5b/5x5_reduce -> inception_5b/5x5_reduce
I0403 19:16:49.843401  9047 net.cpp:141] Setting up inception_5b/5x5_reduce
I0403 19:16:49.843436  9047 net.cpp:148] Top shape: 24 48 7 7 (56448)
I0403 19:16:49.843456  9047 net.cpp:156] Memory required for data: 1334499360
I0403 19:16:49.843484  9047 layer_factory.hpp:77] Creating layer inception_5b/relu_5x5_reduce
I0403 19:16:49.843509  9047 net.cpp:91] Creating Layer inception_5b/relu_5x5_reduce
I0403 19:16:49.843529  9047 net.cpp:425] inception_5b/relu_5x5_reduce <- inception_5b/5x5_reduce
I0403 19:16:49.843551  9047 net.cpp:386] inception_5b/relu_5x5_reduce -> inception_5b/5x5_reduce (in-place)
I0403 19:16:49.844012  9047 net.cpp:141] Setting up inception_5b/relu_5x5_reduce
I0403 19:16:49.844044  9047 net.cpp:148] Top shape: 24 48 7 7 (56448)
I0403 19:16:49.844064  9047 net.cpp:156] Memory required for data: 1334725152
I0403 19:16:49.844082  9047 layer_factory.hpp:77] Creating layer inception_5b/5x5
I0403 19:16:49.844108  9047 net.cpp:91] Creating Layer inception_5b/5x5
I0403 19:16:49.844130  9047 net.cpp:425] inception_5b/5x5 <- inception_5b/5x5_reduce
I0403 19:16:49.844153  9047 net.cpp:399] inception_5b/5x5 -> inception_5b/5x5
I0403 19:16:49.846709  9047 net.cpp:141] Setting up inception_5b/5x5
I0403 19:16:49.846745  9047 net.cpp:148] Top shape: 24 128 7 7 (150528)
I0403 19:16:49.846763  9047 net.cpp:156] Memory required for data: 1335327264
I0403 19:16:49.846786  9047 layer_factory.hpp:77] Creating layer inception_5b/relu_5x5
I0403 19:16:49.846812  9047 net.cpp:91] Creating Layer inception_5b/relu_5x5
I0403 19:16:49.846837  9047 net.cpp:425] inception_5b/relu_5x5 <- inception_5b/5x5
I0403 19:16:49.846859  9047 net.cpp:386] inception_5b/relu_5x5 -> inception_5b/5x5 (in-place)
I0403 19:16:49.847100  9047 net.cpp:141] Setting up inception_5b/relu_5x5
I0403 19:16:49.847136  9047 net.cpp:148] Top shape: 24 128 7 7 (150528)
I0403 19:16:49.847156  9047 net.cpp:156] Memory required for data: 1335929376
I0403 19:16:49.847175  9047 layer_factory.hpp:77] Creating layer inception_5b/pool
I0403 19:16:49.847198  9047 net.cpp:91] Creating Layer inception_5b/pool
I0403 19:16:49.847218  9047 net.cpp:425] inception_5b/pool <- inception_5a/output_inception_5a/output_0_split_3
I0403 19:16:49.847240  9047 net.cpp:399] inception_5b/pool -> inception_5b/pool
I0403 19:16:49.847332  9047 net.cpp:141] Setting up inception_5b/pool
I0403 19:16:49.847364  9047 net.cpp:148] Top shape: 24 832 7 7 (978432)
I0403 19:16:49.847381  9047 net.cpp:156] Memory required for data: 1339843104
I0403 19:16:49.847399  9047 layer_factory.hpp:77] Creating layer inception_5b/pool_proj
I0403 19:16:49.847426  9047 net.cpp:91] Creating Layer inception_5b/pool_proj
I0403 19:16:49.847447  9047 net.cpp:425] inception_5b/pool_proj <- inception_5b/pool
I0403 19:16:49.847479  9047 net.cpp:399] inception_5b/pool_proj -> inception_5b/pool_proj
I0403 19:16:49.850311  9047 net.cpp:141] Setting up inception_5b/pool_proj
I0403 19:16:49.850348  9047 net.cpp:148] Top shape: 24 128 7 7 (150528)
I0403 19:16:49.850366  9047 net.cpp:156] Memory required for data: 1340445216
I0403 19:16:49.850389  9047 layer_factory.hpp:77] Creating layer inception_5b/relu_pool_proj
I0403 19:16:49.850414  9047 net.cpp:91] Creating Layer inception_5b/relu_pool_proj
I0403 19:16:49.850435  9047 net.cpp:425] inception_5b/relu_pool_proj <- inception_5b/pool_proj
I0403 19:16:49.850461  9047 net.cpp:386] inception_5b/relu_pool_proj -> inception_5b/pool_proj (in-place)
I0403 19:16:49.850828  9047 net.cpp:141] Setting up inception_5b/relu_pool_proj
I0403 19:16:49.850860  9047 net.cpp:148] Top shape: 24 128 7 7 (150528)
I0403 19:16:49.850881  9047 net.cpp:156] Memory required for data: 1341047328
I0403 19:16:49.850900  9047 layer_factory.hpp:77] Creating layer inception_5b/output
I0403 19:16:49.850926  9047 net.cpp:91] Creating Layer inception_5b/output
I0403 19:16:49.850963  9047 net.cpp:425] inception_5b/output <- inception_5b/1x1
I0403 19:16:49.850986  9047 net.cpp:425] inception_5b/output <- inception_5b/3x3
I0403 19:16:49.851011  9047 net.cpp:425] inception_5b/output <- inception_5b/5x5
I0403 19:16:49.851032  9047 net.cpp:425] inception_5b/output <- inception_5b/pool_proj
I0403 19:16:49.851053  9047 net.cpp:399] inception_5b/output -> inception_5b/output
I0403 19:16:49.851119  9047 net.cpp:141] Setting up inception_5b/output
I0403 19:16:49.851152  9047 net.cpp:148] Top shape: 24 1024 7 7 (1204224)
I0403 19:16:49.851171  9047 net.cpp:156] Memory required for data: 1345864224
I0403 19:16:49.851192  9047 layer_factory.hpp:77] Creating layer pool5/7x7_s1
I0403 19:16:49.851214  9047 net.cpp:91] Creating Layer pool5/7x7_s1
I0403 19:16:49.851236  9047 net.cpp:425] pool5/7x7_s1 <- inception_5b/output
I0403 19:16:49.851261  9047 net.cpp:399] pool5/7x7_s1 -> pool5/7x7_s1
I0403 19:16:49.851536  9047 net.cpp:141] Setting up pool5/7x7_s1
I0403 19:16:49.851569  9047 net.cpp:148] Top shape: 24 1024 1 1 (24576)
I0403 19:16:49.851589  9047 net.cpp:156] Memory required for data: 1345962528
I0403 19:16:49.851608  9047 layer_factory.hpp:77] Creating layer pool5/drop_7x7_s1
I0403 19:16:49.851634  9047 net.cpp:91] Creating Layer pool5/drop_7x7_s1
I0403 19:16:49.851654  9047 net.cpp:425] pool5/drop_7x7_s1 <- pool5/7x7_s1
I0403 19:16:49.851675  9047 net.cpp:386] pool5/drop_7x7_s1 -> pool5/7x7_s1 (in-place)
I0403 19:16:49.851738  9047 net.cpp:141] Setting up pool5/drop_7x7_s1
I0403 19:16:49.851773  9047 net.cpp:148] Top shape: 24 1024 1 1 (24576)
I0403 19:16:49.851790  9047 net.cpp:156] Memory required for data: 1346060832
I0403 19:16:49.851809  9047 layer_factory.hpp:77] Creating layer loss3/classifier_plantvillage
I0403 19:16:49.851832  9047 net.cpp:91] Creating Layer loss3/classifier_plantvillage
I0403 19:16:49.851855  9047 net.cpp:425] loss3/classifier_plantvillage <- pool5/7x7_s1
I0403 19:16:49.851881  9047 net.cpp:399] loss3/classifier_plantvillage -> loss3/classifier_plantvillage
I0403 19:16:49.852412  9047 net.cpp:141] Setting up loss3/classifier_plantvillage
I0403 19:16:49.852447  9047 net.cpp:148] Top shape: 24 38 (912)
I0403 19:16:49.852478  9047 net.cpp:156] Memory required for data: 1346064480
I0403 19:16:49.852502  9047 layer_factory.hpp:77] Creating layer loss3/classifier_plantvillage_loss3/classifier_plantvillage_0_split
I0403 19:16:49.852526  9047 net.cpp:91] Creating Layer loss3/classifier_plantvillage_loss3/classifier_plantvillage_0_split
I0403 19:16:49.852546  9047 net.cpp:425] loss3/classifier_plantvillage_loss3/classifier_plantvillage_0_split <- loss3/classifier_plantvillage
I0403 19:16:49.852573  9047 net.cpp:399] loss3/classifier_plantvillage_loss3/classifier_plantvillage_0_split -> loss3/classifier_plantvillage_loss3/classifier_plantvillage_0_split_0
I0403 19:16:49.852598  9047 net.cpp:399] loss3/classifier_plantvillage_loss3/classifier_plantvillage_0_split -> loss3/classifier_plantvillage_loss3/classifier_plantvillage_0_split_1
I0403 19:16:49.852624  9047 net.cpp:399] loss3/classifier_plantvillage_loss3/classifier_plantvillage_0_split -> loss3/classifier_plantvillage_loss3/classifier_plantvillage_0_split_2
I0403 19:16:49.852649  9047 net.cpp:399] loss3/classifier_plantvillage_loss3/classifier_plantvillage_0_split -> loss3/classifier_plantvillage_loss3/classifier_plantvillage_0_split_3
I0403 19:16:49.852779  9047 net.cpp:141] Setting up loss3/classifier_plantvillage_loss3/classifier_plantvillage_0_split
I0403 19:16:49.852812  9047 net.cpp:148] Top shape: 24 38 (912)
I0403 19:16:49.852831  9047 net.cpp:148] Top shape: 24 38 (912)
I0403 19:16:49.852851  9047 net.cpp:148] Top shape: 24 38 (912)
I0403 19:16:49.852870  9047 net.cpp:148] Top shape: 24 38 (912)
I0403 19:16:49.852887  9047 net.cpp:156] Memory required for data: 1346079072
I0403 19:16:49.852912  9047 layer_factory.hpp:77] Creating layer loss1/loss
I0403 19:16:49.852942  9047 net.cpp:91] Creating Layer loss1/loss
I0403 19:16:49.852963  9047 net.cpp:425] loss1/loss <- loss1/classifier_plantvillage_loss1/classifier_plantvillage_0_split_0
I0403 19:16:49.853003  9047 net.cpp:425] loss1/loss <- label_data_1_split_0
…
