…
I0403 19:22:23.883075  9163 net.cpp:313] The NetState phase (1) differed from the phase (0) specified by a rule in layer data
I0403 19:22:23.884192  9163 net.cpp:49] Initializing net from parameters: 
state {
  phase: TEST
}
layer {
  name: "data"
  type: "Data"
  top: "data"
  top: "label"
  include {
    phase: TEST
  }
  transform_param {
    mirror: false
    crop_size: 224
    mean_file: "/home/mohanty/data/final_dataset/lmdb/color-60-40/mean.binaryproto"
  }
  data_param {
    source: "/home/mohanty/data/final_dataset/lmdb/color-60-40/test_db"
    batch_size: 24
    backend: LMDB
  }
}
layer {
  name: "conv1/7x7_s2"
  type: "Convolution"
  bottom: "data"
  top: "conv1/7x7_s2"
  param {
    lr_mult: 1
    decay_mult: 1
  }
  param {
    lr_mult: 2
    decay_mult: 0
  }
  convolution_param {
    num_output: 64
    pad: 3
    kernel_size: 7
    stride: 2
    weight_filler {
      type: "xavier"
      std: 0.1
    }
    bias_filler {
      type: "constant"
      value: 0.2
    }
  }
}
layer {
  name: "conv1/relu_7x7"
  type: "ReLU"
  bottom: "conv1/7x7_s2"
  top: "conv1/7x7_s2"
}
layer {
  name: "pool1/3x3_s2"
  type: "Pooling"
  bottom: "conv1/7x7_s2"
  top: "pool1/3x3_s2"
  pooling_param {
    pool: MAX
    kernel_size: 3
    stride: 2
  }
}
layer {
  name: "pool1/norm1"
  type: "LRN"
  bottom: "pool1/3x3_s2"
  top: "pool1/norm1"
  lrn_param {
    local_size: 5
    alpha: 0.0001
    beta: 0.75
  }
}
layer {
  name: "conv2/3x3_reduce"
  type: "Convolution"
  bottom: "pool1/norm1"
  top: "conv2/3x3_reduce"
  param {
    lr_mult: 1
    decay_mult: 1
  }
  param {
    lr_mult: 2
    decay_mult: 0
  }
  convolution_param {
    num_output: 64
    kernel_size: 1
    weight_filler {
      type: "xavier"
      std: 0.1
    }
    bias_filler {
      type: "constant"
      value: 0.2
    }
  }
}
layer {
  name: "conv2/relu_3x3_reduce"
  type: "ReLU"
  bottom: "conv2/3x3_reduce"
  top: "conv2/3x3_reduce"
}
layer {
  name: "conv2/3x3"
  type: "Convolution"
  bottom: "conv2/3x3_reduce"
  top: "conv2/3x3"
  param {
    lr_mult: 1
    decay_mult: 1
  }
  param {
    lr_mult: 2
    decay_mult: 0
  }
  convolution_param {
    num_output: 192
    pad: 1
    kernel_size: 3
    weight_filler {
      type: "xavier"
      std: 0.03
    }
    bias_filler {
      type: "constant"
      value: 0.2
    }
  }
}
layer {
  name: "conv2/relu_3x3"
  type: "ReLU"
  bottom: "conv2/3x3"
  top: "conv2/3x3"
}
layer {
  name: "conv2/norm2"
  type: "LRN"
  bottom: "conv2/3x3"
  top: "conv2/norm2"
  lrn_param {
    local_size: 5
    alpha: 0.0001
    beta: 0.75
  }
}
layer {
  name: "pool2/3x3_s2"
  type: "Pooling"
  bottom: "conv2/norm2"
  top: "pool2/3x3_s2"
  pooling_param {
    pool: MAX
    kernel_size: 3
    stride: 2
  }
}
layer {
  name: "inception_3a/1x1"
  type: "Convolution"
  bottom: "pool2/3x3_s2"
  top: "inception_3a/1x1"
  param {
    lr_mult: 1
    decay_mult: 1
  }
  param {
    lr_mult: 2
    decay_mult: 0
  }
  convolution_param {
    num_output: 64
    kernel_size: 1
    weight_filler {
      type: "xavier"
      std: 0.03
    }
    bias_filler {
      type: "constant"
      value: 0.2
    }
  }
}
layer {
  name: "inception_3a/relu_1x1"
  type: "ReLU"
  bottom: "inception_3a/1x1"
  top: "inception_3a/1x1"
}
layer {
  name: "inception_3a/3x3_reduce"
  type: "Convolution"
  bottom: "pool2/3x3_s2"
  top: "inception_3a/3x3_reduce"
  param {
    lr_mult: 1
    decay_mult: 1
  }
  param {
    lr_mult: 2
    decay_mult: 0
  }
  convolution_param {
    num_output: 96
    kernel_size: 1
    weight_filler {
      type: "xavier"
      std: 0.09
    }
    bias_filler {
      type: "constant"
      value: 0.2
    }
  }
}
layer {
  name: "inception_3a/relu_3x3_reduce"
  type: "ReLU"
  bottom: "inception_3a/3x3_reduce"
  top: "inception_3a/3x3_reduce"
}
layer {
  name: "inception_3a/3x3"
  type: "Convolution"
  bottom: "inception_3a/3x3_reduce"
  top: "inception_3a/3x3"
  param {
    lr_mult: 1
    decay_mult: 1
  }
  param {
    lr_mult: 2
    decay_mult: 0
  }
  convolution_param {
    num_output: 128
    pad: 1
    kernel_size: 3
    weight_filler {
      type: "xavier"
      std: 0.03
    }
    bias_filler {
      type: "constant"
      value: 0.2
    }
  }
}
layer {
  name: "inception_3a/relu_3x3"
  type: "ReLU"
  bottom: "inception_3a/3x3"
  top: "inception_3a/3x3"
}
layer {
  name: "inception_3a/5x5_reduce"
  type: "Convolution"
  bottom: "pool2/3x3_s2"
  top: "inception_3a/5x5_reduce"
  param {
    lr_mult: 1
    decay_mult: 1
  }
  param {
    lr_mult: 2
    decay_mult: 0
  }
  convolution_param {
    num_output: 16
    kernel_size: 1
    weight_filler {
      type: "xavier"
      std: 0.2
    }
    bias_filler {
      type: "constant"
      value: 0.2
    }
  }
}
layer {
  name: "inception_3a/relu_5x5_reduce"
  type: "ReLU"
  bottom: "inception_3a/5x5_reduce"
  top: "inception_3a/5x5_reduce"
}
layer {
  name: "inception_3a/5x5"
  type: "Convolution"
  bottom: "inception_3a/5x5_reduce"
  top: "inception_3a/5x5"
  param {
    lr_mult: 1
    decay_mult: 1
  }
  param {
    lr_mult: 2
    decay_mult: 0
  }
  convolution_param {
    num_output: 32
    pad: 2
    kernel_size: 5
    weight_filler {
      type: "xavier"
      std: 0.03
    }
    bias_filler {
      type: "constant"
      value: 0.2
    }
  }
}
layer {
  name: "inception_3a/relu_5x5"
  type: "ReLU"
  bottom: "inception_3a/5x5"
  top: "inception_3a/5x5"
}
layer {
  name: "inception_3a/pool"
  type: "Pooling"
  bottom: "pool2/3x3_s2"
  top: "inception_3a/pool"
  pooling_param {
    pool: MAX
    kernel_size: 3
    stride: 1
    pad: 1
  }
}
layer {
  name: "inception_3a/pool_proj"
  type: "Convolution"
  bottom: "inception_3a/pool"
  top: "inception_3a/pool_proj"
  param {
    lr_mult: 1
    decay_mult: 1
  }
  param {
    lr_mult: 2
    decay_mult: 0
  }
  convolution_param {
    num_output: 32
    kernel_size: 1
    weight_filler {
      type: "xavier"
      std: 0.1
    }
    bias_filler {
      type: "constant"
      value: 0.2
    }
  }
}
layer {
  name: "inception_3a/relu_pool_proj"
  type: "ReLU"
  bottom: "inception_3a/pool_proj"
  top: "inception_3a/pool_proj"
}
layer {
  name: "inception_3a/output"
  type: "Concat"
  bottom: "inception_3a/1x1"
  bottom: "inception_3a/3x3"
  bottom: "inception_3a/5x5"
  bottom: "inception_3a/pool_proj"
  top: "inception_3a/output"
}
layer {
  name: "inception_3b/1x1"
  type: "Convolution"
  bottom: "inception_3a/output"
  top: "inception_3b/1x1"
  param {
    lr_mult: 1
    decay_mult: 1
  }
  param {
    lr_mult: 2
    decay_mult: 0
  }
  convolution_param {
    num_output: 128
    kernel_size: 1
    weight_filler {
      type: "xavier"
      std: 0.03
    }
    bias_filler {
      type: "constant"
      value: 0.2
    }
  }
}
layer {
  name: "inception_3b/relu_1x1"
  type: "ReLU"
  bottom: "inception_3b/1x1"
  top: "inception_3b/1x1"
}
layer {
  name: "inception_3b/3x3_reduce"
  type: "Convolution"
  bottom: "inception_3a/output"
  top: "inception_3b/3x3_reduce"
  param {
    lr_mult: 1
    decay_mult: 1
  }
  param {
    lr_mult: 2
    decay_mult: 0
  }
  convolution_param {
    num_output: 128
    kernel_size: 1
    weight_filler {
      type: "xavier"
      std: 0.09
    }
    bias_filler {
      type: "constant"
      value: 0.2
    }
  }
}
layer {
  name: "inception_3b/relu_3x3_reduce"
  type: "ReLU"
  bottom: "inception_3b/3x3_reduce"
  top: "inception_3b/3x3_reduce"
}
layer {
  name: "inception_3b/3x3"
  type: "Convolution"
  bottom: "inception_3b/3x3_reduce"
  top: "inception_3b/3x3"
  param {
    lr_mult: 1
    decay_mult: 1
  }
  param {
    lr_mult: 2
    decay_mult: 0
  }
  convolution_param {
    num_output: 192
    pad: 1
    kernel_size: 3
    weight_filler {
      type: "xavier"
      std: 0.03
    }
    bias_filler {
      type: "constant"
      value: 0.2
    }
  }
}
layer {
  name: "inception_3b/relu_3x3"
  type: "ReLU"
  bottom: "inception_3b/3x3"
  top: "inception_3b/3x3"
}
layer {
  name: "inception_3b/5x5_reduce"
  type: "Convolution"
  bottom: "inception_3a/output"
  top: "inception_3b/5x5_reduce"
  param {
    lr_mult: 1
    decay_mult: 1
  }
  param {
    lr_mult: 2
    decay_mult: 0
  }
  convolution_param {
    num_output: 32
    kernel_size: 1
    weight_filler {
      type: "xavier"
      std: 0.2
    }
    bias_filler {
      type: "constant"
      value: 0.2
    }
  }
}
layer {
  name: "inception_3b/relu_5x5_reduce"
  type: "ReLU"
  bottom: "inception_3b/5x5_reduce"
  top: "inception_3b/5x5_reduce"
}
layer {
  name: "inception_3b/5x5"
  type: "Convolution"
  bottom: "inception_3b/5x5_reduce"
  top: "inception_3b/5x5"
  param {
    lr_mult: 1
    decay_mult: 1
  }
  param {
    lr_mult: 2
    decay_mult: 0
  }
  convolution_param {
    num_output: 96
    pad: 2
    kernel_size: 5
    weight_filler {
      type: "xavier"
      std: 0.03
    }
    bias_filler {
      type: "constant"
      value: 0.2
    }
  }
}
layer {
  name: "inception_3b/relu_5x5"
  type: "ReLU"
  bottom: "inception_3b/5x5"
  top: "inception_3b/5x5"
}
layer {
  name: "inception_3b/pool"
  type: "Pooling"
  bottom: "inception_3a/output"
  top: "inception_3b/pool"
  pooling_param {
    pool: MAX
    kernel_size: 3
    stride: 1
    pad: 1
  }
}
layer {
  name: "inception_3b/pool_proj"
  type: "Convolution"
  bottom: "inception_3b/pool"
  top: "inception_3b/pool_proj"
  param {
    lr_mult: 1
    decay_mult: 1
  }
  param {
    lr_mult: 2
    decay_mult: 0
  }
  convolution_param {
    num_output: 64
    kernel_size: 1
    weight_filler {
      type: "xavier"
      std: 0.1
    }
    bias_filler {
      type: "constant"
      value: 0.2
    }
  }
}
layer {
  name: "inception_3b/relu_pool_proj"
  type: "ReLU"
  bottom: "inception_3b/pool_proj"
  top: "inception_3b/pool_proj"
}
layer {
  name: "inception_3b/output"
  type: "Concat"
  bottom: "inception_3b/1x1"
  bottom: "inception_3b/3x3"
  bottom: "inception_3b/5x5"
  bottom: "inception_3b/pool_proj"
  top: "inception_3b/output"
}
layer {
  name: "pool3/3x3_s2"
  type: "Pooling"
  bottom: "inception_3b/output"
  top: "pool3/3x3_s2"
  pooling_param {
    pool: MAX
    kernel_size: 3
    stride: 2
  }
}
layer {
  name: "inception_4a/1x1"
  type: "Convolution"
  bottom: "pool3/3x3_s2"
  top: "inception_4a/1x1"
  param {
    lr_mult: 1
    decay_mult: 1
  }
  param {
    lr_mult: 2
    decay_mult: 0
  }
  convolution_param {
    num_output: 192
    kernel_size: 1
    weight_filler {
      type: "xavier"
      std: 0.03
    }
    bias_filler {
      type: "constant"
      value: 0.2
    }
  }
}
layer {
  name: "inception_4a/relu_1x1"
  type: "ReLU"
  bottom: "inception_4a/1x1"
  top: "inception_4a/1x1"
}
layer {
  name: "inception_4a/3x3_reduce"
  type: "Convolution"
  bottom: "pool3/3x3_s2"
  top: "inception_4a/3x3_reduce"
  param {
    lr_mult: 1
    decay_mult: 1
  }
  param {
    lr_mult: 2
    decay_mult: 0
  }
  convolution_param {
    num_output: 96
    kernel_size: 1
    weight_filler {
      type: "xavier"
      std: 0.09
    }
    bias_filler {
      type: "constant"
      value: 0.2
    }
  }
}
layer {
  name: "inception_4a/relu_3x3_reduce"
  type: "ReLU"
  bottom: "inception_4a/3x3_reduce"
  top: "inception_4a/3x3_reduce"
}
layer {
  name: "inception_4a/3x3"
  type: "Convolution"
  bottom: "inception_4a/3x3_reduce"
  top: "inception_4a/3x3"
  param {
    lr_mult: 1
    decay_mult: 1
  }
  param {
    lr_mult: 2
    decay_mult: 0
  }
  convolution_param {
    num_output: 208
    pad: 1
    kernel_size: 3
    weight_filler {
      type: "xavier"
      std: 0.03
    }
    bias_filler {
      type: "constant"
      value: 0.2
    }
  }
}
layer {
  name: "inception_4a/relu_3x3"
  type: "ReLU"
  bottom: "inception_4a/3x3"
  top: "inception_4a/3x3"
}
layer {
  name: "inception_4a/5x5_reduce"
  type: "Convolution"
  bottom: "pool3/3x3_s2"
  top: "inception_4a/5x5_reduce"
  param {
    lr_mult: 1
    decay_mult: 1
  }
  param {
    lr_mult: 2
    decay_mult: 0
  }
  convolution_param {
    num_output: 16
    kernel_size: 1
    weight_filler {
      type: "xavier"
      std: 0.2
    }
    bias_filler {
      type: "constant"
      value: 0.2
    }
  }
}
layer {
  name: "inception_4a/relu_5x5_reduce"
  type: "ReLU"
  bottom: "inception_4a/5x5_reduce"
  top: "inception_4a/5x5_reduce"
}
layer {
  name: "inception_4a/5x5"
  type: "Convolution"
  bottom: "inception_4a/5x5_reduce"
  top: "inception_4a/5x5"
  param {
    lr_mult: 1
    decay_mult: 1
  }
  param {
    lr_mult: 2
    decay_mult: 0
  }
  convolution_param {
    num_output: 48
    pad: 2
    kernel_size: 5
    weight_filler {
      type: "xavier"
      std: 0.03
    }
    bias_filler {
      type: "constant"
      value: 0.2
    }
  }
}
layer {
  name: "inception_4a/relu_5x5"
  type: "ReLU"
  bottom: "inception_4a/5x5"
  top: "inception_4a/5x5"
}
layer {
  name: "inception_4a/pool"
  type: "Pooling"
  bottom: "pool3/3x3_s2"
  top: "inception_4a/pool"
  pooling_param {
    pool: MAX
    kernel_size: 3
    stride: 1
    pad: 1
  }
}
layer {
  name: "inception_4a/pool_proj"
  type: "Convolution"
  bottom: "inception_4a/pool"
  top: "inception_4a/pool_proj"
  param {
    lr_mult: 1
    decay_mult: 1
  }
  param {
    lr_mult: 2
    decay_mult: 0
  }
  convolution_param {
    num_output: 64
    kernel_size: 1
    weight_filler {
      type: "xavier"
      std: 0.1
    }
    bias_filler {
      type: "constant"
      value: 0.2
    }
  }
}
layer {
  name: "inception_4a/relu_pool_proj"
  type: "ReLU"
  bottom: "inception_4a/pool_proj"
  top: "inception_4a/pool_proj"
}
layer {
  name: "inception_4a/output"
  type: "Concat"
  bottom: "inception_4a/1x1"
  bottom: "inception_4a/3x3"
  bottom: "inception_4a/5x5"
  bottom: "inception_4a/pool_proj"
  top: "inception_4a/output"
}
layer {
  name: "loss1/ave_pool"
  type: "Pooling"
  bottom: "inception_4a/output"
  top: "loss1/ave_pool"
  pooling_param {
    pool: AVE
    kernel_size: 5
    stride: 3
  }
}
layer {
  name: "loss1/conv"
  type: "Convolution"
  bottom: "loss1/ave_pool"
  top: "loss1/conv"
  param {
    lr_mult: 1
    decay_mult: 1
  }
  param {
    lr_mult: 2
    decay_mult: 0
  }
  convolution_param {
    num_output: 128
    kernel_size: 1
    weight_filler {
      type: "xavier"
      std: 0.08
    }
    bias_filler {
      type: "constant"
      value: 0.2
    }
  }
}
layer {
  name: "loss1/relu_conv"
  type: "ReLU"
  bottom: "loss1/conv"
  top: "loss1/conv"
}
layer {
  name: "loss1/fc"
  type: "InnerProduct"
  bottom: "loss1/conv"
  top: "loss1/fc"
  param {
    lr_mult: 1
    decay_mult: 1
  }
  param {
    lr_mult: 2
    decay_mult: 0
  }
  inner_product_param {
    num_output: 1024
    weight_filler {
      type: "xavier"
      std: 0.02
    }
    bias_filler {
      type: "constant"
      value: 0.2
    }
  }
}
layer {
  name: "loss1/relu_fc"
  type: "ReLU"
  bottom: "loss1/fc"
  top: "loss1/fc"
}
layer {
  name: "loss1/drop_fc"
  type: "Dropout"
  bottom: "loss1/fc"
  top: "loss1/fc"
  dropout_param {
    dropout_ratio: 0.7
  }
}
layer {
  name: "loss1/classifier_plantvillage"
  type: "InnerProduct"
  bottom: "loss1/fc"
  top: "loss1/classifier_plantvillage"
  param {
    lr_mult: 1
    decay_mult: 1
  }
  param {
    lr_mult: 2
    decay_mult: 0
  }
  inner_product_param {
    num_output: 38
    weight_filler {
      type: "xavier"
      std: 0.0009765625
    }
    bias_filler {
      type: "constant"
      value: 0
    }
  }
}
layer {
  name: "inception_4b/1x1"
  type: "Convolution"
  bottom: "inception_4a/output"
  top: "inception_4b/1x1"
  param {
    lr_mult: 1
    decay_mult: 1
  }
  param {
    lr_mult: 2
    decay_mult: 0
  }
  convolution_param {
    num_output: 160
    kernel_size: 1
    weight_filler {
      type: "xavier"
      std: 0.03
    }
    bias_filler {
      type: "constant"
      value: 0.2
    }
  }
}
layer {
  name: "inception_4b/relu_1x1"
  type: "ReLU"
  bottom: "inception_4b/1x1"
  top: "inception_4b/1x1"
}
layer {
  name: "inception_4b/3x3_reduce"
  type: "Convolution"
  bottom: "inception_4a/output"
  top: "inception_4b/3x3_reduce"
  param {
    lr_mult: 1
    decay_mult: 1
  }
  param {
    lr_mult: 2
    decay_mult: 0
  }
  convolution_param {
    num_output: 112
    kernel_size: 1
    weight_filler {
      type: "xavier"
      std: 0.09
    }
    bias_filler {
      type: "constant"
      value: 0.2
    }
  }
}
layer {
  name: "inception_4b/relu_3x3_reduce"
  type: "ReLU"
  bottom: "inception_4b/3x3_reduce"
  top: "inception_4b/3x3_reduce"
}
layer {
  name: "inception_4b/3x3"
  type: "Convolution"
  bottom: "inception_4b/3x3_reduce"
  top: "inception_4b/3x3"
  param {
    lr_mult: 1
    decay_mult: 1
  }
  param {
    lr_mult: 2
    decay_mult: 0
  }
  convolution_param {
    num_output: 224
    pad: 1
    kernel_size: 3
    weight_filler {
      type: "xavier"
      std: 0.03
    }
    bias_filler {
      type: "constant"
      value: 0.2
    }
  }
}
layer {
  name: "inception_4b/relu_3x3"
  type: "ReLU"
  bottom: "inception_4b/3x3"
  top: "inception_4b/3x3"
}
layer {
  name: "inception_4b/5x5_reduce"
  type: "Convolution"
  bottom: "inception_4a/output"
  top: "inception_4b/5x5_reduce"
  param {
    lr_mult: 1
    decay_mult: 1
  }
  param {
    lr_mult: 2
    decay_mult: 0
  }
  convolution_param {
    num_output: 24
    kernel_size: 1
    weight_filler {
      type: "xavier"
      std: 0.2
    }
    bias_filler {
      type: "constant"
      value: 0.2
    }
  }
}
layer {
  name: "inception_4b/relu_5x5_reduce"
  type: "ReLU"
  bottom: "inception_4b/5x5_reduce"
  top: "inception_4b/5x5_reduce"
}
layer {
  name: "inception_4b/5x5"
  type: "Convolution"
  bottom: "inception_4b/5x5_reduce"
  top: "inception_4b/5x5"
  param {
    lr_mult: 1
    decay_mult: 1
  }
  param {
    lr_mult: 2
    decay_mult: 0
  }
  convolution_param {
    num_output: 64
    pad: 2
    kernel_size: 5
    weight_filler {
      type: "xavier"
      std: 0.03
    }
    bias_filler {
      type: "constant"
      value: 0.2
    }
  }
}
layer {
  name: "inception_4b/relu_5x5"
  type: "ReLU"
  bottom: "inception_4b/5x5"
  top: "inception_4b/5x5"
}
layer {
  name: "inception_4b/pool"
  type: "Pooling"
  bottom: "inception_4a/output"
  top: "inception_4b/pool"
  pooling_param {
    pool: MAX
    kernel_size: 3
    stride: 1
    pad: 1
  }
}
layer {
  name: "inception_4b/pool_proj"
  type: "Convolution"
  bottom: "inception_4b/pool"
  top: "inception_4b/pool_proj"
  param {
    lr_mult: 1
    decay_mult: 1
  }
  param {
    lr_mult: 2
    decay_mult: 0
  }
  convolution_param {
    num_output: 64
    kernel_size: 1
    weight_filler {
      type: "xavier"
      std: 0.1
    }
    bias_filler {
      type: "constant"
      value: 0.2
    }
  }
}
layer {
  name: "inception_4b/relu_pool_proj"
  type: "ReLU"
  bottom: "inception_4b/pool_proj"
  top: "inception_4b/pool_proj"
}
layer {
  name: "inception_4b/output"
  type: "Concat"
  bottom: "inception_4b/1x1"
  bottom: "inception_4b/3x3"
  bottom: "inception_4b/5x5"
  bottom: "inception_4b/pool_proj"
  top: "inception_4b/output"
}
layer {
  name: "inception_4c/1x1"
  type: "Convolution"
  bottom: "inception_4b/output"
  top: "inception_4c/1x1"
  param {
    lr_mult: 1
    decay_mult: 1
  }
  param {
    lr_mult: 2
    decay_mult: 0
  }
  convolution_param {
    num_output: 128
    kernel_size: 1
    weight_filler {
      type: "xavier"
      std: 0.03
    }
    bias_filler {
      type: "constant"
      value: 0.2
    }
  }
}
layer {
  name: "inception_4c/relu_1x1"
  type: "ReLU"
  bottom: "inception_4c/1x1"
  top: "inception_4c/1x1"
}
layer {
  name: "inception_4c/3x3_reduce"
  type: "Convolution"
  bottom: "inception_4b/output"
  top: "inception_4c/3x3_reduce"
  param {
    lr_mult: 1
    decay_mult: 1
  }
  param {
    lr_mult: 2
    decay_mult: 0
  }
  convolution_param {
    num_output: 128
    kernel_size: 1
    weight_filler {
      type: "xavier"
      std: 0.09
    }
    bias_filler {
      type: "constant"
      value: 0.2
    }
  }
}
layer {
  name: "inception_4c/relu_3x3_reduce"
  type: "ReLU"
  bottom: "inception_4c/3x3_reduce"
  top: "inception_4c/3x3_reduce"
}
layer {
  name: "inception_4c/3x3"
  type: "Convolution"
  bottom: "inception_4c/3x3_reduce"
  top: "inception_4c/3x3"
  param {
    lr_mult: 1
    decay_mult: 1
  }
  param {
    lr_mult: 2
    decay_mult: 0
  }
  convolution_param {
    num_output: 256
    pad: 1
    kernel_size: 3
    weight_filler {
      type: "xavier"
      std: 0.03
    }
    bias_filler {
      type: "constant"
      value: 0.2
    }
  }
}
layer {
  name: "inception_4c/relu_3x3"
  type: "ReLU"
  bottom: "inception_4c/3x3"
  top: "inception_4c/3x3"
}
layer {
  name: "inception_4c/5x5_reduce"
  type: "Convolution"
  bottom: "inception_4b/output"
  top: "inception_4c/5x5_reduce"
  param {
    lr_mult: 1
    decay_mult: 1
  }
  param {
    lr_mult: 2
    decay_mult: 0
  }
  convolution_param {
    num_output: 24
    kernel_size: 1
    weight_filler {
      type: "xavier"
      std: 0.2
    }
    bias_filler {
      type: "constant"
      value: 0.2
    }
  }
}
layer {
  name: "inception_4c/relu_5x5_reduce"
  type: "ReLU"
  bottom: "inception_4c/5x5_reduce"
  top: "inception_4c/5x5_reduce"
}
layer {
  name: "inception_4c/5x5"
  type: "Convolution"
  bottom: "inception_4c/5x5_reduce"
  top: "inception_4c/5x5"
  param {
    lr_mult: 1
    decay_mult: 1
  }
  param {
    lr_mult: 2
    decay_mult: 0
  }
  convolution_param {
    num_output: 64
    pad: 2
    kernel_size: 5
    weight_filler {
      type: "xavier"
      std: 0.03
    }
    bias_filler {
      type: "constant"
      value: 0.2
    }
  }
}
layer {
  name: "inception_4c/relu_5x5"
  type: "ReLU"
  bottom: "inception_4c/5x5"
  top: "inception_4c/5x5"
}
layer {
  name: "inception_4c/pool"
  type: "Pooling"
  bottom: "inception_4b/output"
  top: "inception_4c/pool"
  pooling_param {
    pool: MAX
    kernel_size: 3
    stride: 1
    pad: 1
  }
}
layer {
  name: "inception_4c/pool_proj"
  type: "Convolution"
  bottom: "inception_4c/pool"
  top: "inception_4c/pool_proj"
  param {
    lr_mult: 1
    decay_mult: 1
  }
  param {
    lr_mult: 2
    decay_mult: 0
  }
  convolution_param {
    num_output: 64
    kernel_size: 1
    weight_filler {
      type: "xavier"
      std: 0.1
    }
    bias_filler {
      type: "constant"
      value: 0.2
    }
  }
}
layer {
  name: "inception_4c/relu_pool_proj"
  type: "ReLU"
  bottom: "inception_4c/pool_proj"
  top: "inception_4c/pool_proj"
}
layer {
  name: "inception_4c/output"
  type: "Concat"
  bottom: "inception_4c/1x1"
  bottom: "inception_4c/3x3"
  bottom: "inception_4c/5x5"
  bottom: "inception_4c/pool_proj"
  top: "inception_4c/output"
}
layer {
  name: "inception_4d/1x1"
  type: "Convolution"
  bottom: "inception_4c/output"
  top: "inception_4d/1x1"
  param {
    lr_mult: 1
    decay_mult: 1
  }
  param {
    lr_mult: 2
    decay_mult: 0
  }
  convolution_param {
    num_output: 112
    kernel_size: 1
    weight_filler {
      type: "xavier"
      std: 0.03
    }
    bias_filler {
      type: "constant"
      value: 0.2
    }
  }
}
layer {
  name: "inception_4d/relu_1x1"
  type: "ReLU"
  bottom: "inception_4d/1x1"
  top: "inception_4d/1x1"
}
layer {
  name: "inception_4d/3x3_reduce"
  type: "Convolution"
  bottom: "inception_4c/output"
  top: "inception_4d/3x3_reduce"
  param {
    lr_mult: 1
    decay_mult: 1
  }
  param {
    lr_mult: 2
    decay_mult: 0
  }
  convolution_param {
    num_output: 144
    kernel_size: 1
    weight_filler {
      type: "xavier"
      std: 0.09
    }
    bias_filler {
      type: "constant"
      value: 0.2
    }
  }
}
layer {
  name: "inception_4d/relu_3x3_reduce"
  type: "ReLU"
  bottom: "inception_4d/3x3_reduce"
  top: "inception_4d/3x3_reduce"
}
layer {
  name: "inception_4d/3x3"
  type: "Convolution"
  bottom: "inception_4d/3x3_reduce"
  top: "inception_4d/3x3"
  param {
    lr_mult: 1
    decay_mult: 1
  }
  param {
    lr_mult: 2
    decay_mult: 0
  }
  convolution_param {
    num_output: 288
    pad: 1
    kernel_size: 3
    weight_filler {
      type: "xavier"
      std: 0.03
    }
    bias_filler {
      type: "constant"
      value: 0.2
    }
  }
}
layer {
  name: "inception_4d/relu_3x3"
  type: "ReLU"
  bottom: "inception_4d/3x3"
  top: "inception_4d/3x3"
}
layer {
  name: "inception_4d/5x5_reduce"
  type: "Convolution"
  bottom: "inception_4c/output"
  top: "inception_4d/5x5_reduce"
  param {
    lr_mult: 1
    decay_mult: 1
  }
  param {
    lr_mult: 2
    decay_mult: 0
  }
  convolution_param {
    num_output: 32
    kernel_size: 1
    weight_filler {
      type: "xavier"
      std: 0.2
    }
    bias_filler {
      type: "constant"
      value: 0.2
    }
  }
}
layer {
  name: "inception_4d/relu_5x5_reduce"
  type: "ReLU"
  bottom: "inception_4d/5x5_reduce"
  top: "inception_4d/5x5_reduce"
}
layer {
  name: "inception_4d/5x5"
  type: "Convolution"
  bottom: "inception_4d/5x5_reduce"
  top: "inception_4d/5x5"
  param {
    lr_mult: 1
    decay_mult: 1
  }
  param {
    lr_mult: 2
    decay_mult: 0
  }
  convolution_param {
    num_output: 64
    pad: 2
    kernel_size: 5
    weight_filler {
      type: "xavier"
      std: 0.03
    }
    bias_filler {
      type: "constant"
      value: 0.2
    }
  }
}
layer {
  name: "inception_4d/relu_5x5"
  type: "ReLU"
  bottom: "inception_4d/5x5"
  top: "inception_4d/5x5"
}
layer {
  name: "inception_4d/pool"
  type: "Pooling"
  bottom: "inception_4c/output"
  top: "inception_4d/pool"
  pooling_param {
    pool: MAX
    kernel_size: 3
    stride: 1
    pad: 1
  }
}
layer {
  name: "inception_4d/pool_proj"
  type: "Convolution"
  bottom: "inception_4d/pool"
  top: "inception_4d/pool_proj"
  param {
    lr_mult: 1
    decay_mult: 1
  }
  param {
    lr_mult: 2
    decay_mult: 0
  }
  convolution_param {
    num_output: 64
    kernel_size: 1
    weight_filler {
      type: "xavier"
      std: 0.1
    }
    bias_filler {
      type: "constant"
      value: 0.2
    }
  }
}
layer {
  name: "inception_4d/relu_pool_proj"
  type: "ReLU"
  bottom: "inception_4d/pool_proj"
  top: "inception_4d/pool_proj"
}
layer {
  name: "inception_4d/output"
  type: "Concat"
  bottom: "inception_4d/1x1"
  bottom: "inception_4d/3x3"
  bottom: "inception_4d/5x5"
  bottom: "inception_4d/pool_proj"
  top: "inception_4d/output"
}
layer {
  name: "loss2/ave_pool"
  type: "Pooling"
  bottom: "inception_4d/output"
  top: "loss2/ave_pool"
  pooling_param {
    pool: AVE
    kernel_size: 5
    stride: 3
  }
}
layer {
  name: "loss2/conv"
  type: "Convolution"
  bottom: "loss2/ave_pool"
  top: "loss2/conv"
  param {
    lr_mult: 1
    decay_mult: 1
  }
  param {
    lr_mult: 2
    decay_mult: 0
  }
  convolution_param {
    num_output: 128
    kernel_size: 1
    weight_filler {
      type: "xavier"
      std: 0.08
    }
    bias_filler {
      type: "constant"
      value: 0.2
    }
  }
}
layer {
  name: "loss2/relu_conv"
  type: "ReLU"
  bottom: "loss2/conv"
  top: "loss2/conv"
}
layer {
  name: "loss2/fc"
  type: "InnerProduct"
  bottom: "loss2/conv"
  top: "loss2/fc"
  param {
    lr_mult: 1
    decay_mult: 1
  }
  param {
    lr_mult: 2
    decay_mult: 0
  }
  inner_product_param {
    num_output: 1024
    weight_filler {
      type: "xavier"
      std: 0.02
    }
    bias_filler {
      type: "constant"
      value: 0.2
    }
  }
}
layer {
  name: "loss2/relu_fc"
  type: "ReLU"
  bottom: "loss2/fc"
  top: "loss2/fc"
}
layer {
  name: "loss2/drop_fc"
  type: "Dropout"
  bottom: "loss2/fc"
  top: "loss2/fc"
  dropout_param {
    dropout_ratio: 0.7
  }
}
layer {
  name: "loss2/classifier_plantvillage"
  type: "InnerProduct"
  bottom: "loss2/fc"
  top: "loss2/classifier_plantvillage"
  param {
    lr_mult: 1
    decay_mult: 1
  }
  param {
    lr_mult: 2
    decay_mult: 0
  }
  inner_product_param {
    num_output: 38
    weight_filler {
      type: "xavier"
      std: 0.0009765625
    }
    bias_filler {
      type: "constant"
      value: 0
    }
  }
}
layer {
  name: "inception_4e/1x1"
  type: "Convolution"
  bottom: "inception_4d/output"
  top: "inception_4e/1x1"
  param {
    lr_mult: 1
    decay_mult: 1
  }
  param {
    lr_mult: 2
    decay_mult: 0
  }
  convolution_param {
    num_output: 256
    kernel_size: 1
    weight_filler {
      type: "xavier"
      std: 0.03
    }
    bias_filler {
      type: "constant"
      value: 0.2
    }
  }
}
layer {
  name: "inception_4e/relu_1x1"
  type: "ReLU"
  bottom: "inception_4e/1x1"
  top: "inception_4e/1x1"
}
layer {
  name: "inception_4e/3x3_reduce"
  type: "Convolution"
  bottom: "inception_4d/output"
  top: "inception_4e/3x3_reduce"
  param {
    lr_mult: 1
    decay_mult: 1
  }
  param {
    lr_mult: 2
    decay_mult: 0
  }
  convolution_param {
    num_output: 160
    kernel_size: 1
    weight_filler {
      type: "xavier"
      std: 0.09
    }
    bias_filler {
      type: "constant"
      value: 0.2
    }
  }
}
layer {
  name: "inception_4e/relu_3x3_reduce"
  type: "ReLU"
  bottom: "inception_4e/3x3_reduce"
  top: "inception_4e/3x3_reduce"
}
layer {
  name: "inception_4e/3x3"
  type: "Convolution"
  bottom: "inception_4e/3x3_reduce"
  top: "inception_4e/3x3"
  param {
    lr_mult: 1
    decay_mult: 1
  }
  param {
    lr_mult: 2
    decay_mult: 0
  }
  convolution_param {
    num_output: 320
    pad: 1
    kernel_size: 3
    weight_filler {
      type: "xavier"
      std: 0.03
    }
    bias_filler {
      type: "constant"
      value: 0.2
    }
  }
}
layer {
  name: "inception_4e/relu_3x3"
  type: "ReLU"
  bottom: "inception_4e/3x3"
  top: "inception_4e/3x3"
}
layer {
  name: "inception_4e/5x5_reduce"
  type: "Convolution"
  bottom: "inception_4d/output"
  top: "inception_4e/5x5_reduce"
  param {
    lr_mult: 1
    decay_mult: 1
  }
  param {
    lr_mult: 2
    decay_mult: 0
  }
  convolution_param {
    num_output: 32
    kernel_size: 1
    weight_filler {
      type: "xavier"
      std: 0.2
    }
    bias_filler {
      type: "constant"
      value: 0.2
    }
  }
}
layer {
  name: "inception_4e/relu_5x5_reduce"
  type: "ReLU"
  bottom: "inception_4e/5x5_reduce"
  top: "inception_4e/5x5_reduce"
}
layer {
  name: "inception_4e/5x5"
  type: "Convolution"
  bottom: "inception_4e/5x5_reduce"
  top: "inception_4e/5x5"
  p
I0403 19:22:23.885881  9163 layer_factory.hpp:77] Creating layer data
I0403 19:22:23.886489  9163 net.cpp:91] Creating Layer data
I0403 19:22:23.886521  9163 net.cpp:399] data -> data
I0403 19:22:23.886590  9163 net.cpp:399] data -> label
I0403 19:22:23.886627  9163 data_transformer.cpp:25] Loading mean file from: /home/mohanty/data/final_dataset/lmdb/color-60-40/mean.binaryproto
I0403 19:22:23.887770  9165 db_lmdb.cpp:38] Opened lmdb /home/mohanty/data/final_dataset/lmdb/color-60-40/test_db
I0403 19:22:23.899519  9163 data_layer.cpp:41] output data size: 24,3,224,224
I0403 19:22:23.925632  9163 net.cpp:141] Setting up data
I0403 19:22:23.925719  9163 net.cpp:148] Top shape: 24 3 224 224 (3612672)
I0403 19:22:23.925741  9163 net.cpp:148] Top shape: 24 (24)
I0403 19:22:23.925756  9163 net.cpp:156] Memory required for data: 14450784
I0403 19:22:23.925787  9163 layer_factory.hpp:77] Creating layer label_data_1_split
I0403 19:22:23.925817  9163 net.cpp:91] Creating Layer label_data_1_split
I0403 19:22:23.925834  9163 net.cpp:425] label_data_1_split <- label
I0403 19:22:23.925869  9163 net.cpp:399] label_data_1_split -> label_data_1_split_0
I0403 19:22:23.925899  9163 net.cpp:399] label_data_1_split -> label_data_1_split_1
I0403 19:22:23.925920  9163 net.cpp:399] label_data_1_split -> label_data_1_split_2
I0403 19:22:23.925941  9163 net.cpp:399] label_data_1_split -> label_data_1_split_3
I0403 19:22:23.925961  9163 net.cpp:399] label_data_1_split -> label_data_1_split_4
I0403 19:22:23.925981  9163 net.cpp:399] label_data_1_split -> label_data_1_split_5
I0403 19:22:23.926002  9163 net.cpp:399] label_data_1_split -> label_data_1_split_6
I0403 19:22:23.926022  9163 net.cpp:399] label_data_1_split -> label_data_1_split_7
I0403 19:22:23.926041  9163 net.cpp:399] label_data_1_split -> label_data_1_split_8
I0403 19:22:23.926062  9163 net.cpp:399] label_data_1_split -> label_data_1_split_9
I0403 19:22:23.926173  9163 net.cpp:141] Setting up label_data_1_split
I0403 19:22:23.926198  9163 net.cpp:148] Top shape: 24 (24)
I0403 19:22:23.926215  9163 net.cpp:148] Top shape: 24 (24)
I0403 19:22:23.926231  9163 net.cpp:148] Top shape: 24 (24)
I0403 19:22:23.926259  9163 net.cpp:148] Top shape: 24 (24)
I0403 19:22:23.926275  9163 net.cpp:148] Top shape: 24 (24)
I0403 19:22:23.926290  9163 net.cpp:148] Top shape: 24 (24)
I0403 19:22:23.926306  9163 net.cpp:148] Top shape: 24 (24)
I0403 19:22:23.926321  9163 net.cpp:148] Top shape: 24 (24)
I0403 19:22:23.926337  9163 net.cpp:148] Top shape: 24 (24)
I0403 19:22:23.926353  9163 net.cpp:148] Top shape: 24 (24)
I0403 19:22:23.926404  9163 net.cpp:156] Memory required for data: 14451744
I0403 19:22:23.926421  9163 layer_factory.hpp:77] Creating layer conv1/7x7_s2
I0403 19:22:23.926456  9163 net.cpp:91] Creating Layer conv1/7x7_s2
I0403 19:22:23.926481  9163 net.cpp:425] conv1/7x7_s2 <- data
I0403 19:22:23.926501  9163 net.cpp:399] conv1/7x7_s2 -> conv1/7x7_s2
I0403 19:22:24.058817  9163 net.cpp:141] Setting up conv1/7x7_s2
I0403 19:22:24.058889  9163 net.cpp:148] Top shape: 24 64 112 112 (19267584)
I0403 19:22:24.058907  9163 net.cpp:156] Memory required for data: 91522080
I0403 19:22:24.058943  9163 layer_factory.hpp:77] Creating layer conv1/relu_7x7
I0403 19:22:24.058972  9163 net.cpp:91] Creating Layer conv1/relu_7x7
I0403 19:22:24.058991  9163 net.cpp:425] conv1/relu_7x7 <- conv1/7x7_s2
I0403 19:22:24.059011  9163 net.cpp:386] conv1/relu_7x7 -> conv1/7x7_s2 (in-place)
I0403 19:22:24.059267  9163 net.cpp:141] Setting up conv1/relu_7x7
I0403 19:22:24.059294  9163 net.cpp:148] Top shape: 24 64 112 112 (19267584)
I0403 19:22:24.059329  9163 net.cpp:156] Memory required for data: 168592416
I0403 19:22:24.059346  9163 layer_factory.hpp:77] Creating layer pool1/3x3_s2
I0403 19:22:24.059394  9163 net.cpp:91] Creating Layer pool1/3x3_s2
I0403 19:22:24.059413  9163 net.cpp:425] pool1/3x3_s2 <- conv1/7x7_s2
I0403 19:22:24.059432  9163 net.cpp:399] pool1/3x3_s2 -> pool1/3x3_s2
I0403 19:22:24.059510  9163 net.cpp:141] Setting up pool1/3x3_s2
I0403 19:22:24.059535  9163 net.cpp:148] Top shape: 24 64 56 56 (4816896)
I0403 19:22:24.059550  9163 net.cpp:156] Memory required for data: 187860000
I0403 19:22:24.059564  9163 layer_factory.hpp:77] Creating layer pool1/norm1
I0403 19:22:24.059592  9163 net.cpp:91] Creating Layer pool1/norm1
I0403 19:22:24.059619  9163 net.cpp:425] pool1/norm1 <- pool1/3x3_s2
I0403 19:22:24.059654  9163 net.cpp:399] pool1/norm1 -> pool1/norm1
I0403 19:22:24.059959  9163 net.cpp:141] Setting up pool1/norm1
I0403 19:22:24.059988  9163 net.cpp:148] Top shape: 24 64 56 56 (4816896)
I0403 19:22:24.060003  9163 net.cpp:156] Memory required for data: 207127584
I0403 19:22:24.060017  9163 layer_factory.hpp:77] Creating layer conv2/3x3_reduce
I0403 19:22:24.060044  9163 net.cpp:91] Creating Layer conv2/3x3_reduce
I0403 19:22:24.060060  9163 net.cpp:425] conv2/3x3_reduce <- pool1/norm1
I0403 19:22:24.060082  9163 net.cpp:399] conv2/3x3_reduce -> conv2/3x3_reduce
I0403 19:22:24.061449  9163 net.cpp:141] Setting up conv2/3x3_reduce
I0403 19:22:24.061486  9163 net.cpp:148] Top shape: 24 64 56 56 (4816896)
I0403 19:22:24.061503  9163 net.cpp:156] Memory required for data: 226395168
I0403 19:22:24.061523  9163 layer_factory.hpp:77] Creating layer conv2/relu_3x3_reduce
I0403 19:22:24.061545  9163 net.cpp:91] Creating Layer conv2/relu_3x3_reduce
I0403 19:22:24.061563  9163 net.cpp:425] conv2/relu_3x3_reduce <- conv2/3x3_reduce
I0403 19:22:24.061580  9163 net.cpp:386] conv2/relu_3x3_reduce -> conv2/3x3_reduce (in-place)
I0403 19:22:24.061843  9163 net.cpp:141] Setting up conv2/relu_3x3_reduce
I0403 19:22:24.061871  9163 net.cpp:148] Top shape: 24 64 56 56 (4816896)
I0403 19:22:24.061885  9163 net.cpp:156] Memory required for data: 245662752
I0403 19:22:24.061899  9163 layer_factory.hpp:77] Creating layer conv2/3x3
I0403 19:22:24.061924  9163 net.cpp:91] Creating Layer conv2/3x3
I0403 19:22:24.061942  9163 net.cpp:425] conv2/3x3 <- conv2/3x3_reduce
I0403 19:22:24.061962  9163 net.cpp:399] conv2/3x3 -> conv2/3x3
I0403 19:22:24.064194  9163 net.cpp:141] Setting up conv2/3x3
I0403 19:22:24.064224  9163 net.cpp:148] Top shape: 24 192 56 56 (14450688)
I0403 19:22:24.064240  9163 net.cpp:156] Memory required for data: 303465504
I0403 19:22:24.064261  9163 layer_factory.hpp:77] Creating layer conv2/relu_3x3
I0403 19:22:24.064282  9163 net.cpp:91] Creating Layer conv2/relu_3x3
I0403 19:22:24.064301  9163 net.cpp:425] conv2/relu_3x3 <- conv2/3x3
I0403 19:22:24.064319  9163 net.cpp:386] conv2/relu_3x3 -> conv2/3x3 (in-place)
I0403 19:22:24.064491  9163 net.cpp:141] Setting up conv2/relu_3x3
I0403 19:22:24.064515  9163 net.cpp:148] Top shape: 24 192 56 56 (14450688)
I0403 19:22:24.064569  9163 net.cpp:156] Memory required for data: 361268256
I0403 19:22:24.064585  9163 layer_factory.hpp:77] Creating layer conv2/norm2
I0403 19:22:24.064604  9163 net.cpp:91] Creating Layer conv2/norm2
I0403 19:22:24.064623  9163 net.cpp:425] conv2/norm2 <- conv2/3x3
I0403 19:22:24.064646  9163 net.cpp:399] conv2/norm2 -> conv2/norm2
I0403 19:22:24.064942  9163 net.cpp:141] Setting up conv2/norm2
I0403 19:22:24.064970  9163 net.cpp:148] Top shape: 24 192 56 56 (14450688)
I0403 19:22:24.064985  9163 net.cpp:156] Memory required for data: 419071008
I0403 19:22:24.065001  9163 layer_factory.hpp:77] Creating layer pool2/3x3_s2
I0403 19:22:24.065019  9163 net.cpp:91] Creating Layer pool2/3x3_s2
I0403 19:22:24.065037  9163 net.cpp:425] pool2/3x3_s2 <- conv2/norm2
I0403 19:22:24.065057  9163 net.cpp:399] pool2/3x3_s2 -> pool2/3x3_s2
I0403 19:22:24.065111  9163 net.cpp:141] Setting up pool2/3x3_s2
I0403 19:22:24.065136  9163 net.cpp:148] Top shape: 24 192 28 28 (3612672)
I0403 19:22:24.065150  9163 net.cpp:156] Memory required for data: 433521696
I0403 19:22:24.065165  9163 layer_factory.hpp:77] Creating layer pool2/3x3_s2_pool2/3x3_s2_0_split
I0403 19:22:24.065184  9163 net.cpp:91] Creating Layer pool2/3x3_s2_pool2/3x3_s2_0_split
I0403 19:22:24.065201  9163 net.cpp:425] pool2/3x3_s2_pool2/3x3_s2_0_split <- pool2/3x3_s2
I0403 19:22:24.065222  9163 net.cpp:399] pool2/3x3_s2_pool2/3x3_s2_0_split -> pool2/3x3_s2_pool2/3x3_s2_0_split_0
I0403 19:22:24.065243  9163 net.cpp:399] pool2/3x3_s2_pool2/3x3_s2_0_split -> pool2/3x3_s2_pool2/3x3_s2_0_split_1
I0403 19:22:24.065263  9163 net.cpp:399] pool2/3x3_s2_pool2/3x3_s2_0_split -> pool2/3x3_s2_pool2/3x3_s2_0_split_2
I0403 19:22:24.065284  9163 net.cpp:399] pool2/3x3_s2_pool2/3x3_s2_0_split -> pool2/3x3_s2_pool2/3x3_s2_0_split_3
I0403 19:22:24.065351  9163 net.cpp:141] Setting up pool2/3x3_s2_pool2/3x3_s2_0_split
I0403 19:22:24.065376  9163 net.cpp:148] Top shape: 24 192 28 28 (3612672)
I0403 19:22:24.065394  9163 net.cpp:148] Top shape: 24 192 28 28 (3612672)
I0403 19:22:24.065410  9163 net.cpp:148] Top shape: 24 192 28 28 (3612672)
I0403 19:22:24.065426  9163 net.cpp:148] Top shape: 24 192 28 28 (3612672)
I0403 19:22:24.065440  9163 net.cpp:156] Memory required for data: 491324448
I0403 19:22:24.065454  9163 layer_factory.hpp:77] Creating layer inception_3a/1x1
I0403 19:22:24.065485  9163 net.cpp:91] Creating Layer inception_3a/1x1
I0403 19:22:24.065502  9163 net.cpp:425] inception_3a/1x1 <- pool2/3x3_s2_pool2/3x3_s2_0_split_0
I0403 19:22:24.065521  9163 net.cpp:399] inception_3a/1x1 -> inception_3a/1x1
I0403 19:22:24.067023  9163 net.cpp:141] Setting up inception_3a/1x1
I0403 19:22:24.067052  9163 net.cpp:148] Top shape: 24 64 28 28 (1204224)
I0403 19:22:24.067070  9163 net.cpp:156] Memory required for data: 496141344
I0403 19:22:24.067088  9163 layer_factory.hpp:77] Creating layer inception_3a/relu_1x1
I0403 19:22:24.067109  9163 net.cpp:91] Creating Layer inception_3a/relu_1x1
I0403 19:22:24.067127  9163 net.cpp:425] inception_3a/relu_1x1 <- inception_3a/1x1
I0403 19:22:24.067145  9163 net.cpp:386] inception_3a/relu_1x1 -> inception_3a/1x1 (in-place)
I0403 19:22:24.067317  9163 net.cpp:141] Setting up inception_3a/relu_1x1
I0403 19:22:24.067343  9163 net.cpp:148] Top shape: 24 64 28 28 (1204224)
I0403 19:22:24.067359  9163 net.cpp:156] Memory required for data: 500958240
I0403 19:22:24.067374  9163 layer_factory.hpp:77] Creating layer inception_3a/3x3_reduce
I0403 19:22:24.067397  9163 net.cpp:91] Creating Layer inception_3a/3x3_reduce
I0403 19:22:24.067415  9163 net.cpp:425] inception_3a/3x3_reduce <- pool2/3x3_s2_pool2/3x3_s2_0_split_1
I0403 19:22:24.067435  9163 net.cpp:399] inception_3a/3x3_reduce -> inception_3a/3x3_reduce
I0403 19:22:24.069196  9163 net.cpp:141] Setting up inception_3a/3x3_reduce
I0403 19:22:24.069227  9163 net.cpp:148] Top shape: 24 96 28 28 (1806336)
I0403 19:22:24.069244  9163 net.cpp:156] Memory required for data: 508183584
I0403 19:22:24.069267  9163 layer_factory.hpp:77] Creating layer inception_3a/relu_3x3_reduce
I0403 19:22:24.069304  9163 net.cpp:91] Creating Layer inception_3a/relu_3x3_reduce
I0403 19:22:24.069324  9163 net.cpp:425] inception_3a/relu_3x3_reduce <- inception_3a/3x3_reduce
I0403 19:22:24.069345  9163 net.cpp:386] inception_3a/relu_3x3_reduce -> inception_3a/3x3_reduce (in-place)
I0403 19:22:24.069535  9163 net.cpp:141] Setting up inception_3a/relu_3x3_reduce
I0403 19:22:24.069561  9163 net.cpp:148] Top shape: 24 96 28 28 (1806336)
I0403 19:22:24.069577  9163 net.cpp:156] Memory required for data: 515408928
I0403 19:22:24.069593  9163 layer_factory.hpp:77] Creating layer inception_3a/3x3
I0403 19:22:24.069617  9163 net.cpp:91] Creating Layer inception_3a/3x3
I0403 19:22:24.069635  9163 net.cpp:425] inception_3a/3x3 <- inception_3a/3x3_reduce
I0403 19:22:24.069658  9163 net.cpp:399] inception_3a/3x3 -> inception_3a/3x3
I0403 19:22:24.071269  9163 net.cpp:141] Setting up inception_3a/3x3
I0403 19:22:24.071300  9163 net.cpp:148] Top shape: 24 128 28 28 (2408448)
I0403 19:22:24.071317  9163 net.cpp:156] Memory required for data: 525042720
I0403 19:22:24.071336  9163 layer_factory.hpp:77] Creating layer inception_3a/relu_3x3
I0403 19:22:24.071354  9163 net.cpp:91] Creating Layer inception_3a/relu_3x3
I0403 19:22:24.071372  9163 net.cpp:425] inception_3a/relu_3x3 <- inception_3a/3x3
I0403 19:22:24.071388  9163 net.cpp:386] inception_3a/relu_3x3 -> inception_3a/3x3 (in-place)
I0403 19:22:24.071662  9163 net.cpp:141] Setting up inception_3a/relu_3x3
I0403 19:22:24.071691  9163 net.cpp:148] Top shape: 24 128 28 28 (2408448)
I0403 19:22:24.071707  9163 net.cpp:156] Memory required for data: 534676512
I0403 19:22:24.071722  9163 layer_factory.hpp:77] Creating layer inception_3a/5x5_reduce
I0403 19:22:24.071745  9163 net.cpp:91] Creating Layer inception_3a/5x5_reduce
I0403 19:22:24.071763  9163 net.cpp:425] inception_3a/5x5_reduce <- pool2/3x3_s2_pool2/3x3_s2_0_split_2
I0403 19:22:24.071780  9163 net.cpp:399] inception_3a/5x5_reduce -> inception_3a/5x5_reduce
I0403 19:22:24.072739  9163 net.cpp:141] Setting up inception_3a/5x5_reduce
I0403 19:22:24.072770  9163 net.cpp:148] Top shape: 24 16 28 28 (301056)
I0403 19:22:24.072788  9163 net.cpp:156] Memory required for data: 535880736
I0403 19:22:24.072808  9163 layer_factory.hpp:77] Creating layer inception_3a/relu_5x5_reduce
I0403 19:22:24.072825  9163 net.cpp:91] Creating Layer inception_3a/relu_5x5_reduce
I0403 19:22:24.072841  9163 net.cpp:425] inception_3a/relu_5x5_reduce <- inception_3a/5x5_reduce
I0403 19:22:24.072860  9163 net.cpp:386] inception_3a/relu_5x5_reduce -> inception_3a/5x5_reduce (in-place)
I0403 19:22:24.073153  9163 net.cpp:141] Setting up inception_3a/relu_5x5_reduce
I0403 19:22:24.073179  9163 net.cpp:148] Top shape: 24 16 28 28 (301056)
I0403 19:22:24.073194  9163 net.cpp:156] Memory required for data: 537084960
I0403 19:22:24.073210  9163 layer_factory.hpp:77] Creating layer inception_3a/5x5
I0403 19:22:24.073232  9163 net.cpp:91] Creating Layer inception_3a/5x5
I0403 19:22:24.073251  9163 net.cpp:425] inception_3a/5x5 <- inception_3a/5x5_reduce
I0403 19:22:24.073273  9163 net.cpp:399] inception_3a/5x5 -> inception_3a/5x5
I0403 19:22:24.074268  9163 net.cpp:141] Setting up inception_3a/5x5
I0403 19:22:24.074296  9163 net.cpp:148] Top shape: 24 32 28 28 (602112)
I0403 19:22:24.074321  9163 net.cpp:156] Memory required for data: 539493408
I0403 19:22:24.074339  9163 layer_factory.hpp:77] Creating layer inception_3a/relu_5x5
I0403 19:22:24.074360  9163 net.cpp:91] Creating Layer inception_3a/relu_5x5
I0403 19:22:24.074378  9163 net.cpp:425] inception_3a/relu_5x5 <- inception_3a/5x5
I0403 19:22:24.074395  9163 net.cpp:386] inception_3a/relu_5x5 -> inception_3a/5x5 (in-place)
I0403 19:22:24.074570  9163 net.cpp:141] Setting up inception_3a/relu_5x5
I0403 19:22:24.074599  9163 net.cpp:148] Top shape: 24 32 28 28 (602112)
I0403 19:22:24.074614  9163 net.cpp:156] Memory required for data: 541901856
I0403 19:22:24.074628  9163 layer_factory.hpp:77] Creating layer inception_3a/pool
I0403 19:22:24.074645  9163 net.cpp:91] Creating Layer inception_3a/pool
I0403 19:22:24.074661  9163 net.cpp:425] inception_3a/pool <- pool2/3x3_s2_pool2/3x3_s2_0_split_3
I0403 19:22:24.074697  9163 net.cpp:399] inception_3a/pool -> inception_3a/pool
I0403 19:22:24.074754  9163 net.cpp:141] Setting up inception_3a/pool
I0403 19:22:24.074779  9163 net.cpp:148] Top shape: 24 192 28 28 (3612672)
I0403 19:22:24.074795  9163 net.cpp:156] Memory required for data: 556352544
I0403 19:22:24.074810  9163 layer_factory.hpp:77] Creating layer inception_3a/pool_proj
I0403 19:22:24.074831  9163 net.cpp:91] Creating Layer inception_3a/pool_proj
I0403 19:22:24.074849  9163 net.cpp:425] inception_3a/pool_proj <- inception_3a/pool
I0403 19:22:24.074874  9163 net.cpp:399] inception_3a/pool_proj -> inception_3a/pool_proj
I0403 19:22:24.075811  9163 net.cpp:141] Setting up inception_3a/pool_proj
I0403 19:22:24.075839  9163 net.cpp:148] Top shape: 24 32 28 28 (602112)
I0403 19:22:24.075855  9163 net.cpp:156] Memory required for data: 558760992
I0403 19:22:24.075881  9163 layer_factory.hpp:77] Creating layer inception_3a/relu_pool_proj
I0403 19:22:24.075901  9163 net.cpp:91] Creating Layer inception_3a/relu_pool_proj
I0403 19:22:24.075917  9163 net.cpp:425] inception_3a/relu_pool_proj <- inception_3a/pool_proj
I0403 19:22:24.075934  9163 net.cpp:386] inception_3a/relu_pool_proj -> inception_3a/pool_proj (in-place)
I0403 19:22:24.076200  9163 net.cpp:141] Setting up inception_3a/relu_pool_proj
I0403 19:22:24.076228  9163 net.cpp:148] Top shape: 24 32 28 28 (602112)
I0403 19:22:24.076246  9163 net.cpp:156] Memory required for data: 561169440
I0403 19:22:24.076261  9163 layer_factory.hpp:77] Creating layer inception_3a/output
I0403 19:22:24.076278  9163 net.cpp:91] Creating Layer inception_3a/output
I0403 19:22:24.076293  9163 net.cpp:425] inception_3a/output <- inception_3a/1x1
I0403 19:22:24.076309  9163 net.cpp:425] inception_3a/output <- inception_3a/3x3
I0403 19:22:24.076326  9163 net.cpp:425] inception_3a/output <- inception_3a/5x5
I0403 19:22:24.076342  9163 net.cpp:425] inception_3a/output <- inception_3a/pool_proj
I0403 19:22:24.076360  9163 net.cpp:399] inception_3a/output -> inception_3a/output
I0403 19:22:24.076407  9163 net.cpp:141] Setting up inception_3a/output
I0403 19:22:24.076431  9163 net.cpp:148] Top shape: 24 256 28 28 (4816896)
I0403 19:22:24.076445  9163 net.cpp:156] Memory required for data: 580437024
I0403 19:22:24.076463  9163 layer_factory.hpp:77] Creating layer inception_3a/output_inception_3a/output_0_split
I0403 19:22:24.076481  9163 net.cpp:91] Creating Layer inception_3a/output_inception_3a/output_0_split
I0403 19:22:24.076501  9163 net.cpp:425] inception_3a/output_inception_3a/output_0_split <- inception_3a/output
I0403 19:22:24.076519  9163 net.cpp:399] inception_3a/output_inception_3a/output_0_split -> inception_3a/output_inception_3a/output_0_split_0
I0403 19:22:24.076539  9163 net.cpp:399] inception_3a/output_inception_3a/output_0_split -> inception_3a/output_inception_3a/output_0_split_1
I0403 19:22:24.076562  9163 net.cpp:399] inception_3a/output_inception_3a/output_0_split -> inception_3a/output_inception_3a/output_0_split_2
I0403 19:22:24.076584  9163 net.cpp:399] inception_3a/output_inception_3a/output_0_split -> inception_3a/output_inception_3a/output_0_split_3
I0403 19:22:24.076659  9163 net.cpp:141] Setting up inception_3a/output_inception_3a/output_0_split
I0403 19:22:24.076683  9163 net.cpp:148] Top shape: 24 256 28 28 (4816896)
I0403 19:22:24.076699  9163 net.cpp:148] Top shape: 24 256 28 28 (4816896)
I0403 19:22:24.076716  9163 net.cpp:148] Top shape: 24 256 28 28 (4816896)
I0403 19:22:24.076731  9163 net.cpp:148] Top shape: 24 256 28 28 (4816896)
I0403 19:22:24.076745  9163 net.cpp:156] Memory required for data: 657507360
I0403 19:22:24.076761  9163 layer_factory.hpp:77] Creating layer inception_3b/1x1
I0403 19:22:24.076783  9163 net.cpp:91] Creating Layer inception_3b/1x1
I0403 19:22:24.076802  9163 net.cpp:425] inception_3b/1x1 <- inception_3a/output_inception_3a/output_0_split_0
I0403 19:22:24.076822  9163 net.cpp:399] inception_3b/1x1 -> inception_3b/1x1
I0403 19:22:24.077960  9163 net.cpp:141] Setting up inception_3b/1x1
I0403 19:22:24.078003  9163 net.cpp:148] Top shape: 24 128 28 28 (2408448)
I0403 19:22:24.078019  9163 net.cpp:156] Memory required for data: 667141152
I0403 19:22:24.078037  9163 layer_factory.hpp:77] Creating layer inception_3b/relu_1x1
I0403 19:22:24.078058  9163 net.cpp:91] Creating Layer inception_3b/relu_1x1
I0403 19:22:24.078075  9163 net.cpp:425] inception_3b/relu_1x1 <- inception_3b/1x1
I0403 19:22:24.078093  9163 net.cpp:386] inception_3b/relu_1x1 -> inception_3b/1x1 (in-place)
I0403 19:22:24.078263  9163 net.cpp:141] Setting up inception_3b/relu_1x1
I0403 19:22:24.078291  9163 net.cpp:148] Top shape: 24 128 28 28 (2408448)
I0403 19:22:24.078307  9163 net.cpp:156] Memory required for data: 676774944
I0403 19:22:24.078322  9163 layer_factory.hpp:77] Creating layer inception_3b/3x3_reduce
I0403 19:22:24.078347  9163 net.cpp:91] Creating Layer inception_3b/3x3_reduce
I0403 19:22:24.078366  9163 net.cpp:425] inception_3b/3x3_reduce <- inception_3a/output_inception_3a/output_0_split_1
I0403 19:22:24.078387  9163 net.cpp:399] inception_3b/3x3_reduce -> inception_3b/3x3_reduce
I0403 19:22:24.079498  9163 net.cpp:141] Setting up inception_3b/3x3_reduce
I0403 19:22:24.079526  9163 net.cpp:148] Top shape: 24 128 28 28 (2408448)
I0403 19:22:24.079542  9163 net.cpp:156] Memory required for data: 686408736
I0403 19:22:24.079560  9163 layer_factory.hpp:77] Creating layer inception_3b/relu_3x3_reduce
I0403 19:22:24.079581  9163 net.cpp:91] Creating Layer inception_3b/relu_3x3_reduce
I0403 19:22:24.079598  9163 net.cpp:425] inception_3b/relu_3x3_reduce <- inception_3b/3x3_reduce
I0403 19:22:24.079617  9163 net.cpp:386] inception_3b/relu_3x3_reduce -> inception_3b/3x3_reduce (in-place)
I0403 19:22:24.079787  9163 net.cpp:141] Setting up inception_3b/relu_3x3_reduce
I0403 19:22:24.079813  9163 net.cpp:148] Top shape: 24 128 28 28 (2408448)
I0403 19:22:24.079828  9163 net.cpp:156] Memory required for data: 696042528
I0403 19:22:24.079843  9163 layer_factory.hpp:77] Creating layer inception_3b/3x3
I0403 19:22:24.079869  9163 net.cpp:91] Creating Layer inception_3b/3x3
I0403 19:22:24.079886  9163 net.cpp:425] inception_3b/3x3 <- inception_3b/3x3_reduce
I0403 19:22:24.079908  9163 net.cpp:399] inception_3b/3x3 -> inception_3b/3x3
I0403 19:22:24.082770  9163 net.cpp:141] Setting up inception_3b/3x3
I0403 19:22:24.082803  9163 net.cpp:148] Top shape: 24 192 28 28 (3612672)
I0403 19:22:24.082819  9163 net.cpp:156] Memory required for data: 710493216
I0403 19:22:24.082839  9163 layer_factory.hpp:77] Creating layer inception_3b/relu_3x3
I0403 19:22:24.082856  9163 net.cpp:91] Creating Layer inception_3b/relu_3x3
I0403 19:22:24.082873  9163 net.cpp:425] inception_3b/relu_3x3 <- inception_3b/3x3
I0403 19:22:24.082891  9163 net.cpp:386] inception_3b/relu_3x3 -> inception_3b/3x3 (in-place)
I0403 19:22:24.083165  9163 net.cpp:141] Setting up inception_3b/relu_3x3
I0403 19:22:24.083197  9163 net.cpp:148] Top shape: 24 192 28 28 (3612672)
I0403 19:22:24.083214  9163 net.cpp:156] Memory required for data: 724943904
I0403 19:22:24.083228  9163 layer_factory.hpp:77] Creating layer inception_3b/5x5_reduce
I0403 19:22:24.083250  9163 net.cpp:91] Creating Layer inception_3b/5x5_reduce
I0403 19:22:24.083271  9163 net.cpp:425] inception_3b/5x5_reduce <- inception_3a/output_inception_3a/output_0_split_2
I0403 19:22:24.083289  9163 net.cpp:399] inception_3b/5x5_reduce -> inception_3b/5x5_reduce
I0403 19:22:24.084262  9163 net.cpp:141] Setting up inception_3b/5x5_reduce
I0403 19:22:24.084290  9163 net.cpp:148] Top shape: 24 32 28 28 (602112)
I0403 19:22:24.084311  9163 net.cpp:156] Memory required for data: 727352352
I0403 19:22:24.084328  9163 layer_factory.hpp:77] Creating layer inception_3b/relu_5x5_reduce
I0403 19:22:24.084347  9163 net.cpp:91] Creating Layer inception_3b/relu_5x5_reduce
I0403 19:22:24.084363  9163 net.cpp:425] inception_3b/relu_5x5_reduce <- inception_3b/5x5_reduce
I0403 19:22:24.084380  9163 net.cpp:386] inception_3b/relu_5x5_reduce -> inception_3b/5x5_reduce (in-place)
I0403 19:22:24.084558  9163 net.cpp:141] Setting up inception_3b/relu_5x5_reduce
I0403 19:22:24.084597  9163 net.cpp:148] Top shape: 24 32 28 28 (602112)
I0403 19:22:24.084614  9163 net.cpp:156] Memory required for data: 729760800
I0403 19:22:24.084630  9163 layer_factory.hpp:77] Creating layer inception_3b/5x5
I0403 19:22:24.084652  9163 net.cpp:91] Creating Layer inception_3b/5x5
I0403 19:22:24.084671  9163 net.cpp:425] inception_3b/5x5 <- inception_3b/5x5_reduce
I0403 19:22:24.084691  9163 net.cpp:399] inception_3b/5x5 -> inception_3b/5x5
I0403 19:22:24.086661  9163 net.cpp:141] Setting up inception_3b/5x5
I0403 19:22:24.086691  9163 net.cpp:148] Top shape: 24 96 28 28 (1806336)
I0403 19:22:24.086707  9163 net.cpp:156] Memory required for data: 736986144
I0403 19:22:24.086726  9163 layer_factory.hpp:77] Creating layer inception_3b/relu_5x5
I0403 19:22:24.086745  9163 net.cpp:91] Creating Layer inception_3b/relu_5x5
I0403 19:22:24.086762  9163 net.cpp:425] inception_3b/relu_5x5 <- inception_3b/5x5
I0403 19:22:24.086779  9163 net.cpp:386] inception_3b/relu_5x5 -> inception_3b/5x5 (in-place)
I0403 19:22:24.086987  9163 net.cpp:141] Setting up inception_3b/relu_5x5
I0403 19:22:24.087015  9163 net.cpp:148] Top shape: 24 96 28 28 (1806336)
I0403 19:22:24.087031  9163 net.cpp:156] Memory required for data: 744211488
I0403 19:22:24.087047  9163 layer_factory.hpp:77] Creating layer inception_3b/pool
I0403 19:22:24.087065  9163 net.cpp:91] Creating Layer inception_3b/pool
I0403 19:22:24.087082  9163 net.cpp:425] inception_3b/pool <- inception_3a/output_inception_3a/output_0_split_3
I0403 19:22:24.087100  9163 net.cpp:399] inception_3b/pool -> inception_3b/pool
I0403 19:22:24.087157  9163 net.cpp:141] Setting up inception_3b/pool
I0403 19:22:24.087193  9163 net.cpp:148] Top shape: 24 256 28 28 (4816896)
I0403 19:22:24.087208  9163 net.cpp:156] Memory required for data: 763479072
I0403 19:22:24.087223  9163 layer_factory.hpp:77] Creating layer inception_3b/pool_proj
I0403 19:22:24.087257  9163 net.cpp:91] Creating Layer inception_3b/pool_proj
I0403 19:22:24.087276  9163 net.cpp:425] inception_3b/pool_proj <- inception_3b/pool
I0403 19:22:24.087297  9163 net.cpp:399] inception_3b/pool_proj -> inception_3b/pool_proj
I0403 19:22:24.088353  9163 net.cpp:141] Setting up inception_3b/pool_proj
I0403 19:22:24.088385  9163 net.cpp:148] Top shape: 24 64 28 28 (1204224)
I0403 19:22:24.088402  9163 net.cpp:156] Memory required for data: 768295968
I0403 19:22:24.088421  9163 layer_factory.hpp:77] Creating layer inception_3b/relu_pool_proj
I0403 19:22:24.088439  9163 net.cpp:91] Creating Layer inception_3b/relu_pool_proj
I0403 19:22:24.088455  9163 net.cpp:425] inception_3b/relu_pool_proj <- inception_3b/pool_proj
I0403 19:22:24.088492  9163 net.cpp:386] inception_3b/relu_pool_proj -> inception_3b/pool_proj (in-place)
I0403 19:22:24.088871  9163 net.cpp:141] Setting up inception_3b/relu_pool_proj
I0403 19:22:24.088903  9163 net.cpp:148] Top shape: 24 64 28 28 (1204224)
I0403 19:22:24.088923  9163 net.cpp:156] Memory required for data: 773112864
I0403 19:22:24.088938  9163 layer_factory.hpp:77] Creating layer inception_3b/output
I0403 19:22:24.088955  9163 net.cpp:91] Creating Layer inception_3b/output
I0403 19:22:24.088969  9163 net.cpp:425] inception_3b/output <- inception_3b/1x1
I0403 19:22:24.088985  9163 net.cpp:425] inception_3b/output <- inception_3b/3x3
I0403 19:22:24.089000  9163 net.cpp:425] inception_3b/output <- inception_3b/5x5
I0403 19:22:24.089015  9163 net.cpp:425] inception_3b/output <- inception_3b/pool_proj
I0403 19:22:24.089033  9163 net.cpp:399] inception_3b/output -> inception_3b/output
I0403 19:22:24.089076  9163 net.cpp:141] Setting up inception_3b/output
I0403 19:22:24.089098  9163 net.cpp:148] Top shape: 24 480 28 28 (9031680)
I0403 19:22:24.089113  9163 net.cpp:156] Memory required for data: 809239584
I0403 19:22:24.089128  9163 layer_factory.hpp:77] Creating layer pool3/3x3_s2
I0403 19:22:24.089146  9163 net.cpp:91] Creating Layer pool3/3x3_s2
I0403 19:22:24.089164  9163 net.cpp:425] pool3/3x3_s2 <- inception_3b/output
I0403 19:22:24.089180  9163 net.cpp:399] pool3/3x3_s2 -> pool3/3x3_s2
I0403 19:22:24.089248  9163 net.cpp:141] Setting up pool3/3x3_s2
I0403 19:22:24.089272  9163 net.cpp:148] Top shape: 24 480 14 14 (2257920)
I0403 19:22:24.089299  9163 net.cpp:156] Memory required for data: 818271264
I0403 19:22:24.089313  9163 layer_factory.hpp:77] Creating layer pool3/3x3_s2_pool3/3x3_s2_0_split
I0403 19:22:24.089331  9163 net.cpp:91] Creating Layer pool3/3x3_s2_pool3/3x3_s2_0_split
I0403 19:22:24.089346  9163 net.cpp:425] pool3/3x3_s2_pool3/3x3_s2_0_split <- pool3/3x3_s2
I0403 19:22:24.089365  9163 net.cpp:399] pool3/3x3_s2_pool3/3x3_s2_0_split -> pool3/3x3_s2_pool3/3x3_s2_0_split_0
I0403 19:22:24.089385  9163 net.cpp:399] pool3/3x3_s2_pool3/3x3_s2_0_split -> pool3/3x3_s2_pool3/3x3_s2_0_split_1
I0403 19:22:24.089406  9163 net.cpp:399] pool3/3x3_s2_pool3/3x3_s2_0_split -> pool3/3x3_s2_pool3/3x3_s2_0_split_2
I0403 19:22:24.089424  9163 net.cpp:399] pool3/3x3_s2_pool3/3x3_s2_0_split -> pool3/3x3_s2_pool3/3x3_s2_0_split_3
I0403 19:22:24.089504  9163 net.cpp:141] Setting up pool3/3x3_s2_pool3/3x3_s2_0_split
I0403 19:22:24.089530  9163 net.cpp:148] Top shape: 24 480 14 14 (2257920)
I0403 19:22:24.089548  9163 net.cpp:148] Top shape: 24 480 14 14 (2257920)
I0403 19:22:24.089577  9163 net.cpp:148] Top shape: 24 480 14 14 (2257920)
I0403 19:22:24.089592  9163 net.cpp:148] Top shape: 24 480 14 14 (2257920)
I0403 19:22:24.089606  9163 net.cpp:156] Memory required for data: 854397984
I0403 19:22:24.089619  9163 layer_factory.hpp:77] Creating layer inception_4a/1x1
I0403 19:22:24.089640  9163 net.cpp:91] Creating Layer inception_4a/1x1
I0403 19:22:24.089658  9163 net.cpp:425] inception_4a/1x1 <- pool3/3x3_s2_pool3/3x3_s2_0_split_0
I0403 19:22:24.089676  9163 net.cpp:399] inception_4a/1x1 -> inception_4a/1x1
I0403 19:22:24.091157  9163 net.cpp:141] Setting up inception_4a/1x1
I0403 19:22:24.091187  9163 net.cpp:148] Top shape: 24 192 14 14 (903168)
I0403 19:22:24.091203  9163 net.cpp:156] Memory required for data: 858010656
I0403 19:22:24.091222  9163 layer_factory.hpp:77] Creating layer inception_4a/relu_1x1
I0403 19:22:24.091239  9163 net.cpp:91] Creating Layer inception_4a/relu_1x1
I0403 19:22:24.091259  9163 net.cpp:425] inception_4a/relu_1x1 <- inception_4a/1x1
I0403 19:22:24.091275  9163 net.cpp:386] inception_4a/relu_1x1 -> inception_4a/1x1 (in-place)
I0403 19:22:24.091444  9163 net.cpp:141] Setting up inception_4a/relu_1x1
I0403 19:22:24.091470  9163 net.cpp:148] Top shape: 24 192 14 14 (903168)
I0403 19:22:24.091486  9163 net.cpp:156] Memory required for data: 861623328
I0403 19:22:24.091500  9163 layer_factory.hpp:77] Creating layer inception_4a/3x3_reduce
I0403 19:22:24.091521  9163 net.cpp:91] Creating Layer inception_4a/3x3_reduce
I0403 19:22:24.091539  9163 net.cpp:425] inception_4a/3x3_reduce <- pool3/3x3_s2_pool3/3x3_s2_0_split_1
I0403 19:22:24.091560  9163 net.cpp:399] inception_4a/3x3_reduce -> inception_4a/3x3_reduce
I0403 19:22:24.092777  9163 net.cpp:141] Setting up inception_4a/3x3_reduce
I0403 19:22:24.092805  9163 net.cpp:148] Top shape: 24 96 14 14 (451584)
I0403 19:22:24.092820  9163 net.cpp:156] Memory required for data: 863429664
I0403 19:22:24.092845  9163 layer_factory.hpp:77] Creating layer inception_4a/relu_3x3_reduce
I0403 19:22:24.092864  9163 net.cpp:91] Creating Layer inception_4a/relu_3x3_reduce
I0403 19:22:24.092880  9163 net.cpp:425] inception_4a/relu_3x3_reduce <- inception_4a/3x3_reduce
I0403 19:22:24.092898  9163 net.cpp:386] inception_4a/relu_3x3_reduce -> inception_4a/3x3_reduce (in-place)
I0403 19:22:24.093071  9163 net.cpp:141] Setting up inception_4a/relu_3x3_reduce
I0403 19:22:24.093096  9163 net.cpp:148] Top shape: 24 96 14 14 (451584)
I0403 19:22:24.093111  9163 net.cpp:156] Memory required for data: 865236000
I0403 19:22:24.093125  9163 layer_factory.hpp:77] Creating layer inception_4a/3x3
I0403 19:22:24.093147  9163 net.cpp:91] Creating Layer inception_4a/3x3
I0403 19:22:24.093165  9163 net.cpp:425] inception_4a/3x3 <- inception_4a/3x3_reduce
I0403 19:22:24.093185  9163 net.cpp:399] inception_4a/3x3 -> inception_4a/3x3
I0403 19:22:24.095749  9163 net.cpp:141] Setting up inception_4a/3x3
I0403 19:22:24.095777  9163 net.cpp:148] Top shape: 24 208 14 14 (978432)
I0403 19:22:24.095793  9163 net.cpp:156] Memory required for data: 869149728
I0403 19:22:24.095811  9163 layer_factory.hpp:77] Creating layer inception_4a/relu_3x3
I0403 19:22:24.095832  9163 net.cpp:91] Creating Layer inception_4a/relu_3x3
I0403 19:22:24.095849  9163 net.cpp:425] inception_4a/relu_3x3 <- inception_4a/3x3
I0403 19:22:24.095866  9163 net.cpp:386] inception_4a/relu_3x3 -> inception_4a/3x3 (in-place)
I0403 19:22:24.096130  9163 net.cpp:141] Setting up inception_4a/relu_3x3
I0403 19:22:24.096156  9163 net.cpp:148] Top shape: 24 208 14 14 (978432)
I0403 19:22:24.096171  9163 net.cpp:156] Memory required for data: 873063456
I0403 19:22:24.096189  9163 layer_factory.hpp:77] Creating layer inception_4a/5x5_reduce
I0403 19:22:24.096210  9163 net.cpp:91] Creating Layer inception_4a/5x5_reduce
I0403 19:22:24.096226  9163 net.cpp:425] inception_4a/5x5_reduce <- pool3/3x3_s2_pool3/3x3_s2_0_split_2
I0403 19:22:24.096247  9163 net.cpp:399] inception_4a/5x5_reduce -> inception_4a/5x5_reduce
I0403 19:22:24.097224  9163 net.cpp:141] Setting up inception_4a/5x5_reduce
I0403 19:22:24.097252  9163 net.cpp:148] Top shape: 24 16 14 14 (75264)
I0403 19:22:24.097267  9163 net.cpp:156] Memory required for data: 873364512
I0403 19:22:24.097297  9163 layer_factory.hpp:77] Creating layer inception_4a/relu_5x5_reduce
I0403 19:22:24.097317  9163 net.cpp:91] Creating Layer inception_4a/relu_5x5_reduce
I0403 19:22:24.097333  9163 net.cpp:425] inception_4a/relu_5x5_reduce <- inception_4a/5x5_reduce
I0403 19:22:24.097350  9163 net.cpp:386] inception_4a/relu_5x5_reduce -> inception_4a/5x5_reduce (in-place)
I0403 19:22:24.097530  9163 net.cpp:141] Setting up inception_4a/relu_5x5_reduce
I0403 19:22:24.097558  9163 net.cpp:148] Top shape: 24 16 14 14 (75264)
I0403 19:22:24.097585  9163 net.cpp:156] Memory required for data: 873665568
I0403 19:22:24.097600  9163 layer_factory.hpp:77] Creating layer inception_4a/5x5
I0403 19:22:24.097622  9163 net.cpp:91] Creating Layer inception_4a/5x5
I0403 19:22:24.097640  9163 net.cpp:425] inception_4a/5x5 <- inception_4a/5x5_reduce
I0403 19:22:24.097658  9163 net.cpp:399] inception_4a/5x5 -> inception_4a/5x5
I0403 19:22:24.098687  9163 net.cpp:141] Setting up inception_4a/5x5
I0403 19:22:24.098716  9163 net.cpp:148] Top shape: 24 48 14 14 (225792)
I0403 19:22:24.098731  9163 net.cpp:156] Memory required for data: 874568736
I0403 19:22:24.098750  9163 layer_factory.hpp:77] Creating layer inception_4a/relu_5x5
I0403 19:22:24.098768  9163 net.cpp:91] Creating Layer inception_4a/relu_5x5
I0403 19:22:24.098784  9163 net.cpp:425] inception_4a/relu_5x5 <- inception_4a/5x5
I0403 19:22:24.098803  9163 net.cpp:386] inception_4a/relu_5x5 -> inception_4a/5x5 (in-place)
I0403 19:22:24.098974  9163 net.cpp:141] Setting up inception_4a/relu_5x5
I0403 19:22:24.098999  9163 net.cpp:148] Top shape: 24 48 14 14 (225792)
I0403 19:22:24.099014  9163 net.cpp:156] Memory required for data: 875471904
I0403 19:22:24.099030  9163 layer_factory.hpp:77] Creating layer inception_4a/pool
I0403 19:22:24.099046  9163 net.cpp:91] Creating Layer inception_4a/pool
I0403 19:22:24.099066  9163 net.cpp:425] inception_4a/pool <- pool3/3x3_s2_pool3/3x3_s2_0_split_3
I0403 19:22:24.099082  9163 net.cpp:399] inception_4a/pool -> inception_4a/pool
I0403 19:22:24.099141  9163 net.cpp:141] Setting up inception_4a/pool
I0403 19:22:24.099164  9163 net.cpp:148] Top shape: 24 480 14 14 (2257920)
I0403 19:22:24.099179  9163 net.cpp:156] Memory required for data: 884503584
I0403 19:22:24.099195  9163 layer_factory.hpp:77] Creating layer inception_4a/pool_proj
I0403 19:22:24.099217  9163 net.cpp:91] Creating Layer inception_4a/pool_proj
I0403 19:22:24.099236  9163 net.cpp:425] inception_4a/pool_proj <- inception_4a/pool
I0403 19:22:24.099257  9163 net.cpp:399] inception_4a/pool_proj -> inception_4a/pool_proj
I0403 19:22:24.100368  9163 net.cpp:141] Setting up inception_4a/pool_proj
I0403 19:22:24.100396  9163 net.cpp:148] Top shape: 24 64 14 14 (301056)
I0403 19:22:24.100430  9163 net.cpp:156] Memory required for data: 885707808
I0403 19:22:24.100450  9163 layer_factory.hpp:77] Creating layer inception_4a/relu_pool_proj
I0403 19:22:24.100488  9163 net.cpp:91] Creating Layer inception_4a/relu_pool_proj
I0403 19:22:24.100505  9163 net.cpp:425] inception_4a/relu_pool_proj <- inception_4a/pool_proj
I0403 19:22:24.100528  9163 net.cpp:386] inception_4a/relu_pool_proj -> inception_4a/pool_proj (in-place)
I0403 19:22:24.100854  9163 net.cpp:141] Setting up inception_4a/relu_pool_proj
I0403 19:22:24.100881  9163 net.cpp:148] Top shape: 24 64 14 14 (301056)
I0403 19:22:24.100898  9163 net.cpp:156] Memory required for data: 886912032
I0403 19:22:24.100913  9163 layer_factory.hpp:77] Creating layer inception_4a/output
I0403 19:22:24.100929  9163 net.cpp:91] Creating Layer inception_4a/output
I0403 19:22:24.100944  9163 net.cpp:425] inception_4a/output <- inception_4a/1x1
I0403 19:22:24.100961  9163 net.cpp:425] inception_4a/output <- inception_4a/3x3
I0403 19:22:24.100977  9163 net.cpp:425] inception_4a/output <- inception_4a/5x5
I0403 19:22:24.100994  9163 net.cpp:425] inception_4a/output <- inception_4a/pool_proj
I0403 19:22:24.101013  9163 net.cpp:399] inception_4a/output -> inception_4a/output
I0403 19:22:24.101057  9163 net.cpp:141] Setting up inception_4a/output
I0403 19:22:24.101083  9163 net.cpp:148] Top shape: 24 512 14 14 (2408448)
I0403 19:22:24.101099  9163 net.cpp:156] Memory required for data: 896545824
I0403 19:22:24.101114  9163 layer_factory.hpp:77] Creating layer inception_4a/output_inception_4a/output_0_split
I0403 19:22:24.101132  9163 net.cpp:91] Creating Layer inception_4a/output_inception_4a/output_0_split
I0403 19:22:24.101148  9163 net.cpp:425] inception_4a/output_inception_4a/output_0_split <- inception_4a/output
I0403 19:22:24.101166  9163 net.cpp:399] inception_4a/output_inception_4a/output_0_split -> inception_4a/output_inception_4a/output_0_split_0
I0403 19:22:24.101187  9163 net.cpp:399] inception_4a/output_inception_4a/output_0_split -> inception_4a/output_inception_4a/output_0_split_1
I0403 19:22:24.101209  9163 net.cpp:399] inception_4a/output_inception_4a/output_0_split -> inception_4a/output_inception_4a/output_0_split_2
I0403 19:22:24.101230  9163 net.cpp:399] inception_4a/output_inception_4a/output_0_split -> inception_4a/output_inception_4a/output_0_split_3
I0403 19:22:24.101250  9163 net.cpp:399] inception_4a/output_inception_4a/output_0_split -> inception_4a/output_inception_4a/output_0_split_4
I0403 19:22:24.101356  9163 net.cpp:141] Setting up inception_4a/output_inception_4a/output_0_split
I0403 19:22:24.101380  9163 net.cpp:148] Top shape: 24 512 14 14 (2408448)
I0403 19:22:24.101398  9163 net.cpp:148] Top shape: 24 512 14 14 (2408448)
I0403 19:22:24.101418  9163 net.cpp:148] Top shape: 24 512 14 14 (2408448)
I0403 19:22:24.101434  9163 net.cpp:148] Top shape: 24 512 14 14 (2408448)
I0403 19:22:24.101451  9163 net.cpp:148] Top shape: 24 512 14 14 (2408448)
I0403 19:22:24.101470  9163 net.cpp:156] Memory required for data: 944714784
I0403 19:22:24.101486  9163 layer_factory.hpp:77] Creating layer loss1/ave_pool
I0403 19:22:24.101505  9163 net.cpp:91] Creating Layer loss1/ave_pool
I0403 19:22:24.101521  9163 net.cpp:425] loss1/ave_pool <- inception_4a/output_inception_4a/output_0_split_0
I0403 19:22:24.101538  9163 net.cpp:399] loss1/ave_pool -> loss1/ave_pool
I0403 19:22:24.101755  9163 net.cpp:141] Setting up loss1/ave_pool
I0403 19:22:24.101783  9163 net.cpp:148] Top shape: 24 512 4 4 (196608)
I0403 19:22:24.101797  9163 net.cpp:156] Memory required for data: 945501216
I0403 19:22:24.101814  9163 layer_factory.hpp:77] Creating layer loss1/conv
I0403 19:22:24.101835  9163 net.cpp:91] Creating Layer loss1/conv
I0403 19:22:24.101852  9163 net.cpp:425] loss1/conv <- loss1/ave_pool
I0403 19:22:24.101873  9163 net.cpp:399] loss1/conv -> loss1/conv
I0403 19:22:24.103257  9163 net.cpp:141] Setting up loss1/conv
I0403 19:22:24.103286  9163 net.cpp:148] Top shape: 24 128 4 4 (49152)
I0403 19:22:24.103303  9163 net.cpp:156] Memory required for data: 945697824
I0403 19:22:24.103337  9163 layer_factory.hpp:77] Creating layer loss1/relu_conv
I0403 19:22:24.103358  9163 net.cpp:91] Creating Layer loss1/relu_conv
I0403 19:22:24.103375  9163 net.cpp:425] loss1/relu_conv <- loss1/conv
I0403 19:22:24.103392  9163 net.cpp:386] loss1/relu_conv -> loss1/conv (in-place)
I0403 19:22:24.103682  9163 net.cpp:141] Setting up loss1/relu_conv
I0403 19:22:24.103709  9163 net.cpp:148] Top shape: 24 128 4 4 (49152)
I0403 19:22:24.103724  9163 net.cpp:156] Memory required for data: 945894432
I0403 19:22:24.103740  9163 layer_factory.hpp:77] Creating layer loss1/fc
I0403 19:22:24.103767  9163 net.cpp:91] Creating Layer loss1/fc
I0403 19:22:24.103786  9163 net.cpp:425] loss1/fc <- loss1/conv
I0403 19:22:24.103806  9163 net.cpp:399] loss1/fc -> loss1/fc
I0403 19:22:24.121165  9163 net.cpp:141] Setting up loss1/fc
I0403 19:22:24.121199  9163 net.cpp:148] Top shape: 24 1024 (24576)
I0403 19:22:24.121214  9163 net.cpp:156] Memory required for data: 945992736
I0403 19:22:24.121233  9163 layer_factory.hpp:77] Creating layer loss1/relu_fc
I0403 19:22:24.121249  9163 net.cpp:91] Creating Layer loss1/relu_fc
I0403 19:22:24.121265  9163 net.cpp:425] loss1/relu_fc <- loss1/fc
I0403 19:22:24.121296  9163 net.cpp:386] loss1/relu_fc -> loss1/fc (in-place)
I0403 19:22:24.121487  9163 net.cpp:141] Setting up loss1/relu_fc
I0403 19:22:24.121512  9163 net.cpp:148] Top shape: 24 1024 (24576)
I0403 19:22:24.121528  9163 net.cpp:156] Memory required for data: 946091040
I0403 19:22:24.121543  9163 layer_factory.hpp:77] Creating layer loss1/drop_fc
I0403 19:22:24.121582  9163 net.cpp:91] Creating Layer loss1/drop_fc
I0403 19:22:24.121598  9163 net.cpp:425] loss1/drop_fc <- loss1/fc
I0403 19:22:24.121615  9163 net.cpp:386] loss1/drop_fc -> loss1/fc (in-place)
I0403 19:22:24.121665  9163 net.cpp:141] Setting up loss1/drop_fc
I0403 19:22:24.121691  9163 net.cpp:148] Top shape: 24 1024 (24576)
I0403 19:22:24.121707  9163 net.cpp:156] Memory required for data: 946189344
I0403 19:22:24.121723  9163 layer_factory.hpp:77] Creating layer loss1/classifier_plantvillage
I0403 19:22:24.121740  9163 net.cpp:91] Creating Layer loss1/classifier_plantvillage
I0403 19:22:24.121755  9163 net.cpp:425] loss1/classifier_plantvillage <- loss1/fc
I0403 19:22:24.121776  9163 net.cpp:399] loss1/classifier_plantvillage -> loss1/classifier_plantvillage
I0403 19:22:24.122655  9163 net.cpp:141] Setting up loss1/classifier_plantvillage
I0403 19:22:24.122684  9163 net.cpp:148] Top shape: 24 38 (912)
I0403 19:22:24.122697  9163 net.cpp:156] Memory required for data: 946192992
I0403 19:22:24.122715  9163 layer_factory.hpp:77] Creating layer loss1/classifier_plantvillage_loss1/classifier_plantvillage_0_split
I0403 19:22:24.122735  9163 net.cpp:91] Creating Layer loss1/classifier_plantvillage_loss1/classifier_plantvillage_0_split
I0403 19:22:24.122753  9163 net.cpp:425] loss1/classifier_plantvillage_loss1/classifier_plantvillage_0_split <- loss1/classifier_plantvillage
I0403 19:22:24.122771  9163 net.cpp:399] loss1/classifier_plantvillage_loss1/classifier_plantvillage_0_split -> loss1/classifier_plantvillage_loss1/classifier_plantvillage_0_split_0
I0403 19:22:24.122791  9163 net.cpp:399] loss1/classifier_plantvillage_loss1/classifier_plantvillage_0_split -> loss1/classifier_plantvillage_loss1/classifier_plantvillage_0_split_1
I0403 19:22:24.122812  9163 net.cpp:399] loss1/classifier_plantvillage_loss1/classifier_plantvillage_0_split -> loss1/classifier_plantvillage_loss1/classifier_plantvillage_0_split_2
I0403 19:22:24.122875  9163 net.cpp:141] Setting up loss1/classifier_plantvillage_loss1/classifier_plantvillage_0_split
I0403 19:22:24.122900  9163 net.cpp:148] Top shape: 24 38 (912)
I0403 19:22:24.122916  9163 net.cpp:148] Top shape: 24 38 (912)
I0403 19:22:24.122931  9163 net.cpp:148] Top shape: 24 38 (912)
I0403 19:22:24.122946  9163 net.cpp:156] Memory required for data: 946203936
I0403 19:22:24.122959  9163 layer_factory.hpp:77] Creating layer inception_4b/1x1
I0403 19:22:24.122979  9163 net.cpp:91] Creating Layer inception_4b/1x1
I0403 19:22:24.123011  9163 net.cpp:425] inception_4b/1x1 <- inception_4a/output_inception_4a/output_0_split_1
I0403 19:22:24.123034  9163 net.cpp:399] inception_4b/1x1 -> inception_4b/1x1
I0403 19:22:24.124585  9163 net.cpp:141] Setting up inception_4b/1x1
I0403 19:22:24.124614  9163 net.cpp:148] Top shape: 24 160 14 14 (752640)
I0403 19:22:24.124629  9163 net.cpp:156] Memory required for data: 949214496
I0403 19:22:24.124647  9163 layer_factory.hpp:77] Creating layer inception_4b/relu_1x1
I0403 19:22:24.124668  9163 net.cpp:91] Creating Layer inception_4b/relu_1x1
I0403 19:22:24.124686  9163 net.cpp:425] inception_4b/relu_1x1 <- inception_4b/1x1
I0403 19:22:24.124702  9163 net.cpp:386] inception_4b/relu_1x1 -> inception_4b/1x1 (in-place)
I0403 19:22:24.124877  9163 net.cpp:141] Setting up inception_4b/relu_1x1
I0403 19:22:24.124905  9163 net.cpp:148] Top shape: 24 160 14 14 (752640)
I0403 19:22:24.124920  9163 net.cpp:156] Memory required for data: 952225056
I0403 19:22:24.124934  9163 layer_factory.hpp:77] Creating layer inception_4b/3x3_reduce
I0403 19:22:24.124956  9163 net.cpp:91] Creating Layer inception_4b/3x3_reduce
I0403 19:22:24.124972  9163 net.cpp:425] inception_4b/3x3_reduce <- inception_4a/output_inception_4a/output_0_split_2
I0403 19:22:24.124991  9163 net.cpp:399] inception_4b/3x3_reduce -> inception_4b/3x3_reduce
I0403 19:22:24.126307  9163 net.cpp:141] Setting up inception_4b/3x3_reduce
I0403 19:22:24.126337  9163 net.cpp:148] Top shape: 24 112 14 14 (526848)
I0403 19:22:24.126353  9163 net.cpp:156] Memory required for data: 954332448
I0403 19:22:24.126371  9163 layer_factory.hpp:77] Creating layer inception_4b/relu_3x3_reduce
I0403 19:22:24.126389  9163 net.cpp:91] Creating Layer inception_4b/relu_3x3_reduce
I0403 19:22:24.126405  9163 net.cpp:425] inception_4b/relu_3x3_reduce <- inception_4b/3x3_reduce
I0403 19:22:24.126425  9163 net.cpp:386] inception_4b/relu_3x3_reduce -> inception_4b/3x3_reduce (in-place)
I0403 19:22:24.126700  9163 net.cpp:141] Setting up inception_4b/relu_3x3_reduce
I0403 19:22:24.126729  9163 net.cpp:148] Top shape: 24 112 14 14 (526848)
I0403 19:22:24.126745  9163 net.cpp:156] Memory required for data: 956439840
I0403 19:22:24.126760  9163 layer_factory.hpp:77] Creating layer inception_4b/3x3
I0403 19:22:24.126783  9163 net.cpp:91] Creating Layer inception_4b/3x3
I0403 19:22:24.126801  9163 net.cpp:425] inception_4b/3x3 <- inception_4b/3x3_reduce
I0403 19:22:24.126819  9163 net.cpp:399] inception_4b/3x3 -> inception_4b/3x3
I0403 19:22:24.129675  9163 net.cpp:141] Setting up inception_4b/3x3
I0403 19:22:24.129705  9163 net.cpp:148] Top shape: 24 224 14 14 (1053696)
I0403 19:22:24.129720  9163 net.cpp:156] Memory required for data: 960654624
I0403 19:22:24.129739  9163 layer_factory.hpp:77] Creating layer inception_4b/relu_3x3
I0403 19:22:24.129758  9163 net.cpp:91] Creating Layer inception_4b/relu_3x3
I0403 19:22:24.129776  9163 net.cpp:425] inception_4b/relu_3x3 <- inception_4b/3x3
I0403 19:22:24.129793  9163 net.cpp:386] inception_4b/relu_3x3 -> inception_4b/3x3 (in-place)
I0403 19:22:24.129966  9163 net.cpp:141] Setting up inception_4b/relu_3x3
I0403 19:22:24.129989  9163 net.cpp:148] Top shape: 24 224 14 14 (1053696)
I0403 19:22:24.130003  9163 net.cpp:156] Memory required for data: 964869408
I0403 19:22:24.130018  9163 layer_factory.hpp:77] Creating layer inception_4b/5x5_reduce
I0403 19:22:24.130038  9163 net.cpp:91] Creating Layer inception_4b/5x5_reduce
I0403 19:22:24.130056  9163 net.cpp:425] inception_4b/5x5_reduce <- inception_4a/output_inception_4a/output_0_split_3
I0403 19:22:24.130079  9163 net.cpp:399] inception_4b/5x5_reduce -> inception_4b/5x5_reduce
I0403 19:22:24.131124  9163 net.cpp:141] Setting up inception_4b/5x5_reduce
I0403 19:22:24.131150  9163 net.cpp:148] Top shape: 24 24 14 14 (112896)
I0403 19:22:24.131165  9163 net.cpp:156] Memory required for data: 965320992
I0403 19:22:24.131186  9163 layer_factory.hpp:77] Creating layer inception_4b/relu_5x5_reduce
I0403 19:22:24.131204  9163 net.cpp:91] Creating Layer inception_4b/relu_5x5_reduce
I0403 19:22:24.131234  9163 net.cpp:425] inception_4b/relu_5x5_reduce <- inception_4b/5x5_reduce
I0403 19:22:24.131253  9163 net.cpp:386] inception_4b/relu_5x5_reduce -> inception_4b/5x5_reduce (in-place)
I0403 19:22:24.131430  9163 net.cpp:141] Setting up inception_4b/relu_5x5_reduce
I0403 19:22:24.131454  9163 net.cpp:148] Top shape: 24 24 14 14 (112896)
I0403 19:22:24.131474  9163 net.cpp:156] Memory required for data: 965772576
I0403 19:22:24.131489  9163 layer_factory.hpp:77] Creating layer inception_4b/5x5
I0403 19:22:24.131510  9163 net.cpp:91] Creating Layer inception_4b/5x5
I0403 19:22:24.131528  9163 net.cpp:425] inception_4b/5x5 <- inception_4b/5x5_reduce
I0403 19:22:24.131549  9163 net.cpp:399] inception_4b/5x5 -> inception_4b/5x5
I0403 19:22:24.132764  9163 net.cpp:141] Setting up inception_4b/5x5
I0403 19:22:24.132791  9163 net.cpp:148] Top shape: 24 64 14 14 (301056)
I0403 19:22:24.132807  9163 net.cpp:156] Memory required for data: 966976800
I0403 19:22:24.132825  9163 layer_factory.hpp:77] Creating layer inception_4b/relu_5x5
I0403 19:22:24.132844  9163 net.cpp:91] Creating Layer inception_4b/relu_5x5
I0403 19:22:24.132861  9163 net.cpp:425] inception_4b/relu_5x5 <- inception_4b/5x5
I0403 19:22:24.132877  9163 net.cpp:386] inception_4b/relu_5x5 -> inception_4b/5x5 (in-place)
I0403 19:22:24.133157  9163 net.cpp:141] Setting up inception_4b/relu_5x5
I0403 19:22:24.133183  9163 net.cpp:148] Top shape: 24 64 14 14 (301056)
I0403 19:22:24.133198  9163 net.cpp:156] Memory required for data: 968181024
I0403 19:22:24.133213  9163 layer_factory.hpp:77] Creating layer inception_4b/pool
I0403 19:22:24.133232  9163 net.cpp:91] Creating Layer inception_4b/pool
I0403 19:22:24.133249  9163 net.cpp:425] inception_4b/pool <- inception_4a/output_inception_4a/output_0_split_4
I0403 19:22:24.133267  9163 net.cpp:399] inception_4b/pool -> inception_4b/pool
I0403 19:22:24.133343  9163 net.cpp:141] Setting up inception_4b/pool
I0403 19:22:24.133368  9163 net.cpp:148] Top shape: 24 512 14 14 (2408448)
I0403 19:22:24.133383  9163 net.cpp:156] Memory required for data: 977814816
I0403 19:22:24.133399  9163 layer_factory.hpp:77] Creating layer inception_4b/pool_proj
I0403 19:22:24.133420  9163 net.cpp:91] Creating Layer inception_4b/pool_proj
I0403 19:22:24.133438  9163 net.cpp:425] inception_4b/pool_proj <- inception_4b/pool
I0403 19:22:24.133462  9163 net.cpp:399] inception_4b/pool_proj -> inception_4b/pool_proj
I0403 19:22:24.134634  9163 net.cpp:141] Setting up inception_4b/pool_proj
I0403 19:22:24.134690  9163 net.cpp:148] Top shape: 24 64 14 14 (301056)
I0403 19:22:24.134727  9163 net.cpp:156] Memory required for data: 979019040
I0403 19:22:24.134747  9163 layer_factory.hpp:77] Creating layer inception_4b/relu_pool_proj
I0403 19:22:24.134764  9163 net.cpp:91] Creating Layer inception_4b/relu_pool_proj
I0403 19:22:24.134780  9163 net.cpp:425] inception_4b/relu_pool_proj <- inception_4b/pool_proj
I0403 19:22:24.134796  9163 net.cpp:386] inception_4b/relu_pool_proj -> inception_4b/pool_proj (in-place)
I0403 19:22:24.134970  9163 net.cpp:141] Setting up inception_4b/relu_pool_proj
I0403 19:22:24.135012  9163 net.cpp:148] Top shape: 24 64 14 14 (301056)
I0403 19:22:24.135051  9163 net.cpp:156] Memory required for data: 980223264
I0403 19:22:24.135087  9163 layer_factory.hpp:77] Creating layer inception_4b/output
I0403 19:22:24.135123  9163 net.cpp:91] Creating Layer inception_4b/output
I0403 19:22:24.135157  9163 net.cpp:425] inception_4b/output <- inception_4b/1x1
I0403 19:22:24.135184  9163 net.cpp:425] inception_4b/output <- inception_4b/3x3
I0403 19:22:24.135203  9163 net.cpp:425] inception_4b/output <- inception_4b/5x5
I0403 19:22:24.135218  9163 net.cpp:425] inception_4b/output <- inception_4b/pool_proj
I0403 19:22:24.135248  9163 net.cpp:399] inception_4b/output -> inception_4b/output
I0403 19:22:24.135293  9163 net.cpp:141] Setting up inception_4b/output
I0403 19:22:24.135315  9163 net.cpp:148] Top shape: 24 512 14 14 (2408448)
I0403 19:22:24.135330  9163 net.cpp:156] Memory required for data: 989857056
I0403 19:22:24.135360  9163 layer_factory.hpp:77] Creating layer inception_4b/output_inception_4b/output_0_split
I0403 19:22:24.135380  9163 net.cpp:91] Creating Layer inception_4b/output_inception_4b/output_0_split
I0403 19:22:24.135396  9163 net.cpp:425] inception_4b/output_inception_4b/output_0_split <- inception_4b/output
I0403 19:22:24.135412  9163 net.cpp:399] inception_4b/output_inception_4b/output_0_split -> inception_4b/output_inception_4b/output_0_split_0
I0403 19:22:24.135432  9163 net.cpp:399] inception_4b/output_inception_4b/output_0_split -> inception_4b/output_inception_4b/output_0_split_1
I0403 19:22:24.135455  9163 net.cpp:399] inception_4b/output_inception_4b/output_0_split -> inception_4b/output_inception_4b/output_0_split_2
I0403 19:22:24.135491  9163 net.cpp:399] inception_4b/output_inception_4b/output_0_split -> inception_4b/output_inception_4b/output_0_split_3
I0403 19:22:24.135571  9163 net.cpp:141] Setting up inception_4b/output_inception_4b/output_0_split
I0403 19:22:24.135594  9163 net.cpp:148] Top shape: 24 512 14 14 (2408448)
I0403 19:22:24.135612  9163 net.cpp:148] Top shape: 24 512 14 14 (2408448)
I0403 19:22:24.135627  9163 net.cpp:148] Top shape: 24 512 14 14 (2408448)
I0403 19:22:24.135642  9163 net.cpp:148] Top shape: 24 512 14 14 (2408448)
I0403 19:22:24.135655  9163 net.cpp:156] Memory required for data: 1028392224
I0403 19:22:24.135669  9163 layer_factory.hpp:77] Creating layer inception_4c/1x1
I0403 19:22:24.135690  9163 net.cpp:91] Creating Layer inception_4c/1x1
I0403 19:22:24.135707  9163 net.cpp:425] inception_4c/1x1 <- inception_4b/output_inception_4b/output_0_split_0
I0403 19:22:24.135727  9163 net.cpp:399] inception_4c/1x1 -> inception_4c/1x1
I0403 19:22:24.137086  9163 net.cpp:141] Setting up inception_4c/1x1
I0403 19:22:24.137117  9163 net.cpp:148] Top shape: 24 128 14 14 (602112)
I0403 19:22:24.137135  9163 net.cpp:156] Memory required for data: 1030800672
I0403 19:22:24.137153  9163 layer_factory.hpp:77] Creating layer inception_4c/relu_1x1
I0403 19:22:24.137171  9163 net.cpp:91] Creating Layer inception_4c/relu_1x1
I0403 19:22:24.137188  9163 net.cpp:425] inception_4c/relu_1x1 <- inception_4c/1x1
I0403 19:22:24.137207  9163 net.cpp:386] inception_4c/relu_1x1 -> inception_4c/1x1 (in-place)
I0403 19:22:24.137400  9163 net.cpp:141] Setting up inception_4c/relu_1x1
I0403 19:22:24.137425  9163 net.cpp:148] Top shape: 24 128 14 14 (602112)
I0403 19:22:24.137440  9163 net.cpp:156] Memory required for data: 1033209120
I0403 19:22:24.137454  9163 layer_factory.hpp:77] Creating layer inception_4c/3x3_reduce
I0403 19:22:24.137482  9163 net.cpp:91] Creating Layer inception_4c/3x3_reduce
I0403 19:22:24.137501  9163 net.cpp:425] inception_4c/3x3_reduce <- inception_4b/output_inception_4b/output_0_split_1
I0403 19:22:24.137522  9163 net.cpp:399] inception_4c/3x3_reduce -> inception_4c/3x3_reduce
I0403 19:22:24.139369  9163 net.cpp:141] Setting up inception_4c/3x3_reduce
I0403 19:22:24.139397  9163 net.cpp:148] Top shape: 24 128 14 14 (602112)
I0403 19:22:24.139413  9163 net.cpp:156] Memory required for data: 1035617568
I0403 19:22:24.139430  9163 layer_factory.hpp:77] Creating layer inception_4c/relu_3x3_reduce
I0403 19:22:24.139451  9163 net.cpp:91] Creating Layer inception_4c/relu_3x3_reduce
I0403 19:22:24.139473  9163 net.cpp:425] inception_4c/relu_3x3_reduce <- inception_4c/3x3_reduce
I0403 19:22:24.139490  9163 net.cpp:386] inception_4c/relu_3x3_reduce -> inception_4c/3x3_reduce (in-place)
I0403 19:22:24.139762  9163 net.cpp:141] Setting up inception_4c/relu_3x3_reduce
I0403 19:22:24.139789  9163 net.cpp:148] Top shape: 24 128 14 14 (602112)
I0403 19:22:24.139803  9163 net.cpp:156] Memory required for data: 1038026016
I0403 19:22:24.139818  9163 layer_factory.hpp:77] Creating layer inception_4c/3x3
I0403 19:22:24.139840  9163 net.cpp:91] Creating Layer inception_4c/3x3
I0403 19:22:24.139858  9163 net.cpp:425] inception_4c/3x3 <- inception_4c/3x3_reduce
I0403 19:22:24.139879  9163 net.cpp:399] inception_4c/3x3 -> inception_4c/3x3
I0403 19:22:24.143328  9163 net.cpp:141] Setting up inception_4c/3x3
I0403 19:22:24.143368  9163 net.cpp:148] Top shape: 24 256 14 14 (1204224)
I0403 19:22:24.143384  9163 net.cpp:156] Memory required for data: 1042842912
I0403 19:22:24.143416  9163 layer_factory.hpp:77] Creating layer inception_4c/relu_3x3
I0403 19:22:24.143438  9163 net.cpp:91] Creating Layer inception_4c/relu_3x3
I0403 19:22:24.143455  9163 net.cpp:425] inception_4c/relu_3x3 <- inception_4c/3x3
I0403 19:22:24.143476  9163 net.cpp:386] inception_4c/relu_3x3 -> inception_4c/3x3 (in-place)
I0403 19:22:24.143653  9163 net.cpp:141] Setting up inception_4c/relu_3x3
I0403 19:22:24.143678  9163 net.cpp:148] Top shape: 24 256 14 14 (1204224)
I0403 19:22:24.143693  9163 net.cpp:156] Memory required for data: 1047659808
I0403 19:22:24.143707  9163 layer_factory.hpp:77] Creating layer inception_4c/5x5_reduce
I0403 19:22:24.143731  9163 net.cpp:91] Creating Layer inception_4c/5x5_reduce
I0403 19:22:24.143749  9163 net.cpp:425] inception_4c/5x5_reduce <- inception_4b/output_inception_4b/output_0_split_2
I0403 19:22:24.143767  9163 net.cpp:399] inception_4c/5x5_reduce -> inception_4c/5x5_reduce
I0403 19:22:24.144805  9163 net.cpp:141] Setting up inception_4c/5x5_reduce
I0403 19:22:24.144832  9163 net.cpp:148] Top shape: 24 24 14 14 (112896)
I0403 19:22:24.144847  9163 net.cpp:156] Memory required for data: 1048111392
I0403 19:22:24.144865  9163 layer_factory.hpp:77] Creating layer inception_4c/relu_5x5_reduce
I0403 19:22:24.144886  9163 net.cpp:91] Creating Layer inception_4c/relu_5x5_reduce
I0403 19:22:24.144901  9163 net.cpp:425] inception_4c/relu_5x5_reduce <- inception_4c/5x5_reduce
I0403 19:22:24.144918  9163 net.cpp:386] inception_4c/relu_5x5_reduce -> inception_4c/5x5_reduce (in-place)
I0403 19:22:24.145097  9163 net.cpp:141] Setting up inception_4c/relu_5x5_reduce
I0403 19:22:24.145123  9163 net.cpp:148] Top shape: 24 24 14 14 (112896)
I0403 19:22:24.145136  9163 net.cpp:156] Memory required for data: 1048562976
I0403 19:22:24.145151  9163 layer_factory.hpp:77] Creating layer inception_4c/5x5
I0403 19:22:24.145172  9163 net.cpp:91] Creating Layer inception_4c/5x5
I0403 19:22:24.145192  9163 net.cpp:425] inception_4c/5x5 <- inception_4c/5x5_reduce
I0403 19:22:24.145212  9163 net.cpp:399] inception_4c/5x5 -> inception_4c/5x5
I0403 19:22:24.146433  9163 net.cpp:141] Setting up inception_4c/5x5
I0403 19:22:24.146466  9163 net.cpp:148] Top shape: 24 64 14 14 (301056)
I0403 19:22:24.146484  9163 net.cpp:156] Memory required for data: 1049767200
I0403 19:22:24.146502  9163 layer_factory.hpp:77] Creating layer inception_4c/relu_5x5
I0403 19:22:24.146519  9163 net.cpp:91] Creating Layer inception_4c/relu_5x5
I0403 19:22:24.146535  9163 net.cpp:425] inception_4c/relu_5x5 <- inception_4c/5x5
I0403 19:22:24.146554  9163 net.cpp:386] inception_4c/relu_5x5 -> inception_4c/5x5 (in-place)
I0403 19:22:24.146831  9163 net.cpp:141] Setting up inception_4c/relu_5x5
I0403 19:22:24.146859  9163 net.cpp:148] Top shape: 24 64 14 14 (301056)
I0403 19:22:24.146877  9163 net.cpp:156] Memory required for data: 1050971424
I0403 19:22:24.146891  9163 layer_factory.hpp:77] Creating layer inception_4c/pool
I0403 19:22:24.146908  9163 net.cpp:91] Creating Layer inception_4c/pool
I0403 19:22:24.146924  9163 net.cpp:425] inception_4c/pool <- inception_4b/output_inception_4b/output_0_split_3
I0403 19:22:24.146944  9163 net.cpp:399] inception_4c/pool -> inception_4c/pool
I0403 19:22:24.147008  9163 net.cpp:141] Setting up inception_4c/pool
I0403 19:22:24.147035  9163 net.cpp:148] Top shape: 24 512 14 14 (2408448)
I0403 19:22:24.147050  9163 net.cpp:156] Memory required for data: 1060605216
I0403 19:22:24.147066  9163 layer_factory.hpp:77] Creating layer inception_4c/pool_proj
I0403 19:22:24.147086  9163 net.cpp:91] Creating Layer inception_4c/pool_proj
I0403 19:22:24.147110  9163 net.cpp:425] inception_4c/pool_proj <- inception_4c/pool
I0403 19:22:24.147142  9163 net.cpp:399] inception_4c/pool_proj -> inception_4c/pool_proj
I0403 19:22:24.148388  9163 net.cpp:141] Setting up inception_4c/pool_proj
I0403 19:22:24.148417  9163 net.cpp:148] Top shape: 24 64 14 14 (301056)
I0403 19:22:24.148447  9163 net.cpp:156] Memory required for data: 1061809440
I0403 19:22:24.148471  9163 layer_factory.hpp:77] Creating layer inception_4c/relu_pool_proj
I0403 19:22:24.148495  9163 net.cpp:91] Creating Layer inception_4c/relu_pool_proj
I0403 19:22:24.148512  9163 net.cpp:425] inception_4c/relu_pool_proj <- inception_4c/pool_proj
I0403 19:22:24.148530  9163 net.cpp:386] inception_4c/relu_pool_proj -> inception_4c/pool_proj (in-place)
I0403 19:22:24.148715  9163 net.cpp:141] Setting up inception_4c/relu_pool_proj
I0403 19:22:24.148742  9163 net.cpp:148] Top shape: 24 64 14 14 (301056)
I0403 19:22:24.148758  9163 net.cpp:156] Memory required for data: 1063013664
I0403 19:22:24.148773  9163 layer_factory.hpp:77] Creating layer inception_4c/output
I0403 19:22:24.148790  9163 net.cpp:91] Creating Layer inception_4c/output
I0403 19:22:24.148805  9163 net.cpp:425] inception_4c/output <- inception_4c/1x1
I0403 19:22:24.148823  9163 net.cpp:425] inception_4c/output <- inception_4c/3x3
I0403 19:22:24.148838  9163 net.cpp:425] inception_4c/output <- inception_4c/5x5
I0403 19:22:24.148855  9163 net.cpp:425] inception_4c/output <- inception_4c/pool_proj
I0403 19:22:24.148874  9163 net.cpp:399] inception_4c/output -> inception_4c/output
I0403 19:22:24.148919  9163 net.cpp:141] Setting up inception_4c/output
I0403 19:22:24.148943  9163 net.cpp:148] Top shape: 24 512 14 14 (2408448)
I0403 19:22:24.148958  9163 net.cpp:156] Memory required for data: 1072647456
I0403 19:22:24.148973  9163 layer_factory.hpp:77] Creating layer inception_4c/output_inception_4c/output_0_split
I0403 19:22:24.148993  9163 net.cpp:91] Creating Layer inception_4c/output_inception_4c/output_0_split
I0403 19:22:24.149010  9163 net.cpp:425] inception_4c/output_inception_4c/output_0_split <- inception_4c/output
I0403 19:22:24.149027  9163 net.cpp:399] inception_4c/output_inception_4c/output_0_split -> inception_4c/output_inception_4c/output_0_split_0
I0403 19:22:24.149049  9163 net.cpp:399] inception_4c/output_inception_4c/output_0_split -> inception_4c/output_inception_4c/output_0_split_1
I0403 19:22:24.149071  9163 net.cpp:399] inception_4c/output_inception_4c/output_0_split -> inception_4c/output_inception_4c/output_0_split_2
I0403 19:22:24.149093  9163 net.cpp:399] inception_4c/output_inception_4c/output_0_split -> inception_4c/output_inception_4c/output_0_split_3
I0403 19:22:24.149179  9163 net.cpp:141] Setting up inception_4c/output_inception_4c/output_0_split
I0403 19:22:24.149204  9163 net.cpp:148] Top shape: 24 512 14 14 (2408448)
I0403 19:22:24.149233  9163 net.cpp:148] Top shape: 24 512 14 14 (2408448)
I0403 19:22:24.149250  9163 net.cpp:148] Top shape: 24 512 14 14 (2408448)
I0403 19:22:24.149266  9163 net.cpp:148] Top shape: 24 512 14 14 (2408448)
I0403 19:22:24.149281  9163 net.cpp:156] Memory required for data: 1111182624
I0403 19:22:24.149296  9163 layer_factory.hpp:77] Creating layer inception_4d/1x1
I0403 19:22:24.149327  9163 net.cpp:91] Creating Layer inception_4d/1x1
I0403 19:22:24.149346  9163 net.cpp:425] inception_4d/1x1 <- inception_4c/output_inception_4c/output_0_split_0
I0403 19:22:24.149368  9163 net.cpp:399] inception_4d/1x1 -> inception_4d/1x1
I0403 19:22:24.150787  9163 net.cpp:141] Setting up inception_4d/1x1
I0403 19:22:24.150816  9163 net.cpp:148] Top shape: 24 112 14 14 (526848)
I0403 19:22:24.150832  9163 net.cpp:156] Memory required for data: 1113290016
I0403 19:22:24.150851  9163 layer_factory.hpp:77] Creating layer inception_4d/relu_1x1
I0403 19:22:24.150871  9163 net.cpp:91] Creating Layer inception_4d/relu_1x1
I0403 19:22:24.150887  9163 net.cpp:425] inception_4d/relu_1x1 <- inception_4d/1x1
I0403 19:22:24.150904  9163 net.cpp:386] inception_4d/relu_1x1 -> inception_4d/1x1 (in-place)
I0403 19:22:24.151085  9163 net.cpp:141] Setting up inception_4d/relu_1x1
I0403 19:22:24.151110  9163 net.cpp:148] Top shape: 24 112 14 14 (526848)
I0403 19:22:24.151125  9163 net.cpp:156] Memory required for data: 1115397408
I0403 19:22:24.151141  9163 layer_factory.hpp:77] Creating layer inception_4d/3x3_reduce
I0403 19:22:24.151178  9163 net.cpp:91] Creating Layer inception_4d/3x3_reduce
I0403 19:22:24.151198  9163 net.cpp:425] inception_4d/3x3_reduce <- inception_4c/output_inception_4c/output_0_split_1
I0403 19:22:24.151218  9163 net.cpp:399] inception_4d/3x3_reduce -> inception_4d/3x3_reduce
I0403 19:22:24.152719  9163 net.cpp:141] Setting up inception_4d/3x3_reduce
I0403 19:22:24.152747  9163 net.cpp:148] Top shape: 24 144 14 14 (677376)
I0403 19:22:24.152763  9163 net.cpp:156] Memory required for data: 1118106912
I0403 19:22:24.152782  9163 layer_factory.hpp:77] Creating layer inception_4d/relu_3x3_reduce
I0403 19:22:24.152799  9163 net.cpp:91] Creating Layer inception_4d/relu_3x3_reduce
I0403 19:22:24.152817  9163 net.cpp:425] inception_4d/relu_3x3_reduce <- inception_4d/3x3_reduce
I0403 19:22:24.152837  9163 net.cpp:386] inception_4d/relu_3x3_reduce -> inception_4d/3x3_reduce (in-place)
I0403 19:22:24.153132  9163 net.cpp:141] Setting up inception_4d/relu_3x3_reduce
I0403 19:22:24.153158  9163 net.cpp:148] Top shape: 24 144 14 14 (677376)
I0403 19:22:24.153174  9163 net.cpp:156] Memory required for data: 1120816416
I0403 19:22:24.153190  9163 layer_factory.hpp:77] Creating layer inception_4d/3x3
I0403 19:22:24.153226  9163 net.cpp:91] Creating Layer inception_4d/3x3
I0403 19:22:24.153245  9163 net.cpp:425] inception_4d/3x3 <- inception_4d/3x3_reduce
I0403 19:22:24.153272  9163 net.cpp:399] inception_4d/3x3 -> inception_4d/3x3
I0403 19:22:24.157433  9163 net.cpp:141] Setting up inception_4d/3x3
I0403 19:22:24.157465  9163 net.cpp:148] Top shape: 24 288 14 14 (1354752)
I0403 19:22:24.157483  9163 net.cpp:156] Memory required for data: 1126235424
I0403 19:22:24.157501  9163 layer_factory.hpp:77] Creating layer inception_4d/relu_3x3
I0403 19:22:24.157522  9163 net.cpp:91] Creating Layer inception_4d/relu_3x3
I0403 19:22:24.157541  9163 net.cpp:425] inception_4d/relu_3x3 <- inception_4d/3x3
I0403 19:22:24.157559  9163 net.cpp:386] inception_4d/relu_3x3 -> inception_4d/3x3 (in-place)
I0403 19:22:24.157742  9163 net.cpp:141] Setting up inception_4d/relu_3x3
I0403 19:22:24.157768  9163 net.cpp:148] Top shape: 24 288 14 14 (1354752)
I0403 19:22:24.157784  9163 net.cpp:156] Memory required for data: 1131654432
I0403 19:22:24.157799  9163 layer_factory.hpp:77] Creating layer inception_4d/5x5_reduce
I0403 19:22:24.157821  9163 net.cpp:91] Creating Layer inception_4d/5x5_reduce
I0403 19:22:24.157840  9163 net.cpp:425] inception_4d/5x5_reduce <- inception_4c/output_inception_4c/output_0_split_2
I0403 19:22:24.157858  9163 net.cpp:399] inception_4d/5x5_reduce -> inception_4d/5x5_reduce
I0403 19:22:24.159023  9163 net.cpp:141] Setting up inception_4d/5x5_reduce
I0403 19:22:24.159050  9163 net.cpp:148] Top shape: 24 32 14 14 (150528)
I0403 19:22:24.159067  9163 net.cpp:156] Memory required for data: 1132256544
I0403 19:22:24.159085  9163 layer_factory.hpp:77] Creating layer inception_4d/relu_5x5_reduce
I0403 19:22:24.159106  9163 net.cpp:91] Creating Layer inception_4d/relu_5x5_reduce
I0403 19:22:24.159122  9163 net.cpp:425] inception_4d/relu_5x5_reduce <- inception_4d/5x5_reduce
I0403 19:22:24.159140  9163 net.cpp:386] inception_4d/relu_5x5_reduce -> inception_4d/5x5_reduce (in-place)
I0403 19:22:24.159327  9163 net.cpp:141] Setting up inception_4d/relu_5x5_reduce
I0403 19:22:24.159351  9163 net.cpp:148] Top shape: 24 32 14 14 (150528)
I0403 19:22:24.159368  9163 net.cpp:156] Memory required for data: 1132858656
I0403 19:22:24.159381  9163 layer_factory.hpp:77] Creating layer inception_4d/5x5
I0403 19:22:24.159405  9163 net.cpp:91] Creating Layer inception_4d/5x5
I0403 19:22:24.159425  9163 net.cpp:425] inception_4d/5x5 <- inception_4d/5x5_reduce
I0403 19:22:24.159443  9163 net.cpp:399] inception_4d/5x5 -> inception_4d/5x5
I0403 19:22:24.160887  9163 net.cpp:141] Setting up inception_4d/5x5
I0403 19:22:24.160918  9163 net.cpp:148] Top shape: 24 64 14 14 (301056)
I0403 19:22:24.160936  9163 net.cpp:156] Memory required for data: 1134062880
I0403 19:22:24.160954  9163 layer_factory.hpp:77] Creating layer inception_4d/relu_5x5
I0403 19:22:24.160986  9163 net.cpp:91] Creating Layer inception_4d/relu_5x5
I0403 19:22:24.161003  9163 net.cpp:425] inception_4d/relu_5x5 <- inception_4d/5x5
I0403 19:22:24.161023  9163 net.cpp:386] inception_4d/relu_5x5 -> inception_4d/5x5 (in-place)
I0403 19:22:24.161320  9163 net.cpp:141] Setting up inception_4d/relu_5x5
I0403 19:22:24.161350  9163 net.cpp:148] Top shape: 24 64 14 14 (301056)
I0403 19:22:24.161367  9163 net.cpp:156] Memory required for data: 1135267104
I0403 19:22:24.161382  9163 layer_factory.hpp:77] Creating layer inception_4d/pool
I0403 19:22:24.161401  9163 net.cpp:91] Creating Layer inception_4d/pool
I0403 19:22:24.161417  9163 net.cpp:425] inception_4d/pool <- inception_4c/output_inception_4c/output_0_split_3
I0403 19:22:24.161438  9163 net.cpp:399] inception_4d/pool -> inception_4d/pool
I0403 19:22:24.161509  9163 net.cpp:141] Setting up inception_4d/pool
I0403 19:22:24.161533  9163 net.cpp:148] Top shape: 24 512 14 14 (2408448)
I0403 19:22:24.161548  9163 net.cpp:156] Memory required for data: 1144900896
I0403 19:22:24.161563  9163 layer_factory.hpp:77] Creating layer inception_4d/pool_proj
I0403 19:22:24.161586  9163 net.cpp:91] Creating Layer inception_4d/pool_proj
I0403 19:22:24.161602  9163 net.cpp:425] inception_4d/pool_proj <- inception_4d/pool
I0403 19:22:24.161623  9163 net.cpp:399] inception_4d/pool_proj -> inception_4d/pool_proj
I0403 19:22:24.163398  9163 net.cpp:141] Setting up inception_4d/pool_proj
I0403 19:22:24.163426  9163 net.cpp:148] Top shape: 24 64 14 14 (301056)
I0403 19:22:24.163444  9163 net.cpp:156] Memory required for data: 1146105120
I0403 19:22:24.163465  9163 layer_factory.hpp:77] Creating layer inception_4d/relu_pool_proj
I0403 19:22:24.163488  9163 net.cpp:91] Creating Layer inception_4d/relu_pool_proj
I0403 19:22:24.163506  9163 net.cpp:425] inception_4d/relu_pool_proj <- inception_4d/pool_proj
I0403 19:22:24.163523  9163 net.cpp:386] inception_4d/relu_pool_proj -> inception_4d/pool_proj (in-place)
I0403 19:22:24.163709  9163 net.cpp:141] Setting up inception_4d/relu_pool_proj
I0403 19:22:24.163738  9163 net.cpp:148] Top shape: 24 64 14 14 (301056)
I0403 19:22:24.163754  9163 net.cpp:156] Memory required for data: 1147309344
I0403 19:22:24.163770  9163 layer_factory.hpp:77] Creating layer inception_4d/output
I0403 19:22:24.163789  9163 net.cpp:91] Creating Layer inception_4d/output
I0403 19:22:24.163805  9163 net.cpp:425] inception_4d/output <- inception_4d/1x1
I0403 19:22:24.163821  9163 net.cpp:425] inception_4d/output <- inception_4d/3x3
I0403 19:22:24.163837  9163 net.cpp:425] inception_4d/output <- inception_4d/5x5
I0403 19:22:24.163854  9163 net.cpp:425] inception_4d/output <- inception_4d/pool_proj
I0403 19:22:24.163872  9163 net.cpp:399] inception_4d/output -> inception_4d/output
I0403 19:22:24.163919  9163 net.cpp:141] Setting up inception_4d/output
I0403 19:22:24.163944  9163 net.cpp:148] Top shape: 24 528 14 14 (2483712)
I0403 19:22:24.163959  9163 net.cpp:156] Memory required for data: 1157244192
I0403 19:22:24.163974  9163 layer_factory.hpp:77] Creating layer inception_4d/output_inception_4d/output_0_split
I0403 19:22:24.163993  9163 net.cpp:91] Creating Layer inception_4d/output_inception_4d/output_0_split
I0403 19:22:24.164011  9163 net.cpp:425] inception_4d/output_inception_4d/output_0_split <- inception_4d/output
I0403 19:22:24.164028  9163 net.cpp:399] inception_4d/output_inception_4d/output_0_split -> inception_4d/output_inception_4d/output_0_split_0
I0403 19:22:24.164049  9163 net.cpp:399] inception_4d/output_inception_4d/output_0_split -> inception_4d/output_inception_4d/output_0_split_1
I0403 19:22:24.164077  9163 net.cpp:399] inception_4d/output_inception_4d/output_0_split -> inception_4d/output_inception_4d/output_0_split_2
I0403 19:22:24.164098  9163 net.cpp:399] inception_4d/output_inception_4d/output_0_split -> inception_4d/output_inception_4d/output_0_split_3
I0403 19:22:24.164119  9163 net.cpp:399] inception_4d/output_inception_4d/output_0_split -> inception_4d/output_inception_4d/output_0_split_4
I0403 19:22:24.164244  9163 net.cpp:141] Setting up inception_4d/output_inception_4d/output_0_split
I0403 19:22:24.164281  9163 net.cpp:148] Top shape: 24 528 14 14 (2483712)
I0403 19:22:24.164300  9163 net.cpp:148] Top shape: 24 528 14 14 (2483712)
I0403 19:22:24.164316  9163 net.cpp:148] Top shape: 24 528 14 14 (2483712)
I0403 19:22:24.164332  9163 net.cpp:148] Top shape: 24 528 14 14 (2483712)
I0403 19:22:24.164348  9163 net.cpp:148] Top shape: 24 528 14 14 (2483712)
I0403 19:22:24.164363  9163 net.cpp:156] Memory required for data: 1206918432
I0403 19:22:24.164378  9163 layer_factory.hpp:77] Creating layer loss2/ave_pool
I0403 19:22:24.164397  9163 net.cpp:91] Creating Layer loss2/ave_pool
I0403 19:22:24.164414  9163 net.cpp:425] loss2/ave_pool <- inception_4d/output_inception_4d/output_0_split_0
I0403 19:22:24.164436  9163 net.cpp:399] loss2/ave_pool -> loss2/ave_pool
I0403 19:22:24.164762  9163 net.cpp:141] Setting up loss2/ave_pool
I0403 19:22:24.164789  9163 net.cpp:148] Top shape: 24 528 4 4 (202752)
I0403 19:22:24.164804  9163 net.cpp:156] Memory required for data: 1207729440
I0403 19:22:24.164819  9163 layer_factory.hpp:77] Creating layer loss2/conv
I0403 19:22:24.164841  9163 net.cpp:91] Creating Layer loss2/conv
I0403 19:22:24.164860  9163 net.cpp:425] loss2/conv <- loss2/ave_pool
I0403 19:22:24.164882  9163 net.cpp:399] loss2/conv -> loss2/conv
I0403 19:22:24.166805  9163 net.cpp:141] Setting up loss2/conv
I0403 19:22:24.166836  9163 net.cpp:148] Top shape: 24 128 4 4 (49152)
I0403 19:22:24.166853  9163 net.cpp:156] Memory required for data: 1207926048
I0403 19:22:24.166872  9163 layer_factory.hpp:77] Creating layer loss2/relu_conv
I0403 19:22:24.166890  9163 net.cpp:91] Creating Layer loss2/relu_conv
I0403 19:22:24.166906  9163 net.cpp:425] loss2/relu_conv <- loss2/conv
I0403 19:22:24.166923  9163 net.cpp:386] loss2/relu_conv -> loss2/conv (in-place)
I0403 19:22:24.167199  9163 net.cpp:141] Setting up loss2/relu_conv
I0403 19:22:24.167227  9163 net.cpp:148] Top shape: 24 128 4 4 (49152)
I0403 19:22:24.167243  9163 net.cpp:156] Memory required for data: 1208122656
I0403 19:22:24.167258  9163 layer_factory.hpp:77] Creating layer loss2/fc
I0403 19:22:24.167278  9163 net.cpp:91] Creating Layer loss2/fc
I0403 19:22:24.167294  9163 net.cpp:425] loss2/fc <- loss2/conv
I0403 19:22:24.167315  9163 net.cpp:399] loss2/fc -> loss2/fc
I0403 19:22:24.184170  9163 net.cpp:141] Setting up loss2/fc
I0403 19:22:24.184206  9163 net.cpp:148] Top shape: 24 1024 (24576)
I0403 19:22:24.184221  9163 net.cpp:156] Memory required for data: 1208220960
I0403 19:22:24.184238  9163 layer_factory.hpp:77] Creating layer loss2/relu_fc
I0403 19:22:24.184259  9163 net.cpp:91] Creating Layer loss2/relu_fc
I0403 19:22:24.184276  9163 net.cpp:425] loss2/relu_fc <- loss2/fc
I0403 19:22:24.184293  9163 net.cpp:386] loss2/relu_fc -> loss2/fc (in-place)
I0403 19:22:24.184582  9163 net.cpp:141] Setting up loss2/relu_fc
I0403 19:22:24.184608  9163 net.cpp:148] Top shape: 24 1024 (24576)
I0403 19:22:24.184624  9163 net.cpp:156] Memory required for data: 1208319264
I0403 19:22:24.184639  9163 layer_factory.hpp:77] Creating layer loss2/drop_fc
I0403 19:22:24.184659  9163 net.cpp:91] Creating Layer loss2/drop_fc
I0403 19:22:24.184675  9163 net.cpp:425] loss2/drop_fc <- loss2/fc
I0403 19:22:24.184692  9163 net.cpp:386] loss2/drop_fc -> loss2/fc (in-place)
I0403 19:22:24.184741  9163 net.cpp:141] Setting up loss2/drop_fc
I0403 19:22:24.184764  9163 net.cpp:148] Top shape: 24 1024 (24576)
I0403 19:22:24.184778  9163 net.cpp:156] Memory required for data: 1208417568
I0403 19:22:24.184793  9163 layer_factory.hpp:77] Creating layer loss2/classifier_plantvillage
I0403 19:22:24.184811  9163 net.cpp:91] Creating Layer loss2/classifier_plantvillage
I0403 19:22:24.184831  9163 net.cpp:425] loss2/classifier_plantvillage <- loss2/fc
I0403 19:22:24.184849  9163 net.cpp:399] loss2/classifier_plantvillage -> loss2/classifier_plantvillage
I0403 19:22:24.185231  9163 net.cpp:141] Setting up loss2/classifier_plantvillage
I0403 19:22:24.185256  9163 net.cpp:148] Top shape: 24 38 (912)
I0403 19:22:24.185271  9163 net.cpp:156] Memory required for data: 1208421216
I0403 19:22:24.185303  9163 layer_factory.hpp:77] Creating layer loss2/classifier_plantvillage_loss2/classifier_plantvillage_0_split
I0403 19:22:24.185322  9163 net.cpp:91] Creating Layer loss2/classifier_plantvillage_loss2/classifier_plantvillage_0_split
I0403 19:22:24.185338  9163 net.cpp:425] loss2/classifier_plantvillage_loss2/classifier_plantvillage_0_split <- loss2/classifier_plantvillage
I0403 19:22:24.185361  9163 net.cpp:399] loss2/classifier_plantvillage_loss2/classifier_plantvillage_0_split -> loss2/classifier_plantvillage_loss2/classifier_plantvillage_0_split_0
I0403 19:22:24.185382  9163 net.cpp:399] loss2/classifier_plantvillage_loss2/classifier_plantvillage_0_split -> loss2/classifier_plantvillage_loss2/classifier_plantvillage_0_split_1
I0403 19:22:24.185405  9163 net.cpp:399] loss2/classifier_plantvillage_loss2/classifier_plantvillage_0_split -> loss2/classifier_plantvillage_loss2/classifier_plantvillage_0_split_2
I0403 19:22:24.185485  9163 net.cpp:141] Setting up loss2/classifier_plantvillage_loss2/classifier_plantvillage_0_split
I0403 19:22:24.185513  9163 net.cpp:148] Top shape: 24 38 (912)
I0403 19:22:24.185529  9163 net.cpp:148] Top shape: 24 38 (912)
I0403 19:22:24.185545  9163 net.cpp:148] Top shape: 24 38 (912)
I0403 19:22:24.185559  9163 net.cpp:156] Memory required for data: 1208432160
I0403 19:22:24.185573  9163 layer_factory.hpp:77] Creating layer inception_4e/1x1
I0403 19:22:24.185595  9163 net.cpp:91] Creating Layer inception_4e/1x1
I0403 19:22:24.185612  9163 net.cpp:425] inception_4e/1x1 <- inception_4d/output_inception_4d/output_0_split_1
I0403 19:22:24.185631  9163 net.cpp:399] inception_4e/1x1 -> inception_4e/1x1
I0403 19:22:24.187393  9163 net.cpp:141] Setting up inception_4e/1x1
I0403 19:22:24.187424  9163 net.cpp:148] Top shape: 24 256 14 14 (1204224)
I0403 19:22:24.187441  9163 net.cpp:156] Memory required for data: 1213249056
I0403 19:22:24.187463  9163 layer_factory.hpp:77] Creating layer inception_4e/relu_1x1
I0403 19:22:24.187482  9163 net.cpp:91] Creating Layer inception_4e/relu_1x1
I0403 19:22:24.187500  9163 net.cpp:425] inception_4e/relu_1x1 <- inception_4e/1x1
I0403 19:22:24.187520  9163 net.cpp:386] inception_4e/relu_1x1 -> inception_4e/1x1 (in-place)
I0403 19:22:24.187803  9163 net.cpp:141] Setting up inception_4e/relu_1x1
I0403 19:22:24.187830  9163 net.cpp:148] Top shape: 24 256 14 14 (1204224)
I0403 19:22:24.187846  9163 net.cpp:156] Memory required for data: 1218065952
I0403 19:22:24.187861  9163 layer_factory.hpp:77] Creating layer inception_4e/3x3_reduce
I0403 19:22:24.187883  9163 net.cpp:91] Creating Layer inception_4e/3x3_reduce
I0403 19:22:24.187901  9163 net.cpp:425] inception_4e/3x3_reduce <- inception_4d/output_inception_4d/output_0_split_2
I0403 19:22:24.187918  9163 net.cpp:399] inception_4e/3x3_reduce -> inception_4e/3x3_reduce
I0403 19:22:24.189975  9163 net.cpp:141] Setting up inception_4e/3x3_reduce
I0403 19:22:24.190006  9163 net.cpp:148] Top shape: 24 160 14 14 (752640)
I0403 19:22:24.190022  9163 net.cpp:156] Memory required for data: 1221076512
I0403 19:22:24.190040  9163 layer_factory.hpp:77] Creating layer inception_4e/relu_3x3_reduce
I0403 19:22:24.190057  9163 net.cpp:91] Creating Layer inception_4e/relu_3x3_reduce
I0403 19:22:24.190075  9163 net.cpp:425] inception_4e/relu_3x3_reduce <- inception_4e/3x3_reduce
I0403 19:22:24.190093  9163 net.cpp:386] inception_4e/relu_3x3_reduce -> inception_4e/3x3_reduce (in-place)
I0403 19:22:24.190287  9163 net.cpp:141] Setting up inception_4e/relu_3x3_reduce
I0403 19:22:24.190312  9163 net.cpp:148] Top shape: 24 160 14 14 (752640)
I0403 19:22:24.190328  9163 net.cpp:156] Memory required for data: 1224087072
I0403 19:22:24.190343  9163 layer_factory.hpp:77] Creating layer inception_4e/3x3
I0403 19:22:24.190366  9163 net.cpp:91] Creating Layer inception_4e/3x3
I0403 19:22:24.190383  9163 net.cpp:425] inception_4e/3x3 <- inception_4e/3x3_reduce
I0403 19:22:24.190405  9163 net.cpp:399] inception_4e/3x3 -> inception_4e/3x3
I0403 19:22:24.195225  9163 net.cpp:141] Setting up inception_4e/3x3
I0403 19:22:24.195266  9163 net.cpp:148] Top shape: 24 320 14 14 (1505280)
I0403 19:22:24.195282  9163 net.cpp:156] Memory required for data: 1230108192
I0403 19:22:24.195299  9163 layer_factory.hpp:77] Creating layer inception_4e/relu_3x3
I0403 19:22:24.195317  9163 net.cpp:91] Creating Layer inception_4e/relu_3x3
I0403 19:22:24.195333  9163 net.cpp:425] inception_4e/relu_3x3 <- inception_4e/3x3
I0403 19:22:24.195353  9163 net.cpp:386] inception_4e/relu_3x3 -> inception_4e/3x3 (in-place)
I0403 19:22:24.195647  9163 net.cpp:141] Setting up inception_4e/relu_3x3
I0403 19:22:24.195674  9163 net.cpp:148] Top shape: 24 320 14 14 (1505280)
I0403 19:22:24.195688  9163 net.cpp:156] Memory required for data: 1236129312
I0403 19:22:24.195703  9163 layer_factory.hpp:77] Creating layer inception_4e/5x5_reduce
I0403 19:22:24.195724  9163 net.cpp:91] Creating Layer inception_4e/5x5_reduce
I0403 19:22:24.195742  9163 net.cpp:425] inception_4e/5x5_reduce <- inception_4d/output_inception_4d/output_0_split_3
I0403 19:22:24.195762  9163 net.cpp:399] inception_4e/5x5_reduce -> inception_4e/5x5_reduce
I0403 19:22:24.196851  9163 net.cpp:141] Setting up inception_4e/5x5_reduce
I0403 19:22:24.196880  9163 net.cpp:148] Top shape: 24 32 14 14 (150528)
I0403 19:22:24.196897  9163 net.cpp:156] Memory required for data: 1236731424
I0403 19:22:24.196914  9163 layer_factory.hpp:77] Creating layer inception_4e/relu_5x5_reduce
I0403 19:22:24.196931  9163 net.cpp:91] Creating Layer inception_4e/relu_5x5_reduce
I0403 19:22:24.196948  9163 net.cpp:425] inception_4e/relu_5x5_reduce <- inception_4e/5x5_reduce
I0403 19:22:24.196967  9163 net.cpp:386] inception_4e/relu_5x5_reduce -> inception_4e/5x5_reduce (in-place)
I0403 19:22:24.197253  9163 net.cpp:141] Setting up inception_4e/relu_5x5_reduce
I0403 19:22:24.197293  9163 net.cpp:148] Top shape: 24 32 14 14 (150528)
I0403 19:22:24.197310  9163 net.cpp:156] Memory required for data: 1237333536
I0403 19:22:24.197325  9163 layer_factory.hpp:77] Creating layer inception_4e/5x5
I0403 19:22:24.197372  9163 net.cpp:91] Creating Layer inception_4e/5x5
I0403 19:22:24.197392  9163 net.cpp:425] inception_4e/5x5 <- inception_4e/5x5_reduce
I0403 19:22:24.197412  9163 net.cpp:399] inception_4e/5x5 -> inception_4e/5x5
I0403 19:22:24.199223  9163 net.cpp:141] Setting up inception_4e/5x5
I0403 19:22:24.199249  9163 net.cpp:148] Top shape: 24 128 14 14 (602112)
I0403 19:22:24.199265  9163 net.cpp:156] Memory required for data: 1239741984
I0403 19:22:24.199283  9163 layer_factory.hpp:77] Creating layer inception_4e/relu_5x5
I0403 19:22:24.199303  9163 net.cpp:91] Creating Layer inception_4e/relu_5x5
I0403 19:22:24.199321  9163 net.cpp:425] inception_4e/relu_5x5 <- inception_4e/5x5
I0403 19:22:24.199339  9163 net.cpp:386] inception_4e/relu_5x5 -> inception_4e/5x5 (in-place)
I0403 19:22:24.199535  9163 net.cpp:141] Setting up inception_4e/relu_5x5
I0403 19:22:24.199563  9163 net.cpp:148] Top shape: 24 128 14 14 (602112)
I0403 19:22:24.199579  9163 net.cpp:156] Memory required for data: 1242150432
I0403 19:22:24.199594  9163 layer_factory.hpp:77] Creating layer inception_4e/pool
I0403 19:22:24.199611  9163 net.cpp:91] Creating Layer inception_4e/pool
I0403 19:22:24.199627  9163 net.cpp:425] inception_4e/pool <- inception_4d/output_inception_4d/output_0_split_4
I0403 19:22:24.199645  9163 net.cpp:399] inception_4e/pool -> inception_4e/pool
I0403 19:22:24.199714  9163 net.cpp:141] Setting up inception_4e/pool
I0403 19:22:24.199738  9163 net.cpp:148] Top shape: 24 528 14 14 (2483712)
I0403 19:22:24.199753  9163 net.cpp:156] Memory required for data: 1252085280
I0403 19:22:24.199769  9163 layer_factory.hpp:77] Creating layer inception_4e/pool_proj
I0403 19:22:24.199790  9163 net.cpp:91] Creating Layer inception_4e/pool_proj
I0403 19:22:24.199807  9163 net.cpp:425] inception_4e/pool_proj <- inception_4e/pool
I0403 19:22:24.199826  9163 net.cpp:399] inception_4e/pool_proj -> inception_4e/pool_proj
I0403 19:22:24.201333  9163 net.cpp:141] Setting up inception_4e/pool_proj
I0403 19:22:24.201360  9163 net.cpp:148] Top shape: 24 128 14 14 (602112)
I0403 19:22:24.201390  9163 net.cpp:156] Memory required for data: 1254493728
I0403 19:22:24.201409  9163 layer_factory.hpp:77] Creating layer inception_4e/relu_pool_proj
I0403 19:22:24.201431  9163 net.cpp:91] Creating Layer inception_4e/relu_pool_proj
I0403 19:22:24.201454  9163 net.cpp:425] inception_4e/relu_pool_proj <- inception_4e/pool_proj
I0403 19:22:24.201477  9163 net.cpp:386] inception_4e/relu_pool_proj -> inception_4e/pool_proj (in-place)
I0403 19:22:24.201767  9163 net.cpp:141] Setting up inception_4e/relu_pool_proj
I0403 19:22:24.201795  9163 net.cpp:148] Top shape: 24 128 14 14 (602112)
I0403 19:22:24.201810  9163 net.cpp:156] Memory required for data: 1256902176
I0403 19:22:24.201824  9163 layer_factory.hpp:77] Creating layer inception_4e/output
I0403 19:22:24.201840  9163 net.cpp:91] Creating Layer inception_4e/output
I0403 19:22:24.201856  9163 net.cpp:425] inception_4e/output <- inception_4e/1x1
I0403 19:22:24.201875  9163 net.cpp:425] inception_4e/output <- inception_4e/3x3
I0403 19:22:24.201894  9163 net.cpp:425] inception_4e/output <- inception_4e/5x5
I0403 19:22:24.201911  9163 net.cpp:425] inception_4e/output <- inception_4e/pool_proj
I0403 19:22:24.201927  9163 net.cpp:399] inception_4e/output -> inception_4e/output
I0403 19:22:24.201978  9163 net.cpp:141] Setting up inception_4e/output
I0403 19:22:24.202003  9163 net.cpp:148] Top shape: 24 832 14 14 (3913728)
I0403 19:22:24.202016  9163 net.cpp:156] Memory required for data: 1272557088
I0403 19:22:24.202031  9163 layer_factory.hpp:77] Creating layer pool4/3x3_s2
I0403 19:22:24.202049  9163 net.cpp:91] Creating Layer pool4/3x3_s2
I0403 19:22:24.202064  9163 net.cpp:425] pool4/3x3_s2 <- inception_4e/output
I0403 19:22:24.202085  9163 net.cpp:399] pool4/3x3_s2 -> pool4/3x3_s2
I0403 19:22:24.202150  9163 net.cpp:141] Setting up pool4/3x3_s2
I0403 19:22:24.202175  9163 net.cpp:148] Top shape: 24 832 7 7 (978432)
I0403 19:22:24.202190  9163 net.cpp:156] Memory required for data: 1276470816
I0403 19:22:24.202204  9163 layer_factory.hpp:77] Creating layer pool4/3x3_s2_pool4/3x3_s2_0_split
I0403 19:22:24.202226  9163 net.cpp:91] Creating Layer pool4/3x3_s2_pool4/3x3_s2_0_split
I0403 19:22:24.202244  9163 net.cpp:425] pool4/3x3_s2_pool4/3x3_s2_0_split <- pool4/3x3_s2
I0403 19:22:24.202261  9163 net.cpp:399] pool4/3x3_s2_pool4/3x3_s2_0_split -> pool4/3x3_s2_pool4/3x3_s2_0_split_0
I0403 19:22:24.202297  9163 net.cpp:399] pool4/3x3_s2_pool4/3x3_s2_0_split -> pool4/3x3_s2_pool4/3x3_s2_0_split_1
I0403 19:22:24.202318  9163 net.cpp:399] pool4/3x3_s2_pool4/3x3_s2_0_split -> pool4/3x3_s2_pool4/3x3_s2_0_split_2
I0403 19:22:24.202340  9163 net.cpp:399] pool4/3x3_s2_pool4/3x3_s2_0_split -> pool4/3x3_s2_pool4/3x3_s2_0_split_3
I0403 19:22:24.202441  9163 net.cpp:141] Setting up pool4/3x3_s2_pool4/3x3_s2_0_split
I0403 19:22:24.202476  9163 net.cpp:148] Top shape: 24 832 7 7 (978432)
I0403 19:22:24.202497  9163 net.cpp:148] Top shape: 24 832 7 7 (978432)
I0403 19:22:24.202513  9163 net.cpp:148] Top shape: 24 832 7 7 (978432)
I0403 19:22:24.202529  9163 net.cpp:148] Top shape: 24 832 7 7 (978432)
I0403 19:22:24.202543  9163 net.cpp:156] Memory required for data: 1292125728
I0403 19:22:24.202559  9163 layer_factory.hpp:77] Creating layer inception_5a/1x1
I0403 19:22:24.202594  9163 net.cpp:91] Creating Layer inception_5a/1x1
I0403 19:22:24.202610  9163 net.cpp:425] inception_5a/1x1 <- pool4/3x3_s2_pool4/3x3_s2_0_split_0
I0403 19:22:24.202632  9163 net.cpp:399] inception_5a/1x1 -> inception_5a/1x1
I0403 19:22:24.205466  9163 net.cpp:141] Setting up inception_5a/1x1
I0403 19:22:24.205498  9163 net.cpp:148] Top shape: 24 256 7 7 (301056)
I0403 19:22:24.205516  9163 net.cpp:156] Memory required for data: 1293329952
I0403 19:22:24.205536  9163 layer_factory.hpp:77] Creating layer inception_5a/relu_1x1
I0403 19:22:24.205554  9163 net.cpp:91] Creating Layer inception_5a/relu_1x1
I0403 19:22:24.205584  9163 net.cpp:425] inception_5a/relu_1x1 <- inception_5a/1x1
I0403 19:22:24.205600  9163 net.cpp:386] inception_5a/relu_1x1 -> inception_5a/1x1 (in-place)
I0403 19:22:24.205911  9163 net.cpp:141] Setting up inception_5a/relu_1x1
I0403 19:22:24.205940  9163 net.cpp:148] Top shape: 24 256 7 7 (301056)
I0403 19:22:24.205955  9163 net.cpp:156] Memory required for data: 1294534176
I0403 19:22:24.205971  9163 layer_factory.hpp:77] Creating layer inception_5a/3x3_reduce
I0403 19:22:24.205991  9163 net.cpp:91] Creating Layer inception_5a/3x3_reduce
I0403 19:22:24.206008  9163 net.cpp:425] inception_5a/3x3_reduce <- pool4/3x3_s2_pool4/3x3_s2_0_split_1
I0403 19:22:24.206029  9163 net.cpp:399] inception_5a/3x3_reduce -> inception_5a/3x3_reduce
I0403 19:22:24.208484  9163 net.cpp:141] Setting up inception_5a/3x3_reduce
I0403 19:22:24.208514  9163 net.cpp:148] Top shape: 24 160 7 7 (188160)
I0403 19:22:24.208531  9163 net.cpp:156] Memory required for data: 1295286816
I0403 19:22:24.208549  9163 layer_factory.hpp:77] Creating layer inception_5a/relu_3x3_reduce
I0403 19:22:24.208567  9163 net.cpp:91] Creating Layer inception_5a/relu_3x3_reduce
I0403 19:22:24.208583  9163 net.cpp:425] inception_5a/relu_3x3_reduce <- inception_5a/3x3_reduce
I0403 19:22:24.208606  9163 net.cpp:386] inception_5a/relu_3x3_reduce -> inception_5a/3x3_reduce (in-place)
I0403 19:22:24.208796  9163 net.cpp:141] Setting up inception_5a/relu_3x3_reduce
I0403 19:22:24.208822  9163 net.cpp:148] Top shape: 24 160 7 7 (188160)
I0403 19:22:24.208837  9163 net.cpp:156] Memory required for data: 1296039456
I0403 19:22:24.208850  9163 layer_factory.hpp:77] Creating layer inception_5a/3x3
I0403 19:22:24.208873  9163 net.cpp:91] Creating Layer inception_5a/3x3
I0403 19:22:24.208890  9163 net.cpp:425] inception_5a/3x3 <- inception_5a/3x3_reduce
I0403 19:22:24.208912  9163 net.cpp:399] inception_5a/3x3 -> inception_5a/3x3
I0403 19:22:24.213907  9163 net.cpp:141] Setting up inception_5a/3x3
I0403 19:22:24.213937  9163 net.cpp:148] Top shape: 24 320 7 7 (376320)
I0403 19:22:24.213953  9163 net.cpp:156] Memory required for data: 1297544736
I0403 19:22:24.213971  9163 layer_factory.hpp:77] Creating layer inception_5a/relu_3x3
I0403 19:22:24.213992  9163 net.cpp:91] Creating Layer inception_5a/relu_3x3
I0403 19:22:24.214010  9163 net.cpp:425] inception_5a/relu_3x3 <- inception_5a/3x3
I0403 19:22:24.214028  9163 net.cpp:386] inception_5a/relu_3x3 -> inception_5a/3x3 (in-place)
I0403 19:22:24.214339  9163 net.cpp:141] Setting up inception_5a/relu_3x3
I0403 19:22:24.214365  9163 net.cpp:148] Top shape: 24 320 7 7 (376320)
I0403 19:22:24.214381  9163 net.cpp:156] Memory required for data: 1299050016
I0403 19:22:24.214396  9163 layer_factory.hpp:77] Creating layer inception_5a/5x5_reduce
I0403 19:22:24.214422  9163 net.cpp:91] Creating Layer inception_5a/5x5_reduce
I0403 19:22:24.214442  9163 net.cpp:425] inception_5a/5x5_reduce <- pool4/3x3_s2_pool4/3x3_s2_0_split_2
I0403 19:22:24.214464  9163 net.cpp:399] inception_5a/5x5_reduce -> inception_5a/5x5_reduce
I0403 19:22:24.215643  9163 net.cpp:141] Setting up inception_5a/5x5_reduce
I0403 19:22:24.215674  9163 net.cpp:148] Top shape: 24 32 7 7 (37632)
I0403 19:22:24.215692  9163 net.cpp:156] Memory required for data: 1299200544
I0403 19:22:24.215710  9163 layer_factory.hpp:77] Creating layer inception_5a/relu_5x5_reduce
I0403 19:22:24.215728  9163 net.cpp:91] Creating Layer inception_5a/relu_5x5_reduce
I0403 19:22:24.215744  9163 net.cpp:425] inception_5a/relu_5x5_reduce <- inception_5a/5x5_reduce
I0403 19:22:24.215761  9163 net.cpp:386] inception_5a/relu_5x5_reduce -> inception_5a/5x5_reduce (in-place)
I0403 19:22:24.216063  9163 net.cpp:141] Setting up inception_5a/relu_5x5_reduce
I0403 19:22:24.216090  9163 net.cpp:148] Top shape: 24 32 7 7 (37632)
I0403 19:22:24.216106  9163 net.cpp:156] Memory required for data: 1299351072
I0403 19:22:24.216121  9163 layer_factory.hpp:77] Creating layer inception_5a/5x5
I0403 19:22:24.216143  9163 net.cpp:91] Creating Layer inception_5a/5x5
I0403 19:22:24.216162  9163 net.cpp:425] inception_5a/5x5 <- inception_5a/5x5_reduce
I0403 19:22:24.216181  9163 net.cpp:399] inception_5a/5x5 -> inception_5a/5x5
I0403 19:22:24.217887  9163 net.cpp:141] Setting up inception_5a/5x5
I0403 19:22:24.217927  9163 net.cpp:148] Top shape: 24 128 7 7 (150528)
I0403 19:22:24.217944  9163 net.cpp:156] Memory required for data: 1299953184
I0403 19:22:24.217962  9163 layer_factory.hpp:77] Creating layer inception_5a/relu_5x5
I0403 19:22:24.217983  9163 net.cpp:91] Creating Layer inception_5a/relu_5x5
I0403 19:22:24.217999  9163 net.cpp:425] inception_5a/relu_5x5 <- inception_5a/5x5
I0403 19:22:24.218016  9163 net.cpp:386] inception_5a/relu_5x5 -> inception_5a/5x5 (in-place)
I0403 19:22:24.218225  9163 net.cpp:141] Setting up inception_5a/relu_5x5
I0403 19:22:24.218253  9163 net.cpp:148] Top shape: 24 128 7 7 (150528)
I0403 19:22:24.218271  9163 net.cpp:156] Memory required for data: 1300555296
I0403 19:22:24.218298  9163 layer_factory.hpp:77] Creating layer inception_5a/pool
I0403 19:22:24.218317  9163 net.cpp:91] Creating Layer inception_5a/pool
I0403 19:22:24.218334  9163 net.cpp:425] inception_5a/pool <- pool4/3x3_s2_pool4/3x3_s2_0_split_3
I0403 19:22:24.218356  9163 net.cpp:399] inception_5a/pool -> inception_5a/pool
I0403 19:22:24.218441  9163 net.cpp:141] Setting up inception_5a/pool
I0403 19:22:24.218471  9163 net.cpp:148] Top shape: 24 832 7 7 (978432)
I0403 19:22:24.218487  9163 net.cpp:156] Memory required for data: 1304469024
I0403 19:22:24.218503  9163 layer_factory.hpp:77] Creating layer inception_5a/pool_proj
I0403 19:22:24.218526  9163 net.cpp:91] Creating Layer inception_5a/pool_proj
I0403 19:22:24.218545  9163 net.cpp:425] inception_5a/pool_proj <- inception_5a/pool
I0403 19:22:24.218577  9163 net.cpp:399] inception_5a/pool_proj -> inception_5a/pool_proj
I0403 19:22:24.220780  9163 net.cpp:141] Setting up inception_5a/pool_proj
I0403 19:22:24.220809  9163 net.cpp:148] Top shape: 24 128 7 7 (150528)
I0403 19:22:24.220826  9163 net.cpp:156] Memory required for data: 1305071136
I0403 19:22:24.220844  9163 layer_factory.hpp:77] Creating layer inception_5a/relu_pool_proj
I0403 19:22:24.220863  9163 net.cpp:91] Creating Layer inception_5a/relu_pool_proj
I0403 19:22:24.220881  9163 net.cpp:425] inception_5a/relu_pool_proj <- inception_5a/pool_proj
I0403 19:22:24.220898  9163 net.cpp:386] inception_5a/relu_pool_proj -> inception_5a/pool_proj (in-place)
I0403 19:22:24.221189  9163 net.cpp:141] Setting up inception_5a/relu_pool_proj
I0403 19:22:24.221215  9163 net.cpp:148] Top shape: 24 128 7 7 (150528)
I0403 19:22:24.221230  9163 net.cpp:156] Memory required for data: 1305673248
I0403 19:22:24.221245  9163 layer_factory.hpp:77] Creating layer inception_5a/output
I0403 19:22:24.221264  9163 net.cpp:91] Creating Layer inception_5a/output
I0403 19:22:24.221282  9163 net.cpp:425] inception_5a/output <- inception_5a/1x1
I0403 19:22:24.221299  9163 net.cpp:425] inception_5a/output <- inception_5a/3x3
I0403 19:22:24.221315  9163 net.cpp:425] inception_5a/output <- inception_5a/5x5
I0403 19:22:24.221330  9163 net.cpp:425] inception_5a/output <- inception_5a/pool_proj
I0403 19:22:24.221348  9163 net.cpp:399] inception_5a/output -> inception_5a/output
I0403 19:22:24.221400  9163 net.cpp:141] Setting up inception_5a/output
I0403 19:22:24.221423  9163 net.cpp:148] Top shape: 24 832 7 7 (978432)
I0403 19:22:24.221438  9163 net.cpp:156] Memory required for data: 1309586976
I0403 19:22:24.221453  9163 layer_factory.hpp:77] Creating layer inception_5a/output_inception_5a/output_0_split
I0403 19:22:24.221474  9163 net.cpp:91] Creating Layer inception_5a/output_inception_5a/output_0_split
I0403 19:22:24.221492  9163 net.cpp:425] inception_5a/output_inception_5a/output_0_split <- inception_5a/output
I0403 19:22:24.221511  9163 net.cpp:399] inception_5a/output_inception_5a/output_0_split -> inception_5a/output_inception_5a/output_0_split_0
I0403 19:22:24.221530  9163 net.cpp:399] inception_5a/output_inception_5a/output_0_split -> inception_5a/output_inception_5a/output_0_split_1
I0403 19:22:24.221552  9163 net.cpp:399] inception_5a/output_inception_5a/output_0_split -> inception_5a/output_inception_5a/output_0_split_2
I0403 19:22:24.221572  9163 net.cpp:399] inception_5a/output_inception_5a/output_0_split -> inception_5a/output_inception_5a/output_0_split_3
I0403 19:22:24.221679  9163 net.cpp:141] Setting up inception_5a/output_inception_5a/output_0_split
I0403 19:22:24.221705  9163 net.cpp:148] Top shape: 24 832 7 7 (978432)
I0403 19:22:24.221724  9163 net.cpp:148] Top shape: 24 832 7 7 (978432)
I0403 19:22:24.221740  9163 net.cpp:148] Top shape: 24 832 7 7 (978432)
I0403 19:22:24.221755  9163 net.cpp:148] Top shape: 24 832 7 7 (978432)
I0403 19:22:24.221770  9163 net.cpp:156] Memory required for data: 1325241888
I0403 19:22:24.221783  9163 layer_factory.hpp:77] Creating layer inception_5b/1x1
I0403 19:22:24.221804  9163 net.cpp:91] Creating Layer inception_5b/1x1
I0403 19:22:24.221823  9163 net.cpp:425] inception_5b/1x1 <- inception_5a/output_inception_5a/output_0_split_0
I0403 19:22:24.221843  9163 net.cpp:399] inception_5b/1x1 -> inception_5b/1x1
I0403 19:22:24.225476  9163 net.cpp:141] Setting up inception_5b/1x1
I0403 19:22:24.225505  9163 net.cpp:148] Top shape: 24 384 7 7 (451584)
I0403 19:22:24.225523  9163 net.cpp:156] Memory required for data: 1327048224
I0403 19:22:24.225541  9163 layer_factory.hpp:77] Creating layer inception_5b/relu_1x1
I0403 19:22:24.225559  9163 net.cpp:91] Creating Layer inception_5b/relu_1x1
I0403 19:22:24.225575  9163 net.cpp:425] inception_5b/relu_1x1 <- inception_5b/1x1
I0403 19:22:24.225595  9163 net.cpp:386] inception_5b/relu_1x1 -> inception_5b/1x1 (in-place)
I0403 19:22:24.225895  9163 net.cpp:141] Setting up inception_5b/relu_1x1
I0403 19:22:24.225922  9163 net.cpp:148] Top shape: 24 384 7 7 (451584)
I0403 19:22:24.225937  9163 net.cpp:156] Memory required for data: 1328854560
I0403 19:22:24.225951  9163 layer_factory.hpp:77] Creating layer inception_5b/3x3_reduce
I0403 19:22:24.225972  9163 net.cpp:91] Creating Layer inception_5b/3x3_reduce
I0403 19:22:24.225991  9163 net.cpp:425] inception_5b/3x3_reduce <- inception_5a/output_inception_5a/output_0_split_1
I0403 19:22:24.226014  9163 net.cpp:399] inception_5b/3x3_reduce -> inception_5b/3x3_reduce
I0403 19:22:24.228623  9163 net.cpp:141] Setting up inception_5b/3x3_reduce
I0403 19:22:24.228653  9163 net.cpp:148] Top shape: 24 192 7 7 (225792)
I0403 19:22:24.228672  9163 net.cpp:156] Memory required for data: 1329757728
I0403 19:22:24.228689  9163 layer_factory.hpp:77] Creating layer inception_5b/relu_3x3_reduce
I0403 19:22:24.228710  9163 net.cpp:91] Creating Layer inception_5b/relu_3x3_reduce
I0403 19:22:24.228727  9163 net.cpp:425] inception_5b/relu_3x3_reduce <- inception_5b/3x3_reduce
I0403 19:22:24.228745  9163 net.cpp:386] inception_5b/relu_3x3_reduce -> inception_5b/3x3_reduce (in-place)
I0403 19:22:24.228934  9163 net.cpp:141] Setting up inception_5b/relu_3x3_reduce
I0403 19:22:24.228957  9163 net.cpp:148] Top shape: 24 192 7 7 (225792)
I0403 19:22:24.228972  9163 net.cpp:156] Memory required for data: 1330660896
I0403 19:22:24.228986  9163 layer_factory.hpp:77] Creating layer inception_5b/3x3
I0403 19:22:24.229010  9163 net.cpp:91] Creating Layer inception_5b/3x3
I0403 19:22:24.229027  9163 net.cpp:425] inception_5b/3x3 <- inception_5b/3x3_reduce
I0403 19:22:24.229048  9163 net.cpp:399] inception_5b/3x3 -> inception_5b/3x3
I0403 19:22:24.235535  9163 net.cpp:141] Setting up inception_5b/3x3
I0403 19:22:24.235563  9163 net.cpp:148] Top shape: 24 384 7 7 (451584)
I0403 19:22:24.235579  9163 net.cpp:156] Memory required for data: 1332467232
I0403 19:22:24.235599  9163 layer_factory.hpp:77] Creating layer inception_5b/relu_3x3
I0403 19:22:24.235621  9163 net.cpp:91] Creating Layer inception_5b/relu_3x3
I0403 19:22:24.235640  9163 net.cpp:425] inception_5b/relu_3x3 <- inception_5b/3x3
I0403 19:22:24.235657  9163 net.cpp:386] inception_5b/relu_3x3 -> inception_5b/3x3 (in-place)
I0403 19:22:24.235972  9163 net.cpp:141] Setting up inception_5b/relu_3x3
I0403 19:22:24.236012  9163 net.cpp:148] Top shape: 24 384 7 7 (451584)
I0403 19:22:24.236029  9163 net.cpp:156] Memory required for data: 1334273568
I0403 19:22:24.236048  9163 layer_factory.hpp:77] Creating layer inception_5b/5x5_reduce
I0403 19:22:24.236090  9163 net.cpp:91] Creating Layer inception_5b/5x5_reduce
I0403 19:22:24.236112  9163 net.cpp:425] inception_5b/5x5_reduce <- inception_5a/output_inception_5a/output_0_split_2
I0403 19:22:24.236135  9163 net.cpp:399] inception_5b/5x5_reduce -> inception_5b/5x5_reduce
I0403 19:22:24.237437  9163 net.cpp:141] Setting up inception_5b/5x5_reduce
I0403 19:22:24.237469  9163 net.cpp:148] Top shape: 24 48 7 7 (56448)
I0403 19:22:24.237488  9163 net.cpp:156] Memory required for data: 1334499360
I0403 19:22:24.237517  9163 layer_factory.hpp:77] Creating layer inception_5b/relu_5x5_reduce
I0403 19:22:24.237540  9163 net.cpp:91] Creating Layer inception_5b/relu_5x5_reduce
I0403 19:22:24.237556  9163 net.cpp:425] inception_5b/relu_5x5_reduce <- inception_5b/5x5_reduce
I0403 19:22:24.237574  9163 net.cpp:386] inception_5b/relu_5x5_reduce -> inception_5b/5x5_reduce (in-place)
I0403 19:22:24.237941  9163 net.cpp:141] Setting up inception_5b/relu_5x5_reduce
I0403 19:22:24.237967  9163 net.cpp:148] Top shape: 24 48 7 7 (56448)
I0403 19:22:24.237982  9163 net.cpp:156] Memory required for data: 1334725152
I0403 19:22:24.237996  9163 layer_factory.hpp:77] Creating layer inception_5b/5x5
I0403 19:22:24.238016  9163 net.cpp:91] Creating Layer inception_5b/5x5
I0403 19:22:24.238034  9163 net.cpp:425] inception_5b/5x5 <- inception_5b/5x5_reduce
I0403 19:22:24.238052  9163 net.cpp:399] inception_5b/5x5 -> inception_5b/5x5
I0403 19:22:24.240025  9163 net.cpp:141] Setting up inception_5b/5x5
I0403 19:22:24.240052  9163 net.cpp:148] Top shape: 24 128 7 7 (150528)
I0403 19:22:24.240070  9163 net.cpp:156] Memory required for data: 1335327264
I0403 19:22:24.240089  9163 layer_factory.hpp:77] Creating layer inception_5b/relu_5x5
I0403 19:22:24.240108  9163 net.cpp:91] Creating Layer inception_5b/relu_5x5
I0403 19:22:24.240123  9163 net.cpp:425] inception_5b/relu_5x5 <- inception_5b/5x5
I0403 19:22:24.240140  9163 net.cpp:386] inception_5b/relu_5x5 -> inception_5b/5x5 (in-place)
I0403 19:22:24.240332  9163 net.cpp:141] Setting up inception_5b/relu_5x5
I0403 19:22:24.240360  9163 net.cpp:148] Top shape: 24 128 7 7 (150528)
I0403 19:22:24.240377  9163 net.cpp:156] Memory required for data: 1335929376
I0403 19:22:24.240393  9163 layer_factory.hpp:77] Creating layer inception_5b/pool
I0403 19:22:24.240411  9163 net.cpp:91] Creating Layer inception_5b/pool
I0403 19:22:24.240427  9163 net.cpp:425] inception_5b/pool <- inception_5a/output_inception_5a/output_0_split_3
I0403 19:22:24.240447  9163 net.cpp:399] inception_5b/pool -> inception_5b/pool
I0403 19:22:24.240522  9163 net.cpp:141] Setting up inception_5b/pool
I0403 19:22:24.240550  9163 net.cpp:148] Top shape: 24 832 7 7 (978432)
I0403 19:22:24.240566  9163 net.cpp:156] Memory required for data: 1339843104
I0403 19:22:24.240581  9163 layer_factory.hpp:77] Creating layer inception_5b/pool_proj
I0403 19:22:24.240599  9163 net.cpp:91] Creating Layer inception_5b/pool_proj
I0403 19:22:24.240617  9163 net.cpp:425] inception_5b/pool_proj <- inception_5b/pool
I0403 19:22:24.240638  9163 net.cpp:399] inception_5b/pool_proj -> inception_5b/pool_proj
I0403 19:22:24.242866  9163 net.cpp:141] Setting up inception_5b/pool_proj
I0403 19:22:24.242897  9163 net.cpp:148] Top shape: 24 128 7 7 (150528)
I0403 19:22:24.242913  9163 net.cpp:156] Memory required for data: 1340445216
I0403 19:22:24.242939  9163 layer_factory.hpp:77] Creating layer inception_5b/relu_pool_proj
I0403 19:22:24.242960  9163 net.cpp:91] Creating Layer inception_5b/relu_pool_proj
I0403 19:22:24.242977  9163 net.cpp:425] inception_5b/relu_pool_proj <- inception_5b/pool_proj
I0403 19:22:24.242995  9163 net.cpp:386] inception_5b/relu_pool_proj -> inception_5b/pool_proj (in-place)
I0403 19:22:24.243283  9163 net.cpp:141] Setting up inception_5b/relu_pool_proj
I0403 19:22:24.243309  9163 net.cpp:148] Top shape: 24 128 7 7 (150528)
I0403 19:22:24.243322  9163 net.cpp:156] Memory required for data: 1341047328
I0403 19:22:24.243337  9163 layer_factory.hpp:77] Creating layer inception_5b/output
I0403 19:22:24.243357  9163 net.cpp:91] Creating Layer inception_5b/output
I0403 19:22:24.243389  9163 net.cpp:425] inception_5b/output <- inception_5b/1x1
I0403 19:22:24.243407  9163 net.cpp:425] inception_5b/output <- inception_5b/3x3
I0403 19:22:24.243422  9163 net.cpp:425] inception_5b/output <- inception_5b/5x5
I0403 19:22:24.243445  9163 net.cpp:425] inception_5b/output <- inception_5b/pool_proj
I0403 19:22:24.243466  9163 net.cpp:399] inception_5b/output -> inception_5b/output
I0403 19:22:24.243520  9163 net.cpp:141] Setting up inception_5b/output
I0403 19:22:24.243543  9163 net.cpp:148] Top shape: 24 1024 7 7 (1204224)
I0403 19:22:24.243558  9163 net.cpp:156] Memory required for data: 1345864224
I0403 19:22:24.243572  9163 layer_factory.hpp:77] Creating layer pool5/7x7_s1
I0403 19:22:24.243589  9163 net.cpp:91] Creating Layer pool5/7x7_s1
I0403 19:22:24.243604  9163 net.cpp:425] pool5/7x7_s1 <- inception_5b/output
I0403 19:22:24.243624  9163 net.cpp:399] pool5/7x7_s1 -> pool5/7x7_s1
I0403 19:22:24.243834  9163 net.cpp:141] Setting up pool5/7x7_s1
I0403 19:22:24.243860  9163 net.cpp:148] Top shape: 24 1024 1 1 (24576)
I0403 19:22:24.243875  9163 net.cpp:156] Memory required for data: 1345962528
I0403 19:22:24.243891  9163 layer_factory.hpp:77] Creating layer pool5/drop_7x7_s1
I0403 19:22:24.243911  9163 net.cpp:91] Creating Layer pool5/drop_7x7_s1
I0403 19:22:24.243927  9163 net.cpp:425] pool5/drop_7x7_s1 <- pool5/7x7_s1
I0403 19:22:24.243944  9163 net.cpp:386] pool5/drop_7x7_s1 -> pool5/7x7_s1 (in-place)
I0403 19:22:24.243995  9163 net.cpp:141] Setting up pool5/drop_7x7_s1
I0403 19:22:24.244019  9163 net.cpp:148] Top shape: 24 1024 1 1 (24576)
I0403 19:22:24.244032  9163 net.cpp:156] Memory required for data: 1346060832
I0403 19:22:24.244046  9163 layer_factory.hpp:77] Creating layer loss3/classifier_plantvillage
I0403 19:22:24.244065  9163 net.cpp:91] Creating Layer loss3/classifier_plantvillage
I0403 19:22:24.244081  9163 net.cpp:425] loss3/classifier_plantvillage <- pool5/7x7_s1
I0403 19:22:24.244102  9163 net.cpp:399] loss3/classifier_plantvillage -> loss3/classifier_plantvillage
I0403 19:22:24.244549  9163 net.cpp:141] Setting up loss3/classifier_plantvillage
I0403 19:22:24.244575  9163 net.cpp:148] Top shape: 24 38 (912)
I0403 19:22:24.244590  9163 net.cpp:156] Memory required for data: 1346064480
I0403 19:22:24.244609  9163 layer_factory.hpp:77] Creating layer loss3/classifier_plantvillage_loss3/classifier_plantvillage_0_split
I0403 19:22:24.244627  9163 net.cpp:91] Creating Layer loss3/classifier_plantvillage_loss3/classifier_plantvillage_0_split
I0403 19:22:24.244645  9163 net.cpp:425] loss3/classifier_plantvillage_loss3/classifier_plantvillage_0_split <- loss3/classifier_plantvillage
I0403 19:22:24.244666  9163 net.cpp:399] loss3/classifier_plantvillage_loss3/classifier_plantvillage_0_split -> loss3/classifier_plantvillage_loss3/classifier_plantvillage_0_split_0
I0403 19:22:24.244688  9163 net.cpp:399] loss3/classifier_plantvillage_loss3/classifier_plantvillage_0_split -> loss3/classifier_plantvillage_loss3/classifier_plantvillage_0_split_1
I0403 19:22:24.244707  9163 net.cpp:399] loss3/classifier_plantvillage_loss3/classifier_plantvillage_0_split -> loss3/classifier_plantvillage_loss3/classifier_plantvillage_0_split_2
I0403 19:22:24.244729  9163 net.cpp:399] loss3/classifier_plantvillage_loss3/classifier_plantvillage_0_split -> loss3/classifier_plantvillage_loss3/classifier_plantvillage_0_split_3
I0403 19:22:24.244845  9163 net.cpp:141] Setting up loss3/classifier_plantvillage_loss3/classifier_plantvillage_0_split
I0403 19:22:24.244871  9163 net.cpp:148] Top shape: 24 38 (912)
I0403 19:22:24.244890  9163 net.cpp:148] Top shape: 24 38 (912)
I0403 19:22:24.244906  9163 net.cpp:148] Top shape: 24 38 (912)
I0403 19:22:24.244921  9163 net.cpp:148] Top shape: 24 38 (912)
I0403 19:22:24.244936  9163 net.cpp:156] Memory required for data: 1346079072
I0403 19:22:24.244951  9163 layer_factory.hpp:77] Creating layer loss1/loss
I0403 19:22:24.244973  9163 net.cpp:91] Creating Layer loss1/loss
I0403 19:22:24.244992  9163 net.cpp:425] loss1/loss <- loss1/classifier_plantvillage_loss1/classifier_plantvillage_0_split_0
I0403 19:22:24.245023  9163 net.cpp:425] loss1/loss <- label_data_1_split_0
…
