…
I0403 19:46:11.575039  9650 net.cpp:313] The NetState phase (1) differed from the phase (0) specified by a rule in layer data
I0403 19:46:11.576472  9650 net.cpp:49] Initializing net from parameters: 
state {
  phase: TEST
}
layer {
  name: "data"
  type: "Data"
  top: "data"
  top: "label"
  include {
    phase: TEST
  }
  transform_param {
    mirror: false
    crop_size: 224
    mean_file: "/home/mohanty/data/final_dataset/lmdb/color-60-40/mean.binaryproto"
  }
  data_param {
    source: "/home/mohanty/data/final_dataset/lmdb/color-60-40/test_db"
    batch_size: 24
    backend: LMDB
  }
}
layer {
  name: "conv1/7x7_s2"
  type: "Convolution"
  bottom: "data"
  top: "conv1/7x7_s2"
  param {
    lr_mult: 1
    decay_mult: 1
  }
  param {
    lr_mult: 2
    decay_mult: 0
  }
  convolution_param {
    num_output: 64
    pad: 3
    kernel_size: 7
    stride: 2
    weight_filler {
      type: "xavier"
      std: 0.1
    }
    bias_filler {
      type: "constant"
      value: 0.2
    }
  }
}
layer {
  name: "conv1/relu_7x7"
  type: "ReLU"
  bottom: "conv1/7x7_s2"
  top: "conv1/7x7_s2"
}
layer {
  name: "pool1/3x3_s2"
  type: "Pooling"
  bottom: "conv1/7x7_s2"
  top: "pool1/3x3_s2"
  pooling_param {
    pool: MAX
    kernel_size: 3
    stride: 2
  }
}
layer {
  name: "pool1/norm1"
  type: "LRN"
  bottom: "pool1/3x3_s2"
  top: "pool1/norm1"
  lrn_param {
    local_size: 5
    alpha: 0.0001
    beta: 0.75
  }
}
layer {
  name: "conv2/3x3_reduce"
  type: "Convolution"
  bottom: "pool1/norm1"
  top: "conv2/3x3_reduce"
  param {
    lr_mult: 1
    decay_mult: 1
  }
  param {
    lr_mult: 2
    decay_mult: 0
  }
  convolution_param {
    num_output: 64
    kernel_size: 1
    weight_filler {
      type: "xavier"
      std: 0.1
    }
    bias_filler {
      type: "constant"
      value: 0.2
    }
  }
}
layer {
  name: "conv2/relu_3x3_reduce"
  type: "ReLU"
  bottom: "conv2/3x3_reduce"
  top: "conv2/3x3_reduce"
}
layer {
  name: "conv2/3x3"
  type: "Convolution"
  bottom: "conv2/3x3_reduce"
  top: "conv2/3x3"
  param {
    lr_mult: 1
    decay_mult: 1
  }
  param {
    lr_mult: 2
    decay_mult: 0
  }
  convolution_param {
    num_output: 192
    pad: 1
    kernel_size: 3
    weight_filler {
      type: "xavier"
      std: 0.03
    }
    bias_filler {
      type: "constant"
      value: 0.2
    }
  }
}
layer {
  name: "conv2/relu_3x3"
  type: "ReLU"
  bottom: "conv2/3x3"
  top: "conv2/3x3"
}
layer {
  name: "conv2/norm2"
  type: "LRN"
  bottom: "conv2/3x3"
  top: "conv2/norm2"
  lrn_param {
    local_size: 5
    alpha: 0.0001
    beta: 0.75
  }
}
layer {
  name: "pool2/3x3_s2"
  type: "Pooling"
  bottom: "conv2/norm2"
  top: "pool2/3x3_s2"
  pooling_param {
    pool: MAX
    kernel_size: 3
    stride: 2
  }
}
layer {
  name: "inception_3a/1x1"
  type: "Convolution"
  bottom: "pool2/3x3_s2"
  top: "inception_3a/1x1"
  param {
    lr_mult: 1
    decay_mult: 1
  }
  param {
    lr_mult: 2
    decay_mult: 0
  }
  convolution_param {
    num_output: 64
    kernel_size: 1
    weight_filler {
      type: "xavier"
      std: 0.03
    }
    bias_filler {
      type: "constant"
      value: 0.2
    }
  }
}
layer {
  name: "inception_3a/relu_1x1"
  type: "ReLU"
  bottom: "inception_3a/1x1"
  top: "inception_3a/1x1"
}
layer {
  name: "inception_3a/3x3_reduce"
  type: "Convolution"
  bottom: "pool2/3x3_s2"
  top: "inception_3a/3x3_reduce"
  param {
    lr_mult: 1
    decay_mult: 1
  }
  param {
    lr_mult: 2
    decay_mult: 0
  }
  convolution_param {
    num_output: 96
    kernel_size: 1
    weight_filler {
      type: "xavier"
      std: 0.09
    }
    bias_filler {
      type: "constant"
      value: 0.2
    }
  }
}
layer {
  name: "inception_3a/relu_3x3_reduce"
  type: "ReLU"
  bottom: "inception_3a/3x3_reduce"
  top: "inception_3a/3x3_reduce"
}
layer {
  name: "inception_3a/3x3"
  type: "Convolution"
  bottom: "inception_3a/3x3_reduce"
  top: "inception_3a/3x3"
  param {
    lr_mult: 1
    decay_mult: 1
  }
  param {
    lr_mult: 2
    decay_mult: 0
  }
  convolution_param {
    num_output: 128
    pad: 1
    kernel_size: 3
    weight_filler {
      type: "xavier"
      std: 0.03
    }
    bias_filler {
      type: "constant"
      value: 0.2
    }
  }
}
layer {
  name: "inception_3a/relu_3x3"
  type: "ReLU"
  bottom: "inception_3a/3x3"
  top: "inception_3a/3x3"
}
layer {
  name: "inception_3a/5x5_reduce"
  type: "Convolution"
  bottom: "pool2/3x3_s2"
  top: "inception_3a/5x5_reduce"
  param {
    lr_mult: 1
    decay_mult: 1
  }
  param {
    lr_mult: 2
    decay_mult: 0
  }
  convolution_param {
    num_output: 16
    kernel_size: 1
    weight_filler {
      type: "xavier"
      std: 0.2
    }
    bias_filler {
      type: "constant"
      value: 0.2
    }
  }
}
layer {
  name: "inception_3a/relu_5x5_reduce"
  type: "ReLU"
  bottom: "inception_3a/5x5_reduce"
  top: "inception_3a/5x5_reduce"
}
layer {
  name: "inception_3a/5x5"
  type: "Convolution"
  bottom: "inception_3a/5x5_reduce"
  top: "inception_3a/5x5"
  param {
    lr_mult: 1
    decay_mult: 1
  }
  param {
    lr_mult: 2
    decay_mult: 0
  }
  convolution_param {
    num_output: 32
    pad: 2
    kernel_size: 5
    weight_filler {
      type: "xavier"
      std: 0.03
    }
    bias_filler {
      type: "constant"
      value: 0.2
    }
  }
}
layer {
  name: "inception_3a/relu_5x5"
  type: "ReLU"
  bottom: "inception_3a/5x5"
  top: "inception_3a/5x5"
}
layer {
  name: "inception_3a/pool"
  type: "Pooling"
  bottom: "pool2/3x3_s2"
  top: "inception_3a/pool"
  pooling_param {
    pool: MAX
    kernel_size: 3
    stride: 1
    pad: 1
  }
}
layer {
  name: "inception_3a/pool_proj"
  type: "Convolution"
  bottom: "inception_3a/pool"
  top: "inception_3a/pool_proj"
  param {
    lr_mult: 1
    decay_mult: 1
  }
  param {
    lr_mult: 2
    decay_mult: 0
  }
  convolution_param {
    num_output: 32
    kernel_size: 1
    weight_filler {
      type: "xavier"
      std: 0.1
    }
    bias_filler {
      type: "constant"
      value: 0.2
    }
  }
}
layer {
  name: "inception_3a/relu_pool_proj"
  type: "ReLU"
  bottom: "inception_3a/pool_proj"
  top: "inception_3a/pool_proj"
}
layer {
  name: "inception_3a/output"
  type: "Concat"
  bottom: "inception_3a/1x1"
  bottom: "inception_3a/3x3"
  bottom: "inception_3a/5x5"
  bottom: "inception_3a/pool_proj"
  top: "inception_3a/output"
}
layer {
  name: "inception_3b/1x1"
  type: "Convolution"
  bottom: "inception_3a/output"
  top: "inception_3b/1x1"
  param {
    lr_mult: 1
    decay_mult: 1
  }
  param {
    lr_mult: 2
    decay_mult: 0
  }
  convolution_param {
    num_output: 128
    kernel_size: 1
    weight_filler {
      type: "xavier"
      std: 0.03
    }
    bias_filler {
      type: "constant"
      value: 0.2
    }
  }
}
layer {
  name: "inception_3b/relu_1x1"
  type: "ReLU"
  bottom: "inception_3b/1x1"
  top: "inception_3b/1x1"
}
layer {
  name: "inception_3b/3x3_reduce"
  type: "Convolution"
  bottom: "inception_3a/output"
  top: "inception_3b/3x3_reduce"
  param {
    lr_mult: 1
    decay_mult: 1
  }
  param {
    lr_mult: 2
    decay_mult: 0
  }
  convolution_param {
    num_output: 128
    kernel_size: 1
    weight_filler {
      type: "xavier"
      std: 0.09
    }
    bias_filler {
      type: "constant"
      value: 0.2
    }
  }
}
layer {
  name: "inception_3b/relu_3x3_reduce"
  type: "ReLU"
  bottom: "inception_3b/3x3_reduce"
  top: "inception_3b/3x3_reduce"
}
layer {
  name: "inception_3b/3x3"
  type: "Convolution"
  bottom: "inception_3b/3x3_reduce"
  top: "inception_3b/3x3"
  param {
    lr_mult: 1
    decay_mult: 1
  }
  param {
    lr_mult: 2
    decay_mult: 0
  }
  convolution_param {
    num_output: 192
    pad: 1
    kernel_size: 3
    weight_filler {
      type: "xavier"
      std: 0.03
    }
    bias_filler {
      type: "constant"
      value: 0.2
    }
  }
}
layer {
  name: "inception_3b/relu_3x3"
  type: "ReLU"
  bottom: "inception_3b/3x3"
  top: "inception_3b/3x3"
}
layer {
  name: "inception_3b/5x5_reduce"
  type: "Convolution"
  bottom: "inception_3a/output"
  top: "inception_3b/5x5_reduce"
  param {
    lr_mult: 1
    decay_mult: 1
  }
  param {
    lr_mult: 2
    decay_mult: 0
  }
  convolution_param {
    num_output: 32
    kernel_size: 1
    weight_filler {
      type: "xavier"
      std: 0.2
    }
    bias_filler {
      type: "constant"
      value: 0.2
    }
  }
}
layer {
  name: "inception_3b/relu_5x5_reduce"
  type: "ReLU"
  bottom: "inception_3b/5x5_reduce"
  top: "inception_3b/5x5_reduce"
}
layer {
  name: "inception_3b/5x5"
  type: "Convolution"
  bottom: "inception_3b/5x5_reduce"
  top: "inception_3b/5x5"
  param {
    lr_mult: 1
    decay_mult: 1
  }
  param {
    lr_mult: 2
    decay_mult: 0
  }
  convolution_param {
    num_output: 96
    pad: 2
    kernel_size: 5
    weight_filler {
      type: "xavier"
      std: 0.03
    }
    bias_filler {
      type: "constant"
      value: 0.2
    }
  }
}
layer {
  name: "inception_3b/relu_5x5"
  type: "ReLU"
  bottom: "inception_3b/5x5"
  top: "inception_3b/5x5"
}
layer {
  name: "inception_3b/pool"
  type: "Pooling"
  bottom: "inception_3a/output"
  top: "inception_3b/pool"
  pooling_param {
    pool: MAX
    kernel_size: 3
    stride: 1
    pad: 1
  }
}
layer {
  name: "inception_3b/pool_proj"
  type: "Convolution"
  bottom: "inception_3b/pool"
  top: "inception_3b/pool_proj"
  param {
    lr_mult: 1
    decay_mult: 1
  }
  param {
    lr_mult: 2
    decay_mult: 0
  }
  convolution_param {
    num_output: 64
    kernel_size: 1
    weight_filler {
      type: "xavier"
      std: 0.1
    }
    bias_filler {
      type: "constant"
      value: 0.2
    }
  }
}
layer {
  name: "inception_3b/relu_pool_proj"
  type: "ReLU"
  bottom: "inception_3b/pool_proj"
  top: "inception_3b/pool_proj"
}
layer {
  name: "inception_3b/output"
  type: "Concat"
  bottom: "inception_3b/1x1"
  bottom: "inception_3b/3x3"
  bottom: "inception_3b/5x5"
  bottom: "inception_3b/pool_proj"
  top: "inception_3b/output"
}
layer {
  name: "pool3/3x3_s2"
  type: "Pooling"
  bottom: "inception_3b/output"
  top: "pool3/3x3_s2"
  pooling_param {
    pool: MAX
    kernel_size: 3
    stride: 2
  }
}
layer {
  name: "inception_4a/1x1"
  type: "Convolution"
  bottom: "pool3/3x3_s2"
  top: "inception_4a/1x1"
  param {
    lr_mult: 1
    decay_mult: 1
  }
  param {
    lr_mult: 2
    decay_mult: 0
  }
  convolution_param {
    num_output: 192
    kernel_size: 1
    weight_filler {
      type: "xavier"
      std: 0.03
    }
    bias_filler {
      type: "constant"
      value: 0.2
    }
  }
}
layer {
  name: "inception_4a/relu_1x1"
  type: "ReLU"
  bottom: "inception_4a/1x1"
  top: "inception_4a/1x1"
}
layer {
  name: "inception_4a/3x3_reduce"
  type: "Convolution"
  bottom: "pool3/3x3_s2"
  top: "inception_4a/3x3_reduce"
  param {
    lr_mult: 1
    decay_mult: 1
  }
  param {
    lr_mult: 2
    decay_mult: 0
  }
  convolution_param {
    num_output: 96
    kernel_size: 1
    weight_filler {
      type: "xavier"
      std: 0.09
    }
    bias_filler {
      type: "constant"
      value: 0.2
    }
  }
}
layer {
  name: "inception_4a/relu_3x3_reduce"
  type: "ReLU"
  bottom: "inception_4a/3x3_reduce"
  top: "inception_4a/3x3_reduce"
}
layer {
  name: "inception_4a/3x3"
  type: "Convolution"
  bottom: "inception_4a/3x3_reduce"
  top: "inception_4a/3x3"
  param {
    lr_mult: 1
    decay_mult: 1
  }
  param {
    lr_mult: 2
    decay_mult: 0
  }
  convolution_param {
    num_output: 208
    pad: 1
    kernel_size: 3
    weight_filler {
      type: "xavier"
      std: 0.03
    }
    bias_filler {
      type: "constant"
      value: 0.2
    }
  }
}
layer {
  name: "inception_4a/relu_3x3"
  type: "ReLU"
  bottom: "inception_4a/3x3"
  top: "inception_4a/3x3"
}
layer {
  name: "inception_4a/5x5_reduce"
  type: "Convolution"
  bottom: "pool3/3x3_s2"
  top: "inception_4a/5x5_reduce"
  param {
    lr_mult: 1
    decay_mult: 1
  }
  param {
    lr_mult: 2
    decay_mult: 0
  }
  convolution_param {
    num_output: 16
    kernel_size: 1
    weight_filler {
      type: "xavier"
      std: 0.2
    }
    bias_filler {
      type: "constant"
      value: 0.2
    }
  }
}
layer {
  name: "inception_4a/relu_5x5_reduce"
  type: "ReLU"
  bottom: "inception_4a/5x5_reduce"
  top: "inception_4a/5x5_reduce"
}
layer {
  name: "inception_4a/5x5"
  type: "Convolution"
  bottom: "inception_4a/5x5_reduce"
  top: "inception_4a/5x5"
  param {
    lr_mult: 1
    decay_mult: 1
  }
  param {
    lr_mult: 2
    decay_mult: 0
  }
  convolution_param {
    num_output: 48
    pad: 2
    kernel_size: 5
    weight_filler {
      type: "xavier"
      std: 0.03
    }
    bias_filler {
      type: "constant"
      value: 0.2
    }
  }
}
layer {
  name: "inception_4a/relu_5x5"
  type: "ReLU"
  bottom: "inception_4a/5x5"
  top: "inception_4a/5x5"
}
layer {
  name: "inception_4a/pool"
  type: "Pooling"
  bottom: "pool3/3x3_s2"
  top: "inception_4a/pool"
  pooling_param {
    pool: MAX
    kernel_size: 3
    stride: 1
    pad: 1
  }
}
layer {
  name: "inception_4a/pool_proj"
  type: "Convolution"
  bottom: "inception_4a/pool"
  top: "inception_4a/pool_proj"
  param {
    lr_mult: 1
    decay_mult: 1
  }
  param {
    lr_mult: 2
    decay_mult: 0
  }
  convolution_param {
    num_output: 64
    kernel_size: 1
    weight_filler {
      type: "xavier"
      std: 0.1
    }
    bias_filler {
      type: "constant"
      value: 0.2
    }
  }
}
layer {
  name: "inception_4a/relu_pool_proj"
  type: "ReLU"
  bottom: "inception_4a/pool_proj"
  top: "inception_4a/pool_proj"
}
layer {
  name: "inception_4a/output"
  type: "Concat"
  bottom: "inception_4a/1x1"
  bottom: "inception_4a/3x3"
  bottom: "inception_4a/5x5"
  bottom: "inception_4a/pool_proj"
  top: "inception_4a/output"
}
layer {
  name: "loss1/ave_pool"
  type: "Pooling"
  bottom: "inception_4a/output"
  top: "loss1/ave_pool"
  pooling_param {
    pool: AVE
    kernel_size: 5
    stride: 3
  }
}
layer {
  name: "loss1/conv"
  type: "Convolution"
  bottom: "loss1/ave_pool"
  top: "loss1/conv"
  param {
    lr_mult: 1
    decay_mult: 1
  }
  param {
    lr_mult: 2
    decay_mult: 0
  }
  convolution_param {
    num_output: 128
    kernel_size: 1
    weight_filler {
      type: "xavier"
      std: 0.08
    }
    bias_filler {
      type: "constant"
      value: 0.2
    }
  }
}
layer {
  name: "loss1/relu_conv"
  type: "ReLU"
  bottom: "loss1/conv"
  top: "loss1/conv"
}
layer {
  name: "loss1/fc"
  type: "InnerProduct"
  bottom: "loss1/conv"
  top: "loss1/fc"
  param {
    lr_mult: 1
    decay_mult: 1
  }
  param {
    lr_mult: 2
    decay_mult: 0
  }
  inner_product_param {
    num_output: 1024
    weight_filler {
      type: "xavier"
      std: 0.02
    }
    bias_filler {
      type: "constant"
      value: 0.2
    }
  }
}
layer {
  name: "loss1/relu_fc"
  type: "ReLU"
  bottom: "loss1/fc"
  top: "loss1/fc"
}
layer {
  name: "loss1/drop_fc"
  type: "Dropout"
  bottom: "loss1/fc"
  top: "loss1/fc"
  dropout_param {
    dropout_ratio: 0.7
  }
}
layer {
  name: "loss1/classifier_plantvillage"
  type: "InnerProduct"
  bottom: "loss1/fc"
  top: "loss1/classifier_plantvillage"
  param {
    lr_mult: 1
    decay_mult: 1
  }
  param {
    lr_mult: 2
    decay_mult: 0
  }
  inner_product_param {
    num_output: 38
    weight_filler {
      type: "xavier"
      std: 0.0009765625
    }
    bias_filler {
      type: "constant"
      value: 0
    }
  }
}
layer {
  name: "inception_4b/1x1"
  type: "Convolution"
  bottom: "inception_4a/output"
  top: "inception_4b/1x1"
  param {
    lr_mult: 1
    decay_mult: 1
  }
  param {
    lr_mult: 2
    decay_mult: 0
  }
  convolution_param {
    num_output: 160
    kernel_size: 1
    weight_filler {
      type: "xavier"
      std: 0.03
    }
    bias_filler {
      type: "constant"
      value: 0.2
    }
  }
}
layer {
  name: "inception_4b/relu_1x1"
  type: "ReLU"
  bottom: "inception_4b/1x1"
  top: "inception_4b/1x1"
}
layer {
  name: "inception_4b/3x3_reduce"
  type: "Convolution"
  bottom: "inception_4a/output"
  top: "inception_4b/3x3_reduce"
  param {
    lr_mult: 1
    decay_mult: 1
  }
  param {
    lr_mult: 2
    decay_mult: 0
  }
  convolution_param {
    num_output: 112
    kernel_size: 1
    weight_filler {
      type: "xavier"
      std: 0.09
    }
    bias_filler {
      type: "constant"
      value: 0.2
    }
  }
}
layer {
  name: "inception_4b/relu_3x3_reduce"
  type: "ReLU"
  bottom: "inception_4b/3x3_reduce"
  top: "inception_4b/3x3_reduce"
}
layer {
  name: "inception_4b/3x3"
  type: "Convolution"
  bottom: "inception_4b/3x3_reduce"
  top: "inception_4b/3x3"
  param {
    lr_mult: 1
    decay_mult: 1
  }
  param {
    lr_mult: 2
    decay_mult: 0
  }
  convolution_param {
    num_output: 224
    pad: 1
    kernel_size: 3
    weight_filler {
      type: "xavier"
      std: 0.03
    }
    bias_filler {
      type: "constant"
      value: 0.2
    }
  }
}
layer {
  name: "inception_4b/relu_3x3"
  type: "ReLU"
  bottom: "inception_4b/3x3"
  top: "inception_4b/3x3"
}
layer {
  name: "inception_4b/5x5_reduce"
  type: "Convolution"
  bottom: "inception_4a/output"
  top: "inception_4b/5x5_reduce"
  param {
    lr_mult: 1
    decay_mult: 1
  }
  param {
    lr_mult: 2
    decay_mult: 0
  }
  convolution_param {
    num_output: 24
    kernel_size: 1
    weight_filler {
      type: "xavier"
      std: 0.2
    }
    bias_filler {
      type: "constant"
      value: 0.2
    }
  }
}
layer {
  name: "inception_4b/relu_5x5_reduce"
  type: "ReLU"
  bottom: "inception_4b/5x5_reduce"
  top: "inception_4b/5x5_reduce"
}
layer {
  name: "inception_4b/5x5"
  type: "Convolution"
  bottom: "inception_4b/5x5_reduce"
  top: "inception_4b/5x5"
  param {
    lr_mult: 1
    decay_mult: 1
  }
  param {
    lr_mult: 2
    decay_mult: 0
  }
  convolution_param {
    num_output: 64
    pad: 2
    kernel_size: 5
    weight_filler {
      type: "xavier"
      std: 0.03
    }
    bias_filler {
      type: "constant"
      value: 0.2
    }
  }
}
layer {
  name: "inception_4b/relu_5x5"
  type: "ReLU"
  bottom: "inception_4b/5x5"
  top: "inception_4b/5x5"
}
layer {
  name: "inception_4b/pool"
  type: "Pooling"
  bottom: "inception_4a/output"
  top: "inception_4b/pool"
  pooling_param {
    pool: MAX
    kernel_size: 3
    stride: 1
    pad: 1
  }
}
layer {
  name: "inception_4b/pool_proj"
  type: "Convolution"
  bottom: "inception_4b/pool"
  top: "inception_4b/pool_proj"
  param {
    lr_mult: 1
    decay_mult: 1
  }
  param {
    lr_mult: 2
    decay_mult: 0
  }
  convolution_param {
    num_output: 64
    kernel_size: 1
    weight_filler {
      type: "xavier"
      std: 0.1
    }
    bias_filler {
      type: "constant"
      value: 0.2
    }
  }
}
layer {
  name: "inception_4b/relu_pool_proj"
  type: "ReLU"
  bottom: "inception_4b/pool_proj"
  top: "inception_4b/pool_proj"
}
layer {
  name: "inception_4b/output"
  type: "Concat"
  bottom: "inception_4b/1x1"
  bottom: "inception_4b/3x3"
  bottom: "inception_4b/5x5"
  bottom: "inception_4b/pool_proj"
  top: "inception_4b/output"
}
layer {
  name: "inception_4c/1x1"
  type: "Convolution"
  bottom: "inception_4b/output"
  top: "inception_4c/1x1"
  param {
    lr_mult: 1
    decay_mult: 1
  }
  param {
    lr_mult: 2
    decay_mult: 0
  }
  convolution_param {
    num_output: 128
    kernel_size: 1
    weight_filler {
      type: "xavier"
      std: 0.03
    }
    bias_filler {
      type: "constant"
      value: 0.2
    }
  }
}
layer {
  name: "inception_4c/relu_1x1"
  type: "ReLU"
  bottom: "inception_4c/1x1"
  top: "inception_4c/1x1"
}
layer {
  name: "inception_4c/3x3_reduce"
  type: "Convolution"
  bottom: "inception_4b/output"
  top: "inception_4c/3x3_reduce"
  param {
    lr_mult: 1
    decay_mult: 1
  }
  param {
    lr_mult: 2
    decay_mult: 0
  }
  convolution_param {
    num_output: 128
    kernel_size: 1
    weight_filler {
      type: "xavier"
      std: 0.09
    }
    bias_filler {
      type: "constant"
      value: 0.2
    }
  }
}
layer {
  name: "inception_4c/relu_3x3_reduce"
  type: "ReLU"
  bottom: "inception_4c/3x3_reduce"
  top: "inception_4c/3x3_reduce"
}
layer {
  name: "inception_4c/3x3"
  type: "Convolution"
  bottom: "inception_4c/3x3_reduce"
  top: "inception_4c/3x3"
  param {
    lr_mult: 1
    decay_mult: 1
  }
  param {
    lr_mult: 2
    decay_mult: 0
  }
  convolution_param {
    num_output: 256
    pad: 1
    kernel_size: 3
    weight_filler {
      type: "xavier"
      std: 0.03
    }
    bias_filler {
      type: "constant"
      value: 0.2
    }
  }
}
layer {
  name: "inception_4c/relu_3x3"
  type: "ReLU"
  bottom: "inception_4c/3x3"
  top: "inception_4c/3x3"
}
layer {
  name: "inception_4c/5x5_reduce"
  type: "Convolution"
  bottom: "inception_4b/output"
  top: "inception_4c/5x5_reduce"
  param {
    lr_mult: 1
    decay_mult: 1
  }
  param {
    lr_mult: 2
    decay_mult: 0
  }
  convolution_param {
    num_output: 24
    kernel_size: 1
    weight_filler {
      type: "xavier"
      std: 0.2
    }
    bias_filler {
      type: "constant"
      value: 0.2
    }
  }
}
layer {
  name: "inception_4c/relu_5x5_reduce"
  type: "ReLU"
  bottom: "inception_4c/5x5_reduce"
  top: "inception_4c/5x5_reduce"
}
layer {
  name: "inception_4c/5x5"
  type: "Convolution"
  bottom: "inception_4c/5x5_reduce"
  top: "inception_4c/5x5"
  param {
    lr_mult: 1
    decay_mult: 1
  }
  param {
    lr_mult: 2
    decay_mult: 0
  }
  convolution_param {
    num_output: 64
    pad: 2
    kernel_size: 5
    weight_filler {
      type: "xavier"
      std: 0.03
    }
    bias_filler {
      type: "constant"
      value: 0.2
    }
  }
}
layer {
  name: "inception_4c/relu_5x5"
  type: "ReLU"
  bottom: "inception_4c/5x5"
  top: "inception_4c/5x5"
}
layer {
  name: "inception_4c/pool"
  type: "Pooling"
  bottom: "inception_4b/output"
  top: "inception_4c/pool"
  pooling_param {
    pool: MAX
    kernel_size: 3
    stride: 1
    pad: 1
  }
}
layer {
  name: "inception_4c/pool_proj"
  type: "Convolution"
  bottom: "inception_4c/pool"
  top: "inception_4c/pool_proj"
  param {
    lr_mult: 1
    decay_mult: 1
  }
  param {
    lr_mult: 2
    decay_mult: 0
  }
  convolution_param {
    num_output: 64
    kernel_size: 1
    weight_filler {
      type: "xavier"
      std: 0.1
    }
    bias_filler {
      type: "constant"
      value: 0.2
    }
  }
}
layer {
  name: "inception_4c/relu_pool_proj"
  type: "ReLU"
  bottom: "inception_4c/pool_proj"
  top: "inception_4c/pool_proj"
}
layer {
  name: "inception_4c/output"
  type: "Concat"
  bottom: "inception_4c/1x1"
  bottom: "inception_4c/3x3"
  bottom: "inception_4c/5x5"
  bottom: "inception_4c/pool_proj"
  top: "inception_4c/output"
}
layer {
  name: "inception_4d/1x1"
  type: "Convolution"
  bottom: "inception_4c/output"
  top: "inception_4d/1x1"
  param {
    lr_mult: 1
    decay_mult: 1
  }
  param {
    lr_mult: 2
    decay_mult: 0
  }
  convolution_param {
    num_output: 112
    kernel_size: 1
    weight_filler {
      type: "xavier"
      std: 0.03
    }
    bias_filler {
      type: "constant"
      value: 0.2
    }
  }
}
layer {
  name: "inception_4d/relu_1x1"
  type: "ReLU"
  bottom: "inception_4d/1x1"
  top: "inception_4d/1x1"
}
layer {
  name: "inception_4d/3x3_reduce"
  type: "Convolution"
  bottom: "inception_4c/output"
  top: "inception_4d/3x3_reduce"
  param {
    lr_mult: 1
    decay_mult: 1
  }
  param {
    lr_mult: 2
    decay_mult: 0
  }
  convolution_param {
    num_output: 144
    kernel_size: 1
    weight_filler {
      type: "xavier"
      std: 0.09
    }
    bias_filler {
      type: "constant"
      value: 0.2
    }
  }
}
layer {
  name: "inception_4d/relu_3x3_reduce"
  type: "ReLU"
  bottom: "inception_4d/3x3_reduce"
  top: "inception_4d/3x3_reduce"
}
layer {
  name: "inception_4d/3x3"
  type: "Convolution"
  bottom: "inception_4d/3x3_reduce"
  top: "inception_4d/3x3"
  param {
    lr_mult: 1
    decay_mult: 1
  }
  param {
    lr_mult: 2
    decay_mult: 0
  }
  convolution_param {
    num_output: 288
    pad: 1
    kernel_size: 3
    weight_filler {
      type: "xavier"
      std: 0.03
    }
    bias_filler {
      type: "constant"
      value: 0.2
    }
  }
}
layer {
  name: "inception_4d/relu_3x3"
  type: "ReLU"
  bottom: "inception_4d/3x3"
  top: "inception_4d/3x3"
}
layer {
  name: "inception_4d/5x5_reduce"
  type: "Convolution"
  bottom: "inception_4c/output"
  top: "inception_4d/5x5_reduce"
  param {
    lr_mult: 1
    decay_mult: 1
  }
  param {
    lr_mult: 2
    decay_mult: 0
  }
  convolution_param {
    num_output: 32
    kernel_size: 1
    weight_filler {
      type: "xavier"
      std: 0.2
    }
    bias_filler {
      type: "constant"
      value: 0.2
    }
  }
}
layer {
  name: "inception_4d/relu_5x5_reduce"
  type: "ReLU"
  bottom: "inception_4d/5x5_reduce"
  top: "inception_4d/5x5_reduce"
}
layer {
  name: "inception_4d/5x5"
  type: "Convolution"
  bottom: "inception_4d/5x5_reduce"
  top: "inception_4d/5x5"
  param {
    lr_mult: 1
    decay_mult: 1
  }
  param {
    lr_mult: 2
    decay_mult: 0
  }
  convolution_param {
    num_output: 64
    pad: 2
    kernel_size: 5
    weight_filler {
      type: "xavier"
      std: 0.03
    }
    bias_filler {
      type: "constant"
      value: 0.2
    }
  }
}
layer {
  name: "inception_4d/relu_5x5"
  type: "ReLU"
  bottom: "inception_4d/5x5"
  top: "inception_4d/5x5"
}
layer {
  name: "inception_4d/pool"
  type: "Pooling"
  bottom: "inception_4c/output"
  top: "inception_4d/pool"
  pooling_param {
    pool: MAX
    kernel_size: 3
    stride: 1
    pad: 1
  }
}
layer {
  name: "inception_4d/pool_proj"
  type: "Convolution"
  bottom: "inception_4d/pool"
  top: "inception_4d/pool_proj"
  param {
    lr_mult: 1
    decay_mult: 1
  }
  param {
    lr_mult: 2
    decay_mult: 0
  }
  convolution_param {
    num_output: 64
    kernel_size: 1
    weight_filler {
      type: "xavier"
      std: 0.1
    }
    bias_filler {
      type: "constant"
      value: 0.2
    }
  }
}
layer {
  name: "inception_4d/relu_pool_proj"
  type: "ReLU"
  bottom: "inception_4d/pool_proj"
  top: "inception_4d/pool_proj"
}
layer {
  name: "inception_4d/output"
  type: "Concat"
  bottom: "inception_4d/1x1"
  bottom: "inception_4d/3x3"
  bottom: "inception_4d/5x5"
  bottom: "inception_4d/pool_proj"
  top: "inception_4d/output"
}
layer {
  name: "loss2/ave_pool"
  type: "Pooling"
  bottom: "inception_4d/output"
  top: "loss2/ave_pool"
  pooling_param {
    pool: AVE
    kernel_size: 5
    stride: 3
  }
}
layer {
  name: "loss2/conv"
  type: "Convolution"
  bottom: "loss2/ave_pool"
  top: "loss2/conv"
  param {
    lr_mult: 1
    decay_mult: 1
  }
  param {
    lr_mult: 2
    decay_mult: 0
  }
  convolution_param {
    num_output: 128
    kernel_size: 1
    weight_filler {
      type: "xavier"
      std: 0.08
    }
    bias_filler {
      type: "constant"
      value: 0.2
    }
  }
}
layer {
  name: "loss2/relu_conv"
  type: "ReLU"
  bottom: "loss2/conv"
  top: "loss2/conv"
}
layer {
  name: "loss2/fc"
  type: "InnerProduct"
  bottom: "loss2/conv"
  top: "loss2/fc"
  param {
    lr_mult: 1
    decay_mult: 1
  }
  param {
    lr_mult: 2
    decay_mult: 0
  }
  inner_product_param {
    num_output: 1024
    weight_filler {
      type: "xavier"
      std: 0.02
    }
    bias_filler {
      type: "constant"
      value: 0.2
    }
  }
}
layer {
  name: "loss2/relu_fc"
  type: "ReLU"
  bottom: "loss2/fc"
  top: "loss2/fc"
}
layer {
  name: "loss2/drop_fc"
  type: "Dropout"
  bottom: "loss2/fc"
  top: "loss2/fc"
  dropout_param {
    dropout_ratio: 0.7
  }
}
layer {
  name: "loss2/classifier_plantvillage"
  type: "InnerProduct"
  bottom: "loss2/fc"
  top: "loss2/classifier_plantvillage"
  param {
    lr_mult: 1
    decay_mult: 1
  }
  param {
    lr_mult: 2
    decay_mult: 0
  }
  inner_product_param {
    num_output: 38
    weight_filler {
      type: "xavier"
      std: 0.0009765625
    }
    bias_filler {
      type: "constant"
      value: 0
    }
  }
}
layer {
  name: "inception_4e/1x1"
  type: "Convolution"
  bottom: "inception_4d/output"
  top: "inception_4e/1x1"
  param {
    lr_mult: 1
    decay_mult: 1
  }
  param {
    lr_mult: 2
    decay_mult: 0
  }
  convolution_param {
    num_output: 256
    kernel_size: 1
    weight_filler {
      type: "xavier"
      std: 0.03
    }
    bias_filler {
      type: "constant"
      value: 0.2
    }
  }
}
layer {
  name: "inception_4e/relu_1x1"
  type: "ReLU"
  bottom: "inception_4e/1x1"
  top: "inception_4e/1x1"
}
layer {
  name: "inception_4e/3x3_reduce"
  type: "Convolution"
  bottom: "inception_4d/output"
  top: "inception_4e/3x3_reduce"
  param {
    lr_mult: 1
    decay_mult: 1
  }
  param {
    lr_mult: 2
    decay_mult: 0
  }
  convolution_param {
    num_output: 160
    kernel_size: 1
    weight_filler {
      type: "xavier"
      std: 0.09
    }
    bias_filler {
      type: "constant"
      value: 0.2
    }
  }
}
layer {
  name: "inception_4e/relu_3x3_reduce"
  type: "ReLU"
  bottom: "inception_4e/3x3_reduce"
  top: "inception_4e/3x3_reduce"
}
layer {
  name: "inception_4e/3x3"
  type: "Convolution"
  bottom: "inception_4e/3x3_reduce"
  top: "inception_4e/3x3"
  param {
    lr_mult: 1
    decay_mult: 1
  }
  param {
    lr_mult: 2
    decay_mult: 0
  }
  convolution_param {
    num_output: 320
    pad: 1
    kernel_size: 3
    weight_filler {
      type: "xavier"
      std: 0.03
    }
    bias_filler {
      type: "constant"
      value: 0.2
    }
  }
}
layer {
  name: "inception_4e/relu_3x3"
  type: "ReLU"
  bottom: "inception_4e/3x3"
  top: "inception_4e/3x3"
}
layer {
  name: "inception_4e/5x5_reduce"
  type: "Convolution"
  bottom: "inception_4d/output"
  top: "inception_4e/5x5_reduce"
  param {
    lr_mult: 1
    decay_mult: 1
  }
  param {
    lr_mult: 2
    decay_mult: 0
  }
  convolution_param {
    num_output: 32
    kernel_size: 1
    weight_filler {
      type: "xavier"
      std: 0.2
    }
    bias_filler {
      type: "constant"
      value: 0.2
    }
  }
}
layer {
  name: "inception_4e/relu_5x5_reduce"
  type: "ReLU"
  bottom: "inception_4e/5x5_reduce"
  top: "inception_4e/5x5_reduce"
}
layer {
  name: "inception_4e/5x5"
  type: "Convolution"
  bottom: "inception_4e/5x5_reduce"
  top: "inception_4e/5x5"
  p
I0403 19:46:11.578387  9650 layer_factory.hpp:77] Creating layer data
I0403 19:46:11.579124  9650 net.cpp:91] Creating Layer data
I0403 19:46:11.579169  9650 net.cpp:399] data -> data
I0403 19:46:11.579237  9650 net.cpp:399] data -> label
I0403 19:46:11.579283  9650 data_transformer.cpp:25] Loading mean file from: /home/mohanty/data/final_dataset/lmdb/color-60-40/mean.binaryproto
I0403 19:46:11.580677  9652 db_lmdb.cpp:38] Opened lmdb /home/mohanty/data/final_dataset/lmdb/color-60-40/test_db
I0403 19:46:11.595234  9650 data_layer.cpp:41] output data size: 24,3,224,224
I0403 19:46:11.626760  9650 net.cpp:141] Setting up data
I0403 19:46:11.626850  9650 net.cpp:148] Top shape: 24 3 224 224 (3612672)
I0403 19:46:11.626878  9650 net.cpp:148] Top shape: 24 (24)
I0403 19:46:11.626898  9650 net.cpp:156] Memory required for data: 14450784
I0403 19:46:11.626935  9650 layer_factory.hpp:77] Creating layer label_data_1_split
I0403 19:46:11.626970  9650 net.cpp:91] Creating Layer label_data_1_split
I0403 19:46:11.626991  9650 net.cpp:425] label_data_1_split <- label
I0403 19:46:11.627032  9650 net.cpp:399] label_data_1_split -> label_data_1_split_0
I0403 19:46:11.627068  9650 net.cpp:399] label_data_1_split -> label_data_1_split_1
I0403 19:46:11.627094  9650 net.cpp:399] label_data_1_split -> label_data_1_split_2
I0403 19:46:11.627120  9650 net.cpp:399] label_data_1_split -> label_data_1_split_3
I0403 19:46:11.627145  9650 net.cpp:399] label_data_1_split -> label_data_1_split_4
I0403 19:46:11.627169  9650 net.cpp:399] label_data_1_split -> label_data_1_split_5
I0403 19:46:11.627193  9650 net.cpp:399] label_data_1_split -> label_data_1_split_6
I0403 19:46:11.627219  9650 net.cpp:399] label_data_1_split -> label_data_1_split_7
I0403 19:46:11.627244  9650 net.cpp:399] label_data_1_split -> label_data_1_split_8
I0403 19:46:11.627269  9650 net.cpp:399] label_data_1_split -> label_data_1_split_9
I0403 19:46:11.627411  9650 net.cpp:141] Setting up label_data_1_split
I0403 19:46:11.627439  9650 net.cpp:148] Top shape: 24 (24)
I0403 19:46:11.627465  9650 net.cpp:148] Top shape: 24 (24)
I0403 19:46:11.627488  9650 net.cpp:148] Top shape: 24 (24)
I0403 19:46:11.627508  9650 net.cpp:148] Top shape: 24 (24)
I0403 19:46:11.627528  9650 net.cpp:148] Top shape: 24 (24)
I0403 19:46:11.627548  9650 net.cpp:148] Top shape: 24 (24)
I0403 19:46:11.627568  9650 net.cpp:148] Top shape: 24 (24)
I0403 19:46:11.627586  9650 net.cpp:148] Top shape: 24 (24)
I0403 19:46:11.627606  9650 net.cpp:148] Top shape: 24 (24)
I0403 19:46:11.627627  9650 net.cpp:148] Top shape: 24 (24)
I0403 19:46:11.627684  9650 net.cpp:156] Memory required for data: 14451744
I0403 19:46:11.627704  9650 layer_factory.hpp:77] Creating layer conv1/7x7_s2
I0403 19:46:11.627745  9650 net.cpp:91] Creating Layer conv1/7x7_s2
I0403 19:46:11.627768  9650 net.cpp:425] conv1/7x7_s2 <- data
I0403 19:46:11.627792  9650 net.cpp:399] conv1/7x7_s2 -> conv1/7x7_s2
I0403 19:46:11.792592  9650 net.cpp:141] Setting up conv1/7x7_s2
I0403 19:46:11.792680  9650 net.cpp:148] Top shape: 24 64 112 112 (19267584)
I0403 19:46:11.792701  9650 net.cpp:156] Memory required for data: 91522080
I0403 19:46:11.792742  9650 layer_factory.hpp:77] Creating layer conv1/relu_7x7
I0403 19:46:11.792779  9650 net.cpp:91] Creating Layer conv1/relu_7x7
I0403 19:46:11.792804  9650 net.cpp:425] conv1/relu_7x7 <- conv1/7x7_s2
I0403 19:46:11.792829  9650 net.cpp:386] conv1/relu_7x7 -> conv1/7x7_s2 (in-place)
I0403 19:46:11.793159  9650 net.cpp:141] Setting up conv1/relu_7x7
I0403 19:46:11.793195  9650 net.cpp:148] Top shape: 24 64 112 112 (19267584)
I0403 19:46:11.793216  9650 net.cpp:156] Memory required for data: 168592416
I0403 19:46:11.793263  9650 layer_factory.hpp:77] Creating layer pool1/3x3_s2
I0403 19:46:11.793300  9650 net.cpp:91] Creating Layer pool1/3x3_s2
I0403 19:46:11.793323  9650 net.cpp:425] pool1/3x3_s2 <- conv1/7x7_s2
I0403 19:46:11.793349  9650 net.cpp:399] pool1/3x3_s2 -> pool1/3x3_s2
I0403 19:46:11.793448  9650 net.cpp:141] Setting up pool1/3x3_s2
I0403 19:46:11.793483  9650 net.cpp:148] Top shape: 24 64 56 56 (4816896)
I0403 19:46:11.793503  9650 net.cpp:156] Memory required for data: 187860000
I0403 19:46:11.793522  9650 layer_factory.hpp:77] Creating layer pool1/norm1
I0403 19:46:11.793556  9650 net.cpp:91] Creating Layer pool1/norm1
I0403 19:46:11.793578  9650 net.cpp:425] pool1/norm1 <- pool1/3x3_s2
I0403 19:46:11.793603  9650 net.cpp:399] pool1/norm1 -> pool1/norm1
I0403 19:46:11.793972  9650 net.cpp:141] Setting up pool1/norm1
I0403 19:46:11.794008  9650 net.cpp:148] Top shape: 24 64 56 56 (4816896)
I0403 19:46:11.794028  9650 net.cpp:156] Memory required for data: 207127584
I0403 19:46:11.794049  9650 layer_factory.hpp:77] Creating layer conv2/3x3_reduce
I0403 19:46:11.794082  9650 net.cpp:91] Creating Layer conv2/3x3_reduce
I0403 19:46:11.794105  9650 net.cpp:425] conv2/3x3_reduce <- pool1/norm1
I0403 19:46:11.794131  9650 net.cpp:399] conv2/3x3_reduce -> conv2/3x3_reduce
I0403 19:46:11.795881  9650 net.cpp:141] Setting up conv2/3x3_reduce
I0403 19:46:11.795919  9650 net.cpp:148] Top shape: 24 64 56 56 (4816896)
I0403 19:46:11.795938  9650 net.cpp:156] Memory required for data: 226395168
I0403 19:46:11.795964  9650 layer_factory.hpp:77] Creating layer conv2/relu_3x3_reduce
I0403 19:46:11.795991  9650 net.cpp:91] Creating Layer conv2/relu_3x3_reduce
I0403 19:46:11.796015  9650 net.cpp:425] conv2/relu_3x3_reduce <- conv2/3x3_reduce
I0403 19:46:11.796036  9650 net.cpp:386] conv2/relu_3x3_reduce -> conv2/3x3_reduce (in-place)
I0403 19:46:11.796360  9650 net.cpp:141] Setting up conv2/relu_3x3_reduce
I0403 19:46:11.796392  9650 net.cpp:148] Top shape: 24 64 56 56 (4816896)
I0403 19:46:11.796411  9650 net.cpp:156] Memory required for data: 245662752
I0403 19:46:11.796430  9650 layer_factory.hpp:77] Creating layer conv2/3x3
I0403 19:46:11.796468  9650 net.cpp:91] Creating Layer conv2/3x3
I0403 19:46:11.796492  9650 net.cpp:425] conv2/3x3 <- conv2/3x3_reduce
I0403 19:46:11.796517  9650 net.cpp:399] conv2/3x3 -> conv2/3x3
I0403 19:46:11.799309  9650 net.cpp:141] Setting up conv2/3x3
I0403 19:46:11.799347  9650 net.cpp:148] Top shape: 24 192 56 56 (14450688)
I0403 19:46:11.799367  9650 net.cpp:156] Memory required for data: 303465504
I0403 19:46:11.799394  9650 layer_factory.hpp:77] Creating layer conv2/relu_3x3
I0403 19:46:11.799420  9650 net.cpp:91] Creating Layer conv2/relu_3x3
I0403 19:46:11.799440  9650 net.cpp:425] conv2/relu_3x3 <- conv2/3x3
I0403 19:46:11.799468  9650 net.cpp:386] conv2/relu_3x3 -> conv2/3x3 (in-place)
I0403 19:46:11.799732  9650 net.cpp:141] Setting up conv2/relu_3x3
I0403 19:46:11.799764  9650 net.cpp:148] Top shape: 24 192 56 56 (14450688)
I0403 19:46:11.799826  9650 net.cpp:156] Memory required for data: 361268256
I0403 19:46:11.799847  9650 layer_factory.hpp:77] Creating layer conv2/norm2
I0403 19:46:11.799870  9650 net.cpp:91] Creating Layer conv2/norm2
I0403 19:46:11.799890  9650 net.cpp:425] conv2/norm2 <- conv2/3x3
I0403 19:46:11.799914  9650 net.cpp:399] conv2/norm2 -> conv2/norm2
I0403 19:46:11.800289  9650 net.cpp:141] Setting up conv2/norm2
I0403 19:46:11.800323  9650 net.cpp:148] Top shape: 24 192 56 56 (14450688)
I0403 19:46:11.800343  9650 net.cpp:156] Memory required for data: 419071008
I0403 19:46:11.800361  9650 layer_factory.hpp:77] Creating layer pool2/3x3_s2
I0403 19:46:11.800384  9650 net.cpp:91] Creating Layer pool2/3x3_s2
I0403 19:46:11.800402  9650 net.cpp:425] pool2/3x3_s2 <- conv2/norm2
I0403 19:46:11.800427  9650 net.cpp:399] pool2/3x3_s2 -> pool2/3x3_s2
I0403 19:46:11.800498  9650 net.cpp:141] Setting up pool2/3x3_s2
I0403 19:46:11.800537  9650 net.cpp:148] Top shape: 24 192 28 28 (3612672)
I0403 19:46:11.800555  9650 net.cpp:156] Memory required for data: 433521696
I0403 19:46:11.800575  9650 layer_factory.hpp:77] Creating layer pool2/3x3_s2_pool2/3x3_s2_0_split
I0403 19:46:11.800600  9650 net.cpp:91] Creating Layer pool2/3x3_s2_pool2/3x3_s2_0_split
I0403 19:46:11.800619  9650 net.cpp:425] pool2/3x3_s2_pool2/3x3_s2_0_split <- pool2/3x3_s2
I0403 19:46:11.800644  9650 net.cpp:399] pool2/3x3_s2_pool2/3x3_s2_0_split -> pool2/3x3_s2_pool2/3x3_s2_0_split_0
I0403 19:46:11.800669  9650 net.cpp:399] pool2/3x3_s2_pool2/3x3_s2_0_split -> pool2/3x3_s2_pool2/3x3_s2_0_split_1
I0403 19:46:11.800695  9650 net.cpp:399] pool2/3x3_s2_pool2/3x3_s2_0_split -> pool2/3x3_s2_pool2/3x3_s2_0_split_2
I0403 19:46:11.800720  9650 net.cpp:399] pool2/3x3_s2_pool2/3x3_s2_0_split -> pool2/3x3_s2_pool2/3x3_s2_0_split_3
I0403 19:46:11.800807  9650 net.cpp:141] Setting up pool2/3x3_s2_pool2/3x3_s2_0_split
I0403 19:46:11.800840  9650 net.cpp:148] Top shape: 24 192 28 28 (3612672)
I0403 19:46:11.800863  9650 net.cpp:148] Top shape: 24 192 28 28 (3612672)
I0403 19:46:11.800884  9650 net.cpp:148] Top shape: 24 192 28 28 (3612672)
I0403 19:46:11.800904  9650 net.cpp:148] Top shape: 24 192 28 28 (3612672)
I0403 19:46:11.800920  9650 net.cpp:156] Memory required for data: 491324448
I0403 19:46:11.800940  9650 layer_factory.hpp:77] Creating layer inception_3a/1x1
I0403 19:46:11.800968  9650 net.cpp:91] Creating Layer inception_3a/1x1
I0403 19:46:11.800990  9650 net.cpp:425] inception_3a/1x1 <- pool2/3x3_s2_pool2/3x3_s2_0_split_0
I0403 19:46:11.801014  9650 net.cpp:399] inception_3a/1x1 -> inception_3a/1x1
I0403 19:46:11.802963  9650 net.cpp:141] Setting up inception_3a/1x1
I0403 19:46:11.803000  9650 net.cpp:148] Top shape: 24 64 28 28 (1204224)
I0403 19:46:11.803020  9650 net.cpp:156] Memory required for data: 496141344
I0403 19:46:11.803043  9650 layer_factory.hpp:77] Creating layer inception_3a/relu_1x1
I0403 19:46:11.803069  9650 net.cpp:91] Creating Layer inception_3a/relu_1x1
I0403 19:46:11.803092  9650 net.cpp:425] inception_3a/relu_1x1 <- inception_3a/1x1
I0403 19:46:11.803114  9650 net.cpp:386] inception_3a/relu_1x1 -> inception_3a/1x1 (in-place)
I0403 19:46:11.803324  9650 net.cpp:141] Setting up inception_3a/relu_1x1
I0403 19:46:11.803355  9650 net.cpp:148] Top shape: 24 64 28 28 (1204224)
I0403 19:46:11.803375  9650 net.cpp:156] Memory required for data: 500958240
I0403 19:46:11.803393  9650 layer_factory.hpp:77] Creating layer inception_3a/3x3_reduce
I0403 19:46:11.803423  9650 net.cpp:91] Creating Layer inception_3a/3x3_reduce
I0403 19:46:11.803444  9650 net.cpp:425] inception_3a/3x3_reduce <- pool2/3x3_s2_pool2/3x3_s2_0_split_1
I0403 19:46:11.803474  9650 net.cpp:399] inception_3a/3x3_reduce -> inception_3a/3x3_reduce
I0403 19:46:11.805562  9650 net.cpp:141] Setting up inception_3a/3x3_reduce
I0403 19:46:11.805600  9650 net.cpp:148] Top shape: 24 96 28 28 (1806336)
I0403 19:46:11.805620  9650 net.cpp:156] Memory required for data: 508183584
I0403 19:46:11.805647  9650 layer_factory.hpp:77] Creating layer inception_3a/relu_3x3_reduce
I0403 19:46:11.805694  9650 net.cpp:91] Creating Layer inception_3a/relu_3x3_reduce
I0403 19:46:11.805717  9650 net.cpp:425] inception_3a/relu_3x3_reduce <- inception_3a/3x3_reduce
I0403 19:46:11.805743  9650 net.cpp:386] inception_3a/relu_3x3_reduce -> inception_3a/3x3_reduce (in-place)
I0403 19:46:11.805999  9650 net.cpp:141] Setting up inception_3a/relu_3x3_reduce
I0403 19:46:11.806032  9650 net.cpp:148] Top shape: 24 96 28 28 (1806336)
I0403 19:46:11.806051  9650 net.cpp:156] Memory required for data: 515408928
I0403 19:46:11.806068  9650 layer_factory.hpp:77] Creating layer inception_3a/3x3
I0403 19:46:11.806097  9650 net.cpp:91] Creating Layer inception_3a/3x3
I0403 19:46:11.806120  9650 net.cpp:425] inception_3a/3x3 <- inception_3a/3x3_reduce
I0403 19:46:11.806148  9650 net.cpp:399] inception_3a/3x3 -> inception_3a/3x3
I0403 19:46:11.808225  9650 net.cpp:141] Setting up inception_3a/3x3
I0403 19:46:11.808261  9650 net.cpp:148] Top shape: 24 128 28 28 (2408448)
I0403 19:46:11.808286  9650 net.cpp:156] Memory required for data: 525042720
I0403 19:46:11.808310  9650 layer_factory.hpp:77] Creating layer inception_3a/relu_3x3
I0403 19:46:11.808332  9650 net.cpp:91] Creating Layer inception_3a/relu_3x3
I0403 19:46:11.808352  9650 net.cpp:425] inception_3a/relu_3x3 <- inception_3a/3x3
I0403 19:46:11.808373  9650 net.cpp:386] inception_3a/relu_3x3 -> inception_3a/3x3 (in-place)
I0403 19:46:11.808712  9650 net.cpp:141] Setting up inception_3a/relu_3x3
I0403 19:46:11.808745  9650 net.cpp:148] Top shape: 24 128 28 28 (2408448)
I0403 19:46:11.808768  9650 net.cpp:156] Memory required for data: 534676512
I0403 19:46:11.808786  9650 layer_factory.hpp:77] Creating layer inception_3a/5x5_reduce
I0403 19:46:11.808811  9650 net.cpp:91] Creating Layer inception_3a/5x5_reduce
I0403 19:46:11.808833  9650 net.cpp:425] inception_3a/5x5_reduce <- pool2/3x3_s2_pool2/3x3_s2_0_split_2
I0403 19:46:11.808861  9650 net.cpp:399] inception_3a/5x5_reduce -> inception_3a/5x5_reduce
I0403 19:46:11.810091  9650 net.cpp:141] Setting up inception_3a/5x5_reduce
I0403 19:46:11.810129  9650 net.cpp:148] Top shape: 24 16 28 28 (301056)
I0403 19:46:11.810151  9650 net.cpp:156] Memory required for data: 535880736
I0403 19:46:11.810176  9650 layer_factory.hpp:77] Creating layer inception_3a/relu_5x5_reduce
I0403 19:46:11.810199  9650 net.cpp:91] Creating Layer inception_3a/relu_5x5_reduce
I0403 19:46:11.810219  9650 net.cpp:425] inception_3a/relu_5x5_reduce <- inception_3a/5x5_reduce
I0403 19:46:11.810241  9650 net.cpp:386] inception_3a/relu_5x5_reduce -> inception_3a/5x5_reduce (in-place)
I0403 19:46:11.810600  9650 net.cpp:141] Setting up inception_3a/relu_5x5_reduce
I0403 19:46:11.810634  9650 net.cpp:148] Top shape: 24 16 28 28 (301056)
I0403 19:46:11.810653  9650 net.cpp:156] Memory required for data: 537084960
I0403 19:46:11.810672  9650 layer_factory.hpp:77] Creating layer inception_3a/5x5
I0403 19:46:11.810700  9650 net.cpp:91] Creating Layer inception_3a/5x5
I0403 19:46:11.810724  9650 net.cpp:425] inception_3a/5x5 <- inception_3a/5x5_reduce
I0403 19:46:11.810750  9650 net.cpp:399] inception_3a/5x5 -> inception_3a/5x5
I0403 19:46:11.811975  9650 net.cpp:141] Setting up inception_3a/5x5
I0403 19:46:11.812010  9650 net.cpp:148] Top shape: 24 32 28 28 (602112)
I0403 19:46:11.812028  9650 net.cpp:156] Memory required for data: 539493408
I0403 19:46:11.812052  9650 layer_factory.hpp:77] Creating layer inception_3a/relu_5x5
I0403 19:46:11.812077  9650 net.cpp:91] Creating Layer inception_3a/relu_5x5
I0403 19:46:11.812098  9650 net.cpp:425] inception_3a/relu_5x5 <- inception_3a/5x5
I0403 19:46:11.812120  9650 net.cpp:386] inception_3a/relu_5x5 -> inception_3a/5x5 (in-place)
I0403 19:46:11.812338  9650 net.cpp:141] Setting up inception_3a/relu_5x5
I0403 19:46:11.812372  9650 net.cpp:148] Top shape: 24 32 28 28 (602112)
I0403 19:46:11.812391  9650 net.cpp:156] Memory required for data: 541901856
I0403 19:46:11.812412  9650 layer_factory.hpp:77] Creating layer inception_3a/pool
I0403 19:46:11.812433  9650 net.cpp:91] Creating Layer inception_3a/pool
I0403 19:46:11.812453  9650 net.cpp:425] inception_3a/pool <- pool2/3x3_s2_pool2/3x3_s2_0_split_3
I0403 19:46:11.812510  9650 net.cpp:399] inception_3a/pool -> inception_3a/pool
I0403 19:46:11.812584  9650 net.cpp:141] Setting up inception_3a/pool
I0403 19:46:11.812614  9650 net.cpp:148] Top shape: 24 192 28 28 (3612672)
I0403 19:46:11.812633  9650 net.cpp:156] Memory required for data: 556352544
I0403 19:46:11.812652  9650 layer_factory.hpp:77] Creating layer inception_3a/pool_proj
I0403 19:46:11.812680  9650 net.cpp:91] Creating Layer inception_3a/pool_proj
I0403 19:46:11.812703  9650 net.cpp:425] inception_3a/pool_proj <- inception_3a/pool
I0403 19:46:11.812729  9650 net.cpp:399] inception_3a/pool_proj -> inception_3a/pool_proj
I0403 19:46:11.813900  9650 net.cpp:141] Setting up inception_3a/pool_proj
I0403 19:46:11.813935  9650 net.cpp:148] Top shape: 24 32 28 28 (602112)
I0403 19:46:11.813954  9650 net.cpp:156] Memory required for data: 558760992
I0403 19:46:11.813985  9650 layer_factory.hpp:77] Creating layer inception_3a/relu_pool_proj
I0403 19:46:11.814010  9650 net.cpp:91] Creating Layer inception_3a/relu_pool_proj
I0403 19:46:11.814031  9650 net.cpp:425] inception_3a/relu_pool_proj <- inception_3a/pool_proj
I0403 19:46:11.814054  9650 net.cpp:386] inception_3a/relu_pool_proj -> inception_3a/pool_proj (in-place)
I0403 19:46:11.814383  9650 net.cpp:141] Setting up inception_3a/relu_pool_proj
I0403 19:46:11.814415  9650 net.cpp:148] Top shape: 24 32 28 28 (602112)
I0403 19:46:11.814438  9650 net.cpp:156] Memory required for data: 561169440
I0403 19:46:11.814462  9650 layer_factory.hpp:77] Creating layer inception_3a/output
I0403 19:46:11.814486  9650 net.cpp:91] Creating Layer inception_3a/output
I0403 19:46:11.814507  9650 net.cpp:425] inception_3a/output <- inception_3a/1x1
I0403 19:46:11.814527  9650 net.cpp:425] inception_3a/output <- inception_3a/3x3
I0403 19:46:11.814548  9650 net.cpp:425] inception_3a/output <- inception_3a/5x5
I0403 19:46:11.814568  9650 net.cpp:425] inception_3a/output <- inception_3a/pool_proj
I0403 19:46:11.814589  9650 net.cpp:399] inception_3a/output -> inception_3a/output
I0403 19:46:11.814648  9650 net.cpp:141] Setting up inception_3a/output
I0403 19:46:11.814678  9650 net.cpp:148] Top shape: 24 256 28 28 (4816896)
I0403 19:46:11.814697  9650 net.cpp:156] Memory required for data: 580437024
I0403 19:46:11.814714  9650 layer_factory.hpp:77] Creating layer inception_3a/output_inception_3a/output_0_split
I0403 19:46:11.814736  9650 net.cpp:91] Creating Layer inception_3a/output_inception_3a/output_0_split
I0403 19:46:11.814755  9650 net.cpp:425] inception_3a/output_inception_3a/output_0_split <- inception_3a/output
I0403 19:46:11.814781  9650 net.cpp:399] inception_3a/output_inception_3a/output_0_split -> inception_3a/output_inception_3a/output_0_split_0
I0403 19:46:11.814807  9650 net.cpp:399] inception_3a/output_inception_3a/output_0_split -> inception_3a/output_inception_3a/output_0_split_1
I0403 19:46:11.814838  9650 net.cpp:399] inception_3a/output_inception_3a/output_0_split -> inception_3a/output_inception_3a/output_0_split_2
I0403 19:46:11.814865  9650 net.cpp:399] inception_3a/output_inception_3a/output_0_split -> inception_3a/output_inception_3a/output_0_split_3
I0403 19:46:11.814959  9650 net.cpp:141] Setting up inception_3a/output_inception_3a/output_0_split
I0403 19:46:11.814987  9650 net.cpp:148] Top shape: 24 256 28 28 (4816896)
I0403 19:46:11.815009  9650 net.cpp:148] Top shape: 24 256 28 28 (4816896)
I0403 19:46:11.815031  9650 net.cpp:148] Top shape: 24 256 28 28 (4816896)
I0403 19:46:11.815050  9650 net.cpp:148] Top shape: 24 256 28 28 (4816896)
I0403 19:46:11.815068  9650 net.cpp:156] Memory required for data: 657507360
I0403 19:46:11.815086  9650 layer_factory.hpp:77] Creating layer inception_3b/1x1
I0403 19:46:11.815114  9650 net.cpp:91] Creating Layer inception_3b/1x1
I0403 19:46:11.815136  9650 net.cpp:425] inception_3b/1x1 <- inception_3a/output_inception_3a/output_0_split_0
I0403 19:46:11.815165  9650 net.cpp:399] inception_3b/1x1 -> inception_3b/1x1
I0403 19:46:11.816565  9650 net.cpp:141] Setting up inception_3b/1x1
I0403 19:46:11.816614  9650 net.cpp:148] Top shape: 24 128 28 28 (2408448)
I0403 19:46:11.816634  9650 net.cpp:156] Memory required for data: 667141152
I0403 19:46:11.816659  9650 layer_factory.hpp:77] Creating layer inception_3b/relu_1x1
I0403 19:46:11.816689  9650 net.cpp:91] Creating Layer inception_3b/relu_1x1
I0403 19:46:11.816712  9650 net.cpp:425] inception_3b/relu_1x1 <- inception_3b/1x1
I0403 19:46:11.816735  9650 net.cpp:386] inception_3b/relu_1x1 -> inception_3b/1x1 (in-place)
I0403 19:46:11.816951  9650 net.cpp:141] Setting up inception_3b/relu_1x1
I0403 19:46:11.816983  9650 net.cpp:148] Top shape: 24 128 28 28 (2408448)
I0403 19:46:11.817003  9650 net.cpp:156] Memory required for data: 676774944
I0403 19:46:11.817023  9650 layer_factory.hpp:77] Creating layer inception_3b/3x3_reduce
I0403 19:46:11.817049  9650 net.cpp:91] Creating Layer inception_3b/3x3_reduce
I0403 19:46:11.817070  9650 net.cpp:425] inception_3b/3x3_reduce <- inception_3a/output_inception_3a/output_0_split_1
I0403 19:46:11.817097  9650 net.cpp:399] inception_3b/3x3_reduce -> inception_3b/3x3_reduce
I0403 19:46:11.818492  9650 net.cpp:141] Setting up inception_3b/3x3_reduce
I0403 19:46:11.818527  9650 net.cpp:148] Top shape: 24 128 28 28 (2408448)
I0403 19:46:11.818547  9650 net.cpp:156] Memory required for data: 686408736
I0403 19:46:11.818569  9650 layer_factory.hpp:77] Creating layer inception_3b/relu_3x3_reduce
I0403 19:46:11.818595  9650 net.cpp:91] Creating Layer inception_3b/relu_3x3_reduce
I0403 19:46:11.818616  9650 net.cpp:425] inception_3b/relu_3x3_reduce <- inception_3b/3x3_reduce
I0403 19:46:11.818637  9650 net.cpp:386] inception_3b/relu_3x3_reduce -> inception_3b/3x3_reduce (in-place)
I0403 19:46:11.818850  9650 net.cpp:141] Setting up inception_3b/relu_3x3_reduce
I0403 19:46:11.818881  9650 net.cpp:148] Top shape: 24 128 28 28 (2408448)
I0403 19:46:11.818900  9650 net.cpp:156] Memory required for data: 696042528
I0403 19:46:11.818919  9650 layer_factory.hpp:77] Creating layer inception_3b/3x3
I0403 19:46:11.818951  9650 net.cpp:91] Creating Layer inception_3b/3x3
I0403 19:46:11.818974  9650 net.cpp:425] inception_3b/3x3 <- inception_3b/3x3_reduce
I0403 19:46:11.819001  9650 net.cpp:399] inception_3b/3x3 -> inception_3b/3x3
I0403 19:46:11.822546  9650 net.cpp:141] Setting up inception_3b/3x3
I0403 19:46:11.822582  9650 net.cpp:148] Top shape: 24 192 28 28 (3612672)
I0403 19:46:11.822603  9650 net.cpp:156] Memory required for data: 710493216
I0403 19:46:11.822626  9650 layer_factory.hpp:77] Creating layer inception_3b/relu_3x3
I0403 19:46:11.822652  9650 net.cpp:91] Creating Layer inception_3b/relu_3x3
I0403 19:46:11.822674  9650 net.cpp:425] inception_3b/relu_3x3 <- inception_3b/3x3
I0403 19:46:11.822696  9650 net.cpp:386] inception_3b/relu_3x3 -> inception_3b/3x3 (in-place)
I0403 19:46:11.823029  9650 net.cpp:141] Setting up inception_3b/relu_3x3
I0403 19:46:11.823062  9650 net.cpp:148] Top shape: 24 192 28 28 (3612672)
I0403 19:46:11.823086  9650 net.cpp:156] Memory required for data: 724943904
I0403 19:46:11.823106  9650 layer_factory.hpp:77] Creating layer inception_3b/5x5_reduce
I0403 19:46:11.823130  9650 net.cpp:91] Creating Layer inception_3b/5x5_reduce
I0403 19:46:11.823153  9650 net.cpp:425] inception_3b/5x5_reduce <- inception_3a/output_inception_3a/output_0_split_2
I0403 19:46:11.823179  9650 net.cpp:399] inception_3b/5x5_reduce -> inception_3b/5x5_reduce
I0403 19:46:11.824391  9650 net.cpp:141] Setting up inception_3b/5x5_reduce
I0403 19:46:11.824426  9650 net.cpp:148] Top shape: 24 32 28 28 (602112)
I0403 19:46:11.824445  9650 net.cpp:156] Memory required for data: 727352352
I0403 19:46:11.824473  9650 layer_factory.hpp:77] Creating layer inception_3b/relu_5x5_reduce
I0403 19:46:11.824501  9650 net.cpp:91] Creating Layer inception_3b/relu_5x5_reduce
I0403 19:46:11.824523  9650 net.cpp:425] inception_3b/relu_5x5_reduce <- inception_3b/5x5_reduce
I0403 19:46:11.824545  9650 net.cpp:386] inception_3b/relu_5x5_reduce -> inception_3b/5x5_reduce (in-place)
I0403 19:46:11.824764  9650 net.cpp:141] Setting up inception_3b/relu_5x5_reduce
I0403 19:46:11.824812  9650 net.cpp:148] Top shape: 24 32 28 28 (602112)
I0403 19:46:11.824832  9650 net.cpp:156] Memory required for data: 729760800
I0403 19:46:11.824852  9650 layer_factory.hpp:77] Creating layer inception_3b/5x5
I0403 19:46:11.824879  9650 net.cpp:91] Creating Layer inception_3b/5x5
I0403 19:46:11.824903  9650 net.cpp:425] inception_3b/5x5 <- inception_3b/5x5_reduce
I0403 19:46:11.824926  9650 net.cpp:399] inception_3b/5x5 -> inception_3b/5x5
I0403 19:46:11.827316  9650 net.cpp:141] Setting up inception_3b/5x5
I0403 19:46:11.827353  9650 net.cpp:148] Top shape: 24 96 28 28 (1806336)
I0403 19:46:11.827371  9650 net.cpp:156] Memory required for data: 736986144
I0403 19:46:11.827395  9650 layer_factory.hpp:77] Creating layer inception_3b/relu_5x5
I0403 19:46:11.827420  9650 net.cpp:91] Creating Layer inception_3b/relu_5x5
I0403 19:46:11.827445  9650 net.cpp:425] inception_3b/relu_5x5 <- inception_3b/5x5
I0403 19:46:11.827471  9650 net.cpp:386] inception_3b/relu_5x5 -> inception_3b/5x5 (in-place)
I0403 19:46:11.827708  9650 net.cpp:141] Setting up inception_3b/relu_5x5
I0403 19:46:11.827740  9650 net.cpp:148] Top shape: 24 96 28 28 (1806336)
I0403 19:46:11.827759  9650 net.cpp:156] Memory required for data: 744211488
I0403 19:46:11.827778  9650 layer_factory.hpp:77] Creating layer inception_3b/pool
I0403 19:46:11.827800  9650 net.cpp:91] Creating Layer inception_3b/pool
I0403 19:46:11.827821  9650 net.cpp:425] inception_3b/pool <- inception_3a/output_inception_3a/output_0_split_3
I0403 19:46:11.827844  9650 net.cpp:399] inception_3b/pool -> inception_3b/pool
I0403 19:46:11.827914  9650 net.cpp:141] Setting up inception_3b/pool
I0403 19:46:11.827944  9650 net.cpp:148] Top shape: 24 256 28 28 (4816896)
I0403 19:46:11.827961  9650 net.cpp:156] Memory required for data: 763479072
I0403 19:46:11.827980  9650 layer_factory.hpp:77] Creating layer inception_3b/pool_proj
I0403 19:46:11.828007  9650 net.cpp:91] Creating Layer inception_3b/pool_proj
I0403 19:46:11.828029  9650 net.cpp:425] inception_3b/pool_proj <- inception_3b/pool
I0403 19:46:11.828054  9650 net.cpp:399] inception_3b/pool_proj -> inception_3b/pool_proj
I0403 19:46:11.829332  9650 net.cpp:141] Setting up inception_3b/pool_proj
I0403 19:46:11.829375  9650 net.cpp:148] Top shape: 24 64 28 28 (1204224)
I0403 19:46:11.829396  9650 net.cpp:156] Memory required for data: 768295968
I0403 19:46:11.829419  9650 layer_factory.hpp:77] Creating layer inception_3b/relu_pool_proj
I0403 19:46:11.829442  9650 net.cpp:91] Creating Layer inception_3b/relu_pool_proj
I0403 19:46:11.829468  9650 net.cpp:425] inception_3b/relu_pool_proj <- inception_3b/pool_proj
I0403 19:46:11.829500  9650 net.cpp:386] inception_3b/relu_pool_proj -> inception_3b/pool_proj (in-place)
I0403 19:46:11.829967  9650 net.cpp:141] Setting up inception_3b/relu_pool_proj
I0403 19:46:11.830006  9650 net.cpp:148] Top shape: 24 64 28 28 (1204224)
I0403 19:46:11.830029  9650 net.cpp:156] Memory required for data: 773112864
I0403 19:46:11.830046  9650 layer_factory.hpp:77] Creating layer inception_3b/output
I0403 19:46:11.830068  9650 net.cpp:91] Creating Layer inception_3b/output
I0403 19:46:11.830087  9650 net.cpp:425] inception_3b/output <- inception_3b/1x1
I0403 19:46:11.830108  9650 net.cpp:425] inception_3b/output <- inception_3b/3x3
I0403 19:46:11.830128  9650 net.cpp:425] inception_3b/output <- inception_3b/5x5
I0403 19:46:11.830148  9650 net.cpp:425] inception_3b/output <- inception_3b/pool_proj
I0403 19:46:11.830169  9650 net.cpp:399] inception_3b/output -> inception_3b/output
I0403 19:46:11.830226  9650 net.cpp:141] Setting up inception_3b/output
I0403 19:46:11.830255  9650 net.cpp:148] Top shape: 24 480 28 28 (9031680)
I0403 19:46:11.830273  9650 net.cpp:156] Memory required for data: 809239584
I0403 19:46:11.830292  9650 layer_factory.hpp:77] Creating layer pool3/3x3_s2
I0403 19:46:11.830317  9650 net.cpp:91] Creating Layer pool3/3x3_s2
I0403 19:46:11.830337  9650 net.cpp:425] pool3/3x3_s2 <- inception_3b/output
I0403 19:46:11.830358  9650 net.cpp:399] pool3/3x3_s2 -> pool3/3x3_s2
I0403 19:46:11.830448  9650 net.cpp:141] Setting up pool3/3x3_s2
I0403 19:46:11.830483  9650 net.cpp:148] Top shape: 24 480 14 14 (2257920)
I0403 19:46:11.830503  9650 net.cpp:156] Memory required for data: 818271264
I0403 19:46:11.830523  9650 layer_factory.hpp:77] Creating layer pool3/3x3_s2_pool3/3x3_s2_0_split
I0403 19:46:11.830544  9650 net.cpp:91] Creating Layer pool3/3x3_s2_pool3/3x3_s2_0_split
I0403 19:46:11.830564  9650 net.cpp:425] pool3/3x3_s2_pool3/3x3_s2_0_split <- pool3/3x3_s2
I0403 19:46:11.830586  9650 net.cpp:399] pool3/3x3_s2_pool3/3x3_s2_0_split -> pool3/3x3_s2_pool3/3x3_s2_0_split_0
I0403 19:46:11.830612  9650 net.cpp:399] pool3/3x3_s2_pool3/3x3_s2_0_split -> pool3/3x3_s2_pool3/3x3_s2_0_split_1
I0403 19:46:11.830637  9650 net.cpp:399] pool3/3x3_s2_pool3/3x3_s2_0_split -> pool3/3x3_s2_pool3/3x3_s2_0_split_2
I0403 19:46:11.830662  9650 net.cpp:399] pool3/3x3_s2_pool3/3x3_s2_0_split -> pool3/3x3_s2_pool3/3x3_s2_0_split_3
I0403 19:46:11.830756  9650 net.cpp:141] Setting up pool3/3x3_s2_pool3/3x3_s2_0_split
I0403 19:46:11.830788  9650 net.cpp:148] Top shape: 24 480 14 14 (2257920)
I0403 19:46:11.830811  9650 net.cpp:148] Top shape: 24 480 14 14 (2257920)
I0403 19:46:11.830831  9650 net.cpp:148] Top shape: 24 480 14 14 (2257920)
I0403 19:46:11.830850  9650 net.cpp:148] Top shape: 24 480 14 14 (2257920)
I0403 19:46:11.830868  9650 net.cpp:156] Memory required for data: 854397984
I0403 19:46:11.830886  9650 layer_factory.hpp:77] Creating layer inception_4a/1x1
I0403 19:46:11.830915  9650 net.cpp:91] Creating Layer inception_4a/1x1
I0403 19:46:11.830936  9650 net.cpp:425] inception_4a/1x1 <- pool3/3x3_s2_pool3/3x3_s2_0_split_0
I0403 19:46:11.830960  9650 net.cpp:399] inception_4a/1x1 -> inception_4a/1x1
I0403 19:46:11.832885  9650 net.cpp:141] Setting up inception_4a/1x1
I0403 19:46:11.832921  9650 net.cpp:148] Top shape: 24 192 14 14 (903168)
I0403 19:46:11.832942  9650 net.cpp:156] Memory required for data: 858010656
I0403 19:46:11.832965  9650 layer_factory.hpp:77] Creating layer inception_4a/relu_1x1
I0403 19:46:11.832988  9650 net.cpp:91] Creating Layer inception_4a/relu_1x1
I0403 19:46:11.833008  9650 net.cpp:425] inception_4a/relu_1x1 <- inception_4a/1x1
I0403 19:46:11.833032  9650 net.cpp:386] inception_4a/relu_1x1 -> inception_4a/1x1 (in-place)
I0403 19:46:11.833250  9650 net.cpp:141] Setting up inception_4a/relu_1x1
I0403 19:46:11.833281  9650 net.cpp:148] Top shape: 24 192 14 14 (903168)
I0403 19:46:11.833299  9650 net.cpp:156] Memory required for data: 861623328
I0403 19:46:11.833317  9650 layer_factory.hpp:77] Creating layer inception_4a/3x3_reduce
I0403 19:46:11.833348  9650 net.cpp:91] Creating Layer inception_4a/3x3_reduce
I0403 19:46:11.833370  9650 net.cpp:425] inception_4a/3x3_reduce <- pool3/3x3_s2_pool3/3x3_s2_0_split_1
I0403 19:46:11.833397  9650 net.cpp:399] inception_4a/3x3_reduce -> inception_4a/3x3_reduce
I0403 19:46:11.834955  9650 net.cpp:141] Setting up inception_4a/3x3_reduce
I0403 19:46:11.834990  9650 net.cpp:148] Top shape: 24 96 14 14 (451584)
I0403 19:46:11.835011  9650 net.cpp:156] Memory required for data: 863429664
I0403 19:46:11.835042  9650 layer_factory.hpp:77] Creating layer inception_4a/relu_3x3_reduce
I0403 19:46:11.835067  9650 net.cpp:91] Creating Layer inception_4a/relu_3x3_reduce
I0403 19:46:11.835088  9650 net.cpp:425] inception_4a/relu_3x3_reduce <- inception_4a/3x3_reduce
I0403 19:46:11.835113  9650 net.cpp:386] inception_4a/relu_3x3_reduce -> inception_4a/3x3_reduce (in-place)
I0403 19:46:11.835325  9650 net.cpp:141] Setting up inception_4a/relu_3x3_reduce
I0403 19:46:11.835360  9650 net.cpp:148] Top shape: 24 96 14 14 (451584)
I0403 19:46:11.835387  9650 net.cpp:156] Memory required for data: 865236000
I0403 19:46:11.835410  9650 layer_factory.hpp:77] Creating layer inception_4a/3x3
I0403 19:46:11.835438  9650 net.cpp:91] Creating Layer inception_4a/3x3
I0403 19:46:11.835464  9650 net.cpp:425] inception_4a/3x3 <- inception_4a/3x3_reduce
I0403 19:46:11.835494  9650 net.cpp:399] inception_4a/3x3 -> inception_4a/3x3
I0403 19:46:11.838749  9650 net.cpp:141] Setting up inception_4a/3x3
I0403 19:46:11.838786  9650 net.cpp:148] Top shape: 24 208 14 14 (978432)
I0403 19:46:11.838806  9650 net.cpp:156] Memory required for data: 869149728
I0403 19:46:11.838830  9650 layer_factory.hpp:77] Creating layer inception_4a/relu_3x3
I0403 19:46:11.838855  9650 net.cpp:91] Creating Layer inception_4a/relu_3x3
I0403 19:46:11.838876  9650 net.cpp:425] inception_4a/relu_3x3 <- inception_4a/3x3
I0403 19:46:11.838904  9650 net.cpp:386] inception_4a/relu_3x3 -> inception_4a/3x3 (in-place)
I0403 19:46:11.839243  9650 net.cpp:141] Setting up inception_4a/relu_3x3
I0403 19:46:11.839277  9650 net.cpp:148] Top shape: 24 208 14 14 (978432)
I0403 19:46:11.839296  9650 net.cpp:156] Memory required for data: 873063456
I0403 19:46:11.839314  9650 layer_factory.hpp:77] Creating layer inception_4a/5x5_reduce
I0403 19:46:11.839344  9650 net.cpp:91] Creating Layer inception_4a/5x5_reduce
I0403 19:46:11.839366  9650 net.cpp:425] inception_4a/5x5_reduce <- pool3/3x3_s2_pool3/3x3_s2_0_split_2
I0403 19:46:11.839392  9650 net.cpp:399] inception_4a/5x5_reduce -> inception_4a/5x5_reduce
I0403 19:46:11.840641  9650 net.cpp:141] Setting up inception_4a/5x5_reduce
I0403 19:46:11.840677  9650 net.cpp:148] Top shape: 24 16 14 14 (75264)
I0403 19:46:11.840701  9650 net.cpp:156] Memory required for data: 873364512
I0403 19:46:11.840726  9650 layer_factory.hpp:77] Creating layer inception_4a/relu_5x5_reduce
I0403 19:46:11.840751  9650 net.cpp:91] Creating Layer inception_4a/relu_5x5_reduce
I0403 19:46:11.840773  9650 net.cpp:425] inception_4a/relu_5x5_reduce <- inception_4a/5x5_reduce
I0403 19:46:11.840795  9650 net.cpp:386] inception_4a/relu_5x5_reduce -> inception_4a/5x5_reduce (in-place)
I0403 19:46:11.841013  9650 net.cpp:141] Setting up inception_4a/relu_5x5_reduce
I0403 19:46:11.841048  9650 net.cpp:148] Top shape: 24 16 14 14 (75264)
I0403 19:46:11.841068  9650 net.cpp:156] Memory required for data: 873665568
I0403 19:46:11.841087  9650 layer_factory.hpp:77] Creating layer inception_4a/5x5
I0403 19:46:11.841114  9650 net.cpp:91] Creating Layer inception_4a/5x5
I0403 19:46:11.841137  9650 net.cpp:425] inception_4a/5x5 <- inception_4a/5x5_reduce
I0403 19:46:11.841161  9650 net.cpp:399] inception_4a/5x5 -> inception_4a/5x5
I0403 19:46:11.842485  9650 net.cpp:141] Setting up inception_4a/5x5
I0403 19:46:11.842524  9650 net.cpp:148] Top shape: 24 48 14 14 (225792)
I0403 19:46:11.842545  9650 net.cpp:156] Memory required for data: 874568736
I0403 19:46:11.842568  9650 layer_factory.hpp:77] Creating layer inception_4a/relu_5x5
I0403 19:46:11.842591  9650 net.cpp:91] Creating Layer inception_4a/relu_5x5
I0403 19:46:11.842610  9650 net.cpp:425] inception_4a/relu_5x5 <- inception_4a/5x5
I0403 19:46:11.842633  9650 net.cpp:386] inception_4a/relu_5x5 -> inception_4a/5x5 (in-place)
I0403 19:46:11.842856  9650 net.cpp:141] Setting up inception_4a/relu_5x5
I0403 19:46:11.842888  9650 net.cpp:148] Top shape: 24 48 14 14 (225792)
I0403 19:46:11.842906  9650 net.cpp:156] Memory required for data: 875471904
I0403 19:46:11.842926  9650 layer_factory.hpp:77] Creating layer inception_4a/pool
I0403 19:46:11.842948  9650 net.cpp:91] Creating Layer inception_4a/pool
I0403 19:46:11.842967  9650 net.cpp:425] inception_4a/pool <- pool3/3x3_s2_pool3/3x3_s2_0_split_3
I0403 19:46:11.842991  9650 net.cpp:399] inception_4a/pool -> inception_4a/pool
I0403 19:46:11.843066  9650 net.cpp:141] Setting up inception_4a/pool
I0403 19:46:11.843098  9650 net.cpp:148] Top shape: 24 480 14 14 (2257920)
I0403 19:46:11.843117  9650 net.cpp:156] Memory required for data: 884503584
I0403 19:46:11.843137  9650 layer_factory.hpp:77] Creating layer inception_4a/pool_proj
I0403 19:46:11.843163  9650 net.cpp:91] Creating Layer inception_4a/pool_proj
I0403 19:46:11.843185  9650 net.cpp:425] inception_4a/pool_proj <- inception_4a/pool
I0403 19:46:11.843211  9650 net.cpp:399] inception_4a/pool_proj -> inception_4a/pool_proj
I0403 19:46:11.844671  9650 net.cpp:141] Setting up inception_4a/pool_proj
I0403 19:46:11.844707  9650 net.cpp:148] Top shape: 24 64 14 14 (301056)
I0403 19:46:11.844745  9650 net.cpp:156] Memory required for data: 885707808
I0403 19:46:11.844771  9650 layer_factory.hpp:77] Creating layer inception_4a/relu_pool_proj
I0403 19:46:11.844794  9650 net.cpp:91] Creating Layer inception_4a/relu_pool_proj
I0403 19:46:11.844815  9650 net.cpp:425] inception_4a/relu_pool_proj <- inception_4a/pool_proj
I0403 19:46:11.844841  9650 net.cpp:386] inception_4a/relu_pool_proj -> inception_4a/pool_proj (in-place)
I0403 19:46:11.845191  9650 net.cpp:141] Setting up inception_4a/relu_pool_proj
I0403 19:46:11.845223  9650 net.cpp:148] Top shape: 24 64 14 14 (301056)
I0403 19:46:11.845243  9650 net.cpp:156] Memory required for data: 886912032
I0403 19:46:11.845263  9650 layer_factory.hpp:77] Creating layer inception_4a/output
I0403 19:46:11.845284  9650 net.cpp:91] Creating Layer inception_4a/output
I0403 19:46:11.845304  9650 net.cpp:425] inception_4a/output <- inception_4a/1x1
I0403 19:46:11.845324  9650 net.cpp:425] inception_4a/output <- inception_4a/3x3
I0403 19:46:11.845345  9650 net.cpp:425] inception_4a/output <- inception_4a/5x5
I0403 19:46:11.845366  9650 net.cpp:425] inception_4a/output <- inception_4a/pool_proj
I0403 19:46:11.845391  9650 net.cpp:399] inception_4a/output -> inception_4a/output
I0403 19:46:11.845446  9650 net.cpp:141] Setting up inception_4a/output
I0403 19:46:11.845484  9650 net.cpp:148] Top shape: 24 512 14 14 (2408448)
I0403 19:46:11.845504  9650 net.cpp:156] Memory required for data: 896545824
I0403 19:46:11.845522  9650 layer_factory.hpp:77] Creating layer inception_4a/output_inception_4a/output_0_split
I0403 19:46:11.845544  9650 net.cpp:91] Creating Layer inception_4a/output_inception_4a/output_0_split
I0403 19:46:11.845564  9650 net.cpp:425] inception_4a/output_inception_4a/output_0_split <- inception_4a/output
I0403 19:46:11.845588  9650 net.cpp:399] inception_4a/output_inception_4a/output_0_split -> inception_4a/output_inception_4a/output_0_split_0
I0403 19:46:11.845613  9650 net.cpp:399] inception_4a/output_inception_4a/output_0_split -> inception_4a/output_inception_4a/output_0_split_1
I0403 19:46:11.845643  9650 net.cpp:399] inception_4a/output_inception_4a/output_0_split -> inception_4a/output_inception_4a/output_0_split_2
I0403 19:46:11.845672  9650 net.cpp:399] inception_4a/output_inception_4a/output_0_split -> inception_4a/output_inception_4a/output_0_split_3
I0403 19:46:11.845697  9650 net.cpp:399] inception_4a/output_inception_4a/output_0_split -> inception_4a/output_inception_4a/output_0_split_4
I0403 19:46:11.845811  9650 net.cpp:141] Setting up inception_4a/output_inception_4a/output_0_split
I0403 19:46:11.845840  9650 net.cpp:148] Top shape: 24 512 14 14 (2408448)
I0403 19:46:11.845862  9650 net.cpp:148] Top shape: 24 512 14 14 (2408448)
I0403 19:46:11.845883  9650 net.cpp:148] Top shape: 24 512 14 14 (2408448)
I0403 19:46:11.845904  9650 net.cpp:148] Top shape: 24 512 14 14 (2408448)
I0403 19:46:11.845924  9650 net.cpp:148] Top shape: 24 512 14 14 (2408448)
I0403 19:46:11.845942  9650 net.cpp:156] Memory required for data: 944714784
I0403 19:46:11.845959  9650 layer_factory.hpp:77] Creating layer loss1/ave_pool
I0403 19:46:11.845984  9650 net.cpp:91] Creating Layer loss1/ave_pool
I0403 19:46:11.846006  9650 net.cpp:425] loss1/ave_pool <- inception_4a/output_inception_4a/output_0_split_0
I0403 19:46:11.846029  9650 net.cpp:399] loss1/ave_pool -> loss1/ave_pool
I0403 19:46:11.846284  9650 net.cpp:141] Setting up loss1/ave_pool
I0403 19:46:11.846318  9650 net.cpp:148] Top shape: 24 512 4 4 (196608)
I0403 19:46:11.846336  9650 net.cpp:156] Memory required for data: 945501216
I0403 19:46:11.846362  9650 layer_factory.hpp:77] Creating layer loss1/conv
I0403 19:46:11.846391  9650 net.cpp:91] Creating Layer loss1/conv
I0403 19:46:11.846413  9650 net.cpp:425] loss1/conv <- loss1/ave_pool
I0403 19:46:11.846441  9650 net.cpp:399] loss1/conv -> loss1/conv
I0403 19:46:11.848157  9650 net.cpp:141] Setting up loss1/conv
I0403 19:46:11.848196  9650 net.cpp:148] Top shape: 24 128 4 4 (49152)
I0403 19:46:11.848217  9650 net.cpp:156] Memory required for data: 945697824
I0403 19:46:11.848260  9650 layer_factory.hpp:77] Creating layer loss1/relu_conv
I0403 19:46:11.848289  9650 net.cpp:91] Creating Layer loss1/relu_conv
I0403 19:46:11.848310  9650 net.cpp:425] loss1/relu_conv <- loss1/conv
I0403 19:46:11.848333  9650 net.cpp:386] loss1/relu_conv -> loss1/conv (in-place)
I0403 19:46:11.848690  9650 net.cpp:141] Setting up loss1/relu_conv
I0403 19:46:11.848723  9650 net.cpp:148] Top shape: 24 128 4 4 (49152)
I0403 19:46:11.848742  9650 net.cpp:156] Memory required for data: 945894432
I0403 19:46:11.848762  9650 layer_factory.hpp:77] Creating layer loss1/fc
I0403 19:46:11.848794  9650 net.cpp:91] Creating Layer loss1/fc
I0403 19:46:11.848819  9650 net.cpp:425] loss1/fc <- loss1/conv
I0403 19:46:11.848841  9650 net.cpp:399] loss1/fc -> loss1/fc
I0403 19:46:11.870837  9650 net.cpp:141] Setting up loss1/fc
I0403 19:46:11.870878  9650 net.cpp:148] Top shape: 24 1024 (24576)
I0403 19:46:11.870898  9650 net.cpp:156] Memory required for data: 945992736
I0403 19:46:11.870921  9650 layer_factory.hpp:77] Creating layer loss1/relu_fc
I0403 19:46:11.870944  9650 net.cpp:91] Creating Layer loss1/relu_fc
I0403 19:46:11.870965  9650 net.cpp:425] loss1/relu_fc <- loss1/fc
I0403 19:46:11.870990  9650 net.cpp:386] loss1/relu_fc -> loss1/fc (in-place)
I0403 19:46:11.871217  9650 net.cpp:141] Setting up loss1/relu_fc
I0403 19:46:11.871248  9650 net.cpp:148] Top shape: 24 1024 (24576)
I0403 19:46:11.871268  9650 net.cpp:156] Memory required for data: 946091040
I0403 19:46:11.871287  9650 layer_factory.hpp:77] Creating layer loss1/drop_fc
I0403 19:46:11.871325  9650 net.cpp:91] Creating Layer loss1/drop_fc
I0403 19:46:11.871346  9650 net.cpp:425] loss1/drop_fc <- loss1/fc
I0403 19:46:11.871368  9650 net.cpp:386] loss1/drop_fc -> loss1/fc (in-place)
I0403 19:46:11.871433  9650 net.cpp:141] Setting up loss1/drop_fc
I0403 19:46:11.871482  9650 net.cpp:148] Top shape: 24 1024 (24576)
I0403 19:46:11.871505  9650 net.cpp:156] Memory required for data: 946189344
I0403 19:46:11.871526  9650 layer_factory.hpp:77] Creating layer loss1/classifier_plantvillage
I0403 19:46:11.871558  9650 net.cpp:91] Creating Layer loss1/classifier_plantvillage
I0403 19:46:11.871577  9650 net.cpp:425] loss1/classifier_plantvillage <- loss1/fc
I0403 19:46:11.871603  9650 net.cpp:399] loss1/classifier_plantvillage -> loss1/classifier_plantvillage
I0403 19:46:11.873167  9650 net.cpp:141] Setting up loss1/classifier_plantvillage
I0403 19:46:11.873257  9650 net.cpp:148] Top shape: 24 38 (912)
I0403 19:46:11.873303  9650 net.cpp:156] Memory required for data: 946192992
I0403 19:46:11.873353  9650 layer_factory.hpp:77] Creating layer loss1/classifier_plantvillage_loss1/classifier_plantvillage_0_split
I0403 19:46:11.873400  9650 net.cpp:91] Creating Layer loss1/classifier_plantvillage_loss1/classifier_plantvillage_0_split
I0403 19:46:11.873464  9650 net.cpp:425] loss1/classifier_plantvillage_loss1/classifier_plantvillage_0_split <- loss1/classifier_plantvillage
I0403 19:46:11.873515  9650 net.cpp:399] loss1/classifier_plantvillage_loss1/classifier_plantvillage_0_split -> loss1/classifier_plantvillage_loss1/classifier_plantvillage_0_split_0
I0403 19:46:11.873570  9650 net.cpp:399] loss1/classifier_plantvillage_loss1/classifier_plantvillage_0_split -> loss1/classifier_plantvillage_loss1/classifier_plantvillage_0_split_1
I0403 19:46:11.873622  9650 net.cpp:399] loss1/classifier_plantvillage_loss1/classifier_plantvillage_0_split -> loss1/classifier_plantvillage_loss1/classifier_plantvillage_0_split_2
I0403 19:46:11.873800  9650 net.cpp:141] Setting up loss1/classifier_plantvillage_loss1/classifier_plantvillage_0_split
I0403 19:46:11.873865  9650 net.cpp:148] Top shape: 24 38 (912)
I0403 19:46:11.873910  9650 net.cpp:148] Top shape: 24 38 (912)
I0403 19:46:11.873951  9650 net.cpp:148] Top shape: 24 38 (912)
I0403 19:46:11.873988  9650 net.cpp:156] Memory required for data: 946203936
I0403 19:46:11.874027  9650 layer_factory.hpp:77] Creating layer inception_4b/1x1
I0403 19:46:11.874080  9650 net.cpp:91] Creating Layer inception_4b/1x1
I0403 19:46:11.874171  9650 net.cpp:425] inception_4b/1x1 <- inception_4a/output_inception_4a/output_0_split_1
I0403 19:46:11.874225  9650 net.cpp:399] inception_4b/1x1 -> inception_4b/1x1
I0403 19:46:11.878461  9650 net.cpp:141] Setting up inception_4b/1x1
I0403 19:46:11.878538  9650 net.cpp:148] Top shape: 24 160 14 14 (752640)
I0403 19:46:11.878581  9650 net.cpp:156] Memory required for data: 949214496
I0403 19:46:11.878630  9650 layer_factory.hpp:77] Creating layer inception_4b/relu_1x1
I0403 19:46:11.878684  9650 net.cpp:91] Creating Layer inception_4b/relu_1x1
I0403 19:46:11.878726  9650 net.cpp:425] inception_4b/relu_1x1 <- inception_4b/1x1
I0403 19:46:11.878773  9650 net.cpp:386] inception_4b/relu_1x1 -> inception_4b/1x1 (in-place)
I0403 19:46:11.879253  9650 net.cpp:141] Setting up inception_4b/relu_1x1
I0403 19:46:11.879324  9650 net.cpp:148] Top shape: 24 160 14 14 (752640)
I0403 19:46:11.879366  9650 net.cpp:156] Memory required for data: 952225056
I0403 19:46:11.879406  9650 layer_factory.hpp:77] Creating layer inception_4b/3x3_reduce
I0403 19:46:11.879477  9650 net.cpp:91] Creating Layer inception_4b/3x3_reduce
I0403 19:46:11.879523  9650 net.cpp:425] inception_4b/3x3_reduce <- inception_4a/output_inception_4a/output_0_split_2
I0403 19:46:11.879575  9650 net.cpp:399] inception_4b/3x3_reduce -> inception_4b/3x3_reduce
I0403 19:46:11.882774  9650 net.cpp:141] Setting up inception_4b/3x3_reduce
I0403 19:46:11.882810  9650 net.cpp:148] Top shape: 24 112 14 14 (526848)
I0403 19:46:11.882830  9650 net.cpp:156] Memory required for data: 954332448
I0403 19:46:11.882853  9650 layer_factory.hpp:77] Creating layer inception_4b/relu_3x3_reduce
I0403 19:46:11.882880  9650 net.cpp:91] Creating Layer inception_4b/relu_3x3_reduce
I0403 19:46:11.882902  9650 net.cpp:425] inception_4b/relu_3x3_reduce <- inception_4b/3x3_reduce
I0403 19:46:11.882925  9650 net.cpp:386] inception_4b/relu_3x3_reduce -> inception_4b/3x3_reduce (in-place)
I0403 19:46:11.883266  9650 net.cpp:141] Setting up inception_4b/relu_3x3_reduce
I0403 19:46:11.883299  9650 net.cpp:148] Top shape: 24 112 14 14 (526848)
I0403 19:46:11.883318  9650 net.cpp:156] Memory required for data: 956439840
I0403 19:46:11.883337  9650 layer_factory.hpp:77] Creating layer inception_4b/3x3
I0403 19:46:11.883368  9650 net.cpp:91] Creating Layer inception_4b/3x3
I0403 19:46:11.883389  9650 net.cpp:425] inception_4b/3x3 <- inception_4b/3x3_reduce
I0403 19:46:11.883414  9650 net.cpp:399] inception_4b/3x3 -> inception_4b/3x3
I0403 19:46:11.887048  9650 net.cpp:141] Setting up inception_4b/3x3
I0403 19:46:11.887084  9650 net.cpp:148] Top shape: 24 224 14 14 (1053696)
I0403 19:46:11.887105  9650 net.cpp:156] Memory required for data: 960654624
I0403 19:46:11.887128  9650 layer_factory.hpp:77] Creating layer inception_4b/relu_3x3
I0403 19:46:11.887151  9650 net.cpp:91] Creating Layer inception_4b/relu_3x3
I0403 19:46:11.887181  9650 net.cpp:425] inception_4b/relu_3x3 <- inception_4b/3x3
I0403 19:46:11.887203  9650 net.cpp:386] inception_4b/relu_3x3 -> inception_4b/3x3 (in-place)
I0403 19:46:11.887420  9650 net.cpp:141] Setting up inception_4b/relu_3x3
I0403 19:46:11.887457  9650 net.cpp:148] Top shape: 24 224 14 14 (1053696)
I0403 19:46:11.887476  9650 net.cpp:156] Memory required for data: 964869408
I0403 19:46:11.887495  9650 layer_factory.hpp:77] Creating layer inception_4b/5x5_reduce
I0403 19:46:11.887522  9650 net.cpp:91] Creating Layer inception_4b/5x5_reduce
I0403 19:46:11.887545  9650 net.cpp:425] inception_4b/5x5_reduce <- inception_4a/output_inception_4a/output_0_split_3
I0403 19:46:11.887573  9650 net.cpp:399] inception_4b/5x5_reduce -> inception_4b/5x5_reduce
I0403 19:46:11.888900  9650 net.cpp:141] Setting up inception_4b/5x5_reduce
I0403 19:46:11.888934  9650 net.cpp:148] Top shape: 24 24 14 14 (112896)
I0403 19:46:11.888954  9650 net.cpp:156] Memory required for data: 965320992
I0403 19:46:11.888978  9650 layer_factory.hpp:77] Creating layer inception_4b/relu_5x5_reduce
I0403 19:46:11.889004  9650 net.cpp:91] Creating Layer inception_4b/relu_5x5_reduce
I0403 19:46:11.889045  9650 net.cpp:425] inception_4b/relu_5x5_reduce <- inception_4b/5x5_reduce
I0403 19:46:11.889067  9650 net.cpp:386] inception_4b/relu_5x5_reduce -> inception_4b/5x5_reduce (in-place)
I0403 19:46:11.889292  9650 net.cpp:141] Setting up inception_4b/relu_5x5_reduce
I0403 19:46:11.889324  9650 net.cpp:148] Top shape: 24 24 14 14 (112896)
I0403 19:46:11.889343  9650 net.cpp:156] Memory required for data: 965772576
I0403 19:46:11.889361  9650 layer_factory.hpp:77] Creating layer inception_4b/5x5
I0403 19:46:11.889394  9650 net.cpp:91] Creating Layer inception_4b/5x5
I0403 19:46:11.889418  9650 net.cpp:425] inception_4b/5x5 <- inception_4b/5x5_reduce
I0403 19:46:11.889451  9650 net.cpp:399] inception_4b/5x5 -> inception_4b/5x5
I0403 19:46:11.890964  9650 net.cpp:141] Setting up inception_4b/5x5
I0403 19:46:11.891000  9650 net.cpp:148] Top shape: 24 64 14 14 (301056)
I0403 19:46:11.891019  9650 net.cpp:156] Memory required for data: 966976800
I0403 19:46:11.891043  9650 layer_factory.hpp:77] Creating layer inception_4b/relu_5x5
I0403 19:46:11.891068  9650 net.cpp:91] Creating Layer inception_4b/relu_5x5
I0403 19:46:11.891090  9650 net.cpp:425] inception_4b/relu_5x5 <- inception_4b/5x5
I0403 19:46:11.891113  9650 net.cpp:386] inception_4b/relu_5x5 -> inception_4b/5x5 (in-place)
I0403 19:46:11.891472  9650 net.cpp:141] Setting up inception_4b/relu_5x5
I0403 19:46:11.891506  9650 net.cpp:148] Top shape: 24 64 14 14 (301056)
I0403 19:46:11.891525  9650 net.cpp:156] Memory required for data: 968181024
I0403 19:46:11.891546  9650 layer_factory.hpp:77] Creating layer inception_4b/pool
I0403 19:46:11.891571  9650 net.cpp:91] Creating Layer inception_4b/pool
I0403 19:46:11.891592  9650 net.cpp:425] inception_4b/pool <- inception_4a/output_inception_4a/output_0_split_4
I0403 19:46:11.891615  9650 net.cpp:399] inception_4b/pool -> inception_4b/pool
I0403 19:46:11.891698  9650 net.cpp:141] Setting up inception_4b/pool
I0403 19:46:11.891728  9650 net.cpp:148] Top shape: 24 512 14 14 (2408448)
I0403 19:46:11.891746  9650 net.cpp:156] Memory required for data: 977814816
I0403 19:46:11.891765  9650 layer_factory.hpp:77] Creating layer inception_4b/pool_proj
I0403 19:46:11.891793  9650 net.cpp:91] Creating Layer inception_4b/pool_proj
I0403 19:46:11.891816  9650 net.cpp:425] inception_4b/pool_proj <- inception_4b/pool
I0403 19:46:11.891842  9650 net.cpp:399] inception_4b/pool_proj -> inception_4b/pool_proj
I0403 19:46:11.893319  9650 net.cpp:141] Setting up inception_4b/pool_proj
I0403 19:46:11.893354  9650 net.cpp:148] Top shape: 24 64 14 14 (301056)
I0403 19:46:11.893373  9650 net.cpp:156] Memory required for data: 979019040
I0403 19:46:11.893396  9650 layer_factory.hpp:77] Creating layer inception_4b/relu_pool_proj
I0403 19:46:11.893431  9650 net.cpp:91] Creating Layer inception_4b/relu_pool_proj
I0403 19:46:11.893453  9650 net.cpp:425] inception_4b/relu_pool_proj <- inception_4b/pool_proj
I0403 19:46:11.893476  9650 net.cpp:386] inception_4b/relu_pool_proj -> inception_4b/pool_proj (in-place)
I0403 19:46:11.893702  9650 net.cpp:141] Setting up inception_4b/relu_pool_proj
I0403 19:46:11.893735  9650 net.cpp:148] Top shape: 24 64 14 14 (301056)
I0403 19:46:11.893756  9650 net.cpp:156] Memory required for data: 980223264
I0403 19:46:11.893776  9650 layer_factory.hpp:77] Creating layer inception_4b/output
I0403 19:46:11.893798  9650 net.cpp:91] Creating Layer inception_4b/output
I0403 19:46:11.893818  9650 net.cpp:425] inception_4b/output <- inception_4b/1x1
I0403 19:46:11.893839  9650 net.cpp:425] inception_4b/output <- inception_4b/3x3
I0403 19:46:11.893859  9650 net.cpp:425] inception_4b/output <- inception_4b/5x5
I0403 19:46:11.893879  9650 net.cpp:425] inception_4b/output <- inception_4b/pool_proj
I0403 19:46:11.893903  9650 net.cpp:399] inception_4b/output -> inception_4b/output
I0403 19:46:11.893957  9650 net.cpp:141] Setting up inception_4b/output
I0403 19:46:11.893986  9650 net.cpp:148] Top shape: 24 512 14 14 (2408448)
I0403 19:46:11.894006  9650 net.cpp:156] Memory required for data: 989857056
I0403 19:46:11.894042  9650 layer_factory.hpp:77] Creating layer inception_4b/output_inception_4b/output_0_split
I0403 19:46:11.894069  9650 net.cpp:91] Creating Layer inception_4b/output_inception_4b/output_0_split
I0403 19:46:11.894090  9650 net.cpp:425] inception_4b/output_inception_4b/output_0_split <- inception_4b/output
I0403 19:46:11.894112  9650 net.cpp:399] inception_4b/output_inception_4b/output_0_split -> inception_4b/output_inception_4b/output_0_split_0
I0403 19:46:11.894137  9650 net.cpp:399] inception_4b/output_inception_4b/output_0_split -> inception_4b/output_inception_4b/output_0_split_1
I0403 19:46:11.894167  9650 net.cpp:399] inception_4b/output_inception_4b/output_0_split -> inception_4b/output_inception_4b/output_0_split_2
I0403 19:46:11.894193  9650 net.cpp:399] inception_4b/output_inception_4b/output_0_split -> inception_4b/output_inception_4b/output_0_split_3
I0403 19:46:11.894295  9650 net.cpp:141] Setting up inception_4b/output_inception_4b/output_0_split
I0403 19:46:11.894325  9650 net.cpp:148] Top shape: 24 512 14 14 (2408448)
I0403 19:46:11.894345  9650 net.cpp:148] Top shape: 24 512 14 14 (2408448)
I0403 19:46:11.894366  9650 net.cpp:148] Top shape: 24 512 14 14 (2408448)
I0403 19:46:11.894386  9650 net.cpp:148] Top shape: 24 512 14 14 (2408448)
I0403 19:46:11.894402  9650 net.cpp:156] Memory required for data: 1028392224
I0403 19:46:11.894421  9650 layer_factory.hpp:77] Creating layer inception_4c/1x1
I0403 19:46:11.894456  9650 net.cpp:91] Creating Layer inception_4c/1x1
I0403 19:46:11.894479  9650 net.cpp:425] inception_4c/1x1 <- inception_4b/output_inception_4b/output_0_split_0
I0403 19:46:11.894505  9650 net.cpp:399] inception_4c/1x1 -> inception_4c/1x1
I0403 19:46:11.896260  9650 net.cpp:141] Setting up inception_4c/1x1
I0403 19:46:11.896301  9650 net.cpp:148] Top shape: 24 128 14 14 (602112)
I0403 19:46:11.896322  9650 net.cpp:156] Memory required for data: 1030800672
I0403 19:46:11.896345  9650 layer_factory.hpp:77] Creating layer inception_4c/relu_1x1
I0403 19:46:11.896368  9650 net.cpp:91] Creating Layer inception_4c/relu_1x1
I0403 19:46:11.896389  9650 net.cpp:425] inception_4c/relu_1x1 <- inception_4c/1x1
I0403 19:46:11.896414  9650 net.cpp:386] inception_4c/relu_1x1 -> inception_4c/1x1 (in-place)
I0403 19:46:11.896643  9650 net.cpp:141] Setting up inception_4c/relu_1x1
I0403 19:46:11.896675  9650 net.cpp:148] Top shape: 24 128 14 14 (602112)
I0403 19:46:11.896694  9650 net.cpp:156] Memory required for data: 1033209120
I0403 19:46:11.896713  9650 layer_factory.hpp:77] Creating layer inception_4c/3x3_reduce
I0403 19:46:11.896740  9650 net.cpp:91] Creating Layer inception_4c/3x3_reduce
I0403 19:46:11.896764  9650 net.cpp:425] inception_4c/3x3_reduce <- inception_4b/output_inception_4b/output_0_split_1
I0403 19:46:11.896792  9650 net.cpp:399] inception_4c/3x3_reduce -> inception_4c/3x3_reduce
I0403 19:46:11.899164  9650 net.cpp:141] Setting up inception_4c/3x3_reduce
I0403 19:46:11.899200  9650 net.cpp:148] Top shape: 24 128 14 14 (602112)
I0403 19:46:11.899220  9650 net.cpp:156] Memory required for data: 1035617568
I0403 19:46:11.899245  9650 layer_factory.hpp:77] Creating layer inception_4c/relu_3x3_reduce
I0403 19:46:11.899269  9650 net.cpp:91] Creating Layer inception_4c/relu_3x3_reduce
I0403 19:46:11.899291  9650 net.cpp:425] inception_4c/relu_3x3_reduce <- inception_4c/3x3_reduce
I0403 19:46:11.899314  9650 net.cpp:386] inception_4c/relu_3x3_reduce -> inception_4c/3x3_reduce (in-place)
I0403 19:46:11.899675  9650 net.cpp:141] Setting up inception_4c/relu_3x3_reduce
I0403 19:46:11.899708  9650 net.cpp:148] Top shape: 24 128 14 14 (602112)
I0403 19:46:11.899729  9650 net.cpp:156] Memory required for data: 1038026016
I0403 19:46:11.899747  9650 layer_factory.hpp:77] Creating layer inception_4c/3x3
I0403 19:46:11.899775  9650 net.cpp:91] Creating Layer inception_4c/3x3
I0403 19:46:11.899798  9650 net.cpp:425] inception_4c/3x3 <- inception_4c/3x3_reduce
I0403 19:46:11.899827  9650 net.cpp:399] inception_4c/3x3 -> inception_4c/3x3
I0403 19:46:11.904224  9650 net.cpp:141] Setting up inception_4c/3x3
I0403 19:46:11.904275  9650 net.cpp:148] Top shape: 24 256 14 14 (1204224)
I0403 19:46:11.904296  9650 net.cpp:156] Memory required for data: 1042842912
I0403 19:46:11.904335  9650 layer_factory.hpp:77] Creating layer inception_4c/relu_3x3
I0403 19:46:11.904363  9650 net.cpp:91] Creating Layer inception_4c/relu_3x3
I0403 19:46:11.904384  9650 net.cpp:425] inception_4c/relu_3x3 <- inception_4c/3x3
I0403 19:46:11.904407  9650 net.cpp:386] inception_4c/relu_3x3 -> inception_4c/3x3 (in-place)
I0403 19:46:11.904639  9650 net.cpp:141] Setting up inception_4c/relu_3x3
I0403 19:46:11.904671  9650 net.cpp:148] Top shape: 24 256 14 14 (1204224)
I0403 19:46:11.904690  9650 net.cpp:156] Memory required for data: 1047659808
I0403 19:46:11.904708  9650 layer_factory.hpp:77] Creating layer inception_4c/5x5_reduce
I0403 19:46:11.904741  9650 net.cpp:91] Creating Layer inception_4c/5x5_reduce
I0403 19:46:11.904763  9650 net.cpp:425] inception_4c/5x5_reduce <- inception_4b/output_inception_4b/output_0_split_2
I0403 19:46:11.904788  9650 net.cpp:399] inception_4c/5x5_reduce -> inception_4c/5x5_reduce
I0403 19:46:11.906133  9650 net.cpp:141] Setting up inception_4c/5x5_reduce
I0403 19:46:11.906168  9650 net.cpp:148] Top shape: 24 24 14 14 (112896)
I0403 19:46:11.906189  9650 net.cpp:156] Memory required for data: 1048111392
I0403 19:46:11.906213  9650 layer_factory.hpp:77] Creating layer inception_4c/relu_5x5_reduce
I0403 19:46:11.906237  9650 net.cpp:91] Creating Layer inception_4c/relu_5x5_reduce
I0403 19:46:11.906260  9650 net.cpp:425] inception_4c/relu_5x5_reduce <- inception_4c/5x5_reduce
I0403 19:46:11.906283  9650 net.cpp:386] inception_4c/relu_5x5_reduce -> inception_4c/5x5_reduce (in-place)
I0403 19:46:11.906517  9650 net.cpp:141] Setting up inception_4c/relu_5x5_reduce
I0403 19:46:11.906559  9650 net.cpp:148] Top shape: 24 24 14 14 (112896)
I0403 19:46:11.906579  9650 net.cpp:156] Memory required for data: 1048562976
I0403 19:46:11.906599  9650 layer_factory.hpp:77] Creating layer inception_4c/5x5
I0403 19:46:11.906627  9650 net.cpp:91] Creating Layer inception_4c/5x5
I0403 19:46:11.906651  9650 net.cpp:425] inception_4c/5x5 <- inception_4c/5x5_reduce
I0403 19:46:11.906677  9650 net.cpp:399] inception_4c/5x5 -> inception_4c/5x5
I0403 19:46:11.908210  9650 net.cpp:141] Setting up inception_4c/5x5
I0403 19:46:11.908248  9650 net.cpp:148] Top shape: 24 64 14 14 (301056)
I0403 19:46:11.908270  9650 net.cpp:156] Memory required for data: 1049767200
I0403 19:46:11.908294  9650 layer_factory.hpp:77] Creating layer inception_4c/relu_5x5
I0403 19:46:11.908316  9650 net.cpp:91] Creating Layer inception_4c/relu_5x5
I0403 19:46:11.908336  9650 net.cpp:425] inception_4c/relu_5x5 <- inception_4c/5x5
I0403 19:46:11.908361  9650 net.cpp:386] inception_4c/relu_5x5 -> inception_4c/5x5 (in-place)
I0403 19:46:11.908721  9650 net.cpp:141] Setting up inception_4c/relu_5x5
I0403 19:46:11.908757  9650 net.cpp:148] Top shape: 24 64 14 14 (301056)
I0403 19:46:11.908778  9650 net.cpp:156] Memory required for data: 1050971424
I0403 19:46:11.908797  9650 layer_factory.hpp:77] Creating layer inception_4c/pool
I0403 19:46:11.908818  9650 net.cpp:91] Creating Layer inception_4c/pool
I0403 19:46:11.908838  9650 net.cpp:425] inception_4c/pool <- inception_4b/output_inception_4b/output_0_split_3
I0403 19:46:11.908869  9650 net.cpp:399] inception_4c/pool -> inception_4c/pool
I0403 19:46:11.908951  9650 net.cpp:141] Setting up inception_4c/pool
I0403 19:46:11.908982  9650 net.cpp:148] Top shape: 24 512 14 14 (2408448)
I0403 19:46:11.908999  9650 net.cpp:156] Memory required for data: 1060605216
I0403 19:46:11.909018  9650 layer_factory.hpp:77] Creating layer inception_4c/pool_proj
I0403 19:46:11.909045  9650 net.cpp:91] Creating Layer inception_4c/pool_proj
I0403 19:46:11.909068  9650 net.cpp:425] inception_4c/pool_proj <- inception_4c/pool
I0403 19:46:11.909095  9650 net.cpp:399] inception_4c/pool_proj -> inception_4c/pool_proj
I0403 19:46:11.910595  9650 net.cpp:141] Setting up inception_4c/pool_proj
I0403 19:46:11.910630  9650 net.cpp:148] Top shape: 24 64 14 14 (301056)
I0403 19:46:11.910666  9650 net.cpp:156] Memory required for data: 1061809440
I0403 19:46:11.910691  9650 layer_factory.hpp:77] Creating layer inception_4c/relu_pool_proj
I0403 19:46:11.910717  9650 net.cpp:91] Creating Layer inception_4c/relu_pool_proj
I0403 19:46:11.910740  9650 net.cpp:425] inception_4c/relu_pool_proj <- inception_4c/pool_proj
I0403 19:46:11.910763  9650 net.cpp:386] inception_4c/relu_pool_proj -> inception_4c/pool_proj (in-place)
I0403 19:46:11.910989  9650 net.cpp:141] Setting up inception_4c/relu_pool_proj
I0403 19:46:11.911023  9650 net.cpp:148] Top shape: 24 64 14 14 (301056)
I0403 19:46:11.911043  9650 net.cpp:156] Memory required for data: 1063013664
I0403 19:46:11.911062  9650 layer_factory.hpp:77] Creating layer inception_4c/output
I0403 19:46:11.911083  9650 net.cpp:91] Creating Layer inception_4c/output
I0403 19:46:11.911103  9650 net.cpp:425] inception_4c/output <- inception_4c/1x1
I0403 19:46:11.911124  9650 net.cpp:425] inception_4c/output <- inception_4c/3x3
I0403 19:46:11.911144  9650 net.cpp:425] inception_4c/output <- inception_4c/5x5
I0403 19:46:11.911164  9650 net.cpp:425] inception_4c/output <- inception_4c/pool_proj
I0403 19:46:11.911187  9650 net.cpp:399] inception_4c/output -> inception_4c/output
I0403 19:46:11.911245  9650 net.cpp:141] Setting up inception_4c/output
I0403 19:46:11.911275  9650 net.cpp:148] Top shape: 24 512 14 14 (2408448)
I0403 19:46:11.911294  9650 net.cpp:156] Memory required for data: 1072647456
I0403 19:46:11.911312  9650 layer_factory.hpp:77] Creating layer inception_4c/output_inception_4c/output_0_split
I0403 19:46:11.911337  9650 net.cpp:91] Creating Layer inception_4c/output_inception_4c/output_0_split
I0403 19:46:11.911358  9650 net.cpp:425] inception_4c/output_inception_4c/output_0_split <- inception_4c/output
I0403 19:46:11.911381  9650 net.cpp:399] inception_4c/output_inception_4c/output_0_split -> inception_4c/output_inception_4c/output_0_split_0
I0403 19:46:11.911406  9650 net.cpp:399] inception_4c/output_inception_4c/output_0_split -> inception_4c/output_inception_4c/output_0_split_1
I0403 19:46:11.911439  9650 net.cpp:399] inception_4c/output_inception_4c/output_0_split -> inception_4c/output_inception_4c/output_0_split_2
I0403 19:46:11.911469  9650 net.cpp:399] inception_4c/output_inception_4c/output_0_split -> inception_4c/output_inception_4c/output_0_split_3
I0403 19:46:11.911576  9650 net.cpp:141] Setting up inception_4c/output_inception_4c/output_0_split
I0403 19:46:11.911605  9650 net.cpp:148] Top shape: 24 512 14 14 (2408448)
I0403 19:46:11.911626  9650 net.cpp:148] Top shape: 24 512 14 14 (2408448)
I0403 19:46:11.911648  9650 net.cpp:148] Top shape: 24 512 14 14 (2408448)
I0403 19:46:11.911667  9650 net.cpp:148] Top shape: 24 512 14 14 (2408448)
I0403 19:46:11.911685  9650 net.cpp:156] Memory required for data: 1111182624
I0403 19:46:11.911702  9650 layer_factory.hpp:77] Creating layer inception_4d/1x1
I0403 19:46:11.911730  9650 net.cpp:91] Creating Layer inception_4d/1x1
I0403 19:46:11.911761  9650 net.cpp:425] inception_4d/1x1 <- inception_4c/output_inception_4c/output_0_split_0
I0403 19:46:11.911788  9650 net.cpp:399] inception_4d/1x1 -> inception_4d/1x1
I0403 19:46:11.913504  9650 net.cpp:141] Setting up inception_4d/1x1
I0403 19:46:11.913540  9650 net.cpp:148] Top shape: 24 112 14 14 (526848)
I0403 19:46:11.913560  9650 net.cpp:156] Memory required for data: 1113290016
I0403 19:46:11.913583  9650 layer_factory.hpp:77] Creating layer inception_4d/relu_1x1
I0403 19:46:11.913607  9650 net.cpp:91] Creating Layer inception_4d/relu_1x1
I0403 19:46:11.913630  9650 net.cpp:425] inception_4d/relu_1x1 <- inception_4d/1x1
I0403 19:46:11.913652  9650 net.cpp:386] inception_4d/relu_1x1 -> inception_4d/1x1 (in-place)
I0403 19:46:11.913883  9650 net.cpp:141] Setting up inception_4d/relu_1x1
I0403 19:46:11.913914  9650 net.cpp:148] Top shape: 24 112 14 14 (526848)
I0403 19:46:11.913933  9650 net.cpp:156] Memory required for data: 1115397408
I0403 19:46:11.913952  9650 layer_factory.hpp:77] Creating layer inception_4d/3x3_reduce
I0403 19:46:11.913997  9650 net.cpp:91] Creating Layer inception_4d/3x3_reduce
I0403 19:46:11.914024  9650 net.cpp:425] inception_4d/3x3_reduce <- inception_4c/output_inception_4c/output_0_split_1
I0403 19:46:11.914048  9650 net.cpp:399] inception_4d/3x3_reduce -> inception_4d/3x3_reduce
I0403 19:46:11.915905  9650 net.cpp:141] Setting up inception_4d/3x3_reduce
I0403 19:46:11.915940  9650 net.cpp:148] Top shape: 24 144 14 14 (677376)
I0403 19:46:11.915961  9650 net.cpp:156] Memory required for data: 1118106912
I0403 19:46:11.915983  9650 layer_factory.hpp:77] Creating layer inception_4d/relu_3x3_reduce
I0403 19:46:11.916007  9650 net.cpp:91] Creating Layer inception_4d/relu_3x3_reduce
I0403 19:46:11.916026  9650 net.cpp:425] inception_4d/relu_3x3_reduce <- inception_4d/3x3_reduce
I0403 19:46:11.916051  9650 net.cpp:386] inception_4d/relu_3x3_reduce -> inception_4d/3x3_reduce (in-place)
I0403 19:46:11.916406  9650 net.cpp:141] Setting up inception_4d/relu_3x3_reduce
I0403 19:46:11.916445  9650 net.cpp:148] Top shape: 24 144 14 14 (677376)
I0403 19:46:11.916465  9650 net.cpp:156] Memory required for data: 1120816416
I0403 19:46:11.916486  9650 layer_factory.hpp:77] Creating layer inception_4d/3x3
I0403 19:46:11.916513  9650 net.cpp:91] Creating Layer inception_4d/3x3
I0403 19:46:11.916537  9650 net.cpp:425] inception_4d/3x3 <- inception_4d/3x3_reduce
I0403 19:46:11.916564  9650 net.cpp:399] inception_4d/3x3 -> inception_4d/3x3
I0403 19:46:11.921846  9650 net.cpp:141] Setting up inception_4d/3x3
I0403 19:46:11.921883  9650 net.cpp:148] Top shape: 24 288 14 14 (1354752)
I0403 19:46:11.921905  9650 net.cpp:156] Memory required for data: 1126235424
I0403 19:46:11.921928  9650 layer_factory.hpp:77] Creating layer inception_4d/relu_3x3
I0403 19:46:11.921953  9650 net.cpp:91] Creating Layer inception_4d/relu_3x3
I0403 19:46:11.921975  9650 net.cpp:425] inception_4d/relu_3x3 <- inception_4d/3x3
I0403 19:46:11.921998  9650 net.cpp:386] inception_4d/relu_3x3 -> inception_4d/3x3 (in-place)
I0403 19:46:11.922224  9650 net.cpp:141] Setting up inception_4d/relu_3x3
I0403 19:46:11.922260  9650 net.cpp:148] Top shape: 24 288 14 14 (1354752)
I0403 19:46:11.922279  9650 net.cpp:156] Memory required for data: 1131654432
I0403 19:46:11.922300  9650 layer_factory.hpp:77] Creating layer inception_4d/5x5_reduce
I0403 19:46:11.922325  9650 net.cpp:91] Creating Layer inception_4d/5x5_reduce
I0403 19:46:11.922346  9650 net.cpp:425] inception_4d/5x5_reduce <- inception_4c/output_inception_4c/output_0_split_2
I0403 19:46:11.922372  9650 net.cpp:399] inception_4d/5x5_reduce -> inception_4d/5x5_reduce
I0403 19:46:11.923813  9650 net.cpp:141] Setting up inception_4d/5x5_reduce
I0403 19:46:11.923849  9650 net.cpp:148] Top shape: 24 32 14 14 (150528)
I0403 19:46:11.923869  9650 net.cpp:156] Memory required for data: 1132256544
I0403 19:46:11.923892  9650 layer_factory.hpp:77] Creating layer inception_4d/relu_5x5_reduce
I0403 19:46:11.923918  9650 net.cpp:91] Creating Layer inception_4d/relu_5x5_reduce
I0403 19:46:11.923938  9650 net.cpp:425] inception_4d/relu_5x5_reduce <- inception_4d/5x5_reduce
I0403 19:46:11.923961  9650 net.cpp:386] inception_4d/relu_5x5_reduce -> inception_4d/5x5_reduce (in-place)
I0403 19:46:11.924197  9650 net.cpp:141] Setting up inception_4d/relu_5x5_reduce
I0403 19:46:11.924231  9650 net.cpp:148] Top shape: 24 32 14 14 (150528)
I0403 19:46:11.924252  9650 net.cpp:156] Memory required for data: 1132858656
I0403 19:46:11.924270  9650 layer_factory.hpp:77] Creating layer inception_4d/5x5
I0403 19:46:11.924300  9650 net.cpp:91] Creating Layer inception_4d/5x5
I0403 19:46:11.924322  9650 net.cpp:425] inception_4d/5x5 <- inception_4d/5x5_reduce
I0403 19:46:11.924347  9650 net.cpp:399] inception_4d/5x5 -> inception_4d/5x5
I0403 19:46:11.926148  9650 net.cpp:141] Setting up inception_4d/5x5
I0403 19:46:11.926183  9650 net.cpp:148] Top shape: 24 64 14 14 (301056)
I0403 19:46:11.926203  9650 net.cpp:156] Memory required for data: 1134062880
I0403 19:46:11.926231  9650 layer_factory.hpp:77] Creating layer inception_4d/relu_5x5
I0403 19:46:11.926275  9650 net.cpp:91] Creating Layer inception_4d/relu_5x5
I0403 19:46:11.926296  9650 net.cpp:425] inception_4d/relu_5x5 <- inception_4d/5x5
I0403 19:46:11.926318  9650 net.cpp:386] inception_4d/relu_5x5 -> inception_4d/5x5 (in-place)
I0403 19:46:11.926692  9650 net.cpp:141] Setting up inception_4d/relu_5x5
I0403 19:46:11.926724  9650 net.cpp:148] Top shape: 24 64 14 14 (301056)
I0403 19:46:11.926744  9650 net.cpp:156] Memory required for data: 1135267104
I0403 19:46:11.926764  9650 layer_factory.hpp:77] Creating layer inception_4d/pool
I0403 19:46:11.926791  9650 net.cpp:91] Creating Layer inception_4d/pool
I0403 19:46:11.926813  9650 net.cpp:425] inception_4d/pool <- inception_4c/output_inception_4c/output_0_split_3
I0403 19:46:11.926838  9650 net.cpp:399] inception_4d/pool -> inception_4d/pool
I0403 19:46:11.926919  9650 net.cpp:141] Setting up inception_4d/pool
I0403 19:46:11.926950  9650 net.cpp:148] Top shape: 24 512 14 14 (2408448)
I0403 19:46:11.926969  9650 net.cpp:156] Memory required for data: 1144900896
I0403 19:46:11.926988  9650 layer_factory.hpp:77] Creating layer inception_4d/pool_proj
I0403 19:46:11.927016  9650 net.cpp:91] Creating Layer inception_4d/pool_proj
I0403 19:46:11.927039  9650 net.cpp:425] inception_4d/pool_proj <- inception_4d/pool
I0403 19:46:11.927067  9650 net.cpp:399] inception_4d/pool_proj -> inception_4d/pool_proj
I0403 19:46:11.929214  9650 net.cpp:141] Setting up inception_4d/pool_proj
I0403 19:46:11.929250  9650 net.cpp:148] Top shape: 24 64 14 14 (301056)
I0403 19:46:11.929271  9650 net.cpp:156] Memory required for data: 1146105120
I0403 19:46:11.929296  9650 layer_factory.hpp:77] Creating layer inception_4d/relu_pool_proj
I0403 19:46:11.929321  9650 net.cpp:91] Creating Layer inception_4d/relu_pool_proj
I0403 19:46:11.929342  9650 net.cpp:425] inception_4d/relu_pool_proj <- inception_4d/pool_proj
I0403 19:46:11.929364  9650 net.cpp:386] inception_4d/relu_pool_proj -> inception_4d/pool_proj (in-place)
I0403 19:46:11.929600  9650 net.cpp:141] Setting up inception_4d/relu_pool_proj
I0403 19:46:11.929636  9650 net.cpp:148] Top shape: 24 64 14 14 (301056)
I0403 19:46:11.929656  9650 net.cpp:156] Memory required for data: 1147309344
I0403 19:46:11.929675  9650 layer_factory.hpp:77] Creating layer inception_4d/output
I0403 19:46:11.929697  9650 net.cpp:91] Creating Layer inception_4d/output
I0403 19:46:11.929716  9650 net.cpp:425] inception_4d/output <- inception_4d/1x1
I0403 19:46:11.929738  9650 net.cpp:425] inception_4d/output <- inception_4d/3x3
I0403 19:46:11.929759  9650 net.cpp:425] inception_4d/output <- inception_4d/5x5
I0403 19:46:11.929780  9650 net.cpp:425] inception_4d/output <- inception_4d/pool_proj
I0403 19:46:11.929801  9650 net.cpp:399] inception_4d/output -> inception_4d/output
I0403 19:46:11.929862  9650 net.cpp:141] Setting up inception_4d/output
I0403 19:46:11.929891  9650 net.cpp:148] Top shape: 24 528 14 14 (2483712)
I0403 19:46:11.929910  9650 net.cpp:156] Memory required for data: 1157244192
I0403 19:46:11.929929  9650 layer_factory.hpp:77] Creating layer inception_4d/output_inception_4d/output_0_split
I0403 19:46:11.929951  9650 net.cpp:91] Creating Layer inception_4d/output_inception_4d/output_0_split
I0403 19:46:11.929975  9650 net.cpp:425] inception_4d/output_inception_4d/output_0_split <- inception_4d/output
I0403 19:46:11.929998  9650 net.cpp:399] inception_4d/output_inception_4d/output_0_split -> inception_4d/output_inception_4d/output_0_split_0
I0403 19:46:11.930023  9650 net.cpp:399] inception_4d/output_inception_4d/output_0_split -> inception_4d/output_inception_4d/output_0_split_1
I0403 19:46:11.930049  9650 net.cpp:399] inception_4d/output_inception_4d/output_0_split -> inception_4d/output_inception_4d/output_0_split_2
I0403 19:46:11.930078  9650 net.cpp:399] inception_4d/output_inception_4d/output_0_split -> inception_4d/output_inception_4d/output_0_split_3
I0403 19:46:11.930105  9650 net.cpp:399] inception_4d/output_inception_4d/output_0_split -> inception_4d/output_inception_4d/output_0_split_4
I0403 19:46:11.930234  9650 net.cpp:141] Setting up inception_4d/output_inception_4d/output_0_split
I0403 19:46:11.930279  9650 net.cpp:148] Top shape: 24 528 14 14 (2483712)
I0403 19:46:11.930300  9650 net.cpp:148] Top shape: 24 528 14 14 (2483712)
I0403 19:46:11.930320  9650 net.cpp:148] Top shape: 24 528 14 14 (2483712)
I0403 19:46:11.930341  9650 net.cpp:148] Top shape: 24 528 14 14 (2483712)
I0403 19:46:11.930361  9650 net.cpp:148] Top shape: 24 528 14 14 (2483712)
I0403 19:46:11.930378  9650 net.cpp:156] Memory required for data: 1206918432
I0403 19:46:11.930397  9650 layer_factory.hpp:77] Creating layer loss2/ave_pool
I0403 19:46:11.930418  9650 net.cpp:91] Creating Layer loss2/ave_pool
I0403 19:46:11.930445  9650 net.cpp:425] loss2/ave_pool <- inception_4d/output_inception_4d/output_0_split_0
I0403 19:46:11.930471  9650 net.cpp:399] loss2/ave_pool -> loss2/ave_pool
I0403 19:46:11.930850  9650 net.cpp:141] Setting up loss2/ave_pool
I0403 19:46:11.930884  9650 net.cpp:148] Top shape: 24 528 4 4 (202752)
I0403 19:46:11.930904  9650 net.cpp:156] Memory required for data: 1207729440
I0403 19:46:11.930923  9650 layer_factory.hpp:77] Creating layer loss2/conv
I0403 19:46:11.930953  9650 net.cpp:91] Creating Layer loss2/conv
I0403 19:46:11.930975  9650 net.cpp:425] loss2/conv <- loss2/ave_pool
I0403 19:46:11.931002  9650 net.cpp:399] loss2/conv -> loss2/conv
I0403 19:46:11.933328  9650 net.cpp:141] Setting up loss2/conv
I0403 19:46:11.933367  9650 net.cpp:148] Top shape: 24 128 4 4 (49152)
I0403 19:46:11.933388  9650 net.cpp:156] Memory required for data: 1207926048
I0403 19:46:11.933413  9650 layer_factory.hpp:77] Creating layer loss2/relu_conv
I0403 19:46:11.933439  9650 net.cpp:91] Creating Layer loss2/relu_conv
I0403 19:46:11.933462  9650 net.cpp:425] loss2/relu_conv <- loss2/conv
I0403 19:46:11.933485  9650 net.cpp:386] loss2/relu_conv -> loss2/conv (in-place)
I0403 19:46:11.933833  9650 net.cpp:141] Setting up loss2/relu_conv
I0403 19:46:11.933869  9650 net.cpp:148] Top shape: 24 128 4 4 (49152)
I0403 19:46:11.933890  9650 net.cpp:156] Memory required for data: 1208122656
I0403 19:46:11.933909  9650 layer_factory.hpp:77] Creating layer loss2/fc
I0403 19:46:11.933933  9650 net.cpp:91] Creating Layer loss2/fc
I0403 19:46:11.933954  9650 net.cpp:425] loss2/fc <- loss2/conv
I0403 19:46:11.933980  9650 net.cpp:399] loss2/fc -> loss2/fc
I0403 19:46:11.955775  9650 net.cpp:141] Setting up loss2/fc
I0403 19:46:11.955816  9650 net.cpp:148] Top shape: 24 1024 (24576)
I0403 19:46:11.955835  9650 net.cpp:156] Memory required for data: 1208220960
I0403 19:46:11.955858  9650 layer_factory.hpp:77] Creating layer loss2/relu_fc
I0403 19:46:11.955884  9650 net.cpp:91] Creating Layer loss2/relu_fc
I0403 19:46:11.955905  9650 net.cpp:425] loss2/relu_fc <- loss2/fc
I0403 19:46:11.955929  9650 net.cpp:386] loss2/relu_fc -> loss2/fc (in-place)
I0403 19:46:11.956295  9650 net.cpp:141] Setting up loss2/relu_fc
I0403 19:46:11.956328  9650 net.cpp:148] Top shape: 24 1024 (24576)
I0403 19:46:11.956347  9650 net.cpp:156] Memory required for data: 1208319264
I0403 19:46:11.956367  9650 layer_factory.hpp:77] Creating layer loss2/drop_fc
I0403 19:46:11.956393  9650 net.cpp:91] Creating Layer loss2/drop_fc
I0403 19:46:11.956413  9650 net.cpp:425] loss2/drop_fc <- loss2/fc
I0403 19:46:11.956441  9650 net.cpp:386] loss2/drop_fc -> loss2/fc (in-place)
I0403 19:46:11.956506  9650 net.cpp:141] Setting up loss2/drop_fc
I0403 19:46:11.956535  9650 net.cpp:148] Top shape: 24 1024 (24576)
I0403 19:46:11.956554  9650 net.cpp:156] Memory required for data: 1208417568
I0403 19:46:11.956574  9650 layer_factory.hpp:77] Creating layer loss2/classifier_plantvillage
I0403 19:46:11.956596  9650 net.cpp:91] Creating Layer loss2/classifier_plantvillage
I0403 19:46:11.956616  9650 net.cpp:425] loss2/classifier_plantvillage <- loss2/fc
I0403 19:46:11.956641  9650 net.cpp:399] loss2/classifier_plantvillage -> loss2/classifier_plantvillage
I0403 19:46:11.957139  9650 net.cpp:141] Setting up loss2/classifier_plantvillage
I0403 19:46:11.957170  9650 net.cpp:148] Top shape: 24 38 (912)
I0403 19:46:11.957188  9650 net.cpp:156] Memory required for data: 1208421216
I0403 19:46:11.957232  9650 layer_factory.hpp:77] Creating layer loss2/classifier_plantvillage_loss2/classifier_plantvillage_0_split
I0403 19:46:11.957257  9650 net.cpp:91] Creating Layer loss2/classifier_plantvillage_loss2/classifier_plantvillage_0_split
I0403 19:46:11.957278  9650 net.cpp:425] loss2/classifier_plantvillage_loss2/classifier_plantvillage_0_split <- loss2/classifier_plantvillage
I0403 19:46:11.957301  9650 net.cpp:399] loss2/classifier_plantvillage_loss2/classifier_plantvillage_0_split -> loss2/classifier_plantvillage_loss2/classifier_plantvillage_0_split_0
I0403 19:46:11.957329  9650 net.cpp:399] loss2/classifier_plantvillage_loss2/classifier_plantvillage_0_split -> loss2/classifier_plantvillage_loss2/classifier_plantvillage_0_split_1
I0403 19:46:11.957356  9650 net.cpp:399] loss2/classifier_plantvillage_loss2/classifier_plantvillage_0_split -> loss2/classifier_plantvillage_loss2/classifier_plantvillage_0_split_2
I0403 19:46:11.957458  9650 net.cpp:141] Setting up loss2/classifier_plantvillage_loss2/classifier_plantvillage_0_split
I0403 19:46:11.957490  9650 net.cpp:148] Top shape: 24 38 (912)
I0403 19:46:11.957511  9650 net.cpp:148] Top shape: 24 38 (912)
I0403 19:46:11.957531  9650 net.cpp:148] Top shape: 24 38 (912)
I0403 19:46:11.957550  9650 net.cpp:156] Memory required for data: 1208432160
I0403 19:46:11.957567  9650 layer_factory.hpp:77] Creating layer inception_4e/1x1
I0403 19:46:11.957592  9650 net.cpp:91] Creating Layer inception_4e/1x1
I0403 19:46:11.957613  9650 net.cpp:425] inception_4e/1x1 <- inception_4d/output_inception_4d/output_0_split_1
I0403 19:46:11.957640  9650 net.cpp:399] inception_4e/1x1 -> inception_4e/1x1
I0403 19:46:11.959877  9650 net.cpp:141] Setting up inception_4e/1x1
I0403 19:46:11.959914  9650 net.cpp:148] Top shape: 24 256 14 14 (1204224)
I0403 19:46:11.959935  9650 net.cpp:156] Memory required for data: 1213249056
I0403 19:46:11.959959  9650 layer_factory.hpp:77] Creating layer inception_4e/relu_1x1
I0403 19:46:11.959980  9650 net.cpp:91] Creating Layer inception_4e/relu_1x1
I0403 19:46:11.960000  9650 net.cpp:425] inception_4e/relu_1x1 <- inception_4e/1x1
I0403 19:46:11.960026  9650 net.cpp:386] inception_4e/relu_1x1 -> inception_4e/1x1 (in-place)
I0403 19:46:11.960382  9650 net.cpp:141] Setting up inception_4e/relu_1x1
I0403 19:46:11.960417  9650 net.cpp:148] Top shape: 24 256 14 14 (1204224)
I0403 19:46:11.960446  9650 net.cpp:156] Memory required for data: 1218065952
I0403 19:46:11.960466  9650 layer_factory.hpp:77] Creating layer inception_4e/3x3_reduce
I0403 19:46:11.960494  9650 net.cpp:91] Creating Layer inception_4e/3x3_reduce
I0403 19:46:11.960517  9650 net.cpp:425] inception_4e/3x3_reduce <- inception_4d/output_inception_4d/output_0_split_2
I0403 19:46:11.960541  9650 net.cpp:399] inception_4e/3x3_reduce -> inception_4e/3x3_reduce
I0403 19:46:11.963126  9650 net.cpp:141] Setting up inception_4e/3x3_reduce
I0403 19:46:11.963165  9650 net.cpp:148] Top shape: 24 160 14 14 (752640)
I0403 19:46:11.963186  9650 net.cpp:156] Memory required for data: 1221076512
I0403 19:46:11.963210  9650 layer_factory.hpp:77] Creating layer inception_4e/relu_3x3_reduce
I0403 19:46:11.963232  9650 net.cpp:91] Creating Layer inception_4e/relu_3x3_reduce
I0403 19:46:11.963253  9650 net.cpp:425] inception_4e/relu_3x3_reduce <- inception_4e/3x3_reduce
I0403 19:46:11.963275  9650 net.cpp:386] inception_4e/relu_3x3_reduce -> inception_4e/3x3_reduce (in-place)
I0403 19:46:11.963511  9650 net.cpp:141] Setting up inception_4e/relu_3x3_reduce
I0403 19:46:11.963546  9650 net.cpp:148] Top shape: 24 160 14 14 (752640)
I0403 19:46:11.963567  9650 net.cpp:156] Memory required for data: 1224087072
I0403 19:46:11.963585  9650 layer_factory.hpp:77] Creating layer inception_4e/3x3
I0403 19:46:11.963613  9650 net.cpp:91] Creating Layer inception_4e/3x3
I0403 19:46:11.963635  9650 net.cpp:425] inception_4e/3x3 <- inception_4e/3x3_reduce
I0403 19:46:11.963663  9650 net.cpp:399] inception_4e/3x3 -> inception_4e/3x3
I0403 19:46:11.969835  9650 net.cpp:141] Setting up inception_4e/3x3
I0403 19:46:11.969887  9650 net.cpp:148] Top shape: 24 320 14 14 (1505280)
I0403 19:46:11.969908  9650 net.cpp:156] Memory required for data: 1230108192
I0403 19:46:11.969933  9650 layer_factory.hpp:77] Creating layer inception_4e/relu_3x3
I0403 19:46:11.969954  9650 net.cpp:91] Creating Layer inception_4e/relu_3x3
I0403 19:46:11.969974  9650 net.cpp:425] inception_4e/relu_3x3 <- inception_4e/3x3
I0403 19:46:11.970000  9650 net.cpp:386] inception_4e/relu_3x3 -> inception_4e/3x3 (in-place)
I0403 19:46:11.970365  9650 net.cpp:141] Setting up inception_4e/relu_3x3
I0403 19:46:11.970397  9650 net.cpp:148] Top shape: 24 320 14 14 (1505280)
I0403 19:46:11.970417  9650 net.cpp:156] Memory required for data: 1236129312
I0403 19:46:11.970449  9650 layer_factory.hpp:77] Creating layer inception_4e/5x5_reduce
I0403 19:46:11.970477  9650 net.cpp:91] Creating Layer inception_4e/5x5_reduce
I0403 19:46:11.970500  9650 net.cpp:425] inception_4e/5x5_reduce <- inception_4d/output_inception_4d/output_0_split_3
I0403 19:46:11.970528  9650 net.cpp:399] inception_4e/5x5_reduce -> inception_4e/5x5_reduce
I0403 19:46:11.971844  9650 net.cpp:141] Setting up inception_4e/5x5_reduce
I0403 19:46:11.971879  9650 net.cpp:148] Top shape: 24 32 14 14 (150528)
I0403 19:46:11.971899  9650 net.cpp:156] Memory required for data: 1236731424
I0403 19:46:11.971922  9650 layer_factory.hpp:77] Creating layer inception_4e/relu_5x5_reduce
I0403 19:46:11.971948  9650 net.cpp:91] Creating Layer inception_4e/relu_5x5_reduce
I0403 19:46:11.971971  9650 net.cpp:425] inception_4e/relu_5x5_reduce <- inception_4e/5x5_reduce
I0403 19:46:11.971993  9650 net.cpp:386] inception_4e/relu_5x5_reduce -> inception_4e/5x5_reduce (in-place)
I0403 19:46:11.972357  9650 net.cpp:141] Setting up inception_4e/relu_5x5_reduce
I0403 19:46:11.972388  9650 net.cpp:148] Top shape: 24 32 14 14 (150528)
I0403 19:46:11.972407  9650 net.cpp:156] Memory required for data: 1237333536
I0403 19:46:11.972439  9650 layer_factory.hpp:77] Creating layer inception_4e/5x5
I0403 19:46:11.972498  9650 net.cpp:91] Creating Layer inception_4e/5x5
I0403 19:46:11.972523  9650 net.cpp:425] inception_4e/5x5 <- inception_4e/5x5_reduce
I0403 19:46:11.972548  9650 net.cpp:399] inception_4e/5x5 -> inception_4e/5x5
I0403 19:46:11.974807  9650 net.cpp:141] Setting up inception_4e/5x5
I0403 19:46:11.974843  9650 net.cpp:148] Top shape: 24 128 14 14 (602112)
I0403 19:46:11.974861  9650 net.cpp:156] Memory required for data: 1239741984
I0403 19:46:11.974885  9650 layer_factory.hpp:77] Creating layer inception_4e/relu_5x5
I0403 19:46:11.974910  9650 net.cpp:91] Creating Layer inception_4e/relu_5x5
I0403 19:46:11.974932  9650 net.cpp:425] inception_4e/relu_5x5 <- inception_4e/5x5
I0403 19:46:11.974956  9650 net.cpp:386] inception_4e/relu_5x5 -> inception_4e/5x5 (in-place)
I0403 19:46:11.975198  9650 net.cpp:141] Setting up inception_4e/relu_5x5
I0403 19:46:11.975234  9650 net.cpp:148] Top shape: 24 128 14 14 (602112)
I0403 19:46:11.975253  9650 net.cpp:156] Memory required for data: 1242150432
I0403 19:46:11.975272  9650 layer_factory.hpp:77] Creating layer inception_4e/pool
I0403 19:46:11.975296  9650 net.cpp:91] Creating Layer inception_4e/pool
I0403 19:46:11.975317  9650 net.cpp:425] inception_4e/pool <- inception_4d/output_inception_4d/output_0_split_4
I0403 19:46:11.975339  9650 net.cpp:399] inception_4e/pool -> inception_4e/pool
I0403 19:46:11.975431  9650 net.cpp:141] Setting up inception_4e/pool
I0403 19:46:11.975461  9650 net.cpp:148] Top shape: 24 528 14 14 (2483712)
I0403 19:46:11.975481  9650 net.cpp:156] Memory required for data: 1252085280
I0403 19:46:11.975498  9650 layer_factory.hpp:77] Creating layer inception_4e/pool_proj
I0403 19:46:11.975527  9650 net.cpp:91] Creating Layer inception_4e/pool_proj
I0403 19:46:11.975548  9650 net.cpp:425] inception_4e/pool_proj <- inception_4e/pool
I0403 19:46:11.975574  9650 net.cpp:399] inception_4e/pool_proj -> inception_4e/pool_proj
I0403 19:46:11.977423  9650 net.cpp:141] Setting up inception_4e/pool_proj
I0403 19:46:11.977463  9650 net.cpp:148] Top shape: 24 128 14 14 (602112)
I0403 19:46:11.977500  9650 net.cpp:156] Memory required for data: 1254493728
I0403 19:46:11.977525  9650 layer_factory.hpp:77] Creating layer inception_4e/relu_pool_proj
I0403 19:46:11.977550  9650 net.cpp:91] Creating Layer inception_4e/relu_pool_proj
I0403 19:46:11.977572  9650 net.cpp:425] inception_4e/relu_pool_proj <- inception_4e/pool_proj
I0403 19:46:11.977594  9650 net.cpp:386] inception_4e/relu_pool_proj -> inception_4e/pool_proj (in-place)
I0403 19:46:11.977970  9650 net.cpp:141] Setting up inception_4e/relu_pool_proj
I0403 19:46:11.978004  9650 net.cpp:148] Top shape: 24 128 14 14 (602112)
I0403 19:46:11.978024  9650 net.cpp:156] Memory required for data: 1256902176
I0403 19:46:11.978042  9650 layer_factory.hpp:77] Creating layer inception_4e/output
I0403 19:46:11.978065  9650 net.cpp:91] Creating Layer inception_4e/output
I0403 19:46:11.978085  9650 net.cpp:425] inception_4e/output <- inception_4e/1x1
I0403 19:46:11.978106  9650 net.cpp:425] inception_4e/output <- inception_4e/3x3
I0403 19:46:11.978126  9650 net.cpp:425] inception_4e/output <- inception_4e/5x5
I0403 19:46:11.978144  9650 net.cpp:425] inception_4e/output <- inception_4e/pool_proj
I0403 19:46:11.978169  9650 net.cpp:399] inception_4e/output -> inception_4e/output
I0403 19:46:11.978235  9650 net.cpp:141] Setting up inception_4e/output
I0403 19:46:11.978263  9650 net.cpp:148] Top shape: 24 832 14 14 (3913728)
I0403 19:46:11.978282  9650 net.cpp:156] Memory required for data: 1272557088
I0403 19:46:11.978302  9650 layer_factory.hpp:77] Creating layer pool4/3x3_s2
I0403 19:46:11.978332  9650 net.cpp:91] Creating Layer pool4/3x3_s2
I0403 19:46:11.978353  9650 net.cpp:425] pool4/3x3_s2 <- inception_4e/output
I0403 19:46:11.978386  9650 net.cpp:399] pool4/3x3_s2 -> pool4/3x3_s2
I0403 19:46:11.978477  9650 net.cpp:141] Setting up pool4/3x3_s2
I0403 19:46:11.978507  9650 net.cpp:148] Top shape: 24 832 7 7 (978432)
I0403 19:46:11.978525  9650 net.cpp:156] Memory required for data: 1276470816
I0403 19:46:11.978544  9650 layer_factory.hpp:77] Creating layer pool4/3x3_s2_pool4/3x3_s2_0_split
I0403 19:46:11.978570  9650 net.cpp:91] Creating Layer pool4/3x3_s2_pool4/3x3_s2_0_split
I0403 19:46:11.978591  9650 net.cpp:425] pool4/3x3_s2_pool4/3x3_s2_0_split <- pool4/3x3_s2
I0403 19:46:11.978622  9650 net.cpp:399] pool4/3x3_s2_pool4/3x3_s2_0_split -> pool4/3x3_s2_pool4/3x3_s2_0_split_0
I0403 19:46:11.978652  9650 net.cpp:399] pool4/3x3_s2_pool4/3x3_s2_0_split -> pool4/3x3_s2_pool4/3x3_s2_0_split_1
I0403 19:46:11.978687  9650 net.cpp:399] pool4/3x3_s2_pool4/3x3_s2_0_split -> pool4/3x3_s2_pool4/3x3_s2_0_split_2
I0403 19:46:11.978711  9650 net.cpp:399] pool4/3x3_s2_pool4/3x3_s2_0_split -> pool4/3x3_s2_pool4/3x3_s2_0_split_3
I0403 19:46:11.978831  9650 net.cpp:141] Setting up pool4/3x3_s2_pool4/3x3_s2_0_split
I0403 19:46:11.978860  9650 net.cpp:148] Top shape: 24 832 7 7 (978432)
I0403 19:46:11.978880  9650 net.cpp:148] Top shape: 24 832 7 7 (978432)
I0403 19:46:11.978900  9650 net.cpp:148] Top shape: 24 832 7 7 (978432)
I0403 19:46:11.978919  9650 net.cpp:148] Top shape: 24 832 7 7 (978432)
I0403 19:46:11.978937  9650 net.cpp:156] Memory required for data: 1292125728
I0403 19:46:11.978955  9650 layer_factory.hpp:77] Creating layer inception_5a/1x1
I0403 19:46:11.978983  9650 net.cpp:91] Creating Layer inception_5a/1x1
I0403 19:46:11.979006  9650 net.cpp:425] inception_5a/1x1 <- pool4/3x3_s2_pool4/3x3_s2_0_split_0
I0403 19:46:11.979032  9650 net.cpp:399] inception_5a/1x1 -> inception_5a/1x1
I0403 19:46:11.982588  9650 net.cpp:141] Setting up inception_5a/1x1
I0403 19:46:11.982635  9650 net.cpp:148] Top shape: 24 256 7 7 (301056)
I0403 19:46:11.982653  9650 net.cpp:156] Memory required for data: 1293329952
I0403 19:46:11.982684  9650 layer_factory.hpp:77] Creating layer inception_5a/relu_1x1
I0403 19:46:11.982710  9650 net.cpp:91] Creating Layer inception_5a/relu_1x1
I0403 19:46:11.982731  9650 net.cpp:425] inception_5a/relu_1x1 <- inception_5a/1x1
I0403 19:46:11.982753  9650 net.cpp:386] inception_5a/relu_1x1 -> inception_5a/1x1 (in-place)
I0403 19:46:11.983134  9650 net.cpp:141] Setting up inception_5a/relu_1x1
I0403 19:46:11.983167  9650 net.cpp:148] Top shape: 24 256 7 7 (301056)
I0403 19:46:11.983186  9650 net.cpp:156] Memory required for data: 1294534176
I0403 19:46:11.983207  9650 layer_factory.hpp:77] Creating layer inception_5a/3x3_reduce
I0403 19:46:11.983237  9650 net.cpp:91] Creating Layer inception_5a/3x3_reduce
I0403 19:46:11.983259  9650 net.cpp:425] inception_5a/3x3_reduce <- pool4/3x3_s2_pool4/3x3_s2_0_split_1
I0403 19:46:11.983285  9650 net.cpp:399] inception_5a/3x3_reduce -> inception_5a/3x3_reduce
I0403 19:46:11.986322  9650 net.cpp:141] Setting up inception_5a/3x3_reduce
I0403 19:46:11.986364  9650 net.cpp:148] Top shape: 24 160 7 7 (188160)
I0403 19:46:11.986384  9650 net.cpp:156] Memory required for data: 1295286816
I0403 19:46:11.986407  9650 layer_factory.hpp:77] Creating layer inception_5a/relu_3x3_reduce
I0403 19:46:11.986435  9650 net.cpp:91] Creating Layer inception_5a/relu_3x3_reduce
I0403 19:46:11.986457  9650 net.cpp:425] inception_5a/relu_3x3_reduce <- inception_5a/3x3_reduce
I0403 19:46:11.986482  9650 net.cpp:386] inception_5a/relu_3x3_reduce -> inception_5a/3x3_reduce (in-place)
I0403 19:46:11.986717  9650 net.cpp:141] Setting up inception_5a/relu_3x3_reduce
I0403 19:46:11.986749  9650 net.cpp:148] Top shape: 24 160 7 7 (188160)
I0403 19:46:11.986768  9650 net.cpp:156] Memory required for data: 1296039456
I0403 19:46:11.986786  9650 layer_factory.hpp:77] Creating layer inception_5a/3x3
I0403 19:46:11.986814  9650 net.cpp:91] Creating Layer inception_5a/3x3
I0403 19:46:11.986837  9650 net.cpp:425] inception_5a/3x3 <- inception_5a/3x3_reduce
I0403 19:46:11.986865  9650 net.cpp:399] inception_5a/3x3 -> inception_5a/3x3
I0403 19:46:11.993098  9650 net.cpp:141] Setting up inception_5a/3x3
I0403 19:46:11.993136  9650 net.cpp:148] Top shape: 24 320 7 7 (376320)
I0403 19:46:11.993157  9650 net.cpp:156] Memory required for data: 1297544736
I0403 19:46:11.993180  9650 layer_factory.hpp:77] Creating layer inception_5a/relu_3x3
I0403 19:46:11.993206  9650 net.cpp:91] Creating Layer inception_5a/relu_3x3
I0403 19:46:11.993228  9650 net.cpp:425] inception_5a/relu_3x3 <- inception_5a/3x3
I0403 19:46:11.993250  9650 net.cpp:386] inception_5a/relu_3x3 -> inception_5a/3x3 (in-place)
I0403 19:46:11.993616  9650 net.cpp:141] Setting up inception_5a/relu_3x3
I0403 19:46:11.993649  9650 net.cpp:148] Top shape: 24 320 7 7 (376320)
I0403 19:46:11.993669  9650 net.cpp:156] Memory required for data: 1299050016
I0403 19:46:11.993687  9650 layer_factory.hpp:77] Creating layer inception_5a/5x5_reduce
I0403 19:46:11.993716  9650 net.cpp:91] Creating Layer inception_5a/5x5_reduce
I0403 19:46:11.993752  9650 net.cpp:425] inception_5a/5x5_reduce <- pool4/3x3_s2_pool4/3x3_s2_0_split_2
I0403 19:46:11.993777  9650 net.cpp:399] inception_5a/5x5_reduce -> inception_5a/5x5_reduce
I0403 19:46:11.995214  9650 net.cpp:141] Setting up inception_5a/5x5_reduce
I0403 19:46:11.995254  9650 net.cpp:148] Top shape: 24 32 7 7 (37632)
I0403 19:46:11.995275  9650 net.cpp:156] Memory required for data: 1299200544
I0403 19:46:11.995298  9650 layer_factory.hpp:77] Creating layer inception_5a/relu_5x5_reduce
I0403 19:46:11.995321  9650 net.cpp:91] Creating Layer inception_5a/relu_5x5_reduce
I0403 19:46:11.995342  9650 net.cpp:425] inception_5a/relu_5x5_reduce <- inception_5a/5x5_reduce
I0403 19:46:11.995365  9650 net.cpp:386] inception_5a/relu_5x5_reduce -> inception_5a/5x5_reduce (in-place)
I0403 19:46:11.995740  9650 net.cpp:141] Setting up inception_5a/relu_5x5_reduce
I0403 19:46:11.995775  9650 net.cpp:148] Top shape: 24 32 7 7 (37632)
I0403 19:46:11.995797  9650 net.cpp:156] Memory required for data: 1299351072
I0403 19:46:11.995816  9650 layer_factory.hpp:77] Creating layer inception_5a/5x5
I0403 19:46:11.995844  9650 net.cpp:91] Creating Layer inception_5a/5x5
I0403 19:46:11.995867  9650 net.cpp:425] inception_5a/5x5 <- inception_5a/5x5_reduce
I0403 19:46:11.995892  9650 net.cpp:399] inception_5a/5x5 -> inception_5a/5x5
I0403 19:46:11.998030  9650 net.cpp:141] Setting up inception_5a/5x5
I0403 19:46:11.998080  9650 net.cpp:148] Top shape: 24 128 7 7 (150528)
I0403 19:46:11.998100  9650 net.cpp:156] Memory required for data: 1299953184
I0403 19:46:11.998123  9650 layer_factory.hpp:77] Creating layer inception_5a/relu_5x5
I0403 19:46:11.998149  9650 net.cpp:91] Creating Layer inception_5a/relu_5x5
I0403 19:46:11.998172  9650 net.cpp:425] inception_5a/relu_5x5 <- inception_5a/5x5
I0403 19:46:11.998198  9650 net.cpp:386] inception_5a/relu_5x5 -> inception_5a/5x5 (in-place)
I0403 19:46:11.998438  9650 net.cpp:141] Setting up inception_5a/relu_5x5
I0403 19:46:11.998472  9650 net.cpp:148] Top shape: 24 128 7 7 (150528)
I0403 19:46:11.998493  9650 net.cpp:156] Memory required for data: 1300555296
I0403 19:46:11.998513  9650 layer_factory.hpp:77] Creating layer inception_5a/pool
I0403 19:46:11.998535  9650 net.cpp:91] Creating Layer inception_5a/pool
I0403 19:46:11.998555  9650 net.cpp:425] inception_5a/pool <- pool4/3x3_s2_pool4/3x3_s2_0_split_3
I0403 19:46:11.998582  9650 net.cpp:399] inception_5a/pool -> inception_5a/pool
I0403 19:46:11.998670  9650 net.cpp:141] Setting up inception_5a/pool
I0403 19:46:11.998702  9650 net.cpp:148] Top shape: 24 832 7 7 (978432)
I0403 19:46:11.998719  9650 net.cpp:156] Memory required for data: 1304469024
I0403 19:46:11.998739  9650 layer_factory.hpp:77] Creating layer inception_5a/pool_proj
I0403 19:46:11.998765  9650 net.cpp:91] Creating Layer inception_5a/pool_proj
I0403 19:46:11.998791  9650 net.cpp:425] inception_5a/pool_proj <- inception_5a/pool
I0403 19:46:11.998814  9650 net.cpp:399] inception_5a/pool_proj -> inception_5a/pool_proj
I0403 19:46:12.001643  9650 net.cpp:141] Setting up inception_5a/pool_proj
I0403 19:46:12.001680  9650 net.cpp:148] Top shape: 24 128 7 7 (150528)
I0403 19:46:12.001701  9650 net.cpp:156] Memory required for data: 1305071136
I0403 19:46:12.001724  9650 layer_factory.hpp:77] Creating layer inception_5a/relu_pool_proj
I0403 19:46:12.001749  9650 net.cpp:91] Creating Layer inception_5a/relu_pool_proj
I0403 19:46:12.001770  9650 net.cpp:425] inception_5a/relu_pool_proj <- inception_5a/pool_proj
I0403 19:46:12.001793  9650 net.cpp:386] inception_5a/relu_pool_proj -> inception_5a/pool_proj (in-place)
I0403 19:46:12.002154  9650 net.cpp:141] Setting up inception_5a/relu_pool_proj
I0403 19:46:12.002189  9650 net.cpp:148] Top shape: 24 128 7 7 (150528)
I0403 19:46:12.002208  9650 net.cpp:156] Memory required for data: 1305673248
I0403 19:46:12.002228  9650 layer_factory.hpp:77] Creating layer inception_5a/output
I0403 19:46:12.002252  9650 net.cpp:91] Creating Layer inception_5a/output
I0403 19:46:12.002274  9650 net.cpp:425] inception_5a/output <- inception_5a/1x1
I0403 19:46:12.002296  9650 net.cpp:425] inception_5a/output <- inception_5a/3x3
I0403 19:46:12.002316  9650 net.cpp:425] inception_5a/output <- inception_5a/5x5
I0403 19:46:12.002336  9650 net.cpp:425] inception_5a/output <- inception_5a/pool_proj
I0403 19:46:12.002357  9650 net.cpp:399] inception_5a/output -> inception_5a/output
I0403 19:46:12.002418  9650 net.cpp:141] Setting up inception_5a/output
I0403 19:46:12.002473  9650 net.cpp:148] Top shape: 24 832 7 7 (978432)
I0403 19:46:12.002496  9650 net.cpp:156] Memory required for data: 1309586976
I0403 19:46:12.002514  9650 layer_factory.hpp:77] Creating layer inception_5a/output_inception_5a/output_0_split
I0403 19:46:12.002535  9650 net.cpp:91] Creating Layer inception_5a/output_inception_5a/output_0_split
I0403 19:46:12.002555  9650 net.cpp:425] inception_5a/output_inception_5a/output_0_split <- inception_5a/output
I0403 19:46:12.002580  9650 net.cpp:399] inception_5a/output_inception_5a/output_0_split -> inception_5a/output_inception_5a/output_0_split_0
I0403 19:46:12.002606  9650 net.cpp:399] inception_5a/output_inception_5a/output_0_split -> inception_5a/output_inception_5a/output_0_split_1
I0403 19:46:12.002632  9650 net.cpp:399] inception_5a/output_inception_5a/output_0_split -> inception_5a/output_inception_5a/output_0_split_2
I0403 19:46:12.002658  9650 net.cpp:399] inception_5a/output_inception_5a/output_0_split -> inception_5a/output_inception_5a/output_0_split_3
I0403 19:46:12.002797  9650 net.cpp:141] Setting up inception_5a/output_inception_5a/output_0_split
I0403 19:46:12.002831  9650 net.cpp:148] Top shape: 24 832 7 7 (978432)
I0403 19:46:12.002853  9650 net.cpp:148] Top shape: 24 832 7 7 (978432)
I0403 19:46:12.002874  9650 net.cpp:148] Top shape: 24 832 7 7 (978432)
I0403 19:46:12.002894  9650 net.cpp:148] Top shape: 24 832 7 7 (978432)
I0403 19:46:12.002912  9650 net.cpp:156] Memory required for data: 1325241888
I0403 19:46:12.002930  9650 layer_factory.hpp:77] Creating layer inception_5b/1x1
I0403 19:46:12.002959  9650 net.cpp:91] Creating Layer inception_5b/1x1
I0403 19:46:12.002980  9650 net.cpp:425] inception_5b/1x1 <- inception_5a/output_inception_5a/output_0_split_0
I0403 19:46:12.003005  9650 net.cpp:399] inception_5b/1x1 -> inception_5b/1x1
I0403 19:46:12.007617  9650 net.cpp:141] Setting up inception_5b/1x1
I0403 19:46:12.007655  9650 net.cpp:148] Top shape: 24 384 7 7 (451584)
I0403 19:46:12.007675  9650 net.cpp:156] Memory required for data: 1327048224
I0403 19:46:12.007704  9650 layer_factory.hpp:77] Creating layer inception_5b/relu_1x1
I0403 19:46:12.007727  9650 net.cpp:91] Creating Layer inception_5b/relu_1x1
I0403 19:46:12.007748  9650 net.cpp:425] inception_5b/relu_1x1 <- inception_5b/1x1
I0403 19:46:12.007774  9650 net.cpp:386] inception_5b/relu_1x1 -> inception_5b/1x1 (in-place)
I0403 19:46:12.008153  9650 net.cpp:141] Setting up inception_5b/relu_1x1
I0403 19:46:12.008188  9650 net.cpp:148] Top shape: 24 384 7 7 (451584)
I0403 19:46:12.008208  9650 net.cpp:156] Memory required for data: 1328854560
I0403 19:46:12.008229  9650 layer_factory.hpp:77] Creating layer inception_5b/3x3_reduce
I0403 19:46:12.008256  9650 net.cpp:91] Creating Layer inception_5b/3x3_reduce
I0403 19:46:12.008281  9650 net.cpp:425] inception_5b/3x3_reduce <- inception_5a/output_inception_5a/output_0_split_1
I0403 19:46:12.008311  9650 net.cpp:399] inception_5b/3x3_reduce -> inception_5b/3x3_reduce
I0403 19:46:12.011581  9650 net.cpp:141] Setting up inception_5b/3x3_reduce
I0403 19:46:12.011620  9650 net.cpp:148] Top shape: 24 192 7 7 (225792)
I0403 19:46:12.011641  9650 net.cpp:156] Memory required for data: 1329757728
I0403 19:46:12.011663  9650 layer_factory.hpp:77] Creating layer inception_5b/relu_3x3_reduce
I0403 19:46:12.011689  9650 net.cpp:91] Creating Layer inception_5b/relu_3x3_reduce
I0403 19:46:12.011711  9650 net.cpp:425] inception_5b/relu_3x3_reduce <- inception_5b/3x3_reduce
I0403 19:46:12.011734  9650 net.cpp:386] inception_5b/relu_3x3_reduce -> inception_5b/3x3_reduce (in-place)
I0403 19:46:12.011968  9650 net.cpp:141] Setting up inception_5b/relu_3x3_reduce
I0403 19:46:12.012001  9650 net.cpp:148] Top shape: 24 192 7 7 (225792)
I0403 19:46:12.012019  9650 net.cpp:156] Memory required for data: 1330660896
I0403 19:46:12.012039  9650 layer_factory.hpp:77] Creating layer inception_5b/3x3
I0403 19:46:12.012069  9650 net.cpp:91] Creating Layer inception_5b/3x3
I0403 19:46:12.012092  9650 net.cpp:425] inception_5b/3x3 <- inception_5b/3x3_reduce
I0403 19:46:12.012117  9650 net.cpp:399] inception_5b/3x3 -> inception_5b/3x3
I0403 19:46:12.020449  9650 net.cpp:141] Setting up inception_5b/3x3
I0403 19:46:12.020486  9650 net.cpp:148] Top shape: 24 384 7 7 (451584)
I0403 19:46:12.020515  9650 net.cpp:156] Memory required for data: 1332467232
I0403 19:46:12.020539  9650 layer_factory.hpp:77] Creating layer inception_5b/relu_3x3
I0403 19:46:12.020565  9650 net.cpp:91] Creating Layer inception_5b/relu_3x3
I0403 19:46:12.020586  9650 net.cpp:425] inception_5b/relu_3x3 <- inception_5b/3x3
I0403 19:46:12.020609  9650 net.cpp:386] inception_5b/relu_3x3 -> inception_5b/3x3 (in-place)
I0403 19:46:12.020978  9650 net.cpp:141] Setting up inception_5b/relu_3x3
I0403 19:46:12.021011  9650 net.cpp:148] Top shape: 24 384 7 7 (451584)
I0403 19:46:12.021037  9650 net.cpp:156] Memory required for data: 1334273568
I0403 19:46:12.021057  9650 layer_factory.hpp:77] Creating layer inception_5b/5x5_reduce
I0403 19:46:12.021105  9650 net.cpp:91] Creating Layer inception_5b/5x5_reduce
I0403 19:46:12.021131  9650 net.cpp:425] inception_5b/5x5_reduce <- inception_5a/output_inception_5a/output_0_split_2
I0403 19:46:12.021157  9650 net.cpp:399] inception_5b/5x5_reduce -> inception_5b/5x5_reduce
I0403 19:46:12.022750  9650 net.cpp:141] Setting up inception_5b/5x5_reduce
I0403 19:46:12.022786  9650 net.cpp:148] Top shape: 24 48 7 7 (56448)
I0403 19:46:12.022807  9650 net.cpp:156] Memory required for data: 1334499360
I0403 19:46:12.022831  9650 layer_factory.hpp:77] Creating layer inception_5b/relu_5x5_reduce
I0403 19:46:12.022856  9650 net.cpp:91] Creating Layer inception_5b/relu_5x5_reduce
I0403 19:46:12.022877  9650 net.cpp:425] inception_5b/relu_5x5_reduce <- inception_5b/5x5_reduce
I0403 19:46:12.022900  9650 net.cpp:386] inception_5b/relu_5x5_reduce -> inception_5b/5x5_reduce (in-place)
I0403 19:46:12.023357  9650 net.cpp:141] Setting up inception_5b/relu_5x5_reduce
I0403 19:46:12.023392  9650 net.cpp:148] Top shape: 24 48 7 7 (56448)
I0403 19:46:12.023411  9650 net.cpp:156] Memory required for data: 1334725152
I0403 19:46:12.023435  9650 layer_factory.hpp:77] Creating layer inception_5b/5x5
I0403 19:46:12.023463  9650 net.cpp:91] Creating Layer inception_5b/5x5
I0403 19:46:12.023488  9650 net.cpp:425] inception_5b/5x5 <- inception_5b/5x5_reduce
I0403 19:46:12.023512  9650 net.cpp:399] inception_5b/5x5 -> inception_5b/5x5
I0403 19:46:12.026046  9650 net.cpp:141] Setting up inception_5b/5x5
I0403 19:46:12.026082  9650 net.cpp:148] Top shape: 24 128 7 7 (150528)
I0403 19:46:12.026103  9650 net.cpp:156] Memory required for data: 1335327264
I0403 19:46:12.026126  9650 layer_factory.hpp:77] Creating layer inception_5b/relu_5x5
I0403 19:46:12.026154  9650 net.cpp:91] Creating Layer inception_5b/relu_5x5
I0403 19:46:12.026175  9650 net.cpp:425] inception_5b/relu_5x5 <- inception_5b/5x5
I0403 19:46:12.026196  9650 net.cpp:386] inception_5b/relu_5x5 -> inception_5b/5x5 (in-place)
I0403 19:46:12.026443  9650 net.cpp:141] Setting up inception_5b/relu_5x5
I0403 19:46:12.026478  9650 net.cpp:148] Top shape: 24 128 7 7 (150528)
I0403 19:46:12.026499  9650 net.cpp:156] Memory required for data: 1335929376
I0403 19:46:12.026517  9650 layer_factory.hpp:77] Creating layer inception_5b/pool
I0403 19:46:12.026540  9650 net.cpp:91] Creating Layer inception_5b/pool
I0403 19:46:12.026559  9650 net.cpp:425] inception_5b/pool <- inception_5a/output_inception_5a/output_0_split_3
I0403 19:46:12.026587  9650 net.cpp:399] inception_5b/pool -> inception_5b/pool
I0403 19:46:12.026677  9650 net.cpp:141] Setting up inception_5b/pool
I0403 19:46:12.026708  9650 net.cpp:148] Top shape: 24 832 7 7 (978432)
I0403 19:46:12.026727  9650 net.cpp:156] Memory required for data: 1339843104
I0403 19:46:12.026746  9650 layer_factory.hpp:77] Creating layer inception_5b/pool_proj
I0403 19:46:12.026774  9650 net.cpp:91] Creating Layer inception_5b/pool_proj
I0403 19:46:12.026796  9650 net.cpp:425] inception_5b/pool_proj <- inception_5b/pool
I0403 19:46:12.026823  9650 net.cpp:399] inception_5b/pool_proj -> inception_5b/pool_proj
I0403 19:46:12.029670  9650 net.cpp:141] Setting up inception_5b/pool_proj
I0403 19:46:12.029708  9650 net.cpp:148] Top shape: 24 128 7 7 (150528)
I0403 19:46:12.029728  9650 net.cpp:156] Memory required for data: 1340445216
I0403 19:46:12.029752  9650 layer_factory.hpp:77] Creating layer inception_5b/relu_pool_proj
I0403 19:46:12.029778  9650 net.cpp:91] Creating Layer inception_5b/relu_pool_proj
I0403 19:46:12.029800  9650 net.cpp:425] inception_5b/relu_pool_proj <- inception_5b/pool_proj
I0403 19:46:12.029822  9650 net.cpp:386] inception_5b/relu_pool_proj -> inception_5b/pool_proj (in-place)
I0403 19:46:12.030189  9650 net.cpp:141] Setting up inception_5b/relu_pool_proj
I0403 19:46:12.030222  9650 net.cpp:148] Top shape: 24 128 7 7 (150528)
I0403 19:46:12.030241  9650 net.cpp:156] Memory required for data: 1341047328
I0403 19:46:12.030261  9650 layer_factory.hpp:77] Creating layer inception_5b/output
I0403 19:46:12.030285  9650 net.cpp:91] Creating Layer inception_5b/output
I0403 19:46:12.030328  9650 net.cpp:425] inception_5b/output <- inception_5b/1x1
I0403 19:46:12.030354  9650 net.cpp:425] inception_5b/output <- inception_5b/3x3
I0403 19:46:12.030376  9650 net.cpp:425] inception_5b/output <- inception_5b/5x5
I0403 19:46:12.030402  9650 net.cpp:425] inception_5b/output <- inception_5b/pool_proj
I0403 19:46:12.030423  9650 net.cpp:399] inception_5b/output -> inception_5b/output
I0403 19:46:12.030496  9650 net.cpp:141] Setting up inception_5b/output
I0403 19:46:12.030526  9650 net.cpp:148] Top shape: 24 1024 7 7 (1204224)
I0403 19:46:12.030544  9650 net.cpp:156] Memory required for data: 1345864224
I0403 19:46:12.030563  9650 layer_factory.hpp:77] Creating layer pool5/7x7_s1
I0403 19:46:12.030586  9650 net.cpp:91] Creating Layer pool5/7x7_s1
I0403 19:46:12.030606  9650 net.cpp:425] pool5/7x7_s1 <- inception_5b/output
I0403 19:46:12.030632  9650 net.cpp:399] pool5/7x7_s1 -> pool5/7x7_s1
I0403 19:46:12.030902  9650 net.cpp:141] Setting up pool5/7x7_s1
I0403 19:46:12.030935  9650 net.cpp:148] Top shape: 24 1024 1 1 (24576)
I0403 19:46:12.030952  9650 net.cpp:156] Memory required for data: 1345962528
I0403 19:46:12.030972  9650 layer_factory.hpp:77] Creating layer pool5/drop_7x7_s1
I0403 19:46:12.030997  9650 net.cpp:91] Creating Layer pool5/drop_7x7_s1
I0403 19:46:12.031019  9650 net.cpp:425] pool5/drop_7x7_s1 <- pool5/7x7_s1
I0403 19:46:12.031041  9650 net.cpp:386] pool5/drop_7x7_s1 -> pool5/7x7_s1 (in-place)
I0403 19:46:12.031105  9650 net.cpp:141] Setting up pool5/drop_7x7_s1
I0403 19:46:12.031136  9650 net.cpp:148] Top shape: 24 1024 1 1 (24576)
I0403 19:46:12.031153  9650 net.cpp:156] Memory required for data: 1346060832
I0403 19:46:12.031172  9650 layer_factory.hpp:77] Creating layer loss3/classifier_plantvillage
I0403 19:46:12.031196  9650 net.cpp:91] Creating Layer loss3/classifier_plantvillage
I0403 19:46:12.031216  9650 net.cpp:425] loss3/classifier_plantvillage <- pool5/7x7_s1
I0403 19:46:12.031241  9650 net.cpp:399] loss3/classifier_plantvillage -> loss3/classifier_plantvillage
I0403 19:46:12.031774  9650 net.cpp:141] Setting up loss3/classifier_plantvillage
I0403 19:46:12.031805  9650 net.cpp:148] Top shape: 24 38 (912)
I0403 19:46:12.031826  9650 net.cpp:156] Memory required for data: 1346064480
I0403 19:46:12.031849  9650 layer_factory.hpp:77] Creating layer loss3/classifier_plantvillage_loss3/classifier_plantvillage_0_split
I0403 19:46:12.031872  9650 net.cpp:91] Creating Layer loss3/classifier_plantvillage_loss3/classifier_plantvillage_0_split
I0403 19:46:12.031893  9650 net.cpp:425] loss3/classifier_plantvillage_loss3/classifier_plantvillage_0_split <- loss3/classifier_plantvillage
I0403 19:46:12.031919  9650 net.cpp:399] loss3/classifier_plantvillage_loss3/classifier_plantvillage_0_split -> loss3/classifier_plantvillage_loss3/classifier_plantvillage_0_split_0
I0403 19:46:12.031945  9650 net.cpp:399] loss3/classifier_plantvillage_loss3/classifier_plantvillage_0_split -> loss3/classifier_plantvillage_loss3/classifier_plantvillage_0_split_1
I0403 19:46:12.031972  9650 net.cpp:399] loss3/classifier_plantvillage_loss3/classifier_plantvillage_0_split -> loss3/classifier_plantvillage_loss3/classifier_plantvillage_0_split_2
I0403 19:46:12.031998  9650 net.cpp:399] loss3/classifier_plantvillage_loss3/classifier_plantvillage_0_split -> loss3/classifier_plantvillage_loss3/classifier_plantvillage_0_split_3
I0403 19:46:12.032124  9650 net.cpp:141] Setting up loss3/classifier_plantvillage_loss3/classifier_plantvillage_0_split
I0403 19:46:12.032153  9650 net.cpp:148] Top shape: 24 38 (912)
I0403 19:46:12.032178  9650 net.cpp:148] Top shape: 24 38 (912)
I0403 19:46:12.032202  9650 net.cpp:148] Top shape: 24 38 (912)
I0403 19:46:12.032222  9650 net.cpp:148] Top shape: 24 38 (912)
I0403 19:46:12.032239  9650 net.cpp:156] Memory required for data: 1346079072
I0403 19:46:12.032258  9650 layer_factory.hpp:77] Creating layer loss1/loss
I0403 19:46:12.032289  9650 net.cpp:91] Creating Layer loss1/loss
I0403 19:46:12.032311  9650 net.cpp:425] loss1/loss <- loss1/classifier_plantvillage_loss1/classifier_plantvillage_0_split_0
I0403 19:46:12.032351  9650 net.cpp:425] loss1/loss <- label_data_1_split_0
…
