…
I0403 19:19:36.841238  9091 net.cpp:313] The NetState phase (1) differed from the phase (0) specified by a rule in layer data
I0403 19:19:36.843291  9091 net.cpp:49] Initializing net from parameters: 
state {
  phase: TEST
}
layer {
  name: "data"
  type: "Data"
  top: "data"
  top: "label"
  include {
    phase: TEST
  }
  transform_param {
    mirror: false
    crop_size: 224
    mean_file: "/home/mohanty/data/final_dataset/lmdb/color-60-40/mean.binaryproto"
  }
  data_param {
    source: "/home/mohanty/data/final_dataset/lmdb/color-60-40/test_db"
    batch_size: 24
    backend: LMDB
  }
}
layer {
  name: "conv1/7x7_s2"
  type: "Convolution"
  bottom: "data"
  top: "conv1/7x7_s2"
  param {
    lr_mult: 1
    decay_mult: 1
  }
  param {
    lr_mult: 2
    decay_mult: 0
  }
  convolution_param {
    num_output: 64
    pad: 3
    kernel_size: 7
    stride: 2
    weight_filler {
      type: "xavier"
      std: 0.1
    }
    bias_filler {
      type: "constant"
      value: 0.2
    }
  }
}
layer {
  name: "conv1/relu_7x7"
  type: "ReLU"
  bottom: "conv1/7x7_s2"
  top: "conv1/7x7_s2"
}
layer {
  name: "pool1/3x3_s2"
  type: "Pooling"
  bottom: "conv1/7x7_s2"
  top: "pool1/3x3_s2"
  pooling_param {
    pool: MAX
    kernel_size: 3
    stride: 2
  }
}
layer {
  name: "pool1/norm1"
  type: "LRN"
  bottom: "pool1/3x3_s2"
  top: "pool1/norm1"
  lrn_param {
    local_size: 5
    alpha: 0.0001
    beta: 0.75
  }
}
layer {
  name: "conv2/3x3_reduce"
  type: "Convolution"
  bottom: "pool1/norm1"
  top: "conv2/3x3_reduce"
  param {
    lr_mult: 1
    decay_mult: 1
  }
  param {
    lr_mult: 2
    decay_mult: 0
  }
  convolution_param {
    num_output: 64
    kernel_size: 1
    weight_filler {
      type: "xavier"
      std: 0.1
    }
    bias_filler {
      type: "constant"
      value: 0.2
    }
  }
}
layer {
  name: "conv2/relu_3x3_reduce"
  type: "ReLU"
  bottom: "conv2/3x3_reduce"
  top: "conv2/3x3_reduce"
}
layer {
  name: "conv2/3x3"
  type: "Convolution"
  bottom: "conv2/3x3_reduce"
  top: "conv2/3x3"
  param {
    lr_mult: 1
    decay_mult: 1
  }
  param {
    lr_mult: 2
    decay_mult: 0
  }
  convolution_param {
    num_output: 192
    pad: 1
    kernel_size: 3
    weight_filler {
      type: "xavier"
      std: 0.03
    }
    bias_filler {
      type: "constant"
      value: 0.2
    }
  }
}
layer {
  name: "conv2/relu_3x3"
  type: "ReLU"
  bottom: "conv2/3x3"
  top: "conv2/3x3"
}
layer {
  name: "conv2/norm2"
  type: "LRN"
  bottom: "conv2/3x3"
  top: "conv2/norm2"
  lrn_param {
    local_size: 5
    alpha: 0.0001
    beta: 0.75
  }
}
layer {
  name: "pool2/3x3_s2"
  type: "Pooling"
  bottom: "conv2/norm2"
  top: "pool2/3x3_s2"
  pooling_param {
    pool: MAX
    kernel_size: 3
    stride: 2
  }
}
layer {
  name: "inception_3a/1x1"
  type: "Convolution"
  bottom: "pool2/3x3_s2"
  top: "inception_3a/1x1"
  param {
    lr_mult: 1
    decay_mult: 1
  }
  param {
    lr_mult: 2
    decay_mult: 0
  }
  convolution_param {
    num_output: 64
    kernel_size: 1
    weight_filler {
      type: "xavier"
      std: 0.03
    }
    bias_filler {
      type: "constant"
      value: 0.2
    }
  }
}
layer {
  name: "inception_3a/relu_1x1"
  type: "ReLU"
  bottom: "inception_3a/1x1"
  top: "inception_3a/1x1"
}
layer {
  name: "inception_3a/3x3_reduce"
  type: "Convolution"
  bottom: "pool2/3x3_s2"
  top: "inception_3a/3x3_reduce"
  param {
    lr_mult: 1
    decay_mult: 1
  }
  param {
    lr_mult: 2
    decay_mult: 0
  }
  convolution_param {
    num_output: 96
    kernel_size: 1
    weight_filler {
      type: "xavier"
      std: 0.09
    }
    bias_filler {
      type: "constant"
      value: 0.2
    }
  }
}
layer {
  name: "inception_3a/relu_3x3_reduce"
  type: "ReLU"
  bottom: "inception_3a/3x3_reduce"
  top: "inception_3a/3x3_reduce"
}
layer {
  name: "inception_3a/3x3"
  type: "Convolution"
  bottom: "inception_3a/3x3_reduce"
  top: "inception_3a/3x3"
  param {
    lr_mult: 1
    decay_mult: 1
  }
  param {
    lr_mult: 2
    decay_mult: 0
  }
  convolution_param {
    num_output: 128
    pad: 1
    kernel_size: 3
    weight_filler {
      type: "xavier"
      std: 0.03
    }
    bias_filler {
      type: "constant"
      value: 0.2
    }
  }
}
layer {
  name: "inception_3a/relu_3x3"
  type: "ReLU"
  bottom: "inception_3a/3x3"
  top: "inception_3a/3x3"
}
layer {
  name: "inception_3a/5x5_reduce"
  type: "Convolution"
  bottom: "pool2/3x3_s2"
  top: "inception_3a/5x5_reduce"
  param {
    lr_mult: 1
    decay_mult: 1
  }
  param {
    lr_mult: 2
    decay_mult: 0
  }
  convolution_param {
    num_output: 16
    kernel_size: 1
    weight_filler {
      type: "xavier"
      std: 0.2
    }
    bias_filler {
      type: "constant"
      value: 0.2
    }
  }
}
layer {
  name: "inception_3a/relu_5x5_reduce"
  type: "ReLU"
  bottom: "inception_3a/5x5_reduce"
  top: "inception_3a/5x5_reduce"
}
layer {
  name: "inception_3a/5x5"
  type: "Convolution"
  bottom: "inception_3a/5x5_reduce"
  top: "inception_3a/5x5"
  param {
    lr_mult: 1
    decay_mult: 1
  }
  param {
    lr_mult: 2
    decay_mult: 0
  }
  convolution_param {
    num_output: 32
    pad: 2
    kernel_size: 5
    weight_filler {
      type: "xavier"
      std: 0.03
    }
    bias_filler {
      type: "constant"
      value: 0.2
    }
  }
}
layer {
  name: "inception_3a/relu_5x5"
  type: "ReLU"
  bottom: "inception_3a/5x5"
  top: "inception_3a/5x5"
}
layer {
  name: "inception_3a/pool"
  type: "Pooling"
  bottom: "pool2/3x3_s2"
  top: "inception_3a/pool"
  pooling_param {
    pool: MAX
    kernel_size: 3
    stride: 1
    pad: 1
  }
}
layer {
  name: "inception_3a/pool_proj"
  type: "Convolution"
  bottom: "inception_3a/pool"
  top: "inception_3a/pool_proj"
  param {
    lr_mult: 1
    decay_mult: 1
  }
  param {
    lr_mult: 2
    decay_mult: 0
  }
  convolution_param {
    num_output: 32
    kernel_size: 1
    weight_filler {
      type: "xavier"
      std: 0.1
    }
    bias_filler {
      type: "constant"
      value: 0.2
    }
  }
}
layer {
  name: "inception_3a/relu_pool_proj"
  type: "ReLU"
  bottom: "inception_3a/pool_proj"
  top: "inception_3a/pool_proj"
}
layer {
  name: "inception_3a/output"
  type: "Concat"
  bottom: "inception_3a/1x1"
  bottom: "inception_3a/3x3"
  bottom: "inception_3a/5x5"
  bottom: "inception_3a/pool_proj"
  top: "inception_3a/output"
}
layer {
  name: "inception_3b/1x1"
  type: "Convolution"
  bottom: "inception_3a/output"
  top: "inception_3b/1x1"
  param {
    lr_mult: 1
    decay_mult: 1
  }
  param {
    lr_mult: 2
    decay_mult: 0
  }
  convolution_param {
    num_output: 128
    kernel_size: 1
    weight_filler {
      type: "xavier"
      std: 0.03
    }
    bias_filler {
      type: "constant"
      value: 0.2
    }
  }
}
layer {
  name: "inception_3b/relu_1x1"
  type: "ReLU"
  bottom: "inception_3b/1x1"
  top: "inception_3b/1x1"
}
layer {
  name: "inception_3b/3x3_reduce"
  type: "Convolution"
  bottom: "inception_3a/output"
  top: "inception_3b/3x3_reduce"
  param {
    lr_mult: 1
    decay_mult: 1
  }
  param {
    lr_mult: 2
    decay_mult: 0
  }
  convolution_param {
    num_output: 128
    kernel_size: 1
    weight_filler {
      type: "xavier"
      std: 0.09
    }
    bias_filler {
      type: "constant"
      value: 0.2
    }
  }
}
layer {
  name: "inception_3b/relu_3x3_reduce"
  type: "ReLU"
  bottom: "inception_3b/3x3_reduce"
  top: "inception_3b/3x3_reduce"
}
layer {
  name: "inception_3b/3x3"
  type: "Convolution"
  bottom: "inception_3b/3x3_reduce"
  top: "inception_3b/3x3"
  param {
    lr_mult: 1
    decay_mult: 1
  }
  param {
    lr_mult: 2
    decay_mult: 0
  }
  convolution_param {
    num_output: 192
    pad: 1
    kernel_size: 3
    weight_filler {
      type: "xavier"
      std: 0.03
    }
    bias_filler {
      type: "constant"
      value: 0.2
    }
  }
}
layer {
  name: "inception_3b/relu_3x3"
  type: "ReLU"
  bottom: "inception_3b/3x3"
  top: "inception_3b/3x3"
}
layer {
  name: "inception_3b/5x5_reduce"
  type: "Convolution"
  bottom: "inception_3a/output"
  top: "inception_3b/5x5_reduce"
  param {
    lr_mult: 1
    decay_mult: 1
  }
  param {
    lr_mult: 2
    decay_mult: 0
  }
  convolution_param {
    num_output: 32
    kernel_size: 1
    weight_filler {
      type: "xavier"
      std: 0.2
    }
    bias_filler {
      type: "constant"
      value: 0.2
    }
  }
}
layer {
  name: "inception_3b/relu_5x5_reduce"
  type: "ReLU"
  bottom: "inception_3b/5x5_reduce"
  top: "inception_3b/5x5_reduce"
}
layer {
  name: "inception_3b/5x5"
  type: "Convolution"
  bottom: "inception_3b/5x5_reduce"
  top: "inception_3b/5x5"
  param {
    lr_mult: 1
    decay_mult: 1
  }
  param {
    lr_mult: 2
    decay_mult: 0
  }
  convolution_param {
    num_output: 96
    pad: 2
    kernel_size: 5
    weight_filler {
      type: "xavier"
      std: 0.03
    }
    bias_filler {
      type: "constant"
      value: 0.2
    }
  }
}
layer {
  name: "inception_3b/relu_5x5"
  type: "ReLU"
  bottom: "inception_3b/5x5"
  top: "inception_3b/5x5"
}
layer {
  name: "inception_3b/pool"
  type: "Pooling"
  bottom: "inception_3a/output"
  top: "inception_3b/pool"
  pooling_param {
    pool: MAX
    kernel_size: 3
    stride: 1
    pad: 1
  }
}
layer {
  name: "inception_3b/pool_proj"
  type: "Convolution"
  bottom: "inception_3b/pool"
  top: "inception_3b/pool_proj"
  param {
    lr_mult: 1
    decay_mult: 1
  }
  param {
    lr_mult: 2
    decay_mult: 0
  }
  convolution_param {
    num_output: 64
    kernel_size: 1
    weight_filler {
      type: "xavier"
      std: 0.1
    }
    bias_filler {
      type: "constant"
      value: 0.2
    }
  }
}
layer {
  name: "inception_3b/relu_pool_proj"
  type: "ReLU"
  bottom: "inception_3b/pool_proj"
  top: "inception_3b/pool_proj"
}
layer {
  name: "inception_3b/output"
  type: "Concat"
  bottom: "inception_3b/1x1"
  bottom: "inception_3b/3x3"
  bottom: "inception_3b/5x5"
  bottom: "inception_3b/pool_proj"
  top: "inception_3b/output"
}
layer {
  name: "pool3/3x3_s2"
  type: "Pooling"
  bottom: "inception_3b/output"
  top: "pool3/3x3_s2"
  pooling_param {
    pool: MAX
    kernel_size: 3
    stride: 2
  }
}
layer {
  name: "inception_4a/1x1"
  type: "Convolution"
  bottom: "pool3/3x3_s2"
  top: "inception_4a/1x1"
  param {
    lr_mult: 1
    decay_mult: 1
  }
  param {
    lr_mult: 2
    decay_mult: 0
  }
  convolution_param {
    num_output: 192
    kernel_size: 1
    weight_filler {
      type: "xavier"
      std: 0.03
    }
    bias_filler {
      type: "constant"
      value: 0.2
    }
  }
}
layer {
  name: "inception_4a/relu_1x1"
  type: "ReLU"
  bottom: "inception_4a/1x1"
  top: "inception_4a/1x1"
}
layer {
  name: "inception_4a/3x3_reduce"
  type: "Convolution"
  bottom: "pool3/3x3_s2"
  top: "inception_4a/3x3_reduce"
  param {
    lr_mult: 1
    decay_mult: 1
  }
  param {
    lr_mult: 2
    decay_mult: 0
  }
  convolution_param {
    num_output: 96
    kernel_size: 1
    weight_filler {
      type: "xavier"
      std: 0.09
    }
    bias_filler {
      type: "constant"
      value: 0.2
    }
  }
}
layer {
  name: "inception_4a/relu_3x3_reduce"
  type: "ReLU"
  bottom: "inception_4a/3x3_reduce"
  top: "inception_4a/3x3_reduce"
}
layer {
  name: "inception_4a/3x3"
  type: "Convolution"
  bottom: "inception_4a/3x3_reduce"
  top: "inception_4a/3x3"
  param {
    lr_mult: 1
    decay_mult: 1
  }
  param {
    lr_mult: 2
    decay_mult: 0
  }
  convolution_param {
    num_output: 208
    pad: 1
    kernel_size: 3
    weight_filler {
      type: "xavier"
      std: 0.03
    }
    bias_filler {
      type: "constant"
      value: 0.2
    }
  }
}
layer {
  name: "inception_4a/relu_3x3"
  type: "ReLU"
  bottom: "inception_4a/3x3"
  top: "inception_4a/3x3"
}
layer {
  name: "inception_4a/5x5_reduce"
  type: "Convolution"
  bottom: "pool3/3x3_s2"
  top: "inception_4a/5x5_reduce"
  param {
    lr_mult: 1
    decay_mult: 1
  }
  param {
    lr_mult: 2
    decay_mult: 0
  }
  convolution_param {
    num_output: 16
    kernel_size: 1
    weight_filler {
      type: "xavier"
      std: 0.2
    }
    bias_filler {
      type: "constant"
      value: 0.2
    }
  }
}
layer {
  name: "inception_4a/relu_5x5_reduce"
  type: "ReLU"
  bottom: "inception_4a/5x5_reduce"
  top: "inception_4a/5x5_reduce"
}
layer {
  name: "inception_4a/5x5"
  type: "Convolution"
  bottom: "inception_4a/5x5_reduce"
  top: "inception_4a/5x5"
  param {
    lr_mult: 1
    decay_mult: 1
  }
  param {
    lr_mult: 2
    decay_mult: 0
  }
  convolution_param {
    num_output: 48
    pad: 2
    kernel_size: 5
    weight_filler {
      type: "xavier"
      std: 0.03
    }
    bias_filler {
      type: "constant"
      value: 0.2
    }
  }
}
layer {
  name: "inception_4a/relu_5x5"
  type: "ReLU"
  bottom: "inception_4a/5x5"
  top: "inception_4a/5x5"
}
layer {
  name: "inception_4a/pool"
  type: "Pooling"
  bottom: "pool3/3x3_s2"
  top: "inception_4a/pool"
  pooling_param {
    pool: MAX
    kernel_size: 3
    stride: 1
    pad: 1
  }
}
layer {
  name: "inception_4a/pool_proj"
  type: "Convolution"
  bottom: "inception_4a/pool"
  top: "inception_4a/pool_proj"
  param {
    lr_mult: 1
    decay_mult: 1
  }
  param {
    lr_mult: 2
    decay_mult: 0
  }
  convolution_param {
    num_output: 64
    kernel_size: 1
    weight_filler {
      type: "xavier"
      std: 0.1
    }
    bias_filler {
      type: "constant"
      value: 0.2
    }
  }
}
layer {
  name: "inception_4a/relu_pool_proj"
  type: "ReLU"
  bottom: "inception_4a/pool_proj"
  top: "inception_4a/pool_proj"
}
layer {
  name: "inception_4a/output"
  type: "Concat"
  bottom: "inception_4a/1x1"
  bottom: "inception_4a/3x3"
  bottom: "inception_4a/5x5"
  bottom: "inception_4a/pool_proj"
  top: "inception_4a/output"
}
layer {
  name: "loss1/ave_pool"
  type: "Pooling"
  bottom: "inception_4a/output"
  top: "loss1/ave_pool"
  pooling_param {
    pool: AVE
    kernel_size: 5
    stride: 3
  }
}
layer {
  name: "loss1/conv"
  type: "Convolution"
  bottom: "loss1/ave_pool"
  top: "loss1/conv"
  param {
    lr_mult: 1
    decay_mult: 1
  }
  param {
    lr_mult: 2
    decay_mult: 0
  }
  convolution_param {
    num_output: 128
    kernel_size: 1
    weight_filler {
      type: "xavier"
      std: 0.08
    }
    bias_filler {
      type: "constant"
      value: 0.2
    }
  }
}
layer {
  name: "loss1/relu_conv"
  type: "ReLU"
  bottom: "loss1/conv"
  top: "loss1/conv"
}
layer {
  name: "loss1/fc"
  type: "InnerProduct"
  bottom: "loss1/conv"
  top: "loss1/fc"
  param {
    lr_mult: 1
    decay_mult: 1
  }
  param {
    lr_mult: 2
    decay_mult: 0
  }
  inner_product_param {
    num_output: 1024
    weight_filler {
      type: "xavier"
      std: 0.02
    }
    bias_filler {
      type: "constant"
      value: 0.2
    }
  }
}
layer {
  name: "loss1/relu_fc"
  type: "ReLU"
  bottom: "loss1/fc"
  top: "loss1/fc"
}
layer {
  name: "loss1/drop_fc"
  type: "Dropout"
  bottom: "loss1/fc"
  top: "loss1/fc"
  dropout_param {
    dropout_ratio: 0.7
  }
}
layer {
  name: "loss1/classifier_plantvillage"
  type: "InnerProduct"
  bottom: "loss1/fc"
  top: "loss1/classifier_plantvillage"
  param {
    lr_mult: 1
    decay_mult: 1
  }
  param {
    lr_mult: 2
    decay_mult: 0
  }
  inner_product_param {
    num_output: 38
    weight_filler {
      type: "xavier"
      std: 0.0009765625
    }
    bias_filler {
      type: "constant"
      value: 0
    }
  }
}
layer {
  name: "inception_4b/1x1"
  type: "Convolution"
  bottom: "inception_4a/output"
  top: "inception_4b/1x1"
  param {
    lr_mult: 1
    decay_mult: 1
  }
  param {
    lr_mult: 2
    decay_mult: 0
  }
  convolution_param {
    num_output: 160
    kernel_size: 1
    weight_filler {
      type: "xavier"
      std: 0.03
    }
    bias_filler {
      type: "constant"
      value: 0.2
    }
  }
}
layer {
  name: "inception_4b/relu_1x1"
  type: "ReLU"
  bottom: "inception_4b/1x1"
  top: "inception_4b/1x1"
}
layer {
  name: "inception_4b/3x3_reduce"
  type: "Convolution"
  bottom: "inception_4a/output"
  top: "inception_4b/3x3_reduce"
  param {
    lr_mult: 1
    decay_mult: 1
  }
  param {
    lr_mult: 2
    decay_mult: 0
  }
  convolution_param {
    num_output: 112
    kernel_size: 1
    weight_filler {
      type: "xavier"
      std: 0.09
    }
    bias_filler {
      type: "constant"
      value: 0.2
    }
  }
}
layer {
  name: "inception_4b/relu_3x3_reduce"
  type: "ReLU"
  bottom: "inception_4b/3x3_reduce"
  top: "inception_4b/3x3_reduce"
}
layer {
  name: "inception_4b/3x3"
  type: "Convolution"
  bottom: "inception_4b/3x3_reduce"
  top: "inception_4b/3x3"
  param {
    lr_mult: 1
    decay_mult: 1
  }
  param {
    lr_mult: 2
    decay_mult: 0
  }
  convolution_param {
    num_output: 224
    pad: 1
    kernel_size: 3
    weight_filler {
      type: "xavier"
      std: 0.03
    }
    bias_filler {
      type: "constant"
      value: 0.2
    }
  }
}
layer {
  name: "inception_4b/relu_3x3"
  type: "ReLU"
  bottom: "inception_4b/3x3"
  top: "inception_4b/3x3"
}
layer {
  name: "inception_4b/5x5_reduce"
  type: "Convolution"
  bottom: "inception_4a/output"
  top: "inception_4b/5x5_reduce"
  param {
    lr_mult: 1
    decay_mult: 1
  }
  param {
    lr_mult: 2
    decay_mult: 0
  }
  convolution_param {
    num_output: 24
    kernel_size: 1
    weight_filler {
      type: "xavier"
      std: 0.2
    }
    bias_filler {
      type: "constant"
      value: 0.2
    }
  }
}
layer {
  name: "inception_4b/relu_5x5_reduce"
  type: "ReLU"
  bottom: "inception_4b/5x5_reduce"
  top: "inception_4b/5x5_reduce"
}
layer {
  name: "inception_4b/5x5"
  type: "Convolution"
  bottom: "inception_4b/5x5_reduce"
  top: "inception_4b/5x5"
  param {
    lr_mult: 1
    decay_mult: 1
  }
  param {
    lr_mult: 2
    decay_mult: 0
  }
  convolution_param {
    num_output: 64
    pad: 2
    kernel_size: 5
    weight_filler {
      type: "xavier"
      std: 0.03
    }
    bias_filler {
      type: "constant"
      value: 0.2
    }
  }
}
layer {
  name: "inception_4b/relu_5x5"
  type: "ReLU"
  bottom: "inception_4b/5x5"
  top: "inception_4b/5x5"
}
layer {
  name: "inception_4b/pool"
  type: "Pooling"
  bottom: "inception_4a/output"
  top: "inception_4b/pool"
  pooling_param {
    pool: MAX
    kernel_size: 3
    stride: 1
    pad: 1
  }
}
layer {
  name: "inception_4b/pool_proj"
  type: "Convolution"
  bottom: "inception_4b/pool"
  top: "inception_4b/pool_proj"
  param {
    lr_mult: 1
    decay_mult: 1
  }
  param {
    lr_mult: 2
    decay_mult: 0
  }
  convolution_param {
    num_output: 64
    kernel_size: 1
    weight_filler {
      type: "xavier"
      std: 0.1
    }
    bias_filler {
      type: "constant"
      value: 0.2
    }
  }
}
layer {
  name: "inception_4b/relu_pool_proj"
  type: "ReLU"
  bottom: "inception_4b/pool_proj"
  top: "inception_4b/pool_proj"
}
layer {
  name: "inception_4b/output"
  type: "Concat"
  bottom: "inception_4b/1x1"
  bottom: "inception_4b/3x3"
  bottom: "inception_4b/5x5"
  bottom: "inception_4b/pool_proj"
  top: "inception_4b/output"
}
layer {
  name: "inception_4c/1x1"
  type: "Convolution"
  bottom: "inception_4b/output"
  top: "inception_4c/1x1"
  param {
    lr_mult: 1
    decay_mult: 1
  }
  param {
    lr_mult: 2
    decay_mult: 0
  }
  convolution_param {
    num_output: 128
    kernel_size: 1
    weight_filler {
      type: "xavier"
      std: 0.03
    }
    bias_filler {
      type: "constant"
      value: 0.2
    }
  }
}
layer {
  name: "inception_4c/relu_1x1"
  type: "ReLU"
  bottom: "inception_4c/1x1"
  top: "inception_4c/1x1"
}
layer {
  name: "inception_4c/3x3_reduce"
  type: "Convolution"
  bottom: "inception_4b/output"
  top: "inception_4c/3x3_reduce"
  param {
    lr_mult: 1
    decay_mult: 1
  }
  param {
    lr_mult: 2
    decay_mult: 0
  }
  convolution_param {
    num_output: 128
    kernel_size: 1
    weight_filler {
      type: "xavier"
      std: 0.09
    }
    bias_filler {
      type: "constant"
      value: 0.2
    }
  }
}
layer {
  name: "inception_4c/relu_3x3_reduce"
  type: "ReLU"
  bottom: "inception_4c/3x3_reduce"
  top: "inception_4c/3x3_reduce"
}
layer {
  name: "inception_4c/3x3"
  type: "Convolution"
  bottom: "inception_4c/3x3_reduce"
  top: "inception_4c/3x3"
  param {
    lr_mult: 1
    decay_mult: 1
  }
  param {
    lr_mult: 2
    decay_mult: 0
  }
  convolution_param {
    num_output: 256
    pad: 1
    kernel_size: 3
    weight_filler {
      type: "xavier"
      std: 0.03
    }
    bias_filler {
      type: "constant"
      value: 0.2
    }
  }
}
layer {
  name: "inception_4c/relu_3x3"
  type: "ReLU"
  bottom: "inception_4c/3x3"
  top: "inception_4c/3x3"
}
layer {
  name: "inception_4c/5x5_reduce"
  type: "Convolution"
  bottom: "inception_4b/output"
  top: "inception_4c/5x5_reduce"
  param {
    lr_mult: 1
    decay_mult: 1
  }
  param {
    lr_mult: 2
    decay_mult: 0
  }
  convolution_param {
    num_output: 24
    kernel_size: 1
    weight_filler {
      type: "xavier"
      std: 0.2
    }
    bias_filler {
      type: "constant"
      value: 0.2
    }
  }
}
layer {
  name: "inception_4c/relu_5x5_reduce"
  type: "ReLU"
  bottom: "inception_4c/5x5_reduce"
  top: "inception_4c/5x5_reduce"
}
layer {
  name: "inception_4c/5x5"
  type: "Convolution"
  bottom: "inception_4c/5x5_reduce"
  top: "inception_4c/5x5"
  param {
    lr_mult: 1
    decay_mult: 1
  }
  param {
    lr_mult: 2
    decay_mult: 0
  }
  convolution_param {
    num_output: 64
    pad: 2
    kernel_size: 5
    weight_filler {
      type: "xavier"
      std: 0.03
    }
    bias_filler {
      type: "constant"
      value: 0.2
    }
  }
}
layer {
  name: "inception_4c/relu_5x5"
  type: "ReLU"
  bottom: "inception_4c/5x5"
  top: "inception_4c/5x5"
}
layer {
  name: "inception_4c/pool"
  type: "Pooling"
  bottom: "inception_4b/output"
  top: "inception_4c/pool"
  pooling_param {
    pool: MAX
    kernel_size: 3
    stride: 1
    pad: 1
  }
}
layer {
  name: "inception_4c/pool_proj"
  type: "Convolution"
  bottom: "inception_4c/pool"
  top: "inception_4c/pool_proj"
  param {
    lr_mult: 1
    decay_mult: 1
  }
  param {
    lr_mult: 2
    decay_mult: 0
  }
  convolution_param {
    num_output: 64
    kernel_size: 1
    weight_filler {
      type: "xavier"
      std: 0.1
    }
    bias_filler {
      type: "constant"
      value: 0.2
    }
  }
}
layer {
  name: "inception_4c/relu_pool_proj"
  type: "ReLU"
  bottom: "inception_4c/pool_proj"
  top: "inception_4c/pool_proj"
}
layer {
  name: "inception_4c/output"
  type: "Concat"
  bottom: "inception_4c/1x1"
  bottom: "inception_4c/3x3"
  bottom: "inception_4c/5x5"
  bottom: "inception_4c/pool_proj"
  top: "inception_4c/output"
}
layer {
  name: "inception_4d/1x1"
  type: "Convolution"
  bottom: "inception_4c/output"
  top: "inception_4d/1x1"
  param {
    lr_mult: 1
    decay_mult: 1
  }
  param {
    lr_mult: 2
    decay_mult: 0
  }
  convolution_param {
    num_output: 112
    kernel_size: 1
    weight_filler {
      type: "xavier"
      std: 0.03
    }
    bias_filler {
      type: "constant"
      value: 0.2
    }
  }
}
layer {
  name: "inception_4d/relu_1x1"
  type: "ReLU"
  bottom: "inception_4d/1x1"
  top: "inception_4d/1x1"
}
layer {
  name: "inception_4d/3x3_reduce"
  type: "Convolution"
  bottom: "inception_4c/output"
  top: "inception_4d/3x3_reduce"
  param {
    lr_mult: 1
    decay_mult: 1
  }
  param {
    lr_mult: 2
    decay_mult: 0
  }
  convolution_param {
    num_output: 144
    kernel_size: 1
    weight_filler {
      type: "xavier"
      std: 0.09
    }
    bias_filler {
      type: "constant"
      value: 0.2
    }
  }
}
layer {
  name: "inception_4d/relu_3x3_reduce"
  type: "ReLU"
  bottom: "inception_4d/3x3_reduce"
  top: "inception_4d/3x3_reduce"
}
layer {
  name: "inception_4d/3x3"
  type: "Convolution"
  bottom: "inception_4d/3x3_reduce"
  top: "inception_4d/3x3"
  param {
    lr_mult: 1
    decay_mult: 1
  }
  param {
    lr_mult: 2
    decay_mult: 0
  }
  convolution_param {
    num_output: 288
    pad: 1
    kernel_size: 3
    weight_filler {
      type: "xavier"
      std: 0.03
    }
    bias_filler {
      type: "constant"
      value: 0.2
    }
  }
}
layer {
  name: "inception_4d/relu_3x3"
  type: "ReLU"
  bottom: "inception_4d/3x3"
  top: "inception_4d/3x3"
}
layer {
  name: "inception_4d/5x5_reduce"
  type: "Convolution"
  bottom: "inception_4c/output"
  top: "inception_4d/5x5_reduce"
  param {
    lr_mult: 1
    decay_mult: 1
  }
  param {
    lr_mult: 2
    decay_mult: 0
  }
  convolution_param {
    num_output: 32
    kernel_size: 1
    weight_filler {
      type: "xavier"
      std: 0.2
    }
    bias_filler {
      type: "constant"
      value: 0.2
    }
  }
}
layer {
  name: "inception_4d/relu_5x5_reduce"
  type: "ReLU"
  bottom: "inception_4d/5x5_reduce"
  top: "inception_4d/5x5_reduce"
}
layer {
  name: "inception_4d/5x5"
  type: "Convolution"
  bottom: "inception_4d/5x5_reduce"
  top: "inception_4d/5x5"
  param {
    lr_mult: 1
    decay_mult: 1
  }
  param {
    lr_mult: 2
    decay_mult: 0
  }
  convolution_param {
    num_output: 64
    pad: 2
    kernel_size: 5
    weight_filler {
      type: "xavier"
      std: 0.03
    }
    bias_filler {
      type: "constant"
      value: 0.2
    }
  }
}
layer {
  name: "inception_4d/relu_5x5"
  type: "ReLU"
  bottom: "inception_4d/5x5"
  top: "inception_4d/5x5"
}
layer {
  name: "inception_4d/pool"
  type: "Pooling"
  bottom: "inception_4c/output"
  top: "inception_4d/pool"
  pooling_param {
    pool: MAX
    kernel_size: 3
    stride: 1
    pad: 1
  }
}
layer {
  name: "inception_4d/pool_proj"
  type: "Convolution"
  bottom: "inception_4d/pool"
  top: "inception_4d/pool_proj"
  param {
    lr_mult: 1
    decay_mult: 1
  }
  param {
    lr_mult: 2
    decay_mult: 0
  }
  convolution_param {
    num_output: 64
    kernel_size: 1
    weight_filler {
      type: "xavier"
      std: 0.1
    }
    bias_filler {
      type: "constant"
      value: 0.2
    }
  }
}
layer {
  name: "inception_4d/relu_pool_proj"
  type: "ReLU"
  bottom: "inception_4d/pool_proj"
  top: "inception_4d/pool_proj"
}
layer {
  name: "inception_4d/output"
  type: "Concat"
  bottom: "inception_4d/1x1"
  bottom: "inception_4d/3x3"
  bottom: "inception_4d/5x5"
  bottom: "inception_4d/pool_proj"
  top: "inception_4d/output"
}
layer {
  name: "loss2/ave_pool"
  type: "Pooling"
  bottom: "inception_4d/output"
  top: "loss2/ave_pool"
  pooling_param {
    pool: AVE
    kernel_size: 5
    stride: 3
  }
}
layer {
  name: "loss2/conv"
  type: "Convolution"
  bottom: "loss2/ave_pool"
  top: "loss2/conv"
  param {
    lr_mult: 1
    decay_mult: 1
  }
  param {
    lr_mult: 2
    decay_mult: 0
  }
  convolution_param {
    num_output: 128
    kernel_size: 1
    weight_filler {
      type: "xavier"
      std: 0.08
    }
    bias_filler {
      type: "constant"
      value: 0.2
    }
  }
}
layer {
  name: "loss2/relu_conv"
  type: "ReLU"
  bottom: "loss2/conv"
  top: "loss2/conv"
}
layer {
  name: "loss2/fc"
  type: "InnerProduct"
  bottom: "loss2/conv"
  top: "loss2/fc"
  param {
    lr_mult: 1
    decay_mult: 1
  }
  param {
    lr_mult: 2
    decay_mult: 0
  }
  inner_product_param {
    num_output: 1024
    weight_filler {
      type: "xavier"
      std: 0.02
    }
    bias_filler {
      type: "constant"
      value: 0.2
    }
  }
}
layer {
  name: "loss2/relu_fc"
  type: "ReLU"
  bottom: "loss2/fc"
  top: "loss2/fc"
}
layer {
  name: "loss2/drop_fc"
  type: "Dropout"
  bottom: "loss2/fc"
  top: "loss2/fc"
  dropout_param {
    dropout_ratio: 0.7
  }
}
layer {
  name: "loss2/classifier_plantvillage"
  type: "InnerProduct"
  bottom: "loss2/fc"
  top: "loss2/classifier_plantvillage"
  param {
    lr_mult: 1
    decay_mult: 1
  }
  param {
    lr_mult: 2
    decay_mult: 0
  }
  inner_product_param {
    num_output: 38
    weight_filler {
      type: "xavier"
      std: 0.0009765625
    }
    bias_filler {
      type: "constant"
      value: 0
    }
  }
}
layer {
  name: "inception_4e/1x1"
  type: "Convolution"
  bottom: "inception_4d/output"
  top: "inception_4e/1x1"
  param {
    lr_mult: 1
    decay_mult: 1
  }
  param {
    lr_mult: 2
    decay_mult: 0
  }
  convolution_param {
    num_output: 256
    kernel_size: 1
    weight_filler {
      type: "xavier"
      std: 0.03
    }
    bias_filler {
      type: "constant"
      value: 0.2
    }
  }
}
layer {
  name: "inception_4e/relu_1x1"
  type: "ReLU"
  bottom: "inception_4e/1x1"
  top: "inception_4e/1x1"
}
layer {
  name: "inception_4e/3x3_reduce"
  type: "Convolution"
  bottom: "inception_4d/output"
  top: "inception_4e/3x3_reduce"
  param {
    lr_mult: 1
    decay_mult: 1
  }
  param {
    lr_mult: 2
    decay_mult: 0
  }
  convolution_param {
    num_output: 160
    kernel_size: 1
    weight_filler {
      type: "xavier"
      std: 0.09
    }
    bias_filler {
      type: "constant"
      value: 0.2
    }
  }
}
layer {
  name: "inception_4e/relu_3x3_reduce"
  type: "ReLU"
  bottom: "inception_4e/3x3_reduce"
  top: "inception_4e/3x3_reduce"
}
layer {
  name: "inception_4e/3x3"
  type: "Convolution"
  bottom: "inception_4e/3x3_reduce"
  top: "inception_4e/3x3"
  param {
    lr_mult: 1
    decay_mult: 1
  }
  param {
    lr_mult: 2
    decay_mult: 0
  }
  convolution_param {
    num_output: 320
    pad: 1
    kernel_size: 3
    weight_filler {
      type: "xavier"
      std: 0.03
    }
    bias_filler {
      type: "constant"
      value: 0.2
    }
  }
}
layer {
  name: "inception_4e/relu_3x3"
  type: "ReLU"
  bottom: "inception_4e/3x3"
  top: "inception_4e/3x3"
}
layer {
  name: "inception_4e/5x5_reduce"
  type: "Convolution"
  bottom: "inception_4d/output"
  top: "inception_4e/5x5_reduce"
  param {
    lr_mult: 1
    decay_mult: 1
  }
  param {
    lr_mult: 2
    decay_mult: 0
  }
  convolution_param {
    num_output: 32
    kernel_size: 1
    weight_filler {
      type: "xavier"
      std: 0.2
    }
    bias_filler {
      type: "constant"
      value: 0.2
    }
  }
}
layer {
  name: "inception_4e/relu_5x5_reduce"
  type: "ReLU"
  bottom: "inception_4e/5x5_reduce"
  top: "inception_4e/5x5_reduce"
}
layer {
  name: "inception_4e/5x5"
  type: "Convolution"
  bottom: "inception_4e/5x5_reduce"
  top: "inception_4e/5x5"
  p
I0403 19:19:36.845270  9091 layer_factory.hpp:77] Creating layer data
I0403 19:19:36.845994  9091 net.cpp:91] Creating Layer data
I0403 19:19:36.846042  9091 net.cpp:399] data -> data
I0403 19:19:36.846112  9091 net.cpp:399] data -> label
I0403 19:19:36.846158  9091 data_transformer.cpp:25] Loading mean file from: /home/mohanty/data/final_dataset/lmdb/color-60-40/mean.binaryproto
I0403 19:19:36.847872  9093 db_lmdb.cpp:38] Opened lmdb /home/mohanty/data/final_dataset/lmdb/color-60-40/test_db
I0403 19:19:36.864225  9091 data_layer.cpp:41] output data size: 24,3,224,224
I0403 19:19:36.896567  9091 net.cpp:141] Setting up data
I0403 19:19:36.896659  9091 net.cpp:148] Top shape: 24 3 224 224 (3612672)
I0403 19:19:36.896703  9091 net.cpp:148] Top shape: 24 (24)
I0403 19:19:36.896723  9091 net.cpp:156] Memory required for data: 14450784
I0403 19:19:36.896765  9091 layer_factory.hpp:77] Creating layer label_data_1_split
I0403 19:19:36.896811  9091 net.cpp:91] Creating Layer label_data_1_split
I0403 19:19:36.896839  9091 net.cpp:425] label_data_1_split <- label
I0403 19:19:36.896881  9091 net.cpp:399] label_data_1_split -> label_data_1_split_0
I0403 19:19:36.896915  9091 net.cpp:399] label_data_1_split -> label_data_1_split_1
I0403 19:19:36.896941  9091 net.cpp:399] label_data_1_split -> label_data_1_split_2
I0403 19:19:36.896966  9091 net.cpp:399] label_data_1_split -> label_data_1_split_3
I0403 19:19:36.896991  9091 net.cpp:399] label_data_1_split -> label_data_1_split_4
I0403 19:19:36.897016  9091 net.cpp:399] label_data_1_split -> label_data_1_split_5
I0403 19:19:36.897047  9091 net.cpp:399] label_data_1_split -> label_data_1_split_6
I0403 19:19:36.897107  9091 net.cpp:399] label_data_1_split -> label_data_1_split_7
I0403 19:19:36.897156  9091 net.cpp:399] label_data_1_split -> label_data_1_split_8
I0403 19:19:36.897192  9091 net.cpp:399] label_data_1_split -> label_data_1_split_9
I0403 19:19:36.897343  9091 net.cpp:141] Setting up label_data_1_split
I0403 19:19:36.897372  9091 net.cpp:148] Top shape: 24 (24)
I0403 19:19:36.897397  9091 net.cpp:148] Top shape: 24 (24)
I0403 19:19:36.897416  9091 net.cpp:148] Top shape: 24 (24)
I0403 19:19:36.897452  9091 net.cpp:148] Top shape: 24 (24)
I0403 19:19:36.897474  9091 net.cpp:148] Top shape: 24 (24)
I0403 19:19:36.897491  9091 net.cpp:148] Top shape: 24 (24)
I0403 19:19:36.897511  9091 net.cpp:148] Top shape: 24 (24)
I0403 19:19:36.897531  9091 net.cpp:148] Top shape: 24 (24)
I0403 19:19:36.897549  9091 net.cpp:148] Top shape: 24 (24)
I0403 19:19:36.897568  9091 net.cpp:148] Top shape: 24 (24)
I0403 19:19:36.897629  9091 net.cpp:156] Memory required for data: 14451744
I0403 19:19:36.897647  9091 layer_factory.hpp:77] Creating layer conv1/7x7_s2
I0403 19:19:36.897699  9091 net.cpp:91] Creating Layer conv1/7x7_s2
I0403 19:19:36.897724  9091 net.cpp:425] conv1/7x7_s2 <- data
I0403 19:19:36.897748  9091 net.cpp:399] conv1/7x7_s2 -> conv1/7x7_s2
I0403 19:19:37.063447  9091 net.cpp:141] Setting up conv1/7x7_s2
I0403 19:19:37.063539  9091 net.cpp:148] Top shape: 24 64 112 112 (19267584)
I0403 19:19:37.063560  9091 net.cpp:156] Memory required for data: 91522080
I0403 19:19:37.063599  9091 layer_factory.hpp:77] Creating layer conv1/relu_7x7
I0403 19:19:37.063635  9091 net.cpp:91] Creating Layer conv1/relu_7x7
I0403 19:19:37.063657  9091 net.cpp:425] conv1/relu_7x7 <- conv1/7x7_s2
I0403 19:19:37.063681  9091 net.cpp:386] conv1/relu_7x7 -> conv1/7x7_s2 (in-place)
I0403 19:19:37.063992  9091 net.cpp:141] Setting up conv1/relu_7x7
I0403 19:19:37.064026  9091 net.cpp:148] Top shape: 24 64 112 112 (19267584)
I0403 19:19:37.064046  9091 net.cpp:156] Memory required for data: 168592416
I0403 19:19:37.064070  9091 layer_factory.hpp:77] Creating layer pool1/3x3_s2
I0403 19:19:37.064102  9091 net.cpp:91] Creating Layer pool1/3x3_s2
I0403 19:19:37.064124  9091 net.cpp:425] pool1/3x3_s2 <- conv1/7x7_s2
I0403 19:19:37.064147  9091 net.cpp:399] pool1/3x3_s2 -> pool1/3x3_s2
I0403 19:19:37.064237  9091 net.cpp:141] Setting up pool1/3x3_s2
I0403 19:19:37.064267  9091 net.cpp:148] Top shape: 24 64 56 56 (4816896)
I0403 19:19:37.064286  9091 net.cpp:156] Memory required for data: 187860000
I0403 19:19:37.064304  9091 layer_factory.hpp:77] Creating layer pool1/norm1
I0403 19:19:37.064344  9091 net.cpp:91] Creating Layer pool1/norm1
I0403 19:19:37.064410  9091 net.cpp:425] pool1/norm1 <- pool1/3x3_s2
I0403 19:19:37.064442  9091 net.cpp:399] pool1/norm1 -> pool1/norm1
I0403 19:19:37.064793  9091 net.cpp:141] Setting up pool1/norm1
I0403 19:19:37.064833  9091 net.cpp:148] Top shape: 24 64 56 56 (4816896)
I0403 19:19:37.064851  9091 net.cpp:156] Memory required for data: 207127584
I0403 19:19:37.064870  9091 layer_factory.hpp:77] Creating layer conv2/3x3_reduce
I0403 19:19:37.064901  9091 net.cpp:91] Creating Layer conv2/3x3_reduce
I0403 19:19:37.064923  9091 net.cpp:425] conv2/3x3_reduce <- pool1/norm1
I0403 19:19:37.064944  9091 net.cpp:399] conv2/3x3_reduce -> conv2/3x3_reduce
I0403 19:19:37.066553  9091 net.cpp:141] Setting up conv2/3x3_reduce
I0403 19:19:37.066591  9091 net.cpp:148] Top shape: 24 64 56 56 (4816896)
I0403 19:19:37.066609  9091 net.cpp:156] Memory required for data: 226395168
I0403 19:19:37.066635  9091 layer_factory.hpp:77] Creating layer conv2/relu_3x3_reduce
I0403 19:19:37.066658  9091 net.cpp:91] Creating Layer conv2/relu_3x3_reduce
I0403 19:19:37.066679  9091 net.cpp:425] conv2/relu_3x3_reduce <- conv2/3x3_reduce
I0403 19:19:37.066700  9091 net.cpp:386] conv2/relu_3x3_reduce -> conv2/3x3_reduce (in-place)
I0403 19:19:37.066995  9091 net.cpp:141] Setting up conv2/relu_3x3_reduce
I0403 19:19:37.067028  9091 net.cpp:148] Top shape: 24 64 56 56 (4816896)
I0403 19:19:37.067046  9091 net.cpp:156] Memory required for data: 245662752
I0403 19:19:37.067066  9091 layer_factory.hpp:77] Creating layer conv2/3x3
I0403 19:19:37.067093  9091 net.cpp:91] Creating Layer conv2/3x3
I0403 19:19:37.067114  9091 net.cpp:425] conv2/3x3 <- conv2/3x3_reduce
I0403 19:19:37.067137  9091 net.cpp:399] conv2/3x3 -> conv2/3x3
I0403 19:19:37.069869  9091 net.cpp:141] Setting up conv2/3x3
I0403 19:19:37.069907  9091 net.cpp:148] Top shape: 24 192 56 56 (14450688)
I0403 19:19:37.069927  9091 net.cpp:156] Memory required for data: 303465504
I0403 19:19:37.069954  9091 layer_factory.hpp:77] Creating layer conv2/relu_3x3
I0403 19:19:37.069977  9091 net.cpp:91] Creating Layer conv2/relu_3x3
I0403 19:19:37.069998  9091 net.cpp:425] conv2/relu_3x3 <- conv2/3x3
I0403 19:19:37.070019  9091 net.cpp:386] conv2/relu_3x3 -> conv2/3x3 (in-place)
I0403 19:19:37.070212  9091 net.cpp:141] Setting up conv2/relu_3x3
I0403 19:19:37.070245  9091 net.cpp:148] Top shape: 24 192 56 56 (14450688)
I0403 19:19:37.070304  9091 net.cpp:156] Memory required for data: 361268256
I0403 19:19:37.070323  9091 layer_factory.hpp:77] Creating layer conv2/norm2
I0403 19:19:37.070345  9091 net.cpp:91] Creating Layer conv2/norm2
I0403 19:19:37.070365  9091 net.cpp:425] conv2/norm2 <- conv2/3x3
I0403 19:19:37.070389  9091 net.cpp:399] conv2/norm2 -> conv2/norm2
I0403 19:19:37.070740  9091 net.cpp:141] Setting up conv2/norm2
I0403 19:19:37.070834  9091 net.cpp:148] Top shape: 24 192 56 56 (14450688)
I0403 19:19:37.070861  9091 net.cpp:156] Memory required for data: 419071008
I0403 19:19:37.070880  9091 layer_factory.hpp:77] Creating layer pool2/3x3_s2
I0403 19:19:37.070901  9091 net.cpp:91] Creating Layer pool2/3x3_s2
I0403 19:19:37.070921  9091 net.cpp:425] pool2/3x3_s2 <- conv2/norm2
I0403 19:19:37.070943  9091 net.cpp:399] pool2/3x3_s2 -> pool2/3x3_s2
I0403 19:19:37.071004  9091 net.cpp:141] Setting up pool2/3x3_s2
I0403 19:19:37.071033  9091 net.cpp:148] Top shape: 24 192 28 28 (3612672)
I0403 19:19:37.071051  9091 net.cpp:156] Memory required for data: 433521696
I0403 19:19:37.071070  9091 layer_factory.hpp:77] Creating layer pool2/3x3_s2_pool2/3x3_s2_0_split
I0403 19:19:37.071091  9091 net.cpp:91] Creating Layer pool2/3x3_s2_pool2/3x3_s2_0_split
I0403 19:19:37.071111  9091 net.cpp:425] pool2/3x3_s2_pool2/3x3_s2_0_split <- pool2/3x3_s2
I0403 19:19:37.071132  9091 net.cpp:399] pool2/3x3_s2_pool2/3x3_s2_0_split -> pool2/3x3_s2_pool2/3x3_s2_0_split_0
I0403 19:19:37.071156  9091 net.cpp:399] pool2/3x3_s2_pool2/3x3_s2_0_split -> pool2/3x3_s2_pool2/3x3_s2_0_split_1
I0403 19:19:37.071182  9091 net.cpp:399] pool2/3x3_s2_pool2/3x3_s2_0_split -> pool2/3x3_s2_pool2/3x3_s2_0_split_2
I0403 19:19:37.071205  9091 net.cpp:399] pool2/3x3_s2_pool2/3x3_s2_0_split -> pool2/3x3_s2_pool2/3x3_s2_0_split_3
I0403 19:19:37.071280  9091 net.cpp:141] Setting up pool2/3x3_s2_pool2/3x3_s2_0_split
I0403 19:19:37.071307  9091 net.cpp:148] Top shape: 24 192 28 28 (3612672)
I0403 19:19:37.071327  9091 net.cpp:148] Top shape: 24 192 28 28 (3612672)
I0403 19:19:37.071347  9091 net.cpp:148] Top shape: 24 192 28 28 (3612672)
I0403 19:19:37.071367  9091 net.cpp:148] Top shape: 24 192 28 28 (3612672)
I0403 19:19:37.071384  9091 net.cpp:156] Memory required for data: 491324448
I0403 19:19:37.071403  9091 layer_factory.hpp:77] Creating layer inception_3a/1x1
I0403 19:19:37.071432  9091 net.cpp:91] Creating Layer inception_3a/1x1
I0403 19:19:37.071454  9091 net.cpp:425] inception_3a/1x1 <- pool2/3x3_s2_pool2/3x3_s2_0_split_0
I0403 19:19:37.071477  9091 net.cpp:399] inception_3a/1x1 -> inception_3a/1x1
I0403 19:19:37.073252  9091 net.cpp:141] Setting up inception_3a/1x1
I0403 19:19:37.073297  9091 net.cpp:148] Top shape: 24 64 28 28 (1204224)
I0403 19:19:37.073318  9091 net.cpp:156] Memory required for data: 496141344
I0403 19:19:37.073341  9091 layer_factory.hpp:77] Creating layer inception_3a/relu_1x1
I0403 19:19:37.073364  9091 net.cpp:91] Creating Layer inception_3a/relu_1x1
I0403 19:19:37.073382  9091 net.cpp:425] inception_3a/relu_1x1 <- inception_3a/1x1
I0403 19:19:37.073406  9091 net.cpp:386] inception_3a/relu_1x1 -> inception_3a/1x1 (in-place)
I0403 19:19:37.073635  9091 net.cpp:141] Setting up inception_3a/relu_1x1
I0403 19:19:37.073669  9091 net.cpp:148] Top shape: 24 64 28 28 (1204224)
I0403 19:19:37.073705  9091 net.cpp:156] Memory required for data: 500958240
I0403 19:19:37.073724  9091 layer_factory.hpp:77] Creating layer inception_3a/3x3_reduce
I0403 19:19:37.073752  9091 net.cpp:91] Creating Layer inception_3a/3x3_reduce
I0403 19:19:37.073773  9091 net.cpp:425] inception_3a/3x3_reduce <- pool2/3x3_s2_pool2/3x3_s2_0_split_1
I0403 19:19:37.073799  9091 net.cpp:399] inception_3a/3x3_reduce -> inception_3a/3x3_reduce
I0403 19:19:37.075858  9091 net.cpp:141] Setting up inception_3a/3x3_reduce
I0403 19:19:37.075898  9091 net.cpp:148] Top shape: 24 96 28 28 (1806336)
I0403 19:19:37.075917  9091 net.cpp:156] Memory required for data: 508183584
I0403 19:19:37.075944  9091 layer_factory.hpp:77] Creating layer inception_3a/relu_3x3_reduce
I0403 19:19:37.075990  9091 net.cpp:91] Creating Layer inception_3a/relu_3x3_reduce
I0403 19:19:37.076014  9091 net.cpp:425] inception_3a/relu_3x3_reduce <- inception_3a/3x3_reduce
I0403 19:19:37.076036  9091 net.cpp:386] inception_3a/relu_3x3_reduce -> inception_3a/3x3_reduce (in-place)
I0403 19:19:37.076253  9091 net.cpp:141] Setting up inception_3a/relu_3x3_reduce
I0403 19:19:37.076287  9091 net.cpp:148] Top shape: 24 96 28 28 (1806336)
I0403 19:19:37.076308  9091 net.cpp:156] Memory required for data: 515408928
I0403 19:19:37.076326  9091 layer_factory.hpp:77] Creating layer inception_3a/3x3
I0403 19:19:37.076354  9091 net.cpp:91] Creating Layer inception_3a/3x3
I0403 19:19:37.076375  9091 net.cpp:425] inception_3a/3x3 <- inception_3a/3x3_reduce
I0403 19:19:37.076398  9091 net.cpp:399] inception_3a/3x3 -> inception_3a/3x3
I0403 19:19:37.078457  9091 net.cpp:141] Setting up inception_3a/3x3
I0403 19:19:37.078492  9091 net.cpp:148] Top shape: 24 128 28 28 (2408448)
I0403 19:19:37.078511  9091 net.cpp:156] Memory required for data: 525042720
I0403 19:19:37.078534  9091 layer_factory.hpp:77] Creating layer inception_3a/relu_3x3
I0403 19:19:37.078557  9091 net.cpp:91] Creating Layer inception_3a/relu_3x3
I0403 19:19:37.078584  9091 net.cpp:425] inception_3a/relu_3x3 <- inception_3a/3x3
I0403 19:19:37.078608  9091 net.cpp:386] inception_3a/relu_3x3 -> inception_3a/3x3 (in-place)
I0403 19:19:37.078933  9091 net.cpp:141] Setting up inception_3a/relu_3x3
I0403 19:19:37.078965  9091 net.cpp:148] Top shape: 24 128 28 28 (2408448)
I0403 19:19:37.078984  9091 net.cpp:156] Memory required for data: 534676512
I0403 19:19:37.079002  9091 layer_factory.hpp:77] Creating layer inception_3a/5x5_reduce
I0403 19:19:37.079061  9091 net.cpp:91] Creating Layer inception_3a/5x5_reduce
I0403 19:19:37.079087  9091 net.cpp:425] inception_3a/5x5_reduce <- pool2/3x3_s2_pool2/3x3_s2_0_split_2
I0403 19:19:37.079114  9091 net.cpp:399] inception_3a/5x5_reduce -> inception_3a/5x5_reduce
I0403 19:19:37.080274  9091 net.cpp:141] Setting up inception_3a/5x5_reduce
I0403 19:19:37.080308  9091 net.cpp:148] Top shape: 24 16 28 28 (301056)
I0403 19:19:37.080328  9091 net.cpp:156] Memory required for data: 535880736
I0403 19:19:37.080351  9091 layer_factory.hpp:77] Creating layer inception_3a/relu_5x5_reduce
I0403 19:19:37.080375  9091 net.cpp:91] Creating Layer inception_3a/relu_5x5_reduce
I0403 19:19:37.080395  9091 net.cpp:425] inception_3a/relu_5x5_reduce <- inception_3a/5x5_reduce
I0403 19:19:37.080417  9091 net.cpp:386] inception_3a/relu_5x5_reduce -> inception_3a/5x5_reduce (in-place)
I0403 19:19:37.080767  9091 net.cpp:141] Setting up inception_3a/relu_5x5_reduce
I0403 19:19:37.080801  9091 net.cpp:148] Top shape: 24 16 28 28 (301056)
I0403 19:19:37.080819  9091 net.cpp:156] Memory required for data: 537084960
I0403 19:19:37.080837  9091 layer_factory.hpp:77] Creating layer inception_3a/5x5
I0403 19:19:37.080865  9091 net.cpp:91] Creating Layer inception_3a/5x5
I0403 19:19:37.080888  9091 net.cpp:425] inception_3a/5x5 <- inception_3a/5x5_reduce
I0403 19:19:37.080914  9091 net.cpp:399] inception_3a/5x5 -> inception_3a/5x5
I0403 19:19:37.082124  9091 net.cpp:141] Setting up inception_3a/5x5
I0403 19:19:37.082161  9091 net.cpp:148] Top shape: 24 32 28 28 (602112)
I0403 19:19:37.082182  9091 net.cpp:156] Memory required for data: 539493408
I0403 19:19:37.082206  9091 layer_factory.hpp:77] Creating layer inception_3a/relu_5x5
I0403 19:19:37.082226  9091 net.cpp:91] Creating Layer inception_3a/relu_5x5
I0403 19:19:37.082247  9091 net.cpp:425] inception_3a/relu_5x5 <- inception_3a/5x5
I0403 19:19:37.082270  9091 net.cpp:386] inception_3a/relu_5x5 -> inception_3a/5x5 (in-place)
I0403 19:19:37.082499  9091 net.cpp:141] Setting up inception_3a/relu_5x5
I0403 19:19:37.082531  9091 net.cpp:148] Top shape: 24 32 28 28 (602112)
I0403 19:19:37.082551  9091 net.cpp:156] Memory required for data: 541901856
I0403 19:19:37.082567  9091 layer_factory.hpp:77] Creating layer inception_3a/pool
I0403 19:19:37.082589  9091 net.cpp:91] Creating Layer inception_3a/pool
I0403 19:19:37.082608  9091 net.cpp:425] inception_3a/pool <- pool2/3x3_s2_pool2/3x3_s2_0_split_3
I0403 19:19:37.082651  9091 net.cpp:399] inception_3a/pool -> inception_3a/pool
I0403 19:19:37.082726  9091 net.cpp:141] Setting up inception_3a/pool
I0403 19:19:37.082756  9091 net.cpp:148] Top shape: 24 192 28 28 (3612672)
I0403 19:19:37.082774  9091 net.cpp:156] Memory required for data: 556352544
I0403 19:19:37.082792  9091 layer_factory.hpp:77] Creating layer inception_3a/pool_proj
I0403 19:19:37.082819  9091 net.cpp:91] Creating Layer inception_3a/pool_proj
I0403 19:19:37.082842  9091 net.cpp:425] inception_3a/pool_proj <- inception_3a/pool
I0403 19:19:37.082869  9091 net.cpp:399] inception_3a/pool_proj -> inception_3a/pool_proj
I0403 19:19:37.084043  9091 net.cpp:141] Setting up inception_3a/pool_proj
I0403 19:19:37.084079  9091 net.cpp:148] Top shape: 24 32 28 28 (602112)
I0403 19:19:37.084096  9091 net.cpp:156] Memory required for data: 558760992
I0403 19:19:37.084126  9091 layer_factory.hpp:77] Creating layer inception_3a/relu_pool_proj
I0403 19:19:37.084153  9091 net.cpp:91] Creating Layer inception_3a/relu_pool_proj
I0403 19:19:37.084173  9091 net.cpp:425] inception_3a/relu_pool_proj <- inception_3a/pool_proj
I0403 19:19:37.084195  9091 net.cpp:386] inception_3a/relu_pool_proj -> inception_3a/pool_proj (in-place)
I0403 19:19:37.084537  9091 net.cpp:141] Setting up inception_3a/relu_pool_proj
I0403 19:19:37.084573  9091 net.cpp:148] Top shape: 24 32 28 28 (602112)
I0403 19:19:37.084592  9091 net.cpp:156] Memory required for data: 561169440
I0403 19:19:37.084610  9091 layer_factory.hpp:77] Creating layer inception_3a/output
I0403 19:19:37.084632  9091 net.cpp:91] Creating Layer inception_3a/output
I0403 19:19:37.084667  9091 net.cpp:425] inception_3a/output <- inception_3a/1x1
I0403 19:19:37.084689  9091 net.cpp:425] inception_3a/output <- inception_3a/3x3
I0403 19:19:37.084708  9091 net.cpp:425] inception_3a/output <- inception_3a/5x5
I0403 19:19:37.084755  9091 net.cpp:425] inception_3a/output <- inception_3a/pool_proj
I0403 19:19:37.084780  9091 net.cpp:399] inception_3a/output -> inception_3a/output
I0403 19:19:37.084837  9091 net.cpp:141] Setting up inception_3a/output
I0403 19:19:37.084869  9091 net.cpp:148] Top shape: 24 256 28 28 (4816896)
I0403 19:19:37.084888  9091 net.cpp:156] Memory required for data: 580437024
I0403 19:19:37.084908  9091 layer_factory.hpp:77] Creating layer inception_3a/output_inception_3a/output_0_split
I0403 19:19:37.084928  9091 net.cpp:91] Creating Layer inception_3a/output_inception_3a/output_0_split
I0403 19:19:37.084946  9091 net.cpp:425] inception_3a/output_inception_3a/output_0_split <- inception_3a/output
I0403 19:19:37.084969  9091 net.cpp:399] inception_3a/output_inception_3a/output_0_split -> inception_3a/output_inception_3a/output_0_split_0
I0403 19:19:37.085008  9091 net.cpp:399] inception_3a/output_inception_3a/output_0_split -> inception_3a/output_inception_3a/output_0_split_1
I0403 19:19:37.085058  9091 net.cpp:399] inception_3a/output_inception_3a/output_0_split -> inception_3a/output_inception_3a/output_0_split_2
I0403 19:19:37.085105  9091 net.cpp:399] inception_3a/output_inception_3a/output_0_split -> inception_3a/output_inception_3a/output_0_split_3
I0403 19:19:37.085206  9091 net.cpp:141] Setting up inception_3a/output_inception_3a/output_0_split
I0403 19:19:37.085249  9091 net.cpp:148] Top shape: 24 256 28 28 (4816896)
I0403 19:19:37.085271  9091 net.cpp:148] Top shape: 24 256 28 28 (4816896)
I0403 19:19:37.085291  9091 net.cpp:148] Top shape: 24 256 28 28 (4816896)
I0403 19:19:37.085310  9091 net.cpp:148] Top shape: 24 256 28 28 (4816896)
I0403 19:19:37.085327  9091 net.cpp:156] Memory required for data: 657507360
I0403 19:19:37.085345  9091 layer_factory.hpp:77] Creating layer inception_3b/1x1
I0403 19:19:37.085372  9091 net.cpp:91] Creating Layer inception_3b/1x1
I0403 19:19:37.085393  9091 net.cpp:425] inception_3b/1x1 <- inception_3a/output_inception_3a/output_0_split_0
I0403 19:19:37.085420  9091 net.cpp:399] inception_3b/1x1 -> inception_3b/1x1
I0403 19:19:37.086798  9091 net.cpp:141] Setting up inception_3b/1x1
I0403 19:19:37.086854  9091 net.cpp:148] Top shape: 24 128 28 28 (2408448)
I0403 19:19:37.086875  9091 net.cpp:156] Memory required for data: 667141152
I0403 19:19:37.086899  9091 layer_factory.hpp:77] Creating layer inception_3b/relu_1x1
I0403 19:19:37.086921  9091 net.cpp:91] Creating Layer inception_3b/relu_1x1
I0403 19:19:37.086941  9091 net.cpp:425] inception_3b/relu_1x1 <- inception_3b/1x1
I0403 19:19:37.086962  9091 net.cpp:386] inception_3b/relu_1x1 -> inception_3b/1x1 (in-place)
I0403 19:19:37.087177  9091 net.cpp:141] Setting up inception_3b/relu_1x1
I0403 19:19:37.087208  9091 net.cpp:148] Top shape: 24 128 28 28 (2408448)
I0403 19:19:37.087226  9091 net.cpp:156] Memory required for data: 676774944
I0403 19:19:37.087244  9091 layer_factory.hpp:77] Creating layer inception_3b/3x3_reduce
I0403 19:19:37.087272  9091 net.cpp:91] Creating Layer inception_3b/3x3_reduce
I0403 19:19:37.087294  9091 net.cpp:425] inception_3b/3x3_reduce <- inception_3a/output_inception_3a/output_0_split_1
I0403 19:19:37.087321  9091 net.cpp:399] inception_3b/3x3_reduce -> inception_3b/3x3_reduce
I0403 19:19:37.088690  9091 net.cpp:141] Setting up inception_3b/3x3_reduce
I0403 19:19:37.088727  9091 net.cpp:148] Top shape: 24 128 28 28 (2408448)
I0403 19:19:37.088750  9091 net.cpp:156] Memory required for data: 686408736
I0403 19:19:37.088773  9091 layer_factory.hpp:77] Creating layer inception_3b/relu_3x3_reduce
I0403 19:19:37.088796  9091 net.cpp:91] Creating Layer inception_3b/relu_3x3_reduce
I0403 19:19:37.088815  9091 net.cpp:425] inception_3b/relu_3x3_reduce <- inception_3b/3x3_reduce
I0403 19:19:37.088840  9091 net.cpp:386] inception_3b/relu_3x3_reduce -> inception_3b/3x3_reduce (in-place)
I0403 19:19:37.089051  9091 net.cpp:141] Setting up inception_3b/relu_3x3_reduce
I0403 19:19:37.089082  9091 net.cpp:148] Top shape: 24 128 28 28 (2408448)
I0403 19:19:37.089099  9091 net.cpp:156] Memory required for data: 696042528
I0403 19:19:37.089118  9091 layer_factory.hpp:77] Creating layer inception_3b/3x3
I0403 19:19:37.089148  9091 net.cpp:91] Creating Layer inception_3b/3x3
I0403 19:19:37.089170  9091 net.cpp:425] inception_3b/3x3 <- inception_3b/3x3_reduce
I0403 19:19:37.089196  9091 net.cpp:399] inception_3b/3x3 -> inception_3b/3x3
I0403 19:19:37.092727  9091 net.cpp:141] Setting up inception_3b/3x3
I0403 19:19:37.092764  9091 net.cpp:148] Top shape: 24 192 28 28 (3612672)
I0403 19:19:37.092783  9091 net.cpp:156] Memory required for data: 710493216
I0403 19:19:37.092808  9091 layer_factory.hpp:77] Creating layer inception_3b/relu_3x3
I0403 19:19:37.092828  9091 net.cpp:91] Creating Layer inception_3b/relu_3x3
I0403 19:19:37.092872  9091 net.cpp:425] inception_3b/relu_3x3 <- inception_3b/3x3
I0403 19:19:37.092895  9091 net.cpp:386] inception_3b/relu_3x3 -> inception_3b/3x3 (in-place)
I0403 19:19:37.093228  9091 net.cpp:141] Setting up inception_3b/relu_3x3
I0403 19:19:37.093261  9091 net.cpp:148] Top shape: 24 192 28 28 (3612672)
I0403 19:19:37.093279  9091 net.cpp:156] Memory required for data: 724943904
I0403 19:19:37.093298  9091 layer_factory.hpp:77] Creating layer inception_3b/5x5_reduce
I0403 19:19:37.093327  9091 net.cpp:91] Creating Layer inception_3b/5x5_reduce
I0403 19:19:37.093350  9091 net.cpp:425] inception_3b/5x5_reduce <- inception_3a/output_inception_3a/output_0_split_2
I0403 19:19:37.093377  9091 net.cpp:399] inception_3b/5x5_reduce -> inception_3b/5x5_reduce
I0403 19:19:37.094573  9091 net.cpp:141] Setting up inception_3b/5x5_reduce
I0403 19:19:37.094610  9091 net.cpp:148] Top shape: 24 32 28 28 (602112)
I0403 19:19:37.094630  9091 net.cpp:156] Memory required for data: 727352352
I0403 19:19:37.094653  9091 layer_factory.hpp:77] Creating layer inception_3b/relu_5x5_reduce
I0403 19:19:37.094676  9091 net.cpp:91] Creating Layer inception_3b/relu_5x5_reduce
I0403 19:19:37.094696  9091 net.cpp:425] inception_3b/relu_5x5_reduce <- inception_3b/5x5_reduce
I0403 19:19:37.094719  9091 net.cpp:386] inception_3b/relu_5x5_reduce -> inception_3b/5x5_reduce (in-place)
I0403 19:19:37.094930  9091 net.cpp:141] Setting up inception_3b/relu_5x5_reduce
I0403 19:19:37.094976  9091 net.cpp:148] Top shape: 24 32 28 28 (602112)
I0403 19:19:37.094995  9091 net.cpp:156] Memory required for data: 729760800
I0403 19:19:37.095013  9091 layer_factory.hpp:77] Creating layer inception_3b/5x5
I0403 19:19:37.095041  9091 net.cpp:91] Creating Layer inception_3b/5x5
I0403 19:19:37.095062  9091 net.cpp:425] inception_3b/5x5 <- inception_3b/5x5_reduce
I0403 19:19:37.095093  9091 net.cpp:399] inception_3b/5x5 -> inception_3b/5x5
I0403 19:19:37.097463  9091 net.cpp:141] Setting up inception_3b/5x5
I0403 19:19:37.097506  9091 net.cpp:148] Top shape: 24 96 28 28 (1806336)
I0403 19:19:37.097525  9091 net.cpp:156] Memory required for data: 736986144
I0403 19:19:37.097549  9091 layer_factory.hpp:77] Creating layer inception_3b/relu_5x5
I0403 19:19:37.097573  9091 net.cpp:91] Creating Layer inception_3b/relu_5x5
I0403 19:19:37.097594  9091 net.cpp:425] inception_3b/relu_5x5 <- inception_3b/5x5
I0403 19:19:37.097616  9091 net.cpp:386] inception_3b/relu_5x5 -> inception_3b/5x5 (in-place)
I0403 19:19:37.097846  9091 net.cpp:141] Setting up inception_3b/relu_5x5
I0403 19:19:37.097882  9091 net.cpp:148] Top shape: 24 96 28 28 (1806336)
I0403 19:19:37.097899  9091 net.cpp:156] Memory required for data: 744211488
I0403 19:19:37.097918  9091 layer_factory.hpp:77] Creating layer inception_3b/pool
I0403 19:19:37.097940  9091 net.cpp:91] Creating Layer inception_3b/pool
I0403 19:19:37.097959  9091 net.cpp:425] inception_3b/pool <- inception_3a/output_inception_3a/output_0_split_3
I0403 19:19:37.097981  9091 net.cpp:399] inception_3b/pool -> inception_3b/pool
I0403 19:19:37.098049  9091 net.cpp:141] Setting up inception_3b/pool
I0403 19:19:37.098078  9091 net.cpp:148] Top shape: 24 256 28 28 (4816896)
I0403 19:19:37.098095  9091 net.cpp:156] Memory required for data: 763479072
I0403 19:19:37.098114  9091 layer_factory.hpp:77] Creating layer inception_3b/pool_proj
I0403 19:19:37.098142  9091 net.cpp:91] Creating Layer inception_3b/pool_proj
I0403 19:19:37.098165  9091 net.cpp:425] inception_3b/pool_proj <- inception_3b/pool
I0403 19:19:37.098188  9091 net.cpp:399] inception_3b/pool_proj -> inception_3b/pool_proj
I0403 19:19:37.099480  9091 net.cpp:141] Setting up inception_3b/pool_proj
I0403 19:19:37.099514  9091 net.cpp:148] Top shape: 24 64 28 28 (1204224)
I0403 19:19:37.099534  9091 net.cpp:156] Memory required for data: 768295968
I0403 19:19:37.099555  9091 layer_factory.hpp:77] Creating layer inception_3b/relu_pool_proj
I0403 19:19:37.099581  9091 net.cpp:91] Creating Layer inception_3b/relu_pool_proj
I0403 19:19:37.099602  9091 net.cpp:425] inception_3b/relu_pool_proj <- inception_3b/pool_proj
I0403 19:19:37.099625  9091 net.cpp:386] inception_3b/relu_pool_proj -> inception_3b/pool_proj (in-place)
I0403 19:19:37.100100  9091 net.cpp:141] Setting up inception_3b/relu_pool_proj
I0403 19:19:37.100132  9091 net.cpp:148] Top shape: 24 64 28 28 (1204224)
I0403 19:19:37.100152  9091 net.cpp:156] Memory required for data: 773112864
I0403 19:19:37.100169  9091 layer_factory.hpp:77] Creating layer inception_3b/output
I0403 19:19:37.100193  9091 net.cpp:91] Creating Layer inception_3b/output
I0403 19:19:37.100215  9091 net.cpp:425] inception_3b/output <- inception_3b/1x1
I0403 19:19:37.100237  9091 net.cpp:425] inception_3b/output <- inception_3b/3x3
I0403 19:19:37.100256  9091 net.cpp:425] inception_3b/output <- inception_3b/5x5
I0403 19:19:37.100275  9091 net.cpp:425] inception_3b/output <- inception_3b/pool_proj
I0403 19:19:37.100296  9091 net.cpp:399] inception_3b/output -> inception_3b/output
I0403 19:19:37.100348  9091 net.cpp:141] Setting up inception_3b/output
I0403 19:19:37.100379  9091 net.cpp:148] Top shape: 24 480 28 28 (9031680)
I0403 19:19:37.100399  9091 net.cpp:156] Memory required for data: 809239584
I0403 19:19:37.100416  9091 layer_factory.hpp:77] Creating layer pool3/3x3_s2
I0403 19:19:37.100445  9091 net.cpp:91] Creating Layer pool3/3x3_s2
I0403 19:19:37.100466  9091 net.cpp:425] pool3/3x3_s2 <- inception_3b/output
I0403 19:19:37.100492  9091 net.cpp:399] pool3/3x3_s2 -> pool3/3x3_s2
I0403 19:19:37.100579  9091 net.cpp:141] Setting up pool3/3x3_s2
I0403 19:19:37.100611  9091 net.cpp:148] Top shape: 24 480 14 14 (2257920)
I0403 19:19:37.100631  9091 net.cpp:156] Memory required for data: 818271264
I0403 19:19:37.100651  9091 layer_factory.hpp:77] Creating layer pool3/3x3_s2_pool3/3x3_s2_0_split
I0403 19:19:37.100671  9091 net.cpp:91] Creating Layer pool3/3x3_s2_pool3/3x3_s2_0_split
I0403 19:19:37.100689  9091 net.cpp:425] pool3/3x3_s2_pool3/3x3_s2_0_split <- pool3/3x3_s2
I0403 19:19:37.100710  9091 net.cpp:399] pool3/3x3_s2_pool3/3x3_s2_0_split -> pool3/3x3_s2_pool3/3x3_s2_0_split_0
I0403 19:19:37.100733  9091 net.cpp:399] pool3/3x3_s2_pool3/3x3_s2_0_split -> pool3/3x3_s2_pool3/3x3_s2_0_split_1
I0403 19:19:37.100760  9091 net.cpp:399] pool3/3x3_s2_pool3/3x3_s2_0_split -> pool3/3x3_s2_pool3/3x3_s2_0_split_2
I0403 19:19:37.100788  9091 net.cpp:399] pool3/3x3_s2_pool3/3x3_s2_0_split -> pool3/3x3_s2_pool3/3x3_s2_0_split_3
I0403 19:19:37.100883  9091 net.cpp:141] Setting up pool3/3x3_s2_pool3/3x3_s2_0_split
I0403 19:19:37.100913  9091 net.cpp:148] Top shape: 24 480 14 14 (2257920)
I0403 19:19:37.100932  9091 net.cpp:148] Top shape: 24 480 14 14 (2257920)
I0403 19:19:37.100951  9091 net.cpp:148] Top shape: 24 480 14 14 (2257920)
I0403 19:19:37.100971  9091 net.cpp:148] Top shape: 24 480 14 14 (2257920)
I0403 19:19:37.100988  9091 net.cpp:156] Memory required for data: 854397984
I0403 19:19:37.101006  9091 layer_factory.hpp:77] Creating layer inception_4a/1x1
I0403 19:19:37.101033  9091 net.cpp:91] Creating Layer inception_4a/1x1
I0403 19:19:37.101055  9091 net.cpp:425] inception_4a/1x1 <- pool3/3x3_s2_pool3/3x3_s2_0_split_0
I0403 19:19:37.101081  9091 net.cpp:399] inception_4a/1x1 -> inception_4a/1x1
I0403 19:19:37.103005  9091 net.cpp:141] Setting up inception_4a/1x1
I0403 19:19:37.103040  9091 net.cpp:148] Top shape: 24 192 14 14 (903168)
I0403 19:19:37.103060  9091 net.cpp:156] Memory required for data: 858010656
I0403 19:19:37.103082  9091 layer_factory.hpp:77] Creating layer inception_4a/relu_1x1
I0403 19:19:37.103106  9091 net.cpp:91] Creating Layer inception_4a/relu_1x1
I0403 19:19:37.103127  9091 net.cpp:425] inception_4a/relu_1x1 <- inception_4a/1x1
I0403 19:19:37.103149  9091 net.cpp:386] inception_4a/relu_1x1 -> inception_4a/1x1 (in-place)
I0403 19:19:37.103359  9091 net.cpp:141] Setting up inception_4a/relu_1x1
I0403 19:19:37.103394  9091 net.cpp:148] Top shape: 24 192 14 14 (903168)
I0403 19:19:37.103413  9091 net.cpp:156] Memory required for data: 861623328
I0403 19:19:37.103437  9091 layer_factory.hpp:77] Creating layer inception_4a/3x3_reduce
I0403 19:19:37.103466  9091 net.cpp:91] Creating Layer inception_4a/3x3_reduce
I0403 19:19:37.103488  9091 net.cpp:425] inception_4a/3x3_reduce <- pool3/3x3_s2_pool3/3x3_s2_0_split_1
I0403 19:19:37.103513  9091 net.cpp:399] inception_4a/3x3_reduce -> inception_4a/3x3_reduce
I0403 19:19:37.105058  9091 net.cpp:141] Setting up inception_4a/3x3_reduce
I0403 19:19:37.105093  9091 net.cpp:148] Top shape: 24 96 14 14 (451584)
I0403 19:19:37.105113  9091 net.cpp:156] Memory required for data: 863429664
I0403 19:19:37.105144  9091 layer_factory.hpp:77] Creating layer inception_4a/relu_3x3_reduce
I0403 19:19:37.105170  9091 net.cpp:91] Creating Layer inception_4a/relu_3x3_reduce
I0403 19:19:37.105192  9091 net.cpp:425] inception_4a/relu_3x3_reduce <- inception_4a/3x3_reduce
I0403 19:19:37.105214  9091 net.cpp:386] inception_4a/relu_3x3_reduce -> inception_4a/3x3_reduce (in-place)
I0403 19:19:37.105430  9091 net.cpp:141] Setting up inception_4a/relu_3x3_reduce
I0403 19:19:37.105465  9091 net.cpp:148] Top shape: 24 96 14 14 (451584)
I0403 19:19:37.105485  9091 net.cpp:156] Memory required for data: 865236000
I0403 19:19:37.105511  9091 layer_factory.hpp:77] Creating layer inception_4a/3x3
I0403 19:19:37.105540  9091 net.cpp:91] Creating Layer inception_4a/3x3
I0403 19:19:37.105562  9091 net.cpp:425] inception_4a/3x3 <- inception_4a/3x3_reduce
I0403 19:19:37.105586  9091 net.cpp:399] inception_4a/3x3 -> inception_4a/3x3
I0403 19:19:37.108815  9091 net.cpp:141] Setting up inception_4a/3x3
I0403 19:19:37.108856  9091 net.cpp:148] Top shape: 24 208 14 14 (978432)
I0403 19:19:37.108877  9091 net.cpp:156] Memory required for data: 869149728
I0403 19:19:37.108901  9091 layer_factory.hpp:77] Creating layer inception_4a/relu_3x3
I0403 19:19:37.108922  9091 net.cpp:91] Creating Layer inception_4a/relu_3x3
I0403 19:19:37.108942  9091 net.cpp:425] inception_4a/relu_3x3 <- inception_4a/3x3
I0403 19:19:37.108968  9091 net.cpp:386] inception_4a/relu_3x3 -> inception_4a/3x3 (in-place)
I0403 19:19:37.109303  9091 net.cpp:141] Setting up inception_4a/relu_3x3
I0403 19:19:37.109338  9091 net.cpp:148] Top shape: 24 208 14 14 (978432)
I0403 19:19:37.109359  9091 net.cpp:156] Memory required for data: 873063456
I0403 19:19:37.109376  9091 layer_factory.hpp:77] Creating layer inception_4a/5x5_reduce
I0403 19:19:37.109406  9091 net.cpp:91] Creating Layer inception_4a/5x5_reduce
I0403 19:19:37.109432  9091 net.cpp:425] inception_4a/5x5_reduce <- pool3/3x3_s2_pool3/3x3_s2_0_split_2
I0403 19:19:37.109459  9091 net.cpp:399] inception_4a/5x5_reduce -> inception_4a/5x5_reduce
I0403 19:19:37.110694  9091 net.cpp:141] Setting up inception_4a/5x5_reduce
I0403 19:19:37.110733  9091 net.cpp:148] Top shape: 24 16 14 14 (75264)
I0403 19:19:37.110752  9091 net.cpp:156] Memory required for data: 873364512
I0403 19:19:37.110775  9091 layer_factory.hpp:77] Creating layer inception_4a/relu_5x5_reduce
I0403 19:19:37.110796  9091 net.cpp:91] Creating Layer inception_4a/relu_5x5_reduce
I0403 19:19:37.110817  9091 net.cpp:425] inception_4a/relu_5x5_reduce <- inception_4a/5x5_reduce
I0403 19:19:37.110841  9091 net.cpp:386] inception_4a/relu_5x5_reduce -> inception_4a/5x5_reduce (in-place)
I0403 19:19:37.111059  9091 net.cpp:141] Setting up inception_4a/relu_5x5_reduce
I0403 19:19:37.111104  9091 net.cpp:148] Top shape: 24 16 14 14 (75264)
I0403 19:19:37.111124  9091 net.cpp:156] Memory required for data: 873665568
I0403 19:19:37.111140  9091 layer_factory.hpp:77] Creating layer inception_4a/5x5
I0403 19:19:37.111167  9091 net.cpp:91] Creating Layer inception_4a/5x5
I0403 19:19:37.111191  9091 net.cpp:425] inception_4a/5x5 <- inception_4a/5x5_reduce
I0403 19:19:37.111217  9091 net.cpp:399] inception_4a/5x5 -> inception_4a/5x5
I0403 19:19:37.112542  9091 net.cpp:141] Setting up inception_4a/5x5
I0403 19:19:37.112576  9091 net.cpp:148] Top shape: 24 48 14 14 (225792)
I0403 19:19:37.112596  9091 net.cpp:156] Memory required for data: 874568736
I0403 19:19:37.112619  9091 layer_factory.hpp:77] Creating layer inception_4a/relu_5x5
I0403 19:19:37.112644  9091 net.cpp:91] Creating Layer inception_4a/relu_5x5
I0403 19:19:37.112665  9091 net.cpp:425] inception_4a/relu_5x5 <- inception_4a/5x5
I0403 19:19:37.112686  9091 net.cpp:386] inception_4a/relu_5x5 -> inception_4a/5x5 (in-place)
I0403 19:19:37.112910  9091 net.cpp:141] Setting up inception_4a/relu_5x5
I0403 19:19:37.112941  9091 net.cpp:148] Top shape: 24 48 14 14 (225792)
I0403 19:19:37.112967  9091 net.cpp:156] Memory required for data: 875471904
I0403 19:19:37.112984  9091 layer_factory.hpp:77] Creating layer inception_4a/pool
I0403 19:19:37.113011  9091 net.cpp:91] Creating Layer inception_4a/pool
I0403 19:19:37.113032  9091 net.cpp:425] inception_4a/pool <- pool3/3x3_s2_pool3/3x3_s2_0_split_3
I0403 19:19:37.113055  9091 net.cpp:399] inception_4a/pool -> inception_4a/pool
I0403 19:19:37.113131  9091 net.cpp:141] Setting up inception_4a/pool
I0403 19:19:37.113162  9091 net.cpp:148] Top shape: 24 480 14 14 (2257920)
I0403 19:19:37.113179  9091 net.cpp:156] Memory required for data: 884503584
I0403 19:19:37.113198  9091 layer_factory.hpp:77] Creating layer inception_4a/pool_proj
I0403 19:19:37.113224  9091 net.cpp:91] Creating Layer inception_4a/pool_proj
I0403 19:19:37.113246  9091 net.cpp:425] inception_4a/pool_proj <- inception_4a/pool
I0403 19:19:37.113272  9091 net.cpp:399] inception_4a/pool_proj -> inception_4a/pool_proj
I0403 19:19:37.114699  9091 net.cpp:141] Setting up inception_4a/pool_proj
I0403 19:19:37.114734  9091 net.cpp:148] Top shape: 24 64 14 14 (301056)
I0403 19:19:37.114771  9091 net.cpp:156] Memory required for data: 885707808
I0403 19:19:37.114796  9091 layer_factory.hpp:77] Creating layer inception_4a/relu_pool_proj
I0403 19:19:37.114823  9091 net.cpp:91] Creating Layer inception_4a/relu_pool_proj
I0403 19:19:37.114845  9091 net.cpp:425] inception_4a/relu_pool_proj <- inception_4a/pool_proj
I0403 19:19:37.114867  9091 net.cpp:386] inception_4a/relu_pool_proj -> inception_4a/pool_proj (in-place)
I0403 19:19:37.115214  9091 net.cpp:141] Setting up inception_4a/relu_pool_proj
I0403 19:19:37.115247  9091 net.cpp:148] Top shape: 24 64 14 14 (301056)
I0403 19:19:37.115267  9091 net.cpp:156] Memory required for data: 886912032
I0403 19:19:37.115285  9091 layer_factory.hpp:77] Creating layer inception_4a/output
I0403 19:19:37.115310  9091 net.cpp:91] Creating Layer inception_4a/output
I0403 19:19:37.115330  9091 net.cpp:425] inception_4a/output <- inception_4a/1x1
I0403 19:19:37.115351  9091 net.cpp:425] inception_4a/output <- inception_4a/3x3
I0403 19:19:37.115371  9091 net.cpp:425] inception_4a/output <- inception_4a/5x5
I0403 19:19:37.115391  9091 net.cpp:425] inception_4a/output <- inception_4a/pool_proj
I0403 19:19:37.115412  9091 net.cpp:399] inception_4a/output -> inception_4a/output
I0403 19:19:37.115475  9091 net.cpp:141] Setting up inception_4a/output
I0403 19:19:37.115505  9091 net.cpp:148] Top shape: 24 512 14 14 (2408448)
I0403 19:19:37.115522  9091 net.cpp:156] Memory required for data: 896545824
I0403 19:19:37.115540  9091 layer_factory.hpp:77] Creating layer inception_4a/output_inception_4a/output_0_split
I0403 19:19:37.115563  9091 net.cpp:91] Creating Layer inception_4a/output_inception_4a/output_0_split
I0403 19:19:37.115582  9091 net.cpp:425] inception_4a/output_inception_4a/output_0_split <- inception_4a/output
I0403 19:19:37.115607  9091 net.cpp:399] inception_4a/output_inception_4a/output_0_split -> inception_4a/output_inception_4a/output_0_split_0
I0403 19:19:37.115633  9091 net.cpp:399] inception_4a/output_inception_4a/output_0_split -> inception_4a/output_inception_4a/output_0_split_1
I0403 19:19:37.115659  9091 net.cpp:399] inception_4a/output_inception_4a/output_0_split -> inception_4a/output_inception_4a/output_0_split_2
I0403 19:19:37.115685  9091 net.cpp:399] inception_4a/output_inception_4a/output_0_split -> inception_4a/output_inception_4a/output_0_split_3
I0403 19:19:37.115710  9091 net.cpp:399] inception_4a/output_inception_4a/output_0_split -> inception_4a/output_inception_4a/output_0_split_4
I0403 19:19:37.115823  9091 net.cpp:141] Setting up inception_4a/output_inception_4a/output_0_split
I0403 19:19:37.115851  9091 net.cpp:148] Top shape: 24 512 14 14 (2408448)
I0403 19:19:37.115875  9091 net.cpp:148] Top shape: 24 512 14 14 (2408448)
I0403 19:19:37.115895  9091 net.cpp:148] Top shape: 24 512 14 14 (2408448)
I0403 19:19:37.115913  9091 net.cpp:148] Top shape: 24 512 14 14 (2408448)
I0403 19:19:37.115932  9091 net.cpp:148] Top shape: 24 512 14 14 (2408448)
I0403 19:19:37.115949  9091 net.cpp:156] Memory required for data: 944714784
I0403 19:19:37.115967  9091 layer_factory.hpp:77] Creating layer loss1/ave_pool
I0403 19:19:37.115989  9091 net.cpp:91] Creating Layer loss1/ave_pool
I0403 19:19:37.116008  9091 net.cpp:425] loss1/ave_pool <- inception_4a/output_inception_4a/output_0_split_0
I0403 19:19:37.116031  9091 net.cpp:399] loss1/ave_pool -> loss1/ave_pool
I0403 19:19:37.116287  9091 net.cpp:141] Setting up loss1/ave_pool
I0403 19:19:37.116320  9091 net.cpp:148] Top shape: 24 512 4 4 (196608)
I0403 19:19:37.116338  9091 net.cpp:156] Memory required for data: 945501216
I0403 19:19:37.116356  9091 layer_factory.hpp:77] Creating layer loss1/conv
I0403 19:19:37.116384  9091 net.cpp:91] Creating Layer loss1/conv
I0403 19:19:37.116405  9091 net.cpp:425] loss1/conv <- loss1/ave_pool
I0403 19:19:37.116436  9091 net.cpp:399] loss1/conv -> loss1/conv
I0403 19:19:37.118139  9091 net.cpp:141] Setting up loss1/conv
I0403 19:19:37.118176  9091 net.cpp:148] Top shape: 24 128 4 4 (49152)
I0403 19:19:37.118198  9091 net.cpp:156] Memory required for data: 945697824
I0403 19:19:37.118237  9091 layer_factory.hpp:77] Creating layer loss1/relu_conv
I0403 19:19:37.118260  9091 net.cpp:91] Creating Layer loss1/relu_conv
I0403 19:19:37.118280  9091 net.cpp:425] loss1/relu_conv <- loss1/conv
I0403 19:19:37.118306  9091 net.cpp:386] loss1/relu_conv -> loss1/conv (in-place)
I0403 19:19:37.118651  9091 net.cpp:141] Setting up loss1/relu_conv
I0403 19:19:37.118686  9091 net.cpp:148] Top shape: 24 128 4 4 (49152)
I0403 19:19:37.118706  9091 net.cpp:156] Memory required for data: 945894432
I0403 19:19:37.118726  9091 layer_factory.hpp:77] Creating layer loss1/fc
I0403 19:19:37.118757  9091 net.cpp:91] Creating Layer loss1/fc
I0403 19:19:37.118778  9091 net.cpp:425] loss1/fc <- loss1/conv
I0403 19:19:37.118805  9091 net.cpp:399] loss1/fc -> loss1/fc
I0403 19:19:37.140759  9091 net.cpp:141] Setting up loss1/fc
I0403 19:19:37.140799  9091 net.cpp:148] Top shape: 24 1024 (24576)
I0403 19:19:37.140817  9091 net.cpp:156] Memory required for data: 945992736
I0403 19:19:37.140841  9091 layer_factory.hpp:77] Creating layer loss1/relu_fc
I0403 19:19:37.140864  9091 net.cpp:91] Creating Layer loss1/relu_fc
I0403 19:19:37.140885  9091 net.cpp:425] loss1/relu_fc <- loss1/fc
I0403 19:19:37.140908  9091 net.cpp:386] loss1/relu_fc -> loss1/fc (in-place)
I0403 19:19:37.141131  9091 net.cpp:141] Setting up loss1/relu_fc
I0403 19:19:37.141170  9091 net.cpp:148] Top shape: 24 1024 (24576)
I0403 19:19:37.141187  9091 net.cpp:156] Memory required for data: 946091040
I0403 19:19:37.141206  9091 layer_factory.hpp:77] Creating layer loss1/drop_fc
I0403 19:19:37.141237  9091 net.cpp:91] Creating Layer loss1/drop_fc
I0403 19:19:37.141258  9091 net.cpp:425] loss1/drop_fc <- loss1/fc
I0403 19:19:37.141283  9091 net.cpp:386] loss1/drop_fc -> loss1/fc (in-place)
I0403 19:19:37.141347  9091 net.cpp:141] Setting up loss1/drop_fc
I0403 19:19:37.141376  9091 net.cpp:148] Top shape: 24 1024 (24576)
I0403 19:19:37.141393  9091 net.cpp:156] Memory required for data: 946189344
I0403 19:19:37.141412  9091 layer_factory.hpp:77] Creating layer loss1/classifier_plantvillage
I0403 19:19:37.141445  9091 net.cpp:91] Creating Layer loss1/classifier_plantvillage
I0403 19:19:37.141469  9091 net.cpp:425] loss1/classifier_plantvillage <- loss1/fc
I0403 19:19:37.141490  9091 net.cpp:399] loss1/classifier_plantvillage -> loss1/classifier_plantvillage
I0403 19:19:37.142577  9091 net.cpp:141] Setting up loss1/classifier_plantvillage
I0403 19:19:37.142612  9091 net.cpp:148] Top shape: 24 38 (912)
I0403 19:19:37.142630  9091 net.cpp:156] Memory required for data: 946192992
I0403 19:19:37.142652  9091 layer_factory.hpp:77] Creating layer loss1/classifier_plantvillage_loss1/classifier_plantvillage_0_split
I0403 19:19:37.142678  9091 net.cpp:91] Creating Layer loss1/classifier_plantvillage_loss1/classifier_plantvillage_0_split
I0403 19:19:37.142699  9091 net.cpp:425] loss1/classifier_plantvillage_loss1/classifier_plantvillage_0_split <- loss1/classifier_plantvillage
I0403 19:19:37.142720  9091 net.cpp:399] loss1/classifier_plantvillage_loss1/classifier_plantvillage_0_split -> loss1/classifier_plantvillage_loss1/classifier_plantvillage_0_split_0
I0403 19:19:37.142747  9091 net.cpp:399] loss1/classifier_plantvillage_loss1/classifier_plantvillage_0_split -> loss1/classifier_plantvillage_loss1/classifier_plantvillage_0_split_1
I0403 19:19:37.142773  9091 net.cpp:399] loss1/classifier_plantvillage_loss1/classifier_plantvillage_0_split -> loss1/classifier_plantvillage_loss1/classifier_plantvillage_0_split_2
I0403 19:19:37.142854  9091 net.cpp:141] Setting up loss1/classifier_plantvillage_loss1/classifier_plantvillage_0_split
I0403 19:19:37.142882  9091 net.cpp:148] Top shape: 24 38 (912)
I0403 19:19:37.142902  9091 net.cpp:148] Top shape: 24 38 (912)
I0403 19:19:37.142922  9091 net.cpp:148] Top shape: 24 38 (912)
I0403 19:19:37.142938  9091 net.cpp:156] Memory required for data: 946203936
I0403 19:19:37.142956  9091 layer_factory.hpp:77] Creating layer inception_4b/1x1
I0403 19:19:37.142985  9091 net.cpp:91] Creating Layer inception_4b/1x1
I0403 19:19:37.143025  9091 net.cpp:425] inception_4b/1x1 <- inception_4a/output_inception_4a/output_0_split_1
I0403 19:19:37.143051  9091 net.cpp:399] inception_4b/1x1 -> inception_4b/1x1
I0403 19:19:37.145046  9091 net.cpp:141] Setting up inception_4b/1x1
I0403 19:19:37.145084  9091 net.cpp:148] Top shape: 24 160 14 14 (752640)
I0403 19:19:37.145105  9091 net.cpp:156] Memory required for data: 949214496
I0403 19:19:37.145128  9091 layer_factory.hpp:77] Creating layer inception_4b/relu_1x1
I0403 19:19:37.145150  9091 net.cpp:91] Creating Layer inception_4b/relu_1x1
I0403 19:19:37.145170  9091 net.cpp:425] inception_4b/relu_1x1 <- inception_4b/1x1
I0403 19:19:37.145195  9091 net.cpp:386] inception_4b/relu_1x1 -> inception_4b/1x1 (in-place)
I0403 19:19:37.145416  9091 net.cpp:141] Setting up inception_4b/relu_1x1
I0403 19:19:37.145452  9091 net.cpp:148] Top shape: 24 160 14 14 (752640)
I0403 19:19:37.145470  9091 net.cpp:156] Memory required for data: 952225056
I0403 19:19:37.145488  9091 layer_factory.hpp:77] Creating layer inception_4b/3x3_reduce
I0403 19:19:37.145521  9091 net.cpp:91] Creating Layer inception_4b/3x3_reduce
I0403 19:19:37.145545  9091 net.cpp:425] inception_4b/3x3_reduce <- inception_4a/output_inception_4a/output_0_split_2
I0403 19:19:37.145572  9091 net.cpp:399] inception_4b/3x3_reduce -> inception_4b/3x3_reduce
I0403 19:19:37.147210  9091 net.cpp:141] Setting up inception_4b/3x3_reduce
I0403 19:19:37.147245  9091 net.cpp:148] Top shape: 24 112 14 14 (526848)
I0403 19:19:37.147264  9091 net.cpp:156] Memory required for data: 954332448
I0403 19:19:37.147286  9091 layer_factory.hpp:77] Creating layer inception_4b/relu_3x3_reduce
I0403 19:19:37.147308  9091 net.cpp:91] Creating Layer inception_4b/relu_3x3_reduce
I0403 19:19:37.147328  9091 net.cpp:425] inception_4b/relu_3x3_reduce <- inception_4b/3x3_reduce
I0403 19:19:37.147353  9091 net.cpp:386] inception_4b/relu_3x3_reduce -> inception_4b/3x3_reduce (in-place)
I0403 19:19:37.147698  9091 net.cpp:141] Setting up inception_4b/relu_3x3_reduce
I0403 19:19:37.147732  9091 net.cpp:148] Top shape: 24 112 14 14 (526848)
I0403 19:19:37.147749  9091 net.cpp:156] Memory required for data: 956439840
I0403 19:19:37.147768  9091 layer_factory.hpp:77] Creating layer inception_4b/3x3
I0403 19:19:37.147795  9091 net.cpp:91] Creating Layer inception_4b/3x3
I0403 19:19:37.147817  9091 net.cpp:425] inception_4b/3x3 <- inception_4b/3x3_reduce
I0403 19:19:37.147845  9091 net.cpp:399] inception_4b/3x3 -> inception_4b/3x3
I0403 19:19:37.151443  9091 net.cpp:141] Setting up inception_4b/3x3
I0403 19:19:37.151479  9091 net.cpp:148] Top shape: 24 224 14 14 (1053696)
I0403 19:19:37.151499  9091 net.cpp:156] Memory required for data: 960654624
I0403 19:19:37.151521  9091 layer_factory.hpp:77] Creating layer inception_4b/relu_3x3
I0403 19:19:37.151546  9091 net.cpp:91] Creating Layer inception_4b/relu_3x3
I0403 19:19:37.151566  9091 net.cpp:425] inception_4b/relu_3x3 <- inception_4b/3x3
I0403 19:19:37.151588  9091 net.cpp:386] inception_4b/relu_3x3 -> inception_4b/3x3 (in-place)
I0403 19:19:37.151814  9091 net.cpp:141] Setting up inception_4b/relu_3x3
I0403 19:19:37.151845  9091 net.cpp:148] Top shape: 24 224 14 14 (1053696)
I0403 19:19:37.151864  9091 net.cpp:156] Memory required for data: 964869408
I0403 19:19:37.151882  9091 layer_factory.hpp:77] Creating layer inception_4b/5x5_reduce
I0403 19:19:37.151909  9091 net.cpp:91] Creating Layer inception_4b/5x5_reduce
I0403 19:19:37.151932  9091 net.cpp:425] inception_4b/5x5_reduce <- inception_4a/output_inception_4a/output_0_split_3
I0403 19:19:37.151960  9091 net.cpp:399] inception_4b/5x5_reduce -> inception_4b/5x5_reduce
I0403 19:19:37.153301  9091 net.cpp:141] Setting up inception_4b/5x5_reduce
I0403 19:19:37.153334  9091 net.cpp:148] Top shape: 24 24 14 14 (112896)
I0403 19:19:37.153353  9091 net.cpp:156] Memory required for data: 965320992
I0403 19:19:37.153376  9091 layer_factory.hpp:77] Creating layer inception_4b/relu_5x5_reduce
I0403 19:19:37.153398  9091 net.cpp:91] Creating Layer inception_4b/relu_5x5_reduce
I0403 19:19:37.153440  9091 net.cpp:425] inception_4b/relu_5x5_reduce <- inception_4b/5x5_reduce
I0403 19:19:37.153467  9091 net.cpp:386] inception_4b/relu_5x5_reduce -> inception_4b/5x5_reduce (in-place)
I0403 19:19:37.153693  9091 net.cpp:141] Setting up inception_4b/relu_5x5_reduce
I0403 19:19:37.153724  9091 net.cpp:148] Top shape: 24 24 14 14 (112896)
I0403 19:19:37.153743  9091 net.cpp:156] Memory required for data: 965772576
I0403 19:19:37.153760  9091 layer_factory.hpp:77] Creating layer inception_4b/5x5
I0403 19:19:37.153789  9091 net.cpp:91] Creating Layer inception_4b/5x5
I0403 19:19:37.153810  9091 net.cpp:425] inception_4b/5x5 <- inception_4b/5x5_reduce
I0403 19:19:37.153836  9091 net.cpp:399] inception_4b/5x5 -> inception_4b/5x5
I0403 19:19:37.155313  9091 net.cpp:141] Setting up inception_4b/5x5
I0403 19:19:37.155350  9091 net.cpp:148] Top shape: 24 64 14 14 (301056)
I0403 19:19:37.155371  9091 net.cpp:156] Memory required for data: 966976800
I0403 19:19:37.155395  9091 layer_factory.hpp:77] Creating layer inception_4b/relu_5x5
I0403 19:19:37.155417  9091 net.cpp:91] Creating Layer inception_4b/relu_5x5
I0403 19:19:37.155443  9091 net.cpp:425] inception_4b/relu_5x5 <- inception_4b/5x5
I0403 19:19:37.155469  9091 net.cpp:386] inception_4b/relu_5x5 -> inception_4b/5x5 (in-place)
I0403 19:19:37.155813  9091 net.cpp:141] Setting up inception_4b/relu_5x5
I0403 19:19:37.155848  9091 net.cpp:148] Top shape: 24 64 14 14 (301056)
I0403 19:19:37.155867  9091 net.cpp:156] Memory required for data: 968181024
I0403 19:19:37.155885  9091 layer_factory.hpp:77] Creating layer inception_4b/pool
I0403 19:19:37.155907  9091 net.cpp:91] Creating Layer inception_4b/pool
I0403 19:19:37.155928  9091 net.cpp:425] inception_4b/pool <- inception_4a/output_inception_4a/output_0_split_4
I0403 19:19:37.155953  9091 net.cpp:399] inception_4b/pool -> inception_4b/pool
I0403 19:19:37.156033  9091 net.cpp:141] Setting up inception_4b/pool
I0403 19:19:37.156064  9091 net.cpp:148] Top shape: 24 512 14 14 (2408448)
I0403 19:19:37.156082  9091 net.cpp:156] Memory required for data: 977814816
I0403 19:19:37.156101  9091 layer_factory.hpp:77] Creating layer inception_4b/pool_proj
I0403 19:19:37.156126  9091 net.cpp:91] Creating Layer inception_4b/pool_proj
I0403 19:19:37.156147  9091 net.cpp:425] inception_4b/pool_proj <- inception_4b/pool
I0403 19:19:37.156174  9091 net.cpp:399] inception_4b/pool_proj -> inception_4b/pool_proj
I0403 19:19:37.157636  9091 net.cpp:141] Setting up inception_4b/pool_proj
I0403 19:19:37.157671  9091 net.cpp:148] Top shape: 24 64 14 14 (301056)
I0403 19:19:37.157691  9091 net.cpp:156] Memory required for data: 979019040
I0403 19:19:37.157713  9091 layer_factory.hpp:77] Creating layer inception_4b/relu_pool_proj
I0403 19:19:37.157735  9091 net.cpp:91] Creating Layer inception_4b/relu_pool_proj
I0403 19:19:37.157757  9091 net.cpp:425] inception_4b/relu_pool_proj <- inception_4b/pool_proj
I0403 19:19:37.157783  9091 net.cpp:386] inception_4b/relu_pool_proj -> inception_4b/pool_proj (in-place)
I0403 19:19:37.158001  9091 net.cpp:141] Setting up inception_4b/relu_pool_proj
I0403 19:19:37.158033  9091 net.cpp:148] Top shape: 24 64 14 14 (301056)
I0403 19:19:37.158051  9091 net.cpp:156] Memory required for data: 980223264
I0403 19:19:37.158069  9091 layer_factory.hpp:77] Creating layer inception_4b/output
I0403 19:19:37.158090  9091 net.cpp:91] Creating Layer inception_4b/output
I0403 19:19:37.158109  9091 net.cpp:425] inception_4b/output <- inception_4b/1x1
I0403 19:19:37.158133  9091 net.cpp:425] inception_4b/output <- inception_4b/3x3
I0403 19:19:37.158152  9091 net.cpp:425] inception_4b/output <- inception_4b/5x5
I0403 19:19:37.158172  9091 net.cpp:425] inception_4b/output <- inception_4b/pool_proj
I0403 19:19:37.158193  9091 net.cpp:399] inception_4b/output -> inception_4b/output
I0403 19:19:37.158253  9091 net.cpp:141] Setting up inception_4b/output
I0403 19:19:37.158283  9091 net.cpp:148] Top shape: 24 512 14 14 (2408448)
I0403 19:19:37.158301  9091 net.cpp:156] Memory required for data: 989857056
I0403 19:19:37.158335  9091 layer_factory.hpp:77] Creating layer inception_4b/output_inception_4b/output_0_split
I0403 19:19:37.158359  9091 net.cpp:91] Creating Layer inception_4b/output_inception_4b/output_0_split
I0403 19:19:37.158376  9091 net.cpp:425] inception_4b/output_inception_4b/output_0_split <- inception_4b/output
I0403 19:19:37.158401  9091 net.cpp:399] inception_4b/output_inception_4b/output_0_split -> inception_4b/output_inception_4b/output_0_split_0
I0403 19:19:37.158432  9091 net.cpp:399] inception_4b/output_inception_4b/output_0_split -> inception_4b/output_inception_4b/output_0_split_1
I0403 19:19:37.158460  9091 net.cpp:399] inception_4b/output_inception_4b/output_0_split -> inception_4b/output_inception_4b/output_0_split_2
I0403 19:19:37.158485  9091 net.cpp:399] inception_4b/output_inception_4b/output_0_split -> inception_4b/output_inception_4b/output_0_split_3
I0403 19:19:37.158588  9091 net.cpp:141] Setting up inception_4b/output_inception_4b/output_0_split
I0403 19:19:37.158622  9091 net.cpp:148] Top shape: 24 512 14 14 (2408448)
I0403 19:19:37.158641  9091 net.cpp:148] Top shape: 24 512 14 14 (2408448)
I0403 19:19:37.158661  9091 net.cpp:148] Top shape: 24 512 14 14 (2408448)
I0403 19:19:37.158680  9091 net.cpp:148] Top shape: 24 512 14 14 (2408448)
I0403 19:19:37.158699  9091 net.cpp:156] Memory required for data: 1028392224
I0403 19:19:37.158715  9091 layer_factory.hpp:77] Creating layer inception_4c/1x1
I0403 19:19:37.158743  9091 net.cpp:91] Creating Layer inception_4c/1x1
I0403 19:19:37.158764  9091 net.cpp:425] inception_4c/1x1 <- inception_4b/output_inception_4b/output_0_split_0
I0403 19:19:37.158787  9091 net.cpp:399] inception_4c/1x1 -> inception_4c/1x1
I0403 19:19:37.160550  9091 net.cpp:141] Setting up inception_4c/1x1
I0403 19:19:37.160585  9091 net.cpp:148] Top shape: 24 128 14 14 (602112)
I0403 19:19:37.160604  9091 net.cpp:156] Memory required for data: 1030800672
I0403 19:19:37.160626  9091 layer_factory.hpp:77] Creating layer inception_4c/relu_1x1
I0403 19:19:37.160652  9091 net.cpp:91] Creating Layer inception_4c/relu_1x1
I0403 19:19:37.160675  9091 net.cpp:425] inception_4c/relu_1x1 <- inception_4c/1x1
I0403 19:19:37.160697  9091 net.cpp:386] inception_4c/relu_1x1 -> inception_4c/1x1 (in-place)
I0403 19:19:37.160918  9091 net.cpp:141] Setting up inception_4c/relu_1x1
I0403 19:19:37.160951  9091 net.cpp:148] Top shape: 24 128 14 14 (602112)
I0403 19:19:37.160970  9091 net.cpp:156] Memory required for data: 1033209120
I0403 19:19:37.160989  9091 layer_factory.hpp:77] Creating layer inception_4c/3x3_reduce
I0403 19:19:37.161016  9091 net.cpp:91] Creating Layer inception_4c/3x3_reduce
I0403 19:19:37.161038  9091 net.cpp:425] inception_4c/3x3_reduce <- inception_4b/output_inception_4b/output_0_split_1
I0403 19:19:37.161062  9091 net.cpp:399] inception_4c/3x3_reduce -> inception_4c/3x3_reduce
I0403 19:19:37.163401  9091 net.cpp:141] Setting up inception_4c/3x3_reduce
I0403 19:19:37.163447  9091 net.cpp:148] Top shape: 24 128 14 14 (602112)
I0403 19:19:37.163468  9091 net.cpp:156] Memory required for data: 1035617568
I0403 19:19:37.163492  9091 layer_factory.hpp:77] Creating layer inception_4c/relu_3x3_reduce
I0403 19:19:37.163516  9091 net.cpp:91] Creating Layer inception_4c/relu_3x3_reduce
I0403 19:19:37.163534  9091 net.cpp:425] inception_4c/relu_3x3_reduce <- inception_4c/3x3_reduce
I0403 19:19:37.163559  9091 net.cpp:386] inception_4c/relu_3x3_reduce -> inception_4c/3x3_reduce (in-place)
I0403 19:19:37.163908  9091 net.cpp:141] Setting up inception_4c/relu_3x3_reduce
I0403 19:19:37.163943  9091 net.cpp:148] Top shape: 24 128 14 14 (602112)
I0403 19:19:37.163961  9091 net.cpp:156] Memory required for data: 1038026016
I0403 19:19:37.163980  9091 layer_factory.hpp:77] Creating layer inception_4c/3x3
I0403 19:19:37.164010  9091 net.cpp:91] Creating Layer inception_4c/3x3
I0403 19:19:37.164032  9091 net.cpp:425] inception_4c/3x3 <- inception_4c/3x3_reduce
I0403 19:19:37.164059  9091 net.cpp:399] inception_4c/3x3 -> inception_4c/3x3
I0403 19:19:37.168423  9091 net.cpp:141] Setting up inception_4c/3x3
I0403 19:19:37.168481  9091 net.cpp:148] Top shape: 24 256 14 14 (1204224)
I0403 19:19:37.168503  9091 net.cpp:156] Memory required for data: 1042842912
I0403 19:19:37.168541  9091 layer_factory.hpp:77] Creating layer inception_4c/relu_3x3
I0403 19:19:37.168567  9091 net.cpp:91] Creating Layer inception_4c/relu_3x3
I0403 19:19:37.168587  9091 net.cpp:425] inception_4c/relu_3x3 <- inception_4c/3x3
I0403 19:19:37.168612  9091 net.cpp:386] inception_4c/relu_3x3 -> inception_4c/3x3 (in-place)
I0403 19:19:37.168836  9091 net.cpp:141] Setting up inception_4c/relu_3x3
I0403 19:19:37.168869  9091 net.cpp:148] Top shape: 24 256 14 14 (1204224)
I0403 19:19:37.168889  9091 net.cpp:156] Memory required for data: 1047659808
I0403 19:19:37.168907  9091 layer_factory.hpp:77] Creating layer inception_4c/5x5_reduce
I0403 19:19:37.168938  9091 net.cpp:91] Creating Layer inception_4c/5x5_reduce
I0403 19:19:37.168961  9091 net.cpp:425] inception_4c/5x5_reduce <- inception_4b/output_inception_4b/output_0_split_2
I0403 19:19:37.168987  9091 net.cpp:399] inception_4c/5x5_reduce -> inception_4c/5x5_reduce
I0403 19:19:37.170312  9091 net.cpp:141] Setting up inception_4c/5x5_reduce
I0403 19:19:37.170347  9091 net.cpp:148] Top shape: 24 24 14 14 (112896)
I0403 19:19:37.170366  9091 net.cpp:156] Memory required for data: 1048111392
I0403 19:19:37.170388  9091 layer_factory.hpp:77] Creating layer inception_4c/relu_5x5_reduce
I0403 19:19:37.170411  9091 net.cpp:91] Creating Layer inception_4c/relu_5x5_reduce
I0403 19:19:37.170435  9091 net.cpp:425] inception_4c/relu_5x5_reduce <- inception_4c/5x5_reduce
I0403 19:19:37.170464  9091 net.cpp:386] inception_4c/relu_5x5_reduce -> inception_4c/5x5_reduce (in-place)
I0403 19:19:37.170691  9091 net.cpp:141] Setting up inception_4c/relu_5x5_reduce
I0403 19:19:37.170722  9091 net.cpp:148] Top shape: 24 24 14 14 (112896)
I0403 19:19:37.170740  9091 net.cpp:156] Memory required for data: 1048562976
I0403 19:19:37.170758  9091 layer_factory.hpp:77] Creating layer inception_4c/5x5
I0403 19:19:37.170786  9091 net.cpp:91] Creating Layer inception_4c/5x5
I0403 19:19:37.170809  9091 net.cpp:425] inception_4c/5x5 <- inception_4c/5x5_reduce
I0403 19:19:37.170835  9091 net.cpp:399] inception_4c/5x5 -> inception_4c/5x5
I0403 19:19:37.172343  9091 net.cpp:141] Setting up inception_4c/5x5
I0403 19:19:37.172377  9091 net.cpp:148] Top shape: 24 64 14 14 (301056)
I0403 19:19:37.172396  9091 net.cpp:156] Memory required for data: 1049767200
I0403 19:19:37.172418  9091 layer_factory.hpp:77] Creating layer inception_4c/relu_5x5
I0403 19:19:37.172457  9091 net.cpp:91] Creating Layer inception_4c/relu_5x5
I0403 19:19:37.172482  9091 net.cpp:425] inception_4c/relu_5x5 <- inception_4c/5x5
I0403 19:19:37.172503  9091 net.cpp:386] inception_4c/relu_5x5 -> inception_4c/5x5 (in-place)
I0403 19:19:37.172852  9091 net.cpp:141] Setting up inception_4c/relu_5x5
I0403 19:19:37.172885  9091 net.cpp:148] Top shape: 24 64 14 14 (301056)
I0403 19:19:37.172904  9091 net.cpp:156] Memory required for data: 1050971424
I0403 19:19:37.172922  9091 layer_factory.hpp:77] Creating layer inception_4c/pool
I0403 19:19:37.172947  9091 net.cpp:91] Creating Layer inception_4c/pool
I0403 19:19:37.172968  9091 net.cpp:425] inception_4c/pool <- inception_4b/output_inception_4b/output_0_split_3
I0403 19:19:37.172991  9091 net.cpp:399] inception_4c/pool -> inception_4c/pool
I0403 19:19:37.173074  9091 net.cpp:141] Setting up inception_4c/pool
I0403 19:19:37.173105  9091 net.cpp:148] Top shape: 24 512 14 14 (2408448)
I0403 19:19:37.173121  9091 net.cpp:156] Memory required for data: 1060605216
I0403 19:19:37.173140  9091 layer_factory.hpp:77] Creating layer inception_4c/pool_proj
I0403 19:19:37.173171  9091 net.cpp:91] Creating Layer inception_4c/pool_proj
I0403 19:19:37.173193  9091 net.cpp:425] inception_4c/pool_proj <- inception_4c/pool
I0403 19:19:37.173219  9091 net.cpp:399] inception_4c/pool_proj -> inception_4c/pool_proj
I0403 19:19:37.174710  9091 net.cpp:141] Setting up inception_4c/pool_proj
I0403 19:19:37.174748  9091 net.cpp:148] Top shape: 24 64 14 14 (301056)
I0403 19:19:37.174784  9091 net.cpp:156] Memory required for data: 1061809440
I0403 19:19:37.174809  9091 layer_factory.hpp:77] Creating layer inception_4c/relu_pool_proj
I0403 19:19:37.174831  9091 net.cpp:91] Creating Layer inception_4c/relu_pool_proj
I0403 19:19:37.174851  9091 net.cpp:425] inception_4c/relu_pool_proj <- inception_4c/pool_proj
I0403 19:19:37.174876  9091 net.cpp:386] inception_4c/relu_pool_proj -> inception_4c/pool_proj (in-place)
I0403 19:19:37.175098  9091 net.cpp:141] Setting up inception_4c/relu_pool_proj
I0403 19:19:37.175130  9091 net.cpp:148] Top shape: 24 64 14 14 (301056)
I0403 19:19:37.175148  9091 net.cpp:156] Memory required for data: 1063013664
I0403 19:19:37.175165  9091 layer_factory.hpp:77] Creating layer inception_4c/output
I0403 19:19:37.175187  9091 net.cpp:91] Creating Layer inception_4c/output
I0403 19:19:37.175207  9091 net.cpp:425] inception_4c/output <- inception_4c/1x1
I0403 19:19:37.175228  9091 net.cpp:425] inception_4c/output <- inception_4c/3x3
I0403 19:19:37.175248  9091 net.cpp:425] inception_4c/output <- inception_4c/5x5
I0403 19:19:37.175267  9091 net.cpp:425] inception_4c/output <- inception_4c/pool_proj
I0403 19:19:37.175292  9091 net.cpp:399] inception_4c/output -> inception_4c/output
I0403 19:19:37.175354  9091 net.cpp:141] Setting up inception_4c/output
I0403 19:19:37.175384  9091 net.cpp:148] Top shape: 24 512 14 14 (2408448)
I0403 19:19:37.175402  9091 net.cpp:156] Memory required for data: 1072647456
I0403 19:19:37.175420  9091 layer_factory.hpp:77] Creating layer inception_4c/output_inception_4c/output_0_split
I0403 19:19:37.175446  9091 net.cpp:91] Creating Layer inception_4c/output_inception_4c/output_0_split
I0403 19:19:37.175465  9091 net.cpp:425] inception_4c/output_inception_4c/output_0_split <- inception_4c/output
I0403 19:19:37.175489  9091 net.cpp:399] inception_4c/output_inception_4c/output_0_split -> inception_4c/output_inception_4c/output_0_split_0
I0403 19:19:37.175516  9091 net.cpp:399] inception_4c/output_inception_4c/output_0_split -> inception_4c/output_inception_4c/output_0_split_1
I0403 19:19:37.175542  9091 net.cpp:399] inception_4c/output_inception_4c/output_0_split -> inception_4c/output_inception_4c/output_0_split_2
I0403 19:19:37.175568  9091 net.cpp:399] inception_4c/output_inception_4c/output_0_split -> inception_4c/output_inception_4c/output_0_split_3
I0403 19:19:37.175675  9091 net.cpp:141] Setting up inception_4c/output_inception_4c/output_0_split
I0403 19:19:37.175707  9091 net.cpp:148] Top shape: 24 512 14 14 (2408448)
I0403 19:19:37.175729  9091 net.cpp:148] Top shape: 24 512 14 14 (2408448)
I0403 19:19:37.175748  9091 net.cpp:148] Top shape: 24 512 14 14 (2408448)
I0403 19:19:37.175768  9091 net.cpp:148] Top shape: 24 512 14 14 (2408448)
I0403 19:19:37.175786  9091 net.cpp:156] Memory required for data: 1111182624
I0403 19:19:37.175802  9091 layer_factory.hpp:77] Creating layer inception_4d/1x1
I0403 19:19:37.175829  9091 net.cpp:91] Creating Layer inception_4d/1x1
I0403 19:19:37.175851  9091 net.cpp:425] inception_4d/1x1 <- inception_4c/output_inception_4c/output_0_split_0
I0403 19:19:37.175874  9091 net.cpp:399] inception_4d/1x1 -> inception_4d/1x1
I0403 19:19:37.177557  9091 net.cpp:141] Setting up inception_4d/1x1
I0403 19:19:37.177592  9091 net.cpp:148] Top shape: 24 112 14 14 (526848)
I0403 19:19:37.177611  9091 net.cpp:156] Memory required for data: 1113290016
I0403 19:19:37.177634  9091 layer_factory.hpp:77] Creating layer inception_4d/relu_1x1
I0403 19:19:37.177659  9091 net.cpp:91] Creating Layer inception_4d/relu_1x1
I0403 19:19:37.177680  9091 net.cpp:425] inception_4d/relu_1x1 <- inception_4d/1x1
I0403 19:19:37.177702  9091 net.cpp:386] inception_4d/relu_1x1 -> inception_4d/1x1 (in-place)
I0403 19:19:37.177930  9091 net.cpp:141] Setting up inception_4d/relu_1x1
I0403 19:19:37.177966  9091 net.cpp:148] Top shape: 24 112 14 14 (526848)
I0403 19:19:37.177984  9091 net.cpp:156] Memory required for data: 1115397408
I0403 19:19:37.178002  9091 layer_factory.hpp:77] Creating layer inception_4d/3x3_reduce
I0403 19:19:37.178050  9091 net.cpp:91] Creating Layer inception_4d/3x3_reduce
I0403 19:19:37.178073  9091 net.cpp:425] inception_4d/3x3_reduce <- inception_4c/output_inception_4c/output_0_split_1
I0403 19:19:37.178100  9091 net.cpp:399] inception_4d/3x3_reduce -> inception_4d/3x3_reduce
I0403 19:19:37.179932  9091 net.cpp:141] Setting up inception_4d/3x3_reduce
I0403 19:19:37.179966  9091 net.cpp:148] Top shape: 24 144 14 14 (677376)
I0403 19:19:37.179986  9091 net.cpp:156] Memory required for data: 1118106912
I0403 19:19:37.180008  9091 layer_factory.hpp:77] Creating layer inception_4d/relu_3x3_reduce
I0403 19:19:37.180033  9091 net.cpp:91] Creating Layer inception_4d/relu_3x3_reduce
I0403 19:19:37.180054  9091 net.cpp:425] inception_4d/relu_3x3_reduce <- inception_4d/3x3_reduce
I0403 19:19:37.180076  9091 net.cpp:386] inception_4d/relu_3x3_reduce -> inception_4d/3x3_reduce (in-place)
I0403 19:19:37.180425  9091 net.cpp:141] Setting up inception_4d/relu_3x3_reduce
I0403 19:19:37.180462  9091 net.cpp:148] Top shape: 24 144 14 14 (677376)
I0403 19:19:37.180481  9091 net.cpp:156] Memory required for data: 1120816416
I0403 19:19:37.180500  9091 layer_factory.hpp:77] Creating layer inception_4d/3x3
I0403 19:19:37.180527  9091 net.cpp:91] Creating Layer inception_4d/3x3
I0403 19:19:37.180551  9091 net.cpp:425] inception_4d/3x3 <- inception_4d/3x3_reduce
I0403 19:19:37.180577  9091 net.cpp:399] inception_4d/3x3 -> inception_4d/3x3
I0403 19:19:37.185817  9091 net.cpp:141] Setting up inception_4d/3x3
I0403 19:19:37.185856  9091 net.cpp:148] Top shape: 24 288 14 14 (1354752)
I0403 19:19:37.185878  9091 net.cpp:156] Memory required for data: 1126235424
I0403 19:19:37.185901  9091 layer_factory.hpp:77] Creating layer inception_4d/relu_3x3
I0403 19:19:37.185923  9091 net.cpp:91] Creating Layer inception_4d/relu_3x3
I0403 19:19:37.185945  9091 net.cpp:425] inception_4d/relu_3x3 <- inception_4d/3x3
I0403 19:19:37.185966  9091 net.cpp:386] inception_4d/relu_3x3 -> inception_4d/3x3 (in-place)
I0403 19:19:37.186192  9091 net.cpp:141] Setting up inception_4d/relu_3x3
I0403 19:19:37.186223  9091 net.cpp:148] Top shape: 24 288 14 14 (1354752)
I0403 19:19:37.186241  9091 net.cpp:156] Memory required for data: 1131654432
I0403 19:19:37.186259  9091 layer_factory.hpp:77] Creating layer inception_4d/5x5_reduce
I0403 19:19:37.186287  9091 net.cpp:91] Creating Layer inception_4d/5x5_reduce
I0403 19:19:37.186311  9091 net.cpp:425] inception_4d/5x5_reduce <- inception_4c/output_inception_4c/output_0_split_2
I0403 19:19:37.186338  9091 net.cpp:399] inception_4d/5x5_reduce -> inception_4d/5x5_reduce
I0403 19:19:37.187721  9091 net.cpp:141] Setting up inception_4d/5x5_reduce
I0403 19:19:37.187758  9091 net.cpp:148] Top shape: 24 32 14 14 (150528)
I0403 19:19:37.187779  9091 net.cpp:156] Memory required for data: 1132256544
I0403 19:19:37.187803  9091 layer_factory.hpp:77] Creating layer inception_4d/relu_5x5_reduce
I0403 19:19:37.187824  9091 net.cpp:91] Creating Layer inception_4d/relu_5x5_reduce
I0403 19:19:37.187844  9091 net.cpp:425] inception_4d/relu_5x5_reduce <- inception_4d/5x5_reduce
I0403 19:19:37.187870  9091 net.cpp:386] inception_4d/relu_5x5_reduce -> inception_4d/5x5_reduce (in-place)
I0403 19:19:37.188100  9091 net.cpp:141] Setting up inception_4d/relu_5x5_reduce
I0403 19:19:37.188132  9091 net.cpp:148] Top shape: 24 32 14 14 (150528)
I0403 19:19:37.188149  9091 net.cpp:156] Memory required for data: 1132858656
I0403 19:19:37.188168  9091 layer_factory.hpp:77] Creating layer inception_4d/5x5
I0403 19:19:37.188196  9091 net.cpp:91] Creating Layer inception_4d/5x5
I0403 19:19:37.188230  9091 net.cpp:425] inception_4d/5x5 <- inception_4d/5x5_reduce
I0403 19:19:37.188256  9091 net.cpp:399] inception_4d/5x5 -> inception_4d/5x5
I0403 19:19:37.190047  9091 net.cpp:141] Setting up inception_4d/5x5
I0403 19:19:37.190083  9091 net.cpp:148] Top shape: 24 64 14 14 (301056)
I0403 19:19:37.190101  9091 net.cpp:156] Memory required for data: 1134062880
I0403 19:19:37.190124  9091 layer_factory.hpp:77] Creating layer inception_4d/relu_5x5
I0403 19:19:37.190165  9091 net.cpp:91] Creating Layer inception_4d/relu_5x5
I0403 19:19:37.190191  9091 net.cpp:425] inception_4d/relu_5x5 <- inception_4d/5x5
I0403 19:19:37.190215  9091 net.cpp:386] inception_4d/relu_5x5 -> inception_4d/5x5 (in-place)
I0403 19:19:37.190588  9091 net.cpp:141] Setting up inception_4d/relu_5x5
I0403 19:19:37.190621  9091 net.cpp:148] Top shape: 24 64 14 14 (301056)
I0403 19:19:37.190640  9091 net.cpp:156] Memory required for data: 1135267104
I0403 19:19:37.190659  9091 layer_factory.hpp:77] Creating layer inception_4d/pool
I0403 19:19:37.190688  9091 net.cpp:91] Creating Layer inception_4d/pool
I0403 19:19:37.190708  9091 net.cpp:425] inception_4d/pool <- inception_4c/output_inception_4c/output_0_split_3
I0403 19:19:37.190734  9091 net.cpp:399] inception_4d/pool -> inception_4d/pool
I0403 19:19:37.190817  9091 net.cpp:141] Setting up inception_4d/pool
I0403 19:19:37.190847  9091 net.cpp:148] Top shape: 24 512 14 14 (2408448)
I0403 19:19:37.190865  9091 net.cpp:156] Memory required for data: 1144900896
I0403 19:19:37.190884  9091 layer_factory.hpp:77] Creating layer inception_4d/pool_proj
I0403 19:19:37.190919  9091 net.cpp:91] Creating Layer inception_4d/pool_proj
I0403 19:19:37.190943  9091 net.cpp:425] inception_4d/pool_proj <- inception_4d/pool
I0403 19:19:37.190966  9091 net.cpp:399] inception_4d/pool_proj -> inception_4d/pool_proj
I0403 19:19:37.193110  9091 net.cpp:141] Setting up inception_4d/pool_proj
I0403 19:19:37.193150  9091 net.cpp:148] Top shape: 24 64 14 14 (301056)
I0403 19:19:37.193171  9091 net.cpp:156] Memory required for data: 1146105120
I0403 19:19:37.193197  9091 layer_factory.hpp:77] Creating layer inception_4d/relu_pool_proj
I0403 19:19:37.193217  9091 net.cpp:91] Creating Layer inception_4d/relu_pool_proj
I0403 19:19:37.193238  9091 net.cpp:425] inception_4d/relu_pool_proj <- inception_4d/pool_proj
I0403 19:19:37.193259  9091 net.cpp:386] inception_4d/relu_pool_proj -> inception_4d/pool_proj (in-place)
I0403 19:19:37.193495  9091 net.cpp:141] Setting up inception_4d/relu_pool_proj
I0403 19:19:37.193526  9091 net.cpp:148] Top shape: 24 64 14 14 (301056)
I0403 19:19:37.193544  9091 net.cpp:156] Memory required for data: 1147309344
I0403 19:19:37.193562  9091 layer_factory.hpp:77] Creating layer inception_4d/output
I0403 19:19:37.193584  9091 net.cpp:91] Creating Layer inception_4d/output
I0403 19:19:37.193604  9091 net.cpp:425] inception_4d/output <- inception_4d/1x1
I0403 19:19:37.193625  9091 net.cpp:425] inception_4d/output <- inception_4d/3x3
I0403 19:19:37.193652  9091 net.cpp:425] inception_4d/output <- inception_4d/5x5
I0403 19:19:37.193673  9091 net.cpp:425] inception_4d/output <- inception_4d/pool_proj
I0403 19:19:37.193696  9091 net.cpp:399] inception_4d/output -> inception_4d/output
I0403 19:19:37.193754  9091 net.cpp:141] Setting up inception_4d/output
I0403 19:19:37.193788  9091 net.cpp:148] Top shape: 24 528 14 14 (2483712)
I0403 19:19:37.193805  9091 net.cpp:156] Memory required for data: 1157244192
I0403 19:19:37.193825  9091 layer_factory.hpp:77] Creating layer inception_4d/output_inception_4d/output_0_split
I0403 19:19:37.193846  9091 net.cpp:91] Creating Layer inception_4d/output_inception_4d/output_0_split
I0403 19:19:37.193866  9091 net.cpp:425] inception_4d/output_inception_4d/output_0_split <- inception_4d/output
I0403 19:19:37.193892  9091 net.cpp:399] inception_4d/output_inception_4d/output_0_split -> inception_4d/output_inception_4d/output_0_split_0
I0403 19:19:37.193918  9091 net.cpp:399] inception_4d/output_inception_4d/output_0_split -> inception_4d/output_inception_4d/output_0_split_1
I0403 19:19:37.193944  9091 net.cpp:399] inception_4d/output_inception_4d/output_0_split -> inception_4d/output_inception_4d/output_0_split_2
I0403 19:19:37.193970  9091 net.cpp:399] inception_4d/output_inception_4d/output_0_split -> inception_4d/output_inception_4d/output_0_split_3
I0403 19:19:37.193995  9091 net.cpp:399] inception_4d/output_inception_4d/output_0_split -> inception_4d/output_inception_4d/output_0_split_4
I0403 19:19:37.194119  9091 net.cpp:141] Setting up inception_4d/output_inception_4d/output_0_split
I0403 19:19:37.194164  9091 net.cpp:148] Top shape: 24 528 14 14 (2483712)
I0403 19:19:37.194187  9091 net.cpp:148] Top shape: 24 528 14 14 (2483712)
I0403 19:19:37.194206  9091 net.cpp:148] Top shape: 24 528 14 14 (2483712)
I0403 19:19:37.194226  9091 net.cpp:148] Top shape: 24 528 14 14 (2483712)
I0403 19:19:37.194247  9091 net.cpp:148] Top shape: 24 528 14 14 (2483712)
I0403 19:19:37.194264  9091 net.cpp:156] Memory required for data: 1206918432
I0403 19:19:37.194286  9091 layer_factory.hpp:77] Creating layer loss2/ave_pool
I0403 19:19:37.194310  9091 net.cpp:91] Creating Layer loss2/ave_pool
I0403 19:19:37.194332  9091 net.cpp:425] loss2/ave_pool <- inception_4d/output_inception_4d/output_0_split_0
I0403 19:19:37.194355  9091 net.cpp:399] loss2/ave_pool -> loss2/ave_pool
I0403 19:19:37.194742  9091 net.cpp:141] Setting up loss2/ave_pool
I0403 19:19:37.194778  9091 net.cpp:148] Top shape: 24 528 4 4 (202752)
I0403 19:19:37.194800  9091 net.cpp:156] Memory required for data: 1207729440
I0403 19:19:37.194819  9091 layer_factory.hpp:77] Creating layer loss2/conv
I0403 19:19:37.194846  9091 net.cpp:91] Creating Layer loss2/conv
I0403 19:19:37.194869  9091 net.cpp:425] loss2/conv <- loss2/ave_pool
I0403 19:19:37.194892  9091 net.cpp:399] loss2/conv -> loss2/conv
I0403 19:19:37.197180  9091 net.cpp:141] Setting up loss2/conv
I0403 19:19:37.197216  9091 net.cpp:148] Top shape: 24 128 4 4 (49152)
I0403 19:19:37.197235  9091 net.cpp:156] Memory required for data: 1207926048
I0403 19:19:37.197259  9091 layer_factory.hpp:77] Creating layer loss2/relu_conv
I0403 19:19:37.197284  9091 net.cpp:91] Creating Layer loss2/relu_conv
I0403 19:19:37.197305  9091 net.cpp:425] loss2/relu_conv <- loss2/conv
I0403 19:19:37.197327  9091 net.cpp:386] loss2/relu_conv -> loss2/conv (in-place)
I0403 19:19:37.197674  9091 net.cpp:141] Setting up loss2/relu_conv
I0403 19:19:37.197707  9091 net.cpp:148] Top shape: 24 128 4 4 (49152)
I0403 19:19:37.197726  9091 net.cpp:156] Memory required for data: 1208122656
I0403 19:19:37.197756  9091 layer_factory.hpp:77] Creating layer loss2/fc
I0403 19:19:37.197782  9091 net.cpp:91] Creating Layer loss2/fc
I0403 19:19:37.197805  9091 net.cpp:425] loss2/fc <- loss2/conv
I0403 19:19:37.197829  9091 net.cpp:399] loss2/fc -> loss2/fc
I0403 19:19:37.219559  9091 net.cpp:141] Setting up loss2/fc
I0403 19:19:37.219597  9091 net.cpp:148] Top shape: 24 1024 (24576)
I0403 19:19:37.219617  9091 net.cpp:156] Memory required for data: 1208220960
I0403 19:19:37.219640  9091 layer_factory.hpp:77] Creating layer loss2/relu_fc
I0403 19:19:37.219662  9091 net.cpp:91] Creating Layer loss2/relu_fc
I0403 19:19:37.219683  9091 net.cpp:425] loss2/relu_fc <- loss2/fc
I0403 19:19:37.219708  9091 net.cpp:386] loss2/relu_fc -> loss2/fc (in-place)
I0403 19:19:37.220072  9091 net.cpp:141] Setting up loss2/relu_fc
I0403 19:19:37.220108  9091 net.cpp:148] Top shape: 24 1024 (24576)
I0403 19:19:37.220127  9091 net.cpp:156] Memory required for data: 1208319264
I0403 19:19:37.220149  9091 layer_factory.hpp:77] Creating layer loss2/drop_fc
I0403 19:19:37.220171  9091 net.cpp:91] Creating Layer loss2/drop_fc
I0403 19:19:37.220191  9091 net.cpp:425] loss2/drop_fc <- loss2/fc
I0403 19:19:37.220216  9091 net.cpp:386] loss2/drop_fc -> loss2/fc (in-place)
I0403 19:19:37.220276  9091 net.cpp:141] Setting up loss2/drop_fc
I0403 19:19:37.220304  9091 net.cpp:148] Top shape: 24 1024 (24576)
I0403 19:19:37.220322  9091 net.cpp:156] Memory required for data: 1208417568
I0403 19:19:37.220340  9091 layer_factory.hpp:77] Creating layer loss2/classifier_plantvillage
I0403 19:19:37.220366  9091 net.cpp:91] Creating Layer loss2/classifier_plantvillage
I0403 19:19:37.220388  9091 net.cpp:425] loss2/classifier_plantvillage <- loss2/fc
I0403 19:19:37.220414  9091 net.cpp:399] loss2/classifier_plantvillage -> loss2/classifier_plantvillage
I0403 19:19:37.220930  9091 net.cpp:141] Setting up loss2/classifier_plantvillage
I0403 19:19:37.220963  9091 net.cpp:148] Top shape: 24 38 (912)
I0403 19:19:37.220981  9091 net.cpp:156] Memory required for data: 1208421216
I0403 19:19:37.221035  9091 layer_factory.hpp:77] Creating layer loss2/classifier_plantvillage_loss2/classifier_plantvillage_0_split
I0403 19:19:37.221063  9091 net.cpp:91] Creating Layer loss2/classifier_plantvillage_loss2/classifier_plantvillage_0_split
I0403 19:19:37.221084  9091 net.cpp:425] loss2/classifier_plantvillage_loss2/classifier_plantvillage_0_split <- loss2/classifier_plantvillage
I0403 19:19:37.221107  9091 net.cpp:399] loss2/classifier_plantvillage_loss2/classifier_plantvillage_0_split -> loss2/classifier_plantvillage_loss2/classifier_plantvillage_0_split_0
I0403 19:19:37.221132  9091 net.cpp:399] loss2/classifier_plantvillage_loss2/classifier_plantvillage_0_split -> loss2/classifier_plantvillage_loss2/classifier_plantvillage_0_split_1
I0403 19:19:37.221158  9091 net.cpp:399] loss2/classifier_plantvillage_loss2/classifier_plantvillage_0_split -> loss2/classifier_plantvillage_loss2/classifier_plantvillage_0_split_2
I0403 19:19:37.221254  9091 net.cpp:141] Setting up loss2/classifier_plantvillage_loss2/classifier_plantvillage_0_split
I0403 19:19:37.221283  9091 net.cpp:148] Top shape: 24 38 (912)
I0403 19:19:37.221303  9091 net.cpp:148] Top shape: 24 38 (912)
I0403 19:19:37.221331  9091 net.cpp:148] Top shape: 24 38 (912)
I0403 19:19:37.221349  9091 net.cpp:156] Memory required for data: 1208432160
I0403 19:19:37.221366  9091 layer_factory.hpp:77] Creating layer inception_4e/1x1
I0403 19:19:37.221391  9091 net.cpp:91] Creating Layer inception_4e/1x1
I0403 19:19:37.221411  9091 net.cpp:425] inception_4e/1x1 <- inception_4d/output_inception_4d/output_0_split_1
I0403 19:19:37.221443  9091 net.cpp:399] inception_4e/1x1 -> inception_4e/1x1
I0403 19:19:37.223680  9091 net.cpp:141] Setting up inception_4e/1x1
I0403 19:19:37.223716  9091 net.cpp:148] Top shape: 24 256 14 14 (1204224)
I0403 19:19:37.223734  9091 net.cpp:156] Memory required for data: 1213249056
I0403 19:19:37.223757  9091 layer_factory.hpp:77] Creating layer inception_4e/relu_1x1
I0403 19:19:37.223783  9091 net.cpp:91] Creating Layer inception_4e/relu_1x1
I0403 19:19:37.223803  9091 net.cpp:425] inception_4e/relu_1x1 <- inception_4e/1x1
I0403 19:19:37.223825  9091 net.cpp:386] inception_4e/relu_1x1 -> inception_4e/1x1 (in-place)
I0403 19:19:37.224181  9091 net.cpp:141] Setting up inception_4e/relu_1x1
I0403 19:19:37.224213  9091 net.cpp:148] Top shape: 24 256 14 14 (1204224)
I0403 19:19:37.224232  9091 net.cpp:156] Memory required for data: 1218065952
I0403 19:19:37.224251  9091 layer_factory.hpp:77] Creating layer inception_4e/3x3_reduce
I0403 19:19:37.224279  9091 net.cpp:91] Creating Layer inception_4e/3x3_reduce
I0403 19:19:37.224301  9091 net.cpp:425] inception_4e/3x3_reduce <- inception_4d/output_inception_4d/output_0_split_2
I0403 19:19:37.224328  9091 net.cpp:399] inception_4e/3x3_reduce -> inception_4e/3x3_reduce
I0403 19:19:37.226891  9091 net.cpp:141] Setting up inception_4e/3x3_reduce
I0403 19:19:37.226927  9091 net.cpp:148] Top shape: 24 160 14 14 (752640)
I0403 19:19:37.226948  9091 net.cpp:156] Memory required for data: 1221076512
I0403 19:19:37.226971  9091 layer_factory.hpp:77] Creating layer inception_4e/relu_3x3_reduce
I0403 19:19:37.226992  9091 net.cpp:91] Creating Layer inception_4e/relu_3x3_reduce
I0403 19:19:37.227017  9091 net.cpp:425] inception_4e/relu_3x3_reduce <- inception_4e/3x3_reduce
I0403 19:19:37.227038  9091 net.cpp:386] inception_4e/relu_3x3_reduce -> inception_4e/3x3_reduce (in-place)
I0403 19:19:37.227264  9091 net.cpp:141] Setting up inception_4e/relu_3x3_reduce
I0403 19:19:37.227296  9091 net.cpp:148] Top shape: 24 160 14 14 (752640)
I0403 19:19:37.227314  9091 net.cpp:156] Memory required for data: 1224087072
I0403 19:19:37.227332  9091 layer_factory.hpp:77] Creating layer inception_4e/3x3
I0403 19:19:37.227360  9091 net.cpp:91] Creating Layer inception_4e/3x3
I0403 19:19:37.227381  9091 net.cpp:425] inception_4e/3x3 <- inception_4e/3x3_reduce
I0403 19:19:37.227407  9091 net.cpp:399] inception_4e/3x3 -> inception_4e/3x3
I0403 19:19:37.233597  9091 net.cpp:141] Setting up inception_4e/3x3
I0403 19:19:37.233649  9091 net.cpp:148] Top shape: 24 320 14 14 (1505280)
I0403 19:19:37.233670  9091 net.cpp:156] Memory required for data: 1230108192
I0403 19:19:37.233693  9091 layer_factory.hpp:77] Creating layer inception_4e/relu_3x3
I0403 19:19:37.233718  9091 net.cpp:91] Creating Layer inception_4e/relu_3x3
I0403 19:19:37.233741  9091 net.cpp:425] inception_4e/relu_3x3 <- inception_4e/3x3
I0403 19:19:37.233762  9091 net.cpp:386] inception_4e/relu_3x3 -> inception_4e/3x3 (in-place)
I0403 19:19:37.234129  9091 net.cpp:141] Setting up inception_4e/relu_3x3
I0403 19:19:37.234163  9091 net.cpp:148] Top shape: 24 320 14 14 (1505280)
I0403 19:19:37.234180  9091 net.cpp:156] Memory required for data: 1236129312
I0403 19:19:37.234200  9091 layer_factory.hpp:77] Creating layer inception_4e/5x5_reduce
I0403 19:19:37.234230  9091 net.cpp:91] Creating Layer inception_4e/5x5_reduce
I0403 19:19:37.234254  9091 net.cpp:425] inception_4e/5x5_reduce <- inception_4d/output_inception_4d/output_0_split_3
I0403 19:19:37.234280  9091 net.cpp:399] inception_4e/5x5_reduce -> inception_4e/5x5_reduce
I0403 19:19:37.235601  9091 net.cpp:141] Setting up inception_4e/5x5_reduce
I0403 19:19:37.235636  9091 net.cpp:148] Top shape: 24 32 14 14 (150528)
I0403 19:19:37.235656  9091 net.cpp:156] Memory required for data: 1236731424
I0403 19:19:37.235678  9091 layer_factory.hpp:77] Creating layer inception_4e/relu_5x5_reduce
I0403 19:19:37.235700  9091 net.cpp:91] Creating Layer inception_4e/relu_5x5_reduce
I0403 19:19:37.235721  9091 net.cpp:425] inception_4e/relu_5x5_reduce <- inception_4e/5x5_reduce
I0403 19:19:37.235748  9091 net.cpp:386] inception_4e/relu_5x5_reduce -> inception_4e/5x5_reduce (in-place)
I0403 19:19:37.236114  9091 net.cpp:141] Setting up inception_4e/relu_5x5_reduce
I0403 19:19:37.236145  9091 net.cpp:148] Top shape: 24 32 14 14 (150528)
I0403 19:19:37.236165  9091 net.cpp:156] Memory required for data: 1237333536
I0403 19:19:37.236183  9091 layer_factory.hpp:77] Creating layer inception_4e/5x5
I0403 19:19:37.236229  9091 net.cpp:91] Creating Layer inception_4e/5x5
I0403 19:19:37.236255  9091 net.cpp:425] inception_4e/5x5 <- inception_4e/5x5_reduce
I0403 19:19:37.236279  9091 net.cpp:399] inception_4e/5x5 -> inception_4e/5x5
I0403 19:19:37.238540  9091 net.cpp:141] Setting up inception_4e/5x5
I0403 19:19:37.238576  9091 net.cpp:148] Top shape: 24 128 14 14 (602112)
I0403 19:19:37.238595  9091 net.cpp:156] Memory required for data: 1239741984
I0403 19:19:37.238620  9091 layer_factory.hpp:77] Creating layer inception_4e/relu_5x5
I0403 19:19:37.238641  9091 net.cpp:91] Creating Layer inception_4e/relu_5x5
I0403 19:19:37.238662  9091 net.cpp:425] inception_4e/relu_5x5 <- inception_4e/5x5
I0403 19:19:37.238685  9091 net.cpp:386] inception_4e/relu_5x5 -> inception_4e/5x5 (in-place)
I0403 19:19:37.238939  9091 net.cpp:141] Setting up inception_4e/relu_5x5
I0403 19:19:37.238970  9091 net.cpp:148] Top shape: 24 128 14 14 (602112)
I0403 19:19:37.238988  9091 net.cpp:156] Memory required for data: 1242150432
I0403 19:19:37.239007  9091 layer_factory.hpp:77] Creating layer inception_4e/pool
I0403 19:19:37.239032  9091 net.cpp:91] Creating Layer inception_4e/pool
I0403 19:19:37.239053  9091 net.cpp:425] inception_4e/pool <- inception_4d/output_inception_4d/output_0_split_4
I0403 19:19:37.239075  9091 net.cpp:399] inception_4e/pool -> inception_4e/pool
I0403 19:19:37.239162  9091 net.cpp:141] Setting up inception_4e/pool
I0403 19:19:37.239195  9091 net.cpp:148] Top shape: 24 528 14 14 (2483712)
I0403 19:19:37.239213  9091 net.cpp:156] Memory required for data: 1252085280
I0403 19:19:37.239240  9091 layer_factory.hpp:77] Creating layer inception_4e/pool_proj
I0403 19:19:37.239267  9091 net.cpp:91] Creating Layer inception_4e/pool_proj
I0403 19:19:37.239289  9091 net.cpp:425] inception_4e/pool_proj <- inception_4e/pool
I0403 19:19:37.239320  9091 net.cpp:399] inception_4e/pool_proj -> inception_4e/pool_proj
I0403 19:19:37.241158  9091 net.cpp:141] Setting up inception_4e/pool_proj
I0403 19:19:37.241196  9091 net.cpp:148] Top shape: 24 128 14 14 (602112)
I0403 19:19:37.241233  9091 net.cpp:156] Memory required for data: 1254493728
I0403 19:19:37.241258  9091 layer_factory.hpp:77] Creating layer inception_4e/relu_pool_proj
I0403 19:19:37.241279  9091 net.cpp:91] Creating Layer inception_4e/relu_pool_proj
I0403 19:19:37.241299  9091 net.cpp:425] inception_4e/relu_pool_proj <- inception_4e/pool_proj
I0403 19:19:37.241322  9091 net.cpp:386] inception_4e/relu_pool_proj -> inception_4e/pool_proj (in-place)
I0403 19:19:37.241682  9091 net.cpp:141] Setting up inception_4e/relu_pool_proj
I0403 19:19:37.241719  9091 net.cpp:148] Top shape: 24 128 14 14 (602112)
I0403 19:19:37.241737  9091 net.cpp:156] Memory required for data: 1256902176
I0403 19:19:37.241755  9091 layer_factory.hpp:77] Creating layer inception_4e/output
I0403 19:19:37.241777  9091 net.cpp:91] Creating Layer inception_4e/output
I0403 19:19:37.241796  9091 net.cpp:425] inception_4e/output <- inception_4e/1x1
I0403 19:19:37.241817  9091 net.cpp:425] inception_4e/output <- inception_4e/3x3
I0403 19:19:37.241838  9091 net.cpp:425] inception_4e/output <- inception_4e/5x5
I0403 19:19:37.241858  9091 net.cpp:425] inception_4e/output <- inception_4e/pool_proj
I0403 19:19:37.241878  9091 net.cpp:399] inception_4e/output -> inception_4e/output
I0403 19:19:37.241941  9091 net.cpp:141] Setting up inception_4e/output
I0403 19:19:37.241971  9091 net.cpp:148] Top shape: 24 832 14 14 (3913728)
I0403 19:19:37.241988  9091 net.cpp:156] Memory required for data: 1272557088
I0403 19:19:37.242007  9091 layer_factory.hpp:77] Creating layer pool4/3x3_s2
I0403 19:19:37.242034  9091 net.cpp:91] Creating Layer pool4/3x3_s2
I0403 19:19:37.242055  9091 net.cpp:425] pool4/3x3_s2 <- inception_4e/output
I0403 19:19:37.242079  9091 net.cpp:399] pool4/3x3_s2 -> pool4/3x3_s2
I0403 19:19:37.242162  9091 net.cpp:141] Setting up pool4/3x3_s2
I0403 19:19:37.242202  9091 net.cpp:148] Top shape: 24 832 7 7 (978432)
I0403 19:19:37.242219  9091 net.cpp:156] Memory required for data: 1276470816
I0403 19:19:37.242238  9091 layer_factory.hpp:77] Creating layer pool4/3x3_s2_pool4/3x3_s2_0_split
I0403 19:19:37.242259  9091 net.cpp:91] Creating Layer pool4/3x3_s2_pool4/3x3_s2_0_split
I0403 19:19:37.242279  9091 net.cpp:425] pool4/3x3_s2_pool4/3x3_s2_0_split <- pool4/3x3_s2
I0403 19:19:37.242303  9091 net.cpp:399] pool4/3x3_s2_pool4/3x3_s2_0_split -> pool4/3x3_s2_pool4/3x3_s2_0_split_0
I0403 19:19:37.242329  9091 net.cpp:399] pool4/3x3_s2_pool4/3x3_s2_0_split -> pool4/3x3_s2_pool4/3x3_s2_0_split_1
I0403 19:19:37.242355  9091 net.cpp:399] pool4/3x3_s2_pool4/3x3_s2_0_split -> pool4/3x3_s2_pool4/3x3_s2_0_split_2
I0403 19:19:37.242382  9091 net.cpp:399] pool4/3x3_s2_pool4/3x3_s2_0_split -> pool4/3x3_s2_pool4/3x3_s2_0_split_3
I0403 19:19:37.242506  9091 net.cpp:141] Setting up pool4/3x3_s2_pool4/3x3_s2_0_split
I0403 19:19:37.242547  9091 net.cpp:148] Top shape: 24 832 7 7 (978432)
I0403 19:19:37.242569  9091 net.cpp:148] Top shape: 24 832 7 7 (978432)
I0403 19:19:37.242588  9091 net.cpp:148] Top shape: 24 832 7 7 (978432)
I0403 19:19:37.242609  9091 net.cpp:148] Top shape: 24 832 7 7 (978432)
I0403 19:19:37.242625  9091 net.cpp:156] Memory required for data: 1292125728
I0403 19:19:37.242643  9091 layer_factory.hpp:77] Creating layer inception_5a/1x1
I0403 19:19:37.242671  9091 net.cpp:91] Creating Layer inception_5a/1x1
I0403 19:19:37.242692  9091 net.cpp:425] inception_5a/1x1 <- pool4/3x3_s2_pool4/3x3_s2_0_split_0
I0403 19:19:37.242717  9091 net.cpp:399] inception_5a/1x1 -> inception_5a/1x1
I0403 19:19:37.246191  9091 net.cpp:141] Setting up inception_5a/1x1
I0403 19:19:37.246227  9091 net.cpp:148] Top shape: 24 256 7 7 (301056)
I0403 19:19:37.246248  9091 net.cpp:156] Memory required for data: 1293329952
I0403 19:19:37.246271  9091 layer_factory.hpp:77] Creating layer inception_5a/relu_1x1
I0403 19:19:37.246294  9091 net.cpp:91] Creating Layer inception_5a/relu_1x1
I0403 19:19:37.246312  9091 net.cpp:425] inception_5a/relu_1x1 <- inception_5a/1x1
I0403 19:19:37.246336  9091 net.cpp:386] inception_5a/relu_1x1 -> inception_5a/1x1 (in-place)
I0403 19:19:37.246721  9091 net.cpp:141] Setting up inception_5a/relu_1x1
I0403 19:19:37.246753  9091 net.cpp:148] Top shape: 24 256 7 7 (301056)
I0403 19:19:37.246773  9091 net.cpp:156] Memory required for data: 1294534176
I0403 19:19:37.246790  9091 layer_factory.hpp:77] Creating layer inception_5a/3x3_reduce
I0403 19:19:37.246819  9091 net.cpp:91] Creating Layer inception_5a/3x3_reduce
I0403 19:19:37.246840  9091 net.cpp:425] inception_5a/3x3_reduce <- pool4/3x3_s2_pool4/3x3_s2_0_split_1
I0403 19:19:37.246867  9091 net.cpp:399] inception_5a/3x3_reduce -> inception_5a/3x3_reduce
I0403 19:19:37.249861  9091 net.cpp:141] Setting up inception_5a/3x3_reduce
I0403 19:19:37.249900  9091 net.cpp:148] Top shape: 24 160 7 7 (188160)
I0403 19:19:37.249922  9091 net.cpp:156] Memory required for data: 1295286816
I0403 19:19:37.249944  9091 layer_factory.hpp:77] Creating layer inception_5a/relu_3x3_reduce
I0403 19:19:37.249968  9091 net.cpp:91] Creating Layer inception_5a/relu_3x3_reduce
I0403 19:19:37.249987  9091 net.cpp:425] inception_5a/relu_3x3_reduce <- inception_5a/3x3_reduce
I0403 19:19:37.250010  9091 net.cpp:386] inception_5a/relu_3x3_reduce -> inception_5a/3x3_reduce (in-place)
I0403 19:19:37.250238  9091 net.cpp:141] Setting up inception_5a/relu_3x3_reduce
I0403 19:19:37.250286  9091 net.cpp:148] Top shape: 24 160 7 7 (188160)
I0403 19:19:37.250311  9091 net.cpp:156] Memory required for data: 1296039456
I0403 19:19:37.250329  9091 layer_factory.hpp:77] Creating layer inception_5a/3x3
I0403 19:19:37.250357  9091 net.cpp:91] Creating Layer inception_5a/3x3
I0403 19:19:37.250380  9091 net.cpp:425] inception_5a/3x3 <- inception_5a/3x3_reduce
I0403 19:19:37.250403  9091 net.cpp:399] inception_5a/3x3 -> inception_5a/3x3
I0403 19:19:37.256639  9091 net.cpp:141] Setting up inception_5a/3x3
I0403 19:19:37.256676  9091 net.cpp:148] Top shape: 24 320 7 7 (376320)
I0403 19:19:37.256697  9091 net.cpp:156] Memory required for data: 1297544736
I0403 19:19:37.256721  9091 layer_factory.hpp:77] Creating layer inception_5a/relu_3x3
I0403 19:19:37.256742  9091 net.cpp:91] Creating Layer inception_5a/relu_3x3
I0403 19:19:37.256763  9091 net.cpp:425] inception_5a/relu_3x3 <- inception_5a/3x3
I0403 19:19:37.256788  9091 net.cpp:386] inception_5a/relu_3x3 -> inception_5a/3x3 (in-place)
I0403 19:19:37.257145  9091 net.cpp:141] Setting up inception_5a/relu_3x3
I0403 19:19:37.257179  9091 net.cpp:148] Top shape: 24 320 7 7 (376320)
I0403 19:19:37.257196  9091 net.cpp:156] Memory required for data: 1299050016
I0403 19:19:37.257216  9091 layer_factory.hpp:77] Creating layer inception_5a/5x5_reduce
I0403 19:19:37.257243  9091 net.cpp:91] Creating Layer inception_5a/5x5_reduce
I0403 19:19:37.257267  9091 net.cpp:425] inception_5a/5x5_reduce <- pool4/3x3_s2_pool4/3x3_s2_0_split_2
I0403 19:19:37.257297  9091 net.cpp:399] inception_5a/5x5_reduce -> inception_5a/5x5_reduce
I0403 19:19:37.258736  9091 net.cpp:141] Setting up inception_5a/5x5_reduce
I0403 19:19:37.258775  9091 net.cpp:148] Top shape: 24 32 7 7 (37632)
I0403 19:19:37.258796  9091 net.cpp:156] Memory required for data: 1299200544
I0403 19:19:37.258819  9091 layer_factory.hpp:77] Creating layer inception_5a/relu_5x5_reduce
I0403 19:19:37.258844  9091 net.cpp:91] Creating Layer inception_5a/relu_5x5_reduce
I0403 19:19:37.258867  9091 net.cpp:425] inception_5a/relu_5x5_reduce <- inception_5a/5x5_reduce
I0403 19:19:37.258888  9091 net.cpp:386] inception_5a/relu_5x5_reduce -> inception_5a/5x5_reduce (in-place)
I0403 19:19:37.259253  9091 net.cpp:141] Setting up inception_5a/relu_5x5_reduce
I0403 19:19:37.259285  9091 net.cpp:148] Top shape: 24 32 7 7 (37632)
I0403 19:19:37.259305  9091 net.cpp:156] Memory required for data: 1299351072
I0403 19:19:37.259322  9091 layer_factory.hpp:77] Creating layer inception_5a/5x5
I0403 19:19:37.259351  9091 net.cpp:91] Creating Layer inception_5a/5x5
I0403 19:19:37.259373  9091 net.cpp:425] inception_5a/5x5 <- inception_5a/5x5_reduce
I0403 19:19:37.259400  9091 net.cpp:399] inception_5a/5x5 -> inception_5a/5x5
I0403 19:19:37.261517  9091 net.cpp:141] Setting up inception_5a/5x5
I0403 19:19:37.261565  9091 net.cpp:148] Top shape: 24 128 7 7 (150528)
I0403 19:19:37.261585  9091 net.cpp:156] Memory required for data: 1299953184
I0403 19:19:37.261608  9091 layer_factory.hpp:77] Creating layer inception_5a/relu_5x5
I0403 19:19:37.261631  9091 net.cpp:91] Creating Layer inception_5a/relu_5x5
I0403 19:19:37.261649  9091 net.cpp:425] inception_5a/relu_5x5 <- inception_5a/5x5
I0403 19:19:37.261673  9091 net.cpp:386] inception_5a/relu_5x5 -> inception_5a/5x5 (in-place)
I0403 19:19:37.261907  9091 net.cpp:141] Setting up inception_5a/relu_5x5
I0403 19:19:37.261939  9091 net.cpp:148] Top shape: 24 128 7 7 (150528)
I0403 19:19:37.261957  9091 net.cpp:156] Memory required for data: 1300555296
I0403 19:19:37.261976  9091 layer_factory.hpp:77] Creating layer inception_5a/pool
I0403 19:19:37.262001  9091 net.cpp:91] Creating Layer inception_5a/pool
I0403 19:19:37.262022  9091 net.cpp:425] inception_5a/pool <- pool4/3x3_s2_pool4/3x3_s2_0_split_3
I0403 19:19:37.262044  9091 net.cpp:399] inception_5a/pool -> inception_5a/pool
I0403 19:19:37.262132  9091 net.cpp:141] Setting up inception_5a/pool
I0403 19:19:37.262178  9091 net.cpp:148] Top shape: 24 832 7 7 (978432)
I0403 19:19:37.262197  9091 net.cpp:156] Memory required for data: 1304469024
I0403 19:19:37.262217  9091 layer_factory.hpp:77] Creating layer inception_5a/pool_proj
I0403 19:19:37.262243  9091 net.cpp:91] Creating Layer inception_5a/pool_proj
I0403 19:19:37.262269  9091 net.cpp:425] inception_5a/pool_proj <- inception_5a/pool
I0403 19:19:37.262310  9091 net.cpp:399] inception_5a/pool_proj -> inception_5a/pool_proj
I0403 19:19:37.265110  9091 net.cpp:141] Setting up inception_5a/pool_proj
I0403 19:19:37.265154  9091 net.cpp:148] Top shape: 24 128 7 7 (150528)
I0403 19:19:37.265175  9091 net.cpp:156] Memory required for data: 1305071136
I0403 19:19:37.265199  9091 layer_factory.hpp:77] Creating layer inception_5a/relu_pool_proj
I0403 19:19:37.265220  9091 net.cpp:91] Creating Layer inception_5a/relu_pool_proj
I0403 19:19:37.265241  9091 net.cpp:425] inception_5a/relu_pool_proj <- inception_5a/pool_proj
I0403 19:19:37.265266  9091 net.cpp:386] inception_5a/relu_pool_proj -> inception_5a/pool_proj (in-place)
I0403 19:19:37.265630  9091 net.cpp:141] Setting up inception_5a/relu_pool_proj
I0403 19:19:37.265666  9091 net.cpp:148] Top shape: 24 128 7 7 (150528)
I0403 19:19:37.265686  9091 net.cpp:156] Memory required for data: 1305673248
I0403 19:19:37.265705  9091 layer_factory.hpp:77] Creating layer inception_5a/output
I0403 19:19:37.265727  9091 net.cpp:91] Creating Layer inception_5a/output
I0403 19:19:37.265746  9091 net.cpp:425] inception_5a/output <- inception_5a/1x1
I0403 19:19:37.265768  9091 net.cpp:425] inception_5a/output <- inception_5a/3x3
I0403 19:19:37.265787  9091 net.cpp:425] inception_5a/output <- inception_5a/5x5
I0403 19:19:37.265815  9091 net.cpp:425] inception_5a/output <- inception_5a/pool_proj
I0403 19:19:37.265836  9091 net.cpp:399] inception_5a/output -> inception_5a/output
I0403 19:19:37.265902  9091 net.cpp:141] Setting up inception_5a/output
I0403 19:19:37.265930  9091 net.cpp:148] Top shape: 24 832 7 7 (978432)
I0403 19:19:37.265949  9091 net.cpp:156] Memory required for data: 1309586976
I0403 19:19:37.265966  9091 layer_factory.hpp:77] Creating layer inception_5a/output_inception_5a/output_0_split
I0403 19:19:37.265991  9091 net.cpp:91] Creating Layer inception_5a/output_inception_5a/output_0_split
I0403 19:19:37.266012  9091 net.cpp:425] inception_5a/output_inception_5a/output_0_split <- inception_5a/output
I0403 19:19:37.266034  9091 net.cpp:399] inception_5a/output_inception_5a/output_0_split -> inception_5a/output_inception_5a/output_0_split_0
I0403 19:19:37.266060  9091 net.cpp:399] inception_5a/output_inception_5a/output_0_split -> inception_5a/output_inception_5a/output_0_split_1
I0403 19:19:37.266086  9091 net.cpp:399] inception_5a/output_inception_5a/output_0_split -> inception_5a/output_inception_5a/output_0_split_2
I0403 19:19:37.266115  9091 net.cpp:399] inception_5a/output_inception_5a/output_0_split -> inception_5a/output_inception_5a/output_0_split_3
I0403 19:19:37.266253  9091 net.cpp:141] Setting up inception_5a/output_inception_5a/output_0_split
I0403 19:19:37.266283  9091 net.cpp:148] Top shape: 24 832 7 7 (978432)
I0403 19:19:37.266304  9091 net.cpp:148] Top shape: 24 832 7 7 (978432)
I0403 19:19:37.266322  9091 net.cpp:148] Top shape: 24 832 7 7 (978432)
I0403 19:19:37.266340  9091 net.cpp:148] Top shape: 24 832 7 7 (978432)
I0403 19:19:37.266357  9091 net.cpp:156] Memory required for data: 1325241888
I0403 19:19:37.266376  9091 layer_factory.hpp:77] Creating layer inception_5b/1x1
I0403 19:19:37.266402  9091 net.cpp:91] Creating Layer inception_5b/1x1
I0403 19:19:37.266424  9091 net.cpp:425] inception_5b/1x1 <- inception_5a/output_inception_5a/output_0_split_0
I0403 19:19:37.266458  9091 net.cpp:399] inception_5b/1x1 -> inception_5b/1x1
I0403 19:19:37.271057  9091 net.cpp:141] Setting up inception_5b/1x1
I0403 19:19:37.271096  9091 net.cpp:148] Top shape: 24 384 7 7 (451584)
I0403 19:19:37.271117  9091 net.cpp:156] Memory required for data: 1327048224
I0403 19:19:37.271141  9091 layer_factory.hpp:77] Creating layer inception_5b/relu_1x1
I0403 19:19:37.271163  9091 net.cpp:91] Creating Layer inception_5b/relu_1x1
I0403 19:19:37.271186  9091 net.cpp:425] inception_5b/relu_1x1 <- inception_5b/1x1
I0403 19:19:37.271208  9091 net.cpp:386] inception_5b/relu_1x1 -> inception_5b/1x1 (in-place)
I0403 19:19:37.271584  9091 net.cpp:141] Setting up inception_5b/relu_1x1
I0403 19:19:37.271620  9091 net.cpp:148] Top shape: 24 384 7 7 (451584)
I0403 19:19:37.271638  9091 net.cpp:156] Memory required for data: 1328854560
I0403 19:19:37.271657  9091 layer_factory.hpp:77] Creating layer inception_5b/3x3_reduce
I0403 19:19:37.271682  9091 net.cpp:91] Creating Layer inception_5b/3x3_reduce
I0403 19:19:37.271704  9091 net.cpp:425] inception_5b/3x3_reduce <- inception_5a/output_inception_5a/output_0_split_1
I0403 19:19:37.271735  9091 net.cpp:399] inception_5b/3x3_reduce -> inception_5b/3x3_reduce
I0403 19:19:37.275002  9091 net.cpp:141] Setting up inception_5b/3x3_reduce
I0403 19:19:37.275041  9091 net.cpp:148] Top shape: 24 192 7 7 (225792)
I0403 19:19:37.275063  9091 net.cpp:156] Memory required for data: 1329757728
I0403 19:19:37.275086  9091 layer_factory.hpp:77] Creating layer inception_5b/relu_3x3_reduce
I0403 19:19:37.275110  9091 net.cpp:91] Creating Layer inception_5b/relu_3x3_reduce
I0403 19:19:37.275128  9091 net.cpp:425] inception_5b/relu_3x3_reduce <- inception_5b/3x3_reduce
I0403 19:19:37.275154  9091 net.cpp:386] inception_5b/relu_3x3_reduce -> inception_5b/3x3_reduce (in-place)
I0403 19:19:37.275390  9091 net.cpp:141] Setting up inception_5b/relu_3x3_reduce
I0403 19:19:37.275421  9091 net.cpp:148] Top shape: 24 192 7 7 (225792)
I0403 19:19:37.275446  9091 net.cpp:156] Memory required for data: 1330660896
I0403 19:19:37.275465  9091 layer_factory.hpp:77] Creating layer inception_5b/3x3
I0403 19:19:37.275492  9091 net.cpp:91] Creating Layer inception_5b/3x3
I0403 19:19:37.275516  9091 net.cpp:425] inception_5b/3x3 <- inception_5b/3x3_reduce
I0403 19:19:37.275543  9091 net.cpp:399] inception_5b/3x3 -> inception_5b/3x3
I0403 19:19:37.283838  9091 net.cpp:141] Setting up inception_5b/3x3
I0403 19:19:37.283876  9091 net.cpp:148] Top shape: 24 384 7 7 (451584)
I0403 19:19:37.283897  9091 net.cpp:156] Memory required for data: 1332467232
I0403 19:19:37.283921  9091 layer_factory.hpp:77] Creating layer inception_5b/relu_3x3
I0403 19:19:37.283942  9091 net.cpp:91] Creating Layer inception_5b/relu_3x3
I0403 19:19:37.283962  9091 net.cpp:425] inception_5b/relu_3x3 <- inception_5b/3x3
I0403 19:19:37.283988  9091 net.cpp:386] inception_5b/relu_3x3 -> inception_5b/3x3 (in-place)
I0403 19:19:37.284349  9091 net.cpp:141] Setting up inception_5b/relu_3x3
I0403 19:19:37.284385  9091 net.cpp:148] Top shape: 24 384 7 7 (451584)
I0403 19:19:37.284405  9091 net.cpp:156] Memory required for data: 1334273568
I0403 19:19:37.284425  9091 layer_factory.hpp:77] Creating layer inception_5b/5x5_reduce
I0403 19:19:37.284478  9091 net.cpp:91] Creating Layer inception_5b/5x5_reduce
I0403 19:19:37.284503  9091 net.cpp:425] inception_5b/5x5_reduce <- inception_5a/output_inception_5a/output_0_split_2
I0403 19:19:37.284528  9091 net.cpp:399] inception_5b/5x5_reduce -> inception_5b/5x5_reduce
I0403 19:19:37.286082  9091 net.cpp:141] Setting up inception_5b/5x5_reduce
I0403 19:19:37.286121  9091 net.cpp:148] Top shape: 24 48 7 7 (56448)
I0403 19:19:37.286141  9091 net.cpp:156] Memory required for data: 1334499360
I0403 19:19:37.286164  9091 layer_factory.hpp:77] Creating layer inception_5b/relu_5x5_reduce
I0403 19:19:37.286190  9091 net.cpp:91] Creating Layer inception_5b/relu_5x5_reduce
I0403 19:19:37.286211  9091 net.cpp:425] inception_5b/relu_5x5_reduce <- inception_5b/5x5_reduce
I0403 19:19:37.286232  9091 net.cpp:386] inception_5b/relu_5x5_reduce -> inception_5b/5x5_reduce (in-place)
I0403 19:19:37.286689  9091 net.cpp:141] Setting up inception_5b/relu_5x5_reduce
I0403 19:19:37.286723  9091 net.cpp:148] Top shape: 24 48 7 7 (56448)
I0403 19:19:37.286742  9091 net.cpp:156] Memory required for data: 1334725152
I0403 19:19:37.286761  9091 layer_factory.hpp:77] Creating layer inception_5b/5x5
I0403 19:19:37.286790  9091 net.cpp:91] Creating Layer inception_5b/5x5
I0403 19:19:37.286813  9091 net.cpp:425] inception_5b/5x5 <- inception_5b/5x5_reduce
I0403 19:19:37.286835  9091 net.cpp:399] inception_5b/5x5 -> inception_5b/5x5
I0403 19:19:37.289352  9091 net.cpp:141] Setting up inception_5b/5x5
I0403 19:19:37.289387  9091 net.cpp:148] Top shape: 24 128 7 7 (150528)
I0403 19:19:37.289410  9091 net.cpp:156] Memory required for data: 1335327264
I0403 19:19:37.289438  9091 layer_factory.hpp:77] Creating layer inception_5b/relu_5x5
I0403 19:19:37.289463  9091 net.cpp:91] Creating Layer inception_5b/relu_5x5
I0403 19:19:37.289484  9091 net.cpp:425] inception_5b/relu_5x5 <- inception_5b/5x5
I0403 19:19:37.289510  9091 net.cpp:386] inception_5b/relu_5x5 -> inception_5b/5x5 (in-place)
I0403 19:19:37.289752  9091 net.cpp:141] Setting up inception_5b/relu_5x5
I0403 19:19:37.289783  9091 net.cpp:148] Top shape: 24 128 7 7 (150528)
I0403 19:19:37.289801  9091 net.cpp:156] Memory required for data: 1335929376
I0403 19:19:37.289819  9091 layer_factory.hpp:77] Creating layer inception_5b/pool
I0403 19:19:37.289844  9091 net.cpp:91] Creating Layer inception_5b/pool
I0403 19:19:37.289865  9091 net.cpp:425] inception_5b/pool <- inception_5a/output_inception_5a/output_0_split_3
I0403 19:19:37.289890  9091 net.cpp:399] inception_5b/pool -> inception_5b/pool
I0403 19:19:37.289979  9091 net.cpp:141] Setting up inception_5b/pool
I0403 19:19:37.290009  9091 net.cpp:148] Top shape: 24 832 7 7 (978432)
I0403 19:19:37.290027  9091 net.cpp:156] Memory required for data: 1339843104
I0403 19:19:37.290045  9091 layer_factory.hpp:77] Creating layer inception_5b/pool_proj
I0403 19:19:37.290073  9091 net.cpp:91] Creating Layer inception_5b/pool_proj
I0403 19:19:37.290096  9091 net.cpp:425] inception_5b/pool_proj <- inception_5b/pool
I0403 19:19:37.290122  9091 net.cpp:399] inception_5b/pool_proj -> inception_5b/pool_proj
I0403 19:19:37.292937  9091 net.cpp:141] Setting up inception_5b/pool_proj
I0403 19:19:37.292976  9091 net.cpp:148] Top shape: 24 128 7 7 (150528)
I0403 19:19:37.292996  9091 net.cpp:156] Memory required for data: 1340445216
I0403 19:19:37.293020  9091 layer_factory.hpp:77] Creating layer inception_5b/relu_pool_proj
I0403 19:19:37.293041  9091 net.cpp:91] Creating Layer inception_5b/relu_pool_proj
I0403 19:19:37.293061  9091 net.cpp:425] inception_5b/relu_pool_proj <- inception_5b/pool_proj
I0403 19:19:37.293088  9091 net.cpp:386] inception_5b/relu_pool_proj -> inception_5b/pool_proj (in-place)
I0403 19:19:37.293457  9091 net.cpp:141] Setting up inception_5b/relu_pool_proj
I0403 19:19:37.293493  9091 net.cpp:148] Top shape: 24 128 7 7 (150528)
I0403 19:19:37.293514  9091 net.cpp:156] Memory required for data: 1341047328
I0403 19:19:37.293534  9091 layer_factory.hpp:77] Creating layer inception_5b/output
I0403 19:19:37.293555  9091 net.cpp:91] Creating Layer inception_5b/output
I0403 19:19:37.293592  9091 net.cpp:425] inception_5b/output <- inception_5b/1x1
I0403 19:19:37.293615  9091 net.cpp:425] inception_5b/output <- inception_5b/3x3
I0403 19:19:37.293635  9091 net.cpp:425] inception_5b/output <- inception_5b/5x5
I0403 19:19:37.293655  9091 net.cpp:425] inception_5b/output <- inception_5b/pool_proj
I0403 19:19:37.293678  9091 net.cpp:399] inception_5b/output -> inception_5b/output
I0403 19:19:37.293745  9091 net.cpp:141] Setting up inception_5b/output
I0403 19:19:37.293776  9091 net.cpp:148] Top shape: 24 1024 7 7 (1204224)
I0403 19:19:37.293793  9091 net.cpp:156] Memory required for data: 1345864224
I0403 19:19:37.293812  9091 layer_factory.hpp:77] Creating layer pool5/7x7_s1
I0403 19:19:37.293835  9091 net.cpp:91] Creating Layer pool5/7x7_s1
I0403 19:19:37.293856  9091 net.cpp:425] pool5/7x7_s1 <- inception_5b/output
I0403 19:19:37.293879  9091 net.cpp:399] pool5/7x7_s1 -> pool5/7x7_s1
I0403 19:19:37.294147  9091 net.cpp:141] Setting up pool5/7x7_s1
I0403 19:19:37.294179  9091 net.cpp:148] Top shape: 24 1024 1 1 (24576)
I0403 19:19:37.294201  9091 net.cpp:156] Memory required for data: 1345962528
I0403 19:19:37.294219  9091 layer_factory.hpp:77] Creating layer pool5/drop_7x7_s1
I0403 19:19:37.294242  9091 net.cpp:91] Creating Layer pool5/drop_7x7_s1
I0403 19:19:37.294263  9091 net.cpp:425] pool5/drop_7x7_s1 <- pool5/7x7_s1
I0403 19:19:37.294289  9091 net.cpp:386] pool5/drop_7x7_s1 -> pool5/7x7_s1 (in-place)
I0403 19:19:37.294351  9091 net.cpp:141] Setting up pool5/drop_7x7_s1
I0403 19:19:37.294384  9091 net.cpp:148] Top shape: 24 1024 1 1 (24576)
I0403 19:19:37.294402  9091 net.cpp:156] Memory required for data: 1346060832
I0403 19:19:37.294421  9091 layer_factory.hpp:77] Creating layer loss3/classifier_plantvillage
I0403 19:19:37.294450  9091 net.cpp:91] Creating Layer loss3/classifier_plantvillage
I0403 19:19:37.294472  9091 net.cpp:425] loss3/classifier_plantvillage <- pool5/7x7_s1
I0403 19:19:37.294498  9091 net.cpp:399] loss3/classifier_plantvillage -> loss3/classifier_plantvillage
I0403 19:19:37.295024  9091 net.cpp:141] Setting up loss3/classifier_plantvillage
I0403 19:19:37.295055  9091 net.cpp:148] Top shape: 24 38 (912)
I0403 19:19:37.295073  9091 net.cpp:156] Memory required for data: 1346064480
I0403 19:19:37.295095  9091 layer_factory.hpp:77] Creating layer loss3/classifier_plantvillage_loss3/classifier_plantvillage_0_split
I0403 19:19:37.295122  9091 net.cpp:91] Creating Layer loss3/classifier_plantvillage_loss3/classifier_plantvillage_0_split
I0403 19:19:37.295145  9091 net.cpp:425] loss3/classifier_plantvillage_loss3/classifier_plantvillage_0_split <- loss3/classifier_plantvillage
I0403 19:19:37.295166  9091 net.cpp:399] loss3/classifier_plantvillage_loss3/classifier_plantvillage_0_split -> loss3/classifier_plantvillage_loss3/classifier_plantvillage_0_split_0
I0403 19:19:37.295191  9091 net.cpp:399] loss3/classifier_plantvillage_loss3/classifier_plantvillage_0_split -> loss3/classifier_plantvillage_loss3/classifier_plantvillage_0_split_1
I0403 19:19:37.295215  9091 net.cpp:399] loss3/classifier_plantvillage_loss3/classifier_plantvillage_0_split -> loss3/classifier_plantvillage_loss3/classifier_plantvillage_0_split_2
I0403 19:19:37.295243  9091 net.cpp:399] loss3/classifier_plantvillage_loss3/classifier_plantvillage_0_split -> loss3/classifier_plantvillage_loss3/classifier_plantvillage_0_split_3
I0403 19:19:37.295372  9091 net.cpp:141] Setting up loss3/classifier_plantvillage_loss3/classifier_plantvillage_0_split
I0403 19:19:37.295402  9091 net.cpp:148] Top shape: 24 38 (912)
I0403 19:19:37.295421  9091 net.cpp:148] Top shape: 24 38 (912)
I0403 19:19:37.295446  9091 net.cpp:148] Top shape: 24 38 (912)
I0403 19:19:37.295465  9091 net.cpp:148] Top shape: 24 38 (912)
I0403 19:19:37.295482  9091 net.cpp:156] Memory required for data: 1346079072
I0403 19:19:37.295501  9091 layer_factory.hpp:77] Creating layer loss1/loss
I0403 19:19:37.295528  9091 net.cpp:91] Creating Layer loss1/loss
I0403 19:19:37.295550  9091 net.cpp:425] loss1/loss <- loss1/classifier_plantvillage_loss1/classifier_plantvillage_0_split_0
I0403 19:19:37.295589  9091 net.cpp:425] loss1/loss <- label_data_1_split_0
…
