…
I0403 19:35:01.862195  9412 net.cpp:313] The NetState phase (1) differed from the phase (0) specified by a rule in layer data
I0403 19:35:01.863512  9412 net.cpp:49] Initializing net from parameters: 
state {
  phase: TEST
}
layer {
  name: "data"
  type: "Data"
  top: "data"
  top: "label"
  include {
    phase: TEST
  }
  transform_param {
    mirror: false
    crop_size: 224
    mean_file: "/home/mohanty/data/final_dataset/lmdb/color-60-40/mean.binaryproto"
  }
  data_param {
    source: "/home/mohanty/data/final_dataset/lmdb/color-60-40/test_db"
    batch_size: 24
    backend: LMDB
  }
}
layer {
  name: "conv1/7x7_s2"
  type: "Convolution"
  bottom: "data"
  top: "conv1/7x7_s2"
  param {
    lr_mult: 1
    decay_mult: 1
  }
  param {
    lr_mult: 2
    decay_mult: 0
  }
  convolution_param {
    num_output: 64
    pad: 3
    kernel_size: 7
    stride: 2
    weight_filler {
      type: "xavier"
      std: 0.1
    }
    bias_filler {
      type: "constant"
      value: 0.2
    }
  }
}
layer {
  name: "conv1/relu_7x7"
  type: "ReLU"
  bottom: "conv1/7x7_s2"
  top: "conv1/7x7_s2"
}
layer {
  name: "pool1/3x3_s2"
  type: "Pooling"
  bottom: "conv1/7x7_s2"
  top: "pool1/3x3_s2"
  pooling_param {
    pool: MAX
    kernel_size: 3
    stride: 2
  }
}
layer {
  name: "pool1/norm1"
  type: "LRN"
  bottom: "pool1/3x3_s2"
  top: "pool1/norm1"
  lrn_param {
    local_size: 5
    alpha: 0.0001
    beta: 0.75
  }
}
layer {
  name: "conv2/3x3_reduce"
  type: "Convolution"
  bottom: "pool1/norm1"
  top: "conv2/3x3_reduce"
  param {
    lr_mult: 1
    decay_mult: 1
  }
  param {
    lr_mult: 2
    decay_mult: 0
  }
  convolution_param {
    num_output: 64
    kernel_size: 1
    weight_filler {
      type: "xavier"
      std: 0.1
    }
    bias_filler {
      type: "constant"
      value: 0.2
    }
  }
}
layer {
  name: "conv2/relu_3x3_reduce"
  type: "ReLU"
  bottom: "conv2/3x3_reduce"
  top: "conv2/3x3_reduce"
}
layer {
  name: "conv2/3x3"
  type: "Convolution"
  bottom: "conv2/3x3_reduce"
  top: "conv2/3x3"
  param {
    lr_mult: 1
    decay_mult: 1
  }
  param {
    lr_mult: 2
    decay_mult: 0
  }
  convolution_param {
    num_output: 192
    pad: 1
    kernel_size: 3
    weight_filler {
      type: "xavier"
      std: 0.03
    }
    bias_filler {
      type: "constant"
      value: 0.2
    }
  }
}
layer {
  name: "conv2/relu_3x3"
  type: "ReLU"
  bottom: "conv2/3x3"
  top: "conv2/3x3"
}
layer {
  name: "conv2/norm2"
  type: "LRN"
  bottom: "conv2/3x3"
  top: "conv2/norm2"
  lrn_param {
    local_size: 5
    alpha: 0.0001
    beta: 0.75
  }
}
layer {
  name: "pool2/3x3_s2"
  type: "Pooling"
  bottom: "conv2/norm2"
  top: "pool2/3x3_s2"
  pooling_param {
    pool: MAX
    kernel_size: 3
    stride: 2
  }
}
layer {
  name: "inception_3a/1x1"
  type: "Convolution"
  bottom: "pool2/3x3_s2"
  top: "inception_3a/1x1"
  param {
    lr_mult: 1
    decay_mult: 1
  }
  param {
    lr_mult: 2
    decay_mult: 0
  }
  convolution_param {
    num_output: 64
    kernel_size: 1
    weight_filler {
      type: "xavier"
      std: 0.03
    }
    bias_filler {
      type: "constant"
      value: 0.2
    }
  }
}
layer {
  name: "inception_3a/relu_1x1"
  type: "ReLU"
  bottom: "inception_3a/1x1"
  top: "inception_3a/1x1"
}
layer {
  name: "inception_3a/3x3_reduce"
  type: "Convolution"
  bottom: "pool2/3x3_s2"
  top: "inception_3a/3x3_reduce"
  param {
    lr_mult: 1
    decay_mult: 1
  }
  param {
    lr_mult: 2
    decay_mult: 0
  }
  convolution_param {
    num_output: 96
    kernel_size: 1
    weight_filler {
      type: "xavier"
      std: 0.09
    }
    bias_filler {
      type: "constant"
      value: 0.2
    }
  }
}
layer {
  name: "inception_3a/relu_3x3_reduce"
  type: "ReLU"
  bottom: "inception_3a/3x3_reduce"
  top: "inception_3a/3x3_reduce"
}
layer {
  name: "inception_3a/3x3"
  type: "Convolution"
  bottom: "inception_3a/3x3_reduce"
  top: "inception_3a/3x3"
  param {
    lr_mult: 1
    decay_mult: 1
  }
  param {
    lr_mult: 2
    decay_mult: 0
  }
  convolution_param {
    num_output: 128
    pad: 1
    kernel_size: 3
    weight_filler {
      type: "xavier"
      std: 0.03
    }
    bias_filler {
      type: "constant"
      value: 0.2
    }
  }
}
layer {
  name: "inception_3a/relu_3x3"
  type: "ReLU"
  bottom: "inception_3a/3x3"
  top: "inception_3a/3x3"
}
layer {
  name: "inception_3a/5x5_reduce"
  type: "Convolution"
  bottom: "pool2/3x3_s2"
  top: "inception_3a/5x5_reduce"
  param {
    lr_mult: 1
    decay_mult: 1
  }
  param {
    lr_mult: 2
    decay_mult: 0
  }
  convolution_param {
    num_output: 16
    kernel_size: 1
    weight_filler {
      type: "xavier"
      std: 0.2
    }
    bias_filler {
      type: "constant"
      value: 0.2
    }
  }
}
layer {
  name: "inception_3a/relu_5x5_reduce"
  type: "ReLU"
  bottom: "inception_3a/5x5_reduce"
  top: "inception_3a/5x5_reduce"
}
layer {
  name: "inception_3a/5x5"
  type: "Convolution"
  bottom: "inception_3a/5x5_reduce"
  top: "inception_3a/5x5"
  param {
    lr_mult: 1
    decay_mult: 1
  }
  param {
    lr_mult: 2
    decay_mult: 0
  }
  convolution_param {
    num_output: 32
    pad: 2
    kernel_size: 5
    weight_filler {
      type: "xavier"
      std: 0.03
    }
    bias_filler {
      type: "constant"
      value: 0.2
    }
  }
}
layer {
  name: "inception_3a/relu_5x5"
  type: "ReLU"
  bottom: "inception_3a/5x5"
  top: "inception_3a/5x5"
}
layer {
  name: "inception_3a/pool"
  type: "Pooling"
  bottom: "pool2/3x3_s2"
  top: "inception_3a/pool"
  pooling_param {
    pool: MAX
    kernel_size: 3
    stride: 1
    pad: 1
  }
}
layer {
  name: "inception_3a/pool_proj"
  type: "Convolution"
  bottom: "inception_3a/pool"
  top: "inception_3a/pool_proj"
  param {
    lr_mult: 1
    decay_mult: 1
  }
  param {
    lr_mult: 2
    decay_mult: 0
  }
  convolution_param {
    num_output: 32
    kernel_size: 1
    weight_filler {
      type: "xavier"
      std: 0.1
    }
    bias_filler {
      type: "constant"
      value: 0.2
    }
  }
}
layer {
  name: "inception_3a/relu_pool_proj"
  type: "ReLU"
  bottom: "inception_3a/pool_proj"
  top: "inception_3a/pool_proj"
}
layer {
  name: "inception_3a/output"
  type: "Concat"
  bottom: "inception_3a/1x1"
  bottom: "inception_3a/3x3"
  bottom: "inception_3a/5x5"
  bottom: "inception_3a/pool_proj"
  top: "inception_3a/output"
}
layer {
  name: "inception_3b/1x1"
  type: "Convolution"
  bottom: "inception_3a/output"
  top: "inception_3b/1x1"
  param {
    lr_mult: 1
    decay_mult: 1
  }
  param {
    lr_mult: 2
    decay_mult: 0
  }
  convolution_param {
    num_output: 128
    kernel_size: 1
    weight_filler {
      type: "xavier"
      std: 0.03
    }
    bias_filler {
      type: "constant"
      value: 0.2
    }
  }
}
layer {
  name: "inception_3b/relu_1x1"
  type: "ReLU"
  bottom: "inception_3b/1x1"
  top: "inception_3b/1x1"
}
layer {
  name: "inception_3b/3x3_reduce"
  type: "Convolution"
  bottom: "inception_3a/output"
  top: "inception_3b/3x3_reduce"
  param {
    lr_mult: 1
    decay_mult: 1
  }
  param {
    lr_mult: 2
    decay_mult: 0
  }
  convolution_param {
    num_output: 128
    kernel_size: 1
    weight_filler {
      type: "xavier"
      std: 0.09
    }
    bias_filler {
      type: "constant"
      value: 0.2
    }
  }
}
layer {
  name: "inception_3b/relu_3x3_reduce"
  type: "ReLU"
  bottom: "inception_3b/3x3_reduce"
  top: "inception_3b/3x3_reduce"
}
layer {
  name: "inception_3b/3x3"
  type: "Convolution"
  bottom: "inception_3b/3x3_reduce"
  top: "inception_3b/3x3"
  param {
    lr_mult: 1
    decay_mult: 1
  }
  param {
    lr_mult: 2
    decay_mult: 0
  }
  convolution_param {
    num_output: 192
    pad: 1
    kernel_size: 3
    weight_filler {
      type: "xavier"
      std: 0.03
    }
    bias_filler {
      type: "constant"
      value: 0.2
    }
  }
}
layer {
  name: "inception_3b/relu_3x3"
  type: "ReLU"
  bottom: "inception_3b/3x3"
  top: "inception_3b/3x3"
}
layer {
  name: "inception_3b/5x5_reduce"
  type: "Convolution"
  bottom: "inception_3a/output"
  top: "inception_3b/5x5_reduce"
  param {
    lr_mult: 1
    decay_mult: 1
  }
  param {
    lr_mult: 2
    decay_mult: 0
  }
  convolution_param {
    num_output: 32
    kernel_size: 1
    weight_filler {
      type: "xavier"
      std: 0.2
    }
    bias_filler {
      type: "constant"
      value: 0.2
    }
  }
}
layer {
  name: "inception_3b/relu_5x5_reduce"
  type: "ReLU"
  bottom: "inception_3b/5x5_reduce"
  top: "inception_3b/5x5_reduce"
}
layer {
  name: "inception_3b/5x5"
  type: "Convolution"
  bottom: "inception_3b/5x5_reduce"
  top: "inception_3b/5x5"
  param {
    lr_mult: 1
    decay_mult: 1
  }
  param {
    lr_mult: 2
    decay_mult: 0
  }
  convolution_param {
    num_output: 96
    pad: 2
    kernel_size: 5
    weight_filler {
      type: "xavier"
      std: 0.03
    }
    bias_filler {
      type: "constant"
      value: 0.2
    }
  }
}
layer {
  name: "inception_3b/relu_5x5"
  type: "ReLU"
  bottom: "inception_3b/5x5"
  top: "inception_3b/5x5"
}
layer {
  name: "inception_3b/pool"
  type: "Pooling"
  bottom: "inception_3a/output"
  top: "inception_3b/pool"
  pooling_param {
    pool: MAX
    kernel_size: 3
    stride: 1
    pad: 1
  }
}
layer {
  name: "inception_3b/pool_proj"
  type: "Convolution"
  bottom: "inception_3b/pool"
  top: "inception_3b/pool_proj"
  param {
    lr_mult: 1
    decay_mult: 1
  }
  param {
    lr_mult: 2
    decay_mult: 0
  }
  convolution_param {
    num_output: 64
    kernel_size: 1
    weight_filler {
      type: "xavier"
      std: 0.1
    }
    bias_filler {
      type: "constant"
      value: 0.2
    }
  }
}
layer {
  name: "inception_3b/relu_pool_proj"
  type: "ReLU"
  bottom: "inception_3b/pool_proj"
  top: "inception_3b/pool_proj"
}
layer {
  name: "inception_3b/output"
  type: "Concat"
  bottom: "inception_3b/1x1"
  bottom: "inception_3b/3x3"
  bottom: "inception_3b/5x5"
  bottom: "inception_3b/pool_proj"
  top: "inception_3b/output"
}
layer {
  name: "pool3/3x3_s2"
  type: "Pooling"
  bottom: "inception_3b/output"
  top: "pool3/3x3_s2"
  pooling_param {
    pool: MAX
    kernel_size: 3
    stride: 2
  }
}
layer {
  name: "inception_4a/1x1"
  type: "Convolution"
  bottom: "pool3/3x3_s2"
  top: "inception_4a/1x1"
  param {
    lr_mult: 1
    decay_mult: 1
  }
  param {
    lr_mult: 2
    decay_mult: 0
  }
  convolution_param {
    num_output: 192
    kernel_size: 1
    weight_filler {
      type: "xavier"
      std: 0.03
    }
    bias_filler {
      type: "constant"
      value: 0.2
    }
  }
}
layer {
  name: "inception_4a/relu_1x1"
  type: "ReLU"
  bottom: "inception_4a/1x1"
  top: "inception_4a/1x1"
}
layer {
  name: "inception_4a/3x3_reduce"
  type: "Convolution"
  bottom: "pool3/3x3_s2"
  top: "inception_4a/3x3_reduce"
  param {
    lr_mult: 1
    decay_mult: 1
  }
  param {
    lr_mult: 2
    decay_mult: 0
  }
  convolution_param {
    num_output: 96
    kernel_size: 1
    weight_filler {
      type: "xavier"
      std: 0.09
    }
    bias_filler {
      type: "constant"
      value: 0.2
    }
  }
}
layer {
  name: "inception_4a/relu_3x3_reduce"
  type: "ReLU"
  bottom: "inception_4a/3x3_reduce"
  top: "inception_4a/3x3_reduce"
}
layer {
  name: "inception_4a/3x3"
  type: "Convolution"
  bottom: "inception_4a/3x3_reduce"
  top: "inception_4a/3x3"
  param {
    lr_mult: 1
    decay_mult: 1
  }
  param {
    lr_mult: 2
    decay_mult: 0
  }
  convolution_param {
    num_output: 208
    pad: 1
    kernel_size: 3
    weight_filler {
      type: "xavier"
      std: 0.03
    }
    bias_filler {
      type: "constant"
      value: 0.2
    }
  }
}
layer {
  name: "inception_4a/relu_3x3"
  type: "ReLU"
  bottom: "inception_4a/3x3"
  top: "inception_4a/3x3"
}
layer {
  name: "inception_4a/5x5_reduce"
  type: "Convolution"
  bottom: "pool3/3x3_s2"
  top: "inception_4a/5x5_reduce"
  param {
    lr_mult: 1
    decay_mult: 1
  }
  param {
    lr_mult: 2
    decay_mult: 0
  }
  convolution_param {
    num_output: 16
    kernel_size: 1
    weight_filler {
      type: "xavier"
      std: 0.2
    }
    bias_filler {
      type: "constant"
      value: 0.2
    }
  }
}
layer {
  name: "inception_4a/relu_5x5_reduce"
  type: "ReLU"
  bottom: "inception_4a/5x5_reduce"
  top: "inception_4a/5x5_reduce"
}
layer {
  name: "inception_4a/5x5"
  type: "Convolution"
  bottom: "inception_4a/5x5_reduce"
  top: "inception_4a/5x5"
  param {
    lr_mult: 1
    decay_mult: 1
  }
  param {
    lr_mult: 2
    decay_mult: 0
  }
  convolution_param {
    num_output: 48
    pad: 2
    kernel_size: 5
    weight_filler {
      type: "xavier"
      std: 0.03
    }
    bias_filler {
      type: "constant"
      value: 0.2
    }
  }
}
layer {
  name: "inception_4a/relu_5x5"
  type: "ReLU"
  bottom: "inception_4a/5x5"
  top: "inception_4a/5x5"
}
layer {
  name: "inception_4a/pool"
  type: "Pooling"
  bottom: "pool3/3x3_s2"
  top: "inception_4a/pool"
  pooling_param {
    pool: MAX
    kernel_size: 3
    stride: 1
    pad: 1
  }
}
layer {
  name: "inception_4a/pool_proj"
  type: "Convolution"
  bottom: "inception_4a/pool"
  top: "inception_4a/pool_proj"
  param {
    lr_mult: 1
    decay_mult: 1
  }
  param {
    lr_mult: 2
    decay_mult: 0
  }
  convolution_param {
    num_output: 64
    kernel_size: 1
    weight_filler {
      type: "xavier"
      std: 0.1
    }
    bias_filler {
      type: "constant"
      value: 0.2
    }
  }
}
layer {
  name: "inception_4a/relu_pool_proj"
  type: "ReLU"
  bottom: "inception_4a/pool_proj"
  top: "inception_4a/pool_proj"
}
layer {
  name: "inception_4a/output"
  type: "Concat"
  bottom: "inception_4a/1x1"
  bottom: "inception_4a/3x3"
  bottom: "inception_4a/5x5"
  bottom: "inception_4a/pool_proj"
  top: "inception_4a/output"
}
layer {
  name: "loss1/ave_pool"
  type: "Pooling"
  bottom: "inception_4a/output"
  top: "loss1/ave_pool"
  pooling_param {
    pool: AVE
    kernel_size: 5
    stride: 3
  }
}
layer {
  name: "loss1/conv"
  type: "Convolution"
  bottom: "loss1/ave_pool"
  top: "loss1/conv"
  param {
    lr_mult: 1
    decay_mult: 1
  }
  param {
    lr_mult: 2
    decay_mult: 0
  }
  convolution_param {
    num_output: 128
    kernel_size: 1
    weight_filler {
      type: "xavier"
      std: 0.08
    }
    bias_filler {
      type: "constant"
      value: 0.2
    }
  }
}
layer {
  name: "loss1/relu_conv"
  type: "ReLU"
  bottom: "loss1/conv"
  top: "loss1/conv"
}
layer {
  name: "loss1/fc"
  type: "InnerProduct"
  bottom: "loss1/conv"
  top: "loss1/fc"
  param {
    lr_mult: 1
    decay_mult: 1
  }
  param {
    lr_mult: 2
    decay_mult: 0
  }
  inner_product_param {
    num_output: 1024
    weight_filler {
      type: "xavier"
      std: 0.02
    }
    bias_filler {
      type: "constant"
      value: 0.2
    }
  }
}
layer {
  name: "loss1/relu_fc"
  type: "ReLU"
  bottom: "loss1/fc"
  top: "loss1/fc"
}
layer {
  name: "loss1/drop_fc"
  type: "Dropout"
  bottom: "loss1/fc"
  top: "loss1/fc"
  dropout_param {
    dropout_ratio: 0.7
  }
}
layer {
  name: "loss1/classifier_plantvillage"
  type: "InnerProduct"
  bottom: "loss1/fc"
  top: "loss1/classifier_plantvillage"
  param {
    lr_mult: 1
    decay_mult: 1
  }
  param {
    lr_mult: 2
    decay_mult: 0
  }
  inner_product_param {
    num_output: 38
    weight_filler {
      type: "xavier"
      std: 0.0009765625
    }
    bias_filler {
      type: "constant"
      value: 0
    }
  }
}
layer {
  name: "inception_4b/1x1"
  type: "Convolution"
  bottom: "inception_4a/output"
  top: "inception_4b/1x1"
  param {
    lr_mult: 1
    decay_mult: 1
  }
  param {
    lr_mult: 2
    decay_mult: 0
  }
  convolution_param {
    num_output: 160
    kernel_size: 1
    weight_filler {
      type: "xavier"
      std: 0.03
    }
    bias_filler {
      type: "constant"
      value: 0.2
    }
  }
}
layer {
  name: "inception_4b/relu_1x1"
  type: "ReLU"
  bottom: "inception_4b/1x1"
  top: "inception_4b/1x1"
}
layer {
  name: "inception_4b/3x3_reduce"
  type: "Convolution"
  bottom: "inception_4a/output"
  top: "inception_4b/3x3_reduce"
  param {
    lr_mult: 1
    decay_mult: 1
  }
  param {
    lr_mult: 2
    decay_mult: 0
  }
  convolution_param {
    num_output: 112
    kernel_size: 1
    weight_filler {
      type: "xavier"
      std: 0.09
    }
    bias_filler {
      type: "constant"
      value: 0.2
    }
  }
}
layer {
  name: "inception_4b/relu_3x3_reduce"
  type: "ReLU"
  bottom: "inception_4b/3x3_reduce"
  top: "inception_4b/3x3_reduce"
}
layer {
  name: "inception_4b/3x3"
  type: "Convolution"
  bottom: "inception_4b/3x3_reduce"
  top: "inception_4b/3x3"
  param {
    lr_mult: 1
    decay_mult: 1
  }
  param {
    lr_mult: 2
    decay_mult: 0
  }
  convolution_param {
    num_output: 224
    pad: 1
    kernel_size: 3
    weight_filler {
      type: "xavier"
      std: 0.03
    }
    bias_filler {
      type: "constant"
      value: 0.2
    }
  }
}
layer {
  name: "inception_4b/relu_3x3"
  type: "ReLU"
  bottom: "inception_4b/3x3"
  top: "inception_4b/3x3"
}
layer {
  name: "inception_4b/5x5_reduce"
  type: "Convolution"
  bottom: "inception_4a/output"
  top: "inception_4b/5x5_reduce"
  param {
    lr_mult: 1
    decay_mult: 1
  }
  param {
    lr_mult: 2
    decay_mult: 0
  }
  convolution_param {
    num_output: 24
    kernel_size: 1
    weight_filler {
      type: "xavier"
      std: 0.2
    }
    bias_filler {
      type: "constant"
      value: 0.2
    }
  }
}
layer {
  name: "inception_4b/relu_5x5_reduce"
  type: "ReLU"
  bottom: "inception_4b/5x5_reduce"
  top: "inception_4b/5x5_reduce"
}
layer {
  name: "inception_4b/5x5"
  type: "Convolution"
  bottom: "inception_4b/5x5_reduce"
  top: "inception_4b/5x5"
  param {
    lr_mult: 1
    decay_mult: 1
  }
  param {
    lr_mult: 2
    decay_mult: 0
  }
  convolution_param {
    num_output: 64
    pad: 2
    kernel_size: 5
    weight_filler {
      type: "xavier"
      std: 0.03
    }
    bias_filler {
      type: "constant"
      value: 0.2
    }
  }
}
layer {
  name: "inception_4b/relu_5x5"
  type: "ReLU"
  bottom: "inception_4b/5x5"
  top: "inception_4b/5x5"
}
layer {
  name: "inception_4b/pool"
  type: "Pooling"
  bottom: "inception_4a/output"
  top: "inception_4b/pool"
  pooling_param {
    pool: MAX
    kernel_size: 3
    stride: 1
    pad: 1
  }
}
layer {
  name: "inception_4b/pool_proj"
  type: "Convolution"
  bottom: "inception_4b/pool"
  top: "inception_4b/pool_proj"
  param {
    lr_mult: 1
    decay_mult: 1
  }
  param {
    lr_mult: 2
    decay_mult: 0
  }
  convolution_param {
    num_output: 64
    kernel_size: 1
    weight_filler {
      type: "xavier"
      std: 0.1
    }
    bias_filler {
      type: "constant"
      value: 0.2
    }
  }
}
layer {
  name: "inception_4b/relu_pool_proj"
  type: "ReLU"
  bottom: "inception_4b/pool_proj"
  top: "inception_4b/pool_proj"
}
layer {
  name: "inception_4b/output"
  type: "Concat"
  bottom: "inception_4b/1x1"
  bottom: "inception_4b/3x3"
  bottom: "inception_4b/5x5"
  bottom: "inception_4b/pool_proj"
  top: "inception_4b/output"
}
layer {
  name: "inception_4c/1x1"
  type: "Convolution"
  bottom: "inception_4b/output"
  top: "inception_4c/1x1"
  param {
    lr_mult: 1
    decay_mult: 1
  }
  param {
    lr_mult: 2
    decay_mult: 0
  }
  convolution_param {
    num_output: 128
    kernel_size: 1
    weight_filler {
      type: "xavier"
      std: 0.03
    }
    bias_filler {
      type: "constant"
      value: 0.2
    }
  }
}
layer {
  name: "inception_4c/relu_1x1"
  type: "ReLU"
  bottom: "inception_4c/1x1"
  top: "inception_4c/1x1"
}
layer {
  name: "inception_4c/3x3_reduce"
  type: "Convolution"
  bottom: "inception_4b/output"
  top: "inception_4c/3x3_reduce"
  param {
    lr_mult: 1
    decay_mult: 1
  }
  param {
    lr_mult: 2
    decay_mult: 0
  }
  convolution_param {
    num_output: 128
    kernel_size: 1
    weight_filler {
      type: "xavier"
      std: 0.09
    }
    bias_filler {
      type: "constant"
      value: 0.2
    }
  }
}
layer {
  name: "inception_4c/relu_3x3_reduce"
  type: "ReLU"
  bottom: "inception_4c/3x3_reduce"
  top: "inception_4c/3x3_reduce"
}
layer {
  name: "inception_4c/3x3"
  type: "Convolution"
  bottom: "inception_4c/3x3_reduce"
  top: "inception_4c/3x3"
  param {
    lr_mult: 1
    decay_mult: 1
  }
  param {
    lr_mult: 2
    decay_mult: 0
  }
  convolution_param {
    num_output: 256
    pad: 1
    kernel_size: 3
    weight_filler {
      type: "xavier"
      std: 0.03
    }
    bias_filler {
      type: "constant"
      value: 0.2
    }
  }
}
layer {
  name: "inception_4c/relu_3x3"
  type: "ReLU"
  bottom: "inception_4c/3x3"
  top: "inception_4c/3x3"
}
layer {
  name: "inception_4c/5x5_reduce"
  type: "Convolution"
  bottom: "inception_4b/output"
  top: "inception_4c/5x5_reduce"
  param {
    lr_mult: 1
    decay_mult: 1
  }
  param {
    lr_mult: 2
    decay_mult: 0
  }
  convolution_param {
    num_output: 24
    kernel_size: 1
    weight_filler {
      type: "xavier"
      std: 0.2
    }
    bias_filler {
      type: "constant"
      value: 0.2
    }
  }
}
layer {
  name: "inception_4c/relu_5x5_reduce"
  type: "ReLU"
  bottom: "inception_4c/5x5_reduce"
  top: "inception_4c/5x5_reduce"
}
layer {
  name: "inception_4c/5x5"
  type: "Convolution"
  bottom: "inception_4c/5x5_reduce"
  top: "inception_4c/5x5"
  param {
    lr_mult: 1
    decay_mult: 1
  }
  param {
    lr_mult: 2
    decay_mult: 0
  }
  convolution_param {
    num_output: 64
    pad: 2
    kernel_size: 5
    weight_filler {
      type: "xavier"
      std: 0.03
    }
    bias_filler {
      type: "constant"
      value: 0.2
    }
  }
}
layer {
  name: "inception_4c/relu_5x5"
  type: "ReLU"
  bottom: "inception_4c/5x5"
  top: "inception_4c/5x5"
}
layer {
  name: "inception_4c/pool"
  type: "Pooling"
  bottom: "inception_4b/output"
  top: "inception_4c/pool"
  pooling_param {
    pool: MAX
    kernel_size: 3
    stride: 1
    pad: 1
  }
}
layer {
  name: "inception_4c/pool_proj"
  type: "Convolution"
  bottom: "inception_4c/pool"
  top: "inception_4c/pool_proj"
  param {
    lr_mult: 1
    decay_mult: 1
  }
  param {
    lr_mult: 2
    decay_mult: 0
  }
  convolution_param {
    num_output: 64
    kernel_size: 1
    weight_filler {
      type: "xavier"
      std: 0.1
    }
    bias_filler {
      type: "constant"
      value: 0.2
    }
  }
}
layer {
  name: "inception_4c/relu_pool_proj"
  type: "ReLU"
  bottom: "inception_4c/pool_proj"
  top: "inception_4c/pool_proj"
}
layer {
  name: "inception_4c/output"
  type: "Concat"
  bottom: "inception_4c/1x1"
  bottom: "inception_4c/3x3"
  bottom: "inception_4c/5x5"
  bottom: "inception_4c/pool_proj"
  top: "inception_4c/output"
}
layer {
  name: "inception_4d/1x1"
  type: "Convolution"
  bottom: "inception_4c/output"
  top: "inception_4d/1x1"
  param {
    lr_mult: 1
    decay_mult: 1
  }
  param {
    lr_mult: 2
    decay_mult: 0
  }
  convolution_param {
    num_output: 112
    kernel_size: 1
    weight_filler {
      type: "xavier"
      std: 0.03
    }
    bias_filler {
      type: "constant"
      value: 0.2
    }
  }
}
layer {
  name: "inception_4d/relu_1x1"
  type: "ReLU"
  bottom: "inception_4d/1x1"
  top: "inception_4d/1x1"
}
layer {
  name: "inception_4d/3x3_reduce"
  type: "Convolution"
  bottom: "inception_4c/output"
  top: "inception_4d/3x3_reduce"
  param {
    lr_mult: 1
    decay_mult: 1
  }
  param {
    lr_mult: 2
    decay_mult: 0
  }
  convolution_param {
    num_output: 144
    kernel_size: 1
    weight_filler {
      type: "xavier"
      std: 0.09
    }
    bias_filler {
      type: "constant"
      value: 0.2
    }
  }
}
layer {
  name: "inception_4d/relu_3x3_reduce"
  type: "ReLU"
  bottom: "inception_4d/3x3_reduce"
  top: "inception_4d/3x3_reduce"
}
layer {
  name: "inception_4d/3x3"
  type: "Convolution"
  bottom: "inception_4d/3x3_reduce"
  top: "inception_4d/3x3"
  param {
    lr_mult: 1
    decay_mult: 1
  }
  param {
    lr_mult: 2
    decay_mult: 0
  }
  convolution_param {
    num_output: 288
    pad: 1
    kernel_size: 3
    weight_filler {
      type: "xavier"
      std: 0.03
    }
    bias_filler {
      type: "constant"
      value: 0.2
    }
  }
}
layer {
  name: "inception_4d/relu_3x3"
  type: "ReLU"
  bottom: "inception_4d/3x3"
  top: "inception_4d/3x3"
}
layer {
  name: "inception_4d/5x5_reduce"
  type: "Convolution"
  bottom: "inception_4c/output"
  top: "inception_4d/5x5_reduce"
  param {
    lr_mult: 1
    decay_mult: 1
  }
  param {
    lr_mult: 2
    decay_mult: 0
  }
  convolution_param {
    num_output: 32
    kernel_size: 1
    weight_filler {
      type: "xavier"
      std: 0.2
    }
    bias_filler {
      type: "constant"
      value: 0.2
    }
  }
}
layer {
  name: "inception_4d/relu_5x5_reduce"
  type: "ReLU"
  bottom: "inception_4d/5x5_reduce"
  top: "inception_4d/5x5_reduce"
}
layer {
  name: "inception_4d/5x5"
  type: "Convolution"
  bottom: "inception_4d/5x5_reduce"
  top: "inception_4d/5x5"
  param {
    lr_mult: 1
    decay_mult: 1
  }
  param {
    lr_mult: 2
    decay_mult: 0
  }
  convolution_param {
    num_output: 64
    pad: 2
    kernel_size: 5
    weight_filler {
      type: "xavier"
      std: 0.03
    }
    bias_filler {
      type: "constant"
      value: 0.2
    }
  }
}
layer {
  name: "inception_4d/relu_5x5"
  type: "ReLU"
  bottom: "inception_4d/5x5"
  top: "inception_4d/5x5"
}
layer {
  name: "inception_4d/pool"
  type: "Pooling"
  bottom: "inception_4c/output"
  top: "inception_4d/pool"
  pooling_param {
    pool: MAX
    kernel_size: 3
    stride: 1
    pad: 1
  }
}
layer {
  name: "inception_4d/pool_proj"
  type: "Convolution"
  bottom: "inception_4d/pool"
  top: "inception_4d/pool_proj"
  param {
    lr_mult: 1
    decay_mult: 1
  }
  param {
    lr_mult: 2
    decay_mult: 0
  }
  convolution_param {
    num_output: 64
    kernel_size: 1
    weight_filler {
      type: "xavier"
      std: 0.1
    }
    bias_filler {
      type: "constant"
      value: 0.2
    }
  }
}
layer {
  name: "inception_4d/relu_pool_proj"
  type: "ReLU"
  bottom: "inception_4d/pool_proj"
  top: "inception_4d/pool_proj"
}
layer {
  name: "inception_4d/output"
  type: "Concat"
  bottom: "inception_4d/1x1"
  bottom: "inception_4d/3x3"
  bottom: "inception_4d/5x5"
  bottom: "inception_4d/pool_proj"
  top: "inception_4d/output"
}
layer {
  name: "loss2/ave_pool"
  type: "Pooling"
  bottom: "inception_4d/output"
  top: "loss2/ave_pool"
  pooling_param {
    pool: AVE
    kernel_size: 5
    stride: 3
  }
}
layer {
  name: "loss2/conv"
  type: "Convolution"
  bottom: "loss2/ave_pool"
  top: "loss2/conv"
  param {
    lr_mult: 1
    decay_mult: 1
  }
  param {
    lr_mult: 2
    decay_mult: 0
  }
  convolution_param {
    num_output: 128
    kernel_size: 1
    weight_filler {
      type: "xavier"
      std: 0.08
    }
    bias_filler {
      type: "constant"
      value: 0.2
    }
  }
}
layer {
  name: "loss2/relu_conv"
  type: "ReLU"
  bottom: "loss2/conv"
  top: "loss2/conv"
}
layer {
  name: "loss2/fc"
  type: "InnerProduct"
  bottom: "loss2/conv"
  top: "loss2/fc"
  param {
    lr_mult: 1
    decay_mult: 1
  }
  param {
    lr_mult: 2
    decay_mult: 0
  }
  inner_product_param {
    num_output: 1024
    weight_filler {
      type: "xavier"
      std: 0.02
    }
    bias_filler {
      type: "constant"
      value: 0.2
    }
  }
}
layer {
  name: "loss2/relu_fc"
  type: "ReLU"
  bottom: "loss2/fc"
  top: "loss2/fc"
}
layer {
  name: "loss2/drop_fc"
  type: "Dropout"
  bottom: "loss2/fc"
  top: "loss2/fc"
  dropout_param {
    dropout_ratio: 0.7
  }
}
layer {
  name: "loss2/classifier_plantvillage"
  type: "InnerProduct"
  bottom: "loss2/fc"
  top: "loss2/classifier_plantvillage"
  param {
    lr_mult: 1
    decay_mult: 1
  }
  param {
    lr_mult: 2
    decay_mult: 0
  }
  inner_product_param {
    num_output: 38
    weight_filler {
      type: "xavier"
      std: 0.0009765625
    }
    bias_filler {
      type: "constant"
      value: 0
    }
  }
}
layer {
  name: "inception_4e/1x1"
  type: "Convolution"
  bottom: "inception_4d/output"
  top: "inception_4e/1x1"
  param {
    lr_mult: 1
    decay_mult: 1
  }
  param {
    lr_mult: 2
    decay_mult: 0
  }
  convolution_param {
    num_output: 256
    kernel_size: 1
    weight_filler {
      type: "xavier"
      std: 0.03
    }
    bias_filler {
      type: "constant"
      value: 0.2
    }
  }
}
layer {
  name: "inception_4e/relu_1x1"
  type: "ReLU"
  bottom: "inception_4e/1x1"
  top: "inception_4e/1x1"
}
layer {
  name: "inception_4e/3x3_reduce"
  type: "Convolution"
  bottom: "inception_4d/output"
  top: "inception_4e/3x3_reduce"
  param {
    lr_mult: 1
    decay_mult: 1
  }
  param {
    lr_mult: 2
    decay_mult: 0
  }
  convolution_param {
    num_output: 160
    kernel_size: 1
    weight_filler {
      type: "xavier"
      std: 0.09
    }
    bias_filler {
      type: "constant"
      value: 0.2
    }
  }
}
layer {
  name: "inception_4e/relu_3x3_reduce"
  type: "ReLU"
  bottom: "inception_4e/3x3_reduce"
  top: "inception_4e/3x3_reduce"
}
layer {
  name: "inception_4e/3x3"
  type: "Convolution"
  bottom: "inception_4e/3x3_reduce"
  top: "inception_4e/3x3"
  param {
    lr_mult: 1
    decay_mult: 1
  }
  param {
    lr_mult: 2
    decay_mult: 0
  }
  convolution_param {
    num_output: 320
    pad: 1
    kernel_size: 3
    weight_filler {
      type: "xavier"
      std: 0.03
    }
    bias_filler {
      type: "constant"
      value: 0.2
    }
  }
}
layer {
  name: "inception_4e/relu_3x3"
  type: "ReLU"
  bottom: "inception_4e/3x3"
  top: "inception_4e/3x3"
}
layer {
  name: "inception_4e/5x5_reduce"
  type: "Convolution"
  bottom: "inception_4d/output"
  top: "inception_4e/5x5_reduce"
  param {
    lr_mult: 1
    decay_mult: 1
  }
  param {
    lr_mult: 2
    decay_mult: 0
  }
  convolution_param {
    num_output: 32
    kernel_size: 1
    weight_filler {
      type: "xavier"
      std: 0.2
    }
    bias_filler {
      type: "constant"
      value: 0.2
    }
  }
}
layer {
  name: "inception_4e/relu_5x5_reduce"
  type: "ReLU"
  bottom: "inception_4e/5x5_reduce"
  top: "inception_4e/5x5_reduce"
}
layer {
  name: "inception_4e/5x5"
  type: "Convolution"
  bottom: "inception_4e/5x5_reduce"
  top: "inception_4e/5x5"
  p
I0403 19:35:01.865159  9412 layer_factory.hpp:77] Creating layer data
I0403 19:35:01.865738  9412 net.cpp:91] Creating Layer data
I0403 19:35:01.865769  9412 net.cpp:399] data -> data
I0403 19:35:01.865824  9412 net.cpp:399] data -> label
I0403 19:35:01.865862  9412 data_transformer.cpp:25] Loading mean file from: /home/mohanty/data/final_dataset/lmdb/color-60-40/mean.binaryproto
I0403 19:35:01.867041  9416 db_lmdb.cpp:38] Opened lmdb /home/mohanty/data/final_dataset/lmdb/color-60-40/test_db
I0403 19:35:01.878799  9412 data_layer.cpp:41] output data size: 24,3,224,224
I0403 19:35:01.904817  9412 net.cpp:141] Setting up data
I0403 19:35:01.904896  9412 net.cpp:148] Top shape: 24 3 224 224 (3612672)
I0403 19:35:01.904918  9412 net.cpp:148] Top shape: 24 (24)
I0403 19:35:01.904933  9412 net.cpp:156] Memory required for data: 14450784
I0403 19:35:01.904963  9412 layer_factory.hpp:77] Creating layer label_data_1_split
I0403 19:35:01.904991  9412 net.cpp:91] Creating Layer label_data_1_split
I0403 19:35:01.905009  9412 net.cpp:425] label_data_1_split <- label
I0403 19:35:01.905042  9412 net.cpp:399] label_data_1_split -> label_data_1_split_0
I0403 19:35:01.905069  9412 net.cpp:399] label_data_1_split -> label_data_1_split_1
I0403 19:35:01.905089  9412 net.cpp:399] label_data_1_split -> label_data_1_split_2
I0403 19:35:01.905110  9412 net.cpp:399] label_data_1_split -> label_data_1_split_3
I0403 19:35:01.905129  9412 net.cpp:399] label_data_1_split -> label_data_1_split_4
I0403 19:35:01.905149  9412 net.cpp:399] label_data_1_split -> label_data_1_split_5
I0403 19:35:01.905166  9412 net.cpp:399] label_data_1_split -> label_data_1_split_6
I0403 19:35:01.905187  9412 net.cpp:399] label_data_1_split -> label_data_1_split_7
I0403 19:35:01.905205  9412 net.cpp:399] label_data_1_split -> label_data_1_split_8
I0403 19:35:01.905225  9412 net.cpp:399] label_data_1_split -> label_data_1_split_9
I0403 19:35:01.905338  9412 net.cpp:141] Setting up label_data_1_split
I0403 19:35:01.905361  9412 net.cpp:148] Top shape: 24 (24)
I0403 19:35:01.905378  9412 net.cpp:148] Top shape: 24 (24)
I0403 19:35:01.905393  9412 net.cpp:148] Top shape: 24 (24)
I0403 19:35:01.905407  9412 net.cpp:148] Top shape: 24 (24)
I0403 19:35:01.905423  9412 net.cpp:148] Top shape: 24 (24)
I0403 19:35:01.905443  9412 net.cpp:148] Top shape: 24 (24)
I0403 19:35:01.905462  9412 net.cpp:148] Top shape: 24 (24)
I0403 19:35:01.905477  9412 net.cpp:148] Top shape: 24 (24)
I0403 19:35:01.905493  9412 net.cpp:148] Top shape: 24 (24)
I0403 19:35:01.905508  9412 net.cpp:148] Top shape: 24 (24)
I0403 19:35:01.905560  9412 net.cpp:156] Memory required for data: 14451744
I0403 19:35:01.905575  9412 layer_factory.hpp:77] Creating layer conv1/7x7_s2
I0403 19:35:01.905609  9412 net.cpp:91] Creating Layer conv1/7x7_s2
I0403 19:35:01.905627  9412 net.cpp:425] conv1/7x7_s2 <- data
I0403 19:35:01.905645  9412 net.cpp:399] conv1/7x7_s2 -> conv1/7x7_s2
I0403 19:35:02.043794  9412 net.cpp:141] Setting up conv1/7x7_s2
I0403 19:35:02.043866  9412 net.cpp:148] Top shape: 24 64 112 112 (19267584)
I0403 19:35:02.043882  9412 net.cpp:156] Memory required for data: 91522080
I0403 19:35:02.043917  9412 layer_factory.hpp:77] Creating layer conv1/relu_7x7
I0403 19:35:02.043946  9412 net.cpp:91] Creating Layer conv1/relu_7x7
I0403 19:35:02.043964  9412 net.cpp:425] conv1/relu_7x7 <- conv1/7x7_s2
I0403 19:35:02.043984  9412 net.cpp:386] conv1/relu_7x7 -> conv1/7x7_s2 (in-place)
I0403 19:35:02.044230  9412 net.cpp:141] Setting up conv1/relu_7x7
I0403 19:35:02.044257  9412 net.cpp:148] Top shape: 24 64 112 112 (19267584)
I0403 19:35:02.044272  9412 net.cpp:156] Memory required for data: 168592416
I0403 19:35:02.044288  9412 layer_factory.hpp:77] Creating layer pool1/3x3_s2
I0403 19:35:02.044314  9412 net.cpp:91] Creating Layer pool1/3x3_s2
I0403 19:35:02.044330  9412 net.cpp:425] pool1/3x3_s2 <- conv1/7x7_s2
I0403 19:35:02.044348  9412 net.cpp:399] pool1/3x3_s2 -> pool1/3x3_s2
I0403 19:35:02.044421  9412 net.cpp:141] Setting up pool1/3x3_s2
I0403 19:35:02.044450  9412 net.cpp:148] Top shape: 24 64 56 56 (4816896)
I0403 19:35:02.044467  9412 net.cpp:156] Memory required for data: 187860000
I0403 19:35:02.044482  9412 layer_factory.hpp:77] Creating layer pool1/norm1
I0403 19:35:02.044508  9412 net.cpp:91] Creating Layer pool1/norm1
I0403 19:35:02.044525  9412 net.cpp:425] pool1/norm1 <- pool1/3x3_s2
I0403 19:35:02.044543  9412 net.cpp:399] pool1/norm1 -> pool1/norm1
I0403 19:35:02.044814  9412 net.cpp:141] Setting up pool1/norm1
I0403 19:35:02.044842  9412 net.cpp:148] Top shape: 24 64 56 56 (4816896)
I0403 19:35:02.044857  9412 net.cpp:156] Memory required for data: 207127584
I0403 19:35:02.044872  9412 layer_factory.hpp:77] Creating layer conv2/3x3_reduce
I0403 19:35:02.044898  9412 net.cpp:91] Creating Layer conv2/3x3_reduce
I0403 19:35:02.044914  9412 net.cpp:425] conv2/3x3_reduce <- pool1/norm1
I0403 19:35:02.044932  9412 net.cpp:399] conv2/3x3_reduce -> conv2/3x3_reduce
I0403 19:35:02.046329  9412 net.cpp:141] Setting up conv2/3x3_reduce
I0403 19:35:02.046360  9412 net.cpp:148] Top shape: 24 64 56 56 (4816896)
I0403 19:35:02.046377  9412 net.cpp:156] Memory required for data: 226395168
I0403 19:35:02.046398  9412 layer_factory.hpp:77] Creating layer conv2/relu_3x3_reduce
I0403 19:35:02.046425  9412 net.cpp:91] Creating Layer conv2/relu_3x3_reduce
I0403 19:35:02.046447  9412 net.cpp:425] conv2/relu_3x3_reduce <- conv2/3x3_reduce
I0403 19:35:02.046464  9412 net.cpp:386] conv2/relu_3x3_reduce -> conv2/3x3_reduce (in-place)
I0403 19:35:02.046728  9412 net.cpp:141] Setting up conv2/relu_3x3_reduce
I0403 19:35:02.046756  9412 net.cpp:148] Top shape: 24 64 56 56 (4816896)
I0403 19:35:02.046772  9412 net.cpp:156] Memory required for data: 245662752
I0403 19:35:02.046788  9412 layer_factory.hpp:77] Creating layer conv2/3x3
I0403 19:35:02.046811  9412 net.cpp:91] Creating Layer conv2/3x3
I0403 19:35:02.046828  9412 net.cpp:425] conv2/3x3 <- conv2/3x3_reduce
I0403 19:35:02.046849  9412 net.cpp:399] conv2/3x3 -> conv2/3x3
I0403 19:35:02.049017  9412 net.cpp:141] Setting up conv2/3x3
I0403 19:35:02.049051  9412 net.cpp:148] Top shape: 24 192 56 56 (14450688)
I0403 19:35:02.049067  9412 net.cpp:156] Memory required for data: 303465504
I0403 19:35:02.049089  9412 layer_factory.hpp:77] Creating layer conv2/relu_3x3
I0403 19:35:02.049118  9412 net.cpp:91] Creating Layer conv2/relu_3x3
I0403 19:35:02.049146  9412 net.cpp:425] conv2/relu_3x3 <- conv2/3x3
I0403 19:35:02.049165  9412 net.cpp:386] conv2/relu_3x3 -> conv2/3x3 (in-place)
I0403 19:35:02.049325  9412 net.cpp:141] Setting up conv2/relu_3x3
I0403 19:35:02.049351  9412 net.cpp:148] Top shape: 24 192 56 56 (14450688)
I0403 19:35:02.049402  9412 net.cpp:156] Memory required for data: 361268256
I0403 19:35:02.049417  9412 layer_factory.hpp:77] Creating layer conv2/norm2
I0403 19:35:02.049443  9412 net.cpp:91] Creating Layer conv2/norm2
I0403 19:35:02.049461  9412 net.cpp:425] conv2/norm2 <- conv2/3x3
I0403 19:35:02.049479  9412 net.cpp:399] conv2/norm2 -> conv2/norm2
I0403 19:35:02.049765  9412 net.cpp:141] Setting up conv2/norm2
I0403 19:35:02.049795  9412 net.cpp:148] Top shape: 24 192 56 56 (14450688)
I0403 19:35:02.049810  9412 net.cpp:156] Memory required for data: 419071008
I0403 19:35:02.049825  9412 layer_factory.hpp:77] Creating layer pool2/3x3_s2
I0403 19:35:02.049844  9412 net.cpp:91] Creating Layer pool2/3x3_s2
I0403 19:35:02.049857  9412 net.cpp:425] pool2/3x3_s2 <- conv2/norm2
I0403 19:35:02.049875  9412 net.cpp:399] pool2/3x3_s2 -> pool2/3x3_s2
I0403 19:35:02.049926  9412 net.cpp:141] Setting up pool2/3x3_s2
I0403 19:35:02.049949  9412 net.cpp:148] Top shape: 24 192 28 28 (3612672)
I0403 19:35:02.049963  9412 net.cpp:156] Memory required for data: 433521696
I0403 19:35:02.049978  9412 layer_factory.hpp:77] Creating layer pool2/3x3_s2_pool2/3x3_s2_0_split
I0403 19:35:02.049994  9412 net.cpp:91] Creating Layer pool2/3x3_s2_pool2/3x3_s2_0_split
I0403 19:35:02.050009  9412 net.cpp:425] pool2/3x3_s2_pool2/3x3_s2_0_split <- pool2/3x3_s2
I0403 19:35:02.050027  9412 net.cpp:399] pool2/3x3_s2_pool2/3x3_s2_0_split -> pool2/3x3_s2_pool2/3x3_s2_0_split_0
I0403 19:35:02.050046  9412 net.cpp:399] pool2/3x3_s2_pool2/3x3_s2_0_split -> pool2/3x3_s2_pool2/3x3_s2_0_split_1
I0403 19:35:02.050070  9412 net.cpp:399] pool2/3x3_s2_pool2/3x3_s2_0_split -> pool2/3x3_s2_pool2/3x3_s2_0_split_2
I0403 19:35:02.050088  9412 net.cpp:399] pool2/3x3_s2_pool2/3x3_s2_0_split -> pool2/3x3_s2_pool2/3x3_s2_0_split_3
I0403 19:35:02.050159  9412 net.cpp:141] Setting up pool2/3x3_s2_pool2/3x3_s2_0_split
I0403 19:35:02.050181  9412 net.cpp:148] Top shape: 24 192 28 28 (3612672)
I0403 19:35:02.050197  9412 net.cpp:148] Top shape: 24 192 28 28 (3612672)
I0403 19:35:02.050211  9412 net.cpp:148] Top shape: 24 192 28 28 (3612672)
I0403 19:35:02.050226  9412 net.cpp:148] Top shape: 24 192 28 28 (3612672)
I0403 19:35:02.050240  9412 net.cpp:156] Memory required for data: 491324448
I0403 19:35:02.050253  9412 layer_factory.hpp:77] Creating layer inception_3a/1x1
I0403 19:35:02.050276  9412 net.cpp:91] Creating Layer inception_3a/1x1
I0403 19:35:02.050292  9412 net.cpp:425] inception_3a/1x1 <- pool2/3x3_s2_pool2/3x3_s2_0_split_0
I0403 19:35:02.050312  9412 net.cpp:399] inception_3a/1x1 -> inception_3a/1x1
I0403 19:35:02.051756  9412 net.cpp:141] Setting up inception_3a/1x1
I0403 19:35:02.051787  9412 net.cpp:148] Top shape: 24 64 28 28 (1204224)
I0403 19:35:02.051803  9412 net.cpp:156] Memory required for data: 496141344
I0403 19:35:02.051822  9412 layer_factory.hpp:77] Creating layer inception_3a/relu_1x1
I0403 19:35:02.051841  9412 net.cpp:91] Creating Layer inception_3a/relu_1x1
I0403 19:35:02.051856  9412 net.cpp:425] inception_3a/relu_1x1 <- inception_3a/1x1
I0403 19:35:02.051874  9412 net.cpp:386] inception_3a/relu_1x1 -> inception_3a/1x1 (in-place)
I0403 19:35:02.052038  9412 net.cpp:141] Setting up inception_3a/relu_1x1
I0403 19:35:02.052063  9412 net.cpp:148] Top shape: 24 64 28 28 (1204224)
I0403 19:35:02.052078  9412 net.cpp:156] Memory required for data: 500958240
I0403 19:35:02.052091  9412 layer_factory.hpp:77] Creating layer inception_3a/3x3_reduce
I0403 19:35:02.052114  9412 net.cpp:91] Creating Layer inception_3a/3x3_reduce
I0403 19:35:02.052129  9412 net.cpp:425] inception_3a/3x3_reduce <- pool2/3x3_s2_pool2/3x3_s2_0_split_1
I0403 19:35:02.052150  9412 net.cpp:399] inception_3a/3x3_reduce -> inception_3a/3x3_reduce
I0403 19:35:02.053762  9412 net.cpp:141] Setting up inception_3a/3x3_reduce
I0403 19:35:02.053793  9412 net.cpp:148] Top shape: 24 96 28 28 (1806336)
I0403 19:35:02.053810  9412 net.cpp:156] Memory required for data: 508183584
I0403 19:35:02.053830  9412 layer_factory.hpp:77] Creating layer inception_3a/relu_3x3_reduce
I0403 19:35:02.053864  9412 net.cpp:91] Creating Layer inception_3a/relu_3x3_reduce
I0403 19:35:02.053880  9412 net.cpp:425] inception_3a/relu_3x3_reduce <- inception_3a/3x3_reduce
I0403 19:35:02.053901  9412 net.cpp:386] inception_3a/relu_3x3_reduce -> inception_3a/3x3_reduce (in-place)
I0403 19:35:02.054069  9412 net.cpp:141] Setting up inception_3a/relu_3x3_reduce
I0403 19:35:02.054095  9412 net.cpp:148] Top shape: 24 96 28 28 (1806336)
I0403 19:35:02.054111  9412 net.cpp:156] Memory required for data: 515408928
I0403 19:35:02.054124  9412 layer_factory.hpp:77] Creating layer inception_3a/3x3
I0403 19:35:02.054148  9412 net.cpp:91] Creating Layer inception_3a/3x3
I0403 19:35:02.054165  9412 net.cpp:425] inception_3a/3x3 <- inception_3a/3x3_reduce
I0403 19:35:02.054186  9412 net.cpp:399] inception_3a/3x3 -> inception_3a/3x3
I0403 19:35:02.055733  9412 net.cpp:141] Setting up inception_3a/3x3
I0403 19:35:02.055763  9412 net.cpp:148] Top shape: 24 128 28 28 (2408448)
I0403 19:35:02.055780  9412 net.cpp:156] Memory required for data: 525042720
I0403 19:35:02.055799  9412 layer_factory.hpp:77] Creating layer inception_3a/relu_3x3
I0403 19:35:02.055815  9412 net.cpp:91] Creating Layer inception_3a/relu_3x3
I0403 19:35:02.055830  9412 net.cpp:425] inception_3a/relu_3x3 <- inception_3a/3x3
I0403 19:35:02.055850  9412 net.cpp:386] inception_3a/relu_3x3 -> inception_3a/3x3 (in-place)
I0403 19:35:02.056107  9412 net.cpp:141] Setting up inception_3a/relu_3x3
I0403 19:35:02.056133  9412 net.cpp:148] Top shape: 24 128 28 28 (2408448)
I0403 19:35:02.056149  9412 net.cpp:156] Memory required for data: 534676512
I0403 19:35:02.056164  9412 layer_factory.hpp:77] Creating layer inception_3a/5x5_reduce
I0403 19:35:02.056185  9412 net.cpp:91] Creating Layer inception_3a/5x5_reduce
I0403 19:35:02.056202  9412 net.cpp:425] inception_3a/5x5_reduce <- pool2/3x3_s2_pool2/3x3_s2_0_split_2
I0403 19:35:02.056222  9412 net.cpp:399] inception_3a/5x5_reduce -> inception_3a/5x5_reduce
I0403 19:35:02.057129  9412 net.cpp:141] Setting up inception_3a/5x5_reduce
I0403 19:35:02.057157  9412 net.cpp:148] Top shape: 24 16 28 28 (301056)
I0403 19:35:02.057173  9412 net.cpp:156] Memory required for data: 535880736
I0403 19:35:02.057191  9412 layer_factory.hpp:77] Creating layer inception_3a/relu_5x5_reduce
I0403 19:35:02.057210  9412 net.cpp:91] Creating Layer inception_3a/relu_5x5_reduce
I0403 19:35:02.057225  9412 net.cpp:425] inception_3a/relu_5x5_reduce <- inception_3a/5x5_reduce
I0403 19:35:02.057242  9412 net.cpp:386] inception_3a/relu_5x5_reduce -> inception_3a/5x5_reduce (in-place)
I0403 19:35:02.057518  9412 net.cpp:141] Setting up inception_3a/relu_5x5_reduce
I0403 19:35:02.057543  9412 net.cpp:148] Top shape: 24 16 28 28 (301056)
I0403 19:35:02.057557  9412 net.cpp:156] Memory required for data: 537084960
I0403 19:35:02.057572  9412 layer_factory.hpp:77] Creating layer inception_3a/5x5
I0403 19:35:02.057595  9412 net.cpp:91] Creating Layer inception_3a/5x5
I0403 19:35:02.057610  9412 net.cpp:425] inception_3a/5x5 <- inception_3a/5x5_reduce
I0403 19:35:02.057634  9412 net.cpp:399] inception_3a/5x5 -> inception_3a/5x5
I0403 19:35:02.058583  9412 net.cpp:141] Setting up inception_3a/5x5
I0403 19:35:02.058611  9412 net.cpp:148] Top shape: 24 32 28 28 (602112)
I0403 19:35:02.058627  9412 net.cpp:156] Memory required for data: 539493408
I0403 19:35:02.058645  9412 layer_factory.hpp:77] Creating layer inception_3a/relu_5x5
I0403 19:35:02.058662  9412 net.cpp:91] Creating Layer inception_3a/relu_5x5
I0403 19:35:02.058677  9412 net.cpp:425] inception_3a/relu_5x5 <- inception_3a/5x5
I0403 19:35:02.058696  9412 net.cpp:386] inception_3a/relu_5x5 -> inception_3a/5x5 (in-place)
I0403 19:35:02.058858  9412 net.cpp:141] Setting up inception_3a/relu_5x5
I0403 19:35:02.058882  9412 net.cpp:148] Top shape: 24 32 28 28 (602112)
I0403 19:35:02.058897  9412 net.cpp:156] Memory required for data: 541901856
I0403 19:35:02.058912  9412 layer_factory.hpp:77] Creating layer inception_3a/pool
I0403 19:35:02.058930  9412 net.cpp:91] Creating Layer inception_3a/pool
I0403 19:35:02.058945  9412 net.cpp:425] inception_3a/pool <- pool2/3x3_s2_pool2/3x3_s2_0_split_3
I0403 19:35:02.058979  9412 net.cpp:399] inception_3a/pool -> inception_3a/pool
I0403 19:35:02.059032  9412 net.cpp:141] Setting up inception_3a/pool
I0403 19:35:02.059056  9412 net.cpp:148] Top shape: 24 192 28 28 (3612672)
I0403 19:35:02.059069  9412 net.cpp:156] Memory required for data: 556352544
I0403 19:35:02.059084  9412 layer_factory.hpp:77] Creating layer inception_3a/pool_proj
I0403 19:35:02.059106  9412 net.cpp:91] Creating Layer inception_3a/pool_proj
I0403 19:35:02.059123  9412 net.cpp:425] inception_3a/pool_proj <- inception_3a/pool
I0403 19:35:02.059141  9412 net.cpp:399] inception_3a/pool_proj -> inception_3a/pool_proj
I0403 19:35:02.060106  9412 net.cpp:141] Setting up inception_3a/pool_proj
I0403 19:35:02.060134  9412 net.cpp:148] Top shape: 24 32 28 28 (602112)
I0403 19:35:02.060150  9412 net.cpp:156] Memory required for data: 558760992
I0403 19:35:02.060174  9412 layer_factory.hpp:77] Creating layer inception_3a/relu_pool_proj
I0403 19:35:02.060196  9412 net.cpp:91] Creating Layer inception_3a/relu_pool_proj
I0403 19:35:02.060219  9412 net.cpp:425] inception_3a/relu_pool_proj <- inception_3a/pool_proj
I0403 19:35:02.060236  9412 net.cpp:386] inception_3a/relu_pool_proj -> inception_3a/pool_proj (in-place)
I0403 19:35:02.060508  9412 net.cpp:141] Setting up inception_3a/relu_pool_proj
I0403 19:35:02.060535  9412 net.cpp:148] Top shape: 24 32 28 28 (602112)
I0403 19:35:02.060550  9412 net.cpp:156] Memory required for data: 561169440
I0403 19:35:02.060566  9412 layer_factory.hpp:77] Creating layer inception_3a/output
I0403 19:35:02.060583  9412 net.cpp:91] Creating Layer inception_3a/output
I0403 19:35:02.060598  9412 net.cpp:425] inception_3a/output <- inception_3a/1x1
I0403 19:35:02.060614  9412 net.cpp:425] inception_3a/output <- inception_3a/3x3
I0403 19:35:02.060629  9412 net.cpp:425] inception_3a/output <- inception_3a/5x5
I0403 19:35:02.060644  9412 net.cpp:425] inception_3a/output <- inception_3a/pool_proj
I0403 19:35:02.060667  9412 net.cpp:399] inception_3a/output -> inception_3a/output
I0403 19:35:02.060714  9412 net.cpp:141] Setting up inception_3a/output
I0403 19:35:02.060737  9412 net.cpp:148] Top shape: 24 256 28 28 (4816896)
I0403 19:35:02.060751  9412 net.cpp:156] Memory required for data: 580437024
I0403 19:35:02.060765  9412 layer_factory.hpp:77] Creating layer inception_3a/output_inception_3a/output_0_split
I0403 19:35:02.060784  9412 net.cpp:91] Creating Layer inception_3a/output_inception_3a/output_0_split
I0403 19:35:02.060801  9412 net.cpp:425] inception_3a/output_inception_3a/output_0_split <- inception_3a/output
I0403 19:35:02.060818  9412 net.cpp:399] inception_3a/output_inception_3a/output_0_split -> inception_3a/output_inception_3a/output_0_split_0
I0403 19:35:02.060840  9412 net.cpp:399] inception_3a/output_inception_3a/output_0_split -> inception_3a/output_inception_3a/output_0_split_1
I0403 19:35:02.060863  9412 net.cpp:399] inception_3a/output_inception_3a/output_0_split -> inception_3a/output_inception_3a/output_0_split_2
I0403 19:35:02.060883  9412 net.cpp:399] inception_3a/output_inception_3a/output_0_split -> inception_3a/output_inception_3a/output_0_split_3
I0403 19:35:02.060952  9412 net.cpp:141] Setting up inception_3a/output_inception_3a/output_0_split
I0403 19:35:02.060978  9412 net.cpp:148] Top shape: 24 256 28 28 (4816896)
I0403 19:35:02.060995  9412 net.cpp:148] Top shape: 24 256 28 28 (4816896)
I0403 19:35:02.061012  9412 net.cpp:148] Top shape: 24 256 28 28 (4816896)
I0403 19:35:02.061028  9412 net.cpp:148] Top shape: 24 256 28 28 (4816896)
I0403 19:35:02.061041  9412 net.cpp:156] Memory required for data: 657507360
I0403 19:35:02.061055  9412 layer_factory.hpp:77] Creating layer inception_3b/1x1
I0403 19:35:02.061077  9412 net.cpp:91] Creating Layer inception_3b/1x1
I0403 19:35:02.061094  9412 net.cpp:425] inception_3b/1x1 <- inception_3a/output_inception_3a/output_0_split_0
I0403 19:35:02.061113  9412 net.cpp:399] inception_3b/1x1 -> inception_3b/1x1
I0403 19:35:02.062206  9412 net.cpp:141] Setting up inception_3b/1x1
I0403 19:35:02.062248  9412 net.cpp:148] Top shape: 24 128 28 28 (2408448)
I0403 19:35:02.062265  9412 net.cpp:156] Memory required for data: 667141152
I0403 19:35:02.062285  9412 layer_factory.hpp:77] Creating layer inception_3b/relu_1x1
I0403 19:35:02.062302  9412 net.cpp:91] Creating Layer inception_3b/relu_1x1
I0403 19:35:02.062317  9412 net.cpp:425] inception_3b/relu_1x1 <- inception_3b/1x1
I0403 19:35:02.062333  9412 net.cpp:386] inception_3b/relu_1x1 -> inception_3b/1x1 (in-place)
I0403 19:35:02.062515  9412 net.cpp:141] Setting up inception_3b/relu_1x1
I0403 19:35:02.062539  9412 net.cpp:148] Top shape: 24 128 28 28 (2408448)
I0403 19:35:02.062556  9412 net.cpp:156] Memory required for data: 676774944
I0403 19:35:02.062569  9412 layer_factory.hpp:77] Creating layer inception_3b/3x3_reduce
I0403 19:35:02.062592  9412 net.cpp:91] Creating Layer inception_3b/3x3_reduce
I0403 19:35:02.062609  9412 net.cpp:425] inception_3b/3x3_reduce <- inception_3a/output_inception_3a/output_0_split_1
I0403 19:35:02.062629  9412 net.cpp:399] inception_3b/3x3_reduce -> inception_3b/3x3_reduce
I0403 19:35:02.063729  9412 net.cpp:141] Setting up inception_3b/3x3_reduce
I0403 19:35:02.063756  9412 net.cpp:148] Top shape: 24 128 28 28 (2408448)
I0403 19:35:02.063772  9412 net.cpp:156] Memory required for data: 686408736
I0403 19:35:02.063794  9412 layer_factory.hpp:77] Creating layer inception_3b/relu_3x3_reduce
I0403 19:35:02.063813  9412 net.cpp:91] Creating Layer inception_3b/relu_3x3_reduce
I0403 19:35:02.063829  9412 net.cpp:425] inception_3b/relu_3x3_reduce <- inception_3b/3x3_reduce
I0403 19:35:02.063846  9412 net.cpp:386] inception_3b/relu_3x3_reduce -> inception_3b/3x3_reduce (in-place)
I0403 19:35:02.064018  9412 net.cpp:141] Setting up inception_3b/relu_3x3_reduce
I0403 19:35:02.064043  9412 net.cpp:148] Top shape: 24 128 28 28 (2408448)
I0403 19:35:02.064056  9412 net.cpp:156] Memory required for data: 696042528
I0403 19:35:02.064071  9412 layer_factory.hpp:77] Creating layer inception_3b/3x3
I0403 19:35:02.064100  9412 net.cpp:91] Creating Layer inception_3b/3x3
I0403 19:35:02.064118  9412 net.cpp:425] inception_3b/3x3 <- inception_3b/3x3_reduce
I0403 19:35:02.064138  9412 net.cpp:399] inception_3b/3x3 -> inception_3b/3x3
I0403 19:35:02.066951  9412 net.cpp:141] Setting up inception_3b/3x3
I0403 19:35:02.066982  9412 net.cpp:148] Top shape: 24 192 28 28 (3612672)
I0403 19:35:02.066998  9412 net.cpp:156] Memory required for data: 710493216
I0403 19:35:02.067016  9412 layer_factory.hpp:77] Creating layer inception_3b/relu_3x3
I0403 19:35:02.067034  9412 net.cpp:91] Creating Layer inception_3b/relu_3x3
I0403 19:35:02.067051  9412 net.cpp:425] inception_3b/relu_3x3 <- inception_3b/3x3
I0403 19:35:02.067072  9412 net.cpp:386] inception_3b/relu_3x3 -> inception_3b/3x3 (in-place)
I0403 19:35:02.067337  9412 net.cpp:141] Setting up inception_3b/relu_3x3
I0403 19:35:02.067366  9412 net.cpp:148] Top shape: 24 192 28 28 (3612672)
I0403 19:35:02.067383  9412 net.cpp:156] Memory required for data: 724943904
I0403 19:35:02.067399  9412 layer_factory.hpp:77] Creating layer inception_3b/5x5_reduce
I0403 19:35:02.067421  9412 net.cpp:91] Creating Layer inception_3b/5x5_reduce
I0403 19:35:02.067443  9412 net.cpp:425] inception_3b/5x5_reduce <- inception_3a/output_inception_3a/output_0_split_2
I0403 19:35:02.067464  9412 net.cpp:399] inception_3b/5x5_reduce -> inception_3b/5x5_reduce
I0403 19:35:02.068442  9412 net.cpp:141] Setting up inception_3b/5x5_reduce
I0403 19:35:02.068472  9412 net.cpp:148] Top shape: 24 32 28 28 (602112)
I0403 19:35:02.068488  9412 net.cpp:156] Memory required for data: 727352352
I0403 19:35:02.068507  9412 layer_factory.hpp:77] Creating layer inception_3b/relu_5x5_reduce
I0403 19:35:02.068526  9412 net.cpp:91] Creating Layer inception_3b/relu_5x5_reduce
I0403 19:35:02.068543  9412 net.cpp:425] inception_3b/relu_5x5_reduce <- inception_3b/5x5_reduce
I0403 19:35:02.068562  9412 net.cpp:386] inception_3b/relu_5x5_reduce -> inception_3b/5x5_reduce (in-place)
I0403 19:35:02.068733  9412 net.cpp:141] Setting up inception_3b/relu_5x5_reduce
I0403 19:35:02.068770  9412 net.cpp:148] Top shape: 24 32 28 28 (602112)
I0403 19:35:02.068786  9412 net.cpp:156] Memory required for data: 729760800
I0403 19:35:02.068801  9412 layer_factory.hpp:77] Creating layer inception_3b/5x5
I0403 19:35:02.068825  9412 net.cpp:91] Creating Layer inception_3b/5x5
I0403 19:35:02.068843  9412 net.cpp:425] inception_3b/5x5 <- inception_3b/5x5_reduce
I0403 19:35:02.068864  9412 net.cpp:399] inception_3b/5x5 -> inception_3b/5x5
I0403 19:35:02.070791  9412 net.cpp:141] Setting up inception_3b/5x5
I0403 19:35:02.070821  9412 net.cpp:148] Top shape: 24 96 28 28 (1806336)
I0403 19:35:02.070835  9412 net.cpp:156] Memory required for data: 736986144
I0403 19:35:02.070854  9412 layer_factory.hpp:77] Creating layer inception_3b/relu_5x5
I0403 19:35:02.070874  9412 net.cpp:91] Creating Layer inception_3b/relu_5x5
I0403 19:35:02.070893  9412 net.cpp:425] inception_3b/relu_5x5 <- inception_3b/5x5
I0403 19:35:02.070910  9412 net.cpp:386] inception_3b/relu_5x5 -> inception_3b/5x5 (in-place)
I0403 19:35:02.071099  9412 net.cpp:141] Setting up inception_3b/relu_5x5
I0403 19:35:02.071123  9412 net.cpp:148] Top shape: 24 96 28 28 (1806336)
I0403 19:35:02.071138  9412 net.cpp:156] Memory required for data: 744211488
I0403 19:35:02.071153  9412 layer_factory.hpp:77] Creating layer inception_3b/pool
I0403 19:35:02.071171  9412 net.cpp:91] Creating Layer inception_3b/pool
I0403 19:35:02.071188  9412 net.cpp:425] inception_3b/pool <- inception_3a/output_inception_3a/output_0_split_3
I0403 19:35:02.071207  9412 net.cpp:399] inception_3b/pool -> inception_3b/pool
I0403 19:35:02.071260  9412 net.cpp:141] Setting up inception_3b/pool
I0403 19:35:02.071283  9412 net.cpp:148] Top shape: 24 256 28 28 (4816896)
I0403 19:35:02.071297  9412 net.cpp:156] Memory required for data: 763479072
I0403 19:35:02.071311  9412 layer_factory.hpp:77] Creating layer inception_3b/pool_proj
I0403 19:35:02.071334  9412 net.cpp:91] Creating Layer inception_3b/pool_proj
I0403 19:35:02.071352  9412 net.cpp:425] inception_3b/pool_proj <- inception_3b/pool
I0403 19:35:02.071380  9412 net.cpp:399] inception_3b/pool_proj -> inception_3b/pool_proj
I0403 19:35:02.072413  9412 net.cpp:141] Setting up inception_3b/pool_proj
I0403 19:35:02.072450  9412 net.cpp:148] Top shape: 24 64 28 28 (1204224)
I0403 19:35:02.072468  9412 net.cpp:156] Memory required for data: 768295968
I0403 19:35:02.072487  9412 layer_factory.hpp:77] Creating layer inception_3b/relu_pool_proj
I0403 19:35:02.072507  9412 net.cpp:91] Creating Layer inception_3b/relu_pool_proj
I0403 19:35:02.072525  9412 net.cpp:425] inception_3b/relu_pool_proj <- inception_3b/pool_proj
I0403 19:35:02.072542  9412 net.cpp:386] inception_3b/relu_pool_proj -> inception_3b/pool_proj (in-place)
I0403 19:35:02.072921  9412 net.cpp:141] Setting up inception_3b/relu_pool_proj
I0403 19:35:02.072947  9412 net.cpp:148] Top shape: 24 64 28 28 (1204224)
I0403 19:35:02.072962  9412 net.cpp:156] Memory required for data: 773112864
I0403 19:35:02.072978  9412 layer_factory.hpp:77] Creating layer inception_3b/output
I0403 19:35:02.072995  9412 net.cpp:91] Creating Layer inception_3b/output
I0403 19:35:02.073010  9412 net.cpp:425] inception_3b/output <- inception_3b/1x1
I0403 19:35:02.073027  9412 net.cpp:425] inception_3b/output <- inception_3b/3x3
I0403 19:35:02.073043  9412 net.cpp:425] inception_3b/output <- inception_3b/5x5
I0403 19:35:02.073060  9412 net.cpp:425] inception_3b/output <- inception_3b/pool_proj
I0403 19:35:02.073078  9412 net.cpp:399] inception_3b/output -> inception_3b/output
I0403 19:35:02.073120  9412 net.cpp:141] Setting up inception_3b/output
I0403 19:35:02.073148  9412 net.cpp:148] Top shape: 24 480 28 28 (9031680)
I0403 19:35:02.073163  9412 net.cpp:156] Memory required for data: 809239584
I0403 19:35:02.073179  9412 layer_factory.hpp:77] Creating layer pool3/3x3_s2
I0403 19:35:02.073196  9412 net.cpp:91] Creating Layer pool3/3x3_s2
I0403 19:35:02.073211  9412 net.cpp:425] pool3/3x3_s2 <- inception_3b/output
I0403 19:35:02.073231  9412 net.cpp:399] pool3/3x3_s2 -> pool3/3x3_s2
I0403 19:35:02.073302  9412 net.cpp:141] Setting up pool3/3x3_s2
I0403 19:35:02.073325  9412 net.cpp:148] Top shape: 24 480 14 14 (2257920)
I0403 19:35:02.073340  9412 net.cpp:156] Memory required for data: 818271264
I0403 19:35:02.073355  9412 layer_factory.hpp:77] Creating layer pool3/3x3_s2_pool3/3x3_s2_0_split
I0403 19:35:02.073374  9412 net.cpp:91] Creating Layer pool3/3x3_s2_pool3/3x3_s2_0_split
I0403 19:35:02.073390  9412 net.cpp:425] pool3/3x3_s2_pool3/3x3_s2_0_split <- pool3/3x3_s2
I0403 19:35:02.073408  9412 net.cpp:399] pool3/3x3_s2_pool3/3x3_s2_0_split -> pool3/3x3_s2_pool3/3x3_s2_0_split_0
I0403 19:35:02.073431  9412 net.cpp:399] pool3/3x3_s2_pool3/3x3_s2_0_split -> pool3/3x3_s2_pool3/3x3_s2_0_split_1
I0403 19:35:02.073451  9412 net.cpp:399] pool3/3x3_s2_pool3/3x3_s2_0_split -> pool3/3x3_s2_pool3/3x3_s2_0_split_2
I0403 19:35:02.073473  9412 net.cpp:399] pool3/3x3_s2_pool3/3x3_s2_0_split -> pool3/3x3_s2_pool3/3x3_s2_0_split_3
I0403 19:35:02.073549  9412 net.cpp:141] Setting up pool3/3x3_s2_pool3/3x3_s2_0_split
I0403 19:35:02.073572  9412 net.cpp:148] Top shape: 24 480 14 14 (2257920)
I0403 19:35:02.073590  9412 net.cpp:148] Top shape: 24 480 14 14 (2257920)
I0403 19:35:02.073604  9412 net.cpp:148] Top shape: 24 480 14 14 (2257920)
I0403 19:35:02.073619  9412 net.cpp:148] Top shape: 24 480 14 14 (2257920)
I0403 19:35:02.073633  9412 net.cpp:156] Memory required for data: 854397984
I0403 19:35:02.073648  9412 layer_factory.hpp:77] Creating layer inception_4a/1x1
I0403 19:35:02.073669  9412 net.cpp:91] Creating Layer inception_4a/1x1
I0403 19:35:02.073685  9412 net.cpp:425] inception_4a/1x1 <- pool3/3x3_s2_pool3/3x3_s2_0_split_0
I0403 19:35:02.073706  9412 net.cpp:399] inception_4a/1x1 -> inception_4a/1x1
I0403 19:35:02.075220  9412 net.cpp:141] Setting up inception_4a/1x1
I0403 19:35:02.075248  9412 net.cpp:148] Top shape: 24 192 14 14 (903168)
I0403 19:35:02.075263  9412 net.cpp:156] Memory required for data: 858010656
I0403 19:35:02.075283  9412 layer_factory.hpp:77] Creating layer inception_4a/relu_1x1
I0403 19:35:02.075302  9412 net.cpp:91] Creating Layer inception_4a/relu_1x1
I0403 19:35:02.075319  9412 net.cpp:425] inception_4a/relu_1x1 <- inception_4a/1x1
I0403 19:35:02.075336  9412 net.cpp:386] inception_4a/relu_1x1 -> inception_4a/1x1 (in-place)
I0403 19:35:02.075512  9412 net.cpp:141] Setting up inception_4a/relu_1x1
I0403 19:35:02.075541  9412 net.cpp:148] Top shape: 24 192 14 14 (903168)
I0403 19:35:02.075554  9412 net.cpp:156] Memory required for data: 861623328
I0403 19:35:02.075569  9412 layer_factory.hpp:77] Creating layer inception_4a/3x3_reduce
I0403 19:35:02.075592  9412 net.cpp:91] Creating Layer inception_4a/3x3_reduce
I0403 19:35:02.075609  9412 net.cpp:425] inception_4a/3x3_reduce <- pool3/3x3_s2_pool3/3x3_s2_0_split_1
I0403 19:35:02.075628  9412 net.cpp:399] inception_4a/3x3_reduce -> inception_4a/3x3_reduce
I0403 19:35:02.076860  9412 net.cpp:141] Setting up inception_4a/3x3_reduce
I0403 19:35:02.076889  9412 net.cpp:148] Top shape: 24 96 14 14 (451584)
I0403 19:35:02.076903  9412 net.cpp:156] Memory required for data: 863429664
I0403 19:35:02.076928  9412 layer_factory.hpp:77] Creating layer inception_4a/relu_3x3_reduce
I0403 19:35:02.076947  9412 net.cpp:91] Creating Layer inception_4a/relu_3x3_reduce
I0403 19:35:02.076964  9412 net.cpp:425] inception_4a/relu_3x3_reduce <- inception_4a/3x3_reduce
I0403 19:35:02.076983  9412 net.cpp:386] inception_4a/relu_3x3_reduce -> inception_4a/3x3_reduce (in-place)
I0403 19:35:02.077152  9412 net.cpp:141] Setting up inception_4a/relu_3x3_reduce
I0403 19:35:02.077180  9412 net.cpp:148] Top shape: 24 96 14 14 (451584)
I0403 19:35:02.077195  9412 net.cpp:156] Memory required for data: 865236000
I0403 19:35:02.077211  9412 layer_factory.hpp:77] Creating layer inception_4a/3x3
I0403 19:35:02.077234  9412 net.cpp:91] Creating Layer inception_4a/3x3
I0403 19:35:02.077251  9412 net.cpp:425] inception_4a/3x3 <- inception_4a/3x3_reduce
I0403 19:35:02.077270  9412 net.cpp:399] inception_4a/3x3 -> inception_4a/3x3
I0403 19:35:02.079919  9412 net.cpp:141] Setting up inception_4a/3x3
I0403 19:35:02.079951  9412 net.cpp:148] Top shape: 24 208 14 14 (978432)
I0403 19:35:02.079967  9412 net.cpp:156] Memory required for data: 869149728
I0403 19:35:02.079985  9412 layer_factory.hpp:77] Creating layer inception_4a/relu_3x3
I0403 19:35:02.080003  9412 net.cpp:91] Creating Layer inception_4a/relu_3x3
I0403 19:35:02.080025  9412 net.cpp:425] inception_4a/relu_3x3 <- inception_4a/3x3
I0403 19:35:02.080052  9412 net.cpp:386] inception_4a/relu_3x3 -> inception_4a/3x3 (in-place)
I0403 19:35:02.080314  9412 net.cpp:141] Setting up inception_4a/relu_3x3
I0403 19:35:02.080350  9412 net.cpp:148] Top shape: 24 208 14 14 (978432)
I0403 19:35:02.080368  9412 net.cpp:156] Memory required for data: 873063456
I0403 19:35:02.080381  9412 layer_factory.hpp:77] Creating layer inception_4a/5x5_reduce
I0403 19:35:02.080404  9412 net.cpp:91] Creating Layer inception_4a/5x5_reduce
I0403 19:35:02.080420  9412 net.cpp:425] inception_4a/5x5_reduce <- pool3/3x3_s2_pool3/3x3_s2_0_split_2
I0403 19:35:02.080446  9412 net.cpp:399] inception_4a/5x5_reduce -> inception_4a/5x5_reduce
I0403 19:35:02.081403  9412 net.cpp:141] Setting up inception_4a/5x5_reduce
I0403 19:35:02.081435  9412 net.cpp:148] Top shape: 24 16 14 14 (75264)
I0403 19:35:02.081452  9412 net.cpp:156] Memory required for data: 873364512
I0403 19:35:02.081470  9412 layer_factory.hpp:77] Creating layer inception_4a/relu_5x5_reduce
I0403 19:35:02.081488  9412 net.cpp:91] Creating Layer inception_4a/relu_5x5_reduce
I0403 19:35:02.081504  9412 net.cpp:425] inception_4a/relu_5x5_reduce <- inception_4a/5x5_reduce
I0403 19:35:02.081523  9412 net.cpp:386] inception_4a/relu_5x5_reduce -> inception_4a/5x5_reduce (in-place)
I0403 19:35:02.081691  9412 net.cpp:141] Setting up inception_4a/relu_5x5_reduce
I0403 19:35:02.081715  9412 net.cpp:148] Top shape: 24 16 14 14 (75264)
I0403 19:35:02.081730  9412 net.cpp:156] Memory required for data: 873665568
I0403 19:35:02.081744  9412 layer_factory.hpp:77] Creating layer inception_4a/5x5
I0403 19:35:02.081765  9412 net.cpp:91] Creating Layer inception_4a/5x5
I0403 19:35:02.081784  9412 net.cpp:425] inception_4a/5x5 <- inception_4a/5x5_reduce
I0403 19:35:02.081804  9412 net.cpp:399] inception_4a/5x5 -> inception_4a/5x5
I0403 19:35:02.082840  9412 net.cpp:141] Setting up inception_4a/5x5
I0403 19:35:02.082867  9412 net.cpp:148] Top shape: 24 48 14 14 (225792)
I0403 19:35:02.082882  9412 net.cpp:156] Memory required for data: 874568736
I0403 19:35:02.082900  9412 layer_factory.hpp:77] Creating layer inception_4a/relu_5x5
I0403 19:35:02.082919  9412 net.cpp:91] Creating Layer inception_4a/relu_5x5
I0403 19:35:02.082937  9412 net.cpp:425] inception_4a/relu_5x5 <- inception_4a/5x5
I0403 19:35:02.082953  9412 net.cpp:386] inception_4a/relu_5x5 -> inception_4a/5x5 (in-place)
I0403 19:35:02.083120  9412 net.cpp:141] Setting up inception_4a/relu_5x5
I0403 19:35:02.083144  9412 net.cpp:148] Top shape: 24 48 14 14 (225792)
I0403 19:35:02.083158  9412 net.cpp:156] Memory required for data: 875471904
I0403 19:35:02.083173  9412 layer_factory.hpp:77] Creating layer inception_4a/pool
I0403 19:35:02.083192  9412 net.cpp:91] Creating Layer inception_4a/pool
I0403 19:35:02.083209  9412 net.cpp:425] inception_4a/pool <- pool3/3x3_s2_pool3/3x3_s2_0_split_3
I0403 19:35:02.083226  9412 net.cpp:399] inception_4a/pool -> inception_4a/pool
I0403 19:35:02.083284  9412 net.cpp:141] Setting up inception_4a/pool
I0403 19:35:02.083307  9412 net.cpp:148] Top shape: 24 480 14 14 (2257920)
I0403 19:35:02.083323  9412 net.cpp:156] Memory required for data: 884503584
I0403 19:35:02.083335  9412 layer_factory.hpp:77] Creating layer inception_4a/pool_proj
I0403 19:35:02.083358  9412 net.cpp:91] Creating Layer inception_4a/pool_proj
I0403 19:35:02.083375  9412 net.cpp:425] inception_4a/pool_proj <- inception_4a/pool
I0403 19:35:02.083395  9412 net.cpp:399] inception_4a/pool_proj -> inception_4a/pool_proj
I0403 19:35:02.084496  9412 net.cpp:141] Setting up inception_4a/pool_proj
I0403 19:35:02.084523  9412 net.cpp:148] Top shape: 24 64 14 14 (301056)
I0403 19:35:02.084553  9412 net.cpp:156] Memory required for data: 885707808
I0403 19:35:02.084571  9412 layer_factory.hpp:77] Creating layer inception_4a/relu_pool_proj
I0403 19:35:02.084592  9412 net.cpp:91] Creating Layer inception_4a/relu_pool_proj
I0403 19:35:02.084609  9412 net.cpp:425] inception_4a/relu_pool_proj <- inception_4a/pool_proj
I0403 19:35:02.084626  9412 net.cpp:386] inception_4a/relu_pool_proj -> inception_4a/pool_proj (in-place)
I0403 19:35:02.084897  9412 net.cpp:141] Setting up inception_4a/relu_pool_proj
I0403 19:35:02.084923  9412 net.cpp:148] Top shape: 24 64 14 14 (301056)
I0403 19:35:02.084938  9412 net.cpp:156] Memory required for data: 886912032
I0403 19:35:02.084952  9412 layer_factory.hpp:77] Creating layer inception_4a/output
I0403 19:35:02.084971  9412 net.cpp:91] Creating Layer inception_4a/output
I0403 19:35:02.084987  9412 net.cpp:425] inception_4a/output <- inception_4a/1x1
I0403 19:35:02.085003  9412 net.cpp:425] inception_4a/output <- inception_4a/3x3
I0403 19:35:02.085019  9412 net.cpp:425] inception_4a/output <- inception_4a/5x5
I0403 19:35:02.085036  9412 net.cpp:425] inception_4a/output <- inception_4a/pool_proj
I0403 19:35:02.085052  9412 net.cpp:399] inception_4a/output -> inception_4a/output
I0403 19:35:02.085094  9412 net.cpp:141] Setting up inception_4a/output
I0403 19:35:02.085117  9412 net.cpp:148] Top shape: 24 512 14 14 (2408448)
I0403 19:35:02.085132  9412 net.cpp:156] Memory required for data: 896545824
I0403 19:35:02.085147  9412 layer_factory.hpp:77] Creating layer inception_4a/output_inception_4a/output_0_split
I0403 19:35:02.085163  9412 net.cpp:91] Creating Layer inception_4a/output_inception_4a/output_0_split
I0403 19:35:02.085177  9412 net.cpp:425] inception_4a/output_inception_4a/output_0_split <- inception_4a/output
I0403 19:35:02.085196  9412 net.cpp:399] inception_4a/output_inception_4a/output_0_split -> inception_4a/output_inception_4a/output_0_split_0
I0403 19:35:02.085217  9412 net.cpp:399] inception_4a/output_inception_4a/output_0_split -> inception_4a/output_inception_4a/output_0_split_1
I0403 19:35:02.085238  9412 net.cpp:399] inception_4a/output_inception_4a/output_0_split -> inception_4a/output_inception_4a/output_0_split_2
I0403 19:35:02.085258  9412 net.cpp:399] inception_4a/output_inception_4a/output_0_split -> inception_4a/output_inception_4a/output_0_split_3
I0403 19:35:02.085275  9412 net.cpp:399] inception_4a/output_inception_4a/output_0_split -> inception_4a/output_inception_4a/output_0_split_4
I0403 19:35:02.085366  9412 net.cpp:141] Setting up inception_4a/output_inception_4a/output_0_split
I0403 19:35:02.085396  9412 net.cpp:148] Top shape: 24 512 14 14 (2408448)
I0403 19:35:02.085413  9412 net.cpp:148] Top shape: 24 512 14 14 (2408448)
I0403 19:35:02.085433  9412 net.cpp:148] Top shape: 24 512 14 14 (2408448)
I0403 19:35:02.085451  9412 net.cpp:148] Top shape: 24 512 14 14 (2408448)
I0403 19:35:02.085469  9412 net.cpp:148] Top shape: 24 512 14 14 (2408448)
I0403 19:35:02.085481  9412 net.cpp:156] Memory required for data: 944714784
I0403 19:35:02.085495  9412 layer_factory.hpp:77] Creating layer loss1/ave_pool
I0403 19:35:02.085512  9412 net.cpp:91] Creating Layer loss1/ave_pool
I0403 19:35:02.085527  9412 net.cpp:425] loss1/ave_pool <- inception_4a/output_inception_4a/output_0_split_0
I0403 19:35:02.085546  9412 net.cpp:399] loss1/ave_pool -> loss1/ave_pool
I0403 19:35:02.085739  9412 net.cpp:141] Setting up loss1/ave_pool
I0403 19:35:02.085764  9412 net.cpp:148] Top shape: 24 512 4 4 (196608)
I0403 19:35:02.085779  9412 net.cpp:156] Memory required for data: 945501216
I0403 19:35:02.085794  9412 layer_factory.hpp:77] Creating layer loss1/conv
I0403 19:35:02.085814  9412 net.cpp:91] Creating Layer loss1/conv
I0403 19:35:02.085831  9412 net.cpp:425] loss1/conv <- loss1/ave_pool
I0403 19:35:02.085853  9412 net.cpp:399] loss1/conv -> loss1/conv
I0403 19:35:02.087182  9412 net.cpp:141] Setting up loss1/conv
I0403 19:35:02.087211  9412 net.cpp:148] Top shape: 24 128 4 4 (49152)
I0403 19:35:02.087229  9412 net.cpp:156] Memory required for data: 945697824
I0403 19:35:02.087260  9412 layer_factory.hpp:77] Creating layer loss1/relu_conv
I0403 19:35:02.087278  9412 net.cpp:91] Creating Layer loss1/relu_conv
I0403 19:35:02.087294  9412 net.cpp:425] loss1/relu_conv <- loss1/conv
I0403 19:35:02.087313  9412 net.cpp:386] loss1/relu_conv -> loss1/conv (in-place)
I0403 19:35:02.087580  9412 net.cpp:141] Setting up loss1/relu_conv
I0403 19:35:02.087609  9412 net.cpp:148] Top shape: 24 128 4 4 (49152)
I0403 19:35:02.087623  9412 net.cpp:156] Memory required for data: 945894432
I0403 19:35:02.087637  9412 layer_factory.hpp:77] Creating layer loss1/fc
I0403 19:35:02.087661  9412 net.cpp:91] Creating Layer loss1/fc
I0403 19:35:02.087679  9412 net.cpp:425] loss1/fc <- loss1/conv
I0403 19:35:02.087700  9412 net.cpp:399] loss1/fc -> loss1/fc
I0403 19:35:02.105041  9412 net.cpp:141] Setting up loss1/fc
I0403 19:35:02.105074  9412 net.cpp:148] Top shape: 24 1024 (24576)
I0403 19:35:02.105090  9412 net.cpp:156] Memory required for data: 945992736
I0403 19:35:02.105109  9412 layer_factory.hpp:77] Creating layer loss1/relu_fc
I0403 19:35:02.105130  9412 net.cpp:91] Creating Layer loss1/relu_fc
I0403 19:35:02.105149  9412 net.cpp:425] loss1/relu_fc <- loss1/fc
I0403 19:35:02.105165  9412 net.cpp:386] loss1/relu_fc -> loss1/fc (in-place)
I0403 19:35:02.105346  9412 net.cpp:141] Setting up loss1/relu_fc
I0403 19:35:02.105373  9412 net.cpp:148] Top shape: 24 1024 (24576)
I0403 19:35:02.105388  9412 net.cpp:156] Memory required for data: 946091040
I0403 19:35:02.105403  9412 layer_factory.hpp:77] Creating layer loss1/drop_fc
I0403 19:35:02.105432  9412 net.cpp:91] Creating Layer loss1/drop_fc
I0403 19:35:02.105451  9412 net.cpp:425] loss1/drop_fc <- loss1/fc
I0403 19:35:02.105468  9412 net.cpp:386] loss1/drop_fc -> loss1/fc (in-place)
I0403 19:35:02.105521  9412 net.cpp:141] Setting up loss1/drop_fc
I0403 19:35:02.105556  9412 net.cpp:148] Top shape: 24 1024 (24576)
I0403 19:35:02.105571  9412 net.cpp:156] Memory required for data: 946189344
I0403 19:35:02.105587  9412 layer_factory.hpp:77] Creating layer loss1/classifier_plantvillage
I0403 19:35:02.105603  9412 net.cpp:91] Creating Layer loss1/classifier_plantvillage
I0403 19:35:02.105618  9412 net.cpp:425] loss1/classifier_plantvillage <- loss1/fc
I0403 19:35:02.105639  9412 net.cpp:399] loss1/classifier_plantvillage -> loss1/classifier_plantvillage
I0403 19:35:02.106549  9412 net.cpp:141] Setting up loss1/classifier_plantvillage
I0403 19:35:02.106577  9412 net.cpp:148] Top shape: 24 38 (912)
I0403 19:35:02.106621  9412 net.cpp:156] Memory required for data: 946192992
I0403 19:35:02.106642  9412 layer_factory.hpp:77] Creating layer loss1/classifier_plantvillage_loss1/classifier_plantvillage_0_split
I0403 19:35:02.106664  9412 net.cpp:91] Creating Layer loss1/classifier_plantvillage_loss1/classifier_plantvillage_0_split
I0403 19:35:02.106680  9412 net.cpp:425] loss1/classifier_plantvillage_loss1/classifier_plantvillage_0_split <- loss1/classifier_plantvillage
I0403 19:35:02.106698  9412 net.cpp:399] loss1/classifier_plantvillage_loss1/classifier_plantvillage_0_split -> loss1/classifier_plantvillage_loss1/classifier_plantvillage_0_split_0
I0403 19:35:02.106717  9412 net.cpp:399] loss1/classifier_plantvillage_loss1/classifier_plantvillage_0_split -> loss1/classifier_plantvillage_loss1/classifier_plantvillage_0_split_1
I0403 19:35:02.106741  9412 net.cpp:399] loss1/classifier_plantvillage_loss1/classifier_plantvillage_0_split -> loss1/classifier_plantvillage_loss1/classifier_plantvillage_0_split_2
I0403 19:35:02.106806  9412 net.cpp:141] Setting up loss1/classifier_plantvillage_loss1/classifier_plantvillage_0_split
I0403 19:35:02.106830  9412 net.cpp:148] Top shape: 24 38 (912)
I0403 19:35:02.106847  9412 net.cpp:148] Top shape: 24 38 (912)
I0403 19:35:02.106861  9412 net.cpp:148] Top shape: 24 38 (912)
I0403 19:35:02.106886  9412 net.cpp:156] Memory required for data: 946203936
I0403 19:35:02.106901  9412 layer_factory.hpp:77] Creating layer inception_4b/1x1
I0403 19:35:02.106922  9412 net.cpp:91] Creating Layer inception_4b/1x1
I0403 19:35:02.106952  9412 net.cpp:425] inception_4b/1x1 <- inception_4a/output_inception_4a/output_0_split_1
I0403 19:35:02.106971  9412 net.cpp:399] inception_4b/1x1 -> inception_4b/1x1
I0403 19:35:02.108513  9412 net.cpp:141] Setting up inception_4b/1x1
I0403 19:35:02.108544  9412 net.cpp:148] Top shape: 24 160 14 14 (752640)
I0403 19:35:02.108561  9412 net.cpp:156] Memory required for data: 949214496
I0403 19:35:02.108578  9412 layer_factory.hpp:77] Creating layer inception_4b/relu_1x1
I0403 19:35:02.108597  9412 net.cpp:91] Creating Layer inception_4b/relu_1x1
I0403 19:35:02.108611  9412 net.cpp:425] inception_4b/relu_1x1 <- inception_4b/1x1
I0403 19:35:02.108633  9412 net.cpp:386] inception_4b/relu_1x1 -> inception_4b/1x1 (in-place)
I0403 19:35:02.108803  9412 net.cpp:141] Setting up inception_4b/relu_1x1
I0403 19:35:02.108826  9412 net.cpp:148] Top shape: 24 160 14 14 (752640)
I0403 19:35:02.108840  9412 net.cpp:156] Memory required for data: 952225056
I0403 19:35:02.108855  9412 layer_factory.hpp:77] Creating layer inception_4b/3x3_reduce
I0403 19:35:02.108878  9412 net.cpp:91] Creating Layer inception_4b/3x3_reduce
I0403 19:35:02.108896  9412 net.cpp:425] inception_4b/3x3_reduce <- inception_4a/output_inception_4a/output_0_split_2
I0403 19:35:02.108916  9412 net.cpp:399] inception_4b/3x3_reduce -> inception_4b/3x3_reduce
I0403 19:35:02.110184  9412 net.cpp:141] Setting up inception_4b/3x3_reduce
I0403 19:35:02.110213  9412 net.cpp:148] Top shape: 24 112 14 14 (526848)
I0403 19:35:02.110227  9412 net.cpp:156] Memory required for data: 954332448
I0403 19:35:02.110245  9412 layer_factory.hpp:77] Creating layer inception_4b/relu_3x3_reduce
I0403 19:35:02.110262  9412 net.cpp:91] Creating Layer inception_4b/relu_3x3_reduce
I0403 19:35:02.110277  9412 net.cpp:425] inception_4b/relu_3x3_reduce <- inception_4b/3x3_reduce
I0403 19:35:02.110296  9412 net.cpp:386] inception_4b/relu_3x3_reduce -> inception_4b/3x3_reduce (in-place)
I0403 19:35:02.110568  9412 net.cpp:141] Setting up inception_4b/relu_3x3_reduce
I0403 19:35:02.110594  9412 net.cpp:148] Top shape: 24 112 14 14 (526848)
I0403 19:35:02.110607  9412 net.cpp:156] Memory required for data: 956439840
I0403 19:35:02.110621  9412 layer_factory.hpp:77] Creating layer inception_4b/3x3
I0403 19:35:02.110642  9412 net.cpp:91] Creating Layer inception_4b/3x3
I0403 19:35:02.110659  9412 net.cpp:425] inception_4b/3x3 <- inception_4b/3x3_reduce
I0403 19:35:02.110682  9412 net.cpp:399] inception_4b/3x3 -> inception_4b/3x3
I0403 19:35:02.113533  9412 net.cpp:141] Setting up inception_4b/3x3
I0403 19:35:02.113560  9412 net.cpp:148] Top shape: 24 224 14 14 (1053696)
I0403 19:35:02.113576  9412 net.cpp:156] Memory required for data: 960654624
I0403 19:35:02.113593  9412 layer_factory.hpp:77] Creating layer inception_4b/relu_3x3
I0403 19:35:02.113613  9412 net.cpp:91] Creating Layer inception_4b/relu_3x3
I0403 19:35:02.113631  9412 net.cpp:425] inception_4b/relu_3x3 <- inception_4b/3x3
I0403 19:35:02.113647  9412 net.cpp:386] inception_4b/relu_3x3 -> inception_4b/3x3 (in-place)
I0403 19:35:02.113817  9412 net.cpp:141] Setting up inception_4b/relu_3x3
I0403 19:35:02.113844  9412 net.cpp:148] Top shape: 24 224 14 14 (1053696)
I0403 19:35:02.113859  9412 net.cpp:156] Memory required for data: 964869408
I0403 19:35:02.113873  9412 layer_factory.hpp:77] Creating layer inception_4b/5x5_reduce
I0403 19:35:02.113894  9412 net.cpp:91] Creating Layer inception_4b/5x5_reduce
I0403 19:35:02.113912  9412 net.cpp:425] inception_4b/5x5_reduce <- inception_4a/output_inception_4a/output_0_split_3
I0403 19:35:02.113931  9412 net.cpp:399] inception_4b/5x5_reduce -> inception_4b/5x5_reduce
I0403 19:35:02.114972  9412 net.cpp:141] Setting up inception_4b/5x5_reduce
I0403 19:35:02.115000  9412 net.cpp:148] Top shape: 24 24 14 14 (112896)
I0403 19:35:02.115015  9412 net.cpp:156] Memory required for data: 965320992
I0403 19:35:02.115033  9412 layer_factory.hpp:77] Creating layer inception_4b/relu_5x5_reduce
I0403 19:35:02.115051  9412 net.cpp:91] Creating Layer inception_4b/relu_5x5_reduce
I0403 19:35:02.115082  9412 net.cpp:425] inception_4b/relu_5x5_reduce <- inception_4b/5x5_reduce
I0403 19:35:02.115103  9412 net.cpp:386] inception_4b/relu_5x5_reduce -> inception_4b/5x5_reduce (in-place)
I0403 19:35:02.115275  9412 net.cpp:141] Setting up inception_4b/relu_5x5_reduce
I0403 19:35:02.115299  9412 net.cpp:148] Top shape: 24 24 14 14 (112896)
I0403 19:35:02.115314  9412 net.cpp:156] Memory required for data: 965772576
I0403 19:35:02.115329  9412 layer_factory.hpp:77] Creating layer inception_4b/5x5
I0403 19:35:02.115350  9412 net.cpp:91] Creating Layer inception_4b/5x5
I0403 19:35:02.115367  9412 net.cpp:425] inception_4b/5x5 <- inception_4b/5x5_reduce
I0403 19:35:02.115387  9412 net.cpp:399] inception_4b/5x5 -> inception_4b/5x5
I0403 19:35:02.116555  9412 net.cpp:141] Setting up inception_4b/5x5
I0403 19:35:02.116585  9412 net.cpp:148] Top shape: 24 64 14 14 (301056)
I0403 19:35:02.116601  9412 net.cpp:156] Memory required for data: 966976800
I0403 19:35:02.116619  9412 layer_factory.hpp:77] Creating layer inception_4b/relu_5x5
I0403 19:35:02.116636  9412 net.cpp:91] Creating Layer inception_4b/relu_5x5
I0403 19:35:02.116652  9412 net.cpp:425] inception_4b/relu_5x5 <- inception_4b/5x5
I0403 19:35:02.116670  9412 net.cpp:386] inception_4b/relu_5x5 -> inception_4b/5x5 (in-place)
I0403 19:35:02.116941  9412 net.cpp:141] Setting up inception_4b/relu_5x5
I0403 19:35:02.116968  9412 net.cpp:148] Top shape: 24 64 14 14 (301056)
I0403 19:35:02.116983  9412 net.cpp:156] Memory required for data: 968181024
I0403 19:35:02.116999  9412 layer_factory.hpp:77] Creating layer inception_4b/pool
I0403 19:35:02.117017  9412 net.cpp:91] Creating Layer inception_4b/pool
I0403 19:35:02.117032  9412 net.cpp:425] inception_4b/pool <- inception_4a/output_inception_4a/output_0_split_4
I0403 19:35:02.117050  9412 net.cpp:399] inception_4b/pool -> inception_4b/pool
I0403 19:35:02.117111  9412 net.cpp:141] Setting up inception_4b/pool
I0403 19:35:02.117136  9412 net.cpp:148] Top shape: 24 512 14 14 (2408448)
I0403 19:35:02.117149  9412 net.cpp:156] Memory required for data: 977814816
I0403 19:35:02.117164  9412 layer_factory.hpp:77] Creating layer inception_4b/pool_proj
I0403 19:35:02.117187  9412 net.cpp:91] Creating Layer inception_4b/pool_proj
I0403 19:35:02.117203  9412 net.cpp:425] inception_4b/pool_proj <- inception_4b/pool
I0403 19:35:02.117223  9412 net.cpp:399] inception_4b/pool_proj -> inception_4b/pool_proj
I0403 19:35:02.118360  9412 net.cpp:141] Setting up inception_4b/pool_proj
I0403 19:35:02.118391  9412 net.cpp:148] Top shape: 24 64 14 14 (301056)
I0403 19:35:02.118408  9412 net.cpp:156] Memory required for data: 979019040
I0403 19:35:02.118425  9412 layer_factory.hpp:77] Creating layer inception_4b/relu_pool_proj
I0403 19:35:02.118446  9412 net.cpp:91] Creating Layer inception_4b/relu_pool_proj
I0403 19:35:02.118463  9412 net.cpp:425] inception_4b/relu_pool_proj <- inception_4b/pool_proj
I0403 19:35:02.118482  9412 net.cpp:386] inception_4b/relu_pool_proj -> inception_4b/pool_proj (in-place)
I0403 19:35:02.118660  9412 net.cpp:141] Setting up inception_4b/relu_pool_proj
I0403 19:35:02.118685  9412 net.cpp:148] Top shape: 24 64 14 14 (301056)
I0403 19:35:02.118698  9412 net.cpp:156] Memory required for data: 980223264
I0403 19:35:02.118712  9412 layer_factory.hpp:77] Creating layer inception_4b/output
I0403 19:35:02.118729  9412 net.cpp:91] Creating Layer inception_4b/output
I0403 19:35:02.118744  9412 net.cpp:425] inception_4b/output <- inception_4b/1x1
I0403 19:35:02.118760  9412 net.cpp:425] inception_4b/output <- inception_4b/3x3
I0403 19:35:02.118777  9412 net.cpp:425] inception_4b/output <- inception_4b/5x5
I0403 19:35:02.118793  9412 net.cpp:425] inception_4b/output <- inception_4b/pool_proj
I0403 19:35:02.118810  9412 net.cpp:399] inception_4b/output -> inception_4b/output
I0403 19:35:02.118855  9412 net.cpp:141] Setting up inception_4b/output
I0403 19:35:02.118877  9412 net.cpp:148] Top shape: 24 512 14 14 (2408448)
I0403 19:35:02.118891  9412 net.cpp:156] Memory required for data: 989857056
I0403 19:35:02.118921  9412 layer_factory.hpp:77] Creating layer inception_4b/output_inception_4b/output_0_split
I0403 19:35:02.118938  9412 net.cpp:91] Creating Layer inception_4b/output_inception_4b/output_0_split
I0403 19:35:02.118953  9412 net.cpp:425] inception_4b/output_inception_4b/output_0_split <- inception_4b/output
I0403 19:35:02.118971  9412 net.cpp:399] inception_4b/output_inception_4b/output_0_split -> inception_4b/output_inception_4b/output_0_split_0
I0403 19:35:02.118990  9412 net.cpp:399] inception_4b/output_inception_4b/output_0_split -> inception_4b/output_inception_4b/output_0_split_1
I0403 19:35:02.119009  9412 net.cpp:399] inception_4b/output_inception_4b/output_0_split -> inception_4b/output_inception_4b/output_0_split_2
I0403 19:35:02.119030  9412 net.cpp:399] inception_4b/output_inception_4b/output_0_split -> inception_4b/output_inception_4b/output_0_split_3
I0403 19:35:02.119112  9412 net.cpp:141] Setting up inception_4b/output_inception_4b/output_0_split
I0403 19:35:02.119138  9412 net.cpp:148] Top shape: 24 512 14 14 (2408448)
I0403 19:35:02.119155  9412 net.cpp:148] Top shape: 24 512 14 14 (2408448)
I0403 19:35:02.119170  9412 net.cpp:148] Top shape: 24 512 14 14 (2408448)
I0403 19:35:02.119187  9412 net.cpp:148] Top shape: 24 512 14 14 (2408448)
I0403 19:35:02.119200  9412 net.cpp:156] Memory required for data: 1028392224
I0403 19:35:02.119215  9412 layer_factory.hpp:77] Creating layer inception_4c/1x1
I0403 19:35:02.119235  9412 net.cpp:91] Creating Layer inception_4c/1x1
I0403 19:35:02.119252  9412 net.cpp:425] inception_4c/1x1 <- inception_4b/output_inception_4b/output_0_split_0
I0403 19:35:02.119271  9412 net.cpp:399] inception_4c/1x1 -> inception_4c/1x1
I0403 19:35:02.120621  9412 net.cpp:141] Setting up inception_4c/1x1
I0403 19:35:02.120648  9412 net.cpp:148] Top shape: 24 128 14 14 (602112)
I0403 19:35:02.120663  9412 net.cpp:156] Memory required for data: 1030800672
I0403 19:35:02.120682  9412 layer_factory.hpp:77] Creating layer inception_4c/relu_1x1
I0403 19:35:02.120702  9412 net.cpp:91] Creating Layer inception_4c/relu_1x1
I0403 19:35:02.120718  9412 net.cpp:425] inception_4c/relu_1x1 <- inception_4c/1x1
I0403 19:35:02.120736  9412 net.cpp:386] inception_4c/relu_1x1 -> inception_4c/1x1 (in-place)
I0403 19:35:02.120904  9412 net.cpp:141] Setting up inception_4c/relu_1x1
I0403 19:35:02.120930  9412 net.cpp:148] Top shape: 24 128 14 14 (602112)
I0403 19:35:02.120945  9412 net.cpp:156] Memory required for data: 1033209120
I0403 19:35:02.120960  9412 layer_factory.hpp:77] Creating layer inception_4c/3x3_reduce
I0403 19:35:02.120981  9412 net.cpp:91] Creating Layer inception_4c/3x3_reduce
I0403 19:35:02.121000  9412 net.cpp:425] inception_4c/3x3_reduce <- inception_4b/output_inception_4b/output_0_split_1
I0403 19:35:02.121018  9412 net.cpp:399] inception_4c/3x3_reduce -> inception_4c/3x3_reduce
I0403 19:35:02.122865  9412 net.cpp:141] Setting up inception_4c/3x3_reduce
I0403 19:35:02.122917  9412 net.cpp:148] Top shape: 24 128 14 14 (602112)
I0403 19:35:02.122953  9412 net.cpp:156] Memory required for data: 1035617568
I0403 19:35:02.122997  9412 layer_factory.hpp:77] Creating layer inception_4c/relu_3x3_reduce
I0403 19:35:02.123041  9412 net.cpp:91] Creating Layer inception_4c/relu_3x3_reduce
I0403 19:35:02.123083  9412 net.cpp:425] inception_4c/relu_3x3_reduce <- inception_4c/3x3_reduce
I0403 19:35:02.123124  9412 net.cpp:386] inception_4c/relu_3x3_reduce -> inception_4c/3x3_reduce (in-place)
I0403 19:35:02.123420  9412 net.cpp:141] Setting up inception_4c/relu_3x3_reduce
I0403 19:35:02.123453  9412 net.cpp:148] Top shape: 24 128 14 14 (602112)
I0403 19:35:02.123471  9412 net.cpp:156] Memory required for data: 1038026016
I0403 19:35:02.123486  9412 layer_factory.hpp:77] Creating layer inception_4c/3x3
I0403 19:35:02.123507  9412 net.cpp:91] Creating Layer inception_4c/3x3
I0403 19:35:02.123525  9412 net.cpp:425] inception_4c/3x3 <- inception_4c/3x3_reduce
I0403 19:35:02.123543  9412 net.cpp:399] inception_4c/3x3 -> inception_4c/3x3
I0403 19:35:02.126945  9412 net.cpp:141] Setting up inception_4c/3x3
I0403 19:35:02.126986  9412 net.cpp:148] Top shape: 24 256 14 14 (1204224)
I0403 19:35:02.127002  9412 net.cpp:156] Memory required for data: 1042842912
I0403 19:35:02.127037  9412 layer_factory.hpp:77] Creating layer inception_4c/relu_3x3
I0403 19:35:02.127058  9412 net.cpp:91] Creating Layer inception_4c/relu_3x3
I0403 19:35:02.127074  9412 net.cpp:425] inception_4c/relu_3x3 <- inception_4c/3x3
I0403 19:35:02.127092  9412 net.cpp:386] inception_4c/relu_3x3 -> inception_4c/3x3 (in-place)
I0403 19:35:02.127262  9412 net.cpp:141] Setting up inception_4c/relu_3x3
I0403 19:35:02.127287  9412 net.cpp:148] Top shape: 24 256 14 14 (1204224)
I0403 19:35:02.127301  9412 net.cpp:156] Memory required for data: 1047659808
I0403 19:35:02.127315  9412 layer_factory.hpp:77] Creating layer inception_4c/5x5_reduce
I0403 19:35:02.127338  9412 net.cpp:91] Creating Layer inception_4c/5x5_reduce
I0403 19:35:02.127357  9412 net.cpp:425] inception_4c/5x5_reduce <- inception_4b/output_inception_4b/output_0_split_2
I0403 19:35:02.127377  9412 net.cpp:399] inception_4c/5x5_reduce -> inception_4c/5x5_reduce
I0403 19:35:02.128404  9412 net.cpp:141] Setting up inception_4c/5x5_reduce
I0403 19:35:02.128435  9412 net.cpp:148] Top shape: 24 24 14 14 (112896)
I0403 19:35:02.128451  9412 net.cpp:156] Memory required for data: 1048111392
I0403 19:35:02.128475  9412 layer_factory.hpp:77] Creating layer inception_4c/relu_5x5_reduce
I0403 19:35:02.128492  9412 net.cpp:91] Creating Layer inception_4c/relu_5x5_reduce
I0403 19:35:02.128509  9412 net.cpp:425] inception_4c/relu_5x5_reduce <- inception_4c/5x5_reduce
I0403 19:35:02.128527  9412 net.cpp:386] inception_4c/relu_5x5_reduce -> inception_4c/5x5_reduce (in-place)
I0403 19:35:02.128700  9412 net.cpp:141] Setting up inception_4c/relu_5x5_reduce
I0403 19:35:02.128725  9412 net.cpp:148] Top shape: 24 24 14 14 (112896)
I0403 19:35:02.128738  9412 net.cpp:156] Memory required for data: 1048562976
I0403 19:35:02.128752  9412 layer_factory.hpp:77] Creating layer inception_4c/5x5
I0403 19:35:02.128774  9412 net.cpp:91] Creating Layer inception_4c/5x5
I0403 19:35:02.128793  9412 net.cpp:425] inception_4c/5x5 <- inception_4c/5x5_reduce
I0403 19:35:02.128813  9412 net.cpp:399] inception_4c/5x5 -> inception_4c/5x5
I0403 19:35:02.129997  9412 net.cpp:141] Setting up inception_4c/5x5
I0403 19:35:02.130024  9412 net.cpp:148] Top shape: 24 64 14 14 (301056)
I0403 19:35:02.130039  9412 net.cpp:156] Memory required for data: 1049767200
I0403 19:35:02.130058  9412 layer_factory.hpp:77] Creating layer inception_4c/relu_5x5
I0403 19:35:02.130076  9412 net.cpp:91] Creating Layer inception_4c/relu_5x5
I0403 19:35:02.130094  9412 net.cpp:425] inception_4c/relu_5x5 <- inception_4c/5x5
I0403 19:35:02.130110  9412 net.cpp:386] inception_4c/relu_5x5 -> inception_4c/5x5 (in-place)
I0403 19:35:02.130385  9412 net.cpp:141] Setting up inception_4c/relu_5x5
I0403 19:35:02.130411  9412 net.cpp:148] Top shape: 24 64 14 14 (301056)
I0403 19:35:02.130425  9412 net.cpp:156] Memory required for data: 1050971424
I0403 19:35:02.130445  9412 layer_factory.hpp:77] Creating layer inception_4c/pool
I0403 19:35:02.130463  9412 net.cpp:91] Creating Layer inception_4c/pool
I0403 19:35:02.130478  9412 net.cpp:425] inception_4c/pool <- inception_4b/output_inception_4b/output_0_split_3
I0403 19:35:02.130498  9412 net.cpp:399] inception_4c/pool -> inception_4c/pool
I0403 19:35:02.130561  9412 net.cpp:141] Setting up inception_4c/pool
I0403 19:35:02.130584  9412 net.cpp:148] Top shape: 24 512 14 14 (2408448)
I0403 19:35:02.130599  9412 net.cpp:156] Memory required for data: 1060605216
I0403 19:35:02.130614  9412 layer_factory.hpp:77] Creating layer inception_4c/pool_proj
I0403 19:35:02.130635  9412 net.cpp:91] Creating Layer inception_4c/pool_proj
I0403 19:35:02.130652  9412 net.cpp:425] inception_4c/pool_proj <- inception_4c/pool
I0403 19:35:02.130672  9412 net.cpp:399] inception_4c/pool_proj -> inception_4c/pool_proj
I0403 19:35:02.131836  9412 net.cpp:141] Setting up inception_4c/pool_proj
I0403 19:35:02.131866  9412 net.cpp:148] Top shape: 24 64 14 14 (301056)
I0403 19:35:02.131896  9412 net.cpp:156] Memory required for data: 1061809440
I0403 19:35:02.131914  9412 layer_factory.hpp:77] Creating layer inception_4c/relu_pool_proj
I0403 19:35:02.131932  9412 net.cpp:91] Creating Layer inception_4c/relu_pool_proj
I0403 19:35:02.131948  9412 net.cpp:425] inception_4c/relu_pool_proj <- inception_4c/pool_proj
I0403 19:35:02.131968  9412 net.cpp:386] inception_4c/relu_pool_proj -> inception_4c/pool_proj (in-place)
I0403 19:35:02.132139  9412 net.cpp:141] Setting up inception_4c/relu_pool_proj
I0403 19:35:02.132163  9412 net.cpp:148] Top shape: 24 64 14 14 (301056)
I0403 19:35:02.132176  9412 net.cpp:156] Memory required for data: 1063013664
I0403 19:35:02.132191  9412 layer_factory.hpp:77] Creating layer inception_4c/output
I0403 19:35:02.132208  9412 net.cpp:91] Creating Layer inception_4c/output
I0403 19:35:02.132223  9412 net.cpp:425] inception_4c/output <- inception_4c/1x1
I0403 19:35:02.132241  9412 net.cpp:425] inception_4c/output <- inception_4c/3x3
I0403 19:35:02.132256  9412 net.cpp:425] inception_4c/output <- inception_4c/5x5
I0403 19:35:02.132271  9412 net.cpp:425] inception_4c/output <- inception_4c/pool_proj
I0403 19:35:02.132288  9412 net.cpp:399] inception_4c/output -> inception_4c/output
I0403 19:35:02.132335  9412 net.cpp:141] Setting up inception_4c/output
I0403 19:35:02.132359  9412 net.cpp:148] Top shape: 24 512 14 14 (2408448)
I0403 19:35:02.132372  9412 net.cpp:156] Memory required for data: 1072647456
I0403 19:35:02.132386  9412 layer_factory.hpp:77] Creating layer inception_4c/output_inception_4c/output_0_split
I0403 19:35:02.132403  9412 net.cpp:91] Creating Layer inception_4c/output_inception_4c/output_0_split
I0403 19:35:02.132417  9412 net.cpp:425] inception_4c/output_inception_4c/output_0_split <- inception_4c/output
I0403 19:35:02.132448  9412 net.cpp:399] inception_4c/output_inception_4c/output_0_split -> inception_4c/output_inception_4c/output_0_split_0
I0403 19:35:02.132472  9412 net.cpp:399] inception_4c/output_inception_4c/output_0_split -> inception_4c/output_inception_4c/output_0_split_1
I0403 19:35:02.132493  9412 net.cpp:399] inception_4c/output_inception_4c/output_0_split -> inception_4c/output_inception_4c/output_0_split_2
I0403 19:35:02.132511  9412 net.cpp:399] inception_4c/output_inception_4c/output_0_split -> inception_4c/output_inception_4c/output_0_split_3
I0403 19:35:02.132593  9412 net.cpp:141] Setting up inception_4c/output_inception_4c/output_0_split
I0403 19:35:02.132616  9412 net.cpp:148] Top shape: 24 512 14 14 (2408448)
I0403 19:35:02.132632  9412 net.cpp:148] Top shape: 24 512 14 14 (2408448)
I0403 19:35:02.132647  9412 net.cpp:148] Top shape: 24 512 14 14 (2408448)
I0403 19:35:02.132663  9412 net.cpp:148] Top shape: 24 512 14 14 (2408448)
I0403 19:35:02.132674  9412 net.cpp:156] Memory required for data: 1111182624
I0403 19:35:02.132689  9412 layer_factory.hpp:77] Creating layer inception_4d/1x1
I0403 19:35:02.132711  9412 net.cpp:91] Creating Layer inception_4d/1x1
I0403 19:35:02.132730  9412 net.cpp:425] inception_4d/1x1 <- inception_4c/output_inception_4c/output_0_split_0
I0403 19:35:02.132747  9412 net.cpp:399] inception_4d/1x1 -> inception_4d/1x1
I0403 19:35:02.134080  9412 net.cpp:141] Setting up inception_4d/1x1
I0403 19:35:02.134107  9412 net.cpp:148] Top shape: 24 112 14 14 (526848)
I0403 19:35:02.134122  9412 net.cpp:156] Memory required for data: 1113290016
I0403 19:35:02.134140  9412 layer_factory.hpp:77] Creating layer inception_4d/relu_1x1
I0403 19:35:02.134160  9412 net.cpp:91] Creating Layer inception_4d/relu_1x1
I0403 19:35:02.134176  9412 net.cpp:425] inception_4d/relu_1x1 <- inception_4d/1x1
I0403 19:35:02.134193  9412 net.cpp:386] inception_4d/relu_1x1 -> inception_4d/1x1 (in-place)
I0403 19:35:02.134372  9412 net.cpp:141] Setting up inception_4d/relu_1x1
I0403 19:35:02.134397  9412 net.cpp:148] Top shape: 24 112 14 14 (526848)
I0403 19:35:02.134410  9412 net.cpp:156] Memory required for data: 1115397408
I0403 19:35:02.134424  9412 layer_factory.hpp:77] Creating layer inception_4d/3x3_reduce
I0403 19:35:02.134465  9412 net.cpp:91] Creating Layer inception_4d/3x3_reduce
I0403 19:35:02.134485  9412 net.cpp:425] inception_4d/3x3_reduce <- inception_4c/output_inception_4c/output_0_split_1
I0403 19:35:02.134507  9412 net.cpp:399] inception_4d/3x3_reduce -> inception_4d/3x3_reduce
I0403 19:35:02.135995  9412 net.cpp:141] Setting up inception_4d/3x3_reduce
I0403 19:35:02.136023  9412 net.cpp:148] Top shape: 24 144 14 14 (677376)
I0403 19:35:02.136039  9412 net.cpp:156] Memory required for data: 1118106912
I0403 19:35:02.136059  9412 layer_factory.hpp:77] Creating layer inception_4d/relu_3x3_reduce
I0403 19:35:02.136078  9412 net.cpp:91] Creating Layer inception_4d/relu_3x3_reduce
I0403 19:35:02.136095  9412 net.cpp:425] inception_4d/relu_3x3_reduce <- inception_4d/3x3_reduce
I0403 19:35:02.136112  9412 net.cpp:386] inception_4d/relu_3x3_reduce -> inception_4d/3x3_reduce (in-place)
I0403 19:35:02.136394  9412 net.cpp:141] Setting up inception_4d/relu_3x3_reduce
I0403 19:35:02.136421  9412 net.cpp:148] Top shape: 24 144 14 14 (677376)
I0403 19:35:02.136441  9412 net.cpp:156] Memory required for data: 1120816416
I0403 19:35:02.136456  9412 layer_factory.hpp:77] Creating layer inception_4d/3x3
I0403 19:35:02.136478  9412 net.cpp:91] Creating Layer inception_4d/3x3
I0403 19:35:02.136497  9412 net.cpp:425] inception_4d/3x3 <- inception_4d/3x3_reduce
I0403 19:35:02.136518  9412 net.cpp:399] inception_4d/3x3 -> inception_4d/3x3
I0403 19:35:02.140661  9412 net.cpp:141] Setting up inception_4d/3x3
I0403 19:35:02.140693  9412 net.cpp:148] Top shape: 24 288 14 14 (1354752)
I0403 19:35:02.140708  9412 net.cpp:156] Memory required for data: 1126235424
I0403 19:35:02.140727  9412 layer_factory.hpp:77] Creating layer inception_4d/relu_3x3
I0403 19:35:02.140745  9412 net.cpp:91] Creating Layer inception_4d/relu_3x3
I0403 19:35:02.140763  9412 net.cpp:425] inception_4d/relu_3x3 <- inception_4d/3x3
I0403 19:35:02.140780  9412 net.cpp:386] inception_4d/relu_3x3 -> inception_4d/3x3 (in-place)
I0403 19:35:02.140962  9412 net.cpp:141] Setting up inception_4d/relu_3x3
I0403 19:35:02.140987  9412 net.cpp:148] Top shape: 24 288 14 14 (1354752)
I0403 19:35:02.141001  9412 net.cpp:156] Memory required for data: 1131654432
I0403 19:35:02.141016  9412 layer_factory.hpp:77] Creating layer inception_4d/5x5_reduce
I0403 19:35:02.141038  9412 net.cpp:91] Creating Layer inception_4d/5x5_reduce
I0403 19:35:02.141054  9412 net.cpp:425] inception_4d/5x5_reduce <- inception_4c/output_inception_4c/output_0_split_2
I0403 19:35:02.141079  9412 net.cpp:399] inception_4d/5x5_reduce -> inception_4d/5x5_reduce
I0403 19:35:02.142194  9412 net.cpp:141] Setting up inception_4d/5x5_reduce
I0403 19:35:02.142223  9412 net.cpp:148] Top shape: 24 32 14 14 (150528)
I0403 19:35:02.142238  9412 net.cpp:156] Memory required for data: 1132256544
I0403 19:35:02.142256  9412 layer_factory.hpp:77] Creating layer inception_4d/relu_5x5_reduce
I0403 19:35:02.142277  9412 net.cpp:91] Creating Layer inception_4d/relu_5x5_reduce
I0403 19:35:02.142295  9412 net.cpp:425] inception_4d/relu_5x5_reduce <- inception_4d/5x5_reduce
I0403 19:35:02.142314  9412 net.cpp:386] inception_4d/relu_5x5_reduce -> inception_4d/5x5_reduce (in-place)
I0403 19:35:02.142508  9412 net.cpp:141] Setting up inception_4d/relu_5x5_reduce
I0403 19:35:02.142534  9412 net.cpp:148] Top shape: 24 32 14 14 (150528)
I0403 19:35:02.142547  9412 net.cpp:156] Memory required for data: 1132858656
I0403 19:35:02.142562  9412 layer_factory.hpp:77] Creating layer inception_4d/5x5
I0403 19:35:02.142583  9412 net.cpp:91] Creating Layer inception_4d/5x5
I0403 19:35:02.142601  9412 net.cpp:425] inception_4d/5x5 <- inception_4d/5x5_reduce
I0403 19:35:02.142623  9412 net.cpp:399] inception_4d/5x5 -> inception_4d/5x5
I0403 19:35:02.144062  9412 net.cpp:141] Setting up inception_4d/5x5
I0403 19:35:02.144091  9412 net.cpp:148] Top shape: 24 64 14 14 (301056)
I0403 19:35:02.144106  9412 net.cpp:156] Memory required for data: 1134062880
I0403 19:35:02.144126  9412 layer_factory.hpp:77] Creating layer inception_4d/relu_5x5
I0403 19:35:02.144158  9412 net.cpp:91] Creating Layer inception_4d/relu_5x5
I0403 19:35:02.144176  9412 net.cpp:425] inception_4d/relu_5x5 <- inception_4d/5x5
I0403 19:35:02.144196  9412 net.cpp:386] inception_4d/relu_5x5 -> inception_4d/5x5 (in-place)
I0403 19:35:02.144497  9412 net.cpp:141] Setting up inception_4d/relu_5x5
I0403 19:35:02.144525  9412 net.cpp:148] Top shape: 24 64 14 14 (301056)
I0403 19:35:02.144539  9412 net.cpp:156] Memory required for data: 1135267104
I0403 19:35:02.144553  9412 layer_factory.hpp:77] Creating layer inception_4d/pool
I0403 19:35:02.144572  9412 net.cpp:91] Creating Layer inception_4d/pool
I0403 19:35:02.144587  9412 net.cpp:425] inception_4d/pool <- inception_4c/output_inception_4c/output_0_split_3
I0403 19:35:02.144608  9412 net.cpp:399] inception_4d/pool -> inception_4d/pool
I0403 19:35:02.144672  9412 net.cpp:141] Setting up inception_4d/pool
I0403 19:35:02.144697  9412 net.cpp:148] Top shape: 24 512 14 14 (2408448)
I0403 19:35:02.144712  9412 net.cpp:156] Memory required for data: 1144900896
I0403 19:35:02.144726  9412 layer_factory.hpp:77] Creating layer inception_4d/pool_proj
I0403 19:35:02.144752  9412 net.cpp:91] Creating Layer inception_4d/pool_proj
I0403 19:35:02.144770  9412 net.cpp:425] inception_4d/pool_proj <- inception_4d/pool
I0403 19:35:02.144790  9412 net.cpp:399] inception_4d/pool_proj -> inception_4d/pool_proj
I0403 19:35:02.146527  9412 net.cpp:141] Setting up inception_4d/pool_proj
I0403 19:35:02.146558  9412 net.cpp:148] Top shape: 24 64 14 14 (301056)
I0403 19:35:02.146574  9412 net.cpp:156] Memory required for data: 1146105120
I0403 19:35:02.146592  9412 layer_factory.hpp:77] Creating layer inception_4d/relu_pool_proj
I0403 19:35:02.146610  9412 net.cpp:91] Creating Layer inception_4d/relu_pool_proj
I0403 19:35:02.146626  9412 net.cpp:425] inception_4d/relu_pool_proj <- inception_4d/pool_proj
I0403 19:35:02.146642  9412 net.cpp:386] inception_4d/relu_pool_proj -> inception_4d/pool_proj (in-place)
I0403 19:35:02.146824  9412 net.cpp:141] Setting up inception_4d/relu_pool_proj
I0403 19:35:02.146849  9412 net.cpp:148] Top shape: 24 64 14 14 (301056)
I0403 19:35:02.146865  9412 net.cpp:156] Memory required for data: 1147309344
I0403 19:35:02.146880  9412 layer_factory.hpp:77] Creating layer inception_4d/output
I0403 19:35:02.146898  9412 net.cpp:91] Creating Layer inception_4d/output
I0403 19:35:02.146913  9412 net.cpp:425] inception_4d/output <- inception_4d/1x1
I0403 19:35:02.147079  9412 net.cpp:425] inception_4d/output <- inception_4d/3x3
I0403 19:35:02.147104  9412 net.cpp:425] inception_4d/output <- inception_4d/5x5
I0403 19:35:02.147120  9412 net.cpp:425] inception_4d/output <- inception_4d/pool_proj
I0403 19:35:02.147140  9412 net.cpp:399] inception_4d/output -> inception_4d/output
I0403 19:35:02.147188  9412 net.cpp:141] Setting up inception_4d/output
I0403 19:35:02.147212  9412 net.cpp:148] Top shape: 24 528 14 14 (2483712)
I0403 19:35:02.147228  9412 net.cpp:156] Memory required for data: 1157244192
I0403 19:35:02.147241  9412 layer_factory.hpp:77] Creating layer inception_4d/output_inception_4d/output_0_split
I0403 19:35:02.147263  9412 net.cpp:91] Creating Layer inception_4d/output_inception_4d/output_0_split
I0403 19:35:02.147279  9412 net.cpp:425] inception_4d/output_inception_4d/output_0_split <- inception_4d/output
I0403 19:35:02.147300  9412 net.cpp:399] inception_4d/output_inception_4d/output_0_split -> inception_4d/output_inception_4d/output_0_split_0
I0403 19:35:02.147322  9412 net.cpp:399] inception_4d/output_inception_4d/output_0_split -> inception_4d/output_inception_4d/output_0_split_1
I0403 19:35:02.147343  9412 net.cpp:399] inception_4d/output_inception_4d/output_0_split -> inception_4d/output_inception_4d/output_0_split_2
I0403 19:35:02.147363  9412 net.cpp:399] inception_4d/output_inception_4d/output_0_split -> inception_4d/output_inception_4d/output_0_split_3
I0403 19:35:02.147382  9412 net.cpp:399] inception_4d/output_inception_4d/output_0_split -> inception_4d/output_inception_4d/output_0_split_4
I0403 19:35:02.147490  9412 net.cpp:141] Setting up inception_4d/output_inception_4d/output_0_split
I0403 19:35:02.147526  9412 net.cpp:148] Top shape: 24 528 14 14 (2483712)
I0403 19:35:02.147543  9412 net.cpp:148] Top shape: 24 528 14 14 (2483712)
I0403 19:35:02.147559  9412 net.cpp:148] Top shape: 24 528 14 14 (2483712)
I0403 19:35:02.147575  9412 net.cpp:148] Top shape: 24 528 14 14 (2483712)
I0403 19:35:02.147590  9412 net.cpp:148] Top shape: 24 528 14 14 (2483712)
I0403 19:35:02.147604  9412 net.cpp:156] Memory required for data: 1206918432
I0403 19:35:02.147619  9412 layer_factory.hpp:77] Creating layer loss2/ave_pool
I0403 19:35:02.147639  9412 net.cpp:91] Creating Layer loss2/ave_pool
I0403 19:35:02.147656  9412 net.cpp:425] loss2/ave_pool <- inception_4d/output_inception_4d/output_0_split_0
I0403 19:35:02.147675  9412 net.cpp:399] loss2/ave_pool -> loss2/ave_pool
I0403 19:35:02.147982  9412 net.cpp:141] Setting up loss2/ave_pool
I0403 19:35:02.148011  9412 net.cpp:148] Top shape: 24 528 4 4 (202752)
I0403 19:35:02.148035  9412 net.cpp:156] Memory required for data: 1207729440
I0403 19:35:02.148049  9412 layer_factory.hpp:77] Creating layer loss2/conv
I0403 19:35:02.148072  9412 net.cpp:91] Creating Layer loss2/conv
I0403 19:35:02.148088  9412 net.cpp:425] loss2/conv <- loss2/ave_pool
I0403 19:35:02.148113  9412 net.cpp:399] loss2/conv -> loss2/conv
I0403 19:35:02.149989  9412 net.cpp:141] Setting up loss2/conv
I0403 19:35:02.150019  9412 net.cpp:148] Top shape: 24 128 4 4 (49152)
I0403 19:35:02.150034  9412 net.cpp:156] Memory required for data: 1207926048
I0403 19:35:02.150053  9412 layer_factory.hpp:77] Creating layer loss2/relu_conv
I0403 19:35:02.150073  9412 net.cpp:91] Creating Layer loss2/relu_conv
I0403 19:35:02.150089  9412 net.cpp:425] loss2/relu_conv <- loss2/conv
I0403 19:35:02.150107  9412 net.cpp:386] loss2/relu_conv -> loss2/conv (in-place)
I0403 19:35:02.150385  9412 net.cpp:141] Setting up loss2/relu_conv
I0403 19:35:02.150411  9412 net.cpp:148] Top shape: 24 128 4 4 (49152)
I0403 19:35:02.150426  9412 net.cpp:156] Memory required for data: 1208122656
I0403 19:35:02.150446  9412 layer_factory.hpp:77] Creating layer loss2/fc
I0403 19:35:02.150468  9412 net.cpp:91] Creating Layer loss2/fc
I0403 19:35:02.150486  9412 net.cpp:425] loss2/fc <- loss2/conv
I0403 19:35:02.150506  9412 net.cpp:399] loss2/fc -> loss2/fc
I0403 19:35:02.167299  9412 net.cpp:141] Setting up loss2/fc
I0403 19:35:02.167333  9412 net.cpp:148] Top shape: 24 1024 (24576)
I0403 19:35:02.167348  9412 net.cpp:156] Memory required for data: 1208220960
I0403 19:35:02.167367  9412 layer_factory.hpp:77] Creating layer loss2/relu_fc
I0403 19:35:02.167387  9412 net.cpp:91] Creating Layer loss2/relu_fc
I0403 19:35:02.167403  9412 net.cpp:425] loss2/relu_fc <- loss2/fc
I0403 19:35:02.167423  9412 net.cpp:386] loss2/relu_fc -> loss2/fc (in-place)
I0403 19:35:02.167709  9412 net.cpp:141] Setting up loss2/relu_fc
I0403 19:35:02.167738  9412 net.cpp:148] Top shape: 24 1024 (24576)
I0403 19:35:02.167753  9412 net.cpp:156] Memory required for data: 1208319264
I0403 19:35:02.167769  9412 layer_factory.hpp:77] Creating layer loss2/drop_fc
I0403 19:35:02.167788  9412 net.cpp:91] Creating Layer loss2/drop_fc
I0403 19:35:02.167803  9412 net.cpp:425] loss2/drop_fc <- loss2/fc
I0403 19:35:02.167822  9412 net.cpp:386] loss2/drop_fc -> loss2/fc (in-place)
I0403 19:35:02.167870  9412 net.cpp:141] Setting up loss2/drop_fc
I0403 19:35:02.167893  9412 net.cpp:148] Top shape: 24 1024 (24576)
I0403 19:35:02.167906  9412 net.cpp:156] Memory required for data: 1208417568
I0403 19:35:02.167920  9412 layer_factory.hpp:77] Creating layer loss2/classifier_plantvillage
I0403 19:35:02.167943  9412 net.cpp:91] Creating Layer loss2/classifier_plantvillage
I0403 19:35:02.167959  9412 net.cpp:425] loss2/classifier_plantvillage <- loss2/fc
I0403 19:35:02.167979  9412 net.cpp:399] loss2/classifier_plantvillage -> loss2/classifier_plantvillage
I0403 19:35:02.168372  9412 net.cpp:141] Setting up loss2/classifier_plantvillage
I0403 19:35:02.168397  9412 net.cpp:148] Top shape: 24 38 (912)
I0403 19:35:02.168411  9412 net.cpp:156] Memory required for data: 1208421216
I0403 19:35:02.168448  9412 layer_factory.hpp:77] Creating layer loss2/classifier_plantvillage_loss2/classifier_plantvillage_0_split
I0403 19:35:02.168467  9412 net.cpp:91] Creating Layer loss2/classifier_plantvillage_loss2/classifier_plantvillage_0_split
I0403 19:35:02.168485  9412 net.cpp:425] loss2/classifier_plantvillage_loss2/classifier_plantvillage_0_split <- loss2/classifier_plantvillage
I0403 19:35:02.168503  9412 net.cpp:399] loss2/classifier_plantvillage_loss2/classifier_plantvillage_0_split -> loss2/classifier_plantvillage_loss2/classifier_plantvillage_0_split_0
I0403 19:35:02.168522  9412 net.cpp:399] loss2/classifier_plantvillage_loss2/classifier_plantvillage_0_split -> loss2/classifier_plantvillage_loss2/classifier_plantvillage_0_split_1
I0403 19:35:02.168541  9412 net.cpp:399] loss2/classifier_plantvillage_loss2/classifier_plantvillage_0_split -> loss2/classifier_plantvillage_loss2/classifier_plantvillage_0_split_2
I0403 19:35:02.168618  9412 net.cpp:141] Setting up loss2/classifier_plantvillage_loss2/classifier_plantvillage_0_split
I0403 19:35:02.168642  9412 net.cpp:148] Top shape: 24 38 (912)
I0403 19:35:02.168658  9412 net.cpp:148] Top shape: 24 38 (912)
I0403 19:35:02.168673  9412 net.cpp:148] Top shape: 24 38 (912)
I0403 19:35:02.168686  9412 net.cpp:156] Memory required for data: 1208432160
I0403 19:35:02.168700  9412 layer_factory.hpp:77] Creating layer inception_4e/1x1
I0403 19:35:02.168720  9412 net.cpp:91] Creating Layer inception_4e/1x1
I0403 19:35:02.168735  9412 net.cpp:425] inception_4e/1x1 <- inception_4d/output_inception_4d/output_0_split_1
I0403 19:35:02.168756  9412 net.cpp:399] inception_4e/1x1 -> inception_4e/1x1
I0403 19:35:02.170481  9412 net.cpp:141] Setting up inception_4e/1x1
I0403 19:35:02.170508  9412 net.cpp:148] Top shape: 24 256 14 14 (1204224)
I0403 19:35:02.170523  9412 net.cpp:156] Memory required for data: 1213249056
I0403 19:35:02.170541  9412 layer_factory.hpp:77] Creating layer inception_4e/relu_1x1
I0403 19:35:02.170560  9412 net.cpp:91] Creating Layer inception_4e/relu_1x1
I0403 19:35:02.170577  9412 net.cpp:425] inception_4e/relu_1x1 <- inception_4e/1x1
I0403 19:35:02.170594  9412 net.cpp:386] inception_4e/relu_1x1 -> inception_4e/1x1 (in-place)
I0403 19:35:02.170873  9412 net.cpp:141] Setting up inception_4e/relu_1x1
I0403 19:35:02.170899  9412 net.cpp:148] Top shape: 24 256 14 14 (1204224)
I0403 19:35:02.170914  9412 net.cpp:156] Memory required for data: 1218065952
I0403 19:35:02.170928  9412 layer_factory.hpp:77] Creating layer inception_4e/3x3_reduce
I0403 19:35:02.170953  9412 net.cpp:91] Creating Layer inception_4e/3x3_reduce
I0403 19:35:02.170971  9412 net.cpp:425] inception_4e/3x3_reduce <- inception_4d/output_inception_4d/output_0_split_2
I0403 19:35:02.170991  9412 net.cpp:399] inception_4e/3x3_reduce -> inception_4e/3x3_reduce
I0403 19:35:02.173008  9412 net.cpp:141] Setting up inception_4e/3x3_reduce
I0403 19:35:02.173038  9412 net.cpp:148] Top shape: 24 160 14 14 (752640)
I0403 19:35:02.173054  9412 net.cpp:156] Memory required for data: 1221076512
I0403 19:35:02.173072  9412 layer_factory.hpp:77] Creating layer inception_4e/relu_3x3_reduce
I0403 19:35:02.173089  9412 net.cpp:91] Creating Layer inception_4e/relu_3x3_reduce
I0403 19:35:02.173105  9412 net.cpp:425] inception_4e/relu_3x3_reduce <- inception_4e/3x3_reduce
I0403 19:35:02.173125  9412 net.cpp:386] inception_4e/relu_3x3_reduce -> inception_4e/3x3_reduce (in-place)
I0403 19:35:02.173301  9412 net.cpp:141] Setting up inception_4e/relu_3x3_reduce
I0403 19:35:02.173326  9412 net.cpp:148] Top shape: 24 160 14 14 (752640)
I0403 19:35:02.173339  9412 net.cpp:156] Memory required for data: 1224087072
I0403 19:35:02.173354  9412 layer_factory.hpp:77] Creating layer inception_4e/3x3
I0403 19:35:02.173375  9412 net.cpp:91] Creating Layer inception_4e/3x3
I0403 19:35:02.173398  9412 net.cpp:425] inception_4e/3x3 <- inception_4e/3x3_reduce
I0403 19:35:02.173419  9412 net.cpp:399] inception_4e/3x3 -> inception_4e/3x3
I0403 19:35:02.178195  9412 net.cpp:141] Setting up inception_4e/3x3
I0403 19:35:02.178236  9412 net.cpp:148] Top shape: 24 320 14 14 (1505280)
I0403 19:35:02.178252  9412 net.cpp:156] Memory required for data: 1230108192
I0403 19:35:02.178270  9412 layer_factory.hpp:77] Creating layer inception_4e/relu_3x3
I0403 19:35:02.178289  9412 net.cpp:91] Creating Layer inception_4e/relu_3x3
I0403 19:35:02.178308  9412 net.cpp:425] inception_4e/relu_3x3 <- inception_4e/3x3
I0403 19:35:02.178324  9412 net.cpp:386] inception_4e/relu_3x3 -> inception_4e/3x3 (in-place)
I0403 19:35:02.178614  9412 net.cpp:141] Setting up inception_4e/relu_3x3
I0403 19:35:02.178640  9412 net.cpp:148] Top shape: 24 320 14 14 (1505280)
I0403 19:35:02.178659  9412 net.cpp:156] Memory required for data: 1236129312
I0403 19:35:02.178674  9412 layer_factory.hpp:77] Creating layer inception_4e/5x5_reduce
I0403 19:35:02.178699  9412 net.cpp:91] Creating Layer inception_4e/5x5_reduce
I0403 19:35:02.178716  9412 net.cpp:425] inception_4e/5x5_reduce <- inception_4d/output_inception_4d/output_0_split_3
I0403 19:35:02.178735  9412 net.cpp:399] inception_4e/5x5_reduce -> inception_4e/5x5_reduce
I0403 19:35:02.179761  9412 net.cpp:141] Setting up inception_4e/5x5_reduce
I0403 19:35:02.179790  9412 net.cpp:148] Top shape: 24 32 14 14 (150528)
I0403 19:35:02.179805  9412 net.cpp:156] Memory required for data: 1236731424
I0403 19:35:02.179821  9412 layer_factory.hpp:77] Creating layer inception_4e/relu_5x5_reduce
I0403 19:35:02.179839  9412 net.cpp:91] Creating Layer inception_4e/relu_5x5_reduce
I0403 19:35:02.179855  9412 net.cpp:425] inception_4e/relu_5x5_reduce <- inception_4e/5x5_reduce
I0403 19:35:02.179874  9412 net.cpp:386] inception_4e/relu_5x5_reduce -> inception_4e/5x5_reduce (in-place)
I0403 19:35:02.180162  9412 net.cpp:141] Setting up inception_4e/relu_5x5_reduce
I0403 19:35:02.180189  9412 net.cpp:148] Top shape: 24 32 14 14 (150528)
I0403 19:35:02.180212  9412 net.cpp:156] Memory required for data: 1237333536
I0403 19:35:02.180227  9412 layer_factory.hpp:77] Creating layer inception_4e/5x5
I0403 19:35:02.180261  9412 net.cpp:91] Creating Layer inception_4e/5x5
I0403 19:35:02.180280  9412 net.cpp:425] inception_4e/5x5 <- inception_4e/5x5_reduce
I0403 19:35:02.180299  9412 net.cpp:399] inception_4e/5x5 -> inception_4e/5x5
I0403 19:35:02.182059  9412 net.cpp:141] Setting up inception_4e/5x5
I0403 19:35:02.182088  9412 net.cpp:148] Top shape: 24 128 14 14 (602112)
I0403 19:35:02.182103  9412 net.cpp:156] Memory required for data: 1239741984
I0403 19:35:02.182122  9412 layer_factory.hpp:77] Creating layer inception_4e/relu_5x5
I0403 19:35:02.182139  9412 net.cpp:91] Creating Layer inception_4e/relu_5x5
I0403 19:35:02.182154  9412 net.cpp:425] inception_4e/relu_5x5 <- inception_4e/5x5
I0403 19:35:02.182173  9412 net.cpp:386] inception_4e/relu_5x5 -> inception_4e/5x5 (in-place)
I0403 19:35:02.182363  9412 net.cpp:141] Setting up inception_4e/relu_5x5
I0403 19:35:02.182389  9412 net.cpp:148] Top shape: 24 128 14 14 (602112)
I0403 19:35:02.182404  9412 net.cpp:156] Memory required for data: 1242150432
I0403 19:35:02.182417  9412 layer_factory.hpp:77] Creating layer inception_4e/pool
I0403 19:35:02.182446  9412 net.cpp:91] Creating Layer inception_4e/pool
I0403 19:35:02.182464  9412 net.cpp:425] inception_4e/pool <- inception_4d/output_inception_4d/output_0_split_4
I0403 19:35:02.182485  9412 net.cpp:399] inception_4e/pool -> inception_4e/pool
I0403 19:35:02.182554  9412 net.cpp:141] Setting up inception_4e/pool
I0403 19:35:02.182577  9412 net.cpp:148] Top shape: 24 528 14 14 (2483712)
I0403 19:35:02.182592  9412 net.cpp:156] Memory required for data: 1252085280
I0403 19:35:02.182606  9412 layer_factory.hpp:77] Creating layer inception_4e/pool_proj
I0403 19:35:02.182626  9412 net.cpp:91] Creating Layer inception_4e/pool_proj
I0403 19:35:02.182643  9412 net.cpp:425] inception_4e/pool_proj <- inception_4e/pool
I0403 19:35:02.182662  9412 net.cpp:399] inception_4e/pool_proj -> inception_4e/pool_proj
I0403 19:35:02.184083  9412 net.cpp:141] Setting up inception_4e/pool_proj
I0403 19:35:02.184113  9412 net.cpp:148] Top shape: 24 128 14 14 (602112)
I0403 19:35:02.184151  9412 net.cpp:156] Memory required for data: 1254493728
I0403 19:35:02.184170  9412 layer_factory.hpp:77] Creating layer inception_4e/relu_pool_proj
I0403 19:35:02.184190  9412 net.cpp:91] Creating Layer inception_4e/relu_pool_proj
I0403 19:35:02.184213  9412 net.cpp:425] inception_4e/relu_pool_proj <- inception_4e/pool_proj
I0403 19:35:02.184231  9412 net.cpp:386] inception_4e/relu_pool_proj -> inception_4e/pool_proj (in-place)
I0403 19:35:02.184519  9412 net.cpp:141] Setting up inception_4e/relu_pool_proj
I0403 19:35:02.184546  9412 net.cpp:148] Top shape: 24 128 14 14 (602112)
I0403 19:35:02.184561  9412 net.cpp:156] Memory required for data: 1256902176
I0403 19:35:02.184576  9412 layer_factory.hpp:77] Creating layer inception_4e/output
I0403 19:35:02.184593  9412 net.cpp:91] Creating Layer inception_4e/output
I0403 19:35:02.184608  9412 net.cpp:425] inception_4e/output <- inception_4e/1x1
I0403 19:35:02.184624  9412 net.cpp:425] inception_4e/output <- inception_4e/3x3
I0403 19:35:02.184640  9412 net.cpp:425] inception_4e/output <- inception_4e/5x5
I0403 19:35:02.184655  9412 net.cpp:425] inception_4e/output <- inception_4e/pool_proj
I0403 19:35:02.184671  9412 net.cpp:399] inception_4e/output -> inception_4e/output
I0403 19:35:02.184718  9412 net.cpp:141] Setting up inception_4e/output
I0403 19:35:02.184751  9412 net.cpp:148] Top shape: 24 832 14 14 (3913728)
I0403 19:35:02.184765  9412 net.cpp:156] Memory required for data: 1272557088
I0403 19:35:02.184779  9412 layer_factory.hpp:77] Creating layer pool4/3x3_s2
I0403 19:35:02.184799  9412 net.cpp:91] Creating Layer pool4/3x3_s2
I0403 19:35:02.184815  9412 net.cpp:425] pool4/3x3_s2 <- inception_4e/output
I0403 19:35:02.184834  9412 net.cpp:399] pool4/3x3_s2 -> pool4/3x3_s2
I0403 19:35:02.184897  9412 net.cpp:141] Setting up pool4/3x3_s2
I0403 19:35:02.184921  9412 net.cpp:148] Top shape: 24 832 7 7 (978432)
I0403 19:35:02.184937  9412 net.cpp:156] Memory required for data: 1276470816
I0403 19:35:02.184952  9412 layer_factory.hpp:77] Creating layer pool4/3x3_s2_pool4/3x3_s2_0_split
I0403 19:35:02.184968  9412 net.cpp:91] Creating Layer pool4/3x3_s2_pool4/3x3_s2_0_split
I0403 19:35:02.184983  9412 net.cpp:425] pool4/3x3_s2_pool4/3x3_s2_0_split <- pool4/3x3_s2
I0403 19:35:02.185001  9412 net.cpp:399] pool4/3x3_s2_pool4/3x3_s2_0_split -> pool4/3x3_s2_pool4/3x3_s2_0_split_0
I0403 19:35:02.185021  9412 net.cpp:399] pool4/3x3_s2_pool4/3x3_s2_0_split -> pool4/3x3_s2_pool4/3x3_s2_0_split_1
I0403 19:35:02.185041  9412 net.cpp:399] pool4/3x3_s2_pool4/3x3_s2_0_split -> pool4/3x3_s2_pool4/3x3_s2_0_split_2
I0403 19:35:02.185060  9412 net.cpp:399] pool4/3x3_s2_pool4/3x3_s2_0_split -> pool4/3x3_s2_pool4/3x3_s2_0_split_3
I0403 19:35:02.185148  9412 net.cpp:141] Setting up pool4/3x3_s2_pool4/3x3_s2_0_split
I0403 19:35:02.185171  9412 net.cpp:148] Top shape: 24 832 7 7 (978432)
I0403 19:35:02.185189  9412 net.cpp:148] Top shape: 24 832 7 7 (978432)
I0403 19:35:02.185205  9412 net.cpp:148] Top shape: 24 832 7 7 (978432)
I0403 19:35:02.185220  9412 net.cpp:148] Top shape: 24 832 7 7 (978432)
I0403 19:35:02.185235  9412 net.cpp:156] Memory required for data: 1292125728
I0403 19:35:02.185250  9412 layer_factory.hpp:77] Creating layer inception_5a/1x1
I0403 19:35:02.185271  9412 net.cpp:91] Creating Layer inception_5a/1x1
I0403 19:35:02.185287  9412 net.cpp:425] inception_5a/1x1 <- pool4/3x3_s2_pool4/3x3_s2_0_split_0
I0403 19:35:02.185305  9412 net.cpp:399] inception_5a/1x1 -> inception_5a/1x1
I0403 19:35:02.188122  9412 net.cpp:141] Setting up inception_5a/1x1
I0403 19:35:02.188153  9412 net.cpp:148] Top shape: 24 256 7 7 (301056)
I0403 19:35:02.188169  9412 net.cpp:156] Memory required for data: 1293329952
I0403 19:35:02.188190  9412 layer_factory.hpp:77] Creating layer inception_5a/relu_1x1
I0403 19:35:02.188208  9412 net.cpp:91] Creating Layer inception_5a/relu_1x1
I0403 19:35:02.188225  9412 net.cpp:425] inception_5a/relu_1x1 <- inception_5a/1x1
I0403 19:35:02.188244  9412 net.cpp:386] inception_5a/relu_1x1 -> inception_5a/1x1 (in-place)
I0403 19:35:02.188555  9412 net.cpp:141] Setting up inception_5a/relu_1x1
I0403 19:35:02.188583  9412 net.cpp:148] Top shape: 24 256 7 7 (301056)
I0403 19:35:02.188601  9412 net.cpp:156] Memory required for data: 1294534176
I0403 19:35:02.188616  9412 layer_factory.hpp:77] Creating layer inception_5a/3x3_reduce
I0403 19:35:02.188637  9412 net.cpp:91] Creating Layer inception_5a/3x3_reduce
I0403 19:35:02.188654  9412 net.cpp:425] inception_5a/3x3_reduce <- pool4/3x3_s2_pool4/3x3_s2_0_split_1
I0403 19:35:02.188673  9412 net.cpp:399] inception_5a/3x3_reduce -> inception_5a/3x3_reduce
I0403 19:35:02.191094  9412 net.cpp:141] Setting up inception_5a/3x3_reduce
I0403 19:35:02.191123  9412 net.cpp:148] Top shape: 24 160 7 7 (188160)
I0403 19:35:02.191138  9412 net.cpp:156] Memory required for data: 1295286816
I0403 19:35:02.191156  9412 layer_factory.hpp:77] Creating layer inception_5a/relu_3x3_reduce
I0403 19:35:02.191177  9412 net.cpp:91] Creating Layer inception_5a/relu_3x3_reduce
I0403 19:35:02.191195  9412 net.cpp:425] inception_5a/relu_3x3_reduce <- inception_5a/3x3_reduce
I0403 19:35:02.191211  9412 net.cpp:386] inception_5a/relu_3x3_reduce -> inception_5a/3x3_reduce (in-place)
I0403 19:35:02.191397  9412 net.cpp:141] Setting up inception_5a/relu_3x3_reduce
I0403 19:35:02.191423  9412 net.cpp:148] Top shape: 24 160 7 7 (188160)
I0403 19:35:02.191443  9412 net.cpp:156] Memory required for data: 1296039456
I0403 19:35:02.191458  9412 layer_factory.hpp:77] Creating layer inception_5a/3x3
I0403 19:35:02.191481  9412 net.cpp:91] Creating Layer inception_5a/3x3
I0403 19:35:02.191499  9412 net.cpp:425] inception_5a/3x3 <- inception_5a/3x3_reduce
I0403 19:35:02.191519  9412 net.cpp:399] inception_5a/3x3 -> inception_5a/3x3
I0403 19:35:02.196444  9412 net.cpp:141] Setting up inception_5a/3x3
I0403 19:35:02.196475  9412 net.cpp:148] Top shape: 24 320 7 7 (376320)
I0403 19:35:02.196490  9412 net.cpp:156] Memory required for data: 1297544736
I0403 19:35:02.196507  9412 layer_factory.hpp:77] Creating layer inception_5a/relu_3x3
I0403 19:35:02.196526  9412 net.cpp:91] Creating Layer inception_5a/relu_3x3
I0403 19:35:02.196540  9412 net.cpp:425] inception_5a/relu_3x3 <- inception_5a/3x3
I0403 19:35:02.196559  9412 net.cpp:386] inception_5a/relu_3x3 -> inception_5a/3x3 (in-place)
I0403 19:35:02.196851  9412 net.cpp:141] Setting up inception_5a/relu_3x3
I0403 19:35:02.196877  9412 net.cpp:148] Top shape: 24 320 7 7 (376320)
I0403 19:35:02.196892  9412 net.cpp:156] Memory required for data: 1299050016
I0403 19:35:02.196907  9412 layer_factory.hpp:77] Creating layer inception_5a/5x5_reduce
I0403 19:35:02.196930  9412 net.cpp:91] Creating Layer inception_5a/5x5_reduce
I0403 19:35:02.196949  9412 net.cpp:425] inception_5a/5x5_reduce <- pool4/3x3_s2_pool4/3x3_s2_0_split_2
I0403 19:35:02.196970  9412 net.cpp:399] inception_5a/5x5_reduce -> inception_5a/5x5_reduce
I0403 19:35:02.198118  9412 net.cpp:141] Setting up inception_5a/5x5_reduce
I0403 19:35:02.198151  9412 net.cpp:148] Top shape: 24 32 7 7 (37632)
I0403 19:35:02.198168  9412 net.cpp:156] Memory required for data: 1299200544
I0403 19:35:02.198189  9412 layer_factory.hpp:77] Creating layer inception_5a/relu_5x5_reduce
I0403 19:35:02.198205  9412 net.cpp:91] Creating Layer inception_5a/relu_5x5_reduce
I0403 19:35:02.198225  9412 net.cpp:425] inception_5a/relu_5x5_reduce <- inception_5a/5x5_reduce
I0403 19:35:02.198241  9412 net.cpp:386] inception_5a/relu_5x5_reduce -> inception_5a/5x5_reduce (in-place)
I0403 19:35:02.198539  9412 net.cpp:141] Setting up inception_5a/relu_5x5_reduce
I0403 19:35:02.198565  9412 net.cpp:148] Top shape: 24 32 7 7 (37632)
I0403 19:35:02.198581  9412 net.cpp:156] Memory required for data: 1299351072
I0403 19:35:02.198596  9412 layer_factory.hpp:77] Creating layer inception_5a/5x5
I0403 19:35:02.198618  9412 net.cpp:91] Creating Layer inception_5a/5x5
I0403 19:35:02.198637  9412 net.cpp:425] inception_5a/5x5 <- inception_5a/5x5_reduce
I0403 19:35:02.198657  9412 net.cpp:399] inception_5a/5x5 -> inception_5a/5x5
I0403 19:35:02.200376  9412 net.cpp:141] Setting up inception_5a/5x5
I0403 19:35:02.200417  9412 net.cpp:148] Top shape: 24 128 7 7 (150528)
I0403 19:35:02.200439  9412 net.cpp:156] Memory required for data: 1299953184
I0403 19:35:02.200459  9412 layer_factory.hpp:77] Creating layer inception_5a/relu_5x5
I0403 19:35:02.200475  9412 net.cpp:91] Creating Layer inception_5a/relu_5x5
I0403 19:35:02.200491  9412 net.cpp:425] inception_5a/relu_5x5 <- inception_5a/5x5
I0403 19:35:02.200512  9412 net.cpp:386] inception_5a/relu_5x5 -> inception_5a/5x5 (in-place)
I0403 19:35:02.200702  9412 net.cpp:141] Setting up inception_5a/relu_5x5
I0403 19:35:02.200727  9412 net.cpp:148] Top shape: 24 128 7 7 (150528)
I0403 19:35:02.200742  9412 net.cpp:156] Memory required for data: 1300555296
I0403 19:35:02.200757  9412 layer_factory.hpp:77] Creating layer inception_5a/pool
I0403 19:35:02.200776  9412 net.cpp:91] Creating Layer inception_5a/pool
I0403 19:35:02.200793  9412 net.cpp:425] inception_5a/pool <- pool4/3x3_s2_pool4/3x3_s2_0_split_3
I0403 19:35:02.200810  9412 net.cpp:399] inception_5a/pool -> inception_5a/pool
I0403 19:35:02.200881  9412 net.cpp:141] Setting up inception_5a/pool
I0403 19:35:02.200904  9412 net.cpp:148] Top shape: 24 832 7 7 (978432)
I0403 19:35:02.200919  9412 net.cpp:156] Memory required for data: 1304469024
I0403 19:35:02.200934  9412 layer_factory.hpp:77] Creating layer inception_5a/pool_proj
I0403 19:35:02.200955  9412 net.cpp:91] Creating Layer inception_5a/pool_proj
I0403 19:35:02.200973  9412 net.cpp:425] inception_5a/pool_proj <- inception_5a/pool
I0403 19:35:02.200994  9412 net.cpp:399] inception_5a/pool_proj -> inception_5a/pool_proj
I0403 19:35:02.203248  9412 net.cpp:141] Setting up inception_5a/pool_proj
I0403 19:35:02.203280  9412 net.cpp:148] Top shape: 24 128 7 7 (150528)
I0403 19:35:02.203296  9412 net.cpp:156] Memory required for data: 1305071136
I0403 19:35:02.203315  9412 layer_factory.hpp:77] Creating layer inception_5a/relu_pool_proj
I0403 19:35:02.203332  9412 net.cpp:91] Creating Layer inception_5a/relu_pool_proj
I0403 19:35:02.203349  9412 net.cpp:425] inception_5a/relu_pool_proj <- inception_5a/pool_proj
I0403 19:35:02.203369  9412 net.cpp:386] inception_5a/relu_pool_proj -> inception_5a/pool_proj (in-place)
I0403 19:35:02.203660  9412 net.cpp:141] Setting up inception_5a/relu_pool_proj
I0403 19:35:02.203687  9412 net.cpp:148] Top shape: 24 128 7 7 (150528)
I0403 19:35:02.203703  9412 net.cpp:156] Memory required for data: 1305673248
I0403 19:35:02.203719  9412 layer_factory.hpp:77] Creating layer inception_5a/output
I0403 19:35:02.203735  9412 net.cpp:91] Creating Layer inception_5a/output
I0403 19:35:02.203752  9412 net.cpp:425] inception_5a/output <- inception_5a/1x1
I0403 19:35:02.203769  9412 net.cpp:425] inception_5a/output <- inception_5a/3x3
I0403 19:35:02.203785  9412 net.cpp:425] inception_5a/output <- inception_5a/5x5
I0403 19:35:02.203801  9412 net.cpp:425] inception_5a/output <- inception_5a/pool_proj
I0403 19:35:02.203819  9412 net.cpp:399] inception_5a/output -> inception_5a/output
I0403 19:35:02.203869  9412 net.cpp:141] Setting up inception_5a/output
I0403 19:35:02.203892  9412 net.cpp:148] Top shape: 24 832 7 7 (978432)
I0403 19:35:02.203907  9412 net.cpp:156] Memory required for data: 1309586976
I0403 19:35:02.203922  9412 layer_factory.hpp:77] Creating layer inception_5a/output_inception_5a/output_0_split
I0403 19:35:02.203951  9412 net.cpp:91] Creating Layer inception_5a/output_inception_5a/output_0_split
I0403 19:35:02.203968  9412 net.cpp:425] inception_5a/output_inception_5a/output_0_split <- inception_5a/output
I0403 19:35:02.203989  9412 net.cpp:399] inception_5a/output_inception_5a/output_0_split -> inception_5a/output_inception_5a/output_0_split_0
I0403 19:35:02.204010  9412 net.cpp:399] inception_5a/output_inception_5a/output_0_split -> inception_5a/output_inception_5a/output_0_split_1
I0403 19:35:02.204030  9412 net.cpp:399] inception_5a/output_inception_5a/output_0_split -> inception_5a/output_inception_5a/output_0_split_2
I0403 19:35:02.204054  9412 net.cpp:399] inception_5a/output_inception_5a/output_0_split -> inception_5a/output_inception_5a/output_0_split_3
I0403 19:35:02.204170  9412 net.cpp:141] Setting up inception_5a/output_inception_5a/output_0_split
I0403 19:35:02.204196  9412 net.cpp:148] Top shape: 24 832 7 7 (978432)
I0403 19:35:02.204241  9412 net.cpp:148] Top shape: 24 832 7 7 (978432)
I0403 19:35:02.204260  9412 net.cpp:148] Top shape: 24 832 7 7 (978432)
I0403 19:35:02.204277  9412 net.cpp:148] Top shape: 24 832 7 7 (978432)
I0403 19:35:02.204291  9412 net.cpp:156] Memory required for data: 1325241888
I0403 19:35:02.204306  9412 layer_factory.hpp:77] Creating layer inception_5b/1x1
I0403 19:35:02.204329  9412 net.cpp:91] Creating Layer inception_5b/1x1
I0403 19:35:02.204346  9412 net.cpp:425] inception_5b/1x1 <- inception_5a/output_inception_5a/output_0_split_0
I0403 19:35:02.204368  9412 net.cpp:399] inception_5b/1x1 -> inception_5b/1x1
I0403 19:35:02.207959  9412 net.cpp:141] Setting up inception_5b/1x1
I0403 19:35:02.207989  9412 net.cpp:148] Top shape: 24 384 7 7 (451584)
I0403 19:35:02.208008  9412 net.cpp:156] Memory required for data: 1327048224
I0403 19:35:02.208025  9412 layer_factory.hpp:77] Creating layer inception_5b/relu_1x1
I0403 19:35:02.208042  9412 net.cpp:91] Creating Layer inception_5b/relu_1x1
I0403 19:35:02.208058  9412 net.cpp:425] inception_5b/relu_1x1 <- inception_5b/1x1
I0403 19:35:02.208076  9412 net.cpp:386] inception_5b/relu_1x1 -> inception_5b/1x1 (in-place)
I0403 19:35:02.208374  9412 net.cpp:141] Setting up inception_5b/relu_1x1
I0403 19:35:02.208398  9412 net.cpp:148] Top shape: 24 384 7 7 (451584)
I0403 19:35:02.208415  9412 net.cpp:156] Memory required for data: 1328854560
I0403 19:35:02.208433  9412 layer_factory.hpp:77] Creating layer inception_5b/3x3_reduce
I0403 19:35:02.208453  9412 net.cpp:91] Creating Layer inception_5b/3x3_reduce
I0403 19:35:02.208470  9412 net.cpp:425] inception_5b/3x3_reduce <- inception_5a/output_inception_5a/output_0_split_1
I0403 19:35:02.208492  9412 net.cpp:399] inception_5b/3x3_reduce -> inception_5b/3x3_reduce
I0403 19:35:02.211027  9412 net.cpp:141] Setting up inception_5b/3x3_reduce
I0403 19:35:02.211056  9412 net.cpp:148] Top shape: 24 192 7 7 (225792)
I0403 19:35:02.211072  9412 net.cpp:156] Memory required for data: 1329757728
I0403 19:35:02.211089  9412 layer_factory.hpp:77] Creating layer inception_5b/relu_3x3_reduce
I0403 19:35:02.211109  9412 net.cpp:91] Creating Layer inception_5b/relu_3x3_reduce
I0403 19:35:02.211127  9412 net.cpp:425] inception_5b/relu_3x3_reduce <- inception_5b/3x3_reduce
I0403 19:35:02.211143  9412 net.cpp:386] inception_5b/relu_3x3_reduce -> inception_5b/3x3_reduce (in-place)
I0403 19:35:02.211324  9412 net.cpp:141] Setting up inception_5b/relu_3x3_reduce
I0403 19:35:02.211349  9412 net.cpp:148] Top shape: 24 192 7 7 (225792)
I0403 19:35:02.211362  9412 net.cpp:156] Memory required for data: 1330660896
I0403 19:35:02.211377  9412 layer_factory.hpp:77] Creating layer inception_5b/3x3
I0403 19:35:02.211398  9412 net.cpp:91] Creating Layer inception_5b/3x3
I0403 19:35:02.211416  9412 net.cpp:425] inception_5b/3x3 <- inception_5b/3x3_reduce
I0403 19:35:02.211444  9412 net.cpp:399] inception_5b/3x3 -> inception_5b/3x3
I0403 19:35:02.217857  9412 net.cpp:141] Setting up inception_5b/3x3
I0403 19:35:02.217887  9412 net.cpp:148] Top shape: 24 384 7 7 (451584)
I0403 19:35:02.217903  9412 net.cpp:156] Memory required for data: 1332467232
I0403 19:35:02.217921  9412 layer_factory.hpp:77] Creating layer inception_5b/relu_3x3
I0403 19:35:02.217939  9412 net.cpp:91] Creating Layer inception_5b/relu_3x3
I0403 19:35:02.217957  9412 net.cpp:425] inception_5b/relu_3x3 <- inception_5b/3x3
I0403 19:35:02.217975  9412 net.cpp:386] inception_5b/relu_3x3 -> inception_5b/3x3 (in-place)
I0403 19:35:02.218264  9412 net.cpp:141] Setting up inception_5b/relu_3x3
I0403 19:35:02.218292  9412 net.cpp:148] Top shape: 24 384 7 7 (451584)
I0403 19:35:02.218307  9412 net.cpp:156] Memory required for data: 1334273568
I0403 19:35:02.218322  9412 layer_factory.hpp:77] Creating layer inception_5b/5x5_reduce
I0403 19:35:02.218360  9412 net.cpp:91] Creating Layer inception_5b/5x5_reduce
I0403 19:35:02.218380  9412 net.cpp:425] inception_5b/5x5_reduce <- inception_5a/output_inception_5a/output_0_split_2
I0403 19:35:02.218400  9412 net.cpp:399] inception_5b/5x5_reduce -> inception_5b/5x5_reduce
I0403 19:35:02.219633  9412 net.cpp:141] Setting up inception_5b/5x5_reduce
I0403 19:35:02.219663  9412 net.cpp:148] Top shape: 24 48 7 7 (56448)
I0403 19:35:02.219679  9412 net.cpp:156] Memory required for data: 1334499360
I0403 19:35:02.219697  9412 layer_factory.hpp:77] Creating layer inception_5b/relu_5x5_reduce
I0403 19:35:02.219715  9412 net.cpp:91] Creating Layer inception_5b/relu_5x5_reduce
I0403 19:35:02.219732  9412 net.cpp:425] inception_5b/relu_5x5_reduce <- inception_5b/5x5_reduce
I0403 19:35:02.219749  9412 net.cpp:386] inception_5b/relu_5x5_reduce -> inception_5b/5x5_reduce (in-place)
I0403 19:35:02.220113  9412 net.cpp:141] Setting up inception_5b/relu_5x5_reduce
I0403 19:35:02.220139  9412 net.cpp:148] Top shape: 24 48 7 7 (56448)
I0403 19:35:02.220154  9412 net.cpp:156] Memory required for data: 1334725152
I0403 19:35:02.220168  9412 layer_factory.hpp:77] Creating layer inception_5b/5x5
I0403 19:35:02.220190  9412 net.cpp:91] Creating Layer inception_5b/5x5
I0403 19:35:02.220206  9412 net.cpp:425] inception_5b/5x5 <- inception_5b/5x5_reduce
I0403 19:35:02.220224  9412 net.cpp:399] inception_5b/5x5 -> inception_5b/5x5
I0403 19:35:02.222190  9412 net.cpp:141] Setting up inception_5b/5x5
I0403 19:35:02.222219  9412 net.cpp:148] Top shape: 24 128 7 7 (150528)
I0403 19:35:02.222236  9412 net.cpp:156] Memory required for data: 1335327264
I0403 19:35:02.222265  9412 layer_factory.hpp:77] Creating layer inception_5b/relu_5x5
I0403 19:35:02.222282  9412 net.cpp:91] Creating Layer inception_5b/relu_5x5
I0403 19:35:02.222298  9412 net.cpp:425] inception_5b/relu_5x5 <- inception_5b/5x5
I0403 19:35:02.222317  9412 net.cpp:386] inception_5b/relu_5x5 -> inception_5b/5x5 (in-place)
I0403 19:35:02.222514  9412 net.cpp:141] Setting up inception_5b/relu_5x5
I0403 19:35:02.222539  9412 net.cpp:148] Top shape: 24 128 7 7 (150528)
I0403 19:35:02.222553  9412 net.cpp:156] Memory required for data: 1335929376
I0403 19:35:02.222568  9412 layer_factory.hpp:77] Creating layer inception_5b/pool
I0403 19:35:02.222584  9412 net.cpp:91] Creating Layer inception_5b/pool
I0403 19:35:02.222599  9412 net.cpp:425] inception_5b/pool <- inception_5a/output_inception_5a/output_0_split_3
I0403 19:35:02.222620  9412 net.cpp:399] inception_5b/pool -> inception_5b/pool
I0403 19:35:02.222692  9412 net.cpp:141] Setting up inception_5b/pool
I0403 19:35:02.222715  9412 net.cpp:148] Top shape: 24 832 7 7 (978432)
I0403 19:35:02.222729  9412 net.cpp:156] Memory required for data: 1339843104
I0403 19:35:02.222743  9412 layer_factory.hpp:77] Creating layer inception_5b/pool_proj
I0403 19:35:02.222765  9412 net.cpp:91] Creating Layer inception_5b/pool_proj
I0403 19:35:02.222784  9412 net.cpp:425] inception_5b/pool_proj <- inception_5b/pool
I0403 19:35:02.222803  9412 net.cpp:399] inception_5b/pool_proj -> inception_5b/pool_proj
I0403 19:35:02.225075  9412 net.cpp:141] Setting up inception_5b/pool_proj
I0403 19:35:02.225106  9412 net.cpp:148] Top shape: 24 128 7 7 (150528)
I0403 19:35:02.225122  9412 net.cpp:156] Memory required for data: 1340445216
I0403 19:35:02.225141  9412 layer_factory.hpp:77] Creating layer inception_5b/relu_pool_proj
I0403 19:35:02.225157  9412 net.cpp:91] Creating Layer inception_5b/relu_pool_proj
I0403 19:35:02.225173  9412 net.cpp:425] inception_5b/relu_pool_proj <- inception_5b/pool_proj
I0403 19:35:02.225191  9412 net.cpp:386] inception_5b/relu_pool_proj -> inception_5b/pool_proj (in-place)
I0403 19:35:02.225481  9412 net.cpp:141] Setting up inception_5b/relu_pool_proj
I0403 19:35:02.225508  9412 net.cpp:148] Top shape: 24 128 7 7 (150528)
I0403 19:35:02.225524  9412 net.cpp:156] Memory required for data: 1341047328
I0403 19:35:02.225548  9412 layer_factory.hpp:77] Creating layer inception_5b/output
I0403 19:35:02.225564  9412 net.cpp:91] Creating Layer inception_5b/output
I0403 19:35:02.225594  9412 net.cpp:425] inception_5b/output <- inception_5b/1x1
I0403 19:35:02.225611  9412 net.cpp:425] inception_5b/output <- inception_5b/3x3
I0403 19:35:02.225626  9412 net.cpp:425] inception_5b/output <- inception_5b/5x5
I0403 19:35:02.225641  9412 net.cpp:425] inception_5b/output <- inception_5b/pool_proj
I0403 19:35:02.225658  9412 net.cpp:399] inception_5b/output -> inception_5b/output
I0403 19:35:02.225708  9412 net.cpp:141] Setting up inception_5b/output
I0403 19:35:02.225733  9412 net.cpp:148] Top shape: 24 1024 7 7 (1204224)
I0403 19:35:02.225747  9412 net.cpp:156] Memory required for data: 1345864224
I0403 19:35:02.225762  9412 layer_factory.hpp:77] Creating layer pool5/7x7_s1
I0403 19:35:02.225781  9412 net.cpp:91] Creating Layer pool5/7x7_s1
I0403 19:35:02.225797  9412 net.cpp:425] pool5/7x7_s1 <- inception_5b/output
I0403 19:35:02.225814  9412 net.cpp:399] pool5/7x7_s1 -> pool5/7x7_s1
I0403 19:35:02.226023  9412 net.cpp:141] Setting up pool5/7x7_s1
I0403 19:35:02.226049  9412 net.cpp:148] Top shape: 24 1024 1 1 (24576)
I0403 19:35:02.226063  9412 net.cpp:156] Memory required for data: 1345962528
I0403 19:35:02.226079  9412 layer_factory.hpp:77] Creating layer pool5/drop_7x7_s1
I0403 19:35:02.226096  9412 net.cpp:91] Creating Layer pool5/drop_7x7_s1
I0403 19:35:02.226111  9412 net.cpp:425] pool5/drop_7x7_s1 <- pool5/7x7_s1
I0403 19:35:02.226130  9412 net.cpp:386] pool5/drop_7x7_s1 -> pool5/7x7_s1 (in-place)
I0403 19:35:02.226202  9412 net.cpp:141] Setting up pool5/drop_7x7_s1
I0403 19:35:02.226225  9412 net.cpp:148] Top shape: 24 1024 1 1 (24576)
I0403 19:35:02.226241  9412 net.cpp:156] Memory required for data: 1346060832
I0403 19:35:02.226255  9412 layer_factory.hpp:77] Creating layer loss3/classifier_plantvillage
I0403 19:35:02.226289  9412 net.cpp:91] Creating Layer loss3/classifier_plantvillage
I0403 19:35:02.226306  9412 net.cpp:425] loss3/classifier_plantvillage <- pool5/7x7_s1
I0403 19:35:02.226327  9412 net.cpp:399] loss3/classifier_plantvillage -> loss3/classifier_plantvillage
I0403 19:35:02.226763  9412 net.cpp:141] Setting up loss3/classifier_plantvillage
I0403 19:35:02.226789  9412 net.cpp:148] Top shape: 24 38 (912)
I0403 19:35:02.226804  9412 net.cpp:156] Memory required for data: 1346064480
I0403 19:35:02.226821  9412 layer_factory.hpp:77] Creating layer loss3/classifier_plantvillage_loss3/classifier_plantvillage_0_split
I0403 19:35:02.226838  9412 net.cpp:91] Creating Layer loss3/classifier_plantvillage_loss3/classifier_plantvillage_0_split
I0403 19:35:02.226853  9412 net.cpp:425] loss3/classifier_plantvillage_loss3/classifier_plantvillage_0_split <- loss3/classifier_plantvillage
I0403 19:35:02.226874  9412 net.cpp:399] loss3/classifier_plantvillage_loss3/classifier_plantvillage_0_split -> loss3/classifier_plantvillage_loss3/classifier_plantvillage_0_split_0
I0403 19:35:02.226894  9412 net.cpp:399] loss3/classifier_plantvillage_loss3/classifier_plantvillage_0_split -> loss3/classifier_plantvillage_loss3/classifier_plantvillage_0_split_1
I0403 19:35:02.226913  9412 net.cpp:399] loss3/classifier_plantvillage_loss3/classifier_plantvillage_0_split -> loss3/classifier_plantvillage_loss3/classifier_plantvillage_0_split_2
I0403 19:35:02.226935  9412 net.cpp:399] loss3/classifier_plantvillage_loss3/classifier_plantvillage_0_split -> loss3/classifier_plantvillage_loss3/classifier_plantvillage_0_split_3
I0403 19:35:02.227035  9412 net.cpp:141] Setting up loss3/classifier_plantvillage_loss3/classifier_plantvillage_0_split
I0403 19:35:02.227057  9412 net.cpp:148] Top shape: 24 38 (912)
I0403 19:35:02.227073  9412 net.cpp:148] Top shape: 24 38 (912)
I0403 19:35:02.227089  9412 net.cpp:148] Top shape: 24 38 (912)
I0403 19:35:02.227104  9412 net.cpp:148] Top shape: 24 38 (912)
I0403 19:35:02.227118  9412 net.cpp:156] Memory required for data: 1346079072
I0403 19:35:02.227131  9412 layer_factory.hpp:77] Creating layer loss1/loss
I0403 19:35:02.227154  9412 net.cpp:91] Creating Layer loss1/loss
I0403 19:35:02.227170  9412 net.cpp:425] loss1/loss <- loss1/classifier_plantvillage_loss1/classifier_plantvillage_0_split_0
I0403 19:35:02.227201  9412 net.cpp:425] loss1/loss <- label_data_1_split_0
…
