…
I0403 19:28:02.710072  9275 net.cpp:313] The NetState phase (1) differed from the phase (0) specified by a rule in layer data
I0403 19:28:02.712723  9275 net.cpp:49] Initializing net from parameters: 
state {
  phase: TEST
}
layer {
  name: "data"
  type: "Data"
  top: "data"
  top: "label"
  include {
    phase: TEST
  }
  transform_param {
    mirror: false
    crop_size: 224
    mean_file: "/home/mohanty/data/final_dataset/lmdb/color-60-40/mean.binaryproto"
  }
  data_param {
    source: "/home/mohanty/data/final_dataset/lmdb/color-60-40/test_db"
    batch_size: 24
    backend: LMDB
  }
}
layer {
  name: "conv1/7x7_s2"
  type: "Convolution"
  bottom: "data"
  top: "conv1/7x7_s2"
  param {
    lr_mult: 1
    decay_mult: 1
  }
  param {
    lr_mult: 2
    decay_mult: 0
  }
  convolution_param {
    num_output: 64
    pad: 3
    kernel_size: 7
    stride: 2
    weight_filler {
      type: "xavier"
      std: 0.1
    }
    bias_filler {
      type: "constant"
      value: 0.2
    }
  }
}
layer {
  name: "conv1/relu_7x7"
  type: "ReLU"
  bottom: "conv1/7x7_s2"
  top: "conv1/7x7_s2"
}
layer {
  name: "pool1/3x3_s2"
  type: "Pooling"
  bottom: "conv1/7x7_s2"
  top: "pool1/3x3_s2"
  pooling_param {
    pool: MAX
    kernel_size: 3
    stride: 2
  }
}
layer {
  name: "pool1/norm1"
  type: "LRN"
  bottom: "pool1/3x3_s2"
  top: "pool1/norm1"
  lrn_param {
    local_size: 5
    alpha: 0.0001
    beta: 0.75
  }
}
layer {
  name: "conv2/3x3_reduce"
  type: "Convolution"
  bottom: "pool1/norm1"
  top: "conv2/3x3_reduce"
  param {
    lr_mult: 1
    decay_mult: 1
  }
  param {
    lr_mult: 2
    decay_mult: 0
  }
  convolution_param {
    num_output: 64
    kernel_size: 1
    weight_filler {
      type: "xavier"
      std: 0.1
    }
    bias_filler {
      type: "constant"
      value: 0.2
    }
  }
}
layer {
  name: "conv2/relu_3x3_reduce"
  type: "ReLU"
  bottom: "conv2/3x3_reduce"
  top: "conv2/3x3_reduce"
}
layer {
  name: "conv2/3x3"
  type: "Convolution"
  bottom: "conv2/3x3_reduce"
  top: "conv2/3x3"
  param {
    lr_mult: 1
    decay_mult: 1
  }
  param {
    lr_mult: 2
    decay_mult: 0
  }
  convolution_param {
    num_output: 192
    pad: 1
    kernel_size: 3
    weight_filler {
      type: "xavier"
      std: 0.03
    }
    bias_filler {
      type: "constant"
      value: 0.2
    }
  }
}
layer {
  name: "conv2/relu_3x3"
  type: "ReLU"
  bottom: "conv2/3x3"
  top: "conv2/3x3"
}
layer {
  name: "conv2/norm2"
  type: "LRN"
  bottom: "conv2/3x3"
  top: "conv2/norm2"
  lrn_param {
    local_size: 5
    alpha: 0.0001
    beta: 0.75
  }
}
layer {
  name: "pool2/3x3_s2"
  type: "Pooling"
  bottom: "conv2/norm2"
  top: "pool2/3x3_s2"
  pooling_param {
    pool: MAX
    kernel_size: 3
    stride: 2
  }
}
layer {
  name: "inception_3a/1x1"
  type: "Convolution"
  bottom: "pool2/3x3_s2"
  top: "inception_3a/1x1"
  param {
    lr_mult: 1
    decay_mult: 1
  }
  param {
    lr_mult: 2
    decay_mult: 0
  }
  convolution_param {
    num_output: 64
    kernel_size: 1
    weight_filler {
      type: "xavier"
      std: 0.03
    }
    bias_filler {
      type: "constant"
      value: 0.2
    }
  }
}
layer {
  name: "inception_3a/relu_1x1"
  type: "ReLU"
  bottom: "inception_3a/1x1"
  top: "inception_3a/1x1"
}
layer {
  name: "inception_3a/3x3_reduce"
  type: "Convolution"
  bottom: "pool2/3x3_s2"
  top: "inception_3a/3x3_reduce"
  param {
    lr_mult: 1
    decay_mult: 1
  }
  param {
    lr_mult: 2
    decay_mult: 0
  }
  convolution_param {
    num_output: 96
    kernel_size: 1
    weight_filler {
      type: "xavier"
      std: 0.09
    }
    bias_filler {
      type: "constant"
      value: 0.2
    }
  }
}
layer {
  name: "inception_3a/relu_3x3_reduce"
  type: "ReLU"
  bottom: "inception_3a/3x3_reduce"
  top: "inception_3a/3x3_reduce"
}
layer {
  name: "inception_3a/3x3"
  type: "Convolution"
  bottom: "inception_3a/3x3_reduce"
  top: "inception_3a/3x3"
  param {
    lr_mult: 1
    decay_mult: 1
  }
  param {
    lr_mult: 2
    decay_mult: 0
  }
  convolution_param {
    num_output: 128
    pad: 1
    kernel_size: 3
    weight_filler {
      type: "xavier"
      std: 0.03
    }
    bias_filler {
      type: "constant"
      value: 0.2
    }
  }
}
layer {
  name: "inception_3a/relu_3x3"
  type: "ReLU"
  bottom: "inception_3a/3x3"
  top: "inception_3a/3x3"
}
layer {
  name: "inception_3a/5x5_reduce"
  type: "Convolution"
  bottom: "pool2/3x3_s2"
  top: "inception_3a/5x5_reduce"
  param {
    lr_mult: 1
    decay_mult: 1
  }
  param {
    lr_mult: 2
    decay_mult: 0
  }
  convolution_param {
    num_output: 16
    kernel_size: 1
    weight_filler {
      type: "xavier"
      std: 0.2
    }
    bias_filler {
      type: "constant"
      value: 0.2
    }
  }
}
layer {
  name: "inception_3a/relu_5x5_reduce"
  type: "ReLU"
  bottom: "inception_3a/5x5_reduce"
  top: "inception_3a/5x5_reduce"
}
layer {
  name: "inception_3a/5x5"
  type: "Convolution"
  bottom: "inception_3a/5x5_reduce"
  top: "inception_3a/5x5"
  param {
    lr_mult: 1
    decay_mult: 1
  }
  param {
    lr_mult: 2
    decay_mult: 0
  }
  convolution_param {
    num_output: 32
    pad: 2
    kernel_size: 5
    weight_filler {
      type: "xavier"
      std: 0.03
    }
    bias_filler {
      type: "constant"
      value: 0.2
    }
  }
}
layer {
  name: "inception_3a/relu_5x5"
  type: "ReLU"
  bottom: "inception_3a/5x5"
  top: "inception_3a/5x5"
}
layer {
  name: "inception_3a/pool"
  type: "Pooling"
  bottom: "pool2/3x3_s2"
  top: "inception_3a/pool"
  pooling_param {
    pool: MAX
    kernel_size: 3
    stride: 1
    pad: 1
  }
}
layer {
  name: "inception_3a/pool_proj"
  type: "Convolution"
  bottom: "inception_3a/pool"
  top: "inception_3a/pool_proj"
  param {
    lr_mult: 1
    decay_mult: 1
  }
  param {
    lr_mult: 2
    decay_mult: 0
  }
  convolution_param {
    num_output: 32
    kernel_size: 1
    weight_filler {
      type: "xavier"
      std: 0.1
    }
    bias_filler {
      type: "constant"
      value: 0.2
    }
  }
}
layer {
  name: "inception_3a/relu_pool_proj"
  type: "ReLU"
  bottom: "inception_3a/pool_proj"
  top: "inception_3a/pool_proj"
}
layer {
  name: "inception_3a/output"
  type: "Concat"
  bottom: "inception_3a/1x1"
  bottom: "inception_3a/3x3"
  bottom: "inception_3a/5x5"
  bottom: "inception_3a/pool_proj"
  top: "inception_3a/output"
}
layer {
  name: "inception_3b/1x1"
  type: "Convolution"
  bottom: "inception_3a/output"
  top: "inception_3b/1x1"
  param {
    lr_mult: 1
    decay_mult: 1
  }
  param {
    lr_mult: 2
    decay_mult: 0
  }
  convolution_param {
    num_output: 128
    kernel_size: 1
    weight_filler {
      type: "xavier"
      std: 0.03
    }
    bias_filler {
      type: "constant"
      value: 0.2
    }
  }
}
layer {
  name: "inception_3b/relu_1x1"
  type: "ReLU"
  bottom: "inception_3b/1x1"
  top: "inception_3b/1x1"
}
layer {
  name: "inception_3b/3x3_reduce"
  type: "Convolution"
  bottom: "inception_3a/output"
  top: "inception_3b/3x3_reduce"
  param {
    lr_mult: 1
    decay_mult: 1
  }
  param {
    lr_mult: 2
    decay_mult: 0
  }
  convolution_param {
    num_output: 128
    kernel_size: 1
    weight_filler {
      type: "xavier"
      std: 0.09
    }
    bias_filler {
      type: "constant"
      value: 0.2
    }
  }
}
layer {
  name: "inception_3b/relu_3x3_reduce"
  type: "ReLU"
  bottom: "inception_3b/3x3_reduce"
  top: "inception_3b/3x3_reduce"
}
layer {
  name: "inception_3b/3x3"
  type: "Convolution"
  bottom: "inception_3b/3x3_reduce"
  top: "inception_3b/3x3"
  param {
    lr_mult: 1
    decay_mult: 1
  }
  param {
    lr_mult: 2
    decay_mult: 0
  }
  convolution_param {
    num_output: 192
    pad: 1
    kernel_size: 3
    weight_filler {
      type: "xavier"
      std: 0.03
    }
    bias_filler {
      type: "constant"
      value: 0.2
    }
  }
}
layer {
  name: "inception_3b/relu_3x3"
  type: "ReLU"
  bottom: "inception_3b/3x3"
  top: "inception_3b/3x3"
}
layer {
  name: "inception_3b/5x5_reduce"
  type: "Convolution"
  bottom: "inception_3a/output"
  top: "inception_3b/5x5_reduce"
  param {
    lr_mult: 1
    decay_mult: 1
  }
  param {
    lr_mult: 2
    decay_mult: 0
  }
  convolution_param {
    num_output: 32
    kernel_size: 1
    weight_filler {
      type: "xavier"
      std: 0.2
    }
    bias_filler {
      type: "constant"
      value: 0.2
    }
  }
}
layer {
  name: "inception_3b/relu_5x5_reduce"
  type: "ReLU"
  bottom: "inception_3b/5x5_reduce"
  top: "inception_3b/5x5_reduce"
}
layer {
  name: "inception_3b/5x5"
  type: "Convolution"
  bottom: "inception_3b/5x5_reduce"
  top: "inception_3b/5x5"
  param {
    lr_mult: 1
    decay_mult: 1
  }
  param {
    lr_mult: 2
    decay_mult: 0
  }
  convolution_param {
    num_output: 96
    pad: 2
    kernel_size: 5
    weight_filler {
      type: "xavier"
      std: 0.03
    }
    bias_filler {
      type: "constant"
      value: 0.2
    }
  }
}
layer {
  name: "inception_3b/relu_5x5"
  type: "ReLU"
  bottom: "inception_3b/5x5"
  top: "inception_3b/5x5"
}
layer {
  name: "inception_3b/pool"
  type: "Pooling"
  bottom: "inception_3a/output"
  top: "inception_3b/pool"
  pooling_param {
    pool: MAX
    kernel_size: 3
    stride: 1
    pad: 1
  }
}
layer {
  name: "inception_3b/pool_proj"
  type: "Convolution"
  bottom: "inception_3b/pool"
  top: "inception_3b/pool_proj"
  param {
    lr_mult: 1
    decay_mult: 1
  }
  param {
    lr_mult: 2
    decay_mult: 0
  }
  convolution_param {
    num_output: 64
    kernel_size: 1
    weight_filler {
      type: "xavier"
      std: 0.1
    }
    bias_filler {
      type: "constant"
      value: 0.2
    }
  }
}
layer {
  name: "inception_3b/relu_pool_proj"
  type: "ReLU"
  bottom: "inception_3b/pool_proj"
  top: "inception_3b/pool_proj"
}
layer {
  name: "inception_3b/output"
  type: "Concat"
  bottom: "inception_3b/1x1"
  bottom: "inception_3b/3x3"
  bottom: "inception_3b/5x5"
  bottom: "inception_3b/pool_proj"
  top: "inception_3b/output"
}
layer {
  name: "pool3/3x3_s2"
  type: "Pooling"
  bottom: "inception_3b/output"
  top: "pool3/3x3_s2"
  pooling_param {
    pool: MAX
    kernel_size: 3
    stride: 2
  }
}
layer {
  name: "inception_4a/1x1"
  type: "Convolution"
  bottom: "pool3/3x3_s2"
  top: "inception_4a/1x1"
  param {
    lr_mult: 1
    decay_mult: 1
  }
  param {
    lr_mult: 2
    decay_mult: 0
  }
  convolution_param {
    num_output: 192
    kernel_size: 1
    weight_filler {
      type: "xavier"
      std: 0.03
    }
    bias_filler {
      type: "constant"
      value: 0.2
    }
  }
}
layer {
  name: "inception_4a/relu_1x1"
  type: "ReLU"
  bottom: "inception_4a/1x1"
  top: "inception_4a/1x1"
}
layer {
  name: "inception_4a/3x3_reduce"
  type: "Convolution"
  bottom: "pool3/3x3_s2"
  top: "inception_4a/3x3_reduce"
  param {
    lr_mult: 1
    decay_mult: 1
  }
  param {
    lr_mult: 2
    decay_mult: 0
  }
  convolution_param {
    num_output: 96
    kernel_size: 1
    weight_filler {
      type: "xavier"
      std: 0.09
    }
    bias_filler {
      type: "constant"
      value: 0.2
    }
  }
}
layer {
  name: "inception_4a/relu_3x3_reduce"
  type: "ReLU"
  bottom: "inception_4a/3x3_reduce"
  top: "inception_4a/3x3_reduce"
}
layer {
  name: "inception_4a/3x3"
  type: "Convolution"
  bottom: "inception_4a/3x3_reduce"
  top: "inception_4a/3x3"
  param {
    lr_mult: 1
    decay_mult: 1
  }
  param {
    lr_mult: 2
    decay_mult: 0
  }
  convolution_param {
    num_output: 208
    pad: 1
    kernel_size: 3
    weight_filler {
      type: "xavier"
      std: 0.03
    }
    bias_filler {
      type: "constant"
      value: 0.2
    }
  }
}
layer {
  name: "inception_4a/relu_3x3"
  type: "ReLU"
  bottom: "inception_4a/3x3"
  top: "inception_4a/3x3"
}
layer {
  name: "inception_4a/5x5_reduce"
  type: "Convolution"
  bottom: "pool3/3x3_s2"
  top: "inception_4a/5x5_reduce"
  param {
    lr_mult: 1
    decay_mult: 1
  }
  param {
    lr_mult: 2
    decay_mult: 0
  }
  convolution_param {
    num_output: 16
    kernel_size: 1
    weight_filler {
      type: "xavier"
      std: 0.2
    }
    bias_filler {
      type: "constant"
      value: 0.2
    }
  }
}
layer {
  name: "inception_4a/relu_5x5_reduce"
  type: "ReLU"
  bottom: "inception_4a/5x5_reduce"
  top: "inception_4a/5x5_reduce"
}
layer {
  name: "inception_4a/5x5"
  type: "Convolution"
  bottom: "inception_4a/5x5_reduce"
  top: "inception_4a/5x5"
  param {
    lr_mult: 1
    decay_mult: 1
  }
  param {
    lr_mult: 2
    decay_mult: 0
  }
  convolution_param {
    num_output: 48
    pad: 2
    kernel_size: 5
    weight_filler {
      type: "xavier"
      std: 0.03
    }
    bias_filler {
      type: "constant"
      value: 0.2
    }
  }
}
layer {
  name: "inception_4a/relu_5x5"
  type: "ReLU"
  bottom: "inception_4a/5x5"
  top: "inception_4a/5x5"
}
layer {
  name: "inception_4a/pool"
  type: "Pooling"
  bottom: "pool3/3x3_s2"
  top: "inception_4a/pool"
  pooling_param {
    pool: MAX
    kernel_size: 3
    stride: 1
    pad: 1
  }
}
layer {
  name: "inception_4a/pool_proj"
  type: "Convolution"
  bottom: "inception_4a/pool"
  top: "inception_4a/pool_proj"
  param {
    lr_mult: 1
    decay_mult: 1
  }
  param {
    lr_mult: 2
    decay_mult: 0
  }
  convolution_param {
    num_output: 64
    kernel_size: 1
    weight_filler {
      type: "xavier"
      std: 0.1
    }
    bias_filler {
      type: "constant"
      value: 0.2
    }
  }
}
layer {
  name: "inception_4a/relu_pool_proj"
  type: "ReLU"
  bottom: "inception_4a/pool_proj"
  top: "inception_4a/pool_proj"
}
layer {
  name: "inception_4a/output"
  type: "Concat"
  bottom: "inception_4a/1x1"
  bottom: "inception_4a/3x3"
  bottom: "inception_4a/5x5"
  bottom: "inception_4a/pool_proj"
  top: "inception_4a/output"
}
layer {
  name: "loss1/ave_pool"
  type: "Pooling"
  bottom: "inception_4a/output"
  top: "loss1/ave_pool"
  pooling_param {
    pool: AVE
    kernel_size: 5
    stride: 3
  }
}
layer {
  name: "loss1/conv"
  type: "Convolution"
  bottom: "loss1/ave_pool"
  top: "loss1/conv"
  param {
    lr_mult: 1
    decay_mult: 1
  }
  param {
    lr_mult: 2
    decay_mult: 0
  }
  convolution_param {
    num_output: 128
    kernel_size: 1
    weight_filler {
      type: "xavier"
      std: 0.08
    }
    bias_filler {
      type: "constant"
      value: 0.2
    }
  }
}
layer {
  name: "loss1/relu_conv"
  type: "ReLU"
  bottom: "loss1/conv"
  top: "loss1/conv"
}
layer {
  name: "loss1/fc"
  type: "InnerProduct"
  bottom: "loss1/conv"
  top: "loss1/fc"
  param {
    lr_mult: 1
    decay_mult: 1
  }
  param {
    lr_mult: 2
    decay_mult: 0
  }
  inner_product_param {
    num_output: 1024
    weight_filler {
      type: "xavier"
      std: 0.02
    }
    bias_filler {
      type: "constant"
      value: 0.2
    }
  }
}
layer {
  name: "loss1/relu_fc"
  type: "ReLU"
  bottom: "loss1/fc"
  top: "loss1/fc"
}
layer {
  name: "loss1/drop_fc"
  type: "Dropout"
  bottom: "loss1/fc"
  top: "loss1/fc"
  dropout_param {
    dropout_ratio: 0.7
  }
}
layer {
  name: "loss1/classifier_plantvillage"
  type: "InnerProduct"
  bottom: "loss1/fc"
  top: "loss1/classifier_plantvillage"
  param {
    lr_mult: 1
    decay_mult: 1
  }
  param {
    lr_mult: 2
    decay_mult: 0
  }
  inner_product_param {
    num_output: 38
    weight_filler {
      type: "xavier"
      std: 0.0009765625
    }
    bias_filler {
      type: "constant"
      value: 0
    }
  }
}
layer {
  name: "inception_4b/1x1"
  type: "Convolution"
  bottom: "inception_4a/output"
  top: "inception_4b/1x1"
  param {
    lr_mult: 1
    decay_mult: 1
  }
  param {
    lr_mult: 2
    decay_mult: 0
  }
  convolution_param {
    num_output: 160
    kernel_size: 1
    weight_filler {
      type: "xavier"
      std: 0.03
    }
    bias_filler {
      type: "constant"
      value: 0.2
    }
  }
}
layer {
  name: "inception_4b/relu_1x1"
  type: "ReLU"
  bottom: "inception_4b/1x1"
  top: "inception_4b/1x1"
}
layer {
  name: "inception_4b/3x3_reduce"
  type: "Convolution"
  bottom: "inception_4a/output"
  top: "inception_4b/3x3_reduce"
  param {
    lr_mult: 1
    decay_mult: 1
  }
  param {
    lr_mult: 2
    decay_mult: 0
  }
  convolution_param {
    num_output: 112
    kernel_size: 1
    weight_filler {
      type: "xavier"
      std: 0.09
    }
    bias_filler {
      type: "constant"
      value: 0.2
    }
  }
}
layer {
  name: "inception_4b/relu_3x3_reduce"
  type: "ReLU"
  bottom: "inception_4b/3x3_reduce"
  top: "inception_4b/3x3_reduce"
}
layer {
  name: "inception_4b/3x3"
  type: "Convolution"
  bottom: "inception_4b/3x3_reduce"
  top: "inception_4b/3x3"
  param {
    lr_mult: 1
    decay_mult: 1
  }
  param {
    lr_mult: 2
    decay_mult: 0
  }
  convolution_param {
    num_output: 224
    pad: 1
    kernel_size: 3
    weight_filler {
      type: "xavier"
      std: 0.03
    }
    bias_filler {
      type: "constant"
      value: 0.2
    }
  }
}
layer {
  name: "inception_4b/relu_3x3"
  type: "ReLU"
  bottom: "inception_4b/3x3"
  top: "inception_4b/3x3"
}
layer {
  name: "inception_4b/5x5_reduce"
  type: "Convolution"
  bottom: "inception_4a/output"
  top: "inception_4b/5x5_reduce"
  param {
    lr_mult: 1
    decay_mult: 1
  }
  param {
    lr_mult: 2
    decay_mult: 0
  }
  convolution_param {
    num_output: 24
    kernel_size: 1
    weight_filler {
      type: "xavier"
      std: 0.2
    }
    bias_filler {
      type: "constant"
      value: 0.2
    }
  }
}
layer {
  name: "inception_4b/relu_5x5_reduce"
  type: "ReLU"
  bottom: "inception_4b/5x5_reduce"
  top: "inception_4b/5x5_reduce"
}
layer {
  name: "inception_4b/5x5"
  type: "Convolution"
  bottom: "inception_4b/5x5_reduce"
  top: "inception_4b/5x5"
  param {
    lr_mult: 1
    decay_mult: 1
  }
  param {
    lr_mult: 2
    decay_mult: 0
  }
  convolution_param {
    num_output: 64
    pad: 2
    kernel_size: 5
    weight_filler {
      type: "xavier"
      std: 0.03
    }
    bias_filler {
      type: "constant"
      value: 0.2
    }
  }
}
layer {
  name: "inception_4b/relu_5x5"
  type: "ReLU"
  bottom: "inception_4b/5x5"
  top: "inception_4b/5x5"
}
layer {
  name: "inception_4b/pool"
  type: "Pooling"
  bottom: "inception_4a/output"
  top: "inception_4b/pool"
  pooling_param {
    pool: MAX
    kernel_size: 3
    stride: 1
    pad: 1
  }
}
layer {
  name: "inception_4b/pool_proj"
  type: "Convolution"
  bottom: "inception_4b/pool"
  top: "inception_4b/pool_proj"
  param {
    lr_mult: 1
    decay_mult: 1
  }
  param {
    lr_mult: 2
    decay_mult: 0
  }
  convolution_param {
    num_output: 64
    kernel_size: 1
    weight_filler {
      type: "xavier"
      std: 0.1
    }
    bias_filler {
      type: "constant"
      value: 0.2
    }
  }
}
layer {
  name: "inception_4b/relu_pool_proj"
  type: "ReLU"
  bottom: "inception_4b/pool_proj"
  top: "inception_4b/pool_proj"
}
layer {
  name: "inception_4b/output"
  type: "Concat"
  bottom: "inception_4b/1x1"
  bottom: "inception_4b/3x3"
  bottom: "inception_4b/5x5"
  bottom: "inception_4b/pool_proj"
  top: "inception_4b/output"
}
layer {
  name: "inception_4c/1x1"
  type: "Convolution"
  bottom: "inception_4b/output"
  top: "inception_4c/1x1"
  param {
    lr_mult: 1
    decay_mult: 1
  }
  param {
    lr_mult: 2
    decay_mult: 0
  }
  convolution_param {
    num_output: 128
    kernel_size: 1
    weight_filler {
      type: "xavier"
      std: 0.03
    }
    bias_filler {
      type: "constant"
      value: 0.2
    }
  }
}
layer {
  name: "inception_4c/relu_1x1"
  type: "ReLU"
  bottom: "inception_4c/1x1"
  top: "inception_4c/1x1"
}
layer {
  name: "inception_4c/3x3_reduce"
  type: "Convolution"
  bottom: "inception_4b/output"
  top: "inception_4c/3x3_reduce"
  param {
    lr_mult: 1
    decay_mult: 1
  }
  param {
    lr_mult: 2
    decay_mult: 0
  }
  convolution_param {
    num_output: 128
    kernel_size: 1
    weight_filler {
      type: "xavier"
      std: 0.09
    }
    bias_filler {
      type: "constant"
      value: 0.2
    }
  }
}
layer {
  name: "inception_4c/relu_3x3_reduce"
  type: "ReLU"
  bottom: "inception_4c/3x3_reduce"
  top: "inception_4c/3x3_reduce"
}
layer {
  name: "inception_4c/3x3"
  type: "Convolution"
  bottom: "inception_4c/3x3_reduce"
  top: "inception_4c/3x3"
  param {
    lr_mult: 1
    decay_mult: 1
  }
  param {
    lr_mult: 2
    decay_mult: 0
  }
  convolution_param {
    num_output: 256
    pad: 1
    kernel_size: 3
    weight_filler {
      type: "xavier"
      std: 0.03
    }
    bias_filler {
      type: "constant"
      value: 0.2
    }
  }
}
layer {
  name: "inception_4c/relu_3x3"
  type: "ReLU"
  bottom: "inception_4c/3x3"
  top: "inception_4c/3x3"
}
layer {
  name: "inception_4c/5x5_reduce"
  type: "Convolution"
  bottom: "inception_4b/output"
  top: "inception_4c/5x5_reduce"
  param {
    lr_mult: 1
    decay_mult: 1
  }
  param {
    lr_mult: 2
    decay_mult: 0
  }
  convolution_param {
    num_output: 24
    kernel_size: 1
    weight_filler {
      type: "xavier"
      std: 0.2
    }
    bias_filler {
      type: "constant"
      value: 0.2
    }
  }
}
layer {
  name: "inception_4c/relu_5x5_reduce"
  type: "ReLU"
  bottom: "inception_4c/5x5_reduce"
  top: "inception_4c/5x5_reduce"
}
layer {
  name: "inception_4c/5x5"
  type: "Convolution"
  bottom: "inception_4c/5x5_reduce"
  top: "inception_4c/5x5"
  param {
    lr_mult: 1
    decay_mult: 1
  }
  param {
    lr_mult: 2
    decay_mult: 0
  }
  convolution_param {
    num_output: 64
    pad: 2
    kernel_size: 5
    weight_filler {
      type: "xavier"
      std: 0.03
    }
    bias_filler {
      type: "constant"
      value: 0.2
    }
  }
}
layer {
  name: "inception_4c/relu_5x5"
  type: "ReLU"
  bottom: "inception_4c/5x5"
  top: "inception_4c/5x5"
}
layer {
  name: "inception_4c/pool"
  type: "Pooling"
  bottom: "inception_4b/output"
  top: "inception_4c/pool"
  pooling_param {
    pool: MAX
    kernel_size: 3
    stride: 1
    pad: 1
  }
}
layer {
  name: "inception_4c/pool_proj"
  type: "Convolution"
  bottom: "inception_4c/pool"
  top: "inception_4c/pool_proj"
  param {
    lr_mult: 1
    decay_mult: 1
  }
  param {
    lr_mult: 2
    decay_mult: 0
  }
  convolution_param {
    num_output: 64
    kernel_size: 1
    weight_filler {
      type: "xavier"
      std: 0.1
    }
    bias_filler {
      type: "constant"
      value: 0.2
    }
  }
}
layer {
  name: "inception_4c/relu_pool_proj"
  type: "ReLU"
  bottom: "inception_4c/pool_proj"
  top: "inception_4c/pool_proj"
}
layer {
  name: "inception_4c/output"
  type: "Concat"
  bottom: "inception_4c/1x1"
  bottom: "inception_4c/3x3"
  bottom: "inception_4c/5x5"
  bottom: "inception_4c/pool_proj"
  top: "inception_4c/output"
}
layer {
  name: "inception_4d/1x1"
  type: "Convolution"
  bottom: "inception_4c/output"
  top: "inception_4d/1x1"
  param {
    lr_mult: 1
    decay_mult: 1
  }
  param {
    lr_mult: 2
    decay_mult: 0
  }
  convolution_param {
    num_output: 112
    kernel_size: 1
    weight_filler {
      type: "xavier"
      std: 0.03
    }
    bias_filler {
      type: "constant"
      value: 0.2
    }
  }
}
layer {
  name: "inception_4d/relu_1x1"
  type: "ReLU"
  bottom: "inception_4d/1x1"
  top: "inception_4d/1x1"
}
layer {
  name: "inception_4d/3x3_reduce"
  type: "Convolution"
  bottom: "inception_4c/output"
  top: "inception_4d/3x3_reduce"
  param {
    lr_mult: 1
    decay_mult: 1
  }
  param {
    lr_mult: 2
    decay_mult: 0
  }
  convolution_param {
    num_output: 144
    kernel_size: 1
    weight_filler {
      type: "xavier"
      std: 0.09
    }
    bias_filler {
      type: "constant"
      value: 0.2
    }
  }
}
layer {
  name: "inception_4d/relu_3x3_reduce"
  type: "ReLU"
  bottom: "inception_4d/3x3_reduce"
  top: "inception_4d/3x3_reduce"
}
layer {
  name: "inception_4d/3x3"
  type: "Convolution"
  bottom: "inception_4d/3x3_reduce"
  top: "inception_4d/3x3"
  param {
    lr_mult: 1
    decay_mult: 1
  }
  param {
    lr_mult: 2
    decay_mult: 0
  }
  convolution_param {
    num_output: 288
    pad: 1
    kernel_size: 3
    weight_filler {
      type: "xavier"
      std: 0.03
    }
    bias_filler {
      type: "constant"
      value: 0.2
    }
  }
}
layer {
  name: "inception_4d/relu_3x3"
  type: "ReLU"
  bottom: "inception_4d/3x3"
  top: "inception_4d/3x3"
}
layer {
  name: "inception_4d/5x5_reduce"
  type: "Convolution"
  bottom: "inception_4c/output"
  top: "inception_4d/5x5_reduce"
  param {
    lr_mult: 1
    decay_mult: 1
  }
  param {
    lr_mult: 2
    decay_mult: 0
  }
  convolution_param {
    num_output: 32
    kernel_size: 1
    weight_filler {
      type: "xavier"
      std: 0.2
    }
    bias_filler {
      type: "constant"
      value: 0.2
    }
  }
}
layer {
  name: "inception_4d/relu_5x5_reduce"
  type: "ReLU"
  bottom: "inception_4d/5x5_reduce"
  top: "inception_4d/5x5_reduce"
}
layer {
  name: "inception_4d/5x5"
  type: "Convolution"
  bottom: "inception_4d/5x5_reduce"
  top: "inception_4d/5x5"
  param {
    lr_mult: 1
    decay_mult: 1
  }
  param {
    lr_mult: 2
    decay_mult: 0
  }
  convolution_param {
    num_output: 64
    pad: 2
    kernel_size: 5
    weight_filler {
      type: "xavier"
      std: 0.03
    }
    bias_filler {
      type: "constant"
      value: 0.2
    }
  }
}
layer {
  name: "inception_4d/relu_5x5"
  type: "ReLU"
  bottom: "inception_4d/5x5"
  top: "inception_4d/5x5"
}
layer {
  name: "inception_4d/pool"
  type: "Pooling"
  bottom: "inception_4c/output"
  top: "inception_4d/pool"
  pooling_param {
    pool: MAX
    kernel_size: 3
    stride: 1
    pad: 1
  }
}
layer {
  name: "inception_4d/pool_proj"
  type: "Convolution"
  bottom: "inception_4d/pool"
  top: "inception_4d/pool_proj"
  param {
    lr_mult: 1
    decay_mult: 1
  }
  param {
    lr_mult: 2
    decay_mult: 0
  }
  convolution_param {
    num_output: 64
    kernel_size: 1
    weight_filler {
      type: "xavier"
      std: 0.1
    }
    bias_filler {
      type: "constant"
      value: 0.2
    }
  }
}
layer {
  name: "inception_4d/relu_pool_proj"
  type: "ReLU"
  bottom: "inception_4d/pool_proj"
  top: "inception_4d/pool_proj"
}
layer {
  name: "inception_4d/output"
  type: "Concat"
  bottom: "inception_4d/1x1"
  bottom: "inception_4d/3x3"
  bottom: "inception_4d/5x5"
  bottom: "inception_4d/pool_proj"
  top: "inception_4d/output"
}
layer {
  name: "loss2/ave_pool"
  type: "Pooling"
  bottom: "inception_4d/output"
  top: "loss2/ave_pool"
  pooling_param {
    pool: AVE
    kernel_size: 5
    stride: 3
  }
}
layer {
  name: "loss2/conv"
  type: "Convolution"
  bottom: "loss2/ave_pool"
  top: "loss2/conv"
  param {
    lr_mult: 1
    decay_mult: 1
  }
  param {
    lr_mult: 2
    decay_mult: 0
  }
  convolution_param {
    num_output: 128
    kernel_size: 1
    weight_filler {
      type: "xavier"
      std: 0.08
    }
    bias_filler {
      type: "constant"
      value: 0.2
    }
  }
}
layer {
  name: "loss2/relu_conv"
  type: "ReLU"
  bottom: "loss2/conv"
  top: "loss2/conv"
}
layer {
  name: "loss2/fc"
  type: "InnerProduct"
  bottom: "loss2/conv"
  top: "loss2/fc"
  param {
    lr_mult: 1
    decay_mult: 1
  }
  param {
    lr_mult: 2
    decay_mult: 0
  }
  inner_product_param {
    num_output: 1024
    weight_filler {
      type: "xavier"
      std: 0.02
    }
    bias_filler {
      type: "constant"
      value: 0.2
    }
  }
}
layer {
  name: "loss2/relu_fc"
  type: "ReLU"
  bottom: "loss2/fc"
  top: "loss2/fc"
}
layer {
  name: "loss2/drop_fc"
  type: "Dropout"
  bottom: "loss2/fc"
  top: "loss2/fc"
  dropout_param {
    dropout_ratio: 0.7
  }
}
layer {
  name: "loss2/classifier_plantvillage"
  type: "InnerProduct"
  bottom: "loss2/fc"
  top: "loss2/classifier_plantvillage"
  param {
    lr_mult: 1
    decay_mult: 1
  }
  param {
    lr_mult: 2
    decay_mult: 0
  }
  inner_product_param {
    num_output: 38
    weight_filler {
      type: "xavier"
      std: 0.0009765625
    }
    bias_filler {
      type: "constant"
      value: 0
    }
  }
}
layer {
  name: "inception_4e/1x1"
  type: "Convolution"
  bottom: "inception_4d/output"
  top: "inception_4e/1x1"
  param {
    lr_mult: 1
    decay_mult: 1
  }
  param {
    lr_mult: 2
    decay_mult: 0
  }
  convolution_param {
    num_output: 256
    kernel_size: 1
    weight_filler {
      type: "xavier"
      std: 0.03
    }
    bias_filler {
      type: "constant"
      value: 0.2
    }
  }
}
layer {
  name: "inception_4e/relu_1x1"
  type: "ReLU"
  bottom: "inception_4e/1x1"
  top: "inception_4e/1x1"
}
layer {
  name: "inception_4e/3x3_reduce"
  type: "Convolution"
  bottom: "inception_4d/output"
  top: "inception_4e/3x3_reduce"
  param {
    lr_mult: 1
    decay_mult: 1
  }
  param {
    lr_mult: 2
    decay_mult: 0
  }
  convolution_param {
    num_output: 160
    kernel_size: 1
    weight_filler {
      type: "xavier"
      std: 0.09
    }
    bias_filler {
      type: "constant"
      value: 0.2
    }
  }
}
layer {
  name: "inception_4e/relu_3x3_reduce"
  type: "ReLU"
  bottom: "inception_4e/3x3_reduce"
  top: "inception_4e/3x3_reduce"
}
layer {
  name: "inception_4e/3x3"
  type: "Convolution"
  bottom: "inception_4e/3x3_reduce"
  top: "inception_4e/3x3"
  param {
    lr_mult: 1
    decay_mult: 1
  }
  param {
    lr_mult: 2
    decay_mult: 0
  }
  convolution_param {
    num_output: 320
    pad: 1
    kernel_size: 3
    weight_filler {
      type: "xavier"
      std: 0.03
    }
    bias_filler {
      type: "constant"
      value: 0.2
    }
  }
}
layer {
  name: "inception_4e/relu_3x3"
  type: "ReLU"
  bottom: "inception_4e/3x3"
  top: "inception_4e/3x3"
}
layer {
  name: "inception_4e/5x5_reduce"
  type: "Convolution"
  bottom: "inception_4d/output"
  top: "inception_4e/5x5_reduce"
  param {
    lr_mult: 1
    decay_mult: 1
  }
  param {
    lr_mult: 2
    decay_mult: 0
  }
  convolution_param {
    num_output: 32
    kernel_size: 1
    weight_filler {
      type: "xavier"
      std: 0.2
    }
    bias_filler {
      type: "constant"
      value: 0.2
    }
  }
}
layer {
  name: "inception_4e/relu_5x5_reduce"
  type: "ReLU"
  bottom: "inception_4e/5x5_reduce"
  top: "inception_4e/5x5_reduce"
}
layer {
  name: "inception_4e/5x5"
  type: "Convolution"
  bottom: "inception_4e/5x5_reduce"
  top: "inception_4e/5x5"
  p
I0403 19:28:02.714547  9275 layer_factory.hpp:77] Creating layer data
I0403 19:28:02.715152  9275 net.cpp:91] Creating Layer data
I0403 19:28:02.715184  9275 net.cpp:399] data -> data
I0403 19:28:02.715241  9275 net.cpp:399] data -> label
I0403 19:28:02.715284  9275 data_transformer.cpp:25] Loading mean file from: /home/mohanty/data/final_dataset/lmdb/color-60-40/mean.binaryproto
I0403 19:28:02.716315  9277 db_lmdb.cpp:38] Opened lmdb /home/mohanty/data/final_dataset/lmdb/color-60-40/test_db
I0403 19:28:02.728121  9275 data_layer.cpp:41] output data size: 24,3,224,224
I0403 19:28:02.754091  9275 net.cpp:141] Setting up data
I0403 19:28:02.754168  9275 net.cpp:148] Top shape: 24 3 224 224 (3612672)
I0403 19:28:02.754190  9275 net.cpp:148] Top shape: 24 (24)
I0403 19:28:02.754205  9275 net.cpp:156] Memory required for data: 14450784
I0403 19:28:02.754235  9275 layer_factory.hpp:77] Creating layer label_data_1_split
I0403 19:28:02.754263  9275 net.cpp:91] Creating Layer label_data_1_split
I0403 19:28:02.754281  9275 net.cpp:425] label_data_1_split <- label
I0403 19:28:02.754317  9275 net.cpp:399] label_data_1_split -> label_data_1_split_0
I0403 19:28:02.754348  9275 net.cpp:399] label_data_1_split -> label_data_1_split_1
I0403 19:28:02.754367  9275 net.cpp:399] label_data_1_split -> label_data_1_split_2
I0403 19:28:02.754389  9275 net.cpp:399] label_data_1_split -> label_data_1_split_3
I0403 19:28:02.754407  9275 net.cpp:399] label_data_1_split -> label_data_1_split_4
I0403 19:28:02.754429  9275 net.cpp:399] label_data_1_split -> label_data_1_split_5
I0403 19:28:02.754451  9275 net.cpp:399] label_data_1_split -> label_data_1_split_6
I0403 19:28:02.754472  9275 net.cpp:399] label_data_1_split -> label_data_1_split_7
I0403 19:28:02.754490  9275 net.cpp:399] label_data_1_split -> label_data_1_split_8
I0403 19:28:02.754510  9275 net.cpp:399] label_data_1_split -> label_data_1_split_9
I0403 19:28:02.754621  9275 net.cpp:141] Setting up label_data_1_split
I0403 19:28:02.754643  9275 net.cpp:148] Top shape: 24 (24)
I0403 19:28:02.754660  9275 net.cpp:148] Top shape: 24 (24)
I0403 19:28:02.754676  9275 net.cpp:148] Top shape: 24 (24)
I0403 19:28:02.754693  9275 net.cpp:148] Top shape: 24 (24)
I0403 19:28:02.754709  9275 net.cpp:148] Top shape: 24 (24)
I0403 19:28:02.754725  9275 net.cpp:148] Top shape: 24 (24)
I0403 19:28:02.754740  9275 net.cpp:148] Top shape: 24 (24)
I0403 19:28:02.754755  9275 net.cpp:148] Top shape: 24 (24)
I0403 19:28:02.754771  9275 net.cpp:148] Top shape: 24 (24)
I0403 19:28:02.754787  9275 net.cpp:148] Top shape: 24 (24)
I0403 19:28:02.754839  9275 net.cpp:156] Memory required for data: 14451744
I0403 19:28:02.754855  9275 layer_factory.hpp:77] Creating layer conv1/7x7_s2
I0403 19:28:02.754889  9275 net.cpp:91] Creating Layer conv1/7x7_s2
I0403 19:28:02.754909  9275 net.cpp:425] conv1/7x7_s2 <- data
I0403 19:28:02.754926  9275 net.cpp:399] conv1/7x7_s2 -> conv1/7x7_s2
I0403 19:28:02.889148  9275 net.cpp:141] Setting up conv1/7x7_s2
I0403 19:28:02.889225  9275 net.cpp:148] Top shape: 24 64 112 112 (19267584)
I0403 19:28:02.889241  9275 net.cpp:156] Memory required for data: 91522080
I0403 19:28:02.889276  9275 layer_factory.hpp:77] Creating layer conv1/relu_7x7
I0403 19:28:02.889303  9275 net.cpp:91] Creating Layer conv1/relu_7x7
I0403 19:28:02.889323  9275 net.cpp:425] conv1/relu_7x7 <- conv1/7x7_s2
I0403 19:28:02.889343  9275 net.cpp:386] conv1/relu_7x7 -> conv1/7x7_s2 (in-place)
I0403 19:28:02.889605  9275 net.cpp:141] Setting up conv1/relu_7x7
I0403 19:28:02.889633  9275 net.cpp:148] Top shape: 24 64 112 112 (19267584)
I0403 19:28:02.889648  9275 net.cpp:156] Memory required for data: 168592416
I0403 19:28:02.889662  9275 layer_factory.hpp:77] Creating layer pool1/3x3_s2
I0403 19:28:02.889688  9275 net.cpp:91] Creating Layer pool1/3x3_s2
I0403 19:28:02.889706  9275 net.cpp:425] pool1/3x3_s2 <- conv1/7x7_s2
I0403 19:28:02.889724  9275 net.cpp:399] pool1/3x3_s2 -> pool1/3x3_s2
I0403 19:28:02.889798  9275 net.cpp:141] Setting up pool1/3x3_s2
I0403 19:28:02.889823  9275 net.cpp:148] Top shape: 24 64 56 56 (4816896)
I0403 19:28:02.889838  9275 net.cpp:156] Memory required for data: 187860000
I0403 19:28:02.889853  9275 layer_factory.hpp:77] Creating layer pool1/norm1
I0403 19:28:02.889879  9275 net.cpp:91] Creating Layer pool1/norm1
I0403 19:28:02.889897  9275 net.cpp:425] pool1/norm1 <- pool1/3x3_s2
I0403 19:28:02.889914  9275 net.cpp:399] pool1/norm1 -> pool1/norm1
I0403 19:28:02.890193  9275 net.cpp:141] Setting up pool1/norm1
I0403 19:28:02.890220  9275 net.cpp:148] Top shape: 24 64 56 56 (4816896)
I0403 19:28:02.890236  9275 net.cpp:156] Memory required for data: 207127584
I0403 19:28:02.890251  9275 layer_factory.hpp:77] Creating layer conv2/3x3_reduce
I0403 19:28:02.890280  9275 net.cpp:91] Creating Layer conv2/3x3_reduce
I0403 19:28:02.890297  9275 net.cpp:425] conv2/3x3_reduce <- pool1/norm1
I0403 19:28:02.890316  9275 net.cpp:399] conv2/3x3_reduce -> conv2/3x3_reduce
I0403 19:28:02.891613  9275 net.cpp:141] Setting up conv2/3x3_reduce
I0403 19:28:02.891643  9275 net.cpp:148] Top shape: 24 64 56 56 (4816896)
I0403 19:28:02.891659  9275 net.cpp:156] Memory required for data: 226395168
I0403 19:28:02.891680  9275 layer_factory.hpp:77] Creating layer conv2/relu_3x3_reduce
I0403 19:28:02.891698  9275 net.cpp:91] Creating Layer conv2/relu_3x3_reduce
I0403 19:28:02.891716  9275 net.cpp:425] conv2/relu_3x3_reduce <- conv2/3x3_reduce
I0403 19:28:02.891732  9275 net.cpp:386] conv2/relu_3x3_reduce -> conv2/3x3_reduce (in-place)
I0403 19:28:02.891979  9275 net.cpp:141] Setting up conv2/relu_3x3_reduce
I0403 19:28:02.892005  9275 net.cpp:148] Top shape: 24 64 56 56 (4816896)
I0403 19:28:02.892021  9275 net.cpp:156] Memory required for data: 245662752
I0403 19:28:02.892036  9275 layer_factory.hpp:77] Creating layer conv2/3x3
I0403 19:28:02.892058  9275 net.cpp:91] Creating Layer conv2/3x3
I0403 19:28:02.892076  9275 net.cpp:425] conv2/3x3 <- conv2/3x3_reduce
I0403 19:28:02.892093  9275 net.cpp:399] conv2/3x3 -> conv2/3x3
I0403 19:28:02.894273  9275 net.cpp:141] Setting up conv2/3x3
I0403 19:28:02.894302  9275 net.cpp:148] Top shape: 24 192 56 56 (14450688)
I0403 19:28:02.894320  9275 net.cpp:156] Memory required for data: 303465504
I0403 19:28:02.894340  9275 layer_factory.hpp:77] Creating layer conv2/relu_3x3
I0403 19:28:02.894359  9275 net.cpp:91] Creating Layer conv2/relu_3x3
I0403 19:28:02.894376  9275 net.cpp:425] conv2/relu_3x3 <- conv2/3x3
I0403 19:28:02.894392  9275 net.cpp:386] conv2/relu_3x3 -> conv2/3x3 (in-place)
I0403 19:28:02.894551  9275 net.cpp:141] Setting up conv2/relu_3x3
I0403 19:28:02.894577  9275 net.cpp:148] Top shape: 24 192 56 56 (14450688)
I0403 19:28:02.894629  9275 net.cpp:156] Memory required for data: 361268256
I0403 19:28:02.894646  9275 layer_factory.hpp:77] Creating layer conv2/norm2
I0403 19:28:02.894665  9275 net.cpp:91] Creating Layer conv2/norm2
I0403 19:28:02.894680  9275 net.cpp:425] conv2/norm2 <- conv2/3x3
I0403 19:28:02.894698  9275 net.cpp:399] conv2/norm2 -> conv2/norm2
I0403 19:28:02.894971  9275 net.cpp:141] Setting up conv2/norm2
I0403 19:28:02.894999  9275 net.cpp:148] Top shape: 24 192 56 56 (14450688)
I0403 19:28:02.895015  9275 net.cpp:156] Memory required for data: 419071008
I0403 19:28:02.895030  9275 layer_factory.hpp:77] Creating layer pool2/3x3_s2
I0403 19:28:02.895050  9275 net.cpp:91] Creating Layer pool2/3x3_s2
I0403 19:28:02.895063  9275 net.cpp:425] pool2/3x3_s2 <- conv2/norm2
I0403 19:28:02.895081  9275 net.cpp:399] pool2/3x3_s2 -> pool2/3x3_s2
I0403 19:28:02.895128  9275 net.cpp:141] Setting up pool2/3x3_s2
I0403 19:28:02.895149  9275 net.cpp:148] Top shape: 24 192 28 28 (3612672)
I0403 19:28:02.895164  9275 net.cpp:156] Memory required for data: 433521696
I0403 19:28:02.895179  9275 layer_factory.hpp:77] Creating layer pool2/3x3_s2_pool2/3x3_s2_0_split
I0403 19:28:02.895197  9275 net.cpp:91] Creating Layer pool2/3x3_s2_pool2/3x3_s2_0_split
I0403 19:28:02.895212  9275 net.cpp:425] pool2/3x3_s2_pool2/3x3_s2_0_split <- pool2/3x3_s2
I0403 19:28:02.895229  9275 net.cpp:399] pool2/3x3_s2_pool2/3x3_s2_0_split -> pool2/3x3_s2_pool2/3x3_s2_0_split_0
I0403 19:28:02.895259  9275 net.cpp:399] pool2/3x3_s2_pool2/3x3_s2_0_split -> pool2/3x3_s2_pool2/3x3_s2_0_split_1
I0403 19:28:02.895278  9275 net.cpp:399] pool2/3x3_s2_pool2/3x3_s2_0_split -> pool2/3x3_s2_pool2/3x3_s2_0_split_2
I0403 19:28:02.895298  9275 net.cpp:399] pool2/3x3_s2_pool2/3x3_s2_0_split -> pool2/3x3_s2_pool2/3x3_s2_0_split_3
I0403 19:28:02.895357  9275 net.cpp:141] Setting up pool2/3x3_s2_pool2/3x3_s2_0_split
I0403 19:28:02.895380  9275 net.cpp:148] Top shape: 24 192 28 28 (3612672)
I0403 19:28:02.895395  9275 net.cpp:148] Top shape: 24 192 28 28 (3612672)
I0403 19:28:02.895411  9275 net.cpp:148] Top shape: 24 192 28 28 (3612672)
I0403 19:28:02.895426  9275 net.cpp:148] Top shape: 24 192 28 28 (3612672)
I0403 19:28:02.895439  9275 net.cpp:156] Memory required for data: 491324448
I0403 19:28:02.895453  9275 layer_factory.hpp:77] Creating layer inception_3a/1x1
I0403 19:28:02.895478  9275 net.cpp:91] Creating Layer inception_3a/1x1
I0403 19:28:02.895494  9275 net.cpp:425] inception_3a/1x1 <- pool2/3x3_s2_pool2/3x3_s2_0_split_0
I0403 19:28:02.895512  9275 net.cpp:399] inception_3a/1x1 -> inception_3a/1x1
I0403 19:28:02.896875  9275 net.cpp:141] Setting up inception_3a/1x1
I0403 19:28:02.896906  9275 net.cpp:148] Top shape: 24 64 28 28 (1204224)
I0403 19:28:02.896922  9275 net.cpp:156] Memory required for data: 496141344
I0403 19:28:02.896940  9275 layer_factory.hpp:77] Creating layer inception_3a/relu_1x1
I0403 19:28:02.896958  9275 net.cpp:91] Creating Layer inception_3a/relu_1x1
I0403 19:28:02.896973  9275 net.cpp:425] inception_3a/relu_1x1 <- inception_3a/1x1
I0403 19:28:02.896991  9275 net.cpp:386] inception_3a/relu_1x1 -> inception_3a/1x1 (in-place)
I0403 19:28:02.897136  9275 net.cpp:141] Setting up inception_3a/relu_1x1
I0403 19:28:02.897161  9275 net.cpp:148] Top shape: 24 64 28 28 (1204224)
I0403 19:28:02.897176  9275 net.cpp:156] Memory required for data: 500958240
I0403 19:28:02.897189  9275 layer_factory.hpp:77] Creating layer inception_3a/3x3_reduce
I0403 19:28:02.897209  9275 net.cpp:91] Creating Layer inception_3a/3x3_reduce
I0403 19:28:02.897225  9275 net.cpp:425] inception_3a/3x3_reduce <- pool2/3x3_s2_pool2/3x3_s2_0_split_1
I0403 19:28:02.897243  9275 net.cpp:399] inception_3a/3x3_reduce -> inception_3a/3x3_reduce
I0403 19:28:02.898820  9275 net.cpp:141] Setting up inception_3a/3x3_reduce
I0403 19:28:02.898851  9275 net.cpp:148] Top shape: 24 96 28 28 (1806336)
I0403 19:28:02.898867  9275 net.cpp:156] Memory required for data: 508183584
I0403 19:28:02.898888  9275 layer_factory.hpp:77] Creating layer inception_3a/relu_3x3_reduce
I0403 19:28:02.898924  9275 net.cpp:91] Creating Layer inception_3a/relu_3x3_reduce
I0403 19:28:02.898941  9275 net.cpp:425] inception_3a/relu_3x3_reduce <- inception_3a/3x3_reduce
I0403 19:28:02.898958  9275 net.cpp:386] inception_3a/relu_3x3_reduce -> inception_3a/3x3_reduce (in-place)
I0403 19:28:02.899128  9275 net.cpp:141] Setting up inception_3a/relu_3x3_reduce
I0403 19:28:02.899152  9275 net.cpp:148] Top shape: 24 96 28 28 (1806336)
I0403 19:28:02.899168  9275 net.cpp:156] Memory required for data: 515408928
I0403 19:28:02.899181  9275 layer_factory.hpp:77] Creating layer inception_3a/3x3
I0403 19:28:02.899204  9275 net.cpp:91] Creating Layer inception_3a/3x3
I0403 19:28:02.899224  9275 net.cpp:425] inception_3a/3x3 <- inception_3a/3x3_reduce
I0403 19:28:02.899241  9275 net.cpp:399] inception_3a/3x3 -> inception_3a/3x3
I0403 19:28:02.900774  9275 net.cpp:141] Setting up inception_3a/3x3
I0403 19:28:02.900801  9275 net.cpp:148] Top shape: 24 128 28 28 (2408448)
I0403 19:28:02.900816  9275 net.cpp:156] Memory required for data: 525042720
I0403 19:28:02.900835  9275 layer_factory.hpp:77] Creating layer inception_3a/relu_3x3
I0403 19:28:02.900852  9275 net.cpp:91] Creating Layer inception_3a/relu_3x3
I0403 19:28:02.900868  9275 net.cpp:425] inception_3a/relu_3x3 <- inception_3a/3x3
I0403 19:28:02.900887  9275 net.cpp:386] inception_3a/relu_3x3 -> inception_3a/3x3 (in-place)
I0403 19:28:02.901141  9275 net.cpp:141] Setting up inception_3a/relu_3x3
I0403 19:28:02.901166  9275 net.cpp:148] Top shape: 24 128 28 28 (2408448)
I0403 19:28:02.901181  9275 net.cpp:156] Memory required for data: 534676512
I0403 19:28:02.901197  9275 layer_factory.hpp:77] Creating layer inception_3a/5x5_reduce
I0403 19:28:02.901221  9275 net.cpp:91] Creating Layer inception_3a/5x5_reduce
I0403 19:28:02.901237  9275 net.cpp:425] inception_3a/5x5_reduce <- pool2/3x3_s2_pool2/3x3_s2_0_split_2
I0403 19:28:02.901257  9275 net.cpp:399] inception_3a/5x5_reduce -> inception_3a/5x5_reduce
I0403 19:28:02.902155  9275 net.cpp:141] Setting up inception_3a/5x5_reduce
I0403 19:28:02.902182  9275 net.cpp:148] Top shape: 24 16 28 28 (301056)
I0403 19:28:02.902197  9275 net.cpp:156] Memory required for data: 535880736
I0403 19:28:02.902217  9275 layer_factory.hpp:77] Creating layer inception_3a/relu_5x5_reduce
I0403 19:28:02.902235  9275 net.cpp:91] Creating Layer inception_3a/relu_5x5_reduce
I0403 19:28:02.902251  9275 net.cpp:425] inception_3a/relu_5x5_reduce <- inception_3a/5x5_reduce
I0403 19:28:02.902269  9275 net.cpp:386] inception_3a/relu_5x5_reduce -> inception_3a/5x5_reduce (in-place)
I0403 19:28:02.902551  9275 net.cpp:141] Setting up inception_3a/relu_5x5_reduce
I0403 19:28:02.902577  9275 net.cpp:148] Top shape: 24 16 28 28 (301056)
I0403 19:28:02.902592  9275 net.cpp:156] Memory required for data: 537084960
I0403 19:28:02.902607  9275 layer_factory.hpp:77] Creating layer inception_3a/5x5
I0403 19:28:02.902629  9275 net.cpp:91] Creating Layer inception_3a/5x5
I0403 19:28:02.902647  9275 net.cpp:425] inception_3a/5x5 <- inception_3a/5x5_reduce
I0403 19:28:02.902667  9275 net.cpp:399] inception_3a/5x5 -> inception_3a/5x5
I0403 19:28:02.903610  9275 net.cpp:141] Setting up inception_3a/5x5
I0403 19:28:02.903637  9275 net.cpp:148] Top shape: 24 32 28 28 (602112)
I0403 19:28:02.903653  9275 net.cpp:156] Memory required for data: 539493408
I0403 19:28:02.903674  9275 layer_factory.hpp:77] Creating layer inception_3a/relu_5x5
I0403 19:28:02.903692  9275 net.cpp:91] Creating Layer inception_3a/relu_5x5
I0403 19:28:02.903707  9275 net.cpp:425] inception_3a/relu_5x5 <- inception_3a/5x5
I0403 19:28:02.903729  9275 net.cpp:386] inception_3a/relu_5x5 -> inception_3a/5x5 (in-place)
I0403 19:28:02.903892  9275 net.cpp:141] Setting up inception_3a/relu_5x5
I0403 19:28:02.903918  9275 net.cpp:148] Top shape: 24 32 28 28 (602112)
I0403 19:28:02.903933  9275 net.cpp:156] Memory required for data: 541901856
I0403 19:28:02.903947  9275 layer_factory.hpp:77] Creating layer inception_3a/pool
I0403 19:28:02.903966  9275 net.cpp:91] Creating Layer inception_3a/pool
I0403 19:28:02.903983  9275 net.cpp:425] inception_3a/pool <- pool2/3x3_s2_pool2/3x3_s2_0_split_3
I0403 19:28:02.904016  9275 net.cpp:399] inception_3a/pool -> inception_3a/pool
I0403 19:28:02.904072  9275 net.cpp:141] Setting up inception_3a/pool
I0403 19:28:02.904096  9275 net.cpp:148] Top shape: 24 192 28 28 (3612672)
I0403 19:28:02.904111  9275 net.cpp:156] Memory required for data: 556352544
I0403 19:28:02.904125  9275 layer_factory.hpp:77] Creating layer inception_3a/pool_proj
I0403 19:28:02.904147  9275 net.cpp:91] Creating Layer inception_3a/pool_proj
I0403 19:28:02.904165  9275 net.cpp:425] inception_3a/pool_proj <- inception_3a/pool
I0403 19:28:02.904184  9275 net.cpp:399] inception_3a/pool_proj -> inception_3a/pool_proj
I0403 19:28:02.905084  9275 net.cpp:141] Setting up inception_3a/pool_proj
I0403 19:28:02.905114  9275 net.cpp:148] Top shape: 24 32 28 28 (602112)
I0403 19:28:02.905130  9275 net.cpp:156] Memory required for data: 558760992
I0403 19:28:02.905151  9275 layer_factory.hpp:77] Creating layer inception_3a/relu_pool_proj
I0403 19:28:02.905172  9275 net.cpp:91] Creating Layer inception_3a/relu_pool_proj
I0403 19:28:02.905190  9275 net.cpp:425] inception_3a/relu_pool_proj <- inception_3a/pool_proj
I0403 19:28:02.905207  9275 net.cpp:386] inception_3a/relu_pool_proj -> inception_3a/pool_proj (in-place)
I0403 19:28:02.905472  9275 net.cpp:141] Setting up inception_3a/relu_pool_proj
I0403 19:28:02.905498  9275 net.cpp:148] Top shape: 24 32 28 28 (602112)
I0403 19:28:02.905513  9275 net.cpp:156] Memory required for data: 561169440
I0403 19:28:02.905527  9275 layer_factory.hpp:77] Creating layer inception_3a/output
I0403 19:28:02.905545  9275 net.cpp:91] Creating Layer inception_3a/output
I0403 19:28:02.905560  9275 net.cpp:425] inception_3a/output <- inception_3a/1x1
I0403 19:28:02.905576  9275 net.cpp:425] inception_3a/output <- inception_3a/3x3
I0403 19:28:02.905591  9275 net.cpp:425] inception_3a/output <- inception_3a/5x5
I0403 19:28:02.905607  9275 net.cpp:425] inception_3a/output <- inception_3a/pool_proj
I0403 19:28:02.905625  9275 net.cpp:399] inception_3a/output -> inception_3a/output
I0403 19:28:02.905668  9275 net.cpp:141] Setting up inception_3a/output
I0403 19:28:02.905694  9275 net.cpp:148] Top shape: 24 256 28 28 (4816896)
I0403 19:28:02.905719  9275 net.cpp:156] Memory required for data: 580437024
I0403 19:28:02.905733  9275 layer_factory.hpp:77] Creating layer inception_3a/output_inception_3a/output_0_split
I0403 19:28:02.905750  9275 net.cpp:91] Creating Layer inception_3a/output_inception_3a/output_0_split
I0403 19:28:02.905766  9275 net.cpp:425] inception_3a/output_inception_3a/output_0_split <- inception_3a/output
I0403 19:28:02.905782  9275 net.cpp:399] inception_3a/output_inception_3a/output_0_split -> inception_3a/output_inception_3a/output_0_split_0
I0403 19:28:02.905802  9275 net.cpp:399] inception_3a/output_inception_3a/output_0_split -> inception_3a/output_inception_3a/output_0_split_1
I0403 19:28:02.905825  9275 net.cpp:399] inception_3a/output_inception_3a/output_0_split -> inception_3a/output_inception_3a/output_0_split_2
I0403 19:28:02.905845  9275 net.cpp:399] inception_3a/output_inception_3a/output_0_split -> inception_3a/output_inception_3a/output_0_split_3
I0403 19:28:02.905920  9275 net.cpp:141] Setting up inception_3a/output_inception_3a/output_0_split
I0403 19:28:02.905944  9275 net.cpp:148] Top shape: 24 256 28 28 (4816896)
I0403 19:28:02.905962  9275 net.cpp:148] Top shape: 24 256 28 28 (4816896)
I0403 19:28:02.905978  9275 net.cpp:148] Top shape: 24 256 28 28 (4816896)
I0403 19:28:02.905993  9275 net.cpp:148] Top shape: 24 256 28 28 (4816896)
I0403 19:28:02.906008  9275 net.cpp:156] Memory required for data: 657507360
I0403 19:28:02.906021  9275 layer_factory.hpp:77] Creating layer inception_3b/1x1
I0403 19:28:02.906043  9275 net.cpp:91] Creating Layer inception_3b/1x1
I0403 19:28:02.906059  9275 net.cpp:425] inception_3b/1x1 <- inception_3a/output_inception_3a/output_0_split_0
I0403 19:28:02.906078  9275 net.cpp:399] inception_3b/1x1 -> inception_3b/1x1
I0403 19:28:02.907150  9275 net.cpp:141] Setting up inception_3b/1x1
I0403 19:28:02.907191  9275 net.cpp:148] Top shape: 24 128 28 28 (2408448)
I0403 19:28:02.907207  9275 net.cpp:156] Memory required for data: 667141152
I0403 19:28:02.907225  9275 layer_factory.hpp:77] Creating layer inception_3b/relu_1x1
I0403 19:28:02.907243  9275 net.cpp:91] Creating Layer inception_3b/relu_1x1
I0403 19:28:02.907258  9275 net.cpp:425] inception_3b/relu_1x1 <- inception_3b/1x1
I0403 19:28:02.907276  9275 net.cpp:386] inception_3b/relu_1x1 -> inception_3b/1x1 (in-place)
I0403 19:28:02.907438  9275 net.cpp:141] Setting up inception_3b/relu_1x1
I0403 19:28:02.907477  9275 net.cpp:148] Top shape: 24 128 28 28 (2408448)
I0403 19:28:02.907493  9275 net.cpp:156] Memory required for data: 676774944
I0403 19:28:02.907507  9275 layer_factory.hpp:77] Creating layer inception_3b/3x3_reduce
I0403 19:28:02.907529  9275 net.cpp:91] Creating Layer inception_3b/3x3_reduce
I0403 19:28:02.907546  9275 net.cpp:425] inception_3b/3x3_reduce <- inception_3a/output_inception_3a/output_0_split_1
I0403 19:28:02.907567  9275 net.cpp:399] inception_3b/3x3_reduce -> inception_3b/3x3_reduce
I0403 19:28:02.908643  9275 net.cpp:141] Setting up inception_3b/3x3_reduce
I0403 19:28:02.908674  9275 net.cpp:148] Top shape: 24 128 28 28 (2408448)
I0403 19:28:02.908691  9275 net.cpp:156] Memory required for data: 686408736
I0403 19:28:02.908710  9275 layer_factory.hpp:77] Creating layer inception_3b/relu_3x3_reduce
I0403 19:28:02.908727  9275 net.cpp:91] Creating Layer inception_3b/relu_3x3_reduce
I0403 19:28:02.908745  9275 net.cpp:425] inception_3b/relu_3x3_reduce <- inception_3b/3x3_reduce
I0403 19:28:02.908762  9275 net.cpp:386] inception_3b/relu_3x3_reduce -> inception_3b/3x3_reduce (in-place)
I0403 19:28:02.908936  9275 net.cpp:141] Setting up inception_3b/relu_3x3_reduce
I0403 19:28:02.908962  9275 net.cpp:148] Top shape: 24 128 28 28 (2408448)
I0403 19:28:02.908977  9275 net.cpp:156] Memory required for data: 696042528
I0403 19:28:02.908990  9275 layer_factory.hpp:77] Creating layer inception_3b/3x3
I0403 19:28:02.909014  9275 net.cpp:91] Creating Layer inception_3b/3x3
I0403 19:28:02.909031  9275 net.cpp:425] inception_3b/3x3 <- inception_3b/3x3_reduce
I0403 19:28:02.909052  9275 net.cpp:399] inception_3b/3x3 -> inception_3b/3x3
I0403 19:28:02.911785  9275 net.cpp:141] Setting up inception_3b/3x3
I0403 19:28:02.911813  9275 net.cpp:148] Top shape: 24 192 28 28 (3612672)
I0403 19:28:02.911828  9275 net.cpp:156] Memory required for data: 710493216
I0403 19:28:02.911845  9275 layer_factory.hpp:77] Creating layer inception_3b/relu_3x3
I0403 19:28:02.911864  9275 net.cpp:91] Creating Layer inception_3b/relu_3x3
I0403 19:28:02.911878  9275 net.cpp:425] inception_3b/relu_3x3 <- inception_3b/3x3
I0403 19:28:02.911898  9275 net.cpp:386] inception_3b/relu_3x3 -> inception_3b/3x3 (in-place)
I0403 19:28:02.912158  9275 net.cpp:141] Setting up inception_3b/relu_3x3
I0403 19:28:02.912184  9275 net.cpp:148] Top shape: 24 192 28 28 (3612672)
I0403 19:28:02.912199  9275 net.cpp:156] Memory required for data: 724943904
I0403 19:28:02.912214  9275 layer_factory.hpp:77] Creating layer inception_3b/5x5_reduce
I0403 19:28:02.912236  9275 net.cpp:91] Creating Layer inception_3b/5x5_reduce
I0403 19:28:02.912255  9275 net.cpp:425] inception_3b/5x5_reduce <- inception_3a/output_inception_3a/output_0_split_2
I0403 19:28:02.912276  9275 net.cpp:399] inception_3b/5x5_reduce -> inception_3b/5x5_reduce
I0403 19:28:02.913208  9275 net.cpp:141] Setting up inception_3b/5x5_reduce
I0403 19:28:02.913236  9275 net.cpp:148] Top shape: 24 32 28 28 (602112)
I0403 19:28:02.913252  9275 net.cpp:156] Memory required for data: 727352352
I0403 19:28:02.913270  9275 layer_factory.hpp:77] Creating layer inception_3b/relu_5x5_reduce
I0403 19:28:02.913287  9275 net.cpp:91] Creating Layer inception_3b/relu_5x5_reduce
I0403 19:28:02.913302  9275 net.cpp:425] inception_3b/relu_5x5_reduce <- inception_3b/5x5_reduce
I0403 19:28:02.913322  9275 net.cpp:386] inception_3b/relu_5x5_reduce -> inception_3b/5x5_reduce (in-place)
I0403 19:28:02.913496  9275 net.cpp:141] Setting up inception_3b/relu_5x5_reduce
I0403 19:28:02.913532  9275 net.cpp:148] Top shape: 24 32 28 28 (602112)
I0403 19:28:02.913547  9275 net.cpp:156] Memory required for data: 729760800
I0403 19:28:02.913560  9275 layer_factory.hpp:77] Creating layer inception_3b/5x5
I0403 19:28:02.913583  9275 net.cpp:91] Creating Layer inception_3b/5x5
I0403 19:28:02.913600  9275 net.cpp:425] inception_3b/5x5 <- inception_3b/5x5_reduce
I0403 19:28:02.913620  9275 net.cpp:399] inception_3b/5x5 -> inception_3b/5x5
I0403 19:28:02.915473  9275 net.cpp:141] Setting up inception_3b/5x5
I0403 19:28:02.915504  9275 net.cpp:148] Top shape: 24 96 28 28 (1806336)
I0403 19:28:02.915519  9275 net.cpp:156] Memory required for data: 736986144
I0403 19:28:02.915539  9275 layer_factory.hpp:77] Creating layer inception_3b/relu_5x5
I0403 19:28:02.915556  9275 net.cpp:91] Creating Layer inception_3b/relu_5x5
I0403 19:28:02.915572  9275 net.cpp:425] inception_3b/relu_5x5 <- inception_3b/5x5
I0403 19:28:02.915588  9275 net.cpp:386] inception_3b/relu_5x5 -> inception_3b/5x5 (in-place)
I0403 19:28:02.915766  9275 net.cpp:141] Setting up inception_3b/relu_5x5
I0403 19:28:02.915791  9275 net.cpp:148] Top shape: 24 96 28 28 (1806336)
I0403 19:28:02.915805  9275 net.cpp:156] Memory required for data: 744211488
I0403 19:28:02.915819  9275 layer_factory.hpp:77] Creating layer inception_3b/pool
I0403 19:28:02.915837  9275 net.cpp:91] Creating Layer inception_3b/pool
I0403 19:28:02.915853  9275 net.cpp:425] inception_3b/pool <- inception_3a/output_inception_3a/output_0_split_3
I0403 19:28:02.915869  9275 net.cpp:399] inception_3b/pool -> inception_3b/pool
I0403 19:28:02.915922  9275 net.cpp:141] Setting up inception_3b/pool
I0403 19:28:02.915947  9275 net.cpp:148] Top shape: 24 256 28 28 (4816896)
I0403 19:28:02.915962  9275 net.cpp:156] Memory required for data: 763479072
I0403 19:28:02.915977  9275 layer_factory.hpp:77] Creating layer inception_3b/pool_proj
I0403 19:28:02.916002  9275 net.cpp:91] Creating Layer inception_3b/pool_proj
I0403 19:28:02.916020  9275 net.cpp:425] inception_3b/pool_proj <- inception_3b/pool
I0403 19:28:02.916038  9275 net.cpp:399] inception_3b/pool_proj -> inception_3b/pool_proj
I0403 19:28:02.917019  9275 net.cpp:141] Setting up inception_3b/pool_proj
I0403 19:28:02.917044  9275 net.cpp:148] Top shape: 24 64 28 28 (1204224)
I0403 19:28:02.917060  9275 net.cpp:156] Memory required for data: 768295968
I0403 19:28:02.917078  9275 layer_factory.hpp:77] Creating layer inception_3b/relu_pool_proj
I0403 19:28:02.917098  9275 net.cpp:91] Creating Layer inception_3b/relu_pool_proj
I0403 19:28:02.917115  9275 net.cpp:425] inception_3b/relu_pool_proj <- inception_3b/pool_proj
I0403 19:28:02.917132  9275 net.cpp:386] inception_3b/relu_pool_proj -> inception_3b/pool_proj (in-place)
I0403 19:28:02.917501  9275 net.cpp:141] Setting up inception_3b/relu_pool_proj
I0403 19:28:02.917527  9275 net.cpp:148] Top shape: 24 64 28 28 (1204224)
I0403 19:28:02.917542  9275 net.cpp:156] Memory required for data: 773112864
I0403 19:28:02.917557  9275 layer_factory.hpp:77] Creating layer inception_3b/output
I0403 19:28:02.917573  9275 net.cpp:91] Creating Layer inception_3b/output
I0403 19:28:02.917588  9275 net.cpp:425] inception_3b/output <- inception_3b/1x1
I0403 19:28:02.917605  9275 net.cpp:425] inception_3b/output <- inception_3b/3x3
I0403 19:28:02.917620  9275 net.cpp:425] inception_3b/output <- inception_3b/5x5
I0403 19:28:02.917635  9275 net.cpp:425] inception_3b/output <- inception_3b/pool_proj
I0403 19:28:02.917654  9275 net.cpp:399] inception_3b/output -> inception_3b/output
I0403 19:28:02.917697  9275 net.cpp:141] Setting up inception_3b/output
I0403 19:28:02.917721  9275 net.cpp:148] Top shape: 24 480 28 28 (9031680)
I0403 19:28:02.917735  9275 net.cpp:156] Memory required for data: 809239584
I0403 19:28:02.917749  9275 layer_factory.hpp:77] Creating layer pool3/3x3_s2
I0403 19:28:02.917767  9275 net.cpp:91] Creating Layer pool3/3x3_s2
I0403 19:28:02.917783  9275 net.cpp:425] pool3/3x3_s2 <- inception_3b/output
I0403 19:28:02.917800  9275 net.cpp:399] pool3/3x3_s2 -> pool3/3x3_s2
I0403 19:28:02.917868  9275 net.cpp:141] Setting up pool3/3x3_s2
I0403 19:28:02.917891  9275 net.cpp:148] Top shape: 24 480 14 14 (2257920)
I0403 19:28:02.917906  9275 net.cpp:156] Memory required for data: 818271264
I0403 19:28:02.917919  9275 layer_factory.hpp:77] Creating layer pool3/3x3_s2_pool3/3x3_s2_0_split
I0403 19:28:02.917937  9275 net.cpp:91] Creating Layer pool3/3x3_s2_pool3/3x3_s2_0_split
I0403 19:28:02.917953  9275 net.cpp:425] pool3/3x3_s2_pool3/3x3_s2_0_split <- pool3/3x3_s2
I0403 19:28:02.917970  9275 net.cpp:399] pool3/3x3_s2_pool3/3x3_s2_0_split -> pool3/3x3_s2_pool3/3x3_s2_0_split_0
I0403 19:28:02.917987  9275 net.cpp:399] pool3/3x3_s2_pool3/3x3_s2_0_split -> pool3/3x3_s2_pool3/3x3_s2_0_split_1
I0403 19:28:02.918009  9275 net.cpp:399] pool3/3x3_s2_pool3/3x3_s2_0_split -> pool3/3x3_s2_pool3/3x3_s2_0_split_2
I0403 19:28:02.918027  9275 net.cpp:399] pool3/3x3_s2_pool3/3x3_s2_0_split -> pool3/3x3_s2_pool3/3x3_s2_0_split_3
I0403 19:28:02.918097  9275 net.cpp:141] Setting up pool3/3x3_s2_pool3/3x3_s2_0_split
I0403 19:28:02.918118  9275 net.cpp:148] Top shape: 24 480 14 14 (2257920)
I0403 19:28:02.918135  9275 net.cpp:148] Top shape: 24 480 14 14 (2257920)
I0403 19:28:02.918151  9275 net.cpp:148] Top shape: 24 480 14 14 (2257920)
I0403 19:28:02.918179  9275 net.cpp:148] Top shape: 24 480 14 14 (2257920)
I0403 19:28:02.918195  9275 net.cpp:156] Memory required for data: 854397984
I0403 19:28:02.918210  9275 layer_factory.hpp:77] Creating layer inception_4a/1x1
I0403 19:28:02.918231  9275 net.cpp:91] Creating Layer inception_4a/1x1
I0403 19:28:02.918247  9275 net.cpp:425] inception_4a/1x1 <- pool3/3x3_s2_pool3/3x3_s2_0_split_0
I0403 19:28:02.918269  9275 net.cpp:399] inception_4a/1x1 -> inception_4a/1x1
I0403 19:28:02.919762  9275 net.cpp:141] Setting up inception_4a/1x1
I0403 19:28:02.919788  9275 net.cpp:148] Top shape: 24 192 14 14 (903168)
I0403 19:28:02.919803  9275 net.cpp:156] Memory required for data: 858010656
I0403 19:28:02.919821  9275 layer_factory.hpp:77] Creating layer inception_4a/relu_1x1
I0403 19:28:02.919839  9275 net.cpp:91] Creating Layer inception_4a/relu_1x1
I0403 19:28:02.919857  9275 net.cpp:425] inception_4a/relu_1x1 <- inception_4a/1x1
I0403 19:28:02.919873  9275 net.cpp:386] inception_4a/relu_1x1 -> inception_4a/1x1 (in-place)
I0403 19:28:02.920043  9275 net.cpp:141] Setting up inception_4a/relu_1x1
I0403 19:28:02.920069  9275 net.cpp:148] Top shape: 24 192 14 14 (903168)
I0403 19:28:02.920084  9275 net.cpp:156] Memory required for data: 861623328
I0403 19:28:02.920099  9275 layer_factory.hpp:77] Creating layer inception_4a/3x3_reduce
I0403 19:28:02.920120  9275 net.cpp:91] Creating Layer inception_4a/3x3_reduce
I0403 19:28:02.920138  9275 net.cpp:425] inception_4a/3x3_reduce <- pool3/3x3_s2_pool3/3x3_s2_0_split_1
I0403 19:28:02.920156  9275 net.cpp:399] inception_4a/3x3_reduce -> inception_4a/3x3_reduce
I0403 19:28:02.921380  9275 net.cpp:141] Setting up inception_4a/3x3_reduce
I0403 19:28:02.921406  9275 net.cpp:148] Top shape: 24 96 14 14 (451584)
I0403 19:28:02.921422  9275 net.cpp:156] Memory required for data: 863429664
I0403 19:28:02.921445  9275 layer_factory.hpp:77] Creating layer inception_4a/relu_3x3_reduce
I0403 19:28:02.921469  9275 net.cpp:91] Creating Layer inception_4a/relu_3x3_reduce
I0403 19:28:02.921489  9275 net.cpp:425] inception_4a/relu_3x3_reduce <- inception_4a/3x3_reduce
I0403 19:28:02.921506  9275 net.cpp:386] inception_4a/relu_3x3_reduce -> inception_4a/3x3_reduce (in-place)
I0403 19:28:02.921672  9275 net.cpp:141] Setting up inception_4a/relu_3x3_reduce
I0403 19:28:02.921696  9275 net.cpp:148] Top shape: 24 96 14 14 (451584)
I0403 19:28:02.921710  9275 net.cpp:156] Memory required for data: 865236000
I0403 19:28:02.921725  9275 layer_factory.hpp:77] Creating layer inception_4a/3x3
I0403 19:28:02.921748  9275 net.cpp:91] Creating Layer inception_4a/3x3
I0403 19:28:02.921766  9275 net.cpp:425] inception_4a/3x3 <- inception_4a/3x3_reduce
I0403 19:28:02.921782  9275 net.cpp:399] inception_4a/3x3 -> inception_4a/3x3
I0403 19:28:02.924301  9275 net.cpp:141] Setting up inception_4a/3x3
I0403 19:28:02.924335  9275 net.cpp:148] Top shape: 24 208 14 14 (978432)
I0403 19:28:02.924351  9275 net.cpp:156] Memory required for data: 869149728
I0403 19:28:02.924370  9275 layer_factory.hpp:77] Creating layer inception_4a/relu_3x3
I0403 19:28:02.924388  9275 net.cpp:91] Creating Layer inception_4a/relu_3x3
I0403 19:28:02.924403  9275 net.cpp:425] inception_4a/relu_3x3 <- inception_4a/3x3
I0403 19:28:02.924419  9275 net.cpp:386] inception_4a/relu_3x3 -> inception_4a/3x3 (in-place)
I0403 19:28:02.924685  9275 net.cpp:141] Setting up inception_4a/relu_3x3
I0403 19:28:02.924712  9275 net.cpp:148] Top shape: 24 208 14 14 (978432)
I0403 19:28:02.924728  9275 net.cpp:156] Memory required for data: 873063456
I0403 19:28:02.924743  9275 layer_factory.hpp:77] Creating layer inception_4a/5x5_reduce
I0403 19:28:02.924765  9275 net.cpp:91] Creating Layer inception_4a/5x5_reduce
I0403 19:28:02.924782  9275 net.cpp:425] inception_4a/5x5_reduce <- pool3/3x3_s2_pool3/3x3_s2_0_split_2
I0403 19:28:02.924800  9275 net.cpp:399] inception_4a/5x5_reduce -> inception_4a/5x5_reduce
I0403 19:28:02.925760  9275 net.cpp:141] Setting up inception_4a/5x5_reduce
I0403 19:28:02.925786  9275 net.cpp:148] Top shape: 24 16 14 14 (75264)
I0403 19:28:02.925801  9275 net.cpp:156] Memory required for data: 873364512
I0403 19:28:02.925820  9275 layer_factory.hpp:77] Creating layer inception_4a/relu_5x5_reduce
I0403 19:28:02.925838  9275 net.cpp:91] Creating Layer inception_4a/relu_5x5_reduce
I0403 19:28:02.925853  9275 net.cpp:425] inception_4a/relu_5x5_reduce <- inception_4a/5x5_reduce
I0403 19:28:02.925871  9275 net.cpp:386] inception_4a/relu_5x5_reduce -> inception_4a/5x5_reduce (in-place)
I0403 19:28:02.926040  9275 net.cpp:141] Setting up inception_4a/relu_5x5_reduce
I0403 19:28:02.926065  9275 net.cpp:148] Top shape: 24 16 14 14 (75264)
I0403 19:28:02.926080  9275 net.cpp:156] Memory required for data: 873665568
I0403 19:28:02.926095  9275 layer_factory.hpp:77] Creating layer inception_4a/5x5
I0403 19:28:02.926116  9275 net.cpp:91] Creating Layer inception_4a/5x5
I0403 19:28:02.926134  9275 net.cpp:425] inception_4a/5x5 <- inception_4a/5x5_reduce
I0403 19:28:02.926154  9275 net.cpp:399] inception_4a/5x5 -> inception_4a/5x5
I0403 19:28:02.927196  9275 net.cpp:141] Setting up inception_4a/5x5
I0403 19:28:02.927224  9275 net.cpp:148] Top shape: 24 48 14 14 (225792)
I0403 19:28:02.927240  9275 net.cpp:156] Memory required for data: 874568736
I0403 19:28:02.927258  9275 layer_factory.hpp:77] Creating layer inception_4a/relu_5x5
I0403 19:28:02.927289  9275 net.cpp:91] Creating Layer inception_4a/relu_5x5
I0403 19:28:02.927305  9275 net.cpp:425] inception_4a/relu_5x5 <- inception_4a/5x5
I0403 19:28:02.927323  9275 net.cpp:386] inception_4a/relu_5x5 -> inception_4a/5x5 (in-place)
I0403 19:28:02.927527  9275 net.cpp:141] Setting up inception_4a/relu_5x5
I0403 19:28:02.927554  9275 net.cpp:148] Top shape: 24 48 14 14 (225792)
I0403 19:28:02.927570  9275 net.cpp:156] Memory required for data: 875471904
I0403 19:28:02.927585  9275 layer_factory.hpp:77] Creating layer inception_4a/pool
I0403 19:28:02.927603  9275 net.cpp:91] Creating Layer inception_4a/pool
I0403 19:28:02.927619  9275 net.cpp:425] inception_4a/pool <- pool3/3x3_s2_pool3/3x3_s2_0_split_3
I0403 19:28:02.927639  9275 net.cpp:399] inception_4a/pool -> inception_4a/pool
I0403 19:28:02.927698  9275 net.cpp:141] Setting up inception_4a/pool
I0403 19:28:02.927721  9275 net.cpp:148] Top shape: 24 480 14 14 (2257920)
I0403 19:28:02.927748  9275 net.cpp:156] Memory required for data: 884503584
I0403 19:28:02.927762  9275 layer_factory.hpp:77] Creating layer inception_4a/pool_proj
I0403 19:28:02.927783  9275 net.cpp:91] Creating Layer inception_4a/pool_proj
I0403 19:28:02.927801  9275 net.cpp:425] inception_4a/pool_proj <- inception_4a/pool
I0403 19:28:02.927821  9275 net.cpp:399] inception_4a/pool_proj -> inception_4a/pool_proj
I0403 19:28:02.928915  9275 net.cpp:141] Setting up inception_4a/pool_proj
I0403 19:28:02.928941  9275 net.cpp:148] Top shape: 24 64 14 14 (301056)
I0403 19:28:02.928972  9275 net.cpp:156] Memory required for data: 885707808
I0403 19:28:02.928989  9275 layer_factory.hpp:77] Creating layer inception_4a/relu_pool_proj
I0403 19:28:02.929010  9275 net.cpp:91] Creating Layer inception_4a/relu_pool_proj
I0403 19:28:02.929028  9275 net.cpp:425] inception_4a/relu_pool_proj <- inception_4a/pool_proj
I0403 19:28:02.929045  9275 net.cpp:386] inception_4a/relu_pool_proj -> inception_4a/pool_proj (in-place)
I0403 19:28:02.929308  9275 net.cpp:141] Setting up inception_4a/relu_pool_proj
I0403 19:28:02.929333  9275 net.cpp:148] Top shape: 24 64 14 14 (301056)
I0403 19:28:02.929348  9275 net.cpp:156] Memory required for data: 886912032
I0403 19:28:02.929363  9275 layer_factory.hpp:77] Creating layer inception_4a/output
I0403 19:28:02.929381  9275 net.cpp:91] Creating Layer inception_4a/output
I0403 19:28:02.929397  9275 net.cpp:425] inception_4a/output <- inception_4a/1x1
I0403 19:28:02.929414  9275 net.cpp:425] inception_4a/output <- inception_4a/3x3
I0403 19:28:02.929428  9275 net.cpp:425] inception_4a/output <- inception_4a/5x5
I0403 19:28:02.929443  9275 net.cpp:425] inception_4a/output <- inception_4a/pool_proj
I0403 19:28:02.929463  9275 net.cpp:399] inception_4a/output -> inception_4a/output
I0403 19:28:02.929509  9275 net.cpp:141] Setting up inception_4a/output
I0403 19:28:02.929533  9275 net.cpp:148] Top shape: 24 512 14 14 (2408448)
I0403 19:28:02.929546  9275 net.cpp:156] Memory required for data: 896545824
I0403 19:28:02.929559  9275 layer_factory.hpp:77] Creating layer inception_4a/output_inception_4a/output_0_split
I0403 19:28:02.929577  9275 net.cpp:91] Creating Layer inception_4a/output_inception_4a/output_0_split
I0403 19:28:02.929592  9275 net.cpp:425] inception_4a/output_inception_4a/output_0_split <- inception_4a/output
I0403 19:28:02.929611  9275 net.cpp:399] inception_4a/output_inception_4a/output_0_split -> inception_4a/output_inception_4a/output_0_split_0
I0403 19:28:02.929632  9275 net.cpp:399] inception_4a/output_inception_4a/output_0_split -> inception_4a/output_inception_4a/output_0_split_1
I0403 19:28:02.929652  9275 net.cpp:399] inception_4a/output_inception_4a/output_0_split -> inception_4a/output_inception_4a/output_0_split_2
I0403 19:28:02.929672  9275 net.cpp:399] inception_4a/output_inception_4a/output_0_split -> inception_4a/output_inception_4a/output_0_split_3
I0403 19:28:02.929690  9275 net.cpp:399] inception_4a/output_inception_4a/output_0_split -> inception_4a/output_inception_4a/output_0_split_4
I0403 19:28:02.929780  9275 net.cpp:141] Setting up inception_4a/output_inception_4a/output_0_split
I0403 19:28:02.929803  9275 net.cpp:148] Top shape: 24 512 14 14 (2408448)
I0403 19:28:02.929821  9275 net.cpp:148] Top shape: 24 512 14 14 (2408448)
I0403 19:28:02.929837  9275 net.cpp:148] Top shape: 24 512 14 14 (2408448)
I0403 19:28:02.929852  9275 net.cpp:148] Top shape: 24 512 14 14 (2408448)
I0403 19:28:02.929867  9275 net.cpp:148] Top shape: 24 512 14 14 (2408448)
I0403 19:28:02.929880  9275 net.cpp:156] Memory required for data: 944714784
I0403 19:28:02.929894  9275 layer_factory.hpp:77] Creating layer loss1/ave_pool
I0403 19:28:02.929911  9275 net.cpp:91] Creating Layer loss1/ave_pool
I0403 19:28:02.929927  9275 net.cpp:425] loss1/ave_pool <- inception_4a/output_inception_4a/output_0_split_0
I0403 19:28:02.929945  9275 net.cpp:399] loss1/ave_pool -> loss1/ave_pool
I0403 19:28:02.930142  9275 net.cpp:141] Setting up loss1/ave_pool
I0403 19:28:02.930168  9275 net.cpp:148] Top shape: 24 512 4 4 (196608)
I0403 19:28:02.930182  9275 net.cpp:156] Memory required for data: 945501216
I0403 19:28:02.930197  9275 layer_factory.hpp:77] Creating layer loss1/conv
I0403 19:28:02.930222  9275 net.cpp:91] Creating Layer loss1/conv
I0403 19:28:02.930238  9275 net.cpp:425] loss1/conv <- loss1/ave_pool
I0403 19:28:02.930258  9275 net.cpp:399] loss1/conv -> loss1/conv
I0403 19:28:02.931579  9275 net.cpp:141] Setting up loss1/conv
I0403 19:28:02.931609  9275 net.cpp:148] Top shape: 24 128 4 4 (49152)
I0403 19:28:02.931625  9275 net.cpp:156] Memory required for data: 945697824
I0403 19:28:02.931659  9275 layer_factory.hpp:77] Creating layer loss1/relu_conv
I0403 19:28:02.931679  9275 net.cpp:91] Creating Layer loss1/relu_conv
I0403 19:28:02.931694  9275 net.cpp:425] loss1/relu_conv <- loss1/conv
I0403 19:28:02.931711  9275 net.cpp:386] loss1/relu_conv -> loss1/conv (in-place)
I0403 19:28:02.931979  9275 net.cpp:141] Setting up loss1/relu_conv
I0403 19:28:02.932008  9275 net.cpp:148] Top shape: 24 128 4 4 (49152)
I0403 19:28:02.932024  9275 net.cpp:156] Memory required for data: 945894432
I0403 19:28:02.932039  9275 layer_factory.hpp:77] Creating layer loss1/fc
I0403 19:28:02.932061  9275 net.cpp:91] Creating Layer loss1/fc
I0403 19:28:02.932078  9275 net.cpp:425] loss1/fc <- loss1/conv
I0403 19:28:02.932099  9275 net.cpp:399] loss1/fc -> loss1/fc
I0403 19:28:02.948876  9275 net.cpp:141] Setting up loss1/fc
I0403 19:28:02.948910  9275 net.cpp:148] Top shape: 24 1024 (24576)
I0403 19:28:02.948926  9275 net.cpp:156] Memory required for data: 945992736
I0403 19:28:02.948945  9275 layer_factory.hpp:77] Creating layer loss1/relu_fc
I0403 19:28:02.948962  9275 net.cpp:91] Creating Layer loss1/relu_fc
I0403 19:28:02.948978  9275 net.cpp:425] loss1/relu_fc <- loss1/fc
I0403 19:28:02.948995  9275 net.cpp:386] loss1/relu_fc -> loss1/fc (in-place)
I0403 19:28:02.949173  9275 net.cpp:141] Setting up loss1/relu_fc
I0403 19:28:02.949199  9275 net.cpp:148] Top shape: 24 1024 (24576)
I0403 19:28:02.949214  9275 net.cpp:156] Memory required for data: 946091040
I0403 19:28:02.949229  9275 layer_factory.hpp:77] Creating layer loss1/drop_fc
I0403 19:28:02.949254  9275 net.cpp:91] Creating Layer loss1/drop_fc
I0403 19:28:02.949270  9275 net.cpp:425] loss1/drop_fc <- loss1/fc
I0403 19:28:02.949287  9275 net.cpp:386] loss1/drop_fc -> loss1/fc (in-place)
I0403 19:28:02.949338  9275 net.cpp:141] Setting up loss1/drop_fc
I0403 19:28:02.949362  9275 net.cpp:148] Top shape: 24 1024 (24576)
I0403 19:28:02.949375  9275 net.cpp:156] Memory required for data: 946189344
I0403 19:28:02.949390  9275 layer_factory.hpp:77] Creating layer loss1/classifier_plantvillage
I0403 19:28:02.949411  9275 net.cpp:91] Creating Layer loss1/classifier_plantvillage
I0403 19:28:02.949429  9275 net.cpp:425] loss1/classifier_plantvillage <- loss1/fc
I0403 19:28:02.949446  9275 net.cpp:399] loss1/classifier_plantvillage -> loss1/classifier_plantvillage
I0403 19:28:02.950317  9275 net.cpp:141] Setting up loss1/classifier_plantvillage
I0403 19:28:02.950347  9275 net.cpp:148] Top shape: 24 38 (912)
I0403 19:28:02.950363  9275 net.cpp:156] Memory required for data: 946192992
I0403 19:28:02.950381  9275 layer_factory.hpp:77] Creating layer loss1/classifier_plantvillage_loss1/classifier_plantvillage_0_split
I0403 19:28:02.950398  9275 net.cpp:91] Creating Layer loss1/classifier_plantvillage_loss1/classifier_plantvillage_0_split
I0403 19:28:02.950413  9275 net.cpp:425] loss1/classifier_plantvillage_loss1/classifier_plantvillage_0_split <- loss1/classifier_plantvillage
I0403 19:28:02.950431  9275 net.cpp:399] loss1/classifier_plantvillage_loss1/classifier_plantvillage_0_split -> loss1/classifier_plantvillage_loss1/classifier_plantvillage_0_split_0
I0403 19:28:02.950450  9275 net.cpp:399] loss1/classifier_plantvillage_loss1/classifier_plantvillage_0_split -> loss1/classifier_plantvillage_loss1/classifier_plantvillage_0_split_1
I0403 19:28:02.950476  9275 net.cpp:399] loss1/classifier_plantvillage_loss1/classifier_plantvillage_0_split -> loss1/classifier_plantvillage_loss1/classifier_plantvillage_0_split_2
I0403 19:28:02.950541  9275 net.cpp:141] Setting up loss1/classifier_plantvillage_loss1/classifier_plantvillage_0_split
I0403 19:28:02.950563  9275 net.cpp:148] Top shape: 24 38 (912)
I0403 19:28:02.950580  9275 net.cpp:148] Top shape: 24 38 (912)
I0403 19:28:02.950598  9275 net.cpp:148] Top shape: 24 38 (912)
I0403 19:28:02.950611  9275 net.cpp:156] Memory required for data: 946203936
I0403 19:28:02.950625  9275 layer_factory.hpp:77] Creating layer inception_4b/1x1
I0403 19:28:02.950644  9275 net.cpp:91] Creating Layer inception_4b/1x1
I0403 19:28:02.950675  9275 net.cpp:425] inception_4b/1x1 <- inception_4a/output_inception_4a/output_0_split_1
I0403 19:28:02.950696  9275 net.cpp:399] inception_4b/1x1 -> inception_4b/1x1
I0403 19:28:02.952306  9275 net.cpp:141] Setting up inception_4b/1x1
I0403 19:28:02.952334  9275 net.cpp:148] Top shape: 24 160 14 14 (752640)
I0403 19:28:02.952349  9275 net.cpp:156] Memory required for data: 949214496
I0403 19:28:02.952368  9275 layer_factory.hpp:77] Creating layer inception_4b/relu_1x1
I0403 19:28:02.952385  9275 net.cpp:91] Creating Layer inception_4b/relu_1x1
I0403 19:28:02.952400  9275 net.cpp:425] inception_4b/relu_1x1 <- inception_4b/1x1
I0403 19:28:02.952419  9275 net.cpp:386] inception_4b/relu_1x1 -> inception_4b/1x1 (in-place)
I0403 19:28:02.952605  9275 net.cpp:141] Setting up inception_4b/relu_1x1
I0403 19:28:02.952630  9275 net.cpp:148] Top shape: 24 160 14 14 (752640)
I0403 19:28:02.952644  9275 net.cpp:156] Memory required for data: 952225056
I0403 19:28:02.952659  9275 layer_factory.hpp:77] Creating layer inception_4b/3x3_reduce
I0403 19:28:02.952682  9275 net.cpp:91] Creating Layer inception_4b/3x3_reduce
I0403 19:28:02.952699  9275 net.cpp:425] inception_4b/3x3_reduce <- inception_4a/output_inception_4a/output_0_split_2
I0403 19:28:02.952721  9275 net.cpp:399] inception_4b/3x3_reduce -> inception_4b/3x3_reduce
I0403 19:28:02.954011  9275 net.cpp:141] Setting up inception_4b/3x3_reduce
I0403 19:28:02.954038  9275 net.cpp:148] Top shape: 24 112 14 14 (526848)
I0403 19:28:02.954054  9275 net.cpp:156] Memory required for data: 954332448
I0403 19:28:02.954071  9275 layer_factory.hpp:77] Creating layer inception_4b/relu_3x3_reduce
I0403 19:28:02.954092  9275 net.cpp:91] Creating Layer inception_4b/relu_3x3_reduce
I0403 19:28:02.954108  9275 net.cpp:425] inception_4b/relu_3x3_reduce <- inception_4b/3x3_reduce
I0403 19:28:02.954124  9275 net.cpp:386] inception_4b/relu_3x3_reduce -> inception_4b/3x3_reduce (in-place)
I0403 19:28:02.954393  9275 net.cpp:141] Setting up inception_4b/relu_3x3_reduce
I0403 19:28:02.954419  9275 net.cpp:148] Top shape: 24 112 14 14 (526848)
I0403 19:28:02.954434  9275 net.cpp:156] Memory required for data: 956439840
I0403 19:28:02.954449  9275 layer_factory.hpp:77] Creating layer inception_4b/3x3
I0403 19:28:02.954478  9275 net.cpp:91] Creating Layer inception_4b/3x3
I0403 19:28:02.954496  9275 net.cpp:425] inception_4b/3x3 <- inception_4b/3x3_reduce
I0403 19:28:02.954517  9275 net.cpp:399] inception_4b/3x3 -> inception_4b/3x3
I0403 19:28:02.957329  9275 net.cpp:141] Setting up inception_4b/3x3
I0403 19:28:02.957358  9275 net.cpp:148] Top shape: 24 224 14 14 (1053696)
I0403 19:28:02.957375  9275 net.cpp:156] Memory required for data: 960654624
I0403 19:28:02.957392  9275 layer_factory.hpp:77] Creating layer inception_4b/relu_3x3
I0403 19:28:02.957417  9275 net.cpp:91] Creating Layer inception_4b/relu_3x3
I0403 19:28:02.957434  9275 net.cpp:425] inception_4b/relu_3x3 <- inception_4b/3x3
I0403 19:28:02.957451  9275 net.cpp:386] inception_4b/relu_3x3 -> inception_4b/3x3 (in-place)
I0403 19:28:02.957628  9275 net.cpp:141] Setting up inception_4b/relu_3x3
I0403 19:28:02.957654  9275 net.cpp:148] Top shape: 24 224 14 14 (1053696)
I0403 19:28:02.957669  9275 net.cpp:156] Memory required for data: 964869408
I0403 19:28:02.957685  9275 layer_factory.hpp:77] Creating layer inception_4b/5x5_reduce
I0403 19:28:02.957706  9275 net.cpp:91] Creating Layer inception_4b/5x5_reduce
I0403 19:28:02.957723  9275 net.cpp:425] inception_4b/5x5_reduce <- inception_4a/output_inception_4a/output_0_split_3
I0403 19:28:02.957741  9275 net.cpp:399] inception_4b/5x5_reduce -> inception_4b/5x5_reduce
I0403 19:28:02.958771  9275 net.cpp:141] Setting up inception_4b/5x5_reduce
I0403 19:28:02.958799  9275 net.cpp:148] Top shape: 24 24 14 14 (112896)
I0403 19:28:02.958814  9275 net.cpp:156] Memory required for data: 965320992
I0403 19:28:02.958832  9275 layer_factory.hpp:77] Creating layer inception_4b/relu_5x5_reduce
I0403 19:28:02.958850  9275 net.cpp:91] Creating Layer inception_4b/relu_5x5_reduce
I0403 19:28:02.958890  9275 net.cpp:425] inception_4b/relu_5x5_reduce <- inception_4b/5x5_reduce
I0403 19:28:02.958910  9275 net.cpp:386] inception_4b/relu_5x5_reduce -> inception_4b/5x5_reduce (in-place)
I0403 19:28:02.959084  9275 net.cpp:141] Setting up inception_4b/relu_5x5_reduce
I0403 19:28:02.959110  9275 net.cpp:148] Top shape: 24 24 14 14 (112896)
I0403 19:28:02.959123  9275 net.cpp:156] Memory required for data: 965772576
I0403 19:28:02.959138  9275 layer_factory.hpp:77] Creating layer inception_4b/5x5
I0403 19:28:02.959161  9275 net.cpp:91] Creating Layer inception_4b/5x5
I0403 19:28:02.959177  9275 net.cpp:425] inception_4b/5x5 <- inception_4b/5x5_reduce
I0403 19:28:02.959197  9275 net.cpp:399] inception_4b/5x5 -> inception_4b/5x5
I0403 19:28:02.960348  9275 net.cpp:141] Setting up inception_4b/5x5
I0403 19:28:02.960377  9275 net.cpp:148] Top shape: 24 64 14 14 (301056)
I0403 19:28:02.960393  9275 net.cpp:156] Memory required for data: 966976800
I0403 19:28:02.960412  9275 layer_factory.hpp:77] Creating layer inception_4b/relu_5x5
I0403 19:28:02.960429  9275 net.cpp:91] Creating Layer inception_4b/relu_5x5
I0403 19:28:02.960445  9275 net.cpp:425] inception_4b/relu_5x5 <- inception_4b/5x5
I0403 19:28:02.960467  9275 net.cpp:386] inception_4b/relu_5x5 -> inception_4b/5x5 (in-place)
I0403 19:28:02.960741  9275 net.cpp:141] Setting up inception_4b/relu_5x5
I0403 19:28:02.960768  9275 net.cpp:148] Top shape: 24 64 14 14 (301056)
I0403 19:28:02.960783  9275 net.cpp:156] Memory required for data: 968181024
I0403 19:28:02.960798  9275 layer_factory.hpp:77] Creating layer inception_4b/pool
I0403 19:28:02.960815  9275 net.cpp:91] Creating Layer inception_4b/pool
I0403 19:28:02.960830  9275 net.cpp:425] inception_4b/pool <- inception_4a/output_inception_4a/output_0_split_4
I0403 19:28:02.960850  9275 net.cpp:399] inception_4b/pool -> inception_4b/pool
I0403 19:28:02.960909  9275 net.cpp:141] Setting up inception_4b/pool
I0403 19:28:02.960932  9275 net.cpp:148] Top shape: 24 512 14 14 (2408448)
I0403 19:28:02.960947  9275 net.cpp:156] Memory required for data: 977814816
I0403 19:28:02.960963  9275 layer_factory.hpp:77] Creating layer inception_4b/pool_proj
I0403 19:28:02.960985  9275 net.cpp:91] Creating Layer inception_4b/pool_proj
I0403 19:28:02.961002  9275 net.cpp:425] inception_4b/pool_proj <- inception_4b/pool
I0403 19:28:02.961020  9275 net.cpp:399] inception_4b/pool_proj -> inception_4b/pool_proj
I0403 19:28:02.962154  9275 net.cpp:141] Setting up inception_4b/pool_proj
I0403 19:28:02.962182  9275 net.cpp:148] Top shape: 24 64 14 14 (301056)
I0403 19:28:02.962196  9275 net.cpp:156] Memory required for data: 979019040
I0403 19:28:02.962213  9275 layer_factory.hpp:77] Creating layer inception_4b/relu_pool_proj
I0403 19:28:02.962231  9275 net.cpp:91] Creating Layer inception_4b/relu_pool_proj
I0403 19:28:02.962247  9275 net.cpp:425] inception_4b/relu_pool_proj <- inception_4b/pool_proj
I0403 19:28:02.962267  9275 net.cpp:386] inception_4b/relu_pool_proj -> inception_4b/pool_proj (in-place)
I0403 19:28:02.962441  9275 net.cpp:141] Setting up inception_4b/relu_pool_proj
I0403 19:28:02.962474  9275 net.cpp:148] Top shape: 24 64 14 14 (301056)
I0403 19:28:02.962492  9275 net.cpp:156] Memory required for data: 980223264
I0403 19:28:02.962507  9275 layer_factory.hpp:77] Creating layer inception_4b/output
I0403 19:28:02.962527  9275 net.cpp:91] Creating Layer inception_4b/output
I0403 19:28:02.962543  9275 net.cpp:425] inception_4b/output <- inception_4b/1x1
I0403 19:28:02.962559  9275 net.cpp:425] inception_4b/output <- inception_4b/3x3
I0403 19:28:02.962575  9275 net.cpp:425] inception_4b/output <- inception_4b/5x5
I0403 19:28:02.962590  9275 net.cpp:425] inception_4b/output <- inception_4b/pool_proj
I0403 19:28:02.962607  9275 net.cpp:399] inception_4b/output -> inception_4b/output
I0403 19:28:02.962652  9275 net.cpp:141] Setting up inception_4b/output
I0403 19:28:02.962676  9275 net.cpp:148] Top shape: 24 512 14 14 (2408448)
I0403 19:28:02.962689  9275 net.cpp:156] Memory required for data: 989857056
I0403 19:28:02.962718  9275 layer_factory.hpp:77] Creating layer inception_4b/output_inception_4b/output_0_split
I0403 19:28:02.962736  9275 net.cpp:91] Creating Layer inception_4b/output_inception_4b/output_0_split
I0403 19:28:02.962751  9275 net.cpp:425] inception_4b/output_inception_4b/output_0_split <- inception_4b/output
I0403 19:28:02.962771  9275 net.cpp:399] inception_4b/output_inception_4b/output_0_split -> inception_4b/output_inception_4b/output_0_split_0
I0403 19:28:02.962791  9275 net.cpp:399] inception_4b/output_inception_4b/output_0_split -> inception_4b/output_inception_4b/output_0_split_1
I0403 19:28:02.962812  9275 net.cpp:399] inception_4b/output_inception_4b/output_0_split -> inception_4b/output_inception_4b/output_0_split_2
I0403 19:28:02.962832  9275 net.cpp:399] inception_4b/output_inception_4b/output_0_split -> inception_4b/output_inception_4b/output_0_split_3
I0403 19:28:02.962908  9275 net.cpp:141] Setting up inception_4b/output_inception_4b/output_0_split
I0403 19:28:02.962932  9275 net.cpp:148] Top shape: 24 512 14 14 (2408448)
I0403 19:28:02.962949  9275 net.cpp:148] Top shape: 24 512 14 14 (2408448)
I0403 19:28:02.962963  9275 net.cpp:148] Top shape: 24 512 14 14 (2408448)
I0403 19:28:02.962980  9275 net.cpp:148] Top shape: 24 512 14 14 (2408448)
I0403 19:28:02.962992  9275 net.cpp:156] Memory required for data: 1028392224
I0403 19:28:02.963007  9275 layer_factory.hpp:77] Creating layer inception_4c/1x1
I0403 19:28:02.963029  9275 net.cpp:91] Creating Layer inception_4c/1x1
I0403 19:28:02.963047  9275 net.cpp:425] inception_4c/1x1 <- inception_4b/output_inception_4b/output_0_split_0
I0403 19:28:02.963065  9275 net.cpp:399] inception_4c/1x1 -> inception_4c/1x1
I0403 19:28:02.964416  9275 net.cpp:141] Setting up inception_4c/1x1
I0403 19:28:02.964444  9275 net.cpp:148] Top shape: 24 128 14 14 (602112)
I0403 19:28:02.964463  9275 net.cpp:156] Memory required for data: 1030800672
I0403 19:28:02.964483  9275 layer_factory.hpp:77] Creating layer inception_4c/relu_1x1
I0403 19:28:02.964504  9275 net.cpp:91] Creating Layer inception_4c/relu_1x1
I0403 19:28:02.964520  9275 net.cpp:425] inception_4c/relu_1x1 <- inception_4c/1x1
I0403 19:28:02.964536  9275 net.cpp:386] inception_4c/relu_1x1 -> inception_4c/1x1 (in-place)
I0403 19:28:02.964710  9275 net.cpp:141] Setting up inception_4c/relu_1x1
I0403 19:28:02.964736  9275 net.cpp:148] Top shape: 24 128 14 14 (602112)
I0403 19:28:02.964752  9275 net.cpp:156] Memory required for data: 1033209120
I0403 19:28:02.964767  9275 layer_factory.hpp:77] Creating layer inception_4c/3x3_reduce
I0403 19:28:02.964789  9275 net.cpp:91] Creating Layer inception_4c/3x3_reduce
I0403 19:28:02.964807  9275 net.cpp:425] inception_4c/3x3_reduce <- inception_4b/output_inception_4b/output_0_split_1
I0403 19:28:02.964826  9275 net.cpp:399] inception_4c/3x3_reduce -> inception_4c/3x3_reduce
I0403 19:28:02.966716  9275 net.cpp:141] Setting up inception_4c/3x3_reduce
I0403 19:28:02.966749  9275 net.cpp:148] Top shape: 24 128 14 14 (602112)
I0403 19:28:02.966766  9275 net.cpp:156] Memory required for data: 1035617568
I0403 19:28:02.966784  9275 layer_factory.hpp:77] Creating layer inception_4c/relu_3x3_reduce
I0403 19:28:02.966804  9275 net.cpp:91] Creating Layer inception_4c/relu_3x3_reduce
I0403 19:28:02.966820  9275 net.cpp:425] inception_4c/relu_3x3_reduce <- inception_4c/3x3_reduce
I0403 19:28:02.966838  9275 net.cpp:386] inception_4c/relu_3x3_reduce -> inception_4c/3x3_reduce (in-place)
I0403 19:28:02.967113  9275 net.cpp:141] Setting up inception_4c/relu_3x3_reduce
I0403 19:28:02.967141  9275 net.cpp:148] Top shape: 24 128 14 14 (602112)
I0403 19:28:02.967156  9275 net.cpp:156] Memory required for data: 1038026016
I0403 19:28:02.967171  9275 layer_factory.hpp:77] Creating layer inception_4c/3x3
I0403 19:28:02.967196  9275 net.cpp:91] Creating Layer inception_4c/3x3
I0403 19:28:02.967213  9275 net.cpp:425] inception_4c/3x3 <- inception_4c/3x3_reduce
I0403 19:28:02.967232  9275 net.cpp:399] inception_4c/3x3 -> inception_4c/3x3
I0403 19:28:02.970641  9275 net.cpp:141] Setting up inception_4c/3x3
I0403 19:28:02.970682  9275 net.cpp:148] Top shape: 24 256 14 14 (1204224)
I0403 19:28:02.970698  9275 net.cpp:156] Memory required for data: 1042842912
I0403 19:28:02.970731  9275 layer_factory.hpp:77] Creating layer inception_4c/relu_3x3
I0403 19:28:02.970751  9275 net.cpp:91] Creating Layer inception_4c/relu_3x3
I0403 19:28:02.970767  9275 net.cpp:425] inception_4c/relu_3x3 <- inception_4c/3x3
I0403 19:28:02.970787  9275 net.cpp:386] inception_4c/relu_3x3 -> inception_4c/3x3 (in-place)
I0403 19:28:02.970968  9275 net.cpp:141] Setting up inception_4c/relu_3x3
I0403 19:28:02.970994  9275 net.cpp:148] Top shape: 24 256 14 14 (1204224)
I0403 19:28:02.971009  9275 net.cpp:156] Memory required for data: 1047659808
I0403 19:28:02.971024  9275 layer_factory.hpp:77] Creating layer inception_4c/5x5_reduce
I0403 19:28:02.971048  9275 net.cpp:91] Creating Layer inception_4c/5x5_reduce
I0403 19:28:02.971066  9275 net.cpp:425] inception_4c/5x5_reduce <- inception_4b/output_inception_4b/output_0_split_2
I0403 19:28:02.971089  9275 net.cpp:399] inception_4c/5x5_reduce -> inception_4c/5x5_reduce
I0403 19:28:02.972127  9275 net.cpp:141] Setting up inception_4c/5x5_reduce
I0403 19:28:02.972157  9275 net.cpp:148] Top shape: 24 24 14 14 (112896)
I0403 19:28:02.972172  9275 net.cpp:156] Memory required for data: 1048111392
I0403 19:28:02.972193  9275 layer_factory.hpp:77] Creating layer inception_4c/relu_5x5_reduce
I0403 19:28:02.972211  9275 net.cpp:91] Creating Layer inception_4c/relu_5x5_reduce
I0403 19:28:02.972226  9275 net.cpp:425] inception_4c/relu_5x5_reduce <- inception_4c/5x5_reduce
I0403 19:28:02.972246  9275 net.cpp:386] inception_4c/relu_5x5_reduce -> inception_4c/5x5_reduce (in-place)
I0403 19:28:02.972419  9275 net.cpp:141] Setting up inception_4c/relu_5x5_reduce
I0403 19:28:02.972443  9275 net.cpp:148] Top shape: 24 24 14 14 (112896)
I0403 19:28:02.972466  9275 net.cpp:156] Memory required for data: 1048562976
I0403 19:28:02.972484  9275 layer_factory.hpp:77] Creating layer inception_4c/5x5
I0403 19:28:02.972507  9275 net.cpp:91] Creating Layer inception_4c/5x5
I0403 19:28:02.972527  9275 net.cpp:425] inception_4c/5x5 <- inception_4c/5x5_reduce
I0403 19:28:02.972548  9275 net.cpp:399] inception_4c/5x5 -> inception_4c/5x5
I0403 19:28:02.973717  9275 net.cpp:141] Setting up inception_4c/5x5
I0403 19:28:02.973745  9275 net.cpp:148] Top shape: 24 64 14 14 (301056)
I0403 19:28:02.973760  9275 net.cpp:156] Memory required for data: 1049767200
I0403 19:28:02.973779  9275 layer_factory.hpp:77] Creating layer inception_4c/relu_5x5
I0403 19:28:02.973799  9275 net.cpp:91] Creating Layer inception_4c/relu_5x5
I0403 19:28:02.973815  9275 net.cpp:425] inception_4c/relu_5x5 <- inception_4c/5x5
I0403 19:28:02.973832  9275 net.cpp:386] inception_4c/relu_5x5 -> inception_4c/5x5 (in-place)
I0403 19:28:02.974103  9275 net.cpp:141] Setting up inception_4c/relu_5x5
I0403 19:28:02.974129  9275 net.cpp:148] Top shape: 24 64 14 14 (301056)
I0403 19:28:02.974144  9275 net.cpp:156] Memory required for data: 1050971424
I0403 19:28:02.974160  9275 layer_factory.hpp:77] Creating layer inception_4c/pool
I0403 19:28:02.974182  9275 net.cpp:91] Creating Layer inception_4c/pool
I0403 19:28:02.974198  9275 net.cpp:425] inception_4c/pool <- inception_4b/output_inception_4b/output_0_split_3
I0403 19:28:02.974216  9275 net.cpp:399] inception_4c/pool -> inception_4c/pool
I0403 19:28:02.974278  9275 net.cpp:141] Setting up inception_4c/pool
I0403 19:28:02.974303  9275 net.cpp:148] Top shape: 24 512 14 14 (2408448)
I0403 19:28:02.974316  9275 net.cpp:156] Memory required for data: 1060605216
I0403 19:28:02.974330  9275 layer_factory.hpp:77] Creating layer inception_4c/pool_proj
I0403 19:28:02.974351  9275 net.cpp:91] Creating Layer inception_4c/pool_proj
I0403 19:28:02.974370  9275 net.cpp:425] inception_4c/pool_proj <- inception_4c/pool
I0403 19:28:02.974390  9275 net.cpp:399] inception_4c/pool_proj -> inception_4c/pool_proj
I0403 19:28:02.975546  9275 net.cpp:141] Setting up inception_4c/pool_proj
I0403 19:28:02.975574  9275 net.cpp:148] Top shape: 24 64 14 14 (301056)
I0403 19:28:02.975602  9275 net.cpp:156] Memory required for data: 1061809440
I0403 19:28:02.975621  9275 layer_factory.hpp:77] Creating layer inception_4c/relu_pool_proj
I0403 19:28:02.975638  9275 net.cpp:91] Creating Layer inception_4c/relu_pool_proj
I0403 19:28:02.975654  9275 net.cpp:425] inception_4c/relu_pool_proj <- inception_4c/pool_proj
I0403 19:28:02.975672  9275 net.cpp:386] inception_4c/relu_pool_proj -> inception_4c/pool_proj (in-place)
I0403 19:28:02.975846  9275 net.cpp:141] Setting up inception_4c/relu_pool_proj
I0403 19:28:02.975872  9275 net.cpp:148] Top shape: 24 64 14 14 (301056)
I0403 19:28:02.975885  9275 net.cpp:156] Memory required for data: 1063013664
I0403 19:28:02.975900  9275 layer_factory.hpp:77] Creating layer inception_4c/output
I0403 19:28:02.975917  9275 net.cpp:91] Creating Layer inception_4c/output
I0403 19:28:02.975935  9275 net.cpp:425] inception_4c/output <- inception_4c/1x1
I0403 19:28:02.975951  9275 net.cpp:425] inception_4c/output <- inception_4c/3x3
I0403 19:28:02.975967  9275 net.cpp:425] inception_4c/output <- inception_4c/5x5
I0403 19:28:02.975983  9275 net.cpp:425] inception_4c/output <- inception_4c/pool_proj
I0403 19:28:02.975999  9275 net.cpp:399] inception_4c/output -> inception_4c/output
I0403 19:28:02.976042  9275 net.cpp:141] Setting up inception_4c/output
I0403 19:28:02.976068  9275 net.cpp:148] Top shape: 24 512 14 14 (2408448)
I0403 19:28:02.976083  9275 net.cpp:156] Memory required for data: 1072647456
I0403 19:28:02.976096  9275 layer_factory.hpp:77] Creating layer inception_4c/output_inception_4c/output_0_split
I0403 19:28:02.976114  9275 net.cpp:91] Creating Layer inception_4c/output_inception_4c/output_0_split
I0403 19:28:02.976128  9275 net.cpp:425] inception_4c/output_inception_4c/output_0_split <- inception_4c/output
I0403 19:28:02.976148  9275 net.cpp:399] inception_4c/output_inception_4c/output_0_split -> inception_4c/output_inception_4c/output_0_split_0
I0403 19:28:02.976167  9275 net.cpp:399] inception_4c/output_inception_4c/output_0_split -> inception_4c/output_inception_4c/output_0_split_1
I0403 19:28:02.976188  9275 net.cpp:399] inception_4c/output_inception_4c/output_0_split -> inception_4c/output_inception_4c/output_0_split_2
I0403 19:28:02.976207  9275 net.cpp:399] inception_4c/output_inception_4c/output_0_split -> inception_4c/output_inception_4c/output_0_split_3
I0403 19:28:02.976285  9275 net.cpp:141] Setting up inception_4c/output_inception_4c/output_0_split
I0403 19:28:02.976312  9275 net.cpp:148] Top shape: 24 512 14 14 (2408448)
I0403 19:28:02.976330  9275 net.cpp:148] Top shape: 24 512 14 14 (2408448)
I0403 19:28:02.976346  9275 net.cpp:148] Top shape: 24 512 14 14 (2408448)
I0403 19:28:02.976361  9275 net.cpp:148] Top shape: 24 512 14 14 (2408448)
I0403 19:28:02.976375  9275 net.cpp:156] Memory required for data: 1111182624
I0403 19:28:02.976388  9275 layer_factory.hpp:77] Creating layer inception_4d/1x1
I0403 19:28:02.976410  9275 net.cpp:91] Creating Layer inception_4d/1x1
I0403 19:28:02.976426  9275 net.cpp:425] inception_4d/1x1 <- inception_4c/output_inception_4c/output_0_split_0
I0403 19:28:02.976444  9275 net.cpp:399] inception_4d/1x1 -> inception_4d/1x1
I0403 19:28:02.977756  9275 net.cpp:141] Setting up inception_4d/1x1
I0403 19:28:02.977784  9275 net.cpp:148] Top shape: 24 112 14 14 (526848)
I0403 19:28:02.977802  9275 net.cpp:156] Memory required for data: 1113290016
I0403 19:28:02.977819  9275 layer_factory.hpp:77] Creating layer inception_4d/relu_1x1
I0403 19:28:02.977836  9275 net.cpp:91] Creating Layer inception_4d/relu_1x1
I0403 19:28:02.977852  9275 net.cpp:425] inception_4d/relu_1x1 <- inception_4d/1x1
I0403 19:28:02.977869  9275 net.cpp:386] inception_4d/relu_1x1 -> inception_4d/1x1 (in-place)
I0403 19:28:02.978044  9275 net.cpp:141] Setting up inception_4d/relu_1x1
I0403 19:28:02.978070  9275 net.cpp:148] Top shape: 24 112 14 14 (526848)
I0403 19:28:02.978085  9275 net.cpp:156] Memory required for data: 1115397408
I0403 19:28:02.978101  9275 layer_factory.hpp:77] Creating layer inception_4d/3x3_reduce
I0403 19:28:02.978137  9275 net.cpp:91] Creating Layer inception_4d/3x3_reduce
I0403 19:28:02.978155  9275 net.cpp:425] inception_4d/3x3_reduce <- inception_4c/output_inception_4c/output_0_split_1
I0403 19:28:02.978174  9275 net.cpp:399] inception_4d/3x3_reduce -> inception_4d/3x3_reduce
I0403 19:28:02.979624  9275 net.cpp:141] Setting up inception_4d/3x3_reduce
I0403 19:28:02.979651  9275 net.cpp:148] Top shape: 24 144 14 14 (677376)
I0403 19:28:02.979667  9275 net.cpp:156] Memory required for data: 1118106912
I0403 19:28:02.979687  9275 layer_factory.hpp:77] Creating layer inception_4d/relu_3x3_reduce
I0403 19:28:02.979707  9275 net.cpp:91] Creating Layer inception_4d/relu_3x3_reduce
I0403 19:28:02.979725  9275 net.cpp:425] inception_4d/relu_3x3_reduce <- inception_4d/3x3_reduce
I0403 19:28:02.979743  9275 net.cpp:386] inception_4d/relu_3x3_reduce -> inception_4d/3x3_reduce (in-place)
I0403 19:28:02.980036  9275 net.cpp:141] Setting up inception_4d/relu_3x3_reduce
I0403 19:28:02.980062  9275 net.cpp:148] Top shape: 24 144 14 14 (677376)
I0403 19:28:02.980077  9275 net.cpp:156] Memory required for data: 1120816416
I0403 19:28:02.980090  9275 layer_factory.hpp:77] Creating layer inception_4d/3x3
I0403 19:28:02.980113  9275 net.cpp:91] Creating Layer inception_4d/3x3
I0403 19:28:02.980130  9275 net.cpp:425] inception_4d/3x3 <- inception_4d/3x3_reduce
I0403 19:28:02.980151  9275 net.cpp:399] inception_4d/3x3 -> inception_4d/3x3
I0403 19:28:02.984187  9275 net.cpp:141] Setting up inception_4d/3x3
I0403 19:28:02.984217  9275 net.cpp:148] Top shape: 24 288 14 14 (1354752)
I0403 19:28:02.984236  9275 net.cpp:156] Memory required for data: 1126235424
I0403 19:28:02.984254  9275 layer_factory.hpp:77] Creating layer inception_4d/relu_3x3
I0403 19:28:02.984272  9275 net.cpp:91] Creating Layer inception_4d/relu_3x3
I0403 19:28:02.984289  9275 net.cpp:425] inception_4d/relu_3x3 <- inception_4d/3x3
I0403 19:28:02.984308  9275 net.cpp:386] inception_4d/relu_3x3 -> inception_4d/3x3 (in-place)
I0403 19:28:02.984485  9275 net.cpp:141] Setting up inception_4d/relu_3x3
I0403 19:28:02.984510  9275 net.cpp:148] Top shape: 24 288 14 14 (1354752)
I0403 19:28:02.984525  9275 net.cpp:156] Memory required for data: 1131654432
I0403 19:28:02.984540  9275 layer_factory.hpp:77] Creating layer inception_4d/5x5_reduce
I0403 19:28:02.984562  9275 net.cpp:91] Creating Layer inception_4d/5x5_reduce
I0403 19:28:02.984580  9275 net.cpp:425] inception_4d/5x5_reduce <- inception_4c/output_inception_4c/output_0_split_2
I0403 19:28:02.984601  9275 net.cpp:399] inception_4d/5x5_reduce -> inception_4d/5x5_reduce
I0403 19:28:02.985687  9275 net.cpp:141] Setting up inception_4d/5x5_reduce
I0403 19:28:02.985716  9275 net.cpp:148] Top shape: 24 32 14 14 (150528)
I0403 19:28:02.985733  9275 net.cpp:156] Memory required for data: 1132256544
I0403 19:28:02.985751  9275 layer_factory.hpp:77] Creating layer inception_4d/relu_5x5_reduce
I0403 19:28:02.985769  9275 net.cpp:91] Creating Layer inception_4d/relu_5x5_reduce
I0403 19:28:02.985785  9275 net.cpp:425] inception_4d/relu_5x5_reduce <- inception_4d/5x5_reduce
I0403 19:28:02.985801  9275 net.cpp:386] inception_4d/relu_5x5_reduce -> inception_4d/5x5_reduce (in-place)
I0403 19:28:02.985982  9275 net.cpp:141] Setting up inception_4d/relu_5x5_reduce
I0403 19:28:02.986008  9275 net.cpp:148] Top shape: 24 32 14 14 (150528)
I0403 19:28:02.986023  9275 net.cpp:156] Memory required for data: 1132858656
I0403 19:28:02.986037  9275 layer_factory.hpp:77] Creating layer inception_4d/5x5
I0403 19:28:02.986059  9275 net.cpp:91] Creating Layer inception_4d/5x5
I0403 19:28:02.986076  9275 net.cpp:425] inception_4d/5x5 <- inception_4d/5x5_reduce
I0403 19:28:02.986098  9275 net.cpp:399] inception_4d/5x5 -> inception_4d/5x5
I0403 19:28:02.987491  9275 net.cpp:141] Setting up inception_4d/5x5
I0403 19:28:02.987519  9275 net.cpp:148] Top shape: 24 64 14 14 (301056)
I0403 19:28:02.987534  9275 net.cpp:156] Memory required for data: 1134062880
I0403 19:28:02.987553  9275 layer_factory.hpp:77] Creating layer inception_4d/relu_5x5
I0403 19:28:02.987587  9275 net.cpp:91] Creating Layer inception_4d/relu_5x5
I0403 19:28:02.987606  9275 net.cpp:425] inception_4d/relu_5x5 <- inception_4d/5x5
I0403 19:28:02.987622  9275 net.cpp:386] inception_4d/relu_5x5 -> inception_4d/5x5 (in-place)
I0403 19:28:02.987906  9275 net.cpp:141] Setting up inception_4d/relu_5x5
I0403 19:28:02.987932  9275 net.cpp:148] Top shape: 24 64 14 14 (301056)
I0403 19:28:02.987948  9275 net.cpp:156] Memory required for data: 1135267104
I0403 19:28:02.987962  9275 layer_factory.hpp:77] Creating layer inception_4d/pool
I0403 19:28:02.987979  9275 net.cpp:91] Creating Layer inception_4d/pool
I0403 19:28:02.987995  9275 net.cpp:425] inception_4d/pool <- inception_4c/output_inception_4c/output_0_split_3
I0403 19:28:02.988015  9275 net.cpp:399] inception_4d/pool -> inception_4d/pool
I0403 19:28:02.988077  9275 net.cpp:141] Setting up inception_4d/pool
I0403 19:28:02.988102  9275 net.cpp:148] Top shape: 24 512 14 14 (2408448)
I0403 19:28:02.988116  9275 net.cpp:156] Memory required for data: 1144900896
I0403 19:28:02.988131  9275 layer_factory.hpp:77] Creating layer inception_4d/pool_proj
I0403 19:28:02.988152  9275 net.cpp:91] Creating Layer inception_4d/pool_proj
I0403 19:28:02.988170  9275 net.cpp:425] inception_4d/pool_proj <- inception_4d/pool
I0403 19:28:02.988188  9275 net.cpp:399] inception_4d/pool_proj -> inception_4d/pool_proj
I0403 19:28:02.989861  9275 net.cpp:141] Setting up inception_4d/pool_proj
I0403 19:28:02.989892  9275 net.cpp:148] Top shape: 24 64 14 14 (301056)
I0403 19:28:02.989908  9275 net.cpp:156] Memory required for data: 1146105120
I0403 19:28:02.989928  9275 layer_factory.hpp:77] Creating layer inception_4d/relu_pool_proj
I0403 19:28:02.989945  9275 net.cpp:91] Creating Layer inception_4d/relu_pool_proj
I0403 19:28:02.989962  9275 net.cpp:425] inception_4d/relu_pool_proj <- inception_4d/pool_proj
I0403 19:28:02.989981  9275 net.cpp:386] inception_4d/relu_pool_proj -> inception_4d/pool_proj (in-place)
I0403 19:28:02.990157  9275 net.cpp:141] Setting up inception_4d/relu_pool_proj
I0403 19:28:02.990182  9275 net.cpp:148] Top shape: 24 64 14 14 (301056)
I0403 19:28:02.990196  9275 net.cpp:156] Memory required for data: 1147309344
I0403 19:28:02.990211  9275 layer_factory.hpp:77] Creating layer inception_4d/output
I0403 19:28:02.990229  9275 net.cpp:91] Creating Layer inception_4d/output
I0403 19:28:02.990244  9275 net.cpp:425] inception_4d/output <- inception_4d/1x1
I0403 19:28:02.990260  9275 net.cpp:425] inception_4d/output <- inception_4d/3x3
I0403 19:28:02.990278  9275 net.cpp:425] inception_4d/output <- inception_4d/5x5
I0403 19:28:02.990293  9275 net.cpp:425] inception_4d/output <- inception_4d/pool_proj
I0403 19:28:02.990310  9275 net.cpp:399] inception_4d/output -> inception_4d/output
I0403 19:28:02.990355  9275 net.cpp:141] Setting up inception_4d/output
I0403 19:28:02.990381  9275 net.cpp:148] Top shape: 24 528 14 14 (2483712)
I0403 19:28:02.990396  9275 net.cpp:156] Memory required for data: 1157244192
I0403 19:28:02.990411  9275 layer_factory.hpp:77] Creating layer inception_4d/output_inception_4d/output_0_split
I0403 19:28:02.990428  9275 net.cpp:91] Creating Layer inception_4d/output_inception_4d/output_0_split
I0403 19:28:02.990443  9275 net.cpp:425] inception_4d/output_inception_4d/output_0_split <- inception_4d/output
I0403 19:28:02.990464  9275 net.cpp:399] inception_4d/output_inception_4d/output_0_split -> inception_4d/output_inception_4d/output_0_split_0
I0403 19:28:02.990488  9275 net.cpp:399] inception_4d/output_inception_4d/output_0_split -> inception_4d/output_inception_4d/output_0_split_1
I0403 19:28:02.990509  9275 net.cpp:399] inception_4d/output_inception_4d/output_0_split -> inception_4d/output_inception_4d/output_0_split_2
I0403 19:28:02.990530  9275 net.cpp:399] inception_4d/output_inception_4d/output_0_split -> inception_4d/output_inception_4d/output_0_split_3
I0403 19:28:02.990550  9275 net.cpp:399] inception_4d/output_inception_4d/output_0_split -> inception_4d/output_inception_4d/output_0_split_4
I0403 19:28:02.990645  9275 net.cpp:141] Setting up inception_4d/output_inception_4d/output_0_split
I0403 19:28:02.990679  9275 net.cpp:148] Top shape: 24 528 14 14 (2483712)
I0403 19:28:02.990696  9275 net.cpp:148] Top shape: 24 528 14 14 (2483712)
I0403 19:28:02.990715  9275 net.cpp:148] Top shape: 24 528 14 14 (2483712)
I0403 19:28:02.990732  9275 net.cpp:148] Top shape: 24 528 14 14 (2483712)
I0403 19:28:02.990748  9275 net.cpp:148] Top shape: 24 528 14 14 (2483712)
I0403 19:28:02.990762  9275 net.cpp:156] Memory required for data: 1206918432
I0403 19:28:02.990777  9275 layer_factory.hpp:77] Creating layer loss2/ave_pool
I0403 19:28:02.990793  9275 net.cpp:91] Creating Layer loss2/ave_pool
I0403 19:28:02.990809  9275 net.cpp:425] loss2/ave_pool <- inception_4d/output_inception_4d/output_0_split_0
I0403 19:28:02.990828  9275 net.cpp:399] loss2/ave_pool -> loss2/ave_pool
I0403 19:28:02.991122  9275 net.cpp:141] Setting up loss2/ave_pool
I0403 19:28:02.991149  9275 net.cpp:148] Top shape: 24 528 4 4 (202752)
I0403 19:28:02.991165  9275 net.cpp:156] Memory required for data: 1207729440
I0403 19:28:02.991180  9275 layer_factory.hpp:77] Creating layer loss2/conv
I0403 19:28:02.991204  9275 net.cpp:91] Creating Layer loss2/conv
I0403 19:28:02.991224  9275 net.cpp:425] loss2/conv <- loss2/ave_pool
I0403 19:28:02.991243  9275 net.cpp:399] loss2/conv -> loss2/conv
I0403 19:28:02.993037  9275 net.cpp:141] Setting up loss2/conv
I0403 19:28:02.993065  9275 net.cpp:148] Top shape: 24 128 4 4 (49152)
I0403 19:28:02.993082  9275 net.cpp:156] Memory required for data: 1207926048
I0403 19:28:02.993099  9275 layer_factory.hpp:77] Creating layer loss2/relu_conv
I0403 19:28:02.993118  9275 net.cpp:91] Creating Layer loss2/relu_conv
I0403 19:28:02.993134  9275 net.cpp:425] loss2/relu_conv <- loss2/conv
I0403 19:28:02.993155  9275 net.cpp:386] loss2/relu_conv -> loss2/conv (in-place)
I0403 19:28:02.993425  9275 net.cpp:141] Setting up loss2/relu_conv
I0403 19:28:02.993453  9275 net.cpp:148] Top shape: 24 128 4 4 (49152)
I0403 19:28:02.993473  9275 net.cpp:156] Memory required for data: 1208122656
I0403 19:28:02.993487  9275 layer_factory.hpp:77] Creating layer loss2/fc
I0403 19:28:02.993506  9275 net.cpp:91] Creating Layer loss2/fc
I0403 19:28:02.993522  9275 net.cpp:425] loss2/fc <- loss2/conv
I0403 19:28:02.993542  9275 net.cpp:399] loss2/fc -> loss2/fc
I0403 19:28:03.010390  9275 net.cpp:141] Setting up loss2/fc
I0403 19:28:03.010432  9275 net.cpp:148] Top shape: 24 1024 (24576)
I0403 19:28:03.010447  9275 net.cpp:156] Memory required for data: 1208220960
I0403 19:28:03.010470  9275 layer_factory.hpp:77] Creating layer loss2/relu_fc
I0403 19:28:03.010491  9275 net.cpp:91] Creating Layer loss2/relu_fc
I0403 19:28:03.010509  9275 net.cpp:425] loss2/relu_fc <- loss2/fc
I0403 19:28:03.010526  9275 net.cpp:386] loss2/relu_fc -> loss2/fc (in-place)
I0403 19:28:03.010823  9275 net.cpp:141] Setting up loss2/relu_fc
I0403 19:28:03.010851  9275 net.cpp:148] Top shape: 24 1024 (24576)
I0403 19:28:03.010867  9275 net.cpp:156] Memory required for data: 1208319264
I0403 19:28:03.010884  9275 layer_factory.hpp:77] Creating layer loss2/drop_fc
I0403 19:28:03.010901  9275 net.cpp:91] Creating Layer loss2/drop_fc
I0403 19:28:03.010917  9275 net.cpp:425] loss2/drop_fc <- loss2/fc
I0403 19:28:03.010934  9275 net.cpp:386] loss2/drop_fc -> loss2/fc (in-place)
I0403 19:28:03.010983  9275 net.cpp:141] Setting up loss2/drop_fc
I0403 19:28:03.011006  9275 net.cpp:148] Top shape: 24 1024 (24576)
I0403 19:28:03.011023  9275 net.cpp:156] Memory required for data: 1208417568
I0403 19:28:03.011039  9275 layer_factory.hpp:77] Creating layer loss2/classifier_plantvillage
I0403 19:28:03.011059  9275 net.cpp:91] Creating Layer loss2/classifier_plantvillage
I0403 19:28:03.011076  9275 net.cpp:425] loss2/classifier_plantvillage <- loss2/fc
I0403 19:28:03.011095  9275 net.cpp:399] loss2/classifier_plantvillage -> loss2/classifier_plantvillage
I0403 19:28:03.011488  9275 net.cpp:141] Setting up loss2/classifier_plantvillage
I0403 19:28:03.011514  9275 net.cpp:148] Top shape: 24 38 (912)
I0403 19:28:03.011529  9275 net.cpp:156] Memory required for data: 1208421216
I0403 19:28:03.011561  9275 layer_factory.hpp:77] Creating layer loss2/classifier_plantvillage_loss2/classifier_plantvillage_0_split
I0403 19:28:03.011579  9275 net.cpp:91] Creating Layer loss2/classifier_plantvillage_loss2/classifier_plantvillage_0_split
I0403 19:28:03.011596  9275 net.cpp:425] loss2/classifier_plantvillage_loss2/classifier_plantvillage_0_split <- loss2/classifier_plantvillage
I0403 19:28:03.011616  9275 net.cpp:399] loss2/classifier_plantvillage_loss2/classifier_plantvillage_0_split -> loss2/classifier_plantvillage_loss2/classifier_plantvillage_0_split_0
I0403 19:28:03.011639  9275 net.cpp:399] loss2/classifier_plantvillage_loss2/classifier_plantvillage_0_split -> loss2/classifier_plantvillage_loss2/classifier_plantvillage_0_split_1
I0403 19:28:03.011659  9275 net.cpp:399] loss2/classifier_plantvillage_loss2/classifier_plantvillage_0_split -> loss2/classifier_plantvillage_loss2/classifier_plantvillage_0_split_2
I0403 19:28:03.011736  9275 net.cpp:141] Setting up loss2/classifier_plantvillage_loss2/classifier_plantvillage_0_split
I0403 19:28:03.011760  9275 net.cpp:148] Top shape: 24 38 (912)
I0403 19:28:03.011776  9275 net.cpp:148] Top shape: 24 38 (912)
I0403 19:28:03.011792  9275 net.cpp:148] Top shape: 24 38 (912)
I0403 19:28:03.011806  9275 net.cpp:156] Memory required for data: 1208432160
I0403 19:28:03.011821  9275 layer_factory.hpp:77] Creating layer inception_4e/1x1
I0403 19:28:03.011843  9275 net.cpp:91] Creating Layer inception_4e/1x1
I0403 19:28:03.011862  9275 net.cpp:425] inception_4e/1x1 <- inception_4d/output_inception_4d/output_0_split_1
I0403 19:28:03.011879  9275 net.cpp:399] inception_4e/1x1 -> inception_4e/1x1
I0403 19:28:03.013658  9275 net.cpp:141] Setting up inception_4e/1x1
I0403 19:28:03.013687  9275 net.cpp:148] Top shape: 24 256 14 14 (1204224)
I0403 19:28:03.013703  9275 net.cpp:156] Memory required for data: 1213249056
I0403 19:28:03.013721  9275 layer_factory.hpp:77] Creating layer inception_4e/relu_1x1
I0403 19:28:03.013742  9275 net.cpp:91] Creating Layer inception_4e/relu_1x1
I0403 19:28:03.013759  9275 net.cpp:425] inception_4e/relu_1x1 <- inception_4e/1x1
I0403 19:28:03.013777  9275 net.cpp:386] inception_4e/relu_1x1 -> inception_4e/1x1 (in-place)
I0403 19:28:03.014070  9275 net.cpp:141] Setting up inception_4e/relu_1x1
I0403 19:28:03.014096  9275 net.cpp:148] Top shape: 24 256 14 14 (1204224)
I0403 19:28:03.014111  9275 net.cpp:156] Memory required for data: 1218065952
I0403 19:28:03.014125  9275 layer_factory.hpp:77] Creating layer inception_4e/3x3_reduce
I0403 19:28:03.014147  9275 net.cpp:91] Creating Layer inception_4e/3x3_reduce
I0403 19:28:03.014173  9275 net.cpp:425] inception_4e/3x3_reduce <- inception_4d/output_inception_4d/output_0_split_2
I0403 19:28:03.014194  9275 net.cpp:399] inception_4e/3x3_reduce -> inception_4e/3x3_reduce
I0403 19:28:03.016268  9275 net.cpp:141] Setting up inception_4e/3x3_reduce
I0403 19:28:03.016297  9275 net.cpp:148] Top shape: 24 160 14 14 (752640)
I0403 19:28:03.016314  9275 net.cpp:156] Memory required for data: 1221076512
I0403 19:28:03.016332  9275 layer_factory.hpp:77] Creating layer inception_4e/relu_3x3_reduce
I0403 19:28:03.016350  9275 net.cpp:91] Creating Layer inception_4e/relu_3x3_reduce
I0403 19:28:03.016367  9275 net.cpp:425] inception_4e/relu_3x3_reduce <- inception_4e/3x3_reduce
I0403 19:28:03.016387  9275 net.cpp:386] inception_4e/relu_3x3_reduce -> inception_4e/3x3_reduce (in-place)
I0403 19:28:03.016572  9275 net.cpp:141] Setting up inception_4e/relu_3x3_reduce
I0403 19:28:03.016598  9275 net.cpp:148] Top shape: 24 160 14 14 (752640)
I0403 19:28:03.016613  9275 net.cpp:156] Memory required for data: 1224087072
I0403 19:28:03.016628  9275 layer_factory.hpp:77] Creating layer inception_4e/3x3
I0403 19:28:03.016650  9275 net.cpp:91] Creating Layer inception_4e/3x3
I0403 19:28:03.016669  9275 net.cpp:425] inception_4e/3x3 <- inception_4e/3x3_reduce
I0403 19:28:03.016690  9275 net.cpp:399] inception_4e/3x3 -> inception_4e/3x3
I0403 19:28:03.021695  9275 net.cpp:141] Setting up inception_4e/3x3
I0403 19:28:03.021738  9275 net.cpp:148] Top shape: 24 320 14 14 (1505280)
I0403 19:28:03.021754  9275 net.cpp:156] Memory required for data: 1230108192
I0403 19:28:03.021773  9275 layer_factory.hpp:77] Creating layer inception_4e/relu_3x3
I0403 19:28:03.021795  9275 net.cpp:91] Creating Layer inception_4e/relu_3x3
I0403 19:28:03.021812  9275 net.cpp:425] inception_4e/relu_3x3 <- inception_4e/3x3
I0403 19:28:03.021831  9275 net.cpp:386] inception_4e/relu_3x3 -> inception_4e/3x3 (in-place)
I0403 19:28:03.022132  9275 net.cpp:141] Setting up inception_4e/relu_3x3
I0403 19:28:03.022162  9275 net.cpp:148] Top shape: 24 320 14 14 (1505280)
I0403 19:28:03.022178  9275 net.cpp:156] Memory required for data: 1236129312
I0403 19:28:03.022193  9275 layer_factory.hpp:77] Creating layer inception_4e/5x5_reduce
I0403 19:28:03.022218  9275 net.cpp:91] Creating Layer inception_4e/5x5_reduce
I0403 19:28:03.022238  9275 net.cpp:425] inception_4e/5x5_reduce <- inception_4d/output_inception_4d/output_0_split_3
I0403 19:28:03.022258  9275 net.cpp:399] inception_4e/5x5_reduce -> inception_4e/5x5_reduce
I0403 19:28:03.023356  9275 net.cpp:141] Setting up inception_4e/5x5_reduce
I0403 19:28:03.023386  9275 net.cpp:148] Top shape: 24 32 14 14 (150528)
I0403 19:28:03.023401  9275 net.cpp:156] Memory required for data: 1236731424
I0403 19:28:03.023421  9275 layer_factory.hpp:77] Creating layer inception_4e/relu_5x5_reduce
I0403 19:28:03.023442  9275 net.cpp:91] Creating Layer inception_4e/relu_5x5_reduce
I0403 19:28:03.023463  9275 net.cpp:425] inception_4e/relu_5x5_reduce <- inception_4e/5x5_reduce
I0403 19:28:03.023483  9275 net.cpp:386] inception_4e/relu_5x5_reduce -> inception_4e/5x5_reduce (in-place)
I0403 19:28:03.023785  9275 net.cpp:141] Setting up inception_4e/relu_5x5_reduce
I0403 19:28:03.023813  9275 net.cpp:148] Top shape: 24 32 14 14 (150528)
I0403 19:28:03.023828  9275 net.cpp:156] Memory required for data: 1237333536
I0403 19:28:03.023844  9275 layer_factory.hpp:77] Creating layer inception_4e/5x5
I0403 19:28:03.023882  9275 net.cpp:91] Creating Layer inception_4e/5x5
I0403 19:28:03.023902  9275 net.cpp:425] inception_4e/5x5 <- inception_4e/5x5_reduce
I0403 19:28:03.023921  9275 net.cpp:399] inception_4e/5x5 -> inception_4e/5x5
I0403 19:28:03.025794  9275 net.cpp:141] Setting up inception_4e/5x5
I0403 19:28:03.025823  9275 net.cpp:148] Top shape: 24 128 14 14 (602112)
I0403 19:28:03.025841  9275 net.cpp:156] Memory required for data: 1239741984
I0403 19:28:03.025861  9275 layer_factory.hpp:77] Creating layer inception_4e/relu_5x5
I0403 19:28:03.025881  9275 net.cpp:91] Creating Layer inception_4e/relu_5x5
I0403 19:28:03.025897  9275 net.cpp:425] inception_4e/relu_5x5 <- inception_4e/5x5
I0403 19:28:03.025916  9275 net.cpp:386] inception_4e/relu_5x5 -> inception_4e/5x5 (in-place)
I0403 19:28:03.026113  9275 net.cpp:141] Setting up inception_4e/relu_5x5
I0403 19:28:03.026139  9275 net.cpp:148] Top shape: 24 128 14 14 (602112)
I0403 19:28:03.026154  9275 net.cpp:156] Memory required for data: 1242150432
I0403 19:28:03.026170  9275 layer_factory.hpp:77] Creating layer inception_4e/pool
I0403 19:28:03.026188  9275 net.cpp:91] Creating Layer inception_4e/pool
I0403 19:28:03.026204  9275 net.cpp:425] inception_4e/pool <- inception_4d/output_inception_4d/output_0_split_4
I0403 19:28:03.026226  9275 net.cpp:399] inception_4e/pool -> inception_4e/pool
I0403 19:28:03.026298  9275 net.cpp:141] Setting up inception_4e/pool
I0403 19:28:03.026324  9275 net.cpp:148] Top shape: 24 528 14 14 (2483712)
I0403 19:28:03.026340  9275 net.cpp:156] Memory required for data: 1252085280
I0403 19:28:03.026355  9275 layer_factory.hpp:77] Creating layer inception_4e/pool_proj
I0403 19:28:03.026381  9275 net.cpp:91] Creating Layer inception_4e/pool_proj
I0403 19:28:03.026398  9275 net.cpp:425] inception_4e/pool_proj <- inception_4e/pool
I0403 19:28:03.026417  9275 net.cpp:399] inception_4e/pool_proj -> inception_4e/pool_proj
I0403 19:28:03.027943  9275 net.cpp:141] Setting up inception_4e/pool_proj
I0403 19:28:03.027976  9275 net.cpp:148] Top shape: 24 128 14 14 (602112)
I0403 19:28:03.028005  9275 net.cpp:156] Memory required for data: 1254493728
I0403 19:28:03.028025  9275 layer_factory.hpp:77] Creating layer inception_4e/relu_pool_proj
I0403 19:28:03.028043  9275 net.cpp:91] Creating Layer inception_4e/relu_pool_proj
I0403 19:28:03.028060  9275 net.cpp:425] inception_4e/relu_pool_proj <- inception_4e/pool_proj
I0403 19:28:03.028081  9275 net.cpp:386] inception_4e/relu_pool_proj -> inception_4e/pool_proj (in-place)
I0403 19:28:03.028373  9275 net.cpp:141] Setting up inception_4e/relu_pool_proj
I0403 19:28:03.028403  9275 net.cpp:148] Top shape: 24 128 14 14 (602112)
I0403 19:28:03.028419  9275 net.cpp:156] Memory required for data: 1256902176
I0403 19:28:03.028434  9275 layer_factory.hpp:77] Creating layer inception_4e/output
I0403 19:28:03.028452  9275 net.cpp:91] Creating Layer inception_4e/output
I0403 19:28:03.028473  9275 net.cpp:425] inception_4e/output <- inception_4e/1x1
I0403 19:28:03.028492  9275 net.cpp:425] inception_4e/output <- inception_4e/3x3
I0403 19:28:03.028509  9275 net.cpp:425] inception_4e/output <- inception_4e/5x5
I0403 19:28:03.028527  9275 net.cpp:425] inception_4e/output <- inception_4e/pool_proj
I0403 19:28:03.028544  9275 net.cpp:399] inception_4e/output -> inception_4e/output
I0403 19:28:03.028596  9275 net.cpp:141] Setting up inception_4e/output
I0403 19:28:03.028620  9275 net.cpp:148] Top shape: 24 832 14 14 (3913728)
I0403 19:28:03.028635  9275 net.cpp:156] Memory required for data: 1272557088
I0403 19:28:03.028650  9275 layer_factory.hpp:77] Creating layer pool4/3x3_s2
I0403 19:28:03.028671  9275 net.cpp:91] Creating Layer pool4/3x3_s2
I0403 19:28:03.028688  9275 net.cpp:425] pool4/3x3_s2 <- inception_4e/output
I0403 19:28:03.028707  9275 net.cpp:399] pool4/3x3_s2 -> pool4/3x3_s2
I0403 19:28:03.028776  9275 net.cpp:141] Setting up pool4/3x3_s2
I0403 19:28:03.028801  9275 net.cpp:148] Top shape: 24 832 7 7 (978432)
I0403 19:28:03.028817  9275 net.cpp:156] Memory required for data: 1276470816
I0403 19:28:03.028833  9275 layer_factory.hpp:77] Creating layer pool4/3x3_s2_pool4/3x3_s2_0_split
I0403 19:28:03.028851  9275 net.cpp:91] Creating Layer pool4/3x3_s2_pool4/3x3_s2_0_split
I0403 19:28:03.028867  9275 net.cpp:425] pool4/3x3_s2_pool4/3x3_s2_0_split <- pool4/3x3_s2
I0403 19:28:03.028887  9275 net.cpp:399] pool4/3x3_s2_pool4/3x3_s2_0_split -> pool4/3x3_s2_pool4/3x3_s2_0_split_0
I0403 19:28:03.028908  9275 net.cpp:399] pool4/3x3_s2_pool4/3x3_s2_0_split -> pool4/3x3_s2_pool4/3x3_s2_0_split_1
I0403 19:28:03.028929  9275 net.cpp:399] pool4/3x3_s2_pool4/3x3_s2_0_split -> pool4/3x3_s2_pool4/3x3_s2_0_split_2
I0403 19:28:03.028949  9275 net.cpp:399] pool4/3x3_s2_pool4/3x3_s2_0_split -> pool4/3x3_s2_pool4/3x3_s2_0_split_3
I0403 19:28:03.029038  9275 net.cpp:141] Setting up pool4/3x3_s2_pool4/3x3_s2_0_split
I0403 19:28:03.029064  9275 net.cpp:148] Top shape: 24 832 7 7 (978432)
I0403 19:28:03.029081  9275 net.cpp:148] Top shape: 24 832 7 7 (978432)
I0403 19:28:03.029098  9275 net.cpp:148] Top shape: 24 832 7 7 (978432)
I0403 19:28:03.029115  9275 net.cpp:148] Top shape: 24 832 7 7 (978432)
I0403 19:28:03.029129  9275 net.cpp:156] Memory required for data: 1292125728
I0403 19:28:03.029145  9275 layer_factory.hpp:77] Creating layer inception_5a/1x1
I0403 19:28:03.029168  9275 net.cpp:91] Creating Layer inception_5a/1x1
I0403 19:28:03.029186  9275 net.cpp:425] inception_5a/1x1 <- pool4/3x3_s2_pool4/3x3_s2_0_split_0
I0403 19:28:03.029208  9275 net.cpp:399] inception_5a/1x1 -> inception_5a/1x1
I0403 19:28:03.031996  9275 net.cpp:141] Setting up inception_5a/1x1
I0403 19:28:03.032027  9275 net.cpp:148] Top shape: 24 256 7 7 (301056)
I0403 19:28:03.032042  9275 net.cpp:156] Memory required for data: 1293329952
I0403 19:28:03.032059  9275 layer_factory.hpp:77] Creating layer inception_5a/relu_1x1
I0403 19:28:03.032078  9275 net.cpp:91] Creating Layer inception_5a/relu_1x1
I0403 19:28:03.032094  9275 net.cpp:425] inception_5a/relu_1x1 <- inception_5a/1x1
I0403 19:28:03.032114  9275 net.cpp:386] inception_5a/relu_1x1 -> inception_5a/1x1 (in-place)
I0403 19:28:03.032418  9275 net.cpp:141] Setting up inception_5a/relu_1x1
I0403 19:28:03.032444  9275 net.cpp:148] Top shape: 24 256 7 7 (301056)
I0403 19:28:03.032469  9275 net.cpp:156] Memory required for data: 1294534176
I0403 19:28:03.032487  9275 layer_factory.hpp:77] Creating layer inception_5a/3x3_reduce
I0403 19:28:03.032510  9275 net.cpp:91] Creating Layer inception_5a/3x3_reduce
I0403 19:28:03.032528  9275 net.cpp:425] inception_5a/3x3_reduce <- pool4/3x3_s2_pool4/3x3_s2_0_split_1
I0403 19:28:03.032553  9275 net.cpp:399] inception_5a/3x3_reduce -> inception_5a/3x3_reduce
I0403 19:28:03.034942  9275 net.cpp:141] Setting up inception_5a/3x3_reduce
I0403 19:28:03.034971  9275 net.cpp:148] Top shape: 24 160 7 7 (188160)
I0403 19:28:03.034988  9275 net.cpp:156] Memory required for data: 1295286816
I0403 19:28:03.035006  9275 layer_factory.hpp:77] Creating layer inception_5a/relu_3x3_reduce
I0403 19:28:03.035027  9275 net.cpp:91] Creating Layer inception_5a/relu_3x3_reduce
I0403 19:28:03.035044  9275 net.cpp:425] inception_5a/relu_3x3_reduce <- inception_5a/3x3_reduce
I0403 19:28:03.035063  9275 net.cpp:386] inception_5a/relu_3x3_reduce -> inception_5a/3x3_reduce (in-place)
I0403 19:28:03.035246  9275 net.cpp:141] Setting up inception_5a/relu_3x3_reduce
I0403 19:28:03.035271  9275 net.cpp:148] Top shape: 24 160 7 7 (188160)
I0403 19:28:03.035287  9275 net.cpp:156] Memory required for data: 1296039456
I0403 19:28:03.035302  9275 layer_factory.hpp:77] Creating layer inception_5a/3x3
I0403 19:28:03.035326  9275 net.cpp:91] Creating Layer inception_5a/3x3
I0403 19:28:03.035346  9275 net.cpp:425] inception_5a/3x3 <- inception_5a/3x3_reduce
I0403 19:28:03.035367  9275 net.cpp:399] inception_5a/3x3 -> inception_5a/3x3
I0403 19:28:03.040261  9275 net.cpp:141] Setting up inception_5a/3x3
I0403 19:28:03.040293  9275 net.cpp:148] Top shape: 24 320 7 7 (376320)
I0403 19:28:03.040309  9275 net.cpp:156] Memory required for data: 1297544736
I0403 19:28:03.040328  9275 layer_factory.hpp:77] Creating layer inception_5a/relu_3x3
I0403 19:28:03.040345  9275 net.cpp:91] Creating Layer inception_5a/relu_3x3
I0403 19:28:03.040362  9275 net.cpp:425] inception_5a/relu_3x3 <- inception_5a/3x3
I0403 19:28:03.040382  9275 net.cpp:386] inception_5a/relu_3x3 -> inception_5a/3x3 (in-place)
I0403 19:28:03.040676  9275 net.cpp:141] Setting up inception_5a/relu_3x3
I0403 19:28:03.040706  9275 net.cpp:148] Top shape: 24 320 7 7 (376320)
I0403 19:28:03.040724  9275 net.cpp:156] Memory required for data: 1299050016
I0403 19:28:03.040740  9275 layer_factory.hpp:77] Creating layer inception_5a/5x5_reduce
I0403 19:28:03.040763  9275 net.cpp:91] Creating Layer inception_5a/5x5_reduce
I0403 19:28:03.040782  9275 net.cpp:425] inception_5a/5x5_reduce <- pool4/3x3_s2_pool4/3x3_s2_0_split_2
I0403 19:28:03.040802  9275 net.cpp:399] inception_5a/5x5_reduce -> inception_5a/5x5_reduce
I0403 19:28:03.041944  9275 net.cpp:141] Setting up inception_5a/5x5_reduce
I0403 19:28:03.041975  9275 net.cpp:148] Top shape: 24 32 7 7 (37632)
I0403 19:28:03.041991  9275 net.cpp:156] Memory required for data: 1299200544
I0403 19:28:03.042011  9275 layer_factory.hpp:77] Creating layer inception_5a/relu_5x5_reduce
I0403 19:28:03.042027  9275 net.cpp:91] Creating Layer inception_5a/relu_5x5_reduce
I0403 19:28:03.042043  9275 net.cpp:425] inception_5a/relu_5x5_reduce <- inception_5a/5x5_reduce
I0403 19:28:03.042063  9275 net.cpp:386] inception_5a/relu_5x5_reduce -> inception_5a/5x5_reduce (in-place)
I0403 19:28:03.042367  9275 net.cpp:141] Setting up inception_5a/relu_5x5_reduce
I0403 19:28:03.042394  9275 net.cpp:148] Top shape: 24 32 7 7 (37632)
I0403 19:28:03.042410  9275 net.cpp:156] Memory required for data: 1299351072
I0403 19:28:03.042425  9275 layer_factory.hpp:77] Creating layer inception_5a/5x5
I0403 19:28:03.042448  9275 net.cpp:91] Creating Layer inception_5a/5x5
I0403 19:28:03.042487  9275 net.cpp:425] inception_5a/5x5 <- inception_5a/5x5_reduce
I0403 19:28:03.042513  9275 net.cpp:399] inception_5a/5x5 -> inception_5a/5x5
I0403 19:28:03.044167  9275 net.cpp:141] Setting up inception_5a/5x5
I0403 19:28:03.044208  9275 net.cpp:148] Top shape: 24 128 7 7 (150528)
I0403 19:28:03.044225  9275 net.cpp:156] Memory required for data: 1299953184
I0403 19:28:03.044244  9275 layer_factory.hpp:77] Creating layer inception_5a/relu_5x5
I0403 19:28:03.044260  9275 net.cpp:91] Creating Layer inception_5a/relu_5x5
I0403 19:28:03.044277  9275 net.cpp:425] inception_5a/relu_5x5 <- inception_5a/5x5
I0403 19:28:03.044296  9275 net.cpp:386] inception_5a/relu_5x5 -> inception_5a/5x5 (in-place)
I0403 19:28:03.044481  9275 net.cpp:141] Setting up inception_5a/relu_5x5
I0403 19:28:03.044507  9275 net.cpp:148] Top shape: 24 128 7 7 (150528)
I0403 19:28:03.044522  9275 net.cpp:156] Memory required for data: 1300555296
I0403 19:28:03.044536  9275 layer_factory.hpp:77] Creating layer inception_5a/pool
I0403 19:28:03.044553  9275 net.cpp:91] Creating Layer inception_5a/pool
I0403 19:28:03.044569  9275 net.cpp:425] inception_5a/pool <- pool4/3x3_s2_pool4/3x3_s2_0_split_3
I0403 19:28:03.044589  9275 net.cpp:399] inception_5a/pool -> inception_5a/pool
I0403 19:28:03.044656  9275 net.cpp:141] Setting up inception_5a/pool
I0403 19:28:03.044678  9275 net.cpp:148] Top shape: 24 832 7 7 (978432)
I0403 19:28:03.044692  9275 net.cpp:156] Memory required for data: 1304469024
I0403 19:28:03.044706  9275 layer_factory.hpp:77] Creating layer inception_5a/pool_proj
I0403 19:28:03.044730  9275 net.cpp:91] Creating Layer inception_5a/pool_proj
I0403 19:28:03.044747  9275 net.cpp:425] inception_5a/pool_proj <- inception_5a/pool
I0403 19:28:03.044769  9275 net.cpp:399] inception_5a/pool_proj -> inception_5a/pool_proj
I0403 19:28:03.046929  9275 net.cpp:141] Setting up inception_5a/pool_proj
I0403 19:28:03.046970  9275 net.cpp:148] Top shape: 24 128 7 7 (150528)
I0403 19:28:03.046986  9275 net.cpp:156] Memory required for data: 1305071136
I0403 19:28:03.047005  9275 layer_factory.hpp:77] Creating layer inception_5a/relu_pool_proj
I0403 19:28:03.047022  9275 net.cpp:91] Creating Layer inception_5a/relu_pool_proj
I0403 19:28:03.047037  9275 net.cpp:425] inception_5a/relu_pool_proj <- inception_5a/pool_proj
I0403 19:28:03.047055  9275 net.cpp:386] inception_5a/relu_pool_proj -> inception_5a/pool_proj (in-place)
I0403 19:28:03.047338  9275 net.cpp:141] Setting up inception_5a/relu_pool_proj
I0403 19:28:03.047365  9275 net.cpp:148] Top shape: 24 128 7 7 (150528)
I0403 19:28:03.047380  9275 net.cpp:156] Memory required for data: 1305673248
I0403 19:28:03.047394  9275 layer_factory.hpp:77] Creating layer inception_5a/output
I0403 19:28:03.047411  9275 net.cpp:91] Creating Layer inception_5a/output
I0403 19:28:03.047427  9275 net.cpp:425] inception_5a/output <- inception_5a/1x1
I0403 19:28:03.047443  9275 net.cpp:425] inception_5a/output <- inception_5a/3x3
I0403 19:28:03.047463  9275 net.cpp:425] inception_5a/output <- inception_5a/5x5
I0403 19:28:03.047479  9275 net.cpp:425] inception_5a/output <- inception_5a/pool_proj
I0403 19:28:03.047497  9275 net.cpp:399] inception_5a/output -> inception_5a/output
I0403 19:28:03.047544  9275 net.cpp:141] Setting up inception_5a/output
I0403 19:28:03.047567  9275 net.cpp:148] Top shape: 24 832 7 7 (978432)
I0403 19:28:03.047581  9275 net.cpp:156] Memory required for data: 1309586976
I0403 19:28:03.047596  9275 layer_factory.hpp:77] Creating layer inception_5a/output_inception_5a/output_0_split
I0403 19:28:03.047616  9275 net.cpp:91] Creating Layer inception_5a/output_inception_5a/output_0_split
I0403 19:28:03.047631  9275 net.cpp:425] inception_5a/output_inception_5a/output_0_split <- inception_5a/output
I0403 19:28:03.047646  9275 net.cpp:399] inception_5a/output_inception_5a/output_0_split -> inception_5a/output_inception_5a/output_0_split_0
I0403 19:28:03.047665  9275 net.cpp:399] inception_5a/output_inception_5a/output_0_split -> inception_5a/output_inception_5a/output_0_split_1
I0403 19:28:03.047685  9275 net.cpp:399] inception_5a/output_inception_5a/output_0_split -> inception_5a/output_inception_5a/output_0_split_2
I0403 19:28:03.047705  9275 net.cpp:399] inception_5a/output_inception_5a/output_0_split -> inception_5a/output_inception_5a/output_0_split_3
I0403 19:28:03.047811  9275 net.cpp:141] Setting up inception_5a/output_inception_5a/output_0_split
I0403 19:28:03.047835  9275 net.cpp:148] Top shape: 24 832 7 7 (978432)
I0403 19:28:03.047852  9275 net.cpp:148] Top shape: 24 832 7 7 (978432)
I0403 19:28:03.047866  9275 net.cpp:148] Top shape: 24 832 7 7 (978432)
I0403 19:28:03.047881  9275 net.cpp:148] Top shape: 24 832 7 7 (978432)
I0403 19:28:03.047895  9275 net.cpp:156] Memory required for data: 1325241888
I0403 19:28:03.047909  9275 layer_factory.hpp:77] Creating layer inception_5b/1x1
I0403 19:28:03.047931  9275 net.cpp:91] Creating Layer inception_5b/1x1
I0403 19:28:03.047950  9275 net.cpp:425] inception_5b/1x1 <- inception_5a/output_inception_5a/output_0_split_0
I0403 19:28:03.047971  9275 net.cpp:399] inception_5b/1x1 -> inception_5b/1x1
I0403 19:28:03.051537  9275 net.cpp:141] Setting up inception_5b/1x1
I0403 19:28:03.051566  9275 net.cpp:148] Top shape: 24 384 7 7 (451584)
I0403 19:28:03.051581  9275 net.cpp:156] Memory required for data: 1327048224
I0403 19:28:03.051599  9275 layer_factory.hpp:77] Creating layer inception_5b/relu_1x1
I0403 19:28:03.051619  9275 net.cpp:91] Creating Layer inception_5b/relu_1x1
I0403 19:28:03.051636  9275 net.cpp:425] inception_5b/relu_1x1 <- inception_5b/1x1
I0403 19:28:03.051653  9275 net.cpp:386] inception_5b/relu_1x1 -> inception_5b/1x1 (in-place)
I0403 19:28:03.051945  9275 net.cpp:141] Setting up inception_5b/relu_1x1
I0403 19:28:03.051972  9275 net.cpp:148] Top shape: 24 384 7 7 (451584)
I0403 19:28:03.051987  9275 net.cpp:156] Memory required for data: 1328854560
I0403 19:28:03.052002  9275 layer_factory.hpp:77] Creating layer inception_5b/3x3_reduce
I0403 19:28:03.052026  9275 net.cpp:91] Creating Layer inception_5b/3x3_reduce
I0403 19:28:03.052043  9275 net.cpp:425] inception_5b/3x3_reduce <- inception_5a/output_inception_5a/output_0_split_1
I0403 19:28:03.052063  9275 net.cpp:399] inception_5b/3x3_reduce -> inception_5b/3x3_reduce
I0403 19:28:03.054594  9275 net.cpp:141] Setting up inception_5b/3x3_reduce
I0403 19:28:03.054625  9275 net.cpp:148] Top shape: 24 192 7 7 (225792)
I0403 19:28:03.054641  9275 net.cpp:156] Memory required for data: 1329757728
I0403 19:28:03.054659  9275 layer_factory.hpp:77] Creating layer inception_5b/relu_3x3_reduce
I0403 19:28:03.054677  9275 net.cpp:91] Creating Layer inception_5b/relu_3x3_reduce
I0403 19:28:03.054693  9275 net.cpp:425] inception_5b/relu_3x3_reduce <- inception_5b/3x3_reduce
I0403 19:28:03.054709  9275 net.cpp:386] inception_5b/relu_3x3_reduce -> inception_5b/3x3_reduce (in-place)
I0403 19:28:03.054893  9275 net.cpp:141] Setting up inception_5b/relu_3x3_reduce
I0403 19:28:03.054916  9275 net.cpp:148] Top shape: 24 192 7 7 (225792)
I0403 19:28:03.054931  9275 net.cpp:156] Memory required for data: 1330660896
I0403 19:28:03.054946  9275 layer_factory.hpp:77] Creating layer inception_5b/3x3
I0403 19:28:03.054968  9275 net.cpp:91] Creating Layer inception_5b/3x3
I0403 19:28:03.054986  9275 net.cpp:425] inception_5b/3x3 <- inception_5b/3x3_reduce
I0403 19:28:03.055008  9275 net.cpp:399] inception_5b/3x3 -> inception_5b/3x3
I0403 19:28:03.061415  9275 net.cpp:141] Setting up inception_5b/3x3
I0403 19:28:03.061453  9275 net.cpp:148] Top shape: 24 384 7 7 (451584)
I0403 19:28:03.061475  9275 net.cpp:156] Memory required for data: 1332467232
I0403 19:28:03.061494  9275 layer_factory.hpp:77] Creating layer inception_5b/relu_3x3
I0403 19:28:03.061513  9275 net.cpp:91] Creating Layer inception_5b/relu_3x3
I0403 19:28:03.061530  9275 net.cpp:425] inception_5b/relu_3x3 <- inception_5b/3x3
I0403 19:28:03.061547  9275 net.cpp:386] inception_5b/relu_3x3 -> inception_5b/3x3 (in-place)
I0403 19:28:03.061854  9275 net.cpp:141] Setting up inception_5b/relu_3x3
I0403 19:28:03.061882  9275 net.cpp:148] Top shape: 24 384 7 7 (451584)
I0403 19:28:03.061897  9275 net.cpp:156] Memory required for data: 1334273568
I0403 19:28:03.061913  9275 layer_factory.hpp:77] Creating layer inception_5b/5x5_reduce
I0403 19:28:03.061947  9275 net.cpp:91] Creating Layer inception_5b/5x5_reduce
I0403 19:28:03.061967  9275 net.cpp:425] inception_5b/5x5_reduce <- inception_5a/output_inception_5a/output_0_split_2
I0403 19:28:03.061985  9275 net.cpp:399] inception_5b/5x5_reduce -> inception_5b/5x5_reduce
I0403 19:28:03.063199  9275 net.cpp:141] Setting up inception_5b/5x5_reduce
I0403 19:28:03.063228  9275 net.cpp:148] Top shape: 24 48 7 7 (56448)
I0403 19:28:03.063246  9275 net.cpp:156] Memory required for data: 1334499360
I0403 19:28:03.063263  9275 layer_factory.hpp:77] Creating layer inception_5b/relu_5x5_reduce
I0403 19:28:03.063282  9275 net.cpp:91] Creating Layer inception_5b/relu_5x5_reduce
I0403 19:28:03.063297  9275 net.cpp:425] inception_5b/relu_5x5_reduce <- inception_5b/5x5_reduce
I0403 19:28:03.063319  9275 net.cpp:386] inception_5b/relu_5x5_reduce -> inception_5b/5x5_reduce (in-place)
I0403 19:28:03.063685  9275 net.cpp:141] Setting up inception_5b/relu_5x5_reduce
I0403 19:28:03.063711  9275 net.cpp:148] Top shape: 24 48 7 7 (56448)
I0403 19:28:03.063725  9275 net.cpp:156] Memory required for data: 1334725152
I0403 19:28:03.063740  9275 layer_factory.hpp:77] Creating layer inception_5b/5x5
I0403 19:28:03.063760  9275 net.cpp:91] Creating Layer inception_5b/5x5
I0403 19:28:03.063777  9275 net.cpp:425] inception_5b/5x5 <- inception_5b/5x5_reduce
I0403 19:28:03.063796  9275 net.cpp:399] inception_5b/5x5 -> inception_5b/5x5
I0403 19:28:03.065735  9275 net.cpp:141] Setting up inception_5b/5x5
I0403 19:28:03.065763  9275 net.cpp:148] Top shape: 24 128 7 7 (150528)
I0403 19:28:03.065778  9275 net.cpp:156] Memory required for data: 1335327264
I0403 19:28:03.065796  9275 layer_factory.hpp:77] Creating layer inception_5b/relu_5x5
I0403 19:28:03.065814  9275 net.cpp:91] Creating Layer inception_5b/relu_5x5
I0403 19:28:03.065830  9275 net.cpp:425] inception_5b/relu_5x5 <- inception_5b/5x5
I0403 19:28:03.065850  9275 net.cpp:386] inception_5b/relu_5x5 -> inception_5b/5x5 (in-place)
I0403 19:28:03.066033  9275 net.cpp:141] Setting up inception_5b/relu_5x5
I0403 19:28:03.066058  9275 net.cpp:148] Top shape: 24 128 7 7 (150528)
I0403 19:28:03.066073  9275 net.cpp:156] Memory required for data: 1335929376
I0403 19:28:03.066088  9275 layer_factory.hpp:77] Creating layer inception_5b/pool
I0403 19:28:03.066108  9275 net.cpp:91] Creating Layer inception_5b/pool
I0403 19:28:03.066128  9275 net.cpp:425] inception_5b/pool <- inception_5a/output_inception_5a/output_0_split_3
I0403 19:28:03.066148  9275 net.cpp:399] inception_5b/pool -> inception_5b/pool
I0403 19:28:03.066215  9275 net.cpp:141] Setting up inception_5b/pool
I0403 19:28:03.066239  9275 net.cpp:148] Top shape: 24 832 7 7 (978432)
I0403 19:28:03.066254  9275 net.cpp:156] Memory required for data: 1339843104
I0403 19:28:03.066268  9275 layer_factory.hpp:77] Creating layer inception_5b/pool_proj
I0403 19:28:03.066290  9275 net.cpp:91] Creating Layer inception_5b/pool_proj
I0403 19:28:03.066309  9275 net.cpp:425] inception_5b/pool_proj <- inception_5b/pool
I0403 19:28:03.066330  9275 net.cpp:399] inception_5b/pool_proj -> inception_5b/pool_proj
I0403 19:28:03.068524  9275 net.cpp:141] Setting up inception_5b/pool_proj
I0403 19:28:03.068554  9275 net.cpp:148] Top shape: 24 128 7 7 (150528)
I0403 19:28:03.068572  9275 net.cpp:156] Memory required for data: 1340445216
I0403 19:28:03.068598  9275 layer_factory.hpp:77] Creating layer inception_5b/relu_pool_proj
I0403 19:28:03.068616  9275 net.cpp:91] Creating Layer inception_5b/relu_pool_proj
I0403 19:28:03.068632  9275 net.cpp:425] inception_5b/relu_pool_proj <- inception_5b/pool_proj
I0403 19:28:03.068652  9275 net.cpp:386] inception_5b/relu_pool_proj -> inception_5b/pool_proj (in-place)
I0403 19:28:03.068934  9275 net.cpp:141] Setting up inception_5b/relu_pool_proj
I0403 19:28:03.068963  9275 net.cpp:148] Top shape: 24 128 7 7 (150528)
I0403 19:28:03.068977  9275 net.cpp:156] Memory required for data: 1341047328
I0403 19:28:03.068992  9275 layer_factory.hpp:77] Creating layer inception_5b/output
I0403 19:28:03.069010  9275 net.cpp:91] Creating Layer inception_5b/output
I0403 19:28:03.069041  9275 net.cpp:425] inception_5b/output <- inception_5b/1x1
I0403 19:28:03.069058  9275 net.cpp:425] inception_5b/output <- inception_5b/3x3
I0403 19:28:03.069073  9275 net.cpp:425] inception_5b/output <- inception_5b/5x5
I0403 19:28:03.069088  9275 net.cpp:425] inception_5b/output <- inception_5b/pool_proj
I0403 19:28:03.069108  9275 net.cpp:399] inception_5b/output -> inception_5b/output
I0403 19:28:03.069156  9275 net.cpp:141] Setting up inception_5b/output
I0403 19:28:03.069180  9275 net.cpp:148] Top shape: 24 1024 7 7 (1204224)
I0403 19:28:03.069195  9275 net.cpp:156] Memory required for data: 1345864224
I0403 19:28:03.069211  9275 layer_factory.hpp:77] Creating layer pool5/7x7_s1
I0403 19:28:03.069231  9275 net.cpp:91] Creating Layer pool5/7x7_s1
I0403 19:28:03.069247  9275 net.cpp:425] pool5/7x7_s1 <- inception_5b/output
I0403 19:28:03.069265  9275 net.cpp:399] pool5/7x7_s1 -> pool5/7x7_s1
I0403 19:28:03.069474  9275 net.cpp:141] Setting up pool5/7x7_s1
I0403 19:28:03.069501  9275 net.cpp:148] Top shape: 24 1024 1 1 (24576)
I0403 19:28:03.069517  9275 net.cpp:156] Memory required for data: 1345962528
I0403 19:28:03.069531  9275 layer_factory.hpp:77] Creating layer pool5/drop_7x7_s1
I0403 19:28:03.069548  9275 net.cpp:91] Creating Layer pool5/drop_7x7_s1
I0403 19:28:03.069564  9275 net.cpp:425] pool5/drop_7x7_s1 <- pool5/7x7_s1
I0403 19:28:03.069583  9275 net.cpp:386] pool5/drop_7x7_s1 -> pool5/7x7_s1 (in-place)
I0403 19:28:03.069631  9275 net.cpp:141] Setting up pool5/drop_7x7_s1
I0403 19:28:03.069654  9275 net.cpp:148] Top shape: 24 1024 1 1 (24576)
I0403 19:28:03.069669  9275 net.cpp:156] Memory required for data: 1346060832
I0403 19:28:03.069682  9275 layer_factory.hpp:77] Creating layer loss3/classifier_plantvillage
I0403 19:28:03.069703  9275 net.cpp:91] Creating Layer loss3/classifier_plantvillage
I0403 19:28:03.069720  9275 net.cpp:425] loss3/classifier_plantvillage <- pool5/7x7_s1
I0403 19:28:03.069741  9275 net.cpp:399] loss3/classifier_plantvillage -> loss3/classifier_plantvillage
I0403 19:28:03.070140  9275 net.cpp:141] Setting up loss3/classifier_plantvillage
I0403 19:28:03.070165  9275 net.cpp:148] Top shape: 24 38 (912)
I0403 19:28:03.070179  9275 net.cpp:156] Memory required for data: 1346064480
I0403 19:28:03.070197  9275 layer_factory.hpp:77] Creating layer loss3/classifier_plantvillage_loss3/classifier_plantvillage_0_split
I0403 19:28:03.070217  9275 net.cpp:91] Creating Layer loss3/classifier_plantvillage_loss3/classifier_plantvillage_0_split
I0403 19:28:03.070235  9275 net.cpp:425] loss3/classifier_plantvillage_loss3/classifier_plantvillage_0_split <- loss3/classifier_plantvillage
I0403 19:28:03.070252  9275 net.cpp:399] loss3/classifier_plantvillage_loss3/classifier_plantvillage_0_split -> loss3/classifier_plantvillage_loss3/classifier_plantvillage_0_split_0
I0403 19:28:03.070271  9275 net.cpp:399] loss3/classifier_plantvillage_loss3/classifier_plantvillage_0_split -> loss3/classifier_plantvillage_loss3/classifier_plantvillage_0_split_1
I0403 19:28:03.070291  9275 net.cpp:399] loss3/classifier_plantvillage_loss3/classifier_plantvillage_0_split -> loss3/classifier_plantvillage_loss3/classifier_plantvillage_0_split_2
I0403 19:28:03.070308  9275 net.cpp:399] loss3/classifier_plantvillage_loss3/classifier_plantvillage_0_split -> loss3/classifier_plantvillage_loss3/classifier_plantvillage_0_split_3
I0403 19:28:03.070407  9275 net.cpp:141] Setting up loss3/classifier_plantvillage_loss3/classifier_plantvillage_0_split
I0403 19:28:03.070430  9275 net.cpp:148] Top shape: 24 38 (912)
I0403 19:28:03.070446  9275 net.cpp:148] Top shape: 24 38 (912)
I0403 19:28:03.070466  9275 net.cpp:148] Top shape: 24 38 (912)
I0403 19:28:03.070482  9275 net.cpp:148] Top shape: 24 38 (912)
I0403 19:28:03.070497  9275 net.cpp:156] Memory required for data: 1346079072
I0403 19:28:03.070511  9275 layer_factory.hpp:77] Creating layer loss1/loss
I0403 19:28:03.070534  9275 net.cpp:91] Creating Layer loss1/loss
I0403 19:28:03.070551  9275 net.cpp:425] loss1/loss <- loss1/classifier_plantvillage_loss1/classifier_plantvillage_0_split_0
I0403 19:28:03.070582  9275 net.cpp:425] loss1/loss <- label_data_1_split_0
…
