…
I0403 19:42:00.832702  9566 net.cpp:313] The NetState phase (1) differed from the phase (0) specified by a rule in layer data
I0403 19:42:00.833791  9566 net.cpp:49] Initializing net from parameters: 
state {
  phase: TEST
}
layer {
  name: "data"
  type: "Data"
  top: "data"
  top: "label"
  include {
    phase: TEST
  }
  transform_param {
    mirror: false
    crop_size: 224
    mean_file: "/home/mohanty/data/final_dataset/lmdb/color-60-40/mean.binaryproto"
  }
  data_param {
    source: "/home/mohanty/data/final_dataset/lmdb/color-60-40/test_db"
    batch_size: 24
    backend: LMDB
  }
}
layer {
  name: "conv1/7x7_s2"
  type: "Convolution"
  bottom: "data"
  top: "conv1/7x7_s2"
  param {
    lr_mult: 1
    decay_mult: 1
  }
  param {
    lr_mult: 2
    decay_mult: 0
  }
  convolution_param {
    num_output: 64
    pad: 3
    kernel_size: 7
    stride: 2
    weight_filler {
      type: "xavier"
      std: 0.1
    }
    bias_filler {
      type: "constant"
      value: 0.2
    }
  }
}
layer {
  name: "conv1/relu_7x7"
  type: "ReLU"
  bottom: "conv1/7x7_s2"
  top: "conv1/7x7_s2"
}
layer {
  name: "pool1/3x3_s2"
  type: "Pooling"
  bottom: "conv1/7x7_s2"
  top: "pool1/3x3_s2"
  pooling_param {
    pool: MAX
    kernel_size: 3
    stride: 2
  }
}
layer {
  name: "pool1/norm1"
  type: "LRN"
  bottom: "pool1/3x3_s2"
  top: "pool1/norm1"
  lrn_param {
    local_size: 5
    alpha: 0.0001
    beta: 0.75
  }
}
layer {
  name: "conv2/3x3_reduce"
  type: "Convolution"
  bottom: "pool1/norm1"
  top: "conv2/3x3_reduce"
  param {
    lr_mult: 1
    decay_mult: 1
  }
  param {
    lr_mult: 2
    decay_mult: 0
  }
  convolution_param {
    num_output: 64
    kernel_size: 1
    weight_filler {
      type: "xavier"
      std: 0.1
    }
    bias_filler {
      type: "constant"
      value: 0.2
    }
  }
}
layer {
  name: "conv2/relu_3x3_reduce"
  type: "ReLU"
  bottom: "conv2/3x3_reduce"
  top: "conv2/3x3_reduce"
}
layer {
  name: "conv2/3x3"
  type: "Convolution"
  bottom: "conv2/3x3_reduce"
  top: "conv2/3x3"
  param {
    lr_mult: 1
    decay_mult: 1
  }
  param {
    lr_mult: 2
    decay_mult: 0
  }
  convolution_param {
    num_output: 192
    pad: 1
    kernel_size: 3
    weight_filler {
      type: "xavier"
      std: 0.03
    }
    bias_filler {
      type: "constant"
      value: 0.2
    }
  }
}
layer {
  name: "conv2/relu_3x3"
  type: "ReLU"
  bottom: "conv2/3x3"
  top: "conv2/3x3"
}
layer {
  name: "conv2/norm2"
  type: "LRN"
  bottom: "conv2/3x3"
  top: "conv2/norm2"
  lrn_param {
    local_size: 5
    alpha: 0.0001
    beta: 0.75
  }
}
layer {
  name: "pool2/3x3_s2"
  type: "Pooling"
  bottom: "conv2/norm2"
  top: "pool2/3x3_s2"
  pooling_param {
    pool: MAX
    kernel_size: 3
    stride: 2
  }
}
layer {
  name: "inception_3a/1x1"
  type: "Convolution"
  bottom: "pool2/3x3_s2"
  top: "inception_3a/1x1"
  param {
    lr_mult: 1
    decay_mult: 1
  }
  param {
    lr_mult: 2
    decay_mult: 0
  }
  convolution_param {
    num_output: 64
    kernel_size: 1
    weight_filler {
      type: "xavier"
      std: 0.03
    }
    bias_filler {
      type: "constant"
      value: 0.2
    }
  }
}
layer {
  name: "inception_3a/relu_1x1"
  type: "ReLU"
  bottom: "inception_3a/1x1"
  top: "inception_3a/1x1"
}
layer {
  name: "inception_3a/3x3_reduce"
  type: "Convolution"
  bottom: "pool2/3x3_s2"
  top: "inception_3a/3x3_reduce"
  param {
    lr_mult: 1
    decay_mult: 1
  }
  param {
    lr_mult: 2
    decay_mult: 0
  }
  convolution_param {
    num_output: 96
    kernel_size: 1
    weight_filler {
      type: "xavier"
      std: 0.09
    }
    bias_filler {
      type: "constant"
      value: 0.2
    }
  }
}
layer {
  name: "inception_3a/relu_3x3_reduce"
  type: "ReLU"
  bottom: "inception_3a/3x3_reduce"
  top: "inception_3a/3x3_reduce"
}
layer {
  name: "inception_3a/3x3"
  type: "Convolution"
  bottom: "inception_3a/3x3_reduce"
  top: "inception_3a/3x3"
  param {
    lr_mult: 1
    decay_mult: 1
  }
  param {
    lr_mult: 2
    decay_mult: 0
  }
  convolution_param {
    num_output: 128
    pad: 1
    kernel_size: 3
    weight_filler {
      type: "xavier"
      std: 0.03
    }
    bias_filler {
      type: "constant"
      value: 0.2
    }
  }
}
layer {
  name: "inception_3a/relu_3x3"
  type: "ReLU"
  bottom: "inception_3a/3x3"
  top: "inception_3a/3x3"
}
layer {
  name: "inception_3a/5x5_reduce"
  type: "Convolution"
  bottom: "pool2/3x3_s2"
  top: "inception_3a/5x5_reduce"
  param {
    lr_mult: 1
    decay_mult: 1
  }
  param {
    lr_mult: 2
    decay_mult: 0
  }
  convolution_param {
    num_output: 16
    kernel_size: 1
    weight_filler {
      type: "xavier"
      std: 0.2
    }
    bias_filler {
      type: "constant"
      value: 0.2
    }
  }
}
layer {
  name: "inception_3a/relu_5x5_reduce"
  type: "ReLU"
  bottom: "inception_3a/5x5_reduce"
  top: "inception_3a/5x5_reduce"
}
layer {
  name: "inception_3a/5x5"
  type: "Convolution"
  bottom: "inception_3a/5x5_reduce"
  top: "inception_3a/5x5"
  param {
    lr_mult: 1
    decay_mult: 1
  }
  param {
    lr_mult: 2
    decay_mult: 0
  }
  convolution_param {
    num_output: 32
    pad: 2
    kernel_size: 5
    weight_filler {
      type: "xavier"
      std: 0.03
    }
    bias_filler {
      type: "constant"
      value: 0.2
    }
  }
}
layer {
  name: "inception_3a/relu_5x5"
  type: "ReLU"
  bottom: "inception_3a/5x5"
  top: "inception_3a/5x5"
}
layer {
  name: "inception_3a/pool"
  type: "Pooling"
  bottom: "pool2/3x3_s2"
  top: "inception_3a/pool"
  pooling_param {
    pool: MAX
    kernel_size: 3
    stride: 1
    pad: 1
  }
}
layer {
  name: "inception_3a/pool_proj"
  type: "Convolution"
  bottom: "inception_3a/pool"
  top: "inception_3a/pool_proj"
  param {
    lr_mult: 1
    decay_mult: 1
  }
  param {
    lr_mult: 2
    decay_mult: 0
  }
  convolution_param {
    num_output: 32
    kernel_size: 1
    weight_filler {
      type: "xavier"
      std: 0.1
    }
    bias_filler {
      type: "constant"
      value: 0.2
    }
  }
}
layer {
  name: "inception_3a/relu_pool_proj"
  type: "ReLU"
  bottom: "inception_3a/pool_proj"
  top: "inception_3a/pool_proj"
}
layer {
  name: "inception_3a/output"
  type: "Concat"
  bottom: "inception_3a/1x1"
  bottom: "inception_3a/3x3"
  bottom: "inception_3a/5x5"
  bottom: "inception_3a/pool_proj"
  top: "inception_3a/output"
}
layer {
  name: "inception_3b/1x1"
  type: "Convolution"
  bottom: "inception_3a/output"
  top: "inception_3b/1x1"
  param {
    lr_mult: 1
    decay_mult: 1
  }
  param {
    lr_mult: 2
    decay_mult: 0
  }
  convolution_param {
    num_output: 128
    kernel_size: 1
    weight_filler {
      type: "xavier"
      std: 0.03
    }
    bias_filler {
      type: "constant"
      value: 0.2
    }
  }
}
layer {
  name: "inception_3b/relu_1x1"
  type: "ReLU"
  bottom: "inception_3b/1x1"
  top: "inception_3b/1x1"
}
layer {
  name: "inception_3b/3x3_reduce"
  type: "Convolution"
  bottom: "inception_3a/output"
  top: "inception_3b/3x3_reduce"
  param {
    lr_mult: 1
    decay_mult: 1
  }
  param {
    lr_mult: 2
    decay_mult: 0
  }
  convolution_param {
    num_output: 128
    kernel_size: 1
    weight_filler {
      type: "xavier"
      std: 0.09
    }
    bias_filler {
      type: "constant"
      value: 0.2
    }
  }
}
layer {
  name: "inception_3b/relu_3x3_reduce"
  type: "ReLU"
  bottom: "inception_3b/3x3_reduce"
  top: "inception_3b/3x3_reduce"
}
layer {
  name: "inception_3b/3x3"
  type: "Convolution"
  bottom: "inception_3b/3x3_reduce"
  top: "inception_3b/3x3"
  param {
    lr_mult: 1
    decay_mult: 1
  }
  param {
    lr_mult: 2
    decay_mult: 0
  }
  convolution_param {
    num_output: 192
    pad: 1
    kernel_size: 3
    weight_filler {
      type: "xavier"
      std: 0.03
    }
    bias_filler {
      type: "constant"
      value: 0.2
    }
  }
}
layer {
  name: "inception_3b/relu_3x3"
  type: "ReLU"
  bottom: "inception_3b/3x3"
  top: "inception_3b/3x3"
}
layer {
  name: "inception_3b/5x5_reduce"
  type: "Convolution"
  bottom: "inception_3a/output"
  top: "inception_3b/5x5_reduce"
  param {
    lr_mult: 1
    decay_mult: 1
  }
  param {
    lr_mult: 2
    decay_mult: 0
  }
  convolution_param {
    num_output: 32
    kernel_size: 1
    weight_filler {
      type: "xavier"
      std: 0.2
    }
    bias_filler {
      type: "constant"
      value: 0.2
    }
  }
}
layer {
  name: "inception_3b/relu_5x5_reduce"
  type: "ReLU"
  bottom: "inception_3b/5x5_reduce"
  top: "inception_3b/5x5_reduce"
}
layer {
  name: "inception_3b/5x5"
  type: "Convolution"
  bottom: "inception_3b/5x5_reduce"
  top: "inception_3b/5x5"
  param {
    lr_mult: 1
    decay_mult: 1
  }
  param {
    lr_mult: 2
    decay_mult: 0
  }
  convolution_param {
    num_output: 96
    pad: 2
    kernel_size: 5
    weight_filler {
      type: "xavier"
      std: 0.03
    }
    bias_filler {
      type: "constant"
      value: 0.2
    }
  }
}
layer {
  name: "inception_3b/relu_5x5"
  type: "ReLU"
  bottom: "inception_3b/5x5"
  top: "inception_3b/5x5"
}
layer {
  name: "inception_3b/pool"
  type: "Pooling"
  bottom: "inception_3a/output"
  top: "inception_3b/pool"
  pooling_param {
    pool: MAX
    kernel_size: 3
    stride: 1
    pad: 1
  }
}
layer {
  name: "inception_3b/pool_proj"
  type: "Convolution"
  bottom: "inception_3b/pool"
  top: "inception_3b/pool_proj"
  param {
    lr_mult: 1
    decay_mult: 1
  }
  param {
    lr_mult: 2
    decay_mult: 0
  }
  convolution_param {
    num_output: 64
    kernel_size: 1
    weight_filler {
      type: "xavier"
      std: 0.1
    }
    bias_filler {
      type: "constant"
      value: 0.2
    }
  }
}
layer {
  name: "inception_3b/relu_pool_proj"
  type: "ReLU"
  bottom: "inception_3b/pool_proj"
  top: "inception_3b/pool_proj"
}
layer {
  name: "inception_3b/output"
  type: "Concat"
  bottom: "inception_3b/1x1"
  bottom: "inception_3b/3x3"
  bottom: "inception_3b/5x5"
  bottom: "inception_3b/pool_proj"
  top: "inception_3b/output"
}
layer {
  name: "pool3/3x3_s2"
  type: "Pooling"
  bottom: "inception_3b/output"
  top: "pool3/3x3_s2"
  pooling_param {
    pool: MAX
    kernel_size: 3
    stride: 2
  }
}
layer {
  name: "inception_4a/1x1"
  type: "Convolution"
  bottom: "pool3/3x3_s2"
  top: "inception_4a/1x1"
  param {
    lr_mult: 1
    decay_mult: 1
  }
  param {
    lr_mult: 2
    decay_mult: 0
  }
  convolution_param {
    num_output: 192
    kernel_size: 1
    weight_filler {
      type: "xavier"
      std: 0.03
    }
    bias_filler {
      type: "constant"
      value: 0.2
    }
  }
}
layer {
  name: "inception_4a/relu_1x1"
  type: "ReLU"
  bottom: "inception_4a/1x1"
  top: "inception_4a/1x1"
}
layer {
  name: "inception_4a/3x3_reduce"
  type: "Convolution"
  bottom: "pool3/3x3_s2"
  top: "inception_4a/3x3_reduce"
  param {
    lr_mult: 1
    decay_mult: 1
  }
  param {
    lr_mult: 2
    decay_mult: 0
  }
  convolution_param {
    num_output: 96
    kernel_size: 1
    weight_filler {
      type: "xavier"
      std: 0.09
    }
    bias_filler {
      type: "constant"
      value: 0.2
    }
  }
}
layer {
  name: "inception_4a/relu_3x3_reduce"
  type: "ReLU"
  bottom: "inception_4a/3x3_reduce"
  top: "inception_4a/3x3_reduce"
}
layer {
  name: "inception_4a/3x3"
  type: "Convolution"
  bottom: "inception_4a/3x3_reduce"
  top: "inception_4a/3x3"
  param {
    lr_mult: 1
    decay_mult: 1
  }
  param {
    lr_mult: 2
    decay_mult: 0
  }
  convolution_param {
    num_output: 208
    pad: 1
    kernel_size: 3
    weight_filler {
      type: "xavier"
      std: 0.03
    }
    bias_filler {
      type: "constant"
      value: 0.2
    }
  }
}
layer {
  name: "inception_4a/relu_3x3"
  type: "ReLU"
  bottom: "inception_4a/3x3"
  top: "inception_4a/3x3"
}
layer {
  name: "inception_4a/5x5_reduce"
  type: "Convolution"
  bottom: "pool3/3x3_s2"
  top: "inception_4a/5x5_reduce"
  param {
    lr_mult: 1
    decay_mult: 1
  }
  param {
    lr_mult: 2
    decay_mult: 0
  }
  convolution_param {
    num_output: 16
    kernel_size: 1
    weight_filler {
      type: "xavier"
      std: 0.2
    }
    bias_filler {
      type: "constant"
      value: 0.2
    }
  }
}
layer {
  name: "inception_4a/relu_5x5_reduce"
  type: "ReLU"
  bottom: "inception_4a/5x5_reduce"
  top: "inception_4a/5x5_reduce"
}
layer {
  name: "inception_4a/5x5"
  type: "Convolution"
  bottom: "inception_4a/5x5_reduce"
  top: "inception_4a/5x5"
  param {
    lr_mult: 1
    decay_mult: 1
  }
  param {
    lr_mult: 2
    decay_mult: 0
  }
  convolution_param {
    num_output: 48
    pad: 2
    kernel_size: 5
    weight_filler {
      type: "xavier"
      std: 0.03
    }
    bias_filler {
      type: "constant"
      value: 0.2
    }
  }
}
layer {
  name: "inception_4a/relu_5x5"
  type: "ReLU"
  bottom: "inception_4a/5x5"
  top: "inception_4a/5x5"
}
layer {
  name: "inception_4a/pool"
  type: "Pooling"
  bottom: "pool3/3x3_s2"
  top: "inception_4a/pool"
  pooling_param {
    pool: MAX
    kernel_size: 3
    stride: 1
    pad: 1
  }
}
layer {
  name: "inception_4a/pool_proj"
  type: "Convolution"
  bottom: "inception_4a/pool"
  top: "inception_4a/pool_proj"
  param {
    lr_mult: 1
    decay_mult: 1
  }
  param {
    lr_mult: 2
    decay_mult: 0
  }
  convolution_param {
    num_output: 64
    kernel_size: 1
    weight_filler {
      type: "xavier"
      std: 0.1
    }
    bias_filler {
      type: "constant"
      value: 0.2
    }
  }
}
layer {
  name: "inception_4a/relu_pool_proj"
  type: "ReLU"
  bottom: "inception_4a/pool_proj"
  top: "inception_4a/pool_proj"
}
layer {
  name: "inception_4a/output"
  type: "Concat"
  bottom: "inception_4a/1x1"
  bottom: "inception_4a/3x3"
  bottom: "inception_4a/5x5"
  bottom: "inception_4a/pool_proj"
  top: "inception_4a/output"
}
layer {
  name: "loss1/ave_pool"
  type: "Pooling"
  bottom: "inception_4a/output"
  top: "loss1/ave_pool"
  pooling_param {
    pool: AVE
    kernel_size: 5
    stride: 3
  }
}
layer {
  name: "loss1/conv"
  type: "Convolution"
  bottom: "loss1/ave_pool"
  top: "loss1/conv"
  param {
    lr_mult: 1
    decay_mult: 1
  }
  param {
    lr_mult: 2
    decay_mult: 0
  }
  convolution_param {
    num_output: 128
    kernel_size: 1
    weight_filler {
      type: "xavier"
      std: 0.08
    }
    bias_filler {
      type: "constant"
      value: 0.2
    }
  }
}
layer {
  name: "loss1/relu_conv"
  type: "ReLU"
  bottom: "loss1/conv"
  top: "loss1/conv"
}
layer {
  name: "loss1/fc"
  type: "InnerProduct"
  bottom: "loss1/conv"
  top: "loss1/fc"
  param {
    lr_mult: 1
    decay_mult: 1
  }
  param {
    lr_mult: 2
    decay_mult: 0
  }
  inner_product_param {
    num_output: 1024
    weight_filler {
      type: "xavier"
      std: 0.02
    }
    bias_filler {
      type: "constant"
      value: 0.2
    }
  }
}
layer {
  name: "loss1/relu_fc"
  type: "ReLU"
  bottom: "loss1/fc"
  top: "loss1/fc"
}
layer {
  name: "loss1/drop_fc"
  type: "Dropout"
  bottom: "loss1/fc"
  top: "loss1/fc"
  dropout_param {
    dropout_ratio: 0.7
  }
}
layer {
  name: "loss1/classifier_plantvillage"
  type: "InnerProduct"
  bottom: "loss1/fc"
  top: "loss1/classifier_plantvillage"
  param {
    lr_mult: 1
    decay_mult: 1
  }
  param {
    lr_mult: 2
    decay_mult: 0
  }
  inner_product_param {
    num_output: 38
    weight_filler {
      type: "xavier"
      std: 0.0009765625
    }
    bias_filler {
      type: "constant"
      value: 0
    }
  }
}
layer {
  name: "inception_4b/1x1"
  type: "Convolution"
  bottom: "inception_4a/output"
  top: "inception_4b/1x1"
  param {
    lr_mult: 1
    decay_mult: 1
  }
  param {
    lr_mult: 2
    decay_mult: 0
  }
  convolution_param {
    num_output: 160
    kernel_size: 1
    weight_filler {
      type: "xavier"
      std: 0.03
    }
    bias_filler {
      type: "constant"
      value: 0.2
    }
  }
}
layer {
  name: "inception_4b/relu_1x1"
  type: "ReLU"
  bottom: "inception_4b/1x1"
  top: "inception_4b/1x1"
}
layer {
  name: "inception_4b/3x3_reduce"
  type: "Convolution"
  bottom: "inception_4a/output"
  top: "inception_4b/3x3_reduce"
  param {
    lr_mult: 1
    decay_mult: 1
  }
  param {
    lr_mult: 2
    decay_mult: 0
  }
  convolution_param {
    num_output: 112
    kernel_size: 1
    weight_filler {
      type: "xavier"
      std: 0.09
    }
    bias_filler {
      type: "constant"
      value: 0.2
    }
  }
}
layer {
  name: "inception_4b/relu_3x3_reduce"
  type: "ReLU"
  bottom: "inception_4b/3x3_reduce"
  top: "inception_4b/3x3_reduce"
}
layer {
  name: "inception_4b/3x3"
  type: "Convolution"
  bottom: "inception_4b/3x3_reduce"
  top: "inception_4b/3x3"
  param {
    lr_mult: 1
    decay_mult: 1
  }
  param {
    lr_mult: 2
    decay_mult: 0
  }
  convolution_param {
    num_output: 224
    pad: 1
    kernel_size: 3
    weight_filler {
      type: "xavier"
      std: 0.03
    }
    bias_filler {
      type: "constant"
      value: 0.2
    }
  }
}
layer {
  name: "inception_4b/relu_3x3"
  type: "ReLU"
  bottom: "inception_4b/3x3"
  top: "inception_4b/3x3"
}
layer {
  name: "inception_4b/5x5_reduce"
  type: "Convolution"
  bottom: "inception_4a/output"
  top: "inception_4b/5x5_reduce"
  param {
    lr_mult: 1
    decay_mult: 1
  }
  param {
    lr_mult: 2
    decay_mult: 0
  }
  convolution_param {
    num_output: 24
    kernel_size: 1
    weight_filler {
      type: "xavier"
      std: 0.2
    }
    bias_filler {
      type: "constant"
      value: 0.2
    }
  }
}
layer {
  name: "inception_4b/relu_5x5_reduce"
  type: "ReLU"
  bottom: "inception_4b/5x5_reduce"
  top: "inception_4b/5x5_reduce"
}
layer {
  name: "inception_4b/5x5"
  type: "Convolution"
  bottom: "inception_4b/5x5_reduce"
  top: "inception_4b/5x5"
  param {
    lr_mult: 1
    decay_mult: 1
  }
  param {
    lr_mult: 2
    decay_mult: 0
  }
  convolution_param {
    num_output: 64
    pad: 2
    kernel_size: 5
    weight_filler {
      type: "xavier"
      std: 0.03
    }
    bias_filler {
      type: "constant"
      value: 0.2
    }
  }
}
layer {
  name: "inception_4b/relu_5x5"
  type: "ReLU"
  bottom: "inception_4b/5x5"
  top: "inception_4b/5x5"
}
layer {
  name: "inception_4b/pool"
  type: "Pooling"
  bottom: "inception_4a/output"
  top: "inception_4b/pool"
  pooling_param {
    pool: MAX
    kernel_size: 3
    stride: 1
    pad: 1
  }
}
layer {
  name: "inception_4b/pool_proj"
  type: "Convolution"
  bottom: "inception_4b/pool"
  top: "inception_4b/pool_proj"
  param {
    lr_mult: 1
    decay_mult: 1
  }
  param {
    lr_mult: 2
    decay_mult: 0
  }
  convolution_param {
    num_output: 64
    kernel_size: 1
    weight_filler {
      type: "xavier"
      std: 0.1
    }
    bias_filler {
      type: "constant"
      value: 0.2
    }
  }
}
layer {
  name: "inception_4b/relu_pool_proj"
  type: "ReLU"
  bottom: "inception_4b/pool_proj"
  top: "inception_4b/pool_proj"
}
layer {
  name: "inception_4b/output"
  type: "Concat"
  bottom: "inception_4b/1x1"
  bottom: "inception_4b/3x3"
  bottom: "inception_4b/5x5"
  bottom: "inception_4b/pool_proj"
  top: "inception_4b/output"
}
layer {
  name: "inception_4c/1x1"
  type: "Convolution"
  bottom: "inception_4b/output"
  top: "inception_4c/1x1"
  param {
    lr_mult: 1
    decay_mult: 1
  }
  param {
    lr_mult: 2
    decay_mult: 0
  }
  convolution_param {
    num_output: 128
    kernel_size: 1
    weight_filler {
      type: "xavier"
      std: 0.03
    }
    bias_filler {
      type: "constant"
      value: 0.2
    }
  }
}
layer {
  name: "inception_4c/relu_1x1"
  type: "ReLU"
  bottom: "inception_4c/1x1"
  top: "inception_4c/1x1"
}
layer {
  name: "inception_4c/3x3_reduce"
  type: "Convolution"
  bottom: "inception_4b/output"
  top: "inception_4c/3x3_reduce"
  param {
    lr_mult: 1
    decay_mult: 1
  }
  param {
    lr_mult: 2
    decay_mult: 0
  }
  convolution_param {
    num_output: 128
    kernel_size: 1
    weight_filler {
      type: "xavier"
      std: 0.09
    }
    bias_filler {
      type: "constant"
      value: 0.2
    }
  }
}
layer {
  name: "inception_4c/relu_3x3_reduce"
  type: "ReLU"
  bottom: "inception_4c/3x3_reduce"
  top: "inception_4c/3x3_reduce"
}
layer {
  name: "inception_4c/3x3"
  type: "Convolution"
  bottom: "inception_4c/3x3_reduce"
  top: "inception_4c/3x3"
  param {
    lr_mult: 1
    decay_mult: 1
  }
  param {
    lr_mult: 2
    decay_mult: 0
  }
  convolution_param {
    num_output: 256
    pad: 1
    kernel_size: 3
    weight_filler {
      type: "xavier"
      std: 0.03
    }
    bias_filler {
      type: "constant"
      value: 0.2
    }
  }
}
layer {
  name: "inception_4c/relu_3x3"
  type: "ReLU"
  bottom: "inception_4c/3x3"
  top: "inception_4c/3x3"
}
layer {
  name: "inception_4c/5x5_reduce"
  type: "Convolution"
  bottom: "inception_4b/output"
  top: "inception_4c/5x5_reduce"
  param {
    lr_mult: 1
    decay_mult: 1
  }
  param {
    lr_mult: 2
    decay_mult: 0
  }
  convolution_param {
    num_output: 24
    kernel_size: 1
    weight_filler {
      type: "xavier"
      std: 0.2
    }
    bias_filler {
      type: "constant"
      value: 0.2
    }
  }
}
layer {
  name: "inception_4c/relu_5x5_reduce"
  type: "ReLU"
  bottom: "inception_4c/5x5_reduce"
  top: "inception_4c/5x5_reduce"
}
layer {
  name: "inception_4c/5x5"
  type: "Convolution"
  bottom: "inception_4c/5x5_reduce"
  top: "inception_4c/5x5"
  param {
    lr_mult: 1
    decay_mult: 1
  }
  param {
    lr_mult: 2
    decay_mult: 0
  }
  convolution_param {
    num_output: 64
    pad: 2
    kernel_size: 5
    weight_filler {
      type: "xavier"
      std: 0.03
    }
    bias_filler {
      type: "constant"
      value: 0.2
    }
  }
}
layer {
  name: "inception_4c/relu_5x5"
  type: "ReLU"
  bottom: "inception_4c/5x5"
  top: "inception_4c/5x5"
}
layer {
  name: "inception_4c/pool"
  type: "Pooling"
  bottom: "inception_4b/output"
  top: "inception_4c/pool"
  pooling_param {
    pool: MAX
    kernel_size: 3
    stride: 1
    pad: 1
  }
}
layer {
  name: "inception_4c/pool_proj"
  type: "Convolution"
  bottom: "inception_4c/pool"
  top: "inception_4c/pool_proj"
  param {
    lr_mult: 1
    decay_mult: 1
  }
  param {
    lr_mult: 2
    decay_mult: 0
  }
  convolution_param {
    num_output: 64
    kernel_size: 1
    weight_filler {
      type: "xavier"
      std: 0.1
    }
    bias_filler {
      type: "constant"
      value: 0.2
    }
  }
}
layer {
  name: "inception_4c/relu_pool_proj"
  type: "ReLU"
  bottom: "inception_4c/pool_proj"
  top: "inception_4c/pool_proj"
}
layer {
  name: "inception_4c/output"
  type: "Concat"
  bottom: "inception_4c/1x1"
  bottom: "inception_4c/3x3"
  bottom: "inception_4c/5x5"
  bottom: "inception_4c/pool_proj"
  top: "inception_4c/output"
}
layer {
  name: "inception_4d/1x1"
  type: "Convolution"
  bottom: "inception_4c/output"
  top: "inception_4d/1x1"
  param {
    lr_mult: 1
    decay_mult: 1
  }
  param {
    lr_mult: 2
    decay_mult: 0
  }
  convolution_param {
    num_output: 112
    kernel_size: 1
    weight_filler {
      type: "xavier"
      std: 0.03
    }
    bias_filler {
      type: "constant"
      value: 0.2
    }
  }
}
layer {
  name: "inception_4d/relu_1x1"
  type: "ReLU"
  bottom: "inception_4d/1x1"
  top: "inception_4d/1x1"
}
layer {
  name: "inception_4d/3x3_reduce"
  type: "Convolution"
  bottom: "inception_4c/output"
  top: "inception_4d/3x3_reduce"
  param {
    lr_mult: 1
    decay_mult: 1
  }
  param {
    lr_mult: 2
    decay_mult: 0
  }
  convolution_param {
    num_output: 144
    kernel_size: 1
    weight_filler {
      type: "xavier"
      std: 0.09
    }
    bias_filler {
      type: "constant"
      value: 0.2
    }
  }
}
layer {
  name: "inception_4d/relu_3x3_reduce"
  type: "ReLU"
  bottom: "inception_4d/3x3_reduce"
  top: "inception_4d/3x3_reduce"
}
layer {
  name: "inception_4d/3x3"
  type: "Convolution"
  bottom: "inception_4d/3x3_reduce"
  top: "inception_4d/3x3"
  param {
    lr_mult: 1
    decay_mult: 1
  }
  param {
    lr_mult: 2
    decay_mult: 0
  }
  convolution_param {
    num_output: 288
    pad: 1
    kernel_size: 3
    weight_filler {
      type: "xavier"
      std: 0.03
    }
    bias_filler {
      type: "constant"
      value: 0.2
    }
  }
}
layer {
  name: "inception_4d/relu_3x3"
  type: "ReLU"
  bottom: "inception_4d/3x3"
  top: "inception_4d/3x3"
}
layer {
  name: "inception_4d/5x5_reduce"
  type: "Convolution"
  bottom: "inception_4c/output"
  top: "inception_4d/5x5_reduce"
  param {
    lr_mult: 1
    decay_mult: 1
  }
  param {
    lr_mult: 2
    decay_mult: 0
  }
  convolution_param {
    num_output: 32
    kernel_size: 1
    weight_filler {
      type: "xavier"
      std: 0.2
    }
    bias_filler {
      type: "constant"
      value: 0.2
    }
  }
}
layer {
  name: "inception_4d/relu_5x5_reduce"
  type: "ReLU"
  bottom: "inception_4d/5x5_reduce"
  top: "inception_4d/5x5_reduce"
}
layer {
  name: "inception_4d/5x5"
  type: "Convolution"
  bottom: "inception_4d/5x5_reduce"
  top: "inception_4d/5x5"
  param {
    lr_mult: 1
    decay_mult: 1
  }
  param {
    lr_mult: 2
    decay_mult: 0
  }
  convolution_param {
    num_output: 64
    pad: 2
    kernel_size: 5
    weight_filler {
      type: "xavier"
      std: 0.03
    }
    bias_filler {
      type: "constant"
      value: 0.2
    }
  }
}
layer {
  name: "inception_4d/relu_5x5"
  type: "ReLU"
  bottom: "inception_4d/5x5"
  top: "inception_4d/5x5"
}
layer {
  name: "inception_4d/pool"
  type: "Pooling"
  bottom: "inception_4c/output"
  top: "inception_4d/pool"
  pooling_param {
    pool: MAX
    kernel_size: 3
    stride: 1
    pad: 1
  }
}
layer {
  name: "inception_4d/pool_proj"
  type: "Convolution"
  bottom: "inception_4d/pool"
  top: "inception_4d/pool_proj"
  param {
    lr_mult: 1
    decay_mult: 1
  }
  param {
    lr_mult: 2
    decay_mult: 0
  }
  convolution_param {
    num_output: 64
    kernel_size: 1
    weight_filler {
      type: "xavier"
      std: 0.1
    }
    bias_filler {
      type: "constant"
      value: 0.2
    }
  }
}
layer {
  name: "inception_4d/relu_pool_proj"
  type: "ReLU"
  bottom: "inception_4d/pool_proj"
  top: "inception_4d/pool_proj"
}
layer {
  name: "inception_4d/output"
  type: "Concat"
  bottom: "inception_4d/1x1"
  bottom: "inception_4d/3x3"
  bottom: "inception_4d/5x5"
  bottom: "inception_4d/pool_proj"
  top: "inception_4d/output"
}
layer {
  name: "loss2/ave_pool"
  type: "Pooling"
  bottom: "inception_4d/output"
  top: "loss2/ave_pool"
  pooling_param {
    pool: AVE
    kernel_size: 5
    stride: 3
  }
}
layer {
  name: "loss2/conv"
  type: "Convolution"
  bottom: "loss2/ave_pool"
  top: "loss2/conv"
  param {
    lr_mult: 1
    decay_mult: 1
  }
  param {
    lr_mult: 2
    decay_mult: 0
  }
  convolution_param {
    num_output: 128
    kernel_size: 1
    weight_filler {
      type: "xavier"
      std: 0.08
    }
    bias_filler {
      type: "constant"
      value: 0.2
    }
  }
}
layer {
  name: "loss2/relu_conv"
  type: "ReLU"
  bottom: "loss2/conv"
  top: "loss2/conv"
}
layer {
  name: "loss2/fc"
  type: "InnerProduct"
  bottom: "loss2/conv"
  top: "loss2/fc"
  param {
    lr_mult: 1
    decay_mult: 1
  }
  param {
    lr_mult: 2
    decay_mult: 0
  }
  inner_product_param {
    num_output: 1024
    weight_filler {
      type: "xavier"
      std: 0.02
    }
    bias_filler {
      type: "constant"
      value: 0.2
    }
  }
}
layer {
  name: "loss2/relu_fc"
  type: "ReLU"
  bottom: "loss2/fc"
  top: "loss2/fc"
}
layer {
  name: "loss2/drop_fc"
  type: "Dropout"
  bottom: "loss2/fc"
  top: "loss2/fc"
  dropout_param {
    dropout_ratio: 0.7
  }
}
layer {
  name: "loss2/classifier_plantvillage"
  type: "InnerProduct"
  bottom: "loss2/fc"
  top: "loss2/classifier_plantvillage"
  param {
    lr_mult: 1
    decay_mult: 1
  }
  param {
    lr_mult: 2
    decay_mult: 0
  }
  inner_product_param {
    num_output: 38
    weight_filler {
      type: "xavier"
      std: 0.0009765625
    }
    bias_filler {
      type: "constant"
      value: 0
    }
  }
}
layer {
  name: "inception_4e/1x1"
  type: "Convolution"
  bottom: "inception_4d/output"
  top: "inception_4e/1x1"
  param {
    lr_mult: 1
    decay_mult: 1
  }
  param {
    lr_mult: 2
    decay_mult: 0
  }
  convolution_param {
    num_output: 256
    kernel_size: 1
    weight_filler {
      type: "xavier"
      std: 0.03
    }
    bias_filler {
      type: "constant"
      value: 0.2
    }
  }
}
layer {
  name: "inception_4e/relu_1x1"
  type: "ReLU"
  bottom: "inception_4e/1x1"
  top: "inception_4e/1x1"
}
layer {
  name: "inception_4e/3x3_reduce"
  type: "Convolution"
  bottom: "inception_4d/output"
  top: "inception_4e/3x3_reduce"
  param {
    lr_mult: 1
    decay_mult: 1
  }
  param {
    lr_mult: 2
    decay_mult: 0
  }
  convolution_param {
    num_output: 160
    kernel_size: 1
    weight_filler {
      type: "xavier"
      std: 0.09
    }
    bias_filler {
      type: "constant"
      value: 0.2
    }
  }
}
layer {
  name: "inception_4e/relu_3x3_reduce"
  type: "ReLU"
  bottom: "inception_4e/3x3_reduce"
  top: "inception_4e/3x3_reduce"
}
layer {
  name: "inception_4e/3x3"
  type: "Convolution"
  bottom: "inception_4e/3x3_reduce"
  top: "inception_4e/3x3"
  param {
    lr_mult: 1
    decay_mult: 1
  }
  param {
    lr_mult: 2
    decay_mult: 0
  }
  convolution_param {
    num_output: 320
    pad: 1
    kernel_size: 3
    weight_filler {
      type: "xavier"
      std: 0.03
    }
    bias_filler {
      type: "constant"
      value: 0.2
    }
  }
}
layer {
  name: "inception_4e/relu_3x3"
  type: "ReLU"
  bottom: "inception_4e/3x3"
  top: "inception_4e/3x3"
}
layer {
  name: "inception_4e/5x5_reduce"
  type: "Convolution"
  bottom: "inception_4d/output"
  top: "inception_4e/5x5_reduce"
  param {
    lr_mult: 1
    decay_mult: 1
  }
  param {
    lr_mult: 2
    decay_mult: 0
  }
  convolution_param {
    num_output: 32
    kernel_size: 1
    weight_filler {
      type: "xavier"
      std: 0.2
    }
    bias_filler {
      type: "constant"
      value: 0.2
    }
  }
}
layer {
  name: "inception_4e/relu_5x5_reduce"
  type: "ReLU"
  bottom: "inception_4e/5x5_reduce"
  top: "inception_4e/5x5_reduce"
}
layer {
  name: "inception_4e/5x5"
  type: "Convolution"
  bottom: "inception_4e/5x5_reduce"
  top: "inception_4e/5x5"
  p
I0403 19:42:00.835381  9566 layer_factory.hpp:77] Creating layer data
I0403 19:42:00.835969  9566 net.cpp:91] Creating Layer data
I0403 19:42:00.836001  9566 net.cpp:399] data -> data
I0403 19:42:00.836058  9566 net.cpp:399] data -> label
I0403 19:42:00.836097  9566 data_transformer.cpp:25] Loading mean file from: /home/mohanty/data/final_dataset/lmdb/color-60-40/mean.binaryproto
I0403 19:42:00.837164  9568 db_lmdb.cpp:38] Opened lmdb /home/mohanty/data/final_dataset/lmdb/color-60-40/test_db
I0403 19:42:00.848816  9566 data_layer.cpp:41] output data size: 24,3,224,224
I0403 19:42:00.875048  9566 net.cpp:141] Setting up data
I0403 19:42:00.875120  9566 net.cpp:148] Top shape: 24 3 224 224 (3612672)
I0403 19:42:00.875152  9566 net.cpp:148] Top shape: 24 (24)
I0403 19:42:00.875169  9566 net.cpp:156] Memory required for data: 14450784
I0403 19:42:00.875197  9566 layer_factory.hpp:77] Creating layer label_data_1_split
I0403 19:42:00.875231  9566 net.cpp:91] Creating Layer label_data_1_split
I0403 19:42:00.875249  9566 net.cpp:425] label_data_1_split <- label
I0403 19:42:00.875283  9566 net.cpp:399] label_data_1_split -> label_data_1_split_0
I0403 19:42:00.875313  9566 net.cpp:399] label_data_1_split -> label_data_1_split_1
I0403 19:42:00.875334  9566 net.cpp:399] label_data_1_split -> label_data_1_split_2
I0403 19:42:00.875355  9566 net.cpp:399] label_data_1_split -> label_data_1_split_3
I0403 19:42:00.875373  9566 net.cpp:399] label_data_1_split -> label_data_1_split_4
I0403 19:42:00.875391  9566 net.cpp:399] label_data_1_split -> label_data_1_split_5
I0403 19:42:00.875411  9566 net.cpp:399] label_data_1_split -> label_data_1_split_6
I0403 19:42:00.875430  9566 net.cpp:399] label_data_1_split -> label_data_1_split_7
I0403 19:42:00.875450  9566 net.cpp:399] label_data_1_split -> label_data_1_split_8
I0403 19:42:00.875476  9566 net.cpp:399] label_data_1_split -> label_data_1_split_9
I0403 19:42:00.875588  9566 net.cpp:141] Setting up label_data_1_split
I0403 19:42:00.875612  9566 net.cpp:148] Top shape: 24 (24)
I0403 19:42:00.875628  9566 net.cpp:148] Top shape: 24 (24)
I0403 19:42:00.875643  9566 net.cpp:148] Top shape: 24 (24)
I0403 19:42:00.875659  9566 net.cpp:148] Top shape: 24 (24)
I0403 19:42:00.875674  9566 net.cpp:148] Top shape: 24 (24)
I0403 19:42:00.875689  9566 net.cpp:148] Top shape: 24 (24)
I0403 19:42:00.875705  9566 net.cpp:148] Top shape: 24 (24)
I0403 19:42:00.875720  9566 net.cpp:148] Top shape: 24 (24)
I0403 19:42:00.875735  9566 net.cpp:148] Top shape: 24 (24)
I0403 19:42:00.875751  9566 net.cpp:148] Top shape: 24 (24)
I0403 19:42:00.875800  9566 net.cpp:156] Memory required for data: 14451744
I0403 19:42:00.875816  9566 layer_factory.hpp:77] Creating layer conv1/7x7_s2
I0403 19:42:00.875850  9566 net.cpp:91] Creating Layer conv1/7x7_s2
I0403 19:42:00.875869  9566 net.cpp:425] conv1/7x7_s2 <- data
I0403 19:42:00.875887  9566 net.cpp:399] conv1/7x7_s2 -> conv1/7x7_s2
I0403 19:42:01.012303  9566 net.cpp:141] Setting up conv1/7x7_s2
I0403 19:42:01.012377  9566 net.cpp:148] Top shape: 24 64 112 112 (19267584)
I0403 19:42:01.012393  9566 net.cpp:156] Memory required for data: 91522080
I0403 19:42:01.012428  9566 layer_factory.hpp:77] Creating layer conv1/relu_7x7
I0403 19:42:01.012475  9566 net.cpp:91] Creating Layer conv1/relu_7x7
I0403 19:42:01.012507  9566 net.cpp:425] conv1/relu_7x7 <- conv1/7x7_s2
I0403 19:42:01.012527  9566 net.cpp:386] conv1/relu_7x7 -> conv1/7x7_s2 (in-place)
I0403 19:42:01.012778  9566 net.cpp:141] Setting up conv1/relu_7x7
I0403 19:42:01.012804  9566 net.cpp:148] Top shape: 24 64 112 112 (19267584)
I0403 19:42:01.012820  9566 net.cpp:156] Memory required for data: 168592416
I0403 19:42:01.012835  9566 layer_factory.hpp:77] Creating layer pool1/3x3_s2
I0403 19:42:01.012861  9566 net.cpp:91] Creating Layer pool1/3x3_s2
I0403 19:42:01.012877  9566 net.cpp:425] pool1/3x3_s2 <- conv1/7x7_s2
I0403 19:42:01.012897  9566 net.cpp:399] pool1/3x3_s2 -> pool1/3x3_s2
I0403 19:42:01.012971  9566 net.cpp:141] Setting up pool1/3x3_s2
I0403 19:42:01.012995  9566 net.cpp:148] Top shape: 24 64 56 56 (4816896)
I0403 19:42:01.013010  9566 net.cpp:156] Memory required for data: 187860000
I0403 19:42:01.013025  9566 layer_factory.hpp:77] Creating layer pool1/norm1
I0403 19:42:01.013051  9566 net.cpp:91] Creating Layer pool1/norm1
I0403 19:42:01.013068  9566 net.cpp:425] pool1/norm1 <- pool1/3x3_s2
I0403 19:42:01.013087  9566 net.cpp:399] pool1/norm1 -> pool1/norm1
I0403 19:42:01.013422  9566 net.cpp:141] Setting up pool1/norm1
I0403 19:42:01.013448  9566 net.cpp:148] Top shape: 24 64 56 56 (4816896)
I0403 19:42:01.013468  9566 net.cpp:156] Memory required for data: 207127584
I0403 19:42:01.013484  9566 layer_factory.hpp:77] Creating layer conv2/3x3_reduce
I0403 19:42:01.013510  9566 net.cpp:91] Creating Layer conv2/3x3_reduce
I0403 19:42:01.013526  9566 net.cpp:425] conv2/3x3_reduce <- pool1/norm1
I0403 19:42:01.013545  9566 net.cpp:399] conv2/3x3_reduce -> conv2/3x3_reduce
I0403 19:42:01.014874  9566 net.cpp:141] Setting up conv2/3x3_reduce
I0403 19:42:01.014904  9566 net.cpp:148] Top shape: 24 64 56 56 (4816896)
I0403 19:42:01.014920  9566 net.cpp:156] Memory required for data: 226395168
I0403 19:42:01.014941  9566 layer_factory.hpp:77] Creating layer conv2/relu_3x3_reduce
I0403 19:42:01.014960  9566 net.cpp:91] Creating Layer conv2/relu_3x3_reduce
I0403 19:42:01.014974  9566 net.cpp:425] conv2/relu_3x3_reduce <- conv2/3x3_reduce
I0403 19:42:01.014991  9566 net.cpp:386] conv2/relu_3x3_reduce -> conv2/3x3_reduce (in-place)
I0403 19:42:01.015240  9566 net.cpp:141] Setting up conv2/relu_3x3_reduce
I0403 19:42:01.015267  9566 net.cpp:148] Top shape: 24 64 56 56 (4816896)
I0403 19:42:01.015283  9566 net.cpp:156] Memory required for data: 245662752
I0403 19:42:01.015298  9566 layer_factory.hpp:77] Creating layer conv2/3x3
I0403 19:42:01.015319  9566 net.cpp:91] Creating Layer conv2/3x3
I0403 19:42:01.015336  9566 net.cpp:425] conv2/3x3 <- conv2/3x3_reduce
I0403 19:42:01.015354  9566 net.cpp:399] conv2/3x3 -> conv2/3x3
I0403 19:42:01.017536  9566 net.cpp:141] Setting up conv2/3x3
I0403 19:42:01.017568  9566 net.cpp:148] Top shape: 24 192 56 56 (14450688)
I0403 19:42:01.017585  9566 net.cpp:156] Memory required for data: 303465504
I0403 19:42:01.017606  9566 layer_factory.hpp:77] Creating layer conv2/relu_3x3
I0403 19:42:01.017623  9566 net.cpp:91] Creating Layer conv2/relu_3x3
I0403 19:42:01.017640  9566 net.cpp:425] conv2/relu_3x3 <- conv2/3x3
I0403 19:42:01.017658  9566 net.cpp:386] conv2/relu_3x3 -> conv2/3x3 (in-place)
I0403 19:42:01.017824  9566 net.cpp:141] Setting up conv2/relu_3x3
I0403 19:42:01.017849  9566 net.cpp:148] Top shape: 24 192 56 56 (14450688)
I0403 19:42:01.017899  9566 net.cpp:156] Memory required for data: 361268256
I0403 19:42:01.017915  9566 layer_factory.hpp:77] Creating layer conv2/norm2
I0403 19:42:01.017936  9566 net.cpp:91] Creating Layer conv2/norm2
I0403 19:42:01.017953  9566 net.cpp:425] conv2/norm2 <- conv2/3x3
I0403 19:42:01.017971  9566 net.cpp:399] conv2/norm2 -> conv2/norm2
I0403 19:42:01.018260  9566 net.cpp:141] Setting up conv2/norm2
I0403 19:42:01.018299  9566 net.cpp:148] Top shape: 24 192 56 56 (14450688)
I0403 19:42:01.018316  9566 net.cpp:156] Memory required for data: 419071008
I0403 19:42:01.018329  9566 layer_factory.hpp:77] Creating layer pool2/3x3_s2
I0403 19:42:01.018349  9566 net.cpp:91] Creating Layer pool2/3x3_s2
I0403 19:42:01.018365  9566 net.cpp:425] pool2/3x3_s2 <- conv2/norm2
I0403 19:42:01.018383  9566 net.cpp:399] pool2/3x3_s2 -> pool2/3x3_s2
I0403 19:42:01.018435  9566 net.cpp:141] Setting up pool2/3x3_s2
I0403 19:42:01.018457  9566 net.cpp:148] Top shape: 24 192 28 28 (3612672)
I0403 19:42:01.018477  9566 net.cpp:156] Memory required for data: 433521696
I0403 19:42:01.018492  9566 layer_factory.hpp:77] Creating layer pool2/3x3_s2_pool2/3x3_s2_0_split
I0403 19:42:01.018512  9566 net.cpp:91] Creating Layer pool2/3x3_s2_pool2/3x3_s2_0_split
I0403 19:42:01.018528  9566 net.cpp:425] pool2/3x3_s2_pool2/3x3_s2_0_split <- pool2/3x3_s2
I0403 19:42:01.018545  9566 net.cpp:399] pool2/3x3_s2_pool2/3x3_s2_0_split -> pool2/3x3_s2_pool2/3x3_s2_0_split_0
I0403 19:42:01.018564  9566 net.cpp:399] pool2/3x3_s2_pool2/3x3_s2_0_split -> pool2/3x3_s2_pool2/3x3_s2_0_split_1
I0403 19:42:01.018595  9566 net.cpp:399] pool2/3x3_s2_pool2/3x3_s2_0_split -> pool2/3x3_s2_pool2/3x3_s2_0_split_2
I0403 19:42:01.018615  9566 net.cpp:399] pool2/3x3_s2_pool2/3x3_s2_0_split -> pool2/3x3_s2_pool2/3x3_s2_0_split_3
I0403 19:42:01.018682  9566 net.cpp:141] Setting up pool2/3x3_s2_pool2/3x3_s2_0_split
I0403 19:42:01.018704  9566 net.cpp:148] Top shape: 24 192 28 28 (3612672)
I0403 19:42:01.018720  9566 net.cpp:148] Top shape: 24 192 28 28 (3612672)
I0403 19:42:01.018734  9566 net.cpp:148] Top shape: 24 192 28 28 (3612672)
I0403 19:42:01.018750  9566 net.cpp:148] Top shape: 24 192 28 28 (3612672)
I0403 19:42:01.018764  9566 net.cpp:156] Memory required for data: 491324448
I0403 19:42:01.018776  9566 layer_factory.hpp:77] Creating layer inception_3a/1x1
I0403 19:42:01.018797  9566 net.cpp:91] Creating Layer inception_3a/1x1
I0403 19:42:01.018815  9566 net.cpp:425] inception_3a/1x1 <- pool2/3x3_s2_pool2/3x3_s2_0_split_0
I0403 19:42:01.018833  9566 net.cpp:399] inception_3a/1x1 -> inception_3a/1x1
I0403 19:42:01.020306  9566 net.cpp:141] Setting up inception_3a/1x1
I0403 19:42:01.020337  9566 net.cpp:148] Top shape: 24 64 28 28 (1204224)
I0403 19:42:01.020354  9566 net.cpp:156] Memory required for data: 496141344
I0403 19:42:01.020373  9566 layer_factory.hpp:77] Creating layer inception_3a/relu_1x1
I0403 19:42:01.020390  9566 net.cpp:91] Creating Layer inception_3a/relu_1x1
I0403 19:42:01.020407  9566 net.cpp:425] inception_3a/relu_1x1 <- inception_3a/1x1
I0403 19:42:01.020426  9566 net.cpp:386] inception_3a/relu_1x1 -> inception_3a/1x1 (in-place)
I0403 19:42:01.020608  9566 net.cpp:141] Setting up inception_3a/relu_1x1
I0403 19:42:01.020632  9566 net.cpp:148] Top shape: 24 64 28 28 (1204224)
I0403 19:42:01.020647  9566 net.cpp:156] Memory required for data: 500958240
I0403 19:42:01.020661  9566 layer_factory.hpp:77] Creating layer inception_3a/3x3_reduce
I0403 19:42:01.020683  9566 net.cpp:91] Creating Layer inception_3a/3x3_reduce
I0403 19:42:01.020699  9566 net.cpp:425] inception_3a/3x3_reduce <- pool2/3x3_s2_pool2/3x3_s2_0_split_1
I0403 19:42:01.020719  9566 net.cpp:399] inception_3a/3x3_reduce -> inception_3a/3x3_reduce
I0403 19:42:01.022310  9566 net.cpp:141] Setting up inception_3a/3x3_reduce
I0403 19:42:01.022341  9566 net.cpp:148] Top shape: 24 96 28 28 (1806336)
I0403 19:42:01.022358  9566 net.cpp:156] Memory required for data: 508183584
I0403 19:42:01.022379  9566 layer_factory.hpp:77] Creating layer inception_3a/relu_3x3_reduce
I0403 19:42:01.022416  9566 net.cpp:91] Creating Layer inception_3a/relu_3x3_reduce
I0403 19:42:01.022434  9566 net.cpp:425] inception_3a/relu_3x3_reduce <- inception_3a/3x3_reduce
I0403 19:42:01.022452  9566 net.cpp:386] inception_3a/relu_3x3_reduce -> inception_3a/3x3_reduce (in-place)
I0403 19:42:01.022649  9566 net.cpp:141] Setting up inception_3a/relu_3x3_reduce
I0403 19:42:01.022673  9566 net.cpp:148] Top shape: 24 96 28 28 (1806336)
I0403 19:42:01.022688  9566 net.cpp:156] Memory required for data: 515408928
I0403 19:42:01.022702  9566 layer_factory.hpp:77] Creating layer inception_3a/3x3
I0403 19:42:01.022725  9566 net.cpp:91] Creating Layer inception_3a/3x3
I0403 19:42:01.022742  9566 net.cpp:425] inception_3a/3x3 <- inception_3a/3x3_reduce
I0403 19:42:01.022760  9566 net.cpp:399] inception_3a/3x3 -> inception_3a/3x3
I0403 19:42:01.024291  9566 net.cpp:141] Setting up inception_3a/3x3
I0403 19:42:01.024318  9566 net.cpp:148] Top shape: 24 128 28 28 (2408448)
I0403 19:42:01.024333  9566 net.cpp:156] Memory required for data: 525042720
I0403 19:42:01.024350  9566 layer_factory.hpp:77] Creating layer inception_3a/relu_3x3
I0403 19:42:01.024369  9566 net.cpp:91] Creating Layer inception_3a/relu_3x3
I0403 19:42:01.024384  9566 net.cpp:425] inception_3a/relu_3x3 <- inception_3a/3x3
I0403 19:42:01.024405  9566 net.cpp:386] inception_3a/relu_3x3 -> inception_3a/3x3 (in-place)
I0403 19:42:01.024662  9566 net.cpp:141] Setting up inception_3a/relu_3x3
I0403 19:42:01.024688  9566 net.cpp:148] Top shape: 24 128 28 28 (2408448)
I0403 19:42:01.024703  9566 net.cpp:156] Memory required for data: 534676512
I0403 19:42:01.024718  9566 layer_factory.hpp:77] Creating layer inception_3a/5x5_reduce
I0403 19:42:01.024740  9566 net.cpp:91] Creating Layer inception_3a/5x5_reduce
I0403 19:42:01.024757  9566 net.cpp:425] inception_3a/5x5_reduce <- pool2/3x3_s2_pool2/3x3_s2_0_split_2
I0403 19:42:01.024778  9566 net.cpp:399] inception_3a/5x5_reduce -> inception_3a/5x5_reduce
I0403 19:42:01.025681  9566 net.cpp:141] Setting up inception_3a/5x5_reduce
I0403 19:42:01.025707  9566 net.cpp:148] Top shape: 24 16 28 28 (301056)
I0403 19:42:01.025722  9566 net.cpp:156] Memory required for data: 535880736
I0403 19:42:01.025739  9566 layer_factory.hpp:77] Creating layer inception_3a/relu_5x5_reduce
I0403 19:42:01.025758  9566 net.cpp:91] Creating Layer inception_3a/relu_5x5_reduce
I0403 19:42:01.025773  9566 net.cpp:425] inception_3a/relu_5x5_reduce <- inception_3a/5x5_reduce
I0403 19:42:01.025792  9566 net.cpp:386] inception_3a/relu_5x5_reduce -> inception_3a/5x5_reduce (in-place)
I0403 19:42:01.026067  9566 net.cpp:141] Setting up inception_3a/relu_5x5_reduce
I0403 19:42:01.026093  9566 net.cpp:148] Top shape: 24 16 28 28 (301056)
I0403 19:42:01.026106  9566 net.cpp:156] Memory required for data: 537084960
I0403 19:42:01.026120  9566 layer_factory.hpp:77] Creating layer inception_3a/5x5
I0403 19:42:01.026141  9566 net.cpp:91] Creating Layer inception_3a/5x5
I0403 19:42:01.026160  9566 net.cpp:425] inception_3a/5x5 <- inception_3a/5x5_reduce
I0403 19:42:01.026180  9566 net.cpp:399] inception_3a/5x5 -> inception_3a/5x5
I0403 19:42:01.027158  9566 net.cpp:141] Setting up inception_3a/5x5
I0403 19:42:01.027187  9566 net.cpp:148] Top shape: 24 32 28 28 (602112)
I0403 19:42:01.027202  9566 net.cpp:156] Memory required for data: 539493408
I0403 19:42:01.027220  9566 layer_factory.hpp:77] Creating layer inception_3a/relu_5x5
I0403 19:42:01.027237  9566 net.cpp:91] Creating Layer inception_3a/relu_5x5
I0403 19:42:01.027253  9566 net.cpp:425] inception_3a/relu_5x5 <- inception_3a/5x5
I0403 19:42:01.027273  9566 net.cpp:386] inception_3a/relu_5x5 -> inception_3a/5x5 (in-place)
I0403 19:42:01.027439  9566 net.cpp:141] Setting up inception_3a/relu_5x5
I0403 19:42:01.027467  9566 net.cpp:148] Top shape: 24 32 28 28 (602112)
I0403 19:42:01.027483  9566 net.cpp:156] Memory required for data: 541901856
I0403 19:42:01.027498  9566 layer_factory.hpp:77] Creating layer inception_3a/pool
I0403 19:42:01.027514  9566 net.cpp:91] Creating Layer inception_3a/pool
I0403 19:42:01.027534  9566 net.cpp:425] inception_3a/pool <- pool2/3x3_s2_pool2/3x3_s2_0_split_3
I0403 19:42:01.027565  9566 net.cpp:399] inception_3a/pool -> inception_3a/pool
I0403 19:42:01.027621  9566 net.cpp:141] Setting up inception_3a/pool
I0403 19:42:01.027643  9566 net.cpp:148] Top shape: 24 192 28 28 (3612672)
I0403 19:42:01.027657  9566 net.cpp:156] Memory required for data: 556352544
I0403 19:42:01.027672  9566 layer_factory.hpp:77] Creating layer inception_3a/pool_proj
I0403 19:42:01.027693  9566 net.cpp:91] Creating Layer inception_3a/pool_proj
I0403 19:42:01.027709  9566 net.cpp:425] inception_3a/pool_proj <- inception_3a/pool
I0403 19:42:01.027730  9566 net.cpp:399] inception_3a/pool_proj -> inception_3a/pool_proj
I0403 19:42:01.028637  9566 net.cpp:141] Setting up inception_3a/pool_proj
I0403 19:42:01.028664  9566 net.cpp:148] Top shape: 24 32 28 28 (602112)
I0403 19:42:01.028681  9566 net.cpp:156] Memory required for data: 558760992
I0403 19:42:01.028703  9566 layer_factory.hpp:77] Creating layer inception_3a/relu_pool_proj
I0403 19:42:01.028723  9566 net.cpp:91] Creating Layer inception_3a/relu_pool_proj
I0403 19:42:01.028738  9566 net.cpp:425] inception_3a/relu_pool_proj <- inception_3a/pool_proj
I0403 19:42:01.028758  9566 net.cpp:386] inception_3a/relu_pool_proj -> inception_3a/pool_proj (in-place)
I0403 19:42:01.029016  9566 net.cpp:141] Setting up inception_3a/relu_pool_proj
I0403 19:42:01.029042  9566 net.cpp:148] Top shape: 24 32 28 28 (602112)
I0403 19:42:01.029055  9566 net.cpp:156] Memory required for data: 561169440
I0403 19:42:01.029069  9566 layer_factory.hpp:77] Creating layer inception_3a/output
I0403 19:42:01.029088  9566 net.cpp:91] Creating Layer inception_3a/output
I0403 19:42:01.029103  9566 net.cpp:425] inception_3a/output <- inception_3a/1x1
I0403 19:42:01.029119  9566 net.cpp:425] inception_3a/output <- inception_3a/3x3
I0403 19:42:01.029134  9566 net.cpp:425] inception_3a/output <- inception_3a/5x5
I0403 19:42:01.029148  9566 net.cpp:425] inception_3a/output <- inception_3a/pool_proj
I0403 19:42:01.029167  9566 net.cpp:399] inception_3a/output -> inception_3a/output
I0403 19:42:01.029213  9566 net.cpp:141] Setting up inception_3a/output
I0403 19:42:01.029239  9566 net.cpp:148] Top shape: 24 256 28 28 (4816896)
I0403 19:42:01.029254  9566 net.cpp:156] Memory required for data: 580437024
I0403 19:42:01.029268  9566 layer_factory.hpp:77] Creating layer inception_3a/output_inception_3a/output_0_split
I0403 19:42:01.029285  9566 net.cpp:91] Creating Layer inception_3a/output_inception_3a/output_0_split
I0403 19:42:01.029300  9566 net.cpp:425] inception_3a/output_inception_3a/output_0_split <- inception_3a/output
I0403 19:42:01.029317  9566 net.cpp:399] inception_3a/output_inception_3a/output_0_split -> inception_3a/output_inception_3a/output_0_split_0
I0403 19:42:01.029336  9566 net.cpp:399] inception_3a/output_inception_3a/output_0_split -> inception_3a/output_inception_3a/output_0_split_1
I0403 19:42:01.029361  9566 net.cpp:399] inception_3a/output_inception_3a/output_0_split -> inception_3a/output_inception_3a/output_0_split_2
I0403 19:42:01.029382  9566 net.cpp:399] inception_3a/output_inception_3a/output_0_split -> inception_3a/output_inception_3a/output_0_split_3
I0403 19:42:01.029453  9566 net.cpp:141] Setting up inception_3a/output_inception_3a/output_0_split
I0403 19:42:01.029480  9566 net.cpp:148] Top shape: 24 256 28 28 (4816896)
I0403 19:42:01.029497  9566 net.cpp:148] Top shape: 24 256 28 28 (4816896)
I0403 19:42:01.029513  9566 net.cpp:148] Top shape: 24 256 28 28 (4816896)
I0403 19:42:01.029528  9566 net.cpp:148] Top shape: 24 256 28 28 (4816896)
I0403 19:42:01.029541  9566 net.cpp:156] Memory required for data: 657507360
I0403 19:42:01.029556  9566 layer_factory.hpp:77] Creating layer inception_3b/1x1
I0403 19:42:01.029577  9566 net.cpp:91] Creating Layer inception_3b/1x1
I0403 19:42:01.029595  9566 net.cpp:425] inception_3b/1x1 <- inception_3a/output_inception_3a/output_0_split_0
I0403 19:42:01.029613  9566 net.cpp:399] inception_3b/1x1 -> inception_3b/1x1
I0403 19:42:01.030704  9566 net.cpp:141] Setting up inception_3b/1x1
I0403 19:42:01.030740  9566 net.cpp:148] Top shape: 24 128 28 28 (2408448)
I0403 19:42:01.030756  9566 net.cpp:156] Memory required for data: 667141152
I0403 19:42:01.030777  9566 layer_factory.hpp:77] Creating layer inception_3b/relu_1x1
I0403 19:42:01.030796  9566 net.cpp:91] Creating Layer inception_3b/relu_1x1
I0403 19:42:01.030810  9566 net.cpp:425] inception_3b/relu_1x1 <- inception_3b/1x1
I0403 19:42:01.030827  9566 net.cpp:386] inception_3b/relu_1x1 -> inception_3b/1x1 (in-place)
I0403 19:42:01.030994  9566 net.cpp:141] Setting up inception_3b/relu_1x1
I0403 19:42:01.031019  9566 net.cpp:148] Top shape: 24 128 28 28 (2408448)
I0403 19:42:01.031033  9566 net.cpp:156] Memory required for data: 676774944
I0403 19:42:01.031049  9566 layer_factory.hpp:77] Creating layer inception_3b/3x3_reduce
I0403 19:42:01.031069  9566 net.cpp:91] Creating Layer inception_3b/3x3_reduce
I0403 19:42:01.031086  9566 net.cpp:425] inception_3b/3x3_reduce <- inception_3a/output_inception_3a/output_0_split_1
I0403 19:42:01.031106  9566 net.cpp:399] inception_3b/3x3_reduce -> inception_3b/3x3_reduce
I0403 19:42:01.032171  9566 net.cpp:141] Setting up inception_3b/3x3_reduce
I0403 19:42:01.032203  9566 net.cpp:148] Top shape: 24 128 28 28 (2408448)
I0403 19:42:01.032220  9566 net.cpp:156] Memory required for data: 686408736
I0403 19:42:01.032238  9566 layer_factory.hpp:77] Creating layer inception_3b/relu_3x3_reduce
I0403 19:42:01.032254  9566 net.cpp:91] Creating Layer inception_3b/relu_3x3_reduce
I0403 19:42:01.032270  9566 net.cpp:425] inception_3b/relu_3x3_reduce <- inception_3b/3x3_reduce
I0403 19:42:01.032285  9566 net.cpp:386] inception_3b/relu_3x3_reduce -> inception_3b/3x3_reduce (in-place)
I0403 19:42:01.032447  9566 net.cpp:141] Setting up inception_3b/relu_3x3_reduce
I0403 19:42:01.032482  9566 net.cpp:148] Top shape: 24 128 28 28 (2408448)
I0403 19:42:01.032498  9566 net.cpp:156] Memory required for data: 696042528
I0403 19:42:01.032513  9566 layer_factory.hpp:77] Creating layer inception_3b/3x3
I0403 19:42:01.032537  9566 net.cpp:91] Creating Layer inception_3b/3x3
I0403 19:42:01.032554  9566 net.cpp:425] inception_3b/3x3 <- inception_3b/3x3_reduce
I0403 19:42:01.032574  9566 net.cpp:399] inception_3b/3x3 -> inception_3b/3x3
I0403 19:42:01.035341  9566 net.cpp:141] Setting up inception_3b/3x3
I0403 19:42:01.035369  9566 net.cpp:148] Top shape: 24 192 28 28 (3612672)
I0403 19:42:01.035384  9566 net.cpp:156] Memory required for data: 710493216
I0403 19:42:01.035401  9566 layer_factory.hpp:77] Creating layer inception_3b/relu_3x3
I0403 19:42:01.035419  9566 net.cpp:91] Creating Layer inception_3b/relu_3x3
I0403 19:42:01.035437  9566 net.cpp:425] inception_3b/relu_3x3 <- inception_3b/3x3
I0403 19:42:01.035456  9566 net.cpp:386] inception_3b/relu_3x3 -> inception_3b/3x3 (in-place)
I0403 19:42:01.035723  9566 net.cpp:141] Setting up inception_3b/relu_3x3
I0403 19:42:01.035749  9566 net.cpp:148] Top shape: 24 192 28 28 (3612672)
I0403 19:42:01.035764  9566 net.cpp:156] Memory required for data: 724943904
I0403 19:42:01.035779  9566 layer_factory.hpp:77] Creating layer inception_3b/5x5_reduce
I0403 19:42:01.035800  9566 net.cpp:91] Creating Layer inception_3b/5x5_reduce
I0403 19:42:01.035817  9566 net.cpp:425] inception_3b/5x5_reduce <- inception_3a/output_inception_3a/output_0_split_2
I0403 19:42:01.035840  9566 net.cpp:399] inception_3b/5x5_reduce -> inception_3b/5x5_reduce
I0403 19:42:01.036793  9566 net.cpp:141] Setting up inception_3b/5x5_reduce
I0403 19:42:01.036820  9566 net.cpp:148] Top shape: 24 32 28 28 (602112)
I0403 19:42:01.036836  9566 net.cpp:156] Memory required for data: 727352352
I0403 19:42:01.036854  9566 layer_factory.hpp:77] Creating layer inception_3b/relu_5x5_reduce
I0403 19:42:01.036871  9566 net.cpp:91] Creating Layer inception_3b/relu_5x5_reduce
I0403 19:42:01.036886  9566 net.cpp:425] inception_3b/relu_5x5_reduce <- inception_3b/5x5_reduce
I0403 19:42:01.036905  9566 net.cpp:386] inception_3b/relu_5x5_reduce -> inception_3b/5x5_reduce (in-place)
I0403 19:42:01.037067  9566 net.cpp:141] Setting up inception_3b/relu_5x5_reduce
I0403 19:42:01.037102  9566 net.cpp:148] Top shape: 24 32 28 28 (602112)
I0403 19:42:01.037118  9566 net.cpp:156] Memory required for data: 729760800
I0403 19:42:01.037133  9566 layer_factory.hpp:77] Creating layer inception_3b/5x5
I0403 19:42:01.037155  9566 net.cpp:91] Creating Layer inception_3b/5x5
I0403 19:42:01.037183  9566 net.cpp:425] inception_3b/5x5 <- inception_3b/5x5_reduce
I0403 19:42:01.037202  9566 net.cpp:399] inception_3b/5x5 -> inception_3b/5x5
I0403 19:42:01.039083  9566 net.cpp:141] Setting up inception_3b/5x5
I0403 19:42:01.039113  9566 net.cpp:148] Top shape: 24 96 28 28 (1806336)
I0403 19:42:01.039129  9566 net.cpp:156] Memory required for data: 736986144
I0403 19:42:01.039147  9566 layer_factory.hpp:77] Creating layer inception_3b/relu_5x5
I0403 19:42:01.039165  9566 net.cpp:91] Creating Layer inception_3b/relu_5x5
I0403 19:42:01.039180  9566 net.cpp:425] inception_3b/relu_5x5 <- inception_3b/5x5
I0403 19:42:01.039196  9566 net.cpp:386] inception_3b/relu_5x5 -> inception_3b/5x5 (in-place)
I0403 19:42:01.039374  9566 net.cpp:141] Setting up inception_3b/relu_5x5
I0403 19:42:01.039398  9566 net.cpp:148] Top shape: 24 96 28 28 (1806336)
I0403 19:42:01.039413  9566 net.cpp:156] Memory required for data: 744211488
I0403 19:42:01.039427  9566 layer_factory.hpp:77] Creating layer inception_3b/pool
I0403 19:42:01.039445  9566 net.cpp:91] Creating Layer inception_3b/pool
I0403 19:42:01.039464  9566 net.cpp:425] inception_3b/pool <- inception_3a/output_inception_3a/output_0_split_3
I0403 19:42:01.039484  9566 net.cpp:399] inception_3b/pool -> inception_3b/pool
I0403 19:42:01.039535  9566 net.cpp:141] Setting up inception_3b/pool
I0403 19:42:01.039559  9566 net.cpp:148] Top shape: 24 256 28 28 (4816896)
I0403 19:42:01.039574  9566 net.cpp:156] Memory required for data: 763479072
I0403 19:42:01.039588  9566 layer_factory.hpp:77] Creating layer inception_3b/pool_proj
I0403 19:42:01.039609  9566 net.cpp:91] Creating Layer inception_3b/pool_proj
I0403 19:42:01.039625  9566 net.cpp:425] inception_3b/pool_proj <- inception_3b/pool
I0403 19:42:01.039644  9566 net.cpp:399] inception_3b/pool_proj -> inception_3b/pool_proj
I0403 19:42:01.040627  9566 net.cpp:141] Setting up inception_3b/pool_proj
I0403 19:42:01.040654  9566 net.cpp:148] Top shape: 24 64 28 28 (1204224)
I0403 19:42:01.040668  9566 net.cpp:156] Memory required for data: 768295968
I0403 19:42:01.040688  9566 layer_factory.hpp:77] Creating layer inception_3b/relu_pool_proj
I0403 19:42:01.040706  9566 net.cpp:91] Creating Layer inception_3b/relu_pool_proj
I0403 19:42:01.040722  9566 net.cpp:425] inception_3b/relu_pool_proj <- inception_3b/pool_proj
I0403 19:42:01.040740  9566 net.cpp:386] inception_3b/relu_pool_proj -> inception_3b/pool_proj (in-place)
I0403 19:42:01.041105  9566 net.cpp:141] Setting up inception_3b/relu_pool_proj
I0403 19:42:01.041131  9566 net.cpp:148] Top shape: 24 64 28 28 (1204224)
I0403 19:42:01.041144  9566 net.cpp:156] Memory required for data: 773112864
I0403 19:42:01.041159  9566 layer_factory.hpp:77] Creating layer inception_3b/output
I0403 19:42:01.041177  9566 net.cpp:91] Creating Layer inception_3b/output
I0403 19:42:01.041191  9566 net.cpp:425] inception_3b/output <- inception_3b/1x1
I0403 19:42:01.041208  9566 net.cpp:425] inception_3b/output <- inception_3b/3x3
I0403 19:42:01.041224  9566 net.cpp:425] inception_3b/output <- inception_3b/5x5
I0403 19:42:01.041239  9566 net.cpp:425] inception_3b/output <- inception_3b/pool_proj
I0403 19:42:01.041259  9566 net.cpp:399] inception_3b/output -> inception_3b/output
I0403 19:42:01.041298  9566 net.cpp:141] Setting up inception_3b/output
I0403 19:42:01.041326  9566 net.cpp:148] Top shape: 24 480 28 28 (9031680)
I0403 19:42:01.041342  9566 net.cpp:156] Memory required for data: 809239584
I0403 19:42:01.041358  9566 layer_factory.hpp:77] Creating layer pool3/3x3_s2
I0403 19:42:01.041375  9566 net.cpp:91] Creating Layer pool3/3x3_s2
I0403 19:42:01.041391  9566 net.cpp:425] pool3/3x3_s2 <- inception_3b/output
I0403 19:42:01.041410  9566 net.cpp:399] pool3/3x3_s2 -> pool3/3x3_s2
I0403 19:42:01.041482  9566 net.cpp:141] Setting up pool3/3x3_s2
I0403 19:42:01.041507  9566 net.cpp:148] Top shape: 24 480 14 14 (2257920)
I0403 19:42:01.041520  9566 net.cpp:156] Memory required for data: 818271264
I0403 19:42:01.041533  9566 layer_factory.hpp:77] Creating layer pool3/3x3_s2_pool3/3x3_s2_0_split
I0403 19:42:01.041553  9566 net.cpp:91] Creating Layer pool3/3x3_s2_pool3/3x3_s2_0_split
I0403 19:42:01.041568  9566 net.cpp:425] pool3/3x3_s2_pool3/3x3_s2_0_split <- pool3/3x3_s2
I0403 19:42:01.041585  9566 net.cpp:399] pool3/3x3_s2_pool3/3x3_s2_0_split -> pool3/3x3_s2_pool3/3x3_s2_0_split_0
I0403 19:42:01.041604  9566 net.cpp:399] pool3/3x3_s2_pool3/3x3_s2_0_split -> pool3/3x3_s2_pool3/3x3_s2_0_split_1
I0403 19:42:01.041625  9566 net.cpp:399] pool3/3x3_s2_pool3/3x3_s2_0_split -> pool3/3x3_s2_pool3/3x3_s2_0_split_2
I0403 19:42:01.041643  9566 net.cpp:399] pool3/3x3_s2_pool3/3x3_s2_0_split -> pool3/3x3_s2_pool3/3x3_s2_0_split_3
I0403 19:42:01.041714  9566 net.cpp:141] Setting up pool3/3x3_s2_pool3/3x3_s2_0_split
I0403 19:42:01.041736  9566 net.cpp:148] Top shape: 24 480 14 14 (2257920)
I0403 19:42:01.041752  9566 net.cpp:148] Top shape: 24 480 14 14 (2257920)
I0403 19:42:01.041769  9566 net.cpp:148] Top shape: 24 480 14 14 (2257920)
I0403 19:42:01.041784  9566 net.cpp:148] Top shape: 24 480 14 14 (2257920)
I0403 19:42:01.041796  9566 net.cpp:156] Memory required for data: 854397984
I0403 19:42:01.041810  9566 layer_factory.hpp:77] Creating layer inception_4a/1x1
I0403 19:42:01.041832  9566 net.cpp:91] Creating Layer inception_4a/1x1
I0403 19:42:01.041848  9566 net.cpp:425] inception_4a/1x1 <- pool3/3x3_s2_pool3/3x3_s2_0_split_0
I0403 19:42:01.041868  9566 net.cpp:399] inception_4a/1x1 -> inception_4a/1x1
I0403 19:42:01.043385  9566 net.cpp:141] Setting up inception_4a/1x1
I0403 19:42:01.043412  9566 net.cpp:148] Top shape: 24 192 14 14 (903168)
I0403 19:42:01.043428  9566 net.cpp:156] Memory required for data: 858010656
I0403 19:42:01.043448  9566 layer_factory.hpp:77] Creating layer inception_4a/relu_1x1
I0403 19:42:01.043484  9566 net.cpp:91] Creating Layer inception_4a/relu_1x1
I0403 19:42:01.043501  9566 net.cpp:425] inception_4a/relu_1x1 <- inception_4a/1x1
I0403 19:42:01.043519  9566 net.cpp:386] inception_4a/relu_1x1 -> inception_4a/1x1 (in-place)
I0403 19:42:01.043683  9566 net.cpp:141] Setting up inception_4a/relu_1x1
I0403 19:42:01.043709  9566 net.cpp:148] Top shape: 24 192 14 14 (903168)
I0403 19:42:01.043725  9566 net.cpp:156] Memory required for data: 861623328
I0403 19:42:01.043740  9566 layer_factory.hpp:77] Creating layer inception_4a/3x3_reduce
I0403 19:42:01.043761  9566 net.cpp:91] Creating Layer inception_4a/3x3_reduce
I0403 19:42:01.043778  9566 net.cpp:425] inception_4a/3x3_reduce <- pool3/3x3_s2_pool3/3x3_s2_0_split_1
I0403 19:42:01.043797  9566 net.cpp:399] inception_4a/3x3_reduce -> inception_4a/3x3_reduce
I0403 19:42:01.044972  9566 net.cpp:141] Setting up inception_4a/3x3_reduce
I0403 19:42:01.044999  9566 net.cpp:148] Top shape: 24 96 14 14 (451584)
I0403 19:42:01.045013  9566 net.cpp:156] Memory required for data: 863429664
I0403 19:42:01.045037  9566 layer_factory.hpp:77] Creating layer inception_4a/relu_3x3_reduce
I0403 19:42:01.045058  9566 net.cpp:91] Creating Layer inception_4a/relu_3x3_reduce
I0403 19:42:01.045074  9566 net.cpp:425] inception_4a/relu_3x3_reduce <- inception_4a/3x3_reduce
I0403 19:42:01.045091  9566 net.cpp:386] inception_4a/relu_3x3_reduce -> inception_4a/3x3_reduce (in-place)
I0403 19:42:01.045258  9566 net.cpp:141] Setting up inception_4a/relu_3x3_reduce
I0403 19:42:01.045282  9566 net.cpp:148] Top shape: 24 96 14 14 (451584)
I0403 19:42:01.045296  9566 net.cpp:156] Memory required for data: 865236000
I0403 19:42:01.045310  9566 layer_factory.hpp:77] Creating layer inception_4a/3x3
I0403 19:42:01.045332  9566 net.cpp:91] Creating Layer inception_4a/3x3
I0403 19:42:01.045349  9566 net.cpp:425] inception_4a/3x3 <- inception_4a/3x3_reduce
I0403 19:42:01.045367  9566 net.cpp:399] inception_4a/3x3 -> inception_4a/3x3
I0403 19:42:01.047996  9566 net.cpp:141] Setting up inception_4a/3x3
I0403 19:42:01.048025  9566 net.cpp:148] Top shape: 24 208 14 14 (978432)
I0403 19:42:01.048043  9566 net.cpp:156] Memory required for data: 869149728
I0403 19:42:01.048060  9566 layer_factory.hpp:77] Creating layer inception_4a/relu_3x3
I0403 19:42:01.048079  9566 net.cpp:91] Creating Layer inception_4a/relu_3x3
I0403 19:42:01.048094  9566 net.cpp:425] inception_4a/relu_3x3 <- inception_4a/3x3
I0403 19:42:01.048111  9566 net.cpp:386] inception_4a/relu_3x3 -> inception_4a/3x3 (in-place)
I0403 19:42:01.048374  9566 net.cpp:141] Setting up inception_4a/relu_3x3
I0403 19:42:01.048401  9566 net.cpp:148] Top shape: 24 208 14 14 (978432)
I0403 19:42:01.048418  9566 net.cpp:156] Memory required for data: 873063456
I0403 19:42:01.048432  9566 layer_factory.hpp:77] Creating layer inception_4a/5x5_reduce
I0403 19:42:01.048452  9566 net.cpp:91] Creating Layer inception_4a/5x5_reduce
I0403 19:42:01.048475  9566 net.cpp:425] inception_4a/5x5_reduce <- pool3/3x3_s2_pool3/3x3_s2_0_split_2
I0403 19:42:01.048493  9566 net.cpp:399] inception_4a/5x5_reduce -> inception_4a/5x5_reduce
I0403 19:42:01.049448  9566 net.cpp:141] Setting up inception_4a/5x5_reduce
I0403 19:42:01.049480  9566 net.cpp:148] Top shape: 24 16 14 14 (75264)
I0403 19:42:01.049497  9566 net.cpp:156] Memory required for data: 873364512
I0403 19:42:01.049515  9566 layer_factory.hpp:77] Creating layer inception_4a/relu_5x5_reduce
I0403 19:42:01.049535  9566 net.cpp:91] Creating Layer inception_4a/relu_5x5_reduce
I0403 19:42:01.049551  9566 net.cpp:425] inception_4a/relu_5x5_reduce <- inception_4a/5x5_reduce
I0403 19:42:01.049571  9566 net.cpp:386] inception_4a/relu_5x5_reduce -> inception_4a/5x5_reduce (in-place)
I0403 19:42:01.049736  9566 net.cpp:141] Setting up inception_4a/relu_5x5_reduce
I0403 19:42:01.049760  9566 net.cpp:148] Top shape: 24 16 14 14 (75264)
I0403 19:42:01.049775  9566 net.cpp:156] Memory required for data: 873665568
I0403 19:42:01.049790  9566 layer_factory.hpp:77] Creating layer inception_4a/5x5
I0403 19:42:01.049813  9566 net.cpp:91] Creating Layer inception_4a/5x5
I0403 19:42:01.049829  9566 net.cpp:425] inception_4a/5x5 <- inception_4a/5x5_reduce
I0403 19:42:01.049849  9566 net.cpp:399] inception_4a/5x5 -> inception_4a/5x5
I0403 19:42:01.050900  9566 net.cpp:141] Setting up inception_4a/5x5
I0403 19:42:01.050927  9566 net.cpp:148] Top shape: 24 48 14 14 (225792)
I0403 19:42:01.050941  9566 net.cpp:156] Memory required for data: 874568736
I0403 19:42:01.050959  9566 layer_factory.hpp:77] Creating layer inception_4a/relu_5x5
I0403 19:42:01.050979  9566 net.cpp:91] Creating Layer inception_4a/relu_5x5
I0403 19:42:01.050995  9566 net.cpp:425] inception_4a/relu_5x5 <- inception_4a/5x5
I0403 19:42:01.051012  9566 net.cpp:386] inception_4a/relu_5x5 -> inception_4a/5x5 (in-place)
I0403 19:42:01.051177  9566 net.cpp:141] Setting up inception_4a/relu_5x5
I0403 19:42:01.051203  9566 net.cpp:148] Top shape: 24 48 14 14 (225792)
I0403 19:42:01.051219  9566 net.cpp:156] Memory required for data: 875471904
I0403 19:42:01.051234  9566 layer_factory.hpp:77] Creating layer inception_4a/pool
I0403 19:42:01.051250  9566 net.cpp:91] Creating Layer inception_4a/pool
I0403 19:42:01.051265  9566 net.cpp:425] inception_4a/pool <- pool3/3x3_s2_pool3/3x3_s2_0_split_3
I0403 19:42:01.051281  9566 net.cpp:399] inception_4a/pool -> inception_4a/pool
I0403 19:42:01.051339  9566 net.cpp:141] Setting up inception_4a/pool
I0403 19:42:01.051363  9566 net.cpp:148] Top shape: 24 480 14 14 (2257920)
I0403 19:42:01.051378  9566 net.cpp:156] Memory required for data: 884503584
I0403 19:42:01.051391  9566 layer_factory.hpp:77] Creating layer inception_4a/pool_proj
I0403 19:42:01.051424  9566 net.cpp:91] Creating Layer inception_4a/pool_proj
I0403 19:42:01.051440  9566 net.cpp:425] inception_4a/pool_proj <- inception_4a/pool
I0403 19:42:01.051465  9566 net.cpp:399] inception_4a/pool_proj -> inception_4a/pool_proj
I0403 19:42:01.052585  9566 net.cpp:141] Setting up inception_4a/pool_proj
I0403 19:42:01.052613  9566 net.cpp:148] Top shape: 24 64 14 14 (301056)
I0403 19:42:01.052642  9566 net.cpp:156] Memory required for data: 885707808
I0403 19:42:01.052661  9566 layer_factory.hpp:77] Creating layer inception_4a/relu_pool_proj
I0403 19:42:01.052682  9566 net.cpp:91] Creating Layer inception_4a/relu_pool_proj
I0403 19:42:01.052698  9566 net.cpp:425] inception_4a/relu_pool_proj <- inception_4a/pool_proj
I0403 19:42:01.052716  9566 net.cpp:386] inception_4a/relu_pool_proj -> inception_4a/pool_proj (in-place)
I0403 19:42:01.052981  9566 net.cpp:141] Setting up inception_4a/relu_pool_proj
I0403 19:42:01.053006  9566 net.cpp:148] Top shape: 24 64 14 14 (301056)
I0403 19:42:01.053021  9566 net.cpp:156] Memory required for data: 886912032
I0403 19:42:01.053037  9566 layer_factory.hpp:77] Creating layer inception_4a/output
I0403 19:42:01.053055  9566 net.cpp:91] Creating Layer inception_4a/output
I0403 19:42:01.053069  9566 net.cpp:425] inception_4a/output <- inception_4a/1x1
I0403 19:42:01.053087  9566 net.cpp:425] inception_4a/output <- inception_4a/3x3
I0403 19:42:01.053104  9566 net.cpp:425] inception_4a/output <- inception_4a/5x5
I0403 19:42:01.053128  9566 net.cpp:425] inception_4a/output <- inception_4a/pool_proj
I0403 19:42:01.053146  9566 net.cpp:399] inception_4a/output -> inception_4a/output
I0403 19:42:01.053189  9566 net.cpp:141] Setting up inception_4a/output
I0403 19:42:01.053211  9566 net.cpp:148] Top shape: 24 512 14 14 (2408448)
I0403 19:42:01.053237  9566 net.cpp:156] Memory required for data: 896545824
I0403 19:42:01.053251  9566 layer_factory.hpp:77] Creating layer inception_4a/output_inception_4a/output_0_split
I0403 19:42:01.053269  9566 net.cpp:91] Creating Layer inception_4a/output_inception_4a/output_0_split
I0403 19:42:01.053285  9566 net.cpp:425] inception_4a/output_inception_4a/output_0_split <- inception_4a/output
I0403 19:42:01.053305  9566 net.cpp:399] inception_4a/output_inception_4a/output_0_split -> inception_4a/output_inception_4a/output_0_split_0
I0403 19:42:01.053325  9566 net.cpp:399] inception_4a/output_inception_4a/output_0_split -> inception_4a/output_inception_4a/output_0_split_1
I0403 19:42:01.053346  9566 net.cpp:399] inception_4a/output_inception_4a/output_0_split -> inception_4a/output_inception_4a/output_0_split_2
I0403 19:42:01.053366  9566 net.cpp:399] inception_4a/output_inception_4a/output_0_split -> inception_4a/output_inception_4a/output_0_split_3
I0403 19:42:01.053386  9566 net.cpp:399] inception_4a/output_inception_4a/output_0_split -> inception_4a/output_inception_4a/output_0_split_4
I0403 19:42:01.053481  9566 net.cpp:141] Setting up inception_4a/output_inception_4a/output_0_split
I0403 19:42:01.053517  9566 net.cpp:148] Top shape: 24 512 14 14 (2408448)
I0403 19:42:01.053534  9566 net.cpp:148] Top shape: 24 512 14 14 (2408448)
I0403 19:42:01.053549  9566 net.cpp:148] Top shape: 24 512 14 14 (2408448)
I0403 19:42:01.053563  9566 net.cpp:148] Top shape: 24 512 14 14 (2408448)
I0403 19:42:01.053578  9566 net.cpp:148] Top shape: 24 512 14 14 (2408448)
I0403 19:42:01.053591  9566 net.cpp:156] Memory required for data: 944714784
I0403 19:42:01.053606  9566 layer_factory.hpp:77] Creating layer loss1/ave_pool
I0403 19:42:01.053623  9566 net.cpp:91] Creating Layer loss1/ave_pool
I0403 19:42:01.053639  9566 net.cpp:425] loss1/ave_pool <- inception_4a/output_inception_4a/output_0_split_0
I0403 19:42:01.053658  9566 net.cpp:399] loss1/ave_pool -> loss1/ave_pool
I0403 19:42:01.053853  9566 net.cpp:141] Setting up loss1/ave_pool
I0403 19:42:01.053879  9566 net.cpp:148] Top shape: 24 512 4 4 (196608)
I0403 19:42:01.053894  9566 net.cpp:156] Memory required for data: 945501216
I0403 19:42:01.053910  9566 layer_factory.hpp:77] Creating layer loss1/conv
I0403 19:42:01.053930  9566 net.cpp:91] Creating Layer loss1/conv
I0403 19:42:01.053947  9566 net.cpp:425] loss1/conv <- loss1/ave_pool
I0403 19:42:01.053967  9566 net.cpp:399] loss1/conv -> loss1/conv
I0403 19:42:01.055356  9566 net.cpp:141] Setting up loss1/conv
I0403 19:42:01.055387  9566 net.cpp:148] Top shape: 24 128 4 4 (49152)
I0403 19:42:01.055402  9566 net.cpp:156] Memory required for data: 945697824
I0403 19:42:01.055435  9566 layer_factory.hpp:77] Creating layer loss1/relu_conv
I0403 19:42:01.055454  9566 net.cpp:91] Creating Layer loss1/relu_conv
I0403 19:42:01.055474  9566 net.cpp:425] loss1/relu_conv <- loss1/conv
I0403 19:42:01.055492  9566 net.cpp:386] loss1/relu_conv -> loss1/conv (in-place)
I0403 19:42:01.055765  9566 net.cpp:141] Setting up loss1/relu_conv
I0403 19:42:01.055794  9566 net.cpp:148] Top shape: 24 128 4 4 (49152)
I0403 19:42:01.055811  9566 net.cpp:156] Memory required for data: 945894432
I0403 19:42:01.055827  9566 layer_factory.hpp:77] Creating layer loss1/fc
I0403 19:42:01.055851  9566 net.cpp:91] Creating Layer loss1/fc
I0403 19:42:01.055869  9566 net.cpp:425] loss1/fc <- loss1/conv
I0403 19:42:01.055891  9566 net.cpp:399] loss1/fc -> loss1/fc
I0403 19:42:01.072926  9566 net.cpp:141] Setting up loss1/fc
I0403 19:42:01.072958  9566 net.cpp:148] Top shape: 24 1024 (24576)
I0403 19:42:01.072974  9566 net.cpp:156] Memory required for data: 945992736
I0403 19:42:01.072993  9566 layer_factory.hpp:77] Creating layer loss1/relu_fc
I0403 19:42:01.073010  9566 net.cpp:91] Creating Layer loss1/relu_fc
I0403 19:42:01.073027  9566 net.cpp:425] loss1/relu_fc <- loss1/fc
I0403 19:42:01.073045  9566 net.cpp:386] loss1/relu_fc -> loss1/fc (in-place)
I0403 19:42:01.073223  9566 net.cpp:141] Setting up loss1/relu_fc
I0403 19:42:01.073248  9566 net.cpp:148] Top shape: 24 1024 (24576)
I0403 19:42:01.073263  9566 net.cpp:156] Memory required for data: 946091040
I0403 19:42:01.073278  9566 layer_factory.hpp:77] Creating layer loss1/drop_fc
I0403 19:42:01.073302  9566 net.cpp:91] Creating Layer loss1/drop_fc
I0403 19:42:01.073320  9566 net.cpp:425] loss1/drop_fc <- loss1/fc
I0403 19:42:01.073338  9566 net.cpp:386] loss1/drop_fc -> loss1/fc (in-place)
I0403 19:42:01.073387  9566 net.cpp:141] Setting up loss1/drop_fc
I0403 19:42:01.073410  9566 net.cpp:148] Top shape: 24 1024 (24576)
I0403 19:42:01.073426  9566 net.cpp:156] Memory required for data: 946189344
I0403 19:42:01.073439  9566 layer_factory.hpp:77] Creating layer loss1/classifier_plantvillage
I0403 19:42:01.073463  9566 net.cpp:91] Creating Layer loss1/classifier_plantvillage
I0403 19:42:01.073482  9566 net.cpp:425] loss1/classifier_plantvillage <- loss1/fc
I0403 19:42:01.073508  9566 net.cpp:399] loss1/classifier_plantvillage -> loss1/classifier_plantvillage
I0403 19:42:01.074432  9566 net.cpp:141] Setting up loss1/classifier_plantvillage
I0403 19:42:01.074466  9566 net.cpp:148] Top shape: 24 38 (912)
I0403 19:42:01.074483  9566 net.cpp:156] Memory required for data: 946192992
I0403 19:42:01.074513  9566 layer_factory.hpp:77] Creating layer loss1/classifier_plantvillage_loss1/classifier_plantvillage_0_split
I0403 19:42:01.074530  9566 net.cpp:91] Creating Layer loss1/classifier_plantvillage_loss1/classifier_plantvillage_0_split
I0403 19:42:01.074547  9566 net.cpp:425] loss1/classifier_plantvillage_loss1/classifier_plantvillage_0_split <- loss1/classifier_plantvillage
I0403 19:42:01.074563  9566 net.cpp:399] loss1/classifier_plantvillage_loss1/classifier_plantvillage_0_split -> loss1/classifier_plantvillage_loss1/classifier_plantvillage_0_split_0
I0403 19:42:01.074581  9566 net.cpp:399] loss1/classifier_plantvillage_loss1/classifier_plantvillage_0_split -> loss1/classifier_plantvillage_loss1/classifier_plantvillage_0_split_1
I0403 19:42:01.074600  9566 net.cpp:399] loss1/classifier_plantvillage_loss1/classifier_plantvillage_0_split -> loss1/classifier_plantvillage_loss1/classifier_plantvillage_0_split_2
I0403 19:42:01.074662  9566 net.cpp:141] Setting up loss1/classifier_plantvillage_loss1/classifier_plantvillage_0_split
I0403 19:42:01.074686  9566 net.cpp:148] Top shape: 24 38 (912)
I0403 19:42:01.074702  9566 net.cpp:148] Top shape: 24 38 (912)
I0403 19:42:01.074715  9566 net.cpp:148] Top shape: 24 38 (912)
I0403 19:42:01.074729  9566 net.cpp:156] Memory required for data: 946203936
I0403 19:42:01.074743  9566 layer_factory.hpp:77] Creating layer inception_4b/1x1
I0403 19:42:01.074762  9566 net.cpp:91] Creating Layer inception_4b/1x1
I0403 19:42:01.074792  9566 net.cpp:425] inception_4b/1x1 <- inception_4a/output_inception_4a/output_0_split_1
I0403 19:42:01.074815  9566 net.cpp:399] inception_4b/1x1 -> inception_4b/1x1
I0403 19:42:01.076345  9566 net.cpp:141] Setting up inception_4b/1x1
I0403 19:42:01.076376  9566 net.cpp:148] Top shape: 24 160 14 14 (752640)
I0403 19:42:01.076392  9566 net.cpp:156] Memory required for data: 949214496
I0403 19:42:01.076411  9566 layer_factory.hpp:77] Creating layer inception_4b/relu_1x1
I0403 19:42:01.076427  9566 net.cpp:91] Creating Layer inception_4b/relu_1x1
I0403 19:42:01.076444  9566 net.cpp:425] inception_4b/relu_1x1 <- inception_4b/1x1
I0403 19:42:01.076467  9566 net.cpp:386] inception_4b/relu_1x1 -> inception_4b/1x1 (in-place)
I0403 19:42:01.076637  9566 net.cpp:141] Setting up inception_4b/relu_1x1
I0403 19:42:01.076661  9566 net.cpp:148] Top shape: 24 160 14 14 (752640)
I0403 19:42:01.076675  9566 net.cpp:156] Memory required for data: 952225056
I0403 19:42:01.076689  9566 layer_factory.hpp:77] Creating layer inception_4b/3x3_reduce
I0403 19:42:01.076711  9566 net.cpp:91] Creating Layer inception_4b/3x3_reduce
I0403 19:42:01.076728  9566 net.cpp:425] inception_4b/3x3_reduce <- inception_4a/output_inception_4a/output_0_split_2
I0403 19:42:01.076748  9566 net.cpp:399] inception_4b/3x3_reduce -> inception_4b/3x3_reduce
I0403 19:42:01.078014  9566 net.cpp:141] Setting up inception_4b/3x3_reduce
I0403 19:42:01.078042  9566 net.cpp:148] Top shape: 24 112 14 14 (526848)
I0403 19:42:01.078058  9566 net.cpp:156] Memory required for data: 954332448
I0403 19:42:01.078075  9566 layer_factory.hpp:77] Creating layer inception_4b/relu_3x3_reduce
I0403 19:42:01.078095  9566 net.cpp:91] Creating Layer inception_4b/relu_3x3_reduce
I0403 19:42:01.078112  9566 net.cpp:425] inception_4b/relu_3x3_reduce <- inception_4b/3x3_reduce
I0403 19:42:01.078130  9566 net.cpp:386] inception_4b/relu_3x3_reduce -> inception_4b/3x3_reduce (in-place)
I0403 19:42:01.078413  9566 net.cpp:141] Setting up inception_4b/relu_3x3_reduce
I0403 19:42:01.078438  9566 net.cpp:148] Top shape: 24 112 14 14 (526848)
I0403 19:42:01.078452  9566 net.cpp:156] Memory required for data: 956439840
I0403 19:42:01.078471  9566 layer_factory.hpp:77] Creating layer inception_4b/3x3
I0403 19:42:01.078495  9566 net.cpp:91] Creating Layer inception_4b/3x3
I0403 19:42:01.078524  9566 net.cpp:425] inception_4b/3x3 <- inception_4b/3x3_reduce
I0403 19:42:01.078547  9566 net.cpp:399] inception_4b/3x3 -> inception_4b/3x3
I0403 19:42:01.081362  9566 net.cpp:141] Setting up inception_4b/3x3
I0403 19:42:01.081390  9566 net.cpp:148] Top shape: 24 224 14 14 (1053696)
I0403 19:42:01.081405  9566 net.cpp:156] Memory required for data: 960654624
I0403 19:42:01.081423  9566 layer_factory.hpp:77] Creating layer inception_4b/relu_3x3
I0403 19:42:01.081442  9566 net.cpp:91] Creating Layer inception_4b/relu_3x3
I0403 19:42:01.081462  9566 net.cpp:425] inception_4b/relu_3x3 <- inception_4b/3x3
I0403 19:42:01.081481  9566 net.cpp:386] inception_4b/relu_3x3 -> inception_4b/3x3 (in-place)
I0403 19:42:01.081650  9566 net.cpp:141] Setting up inception_4b/relu_3x3
I0403 19:42:01.081677  9566 net.cpp:148] Top shape: 24 224 14 14 (1053696)
I0403 19:42:01.081692  9566 net.cpp:156] Memory required for data: 964869408
I0403 19:42:01.081707  9566 layer_factory.hpp:77] Creating layer inception_4b/5x5_reduce
I0403 19:42:01.081727  9566 net.cpp:91] Creating Layer inception_4b/5x5_reduce
I0403 19:42:01.081745  9566 net.cpp:425] inception_4b/5x5_reduce <- inception_4a/output_inception_4a/output_0_split_3
I0403 19:42:01.081763  9566 net.cpp:399] inception_4b/5x5_reduce -> inception_4b/5x5_reduce
I0403 19:42:01.082818  9566 net.cpp:141] Setting up inception_4b/5x5_reduce
I0403 19:42:01.082847  9566 net.cpp:148] Top shape: 24 24 14 14 (112896)
I0403 19:42:01.082864  9566 net.cpp:156] Memory required for data: 965320992
I0403 19:42:01.082881  9566 layer_factory.hpp:77] Creating layer inception_4b/relu_5x5_reduce
I0403 19:42:01.082898  9566 net.cpp:91] Creating Layer inception_4b/relu_5x5_reduce
I0403 19:42:01.082931  9566 net.cpp:425] inception_4b/relu_5x5_reduce <- inception_4b/5x5_reduce
I0403 19:42:01.082950  9566 net.cpp:386] inception_4b/relu_5x5_reduce -> inception_4b/5x5_reduce (in-place)
I0403 19:42:01.083120  9566 net.cpp:141] Setting up inception_4b/relu_5x5_reduce
I0403 19:42:01.083145  9566 net.cpp:148] Top shape: 24 24 14 14 (112896)
I0403 19:42:01.083160  9566 net.cpp:156] Memory required for data: 965772576
I0403 19:42:01.083175  9566 layer_factory.hpp:77] Creating layer inception_4b/5x5
I0403 19:42:01.083196  9566 net.cpp:91] Creating Layer inception_4b/5x5
I0403 19:42:01.083214  9566 net.cpp:425] inception_4b/5x5 <- inception_4b/5x5_reduce
I0403 19:42:01.083232  9566 net.cpp:399] inception_4b/5x5 -> inception_4b/5x5
I0403 19:42:01.084378  9566 net.cpp:141] Setting up inception_4b/5x5
I0403 19:42:01.084409  9566 net.cpp:148] Top shape: 24 64 14 14 (301056)
I0403 19:42:01.084426  9566 net.cpp:156] Memory required for data: 966976800
I0403 19:42:01.084444  9566 layer_factory.hpp:77] Creating layer inception_4b/relu_5x5
I0403 19:42:01.084465  9566 net.cpp:91] Creating Layer inception_4b/relu_5x5
I0403 19:42:01.084481  9566 net.cpp:425] inception_4b/relu_5x5 <- inception_4b/5x5
I0403 19:42:01.084501  9566 net.cpp:386] inception_4b/relu_5x5 -> inception_4b/5x5 (in-place)
I0403 19:42:01.084769  9566 net.cpp:141] Setting up inception_4b/relu_5x5
I0403 19:42:01.084795  9566 net.cpp:148] Top shape: 24 64 14 14 (301056)
I0403 19:42:01.084811  9566 net.cpp:156] Memory required for data: 968181024
I0403 19:42:01.084825  9566 layer_factory.hpp:77] Creating layer inception_4b/pool
I0403 19:42:01.084843  9566 net.cpp:91] Creating Layer inception_4b/pool
I0403 19:42:01.084859  9566 net.cpp:425] inception_4b/pool <- inception_4a/output_inception_4a/output_0_split_4
I0403 19:42:01.084880  9566 net.cpp:399] inception_4b/pool -> inception_4b/pool
I0403 19:42:01.084942  9566 net.cpp:141] Setting up inception_4b/pool
I0403 19:42:01.084966  9566 net.cpp:148] Top shape: 24 512 14 14 (2408448)
I0403 19:42:01.084980  9566 net.cpp:156] Memory required for data: 977814816
I0403 19:42:01.084995  9566 layer_factory.hpp:77] Creating layer inception_4b/pool_proj
I0403 19:42:01.085016  9566 net.cpp:91] Creating Layer inception_4b/pool_proj
I0403 19:42:01.085034  9566 net.cpp:425] inception_4b/pool_proj <- inception_4b/pool
I0403 19:42:01.085052  9566 net.cpp:399] inception_4b/pool_proj -> inception_4b/pool_proj
I0403 19:42:01.086208  9566 net.cpp:141] Setting up inception_4b/pool_proj
I0403 19:42:01.086248  9566 net.cpp:148] Top shape: 24 64 14 14 (301056)
I0403 19:42:01.086263  9566 net.cpp:156] Memory required for data: 979019040
I0403 19:42:01.086282  9566 layer_factory.hpp:77] Creating layer inception_4b/relu_pool_proj
I0403 19:42:01.086300  9566 net.cpp:91] Creating Layer inception_4b/relu_pool_proj
I0403 19:42:01.086316  9566 net.cpp:425] inception_4b/relu_pool_proj <- inception_4b/pool_proj
I0403 19:42:01.086338  9566 net.cpp:386] inception_4b/relu_pool_proj -> inception_4b/pool_proj (in-place)
I0403 19:42:01.086531  9566 net.cpp:141] Setting up inception_4b/relu_pool_proj
I0403 19:42:01.086556  9566 net.cpp:148] Top shape: 24 64 14 14 (301056)
I0403 19:42:01.086570  9566 net.cpp:156] Memory required for data: 980223264
I0403 19:42:01.086585  9566 layer_factory.hpp:77] Creating layer inception_4b/output
I0403 19:42:01.086603  9566 net.cpp:91] Creating Layer inception_4b/output
I0403 19:42:01.086621  9566 net.cpp:425] inception_4b/output <- inception_4b/1x1
I0403 19:42:01.086635  9566 net.cpp:425] inception_4b/output <- inception_4b/3x3
I0403 19:42:01.086652  9566 net.cpp:425] inception_4b/output <- inception_4b/5x5
I0403 19:42:01.086666  9566 net.cpp:425] inception_4b/output <- inception_4b/pool_proj
I0403 19:42:01.086683  9566 net.cpp:399] inception_4b/output -> inception_4b/output
I0403 19:42:01.086724  9566 net.cpp:141] Setting up inception_4b/output
I0403 19:42:01.086750  9566 net.cpp:148] Top shape: 24 512 14 14 (2408448)
I0403 19:42:01.086765  9566 net.cpp:156] Memory required for data: 989857056
I0403 19:42:01.086792  9566 layer_factory.hpp:77] Creating layer inception_4b/output_inception_4b/output_0_split
I0403 19:42:01.086810  9566 net.cpp:91] Creating Layer inception_4b/output_inception_4b/output_0_split
I0403 19:42:01.086825  9566 net.cpp:425] inception_4b/output_inception_4b/output_0_split <- inception_4b/output
I0403 19:42:01.086843  9566 net.cpp:399] inception_4b/output_inception_4b/output_0_split -> inception_4b/output_inception_4b/output_0_split_0
I0403 19:42:01.086865  9566 net.cpp:399] inception_4b/output_inception_4b/output_0_split -> inception_4b/output_inception_4b/output_0_split_1
I0403 19:42:01.086884  9566 net.cpp:399] inception_4b/output_inception_4b/output_0_split -> inception_4b/output_inception_4b/output_0_split_2
I0403 19:42:01.086905  9566 net.cpp:399] inception_4b/output_inception_4b/output_0_split -> inception_4b/output_inception_4b/output_0_split_3
I0403 19:42:01.086982  9566 net.cpp:141] Setting up inception_4b/output_inception_4b/output_0_split
I0403 19:42:01.087007  9566 net.cpp:148] Top shape: 24 512 14 14 (2408448)
I0403 19:42:01.087021  9566 net.cpp:148] Top shape: 24 512 14 14 (2408448)
I0403 19:42:01.087036  9566 net.cpp:148] Top shape: 24 512 14 14 (2408448)
I0403 19:42:01.087051  9566 net.cpp:148] Top shape: 24 512 14 14 (2408448)
I0403 19:42:01.087064  9566 net.cpp:156] Memory required for data: 1028392224
I0403 19:42:01.087079  9566 layer_factory.hpp:77] Creating layer inception_4c/1x1
I0403 19:42:01.087100  9566 net.cpp:91] Creating Layer inception_4c/1x1
I0403 19:42:01.087116  9566 net.cpp:425] inception_4c/1x1 <- inception_4b/output_inception_4b/output_0_split_0
I0403 19:42:01.087136  9566 net.cpp:399] inception_4c/1x1 -> inception_4c/1x1
I0403 19:42:01.088485  9566 net.cpp:141] Setting up inception_4c/1x1
I0403 19:42:01.088513  9566 net.cpp:148] Top shape: 24 128 14 14 (602112)
I0403 19:42:01.088528  9566 net.cpp:156] Memory required for data: 1030800672
I0403 19:42:01.088546  9566 layer_factory.hpp:77] Creating layer inception_4c/relu_1x1
I0403 19:42:01.088565  9566 net.cpp:91] Creating Layer inception_4c/relu_1x1
I0403 19:42:01.088582  9566 net.cpp:425] inception_4c/relu_1x1 <- inception_4c/1x1
I0403 19:42:01.088599  9566 net.cpp:386] inception_4c/relu_1x1 -> inception_4c/1x1 (in-place)
I0403 19:42:01.088773  9566 net.cpp:141] Setting up inception_4c/relu_1x1
I0403 19:42:01.088799  9566 net.cpp:148] Top shape: 24 128 14 14 (602112)
I0403 19:42:01.088814  9566 net.cpp:156] Memory required for data: 1033209120
I0403 19:42:01.088829  9566 layer_factory.hpp:77] Creating layer inception_4c/3x3_reduce
I0403 19:42:01.088850  9566 net.cpp:91] Creating Layer inception_4c/3x3_reduce
I0403 19:42:01.088867  9566 net.cpp:425] inception_4c/3x3_reduce <- inception_4b/output_inception_4b/output_0_split_1
I0403 19:42:01.088886  9566 net.cpp:399] inception_4c/3x3_reduce -> inception_4c/3x3_reduce
I0403 19:42:01.090754  9566 net.cpp:141] Setting up inception_4c/3x3_reduce
I0403 19:42:01.090785  9566 net.cpp:148] Top shape: 24 128 14 14 (602112)
I0403 19:42:01.090801  9566 net.cpp:156] Memory required for data: 1035617568
I0403 19:42:01.090821  9566 layer_factory.hpp:77] Creating layer inception_4c/relu_3x3_reduce
I0403 19:42:01.090837  9566 net.cpp:91] Creating Layer inception_4c/relu_3x3_reduce
I0403 19:42:01.090853  9566 net.cpp:425] inception_4c/relu_3x3_reduce <- inception_4c/3x3_reduce
I0403 19:42:01.090873  9566 net.cpp:386] inception_4c/relu_3x3_reduce -> inception_4c/3x3_reduce (in-place)
I0403 19:42:01.091141  9566 net.cpp:141] Setting up inception_4c/relu_3x3_reduce
I0403 19:42:01.091169  9566 net.cpp:148] Top shape: 24 128 14 14 (602112)
I0403 19:42:01.091187  9566 net.cpp:156] Memory required for data: 1038026016
I0403 19:42:01.091207  9566 layer_factory.hpp:77] Creating layer inception_4c/3x3
I0403 19:42:01.091233  9566 net.cpp:91] Creating Layer inception_4c/3x3
I0403 19:42:01.091251  9566 net.cpp:425] inception_4c/3x3 <- inception_4c/3x3_reduce
I0403 19:42:01.091270  9566 net.cpp:399] inception_4c/3x3 -> inception_4c/3x3
I0403 19:42:01.094737  9566 net.cpp:141] Setting up inception_4c/3x3
I0403 19:42:01.094775  9566 net.cpp:148] Top shape: 24 256 14 14 (1204224)
I0403 19:42:01.094791  9566 net.cpp:156] Memory required for data: 1042842912
I0403 19:42:01.094823  9566 layer_factory.hpp:77] Creating layer inception_4c/relu_3x3
I0403 19:42:01.094843  9566 net.cpp:91] Creating Layer inception_4c/relu_3x3
I0403 19:42:01.094861  9566 net.cpp:425] inception_4c/relu_3x3 <- inception_4c/3x3
I0403 19:42:01.094879  9566 net.cpp:386] inception_4c/relu_3x3 -> inception_4c/3x3 (in-place)
I0403 19:42:01.095051  9566 net.cpp:141] Setting up inception_4c/relu_3x3
I0403 19:42:01.095075  9566 net.cpp:148] Top shape: 24 256 14 14 (1204224)
I0403 19:42:01.095090  9566 net.cpp:156] Memory required for data: 1047659808
I0403 19:42:01.095105  9566 layer_factory.hpp:77] Creating layer inception_4c/5x5_reduce
I0403 19:42:01.095127  9566 net.cpp:91] Creating Layer inception_4c/5x5_reduce
I0403 19:42:01.095145  9566 net.cpp:425] inception_4c/5x5_reduce <- inception_4b/output_inception_4b/output_0_split_2
I0403 19:42:01.095165  9566 net.cpp:399] inception_4c/5x5_reduce -> inception_4c/5x5_reduce
I0403 19:42:01.096196  9566 net.cpp:141] Setting up inception_4c/5x5_reduce
I0403 19:42:01.096226  9566 net.cpp:148] Top shape: 24 24 14 14 (112896)
I0403 19:42:01.096242  9566 net.cpp:156] Memory required for data: 1048111392
I0403 19:42:01.096273  9566 layer_factory.hpp:77] Creating layer inception_4c/relu_5x5_reduce
I0403 19:42:01.096292  9566 net.cpp:91] Creating Layer inception_4c/relu_5x5_reduce
I0403 19:42:01.096308  9566 net.cpp:425] inception_4c/relu_5x5_reduce <- inception_4c/5x5_reduce
I0403 19:42:01.096328  9566 net.cpp:386] inception_4c/relu_5x5_reduce -> inception_4c/5x5_reduce (in-place)
I0403 19:42:01.096514  9566 net.cpp:141] Setting up inception_4c/relu_5x5_reduce
I0403 19:42:01.096539  9566 net.cpp:148] Top shape: 24 24 14 14 (112896)
I0403 19:42:01.096554  9566 net.cpp:156] Memory required for data: 1048562976
I0403 19:42:01.096580  9566 layer_factory.hpp:77] Creating layer inception_4c/5x5
I0403 19:42:01.096609  9566 net.cpp:91] Creating Layer inception_4c/5x5
I0403 19:42:01.096627  9566 net.cpp:425] inception_4c/5x5 <- inception_4c/5x5_reduce
I0403 19:42:01.096647  9566 net.cpp:399] inception_4c/5x5 -> inception_4c/5x5
I0403 19:42:01.097812  9566 net.cpp:141] Setting up inception_4c/5x5
I0403 19:42:01.097839  9566 net.cpp:148] Top shape: 24 64 14 14 (301056)
I0403 19:42:01.097854  9566 net.cpp:156] Memory required for data: 1049767200
I0403 19:42:01.097872  9566 layer_factory.hpp:77] Creating layer inception_4c/relu_5x5
I0403 19:42:01.097892  9566 net.cpp:91] Creating Layer inception_4c/relu_5x5
I0403 19:42:01.097909  9566 net.cpp:425] inception_4c/relu_5x5 <- inception_4c/5x5
I0403 19:42:01.097928  9566 net.cpp:386] inception_4c/relu_5x5 -> inception_4c/5x5 (in-place)
I0403 19:42:01.098199  9566 net.cpp:141] Setting up inception_4c/relu_5x5
I0403 19:42:01.098225  9566 net.cpp:148] Top shape: 24 64 14 14 (301056)
I0403 19:42:01.098242  9566 net.cpp:156] Memory required for data: 1050971424
I0403 19:42:01.098268  9566 layer_factory.hpp:77] Creating layer inception_4c/pool
I0403 19:42:01.098289  9566 net.cpp:91] Creating Layer inception_4c/pool
I0403 19:42:01.098305  9566 net.cpp:425] inception_4c/pool <- inception_4b/output_inception_4b/output_0_split_3
I0403 19:42:01.098323  9566 net.cpp:399] inception_4c/pool -> inception_4c/pool
I0403 19:42:01.098387  9566 net.cpp:141] Setting up inception_4c/pool
I0403 19:42:01.098410  9566 net.cpp:148] Top shape: 24 512 14 14 (2408448)
I0403 19:42:01.098425  9566 net.cpp:156] Memory required for data: 1060605216
I0403 19:42:01.098440  9566 layer_factory.hpp:77] Creating layer inception_4c/pool_proj
I0403 19:42:01.098466  9566 net.cpp:91] Creating Layer inception_4c/pool_proj
I0403 19:42:01.098486  9566 net.cpp:425] inception_4c/pool_proj <- inception_4c/pool
I0403 19:42:01.098506  9566 net.cpp:399] inception_4c/pool_proj -> inception_4c/pool_proj
I0403 19:42:01.099671  9566 net.cpp:141] Setting up inception_4c/pool_proj
I0403 19:42:01.099699  9566 net.cpp:148] Top shape: 24 64 14 14 (301056)
I0403 19:42:01.099727  9566 net.cpp:156] Memory required for data: 1061809440
I0403 19:42:01.099746  9566 layer_factory.hpp:77] Creating layer inception_4c/relu_pool_proj
I0403 19:42:01.099762  9566 net.cpp:91] Creating Layer inception_4c/relu_pool_proj
I0403 19:42:01.099788  9566 net.cpp:425] inception_4c/relu_pool_proj <- inception_4c/pool_proj
I0403 19:42:01.099808  9566 net.cpp:386] inception_4c/relu_pool_proj -> inception_4c/pool_proj (in-place)
I0403 19:42:01.099983  9566 net.cpp:141] Setting up inception_4c/relu_pool_proj
I0403 19:42:01.100008  9566 net.cpp:148] Top shape: 24 64 14 14 (301056)
I0403 19:42:01.100023  9566 net.cpp:156] Memory required for data: 1063013664
I0403 19:42:01.100038  9566 layer_factory.hpp:77] Creating layer inception_4c/output
I0403 19:42:01.100054  9566 net.cpp:91] Creating Layer inception_4c/output
I0403 19:42:01.100072  9566 net.cpp:425] inception_4c/output <- inception_4c/1x1
I0403 19:42:01.100088  9566 net.cpp:425] inception_4c/output <- inception_4c/3x3
I0403 19:42:01.100105  9566 net.cpp:425] inception_4c/output <- inception_4c/5x5
I0403 19:42:01.100121  9566 net.cpp:425] inception_4c/output <- inception_4c/pool_proj
I0403 19:42:01.100137  9566 net.cpp:399] inception_4c/output -> inception_4c/output
I0403 19:42:01.100179  9566 net.cpp:141] Setting up inception_4c/output
I0403 19:42:01.100204  9566 net.cpp:148] Top shape: 24 512 14 14 (2408448)
I0403 19:42:01.100219  9566 net.cpp:156] Memory required for data: 1072647456
I0403 19:42:01.100234  9566 layer_factory.hpp:77] Creating layer inception_4c/output_inception_4c/output_0_split
I0403 19:42:01.100250  9566 net.cpp:91] Creating Layer inception_4c/output_inception_4c/output_0_split
I0403 19:42:01.100265  9566 net.cpp:425] inception_4c/output_inception_4c/output_0_split <- inception_4c/output
I0403 19:42:01.100283  9566 net.cpp:399] inception_4c/output_inception_4c/output_0_split -> inception_4c/output_inception_4c/output_0_split_0
I0403 19:42:01.100303  9566 net.cpp:399] inception_4c/output_inception_4c/output_0_split -> inception_4c/output_inception_4c/output_0_split_1
I0403 19:42:01.100322  9566 net.cpp:399] inception_4c/output_inception_4c/output_0_split -> inception_4c/output_inception_4c/output_0_split_2
I0403 19:42:01.100342  9566 net.cpp:399] inception_4c/output_inception_4c/output_0_split -> inception_4c/output_inception_4c/output_0_split_3
I0403 19:42:01.100422  9566 net.cpp:141] Setting up inception_4c/output_inception_4c/output_0_split
I0403 19:42:01.100450  9566 net.cpp:148] Top shape: 24 512 14 14 (2408448)
I0403 19:42:01.100472  9566 net.cpp:148] Top shape: 24 512 14 14 (2408448)
I0403 19:42:01.100488  9566 net.cpp:148] Top shape: 24 512 14 14 (2408448)
I0403 19:42:01.100503  9566 net.cpp:148] Top shape: 24 512 14 14 (2408448)
I0403 19:42:01.100518  9566 net.cpp:156] Memory required for data: 1111182624
I0403 19:42:01.100533  9566 layer_factory.hpp:77] Creating layer inception_4d/1x1
I0403 19:42:01.100553  9566 net.cpp:91] Creating Layer inception_4d/1x1
I0403 19:42:01.100569  9566 net.cpp:425] inception_4d/1x1 <- inception_4c/output_inception_4c/output_0_split_0
I0403 19:42:01.100587  9566 net.cpp:399] inception_4d/1x1 -> inception_4d/1x1
I0403 19:42:01.101898  9566 net.cpp:141] Setting up inception_4d/1x1
I0403 19:42:01.101928  9566 net.cpp:148] Top shape: 24 112 14 14 (526848)
I0403 19:42:01.101944  9566 net.cpp:156] Memory required for data: 1113290016
I0403 19:42:01.101963  9566 layer_factory.hpp:77] Creating layer inception_4d/relu_1x1
I0403 19:42:01.101980  9566 net.cpp:91] Creating Layer inception_4d/relu_1x1
I0403 19:42:01.101996  9566 net.cpp:425] inception_4d/relu_1x1 <- inception_4d/1x1
I0403 19:42:01.102013  9566 net.cpp:386] inception_4d/relu_1x1 -> inception_4d/1x1 (in-place)
I0403 19:42:01.102187  9566 net.cpp:141] Setting up inception_4d/relu_1x1
I0403 19:42:01.102215  9566 net.cpp:148] Top shape: 24 112 14 14 (526848)
I0403 19:42:01.102231  9566 net.cpp:156] Memory required for data: 1115397408
I0403 19:42:01.102246  9566 layer_factory.hpp:77] Creating layer inception_4d/3x3_reduce
I0403 19:42:01.102291  9566 net.cpp:91] Creating Layer inception_4d/3x3_reduce
I0403 19:42:01.102310  9566 net.cpp:425] inception_4d/3x3_reduce <- inception_4c/output_inception_4c/output_0_split_1
I0403 19:42:01.102329  9566 net.cpp:399] inception_4d/3x3_reduce -> inception_4d/3x3_reduce
I0403 19:42:01.103782  9566 net.cpp:141] Setting up inception_4d/3x3_reduce
I0403 19:42:01.103809  9566 net.cpp:148] Top shape: 24 144 14 14 (677376)
I0403 19:42:01.103823  9566 net.cpp:156] Memory required for data: 1118106912
I0403 19:42:01.103842  9566 layer_factory.hpp:77] Creating layer inception_4d/relu_3x3_reduce
I0403 19:42:01.103860  9566 net.cpp:91] Creating Layer inception_4d/relu_3x3_reduce
I0403 19:42:01.103878  9566 net.cpp:425] inception_4d/relu_3x3_reduce <- inception_4d/3x3_reduce
I0403 19:42:01.103894  9566 net.cpp:386] inception_4d/relu_3x3_reduce -> inception_4d/3x3_reduce (in-place)
I0403 19:42:01.104168  9566 net.cpp:141] Setting up inception_4d/relu_3x3_reduce
I0403 19:42:01.104193  9566 net.cpp:148] Top shape: 24 144 14 14 (677376)
I0403 19:42:01.104207  9566 net.cpp:156] Memory required for data: 1120816416
I0403 19:42:01.104223  9566 layer_factory.hpp:77] Creating layer inception_4d/3x3
I0403 19:42:01.104243  9566 net.cpp:91] Creating Layer inception_4d/3x3
I0403 19:42:01.104260  9566 net.cpp:425] inception_4d/3x3 <- inception_4d/3x3_reduce
I0403 19:42:01.104280  9566 net.cpp:399] inception_4d/3x3 -> inception_4d/3x3
I0403 19:42:01.108342  9566 net.cpp:141] Setting up inception_4d/3x3
I0403 19:42:01.108371  9566 net.cpp:148] Top shape: 24 288 14 14 (1354752)
I0403 19:42:01.108386  9566 net.cpp:156] Memory required for data: 1126235424
I0403 19:42:01.108403  9566 layer_factory.hpp:77] Creating layer inception_4d/relu_3x3
I0403 19:42:01.108422  9566 net.cpp:91] Creating Layer inception_4d/relu_3x3
I0403 19:42:01.108439  9566 net.cpp:425] inception_4d/relu_3x3 <- inception_4d/3x3
I0403 19:42:01.108463  9566 net.cpp:386] inception_4d/relu_3x3 -> inception_4d/3x3 (in-place)
I0403 19:42:01.108639  9566 net.cpp:141] Setting up inception_4d/relu_3x3
I0403 19:42:01.108664  9566 net.cpp:148] Top shape: 24 288 14 14 (1354752)
I0403 19:42:01.108678  9566 net.cpp:156] Memory required for data: 1131654432
I0403 19:42:01.108693  9566 layer_factory.hpp:77] Creating layer inception_4d/5x5_reduce
I0403 19:42:01.108714  9566 net.cpp:91] Creating Layer inception_4d/5x5_reduce
I0403 19:42:01.108731  9566 net.cpp:425] inception_4d/5x5_reduce <- inception_4c/output_inception_4c/output_0_split_2
I0403 19:42:01.108750  9566 net.cpp:399] inception_4d/5x5_reduce -> inception_4d/5x5_reduce
I0403 19:42:01.109841  9566 net.cpp:141] Setting up inception_4d/5x5_reduce
I0403 19:42:01.109870  9566 net.cpp:148] Top shape: 24 32 14 14 (150528)
I0403 19:42:01.109887  9566 net.cpp:156] Memory required for data: 1132256544
I0403 19:42:01.109905  9566 layer_factory.hpp:77] Creating layer inception_4d/relu_5x5_reduce
I0403 19:42:01.109922  9566 net.cpp:91] Creating Layer inception_4d/relu_5x5_reduce
I0403 19:42:01.109938  9566 net.cpp:425] inception_4d/relu_5x5_reduce <- inception_4d/5x5_reduce
I0403 19:42:01.109956  9566 net.cpp:386] inception_4d/relu_5x5_reduce -> inception_4d/5x5_reduce (in-place)
I0403 19:42:01.110132  9566 net.cpp:141] Setting up inception_4d/relu_5x5_reduce
I0403 19:42:01.110158  9566 net.cpp:148] Top shape: 24 32 14 14 (150528)
I0403 19:42:01.110173  9566 net.cpp:156] Memory required for data: 1132858656
I0403 19:42:01.110188  9566 layer_factory.hpp:77] Creating layer inception_4d/5x5
I0403 19:42:01.110208  9566 net.cpp:91] Creating Layer inception_4d/5x5
I0403 19:42:01.110225  9566 net.cpp:425] inception_4d/5x5 <- inception_4d/5x5_reduce
I0403 19:42:01.110245  9566 net.cpp:399] inception_4d/5x5 -> inception_4d/5x5
I0403 19:42:01.111651  9566 net.cpp:141] Setting up inception_4d/5x5
I0403 19:42:01.111678  9566 net.cpp:148] Top shape: 24 64 14 14 (301056)
I0403 19:42:01.111693  9566 net.cpp:156] Memory required for data: 1134062880
I0403 19:42:01.111711  9566 layer_factory.hpp:77] Creating layer inception_4d/relu_5x5
I0403 19:42:01.111747  9566 net.cpp:91] Creating Layer inception_4d/relu_5x5
I0403 19:42:01.111764  9566 net.cpp:425] inception_4d/relu_5x5 <- inception_4d/5x5
I0403 19:42:01.111781  9566 net.cpp:386] inception_4d/relu_5x5 -> inception_4d/5x5 (in-place)
I0403 19:42:01.112067  9566 net.cpp:141] Setting up inception_4d/relu_5x5
I0403 19:42:01.112102  9566 net.cpp:148] Top shape: 24 64 14 14 (301056)
I0403 19:42:01.112118  9566 net.cpp:156] Memory required for data: 1135267104
I0403 19:42:01.112131  9566 layer_factory.hpp:77] Creating layer inception_4d/pool
I0403 19:42:01.112149  9566 net.cpp:91] Creating Layer inception_4d/pool
I0403 19:42:01.112165  9566 net.cpp:425] inception_4d/pool <- inception_4c/output_inception_4c/output_0_split_3
I0403 19:42:01.112185  9566 net.cpp:399] inception_4d/pool -> inception_4d/pool
I0403 19:42:01.112259  9566 net.cpp:141] Setting up inception_4d/pool
I0403 19:42:01.112288  9566 net.cpp:148] Top shape: 24 512 14 14 (2408448)
I0403 19:42:01.112303  9566 net.cpp:156] Memory required for data: 1144900896
I0403 19:42:01.112319  9566 layer_factory.hpp:77] Creating layer inception_4d/pool_proj
I0403 19:42:01.112340  9566 net.cpp:91] Creating Layer inception_4d/pool_proj
I0403 19:42:01.112359  9566 net.cpp:425] inception_4d/pool_proj <- inception_4d/pool
I0403 19:42:01.112376  9566 net.cpp:399] inception_4d/pool_proj -> inception_4d/pool_proj
I0403 19:42:01.114066  9566 net.cpp:141] Setting up inception_4d/pool_proj
I0403 19:42:01.114094  9566 net.cpp:148] Top shape: 24 64 14 14 (301056)
I0403 19:42:01.114109  9566 net.cpp:156] Memory required for data: 1146105120
I0403 19:42:01.114130  9566 layer_factory.hpp:77] Creating layer inception_4d/relu_pool_proj
I0403 19:42:01.114150  9566 net.cpp:91] Creating Layer inception_4d/relu_pool_proj
I0403 19:42:01.114166  9566 net.cpp:425] inception_4d/relu_pool_proj <- inception_4d/pool_proj
I0403 19:42:01.114181  9566 net.cpp:386] inception_4d/relu_pool_proj -> inception_4d/pool_proj (in-place)
I0403 19:42:01.114359  9566 net.cpp:141] Setting up inception_4d/relu_pool_proj
I0403 19:42:01.114384  9566 net.cpp:148] Top shape: 24 64 14 14 (301056)
I0403 19:42:01.114398  9566 net.cpp:156] Memory required for data: 1147309344
I0403 19:42:01.114413  9566 layer_factory.hpp:77] Creating layer inception_4d/output
I0403 19:42:01.114430  9566 net.cpp:91] Creating Layer inception_4d/output
I0403 19:42:01.114445  9566 net.cpp:425] inception_4d/output <- inception_4d/1x1
I0403 19:42:01.114466  9566 net.cpp:425] inception_4d/output <- inception_4d/3x3
I0403 19:42:01.114485  9566 net.cpp:425] inception_4d/output <- inception_4d/5x5
I0403 19:42:01.114501  9566 net.cpp:425] inception_4d/output <- inception_4d/pool_proj
I0403 19:42:01.114521  9566 net.cpp:399] inception_4d/output -> inception_4d/output
I0403 19:42:01.114567  9566 net.cpp:141] Setting up inception_4d/output
I0403 19:42:01.114593  9566 net.cpp:148] Top shape: 24 528 14 14 (2483712)
I0403 19:42:01.114609  9566 net.cpp:156] Memory required for data: 1157244192
I0403 19:42:01.114624  9566 layer_factory.hpp:77] Creating layer inception_4d/output_inception_4d/output_0_split
I0403 19:42:01.114640  9566 net.cpp:91] Creating Layer inception_4d/output_inception_4d/output_0_split
I0403 19:42:01.114655  9566 net.cpp:425] inception_4d/output_inception_4d/output_0_split <- inception_4d/output
I0403 19:42:01.114673  9566 net.cpp:399] inception_4d/output_inception_4d/output_0_split -> inception_4d/output_inception_4d/output_0_split_0
I0403 19:42:01.114694  9566 net.cpp:399] inception_4d/output_inception_4d/output_0_split -> inception_4d/output_inception_4d/output_0_split_1
I0403 19:42:01.114716  9566 net.cpp:399] inception_4d/output_inception_4d/output_0_split -> inception_4d/output_inception_4d/output_0_split_2
I0403 19:42:01.114735  9566 net.cpp:399] inception_4d/output_inception_4d/output_0_split -> inception_4d/output_inception_4d/output_0_split_3
I0403 19:42:01.114754  9566 net.cpp:399] inception_4d/output_inception_4d/output_0_split -> inception_4d/output_inception_4d/output_0_split_4
I0403 19:42:01.114852  9566 net.cpp:141] Setting up inception_4d/output_inception_4d/output_0_split
I0403 19:42:01.114887  9566 net.cpp:148] Top shape: 24 528 14 14 (2483712)
I0403 19:42:01.114904  9566 net.cpp:148] Top shape: 24 528 14 14 (2483712)
I0403 19:42:01.114920  9566 net.cpp:148] Top shape: 24 528 14 14 (2483712)
I0403 19:42:01.114935  9566 net.cpp:148] Top shape: 24 528 14 14 (2483712)
I0403 19:42:01.114950  9566 net.cpp:148] Top shape: 24 528 14 14 (2483712)
I0403 19:42:01.114964  9566 net.cpp:156] Memory required for data: 1206918432
I0403 19:42:01.114979  9566 layer_factory.hpp:77] Creating layer loss2/ave_pool
I0403 19:42:01.114997  9566 net.cpp:91] Creating Layer loss2/ave_pool
I0403 19:42:01.115013  9566 net.cpp:425] loss2/ave_pool <- inception_4d/output_inception_4d/output_0_split_0
I0403 19:42:01.115031  9566 net.cpp:399] loss2/ave_pool -> loss2/ave_pool
I0403 19:42:01.115341  9566 net.cpp:141] Setting up loss2/ave_pool
I0403 19:42:01.115370  9566 net.cpp:148] Top shape: 24 528 4 4 (202752)
I0403 19:42:01.115386  9566 net.cpp:156] Memory required for data: 1207729440
I0403 19:42:01.115403  9566 layer_factory.hpp:77] Creating layer loss2/conv
I0403 19:42:01.115424  9566 net.cpp:91] Creating Layer loss2/conv
I0403 19:42:01.115442  9566 net.cpp:425] loss2/conv <- loss2/ave_pool
I0403 19:42:01.115464  9566 net.cpp:399] loss2/conv -> loss2/conv
I0403 19:42:01.117282  9566 net.cpp:141] Setting up loss2/conv
I0403 19:42:01.117311  9566 net.cpp:148] Top shape: 24 128 4 4 (49152)
I0403 19:42:01.117326  9566 net.cpp:156] Memory required for data: 1207926048
I0403 19:42:01.117352  9566 layer_factory.hpp:77] Creating layer loss2/relu_conv
I0403 19:42:01.117370  9566 net.cpp:91] Creating Layer loss2/relu_conv
I0403 19:42:01.117388  9566 net.cpp:425] loss2/relu_conv <- loss2/conv
I0403 19:42:01.117408  9566 net.cpp:386] loss2/relu_conv -> loss2/conv (in-place)
I0403 19:42:01.117709  9566 net.cpp:141] Setting up loss2/relu_conv
I0403 19:42:01.117734  9566 net.cpp:148] Top shape: 24 128 4 4 (49152)
I0403 19:42:01.117749  9566 net.cpp:156] Memory required for data: 1208122656
I0403 19:42:01.117764  9566 layer_factory.hpp:77] Creating layer loss2/fc
I0403 19:42:01.117784  9566 net.cpp:91] Creating Layer loss2/fc
I0403 19:42:01.117799  9566 net.cpp:425] loss2/fc <- loss2/conv
I0403 19:42:01.117820  9566 net.cpp:399] loss2/fc -> loss2/fc
I0403 19:42:01.134734  9566 net.cpp:141] Setting up loss2/fc
I0403 19:42:01.134765  9566 net.cpp:148] Top shape: 24 1024 (24576)
I0403 19:42:01.134780  9566 net.cpp:156] Memory required for data: 1208220960
I0403 19:42:01.134799  9566 layer_factory.hpp:77] Creating layer loss2/relu_fc
I0403 19:42:01.134816  9566 net.cpp:91] Creating Layer loss2/relu_fc
I0403 19:42:01.134831  9566 net.cpp:425] loss2/relu_fc <- loss2/fc
I0403 19:42:01.134848  9566 net.cpp:386] loss2/relu_fc -> loss2/fc (in-place)
I0403 19:42:01.135130  9566 net.cpp:141] Setting up loss2/relu_fc
I0403 19:42:01.135159  9566 net.cpp:148] Top shape: 24 1024 (24576)
I0403 19:42:01.135175  9566 net.cpp:156] Memory required for data: 1208319264
I0403 19:42:01.135202  9566 layer_factory.hpp:77] Creating layer loss2/drop_fc
I0403 19:42:01.135221  9566 net.cpp:91] Creating Layer loss2/drop_fc
I0403 19:42:01.135237  9566 net.cpp:425] loss2/drop_fc <- loss2/fc
I0403 19:42:01.135254  9566 net.cpp:386] loss2/drop_fc -> loss2/fc (in-place)
I0403 19:42:01.135303  9566 net.cpp:141] Setting up loss2/drop_fc
I0403 19:42:01.135327  9566 net.cpp:148] Top shape: 24 1024 (24576)
I0403 19:42:01.135342  9566 net.cpp:156] Memory required for data: 1208417568
I0403 19:42:01.135357  9566 layer_factory.hpp:77] Creating layer loss2/classifier_plantvillage
I0403 19:42:01.135377  9566 net.cpp:91] Creating Layer loss2/classifier_plantvillage
I0403 19:42:01.135406  9566 net.cpp:425] loss2/classifier_plantvillage <- loss2/fc
I0403 19:42:01.135427  9566 net.cpp:399] loss2/classifier_plantvillage -> loss2/classifier_plantvillage
I0403 19:42:01.135826  9566 net.cpp:141] Setting up loss2/classifier_plantvillage
I0403 19:42:01.135860  9566 net.cpp:148] Top shape: 24 38 (912)
I0403 19:42:01.135893  9566 net.cpp:156] Memory required for data: 1208421216
I0403 19:42:01.135939  9566 layer_factory.hpp:77] Creating layer loss2/classifier_plantvillage_loss2/classifier_plantvillage_0_split
I0403 19:42:01.135967  9566 net.cpp:91] Creating Layer loss2/classifier_plantvillage_loss2/classifier_plantvillage_0_split
I0403 19:42:01.135998  9566 net.cpp:425] loss2/classifier_plantvillage_loss2/classifier_plantvillage_0_split <- loss2/classifier_plantvillage
I0403 19:42:01.136029  9566 net.cpp:399] loss2/classifier_plantvillage_loss2/classifier_plantvillage_0_split -> loss2/classifier_plantvillage_loss2/classifier_plantvillage_0_split_0
I0403 19:42:01.136077  9566 net.cpp:399] loss2/classifier_plantvillage_loss2/classifier_plantvillage_0_split -> loss2/classifier_plantvillage_loss2/classifier_plantvillage_0_split_1
I0403 19:42:01.136097  9566 net.cpp:399] loss2/classifier_plantvillage_loss2/classifier_plantvillage_0_split -> loss2/classifier_plantvillage_loss2/classifier_plantvillage_0_split_2
I0403 19:42:01.136173  9566 net.cpp:141] Setting up loss2/classifier_plantvillage_loss2/classifier_plantvillage_0_split
I0403 19:42:01.136196  9566 net.cpp:148] Top shape: 24 38 (912)
I0403 19:42:01.136212  9566 net.cpp:148] Top shape: 24 38 (912)
I0403 19:42:01.136227  9566 net.cpp:148] Top shape: 24 38 (912)
I0403 19:42:01.136241  9566 net.cpp:156] Memory required for data: 1208432160
I0403 19:42:01.136255  9566 layer_factory.hpp:77] Creating layer inception_4e/1x1
I0403 19:42:01.136276  9566 net.cpp:91] Creating Layer inception_4e/1x1
I0403 19:42:01.136303  9566 net.cpp:425] inception_4e/1x1 <- inception_4d/output_inception_4d/output_0_split_1
I0403 19:42:01.136322  9566 net.cpp:399] inception_4e/1x1 -> inception_4e/1x1
I0403 19:42:01.138077  9566 net.cpp:141] Setting up inception_4e/1x1
I0403 19:42:01.138104  9566 net.cpp:148] Top shape: 24 256 14 14 (1204224)
I0403 19:42:01.138119  9566 net.cpp:156] Memory required for data: 1213249056
I0403 19:42:01.138137  9566 layer_factory.hpp:77] Creating layer inception_4e/relu_1x1
I0403 19:42:01.138156  9566 net.cpp:91] Creating Layer inception_4e/relu_1x1
I0403 19:42:01.138172  9566 net.cpp:425] inception_4e/relu_1x1 <- inception_4e/1x1
I0403 19:42:01.138190  9566 net.cpp:386] inception_4e/relu_1x1 -> inception_4e/1x1 (in-place)
I0403 19:42:01.138479  9566 net.cpp:141] Setting up inception_4e/relu_1x1
I0403 19:42:01.138505  9566 net.cpp:148] Top shape: 24 256 14 14 (1204224)
I0403 19:42:01.138520  9566 net.cpp:156] Memory required for data: 1218065952
I0403 19:42:01.138535  9566 layer_factory.hpp:77] Creating layer inception_4e/3x3_reduce
I0403 19:42:01.138556  9566 net.cpp:91] Creating Layer inception_4e/3x3_reduce
I0403 19:42:01.138572  9566 net.cpp:425] inception_4e/3x3_reduce <- inception_4d/output_inception_4d/output_0_split_2
I0403 19:42:01.138593  9566 net.cpp:399] inception_4e/3x3_reduce -> inception_4e/3x3_reduce
I0403 19:42:01.140614  9566 net.cpp:141] Setting up inception_4e/3x3_reduce
I0403 19:42:01.140642  9566 net.cpp:148] Top shape: 24 160 14 14 (752640)
I0403 19:42:01.140657  9566 net.cpp:156] Memory required for data: 1221076512
I0403 19:42:01.140674  9566 layer_factory.hpp:77] Creating layer inception_4e/relu_3x3_reduce
I0403 19:42:01.140691  9566 net.cpp:91] Creating Layer inception_4e/relu_3x3_reduce
I0403 19:42:01.140708  9566 net.cpp:425] inception_4e/relu_3x3_reduce <- inception_4e/3x3_reduce
I0403 19:42:01.140727  9566 net.cpp:386] inception_4e/relu_3x3_reduce -> inception_4e/3x3_reduce (in-place)
I0403 19:42:01.140907  9566 net.cpp:141] Setting up inception_4e/relu_3x3_reduce
I0403 19:42:01.140931  9566 net.cpp:148] Top shape: 24 160 14 14 (752640)
I0403 19:42:01.140945  9566 net.cpp:156] Memory required for data: 1224087072
I0403 19:42:01.140959  9566 layer_factory.hpp:77] Creating layer inception_4e/3x3
I0403 19:42:01.140980  9566 net.cpp:91] Creating Layer inception_4e/3x3
I0403 19:42:01.140997  9566 net.cpp:425] inception_4e/3x3 <- inception_4e/3x3_reduce
I0403 19:42:01.141018  9566 net.cpp:399] inception_4e/3x3 -> inception_4e/3x3
I0403 19:42:01.145797  9566 net.cpp:141] Setting up inception_4e/3x3
I0403 19:42:01.145836  9566 net.cpp:148] Top shape: 24 320 14 14 (1505280)
I0403 19:42:01.145853  9566 net.cpp:156] Memory required for data: 1230108192
I0403 19:42:01.145871  9566 layer_factory.hpp:77] Creating layer inception_4e/relu_3x3
I0403 19:42:01.145891  9566 net.cpp:91] Creating Layer inception_4e/relu_3x3
I0403 19:42:01.145910  9566 net.cpp:425] inception_4e/relu_3x3 <- inception_4e/3x3
I0403 19:42:01.145926  9566 net.cpp:386] inception_4e/relu_3x3 -> inception_4e/3x3 (in-place)
I0403 19:42:01.146224  9566 net.cpp:141] Setting up inception_4e/relu_3x3
I0403 19:42:01.146253  9566 net.cpp:148] Top shape: 24 320 14 14 (1505280)
I0403 19:42:01.146270  9566 net.cpp:156] Memory required for data: 1236129312
I0403 19:42:01.146286  9566 layer_factory.hpp:77] Creating layer inception_4e/5x5_reduce
I0403 19:42:01.146306  9566 net.cpp:91] Creating Layer inception_4e/5x5_reduce
I0403 19:42:01.146322  9566 net.cpp:425] inception_4e/5x5_reduce <- inception_4d/output_inception_4d/output_0_split_3
I0403 19:42:01.146344  9566 net.cpp:399] inception_4e/5x5_reduce -> inception_4e/5x5_reduce
I0403 19:42:01.147373  9566 net.cpp:141] Setting up inception_4e/5x5_reduce
I0403 19:42:01.147400  9566 net.cpp:148] Top shape: 24 32 14 14 (150528)
I0403 19:42:01.147414  9566 net.cpp:156] Memory required for data: 1236731424
I0403 19:42:01.147433  9566 layer_factory.hpp:77] Creating layer inception_4e/relu_5x5_reduce
I0403 19:42:01.147451  9566 net.cpp:91] Creating Layer inception_4e/relu_5x5_reduce
I0403 19:42:01.147475  9566 net.cpp:425] inception_4e/relu_5x5_reduce <- inception_4e/5x5_reduce
I0403 19:42:01.147493  9566 net.cpp:386] inception_4e/relu_5x5_reduce -> inception_4e/5x5_reduce (in-place)
I0403 19:42:01.147775  9566 net.cpp:141] Setting up inception_4e/relu_5x5_reduce
I0403 19:42:01.147801  9566 net.cpp:148] Top shape: 24 32 14 14 (150528)
I0403 19:42:01.147817  9566 net.cpp:156] Memory required for data: 1237333536
I0403 19:42:01.147832  9566 layer_factory.hpp:77] Creating layer inception_4e/5x5
I0403 19:42:01.147868  9566 net.cpp:91] Creating Layer inception_4e/5x5
I0403 19:42:01.147887  9566 net.cpp:425] inception_4e/5x5 <- inception_4e/5x5_reduce
I0403 19:42:01.147907  9566 net.cpp:399] inception_4e/5x5 -> inception_4e/5x5
I0403 19:42:01.149642  9566 net.cpp:141] Setting up inception_4e/5x5
I0403 19:42:01.149672  9566 net.cpp:148] Top shape: 24 128 14 14 (602112)
I0403 19:42:01.149689  9566 net.cpp:156] Memory required for data: 1239741984
I0403 19:42:01.149708  9566 layer_factory.hpp:77] Creating layer inception_4e/relu_5x5
I0403 19:42:01.149725  9566 net.cpp:91] Creating Layer inception_4e/relu_5x5
I0403 19:42:01.149741  9566 net.cpp:425] inception_4e/relu_5x5 <- inception_4e/5x5
I0403 19:42:01.149760  9566 net.cpp:386] inception_4e/relu_5x5 -> inception_4e/5x5 (in-place)
I0403 19:42:01.149948  9566 net.cpp:141] Setting up inception_4e/relu_5x5
I0403 19:42:01.149973  9566 net.cpp:148] Top shape: 24 128 14 14 (602112)
I0403 19:42:01.149988  9566 net.cpp:156] Memory required for data: 1242150432
I0403 19:42:01.150002  9566 layer_factory.hpp:77] Creating layer inception_4e/pool
I0403 19:42:01.150020  9566 net.cpp:91] Creating Layer inception_4e/pool
I0403 19:42:01.150038  9566 net.cpp:425] inception_4e/pool <- inception_4d/output_inception_4d/output_0_split_4
I0403 19:42:01.150055  9566 net.cpp:399] inception_4e/pool -> inception_4e/pool
I0403 19:42:01.150123  9566 net.cpp:141] Setting up inception_4e/pool
I0403 19:42:01.150146  9566 net.cpp:148] Top shape: 24 528 14 14 (2483712)
I0403 19:42:01.150161  9566 net.cpp:156] Memory required for data: 1252085280
I0403 19:42:01.150174  9566 layer_factory.hpp:77] Creating layer inception_4e/pool_proj
I0403 19:42:01.150197  9566 net.cpp:91] Creating Layer inception_4e/pool_proj
I0403 19:42:01.150214  9566 net.cpp:425] inception_4e/pool_proj <- inception_4e/pool
I0403 19:42:01.150233  9566 net.cpp:399] inception_4e/pool_proj -> inception_4e/pool_proj
I0403 19:42:01.151684  9566 net.cpp:141] Setting up inception_4e/pool_proj
I0403 19:42:01.151715  9566 net.cpp:148] Top shape: 24 128 14 14 (602112)
I0403 19:42:01.151742  9566 net.cpp:156] Memory required for data: 1254493728
I0403 19:42:01.151762  9566 layer_factory.hpp:77] Creating layer inception_4e/relu_pool_proj
I0403 19:42:01.151779  9566 net.cpp:91] Creating Layer inception_4e/relu_pool_proj
I0403 19:42:01.151796  9566 net.cpp:425] inception_4e/relu_pool_proj <- inception_4e/pool_proj
I0403 19:42:01.151815  9566 net.cpp:386] inception_4e/relu_pool_proj -> inception_4e/pool_proj (in-place)
I0403 19:42:01.152093  9566 net.cpp:141] Setting up inception_4e/relu_pool_proj
I0403 19:42:01.152122  9566 net.cpp:148] Top shape: 24 128 14 14 (602112)
I0403 19:42:01.152137  9566 net.cpp:156] Memory required for data: 1256902176
I0403 19:42:01.152151  9566 layer_factory.hpp:77] Creating layer inception_4e/output
I0403 19:42:01.152168  9566 net.cpp:91] Creating Layer inception_4e/output
I0403 19:42:01.152185  9566 net.cpp:425] inception_4e/output <- inception_4e/1x1
I0403 19:42:01.152200  9566 net.cpp:425] inception_4e/output <- inception_4e/3x3
I0403 19:42:01.152216  9566 net.cpp:425] inception_4e/output <- inception_4e/5x5
I0403 19:42:01.152231  9566 net.cpp:425] inception_4e/output <- inception_4e/pool_proj
I0403 19:42:01.152248  9566 net.cpp:399] inception_4e/output -> inception_4e/output
I0403 19:42:01.152297  9566 net.cpp:141] Setting up inception_4e/output
I0403 19:42:01.152321  9566 net.cpp:148] Top shape: 24 832 14 14 (3913728)
I0403 19:42:01.152335  9566 net.cpp:156] Memory required for data: 1272557088
I0403 19:42:01.152349  9566 layer_factory.hpp:77] Creating layer pool4/3x3_s2
I0403 19:42:01.152369  9566 net.cpp:91] Creating Layer pool4/3x3_s2
I0403 19:42:01.152385  9566 net.cpp:425] pool4/3x3_s2 <- inception_4e/output
I0403 19:42:01.152403  9566 net.cpp:399] pool4/3x3_s2 -> pool4/3x3_s2
I0403 19:42:01.152482  9566 net.cpp:141] Setting up pool4/3x3_s2
I0403 19:42:01.152508  9566 net.cpp:148] Top shape: 24 832 7 7 (978432)
I0403 19:42:01.152521  9566 net.cpp:156] Memory required for data: 1276470816
I0403 19:42:01.152535  9566 layer_factory.hpp:77] Creating layer pool4/3x3_s2_pool4/3x3_s2_0_split
I0403 19:42:01.152551  9566 net.cpp:91] Creating Layer pool4/3x3_s2_pool4/3x3_s2_0_split
I0403 19:42:01.152567  9566 net.cpp:425] pool4/3x3_s2_pool4/3x3_s2_0_split <- pool4/3x3_s2
I0403 19:42:01.152586  9566 net.cpp:399] pool4/3x3_s2_pool4/3x3_s2_0_split -> pool4/3x3_s2_pool4/3x3_s2_0_split_0
I0403 19:42:01.152607  9566 net.cpp:399] pool4/3x3_s2_pool4/3x3_s2_0_split -> pool4/3x3_s2_pool4/3x3_s2_0_split_1
I0403 19:42:01.152627  9566 net.cpp:399] pool4/3x3_s2_pool4/3x3_s2_0_split -> pool4/3x3_s2_pool4/3x3_s2_0_split_2
I0403 19:42:01.152647  9566 net.cpp:399] pool4/3x3_s2_pool4/3x3_s2_0_split -> pool4/3x3_s2_pool4/3x3_s2_0_split_3
I0403 19:42:01.152732  9566 net.cpp:141] Setting up pool4/3x3_s2_pool4/3x3_s2_0_split
I0403 19:42:01.152757  9566 net.cpp:148] Top shape: 24 832 7 7 (978432)
I0403 19:42:01.152775  9566 net.cpp:148] Top shape: 24 832 7 7 (978432)
I0403 19:42:01.152791  9566 net.cpp:148] Top shape: 24 832 7 7 (978432)
I0403 19:42:01.152806  9566 net.cpp:148] Top shape: 24 832 7 7 (978432)
I0403 19:42:01.152818  9566 net.cpp:156] Memory required for data: 1292125728
I0403 19:42:01.152832  9566 layer_factory.hpp:77] Creating layer inception_5a/1x1
I0403 19:42:01.152853  9566 net.cpp:91] Creating Layer inception_5a/1x1
I0403 19:42:01.152869  9566 net.cpp:425] inception_5a/1x1 <- pool4/3x3_s2_pool4/3x3_s2_0_split_0
I0403 19:42:01.152889  9566 net.cpp:399] inception_5a/1x1 -> inception_5a/1x1
I0403 19:42:01.155642  9566 net.cpp:141] Setting up inception_5a/1x1
I0403 19:42:01.155670  9566 net.cpp:148] Top shape: 24 256 7 7 (301056)
I0403 19:42:01.155686  9566 net.cpp:156] Memory required for data: 1293329952
I0403 19:42:01.155704  9566 layer_factory.hpp:77] Creating layer inception_5a/relu_1x1
I0403 19:42:01.155720  9566 net.cpp:91] Creating Layer inception_5a/relu_1x1
I0403 19:42:01.155736  9566 net.cpp:425] inception_5a/relu_1x1 <- inception_5a/1x1
I0403 19:42:01.155755  9566 net.cpp:386] inception_5a/relu_1x1 -> inception_5a/1x1 (in-place)
I0403 19:42:01.156054  9566 net.cpp:141] Setting up inception_5a/relu_1x1
I0403 19:42:01.156081  9566 net.cpp:148] Top shape: 24 256 7 7 (301056)
I0403 19:42:01.156095  9566 net.cpp:156] Memory required for data: 1294534176
I0403 19:42:01.156110  9566 layer_factory.hpp:77] Creating layer inception_5a/3x3_reduce
I0403 19:42:01.156132  9566 net.cpp:91] Creating Layer inception_5a/3x3_reduce
I0403 19:42:01.156150  9566 net.cpp:425] inception_5a/3x3_reduce <- pool4/3x3_s2_pool4/3x3_s2_0_split_1
I0403 19:42:01.156172  9566 net.cpp:399] inception_5a/3x3_reduce -> inception_5a/3x3_reduce
I0403 19:42:01.158540  9566 net.cpp:141] Setting up inception_5a/3x3_reduce
I0403 19:42:01.158567  9566 net.cpp:148] Top shape: 24 160 7 7 (188160)
I0403 19:42:01.158582  9566 net.cpp:156] Memory required for data: 1295286816
I0403 19:42:01.158601  9566 layer_factory.hpp:77] Creating layer inception_5a/relu_3x3_reduce
I0403 19:42:01.158620  9566 net.cpp:91] Creating Layer inception_5a/relu_3x3_reduce
I0403 19:42:01.158637  9566 net.cpp:425] inception_5a/relu_3x3_reduce <- inception_5a/3x3_reduce
I0403 19:42:01.158654  9566 net.cpp:386] inception_5a/relu_3x3_reduce -> inception_5a/3x3_reduce (in-place)
I0403 19:42:01.158835  9566 net.cpp:141] Setting up inception_5a/relu_3x3_reduce
I0403 19:42:01.158860  9566 net.cpp:148] Top shape: 24 160 7 7 (188160)
I0403 19:42:01.158875  9566 net.cpp:156] Memory required for data: 1296039456
I0403 19:42:01.158890  9566 layer_factory.hpp:77] Creating layer inception_5a/3x3
I0403 19:42:01.158913  9566 net.cpp:91] Creating Layer inception_5a/3x3
I0403 19:42:01.158931  9566 net.cpp:425] inception_5a/3x3 <- inception_5a/3x3_reduce
I0403 19:42:01.158951  9566 net.cpp:399] inception_5a/3x3 -> inception_5a/3x3
I0403 19:42:01.163779  9566 net.cpp:141] Setting up inception_5a/3x3
I0403 19:42:01.163808  9566 net.cpp:148] Top shape: 24 320 7 7 (376320)
I0403 19:42:01.163825  9566 net.cpp:156] Memory required for data: 1297544736
I0403 19:42:01.163842  9566 layer_factory.hpp:77] Creating layer inception_5a/relu_3x3
I0403 19:42:01.163861  9566 net.cpp:91] Creating Layer inception_5a/relu_3x3
I0403 19:42:01.163877  9566 net.cpp:425] inception_5a/relu_3x3 <- inception_5a/3x3
I0403 19:42:01.163897  9566 net.cpp:386] inception_5a/relu_3x3 -> inception_5a/3x3 (in-place)
I0403 19:42:01.164183  9566 net.cpp:141] Setting up inception_5a/relu_3x3
I0403 19:42:01.164211  9566 net.cpp:148] Top shape: 24 320 7 7 (376320)
I0403 19:42:01.164227  9566 net.cpp:156] Memory required for data: 1299050016
I0403 19:42:01.164242  9566 layer_factory.hpp:77] Creating layer inception_5a/5x5_reduce
I0403 19:42:01.164276  9566 net.cpp:91] Creating Layer inception_5a/5x5_reduce
I0403 19:42:01.164294  9566 net.cpp:425] inception_5a/5x5_reduce <- pool4/3x3_s2_pool4/3x3_s2_0_split_2
I0403 19:42:01.164314  9566 net.cpp:399] inception_5a/5x5_reduce -> inception_5a/5x5_reduce
I0403 19:42:01.165467  9566 net.cpp:141] Setting up inception_5a/5x5_reduce
I0403 19:42:01.165508  9566 net.cpp:148] Top shape: 24 32 7 7 (37632)
I0403 19:42:01.165524  9566 net.cpp:156] Memory required for data: 1299200544
I0403 19:42:01.165542  9566 layer_factory.hpp:77] Creating layer inception_5a/relu_5x5_reduce
I0403 19:42:01.165560  9566 net.cpp:91] Creating Layer inception_5a/relu_5x5_reduce
I0403 19:42:01.165576  9566 net.cpp:425] inception_5a/relu_5x5_reduce <- inception_5a/5x5_reduce
I0403 19:42:01.165596  9566 net.cpp:386] inception_5a/relu_5x5_reduce -> inception_5a/5x5_reduce (in-place)
I0403 19:42:01.165881  9566 net.cpp:141] Setting up inception_5a/relu_5x5_reduce
I0403 19:42:01.165906  9566 net.cpp:148] Top shape: 24 32 7 7 (37632)
I0403 19:42:01.165921  9566 net.cpp:156] Memory required for data: 1299351072
I0403 19:42:01.165935  9566 layer_factory.hpp:77] Creating layer inception_5a/5x5
I0403 19:42:01.165957  9566 net.cpp:91] Creating Layer inception_5a/5x5
I0403 19:42:01.165976  9566 net.cpp:425] inception_5a/5x5 <- inception_5a/5x5_reduce
I0403 19:42:01.165995  9566 net.cpp:399] inception_5a/5x5 -> inception_5a/5x5
I0403 19:42:01.167629  9566 net.cpp:141] Setting up inception_5a/5x5
I0403 19:42:01.167670  9566 net.cpp:148] Top shape: 24 128 7 7 (150528)
I0403 19:42:01.167686  9566 net.cpp:156] Memory required for data: 1299953184
I0403 19:42:01.167704  9566 layer_factory.hpp:77] Creating layer inception_5a/relu_5x5
I0403 19:42:01.167721  9566 net.cpp:91] Creating Layer inception_5a/relu_5x5
I0403 19:42:01.167739  9566 net.cpp:425] inception_5a/relu_5x5 <- inception_5a/5x5
I0403 19:42:01.167759  9566 net.cpp:386] inception_5a/relu_5x5 -> inception_5a/5x5 (in-place)
I0403 19:42:01.167940  9566 net.cpp:141] Setting up inception_5a/relu_5x5
I0403 19:42:01.167964  9566 net.cpp:148] Top shape: 24 128 7 7 (150528)
I0403 19:42:01.167979  9566 net.cpp:156] Memory required for data: 1300555296
I0403 19:42:01.167994  9566 layer_factory.hpp:77] Creating layer inception_5a/pool
I0403 19:42:01.168011  9566 net.cpp:91] Creating Layer inception_5a/pool
I0403 19:42:01.168026  9566 net.cpp:425] inception_5a/pool <- pool4/3x3_s2_pool4/3x3_s2_0_split_3
I0403 19:42:01.168046  9566 net.cpp:399] inception_5a/pool -> inception_5a/pool
I0403 19:42:01.168112  9566 net.cpp:141] Setting up inception_5a/pool
I0403 19:42:01.168136  9566 net.cpp:148] Top shape: 24 832 7 7 (978432)
I0403 19:42:01.168150  9566 net.cpp:156] Memory required for data: 1304469024
I0403 19:42:01.168165  9566 layer_factory.hpp:77] Creating layer inception_5a/pool_proj
I0403 19:42:01.168200  9566 net.cpp:91] Creating Layer inception_5a/pool_proj
I0403 19:42:01.168218  9566 net.cpp:425] inception_5a/pool_proj <- inception_5a/pool
I0403 19:42:01.168237  9566 net.cpp:399] inception_5a/pool_proj -> inception_5a/pool_proj
I0403 19:42:01.170439  9566 net.cpp:141] Setting up inception_5a/pool_proj
I0403 19:42:01.170486  9566 net.cpp:148] Top shape: 24 128 7 7 (150528)
I0403 19:42:01.170505  9566 net.cpp:156] Memory required for data: 1305071136
I0403 19:42:01.170522  9566 layer_factory.hpp:77] Creating layer inception_5a/relu_pool_proj
I0403 19:42:01.170541  9566 net.cpp:91] Creating Layer inception_5a/relu_pool_proj
I0403 19:42:01.170557  9566 net.cpp:425] inception_5a/relu_pool_proj <- inception_5a/pool_proj
I0403 19:42:01.170574  9566 net.cpp:386] inception_5a/relu_pool_proj -> inception_5a/pool_proj (in-place)
I0403 19:42:01.170855  9566 net.cpp:141] Setting up inception_5a/relu_pool_proj
I0403 19:42:01.170881  9566 net.cpp:148] Top shape: 24 128 7 7 (150528)
I0403 19:42:01.170897  9566 net.cpp:156] Memory required for data: 1305673248
I0403 19:42:01.170912  9566 layer_factory.hpp:77] Creating layer inception_5a/output
I0403 19:42:01.170929  9566 net.cpp:91] Creating Layer inception_5a/output
I0403 19:42:01.170946  9566 net.cpp:425] inception_5a/output <- inception_5a/1x1
I0403 19:42:01.170963  9566 net.cpp:425] inception_5a/output <- inception_5a/3x3
I0403 19:42:01.170979  9566 net.cpp:425] inception_5a/output <- inception_5a/5x5
I0403 19:42:01.170994  9566 net.cpp:425] inception_5a/output <- inception_5a/pool_proj
I0403 19:42:01.171010  9566 net.cpp:399] inception_5a/output -> inception_5a/output
I0403 19:42:01.171061  9566 net.cpp:141] Setting up inception_5a/output
I0403 19:42:01.171083  9566 net.cpp:148] Top shape: 24 832 7 7 (978432)
I0403 19:42:01.171098  9566 net.cpp:156] Memory required for data: 1309586976
I0403 19:42:01.171111  9566 layer_factory.hpp:77] Creating layer inception_5a/output_inception_5a/output_0_split
I0403 19:42:01.171130  9566 net.cpp:91] Creating Layer inception_5a/output_inception_5a/output_0_split
I0403 19:42:01.171146  9566 net.cpp:425] inception_5a/output_inception_5a/output_0_split <- inception_5a/output
I0403 19:42:01.171164  9566 net.cpp:399] inception_5a/output_inception_5a/output_0_split -> inception_5a/output_inception_5a/output_0_split_0
I0403 19:42:01.171183  9566 net.cpp:399] inception_5a/output_inception_5a/output_0_split -> inception_5a/output_inception_5a/output_0_split_1
I0403 19:42:01.171203  9566 net.cpp:399] inception_5a/output_inception_5a/output_0_split -> inception_5a/output_inception_5a/output_0_split_2
I0403 19:42:01.171221  9566 net.cpp:399] inception_5a/output_inception_5a/output_0_split -> inception_5a/output_inception_5a/output_0_split_3
I0403 19:42:01.171331  9566 net.cpp:141] Setting up inception_5a/output_inception_5a/output_0_split
I0403 19:42:01.171355  9566 net.cpp:148] Top shape: 24 832 7 7 (978432)
I0403 19:42:01.171370  9566 net.cpp:148] Top shape: 24 832 7 7 (978432)
I0403 19:42:01.171386  9566 net.cpp:148] Top shape: 24 832 7 7 (978432)
I0403 19:42:01.171401  9566 net.cpp:148] Top shape: 24 832 7 7 (978432)
I0403 19:42:01.171416  9566 net.cpp:156] Memory required for data: 1325241888
I0403 19:42:01.171427  9566 layer_factory.hpp:77] Creating layer inception_5b/1x1
I0403 19:42:01.171449  9566 net.cpp:91] Creating Layer inception_5b/1x1
I0403 19:42:01.171473  9566 net.cpp:425] inception_5b/1x1 <- inception_5a/output_inception_5a/output_0_split_0
I0403 19:42:01.171495  9566 net.cpp:399] inception_5b/1x1 -> inception_5b/1x1
I0403 19:42:01.175127  9566 net.cpp:141] Setting up inception_5b/1x1
I0403 19:42:01.175154  9566 net.cpp:148] Top shape: 24 384 7 7 (451584)
I0403 19:42:01.175170  9566 net.cpp:156] Memory required for data: 1327048224
I0403 19:42:01.175189  9566 layer_factory.hpp:77] Creating layer inception_5b/relu_1x1
I0403 19:42:01.175207  9566 net.cpp:91] Creating Layer inception_5b/relu_1x1
I0403 19:42:01.175225  9566 net.cpp:425] inception_5b/relu_1x1 <- inception_5b/1x1
I0403 19:42:01.175241  9566 net.cpp:386] inception_5b/relu_1x1 -> inception_5b/1x1 (in-place)
I0403 19:42:01.175537  9566 net.cpp:141] Setting up inception_5b/relu_1x1
I0403 19:42:01.175565  9566 net.cpp:148] Top shape: 24 384 7 7 (451584)
I0403 19:42:01.175588  9566 net.cpp:156] Memory required for data: 1328854560
I0403 19:42:01.175613  9566 layer_factory.hpp:77] Creating layer inception_5b/3x3_reduce
I0403 19:42:01.175637  9566 net.cpp:91] Creating Layer inception_5b/3x3_reduce
I0403 19:42:01.175671  9566 net.cpp:425] inception_5b/3x3_reduce <- inception_5a/output_inception_5a/output_0_split_1
I0403 19:42:01.175691  9566 net.cpp:399] inception_5b/3x3_reduce -> inception_5b/3x3_reduce
I0403 19:42:01.178249  9566 net.cpp:141] Setting up inception_5b/3x3_reduce
I0403 19:42:01.178280  9566 net.cpp:148] Top shape: 24 192 7 7 (225792)
I0403 19:42:01.178297  9566 net.cpp:156] Memory required for data: 1329757728
I0403 19:42:01.178316  9566 layer_factory.hpp:77] Creating layer inception_5b/relu_3x3_reduce
I0403 19:42:01.178333  9566 net.cpp:91] Creating Layer inception_5b/relu_3x3_reduce
I0403 19:42:01.178349  9566 net.cpp:425] inception_5b/relu_3x3_reduce <- inception_5b/3x3_reduce
I0403 19:42:01.178366  9566 net.cpp:386] inception_5b/relu_3x3_reduce -> inception_5b/3x3_reduce (in-place)
I0403 19:42:01.178553  9566 net.cpp:141] Setting up inception_5b/relu_3x3_reduce
I0403 19:42:01.178580  9566 net.cpp:148] Top shape: 24 192 7 7 (225792)
I0403 19:42:01.178593  9566 net.cpp:156] Memory required for data: 1330660896
I0403 19:42:01.178608  9566 layer_factory.hpp:77] Creating layer inception_5b/3x3
I0403 19:42:01.178629  9566 net.cpp:91] Creating Layer inception_5b/3x3
I0403 19:42:01.178647  9566 net.cpp:425] inception_5b/3x3 <- inception_5b/3x3_reduce
I0403 19:42:01.178668  9566 net.cpp:399] inception_5b/3x3 -> inception_5b/3x3
I0403 19:42:01.185143  9566 net.cpp:141] Setting up inception_5b/3x3
I0403 19:42:01.185173  9566 net.cpp:148] Top shape: 24 384 7 7 (451584)
I0403 19:42:01.185190  9566 net.cpp:156] Memory required for data: 1332467232
I0403 19:42:01.185209  9566 layer_factory.hpp:77] Creating layer inception_5b/relu_3x3
I0403 19:42:01.185225  9566 net.cpp:91] Creating Layer inception_5b/relu_3x3
I0403 19:42:01.185242  9566 net.cpp:425] inception_5b/relu_3x3 <- inception_5b/3x3
I0403 19:42:01.185259  9566 net.cpp:386] inception_5b/relu_3x3 -> inception_5b/3x3 (in-place)
I0403 19:42:01.185554  9566 net.cpp:141] Setting up inception_5b/relu_3x3
I0403 19:42:01.185581  9566 net.cpp:148] Top shape: 24 384 7 7 (451584)
I0403 19:42:01.185598  9566 net.cpp:156] Memory required for data: 1334273568
I0403 19:42:01.185613  9566 layer_factory.hpp:77] Creating layer inception_5b/5x5_reduce
I0403 19:42:01.185649  9566 net.cpp:91] Creating Layer inception_5b/5x5_reduce
I0403 19:42:01.185667  9566 net.cpp:425] inception_5b/5x5_reduce <- inception_5a/output_inception_5a/output_0_split_2
I0403 19:42:01.185686  9566 net.cpp:399] inception_5b/5x5_reduce -> inception_5b/5x5_reduce
I0403 19:42:01.186887  9566 net.cpp:141] Setting up inception_5b/5x5_reduce
I0403 19:42:01.186918  9566 net.cpp:148] Top shape: 24 48 7 7 (56448)
I0403 19:42:01.186933  9566 net.cpp:156] Memory required for data: 1334499360
I0403 19:42:01.186952  9566 layer_factory.hpp:77] Creating layer inception_5b/relu_5x5_reduce
I0403 19:42:01.186969  9566 net.cpp:91] Creating Layer inception_5b/relu_5x5_reduce
I0403 19:42:01.186985  9566 net.cpp:425] inception_5b/relu_5x5_reduce <- inception_5b/5x5_reduce
I0403 19:42:01.187003  9566 net.cpp:386] inception_5b/relu_5x5_reduce -> inception_5b/5x5_reduce (in-place)
I0403 19:42:01.187360  9566 net.cpp:141] Setting up inception_5b/relu_5x5_reduce
I0403 19:42:01.187386  9566 net.cpp:148] Top shape: 24 48 7 7 (56448)
I0403 19:42:01.187399  9566 net.cpp:156] Memory required for data: 1334725152
I0403 19:42:01.187413  9566 layer_factory.hpp:77] Creating layer inception_5b/5x5
I0403 19:42:01.187433  9566 net.cpp:91] Creating Layer inception_5b/5x5
I0403 19:42:01.187449  9566 net.cpp:425] inception_5b/5x5 <- inception_5b/5x5_reduce
I0403 19:42:01.187476  9566 net.cpp:399] inception_5b/5x5 -> inception_5b/5x5
I0403 19:42:01.189435  9566 net.cpp:141] Setting up inception_5b/5x5
I0403 19:42:01.189467  9566 net.cpp:148] Top shape: 24 128 7 7 (150528)
I0403 19:42:01.189507  9566 net.cpp:156] Memory required for data: 1335327264
I0403 19:42:01.189524  9566 layer_factory.hpp:77] Creating layer inception_5b/relu_5x5
I0403 19:42:01.189543  9566 net.cpp:91] Creating Layer inception_5b/relu_5x5
I0403 19:42:01.189561  9566 net.cpp:425] inception_5b/relu_5x5 <- inception_5b/5x5
I0403 19:42:01.189579  9566 net.cpp:386] inception_5b/relu_5x5 -> inception_5b/5x5 (in-place)
I0403 19:42:01.189767  9566 net.cpp:141] Setting up inception_5b/relu_5x5
I0403 19:42:01.189792  9566 net.cpp:148] Top shape: 24 128 7 7 (150528)
I0403 19:42:01.189806  9566 net.cpp:156] Memory required for data: 1335929376
I0403 19:42:01.189821  9566 layer_factory.hpp:77] Creating layer inception_5b/pool
I0403 19:42:01.189841  9566 net.cpp:91] Creating Layer inception_5b/pool
I0403 19:42:01.189857  9566 net.cpp:425] inception_5b/pool <- inception_5a/output_inception_5a/output_0_split_3
I0403 19:42:01.189874  9566 net.cpp:399] inception_5b/pool -> inception_5b/pool
I0403 19:42:01.189944  9566 net.cpp:141] Setting up inception_5b/pool
I0403 19:42:01.189967  9566 net.cpp:148] Top shape: 24 832 7 7 (978432)
I0403 19:42:01.189981  9566 net.cpp:156] Memory required for data: 1339843104
I0403 19:42:01.189996  9566 layer_factory.hpp:77] Creating layer inception_5b/pool_proj
I0403 19:42:01.190017  9566 net.cpp:91] Creating Layer inception_5b/pool_proj
I0403 19:42:01.190035  9566 net.cpp:425] inception_5b/pool_proj <- inception_5b/pool
I0403 19:42:01.190055  9566 net.cpp:399] inception_5b/pool_proj -> inception_5b/pool_proj
I0403 19:42:01.192245  9566 net.cpp:141] Setting up inception_5b/pool_proj
I0403 19:42:01.192276  9566 net.cpp:148] Top shape: 24 128 7 7 (150528)
I0403 19:42:01.192291  9566 net.cpp:156] Memory required for data: 1340445216
I0403 19:42:01.192309  9566 layer_factory.hpp:77] Creating layer inception_5b/relu_pool_proj
I0403 19:42:01.192327  9566 net.cpp:91] Creating Layer inception_5b/relu_pool_proj
I0403 19:42:01.192342  9566 net.cpp:425] inception_5b/relu_pool_proj <- inception_5b/pool_proj
I0403 19:42:01.192361  9566 net.cpp:386] inception_5b/relu_pool_proj -> inception_5b/pool_proj (in-place)
I0403 19:42:01.192656  9566 net.cpp:141] Setting up inception_5b/relu_pool_proj
I0403 19:42:01.192685  9566 net.cpp:148] Top shape: 24 128 7 7 (150528)
I0403 19:42:01.192701  9566 net.cpp:156] Memory required for data: 1341047328
I0403 19:42:01.192716  9566 layer_factory.hpp:77] Creating layer inception_5b/output
I0403 19:42:01.192734  9566 net.cpp:91] Creating Layer inception_5b/output
I0403 19:42:01.192762  9566 net.cpp:425] inception_5b/output <- inception_5b/1x1
I0403 19:42:01.192780  9566 net.cpp:425] inception_5b/output <- inception_5b/3x3
I0403 19:42:01.192795  9566 net.cpp:425] inception_5b/output <- inception_5b/5x5
I0403 19:42:01.192811  9566 net.cpp:425] inception_5b/output <- inception_5b/pool_proj
I0403 19:42:01.192831  9566 net.cpp:399] inception_5b/output -> inception_5b/output
I0403 19:42:01.192880  9566 net.cpp:141] Setting up inception_5b/output
I0403 19:42:01.192903  9566 net.cpp:148] Top shape: 24 1024 7 7 (1204224)
I0403 19:42:01.192917  9566 net.cpp:156] Memory required for data: 1345864224
I0403 19:42:01.192941  9566 layer_factory.hpp:77] Creating layer pool5/7x7_s1
I0403 19:42:01.192965  9566 net.cpp:91] Creating Layer pool5/7x7_s1
I0403 19:42:01.192981  9566 net.cpp:425] pool5/7x7_s1 <- inception_5b/output
I0403 19:42:01.192998  9566 net.cpp:399] pool5/7x7_s1 -> pool5/7x7_s1
I0403 19:42:01.193204  9566 net.cpp:141] Setting up pool5/7x7_s1
I0403 19:42:01.193231  9566 net.cpp:148] Top shape: 24 1024 1 1 (24576)
I0403 19:42:01.193246  9566 net.cpp:156] Memory required for data: 1345962528
I0403 19:42:01.193261  9566 layer_factory.hpp:77] Creating layer pool5/drop_7x7_s1
I0403 19:42:01.193279  9566 net.cpp:91] Creating Layer pool5/drop_7x7_s1
I0403 19:42:01.193294  9566 net.cpp:425] pool5/drop_7x7_s1 <- pool5/7x7_s1
I0403 19:42:01.193311  9566 net.cpp:386] pool5/drop_7x7_s1 -> pool5/7x7_s1 (in-place)
I0403 19:42:01.193358  9566 net.cpp:141] Setting up pool5/drop_7x7_s1
I0403 19:42:01.193382  9566 net.cpp:148] Top shape: 24 1024 1 1 (24576)
I0403 19:42:01.193395  9566 net.cpp:156] Memory required for data: 1346060832
I0403 19:42:01.193410  9566 layer_factory.hpp:77] Creating layer loss3/classifier_plantvillage
I0403 19:42:01.193430  9566 net.cpp:91] Creating Layer loss3/classifier_plantvillage
I0403 19:42:01.193447  9566 net.cpp:425] loss3/classifier_plantvillage <- pool5/7x7_s1
I0403 19:42:01.193475  9566 net.cpp:399] loss3/classifier_plantvillage -> loss3/classifier_plantvillage
I0403 19:42:01.193878  9566 net.cpp:141] Setting up loss3/classifier_plantvillage
I0403 19:42:01.193903  9566 net.cpp:148] Top shape: 24 38 (912)
I0403 19:42:01.193918  9566 net.cpp:156] Memory required for data: 1346064480
I0403 19:42:01.193936  9566 layer_factory.hpp:77] Creating layer loss3/classifier_plantvillage_loss3/classifier_plantvillage_0_split
I0403 19:42:01.193956  9566 net.cpp:91] Creating Layer loss3/classifier_plantvillage_loss3/classifier_plantvillage_0_split
I0403 19:42:01.193972  9566 net.cpp:425] loss3/classifier_plantvillage_loss3/classifier_plantvillage_0_split <- loss3/classifier_plantvillage
I0403 19:42:01.193990  9566 net.cpp:399] loss3/classifier_plantvillage_loss3/classifier_plantvillage_0_split -> loss3/classifier_plantvillage_loss3/classifier_plantvillage_0_split_0
I0403 19:42:01.194010  9566 net.cpp:399] loss3/classifier_plantvillage_loss3/classifier_plantvillage_0_split -> loss3/classifier_plantvillage_loss3/classifier_plantvillage_0_split_1
I0403 19:42:01.194028  9566 net.cpp:399] loss3/classifier_plantvillage_loss3/classifier_plantvillage_0_split -> loss3/classifier_plantvillage_loss3/classifier_plantvillage_0_split_2
I0403 19:42:01.194046  9566 net.cpp:399] loss3/classifier_plantvillage_loss3/classifier_plantvillage_0_split -> loss3/classifier_plantvillage_loss3/classifier_plantvillage_0_split_3
I0403 19:42:01.194142  9566 net.cpp:141] Setting up loss3/classifier_plantvillage_loss3/classifier_plantvillage_0_split
I0403 19:42:01.194164  9566 net.cpp:148] Top shape: 24 38 (912)
I0403 19:42:01.194180  9566 net.cpp:148] Top shape: 24 38 (912)
I0403 19:42:01.194208  9566 net.cpp:148] Top shape: 24 38 (912)
I0403 19:42:01.194224  9566 net.cpp:148] Top shape: 24 38 (912)
I0403 19:42:01.194238  9566 net.cpp:156] Memory required for data: 1346079072
I0403 19:42:01.194253  9566 layer_factory.hpp:77] Creating layer loss1/loss
I0403 19:42:01.194277  9566 net.cpp:91] Creating Layer loss1/loss
I0403 19:42:01.194294  9566 net.cpp:425] loss1/loss <- loss1/classifier_plantvillage_loss1/classifier_plantvillage_0_split_0
I0403 19:42:01.194324  9566 net.cpp:425] loss1/loss <- label_data_1_split_0
…
