…
I0403 19:44:48.244848  9621 net.cpp:313] The NetState phase (1) differed from the phase (0) specified by a rule in layer data
I0403 19:44:48.245980  9621 net.cpp:49] Initializing net from parameters: 
state {
  phase: TEST
}
layer {
  name: "data"
  type: "Data"
  top: "data"
  top: "label"
  include {
    phase: TEST
  }
  transform_param {
    mirror: false
    crop_size: 224
    mean_file: "/home/mohanty/data/final_dataset/lmdb/color-60-40/mean.binaryproto"
  }
  data_param {
    source: "/home/mohanty/data/final_dataset/lmdb/color-60-40/test_db"
    batch_size: 24
    backend: LMDB
  }
}
layer {
  name: "conv1/7x7_s2"
  type: "Convolution"
  bottom: "data"
  top: "conv1/7x7_s2"
  param {
    lr_mult: 1
    decay_mult: 1
  }
  param {
    lr_mult: 2
    decay_mult: 0
  }
  convolution_param {
    num_output: 64
    pad: 3
    kernel_size: 7
    stride: 2
    weight_filler {
      type: "xavier"
      std: 0.1
    }
    bias_filler {
      type: "constant"
      value: 0.2
    }
  }
}
layer {
  name: "conv1/relu_7x7"
  type: "ReLU"
  bottom: "conv1/7x7_s2"
  top: "conv1/7x7_s2"
}
layer {
  name: "pool1/3x3_s2"
  type: "Pooling"
  bottom: "conv1/7x7_s2"
  top: "pool1/3x3_s2"
  pooling_param {
    pool: MAX
    kernel_size: 3
    stride: 2
  }
}
layer {
  name: "pool1/norm1"
  type: "LRN"
  bottom: "pool1/3x3_s2"
  top: "pool1/norm1"
  lrn_param {
    local_size: 5
    alpha: 0.0001
    beta: 0.75
  }
}
layer {
  name: "conv2/3x3_reduce"
  type: "Convolution"
  bottom: "pool1/norm1"
  top: "conv2/3x3_reduce"
  param {
    lr_mult: 1
    decay_mult: 1
  }
  param {
    lr_mult: 2
    decay_mult: 0
  }
  convolution_param {
    num_output: 64
    kernel_size: 1
    weight_filler {
      type: "xavier"
      std: 0.1
    }
    bias_filler {
      type: "constant"
      value: 0.2
    }
  }
}
layer {
  name: "conv2/relu_3x3_reduce"
  type: "ReLU"
  bottom: "conv2/3x3_reduce"
  top: "conv2/3x3_reduce"
}
layer {
  name: "conv2/3x3"
  type: "Convolution"
  bottom: "conv2/3x3_reduce"
  top: "conv2/3x3"
  param {
    lr_mult: 1
    decay_mult: 1
  }
  param {
    lr_mult: 2
    decay_mult: 0
  }
  convolution_param {
    num_output: 192
    pad: 1
    kernel_size: 3
    weight_filler {
      type: "xavier"
      std: 0.03
    }
    bias_filler {
      type: "constant"
      value: 0.2
    }
  }
}
layer {
  name: "conv2/relu_3x3"
  type: "ReLU"
  bottom: "conv2/3x3"
  top: "conv2/3x3"
}
layer {
  name: "conv2/norm2"
  type: "LRN"
  bottom: "conv2/3x3"
  top: "conv2/norm2"
  lrn_param {
    local_size: 5
    alpha: 0.0001
    beta: 0.75
  }
}
layer {
  name: "pool2/3x3_s2"
  type: "Pooling"
  bottom: "conv2/norm2"
  top: "pool2/3x3_s2"
  pooling_param {
    pool: MAX
    kernel_size: 3
    stride: 2
  }
}
layer {
  name: "inception_3a/1x1"
  type: "Convolution"
  bottom: "pool2/3x3_s2"
  top: "inception_3a/1x1"
  param {
    lr_mult: 1
    decay_mult: 1
  }
  param {
    lr_mult: 2
    decay_mult: 0
  }
  convolution_param {
    num_output: 64
    kernel_size: 1
    weight_filler {
      type: "xavier"
      std: 0.03
    }
    bias_filler {
      type: "constant"
      value: 0.2
    }
  }
}
layer {
  name: "inception_3a/relu_1x1"
  type: "ReLU"
  bottom: "inception_3a/1x1"
  top: "inception_3a/1x1"
}
layer {
  name: "inception_3a/3x3_reduce"
  type: "Convolution"
  bottom: "pool2/3x3_s2"
  top: "inception_3a/3x3_reduce"
  param {
    lr_mult: 1
    decay_mult: 1
  }
  param {
    lr_mult: 2
    decay_mult: 0
  }
  convolution_param {
    num_output: 96
    kernel_size: 1
    weight_filler {
      type: "xavier"
      std: 0.09
    }
    bias_filler {
      type: "constant"
      value: 0.2
    }
  }
}
layer {
  name: "inception_3a/relu_3x3_reduce"
  type: "ReLU"
  bottom: "inception_3a/3x3_reduce"
  top: "inception_3a/3x3_reduce"
}
layer {
  name: "inception_3a/3x3"
  type: "Convolution"
  bottom: "inception_3a/3x3_reduce"
  top: "inception_3a/3x3"
  param {
    lr_mult: 1
    decay_mult: 1
  }
  param {
    lr_mult: 2
    decay_mult: 0
  }
  convolution_param {
    num_output: 128
    pad: 1
    kernel_size: 3
    weight_filler {
      type: "xavier"
      std: 0.03
    }
    bias_filler {
      type: "constant"
      value: 0.2
    }
  }
}
layer {
  name: "inception_3a/relu_3x3"
  type: "ReLU"
  bottom: "inception_3a/3x3"
  top: "inception_3a/3x3"
}
layer {
  name: "inception_3a/5x5_reduce"
  type: "Convolution"
  bottom: "pool2/3x3_s2"
  top: "inception_3a/5x5_reduce"
  param {
    lr_mult: 1
    decay_mult: 1
  }
  param {
    lr_mult: 2
    decay_mult: 0
  }
  convolution_param {
    num_output: 16
    kernel_size: 1
    weight_filler {
      type: "xavier"
      std: 0.2
    }
    bias_filler {
      type: "constant"
      value: 0.2
    }
  }
}
layer {
  name: "inception_3a/relu_5x5_reduce"
  type: "ReLU"
  bottom: "inception_3a/5x5_reduce"
  top: "inception_3a/5x5_reduce"
}
layer {
  name: "inception_3a/5x5"
  type: "Convolution"
  bottom: "inception_3a/5x5_reduce"
  top: "inception_3a/5x5"
  param {
    lr_mult: 1
    decay_mult: 1
  }
  param {
    lr_mult: 2
    decay_mult: 0
  }
  convolution_param {
    num_output: 32
    pad: 2
    kernel_size: 5
    weight_filler {
      type: "xavier"
      std: 0.03
    }
    bias_filler {
      type: "constant"
      value: 0.2
    }
  }
}
layer {
  name: "inception_3a/relu_5x5"
  type: "ReLU"
  bottom: "inception_3a/5x5"
  top: "inception_3a/5x5"
}
layer {
  name: "inception_3a/pool"
  type: "Pooling"
  bottom: "pool2/3x3_s2"
  top: "inception_3a/pool"
  pooling_param {
    pool: MAX
    kernel_size: 3
    stride: 1
    pad: 1
  }
}
layer {
  name: "inception_3a/pool_proj"
  type: "Convolution"
  bottom: "inception_3a/pool"
  top: "inception_3a/pool_proj"
  param {
    lr_mult: 1
    decay_mult: 1
  }
  param {
    lr_mult: 2
    decay_mult: 0
  }
  convolution_param {
    num_output: 32
    kernel_size: 1
    weight_filler {
      type: "xavier"
      std: 0.1
    }
    bias_filler {
      type: "constant"
      value: 0.2
    }
  }
}
layer {
  name: "inception_3a/relu_pool_proj"
  type: "ReLU"
  bottom: "inception_3a/pool_proj"
  top: "inception_3a/pool_proj"
}
layer {
  name: "inception_3a/output"
  type: "Concat"
  bottom: "inception_3a/1x1"
  bottom: "inception_3a/3x3"
  bottom: "inception_3a/5x5"
  bottom: "inception_3a/pool_proj"
  top: "inception_3a/output"
}
layer {
  name: "inception_3b/1x1"
  type: "Convolution"
  bottom: "inception_3a/output"
  top: "inception_3b/1x1"
  param {
    lr_mult: 1
    decay_mult: 1
  }
  param {
    lr_mult: 2
    decay_mult: 0
  }
  convolution_param {
    num_output: 128
    kernel_size: 1
    weight_filler {
      type: "xavier"
      std: 0.03
    }
    bias_filler {
      type: "constant"
      value: 0.2
    }
  }
}
layer {
  name: "inception_3b/relu_1x1"
  type: "ReLU"
  bottom: "inception_3b/1x1"
  top: "inception_3b/1x1"
}
layer {
  name: "inception_3b/3x3_reduce"
  type: "Convolution"
  bottom: "inception_3a/output"
  top: "inception_3b/3x3_reduce"
  param {
    lr_mult: 1
    decay_mult: 1
  }
  param {
    lr_mult: 2
    decay_mult: 0
  }
  convolution_param {
    num_output: 128
    kernel_size: 1
    weight_filler {
      type: "xavier"
      std: 0.09
    }
    bias_filler {
      type: "constant"
      value: 0.2
    }
  }
}
layer {
  name: "inception_3b/relu_3x3_reduce"
  type: "ReLU"
  bottom: "inception_3b/3x3_reduce"
  top: "inception_3b/3x3_reduce"
}
layer {
  name: "inception_3b/3x3"
  type: "Convolution"
  bottom: "inception_3b/3x3_reduce"
  top: "inception_3b/3x3"
  param {
    lr_mult: 1
    decay_mult: 1
  }
  param {
    lr_mult: 2
    decay_mult: 0
  }
  convolution_param {
    num_output: 192
    pad: 1
    kernel_size: 3
    weight_filler {
      type: "xavier"
      std: 0.03
    }
    bias_filler {
      type: "constant"
      value: 0.2
    }
  }
}
layer {
  name: "inception_3b/relu_3x3"
  type: "ReLU"
  bottom: "inception_3b/3x3"
  top: "inception_3b/3x3"
}
layer {
  name: "inception_3b/5x5_reduce"
  type: "Convolution"
  bottom: "inception_3a/output"
  top: "inception_3b/5x5_reduce"
  param {
    lr_mult: 1
    decay_mult: 1
  }
  param {
    lr_mult: 2
    decay_mult: 0
  }
  convolution_param {
    num_output: 32
    kernel_size: 1
    weight_filler {
      type: "xavier"
      std: 0.2
    }
    bias_filler {
      type: "constant"
      value: 0.2
    }
  }
}
layer {
  name: "inception_3b/relu_5x5_reduce"
  type: "ReLU"
  bottom: "inception_3b/5x5_reduce"
  top: "inception_3b/5x5_reduce"
}
layer {
  name: "inception_3b/5x5"
  type: "Convolution"
  bottom: "inception_3b/5x5_reduce"
  top: "inception_3b/5x5"
  param {
    lr_mult: 1
    decay_mult: 1
  }
  param {
    lr_mult: 2
    decay_mult: 0
  }
  convolution_param {
    num_output: 96
    pad: 2
    kernel_size: 5
    weight_filler {
      type: "xavier"
      std: 0.03
    }
    bias_filler {
      type: "constant"
      value: 0.2
    }
  }
}
layer {
  name: "inception_3b/relu_5x5"
  type: "ReLU"
  bottom: "inception_3b/5x5"
  top: "inception_3b/5x5"
}
layer {
  name: "inception_3b/pool"
  type: "Pooling"
  bottom: "inception_3a/output"
  top: "inception_3b/pool"
  pooling_param {
    pool: MAX
    kernel_size: 3
    stride: 1
    pad: 1
  }
}
layer {
  name: "inception_3b/pool_proj"
  type: "Convolution"
  bottom: "inception_3b/pool"
  top: "inception_3b/pool_proj"
  param {
    lr_mult: 1
    decay_mult: 1
  }
  param {
    lr_mult: 2
    decay_mult: 0
  }
  convolution_param {
    num_output: 64
    kernel_size: 1
    weight_filler {
      type: "xavier"
      std: 0.1
    }
    bias_filler {
      type: "constant"
      value: 0.2
    }
  }
}
layer {
  name: "inception_3b/relu_pool_proj"
  type: "ReLU"
  bottom: "inception_3b/pool_proj"
  top: "inception_3b/pool_proj"
}
layer {
  name: "inception_3b/output"
  type: "Concat"
  bottom: "inception_3b/1x1"
  bottom: "inception_3b/3x3"
  bottom: "inception_3b/5x5"
  bottom: "inception_3b/pool_proj"
  top: "inception_3b/output"
}
layer {
  name: "pool3/3x3_s2"
  type: "Pooling"
  bottom: "inception_3b/output"
  top: "pool3/3x3_s2"
  pooling_param {
    pool: MAX
    kernel_size: 3
    stride: 2
  }
}
layer {
  name: "inception_4a/1x1"
  type: "Convolution"
  bottom: "pool3/3x3_s2"
  top: "inception_4a/1x1"
  param {
    lr_mult: 1
    decay_mult: 1
  }
  param {
    lr_mult: 2
    decay_mult: 0
  }
  convolution_param {
    num_output: 192
    kernel_size: 1
    weight_filler {
      type: "xavier"
      std: 0.03
    }
    bias_filler {
      type: "constant"
      value: 0.2
    }
  }
}
layer {
  name: "inception_4a/relu_1x1"
  type: "ReLU"
  bottom: "inception_4a/1x1"
  top: "inception_4a/1x1"
}
layer {
  name: "inception_4a/3x3_reduce"
  type: "Convolution"
  bottom: "pool3/3x3_s2"
  top: "inception_4a/3x3_reduce"
  param {
    lr_mult: 1
    decay_mult: 1
  }
  param {
    lr_mult: 2
    decay_mult: 0
  }
  convolution_param {
    num_output: 96
    kernel_size: 1
    weight_filler {
      type: "xavier"
      std: 0.09
    }
    bias_filler {
      type: "constant"
      value: 0.2
    }
  }
}
layer {
  name: "inception_4a/relu_3x3_reduce"
  type: "ReLU"
  bottom: "inception_4a/3x3_reduce"
  top: "inception_4a/3x3_reduce"
}
layer {
  name: "inception_4a/3x3"
  type: "Convolution"
  bottom: "inception_4a/3x3_reduce"
  top: "inception_4a/3x3"
  param {
    lr_mult: 1
    decay_mult: 1
  }
  param {
    lr_mult: 2
    decay_mult: 0
  }
  convolution_param {
    num_output: 208
    pad: 1
    kernel_size: 3
    weight_filler {
      type: "xavier"
      std: 0.03
    }
    bias_filler {
      type: "constant"
      value: 0.2
    }
  }
}
layer {
  name: "inception_4a/relu_3x3"
  type: "ReLU"
  bottom: "inception_4a/3x3"
  top: "inception_4a/3x3"
}
layer {
  name: "inception_4a/5x5_reduce"
  type: "Convolution"
  bottom: "pool3/3x3_s2"
  top: "inception_4a/5x5_reduce"
  param {
    lr_mult: 1
    decay_mult: 1
  }
  param {
    lr_mult: 2
    decay_mult: 0
  }
  convolution_param {
    num_output: 16
    kernel_size: 1
    weight_filler {
      type: "xavier"
      std: 0.2
    }
    bias_filler {
      type: "constant"
      value: 0.2
    }
  }
}
layer {
  name: "inception_4a/relu_5x5_reduce"
  type: "ReLU"
  bottom: "inception_4a/5x5_reduce"
  top: "inception_4a/5x5_reduce"
}
layer {
  name: "inception_4a/5x5"
  type: "Convolution"
  bottom: "inception_4a/5x5_reduce"
  top: "inception_4a/5x5"
  param {
    lr_mult: 1
    decay_mult: 1
  }
  param {
    lr_mult: 2
    decay_mult: 0
  }
  convolution_param {
    num_output: 48
    pad: 2
    kernel_size: 5
    weight_filler {
      type: "xavier"
      std: 0.03
    }
    bias_filler {
      type: "constant"
      value: 0.2
    }
  }
}
layer {
  name: "inception_4a/relu_5x5"
  type: "ReLU"
  bottom: "inception_4a/5x5"
  top: "inception_4a/5x5"
}
layer {
  name: "inception_4a/pool"
  type: "Pooling"
  bottom: "pool3/3x3_s2"
  top: "inception_4a/pool"
  pooling_param {
    pool: MAX
    kernel_size: 3
    stride: 1
    pad: 1
  }
}
layer {
  name: "inception_4a/pool_proj"
  type: "Convolution"
  bottom: "inception_4a/pool"
  top: "inception_4a/pool_proj"
  param {
    lr_mult: 1
    decay_mult: 1
  }
  param {
    lr_mult: 2
    decay_mult: 0
  }
  convolution_param {
    num_output: 64
    kernel_size: 1
    weight_filler {
      type: "xavier"
      std: 0.1
    }
    bias_filler {
      type: "constant"
      value: 0.2
    }
  }
}
layer {
  name: "inception_4a/relu_pool_proj"
  type: "ReLU"
  bottom: "inception_4a/pool_proj"
  top: "inception_4a/pool_proj"
}
layer {
  name: "inception_4a/output"
  type: "Concat"
  bottom: "inception_4a/1x1"
  bottom: "inception_4a/3x3"
  bottom: "inception_4a/5x5"
  bottom: "inception_4a/pool_proj"
  top: "inception_4a/output"
}
layer {
  name: "loss1/ave_pool"
  type: "Pooling"
  bottom: "inception_4a/output"
  top: "loss1/ave_pool"
  pooling_param {
    pool: AVE
    kernel_size: 5
    stride: 3
  }
}
layer {
  name: "loss1/conv"
  type: "Convolution"
  bottom: "loss1/ave_pool"
  top: "loss1/conv"
  param {
    lr_mult: 1
    decay_mult: 1
  }
  param {
    lr_mult: 2
    decay_mult: 0
  }
  convolution_param {
    num_output: 128
    kernel_size: 1
    weight_filler {
      type: "xavier"
      std: 0.08
    }
    bias_filler {
      type: "constant"
      value: 0.2
    }
  }
}
layer {
  name: "loss1/relu_conv"
  type: "ReLU"
  bottom: "loss1/conv"
  top: "loss1/conv"
}
layer {
  name: "loss1/fc"
  type: "InnerProduct"
  bottom: "loss1/conv"
  top: "loss1/fc"
  param {
    lr_mult: 1
    decay_mult: 1
  }
  param {
    lr_mult: 2
    decay_mult: 0
  }
  inner_product_param {
    num_output: 1024
    weight_filler {
      type: "xavier"
      std: 0.02
    }
    bias_filler {
      type: "constant"
      value: 0.2
    }
  }
}
layer {
  name: "loss1/relu_fc"
  type: "ReLU"
  bottom: "loss1/fc"
  top: "loss1/fc"
}
layer {
  name: "loss1/drop_fc"
  type: "Dropout"
  bottom: "loss1/fc"
  top: "loss1/fc"
  dropout_param {
    dropout_ratio: 0.7
  }
}
layer {
  name: "loss1/classifier_plantvillage"
  type: "InnerProduct"
  bottom: "loss1/fc"
  top: "loss1/classifier_plantvillage"
  param {
    lr_mult: 1
    decay_mult: 1
  }
  param {
    lr_mult: 2
    decay_mult: 0
  }
  inner_product_param {
    num_output: 38
    weight_filler {
      type: "xavier"
      std: 0.0009765625
    }
    bias_filler {
      type: "constant"
      value: 0
    }
  }
}
layer {
  name: "inception_4b/1x1"
  type: "Convolution"
  bottom: "inception_4a/output"
  top: "inception_4b/1x1"
  param {
    lr_mult: 1
    decay_mult: 1
  }
  param {
    lr_mult: 2
    decay_mult: 0
  }
  convolution_param {
    num_output: 160
    kernel_size: 1
    weight_filler {
      type: "xavier"
      std: 0.03
    }
    bias_filler {
      type: "constant"
      value: 0.2
    }
  }
}
layer {
  name: "inception_4b/relu_1x1"
  type: "ReLU"
  bottom: "inception_4b/1x1"
  top: "inception_4b/1x1"
}
layer {
  name: "inception_4b/3x3_reduce"
  type: "Convolution"
  bottom: "inception_4a/output"
  top: "inception_4b/3x3_reduce"
  param {
    lr_mult: 1
    decay_mult: 1
  }
  param {
    lr_mult: 2
    decay_mult: 0
  }
  convolution_param {
    num_output: 112
    kernel_size: 1
    weight_filler {
      type: "xavier"
      std: 0.09
    }
    bias_filler {
      type: "constant"
      value: 0.2
    }
  }
}
layer {
  name: "inception_4b/relu_3x3_reduce"
  type: "ReLU"
  bottom: "inception_4b/3x3_reduce"
  top: "inception_4b/3x3_reduce"
}
layer {
  name: "inception_4b/3x3"
  type: "Convolution"
  bottom: "inception_4b/3x3_reduce"
  top: "inception_4b/3x3"
  param {
    lr_mult: 1
    decay_mult: 1
  }
  param {
    lr_mult: 2
    decay_mult: 0
  }
  convolution_param {
    num_output: 224
    pad: 1
    kernel_size: 3
    weight_filler {
      type: "xavier"
      std: 0.03
    }
    bias_filler {
      type: "constant"
      value: 0.2
    }
  }
}
layer {
  name: "inception_4b/relu_3x3"
  type: "ReLU"
  bottom: "inception_4b/3x3"
  top: "inception_4b/3x3"
}
layer {
  name: "inception_4b/5x5_reduce"
  type: "Convolution"
  bottom: "inception_4a/output"
  top: "inception_4b/5x5_reduce"
  param {
    lr_mult: 1
    decay_mult: 1
  }
  param {
    lr_mult: 2
    decay_mult: 0
  }
  convolution_param {
    num_output: 24
    kernel_size: 1
    weight_filler {
      type: "xavier"
      std: 0.2
    }
    bias_filler {
      type: "constant"
      value: 0.2
    }
  }
}
layer {
  name: "inception_4b/relu_5x5_reduce"
  type: "ReLU"
  bottom: "inception_4b/5x5_reduce"
  top: "inception_4b/5x5_reduce"
}
layer {
  name: "inception_4b/5x5"
  type: "Convolution"
  bottom: "inception_4b/5x5_reduce"
  top: "inception_4b/5x5"
  param {
    lr_mult: 1
    decay_mult: 1
  }
  param {
    lr_mult: 2
    decay_mult: 0
  }
  convolution_param {
    num_output: 64
    pad: 2
    kernel_size: 5
    weight_filler {
      type: "xavier"
      std: 0.03
    }
    bias_filler {
      type: "constant"
      value: 0.2
    }
  }
}
layer {
  name: "inception_4b/relu_5x5"
  type: "ReLU"
  bottom: "inception_4b/5x5"
  top: "inception_4b/5x5"
}
layer {
  name: "inception_4b/pool"
  type: "Pooling"
  bottom: "inception_4a/output"
  top: "inception_4b/pool"
  pooling_param {
    pool: MAX
    kernel_size: 3
    stride: 1
    pad: 1
  }
}
layer {
  name: "inception_4b/pool_proj"
  type: "Convolution"
  bottom: "inception_4b/pool"
  top: "inception_4b/pool_proj"
  param {
    lr_mult: 1
    decay_mult: 1
  }
  param {
    lr_mult: 2
    decay_mult: 0
  }
  convolution_param {
    num_output: 64
    kernel_size: 1
    weight_filler {
      type: "xavier"
      std: 0.1
    }
    bias_filler {
      type: "constant"
      value: 0.2
    }
  }
}
layer {
  name: "inception_4b/relu_pool_proj"
  type: "ReLU"
  bottom: "inception_4b/pool_proj"
  top: "inception_4b/pool_proj"
}
layer {
  name: "inception_4b/output"
  type: "Concat"
  bottom: "inception_4b/1x1"
  bottom: "inception_4b/3x3"
  bottom: "inception_4b/5x5"
  bottom: "inception_4b/pool_proj"
  top: "inception_4b/output"
}
layer {
  name: "inception_4c/1x1"
  type: "Convolution"
  bottom: "inception_4b/output"
  top: "inception_4c/1x1"
  param {
    lr_mult: 1
    decay_mult: 1
  }
  param {
    lr_mult: 2
    decay_mult: 0
  }
  convolution_param {
    num_output: 128
    kernel_size: 1
    weight_filler {
      type: "xavier"
      std: 0.03
    }
    bias_filler {
      type: "constant"
      value: 0.2
    }
  }
}
layer {
  name: "inception_4c/relu_1x1"
  type: "ReLU"
  bottom: "inception_4c/1x1"
  top: "inception_4c/1x1"
}
layer {
  name: "inception_4c/3x3_reduce"
  type: "Convolution"
  bottom: "inception_4b/output"
  top: "inception_4c/3x3_reduce"
  param {
    lr_mult: 1
    decay_mult: 1
  }
  param {
    lr_mult: 2
    decay_mult: 0
  }
  convolution_param {
    num_output: 128
    kernel_size: 1
    weight_filler {
      type: "xavier"
      std: 0.09
    }
    bias_filler {
      type: "constant"
      value: 0.2
    }
  }
}
layer {
  name: "inception_4c/relu_3x3_reduce"
  type: "ReLU"
  bottom: "inception_4c/3x3_reduce"
  top: "inception_4c/3x3_reduce"
}
layer {
  name: "inception_4c/3x3"
  type: "Convolution"
  bottom: "inception_4c/3x3_reduce"
  top: "inception_4c/3x3"
  param {
    lr_mult: 1
    decay_mult: 1
  }
  param {
    lr_mult: 2
    decay_mult: 0
  }
  convolution_param {
    num_output: 256
    pad: 1
    kernel_size: 3
    weight_filler {
      type: "xavier"
      std: 0.03
    }
    bias_filler {
      type: "constant"
      value: 0.2
    }
  }
}
layer {
  name: "inception_4c/relu_3x3"
  type: "ReLU"
  bottom: "inception_4c/3x3"
  top: "inception_4c/3x3"
}
layer {
  name: "inception_4c/5x5_reduce"
  type: "Convolution"
  bottom: "inception_4b/output"
  top: "inception_4c/5x5_reduce"
  param {
    lr_mult: 1
    decay_mult: 1
  }
  param {
    lr_mult: 2
    decay_mult: 0
  }
  convolution_param {
    num_output: 24
    kernel_size: 1
    weight_filler {
      type: "xavier"
      std: 0.2
    }
    bias_filler {
      type: "constant"
      value: 0.2
    }
  }
}
layer {
  name: "inception_4c/relu_5x5_reduce"
  type: "ReLU"
  bottom: "inception_4c/5x5_reduce"
  top: "inception_4c/5x5_reduce"
}
layer {
  name: "inception_4c/5x5"
  type: "Convolution"
  bottom: "inception_4c/5x5_reduce"
  top: "inception_4c/5x5"
  param {
    lr_mult: 1
    decay_mult: 1
  }
  param {
    lr_mult: 2
    decay_mult: 0
  }
  convolution_param {
    num_output: 64
    pad: 2
    kernel_size: 5
    weight_filler {
      type: "xavier"
      std: 0.03
    }
    bias_filler {
      type: "constant"
      value: 0.2
    }
  }
}
layer {
  name: "inception_4c/relu_5x5"
  type: "ReLU"
  bottom: "inception_4c/5x5"
  top: "inception_4c/5x5"
}
layer {
  name: "inception_4c/pool"
  type: "Pooling"
  bottom: "inception_4b/output"
  top: "inception_4c/pool"
  pooling_param {
    pool: MAX
    kernel_size: 3
    stride: 1
    pad: 1
  }
}
layer {
  name: "inception_4c/pool_proj"
  type: "Convolution"
  bottom: "inception_4c/pool"
  top: "inception_4c/pool_proj"
  param {
    lr_mult: 1
    decay_mult: 1
  }
  param {
    lr_mult: 2
    decay_mult: 0
  }
  convolution_param {
    num_output: 64
    kernel_size: 1
    weight_filler {
      type: "xavier"
      std: 0.1
    }
    bias_filler {
      type: "constant"
      value: 0.2
    }
  }
}
layer {
  name: "inception_4c/relu_pool_proj"
  type: "ReLU"
  bottom: "inception_4c/pool_proj"
  top: "inception_4c/pool_proj"
}
layer {
  name: "inception_4c/output"
  type: "Concat"
  bottom: "inception_4c/1x1"
  bottom: "inception_4c/3x3"
  bottom: "inception_4c/5x5"
  bottom: "inception_4c/pool_proj"
  top: "inception_4c/output"
}
layer {
  name: "inception_4d/1x1"
  type: "Convolution"
  bottom: "inception_4c/output"
  top: "inception_4d/1x1"
  param {
    lr_mult: 1
    decay_mult: 1
  }
  param {
    lr_mult: 2
    decay_mult: 0
  }
  convolution_param {
    num_output: 112
    kernel_size: 1
    weight_filler {
      type: "xavier"
      std: 0.03
    }
    bias_filler {
      type: "constant"
      value: 0.2
    }
  }
}
layer {
  name: "inception_4d/relu_1x1"
  type: "ReLU"
  bottom: "inception_4d/1x1"
  top: "inception_4d/1x1"
}
layer {
  name: "inception_4d/3x3_reduce"
  type: "Convolution"
  bottom: "inception_4c/output"
  top: "inception_4d/3x3_reduce"
  param {
    lr_mult: 1
    decay_mult: 1
  }
  param {
    lr_mult: 2
    decay_mult: 0
  }
  convolution_param {
    num_output: 144
    kernel_size: 1
    weight_filler {
      type: "xavier"
      std: 0.09
    }
    bias_filler {
      type: "constant"
      value: 0.2
    }
  }
}
layer {
  name: "inception_4d/relu_3x3_reduce"
  type: "ReLU"
  bottom: "inception_4d/3x3_reduce"
  top: "inception_4d/3x3_reduce"
}
layer {
  name: "inception_4d/3x3"
  type: "Convolution"
  bottom: "inception_4d/3x3_reduce"
  top: "inception_4d/3x3"
  param {
    lr_mult: 1
    decay_mult: 1
  }
  param {
    lr_mult: 2
    decay_mult: 0
  }
  convolution_param {
    num_output: 288
    pad: 1
    kernel_size: 3
    weight_filler {
      type: "xavier"
      std: 0.03
    }
    bias_filler {
      type: "constant"
      value: 0.2
    }
  }
}
layer {
  name: "inception_4d/relu_3x3"
  type: "ReLU"
  bottom: "inception_4d/3x3"
  top: "inception_4d/3x3"
}
layer {
  name: "inception_4d/5x5_reduce"
  type: "Convolution"
  bottom: "inception_4c/output"
  top: "inception_4d/5x5_reduce"
  param {
    lr_mult: 1
    decay_mult: 1
  }
  param {
    lr_mult: 2
    decay_mult: 0
  }
  convolution_param {
    num_output: 32
    kernel_size: 1
    weight_filler {
      type: "xavier"
      std: 0.2
    }
    bias_filler {
      type: "constant"
      value: 0.2
    }
  }
}
layer {
  name: "inception_4d/relu_5x5_reduce"
  type: "ReLU"
  bottom: "inception_4d/5x5_reduce"
  top: "inception_4d/5x5_reduce"
}
layer {
  name: "inception_4d/5x5"
  type: "Convolution"
  bottom: "inception_4d/5x5_reduce"
  top: "inception_4d/5x5"
  param {
    lr_mult: 1
    decay_mult: 1
  }
  param {
    lr_mult: 2
    decay_mult: 0
  }
  convolution_param {
    num_output: 64
    pad: 2
    kernel_size: 5
    weight_filler {
      type: "xavier"
      std: 0.03
    }
    bias_filler {
      type: "constant"
      value: 0.2
    }
  }
}
layer {
  name: "inception_4d/relu_5x5"
  type: "ReLU"
  bottom: "inception_4d/5x5"
  top: "inception_4d/5x5"
}
layer {
  name: "inception_4d/pool"
  type: "Pooling"
  bottom: "inception_4c/output"
  top: "inception_4d/pool"
  pooling_param {
    pool: MAX
    kernel_size: 3
    stride: 1
    pad: 1
  }
}
layer {
  name: "inception_4d/pool_proj"
  type: "Convolution"
  bottom: "inception_4d/pool"
  top: "inception_4d/pool_proj"
  param {
    lr_mult: 1
    decay_mult: 1
  }
  param {
    lr_mult: 2
    decay_mult: 0
  }
  convolution_param {
    num_output: 64
    kernel_size: 1
    weight_filler {
      type: "xavier"
      std: 0.1
    }
    bias_filler {
      type: "constant"
      value: 0.2
    }
  }
}
layer {
  name: "inception_4d/relu_pool_proj"
  type: "ReLU"
  bottom: "inception_4d/pool_proj"
  top: "inception_4d/pool_proj"
}
layer {
  name: "inception_4d/output"
  type: "Concat"
  bottom: "inception_4d/1x1"
  bottom: "inception_4d/3x3"
  bottom: "inception_4d/5x5"
  bottom: "inception_4d/pool_proj"
  top: "inception_4d/output"
}
layer {
  name: "loss2/ave_pool"
  type: "Pooling"
  bottom: "inception_4d/output"
  top: "loss2/ave_pool"
  pooling_param {
    pool: AVE
    kernel_size: 5
    stride: 3
  }
}
layer {
  name: "loss2/conv"
  type: "Convolution"
  bottom: "loss2/ave_pool"
  top: "loss2/conv"
  param {
    lr_mult: 1
    decay_mult: 1
  }
  param {
    lr_mult: 2
    decay_mult: 0
  }
  convolution_param {
    num_output: 128
    kernel_size: 1
    weight_filler {
      type: "xavier"
      std: 0.08
    }
    bias_filler {
      type: "constant"
      value: 0.2
    }
  }
}
layer {
  name: "loss2/relu_conv"
  type: "ReLU"
  bottom: "loss2/conv"
  top: "loss2/conv"
}
layer {
  name: "loss2/fc"
  type: "InnerProduct"
  bottom: "loss2/conv"
  top: "loss2/fc"
  param {
    lr_mult: 1
    decay_mult: 1
  }
  param {
    lr_mult: 2
    decay_mult: 0
  }
  inner_product_param {
    num_output: 1024
    weight_filler {
      type: "xavier"
      std: 0.02
    }
    bias_filler {
      type: "constant"
      value: 0.2
    }
  }
}
layer {
  name: "loss2/relu_fc"
  type: "ReLU"
  bottom: "loss2/fc"
  top: "loss2/fc"
}
layer {
  name: "loss2/drop_fc"
  type: "Dropout"
  bottom: "loss2/fc"
  top: "loss2/fc"
  dropout_param {
    dropout_ratio: 0.7
  }
}
layer {
  name: "loss2/classifier_plantvillage"
  type: "InnerProduct"
  bottom: "loss2/fc"
  top: "loss2/classifier_plantvillage"
  param {
    lr_mult: 1
    decay_mult: 1
  }
  param {
    lr_mult: 2
    decay_mult: 0
  }
  inner_product_param {
    num_output: 38
    weight_filler {
      type: "xavier"
      std: 0.0009765625
    }
    bias_filler {
      type: "constant"
      value: 0
    }
  }
}
layer {
  name: "inception_4e/1x1"
  type: "Convolution"
  bottom: "inception_4d/output"
  top: "inception_4e/1x1"
  param {
    lr_mult: 1
    decay_mult: 1
  }
  param {
    lr_mult: 2
    decay_mult: 0
  }
  convolution_param {
    num_output: 256
    kernel_size: 1
    weight_filler {
      type: "xavier"
      std: 0.03
    }
    bias_filler {
      type: "constant"
      value: 0.2
    }
  }
}
layer {
  name: "inception_4e/relu_1x1"
  type: "ReLU"
  bottom: "inception_4e/1x1"
  top: "inception_4e/1x1"
}
layer {
  name: "inception_4e/3x3_reduce"
  type: "Convolution"
  bottom: "inception_4d/output"
  top: "inception_4e/3x3_reduce"
  param {
    lr_mult: 1
    decay_mult: 1
  }
  param {
    lr_mult: 2
    decay_mult: 0
  }
  convolution_param {
    num_output: 160
    kernel_size: 1
    weight_filler {
      type: "xavier"
      std: 0.09
    }
    bias_filler {
      type: "constant"
      value: 0.2
    }
  }
}
layer {
  name: "inception_4e/relu_3x3_reduce"
  type: "ReLU"
  bottom: "inception_4e/3x3_reduce"
  top: "inception_4e/3x3_reduce"
}
layer {
  name: "inception_4e/3x3"
  type: "Convolution"
  bottom: "inception_4e/3x3_reduce"
  top: "inception_4e/3x3"
  param {
    lr_mult: 1
    decay_mult: 1
  }
  param {
    lr_mult: 2
    decay_mult: 0
  }
  convolution_param {
    num_output: 320
    pad: 1
    kernel_size: 3
    weight_filler {
      type: "xavier"
      std: 0.03
    }
    bias_filler {
      type: "constant"
      value: 0.2
    }
  }
}
layer {
  name: "inception_4e/relu_3x3"
  type: "ReLU"
  bottom: "inception_4e/3x3"
  top: "inception_4e/3x3"
}
layer {
  name: "inception_4e/5x5_reduce"
  type: "Convolution"
  bottom: "inception_4d/output"
  top: "inception_4e/5x5_reduce"
  param {
    lr_mult: 1
    decay_mult: 1
  }
  param {
    lr_mult: 2
    decay_mult: 0
  }
  convolution_param {
    num_output: 32
    kernel_size: 1
    weight_filler {
      type: "xavier"
      std: 0.2
    }
    bias_filler {
      type: "constant"
      value: 0.2
    }
  }
}
layer {
  name: "inception_4e/relu_5x5_reduce"
  type: "ReLU"
  bottom: "inception_4e/5x5_reduce"
  top: "inception_4e/5x5_reduce"
}
layer {
  name: "inception_4e/5x5"
  type: "Convolution"
  bottom: "inception_4e/5x5_reduce"
  top: "inception_4e/5x5"
  p
I0403 19:44:48.247712  9621 layer_factory.hpp:77] Creating layer data
I0403 19:44:48.248311  9621 net.cpp:91] Creating Layer data
I0403 19:44:48.248342  9621 net.cpp:399] data -> data
I0403 19:44:48.248400  9621 net.cpp:399] data -> label
I0403 19:44:48.248440  9621 data_transformer.cpp:25] Loading mean file from: /home/mohanty/data/final_dataset/lmdb/color-60-40/mean.binaryproto
I0403 19:44:48.249619  9626 db_lmdb.cpp:38] Opened lmdb /home/mohanty/data/final_dataset/lmdb/color-60-40/test_db
I0403 19:44:48.261422  9621 data_layer.cpp:41] output data size: 24,3,224,224
I0403 19:44:48.287829  9621 net.cpp:141] Setting up data
I0403 19:44:48.287914  9621 net.cpp:148] Top shape: 24 3 224 224 (3612672)
I0403 19:44:48.287937  9621 net.cpp:148] Top shape: 24 (24)
I0403 19:44:48.287952  9621 net.cpp:156] Memory required for data: 14450784
I0403 19:44:48.287983  9621 layer_factory.hpp:77] Creating layer label_data_1_split
I0403 19:44:48.288012  9621 net.cpp:91] Creating Layer label_data_1_split
I0403 19:44:48.288033  9621 net.cpp:425] label_data_1_split <- label
I0403 19:44:48.288069  9621 net.cpp:399] label_data_1_split -> label_data_1_split_0
I0403 19:44:48.288097  9621 net.cpp:399] label_data_1_split -> label_data_1_split_1
I0403 19:44:48.288120  9621 net.cpp:399] label_data_1_split -> label_data_1_split_2
I0403 19:44:48.288141  9621 net.cpp:399] label_data_1_split -> label_data_1_split_3
I0403 19:44:48.288161  9621 net.cpp:399] label_data_1_split -> label_data_1_split_4
I0403 19:44:48.288182  9621 net.cpp:399] label_data_1_split -> label_data_1_split_5
I0403 19:44:48.288203  9621 net.cpp:399] label_data_1_split -> label_data_1_split_6
I0403 19:44:48.288223  9621 net.cpp:399] label_data_1_split -> label_data_1_split_7
I0403 19:44:48.288244  9621 net.cpp:399] label_data_1_split -> label_data_1_split_8
I0403 19:44:48.288264  9621 net.cpp:399] label_data_1_split -> label_data_1_split_9
I0403 19:44:48.288377  9621 net.cpp:141] Setting up label_data_1_split
I0403 19:44:48.288401  9621 net.cpp:148] Top shape: 24 (24)
I0403 19:44:48.288419  9621 net.cpp:148] Top shape: 24 (24)
I0403 19:44:48.288435  9621 net.cpp:148] Top shape: 24 (24)
I0403 19:44:48.288450  9621 net.cpp:148] Top shape: 24 (24)
I0403 19:44:48.288471  9621 net.cpp:148] Top shape: 24 (24)
I0403 19:44:48.288489  9621 net.cpp:148] Top shape: 24 (24)
I0403 19:44:48.288506  9621 net.cpp:148] Top shape: 24 (24)
I0403 19:44:48.288522  9621 net.cpp:148] Top shape: 24 (24)
I0403 19:44:48.288538  9621 net.cpp:148] Top shape: 24 (24)
I0403 19:44:48.288554  9621 net.cpp:148] Top shape: 24 (24)
I0403 19:44:48.288599  9621 net.cpp:156] Memory required for data: 14451744
I0403 19:44:48.288616  9621 layer_factory.hpp:77] Creating layer conv1/7x7_s2
I0403 19:44:48.288651  9621 net.cpp:91] Creating Layer conv1/7x7_s2
I0403 19:44:48.288671  9621 net.cpp:425] conv1/7x7_s2 <- data
I0403 19:44:48.288691  9621 net.cpp:399] conv1/7x7_s2 -> conv1/7x7_s2
I0403 19:44:48.423007  9621 net.cpp:141] Setting up conv1/7x7_s2
I0403 19:44:48.423106  9621 net.cpp:148] Top shape: 24 64 112 112 (19267584)
I0403 19:44:48.423128  9621 net.cpp:156] Memory required for data: 91522080
I0403 19:44:48.423178  9621 layer_factory.hpp:77] Creating layer conv1/relu_7x7
I0403 19:44:48.423214  9621 net.cpp:91] Creating Layer conv1/relu_7x7
I0403 19:44:48.423233  9621 net.cpp:425] conv1/relu_7x7 <- conv1/7x7_s2
I0403 19:44:48.423261  9621 net.cpp:386] conv1/relu_7x7 -> conv1/7x7_s2 (in-place)
I0403 19:44:48.423548  9621 net.cpp:141] Setting up conv1/relu_7x7
I0403 19:44:48.423586  9621 net.cpp:148] Top shape: 24 64 112 112 (19267584)
I0403 19:44:48.423611  9621 net.cpp:156] Memory required for data: 168592416
I0403 19:44:48.423645  9621 layer_factory.hpp:77] Creating layer pool1/3x3_s2
I0403 19:44:48.423681  9621 net.cpp:91] Creating Layer pool1/3x3_s2
I0403 19:44:48.423708  9621 net.cpp:425] pool1/3x3_s2 <- conv1/7x7_s2
I0403 19:44:48.423732  9621 net.cpp:399] pool1/3x3_s2 -> pool1/3x3_s2
I0403 19:44:48.423812  9621 net.cpp:141] Setting up pool1/3x3_s2
I0403 19:44:48.423842  9621 net.cpp:148] Top shape: 24 64 56 56 (4816896)
I0403 19:44:48.423866  9621 net.cpp:156] Memory required for data: 187860000
I0403 19:44:48.423888  9621 layer_factory.hpp:77] Creating layer pool1/norm1
I0403 19:44:48.423923  9621 net.cpp:91] Creating Layer pool1/norm1
I0403 19:44:48.423949  9621 net.cpp:425] pool1/norm1 <- pool1/3x3_s2
I0403 19:44:48.423974  9621 net.cpp:399] pool1/norm1 -> pool1/norm1
I0403 19:44:48.424262  9621 net.cpp:141] Setting up pool1/norm1
I0403 19:44:48.424294  9621 net.cpp:148] Top shape: 24 64 56 56 (4816896)
I0403 19:44:48.424319  9621 net.cpp:156] Memory required for data: 207127584
I0403 19:44:48.424341  9621 layer_factory.hpp:77] Creating layer conv2/3x3_reduce
I0403 19:44:48.424377  9621 net.cpp:91] Creating Layer conv2/3x3_reduce
I0403 19:44:48.424401  9621 net.cpp:425] conv2/3x3_reduce <- pool1/norm1
I0403 19:44:48.424432  9621 net.cpp:399] conv2/3x3_reduce -> conv2/3x3_reduce
I0403 19:44:48.425843  9621 net.cpp:141] Setting up conv2/3x3_reduce
I0403 19:44:48.425878  9621 net.cpp:148] Top shape: 24 64 56 56 (4816896)
I0403 19:44:48.425899  9621 net.cpp:156] Memory required for data: 226395168
I0403 19:44:48.425927  9621 layer_factory.hpp:77] Creating layer conv2/relu_3x3_reduce
I0403 19:44:48.425947  9621 net.cpp:91] Creating Layer conv2/relu_3x3_reduce
I0403 19:44:48.425968  9621 net.cpp:425] conv2/relu_3x3_reduce <- conv2/3x3_reduce
I0403 19:44:48.425997  9621 net.cpp:386] conv2/relu_3x3_reduce -> conv2/3x3_reduce (in-place)
I0403 19:44:48.426278  9621 net.cpp:141] Setting up conv2/relu_3x3_reduce
I0403 19:44:48.426311  9621 net.cpp:148] Top shape: 24 64 56 56 (4816896)
I0403 19:44:48.426334  9621 net.cpp:156] Memory required for data: 245662752
I0403 19:44:48.426359  9621 layer_factory.hpp:77] Creating layer conv2/3x3
I0403 19:44:48.426398  9621 net.cpp:91] Creating Layer conv2/3x3
I0403 19:44:48.426424  9621 net.cpp:425] conv2/3x3 <- conv2/3x3_reduce
I0403 19:44:48.426453  9621 net.cpp:399] conv2/3x3 -> conv2/3x3
I0403 19:44:48.428763  9621 net.cpp:141] Setting up conv2/3x3
I0403 19:44:48.428804  9621 net.cpp:148] Top shape: 24 192 56 56 (14450688)
I0403 19:44:48.428828  9621 net.cpp:156] Memory required for data: 303465504
I0403 19:44:48.428853  9621 layer_factory.hpp:77] Creating layer conv2/relu_3x3
I0403 19:44:48.428871  9621 net.cpp:91] Creating Layer conv2/relu_3x3
I0403 19:44:48.428887  9621 net.cpp:425] conv2/relu_3x3 <- conv2/3x3
I0403 19:44:48.428907  9621 net.cpp:386] conv2/relu_3x3 -> conv2/3x3 (in-place)
I0403 19:44:48.429095  9621 net.cpp:141] Setting up conv2/relu_3x3
I0403 19:44:48.429122  9621 net.cpp:148] Top shape: 24 192 56 56 (14450688)
I0403 19:44:48.429183  9621 net.cpp:156] Memory required for data: 361268256
I0403 19:44:48.429200  9621 layer_factory.hpp:77] Creating layer conv2/norm2
I0403 19:44:48.429224  9621 net.cpp:91] Creating Layer conv2/norm2
I0403 19:44:48.429246  9621 net.cpp:425] conv2/norm2 <- conv2/3x3
I0403 19:44:48.429276  9621 net.cpp:399] conv2/norm2 -> conv2/norm2
I0403 19:44:48.429591  9621 net.cpp:141] Setting up conv2/norm2
I0403 19:44:48.429628  9621 net.cpp:148] Top shape: 24 192 56 56 (14450688)
I0403 19:44:48.429647  9621 net.cpp:156] Memory required for data: 419071008
I0403 19:44:48.429664  9621 layer_factory.hpp:77] Creating layer pool2/3x3_s2
I0403 19:44:48.429685  9621 net.cpp:91] Creating Layer pool2/3x3_s2
I0403 19:44:48.429705  9621 net.cpp:425] pool2/3x3_s2 <- conv2/norm2
I0403 19:44:48.429730  9621 net.cpp:399] pool2/3x3_s2 -> pool2/3x3_s2
I0403 19:44:48.429785  9621 net.cpp:141] Setting up pool2/3x3_s2
I0403 19:44:48.429816  9621 net.cpp:148] Top shape: 24 192 28 28 (3612672)
I0403 19:44:48.429841  9621 net.cpp:156] Memory required for data: 433521696
I0403 19:44:48.429863  9621 layer_factory.hpp:77] Creating layer pool2/3x3_s2_pool2/3x3_s2_0_split
I0403 19:44:48.429893  9621 net.cpp:91] Creating Layer pool2/3x3_s2_pool2/3x3_s2_0_split
I0403 19:44:48.429911  9621 net.cpp:425] pool2/3x3_s2_pool2/3x3_s2_0_split <- pool2/3x3_s2
I0403 19:44:48.429931  9621 net.cpp:399] pool2/3x3_s2_pool2/3x3_s2_0_split -> pool2/3x3_s2_pool2/3x3_s2_0_split_0
I0403 19:44:48.429952  9621 net.cpp:399] pool2/3x3_s2_pool2/3x3_s2_0_split -> pool2/3x3_s2_pool2/3x3_s2_0_split_1
I0403 19:44:48.429977  9621 net.cpp:399] pool2/3x3_s2_pool2/3x3_s2_0_split -> pool2/3x3_s2_pool2/3x3_s2_0_split_2
I0403 19:44:48.430009  9621 net.cpp:399] pool2/3x3_s2_pool2/3x3_s2_0_split -> pool2/3x3_s2_pool2/3x3_s2_0_split_3
I0403 19:44:48.430088  9621 net.cpp:141] Setting up pool2/3x3_s2_pool2/3x3_s2_0_split
I0403 19:44:48.430119  9621 net.cpp:148] Top shape: 24 192 28 28 (3612672)
I0403 19:44:48.430143  9621 net.cpp:148] Top shape: 24 192 28 28 (3612672)
I0403 19:44:48.430166  9621 net.cpp:148] Top shape: 24 192 28 28 (3612672)
I0403 19:44:48.430196  9621 net.cpp:148] Top shape: 24 192 28 28 (3612672)
I0403 19:44:48.430219  9621 net.cpp:156] Memory required for data: 491324448
I0403 19:44:48.430243  9621 layer_factory.hpp:77] Creating layer inception_3a/1x1
I0403 19:44:48.430270  9621 net.cpp:91] Creating Layer inception_3a/1x1
I0403 19:44:48.430296  9621 net.cpp:425] inception_3a/1x1 <- pool2/3x3_s2_pool2/3x3_s2_0_split_0
I0403 19:44:48.430327  9621 net.cpp:399] inception_3a/1x1 -> inception_3a/1x1
I0403 19:44:48.431852  9621 net.cpp:141] Setting up inception_3a/1x1
I0403 19:44:48.431886  9621 net.cpp:148] Top shape: 24 64 28 28 (1204224)
I0403 19:44:48.431910  9621 net.cpp:156] Memory required for data: 496141344
I0403 19:44:48.431936  9621 layer_factory.hpp:77] Creating layer inception_3a/relu_1x1
I0403 19:44:48.431957  9621 net.cpp:91] Creating Layer inception_3a/relu_1x1
I0403 19:44:48.431982  9621 net.cpp:425] inception_3a/relu_1x1 <- inception_3a/1x1
I0403 19:44:48.432003  9621 net.cpp:386] inception_3a/relu_1x1 -> inception_3a/1x1 (in-place)
I0403 19:44:48.432178  9621 net.cpp:141] Setting up inception_3a/relu_1x1
I0403 19:44:48.432210  9621 net.cpp:148] Top shape: 24 64 28 28 (1204224)
I0403 19:44:48.432229  9621 net.cpp:156] Memory required for data: 500958240
I0403 19:44:48.432250  9621 layer_factory.hpp:77] Creating layer inception_3a/3x3_reduce
I0403 19:44:48.432279  9621 net.cpp:91] Creating Layer inception_3a/3x3_reduce
I0403 19:44:48.432299  9621 net.cpp:425] inception_3a/3x3_reduce <- pool2/3x3_s2_pool2/3x3_s2_0_split_1
I0403 19:44:48.432322  9621 net.cpp:399] inception_3a/3x3_reduce -> inception_3a/3x3_reduce
I0403 19:44:48.433991  9621 net.cpp:141] Setting up inception_3a/3x3_reduce
I0403 19:44:48.434028  9621 net.cpp:148] Top shape: 24 96 28 28 (1806336)
I0403 19:44:48.434051  9621 net.cpp:156] Memory required for data: 508183584
I0403 19:44:48.434075  9621 layer_factory.hpp:77] Creating layer inception_3a/relu_3x3_reduce
I0403 19:44:48.434115  9621 net.cpp:91] Creating Layer inception_3a/relu_3x3_reduce
I0403 19:44:48.434150  9621 net.cpp:425] inception_3a/relu_3x3_reduce <- inception_3a/3x3_reduce
I0403 19:44:48.434183  9621 net.cpp:386] inception_3a/relu_3x3_reduce -> inception_3a/3x3_reduce (in-place)
I0403 19:44:48.434366  9621 net.cpp:141] Setting up inception_3a/relu_3x3_reduce
I0403 19:44:48.434399  9621 net.cpp:148] Top shape: 24 96 28 28 (1806336)
I0403 19:44:48.434417  9621 net.cpp:156] Memory required for data: 515408928
I0403 19:44:48.434432  9621 layer_factory.hpp:77] Creating layer inception_3a/3x3
I0403 19:44:48.434463  9621 net.cpp:91] Creating Layer inception_3a/3x3
I0403 19:44:48.434492  9621 net.cpp:425] inception_3a/3x3 <- inception_3a/3x3_reduce
I0403 19:44:48.434514  9621 net.cpp:399] inception_3a/3x3 -> inception_3a/3x3
I0403 19:44:48.436110  9621 net.cpp:141] Setting up inception_3a/3x3
I0403 19:44:48.436172  9621 net.cpp:148] Top shape: 24 128 28 28 (2408448)
I0403 19:44:48.436198  9621 net.cpp:156] Memory required for data: 525042720
I0403 19:44:48.436233  9621 layer_factory.hpp:77] Creating layer inception_3a/relu_3x3
I0403 19:44:48.436256  9621 net.cpp:91] Creating Layer inception_3a/relu_3x3
I0403 19:44:48.436277  9621 net.cpp:425] inception_3a/relu_3x3 <- inception_3a/3x3
I0403 19:44:48.436298  9621 net.cpp:386] inception_3a/relu_3x3 -> inception_3a/3x3 (in-place)
I0403 19:44:48.436595  9621 net.cpp:141] Setting up inception_3a/relu_3x3
I0403 19:44:48.436630  9621 net.cpp:148] Top shape: 24 128 28 28 (2408448)
I0403 19:44:48.436647  9621 net.cpp:156] Memory required for data: 534676512
I0403 19:44:48.436663  9621 layer_factory.hpp:77] Creating layer inception_3a/5x5_reduce
I0403 19:44:48.436691  9621 net.cpp:91] Creating Layer inception_3a/5x5_reduce
I0403 19:44:48.436714  9621 net.cpp:425] inception_3a/5x5_reduce <- pool2/3x3_s2_pool2/3x3_s2_0_split_2
I0403 19:44:48.436743  9621 net.cpp:399] inception_3a/5x5_reduce -> inception_3a/5x5_reduce
I0403 19:44:48.437671  9621 net.cpp:141] Setting up inception_3a/5x5_reduce
I0403 19:44:48.437706  9621 net.cpp:148] Top shape: 24 16 28 28 (301056)
I0403 19:44:48.437729  9621 net.cpp:156] Memory required for data: 535880736
I0403 19:44:48.437750  9621 layer_factory.hpp:77] Creating layer inception_3a/relu_5x5_reduce
I0403 19:44:48.437780  9621 net.cpp:91] Creating Layer inception_3a/relu_5x5_reduce
I0403 19:44:48.437798  9621 net.cpp:425] inception_3a/relu_5x5_reduce <- inception_3a/5x5_reduce
I0403 19:44:48.437818  9621 net.cpp:386] inception_3a/relu_5x5_reduce -> inception_3a/5x5_reduce (in-place)
I0403 19:44:48.438100  9621 net.cpp:141] Setting up inception_3a/relu_5x5_reduce
I0403 19:44:48.438133  9621 net.cpp:148] Top shape: 24 16 28 28 (301056)
I0403 19:44:48.438151  9621 net.cpp:156] Memory required for data: 537084960
I0403 19:44:48.438174  9621 layer_factory.hpp:77] Creating layer inception_3a/5x5
I0403 19:44:48.438202  9621 net.cpp:91] Creating Layer inception_3a/5x5
I0403 19:44:48.438228  9621 net.cpp:425] inception_3a/5x5 <- inception_3a/5x5_reduce
I0403 19:44:48.438252  9621 net.cpp:399] inception_3a/5x5 -> inception_3a/5x5
I0403 19:44:48.439236  9621 net.cpp:141] Setting up inception_3a/5x5
I0403 19:44:48.439267  9621 net.cpp:148] Top shape: 24 32 28 28 (602112)
I0403 19:44:48.439287  9621 net.cpp:156] Memory required for data: 539493408
I0403 19:44:48.439312  9621 layer_factory.hpp:77] Creating layer inception_3a/relu_5x5
I0403 19:44:48.439339  9621 net.cpp:91] Creating Layer inception_3a/relu_5x5
I0403 19:44:48.439364  9621 net.cpp:425] inception_3a/relu_5x5 <- inception_3a/5x5
I0403 19:44:48.439393  9621 net.cpp:386] inception_3a/relu_5x5 -> inception_3a/5x5 (in-place)
I0403 19:44:48.439568  9621 net.cpp:141] Setting up inception_3a/relu_5x5
I0403 19:44:48.439600  9621 net.cpp:148] Top shape: 24 32 28 28 (602112)
I0403 19:44:48.439620  9621 net.cpp:156] Memory required for data: 541901856
I0403 19:44:48.439642  9621 layer_factory.hpp:77] Creating layer inception_3a/pool
I0403 19:44:48.439668  9621 net.cpp:91] Creating Layer inception_3a/pool
I0403 19:44:48.439688  9621 net.cpp:425] inception_3a/pool <- pool2/3x3_s2_pool2/3x3_s2_0_split_3
I0403 19:44:48.439728  9621 net.cpp:399] inception_3a/pool -> inception_3a/pool
I0403 19:44:48.439795  9621 net.cpp:141] Setting up inception_3a/pool
I0403 19:44:48.439824  9621 net.cpp:148] Top shape: 24 192 28 28 (3612672)
I0403 19:44:48.439848  9621 net.cpp:156] Memory required for data: 556352544
I0403 19:44:48.439867  9621 layer_factory.hpp:77] Creating layer inception_3a/pool_proj
I0403 19:44:48.439896  9621 net.cpp:91] Creating Layer inception_3a/pool_proj
I0403 19:44:48.439921  9621 net.cpp:425] inception_3a/pool_proj <- inception_3a/pool
I0403 19:44:48.439949  9621 net.cpp:399] inception_3a/pool_proj -> inception_3a/pool_proj
I0403 19:44:48.440886  9621 net.cpp:141] Setting up inception_3a/pool_proj
I0403 19:44:48.440922  9621 net.cpp:148] Top shape: 24 32 28 28 (602112)
I0403 19:44:48.440948  9621 net.cpp:156] Memory required for data: 558760992
I0403 19:44:48.440970  9621 layer_factory.hpp:77] Creating layer inception_3a/relu_pool_proj
I0403 19:44:48.440996  9621 net.cpp:91] Creating Layer inception_3a/relu_pool_proj
I0403 19:44:48.441022  9621 net.cpp:425] inception_3a/relu_pool_proj <- inception_3a/pool_proj
I0403 19:44:48.441045  9621 net.cpp:386] inception_3a/relu_pool_proj -> inception_3a/pool_proj (in-place)
I0403 19:44:48.441320  9621 net.cpp:141] Setting up inception_3a/relu_pool_proj
I0403 19:44:48.441349  9621 net.cpp:148] Top shape: 24 32 28 28 (602112)
I0403 19:44:48.441368  9621 net.cpp:156] Memory required for data: 561169440
I0403 19:44:48.441387  9621 layer_factory.hpp:77] Creating layer inception_3a/output
I0403 19:44:48.441406  9621 net.cpp:91] Creating Layer inception_3a/output
I0403 19:44:48.441428  9621 net.cpp:425] inception_3a/output <- inception_3a/1x1
I0403 19:44:48.441452  9621 net.cpp:425] inception_3a/output <- inception_3a/3x3
I0403 19:44:48.441478  9621 net.cpp:425] inception_3a/output <- inception_3a/5x5
I0403 19:44:48.441503  9621 net.cpp:425] inception_3a/output <- inception_3a/pool_proj
I0403 19:44:48.441530  9621 net.cpp:399] inception_3a/output -> inception_3a/output
I0403 19:44:48.441582  9621 net.cpp:141] Setting up inception_3a/output
I0403 19:44:48.441624  9621 net.cpp:148] Top shape: 24 256 28 28 (4816896)
I0403 19:44:48.441685  9621 net.cpp:156] Memory required for data: 580437024
I0403 19:44:48.441730  9621 layer_factory.hpp:77] Creating layer inception_3a/output_inception_3a/output_0_split
I0403 19:44:48.441763  9621 net.cpp:91] Creating Layer inception_3a/output_inception_3a/output_0_split
I0403 19:44:48.441823  9621 net.cpp:425] inception_3a/output_inception_3a/output_0_split <- inception_3a/output
I0403 19:44:48.441869  9621 net.cpp:399] inception_3a/output_inception_3a/output_0_split -> inception_3a/output_inception_3a/output_0_split_0
I0403 19:44:48.441905  9621 net.cpp:399] inception_3a/output_inception_3a/output_0_split -> inception_3a/output_inception_3a/output_0_split_1
I0403 19:44:48.441952  9621 net.cpp:399] inception_3a/output_inception_3a/output_0_split -> inception_3a/output_inception_3a/output_0_split_2
I0403 19:44:48.442000  9621 net.cpp:399] inception_3a/output_inception_3a/output_0_split -> inception_3a/output_inception_3a/output_0_split_3
I0403 19:44:48.442095  9621 net.cpp:141] Setting up inception_3a/output_inception_3a/output_0_split
I0403 19:44:48.442127  9621 net.cpp:148] Top shape: 24 256 28 28 (4816896)
I0403 19:44:48.442157  9621 net.cpp:148] Top shape: 24 256 28 28 (4816896)
I0403 19:44:48.442181  9621 net.cpp:148] Top shape: 24 256 28 28 (4816896)
I0403 19:44:48.442209  9621 net.cpp:148] Top shape: 24 256 28 28 (4816896)
I0403 19:44:48.442225  9621 net.cpp:156] Memory required for data: 657507360
I0403 19:44:48.442248  9621 layer_factory.hpp:77] Creating layer inception_3b/1x1
I0403 19:44:48.442287  9621 net.cpp:91] Creating Layer inception_3b/1x1
I0403 19:44:48.442312  9621 net.cpp:425] inception_3b/1x1 <- inception_3a/output_inception_3a/output_0_split_0
I0403 19:44:48.442348  9621 net.cpp:399] inception_3b/1x1 -> inception_3b/1x1
I0403 19:44:48.443431  9621 net.cpp:141] Setting up inception_3b/1x1
I0403 19:44:48.443480  9621 net.cpp:148] Top shape: 24 128 28 28 (2408448)
I0403 19:44:48.443501  9621 net.cpp:156] Memory required for data: 667141152
I0403 19:44:48.443526  9621 layer_factory.hpp:77] Creating layer inception_3b/relu_1x1
I0403 19:44:48.443557  9621 net.cpp:91] Creating Layer inception_3b/relu_1x1
I0403 19:44:48.443580  9621 net.cpp:425] inception_3b/relu_1x1 <- inception_3b/1x1
I0403 19:44:48.443610  9621 net.cpp:386] inception_3b/relu_1x1 -> inception_3b/1x1 (in-place)
I0403 19:44:48.443784  9621 net.cpp:141] Setting up inception_3b/relu_1x1
I0403 19:44:48.443817  9621 net.cpp:148] Top shape: 24 128 28 28 (2408448)
I0403 19:44:48.443838  9621 net.cpp:156] Memory required for data: 676774944
I0403 19:44:48.443856  9621 layer_factory.hpp:77] Creating layer inception_3b/3x3_reduce
I0403 19:44:48.443883  9621 net.cpp:91] Creating Layer inception_3b/3x3_reduce
I0403 19:44:48.443903  9621 net.cpp:425] inception_3b/3x3_reduce <- inception_3a/output_inception_3a/output_0_split_1
I0403 19:44:48.443928  9621 net.cpp:399] inception_3b/3x3_reduce -> inception_3b/3x3_reduce
I0403 19:44:48.445001  9621 net.cpp:141] Setting up inception_3b/3x3_reduce
I0403 19:44:48.445031  9621 net.cpp:148] Top shape: 24 128 28 28 (2408448)
I0403 19:44:48.445052  9621 net.cpp:156] Memory required for data: 686408736
I0403 19:44:48.445071  9621 layer_factory.hpp:77] Creating layer inception_3b/relu_3x3_reduce
I0403 19:44:48.445096  9621 net.cpp:91] Creating Layer inception_3b/relu_3x3_reduce
I0403 19:44:48.445122  9621 net.cpp:425] inception_3b/relu_3x3_reduce <- inception_3b/3x3_reduce
I0403 19:44:48.445148  9621 net.cpp:386] inception_3b/relu_3x3_reduce -> inception_3b/3x3_reduce (in-place)
I0403 19:44:48.445324  9621 net.cpp:141] Setting up inception_3b/relu_3x3_reduce
I0403 19:44:48.445355  9621 net.cpp:148] Top shape: 24 128 28 28 (2408448)
I0403 19:44:48.445374  9621 net.cpp:156] Memory required for data: 696042528
I0403 19:44:48.445401  9621 layer_factory.hpp:77] Creating layer inception_3b/3x3
I0403 19:44:48.445436  9621 net.cpp:91] Creating Layer inception_3b/3x3
I0403 19:44:48.445456  9621 net.cpp:425] inception_3b/3x3 <- inception_3b/3x3_reduce
I0403 19:44:48.445487  9621 net.cpp:399] inception_3b/3x3 -> inception_3b/3x3
I0403 19:44:48.448348  9621 net.cpp:141] Setting up inception_3b/3x3
I0403 19:44:48.448379  9621 net.cpp:148] Top shape: 24 192 28 28 (3612672)
I0403 19:44:48.448403  9621 net.cpp:156] Memory required for data: 710493216
I0403 19:44:48.448423  9621 layer_factory.hpp:77] Creating layer inception_3b/relu_3x3
I0403 19:44:48.448448  9621 net.cpp:91] Creating Layer inception_3b/relu_3x3
I0403 19:44:48.448484  9621 net.cpp:425] inception_3b/relu_3x3 <- inception_3b/3x3
I0403 19:44:48.448504  9621 net.cpp:386] inception_3b/relu_3x3 -> inception_3b/3x3 (in-place)
I0403 19:44:48.448765  9621 net.cpp:141] Setting up inception_3b/relu_3x3
I0403 19:44:48.448791  9621 net.cpp:148] Top shape: 24 192 28 28 (3612672)
I0403 19:44:48.448807  9621 net.cpp:156] Memory required for data: 724943904
I0403 19:44:48.448820  9621 layer_factory.hpp:77] Creating layer inception_3b/5x5_reduce
I0403 19:44:48.448843  9621 net.cpp:91] Creating Layer inception_3b/5x5_reduce
I0403 19:44:48.448860  9621 net.cpp:425] inception_3b/5x5_reduce <- inception_3a/output_inception_3a/output_0_split_2
I0403 19:44:48.448882  9621 net.cpp:399] inception_3b/5x5_reduce -> inception_3b/5x5_reduce
I0403 19:44:48.449817  9621 net.cpp:141] Setting up inception_3b/5x5_reduce
I0403 19:44:48.449853  9621 net.cpp:148] Top shape: 24 32 28 28 (602112)
I0403 19:44:48.449878  9621 net.cpp:156] Memory required for data: 727352352
I0403 19:44:48.449903  9621 layer_factory.hpp:77] Creating layer inception_3b/relu_5x5_reduce
I0403 19:44:48.449928  9621 net.cpp:91] Creating Layer inception_3b/relu_5x5_reduce
I0403 19:44:48.449946  9621 net.cpp:425] inception_3b/relu_5x5_reduce <- inception_3b/5x5_reduce
I0403 19:44:48.449968  9621 net.cpp:386] inception_3b/relu_5x5_reduce -> inception_3b/5x5_reduce (in-place)
I0403 19:44:48.450136  9621 net.cpp:141] Setting up inception_3b/relu_5x5_reduce
I0403 19:44:48.450176  9621 net.cpp:148] Top shape: 24 32 28 28 (602112)
I0403 19:44:48.450193  9621 net.cpp:156] Memory required for data: 729760800
I0403 19:44:48.450217  9621 layer_factory.hpp:77] Creating layer inception_3b/5x5
I0403 19:44:48.450245  9621 net.cpp:91] Creating Layer inception_3b/5x5
I0403 19:44:48.450265  9621 net.cpp:425] inception_3b/5x5 <- inception_3b/5x5_reduce
I0403 19:44:48.450289  9621 net.cpp:399] inception_3b/5x5 -> inception_3b/5x5
I0403 19:44:48.452167  9621 net.cpp:141] Setting up inception_3b/5x5
I0403 19:44:48.452209  9621 net.cpp:148] Top shape: 24 96 28 28 (1806336)
I0403 19:44:48.452232  9621 net.cpp:156] Memory required for data: 736986144
I0403 19:44:48.452260  9621 layer_factory.hpp:77] Creating layer inception_3b/relu_5x5
I0403 19:44:48.452287  9621 net.cpp:91] Creating Layer inception_3b/relu_5x5
I0403 19:44:48.452311  9621 net.cpp:425] inception_3b/relu_5x5 <- inception_3b/5x5
I0403 19:44:48.452338  9621 net.cpp:386] inception_3b/relu_5x5 -> inception_3b/5x5 (in-place)
I0403 19:44:48.452541  9621 net.cpp:141] Setting up inception_3b/relu_5x5
I0403 19:44:48.452572  9621 net.cpp:148] Top shape: 24 96 28 28 (1806336)
I0403 19:44:48.452589  9621 net.cpp:156] Memory required for data: 744211488
I0403 19:44:48.452607  9621 layer_factory.hpp:77] Creating layer inception_3b/pool
I0403 19:44:48.452632  9621 net.cpp:91] Creating Layer inception_3b/pool
I0403 19:44:48.452651  9621 net.cpp:425] inception_3b/pool <- inception_3a/output_inception_3a/output_0_split_3
I0403 19:44:48.452671  9621 net.cpp:399] inception_3b/pool -> inception_3b/pool
I0403 19:44:48.452725  9621 net.cpp:141] Setting up inception_3b/pool
I0403 19:44:48.452755  9621 net.cpp:148] Top shape: 24 256 28 28 (4816896)
I0403 19:44:48.452771  9621 net.cpp:156] Memory required for data: 763479072
I0403 19:44:48.452791  9621 layer_factory.hpp:77] Creating layer inception_3b/pool_proj
I0403 19:44:48.452819  9621 net.cpp:91] Creating Layer inception_3b/pool_proj
I0403 19:44:48.452843  9621 net.cpp:425] inception_3b/pool_proj <- inception_3b/pool
I0403 19:44:48.452869  9621 net.cpp:399] inception_3b/pool_proj -> inception_3b/pool_proj
I0403 19:44:48.453874  9621 net.cpp:141] Setting up inception_3b/pool_proj
I0403 19:44:48.453903  9621 net.cpp:148] Top shape: 24 64 28 28 (1204224)
I0403 19:44:48.453925  9621 net.cpp:156] Memory required for data: 768295968
I0403 19:44:48.453944  9621 layer_factory.hpp:77] Creating layer inception_3b/relu_pool_proj
I0403 19:44:48.453965  9621 net.cpp:91] Creating Layer inception_3b/relu_pool_proj
I0403 19:44:48.453982  9621 net.cpp:425] inception_3b/relu_pool_proj <- inception_3b/pool_proj
I0403 19:44:48.454004  9621 net.cpp:386] inception_3b/relu_pool_proj -> inception_3b/pool_proj (in-place)
I0403 19:44:48.454380  9621 net.cpp:141] Setting up inception_3b/relu_pool_proj
I0403 19:44:48.454407  9621 net.cpp:148] Top shape: 24 64 28 28 (1204224)
I0403 19:44:48.454422  9621 net.cpp:156] Memory required for data: 773112864
I0403 19:44:48.454437  9621 layer_factory.hpp:77] Creating layer inception_3b/output
I0403 19:44:48.454454  9621 net.cpp:91] Creating Layer inception_3b/output
I0403 19:44:48.454475  9621 net.cpp:425] inception_3b/output <- inception_3b/1x1
I0403 19:44:48.454493  9621 net.cpp:425] inception_3b/output <- inception_3b/3x3
I0403 19:44:48.454509  9621 net.cpp:425] inception_3b/output <- inception_3b/5x5
I0403 19:44:48.454525  9621 net.cpp:425] inception_3b/output <- inception_3b/pool_proj
I0403 19:44:48.454545  9621 net.cpp:399] inception_3b/output -> inception_3b/output
I0403 19:44:48.454589  9621 net.cpp:141] Setting up inception_3b/output
I0403 19:44:48.454612  9621 net.cpp:148] Top shape: 24 480 28 28 (9031680)
I0403 19:44:48.454627  9621 net.cpp:156] Memory required for data: 809239584
I0403 19:44:48.454643  9621 layer_factory.hpp:77] Creating layer pool3/3x3_s2
I0403 19:44:48.454659  9621 net.cpp:91] Creating Layer pool3/3x3_s2
I0403 19:44:48.454676  9621 net.cpp:425] pool3/3x3_s2 <- inception_3b/output
I0403 19:44:48.454696  9621 net.cpp:399] pool3/3x3_s2 -> pool3/3x3_s2
I0403 19:44:48.454767  9621 net.cpp:141] Setting up pool3/3x3_s2
I0403 19:44:48.454792  9621 net.cpp:148] Top shape: 24 480 14 14 (2257920)
I0403 19:44:48.454807  9621 net.cpp:156] Memory required for data: 818271264
I0403 19:44:48.454821  9621 layer_factory.hpp:77] Creating layer pool3/3x3_s2_pool3/3x3_s2_0_split
I0403 19:44:48.454841  9621 net.cpp:91] Creating Layer pool3/3x3_s2_pool3/3x3_s2_0_split
I0403 19:44:48.454856  9621 net.cpp:425] pool3/3x3_s2_pool3/3x3_s2_0_split <- pool3/3x3_s2
I0403 19:44:48.454875  9621 net.cpp:399] pool3/3x3_s2_pool3/3x3_s2_0_split -> pool3/3x3_s2_pool3/3x3_s2_0_split_0
I0403 19:44:48.454897  9621 net.cpp:399] pool3/3x3_s2_pool3/3x3_s2_0_split -> pool3/3x3_s2_pool3/3x3_s2_0_split_1
I0403 19:44:48.454918  9621 net.cpp:399] pool3/3x3_s2_pool3/3x3_s2_0_split -> pool3/3x3_s2_pool3/3x3_s2_0_split_2
I0403 19:44:48.454939  9621 net.cpp:399] pool3/3x3_s2_pool3/3x3_s2_0_split -> pool3/3x3_s2_pool3/3x3_s2_0_split_3
I0403 19:44:48.455013  9621 net.cpp:141] Setting up pool3/3x3_s2_pool3/3x3_s2_0_split
I0403 19:44:48.455035  9621 net.cpp:148] Top shape: 24 480 14 14 (2257920)
I0403 19:44:48.455050  9621 net.cpp:148] Top shape: 24 480 14 14 (2257920)
I0403 19:44:48.455065  9621 net.cpp:148] Top shape: 24 480 14 14 (2257920)
I0403 19:44:48.455085  9621 net.cpp:148] Top shape: 24 480 14 14 (2257920)
I0403 19:44:48.455097  9621 net.cpp:156] Memory required for data: 854397984
I0403 19:44:48.455112  9621 layer_factory.hpp:77] Creating layer inception_4a/1x1
I0403 19:44:48.455137  9621 net.cpp:91] Creating Layer inception_4a/1x1
I0403 19:44:48.455166  9621 net.cpp:425] inception_4a/1x1 <- pool3/3x3_s2_pool3/3x3_s2_0_split_0
I0403 19:44:48.455190  9621 net.cpp:399] inception_4a/1x1 -> inception_4a/1x1
I0403 19:44:48.456727  9621 net.cpp:141] Setting up inception_4a/1x1
I0403 19:44:48.456759  9621 net.cpp:148] Top shape: 24 192 14 14 (903168)
I0403 19:44:48.456785  9621 net.cpp:156] Memory required for data: 858010656
I0403 19:44:48.456812  9621 layer_factory.hpp:77] Creating layer inception_4a/relu_1x1
I0403 19:44:48.456832  9621 net.cpp:91] Creating Layer inception_4a/relu_1x1
I0403 19:44:48.456858  9621 net.cpp:425] inception_4a/relu_1x1 <- inception_4a/1x1
I0403 19:44:48.456884  9621 net.cpp:386] inception_4a/relu_1x1 -> inception_4a/1x1 (in-place)
I0403 19:44:48.457053  9621 net.cpp:141] Setting up inception_4a/relu_1x1
I0403 19:44:48.457087  9621 net.cpp:148] Top shape: 24 192 14 14 (903168)
I0403 19:44:48.457103  9621 net.cpp:156] Memory required for data: 861623328
I0403 19:44:48.457126  9621 layer_factory.hpp:77] Creating layer inception_4a/3x3_reduce
I0403 19:44:48.457156  9621 net.cpp:91] Creating Layer inception_4a/3x3_reduce
I0403 19:44:48.457180  9621 net.cpp:425] inception_4a/3x3_reduce <- pool3/3x3_s2_pool3/3x3_s2_0_split_1
I0403 19:44:48.457208  9621 net.cpp:399] inception_4a/3x3_reduce -> inception_4a/3x3_reduce
I0403 19:44:48.458417  9621 net.cpp:141] Setting up inception_4a/3x3_reduce
I0403 19:44:48.458451  9621 net.cpp:148] Top shape: 24 96 14 14 (451584)
I0403 19:44:48.458478  9621 net.cpp:156] Memory required for data: 863429664
I0403 19:44:48.458510  9621 layer_factory.hpp:77] Creating layer inception_4a/relu_3x3_reduce
I0403 19:44:48.458534  9621 net.cpp:91] Creating Layer inception_4a/relu_3x3_reduce
I0403 19:44:48.458559  9621 net.cpp:425] inception_4a/relu_3x3_reduce <- inception_4a/3x3_reduce
I0403 19:44:48.458583  9621 net.cpp:386] inception_4a/relu_3x3_reduce -> inception_4a/3x3_reduce (in-place)
I0403 19:44:48.458753  9621 net.cpp:141] Setting up inception_4a/relu_3x3_reduce
I0403 19:44:48.458786  9621 net.cpp:148] Top shape: 24 96 14 14 (451584)
I0403 19:44:48.458807  9621 net.cpp:156] Memory required for data: 865236000
I0403 19:44:48.458825  9621 layer_factory.hpp:77] Creating layer inception_4a/3x3
I0403 19:44:48.458849  9621 net.cpp:91] Creating Layer inception_4a/3x3
I0403 19:44:48.458874  9621 net.cpp:425] inception_4a/3x3 <- inception_4a/3x3_reduce
I0403 19:44:48.458895  9621 net.cpp:399] inception_4a/3x3 -> inception_4a/3x3
I0403 19:44:48.461431  9621 net.cpp:141] Setting up inception_4a/3x3
I0403 19:44:48.461472  9621 net.cpp:148] Top shape: 24 208 14 14 (978432)
I0403 19:44:48.461496  9621 net.cpp:156] Memory required for data: 869149728
I0403 19:44:48.461522  9621 layer_factory.hpp:77] Creating layer inception_4a/relu_3x3
I0403 19:44:48.461549  9621 net.cpp:91] Creating Layer inception_4a/relu_3x3
I0403 19:44:48.461567  9621 net.cpp:425] inception_4a/relu_3x3 <- inception_4a/3x3
I0403 19:44:48.461596  9621 net.cpp:386] inception_4a/relu_3x3 -> inception_4a/3x3 (in-place)
I0403 19:44:48.461863  9621 net.cpp:141] Setting up inception_4a/relu_3x3
I0403 19:44:48.461894  9621 net.cpp:148] Top shape: 24 208 14 14 (978432)
I0403 19:44:48.461908  9621 net.cpp:156] Memory required for data: 873063456
I0403 19:44:48.461925  9621 layer_factory.hpp:77] Creating layer inception_4a/5x5_reduce
I0403 19:44:48.461949  9621 net.cpp:91] Creating Layer inception_4a/5x5_reduce
I0403 19:44:48.461969  9621 net.cpp:425] inception_4a/5x5_reduce <- pool3/3x3_s2_pool3/3x3_s2_0_split_2
I0403 19:44:48.461993  9621 net.cpp:399] inception_4a/5x5_reduce -> inception_4a/5x5_reduce
I0403 19:44:48.463011  9621 net.cpp:141] Setting up inception_4a/5x5_reduce
I0403 19:44:48.463047  9621 net.cpp:148] Top shape: 24 16 14 14 (75264)
I0403 19:44:48.463064  9621 net.cpp:156] Memory required for data: 873364512
I0403 19:44:48.463083  9621 layer_factory.hpp:77] Creating layer inception_4a/relu_5x5_reduce
I0403 19:44:48.463102  9621 net.cpp:91] Creating Layer inception_4a/relu_5x5_reduce
I0403 19:44:48.463127  9621 net.cpp:425] inception_4a/relu_5x5_reduce <- inception_4a/5x5_reduce
I0403 19:44:48.463155  9621 net.cpp:386] inception_4a/relu_5x5_reduce -> inception_4a/5x5_reduce (in-place)
I0403 19:44:48.463331  9621 net.cpp:141] Setting up inception_4a/relu_5x5_reduce
I0403 19:44:48.463364  9621 net.cpp:148] Top shape: 24 16 14 14 (75264)
I0403 19:44:48.463387  9621 net.cpp:156] Memory required for data: 873665568
I0403 19:44:48.463413  9621 layer_factory.hpp:77] Creating layer inception_4a/5x5
I0403 19:44:48.463446  9621 net.cpp:91] Creating Layer inception_4a/5x5
I0403 19:44:48.463474  9621 net.cpp:425] inception_4a/5x5 <- inception_4a/5x5_reduce
I0403 19:44:48.463503  9621 net.cpp:399] inception_4a/5x5 -> inception_4a/5x5
I0403 19:44:48.464550  9621 net.cpp:141] Setting up inception_4a/5x5
I0403 19:44:48.464606  9621 net.cpp:148] Top shape: 24 48 14 14 (225792)
I0403 19:44:48.464634  9621 net.cpp:156] Memory required for data: 874568736
I0403 19:44:48.464670  9621 layer_factory.hpp:77] Creating layer inception_4a/relu_5x5
I0403 19:44:48.464699  9621 net.cpp:91] Creating Layer inception_4a/relu_5x5
I0403 19:44:48.464722  9621 net.cpp:425] inception_4a/relu_5x5 <- inception_4a/5x5
I0403 19:44:48.464745  9621 net.cpp:386] inception_4a/relu_5x5 -> inception_4a/5x5 (in-place)
I0403 19:44:48.464947  9621 net.cpp:141] Setting up inception_4a/relu_5x5
I0403 19:44:48.464982  9621 net.cpp:148] Top shape: 24 48 14 14 (225792)
I0403 19:44:48.465001  9621 net.cpp:156] Memory required for data: 875471904
I0403 19:44:48.465023  9621 layer_factory.hpp:77] Creating layer inception_4a/pool
I0403 19:44:48.465046  9621 net.cpp:91] Creating Layer inception_4a/pool
I0403 19:44:48.465064  9621 net.cpp:425] inception_4a/pool <- pool3/3x3_s2_pool3/3x3_s2_0_split_3
I0403 19:44:48.465081  9621 net.cpp:399] inception_4a/pool -> inception_4a/pool
I0403 19:44:48.465148  9621 net.cpp:141] Setting up inception_4a/pool
I0403 19:44:48.465173  9621 net.cpp:148] Top shape: 24 480 14 14 (2257920)
I0403 19:44:48.465188  9621 net.cpp:156] Memory required for data: 884503584
I0403 19:44:48.465211  9621 layer_factory.hpp:77] Creating layer inception_4a/pool_proj
I0403 19:44:48.465240  9621 net.cpp:91] Creating Layer inception_4a/pool_proj
I0403 19:44:48.465263  9621 net.cpp:425] inception_4a/pool_proj <- inception_4a/pool
I0403 19:44:48.465291  9621 net.cpp:399] inception_4a/pool_proj -> inception_4a/pool_proj
I0403 19:44:48.466404  9621 net.cpp:141] Setting up inception_4a/pool_proj
I0403 19:44:48.466435  9621 net.cpp:148] Top shape: 24 64 14 14 (301056)
I0403 19:44:48.466470  9621 net.cpp:156] Memory required for data: 885707808
I0403 19:44:48.466497  9621 layer_factory.hpp:77] Creating layer inception_4a/relu_pool_proj
I0403 19:44:48.466526  9621 net.cpp:91] Creating Layer inception_4a/relu_pool_proj
I0403 19:44:48.466544  9621 net.cpp:425] inception_4a/relu_pool_proj <- inception_4a/pool_proj
I0403 19:44:48.466568  9621 net.cpp:386] inception_4a/relu_pool_proj -> inception_4a/pool_proj (in-place)
I0403 19:44:48.466845  9621 net.cpp:141] Setting up inception_4a/relu_pool_proj
I0403 19:44:48.466877  9621 net.cpp:148] Top shape: 24 64 14 14 (301056)
I0403 19:44:48.466898  9621 net.cpp:156] Memory required for data: 886912032
I0403 19:44:48.466919  9621 layer_factory.hpp:77] Creating layer inception_4a/output
I0403 19:44:48.466943  9621 net.cpp:91] Creating Layer inception_4a/output
I0403 19:44:48.466966  9621 net.cpp:425] inception_4a/output <- inception_4a/1x1
I0403 19:44:48.466989  9621 net.cpp:425] inception_4a/output <- inception_4a/3x3
I0403 19:44:48.467007  9621 net.cpp:425] inception_4a/output <- inception_4a/5x5
I0403 19:44:48.467027  9621 net.cpp:425] inception_4a/output <- inception_4a/pool_proj
I0403 19:44:48.467048  9621 net.cpp:399] inception_4a/output -> inception_4a/output
I0403 19:44:48.467102  9621 net.cpp:141] Setting up inception_4a/output
I0403 19:44:48.467126  9621 net.cpp:148] Top shape: 24 512 14 14 (2408448)
I0403 19:44:48.467161  9621 net.cpp:156] Memory required for data: 896545824
I0403 19:44:48.467190  9621 layer_factory.hpp:77] Creating layer inception_4a/output_inception_4a/output_0_split
I0403 19:44:48.467212  9621 net.cpp:91] Creating Layer inception_4a/output_inception_4a/output_0_split
I0403 19:44:48.467237  9621 net.cpp:425] inception_4a/output_inception_4a/output_0_split <- inception_4a/output
I0403 19:44:48.467263  9621 net.cpp:399] inception_4a/output_inception_4a/output_0_split -> inception_4a/output_inception_4a/output_0_split_0
I0403 19:44:48.467293  9621 net.cpp:399] inception_4a/output_inception_4a/output_0_split -> inception_4a/output_inception_4a/output_0_split_1
I0403 19:44:48.467319  9621 net.cpp:399] inception_4a/output_inception_4a/output_0_split -> inception_4a/output_inception_4a/output_0_split_2
I0403 19:44:48.467345  9621 net.cpp:399] inception_4a/output_inception_4a/output_0_split -> inception_4a/output_inception_4a/output_0_split_3
I0403 19:44:48.467375  9621 net.cpp:399] inception_4a/output_inception_4a/output_0_split -> inception_4a/output_inception_4a/output_0_split_4
I0403 19:44:48.467473  9621 net.cpp:141] Setting up inception_4a/output_inception_4a/output_0_split
I0403 19:44:48.467500  9621 net.cpp:148] Top shape: 24 512 14 14 (2408448)
I0403 19:44:48.467516  9621 net.cpp:148] Top shape: 24 512 14 14 (2408448)
I0403 19:44:48.467530  9621 net.cpp:148] Top shape: 24 512 14 14 (2408448)
I0403 19:44:48.467545  9621 net.cpp:148] Top shape: 24 512 14 14 (2408448)
I0403 19:44:48.467561  9621 net.cpp:148] Top shape: 24 512 14 14 (2408448)
I0403 19:44:48.467574  9621 net.cpp:156] Memory required for data: 944714784
I0403 19:44:48.467594  9621 layer_factory.hpp:77] Creating layer loss1/ave_pool
I0403 19:44:48.467618  9621 net.cpp:91] Creating Layer loss1/ave_pool
I0403 19:44:48.467636  9621 net.cpp:425] loss1/ave_pool <- inception_4a/output_inception_4a/output_0_split_0
I0403 19:44:48.467660  9621 net.cpp:399] loss1/ave_pool -> loss1/ave_pool
I0403 19:44:48.467870  9621 net.cpp:141] Setting up loss1/ave_pool
I0403 19:44:48.467900  9621 net.cpp:148] Top shape: 24 512 4 4 (196608)
I0403 19:44:48.467921  9621 net.cpp:156] Memory required for data: 945501216
I0403 19:44:48.467941  9621 layer_factory.hpp:77] Creating layer loss1/conv
I0403 19:44:48.467970  9621 net.cpp:91] Creating Layer loss1/conv
I0403 19:44:48.467994  9621 net.cpp:425] loss1/conv <- loss1/ave_pool
I0403 19:44:48.468014  9621 net.cpp:399] loss1/conv -> loss1/conv
I0403 19:44:48.469359  9621 net.cpp:141] Setting up loss1/conv
I0403 19:44:48.469393  9621 net.cpp:148] Top shape: 24 128 4 4 (49152)
I0403 19:44:48.469413  9621 net.cpp:156] Memory required for data: 945697824
I0403 19:44:48.469455  9621 layer_factory.hpp:77] Creating layer loss1/relu_conv
I0403 19:44:48.469488  9621 net.cpp:91] Creating Layer loss1/relu_conv
I0403 19:44:48.469508  9621 net.cpp:425] loss1/relu_conv <- loss1/conv
I0403 19:44:48.469532  9621 net.cpp:386] loss1/relu_conv -> loss1/conv (in-place)
I0403 19:44:48.469815  9621 net.cpp:141] Setting up loss1/relu_conv
I0403 19:44:48.469847  9621 net.cpp:148] Top shape: 24 128 4 4 (49152)
I0403 19:44:48.469871  9621 net.cpp:156] Memory required for data: 945894432
I0403 19:44:48.469893  9621 layer_factory.hpp:77] Creating layer loss1/fc
I0403 19:44:48.469928  9621 net.cpp:91] Creating Layer loss1/fc
I0403 19:44:48.469954  9621 net.cpp:425] loss1/fc <- loss1/conv
I0403 19:44:48.469977  9621 net.cpp:399] loss1/fc -> loss1/fc
I0403 19:44:48.486824  9621 net.cpp:141] Setting up loss1/fc
I0403 19:44:48.505962  9621 net.cpp:148] Top shape: 24 1024 (24576)
I0403 19:44:48.505985  9621 net.cpp:156] Memory required for data: 945992736
I0403 19:44:48.506014  9621 layer_factory.hpp:77] Creating layer loss1/relu_fc
I0403 19:44:48.506047  9621 net.cpp:91] Creating Layer loss1/relu_fc
I0403 19:44:48.506075  9621 net.cpp:425] loss1/relu_fc <- loss1/fc
I0403 19:44:48.506111  9621 net.cpp:386] loss1/relu_fc -> loss1/fc (in-place)
I0403 19:44:48.506291  9621 net.cpp:141] Setting up loss1/relu_fc
I0403 19:44:48.506325  9621 net.cpp:148] Top shape: 24 1024 (24576)
I0403 19:44:48.506347  9621 net.cpp:156] Memory required for data: 946091040
I0403 19:44:48.506367  9621 layer_factory.hpp:77] Creating layer loss1/drop_fc
I0403 19:44:48.506395  9621 net.cpp:91] Creating Layer loss1/drop_fc
I0403 19:44:48.506415  9621 net.cpp:425] loss1/drop_fc <- loss1/fc
I0403 19:44:48.506435  9621 net.cpp:386] loss1/drop_fc -> loss1/fc (in-place)
I0403 19:44:48.506556  9621 net.cpp:141] Setting up loss1/drop_fc
I0403 19:44:48.506628  9621 net.cpp:148] Top shape: 24 1024 (24576)
I0403 19:44:48.506676  9621 net.cpp:156] Memory required for data: 946189344
I0403 19:44:48.506723  9621 layer_factory.hpp:77] Creating layer loss1/classifier_plantvillage
I0403 19:44:48.506794  9621 net.cpp:91] Creating Layer loss1/classifier_plantvillage
I0403 19:44:48.506852  9621 net.cpp:425] loss1/classifier_plantvillage <- loss1/fc
I0403 19:44:48.506916  9621 net.cpp:399] loss1/classifier_plantvillage -> loss1/classifier_plantvillage
I0403 19:44:48.509129  9621 net.cpp:141] Setting up loss1/classifier_plantvillage
I0403 19:44:48.509219  9621 net.cpp:148] Top shape: 24 38 (912)
I0403 19:44:48.509275  9621 net.cpp:156] Memory required for data: 946192992
I0403 19:44:48.509325  9621 layer_factory.hpp:77] Creating layer loss1/classifier_plantvillage_loss1/classifier_plantvillage_0_split
I0403 19:44:48.509371  9621 net.cpp:91] Creating Layer loss1/classifier_plantvillage_loss1/classifier_plantvillage_0_split
I0403 19:44:48.509415  9621 net.cpp:425] loss1/classifier_plantvillage_loss1/classifier_plantvillage_0_split <- loss1/classifier_plantvillage
I0403 19:44:48.509470  9621 net.cpp:399] loss1/classifier_plantvillage_loss1/classifier_plantvillage_0_split -> loss1/classifier_plantvillage_loss1/classifier_plantvillage_0_split_0
I0403 19:44:48.509534  9621 net.cpp:399] loss1/classifier_plantvillage_loss1/classifier_plantvillage_0_split -> loss1/classifier_plantvillage_loss1/classifier_plantvillage_0_split_1
I0403 19:44:48.509591  9621 net.cpp:399] loss1/classifier_plantvillage_loss1/classifier_plantvillage_0_split -> loss1/classifier_plantvillage_loss1/classifier_plantvillage_0_split_2
I0403 19:44:48.509780  9621 net.cpp:141] Setting up loss1/classifier_plantvillage_loss1/classifier_plantvillage_0_split
I0403 19:44:48.509850  9621 net.cpp:148] Top shape: 24 38 (912)
I0403 19:44:48.509896  9621 net.cpp:148] Top shape: 24 38 (912)
I0403 19:44:48.509948  9621 net.cpp:148] Top shape: 24 38 (912)
I0403 19:44:48.509990  9621 net.cpp:156] Memory required for data: 946203936
I0403 19:44:48.510037  9621 layer_factory.hpp:77] Creating layer inception_4b/1x1
I0403 19:44:48.510098  9621 net.cpp:91] Creating Layer inception_4b/1x1
I0403 19:44:48.510202  9621 net.cpp:425] inception_4b/1x1 <- inception_4a/output_inception_4a/output_0_split_1
I0403 19:44:48.510272  9621 net.cpp:399] inception_4b/1x1 -> inception_4b/1x1
I0403 19:44:48.513299  9621 net.cpp:141] Setting up inception_4b/1x1
I0403 19:44:48.513334  9621 net.cpp:148] Top shape: 24 160 14 14 (752640)
I0403 19:44:48.513355  9621 net.cpp:156] Memory required for data: 949214496
I0403 19:44:48.513383  9621 layer_factory.hpp:77] Creating layer inception_4b/relu_1x1
I0403 19:44:48.513406  9621 net.cpp:91] Creating Layer inception_4b/relu_1x1
I0403 19:44:48.513429  9621 net.cpp:425] inception_4b/relu_1x1 <- inception_4b/1x1
I0403 19:44:48.513448  9621 net.cpp:386] inception_4b/relu_1x1 -> inception_4b/1x1 (in-place)
I0403 19:44:48.513633  9621 net.cpp:141] Setting up inception_4b/relu_1x1
I0403 19:44:48.513662  9621 net.cpp:148] Top shape: 24 160 14 14 (752640)
I0403 19:44:48.513676  9621 net.cpp:156] Memory required for data: 952225056
I0403 19:44:48.513697  9621 layer_factory.hpp:77] Creating layer inception_4b/3x3_reduce
I0403 19:44:48.513725  9621 net.cpp:91] Creating Layer inception_4b/3x3_reduce
I0403 19:44:48.513751  9621 net.cpp:425] inception_4b/3x3_reduce <- inception_4a/output_inception_4a/output_0_split_2
I0403 19:44:48.513779  9621 net.cpp:399] inception_4b/3x3_reduce -> inception_4b/3x3_reduce
I0403 19:44:48.515077  9621 net.cpp:141] Setting up inception_4b/3x3_reduce
I0403 19:44:48.515107  9621 net.cpp:148] Top shape: 24 112 14 14 (526848)
I0403 19:44:48.515122  9621 net.cpp:156] Memory required for data: 954332448
I0403 19:44:48.515143  9621 layer_factory.hpp:77] Creating layer inception_4b/relu_3x3_reduce
I0403 19:44:48.515164  9621 net.cpp:91] Creating Layer inception_4b/relu_3x3_reduce
I0403 19:44:48.515183  9621 net.cpp:425] inception_4b/relu_3x3_reduce <- inception_4b/3x3_reduce
I0403 19:44:48.515202  9621 net.cpp:386] inception_4b/relu_3x3_reduce -> inception_4b/3x3_reduce (in-place)
I0403 19:44:48.515489  9621 net.cpp:141] Setting up inception_4b/relu_3x3_reduce
I0403 19:44:48.515516  9621 net.cpp:148] Top shape: 24 112 14 14 (526848)
I0403 19:44:48.515532  9621 net.cpp:156] Memory required for data: 956439840
I0403 19:44:48.515547  9621 layer_factory.hpp:77] Creating layer inception_4b/3x3
I0403 19:44:48.515568  9621 net.cpp:91] Creating Layer inception_4b/3x3
I0403 19:44:48.515585  9621 net.cpp:425] inception_4b/3x3 <- inception_4b/3x3_reduce
I0403 19:44:48.515609  9621 net.cpp:399] inception_4b/3x3 -> inception_4b/3x3
I0403 19:44:48.518451  9621 net.cpp:141] Setting up inception_4b/3x3
I0403 19:44:48.518486  9621 net.cpp:148] Top shape: 24 224 14 14 (1053696)
I0403 19:44:48.518503  9621 net.cpp:156] Memory required for data: 960654624
I0403 19:44:48.518522  9621 layer_factory.hpp:77] Creating layer inception_4b/relu_3x3
I0403 19:44:48.518539  9621 net.cpp:91] Creating Layer inception_4b/relu_3x3
I0403 19:44:48.518554  9621 net.cpp:425] inception_4b/relu_3x3 <- inception_4b/3x3
I0403 19:44:48.518570  9621 net.cpp:386] inception_4b/relu_3x3 -> inception_4b/3x3 (in-place)
I0403 19:44:48.518745  9621 net.cpp:141] Setting up inception_4b/relu_3x3
I0403 19:44:48.518771  9621 net.cpp:148] Top shape: 24 224 14 14 (1053696)
I0403 19:44:48.518789  9621 net.cpp:156] Memory required for data: 964869408
I0403 19:44:48.518805  9621 layer_factory.hpp:77] Creating layer inception_4b/5x5_reduce
I0403 19:44:48.518826  9621 net.cpp:91] Creating Layer inception_4b/5x5_reduce
I0403 19:44:48.518844  9621 net.cpp:425] inception_4b/5x5_reduce <- inception_4a/output_inception_4a/output_0_split_3
I0403 19:44:48.518865  9621 net.cpp:399] inception_4b/5x5_reduce -> inception_4b/5x5_reduce
I0403 19:44:48.519898  9621 net.cpp:141] Setting up inception_4b/5x5_reduce
I0403 19:44:48.519930  9621 net.cpp:148] Top shape: 24 24 14 14 (112896)
I0403 19:44:48.519950  9621 net.cpp:156] Memory required for data: 965320992
I0403 19:44:48.519969  9621 layer_factory.hpp:77] Creating layer inception_4b/relu_5x5_reduce
I0403 19:44:48.519999  9621 net.cpp:91] Creating Layer inception_4b/relu_5x5_reduce
I0403 19:44:48.520035  9621 net.cpp:425] inception_4b/relu_5x5_reduce <- inception_4b/5x5_reduce
I0403 19:44:48.520063  9621 net.cpp:386] inception_4b/relu_5x5_reduce -> inception_4b/5x5_reduce (in-place)
I0403 19:44:48.520249  9621 net.cpp:141] Setting up inception_4b/relu_5x5_reduce
I0403 19:44:48.520282  9621 net.cpp:148] Top shape: 24 24 14 14 (112896)
I0403 19:44:48.520298  9621 net.cpp:156] Memory required for data: 965772576
I0403 19:44:48.520313  9621 layer_factory.hpp:77] Creating layer inception_4b/5x5
I0403 19:44:48.520339  9621 net.cpp:91] Creating Layer inception_4b/5x5
I0403 19:44:48.520364  9621 net.cpp:425] inception_4b/5x5 <- inception_4b/5x5_reduce
I0403 19:44:48.520385  9621 net.cpp:399] inception_4b/5x5 -> inception_4b/5x5
I0403 19:44:48.521563  9621 net.cpp:141] Setting up inception_4b/5x5
I0403 19:44:48.521592  9621 net.cpp:148] Top shape: 24 64 14 14 (301056)
I0403 19:44:48.521608  9621 net.cpp:156] Memory required for data: 966976800
I0403 19:44:48.521627  9621 layer_factory.hpp:77] Creating layer inception_4b/relu_5x5
I0403 19:44:48.521651  9621 net.cpp:91] Creating Layer inception_4b/relu_5x5
I0403 19:44:48.521672  9621 net.cpp:425] inception_4b/relu_5x5 <- inception_4b/5x5
I0403 19:44:48.521694  9621 net.cpp:386] inception_4b/relu_5x5 -> inception_4b/5x5 (in-place)
I0403 19:44:48.521978  9621 net.cpp:141] Setting up inception_4b/relu_5x5
I0403 19:44:48.522008  9621 net.cpp:148] Top shape: 24 64 14 14 (301056)
I0403 19:44:48.522028  9621 net.cpp:156] Memory required for data: 968181024
I0403 19:44:48.522052  9621 layer_factory.hpp:77] Creating layer inception_4b/pool
I0403 19:44:48.522069  9621 net.cpp:91] Creating Layer inception_4b/pool
I0403 19:44:48.522088  9621 net.cpp:425] inception_4b/pool <- inception_4a/output_inception_4a/output_0_split_4
I0403 19:44:48.522111  9621 net.cpp:399] inception_4b/pool -> inception_4b/pool
I0403 19:44:48.522177  9621 net.cpp:141] Setting up inception_4b/pool
I0403 19:44:48.522208  9621 net.cpp:148] Top shape: 24 512 14 14 (2408448)
I0403 19:44:48.522228  9621 net.cpp:156] Memory required for data: 977814816
I0403 19:44:48.522248  9621 layer_factory.hpp:77] Creating layer inception_4b/pool_proj
I0403 19:44:48.522272  9621 net.cpp:91] Creating Layer inception_4b/pool_proj
I0403 19:44:48.522294  9621 net.cpp:425] inception_4b/pool_proj <- inception_4b/pool
I0403 19:44:48.522318  9621 net.cpp:399] inception_4b/pool_proj -> inception_4b/pool_proj
I0403 19:44:48.523476  9621 net.cpp:141] Setting up inception_4b/pool_proj
I0403 19:44:48.523504  9621 net.cpp:148] Top shape: 24 64 14 14 (301056)
I0403 19:44:48.523520  9621 net.cpp:156] Memory required for data: 979019040
I0403 19:44:48.523538  9621 layer_factory.hpp:77] Creating layer inception_4b/relu_pool_proj
I0403 19:44:48.523556  9621 net.cpp:91] Creating Layer inception_4b/relu_pool_proj
I0403 19:44:48.523572  9621 net.cpp:425] inception_4b/relu_pool_proj <- inception_4b/pool_proj
I0403 19:44:48.523591  9621 net.cpp:386] inception_4b/relu_pool_proj -> inception_4b/pool_proj (in-place)
I0403 19:44:48.523766  9621 net.cpp:141] Setting up inception_4b/relu_pool_proj
I0403 19:44:48.523792  9621 net.cpp:148] Top shape: 24 64 14 14 (301056)
I0403 19:44:48.523807  9621 net.cpp:156] Memory required for data: 980223264
I0403 19:44:48.523820  9621 layer_factory.hpp:77] Creating layer inception_4b/output
I0403 19:44:48.523840  9621 net.cpp:91] Creating Layer inception_4b/output
I0403 19:44:48.523859  9621 net.cpp:425] inception_4b/output <- inception_4b/1x1
I0403 19:44:48.523875  9621 net.cpp:425] inception_4b/output <- inception_4b/3x3
I0403 19:44:48.523892  9621 net.cpp:425] inception_4b/output <- inception_4b/5x5
I0403 19:44:48.523910  9621 net.cpp:425] inception_4b/output <- inception_4b/pool_proj
I0403 19:44:48.523949  9621 net.cpp:399] inception_4b/output -> inception_4b/output
I0403 19:44:48.524008  9621 net.cpp:141] Setting up inception_4b/output
I0403 19:44:48.524031  9621 net.cpp:148] Top shape: 24 512 14 14 (2408448)
I0403 19:44:48.524047  9621 net.cpp:156] Memory required for data: 989857056
I0403 19:44:48.524077  9621 layer_factory.hpp:77] Creating layer inception_4b/output_inception_4b/output_0_split
I0403 19:44:48.524094  9621 net.cpp:91] Creating Layer inception_4b/output_inception_4b/output_0_split
I0403 19:44:48.524116  9621 net.cpp:425] inception_4b/output_inception_4b/output_0_split <- inception_4b/output
I0403 19:44:48.524142  9621 net.cpp:399] inception_4b/output_inception_4b/output_0_split -> inception_4b/output_inception_4b/output_0_split_0
I0403 19:44:48.524166  9621 net.cpp:399] inception_4b/output_inception_4b/output_0_split -> inception_4b/output_inception_4b/output_0_split_1
I0403 19:44:48.524188  9621 net.cpp:399] inception_4b/output_inception_4b/output_0_split -> inception_4b/output_inception_4b/output_0_split_2
I0403 19:44:48.524231  9621 net.cpp:399] inception_4b/output_inception_4b/output_0_split -> inception_4b/output_inception_4b/output_0_split_3
I0403 19:44:48.524320  9621 net.cpp:141] Setting up inception_4b/output_inception_4b/output_0_split
I0403 19:44:48.524348  9621 net.cpp:148] Top shape: 24 512 14 14 (2408448)
I0403 19:44:48.524364  9621 net.cpp:148] Top shape: 24 512 14 14 (2408448)
I0403 19:44:48.524380  9621 net.cpp:148] Top shape: 24 512 14 14 (2408448)
I0403 19:44:48.524395  9621 net.cpp:148] Top shape: 24 512 14 14 (2408448)
I0403 19:44:48.524410  9621 net.cpp:156] Memory required for data: 1028392224
I0403 19:44:48.524425  9621 layer_factory.hpp:77] Creating layer inception_4c/1x1
I0403 19:44:48.524446  9621 net.cpp:91] Creating Layer inception_4c/1x1
I0403 19:44:48.524468  9621 net.cpp:425] inception_4c/1x1 <- inception_4b/output_inception_4b/output_0_split_0
I0403 19:44:48.524492  9621 net.cpp:399] inception_4c/1x1 -> inception_4c/1x1
I0403 19:44:48.525856  9621 net.cpp:141] Setting up inception_4c/1x1
I0403 19:44:48.525887  9621 net.cpp:148] Top shape: 24 128 14 14 (602112)
I0403 19:44:48.525902  9621 net.cpp:156] Memory required for data: 1030800672
I0403 19:44:48.525919  9621 layer_factory.hpp:77] Creating layer inception_4c/relu_1x1
I0403 19:44:48.525940  9621 net.cpp:91] Creating Layer inception_4c/relu_1x1
I0403 19:44:48.525959  9621 net.cpp:425] inception_4c/relu_1x1 <- inception_4c/1x1
I0403 19:44:48.525977  9621 net.cpp:386] inception_4c/relu_1x1 -> inception_4c/1x1 (in-place)
I0403 19:44:48.526152  9621 net.cpp:141] Setting up inception_4c/relu_1x1
I0403 19:44:48.526178  9621 net.cpp:148] Top shape: 24 128 14 14 (602112)
I0403 19:44:48.526195  9621 net.cpp:156] Memory required for data: 1033209120
I0403 19:44:48.526208  9621 layer_factory.hpp:77] Creating layer inception_4c/3x3_reduce
I0403 19:44:48.526232  9621 net.cpp:91] Creating Layer inception_4c/3x3_reduce
I0403 19:44:48.526250  9621 net.cpp:425] inception_4c/3x3_reduce <- inception_4b/output_inception_4b/output_0_split_1
I0403 19:44:48.526269  9621 net.cpp:399] inception_4c/3x3_reduce -> inception_4c/3x3_reduce
I0403 19:44:48.528128  9621 net.cpp:141] Setting up inception_4c/3x3_reduce
I0403 19:44:48.528158  9621 net.cpp:148] Top shape: 24 128 14 14 (602112)
I0403 19:44:48.528175  9621 net.cpp:156] Memory required for data: 1035617568
I0403 19:44:48.528194  9621 layer_factory.hpp:77] Creating layer inception_4c/relu_3x3_reduce
I0403 19:44:48.528213  9621 net.cpp:91] Creating Layer inception_4c/relu_3x3_reduce
I0403 19:44:48.528230  9621 net.cpp:425] inception_4c/relu_3x3_reduce <- inception_4c/3x3_reduce
I0403 19:44:48.528249  9621 net.cpp:386] inception_4c/relu_3x3_reduce -> inception_4c/3x3_reduce (in-place)
I0403 19:44:48.528525  9621 net.cpp:141] Setting up inception_4c/relu_3x3_reduce
I0403 19:44:48.528555  9621 net.cpp:148] Top shape: 24 128 14 14 (602112)
I0403 19:44:48.528570  9621 net.cpp:156] Memory required for data: 1038026016
I0403 19:44:48.528586  9621 layer_factory.hpp:77] Creating layer inception_4c/3x3
I0403 19:44:48.528609  9621 net.cpp:91] Creating Layer inception_4c/3x3
I0403 19:44:48.528627  9621 net.cpp:425] inception_4c/3x3 <- inception_4c/3x3_reduce
I0403 19:44:48.528646  9621 net.cpp:399] inception_4c/3x3 -> inception_4c/3x3
I0403 19:44:48.532115  9621 net.cpp:141] Setting up inception_4c/3x3
I0403 19:44:48.532155  9621 net.cpp:148] Top shape: 24 256 14 14 (1204224)
I0403 19:44:48.532171  9621 net.cpp:156] Memory required for data: 1042842912
I0403 19:44:48.532202  9621 layer_factory.hpp:77] Creating layer inception_4c/relu_3x3
I0403 19:44:48.532224  9621 net.cpp:91] Creating Layer inception_4c/relu_3x3
I0403 19:44:48.532241  9621 net.cpp:425] inception_4c/relu_3x3 <- inception_4c/3x3
I0403 19:44:48.532260  9621 net.cpp:386] inception_4c/relu_3x3 -> inception_4c/3x3 (in-place)
I0403 19:44:48.532435  9621 net.cpp:141] Setting up inception_4c/relu_3x3
I0403 19:44:48.532469  9621 net.cpp:148] Top shape: 24 256 14 14 (1204224)
I0403 19:44:48.532487  9621 net.cpp:156] Memory required for data: 1047659808
I0403 19:44:48.532502  9621 layer_factory.hpp:77] Creating layer inception_4c/5x5_reduce
I0403 19:44:48.532526  9621 net.cpp:91] Creating Layer inception_4c/5x5_reduce
I0403 19:44:48.532543  9621 net.cpp:425] inception_4c/5x5_reduce <- inception_4b/output_inception_4b/output_0_split_2
I0403 19:44:48.532564  9621 net.cpp:399] inception_4c/5x5_reduce -> inception_4c/5x5_reduce
I0403 19:44:48.533609  9621 net.cpp:141] Setting up inception_4c/5x5_reduce
I0403 19:44:48.533638  9621 net.cpp:148] Top shape: 24 24 14 14 (112896)
I0403 19:44:48.533653  9621 net.cpp:156] Memory required for data: 1048111392
I0403 19:44:48.533671  9621 layer_factory.hpp:77] Creating layer inception_4c/relu_5x5_reduce
I0403 19:44:48.533689  9621 net.cpp:91] Creating Layer inception_4c/relu_5x5_reduce
I0403 19:44:48.533709  9621 net.cpp:425] inception_4c/relu_5x5_reduce <- inception_4c/5x5_reduce
I0403 19:44:48.533726  9621 net.cpp:386] inception_4c/relu_5x5_reduce -> inception_4c/5x5_reduce (in-place)
I0403 19:44:48.533900  9621 net.cpp:141] Setting up inception_4c/relu_5x5_reduce
I0403 19:44:48.533924  9621 net.cpp:148] Top shape: 24 24 14 14 (112896)
I0403 19:44:48.533939  9621 net.cpp:156] Memory required for data: 1048562976
I0403 19:44:48.533954  9621 layer_factory.hpp:77] Creating layer inception_4c/5x5
I0403 19:44:48.533978  9621 net.cpp:91] Creating Layer inception_4c/5x5
I0403 19:44:48.533996  9621 net.cpp:425] inception_4c/5x5 <- inception_4c/5x5_reduce
I0403 19:44:48.534018  9621 net.cpp:399] inception_4c/5x5 -> inception_4c/5x5
I0403 19:44:48.535197  9621 net.cpp:141] Setting up inception_4c/5x5
I0403 19:44:48.535225  9621 net.cpp:148] Top shape: 24 64 14 14 (301056)
I0403 19:44:48.535240  9621 net.cpp:156] Memory required for data: 1049767200
I0403 19:44:48.535260  9621 layer_factory.hpp:77] Creating layer inception_4c/relu_5x5
I0403 19:44:48.535280  9621 net.cpp:91] Creating Layer inception_4c/relu_5x5
I0403 19:44:48.535298  9621 net.cpp:425] inception_4c/relu_5x5 <- inception_4c/5x5
I0403 19:44:48.535315  9621 net.cpp:386] inception_4c/relu_5x5 -> inception_4c/5x5 (in-place)
I0403 19:44:48.535595  9621 net.cpp:141] Setting up inception_4c/relu_5x5
I0403 19:44:48.535622  9621 net.cpp:148] Top shape: 24 64 14 14 (301056)
I0403 19:44:48.535639  9621 net.cpp:156] Memory required for data: 1050971424
I0403 19:44:48.535655  9621 layer_factory.hpp:77] Creating layer inception_4c/pool
I0403 19:44:48.535676  9621 net.cpp:91] Creating Layer inception_4c/pool
I0403 19:44:48.535692  9621 net.cpp:425] inception_4c/pool <- inception_4b/output_inception_4b/output_0_split_3
I0403 19:44:48.535712  9621 net.cpp:399] inception_4c/pool -> inception_4c/pool
I0403 19:44:48.535774  9621 net.cpp:141] Setting up inception_4c/pool
I0403 19:44:48.535799  9621 net.cpp:148] Top shape: 24 512 14 14 (2408448)
I0403 19:44:48.535815  9621 net.cpp:156] Memory required for data: 1060605216
I0403 19:44:48.535830  9621 layer_factory.hpp:77] Creating layer inception_4c/pool_proj
I0403 19:44:48.535851  9621 net.cpp:91] Creating Layer inception_4c/pool_proj
I0403 19:44:48.535868  9621 net.cpp:425] inception_4c/pool_proj <- inception_4c/pool
I0403 19:44:48.535889  9621 net.cpp:399] inception_4c/pool_proj -> inception_4c/pool_proj
I0403 19:44:48.537047  9621 net.cpp:141] Setting up inception_4c/pool_proj
I0403 19:44:48.537075  9621 net.cpp:148] Top shape: 24 64 14 14 (301056)
I0403 19:44:48.537104  9621 net.cpp:156] Memory required for data: 1061809440
I0403 19:44:48.537124  9621 layer_factory.hpp:77] Creating layer inception_4c/relu_pool_proj
I0403 19:44:48.537142  9621 net.cpp:91] Creating Layer inception_4c/relu_pool_proj
I0403 19:44:48.537159  9621 net.cpp:425] inception_4c/relu_pool_proj <- inception_4c/pool_proj
I0403 19:44:48.537179  9621 net.cpp:386] inception_4c/relu_pool_proj -> inception_4c/pool_proj (in-place)
I0403 19:44:48.537354  9621 net.cpp:141] Setting up inception_4c/relu_pool_proj
I0403 19:44:48.537379  9621 net.cpp:148] Top shape: 24 64 14 14 (301056)
I0403 19:44:48.537395  9621 net.cpp:156] Memory required for data: 1063013664
I0403 19:44:48.537410  9621 layer_factory.hpp:77] Creating layer inception_4c/output
I0403 19:44:48.537431  9621 net.cpp:91] Creating Layer inception_4c/output
I0403 19:44:48.537447  9621 net.cpp:425] inception_4c/output <- inception_4c/1x1
I0403 19:44:48.537467  9621 net.cpp:425] inception_4c/output <- inception_4c/3x3
I0403 19:44:48.537485  9621 net.cpp:425] inception_4c/output <- inception_4c/5x5
I0403 19:44:48.537503  9621 net.cpp:425] inception_4c/output <- inception_4c/pool_proj
I0403 19:44:48.537520  9621 net.cpp:399] inception_4c/output -> inception_4c/output
I0403 19:44:48.537565  9621 net.cpp:141] Setting up inception_4c/output
I0403 19:44:48.537588  9621 net.cpp:148] Top shape: 24 512 14 14 (2408448)
I0403 19:44:48.537603  9621 net.cpp:156] Memory required for data: 1072647456
I0403 19:44:48.537617  9621 layer_factory.hpp:77] Creating layer inception_4c/output_inception_4c/output_0_split
I0403 19:44:48.537634  9621 net.cpp:91] Creating Layer inception_4c/output_inception_4c/output_0_split
I0403 19:44:48.537649  9621 net.cpp:425] inception_4c/output_inception_4c/output_0_split <- inception_4c/output
I0403 19:44:48.537669  9621 net.cpp:399] inception_4c/output_inception_4c/output_0_split -> inception_4c/output_inception_4c/output_0_split_0
I0403 19:44:48.537690  9621 net.cpp:399] inception_4c/output_inception_4c/output_0_split -> inception_4c/output_inception_4c/output_0_split_1
I0403 19:44:48.537711  9621 net.cpp:399] inception_4c/output_inception_4c/output_0_split -> inception_4c/output_inception_4c/output_0_split_2
I0403 19:44:48.537731  9621 net.cpp:399] inception_4c/output_inception_4c/output_0_split -> inception_4c/output_inception_4c/output_0_split_3
I0403 19:44:48.537812  9621 net.cpp:141] Setting up inception_4c/output_inception_4c/output_0_split
I0403 19:44:48.537838  9621 net.cpp:148] Top shape: 24 512 14 14 (2408448)
I0403 19:44:48.537858  9621 net.cpp:148] Top shape: 24 512 14 14 (2408448)
I0403 19:44:48.537873  9621 net.cpp:148] Top shape: 24 512 14 14 (2408448)
I0403 19:44:48.537889  9621 net.cpp:148] Top shape: 24 512 14 14 (2408448)
I0403 19:44:48.537902  9621 net.cpp:156] Memory required for data: 1111182624
I0403 19:44:48.537917  9621 layer_factory.hpp:77] Creating layer inception_4d/1x1
I0403 19:44:48.537940  9621 net.cpp:91] Creating Layer inception_4d/1x1
I0403 19:44:48.537960  9621 net.cpp:425] inception_4d/1x1 <- inception_4c/output_inception_4c/output_0_split_0
I0403 19:44:48.537979  9621 net.cpp:399] inception_4d/1x1 -> inception_4d/1x1
I0403 19:44:48.539290  9621 net.cpp:141] Setting up inception_4d/1x1
I0403 19:44:48.539321  9621 net.cpp:148] Top shape: 24 112 14 14 (526848)
I0403 19:44:48.539337  9621 net.cpp:156] Memory required for data: 1113290016
I0403 19:44:48.539355  9621 layer_factory.hpp:77] Creating layer inception_4d/relu_1x1
I0403 19:44:48.539373  9621 net.cpp:91] Creating Layer inception_4d/relu_1x1
I0403 19:44:48.539391  9621 net.cpp:425] inception_4d/relu_1x1 <- inception_4d/1x1
I0403 19:44:48.539408  9621 net.cpp:386] inception_4d/relu_1x1 -> inception_4d/1x1 (in-place)
I0403 19:44:48.539592  9621 net.cpp:141] Setting up inception_4d/relu_1x1
I0403 19:44:48.539616  9621 net.cpp:148] Top shape: 24 112 14 14 (526848)
I0403 19:44:48.539631  9621 net.cpp:156] Memory required for data: 1115397408
I0403 19:44:48.539646  9621 layer_factory.hpp:77] Creating layer inception_4d/3x3_reduce
I0403 19:44:48.539681  9621 net.cpp:91] Creating Layer inception_4d/3x3_reduce
I0403 19:44:48.539701  9621 net.cpp:425] inception_4d/3x3_reduce <- inception_4c/output_inception_4c/output_0_split_1
I0403 19:44:48.539723  9621 net.cpp:399] inception_4d/3x3_reduce -> inception_4d/3x3_reduce
I0403 19:44:48.541185  9621 net.cpp:141] Setting up inception_4d/3x3_reduce
I0403 19:44:48.541213  9621 net.cpp:148] Top shape: 24 144 14 14 (677376)
I0403 19:44:48.541229  9621 net.cpp:156] Memory required for data: 1118106912
I0403 19:44:48.541249  9621 layer_factory.hpp:77] Creating layer inception_4d/relu_3x3_reduce
I0403 19:44:48.541268  9621 net.cpp:91] Creating Layer inception_4d/relu_3x3_reduce
I0403 19:44:48.541285  9621 net.cpp:425] inception_4d/relu_3x3_reduce <- inception_4d/3x3_reduce
I0403 19:44:48.541303  9621 net.cpp:386] inception_4d/relu_3x3_reduce -> inception_4d/3x3_reduce (in-place)
I0403 19:44:48.541582  9621 net.cpp:141] Setting up inception_4d/relu_3x3_reduce
I0403 19:44:48.541609  9621 net.cpp:148] Top shape: 24 144 14 14 (677376)
I0403 19:44:48.541623  9621 net.cpp:156] Memory required for data: 1120816416
I0403 19:44:48.541640  9621 layer_factory.hpp:77] Creating layer inception_4d/3x3
I0403 19:44:48.541662  9621 net.cpp:91] Creating Layer inception_4d/3x3
I0403 19:44:48.541682  9621 net.cpp:425] inception_4d/3x3 <- inception_4d/3x3_reduce
I0403 19:44:48.541702  9621 net.cpp:399] inception_4d/3x3 -> inception_4d/3x3
I0403 19:44:48.545779  9621 net.cpp:141] Setting up inception_4d/3x3
I0403 19:44:48.545811  9621 net.cpp:148] Top shape: 24 288 14 14 (1354752)
I0403 19:44:48.545828  9621 net.cpp:156] Memory required for data: 1126235424
I0403 19:44:48.545846  9621 layer_factory.hpp:77] Creating layer inception_4d/relu_3x3
I0403 19:44:48.545863  9621 net.cpp:91] Creating Layer inception_4d/relu_3x3
I0403 19:44:48.545878  9621 net.cpp:425] inception_4d/relu_3x3 <- inception_4d/3x3
I0403 19:44:48.545898  9621 net.cpp:386] inception_4d/relu_3x3 -> inception_4d/3x3 (in-place)
I0403 19:44:48.546078  9621 net.cpp:141] Setting up inception_4d/relu_3x3
I0403 19:44:48.546106  9621 net.cpp:148] Top shape: 24 288 14 14 (1354752)
I0403 19:44:48.546121  9621 net.cpp:156] Memory required for data: 1131654432
I0403 19:44:48.546138  9621 layer_factory.hpp:77] Creating layer inception_4d/5x5_reduce
I0403 19:44:48.546160  9621 net.cpp:91] Creating Layer inception_4d/5x5_reduce
I0403 19:44:48.546178  9621 net.cpp:425] inception_4d/5x5_reduce <- inception_4c/output_inception_4c/output_0_split_2
I0403 19:44:48.546200  9621 net.cpp:399] inception_4d/5x5_reduce -> inception_4d/5x5_reduce
I0403 19:44:48.547309  9621 net.cpp:141] Setting up inception_4d/5x5_reduce
I0403 19:44:48.547339  9621 net.cpp:148] Top shape: 24 32 14 14 (150528)
I0403 19:44:48.547355  9621 net.cpp:156] Memory required for data: 1132256544
I0403 19:44:48.547374  9621 layer_factory.hpp:77] Creating layer inception_4d/relu_5x5_reduce
I0403 19:44:48.547390  9621 net.cpp:91] Creating Layer inception_4d/relu_5x5_reduce
I0403 19:44:48.547406  9621 net.cpp:425] inception_4d/relu_5x5_reduce <- inception_4d/5x5_reduce
I0403 19:44:48.547423  9621 net.cpp:386] inception_4d/relu_5x5_reduce -> inception_4d/5x5_reduce (in-place)
I0403 19:44:48.547610  9621 net.cpp:141] Setting up inception_4d/relu_5x5_reduce
I0403 19:44:48.547633  9621 net.cpp:148] Top shape: 24 32 14 14 (150528)
I0403 19:44:48.547649  9621 net.cpp:156] Memory required for data: 1132858656
I0403 19:44:48.547664  9621 layer_factory.hpp:77] Creating layer inception_4d/5x5
I0403 19:44:48.547686  9621 net.cpp:91] Creating Layer inception_4d/5x5
I0403 19:44:48.547705  9621 net.cpp:425] inception_4d/5x5 <- inception_4d/5x5_reduce
I0403 19:44:48.547727  9621 net.cpp:399] inception_4d/5x5 -> inception_4d/5x5
I0403 19:44:48.549136  9621 net.cpp:141] Setting up inception_4d/5x5
I0403 19:44:48.549165  9621 net.cpp:148] Top shape: 24 64 14 14 (301056)
I0403 19:44:48.549180  9621 net.cpp:156] Memory required for data: 1134062880
I0403 19:44:48.549199  9621 layer_factory.hpp:77] Creating layer inception_4d/relu_5x5
I0403 19:44:48.549233  9621 net.cpp:91] Creating Layer inception_4d/relu_5x5
I0403 19:44:48.549253  9621 net.cpp:425] inception_4d/relu_5x5 <- inception_4d/5x5
I0403 19:44:48.549270  9621 net.cpp:386] inception_4d/relu_5x5 -> inception_4d/5x5 (in-place)
I0403 19:44:48.549561  9621 net.cpp:141] Setting up inception_4d/relu_5x5
I0403 19:44:48.549587  9621 net.cpp:148] Top shape: 24 64 14 14 (301056)
I0403 19:44:48.549602  9621 net.cpp:156] Memory required for data: 1135267104
I0403 19:44:48.549618  9621 layer_factory.hpp:77] Creating layer inception_4d/pool
I0403 19:44:48.549640  9621 net.cpp:91] Creating Layer inception_4d/pool
I0403 19:44:48.549656  9621 net.cpp:425] inception_4d/pool <- inception_4c/output_inception_4c/output_0_split_3
I0403 19:44:48.549674  9621 net.cpp:399] inception_4d/pool -> inception_4d/pool
I0403 19:44:48.549738  9621 net.cpp:141] Setting up inception_4d/pool
I0403 19:44:48.549762  9621 net.cpp:148] Top shape: 24 512 14 14 (2408448)
I0403 19:44:48.549777  9621 net.cpp:156] Memory required for data: 1144900896
I0403 19:44:48.549793  9621 layer_factory.hpp:77] Creating layer inception_4d/pool_proj
I0403 19:44:48.549813  9621 net.cpp:91] Creating Layer inception_4d/pool_proj
I0403 19:44:48.549831  9621 net.cpp:425] inception_4d/pool_proj <- inception_4d/pool
I0403 19:44:48.549854  9621 net.cpp:399] inception_4d/pool_proj -> inception_4d/pool_proj
I0403 19:44:48.552311  9621 net.cpp:141] Setting up inception_4d/pool_proj
I0403 19:44:48.552346  9621 net.cpp:148] Top shape: 24 64 14 14 (301056)
I0403 19:44:48.552364  9621 net.cpp:156] Memory required for data: 1146105120
I0403 19:44:48.552384  9621 layer_factory.hpp:77] Creating layer inception_4d/relu_pool_proj
I0403 19:44:48.552402  9621 net.cpp:91] Creating Layer inception_4d/relu_pool_proj
I0403 19:44:48.552420  9621 net.cpp:425] inception_4d/relu_pool_proj <- inception_4d/pool_proj
I0403 19:44:48.552441  9621 net.cpp:386] inception_4d/relu_pool_proj -> inception_4d/pool_proj (in-place)
I0403 19:44:48.552636  9621 net.cpp:141] Setting up inception_4d/relu_pool_proj
I0403 19:44:48.552675  9621 net.cpp:148] Top shape: 24 64 14 14 (301056)
I0403 19:44:48.552690  9621 net.cpp:156] Memory required for data: 1147309344
I0403 19:44:48.552705  9621 layer_factory.hpp:77] Creating layer inception_4d/output
I0403 19:44:48.552721  9621 net.cpp:91] Creating Layer inception_4d/output
I0403 19:44:48.552737  9621 net.cpp:425] inception_4d/output <- inception_4d/1x1
I0403 19:44:48.552754  9621 net.cpp:425] inception_4d/output <- inception_4d/3x3
I0403 19:44:48.552770  9621 net.cpp:425] inception_4d/output <- inception_4d/5x5
I0403 19:44:48.552785  9621 net.cpp:425] inception_4d/output <- inception_4d/pool_proj
I0403 19:44:48.552804  9621 net.cpp:399] inception_4d/output -> inception_4d/output
I0403 19:44:48.552851  9621 net.cpp:141] Setting up inception_4d/output
I0403 19:44:48.552877  9621 net.cpp:148] Top shape: 24 528 14 14 (2483712)
I0403 19:44:48.552894  9621 net.cpp:156] Memory required for data: 1157244192
I0403 19:44:48.552909  9621 layer_factory.hpp:77] Creating layer inception_4d/output_inception_4d/output_0_split
I0403 19:44:48.552928  9621 net.cpp:91] Creating Layer inception_4d/output_inception_4d/output_0_split
I0403 19:44:48.552944  9621 net.cpp:425] inception_4d/output_inception_4d/output_0_split <- inception_4d/output
I0403 19:44:48.552965  9621 net.cpp:399] inception_4d/output_inception_4d/output_0_split -> inception_4d/output_inception_4d/output_0_split_0
I0403 19:44:48.552988  9621 net.cpp:399] inception_4d/output_inception_4d/output_0_split -> inception_4d/output_inception_4d/output_0_split_1
I0403 19:44:48.553009  9621 net.cpp:399] inception_4d/output_inception_4d/output_0_split -> inception_4d/output_inception_4d/output_0_split_2
I0403 19:44:48.553030  9621 net.cpp:399] inception_4d/output_inception_4d/output_0_split -> inception_4d/output_inception_4d/output_0_split_3
I0403 19:44:48.553052  9621 net.cpp:399] inception_4d/output_inception_4d/output_0_split -> inception_4d/output_inception_4d/output_0_split_4
I0403 19:44:48.553150  9621 net.cpp:141] Setting up inception_4d/output_inception_4d/output_0_split
I0403 19:44:48.553200  9621 net.cpp:148] Top shape: 24 528 14 14 (2483712)
I0403 19:44:48.553220  9621 net.cpp:148] Top shape: 24 528 14 14 (2483712)
I0403 19:44:48.553236  9621 net.cpp:148] Top shape: 24 528 14 14 (2483712)
I0403 19:44:48.553252  9621 net.cpp:148] Top shape: 24 528 14 14 (2483712)
I0403 19:44:48.553269  9621 net.cpp:148] Top shape: 24 528 14 14 (2483712)
I0403 19:44:48.553282  9621 net.cpp:156] Memory required for data: 1206918432
I0403 19:44:48.553297  9621 layer_factory.hpp:77] Creating layer loss2/ave_pool
I0403 19:44:48.553315  9621 net.cpp:91] Creating Layer loss2/ave_pool
I0403 19:44:48.553333  9621 net.cpp:425] loss2/ave_pool <- inception_4d/output_inception_4d/output_0_split_0
I0403 19:44:48.553351  9621 net.cpp:399] loss2/ave_pool -> loss2/ave_pool
I0403 19:44:48.553658  9621 net.cpp:141] Setting up loss2/ave_pool
I0403 19:44:48.553688  9621 net.cpp:148] Top shape: 24 528 4 4 (202752)
I0403 19:44:48.553705  9621 net.cpp:156] Memory required for data: 1207729440
I0403 19:44:48.553720  9621 layer_factory.hpp:77] Creating layer loss2/conv
I0403 19:44:48.553742  9621 net.cpp:91] Creating Layer loss2/conv
I0403 19:44:48.553761  9621 net.cpp:425] loss2/conv <- loss2/ave_pool
I0403 19:44:48.553781  9621 net.cpp:399] loss2/conv -> loss2/conv
I0403 19:44:48.555589  9621 net.cpp:141] Setting up loss2/conv
I0403 19:44:48.555619  9621 net.cpp:148] Top shape: 24 128 4 4 (49152)
I0403 19:44:48.555634  9621 net.cpp:156] Memory required for data: 1207926048
I0403 19:44:48.555654  9621 layer_factory.hpp:77] Creating layer loss2/relu_conv
I0403 19:44:48.555673  9621 net.cpp:91] Creating Layer loss2/relu_conv
I0403 19:44:48.555691  9621 net.cpp:425] loss2/relu_conv <- loss2/conv
I0403 19:44:48.555708  9621 net.cpp:386] loss2/relu_conv -> loss2/conv (in-place)
I0403 19:44:48.555984  9621 net.cpp:141] Setting up loss2/relu_conv
I0403 19:44:48.556010  9621 net.cpp:148] Top shape: 24 128 4 4 (49152)
I0403 19:44:48.556025  9621 net.cpp:156] Memory required for data: 1208122656
I0403 19:44:48.556040  9621 layer_factory.hpp:77] Creating layer loss2/fc
I0403 19:44:48.556061  9621 net.cpp:91] Creating Layer loss2/fc
I0403 19:44:48.556078  9621 net.cpp:425] loss2/fc <- loss2/conv
I0403 19:44:48.556097  9621 net.cpp:399] loss2/fc -> loss2/fc
I0403 19:44:48.572778  9621 net.cpp:141] Setting up loss2/fc
I0403 19:44:48.572813  9621 net.cpp:148] Top shape: 24 1024 (24576)
I0403 19:44:48.572829  9621 net.cpp:156] Memory required for data: 1208220960
I0403 19:44:48.572847  9621 layer_factory.hpp:77] Creating layer loss2/relu_fc
I0403 19:44:48.572865  9621 net.cpp:91] Creating Layer loss2/relu_fc
I0403 19:44:48.572882  9621 net.cpp:425] loss2/relu_fc <- loss2/fc
I0403 19:44:48.572902  9621 net.cpp:386] loss2/relu_fc -> loss2/fc (in-place)
I0403 19:44:48.573196  9621 net.cpp:141] Setting up loss2/relu_fc
I0403 19:44:48.573225  9621 net.cpp:148] Top shape: 24 1024 (24576)
I0403 19:44:48.573240  9621 net.cpp:156] Memory required for data: 1208319264
I0403 19:44:48.573254  9621 layer_factory.hpp:77] Creating layer loss2/drop_fc
I0403 19:44:48.573273  9621 net.cpp:91] Creating Layer loss2/drop_fc
I0403 19:44:48.573289  9621 net.cpp:425] loss2/drop_fc <- loss2/fc
I0403 19:44:48.573309  9621 net.cpp:386] loss2/drop_fc -> loss2/fc (in-place)
I0403 19:44:48.573359  9621 net.cpp:141] Setting up loss2/drop_fc
I0403 19:44:48.573384  9621 net.cpp:148] Top shape: 24 1024 (24576)
I0403 19:44:48.573400  9621 net.cpp:156] Memory required for data: 1208417568
I0403 19:44:48.573415  9621 layer_factory.hpp:77] Creating layer loss2/classifier_plantvillage
I0403 19:44:48.573432  9621 net.cpp:91] Creating Layer loss2/classifier_plantvillage
I0403 19:44:48.573449  9621 net.cpp:425] loss2/classifier_plantvillage <- loss2/fc
I0403 19:44:48.573477  9621 net.cpp:399] loss2/classifier_plantvillage -> loss2/classifier_plantvillage
I0403 19:44:48.573858  9621 net.cpp:141] Setting up loss2/classifier_plantvillage
I0403 19:44:48.573884  9621 net.cpp:148] Top shape: 24 38 (912)
I0403 19:44:48.573899  9621 net.cpp:156] Memory required for data: 1208421216
I0403 19:44:48.573932  9621 layer_factory.hpp:77] Creating layer loss2/classifier_plantvillage_loss2/classifier_plantvillage_0_split
I0403 19:44:48.573952  9621 net.cpp:91] Creating Layer loss2/classifier_plantvillage_loss2/classifier_plantvillage_0_split
I0403 19:44:48.573971  9621 net.cpp:425] loss2/classifier_plantvillage_loss2/classifier_plantvillage_0_split <- loss2/classifier_plantvillage
I0403 19:44:48.573988  9621 net.cpp:399] loss2/classifier_plantvillage_loss2/classifier_plantvillage_0_split -> loss2/classifier_plantvillage_loss2/classifier_plantvillage_0_split_0
I0403 19:44:48.574007  9621 net.cpp:399] loss2/classifier_plantvillage_loss2/classifier_plantvillage_0_split -> loss2/classifier_plantvillage_loss2/classifier_plantvillage_0_split_1
I0403 19:44:48.574029  9621 net.cpp:399] loss2/classifier_plantvillage_loss2/classifier_plantvillage_0_split -> loss2/classifier_plantvillage_loss2/classifier_plantvillage_0_split_2
I0403 19:44:48.574106  9621 net.cpp:141] Setting up loss2/classifier_plantvillage_loss2/classifier_plantvillage_0_split
I0403 19:44:48.574131  9621 net.cpp:148] Top shape: 24 38 (912)
I0403 19:44:48.574146  9621 net.cpp:148] Top shape: 24 38 (912)
I0403 19:44:48.574162  9621 net.cpp:148] Top shape: 24 38 (912)
I0403 19:44:48.574177  9621 net.cpp:156] Memory required for data: 1208432160
I0403 19:44:48.574192  9621 layer_factory.hpp:77] Creating layer inception_4e/1x1
I0403 19:44:48.574213  9621 net.cpp:91] Creating Layer inception_4e/1x1
I0403 19:44:48.574232  9621 net.cpp:425] inception_4e/1x1 <- inception_4d/output_inception_4d/output_0_split_1
I0403 19:44:48.574250  9621 net.cpp:399] inception_4e/1x1 -> inception_4e/1x1
I0403 19:44:48.575978  9621 net.cpp:141] Setting up inception_4e/1x1
I0403 19:44:48.576006  9621 net.cpp:148] Top shape: 24 256 14 14 (1204224)
I0403 19:44:48.576022  9621 net.cpp:156] Memory required for data: 1213249056
I0403 19:44:48.576041  9621 layer_factory.hpp:77] Creating layer inception_4e/relu_1x1
I0403 19:44:48.576061  9621 net.cpp:91] Creating Layer inception_4e/relu_1x1
I0403 19:44:48.576079  9621 net.cpp:425] inception_4e/relu_1x1 <- inception_4e/1x1
I0403 19:44:48.576097  9621 net.cpp:386] inception_4e/relu_1x1 -> inception_4e/1x1 (in-place)
I0403 19:44:48.576387  9621 net.cpp:141] Setting up inception_4e/relu_1x1
I0403 19:44:48.576413  9621 net.cpp:148] Top shape: 24 256 14 14 (1204224)
I0403 19:44:48.576431  9621 net.cpp:156] Memory required for data: 1218065952
I0403 19:44:48.576447  9621 layer_factory.hpp:77] Creating layer inception_4e/3x3_reduce
I0403 19:44:48.576474  9621 net.cpp:91] Creating Layer inception_4e/3x3_reduce
I0403 19:44:48.576495  9621 net.cpp:425] inception_4e/3x3_reduce <- inception_4d/output_inception_4d/output_0_split_2
I0403 19:44:48.576516  9621 net.cpp:399] inception_4e/3x3_reduce -> inception_4e/3x3_reduce
I0403 19:44:48.578542  9621 net.cpp:141] Setting up inception_4e/3x3_reduce
I0403 19:44:48.578570  9621 net.cpp:148] Top shape: 24 160 14 14 (752640)
I0403 19:44:48.578586  9621 net.cpp:156] Memory required for data: 1221076512
I0403 19:44:48.578605  9621 layer_factory.hpp:77] Creating layer inception_4e/relu_3x3_reduce
I0403 19:44:48.578622  9621 net.cpp:91] Creating Layer inception_4e/relu_3x3_reduce
I0403 19:44:48.578639  9621 net.cpp:425] inception_4e/relu_3x3_reduce <- inception_4e/3x3_reduce
I0403 19:44:48.578660  9621 net.cpp:386] inception_4e/relu_3x3_reduce -> inception_4e/3x3_reduce (in-place)
I0403 19:44:48.578840  9621 net.cpp:141] Setting up inception_4e/relu_3x3_reduce
I0403 19:44:48.578866  9621 net.cpp:148] Top shape: 24 160 14 14 (752640)
I0403 19:44:48.578881  9621 net.cpp:156] Memory required for data: 1224087072
I0403 19:44:48.578896  9621 layer_factory.hpp:77] Creating layer inception_4e/3x3
I0403 19:44:48.578918  9621 net.cpp:91] Creating Layer inception_4e/3x3
I0403 19:44:48.578936  9621 net.cpp:425] inception_4e/3x3 <- inception_4e/3x3_reduce
I0403 19:44:48.578958  9621 net.cpp:399] inception_4e/3x3 -> inception_4e/3x3
I0403 19:44:48.583797  9621 net.cpp:141] Setting up inception_4e/3x3
I0403 19:44:48.583838  9621 net.cpp:148] Top shape: 24 320 14 14 (1505280)
I0403 19:44:48.583855  9621 net.cpp:156] Memory required for data: 1230108192
I0403 19:44:48.583874  9621 layer_factory.hpp:77] Creating layer inception_4e/relu_3x3
I0403 19:44:48.583895  9621 net.cpp:91] Creating Layer inception_4e/relu_3x3
I0403 19:44:48.583914  9621 net.cpp:425] inception_4e/relu_3x3 <- inception_4e/3x3
I0403 19:44:48.583932  9621 net.cpp:386] inception_4e/relu_3x3 -> inception_4e/3x3 (in-place)
I0403 19:44:48.584221  9621 net.cpp:141] Setting up inception_4e/relu_3x3
I0403 19:44:48.584250  9621 net.cpp:148] Top shape: 24 320 14 14 (1505280)
I0403 19:44:48.584267  9621 net.cpp:156] Memory required for data: 1236129312
I0403 19:44:48.584282  9621 layer_factory.hpp:77] Creating layer inception_4e/5x5_reduce
I0403 19:44:48.584306  9621 net.cpp:91] Creating Layer inception_4e/5x5_reduce
I0403 19:44:48.584326  9621 net.cpp:425] inception_4e/5x5_reduce <- inception_4d/output_inception_4d/output_0_split_3
I0403 19:44:48.584345  9621 net.cpp:399] inception_4e/5x5_reduce -> inception_4e/5x5_reduce
I0403 19:44:48.585366  9621 net.cpp:141] Setting up inception_4e/5x5_reduce
I0403 19:44:48.585394  9621 net.cpp:148] Top shape: 24 32 14 14 (150528)
I0403 19:44:48.585409  9621 net.cpp:156] Memory required for data: 1236731424
I0403 19:44:48.585428  9621 layer_factory.hpp:77] Creating layer inception_4e/relu_5x5_reduce
I0403 19:44:48.585448  9621 net.cpp:91] Creating Layer inception_4e/relu_5x5_reduce
I0403 19:44:48.585470  9621 net.cpp:425] inception_4e/relu_5x5_reduce <- inception_4e/5x5_reduce
I0403 19:44:48.585489  9621 net.cpp:386] inception_4e/relu_5x5_reduce -> inception_4e/5x5_reduce (in-place)
I0403 19:44:48.585772  9621 net.cpp:141] Setting up inception_4e/relu_5x5_reduce
I0403 19:44:48.585799  9621 net.cpp:148] Top shape: 24 32 14 14 (150528)
I0403 19:44:48.585814  9621 net.cpp:156] Memory required for data: 1237333536
I0403 19:44:48.585830  9621 layer_factory.hpp:77] Creating layer inception_4e/5x5
I0403 19:44:48.585866  9621 net.cpp:91] Creating Layer inception_4e/5x5
I0403 19:44:48.585887  9621 net.cpp:425] inception_4e/5x5 <- inception_4e/5x5_reduce
I0403 19:44:48.585906  9621 net.cpp:399] inception_4e/5x5 -> inception_4e/5x5
I0403 19:44:48.587713  9621 net.cpp:141] Setting up inception_4e/5x5
I0403 19:44:48.587744  9621 net.cpp:148] Top shape: 24 128 14 14 (602112)
I0403 19:44:48.587760  9621 net.cpp:156] Memory required for data: 1239741984
I0403 19:44:48.587780  9621 layer_factory.hpp:77] Creating layer inception_4e/relu_5x5
I0403 19:44:48.587800  9621 net.cpp:91] Creating Layer inception_4e/relu_5x5
I0403 19:44:48.587816  9621 net.cpp:425] inception_4e/relu_5x5 <- inception_4e/5x5
I0403 19:44:48.587836  9621 net.cpp:386] inception_4e/relu_5x5 -> inception_4e/5x5 (in-place)
I0403 19:44:48.588026  9621 net.cpp:141] Setting up inception_4e/relu_5x5
I0403 19:44:48.588052  9621 net.cpp:148] Top shape: 24 128 14 14 (602112)
I0403 19:44:48.588068  9621 net.cpp:156] Memory required for data: 1242150432
I0403 19:44:48.588083  9621 layer_factory.hpp:77] Creating layer inception_4e/pool
I0403 19:44:48.588100  9621 net.cpp:91] Creating Layer inception_4e/pool
I0403 19:44:48.588116  9621 net.cpp:425] inception_4e/pool <- inception_4d/output_inception_4d/output_0_split_4
I0403 19:44:48.588136  9621 net.cpp:399] inception_4e/pool -> inception_4e/pool
I0403 19:44:48.588207  9621 net.cpp:141] Setting up inception_4e/pool
I0403 19:44:48.588232  9621 net.cpp:148] Top shape: 24 528 14 14 (2483712)
I0403 19:44:48.588246  9621 net.cpp:156] Memory required for data: 1252085280
I0403 19:44:48.588261  9621 layer_factory.hpp:77] Creating layer inception_4e/pool_proj
I0403 19:44:48.588282  9621 net.cpp:91] Creating Layer inception_4e/pool_proj
I0403 19:44:48.588301  9621 net.cpp:425] inception_4e/pool_proj <- inception_4e/pool
I0403 19:44:48.588322  9621 net.cpp:399] inception_4e/pool_proj -> inception_4e/pool_proj
I0403 19:44:48.589761  9621 net.cpp:141] Setting up inception_4e/pool_proj
I0403 19:44:48.589792  9621 net.cpp:148] Top shape: 24 128 14 14 (602112)
I0403 19:44:48.589823  9621 net.cpp:156] Memory required for data: 1254493728
I0403 19:44:48.589843  9621 layer_factory.hpp:77] Creating layer inception_4e/relu_pool_proj
I0403 19:44:48.589860  9621 net.cpp:91] Creating Layer inception_4e/relu_pool_proj
I0403 19:44:48.589877  9621 net.cpp:425] inception_4e/relu_pool_proj <- inception_4e/pool_proj
I0403 19:44:48.589897  9621 net.cpp:386] inception_4e/relu_pool_proj -> inception_4e/pool_proj (in-place)
I0403 19:44:48.590179  9621 net.cpp:141] Setting up inception_4e/relu_pool_proj
I0403 19:44:48.590209  9621 net.cpp:148] Top shape: 24 128 14 14 (602112)
I0403 19:44:48.590225  9621 net.cpp:156] Memory required for data: 1256902176
I0403 19:44:48.590240  9621 layer_factory.hpp:77] Creating layer inception_4e/output
I0403 19:44:48.590258  9621 net.cpp:91] Creating Layer inception_4e/output
I0403 19:44:48.590273  9621 net.cpp:425] inception_4e/output <- inception_4e/1x1
I0403 19:44:48.590291  9621 net.cpp:425] inception_4e/output <- inception_4e/3x3
I0403 19:44:48.590307  9621 net.cpp:425] inception_4e/output <- inception_4e/5x5
I0403 19:44:48.590323  9621 net.cpp:425] inception_4e/output <- inception_4e/pool_proj
I0403 19:44:48.590342  9621 net.cpp:399] inception_4e/output -> inception_4e/output
I0403 19:44:48.590390  9621 net.cpp:141] Setting up inception_4e/output
I0403 19:44:48.590415  9621 net.cpp:148] Top shape: 24 832 14 14 (3913728)
I0403 19:44:48.590430  9621 net.cpp:156] Memory required for data: 1272557088
I0403 19:44:48.590445  9621 layer_factory.hpp:77] Creating layer pool4/3x3_s2
I0403 19:44:48.590469  9621 net.cpp:91] Creating Layer pool4/3x3_s2
I0403 19:44:48.590488  9621 net.cpp:425] pool4/3x3_s2 <- inception_4e/output
I0403 19:44:48.590507  9621 net.cpp:399] pool4/3x3_s2 -> pool4/3x3_s2
I0403 19:44:48.590574  9621 net.cpp:141] Setting up pool4/3x3_s2
I0403 19:44:48.590596  9621 net.cpp:148] Top shape: 24 832 7 7 (978432)
I0403 19:44:48.590611  9621 net.cpp:156] Memory required for data: 1276470816
I0403 19:44:48.590627  9621 layer_factory.hpp:77] Creating layer pool4/3x3_s2_pool4/3x3_s2_0_split
I0403 19:44:48.590643  9621 net.cpp:91] Creating Layer pool4/3x3_s2_pool4/3x3_s2_0_split
I0403 19:44:48.590659  9621 net.cpp:425] pool4/3x3_s2_pool4/3x3_s2_0_split <- pool4/3x3_s2
I0403 19:44:48.590678  9621 net.cpp:399] pool4/3x3_s2_pool4/3x3_s2_0_split -> pool4/3x3_s2_pool4/3x3_s2_0_split_0
I0403 19:44:48.590699  9621 net.cpp:399] pool4/3x3_s2_pool4/3x3_s2_0_split -> pool4/3x3_s2_pool4/3x3_s2_0_split_1
I0403 19:44:48.590721  9621 net.cpp:399] pool4/3x3_s2_pool4/3x3_s2_0_split -> pool4/3x3_s2_pool4/3x3_s2_0_split_2
I0403 19:44:48.590742  9621 net.cpp:399] pool4/3x3_s2_pool4/3x3_s2_0_split -> pool4/3x3_s2_pool4/3x3_s2_0_split_3
I0403 19:44:48.590828  9621 net.cpp:141] Setting up pool4/3x3_s2_pool4/3x3_s2_0_split
I0403 19:44:48.590852  9621 net.cpp:148] Top shape: 24 832 7 7 (978432)
I0403 19:44:48.590868  9621 net.cpp:148] Top shape: 24 832 7 7 (978432)
I0403 19:44:48.590884  9621 net.cpp:148] Top shape: 24 832 7 7 (978432)
I0403 19:44:48.590901  9621 net.cpp:148] Top shape: 24 832 7 7 (978432)
I0403 19:44:48.590915  9621 net.cpp:156] Memory required for data: 1292125728
I0403 19:44:48.590930  9621 layer_factory.hpp:77] Creating layer inception_5a/1x1
I0403 19:44:48.590952  9621 net.cpp:91] Creating Layer inception_5a/1x1
I0403 19:44:48.590972  9621 net.cpp:425] inception_5a/1x1 <- pool4/3x3_s2_pool4/3x3_s2_0_split_0
I0403 19:44:48.590993  9621 net.cpp:399] inception_5a/1x1 -> inception_5a/1x1
I0403 19:44:48.593760  9621 net.cpp:141] Setting up inception_5a/1x1
I0403 19:44:48.593789  9621 net.cpp:148] Top shape: 24 256 7 7 (301056)
I0403 19:44:48.593806  9621 net.cpp:156] Memory required for data: 1293329952
I0403 19:44:48.593825  9621 layer_factory.hpp:77] Creating layer inception_5a/relu_1x1
I0403 19:44:48.593843  9621 net.cpp:91] Creating Layer inception_5a/relu_1x1
I0403 19:44:48.593858  9621 net.cpp:425] inception_5a/relu_1x1 <- inception_5a/1x1
I0403 19:44:48.593878  9621 net.cpp:386] inception_5a/relu_1x1 -> inception_5a/1x1 (in-place)
I0403 19:44:48.594187  9621 net.cpp:141] Setting up inception_5a/relu_1x1
I0403 19:44:48.594215  9621 net.cpp:148] Top shape: 24 256 7 7 (301056)
I0403 19:44:48.594230  9621 net.cpp:156] Memory required for data: 1294534176
I0403 19:44:48.594244  9621 layer_factory.hpp:77] Creating layer inception_5a/3x3_reduce
I0403 19:44:48.594265  9621 net.cpp:91] Creating Layer inception_5a/3x3_reduce
I0403 19:44:48.594285  9621 net.cpp:425] inception_5a/3x3_reduce <- pool4/3x3_s2_pool4/3x3_s2_0_split_1
I0403 19:44:48.594305  9621 net.cpp:399] inception_5a/3x3_reduce -> inception_5a/3x3_reduce
I0403 19:44:48.597925  9621 net.cpp:141] Setting up inception_5a/3x3_reduce
I0403 19:44:48.597955  9621 net.cpp:148] Top shape: 24 160 7 7 (188160)
I0403 19:44:48.597971  9621 net.cpp:156] Memory required for data: 1295286816
I0403 19:44:48.597992  9621 layer_factory.hpp:77] Creating layer inception_5a/relu_3x3_reduce
I0403 19:44:48.598012  9621 net.cpp:91] Creating Layer inception_5a/relu_3x3_reduce
I0403 19:44:48.598028  9621 net.cpp:425] inception_5a/relu_3x3_reduce <- inception_5a/3x3_reduce
I0403 19:44:48.598047  9621 net.cpp:386] inception_5a/relu_3x3_reduce -> inception_5a/3x3_reduce (in-place)
I0403 19:44:48.598229  9621 net.cpp:141] Setting up inception_5a/relu_3x3_reduce
I0403 19:44:48.598255  9621 net.cpp:148] Top shape: 24 160 7 7 (188160)
I0403 19:44:48.598269  9621 net.cpp:156] Memory required for data: 1296039456
I0403 19:44:48.598284  9621 layer_factory.hpp:77] Creating layer inception_5a/3x3
I0403 19:44:48.598306  9621 net.cpp:91] Creating Layer inception_5a/3x3
I0403 19:44:48.598325  9621 net.cpp:425] inception_5a/3x3 <- inception_5a/3x3_reduce
I0403 19:44:48.598350  9621 net.cpp:399] inception_5a/3x3 -> inception_5a/3x3
I0403 19:44:48.603137  9621 net.cpp:141] Setting up inception_5a/3x3
I0403 19:44:48.603168  9621 net.cpp:148] Top shape: 24 320 7 7 (376320)
I0403 19:44:48.603186  9621 net.cpp:156] Memory required for data: 1297544736
I0403 19:44:48.603206  9621 layer_factory.hpp:77] Creating layer inception_5a/relu_3x3
I0403 19:44:48.603224  9621 net.cpp:91] Creating Layer inception_5a/relu_3x3
I0403 19:44:48.603241  9621 net.cpp:425] inception_5a/relu_3x3 <- inception_5a/3x3
I0403 19:44:48.603261  9621 net.cpp:386] inception_5a/relu_3x3 -> inception_5a/3x3 (in-place)
I0403 19:44:48.603551  9621 net.cpp:141] Setting up inception_5a/relu_3x3
I0403 19:44:48.603579  9621 net.cpp:148] Top shape: 24 320 7 7 (376320)
I0403 19:44:48.603592  9621 net.cpp:156] Memory required for data: 1299050016
I0403 19:44:48.603606  9621 layer_factory.hpp:77] Creating layer inception_5a/5x5_reduce
I0403 19:44:48.603629  9621 net.cpp:91] Creating Layer inception_5a/5x5_reduce
I0403 19:44:48.603649  9621 net.cpp:425] inception_5a/5x5_reduce <- pool4/3x3_s2_pool4/3x3_s2_0_split_2
I0403 19:44:48.603674  9621 net.cpp:399] inception_5a/5x5_reduce -> inception_5a/5x5_reduce
I0403 19:44:48.604796  9621 net.cpp:141] Setting up inception_5a/5x5_reduce
I0403 19:44:48.604825  9621 net.cpp:148] Top shape: 24 32 7 7 (37632)
I0403 19:44:48.604842  9621 net.cpp:156] Memory required for data: 1299200544
I0403 19:44:48.604861  9621 layer_factory.hpp:77] Creating layer inception_5a/relu_5x5_reduce
I0403 19:44:48.604882  9621 net.cpp:91] Creating Layer inception_5a/relu_5x5_reduce
I0403 19:44:48.604900  9621 net.cpp:425] inception_5a/relu_5x5_reduce <- inception_5a/5x5_reduce
I0403 19:44:48.604918  9621 net.cpp:386] inception_5a/relu_5x5_reduce -> inception_5a/5x5_reduce (in-place)
I0403 19:44:48.605207  9621 net.cpp:141] Setting up inception_5a/relu_5x5_reduce
I0403 19:44:48.605233  9621 net.cpp:148] Top shape: 24 32 7 7 (37632)
I0403 19:44:48.605248  9621 net.cpp:156] Memory required for data: 1299351072
I0403 19:44:48.605262  9621 layer_factory.hpp:77] Creating layer inception_5a/5x5
I0403 19:44:48.605284  9621 net.cpp:91] Creating Layer inception_5a/5x5
I0403 19:44:48.605303  9621 net.cpp:425] inception_5a/5x5 <- inception_5a/5x5_reduce
I0403 19:44:48.605324  9621 net.cpp:399] inception_5a/5x5 -> inception_5a/5x5
I0403 19:44:48.611078  9621 net.cpp:141] Setting up inception_5a/5x5
I0403 19:44:48.611119  9621 net.cpp:148] Top shape: 24 128 7 7 (150528)
I0403 19:44:48.611135  9621 net.cpp:156] Memory required for data: 1299953184
I0403 19:44:48.611155  9621 layer_factory.hpp:77] Creating layer inception_5a/relu_5x5
I0403 19:44:48.611171  9621 net.cpp:91] Creating Layer inception_5a/relu_5x5
I0403 19:44:48.611189  9621 net.cpp:425] inception_5a/relu_5x5 <- inception_5a/5x5
I0403 19:44:48.611209  9621 net.cpp:386] inception_5a/relu_5x5 -> inception_5a/5x5 (in-place)
I0403 19:44:48.611392  9621 net.cpp:141] Setting up inception_5a/relu_5x5
I0403 19:44:48.611418  9621 net.cpp:148] Top shape: 24 128 7 7 (150528)
I0403 19:44:48.611433  9621 net.cpp:156] Memory required for data: 1300555296
I0403 19:44:48.611449  9621 layer_factory.hpp:77] Creating layer inception_5a/pool
I0403 19:44:48.611472  9621 net.cpp:91] Creating Layer inception_5a/pool
I0403 19:44:48.611493  9621 net.cpp:425] inception_5a/pool <- pool4/3x3_s2_pool4/3x3_s2_0_split_3
I0403 19:44:48.611511  9621 net.cpp:399] inception_5a/pool -> inception_5a/pool
I0403 19:44:48.611582  9621 net.cpp:141] Setting up inception_5a/pool
I0403 19:44:48.611606  9621 net.cpp:148] Top shape: 24 832 7 7 (978432)
I0403 19:44:48.611620  9621 net.cpp:156] Memory required for data: 1304469024
I0403 19:44:48.611634  9621 layer_factory.hpp:77] Creating layer inception_5a/pool_proj
I0403 19:44:48.611660  9621 net.cpp:91] Creating Layer inception_5a/pool_proj
I0403 19:44:48.611680  9621 net.cpp:425] inception_5a/pool_proj <- inception_5a/pool
I0403 19:44:48.611702  9621 net.cpp:399] inception_5a/pool_proj -> inception_5a/pool_proj
I0403 19:44:48.614641  9621 net.cpp:141] Setting up inception_5a/pool_proj
I0403 19:44:48.614688  9621 net.cpp:148] Top shape: 24 128 7 7 (150528)
I0403 19:44:48.614712  9621 net.cpp:156] Memory required for data: 1305071136
I0403 19:44:48.614739  9621 layer_factory.hpp:77] Creating layer inception_5a/relu_pool_proj
I0403 19:44:48.614765  9621 net.cpp:91] Creating Layer inception_5a/relu_pool_proj
I0403 19:44:48.614791  9621 net.cpp:425] inception_5a/relu_pool_proj <- inception_5a/pool_proj
I0403 19:44:48.614821  9621 net.cpp:386] inception_5a/relu_pool_proj -> inception_5a/pool_proj (in-place)
I0403 19:44:48.615242  9621 net.cpp:141] Setting up inception_5a/relu_pool_proj
I0403 19:44:48.615285  9621 net.cpp:148] Top shape: 24 128 7 7 (150528)
I0403 19:44:48.615308  9621 net.cpp:156] Memory required for data: 1305673248
I0403 19:44:48.615329  9621 layer_factory.hpp:77] Creating layer inception_5a/output
I0403 19:44:48.615355  9621 net.cpp:91] Creating Layer inception_5a/output
I0403 19:44:48.615378  9621 net.cpp:425] inception_5a/output <- inception_5a/1x1
I0403 19:44:48.615403  9621 net.cpp:425] inception_5a/output <- inception_5a/3x3
I0403 19:44:48.615427  9621 net.cpp:425] inception_5a/output <- inception_5a/5x5
I0403 19:44:48.615452  9621 net.cpp:425] inception_5a/output <- inception_5a/pool_proj
I0403 19:44:48.615483  9621 net.cpp:399] inception_5a/output -> inception_5a/output
I0403 19:44:48.615559  9621 net.cpp:141] Setting up inception_5a/output
I0403 19:44:48.615595  9621 net.cpp:148] Top shape: 24 832 7 7 (978432)
I0403 19:44:48.615617  9621 net.cpp:156] Memory required for data: 1309586976
I0403 19:44:48.615640  9621 layer_factory.hpp:77] Creating layer inception_5a/output_inception_5a/output_0_split
I0403 19:44:48.615667  9621 net.cpp:91] Creating Layer inception_5a/output_inception_5a/output_0_split
I0403 19:44:48.615692  9621 net.cpp:425] inception_5a/output_inception_5a/output_0_split <- inception_5a/output
I0403 19:44:48.615718  9621 net.cpp:399] inception_5a/output_inception_5a/output_0_split -> inception_5a/output_inception_5a/output_0_split_0
I0403 19:44:48.615748  9621 net.cpp:399] inception_5a/output_inception_5a/output_0_split -> inception_5a/output_inception_5a/output_0_split_1
I0403 19:44:48.615779  9621 net.cpp:399] inception_5a/output_inception_5a/output_0_split -> inception_5a/output_inception_5a/output_0_split_2
I0403 19:44:48.615814  9621 net.cpp:399] inception_5a/output_inception_5a/output_0_split -> inception_5a/output_inception_5a/output_0_split_3
I0403 19:44:48.615980  9621 net.cpp:141] Setting up inception_5a/output_inception_5a/output_0_split
I0403 19:44:48.616016  9621 net.cpp:148] Top shape: 24 832 7 7 (978432)
I0403 19:44:48.616041  9621 net.cpp:148] Top shape: 24 832 7 7 (978432)
I0403 19:44:48.616065  9621 net.cpp:148] Top shape: 24 832 7 7 (978432)
I0403 19:44:48.616087  9621 net.cpp:148] Top shape: 24 832 7 7 (978432)
I0403 19:44:48.616108  9621 net.cpp:156] Memory required for data: 1325241888
I0403 19:44:48.616132  9621 layer_factory.hpp:77] Creating layer inception_5b/1x1
I0403 19:44:48.616164  9621 net.cpp:91] Creating Layer inception_5b/1x1
I0403 19:44:48.616195  9621 net.cpp:425] inception_5b/1x1 <- inception_5a/output_inception_5a/output_0_split_0
I0403 19:44:48.616226  9621 net.cpp:399] inception_5b/1x1 -> inception_5b/1x1
I0403 19:44:48.621726  9621 net.cpp:141] Setting up inception_5b/1x1
I0403 19:44:48.621773  9621 net.cpp:148] Top shape: 24 384 7 7 (451584)
I0403 19:44:48.621798  9621 net.cpp:156] Memory required for data: 1327048224
I0403 19:44:48.621826  9621 layer_factory.hpp:77] Creating layer inception_5b/relu_1x1
I0403 19:44:48.621853  9621 net.cpp:91] Creating Layer inception_5b/relu_1x1
I0403 19:44:48.621879  9621 net.cpp:425] inception_5b/relu_1x1 <- inception_5b/1x1
I0403 19:44:48.621908  9621 net.cpp:386] inception_5b/relu_1x1 -> inception_5b/1x1 (in-place)
I0403 19:44:48.622402  9621 net.cpp:141] Setting up inception_5b/relu_1x1
I0403 19:44:48.622444  9621 net.cpp:148] Top shape: 24 384 7 7 (451584)
I0403 19:44:48.622488  9621 net.cpp:156] Memory required for data: 1328854560
I0403 19:44:48.622525  9621 layer_factory.hpp:77] Creating layer inception_5b/3x3_reduce
I0403 19:44:48.622547  9621 net.cpp:91] Creating Layer inception_5b/3x3_reduce
I0403 19:44:48.622567  9621 net.cpp:425] inception_5b/3x3_reduce <- inception_5a/output_inception_5a/output_0_split_1
I0403 19:44:48.622586  9621 net.cpp:399] inception_5b/3x3_reduce -> inception_5b/3x3_reduce
I0403 19:44:48.625309  9621 net.cpp:141] Setting up inception_5b/3x3_reduce
I0403 19:44:48.625340  9621 net.cpp:148] Top shape: 24 192 7 7 (225792)
I0403 19:44:48.625358  9621 net.cpp:156] Memory required for data: 1329757728
I0403 19:44:48.625376  9621 layer_factory.hpp:77] Creating layer inception_5b/relu_3x3_reduce
I0403 19:44:48.625396  9621 net.cpp:91] Creating Layer inception_5b/relu_3x3_reduce
I0403 19:44:48.625411  9621 net.cpp:425] inception_5b/relu_3x3_reduce <- inception_5b/3x3_reduce
I0403 19:44:48.625429  9621 net.cpp:386] inception_5b/relu_3x3_reduce -> inception_5b/3x3_reduce (in-place)
I0403 19:44:48.625622  9621 net.cpp:141] Setting up inception_5b/relu_3x3_reduce
I0403 19:44:48.625648  9621 net.cpp:148] Top shape: 24 192 7 7 (225792)
I0403 19:44:48.625663  9621 net.cpp:156] Memory required for data: 1330660896
I0403 19:44:48.625676  9621 layer_factory.hpp:77] Creating layer inception_5b/3x3
I0403 19:44:48.625699  9621 net.cpp:91] Creating Layer inception_5b/3x3
I0403 19:44:48.625716  9621 net.cpp:425] inception_5b/3x3 <- inception_5b/3x3_reduce
I0403 19:44:48.625740  9621 net.cpp:399] inception_5b/3x3 -> inception_5b/3x3
I0403 19:44:48.632110  9621 net.cpp:141] Setting up inception_5b/3x3
I0403 19:44:48.632141  9621 net.cpp:148] Top shape: 24 384 7 7 (451584)
I0403 19:44:48.632158  9621 net.cpp:156] Memory required for data: 1332467232
I0403 19:44:48.632175  9621 layer_factory.hpp:77] Creating layer inception_5b/relu_3x3
I0403 19:44:48.632194  9621 net.cpp:91] Creating Layer inception_5b/relu_3x3
I0403 19:44:48.632212  9621 net.cpp:425] inception_5b/relu_3x3 <- inception_5b/3x3
I0403 19:44:48.632232  9621 net.cpp:386] inception_5b/relu_3x3 -> inception_5b/3x3 (in-place)
I0403 19:44:48.632530  9621 net.cpp:141] Setting up inception_5b/relu_3x3
I0403 19:44:48.632560  9621 net.cpp:148] Top shape: 24 384 7 7 (451584)
I0403 19:44:48.632576  9621 net.cpp:156] Memory required for data: 1334273568
I0403 19:44:48.632591  9621 layer_factory.hpp:77] Creating layer inception_5b/5x5_reduce
I0403 19:44:48.632628  9621 net.cpp:91] Creating Layer inception_5b/5x5_reduce
I0403 19:44:48.632649  9621 net.cpp:425] inception_5b/5x5_reduce <- inception_5a/output_inception_5a/output_0_split_2
I0403 19:44:48.632671  9621 net.cpp:399] inception_5b/5x5_reduce -> inception_5b/5x5_reduce
I0403 19:44:48.633879  9621 net.cpp:141] Setting up inception_5b/5x5_reduce
I0403 19:44:48.633909  9621 net.cpp:148] Top shape: 24 48 7 7 (56448)
I0403 19:44:48.633927  9621 net.cpp:156] Memory required for data: 1334499360
I0403 19:44:48.633946  9621 layer_factory.hpp:77] Creating layer inception_5b/relu_5x5_reduce
I0403 19:44:48.633963  9621 net.cpp:91] Creating Layer inception_5b/relu_5x5_reduce
I0403 19:44:48.633981  9621 net.cpp:425] inception_5b/relu_5x5_reduce <- inception_5b/5x5_reduce
I0403 19:44:48.634001  9621 net.cpp:386] inception_5b/relu_5x5_reduce -> inception_5b/5x5_reduce (in-place)
I0403 19:44:48.634457  9621 net.cpp:141] Setting up inception_5b/relu_5x5_reduce
I0403 19:44:48.634487  9621 net.cpp:148] Top shape: 24 48 7 7 (56448)
I0403 19:44:48.634503  9621 net.cpp:156] Memory required for data: 1334725152
I0403 19:44:48.634519  9621 layer_factory.hpp:77] Creating layer inception_5b/5x5
I0403 19:44:48.634539  9621 net.cpp:91] Creating Layer inception_5b/5x5
I0403 19:44:48.634557  9621 net.cpp:425] inception_5b/5x5 <- inception_5b/5x5_reduce
I0403 19:44:48.634577  9621 net.cpp:399] inception_5b/5x5 -> inception_5b/5x5
I0403 19:44:48.636646  9621 net.cpp:141] Setting up inception_5b/5x5
I0403 19:44:48.636673  9621 net.cpp:148] Top shape: 24 128 7 7 (150528)
I0403 19:44:48.636690  9621 net.cpp:156] Memory required for data: 1335327264
I0403 19:44:48.636709  9621 layer_factory.hpp:77] Creating layer inception_5b/relu_5x5
I0403 19:44:48.636726  9621 net.cpp:91] Creating Layer inception_5b/relu_5x5
I0403 19:44:48.636744  9621 net.cpp:425] inception_5b/relu_5x5 <- inception_5b/5x5
I0403 19:44:48.636764  9621 net.cpp:386] inception_5b/relu_5x5 -> inception_5b/5x5 (in-place)
I0403 19:44:48.636953  9621 net.cpp:141] Setting up inception_5b/relu_5x5
I0403 19:44:48.636978  9621 net.cpp:148] Top shape: 24 128 7 7 (150528)
I0403 19:44:48.636993  9621 net.cpp:156] Memory required for data: 1335929376
I0403 19:44:48.637009  9621 layer_factory.hpp:77] Creating layer inception_5b/pool
I0403 19:44:48.637027  9621 net.cpp:91] Creating Layer inception_5b/pool
I0403 19:44:48.637047  9621 net.cpp:425] inception_5b/pool <- inception_5a/output_inception_5a/output_0_split_3
I0403 19:44:48.637064  9621 net.cpp:399] inception_5b/pool -> inception_5b/pool
I0403 19:44:48.637135  9621 net.cpp:141] Setting up inception_5b/pool
I0403 19:44:48.637161  9621 net.cpp:148] Top shape: 24 832 7 7 (978432)
I0403 19:44:48.637174  9621 net.cpp:156] Memory required for data: 1339843104
I0403 19:44:48.637192  9621 layer_factory.hpp:77] Creating layer inception_5b/pool_proj
I0403 19:44:48.637214  9621 net.cpp:91] Creating Layer inception_5b/pool_proj
I0403 19:44:48.637234  9621 net.cpp:425] inception_5b/pool_proj <- inception_5b/pool
I0403 19:44:48.637258  9621 net.cpp:399] inception_5b/pool_proj -> inception_5b/pool_proj
I0403 19:44:48.639587  9621 net.cpp:141] Setting up inception_5b/pool_proj
I0403 19:44:48.639618  9621 net.cpp:148] Top shape: 24 128 7 7 (150528)
I0403 19:44:48.639636  9621 net.cpp:156] Memory required for data: 1340445216
I0403 19:44:48.639653  9621 layer_factory.hpp:77] Creating layer inception_5b/relu_pool_proj
I0403 19:44:48.639670  9621 net.cpp:91] Creating Layer inception_5b/relu_pool_proj
I0403 19:44:48.639688  9621 net.cpp:425] inception_5b/relu_pool_proj <- inception_5b/pool_proj
I0403 19:44:48.639708  9621 net.cpp:386] inception_5b/relu_pool_proj -> inception_5b/pool_proj (in-place)
I0403 19:44:48.639997  9621 net.cpp:141] Setting up inception_5b/relu_pool_proj
I0403 19:44:48.640027  9621 net.cpp:148] Top shape: 24 128 7 7 (150528)
I0403 19:44:48.640043  9621 net.cpp:156] Memory required for data: 1341047328
I0403 19:44:48.640058  9621 layer_factory.hpp:77] Creating layer inception_5b/output
I0403 19:44:48.640074  9621 net.cpp:91] Creating Layer inception_5b/output
I0403 19:44:48.640105  9621 net.cpp:425] inception_5b/output <- inception_5b/1x1
I0403 19:44:48.640126  9621 net.cpp:425] inception_5b/output <- inception_5b/3x3
I0403 19:44:48.640143  9621 net.cpp:425] inception_5b/output <- inception_5b/5x5
I0403 19:44:48.640159  9621 net.cpp:425] inception_5b/output <- inception_5b/pool_proj
I0403 19:44:48.640192  9621 net.cpp:399] inception_5b/output -> inception_5b/output
I0403 19:44:48.640244  9621 net.cpp:141] Setting up inception_5b/output
I0403 19:44:48.640269  9621 net.cpp:148] Top shape: 24 1024 7 7 (1204224)
I0403 19:44:48.640283  9621 net.cpp:156] Memory required for data: 1345864224
I0403 19:44:48.640298  9621 layer_factory.hpp:77] Creating layer pool5/7x7_s1
I0403 19:44:48.640319  9621 net.cpp:91] Creating Layer pool5/7x7_s1
I0403 19:44:48.640336  9621 net.cpp:425] pool5/7x7_s1 <- inception_5b/output
I0403 19:44:48.640357  9621 net.cpp:399] pool5/7x7_s1 -> pool5/7x7_s1
I0403 19:44:48.640588  9621 net.cpp:141] Setting up pool5/7x7_s1
I0403 19:44:48.640615  9621 net.cpp:148] Top shape: 24 1024 1 1 (24576)
I0403 19:44:48.640630  9621 net.cpp:156] Memory required for data: 1345962528
I0403 19:44:48.640645  9621 layer_factory.hpp:77] Creating layer pool5/drop_7x7_s1
I0403 19:44:48.640663  9621 net.cpp:91] Creating Layer pool5/drop_7x7_s1
I0403 19:44:48.640679  9621 net.cpp:425] pool5/drop_7x7_s1 <- pool5/7x7_s1
I0403 19:44:48.640699  9621 net.cpp:386] pool5/drop_7x7_s1 -> pool5/7x7_s1 (in-place)
I0403 19:44:48.640750  9621 net.cpp:141] Setting up pool5/drop_7x7_s1
I0403 19:44:48.640776  9621 net.cpp:148] Top shape: 24 1024 1 1 (24576)
I0403 19:44:48.640791  9621 net.cpp:156] Memory required for data: 1346060832
I0403 19:44:48.640805  9621 layer_factory.hpp:77] Creating layer loss3/classifier_plantvillage
I0403 19:44:48.640825  9621 net.cpp:91] Creating Layer loss3/classifier_plantvillage
I0403 19:44:48.640841  9621 net.cpp:425] loss3/classifier_plantvillage <- pool5/7x7_s1
I0403 19:44:48.640862  9621 net.cpp:399] loss3/classifier_plantvillage -> loss3/classifier_plantvillage
I0403 19:44:48.641268  9621 net.cpp:141] Setting up loss3/classifier_plantvillage
I0403 19:44:48.641296  9621 net.cpp:148] Top shape: 24 38 (912)
I0403 19:44:48.641311  9621 net.cpp:156] Memory required for data: 1346064480
I0403 19:44:48.641330  9621 layer_factory.hpp:77] Creating layer loss3/classifier_plantvillage_loss3/classifier_plantvillage_0_split
I0403 19:44:48.641348  9621 net.cpp:91] Creating Layer loss3/classifier_plantvillage_loss3/classifier_plantvillage_0_split
I0403 19:44:48.641366  9621 net.cpp:425] loss3/classifier_plantvillage_loss3/classifier_plantvillage_0_split <- loss3/classifier_plantvillage
I0403 19:44:48.641384  9621 net.cpp:399] loss3/classifier_plantvillage_loss3/classifier_plantvillage_0_split -> loss3/classifier_plantvillage_loss3/classifier_plantvillage_0_split_0
I0403 19:44:48.641404  9621 net.cpp:399] loss3/classifier_plantvillage_loss3/classifier_plantvillage_0_split -> loss3/classifier_plantvillage_loss3/classifier_plantvillage_0_split_1
I0403 19:44:48.641425  9621 net.cpp:399] loss3/classifier_plantvillage_loss3/classifier_plantvillage_0_split -> loss3/classifier_plantvillage_loss3/classifier_plantvillage_0_split_2
I0403 19:44:48.641446  9621 net.cpp:399] loss3/classifier_plantvillage_loss3/classifier_plantvillage_0_split -> loss3/classifier_plantvillage_loss3/classifier_plantvillage_0_split_3
I0403 19:44:48.641548  9621 net.cpp:141] Setting up loss3/classifier_plantvillage_loss3/classifier_plantvillage_0_split
I0403 19:44:48.641572  9621 net.cpp:148] Top shape: 24 38 (912)
I0403 19:44:48.641590  9621 net.cpp:148] Top shape: 24 38 (912)
I0403 19:44:48.641607  9621 net.cpp:148] Top shape: 24 38 (912)
I0403 19:44:48.641623  9621 net.cpp:148] Top shape: 24 38 (912)
I0403 19:44:48.641638  9621 net.cpp:156] Memory required for data: 1346079072
I0403 19:44:48.641652  9621 layer_factory.hpp:77] Creating layer loss1/loss
I0403 19:44:48.641674  9621 net.cpp:91] Creating Layer loss1/loss
I0403 19:44:48.641693  9621 net.cpp:425] loss1/loss <- loss1/classifier_plantvillage_loss1/classifier_plantvillage_0_split_0
I0403 19:44:48.641726  9621 net.cpp:425] loss1/loss <- label_data_1_split_0
…
