…
I0403 19:39:13.101676  9494 net.cpp:313] The NetState phase (1) differed from the phase (0) specified by a rule in layer data
I0403 19:39:13.103322  9494 net.cpp:49] Initializing net from parameters: 
state {
  phase: TEST
}
layer {
  name: "data"
  type: "Data"
  top: "data"
  top: "label"
  include {
    phase: TEST
  }
  transform_param {
    mirror: false
    crop_size: 224
    mean_file: "/home/mohanty/data/final_dataset/lmdb/color-60-40/mean.binaryproto"
  }
  data_param {
    source: "/home/mohanty/data/final_dataset/lmdb/color-60-40/test_db"
    batch_size: 24
    backend: LMDB
  }
}
layer {
  name: "conv1/7x7_s2"
  type: "Convolution"
  bottom: "data"
  top: "conv1/7x7_s2"
  param {
    lr_mult: 1
    decay_mult: 1
  }
  param {
    lr_mult: 2
    decay_mult: 0
  }
  convolution_param {
    num_output: 64
    pad: 3
    kernel_size: 7
    stride: 2
    weight_filler {
      type: "xavier"
      std: 0.1
    }
    bias_filler {
      type: "constant"
      value: 0.2
    }
  }
}
layer {
  name: "conv1/relu_7x7"
  type: "ReLU"
  bottom: "conv1/7x7_s2"
  top: "conv1/7x7_s2"
}
layer {
  name: "pool1/3x3_s2"
  type: "Pooling"
  bottom: "conv1/7x7_s2"
  top: "pool1/3x3_s2"
  pooling_param {
    pool: MAX
    kernel_size: 3
    stride: 2
  }
}
layer {
  name: "pool1/norm1"
  type: "LRN"
  bottom: "pool1/3x3_s2"
  top: "pool1/norm1"
  lrn_param {
    local_size: 5
    alpha: 0.0001
    beta: 0.75
  }
}
layer {
  name: "conv2/3x3_reduce"
  type: "Convolution"
  bottom: "pool1/norm1"
  top: "conv2/3x3_reduce"
  param {
    lr_mult: 1
    decay_mult: 1
  }
  param {
    lr_mult: 2
    decay_mult: 0
  }
  convolution_param {
    num_output: 64
    kernel_size: 1
    weight_filler {
      type: "xavier"
      std: 0.1
    }
    bias_filler {
      type: "constant"
      value: 0.2
    }
  }
}
layer {
  name: "conv2/relu_3x3_reduce"
  type: "ReLU"
  bottom: "conv2/3x3_reduce"
  top: "conv2/3x3_reduce"
}
layer {
  name: "conv2/3x3"
  type: "Convolution"
  bottom: "conv2/3x3_reduce"
  top: "conv2/3x3"
  param {
    lr_mult: 1
    decay_mult: 1
  }
  param {
    lr_mult: 2
    decay_mult: 0
  }
  convolution_param {
    num_output: 192
    pad: 1
    kernel_size: 3
    weight_filler {
      type: "xavier"
      std: 0.03
    }
    bias_filler {
      type: "constant"
      value: 0.2
    }
  }
}
layer {
  name: "conv2/relu_3x3"
  type: "ReLU"
  bottom: "conv2/3x3"
  top: "conv2/3x3"
}
layer {
  name: "conv2/norm2"
  type: "LRN"
  bottom: "conv2/3x3"
  top: "conv2/norm2"
  lrn_param {
    local_size: 5
    alpha: 0.0001
    beta: 0.75
  }
}
layer {
  name: "pool2/3x3_s2"
  type: "Pooling"
  bottom: "conv2/norm2"
  top: "pool2/3x3_s2"
  pooling_param {
    pool: MAX
    kernel_size: 3
    stride: 2
  }
}
layer {
  name: "inception_3a/1x1"
  type: "Convolution"
  bottom: "pool2/3x3_s2"
  top: "inception_3a/1x1"
  param {
    lr_mult: 1
    decay_mult: 1
  }
  param {
    lr_mult: 2
    decay_mult: 0
  }
  convolution_param {
    num_output: 64
    kernel_size: 1
    weight_filler {
      type: "xavier"
      std: 0.03
    }
    bias_filler {
      type: "constant"
      value: 0.2
    }
  }
}
layer {
  name: "inception_3a/relu_1x1"
  type: "ReLU"
  bottom: "inception_3a/1x1"
  top: "inception_3a/1x1"
}
layer {
  name: "inception_3a/3x3_reduce"
  type: "Convolution"
  bottom: "pool2/3x3_s2"
  top: "inception_3a/3x3_reduce"
  param {
    lr_mult: 1
    decay_mult: 1
  }
  param {
    lr_mult: 2
    decay_mult: 0
  }
  convolution_param {
    num_output: 96
    kernel_size: 1
    weight_filler {
      type: "xavier"
      std: 0.09
    }
    bias_filler {
      type: "constant"
      value: 0.2
    }
  }
}
layer {
  name: "inception_3a/relu_3x3_reduce"
  type: "ReLU"
  bottom: "inception_3a/3x3_reduce"
  top: "inception_3a/3x3_reduce"
}
layer {
  name: "inception_3a/3x3"
  type: "Convolution"
  bottom: "inception_3a/3x3_reduce"
  top: "inception_3a/3x3"
  param {
    lr_mult: 1
    decay_mult: 1
  }
  param {
    lr_mult: 2
    decay_mult: 0
  }
  convolution_param {
    num_output: 128
    pad: 1
    kernel_size: 3
    weight_filler {
      type: "xavier"
      std: 0.03
    }
    bias_filler {
      type: "constant"
      value: 0.2
    }
  }
}
layer {
  name: "inception_3a/relu_3x3"
  type: "ReLU"
  bottom: "inception_3a/3x3"
  top: "inception_3a/3x3"
}
layer {
  name: "inception_3a/5x5_reduce"
  type: "Convolution"
  bottom: "pool2/3x3_s2"
  top: "inception_3a/5x5_reduce"
  param {
    lr_mult: 1
    decay_mult: 1
  }
  param {
    lr_mult: 2
    decay_mult: 0
  }
  convolution_param {
    num_output: 16
    kernel_size: 1
    weight_filler {
      type: "xavier"
      std: 0.2
    }
    bias_filler {
      type: "constant"
      value: 0.2
    }
  }
}
layer {
  name: "inception_3a/relu_5x5_reduce"
  type: "ReLU"
  bottom: "inception_3a/5x5_reduce"
  top: "inception_3a/5x5_reduce"
}
layer {
  name: "inception_3a/5x5"
  type: "Convolution"
  bottom: "inception_3a/5x5_reduce"
  top: "inception_3a/5x5"
  param {
    lr_mult: 1
    decay_mult: 1
  }
  param {
    lr_mult: 2
    decay_mult: 0
  }
  convolution_param {
    num_output: 32
    pad: 2
    kernel_size: 5
    weight_filler {
      type: "xavier"
      std: 0.03
    }
    bias_filler {
      type: "constant"
      value: 0.2
    }
  }
}
layer {
  name: "inception_3a/relu_5x5"
  type: "ReLU"
  bottom: "inception_3a/5x5"
  top: "inception_3a/5x5"
}
layer {
  name: "inception_3a/pool"
  type: "Pooling"
  bottom: "pool2/3x3_s2"
  top: "inception_3a/pool"
  pooling_param {
    pool: MAX
    kernel_size: 3
    stride: 1
    pad: 1
  }
}
layer {
  name: "inception_3a/pool_proj"
  type: "Convolution"
  bottom: "inception_3a/pool"
  top: "inception_3a/pool_proj"
  param {
    lr_mult: 1
    decay_mult: 1
  }
  param {
    lr_mult: 2
    decay_mult: 0
  }
  convolution_param {
    num_output: 32
    kernel_size: 1
    weight_filler {
      type: "xavier"
      std: 0.1
    }
    bias_filler {
      type: "constant"
      value: 0.2
    }
  }
}
layer {
  name: "inception_3a/relu_pool_proj"
  type: "ReLU"
  bottom: "inception_3a/pool_proj"
  top: "inception_3a/pool_proj"
}
layer {
  name: "inception_3a/output"
  type: "Concat"
  bottom: "inception_3a/1x1"
  bottom: "inception_3a/3x3"
  bottom: "inception_3a/5x5"
  bottom: "inception_3a/pool_proj"
  top: "inception_3a/output"
}
layer {
  name: "inception_3b/1x1"
  type: "Convolution"
  bottom: "inception_3a/output"
  top: "inception_3b/1x1"
  param {
    lr_mult: 1
    decay_mult: 1
  }
  param {
    lr_mult: 2
    decay_mult: 0
  }
  convolution_param {
    num_output: 128
    kernel_size: 1
    weight_filler {
      type: "xavier"
      std: 0.03
    }
    bias_filler {
      type: "constant"
      value: 0.2
    }
  }
}
layer {
  name: "inception_3b/relu_1x1"
  type: "ReLU"
  bottom: "inception_3b/1x1"
  top: "inception_3b/1x1"
}
layer {
  name: "inception_3b/3x3_reduce"
  type: "Convolution"
  bottom: "inception_3a/output"
  top: "inception_3b/3x3_reduce"
  param {
    lr_mult: 1
    decay_mult: 1
  }
  param {
    lr_mult: 2
    decay_mult: 0
  }
  convolution_param {
    num_output: 128
    kernel_size: 1
    weight_filler {
      type: "xavier"
      std: 0.09
    }
    bias_filler {
      type: "constant"
      value: 0.2
    }
  }
}
layer {
  name: "inception_3b/relu_3x3_reduce"
  type: "ReLU"
  bottom: "inception_3b/3x3_reduce"
  top: "inception_3b/3x3_reduce"
}
layer {
  name: "inception_3b/3x3"
  type: "Convolution"
  bottom: "inception_3b/3x3_reduce"
  top: "inception_3b/3x3"
  param {
    lr_mult: 1
    decay_mult: 1
  }
  param {
    lr_mult: 2
    decay_mult: 0
  }
  convolution_param {
    num_output: 192
    pad: 1
    kernel_size: 3
    weight_filler {
      type: "xavier"
      std: 0.03
    }
    bias_filler {
      type: "constant"
      value: 0.2
    }
  }
}
layer {
  name: "inception_3b/relu_3x3"
  type: "ReLU"
  bottom: "inception_3b/3x3"
  top: "inception_3b/3x3"
}
layer {
  name: "inception_3b/5x5_reduce"
  type: "Convolution"
  bottom: "inception_3a/output"
  top: "inception_3b/5x5_reduce"
  param {
    lr_mult: 1
    decay_mult: 1
  }
  param {
    lr_mult: 2
    decay_mult: 0
  }
  convolution_param {
    num_output: 32
    kernel_size: 1
    weight_filler {
      type: "xavier"
      std: 0.2
    }
    bias_filler {
      type: "constant"
      value: 0.2
    }
  }
}
layer {
  name: "inception_3b/relu_5x5_reduce"
  type: "ReLU"
  bottom: "inception_3b/5x5_reduce"
  top: "inception_3b/5x5_reduce"
}
layer {
  name: "inception_3b/5x5"
  type: "Convolution"
  bottom: "inception_3b/5x5_reduce"
  top: "inception_3b/5x5"
  param {
    lr_mult: 1
    decay_mult: 1
  }
  param {
    lr_mult: 2
    decay_mult: 0
  }
  convolution_param {
    num_output: 96
    pad: 2
    kernel_size: 5
    weight_filler {
      type: "xavier"
      std: 0.03
    }
    bias_filler {
      type: "constant"
      value: 0.2
    }
  }
}
layer {
  name: "inception_3b/relu_5x5"
  type: "ReLU"
  bottom: "inception_3b/5x5"
  top: "inception_3b/5x5"
}
layer {
  name: "inception_3b/pool"
  type: "Pooling"
  bottom: "inception_3a/output"
  top: "inception_3b/pool"
  pooling_param {
    pool: MAX
    kernel_size: 3
    stride: 1
    pad: 1
  }
}
layer {
  name: "inception_3b/pool_proj"
  type: "Convolution"
  bottom: "inception_3b/pool"
  top: "inception_3b/pool_proj"
  param {
    lr_mult: 1
    decay_mult: 1
  }
  param {
    lr_mult: 2
    decay_mult: 0
  }
  convolution_param {
    num_output: 64
    kernel_size: 1
    weight_filler {
      type: "xavier"
      std: 0.1
    }
    bias_filler {
      type: "constant"
      value: 0.2
    }
  }
}
layer {
  name: "inception_3b/relu_pool_proj"
  type: "ReLU"
  bottom: "inception_3b/pool_proj"
  top: "inception_3b/pool_proj"
}
layer {
  name: "inception_3b/output"
  type: "Concat"
  bottom: "inception_3b/1x1"
  bottom: "inception_3b/3x3"
  bottom: "inception_3b/5x5"
  bottom: "inception_3b/pool_proj"
  top: "inception_3b/output"
}
layer {
  name: "pool3/3x3_s2"
  type: "Pooling"
  bottom: "inception_3b/output"
  top: "pool3/3x3_s2"
  pooling_param {
    pool: MAX
    kernel_size: 3
    stride: 2
  }
}
layer {
  name: "inception_4a/1x1"
  type: "Convolution"
  bottom: "pool3/3x3_s2"
  top: "inception_4a/1x1"
  param {
    lr_mult: 1
    decay_mult: 1
  }
  param {
    lr_mult: 2
    decay_mult: 0
  }
  convolution_param {
    num_output: 192
    kernel_size: 1
    weight_filler {
      type: "xavier"
      std: 0.03
    }
    bias_filler {
      type: "constant"
      value: 0.2
    }
  }
}
layer {
  name: "inception_4a/relu_1x1"
  type: "ReLU"
  bottom: "inception_4a/1x1"
  top: "inception_4a/1x1"
}
layer {
  name: "inception_4a/3x3_reduce"
  type: "Convolution"
  bottom: "pool3/3x3_s2"
  top: "inception_4a/3x3_reduce"
  param {
    lr_mult: 1
    decay_mult: 1
  }
  param {
    lr_mult: 2
    decay_mult: 0
  }
  convolution_param {
    num_output: 96
    kernel_size: 1
    weight_filler {
      type: "xavier"
      std: 0.09
    }
    bias_filler {
      type: "constant"
      value: 0.2
    }
  }
}
layer {
  name: "inception_4a/relu_3x3_reduce"
  type: "ReLU"
  bottom: "inception_4a/3x3_reduce"
  top: "inception_4a/3x3_reduce"
}
layer {
  name: "inception_4a/3x3"
  type: "Convolution"
  bottom: "inception_4a/3x3_reduce"
  top: "inception_4a/3x3"
  param {
    lr_mult: 1
    decay_mult: 1
  }
  param {
    lr_mult: 2
    decay_mult: 0
  }
  convolution_param {
    num_output: 208
    pad: 1
    kernel_size: 3
    weight_filler {
      type: "xavier"
      std: 0.03
    }
    bias_filler {
      type: "constant"
      value: 0.2
    }
  }
}
layer {
  name: "inception_4a/relu_3x3"
  type: "ReLU"
  bottom: "inception_4a/3x3"
  top: "inception_4a/3x3"
}
layer {
  name: "inception_4a/5x5_reduce"
  type: "Convolution"
  bottom: "pool3/3x3_s2"
  top: "inception_4a/5x5_reduce"
  param {
    lr_mult: 1
    decay_mult: 1
  }
  param {
    lr_mult: 2
    decay_mult: 0
  }
  convolution_param {
    num_output: 16
    kernel_size: 1
    weight_filler {
      type: "xavier"
      std: 0.2
    }
    bias_filler {
      type: "constant"
      value: 0.2
    }
  }
}
layer {
  name: "inception_4a/relu_5x5_reduce"
  type: "ReLU"
  bottom: "inception_4a/5x5_reduce"
  top: "inception_4a/5x5_reduce"
}
layer {
  name: "inception_4a/5x5"
  type: "Convolution"
  bottom: "inception_4a/5x5_reduce"
  top: "inception_4a/5x5"
  param {
    lr_mult: 1
    decay_mult: 1
  }
  param {
    lr_mult: 2
    decay_mult: 0
  }
  convolution_param {
    num_output: 48
    pad: 2
    kernel_size: 5
    weight_filler {
      type: "xavier"
      std: 0.03
    }
    bias_filler {
      type: "constant"
      value: 0.2
    }
  }
}
layer {
  name: "inception_4a/relu_5x5"
  type: "ReLU"
  bottom: "inception_4a/5x5"
  top: "inception_4a/5x5"
}
layer {
  name: "inception_4a/pool"
  type: "Pooling"
  bottom: "pool3/3x3_s2"
  top: "inception_4a/pool"
  pooling_param {
    pool: MAX
    kernel_size: 3
    stride: 1
    pad: 1
  }
}
layer {
  name: "inception_4a/pool_proj"
  type: "Convolution"
  bottom: "inception_4a/pool"
  top: "inception_4a/pool_proj"
  param {
    lr_mult: 1
    decay_mult: 1
  }
  param {
    lr_mult: 2
    decay_mult: 0
  }
  convolution_param {
    num_output: 64
    kernel_size: 1
    weight_filler {
      type: "xavier"
      std: 0.1
    }
    bias_filler {
      type: "constant"
      value: 0.2
    }
  }
}
layer {
  name: "inception_4a/relu_pool_proj"
  type: "ReLU"
  bottom: "inception_4a/pool_proj"
  top: "inception_4a/pool_proj"
}
layer {
  name: "inception_4a/output"
  type: "Concat"
  bottom: "inception_4a/1x1"
  bottom: "inception_4a/3x3"
  bottom: "inception_4a/5x5"
  bottom: "inception_4a/pool_proj"
  top: "inception_4a/output"
}
layer {
  name: "loss1/ave_pool"
  type: "Pooling"
  bottom: "inception_4a/output"
  top: "loss1/ave_pool"
  pooling_param {
    pool: AVE
    kernel_size: 5
    stride: 3
  }
}
layer {
  name: "loss1/conv"
  type: "Convolution"
  bottom: "loss1/ave_pool"
  top: "loss1/conv"
  param {
    lr_mult: 1
    decay_mult: 1
  }
  param {
    lr_mult: 2
    decay_mult: 0
  }
  convolution_param {
    num_output: 128
    kernel_size: 1
    weight_filler {
      type: "xavier"
      std: 0.08
    }
    bias_filler {
      type: "constant"
      value: 0.2
    }
  }
}
layer {
  name: "loss1/relu_conv"
  type: "ReLU"
  bottom: "loss1/conv"
  top: "loss1/conv"
}
layer {
  name: "loss1/fc"
  type: "InnerProduct"
  bottom: "loss1/conv"
  top: "loss1/fc"
  param {
    lr_mult: 1
    decay_mult: 1
  }
  param {
    lr_mult: 2
    decay_mult: 0
  }
  inner_product_param {
    num_output: 1024
    weight_filler {
      type: "xavier"
      std: 0.02
    }
    bias_filler {
      type: "constant"
      value: 0.2
    }
  }
}
layer {
  name: "loss1/relu_fc"
  type: "ReLU"
  bottom: "loss1/fc"
  top: "loss1/fc"
}
layer {
  name: "loss1/drop_fc"
  type: "Dropout"
  bottom: "loss1/fc"
  top: "loss1/fc"
  dropout_param {
    dropout_ratio: 0.7
  }
}
layer {
  name: "loss1/classifier_plantvillage"
  type: "InnerProduct"
  bottom: "loss1/fc"
  top: "loss1/classifier_plantvillage"
  param {
    lr_mult: 1
    decay_mult: 1
  }
  param {
    lr_mult: 2
    decay_mult: 0
  }
  inner_product_param {
    num_output: 38
    weight_filler {
      type: "xavier"
      std: 0.0009765625
    }
    bias_filler {
      type: "constant"
      value: 0
    }
  }
}
layer {
  name: "inception_4b/1x1"
  type: "Convolution"
  bottom: "inception_4a/output"
  top: "inception_4b/1x1"
  param {
    lr_mult: 1
    decay_mult: 1
  }
  param {
    lr_mult: 2
    decay_mult: 0
  }
  convolution_param {
    num_output: 160
    kernel_size: 1
    weight_filler {
      type: "xavier"
      std: 0.03
    }
    bias_filler {
      type: "constant"
      value: 0.2
    }
  }
}
layer {
  name: "inception_4b/relu_1x1"
  type: "ReLU"
  bottom: "inception_4b/1x1"
  top: "inception_4b/1x1"
}
layer {
  name: "inception_4b/3x3_reduce"
  type: "Convolution"
  bottom: "inception_4a/output"
  top: "inception_4b/3x3_reduce"
  param {
    lr_mult: 1
    decay_mult: 1
  }
  param {
    lr_mult: 2
    decay_mult: 0
  }
  convolution_param {
    num_output: 112
    kernel_size: 1
    weight_filler {
      type: "xavier"
      std: 0.09
    }
    bias_filler {
      type: "constant"
      value: 0.2
    }
  }
}
layer {
  name: "inception_4b/relu_3x3_reduce"
  type: "ReLU"
  bottom: "inception_4b/3x3_reduce"
  top: "inception_4b/3x3_reduce"
}
layer {
  name: "inception_4b/3x3"
  type: "Convolution"
  bottom: "inception_4b/3x3_reduce"
  top: "inception_4b/3x3"
  param {
    lr_mult: 1
    decay_mult: 1
  }
  param {
    lr_mult: 2
    decay_mult: 0
  }
  convolution_param {
    num_output: 224
    pad: 1
    kernel_size: 3
    weight_filler {
      type: "xavier"
      std: 0.03
    }
    bias_filler {
      type: "constant"
      value: 0.2
    }
  }
}
layer {
  name: "inception_4b/relu_3x3"
  type: "ReLU"
  bottom: "inception_4b/3x3"
  top: "inception_4b/3x3"
}
layer {
  name: "inception_4b/5x5_reduce"
  type: "Convolution"
  bottom: "inception_4a/output"
  top: "inception_4b/5x5_reduce"
  param {
    lr_mult: 1
    decay_mult: 1
  }
  param {
    lr_mult: 2
    decay_mult: 0
  }
  convolution_param {
    num_output: 24
    kernel_size: 1
    weight_filler {
      type: "xavier"
      std: 0.2
    }
    bias_filler {
      type: "constant"
      value: 0.2
    }
  }
}
layer {
  name: "inception_4b/relu_5x5_reduce"
  type: "ReLU"
  bottom: "inception_4b/5x5_reduce"
  top: "inception_4b/5x5_reduce"
}
layer {
  name: "inception_4b/5x5"
  type: "Convolution"
  bottom: "inception_4b/5x5_reduce"
  top: "inception_4b/5x5"
  param {
    lr_mult: 1
    decay_mult: 1
  }
  param {
    lr_mult: 2
    decay_mult: 0
  }
  convolution_param {
    num_output: 64
    pad: 2
    kernel_size: 5
    weight_filler {
      type: "xavier"
      std: 0.03
    }
    bias_filler {
      type: "constant"
      value: 0.2
    }
  }
}
layer {
  name: "inception_4b/relu_5x5"
  type: "ReLU"
  bottom: "inception_4b/5x5"
  top: "inception_4b/5x5"
}
layer {
  name: "inception_4b/pool"
  type: "Pooling"
  bottom: "inception_4a/output"
  top: "inception_4b/pool"
  pooling_param {
    pool: MAX
    kernel_size: 3
    stride: 1
    pad: 1
  }
}
layer {
  name: "inception_4b/pool_proj"
  type: "Convolution"
  bottom: "inception_4b/pool"
  top: "inception_4b/pool_proj"
  param {
    lr_mult: 1
    decay_mult: 1
  }
  param {
    lr_mult: 2
    decay_mult: 0
  }
  convolution_param {
    num_output: 64
    kernel_size: 1
    weight_filler {
      type: "xavier"
      std: 0.1
    }
    bias_filler {
      type: "constant"
      value: 0.2
    }
  }
}
layer {
  name: "inception_4b/relu_pool_proj"
  type: "ReLU"
  bottom: "inception_4b/pool_proj"
  top: "inception_4b/pool_proj"
}
layer {
  name: "inception_4b/output"
  type: "Concat"
  bottom: "inception_4b/1x1"
  bottom: "inception_4b/3x3"
  bottom: "inception_4b/5x5"
  bottom: "inception_4b/pool_proj"
  top: "inception_4b/output"
}
layer {
  name: "inception_4c/1x1"
  type: "Convolution"
  bottom: "inception_4b/output"
  top: "inception_4c/1x1"
  param {
    lr_mult: 1
    decay_mult: 1
  }
  param {
    lr_mult: 2
    decay_mult: 0
  }
  convolution_param {
    num_output: 128
    kernel_size: 1
    weight_filler {
      type: "xavier"
      std: 0.03
    }
    bias_filler {
      type: "constant"
      value: 0.2
    }
  }
}
layer {
  name: "inception_4c/relu_1x1"
  type: "ReLU"
  bottom: "inception_4c/1x1"
  top: "inception_4c/1x1"
}
layer {
  name: "inception_4c/3x3_reduce"
  type: "Convolution"
  bottom: "inception_4b/output"
  top: "inception_4c/3x3_reduce"
  param {
    lr_mult: 1
    decay_mult: 1
  }
  param {
    lr_mult: 2
    decay_mult: 0
  }
  convolution_param {
    num_output: 128
    kernel_size: 1
    weight_filler {
      type: "xavier"
      std: 0.09
    }
    bias_filler {
      type: "constant"
      value: 0.2
    }
  }
}
layer {
  name: "inception_4c/relu_3x3_reduce"
  type: "ReLU"
  bottom: "inception_4c/3x3_reduce"
  top: "inception_4c/3x3_reduce"
}
layer {
  name: "inception_4c/3x3"
  type: "Convolution"
  bottom: "inception_4c/3x3_reduce"
  top: "inception_4c/3x3"
  param {
    lr_mult: 1
    decay_mult: 1
  }
  param {
    lr_mult: 2
    decay_mult: 0
  }
  convolution_param {
    num_output: 256
    pad: 1
    kernel_size: 3
    weight_filler {
      type: "xavier"
      std: 0.03
    }
    bias_filler {
      type: "constant"
      value: 0.2
    }
  }
}
layer {
  name: "inception_4c/relu_3x3"
  type: "ReLU"
  bottom: "inception_4c/3x3"
  top: "inception_4c/3x3"
}
layer {
  name: "inception_4c/5x5_reduce"
  type: "Convolution"
  bottom: "inception_4b/output"
  top: "inception_4c/5x5_reduce"
  param {
    lr_mult: 1
    decay_mult: 1
  }
  param {
    lr_mult: 2
    decay_mult: 0
  }
  convolution_param {
    num_output: 24
    kernel_size: 1
    weight_filler {
      type: "xavier"
      std: 0.2
    }
    bias_filler {
      type: "constant"
      value: 0.2
    }
  }
}
layer {
  name: "inception_4c/relu_5x5_reduce"
  type: "ReLU"
  bottom: "inception_4c/5x5_reduce"
  top: "inception_4c/5x5_reduce"
}
layer {
  name: "inception_4c/5x5"
  type: "Convolution"
  bottom: "inception_4c/5x5_reduce"
  top: "inception_4c/5x5"
  param {
    lr_mult: 1
    decay_mult: 1
  }
  param {
    lr_mult: 2
    decay_mult: 0
  }
  convolution_param {
    num_output: 64
    pad: 2
    kernel_size: 5
    weight_filler {
      type: "xavier"
      std: 0.03
    }
    bias_filler {
      type: "constant"
      value: 0.2
    }
  }
}
layer {
  name: "inception_4c/relu_5x5"
  type: "ReLU"
  bottom: "inception_4c/5x5"
  top: "inception_4c/5x5"
}
layer {
  name: "inception_4c/pool"
  type: "Pooling"
  bottom: "inception_4b/output"
  top: "inception_4c/pool"
  pooling_param {
    pool: MAX
    kernel_size: 3
    stride: 1
    pad: 1
  }
}
layer {
  name: "inception_4c/pool_proj"
  type: "Convolution"
  bottom: "inception_4c/pool"
  top: "inception_4c/pool_proj"
  param {
    lr_mult: 1
    decay_mult: 1
  }
  param {
    lr_mult: 2
    decay_mult: 0
  }
  convolution_param {
    num_output: 64
    kernel_size: 1
    weight_filler {
      type: "xavier"
      std: 0.1
    }
    bias_filler {
      type: "constant"
      value: 0.2
    }
  }
}
layer {
  name: "inception_4c/relu_pool_proj"
  type: "ReLU"
  bottom: "inception_4c/pool_proj"
  top: "inception_4c/pool_proj"
}
layer {
  name: "inception_4c/output"
  type: "Concat"
  bottom: "inception_4c/1x1"
  bottom: "inception_4c/3x3"
  bottom: "inception_4c/5x5"
  bottom: "inception_4c/pool_proj"
  top: "inception_4c/output"
}
layer {
  name: "inception_4d/1x1"
  type: "Convolution"
  bottom: "inception_4c/output"
  top: "inception_4d/1x1"
  param {
    lr_mult: 1
    decay_mult: 1
  }
  param {
    lr_mult: 2
    decay_mult: 0
  }
  convolution_param {
    num_output: 112
    kernel_size: 1
    weight_filler {
      type: "xavier"
      std: 0.03
    }
    bias_filler {
      type: "constant"
      value: 0.2
    }
  }
}
layer {
  name: "inception_4d/relu_1x1"
  type: "ReLU"
  bottom: "inception_4d/1x1"
  top: "inception_4d/1x1"
}
layer {
  name: "inception_4d/3x3_reduce"
  type: "Convolution"
  bottom: "inception_4c/output"
  top: "inception_4d/3x3_reduce"
  param {
    lr_mult: 1
    decay_mult: 1
  }
  param {
    lr_mult: 2
    decay_mult: 0
  }
  convolution_param {
    num_output: 144
    kernel_size: 1
    weight_filler {
      type: "xavier"
      std: 0.09
    }
    bias_filler {
      type: "constant"
      value: 0.2
    }
  }
}
layer {
  name: "inception_4d/relu_3x3_reduce"
  type: "ReLU"
  bottom: "inception_4d/3x3_reduce"
  top: "inception_4d/3x3_reduce"
}
layer {
  name: "inception_4d/3x3"
  type: "Convolution"
  bottom: "inception_4d/3x3_reduce"
  top: "inception_4d/3x3"
  param {
    lr_mult: 1
    decay_mult: 1
  }
  param {
    lr_mult: 2
    decay_mult: 0
  }
  convolution_param {
    num_output: 288
    pad: 1
    kernel_size: 3
    weight_filler {
      type: "xavier"
      std: 0.03
    }
    bias_filler {
      type: "constant"
      value: 0.2
    }
  }
}
layer {
  name: "inception_4d/relu_3x3"
  type: "ReLU"
  bottom: "inception_4d/3x3"
  top: "inception_4d/3x3"
}
layer {
  name: "inception_4d/5x5_reduce"
  type: "Convolution"
  bottom: "inception_4c/output"
  top: "inception_4d/5x5_reduce"
  param {
    lr_mult: 1
    decay_mult: 1
  }
  param {
    lr_mult: 2
    decay_mult: 0
  }
  convolution_param {
    num_output: 32
    kernel_size: 1
    weight_filler {
      type: "xavier"
      std: 0.2
    }
    bias_filler {
      type: "constant"
      value: 0.2
    }
  }
}
layer {
  name: "inception_4d/relu_5x5_reduce"
  type: "ReLU"
  bottom: "inception_4d/5x5_reduce"
  top: "inception_4d/5x5_reduce"
}
layer {
  name: "inception_4d/5x5"
  type: "Convolution"
  bottom: "inception_4d/5x5_reduce"
  top: "inception_4d/5x5"
  param {
    lr_mult: 1
    decay_mult: 1
  }
  param {
    lr_mult: 2
    decay_mult: 0
  }
  convolution_param {
    num_output: 64
    pad: 2
    kernel_size: 5
    weight_filler {
      type: "xavier"
      std: 0.03
    }
    bias_filler {
      type: "constant"
      value: 0.2
    }
  }
}
layer {
  name: "inception_4d/relu_5x5"
  type: "ReLU"
  bottom: "inception_4d/5x5"
  top: "inception_4d/5x5"
}
layer {
  name: "inception_4d/pool"
  type: "Pooling"
  bottom: "inception_4c/output"
  top: "inception_4d/pool"
  pooling_param {
    pool: MAX
    kernel_size: 3
    stride: 1
    pad: 1
  }
}
layer {
  name: "inception_4d/pool_proj"
  type: "Convolution"
  bottom: "inception_4d/pool"
  top: "inception_4d/pool_proj"
  param {
    lr_mult: 1
    decay_mult: 1
  }
  param {
    lr_mult: 2
    decay_mult: 0
  }
  convolution_param {
    num_output: 64
    kernel_size: 1
    weight_filler {
      type: "xavier"
      std: 0.1
    }
    bias_filler {
      type: "constant"
      value: 0.2
    }
  }
}
layer {
  name: "inception_4d/relu_pool_proj"
  type: "ReLU"
  bottom: "inception_4d/pool_proj"
  top: "inception_4d/pool_proj"
}
layer {
  name: "inception_4d/output"
  type: "Concat"
  bottom: "inception_4d/1x1"
  bottom: "inception_4d/3x3"
  bottom: "inception_4d/5x5"
  bottom: "inception_4d/pool_proj"
  top: "inception_4d/output"
}
layer {
  name: "loss2/ave_pool"
  type: "Pooling"
  bottom: "inception_4d/output"
  top: "loss2/ave_pool"
  pooling_param {
    pool: AVE
    kernel_size: 5
    stride: 3
  }
}
layer {
  name: "loss2/conv"
  type: "Convolution"
  bottom: "loss2/ave_pool"
  top: "loss2/conv"
  param {
    lr_mult: 1
    decay_mult: 1
  }
  param {
    lr_mult: 2
    decay_mult: 0
  }
  convolution_param {
    num_output: 128
    kernel_size: 1
    weight_filler {
      type: "xavier"
      std: 0.08
    }
    bias_filler {
      type: "constant"
      value: 0.2
    }
  }
}
layer {
  name: "loss2/relu_conv"
  type: "ReLU"
  bottom: "loss2/conv"
  top: "loss2/conv"
}
layer {
  name: "loss2/fc"
  type: "InnerProduct"
  bottom: "loss2/conv"
  top: "loss2/fc"
  param {
    lr_mult: 1
    decay_mult: 1
  }
  param {
    lr_mult: 2
    decay_mult: 0
  }
  inner_product_param {
    num_output: 1024
    weight_filler {
      type: "xavier"
      std: 0.02
    }
    bias_filler {
      type: "constant"
      value: 0.2
    }
  }
}
layer {
  name: "loss2/relu_fc"
  type: "ReLU"
  bottom: "loss2/fc"
  top: "loss2/fc"
}
layer {
  name: "loss2/drop_fc"
  type: "Dropout"
  bottom: "loss2/fc"
  top: "loss2/fc"
  dropout_param {
    dropout_ratio: 0.7
  }
}
layer {
  name: "loss2/classifier_plantvillage"
  type: "InnerProduct"
  bottom: "loss2/fc"
  top: "loss2/classifier_plantvillage"
  param {
    lr_mult: 1
    decay_mult: 1
  }
  param {
    lr_mult: 2
    decay_mult: 0
  }
  inner_product_param {
    num_output: 38
    weight_filler {
      type: "xavier"
      std: 0.0009765625
    }
    bias_filler {
      type: "constant"
      value: 0
    }
  }
}
layer {
  name: "inception_4e/1x1"
  type: "Convolution"
  bottom: "inception_4d/output"
  top: "inception_4e/1x1"
  param {
    lr_mult: 1
    decay_mult: 1
  }
  param {
    lr_mult: 2
    decay_mult: 0
  }
  convolution_param {
    num_output: 256
    kernel_size: 1
    weight_filler {
      type: "xavier"
      std: 0.03
    }
    bias_filler {
      type: "constant"
      value: 0.2
    }
  }
}
layer {
  name: "inception_4e/relu_1x1"
  type: "ReLU"
  bottom: "inception_4e/1x1"
  top: "inception_4e/1x1"
}
layer {
  name: "inception_4e/3x3_reduce"
  type: "Convolution"
  bottom: "inception_4d/output"
  top: "inception_4e/3x3_reduce"
  param {
    lr_mult: 1
    decay_mult: 1
  }
  param {
    lr_mult: 2
    decay_mult: 0
  }
  convolution_param {
    num_output: 160
    kernel_size: 1
    weight_filler {
      type: "xavier"
      std: 0.09
    }
    bias_filler {
      type: "constant"
      value: 0.2
    }
  }
}
layer {
  name: "inception_4e/relu_3x3_reduce"
  type: "ReLU"
  bottom: "inception_4e/3x3_reduce"
  top: "inception_4e/3x3_reduce"
}
layer {
  name: "inception_4e/3x3"
  type: "Convolution"
  bottom: "inception_4e/3x3_reduce"
  top: "inception_4e/3x3"
  param {
    lr_mult: 1
    decay_mult: 1
  }
  param {
    lr_mult: 2
    decay_mult: 0
  }
  convolution_param {
    num_output: 320
    pad: 1
    kernel_size: 3
    weight_filler {
      type: "xavier"
      std: 0.03
    }
    bias_filler {
      type: "constant"
      value: 0.2
    }
  }
}
layer {
  name: "inception_4e/relu_3x3"
  type: "ReLU"
  bottom: "inception_4e/3x3"
  top: "inception_4e/3x3"
}
layer {
  name: "inception_4e/5x5_reduce"
  type: "Convolution"
  bottom: "inception_4d/output"
  top: "inception_4e/5x5_reduce"
  param {
    lr_mult: 1
    decay_mult: 1
  }
  param {
    lr_mult: 2
    decay_mult: 0
  }
  convolution_param {
    num_output: 32
    kernel_size: 1
    weight_filler {
      type: "xavier"
      std: 0.2
    }
    bias_filler {
      type: "constant"
      value: 0.2
    }
  }
}
layer {
  name: "inception_4e/relu_5x5_reduce"
  type: "ReLU"
  bottom: "inception_4e/5x5_reduce"
  top: "inception_4e/5x5_reduce"
}
layer {
  name: "inception_4e/5x5"
  type: "Convolution"
  bottom: "inception_4e/5x5_reduce"
  top: "inception_4e/5x5"
  p
I0403 19:39:13.105026  9494 layer_factory.hpp:77] Creating layer data
I0403 19:39:13.105643  9494 net.cpp:91] Creating Layer data
I0403 19:39:13.105674  9494 net.cpp:399] data -> data
I0403 19:39:13.105729  9494 net.cpp:399] data -> label
I0403 19:39:13.105767  9494 data_transformer.cpp:25] Loading mean file from: /home/mohanty/data/final_dataset/lmdb/color-60-40/mean.binaryproto
I0403 19:39:13.106971  9497 db_lmdb.cpp:38] Opened lmdb /home/mohanty/data/final_dataset/lmdb/color-60-40/test_db
I0403 19:39:13.118948  9494 data_layer.cpp:41] output data size: 24,3,224,224
I0403 19:39:13.145520  9494 net.cpp:141] Setting up data
I0403 19:39:13.145602  9494 net.cpp:148] Top shape: 24 3 224 224 (3612672)
I0403 19:39:13.145625  9494 net.cpp:148] Top shape: 24 (24)
I0403 19:39:13.145639  9494 net.cpp:156] Memory required for data: 14450784
I0403 19:39:13.145669  9494 layer_factory.hpp:77] Creating layer label_data_1_split
I0403 19:39:13.145700  9494 net.cpp:91] Creating Layer label_data_1_split
I0403 19:39:13.145720  9494 net.cpp:425] label_data_1_split <- label
I0403 19:39:13.145755  9494 net.cpp:399] label_data_1_split -> label_data_1_split_0
I0403 19:39:13.145783  9494 net.cpp:399] label_data_1_split -> label_data_1_split_1
I0403 19:39:13.145803  9494 net.cpp:399] label_data_1_split -> label_data_1_split_2
I0403 19:39:13.145823  9494 net.cpp:399] label_data_1_split -> label_data_1_split_3
I0403 19:39:13.145843  9494 net.cpp:399] label_data_1_split -> label_data_1_split_4
I0403 19:39:13.145862  9494 net.cpp:399] label_data_1_split -> label_data_1_split_5
I0403 19:39:13.145881  9494 net.cpp:399] label_data_1_split -> label_data_1_split_6
I0403 19:39:13.145900  9494 net.cpp:399] label_data_1_split -> label_data_1_split_7
I0403 19:39:13.145920  9494 net.cpp:399] label_data_1_split -> label_data_1_split_8
I0403 19:39:13.145938  9494 net.cpp:399] label_data_1_split -> label_data_1_split_9
I0403 19:39:13.146049  9494 net.cpp:141] Setting up label_data_1_split
I0403 19:39:13.146072  9494 net.cpp:148] Top shape: 24 (24)
I0403 19:39:13.146090  9494 net.cpp:148] Top shape: 24 (24)
I0403 19:39:13.146106  9494 net.cpp:148] Top shape: 24 (24)
I0403 19:39:13.146122  9494 net.cpp:148] Top shape: 24 (24)
I0403 19:39:13.146138  9494 net.cpp:148] Top shape: 24 (24)
I0403 19:39:13.146153  9494 net.cpp:148] Top shape: 24 (24)
I0403 19:39:13.146169  9494 net.cpp:148] Top shape: 24 (24)
I0403 19:39:13.146198  9494 net.cpp:148] Top shape: 24 (24)
I0403 19:39:13.146215  9494 net.cpp:148] Top shape: 24 (24)
I0403 19:39:13.146231  9494 net.cpp:148] Top shape: 24 (24)
I0403 19:39:13.146270  9494 net.cpp:156] Memory required for data: 14451744
I0403 19:39:13.146286  9494 layer_factory.hpp:77] Creating layer conv1/7x7_s2
I0403 19:39:13.146322  9494 net.cpp:91] Creating Layer conv1/7x7_s2
I0403 19:39:13.146339  9494 net.cpp:425] conv1/7x7_s2 <- data
I0403 19:39:13.146359  9494 net.cpp:399] conv1/7x7_s2 -> conv1/7x7_s2
I0403 19:39:13.280776  9494 net.cpp:141] Setting up conv1/7x7_s2
I0403 19:39:13.280848  9494 net.cpp:148] Top shape: 24 64 112 112 (19267584)
I0403 19:39:13.280865  9494 net.cpp:156] Memory required for data: 91522080
I0403 19:39:13.280952  9494 layer_factory.hpp:77] Creating layer conv1/relu_7x7
I0403 19:39:13.280984  9494 net.cpp:91] Creating Layer conv1/relu_7x7
I0403 19:39:13.281004  9494 net.cpp:425] conv1/relu_7x7 <- conv1/7x7_s2
I0403 19:39:13.281024  9494 net.cpp:386] conv1/relu_7x7 -> conv1/7x7_s2 (in-place)
I0403 19:39:13.281278  9494 net.cpp:141] Setting up conv1/relu_7x7
I0403 19:39:13.281306  9494 net.cpp:148] Top shape: 24 64 112 112 (19267584)
I0403 19:39:13.281322  9494 net.cpp:156] Memory required for data: 168592416
I0403 19:39:13.281337  9494 layer_factory.hpp:77] Creating layer pool1/3x3_s2
I0403 19:39:13.281363  9494 net.cpp:91] Creating Layer pool1/3x3_s2
I0403 19:39:13.281381  9494 net.cpp:425] pool1/3x3_s2 <- conv1/7x7_s2
I0403 19:39:13.281400  9494 net.cpp:399] pool1/3x3_s2 -> pool1/3x3_s2
I0403 19:39:13.281493  9494 net.cpp:141] Setting up pool1/3x3_s2
I0403 19:39:13.281520  9494 net.cpp:148] Top shape: 24 64 56 56 (4816896)
I0403 19:39:13.281535  9494 net.cpp:156] Memory required for data: 187860000
I0403 19:39:13.281550  9494 layer_factory.hpp:77] Creating layer pool1/norm1
I0403 19:39:13.281577  9494 net.cpp:91] Creating Layer pool1/norm1
I0403 19:39:13.281596  9494 net.cpp:425] pool1/norm1 <- pool1/3x3_s2
I0403 19:39:13.281615  9494 net.cpp:399] pool1/norm1 -> pool1/norm1
I0403 19:39:13.281918  9494 net.cpp:141] Setting up pool1/norm1
I0403 19:39:13.281945  9494 net.cpp:148] Top shape: 24 64 56 56 (4816896)
I0403 19:39:13.281970  9494 net.cpp:156] Memory required for data: 207127584
I0403 19:39:13.281985  9494 layer_factory.hpp:77] Creating layer conv2/3x3_reduce
I0403 19:39:13.282011  9494 net.cpp:91] Creating Layer conv2/3x3_reduce
I0403 19:39:13.282029  9494 net.cpp:425] conv2/3x3_reduce <- pool1/norm1
I0403 19:39:13.282052  9494 net.cpp:399] conv2/3x3_reduce -> conv2/3x3_reduce
I0403 19:39:13.283486  9494 net.cpp:141] Setting up conv2/3x3_reduce
I0403 19:39:13.283516  9494 net.cpp:148] Top shape: 24 64 56 56 (4816896)
I0403 19:39:13.283534  9494 net.cpp:156] Memory required for data: 226395168
I0403 19:39:13.283555  9494 layer_factory.hpp:77] Creating layer conv2/relu_3x3_reduce
I0403 19:39:13.283573  9494 net.cpp:91] Creating Layer conv2/relu_3x3_reduce
I0403 19:39:13.283589  9494 net.cpp:425] conv2/relu_3x3_reduce <- conv2/3x3_reduce
I0403 19:39:13.283609  9494 net.cpp:386] conv2/relu_3x3_reduce -> conv2/3x3_reduce (in-place)
I0403 19:39:13.283877  9494 net.cpp:141] Setting up conv2/relu_3x3_reduce
I0403 19:39:13.283905  9494 net.cpp:148] Top shape: 24 64 56 56 (4816896)
I0403 19:39:13.283921  9494 net.cpp:156] Memory required for data: 245662752
I0403 19:39:13.283936  9494 layer_factory.hpp:77] Creating layer conv2/3x3
I0403 19:39:13.283960  9494 net.cpp:91] Creating Layer conv2/3x3
I0403 19:39:13.283977  9494 net.cpp:425] conv2/3x3 <- conv2/3x3_reduce
I0403 19:39:13.284000  9494 net.cpp:399] conv2/3x3 -> conv2/3x3
I0403 19:39:13.286397  9494 net.cpp:141] Setting up conv2/3x3
I0403 19:39:13.286429  9494 net.cpp:148] Top shape: 24 192 56 56 (14450688)
I0403 19:39:13.286447  9494 net.cpp:156] Memory required for data: 303465504
I0403 19:39:13.286473  9494 layer_factory.hpp:77] Creating layer conv2/relu_3x3
I0403 19:39:13.286495  9494 net.cpp:91] Creating Layer conv2/relu_3x3
I0403 19:39:13.286511  9494 net.cpp:425] conv2/relu_3x3 <- conv2/3x3
I0403 19:39:13.286532  9494 net.cpp:386] conv2/relu_3x3 -> conv2/3x3 (in-place)
I0403 19:39:13.286711  9494 net.cpp:141] Setting up conv2/relu_3x3
I0403 19:39:13.286739  9494 net.cpp:148] Top shape: 24 192 56 56 (14450688)
I0403 19:39:13.286793  9494 net.cpp:156] Memory required for data: 361268256
I0403 19:39:13.286810  9494 layer_factory.hpp:77] Creating layer conv2/norm2
I0403 19:39:13.286829  9494 net.cpp:91] Creating Layer conv2/norm2
I0403 19:39:13.286844  9494 net.cpp:425] conv2/norm2 <- conv2/3x3
I0403 19:39:13.286864  9494 net.cpp:399] conv2/norm2 -> conv2/norm2
I0403 19:39:13.287178  9494 net.cpp:141] Setting up conv2/norm2
I0403 19:39:13.287205  9494 net.cpp:148] Top shape: 24 192 56 56 (14450688)
I0403 19:39:13.287221  9494 net.cpp:156] Memory required for data: 419071008
I0403 19:39:13.287237  9494 layer_factory.hpp:77] Creating layer pool2/3x3_s2
I0403 19:39:13.287256  9494 net.cpp:91] Creating Layer pool2/3x3_s2
I0403 19:39:13.287273  9494 net.cpp:425] pool2/3x3_s2 <- conv2/norm2
I0403 19:39:13.287293  9494 net.cpp:399] pool2/3x3_s2 -> pool2/3x3_s2
I0403 19:39:13.287346  9494 net.cpp:141] Setting up pool2/3x3_s2
I0403 19:39:13.287370  9494 net.cpp:148] Top shape: 24 192 28 28 (3612672)
I0403 19:39:13.287386  9494 net.cpp:156] Memory required for data: 433521696
I0403 19:39:13.287401  9494 layer_factory.hpp:77] Creating layer pool2/3x3_s2_pool2/3x3_s2_0_split
I0403 19:39:13.287422  9494 net.cpp:91] Creating Layer pool2/3x3_s2_pool2/3x3_s2_0_split
I0403 19:39:13.287441  9494 net.cpp:425] pool2/3x3_s2_pool2/3x3_s2_0_split <- pool2/3x3_s2
I0403 19:39:13.287463  9494 net.cpp:399] pool2/3x3_s2_pool2/3x3_s2_0_split -> pool2/3x3_s2_pool2/3x3_s2_0_split_0
I0403 19:39:13.287485  9494 net.cpp:399] pool2/3x3_s2_pool2/3x3_s2_0_split -> pool2/3x3_s2_pool2/3x3_s2_0_split_1
I0403 19:39:13.287509  9494 net.cpp:399] pool2/3x3_s2_pool2/3x3_s2_0_split -> pool2/3x3_s2_pool2/3x3_s2_0_split_2
I0403 19:39:13.287529  9494 net.cpp:399] pool2/3x3_s2_pool2/3x3_s2_0_split -> pool2/3x3_s2_pool2/3x3_s2_0_split_3
I0403 19:39:13.287626  9494 net.cpp:141] Setting up pool2/3x3_s2_pool2/3x3_s2_0_split
I0403 19:39:13.287652  9494 net.cpp:148] Top shape: 24 192 28 28 (3612672)
I0403 19:39:13.287669  9494 net.cpp:148] Top shape: 24 192 28 28 (3612672)
I0403 19:39:13.287685  9494 net.cpp:148] Top shape: 24 192 28 28 (3612672)
I0403 19:39:13.287701  9494 net.cpp:148] Top shape: 24 192 28 28 (3612672)
I0403 19:39:13.287716  9494 net.cpp:156] Memory required for data: 491324448
I0403 19:39:13.287732  9494 layer_factory.hpp:77] Creating layer inception_3a/1x1
I0403 19:39:13.287755  9494 net.cpp:91] Creating Layer inception_3a/1x1
I0403 19:39:13.287772  9494 net.cpp:425] inception_3a/1x1 <- pool2/3x3_s2_pool2/3x3_s2_0_split_0
I0403 19:39:13.287793  9494 net.cpp:399] inception_3a/1x1 -> inception_3a/1x1
I0403 19:39:13.289351  9494 net.cpp:141] Setting up inception_3a/1x1
I0403 19:39:13.289381  9494 net.cpp:148] Top shape: 24 64 28 28 (1204224)
I0403 19:39:13.289397  9494 net.cpp:156] Memory required for data: 496141344
I0403 19:39:13.289415  9494 layer_factory.hpp:77] Creating layer inception_3a/relu_1x1
I0403 19:39:13.289433  9494 net.cpp:91] Creating Layer inception_3a/relu_1x1
I0403 19:39:13.289449  9494 net.cpp:425] inception_3a/relu_1x1 <- inception_3a/1x1
I0403 19:39:13.289474  9494 net.cpp:386] inception_3a/relu_1x1 -> inception_3a/1x1 (in-place)
I0403 19:39:13.289645  9494 net.cpp:141] Setting up inception_3a/relu_1x1
I0403 19:39:13.289670  9494 net.cpp:148] Top shape: 24 64 28 28 (1204224)
I0403 19:39:13.289685  9494 net.cpp:156] Memory required for data: 500958240
I0403 19:39:13.289700  9494 layer_factory.hpp:77] Creating layer inception_3a/3x3_reduce
I0403 19:39:13.289726  9494 net.cpp:91] Creating Layer inception_3a/3x3_reduce
I0403 19:39:13.289743  9494 net.cpp:425] inception_3a/3x3_reduce <- pool2/3x3_s2_pool2/3x3_s2_0_split_1
I0403 19:39:13.289765  9494 net.cpp:399] inception_3a/3x3_reduce -> inception_3a/3x3_reduce
I0403 19:39:13.291399  9494 net.cpp:141] Setting up inception_3a/3x3_reduce
I0403 19:39:13.291429  9494 net.cpp:148] Top shape: 24 96 28 28 (1806336)
I0403 19:39:13.291445  9494 net.cpp:156] Memory required for data: 508183584
I0403 19:39:13.291471  9494 layer_factory.hpp:77] Creating layer inception_3a/relu_3x3_reduce
I0403 19:39:13.291508  9494 net.cpp:91] Creating Layer inception_3a/relu_3x3_reduce
I0403 19:39:13.291527  9494 net.cpp:425] inception_3a/relu_3x3_reduce <- inception_3a/3x3_reduce
I0403 19:39:13.291545  9494 net.cpp:386] inception_3a/relu_3x3_reduce -> inception_3a/3x3_reduce (in-place)
I0403 19:39:13.291720  9494 net.cpp:141] Setting up inception_3a/relu_3x3_reduce
I0403 19:39:13.291746  9494 net.cpp:148] Top shape: 24 96 28 28 (1806336)
I0403 19:39:13.291761  9494 net.cpp:156] Memory required for data: 515408928
I0403 19:39:13.291777  9494 layer_factory.hpp:77] Creating layer inception_3a/3x3
I0403 19:39:13.291798  9494 net.cpp:91] Creating Layer inception_3a/3x3
I0403 19:39:13.291816  9494 net.cpp:425] inception_3a/3x3 <- inception_3a/3x3_reduce
I0403 19:39:13.291838  9494 net.cpp:399] inception_3a/3x3 -> inception_3a/3x3
I0403 19:39:13.293428  9494 net.cpp:141] Setting up inception_3a/3x3
I0403 19:39:13.293462  9494 net.cpp:148] Top shape: 24 128 28 28 (2408448)
I0403 19:39:13.293479  9494 net.cpp:156] Memory required for data: 525042720
I0403 19:39:13.293498  9494 layer_factory.hpp:77] Creating layer inception_3a/relu_3x3
I0403 19:39:13.293519  9494 net.cpp:91] Creating Layer inception_3a/relu_3x3
I0403 19:39:13.293535  9494 net.cpp:425] inception_3a/relu_3x3 <- inception_3a/3x3
I0403 19:39:13.293553  9494 net.cpp:386] inception_3a/relu_3x3 -> inception_3a/3x3 (in-place)
I0403 19:39:13.293820  9494 net.cpp:141] Setting up inception_3a/relu_3x3
I0403 19:39:13.293848  9494 net.cpp:148] Top shape: 24 128 28 28 (2408448)
I0403 19:39:13.293862  9494 net.cpp:156] Memory required for data: 534676512
I0403 19:39:13.293877  9494 layer_factory.hpp:77] Creating layer inception_3a/5x5_reduce
I0403 19:39:13.293900  9494 net.cpp:91] Creating Layer inception_3a/5x5_reduce
I0403 19:39:13.293917  9494 net.cpp:425] inception_3a/5x5_reduce <- pool2/3x3_s2_pool2/3x3_s2_0_split_2
I0403 19:39:13.293938  9494 net.cpp:399] inception_3a/5x5_reduce -> inception_3a/5x5_reduce
I0403 19:39:13.294867  9494 net.cpp:141] Setting up inception_3a/5x5_reduce
I0403 19:39:13.294894  9494 net.cpp:148] Top shape: 24 16 28 28 (301056)
I0403 19:39:13.294909  9494 net.cpp:156] Memory required for data: 535880736
I0403 19:39:13.294927  9494 layer_factory.hpp:77] Creating layer inception_3a/relu_5x5_reduce
I0403 19:39:13.294947  9494 net.cpp:91] Creating Layer inception_3a/relu_5x5_reduce
I0403 19:39:13.294963  9494 net.cpp:425] inception_3a/relu_5x5_reduce <- inception_3a/5x5_reduce
I0403 19:39:13.294982  9494 net.cpp:386] inception_3a/relu_5x5_reduce -> inception_3a/5x5_reduce (in-place)
I0403 19:39:13.295265  9494 net.cpp:141] Setting up inception_3a/relu_5x5_reduce
I0403 19:39:13.295297  9494 net.cpp:148] Top shape: 24 16 28 28 (301056)
I0403 19:39:13.295315  9494 net.cpp:156] Memory required for data: 537084960
I0403 19:39:13.295331  9494 layer_factory.hpp:77] Creating layer inception_3a/5x5
I0403 19:39:13.295351  9494 net.cpp:91] Creating Layer inception_3a/5x5
I0403 19:39:13.295367  9494 net.cpp:425] inception_3a/5x5 <- inception_3a/5x5_reduce
I0403 19:39:13.295387  9494 net.cpp:399] inception_3a/5x5 -> inception_3a/5x5
I0403 19:39:13.296365  9494 net.cpp:141] Setting up inception_3a/5x5
I0403 19:39:13.296391  9494 net.cpp:148] Top shape: 24 32 28 28 (602112)
I0403 19:39:13.296407  9494 net.cpp:156] Memory required for data: 539493408
I0403 19:39:13.296427  9494 layer_factory.hpp:77] Creating layer inception_3a/relu_5x5
I0403 19:39:13.296447  9494 net.cpp:91] Creating Layer inception_3a/relu_5x5
I0403 19:39:13.296468  9494 net.cpp:425] inception_3a/relu_5x5 <- inception_3a/5x5
I0403 19:39:13.296494  9494 net.cpp:386] inception_3a/relu_5x5 -> inception_3a/5x5 (in-place)
I0403 19:39:13.296663  9494 net.cpp:141] Setting up inception_3a/relu_5x5
I0403 19:39:13.296687  9494 net.cpp:148] Top shape: 24 32 28 28 (602112)
I0403 19:39:13.296702  9494 net.cpp:156] Memory required for data: 541901856
I0403 19:39:13.296718  9494 layer_factory.hpp:77] Creating layer inception_3a/pool
I0403 19:39:13.296737  9494 net.cpp:91] Creating Layer inception_3a/pool
I0403 19:39:13.296754  9494 net.cpp:425] inception_3a/pool <- pool2/3x3_s2_pool2/3x3_s2_0_split_3
I0403 19:39:13.296785  9494 net.cpp:399] inception_3a/pool -> inception_3a/pool
I0403 19:39:13.296844  9494 net.cpp:141] Setting up inception_3a/pool
I0403 19:39:13.296867  9494 net.cpp:148] Top shape: 24 192 28 28 (3612672)
I0403 19:39:13.296882  9494 net.cpp:156] Memory required for data: 556352544
I0403 19:39:13.296898  9494 layer_factory.hpp:77] Creating layer inception_3a/pool_proj
I0403 19:39:13.296921  9494 net.cpp:91] Creating Layer inception_3a/pool_proj
I0403 19:39:13.296938  9494 net.cpp:425] inception_3a/pool_proj <- inception_3a/pool
I0403 19:39:13.296960  9494 net.cpp:399] inception_3a/pool_proj -> inception_3a/pool_proj
I0403 19:39:13.297941  9494 net.cpp:141] Setting up inception_3a/pool_proj
I0403 19:39:13.297972  9494 net.cpp:148] Top shape: 24 32 28 28 (602112)
I0403 19:39:13.297988  9494 net.cpp:156] Memory required for data: 558760992
I0403 19:39:13.298010  9494 layer_factory.hpp:77] Creating layer inception_3a/relu_pool_proj
I0403 19:39:13.298030  9494 net.cpp:91] Creating Layer inception_3a/relu_pool_proj
I0403 19:39:13.298048  9494 net.cpp:425] inception_3a/relu_pool_proj <- inception_3a/pool_proj
I0403 19:39:13.298064  9494 net.cpp:386] inception_3a/relu_pool_proj -> inception_3a/pool_proj (in-place)
I0403 19:39:13.298326  9494 net.cpp:141] Setting up inception_3a/relu_pool_proj
I0403 19:39:13.298352  9494 net.cpp:148] Top shape: 24 32 28 28 (602112)
I0403 19:39:13.298367  9494 net.cpp:156] Memory required for data: 561169440
I0403 19:39:13.298382  9494 layer_factory.hpp:77] Creating layer inception_3a/output
I0403 19:39:13.298399  9494 net.cpp:91] Creating Layer inception_3a/output
I0403 19:39:13.298414  9494 net.cpp:425] inception_3a/output <- inception_3a/1x1
I0403 19:39:13.298434  9494 net.cpp:425] inception_3a/output <- inception_3a/3x3
I0403 19:39:13.298450  9494 net.cpp:425] inception_3a/output <- inception_3a/5x5
I0403 19:39:13.298472  9494 net.cpp:425] inception_3a/output <- inception_3a/pool_proj
I0403 19:39:13.298491  9494 net.cpp:399] inception_3a/output -> inception_3a/output
I0403 19:39:13.298537  9494 net.cpp:141] Setting up inception_3a/output
I0403 19:39:13.298564  9494 net.cpp:148] Top shape: 24 256 28 28 (4816896)
I0403 19:39:13.298580  9494 net.cpp:156] Memory required for data: 580437024
I0403 19:39:13.298596  9494 layer_factory.hpp:77] Creating layer inception_3a/output_inception_3a/output_0_split
I0403 19:39:13.298612  9494 net.cpp:91] Creating Layer inception_3a/output_inception_3a/output_0_split
I0403 19:39:13.298629  9494 net.cpp:425] inception_3a/output_inception_3a/output_0_split <- inception_3a/output
I0403 19:39:13.298648  9494 net.cpp:399] inception_3a/output_inception_3a/output_0_split -> inception_3a/output_inception_3a/output_0_split_0
I0403 19:39:13.298668  9494 net.cpp:399] inception_3a/output_inception_3a/output_0_split -> inception_3a/output_inception_3a/output_0_split_1
I0403 19:39:13.298691  9494 net.cpp:399] inception_3a/output_inception_3a/output_0_split -> inception_3a/output_inception_3a/output_0_split_2
I0403 19:39:13.298710  9494 net.cpp:399] inception_3a/output_inception_3a/output_0_split -> inception_3a/output_inception_3a/output_0_split_3
I0403 19:39:13.298781  9494 net.cpp:141] Setting up inception_3a/output_inception_3a/output_0_split
I0403 19:39:13.298810  9494 net.cpp:148] Top shape: 24 256 28 28 (4816896)
I0403 19:39:13.298831  9494 net.cpp:148] Top shape: 24 256 28 28 (4816896)
I0403 19:39:13.298847  9494 net.cpp:148] Top shape: 24 256 28 28 (4816896)
I0403 19:39:13.298863  9494 net.cpp:148] Top shape: 24 256 28 28 (4816896)
I0403 19:39:13.298877  9494 net.cpp:156] Memory required for data: 657507360
I0403 19:39:13.298892  9494 layer_factory.hpp:77] Creating layer inception_3b/1x1
I0403 19:39:13.298913  9494 net.cpp:91] Creating Layer inception_3b/1x1
I0403 19:39:13.298933  9494 net.cpp:425] inception_3b/1x1 <- inception_3a/output_inception_3a/output_0_split_0
I0403 19:39:13.298954  9494 net.cpp:399] inception_3b/1x1 -> inception_3b/1x1
I0403 19:39:13.300077  9494 net.cpp:141] Setting up inception_3b/1x1
I0403 19:39:13.300117  9494 net.cpp:148] Top shape: 24 128 28 28 (2408448)
I0403 19:39:13.300133  9494 net.cpp:156] Memory required for data: 667141152
I0403 19:39:13.300151  9494 layer_factory.hpp:77] Creating layer inception_3b/relu_1x1
I0403 19:39:13.300169  9494 net.cpp:91] Creating Layer inception_3b/relu_1x1
I0403 19:39:13.300187  9494 net.cpp:425] inception_3b/relu_1x1 <- inception_3b/1x1
I0403 19:39:13.300206  9494 net.cpp:386] inception_3b/relu_1x1 -> inception_3b/1x1 (in-place)
I0403 19:39:13.300376  9494 net.cpp:141] Setting up inception_3b/relu_1x1
I0403 19:39:13.300402  9494 net.cpp:148] Top shape: 24 128 28 28 (2408448)
I0403 19:39:13.300417  9494 net.cpp:156] Memory required for data: 676774944
I0403 19:39:13.300431  9494 layer_factory.hpp:77] Creating layer inception_3b/3x3_reduce
I0403 19:39:13.300469  9494 net.cpp:91] Creating Layer inception_3b/3x3_reduce
I0403 19:39:13.300488  9494 net.cpp:425] inception_3b/3x3_reduce <- inception_3a/output_inception_3a/output_0_split_1
I0403 19:39:13.300508  9494 net.cpp:399] inception_3b/3x3_reduce -> inception_3b/3x3_reduce
I0403 19:39:13.301597  9494 net.cpp:141] Setting up inception_3b/3x3_reduce
I0403 19:39:13.301626  9494 net.cpp:148] Top shape: 24 128 28 28 (2408448)
I0403 19:39:13.301643  9494 net.cpp:156] Memory required for data: 686408736
I0403 19:39:13.301661  9494 layer_factory.hpp:77] Creating layer inception_3b/relu_3x3_reduce
I0403 19:39:13.301681  9494 net.cpp:91] Creating Layer inception_3b/relu_3x3_reduce
I0403 19:39:13.301695  9494 net.cpp:425] inception_3b/relu_3x3_reduce <- inception_3b/3x3_reduce
I0403 19:39:13.301713  9494 net.cpp:386] inception_3b/relu_3x3_reduce -> inception_3b/3x3_reduce (in-place)
I0403 19:39:13.301873  9494 net.cpp:141] Setting up inception_3b/relu_3x3_reduce
I0403 19:39:13.301899  9494 net.cpp:148] Top shape: 24 128 28 28 (2408448)
I0403 19:39:13.301913  9494 net.cpp:156] Memory required for data: 696042528
I0403 19:39:13.301929  9494 layer_factory.hpp:77] Creating layer inception_3b/3x3
I0403 19:39:13.301954  9494 net.cpp:91] Creating Layer inception_3b/3x3
I0403 19:39:13.301972  9494 net.cpp:425] inception_3b/3x3 <- inception_3b/3x3_reduce
I0403 19:39:13.301991  9494 net.cpp:399] inception_3b/3x3 -> inception_3b/3x3
I0403 19:39:13.304728  9494 net.cpp:141] Setting up inception_3b/3x3
I0403 19:39:13.304755  9494 net.cpp:148] Top shape: 24 192 28 28 (3612672)
I0403 19:39:13.304770  9494 net.cpp:156] Memory required for data: 710493216
I0403 19:39:13.304788  9494 layer_factory.hpp:77] Creating layer inception_3b/relu_3x3
I0403 19:39:13.304807  9494 net.cpp:91] Creating Layer inception_3b/relu_3x3
I0403 19:39:13.304824  9494 net.cpp:425] inception_3b/relu_3x3 <- inception_3b/3x3
I0403 19:39:13.304842  9494 net.cpp:386] inception_3b/relu_3x3 -> inception_3b/3x3 (in-place)
I0403 19:39:13.305101  9494 net.cpp:141] Setting up inception_3b/relu_3x3
I0403 19:39:13.305129  9494 net.cpp:148] Top shape: 24 192 28 28 (3612672)
I0403 19:39:13.305142  9494 net.cpp:156] Memory required for data: 724943904
I0403 19:39:13.305157  9494 layer_factory.hpp:77] Creating layer inception_3b/5x5_reduce
I0403 19:39:13.305181  9494 net.cpp:91] Creating Layer inception_3b/5x5_reduce
I0403 19:39:13.305197  9494 net.cpp:425] inception_3b/5x5_reduce <- inception_3a/output_inception_3a/output_0_split_2
I0403 19:39:13.305232  9494 net.cpp:399] inception_3b/5x5_reduce -> inception_3b/5x5_reduce
I0403 19:39:13.306176  9494 net.cpp:141] Setting up inception_3b/5x5_reduce
I0403 19:39:13.306205  9494 net.cpp:148] Top shape: 24 32 28 28 (602112)
I0403 19:39:13.306219  9494 net.cpp:156] Memory required for data: 727352352
I0403 19:39:13.306237  9494 layer_factory.hpp:77] Creating layer inception_3b/relu_5x5_reduce
I0403 19:39:13.306257  9494 net.cpp:91] Creating Layer inception_3b/relu_5x5_reduce
I0403 19:39:13.306272  9494 net.cpp:425] inception_3b/relu_5x5_reduce <- inception_3b/5x5_reduce
I0403 19:39:13.306289  9494 net.cpp:386] inception_3b/relu_5x5_reduce -> inception_3b/5x5_reduce (in-place)
I0403 19:39:13.306452  9494 net.cpp:141] Setting up inception_3b/relu_5x5_reduce
I0403 19:39:13.306491  9494 net.cpp:148] Top shape: 24 32 28 28 (602112)
I0403 19:39:13.306506  9494 net.cpp:156] Memory required for data: 729760800
I0403 19:39:13.306520  9494 layer_factory.hpp:77] Creating layer inception_3b/5x5
I0403 19:39:13.306545  9494 net.cpp:91] Creating Layer inception_3b/5x5
I0403 19:39:13.306565  9494 net.cpp:425] inception_3b/5x5 <- inception_3b/5x5_reduce
I0403 19:39:13.306583  9494 net.cpp:399] inception_3b/5x5 -> inception_3b/5x5
I0403 19:39:13.308428  9494 net.cpp:141] Setting up inception_3b/5x5
I0403 19:39:13.308460  9494 net.cpp:148] Top shape: 24 96 28 28 (1806336)
I0403 19:39:13.308478  9494 net.cpp:156] Memory required for data: 736986144
I0403 19:39:13.308497  9494 layer_factory.hpp:77] Creating layer inception_3b/relu_5x5
I0403 19:39:13.308513  9494 net.cpp:91] Creating Layer inception_3b/relu_5x5
I0403 19:39:13.308528  9494 net.cpp:425] inception_3b/relu_5x5 <- inception_3b/5x5
I0403 19:39:13.308547  9494 net.cpp:386] inception_3b/relu_5x5 -> inception_3b/5x5 (in-place)
I0403 19:39:13.308728  9494 net.cpp:141] Setting up inception_3b/relu_5x5
I0403 19:39:13.308753  9494 net.cpp:148] Top shape: 24 96 28 28 (1806336)
I0403 19:39:13.308768  9494 net.cpp:156] Memory required for data: 744211488
I0403 19:39:13.308781  9494 layer_factory.hpp:77] Creating layer inception_3b/pool
I0403 19:39:13.308799  9494 net.cpp:91] Creating Layer inception_3b/pool
I0403 19:39:13.308814  9494 net.cpp:425] inception_3b/pool <- inception_3a/output_inception_3a/output_0_split_3
I0403 19:39:13.308831  9494 net.cpp:399] inception_3b/pool -> inception_3b/pool
I0403 19:39:13.308882  9494 net.cpp:141] Setting up inception_3b/pool
I0403 19:39:13.308905  9494 net.cpp:148] Top shape: 24 256 28 28 (4816896)
I0403 19:39:13.308919  9494 net.cpp:156] Memory required for data: 763479072
I0403 19:39:13.308934  9494 layer_factory.hpp:77] Creating layer inception_3b/pool_proj
I0403 19:39:13.308957  9494 net.cpp:91] Creating Layer inception_3b/pool_proj
I0403 19:39:13.308974  9494 net.cpp:425] inception_3b/pool_proj <- inception_3b/pool
I0403 19:39:13.308991  9494 net.cpp:399] inception_3b/pool_proj -> inception_3b/pool_proj
I0403 19:39:13.310040  9494 net.cpp:141] Setting up inception_3b/pool_proj
I0403 19:39:13.310068  9494 net.cpp:148] Top shape: 24 64 28 28 (1204224)
I0403 19:39:13.310083  9494 net.cpp:156] Memory required for data: 768295968
I0403 19:39:13.310101  9494 layer_factory.hpp:77] Creating layer inception_3b/relu_pool_proj
I0403 19:39:13.310120  9494 net.cpp:91] Creating Layer inception_3b/relu_pool_proj
I0403 19:39:13.310137  9494 net.cpp:425] inception_3b/relu_pool_proj <- inception_3b/pool_proj
I0403 19:39:13.310153  9494 net.cpp:386] inception_3b/relu_pool_proj -> inception_3b/pool_proj (in-place)
I0403 19:39:13.310570  9494 net.cpp:141] Setting up inception_3b/relu_pool_proj
I0403 19:39:13.310596  9494 net.cpp:148] Top shape: 24 64 28 28 (1204224)
I0403 19:39:13.310612  9494 net.cpp:156] Memory required for data: 773112864
I0403 19:39:13.310627  9494 layer_factory.hpp:77] Creating layer inception_3b/output
I0403 19:39:13.310647  9494 net.cpp:91] Creating Layer inception_3b/output
I0403 19:39:13.310664  9494 net.cpp:425] inception_3b/output <- inception_3b/1x1
I0403 19:39:13.310681  9494 net.cpp:425] inception_3b/output <- inception_3b/3x3
I0403 19:39:13.310698  9494 net.cpp:425] inception_3b/output <- inception_3b/5x5
I0403 19:39:13.310713  9494 net.cpp:425] inception_3b/output <- inception_3b/pool_proj
I0403 19:39:13.310729  9494 net.cpp:399] inception_3b/output -> inception_3b/output
I0403 19:39:13.310773  9494 net.cpp:141] Setting up inception_3b/output
I0403 19:39:13.310796  9494 net.cpp:148] Top shape: 24 480 28 28 (9031680)
I0403 19:39:13.310811  9494 net.cpp:156] Memory required for data: 809239584
I0403 19:39:13.310824  9494 layer_factory.hpp:77] Creating layer pool3/3x3_s2
I0403 19:39:13.310842  9494 net.cpp:91] Creating Layer pool3/3x3_s2
I0403 19:39:13.310858  9494 net.cpp:425] pool3/3x3_s2 <- inception_3b/output
I0403 19:39:13.310878  9494 net.cpp:399] pool3/3x3_s2 -> pool3/3x3_s2
I0403 19:39:13.310945  9494 net.cpp:141] Setting up pool3/3x3_s2
I0403 19:39:13.310971  9494 net.cpp:148] Top shape: 24 480 14 14 (2257920)
I0403 19:39:13.310986  9494 net.cpp:156] Memory required for data: 818271264
I0403 19:39:13.310999  9494 layer_factory.hpp:77] Creating layer pool3/3x3_s2_pool3/3x3_s2_0_split
I0403 19:39:13.311017  9494 net.cpp:91] Creating Layer pool3/3x3_s2_pool3/3x3_s2_0_split
I0403 19:39:13.311033  9494 net.cpp:425] pool3/3x3_s2_pool3/3x3_s2_0_split <- pool3/3x3_s2
I0403 19:39:13.311049  9494 net.cpp:399] pool3/3x3_s2_pool3/3x3_s2_0_split -> pool3/3x3_s2_pool3/3x3_s2_0_split_0
I0403 19:39:13.311069  9494 net.cpp:399] pool3/3x3_s2_pool3/3x3_s2_0_split -> pool3/3x3_s2_pool3/3x3_s2_0_split_1
I0403 19:39:13.311089  9494 net.cpp:399] pool3/3x3_s2_pool3/3x3_s2_0_split -> pool3/3x3_s2_pool3/3x3_s2_0_split_2
I0403 19:39:13.311108  9494 net.cpp:399] pool3/3x3_s2_pool3/3x3_s2_0_split -> pool3/3x3_s2_pool3/3x3_s2_0_split_3
I0403 19:39:13.311194  9494 net.cpp:141] Setting up pool3/3x3_s2_pool3/3x3_s2_0_split
I0403 19:39:13.311221  9494 net.cpp:148] Top shape: 24 480 14 14 (2257920)
I0403 19:39:13.311238  9494 net.cpp:148] Top shape: 24 480 14 14 (2257920)
I0403 19:39:13.311254  9494 net.cpp:148] Top shape: 24 480 14 14 (2257920)
I0403 19:39:13.311271  9494 net.cpp:148] Top shape: 24 480 14 14 (2257920)
I0403 19:39:13.311285  9494 net.cpp:156] Memory required for data: 854397984
I0403 19:39:13.311300  9494 layer_factory.hpp:77] Creating layer inception_4a/1x1
I0403 19:39:13.311323  9494 net.cpp:91] Creating Layer inception_4a/1x1
I0403 19:39:13.311342  9494 net.cpp:425] inception_4a/1x1 <- pool3/3x3_s2_pool3/3x3_s2_0_split_0
I0403 19:39:13.311362  9494 net.cpp:399] inception_4a/1x1 -> inception_4a/1x1
I0403 19:39:13.312894  9494 net.cpp:141] Setting up inception_4a/1x1
I0403 19:39:13.312922  9494 net.cpp:148] Top shape: 24 192 14 14 (903168)
I0403 19:39:13.312938  9494 net.cpp:156] Memory required for data: 858010656
I0403 19:39:13.312959  9494 layer_factory.hpp:77] Creating layer inception_4a/relu_1x1
I0403 19:39:13.312983  9494 net.cpp:91] Creating Layer inception_4a/relu_1x1
I0403 19:39:13.312999  9494 net.cpp:425] inception_4a/relu_1x1 <- inception_4a/1x1
I0403 19:39:13.313014  9494 net.cpp:386] inception_4a/relu_1x1 -> inception_4a/1x1 (in-place)
I0403 19:39:13.313186  9494 net.cpp:141] Setting up inception_4a/relu_1x1
I0403 19:39:13.313210  9494 net.cpp:148] Top shape: 24 192 14 14 (903168)
I0403 19:39:13.313237  9494 net.cpp:156] Memory required for data: 861623328
I0403 19:39:13.313253  9494 layer_factory.hpp:77] Creating layer inception_4a/3x3_reduce
I0403 19:39:13.313279  9494 net.cpp:91] Creating Layer inception_4a/3x3_reduce
I0403 19:39:13.313297  9494 net.cpp:425] inception_4a/3x3_reduce <- pool3/3x3_s2_pool3/3x3_s2_0_split_1
I0403 19:39:13.313319  9494 net.cpp:399] inception_4a/3x3_reduce -> inception_4a/3x3_reduce
I0403 19:39:13.314555  9494 net.cpp:141] Setting up inception_4a/3x3_reduce
I0403 19:39:13.314585  9494 net.cpp:148] Top shape: 24 96 14 14 (451584)
I0403 19:39:13.314601  9494 net.cpp:156] Memory required for data: 863429664
I0403 19:39:13.314625  9494 layer_factory.hpp:77] Creating layer inception_4a/relu_3x3_reduce
I0403 19:39:13.314647  9494 net.cpp:91] Creating Layer inception_4a/relu_3x3_reduce
I0403 19:39:13.314666  9494 net.cpp:425] inception_4a/relu_3x3_reduce <- inception_4a/3x3_reduce
I0403 19:39:13.314683  9494 net.cpp:386] inception_4a/relu_3x3_reduce -> inception_4a/3x3_reduce (in-place)
I0403 19:39:13.314852  9494 net.cpp:141] Setting up inception_4a/relu_3x3_reduce
I0403 19:39:13.314877  9494 net.cpp:148] Top shape: 24 96 14 14 (451584)
I0403 19:39:13.314893  9494 net.cpp:156] Memory required for data: 865236000
I0403 19:39:13.314908  9494 layer_factory.hpp:77] Creating layer inception_4a/3x3
I0403 19:39:13.314929  9494 net.cpp:91] Creating Layer inception_4a/3x3
I0403 19:39:13.314946  9494 net.cpp:425] inception_4a/3x3 <- inception_4a/3x3_reduce
I0403 19:39:13.314967  9494 net.cpp:399] inception_4a/3x3 -> inception_4a/3x3
I0403 19:39:13.317592  9494 net.cpp:141] Setting up inception_4a/3x3
I0403 19:39:13.317623  9494 net.cpp:148] Top shape: 24 208 14 14 (978432)
I0403 19:39:13.317641  9494 net.cpp:156] Memory required for data: 869149728
I0403 19:39:13.317661  9494 layer_factory.hpp:77] Creating layer inception_4a/relu_3x3
I0403 19:39:13.317677  9494 net.cpp:91] Creating Layer inception_4a/relu_3x3
I0403 19:39:13.317692  9494 net.cpp:425] inception_4a/relu_3x3 <- inception_4a/3x3
I0403 19:39:13.317711  9494 net.cpp:386] inception_4a/relu_3x3 -> inception_4a/3x3 (in-place)
I0403 19:39:13.317988  9494 net.cpp:141] Setting up inception_4a/relu_3x3
I0403 19:39:13.318017  9494 net.cpp:148] Top shape: 24 208 14 14 (978432)
I0403 19:39:13.318034  9494 net.cpp:156] Memory required for data: 873063456
I0403 19:39:13.318050  9494 layer_factory.hpp:77] Creating layer inception_4a/5x5_reduce
I0403 19:39:13.318073  9494 net.cpp:91] Creating Layer inception_4a/5x5_reduce
I0403 19:39:13.318091  9494 net.cpp:425] inception_4a/5x5_reduce <- pool3/3x3_s2_pool3/3x3_s2_0_split_2
I0403 19:39:13.318112  9494 net.cpp:399] inception_4a/5x5_reduce -> inception_4a/5x5_reduce
I0403 19:39:13.319103  9494 net.cpp:141] Setting up inception_4a/5x5_reduce
I0403 19:39:13.319130  9494 net.cpp:148] Top shape: 24 16 14 14 (75264)
I0403 19:39:13.319146  9494 net.cpp:156] Memory required for data: 873364512
I0403 19:39:13.319165  9494 layer_factory.hpp:77] Creating layer inception_4a/relu_5x5_reduce
I0403 19:39:13.319187  9494 net.cpp:91] Creating Layer inception_4a/relu_5x5_reduce
I0403 19:39:13.319205  9494 net.cpp:425] inception_4a/relu_5x5_reduce <- inception_4a/5x5_reduce
I0403 19:39:13.319221  9494 net.cpp:386] inception_4a/relu_5x5_reduce -> inception_4a/5x5_reduce (in-place)
I0403 19:39:13.319391  9494 net.cpp:141] Setting up inception_4a/relu_5x5_reduce
I0403 19:39:13.319416  9494 net.cpp:148] Top shape: 24 16 14 14 (75264)
I0403 19:39:13.319432  9494 net.cpp:156] Memory required for data: 873665568
I0403 19:39:13.319447  9494 layer_factory.hpp:77] Creating layer inception_4a/5x5
I0403 19:39:13.319473  9494 net.cpp:91] Creating Layer inception_4a/5x5
I0403 19:39:13.319494  9494 net.cpp:425] inception_4a/5x5 <- inception_4a/5x5_reduce
I0403 19:39:13.319514  9494 net.cpp:399] inception_4a/5x5 -> inception_4a/5x5
I0403 19:39:13.320550  9494 net.cpp:141] Setting up inception_4a/5x5
I0403 19:39:13.320579  9494 net.cpp:148] Top shape: 24 48 14 14 (225792)
I0403 19:39:13.320593  9494 net.cpp:156] Memory required for data: 874568736
I0403 19:39:13.320612  9494 layer_factory.hpp:77] Creating layer inception_4a/relu_5x5
I0403 19:39:13.320632  9494 net.cpp:91] Creating Layer inception_4a/relu_5x5
I0403 19:39:13.320657  9494 net.cpp:425] inception_4a/relu_5x5 <- inception_4a/5x5
I0403 19:39:13.320678  9494 net.cpp:386] inception_4a/relu_5x5 -> inception_4a/5x5 (in-place)
I0403 19:39:13.320852  9494 net.cpp:141] Setting up inception_4a/relu_5x5
I0403 19:39:13.320878  9494 net.cpp:148] Top shape: 24 48 14 14 (225792)
I0403 19:39:13.320894  9494 net.cpp:156] Memory required for data: 875471904
I0403 19:39:13.320909  9494 layer_factory.hpp:77] Creating layer inception_4a/pool
I0403 19:39:13.320926  9494 net.cpp:91] Creating Layer inception_4a/pool
I0403 19:39:13.320941  9494 net.cpp:425] inception_4a/pool <- pool3/3x3_s2_pool3/3x3_s2_0_split_3
I0403 19:39:13.320961  9494 net.cpp:399] inception_4a/pool -> inception_4a/pool
I0403 19:39:13.321020  9494 net.cpp:141] Setting up inception_4a/pool
I0403 19:39:13.321043  9494 net.cpp:148] Top shape: 24 480 14 14 (2257920)
I0403 19:39:13.321058  9494 net.cpp:156] Memory required for data: 884503584
I0403 19:39:13.321074  9494 layer_factory.hpp:77] Creating layer inception_4a/pool_proj
I0403 19:39:13.321095  9494 net.cpp:91] Creating Layer inception_4a/pool_proj
I0403 19:39:13.321113  9494 net.cpp:425] inception_4a/pool_proj <- inception_4a/pool
I0403 19:39:13.321135  9494 net.cpp:399] inception_4a/pool_proj -> inception_4a/pool_proj
I0403 19:39:13.322276  9494 net.cpp:141] Setting up inception_4a/pool_proj
I0403 19:39:13.322309  9494 net.cpp:148] Top shape: 24 64 14 14 (301056)
I0403 19:39:13.322343  9494 net.cpp:156] Memory required for data: 885707808
I0403 19:39:13.322365  9494 layer_factory.hpp:77] Creating layer inception_4a/relu_pool_proj
I0403 19:39:13.322383  9494 net.cpp:91] Creating Layer inception_4a/relu_pool_proj
I0403 19:39:13.322401  9494 net.cpp:425] inception_4a/relu_pool_proj <- inception_4a/pool_proj
I0403 19:39:13.322418  9494 net.cpp:386] inception_4a/relu_pool_proj -> inception_4a/pool_proj (in-place)
I0403 19:39:13.322700  9494 net.cpp:141] Setting up inception_4a/relu_pool_proj
I0403 19:39:13.322727  9494 net.cpp:148] Top shape: 24 64 14 14 (301056)
I0403 19:39:13.322744  9494 net.cpp:156] Memory required for data: 886912032
I0403 19:39:13.322759  9494 layer_factory.hpp:77] Creating layer inception_4a/output
I0403 19:39:13.322777  9494 net.cpp:91] Creating Layer inception_4a/output
I0403 19:39:13.322791  9494 net.cpp:425] inception_4a/output <- inception_4a/1x1
I0403 19:39:13.322808  9494 net.cpp:425] inception_4a/output <- inception_4a/3x3
I0403 19:39:13.322824  9494 net.cpp:425] inception_4a/output <- inception_4a/5x5
I0403 19:39:13.322840  9494 net.cpp:425] inception_4a/output <- inception_4a/pool_proj
I0403 19:39:13.322856  9494 net.cpp:399] inception_4a/output -> inception_4a/output
I0403 19:39:13.322901  9494 net.cpp:141] Setting up inception_4a/output
I0403 19:39:13.322926  9494 net.cpp:148] Top shape: 24 512 14 14 (2408448)
I0403 19:39:13.322939  9494 net.cpp:156] Memory required for data: 896545824
I0403 19:39:13.322954  9494 layer_factory.hpp:77] Creating layer inception_4a/output_inception_4a/output_0_split
I0403 19:39:13.322974  9494 net.cpp:91] Creating Layer inception_4a/output_inception_4a/output_0_split
I0403 19:39:13.322990  9494 net.cpp:425] inception_4a/output_inception_4a/output_0_split <- inception_4a/output
I0403 19:39:13.323009  9494 net.cpp:399] inception_4a/output_inception_4a/output_0_split -> inception_4a/output_inception_4a/output_0_split_0
I0403 19:39:13.323029  9494 net.cpp:399] inception_4a/output_inception_4a/output_0_split -> inception_4a/output_inception_4a/output_0_split_1
I0403 19:39:13.323050  9494 net.cpp:399] inception_4a/output_inception_4a/output_0_split -> inception_4a/output_inception_4a/output_0_split_2
I0403 19:39:13.323070  9494 net.cpp:399] inception_4a/output_inception_4a/output_0_split -> inception_4a/output_inception_4a/output_0_split_3
I0403 19:39:13.323091  9494 net.cpp:399] inception_4a/output_inception_4a/output_0_split -> inception_4a/output_inception_4a/output_0_split_4
I0403 19:39:13.323182  9494 net.cpp:141] Setting up inception_4a/output_inception_4a/output_0_split
I0403 19:39:13.323205  9494 net.cpp:148] Top shape: 24 512 14 14 (2408448)
I0403 19:39:13.323222  9494 net.cpp:148] Top shape: 24 512 14 14 (2408448)
I0403 19:39:13.323238  9494 net.cpp:148] Top shape: 24 512 14 14 (2408448)
I0403 19:39:13.323254  9494 net.cpp:148] Top shape: 24 512 14 14 (2408448)
I0403 19:39:13.323269  9494 net.cpp:148] Top shape: 24 512 14 14 (2408448)
I0403 19:39:13.323282  9494 net.cpp:156] Memory required for data: 944714784
I0403 19:39:13.323297  9494 layer_factory.hpp:77] Creating layer loss1/ave_pool
I0403 19:39:13.323317  9494 net.cpp:91] Creating Layer loss1/ave_pool
I0403 19:39:13.323333  9494 net.cpp:425] loss1/ave_pool <- inception_4a/output_inception_4a/output_0_split_0
I0403 19:39:13.323353  9494 net.cpp:399] loss1/ave_pool -> loss1/ave_pool
I0403 19:39:13.323555  9494 net.cpp:141] Setting up loss1/ave_pool
I0403 19:39:13.323585  9494 net.cpp:148] Top shape: 24 512 4 4 (196608)
I0403 19:39:13.323599  9494 net.cpp:156] Memory required for data: 945501216
I0403 19:39:13.323616  9494 layer_factory.hpp:77] Creating layer loss1/conv
I0403 19:39:13.323638  9494 net.cpp:91] Creating Layer loss1/conv
I0403 19:39:13.323655  9494 net.cpp:425] loss1/conv <- loss1/ave_pool
I0403 19:39:13.323674  9494 net.cpp:399] loss1/conv -> loss1/conv
I0403 19:39:13.325016  9494 net.cpp:141] Setting up loss1/conv
I0403 19:39:13.325044  9494 net.cpp:148] Top shape: 24 128 4 4 (49152)
I0403 19:39:13.325059  9494 net.cpp:156] Memory required for data: 945697824
I0403 19:39:13.325091  9494 layer_factory.hpp:77] Creating layer loss1/relu_conv
I0403 19:39:13.325111  9494 net.cpp:91] Creating Layer loss1/relu_conv
I0403 19:39:13.325129  9494 net.cpp:425] loss1/relu_conv <- loss1/conv
I0403 19:39:13.325148  9494 net.cpp:386] loss1/relu_conv -> loss1/conv (in-place)
I0403 19:39:13.325433  9494 net.cpp:141] Setting up loss1/relu_conv
I0403 19:39:13.325464  9494 net.cpp:148] Top shape: 24 128 4 4 (49152)
I0403 19:39:13.325481  9494 net.cpp:156] Memory required for data: 945894432
I0403 19:39:13.325497  9494 layer_factory.hpp:77] Creating layer loss1/fc
I0403 19:39:13.325523  9494 net.cpp:91] Creating Layer loss1/fc
I0403 19:39:13.325552  9494 net.cpp:425] loss1/fc <- loss1/conv
I0403 19:39:13.325574  9494 net.cpp:399] loss1/fc -> loss1/fc
I0403 19:39:13.342567  9494 net.cpp:141] Setting up loss1/fc
I0403 19:39:13.342599  9494 net.cpp:148] Top shape: 24 1024 (24576)
I0403 19:39:13.342615  9494 net.cpp:156] Memory required for data: 945992736
I0403 19:39:13.342634  9494 layer_factory.hpp:77] Creating layer loss1/relu_fc
I0403 19:39:13.342653  9494 net.cpp:91] Creating Layer loss1/relu_fc
I0403 19:39:13.342669  9494 net.cpp:425] loss1/relu_fc <- loss1/fc
I0403 19:39:13.342687  9494 net.cpp:386] loss1/relu_fc -> loss1/fc (in-place)
I0403 19:39:13.342866  9494 net.cpp:141] Setting up loss1/relu_fc
I0403 19:39:13.342890  9494 net.cpp:148] Top shape: 24 1024 (24576)
I0403 19:39:13.342905  9494 net.cpp:156] Memory required for data: 946091040
I0403 19:39:13.342919  9494 layer_factory.hpp:77] Creating layer loss1/drop_fc
I0403 19:39:13.342944  9494 net.cpp:91] Creating Layer loss1/drop_fc
I0403 19:39:13.342962  9494 net.cpp:425] loss1/drop_fc <- loss1/fc
I0403 19:39:13.342981  9494 net.cpp:386] loss1/drop_fc -> loss1/fc (in-place)
I0403 19:39:13.343032  9494 net.cpp:141] Setting up loss1/drop_fc
I0403 19:39:13.343055  9494 net.cpp:148] Top shape: 24 1024 (24576)
I0403 19:39:13.343068  9494 net.cpp:156] Memory required for data: 946189344
I0403 19:39:13.343082  9494 layer_factory.hpp:77] Creating layer loss1/classifier_plantvillage
I0403 19:39:13.343103  9494 net.cpp:91] Creating Layer loss1/classifier_plantvillage
I0403 19:39:13.343121  9494 net.cpp:425] loss1/classifier_plantvillage <- loss1/fc
I0403 19:39:13.343142  9494 net.cpp:399] loss1/classifier_plantvillage -> loss1/classifier_plantvillage
I0403 19:39:13.344007  9494 net.cpp:141] Setting up loss1/classifier_plantvillage
I0403 19:39:13.344036  9494 net.cpp:148] Top shape: 24 38 (912)
I0403 19:39:13.344053  9494 net.cpp:156] Memory required for data: 946192992
I0403 19:39:13.344070  9494 layer_factory.hpp:77] Creating layer loss1/classifier_plantvillage_loss1/classifier_plantvillage_0_split
I0403 19:39:13.344089  9494 net.cpp:91] Creating Layer loss1/classifier_plantvillage_loss1/classifier_plantvillage_0_split
I0403 19:39:13.344105  9494 net.cpp:425] loss1/classifier_plantvillage_loss1/classifier_plantvillage_0_split <- loss1/classifier_plantvillage
I0403 19:39:13.344125  9494 net.cpp:399] loss1/classifier_plantvillage_loss1/classifier_plantvillage_0_split -> loss1/classifier_plantvillage_loss1/classifier_plantvillage_0_split_0
I0403 19:39:13.344146  9494 net.cpp:399] loss1/classifier_plantvillage_loss1/classifier_plantvillage_0_split -> loss1/classifier_plantvillage_loss1/classifier_plantvillage_0_split_1
I0403 19:39:13.344164  9494 net.cpp:399] loss1/classifier_plantvillage_loss1/classifier_plantvillage_0_split -> loss1/classifier_plantvillage_loss1/classifier_plantvillage_0_split_2
I0403 19:39:13.344226  9494 net.cpp:141] Setting up loss1/classifier_plantvillage_loss1/classifier_plantvillage_0_split
I0403 19:39:13.344249  9494 net.cpp:148] Top shape: 24 38 (912)
I0403 19:39:13.344266  9494 net.cpp:148] Top shape: 24 38 (912)
I0403 19:39:13.344282  9494 net.cpp:148] Top shape: 24 38 (912)
I0403 19:39:13.344295  9494 net.cpp:156] Memory required for data: 946203936
I0403 19:39:13.344310  9494 layer_factory.hpp:77] Creating layer inception_4b/1x1
I0403 19:39:13.344331  9494 net.cpp:91] Creating Layer inception_4b/1x1
I0403 19:39:13.344363  9494 net.cpp:425] inception_4b/1x1 <- inception_4a/output_inception_4a/output_0_split_1
I0403 19:39:13.344383  9494 net.cpp:399] inception_4b/1x1 -> inception_4b/1x1
I0403 19:39:13.345957  9494 net.cpp:141] Setting up inception_4b/1x1
I0403 19:39:13.345984  9494 net.cpp:148] Top shape: 24 160 14 14 (752640)
I0403 19:39:13.346000  9494 net.cpp:156] Memory required for data: 949214496
I0403 19:39:13.346019  9494 layer_factory.hpp:77] Creating layer inception_4b/relu_1x1
I0403 19:39:13.346040  9494 net.cpp:91] Creating Layer inception_4b/relu_1x1
I0403 19:39:13.346056  9494 net.cpp:425] inception_4b/relu_1x1 <- inception_4b/1x1
I0403 19:39:13.346073  9494 net.cpp:386] inception_4b/relu_1x1 -> inception_4b/1x1 (in-place)
I0403 19:39:13.346243  9494 net.cpp:141] Setting up inception_4b/relu_1x1
I0403 19:39:13.346268  9494 net.cpp:148] Top shape: 24 160 14 14 (752640)
I0403 19:39:13.346283  9494 net.cpp:156] Memory required for data: 952225056
I0403 19:39:13.346298  9494 layer_factory.hpp:77] Creating layer inception_4b/3x3_reduce
I0403 19:39:13.346320  9494 net.cpp:91] Creating Layer inception_4b/3x3_reduce
I0403 19:39:13.346338  9494 net.cpp:425] inception_4b/3x3_reduce <- inception_4a/output_inception_4a/output_0_split_2
I0403 19:39:13.346359  9494 net.cpp:399] inception_4b/3x3_reduce -> inception_4b/3x3_reduce
I0403 19:39:13.347636  9494 net.cpp:141] Setting up inception_4b/3x3_reduce
I0403 19:39:13.347664  9494 net.cpp:148] Top shape: 24 112 14 14 (526848)
I0403 19:39:13.347679  9494 net.cpp:156] Memory required for data: 954332448
I0403 19:39:13.347697  9494 layer_factory.hpp:77] Creating layer inception_4b/relu_3x3_reduce
I0403 19:39:13.347717  9494 net.cpp:91] Creating Layer inception_4b/relu_3x3_reduce
I0403 19:39:13.347734  9494 net.cpp:425] inception_4b/relu_3x3_reduce <- inception_4b/3x3_reduce
I0403 19:39:13.347753  9494 net.cpp:386] inception_4b/relu_3x3_reduce -> inception_4b/3x3_reduce (in-place)
I0403 19:39:13.348017  9494 net.cpp:141] Setting up inception_4b/relu_3x3_reduce
I0403 19:39:13.348042  9494 net.cpp:148] Top shape: 24 112 14 14 (526848)
I0403 19:39:13.348058  9494 net.cpp:156] Memory required for data: 956439840
I0403 19:39:13.348073  9494 layer_factory.hpp:77] Creating layer inception_4b/3x3
I0403 19:39:13.348094  9494 net.cpp:91] Creating Layer inception_4b/3x3
I0403 19:39:13.348112  9494 net.cpp:425] inception_4b/3x3 <- inception_4b/3x3_reduce
I0403 19:39:13.348134  9494 net.cpp:399] inception_4b/3x3 -> inception_4b/3x3
I0403 19:39:13.350977  9494 net.cpp:141] Setting up inception_4b/3x3
I0403 19:39:13.351008  9494 net.cpp:148] Top shape: 24 224 14 14 (1053696)
I0403 19:39:13.351024  9494 net.cpp:156] Memory required for data: 960654624
I0403 19:39:13.351042  9494 layer_factory.hpp:77] Creating layer inception_4b/relu_3x3
I0403 19:39:13.351060  9494 net.cpp:91] Creating Layer inception_4b/relu_3x3
I0403 19:39:13.351076  9494 net.cpp:425] inception_4b/relu_3x3 <- inception_4b/3x3
I0403 19:39:13.351094  9494 net.cpp:386] inception_4b/relu_3x3 -> inception_4b/3x3 (in-place)
I0403 19:39:13.351265  9494 net.cpp:141] Setting up inception_4b/relu_3x3
I0403 19:39:13.351289  9494 net.cpp:148] Top shape: 24 224 14 14 (1053696)
I0403 19:39:13.351305  9494 net.cpp:156] Memory required for data: 964869408
I0403 19:39:13.351320  9494 layer_factory.hpp:77] Creating layer inception_4b/5x5_reduce
I0403 19:39:13.351341  9494 net.cpp:91] Creating Layer inception_4b/5x5_reduce
I0403 19:39:13.351356  9494 net.cpp:425] inception_4b/5x5_reduce <- inception_4a/output_inception_4a/output_0_split_3
I0403 19:39:13.351377  9494 net.cpp:399] inception_4b/5x5_reduce -> inception_4b/5x5_reduce
I0403 19:39:13.352394  9494 net.cpp:141] Setting up inception_4b/5x5_reduce
I0403 19:39:13.352421  9494 net.cpp:148] Top shape: 24 24 14 14 (112896)
I0403 19:39:13.352437  9494 net.cpp:156] Memory required for data: 965320992
I0403 19:39:13.352455  9494 layer_factory.hpp:77] Creating layer inception_4b/relu_5x5_reduce
I0403 19:39:13.352488  9494 net.cpp:91] Creating Layer inception_4b/relu_5x5_reduce
I0403 19:39:13.352517  9494 net.cpp:425] inception_4b/relu_5x5_reduce <- inception_4b/5x5_reduce
I0403 19:39:13.352536  9494 net.cpp:386] inception_4b/relu_5x5_reduce -> inception_4b/5x5_reduce (in-place)
I0403 19:39:13.352707  9494 net.cpp:141] Setting up inception_4b/relu_5x5_reduce
I0403 19:39:13.352733  9494 net.cpp:148] Top shape: 24 24 14 14 (112896)
I0403 19:39:13.352749  9494 net.cpp:156] Memory required for data: 965772576
I0403 19:39:13.352764  9494 layer_factory.hpp:77] Creating layer inception_4b/5x5
I0403 19:39:13.352783  9494 net.cpp:91] Creating Layer inception_4b/5x5
I0403 19:39:13.352799  9494 net.cpp:425] inception_4b/5x5 <- inception_4b/5x5_reduce
I0403 19:39:13.352819  9494 net.cpp:399] inception_4b/5x5 -> inception_4b/5x5
I0403 19:39:13.354004  9494 net.cpp:141] Setting up inception_4b/5x5
I0403 19:39:13.354032  9494 net.cpp:148] Top shape: 24 64 14 14 (301056)
I0403 19:39:13.354048  9494 net.cpp:156] Memory required for data: 966976800
I0403 19:39:13.354065  9494 layer_factory.hpp:77] Creating layer inception_4b/relu_5x5
I0403 19:39:13.354084  9494 net.cpp:91] Creating Layer inception_4b/relu_5x5
I0403 19:39:13.354102  9494 net.cpp:425] inception_4b/relu_5x5 <- inception_4b/5x5
I0403 19:39:13.354120  9494 net.cpp:386] inception_4b/relu_5x5 -> inception_4b/5x5 (in-place)
I0403 19:39:13.354392  9494 net.cpp:141] Setting up inception_4b/relu_5x5
I0403 19:39:13.354418  9494 net.cpp:148] Top shape: 24 64 14 14 (301056)
I0403 19:39:13.354431  9494 net.cpp:156] Memory required for data: 968181024
I0403 19:39:13.354446  9494 layer_factory.hpp:77] Creating layer inception_4b/pool
I0403 19:39:13.354467  9494 net.cpp:91] Creating Layer inception_4b/pool
I0403 19:39:13.354485  9494 net.cpp:425] inception_4b/pool <- inception_4a/output_inception_4a/output_0_split_4
I0403 19:39:13.354506  9494 net.cpp:399] inception_4b/pool -> inception_4b/pool
I0403 19:39:13.354568  9494 net.cpp:141] Setting up inception_4b/pool
I0403 19:39:13.354593  9494 net.cpp:148] Top shape: 24 512 14 14 (2408448)
I0403 19:39:13.354609  9494 net.cpp:156] Memory required for data: 977814816
I0403 19:39:13.354624  9494 layer_factory.hpp:77] Creating layer inception_4b/pool_proj
I0403 19:39:13.354645  9494 net.cpp:91] Creating Layer inception_4b/pool_proj
I0403 19:39:13.354665  9494 net.cpp:425] inception_4b/pool_proj <- inception_4b/pool
I0403 19:39:13.354684  9494 net.cpp:399] inception_4b/pool_proj -> inception_4b/pool_proj
I0403 19:39:13.355871  9494 net.cpp:141] Setting up inception_4b/pool_proj
I0403 19:39:13.355898  9494 net.cpp:148] Top shape: 24 64 14 14 (301056)
I0403 19:39:13.355914  9494 net.cpp:156] Memory required for data: 979019040
I0403 19:39:13.355932  9494 layer_factory.hpp:77] Creating layer inception_4b/relu_pool_proj
I0403 19:39:13.355953  9494 net.cpp:91] Creating Layer inception_4b/relu_pool_proj
I0403 19:39:13.355972  9494 net.cpp:425] inception_4b/relu_pool_proj <- inception_4b/pool_proj
I0403 19:39:13.355989  9494 net.cpp:386] inception_4b/relu_pool_proj -> inception_4b/pool_proj (in-place)
I0403 19:39:13.356163  9494 net.cpp:141] Setting up inception_4b/relu_pool_proj
I0403 19:39:13.356190  9494 net.cpp:148] Top shape: 24 64 14 14 (301056)
I0403 19:39:13.356204  9494 net.cpp:156] Memory required for data: 980223264
I0403 19:39:13.356220  9494 layer_factory.hpp:77] Creating layer inception_4b/output
I0403 19:39:13.356240  9494 net.cpp:91] Creating Layer inception_4b/output
I0403 19:39:13.356257  9494 net.cpp:425] inception_4b/output <- inception_4b/1x1
I0403 19:39:13.356273  9494 net.cpp:425] inception_4b/output <- inception_4b/3x3
I0403 19:39:13.356288  9494 net.cpp:425] inception_4b/output <- inception_4b/5x5
I0403 19:39:13.356305  9494 net.cpp:425] inception_4b/output <- inception_4b/pool_proj
I0403 19:39:13.356323  9494 net.cpp:399] inception_4b/output -> inception_4b/output
I0403 19:39:13.356369  9494 net.cpp:141] Setting up inception_4b/output
I0403 19:39:13.356391  9494 net.cpp:148] Top shape: 24 512 14 14 (2408448)
I0403 19:39:13.356406  9494 net.cpp:156] Memory required for data: 989857056
I0403 19:39:13.356436  9494 layer_factory.hpp:77] Creating layer inception_4b/output_inception_4b/output_0_split
I0403 19:39:13.356453  9494 net.cpp:91] Creating Layer inception_4b/output_inception_4b/output_0_split
I0403 19:39:13.356474  9494 net.cpp:425] inception_4b/output_inception_4b/output_0_split <- inception_4b/output
I0403 19:39:13.356495  9494 net.cpp:399] inception_4b/output_inception_4b/output_0_split -> inception_4b/output_inception_4b/output_0_split_0
I0403 19:39:13.356516  9494 net.cpp:399] inception_4b/output_inception_4b/output_0_split -> inception_4b/output_inception_4b/output_0_split_1
I0403 19:39:13.356536  9494 net.cpp:399] inception_4b/output_inception_4b/output_0_split -> inception_4b/output_inception_4b/output_0_split_2
I0403 19:39:13.356555  9494 net.cpp:399] inception_4b/output_inception_4b/output_0_split -> inception_4b/output_inception_4b/output_0_split_3
I0403 19:39:13.356638  9494 net.cpp:141] Setting up inception_4b/output_inception_4b/output_0_split
I0403 19:39:13.356663  9494 net.cpp:148] Top shape: 24 512 14 14 (2408448)
I0403 19:39:13.356681  9494 net.cpp:148] Top shape: 24 512 14 14 (2408448)
I0403 19:39:13.356698  9494 net.cpp:148] Top shape: 24 512 14 14 (2408448)
I0403 19:39:13.356712  9494 net.cpp:148] Top shape: 24 512 14 14 (2408448)
I0403 19:39:13.356726  9494 net.cpp:156] Memory required for data: 1028392224
I0403 19:39:13.356741  9494 layer_factory.hpp:77] Creating layer inception_4c/1x1
I0403 19:39:13.356762  9494 net.cpp:91] Creating Layer inception_4c/1x1
I0403 19:39:13.356781  9494 net.cpp:425] inception_4c/1x1 <- inception_4b/output_inception_4b/output_0_split_0
I0403 19:39:13.356801  9494 net.cpp:399] inception_4c/1x1 -> inception_4c/1x1
I0403 19:39:13.358217  9494 net.cpp:141] Setting up inception_4c/1x1
I0403 19:39:13.358258  9494 net.cpp:148] Top shape: 24 128 14 14 (602112)
I0403 19:39:13.358273  9494 net.cpp:156] Memory required for data: 1030800672
I0403 19:39:13.358291  9494 layer_factory.hpp:77] Creating layer inception_4c/relu_1x1
I0403 19:39:13.358314  9494 net.cpp:91] Creating Layer inception_4c/relu_1x1
I0403 19:39:13.358332  9494 net.cpp:425] inception_4c/relu_1x1 <- inception_4c/1x1
I0403 19:39:13.358350  9494 net.cpp:386] inception_4c/relu_1x1 -> inception_4c/1x1 (in-place)
I0403 19:39:13.358547  9494 net.cpp:141] Setting up inception_4c/relu_1x1
I0403 19:39:13.358572  9494 net.cpp:148] Top shape: 24 128 14 14 (602112)
I0403 19:39:13.358587  9494 net.cpp:156] Memory required for data: 1033209120
I0403 19:39:13.358603  9494 layer_factory.hpp:77] Creating layer inception_4c/3x3_reduce
I0403 19:39:13.358623  9494 net.cpp:91] Creating Layer inception_4c/3x3_reduce
I0403 19:39:13.358641  9494 net.cpp:425] inception_4c/3x3_reduce <- inception_4b/output_inception_4b/output_0_split_1
I0403 19:39:13.358662  9494 net.cpp:399] inception_4c/3x3_reduce -> inception_4c/3x3_reduce
I0403 19:39:13.360559  9494 net.cpp:141] Setting up inception_4c/3x3_reduce
I0403 19:39:13.360589  9494 net.cpp:148] Top shape: 24 128 14 14 (602112)
I0403 19:39:13.360604  9494 net.cpp:156] Memory required for data: 1035617568
I0403 19:39:13.360622  9494 layer_factory.hpp:77] Creating layer inception_4c/relu_3x3_reduce
I0403 19:39:13.360641  9494 net.cpp:91] Creating Layer inception_4c/relu_3x3_reduce
I0403 19:39:13.360656  9494 net.cpp:425] inception_4c/relu_3x3_reduce <- inception_4c/3x3_reduce
I0403 19:39:13.360677  9494 net.cpp:386] inception_4c/relu_3x3_reduce -> inception_4c/3x3_reduce (in-place)
I0403 19:39:13.360965  9494 net.cpp:141] Setting up inception_4c/relu_3x3_reduce
I0403 19:39:13.360991  9494 net.cpp:148] Top shape: 24 128 14 14 (602112)
I0403 19:39:13.361006  9494 net.cpp:156] Memory required for data: 1038026016
I0403 19:39:13.361021  9494 layer_factory.hpp:77] Creating layer inception_4c/3x3
I0403 19:39:13.361044  9494 net.cpp:91] Creating Layer inception_4c/3x3
I0403 19:39:13.361063  9494 net.cpp:425] inception_4c/3x3 <- inception_4c/3x3_reduce
I0403 19:39:13.361083  9494 net.cpp:399] inception_4c/3x3 -> inception_4c/3x3
I0403 19:39:13.364647  9494 net.cpp:141] Setting up inception_4c/3x3
I0403 19:39:13.364688  9494 net.cpp:148] Top shape: 24 256 14 14 (1204224)
I0403 19:39:13.364706  9494 net.cpp:156] Memory required for data: 1042842912
I0403 19:39:13.364737  9494 layer_factory.hpp:77] Creating layer inception_4c/relu_3x3
I0403 19:39:13.364759  9494 net.cpp:91] Creating Layer inception_4c/relu_3x3
I0403 19:39:13.364778  9494 net.cpp:425] inception_4c/relu_3x3 <- inception_4c/3x3
I0403 19:39:13.364795  9494 net.cpp:386] inception_4c/relu_3x3 -> inception_4c/3x3 (in-place)
I0403 19:39:13.364977  9494 net.cpp:141] Setting up inception_4c/relu_3x3
I0403 19:39:13.365002  9494 net.cpp:148] Top shape: 24 256 14 14 (1204224)
I0403 19:39:13.365017  9494 net.cpp:156] Memory required for data: 1047659808
I0403 19:39:13.365033  9494 layer_factory.hpp:77] Creating layer inception_4c/5x5_reduce
I0403 19:39:13.365056  9494 net.cpp:91] Creating Layer inception_4c/5x5_reduce
I0403 19:39:13.365073  9494 net.cpp:425] inception_4c/5x5_reduce <- inception_4b/output_inception_4b/output_0_split_2
I0403 19:39:13.365095  9494 net.cpp:399] inception_4c/5x5_reduce -> inception_4c/5x5_reduce
I0403 19:39:13.366184  9494 net.cpp:141] Setting up inception_4c/5x5_reduce
I0403 19:39:13.366212  9494 net.cpp:148] Top shape: 24 24 14 14 (112896)
I0403 19:39:13.366228  9494 net.cpp:156] Memory required for data: 1048111392
I0403 19:39:13.366247  9494 layer_factory.hpp:77] Creating layer inception_4c/relu_5x5_reduce
I0403 19:39:13.366267  9494 net.cpp:91] Creating Layer inception_4c/relu_5x5_reduce
I0403 19:39:13.366283  9494 net.cpp:425] inception_4c/relu_5x5_reduce <- inception_4c/5x5_reduce
I0403 19:39:13.366302  9494 net.cpp:386] inception_4c/relu_5x5_reduce -> inception_4c/5x5_reduce (in-place)
I0403 19:39:13.366485  9494 net.cpp:141] Setting up inception_4c/relu_5x5_reduce
I0403 19:39:13.366510  9494 net.cpp:148] Top shape: 24 24 14 14 (112896)
I0403 19:39:13.366526  9494 net.cpp:156] Memory required for data: 1048562976
I0403 19:39:13.366541  9494 layer_factory.hpp:77] Creating layer inception_4c/5x5
I0403 19:39:13.366564  9494 net.cpp:91] Creating Layer inception_4c/5x5
I0403 19:39:13.366580  9494 net.cpp:425] inception_4c/5x5 <- inception_4c/5x5_reduce
I0403 19:39:13.366601  9494 net.cpp:399] inception_4c/5x5 -> inception_4c/5x5
I0403 19:39:13.367808  9494 net.cpp:141] Setting up inception_4c/5x5
I0403 19:39:13.367836  9494 net.cpp:148] Top shape: 24 64 14 14 (301056)
I0403 19:39:13.367851  9494 net.cpp:156] Memory required for data: 1049767200
I0403 19:39:13.367871  9494 layer_factory.hpp:77] Creating layer inception_4c/relu_5x5
I0403 19:39:13.367889  9494 net.cpp:91] Creating Layer inception_4c/relu_5x5
I0403 19:39:13.367907  9494 net.cpp:425] inception_4c/relu_5x5 <- inception_4c/5x5
I0403 19:39:13.367924  9494 net.cpp:386] inception_4c/relu_5x5 -> inception_4c/5x5 (in-place)
I0403 19:39:13.368204  9494 net.cpp:141] Setting up inception_4c/relu_5x5
I0403 19:39:13.368230  9494 net.cpp:148] Top shape: 24 64 14 14 (301056)
I0403 19:39:13.368247  9494 net.cpp:156] Memory required for data: 1050971424
I0403 19:39:13.368262  9494 layer_factory.hpp:77] Creating layer inception_4c/pool
I0403 19:39:13.368281  9494 net.cpp:91] Creating Layer inception_4c/pool
I0403 19:39:13.368299  9494 net.cpp:425] inception_4c/pool <- inception_4b/output_inception_4b/output_0_split_3
I0403 19:39:13.368317  9494 net.cpp:399] inception_4c/pool -> inception_4c/pool
I0403 19:39:13.368384  9494 net.cpp:141] Setting up inception_4c/pool
I0403 19:39:13.368409  9494 net.cpp:148] Top shape: 24 512 14 14 (2408448)
I0403 19:39:13.368424  9494 net.cpp:156] Memory required for data: 1060605216
I0403 19:39:13.368440  9494 layer_factory.hpp:77] Creating layer inception_4c/pool_proj
I0403 19:39:13.368466  9494 net.cpp:91] Creating Layer inception_4c/pool_proj
I0403 19:39:13.368486  9494 net.cpp:425] inception_4c/pool_proj <- inception_4c/pool
I0403 19:39:13.368506  9494 net.cpp:399] inception_4c/pool_proj -> inception_4c/pool_proj
I0403 19:39:13.369719  9494 net.cpp:141] Setting up inception_4c/pool_proj
I0403 19:39:13.369747  9494 net.cpp:148] Top shape: 24 64 14 14 (301056)
I0403 19:39:13.369776  9494 net.cpp:156] Memory required for data: 1061809440
I0403 19:39:13.369796  9494 layer_factory.hpp:77] Creating layer inception_4c/relu_pool_proj
I0403 19:39:13.369817  9494 net.cpp:91] Creating Layer inception_4c/relu_pool_proj
I0403 19:39:13.369832  9494 net.cpp:425] inception_4c/relu_pool_proj <- inception_4c/pool_proj
I0403 19:39:13.369850  9494 net.cpp:386] inception_4c/relu_pool_proj -> inception_4c/pool_proj (in-place)
I0403 19:39:13.370026  9494 net.cpp:141] Setting up inception_4c/relu_pool_proj
I0403 19:39:13.370051  9494 net.cpp:148] Top shape: 24 64 14 14 (301056)
I0403 19:39:13.370067  9494 net.cpp:156] Memory required for data: 1063013664
I0403 19:39:13.370082  9494 layer_factory.hpp:77] Creating layer inception_4c/output
I0403 19:39:13.370102  9494 net.cpp:91] Creating Layer inception_4c/output
I0403 19:39:13.370118  9494 net.cpp:425] inception_4c/output <- inception_4c/1x1
I0403 19:39:13.370136  9494 net.cpp:425] inception_4c/output <- inception_4c/3x3
I0403 19:39:13.370151  9494 net.cpp:425] inception_4c/output <- inception_4c/5x5
I0403 19:39:13.370167  9494 net.cpp:425] inception_4c/output <- inception_4c/pool_proj
I0403 19:39:13.370185  9494 net.cpp:399] inception_4c/output -> inception_4c/output
I0403 19:39:13.370232  9494 net.cpp:141] Setting up inception_4c/output
I0403 19:39:13.370256  9494 net.cpp:148] Top shape: 24 512 14 14 (2408448)
I0403 19:39:13.370270  9494 net.cpp:156] Memory required for data: 1072647456
I0403 19:39:13.370285  9494 layer_factory.hpp:77] Creating layer inception_4c/output_inception_4c/output_0_split
I0403 19:39:13.370302  9494 net.cpp:91] Creating Layer inception_4c/output_inception_4c/output_0_split
I0403 19:39:13.370318  9494 net.cpp:425] inception_4c/output_inception_4c/output_0_split <- inception_4c/output
I0403 19:39:13.370338  9494 net.cpp:399] inception_4c/output_inception_4c/output_0_split -> inception_4c/output_inception_4c/output_0_split_0
I0403 19:39:13.370360  9494 net.cpp:399] inception_4c/output_inception_4c/output_0_split -> inception_4c/output_inception_4c/output_0_split_1
I0403 19:39:13.370380  9494 net.cpp:399] inception_4c/output_inception_4c/output_0_split -> inception_4c/output_inception_4c/output_0_split_2
I0403 19:39:13.370400  9494 net.cpp:399] inception_4c/output_inception_4c/output_0_split -> inception_4c/output_inception_4c/output_0_split_3
I0403 19:39:13.370489  9494 net.cpp:141] Setting up inception_4c/output_inception_4c/output_0_split
I0403 19:39:13.370517  9494 net.cpp:148] Top shape: 24 512 14 14 (2408448)
I0403 19:39:13.370534  9494 net.cpp:148] Top shape: 24 512 14 14 (2408448)
I0403 19:39:13.370550  9494 net.cpp:148] Top shape: 24 512 14 14 (2408448)
I0403 19:39:13.370566  9494 net.cpp:148] Top shape: 24 512 14 14 (2408448)
I0403 19:39:13.370579  9494 net.cpp:156] Memory required for data: 1111182624
I0403 19:39:13.370594  9494 layer_factory.hpp:77] Creating layer inception_4d/1x1
I0403 19:39:13.370616  9494 net.cpp:91] Creating Layer inception_4d/1x1
I0403 19:39:13.370633  9494 net.cpp:425] inception_4d/1x1 <- inception_4c/output_inception_4c/output_0_split_0
I0403 19:39:13.370652  9494 net.cpp:399] inception_4d/1x1 -> inception_4d/1x1
I0403 19:39:13.371999  9494 net.cpp:141] Setting up inception_4d/1x1
I0403 19:39:13.372030  9494 net.cpp:148] Top shape: 24 112 14 14 (526848)
I0403 19:39:13.372046  9494 net.cpp:156] Memory required for data: 1113290016
I0403 19:39:13.372066  9494 layer_factory.hpp:77] Creating layer inception_4d/relu_1x1
I0403 19:39:13.372083  9494 net.cpp:91] Creating Layer inception_4d/relu_1x1
I0403 19:39:13.372100  9494 net.cpp:425] inception_4d/relu_1x1 <- inception_4d/1x1
I0403 19:39:13.372122  9494 net.cpp:386] inception_4d/relu_1x1 -> inception_4d/1x1 (in-place)
I0403 19:39:13.372318  9494 net.cpp:141] Setting up inception_4d/relu_1x1
I0403 19:39:13.372342  9494 net.cpp:148] Top shape: 24 112 14 14 (526848)
I0403 19:39:13.372357  9494 net.cpp:156] Memory required for data: 1115397408
I0403 19:39:13.372372  9494 layer_factory.hpp:77] Creating layer inception_4d/3x3_reduce
I0403 19:39:13.372411  9494 net.cpp:91] Creating Layer inception_4d/3x3_reduce
I0403 19:39:13.372431  9494 net.cpp:425] inception_4d/3x3_reduce <- inception_4c/output_inception_4c/output_0_split_1
I0403 19:39:13.372452  9494 net.cpp:399] inception_4d/3x3_reduce -> inception_4d/3x3_reduce
I0403 19:39:13.373989  9494 net.cpp:141] Setting up inception_4d/3x3_reduce
I0403 19:39:13.374019  9494 net.cpp:148] Top shape: 24 144 14 14 (677376)
I0403 19:39:13.374037  9494 net.cpp:156] Memory required for data: 1118106912
I0403 19:39:13.374054  9494 layer_factory.hpp:77] Creating layer inception_4d/relu_3x3_reduce
I0403 19:39:13.374073  9494 net.cpp:91] Creating Layer inception_4d/relu_3x3_reduce
I0403 19:39:13.374089  9494 net.cpp:425] inception_4d/relu_3x3_reduce <- inception_4d/3x3_reduce
I0403 19:39:13.374106  9494 net.cpp:386] inception_4d/relu_3x3_reduce -> inception_4d/3x3_reduce (in-place)
I0403 19:39:13.374378  9494 net.cpp:141] Setting up inception_4d/relu_3x3_reduce
I0403 19:39:13.374407  9494 net.cpp:148] Top shape: 24 144 14 14 (677376)
I0403 19:39:13.374421  9494 net.cpp:156] Memory required for data: 1120816416
I0403 19:39:13.374438  9494 layer_factory.hpp:77] Creating layer inception_4d/3x3
I0403 19:39:13.374464  9494 net.cpp:91] Creating Layer inception_4d/3x3
I0403 19:39:13.374485  9494 net.cpp:425] inception_4d/3x3 <- inception_4d/3x3_reduce
I0403 19:39:13.374503  9494 net.cpp:399] inception_4d/3x3 -> inception_4d/3x3
I0403 19:39:13.378567  9494 net.cpp:141] Setting up inception_4d/3x3
I0403 19:39:13.378597  9494 net.cpp:148] Top shape: 24 288 14 14 (1354752)
I0403 19:39:13.378612  9494 net.cpp:156] Memory required for data: 1126235424
I0403 19:39:13.378629  9494 layer_factory.hpp:77] Creating layer inception_4d/relu_3x3
I0403 19:39:13.378646  9494 net.cpp:91] Creating Layer inception_4d/relu_3x3
I0403 19:39:13.378661  9494 net.cpp:425] inception_4d/relu_3x3 <- inception_4d/3x3
I0403 19:39:13.378681  9494 net.cpp:386] inception_4d/relu_3x3 -> inception_4d/3x3 (in-place)
I0403 19:39:13.378855  9494 net.cpp:141] Setting up inception_4d/relu_3x3
I0403 19:39:13.378880  9494 net.cpp:148] Top shape: 24 288 14 14 (1354752)
I0403 19:39:13.378895  9494 net.cpp:156] Memory required for data: 1131654432
I0403 19:39:13.378911  9494 layer_factory.hpp:77] Creating layer inception_4d/5x5_reduce
I0403 19:39:13.378932  9494 net.cpp:91] Creating Layer inception_4d/5x5_reduce
I0403 19:39:13.378949  9494 net.cpp:425] inception_4d/5x5_reduce <- inception_4c/output_inception_4c/output_0_split_2
I0403 19:39:13.378970  9494 net.cpp:399] inception_4d/5x5_reduce -> inception_4d/5x5_reduce
I0403 19:39:13.380054  9494 net.cpp:141] Setting up inception_4d/5x5_reduce
I0403 19:39:13.380084  9494 net.cpp:148] Top shape: 24 32 14 14 (150528)
I0403 19:39:13.380101  9494 net.cpp:156] Memory required for data: 1132256544
I0403 19:39:13.380120  9494 layer_factory.hpp:77] Creating layer inception_4d/relu_5x5_reduce
I0403 19:39:13.380136  9494 net.cpp:91] Creating Layer inception_4d/relu_5x5_reduce
I0403 19:39:13.380151  9494 net.cpp:425] inception_4d/relu_5x5_reduce <- inception_4d/5x5_reduce
I0403 19:39:13.380169  9494 net.cpp:386] inception_4d/relu_5x5_reduce -> inception_4d/5x5_reduce (in-place)
I0403 19:39:13.380353  9494 net.cpp:141] Setting up inception_4d/relu_5x5_reduce
I0403 19:39:13.380378  9494 net.cpp:148] Top shape: 24 32 14 14 (150528)
I0403 19:39:13.380393  9494 net.cpp:156] Memory required for data: 1132858656
I0403 19:39:13.380409  9494 layer_factory.hpp:77] Creating layer inception_4d/5x5
I0403 19:39:13.380429  9494 net.cpp:91] Creating Layer inception_4d/5x5
I0403 19:39:13.380447  9494 net.cpp:425] inception_4d/5x5 <- inception_4d/5x5_reduce
I0403 19:39:13.380472  9494 net.cpp:399] inception_4d/5x5 -> inception_4d/5x5
I0403 19:39:13.381886  9494 net.cpp:141] Setting up inception_4d/5x5
I0403 19:39:13.381913  9494 net.cpp:148] Top shape: 24 64 14 14 (301056)
I0403 19:39:13.381929  9494 net.cpp:156] Memory required for data: 1134062880
I0403 19:39:13.381948  9494 layer_factory.hpp:77] Creating layer inception_4d/relu_5x5
I0403 19:39:13.381980  9494 net.cpp:91] Creating Layer inception_4d/relu_5x5
I0403 19:39:13.381997  9494 net.cpp:425] inception_4d/relu_5x5 <- inception_4d/5x5
I0403 19:39:13.382015  9494 net.cpp:386] inception_4d/relu_5x5 -> inception_4d/5x5 (in-place)
I0403 19:39:13.382299  9494 net.cpp:141] Setting up inception_4d/relu_5x5
I0403 19:39:13.382325  9494 net.cpp:148] Top shape: 24 64 14 14 (301056)
I0403 19:39:13.382340  9494 net.cpp:156] Memory required for data: 1135267104
I0403 19:39:13.382355  9494 layer_factory.hpp:77] Creating layer inception_4d/pool
I0403 19:39:13.382375  9494 net.cpp:91] Creating Layer inception_4d/pool
I0403 19:39:13.382391  9494 net.cpp:425] inception_4d/pool <- inception_4c/output_inception_4c/output_0_split_3
I0403 19:39:13.382408  9494 net.cpp:399] inception_4d/pool -> inception_4d/pool
I0403 19:39:13.382484  9494 net.cpp:141] Setting up inception_4d/pool
I0403 19:39:13.382509  9494 net.cpp:148] Top shape: 24 512 14 14 (2408448)
I0403 19:39:13.382524  9494 net.cpp:156] Memory required for data: 1144900896
I0403 19:39:13.382539  9494 layer_factory.hpp:77] Creating layer inception_4d/pool_proj
I0403 19:39:13.382560  9494 net.cpp:91] Creating Layer inception_4d/pool_proj
I0403 19:39:13.382577  9494 net.cpp:425] inception_4d/pool_proj <- inception_4d/pool
I0403 19:39:13.382598  9494 net.cpp:399] inception_4d/pool_proj -> inception_4d/pool_proj
I0403 19:39:13.384285  9494 net.cpp:141] Setting up inception_4d/pool_proj
I0403 19:39:13.384313  9494 net.cpp:148] Top shape: 24 64 14 14 (301056)
I0403 19:39:13.384328  9494 net.cpp:156] Memory required for data: 1146105120
I0403 19:39:13.384347  9494 layer_factory.hpp:77] Creating layer inception_4d/relu_pool_proj
I0403 19:39:13.384364  9494 net.cpp:91] Creating Layer inception_4d/relu_pool_proj
I0403 19:39:13.384380  9494 net.cpp:425] inception_4d/relu_pool_proj <- inception_4d/pool_proj
I0403 19:39:13.384398  9494 net.cpp:386] inception_4d/relu_pool_proj -> inception_4d/pool_proj (in-place)
I0403 19:39:13.384578  9494 net.cpp:141] Setting up inception_4d/relu_pool_proj
I0403 19:39:13.384603  9494 net.cpp:148] Top shape: 24 64 14 14 (301056)
I0403 19:39:13.384618  9494 net.cpp:156] Memory required for data: 1147309344
I0403 19:39:13.384634  9494 layer_factory.hpp:77] Creating layer inception_4d/output
I0403 19:39:13.384652  9494 net.cpp:91] Creating Layer inception_4d/output
I0403 19:39:13.384667  9494 net.cpp:425] inception_4d/output <- inception_4d/1x1
I0403 19:39:13.384683  9494 net.cpp:425] inception_4d/output <- inception_4d/3x3
I0403 19:39:13.384699  9494 net.cpp:425] inception_4d/output <- inception_4d/5x5
I0403 19:39:13.384714  9494 net.cpp:425] inception_4d/output <- inception_4d/pool_proj
I0403 19:39:13.384732  9494 net.cpp:399] inception_4d/output -> inception_4d/output
I0403 19:39:13.384775  9494 net.cpp:141] Setting up inception_4d/output
I0403 19:39:13.384807  9494 net.cpp:148] Top shape: 24 528 14 14 (2483712)
I0403 19:39:13.384825  9494 net.cpp:156] Memory required for data: 1157244192
I0403 19:39:13.384840  9494 layer_factory.hpp:77] Creating layer inception_4d/output_inception_4d/output_0_split
I0403 19:39:13.384860  9494 net.cpp:91] Creating Layer inception_4d/output_inception_4d/output_0_split
I0403 19:39:13.384876  9494 net.cpp:425] inception_4d/output_inception_4d/output_0_split <- inception_4d/output
I0403 19:39:13.384896  9494 net.cpp:399] inception_4d/output_inception_4d/output_0_split -> inception_4d/output_inception_4d/output_0_split_0
I0403 19:39:13.384915  9494 net.cpp:399] inception_4d/output_inception_4d/output_0_split -> inception_4d/output_inception_4d/output_0_split_1
I0403 19:39:13.384937  9494 net.cpp:399] inception_4d/output_inception_4d/output_0_split -> inception_4d/output_inception_4d/output_0_split_2
I0403 19:39:13.384956  9494 net.cpp:399] inception_4d/output_inception_4d/output_0_split -> inception_4d/output_inception_4d/output_0_split_3
I0403 19:39:13.384974  9494 net.cpp:399] inception_4d/output_inception_4d/output_0_split -> inception_4d/output_inception_4d/output_0_split_4
I0403 19:39:13.385071  9494 net.cpp:141] Setting up inception_4d/output_inception_4d/output_0_split
I0403 19:39:13.385105  9494 net.cpp:148] Top shape: 24 528 14 14 (2483712)
I0403 19:39:13.385124  9494 net.cpp:148] Top shape: 24 528 14 14 (2483712)
I0403 19:39:13.385141  9494 net.cpp:148] Top shape: 24 528 14 14 (2483712)
I0403 19:39:13.385157  9494 net.cpp:148] Top shape: 24 528 14 14 (2483712)
I0403 19:39:13.385172  9494 net.cpp:148] Top shape: 24 528 14 14 (2483712)
I0403 19:39:13.385187  9494 net.cpp:156] Memory required for data: 1206918432
I0403 19:39:13.385201  9494 layer_factory.hpp:77] Creating layer loss2/ave_pool
I0403 19:39:13.385231  9494 net.cpp:91] Creating Layer loss2/ave_pool
I0403 19:39:13.385247  9494 net.cpp:425] loss2/ave_pool <- inception_4d/output_inception_4d/output_0_split_0
I0403 19:39:13.385268  9494 net.cpp:399] loss2/ave_pool -> loss2/ave_pool
I0403 19:39:13.385584  9494 net.cpp:141] Setting up loss2/ave_pool
I0403 19:39:13.385610  9494 net.cpp:148] Top shape: 24 528 4 4 (202752)
I0403 19:39:13.385624  9494 net.cpp:156] Memory required for data: 1207729440
I0403 19:39:13.385639  9494 layer_factory.hpp:77] Creating layer loss2/conv
I0403 19:39:13.385661  9494 net.cpp:91] Creating Layer loss2/conv
I0403 19:39:13.385679  9494 net.cpp:425] loss2/conv <- loss2/ave_pool
I0403 19:39:13.385700  9494 net.cpp:399] loss2/conv -> loss2/conv
I0403 19:39:13.387490  9494 net.cpp:141] Setting up loss2/conv
I0403 19:39:13.387516  9494 net.cpp:148] Top shape: 24 128 4 4 (49152)
I0403 19:39:13.387531  9494 net.cpp:156] Memory required for data: 1207926048
I0403 19:39:13.387549  9494 layer_factory.hpp:77] Creating layer loss2/relu_conv
I0403 19:39:13.387569  9494 net.cpp:91] Creating Layer loss2/relu_conv
I0403 19:39:13.387586  9494 net.cpp:425] loss2/relu_conv <- loss2/conv
I0403 19:39:13.387603  9494 net.cpp:386] loss2/relu_conv -> loss2/conv (in-place)
I0403 19:39:13.387872  9494 net.cpp:141] Setting up loss2/relu_conv
I0403 19:39:13.387899  9494 net.cpp:148] Top shape: 24 128 4 4 (49152)
I0403 19:39:13.387913  9494 net.cpp:156] Memory required for data: 1208122656
I0403 19:39:13.387928  9494 layer_factory.hpp:77] Creating layer loss2/fc
I0403 19:39:13.387950  9494 net.cpp:91] Creating Layer loss2/fc
I0403 19:39:13.387969  9494 net.cpp:425] loss2/fc <- loss2/conv
I0403 19:39:13.387986  9494 net.cpp:399] loss2/fc -> loss2/fc
I0403 19:39:13.405313  9494 net.cpp:141] Setting up loss2/fc
I0403 19:39:13.405349  9494 net.cpp:148] Top shape: 24 1024 (24576)
I0403 19:39:13.405365  9494 net.cpp:156] Memory required for data: 1208220960
I0403 19:39:13.405385  9494 layer_factory.hpp:77] Creating layer loss2/relu_fc
I0403 19:39:13.405405  9494 net.cpp:91] Creating Layer loss2/relu_fc
I0403 19:39:13.405421  9494 net.cpp:425] loss2/relu_fc <- loss2/fc
I0403 19:39:13.405442  9494 net.cpp:386] loss2/relu_fc -> loss2/fc (in-place)
I0403 19:39:13.405773  9494 net.cpp:141] Setting up loss2/relu_fc
I0403 19:39:13.405800  9494 net.cpp:148] Top shape: 24 1024 (24576)
I0403 19:39:13.405817  9494 net.cpp:156] Memory required for data: 1208319264
I0403 19:39:13.405833  9494 layer_factory.hpp:77] Creating layer loss2/drop_fc
I0403 19:39:13.405851  9494 net.cpp:91] Creating Layer loss2/drop_fc
I0403 19:39:13.405869  9494 net.cpp:425] loss2/drop_fc <- loss2/fc
I0403 19:39:13.405889  9494 net.cpp:386] loss2/drop_fc -> loss2/fc (in-place)
I0403 19:39:13.405951  9494 net.cpp:141] Setting up loss2/drop_fc
I0403 19:39:13.405978  9494 net.cpp:148] Top shape: 24 1024 (24576)
I0403 19:39:13.405994  9494 net.cpp:156] Memory required for data: 1208417568
I0403 19:39:13.406008  9494 layer_factory.hpp:77] Creating layer loss2/classifier_plantvillage
I0403 19:39:13.406026  9494 net.cpp:91] Creating Layer loss2/classifier_plantvillage
I0403 19:39:13.406052  9494 net.cpp:425] loss2/classifier_plantvillage <- loss2/fc
I0403 19:39:13.406074  9494 net.cpp:399] loss2/classifier_plantvillage -> loss2/classifier_plantvillage
I0403 19:39:13.406471  9494 net.cpp:141] Setting up loss2/classifier_plantvillage
I0403 19:39:13.406498  9494 net.cpp:148] Top shape: 24 38 (912)
I0403 19:39:13.406514  9494 net.cpp:156] Memory required for data: 1208421216
I0403 19:39:13.406548  9494 layer_factory.hpp:77] Creating layer loss2/classifier_plantvillage_loss2/classifier_plantvillage_0_split
I0403 19:39:13.406565  9494 net.cpp:91] Creating Layer loss2/classifier_plantvillage_loss2/classifier_plantvillage_0_split
I0403 19:39:13.406581  9494 net.cpp:425] loss2/classifier_plantvillage_loss2/classifier_plantvillage_0_split <- loss2/classifier_plantvillage
I0403 19:39:13.406599  9494 net.cpp:399] loss2/classifier_plantvillage_loss2/classifier_plantvillage_0_split -> loss2/classifier_plantvillage_loss2/classifier_plantvillage_0_split_0
I0403 19:39:13.406620  9494 net.cpp:399] loss2/classifier_plantvillage_loss2/classifier_plantvillage_0_split -> loss2/classifier_plantvillage_loss2/classifier_plantvillage_0_split_1
I0403 19:39:13.406640  9494 net.cpp:399] loss2/classifier_plantvillage_loss2/classifier_plantvillage_0_split -> loss2/classifier_plantvillage_loss2/classifier_plantvillage_0_split_2
I0403 19:39:13.406711  9494 net.cpp:141] Setting up loss2/classifier_plantvillage_loss2/classifier_plantvillage_0_split
I0403 19:39:13.406734  9494 net.cpp:148] Top shape: 24 38 (912)
I0403 19:39:13.406750  9494 net.cpp:148] Top shape: 24 38 (912)
I0403 19:39:13.406765  9494 net.cpp:148] Top shape: 24 38 (912)
I0403 19:39:13.406780  9494 net.cpp:156] Memory required for data: 1208432160
I0403 19:39:13.406795  9494 layer_factory.hpp:77] Creating layer inception_4e/1x1
I0403 19:39:13.406815  9494 net.cpp:91] Creating Layer inception_4e/1x1
I0403 19:39:13.406831  9494 net.cpp:425] inception_4e/1x1 <- inception_4d/output_inception_4d/output_0_split_1
I0403 19:39:13.406850  9494 net.cpp:399] inception_4e/1x1 -> inception_4e/1x1
I0403 19:39:13.408565  9494 net.cpp:141] Setting up inception_4e/1x1
I0403 19:39:13.408593  9494 net.cpp:148] Top shape: 24 256 14 14 (1204224)
I0403 19:39:13.408609  9494 net.cpp:156] Memory required for data: 1213249056
I0403 19:39:13.408627  9494 layer_factory.hpp:77] Creating layer inception_4e/relu_1x1
I0403 19:39:13.408646  9494 net.cpp:91] Creating Layer inception_4e/relu_1x1
I0403 19:39:13.408663  9494 net.cpp:425] inception_4e/relu_1x1 <- inception_4e/1x1
I0403 19:39:13.408680  9494 net.cpp:386] inception_4e/relu_1x1 -> inception_4e/1x1 (in-place)
I0403 19:39:13.408962  9494 net.cpp:141] Setting up inception_4e/relu_1x1
I0403 19:39:13.408987  9494 net.cpp:148] Top shape: 24 256 14 14 (1204224)
I0403 19:39:13.409001  9494 net.cpp:156] Memory required for data: 1218065952
I0403 19:39:13.409016  9494 layer_factory.hpp:77] Creating layer inception_4e/3x3_reduce
I0403 19:39:13.409039  9494 net.cpp:91] Creating Layer inception_4e/3x3_reduce
I0403 19:39:13.409056  9494 net.cpp:425] inception_4e/3x3_reduce <- inception_4d/output_inception_4d/output_0_split_2
I0403 19:39:13.409075  9494 net.cpp:399] inception_4e/3x3_reduce -> inception_4e/3x3_reduce
I0403 19:39:13.411134  9494 net.cpp:141] Setting up inception_4e/3x3_reduce
I0403 19:39:13.411161  9494 net.cpp:148] Top shape: 24 160 14 14 (752640)
I0403 19:39:13.411177  9494 net.cpp:156] Memory required for data: 1221076512
I0403 19:39:13.411196  9494 layer_factory.hpp:77] Creating layer inception_4e/relu_3x3_reduce
I0403 19:39:13.411216  9494 net.cpp:91] Creating Layer inception_4e/relu_3x3_reduce
I0403 19:39:13.411232  9494 net.cpp:425] inception_4e/relu_3x3_reduce <- inception_4e/3x3_reduce
I0403 19:39:13.411249  9494 net.cpp:386] inception_4e/relu_3x3_reduce -> inception_4e/3x3_reduce (in-place)
I0403 19:39:13.411424  9494 net.cpp:141] Setting up inception_4e/relu_3x3_reduce
I0403 19:39:13.411449  9494 net.cpp:148] Top shape: 24 160 14 14 (752640)
I0403 19:39:13.411469  9494 net.cpp:156] Memory required for data: 1224087072
I0403 19:39:13.411485  9494 layer_factory.hpp:77] Creating layer inception_4e/3x3
I0403 19:39:13.411509  9494 net.cpp:91] Creating Layer inception_4e/3x3
I0403 19:39:13.411527  9494 net.cpp:425] inception_4e/3x3 <- inception_4e/3x3_reduce
I0403 19:39:13.411546  9494 net.cpp:399] inception_4e/3x3 -> inception_4e/3x3
I0403 19:39:13.416288  9494 net.cpp:141] Setting up inception_4e/3x3
I0403 19:39:13.416328  9494 net.cpp:148] Top shape: 24 320 14 14 (1505280)
I0403 19:39:13.416344  9494 net.cpp:156] Memory required for data: 1230108192
I0403 19:39:13.416363  9494 layer_factory.hpp:77] Creating layer inception_4e/relu_3x3
I0403 19:39:13.416381  9494 net.cpp:91] Creating Layer inception_4e/relu_3x3
I0403 19:39:13.416399  9494 net.cpp:425] inception_4e/relu_3x3 <- inception_4e/3x3
I0403 19:39:13.416417  9494 net.cpp:386] inception_4e/relu_3x3 -> inception_4e/3x3 (in-place)
I0403 19:39:13.416704  9494 net.cpp:141] Setting up inception_4e/relu_3x3
I0403 19:39:13.416733  9494 net.cpp:148] Top shape: 24 320 14 14 (1505280)
I0403 19:39:13.416749  9494 net.cpp:156] Memory required for data: 1236129312
I0403 19:39:13.416764  9494 layer_factory.hpp:77] Creating layer inception_4e/5x5_reduce
I0403 19:39:13.416785  9494 net.cpp:91] Creating Layer inception_4e/5x5_reduce
I0403 19:39:13.416805  9494 net.cpp:425] inception_4e/5x5_reduce <- inception_4d/output_inception_4d/output_0_split_3
I0403 19:39:13.416823  9494 net.cpp:399] inception_4e/5x5_reduce -> inception_4e/5x5_reduce
I0403 19:39:13.417861  9494 net.cpp:141] Setting up inception_4e/5x5_reduce
I0403 19:39:13.417888  9494 net.cpp:148] Top shape: 24 32 14 14 (150528)
I0403 19:39:13.417903  9494 net.cpp:156] Memory required for data: 1236731424
I0403 19:39:13.417920  9494 layer_factory.hpp:77] Creating layer inception_4e/relu_5x5_reduce
I0403 19:39:13.417940  9494 net.cpp:91] Creating Layer inception_4e/relu_5x5_reduce
I0403 19:39:13.417958  9494 net.cpp:425] inception_4e/relu_5x5_reduce <- inception_4e/5x5_reduce
I0403 19:39:13.417975  9494 net.cpp:386] inception_4e/relu_5x5_reduce -> inception_4e/5x5_reduce (in-place)
I0403 19:39:13.418254  9494 net.cpp:141] Setting up inception_4e/relu_5x5_reduce
I0403 19:39:13.418280  9494 net.cpp:148] Top shape: 24 32 14 14 (150528)
I0403 19:39:13.418295  9494 net.cpp:156] Memory required for data: 1237333536
I0403 19:39:13.418309  9494 layer_factory.hpp:77] Creating layer inception_4e/5x5
I0403 19:39:13.418349  9494 net.cpp:91] Creating Layer inception_4e/5x5
I0403 19:39:13.418371  9494 net.cpp:425] inception_4e/5x5 <- inception_4e/5x5_reduce
I0403 19:39:13.418392  9494 net.cpp:399] inception_4e/5x5 -> inception_4e/5x5
I0403 19:39:13.420130  9494 net.cpp:141] Setting up inception_4e/5x5
I0403 19:39:13.420156  9494 net.cpp:148] Top shape: 24 128 14 14 (602112)
I0403 19:39:13.420171  9494 net.cpp:156] Memory required for data: 1239741984
I0403 19:39:13.420191  9494 layer_factory.hpp:77] Creating layer inception_4e/relu_5x5
I0403 19:39:13.420208  9494 net.cpp:91] Creating Layer inception_4e/relu_5x5
I0403 19:39:13.420224  9494 net.cpp:425] inception_4e/relu_5x5 <- inception_4e/5x5
I0403 19:39:13.420244  9494 net.cpp:386] inception_4e/relu_5x5 -> inception_4e/5x5 (in-place)
I0403 19:39:13.420433  9494 net.cpp:141] Setting up inception_4e/relu_5x5
I0403 19:39:13.420456  9494 net.cpp:148] Top shape: 24 128 14 14 (602112)
I0403 19:39:13.420475  9494 net.cpp:156] Memory required for data: 1242150432
I0403 19:39:13.420491  9494 layer_factory.hpp:77] Creating layer inception_4e/pool
I0403 19:39:13.420511  9494 net.cpp:91] Creating Layer inception_4e/pool
I0403 19:39:13.420527  9494 net.cpp:425] inception_4e/pool <- inception_4d/output_inception_4d/output_0_split_4
I0403 19:39:13.420545  9494 net.cpp:399] inception_4e/pool -> inception_4e/pool
I0403 19:39:13.420613  9494 net.cpp:141] Setting up inception_4e/pool
I0403 19:39:13.420636  9494 net.cpp:148] Top shape: 24 528 14 14 (2483712)
I0403 19:39:13.420651  9494 net.cpp:156] Memory required for data: 1252085280
I0403 19:39:13.420665  9494 layer_factory.hpp:77] Creating layer inception_4e/pool_proj
I0403 19:39:13.420687  9494 net.cpp:91] Creating Layer inception_4e/pool_proj
I0403 19:39:13.420704  9494 net.cpp:425] inception_4e/pool_proj <- inception_4e/pool
I0403 19:39:13.420724  9494 net.cpp:399] inception_4e/pool_proj -> inception_4e/pool_proj
I0403 19:39:13.422180  9494 net.cpp:141] Setting up inception_4e/pool_proj
I0403 19:39:13.422209  9494 net.cpp:148] Top shape: 24 128 14 14 (602112)
I0403 19:39:13.422237  9494 net.cpp:156] Memory required for data: 1254493728
I0403 19:39:13.422256  9494 layer_factory.hpp:77] Creating layer inception_4e/relu_pool_proj
I0403 19:39:13.422274  9494 net.cpp:91] Creating Layer inception_4e/relu_pool_proj
I0403 19:39:13.422291  9494 net.cpp:425] inception_4e/relu_pool_proj <- inception_4e/pool_proj
I0403 19:39:13.422312  9494 net.cpp:386] inception_4e/relu_pool_proj -> inception_4e/pool_proj (in-place)
I0403 19:39:13.422600  9494 net.cpp:141] Setting up inception_4e/relu_pool_proj
I0403 19:39:13.422627  9494 net.cpp:148] Top shape: 24 128 14 14 (602112)
I0403 19:39:13.422642  9494 net.cpp:156] Memory required for data: 1256902176
I0403 19:39:13.422657  9494 layer_factory.hpp:77] Creating layer inception_4e/output
I0403 19:39:13.422674  9494 net.cpp:91] Creating Layer inception_4e/output
I0403 19:39:13.422689  9494 net.cpp:425] inception_4e/output <- inception_4e/1x1
I0403 19:39:13.422705  9494 net.cpp:425] inception_4e/output <- inception_4e/3x3
I0403 19:39:13.422721  9494 net.cpp:425] inception_4e/output <- inception_4e/5x5
I0403 19:39:13.422736  9494 net.cpp:425] inception_4e/output <- inception_4e/pool_proj
I0403 19:39:13.422757  9494 net.cpp:399] inception_4e/output -> inception_4e/output
I0403 19:39:13.422806  9494 net.cpp:141] Setting up inception_4e/output
I0403 19:39:13.422832  9494 net.cpp:148] Top shape: 24 832 14 14 (3913728)
I0403 19:39:13.422847  9494 net.cpp:156] Memory required for data: 1272557088
I0403 19:39:13.422862  9494 layer_factory.hpp:77] Creating layer pool4/3x3_s2
I0403 19:39:13.422878  9494 net.cpp:91] Creating Layer pool4/3x3_s2
I0403 19:39:13.422894  9494 net.cpp:425] pool4/3x3_s2 <- inception_4e/output
I0403 19:39:13.422911  9494 net.cpp:399] pool4/3x3_s2 -> pool4/3x3_s2
I0403 19:39:13.422976  9494 net.cpp:141] Setting up pool4/3x3_s2
I0403 19:39:13.423001  9494 net.cpp:148] Top shape: 24 832 7 7 (978432)
I0403 19:39:13.423013  9494 net.cpp:156] Memory required for data: 1276470816
I0403 19:39:13.423027  9494 layer_factory.hpp:77] Creating layer pool4/3x3_s2_pool4/3x3_s2_0_split
I0403 19:39:13.423043  9494 net.cpp:91] Creating Layer pool4/3x3_s2_pool4/3x3_s2_0_split
I0403 19:39:13.423058  9494 net.cpp:425] pool4/3x3_s2_pool4/3x3_s2_0_split <- pool4/3x3_s2
I0403 19:39:13.423079  9494 net.cpp:399] pool4/3x3_s2_pool4/3x3_s2_0_split -> pool4/3x3_s2_pool4/3x3_s2_0_split_0
I0403 19:39:13.423099  9494 net.cpp:399] pool4/3x3_s2_pool4/3x3_s2_0_split -> pool4/3x3_s2_pool4/3x3_s2_0_split_1
I0403 19:39:13.423118  9494 net.cpp:399] pool4/3x3_s2_pool4/3x3_s2_0_split -> pool4/3x3_s2_pool4/3x3_s2_0_split_2
I0403 19:39:13.423140  9494 net.cpp:399] pool4/3x3_s2_pool4/3x3_s2_0_split -> pool4/3x3_s2_pool4/3x3_s2_0_split_3
I0403 19:39:13.423224  9494 net.cpp:141] Setting up pool4/3x3_s2_pool4/3x3_s2_0_split
I0403 19:39:13.423248  9494 net.cpp:148] Top shape: 24 832 7 7 (978432)
I0403 19:39:13.423264  9494 net.cpp:148] Top shape: 24 832 7 7 (978432)
I0403 19:39:13.423280  9494 net.cpp:148] Top shape: 24 832 7 7 (978432)
I0403 19:39:13.423295  9494 net.cpp:148] Top shape: 24 832 7 7 (978432)
I0403 19:39:13.423308  9494 net.cpp:156] Memory required for data: 1292125728
I0403 19:39:13.423322  9494 layer_factory.hpp:77] Creating layer inception_5a/1x1
I0403 19:39:13.423343  9494 net.cpp:91] Creating Layer inception_5a/1x1
I0403 19:39:13.423362  9494 net.cpp:425] inception_5a/1x1 <- pool4/3x3_s2_pool4/3x3_s2_0_split_0
I0403 19:39:13.423383  9494 net.cpp:399] inception_5a/1x1 -> inception_5a/1x1
I0403 19:39:13.426121  9494 net.cpp:141] Setting up inception_5a/1x1
I0403 19:39:13.426149  9494 net.cpp:148] Top shape: 24 256 7 7 (301056)
I0403 19:39:13.426165  9494 net.cpp:156] Memory required for data: 1293329952
I0403 19:39:13.426185  9494 layer_factory.hpp:77] Creating layer inception_5a/relu_1x1
I0403 19:39:13.426205  9494 net.cpp:91] Creating Layer inception_5a/relu_1x1
I0403 19:39:13.426221  9494 net.cpp:425] inception_5a/relu_1x1 <- inception_5a/1x1
I0403 19:39:13.426239  9494 net.cpp:386] inception_5a/relu_1x1 -> inception_5a/1x1 (in-place)
I0403 19:39:13.426538  9494 net.cpp:141] Setting up inception_5a/relu_1x1
I0403 19:39:13.426564  9494 net.cpp:148] Top shape: 24 256 7 7 (301056)
I0403 19:39:13.426578  9494 net.cpp:156] Memory required for data: 1294534176
I0403 19:39:13.426594  9494 layer_factory.hpp:77] Creating layer inception_5a/3x3_reduce
I0403 19:39:13.426615  9494 net.cpp:91] Creating Layer inception_5a/3x3_reduce
I0403 19:39:13.426633  9494 net.cpp:425] inception_5a/3x3_reduce <- pool4/3x3_s2_pool4/3x3_s2_0_split_1
I0403 19:39:13.426654  9494 net.cpp:399] inception_5a/3x3_reduce -> inception_5a/3x3_reduce
I0403 19:39:13.428975  9494 net.cpp:141] Setting up inception_5a/3x3_reduce
I0403 19:39:13.429006  9494 net.cpp:148] Top shape: 24 160 7 7 (188160)
I0403 19:39:13.429023  9494 net.cpp:156] Memory required for data: 1295286816
I0403 19:39:13.429041  9494 layer_factory.hpp:77] Creating layer inception_5a/relu_3x3_reduce
I0403 19:39:13.429059  9494 net.cpp:91] Creating Layer inception_5a/relu_3x3_reduce
I0403 19:39:13.429074  9494 net.cpp:425] inception_5a/relu_3x3_reduce <- inception_5a/3x3_reduce
I0403 19:39:13.429092  9494 net.cpp:386] inception_5a/relu_3x3_reduce -> inception_5a/3x3_reduce (in-place)
I0403 19:39:13.429283  9494 net.cpp:141] Setting up inception_5a/relu_3x3_reduce
I0403 19:39:13.429309  9494 net.cpp:148] Top shape: 24 160 7 7 (188160)
I0403 19:39:13.429324  9494 net.cpp:156] Memory required for data: 1296039456
I0403 19:39:13.429338  9494 layer_factory.hpp:77] Creating layer inception_5a/3x3
I0403 19:39:13.429361  9494 net.cpp:91] Creating Layer inception_5a/3x3
I0403 19:39:13.429379  9494 net.cpp:425] inception_5a/3x3 <- inception_5a/3x3_reduce
I0403 19:39:13.429402  9494 net.cpp:399] inception_5a/3x3 -> inception_5a/3x3
I0403 19:39:13.434201  9494 net.cpp:141] Setting up inception_5a/3x3
I0403 19:39:13.434231  9494 net.cpp:148] Top shape: 24 320 7 7 (376320)
I0403 19:39:13.434247  9494 net.cpp:156] Memory required for data: 1297544736
I0403 19:39:13.434264  9494 layer_factory.hpp:77] Creating layer inception_5a/relu_3x3
I0403 19:39:13.434283  9494 net.cpp:91] Creating Layer inception_5a/relu_3x3
I0403 19:39:13.434298  9494 net.cpp:425] inception_5a/relu_3x3 <- inception_5a/3x3
I0403 19:39:13.434319  9494 net.cpp:386] inception_5a/relu_3x3 -> inception_5a/3x3 (in-place)
I0403 19:39:13.434607  9494 net.cpp:141] Setting up inception_5a/relu_3x3
I0403 19:39:13.434633  9494 net.cpp:148] Top shape: 24 320 7 7 (376320)
I0403 19:39:13.434646  9494 net.cpp:156] Memory required for data: 1299050016
I0403 19:39:13.434661  9494 layer_factory.hpp:77] Creating layer inception_5a/5x5_reduce
I0403 19:39:13.434684  9494 net.cpp:91] Creating Layer inception_5a/5x5_reduce
I0403 19:39:13.434700  9494 net.cpp:425] inception_5a/5x5_reduce <- pool4/3x3_s2_pool4/3x3_s2_0_split_2
I0403 19:39:13.434721  9494 net.cpp:399] inception_5a/5x5_reduce -> inception_5a/5x5_reduce
I0403 19:39:13.435830  9494 net.cpp:141] Setting up inception_5a/5x5_reduce
I0403 19:39:13.435860  9494 net.cpp:148] Top shape: 24 32 7 7 (37632)
I0403 19:39:13.435875  9494 net.cpp:156] Memory required for data: 1299200544
I0403 19:39:13.435894  9494 layer_factory.hpp:77] Creating layer inception_5a/relu_5x5_reduce
I0403 19:39:13.435911  9494 net.cpp:91] Creating Layer inception_5a/relu_5x5_reduce
I0403 19:39:13.435927  9494 net.cpp:425] inception_5a/relu_5x5_reduce <- inception_5a/5x5_reduce
I0403 19:39:13.435943  9494 net.cpp:386] inception_5a/relu_5x5_reduce -> inception_5a/5x5_reduce (in-place)
I0403 19:39:13.436233  9494 net.cpp:141] Setting up inception_5a/relu_5x5_reduce
I0403 19:39:13.436259  9494 net.cpp:148] Top shape: 24 32 7 7 (37632)
I0403 19:39:13.436275  9494 net.cpp:156] Memory required for data: 1299351072
I0403 19:39:13.436290  9494 layer_factory.hpp:77] Creating layer inception_5a/5x5
I0403 19:39:13.436312  9494 net.cpp:91] Creating Layer inception_5a/5x5
I0403 19:39:13.436329  9494 net.cpp:425] inception_5a/5x5 <- inception_5a/5x5_reduce
I0403 19:39:13.436350  9494 net.cpp:399] inception_5a/5x5 -> inception_5a/5x5
I0403 19:39:13.438011  9494 net.cpp:141] Setting up inception_5a/5x5
I0403 19:39:13.438050  9494 net.cpp:148] Top shape: 24 128 7 7 (150528)
I0403 19:39:13.438066  9494 net.cpp:156] Memory required for data: 1299953184
I0403 19:39:13.438084  9494 layer_factory.hpp:77] Creating layer inception_5a/relu_5x5
I0403 19:39:13.438102  9494 net.cpp:91] Creating Layer inception_5a/relu_5x5
I0403 19:39:13.438118  9494 net.cpp:425] inception_5a/relu_5x5 <- inception_5a/5x5
I0403 19:39:13.438138  9494 net.cpp:386] inception_5a/relu_5x5 -> inception_5a/5x5 (in-place)
I0403 19:39:13.438318  9494 net.cpp:141] Setting up inception_5a/relu_5x5
I0403 19:39:13.438343  9494 net.cpp:148] Top shape: 24 128 7 7 (150528)
I0403 19:39:13.438357  9494 net.cpp:156] Memory required for data: 1300555296
I0403 19:39:13.438371  9494 layer_factory.hpp:77] Creating layer inception_5a/pool
I0403 19:39:13.438390  9494 net.cpp:91] Creating Layer inception_5a/pool
I0403 19:39:13.438407  9494 net.cpp:425] inception_5a/pool <- pool4/3x3_s2_pool4/3x3_s2_0_split_3
I0403 19:39:13.438426  9494 net.cpp:399] inception_5a/pool -> inception_5a/pool
I0403 19:39:13.438498  9494 net.cpp:141] Setting up inception_5a/pool
I0403 19:39:13.438522  9494 net.cpp:148] Top shape: 24 832 7 7 (978432)
I0403 19:39:13.438536  9494 net.cpp:156] Memory required for data: 1304469024
I0403 19:39:13.438550  9494 layer_factory.hpp:77] Creating layer inception_5a/pool_proj
I0403 19:39:13.438572  9494 net.cpp:91] Creating Layer inception_5a/pool_proj
I0403 19:39:13.438590  9494 net.cpp:425] inception_5a/pool_proj <- inception_5a/pool
I0403 19:39:13.438611  9494 net.cpp:399] inception_5a/pool_proj -> inception_5a/pool_proj
I0403 19:39:13.440790  9494 net.cpp:141] Setting up inception_5a/pool_proj
I0403 19:39:13.440822  9494 net.cpp:148] Top shape: 24 128 7 7 (150528)
I0403 19:39:13.440839  9494 net.cpp:156] Memory required for data: 1305071136
I0403 19:39:13.440855  9494 layer_factory.hpp:77] Creating layer inception_5a/relu_pool_proj
I0403 19:39:13.440873  9494 net.cpp:91] Creating Layer inception_5a/relu_pool_proj
I0403 19:39:13.440889  9494 net.cpp:425] inception_5a/relu_pool_proj <- inception_5a/pool_proj
I0403 19:39:13.440908  9494 net.cpp:386] inception_5a/relu_pool_proj -> inception_5a/pool_proj (in-place)
I0403 19:39:13.441190  9494 net.cpp:141] Setting up inception_5a/relu_pool_proj
I0403 19:39:13.441215  9494 net.cpp:148] Top shape: 24 128 7 7 (150528)
I0403 19:39:13.441228  9494 net.cpp:156] Memory required for data: 1305673248
I0403 19:39:13.441243  9494 layer_factory.hpp:77] Creating layer inception_5a/output
I0403 19:39:13.441272  9494 net.cpp:91] Creating Layer inception_5a/output
I0403 19:39:13.441289  9494 net.cpp:425] inception_5a/output <- inception_5a/1x1
I0403 19:39:13.441306  9494 net.cpp:425] inception_5a/output <- inception_5a/3x3
I0403 19:39:13.441323  9494 net.cpp:425] inception_5a/output <- inception_5a/5x5
I0403 19:39:13.441339  9494 net.cpp:425] inception_5a/output <- inception_5a/pool_proj
I0403 19:39:13.441357  9494 net.cpp:399] inception_5a/output -> inception_5a/output
I0403 19:39:13.441406  9494 net.cpp:141] Setting up inception_5a/output
I0403 19:39:13.441431  9494 net.cpp:148] Top shape: 24 832 7 7 (978432)
I0403 19:39:13.441445  9494 net.cpp:156] Memory required for data: 1309586976
I0403 19:39:13.441464  9494 layer_factory.hpp:77] Creating layer inception_5a/output_inception_5a/output_0_split
I0403 19:39:13.441485  9494 net.cpp:91] Creating Layer inception_5a/output_inception_5a/output_0_split
I0403 19:39:13.441504  9494 net.cpp:425] inception_5a/output_inception_5a/output_0_split <- inception_5a/output
I0403 19:39:13.441522  9494 net.cpp:399] inception_5a/output_inception_5a/output_0_split -> inception_5a/output_inception_5a/output_0_split_0
I0403 19:39:13.441557  9494 net.cpp:399] inception_5a/output_inception_5a/output_0_split -> inception_5a/output_inception_5a/output_0_split_1
I0403 19:39:13.441579  9494 net.cpp:399] inception_5a/output_inception_5a/output_0_split -> inception_5a/output_inception_5a/output_0_split_2
I0403 19:39:13.441599  9494 net.cpp:399] inception_5a/output_inception_5a/output_0_split -> inception_5a/output_inception_5a/output_0_split_3
I0403 19:39:13.441702  9494 net.cpp:141] Setting up inception_5a/output_inception_5a/output_0_split
I0403 19:39:13.441726  9494 net.cpp:148] Top shape: 24 832 7 7 (978432)
I0403 19:39:13.441741  9494 net.cpp:148] Top shape: 24 832 7 7 (978432)
I0403 19:39:13.441757  9494 net.cpp:148] Top shape: 24 832 7 7 (978432)
I0403 19:39:13.441773  9494 net.cpp:148] Top shape: 24 832 7 7 (978432)
I0403 19:39:13.441787  9494 net.cpp:156] Memory required for data: 1325241888
I0403 19:39:13.441802  9494 layer_factory.hpp:77] Creating layer inception_5b/1x1
I0403 19:39:13.441823  9494 net.cpp:91] Creating Layer inception_5b/1x1
I0403 19:39:13.441841  9494 net.cpp:425] inception_5b/1x1 <- inception_5a/output_inception_5a/output_0_split_0
I0403 19:39:13.441861  9494 net.cpp:399] inception_5b/1x1 -> inception_5b/1x1
I0403 19:39:13.445439  9494 net.cpp:141] Setting up inception_5b/1x1
I0403 19:39:13.445475  9494 net.cpp:148] Top shape: 24 384 7 7 (451584)
I0403 19:39:13.445493  9494 net.cpp:156] Memory required for data: 1327048224
I0403 19:39:13.445513  9494 layer_factory.hpp:77] Creating layer inception_5b/relu_1x1
I0403 19:39:13.445530  9494 net.cpp:91] Creating Layer inception_5b/relu_1x1
I0403 19:39:13.445560  9494 net.cpp:425] inception_5b/relu_1x1 <- inception_5b/1x1
I0403 19:39:13.445580  9494 net.cpp:386] inception_5b/relu_1x1 -> inception_5b/1x1 (in-place)
I0403 19:39:13.445868  9494 net.cpp:141] Setting up inception_5b/relu_1x1
I0403 19:39:13.445897  9494 net.cpp:148] Top shape: 24 384 7 7 (451584)
I0403 19:39:13.445914  9494 net.cpp:156] Memory required for data: 1328854560
I0403 19:39:13.445929  9494 layer_factory.hpp:77] Creating layer inception_5b/3x3_reduce
I0403 19:39:13.445950  9494 net.cpp:91] Creating Layer inception_5b/3x3_reduce
I0403 19:39:13.445969  9494 net.cpp:425] inception_5b/3x3_reduce <- inception_5a/output_inception_5a/output_0_split_1
I0403 19:39:13.445992  9494 net.cpp:399] inception_5b/3x3_reduce -> inception_5b/3x3_reduce
I0403 19:39:13.448709  9494 net.cpp:141] Setting up inception_5b/3x3_reduce
I0403 19:39:13.448740  9494 net.cpp:148] Top shape: 24 192 7 7 (225792)
I0403 19:39:13.448756  9494 net.cpp:156] Memory required for data: 1329757728
I0403 19:39:13.448776  9494 layer_factory.hpp:77] Creating layer inception_5b/relu_3x3_reduce
I0403 19:39:13.448794  9494 net.cpp:91] Creating Layer inception_5b/relu_3x3_reduce
I0403 19:39:13.448812  9494 net.cpp:425] inception_5b/relu_3x3_reduce <- inception_5b/3x3_reduce
I0403 19:39:13.448832  9494 net.cpp:386] inception_5b/relu_3x3_reduce -> inception_5b/3x3_reduce (in-place)
I0403 19:39:13.449020  9494 net.cpp:141] Setting up inception_5b/relu_3x3_reduce
I0403 19:39:13.449046  9494 net.cpp:148] Top shape: 24 192 7 7 (225792)
I0403 19:39:13.449060  9494 net.cpp:156] Memory required for data: 1330660896
I0403 19:39:13.449076  9494 layer_factory.hpp:77] Creating layer inception_5b/3x3
I0403 19:39:13.449098  9494 net.cpp:91] Creating Layer inception_5b/3x3
I0403 19:39:13.449116  9494 net.cpp:425] inception_5b/3x3 <- inception_5b/3x3_reduce
I0403 19:39:13.449137  9494 net.cpp:399] inception_5b/3x3 -> inception_5b/3x3
I0403 19:39:13.455756  9494 net.cpp:141] Setting up inception_5b/3x3
I0403 19:39:13.455786  9494 net.cpp:148] Top shape: 24 384 7 7 (451584)
I0403 19:39:13.455802  9494 net.cpp:156] Memory required for data: 1332467232
I0403 19:39:13.455821  9494 layer_factory.hpp:77] Creating layer inception_5b/relu_3x3
I0403 19:39:13.455839  9494 net.cpp:91] Creating Layer inception_5b/relu_3x3
I0403 19:39:13.455857  9494 net.cpp:425] inception_5b/relu_3x3 <- inception_5b/3x3
I0403 19:39:13.455876  9494 net.cpp:386] inception_5b/relu_3x3 -> inception_5b/3x3 (in-place)
I0403 19:39:13.456172  9494 net.cpp:141] Setting up inception_5b/relu_3x3
I0403 19:39:13.456199  9494 net.cpp:148] Top shape: 24 384 7 7 (451584)
I0403 19:39:13.456215  9494 net.cpp:156] Memory required for data: 1334273568
I0403 19:39:13.456230  9494 layer_factory.hpp:77] Creating layer inception_5b/5x5_reduce
I0403 19:39:13.456267  9494 net.cpp:91] Creating Layer inception_5b/5x5_reduce
I0403 19:39:13.456287  9494 net.cpp:425] inception_5b/5x5_reduce <- inception_5a/output_inception_5a/output_0_split_2
I0403 19:39:13.456310  9494 net.cpp:399] inception_5b/5x5_reduce -> inception_5b/5x5_reduce
I0403 19:39:13.457584  9494 net.cpp:141] Setting up inception_5b/5x5_reduce
I0403 19:39:13.457613  9494 net.cpp:148] Top shape: 24 48 7 7 (56448)
I0403 19:39:13.457629  9494 net.cpp:156] Memory required for data: 1334499360
I0403 19:39:13.457648  9494 layer_factory.hpp:77] Creating layer inception_5b/relu_5x5_reduce
I0403 19:39:13.457666  9494 net.cpp:91] Creating Layer inception_5b/relu_5x5_reduce
I0403 19:39:13.457684  9494 net.cpp:425] inception_5b/relu_5x5_reduce <- inception_5b/5x5_reduce
I0403 19:39:13.457703  9494 net.cpp:386] inception_5b/relu_5x5_reduce -> inception_5b/5x5_reduce (in-place)
I0403 19:39:13.458070  9494 net.cpp:141] Setting up inception_5b/relu_5x5_reduce
I0403 19:39:13.458098  9494 net.cpp:148] Top shape: 24 48 7 7 (56448)
I0403 19:39:13.458113  9494 net.cpp:156] Memory required for data: 1334725152
I0403 19:39:13.458128  9494 layer_factory.hpp:77] Creating layer inception_5b/5x5
I0403 19:39:13.458149  9494 net.cpp:91] Creating Layer inception_5b/5x5
I0403 19:39:13.458168  9494 net.cpp:425] inception_5b/5x5 <- inception_5b/5x5_reduce
I0403 19:39:13.458189  9494 net.cpp:399] inception_5b/5x5 -> inception_5b/5x5
I0403 19:39:13.460197  9494 net.cpp:141] Setting up inception_5b/5x5
I0403 19:39:13.460225  9494 net.cpp:148] Top shape: 24 128 7 7 (150528)
I0403 19:39:13.460242  9494 net.cpp:156] Memory required for data: 1335327264
I0403 19:39:13.460259  9494 layer_factory.hpp:77] Creating layer inception_5b/relu_5x5
I0403 19:39:13.460280  9494 net.cpp:91] Creating Layer inception_5b/relu_5x5
I0403 19:39:13.460299  9494 net.cpp:425] inception_5b/relu_5x5 <- inception_5b/5x5
I0403 19:39:13.460316  9494 net.cpp:386] inception_5b/relu_5x5 -> inception_5b/5x5 (in-place)
I0403 19:39:13.460512  9494 net.cpp:141] Setting up inception_5b/relu_5x5
I0403 19:39:13.460537  9494 net.cpp:148] Top shape: 24 128 7 7 (150528)
I0403 19:39:13.460552  9494 net.cpp:156] Memory required for data: 1335929376
I0403 19:39:13.460567  9494 layer_factory.hpp:77] Creating layer inception_5b/pool
I0403 19:39:13.460587  9494 net.cpp:91] Creating Layer inception_5b/pool
I0403 19:39:13.460605  9494 net.cpp:425] inception_5b/pool <- inception_5a/output_inception_5a/output_0_split_3
I0403 19:39:13.460624  9494 net.cpp:399] inception_5b/pool -> inception_5b/pool
I0403 19:39:13.460696  9494 net.cpp:141] Setting up inception_5b/pool
I0403 19:39:13.460719  9494 net.cpp:148] Top shape: 24 832 7 7 (978432)
I0403 19:39:13.460734  9494 net.cpp:156] Memory required for data: 1339843104
I0403 19:39:13.460749  9494 layer_factory.hpp:77] Creating layer inception_5b/pool_proj
I0403 19:39:13.460772  9494 net.cpp:91] Creating Layer inception_5b/pool_proj
I0403 19:39:13.460789  9494 net.cpp:425] inception_5b/pool_proj <- inception_5b/pool
I0403 19:39:13.460810  9494 net.cpp:399] inception_5b/pool_proj -> inception_5b/pool_proj
I0403 19:39:13.463093  9494 net.cpp:141] Setting up inception_5b/pool_proj
I0403 19:39:13.463122  9494 net.cpp:148] Top shape: 24 128 7 7 (150528)
I0403 19:39:13.463140  9494 net.cpp:156] Memory required for data: 1340445216
I0403 19:39:13.463158  9494 layer_factory.hpp:77] Creating layer inception_5b/relu_pool_proj
I0403 19:39:13.463177  9494 net.cpp:91] Creating Layer inception_5b/relu_pool_proj
I0403 19:39:13.463194  9494 net.cpp:425] inception_5b/relu_pool_proj <- inception_5b/pool_proj
I0403 19:39:13.463214  9494 net.cpp:386] inception_5b/relu_pool_proj -> inception_5b/pool_proj (in-place)
I0403 19:39:13.463512  9494 net.cpp:141] Setting up inception_5b/relu_pool_proj
I0403 19:39:13.463539  9494 net.cpp:148] Top shape: 24 128 7 7 (150528)
I0403 19:39:13.463554  9494 net.cpp:156] Memory required for data: 1341047328
I0403 19:39:13.463570  9494 layer_factory.hpp:77] Creating layer inception_5b/output
I0403 19:39:13.463587  9494 net.cpp:91] Creating Layer inception_5b/output
I0403 19:39:13.463618  9494 net.cpp:425] inception_5b/output <- inception_5b/1x1
I0403 19:39:13.463636  9494 net.cpp:425] inception_5b/output <- inception_5b/3x3
I0403 19:39:13.463652  9494 net.cpp:425] inception_5b/output <- inception_5b/5x5
I0403 19:39:13.463668  9494 net.cpp:425] inception_5b/output <- inception_5b/pool_proj
I0403 19:39:13.463688  9494 net.cpp:399] inception_5b/output -> inception_5b/output
I0403 19:39:13.463752  9494 net.cpp:141] Setting up inception_5b/output
I0403 19:39:13.463780  9494 net.cpp:148] Top shape: 24 1024 7 7 (1204224)
I0403 19:39:13.463796  9494 net.cpp:156] Memory required for data: 1345864224
I0403 19:39:13.463811  9494 layer_factory.hpp:77] Creating layer pool5/7x7_s1
I0403 19:39:13.463829  9494 net.cpp:91] Creating Layer pool5/7x7_s1
I0403 19:39:13.463846  9494 net.cpp:425] pool5/7x7_s1 <- inception_5b/output
I0403 19:39:13.463863  9494 net.cpp:399] pool5/7x7_s1 -> pool5/7x7_s1
I0403 19:39:13.464092  9494 net.cpp:141] Setting up pool5/7x7_s1
I0403 19:39:13.464118  9494 net.cpp:148] Top shape: 24 1024 1 1 (24576)
I0403 19:39:13.464134  9494 net.cpp:156] Memory required for data: 1345962528
I0403 19:39:13.464149  9494 layer_factory.hpp:77] Creating layer pool5/drop_7x7_s1
I0403 19:39:13.464167  9494 net.cpp:91] Creating Layer pool5/drop_7x7_s1
I0403 19:39:13.464184  9494 net.cpp:425] pool5/drop_7x7_s1 <- pool5/7x7_s1
I0403 19:39:13.464203  9494 net.cpp:386] pool5/drop_7x7_s1 -> pool5/7x7_s1 (in-place)
I0403 19:39:13.464253  9494 net.cpp:141] Setting up pool5/drop_7x7_s1
I0403 19:39:13.464292  9494 net.cpp:148] Top shape: 24 1024 1 1 (24576)
I0403 19:39:13.464306  9494 net.cpp:156] Memory required for data: 1346060832
I0403 19:39:13.464323  9494 layer_factory.hpp:77] Creating layer loss3/classifier_plantvillage
I0403 19:39:13.464340  9494 net.cpp:91] Creating Layer loss3/classifier_plantvillage
I0403 19:39:13.464356  9494 net.cpp:425] loss3/classifier_plantvillage <- pool5/7x7_s1
I0403 19:39:13.464375  9494 net.cpp:399] loss3/classifier_plantvillage -> loss3/classifier_plantvillage
I0403 19:39:13.464784  9494 net.cpp:141] Setting up loss3/classifier_plantvillage
I0403 19:39:13.464809  9494 net.cpp:148] Top shape: 24 38 (912)
I0403 19:39:13.464823  9494 net.cpp:156] Memory required for data: 1346064480
I0403 19:39:13.464840  9494 layer_factory.hpp:77] Creating layer loss3/classifier_plantvillage_loss3/classifier_plantvillage_0_split
I0403 19:39:13.464861  9494 net.cpp:91] Creating Layer loss3/classifier_plantvillage_loss3/classifier_plantvillage_0_split
I0403 19:39:13.464879  9494 net.cpp:425] loss3/classifier_plantvillage_loss3/classifier_plantvillage_0_split <- loss3/classifier_plantvillage
I0403 19:39:13.464896  9494 net.cpp:399] loss3/classifier_plantvillage_loss3/classifier_plantvillage_0_split -> loss3/classifier_plantvillage_loss3/classifier_plantvillage_0_split_0
I0403 19:39:13.464918  9494 net.cpp:399] loss3/classifier_plantvillage_loss3/classifier_plantvillage_0_split -> loss3/classifier_plantvillage_loss3/classifier_plantvillage_0_split_1
I0403 19:39:13.464939  9494 net.cpp:399] loss3/classifier_plantvillage_loss3/classifier_plantvillage_0_split -> loss3/classifier_plantvillage_loss3/classifier_plantvillage_0_split_2
I0403 19:39:13.464961  9494 net.cpp:399] loss3/classifier_plantvillage_loss3/classifier_plantvillage_0_split -> loss3/classifier_plantvillage_loss3/classifier_plantvillage_0_split_3
I0403 19:39:13.465057  9494 net.cpp:141] Setting up loss3/classifier_plantvillage_loss3/classifier_plantvillage_0_split
I0403 19:39:13.465080  9494 net.cpp:148] Top shape: 24 38 (912)
I0403 19:39:13.465096  9494 net.cpp:148] Top shape: 24 38 (912)
I0403 19:39:13.465111  9494 net.cpp:148] Top shape: 24 38 (912)
I0403 19:39:13.465126  9494 net.cpp:148] Top shape: 24 38 (912)
I0403 19:39:13.465142  9494 net.cpp:156] Memory required for data: 1346079072
I0403 19:39:13.465155  9494 layer_factory.hpp:77] Creating layer loss1/loss
I0403 19:39:13.465176  9494 net.cpp:91] Creating Layer loss1/loss
I0403 19:39:13.465193  9494 net.cpp:425] loss1/loss <- loss1/classifier_plantvillage_loss1/classifier_plantvillage_0_split_0
I0403 19:39:13.465224  9494 net.cpp:425] loss1/loss <- label_data_1_split_0
…
