…
I0403 19:53:11.319785  9794 net.cpp:313] The NetState phase (1) differed from the phase (0) specified by a rule in layer data
I0403 19:53:11.320967  9794 net.cpp:49] Initializing net from parameters: 
state {
  phase: TEST
}
layer {
  name: "data"
  type: "Data"
  top: "data"
  top: "label"
  include {
    phase: TEST
  }
  transform_param {
    mirror: false
    crop_size: 224
    mean_file: "/home/mohanty/data/final_dataset/lmdb/color-60-40/mean.binaryproto"
  }
  data_param {
    source: "/home/mohanty/data/final_dataset/lmdb/color-60-40/test_db"
    batch_size: 24
    backend: LMDB
  }
}
layer {
  name: "conv1/7x7_s2"
  type: "Convolution"
  bottom: "data"
  top: "conv1/7x7_s2"
  param {
    lr_mult: 1
    decay_mult: 1
  }
  param {
    lr_mult: 2
    decay_mult: 0
  }
  convolution_param {
    num_output: 64
    pad: 3
    kernel_size: 7
    stride: 2
    weight_filler {
      type: "xavier"
      std: 0.1
    }
    bias_filler {
      type: "constant"
      value: 0.2
    }
  }
}
layer {
  name: "conv1/relu_7x7"
  type: "ReLU"
  bottom: "conv1/7x7_s2"
  top: "conv1/7x7_s2"
}
layer {
  name: "pool1/3x3_s2"
  type: "Pooling"
  bottom: "conv1/7x7_s2"
  top: "pool1/3x3_s2"
  pooling_param {
    pool: MAX
    kernel_size: 3
    stride: 2
  }
}
layer {
  name: "pool1/norm1"
  type: "LRN"
  bottom: "pool1/3x3_s2"
  top: "pool1/norm1"
  lrn_param {
    local_size: 5
    alpha: 0.0001
    beta: 0.75
  }
}
layer {
  name: "conv2/3x3_reduce"
  type: "Convolution"
  bottom: "pool1/norm1"
  top: "conv2/3x3_reduce"
  param {
    lr_mult: 1
    decay_mult: 1
  }
  param {
    lr_mult: 2
    decay_mult: 0
  }
  convolution_param {
    num_output: 64
    kernel_size: 1
    weight_filler {
      type: "xavier"
      std: 0.1
    }
    bias_filler {
      type: "constant"
      value: 0.2
    }
  }
}
layer {
  name: "conv2/relu_3x3_reduce"
  type: "ReLU"
  bottom: "conv2/3x3_reduce"
  top: "conv2/3x3_reduce"
}
layer {
  name: "conv2/3x3"
  type: "Convolution"
  bottom: "conv2/3x3_reduce"
  top: "conv2/3x3"
  param {
    lr_mult: 1
    decay_mult: 1
  }
  param {
    lr_mult: 2
    decay_mult: 0
  }
  convolution_param {
    num_output: 192
    pad: 1
    kernel_size: 3
    weight_filler {
      type: "xavier"
      std: 0.03
    }
    bias_filler {
      type: "constant"
      value: 0.2
    }
  }
}
layer {
  name: "conv2/relu_3x3"
  type: "ReLU"
  bottom: "conv2/3x3"
  top: "conv2/3x3"
}
layer {
  name: "conv2/norm2"
  type: "LRN"
  bottom: "conv2/3x3"
  top: "conv2/norm2"
  lrn_param {
    local_size: 5
    alpha: 0.0001
    beta: 0.75
  }
}
layer {
  name: "pool2/3x3_s2"
  type: "Pooling"
  bottom: "conv2/norm2"
  top: "pool2/3x3_s2"
  pooling_param {
    pool: MAX
    kernel_size: 3
    stride: 2
  }
}
layer {
  name: "inception_3a/1x1"
  type: "Convolution"
  bottom: "pool2/3x3_s2"
  top: "inception_3a/1x1"
  param {
    lr_mult: 1
    decay_mult: 1
  }
  param {
    lr_mult: 2
    decay_mult: 0
  }
  convolution_param {
    num_output: 64
    kernel_size: 1
    weight_filler {
      type: "xavier"
      std: 0.03
    }
    bias_filler {
      type: "constant"
      value: 0.2
    }
  }
}
layer {
  name: "inception_3a/relu_1x1"
  type: "ReLU"
  bottom: "inception_3a/1x1"
  top: "inception_3a/1x1"
}
layer {
  name: "inception_3a/3x3_reduce"
  type: "Convolution"
  bottom: "pool2/3x3_s2"
  top: "inception_3a/3x3_reduce"
  param {
    lr_mult: 1
    decay_mult: 1
  }
  param {
    lr_mult: 2
    decay_mult: 0
  }
  convolution_param {
    num_output: 96
    kernel_size: 1
    weight_filler {
      type: "xavier"
      std: 0.09
    }
    bias_filler {
      type: "constant"
      value: 0.2
    }
  }
}
layer {
  name: "inception_3a/relu_3x3_reduce"
  type: "ReLU"
  bottom: "inception_3a/3x3_reduce"
  top: "inception_3a/3x3_reduce"
}
layer {
  name: "inception_3a/3x3"
  type: "Convolution"
  bottom: "inception_3a/3x3_reduce"
  top: "inception_3a/3x3"
  param {
    lr_mult: 1
    decay_mult: 1
  }
  param {
    lr_mult: 2
    decay_mult: 0
  }
  convolution_param {
    num_output: 128
    pad: 1
    kernel_size: 3
    weight_filler {
      type: "xavier"
      std: 0.03
    }
    bias_filler {
      type: "constant"
      value: 0.2
    }
  }
}
layer {
  name: "inception_3a/relu_3x3"
  type: "ReLU"
  bottom: "inception_3a/3x3"
  top: "inception_3a/3x3"
}
layer {
  name: "inception_3a/5x5_reduce"
  type: "Convolution"
  bottom: "pool2/3x3_s2"
  top: "inception_3a/5x5_reduce"
  param {
    lr_mult: 1
    decay_mult: 1
  }
  param {
    lr_mult: 2
    decay_mult: 0
  }
  convolution_param {
    num_output: 16
    kernel_size: 1
    weight_filler {
      type: "xavier"
      std: 0.2
    }
    bias_filler {
      type: "constant"
      value: 0.2
    }
  }
}
layer {
  name: "inception_3a/relu_5x5_reduce"
  type: "ReLU"
  bottom: "inception_3a/5x5_reduce"
  top: "inception_3a/5x5_reduce"
}
layer {
  name: "inception_3a/5x5"
  type: "Convolution"
  bottom: "inception_3a/5x5_reduce"
  top: "inception_3a/5x5"
  param {
    lr_mult: 1
    decay_mult: 1
  }
  param {
    lr_mult: 2
    decay_mult: 0
  }
  convolution_param {
    num_output: 32
    pad: 2
    kernel_size: 5
    weight_filler {
      type: "xavier"
      std: 0.03
    }
    bias_filler {
      type: "constant"
      value: 0.2
    }
  }
}
layer {
  name: "inception_3a/relu_5x5"
  type: "ReLU"
  bottom: "inception_3a/5x5"
  top: "inception_3a/5x5"
}
layer {
  name: "inception_3a/pool"
  type: "Pooling"
  bottom: "pool2/3x3_s2"
  top: "inception_3a/pool"
  pooling_param {
    pool: MAX
    kernel_size: 3
    stride: 1
    pad: 1
  }
}
layer {
  name: "inception_3a/pool_proj"
  type: "Convolution"
  bottom: "inception_3a/pool"
  top: "inception_3a/pool_proj"
  param {
    lr_mult: 1
    decay_mult: 1
  }
  param {
    lr_mult: 2
    decay_mult: 0
  }
  convolution_param {
    num_output: 32
    kernel_size: 1
    weight_filler {
      type: "xavier"
      std: 0.1
    }
    bias_filler {
      type: "constant"
      value: 0.2
    }
  }
}
layer {
  name: "inception_3a/relu_pool_proj"
  type: "ReLU"
  bottom: "inception_3a/pool_proj"
  top: "inception_3a/pool_proj"
}
layer {
  name: "inception_3a/output"
  type: "Concat"
  bottom: "inception_3a/1x1"
  bottom: "inception_3a/3x3"
  bottom: "inception_3a/5x5"
  bottom: "inception_3a/pool_proj"
  top: "inception_3a/output"
}
layer {
  name: "inception_3b/1x1"
  type: "Convolution"
  bottom: "inception_3a/output"
  top: "inception_3b/1x1"
  param {
    lr_mult: 1
    decay_mult: 1
  }
  param {
    lr_mult: 2
    decay_mult: 0
  }
  convolution_param {
    num_output: 128
    kernel_size: 1
    weight_filler {
      type: "xavier"
      std: 0.03
    }
    bias_filler {
      type: "constant"
      value: 0.2
    }
  }
}
layer {
  name: "inception_3b/relu_1x1"
  type: "ReLU"
  bottom: "inception_3b/1x1"
  top: "inception_3b/1x1"
}
layer {
  name: "inception_3b/3x3_reduce"
  type: "Convolution"
  bottom: "inception_3a/output"
  top: "inception_3b/3x3_reduce"
  param {
    lr_mult: 1
    decay_mult: 1
  }
  param {
    lr_mult: 2
    decay_mult: 0
  }
  convolution_param {
    num_output: 128
    kernel_size: 1
    weight_filler {
      type: "xavier"
      std: 0.09
    }
    bias_filler {
      type: "constant"
      value: 0.2
    }
  }
}
layer {
  name: "inception_3b/relu_3x3_reduce"
  type: "ReLU"
  bottom: "inception_3b/3x3_reduce"
  top: "inception_3b/3x3_reduce"
}
layer {
  name: "inception_3b/3x3"
  type: "Convolution"
  bottom: "inception_3b/3x3_reduce"
  top: "inception_3b/3x3"
  param {
    lr_mult: 1
    decay_mult: 1
  }
  param {
    lr_mult: 2
    decay_mult: 0
  }
  convolution_param {
    num_output: 192
    pad: 1
    kernel_size: 3
    weight_filler {
      type: "xavier"
      std: 0.03
    }
    bias_filler {
      type: "constant"
      value: 0.2
    }
  }
}
layer {
  name: "inception_3b/relu_3x3"
  type: "ReLU"
  bottom: "inception_3b/3x3"
  top: "inception_3b/3x3"
}
layer {
  name: "inception_3b/5x5_reduce"
  type: "Convolution"
  bottom: "inception_3a/output"
  top: "inception_3b/5x5_reduce"
  param {
    lr_mult: 1
    decay_mult: 1
  }
  param {
    lr_mult: 2
    decay_mult: 0
  }
  convolution_param {
    num_output: 32
    kernel_size: 1
    weight_filler {
      type: "xavier"
      std: 0.2
    }
    bias_filler {
      type: "constant"
      value: 0.2
    }
  }
}
layer {
  name: "inception_3b/relu_5x5_reduce"
  type: "ReLU"
  bottom: "inception_3b/5x5_reduce"
  top: "inception_3b/5x5_reduce"
}
layer {
  name: "inception_3b/5x5"
  type: "Convolution"
  bottom: "inception_3b/5x5_reduce"
  top: "inception_3b/5x5"
  param {
    lr_mult: 1
    decay_mult: 1
  }
  param {
    lr_mult: 2
    decay_mult: 0
  }
  convolution_param {
    num_output: 96
    pad: 2
    kernel_size: 5
    weight_filler {
      type: "xavier"
      std: 0.03
    }
    bias_filler {
      type: "constant"
      value: 0.2
    }
  }
}
layer {
  name: "inception_3b/relu_5x5"
  type: "ReLU"
  bottom: "inception_3b/5x5"
  top: "inception_3b/5x5"
}
layer {
  name: "inception_3b/pool"
  type: "Pooling"
  bottom: "inception_3a/output"
  top: "inception_3b/pool"
  pooling_param {
    pool: MAX
    kernel_size: 3
    stride: 1
    pad: 1
  }
}
layer {
  name: "inception_3b/pool_proj"
  type: "Convolution"
  bottom: "inception_3b/pool"
  top: "inception_3b/pool_proj"
  param {
    lr_mult: 1
    decay_mult: 1
  }
  param {
    lr_mult: 2
    decay_mult: 0
  }
  convolution_param {
    num_output: 64
    kernel_size: 1
    weight_filler {
      type: "xavier"
      std: 0.1
    }
    bias_filler {
      type: "constant"
      value: 0.2
    }
  }
}
layer {
  name: "inception_3b/relu_pool_proj"
  type: "ReLU"
  bottom: "inception_3b/pool_proj"
  top: "inception_3b/pool_proj"
}
layer {
  name: "inception_3b/output"
  type: "Concat"
  bottom: "inception_3b/1x1"
  bottom: "inception_3b/3x3"
  bottom: "inception_3b/5x5"
  bottom: "inception_3b/pool_proj"
  top: "inception_3b/output"
}
layer {
  name: "pool3/3x3_s2"
  type: "Pooling"
  bottom: "inception_3b/output"
  top: "pool3/3x3_s2"
  pooling_param {
    pool: MAX
    kernel_size: 3
    stride: 2
  }
}
layer {
  name: "inception_4a/1x1"
  type: "Convolution"
  bottom: "pool3/3x3_s2"
  top: "inception_4a/1x1"
  param {
    lr_mult: 1
    decay_mult: 1
  }
  param {
    lr_mult: 2
    decay_mult: 0
  }
  convolution_param {
    num_output: 192
    kernel_size: 1
    weight_filler {
      type: "xavier"
      std: 0.03
    }
    bias_filler {
      type: "constant"
      value: 0.2
    }
  }
}
layer {
  name: "inception_4a/relu_1x1"
  type: "ReLU"
  bottom: "inception_4a/1x1"
  top: "inception_4a/1x1"
}
layer {
  name: "inception_4a/3x3_reduce"
  type: "Convolution"
  bottom: "pool3/3x3_s2"
  top: "inception_4a/3x3_reduce"
  param {
    lr_mult: 1
    decay_mult: 1
  }
  param {
    lr_mult: 2
    decay_mult: 0
  }
  convolution_param {
    num_output: 96
    kernel_size: 1
    weight_filler {
      type: "xavier"
      std: 0.09
    }
    bias_filler {
      type: "constant"
      value: 0.2
    }
  }
}
layer {
  name: "inception_4a/relu_3x3_reduce"
  type: "ReLU"
  bottom: "inception_4a/3x3_reduce"
  top: "inception_4a/3x3_reduce"
}
layer {
  name: "inception_4a/3x3"
  type: "Convolution"
  bottom: "inception_4a/3x3_reduce"
  top: "inception_4a/3x3"
  param {
    lr_mult: 1
    decay_mult: 1
  }
  param {
    lr_mult: 2
    decay_mult: 0
  }
  convolution_param {
    num_output: 208
    pad: 1
    kernel_size: 3
    weight_filler {
      type: "xavier"
      std: 0.03
    }
    bias_filler {
      type: "constant"
      value: 0.2
    }
  }
}
layer {
  name: "inception_4a/relu_3x3"
  type: "ReLU"
  bottom: "inception_4a/3x3"
  top: "inception_4a/3x3"
}
layer {
  name: "inception_4a/5x5_reduce"
  type: "Convolution"
  bottom: "pool3/3x3_s2"
  top: "inception_4a/5x5_reduce"
  param {
    lr_mult: 1
    decay_mult: 1
  }
  param {
    lr_mult: 2
    decay_mult: 0
  }
  convolution_param {
    num_output: 16
    kernel_size: 1
    weight_filler {
      type: "xavier"
      std: 0.2
    }
    bias_filler {
      type: "constant"
      value: 0.2
    }
  }
}
layer {
  name: "inception_4a/relu_5x5_reduce"
  type: "ReLU"
  bottom: "inception_4a/5x5_reduce"
  top: "inception_4a/5x5_reduce"
}
layer {
  name: "inception_4a/5x5"
  type: "Convolution"
  bottom: "inception_4a/5x5_reduce"
  top: "inception_4a/5x5"
  param {
    lr_mult: 1
    decay_mult: 1
  }
  param {
    lr_mult: 2
    decay_mult: 0
  }
  convolution_param {
    num_output: 48
    pad: 2
    kernel_size: 5
    weight_filler {
      type: "xavier"
      std: 0.03
    }
    bias_filler {
      type: "constant"
      value: 0.2
    }
  }
}
layer {
  name: "inception_4a/relu_5x5"
  type: "ReLU"
  bottom: "inception_4a/5x5"
  top: "inception_4a/5x5"
}
layer {
  name: "inception_4a/pool"
  type: "Pooling"
  bottom: "pool3/3x3_s2"
  top: "inception_4a/pool"
  pooling_param {
    pool: MAX
    kernel_size: 3
    stride: 1
    pad: 1
  }
}
layer {
  name: "inception_4a/pool_proj"
  type: "Convolution"
  bottom: "inception_4a/pool"
  top: "inception_4a/pool_proj"
  param {
    lr_mult: 1
    decay_mult: 1
  }
  param {
    lr_mult: 2
    decay_mult: 0
  }
  convolution_param {
    num_output: 64
    kernel_size: 1
    weight_filler {
      type: "xavier"
      std: 0.1
    }
    bias_filler {
      type: "constant"
      value: 0.2
    }
  }
}
layer {
  name: "inception_4a/relu_pool_proj"
  type: "ReLU"
  bottom: "inception_4a/pool_proj"
  top: "inception_4a/pool_proj"
}
layer {
  name: "inception_4a/output"
  type: "Concat"
  bottom: "inception_4a/1x1"
  bottom: "inception_4a/3x3"
  bottom: "inception_4a/5x5"
  bottom: "inception_4a/pool_proj"
  top: "inception_4a/output"
}
layer {
  name: "loss1/ave_pool"
  type: "Pooling"
  bottom: "inception_4a/output"
  top: "loss1/ave_pool"
  pooling_param {
    pool: AVE
    kernel_size: 5
    stride: 3
  }
}
layer {
  name: "loss1/conv"
  type: "Convolution"
  bottom: "loss1/ave_pool"
  top: "loss1/conv"
  param {
    lr_mult: 1
    decay_mult: 1
  }
  param {
    lr_mult: 2
    decay_mult: 0
  }
  convolution_param {
    num_output: 128
    kernel_size: 1
    weight_filler {
      type: "xavier"
      std: 0.08
    }
    bias_filler {
      type: "constant"
      value: 0.2
    }
  }
}
layer {
  name: "loss1/relu_conv"
  type: "ReLU"
  bottom: "loss1/conv"
  top: "loss1/conv"
}
layer {
  name: "loss1/fc"
  type: "InnerProduct"
  bottom: "loss1/conv"
  top: "loss1/fc"
  param {
    lr_mult: 1
    decay_mult: 1
  }
  param {
    lr_mult: 2
    decay_mult: 0
  }
  inner_product_param {
    num_output: 1024
    weight_filler {
      type: "xavier"
      std: 0.02
    }
    bias_filler {
      type: "constant"
      value: 0.2
    }
  }
}
layer {
  name: "loss1/relu_fc"
  type: "ReLU"
  bottom: "loss1/fc"
  top: "loss1/fc"
}
layer {
  name: "loss1/drop_fc"
  type: "Dropout"
  bottom: "loss1/fc"
  top: "loss1/fc"
  dropout_param {
    dropout_ratio: 0.7
  }
}
layer {
  name: "loss1/classifier_plantvillage"
  type: "InnerProduct"
  bottom: "loss1/fc"
  top: "loss1/classifier_plantvillage"
  param {
    lr_mult: 1
    decay_mult: 1
  }
  param {
    lr_mult: 2
    decay_mult: 0
  }
  inner_product_param {
    num_output: 38
    weight_filler {
      type: "xavier"
      std: 0.0009765625
    }
    bias_filler {
      type: "constant"
      value: 0
    }
  }
}
layer {
  name: "inception_4b/1x1"
  type: "Convolution"
  bottom: "inception_4a/output"
  top: "inception_4b/1x1"
  param {
    lr_mult: 1
    decay_mult: 1
  }
  param {
    lr_mult: 2
    decay_mult: 0
  }
  convolution_param {
    num_output: 160
    kernel_size: 1
    weight_filler {
      type: "xavier"
      std: 0.03
    }
    bias_filler {
      type: "constant"
      value: 0.2
    }
  }
}
layer {
  name: "inception_4b/relu_1x1"
  type: "ReLU"
  bottom: "inception_4b/1x1"
  top: "inception_4b/1x1"
}
layer {
  name: "inception_4b/3x3_reduce"
  type: "Convolution"
  bottom: "inception_4a/output"
  top: "inception_4b/3x3_reduce"
  param {
    lr_mult: 1
    decay_mult: 1
  }
  param {
    lr_mult: 2
    decay_mult: 0
  }
  convolution_param {
    num_output: 112
    kernel_size: 1
    weight_filler {
      type: "xavier"
      std: 0.09
    }
    bias_filler {
      type: "constant"
      value: 0.2
    }
  }
}
layer {
  name: "inception_4b/relu_3x3_reduce"
  type: "ReLU"
  bottom: "inception_4b/3x3_reduce"
  top: "inception_4b/3x3_reduce"
}
layer {
  name: "inception_4b/3x3"
  type: "Convolution"
  bottom: "inception_4b/3x3_reduce"
  top: "inception_4b/3x3"
  param {
    lr_mult: 1
    decay_mult: 1
  }
  param {
    lr_mult: 2
    decay_mult: 0
  }
  convolution_param {
    num_output: 224
    pad: 1
    kernel_size: 3
    weight_filler {
      type: "xavier"
      std: 0.03
    }
    bias_filler {
      type: "constant"
      value: 0.2
    }
  }
}
layer {
  name: "inception_4b/relu_3x3"
  type: "ReLU"
  bottom: "inception_4b/3x3"
  top: "inception_4b/3x3"
}
layer {
  name: "inception_4b/5x5_reduce"
  type: "Convolution"
  bottom: "inception_4a/output"
  top: "inception_4b/5x5_reduce"
  param {
    lr_mult: 1
    decay_mult: 1
  }
  param {
    lr_mult: 2
    decay_mult: 0
  }
  convolution_param {
    num_output: 24
    kernel_size: 1
    weight_filler {
      type: "xavier"
      std: 0.2
    }
    bias_filler {
      type: "constant"
      value: 0.2
    }
  }
}
layer {
  name: "inception_4b/relu_5x5_reduce"
  type: "ReLU"
  bottom: "inception_4b/5x5_reduce"
  top: "inception_4b/5x5_reduce"
}
layer {
  name: "inception_4b/5x5"
  type: "Convolution"
  bottom: "inception_4b/5x5_reduce"
  top: "inception_4b/5x5"
  param {
    lr_mult: 1
    decay_mult: 1
  }
  param {
    lr_mult: 2
    decay_mult: 0
  }
  convolution_param {
    num_output: 64
    pad: 2
    kernel_size: 5
    weight_filler {
      type: "xavier"
      std: 0.03
    }
    bias_filler {
      type: "constant"
      value: 0.2
    }
  }
}
layer {
  name: "inception_4b/relu_5x5"
  type: "ReLU"
  bottom: "inception_4b/5x5"
  top: "inception_4b/5x5"
}
layer {
  name: "inception_4b/pool"
  type: "Pooling"
  bottom: "inception_4a/output"
  top: "inception_4b/pool"
  pooling_param {
    pool: MAX
    kernel_size: 3
    stride: 1
    pad: 1
  }
}
layer {
  name: "inception_4b/pool_proj"
  type: "Convolution"
  bottom: "inception_4b/pool"
  top: "inception_4b/pool_proj"
  param {
    lr_mult: 1
    decay_mult: 1
  }
  param {
    lr_mult: 2
    decay_mult: 0
  }
  convolution_param {
    num_output: 64
    kernel_size: 1
    weight_filler {
      type: "xavier"
      std: 0.1
    }
    bias_filler {
      type: "constant"
      value: 0.2
    }
  }
}
layer {
  name: "inception_4b/relu_pool_proj"
  type: "ReLU"
  bottom: "inception_4b/pool_proj"
  top: "inception_4b/pool_proj"
}
layer {
  name: "inception_4b/output"
  type: "Concat"
  bottom: "inception_4b/1x1"
  bottom: "inception_4b/3x3"
  bottom: "inception_4b/5x5"
  bottom: "inception_4b/pool_proj"
  top: "inception_4b/output"
}
layer {
  name: "inception_4c/1x1"
  type: "Convolution"
  bottom: "inception_4b/output"
  top: "inception_4c/1x1"
  param {
    lr_mult: 1
    decay_mult: 1
  }
  param {
    lr_mult: 2
    decay_mult: 0
  }
  convolution_param {
    num_output: 128
    kernel_size: 1
    weight_filler {
      type: "xavier"
      std: 0.03
    }
    bias_filler {
      type: "constant"
      value: 0.2
    }
  }
}
layer {
  name: "inception_4c/relu_1x1"
  type: "ReLU"
  bottom: "inception_4c/1x1"
  top: "inception_4c/1x1"
}
layer {
  name: "inception_4c/3x3_reduce"
  type: "Convolution"
  bottom: "inception_4b/output"
  top: "inception_4c/3x3_reduce"
  param {
    lr_mult: 1
    decay_mult: 1
  }
  param {
    lr_mult: 2
    decay_mult: 0
  }
  convolution_param {
    num_output: 128
    kernel_size: 1
    weight_filler {
      type: "xavier"
      std: 0.09
    }
    bias_filler {
      type: "constant"
      value: 0.2
    }
  }
}
layer {
  name: "inception_4c/relu_3x3_reduce"
  type: "ReLU"
  bottom: "inception_4c/3x3_reduce"
  top: "inception_4c/3x3_reduce"
}
layer {
  name: "inception_4c/3x3"
  type: "Convolution"
  bottom: "inception_4c/3x3_reduce"
  top: "inception_4c/3x3"
  param {
    lr_mult: 1
    decay_mult: 1
  }
  param {
    lr_mult: 2
    decay_mult: 0
  }
  convolution_param {
    num_output: 256
    pad: 1
    kernel_size: 3
    weight_filler {
      type: "xavier"
      std: 0.03
    }
    bias_filler {
      type: "constant"
      value: 0.2
    }
  }
}
layer {
  name: "inception_4c/relu_3x3"
  type: "ReLU"
  bottom: "inception_4c/3x3"
  top: "inception_4c/3x3"
}
layer {
  name: "inception_4c/5x5_reduce"
  type: "Convolution"
  bottom: "inception_4b/output"
  top: "inception_4c/5x5_reduce"
  param {
    lr_mult: 1
    decay_mult: 1
  }
  param {
    lr_mult: 2
    decay_mult: 0
  }
  convolution_param {
    num_output: 24
    kernel_size: 1
    weight_filler {
      type: "xavier"
      std: 0.2
    }
    bias_filler {
      type: "constant"
      value: 0.2
    }
  }
}
layer {
  name: "inception_4c/relu_5x5_reduce"
  type: "ReLU"
  bottom: "inception_4c/5x5_reduce"
  top: "inception_4c/5x5_reduce"
}
layer {
  name: "inception_4c/5x5"
  type: "Convolution"
  bottom: "inception_4c/5x5_reduce"
  top: "inception_4c/5x5"
  param {
    lr_mult: 1
    decay_mult: 1
  }
  param {
    lr_mult: 2
    decay_mult: 0
  }
  convolution_param {
    num_output: 64
    pad: 2
    kernel_size: 5
    weight_filler {
      type: "xavier"
      std: 0.03
    }
    bias_filler {
      type: "constant"
      value: 0.2
    }
  }
}
layer {
  name: "inception_4c/relu_5x5"
  type: "ReLU"
  bottom: "inception_4c/5x5"
  top: "inception_4c/5x5"
}
layer {
  name: "inception_4c/pool"
  type: "Pooling"
  bottom: "inception_4b/output"
  top: "inception_4c/pool"
  pooling_param {
    pool: MAX
    kernel_size: 3
    stride: 1
    pad: 1
  }
}
layer {
  name: "inception_4c/pool_proj"
  type: "Convolution"
  bottom: "inception_4c/pool"
  top: "inception_4c/pool_proj"
  param {
    lr_mult: 1
    decay_mult: 1
  }
  param {
    lr_mult: 2
    decay_mult: 0
  }
  convolution_param {
    num_output: 64
    kernel_size: 1
    weight_filler {
      type: "xavier"
      std: 0.1
    }
    bias_filler {
      type: "constant"
      value: 0.2
    }
  }
}
layer {
  name: "inception_4c/relu_pool_proj"
  type: "ReLU"
  bottom: "inception_4c/pool_proj"
  top: "inception_4c/pool_proj"
}
layer {
  name: "inception_4c/output"
  type: "Concat"
  bottom: "inception_4c/1x1"
  bottom: "inception_4c/3x3"
  bottom: "inception_4c/5x5"
  bottom: "inception_4c/pool_proj"
  top: "inception_4c/output"
}
layer {
  name: "inception_4d/1x1"
  type: "Convolution"
  bottom: "inception_4c/output"
  top: "inception_4d/1x1"
  param {
    lr_mult: 1
    decay_mult: 1
  }
  param {
    lr_mult: 2
    decay_mult: 0
  }
  convolution_param {
    num_output: 112
    kernel_size: 1
    weight_filler {
      type: "xavier"
      std: 0.03
    }
    bias_filler {
      type: "constant"
      value: 0.2
    }
  }
}
layer {
  name: "inception_4d/relu_1x1"
  type: "ReLU"
  bottom: "inception_4d/1x1"
  top: "inception_4d/1x1"
}
layer {
  name: "inception_4d/3x3_reduce"
  type: "Convolution"
  bottom: "inception_4c/output"
  top: "inception_4d/3x3_reduce"
  param {
    lr_mult: 1
    decay_mult: 1
  }
  param {
    lr_mult: 2
    decay_mult: 0
  }
  convolution_param {
    num_output: 144
    kernel_size: 1
    weight_filler {
      type: "xavier"
      std: 0.09
    }
    bias_filler {
      type: "constant"
      value: 0.2
    }
  }
}
layer {
  name: "inception_4d/relu_3x3_reduce"
  type: "ReLU"
  bottom: "inception_4d/3x3_reduce"
  top: "inception_4d/3x3_reduce"
}
layer {
  name: "inception_4d/3x3"
  type: "Convolution"
  bottom: "inception_4d/3x3_reduce"
  top: "inception_4d/3x3"
  param {
    lr_mult: 1
    decay_mult: 1
  }
  param {
    lr_mult: 2
    decay_mult: 0
  }
  convolution_param {
    num_output: 288
    pad: 1
    kernel_size: 3
    weight_filler {
      type: "xavier"
      std: 0.03
    }
    bias_filler {
      type: "constant"
      value: 0.2
    }
  }
}
layer {
  name: "inception_4d/relu_3x3"
  type: "ReLU"
  bottom: "inception_4d/3x3"
  top: "inception_4d/3x3"
}
layer {
  name: "inception_4d/5x5_reduce"
  type: "Convolution"
  bottom: "inception_4c/output"
  top: "inception_4d/5x5_reduce"
  param {
    lr_mult: 1
    decay_mult: 1
  }
  param {
    lr_mult: 2
    decay_mult: 0
  }
  convolution_param {
    num_output: 32
    kernel_size: 1
    weight_filler {
      type: "xavier"
      std: 0.2
    }
    bias_filler {
      type: "constant"
      value: 0.2
    }
  }
}
layer {
  name: "inception_4d/relu_5x5_reduce"
  type: "ReLU"
  bottom: "inception_4d/5x5_reduce"
  top: "inception_4d/5x5_reduce"
}
layer {
  name: "inception_4d/5x5"
  type: "Convolution"
  bottom: "inception_4d/5x5_reduce"
  top: "inception_4d/5x5"
  param {
    lr_mult: 1
    decay_mult: 1
  }
  param {
    lr_mult: 2
    decay_mult: 0
  }
  convolution_param {
    num_output: 64
    pad: 2
    kernel_size: 5
    weight_filler {
      type: "xavier"
      std: 0.03
    }
    bias_filler {
      type: "constant"
      value: 0.2
    }
  }
}
layer {
  name: "inception_4d/relu_5x5"
  type: "ReLU"
  bottom: "inception_4d/5x5"
  top: "inception_4d/5x5"
}
layer {
  name: "inception_4d/pool"
  type: "Pooling"
  bottom: "inception_4c/output"
  top: "inception_4d/pool"
  pooling_param {
    pool: MAX
    kernel_size: 3
    stride: 1
    pad: 1
  }
}
layer {
  name: "inception_4d/pool_proj"
  type: "Convolution"
  bottom: "inception_4d/pool"
  top: "inception_4d/pool_proj"
  param {
    lr_mult: 1
    decay_mult: 1
  }
  param {
    lr_mult: 2
    decay_mult: 0
  }
  convolution_param {
    num_output: 64
    kernel_size: 1
    weight_filler {
      type: "xavier"
      std: 0.1
    }
    bias_filler {
      type: "constant"
      value: 0.2
    }
  }
}
layer {
  name: "inception_4d/relu_pool_proj"
  type: "ReLU"
  bottom: "inception_4d/pool_proj"
  top: "inception_4d/pool_proj"
}
layer {
  name: "inception_4d/output"
  type: "Concat"
  bottom: "inception_4d/1x1"
  bottom: "inception_4d/3x3"
  bottom: "inception_4d/5x5"
  bottom: "inception_4d/pool_proj"
  top: "inception_4d/output"
}
layer {
  name: "loss2/ave_pool"
  type: "Pooling"
  bottom: "inception_4d/output"
  top: "loss2/ave_pool"
  pooling_param {
    pool: AVE
    kernel_size: 5
    stride: 3
  }
}
layer {
  name: "loss2/conv"
  type: "Convolution"
  bottom: "loss2/ave_pool"
  top: "loss2/conv"
  param {
    lr_mult: 1
    decay_mult: 1
  }
  param {
    lr_mult: 2
    decay_mult: 0
  }
  convolution_param {
    num_output: 128
    kernel_size: 1
    weight_filler {
      type: "xavier"
      std: 0.08
    }
    bias_filler {
      type: "constant"
      value: 0.2
    }
  }
}
layer {
  name: "loss2/relu_conv"
  type: "ReLU"
  bottom: "loss2/conv"
  top: "loss2/conv"
}
layer {
  name: "loss2/fc"
  type: "InnerProduct"
  bottom: "loss2/conv"
  top: "loss2/fc"
  param {
    lr_mult: 1
    decay_mult: 1
  }
  param {
    lr_mult: 2
    decay_mult: 0
  }
  inner_product_param {
    num_output: 1024
    weight_filler {
      type: "xavier"
      std: 0.02
    }
    bias_filler {
      type: "constant"
      value: 0.2
    }
  }
}
layer {
  name: "loss2/relu_fc"
  type: "ReLU"
  bottom: "loss2/fc"
  top: "loss2/fc"
}
layer {
  name: "loss2/drop_fc"
  type: "Dropout"
  bottom: "loss2/fc"
  top: "loss2/fc"
  dropout_param {
    dropout_ratio: 0.7
  }
}
layer {
  name: "loss2/classifier_plantvillage"
  type: "InnerProduct"
  bottom: "loss2/fc"
  top: "loss2/classifier_plantvillage"
  param {
    lr_mult: 1
    decay_mult: 1
  }
  param {
    lr_mult: 2
    decay_mult: 0
  }
  inner_product_param {
    num_output: 38
    weight_filler {
      type: "xavier"
      std: 0.0009765625
    }
    bias_filler {
      type: "constant"
      value: 0
    }
  }
}
layer {
  name: "inception_4e/1x1"
  type: "Convolution"
  bottom: "inception_4d/output"
  top: "inception_4e/1x1"
  param {
    lr_mult: 1
    decay_mult: 1
  }
  param {
    lr_mult: 2
    decay_mult: 0
  }
  convolution_param {
    num_output: 256
    kernel_size: 1
    weight_filler {
      type: "xavier"
      std: 0.03
    }
    bias_filler {
      type: "constant"
      value: 0.2
    }
  }
}
layer {
  name: "inception_4e/relu_1x1"
  type: "ReLU"
  bottom: "inception_4e/1x1"
  top: "inception_4e/1x1"
}
layer {
  name: "inception_4e/3x3_reduce"
  type: "Convolution"
  bottom: "inception_4d/output"
  top: "inception_4e/3x3_reduce"
  param {
    lr_mult: 1
    decay_mult: 1
  }
  param {
    lr_mult: 2
    decay_mult: 0
  }
  convolution_param {
    num_output: 160
    kernel_size: 1
    weight_filler {
      type: "xavier"
      std: 0.09
    }
    bias_filler {
      type: "constant"
      value: 0.2
    }
  }
}
layer {
  name: "inception_4e/relu_3x3_reduce"
  type: "ReLU"
  bottom: "inception_4e/3x3_reduce"
  top: "inception_4e/3x3_reduce"
}
layer {
  name: "inception_4e/3x3"
  type: "Convolution"
  bottom: "inception_4e/3x3_reduce"
  top: "inception_4e/3x3"
  param {
    lr_mult: 1
    decay_mult: 1
  }
  param {
    lr_mult: 2
    decay_mult: 0
  }
  convolution_param {
    num_output: 320
    pad: 1
    kernel_size: 3
    weight_filler {
      type: "xavier"
      std: 0.03
    }
    bias_filler {
      type: "constant"
      value: 0.2
    }
  }
}
layer {
  name: "inception_4e/relu_3x3"
  type: "ReLU"
  bottom: "inception_4e/3x3"
  top: "inception_4e/3x3"
}
layer {
  name: "inception_4e/5x5_reduce"
  type: "Convolution"
  bottom: "inception_4d/output"
  top: "inception_4e/5x5_reduce"
  param {
    lr_mult: 1
    decay_mult: 1
  }
  param {
    lr_mult: 2
    decay_mult: 0
  }
  convolution_param {
    num_output: 32
    kernel_size: 1
    weight_filler {
      type: "xavier"
      std: 0.2
    }
    bias_filler {
      type: "constant"
      value: 0.2
    }
  }
}
layer {
  name: "inception_4e/relu_5x5_reduce"
  type: "ReLU"
  bottom: "inception_4e/5x5_reduce"
  top: "inception_4e/5x5_reduce"
}
layer {
  name: "inception_4e/5x5"
  type: "Convolution"
  bottom: "inception_4e/5x5_reduce"
  top: "inception_4e/5x5"
  p
I0403 19:53:11.322526  9794 layer_factory.hpp:77] Creating layer data
I0403 19:53:11.323170  9794 net.cpp:91] Creating Layer data
I0403 19:53:11.323218  9794 net.cpp:399] data -> data
I0403 19:53:11.323309  9794 net.cpp:399] data -> label
I0403 19:53:11.323353  9794 data_transformer.cpp:25] Loading mean file from: /home/mohanty/data/final_dataset/lmdb/color-60-40/mean.binaryproto
I0403 19:53:11.324445  9797 db_lmdb.cpp:38] Opened lmdb /home/mohanty/data/final_dataset/lmdb/color-60-40/test_db
I0403 19:53:11.336710  9794 data_layer.cpp:41] output data size: 24,3,224,224
I0403 19:53:11.363747  9794 net.cpp:141] Setting up data
I0403 19:53:11.363824  9794 net.cpp:148] Top shape: 24 3 224 224 (3612672)
I0403 19:53:11.363847  9794 net.cpp:148] Top shape: 24 (24)
I0403 19:53:11.363863  9794 net.cpp:156] Memory required for data: 14450784
I0403 19:53:11.363894  9794 layer_factory.hpp:77] Creating layer label_data_1_split
I0403 19:53:11.363925  9794 net.cpp:91] Creating Layer label_data_1_split
I0403 19:53:11.363945  9794 net.cpp:425] label_data_1_split <- label
I0403 19:53:11.363981  9794 net.cpp:399] label_data_1_split -> label_data_1_split_0
I0403 19:53:11.364012  9794 net.cpp:399] label_data_1_split -> label_data_1_split_1
I0403 19:53:11.364035  9794 net.cpp:399] label_data_1_split -> label_data_1_split_2
I0403 19:53:11.364056  9794 net.cpp:399] label_data_1_split -> label_data_1_split_3
I0403 19:53:11.364078  9794 net.cpp:399] label_data_1_split -> label_data_1_split_4
I0403 19:53:11.364099  9794 net.cpp:399] label_data_1_split -> label_data_1_split_5
I0403 19:53:11.364119  9794 net.cpp:399] label_data_1_split -> label_data_1_split_6
I0403 19:53:11.364140  9794 net.cpp:399] label_data_1_split -> label_data_1_split_7
I0403 19:53:11.364161  9794 net.cpp:399] label_data_1_split -> label_data_1_split_8
I0403 19:53:11.364183  9794 net.cpp:399] label_data_1_split -> label_data_1_split_9
I0403 19:53:11.364302  9794 net.cpp:141] Setting up label_data_1_split
I0403 19:53:11.364326  9794 net.cpp:148] Top shape: 24 (24)
I0403 19:53:11.364344  9794 net.cpp:148] Top shape: 24 (24)
I0403 19:53:11.364361  9794 net.cpp:148] Top shape: 24 (24)
I0403 19:53:11.364377  9794 net.cpp:148] Top shape: 24 (24)
I0403 19:53:11.364392  9794 net.cpp:148] Top shape: 24 (24)
I0403 19:53:11.364408  9794 net.cpp:148] Top shape: 24 (24)
I0403 19:53:11.364424  9794 net.cpp:148] Top shape: 24 (24)
I0403 19:53:11.364449  9794 net.cpp:148] Top shape: 24 (24)
I0403 19:53:11.364465  9794 net.cpp:148] Top shape: 24 (24)
I0403 19:53:11.364481  9794 net.cpp:148] Top shape: 24 (24)
I0403 19:53:11.364527  9794 net.cpp:156] Memory required for data: 14451744
I0403 19:53:11.364545  9794 layer_factory.hpp:77] Creating layer conv1/7x7_s2
I0403 19:53:11.364581  9794 net.cpp:91] Creating Layer conv1/7x7_s2
I0403 19:53:11.364600  9794 net.cpp:425] conv1/7x7_s2 <- data
I0403 19:53:11.364621  9794 net.cpp:399] conv1/7x7_s2 -> conv1/7x7_s2
I0403 19:53:11.503185  9794 net.cpp:141] Setting up conv1/7x7_s2
I0403 19:53:11.503262  9794 net.cpp:148] Top shape: 24 64 112 112 (19267584)
I0403 19:53:11.503279  9794 net.cpp:156] Memory required for data: 91522080
I0403 19:53:11.503314  9794 layer_factory.hpp:77] Creating layer conv1/relu_7x7
I0403 19:53:11.503343  9794 net.cpp:91] Creating Layer conv1/relu_7x7
I0403 19:53:11.503363  9794 net.cpp:425] conv1/relu_7x7 <- conv1/7x7_s2
I0403 19:53:11.503384  9794 net.cpp:386] conv1/relu_7x7 -> conv1/7x7_s2 (in-place)
I0403 19:53:11.503651  9794 net.cpp:141] Setting up conv1/relu_7x7
I0403 19:53:11.503679  9794 net.cpp:148] Top shape: 24 64 112 112 (19267584)
I0403 19:53:11.503695  9794 net.cpp:156] Memory required for data: 168592416
I0403 19:53:11.503711  9794 layer_factory.hpp:77] Creating layer pool1/3x3_s2
I0403 19:53:11.503741  9794 net.cpp:91] Creating Layer pool1/3x3_s2
I0403 19:53:11.503759  9794 net.cpp:425] pool1/3x3_s2 <- conv1/7x7_s2
I0403 19:53:11.503778  9794 net.cpp:399] pool1/3x3_s2 -> pool1/3x3_s2
I0403 19:53:11.503862  9794 net.cpp:141] Setting up pool1/3x3_s2
I0403 19:53:11.503887  9794 net.cpp:148] Top shape: 24 64 56 56 (4816896)
I0403 19:53:11.503903  9794 net.cpp:156] Memory required for data: 187860000
I0403 19:53:11.503919  9794 layer_factory.hpp:77] Creating layer pool1/norm1
I0403 19:53:11.503947  9794 net.cpp:91] Creating Layer pool1/norm1
I0403 19:53:11.503964  9794 net.cpp:425] pool1/norm1 <- pool1/3x3_s2
I0403 19:53:11.503983  9794 net.cpp:399] pool1/norm1 -> pool1/norm1
I0403 19:53:11.504287  9794 net.cpp:141] Setting up pool1/norm1
I0403 19:53:11.504314  9794 net.cpp:148] Top shape: 24 64 56 56 (4816896)
I0403 19:53:11.504330  9794 net.cpp:156] Memory required for data: 207127584
I0403 19:53:11.504346  9794 layer_factory.hpp:77] Creating layer conv2/3x3_reduce
I0403 19:53:11.504374  9794 net.cpp:91] Creating Layer conv2/3x3_reduce
I0403 19:53:11.504391  9794 net.cpp:425] conv2/3x3_reduce <- pool1/norm1
I0403 19:53:11.504413  9794 net.cpp:399] conv2/3x3_reduce -> conv2/3x3_reduce
I0403 19:53:11.505816  9794 net.cpp:141] Setting up conv2/3x3_reduce
I0403 19:53:11.505847  9794 net.cpp:148] Top shape: 24 64 56 56 (4816896)
I0403 19:53:11.505862  9794 net.cpp:156] Memory required for data: 226395168
I0403 19:53:11.505884  9794 layer_factory.hpp:77] Creating layer conv2/relu_3x3_reduce
I0403 19:53:11.505903  9794 net.cpp:91] Creating Layer conv2/relu_3x3_reduce
I0403 19:53:11.505919  9794 net.cpp:425] conv2/relu_3x3_reduce <- conv2/3x3_reduce
I0403 19:53:11.505939  9794 net.cpp:386] conv2/relu_3x3_reduce -> conv2/3x3_reduce (in-place)
I0403 19:53:11.506201  9794 net.cpp:141] Setting up conv2/relu_3x3_reduce
I0403 19:53:11.506227  9794 net.cpp:148] Top shape: 24 64 56 56 (4816896)
I0403 19:53:11.506243  9794 net.cpp:156] Memory required for data: 245662752
I0403 19:53:11.506259  9794 layer_factory.hpp:77] Creating layer conv2/3x3
I0403 19:53:11.506283  9794 net.cpp:91] Creating Layer conv2/3x3
I0403 19:53:11.506300  9794 net.cpp:425] conv2/3x3 <- conv2/3x3_reduce
I0403 19:53:11.506324  9794 net.cpp:399] conv2/3x3 -> conv2/3x3
I0403 19:53:11.508628  9794 net.cpp:141] Setting up conv2/3x3
I0403 19:53:11.508659  9794 net.cpp:148] Top shape: 24 192 56 56 (14450688)
I0403 19:53:11.508677  9794 net.cpp:156] Memory required for data: 303465504
I0403 19:53:11.508697  9794 layer_factory.hpp:77] Creating layer conv2/relu_3x3
I0403 19:53:11.508716  9794 net.cpp:91] Creating Layer conv2/relu_3x3
I0403 19:53:11.508733  9794 net.cpp:425] conv2/relu_3x3 <- conv2/3x3
I0403 19:53:11.508752  9794 net.cpp:386] conv2/relu_3x3 -> conv2/3x3 (in-place)
I0403 19:53:11.508926  9794 net.cpp:141] Setting up conv2/relu_3x3
I0403 19:53:11.508952  9794 net.cpp:148] Top shape: 24 192 56 56 (14450688)
I0403 19:53:11.509004  9794 net.cpp:156] Memory required for data: 361268256
I0403 19:53:11.509021  9794 layer_factory.hpp:77] Creating layer conv2/norm2
I0403 19:53:11.509042  9794 net.cpp:91] Creating Layer conv2/norm2
I0403 19:53:11.509062  9794 net.cpp:425] conv2/norm2 <- conv2/3x3
I0403 19:53:11.509078  9794 net.cpp:399] conv2/norm2 -> conv2/norm2
I0403 19:53:11.509404  9794 net.cpp:141] Setting up conv2/norm2
I0403 19:53:11.509440  9794 net.cpp:148] Top shape: 24 192 56 56 (14450688)
I0403 19:53:11.509459  9794 net.cpp:156] Memory required for data: 419071008
I0403 19:53:11.509475  9794 layer_factory.hpp:77] Creating layer pool2/3x3_s2
I0403 19:53:11.509505  9794 net.cpp:91] Creating Layer pool2/3x3_s2
I0403 19:53:11.509521  9794 net.cpp:425] pool2/3x3_s2 <- conv2/norm2
I0403 19:53:11.509538  9794 net.cpp:399] pool2/3x3_s2 -> pool2/3x3_s2
I0403 19:53:11.509595  9794 net.cpp:141] Setting up pool2/3x3_s2
I0403 19:53:11.509619  9794 net.cpp:148] Top shape: 24 192 28 28 (3612672)
I0403 19:53:11.509634  9794 net.cpp:156] Memory required for data: 433521696
I0403 19:53:11.509649  9794 layer_factory.hpp:77] Creating layer pool2/3x3_s2_pool2/3x3_s2_0_split
I0403 19:53:11.509668  9794 net.cpp:91] Creating Layer pool2/3x3_s2_pool2/3x3_s2_0_split
I0403 19:53:11.509685  9794 net.cpp:425] pool2/3x3_s2_pool2/3x3_s2_0_split <- pool2/3x3_s2
I0403 19:53:11.509701  9794 net.cpp:399] pool2/3x3_s2_pool2/3x3_s2_0_split -> pool2/3x3_s2_pool2/3x3_s2_0_split_0
I0403 19:53:11.509721  9794 net.cpp:399] pool2/3x3_s2_pool2/3x3_s2_0_split -> pool2/3x3_s2_pool2/3x3_s2_0_split_1
I0403 19:53:11.509742  9794 net.cpp:399] pool2/3x3_s2_pool2/3x3_s2_0_split -> pool2/3x3_s2_pool2/3x3_s2_0_split_2
I0403 19:53:11.509763  9794 net.cpp:399] pool2/3x3_s2_pool2/3x3_s2_0_split -> pool2/3x3_s2_pool2/3x3_s2_0_split_3
I0403 19:53:11.509836  9794 net.cpp:141] Setting up pool2/3x3_s2_pool2/3x3_s2_0_split
I0403 19:53:11.509860  9794 net.cpp:148] Top shape: 24 192 28 28 (3612672)
I0403 19:53:11.509876  9794 net.cpp:148] Top shape: 24 192 28 28 (3612672)
I0403 19:53:11.509893  9794 net.cpp:148] Top shape: 24 192 28 28 (3612672)
I0403 19:53:11.509909  9794 net.cpp:148] Top shape: 24 192 28 28 (3612672)
I0403 19:53:11.509923  9794 net.cpp:156] Memory required for data: 491324448
I0403 19:53:11.509938  9794 layer_factory.hpp:77] Creating layer inception_3a/1x1
I0403 19:53:11.509960  9794 net.cpp:91] Creating Layer inception_3a/1x1
I0403 19:53:11.509977  9794 net.cpp:425] inception_3a/1x1 <- pool2/3x3_s2_pool2/3x3_s2_0_split_0
I0403 19:53:11.509999  9794 net.cpp:399] inception_3a/1x1 -> inception_3a/1x1
I0403 19:53:11.511531  9794 net.cpp:141] Setting up inception_3a/1x1
I0403 19:53:11.511564  9794 net.cpp:148] Top shape: 24 64 28 28 (1204224)
I0403 19:53:11.511582  9794 net.cpp:156] Memory required for data: 496141344
I0403 19:53:11.511601  9794 layer_factory.hpp:77] Creating layer inception_3a/relu_1x1
I0403 19:53:11.511620  9794 net.cpp:91] Creating Layer inception_3a/relu_1x1
I0403 19:53:11.511637  9794 net.cpp:425] inception_3a/relu_1x1 <- inception_3a/1x1
I0403 19:53:11.511656  9794 net.cpp:386] inception_3a/relu_1x1 -> inception_3a/1x1 (in-place)
I0403 19:53:11.511827  9794 net.cpp:141] Setting up inception_3a/relu_1x1
I0403 19:53:11.511853  9794 net.cpp:148] Top shape: 24 64 28 28 (1204224)
I0403 19:53:11.511868  9794 net.cpp:156] Memory required for data: 500958240
I0403 19:53:11.511883  9794 layer_factory.hpp:77] Creating layer inception_3a/3x3_reduce
I0403 19:53:11.511904  9794 net.cpp:91] Creating Layer inception_3a/3x3_reduce
I0403 19:53:11.511924  9794 net.cpp:425] inception_3a/3x3_reduce <- pool2/3x3_s2_pool2/3x3_s2_0_split_1
I0403 19:53:11.511945  9794 net.cpp:399] inception_3a/3x3_reduce -> inception_3a/3x3_reduce
I0403 19:53:11.513628  9794 net.cpp:141] Setting up inception_3a/3x3_reduce
I0403 19:53:11.513659  9794 net.cpp:148] Top shape: 24 96 28 28 (1806336)
I0403 19:53:11.513674  9794 net.cpp:156] Memory required for data: 508183584
I0403 19:53:11.513700  9794 layer_factory.hpp:77] Creating layer inception_3a/relu_3x3_reduce
I0403 19:53:11.513737  9794 net.cpp:91] Creating Layer inception_3a/relu_3x3_reduce
I0403 19:53:11.513756  9794 net.cpp:425] inception_3a/relu_3x3_reduce <- inception_3a/3x3_reduce
I0403 19:53:11.513774  9794 net.cpp:386] inception_3a/relu_3x3_reduce -> inception_3a/3x3_reduce (in-place)
I0403 19:53:11.513955  9794 net.cpp:141] Setting up inception_3a/relu_3x3_reduce
I0403 19:53:11.513983  9794 net.cpp:148] Top shape: 24 96 28 28 (1806336)
I0403 19:53:11.513999  9794 net.cpp:156] Memory required for data: 515408928
I0403 19:53:11.514015  9794 layer_factory.hpp:77] Creating layer inception_3a/3x3
I0403 19:53:11.514037  9794 net.cpp:91] Creating Layer inception_3a/3x3
I0403 19:53:11.514056  9794 net.cpp:425] inception_3a/3x3 <- inception_3a/3x3_reduce
I0403 19:53:11.514075  9794 net.cpp:399] inception_3a/3x3 -> inception_3a/3x3
I0403 19:53:11.515710  9794 net.cpp:141] Setting up inception_3a/3x3
I0403 19:53:11.515739  9794 net.cpp:148] Top shape: 24 128 28 28 (2408448)
I0403 19:53:11.515755  9794 net.cpp:156] Memory required for data: 525042720
I0403 19:53:11.515774  9794 layer_factory.hpp:77] Creating layer inception_3a/relu_3x3
I0403 19:53:11.515794  9794 net.cpp:91] Creating Layer inception_3a/relu_3x3
I0403 19:53:11.515810  9794 net.cpp:425] inception_3a/relu_3x3 <- inception_3a/3x3
I0403 19:53:11.515828  9794 net.cpp:386] inception_3a/relu_3x3 -> inception_3a/3x3 (in-place)
I0403 19:53:11.516104  9794 net.cpp:141] Setting up inception_3a/relu_3x3
I0403 19:53:11.516131  9794 net.cpp:148] Top shape: 24 128 28 28 (2408448)
I0403 19:53:11.516147  9794 net.cpp:156] Memory required for data: 534676512
I0403 19:53:11.516163  9794 layer_factory.hpp:77] Creating layer inception_3a/5x5_reduce
I0403 19:53:11.516185  9794 net.cpp:91] Creating Layer inception_3a/5x5_reduce
I0403 19:53:11.516203  9794 net.cpp:425] inception_3a/5x5_reduce <- pool2/3x3_s2_pool2/3x3_s2_0_split_2
I0403 19:53:11.516223  9794 net.cpp:399] inception_3a/5x5_reduce -> inception_3a/5x5_reduce
I0403 19:53:11.517180  9794 net.cpp:141] Setting up inception_3a/5x5_reduce
I0403 19:53:11.517209  9794 net.cpp:148] Top shape: 24 16 28 28 (301056)
I0403 19:53:11.517225  9794 net.cpp:156] Memory required for data: 535880736
I0403 19:53:11.517242  9794 layer_factory.hpp:77] Creating layer inception_3a/relu_5x5_reduce
I0403 19:53:11.517262  9794 net.cpp:91] Creating Layer inception_3a/relu_5x5_reduce
I0403 19:53:11.517280  9794 net.cpp:425] inception_3a/relu_5x5_reduce <- inception_3a/5x5_reduce
I0403 19:53:11.517298  9794 net.cpp:386] inception_3a/relu_5x5_reduce -> inception_3a/5x5_reduce (in-place)
I0403 19:53:11.517591  9794 net.cpp:141] Setting up inception_3a/relu_5x5_reduce
I0403 19:53:11.517618  9794 net.cpp:148] Top shape: 24 16 28 28 (301056)
I0403 19:53:11.517634  9794 net.cpp:156] Memory required for data: 537084960
I0403 19:53:11.517650  9794 layer_factory.hpp:77] Creating layer inception_3a/5x5
I0403 19:53:11.517673  9794 net.cpp:91] Creating Layer inception_3a/5x5
I0403 19:53:11.517693  9794 net.cpp:425] inception_3a/5x5 <- inception_3a/5x5_reduce
I0403 19:53:11.517714  9794 net.cpp:399] inception_3a/5x5 -> inception_3a/5x5
I0403 19:53:11.518724  9794 net.cpp:141] Setting up inception_3a/5x5
I0403 19:53:11.518755  9794 net.cpp:148] Top shape: 24 32 28 28 (602112)
I0403 19:53:11.518771  9794 net.cpp:156] Memory required for data: 539493408
I0403 19:53:11.518790  9794 layer_factory.hpp:77] Creating layer inception_3a/relu_5x5
I0403 19:53:11.518808  9794 net.cpp:91] Creating Layer inception_3a/relu_5x5
I0403 19:53:11.518824  9794 net.cpp:425] inception_3a/relu_5x5 <- inception_3a/5x5
I0403 19:53:11.518844  9794 net.cpp:386] inception_3a/relu_5x5 -> inception_3a/5x5 (in-place)
I0403 19:53:11.519022  9794 net.cpp:141] Setting up inception_3a/relu_5x5
I0403 19:53:11.519047  9794 net.cpp:148] Top shape: 24 32 28 28 (602112)
I0403 19:53:11.519062  9794 net.cpp:156] Memory required for data: 541901856
I0403 19:53:11.519078  9794 layer_factory.hpp:77] Creating layer inception_3a/pool
I0403 19:53:11.519096  9794 net.cpp:91] Creating Layer inception_3a/pool
I0403 19:53:11.519112  9794 net.cpp:425] inception_3a/pool <- pool2/3x3_s2_pool2/3x3_s2_0_split_3
I0403 19:53:11.519147  9794 net.cpp:399] inception_3a/pool -> inception_3a/pool
I0403 19:53:11.519208  9794 net.cpp:141] Setting up inception_3a/pool
I0403 19:53:11.519232  9794 net.cpp:148] Top shape: 24 192 28 28 (3612672)
I0403 19:53:11.519246  9794 net.cpp:156] Memory required for data: 556352544
I0403 19:53:11.519261  9794 layer_factory.hpp:77] Creating layer inception_3a/pool_proj
I0403 19:53:11.519295  9794 net.cpp:91] Creating Layer inception_3a/pool_proj
I0403 19:53:11.519314  9794 net.cpp:425] inception_3a/pool_proj <- inception_3a/pool
I0403 19:53:11.519336  9794 net.cpp:399] inception_3a/pool_proj -> inception_3a/pool_proj
I0403 19:53:11.520262  9794 net.cpp:141] Setting up inception_3a/pool_proj
I0403 19:53:11.520289  9794 net.cpp:148] Top shape: 24 32 28 28 (602112)
I0403 19:53:11.520304  9794 net.cpp:156] Memory required for data: 558760992
I0403 19:53:11.520328  9794 layer_factory.hpp:77] Creating layer inception_3a/relu_pool_proj
I0403 19:53:11.520349  9794 net.cpp:91] Creating Layer inception_3a/relu_pool_proj
I0403 19:53:11.520365  9794 net.cpp:425] inception_3a/relu_pool_proj <- inception_3a/pool_proj
I0403 19:53:11.520383  9794 net.cpp:386] inception_3a/relu_pool_proj -> inception_3a/pool_proj (in-place)
I0403 19:53:11.520650  9794 net.cpp:141] Setting up inception_3a/relu_pool_proj
I0403 19:53:11.520676  9794 net.cpp:148] Top shape: 24 32 28 28 (602112)
I0403 19:53:11.520691  9794 net.cpp:156] Memory required for data: 561169440
I0403 19:53:11.520706  9794 layer_factory.hpp:77] Creating layer inception_3a/output
I0403 19:53:11.520723  9794 net.cpp:91] Creating Layer inception_3a/output
I0403 19:53:11.520740  9794 net.cpp:425] inception_3a/output <- inception_3a/1x1
I0403 19:53:11.520756  9794 net.cpp:425] inception_3a/output <- inception_3a/3x3
I0403 19:53:11.520771  9794 net.cpp:425] inception_3a/output <- inception_3a/5x5
I0403 19:53:11.520787  9794 net.cpp:425] inception_3a/output <- inception_3a/pool_proj
I0403 19:53:11.520807  9794 net.cpp:399] inception_3a/output -> inception_3a/output
I0403 19:53:11.520851  9794 net.cpp:141] Setting up inception_3a/output
I0403 19:53:11.520877  9794 net.cpp:148] Top shape: 24 256 28 28 (4816896)
I0403 19:53:11.520894  9794 net.cpp:156] Memory required for data: 580437024
I0403 19:53:11.520908  9794 layer_factory.hpp:77] Creating layer inception_3a/output_inception_3a/output_0_split
I0403 19:53:11.520925  9794 net.cpp:91] Creating Layer inception_3a/output_inception_3a/output_0_split
I0403 19:53:11.520941  9794 net.cpp:425] inception_3a/output_inception_3a/output_0_split <- inception_3a/output
I0403 19:53:11.520957  9794 net.cpp:399] inception_3a/output_inception_3a/output_0_split -> inception_3a/output_inception_3a/output_0_split_0
I0403 19:53:11.520979  9794 net.cpp:399] inception_3a/output_inception_3a/output_0_split -> inception_3a/output_inception_3a/output_0_split_1
I0403 19:53:11.521003  9794 net.cpp:399] inception_3a/output_inception_3a/output_0_split -> inception_3a/output_inception_3a/output_0_split_2
I0403 19:53:11.521023  9794 net.cpp:399] inception_3a/output_inception_3a/output_0_split -> inception_3a/output_inception_3a/output_0_split_3
I0403 19:53:11.521093  9794 net.cpp:141] Setting up inception_3a/output_inception_3a/output_0_split
I0403 19:53:11.521116  9794 net.cpp:148] Top shape: 24 256 28 28 (4816896)
I0403 19:53:11.521133  9794 net.cpp:148] Top shape: 24 256 28 28 (4816896)
I0403 19:53:11.521149  9794 net.cpp:148] Top shape: 24 256 28 28 (4816896)
I0403 19:53:11.521165  9794 net.cpp:148] Top shape: 24 256 28 28 (4816896)
I0403 19:53:11.521178  9794 net.cpp:156] Memory required for data: 657507360
I0403 19:53:11.521193  9794 layer_factory.hpp:77] Creating layer inception_3b/1x1
I0403 19:53:11.521214  9794 net.cpp:91] Creating Layer inception_3b/1x1
I0403 19:53:11.521232  9794 net.cpp:425] inception_3b/1x1 <- inception_3a/output_inception_3a/output_0_split_0
I0403 19:53:11.521253  9794 net.cpp:399] inception_3b/1x1 -> inception_3b/1x1
I0403 19:53:11.522354  9794 net.cpp:141] Setting up inception_3b/1x1
I0403 19:53:11.522395  9794 net.cpp:148] Top shape: 24 128 28 28 (2408448)
I0403 19:53:11.522413  9794 net.cpp:156] Memory required for data: 667141152
I0403 19:53:11.522439  9794 layer_factory.hpp:77] Creating layer inception_3b/relu_1x1
I0403 19:53:11.522461  9794 net.cpp:91] Creating Layer inception_3b/relu_1x1
I0403 19:53:11.522477  9794 net.cpp:425] inception_3b/relu_1x1 <- inception_3b/1x1
I0403 19:53:11.522495  9794 net.cpp:386] inception_3b/relu_1x1 -> inception_3b/1x1 (in-place)
I0403 19:53:11.522671  9794 net.cpp:141] Setting up inception_3b/relu_1x1
I0403 19:53:11.522696  9794 net.cpp:148] Top shape: 24 128 28 28 (2408448)
I0403 19:53:11.522711  9794 net.cpp:156] Memory required for data: 676774944
I0403 19:53:11.522725  9794 layer_factory.hpp:77] Creating layer inception_3b/3x3_reduce
I0403 19:53:11.522748  9794 net.cpp:91] Creating Layer inception_3b/3x3_reduce
I0403 19:53:11.522764  9794 net.cpp:425] inception_3b/3x3_reduce <- inception_3a/output_inception_3a/output_0_split_1
I0403 19:53:11.522786  9794 net.cpp:399] inception_3b/3x3_reduce -> inception_3b/3x3_reduce
I0403 19:53:11.523919  9794 net.cpp:141] Setting up inception_3b/3x3_reduce
I0403 19:53:11.523949  9794 net.cpp:148] Top shape: 24 128 28 28 (2408448)
I0403 19:53:11.523972  9794 net.cpp:156] Memory required for data: 686408736
I0403 19:53:11.523989  9794 layer_factory.hpp:77] Creating layer inception_3b/relu_3x3_reduce
I0403 19:53:11.524006  9794 net.cpp:91] Creating Layer inception_3b/relu_3x3_reduce
I0403 19:53:11.524021  9794 net.cpp:425] inception_3b/relu_3x3_reduce <- inception_3b/3x3_reduce
I0403 19:53:11.524041  9794 net.cpp:386] inception_3b/relu_3x3_reduce -> inception_3b/3x3_reduce (in-place)
I0403 19:53:11.524209  9794 net.cpp:141] Setting up inception_3b/relu_3x3_reduce
I0403 19:53:11.524233  9794 net.cpp:148] Top shape: 24 128 28 28 (2408448)
I0403 19:53:11.524248  9794 net.cpp:156] Memory required for data: 696042528
I0403 19:53:11.524262  9794 layer_factory.hpp:77] Creating layer inception_3b/3x3
I0403 19:53:11.524288  9794 net.cpp:91] Creating Layer inception_3b/3x3
I0403 19:53:11.524307  9794 net.cpp:425] inception_3b/3x3 <- inception_3b/3x3_reduce
I0403 19:53:11.524327  9794 net.cpp:399] inception_3b/3x3 -> inception_3b/3x3
I0403 19:53:11.527138  9794 net.cpp:141] Setting up inception_3b/3x3
I0403 19:53:11.527168  9794 net.cpp:148] Top shape: 24 192 28 28 (3612672)
I0403 19:53:11.527184  9794 net.cpp:156] Memory required for data: 710493216
I0403 19:53:11.527202  9794 layer_factory.hpp:77] Creating layer inception_3b/relu_3x3
I0403 19:53:11.527220  9794 net.cpp:91] Creating Layer inception_3b/relu_3x3
I0403 19:53:11.527240  9794 net.cpp:425] inception_3b/relu_3x3 <- inception_3b/3x3
I0403 19:53:11.527258  9794 net.cpp:386] inception_3b/relu_3x3 -> inception_3b/3x3 (in-place)
I0403 19:53:11.527526  9794 net.cpp:141] Setting up inception_3b/relu_3x3
I0403 19:53:11.527554  9794 net.cpp:148] Top shape: 24 192 28 28 (3612672)
I0403 19:53:11.527568  9794 net.cpp:156] Memory required for data: 724943904
I0403 19:53:11.527581  9794 layer_factory.hpp:77] Creating layer inception_3b/5x5_reduce
I0403 19:53:11.527604  9794 net.cpp:91] Creating Layer inception_3b/5x5_reduce
I0403 19:53:11.527622  9794 net.cpp:425] inception_3b/5x5_reduce <- inception_3a/output_inception_3a/output_0_split_2
I0403 19:53:11.527643  9794 net.cpp:399] inception_3b/5x5_reduce -> inception_3b/5x5_reduce
I0403 19:53:11.528589  9794 net.cpp:141] Setting up inception_3b/5x5_reduce
I0403 19:53:11.528616  9794 net.cpp:148] Top shape: 24 32 28 28 (602112)
I0403 19:53:11.528632  9794 net.cpp:156] Memory required for data: 727352352
I0403 19:53:11.528650  9794 layer_factory.hpp:77] Creating layer inception_3b/relu_5x5_reduce
I0403 19:53:11.528667  9794 net.cpp:91] Creating Layer inception_3b/relu_5x5_reduce
I0403 19:53:11.528683  9794 net.cpp:425] inception_3b/relu_5x5_reduce <- inception_3b/5x5_reduce
I0403 19:53:11.528703  9794 net.cpp:386] inception_3b/relu_5x5_reduce -> inception_3b/5x5_reduce (in-place)
I0403 19:53:11.528870  9794 net.cpp:141] Setting up inception_3b/relu_5x5_reduce
I0403 19:53:11.528906  9794 net.cpp:148] Top shape: 24 32 28 28 (602112)
I0403 19:53:11.528923  9794 net.cpp:156] Memory required for data: 729760800
I0403 19:53:11.528937  9794 layer_factory.hpp:77] Creating layer inception_3b/5x5
I0403 19:53:11.528959  9794 net.cpp:91] Creating Layer inception_3b/5x5
I0403 19:53:11.528978  9794 net.cpp:425] inception_3b/5x5 <- inception_3b/5x5_reduce
I0403 19:53:11.528998  9794 net.cpp:399] inception_3b/5x5 -> inception_3b/5x5
I0403 19:53:11.530946  9794 net.cpp:141] Setting up inception_3b/5x5
I0403 19:53:11.530977  9794 net.cpp:148] Top shape: 24 96 28 28 (1806336)
I0403 19:53:11.530993  9794 net.cpp:156] Memory required for data: 736986144
I0403 19:53:11.531011  9794 layer_factory.hpp:77] Creating layer inception_3b/relu_5x5
I0403 19:53:11.531029  9794 net.cpp:91] Creating Layer inception_3b/relu_5x5
I0403 19:53:11.531045  9794 net.cpp:425] inception_3b/relu_5x5 <- inception_3b/5x5
I0403 19:53:11.531065  9794 net.cpp:386] inception_3b/relu_5x5 -> inception_3b/5x5 (in-place)
I0403 19:53:11.531250  9794 net.cpp:141] Setting up inception_3b/relu_5x5
I0403 19:53:11.531275  9794 net.cpp:148] Top shape: 24 96 28 28 (1806336)
I0403 19:53:11.531289  9794 net.cpp:156] Memory required for data: 744211488
I0403 19:53:11.531304  9794 layer_factory.hpp:77] Creating layer inception_3b/pool
I0403 19:53:11.531322  9794 net.cpp:91] Creating Layer inception_3b/pool
I0403 19:53:11.531337  9794 net.cpp:425] inception_3b/pool <- inception_3a/output_inception_3a/output_0_split_3
I0403 19:53:11.531354  9794 net.cpp:399] inception_3b/pool -> inception_3b/pool
I0403 19:53:11.531409  9794 net.cpp:141] Setting up inception_3b/pool
I0403 19:53:11.531436  9794 net.cpp:148] Top shape: 24 256 28 28 (4816896)
I0403 19:53:11.531453  9794 net.cpp:156] Memory required for data: 763479072
I0403 19:53:11.531467  9794 layer_factory.hpp:77] Creating layer inception_3b/pool_proj
I0403 19:53:11.531491  9794 net.cpp:91] Creating Layer inception_3b/pool_proj
I0403 19:53:11.531508  9794 net.cpp:425] inception_3b/pool_proj <- inception_3b/pool
I0403 19:53:11.531527  9794 net.cpp:399] inception_3b/pool_proj -> inception_3b/pool_proj
I0403 19:53:11.532547  9794 net.cpp:141] Setting up inception_3b/pool_proj
I0403 19:53:11.532575  9794 net.cpp:148] Top shape: 24 64 28 28 (1204224)
I0403 19:53:11.532598  9794 net.cpp:156] Memory required for data: 768295968
I0403 19:53:11.532615  9794 layer_factory.hpp:77] Creating layer inception_3b/relu_pool_proj
I0403 19:53:11.532636  9794 net.cpp:91] Creating Layer inception_3b/relu_pool_proj
I0403 19:53:11.532654  9794 net.cpp:425] inception_3b/relu_pool_proj <- inception_3b/pool_proj
I0403 19:53:11.532670  9794 net.cpp:386] inception_3b/relu_pool_proj -> inception_3b/pool_proj (in-place)
I0403 19:53:11.533046  9794 net.cpp:141] Setting up inception_3b/relu_pool_proj
I0403 19:53:11.533072  9794 net.cpp:148] Top shape: 24 64 28 28 (1204224)
I0403 19:53:11.533087  9794 net.cpp:156] Memory required for data: 773112864
I0403 19:53:11.533102  9794 layer_factory.hpp:77] Creating layer inception_3b/output
I0403 19:53:11.533120  9794 net.cpp:91] Creating Layer inception_3b/output
I0403 19:53:11.533136  9794 net.cpp:425] inception_3b/output <- inception_3b/1x1
I0403 19:53:11.533154  9794 net.cpp:425] inception_3b/output <- inception_3b/3x3
I0403 19:53:11.533169  9794 net.cpp:425] inception_3b/output <- inception_3b/5x5
I0403 19:53:11.533187  9794 net.cpp:425] inception_3b/output <- inception_3b/pool_proj
I0403 19:53:11.533205  9794 net.cpp:399] inception_3b/output -> inception_3b/output
I0403 19:53:11.533246  9794 net.cpp:141] Setting up inception_3b/output
I0403 19:53:11.533270  9794 net.cpp:148] Top shape: 24 480 28 28 (9031680)
I0403 19:53:11.533287  9794 net.cpp:156] Memory required for data: 809239584
I0403 19:53:11.533301  9794 layer_factory.hpp:77] Creating layer pool3/3x3_s2
I0403 19:53:11.533318  9794 net.cpp:91] Creating Layer pool3/3x3_s2
I0403 19:53:11.533334  9794 net.cpp:425] pool3/3x3_s2 <- inception_3b/output
I0403 19:53:11.533352  9794 net.cpp:399] pool3/3x3_s2 -> pool3/3x3_s2
I0403 19:53:11.533423  9794 net.cpp:141] Setting up pool3/3x3_s2
I0403 19:53:11.533452  9794 net.cpp:148] Top shape: 24 480 14 14 (2257920)
I0403 19:53:11.533469  9794 net.cpp:156] Memory required for data: 818271264
I0403 19:53:11.533484  9794 layer_factory.hpp:77] Creating layer pool3/3x3_s2_pool3/3x3_s2_0_split
I0403 19:53:11.533501  9794 net.cpp:91] Creating Layer pool3/3x3_s2_pool3/3x3_s2_0_split
I0403 19:53:11.533516  9794 net.cpp:425] pool3/3x3_s2_pool3/3x3_s2_0_split <- pool3/3x3_s2
I0403 19:53:11.533532  9794 net.cpp:399] pool3/3x3_s2_pool3/3x3_s2_0_split -> pool3/3x3_s2_pool3/3x3_s2_0_split_0
I0403 19:53:11.533551  9794 net.cpp:399] pool3/3x3_s2_pool3/3x3_s2_0_split -> pool3/3x3_s2_pool3/3x3_s2_0_split_1
I0403 19:53:11.533573  9794 net.cpp:399] pool3/3x3_s2_pool3/3x3_s2_0_split -> pool3/3x3_s2_pool3/3x3_s2_0_split_2
I0403 19:53:11.533594  9794 net.cpp:399] pool3/3x3_s2_pool3/3x3_s2_0_split -> pool3/3x3_s2_pool3/3x3_s2_0_split_3
I0403 19:53:11.533669  9794 net.cpp:141] Setting up pool3/3x3_s2_pool3/3x3_s2_0_split
I0403 19:53:11.533691  9794 net.cpp:148] Top shape: 24 480 14 14 (2257920)
I0403 19:53:11.533709  9794 net.cpp:148] Top shape: 24 480 14 14 (2257920)
I0403 19:53:11.533723  9794 net.cpp:148] Top shape: 24 480 14 14 (2257920)
I0403 19:53:11.533740  9794 net.cpp:148] Top shape: 24 480 14 14 (2257920)
I0403 19:53:11.533753  9794 net.cpp:156] Memory required for data: 854397984
I0403 19:53:11.533767  9794 layer_factory.hpp:77] Creating layer inception_4a/1x1
I0403 19:53:11.533789  9794 net.cpp:91] Creating Layer inception_4a/1x1
I0403 19:53:11.533807  9794 net.cpp:425] inception_4a/1x1 <- pool3/3x3_s2_pool3/3x3_s2_0_split_0
I0403 19:53:11.533826  9794 net.cpp:399] inception_4a/1x1 -> inception_4a/1x1
I0403 19:53:11.535332  9794 net.cpp:141] Setting up inception_4a/1x1
I0403 19:53:11.535362  9794 net.cpp:148] Top shape: 24 192 14 14 (903168)
I0403 19:53:11.535377  9794 net.cpp:156] Memory required for data: 858010656
I0403 19:53:11.535394  9794 layer_factory.hpp:77] Creating layer inception_4a/relu_1x1
I0403 19:53:11.535414  9794 net.cpp:91] Creating Layer inception_4a/relu_1x1
I0403 19:53:11.535436  9794 net.cpp:425] inception_4a/relu_1x1 <- inception_4a/1x1
I0403 19:53:11.535456  9794 net.cpp:386] inception_4a/relu_1x1 -> inception_4a/1x1 (in-place)
I0403 19:53:11.535624  9794 net.cpp:141] Setting up inception_4a/relu_1x1
I0403 19:53:11.535650  9794 net.cpp:148] Top shape: 24 192 14 14 (903168)
I0403 19:53:11.535665  9794 net.cpp:156] Memory required for data: 861623328
I0403 19:53:11.535681  9794 layer_factory.hpp:77] Creating layer inception_4a/3x3_reduce
I0403 19:53:11.535702  9794 net.cpp:91] Creating Layer inception_4a/3x3_reduce
I0403 19:53:11.535719  9794 net.cpp:425] inception_4a/3x3_reduce <- pool3/3x3_s2_pool3/3x3_s2_0_split_1
I0403 19:53:11.535740  9794 net.cpp:399] inception_4a/3x3_reduce -> inception_4a/3x3_reduce
I0403 19:53:11.536967  9794 net.cpp:141] Setting up inception_4a/3x3_reduce
I0403 19:53:11.536993  9794 net.cpp:148] Top shape: 24 96 14 14 (451584)
I0403 19:53:11.537009  9794 net.cpp:156] Memory required for data: 863429664
I0403 19:53:11.537034  9794 layer_factory.hpp:77] Creating layer inception_4a/relu_3x3_reduce
I0403 19:53:11.537057  9794 net.cpp:91] Creating Layer inception_4a/relu_3x3_reduce
I0403 19:53:11.537075  9794 net.cpp:425] inception_4a/relu_3x3_reduce <- inception_4a/3x3_reduce
I0403 19:53:11.537091  9794 net.cpp:386] inception_4a/relu_3x3_reduce -> inception_4a/3x3_reduce (in-place)
I0403 19:53:11.537263  9794 net.cpp:141] Setting up inception_4a/relu_3x3_reduce
I0403 19:53:11.537291  9794 net.cpp:148] Top shape: 24 96 14 14 (451584)
I0403 19:53:11.537307  9794 net.cpp:156] Memory required for data: 865236000
I0403 19:53:11.537322  9794 layer_factory.hpp:77] Creating layer inception_4a/3x3
I0403 19:53:11.537343  9794 net.cpp:91] Creating Layer inception_4a/3x3
I0403 19:53:11.537361  9794 net.cpp:425] inception_4a/3x3 <- inception_4a/3x3_reduce
I0403 19:53:11.537381  9794 net.cpp:399] inception_4a/3x3 -> inception_4a/3x3
I0403 19:53:11.539978  9794 net.cpp:141] Setting up inception_4a/3x3
I0403 19:53:11.540009  9794 net.cpp:148] Top shape: 24 208 14 14 (978432)
I0403 19:53:11.540027  9794 net.cpp:156] Memory required for data: 869149728
I0403 19:53:11.540045  9794 layer_factory.hpp:77] Creating layer inception_4a/relu_3x3
I0403 19:53:11.540063  9794 net.cpp:91] Creating Layer inception_4a/relu_3x3
I0403 19:53:11.540079  9794 net.cpp:425] inception_4a/relu_3x3 <- inception_4a/3x3
I0403 19:53:11.540098  9794 net.cpp:386] inception_4a/relu_3x3 -> inception_4a/3x3 (in-place)
I0403 19:53:11.540370  9794 net.cpp:141] Setting up inception_4a/relu_3x3
I0403 19:53:11.540398  9794 net.cpp:148] Top shape: 24 208 14 14 (978432)
I0403 19:53:11.540415  9794 net.cpp:156] Memory required for data: 873063456
I0403 19:53:11.540432  9794 layer_factory.hpp:77] Creating layer inception_4a/5x5_reduce
I0403 19:53:11.540457  9794 net.cpp:91] Creating Layer inception_4a/5x5_reduce
I0403 19:53:11.540474  9794 net.cpp:425] inception_4a/5x5_reduce <- pool3/3x3_s2_pool3/3x3_s2_0_split_2
I0403 19:53:11.540495  9794 net.cpp:399] inception_4a/5x5_reduce -> inception_4a/5x5_reduce
I0403 19:53:11.541538  9794 net.cpp:141] Setting up inception_4a/5x5_reduce
I0403 19:53:11.541568  9794 net.cpp:148] Top shape: 24 16 14 14 (75264)
I0403 19:53:11.541582  9794 net.cpp:156] Memory required for data: 873364512
I0403 19:53:11.541600  9794 layer_factory.hpp:77] Creating layer inception_4a/relu_5x5_reduce
I0403 19:53:11.541618  9794 net.cpp:91] Creating Layer inception_4a/relu_5x5_reduce
I0403 19:53:11.541646  9794 net.cpp:425] inception_4a/relu_5x5_reduce <- inception_4a/5x5_reduce
I0403 19:53:11.541666  9794 net.cpp:386] inception_4a/relu_5x5_reduce -> inception_4a/5x5_reduce (in-place)
I0403 19:53:11.541833  9794 net.cpp:141] Setting up inception_4a/relu_5x5_reduce
I0403 19:53:11.541858  9794 net.cpp:148] Top shape: 24 16 14 14 (75264)
I0403 19:53:11.541872  9794 net.cpp:156] Memory required for data: 873665568
I0403 19:53:11.541887  9794 layer_factory.hpp:77] Creating layer inception_4a/5x5
I0403 19:53:11.541906  9794 net.cpp:91] Creating Layer inception_4a/5x5
I0403 19:53:11.541924  9794 net.cpp:425] inception_4a/5x5 <- inception_4a/5x5_reduce
I0403 19:53:11.541945  9794 net.cpp:399] inception_4a/5x5 -> inception_4a/5x5
I0403 19:53:11.542974  9794 net.cpp:141] Setting up inception_4a/5x5
I0403 19:53:11.543001  9794 net.cpp:148] Top shape: 24 48 14 14 (225792)
I0403 19:53:11.543015  9794 net.cpp:156] Memory required for data: 874568736
I0403 19:53:11.543033  9794 layer_factory.hpp:77] Creating layer inception_4a/relu_5x5
I0403 19:53:11.543052  9794 net.cpp:91] Creating Layer inception_4a/relu_5x5
I0403 19:53:11.543069  9794 net.cpp:425] inception_4a/relu_5x5 <- inception_4a/5x5
I0403 19:53:11.543087  9794 net.cpp:386] inception_4a/relu_5x5 -> inception_4a/5x5 (in-place)
I0403 19:53:11.543256  9794 net.cpp:141] Setting up inception_4a/relu_5x5
I0403 19:53:11.543282  9794 net.cpp:148] Top shape: 24 48 14 14 (225792)
I0403 19:53:11.543294  9794 net.cpp:156] Memory required for data: 875471904
I0403 19:53:11.543315  9794 layer_factory.hpp:77] Creating layer inception_4a/pool
I0403 19:53:11.543339  9794 net.cpp:91] Creating Layer inception_4a/pool
I0403 19:53:11.543355  9794 net.cpp:425] inception_4a/pool <- pool3/3x3_s2_pool3/3x3_s2_0_split_3
I0403 19:53:11.543373  9794 net.cpp:399] inception_4a/pool -> inception_4a/pool
I0403 19:53:11.543437  9794 net.cpp:141] Setting up inception_4a/pool
I0403 19:53:11.543462  9794 net.cpp:148] Top shape: 24 480 14 14 (2257920)
I0403 19:53:11.543476  9794 net.cpp:156] Memory required for data: 884503584
I0403 19:53:11.543489  9794 layer_factory.hpp:77] Creating layer inception_4a/pool_proj
I0403 19:53:11.543510  9794 net.cpp:91] Creating Layer inception_4a/pool_proj
I0403 19:53:11.543529  9794 net.cpp:425] inception_4a/pool_proj <- inception_4a/pool
I0403 19:53:11.543548  9794 net.cpp:399] inception_4a/pool_proj -> inception_4a/pool_proj
I0403 19:53:11.544648  9794 net.cpp:141] Setting up inception_4a/pool_proj
I0403 19:53:11.544677  9794 net.cpp:148] Top shape: 24 64 14 14 (301056)
I0403 19:53:11.544706  9794 net.cpp:156] Memory required for data: 885707808
I0403 19:53:11.544724  9794 layer_factory.hpp:77] Creating layer inception_4a/relu_pool_proj
I0403 19:53:11.544745  9794 net.cpp:91] Creating Layer inception_4a/relu_pool_proj
I0403 19:53:11.544762  9794 net.cpp:425] inception_4a/relu_pool_proj <- inception_4a/pool_proj
I0403 19:53:11.544780  9794 net.cpp:386] inception_4a/relu_pool_proj -> inception_4a/pool_proj (in-place)
I0403 19:53:11.545047  9794 net.cpp:141] Setting up inception_4a/relu_pool_proj
I0403 19:53:11.545071  9794 net.cpp:148] Top shape: 24 64 14 14 (301056)
I0403 19:53:11.545086  9794 net.cpp:156] Memory required for data: 886912032
I0403 19:53:11.545101  9794 layer_factory.hpp:77] Creating layer inception_4a/output
I0403 19:53:11.545120  9794 net.cpp:91] Creating Layer inception_4a/output
I0403 19:53:11.545135  9794 net.cpp:425] inception_4a/output <- inception_4a/1x1
I0403 19:53:11.545152  9794 net.cpp:425] inception_4a/output <- inception_4a/3x3
I0403 19:53:11.545178  9794 net.cpp:425] inception_4a/output <- inception_4a/5x5
I0403 19:53:11.545194  9794 net.cpp:425] inception_4a/output <- inception_4a/pool_proj
I0403 19:53:11.545212  9794 net.cpp:399] inception_4a/output -> inception_4a/output
I0403 19:53:11.545255  9794 net.cpp:141] Setting up inception_4a/output
I0403 19:53:11.545276  9794 net.cpp:148] Top shape: 24 512 14 14 (2408448)
I0403 19:53:11.545291  9794 net.cpp:156] Memory required for data: 896545824
I0403 19:53:11.545305  9794 layer_factory.hpp:77] Creating layer inception_4a/output_inception_4a/output_0_split
I0403 19:53:11.545321  9794 net.cpp:91] Creating Layer inception_4a/output_inception_4a/output_0_split
I0403 19:53:11.545336  9794 net.cpp:425] inception_4a/output_inception_4a/output_0_split <- inception_4a/output
I0403 19:53:11.545354  9794 net.cpp:399] inception_4a/output_inception_4a/output_0_split -> inception_4a/output_inception_4a/output_0_split_0
I0403 19:53:11.545375  9794 net.cpp:399] inception_4a/output_inception_4a/output_0_split -> inception_4a/output_inception_4a/output_0_split_1
I0403 19:53:11.545395  9794 net.cpp:399] inception_4a/output_inception_4a/output_0_split -> inception_4a/output_inception_4a/output_0_split_2
I0403 19:53:11.545415  9794 net.cpp:399] inception_4a/output_inception_4a/output_0_split -> inception_4a/output_inception_4a/output_0_split_3
I0403 19:53:11.545439  9794 net.cpp:399] inception_4a/output_inception_4a/output_0_split -> inception_4a/output_inception_4a/output_0_split_4
I0403 19:53:11.545527  9794 net.cpp:141] Setting up inception_4a/output_inception_4a/output_0_split
I0403 19:53:11.545550  9794 net.cpp:148] Top shape: 24 512 14 14 (2408448)
I0403 19:53:11.545567  9794 net.cpp:148] Top shape: 24 512 14 14 (2408448)
I0403 19:53:11.545581  9794 net.cpp:148] Top shape: 24 512 14 14 (2408448)
I0403 19:53:11.545595  9794 net.cpp:148] Top shape: 24 512 14 14 (2408448)
I0403 19:53:11.545611  9794 net.cpp:148] Top shape: 24 512 14 14 (2408448)
I0403 19:53:11.545624  9794 net.cpp:156] Memory required for data: 944714784
I0403 19:53:11.545639  9794 layer_factory.hpp:77] Creating layer loss1/ave_pool
I0403 19:53:11.545655  9794 net.cpp:91] Creating Layer loss1/ave_pool
I0403 19:53:11.545671  9794 net.cpp:425] loss1/ave_pool <- inception_4a/output_inception_4a/output_0_split_0
I0403 19:53:11.545691  9794 net.cpp:399] loss1/ave_pool -> loss1/ave_pool
I0403 19:53:11.545887  9794 net.cpp:141] Setting up loss1/ave_pool
I0403 19:53:11.545912  9794 net.cpp:148] Top shape: 24 512 4 4 (196608)
I0403 19:53:11.545928  9794 net.cpp:156] Memory required for data: 945501216
I0403 19:53:11.545943  9794 layer_factory.hpp:77] Creating layer loss1/conv
I0403 19:53:11.545964  9794 net.cpp:91] Creating Layer loss1/conv
I0403 19:53:11.545980  9794 net.cpp:425] loss1/conv <- loss1/ave_pool
I0403 19:53:11.546000  9794 net.cpp:399] loss1/conv -> loss1/conv
I0403 19:53:11.547332  9794 net.cpp:141] Setting up loss1/conv
I0403 19:53:11.547360  9794 net.cpp:148] Top shape: 24 128 4 4 (49152)
I0403 19:53:11.547376  9794 net.cpp:156] Memory required for data: 945697824
I0403 19:53:11.547408  9794 layer_factory.hpp:77] Creating layer loss1/relu_conv
I0403 19:53:11.547430  9794 net.cpp:91] Creating Layer loss1/relu_conv
I0403 19:53:11.547447  9794 net.cpp:425] loss1/relu_conv <- loss1/conv
I0403 19:53:11.547466  9794 net.cpp:386] loss1/relu_conv -> loss1/conv (in-place)
I0403 19:53:11.547734  9794 net.cpp:141] Setting up loss1/relu_conv
I0403 19:53:11.547762  9794 net.cpp:148] Top shape: 24 128 4 4 (49152)
I0403 19:53:11.547777  9794 net.cpp:156] Memory required for data: 945894432
I0403 19:53:11.547793  9794 layer_factory.hpp:77] Creating layer loss1/fc
I0403 19:53:11.547817  9794 net.cpp:91] Creating Layer loss1/fc
I0403 19:53:11.547834  9794 net.cpp:425] loss1/fc <- loss1/conv
I0403 19:53:11.547854  9794 net.cpp:399] loss1/fc -> loss1/fc
I0403 19:53:11.564726  9794 net.cpp:141] Setting up loss1/fc
I0403 19:53:11.564757  9794 net.cpp:148] Top shape: 24 1024 (24576)
I0403 19:53:11.564774  9794 net.cpp:156] Memory required for data: 945992736
I0403 19:53:11.564790  9794 layer_factory.hpp:77] Creating layer loss1/relu_fc
I0403 19:53:11.564810  9794 net.cpp:91] Creating Layer loss1/relu_fc
I0403 19:53:11.564826  9794 net.cpp:425] loss1/relu_fc <- loss1/fc
I0403 19:53:11.564843  9794 net.cpp:386] loss1/relu_fc -> loss1/fc (in-place)
I0403 19:53:11.565018  9794 net.cpp:141] Setting up loss1/relu_fc
I0403 19:53:11.565042  9794 net.cpp:148] Top shape: 24 1024 (24576)
I0403 19:53:11.565057  9794 net.cpp:156] Memory required for data: 946091040
I0403 19:53:11.565070  9794 layer_factory.hpp:77] Creating layer loss1/drop_fc
I0403 19:53:11.565095  9794 net.cpp:91] Creating Layer loss1/drop_fc
I0403 19:53:11.565114  9794 net.cpp:425] loss1/drop_fc <- loss1/fc
I0403 19:53:11.565132  9794 net.cpp:386] loss1/drop_fc -> loss1/fc (in-place)
I0403 19:53:11.565183  9794 net.cpp:141] Setting up loss1/drop_fc
I0403 19:53:11.565207  9794 net.cpp:148] Top shape: 24 1024 (24576)
I0403 19:53:11.565220  9794 net.cpp:156] Memory required for data: 946189344
I0403 19:53:11.565234  9794 layer_factory.hpp:77] Creating layer loss1/classifier_plantvillage
I0403 19:53:11.565260  9794 net.cpp:91] Creating Layer loss1/classifier_plantvillage
I0403 19:53:11.565277  9794 net.cpp:425] loss1/classifier_plantvillage <- loss1/fc
I0403 19:53:11.565295  9794 net.cpp:399] loss1/classifier_plantvillage -> loss1/classifier_plantvillage
I0403 19:53:11.566170  9794 net.cpp:141] Setting up loss1/classifier_plantvillage
I0403 19:53:11.566198  9794 net.cpp:148] Top shape: 24 38 (912)
I0403 19:53:11.566215  9794 net.cpp:156] Memory required for data: 946192992
I0403 19:53:11.566231  9794 layer_factory.hpp:77] Creating layer loss1/classifier_plantvillage_loss1/classifier_plantvillage_0_split
I0403 19:53:11.566251  9794 net.cpp:91] Creating Layer loss1/classifier_plantvillage_loss1/classifier_plantvillage_0_split
I0403 19:53:11.566267  9794 net.cpp:425] loss1/classifier_plantvillage_loss1/classifier_plantvillage_0_split <- loss1/classifier_plantvillage
I0403 19:53:11.566285  9794 net.cpp:399] loss1/classifier_plantvillage_loss1/classifier_plantvillage_0_split -> loss1/classifier_plantvillage_loss1/classifier_plantvillage_0_split_0
I0403 19:53:11.566308  9794 net.cpp:399] loss1/classifier_plantvillage_loss1/classifier_plantvillage_0_split -> loss1/classifier_plantvillage_loss1/classifier_plantvillage_0_split_1
I0403 19:53:11.566329  9794 net.cpp:399] loss1/classifier_plantvillage_loss1/classifier_plantvillage_0_split -> loss1/classifier_plantvillage_loss1/classifier_plantvillage_0_split_2
I0403 19:53:11.566392  9794 net.cpp:141] Setting up loss1/classifier_plantvillage_loss1/classifier_plantvillage_0_split
I0403 19:53:11.566416  9794 net.cpp:148] Top shape: 24 38 (912)
I0403 19:53:11.566437  9794 net.cpp:148] Top shape: 24 38 (912)
I0403 19:53:11.566452  9794 net.cpp:148] Top shape: 24 38 (912)
I0403 19:53:11.566467  9794 net.cpp:156] Memory required for data: 946203936
I0403 19:53:11.566479  9794 layer_factory.hpp:77] Creating layer inception_4b/1x1
I0403 19:53:11.566500  9794 net.cpp:91] Creating Layer inception_4b/1x1
I0403 19:53:11.566531  9794 net.cpp:425] inception_4b/1x1 <- inception_4a/output_inception_4a/output_0_split_1
I0403 19:53:11.566552  9794 net.cpp:399] inception_4b/1x1 -> inception_4b/1x1
I0403 19:53:11.568171  9794 net.cpp:141] Setting up inception_4b/1x1
I0403 19:53:11.568202  9794 net.cpp:148] Top shape: 24 160 14 14 (752640)
I0403 19:53:11.568217  9794 net.cpp:156] Memory required for data: 949214496
I0403 19:53:11.568234  9794 layer_factory.hpp:77] Creating layer inception_4b/relu_1x1
I0403 19:53:11.568251  9794 net.cpp:91] Creating Layer inception_4b/relu_1x1
I0403 19:53:11.568267  9794 net.cpp:425] inception_4b/relu_1x1 <- inception_4b/1x1
I0403 19:53:11.568287  9794 net.cpp:386] inception_4b/relu_1x1 -> inception_4b/1x1 (in-place)
I0403 19:53:11.568467  9794 net.cpp:141] Setting up inception_4b/relu_1x1
I0403 19:53:11.568493  9794 net.cpp:148] Top shape: 24 160 14 14 (752640)
I0403 19:53:11.568508  9794 net.cpp:156] Memory required for data: 952225056
I0403 19:53:11.568523  9794 layer_factory.hpp:77] Creating layer inception_4b/3x3_reduce
I0403 19:53:11.568548  9794 net.cpp:91] Creating Layer inception_4b/3x3_reduce
I0403 19:53:11.568567  9794 net.cpp:425] inception_4b/3x3_reduce <- inception_4a/output_inception_4a/output_0_split_2
I0403 19:53:11.568589  9794 net.cpp:399] inception_4b/3x3_reduce -> inception_4b/3x3_reduce
I0403 19:53:11.569916  9794 net.cpp:141] Setting up inception_4b/3x3_reduce
I0403 19:53:11.569943  9794 net.cpp:148] Top shape: 24 112 14 14 (526848)
I0403 19:53:11.569958  9794 net.cpp:156] Memory required for data: 954332448
I0403 19:53:11.569977  9794 layer_factory.hpp:77] Creating layer inception_4b/relu_3x3_reduce
I0403 19:53:11.569995  9794 net.cpp:91] Creating Layer inception_4b/relu_3x3_reduce
I0403 19:53:11.570011  9794 net.cpp:425] inception_4b/relu_3x3_reduce <- inception_4b/3x3_reduce
I0403 19:53:11.570030  9794 net.cpp:386] inception_4b/relu_3x3_reduce -> inception_4b/3x3_reduce (in-place)
I0403 19:53:11.570305  9794 net.cpp:141] Setting up inception_4b/relu_3x3_reduce
I0403 19:53:11.570332  9794 net.cpp:148] Top shape: 24 112 14 14 (526848)
I0403 19:53:11.570348  9794 net.cpp:156] Memory required for data: 956439840
I0403 19:53:11.570363  9794 layer_factory.hpp:77] Creating layer inception_4b/3x3
I0403 19:53:11.570385  9794 net.cpp:91] Creating Layer inception_4b/3x3
I0403 19:53:11.570404  9794 net.cpp:425] inception_4b/3x3 <- inception_4b/3x3_reduce
I0403 19:53:11.570425  9794 net.cpp:399] inception_4b/3x3 -> inception_4b/3x3
I0403 19:53:11.573330  9794 net.cpp:141] Setting up inception_4b/3x3
I0403 19:53:11.573359  9794 net.cpp:148] Top shape: 24 224 14 14 (1053696)
I0403 19:53:11.573375  9794 net.cpp:156] Memory required for data: 960654624
I0403 19:53:11.573393  9794 layer_factory.hpp:77] Creating layer inception_4b/relu_3x3
I0403 19:53:11.573413  9794 net.cpp:91] Creating Layer inception_4b/relu_3x3
I0403 19:53:11.573432  9794 net.cpp:425] inception_4b/relu_3x3 <- inception_4b/3x3
I0403 19:53:11.573451  9794 net.cpp:386] inception_4b/relu_3x3 -> inception_4b/3x3 (in-place)
I0403 19:53:11.573631  9794 net.cpp:141] Setting up inception_4b/relu_3x3
I0403 19:53:11.573657  9794 net.cpp:148] Top shape: 24 224 14 14 (1053696)
I0403 19:53:11.573671  9794 net.cpp:156] Memory required for data: 964869408
I0403 19:53:11.573685  9794 layer_factory.hpp:77] Creating layer inception_4b/5x5_reduce
I0403 19:53:11.573707  9794 net.cpp:91] Creating Layer inception_4b/5x5_reduce
I0403 19:53:11.573725  9794 net.cpp:425] inception_4b/5x5_reduce <- inception_4a/output_inception_4a/output_0_split_3
I0403 19:53:11.573747  9794 net.cpp:399] inception_4b/5x5_reduce -> inception_4b/5x5_reduce
I0403 19:53:11.574805  9794 net.cpp:141] Setting up inception_4b/5x5_reduce
I0403 19:53:11.574833  9794 net.cpp:148] Top shape: 24 24 14 14 (112896)
I0403 19:53:11.574848  9794 net.cpp:156] Memory required for data: 965320992
I0403 19:53:11.574867  9794 layer_factory.hpp:77] Creating layer inception_4b/relu_5x5_reduce
I0403 19:53:11.574884  9794 net.cpp:91] Creating Layer inception_4b/relu_5x5_reduce
I0403 19:53:11.574915  9794 net.cpp:425] inception_4b/relu_5x5_reduce <- inception_4b/5x5_reduce
I0403 19:53:11.574936  9794 net.cpp:386] inception_4b/relu_5x5_reduce -> inception_4b/5x5_reduce (in-place)
I0403 19:53:11.575115  9794 net.cpp:141] Setting up inception_4b/relu_5x5_reduce
I0403 19:53:11.575140  9794 net.cpp:148] Top shape: 24 24 14 14 (112896)
I0403 19:53:11.575155  9794 net.cpp:156] Memory required for data: 965772576
I0403 19:53:11.575168  9794 layer_factory.hpp:77] Creating layer inception_4b/5x5
I0403 19:53:11.575192  9794 net.cpp:91] Creating Layer inception_4b/5x5
I0403 19:53:11.575209  9794 net.cpp:425] inception_4b/5x5 <- inception_4b/5x5_reduce
I0403 19:53:11.575230  9794 net.cpp:399] inception_4b/5x5 -> inception_4b/5x5
I0403 19:53:11.576421  9794 net.cpp:141] Setting up inception_4b/5x5
I0403 19:53:11.576467  9794 net.cpp:148] Top shape: 24 64 14 14 (301056)
I0403 19:53:11.576484  9794 net.cpp:156] Memory required for data: 966976800
I0403 19:53:11.576503  9794 layer_factory.hpp:77] Creating layer inception_4b/relu_5x5
I0403 19:53:11.576522  9794 net.cpp:91] Creating Layer inception_4b/relu_5x5
I0403 19:53:11.576539  9794 net.cpp:425] inception_4b/relu_5x5 <- inception_4b/5x5
I0403 19:53:11.576560  9794 net.cpp:386] inception_4b/relu_5x5 -> inception_4b/5x5 (in-place)
I0403 19:53:11.576850  9794 net.cpp:141] Setting up inception_4b/relu_5x5
I0403 19:53:11.576882  9794 net.cpp:148] Top shape: 24 64 14 14 (301056)
I0403 19:53:11.576899  9794 net.cpp:156] Memory required for data: 968181024
I0403 19:53:11.576912  9794 layer_factory.hpp:77] Creating layer inception_4b/pool
I0403 19:53:11.576930  9794 net.cpp:91] Creating Layer inception_4b/pool
I0403 19:53:11.576946  9794 net.cpp:425] inception_4b/pool <- inception_4a/output_inception_4a/output_0_split_4
I0403 19:53:11.576967  9794 net.cpp:399] inception_4b/pool -> inception_4b/pool
I0403 19:53:11.577028  9794 net.cpp:141] Setting up inception_4b/pool
I0403 19:53:11.577054  9794 net.cpp:148] Top shape: 24 512 14 14 (2408448)
I0403 19:53:11.577069  9794 net.cpp:156] Memory required for data: 977814816
I0403 19:53:11.577083  9794 layer_factory.hpp:77] Creating layer inception_4b/pool_proj
I0403 19:53:11.577101  9794 net.cpp:91] Creating Layer inception_4b/pool_proj
I0403 19:53:11.577118  9794 net.cpp:425] inception_4b/pool_proj <- inception_4b/pool
I0403 19:53:11.577139  9794 net.cpp:399] inception_4b/pool_proj -> inception_4b/pool_proj
I0403 19:53:11.578312  9794 net.cpp:141] Setting up inception_4b/pool_proj
I0403 19:53:11.578339  9794 net.cpp:148] Top shape: 24 64 14 14 (301056)
I0403 19:53:11.578354  9794 net.cpp:156] Memory required for data: 979019040
I0403 19:53:11.578373  9794 layer_factory.hpp:77] Creating layer inception_4b/relu_pool_proj
I0403 19:53:11.578390  9794 net.cpp:91] Creating Layer inception_4b/relu_pool_proj
I0403 19:53:11.578408  9794 net.cpp:425] inception_4b/relu_pool_proj <- inception_4b/pool_proj
I0403 19:53:11.578430  9794 net.cpp:386] inception_4b/relu_pool_proj -> inception_4b/pool_proj (in-place)
I0403 19:53:11.578606  9794 net.cpp:141] Setting up inception_4b/relu_pool_proj
I0403 19:53:11.578631  9794 net.cpp:148] Top shape: 24 64 14 14 (301056)
I0403 19:53:11.578646  9794 net.cpp:156] Memory required for data: 980223264
I0403 19:53:11.578661  9794 layer_factory.hpp:77] Creating layer inception_4b/output
I0403 19:53:11.578678  9794 net.cpp:91] Creating Layer inception_4b/output
I0403 19:53:11.578693  9794 net.cpp:425] inception_4b/output <- inception_4b/1x1
I0403 19:53:11.578711  9794 net.cpp:425] inception_4b/output <- inception_4b/3x3
I0403 19:53:11.578728  9794 net.cpp:425] inception_4b/output <- inception_4b/5x5
I0403 19:53:11.578744  9794 net.cpp:425] inception_4b/output <- inception_4b/pool_proj
I0403 19:53:11.578761  9794 net.cpp:399] inception_4b/output -> inception_4b/output
I0403 19:53:11.578807  9794 net.cpp:141] Setting up inception_4b/output
I0403 19:53:11.578830  9794 net.cpp:148] Top shape: 24 512 14 14 (2408448)
I0403 19:53:11.578845  9794 net.cpp:156] Memory required for data: 989857056
I0403 19:53:11.578886  9794 layer_factory.hpp:77] Creating layer inception_4b/output_inception_4b/output_0_split
I0403 19:53:11.578904  9794 net.cpp:91] Creating Layer inception_4b/output_inception_4b/output_0_split
I0403 19:53:11.578920  9794 net.cpp:425] inception_4b/output_inception_4b/output_0_split <- inception_4b/output
I0403 19:53:11.578941  9794 net.cpp:399] inception_4b/output_inception_4b/output_0_split -> inception_4b/output_inception_4b/output_0_split_0
I0403 19:53:11.578961  9794 net.cpp:399] inception_4b/output_inception_4b/output_0_split -> inception_4b/output_inception_4b/output_0_split_1
I0403 19:53:11.578982  9794 net.cpp:399] inception_4b/output_inception_4b/output_0_split -> inception_4b/output_inception_4b/output_0_split_2
I0403 19:53:11.579002  9794 net.cpp:399] inception_4b/output_inception_4b/output_0_split -> inception_4b/output_inception_4b/output_0_split_3
I0403 19:53:11.579090  9794 net.cpp:141] Setting up inception_4b/output_inception_4b/output_0_split
I0403 19:53:11.579116  9794 net.cpp:148] Top shape: 24 512 14 14 (2408448)
I0403 19:53:11.579134  9794 net.cpp:148] Top shape: 24 512 14 14 (2408448)
I0403 19:53:11.579150  9794 net.cpp:148] Top shape: 24 512 14 14 (2408448)
I0403 19:53:11.579179  9794 net.cpp:148] Top shape: 24 512 14 14 (2408448)
I0403 19:53:11.579191  9794 net.cpp:156] Memory required for data: 1028392224
I0403 19:53:11.579206  9794 layer_factory.hpp:77] Creating layer inception_4c/1x1
I0403 19:53:11.579228  9794 net.cpp:91] Creating Layer inception_4c/1x1
I0403 19:53:11.579246  9794 net.cpp:425] inception_4c/1x1 <- inception_4b/output_inception_4b/output_0_split_0
I0403 19:53:11.579265  9794 net.cpp:399] inception_4c/1x1 -> inception_4c/1x1
I0403 19:53:11.580659  9794 net.cpp:141] Setting up inception_4c/1x1
I0403 19:53:11.580687  9794 net.cpp:148] Top shape: 24 128 14 14 (602112)
I0403 19:53:11.580703  9794 net.cpp:156] Memory required for data: 1030800672
I0403 19:53:11.580720  9794 layer_factory.hpp:77] Creating layer inception_4c/relu_1x1
I0403 19:53:11.580740  9794 net.cpp:91] Creating Layer inception_4c/relu_1x1
I0403 19:53:11.580756  9794 net.cpp:425] inception_4c/relu_1x1 <- inception_4c/1x1
I0403 19:53:11.580773  9794 net.cpp:386] inception_4c/relu_1x1 -> inception_4c/1x1 (in-place)
I0403 19:53:11.580947  9794 net.cpp:141] Setting up inception_4c/relu_1x1
I0403 19:53:11.580976  9794 net.cpp:148] Top shape: 24 128 14 14 (602112)
I0403 19:53:11.580991  9794 net.cpp:156] Memory required for data: 1033209120
I0403 19:53:11.581006  9794 layer_factory.hpp:77] Creating layer inception_4c/3x3_reduce
I0403 19:53:11.581027  9794 net.cpp:91] Creating Layer inception_4c/3x3_reduce
I0403 19:53:11.581043  9794 net.cpp:425] inception_4c/3x3_reduce <- inception_4b/output_inception_4b/output_0_split_1
I0403 19:53:11.581061  9794 net.cpp:399] inception_4c/3x3_reduce -> inception_4c/3x3_reduce
I0403 19:53:11.582964  9794 net.cpp:141] Setting up inception_4c/3x3_reduce
I0403 19:53:11.582994  9794 net.cpp:148] Top shape: 24 128 14 14 (602112)
I0403 19:53:11.583010  9794 net.cpp:156] Memory required for data: 1035617568
I0403 19:53:11.583029  9794 layer_factory.hpp:77] Creating layer inception_4c/relu_3x3_reduce
I0403 19:53:11.583046  9794 net.cpp:91] Creating Layer inception_4c/relu_3x3_reduce
I0403 19:53:11.583061  9794 net.cpp:425] inception_4c/relu_3x3_reduce <- inception_4c/3x3_reduce
I0403 19:53:11.583081  9794 net.cpp:386] inception_4c/relu_3x3_reduce -> inception_4c/3x3_reduce (in-place)
I0403 19:53:11.583364  9794 net.cpp:141] Setting up inception_4c/relu_3x3_reduce
I0403 19:53:11.583391  9794 net.cpp:148] Top shape: 24 128 14 14 (602112)
I0403 19:53:11.583407  9794 net.cpp:156] Memory required for data: 1038026016
I0403 19:53:11.583421  9794 layer_factory.hpp:77] Creating layer inception_4c/3x3
I0403 19:53:11.583449  9794 net.cpp:91] Creating Layer inception_4c/3x3
I0403 19:53:11.583467  9794 net.cpp:425] inception_4c/3x3 <- inception_4c/3x3_reduce
I0403 19:53:11.583488  9794 net.cpp:399] inception_4c/3x3 -> inception_4c/3x3
I0403 19:53:11.587049  9794 net.cpp:141] Setting up inception_4c/3x3
I0403 19:53:11.587092  9794 net.cpp:148] Top shape: 24 256 14 14 (1204224)
I0403 19:53:11.587110  9794 net.cpp:156] Memory required for data: 1042842912
I0403 19:53:11.587141  9794 layer_factory.hpp:77] Creating layer inception_4c/relu_3x3
I0403 19:53:11.587162  9794 net.cpp:91] Creating Layer inception_4c/relu_3x3
I0403 19:53:11.587179  9794 net.cpp:425] inception_4c/relu_3x3 <- inception_4c/3x3
I0403 19:53:11.587198  9794 net.cpp:386] inception_4c/relu_3x3 -> inception_4c/3x3 (in-place)
I0403 19:53:11.587376  9794 net.cpp:141] Setting up inception_4c/relu_3x3
I0403 19:53:11.587401  9794 net.cpp:148] Top shape: 24 256 14 14 (1204224)
I0403 19:53:11.587415  9794 net.cpp:156] Memory required for data: 1047659808
I0403 19:53:11.587435  9794 layer_factory.hpp:77] Creating layer inception_4c/5x5_reduce
I0403 19:53:11.587458  9794 net.cpp:91] Creating Layer inception_4c/5x5_reduce
I0403 19:53:11.587477  9794 net.cpp:425] inception_4c/5x5_reduce <- inception_4b/output_inception_4b/output_0_split_2
I0403 19:53:11.587499  9794 net.cpp:399] inception_4c/5x5_reduce -> inception_4c/5x5_reduce
I0403 19:53:11.588565  9794 net.cpp:141] Setting up inception_4c/5x5_reduce
I0403 19:53:11.588593  9794 net.cpp:148] Top shape: 24 24 14 14 (112896)
I0403 19:53:11.588608  9794 net.cpp:156] Memory required for data: 1048111392
I0403 19:53:11.588626  9794 layer_factory.hpp:77] Creating layer inception_4c/relu_5x5_reduce
I0403 19:53:11.588644  9794 net.cpp:91] Creating Layer inception_4c/relu_5x5_reduce
I0403 19:53:11.588660  9794 net.cpp:425] inception_4c/relu_5x5_reduce <- inception_4c/5x5_reduce
I0403 19:53:11.588680  9794 net.cpp:386] inception_4c/relu_5x5_reduce -> inception_4c/5x5_reduce (in-place)
I0403 19:53:11.588858  9794 net.cpp:141] Setting up inception_4c/relu_5x5_reduce
I0403 19:53:11.588883  9794 net.cpp:148] Top shape: 24 24 14 14 (112896)
I0403 19:53:11.588898  9794 net.cpp:156] Memory required for data: 1048562976
I0403 19:53:11.588912  9794 layer_factory.hpp:77] Creating layer inception_4c/5x5
I0403 19:53:11.588934  9794 net.cpp:91] Creating Layer inception_4c/5x5
I0403 19:53:11.588953  9794 net.cpp:425] inception_4c/5x5 <- inception_4c/5x5_reduce
I0403 19:53:11.588973  9794 net.cpp:399] inception_4c/5x5 -> inception_4c/5x5
I0403 19:53:11.590178  9794 net.cpp:141] Setting up inception_4c/5x5
I0403 19:53:11.590205  9794 net.cpp:148] Top shape: 24 64 14 14 (301056)
I0403 19:53:11.590220  9794 net.cpp:156] Memory required for data: 1049767200
I0403 19:53:11.590240  9794 layer_factory.hpp:77] Creating layer inception_4c/relu_5x5
I0403 19:53:11.590258  9794 net.cpp:91] Creating Layer inception_4c/relu_5x5
I0403 19:53:11.590276  9794 net.cpp:425] inception_4c/relu_5x5 <- inception_4c/5x5
I0403 19:53:11.590292  9794 net.cpp:386] inception_4c/relu_5x5 -> inception_4c/5x5 (in-place)
I0403 19:53:11.590593  9794 net.cpp:141] Setting up inception_4c/relu_5x5
I0403 19:53:11.590621  9794 net.cpp:148] Top shape: 24 64 14 14 (301056)
I0403 19:53:11.590636  9794 net.cpp:156] Memory required for data: 1050971424
I0403 19:53:11.590652  9794 layer_factory.hpp:77] Creating layer inception_4c/pool
I0403 19:53:11.590672  9794 net.cpp:91] Creating Layer inception_4c/pool
I0403 19:53:11.590690  9794 net.cpp:425] inception_4c/pool <- inception_4b/output_inception_4b/output_0_split_3
I0403 19:53:11.590708  9794 net.cpp:399] inception_4c/pool -> inception_4c/pool
I0403 19:53:11.590785  9794 net.cpp:141] Setting up inception_4c/pool
I0403 19:53:11.590809  9794 net.cpp:148] Top shape: 24 512 14 14 (2408448)
I0403 19:53:11.590823  9794 net.cpp:156] Memory required for data: 1060605216
I0403 19:53:11.590839  9794 layer_factory.hpp:77] Creating layer inception_4c/pool_proj
I0403 19:53:11.590860  9794 net.cpp:91] Creating Layer inception_4c/pool_proj
I0403 19:53:11.590878  9794 net.cpp:425] inception_4c/pool_proj <- inception_4c/pool
I0403 19:53:11.590899  9794 net.cpp:399] inception_4c/pool_proj -> inception_4c/pool_proj
I0403 19:53:11.592082  9794 net.cpp:141] Setting up inception_4c/pool_proj
I0403 19:53:11.592116  9794 net.cpp:148] Top shape: 24 64 14 14 (301056)
I0403 19:53:11.592144  9794 net.cpp:156] Memory required for data: 1061809440
I0403 19:53:11.592164  9794 layer_factory.hpp:77] Creating layer inception_4c/relu_pool_proj
I0403 19:53:11.592181  9794 net.cpp:91] Creating Layer inception_4c/relu_pool_proj
I0403 19:53:11.592198  9794 net.cpp:425] inception_4c/relu_pool_proj <- inception_4c/pool_proj
I0403 19:53:11.592218  9794 net.cpp:386] inception_4c/relu_pool_proj -> inception_4c/pool_proj (in-place)
I0403 19:53:11.592393  9794 net.cpp:141] Setting up inception_4c/relu_pool_proj
I0403 19:53:11.592419  9794 net.cpp:148] Top shape: 24 64 14 14 (301056)
I0403 19:53:11.592445  9794 net.cpp:156] Memory required for data: 1063013664
I0403 19:53:11.592463  9794 layer_factory.hpp:77] Creating layer inception_4c/output
I0403 19:53:11.592480  9794 net.cpp:91] Creating Layer inception_4c/output
I0403 19:53:11.592496  9794 net.cpp:425] inception_4c/output <- inception_4c/1x1
I0403 19:53:11.592514  9794 net.cpp:425] inception_4c/output <- inception_4c/3x3
I0403 19:53:11.592530  9794 net.cpp:425] inception_4c/output <- inception_4c/5x5
I0403 19:53:11.592545  9794 net.cpp:425] inception_4c/output <- inception_4c/pool_proj
I0403 19:53:11.592564  9794 net.cpp:399] inception_4c/output -> inception_4c/output
I0403 19:53:11.592612  9794 net.cpp:141] Setting up inception_4c/output
I0403 19:53:11.592635  9794 net.cpp:148] Top shape: 24 512 14 14 (2408448)
I0403 19:53:11.592649  9794 net.cpp:156] Memory required for data: 1072647456
I0403 19:53:11.592664  9794 layer_factory.hpp:77] Creating layer inception_4c/output_inception_4c/output_0_split
I0403 19:53:11.592680  9794 net.cpp:91] Creating Layer inception_4c/output_inception_4c/output_0_split
I0403 19:53:11.592695  9794 net.cpp:425] inception_4c/output_inception_4c/output_0_split <- inception_4c/output
I0403 19:53:11.592715  9794 net.cpp:399] inception_4c/output_inception_4c/output_0_split -> inception_4c/output_inception_4c/output_0_split_0
I0403 19:53:11.592736  9794 net.cpp:399] inception_4c/output_inception_4c/output_0_split -> inception_4c/output_inception_4c/output_0_split_1
I0403 19:53:11.592756  9794 net.cpp:399] inception_4c/output_inception_4c/output_0_split -> inception_4c/output_inception_4c/output_0_split_2
I0403 19:53:11.592777  9794 net.cpp:399] inception_4c/output_inception_4c/output_0_split -> inception_4c/output_inception_4c/output_0_split_3
I0403 19:53:11.592862  9794 net.cpp:141] Setting up inception_4c/output_inception_4c/output_0_split
I0403 19:53:11.592888  9794 net.cpp:148] Top shape: 24 512 14 14 (2408448)
I0403 19:53:11.592905  9794 net.cpp:148] Top shape: 24 512 14 14 (2408448)
I0403 19:53:11.592919  9794 net.cpp:148] Top shape: 24 512 14 14 (2408448)
I0403 19:53:11.592936  9794 net.cpp:148] Top shape: 24 512 14 14 (2408448)
I0403 19:53:11.592949  9794 net.cpp:156] Memory required for data: 1111182624
I0403 19:53:11.592963  9794 layer_factory.hpp:77] Creating layer inception_4d/1x1
I0403 19:53:11.592985  9794 net.cpp:91] Creating Layer inception_4d/1x1
I0403 19:53:11.593003  9794 net.cpp:425] inception_4d/1x1 <- inception_4c/output_inception_4c/output_0_split_0
I0403 19:53:11.593021  9794 net.cpp:399] inception_4d/1x1 -> inception_4d/1x1
I0403 19:53:11.594357  9794 net.cpp:141] Setting up inception_4d/1x1
I0403 19:53:11.594385  9794 net.cpp:148] Top shape: 24 112 14 14 (526848)
I0403 19:53:11.594400  9794 net.cpp:156] Memory required for data: 1113290016
I0403 19:53:11.594419  9794 layer_factory.hpp:77] Creating layer inception_4d/relu_1x1
I0403 19:53:11.594444  9794 net.cpp:91] Creating Layer inception_4d/relu_1x1
I0403 19:53:11.594461  9794 net.cpp:425] inception_4d/relu_1x1 <- inception_4d/1x1
I0403 19:53:11.594480  9794 net.cpp:386] inception_4d/relu_1x1 -> inception_4d/1x1 (in-place)
I0403 19:53:11.594660  9794 net.cpp:141] Setting up inception_4d/relu_1x1
I0403 19:53:11.594684  9794 net.cpp:148] Top shape: 24 112 14 14 (526848)
I0403 19:53:11.594699  9794 net.cpp:156] Memory required for data: 1115397408
I0403 19:53:11.594714  9794 layer_factory.hpp:77] Creating layer inception_4d/3x3_reduce
I0403 19:53:11.594749  9794 net.cpp:91] Creating Layer inception_4d/3x3_reduce
I0403 19:53:11.594769  9794 net.cpp:425] inception_4d/3x3_reduce <- inception_4c/output_inception_4c/output_0_split_1
I0403 19:53:11.594789  9794 net.cpp:399] inception_4d/3x3_reduce -> inception_4d/3x3_reduce
I0403 19:53:11.596252  9794 net.cpp:141] Setting up inception_4d/3x3_reduce
I0403 19:53:11.596281  9794 net.cpp:148] Top shape: 24 144 14 14 (677376)
I0403 19:53:11.596295  9794 net.cpp:156] Memory required for data: 1118106912
I0403 19:53:11.596313  9794 layer_factory.hpp:77] Creating layer inception_4d/relu_3x3_reduce
I0403 19:53:11.596333  9794 net.cpp:91] Creating Layer inception_4d/relu_3x3_reduce
I0403 19:53:11.596349  9794 net.cpp:425] inception_4d/relu_3x3_reduce <- inception_4d/3x3_reduce
I0403 19:53:11.596367  9794 net.cpp:386] inception_4d/relu_3x3_reduce -> inception_4d/3x3_reduce (in-place)
I0403 19:53:11.596652  9794 net.cpp:141] Setting up inception_4d/relu_3x3_reduce
I0403 19:53:11.596676  9794 net.cpp:148] Top shape: 24 144 14 14 (677376)
I0403 19:53:11.596693  9794 net.cpp:156] Memory required for data: 1120816416
I0403 19:53:11.596707  9794 layer_factory.hpp:77] Creating layer inception_4d/3x3
I0403 19:53:11.596729  9794 net.cpp:91] Creating Layer inception_4d/3x3
I0403 19:53:11.596747  9794 net.cpp:425] inception_4d/3x3 <- inception_4d/3x3_reduce
I0403 19:53:11.596768  9794 net.cpp:399] inception_4d/3x3 -> inception_4d/3x3
I0403 19:53:11.600925  9794 net.cpp:141] Setting up inception_4d/3x3
I0403 19:53:11.600956  9794 net.cpp:148] Top shape: 24 288 14 14 (1354752)
I0403 19:53:11.600973  9794 net.cpp:156] Memory required for data: 1126235424
I0403 19:53:11.600991  9794 layer_factory.hpp:77] Creating layer inception_4d/relu_3x3
I0403 19:53:11.601009  9794 net.cpp:91] Creating Layer inception_4d/relu_3x3
I0403 19:53:11.601027  9794 net.cpp:425] inception_4d/relu_3x3 <- inception_4d/3x3
I0403 19:53:11.601044  9794 net.cpp:386] inception_4d/relu_3x3 -> inception_4d/3x3 (in-place)
I0403 19:53:11.601224  9794 net.cpp:141] Setting up inception_4d/relu_3x3
I0403 19:53:11.601249  9794 net.cpp:148] Top shape: 24 288 14 14 (1354752)
I0403 19:53:11.601264  9794 net.cpp:156] Memory required for data: 1131654432
I0403 19:53:11.601279  9794 layer_factory.hpp:77] Creating layer inception_4d/5x5_reduce
I0403 19:53:11.601300  9794 net.cpp:91] Creating Layer inception_4d/5x5_reduce
I0403 19:53:11.601320  9794 net.cpp:425] inception_4d/5x5_reduce <- inception_4c/output_inception_4c/output_0_split_2
I0403 19:53:11.601341  9794 net.cpp:399] inception_4d/5x5_reduce -> inception_4d/5x5_reduce
I0403 19:53:11.602475  9794 net.cpp:141] Setting up inception_4d/5x5_reduce
I0403 19:53:11.602506  9794 net.cpp:148] Top shape: 24 32 14 14 (150528)
I0403 19:53:11.602521  9794 net.cpp:156] Memory required for data: 1132256544
I0403 19:53:11.602540  9794 layer_factory.hpp:77] Creating layer inception_4d/relu_5x5_reduce
I0403 19:53:11.602556  9794 net.cpp:91] Creating Layer inception_4d/relu_5x5_reduce
I0403 19:53:11.602573  9794 net.cpp:425] inception_4d/relu_5x5_reduce <- inception_4d/5x5_reduce
I0403 19:53:11.602592  9794 net.cpp:386] inception_4d/relu_5x5_reduce -> inception_4d/5x5_reduce (in-place)
I0403 19:53:11.602778  9794 net.cpp:141] Setting up inception_4d/relu_5x5_reduce
I0403 19:53:11.602803  9794 net.cpp:148] Top shape: 24 32 14 14 (150528)
I0403 19:53:11.602818  9794 net.cpp:156] Memory required for data: 1132858656
I0403 19:53:11.602833  9794 layer_factory.hpp:77] Creating layer inception_4d/5x5
I0403 19:53:11.602856  9794 net.cpp:91] Creating Layer inception_4d/5x5
I0403 19:53:11.602874  9794 net.cpp:425] inception_4d/5x5 <- inception_4d/5x5_reduce
I0403 19:53:11.602895  9794 net.cpp:399] inception_4d/5x5 -> inception_4d/5x5
I0403 19:53:11.604353  9794 net.cpp:141] Setting up inception_4d/5x5
I0403 19:53:11.604382  9794 net.cpp:148] Top shape: 24 64 14 14 (301056)
I0403 19:53:11.604398  9794 net.cpp:156] Memory required for data: 1134062880
I0403 19:53:11.604418  9794 layer_factory.hpp:77] Creating layer inception_4d/relu_5x5
I0403 19:53:11.604459  9794 net.cpp:91] Creating Layer inception_4d/relu_5x5
I0403 19:53:11.604477  9794 net.cpp:425] inception_4d/relu_5x5 <- inception_4d/5x5
I0403 19:53:11.604497  9794 net.cpp:386] inception_4d/relu_5x5 -> inception_4d/5x5 (in-place)
I0403 19:53:11.604800  9794 net.cpp:141] Setting up inception_4d/relu_5x5
I0403 19:53:11.604828  9794 net.cpp:148] Top shape: 24 64 14 14 (301056)
I0403 19:53:11.604843  9794 net.cpp:156] Memory required for data: 1135267104
I0403 19:53:11.604858  9794 layer_factory.hpp:77] Creating layer inception_4d/pool
I0403 19:53:11.604877  9794 net.cpp:91] Creating Layer inception_4d/pool
I0403 19:53:11.604894  9794 net.cpp:425] inception_4d/pool <- inception_4c/output_inception_4c/output_0_split_3
I0403 19:53:11.604915  9794 net.cpp:399] inception_4d/pool -> inception_4d/pool
I0403 19:53:11.604982  9794 net.cpp:141] Setting up inception_4d/pool
I0403 19:53:11.605006  9794 net.cpp:148] Top shape: 24 512 14 14 (2408448)
I0403 19:53:11.605022  9794 net.cpp:156] Memory required for data: 1144900896
I0403 19:53:11.605037  9794 layer_factory.hpp:77] Creating layer inception_4d/pool_proj
I0403 19:53:11.605062  9794 net.cpp:91] Creating Layer inception_4d/pool_proj
I0403 19:53:11.605080  9794 net.cpp:425] inception_4d/pool_proj <- inception_4d/pool
I0403 19:53:11.605100  9794 net.cpp:399] inception_4d/pool_proj -> inception_4d/pool_proj
I0403 19:53:11.606873  9794 net.cpp:141] Setting up inception_4d/pool_proj
I0403 19:53:11.606909  9794 net.cpp:148] Top shape: 24 64 14 14 (301056)
I0403 19:53:11.606925  9794 net.cpp:156] Memory required for data: 1146105120
I0403 19:53:11.606945  9794 layer_factory.hpp:77] Creating layer inception_4d/relu_pool_proj
I0403 19:53:11.606962  9794 net.cpp:91] Creating Layer inception_4d/relu_pool_proj
I0403 19:53:11.606981  9794 net.cpp:425] inception_4d/relu_pool_proj <- inception_4d/pool_proj
I0403 19:53:11.606998  9794 net.cpp:386] inception_4d/relu_pool_proj -> inception_4d/pool_proj (in-place)
I0403 19:53:11.607187  9794 net.cpp:141] Setting up inception_4d/relu_pool_proj
I0403 19:53:11.607213  9794 net.cpp:148] Top shape: 24 64 14 14 (301056)
I0403 19:53:11.607229  9794 net.cpp:156] Memory required for data: 1147309344
I0403 19:53:11.607245  9794 layer_factory.hpp:77] Creating layer inception_4d/output
I0403 19:53:11.607262  9794 net.cpp:91] Creating Layer inception_4d/output
I0403 19:53:11.607278  9794 net.cpp:425] inception_4d/output <- inception_4d/1x1
I0403 19:53:11.607295  9794 net.cpp:425] inception_4d/output <- inception_4d/3x3
I0403 19:53:11.607313  9794 net.cpp:425] inception_4d/output <- inception_4d/5x5
I0403 19:53:11.607329  9794 net.cpp:425] inception_4d/output <- inception_4d/pool_proj
I0403 19:53:11.607349  9794 net.cpp:399] inception_4d/output -> inception_4d/output
I0403 19:53:11.607396  9794 net.cpp:141] Setting up inception_4d/output
I0403 19:53:11.607424  9794 net.cpp:148] Top shape: 24 528 14 14 (2483712)
I0403 19:53:11.607445  9794 net.cpp:156] Memory required for data: 1157244192
I0403 19:53:11.607462  9794 layer_factory.hpp:77] Creating layer inception_4d/output_inception_4d/output_0_split
I0403 19:53:11.607481  9794 net.cpp:91] Creating Layer inception_4d/output_inception_4d/output_0_split
I0403 19:53:11.607496  9794 net.cpp:425] inception_4d/output_inception_4d/output_0_split <- inception_4d/output
I0403 19:53:11.607517  9794 net.cpp:399] inception_4d/output_inception_4d/output_0_split -> inception_4d/output_inception_4d/output_0_split_0
I0403 19:53:11.607538  9794 net.cpp:399] inception_4d/output_inception_4d/output_0_split -> inception_4d/output_inception_4d/output_0_split_1
I0403 19:53:11.607560  9794 net.cpp:399] inception_4d/output_inception_4d/output_0_split -> inception_4d/output_inception_4d/output_0_split_2
I0403 19:53:11.607581  9794 net.cpp:399] inception_4d/output_inception_4d/output_0_split -> inception_4d/output_inception_4d/output_0_split_3
I0403 19:53:11.607604  9794 net.cpp:399] inception_4d/output_inception_4d/output_0_split -> inception_4d/output_inception_4d/output_0_split_4
I0403 19:53:11.607705  9794 net.cpp:141] Setting up inception_4d/output_inception_4d/output_0_split
I0403 19:53:11.607743  9794 net.cpp:148] Top shape: 24 528 14 14 (2483712)
I0403 19:53:11.607759  9794 net.cpp:148] Top shape: 24 528 14 14 (2483712)
I0403 19:53:11.607775  9794 net.cpp:148] Top shape: 24 528 14 14 (2483712)
I0403 19:53:11.607791  9794 net.cpp:148] Top shape: 24 528 14 14 (2483712)
I0403 19:53:11.607806  9794 net.cpp:148] Top shape: 24 528 14 14 (2483712)
I0403 19:53:11.607821  9794 net.cpp:156] Memory required for data: 1206918432
I0403 19:53:11.607836  9794 layer_factory.hpp:77] Creating layer loss2/ave_pool
I0403 19:53:11.607856  9794 net.cpp:91] Creating Layer loss2/ave_pool
I0403 19:53:11.607873  9794 net.cpp:425] loss2/ave_pool <- inception_4d/output_inception_4d/output_0_split_0
I0403 19:53:11.607892  9794 net.cpp:399] loss2/ave_pool -> loss2/ave_pool
I0403 19:53:11.608207  9794 net.cpp:141] Setting up loss2/ave_pool
I0403 19:53:11.608237  9794 net.cpp:148] Top shape: 24 528 4 4 (202752)
I0403 19:53:11.608254  9794 net.cpp:156] Memory required for data: 1207729440
I0403 19:53:11.608269  9794 layer_factory.hpp:77] Creating layer loss2/conv
I0403 19:53:11.608291  9794 net.cpp:91] Creating Layer loss2/conv
I0403 19:53:11.608310  9794 net.cpp:425] loss2/conv <- loss2/ave_pool
I0403 19:53:11.608330  9794 net.cpp:399] loss2/conv -> loss2/conv
I0403 19:53:11.610277  9794 net.cpp:141] Setting up loss2/conv
I0403 19:53:11.610306  9794 net.cpp:148] Top shape: 24 128 4 4 (49152)
I0403 19:53:11.610322  9794 net.cpp:156] Memory required for data: 1207926048
I0403 19:53:11.610342  9794 layer_factory.hpp:77] Creating layer loss2/relu_conv
I0403 19:53:11.610363  9794 net.cpp:91] Creating Layer loss2/relu_conv
I0403 19:53:11.610379  9794 net.cpp:425] loss2/relu_conv <- loss2/conv
I0403 19:53:11.610397  9794 net.cpp:386] loss2/relu_conv -> loss2/conv (in-place)
I0403 19:53:11.610687  9794 net.cpp:141] Setting up loss2/relu_conv
I0403 19:53:11.610713  9794 net.cpp:148] Top shape: 24 128 4 4 (49152)
I0403 19:53:11.610729  9794 net.cpp:156] Memory required for data: 1208122656
I0403 19:53:11.610745  9794 layer_factory.hpp:77] Creating layer loss2/fc
I0403 19:53:11.610767  9794 net.cpp:91] Creating Layer loss2/fc
I0403 19:53:11.610785  9794 net.cpp:425] loss2/fc <- loss2/conv
I0403 19:53:11.610805  9794 net.cpp:399] loss2/fc -> loss2/fc
I0403 19:53:11.628324  9794 net.cpp:141] Setting up loss2/fc
I0403 19:53:11.628357  9794 net.cpp:148] Top shape: 24 1024 (24576)
I0403 19:53:11.628372  9794 net.cpp:156] Memory required for data: 1208220960
I0403 19:53:11.628391  9794 layer_factory.hpp:77] Creating layer loss2/relu_fc
I0403 19:53:11.628407  9794 net.cpp:91] Creating Layer loss2/relu_fc
I0403 19:53:11.628424  9794 net.cpp:425] loss2/relu_fc <- loss2/fc
I0403 19:53:11.628451  9794 net.cpp:386] loss2/relu_fc -> loss2/fc (in-place)
I0403 19:53:11.628746  9794 net.cpp:141] Setting up loss2/relu_fc
I0403 19:53:11.628774  9794 net.cpp:148] Top shape: 24 1024 (24576)
I0403 19:53:11.628789  9794 net.cpp:156] Memory required for data: 1208319264
I0403 19:53:11.628803  9794 layer_factory.hpp:77] Creating layer loss2/drop_fc
I0403 19:53:11.628821  9794 net.cpp:91] Creating Layer loss2/drop_fc
I0403 19:53:11.628837  9794 net.cpp:425] loss2/drop_fc <- loss2/fc
I0403 19:53:11.628859  9794 net.cpp:386] loss2/drop_fc -> loss2/fc (in-place)
I0403 19:53:11.628907  9794 net.cpp:141] Setting up loss2/drop_fc
I0403 19:53:11.628931  9794 net.cpp:148] Top shape: 24 1024 (24576)
I0403 19:53:11.628945  9794 net.cpp:156] Memory required for data: 1208417568
I0403 19:53:11.628959  9794 layer_factory.hpp:77] Creating layer loss2/classifier_plantvillage
I0403 19:53:11.628980  9794 net.cpp:91] Creating Layer loss2/classifier_plantvillage
I0403 19:53:11.628998  9794 net.cpp:425] loss2/classifier_plantvillage <- loss2/fc
I0403 19:53:11.629019  9794 net.cpp:399] loss2/classifier_plantvillage -> loss2/classifier_plantvillage
I0403 19:53:11.629413  9794 net.cpp:141] Setting up loss2/classifier_plantvillage
I0403 19:53:11.629446  9794 net.cpp:148] Top shape: 24 38 (912)
I0403 19:53:11.629462  9794 net.cpp:156] Memory required for data: 1208421216
I0403 19:53:11.629498  9794 layer_factory.hpp:77] Creating layer loss2/classifier_plantvillage_loss2/classifier_plantvillage_0_split
I0403 19:53:11.629518  9794 net.cpp:91] Creating Layer loss2/classifier_plantvillage_loss2/classifier_plantvillage_0_split
I0403 19:53:11.629536  9794 net.cpp:425] loss2/classifier_plantvillage_loss2/classifier_plantvillage_0_split <- loss2/classifier_plantvillage
I0403 19:53:11.629554  9794 net.cpp:399] loss2/classifier_plantvillage_loss2/classifier_plantvillage_0_split -> loss2/classifier_plantvillage_loss2/classifier_plantvillage_0_split_0
I0403 19:53:11.629573  9794 net.cpp:399] loss2/classifier_plantvillage_loss2/classifier_plantvillage_0_split -> loss2/classifier_plantvillage_loss2/classifier_plantvillage_0_split_1
I0403 19:53:11.629595  9794 net.cpp:399] loss2/classifier_plantvillage_loss2/classifier_plantvillage_0_split -> loss2/classifier_plantvillage_loss2/classifier_plantvillage_0_split_2
I0403 19:53:11.629672  9794 net.cpp:141] Setting up loss2/classifier_plantvillage_loss2/classifier_plantvillage_0_split
I0403 19:53:11.629695  9794 net.cpp:148] Top shape: 24 38 (912)
I0403 19:53:11.629712  9794 net.cpp:148] Top shape: 24 38 (912)
I0403 19:53:11.629729  9794 net.cpp:148] Top shape: 24 38 (912)
I0403 19:53:11.629742  9794 net.cpp:156] Memory required for data: 1208432160
I0403 19:53:11.629756  9794 layer_factory.hpp:77] Creating layer inception_4e/1x1
I0403 19:53:11.629776  9794 net.cpp:91] Creating Layer inception_4e/1x1
I0403 19:53:11.629792  9794 net.cpp:425] inception_4e/1x1 <- inception_4d/output_inception_4d/output_0_split_1
I0403 19:53:11.629813  9794 net.cpp:399] inception_4e/1x1 -> inception_4e/1x1
I0403 19:53:11.631594  9794 net.cpp:141] Setting up inception_4e/1x1
I0403 19:53:11.631623  9794 net.cpp:148] Top shape: 24 256 14 14 (1204224)
I0403 19:53:11.631639  9794 net.cpp:156] Memory required for data: 1213249056
I0403 19:53:11.631657  9794 layer_factory.hpp:77] Creating layer inception_4e/relu_1x1
I0403 19:53:11.631676  9794 net.cpp:91] Creating Layer inception_4e/relu_1x1
I0403 19:53:11.631692  9794 net.cpp:425] inception_4e/relu_1x1 <- inception_4e/1x1
I0403 19:53:11.631710  9794 net.cpp:386] inception_4e/relu_1x1 -> inception_4e/1x1 (in-place)
I0403 19:53:11.632000  9794 net.cpp:141] Setting up inception_4e/relu_1x1
I0403 19:53:11.632030  9794 net.cpp:148] Top shape: 24 256 14 14 (1204224)
I0403 19:53:11.632045  9794 net.cpp:156] Memory required for data: 1218065952
I0403 19:53:11.632060  9794 layer_factory.hpp:77] Creating layer inception_4e/3x3_reduce
I0403 19:53:11.632081  9794 net.cpp:91] Creating Layer inception_4e/3x3_reduce
I0403 19:53:11.632099  9794 net.cpp:425] inception_4e/3x3_reduce <- inception_4d/output_inception_4d/output_0_split_2
I0403 19:53:11.632120  9794 net.cpp:399] inception_4e/3x3_reduce -> inception_4e/3x3_reduce
I0403 19:53:11.634196  9794 net.cpp:141] Setting up inception_4e/3x3_reduce
I0403 19:53:11.634224  9794 net.cpp:148] Top shape: 24 160 14 14 (752640)
I0403 19:53:11.634239  9794 net.cpp:156] Memory required for data: 1221076512
I0403 19:53:11.634258  9794 layer_factory.hpp:77] Creating layer inception_4e/relu_3x3_reduce
I0403 19:53:11.634277  9794 net.cpp:91] Creating Layer inception_4e/relu_3x3_reduce
I0403 19:53:11.634294  9794 net.cpp:425] inception_4e/relu_3x3_reduce <- inception_4e/3x3_reduce
I0403 19:53:11.634312  9794 net.cpp:386] inception_4e/relu_3x3_reduce -> inception_4e/3x3_reduce (in-place)
I0403 19:53:11.634501  9794 net.cpp:141] Setting up inception_4e/relu_3x3_reduce
I0403 19:53:11.634526  9794 net.cpp:148] Top shape: 24 160 14 14 (752640)
I0403 19:53:11.634541  9794 net.cpp:156] Memory required for data: 1224087072
I0403 19:53:11.634555  9794 layer_factory.hpp:77] Creating layer inception_4e/3x3
I0403 19:53:11.634577  9794 net.cpp:91] Creating Layer inception_4e/3x3
I0403 19:53:11.634595  9794 net.cpp:425] inception_4e/3x3 <- inception_4e/3x3_reduce
I0403 19:53:11.634616  9794 net.cpp:399] inception_4e/3x3 -> inception_4e/3x3
I0403 19:53:11.639479  9794 net.cpp:141] Setting up inception_4e/3x3
I0403 19:53:11.639520  9794 net.cpp:148] Top shape: 24 320 14 14 (1505280)
I0403 19:53:11.639538  9794 net.cpp:156] Memory required for data: 1230108192
I0403 19:53:11.639555  9794 layer_factory.hpp:77] Creating layer inception_4e/relu_3x3
I0403 19:53:11.639575  9794 net.cpp:91] Creating Layer inception_4e/relu_3x3
I0403 19:53:11.639592  9794 net.cpp:425] inception_4e/relu_3x3 <- inception_4e/3x3
I0403 19:53:11.639611  9794 net.cpp:386] inception_4e/relu_3x3 -> inception_4e/3x3 (in-place)
I0403 19:53:11.639905  9794 net.cpp:141] Setting up inception_4e/relu_3x3
I0403 19:53:11.639930  9794 net.cpp:148] Top shape: 24 320 14 14 (1505280)
I0403 19:53:11.639945  9794 net.cpp:156] Memory required for data: 1236129312
I0403 19:53:11.639961  9794 layer_factory.hpp:77] Creating layer inception_4e/5x5_reduce
I0403 19:53:11.639986  9794 net.cpp:91] Creating Layer inception_4e/5x5_reduce
I0403 19:53:11.640002  9794 net.cpp:425] inception_4e/5x5_reduce <- inception_4d/output_inception_4d/output_0_split_3
I0403 19:53:11.640020  9794 net.cpp:399] inception_4e/5x5_reduce -> inception_4e/5x5_reduce
I0403 19:53:11.641065  9794 net.cpp:141] Setting up inception_4e/5x5_reduce
I0403 19:53:11.641093  9794 net.cpp:148] Top shape: 24 32 14 14 (150528)
I0403 19:53:11.641109  9794 net.cpp:156] Memory required for data: 1236731424
I0403 19:53:11.641126  9794 layer_factory.hpp:77] Creating layer inception_4e/relu_5x5_reduce
I0403 19:53:11.641144  9794 net.cpp:91] Creating Layer inception_4e/relu_5x5_reduce
I0403 19:53:11.641161  9794 net.cpp:425] inception_4e/relu_5x5_reduce <- inception_4e/5x5_reduce
I0403 19:53:11.641181  9794 net.cpp:386] inception_4e/relu_5x5_reduce -> inception_4e/5x5_reduce (in-place)
I0403 19:53:11.641482  9794 net.cpp:141] Setting up inception_4e/relu_5x5_reduce
I0403 19:53:11.641508  9794 net.cpp:148] Top shape: 24 32 14 14 (150528)
I0403 19:53:11.641523  9794 net.cpp:156] Memory required for data: 1237333536
I0403 19:53:11.641538  9794 layer_factory.hpp:77] Creating layer inception_4e/5x5
I0403 19:53:11.641577  9794 net.cpp:91] Creating Layer inception_4e/5x5
I0403 19:53:11.641595  9794 net.cpp:425] inception_4e/5x5 <- inception_4e/5x5_reduce
I0403 19:53:11.641615  9794 net.cpp:399] inception_4e/5x5 -> inception_4e/5x5
I0403 19:53:11.643419  9794 net.cpp:141] Setting up inception_4e/5x5
I0403 19:53:11.643451  9794 net.cpp:148] Top shape: 24 128 14 14 (602112)
I0403 19:53:11.643467  9794 net.cpp:156] Memory required for data: 1239741984
I0403 19:53:11.643487  9794 layer_factory.hpp:77] Creating layer inception_4e/relu_5x5
I0403 19:53:11.643504  9794 net.cpp:91] Creating Layer inception_4e/relu_5x5
I0403 19:53:11.643520  9794 net.cpp:425] inception_4e/relu_5x5 <- inception_4e/5x5
I0403 19:53:11.643539  9794 net.cpp:386] inception_4e/relu_5x5 -> inception_4e/5x5 (in-place)
I0403 19:53:11.643733  9794 net.cpp:141] Setting up inception_4e/relu_5x5
I0403 19:53:11.643759  9794 net.cpp:148] Top shape: 24 128 14 14 (602112)
I0403 19:53:11.643774  9794 net.cpp:156] Memory required for data: 1242150432
I0403 19:53:11.643789  9794 layer_factory.hpp:77] Creating layer inception_4e/pool
I0403 19:53:11.643808  9794 net.cpp:91] Creating Layer inception_4e/pool
I0403 19:53:11.643826  9794 net.cpp:425] inception_4e/pool <- inception_4d/output_inception_4d/output_0_split_4
I0403 19:53:11.643843  9794 net.cpp:399] inception_4e/pool -> inception_4e/pool
I0403 19:53:11.643911  9794 net.cpp:141] Setting up inception_4e/pool
I0403 19:53:11.643936  9794 net.cpp:148] Top shape: 24 528 14 14 (2483712)
I0403 19:53:11.643951  9794 net.cpp:156] Memory required for data: 1252085280
I0403 19:53:11.643965  9794 layer_factory.hpp:77] Creating layer inception_4e/pool_proj
I0403 19:53:11.643986  9794 net.cpp:91] Creating Layer inception_4e/pool_proj
I0403 19:53:11.644006  9794 net.cpp:425] inception_4e/pool_proj <- inception_4e/pool
I0403 19:53:11.644027  9794 net.cpp:399] inception_4e/pool_proj -> inception_4e/pool_proj
I0403 19:53:11.645501  9794 net.cpp:141] Setting up inception_4e/pool_proj
I0403 19:53:11.645532  9794 net.cpp:148] Top shape: 24 128 14 14 (602112)
I0403 19:53:11.645560  9794 net.cpp:156] Memory required for data: 1254493728
I0403 19:53:11.645581  9794 layer_factory.hpp:77] Creating layer inception_4e/relu_pool_proj
I0403 19:53:11.645598  9794 net.cpp:91] Creating Layer inception_4e/relu_pool_proj
I0403 19:53:11.645615  9794 net.cpp:425] inception_4e/relu_pool_proj <- inception_4e/pool_proj
I0403 19:53:11.645632  9794 net.cpp:386] inception_4e/relu_pool_proj -> inception_4e/pool_proj (in-place)
I0403 19:53:11.645920  9794 net.cpp:141] Setting up inception_4e/relu_pool_proj
I0403 19:53:11.645949  9794 net.cpp:148] Top shape: 24 128 14 14 (602112)
I0403 19:53:11.645966  9794 net.cpp:156] Memory required for data: 1256902176
I0403 19:53:11.645980  9794 layer_factory.hpp:77] Creating layer inception_4e/output
I0403 19:53:11.645998  9794 net.cpp:91] Creating Layer inception_4e/output
I0403 19:53:11.646013  9794 net.cpp:425] inception_4e/output <- inception_4e/1x1
I0403 19:53:11.646028  9794 net.cpp:425] inception_4e/output <- inception_4e/3x3
I0403 19:53:11.646044  9794 net.cpp:425] inception_4e/output <- inception_4e/5x5
I0403 19:53:11.646059  9794 net.cpp:425] inception_4e/output <- inception_4e/pool_proj
I0403 19:53:11.646080  9794 net.cpp:399] inception_4e/output -> inception_4e/output
I0403 19:53:11.646129  9794 net.cpp:141] Setting up inception_4e/output
I0403 19:53:11.646152  9794 net.cpp:148] Top shape: 24 832 14 14 (3913728)
I0403 19:53:11.646168  9794 net.cpp:156] Memory required for data: 1272557088
I0403 19:53:11.646183  9794 layer_factory.hpp:77] Creating layer pool4/3x3_s2
I0403 19:53:11.646201  9794 net.cpp:91] Creating Layer pool4/3x3_s2
I0403 19:53:11.646217  9794 net.cpp:425] pool4/3x3_s2 <- inception_4e/output
I0403 19:53:11.646236  9794 net.cpp:399] pool4/3x3_s2 -> pool4/3x3_s2
I0403 19:53:11.646302  9794 net.cpp:141] Setting up pool4/3x3_s2
I0403 19:53:11.646325  9794 net.cpp:148] Top shape: 24 832 7 7 (978432)
I0403 19:53:11.646339  9794 net.cpp:156] Memory required for data: 1276470816
I0403 19:53:11.646353  9794 layer_factory.hpp:77] Creating layer pool4/3x3_s2_pool4/3x3_s2_0_split
I0403 19:53:11.646370  9794 net.cpp:91] Creating Layer pool4/3x3_s2_pool4/3x3_s2_0_split
I0403 19:53:11.646386  9794 net.cpp:425] pool4/3x3_s2_pool4/3x3_s2_0_split <- pool4/3x3_s2
I0403 19:53:11.646409  9794 net.cpp:399] pool4/3x3_s2_pool4/3x3_s2_0_split -> pool4/3x3_s2_pool4/3x3_s2_0_split_0
I0403 19:53:11.646436  9794 net.cpp:399] pool4/3x3_s2_pool4/3x3_s2_0_split -> pool4/3x3_s2_pool4/3x3_s2_0_split_1
I0403 19:53:11.646458  9794 net.cpp:399] pool4/3x3_s2_pool4/3x3_s2_0_split -> pool4/3x3_s2_pool4/3x3_s2_0_split_2
I0403 19:53:11.646478  9794 net.cpp:399] pool4/3x3_s2_pool4/3x3_s2_0_split -> pool4/3x3_s2_pool4/3x3_s2_0_split_3
I0403 19:53:11.646567  9794 net.cpp:141] Setting up pool4/3x3_s2_pool4/3x3_s2_0_split
I0403 19:53:11.646600  9794 net.cpp:148] Top shape: 24 832 7 7 (978432)
I0403 19:53:11.646618  9794 net.cpp:148] Top shape: 24 832 7 7 (978432)
I0403 19:53:11.646634  9794 net.cpp:148] Top shape: 24 832 7 7 (978432)
I0403 19:53:11.646649  9794 net.cpp:148] Top shape: 24 832 7 7 (978432)
I0403 19:53:11.646662  9794 net.cpp:156] Memory required for data: 1292125728
I0403 19:53:11.646677  9794 layer_factory.hpp:77] Creating layer inception_5a/1x1
I0403 19:53:11.646698  9794 net.cpp:91] Creating Layer inception_5a/1x1
I0403 19:53:11.646716  9794 net.cpp:425] inception_5a/1x1 <- pool4/3x3_s2_pool4/3x3_s2_0_split_0
I0403 19:53:11.646735  9794 net.cpp:399] inception_5a/1x1 -> inception_5a/1x1
I0403 19:53:11.649518  9794 net.cpp:141] Setting up inception_5a/1x1
I0403 19:53:11.649546  9794 net.cpp:148] Top shape: 24 256 7 7 (301056)
I0403 19:53:11.649562  9794 net.cpp:156] Memory required for data: 1293329952
I0403 19:53:11.649581  9794 layer_factory.hpp:77] Creating layer inception_5a/relu_1x1
I0403 19:53:11.649600  9794 net.cpp:91] Creating Layer inception_5a/relu_1x1
I0403 19:53:11.649616  9794 net.cpp:425] inception_5a/relu_1x1 <- inception_5a/1x1
I0403 19:53:11.649636  9794 net.cpp:386] inception_5a/relu_1x1 -> inception_5a/1x1 (in-place)
I0403 19:53:11.649940  9794 net.cpp:141] Setting up inception_5a/relu_1x1
I0403 19:53:11.649967  9794 net.cpp:148] Top shape: 24 256 7 7 (301056)
I0403 19:53:11.649982  9794 net.cpp:156] Memory required for data: 1294534176
I0403 19:53:11.649998  9794 layer_factory.hpp:77] Creating layer inception_5a/3x3_reduce
I0403 19:53:11.650019  9794 net.cpp:91] Creating Layer inception_5a/3x3_reduce
I0403 19:53:11.650038  9794 net.cpp:425] inception_5a/3x3_reduce <- pool4/3x3_s2_pool4/3x3_s2_0_split_1
I0403 19:53:11.650058  9794 net.cpp:399] inception_5a/3x3_reduce -> inception_5a/3x3_reduce
I0403 19:53:11.652462  9794 net.cpp:141] Setting up inception_5a/3x3_reduce
I0403 19:53:11.652493  9794 net.cpp:148] Top shape: 24 160 7 7 (188160)
I0403 19:53:11.652509  9794 net.cpp:156] Memory required for data: 1295286816
I0403 19:53:11.652528  9794 layer_factory.hpp:77] Creating layer inception_5a/relu_3x3_reduce
I0403 19:53:11.652545  9794 net.cpp:91] Creating Layer inception_5a/relu_3x3_reduce
I0403 19:53:11.652562  9794 net.cpp:425] inception_5a/relu_3x3_reduce <- inception_5a/3x3_reduce
I0403 19:53:11.652580  9794 net.cpp:386] inception_5a/relu_3x3_reduce -> inception_5a/3x3_reduce (in-place)
I0403 19:53:11.652762  9794 net.cpp:141] Setting up inception_5a/relu_3x3_reduce
I0403 19:53:11.652791  9794 net.cpp:148] Top shape: 24 160 7 7 (188160)
I0403 19:53:11.652806  9794 net.cpp:156] Memory required for data: 1296039456
I0403 19:53:11.652822  9794 layer_factory.hpp:77] Creating layer inception_5a/3x3
I0403 19:53:11.652842  9794 net.cpp:91] Creating Layer inception_5a/3x3
I0403 19:53:11.652860  9794 net.cpp:425] inception_5a/3x3 <- inception_5a/3x3_reduce
I0403 19:53:11.652884  9794 net.cpp:399] inception_5a/3x3 -> inception_5a/3x3
I0403 19:53:11.657815  9794 net.cpp:141] Setting up inception_5a/3x3
I0403 19:53:11.657845  9794 net.cpp:148] Top shape: 24 320 7 7 (376320)
I0403 19:53:11.657860  9794 net.cpp:156] Memory required for data: 1297544736
I0403 19:53:11.657877  9794 layer_factory.hpp:77] Creating layer inception_5a/relu_3x3
I0403 19:53:11.657896  9794 net.cpp:91] Creating Layer inception_5a/relu_3x3
I0403 19:53:11.657913  9794 net.cpp:425] inception_5a/relu_3x3 <- inception_5a/3x3
I0403 19:53:11.657933  9794 net.cpp:386] inception_5a/relu_3x3 -> inception_5a/3x3 (in-place)
I0403 19:53:11.658221  9794 net.cpp:141] Setting up inception_5a/relu_3x3
I0403 19:53:11.658248  9794 net.cpp:148] Top shape: 24 320 7 7 (376320)
I0403 19:53:11.658263  9794 net.cpp:156] Memory required for data: 1299050016
I0403 19:53:11.658278  9794 layer_factory.hpp:77] Creating layer inception_5a/5x5_reduce
I0403 19:53:11.658300  9794 net.cpp:91] Creating Layer inception_5a/5x5_reduce
I0403 19:53:11.658318  9794 net.cpp:425] inception_5a/5x5_reduce <- pool4/3x3_s2_pool4/3x3_s2_0_split_2
I0403 19:53:11.658340  9794 net.cpp:399] inception_5a/5x5_reduce -> inception_5a/5x5_reduce
I0403 19:53:11.659544  9794 net.cpp:141] Setting up inception_5a/5x5_reduce
I0403 19:53:11.659575  9794 net.cpp:148] Top shape: 24 32 7 7 (37632)
I0403 19:53:11.659592  9794 net.cpp:156] Memory required for data: 1299200544
I0403 19:53:11.659611  9794 layer_factory.hpp:77] Creating layer inception_5a/relu_5x5_reduce
I0403 19:53:11.659632  9794 net.cpp:91] Creating Layer inception_5a/relu_5x5_reduce
I0403 19:53:11.659651  9794 net.cpp:425] inception_5a/relu_5x5_reduce <- inception_5a/5x5_reduce
I0403 19:53:11.659667  9794 net.cpp:386] inception_5a/relu_5x5_reduce -> inception_5a/5x5_reduce (in-place)
I0403 19:53:11.659971  9794 net.cpp:141] Setting up inception_5a/relu_5x5_reduce
I0403 19:53:11.659998  9794 net.cpp:148] Top shape: 24 32 7 7 (37632)
I0403 19:53:11.660013  9794 net.cpp:156] Memory required for data: 1299351072
I0403 19:53:11.660027  9794 layer_factory.hpp:77] Creating layer inception_5a/5x5
I0403 19:53:11.660050  9794 net.cpp:91] Creating Layer inception_5a/5x5
I0403 19:53:11.660068  9794 net.cpp:425] inception_5a/5x5 <- inception_5a/5x5_reduce
I0403 19:53:11.660092  9794 net.cpp:399] inception_5a/5x5 -> inception_5a/5x5
I0403 19:53:11.661828  9794 net.cpp:141] Setting up inception_5a/5x5
I0403 19:53:11.661869  9794 net.cpp:148] Top shape: 24 128 7 7 (150528)
I0403 19:53:11.661885  9794 net.cpp:156] Memory required for data: 1299953184
I0403 19:53:11.661903  9794 layer_factory.hpp:77] Creating layer inception_5a/relu_5x5
I0403 19:53:11.661921  9794 net.cpp:91] Creating Layer inception_5a/relu_5x5
I0403 19:53:11.661938  9794 net.cpp:425] inception_5a/relu_5x5 <- inception_5a/5x5
I0403 19:53:11.661957  9794 net.cpp:386] inception_5a/relu_5x5 -> inception_5a/5x5 (in-place)
I0403 19:53:11.662148  9794 net.cpp:141] Setting up inception_5a/relu_5x5
I0403 19:53:11.662173  9794 net.cpp:148] Top shape: 24 128 7 7 (150528)
I0403 19:53:11.662189  9794 net.cpp:156] Memory required for data: 1300555296
I0403 19:53:11.662204  9794 layer_factory.hpp:77] Creating layer inception_5a/pool
I0403 19:53:11.662223  9794 net.cpp:91] Creating Layer inception_5a/pool
I0403 19:53:11.662240  9794 net.cpp:425] inception_5a/pool <- pool4/3x3_s2_pool4/3x3_s2_0_split_3
I0403 19:53:11.662258  9794 net.cpp:399] inception_5a/pool -> inception_5a/pool
I0403 19:53:11.662329  9794 net.cpp:141] Setting up inception_5a/pool
I0403 19:53:11.662353  9794 net.cpp:148] Top shape: 24 832 7 7 (978432)
I0403 19:53:11.662369  9794 net.cpp:156] Memory required for data: 1304469024
I0403 19:53:11.662384  9794 layer_factory.hpp:77] Creating layer inception_5a/pool_proj
I0403 19:53:11.662406  9794 net.cpp:91] Creating Layer inception_5a/pool_proj
I0403 19:53:11.662425  9794 net.cpp:425] inception_5a/pool_proj <- inception_5a/pool
I0403 19:53:11.662461  9794 net.cpp:399] inception_5a/pool_proj -> inception_5a/pool_proj
I0403 19:53:11.664752  9794 net.cpp:141] Setting up inception_5a/pool_proj
I0403 19:53:11.664783  9794 net.cpp:148] Top shape: 24 128 7 7 (150528)
I0403 19:53:11.664801  9794 net.cpp:156] Memory required for data: 1305071136
I0403 19:53:11.664820  9794 layer_factory.hpp:77] Creating layer inception_5a/relu_pool_proj
I0403 19:53:11.664839  9794 net.cpp:91] Creating Layer inception_5a/relu_pool_proj
I0403 19:53:11.664855  9794 net.cpp:425] inception_5a/relu_pool_proj <- inception_5a/pool_proj
I0403 19:53:11.664875  9794 net.cpp:386] inception_5a/relu_pool_proj -> inception_5a/pool_proj (in-place)
I0403 19:53:11.665171  9794 net.cpp:141] Setting up inception_5a/relu_pool_proj
I0403 19:53:11.665201  9794 net.cpp:148] Top shape: 24 128 7 7 (150528)
I0403 19:53:11.665218  9794 net.cpp:156] Memory required for data: 1305673248
I0403 19:53:11.665233  9794 layer_factory.hpp:77] Creating layer inception_5a/output
I0403 19:53:11.665251  9794 net.cpp:91] Creating Layer inception_5a/output
I0403 19:53:11.665268  9794 net.cpp:425] inception_5a/output <- inception_5a/1x1
I0403 19:53:11.665287  9794 net.cpp:425] inception_5a/output <- inception_5a/3x3
I0403 19:53:11.665302  9794 net.cpp:425] inception_5a/output <- inception_5a/5x5
I0403 19:53:11.665318  9794 net.cpp:425] inception_5a/output <- inception_5a/pool_proj
I0403 19:53:11.665338  9794 net.cpp:399] inception_5a/output -> inception_5a/output
I0403 19:53:11.665390  9794 net.cpp:141] Setting up inception_5a/output
I0403 19:53:11.665413  9794 net.cpp:148] Top shape: 24 832 7 7 (978432)
I0403 19:53:11.665433  9794 net.cpp:156] Memory required for data: 1309586976
I0403 19:53:11.665451  9794 layer_factory.hpp:77] Creating layer inception_5a/output_inception_5a/output_0_split
I0403 19:53:11.665472  9794 net.cpp:91] Creating Layer inception_5a/output_inception_5a/output_0_split
I0403 19:53:11.665489  9794 net.cpp:425] inception_5a/output_inception_5a/output_0_split <- inception_5a/output
I0403 19:53:11.665508  9794 net.cpp:399] inception_5a/output_inception_5a/output_0_split -> inception_5a/output_inception_5a/output_0_split_0
I0403 19:53:11.665526  9794 net.cpp:399] inception_5a/output_inception_5a/output_0_split -> inception_5a/output_inception_5a/output_0_split_1
I0403 19:53:11.665547  9794 net.cpp:399] inception_5a/output_inception_5a/output_0_split -> inception_5a/output_inception_5a/output_0_split_2
I0403 19:53:11.665573  9794 net.cpp:399] inception_5a/output_inception_5a/output_0_split -> inception_5a/output_inception_5a/output_0_split_3
I0403 19:53:11.665685  9794 net.cpp:141] Setting up inception_5a/output_inception_5a/output_0_split
I0403 19:53:11.665710  9794 net.cpp:148] Top shape: 24 832 7 7 (978432)
I0403 19:53:11.665727  9794 net.cpp:148] Top shape: 24 832 7 7 (978432)
I0403 19:53:11.665743  9794 net.cpp:148] Top shape: 24 832 7 7 (978432)
I0403 19:53:11.665758  9794 net.cpp:148] Top shape: 24 832 7 7 (978432)
I0403 19:53:11.665772  9794 net.cpp:156] Memory required for data: 1325241888
I0403 19:53:11.665787  9794 layer_factory.hpp:77] Creating layer inception_5b/1x1
I0403 19:53:11.665810  9794 net.cpp:91] Creating Layer inception_5b/1x1
I0403 19:53:11.665828  9794 net.cpp:425] inception_5b/1x1 <- inception_5a/output_inception_5a/output_0_split_0
I0403 19:53:11.665850  9794 net.cpp:399] inception_5b/1x1 -> inception_5b/1x1
I0403 19:53:11.669694  9794 net.cpp:141] Setting up inception_5b/1x1
I0403 19:53:11.669728  9794 net.cpp:148] Top shape: 24 384 7 7 (451584)
I0403 19:53:11.669744  9794 net.cpp:156] Memory required for data: 1327048224
I0403 19:53:11.669764  9794 layer_factory.hpp:77] Creating layer inception_5b/relu_1x1
I0403 19:53:11.669781  9794 net.cpp:91] Creating Layer inception_5b/relu_1x1
I0403 19:53:11.669797  9794 net.cpp:425] inception_5b/relu_1x1 <- inception_5b/1x1
I0403 19:53:11.669814  9794 net.cpp:386] inception_5b/relu_1x1 -> inception_5b/1x1 (in-place)
I0403 19:53:11.670120  9794 net.cpp:141] Setting up inception_5b/relu_1x1
I0403 19:53:11.670150  9794 net.cpp:148] Top shape: 24 384 7 7 (451584)
I0403 19:53:11.670166  9794 net.cpp:156] Memory required for data: 1328854560
I0403 19:53:11.670182  9794 layer_factory.hpp:77] Creating layer inception_5b/3x3_reduce
I0403 19:53:11.670204  9794 net.cpp:91] Creating Layer inception_5b/3x3_reduce
I0403 19:53:11.670222  9794 net.cpp:425] inception_5b/3x3_reduce <- inception_5a/output_inception_5a/output_0_split_1
I0403 19:53:11.670243  9794 net.cpp:399] inception_5b/3x3_reduce -> inception_5b/3x3_reduce
I0403 19:53:11.672926  9794 net.cpp:141] Setting up inception_5b/3x3_reduce
I0403 19:53:11.672958  9794 net.cpp:148] Top shape: 24 192 7 7 (225792)
I0403 19:53:11.672976  9794 net.cpp:156] Memory required for data: 1329757728
I0403 19:53:11.672996  9794 layer_factory.hpp:77] Creating layer inception_5b/relu_3x3_reduce
I0403 19:53:11.673014  9794 net.cpp:91] Creating Layer inception_5b/relu_3x3_reduce
I0403 19:53:11.673030  9794 net.cpp:425] inception_5b/relu_3x3_reduce <- inception_5b/3x3_reduce
I0403 19:53:11.673050  9794 net.cpp:386] inception_5b/relu_3x3_reduce -> inception_5b/3x3_reduce (in-place)
I0403 19:53:11.673241  9794 net.cpp:141] Setting up inception_5b/relu_3x3_reduce
I0403 19:53:11.673269  9794 net.cpp:148] Top shape: 24 192 7 7 (225792)
I0403 19:53:11.673283  9794 net.cpp:156] Memory required for data: 1330660896
I0403 19:53:11.673298  9794 layer_factory.hpp:77] Creating layer inception_5b/3x3
I0403 19:53:11.673321  9794 net.cpp:91] Creating Layer inception_5b/3x3
I0403 19:53:11.673338  9794 net.cpp:425] inception_5b/3x3 <- inception_5b/3x3_reduce
I0403 19:53:11.673362  9794 net.cpp:399] inception_5b/3x3 -> inception_5b/3x3
I0403 19:53:11.680057  9794 net.cpp:141] Setting up inception_5b/3x3
I0403 19:53:11.680088  9794 net.cpp:148] Top shape: 24 384 7 7 (451584)
I0403 19:53:11.680104  9794 net.cpp:156] Memory required for data: 1332467232
I0403 19:53:11.680124  9794 layer_factory.hpp:77] Creating layer inception_5b/relu_3x3
I0403 19:53:11.680141  9794 net.cpp:91] Creating Layer inception_5b/relu_3x3
I0403 19:53:11.680157  9794 net.cpp:425] inception_5b/relu_3x3 <- inception_5b/3x3
I0403 19:53:11.680176  9794 net.cpp:386] inception_5b/relu_3x3 -> inception_5b/3x3 (in-place)
I0403 19:53:11.680472  9794 net.cpp:141] Setting up inception_5b/relu_3x3
I0403 19:53:11.680501  9794 net.cpp:148] Top shape: 24 384 7 7 (451584)
I0403 19:53:11.680517  9794 net.cpp:156] Memory required for data: 1334273568
I0403 19:53:11.680531  9794 layer_factory.hpp:77] Creating layer inception_5b/5x5_reduce
I0403 19:53:11.680572  9794 net.cpp:91] Creating Layer inception_5b/5x5_reduce
I0403 19:53:11.680591  9794 net.cpp:425] inception_5b/5x5_reduce <- inception_5a/output_inception_5a/output_0_split_2
I0403 19:53:11.680611  9794 net.cpp:399] inception_5b/5x5_reduce -> inception_5b/5x5_reduce
I0403 19:53:11.681855  9794 net.cpp:141] Setting up inception_5b/5x5_reduce
I0403 19:53:11.681885  9794 net.cpp:148] Top shape: 24 48 7 7 (56448)
I0403 19:53:11.681901  9794 net.cpp:156] Memory required for data: 1334499360
I0403 19:53:11.681920  9794 layer_factory.hpp:77] Creating layer inception_5b/relu_5x5_reduce
I0403 19:53:11.681938  9794 net.cpp:91] Creating Layer inception_5b/relu_5x5_reduce
I0403 19:53:11.681954  9794 net.cpp:425] inception_5b/relu_5x5_reduce <- inception_5b/5x5_reduce
I0403 19:53:11.681972  9794 net.cpp:386] inception_5b/relu_5x5_reduce -> inception_5b/5x5_reduce (in-place)
I0403 19:53:11.682337  9794 net.cpp:141] Setting up inception_5b/relu_5x5_reduce
I0403 19:53:11.682363  9794 net.cpp:148] Top shape: 24 48 7 7 (56448)
I0403 19:53:11.682379  9794 net.cpp:156] Memory required for data: 1334725152
I0403 19:53:11.682394  9794 layer_factory.hpp:77] Creating layer inception_5b/5x5
I0403 19:53:11.682413  9794 net.cpp:91] Creating Layer inception_5b/5x5
I0403 19:53:11.682441  9794 net.cpp:425] inception_5b/5x5 <- inception_5b/5x5_reduce
I0403 19:53:11.682464  9794 net.cpp:399] inception_5b/5x5 -> inception_5b/5x5
I0403 19:53:11.684469  9794 net.cpp:141] Setting up inception_5b/5x5
I0403 19:53:11.684497  9794 net.cpp:148] Top shape: 24 128 7 7 (150528)
I0403 19:53:11.684512  9794 net.cpp:156] Memory required for data: 1335327264
I0403 19:53:11.684531  9794 layer_factory.hpp:77] Creating layer inception_5b/relu_5x5
I0403 19:53:11.684548  9794 net.cpp:91] Creating Layer inception_5b/relu_5x5
I0403 19:53:11.684564  9794 net.cpp:425] inception_5b/relu_5x5 <- inception_5b/5x5
I0403 19:53:11.684583  9794 net.cpp:386] inception_5b/relu_5x5 -> inception_5b/5x5 (in-place)
I0403 19:53:11.684772  9794 net.cpp:141] Setting up inception_5b/relu_5x5
I0403 19:53:11.684797  9794 net.cpp:148] Top shape: 24 128 7 7 (150528)
I0403 19:53:11.684811  9794 net.cpp:156] Memory required for data: 1335929376
I0403 19:53:11.684826  9794 layer_factory.hpp:77] Creating layer inception_5b/pool
I0403 19:53:11.684846  9794 net.cpp:91] Creating Layer inception_5b/pool
I0403 19:53:11.684862  9794 net.cpp:425] inception_5b/pool <- inception_5a/output_inception_5a/output_0_split_3
I0403 19:53:11.684881  9794 net.cpp:399] inception_5b/pool -> inception_5b/pool
I0403 19:53:11.684953  9794 net.cpp:141] Setting up inception_5b/pool
I0403 19:53:11.684978  9794 net.cpp:148] Top shape: 24 832 7 7 (978432)
I0403 19:53:11.684993  9794 net.cpp:156] Memory required for data: 1339843104
I0403 19:53:11.685009  9794 layer_factory.hpp:77] Creating layer inception_5b/pool_proj
I0403 19:53:11.685030  9794 net.cpp:91] Creating Layer inception_5b/pool_proj
I0403 19:53:11.685048  9794 net.cpp:425] inception_5b/pool_proj <- inception_5b/pool
I0403 19:53:11.685070  9794 net.cpp:399] inception_5b/pool_proj -> inception_5b/pool_proj
I0403 19:53:11.687346  9794 net.cpp:141] Setting up inception_5b/pool_proj
I0403 19:53:11.687378  9794 net.cpp:148] Top shape: 24 128 7 7 (150528)
I0403 19:53:11.687396  9794 net.cpp:156] Memory required for data: 1340445216
I0403 19:53:11.687413  9794 layer_factory.hpp:77] Creating layer inception_5b/relu_pool_proj
I0403 19:53:11.687438  9794 net.cpp:91] Creating Layer inception_5b/relu_pool_proj
I0403 19:53:11.687456  9794 net.cpp:425] inception_5b/relu_pool_proj <- inception_5b/pool_proj
I0403 19:53:11.687477  9794 net.cpp:386] inception_5b/relu_pool_proj -> inception_5b/pool_proj (in-place)
I0403 19:53:11.687772  9794 net.cpp:141] Setting up inception_5b/relu_pool_proj
I0403 19:53:11.687800  9794 net.cpp:148] Top shape: 24 128 7 7 (150528)
I0403 19:53:11.687815  9794 net.cpp:156] Memory required for data: 1341047328
I0403 19:53:11.687829  9794 layer_factory.hpp:77] Creating layer inception_5b/output
I0403 19:53:11.687846  9794 net.cpp:91] Creating Layer inception_5b/output
I0403 19:53:11.687877  9794 net.cpp:425] inception_5b/output <- inception_5b/1x1
I0403 19:53:11.687896  9794 net.cpp:425] inception_5b/output <- inception_5b/3x3
I0403 19:53:11.687913  9794 net.cpp:425] inception_5b/output <- inception_5b/5x5
I0403 19:53:11.687929  9794 net.cpp:425] inception_5b/output <- inception_5b/pool_proj
I0403 19:53:11.687947  9794 net.cpp:399] inception_5b/output -> inception_5b/output
I0403 19:53:11.687999  9794 net.cpp:141] Setting up inception_5b/output
I0403 19:53:11.688022  9794 net.cpp:148] Top shape: 24 1024 7 7 (1204224)
I0403 19:53:11.688037  9794 net.cpp:156] Memory required for data: 1345864224
I0403 19:53:11.688052  9794 layer_factory.hpp:77] Creating layer pool5/7x7_s1
I0403 19:53:11.688072  9794 net.cpp:91] Creating Layer pool5/7x7_s1
I0403 19:53:11.688089  9794 net.cpp:425] pool5/7x7_s1 <- inception_5b/output
I0403 19:53:11.688107  9794 net.cpp:399] pool5/7x7_s1 -> pool5/7x7_s1
I0403 19:53:11.688335  9794 net.cpp:141] Setting up pool5/7x7_s1
I0403 19:53:11.688360  9794 net.cpp:148] Top shape: 24 1024 1 1 (24576)
I0403 19:53:11.688376  9794 net.cpp:156] Memory required for data: 1345962528
I0403 19:53:11.688391  9794 layer_factory.hpp:77] Creating layer pool5/drop_7x7_s1
I0403 19:53:11.688408  9794 net.cpp:91] Creating Layer pool5/drop_7x7_s1
I0403 19:53:11.688424  9794 net.cpp:425] pool5/drop_7x7_s1 <- pool5/7x7_s1
I0403 19:53:11.688449  9794 net.cpp:386] pool5/drop_7x7_s1 -> pool5/7x7_s1 (in-place)
I0403 19:53:11.688513  9794 net.cpp:141] Setting up pool5/drop_7x7_s1
I0403 19:53:11.688539  9794 net.cpp:148] Top shape: 24 1024 1 1 (24576)
I0403 19:53:11.688555  9794 net.cpp:156] Memory required for data: 1346060832
I0403 19:53:11.688570  9794 layer_factory.hpp:77] Creating layer loss3/classifier_plantvillage
I0403 19:53:11.688587  9794 net.cpp:91] Creating Layer loss3/classifier_plantvillage
I0403 19:53:11.688604  9794 net.cpp:425] loss3/classifier_plantvillage <- pool5/7x7_s1
I0403 19:53:11.688624  9794 net.cpp:399] loss3/classifier_plantvillage -> loss3/classifier_plantvillage
I0403 19:53:11.689039  9794 net.cpp:141] Setting up loss3/classifier_plantvillage
I0403 19:53:11.689064  9794 net.cpp:148] Top shape: 24 38 (912)
I0403 19:53:11.689079  9794 net.cpp:156] Memory required for data: 1346064480
I0403 19:53:11.689095  9794 layer_factory.hpp:77] Creating layer loss3/classifier_plantvillage_loss3/classifier_plantvillage_0_split
I0403 19:53:11.689116  9794 net.cpp:91] Creating Layer loss3/classifier_plantvillage_loss3/classifier_plantvillage_0_split
I0403 19:53:11.689134  9794 net.cpp:425] loss3/classifier_plantvillage_loss3/classifier_plantvillage_0_split <- loss3/classifier_plantvillage
I0403 19:53:11.689152  9794 net.cpp:399] loss3/classifier_plantvillage_loss3/classifier_plantvillage_0_split -> loss3/classifier_plantvillage_loss3/classifier_plantvillage_0_split_0
I0403 19:53:11.689172  9794 net.cpp:399] loss3/classifier_plantvillage_loss3/classifier_plantvillage_0_split -> loss3/classifier_plantvillage_loss3/classifier_plantvillage_0_split_1
I0403 19:53:11.689194  9794 net.cpp:399] loss3/classifier_plantvillage_loss3/classifier_plantvillage_0_split -> loss3/classifier_plantvillage_loss3/classifier_plantvillage_0_split_2
I0403 19:53:11.689214  9794 net.cpp:399] loss3/classifier_plantvillage_loss3/classifier_plantvillage_0_split -> loss3/classifier_plantvillage_loss3/classifier_plantvillage_0_split_3
I0403 19:53:11.689314  9794 net.cpp:141] Setting up loss3/classifier_plantvillage_loss3/classifier_plantvillage_0_split
I0403 19:53:11.689338  9794 net.cpp:148] Top shape: 24 38 (912)
I0403 19:53:11.689354  9794 net.cpp:148] Top shape: 24 38 (912)
I0403 19:53:11.689370  9794 net.cpp:148] Top shape: 24 38 (912)
I0403 19:53:11.689385  9794 net.cpp:148] Top shape: 24 38 (912)
I0403 19:53:11.689399  9794 net.cpp:156] Memory required for data: 1346079072
I0403 19:53:11.689414  9794 layer_factory.hpp:77] Creating layer loss1/loss
I0403 19:53:11.689441  9794 net.cpp:91] Creating Layer loss1/loss
I0403 19:53:11.689461  9794 net.cpp:425] loss1/loss <- loss1/classifier_plantvillage_loss1/classifier_plantvillage_0_split_0
I0403 19:53:11.689491  9794 net.cpp:425] loss1/loss <- label_data_1_split_0
…
