…
I0403 19:51:46.874630  9766 net.cpp:313] The NetState phase (1) differed from the phase (0) specified by a rule in layer data
I0403 19:51:46.877619  9766 net.cpp:49] Initializing net from parameters: 
state {
  phase: TEST
}
layer {
  name: "data"
  type: "Data"
  top: "data"
  top: "label"
  include {
    phase: TEST
  }
  transform_param {
    mirror: false
    crop_size: 224
    mean_file: "/home/mohanty/data/final_dataset/lmdb/color-60-40/mean.binaryproto"
  }
  data_param {
    source: "/home/mohanty/data/final_dataset/lmdb/color-60-40/test_db"
    batch_size: 24
    backend: LMDB
  }
}
layer {
  name: "conv1/7x7_s2"
  type: "Convolution"
  bottom: "data"
  top: "conv1/7x7_s2"
  param {
    lr_mult: 1
    decay_mult: 1
  }
  param {
    lr_mult: 2
    decay_mult: 0
  }
  convolution_param {
    num_output: 64
    pad: 3
    kernel_size: 7
    stride: 2
    weight_filler {
      type: "xavier"
      std: 0.1
    }
    bias_filler {
      type: "constant"
      value: 0.2
    }
  }
}
layer {
  name: "conv1/relu_7x7"
  type: "ReLU"
  bottom: "conv1/7x7_s2"
  top: "conv1/7x7_s2"
}
layer {
  name: "pool1/3x3_s2"
  type: "Pooling"
  bottom: "conv1/7x7_s2"
  top: "pool1/3x3_s2"
  pooling_param {
    pool: MAX
    kernel_size: 3
    stride: 2
  }
}
layer {
  name: "pool1/norm1"
  type: "LRN"
  bottom: "pool1/3x3_s2"
  top: "pool1/norm1"
  lrn_param {
    local_size: 5
    alpha: 0.0001
    beta: 0.75
  }
}
layer {
  name: "conv2/3x3_reduce"
  type: "Convolution"
  bottom: "pool1/norm1"
  top: "conv2/3x3_reduce"
  param {
    lr_mult: 1
    decay_mult: 1
  }
  param {
    lr_mult: 2
    decay_mult: 0
  }
  convolution_param {
    num_output: 64
    kernel_size: 1
    weight_filler {
      type: "xavier"
      std: 0.1
    }
    bias_filler {
      type: "constant"
      value: 0.2
    }
  }
}
layer {
  name: "conv2/relu_3x3_reduce"
  type: "ReLU"
  bottom: "conv2/3x3_reduce"
  top: "conv2/3x3_reduce"
}
layer {
  name: "conv2/3x3"
  type: "Convolution"
  bottom: "conv2/3x3_reduce"
  top: "conv2/3x3"
  param {
    lr_mult: 1
    decay_mult: 1
  }
  param {
    lr_mult: 2
    decay_mult: 0
  }
  convolution_param {
    num_output: 192
    pad: 1
    kernel_size: 3
    weight_filler {
      type: "xavier"
      std: 0.03
    }
    bias_filler {
      type: "constant"
      value: 0.2
    }
  }
}
layer {
  name: "conv2/relu_3x3"
  type: "ReLU"
  bottom: "conv2/3x3"
  top: "conv2/3x3"
}
layer {
  name: "conv2/norm2"
  type: "LRN"
  bottom: "conv2/3x3"
  top: "conv2/norm2"
  lrn_param {
    local_size: 5
    alpha: 0.0001
    beta: 0.75
  }
}
layer {
  name: "pool2/3x3_s2"
  type: "Pooling"
  bottom: "conv2/norm2"
  top: "pool2/3x3_s2"
  pooling_param {
    pool: MAX
    kernel_size: 3
    stride: 2
  }
}
layer {
  name: "inception_3a/1x1"
  type: "Convolution"
  bottom: "pool2/3x3_s2"
  top: "inception_3a/1x1"
  param {
    lr_mult: 1
    decay_mult: 1
  }
  param {
    lr_mult: 2
    decay_mult: 0
  }
  convolution_param {
    num_output: 64
    kernel_size: 1
    weight_filler {
      type: "xavier"
      std: 0.03
    }
    bias_filler {
      type: "constant"
      value: 0.2
    }
  }
}
layer {
  name: "inception_3a/relu_1x1"
  type: "ReLU"
  bottom: "inception_3a/1x1"
  top: "inception_3a/1x1"
}
layer {
  name: "inception_3a/3x3_reduce"
  type: "Convolution"
  bottom: "pool2/3x3_s2"
  top: "inception_3a/3x3_reduce"
  param {
    lr_mult: 1
    decay_mult: 1
  }
  param {
    lr_mult: 2
    decay_mult: 0
  }
  convolution_param {
    num_output: 96
    kernel_size: 1
    weight_filler {
      type: "xavier"
      std: 0.09
    }
    bias_filler {
      type: "constant"
      value: 0.2
    }
  }
}
layer {
  name: "inception_3a/relu_3x3_reduce"
  type: "ReLU"
  bottom: "inception_3a/3x3_reduce"
  top: "inception_3a/3x3_reduce"
}
layer {
  name: "inception_3a/3x3"
  type: "Convolution"
  bottom: "inception_3a/3x3_reduce"
  top: "inception_3a/3x3"
  param {
    lr_mult: 1
    decay_mult: 1
  }
  param {
    lr_mult: 2
    decay_mult: 0
  }
  convolution_param {
    num_output: 128
    pad: 1
    kernel_size: 3
    weight_filler {
      type: "xavier"
      std: 0.03
    }
    bias_filler {
      type: "constant"
      value: 0.2
    }
  }
}
layer {
  name: "inception_3a/relu_3x3"
  type: "ReLU"
  bottom: "inception_3a/3x3"
  top: "inception_3a/3x3"
}
layer {
  name: "inception_3a/5x5_reduce"
  type: "Convolution"
  bottom: "pool2/3x3_s2"
  top: "inception_3a/5x5_reduce"
  param {
    lr_mult: 1
    decay_mult: 1
  }
  param {
    lr_mult: 2
    decay_mult: 0
  }
  convolution_param {
    num_output: 16
    kernel_size: 1
    weight_filler {
      type: "xavier"
      std: 0.2
    }
    bias_filler {
      type: "constant"
      value: 0.2
    }
  }
}
layer {
  name: "inception_3a/relu_5x5_reduce"
  type: "ReLU"
  bottom: "inception_3a/5x5_reduce"
  top: "inception_3a/5x5_reduce"
}
layer {
  name: "inception_3a/5x5"
  type: "Convolution"
  bottom: "inception_3a/5x5_reduce"
  top: "inception_3a/5x5"
  param {
    lr_mult: 1
    decay_mult: 1
  }
  param {
    lr_mult: 2
    decay_mult: 0
  }
  convolution_param {
    num_output: 32
    pad: 2
    kernel_size: 5
    weight_filler {
      type: "xavier"
      std: 0.03
    }
    bias_filler {
      type: "constant"
      value: 0.2
    }
  }
}
layer {
  name: "inception_3a/relu_5x5"
  type: "ReLU"
  bottom: "inception_3a/5x5"
  top: "inception_3a/5x5"
}
layer {
  name: "inception_3a/pool"
  type: "Pooling"
  bottom: "pool2/3x3_s2"
  top: "inception_3a/pool"
  pooling_param {
    pool: MAX
    kernel_size: 3
    stride: 1
    pad: 1
  }
}
layer {
  name: "inception_3a/pool_proj"
  type: "Convolution"
  bottom: "inception_3a/pool"
  top: "inception_3a/pool_proj"
  param {
    lr_mult: 1
    decay_mult: 1
  }
  param {
    lr_mult: 2
    decay_mult: 0
  }
  convolution_param {
    num_output: 32
    kernel_size: 1
    weight_filler {
      type: "xavier"
      std: 0.1
    }
    bias_filler {
      type: "constant"
      value: 0.2
    }
  }
}
layer {
  name: "inception_3a/relu_pool_proj"
  type: "ReLU"
  bottom: "inception_3a/pool_proj"
  top: "inception_3a/pool_proj"
}
layer {
  name: "inception_3a/output"
  type: "Concat"
  bottom: "inception_3a/1x1"
  bottom: "inception_3a/3x3"
  bottom: "inception_3a/5x5"
  bottom: "inception_3a/pool_proj"
  top: "inception_3a/output"
}
layer {
  name: "inception_3b/1x1"
  type: "Convolution"
  bottom: "inception_3a/output"
  top: "inception_3b/1x1"
  param {
    lr_mult: 1
    decay_mult: 1
  }
  param {
    lr_mult: 2
    decay_mult: 0
  }
  convolution_param {
    num_output: 128
    kernel_size: 1
    weight_filler {
      type: "xavier"
      std: 0.03
    }
    bias_filler {
      type: "constant"
      value: 0.2
    }
  }
}
layer {
  name: "inception_3b/relu_1x1"
  type: "ReLU"
  bottom: "inception_3b/1x1"
  top: "inception_3b/1x1"
}
layer {
  name: "inception_3b/3x3_reduce"
  type: "Convolution"
  bottom: "inception_3a/output"
  top: "inception_3b/3x3_reduce"
  param {
    lr_mult: 1
    decay_mult: 1
  }
  param {
    lr_mult: 2
    decay_mult: 0
  }
  convolution_param {
    num_output: 128
    kernel_size: 1
    weight_filler {
      type: "xavier"
      std: 0.09
    }
    bias_filler {
      type: "constant"
      value: 0.2
    }
  }
}
layer {
  name: "inception_3b/relu_3x3_reduce"
  type: "ReLU"
  bottom: "inception_3b/3x3_reduce"
  top: "inception_3b/3x3_reduce"
}
layer {
  name: "inception_3b/3x3"
  type: "Convolution"
  bottom: "inception_3b/3x3_reduce"
  top: "inception_3b/3x3"
  param {
    lr_mult: 1
    decay_mult: 1
  }
  param {
    lr_mult: 2
    decay_mult: 0
  }
  convolution_param {
    num_output: 192
    pad: 1
    kernel_size: 3
    weight_filler {
      type: "xavier"
      std: 0.03
    }
    bias_filler {
      type: "constant"
      value: 0.2
    }
  }
}
layer {
  name: "inception_3b/relu_3x3"
  type: "ReLU"
  bottom: "inception_3b/3x3"
  top: "inception_3b/3x3"
}
layer {
  name: "inception_3b/5x5_reduce"
  type: "Convolution"
  bottom: "inception_3a/output"
  top: "inception_3b/5x5_reduce"
  param {
    lr_mult: 1
    decay_mult: 1
  }
  param {
    lr_mult: 2
    decay_mult: 0
  }
  convolution_param {
    num_output: 32
    kernel_size: 1
    weight_filler {
      type: "xavier"
      std: 0.2
    }
    bias_filler {
      type: "constant"
      value: 0.2
    }
  }
}
layer {
  name: "inception_3b/relu_5x5_reduce"
  type: "ReLU"
  bottom: "inception_3b/5x5_reduce"
  top: "inception_3b/5x5_reduce"
}
layer {
  name: "inception_3b/5x5"
  type: "Convolution"
  bottom: "inception_3b/5x5_reduce"
  top: "inception_3b/5x5"
  param {
    lr_mult: 1
    decay_mult: 1
  }
  param {
    lr_mult: 2
    decay_mult: 0
  }
  convolution_param {
    num_output: 96
    pad: 2
    kernel_size: 5
    weight_filler {
      type: "xavier"
      std: 0.03
    }
    bias_filler {
      type: "constant"
      value: 0.2
    }
  }
}
layer {
  name: "inception_3b/relu_5x5"
  type: "ReLU"
  bottom: "inception_3b/5x5"
  top: "inception_3b/5x5"
}
layer {
  name: "inception_3b/pool"
  type: "Pooling"
  bottom: "inception_3a/output"
  top: "inception_3b/pool"
  pooling_param {
    pool: MAX
    kernel_size: 3
    stride: 1
    pad: 1
  }
}
layer {
  name: "inception_3b/pool_proj"
  type: "Convolution"
  bottom: "inception_3b/pool"
  top: "inception_3b/pool_proj"
  param {
    lr_mult: 1
    decay_mult: 1
  }
  param {
    lr_mult: 2
    decay_mult: 0
  }
  convolution_param {
    num_output: 64
    kernel_size: 1
    weight_filler {
      type: "xavier"
      std: 0.1
    }
    bias_filler {
      type: "constant"
      value: 0.2
    }
  }
}
layer {
  name: "inception_3b/relu_pool_proj"
  type: "ReLU"
  bottom: "inception_3b/pool_proj"
  top: "inception_3b/pool_proj"
}
layer {
  name: "inception_3b/output"
  type: "Concat"
  bottom: "inception_3b/1x1"
  bottom: "inception_3b/3x3"
  bottom: "inception_3b/5x5"
  bottom: "inception_3b/pool_proj"
  top: "inception_3b/output"
}
layer {
  name: "pool3/3x3_s2"
  type: "Pooling"
  bottom: "inception_3b/output"
  top: "pool3/3x3_s2"
  pooling_param {
    pool: MAX
    kernel_size: 3
    stride: 2
  }
}
layer {
  name: "inception_4a/1x1"
  type: "Convolution"
  bottom: "pool3/3x3_s2"
  top: "inception_4a/1x1"
  param {
    lr_mult: 1
    decay_mult: 1
  }
  param {
    lr_mult: 2
    decay_mult: 0
  }
  convolution_param {
    num_output: 192
    kernel_size: 1
    weight_filler {
      type: "xavier"
      std: 0.03
    }
    bias_filler {
      type: "constant"
      value: 0.2
    }
  }
}
layer {
  name: "inception_4a/relu_1x1"
  type: "ReLU"
  bottom: "inception_4a/1x1"
  top: "inception_4a/1x1"
}
layer {
  name: "inception_4a/3x3_reduce"
  type: "Convolution"
  bottom: "pool3/3x3_s2"
  top: "inception_4a/3x3_reduce"
  param {
    lr_mult: 1
    decay_mult: 1
  }
  param {
    lr_mult: 2
    decay_mult: 0
  }
  convolution_param {
    num_output: 96
    kernel_size: 1
    weight_filler {
      type: "xavier"
      std: 0.09
    }
    bias_filler {
      type: "constant"
      value: 0.2
    }
  }
}
layer {
  name: "inception_4a/relu_3x3_reduce"
  type: "ReLU"
  bottom: "inception_4a/3x3_reduce"
  top: "inception_4a/3x3_reduce"
}
layer {
  name: "inception_4a/3x3"
  type: "Convolution"
  bottom: "inception_4a/3x3_reduce"
  top: "inception_4a/3x3"
  param {
    lr_mult: 1
    decay_mult: 1
  }
  param {
    lr_mult: 2
    decay_mult: 0
  }
  convolution_param {
    num_output: 208
    pad: 1
    kernel_size: 3
    weight_filler {
      type: "xavier"
      std: 0.03
    }
    bias_filler {
      type: "constant"
      value: 0.2
    }
  }
}
layer {
  name: "inception_4a/relu_3x3"
  type: "ReLU"
  bottom: "inception_4a/3x3"
  top: "inception_4a/3x3"
}
layer {
  name: "inception_4a/5x5_reduce"
  type: "Convolution"
  bottom: "pool3/3x3_s2"
  top: "inception_4a/5x5_reduce"
  param {
    lr_mult: 1
    decay_mult: 1
  }
  param {
    lr_mult: 2
    decay_mult: 0
  }
  convolution_param {
    num_output: 16
    kernel_size: 1
    weight_filler {
      type: "xavier"
      std: 0.2
    }
    bias_filler {
      type: "constant"
      value: 0.2
    }
  }
}
layer {
  name: "inception_4a/relu_5x5_reduce"
  type: "ReLU"
  bottom: "inception_4a/5x5_reduce"
  top: "inception_4a/5x5_reduce"
}
layer {
  name: "inception_4a/5x5"
  type: "Convolution"
  bottom: "inception_4a/5x5_reduce"
  top: "inception_4a/5x5"
  param {
    lr_mult: 1
    decay_mult: 1
  }
  param {
    lr_mult: 2
    decay_mult: 0
  }
  convolution_param {
    num_output: 48
    pad: 2
    kernel_size: 5
    weight_filler {
      type: "xavier"
      std: 0.03
    }
    bias_filler {
      type: "constant"
      value: 0.2
    }
  }
}
layer {
  name: "inception_4a/relu_5x5"
  type: "ReLU"
  bottom: "inception_4a/5x5"
  top: "inception_4a/5x5"
}
layer {
  name: "inception_4a/pool"
  type: "Pooling"
  bottom: "pool3/3x3_s2"
  top: "inception_4a/pool"
  pooling_param {
    pool: MAX
    kernel_size: 3
    stride: 1
    pad: 1
  }
}
layer {
  name: "inception_4a/pool_proj"
  type: "Convolution"
  bottom: "inception_4a/pool"
  top: "inception_4a/pool_proj"
  param {
    lr_mult: 1
    decay_mult: 1
  }
  param {
    lr_mult: 2
    decay_mult: 0
  }
  convolution_param {
    num_output: 64
    kernel_size: 1
    weight_filler {
      type: "xavier"
      std: 0.1
    }
    bias_filler {
      type: "constant"
      value: 0.2
    }
  }
}
layer {
  name: "inception_4a/relu_pool_proj"
  type: "ReLU"
  bottom: "inception_4a/pool_proj"
  top: "inception_4a/pool_proj"
}
layer {
  name: "inception_4a/output"
  type: "Concat"
  bottom: "inception_4a/1x1"
  bottom: "inception_4a/3x3"
  bottom: "inception_4a/5x5"
  bottom: "inception_4a/pool_proj"
  top: "inception_4a/output"
}
layer {
  name: "loss1/ave_pool"
  type: "Pooling"
  bottom: "inception_4a/output"
  top: "loss1/ave_pool"
  pooling_param {
    pool: AVE
    kernel_size: 5
    stride: 3
  }
}
layer {
  name: "loss1/conv"
  type: "Convolution"
  bottom: "loss1/ave_pool"
  top: "loss1/conv"
  param {
    lr_mult: 1
    decay_mult: 1
  }
  param {
    lr_mult: 2
    decay_mult: 0
  }
  convolution_param {
    num_output: 128
    kernel_size: 1
    weight_filler {
      type: "xavier"
      std: 0.08
    }
    bias_filler {
      type: "constant"
      value: 0.2
    }
  }
}
layer {
  name: "loss1/relu_conv"
  type: "ReLU"
  bottom: "loss1/conv"
  top: "loss1/conv"
}
layer {
  name: "loss1/fc"
  type: "InnerProduct"
  bottom: "loss1/conv"
  top: "loss1/fc"
  param {
    lr_mult: 1
    decay_mult: 1
  }
  param {
    lr_mult: 2
    decay_mult: 0
  }
  inner_product_param {
    num_output: 1024
    weight_filler {
      type: "xavier"
      std: 0.02
    }
    bias_filler {
      type: "constant"
      value: 0.2
    }
  }
}
layer {
  name: "loss1/relu_fc"
  type: "ReLU"
  bottom: "loss1/fc"
  top: "loss1/fc"
}
layer {
  name: "loss1/drop_fc"
  type: "Dropout"
  bottom: "loss1/fc"
  top: "loss1/fc"
  dropout_param {
    dropout_ratio: 0.7
  }
}
layer {
  name: "loss1/classifier_plantvillage"
  type: "InnerProduct"
  bottom: "loss1/fc"
  top: "loss1/classifier_plantvillage"
  param {
    lr_mult: 1
    decay_mult: 1
  }
  param {
    lr_mult: 2
    decay_mult: 0
  }
  inner_product_param {
    num_output: 38
    weight_filler {
      type: "xavier"
      std: 0.0009765625
    }
    bias_filler {
      type: "constant"
      value: 0
    }
  }
}
layer {
  name: "inception_4b/1x1"
  type: "Convolution"
  bottom: "inception_4a/output"
  top: "inception_4b/1x1"
  param {
    lr_mult: 1
    decay_mult: 1
  }
  param {
    lr_mult: 2
    decay_mult: 0
  }
  convolution_param {
    num_output: 160
    kernel_size: 1
    weight_filler {
      type: "xavier"
      std: 0.03
    }
    bias_filler {
      type: "constant"
      value: 0.2
    }
  }
}
layer {
  name: "inception_4b/relu_1x1"
  type: "ReLU"
  bottom: "inception_4b/1x1"
  top: "inception_4b/1x1"
}
layer {
  name: "inception_4b/3x3_reduce"
  type: "Convolution"
  bottom: "inception_4a/output"
  top: "inception_4b/3x3_reduce"
  param {
    lr_mult: 1
    decay_mult: 1
  }
  param {
    lr_mult: 2
    decay_mult: 0
  }
  convolution_param {
    num_output: 112
    kernel_size: 1
    weight_filler {
      type: "xavier"
      std: 0.09
    }
    bias_filler {
      type: "constant"
      value: 0.2
    }
  }
}
layer {
  name: "inception_4b/relu_3x3_reduce"
  type: "ReLU"
  bottom: "inception_4b/3x3_reduce"
  top: "inception_4b/3x3_reduce"
}
layer {
  name: "inception_4b/3x3"
  type: "Convolution"
  bottom: "inception_4b/3x3_reduce"
  top: "inception_4b/3x3"
  param {
    lr_mult: 1
    decay_mult: 1
  }
  param {
    lr_mult: 2
    decay_mult: 0
  }
  convolution_param {
    num_output: 224
    pad: 1
    kernel_size: 3
    weight_filler {
      type: "xavier"
      std: 0.03
    }
    bias_filler {
      type: "constant"
      value: 0.2
    }
  }
}
layer {
  name: "inception_4b/relu_3x3"
  type: "ReLU"
  bottom: "inception_4b/3x3"
  top: "inception_4b/3x3"
}
layer {
  name: "inception_4b/5x5_reduce"
  type: "Convolution"
  bottom: "inception_4a/output"
  top: "inception_4b/5x5_reduce"
  param {
    lr_mult: 1
    decay_mult: 1
  }
  param {
    lr_mult: 2
    decay_mult: 0
  }
  convolution_param {
    num_output: 24
    kernel_size: 1
    weight_filler {
      type: "xavier"
      std: 0.2
    }
    bias_filler {
      type: "constant"
      value: 0.2
    }
  }
}
layer {
  name: "inception_4b/relu_5x5_reduce"
  type: "ReLU"
  bottom: "inception_4b/5x5_reduce"
  top: "inception_4b/5x5_reduce"
}
layer {
  name: "inception_4b/5x5"
  type: "Convolution"
  bottom: "inception_4b/5x5_reduce"
  top: "inception_4b/5x5"
  param {
    lr_mult: 1
    decay_mult: 1
  }
  param {
    lr_mult: 2
    decay_mult: 0
  }
  convolution_param {
    num_output: 64
    pad: 2
    kernel_size: 5
    weight_filler {
      type: "xavier"
      std: 0.03
    }
    bias_filler {
      type: "constant"
      value: 0.2
    }
  }
}
layer {
  name: "inception_4b/relu_5x5"
  type: "ReLU"
  bottom: "inception_4b/5x5"
  top: "inception_4b/5x5"
}
layer {
  name: "inception_4b/pool"
  type: "Pooling"
  bottom: "inception_4a/output"
  top: "inception_4b/pool"
  pooling_param {
    pool: MAX
    kernel_size: 3
    stride: 1
    pad: 1
  }
}
layer {
  name: "inception_4b/pool_proj"
  type: "Convolution"
  bottom: "inception_4b/pool"
  top: "inception_4b/pool_proj"
  param {
    lr_mult: 1
    decay_mult: 1
  }
  param {
    lr_mult: 2
    decay_mult: 0
  }
  convolution_param {
    num_output: 64
    kernel_size: 1
    weight_filler {
      type: "xavier"
      std: 0.1
    }
    bias_filler {
      type: "constant"
      value: 0.2
    }
  }
}
layer {
  name: "inception_4b/relu_pool_proj"
  type: "ReLU"
  bottom: "inception_4b/pool_proj"
  top: "inception_4b/pool_proj"
}
layer {
  name: "inception_4b/output"
  type: "Concat"
  bottom: "inception_4b/1x1"
  bottom: "inception_4b/3x3"
  bottom: "inception_4b/5x5"
  bottom: "inception_4b/pool_proj"
  top: "inception_4b/output"
}
layer {
  name: "inception_4c/1x1"
  type: "Convolution"
  bottom: "inception_4b/output"
  top: "inception_4c/1x1"
  param {
    lr_mult: 1
    decay_mult: 1
  }
  param {
    lr_mult: 2
    decay_mult: 0
  }
  convolution_param {
    num_output: 128
    kernel_size: 1
    weight_filler {
      type: "xavier"
      std: 0.03
    }
    bias_filler {
      type: "constant"
      value: 0.2
    }
  }
}
layer {
  name: "inception_4c/relu_1x1"
  type: "ReLU"
  bottom: "inception_4c/1x1"
  top: "inception_4c/1x1"
}
layer {
  name: "inception_4c/3x3_reduce"
  type: "Convolution"
  bottom: "inception_4b/output"
  top: "inception_4c/3x3_reduce"
  param {
    lr_mult: 1
    decay_mult: 1
  }
  param {
    lr_mult: 2
    decay_mult: 0
  }
  convolution_param {
    num_output: 128
    kernel_size: 1
    weight_filler {
      type: "xavier"
      std: 0.09
    }
    bias_filler {
      type: "constant"
      value: 0.2
    }
  }
}
layer {
  name: "inception_4c/relu_3x3_reduce"
  type: "ReLU"
  bottom: "inception_4c/3x3_reduce"
  top: "inception_4c/3x3_reduce"
}
layer {
  name: "inception_4c/3x3"
  type: "Convolution"
  bottom: "inception_4c/3x3_reduce"
  top: "inception_4c/3x3"
  param {
    lr_mult: 1
    decay_mult: 1
  }
  param {
    lr_mult: 2
    decay_mult: 0
  }
  convolution_param {
    num_output: 256
    pad: 1
    kernel_size: 3
    weight_filler {
      type: "xavier"
      std: 0.03
    }
    bias_filler {
      type: "constant"
      value: 0.2
    }
  }
}
layer {
  name: "inception_4c/relu_3x3"
  type: "ReLU"
  bottom: "inception_4c/3x3"
  top: "inception_4c/3x3"
}
layer {
  name: "inception_4c/5x5_reduce"
  type: "Convolution"
  bottom: "inception_4b/output"
  top: "inception_4c/5x5_reduce"
  param {
    lr_mult: 1
    decay_mult: 1
  }
  param {
    lr_mult: 2
    decay_mult: 0
  }
  convolution_param {
    num_output: 24
    kernel_size: 1
    weight_filler {
      type: "xavier"
      std: 0.2
    }
    bias_filler {
      type: "constant"
      value: 0.2
    }
  }
}
layer {
  name: "inception_4c/relu_5x5_reduce"
  type: "ReLU"
  bottom: "inception_4c/5x5_reduce"
  top: "inception_4c/5x5_reduce"
}
layer {
  name: "inception_4c/5x5"
  type: "Convolution"
  bottom: "inception_4c/5x5_reduce"
  top: "inception_4c/5x5"
  param {
    lr_mult: 1
    decay_mult: 1
  }
  param {
    lr_mult: 2
    decay_mult: 0
  }
  convolution_param {
    num_output: 64
    pad: 2
    kernel_size: 5
    weight_filler {
      type: "xavier"
      std: 0.03
    }
    bias_filler {
      type: "constant"
      value: 0.2
    }
  }
}
layer {
  name: "inception_4c/relu_5x5"
  type: "ReLU"
  bottom: "inception_4c/5x5"
  top: "inception_4c/5x5"
}
layer {
  name: "inception_4c/pool"
  type: "Pooling"
  bottom: "inception_4b/output"
  top: "inception_4c/pool"
  pooling_param {
    pool: MAX
    kernel_size: 3
    stride: 1
    pad: 1
  }
}
layer {
  name: "inception_4c/pool_proj"
  type: "Convolution"
  bottom: "inception_4c/pool"
  top: "inception_4c/pool_proj"
  param {
    lr_mult: 1
    decay_mult: 1
  }
  param {
    lr_mult: 2
    decay_mult: 0
  }
  convolution_param {
    num_output: 64
    kernel_size: 1
    weight_filler {
      type: "xavier"
      std: 0.1
    }
    bias_filler {
      type: "constant"
      value: 0.2
    }
  }
}
layer {
  name: "inception_4c/relu_pool_proj"
  type: "ReLU"
  bottom: "inception_4c/pool_proj"
  top: "inception_4c/pool_proj"
}
layer {
  name: "inception_4c/output"
  type: "Concat"
  bottom: "inception_4c/1x1"
  bottom: "inception_4c/3x3"
  bottom: "inception_4c/5x5"
  bottom: "inception_4c/pool_proj"
  top: "inception_4c/output"
}
layer {
  name: "inception_4d/1x1"
  type: "Convolution"
  bottom: "inception_4c/output"
  top: "inception_4d/1x1"
  param {
    lr_mult: 1
    decay_mult: 1
  }
  param {
    lr_mult: 2
    decay_mult: 0
  }
  convolution_param {
    num_output: 112
    kernel_size: 1
    weight_filler {
      type: "xavier"
      std: 0.03
    }
    bias_filler {
      type: "constant"
      value: 0.2
    }
  }
}
layer {
  name: "inception_4d/relu_1x1"
  type: "ReLU"
  bottom: "inception_4d/1x1"
  top: "inception_4d/1x1"
}
layer {
  name: "inception_4d/3x3_reduce"
  type: "Convolution"
  bottom: "inception_4c/output"
  top: "inception_4d/3x3_reduce"
  param {
    lr_mult: 1
    decay_mult: 1
  }
  param {
    lr_mult: 2
    decay_mult: 0
  }
  convolution_param {
    num_output: 144
    kernel_size: 1
    weight_filler {
      type: "xavier"
      std: 0.09
    }
    bias_filler {
      type: "constant"
      value: 0.2
    }
  }
}
layer {
  name: "inception_4d/relu_3x3_reduce"
  type: "ReLU"
  bottom: "inception_4d/3x3_reduce"
  top: "inception_4d/3x3_reduce"
}
layer {
  name: "inception_4d/3x3"
  type: "Convolution"
  bottom: "inception_4d/3x3_reduce"
  top: "inception_4d/3x3"
  param {
    lr_mult: 1
    decay_mult: 1
  }
  param {
    lr_mult: 2
    decay_mult: 0
  }
  convolution_param {
    num_output: 288
    pad: 1
    kernel_size: 3
    weight_filler {
      type: "xavier"
      std: 0.03
    }
    bias_filler {
      type: "constant"
      value: 0.2
    }
  }
}
layer {
  name: "inception_4d/relu_3x3"
  type: "ReLU"
  bottom: "inception_4d/3x3"
  top: "inception_4d/3x3"
}
layer {
  name: "inception_4d/5x5_reduce"
  type: "Convolution"
  bottom: "inception_4c/output"
  top: "inception_4d/5x5_reduce"
  param {
    lr_mult: 1
    decay_mult: 1
  }
  param {
    lr_mult: 2
    decay_mult: 0
  }
  convolution_param {
    num_output: 32
    kernel_size: 1
    weight_filler {
      type: "xavier"
      std: 0.2
    }
    bias_filler {
      type: "constant"
      value: 0.2
    }
  }
}
layer {
  name: "inception_4d/relu_5x5_reduce"
  type: "ReLU"
  bottom: "inception_4d/5x5_reduce"
  top: "inception_4d/5x5_reduce"
}
layer {
  name: "inception_4d/5x5"
  type: "Convolution"
  bottom: "inception_4d/5x5_reduce"
  top: "inception_4d/5x5"
  param {
    lr_mult: 1
    decay_mult: 1
  }
  param {
    lr_mult: 2
    decay_mult: 0
  }
  convolution_param {
    num_output: 64
    pad: 2
    kernel_size: 5
    weight_filler {
      type: "xavier"
      std: 0.03
    }
    bias_filler {
      type: "constant"
      value: 0.2
    }
  }
}
layer {
  name: "inception_4d/relu_5x5"
  type: "ReLU"
  bottom: "inception_4d/5x5"
  top: "inception_4d/5x5"
}
layer {
  name: "inception_4d/pool"
  type: "Pooling"
  bottom: "inception_4c/output"
  top: "inception_4d/pool"
  pooling_param {
    pool: MAX
    kernel_size: 3
    stride: 1
    pad: 1
  }
}
layer {
  name: "inception_4d/pool_proj"
  type: "Convolution"
  bottom: "inception_4d/pool"
  top: "inception_4d/pool_proj"
  param {
    lr_mult: 1
    decay_mult: 1
  }
  param {
    lr_mult: 2
    decay_mult: 0
  }
  convolution_param {
    num_output: 64
    kernel_size: 1
    weight_filler {
      type: "xavier"
      std: 0.1
    }
    bias_filler {
      type: "constant"
      value: 0.2
    }
  }
}
layer {
  name: "inception_4d/relu_pool_proj"
  type: "ReLU"
  bottom: "inception_4d/pool_proj"
  top: "inception_4d/pool_proj"
}
layer {
  name: "inception_4d/output"
  type: "Concat"
  bottom: "inception_4d/1x1"
  bottom: "inception_4d/3x3"
  bottom: "inception_4d/5x5"
  bottom: "inception_4d/pool_proj"
  top: "inception_4d/output"
}
layer {
  name: "loss2/ave_pool"
  type: "Pooling"
  bottom: "inception_4d/output"
  top: "loss2/ave_pool"
  pooling_param {
    pool: AVE
    kernel_size: 5
    stride: 3
  }
}
layer {
  name: "loss2/conv"
  type: "Convolution"
  bottom: "loss2/ave_pool"
  top: "loss2/conv"
  param {
    lr_mult: 1
    decay_mult: 1
  }
  param {
    lr_mult: 2
    decay_mult: 0
  }
  convolution_param {
    num_output: 128
    kernel_size: 1
    weight_filler {
      type: "xavier"
      std: 0.08
    }
    bias_filler {
      type: "constant"
      value: 0.2
    }
  }
}
layer {
  name: "loss2/relu_conv"
  type: "ReLU"
  bottom: "loss2/conv"
  top: "loss2/conv"
}
layer {
  name: "loss2/fc"
  type: "InnerProduct"
  bottom: "loss2/conv"
  top: "loss2/fc"
  param {
    lr_mult: 1
    decay_mult: 1
  }
  param {
    lr_mult: 2
    decay_mult: 0
  }
  inner_product_param {
    num_output: 1024
    weight_filler {
      type: "xavier"
      std: 0.02
    }
    bias_filler {
      type: "constant"
      value: 0.2
    }
  }
}
layer {
  name: "loss2/relu_fc"
  type: "ReLU"
  bottom: "loss2/fc"
  top: "loss2/fc"
}
layer {
  name: "loss2/drop_fc"
  type: "Dropout"
  bottom: "loss2/fc"
  top: "loss2/fc"
  dropout_param {
    dropout_ratio: 0.7
  }
}
layer {
  name: "loss2/classifier_plantvillage"
  type: "InnerProduct"
  bottom: "loss2/fc"
  top: "loss2/classifier_plantvillage"
  param {
    lr_mult: 1
    decay_mult: 1
  }
  param {
    lr_mult: 2
    decay_mult: 0
  }
  inner_product_param {
    num_output: 38
    weight_filler {
      type: "xavier"
      std: 0.0009765625
    }
    bias_filler {
      type: "constant"
      value: 0
    }
  }
}
layer {
  name: "inception_4e/1x1"
  type: "Convolution"
  bottom: "inception_4d/output"
  top: "inception_4e/1x1"
  param {
    lr_mult: 1
    decay_mult: 1
  }
  param {
    lr_mult: 2
    decay_mult: 0
  }
  convolution_param {
    num_output: 256
    kernel_size: 1
    weight_filler {
      type: "xavier"
      std: 0.03
    }
    bias_filler {
      type: "constant"
      value: 0.2
    }
  }
}
layer {
  name: "inception_4e/relu_1x1"
  type: "ReLU"
  bottom: "inception_4e/1x1"
  top: "inception_4e/1x1"
}
layer {
  name: "inception_4e/3x3_reduce"
  type: "Convolution"
  bottom: "inception_4d/output"
  top: "inception_4e/3x3_reduce"
  param {
    lr_mult: 1
    decay_mult: 1
  }
  param {
    lr_mult: 2
    decay_mult: 0
  }
  convolution_param {
    num_output: 160
    kernel_size: 1
    weight_filler {
      type: "xavier"
      std: 0.09
    }
    bias_filler {
      type: "constant"
      value: 0.2
    }
  }
}
layer {
  name: "inception_4e/relu_3x3_reduce"
  type: "ReLU"
  bottom: "inception_4e/3x3_reduce"
  top: "inception_4e/3x3_reduce"
}
layer {
  name: "inception_4e/3x3"
  type: "Convolution"
  bottom: "inception_4e/3x3_reduce"
  top: "inception_4e/3x3"
  param {
    lr_mult: 1
    decay_mult: 1
  }
  param {
    lr_mult: 2
    decay_mult: 0
  }
  convolution_param {
    num_output: 320
    pad: 1
    kernel_size: 3
    weight_filler {
      type: "xavier"
      std: 0.03
    }
    bias_filler {
      type: "constant"
      value: 0.2
    }
  }
}
layer {
  name: "inception_4e/relu_3x3"
  type: "ReLU"
  bottom: "inception_4e/3x3"
  top: "inception_4e/3x3"
}
layer {
  name: "inception_4e/5x5_reduce"
  type: "Convolution"
  bottom: "inception_4d/output"
  top: "inception_4e/5x5_reduce"
  param {
    lr_mult: 1
    decay_mult: 1
  }
  param {
    lr_mult: 2
    decay_mult: 0
  }
  convolution_param {
    num_output: 32
    kernel_size: 1
    weight_filler {
      type: "xavier"
      std: 0.2
    }
    bias_filler {
      type: "constant"
      value: 0.2
    }
  }
}
layer {
  name: "inception_4e/relu_5x5_reduce"
  type: "ReLU"
  bottom: "inception_4e/5x5_reduce"
  top: "inception_4e/5x5_reduce"
}
layer {
  name: "inception_4e/5x5"
  type: "Convolution"
  bottom: "inception_4e/5x5_reduce"
  top: "inception_4e/5x5"
  p
I0403 19:51:46.881237  9766 layer_factory.hpp:77] Creating layer data
I0403 19:51:46.882802  9766 net.cpp:91] Creating Layer data
I0403 19:51:46.882900  9766 net.cpp:399] data -> data
I0403 19:51:46.883026  9766 net.cpp:399] data -> label
I0403 19:51:46.883121  9766 data_transformer.cpp:25] Loading mean file from: /home/mohanty/data/final_dataset/lmdb/color-60-40/mean.binaryproto
I0403 19:51:46.885439  9772 db_lmdb.cpp:38] Opened lmdb /home/mohanty/data/final_dataset/lmdb/color-60-40/test_db
I0403 19:51:46.903897  9766 data_layer.cpp:41] output data size: 24,3,224,224
I0403 19:51:46.935467  9766 net.cpp:141] Setting up data
I0403 19:51:46.935564  9766 net.cpp:148] Top shape: 24 3 224 224 (3612672)
I0403 19:51:46.935598  9766 net.cpp:148] Top shape: 24 (24)
I0403 19:51:46.935621  9766 net.cpp:156] Memory required for data: 14450784
I0403 19:51:46.935654  9766 layer_factory.hpp:77] Creating layer label_data_1_split
I0403 19:51:46.935709  9766 net.cpp:91] Creating Layer label_data_1_split
I0403 19:51:46.935734  9766 net.cpp:425] label_data_1_split <- label
I0403 19:51:46.935773  9766 net.cpp:399] label_data_1_split -> label_data_1_split_0
I0403 19:51:46.935808  9766 net.cpp:399] label_data_1_split -> label_data_1_split_1
I0403 19:51:46.935835  9766 net.cpp:399] label_data_1_split -> label_data_1_split_2
I0403 19:51:46.935863  9766 net.cpp:399] label_data_1_split -> label_data_1_split_3
I0403 19:51:46.935889  9766 net.cpp:399] label_data_1_split -> label_data_1_split_4
I0403 19:51:46.935916  9766 net.cpp:399] label_data_1_split -> label_data_1_split_5
I0403 19:51:46.935957  9766 net.cpp:399] label_data_1_split -> label_data_1_split_6
I0403 19:51:46.935983  9766 net.cpp:399] label_data_1_split -> label_data_1_split_7
I0403 19:51:46.936012  9766 net.cpp:399] label_data_1_split -> label_data_1_split_8
I0403 19:51:46.936046  9766 net.cpp:399] label_data_1_split -> label_data_1_split_9
I0403 19:51:46.936199  9766 net.cpp:141] Setting up label_data_1_split
I0403 19:51:46.936233  9766 net.cpp:148] Top shape: 24 (24)
I0403 19:51:46.936259  9766 net.cpp:148] Top shape: 24 (24)
I0403 19:51:46.936290  9766 net.cpp:148] Top shape: 24 (24)
I0403 19:51:46.936310  9766 net.cpp:148] Top shape: 24 (24)
I0403 19:51:46.936328  9766 net.cpp:148] Top shape: 24 (24)
I0403 19:51:46.936347  9766 net.cpp:148] Top shape: 24 (24)
I0403 19:51:46.936367  9766 net.cpp:148] Top shape: 24 (24)
I0403 19:51:46.936386  9766 net.cpp:148] Top shape: 24 (24)
I0403 19:51:46.936406  9766 net.cpp:148] Top shape: 24 (24)
I0403 19:51:46.936426  9766 net.cpp:148] Top shape: 24 (24)
I0403 19:51:46.936485  9766 net.cpp:156] Memory required for data: 14451744
I0403 19:51:46.936517  9766 layer_factory.hpp:77] Creating layer conv1/7x7_s2
I0403 19:51:46.936563  9766 net.cpp:91] Creating Layer conv1/7x7_s2
I0403 19:51:46.936589  9766 net.cpp:425] conv1/7x7_s2 <- data
I0403 19:51:46.936625  9766 net.cpp:399] conv1/7x7_s2 -> conv1/7x7_s2
I0403 19:51:49.170464  9766 net.cpp:141] Setting up conv1/7x7_s2
I0403 19:51:49.170555  9766 net.cpp:148] Top shape: 24 64 112 112 (19267584)
I0403 19:51:49.170578  9766 net.cpp:156] Memory required for data: 91522080
I0403 19:51:49.170617  9766 layer_factory.hpp:77] Creating layer conv1/relu_7x7
I0403 19:51:49.170652  9766 net.cpp:91] Creating Layer conv1/relu_7x7
I0403 19:51:49.170676  9766 net.cpp:425] conv1/relu_7x7 <- conv1/7x7_s2
I0403 19:51:49.170701  9766 net.cpp:386] conv1/relu_7x7 -> conv1/7x7_s2 (in-place)
I0403 19:51:49.171011  9766 net.cpp:141] Setting up conv1/relu_7x7
I0403 19:51:49.171044  9766 net.cpp:148] Top shape: 24 64 112 112 (19267584)
I0403 19:51:49.171063  9766 net.cpp:156] Memory required for data: 168592416
I0403 19:51:49.171083  9766 layer_factory.hpp:77] Creating layer pool1/3x3_s2
I0403 19:51:49.171115  9766 net.cpp:91] Creating Layer pool1/3x3_s2
I0403 19:51:49.171136  9766 net.cpp:425] pool1/3x3_s2 <- conv1/7x7_s2
I0403 19:51:49.171159  9766 net.cpp:399] pool1/3x3_s2 -> pool1/3x3_s2
I0403 19:51:49.171252  9766 net.cpp:141] Setting up pool1/3x3_s2
I0403 19:51:49.171282  9766 net.cpp:148] Top shape: 24 64 56 56 (4816896)
I0403 19:51:49.171299  9766 net.cpp:156] Memory required for data: 187860000
I0403 19:51:49.171317  9766 layer_factory.hpp:77] Creating layer pool1/norm1
I0403 19:51:49.171349  9766 net.cpp:91] Creating Layer pool1/norm1
I0403 19:51:49.171370  9766 net.cpp:425] pool1/norm1 <- pool1/3x3_s2
I0403 19:51:49.171391  9766 net.cpp:399] pool1/norm1 -> pool1/norm1
I0403 19:51:49.171746  9766 net.cpp:141] Setting up pool1/norm1
I0403 19:51:49.171779  9766 net.cpp:148] Top shape: 24 64 56 56 (4816896)
I0403 19:51:49.171798  9766 net.cpp:156] Memory required for data: 207127584
I0403 19:51:49.171818  9766 layer_factory.hpp:77] Creating layer conv2/3x3_reduce
I0403 19:51:49.171849  9766 net.cpp:91] Creating Layer conv2/3x3_reduce
I0403 19:51:49.171869  9766 net.cpp:425] conv2/3x3_reduce <- pool1/norm1
I0403 19:51:49.171890  9766 net.cpp:399] conv2/3x3_reduce -> conv2/3x3_reduce
I0403 19:51:49.173501  9766 net.cpp:141] Setting up conv2/3x3_reduce
I0403 19:51:49.173537  9766 net.cpp:148] Top shape: 24 64 56 56 (4816896)
I0403 19:51:49.173562  9766 net.cpp:156] Memory required for data: 226395168
I0403 19:51:49.173589  9766 layer_factory.hpp:77] Creating layer conv2/relu_3x3_reduce
I0403 19:51:49.173612  9766 net.cpp:91] Creating Layer conv2/relu_3x3_reduce
I0403 19:51:49.173632  9766 net.cpp:425] conv2/relu_3x3_reduce <- conv2/3x3_reduce
I0403 19:51:49.173653  9766 net.cpp:386] conv2/relu_3x3_reduce -> conv2/3x3_reduce (in-place)
I0403 19:51:49.173967  9766 net.cpp:141] Setting up conv2/relu_3x3_reduce
I0403 19:51:49.174000  9766 net.cpp:148] Top shape: 24 64 56 56 (4816896)
I0403 19:51:49.174018  9766 net.cpp:156] Memory required for data: 245662752
I0403 19:51:49.174037  9766 layer_factory.hpp:77] Creating layer conv2/3x3
I0403 19:51:49.174068  9766 net.cpp:91] Creating Layer conv2/3x3
I0403 19:51:49.174090  9766 net.cpp:425] conv2/3x3 <- conv2/3x3_reduce
I0403 19:51:49.174120  9766 net.cpp:399] conv2/3x3 -> conv2/3x3
I0403 19:51:49.176887  9766 net.cpp:141] Setting up conv2/3x3
I0403 19:51:49.176925  9766 net.cpp:148] Top shape: 24 192 56 56 (14450688)
I0403 19:51:49.176946  9766 net.cpp:156] Memory required for data: 303465504
I0403 19:51:49.176973  9766 layer_factory.hpp:77] Creating layer conv2/relu_3x3
I0403 19:51:49.177000  9766 net.cpp:91] Creating Layer conv2/relu_3x3
I0403 19:51:49.177021  9766 net.cpp:425] conv2/relu_3x3 <- conv2/3x3
I0403 19:51:49.177043  9766 net.cpp:386] conv2/relu_3x3 -> conv2/3x3 (in-place)
I0403 19:51:49.177263  9766 net.cpp:141] Setting up conv2/relu_3x3
I0403 19:51:49.177299  9766 net.cpp:148] Top shape: 24 192 56 56 (14450688)
I0403 19:51:49.177346  9766 net.cpp:156] Memory required for data: 361268256
I0403 19:51:49.177366  9766 layer_factory.hpp:77] Creating layer conv2/norm2
I0403 19:51:49.177388  9766 net.cpp:91] Creating Layer conv2/norm2
I0403 19:51:49.177407  9766 net.cpp:425] conv2/norm2 <- conv2/3x3
I0403 19:51:49.177433  9766 net.cpp:399] conv2/norm2 -> conv2/norm2
I0403 19:51:49.177806  9766 net.cpp:141] Setting up conv2/norm2
I0403 19:51:49.177839  9766 net.cpp:148] Top shape: 24 192 56 56 (14450688)
I0403 19:51:49.177858  9766 net.cpp:156] Memory required for data: 419071008
I0403 19:51:49.177876  9766 layer_factory.hpp:77] Creating layer pool2/3x3_s2
I0403 19:51:49.177898  9766 net.cpp:91] Creating Layer pool2/3x3_s2
I0403 19:51:49.177918  9766 net.cpp:425] pool2/3x3_s2 <- conv2/norm2
I0403 19:51:49.177943  9766 net.cpp:399] pool2/3x3_s2 -> pool2/3x3_s2
I0403 19:51:49.178009  9766 net.cpp:141] Setting up pool2/3x3_s2
I0403 19:51:49.178038  9766 net.cpp:148] Top shape: 24 192 28 28 (3612672)
I0403 19:51:49.178056  9766 net.cpp:156] Memory required for data: 433521696
I0403 19:51:49.178077  9766 layer_factory.hpp:77] Creating layer pool2/3x3_s2_pool2/3x3_s2_0_split
I0403 19:51:49.178107  9766 net.cpp:91] Creating Layer pool2/3x3_s2_pool2/3x3_s2_0_split
I0403 19:51:49.178129  9766 net.cpp:425] pool2/3x3_s2_pool2/3x3_s2_0_split <- pool2/3x3_s2
I0403 19:51:49.178155  9766 net.cpp:399] pool2/3x3_s2_pool2/3x3_s2_0_split -> pool2/3x3_s2_pool2/3x3_s2_0_split_0
I0403 19:51:49.178180  9766 net.cpp:399] pool2/3x3_s2_pool2/3x3_s2_0_split -> pool2/3x3_s2_pool2/3x3_s2_0_split_1
I0403 19:51:49.178205  9766 net.cpp:399] pool2/3x3_s2_pool2/3x3_s2_0_split -> pool2/3x3_s2_pool2/3x3_s2_0_split_2
I0403 19:51:49.178228  9766 net.cpp:399] pool2/3x3_s2_pool2/3x3_s2_0_split -> pool2/3x3_s2_pool2/3x3_s2_0_split_3
I0403 19:51:49.178313  9766 net.cpp:141] Setting up pool2/3x3_s2_pool2/3x3_s2_0_split
I0403 19:51:49.178341  9766 net.cpp:148] Top shape: 24 192 28 28 (3612672)
I0403 19:51:49.178365  9766 net.cpp:148] Top shape: 24 192 28 28 (3612672)
I0403 19:51:49.178385  9766 net.cpp:148] Top shape: 24 192 28 28 (3612672)
I0403 19:51:49.178405  9766 net.cpp:148] Top shape: 24 192 28 28 (3612672)
I0403 19:51:49.178421  9766 net.cpp:156] Memory required for data: 491324448
I0403 19:51:49.178438  9766 layer_factory.hpp:77] Creating layer inception_3a/1x1
I0403 19:51:49.178467  9766 net.cpp:91] Creating Layer inception_3a/1x1
I0403 19:51:49.178490  9766 net.cpp:425] inception_3a/1x1 <- pool2/3x3_s2_pool2/3x3_s2_0_split_0
I0403 19:51:49.178516  9766 net.cpp:399] inception_3a/1x1 -> inception_3a/1x1
I0403 19:51:49.180356  9766 net.cpp:141] Setting up inception_3a/1x1
I0403 19:51:49.180397  9766 net.cpp:148] Top shape: 24 64 28 28 (1204224)
I0403 19:51:49.180418  9766 net.cpp:156] Memory required for data: 496141344
I0403 19:51:49.180440  9766 layer_factory.hpp:77] Creating layer inception_3a/relu_1x1
I0403 19:51:49.180470  9766 net.cpp:91] Creating Layer inception_3a/relu_1x1
I0403 19:51:49.180493  9766 net.cpp:425] inception_3a/relu_1x1 <- inception_3a/1x1
I0403 19:51:49.180515  9766 net.cpp:386] inception_3a/relu_1x1 -> inception_3a/1x1 (in-place)
I0403 19:51:49.180732  9766 net.cpp:141] Setting up inception_3a/relu_1x1
I0403 19:51:49.180763  9766 net.cpp:148] Top shape: 24 64 28 28 (1204224)
I0403 19:51:49.180781  9766 net.cpp:156] Memory required for data: 500958240
I0403 19:51:49.180799  9766 layer_factory.hpp:77] Creating layer inception_3a/3x3_reduce
I0403 19:51:49.180830  9766 net.cpp:91] Creating Layer inception_3a/3x3_reduce
I0403 19:51:49.180850  9766 net.cpp:425] inception_3a/3x3_reduce <- pool2/3x3_s2_pool2/3x3_s2_0_split_1
I0403 19:51:49.180873  9766 net.cpp:399] inception_3a/3x3_reduce -> inception_3a/3x3_reduce
I0403 19:51:49.182921  9766 net.cpp:141] Setting up inception_3a/3x3_reduce
I0403 19:51:49.182957  9766 net.cpp:148] Top shape: 24 96 28 28 (1806336)
I0403 19:51:49.182976  9766 net.cpp:156] Memory required for data: 508183584
I0403 19:51:49.183007  9766 layer_factory.hpp:77] Creating layer inception_3a/relu_3x3_reduce
I0403 19:51:49.183053  9766 net.cpp:91] Creating Layer inception_3a/relu_3x3_reduce
I0403 19:51:49.183076  9766 net.cpp:425] inception_3a/relu_3x3_reduce <- inception_3a/3x3_reduce
I0403 19:51:49.183099  9766 net.cpp:386] inception_3a/relu_3x3_reduce -> inception_3a/3x3_reduce (in-place)
I0403 19:51:49.183329  9766 net.cpp:141] Setting up inception_3a/relu_3x3_reduce
I0403 19:51:49.183362  9766 net.cpp:148] Top shape: 24 96 28 28 (1806336)
I0403 19:51:49.183382  9766 net.cpp:156] Memory required for data: 515408928
I0403 19:51:49.183403  9766 layer_factory.hpp:77] Creating layer inception_3a/3x3
I0403 19:51:49.183432  9766 net.cpp:91] Creating Layer inception_3a/3x3
I0403 19:51:49.183462  9766 net.cpp:425] inception_3a/3x3 <- inception_3a/3x3_reduce
I0403 19:51:49.183493  9766 net.cpp:399] inception_3a/3x3 -> inception_3a/3x3
I0403 19:51:49.185500  9766 net.cpp:141] Setting up inception_3a/3x3
I0403 19:51:49.185535  9766 net.cpp:148] Top shape: 24 128 28 28 (2408448)
I0403 19:51:49.185559  9766 net.cpp:156] Memory required for data: 525042720
I0403 19:51:49.185581  9766 layer_factory.hpp:77] Creating layer inception_3a/relu_3x3
I0403 19:51:49.185606  9766 net.cpp:91] Creating Layer inception_3a/relu_3x3
I0403 19:51:49.185627  9766 net.cpp:425] inception_3a/relu_3x3 <- inception_3a/3x3
I0403 19:51:49.185650  9766 net.cpp:386] inception_3a/relu_3x3 -> inception_3a/3x3 (in-place)
I0403 19:51:49.185981  9766 net.cpp:141] Setting up inception_3a/relu_3x3
I0403 19:51:49.186013  9766 net.cpp:148] Top shape: 24 128 28 28 (2408448)
I0403 19:51:49.186033  9766 net.cpp:156] Memory required for data: 534676512
I0403 19:51:49.186051  9766 layer_factory.hpp:77] Creating layer inception_3a/5x5_reduce
I0403 19:51:49.186080  9766 net.cpp:91] Creating Layer inception_3a/5x5_reduce
I0403 19:51:49.186102  9766 net.cpp:425] inception_3a/5x5_reduce <- pool2/3x3_s2_pool2/3x3_s2_0_split_2
I0403 19:51:49.186130  9766 net.cpp:399] inception_3a/5x5_reduce -> inception_3a/5x5_reduce
I0403 19:51:49.187290  9766 net.cpp:141] Setting up inception_3a/5x5_reduce
I0403 19:51:49.187327  9766 net.cpp:148] Top shape: 24 16 28 28 (301056)
I0403 19:51:49.187347  9766 net.cpp:156] Memory required for data: 535880736
I0403 19:51:49.187371  9766 layer_factory.hpp:77] Creating layer inception_3a/relu_5x5_reduce
I0403 19:51:49.187394  9766 net.cpp:91] Creating Layer inception_3a/relu_5x5_reduce
I0403 19:51:49.187414  9766 net.cpp:425] inception_3a/relu_5x5_reduce <- inception_3a/5x5_reduce
I0403 19:51:49.187435  9766 net.cpp:386] inception_3a/relu_5x5_reduce -> inception_3a/5x5_reduce (in-place)
I0403 19:51:49.187799  9766 net.cpp:141] Setting up inception_3a/relu_5x5_reduce
I0403 19:51:49.187835  9766 net.cpp:148] Top shape: 24 16 28 28 (301056)
I0403 19:51:49.187855  9766 net.cpp:156] Memory required for data: 537084960
I0403 19:51:49.187873  9766 layer_factory.hpp:77] Creating layer inception_3a/5x5
I0403 19:51:49.187901  9766 net.cpp:91] Creating Layer inception_3a/5x5
I0403 19:51:49.187921  9766 net.cpp:425] inception_3a/5x5 <- inception_3a/5x5_reduce
I0403 19:51:49.187947  9766 net.cpp:399] inception_3a/5x5 -> inception_3a/5x5
I0403 19:51:49.189266  9766 net.cpp:141] Setting up inception_3a/5x5
I0403 19:51:49.189301  9766 net.cpp:148] Top shape: 24 32 28 28 (602112)
I0403 19:51:49.189321  9766 net.cpp:156] Memory required for data: 539493408
I0403 19:51:49.189344  9766 layer_factory.hpp:77] Creating layer inception_3a/relu_5x5
I0403 19:51:49.189370  9766 net.cpp:91] Creating Layer inception_3a/relu_5x5
I0403 19:51:49.189391  9766 net.cpp:425] inception_3a/relu_5x5 <- inception_3a/5x5
I0403 19:51:49.189414  9766 net.cpp:386] inception_3a/relu_5x5 -> inception_3a/5x5 (in-place)
I0403 19:51:49.189632  9766 net.cpp:141] Setting up inception_3a/relu_5x5
I0403 19:51:49.189668  9766 net.cpp:148] Top shape: 24 32 28 28 (602112)
I0403 19:51:49.189688  9766 net.cpp:156] Memory required for data: 541901856
I0403 19:51:49.189707  9766 layer_factory.hpp:77] Creating layer inception_3a/pool
I0403 19:51:49.189729  9766 net.cpp:91] Creating Layer inception_3a/pool
I0403 19:51:49.189749  9766 net.cpp:425] inception_3a/pool <- pool2/3x3_s2_pool2/3x3_s2_0_split_3
I0403 19:51:49.189791  9766 net.cpp:399] inception_3a/pool -> inception_3a/pool
I0403 19:51:49.189863  9766 net.cpp:141] Setting up inception_3a/pool
I0403 19:51:49.189891  9766 net.cpp:148] Top shape: 24 192 28 28 (3612672)
I0403 19:51:49.189913  9766 net.cpp:156] Memory required for data: 556352544
I0403 19:51:49.189935  9766 layer_factory.hpp:77] Creating layer inception_3a/pool_proj
I0403 19:51:49.189965  9766 net.cpp:91] Creating Layer inception_3a/pool_proj
I0403 19:51:49.189987  9766 net.cpp:425] inception_3a/pool_proj <- inception_3a/pool
I0403 19:51:49.190014  9766 net.cpp:399] inception_3a/pool_proj -> inception_3a/pool_proj
I0403 19:51:49.191179  9766 net.cpp:141] Setting up inception_3a/pool_proj
I0403 19:51:49.191221  9766 net.cpp:148] Top shape: 24 32 28 28 (602112)
I0403 19:51:49.191243  9766 net.cpp:156] Memory required for data: 558760992
I0403 19:51:49.191273  9766 layer_factory.hpp:77] Creating layer inception_3a/relu_pool_proj
I0403 19:51:49.191300  9766 net.cpp:91] Creating Layer inception_3a/relu_pool_proj
I0403 19:51:49.191323  9766 net.cpp:425] inception_3a/relu_pool_proj <- inception_3a/pool_proj
I0403 19:51:49.191344  9766 net.cpp:386] inception_3a/relu_pool_proj -> inception_3a/pool_proj (in-place)
I0403 19:51:49.191679  9766 net.cpp:141] Setting up inception_3a/relu_pool_proj
I0403 19:51:49.191711  9766 net.cpp:148] Top shape: 24 32 28 28 (602112)
I0403 19:51:49.191730  9766 net.cpp:156] Memory required for data: 561169440
I0403 19:51:49.191750  9766 layer_factory.hpp:77] Creating layer inception_3a/output
I0403 19:51:49.191776  9766 net.cpp:91] Creating Layer inception_3a/output
I0403 19:51:49.191795  9766 net.cpp:425] inception_3a/output <- inception_3a/1x1
I0403 19:51:49.191817  9766 net.cpp:425] inception_3a/output <- inception_3a/3x3
I0403 19:51:49.191838  9766 net.cpp:425] inception_3a/output <- inception_3a/5x5
I0403 19:51:49.191856  9766 net.cpp:425] inception_3a/output <- inception_3a/pool_proj
I0403 19:51:49.191879  9766 net.cpp:399] inception_3a/output -> inception_3a/output
I0403 19:51:49.191937  9766 net.cpp:141] Setting up inception_3a/output
I0403 19:51:49.191967  9766 net.cpp:148] Top shape: 24 256 28 28 (4816896)
I0403 19:51:49.191984  9766 net.cpp:156] Memory required for data: 580437024
I0403 19:51:49.192003  9766 layer_factory.hpp:77] Creating layer inception_3a/output_inception_3a/output_0_split
I0403 19:51:49.192024  9766 net.cpp:91] Creating Layer inception_3a/output_inception_3a/output_0_split
I0403 19:51:49.192042  9766 net.cpp:425] inception_3a/output_inception_3a/output_0_split <- inception_3a/output
I0403 19:51:49.192067  9766 net.cpp:399] inception_3a/output_inception_3a/output_0_split -> inception_3a/output_inception_3a/output_0_split_0
I0403 19:51:49.192093  9766 net.cpp:399] inception_3a/output_inception_3a/output_0_split -> inception_3a/output_inception_3a/output_0_split_1
I0403 19:51:49.192121  9766 net.cpp:399] inception_3a/output_inception_3a/output_0_split -> inception_3a/output_inception_3a/output_0_split_2
I0403 19:51:49.192154  9766 net.cpp:399] inception_3a/output_inception_3a/output_0_split -> inception_3a/output_inception_3a/output_0_split_3
I0403 19:51:49.192248  9766 net.cpp:141] Setting up inception_3a/output_inception_3a/output_0_split
I0403 19:51:49.192277  9766 net.cpp:148] Top shape: 24 256 28 28 (4816896)
I0403 19:51:49.192298  9766 net.cpp:148] Top shape: 24 256 28 28 (4816896)
I0403 19:51:49.192318  9766 net.cpp:148] Top shape: 24 256 28 28 (4816896)
I0403 19:51:49.192337  9766 net.cpp:148] Top shape: 24 256 28 28 (4816896)
I0403 19:51:49.192355  9766 net.cpp:156] Memory required for data: 657507360
I0403 19:51:49.192373  9766 layer_factory.hpp:77] Creating layer inception_3b/1x1
I0403 19:51:49.192401  9766 net.cpp:91] Creating Layer inception_3b/1x1
I0403 19:51:49.192425  9766 net.cpp:425] inception_3b/1x1 <- inception_3a/output_inception_3a/output_0_split_0
I0403 19:51:49.192468  9766 net.cpp:399] inception_3b/1x1 -> inception_3b/1x1
I0403 19:51:49.193866  9766 net.cpp:141] Setting up inception_3b/1x1
I0403 19:51:49.193913  9766 net.cpp:148] Top shape: 24 128 28 28 (2408448)
I0403 19:51:49.193933  9766 net.cpp:156] Memory required for data: 667141152
I0403 19:51:49.193954  9766 layer_factory.hpp:77] Creating layer inception_3b/relu_1x1
I0403 19:51:49.193979  9766 net.cpp:91] Creating Layer inception_3b/relu_1x1
I0403 19:51:49.193999  9766 net.cpp:425] inception_3b/relu_1x1 <- inception_3b/1x1
I0403 19:51:49.194022  9766 net.cpp:386] inception_3b/relu_1x1 -> inception_3b/1x1 (in-place)
I0403 19:51:49.194238  9766 net.cpp:141] Setting up inception_3b/relu_1x1
I0403 19:51:49.194269  9766 net.cpp:148] Top shape: 24 128 28 28 (2408448)
I0403 19:51:49.194288  9766 net.cpp:156] Memory required for data: 676774944
I0403 19:51:49.194311  9766 layer_factory.hpp:77] Creating layer inception_3b/3x3_reduce
I0403 19:51:49.194339  9766 net.cpp:91] Creating Layer inception_3b/3x3_reduce
I0403 19:51:49.194361  9766 net.cpp:425] inception_3b/3x3_reduce <- inception_3a/output_inception_3a/output_0_split_1
I0403 19:51:49.194387  9766 net.cpp:399] inception_3b/3x3_reduce -> inception_3b/3x3_reduce
I0403 19:51:49.195777  9766 net.cpp:141] Setting up inception_3b/3x3_reduce
I0403 19:51:49.195812  9766 net.cpp:148] Top shape: 24 128 28 28 (2408448)
I0403 19:51:49.195832  9766 net.cpp:156] Memory required for data: 686408736
I0403 19:51:49.195855  9766 layer_factory.hpp:77] Creating layer inception_3b/relu_3x3_reduce
I0403 19:51:49.195881  9766 net.cpp:91] Creating Layer inception_3b/relu_3x3_reduce
I0403 19:51:49.195902  9766 net.cpp:425] inception_3b/relu_3x3_reduce <- inception_3b/3x3_reduce
I0403 19:51:49.195925  9766 net.cpp:386] inception_3b/relu_3x3_reduce -> inception_3b/3x3_reduce (in-place)
I0403 19:51:49.196137  9766 net.cpp:141] Setting up inception_3b/relu_3x3_reduce
I0403 19:51:49.196168  9766 net.cpp:148] Top shape: 24 128 28 28 (2408448)
I0403 19:51:49.196189  9766 net.cpp:156] Memory required for data: 696042528
I0403 19:51:49.196208  9766 layer_factory.hpp:77] Creating layer inception_3b/3x3
I0403 19:51:49.196239  9766 net.cpp:91] Creating Layer inception_3b/3x3
I0403 19:51:49.196262  9766 net.cpp:425] inception_3b/3x3 <- inception_3b/3x3_reduce
I0403 19:51:49.196286  9766 net.cpp:399] inception_3b/3x3 -> inception_3b/3x3
I0403 19:51:49.199900  9766 net.cpp:141] Setting up inception_3b/3x3
I0403 19:51:49.199937  9766 net.cpp:148] Top shape: 24 192 28 28 (3612672)
I0403 19:51:49.199957  9766 net.cpp:156] Memory required for data: 710493216
I0403 19:51:49.199980  9766 layer_factory.hpp:77] Creating layer inception_3b/relu_3x3
I0403 19:51:49.200004  9766 net.cpp:91] Creating Layer inception_3b/relu_3x3
I0403 19:51:49.200026  9766 net.cpp:425] inception_3b/relu_3x3 <- inception_3b/3x3
I0403 19:51:49.200047  9766 net.cpp:386] inception_3b/relu_3x3 -> inception_3b/3x3 (in-place)
I0403 19:51:49.200384  9766 net.cpp:141] Setting up inception_3b/relu_3x3
I0403 19:51:49.200417  9766 net.cpp:148] Top shape: 24 192 28 28 (3612672)
I0403 19:51:49.200438  9766 net.cpp:156] Memory required for data: 724943904
I0403 19:51:49.200458  9766 layer_factory.hpp:77] Creating layer inception_3b/5x5_reduce
I0403 19:51:49.200497  9766 net.cpp:91] Creating Layer inception_3b/5x5_reduce
I0403 19:51:49.200521  9766 net.cpp:425] inception_3b/5x5_reduce <- inception_3a/output_inception_3a/output_0_split_2
I0403 19:51:49.200548  9766 net.cpp:399] inception_3b/5x5_reduce -> inception_3b/5x5_reduce
I0403 19:51:49.201757  9766 net.cpp:141] Setting up inception_3b/5x5_reduce
I0403 19:51:49.201799  9766 net.cpp:148] Top shape: 24 32 28 28 (602112)
I0403 19:51:49.201818  9766 net.cpp:156] Memory required for data: 727352352
I0403 19:51:49.201841  9766 layer_factory.hpp:77] Creating layer inception_3b/relu_5x5_reduce
I0403 19:51:49.201870  9766 net.cpp:91] Creating Layer inception_3b/relu_5x5_reduce
I0403 19:51:49.201894  9766 net.cpp:425] inception_3b/relu_5x5_reduce <- inception_3b/5x5_reduce
I0403 19:51:49.201916  9766 net.cpp:386] inception_3b/relu_5x5_reduce -> inception_3b/5x5_reduce (in-place)
I0403 19:51:49.202136  9766 net.cpp:141] Setting up inception_3b/relu_5x5_reduce
I0403 19:51:49.202184  9766 net.cpp:148] Top shape: 24 32 28 28 (602112)
I0403 19:51:49.202205  9766 net.cpp:156] Memory required for data: 729760800
I0403 19:51:49.202225  9766 layer_factory.hpp:77] Creating layer inception_3b/5x5
I0403 19:51:49.202253  9766 net.cpp:91] Creating Layer inception_3b/5x5
I0403 19:51:49.202275  9766 net.cpp:425] inception_3b/5x5 <- inception_3b/5x5_reduce
I0403 19:51:49.202299  9766 net.cpp:399] inception_3b/5x5 -> inception_3b/5x5
I0403 19:51:49.204690  9766 net.cpp:141] Setting up inception_3b/5x5
I0403 19:51:49.204725  9766 net.cpp:148] Top shape: 24 96 28 28 (1806336)
I0403 19:51:49.204744  9766 net.cpp:156] Memory required for data: 736986144
I0403 19:51:49.204768  9766 layer_factory.hpp:77] Creating layer inception_3b/relu_5x5
I0403 19:51:49.204793  9766 net.cpp:91] Creating Layer inception_3b/relu_5x5
I0403 19:51:49.204813  9766 net.cpp:425] inception_3b/relu_5x5 <- inception_3b/5x5
I0403 19:51:49.204834  9766 net.cpp:386] inception_3b/relu_5x5 -> inception_3b/5x5 (in-place)
I0403 19:51:49.205072  9766 net.cpp:141] Setting up inception_3b/relu_5x5
I0403 19:51:49.205103  9766 net.cpp:148] Top shape: 24 96 28 28 (1806336)
I0403 19:51:49.205122  9766 net.cpp:156] Memory required for data: 744211488
I0403 19:51:49.205142  9766 layer_factory.hpp:77] Creating layer inception_3b/pool
I0403 19:51:49.205163  9766 net.cpp:91] Creating Layer inception_3b/pool
I0403 19:51:49.205184  9766 net.cpp:425] inception_3b/pool <- inception_3a/output_inception_3a/output_0_split_3
I0403 19:51:49.205206  9766 net.cpp:399] inception_3b/pool -> inception_3b/pool
I0403 19:51:49.205279  9766 net.cpp:141] Setting up inception_3b/pool
I0403 19:51:49.205308  9766 net.cpp:148] Top shape: 24 256 28 28 (4816896)
I0403 19:51:49.205327  9766 net.cpp:156] Memory required for data: 763479072
I0403 19:51:49.205346  9766 layer_factory.hpp:77] Creating layer inception_3b/pool_proj
I0403 19:51:49.205375  9766 net.cpp:91] Creating Layer inception_3b/pool_proj
I0403 19:51:49.205397  9766 net.cpp:425] inception_3b/pool_proj <- inception_3b/pool
I0403 19:51:49.205423  9766 net.cpp:399] inception_3b/pool_proj -> inception_3b/pool_proj
I0403 19:51:49.206717  9766 net.cpp:141] Setting up inception_3b/pool_proj
I0403 19:51:49.206753  9766 net.cpp:148] Top shape: 24 64 28 28 (1204224)
I0403 19:51:49.206773  9766 net.cpp:156] Memory required for data: 768295968
I0403 19:51:49.206797  9766 layer_factory.hpp:77] Creating layer inception_3b/relu_pool_proj
I0403 19:51:49.206820  9766 net.cpp:91] Creating Layer inception_3b/relu_pool_proj
I0403 19:51:49.206840  9766 net.cpp:425] inception_3b/relu_pool_proj <- inception_3b/pool_proj
I0403 19:51:49.206863  9766 net.cpp:386] inception_3b/relu_pool_proj -> inception_3b/pool_proj (in-place)
I0403 19:51:49.207324  9766 net.cpp:141] Setting up inception_3b/relu_pool_proj
I0403 19:51:49.207360  9766 net.cpp:148] Top shape: 24 64 28 28 (1204224)
I0403 19:51:49.207381  9766 net.cpp:156] Memory required for data: 773112864
I0403 19:51:49.207401  9766 layer_factory.hpp:77] Creating layer inception_3b/output
I0403 19:51:49.207424  9766 net.cpp:91] Creating Layer inception_3b/output
I0403 19:51:49.207448  9766 net.cpp:425] inception_3b/output <- inception_3b/1x1
I0403 19:51:49.207478  9766 net.cpp:425] inception_3b/output <- inception_3b/3x3
I0403 19:51:49.207499  9766 net.cpp:425] inception_3b/output <- inception_3b/5x5
I0403 19:51:49.207518  9766 net.cpp:425] inception_3b/output <- inception_3b/pool_proj
I0403 19:51:49.207540  9766 net.cpp:399] inception_3b/output -> inception_3b/output
I0403 19:51:49.207595  9766 net.cpp:141] Setting up inception_3b/output
I0403 19:51:49.207624  9766 net.cpp:148] Top shape: 24 480 28 28 (9031680)
I0403 19:51:49.207643  9766 net.cpp:156] Memory required for data: 809239584
I0403 19:51:49.207660  9766 layer_factory.hpp:77] Creating layer pool3/3x3_s2
I0403 19:51:49.207684  9766 net.cpp:91] Creating Layer pool3/3x3_s2
I0403 19:51:49.207707  9766 net.cpp:425] pool3/3x3_s2 <- inception_3b/output
I0403 19:51:49.207731  9766 net.cpp:399] pool3/3x3_s2 -> pool3/3x3_s2
I0403 19:51:49.207828  9766 net.cpp:141] Setting up pool3/3x3_s2
I0403 19:51:49.207857  9766 net.cpp:148] Top shape: 24 480 14 14 (2257920)
I0403 19:51:49.207876  9766 net.cpp:156] Memory required for data: 818271264
I0403 19:51:49.207895  9766 layer_factory.hpp:77] Creating layer pool3/3x3_s2_pool3/3x3_s2_0_split
I0403 19:51:49.207916  9766 net.cpp:91] Creating Layer pool3/3x3_s2_pool3/3x3_s2_0_split
I0403 19:51:49.207937  9766 net.cpp:425] pool3/3x3_s2_pool3/3x3_s2_0_split <- pool3/3x3_s2
I0403 19:51:49.207960  9766 net.cpp:399] pool3/3x3_s2_pool3/3x3_s2_0_split -> pool3/3x3_s2_pool3/3x3_s2_0_split_0
I0403 19:51:49.207985  9766 net.cpp:399] pool3/3x3_s2_pool3/3x3_s2_0_split -> pool3/3x3_s2_pool3/3x3_s2_0_split_1
I0403 19:51:49.208015  9766 net.cpp:399] pool3/3x3_s2_pool3/3x3_s2_0_split -> pool3/3x3_s2_pool3/3x3_s2_0_split_2
I0403 19:51:49.208044  9766 net.cpp:399] pool3/3x3_s2_pool3/3x3_s2_0_split -> pool3/3x3_s2_pool3/3x3_s2_0_split_3
I0403 19:51:49.208142  9766 net.cpp:141] Setting up pool3/3x3_s2_pool3/3x3_s2_0_split
I0403 19:51:49.208174  9766 net.cpp:148] Top shape: 24 480 14 14 (2257920)
I0403 19:51:49.208195  9766 net.cpp:148] Top shape: 24 480 14 14 (2257920)
I0403 19:51:49.208214  9766 net.cpp:148] Top shape: 24 480 14 14 (2257920)
I0403 19:51:49.208233  9766 net.cpp:148] Top shape: 24 480 14 14 (2257920)
I0403 19:51:49.208252  9766 net.cpp:156] Memory required for data: 854397984
I0403 19:51:49.208271  9766 layer_factory.hpp:77] Creating layer inception_4a/1x1
I0403 19:51:49.208303  9766 net.cpp:91] Creating Layer inception_4a/1x1
I0403 19:51:49.208325  9766 net.cpp:425] inception_4a/1x1 <- pool3/3x3_s2_pool3/3x3_s2_0_split_0
I0403 19:51:49.208350  9766 net.cpp:399] inception_4a/1x1 -> inception_4a/1x1
I0403 19:51:49.210289  9766 net.cpp:141] Setting up inception_4a/1x1
I0403 19:51:49.210326  9766 net.cpp:148] Top shape: 24 192 14 14 (903168)
I0403 19:51:49.210347  9766 net.cpp:156] Memory required for data: 858010656
I0403 19:51:49.210371  9766 layer_factory.hpp:77] Creating layer inception_4a/relu_1x1
I0403 19:51:49.210394  9766 net.cpp:91] Creating Layer inception_4a/relu_1x1
I0403 19:51:49.210414  9766 net.cpp:425] inception_4a/relu_1x1 <- inception_4a/1x1
I0403 19:51:49.210438  9766 net.cpp:386] inception_4a/relu_1x1 -> inception_4a/1x1 (in-place)
I0403 19:51:49.210659  9766 net.cpp:141] Setting up inception_4a/relu_1x1
I0403 19:51:49.210690  9766 net.cpp:148] Top shape: 24 192 14 14 (903168)
I0403 19:51:49.210710  9766 net.cpp:156] Memory required for data: 861623328
I0403 19:51:49.210728  9766 layer_factory.hpp:77] Creating layer inception_4a/3x3_reduce
I0403 19:51:49.210762  9766 net.cpp:91] Creating Layer inception_4a/3x3_reduce
I0403 19:51:49.210783  9766 net.cpp:425] inception_4a/3x3_reduce <- pool3/3x3_s2_pool3/3x3_s2_0_split_1
I0403 19:51:49.210809  9766 net.cpp:399] inception_4a/3x3_reduce -> inception_4a/3x3_reduce
I0403 19:51:49.212344  9766 net.cpp:141] Setting up inception_4a/3x3_reduce
I0403 19:51:49.212378  9766 net.cpp:148] Top shape: 24 96 14 14 (451584)
I0403 19:51:49.212399  9766 net.cpp:156] Memory required for data: 863429664
I0403 19:51:49.212427  9766 layer_factory.hpp:77] Creating layer inception_4a/relu_3x3_reduce
I0403 19:51:49.212455  9766 net.cpp:91] Creating Layer inception_4a/relu_3x3_reduce
I0403 19:51:49.212492  9766 net.cpp:425] inception_4a/relu_3x3_reduce <- inception_4a/3x3_reduce
I0403 19:51:49.212515  9766 net.cpp:386] inception_4a/relu_3x3_reduce -> inception_4a/3x3_reduce (in-place)
I0403 19:51:49.212736  9766 net.cpp:141] Setting up inception_4a/relu_3x3_reduce
I0403 19:51:49.212767  9766 net.cpp:148] Top shape: 24 96 14 14 (451584)
I0403 19:51:49.212785  9766 net.cpp:156] Memory required for data: 865236000
I0403 19:51:49.212805  9766 layer_factory.hpp:77] Creating layer inception_4a/3x3
I0403 19:51:49.212833  9766 net.cpp:91] Creating Layer inception_4a/3x3
I0403 19:51:49.212853  9766 net.cpp:425] inception_4a/3x3 <- inception_4a/3x3_reduce
I0403 19:51:49.212879  9766 net.cpp:399] inception_4a/3x3 -> inception_4a/3x3
I0403 19:51:49.216146  9766 net.cpp:141] Setting up inception_4a/3x3
I0403 19:51:49.216187  9766 net.cpp:148] Top shape: 24 208 14 14 (978432)
I0403 19:51:49.216207  9766 net.cpp:156] Memory required for data: 869149728
I0403 19:51:49.216228  9766 layer_factory.hpp:77] Creating layer inception_4a/relu_3x3
I0403 19:51:49.216254  9766 net.cpp:91] Creating Layer inception_4a/relu_3x3
I0403 19:51:49.216275  9766 net.cpp:425] inception_4a/relu_3x3 <- inception_4a/3x3
I0403 19:51:49.216298  9766 net.cpp:386] inception_4a/relu_3x3 -> inception_4a/3x3 (in-place)
I0403 19:51:49.216639  9766 net.cpp:141] Setting up inception_4a/relu_3x3
I0403 19:51:49.216670  9766 net.cpp:148] Top shape: 24 208 14 14 (978432)
I0403 19:51:49.216689  9766 net.cpp:156] Memory required for data: 873063456
I0403 19:51:49.216708  9766 layer_factory.hpp:77] Creating layer inception_4a/5x5_reduce
I0403 19:51:49.216737  9766 net.cpp:91] Creating Layer inception_4a/5x5_reduce
I0403 19:51:49.216759  9766 net.cpp:425] inception_4a/5x5_reduce <- pool3/3x3_s2_pool3/3x3_s2_0_split_2
I0403 19:51:49.216787  9766 net.cpp:399] inception_4a/5x5_reduce -> inception_4a/5x5_reduce
I0403 19:51:49.218039  9766 net.cpp:141] Setting up inception_4a/5x5_reduce
I0403 19:51:49.218073  9766 net.cpp:148] Top shape: 24 16 14 14 (75264)
I0403 19:51:49.218092  9766 net.cpp:156] Memory required for data: 873364512
I0403 19:51:49.218116  9766 layer_factory.hpp:77] Creating layer inception_4a/relu_5x5_reduce
I0403 19:51:49.218142  9766 net.cpp:91] Creating Layer inception_4a/relu_5x5_reduce
I0403 19:51:49.218163  9766 net.cpp:425] inception_4a/relu_5x5_reduce <- inception_4a/5x5_reduce
I0403 19:51:49.218186  9766 net.cpp:386] inception_4a/relu_5x5_reduce -> inception_4a/5x5_reduce (in-place)
I0403 19:51:49.218410  9766 net.cpp:141] Setting up inception_4a/relu_5x5_reduce
I0403 19:51:49.218443  9766 net.cpp:148] Top shape: 24 16 14 14 (75264)
I0403 19:51:49.218467  9766 net.cpp:156] Memory required for data: 873665568
I0403 19:51:49.218488  9766 layer_factory.hpp:77] Creating layer inception_4a/5x5
I0403 19:51:49.218516  9766 net.cpp:91] Creating Layer inception_4a/5x5
I0403 19:51:49.218539  9766 net.cpp:425] inception_4a/5x5 <- inception_4a/5x5_reduce
I0403 19:51:49.218564  9766 net.cpp:399] inception_4a/5x5 -> inception_4a/5x5
I0403 19:51:49.219866  9766 net.cpp:141] Setting up inception_4a/5x5
I0403 19:51:49.219902  9766 net.cpp:148] Top shape: 24 48 14 14 (225792)
I0403 19:51:49.219921  9766 net.cpp:156] Memory required for data: 874568736
I0403 19:51:49.219946  9766 layer_factory.hpp:77] Creating layer inception_4a/relu_5x5
I0403 19:51:49.219969  9766 net.cpp:91] Creating Layer inception_4a/relu_5x5
I0403 19:51:49.219990  9766 net.cpp:425] inception_4a/relu_5x5 <- inception_4a/5x5
I0403 19:51:49.220011  9766 net.cpp:386] inception_4a/relu_5x5 -> inception_4a/5x5 (in-place)
I0403 19:51:49.220227  9766 net.cpp:141] Setting up inception_4a/relu_5x5
I0403 19:51:49.220259  9766 net.cpp:148] Top shape: 24 48 14 14 (225792)
I0403 19:51:49.220278  9766 net.cpp:156] Memory required for data: 875471904
I0403 19:51:49.220298  9766 layer_factory.hpp:77] Creating layer inception_4a/pool
I0403 19:51:49.220319  9766 net.cpp:91] Creating Layer inception_4a/pool
I0403 19:51:49.220340  9766 net.cpp:425] inception_4a/pool <- pool3/3x3_s2_pool3/3x3_s2_0_split_3
I0403 19:51:49.220365  9766 net.cpp:399] inception_4a/pool -> inception_4a/pool
I0403 19:51:49.220438  9766 net.cpp:141] Setting up inception_4a/pool
I0403 19:51:49.220475  9766 net.cpp:148] Top shape: 24 480 14 14 (2257920)
I0403 19:51:49.220496  9766 net.cpp:156] Memory required for data: 884503584
I0403 19:51:49.220515  9766 layer_factory.hpp:77] Creating layer inception_4a/pool_proj
I0403 19:51:49.220541  9766 net.cpp:91] Creating Layer inception_4a/pool_proj
I0403 19:51:49.220562  9766 net.cpp:425] inception_4a/pool_proj <- inception_4a/pool
I0403 19:51:49.220587  9766 net.cpp:399] inception_4a/pool_proj -> inception_4a/pool_proj
I0403 19:51:49.221989  9766 net.cpp:141] Setting up inception_4a/pool_proj
I0403 19:51:49.222024  9766 net.cpp:148] Top shape: 24 64 14 14 (301056)
I0403 19:51:49.222064  9766 net.cpp:156] Memory required for data: 885707808
I0403 19:51:49.222089  9766 layer_factory.hpp:77] Creating layer inception_4a/relu_pool_proj
I0403 19:51:49.222112  9766 net.cpp:91] Creating Layer inception_4a/relu_pool_proj
I0403 19:51:49.222132  9766 net.cpp:425] inception_4a/relu_pool_proj <- inception_4a/pool_proj
I0403 19:51:49.222158  9766 net.cpp:386] inception_4a/relu_pool_proj -> inception_4a/pool_proj (in-place)
I0403 19:51:49.222602  9766 net.cpp:141] Setting up inception_4a/relu_pool_proj
I0403 19:51:49.222640  9766 net.cpp:148] Top shape: 24 64 14 14 (301056)
I0403 19:51:49.222664  9766 net.cpp:156] Memory required for data: 886912032
I0403 19:51:49.222687  9766 layer_factory.hpp:77] Creating layer inception_4a/output
I0403 19:51:49.222712  9766 net.cpp:91] Creating Layer inception_4a/output
I0403 19:51:49.222736  9766 net.cpp:425] inception_4a/output <- inception_4a/1x1
I0403 19:51:49.222759  9766 net.cpp:425] inception_4a/output <- inception_4a/3x3
I0403 19:51:49.222784  9766 net.cpp:425] inception_4a/output <- inception_4a/5x5
I0403 19:51:49.222805  9766 net.cpp:425] inception_4a/output <- inception_4a/pool_proj
I0403 19:51:49.222831  9766 net.cpp:399] inception_4a/output -> inception_4a/output
I0403 19:51:49.222892  9766 net.cpp:141] Setting up inception_4a/output
I0403 19:51:49.222929  9766 net.cpp:148] Top shape: 24 512 14 14 (2408448)
I0403 19:51:49.222951  9766 net.cpp:156] Memory required for data: 896545824
I0403 19:51:49.222975  9766 layer_factory.hpp:77] Creating layer inception_4a/output_inception_4a/output_0_split
I0403 19:51:49.223004  9766 net.cpp:91] Creating Layer inception_4a/output_inception_4a/output_0_split
I0403 19:51:49.223031  9766 net.cpp:425] inception_4a/output_inception_4a/output_0_split <- inception_4a/output
I0403 19:51:49.223057  9766 net.cpp:399] inception_4a/output_inception_4a/output_0_split -> inception_4a/output_inception_4a/output_0_split_0
I0403 19:51:49.223086  9766 net.cpp:399] inception_4a/output_inception_4a/output_0_split -> inception_4a/output_inception_4a/output_0_split_1
I0403 19:51:49.223116  9766 net.cpp:399] inception_4a/output_inception_4a/output_0_split -> inception_4a/output_inception_4a/output_0_split_2
I0403 19:51:49.223147  9766 net.cpp:399] inception_4a/output_inception_4a/output_0_split -> inception_4a/output_inception_4a/output_0_split_3
I0403 19:51:49.223176  9766 net.cpp:399] inception_4a/output_inception_4a/output_0_split -> inception_4a/output_inception_4a/output_0_split_4
I0403 19:51:49.223295  9766 net.cpp:141] Setting up inception_4a/output_inception_4a/output_0_split
I0403 19:51:49.223330  9766 net.cpp:148] Top shape: 24 512 14 14 (2408448)
I0403 19:51:49.223356  9766 net.cpp:148] Top shape: 24 512 14 14 (2408448)
I0403 19:51:49.223378  9766 net.cpp:148] Top shape: 24 512 14 14 (2408448)
I0403 19:51:49.223402  9766 net.cpp:148] Top shape: 24 512 14 14 (2408448)
I0403 19:51:49.223425  9766 net.cpp:148] Top shape: 24 512 14 14 (2408448)
I0403 19:51:49.223446  9766 net.cpp:156] Memory required for data: 944714784
I0403 19:51:49.223474  9766 layer_factory.hpp:77] Creating layer loss1/ave_pool
I0403 19:51:49.223505  9766 net.cpp:91] Creating Layer loss1/ave_pool
I0403 19:51:49.223531  9766 net.cpp:425] loss1/ave_pool <- inception_4a/output_inception_4a/output_0_split_0
I0403 19:51:49.223557  9766 net.cpp:399] loss1/ave_pool -> loss1/ave_pool
I0403 19:51:49.223815  9766 net.cpp:141] Setting up loss1/ave_pool
I0403 19:51:49.223850  9766 net.cpp:148] Top shape: 24 512 4 4 (196608)
I0403 19:51:49.223868  9766 net.cpp:156] Memory required for data: 945501216
I0403 19:51:49.223887  9766 layer_factory.hpp:77] Creating layer loss1/conv
I0403 19:51:49.223915  9766 net.cpp:91] Creating Layer loss1/conv
I0403 19:51:49.223937  9766 net.cpp:425] loss1/conv <- loss1/ave_pool
I0403 19:51:49.223963  9766 net.cpp:399] loss1/conv -> loss1/conv
I0403 19:51:49.225666  9766 net.cpp:141] Setting up loss1/conv
I0403 19:51:49.225702  9766 net.cpp:148] Top shape: 24 128 4 4 (49152)
I0403 19:51:49.225721  9766 net.cpp:156] Memory required for data: 945697824
I0403 19:51:49.225762  9766 layer_factory.hpp:77] Creating layer loss1/relu_conv
I0403 19:51:49.225790  9766 net.cpp:91] Creating Layer loss1/relu_conv
I0403 19:51:49.225810  9766 net.cpp:425] loss1/relu_conv <- loss1/conv
I0403 19:51:49.225831  9766 net.cpp:386] loss1/relu_conv -> loss1/conv (in-place)
I0403 19:51:49.226168  9766 net.cpp:141] Setting up loss1/relu_conv
I0403 19:51:49.226202  9766 net.cpp:148] Top shape: 24 128 4 4 (49152)
I0403 19:51:49.226220  9766 net.cpp:156] Memory required for data: 945894432
I0403 19:51:49.226239  9766 layer_factory.hpp:77] Creating layer loss1/fc
I0403 19:51:49.226276  9766 net.cpp:91] Creating Layer loss1/fc
I0403 19:51:49.226300  9766 net.cpp:425] loss1/fc <- loss1/conv
I0403 19:51:49.226322  9766 net.cpp:399] loss1/fc -> loss1/fc
I0403 19:51:49.248265  9766 net.cpp:141] Setting up loss1/fc
I0403 19:51:49.248309  9766 net.cpp:148] Top shape: 24 1024 (24576)
I0403 19:51:49.248329  9766 net.cpp:156] Memory required for data: 945992736
I0403 19:51:49.248353  9766 layer_factory.hpp:77] Creating layer loss1/relu_fc
I0403 19:51:49.248375  9766 net.cpp:91] Creating Layer loss1/relu_fc
I0403 19:51:49.248394  9766 net.cpp:425] loss1/relu_fc <- loss1/fc
I0403 19:51:49.248420  9766 net.cpp:386] loss1/relu_fc -> loss1/fc (in-place)
I0403 19:51:49.248667  9766 net.cpp:141] Setting up loss1/relu_fc
I0403 19:51:49.248699  9766 net.cpp:148] Top shape: 24 1024 (24576)
I0403 19:51:49.248718  9766 net.cpp:156] Memory required for data: 946091040
I0403 19:51:49.248735  9766 layer_factory.hpp:77] Creating layer loss1/drop_fc
I0403 19:51:49.248771  9766 net.cpp:91] Creating Layer loss1/drop_fc
I0403 19:51:49.248795  9766 net.cpp:425] loss1/drop_fc <- loss1/fc
I0403 19:51:49.248816  9766 net.cpp:386] loss1/drop_fc -> loss1/fc (in-place)
I0403 19:51:49.248878  9766 net.cpp:141] Setting up loss1/drop_fc
I0403 19:51:49.248906  9766 net.cpp:148] Top shape: 24 1024 (24576)
I0403 19:51:49.248924  9766 net.cpp:156] Memory required for data: 946189344
I0403 19:51:49.248944  9766 layer_factory.hpp:77] Creating layer loss1/classifier_plantvillage
I0403 19:51:49.248970  9766 net.cpp:91] Creating Layer loss1/classifier_plantvillage
I0403 19:51:49.248992  9766 net.cpp:425] loss1/classifier_plantvillage <- loss1/fc
I0403 19:51:49.249018  9766 net.cpp:399] loss1/classifier_plantvillage -> loss1/classifier_plantvillage
I0403 19:51:49.250128  9766 net.cpp:141] Setting up loss1/classifier_plantvillage
I0403 19:51:49.250162  9766 net.cpp:148] Top shape: 24 38 (912)
I0403 19:51:49.250185  9766 net.cpp:156] Memory required for data: 946192992
I0403 19:51:49.250208  9766 layer_factory.hpp:77] Creating layer loss1/classifier_plantvillage_loss1/classifier_plantvillage_0_split
I0403 19:51:49.250231  9766 net.cpp:91] Creating Layer loss1/classifier_plantvillage_loss1/classifier_plantvillage_0_split
I0403 19:51:49.250252  9766 net.cpp:425] loss1/classifier_plantvillage_loss1/classifier_plantvillage_0_split <- loss1/classifier_plantvillage
I0403 19:51:49.250278  9766 net.cpp:399] loss1/classifier_plantvillage_loss1/classifier_plantvillage_0_split -> loss1/classifier_plantvillage_loss1/classifier_plantvillage_0_split_0
I0403 19:51:49.250304  9766 net.cpp:399] loss1/classifier_plantvillage_loss1/classifier_plantvillage_0_split -> loss1/classifier_plantvillage_loss1/classifier_plantvillage_0_split_1
I0403 19:51:49.250330  9766 net.cpp:399] loss1/classifier_plantvillage_loss1/classifier_plantvillage_0_split -> loss1/classifier_plantvillage_loss1/classifier_plantvillage_0_split_2
I0403 19:51:49.250411  9766 net.cpp:141] Setting up loss1/classifier_plantvillage_loss1/classifier_plantvillage_0_split
I0403 19:51:49.250442  9766 net.cpp:148] Top shape: 24 38 (912)
I0403 19:51:49.250469  9766 net.cpp:148] Top shape: 24 38 (912)
I0403 19:51:49.250489  9766 net.cpp:148] Top shape: 24 38 (912)
I0403 19:51:49.250507  9766 net.cpp:156] Memory required for data: 946203936
I0403 19:51:49.250525  9766 layer_factory.hpp:77] Creating layer inception_4b/1x1
I0403 19:51:49.250551  9766 net.cpp:91] Creating Layer inception_4b/1x1
I0403 19:51:49.250594  9766 net.cpp:425] inception_4b/1x1 <- inception_4a/output_inception_4a/output_0_split_1
I0403 19:51:49.250619  9766 net.cpp:399] inception_4b/1x1 -> inception_4b/1x1
I0403 19:51:49.252610  9766 net.cpp:141] Setting up inception_4b/1x1
I0403 19:51:49.252646  9766 net.cpp:148] Top shape: 24 160 14 14 (752640)
I0403 19:51:49.252665  9766 net.cpp:156] Memory required for data: 949214496
I0403 19:51:49.252688  9766 layer_factory.hpp:77] Creating layer inception_4b/relu_1x1
I0403 19:51:49.252714  9766 net.cpp:91] Creating Layer inception_4b/relu_1x1
I0403 19:51:49.252737  9766 net.cpp:425] inception_4b/relu_1x1 <- inception_4b/1x1
I0403 19:51:49.252759  9766 net.cpp:386] inception_4b/relu_1x1 -> inception_4b/1x1 (in-place)
I0403 19:51:49.252979  9766 net.cpp:141] Setting up inception_4b/relu_1x1
I0403 19:51:49.253010  9766 net.cpp:148] Top shape: 24 160 14 14 (752640)
I0403 19:51:49.253031  9766 net.cpp:156] Memory required for data: 952225056
I0403 19:51:49.253048  9766 layer_factory.hpp:77] Creating layer inception_4b/3x3_reduce
I0403 19:51:49.253078  9766 net.cpp:91] Creating Layer inception_4b/3x3_reduce
I0403 19:51:49.253100  9766 net.cpp:425] inception_4b/3x3_reduce <- inception_4a/output_inception_4a/output_0_split_2
I0403 19:51:49.253124  9766 net.cpp:399] inception_4b/3x3_reduce -> inception_4b/3x3_reduce
I0403 19:51:49.254765  9766 net.cpp:141] Setting up inception_4b/3x3_reduce
I0403 19:51:49.254806  9766 net.cpp:148] Top shape: 24 112 14 14 (526848)
I0403 19:51:49.254828  9766 net.cpp:156] Memory required for data: 954332448
I0403 19:51:49.254858  9766 layer_factory.hpp:77] Creating layer inception_4b/relu_3x3_reduce
I0403 19:51:49.254892  9766 net.cpp:91] Creating Layer inception_4b/relu_3x3_reduce
I0403 19:51:49.254921  9766 net.cpp:425] inception_4b/relu_3x3_reduce <- inception_4b/3x3_reduce
I0403 19:51:49.254945  9766 net.cpp:386] inception_4b/relu_3x3_reduce -> inception_4b/3x3_reduce (in-place)
I0403 19:51:49.255290  9766 net.cpp:141] Setting up inception_4b/relu_3x3_reduce
I0403 19:51:49.255324  9766 net.cpp:148] Top shape: 24 112 14 14 (526848)
I0403 19:51:49.255350  9766 net.cpp:156] Memory required for data: 956439840
I0403 19:51:49.255390  9766 layer_factory.hpp:77] Creating layer inception_4b/3x3
I0403 19:51:49.255439  9766 net.cpp:91] Creating Layer inception_4b/3x3
I0403 19:51:49.255475  9766 net.cpp:425] inception_4b/3x3 <- inception_4b/3x3_reduce
I0403 19:51:49.255522  9766 net.cpp:399] inception_4b/3x3 -> inception_4b/3x3
I0403 19:51:49.259152  9766 net.cpp:141] Setting up inception_4b/3x3
I0403 19:51:49.259193  9766 net.cpp:148] Top shape: 24 224 14 14 (1053696)
I0403 19:51:49.259214  9766 net.cpp:156] Memory required for data: 960654624
I0403 19:51:49.259238  9766 layer_factory.hpp:77] Creating layer inception_4b/relu_3x3
I0403 19:51:49.259260  9766 net.cpp:91] Creating Layer inception_4b/relu_3x3
I0403 19:51:49.259281  9766 net.cpp:425] inception_4b/relu_3x3 <- inception_4b/3x3
I0403 19:51:49.259305  9766 net.cpp:386] inception_4b/relu_3x3 -> inception_4b/3x3 (in-place)
I0403 19:51:49.259533  9766 net.cpp:141] Setting up inception_4b/relu_3x3
I0403 19:51:49.259572  9766 net.cpp:148] Top shape: 24 224 14 14 (1053696)
I0403 19:51:49.259591  9766 net.cpp:156] Memory required for data: 964869408
I0403 19:51:49.259610  9766 layer_factory.hpp:77] Creating layer inception_4b/5x5_reduce
I0403 19:51:49.259639  9766 net.cpp:91] Creating Layer inception_4b/5x5_reduce
I0403 19:51:49.259661  9766 net.cpp:425] inception_4b/5x5_reduce <- inception_4a/output_inception_4a/output_0_split_3
I0403 19:51:49.259690  9766 net.cpp:399] inception_4b/5x5_reduce -> inception_4b/5x5_reduce
I0403 19:51:49.261030  9766 net.cpp:141] Setting up inception_4b/5x5_reduce
I0403 19:51:49.261070  9766 net.cpp:148] Top shape: 24 24 14 14 (112896)
I0403 19:51:49.261091  9766 net.cpp:156] Memory required for data: 965320992
I0403 19:51:49.261119  9766 layer_factory.hpp:77] Creating layer inception_4b/relu_5x5_reduce
I0403 19:51:49.261149  9766 net.cpp:91] Creating Layer inception_4b/relu_5x5_reduce
I0403 19:51:49.261189  9766 net.cpp:425] inception_4b/relu_5x5_reduce <- inception_4b/5x5_reduce
I0403 19:51:49.261214  9766 net.cpp:386] inception_4b/relu_5x5_reduce -> inception_4b/5x5_reduce (in-place)
I0403 19:51:49.261451  9766 net.cpp:141] Setting up inception_4b/relu_5x5_reduce
I0403 19:51:49.261489  9766 net.cpp:148] Top shape: 24 24 14 14 (112896)
I0403 19:51:49.261509  9766 net.cpp:156] Memory required for data: 965772576
I0403 19:51:49.261528  9766 layer_factory.hpp:77] Creating layer inception_4b/5x5
I0403 19:51:49.261565  9766 net.cpp:91] Creating Layer inception_4b/5x5
I0403 19:51:49.261587  9766 net.cpp:425] inception_4b/5x5 <- inception_4b/5x5_reduce
I0403 19:51:49.261610  9766 net.cpp:399] inception_4b/5x5 -> inception_4b/5x5
I0403 19:51:49.263140  9766 net.cpp:141] Setting up inception_4b/5x5
I0403 19:51:49.263175  9766 net.cpp:148] Top shape: 24 64 14 14 (301056)
I0403 19:51:49.263196  9766 net.cpp:156] Memory required for data: 966976800
I0403 19:51:49.263221  9766 layer_factory.hpp:77] Creating layer inception_4b/relu_5x5
I0403 19:51:49.263248  9766 net.cpp:91] Creating Layer inception_4b/relu_5x5
I0403 19:51:49.263274  9766 net.cpp:425] inception_4b/relu_5x5 <- inception_4b/5x5
I0403 19:51:49.263296  9766 net.cpp:386] inception_4b/relu_5x5 -> inception_4b/5x5 (in-place)
I0403 19:51:49.263650  9766 net.cpp:141] Setting up inception_4b/relu_5x5
I0403 19:51:49.263684  9766 net.cpp:148] Top shape: 24 64 14 14 (301056)
I0403 19:51:49.263701  9766 net.cpp:156] Memory required for data: 968181024
I0403 19:51:49.263722  9766 layer_factory.hpp:77] Creating layer inception_4b/pool
I0403 19:51:49.263751  9766 net.cpp:91] Creating Layer inception_4b/pool
I0403 19:51:49.263773  9766 net.cpp:425] inception_4b/pool <- inception_4a/output_inception_4a/output_0_split_4
I0403 19:51:49.263797  9766 net.cpp:399] inception_4b/pool -> inception_4b/pool
I0403 19:51:49.263880  9766 net.cpp:141] Setting up inception_4b/pool
I0403 19:51:49.263911  9766 net.cpp:148] Top shape: 24 512 14 14 (2408448)
I0403 19:51:49.263931  9766 net.cpp:156] Memory required for data: 977814816
I0403 19:51:49.263948  9766 layer_factory.hpp:77] Creating layer inception_4b/pool_proj
I0403 19:51:49.263977  9766 net.cpp:91] Creating Layer inception_4b/pool_proj
I0403 19:51:49.263998  9766 net.cpp:425] inception_4b/pool_proj <- inception_4b/pool
I0403 19:51:49.264024  9766 net.cpp:399] inception_4b/pool_proj -> inception_4b/pool_proj
I0403 19:51:49.265612  9766 net.cpp:141] Setting up inception_4b/pool_proj
I0403 19:51:49.265647  9766 net.cpp:148] Top shape: 24 64 14 14 (301056)
I0403 19:51:49.265667  9766 net.cpp:156] Memory required for data: 979019040
I0403 19:51:49.265691  9766 layer_factory.hpp:77] Creating layer inception_4b/relu_pool_proj
I0403 19:51:49.265717  9766 net.cpp:91] Creating Layer inception_4b/relu_pool_proj
I0403 19:51:49.265738  9766 net.cpp:425] inception_4b/relu_pool_proj <- inception_4b/pool_proj
I0403 19:51:49.265760  9766 net.cpp:386] inception_4b/relu_pool_proj -> inception_4b/pool_proj (in-place)
I0403 19:51:49.265988  9766 net.cpp:141] Setting up inception_4b/relu_pool_proj
I0403 19:51:49.266023  9766 net.cpp:148] Top shape: 24 64 14 14 (301056)
I0403 19:51:49.266044  9766 net.cpp:156] Memory required for data: 980223264
I0403 19:51:49.266064  9766 layer_factory.hpp:77] Creating layer inception_4b/output
I0403 19:51:49.266086  9766 net.cpp:91] Creating Layer inception_4b/output
I0403 19:51:49.266105  9766 net.cpp:425] inception_4b/output <- inception_4b/1x1
I0403 19:51:49.266125  9766 net.cpp:425] inception_4b/output <- inception_4b/3x3
I0403 19:51:49.266146  9766 net.cpp:425] inception_4b/output <- inception_4b/5x5
I0403 19:51:49.266165  9766 net.cpp:425] inception_4b/output <- inception_4b/pool_proj
I0403 19:51:49.266198  9766 net.cpp:399] inception_4b/output -> inception_4b/output
I0403 19:51:49.266253  9766 net.cpp:141] Setting up inception_4b/output
I0403 19:51:49.266284  9766 net.cpp:148] Top shape: 24 512 14 14 (2408448)
I0403 19:51:49.266314  9766 net.cpp:156] Memory required for data: 989857056
I0403 19:51:49.266350  9766 layer_factory.hpp:77] Creating layer inception_4b/output_inception_4b/output_0_split
I0403 19:51:49.266381  9766 net.cpp:91] Creating Layer inception_4b/output_inception_4b/output_0_split
I0403 19:51:49.266409  9766 net.cpp:425] inception_4b/output_inception_4b/output_0_split <- inception_4b/output
I0403 19:51:49.266432  9766 net.cpp:399] inception_4b/output_inception_4b/output_0_split -> inception_4b/output_inception_4b/output_0_split_0
I0403 19:51:49.266456  9766 net.cpp:399] inception_4b/output_inception_4b/output_0_split -> inception_4b/output_inception_4b/output_0_split_1
I0403 19:51:49.266494  9766 net.cpp:399] inception_4b/output_inception_4b/output_0_split -> inception_4b/output_inception_4b/output_0_split_2
I0403 19:51:49.266525  9766 net.cpp:399] inception_4b/output_inception_4b/output_0_split -> inception_4b/output_inception_4b/output_0_split_3
I0403 19:51:49.266629  9766 net.cpp:141] Setting up inception_4b/output_inception_4b/output_0_split
I0403 19:51:49.266657  9766 net.cpp:148] Top shape: 24 512 14 14 (2408448)
I0403 19:51:49.266679  9766 net.cpp:148] Top shape: 24 512 14 14 (2408448)
I0403 19:51:49.266698  9766 net.cpp:148] Top shape: 24 512 14 14 (2408448)
I0403 19:51:49.266717  9766 net.cpp:148] Top shape: 24 512 14 14 (2408448)
I0403 19:51:49.266734  9766 net.cpp:156] Memory required for data: 1028392224
I0403 19:51:49.266752  9766 layer_factory.hpp:77] Creating layer inception_4c/1x1
I0403 19:51:49.266780  9766 net.cpp:91] Creating Layer inception_4c/1x1
I0403 19:51:49.266801  9766 net.cpp:425] inception_4c/1x1 <- inception_4b/output_inception_4b/output_0_split_0
I0403 19:51:49.266827  9766 net.cpp:399] inception_4c/1x1 -> inception_4c/1x1
I0403 19:51:49.268575  9766 net.cpp:141] Setting up inception_4c/1x1
I0403 19:51:49.268615  9766 net.cpp:148] Top shape: 24 128 14 14 (602112)
I0403 19:51:49.268636  9766 net.cpp:156] Memory required for data: 1030800672
I0403 19:51:49.268659  9766 layer_factory.hpp:77] Creating layer inception_4c/relu_1x1
I0403 19:51:49.268683  9766 net.cpp:91] Creating Layer inception_4c/relu_1x1
I0403 19:51:49.268703  9766 net.cpp:425] inception_4c/relu_1x1 <- inception_4c/1x1
I0403 19:51:49.268726  9766 net.cpp:386] inception_4c/relu_1x1 -> inception_4c/1x1 (in-place)
I0403 19:51:49.268947  9766 net.cpp:141] Setting up inception_4c/relu_1x1
I0403 19:51:49.268980  9766 net.cpp:148] Top shape: 24 128 14 14 (602112)
I0403 19:51:49.268998  9766 net.cpp:156] Memory required for data: 1033209120
I0403 19:51:49.269016  9766 layer_factory.hpp:77] Creating layer inception_4c/3x3_reduce
I0403 19:51:49.269043  9766 net.cpp:91] Creating Layer inception_4c/3x3_reduce
I0403 19:51:49.269064  9766 net.cpp:425] inception_4c/3x3_reduce <- inception_4b/output_inception_4b/output_0_split_1
I0403 19:51:49.269091  9766 net.cpp:399] inception_4c/3x3_reduce -> inception_4c/3x3_reduce
I0403 19:51:49.271450  9766 net.cpp:141] Setting up inception_4c/3x3_reduce
I0403 19:51:49.271492  9766 net.cpp:148] Top shape: 24 128 14 14 (602112)
I0403 19:51:49.271512  9766 net.cpp:156] Memory required for data: 1035617568
I0403 19:51:49.271535  9766 layer_factory.hpp:77] Creating layer inception_4c/relu_3x3_reduce
I0403 19:51:49.271561  9766 net.cpp:91] Creating Layer inception_4c/relu_3x3_reduce
I0403 19:51:49.271584  9766 net.cpp:425] inception_4c/relu_3x3_reduce <- inception_4c/3x3_reduce
I0403 19:51:49.271606  9766 net.cpp:386] inception_4c/relu_3x3_reduce -> inception_4c/3x3_reduce (in-place)
I0403 19:51:49.271947  9766 net.cpp:141] Setting up inception_4c/relu_3x3_reduce
I0403 19:51:49.271980  9766 net.cpp:148] Top shape: 24 128 14 14 (602112)
I0403 19:51:49.271998  9766 net.cpp:156] Memory required for data: 1038026016
I0403 19:51:49.272017  9766 layer_factory.hpp:77] Creating layer inception_4c/3x3
I0403 19:51:49.272044  9766 net.cpp:91] Creating Layer inception_4c/3x3
I0403 19:51:49.272065  9766 net.cpp:425] inception_4c/3x3 <- inception_4c/3x3_reduce
I0403 19:51:49.272094  9766 net.cpp:399] inception_4c/3x3 -> inception_4c/3x3
I0403 19:51:49.276537  9766 net.cpp:141] Setting up inception_4c/3x3
I0403 19:51:49.276588  9766 net.cpp:148] Top shape: 24 256 14 14 (1204224)
I0403 19:51:49.276608  9766 net.cpp:156] Memory required for data: 1042842912
I0403 19:51:49.276648  9766 layer_factory.hpp:77] Creating layer inception_4c/relu_3x3
I0403 19:51:49.276676  9766 net.cpp:91] Creating Layer inception_4c/relu_3x3
I0403 19:51:49.276696  9766 net.cpp:425] inception_4c/relu_3x3 <- inception_4c/3x3
I0403 19:51:49.276718  9766 net.cpp:386] inception_4c/relu_3x3 -> inception_4c/3x3 (in-place)
I0403 19:51:49.276940  9766 net.cpp:141] Setting up inception_4c/relu_3x3
I0403 19:51:49.276971  9766 net.cpp:148] Top shape: 24 256 14 14 (1204224)
I0403 19:51:49.276990  9766 net.cpp:156] Memory required for data: 1047659808
I0403 19:51:49.277009  9766 layer_factory.hpp:77] Creating layer inception_4c/5x5_reduce
I0403 19:51:49.277037  9766 net.cpp:91] Creating Layer inception_4c/5x5_reduce
I0403 19:51:49.277062  9766 net.cpp:425] inception_4c/5x5_reduce <- inception_4b/output_inception_4b/output_0_split_2
I0403 19:51:49.277086  9766 net.cpp:399] inception_4c/5x5_reduce -> inception_4c/5x5_reduce
I0403 19:51:49.278424  9766 net.cpp:141] Setting up inception_4c/5x5_reduce
I0403 19:51:49.278462  9766 net.cpp:148] Top shape: 24 24 14 14 (112896)
I0403 19:51:49.278484  9766 net.cpp:156] Memory required for data: 1048111392
I0403 19:51:49.278507  9766 layer_factory.hpp:77] Creating layer inception_4c/relu_5x5_reduce
I0403 19:51:49.278533  9766 net.cpp:91] Creating Layer inception_4c/relu_5x5_reduce
I0403 19:51:49.278554  9766 net.cpp:425] inception_4c/relu_5x5_reduce <- inception_4c/5x5_reduce
I0403 19:51:49.278575  9766 net.cpp:386] inception_4c/relu_5x5_reduce -> inception_4c/5x5_reduce (in-place)
I0403 19:51:49.278801  9766 net.cpp:141] Setting up inception_4c/relu_5x5_reduce
I0403 19:51:49.278836  9766 net.cpp:148] Top shape: 24 24 14 14 (112896)
I0403 19:51:49.278854  9766 net.cpp:156] Memory required for data: 1048562976
I0403 19:51:49.278874  9766 layer_factory.hpp:77] Creating layer inception_4c/5x5
I0403 19:51:49.278901  9766 net.cpp:91] Creating Layer inception_4c/5x5
I0403 19:51:49.278923  9766 net.cpp:425] inception_4c/5x5 <- inception_4c/5x5_reduce
I0403 19:51:49.278946  9766 net.cpp:399] inception_4c/5x5 -> inception_4c/5x5
I0403 19:51:49.280469  9766 net.cpp:141] Setting up inception_4c/5x5
I0403 19:51:49.280506  9766 net.cpp:148] Top shape: 24 64 14 14 (301056)
I0403 19:51:49.280527  9766 net.cpp:156] Memory required for data: 1049767200
I0403 19:51:49.280551  9766 layer_factory.hpp:77] Creating layer inception_4c/relu_5x5
I0403 19:51:49.280573  9766 net.cpp:91] Creating Layer inception_4c/relu_5x5
I0403 19:51:49.280594  9766 net.cpp:425] inception_4c/relu_5x5 <- inception_4c/5x5
I0403 19:51:49.280618  9766 net.cpp:386] inception_4c/relu_5x5 -> inception_4c/5x5 (in-place)
I0403 19:51:49.280962  9766 net.cpp:141] Setting up inception_4c/relu_5x5
I0403 19:51:49.280997  9766 net.cpp:148] Top shape: 24 64 14 14 (301056)
I0403 19:51:49.281018  9766 net.cpp:156] Memory required for data: 1050971424
I0403 19:51:49.281036  9766 layer_factory.hpp:77] Creating layer inception_4c/pool
I0403 19:51:49.281057  9766 net.cpp:91] Creating Layer inception_4c/pool
I0403 19:51:49.281078  9766 net.cpp:425] inception_4c/pool <- inception_4b/output_inception_4b/output_0_split_3
I0403 19:51:49.281103  9766 net.cpp:399] inception_4c/pool -> inception_4c/pool
I0403 19:51:49.281184  9766 net.cpp:141] Setting up inception_4c/pool
I0403 19:51:49.281214  9766 net.cpp:148] Top shape: 24 512 14 14 (2408448)
I0403 19:51:49.281232  9766 net.cpp:156] Memory required for data: 1060605216
I0403 19:51:49.281250  9766 layer_factory.hpp:77] Creating layer inception_4c/pool_proj
I0403 19:51:49.281277  9766 net.cpp:91] Creating Layer inception_4c/pool_proj
I0403 19:51:49.281299  9766 net.cpp:425] inception_4c/pool_proj <- inception_4c/pool
I0403 19:51:49.281325  9766 net.cpp:399] inception_4c/pool_proj -> inception_4c/pool_proj
I0403 19:51:49.282827  9766 net.cpp:141] Setting up inception_4c/pool_proj
I0403 19:51:49.282861  9766 net.cpp:148] Top shape: 24 64 14 14 (301056)
I0403 19:51:49.282898  9766 net.cpp:156] Memory required for data: 1061809440
I0403 19:51:49.282923  9766 layer_factory.hpp:77] Creating layer inception_4c/relu_pool_proj
I0403 19:51:49.282950  9766 net.cpp:91] Creating Layer inception_4c/relu_pool_proj
I0403 19:51:49.282974  9766 net.cpp:425] inception_4c/relu_pool_proj <- inception_4c/pool_proj
I0403 19:51:49.282994  9766 net.cpp:386] inception_4c/relu_pool_proj -> inception_4c/pool_proj (in-place)
I0403 19:51:49.283217  9766 net.cpp:141] Setting up inception_4c/relu_pool_proj
I0403 19:51:49.283252  9766 net.cpp:148] Top shape: 24 64 14 14 (301056)
I0403 19:51:49.283272  9766 net.cpp:156] Memory required for data: 1063013664
I0403 19:51:49.283291  9766 layer_factory.hpp:77] Creating layer inception_4c/output
I0403 19:51:49.283313  9766 net.cpp:91] Creating Layer inception_4c/output
I0403 19:51:49.283332  9766 net.cpp:425] inception_4c/output <- inception_4c/1x1
I0403 19:51:49.283352  9766 net.cpp:425] inception_4c/output <- inception_4c/3x3
I0403 19:51:49.283373  9766 net.cpp:425] inception_4c/output <- inception_4c/5x5
I0403 19:51:49.283392  9766 net.cpp:425] inception_4c/output <- inception_4c/pool_proj
I0403 19:51:49.283414  9766 net.cpp:399] inception_4c/output -> inception_4c/output
I0403 19:51:49.283483  9766 net.cpp:141] Setting up inception_4c/output
I0403 19:51:49.283511  9766 net.cpp:148] Top shape: 24 512 14 14 (2408448)
I0403 19:51:49.283529  9766 net.cpp:156] Memory required for data: 1072647456
I0403 19:51:49.283547  9766 layer_factory.hpp:77] Creating layer inception_4c/output_inception_4c/output_0_split
I0403 19:51:49.283571  9766 net.cpp:91] Creating Layer inception_4c/output_inception_4c/output_0_split
I0403 19:51:49.283591  9766 net.cpp:425] inception_4c/output_inception_4c/output_0_split <- inception_4c/output
I0403 19:51:49.283613  9766 net.cpp:399] inception_4c/output_inception_4c/output_0_split -> inception_4c/output_inception_4c/output_0_split_0
I0403 19:51:49.283638  9766 net.cpp:399] inception_4c/output_inception_4c/output_0_split -> inception_4c/output_inception_4c/output_0_split_1
I0403 19:51:49.283663  9766 net.cpp:399] inception_4c/output_inception_4c/output_0_split -> inception_4c/output_inception_4c/output_0_split_2
I0403 19:51:49.283692  9766 net.cpp:399] inception_4c/output_inception_4c/output_0_split -> inception_4c/output_inception_4c/output_0_split_3
I0403 19:51:49.283805  9766 net.cpp:141] Setting up inception_4c/output_inception_4c/output_0_split
I0403 19:51:49.283834  9766 net.cpp:148] Top shape: 24 512 14 14 (2408448)
I0403 19:51:49.283854  9766 net.cpp:148] Top shape: 24 512 14 14 (2408448)
I0403 19:51:49.283874  9766 net.cpp:148] Top shape: 24 512 14 14 (2408448)
I0403 19:51:49.283893  9766 net.cpp:148] Top shape: 24 512 14 14 (2408448)
I0403 19:51:49.283910  9766 net.cpp:156] Memory required for data: 1111182624
I0403 19:51:49.283928  9766 layer_factory.hpp:77] Creating layer inception_4d/1x1
I0403 19:51:49.283957  9766 net.cpp:91] Creating Layer inception_4d/1x1
I0403 19:51:49.283978  9766 net.cpp:425] inception_4d/1x1 <- inception_4c/output_inception_4c/output_0_split_0
I0403 19:51:49.284004  9766 net.cpp:399] inception_4d/1x1 -> inception_4d/1x1
I0403 19:51:49.285691  9766 net.cpp:141] Setting up inception_4d/1x1
I0403 19:51:49.285725  9766 net.cpp:148] Top shape: 24 112 14 14 (526848)
I0403 19:51:49.285745  9766 net.cpp:156] Memory required for data: 1113290016
I0403 19:51:49.285768  9766 layer_factory.hpp:77] Creating layer inception_4d/relu_1x1
I0403 19:51:49.285794  9766 net.cpp:91] Creating Layer inception_4d/relu_1x1
I0403 19:51:49.285815  9766 net.cpp:425] inception_4d/relu_1x1 <- inception_4d/1x1
I0403 19:51:49.285838  9766 net.cpp:386] inception_4d/relu_1x1 -> inception_4d/1x1 (in-place)
I0403 19:51:49.286063  9766 net.cpp:141] Setting up inception_4d/relu_1x1
I0403 19:51:49.286094  9766 net.cpp:148] Top shape: 24 112 14 14 (526848)
I0403 19:51:49.286113  9766 net.cpp:156] Memory required for data: 1115397408
I0403 19:51:49.286131  9766 layer_factory.hpp:77] Creating layer inception_4d/3x3_reduce
I0403 19:51:49.286175  9766 net.cpp:91] Creating Layer inception_4d/3x3_reduce
I0403 19:51:49.286200  9766 net.cpp:425] inception_4d/3x3_reduce <- inception_4c/output_inception_4c/output_0_split_1
I0403 19:51:49.286226  9766 net.cpp:399] inception_4d/3x3_reduce -> inception_4d/3x3_reduce
I0403 19:51:49.288067  9766 net.cpp:141] Setting up inception_4d/3x3_reduce
I0403 19:51:49.288103  9766 net.cpp:148] Top shape: 24 144 14 14 (677376)
I0403 19:51:49.288123  9766 net.cpp:156] Memory required for data: 1118106912
I0403 19:51:49.288147  9766 layer_factory.hpp:77] Creating layer inception_4d/relu_3x3_reduce
I0403 19:51:49.288169  9766 net.cpp:91] Creating Layer inception_4d/relu_3x3_reduce
I0403 19:51:49.288192  9766 net.cpp:425] inception_4d/relu_3x3_reduce <- inception_4d/3x3_reduce
I0403 19:51:49.288215  9766 net.cpp:386] inception_4d/relu_3x3_reduce -> inception_4d/3x3_reduce (in-place)
I0403 19:51:49.288570  9766 net.cpp:141] Setting up inception_4d/relu_3x3_reduce
I0403 19:51:49.288605  9766 net.cpp:148] Top shape: 24 144 14 14 (677376)
I0403 19:51:49.288625  9766 net.cpp:156] Memory required for data: 1120816416
I0403 19:51:49.288645  9766 layer_factory.hpp:77] Creating layer inception_4d/3x3
I0403 19:51:49.288673  9766 net.cpp:91] Creating Layer inception_4d/3x3
I0403 19:51:49.288694  9766 net.cpp:425] inception_4d/3x3 <- inception_4d/3x3_reduce
I0403 19:51:49.288722  9766 net.cpp:399] inception_4d/3x3 -> inception_4d/3x3
I0403 19:51:49.294018  9766 net.cpp:141] Setting up inception_4d/3x3
I0403 19:51:49.294054  9766 net.cpp:148] Top shape: 24 288 14 14 (1354752)
I0403 19:51:49.294072  9766 net.cpp:156] Memory required for data: 1126235424
I0403 19:51:49.294095  9766 layer_factory.hpp:77] Creating layer inception_4d/relu_3x3
I0403 19:51:49.294118  9766 net.cpp:91] Creating Layer inception_4d/relu_3x3
I0403 19:51:49.294137  9766 net.cpp:425] inception_4d/relu_3x3 <- inception_4d/3x3
I0403 19:51:49.294162  9766 net.cpp:386] inception_4d/relu_3x3 -> inception_4d/3x3 (in-place)
I0403 19:51:49.294395  9766 net.cpp:141] Setting up inception_4d/relu_3x3
I0403 19:51:49.294426  9766 net.cpp:148] Top shape: 24 288 14 14 (1354752)
I0403 19:51:49.294445  9766 net.cpp:156] Memory required for data: 1131654432
I0403 19:51:49.294471  9766 layer_factory.hpp:77] Creating layer inception_4d/5x5_reduce
I0403 19:51:49.294500  9766 net.cpp:91] Creating Layer inception_4d/5x5_reduce
I0403 19:51:49.294523  9766 net.cpp:425] inception_4d/5x5_reduce <- inception_4c/output_inception_4c/output_0_split_2
I0403 19:51:49.294550  9766 net.cpp:399] inception_4d/5x5_reduce -> inception_4d/5x5_reduce
I0403 19:51:49.295956  9766 net.cpp:141] Setting up inception_4d/5x5_reduce
I0403 19:51:49.295991  9766 net.cpp:148] Top shape: 24 32 14 14 (150528)
I0403 19:51:49.296011  9766 net.cpp:156] Memory required for data: 1132256544
I0403 19:51:49.296035  9766 layer_factory.hpp:77] Creating layer inception_4d/relu_5x5_reduce
I0403 19:51:49.296061  9766 net.cpp:91] Creating Layer inception_4d/relu_5x5_reduce
I0403 19:51:49.296084  9766 net.cpp:425] inception_4d/relu_5x5_reduce <- inception_4d/5x5_reduce
I0403 19:51:49.296105  9766 net.cpp:386] inception_4d/relu_5x5_reduce -> inception_4d/5x5_reduce (in-place)
I0403 19:51:49.296335  9766 net.cpp:141] Setting up inception_4d/relu_5x5_reduce
I0403 19:51:49.296367  9766 net.cpp:148] Top shape: 24 32 14 14 (150528)
I0403 19:51:49.296386  9766 net.cpp:156] Memory required for data: 1132858656
I0403 19:51:49.296404  9766 layer_factory.hpp:77] Creating layer inception_4d/5x5
I0403 19:51:49.296433  9766 net.cpp:91] Creating Layer inception_4d/5x5
I0403 19:51:49.296458  9766 net.cpp:425] inception_4d/5x5 <- inception_4d/5x5_reduce
I0403 19:51:49.296488  9766 net.cpp:399] inception_4d/5x5 -> inception_4d/5x5
I0403 19:51:49.298440  9766 net.cpp:141] Setting up inception_4d/5x5
I0403 19:51:49.298481  9766 net.cpp:148] Top shape: 24 64 14 14 (301056)
I0403 19:51:49.298503  9766 net.cpp:156] Memory required for data: 1134062880
I0403 19:51:49.298527  9766 layer_factory.hpp:77] Creating layer inception_4d/relu_5x5
I0403 19:51:49.298571  9766 net.cpp:91] Creating Layer inception_4d/relu_5x5
I0403 19:51:49.298593  9766 net.cpp:425] inception_4d/relu_5x5 <- inception_4d/5x5
I0403 19:51:49.298615  9766 net.cpp:386] inception_4d/relu_5x5 -> inception_4d/5x5 (in-place)
I0403 19:51:49.299135  9766 net.cpp:141] Setting up inception_4d/relu_5x5
I0403 19:51:49.299170  9766 net.cpp:148] Top shape: 24 64 14 14 (301056)
I0403 19:51:49.299190  9766 net.cpp:156] Memory required for data: 1135267104
I0403 19:51:49.299208  9766 layer_factory.hpp:77] Creating layer inception_4d/pool
I0403 19:51:49.299233  9766 net.cpp:91] Creating Layer inception_4d/pool
I0403 19:51:49.299254  9766 net.cpp:425] inception_4d/pool <- inception_4c/output_inception_4c/output_0_split_3
I0403 19:51:49.299281  9766 net.cpp:399] inception_4d/pool -> inception_4d/pool
I0403 19:51:49.299365  9766 net.cpp:141] Setting up inception_4d/pool
I0403 19:51:49.299398  9766 net.cpp:148] Top shape: 24 512 14 14 (2408448)
I0403 19:51:49.299419  9766 net.cpp:156] Memory required for data: 1144900896
I0403 19:51:49.299439  9766 layer_factory.hpp:77] Creating layer inception_4d/pool_proj
I0403 19:51:49.299474  9766 net.cpp:91] Creating Layer inception_4d/pool_proj
I0403 19:51:49.299499  9766 net.cpp:425] inception_4d/pool_proj <- inception_4d/pool
I0403 19:51:49.299526  9766 net.cpp:399] inception_4d/pool_proj -> inception_4d/pool_proj
I0403 19:51:49.301678  9766 net.cpp:141] Setting up inception_4d/pool_proj
I0403 19:51:49.301714  9766 net.cpp:148] Top shape: 24 64 14 14 (301056)
I0403 19:51:49.301733  9766 net.cpp:156] Memory required for data: 1146105120
I0403 19:51:49.301758  9766 layer_factory.hpp:77] Creating layer inception_4d/relu_pool_proj
I0403 19:51:49.301780  9766 net.cpp:91] Creating Layer inception_4d/relu_pool_proj
I0403 19:51:49.301800  9766 net.cpp:425] inception_4d/relu_pool_proj <- inception_4d/pool_proj
I0403 19:51:49.301823  9766 net.cpp:386] inception_4d/relu_pool_proj -> inception_4d/pool_proj (in-place)
I0403 19:51:49.302057  9766 net.cpp:141] Setting up inception_4d/relu_pool_proj
I0403 19:51:49.302088  9766 net.cpp:148] Top shape: 24 64 14 14 (301056)
I0403 19:51:49.302108  9766 net.cpp:156] Memory required for data: 1147309344
I0403 19:51:49.302126  9766 layer_factory.hpp:77] Creating layer inception_4d/output
I0403 19:51:49.302151  9766 net.cpp:91] Creating Layer inception_4d/output
I0403 19:51:49.302173  9766 net.cpp:425] inception_4d/output <- inception_4d/1x1
I0403 19:51:49.302196  9766 net.cpp:425] inception_4d/output <- inception_4d/3x3
I0403 19:51:49.302217  9766 net.cpp:425] inception_4d/output <- inception_4d/5x5
I0403 19:51:49.302237  9766 net.cpp:425] inception_4d/output <- inception_4d/pool_proj
I0403 19:51:49.302259  9766 net.cpp:399] inception_4d/output -> inception_4d/output
I0403 19:51:49.302320  9766 net.cpp:141] Setting up inception_4d/output
I0403 19:51:49.302350  9766 net.cpp:148] Top shape: 24 528 14 14 (2483712)
I0403 19:51:49.302368  9766 net.cpp:156] Memory required for data: 1157244192
I0403 19:51:49.302387  9766 layer_factory.hpp:77] Creating layer inception_4d/output_inception_4d/output_0_split
I0403 19:51:49.302408  9766 net.cpp:91] Creating Layer inception_4d/output_inception_4d/output_0_split
I0403 19:51:49.302428  9766 net.cpp:425] inception_4d/output_inception_4d/output_0_split <- inception_4d/output
I0403 19:51:49.302453  9766 net.cpp:399] inception_4d/output_inception_4d/output_0_split -> inception_4d/output_inception_4d/output_0_split_0
I0403 19:51:49.302495  9766 net.cpp:399] inception_4d/output_inception_4d/output_0_split -> inception_4d/output_inception_4d/output_0_split_1
I0403 19:51:49.302522  9766 net.cpp:399] inception_4d/output_inception_4d/output_0_split -> inception_4d/output_inception_4d/output_0_split_2
I0403 19:51:49.302548  9766 net.cpp:399] inception_4d/output_inception_4d/output_0_split -> inception_4d/output_inception_4d/output_0_split_3
I0403 19:51:49.302573  9766 net.cpp:399] inception_4d/output_inception_4d/output_0_split -> inception_4d/output_inception_4d/output_0_split_4
I0403 19:51:49.302706  9766 net.cpp:141] Setting up inception_4d/output_inception_4d/output_0_split
I0403 19:51:49.302752  9766 net.cpp:148] Top shape: 24 528 14 14 (2483712)
I0403 19:51:49.302773  9766 net.cpp:148] Top shape: 24 528 14 14 (2483712)
I0403 19:51:49.302793  9766 net.cpp:148] Top shape: 24 528 14 14 (2483712)
I0403 19:51:49.302813  9766 net.cpp:148] Top shape: 24 528 14 14 (2483712)
I0403 19:51:49.302831  9766 net.cpp:148] Top shape: 24 528 14 14 (2483712)
I0403 19:51:49.302850  9766 net.cpp:156] Memory required for data: 1206918432
I0403 19:51:49.302867  9766 layer_factory.hpp:77] Creating layer loss2/ave_pool
I0403 19:51:49.302889  9766 net.cpp:91] Creating Layer loss2/ave_pool
I0403 19:51:49.302916  9766 net.cpp:425] loss2/ave_pool <- inception_4d/output_inception_4d/output_0_split_0
I0403 19:51:49.302942  9766 net.cpp:399] loss2/ave_pool -> loss2/ave_pool
I0403 19:51:49.303320  9766 net.cpp:141] Setting up loss2/ave_pool
I0403 19:51:49.303354  9766 net.cpp:148] Top shape: 24 528 4 4 (202752)
I0403 19:51:49.303372  9766 net.cpp:156] Memory required for data: 1207729440
I0403 19:51:49.303395  9766 layer_factory.hpp:77] Creating layer loss2/conv
I0403 19:51:49.303422  9766 net.cpp:91] Creating Layer loss2/conv
I0403 19:51:49.303448  9766 net.cpp:425] loss2/conv <- loss2/ave_pool
I0403 19:51:49.303484  9766 net.cpp:399] loss2/conv -> loss2/conv
I0403 19:51:49.305812  9766 net.cpp:141] Setting up loss2/conv
I0403 19:51:49.305850  9766 net.cpp:148] Top shape: 24 128 4 4 (49152)
I0403 19:51:49.305876  9766 net.cpp:156] Memory required for data: 1207926048
I0403 19:51:49.305899  9766 layer_factory.hpp:77] Creating layer loss2/relu_conv
I0403 19:51:49.305922  9766 net.cpp:91] Creating Layer loss2/relu_conv
I0403 19:51:49.305943  9766 net.cpp:425] loss2/relu_conv <- loss2/conv
I0403 19:51:49.305969  9766 net.cpp:386] loss2/relu_conv -> loss2/conv (in-place)
I0403 19:51:49.306324  9766 net.cpp:141] Setting up loss2/relu_conv
I0403 19:51:49.306363  9766 net.cpp:148] Top shape: 24 128 4 4 (49152)
I0403 19:51:49.306386  9766 net.cpp:156] Memory required for data: 1208122656
I0403 19:51:49.306408  9766 layer_factory.hpp:77] Creating layer loss2/fc
I0403 19:51:49.306434  9766 net.cpp:91] Creating Layer loss2/fc
I0403 19:51:49.306457  9766 net.cpp:425] loss2/fc <- loss2/conv
I0403 19:51:49.306491  9766 net.cpp:399] loss2/fc -> loss2/fc
I0403 19:51:49.328300  9766 net.cpp:141] Setting up loss2/fc
I0403 19:51:49.328338  9766 net.cpp:148] Top shape: 24 1024 (24576)
I0403 19:51:49.328359  9766 net.cpp:156] Memory required for data: 1208220960
I0403 19:51:49.328383  9766 layer_factory.hpp:77] Creating layer loss2/relu_fc
I0403 19:51:49.328408  9766 net.cpp:91] Creating Layer loss2/relu_fc
I0403 19:51:49.328428  9766 net.cpp:425] loss2/relu_fc <- loss2/fc
I0403 19:51:49.328450  9766 net.cpp:386] loss2/relu_fc -> loss2/fc (in-place)
I0403 19:51:49.328821  9766 net.cpp:141] Setting up loss2/relu_fc
I0403 19:51:49.328855  9766 net.cpp:148] Top shape: 24 1024 (24576)
I0403 19:51:49.328874  9766 net.cpp:156] Memory required for data: 1208319264
I0403 19:51:49.328893  9766 layer_factory.hpp:77] Creating layer loss2/drop_fc
I0403 19:51:49.328919  9766 net.cpp:91] Creating Layer loss2/drop_fc
I0403 19:51:49.328940  9766 net.cpp:425] loss2/drop_fc <- loss2/fc
I0403 19:51:49.328961  9766 net.cpp:386] loss2/drop_fc -> loss2/fc (in-place)
I0403 19:51:49.329022  9766 net.cpp:141] Setting up loss2/drop_fc
I0403 19:51:49.329053  9766 net.cpp:148] Top shape: 24 1024 (24576)
I0403 19:51:49.329073  9766 net.cpp:156] Memory required for data: 1208417568
I0403 19:51:49.329092  9766 layer_factory.hpp:77] Creating layer loss2/classifier_plantvillage
I0403 19:51:49.329114  9766 net.cpp:91] Creating Layer loss2/classifier_plantvillage
I0403 19:51:49.329133  9766 net.cpp:425] loss2/classifier_plantvillage <- loss2/fc
I0403 19:51:49.329159  9766 net.cpp:399] loss2/classifier_plantvillage -> loss2/classifier_plantvillage
I0403 19:51:49.329663  9766 net.cpp:141] Setting up loss2/classifier_plantvillage
I0403 19:51:49.329695  9766 net.cpp:148] Top shape: 24 38 (912)
I0403 19:51:49.329715  9766 net.cpp:156] Memory required for data: 1208421216
I0403 19:51:49.329758  9766 layer_factory.hpp:77] Creating layer loss2/classifier_plantvillage_loss2/classifier_plantvillage_0_split
I0403 19:51:49.329783  9766 net.cpp:91] Creating Layer loss2/classifier_plantvillage_loss2/classifier_plantvillage_0_split
I0403 19:51:49.329803  9766 net.cpp:425] loss2/classifier_plantvillage_loss2/classifier_plantvillage_0_split <- loss2/classifier_plantvillage
I0403 19:51:49.329826  9766 net.cpp:399] loss2/classifier_plantvillage_loss2/classifier_plantvillage_0_split -> loss2/classifier_plantvillage_loss2/classifier_plantvillage_0_split_0
I0403 19:51:49.329854  9766 net.cpp:399] loss2/classifier_plantvillage_loss2/classifier_plantvillage_0_split -> loss2/classifier_plantvillage_loss2/classifier_plantvillage_0_split_1
I0403 19:51:49.329881  9766 net.cpp:399] loss2/classifier_plantvillage_loss2/classifier_plantvillage_0_split -> loss2/classifier_plantvillage_loss2/classifier_plantvillage_0_split_2
I0403 19:51:49.329979  9766 net.cpp:141] Setting up loss2/classifier_plantvillage_loss2/classifier_plantvillage_0_split
I0403 19:51:49.330009  9766 net.cpp:148] Top shape: 24 38 (912)
I0403 19:51:49.330029  9766 net.cpp:148] Top shape: 24 38 (912)
I0403 19:51:49.330049  9766 net.cpp:148] Top shape: 24 38 (912)
I0403 19:51:49.330066  9766 net.cpp:156] Memory required for data: 1208432160
I0403 19:51:49.330085  9766 layer_factory.hpp:77] Creating layer inception_4e/1x1
I0403 19:51:49.330113  9766 net.cpp:91] Creating Layer inception_4e/1x1
I0403 19:51:49.330135  9766 net.cpp:425] inception_4e/1x1 <- inception_4d/output_inception_4d/output_0_split_1
I0403 19:51:49.330163  9766 net.cpp:399] inception_4e/1x1 -> inception_4e/1x1
I0403 19:51:49.332406  9766 net.cpp:141] Setting up inception_4e/1x1
I0403 19:51:49.332447  9766 net.cpp:148] Top shape: 24 256 14 14 (1204224)
I0403 19:51:49.332484  9766 net.cpp:156] Memory required for data: 1213249056
I0403 19:51:49.332512  9766 layer_factory.hpp:77] Creating layer inception_4e/relu_1x1
I0403 19:51:49.332541  9766 net.cpp:91] Creating Layer inception_4e/relu_1x1
I0403 19:51:49.332566  9766 net.cpp:425] inception_4e/relu_1x1 <- inception_4e/1x1
I0403 19:51:49.332608  9766 net.cpp:386] inception_4e/relu_1x1 -> inception_4e/1x1 (in-place)
I0403 19:51:49.332975  9766 net.cpp:141] Setting up inception_4e/relu_1x1
I0403 19:51:49.333012  9766 net.cpp:148] Top shape: 24 256 14 14 (1204224)
I0403 19:51:49.333034  9766 net.cpp:156] Memory required for data: 1218065952
I0403 19:51:49.333052  9766 layer_factory.hpp:77] Creating layer inception_4e/3x3_reduce
I0403 19:51:49.333081  9766 net.cpp:91] Creating Layer inception_4e/3x3_reduce
I0403 19:51:49.333109  9766 net.cpp:425] inception_4e/3x3_reduce <- inception_4d/output_inception_4d/output_0_split_2
I0403 19:51:49.333139  9766 net.cpp:399] inception_4e/3x3_reduce -> inception_4e/3x3_reduce
I0403 19:51:49.335732  9766 net.cpp:141] Setting up inception_4e/3x3_reduce
I0403 19:51:49.335769  9766 net.cpp:148] Top shape: 24 160 14 14 (752640)
I0403 19:51:49.335788  9766 net.cpp:156] Memory required for data: 1221076512
I0403 19:51:49.335811  9766 layer_factory.hpp:77] Creating layer inception_4e/relu_3x3_reduce
I0403 19:51:49.335839  9766 net.cpp:91] Creating Layer inception_4e/relu_3x3_reduce
I0403 19:51:49.335860  9766 net.cpp:425] inception_4e/relu_3x3_reduce <- inception_4e/3x3_reduce
I0403 19:51:49.335881  9766 net.cpp:386] inception_4e/relu_3x3_reduce -> inception_4e/3x3_reduce (in-place)
I0403 19:51:49.336112  9766 net.cpp:141] Setting up inception_4e/relu_3x3_reduce
I0403 19:51:49.336145  9766 net.cpp:148] Top shape: 24 160 14 14 (752640)
I0403 19:51:49.336166  9766 net.cpp:156] Memory required for data: 1224087072
I0403 19:51:49.336186  9766 layer_factory.hpp:77] Creating layer inception_4e/3x3
I0403 19:51:49.336213  9766 net.cpp:91] Creating Layer inception_4e/3x3
I0403 19:51:49.336235  9766 net.cpp:425] inception_4e/3x3 <- inception_4e/3x3_reduce
I0403 19:51:49.336258  9766 net.cpp:399] inception_4e/3x3 -> inception_4e/3x3
I0403 19:51:49.342521  9766 net.cpp:141] Setting up inception_4e/3x3
I0403 19:51:49.342576  9766 net.cpp:148] Top shape: 24 320 14 14 (1505280)
I0403 19:51:49.342599  9766 net.cpp:156] Memory required for data: 1230108192
I0403 19:51:49.342624  9766 layer_factory.hpp:77] Creating layer inception_4e/relu_3x3
I0403 19:51:49.342648  9766 net.cpp:91] Creating Layer inception_4e/relu_3x3
I0403 19:51:49.342670  9766 net.cpp:425] inception_4e/relu_3x3 <- inception_4e/3x3
I0403 19:51:49.342695  9766 net.cpp:386] inception_4e/relu_3x3 -> inception_4e/3x3 (in-place)
I0403 19:51:49.343060  9766 net.cpp:141] Setting up inception_4e/relu_3x3
I0403 19:51:49.343093  9766 net.cpp:148] Top shape: 24 320 14 14 (1505280)
I0403 19:51:49.343113  9766 net.cpp:156] Memory required for data: 1236129312
I0403 19:51:49.343132  9766 layer_factory.hpp:77] Creating layer inception_4e/5x5_reduce
I0403 19:51:49.343161  9766 net.cpp:91] Creating Layer inception_4e/5x5_reduce
I0403 19:51:49.343185  9766 net.cpp:425] inception_4e/5x5_reduce <- inception_4d/output_inception_4d/output_0_split_3
I0403 19:51:49.343215  9766 net.cpp:399] inception_4e/5x5_reduce -> inception_4e/5x5_reduce
I0403 19:51:49.344542  9766 net.cpp:141] Setting up inception_4e/5x5_reduce
I0403 19:51:49.344575  9766 net.cpp:148] Top shape: 24 32 14 14 (150528)
I0403 19:51:49.344594  9766 net.cpp:156] Memory required for data: 1236731424
I0403 19:51:49.344626  9766 layer_factory.hpp:77] Creating layer inception_4e/relu_5x5_reduce
I0403 19:51:49.344652  9766 net.cpp:91] Creating Layer inception_4e/relu_5x5_reduce
I0403 19:51:49.344672  9766 net.cpp:425] inception_4e/relu_5x5_reduce <- inception_4e/5x5_reduce
I0403 19:51:49.344702  9766 net.cpp:386] inception_4e/relu_5x5_reduce -> inception_4e/5x5_reduce (in-place)
I0403 19:51:49.345060  9766 net.cpp:141] Setting up inception_4e/relu_5x5_reduce
I0403 19:51:49.345095  9766 net.cpp:148] Top shape: 24 32 14 14 (150528)
I0403 19:51:49.345118  9766 net.cpp:156] Memory required for data: 1237333536
I0403 19:51:49.345137  9766 layer_factory.hpp:77] Creating layer inception_4e/5x5
I0403 19:51:49.345187  9766 net.cpp:91] Creating Layer inception_4e/5x5
I0403 19:51:49.345213  9766 net.cpp:425] inception_4e/5x5 <- inception_4e/5x5_reduce
I0403 19:51:49.345239  9766 net.cpp:399] inception_4e/5x5 -> inception_4e/5x5
I0403 19:51:49.347607  9766 net.cpp:141] Setting up inception_4e/5x5
I0403 19:51:49.347642  9766 net.cpp:148] Top shape: 24 128 14 14 (602112)
I0403 19:51:49.347661  9766 net.cpp:156] Memory required for data: 1239741984
I0403 19:51:49.347686  9766 layer_factory.hpp:77] Creating layer inception_4e/relu_5x5
I0403 19:51:49.347710  9766 net.cpp:91] Creating Layer inception_4e/relu_5x5
I0403 19:51:49.347731  9766 net.cpp:425] inception_4e/relu_5x5 <- inception_4e/5x5
I0403 19:51:49.347754  9766 net.cpp:386] inception_4e/relu_5x5 -> inception_4e/5x5 (in-place)
I0403 19:51:49.347996  9766 net.cpp:141] Setting up inception_4e/relu_5x5
I0403 19:51:49.348029  9766 net.cpp:148] Top shape: 24 128 14 14 (602112)
I0403 19:51:49.348049  9766 net.cpp:156] Memory required for data: 1242150432
I0403 19:51:49.348068  9766 layer_factory.hpp:77] Creating layer inception_4e/pool
I0403 19:51:49.348093  9766 net.cpp:91] Creating Layer inception_4e/pool
I0403 19:51:49.348114  9766 net.cpp:425] inception_4e/pool <- inception_4d/output_inception_4d/output_0_split_4
I0403 19:51:49.348137  9766 net.cpp:399] inception_4e/pool -> inception_4e/pool
I0403 19:51:49.348225  9766 net.cpp:141] Setting up inception_4e/pool
I0403 19:51:49.348258  9766 net.cpp:148] Top shape: 24 528 14 14 (2483712)
I0403 19:51:49.348279  9766 net.cpp:156] Memory required for data: 1252085280
I0403 19:51:49.348300  9766 layer_factory.hpp:77] Creating layer inception_4e/pool_proj
I0403 19:51:49.348330  9766 net.cpp:91] Creating Layer inception_4e/pool_proj
I0403 19:51:49.348354  9766 net.cpp:425] inception_4e/pool_proj <- inception_4e/pool
I0403 19:51:49.348384  9766 net.cpp:399] inception_4e/pool_proj -> inception_4e/pool_proj
I0403 19:51:49.350239  9766 net.cpp:141] Setting up inception_4e/pool_proj
I0403 19:51:49.350273  9766 net.cpp:148] Top shape: 24 128 14 14 (602112)
I0403 19:51:49.350311  9766 net.cpp:156] Memory required for data: 1254493728
I0403 19:51:49.350334  9766 layer_factory.hpp:77] Creating layer inception_4e/relu_pool_proj
I0403 19:51:49.350360  9766 net.cpp:91] Creating Layer inception_4e/relu_pool_proj
I0403 19:51:49.350381  9766 net.cpp:425] inception_4e/relu_pool_proj <- inception_4e/pool_proj
I0403 19:51:49.350402  9766 net.cpp:386] inception_4e/relu_pool_proj -> inception_4e/pool_proj (in-place)
I0403 19:51:49.350775  9766 net.cpp:141] Setting up inception_4e/relu_pool_proj
I0403 19:51:49.350807  9766 net.cpp:148] Top shape: 24 128 14 14 (602112)
I0403 19:51:49.350826  9766 net.cpp:156] Memory required for data: 1256902176
I0403 19:51:49.350846  9766 layer_factory.hpp:77] Creating layer inception_4e/output
I0403 19:51:49.350867  9766 net.cpp:91] Creating Layer inception_4e/output
I0403 19:51:49.350888  9766 net.cpp:425] inception_4e/output <- inception_4e/1x1
I0403 19:51:49.350908  9766 net.cpp:425] inception_4e/output <- inception_4e/3x3
I0403 19:51:49.350929  9766 net.cpp:425] inception_4e/output <- inception_4e/5x5
I0403 19:51:49.350949  9766 net.cpp:425] inception_4e/output <- inception_4e/pool_proj
I0403 19:51:49.350972  9766 net.cpp:399] inception_4e/output -> inception_4e/output
I0403 19:51:49.351037  9766 net.cpp:141] Setting up inception_4e/output
I0403 19:51:49.351066  9766 net.cpp:148] Top shape: 24 832 14 14 (3913728)
I0403 19:51:49.351084  9766 net.cpp:156] Memory required for data: 1272557088
I0403 19:51:49.351102  9766 layer_factory.hpp:77] Creating layer pool4/3x3_s2
I0403 19:51:49.351124  9766 net.cpp:91] Creating Layer pool4/3x3_s2
I0403 19:51:49.351145  9766 net.cpp:425] pool4/3x3_s2 <- inception_4e/output
I0403 19:51:49.351169  9766 net.cpp:399] pool4/3x3_s2 -> pool4/3x3_s2
I0403 19:51:49.351255  9766 net.cpp:141] Setting up pool4/3x3_s2
I0403 19:51:49.351285  9766 net.cpp:148] Top shape: 24 832 7 7 (978432)
I0403 19:51:49.351303  9766 net.cpp:156] Memory required for data: 1276470816
I0403 19:51:49.351321  9766 layer_factory.hpp:77] Creating layer pool4/3x3_s2_pool4/3x3_s2_0_split
I0403 19:51:49.351346  9766 net.cpp:91] Creating Layer pool4/3x3_s2_pool4/3x3_s2_0_split
I0403 19:51:49.351366  9766 net.cpp:425] pool4/3x3_s2_pool4/3x3_s2_0_split <- pool4/3x3_s2
I0403 19:51:49.351388  9766 net.cpp:399] pool4/3x3_s2_pool4/3x3_s2_0_split -> pool4/3x3_s2_pool4/3x3_s2_0_split_0
I0403 19:51:49.351413  9766 net.cpp:399] pool4/3x3_s2_pool4/3x3_s2_0_split -> pool4/3x3_s2_pool4/3x3_s2_0_split_1
I0403 19:51:49.351441  9766 net.cpp:399] pool4/3x3_s2_pool4/3x3_s2_0_split -> pool4/3x3_s2_pool4/3x3_s2_0_split_2
I0403 19:51:49.351471  9766 net.cpp:399] pool4/3x3_s2_pool4/3x3_s2_0_split -> pool4/3x3_s2_pool4/3x3_s2_0_split_3
I0403 19:51:49.351584  9766 net.cpp:141] Setting up pool4/3x3_s2_pool4/3x3_s2_0_split
I0403 19:51:49.351613  9766 net.cpp:148] Top shape: 24 832 7 7 (978432)
I0403 19:51:49.351634  9766 net.cpp:148] Top shape: 24 832 7 7 (978432)
I0403 19:51:49.351655  9766 net.cpp:148] Top shape: 24 832 7 7 (978432)
I0403 19:51:49.351673  9766 net.cpp:148] Top shape: 24 832 7 7 (978432)
I0403 19:51:49.351691  9766 net.cpp:156] Memory required for data: 1292125728
I0403 19:51:49.351708  9766 layer_factory.hpp:77] Creating layer inception_5a/1x1
I0403 19:51:49.351737  9766 net.cpp:91] Creating Layer inception_5a/1x1
I0403 19:51:49.351758  9766 net.cpp:425] inception_5a/1x1 <- pool4/3x3_s2_pool4/3x3_s2_0_split_0
I0403 19:51:49.351784  9766 net.cpp:399] inception_5a/1x1 -> inception_5a/1x1
I0403 19:51:49.355293  9766 net.cpp:141] Setting up inception_5a/1x1
I0403 19:51:49.355330  9766 net.cpp:148] Top shape: 24 256 7 7 (301056)
I0403 19:51:49.355360  9766 net.cpp:156] Memory required for data: 1293329952
I0403 19:51:49.355383  9766 layer_factory.hpp:77] Creating layer inception_5a/relu_1x1
I0403 19:51:49.355409  9766 net.cpp:91] Creating Layer inception_5a/relu_1x1
I0403 19:51:49.355430  9766 net.cpp:425] inception_5a/relu_1x1 <- inception_5a/1x1
I0403 19:51:49.355454  9766 net.cpp:386] inception_5a/relu_1x1 -> inception_5a/1x1 (in-place)
I0403 19:51:49.355849  9766 net.cpp:141] Setting up inception_5a/relu_1x1
I0403 19:51:49.355883  9766 net.cpp:148] Top shape: 24 256 7 7 (301056)
I0403 19:51:49.355906  9766 net.cpp:156] Memory required for data: 1294534176
I0403 19:51:49.355926  9766 layer_factory.hpp:77] Creating layer inception_5a/3x3_reduce
I0403 19:51:49.355955  9766 net.cpp:91] Creating Layer inception_5a/3x3_reduce
I0403 19:51:49.355978  9766 net.cpp:425] inception_5a/3x3_reduce <- pool4/3x3_s2_pool4/3x3_s2_0_split_1
I0403 19:51:49.356008  9766 net.cpp:399] inception_5a/3x3_reduce -> inception_5a/3x3_reduce
I0403 19:51:49.359006  9766 net.cpp:141] Setting up inception_5a/3x3_reduce
I0403 19:51:49.359046  9766 net.cpp:148] Top shape: 24 160 7 7 (188160)
I0403 19:51:49.359069  9766 net.cpp:156] Memory required for data: 1295286816
I0403 19:51:49.359093  9766 layer_factory.hpp:77] Creating layer inception_5a/relu_3x3_reduce
I0403 19:51:49.359117  9766 net.cpp:91] Creating Layer inception_5a/relu_3x3_reduce
I0403 19:51:49.359136  9766 net.cpp:425] inception_5a/relu_3x3_reduce <- inception_5a/3x3_reduce
I0403 19:51:49.359160  9766 net.cpp:386] inception_5a/relu_3x3_reduce -> inception_5a/3x3_reduce (in-place)
I0403 19:51:49.359400  9766 net.cpp:141] Setting up inception_5a/relu_3x3_reduce
I0403 19:51:49.359431  9766 net.cpp:148] Top shape: 24 160 7 7 (188160)
I0403 19:51:49.359450  9766 net.cpp:156] Memory required for data: 1296039456
I0403 19:51:49.359474  9766 layer_factory.hpp:77] Creating layer inception_5a/3x3
I0403 19:51:49.359503  9766 net.cpp:91] Creating Layer inception_5a/3x3
I0403 19:51:49.359524  9766 net.cpp:425] inception_5a/3x3 <- inception_5a/3x3_reduce
I0403 19:51:49.359552  9766 net.cpp:399] inception_5a/3x3 -> inception_5a/3x3
I0403 19:51:49.365782  9766 net.cpp:141] Setting up inception_5a/3x3
I0403 19:51:49.365818  9766 net.cpp:148] Top shape: 24 320 7 7 (376320)
I0403 19:51:49.365839  9766 net.cpp:156] Memory required for data: 1297544736
I0403 19:51:49.365864  9766 layer_factory.hpp:77] Creating layer inception_5a/relu_3x3
I0403 19:51:49.365888  9766 net.cpp:91] Creating Layer inception_5a/relu_3x3
I0403 19:51:49.365911  9766 net.cpp:425] inception_5a/relu_3x3 <- inception_5a/3x3
I0403 19:51:49.365932  9766 net.cpp:386] inception_5a/relu_3x3 -> inception_5a/3x3 (in-place)
I0403 19:51:49.366291  9766 net.cpp:141] Setting up inception_5a/relu_3x3
I0403 19:51:49.366324  9766 net.cpp:148] Top shape: 24 320 7 7 (376320)
I0403 19:51:49.366343  9766 net.cpp:156] Memory required for data: 1299050016
I0403 19:51:49.366361  9766 layer_factory.hpp:77] Creating layer inception_5a/5x5_reduce
I0403 19:51:49.366390  9766 net.cpp:91] Creating Layer inception_5a/5x5_reduce
I0403 19:51:49.366413  9766 net.cpp:425] inception_5a/5x5_reduce <- pool4/3x3_s2_pool4/3x3_s2_0_split_2
I0403 19:51:49.366441  9766 net.cpp:399] inception_5a/5x5_reduce -> inception_5a/5x5_reduce
I0403 19:51:49.367887  9766 net.cpp:141] Setting up inception_5a/5x5_reduce
I0403 19:51:49.367926  9766 net.cpp:148] Top shape: 24 32 7 7 (37632)
I0403 19:51:49.367949  9766 net.cpp:156] Memory required for data: 1299200544
I0403 19:51:49.367971  9766 layer_factory.hpp:77] Creating layer inception_5a/relu_5x5_reduce
I0403 19:51:49.367993  9766 net.cpp:91] Creating Layer inception_5a/relu_5x5_reduce
I0403 19:51:49.368017  9766 net.cpp:425] inception_5a/relu_5x5_reduce <- inception_5a/5x5_reduce
I0403 19:51:49.368038  9766 net.cpp:386] inception_5a/relu_5x5_reduce -> inception_5a/5x5_reduce (in-place)
I0403 19:51:49.368408  9766 net.cpp:141] Setting up inception_5a/relu_5x5_reduce
I0403 19:51:49.368443  9766 net.cpp:148] Top shape: 24 32 7 7 (37632)
I0403 19:51:49.368469  9766 net.cpp:156] Memory required for data: 1299351072
I0403 19:51:49.368489  9766 layer_factory.hpp:77] Creating layer inception_5a/5x5
I0403 19:51:49.368516  9766 net.cpp:91] Creating Layer inception_5a/5x5
I0403 19:51:49.368540  9766 net.cpp:425] inception_5a/5x5 <- inception_5a/5x5_reduce
I0403 19:51:49.368564  9766 net.cpp:399] inception_5a/5x5 -> inception_5a/5x5
I0403 19:51:49.370695  9766 net.cpp:141] Setting up inception_5a/5x5
I0403 19:51:49.370744  9766 net.cpp:148] Top shape: 24 128 7 7 (150528)
I0403 19:51:49.370764  9766 net.cpp:156] Memory required for data: 1299953184
I0403 19:51:49.370787  9766 layer_factory.hpp:77] Creating layer inception_5a/relu_5x5
I0403 19:51:49.370813  9766 net.cpp:91] Creating Layer inception_5a/relu_5x5
I0403 19:51:49.370834  9766 net.cpp:425] inception_5a/relu_5x5 <- inception_5a/5x5
I0403 19:51:49.370857  9766 net.cpp:386] inception_5a/relu_5x5 -> inception_5a/5x5 (in-place)
I0403 19:51:49.371093  9766 net.cpp:141] Setting up inception_5a/relu_5x5
I0403 19:51:49.371129  9766 net.cpp:148] Top shape: 24 128 7 7 (150528)
I0403 19:51:49.371148  9766 net.cpp:156] Memory required for data: 1300555296
I0403 19:51:49.371166  9766 layer_factory.hpp:77] Creating layer inception_5a/pool
I0403 19:51:49.371189  9766 net.cpp:91] Creating Layer inception_5a/pool
I0403 19:51:49.371209  9766 net.cpp:425] inception_5a/pool <- pool4/3x3_s2_pool4/3x3_s2_0_split_3
I0403 19:51:49.371233  9766 net.cpp:399] inception_5a/pool -> inception_5a/pool
I0403 19:51:49.371326  9766 net.cpp:141] Setting up inception_5a/pool
I0403 19:51:49.371356  9766 net.cpp:148] Top shape: 24 832 7 7 (978432)
I0403 19:51:49.371373  9766 net.cpp:156] Memory required for data: 1304469024
I0403 19:51:49.371392  9766 layer_factory.hpp:77] Creating layer inception_5a/pool_proj
I0403 19:51:49.371419  9766 net.cpp:91] Creating Layer inception_5a/pool_proj
I0403 19:51:49.371441  9766 net.cpp:425] inception_5a/pool_proj <- inception_5a/pool
I0403 19:51:49.371472  9766 net.cpp:399] inception_5a/pool_proj -> inception_5a/pool_proj
I0403 19:51:49.374259  9766 net.cpp:141] Setting up inception_5a/pool_proj
I0403 19:51:49.374299  9766 net.cpp:148] Top shape: 24 128 7 7 (150528)
I0403 19:51:49.374320  9766 net.cpp:156] Memory required for data: 1305071136
I0403 19:51:49.374342  9766 layer_factory.hpp:77] Creating layer inception_5a/relu_pool_proj
I0403 19:51:49.374369  9766 net.cpp:91] Creating Layer inception_5a/relu_pool_proj
I0403 19:51:49.374392  9766 net.cpp:425] inception_5a/relu_pool_proj <- inception_5a/pool_proj
I0403 19:51:49.374414  9766 net.cpp:386] inception_5a/relu_pool_proj -> inception_5a/pool_proj (in-place)
I0403 19:51:49.374778  9766 net.cpp:141] Setting up inception_5a/relu_pool_proj
I0403 19:51:49.374810  9766 net.cpp:148] Top shape: 24 128 7 7 (150528)
I0403 19:51:49.374830  9766 net.cpp:156] Memory required for data: 1305673248
I0403 19:51:49.374848  9766 layer_factory.hpp:77] Creating layer inception_5a/output
I0403 19:51:49.374869  9766 net.cpp:91] Creating Layer inception_5a/output
I0403 19:51:49.374889  9766 net.cpp:425] inception_5a/output <- inception_5a/1x1
I0403 19:51:49.374912  9766 net.cpp:425] inception_5a/output <- inception_5a/3x3
I0403 19:51:49.374935  9766 net.cpp:425] inception_5a/output <- inception_5a/5x5
I0403 19:51:49.374956  9766 net.cpp:425] inception_5a/output <- inception_5a/pool_proj
I0403 19:51:49.374977  9766 net.cpp:399] inception_5a/output -> inception_5a/output
I0403 19:51:49.375039  9766 net.cpp:141] Setting up inception_5a/output
I0403 19:51:49.375072  9766 net.cpp:148] Top shape: 24 832 7 7 (978432)
I0403 19:51:49.375092  9766 net.cpp:156] Memory required for data: 1309586976
I0403 19:51:49.375111  9766 layer_factory.hpp:77] Creating layer inception_5a/output_inception_5a/output_0_split
I0403 19:51:49.375133  9766 net.cpp:91] Creating Layer inception_5a/output_inception_5a/output_0_split
I0403 19:51:49.375152  9766 net.cpp:425] inception_5a/output_inception_5a/output_0_split <- inception_5a/output
I0403 19:51:49.375177  9766 net.cpp:399] inception_5a/output_inception_5a/output_0_split -> inception_5a/output_inception_5a/output_0_split_0
I0403 19:51:49.375205  9766 net.cpp:399] inception_5a/output_inception_5a/output_0_split -> inception_5a/output_inception_5a/output_0_split_1
I0403 19:51:49.375229  9766 net.cpp:399] inception_5a/output_inception_5a/output_0_split -> inception_5a/output_inception_5a/output_0_split_2
I0403 19:51:49.375255  9766 net.cpp:399] inception_5a/output_inception_5a/output_0_split -> inception_5a/output_inception_5a/output_0_split_3
I0403 19:51:49.375392  9766 net.cpp:141] Setting up inception_5a/output_inception_5a/output_0_split
I0403 19:51:49.375425  9766 net.cpp:148] Top shape: 24 832 7 7 (978432)
I0403 19:51:49.375447  9766 net.cpp:148] Top shape: 24 832 7 7 (978432)
I0403 19:51:49.375476  9766 net.cpp:148] Top shape: 24 832 7 7 (978432)
I0403 19:51:49.375497  9766 net.cpp:148] Top shape: 24 832 7 7 (978432)
I0403 19:51:49.375516  9766 net.cpp:156] Memory required for data: 1325241888
I0403 19:51:49.375535  9766 layer_factory.hpp:77] Creating layer inception_5b/1x1
I0403 19:51:49.375563  9766 net.cpp:91] Creating Layer inception_5b/1x1
I0403 19:51:49.375586  9766 net.cpp:425] inception_5b/1x1 <- inception_5a/output_inception_5a/output_0_split_0
I0403 19:51:49.375610  9766 net.cpp:399] inception_5b/1x1 -> inception_5b/1x1
I0403 19:51:49.380221  9766 net.cpp:141] Setting up inception_5b/1x1
I0403 19:51:49.380259  9766 net.cpp:148] Top shape: 24 384 7 7 (451584)
I0403 19:51:49.380280  9766 net.cpp:156] Memory required for data: 1327048224
I0403 19:51:49.380303  9766 layer_factory.hpp:77] Creating layer inception_5b/relu_1x1
I0403 19:51:49.380326  9766 net.cpp:91] Creating Layer inception_5b/relu_1x1
I0403 19:51:49.380345  9766 net.cpp:425] inception_5b/relu_1x1 <- inception_5b/1x1
I0403 19:51:49.380369  9766 net.cpp:386] inception_5b/relu_1x1 -> inception_5b/1x1 (in-place)
I0403 19:51:49.380744  9766 net.cpp:141] Setting up inception_5b/relu_1x1
I0403 19:51:49.380780  9766 net.cpp:148] Top shape: 24 384 7 7 (451584)
I0403 19:51:49.380800  9766 net.cpp:156] Memory required for data: 1328854560
I0403 19:51:49.380820  9766 layer_factory.hpp:77] Creating layer inception_5b/3x3_reduce
I0403 19:51:49.380847  9766 net.cpp:91] Creating Layer inception_5b/3x3_reduce
I0403 19:51:49.380870  9766 net.cpp:425] inception_5b/3x3_reduce <- inception_5a/output_inception_5a/output_0_split_1
I0403 19:51:49.380899  9766 net.cpp:399] inception_5b/3x3_reduce -> inception_5b/3x3_reduce
I0403 19:51:49.384177  9766 net.cpp:141] Setting up inception_5b/3x3_reduce
I0403 19:51:49.384214  9766 net.cpp:148] Top shape: 24 192 7 7 (225792)
I0403 19:51:49.384234  9766 net.cpp:156] Memory required for data: 1329757728
I0403 19:51:49.384258  9766 layer_factory.hpp:77] Creating layer inception_5b/relu_3x3_reduce
I0403 19:51:49.384284  9766 net.cpp:91] Creating Layer inception_5b/relu_3x3_reduce
I0403 19:51:49.384306  9766 net.cpp:425] inception_5b/relu_3x3_reduce <- inception_5b/3x3_reduce
I0403 19:51:49.384327  9766 net.cpp:386] inception_5b/relu_3x3_reduce -> inception_5b/3x3_reduce (in-place)
I0403 19:51:49.384573  9766 net.cpp:141] Setting up inception_5b/relu_3x3_reduce
I0403 19:51:49.384606  9766 net.cpp:148] Top shape: 24 192 7 7 (225792)
I0403 19:51:49.384625  9766 net.cpp:156] Memory required for data: 1330660896
I0403 19:51:49.384645  9766 layer_factory.hpp:77] Creating layer inception_5b/3x3
I0403 19:51:49.384672  9766 net.cpp:91] Creating Layer inception_5b/3x3
I0403 19:51:49.384697  9766 net.cpp:425] inception_5b/3x3 <- inception_5b/3x3_reduce
I0403 19:51:49.384722  9766 net.cpp:399] inception_5b/3x3 -> inception_5b/3x3
I0403 19:51:49.393038  9766 net.cpp:141] Setting up inception_5b/3x3
I0403 19:51:49.393074  9766 net.cpp:148] Top shape: 24 384 7 7 (451584)
I0403 19:51:49.393093  9766 net.cpp:156] Memory required for data: 1332467232
I0403 19:51:49.393117  9766 layer_factory.hpp:77] Creating layer inception_5b/relu_3x3
I0403 19:51:49.393143  9766 net.cpp:91] Creating Layer inception_5b/relu_3x3
I0403 19:51:49.393167  9766 net.cpp:425] inception_5b/relu_3x3 <- inception_5b/3x3
I0403 19:51:49.393193  9766 net.cpp:386] inception_5b/relu_3x3 -> inception_5b/3x3 (in-place)
I0403 19:51:49.393558  9766 net.cpp:141] Setting up inception_5b/relu_3x3
I0403 19:51:49.393592  9766 net.cpp:148] Top shape: 24 384 7 7 (451584)
I0403 19:51:49.393611  9766 net.cpp:156] Memory required for data: 1334273568
I0403 19:51:49.393630  9766 layer_factory.hpp:77] Creating layer inception_5b/5x5_reduce
I0403 19:51:49.393676  9766 net.cpp:91] Creating Layer inception_5b/5x5_reduce
I0403 19:51:49.393700  9766 net.cpp:425] inception_5b/5x5_reduce <- inception_5a/output_inception_5a/output_0_split_2
I0403 19:51:49.393728  9766 net.cpp:399] inception_5b/5x5_reduce -> inception_5b/5x5_reduce
I0403 19:51:49.395293  9766 net.cpp:141] Setting up inception_5b/5x5_reduce
I0403 19:51:49.395328  9766 net.cpp:148] Top shape: 24 48 7 7 (56448)
I0403 19:51:49.395347  9766 net.cpp:156] Memory required for data: 1334499360
I0403 19:51:49.395372  9766 layer_factory.hpp:77] Creating layer inception_5b/relu_5x5_reduce
I0403 19:51:49.395398  9766 net.cpp:91] Creating Layer inception_5b/relu_5x5_reduce
I0403 19:51:49.395421  9766 net.cpp:425] inception_5b/relu_5x5_reduce <- inception_5b/5x5_reduce
I0403 19:51:49.395442  9766 net.cpp:386] inception_5b/relu_5x5_reduce -> inception_5b/5x5_reduce (in-place)
I0403 19:51:49.395900  9766 net.cpp:141] Setting up inception_5b/relu_5x5_reduce
I0403 19:51:49.395934  9766 net.cpp:148] Top shape: 24 48 7 7 (56448)
I0403 19:51:49.395953  9766 net.cpp:156] Memory required for data: 1334725152
I0403 19:51:49.395972  9766 layer_factory.hpp:77] Creating layer inception_5b/5x5
I0403 19:51:49.395998  9766 net.cpp:91] Creating Layer inception_5b/5x5
I0403 19:51:49.396019  9766 net.cpp:425] inception_5b/5x5 <- inception_5b/5x5_reduce
I0403 19:51:49.396044  9766 net.cpp:399] inception_5b/5x5 -> inception_5b/5x5
I0403 19:51:49.398581  9766 net.cpp:141] Setting up inception_5b/5x5
I0403 19:51:49.398615  9766 net.cpp:148] Top shape: 24 128 7 7 (150528)
I0403 19:51:49.398634  9766 net.cpp:156] Memory required for data: 1335327264
I0403 19:51:49.398658  9766 layer_factory.hpp:77] Creating layer inception_5b/relu_5x5
I0403 19:51:49.398684  9766 net.cpp:91] Creating Layer inception_5b/relu_5x5
I0403 19:51:49.398705  9766 net.cpp:425] inception_5b/relu_5x5 <- inception_5b/5x5
I0403 19:51:49.398726  9766 net.cpp:386] inception_5b/relu_5x5 -> inception_5b/5x5 (in-place)
I0403 19:51:49.398968  9766 net.cpp:141] Setting up inception_5b/relu_5x5
I0403 19:51:49.399003  9766 net.cpp:148] Top shape: 24 128 7 7 (150528)
I0403 19:51:49.399022  9766 net.cpp:156] Memory required for data: 1335929376
I0403 19:51:49.399041  9766 layer_factory.hpp:77] Creating layer inception_5b/pool
I0403 19:51:49.399065  9766 net.cpp:91] Creating Layer inception_5b/pool
I0403 19:51:49.399086  9766 net.cpp:425] inception_5b/pool <- inception_5a/output_inception_5a/output_0_split_3
I0403 19:51:49.399114  9766 net.cpp:399] inception_5b/pool -> inception_5b/pool
I0403 19:51:49.399204  9766 net.cpp:141] Setting up inception_5b/pool
I0403 19:51:49.399235  9766 net.cpp:148] Top shape: 24 832 7 7 (978432)
I0403 19:51:49.399253  9766 net.cpp:156] Memory required for data: 1339843104
I0403 19:51:49.399272  9766 layer_factory.hpp:77] Creating layer inception_5b/pool_proj
I0403 19:51:49.399301  9766 net.cpp:91] Creating Layer inception_5b/pool_proj
I0403 19:51:49.399322  9766 net.cpp:425] inception_5b/pool_proj <- inception_5b/pool
I0403 19:51:49.399349  9766 net.cpp:399] inception_5b/pool_proj -> inception_5b/pool_proj
I0403 19:51:49.402261  9766 net.cpp:141] Setting up inception_5b/pool_proj
I0403 19:51:49.402297  9766 net.cpp:148] Top shape: 24 128 7 7 (150528)
I0403 19:51:49.402318  9766 net.cpp:156] Memory required for data: 1340445216
I0403 19:51:49.402341  9766 layer_factory.hpp:77] Creating layer inception_5b/relu_pool_proj
I0403 19:51:49.402366  9766 net.cpp:91] Creating Layer inception_5b/relu_pool_proj
I0403 19:51:49.402390  9766 net.cpp:425] inception_5b/relu_pool_proj <- inception_5b/pool_proj
I0403 19:51:49.402411  9766 net.cpp:386] inception_5b/relu_pool_proj -> inception_5b/pool_proj (in-place)
I0403 19:51:49.402786  9766 net.cpp:141] Setting up inception_5b/relu_pool_proj
I0403 19:51:49.402824  9766 net.cpp:148] Top shape: 24 128 7 7 (150528)
I0403 19:51:49.402843  9766 net.cpp:156] Memory required for data: 1341047328
I0403 19:51:49.402861  9766 layer_factory.hpp:77] Creating layer inception_5b/output
I0403 19:51:49.402884  9766 net.cpp:91] Creating Layer inception_5b/output
I0403 19:51:49.402923  9766 net.cpp:425] inception_5b/output <- inception_5b/1x1
I0403 19:51:49.402945  9766 net.cpp:425] inception_5b/output <- inception_5b/3x3
I0403 19:51:49.402966  9766 net.cpp:425] inception_5b/output <- inception_5b/5x5
I0403 19:51:49.402987  9766 net.cpp:425] inception_5b/output <- inception_5b/pool_proj
I0403 19:51:49.403010  9766 net.cpp:399] inception_5b/output -> inception_5b/output
I0403 19:51:49.403077  9766 net.cpp:141] Setting up inception_5b/output
I0403 19:51:49.403107  9766 net.cpp:148] Top shape: 24 1024 7 7 (1204224)
I0403 19:51:49.403126  9766 net.cpp:156] Memory required for data: 1345864224
I0403 19:51:49.403144  9766 layer_factory.hpp:77] Creating layer pool5/7x7_s1
I0403 19:51:49.403167  9766 net.cpp:91] Creating Layer pool5/7x7_s1
I0403 19:51:49.403188  9766 net.cpp:425] pool5/7x7_s1 <- inception_5b/output
I0403 19:51:49.403213  9766 net.cpp:399] pool5/7x7_s1 -> pool5/7x7_s1
I0403 19:51:49.403491  9766 net.cpp:141] Setting up pool5/7x7_s1
I0403 19:51:49.403522  9766 net.cpp:148] Top shape: 24 1024 1 1 (24576)
I0403 19:51:49.403542  9766 net.cpp:156] Memory required for data: 1345962528
I0403 19:51:49.403561  9766 layer_factory.hpp:77] Creating layer pool5/drop_7x7_s1
I0403 19:51:49.403586  9766 net.cpp:91] Creating Layer pool5/drop_7x7_s1
I0403 19:51:49.403607  9766 net.cpp:425] pool5/drop_7x7_s1 <- pool5/7x7_s1
I0403 19:51:49.403628  9766 net.cpp:386] pool5/drop_7x7_s1 -> pool5/7x7_s1 (in-place)
I0403 19:51:49.403692  9766 net.cpp:141] Setting up pool5/drop_7x7_s1
I0403 19:51:49.403723  9766 net.cpp:148] Top shape: 24 1024 1 1 (24576)
I0403 19:51:49.403740  9766 net.cpp:156] Memory required for data: 1346060832
I0403 19:51:49.403759  9766 layer_factory.hpp:77] Creating layer loss3/classifier_plantvillage
I0403 19:51:49.403782  9766 net.cpp:91] Creating Layer loss3/classifier_plantvillage
I0403 19:51:49.403802  9766 net.cpp:425] loss3/classifier_plantvillage <- pool5/7x7_s1
I0403 19:51:49.403830  9766 net.cpp:399] loss3/classifier_plantvillage -> loss3/classifier_plantvillage
I0403 19:51:49.404356  9766 net.cpp:141] Setting up loss3/classifier_plantvillage
I0403 19:51:49.404389  9766 net.cpp:148] Top shape: 24 38 (912)
I0403 19:51:49.404409  9766 net.cpp:156] Memory required for data: 1346064480
I0403 19:51:49.404431  9766 layer_factory.hpp:77] Creating layer loss3/classifier_plantvillage_loss3/classifier_plantvillage_0_split
I0403 19:51:49.404456  9766 net.cpp:91] Creating Layer loss3/classifier_plantvillage_loss3/classifier_plantvillage_0_split
I0403 19:51:49.404485  9766 net.cpp:425] loss3/classifier_plantvillage_loss3/classifier_plantvillage_0_split <- loss3/classifier_plantvillage
I0403 19:51:49.404513  9766 net.cpp:399] loss3/classifier_plantvillage_loss3/classifier_plantvillage_0_split -> loss3/classifier_plantvillage_loss3/classifier_plantvillage_0_split_0
I0403 19:51:49.404543  9766 net.cpp:399] loss3/classifier_plantvillage_loss3/classifier_plantvillage_0_split -> loss3/classifier_plantvillage_loss3/classifier_plantvillage_0_split_1
I0403 19:51:49.404569  9766 net.cpp:399] loss3/classifier_plantvillage_loss3/classifier_plantvillage_0_split -> loss3/classifier_plantvillage_loss3/classifier_plantvillage_0_split_2
I0403 19:51:49.404597  9766 net.cpp:399] loss3/classifier_plantvillage_loss3/classifier_plantvillage_0_split -> loss3/classifier_plantvillage_loss3/classifier_plantvillage_0_split_3
I0403 19:51:49.404721  9766 net.cpp:141] Setting up loss3/classifier_plantvillage_loss3/classifier_plantvillage_0_split
I0403 19:51:49.404752  9766 net.cpp:148] Top shape: 24 38 (912)
I0403 19:51:49.404774  9766 net.cpp:148] Top shape: 24 38 (912)
I0403 19:51:49.404798  9766 net.cpp:148] Top shape: 24 38 (912)
I0403 19:51:49.404819  9766 net.cpp:148] Top shape: 24 38 (912)
I0403 19:51:49.404837  9766 net.cpp:156] Memory required for data: 1346079072
I0403 19:51:49.404857  9766 layer_factory.hpp:77] Creating layer loss1/loss
I0403 19:51:49.404886  9766 net.cpp:91] Creating Layer loss1/loss
I0403 19:51:49.404907  9766 net.cpp:425] loss1/loss <- loss1/classifier_plantvillage_loss1/classifier_plantvillage_0_split_0
I0403 19:51:49.404945  9766 net.cpp:425] loss1/loss <- label_data_1_split_0
…
