…
I0403 19:21:00.383610  9137 net.cpp:313] The NetState phase (1) differed from the phase (0) specified by a rule in layer data
I0403 19:21:00.384750  9137 net.cpp:49] Initializing net from parameters: 
state {
  phase: TEST
}
layer {
  name: "data"
  type: "Data"
  top: "data"
  top: "label"
  include {
    phase: TEST
  }
  transform_param {
    mirror: false
    crop_size: 224
    mean_file: "/home/mohanty/data/final_dataset/lmdb/color-60-40/mean.binaryproto"
  }
  data_param {
    source: "/home/mohanty/data/final_dataset/lmdb/color-60-40/test_db"
    batch_size: 24
    backend: LMDB
  }
}
layer {
  name: "conv1/7x7_s2"
  type: "Convolution"
  bottom: "data"
  top: "conv1/7x7_s2"
  param {
    lr_mult: 1
    decay_mult: 1
  }
  param {
    lr_mult: 2
    decay_mult: 0
  }
  convolution_param {
    num_output: 64
    pad: 3
    kernel_size: 7
    stride: 2
    weight_filler {
      type: "xavier"
      std: 0.1
    }
    bias_filler {
      type: "constant"
      value: 0.2
    }
  }
}
layer {
  name: "conv1/relu_7x7"
  type: "ReLU"
  bottom: "conv1/7x7_s2"
  top: "conv1/7x7_s2"
}
layer {
  name: "pool1/3x3_s2"
  type: "Pooling"
  bottom: "conv1/7x7_s2"
  top: "pool1/3x3_s2"
  pooling_param {
    pool: MAX
    kernel_size: 3
    stride: 2
  }
}
layer {
  name: "pool1/norm1"
  type: "LRN"
  bottom: "pool1/3x3_s2"
  top: "pool1/norm1"
  lrn_param {
    local_size: 5
    alpha: 0.0001
    beta: 0.75
  }
}
layer {
  name: "conv2/3x3_reduce"
  type: "Convolution"
  bottom: "pool1/norm1"
  top: "conv2/3x3_reduce"
  param {
    lr_mult: 1
    decay_mult: 1
  }
  param {
    lr_mult: 2
    decay_mult: 0
  }
  convolution_param {
    num_output: 64
    kernel_size: 1
    weight_filler {
      type: "xavier"
      std: 0.1
    }
    bias_filler {
      type: "constant"
      value: 0.2
    }
  }
}
layer {
  name: "conv2/relu_3x3_reduce"
  type: "ReLU"
  bottom: "conv2/3x3_reduce"
  top: "conv2/3x3_reduce"
}
layer {
  name: "conv2/3x3"
  type: "Convolution"
  bottom: "conv2/3x3_reduce"
  top: "conv2/3x3"
  param {
    lr_mult: 1
    decay_mult: 1
  }
  param {
    lr_mult: 2
    decay_mult: 0
  }
  convolution_param {
    num_output: 192
    pad: 1
    kernel_size: 3
    weight_filler {
      type: "xavier"
      std: 0.03
    }
    bias_filler {
      type: "constant"
      value: 0.2
    }
  }
}
layer {
  name: "conv2/relu_3x3"
  type: "ReLU"
  bottom: "conv2/3x3"
  top: "conv2/3x3"
}
layer {
  name: "conv2/norm2"
  type: "LRN"
  bottom: "conv2/3x3"
  top: "conv2/norm2"
  lrn_param {
    local_size: 5
    alpha: 0.0001
    beta: 0.75
  }
}
layer {
  name: "pool2/3x3_s2"
  type: "Pooling"
  bottom: "conv2/norm2"
  top: "pool2/3x3_s2"
  pooling_param {
    pool: MAX
    kernel_size: 3
    stride: 2
  }
}
layer {
  name: "inception_3a/1x1"
  type: "Convolution"
  bottom: "pool2/3x3_s2"
  top: "inception_3a/1x1"
  param {
    lr_mult: 1
    decay_mult: 1
  }
  param {
    lr_mult: 2
    decay_mult: 0
  }
  convolution_param {
    num_output: 64
    kernel_size: 1
    weight_filler {
      type: "xavier"
      std: 0.03
    }
    bias_filler {
      type: "constant"
      value: 0.2
    }
  }
}
layer {
  name: "inception_3a/relu_1x1"
  type: "ReLU"
  bottom: "inception_3a/1x1"
  top: "inception_3a/1x1"
}
layer {
  name: "inception_3a/3x3_reduce"
  type: "Convolution"
  bottom: "pool2/3x3_s2"
  top: "inception_3a/3x3_reduce"
  param {
    lr_mult: 1
    decay_mult: 1
  }
  param {
    lr_mult: 2
    decay_mult: 0
  }
  convolution_param {
    num_output: 96
    kernel_size: 1
    weight_filler {
      type: "xavier"
      std: 0.09
    }
    bias_filler {
      type: "constant"
      value: 0.2
    }
  }
}
layer {
  name: "inception_3a/relu_3x3_reduce"
  type: "ReLU"
  bottom: "inception_3a/3x3_reduce"
  top: "inception_3a/3x3_reduce"
}
layer {
  name: "inception_3a/3x3"
  type: "Convolution"
  bottom: "inception_3a/3x3_reduce"
  top: "inception_3a/3x3"
  param {
    lr_mult: 1
    decay_mult: 1
  }
  param {
    lr_mult: 2
    decay_mult: 0
  }
  convolution_param {
    num_output: 128
    pad: 1
    kernel_size: 3
    weight_filler {
      type: "xavier"
      std: 0.03
    }
    bias_filler {
      type: "constant"
      value: 0.2
    }
  }
}
layer {
  name: "inception_3a/relu_3x3"
  type: "ReLU"
  bottom: "inception_3a/3x3"
  top: "inception_3a/3x3"
}
layer {
  name: "inception_3a/5x5_reduce"
  type: "Convolution"
  bottom: "pool2/3x3_s2"
  top: "inception_3a/5x5_reduce"
  param {
    lr_mult: 1
    decay_mult: 1
  }
  param {
    lr_mult: 2
    decay_mult: 0
  }
  convolution_param {
    num_output: 16
    kernel_size: 1
    weight_filler {
      type: "xavier"
      std: 0.2
    }
    bias_filler {
      type: "constant"
      value: 0.2
    }
  }
}
layer {
  name: "inception_3a/relu_5x5_reduce"
  type: "ReLU"
  bottom: "inception_3a/5x5_reduce"
  top: "inception_3a/5x5_reduce"
}
layer {
  name: "inception_3a/5x5"
  type: "Convolution"
  bottom: "inception_3a/5x5_reduce"
  top: "inception_3a/5x5"
  param {
    lr_mult: 1
    decay_mult: 1
  }
  param {
    lr_mult: 2
    decay_mult: 0
  }
  convolution_param {
    num_output: 32
    pad: 2
    kernel_size: 5
    weight_filler {
      type: "xavier"
      std: 0.03
    }
    bias_filler {
      type: "constant"
      value: 0.2
    }
  }
}
layer {
  name: "inception_3a/relu_5x5"
  type: "ReLU"
  bottom: "inception_3a/5x5"
  top: "inception_3a/5x5"
}
layer {
  name: "inception_3a/pool"
  type: "Pooling"
  bottom: "pool2/3x3_s2"
  top: "inception_3a/pool"
  pooling_param {
    pool: MAX
    kernel_size: 3
    stride: 1
    pad: 1
  }
}
layer {
  name: "inception_3a/pool_proj"
  type: "Convolution"
  bottom: "inception_3a/pool"
  top: "inception_3a/pool_proj"
  param {
    lr_mult: 1
    decay_mult: 1
  }
  param {
    lr_mult: 2
    decay_mult: 0
  }
  convolution_param {
    num_output: 32
    kernel_size: 1
    weight_filler {
      type: "xavier"
      std: 0.1
    }
    bias_filler {
      type: "constant"
      value: 0.2
    }
  }
}
layer {
  name: "inception_3a/relu_pool_proj"
  type: "ReLU"
  bottom: "inception_3a/pool_proj"
  top: "inception_3a/pool_proj"
}
layer {
  name: "inception_3a/output"
  type: "Concat"
  bottom: "inception_3a/1x1"
  bottom: "inception_3a/3x3"
  bottom: "inception_3a/5x5"
  bottom: "inception_3a/pool_proj"
  top: "inception_3a/output"
}
layer {
  name: "inception_3b/1x1"
  type: "Convolution"
  bottom: "inception_3a/output"
  top: "inception_3b/1x1"
  param {
    lr_mult: 1
    decay_mult: 1
  }
  param {
    lr_mult: 2
    decay_mult: 0
  }
  convolution_param {
    num_output: 128
    kernel_size: 1
    weight_filler {
      type: "xavier"
      std: 0.03
    }
    bias_filler {
      type: "constant"
      value: 0.2
    }
  }
}
layer {
  name: "inception_3b/relu_1x1"
  type: "ReLU"
  bottom: "inception_3b/1x1"
  top: "inception_3b/1x1"
}
layer {
  name: "inception_3b/3x3_reduce"
  type: "Convolution"
  bottom: "inception_3a/output"
  top: "inception_3b/3x3_reduce"
  param {
    lr_mult: 1
    decay_mult: 1
  }
  param {
    lr_mult: 2
    decay_mult: 0
  }
  convolution_param {
    num_output: 128
    kernel_size: 1
    weight_filler {
      type: "xavier"
      std: 0.09
    }
    bias_filler {
      type: "constant"
      value: 0.2
    }
  }
}
layer {
  name: "inception_3b/relu_3x3_reduce"
  type: "ReLU"
  bottom: "inception_3b/3x3_reduce"
  top: "inception_3b/3x3_reduce"
}
layer {
  name: "inception_3b/3x3"
  type: "Convolution"
  bottom: "inception_3b/3x3_reduce"
  top: "inception_3b/3x3"
  param {
    lr_mult: 1
    decay_mult: 1
  }
  param {
    lr_mult: 2
    decay_mult: 0
  }
  convolution_param {
    num_output: 192
    pad: 1
    kernel_size: 3
    weight_filler {
      type: "xavier"
      std: 0.03
    }
    bias_filler {
      type: "constant"
      value: 0.2
    }
  }
}
layer {
  name: "inception_3b/relu_3x3"
  type: "ReLU"
  bottom: "inception_3b/3x3"
  top: "inception_3b/3x3"
}
layer {
  name: "inception_3b/5x5_reduce"
  type: "Convolution"
  bottom: "inception_3a/output"
  top: "inception_3b/5x5_reduce"
  param {
    lr_mult: 1
    decay_mult: 1
  }
  param {
    lr_mult: 2
    decay_mult: 0
  }
  convolution_param {
    num_output: 32
    kernel_size: 1
    weight_filler {
      type: "xavier"
      std: 0.2
    }
    bias_filler {
      type: "constant"
      value: 0.2
    }
  }
}
layer {
  name: "inception_3b/relu_5x5_reduce"
  type: "ReLU"
  bottom: "inception_3b/5x5_reduce"
  top: "inception_3b/5x5_reduce"
}
layer {
  name: "inception_3b/5x5"
  type: "Convolution"
  bottom: "inception_3b/5x5_reduce"
  top: "inception_3b/5x5"
  param {
    lr_mult: 1
    decay_mult: 1
  }
  param {
    lr_mult: 2
    decay_mult: 0
  }
  convolution_param {
    num_output: 96
    pad: 2
    kernel_size: 5
    weight_filler {
      type: "xavier"
      std: 0.03
    }
    bias_filler {
      type: "constant"
      value: 0.2
    }
  }
}
layer {
  name: "inception_3b/relu_5x5"
  type: "ReLU"
  bottom: "inception_3b/5x5"
  top: "inception_3b/5x5"
}
layer {
  name: "inception_3b/pool"
  type: "Pooling"
  bottom: "inception_3a/output"
  top: "inception_3b/pool"
  pooling_param {
    pool: MAX
    kernel_size: 3
    stride: 1
    pad: 1
  }
}
layer {
  name: "inception_3b/pool_proj"
  type: "Convolution"
  bottom: "inception_3b/pool"
  top: "inception_3b/pool_proj"
  param {
    lr_mult: 1
    decay_mult: 1
  }
  param {
    lr_mult: 2
    decay_mult: 0
  }
  convolution_param {
    num_output: 64
    kernel_size: 1
    weight_filler {
      type: "xavier"
      std: 0.1
    }
    bias_filler {
      type: "constant"
      value: 0.2
    }
  }
}
layer {
  name: "inception_3b/relu_pool_proj"
  type: "ReLU"
  bottom: "inception_3b/pool_proj"
  top: "inception_3b/pool_proj"
}
layer {
  name: "inception_3b/output"
  type: "Concat"
  bottom: "inception_3b/1x1"
  bottom: "inception_3b/3x3"
  bottom: "inception_3b/5x5"
  bottom: "inception_3b/pool_proj"
  top: "inception_3b/output"
}
layer {
  name: "pool3/3x3_s2"
  type: "Pooling"
  bottom: "inception_3b/output"
  top: "pool3/3x3_s2"
  pooling_param {
    pool: MAX
    kernel_size: 3
    stride: 2
  }
}
layer {
  name: "inception_4a/1x1"
  type: "Convolution"
  bottom: "pool3/3x3_s2"
  top: "inception_4a/1x1"
  param {
    lr_mult: 1
    decay_mult: 1
  }
  param {
    lr_mult: 2
    decay_mult: 0
  }
  convolution_param {
    num_output: 192
    kernel_size: 1
    weight_filler {
      type: "xavier"
      std: 0.03
    }
    bias_filler {
      type: "constant"
      value: 0.2
    }
  }
}
layer {
  name: "inception_4a/relu_1x1"
  type: "ReLU"
  bottom: "inception_4a/1x1"
  top: "inception_4a/1x1"
}
layer {
  name: "inception_4a/3x3_reduce"
  type: "Convolution"
  bottom: "pool3/3x3_s2"
  top: "inception_4a/3x3_reduce"
  param {
    lr_mult: 1
    decay_mult: 1
  }
  param {
    lr_mult: 2
    decay_mult: 0
  }
  convolution_param {
    num_output: 96
    kernel_size: 1
    weight_filler {
      type: "xavier"
      std: 0.09
    }
    bias_filler {
      type: "constant"
      value: 0.2
    }
  }
}
layer {
  name: "inception_4a/relu_3x3_reduce"
  type: "ReLU"
  bottom: "inception_4a/3x3_reduce"
  top: "inception_4a/3x3_reduce"
}
layer {
  name: "inception_4a/3x3"
  type: "Convolution"
  bottom: "inception_4a/3x3_reduce"
  top: "inception_4a/3x3"
  param {
    lr_mult: 1
    decay_mult: 1
  }
  param {
    lr_mult: 2
    decay_mult: 0
  }
  convolution_param {
    num_output: 208
    pad: 1
    kernel_size: 3
    weight_filler {
      type: "xavier"
      std: 0.03
    }
    bias_filler {
      type: "constant"
      value: 0.2
    }
  }
}
layer {
  name: "inception_4a/relu_3x3"
  type: "ReLU"
  bottom: "inception_4a/3x3"
  top: "inception_4a/3x3"
}
layer {
  name: "inception_4a/5x5_reduce"
  type: "Convolution"
  bottom: "pool3/3x3_s2"
  top: "inception_4a/5x5_reduce"
  param {
    lr_mult: 1
    decay_mult: 1
  }
  param {
    lr_mult: 2
    decay_mult: 0
  }
  convolution_param {
    num_output: 16
    kernel_size: 1
    weight_filler {
      type: "xavier"
      std: 0.2
    }
    bias_filler {
      type: "constant"
      value: 0.2
    }
  }
}
layer {
  name: "inception_4a/relu_5x5_reduce"
  type: "ReLU"
  bottom: "inception_4a/5x5_reduce"
  top: "inception_4a/5x5_reduce"
}
layer {
  name: "inception_4a/5x5"
  type: "Convolution"
  bottom: "inception_4a/5x5_reduce"
  top: "inception_4a/5x5"
  param {
    lr_mult: 1
    decay_mult: 1
  }
  param {
    lr_mult: 2
    decay_mult: 0
  }
  convolution_param {
    num_output: 48
    pad: 2
    kernel_size: 5
    weight_filler {
      type: "xavier"
      std: 0.03
    }
    bias_filler {
      type: "constant"
      value: 0.2
    }
  }
}
layer {
  name: "inception_4a/relu_5x5"
  type: "ReLU"
  bottom: "inception_4a/5x5"
  top: "inception_4a/5x5"
}
layer {
  name: "inception_4a/pool"
  type: "Pooling"
  bottom: "pool3/3x3_s2"
  top: "inception_4a/pool"
  pooling_param {
    pool: MAX
    kernel_size: 3
    stride: 1
    pad: 1
  }
}
layer {
  name: "inception_4a/pool_proj"
  type: "Convolution"
  bottom: "inception_4a/pool"
  top: "inception_4a/pool_proj"
  param {
    lr_mult: 1
    decay_mult: 1
  }
  param {
    lr_mult: 2
    decay_mult: 0
  }
  convolution_param {
    num_output: 64
    kernel_size: 1
    weight_filler {
      type: "xavier"
      std: 0.1
    }
    bias_filler {
      type: "constant"
      value: 0.2
    }
  }
}
layer {
  name: "inception_4a/relu_pool_proj"
  type: "ReLU"
  bottom: "inception_4a/pool_proj"
  top: "inception_4a/pool_proj"
}
layer {
  name: "inception_4a/output"
  type: "Concat"
  bottom: "inception_4a/1x1"
  bottom: "inception_4a/3x3"
  bottom: "inception_4a/5x5"
  bottom: "inception_4a/pool_proj"
  top: "inception_4a/output"
}
layer {
  name: "loss1/ave_pool"
  type: "Pooling"
  bottom: "inception_4a/output"
  top: "loss1/ave_pool"
  pooling_param {
    pool: AVE
    kernel_size: 5
    stride: 3
  }
}
layer {
  name: "loss1/conv"
  type: "Convolution"
  bottom: "loss1/ave_pool"
  top: "loss1/conv"
  param {
    lr_mult: 1
    decay_mult: 1
  }
  param {
    lr_mult: 2
    decay_mult: 0
  }
  convolution_param {
    num_output: 128
    kernel_size: 1
    weight_filler {
      type: "xavier"
      std: 0.08
    }
    bias_filler {
      type: "constant"
      value: 0.2
    }
  }
}
layer {
  name: "loss1/relu_conv"
  type: "ReLU"
  bottom: "loss1/conv"
  top: "loss1/conv"
}
layer {
  name: "loss1/fc"
  type: "InnerProduct"
  bottom: "loss1/conv"
  top: "loss1/fc"
  param {
    lr_mult: 1
    decay_mult: 1
  }
  param {
    lr_mult: 2
    decay_mult: 0
  }
  inner_product_param {
    num_output: 1024
    weight_filler {
      type: "xavier"
      std: 0.02
    }
    bias_filler {
      type: "constant"
      value: 0.2
    }
  }
}
layer {
  name: "loss1/relu_fc"
  type: "ReLU"
  bottom: "loss1/fc"
  top: "loss1/fc"
}
layer {
  name: "loss1/drop_fc"
  type: "Dropout"
  bottom: "loss1/fc"
  top: "loss1/fc"
  dropout_param {
    dropout_ratio: 0.7
  }
}
layer {
  name: "loss1/classifier_plantvillage"
  type: "InnerProduct"
  bottom: "loss1/fc"
  top: "loss1/classifier_plantvillage"
  param {
    lr_mult: 1
    decay_mult: 1
  }
  param {
    lr_mult: 2
    decay_mult: 0
  }
  inner_product_param {
    num_output: 38
    weight_filler {
      type: "xavier"
      std: 0.0009765625
    }
    bias_filler {
      type: "constant"
      value: 0
    }
  }
}
layer {
  name: "inception_4b/1x1"
  type: "Convolution"
  bottom: "inception_4a/output"
  top: "inception_4b/1x1"
  param {
    lr_mult: 1
    decay_mult: 1
  }
  param {
    lr_mult: 2
    decay_mult: 0
  }
  convolution_param {
    num_output: 160
    kernel_size: 1
    weight_filler {
      type: "xavier"
      std: 0.03
    }
    bias_filler {
      type: "constant"
      value: 0.2
    }
  }
}
layer {
  name: "inception_4b/relu_1x1"
  type: "ReLU"
  bottom: "inception_4b/1x1"
  top: "inception_4b/1x1"
}
layer {
  name: "inception_4b/3x3_reduce"
  type: "Convolution"
  bottom: "inception_4a/output"
  top: "inception_4b/3x3_reduce"
  param {
    lr_mult: 1
    decay_mult: 1
  }
  param {
    lr_mult: 2
    decay_mult: 0
  }
  convolution_param {
    num_output: 112
    kernel_size: 1
    weight_filler {
      type: "xavier"
      std: 0.09
    }
    bias_filler {
      type: "constant"
      value: 0.2
    }
  }
}
layer {
  name: "inception_4b/relu_3x3_reduce"
  type: "ReLU"
  bottom: "inception_4b/3x3_reduce"
  top: "inception_4b/3x3_reduce"
}
layer {
  name: "inception_4b/3x3"
  type: "Convolution"
  bottom: "inception_4b/3x3_reduce"
  top: "inception_4b/3x3"
  param {
    lr_mult: 1
    decay_mult: 1
  }
  param {
    lr_mult: 2
    decay_mult: 0
  }
  convolution_param {
    num_output: 224
    pad: 1
    kernel_size: 3
    weight_filler {
      type: "xavier"
      std: 0.03
    }
    bias_filler {
      type: "constant"
      value: 0.2
    }
  }
}
layer {
  name: "inception_4b/relu_3x3"
  type: "ReLU"
  bottom: "inception_4b/3x3"
  top: "inception_4b/3x3"
}
layer {
  name: "inception_4b/5x5_reduce"
  type: "Convolution"
  bottom: "inception_4a/output"
  top: "inception_4b/5x5_reduce"
  param {
    lr_mult: 1
    decay_mult: 1
  }
  param {
    lr_mult: 2
    decay_mult: 0
  }
  convolution_param {
    num_output: 24
    kernel_size: 1
    weight_filler {
      type: "xavier"
      std: 0.2
    }
    bias_filler {
      type: "constant"
      value: 0.2
    }
  }
}
layer {
  name: "inception_4b/relu_5x5_reduce"
  type: "ReLU"
  bottom: "inception_4b/5x5_reduce"
  top: "inception_4b/5x5_reduce"
}
layer {
  name: "inception_4b/5x5"
  type: "Convolution"
  bottom: "inception_4b/5x5_reduce"
  top: "inception_4b/5x5"
  param {
    lr_mult: 1
    decay_mult: 1
  }
  param {
    lr_mult: 2
    decay_mult: 0
  }
  convolution_param {
    num_output: 64
    pad: 2
    kernel_size: 5
    weight_filler {
      type: "xavier"
      std: 0.03
    }
    bias_filler {
      type: "constant"
      value: 0.2
    }
  }
}
layer {
  name: "inception_4b/relu_5x5"
  type: "ReLU"
  bottom: "inception_4b/5x5"
  top: "inception_4b/5x5"
}
layer {
  name: "inception_4b/pool"
  type: "Pooling"
  bottom: "inception_4a/output"
  top: "inception_4b/pool"
  pooling_param {
    pool: MAX
    kernel_size: 3
    stride: 1
    pad: 1
  }
}
layer {
  name: "inception_4b/pool_proj"
  type: "Convolution"
  bottom: "inception_4b/pool"
  top: "inception_4b/pool_proj"
  param {
    lr_mult: 1
    decay_mult: 1
  }
  param {
    lr_mult: 2
    decay_mult: 0
  }
  convolution_param {
    num_output: 64
    kernel_size: 1
    weight_filler {
      type: "xavier"
      std: 0.1
    }
    bias_filler {
      type: "constant"
      value: 0.2
    }
  }
}
layer {
  name: "inception_4b/relu_pool_proj"
  type: "ReLU"
  bottom: "inception_4b/pool_proj"
  top: "inception_4b/pool_proj"
}
layer {
  name: "inception_4b/output"
  type: "Concat"
  bottom: "inception_4b/1x1"
  bottom: "inception_4b/3x3"
  bottom: "inception_4b/5x5"
  bottom: "inception_4b/pool_proj"
  top: "inception_4b/output"
}
layer {
  name: "inception_4c/1x1"
  type: "Convolution"
  bottom: "inception_4b/output"
  top: "inception_4c/1x1"
  param {
    lr_mult: 1
    decay_mult: 1
  }
  param {
    lr_mult: 2
    decay_mult: 0
  }
  convolution_param {
    num_output: 128
    kernel_size: 1
    weight_filler {
      type: "xavier"
      std: 0.03
    }
    bias_filler {
      type: "constant"
      value: 0.2
    }
  }
}
layer {
  name: "inception_4c/relu_1x1"
  type: "ReLU"
  bottom: "inception_4c/1x1"
  top: "inception_4c/1x1"
}
layer {
  name: "inception_4c/3x3_reduce"
  type: "Convolution"
  bottom: "inception_4b/output"
  top: "inception_4c/3x3_reduce"
  param {
    lr_mult: 1
    decay_mult: 1
  }
  param {
    lr_mult: 2
    decay_mult: 0
  }
  convolution_param {
    num_output: 128
    kernel_size: 1
    weight_filler {
      type: "xavier"
      std: 0.09
    }
    bias_filler {
      type: "constant"
      value: 0.2
    }
  }
}
layer {
  name: "inception_4c/relu_3x3_reduce"
  type: "ReLU"
  bottom: "inception_4c/3x3_reduce"
  top: "inception_4c/3x3_reduce"
}
layer {
  name: "inception_4c/3x3"
  type: "Convolution"
  bottom: "inception_4c/3x3_reduce"
  top: "inception_4c/3x3"
  param {
    lr_mult: 1
    decay_mult: 1
  }
  param {
    lr_mult: 2
    decay_mult: 0
  }
  convolution_param {
    num_output: 256
    pad: 1
    kernel_size: 3
    weight_filler {
      type: "xavier"
      std: 0.03
    }
    bias_filler {
      type: "constant"
      value: 0.2
    }
  }
}
layer {
  name: "inception_4c/relu_3x3"
  type: "ReLU"
  bottom: "inception_4c/3x3"
  top: "inception_4c/3x3"
}
layer {
  name: "inception_4c/5x5_reduce"
  type: "Convolution"
  bottom: "inception_4b/output"
  top: "inception_4c/5x5_reduce"
  param {
    lr_mult: 1
    decay_mult: 1
  }
  param {
    lr_mult: 2
    decay_mult: 0
  }
  convolution_param {
    num_output: 24
    kernel_size: 1
    weight_filler {
      type: "xavier"
      std: 0.2
    }
    bias_filler {
      type: "constant"
      value: 0.2
    }
  }
}
layer {
  name: "inception_4c/relu_5x5_reduce"
  type: "ReLU"
  bottom: "inception_4c/5x5_reduce"
  top: "inception_4c/5x5_reduce"
}
layer {
  name: "inception_4c/5x5"
  type: "Convolution"
  bottom: "inception_4c/5x5_reduce"
  top: "inception_4c/5x5"
  param {
    lr_mult: 1
    decay_mult: 1
  }
  param {
    lr_mult: 2
    decay_mult: 0
  }
  convolution_param {
    num_output: 64
    pad: 2
    kernel_size: 5
    weight_filler {
      type: "xavier"
      std: 0.03
    }
    bias_filler {
      type: "constant"
      value: 0.2
    }
  }
}
layer {
  name: "inception_4c/relu_5x5"
  type: "ReLU"
  bottom: "inception_4c/5x5"
  top: "inception_4c/5x5"
}
layer {
  name: "inception_4c/pool"
  type: "Pooling"
  bottom: "inception_4b/output"
  top: "inception_4c/pool"
  pooling_param {
    pool: MAX
    kernel_size: 3
    stride: 1
    pad: 1
  }
}
layer {
  name: "inception_4c/pool_proj"
  type: "Convolution"
  bottom: "inception_4c/pool"
  top: "inception_4c/pool_proj"
  param {
    lr_mult: 1
    decay_mult: 1
  }
  param {
    lr_mult: 2
    decay_mult: 0
  }
  convolution_param {
    num_output: 64
    kernel_size: 1
    weight_filler {
      type: "xavier"
      std: 0.1
    }
    bias_filler {
      type: "constant"
      value: 0.2
    }
  }
}
layer {
  name: "inception_4c/relu_pool_proj"
  type: "ReLU"
  bottom: "inception_4c/pool_proj"
  top: "inception_4c/pool_proj"
}
layer {
  name: "inception_4c/output"
  type: "Concat"
  bottom: "inception_4c/1x1"
  bottom: "inception_4c/3x3"
  bottom: "inception_4c/5x5"
  bottom: "inception_4c/pool_proj"
  top: "inception_4c/output"
}
layer {
  name: "inception_4d/1x1"
  type: "Convolution"
  bottom: "inception_4c/output"
  top: "inception_4d/1x1"
  param {
    lr_mult: 1
    decay_mult: 1
  }
  param {
    lr_mult: 2
    decay_mult: 0
  }
  convolution_param {
    num_output: 112
    kernel_size: 1
    weight_filler {
      type: "xavier"
      std: 0.03
    }
    bias_filler {
      type: "constant"
      value: 0.2
    }
  }
}
layer {
  name: "inception_4d/relu_1x1"
  type: "ReLU"
  bottom: "inception_4d/1x1"
  top: "inception_4d/1x1"
}
layer {
  name: "inception_4d/3x3_reduce"
  type: "Convolution"
  bottom: "inception_4c/output"
  top: "inception_4d/3x3_reduce"
  param {
    lr_mult: 1
    decay_mult: 1
  }
  param {
    lr_mult: 2
    decay_mult: 0
  }
  convolution_param {
    num_output: 144
    kernel_size: 1
    weight_filler {
      type: "xavier"
      std: 0.09
    }
    bias_filler {
      type: "constant"
      value: 0.2
    }
  }
}
layer {
  name: "inception_4d/relu_3x3_reduce"
  type: "ReLU"
  bottom: "inception_4d/3x3_reduce"
  top: "inception_4d/3x3_reduce"
}
layer {
  name: "inception_4d/3x3"
  type: "Convolution"
  bottom: "inception_4d/3x3_reduce"
  top: "inception_4d/3x3"
  param {
    lr_mult: 1
    decay_mult: 1
  }
  param {
    lr_mult: 2
    decay_mult: 0
  }
  convolution_param {
    num_output: 288
    pad: 1
    kernel_size: 3
    weight_filler {
      type: "xavier"
      std: 0.03
    }
    bias_filler {
      type: "constant"
      value: 0.2
    }
  }
}
layer {
  name: "inception_4d/relu_3x3"
  type: "ReLU"
  bottom: "inception_4d/3x3"
  top: "inception_4d/3x3"
}
layer {
  name: "inception_4d/5x5_reduce"
  type: "Convolution"
  bottom: "inception_4c/output"
  top: "inception_4d/5x5_reduce"
  param {
    lr_mult: 1
    decay_mult: 1
  }
  param {
    lr_mult: 2
    decay_mult: 0
  }
  convolution_param {
    num_output: 32
    kernel_size: 1
    weight_filler {
      type: "xavier"
      std: 0.2
    }
    bias_filler {
      type: "constant"
      value: 0.2
    }
  }
}
layer {
  name: "inception_4d/relu_5x5_reduce"
  type: "ReLU"
  bottom: "inception_4d/5x5_reduce"
  top: "inception_4d/5x5_reduce"
}
layer {
  name: "inception_4d/5x5"
  type: "Convolution"
  bottom: "inception_4d/5x5_reduce"
  top: "inception_4d/5x5"
  param {
    lr_mult: 1
    decay_mult: 1
  }
  param {
    lr_mult: 2
    decay_mult: 0
  }
  convolution_param {
    num_output: 64
    pad: 2
    kernel_size: 5
    weight_filler {
      type: "xavier"
      std: 0.03
    }
    bias_filler {
      type: "constant"
      value: 0.2
    }
  }
}
layer {
  name: "inception_4d/relu_5x5"
  type: "ReLU"
  bottom: "inception_4d/5x5"
  top: "inception_4d/5x5"
}
layer {
  name: "inception_4d/pool"
  type: "Pooling"
  bottom: "inception_4c/output"
  top: "inception_4d/pool"
  pooling_param {
    pool: MAX
    kernel_size: 3
    stride: 1
    pad: 1
  }
}
layer {
  name: "inception_4d/pool_proj"
  type: "Convolution"
  bottom: "inception_4d/pool"
  top: "inception_4d/pool_proj"
  param {
    lr_mult: 1
    decay_mult: 1
  }
  param {
    lr_mult: 2
    decay_mult: 0
  }
  convolution_param {
    num_output: 64
    kernel_size: 1
    weight_filler {
      type: "xavier"
      std: 0.1
    }
    bias_filler {
      type: "constant"
      value: 0.2
    }
  }
}
layer {
  name: "inception_4d/relu_pool_proj"
  type: "ReLU"
  bottom: "inception_4d/pool_proj"
  top: "inception_4d/pool_proj"
}
layer {
  name: "inception_4d/output"
  type: "Concat"
  bottom: "inception_4d/1x1"
  bottom: "inception_4d/3x3"
  bottom: "inception_4d/5x5"
  bottom: "inception_4d/pool_proj"
  top: "inception_4d/output"
}
layer {
  name: "loss2/ave_pool"
  type: "Pooling"
  bottom: "inception_4d/output"
  top: "loss2/ave_pool"
  pooling_param {
    pool: AVE
    kernel_size: 5
    stride: 3
  }
}
layer {
  name: "loss2/conv"
  type: "Convolution"
  bottom: "loss2/ave_pool"
  top: "loss2/conv"
  param {
    lr_mult: 1
    decay_mult: 1
  }
  param {
    lr_mult: 2
    decay_mult: 0
  }
  convolution_param {
    num_output: 128
    kernel_size: 1
    weight_filler {
      type: "xavier"
      std: 0.08
    }
    bias_filler {
      type: "constant"
      value: 0.2
    }
  }
}
layer {
  name: "loss2/relu_conv"
  type: "ReLU"
  bottom: "loss2/conv"
  top: "loss2/conv"
}
layer {
  name: "loss2/fc"
  type: "InnerProduct"
  bottom: "loss2/conv"
  top: "loss2/fc"
  param {
    lr_mult: 1
    decay_mult: 1
  }
  param {
    lr_mult: 2
    decay_mult: 0
  }
  inner_product_param {
    num_output: 1024
    weight_filler {
      type: "xavier"
      std: 0.02
    }
    bias_filler {
      type: "constant"
      value: 0.2
    }
  }
}
layer {
  name: "loss2/relu_fc"
  type: "ReLU"
  bottom: "loss2/fc"
  top: "loss2/fc"
}
layer {
  name: "loss2/drop_fc"
  type: "Dropout"
  bottom: "loss2/fc"
  top: "loss2/fc"
  dropout_param {
    dropout_ratio: 0.7
  }
}
layer {
  name: "loss2/classifier_plantvillage"
  type: "InnerProduct"
  bottom: "loss2/fc"
  top: "loss2/classifier_plantvillage"
  param {
    lr_mult: 1
    decay_mult: 1
  }
  param {
    lr_mult: 2
    decay_mult: 0
  }
  inner_product_param {
    num_output: 38
    weight_filler {
      type: "xavier"
      std: 0.0009765625
    }
    bias_filler {
      type: "constant"
      value: 0
    }
  }
}
layer {
  name: "inception_4e/1x1"
  type: "Convolution"
  bottom: "inception_4d/output"
  top: "inception_4e/1x1"
  param {
    lr_mult: 1
    decay_mult: 1
  }
  param {
    lr_mult: 2
    decay_mult: 0
  }
  convolution_param {
    num_output: 256
    kernel_size: 1
    weight_filler {
      type: "xavier"
      std: 0.03
    }
    bias_filler {
      type: "constant"
      value: 0.2
    }
  }
}
layer {
  name: "inception_4e/relu_1x1"
  type: "ReLU"
  bottom: "inception_4e/1x1"
  top: "inception_4e/1x1"
}
layer {
  name: "inception_4e/3x3_reduce"
  type: "Convolution"
  bottom: "inception_4d/output"
  top: "inception_4e/3x3_reduce"
  param {
    lr_mult: 1
    decay_mult: 1
  }
  param {
    lr_mult: 2
    decay_mult: 0
  }
  convolution_param {
    num_output: 160
    kernel_size: 1
    weight_filler {
      type: "xavier"
      std: 0.09
    }
    bias_filler {
      type: "constant"
      value: 0.2
    }
  }
}
layer {
  name: "inception_4e/relu_3x3_reduce"
  type: "ReLU"
  bottom: "inception_4e/3x3_reduce"
  top: "inception_4e/3x3_reduce"
}
layer {
  name: "inception_4e/3x3"
  type: "Convolution"
  bottom: "inception_4e/3x3_reduce"
  top: "inception_4e/3x3"
  param {
    lr_mult: 1
    decay_mult: 1
  }
  param {
    lr_mult: 2
    decay_mult: 0
  }
  convolution_param {
    num_output: 320
    pad: 1
    kernel_size: 3
    weight_filler {
      type: "xavier"
      std: 0.03
    }
    bias_filler {
      type: "constant"
      value: 0.2
    }
  }
}
layer {
  name: "inception_4e/relu_3x3"
  type: "ReLU"
  bottom: "inception_4e/3x3"
  top: "inception_4e/3x3"
}
layer {
  name: "inception_4e/5x5_reduce"
  type: "Convolution"
  bottom: "inception_4d/output"
  top: "inception_4e/5x5_reduce"
  param {
    lr_mult: 1
    decay_mult: 1
  }
  param {
    lr_mult: 2
    decay_mult: 0
  }
  convolution_param {
    num_output: 32
    kernel_size: 1
    weight_filler {
      type: "xavier"
      std: 0.2
    }
    bias_filler {
      type: "constant"
      value: 0.2
    }
  }
}
layer {
  name: "inception_4e/relu_5x5_reduce"
  type: "ReLU"
  bottom: "inception_4e/5x5_reduce"
  top: "inception_4e/5x5_reduce"
}
layer {
  name: "inception_4e/5x5"
  type: "Convolution"
  bottom: "inception_4e/5x5_reduce"
  top: "inception_4e/5x5"
  p
I0403 19:21:00.386456  9137 layer_factory.hpp:77] Creating layer data
I0403 19:21:00.387047  9137 net.cpp:91] Creating Layer data
I0403 19:21:00.387080  9137 net.cpp:399] data -> data
I0403 19:21:00.387140  9137 net.cpp:399] data -> label
I0403 19:21:00.387177  9137 data_transformer.cpp:25] Loading mean file from: /home/mohanty/data/final_dataset/lmdb/color-60-40/mean.binaryproto
I0403 19:21:00.388276  9141 db_lmdb.cpp:38] Opened lmdb /home/mohanty/data/final_dataset/lmdb/color-60-40/test_db
I0403 19:21:00.399930  9137 data_layer.cpp:41] output data size: 24,3,224,224
I0403 19:21:00.426249  9137 net.cpp:141] Setting up data
I0403 19:21:00.426323  9137 net.cpp:148] Top shape: 24 3 224 224 (3612672)
I0403 19:21:00.426347  9137 net.cpp:148] Top shape: 24 (24)
I0403 19:21:00.426362  9137 net.cpp:156] Memory required for data: 14450784
I0403 19:21:00.426391  9137 layer_factory.hpp:77] Creating layer label_data_1_split
I0403 19:21:00.426421  9137 net.cpp:91] Creating Layer label_data_1_split
I0403 19:21:00.426441  9137 net.cpp:425] label_data_1_split <- label
I0403 19:21:00.426481  9137 net.cpp:399] label_data_1_split -> label_data_1_split_0
I0403 19:21:00.426509  9137 net.cpp:399] label_data_1_split -> label_data_1_split_1
I0403 19:21:00.426530  9137 net.cpp:399] label_data_1_split -> label_data_1_split_2
I0403 19:21:00.426551  9137 net.cpp:399] label_data_1_split -> label_data_1_split_3
I0403 19:21:00.426573  9137 net.cpp:399] label_data_1_split -> label_data_1_split_4
I0403 19:21:00.426594  9137 net.cpp:399] label_data_1_split -> label_data_1_split_5
I0403 19:21:00.426614  9137 net.cpp:399] label_data_1_split -> label_data_1_split_6
I0403 19:21:00.426632  9137 net.cpp:399] label_data_1_split -> label_data_1_split_7
I0403 19:21:00.426651  9137 net.cpp:399] label_data_1_split -> label_data_1_split_8
I0403 19:21:00.426671  9137 net.cpp:399] label_data_1_split -> label_data_1_split_9
I0403 19:21:00.426782  9137 net.cpp:141] Setting up label_data_1_split
I0403 19:21:00.426806  9137 net.cpp:148] Top shape: 24 (24)
I0403 19:21:00.426825  9137 net.cpp:148] Top shape: 24 (24)
I0403 19:21:00.426841  9137 net.cpp:148] Top shape: 24 (24)
I0403 19:21:00.426856  9137 net.cpp:148] Top shape: 24 (24)
I0403 19:21:00.426870  9137 net.cpp:148] Top shape: 24 (24)
I0403 19:21:00.426885  9137 net.cpp:148] Top shape: 24 (24)
I0403 19:21:00.426903  9137 net.cpp:148] Top shape: 24 (24)
I0403 19:21:00.426918  9137 net.cpp:148] Top shape: 24 (24)
I0403 19:21:00.426934  9137 net.cpp:148] Top shape: 24 (24)
I0403 19:21:00.426949  9137 net.cpp:148] Top shape: 24 (24)
I0403 19:21:00.426995  9137 net.cpp:156] Memory required for data: 14451744
I0403 19:21:00.427011  9137 layer_factory.hpp:77] Creating layer conv1/7x7_s2
I0403 19:21:00.427045  9137 net.cpp:91] Creating Layer conv1/7x7_s2
I0403 19:21:00.427064  9137 net.cpp:425] conv1/7x7_s2 <- data
I0403 19:21:00.427083  9137 net.cpp:399] conv1/7x7_s2 -> conv1/7x7_s2
I0403 19:21:00.559273  9137 net.cpp:141] Setting up conv1/7x7_s2
I0403 19:21:00.559346  9137 net.cpp:148] Top shape: 24 64 112 112 (19267584)
I0403 19:21:00.559363  9137 net.cpp:156] Memory required for data: 91522080
I0403 19:21:00.559396  9137 layer_factory.hpp:77] Creating layer conv1/relu_7x7
I0403 19:21:00.559425  9137 net.cpp:91] Creating Layer conv1/relu_7x7
I0403 19:21:00.559444  9137 net.cpp:425] conv1/relu_7x7 <- conv1/7x7_s2
I0403 19:21:00.559469  9137 net.cpp:386] conv1/relu_7x7 -> conv1/7x7_s2 (in-place)
I0403 19:21:00.559721  9137 net.cpp:141] Setting up conv1/relu_7x7
I0403 19:21:00.559749  9137 net.cpp:148] Top shape: 24 64 112 112 (19267584)
I0403 19:21:00.559765  9137 net.cpp:156] Memory required for data: 168592416
I0403 19:21:00.559782  9137 layer_factory.hpp:77] Creating layer pool1/3x3_s2
I0403 19:21:00.559808  9137 net.cpp:91] Creating Layer pool1/3x3_s2
I0403 19:21:00.559824  9137 net.cpp:425] pool1/3x3_s2 <- conv1/7x7_s2
I0403 19:21:00.559844  9137 net.cpp:399] pool1/3x3_s2 -> pool1/3x3_s2
I0403 19:21:00.559918  9137 net.cpp:141] Setting up pool1/3x3_s2
I0403 19:21:00.559943  9137 net.cpp:148] Top shape: 24 64 56 56 (4816896)
I0403 19:21:00.559958  9137 net.cpp:156] Memory required for data: 187860000
I0403 19:21:00.559973  9137 layer_factory.hpp:77] Creating layer pool1/norm1
I0403 19:21:00.559999  9137 net.cpp:91] Creating Layer pool1/norm1
I0403 19:21:00.560016  9137 net.cpp:425] pool1/norm1 <- pool1/3x3_s2
I0403 19:21:00.560034  9137 net.cpp:399] pool1/norm1 -> pool1/norm1
I0403 19:21:00.560313  9137 net.cpp:141] Setting up pool1/norm1
I0403 19:21:00.560341  9137 net.cpp:148] Top shape: 24 64 56 56 (4816896)
I0403 19:21:00.560358  9137 net.cpp:156] Memory required for data: 207127584
I0403 19:21:00.560372  9137 layer_factory.hpp:77] Creating layer conv2/3x3_reduce
I0403 19:21:00.560398  9137 net.cpp:91] Creating Layer conv2/3x3_reduce
I0403 19:21:00.560416  9137 net.cpp:425] conv2/3x3_reduce <- pool1/norm1
I0403 19:21:00.560436  9137 net.cpp:399] conv2/3x3_reduce -> conv2/3x3_reduce
I0403 19:21:00.561733  9137 net.cpp:141] Setting up conv2/3x3_reduce
I0403 19:21:00.561763  9137 net.cpp:148] Top shape: 24 64 56 56 (4816896)
I0403 19:21:00.561779  9137 net.cpp:156] Memory required for data: 226395168
I0403 19:21:00.561800  9137 layer_factory.hpp:77] Creating layer conv2/relu_3x3_reduce
I0403 19:21:00.561818  9137 net.cpp:91] Creating Layer conv2/relu_3x3_reduce
I0403 19:21:00.561836  9137 net.cpp:425] conv2/relu_3x3_reduce <- conv2/3x3_reduce
I0403 19:21:00.561852  9137 net.cpp:386] conv2/relu_3x3_reduce -> conv2/3x3_reduce (in-place)
I0403 19:21:00.562116  9137 net.cpp:141] Setting up conv2/relu_3x3_reduce
I0403 19:21:00.562144  9137 net.cpp:148] Top shape: 24 64 56 56 (4816896)
I0403 19:21:00.562160  9137 net.cpp:156] Memory required for data: 245662752
I0403 19:21:00.562175  9137 layer_factory.hpp:77] Creating layer conv2/3x3
I0403 19:21:00.562197  9137 net.cpp:91] Creating Layer conv2/3x3
I0403 19:21:00.562214  9137 net.cpp:425] conv2/3x3 <- conv2/3x3_reduce
I0403 19:21:00.562235  9137 net.cpp:399] conv2/3x3 -> conv2/3x3
I0403 19:21:00.564504  9137 net.cpp:141] Setting up conv2/3x3
I0403 19:21:00.564535  9137 net.cpp:148] Top shape: 24 192 56 56 (14450688)
I0403 19:21:00.564553  9137 net.cpp:156] Memory required for data: 303465504
I0403 19:21:00.564574  9137 layer_factory.hpp:77] Creating layer conv2/relu_3x3
I0403 19:21:00.564594  9137 net.cpp:91] Creating Layer conv2/relu_3x3
I0403 19:21:00.564612  9137 net.cpp:425] conv2/relu_3x3 <- conv2/3x3
I0403 19:21:00.564630  9137 net.cpp:386] conv2/relu_3x3 -> conv2/3x3 (in-place)
I0403 19:21:00.564798  9137 net.cpp:141] Setting up conv2/relu_3x3
I0403 19:21:00.564823  9137 net.cpp:148] Top shape: 24 192 56 56 (14450688)
I0403 19:21:00.564869  9137 net.cpp:156] Memory required for data: 361268256
I0403 19:21:00.564885  9137 layer_factory.hpp:77] Creating layer conv2/norm2
I0403 19:21:00.564909  9137 net.cpp:91] Creating Layer conv2/norm2
I0403 19:21:00.564925  9137 net.cpp:425] conv2/norm2 <- conv2/3x3
I0403 19:21:00.564946  9137 net.cpp:399] conv2/norm2 -> conv2/norm2
I0403 19:21:00.565242  9137 net.cpp:141] Setting up conv2/norm2
I0403 19:21:00.565271  9137 net.cpp:148] Top shape: 24 192 56 56 (14450688)
I0403 19:21:00.565287  9137 net.cpp:156] Memory required for data: 419071008
I0403 19:21:00.565302  9137 layer_factory.hpp:77] Creating layer pool2/3x3_s2
I0403 19:21:00.565321  9137 net.cpp:91] Creating Layer pool2/3x3_s2
I0403 19:21:00.565336  9137 net.cpp:425] pool2/3x3_s2 <- conv2/norm2
I0403 19:21:00.565356  9137 net.cpp:399] pool2/3x3_s2 -> pool2/3x3_s2
I0403 19:21:00.565407  9137 net.cpp:141] Setting up pool2/3x3_s2
I0403 19:21:00.565433  9137 net.cpp:148] Top shape: 24 192 28 28 (3612672)
I0403 19:21:00.565449  9137 net.cpp:156] Memory required for data: 433521696
I0403 19:21:00.565469  9137 layer_factory.hpp:77] Creating layer pool2/3x3_s2_pool2/3x3_s2_0_split
I0403 19:21:00.565487  9137 net.cpp:91] Creating Layer pool2/3x3_s2_pool2/3x3_s2_0_split
I0403 19:21:00.565502  9137 net.cpp:425] pool2/3x3_s2_pool2/3x3_s2_0_split <- pool2/3x3_s2
I0403 19:21:00.565520  9137 net.cpp:399] pool2/3x3_s2_pool2/3x3_s2_0_split -> pool2/3x3_s2_pool2/3x3_s2_0_split_0
I0403 19:21:00.565539  9137 net.cpp:399] pool2/3x3_s2_pool2/3x3_s2_0_split -> pool2/3x3_s2_pool2/3x3_s2_0_split_1
I0403 19:21:00.565562  9137 net.cpp:399] pool2/3x3_s2_pool2/3x3_s2_0_split -> pool2/3x3_s2_pool2/3x3_s2_0_split_2
I0403 19:21:00.565582  9137 net.cpp:399] pool2/3x3_s2_pool2/3x3_s2_0_split -> pool2/3x3_s2_pool2/3x3_s2_0_split_3
I0403 19:21:00.565652  9137 net.cpp:141] Setting up pool2/3x3_s2_pool2/3x3_s2_0_split
I0403 19:21:00.565675  9137 net.cpp:148] Top shape: 24 192 28 28 (3612672)
I0403 19:21:00.565691  9137 net.cpp:148] Top shape: 24 192 28 28 (3612672)
I0403 19:21:00.565707  9137 net.cpp:148] Top shape: 24 192 28 28 (3612672)
I0403 19:21:00.565723  9137 net.cpp:148] Top shape: 24 192 28 28 (3612672)
I0403 19:21:00.565738  9137 net.cpp:156] Memory required for data: 491324448
I0403 19:21:00.565753  9137 layer_factory.hpp:77] Creating layer inception_3a/1x1
I0403 19:21:00.565775  9137 net.cpp:91] Creating Layer inception_3a/1x1
I0403 19:21:00.565793  9137 net.cpp:425] inception_3a/1x1 <- pool2/3x3_s2_pool2/3x3_s2_0_split_0
I0403 19:21:00.565814  9137 net.cpp:399] inception_3a/1x1 -> inception_3a/1x1
I0403 19:21:00.567284  9137 net.cpp:141] Setting up inception_3a/1x1
I0403 19:21:00.567312  9137 net.cpp:148] Top shape: 24 64 28 28 (1204224)
I0403 19:21:00.567328  9137 net.cpp:156] Memory required for data: 496141344
I0403 19:21:00.567347  9137 layer_factory.hpp:77] Creating layer inception_3a/relu_1x1
I0403 19:21:00.567364  9137 net.cpp:91] Creating Layer inception_3a/relu_1x1
I0403 19:21:00.567380  9137 net.cpp:425] inception_3a/relu_1x1 <- inception_3a/1x1
I0403 19:21:00.567399  9137 net.cpp:386] inception_3a/relu_1x1 -> inception_3a/1x1 (in-place)
I0403 19:21:00.567574  9137 net.cpp:141] Setting up inception_3a/relu_1x1
I0403 19:21:00.567598  9137 net.cpp:148] Top shape: 24 64 28 28 (1204224)
I0403 19:21:00.567613  9137 net.cpp:156] Memory required for data: 500958240
I0403 19:21:00.567628  9137 layer_factory.hpp:77] Creating layer inception_3a/3x3_reduce
I0403 19:21:00.567651  9137 net.cpp:91] Creating Layer inception_3a/3x3_reduce
I0403 19:21:00.567669  9137 net.cpp:425] inception_3a/3x3_reduce <- pool2/3x3_s2_pool2/3x3_s2_0_split_1
I0403 19:21:00.567692  9137 net.cpp:399] inception_3a/3x3_reduce -> inception_3a/3x3_reduce
I0403 19:21:00.569309  9137 net.cpp:141] Setting up inception_3a/3x3_reduce
I0403 19:21:00.569339  9137 net.cpp:148] Top shape: 24 96 28 28 (1806336)
I0403 19:21:00.569353  9137 net.cpp:156] Memory required for data: 508183584
I0403 19:21:00.569373  9137 layer_factory.hpp:77] Creating layer inception_3a/relu_3x3_reduce
I0403 19:21:00.569409  9137 net.cpp:91] Creating Layer inception_3a/relu_3x3_reduce
I0403 19:21:00.569427  9137 net.cpp:425] inception_3a/relu_3x3_reduce <- inception_3a/3x3_reduce
I0403 19:21:00.569443  9137 net.cpp:386] inception_3a/relu_3x3_reduce -> inception_3a/3x3_reduce (in-place)
I0403 19:21:00.569618  9137 net.cpp:141] Setting up inception_3a/relu_3x3_reduce
I0403 19:21:00.569645  9137 net.cpp:148] Top shape: 24 96 28 28 (1806336)
I0403 19:21:00.569663  9137 net.cpp:156] Memory required for data: 515408928
I0403 19:21:00.569677  9137 layer_factory.hpp:77] Creating layer inception_3a/3x3
I0403 19:21:00.569702  9137 net.cpp:91] Creating Layer inception_3a/3x3
I0403 19:21:00.569721  9137 net.cpp:425] inception_3a/3x3 <- inception_3a/3x3_reduce
I0403 19:21:00.569741  9137 net.cpp:399] inception_3a/3x3 -> inception_3a/3x3
I0403 19:21:00.571283  9137 net.cpp:141] Setting up inception_3a/3x3
I0403 19:21:00.571310  9137 net.cpp:148] Top shape: 24 128 28 28 (2408448)
I0403 19:21:00.571326  9137 net.cpp:156] Memory required for data: 525042720
I0403 19:21:00.571343  9137 layer_factory.hpp:77] Creating layer inception_3a/relu_3x3
I0403 19:21:00.571363  9137 net.cpp:91] Creating Layer inception_3a/relu_3x3
I0403 19:21:00.571379  9137 net.cpp:425] inception_3a/relu_3x3 <- inception_3a/3x3
I0403 19:21:00.571396  9137 net.cpp:386] inception_3a/relu_3x3 -> inception_3a/3x3 (in-place)
I0403 19:21:00.571657  9137 net.cpp:141] Setting up inception_3a/relu_3x3
I0403 19:21:00.571683  9137 net.cpp:148] Top shape: 24 128 28 28 (2408448)
I0403 19:21:00.571698  9137 net.cpp:156] Memory required for data: 534676512
I0403 19:21:00.571713  9137 layer_factory.hpp:77] Creating layer inception_3a/5x5_reduce
I0403 19:21:00.571735  9137 net.cpp:91] Creating Layer inception_3a/5x5_reduce
I0403 19:21:00.571753  9137 net.cpp:425] inception_3a/5x5_reduce <- pool2/3x3_s2_pool2/3x3_s2_0_split_2
I0403 19:21:00.571774  9137 net.cpp:399] inception_3a/5x5_reduce -> inception_3a/5x5_reduce
I0403 19:21:00.572679  9137 net.cpp:141] Setting up inception_3a/5x5_reduce
I0403 19:21:00.572705  9137 net.cpp:148] Top shape: 24 16 28 28 (301056)
I0403 19:21:00.572721  9137 net.cpp:156] Memory required for data: 535880736
I0403 19:21:00.572738  9137 layer_factory.hpp:77] Creating layer inception_3a/relu_5x5_reduce
I0403 19:21:00.572758  9137 net.cpp:91] Creating Layer inception_3a/relu_5x5_reduce
I0403 19:21:00.572774  9137 net.cpp:425] inception_3a/relu_5x5_reduce <- inception_3a/5x5_reduce
I0403 19:21:00.572793  9137 net.cpp:386] inception_3a/relu_5x5_reduce -> inception_3a/5x5_reduce (in-place)
I0403 19:21:00.573065  9137 net.cpp:141] Setting up inception_3a/relu_5x5_reduce
I0403 19:21:00.573091  9137 net.cpp:148] Top shape: 24 16 28 28 (301056)
I0403 19:21:00.573107  9137 net.cpp:156] Memory required for data: 537084960
I0403 19:21:00.573120  9137 layer_factory.hpp:77] Creating layer inception_3a/5x5
I0403 19:21:00.573146  9137 net.cpp:91] Creating Layer inception_3a/5x5
I0403 19:21:00.573165  9137 net.cpp:425] inception_3a/5x5 <- inception_3a/5x5_reduce
I0403 19:21:00.573186  9137 net.cpp:399] inception_3a/5x5 -> inception_3a/5x5
I0403 19:21:00.574133  9137 net.cpp:141] Setting up inception_3a/5x5
I0403 19:21:00.574161  9137 net.cpp:148] Top shape: 24 32 28 28 (602112)
I0403 19:21:00.574177  9137 net.cpp:156] Memory required for data: 539493408
I0403 19:21:00.574195  9137 layer_factory.hpp:77] Creating layer inception_3a/relu_5x5
I0403 19:21:00.574214  9137 net.cpp:91] Creating Layer inception_3a/relu_5x5
I0403 19:21:00.574230  9137 net.cpp:425] inception_3a/relu_5x5 <- inception_3a/5x5
I0403 19:21:00.574249  9137 net.cpp:386] inception_3a/relu_5x5 -> inception_3a/5x5 (in-place)
I0403 19:21:00.574411  9137 net.cpp:141] Setting up inception_3a/relu_5x5
I0403 19:21:00.574436  9137 net.cpp:148] Top shape: 24 32 28 28 (602112)
I0403 19:21:00.574451  9137 net.cpp:156] Memory required for data: 541901856
I0403 19:21:00.574470  9137 layer_factory.hpp:77] Creating layer inception_3a/pool
I0403 19:21:00.574491  9137 net.cpp:91] Creating Layer inception_3a/pool
I0403 19:21:00.574507  9137 net.cpp:425] inception_3a/pool <- pool2/3x3_s2_pool2/3x3_s2_0_split_3
I0403 19:21:00.574538  9137 net.cpp:399] inception_3a/pool -> inception_3a/pool
I0403 19:21:00.574596  9137 net.cpp:141] Setting up inception_3a/pool
I0403 19:21:00.574620  9137 net.cpp:148] Top shape: 24 192 28 28 (3612672)
I0403 19:21:00.574633  9137 net.cpp:156] Memory required for data: 556352544
I0403 19:21:00.574647  9137 layer_factory.hpp:77] Creating layer inception_3a/pool_proj
I0403 19:21:00.574669  9137 net.cpp:91] Creating Layer inception_3a/pool_proj
I0403 19:21:00.574687  9137 net.cpp:425] inception_3a/pool_proj <- inception_3a/pool
I0403 19:21:00.574709  9137 net.cpp:399] inception_3a/pool_proj -> inception_3a/pool_proj
I0403 19:21:00.575615  9137 net.cpp:141] Setting up inception_3a/pool_proj
I0403 19:21:00.575645  9137 net.cpp:148] Top shape: 24 32 28 28 (602112)
I0403 19:21:00.575662  9137 net.cpp:156] Memory required for data: 558760992
I0403 19:21:00.575683  9137 layer_factory.hpp:77] Creating layer inception_3a/relu_pool_proj
I0403 19:21:00.575703  9137 net.cpp:91] Creating Layer inception_3a/relu_pool_proj
I0403 19:21:00.575721  9137 net.cpp:425] inception_3a/relu_pool_proj <- inception_3a/pool_proj
I0403 19:21:00.575739  9137 net.cpp:386] inception_3a/relu_pool_proj -> inception_3a/pool_proj (in-place)
I0403 19:21:00.575996  9137 net.cpp:141] Setting up inception_3a/relu_pool_proj
I0403 19:21:00.576022  9137 net.cpp:148] Top shape: 24 32 28 28 (602112)
I0403 19:21:00.576036  9137 net.cpp:156] Memory required for data: 561169440
I0403 19:21:00.576050  9137 layer_factory.hpp:77] Creating layer inception_3a/output
I0403 19:21:00.576068  9137 net.cpp:91] Creating Layer inception_3a/output
I0403 19:21:00.576083  9137 net.cpp:425] inception_3a/output <- inception_3a/1x1
I0403 19:21:00.576100  9137 net.cpp:425] inception_3a/output <- inception_3a/3x3
I0403 19:21:00.576117  9137 net.cpp:425] inception_3a/output <- inception_3a/5x5
I0403 19:21:00.576130  9137 net.cpp:425] inception_3a/output <- inception_3a/pool_proj
I0403 19:21:00.576148  9137 net.cpp:399] inception_3a/output -> inception_3a/output
I0403 19:21:00.576198  9137 net.cpp:141] Setting up inception_3a/output
I0403 19:21:00.576221  9137 net.cpp:148] Top shape: 24 256 28 28 (4816896)
I0403 19:21:00.576236  9137 net.cpp:156] Memory required for data: 580437024
I0403 19:21:00.576251  9137 layer_factory.hpp:77] Creating layer inception_3a/output_inception_3a/output_0_split
I0403 19:21:00.576268  9137 net.cpp:91] Creating Layer inception_3a/output_inception_3a/output_0_split
I0403 19:21:00.576282  9137 net.cpp:425] inception_3a/output_inception_3a/output_0_split <- inception_3a/output
I0403 19:21:00.576302  9137 net.cpp:399] inception_3a/output_inception_3a/output_0_split -> inception_3a/output_inception_3a/output_0_split_0
I0403 19:21:00.576323  9137 net.cpp:399] inception_3a/output_inception_3a/output_0_split -> inception_3a/output_inception_3a/output_0_split_1
I0403 19:21:00.576344  9137 net.cpp:399] inception_3a/output_inception_3a/output_0_split -> inception_3a/output_inception_3a/output_0_split_2
I0403 19:21:00.576365  9137 net.cpp:399] inception_3a/output_inception_3a/output_0_split -> inception_3a/output_inception_3a/output_0_split_3
I0403 19:21:00.576439  9137 net.cpp:141] Setting up inception_3a/output_inception_3a/output_0_split
I0403 19:21:00.576465  9137 net.cpp:148] Top shape: 24 256 28 28 (4816896)
I0403 19:21:00.576483  9137 net.cpp:148] Top shape: 24 256 28 28 (4816896)
I0403 19:21:00.576499  9137 net.cpp:148] Top shape: 24 256 28 28 (4816896)
I0403 19:21:00.576514  9137 net.cpp:148] Top shape: 24 256 28 28 (4816896)
I0403 19:21:00.576529  9137 net.cpp:156] Memory required for data: 657507360
I0403 19:21:00.576544  9137 layer_factory.hpp:77] Creating layer inception_3b/1x1
I0403 19:21:00.576565  9137 net.cpp:91] Creating Layer inception_3b/1x1
I0403 19:21:00.576581  9137 net.cpp:425] inception_3b/1x1 <- inception_3a/output_inception_3a/output_0_split_0
I0403 19:21:00.576602  9137 net.cpp:399] inception_3b/1x1 -> inception_3b/1x1
I0403 19:21:00.577661  9137 net.cpp:141] Setting up inception_3b/1x1
I0403 19:21:00.577702  9137 net.cpp:148] Top shape: 24 128 28 28 (2408448)
I0403 19:21:00.577718  9137 net.cpp:156] Memory required for data: 667141152
I0403 19:21:00.577738  9137 layer_factory.hpp:77] Creating layer inception_3b/relu_1x1
I0403 19:21:00.577754  9137 net.cpp:91] Creating Layer inception_3b/relu_1x1
I0403 19:21:00.577770  9137 net.cpp:425] inception_3b/relu_1x1 <- inception_3b/1x1
I0403 19:21:00.577790  9137 net.cpp:386] inception_3b/relu_1x1 -> inception_3b/1x1 (in-place)
I0403 19:21:00.577955  9137 net.cpp:141] Setting up inception_3b/relu_1x1
I0403 19:21:00.577978  9137 net.cpp:148] Top shape: 24 128 28 28 (2408448)
I0403 19:21:00.577994  9137 net.cpp:156] Memory required for data: 676774944
I0403 19:21:00.578009  9137 layer_factory.hpp:77] Creating layer inception_3b/3x3_reduce
I0403 19:21:00.578030  9137 net.cpp:91] Creating Layer inception_3b/3x3_reduce
I0403 19:21:00.578047  9137 net.cpp:425] inception_3b/3x3_reduce <- inception_3a/output_inception_3a/output_0_split_1
I0403 19:21:00.578068  9137 net.cpp:399] inception_3b/3x3_reduce -> inception_3b/3x3_reduce
I0403 19:21:00.579170  9137 net.cpp:141] Setting up inception_3b/3x3_reduce
I0403 19:21:00.579200  9137 net.cpp:148] Top shape: 24 128 28 28 (2408448)
I0403 19:21:00.579216  9137 net.cpp:156] Memory required for data: 686408736
I0403 19:21:00.579236  9137 layer_factory.hpp:77] Creating layer inception_3b/relu_3x3_reduce
I0403 19:21:00.579252  9137 net.cpp:91] Creating Layer inception_3b/relu_3x3_reduce
I0403 19:21:00.579267  9137 net.cpp:425] inception_3b/relu_3x3_reduce <- inception_3b/3x3_reduce
I0403 19:21:00.579288  9137 net.cpp:386] inception_3b/relu_3x3_reduce -> inception_3b/3x3_reduce (in-place)
I0403 19:21:00.579453  9137 net.cpp:141] Setting up inception_3b/relu_3x3_reduce
I0403 19:21:00.579481  9137 net.cpp:148] Top shape: 24 128 28 28 (2408448)
I0403 19:21:00.579496  9137 net.cpp:156] Memory required for data: 696042528
I0403 19:21:00.579511  9137 layer_factory.hpp:77] Creating layer inception_3b/3x3
I0403 19:21:00.579540  9137 net.cpp:91] Creating Layer inception_3b/3x3
I0403 19:21:00.579572  9137 net.cpp:425] inception_3b/3x3 <- inception_3b/3x3_reduce
I0403 19:21:00.579591  9137 net.cpp:399] inception_3b/3x3 -> inception_3b/3x3
I0403 19:21:00.582388  9137 net.cpp:141] Setting up inception_3b/3x3
I0403 19:21:00.582418  9137 net.cpp:148] Top shape: 24 192 28 28 (3612672)
I0403 19:21:00.582435  9137 net.cpp:156] Memory required for data: 710493216
I0403 19:21:00.582453  9137 layer_factory.hpp:77] Creating layer inception_3b/relu_3x3
I0403 19:21:00.582484  9137 net.cpp:91] Creating Layer inception_3b/relu_3x3
I0403 19:21:00.582504  9137 net.cpp:425] inception_3b/relu_3x3 <- inception_3b/3x3
I0403 19:21:00.582523  9137 net.cpp:386] inception_3b/relu_3x3 -> inception_3b/3x3 (in-place)
I0403 19:21:00.582795  9137 net.cpp:141] Setting up inception_3b/relu_3x3
I0403 19:21:00.582821  9137 net.cpp:148] Top shape: 24 192 28 28 (3612672)
I0403 19:21:00.582837  9137 net.cpp:156] Memory required for data: 724943904
I0403 19:21:00.582852  9137 layer_factory.hpp:77] Creating layer inception_3b/5x5_reduce
I0403 19:21:00.582875  9137 net.cpp:91] Creating Layer inception_3b/5x5_reduce
I0403 19:21:00.582895  9137 net.cpp:425] inception_3b/5x5_reduce <- inception_3a/output_inception_3a/output_0_split_2
I0403 19:21:00.582916  9137 net.cpp:399] inception_3b/5x5_reduce -> inception_3b/5x5_reduce
I0403 19:21:00.583879  9137 net.cpp:141] Setting up inception_3b/5x5_reduce
I0403 19:21:00.583907  9137 net.cpp:148] Top shape: 24 32 28 28 (602112)
I0403 19:21:00.583923  9137 net.cpp:156] Memory required for data: 727352352
I0403 19:21:00.583941  9137 layer_factory.hpp:77] Creating layer inception_3b/relu_5x5_reduce
I0403 19:21:00.583959  9137 net.cpp:91] Creating Layer inception_3b/relu_5x5_reduce
I0403 19:21:00.583977  9137 net.cpp:425] inception_3b/relu_5x5_reduce <- inception_3b/5x5_reduce
I0403 19:21:00.583997  9137 net.cpp:386] inception_3b/relu_5x5_reduce -> inception_3b/5x5_reduce (in-place)
I0403 19:21:00.584168  9137 net.cpp:141] Setting up inception_3b/relu_5x5_reduce
I0403 19:21:00.584205  9137 net.cpp:148] Top shape: 24 32 28 28 (602112)
I0403 19:21:00.584221  9137 net.cpp:156] Memory required for data: 729760800
I0403 19:21:00.584236  9137 layer_factory.hpp:77] Creating layer inception_3b/5x5
I0403 19:21:00.584259  9137 net.cpp:91] Creating Layer inception_3b/5x5
I0403 19:21:00.584278  9137 net.cpp:425] inception_3b/5x5 <- inception_3b/5x5_reduce
I0403 19:21:00.584300  9137 net.cpp:399] inception_3b/5x5 -> inception_3b/5x5
I0403 19:21:00.586227  9137 net.cpp:141] Setting up inception_3b/5x5
I0403 19:21:00.586256  9137 net.cpp:148] Top shape: 24 96 28 28 (1806336)
I0403 19:21:00.586272  9137 net.cpp:156] Memory required for data: 736986144
I0403 19:21:00.586290  9137 layer_factory.hpp:77] Creating layer inception_3b/relu_5x5
I0403 19:21:00.586308  9137 net.cpp:91] Creating Layer inception_3b/relu_5x5
I0403 19:21:00.586325  9137 net.cpp:425] inception_3b/relu_5x5 <- inception_3b/5x5
I0403 19:21:00.586345  9137 net.cpp:386] inception_3b/relu_5x5 -> inception_3b/5x5 (in-place)
I0403 19:21:00.586535  9137 net.cpp:141] Setting up inception_3b/relu_5x5
I0403 19:21:00.586561  9137 net.cpp:148] Top shape: 24 96 28 28 (1806336)
I0403 19:21:00.586576  9137 net.cpp:156] Memory required for data: 744211488
I0403 19:21:00.586591  9137 layer_factory.hpp:77] Creating layer inception_3b/pool
I0403 19:21:00.586609  9137 net.cpp:91] Creating Layer inception_3b/pool
I0403 19:21:00.586627  9137 net.cpp:425] inception_3b/pool <- inception_3a/output_inception_3a/output_0_split_3
I0403 19:21:00.586645  9137 net.cpp:399] inception_3b/pool -> inception_3b/pool
I0403 19:21:00.586702  9137 net.cpp:141] Setting up inception_3b/pool
I0403 19:21:00.586725  9137 net.cpp:148] Top shape: 24 256 28 28 (4816896)
I0403 19:21:00.586740  9137 net.cpp:156] Memory required for data: 763479072
I0403 19:21:00.586755  9137 layer_factory.hpp:77] Creating layer inception_3b/pool_proj
I0403 19:21:00.586777  9137 net.cpp:91] Creating Layer inception_3b/pool_proj
I0403 19:21:00.586794  9137 net.cpp:425] inception_3b/pool_proj <- inception_3b/pool
I0403 19:21:00.586815  9137 net.cpp:399] inception_3b/pool_proj -> inception_3b/pool_proj
I0403 19:21:00.587831  9137 net.cpp:141] Setting up inception_3b/pool_proj
I0403 19:21:00.587860  9137 net.cpp:148] Top shape: 24 64 28 28 (1204224)
I0403 19:21:00.587877  9137 net.cpp:156] Memory required for data: 768295968
I0403 19:21:00.587896  9137 layer_factory.hpp:77] Creating layer inception_3b/relu_pool_proj
I0403 19:21:00.587914  9137 net.cpp:91] Creating Layer inception_3b/relu_pool_proj
I0403 19:21:00.587931  9137 net.cpp:425] inception_3b/relu_pool_proj <- inception_3b/pool_proj
I0403 19:21:00.587947  9137 net.cpp:386] inception_3b/relu_pool_proj -> inception_3b/pool_proj (in-place)
I0403 19:21:00.588322  9137 net.cpp:141] Setting up inception_3b/relu_pool_proj
I0403 19:21:00.588349  9137 net.cpp:148] Top shape: 24 64 28 28 (1204224)
I0403 19:21:00.588366  9137 net.cpp:156] Memory required for data: 773112864
I0403 19:21:00.588382  9137 layer_factory.hpp:77] Creating layer inception_3b/output
I0403 19:21:00.588400  9137 net.cpp:91] Creating Layer inception_3b/output
I0403 19:21:00.588416  9137 net.cpp:425] inception_3b/output <- inception_3b/1x1
I0403 19:21:00.588433  9137 net.cpp:425] inception_3b/output <- inception_3b/3x3
I0403 19:21:00.588449  9137 net.cpp:425] inception_3b/output <- inception_3b/5x5
I0403 19:21:00.588471  9137 net.cpp:425] inception_3b/output <- inception_3b/pool_proj
I0403 19:21:00.588490  9137 net.cpp:399] inception_3b/output -> inception_3b/output
I0403 19:21:00.588536  9137 net.cpp:141] Setting up inception_3b/output
I0403 19:21:00.588558  9137 net.cpp:148] Top shape: 24 480 28 28 (9031680)
I0403 19:21:00.588573  9137 net.cpp:156] Memory required for data: 809239584
I0403 19:21:00.588587  9137 layer_factory.hpp:77] Creating layer pool3/3x3_s2
I0403 19:21:00.588605  9137 net.cpp:91] Creating Layer pool3/3x3_s2
I0403 19:21:00.588621  9137 net.cpp:425] pool3/3x3_s2 <- inception_3b/output
I0403 19:21:00.588641  9137 net.cpp:399] pool3/3x3_s2 -> pool3/3x3_s2
I0403 19:21:00.588711  9137 net.cpp:141] Setting up pool3/3x3_s2
I0403 19:21:00.588735  9137 net.cpp:148] Top shape: 24 480 14 14 (2257920)
I0403 19:21:00.588750  9137 net.cpp:156] Memory required for data: 818271264
I0403 19:21:00.588765  9137 layer_factory.hpp:77] Creating layer pool3/3x3_s2_pool3/3x3_s2_0_split
I0403 19:21:00.588784  9137 net.cpp:91] Creating Layer pool3/3x3_s2_pool3/3x3_s2_0_split
I0403 19:21:00.588799  9137 net.cpp:425] pool3/3x3_s2_pool3/3x3_s2_0_split <- pool3/3x3_s2
I0403 19:21:00.588819  9137 net.cpp:399] pool3/3x3_s2_pool3/3x3_s2_0_split -> pool3/3x3_s2_pool3/3x3_s2_0_split_0
I0403 19:21:00.588840  9137 net.cpp:399] pool3/3x3_s2_pool3/3x3_s2_0_split -> pool3/3x3_s2_pool3/3x3_s2_0_split_1
I0403 19:21:00.588860  9137 net.cpp:399] pool3/3x3_s2_pool3/3x3_s2_0_split -> pool3/3x3_s2_pool3/3x3_s2_0_split_2
I0403 19:21:00.588879  9137 net.cpp:399] pool3/3x3_s2_pool3/3x3_s2_0_split -> pool3/3x3_s2_pool3/3x3_s2_0_split_3
I0403 19:21:00.588953  9137 net.cpp:141] Setting up pool3/3x3_s2_pool3/3x3_s2_0_split
I0403 19:21:00.588975  9137 net.cpp:148] Top shape: 24 480 14 14 (2257920)
I0403 19:21:00.588994  9137 net.cpp:148] Top shape: 24 480 14 14 (2257920)
I0403 19:21:00.589010  9137 net.cpp:148] Top shape: 24 480 14 14 (2257920)
I0403 19:21:00.589025  9137 net.cpp:148] Top shape: 24 480 14 14 (2257920)
I0403 19:21:00.589040  9137 net.cpp:156] Memory required for data: 854397984
I0403 19:21:00.589056  9137 layer_factory.hpp:77] Creating layer inception_4a/1x1
I0403 19:21:00.589074  9137 net.cpp:91] Creating Layer inception_4a/1x1
I0403 19:21:00.589090  9137 net.cpp:425] inception_4a/1x1 <- pool3/3x3_s2_pool3/3x3_s2_0_split_0
I0403 19:21:00.589112  9137 net.cpp:399] inception_4a/1x1 -> inception_4a/1x1
I0403 19:21:00.590626  9137 net.cpp:141] Setting up inception_4a/1x1
I0403 19:21:00.590656  9137 net.cpp:148] Top shape: 24 192 14 14 (903168)
I0403 19:21:00.590672  9137 net.cpp:156] Memory required for data: 858010656
I0403 19:21:00.590692  9137 layer_factory.hpp:77] Creating layer inception_4a/relu_1x1
I0403 19:21:00.590711  9137 net.cpp:91] Creating Layer inception_4a/relu_1x1
I0403 19:21:00.590728  9137 net.cpp:425] inception_4a/relu_1x1 <- inception_4a/1x1
I0403 19:21:00.590744  9137 net.cpp:386] inception_4a/relu_1x1 -> inception_4a/1x1 (in-place)
I0403 19:21:00.590917  9137 net.cpp:141] Setting up inception_4a/relu_1x1
I0403 19:21:00.590942  9137 net.cpp:148] Top shape: 24 192 14 14 (903168)
I0403 19:21:00.590957  9137 net.cpp:156] Memory required for data: 861623328
I0403 19:21:00.590973  9137 layer_factory.hpp:77] Creating layer inception_4a/3x3_reduce
I0403 19:21:00.590996  9137 net.cpp:91] Creating Layer inception_4a/3x3_reduce
I0403 19:21:00.591013  9137 net.cpp:425] inception_4a/3x3_reduce <- pool3/3x3_s2_pool3/3x3_s2_0_split_1
I0403 19:21:00.591035  9137 net.cpp:399] inception_4a/3x3_reduce -> inception_4a/3x3_reduce
I0403 19:21:00.592257  9137 net.cpp:141] Setting up inception_4a/3x3_reduce
I0403 19:21:00.592286  9137 net.cpp:148] Top shape: 24 96 14 14 (451584)
I0403 19:21:00.592303  9137 net.cpp:156] Memory required for data: 863429664
I0403 19:21:00.592329  9137 layer_factory.hpp:77] Creating layer inception_4a/relu_3x3_reduce
I0403 19:21:00.592349  9137 net.cpp:91] Creating Layer inception_4a/relu_3x3_reduce
I0403 19:21:00.592365  9137 net.cpp:425] inception_4a/relu_3x3_reduce <- inception_4a/3x3_reduce
I0403 19:21:00.592381  9137 net.cpp:386] inception_4a/relu_3x3_reduce -> inception_4a/3x3_reduce (in-place)
I0403 19:21:00.592567  9137 net.cpp:141] Setting up inception_4a/relu_3x3_reduce
I0403 19:21:00.592595  9137 net.cpp:148] Top shape: 24 96 14 14 (451584)
I0403 19:21:00.592612  9137 net.cpp:156] Memory required for data: 865236000
I0403 19:21:00.592627  9137 layer_factory.hpp:77] Creating layer inception_4a/3x3
I0403 19:21:00.592648  9137 net.cpp:91] Creating Layer inception_4a/3x3
I0403 19:21:00.592666  9137 net.cpp:425] inception_4a/3x3 <- inception_4a/3x3_reduce
I0403 19:21:00.592685  9137 net.cpp:399] inception_4a/3x3 -> inception_4a/3x3
I0403 19:21:00.595270  9137 net.cpp:141] Setting up inception_4a/3x3
I0403 19:21:00.595300  9137 net.cpp:148] Top shape: 24 208 14 14 (978432)
I0403 19:21:00.595317  9137 net.cpp:156] Memory required for data: 869149728
I0403 19:21:00.595346  9137 layer_factory.hpp:77] Creating layer inception_4a/relu_3x3
I0403 19:21:00.595365  9137 net.cpp:91] Creating Layer inception_4a/relu_3x3
I0403 19:21:00.595381  9137 net.cpp:425] inception_4a/relu_3x3 <- inception_4a/3x3
I0403 19:21:00.595401  9137 net.cpp:386] inception_4a/relu_3x3 -> inception_4a/3x3 (in-place)
I0403 19:21:00.595676  9137 net.cpp:141] Setting up inception_4a/relu_3x3
I0403 19:21:00.595703  9137 net.cpp:148] Top shape: 24 208 14 14 (978432)
I0403 19:21:00.595720  9137 net.cpp:156] Memory required for data: 873063456
I0403 19:21:00.595734  9137 layer_factory.hpp:77] Creating layer inception_4a/5x5_reduce
I0403 19:21:00.595757  9137 net.cpp:91] Creating Layer inception_4a/5x5_reduce
I0403 19:21:00.595775  9137 net.cpp:425] inception_4a/5x5_reduce <- pool3/3x3_s2_pool3/3x3_s2_0_split_2
I0403 19:21:00.595806  9137 net.cpp:399] inception_4a/5x5_reduce -> inception_4a/5x5_reduce
I0403 19:21:00.596801  9137 net.cpp:141] Setting up inception_4a/5x5_reduce
I0403 19:21:00.596827  9137 net.cpp:148] Top shape: 24 16 14 14 (75264)
I0403 19:21:00.596843  9137 net.cpp:156] Memory required for data: 873364512
I0403 19:21:00.596860  9137 layer_factory.hpp:77] Creating layer inception_4a/relu_5x5_reduce
I0403 19:21:00.596879  9137 net.cpp:91] Creating Layer inception_4a/relu_5x5_reduce
I0403 19:21:00.596894  9137 net.cpp:425] inception_4a/relu_5x5_reduce <- inception_4a/5x5_reduce
I0403 19:21:00.596914  9137 net.cpp:386] inception_4a/relu_5x5_reduce -> inception_4a/5x5_reduce (in-place)
I0403 19:21:00.597084  9137 net.cpp:141] Setting up inception_4a/relu_5x5_reduce
I0403 19:21:00.597108  9137 net.cpp:148] Top shape: 24 16 14 14 (75264)
I0403 19:21:00.597123  9137 net.cpp:156] Memory required for data: 873665568
I0403 19:21:00.597137  9137 layer_factory.hpp:77] Creating layer inception_4a/5x5
I0403 19:21:00.597159  9137 net.cpp:91] Creating Layer inception_4a/5x5
I0403 19:21:00.597177  9137 net.cpp:425] inception_4a/5x5 <- inception_4a/5x5_reduce
I0403 19:21:00.597199  9137 net.cpp:399] inception_4a/5x5 -> inception_4a/5x5
I0403 19:21:00.598227  9137 net.cpp:141] Setting up inception_4a/5x5
I0403 19:21:00.598253  9137 net.cpp:148] Top shape: 24 48 14 14 (225792)
I0403 19:21:00.598268  9137 net.cpp:156] Memory required for data: 874568736
I0403 19:21:00.598285  9137 layer_factory.hpp:77] Creating layer inception_4a/relu_5x5
I0403 19:21:00.598305  9137 net.cpp:91] Creating Layer inception_4a/relu_5x5
I0403 19:21:00.598323  9137 net.cpp:425] inception_4a/relu_5x5 <- inception_4a/5x5
I0403 19:21:00.598341  9137 net.cpp:386] inception_4a/relu_5x5 -> inception_4a/5x5 (in-place)
I0403 19:21:00.598511  9137 net.cpp:141] Setting up inception_4a/relu_5x5
I0403 19:21:00.598539  9137 net.cpp:148] Top shape: 24 48 14 14 (225792)
I0403 19:21:00.598554  9137 net.cpp:156] Memory required for data: 875471904
I0403 19:21:00.598569  9137 layer_factory.hpp:77] Creating layer inception_4a/pool
I0403 19:21:00.598587  9137 net.cpp:91] Creating Layer inception_4a/pool
I0403 19:21:00.598603  9137 net.cpp:425] inception_4a/pool <- pool3/3x3_s2_pool3/3x3_s2_0_split_3
I0403 19:21:00.598621  9137 net.cpp:399] inception_4a/pool -> inception_4a/pool
I0403 19:21:00.598678  9137 net.cpp:141] Setting up inception_4a/pool
I0403 19:21:00.598701  9137 net.cpp:148] Top shape: 24 480 14 14 (2257920)
I0403 19:21:00.598716  9137 net.cpp:156] Memory required for data: 884503584
I0403 19:21:00.598731  9137 layer_factory.hpp:77] Creating layer inception_4a/pool_proj
I0403 19:21:00.598754  9137 net.cpp:91] Creating Layer inception_4a/pool_proj
I0403 19:21:00.598772  9137 net.cpp:425] inception_4a/pool_proj <- inception_4a/pool
I0403 19:21:00.598789  9137 net.cpp:399] inception_4a/pool_proj -> inception_4a/pool_proj
I0403 19:21:00.599881  9137 net.cpp:141] Setting up inception_4a/pool_proj
I0403 19:21:00.599910  9137 net.cpp:148] Top shape: 24 64 14 14 (301056)
I0403 19:21:00.599938  9137 net.cpp:156] Memory required for data: 885707808
I0403 19:21:00.599959  9137 layer_factory.hpp:77] Creating layer inception_4a/relu_pool_proj
I0403 19:21:00.599979  9137 net.cpp:91] Creating Layer inception_4a/relu_pool_proj
I0403 19:21:00.599997  9137 net.cpp:425] inception_4a/relu_pool_proj <- inception_4a/pool_proj
I0403 19:21:00.600013  9137 net.cpp:386] inception_4a/relu_pool_proj -> inception_4a/pool_proj (in-place)
I0403 19:21:00.600293  9137 net.cpp:141] Setting up inception_4a/relu_pool_proj
I0403 19:21:00.600319  9137 net.cpp:148] Top shape: 24 64 14 14 (301056)
I0403 19:21:00.600334  9137 net.cpp:156] Memory required for data: 886912032
I0403 19:21:00.600349  9137 layer_factory.hpp:77] Creating layer inception_4a/output
I0403 19:21:00.600368  9137 net.cpp:91] Creating Layer inception_4a/output
I0403 19:21:00.600384  9137 net.cpp:425] inception_4a/output <- inception_4a/1x1
I0403 19:21:00.600401  9137 net.cpp:425] inception_4a/output <- inception_4a/3x3
I0403 19:21:00.600417  9137 net.cpp:425] inception_4a/output <- inception_4a/5x5
I0403 19:21:00.600433  9137 net.cpp:425] inception_4a/output <- inception_4a/pool_proj
I0403 19:21:00.600450  9137 net.cpp:399] inception_4a/output -> inception_4a/output
I0403 19:21:00.600509  9137 net.cpp:141] Setting up inception_4a/output
I0403 19:21:00.600533  9137 net.cpp:148] Top shape: 24 512 14 14 (2408448)
I0403 19:21:00.600548  9137 net.cpp:156] Memory required for data: 896545824
I0403 19:21:00.600563  9137 layer_factory.hpp:77] Creating layer inception_4a/output_inception_4a/output_0_split
I0403 19:21:00.600579  9137 net.cpp:91] Creating Layer inception_4a/output_inception_4a/output_0_split
I0403 19:21:00.600595  9137 net.cpp:425] inception_4a/output_inception_4a/output_0_split <- inception_4a/output
I0403 19:21:00.600616  9137 net.cpp:399] inception_4a/output_inception_4a/output_0_split -> inception_4a/output_inception_4a/output_0_split_0
I0403 19:21:00.600637  9137 net.cpp:399] inception_4a/output_inception_4a/output_0_split -> inception_4a/output_inception_4a/output_0_split_1
I0403 19:21:00.600657  9137 net.cpp:399] inception_4a/output_inception_4a/output_0_split -> inception_4a/output_inception_4a/output_0_split_2
I0403 19:21:00.600680  9137 net.cpp:399] inception_4a/output_inception_4a/output_0_split -> inception_4a/output_inception_4a/output_0_split_3
I0403 19:21:00.600700  9137 net.cpp:399] inception_4a/output_inception_4a/output_0_split -> inception_4a/output_inception_4a/output_0_split_4
I0403 19:21:00.600791  9137 net.cpp:141] Setting up inception_4a/output_inception_4a/output_0_split
I0403 19:21:00.600816  9137 net.cpp:148] Top shape: 24 512 14 14 (2408448)
I0403 19:21:00.600831  9137 net.cpp:148] Top shape: 24 512 14 14 (2408448)
I0403 19:21:00.600847  9137 net.cpp:148] Top shape: 24 512 14 14 (2408448)
I0403 19:21:00.600862  9137 net.cpp:148] Top shape: 24 512 14 14 (2408448)
I0403 19:21:00.600878  9137 net.cpp:148] Top shape: 24 512 14 14 (2408448)
I0403 19:21:00.600893  9137 net.cpp:156] Memory required for data: 944714784
I0403 19:21:00.600908  9137 layer_factory.hpp:77] Creating layer loss1/ave_pool
I0403 19:21:00.600924  9137 net.cpp:91] Creating Layer loss1/ave_pool
I0403 19:21:00.600939  9137 net.cpp:425] loss1/ave_pool <- inception_4a/output_inception_4a/output_0_split_0
I0403 19:21:00.600958  9137 net.cpp:399] loss1/ave_pool -> loss1/ave_pool
I0403 19:21:00.601155  9137 net.cpp:141] Setting up loss1/ave_pool
I0403 19:21:00.601182  9137 net.cpp:148] Top shape: 24 512 4 4 (196608)
I0403 19:21:00.601200  9137 net.cpp:156] Memory required for data: 945501216
I0403 19:21:00.601215  9137 layer_factory.hpp:77] Creating layer loss1/conv
I0403 19:21:00.601236  9137 net.cpp:91] Creating Layer loss1/conv
I0403 19:21:00.601253  9137 net.cpp:425] loss1/conv <- loss1/ave_pool
I0403 19:21:00.601272  9137 net.cpp:399] loss1/conv -> loss1/conv
I0403 19:21:00.602599  9137 net.cpp:141] Setting up loss1/conv
I0403 19:21:00.602627  9137 net.cpp:148] Top shape: 24 128 4 4 (49152)
I0403 19:21:00.602643  9137 net.cpp:156] Memory required for data: 945697824
I0403 19:21:00.602676  9137 layer_factory.hpp:77] Creating layer loss1/relu_conv
I0403 19:21:00.602695  9137 net.cpp:91] Creating Layer loss1/relu_conv
I0403 19:21:00.602710  9137 net.cpp:425] loss1/relu_conv <- loss1/conv
I0403 19:21:00.602730  9137 net.cpp:386] loss1/relu_conv -> loss1/conv (in-place)
I0403 19:21:00.602996  9137 net.cpp:141] Setting up loss1/relu_conv
I0403 19:21:00.603023  9137 net.cpp:148] Top shape: 24 128 4 4 (49152)
I0403 19:21:00.603039  9137 net.cpp:156] Memory required for data: 945894432
I0403 19:21:00.603055  9137 layer_factory.hpp:77] Creating layer loss1/fc
I0403 19:21:00.603078  9137 net.cpp:91] Creating Layer loss1/fc
I0403 19:21:00.603094  9137 net.cpp:425] loss1/fc <- loss1/conv
I0403 19:21:00.603114  9137 net.cpp:399] loss1/fc -> loss1/fc
I0403 19:21:00.619866  9137 net.cpp:141] Setting up loss1/fc
I0403 19:21:00.619896  9137 net.cpp:148] Top shape: 24 1024 (24576)
I0403 19:21:00.619912  9137 net.cpp:156] Memory required for data: 945992736
I0403 19:21:00.619931  9137 layer_factory.hpp:77] Creating layer loss1/relu_fc
I0403 19:21:00.619948  9137 net.cpp:91] Creating Layer loss1/relu_fc
I0403 19:21:00.619964  9137 net.cpp:425] loss1/relu_fc <- loss1/fc
I0403 19:21:00.619982  9137 net.cpp:386] loss1/relu_fc -> loss1/fc (in-place)
I0403 19:21:00.620159  9137 net.cpp:141] Setting up loss1/relu_fc
I0403 19:21:00.620185  9137 net.cpp:148] Top shape: 24 1024 (24576)
I0403 19:21:00.620200  9137 net.cpp:156] Memory required for data: 946091040
I0403 19:21:00.620215  9137 layer_factory.hpp:77] Creating layer loss1/drop_fc
I0403 19:21:00.620240  9137 net.cpp:91] Creating Layer loss1/drop_fc
I0403 19:21:00.620256  9137 net.cpp:425] loss1/drop_fc <- loss1/fc
I0403 19:21:00.620276  9137 net.cpp:386] loss1/drop_fc -> loss1/fc (in-place)
I0403 19:21:00.620326  9137 net.cpp:141] Setting up loss1/drop_fc
I0403 19:21:00.620348  9137 net.cpp:148] Top shape: 24 1024 (24576)
I0403 19:21:00.620363  9137 net.cpp:156] Memory required for data: 946189344
I0403 19:21:00.620378  9137 layer_factory.hpp:77] Creating layer loss1/classifier_plantvillage
I0403 19:21:00.620399  9137 net.cpp:91] Creating Layer loss1/classifier_plantvillage
I0403 19:21:00.620417  9137 net.cpp:425] loss1/classifier_plantvillage <- loss1/fc
I0403 19:21:00.620435  9137 net.cpp:399] loss1/classifier_plantvillage -> loss1/classifier_plantvillage
I0403 19:21:00.621301  9137 net.cpp:141] Setting up loss1/classifier_plantvillage
I0403 19:21:00.621330  9137 net.cpp:148] Top shape: 24 38 (912)
I0403 19:21:00.621346  9137 net.cpp:156] Memory required for data: 946192992
I0403 19:21:00.621364  9137 layer_factory.hpp:77] Creating layer loss1/classifier_plantvillage_loss1/classifier_plantvillage_0_split
I0403 19:21:00.621381  9137 net.cpp:91] Creating Layer loss1/classifier_plantvillage_loss1/classifier_plantvillage_0_split
I0403 19:21:00.621397  9137 net.cpp:425] loss1/classifier_plantvillage_loss1/classifier_plantvillage_0_split <- loss1/classifier_plantvillage
I0403 19:21:00.621415  9137 net.cpp:399] loss1/classifier_plantvillage_loss1/classifier_plantvillage_0_split -> loss1/classifier_plantvillage_loss1/classifier_plantvillage_0_split_0
I0403 19:21:00.621438  9137 net.cpp:399] loss1/classifier_plantvillage_loss1/classifier_plantvillage_0_split -> loss1/classifier_plantvillage_loss1/classifier_plantvillage_0_split_1
I0403 19:21:00.621464  9137 net.cpp:399] loss1/classifier_plantvillage_loss1/classifier_plantvillage_0_split -> loss1/classifier_plantvillage_loss1/classifier_plantvillage_0_split_2
I0403 19:21:00.621529  9137 net.cpp:141] Setting up loss1/classifier_plantvillage_loss1/classifier_plantvillage_0_split
I0403 19:21:00.621552  9137 net.cpp:148] Top shape: 24 38 (912)
I0403 19:21:00.621568  9137 net.cpp:148] Top shape: 24 38 (912)
I0403 19:21:00.621582  9137 net.cpp:148] Top shape: 24 38 (912)
I0403 19:21:00.621595  9137 net.cpp:156] Memory required for data: 946203936
I0403 19:21:00.621610  9137 layer_factory.hpp:77] Creating layer inception_4b/1x1
I0403 19:21:00.621629  9137 net.cpp:91] Creating Layer inception_4b/1x1
I0403 19:21:00.621659  9137 net.cpp:425] inception_4b/1x1 <- inception_4a/output_inception_4a/output_0_split_1
I0403 19:21:00.621681  9137 net.cpp:399] inception_4b/1x1 -> inception_4b/1x1
I0403 19:21:00.623227  9137 net.cpp:141] Setting up inception_4b/1x1
I0403 19:21:00.623255  9137 net.cpp:148] Top shape: 24 160 14 14 (752640)
I0403 19:21:00.623271  9137 net.cpp:156] Memory required for data: 949214496
I0403 19:21:00.623291  9137 layer_factory.hpp:77] Creating layer inception_4b/relu_1x1
I0403 19:21:00.623308  9137 net.cpp:91] Creating Layer inception_4b/relu_1x1
I0403 19:21:00.623325  9137 net.cpp:425] inception_4b/relu_1x1 <- inception_4b/1x1
I0403 19:21:00.623344  9137 net.cpp:386] inception_4b/relu_1x1 -> inception_4b/1x1 (in-place)
I0403 19:21:00.623522  9137 net.cpp:141] Setting up inception_4b/relu_1x1
I0403 19:21:00.623548  9137 net.cpp:148] Top shape: 24 160 14 14 (752640)
I0403 19:21:00.623564  9137 net.cpp:156] Memory required for data: 952225056
I0403 19:21:00.623579  9137 layer_factory.hpp:77] Creating layer inception_4b/3x3_reduce
I0403 19:21:00.623600  9137 net.cpp:91] Creating Layer inception_4b/3x3_reduce
I0403 19:21:00.623620  9137 net.cpp:425] inception_4b/3x3_reduce <- inception_4a/output_inception_4a/output_0_split_2
I0403 19:21:00.623639  9137 net.cpp:399] inception_4b/3x3_reduce -> inception_4b/3x3_reduce
I0403 19:21:00.624963  9137 net.cpp:141] Setting up inception_4b/3x3_reduce
I0403 19:21:00.624990  9137 net.cpp:148] Top shape: 24 112 14 14 (526848)
I0403 19:21:00.625006  9137 net.cpp:156] Memory required for data: 954332448
I0403 19:21:00.625025  9137 layer_factory.hpp:77] Creating layer inception_4b/relu_3x3_reduce
I0403 19:21:00.625046  9137 net.cpp:91] Creating Layer inception_4b/relu_3x3_reduce
I0403 19:21:00.625064  9137 net.cpp:425] inception_4b/relu_3x3_reduce <- inception_4b/3x3_reduce
I0403 19:21:00.625083  9137 net.cpp:386] inception_4b/relu_3x3_reduce -> inception_4b/3x3_reduce (in-place)
I0403 19:21:00.625357  9137 net.cpp:141] Setting up inception_4b/relu_3x3_reduce
I0403 19:21:00.625383  9137 net.cpp:148] Top shape: 24 112 14 14 (526848)
I0403 19:21:00.625399  9137 net.cpp:156] Memory required for data: 956439840
I0403 19:21:00.625416  9137 layer_factory.hpp:77] Creating layer inception_4b/3x3
I0403 19:21:00.625437  9137 net.cpp:91] Creating Layer inception_4b/3x3
I0403 19:21:00.625455  9137 net.cpp:425] inception_4b/3x3 <- inception_4b/3x3_reduce
I0403 19:21:00.625483  9137 net.cpp:399] inception_4b/3x3 -> inception_4b/3x3
I0403 19:21:00.628377  9137 net.cpp:141] Setting up inception_4b/3x3
I0403 19:21:00.628408  9137 net.cpp:148] Top shape: 24 224 14 14 (1053696)
I0403 19:21:00.628427  9137 net.cpp:156] Memory required for data: 960654624
I0403 19:21:00.628444  9137 layer_factory.hpp:77] Creating layer inception_4b/relu_3x3
I0403 19:21:00.628465  9137 net.cpp:91] Creating Layer inception_4b/relu_3x3
I0403 19:21:00.628484  9137 net.cpp:425] inception_4b/relu_3x3 <- inception_4b/3x3
I0403 19:21:00.628502  9137 net.cpp:386] inception_4b/relu_3x3 -> inception_4b/3x3 (in-place)
I0403 19:21:00.628682  9137 net.cpp:141] Setting up inception_4b/relu_3x3
I0403 19:21:00.628707  9137 net.cpp:148] Top shape: 24 224 14 14 (1053696)
I0403 19:21:00.628723  9137 net.cpp:156] Memory required for data: 964869408
I0403 19:21:00.628737  9137 layer_factory.hpp:77] Creating layer inception_4b/5x5_reduce
I0403 19:21:00.628762  9137 net.cpp:91] Creating Layer inception_4b/5x5_reduce
I0403 19:21:00.628779  9137 net.cpp:425] inception_4b/5x5_reduce <- inception_4a/output_inception_4a/output_0_split_3
I0403 19:21:00.628801  9137 net.cpp:399] inception_4b/5x5_reduce -> inception_4b/5x5_reduce
I0403 19:21:00.629858  9137 net.cpp:141] Setting up inception_4b/5x5_reduce
I0403 19:21:00.629886  9137 net.cpp:148] Top shape: 24 24 14 14 (112896)
I0403 19:21:00.629904  9137 net.cpp:156] Memory required for data: 965320992
I0403 19:21:00.629921  9137 layer_factory.hpp:77] Creating layer inception_4b/relu_5x5_reduce
I0403 19:21:00.629943  9137 net.cpp:91] Creating Layer inception_4b/relu_5x5_reduce
I0403 19:21:00.630000  9137 net.cpp:425] inception_4b/relu_5x5_reduce <- inception_4b/5x5_reduce
I0403 19:21:00.630046  9137 net.cpp:386] inception_4b/relu_5x5_reduce -> inception_4b/5x5_reduce (in-place)
I0403 19:21:00.630247  9137 net.cpp:141] Setting up inception_4b/relu_5x5_reduce
I0403 19:21:00.630275  9137 net.cpp:148] Top shape: 24 24 14 14 (112896)
I0403 19:21:00.630290  9137 net.cpp:156] Memory required for data: 965772576
I0403 19:21:00.630305  9137 layer_factory.hpp:77] Creating layer inception_4b/5x5
I0403 19:21:00.630328  9137 net.cpp:91] Creating Layer inception_4b/5x5
I0403 19:21:00.630347  9137 net.cpp:425] inception_4b/5x5 <- inception_4b/5x5_reduce
I0403 19:21:00.630367  9137 net.cpp:399] inception_4b/5x5 -> inception_4b/5x5
I0403 19:21:00.631575  9137 net.cpp:141] Setting up inception_4b/5x5
I0403 19:21:00.631603  9137 net.cpp:148] Top shape: 24 64 14 14 (301056)
I0403 19:21:00.631620  9137 net.cpp:156] Memory required for data: 966976800
I0403 19:21:00.631639  9137 layer_factory.hpp:77] Creating layer inception_4b/relu_5x5
I0403 19:21:00.631656  9137 net.cpp:91] Creating Layer inception_4b/relu_5x5
I0403 19:21:00.631672  9137 net.cpp:425] inception_4b/relu_5x5 <- inception_4b/5x5
I0403 19:21:00.631692  9137 net.cpp:386] inception_4b/relu_5x5 -> inception_4b/5x5 (in-place)
I0403 19:21:00.631975  9137 net.cpp:141] Setting up inception_4b/relu_5x5
I0403 19:21:00.632004  9137 net.cpp:148] Top shape: 24 64 14 14 (301056)
I0403 19:21:00.632019  9137 net.cpp:156] Memory required for data: 968181024
I0403 19:21:00.632035  9137 layer_factory.hpp:77] Creating layer inception_4b/pool
I0403 19:21:00.632052  9137 net.cpp:91] Creating Layer inception_4b/pool
I0403 19:21:00.632069  9137 net.cpp:425] inception_4b/pool <- inception_4a/output_inception_4a/output_0_split_4
I0403 19:21:00.632107  9137 net.cpp:399] inception_4b/pool -> inception_4b/pool
I0403 19:21:00.632174  9137 net.cpp:141] Setting up inception_4b/pool
I0403 19:21:00.632212  9137 net.cpp:148] Top shape: 24 512 14 14 (2408448)
I0403 19:21:00.632230  9137 net.cpp:156] Memory required for data: 977814816
I0403 19:21:00.632243  9137 layer_factory.hpp:77] Creating layer inception_4b/pool_proj
I0403 19:21:00.632266  9137 net.cpp:91] Creating Layer inception_4b/pool_proj
I0403 19:21:00.632284  9137 net.cpp:425] inception_4b/pool_proj <- inception_4b/pool
I0403 19:21:00.632303  9137 net.cpp:399] inception_4b/pool_proj -> inception_4b/pool_proj
I0403 19:21:00.633481  9137 net.cpp:141] Setting up inception_4b/pool_proj
I0403 19:21:00.633512  9137 net.cpp:148] Top shape: 24 64 14 14 (301056)
I0403 19:21:00.633527  9137 net.cpp:156] Memory required for data: 979019040
I0403 19:21:00.633545  9137 layer_factory.hpp:77] Creating layer inception_4b/relu_pool_proj
I0403 19:21:00.633566  9137 net.cpp:91] Creating Layer inception_4b/relu_pool_proj
I0403 19:21:00.633584  9137 net.cpp:425] inception_4b/relu_pool_proj <- inception_4b/pool_proj
I0403 19:21:00.633602  9137 net.cpp:386] inception_4b/relu_pool_proj -> inception_4b/pool_proj (in-place)
I0403 19:21:00.633777  9137 net.cpp:141] Setting up inception_4b/relu_pool_proj
I0403 19:21:00.633805  9137 net.cpp:148] Top shape: 24 64 14 14 (301056)
I0403 19:21:00.633821  9137 net.cpp:156] Memory required for data: 980223264
I0403 19:21:00.633836  9137 layer_factory.hpp:77] Creating layer inception_4b/output
I0403 19:21:00.633854  9137 net.cpp:91] Creating Layer inception_4b/output
I0403 19:21:00.633870  9137 net.cpp:425] inception_4b/output <- inception_4b/1x1
I0403 19:21:00.633888  9137 net.cpp:425] inception_4b/output <- inception_4b/3x3
I0403 19:21:00.633903  9137 net.cpp:425] inception_4b/output <- inception_4b/5x5
I0403 19:21:00.633919  9137 net.cpp:425] inception_4b/output <- inception_4b/pool_proj
I0403 19:21:00.633935  9137 net.cpp:399] inception_4b/output -> inception_4b/output
I0403 19:21:00.633980  9137 net.cpp:141] Setting up inception_4b/output
I0403 19:21:00.634004  9137 net.cpp:148] Top shape: 24 512 14 14 (2408448)
I0403 19:21:00.634021  9137 net.cpp:156] Memory required for data: 989857056
I0403 19:21:00.634048  9137 layer_factory.hpp:77] Creating layer inception_4b/output_inception_4b/output_0_split
I0403 19:21:00.634068  9137 net.cpp:91] Creating Layer inception_4b/output_inception_4b/output_0_split
I0403 19:21:00.634083  9137 net.cpp:425] inception_4b/output_inception_4b/output_0_split <- inception_4b/output
I0403 19:21:00.634104  9137 net.cpp:399] inception_4b/output_inception_4b/output_0_split -> inception_4b/output_inception_4b/output_0_split_0
I0403 19:21:00.634125  9137 net.cpp:399] inception_4b/output_inception_4b/output_0_split -> inception_4b/output_inception_4b/output_0_split_1
I0403 19:21:00.634145  9137 net.cpp:399] inception_4b/output_inception_4b/output_0_split -> inception_4b/output_inception_4b/output_0_split_2
I0403 19:21:00.634167  9137 net.cpp:399] inception_4b/output_inception_4b/output_0_split -> inception_4b/output_inception_4b/output_0_split_3
I0403 19:21:00.634253  9137 net.cpp:141] Setting up inception_4b/output_inception_4b/output_0_split
I0403 19:21:00.634277  9137 net.cpp:148] Top shape: 24 512 14 14 (2408448)
I0403 19:21:00.634294  9137 net.cpp:148] Top shape: 24 512 14 14 (2408448)
I0403 19:21:00.634310  9137 net.cpp:148] Top shape: 24 512 14 14 (2408448)
I0403 19:21:00.634327  9137 net.cpp:148] Top shape: 24 512 14 14 (2408448)
I0403 19:21:00.634341  9137 net.cpp:156] Memory required for data: 1028392224
I0403 19:21:00.634356  9137 layer_factory.hpp:77] Creating layer inception_4c/1x1
I0403 19:21:00.634377  9137 net.cpp:91] Creating Layer inception_4c/1x1
I0403 19:21:00.634394  9137 net.cpp:425] inception_4c/1x1 <- inception_4b/output_inception_4b/output_0_split_0
I0403 19:21:00.634416  9137 net.cpp:399] inception_4c/1x1 -> inception_4c/1x1
I0403 19:21:00.635813  9137 net.cpp:141] Setting up inception_4c/1x1
I0403 19:21:00.635845  9137 net.cpp:148] Top shape: 24 128 14 14 (602112)
I0403 19:21:00.635862  9137 net.cpp:156] Memory required for data: 1030800672
I0403 19:21:00.635881  9137 layer_factory.hpp:77] Creating layer inception_4c/relu_1x1
I0403 19:21:00.635901  9137 net.cpp:91] Creating Layer inception_4c/relu_1x1
I0403 19:21:00.635918  9137 net.cpp:425] inception_4c/relu_1x1 <- inception_4c/1x1
I0403 19:21:00.635936  9137 net.cpp:386] inception_4c/relu_1x1 -> inception_4c/1x1 (in-place)
I0403 19:21:00.636111  9137 net.cpp:141] Setting up inception_4c/relu_1x1
I0403 19:21:00.636139  9137 net.cpp:148] Top shape: 24 128 14 14 (602112)
I0403 19:21:00.636154  9137 net.cpp:156] Memory required for data: 1033209120
I0403 19:21:00.636170  9137 layer_factory.hpp:77] Creating layer inception_4c/3x3_reduce
I0403 19:21:00.636194  9137 net.cpp:91] Creating Layer inception_4c/3x3_reduce
I0403 19:21:00.636212  9137 net.cpp:425] inception_4c/3x3_reduce <- inception_4b/output_inception_4b/output_0_split_1
I0403 19:21:00.636234  9137 net.cpp:399] inception_4c/3x3_reduce -> inception_4c/3x3_reduce
I0403 19:21:00.638115  9137 net.cpp:141] Setting up inception_4c/3x3_reduce
I0403 19:21:00.638144  9137 net.cpp:148] Top shape: 24 128 14 14 (602112)
I0403 19:21:00.638159  9137 net.cpp:156] Memory required for data: 1035617568
I0403 19:21:00.638177  9137 layer_factory.hpp:77] Creating layer inception_4c/relu_3x3_reduce
I0403 19:21:00.638195  9137 net.cpp:91] Creating Layer inception_4c/relu_3x3_reduce
I0403 19:21:00.638216  9137 net.cpp:425] inception_4c/relu_3x3_reduce <- inception_4c/3x3_reduce
I0403 19:21:00.638233  9137 net.cpp:386] inception_4c/relu_3x3_reduce -> inception_4c/3x3_reduce (in-place)
I0403 19:21:00.638520  9137 net.cpp:141] Setting up inception_4c/relu_3x3_reduce
I0403 19:21:00.638546  9137 net.cpp:148] Top shape: 24 128 14 14 (602112)
I0403 19:21:00.638562  9137 net.cpp:156] Memory required for data: 1038026016
I0403 19:21:00.638581  9137 layer_factory.hpp:77] Creating layer inception_4c/3x3
I0403 19:21:00.638604  9137 net.cpp:91] Creating Layer inception_4c/3x3
I0403 19:21:00.638623  9137 net.cpp:425] inception_4c/3x3 <- inception_4c/3x3_reduce
I0403 19:21:00.638646  9137 net.cpp:399] inception_4c/3x3 -> inception_4c/3x3
I0403 19:21:00.642132  9137 net.cpp:141] Setting up inception_4c/3x3
I0403 19:21:00.642173  9137 net.cpp:148] Top shape: 24 256 14 14 (1204224)
I0403 19:21:00.642191  9137 net.cpp:156] Memory required for data: 1042842912
I0403 19:21:00.642235  9137 layer_factory.hpp:77] Creating layer inception_4c/relu_3x3
I0403 19:21:00.642254  9137 net.cpp:91] Creating Layer inception_4c/relu_3x3
I0403 19:21:00.642271  9137 net.cpp:425] inception_4c/relu_3x3 <- inception_4c/3x3
I0403 19:21:00.642292  9137 net.cpp:386] inception_4c/relu_3x3 -> inception_4c/3x3 (in-place)
I0403 19:21:00.642475  9137 net.cpp:141] Setting up inception_4c/relu_3x3
I0403 19:21:00.642501  9137 net.cpp:148] Top shape: 24 256 14 14 (1204224)
I0403 19:21:00.642526  9137 net.cpp:156] Memory required for data: 1047659808
I0403 19:21:00.642541  9137 layer_factory.hpp:77] Creating layer inception_4c/5x5_reduce
I0403 19:21:00.642563  9137 net.cpp:91] Creating Layer inception_4c/5x5_reduce
I0403 19:21:00.642581  9137 net.cpp:425] inception_4c/5x5_reduce <- inception_4b/output_inception_4b/output_0_split_2
I0403 19:21:00.642602  9137 net.cpp:399] inception_4c/5x5_reduce -> inception_4c/5x5_reduce
I0403 19:21:00.643649  9137 net.cpp:141] Setting up inception_4c/5x5_reduce
I0403 19:21:00.643677  9137 net.cpp:148] Top shape: 24 24 14 14 (112896)
I0403 19:21:00.643692  9137 net.cpp:156] Memory required for data: 1048111392
I0403 19:21:00.643712  9137 layer_factory.hpp:77] Creating layer inception_4c/relu_5x5_reduce
I0403 19:21:00.643731  9137 net.cpp:91] Creating Layer inception_4c/relu_5x5_reduce
I0403 19:21:00.643748  9137 net.cpp:425] inception_4c/relu_5x5_reduce <- inception_4c/5x5_reduce
I0403 19:21:00.643776  9137 net.cpp:386] inception_4c/relu_5x5_reduce -> inception_4c/5x5_reduce (in-place)
I0403 19:21:00.643954  9137 net.cpp:141] Setting up inception_4c/relu_5x5_reduce
I0403 19:21:00.643978  9137 net.cpp:148] Top shape: 24 24 14 14 (112896)
I0403 19:21:00.643995  9137 net.cpp:156] Memory required for data: 1048562976
I0403 19:21:00.644008  9137 layer_factory.hpp:77] Creating layer inception_4c/5x5
I0403 19:21:00.644032  9137 net.cpp:91] Creating Layer inception_4c/5x5
I0403 19:21:00.644049  9137 net.cpp:425] inception_4c/5x5 <- inception_4c/5x5_reduce
I0403 19:21:00.644069  9137 net.cpp:399] inception_4c/5x5 -> inception_4c/5x5
I0403 19:21:00.645254  9137 net.cpp:141] Setting up inception_4c/5x5
I0403 19:21:00.645282  9137 net.cpp:148] Top shape: 24 64 14 14 (301056)
I0403 19:21:00.645300  9137 net.cpp:156] Memory required for data: 1049767200
I0403 19:21:00.645318  9137 layer_factory.hpp:77] Creating layer inception_4c/relu_5x5
I0403 19:21:00.645335  9137 net.cpp:91] Creating Layer inception_4c/relu_5x5
I0403 19:21:00.645352  9137 net.cpp:425] inception_4c/relu_5x5 <- inception_4c/5x5
I0403 19:21:00.645369  9137 net.cpp:386] inception_4c/relu_5x5 -> inception_4c/5x5 (in-place)
I0403 19:21:00.645649  9137 net.cpp:141] Setting up inception_4c/relu_5x5
I0403 19:21:00.645675  9137 net.cpp:148] Top shape: 24 64 14 14 (301056)
I0403 19:21:00.645694  9137 net.cpp:156] Memory required for data: 1050971424
I0403 19:21:00.645709  9137 layer_factory.hpp:77] Creating layer inception_4c/pool
I0403 19:21:00.645725  9137 net.cpp:91] Creating Layer inception_4c/pool
I0403 19:21:00.645741  9137 net.cpp:425] inception_4c/pool <- inception_4b/output_inception_4b/output_0_split_3
I0403 19:21:00.645761  9137 net.cpp:399] inception_4c/pool -> inception_4c/pool
I0403 19:21:00.645823  9137 net.cpp:141] Setting up inception_4c/pool
I0403 19:21:00.645848  9137 net.cpp:148] Top shape: 24 512 14 14 (2408448)
I0403 19:21:00.645862  9137 net.cpp:156] Memory required for data: 1060605216
I0403 19:21:00.645876  9137 layer_factory.hpp:77] Creating layer inception_4c/pool_proj
I0403 19:21:00.645898  9137 net.cpp:91] Creating Layer inception_4c/pool_proj
I0403 19:21:00.645916  9137 net.cpp:425] inception_4c/pool_proj <- inception_4c/pool
I0403 19:21:00.645937  9137 net.cpp:399] inception_4c/pool_proj -> inception_4c/pool_proj
I0403 19:21:00.647102  9137 net.cpp:141] Setting up inception_4c/pool_proj
I0403 19:21:00.647130  9137 net.cpp:148] Top shape: 24 64 14 14 (301056)
I0403 19:21:00.647157  9137 net.cpp:156] Memory required for data: 1061809440
I0403 19:21:00.647176  9137 layer_factory.hpp:77] Creating layer inception_4c/relu_pool_proj
I0403 19:21:00.647197  9137 net.cpp:91] Creating Layer inception_4c/relu_pool_proj
I0403 19:21:00.647213  9137 net.cpp:425] inception_4c/relu_pool_proj <- inception_4c/pool_proj
I0403 19:21:00.647234  9137 net.cpp:386] inception_4c/relu_pool_proj -> inception_4c/pool_proj (in-place)
I0403 19:21:00.647408  9137 net.cpp:141] Setting up inception_4c/relu_pool_proj
I0403 19:21:00.647433  9137 net.cpp:148] Top shape: 24 64 14 14 (301056)
I0403 19:21:00.647447  9137 net.cpp:156] Memory required for data: 1063013664
I0403 19:21:00.647465  9137 layer_factory.hpp:77] Creating layer inception_4c/output
I0403 19:21:00.647485  9137 net.cpp:91] Creating Layer inception_4c/output
I0403 19:21:00.647503  9137 net.cpp:425] inception_4c/output <- inception_4c/1x1
I0403 19:21:00.647519  9137 net.cpp:425] inception_4c/output <- inception_4c/3x3
I0403 19:21:00.647536  9137 net.cpp:425] inception_4c/output <- inception_4c/5x5
I0403 19:21:00.647549  9137 net.cpp:425] inception_4c/output <- inception_4c/pool_proj
I0403 19:21:00.647567  9137 net.cpp:399] inception_4c/output -> inception_4c/output
I0403 19:21:00.647611  9137 net.cpp:141] Setting up inception_4c/output
I0403 19:21:00.647634  9137 net.cpp:148] Top shape: 24 512 14 14 (2408448)
I0403 19:21:00.647650  9137 net.cpp:156] Memory required for data: 1072647456
I0403 19:21:00.647665  9137 layer_factory.hpp:77] Creating layer inception_4c/output_inception_4c/output_0_split
I0403 19:21:00.647681  9137 net.cpp:91] Creating Layer inception_4c/output_inception_4c/output_0_split
I0403 19:21:00.647696  9137 net.cpp:425] inception_4c/output_inception_4c/output_0_split <- inception_4c/output
I0403 19:21:00.647714  9137 net.cpp:399] inception_4c/output_inception_4c/output_0_split -> inception_4c/output_inception_4c/output_0_split_0
I0403 19:21:00.647735  9137 net.cpp:399] inception_4c/output_inception_4c/output_0_split -> inception_4c/output_inception_4c/output_0_split_1
I0403 19:21:00.647756  9137 net.cpp:399] inception_4c/output_inception_4c/output_0_split -> inception_4c/output_inception_4c/output_0_split_2
I0403 19:21:00.647775  9137 net.cpp:399] inception_4c/output_inception_4c/output_0_split -> inception_4c/output_inception_4c/output_0_split_3
I0403 19:21:00.647855  9137 net.cpp:141] Setting up inception_4c/output_inception_4c/output_0_split
I0403 19:21:00.647878  9137 net.cpp:148] Top shape: 24 512 14 14 (2408448)
I0403 19:21:00.647894  9137 net.cpp:148] Top shape: 24 512 14 14 (2408448)
I0403 19:21:00.647910  9137 net.cpp:148] Top shape: 24 512 14 14 (2408448)
I0403 19:21:00.647927  9137 net.cpp:148] Top shape: 24 512 14 14 (2408448)
I0403 19:21:00.647939  9137 net.cpp:156] Memory required for data: 1111182624
I0403 19:21:00.647953  9137 layer_factory.hpp:77] Creating layer inception_4d/1x1
I0403 19:21:00.647974  9137 net.cpp:91] Creating Layer inception_4d/1x1
I0403 19:21:00.647994  9137 net.cpp:425] inception_4d/1x1 <- inception_4c/output_inception_4c/output_0_split_0
I0403 19:21:00.648013  9137 net.cpp:399] inception_4d/1x1 -> inception_4d/1x1
I0403 19:21:00.649317  9137 net.cpp:141] Setting up inception_4d/1x1
I0403 19:21:00.649346  9137 net.cpp:148] Top shape: 24 112 14 14 (526848)
I0403 19:21:00.649363  9137 net.cpp:156] Memory required for data: 1113290016
I0403 19:21:00.649380  9137 layer_factory.hpp:77] Creating layer inception_4d/relu_1x1
I0403 19:21:00.649397  9137 net.cpp:91] Creating Layer inception_4d/relu_1x1
I0403 19:21:00.649413  9137 net.cpp:425] inception_4d/relu_1x1 <- inception_4d/1x1
I0403 19:21:00.649432  9137 net.cpp:386] inception_4d/relu_1x1 -> inception_4d/1x1 (in-place)
I0403 19:21:00.649616  9137 net.cpp:141] Setting up inception_4d/relu_1x1
I0403 19:21:00.649641  9137 net.cpp:148] Top shape: 24 112 14 14 (526848)
I0403 19:21:00.649657  9137 net.cpp:156] Memory required for data: 1115397408
I0403 19:21:00.649670  9137 layer_factory.hpp:77] Creating layer inception_4d/3x3_reduce
I0403 19:21:00.649705  9137 net.cpp:91] Creating Layer inception_4d/3x3_reduce
I0403 19:21:00.649724  9137 net.cpp:425] inception_4d/3x3_reduce <- inception_4c/output_inception_4c/output_0_split_1
I0403 19:21:00.649744  9137 net.cpp:399] inception_4d/3x3_reduce -> inception_4d/3x3_reduce
I0403 19:21:00.651190  9137 net.cpp:141] Setting up inception_4d/3x3_reduce
I0403 19:21:00.651218  9137 net.cpp:148] Top shape: 24 144 14 14 (677376)
I0403 19:21:00.651235  9137 net.cpp:156] Memory required for data: 1118106912
I0403 19:21:00.651253  9137 layer_factory.hpp:77] Creating layer inception_4d/relu_3x3_reduce
I0403 19:21:00.651274  9137 net.cpp:91] Creating Layer inception_4d/relu_3x3_reduce
I0403 19:21:00.651293  9137 net.cpp:425] inception_4d/relu_3x3_reduce <- inception_4d/3x3_reduce
I0403 19:21:00.651322  9137 net.cpp:386] inception_4d/relu_3x3_reduce -> inception_4d/3x3_reduce (in-place)
I0403 19:21:00.651603  9137 net.cpp:141] Setting up inception_4d/relu_3x3_reduce
I0403 19:21:00.651629  9137 net.cpp:148] Top shape: 24 144 14 14 (677376)
I0403 19:21:00.651645  9137 net.cpp:156] Memory required for data: 1120816416
I0403 19:21:00.651660  9137 layer_factory.hpp:77] Creating layer inception_4d/3x3
I0403 19:21:00.651682  9137 net.cpp:91] Creating Layer inception_4d/3x3
I0403 19:21:00.651700  9137 net.cpp:425] inception_4d/3x3 <- inception_4d/3x3_reduce
I0403 19:21:00.651720  9137 net.cpp:399] inception_4d/3x3 -> inception_4d/3x3
I0403 19:21:00.655740  9137 net.cpp:141] Setting up inception_4d/3x3
I0403 19:21:00.655771  9137 net.cpp:148] Top shape: 24 288 14 14 (1354752)
I0403 19:21:00.655787  9137 net.cpp:156] Memory required for data: 1126235424
I0403 19:21:00.655805  9137 layer_factory.hpp:77] Creating layer inception_4d/relu_3x3
I0403 19:21:00.655823  9137 net.cpp:91] Creating Layer inception_4d/relu_3x3
I0403 19:21:00.655840  9137 net.cpp:425] inception_4d/relu_3x3 <- inception_4d/3x3
I0403 19:21:00.655861  9137 net.cpp:386] inception_4d/relu_3x3 -> inception_4d/3x3 (in-place)
I0403 19:21:00.656035  9137 net.cpp:141] Setting up inception_4d/relu_3x3
I0403 19:21:00.656061  9137 net.cpp:148] Top shape: 24 288 14 14 (1354752)
I0403 19:21:00.656076  9137 net.cpp:156] Memory required for data: 1131654432
I0403 19:21:00.656092  9137 layer_factory.hpp:77] Creating layer inception_4d/5x5_reduce
I0403 19:21:00.656114  9137 net.cpp:91] Creating Layer inception_4d/5x5_reduce
I0403 19:21:00.656132  9137 net.cpp:425] inception_4d/5x5_reduce <- inception_4c/output_inception_4c/output_0_split_2
I0403 19:21:00.656153  9137 net.cpp:399] inception_4d/5x5_reduce -> inception_4d/5x5_reduce
I0403 19:21:00.657241  9137 net.cpp:141] Setting up inception_4d/5x5_reduce
I0403 19:21:00.657269  9137 net.cpp:148] Top shape: 24 32 14 14 (150528)
I0403 19:21:00.657285  9137 net.cpp:156] Memory required for data: 1132256544
I0403 19:21:00.657304  9137 layer_factory.hpp:77] Creating layer inception_4d/relu_5x5_reduce
I0403 19:21:00.657320  9137 net.cpp:91] Creating Layer inception_4d/relu_5x5_reduce
I0403 19:21:00.657337  9137 net.cpp:425] inception_4d/relu_5x5_reduce <- inception_4d/5x5_reduce
I0403 19:21:00.657357  9137 net.cpp:386] inception_4d/relu_5x5_reduce -> inception_4d/5x5_reduce (in-place)
I0403 19:21:00.657541  9137 net.cpp:141] Setting up inception_4d/relu_5x5_reduce
I0403 19:21:00.657565  9137 net.cpp:148] Top shape: 24 32 14 14 (150528)
I0403 19:21:00.657580  9137 net.cpp:156] Memory required for data: 1132858656
I0403 19:21:00.657595  9137 layer_factory.hpp:77] Creating layer inception_4d/5x5
I0403 19:21:00.657618  9137 net.cpp:91] Creating Layer inception_4d/5x5
I0403 19:21:00.657635  9137 net.cpp:425] inception_4d/5x5 <- inception_4d/5x5_reduce
I0403 19:21:00.657656  9137 net.cpp:399] inception_4d/5x5 -> inception_4d/5x5
I0403 19:21:00.659132  9137 net.cpp:141] Setting up inception_4d/5x5
I0403 19:21:00.659160  9137 net.cpp:148] Top shape: 24 64 14 14 (301056)
I0403 19:21:00.659176  9137 net.cpp:156] Memory required for data: 1134062880
I0403 19:21:00.659196  9137 layer_factory.hpp:77] Creating layer inception_4d/relu_5x5
I0403 19:21:00.659231  9137 net.cpp:91] Creating Layer inception_4d/relu_5x5
I0403 19:21:00.659250  9137 net.cpp:425] inception_4d/relu_5x5 <- inception_4d/5x5
I0403 19:21:00.659267  9137 net.cpp:386] inception_4d/relu_5x5 -> inception_4d/5x5 (in-place)
I0403 19:21:00.659570  9137 net.cpp:141] Setting up inception_4d/relu_5x5
I0403 19:21:00.659597  9137 net.cpp:148] Top shape: 24 64 14 14 (301056)
I0403 19:21:00.659613  9137 net.cpp:156] Memory required for data: 1135267104
I0403 19:21:00.659628  9137 layer_factory.hpp:77] Creating layer inception_4d/pool
I0403 19:21:00.659649  9137 net.cpp:91] Creating Layer inception_4d/pool
I0403 19:21:00.659667  9137 net.cpp:425] inception_4d/pool <- inception_4c/output_inception_4c/output_0_split_3
I0403 19:21:00.659687  9137 net.cpp:399] inception_4d/pool -> inception_4d/pool
I0403 19:21:00.659752  9137 net.cpp:141] Setting up inception_4d/pool
I0403 19:21:00.659776  9137 net.cpp:148] Top shape: 24 512 14 14 (2408448)
I0403 19:21:00.659792  9137 net.cpp:156] Memory required for data: 1144900896
I0403 19:21:00.659807  9137 layer_factory.hpp:77] Creating layer inception_4d/pool_proj
I0403 19:21:00.659829  9137 net.cpp:91] Creating Layer inception_4d/pool_proj
I0403 19:21:00.659847  9137 net.cpp:425] inception_4d/pool_proj <- inception_4d/pool
I0403 19:21:00.659884  9137 net.cpp:399] inception_4d/pool_proj -> inception_4d/pool_proj
I0403 19:21:00.661618  9137 net.cpp:141] Setting up inception_4d/pool_proj
I0403 19:21:00.661650  9137 net.cpp:148] Top shape: 24 64 14 14 (301056)
I0403 19:21:00.661667  9137 net.cpp:156] Memory required for data: 1146105120
I0403 19:21:00.661686  9137 layer_factory.hpp:77] Creating layer inception_4d/relu_pool_proj
I0403 19:21:00.661705  9137 net.cpp:91] Creating Layer inception_4d/relu_pool_proj
I0403 19:21:00.661721  9137 net.cpp:425] inception_4d/relu_pool_proj <- inception_4d/pool_proj
I0403 19:21:00.661741  9137 net.cpp:386] inception_4d/relu_pool_proj -> inception_4d/pool_proj (in-place)
I0403 19:21:00.661922  9137 net.cpp:141] Setting up inception_4d/relu_pool_proj
I0403 19:21:00.661948  9137 net.cpp:148] Top shape: 24 64 14 14 (301056)
I0403 19:21:00.661963  9137 net.cpp:156] Memory required for data: 1147309344
I0403 19:21:00.661978  9137 layer_factory.hpp:77] Creating layer inception_4d/output
I0403 19:21:00.661995  9137 net.cpp:91] Creating Layer inception_4d/output
I0403 19:21:00.662011  9137 net.cpp:425] inception_4d/output <- inception_4d/1x1
I0403 19:21:00.662029  9137 net.cpp:425] inception_4d/output <- inception_4d/3x3
I0403 19:21:00.662045  9137 net.cpp:425] inception_4d/output <- inception_4d/5x5
I0403 19:21:00.662060  9137 net.cpp:425] inception_4d/output <- inception_4d/pool_proj
I0403 19:21:00.662078  9137 net.cpp:399] inception_4d/output -> inception_4d/output
I0403 19:21:00.662127  9137 net.cpp:141] Setting up inception_4d/output
I0403 19:21:00.662150  9137 net.cpp:148] Top shape: 24 528 14 14 (2483712)
I0403 19:21:00.662166  9137 net.cpp:156] Memory required for data: 1157244192
I0403 19:21:00.662183  9137 layer_factory.hpp:77] Creating layer inception_4d/output_inception_4d/output_0_split
I0403 19:21:00.662201  9137 net.cpp:91] Creating Layer inception_4d/output_inception_4d/output_0_split
I0403 19:21:00.662217  9137 net.cpp:425] inception_4d/output_inception_4d/output_0_split <- inception_4d/output
I0403 19:21:00.662240  9137 net.cpp:399] inception_4d/output_inception_4d/output_0_split -> inception_4d/output_inception_4d/output_0_split_0
I0403 19:21:00.662262  9137 net.cpp:399] inception_4d/output_inception_4d/output_0_split -> inception_4d/output_inception_4d/output_0_split_1
I0403 19:21:00.662283  9137 net.cpp:399] inception_4d/output_inception_4d/output_0_split -> inception_4d/output_inception_4d/output_0_split_2
I0403 19:21:00.662307  9137 net.cpp:399] inception_4d/output_inception_4d/output_0_split -> inception_4d/output_inception_4d/output_0_split_3
I0403 19:21:00.662328  9137 net.cpp:399] inception_4d/output_inception_4d/output_0_split -> inception_4d/output_inception_4d/output_0_split_4
I0403 19:21:00.662425  9137 net.cpp:141] Setting up inception_4d/output_inception_4d/output_0_split
I0403 19:21:00.662472  9137 net.cpp:148] Top shape: 24 528 14 14 (2483712)
I0403 19:21:00.662494  9137 net.cpp:148] Top shape: 24 528 14 14 (2483712)
I0403 19:21:00.662511  9137 net.cpp:148] Top shape: 24 528 14 14 (2483712)
I0403 19:21:00.662528  9137 net.cpp:148] Top shape: 24 528 14 14 (2483712)
I0403 19:21:00.662544  9137 net.cpp:148] Top shape: 24 528 14 14 (2483712)
I0403 19:21:00.662559  9137 net.cpp:156] Memory required for data: 1206918432
I0403 19:21:00.662574  9137 layer_factory.hpp:77] Creating layer loss2/ave_pool
I0403 19:21:00.662591  9137 net.cpp:91] Creating Layer loss2/ave_pool
I0403 19:21:00.662607  9137 net.cpp:425] loss2/ave_pool <- inception_4d/output_inception_4d/output_0_split_0
I0403 19:21:00.662629  9137 net.cpp:399] loss2/ave_pool -> loss2/ave_pool
I0403 19:21:00.662938  9137 net.cpp:141] Setting up loss2/ave_pool
I0403 19:21:00.662967  9137 net.cpp:148] Top shape: 24 528 4 4 (202752)
I0403 19:21:00.662983  9137 net.cpp:156] Memory required for data: 1207729440
I0403 19:21:00.662999  9137 layer_factory.hpp:77] Creating layer loss2/conv
I0403 19:21:00.663022  9137 net.cpp:91] Creating Layer loss2/conv
I0403 19:21:00.663041  9137 net.cpp:425] loss2/conv <- loss2/ave_pool
I0403 19:21:00.663064  9137 net.cpp:399] loss2/conv -> loss2/conv
I0403 19:21:00.664906  9137 net.cpp:141] Setting up loss2/conv
I0403 19:21:00.664934  9137 net.cpp:148] Top shape: 24 128 4 4 (49152)
I0403 19:21:00.664949  9137 net.cpp:156] Memory required for data: 1207926048
I0403 19:21:00.664968  9137 layer_factory.hpp:77] Creating layer loss2/relu_conv
I0403 19:21:00.664988  9137 net.cpp:91] Creating Layer loss2/relu_conv
I0403 19:21:00.665006  9137 net.cpp:425] loss2/relu_conv <- loss2/conv
I0403 19:21:00.665024  9137 net.cpp:386] loss2/relu_conv -> loss2/conv (in-place)
I0403 19:21:00.665303  9137 net.cpp:141] Setting up loss2/relu_conv
I0403 19:21:00.665330  9137 net.cpp:148] Top shape: 24 128 4 4 (49152)
I0403 19:21:00.665345  9137 net.cpp:156] Memory required for data: 1208122656
I0403 19:21:00.665359  9137 layer_factory.hpp:77] Creating layer loss2/fc
I0403 19:21:00.665390  9137 net.cpp:91] Creating Layer loss2/fc
I0403 19:21:00.665408  9137 net.cpp:425] loss2/fc <- loss2/conv
I0403 19:21:00.665431  9137 net.cpp:399] loss2/fc -> loss2/fc
I0403 19:21:00.682402  9137 net.cpp:141] Setting up loss2/fc
I0403 19:21:00.682435  9137 net.cpp:148] Top shape: 24 1024 (24576)
I0403 19:21:00.682449  9137 net.cpp:156] Memory required for data: 1208220960
I0403 19:21:00.682479  9137 layer_factory.hpp:77] Creating layer loss2/relu_fc
I0403 19:21:00.682500  9137 net.cpp:91] Creating Layer loss2/relu_fc
I0403 19:21:00.682517  9137 net.cpp:425] loss2/relu_fc <- loss2/fc
I0403 19:21:00.682535  9137 net.cpp:386] loss2/relu_fc -> loss2/fc (in-place)
I0403 19:21:00.682822  9137 net.cpp:141] Setting up loss2/relu_fc
I0403 19:21:00.682849  9137 net.cpp:148] Top shape: 24 1024 (24576)
I0403 19:21:00.682864  9137 net.cpp:156] Memory required for data: 1208319264
I0403 19:21:00.682880  9137 layer_factory.hpp:77] Creating layer loss2/drop_fc
I0403 19:21:00.682898  9137 net.cpp:91] Creating Layer loss2/drop_fc
I0403 19:21:00.682912  9137 net.cpp:425] loss2/drop_fc <- loss2/fc
I0403 19:21:00.682930  9137 net.cpp:386] loss2/drop_fc -> loss2/fc (in-place)
I0403 19:21:00.682979  9137 net.cpp:141] Setting up loss2/drop_fc
I0403 19:21:00.683006  9137 net.cpp:148] Top shape: 24 1024 (24576)
I0403 19:21:00.683022  9137 net.cpp:156] Memory required for data: 1208417568
I0403 19:21:00.683037  9137 layer_factory.hpp:77] Creating layer loss2/classifier_plantvillage
I0403 19:21:00.683053  9137 net.cpp:91] Creating Layer loss2/classifier_plantvillage
I0403 19:21:00.683069  9137 net.cpp:425] loss2/classifier_plantvillage <- loss2/fc
I0403 19:21:00.683090  9137 net.cpp:399] loss2/classifier_plantvillage -> loss2/classifier_plantvillage
I0403 19:21:00.683480  9137 net.cpp:141] Setting up loss2/classifier_plantvillage
I0403 19:21:00.683504  9137 net.cpp:148] Top shape: 24 38 (912)
I0403 19:21:00.683519  9137 net.cpp:156] Memory required for data: 1208421216
I0403 19:21:00.683560  9137 layer_factory.hpp:77] Creating layer loss2/classifier_plantvillage_loss2/classifier_plantvillage_0_split
I0403 19:21:00.683581  9137 net.cpp:91] Creating Layer loss2/classifier_plantvillage_loss2/classifier_plantvillage_0_split
I0403 19:21:00.683598  9137 net.cpp:425] loss2/classifier_plantvillage_loss2/classifier_plantvillage_0_split <- loss2/classifier_plantvillage
I0403 19:21:00.683616  9137 net.cpp:399] loss2/classifier_plantvillage_loss2/classifier_plantvillage_0_split -> loss2/classifier_plantvillage_loss2/classifier_plantvillage_0_split_0
I0403 19:21:00.683637  9137 net.cpp:399] loss2/classifier_plantvillage_loss2/classifier_plantvillage_0_split -> loss2/classifier_plantvillage_loss2/classifier_plantvillage_0_split_1
I0403 19:21:00.683660  9137 net.cpp:399] loss2/classifier_plantvillage_loss2/classifier_plantvillage_0_split -> loss2/classifier_plantvillage_loss2/classifier_plantvillage_0_split_2
I0403 19:21:00.683734  9137 net.cpp:141] Setting up loss2/classifier_plantvillage_loss2/classifier_plantvillage_0_split
I0403 19:21:00.683758  9137 net.cpp:148] Top shape: 24 38 (912)
I0403 19:21:00.683774  9137 net.cpp:148] Top shape: 24 38 (912)
I0403 19:21:00.683790  9137 net.cpp:148] Top shape: 24 38 (912)
I0403 19:21:00.683804  9137 net.cpp:156] Memory required for data: 1208432160
I0403 19:21:00.683820  9137 layer_factory.hpp:77] Creating layer inception_4e/1x1
I0403 19:21:00.683840  9137 net.cpp:91] Creating Layer inception_4e/1x1
I0403 19:21:00.683859  9137 net.cpp:425] inception_4e/1x1 <- inception_4d/output_inception_4d/output_0_split_1
I0403 19:21:00.683878  9137 net.cpp:399] inception_4e/1x1 -> inception_4e/1x1
I0403 19:21:00.685601  9137 net.cpp:141] Setting up inception_4e/1x1
I0403 19:21:00.685628  9137 net.cpp:148] Top shape: 24 256 14 14 (1204224)
I0403 19:21:00.685644  9137 net.cpp:156] Memory required for data: 1213249056
I0403 19:21:00.685662  9137 layer_factory.hpp:77] Creating layer inception_4e/relu_1x1
I0403 19:21:00.685683  9137 net.cpp:91] Creating Layer inception_4e/relu_1x1
I0403 19:21:00.685699  9137 net.cpp:425] inception_4e/relu_1x1 <- inception_4e/1x1
I0403 19:21:00.685716  9137 net.cpp:386] inception_4e/relu_1x1 -> inception_4e/1x1 (in-place)
I0403 19:21:00.686002  9137 net.cpp:141] Setting up inception_4e/relu_1x1
I0403 19:21:00.686028  9137 net.cpp:148] Top shape: 24 256 14 14 (1204224)
I0403 19:21:00.686043  9137 net.cpp:156] Memory required for data: 1218065952
I0403 19:21:00.686058  9137 layer_factory.hpp:77] Creating layer inception_4e/3x3_reduce
I0403 19:21:00.686079  9137 net.cpp:91] Creating Layer inception_4e/3x3_reduce
I0403 19:21:00.686096  9137 net.cpp:425] inception_4e/3x3_reduce <- inception_4d/output_inception_4d/output_0_split_2
I0403 19:21:00.686120  9137 net.cpp:399] inception_4e/3x3_reduce -> inception_4e/3x3_reduce
I0403 19:21:00.688136  9137 net.cpp:141] Setting up inception_4e/3x3_reduce
I0403 19:21:00.688163  9137 net.cpp:148] Top shape: 24 160 14 14 (752640)
I0403 19:21:00.688179  9137 net.cpp:156] Memory required for data: 1221076512
I0403 19:21:00.688197  9137 layer_factory.hpp:77] Creating layer inception_4e/relu_3x3_reduce
I0403 19:21:00.688217  9137 net.cpp:91] Creating Layer inception_4e/relu_3x3_reduce
I0403 19:21:00.688235  9137 net.cpp:425] inception_4e/relu_3x3_reduce <- inception_4e/3x3_reduce
I0403 19:21:00.688251  9137 net.cpp:386] inception_4e/relu_3x3_reduce -> inception_4e/3x3_reduce (in-place)
I0403 19:21:00.688431  9137 net.cpp:141] Setting up inception_4e/relu_3x3_reduce
I0403 19:21:00.688460  9137 net.cpp:148] Top shape: 24 160 14 14 (752640)
I0403 19:21:00.688477  9137 net.cpp:156] Memory required for data: 1224087072
I0403 19:21:00.688493  9137 layer_factory.hpp:77] Creating layer inception_4e/3x3
I0403 19:21:00.688514  9137 net.cpp:91] Creating Layer inception_4e/3x3
I0403 19:21:00.688532  9137 net.cpp:425] inception_4e/3x3 <- inception_4e/3x3_reduce
I0403 19:21:00.688552  9137 net.cpp:399] inception_4e/3x3 -> inception_4e/3x3
I0403 19:21:00.693301  9137 net.cpp:141] Setting up inception_4e/3x3
I0403 19:21:00.693344  9137 net.cpp:148] Top shape: 24 320 14 14 (1505280)
I0403 19:21:00.693361  9137 net.cpp:156] Memory required for data: 1230108192
I0403 19:21:00.693380  9137 layer_factory.hpp:77] Creating layer inception_4e/relu_3x3
I0403 19:21:00.693397  9137 net.cpp:91] Creating Layer inception_4e/relu_3x3
I0403 19:21:00.693413  9137 net.cpp:425] inception_4e/relu_3x3 <- inception_4e/3x3
I0403 19:21:00.693429  9137 net.cpp:386] inception_4e/relu_3x3 -> inception_4e/3x3 (in-place)
I0403 19:21:00.693723  9137 net.cpp:141] Setting up inception_4e/relu_3x3
I0403 19:21:00.693749  9137 net.cpp:148] Top shape: 24 320 14 14 (1505280)
I0403 19:21:00.693765  9137 net.cpp:156] Memory required for data: 1236129312
I0403 19:21:00.693780  9137 layer_factory.hpp:77] Creating layer inception_4e/5x5_reduce
I0403 19:21:00.693804  9137 net.cpp:91] Creating Layer inception_4e/5x5_reduce
I0403 19:21:00.693821  9137 net.cpp:425] inception_4e/5x5_reduce <- inception_4d/output_inception_4d/output_0_split_3
I0403 19:21:00.693843  9137 net.cpp:399] inception_4e/5x5_reduce -> inception_4e/5x5_reduce
I0403 19:21:00.694862  9137 net.cpp:141] Setting up inception_4e/5x5_reduce
I0403 19:21:00.694890  9137 net.cpp:148] Top shape: 24 32 14 14 (150528)
I0403 19:21:00.694905  9137 net.cpp:156] Memory required for data: 1236731424
I0403 19:21:00.694923  9137 layer_factory.hpp:77] Creating layer inception_4e/relu_5x5_reduce
I0403 19:21:00.694943  9137 net.cpp:91] Creating Layer inception_4e/relu_5x5_reduce
I0403 19:21:00.694960  9137 net.cpp:425] inception_4e/relu_5x5_reduce <- inception_4e/5x5_reduce
I0403 19:21:00.694978  9137 net.cpp:386] inception_4e/relu_5x5_reduce -> inception_4e/5x5_reduce (in-place)
I0403 19:21:00.695267  9137 net.cpp:141] Setting up inception_4e/relu_5x5_reduce
I0403 19:21:00.695293  9137 net.cpp:148] Top shape: 24 32 14 14 (150528)
I0403 19:21:00.695309  9137 net.cpp:156] Memory required for data: 1237333536
I0403 19:21:00.695324  9137 layer_factory.hpp:77] Creating layer inception_4e/5x5
I0403 19:21:00.695361  9137 net.cpp:91] Creating Layer inception_4e/5x5
I0403 19:21:00.695380  9137 net.cpp:425] inception_4e/5x5 <- inception_4e/5x5_reduce
I0403 19:21:00.695400  9137 net.cpp:399] inception_4e/5x5 -> inception_4e/5x5
I0403 19:21:00.697190  9137 net.cpp:141] Setting up inception_4e/5x5
I0403 19:21:00.697218  9137 net.cpp:148] Top shape: 24 128 14 14 (602112)
I0403 19:21:00.697234  9137 net.cpp:156] Memory required for data: 1239741984
I0403 19:21:00.697254  9137 layer_factory.hpp:77] Creating layer inception_4e/relu_5x5
I0403 19:21:00.697274  9137 net.cpp:91] Creating Layer inception_4e/relu_5x5
I0403 19:21:00.697290  9137 net.cpp:425] inception_4e/relu_5x5 <- inception_4e/5x5
I0403 19:21:00.697309  9137 net.cpp:386] inception_4e/relu_5x5 -> inception_4e/5x5 (in-place)
I0403 19:21:00.697501  9137 net.cpp:141] Setting up inception_4e/relu_5x5
I0403 19:21:00.697526  9137 net.cpp:148] Top shape: 24 128 14 14 (602112)
I0403 19:21:00.697541  9137 net.cpp:156] Memory required for data: 1242150432
I0403 19:21:00.697557  9137 layer_factory.hpp:77] Creating layer inception_4e/pool
I0403 19:21:00.697576  9137 net.cpp:91] Creating Layer inception_4e/pool
I0403 19:21:00.697593  9137 net.cpp:425] inception_4e/pool <- inception_4d/output_inception_4d/output_0_split_4
I0403 19:21:00.697612  9137 net.cpp:399] inception_4e/pool -> inception_4e/pool
I0403 19:21:00.697681  9137 net.cpp:141] Setting up inception_4e/pool
I0403 19:21:00.697705  9137 net.cpp:148] Top shape: 24 528 14 14 (2483712)
I0403 19:21:00.697721  9137 net.cpp:156] Memory required for data: 1252085280
I0403 19:21:00.697734  9137 layer_factory.hpp:77] Creating layer inception_4e/pool_proj
I0403 19:21:00.697756  9137 net.cpp:91] Creating Layer inception_4e/pool_proj
I0403 19:21:00.697773  9137 net.cpp:425] inception_4e/pool_proj <- inception_4e/pool
I0403 19:21:00.697796  9137 net.cpp:399] inception_4e/pool_proj -> inception_4e/pool_proj
I0403 19:21:00.699224  9137 net.cpp:141] Setting up inception_4e/pool_proj
I0403 19:21:00.699251  9137 net.cpp:148] Top shape: 24 128 14 14 (602112)
I0403 19:21:00.699280  9137 net.cpp:156] Memory required for data: 1254493728
I0403 19:21:00.699300  9137 layer_factory.hpp:77] Creating layer inception_4e/relu_pool_proj
I0403 19:21:00.699316  9137 net.cpp:91] Creating Layer inception_4e/relu_pool_proj
I0403 19:21:00.699333  9137 net.cpp:425] inception_4e/relu_pool_proj <- inception_4e/pool_proj
I0403 19:21:00.699352  9137 net.cpp:386] inception_4e/relu_pool_proj -> inception_4e/pool_proj (in-place)
I0403 19:21:00.699640  9137 net.cpp:141] Setting up inception_4e/relu_pool_proj
I0403 19:21:00.699666  9137 net.cpp:148] Top shape: 24 128 14 14 (602112)
I0403 19:21:00.699682  9137 net.cpp:156] Memory required for data: 1256902176
I0403 19:21:00.699697  9137 layer_factory.hpp:77] Creating layer inception_4e/output
I0403 19:21:00.699714  9137 net.cpp:91] Creating Layer inception_4e/output
I0403 19:21:00.699729  9137 net.cpp:425] inception_4e/output <- inception_4e/1x1
I0403 19:21:00.699745  9137 net.cpp:425] inception_4e/output <- inception_4e/3x3
I0403 19:21:00.699761  9137 net.cpp:425] inception_4e/output <- inception_4e/5x5
I0403 19:21:00.699777  9137 net.cpp:425] inception_4e/output <- inception_4e/pool_proj
I0403 19:21:00.699796  9137 net.cpp:399] inception_4e/output -> inception_4e/output
I0403 19:21:00.699844  9137 net.cpp:141] Setting up inception_4e/output
I0403 19:21:00.699868  9137 net.cpp:148] Top shape: 24 832 14 14 (3913728)
I0403 19:21:00.699883  9137 net.cpp:156] Memory required for data: 1272557088
I0403 19:21:00.699898  9137 layer_factory.hpp:77] Creating layer pool4/3x3_s2
I0403 19:21:00.699916  9137 net.cpp:91] Creating Layer pool4/3x3_s2
I0403 19:21:00.699934  9137 net.cpp:425] pool4/3x3_s2 <- inception_4e/output
I0403 19:21:00.699952  9137 net.cpp:399] pool4/3x3_s2 -> pool4/3x3_s2
I0403 19:21:00.700018  9137 net.cpp:141] Setting up pool4/3x3_s2
I0403 19:21:00.700042  9137 net.cpp:148] Top shape: 24 832 7 7 (978432)
I0403 19:21:00.700057  9137 net.cpp:156] Memory required for data: 1276470816
I0403 19:21:00.700073  9137 layer_factory.hpp:77] Creating layer pool4/3x3_s2_pool4/3x3_s2_0_split
I0403 19:21:00.700093  9137 net.cpp:91] Creating Layer pool4/3x3_s2_pool4/3x3_s2_0_split
I0403 19:21:00.700110  9137 net.cpp:425] pool4/3x3_s2_pool4/3x3_s2_0_split <- pool4/3x3_s2
I0403 19:21:00.700127  9137 net.cpp:399] pool4/3x3_s2_pool4/3x3_s2_0_split -> pool4/3x3_s2_pool4/3x3_s2_0_split_0
I0403 19:21:00.700146  9137 net.cpp:399] pool4/3x3_s2_pool4/3x3_s2_0_split -> pool4/3x3_s2_pool4/3x3_s2_0_split_1
I0403 19:21:00.700166  9137 net.cpp:399] pool4/3x3_s2_pool4/3x3_s2_0_split -> pool4/3x3_s2_pool4/3x3_s2_0_split_2
I0403 19:21:00.700187  9137 net.cpp:399] pool4/3x3_s2_pool4/3x3_s2_0_split -> pool4/3x3_s2_pool4/3x3_s2_0_split_3
I0403 19:21:00.700275  9137 net.cpp:141] Setting up pool4/3x3_s2_pool4/3x3_s2_0_split
I0403 19:21:00.700299  9137 net.cpp:148] Top shape: 24 832 7 7 (978432)
I0403 19:21:00.700314  9137 net.cpp:148] Top shape: 24 832 7 7 (978432)
I0403 19:21:00.700330  9137 net.cpp:148] Top shape: 24 832 7 7 (978432)
I0403 19:21:00.700345  9137 net.cpp:148] Top shape: 24 832 7 7 (978432)
I0403 19:21:00.700359  9137 net.cpp:156] Memory required for data: 1292125728
I0403 19:21:00.700374  9137 layer_factory.hpp:77] Creating layer inception_5a/1x1
I0403 19:21:00.700395  9137 net.cpp:91] Creating Layer inception_5a/1x1
I0403 19:21:00.700412  9137 net.cpp:425] inception_5a/1x1 <- pool4/3x3_s2_pool4/3x3_s2_0_split_0
I0403 19:21:00.700433  9137 net.cpp:399] inception_5a/1x1 -> inception_5a/1x1
I0403 19:21:00.703142  9137 net.cpp:141] Setting up inception_5a/1x1
I0403 19:21:00.703173  9137 net.cpp:148] Top shape: 24 256 7 7 (301056)
I0403 19:21:00.703191  9137 net.cpp:156] Memory required for data: 1293329952
I0403 19:21:00.703209  9137 layer_factory.hpp:77] Creating layer inception_5a/relu_1x1
I0403 19:21:00.703228  9137 net.cpp:91] Creating Layer inception_5a/relu_1x1
I0403 19:21:00.703246  9137 net.cpp:425] inception_5a/relu_1x1 <- inception_5a/1x1
I0403 19:21:00.703264  9137 net.cpp:386] inception_5a/relu_1x1 -> inception_5a/1x1 (in-place)
I0403 19:21:00.703572  9137 net.cpp:141] Setting up inception_5a/relu_1x1
I0403 19:21:00.703598  9137 net.cpp:148] Top shape: 24 256 7 7 (301056)
I0403 19:21:00.703613  9137 net.cpp:156] Memory required for data: 1294534176
I0403 19:21:00.703629  9137 layer_factory.hpp:77] Creating layer inception_5a/3x3_reduce
I0403 19:21:00.703650  9137 net.cpp:91] Creating Layer inception_5a/3x3_reduce
I0403 19:21:00.703668  9137 net.cpp:425] inception_5a/3x3_reduce <- pool4/3x3_s2_pool4/3x3_s2_0_split_1
I0403 19:21:00.703691  9137 net.cpp:399] inception_5a/3x3_reduce -> inception_5a/3x3_reduce
I0403 19:21:00.706027  9137 net.cpp:141] Setting up inception_5a/3x3_reduce
I0403 19:21:00.706058  9137 net.cpp:148] Top shape: 24 160 7 7 (188160)
I0403 19:21:00.706076  9137 net.cpp:156] Memory required for data: 1295286816
I0403 19:21:00.706094  9137 layer_factory.hpp:77] Creating layer inception_5a/relu_3x3_reduce
I0403 19:21:00.706111  9137 net.cpp:91] Creating Layer inception_5a/relu_3x3_reduce
I0403 19:21:00.706127  9137 net.cpp:425] inception_5a/relu_3x3_reduce <- inception_5a/3x3_reduce
I0403 19:21:00.706147  9137 net.cpp:386] inception_5a/relu_3x3_reduce -> inception_5a/3x3_reduce (in-place)
I0403 19:21:00.706329  9137 net.cpp:141] Setting up inception_5a/relu_3x3_reduce
I0403 19:21:00.706353  9137 net.cpp:148] Top shape: 24 160 7 7 (188160)
I0403 19:21:00.706367  9137 net.cpp:156] Memory required for data: 1296039456
I0403 19:21:00.706382  9137 layer_factory.hpp:77] Creating layer inception_5a/3x3
I0403 19:21:00.706403  9137 net.cpp:91] Creating Layer inception_5a/3x3
I0403 19:21:00.706421  9137 net.cpp:425] inception_5a/3x3 <- inception_5a/3x3_reduce
I0403 19:21:00.706454  9137 net.cpp:399] inception_5a/3x3 -> inception_5a/3x3
I0403 19:21:00.711220  9137 net.cpp:141] Setting up inception_5a/3x3
I0403 19:21:00.711251  9137 net.cpp:148] Top shape: 24 320 7 7 (376320)
I0403 19:21:00.711266  9137 net.cpp:156] Memory required for data: 1297544736
I0403 19:21:00.711285  9137 layer_factory.hpp:77] Creating layer inception_5a/relu_3x3
I0403 19:21:00.711305  9137 net.cpp:91] Creating Layer inception_5a/relu_3x3
I0403 19:21:00.711321  9137 net.cpp:425] inception_5a/relu_3x3 <- inception_5a/3x3
I0403 19:21:00.711339  9137 net.cpp:386] inception_5a/relu_3x3 -> inception_5a/3x3 (in-place)
I0403 19:21:00.711626  9137 net.cpp:141] Setting up inception_5a/relu_3x3
I0403 19:21:00.711652  9137 net.cpp:148] Top shape: 24 320 7 7 (376320)
I0403 19:21:00.711668  9137 net.cpp:156] Memory required for data: 1299050016
I0403 19:21:00.711683  9137 layer_factory.hpp:77] Creating layer inception_5a/5x5_reduce
I0403 19:21:00.711706  9137 net.cpp:91] Creating Layer inception_5a/5x5_reduce
I0403 19:21:00.711724  9137 net.cpp:425] inception_5a/5x5_reduce <- pool4/3x3_s2_pool4/3x3_s2_0_split_2
I0403 19:21:00.711746  9137 net.cpp:399] inception_5a/5x5_reduce -> inception_5a/5x5_reduce
I0403 19:21:00.712869  9137 net.cpp:141] Setting up inception_5a/5x5_reduce
I0403 19:21:00.712898  9137 net.cpp:148] Top shape: 24 32 7 7 (37632)
I0403 19:21:00.712914  9137 net.cpp:156] Memory required for data: 1299200544
I0403 19:21:00.712934  9137 layer_factory.hpp:77] Creating layer inception_5a/relu_5x5_reduce
I0403 19:21:00.712956  9137 net.cpp:91] Creating Layer inception_5a/relu_5x5_reduce
I0403 19:21:00.712973  9137 net.cpp:425] inception_5a/relu_5x5_reduce <- inception_5a/5x5_reduce
I0403 19:21:00.712990  9137 net.cpp:386] inception_5a/relu_5x5_reduce -> inception_5a/5x5_reduce (in-place)
I0403 19:21:00.713279  9137 net.cpp:141] Setting up inception_5a/relu_5x5_reduce
I0403 19:21:00.713304  9137 net.cpp:148] Top shape: 24 32 7 7 (37632)
I0403 19:21:00.713320  9137 net.cpp:156] Memory required for data: 1299351072
I0403 19:21:00.713335  9137 layer_factory.hpp:77] Creating layer inception_5a/5x5
I0403 19:21:00.713356  9137 net.cpp:91] Creating Layer inception_5a/5x5
I0403 19:21:00.713373  9137 net.cpp:425] inception_5a/5x5 <- inception_5a/5x5_reduce
I0403 19:21:00.713397  9137 net.cpp:399] inception_5a/5x5 -> inception_5a/5x5
I0403 19:21:00.715078  9137 net.cpp:141] Setting up inception_5a/5x5
I0403 19:21:00.715117  9137 net.cpp:148] Top shape: 24 128 7 7 (150528)
I0403 19:21:00.715137  9137 net.cpp:156] Memory required for data: 1299953184
I0403 19:21:00.715155  9137 layer_factory.hpp:77] Creating layer inception_5a/relu_5x5
I0403 19:21:00.715178  9137 net.cpp:91] Creating Layer inception_5a/relu_5x5
I0403 19:21:00.715195  9137 net.cpp:425] inception_5a/relu_5x5 <- inception_5a/5x5
I0403 19:21:00.715214  9137 net.cpp:386] inception_5a/relu_5x5 -> inception_5a/5x5 (in-place)
I0403 19:21:00.715402  9137 net.cpp:141] Setting up inception_5a/relu_5x5
I0403 19:21:00.715430  9137 net.cpp:148] Top shape: 24 128 7 7 (150528)
I0403 19:21:00.715445  9137 net.cpp:156] Memory required for data: 1300555296
I0403 19:21:00.715466  9137 layer_factory.hpp:77] Creating layer inception_5a/pool
I0403 19:21:00.715488  9137 net.cpp:91] Creating Layer inception_5a/pool
I0403 19:21:00.715507  9137 net.cpp:425] inception_5a/pool <- pool4/3x3_s2_pool4/3x3_s2_0_split_3
I0403 19:21:00.715524  9137 net.cpp:399] inception_5a/pool -> inception_5a/pool
I0403 19:21:00.715595  9137 net.cpp:141] Setting up inception_5a/pool
I0403 19:21:00.715618  9137 net.cpp:148] Top shape: 24 832 7 7 (978432)
I0403 19:21:00.715634  9137 net.cpp:156] Memory required for data: 1304469024
I0403 19:21:00.715649  9137 layer_factory.hpp:77] Creating layer inception_5a/pool_proj
I0403 19:21:00.715672  9137 net.cpp:91] Creating Layer inception_5a/pool_proj
I0403 19:21:00.715690  9137 net.cpp:425] inception_5a/pool_proj <- inception_5a/pool
I0403 19:21:00.715711  9137 net.cpp:399] inception_5a/pool_proj -> inception_5a/pool_proj
I0403 19:21:00.717949  9137 net.cpp:141] Setting up inception_5a/pool_proj
I0403 19:21:00.717981  9137 net.cpp:148] Top shape: 24 128 7 7 (150528)
I0403 19:21:00.718010  9137 net.cpp:156] Memory required for data: 1305071136
I0403 19:21:00.718039  9137 layer_factory.hpp:77] Creating layer inception_5a/relu_pool_proj
I0403 19:21:00.718055  9137 net.cpp:91] Creating Layer inception_5a/relu_pool_proj
I0403 19:21:00.718072  9137 net.cpp:425] inception_5a/relu_pool_proj <- inception_5a/pool_proj
I0403 19:21:00.718093  9137 net.cpp:386] inception_5a/relu_pool_proj -> inception_5a/pool_proj (in-place)
I0403 19:21:00.718389  9137 net.cpp:141] Setting up inception_5a/relu_pool_proj
I0403 19:21:00.718417  9137 net.cpp:148] Top shape: 24 128 7 7 (150528)
I0403 19:21:00.718432  9137 net.cpp:156] Memory required for data: 1305673248
I0403 19:21:00.718448  9137 layer_factory.hpp:77] Creating layer inception_5a/output
I0403 19:21:00.718485  9137 net.cpp:91] Creating Layer inception_5a/output
I0403 19:21:00.718511  9137 net.cpp:425] inception_5a/output <- inception_5a/1x1
I0403 19:21:00.718534  9137 net.cpp:425] inception_5a/output <- inception_5a/3x3
I0403 19:21:00.718560  9137 net.cpp:425] inception_5a/output <- inception_5a/5x5
I0403 19:21:00.718587  9137 net.cpp:425] inception_5a/output <- inception_5a/pool_proj
I0403 19:21:00.718617  9137 net.cpp:399] inception_5a/output -> inception_5a/output
I0403 19:21:00.718693  9137 net.cpp:141] Setting up inception_5a/output
I0403 19:21:00.718720  9137 net.cpp:148] Top shape: 24 832 7 7 (978432)
I0403 19:21:00.718735  9137 net.cpp:156] Memory required for data: 1309586976
I0403 19:21:00.718756  9137 layer_factory.hpp:77] Creating layer inception_5a/output_inception_5a/output_0_split
I0403 19:21:00.718773  9137 net.cpp:91] Creating Layer inception_5a/output_inception_5a/output_0_split
I0403 19:21:00.718789  9137 net.cpp:425] inception_5a/output_inception_5a/output_0_split <- inception_5a/output
I0403 19:21:00.718806  9137 net.cpp:399] inception_5a/output_inception_5a/output_0_split -> inception_5a/output_inception_5a/output_0_split_0
I0403 19:21:00.718825  9137 net.cpp:399] inception_5a/output_inception_5a/output_0_split -> inception_5a/output_inception_5a/output_0_split_1
I0403 19:21:00.718848  9137 net.cpp:399] inception_5a/output_inception_5a/output_0_split -> inception_5a/output_inception_5a/output_0_split_2
I0403 19:21:00.718869  9137 net.cpp:399] inception_5a/output_inception_5a/output_0_split -> inception_5a/output_inception_5a/output_0_split_3
I0403 19:21:00.718981  9137 net.cpp:141] Setting up inception_5a/output_inception_5a/output_0_split
I0403 19:21:00.719005  9137 net.cpp:148] Top shape: 24 832 7 7 (978432)
I0403 19:21:00.719022  9137 net.cpp:148] Top shape: 24 832 7 7 (978432)
I0403 19:21:00.719036  9137 net.cpp:148] Top shape: 24 832 7 7 (978432)
I0403 19:21:00.719053  9137 net.cpp:148] Top shape: 24 832 7 7 (978432)
I0403 19:21:00.719066  9137 net.cpp:156] Memory required for data: 1325241888
I0403 19:21:00.719082  9137 layer_factory.hpp:77] Creating layer inception_5b/1x1
I0403 19:21:00.719105  9137 net.cpp:91] Creating Layer inception_5b/1x1
I0403 19:21:00.719125  9137 net.cpp:425] inception_5b/1x1 <- inception_5a/output_inception_5a/output_0_split_0
I0403 19:21:00.719146  9137 net.cpp:399] inception_5b/1x1 -> inception_5b/1x1
I0403 19:21:00.722838  9137 net.cpp:141] Setting up inception_5b/1x1
I0403 19:21:00.722870  9137 net.cpp:148] Top shape: 24 384 7 7 (451584)
I0403 19:21:00.722888  9137 net.cpp:156] Memory required for data: 1327048224
I0403 19:21:00.722908  9137 layer_factory.hpp:77] Creating layer inception_5b/relu_1x1
I0403 19:21:00.722925  9137 net.cpp:91] Creating Layer inception_5b/relu_1x1
I0403 19:21:00.722941  9137 net.cpp:425] inception_5b/relu_1x1 <- inception_5b/1x1
I0403 19:21:00.722962  9137 net.cpp:386] inception_5b/relu_1x1 -> inception_5b/1x1 (in-place)
I0403 19:21:00.723264  9137 net.cpp:141] Setting up inception_5b/relu_1x1
I0403 19:21:00.723294  9137 net.cpp:148] Top shape: 24 384 7 7 (451584)
I0403 19:21:00.723310  9137 net.cpp:156] Memory required for data: 1328854560
I0403 19:21:00.723325  9137 layer_factory.hpp:77] Creating layer inception_5b/3x3_reduce
I0403 19:21:00.723347  9137 net.cpp:91] Creating Layer inception_5b/3x3_reduce
I0403 19:21:00.723366  9137 net.cpp:425] inception_5b/3x3_reduce <- inception_5a/output_inception_5a/output_0_split_1
I0403 19:21:00.723387  9137 net.cpp:399] inception_5b/3x3_reduce -> inception_5b/3x3_reduce
I0403 19:21:00.725999  9137 net.cpp:141] Setting up inception_5b/3x3_reduce
I0403 19:21:00.726030  9137 net.cpp:148] Top shape: 24 192 7 7 (225792)
I0403 19:21:00.726047  9137 net.cpp:156] Memory required for data: 1329757728
I0403 19:21:00.726065  9137 layer_factory.hpp:77] Creating layer inception_5b/relu_3x3_reduce
I0403 19:21:00.726083  9137 net.cpp:91] Creating Layer inception_5b/relu_3x3_reduce
I0403 19:21:00.726101  9137 net.cpp:425] inception_5b/relu_3x3_reduce <- inception_5b/3x3_reduce
I0403 19:21:00.726121  9137 net.cpp:386] inception_5b/relu_3x3_reduce -> inception_5b/3x3_reduce (in-place)
I0403 19:21:00.726312  9137 net.cpp:141] Setting up inception_5b/relu_3x3_reduce
I0403 19:21:00.726338  9137 net.cpp:148] Top shape: 24 192 7 7 (225792)
I0403 19:21:00.726353  9137 net.cpp:156] Memory required for data: 1330660896
I0403 19:21:00.726368  9137 layer_factory.hpp:77] Creating layer inception_5b/3x3
I0403 19:21:00.726390  9137 net.cpp:91] Creating Layer inception_5b/3x3
I0403 19:21:00.726410  9137 net.cpp:425] inception_5b/3x3 <- inception_5b/3x3_reduce
I0403 19:21:00.726431  9137 net.cpp:399] inception_5b/3x3 -> inception_5b/3x3
I0403 19:21:00.732975  9137 net.cpp:141] Setting up inception_5b/3x3
I0403 19:21:00.733005  9137 net.cpp:148] Top shape: 24 384 7 7 (451584)
I0403 19:21:00.733019  9137 net.cpp:156] Memory required for data: 1332467232
I0403 19:21:00.733038  9137 layer_factory.hpp:77] Creating layer inception_5b/relu_3x3
I0403 19:21:00.733059  9137 net.cpp:91] Creating Layer inception_5b/relu_3x3
I0403 19:21:00.733077  9137 net.cpp:425] inception_5b/relu_3x3 <- inception_5b/3x3
I0403 19:21:00.733096  9137 net.cpp:386] inception_5b/relu_3x3 -> inception_5b/3x3 (in-place)
I0403 19:21:00.733383  9137 net.cpp:141] Setting up inception_5b/relu_3x3
I0403 19:21:00.733409  9137 net.cpp:148] Top shape: 24 384 7 7 (451584)
I0403 19:21:00.733425  9137 net.cpp:156] Memory required for data: 1334273568
I0403 19:21:00.733440  9137 layer_factory.hpp:77] Creating layer inception_5b/5x5_reduce
I0403 19:21:00.733482  9137 net.cpp:91] Creating Layer inception_5b/5x5_reduce
I0403 19:21:00.733502  9137 net.cpp:425] inception_5b/5x5_reduce <- inception_5a/output_inception_5a/output_0_split_2
I0403 19:21:00.733525  9137 net.cpp:399] inception_5b/5x5_reduce -> inception_5b/5x5_reduce
I0403 19:21:00.734747  9137 net.cpp:141] Setting up inception_5b/5x5_reduce
I0403 19:21:00.734777  9137 net.cpp:148] Top shape: 24 48 7 7 (56448)
I0403 19:21:00.734793  9137 net.cpp:156] Memory required for data: 1334499360
I0403 19:21:00.734812  9137 layer_factory.hpp:77] Creating layer inception_5b/relu_5x5_reduce
I0403 19:21:00.734829  9137 net.cpp:91] Creating Layer inception_5b/relu_5x5_reduce
I0403 19:21:00.734846  9137 net.cpp:425] inception_5b/relu_5x5_reduce <- inception_5b/5x5_reduce
I0403 19:21:00.734866  9137 net.cpp:386] inception_5b/relu_5x5_reduce -> inception_5b/5x5_reduce (in-place)
I0403 19:21:00.735229  9137 net.cpp:141] Setting up inception_5b/relu_5x5_reduce
I0403 19:21:00.735256  9137 net.cpp:148] Top shape: 24 48 7 7 (56448)
I0403 19:21:00.735271  9137 net.cpp:156] Memory required for data: 1334725152
I0403 19:21:00.735286  9137 layer_factory.hpp:77] Creating layer inception_5b/5x5
I0403 19:21:00.735306  9137 net.cpp:91] Creating Layer inception_5b/5x5
I0403 19:21:00.735324  9137 net.cpp:425] inception_5b/5x5 <- inception_5b/5x5_reduce
I0403 19:21:00.735343  9137 net.cpp:399] inception_5b/5x5 -> inception_5b/5x5
I0403 19:21:00.737303  9137 net.cpp:141] Setting up inception_5b/5x5
I0403 19:21:00.737329  9137 net.cpp:148] Top shape: 24 128 7 7 (150528)
I0403 19:21:00.737344  9137 net.cpp:156] Memory required for data: 1335327264
I0403 19:21:00.737363  9137 layer_factory.hpp:77] Creating layer inception_5b/relu_5x5
I0403 19:21:00.737383  9137 net.cpp:91] Creating Layer inception_5b/relu_5x5
I0403 19:21:00.737401  9137 net.cpp:425] inception_5b/relu_5x5 <- inception_5b/5x5
I0403 19:21:00.737419  9137 net.cpp:386] inception_5b/relu_5x5 -> inception_5b/5x5 (in-place)
I0403 19:21:00.737612  9137 net.cpp:141] Setting up inception_5b/relu_5x5
I0403 19:21:00.737637  9137 net.cpp:148] Top shape: 24 128 7 7 (150528)
I0403 19:21:00.737654  9137 net.cpp:156] Memory required for data: 1335929376
I0403 19:21:00.737669  9137 layer_factory.hpp:77] Creating layer inception_5b/pool
I0403 19:21:00.737686  9137 net.cpp:91] Creating Layer inception_5b/pool
I0403 19:21:00.737702  9137 net.cpp:425] inception_5b/pool <- inception_5a/output_inception_5a/output_0_split_3
I0403 19:21:00.737721  9137 net.cpp:399] inception_5b/pool -> inception_5b/pool
I0403 19:21:00.737793  9137 net.cpp:141] Setting up inception_5b/pool
I0403 19:21:00.737818  9137 net.cpp:148] Top shape: 24 832 7 7 (978432)
I0403 19:21:00.737831  9137 net.cpp:156] Memory required for data: 1339843104
I0403 19:21:00.737846  9137 layer_factory.hpp:77] Creating layer inception_5b/pool_proj
I0403 19:21:00.737867  9137 net.cpp:91] Creating Layer inception_5b/pool_proj
I0403 19:21:00.737886  9137 net.cpp:425] inception_5b/pool_proj <- inception_5b/pool
I0403 19:21:00.737908  9137 net.cpp:399] inception_5b/pool_proj -> inception_5b/pool_proj
I0403 19:21:00.740113  9137 net.cpp:141] Setting up inception_5b/pool_proj
I0403 19:21:00.740141  9137 net.cpp:148] Top shape: 24 128 7 7 (150528)
I0403 19:21:00.740157  9137 net.cpp:156] Memory required for data: 1340445216
I0403 19:21:00.740175  9137 layer_factory.hpp:77] Creating layer inception_5b/relu_pool_proj
I0403 19:21:00.740193  9137 net.cpp:91] Creating Layer inception_5b/relu_pool_proj
I0403 19:21:00.740213  9137 net.cpp:425] inception_5b/relu_pool_proj <- inception_5b/pool_proj
I0403 19:21:00.740231  9137 net.cpp:386] inception_5b/relu_pool_proj -> inception_5b/pool_proj (in-place)
I0403 19:21:00.740521  9137 net.cpp:141] Setting up inception_5b/relu_pool_proj
I0403 19:21:00.740547  9137 net.cpp:148] Top shape: 24 128 7 7 (150528)
I0403 19:21:00.740562  9137 net.cpp:156] Memory required for data: 1341047328
I0403 19:21:00.740577  9137 layer_factory.hpp:77] Creating layer inception_5b/output
I0403 19:21:00.740594  9137 net.cpp:91] Creating Layer inception_5b/output
I0403 19:21:00.740624  9137 net.cpp:425] inception_5b/output <- inception_5b/1x1
I0403 19:21:00.740643  9137 net.cpp:425] inception_5b/output <- inception_5b/3x3
I0403 19:21:00.740660  9137 net.cpp:425] inception_5b/output <- inception_5b/5x5
I0403 19:21:00.740676  9137 net.cpp:425] inception_5b/output <- inception_5b/pool_proj
I0403 19:21:00.740694  9137 net.cpp:399] inception_5b/output -> inception_5b/output
I0403 19:21:00.740746  9137 net.cpp:141] Setting up inception_5b/output
I0403 19:21:00.740772  9137 net.cpp:148] Top shape: 24 1024 7 7 (1204224)
I0403 19:21:00.740787  9137 net.cpp:156] Memory required for data: 1345864224
I0403 19:21:00.740803  9137 layer_factory.hpp:77] Creating layer pool5/7x7_s1
I0403 19:21:00.740819  9137 net.cpp:91] Creating Layer pool5/7x7_s1
I0403 19:21:00.740835  9137 net.cpp:425] pool5/7x7_s1 <- inception_5b/output
I0403 19:21:00.740856  9137 net.cpp:399] pool5/7x7_s1 -> pool5/7x7_s1
I0403 19:21:00.741062  9137 net.cpp:141] Setting up pool5/7x7_s1
I0403 19:21:00.741088  9137 net.cpp:148] Top shape: 24 1024 1 1 (24576)
I0403 19:21:00.741103  9137 net.cpp:156] Memory required for data: 1345962528
I0403 19:21:00.741118  9137 layer_factory.hpp:77] Creating layer pool5/drop_7x7_s1
I0403 19:21:00.741135  9137 net.cpp:91] Creating Layer pool5/drop_7x7_s1
I0403 19:21:00.741152  9137 net.cpp:425] pool5/drop_7x7_s1 <- pool5/7x7_s1
I0403 19:21:00.741171  9137 net.cpp:386] pool5/drop_7x7_s1 -> pool5/7x7_s1 (in-place)
I0403 19:21:00.741227  9137 net.cpp:141] Setting up pool5/drop_7x7_s1
I0403 19:21:00.741253  9137 net.cpp:148] Top shape: 24 1024 1 1 (24576)
I0403 19:21:00.741269  9137 net.cpp:156] Memory required for data: 1346060832
I0403 19:21:00.741284  9137 layer_factory.hpp:77] Creating layer loss3/classifier_plantvillage
I0403 19:21:00.741303  9137 net.cpp:91] Creating Layer loss3/classifier_plantvillage
I0403 19:21:00.741318  9137 net.cpp:425] loss3/classifier_plantvillage <- pool5/7x7_s1
I0403 19:21:00.741338  9137 net.cpp:399] loss3/classifier_plantvillage -> loss3/classifier_plantvillage
I0403 19:21:00.741750  9137 net.cpp:141] Setting up loss3/classifier_plantvillage
I0403 19:21:00.741777  9137 net.cpp:148] Top shape: 24 38 (912)
I0403 19:21:00.741792  9137 net.cpp:156] Memory required for data: 1346064480
I0403 19:21:00.741811  9137 layer_factory.hpp:77] Creating layer loss3/classifier_plantvillage_loss3/classifier_plantvillage_0_split
I0403 19:21:00.741828  9137 net.cpp:91] Creating Layer loss3/classifier_plantvillage_loss3/classifier_plantvillage_0_split
I0403 19:21:00.741844  9137 net.cpp:425] loss3/classifier_plantvillage_loss3/classifier_plantvillage_0_split <- loss3/classifier_plantvillage
I0403 19:21:00.741861  9137 net.cpp:399] loss3/classifier_plantvillage_loss3/classifier_plantvillage_0_split -> loss3/classifier_plantvillage_loss3/classifier_plantvillage_0_split_0
I0403 19:21:00.741883  9137 net.cpp:399] loss3/classifier_plantvillage_loss3/classifier_plantvillage_0_split -> loss3/classifier_plantvillage_loss3/classifier_plantvillage_0_split_1
I0403 19:21:00.741905  9137 net.cpp:399] loss3/classifier_plantvillage_loss3/classifier_plantvillage_0_split -> loss3/classifier_plantvillage_loss3/classifier_plantvillage_0_split_2
I0403 19:21:00.741927  9137 net.cpp:399] loss3/classifier_plantvillage_loss3/classifier_plantvillage_0_split -> loss3/classifier_plantvillage_loss3/classifier_plantvillage_0_split_3
I0403 19:21:00.742025  9137 net.cpp:141] Setting up loss3/classifier_plantvillage_loss3/classifier_plantvillage_0_split
I0403 19:21:00.742049  9137 net.cpp:148] Top shape: 24 38 (912)
I0403 19:21:00.742065  9137 net.cpp:148] Top shape: 24 38 (912)
I0403 19:21:00.742081  9137 net.cpp:148] Top shape: 24 38 (912)
I0403 19:21:00.742097  9137 net.cpp:148] Top shape: 24 38 (912)
I0403 19:21:00.742111  9137 net.cpp:156] Memory required for data: 1346079072
I0403 19:21:00.742125  9137 layer_factory.hpp:77] Creating layer loss1/loss
I0403 19:21:00.742149  9137 net.cpp:91] Creating Layer loss1/loss
I0403 19:21:00.742167  9137 net.cpp:425] loss1/loss <- loss1/classifier_plantvillage_loss1/classifier_plantvillage_0_split_0
I0403 19:21:00.742197  9137 net.cpp:425] loss1/loss <- label_data_1_split_0
…
