…
I0403 19:12:38.161581  8945 net.cpp:313] The NetState phase (1) differed from the phase (0) specified by a rule in layer data
I0403 19:12:38.163305  8945 net.cpp:49] Initializing net from parameters: 
state {
  phase: TEST
}
layer {
  name: "data"
  type: "Data"
  top: "data"
  top: "label"
  include {
    phase: TEST
  }
  transform_param {
    mirror: false
    crop_size: 224
    mean_file: "/home/mohanty/data/final_dataset/lmdb/color-60-40/mean.binaryproto"
  }
  data_param {
    source: "/home/mohanty/data/final_dataset/lmdb/color-60-40/test_db"
    batch_size: 24
    backend: LMDB
  }
}
layer {
  name: "conv1/7x7_s2"
  type: "Convolution"
  bottom: "data"
  top: "conv1/7x7_s2"
  param {
    lr_mult: 1
    decay_mult: 1
  }
  param {
    lr_mult: 2
    decay_mult: 0
  }
  convolution_param {
    num_output: 64
    pad: 3
    kernel_size: 7
    stride: 2
    weight_filler {
      type: "xavier"
      std: 0.1
    }
    bias_filler {
      type: "constant"
      value: 0.2
    }
  }
}
layer {
  name: "conv1/relu_7x7"
  type: "ReLU"
  bottom: "conv1/7x7_s2"
  top: "conv1/7x7_s2"
}
layer {
  name: "pool1/3x3_s2"
  type: "Pooling"
  bottom: "conv1/7x7_s2"
  top: "pool1/3x3_s2"
  pooling_param {
    pool: MAX
    kernel_size: 3
    stride: 2
  }
}
layer {
  name: "pool1/norm1"
  type: "LRN"
  bottom: "pool1/3x3_s2"
  top: "pool1/norm1"
  lrn_param {
    local_size: 5
    alpha: 0.0001
    beta: 0.75
  }
}
layer {
  name: "conv2/3x3_reduce"
  type: "Convolution"
  bottom: "pool1/norm1"
  top: "conv2/3x3_reduce"
  param {
    lr_mult: 1
    decay_mult: 1
  }
  param {
    lr_mult: 2
    decay_mult: 0
  }
  convolution_param {
    num_output: 64
    kernel_size: 1
    weight_filler {
      type: "xavier"
      std: 0.1
    }
    bias_filler {
      type: "constant"
      value: 0.2
    }
  }
}
layer {
  name: "conv2/relu_3x3_reduce"
  type: "ReLU"
  bottom: "conv2/3x3_reduce"
  top: "conv2/3x3_reduce"
}
layer {
  name: "conv2/3x3"
  type: "Convolution"
  bottom: "conv2/3x3_reduce"
  top: "conv2/3x3"
  param {
    lr_mult: 1
    decay_mult: 1
  }
  param {
    lr_mult: 2
    decay_mult: 0
  }
  convolution_param {
    num_output: 192
    pad: 1
    kernel_size: 3
    weight_filler {
      type: "xavier"
      std: 0.03
    }
    bias_filler {
      type: "constant"
      value: 0.2
    }
  }
}
layer {
  name: "conv2/relu_3x3"
  type: "ReLU"
  bottom: "conv2/3x3"
  top: "conv2/3x3"
}
layer {
  name: "conv2/norm2"
  type: "LRN"
  bottom: "conv2/3x3"
  top: "conv2/norm2"
  lrn_param {
    local_size: 5
    alpha: 0.0001
    beta: 0.75
  }
}
layer {
  name: "pool2/3x3_s2"
  type: "Pooling"
  bottom: "conv2/norm2"
  top: "pool2/3x3_s2"
  pooling_param {
    pool: MAX
    kernel_size: 3
    stride: 2
  }
}
layer {
  name: "inception_3a/1x1"
  type: "Convolution"
  bottom: "pool2/3x3_s2"
  top: "inception_3a/1x1"
  param {
    lr_mult: 1
    decay_mult: 1
  }
  param {
    lr_mult: 2
    decay_mult: 0
  }
  convolution_param {
    num_output: 64
    kernel_size: 1
    weight_filler {
      type: "xavier"
      std: 0.03
    }
    bias_filler {
      type: "constant"
      value: 0.2
    }
  }
}
layer {
  name: "inception_3a/relu_1x1"
  type: "ReLU"
  bottom: "inception_3a/1x1"
  top: "inception_3a/1x1"
}
layer {
  name: "inception_3a/3x3_reduce"
  type: "Convolution"
  bottom: "pool2/3x3_s2"
  top: "inception_3a/3x3_reduce"
  param {
    lr_mult: 1
    decay_mult: 1
  }
  param {
    lr_mult: 2
    decay_mult: 0
  }
  convolution_param {
    num_output: 96
    kernel_size: 1
    weight_filler {
      type: "xavier"
      std: 0.09
    }
    bias_filler {
      type: "constant"
      value: 0.2
    }
  }
}
layer {
  name: "inception_3a/relu_3x3_reduce"
  type: "ReLU"
  bottom: "inception_3a/3x3_reduce"
  top: "inception_3a/3x3_reduce"
}
layer {
  name: "inception_3a/3x3"
  type: "Convolution"
  bottom: "inception_3a/3x3_reduce"
  top: "inception_3a/3x3"
  param {
    lr_mult: 1
    decay_mult: 1
  }
  param {
    lr_mult: 2
    decay_mult: 0
  }
  convolution_param {
    num_output: 128
    pad: 1
    kernel_size: 3
    weight_filler {
      type: "xavier"
      std: 0.03
    }
    bias_filler {
      type: "constant"
      value: 0.2
    }
  }
}
layer {
  name: "inception_3a/relu_3x3"
  type: "ReLU"
  bottom: "inception_3a/3x3"
  top: "inception_3a/3x3"
}
layer {
  name: "inception_3a/5x5_reduce"
  type: "Convolution"
  bottom: "pool2/3x3_s2"
  top: "inception_3a/5x5_reduce"
  param {
    lr_mult: 1
    decay_mult: 1
  }
  param {
    lr_mult: 2
    decay_mult: 0
  }
  convolution_param {
    num_output: 16
    kernel_size: 1
    weight_filler {
      type: "xavier"
      std: 0.2
    }
    bias_filler {
      type: "constant"
      value: 0.2
    }
  }
}
layer {
  name: "inception_3a/relu_5x5_reduce"
  type: "ReLU"
  bottom: "inception_3a/5x5_reduce"
  top: "inception_3a/5x5_reduce"
}
layer {
  name: "inception_3a/5x5"
  type: "Convolution"
  bottom: "inception_3a/5x5_reduce"
  top: "inception_3a/5x5"
  param {
    lr_mult: 1
    decay_mult: 1
  }
  param {
    lr_mult: 2
    decay_mult: 0
  }
  convolution_param {
    num_output: 32
    pad: 2
    kernel_size: 5
    weight_filler {
      type: "xavier"
      std: 0.03
    }
    bias_filler {
      type: "constant"
      value: 0.2
    }
  }
}
layer {
  name: "inception_3a/relu_5x5"
  type: "ReLU"
  bottom: "inception_3a/5x5"
  top: "inception_3a/5x5"
}
layer {
  name: "inception_3a/pool"
  type: "Pooling"
  bottom: "pool2/3x3_s2"
  top: "inception_3a/pool"
  pooling_param {
    pool: MAX
    kernel_size: 3
    stride: 1
    pad: 1
  }
}
layer {
  name: "inception_3a/pool_proj"
  type: "Convolution"
  bottom: "inception_3a/pool"
  top: "inception_3a/pool_proj"
  param {
    lr_mult: 1
    decay_mult: 1
  }
  param {
    lr_mult: 2
    decay_mult: 0
  }
  convolution_param {
    num_output: 32
    kernel_size: 1
    weight_filler {
      type: "xavier"
      std: 0.1
    }
    bias_filler {
      type: "constant"
      value: 0.2
    }
  }
}
layer {
  name: "inception_3a/relu_pool_proj"
  type: "ReLU"
  bottom: "inception_3a/pool_proj"
  top: "inception_3a/pool_proj"
}
layer {
  name: "inception_3a/output"
  type: "Concat"
  bottom: "inception_3a/1x1"
  bottom: "inception_3a/3x3"
  bottom: "inception_3a/5x5"
  bottom: "inception_3a/pool_proj"
  top: "inception_3a/output"
}
layer {
  name: "inception_3b/1x1"
  type: "Convolution"
  bottom: "inception_3a/output"
  top: "inception_3b/1x1"
  param {
    lr_mult: 1
    decay_mult: 1
  }
  param {
    lr_mult: 2
    decay_mult: 0
  }
  convolution_param {
    num_output: 128
    kernel_size: 1
    weight_filler {
      type: "xavier"
      std: 0.03
    }
    bias_filler {
      type: "constant"
      value: 0.2
    }
  }
}
layer {
  name: "inception_3b/relu_1x1"
  type: "ReLU"
  bottom: "inception_3b/1x1"
  top: "inception_3b/1x1"
}
layer {
  name: "inception_3b/3x3_reduce"
  type: "Convolution"
  bottom: "inception_3a/output"
  top: "inception_3b/3x3_reduce"
  param {
    lr_mult: 1
    decay_mult: 1
  }
  param {
    lr_mult: 2
    decay_mult: 0
  }
  convolution_param {
    num_output: 128
    kernel_size: 1
    weight_filler {
      type: "xavier"
      std: 0.09
    }
    bias_filler {
      type: "constant"
      value: 0.2
    }
  }
}
layer {
  name: "inception_3b/relu_3x3_reduce"
  type: "ReLU"
  bottom: "inception_3b/3x3_reduce"
  top: "inception_3b/3x3_reduce"
}
layer {
  name: "inception_3b/3x3"
  type: "Convolution"
  bottom: "inception_3b/3x3_reduce"
  top: "inception_3b/3x3"
  param {
    lr_mult: 1
    decay_mult: 1
  }
  param {
    lr_mult: 2
    decay_mult: 0
  }
  convolution_param {
    num_output: 192
    pad: 1
    kernel_size: 3
    weight_filler {
      type: "xavier"
      std: 0.03
    }
    bias_filler {
      type: "constant"
      value: 0.2
    }
  }
}
layer {
  name: "inception_3b/relu_3x3"
  type: "ReLU"
  bottom: "inception_3b/3x3"
  top: "inception_3b/3x3"
}
layer {
  name: "inception_3b/5x5_reduce"
  type: "Convolution"
  bottom: "inception_3a/output"
  top: "inception_3b/5x5_reduce"
  param {
    lr_mult: 1
    decay_mult: 1
  }
  param {
    lr_mult: 2
    decay_mult: 0
  }
  convolution_param {
    num_output: 32
    kernel_size: 1
    weight_filler {
      type: "xavier"
      std: 0.2
    }
    bias_filler {
      type: "constant"
      value: 0.2
    }
  }
}
layer {
  name: "inception_3b/relu_5x5_reduce"
  type: "ReLU"
  bottom: "inception_3b/5x5_reduce"
  top: "inception_3b/5x5_reduce"
}
layer {
  name: "inception_3b/5x5"
  type: "Convolution"
  bottom: "inception_3b/5x5_reduce"
  top: "inception_3b/5x5"
  param {
    lr_mult: 1
    decay_mult: 1
  }
  param {
    lr_mult: 2
    decay_mult: 0
  }
  convolution_param {
    num_output: 96
    pad: 2
    kernel_size: 5
    weight_filler {
      type: "xavier"
      std: 0.03
    }
    bias_filler {
      type: "constant"
      value: 0.2
    }
  }
}
layer {
  name: "inception_3b/relu_5x5"
  type: "ReLU"
  bottom: "inception_3b/5x5"
  top: "inception_3b/5x5"
}
layer {
  name: "inception_3b/pool"
  type: "Pooling"
  bottom: "inception_3a/output"
  top: "inception_3b/pool"
  pooling_param {
    pool: MAX
    kernel_size: 3
    stride: 1
    pad: 1
  }
}
layer {
  name: "inception_3b/pool_proj"
  type: "Convolution"
  bottom: "inception_3b/pool"
  top: "inception_3b/pool_proj"
  param {
    lr_mult: 1
    decay_mult: 1
  }
  param {
    lr_mult: 2
    decay_mult: 0
  }
  convolution_param {
    num_output: 64
    kernel_size: 1
    weight_filler {
      type: "xavier"
      std: 0.1
    }
    bias_filler {
      type: "constant"
      value: 0.2
    }
  }
}
layer {
  name: "inception_3b/relu_pool_proj"
  type: "ReLU"
  bottom: "inception_3b/pool_proj"
  top: "inception_3b/pool_proj"
}
layer {
  name: "inception_3b/output"
  type: "Concat"
  bottom: "inception_3b/1x1"
  bottom: "inception_3b/3x3"
  bottom: "inception_3b/5x5"
  bottom: "inception_3b/pool_proj"
  top: "inception_3b/output"
}
layer {
  name: "pool3/3x3_s2"
  type: "Pooling"
  bottom: "inception_3b/output"
  top: "pool3/3x3_s2"
  pooling_param {
    pool: MAX
    kernel_size: 3
    stride: 2
  }
}
layer {
  name: "inception_4a/1x1"
  type: "Convolution"
  bottom: "pool3/3x3_s2"
  top: "inception_4a/1x1"
  param {
    lr_mult: 1
    decay_mult: 1
  }
  param {
    lr_mult: 2
    decay_mult: 0
  }
  convolution_param {
    num_output: 192
    kernel_size: 1
    weight_filler {
      type: "xavier"
      std: 0.03
    }
    bias_filler {
      type: "constant"
      value: 0.2
    }
  }
}
layer {
  name: "inception_4a/relu_1x1"
  type: "ReLU"
  bottom: "inception_4a/1x1"
  top: "inception_4a/1x1"
}
layer {
  name: "inception_4a/3x3_reduce"
  type: "Convolution"
  bottom: "pool3/3x3_s2"
  top: "inception_4a/3x3_reduce"
  param {
    lr_mult: 1
    decay_mult: 1
  }
  param {
    lr_mult: 2
    decay_mult: 0
  }
  convolution_param {
    num_output: 96
    kernel_size: 1
    weight_filler {
      type: "xavier"
      std: 0.09
    }
    bias_filler {
      type: "constant"
      value: 0.2
    }
  }
}
layer {
  name: "inception_4a/relu_3x3_reduce"
  type: "ReLU"
  bottom: "inception_4a/3x3_reduce"
  top: "inception_4a/3x3_reduce"
}
layer {
  name: "inception_4a/3x3"
  type: "Convolution"
  bottom: "inception_4a/3x3_reduce"
  top: "inception_4a/3x3"
  param {
    lr_mult: 1
    decay_mult: 1
  }
  param {
    lr_mult: 2
    decay_mult: 0
  }
  convolution_param {
    num_output: 208
    pad: 1
    kernel_size: 3
    weight_filler {
      type: "xavier"
      std: 0.03
    }
    bias_filler {
      type: "constant"
      value: 0.2
    }
  }
}
layer {
  name: "inception_4a/relu_3x3"
  type: "ReLU"
  bottom: "inception_4a/3x3"
  top: "inception_4a/3x3"
}
layer {
  name: "inception_4a/5x5_reduce"
  type: "Convolution"
  bottom: "pool3/3x3_s2"
  top: "inception_4a/5x5_reduce"
  param {
    lr_mult: 1
    decay_mult: 1
  }
  param {
    lr_mult: 2
    decay_mult: 0
  }
  convolution_param {
    num_output: 16
    kernel_size: 1
    weight_filler {
      type: "xavier"
      std: 0.2
    }
    bias_filler {
      type: "constant"
      value: 0.2
    }
  }
}
layer {
  name: "inception_4a/relu_5x5_reduce"
  type: "ReLU"
  bottom: "inception_4a/5x5_reduce"
  top: "inception_4a/5x5_reduce"
}
layer {
  name: "inception_4a/5x5"
  type: "Convolution"
  bottom: "inception_4a/5x5_reduce"
  top: "inception_4a/5x5"
  param {
    lr_mult: 1
    decay_mult: 1
  }
  param {
    lr_mult: 2
    decay_mult: 0
  }
  convolution_param {
    num_output: 48
    pad: 2
    kernel_size: 5
    weight_filler {
      type: "xavier"
      std: 0.03
    }
    bias_filler {
      type: "constant"
      value: 0.2
    }
  }
}
layer {
  name: "inception_4a/relu_5x5"
  type: "ReLU"
  bottom: "inception_4a/5x5"
  top: "inception_4a/5x5"
}
layer {
  name: "inception_4a/pool"
  type: "Pooling"
  bottom: "pool3/3x3_s2"
  top: "inception_4a/pool"
  pooling_param {
    pool: MAX
    kernel_size: 3
    stride: 1
    pad: 1
  }
}
layer {
  name: "inception_4a/pool_proj"
  type: "Convolution"
  bottom: "inception_4a/pool"
  top: "inception_4a/pool_proj"
  param {
    lr_mult: 1
    decay_mult: 1
  }
  param {
    lr_mult: 2
    decay_mult: 0
  }
  convolution_param {
    num_output: 64
    kernel_size: 1
    weight_filler {
      type: "xavier"
      std: 0.1
    }
    bias_filler {
      type: "constant"
      value: 0.2
    }
  }
}
layer {
  name: "inception_4a/relu_pool_proj"
  type: "ReLU"
  bottom: "inception_4a/pool_proj"
  top: "inception_4a/pool_proj"
}
layer {
  name: "inception_4a/output"
  type: "Concat"
  bottom: "inception_4a/1x1"
  bottom: "inception_4a/3x3"
  bottom: "inception_4a/5x5"
  bottom: "inception_4a/pool_proj"
  top: "inception_4a/output"
}
layer {
  name: "loss1/ave_pool"
  type: "Pooling"
  bottom: "inception_4a/output"
  top: "loss1/ave_pool"
  pooling_param {
    pool: AVE
    kernel_size: 5
    stride: 3
  }
}
layer {
  name: "loss1/conv"
  type: "Convolution"
  bottom: "loss1/ave_pool"
  top: "loss1/conv"
  param {
    lr_mult: 1
    decay_mult: 1
  }
  param {
    lr_mult: 2
    decay_mult: 0
  }
  convolution_param {
    num_output: 128
    kernel_size: 1
    weight_filler {
      type: "xavier"
      std: 0.08
    }
    bias_filler {
      type: "constant"
      value: 0.2
    }
  }
}
layer {
  name: "loss1/relu_conv"
  type: "ReLU"
  bottom: "loss1/conv"
  top: "loss1/conv"
}
layer {
  name: "loss1/fc"
  type: "InnerProduct"
  bottom: "loss1/conv"
  top: "loss1/fc"
  param {
    lr_mult: 1
    decay_mult: 1
  }
  param {
    lr_mult: 2
    decay_mult: 0
  }
  inner_product_param {
    num_output: 1024
    weight_filler {
      type: "xavier"
      std: 0.02
    }
    bias_filler {
      type: "constant"
      value: 0.2
    }
  }
}
layer {
  name: "loss1/relu_fc"
  type: "ReLU"
  bottom: "loss1/fc"
  top: "loss1/fc"
}
layer {
  name: "loss1/drop_fc"
  type: "Dropout"
  bottom: "loss1/fc"
  top: "loss1/fc"
  dropout_param {
    dropout_ratio: 0.7
  }
}
layer {
  name: "loss1/classifier_plantvillage"
  type: "InnerProduct"
  bottom: "loss1/fc"
  top: "loss1/classifier_plantvillage"
  param {
    lr_mult: 1
    decay_mult: 1
  }
  param {
    lr_mult: 2
    decay_mult: 0
  }
  inner_product_param {
    num_output: 38
    weight_filler {
      type: "xavier"
      std: 0.0009765625
    }
    bias_filler {
      type: "constant"
      value: 0
    }
  }
}
layer {
  name: "inception_4b/1x1"
  type: "Convolution"
  bottom: "inception_4a/output"
  top: "inception_4b/1x1"
  param {
    lr_mult: 1
    decay_mult: 1
  }
  param {
    lr_mult: 2
    decay_mult: 0
  }
  convolution_param {
    num_output: 160
    kernel_size: 1
    weight_filler {
      type: "xavier"
      std: 0.03
    }
    bias_filler {
      type: "constant"
      value: 0.2
    }
  }
}
layer {
  name: "inception_4b/relu_1x1"
  type: "ReLU"
  bottom: "inception_4b/1x1"
  top: "inception_4b/1x1"
}
layer {
  name: "inception_4b/3x3_reduce"
  type: "Convolution"
  bottom: "inception_4a/output"
  top: "inception_4b/3x3_reduce"
  param {
    lr_mult: 1
    decay_mult: 1
  }
  param {
    lr_mult: 2
    decay_mult: 0
  }
  convolution_param {
    num_output: 112
    kernel_size: 1
    weight_filler {
      type: "xavier"
      std: 0.09
    }
    bias_filler {
      type: "constant"
      value: 0.2
    }
  }
}
layer {
  name: "inception_4b/relu_3x3_reduce"
  type: "ReLU"
  bottom: "inception_4b/3x3_reduce"
  top: "inception_4b/3x3_reduce"
}
layer {
  name: "inception_4b/3x3"
  type: "Convolution"
  bottom: "inception_4b/3x3_reduce"
  top: "inception_4b/3x3"
  param {
    lr_mult: 1
    decay_mult: 1
  }
  param {
    lr_mult: 2
    decay_mult: 0
  }
  convolution_param {
    num_output: 224
    pad: 1
    kernel_size: 3
    weight_filler {
      type: "xavier"
      std: 0.03
    }
    bias_filler {
      type: "constant"
      value: 0.2
    }
  }
}
layer {
  name: "inception_4b/relu_3x3"
  type: "ReLU"
  bottom: "inception_4b/3x3"
  top: "inception_4b/3x3"
}
layer {
  name: "inception_4b/5x5_reduce"
  type: "Convolution"
  bottom: "inception_4a/output"
  top: "inception_4b/5x5_reduce"
  param {
    lr_mult: 1
    decay_mult: 1
  }
  param {
    lr_mult: 2
    decay_mult: 0
  }
  convolution_param {
    num_output: 24
    kernel_size: 1
    weight_filler {
      type: "xavier"
      std: 0.2
    }
    bias_filler {
      type: "constant"
      value: 0.2
    }
  }
}
layer {
  name: "inception_4b/relu_5x5_reduce"
  type: "ReLU"
  bottom: "inception_4b/5x5_reduce"
  top: "inception_4b/5x5_reduce"
}
layer {
  name: "inception_4b/5x5"
  type: "Convolution"
  bottom: "inception_4b/5x5_reduce"
  top: "inception_4b/5x5"
  param {
    lr_mult: 1
    decay_mult: 1
  }
  param {
    lr_mult: 2
    decay_mult: 0
  }
  convolution_param {
    num_output: 64
    pad: 2
    kernel_size: 5
    weight_filler {
      type: "xavier"
      std: 0.03
    }
    bias_filler {
      type: "constant"
      value: 0.2
    }
  }
}
layer {
  name: "inception_4b/relu_5x5"
  type: "ReLU"
  bottom: "inception_4b/5x5"
  top: "inception_4b/5x5"
}
layer {
  name: "inception_4b/pool"
  type: "Pooling"
  bottom: "inception_4a/output"
  top: "inception_4b/pool"
  pooling_param {
    pool: MAX
    kernel_size: 3
    stride: 1
    pad: 1
  }
}
layer {
  name: "inception_4b/pool_proj"
  type: "Convolution"
  bottom: "inception_4b/pool"
  top: "inception_4b/pool_proj"
  param {
    lr_mult: 1
    decay_mult: 1
  }
  param {
    lr_mult: 2
    decay_mult: 0
  }
  convolution_param {
    num_output: 64
    kernel_size: 1
    weight_filler {
      type: "xavier"
      std: 0.1
    }
    bias_filler {
      type: "constant"
      value: 0.2
    }
  }
}
layer {
  name: "inception_4b/relu_pool_proj"
  type: "ReLU"
  bottom: "inception_4b/pool_proj"
  top: "inception_4b/pool_proj"
}
layer {
  name: "inception_4b/output"
  type: "Concat"
  bottom: "inception_4b/1x1"
  bottom: "inception_4b/3x3"
  bottom: "inception_4b/5x5"
  bottom: "inception_4b/pool_proj"
  top: "inception_4b/output"
}
layer {
  name: "inception_4c/1x1"
  type: "Convolution"
  bottom: "inception_4b/output"
  top: "inception_4c/1x1"
  param {
    lr_mult: 1
    decay_mult: 1
  }
  param {
    lr_mult: 2
    decay_mult: 0
  }
  convolution_param {
    num_output: 128
    kernel_size: 1
    weight_filler {
      type: "xavier"
      std: 0.03
    }
    bias_filler {
      type: "constant"
      value: 0.2
    }
  }
}
layer {
  name: "inception_4c/relu_1x1"
  type: "ReLU"
  bottom: "inception_4c/1x1"
  top: "inception_4c/1x1"
}
layer {
  name: "inception_4c/3x3_reduce"
  type: "Convolution"
  bottom: "inception_4b/output"
  top: "inception_4c/3x3_reduce"
  param {
    lr_mult: 1
    decay_mult: 1
  }
  param {
    lr_mult: 2
    decay_mult: 0
  }
  convolution_param {
    num_output: 128
    kernel_size: 1
    weight_filler {
      type: "xavier"
      std: 0.09
    }
    bias_filler {
      type: "constant"
      value: 0.2
    }
  }
}
layer {
  name: "inception_4c/relu_3x3_reduce"
  type: "ReLU"
  bottom: "inception_4c/3x3_reduce"
  top: "inception_4c/3x3_reduce"
}
layer {
  name: "inception_4c/3x3"
  type: "Convolution"
  bottom: "inception_4c/3x3_reduce"
  top: "inception_4c/3x3"
  param {
    lr_mult: 1
    decay_mult: 1
  }
  param {
    lr_mult: 2
    decay_mult: 0
  }
  convolution_param {
    num_output: 256
    pad: 1
    kernel_size: 3
    weight_filler {
      type: "xavier"
      std: 0.03
    }
    bias_filler {
      type: "constant"
      value: 0.2
    }
  }
}
layer {
  name: "inception_4c/relu_3x3"
  type: "ReLU"
  bottom: "inception_4c/3x3"
  top: "inception_4c/3x3"
}
layer {
  name: "inception_4c/5x5_reduce"
  type: "Convolution"
  bottom: "inception_4b/output"
  top: "inception_4c/5x5_reduce"
  param {
    lr_mult: 1
    decay_mult: 1
  }
  param {
    lr_mult: 2
    decay_mult: 0
  }
  convolution_param {
    num_output: 24
    kernel_size: 1
    weight_filler {
      type: "xavier"
      std: 0.2
    }
    bias_filler {
      type: "constant"
      value: 0.2
    }
  }
}
layer {
  name: "inception_4c/relu_5x5_reduce"
  type: "ReLU"
  bottom: "inception_4c/5x5_reduce"
  top: "inception_4c/5x5_reduce"
}
layer {
  name: "inception_4c/5x5"
  type: "Convolution"
  bottom: "inception_4c/5x5_reduce"
  top: "inception_4c/5x5"
  param {
    lr_mult: 1
    decay_mult: 1
  }
  param {
    lr_mult: 2
    decay_mult: 0
  }
  convolution_param {
    num_output: 64
    pad: 2
    kernel_size: 5
    weight_filler {
      type: "xavier"
      std: 0.03
    }
    bias_filler {
      type: "constant"
      value: 0.2
    }
  }
}
layer {
  name: "inception_4c/relu_5x5"
  type: "ReLU"
  bottom: "inception_4c/5x5"
  top: "inception_4c/5x5"
}
layer {
  name: "inception_4c/pool"
  type: "Pooling"
  bottom: "inception_4b/output"
  top: "inception_4c/pool"
  pooling_param {
    pool: MAX
    kernel_size: 3
    stride: 1
    pad: 1
  }
}
layer {
  name: "inception_4c/pool_proj"
  type: "Convolution"
  bottom: "inception_4c/pool"
  top: "inception_4c/pool_proj"
  param {
    lr_mult: 1
    decay_mult: 1
  }
  param {
    lr_mult: 2
    decay_mult: 0
  }
  convolution_param {
    num_output: 64
    kernel_size: 1
    weight_filler {
      type: "xavier"
      std: 0.1
    }
    bias_filler {
      type: "constant"
      value: 0.2
    }
  }
}
layer {
  name: "inception_4c/relu_pool_proj"
  type: "ReLU"
  bottom: "inception_4c/pool_proj"
  top: "inception_4c/pool_proj"
}
layer {
  name: "inception_4c/output"
  type: "Concat"
  bottom: "inception_4c/1x1"
  bottom: "inception_4c/3x3"
  bottom: "inception_4c/5x5"
  bottom: "inception_4c/pool_proj"
  top: "inception_4c/output"
}
layer {
  name: "inception_4d/1x1"
  type: "Convolution"
  bottom: "inception_4c/output"
  top: "inception_4d/1x1"
  param {
    lr_mult: 1
    decay_mult: 1
  }
  param {
    lr_mult: 2
    decay_mult: 0
  }
  convolution_param {
    num_output: 112
    kernel_size: 1
    weight_filler {
      type: "xavier"
      std: 0.03
    }
    bias_filler {
      type: "constant"
      value: 0.2
    }
  }
}
layer {
  name: "inception_4d/relu_1x1"
  type: "ReLU"
  bottom: "inception_4d/1x1"
  top: "inception_4d/1x1"
}
layer {
  name: "inception_4d/3x3_reduce"
  type: "Convolution"
  bottom: "inception_4c/output"
  top: "inception_4d/3x3_reduce"
  param {
    lr_mult: 1
    decay_mult: 1
  }
  param {
    lr_mult: 2
    decay_mult: 0
  }
  convolution_param {
    num_output: 144
    kernel_size: 1
    weight_filler {
      type: "xavier"
      std: 0.09
    }
    bias_filler {
      type: "constant"
      value: 0.2
    }
  }
}
layer {
  name: "inception_4d/relu_3x3_reduce"
  type: "ReLU"
  bottom: "inception_4d/3x3_reduce"
  top: "inception_4d/3x3_reduce"
}
layer {
  name: "inception_4d/3x3"
  type: "Convolution"
  bottom: "inception_4d/3x3_reduce"
  top: "inception_4d/3x3"
  param {
    lr_mult: 1
    decay_mult: 1
  }
  param {
    lr_mult: 2
    decay_mult: 0
  }
  convolution_param {
    num_output: 288
    pad: 1
    kernel_size: 3
    weight_filler {
      type: "xavier"
      std: 0.03
    }
    bias_filler {
      type: "constant"
      value: 0.2
    }
  }
}
layer {
  name: "inception_4d/relu_3x3"
  type: "ReLU"
  bottom: "inception_4d/3x3"
  top: "inception_4d/3x3"
}
layer {
  name: "inception_4d/5x5_reduce"
  type: "Convolution"
  bottom: "inception_4c/output"
  top: "inception_4d/5x5_reduce"
  param {
    lr_mult: 1
    decay_mult: 1
  }
  param {
    lr_mult: 2
    decay_mult: 0
  }
  convolution_param {
    num_output: 32
    kernel_size: 1
    weight_filler {
      type: "xavier"
      std: 0.2
    }
    bias_filler {
      type: "constant"
      value: 0.2
    }
  }
}
layer {
  name: "inception_4d/relu_5x5_reduce"
  type: "ReLU"
  bottom: "inception_4d/5x5_reduce"
  top: "inception_4d/5x5_reduce"
}
layer {
  name: "inception_4d/5x5"
  type: "Convolution"
  bottom: "inception_4d/5x5_reduce"
  top: "inception_4d/5x5"
  param {
    lr_mult: 1
    decay_mult: 1
  }
  param {
    lr_mult: 2
    decay_mult: 0
  }
  convolution_param {
    num_output: 64
    pad: 2
    kernel_size: 5
    weight_filler {
      type: "xavier"
      std: 0.03
    }
    bias_filler {
      type: "constant"
      value: 0.2
    }
  }
}
layer {
  name: "inception_4d/relu_5x5"
  type: "ReLU"
  bottom: "inception_4d/5x5"
  top: "inception_4d/5x5"
}
layer {
  name: "inception_4d/pool"
  type: "Pooling"
  bottom: "inception_4c/output"
  top: "inception_4d/pool"
  pooling_param {
    pool: MAX
    kernel_size: 3
    stride: 1
    pad: 1
  }
}
layer {
  name: "inception_4d/pool_proj"
  type: "Convolution"
  bottom: "inception_4d/pool"
  top: "inception_4d/pool_proj"
  param {
    lr_mult: 1
    decay_mult: 1
  }
  param {
    lr_mult: 2
    decay_mult: 0
  }
  convolution_param {
    num_output: 64
    kernel_size: 1
    weight_filler {
      type: "xavier"
      std: 0.1
    }
    bias_filler {
      type: "constant"
      value: 0.2
    }
  }
}
layer {
  name: "inception_4d/relu_pool_proj"
  type: "ReLU"
  bottom: "inception_4d/pool_proj"
  top: "inception_4d/pool_proj"
}
layer {
  name: "inception_4d/output"
  type: "Concat"
  bottom: "inception_4d/1x1"
  bottom: "inception_4d/3x3"
  bottom: "inception_4d/5x5"
  bottom: "inception_4d/pool_proj"
  top: "inception_4d/output"
}
layer {
  name: "loss2/ave_pool"
  type: "Pooling"
  bottom: "inception_4d/output"
  top: "loss2/ave_pool"
  pooling_param {
    pool: AVE
    kernel_size: 5
    stride: 3
  }
}
layer {
  name: "loss2/conv"
  type: "Convolution"
  bottom: "loss2/ave_pool"
  top: "loss2/conv"
  param {
    lr_mult: 1
    decay_mult: 1
  }
  param {
    lr_mult: 2
    decay_mult: 0
  }
  convolution_param {
    num_output: 128
    kernel_size: 1
    weight_filler {
      type: "xavier"
      std: 0.08
    }
    bias_filler {
      type: "constant"
      value: 0.2
    }
  }
}
layer {
  name: "loss2/relu_conv"
  type: "ReLU"
  bottom: "loss2/conv"
  top: "loss2/conv"
}
layer {
  name: "loss2/fc"
  type: "InnerProduct"
  bottom: "loss2/conv"
  top: "loss2/fc"
  param {
    lr_mult: 1
    decay_mult: 1
  }
  param {
    lr_mult: 2
    decay_mult: 0
  }
  inner_product_param {
    num_output: 1024
    weight_filler {
      type: "xavier"
      std: 0.02
    }
    bias_filler {
      type: "constant"
      value: 0.2
    }
  }
}
layer {
  name: "loss2/relu_fc"
  type: "ReLU"
  bottom: "loss2/fc"
  top: "loss2/fc"
}
layer {
  name: "loss2/drop_fc"
  type: "Dropout"
  bottom: "loss2/fc"
  top: "loss2/fc"
  dropout_param {
    dropout_ratio: 0.7
  }
}
layer {
  name: "loss2/classifier_plantvillage"
  type: "InnerProduct"
  bottom: "loss2/fc"
  top: "loss2/classifier_plantvillage"
  param {
    lr_mult: 1
    decay_mult: 1
  }
  param {
    lr_mult: 2
    decay_mult: 0
  }
  inner_product_param {
    num_output: 38
    weight_filler {
      type: "xavier"
      std: 0.0009765625
    }
    bias_filler {
      type: "constant"
      value: 0
    }
  }
}
layer {
  name: "inception_4e/1x1"
  type: "Convolution"
  bottom: "inception_4d/output"
  top: "inception_4e/1x1"
  param {
    lr_mult: 1
    decay_mult: 1
  }
  param {
    lr_mult: 2
    decay_mult: 0
  }
  convolution_param {
    num_output: 256
    kernel_size: 1
    weight_filler {
      type: "xavier"
      std: 0.03
    }
    bias_filler {
      type: "constant"
      value: 0.2
    }
  }
}
layer {
  name: "inception_4e/relu_1x1"
  type: "ReLU"
  bottom: "inception_4e/1x1"
  top: "inception_4e/1x1"
}
layer {
  name: "inception_4e/3x3_reduce"
  type: "Convolution"
  bottom: "inception_4d/output"
  top: "inception_4e/3x3_reduce"
  param {
    lr_mult: 1
    decay_mult: 1
  }
  param {
    lr_mult: 2
    decay_mult: 0
  }
  convolution_param {
    num_output: 160
    kernel_size: 1
    weight_filler {
      type: "xavier"
      std: 0.09
    }
    bias_filler {
      type: "constant"
      value: 0.2
    }
  }
}
layer {
  name: "inception_4e/relu_3x3_reduce"
  type: "ReLU"
  bottom: "inception_4e/3x3_reduce"
  top: "inception_4e/3x3_reduce"
}
layer {
  name: "inception_4e/3x3"
  type: "Convolution"
  bottom: "inception_4e/3x3_reduce"
  top: "inception_4e/3x3"
  param {
    lr_mult: 1
    decay_mult: 1
  }
  param {
    lr_mult: 2
    decay_mult: 0
  }
  convolution_param {
    num_output: 320
    pad: 1
    kernel_size: 3
    weight_filler {
      type: "xavier"
      std: 0.03
    }
    bias_filler {
      type: "constant"
      value: 0.2
    }
  }
}
layer {
  name: "inception_4e/relu_3x3"
  type: "ReLU"
  bottom: "inception_4e/3x3"
  top: "inception_4e/3x3"
}
layer {
  name: "inception_4e/5x5_reduce"
  type: "Convolution"
  bottom: "inception_4d/output"
  top: "inception_4e/5x5_reduce"
  param {
    lr_mult: 1
    decay_mult: 1
  }
  param {
    lr_mult: 2
    decay_mult: 0
  }
  convolution_param {
    num_output: 32
    kernel_size: 1
    weight_filler {
      type: "xavier"
      std: 0.2
    }
    bias_filler {
      type: "constant"
      value: 0.2
    }
  }
}
layer {
  name: "inception_4e/relu_5x5_reduce"
  type: "ReLU"
  bottom: "inception_4e/5x5_reduce"
  top: "inception_4e/5x5_reduce"
}
layer {
  name: "inception_4e/5x5"
  type: "Convolution"
  bottom: "inception_4e/5x5_reduce"
  top: "inception_4e/5x5"
  p
I0403 19:12:38.164975  8945 layer_factory.hpp:77] Creating layer data
I0403 19:12:38.165572  8945 net.cpp:91] Creating Layer data
I0403 19:12:38.165603  8945 net.cpp:399] data -> data
I0403 19:12:38.165658  8945 net.cpp:399] data -> label
I0403 19:12:38.165695  8945 data_transformer.cpp:25] Loading mean file from: /home/mohanty/data/final_dataset/lmdb/color-60-40/mean.binaryproto
I0403 19:12:38.286206  8948 db_lmdb.cpp:38] Opened lmdb /home/mohanty/data/final_dataset/lmdb/color-60-40/test_db
I0403 19:12:38.311416  8945 data_layer.cpp:41] output data size: 24,3,224,224
I0403 19:12:38.345216  8945 net.cpp:141] Setting up data
I0403 19:12:38.345298  8945 net.cpp:148] Top shape: 24 3 224 224 (3612672)
I0403 19:12:38.345321  8945 net.cpp:148] Top shape: 24 (24)
I0403 19:12:38.345337  8945 net.cpp:156] Memory required for data: 14450784
I0403 19:12:38.345368  8945 layer_factory.hpp:77] Creating layer label_data_1_split
I0403 19:12:38.345397  8945 net.cpp:91] Creating Layer label_data_1_split
I0403 19:12:38.345417  8945 net.cpp:425] label_data_1_split <- label
I0403 19:12:38.345458  8945 net.cpp:399] label_data_1_split -> label_data_1_split_0
I0403 19:12:38.345489  8945 net.cpp:399] label_data_1_split -> label_data_1_split_1
I0403 19:12:38.345510  8945 net.cpp:399] label_data_1_split -> label_data_1_split_2
I0403 19:12:38.345532  8945 net.cpp:399] label_data_1_split -> label_data_1_split_3
I0403 19:12:38.345552  8945 net.cpp:399] label_data_1_split -> label_data_1_split_4
I0403 19:12:38.345574  8945 net.cpp:399] label_data_1_split -> label_data_1_split_5
I0403 19:12:38.345594  8945 net.cpp:399] label_data_1_split -> label_data_1_split_6
I0403 19:12:38.345613  8945 net.cpp:399] label_data_1_split -> label_data_1_split_7
I0403 19:12:38.345633  8945 net.cpp:399] label_data_1_split -> label_data_1_split_8
I0403 19:12:38.345654  8945 net.cpp:399] label_data_1_split -> label_data_1_split_9
I0403 19:12:38.345767  8945 net.cpp:141] Setting up label_data_1_split
I0403 19:12:38.345793  8945 net.cpp:148] Top shape: 24 (24)
I0403 19:12:38.345811  8945 net.cpp:148] Top shape: 24 (24)
I0403 19:12:38.345827  8945 net.cpp:148] Top shape: 24 (24)
I0403 19:12:38.345844  8945 net.cpp:148] Top shape: 24 (24)
I0403 19:12:38.345860  8945 net.cpp:148] Top shape: 24 (24)
I0403 19:12:38.345875  8945 net.cpp:148] Top shape: 24 (24)
I0403 19:12:38.345891  8945 net.cpp:148] Top shape: 24 (24)
I0403 19:12:38.345907  8945 net.cpp:148] Top shape: 24 (24)
I0403 19:12:38.345924  8945 net.cpp:148] Top shape: 24 (24)
I0403 19:12:38.345940  8945 net.cpp:148] Top shape: 24 (24)
I0403 19:12:38.345991  8945 net.cpp:156] Memory required for data: 14451744
I0403 19:12:38.346009  8945 layer_factory.hpp:77] Creating layer conv1/7x7_s2
I0403 19:12:38.346043  8945 net.cpp:91] Creating Layer conv1/7x7_s2
I0403 19:12:38.346062  8945 net.cpp:425] conv1/7x7_s2 <- data
I0403 19:12:38.346081  8945 net.cpp:399] conv1/7x7_s2 -> conv1/7x7_s2
I0403 19:12:38.490960  8945 net.cpp:141] Setting up conv1/7x7_s2
I0403 19:12:38.491015  8945 net.cpp:148] Top shape: 24 64 112 112 (19267584)
I0403 19:12:38.491034  8945 net.cpp:156] Memory required for data: 91522080
I0403 19:12:38.491073  8945 layer_factory.hpp:77] Creating layer conv1/relu_7x7
I0403 19:12:38.491101  8945 net.cpp:91] Creating Layer conv1/relu_7x7
I0403 19:12:38.491122  8945 net.cpp:425] conv1/relu_7x7 <- conv1/7x7_s2
I0403 19:12:38.491142  8945 net.cpp:386] conv1/relu_7x7 -> conv1/7x7_s2 (in-place)
I0403 19:12:38.491479  8945 net.cpp:141] Setting up conv1/relu_7x7
I0403 19:12:38.491508  8945 net.cpp:148] Top shape: 24 64 112 112 (19267584)
I0403 19:12:38.491523  8945 net.cpp:156] Memory required for data: 168592416
I0403 19:12:38.491539  8945 layer_factory.hpp:77] Creating layer pool1/3x3_s2
I0403 19:12:38.491564  8945 net.cpp:91] Creating Layer pool1/3x3_s2
I0403 19:12:38.491582  8945 net.cpp:425] pool1/3x3_s2 <- conv1/7x7_s2
I0403 19:12:38.491601  8945 net.cpp:399] pool1/3x3_s2 -> pool1/3x3_s2
I0403 19:12:38.491680  8945 net.cpp:141] Setting up pool1/3x3_s2
I0403 19:12:38.491704  8945 net.cpp:148] Top shape: 24 64 56 56 (4816896)
I0403 19:12:38.491719  8945 net.cpp:156] Memory required for data: 187860000
I0403 19:12:38.491734  8945 layer_factory.hpp:77] Creating layer pool1/norm1
I0403 19:12:38.491762  8945 net.cpp:91] Creating Layer pool1/norm1
I0403 19:12:38.491780  8945 net.cpp:425] pool1/norm1 <- pool1/3x3_s2
I0403 19:12:38.491798  8945 net.cpp:399] pool1/norm1 -> pool1/norm1
I0403 19:12:38.492107  8945 net.cpp:141] Setting up pool1/norm1
I0403 19:12:38.492135  8945 net.cpp:148] Top shape: 24 64 56 56 (4816896)
I0403 19:12:38.492151  8945 net.cpp:156] Memory required for data: 207127584
I0403 19:12:38.492177  8945 layer_factory.hpp:77] Creating layer conv2/3x3_reduce
I0403 19:12:38.492208  8945 net.cpp:91] Creating Layer conv2/3x3_reduce
I0403 19:12:38.492226  8945 net.cpp:425] conv2/3x3_reduce <- pool1/norm1
I0403 19:12:38.492246  8945 net.cpp:399] conv2/3x3_reduce -> conv2/3x3_reduce
I0403 19:12:38.493717  8945 net.cpp:141] Setting up conv2/3x3_reduce
I0403 19:12:38.493747  8945 net.cpp:148] Top shape: 24 64 56 56 (4816896)
I0403 19:12:38.493775  8945 net.cpp:156] Memory required for data: 226395168
I0403 19:12:38.493796  8945 layer_factory.hpp:77] Creating layer conv2/relu_3x3_reduce
I0403 19:12:38.493814  8945 net.cpp:91] Creating Layer conv2/relu_3x3_reduce
I0403 19:12:38.493834  8945 net.cpp:425] conv2/relu_3x3_reduce <- conv2/3x3_reduce
I0403 19:12:38.493851  8945 net.cpp:386] conv2/relu_3x3_reduce -> conv2/3x3_reduce (in-place)
I0403 19:12:38.494112  8945 net.cpp:141] Setting up conv2/relu_3x3_reduce
I0403 19:12:38.494139  8945 net.cpp:148] Top shape: 24 64 56 56 (4816896)
I0403 19:12:38.494154  8945 net.cpp:156] Memory required for data: 245662752
I0403 19:12:38.494169  8945 layer_factory.hpp:77] Creating layer conv2/3x3
I0403 19:12:38.494194  8945 net.cpp:91] Creating Layer conv2/3x3
I0403 19:12:38.494211  8945 net.cpp:425] conv2/3x3 <- conv2/3x3_reduce
I0403 19:12:38.494235  8945 net.cpp:399] conv2/3x3 -> conv2/3x3
I0403 19:12:38.496572  8945 net.cpp:141] Setting up conv2/3x3
I0403 19:12:38.496601  8945 net.cpp:148] Top shape: 24 192 56 56 (14450688)
I0403 19:12:38.496618  8945 net.cpp:156] Memory required for data: 303465504
I0403 19:12:38.496639  8945 layer_factory.hpp:77] Creating layer conv2/relu_3x3
I0403 19:12:38.496659  8945 net.cpp:91] Creating Layer conv2/relu_3x3
I0403 19:12:38.496676  8945 net.cpp:425] conv2/relu_3x3 <- conv2/3x3
I0403 19:12:38.496693  8945 net.cpp:386] conv2/relu_3x3 -> conv2/3x3 (in-place)
I0403 19:12:38.496862  8945 net.cpp:141] Setting up conv2/relu_3x3
I0403 19:12:38.496887  8945 net.cpp:148] Top shape: 24 192 56 56 (14450688)
I0403 19:12:38.496937  8945 net.cpp:156] Memory required for data: 361268256
I0403 19:12:38.496953  8945 layer_factory.hpp:77] Creating layer conv2/norm2
I0403 19:12:38.496973  8945 net.cpp:91] Creating Layer conv2/norm2
I0403 19:12:38.496989  8945 net.cpp:425] conv2/norm2 <- conv2/3x3
I0403 19:12:38.497009  8945 net.cpp:399] conv2/norm2 -> conv2/norm2
I0403 19:12:38.497304  8945 net.cpp:141] Setting up conv2/norm2
I0403 19:12:38.497334  8945 net.cpp:148] Top shape: 24 192 56 56 (14450688)
I0403 19:12:38.497349  8945 net.cpp:156] Memory required for data: 419071008
I0403 19:12:38.497365  8945 layer_factory.hpp:77] Creating layer pool2/3x3_s2
I0403 19:12:38.497382  8945 net.cpp:91] Creating Layer pool2/3x3_s2
I0403 19:12:38.497397  8945 net.cpp:425] pool2/3x3_s2 <- conv2/norm2
I0403 19:12:38.497417  8945 net.cpp:399] pool2/3x3_s2 -> pool2/3x3_s2
I0403 19:12:38.497476  8945 net.cpp:141] Setting up pool2/3x3_s2
I0403 19:12:38.497503  8945 net.cpp:148] Top shape: 24 192 28 28 (3612672)
I0403 19:12:38.497517  8945 net.cpp:156] Memory required for data: 433521696
I0403 19:12:38.497534  8945 layer_factory.hpp:77] Creating layer pool2/3x3_s2_pool2/3x3_s2_0_split
I0403 19:12:38.497550  8945 net.cpp:91] Creating Layer pool2/3x3_s2_pool2/3x3_s2_0_split
I0403 19:12:38.497566  8945 net.cpp:425] pool2/3x3_s2_pool2/3x3_s2_0_split <- pool2/3x3_s2
I0403 19:12:38.497583  8945 net.cpp:399] pool2/3x3_s2_pool2/3x3_s2_0_split -> pool2/3x3_s2_pool2/3x3_s2_0_split_0
I0403 19:12:38.497603  8945 net.cpp:399] pool2/3x3_s2_pool2/3x3_s2_0_split -> pool2/3x3_s2_pool2/3x3_s2_0_split_1
I0403 19:12:38.497624  8945 net.cpp:399] pool2/3x3_s2_pool2/3x3_s2_0_split -> pool2/3x3_s2_pool2/3x3_s2_0_split_2
I0403 19:12:38.497645  8945 net.cpp:399] pool2/3x3_s2_pool2/3x3_s2_0_split -> pool2/3x3_s2_pool2/3x3_s2_0_split_3
I0403 19:12:38.497714  8945 net.cpp:141] Setting up pool2/3x3_s2_pool2/3x3_s2_0_split
I0403 19:12:38.497736  8945 net.cpp:148] Top shape: 24 192 28 28 (3612672)
I0403 19:12:38.497752  8945 net.cpp:148] Top shape: 24 192 28 28 (3612672)
I0403 19:12:38.497767  8945 net.cpp:148] Top shape: 24 192 28 28 (3612672)
I0403 19:12:38.497838  8945 net.cpp:148] Top shape: 24 192 28 28 (3612672)
I0403 19:12:38.497858  8945 net.cpp:156] Memory required for data: 491324448
I0403 19:12:38.497872  8945 layer_factory.hpp:77] Creating layer inception_3a/1x1
I0403 19:12:38.497895  8945 net.cpp:91] Creating Layer inception_3a/1x1
I0403 19:12:38.497912  8945 net.cpp:425] inception_3a/1x1 <- pool2/3x3_s2_pool2/3x3_s2_0_split_0
I0403 19:12:38.497933  8945 net.cpp:399] inception_3a/1x1 -> inception_3a/1x1
I0403 19:12:38.499442  8945 net.cpp:141] Setting up inception_3a/1x1
I0403 19:12:38.499522  8945 net.cpp:148] Top shape: 24 64 28 28 (1204224)
I0403 19:12:38.499555  8945 net.cpp:156] Memory required for data: 496141344
I0403 19:12:38.499577  8945 layer_factory.hpp:77] Creating layer inception_3a/relu_1x1
I0403 19:12:38.499593  8945 net.cpp:91] Creating Layer inception_3a/relu_1x1
I0403 19:12:38.499609  8945 net.cpp:425] inception_3a/relu_1x1 <- inception_3a/1x1
I0403 19:12:38.499626  8945 net.cpp:386] inception_3a/relu_1x1 -> inception_3a/1x1 (in-place)
I0403 19:12:38.499795  8945 net.cpp:141] Setting up inception_3a/relu_1x1
I0403 19:12:38.499821  8945 net.cpp:148] Top shape: 24 64 28 28 (1204224)
I0403 19:12:38.499835  8945 net.cpp:156] Memory required for data: 500958240
I0403 19:12:38.499850  8945 layer_factory.hpp:77] Creating layer inception_3a/3x3_reduce
I0403 19:12:38.499871  8945 net.cpp:91] Creating Layer inception_3a/3x3_reduce
I0403 19:12:38.499888  8945 net.cpp:425] inception_3a/3x3_reduce <- pool2/3x3_s2_pool2/3x3_s2_0_split_1
I0403 19:12:38.499909  8945 net.cpp:399] inception_3a/3x3_reduce -> inception_3a/3x3_reduce
I0403 19:12:38.501652  8945 net.cpp:141] Setting up inception_3a/3x3_reduce
I0403 19:12:38.501684  8945 net.cpp:148] Top shape: 24 96 28 28 (1806336)
I0403 19:12:38.501703  8945 net.cpp:156] Memory required for data: 508183584
I0403 19:12:38.501725  8945 layer_factory.hpp:77] Creating layer inception_3a/relu_3x3_reduce
I0403 19:12:38.501773  8945 net.cpp:91] Creating Layer inception_3a/relu_3x3_reduce
I0403 19:12:38.501791  8945 net.cpp:425] inception_3a/relu_3x3_reduce <- inception_3a/3x3_reduce
I0403 19:12:38.501809  8945 net.cpp:386] inception_3a/relu_3x3_reduce -> inception_3a/3x3_reduce (in-place)
I0403 19:12:38.501981  8945 net.cpp:141] Setting up inception_3a/relu_3x3_reduce
I0403 19:12:38.502007  8945 net.cpp:148] Top shape: 24 96 28 28 (1806336)
I0403 19:12:38.502020  8945 net.cpp:156] Memory required for data: 515408928
I0403 19:12:38.502037  8945 layer_factory.hpp:77] Creating layer inception_3a/3x3
I0403 19:12:38.502059  8945 net.cpp:91] Creating Layer inception_3a/3x3
I0403 19:12:38.502075  8945 net.cpp:425] inception_3a/3x3 <- inception_3a/3x3_reduce
I0403 19:12:38.502094  8945 net.cpp:399] inception_3a/3x3 -> inception_3a/3x3
I0403 19:12:38.503777  8945 net.cpp:141] Setting up inception_3a/3x3
I0403 19:12:38.503804  8945 net.cpp:148] Top shape: 24 128 28 28 (2408448)
I0403 19:12:38.503820  8945 net.cpp:156] Memory required for data: 525042720
I0403 19:12:38.503837  8945 layer_factory.hpp:77] Creating layer inception_3a/relu_3x3
I0403 19:12:38.503855  8945 net.cpp:91] Creating Layer inception_3a/relu_3x3
I0403 19:12:38.503871  8945 net.cpp:425] inception_3a/relu_3x3 <- inception_3a/3x3
I0403 19:12:38.503891  8945 net.cpp:386] inception_3a/relu_3x3 -> inception_3a/3x3 (in-place)
I0403 19:12:38.504159  8945 net.cpp:141] Setting up inception_3a/relu_3x3
I0403 19:12:38.504187  8945 net.cpp:148] Top shape: 24 128 28 28 (2408448)
I0403 19:12:38.504201  8945 net.cpp:156] Memory required for data: 534676512
I0403 19:12:38.504215  8945 layer_factory.hpp:77] Creating layer inception_3a/5x5_reduce
I0403 19:12:38.504238  8945 net.cpp:91] Creating Layer inception_3a/5x5_reduce
I0403 19:12:38.504254  8945 net.cpp:425] inception_3a/5x5_reduce <- pool2/3x3_s2_pool2/3x3_s2_0_split_2
I0403 19:12:38.504276  8945 net.cpp:399] inception_3a/5x5_reduce -> inception_3a/5x5_reduce
I0403 19:12:38.505281  8945 net.cpp:141] Setting up inception_3a/5x5_reduce
I0403 19:12:38.505308  8945 net.cpp:148] Top shape: 24 16 28 28 (301056)
I0403 19:12:38.505324  8945 net.cpp:156] Memory required for data: 535880736
I0403 19:12:38.505343  8945 layer_factory.hpp:77] Creating layer inception_3a/relu_5x5_reduce
I0403 19:12:38.505360  8945 net.cpp:91] Creating Layer inception_3a/relu_5x5_reduce
I0403 19:12:38.505374  8945 net.cpp:425] inception_3a/relu_5x5_reduce <- inception_3a/5x5_reduce
I0403 19:12:38.505393  8945 net.cpp:386] inception_3a/relu_5x5_reduce -> inception_3a/5x5_reduce (in-place)
I0403 19:12:38.505669  8945 net.cpp:141] Setting up inception_3a/relu_5x5_reduce
I0403 19:12:38.505695  8945 net.cpp:148] Top shape: 24 16 28 28 (301056)
I0403 19:12:38.505712  8945 net.cpp:156] Memory required for data: 537084960
I0403 19:12:38.505727  8945 layer_factory.hpp:77] Creating layer inception_3a/5x5
I0403 19:12:38.505748  8945 net.cpp:91] Creating Layer inception_3a/5x5
I0403 19:12:38.505767  8945 net.cpp:425] inception_3a/5x5 <- inception_3a/5x5_reduce
I0403 19:12:38.505789  8945 net.cpp:399] inception_3a/5x5 -> inception_3a/5x5
I0403 19:12:38.506911  8945 net.cpp:141] Setting up inception_3a/5x5
I0403 19:12:38.506940  8945 net.cpp:148] Top shape: 24 32 28 28 (602112)
I0403 19:12:38.506956  8945 net.cpp:156] Memory required for data: 539493408
I0403 19:12:38.506974  8945 layer_factory.hpp:77] Creating layer inception_3a/relu_5x5
I0403 19:12:38.506991  8945 net.cpp:91] Creating Layer inception_3a/relu_5x5
I0403 19:12:38.507006  8945 net.cpp:425] inception_3a/relu_5x5 <- inception_3a/5x5
I0403 19:12:38.507025  8945 net.cpp:386] inception_3a/relu_5x5 -> inception_3a/5x5 (in-place)
I0403 19:12:38.507195  8945 net.cpp:141] Setting up inception_3a/relu_5x5
I0403 19:12:38.507221  8945 net.cpp:148] Top shape: 24 32 28 28 (602112)
I0403 19:12:38.507236  8945 net.cpp:156] Memory required for data: 541901856
I0403 19:12:38.507249  8945 layer_factory.hpp:77] Creating layer inception_3a/pool
I0403 19:12:38.507271  8945 net.cpp:91] Creating Layer inception_3a/pool
I0403 19:12:38.507289  8945 net.cpp:425] inception_3a/pool <- pool2/3x3_s2_pool2/3x3_s2_0_split_3
I0403 19:12:38.507323  8945 net.cpp:399] inception_3a/pool -> inception_3a/pool
I0403 19:12:38.507380  8945 net.cpp:141] Setting up inception_3a/pool
I0403 19:12:38.507402  8945 net.cpp:148] Top shape: 24 192 28 28 (3612672)
I0403 19:12:38.507416  8945 net.cpp:156] Memory required for data: 556352544
I0403 19:12:38.507436  8945 layer_factory.hpp:77] Creating layer inception_3a/pool_proj
I0403 19:12:38.507458  8945 net.cpp:91] Creating Layer inception_3a/pool_proj
I0403 19:12:38.507477  8945 net.cpp:425] inception_3a/pool_proj <- inception_3a/pool
I0403 19:12:38.507498  8945 net.cpp:399] inception_3a/pool_proj -> inception_3a/pool_proj
I0403 19:12:38.508534  8945 net.cpp:141] Setting up inception_3a/pool_proj
I0403 19:12:38.508565  8945 net.cpp:148] Top shape: 24 32 28 28 (602112)
I0403 19:12:38.508584  8945 net.cpp:156] Memory required for data: 558760992
I0403 19:12:38.508606  8945 layer_factory.hpp:77] Creating layer inception_3a/relu_pool_proj
I0403 19:12:38.508625  8945 net.cpp:91] Creating Layer inception_3a/relu_pool_proj
I0403 19:12:38.508642  8945 net.cpp:425] inception_3a/relu_pool_proj <- inception_3a/pool_proj
I0403 19:12:38.508663  8945 net.cpp:386] inception_3a/relu_pool_proj -> inception_3a/pool_proj (in-place)
I0403 19:12:38.508941  8945 net.cpp:141] Setting up inception_3a/relu_pool_proj
I0403 19:12:38.508968  8945 net.cpp:148] Top shape: 24 32 28 28 (602112)
I0403 19:12:38.508983  8945 net.cpp:156] Memory required for data: 561169440
I0403 19:12:38.508999  8945 layer_factory.hpp:77] Creating layer inception_3a/output
I0403 19:12:38.509017  8945 net.cpp:91] Creating Layer inception_3a/output
I0403 19:12:38.509033  8945 net.cpp:425] inception_3a/output <- inception_3a/1x1
I0403 19:12:38.509049  8945 net.cpp:425] inception_3a/output <- inception_3a/3x3
I0403 19:12:38.509065  8945 net.cpp:425] inception_3a/output <- inception_3a/5x5
I0403 19:12:38.509081  8945 net.cpp:425] inception_3a/output <- inception_3a/pool_proj
I0403 19:12:38.509100  8945 net.cpp:399] inception_3a/output -> inception_3a/output
I0403 19:12:38.509146  8945 net.cpp:141] Setting up inception_3a/output
I0403 19:12:38.509173  8945 net.cpp:148] Top shape: 24 256 28 28 (4816896)
I0403 19:12:38.509191  8945 net.cpp:156] Memory required for data: 580437024
I0403 19:12:38.509205  8945 layer_factory.hpp:77] Creating layer inception_3a/output_inception_3a/output_0_split
I0403 19:12:38.509222  8945 net.cpp:91] Creating Layer inception_3a/output_inception_3a/output_0_split
I0403 19:12:38.509238  8945 net.cpp:425] inception_3a/output_inception_3a/output_0_split <- inception_3a/output
I0403 19:12:38.509254  8945 net.cpp:399] inception_3a/output_inception_3a/output_0_split -> inception_3a/output_inception_3a/output_0_split_0
I0403 19:12:38.509274  8945 net.cpp:399] inception_3a/output_inception_3a/output_0_split -> inception_3a/output_inception_3a/output_0_split_1
I0403 19:12:38.509299  8945 net.cpp:399] inception_3a/output_inception_3a/output_0_split -> inception_3a/output_inception_3a/output_0_split_2
I0403 19:12:38.509322  8945 net.cpp:399] inception_3a/output_inception_3a/output_0_split -> inception_3a/output_inception_3a/output_0_split_3
I0403 19:12:38.509397  8945 net.cpp:141] Setting up inception_3a/output_inception_3a/output_0_split
I0403 19:12:38.509424  8945 net.cpp:148] Top shape: 24 256 28 28 (4816896)
I0403 19:12:38.509448  8945 net.cpp:148] Top shape: 24 256 28 28 (4816896)
I0403 19:12:38.509476  8945 net.cpp:148] Top shape: 24 256 28 28 (4816896)
I0403 19:12:38.509495  8945 net.cpp:148] Top shape: 24 256 28 28 (4816896)
I0403 19:12:38.509510  8945 net.cpp:156] Memory required for data: 657507360
I0403 19:12:38.509591  8945 layer_factory.hpp:77] Creating layer inception_3b/1x1
I0403 19:12:38.509623  8945 net.cpp:91] Creating Layer inception_3b/1x1
I0403 19:12:38.509641  8945 net.cpp:425] inception_3b/1x1 <- inception_3a/output_inception_3a/output_0_split_0
I0403 19:12:38.509662  8945 net.cpp:399] inception_3b/1x1 -> inception_3b/1x1
I0403 19:12:38.510839  8945 net.cpp:141] Setting up inception_3b/1x1
I0403 19:12:38.510881  8945 net.cpp:148] Top shape: 24 128 28 28 (2408448)
I0403 19:12:38.510900  8945 net.cpp:156] Memory required for data: 667141152
I0403 19:12:38.510920  8945 layer_factory.hpp:77] Creating layer inception_3b/relu_1x1
I0403 19:12:38.510938  8945 net.cpp:91] Creating Layer inception_3b/relu_1x1
I0403 19:12:38.510954  8945 net.cpp:425] inception_3b/relu_1x1 <- inception_3b/1x1
I0403 19:12:38.510974  8945 net.cpp:386] inception_3b/relu_1x1 -> inception_3b/1x1 (in-place)
I0403 19:12:38.511150  8945 net.cpp:141] Setting up inception_3b/relu_1x1
I0403 19:12:38.511178  8945 net.cpp:148] Top shape: 24 128 28 28 (2408448)
I0403 19:12:38.511193  8945 net.cpp:156] Memory required for data: 676774944
I0403 19:12:38.511207  8945 layer_factory.hpp:77] Creating layer inception_3b/3x3_reduce
I0403 19:12:38.511343  8945 net.cpp:91] Creating Layer inception_3b/3x3_reduce
I0403 19:12:38.511364  8945 net.cpp:425] inception_3b/3x3_reduce <- inception_3a/output_inception_3a/output_0_split_1
I0403 19:12:38.511387  8945 net.cpp:399] inception_3b/3x3_reduce -> inception_3b/3x3_reduce
I0403 19:12:38.512522  8945 net.cpp:141] Setting up inception_3b/3x3_reduce
I0403 19:12:38.512553  8945 net.cpp:148] Top shape: 24 128 28 28 (2408448)
I0403 19:12:38.512572  8945 net.cpp:156] Memory required for data: 686408736
I0403 19:12:38.512591  8945 layer_factory.hpp:77] Creating layer inception_3b/relu_3x3_reduce
I0403 19:12:38.512609  8945 net.cpp:91] Creating Layer inception_3b/relu_3x3_reduce
I0403 19:12:38.512626  8945 net.cpp:425] inception_3b/relu_3x3_reduce <- inception_3b/3x3_reduce
I0403 19:12:38.512642  8945 net.cpp:386] inception_3b/relu_3x3_reduce -> inception_3b/3x3_reduce (in-place)
I0403 19:12:38.512820  8945 net.cpp:141] Setting up inception_3b/relu_3x3_reduce
I0403 19:12:38.512908  8945 net.cpp:148] Top shape: 24 128 28 28 (2408448)
I0403 19:12:38.512928  8945 net.cpp:156] Memory required for data: 696042528
I0403 19:12:38.512943  8945 layer_factory.hpp:77] Creating layer inception_3b/3x3
I0403 19:12:38.512969  8945 net.cpp:91] Creating Layer inception_3b/3x3
I0403 19:12:38.512989  8945 net.cpp:425] inception_3b/3x3 <- inception_3b/3x3_reduce
I0403 19:12:38.513011  8945 net.cpp:399] inception_3b/3x3 -> inception_3b/3x3
I0403 19:12:38.515941  8945 net.cpp:141] Setting up inception_3b/3x3
I0403 19:12:38.515972  8945 net.cpp:148] Top shape: 24 192 28 28 (3612672)
I0403 19:12:38.515987  8945 net.cpp:156] Memory required for data: 710493216
I0403 19:12:38.516007  8945 layer_factory.hpp:77] Creating layer inception_3b/relu_3x3
I0403 19:12:38.516026  8945 net.cpp:91] Creating Layer inception_3b/relu_3x3
I0403 19:12:38.516041  8945 net.cpp:425] inception_3b/relu_3x3 <- inception_3b/3x3
I0403 19:12:38.516059  8945 net.cpp:386] inception_3b/relu_3x3 -> inception_3b/3x3 (in-place)
I0403 19:12:38.516336  8945 net.cpp:141] Setting up inception_3b/relu_3x3
I0403 19:12:38.516365  8945 net.cpp:148] Top shape: 24 192 28 28 (3612672)
I0403 19:12:38.516379  8945 net.cpp:156] Memory required for data: 724943904
I0403 19:12:38.516394  8945 layer_factory.hpp:77] Creating layer inception_3b/5x5_reduce
I0403 19:12:38.516417  8945 net.cpp:91] Creating Layer inception_3b/5x5_reduce
I0403 19:12:38.516440  8945 net.cpp:425] inception_3b/5x5_reduce <- inception_3a/output_inception_3a/output_0_split_2
I0403 19:12:38.516463  8945 net.cpp:399] inception_3b/5x5_reduce -> inception_3b/5x5_reduce
I0403 19:12:38.517442  8945 net.cpp:141] Setting up inception_3b/5x5_reduce
I0403 19:12:38.517472  8945 net.cpp:148] Top shape: 24 32 28 28 (602112)
I0403 19:12:38.517488  8945 net.cpp:156] Memory required for data: 727352352
I0403 19:12:38.517508  8945 layer_factory.hpp:77] Creating layer inception_3b/relu_5x5_reduce
I0403 19:12:38.517525  8945 net.cpp:91] Creating Layer inception_3b/relu_5x5_reduce
I0403 19:12:38.517541  8945 net.cpp:425] inception_3b/relu_5x5_reduce <- inception_3b/5x5_reduce
I0403 19:12:38.517562  8945 net.cpp:386] inception_3b/relu_5x5_reduce -> inception_3b/5x5_reduce (in-place)
I0403 19:12:38.517736  8945 net.cpp:141] Setting up inception_3b/relu_5x5_reduce
I0403 19:12:38.517774  8945 net.cpp:148] Top shape: 24 32 28 28 (602112)
I0403 19:12:38.517791  8945 net.cpp:156] Memory required for data: 729760800
I0403 19:12:38.517805  8945 layer_factory.hpp:77] Creating layer inception_3b/5x5
I0403 19:12:38.517829  8945 net.cpp:91] Creating Layer inception_3b/5x5
I0403 19:12:38.517848  8945 net.cpp:425] inception_3b/5x5 <- inception_3b/5x5_reduce
I0403 19:12:38.517868  8945 net.cpp:399] inception_3b/5x5 -> inception_3b/5x5
I0403 19:12:38.519853  8945 net.cpp:141] Setting up inception_3b/5x5
I0403 19:12:38.519889  8945 net.cpp:148] Top shape: 24 96 28 28 (1806336)
I0403 19:12:38.519907  8945 net.cpp:156] Memory required for data: 736986144
I0403 19:12:38.519927  8945 layer_factory.hpp:77] Creating layer inception_3b/relu_5x5
I0403 19:12:38.519944  8945 net.cpp:91] Creating Layer inception_3b/relu_5x5
I0403 19:12:38.519961  8945 net.cpp:425] inception_3b/relu_5x5 <- inception_3b/5x5
I0403 19:12:38.519979  8945 net.cpp:386] inception_3b/relu_5x5 -> inception_3b/5x5 (in-place)
I0403 19:12:38.520174  8945 net.cpp:141] Setting up inception_3b/relu_5x5
I0403 19:12:38.520200  8945 net.cpp:148] Top shape: 24 96 28 28 (1806336)
I0403 19:12:38.520215  8945 net.cpp:156] Memory required for data: 744211488
I0403 19:12:38.520229  8945 layer_factory.hpp:77] Creating layer inception_3b/pool
I0403 19:12:38.520247  8945 net.cpp:91] Creating Layer inception_3b/pool
I0403 19:12:38.520263  8945 net.cpp:425] inception_3b/pool <- inception_3a/output_inception_3a/output_0_split_3
I0403 19:12:38.520282  8945 net.cpp:399] inception_3b/pool -> inception_3b/pool
I0403 19:12:38.520336  8945 net.cpp:141] Setting up inception_3b/pool
I0403 19:12:38.520362  8945 net.cpp:148] Top shape: 24 256 28 28 (4816896)
I0403 19:12:38.520377  8945 net.cpp:156] Memory required for data: 763479072
I0403 19:12:38.520393  8945 layer_factory.hpp:77] Creating layer inception_3b/pool_proj
I0403 19:12:38.520416  8945 net.cpp:91] Creating Layer inception_3b/pool_proj
I0403 19:12:38.520437  8945 net.cpp:425] inception_3b/pool_proj <- inception_3b/pool
I0403 19:12:38.520457  8945 net.cpp:399] inception_3b/pool_proj -> inception_3b/pool_proj
I0403 19:12:38.521509  8945 net.cpp:141] Setting up inception_3b/pool_proj
I0403 19:12:38.521540  8945 net.cpp:148] Top shape: 24 64 28 28 (1204224)
I0403 19:12:38.521555  8945 net.cpp:156] Memory required for data: 768295968
I0403 19:12:38.521574  8945 layer_factory.hpp:77] Creating layer inception_3b/relu_pool_proj
I0403 19:12:38.521595  8945 net.cpp:91] Creating Layer inception_3b/relu_pool_proj
I0403 19:12:38.521613  8945 net.cpp:425] inception_3b/relu_pool_proj <- inception_3b/pool_proj
I0403 19:12:38.521631  8945 net.cpp:386] inception_3b/relu_pool_proj -> inception_3b/pool_proj (in-place)
I0403 19:12:38.522024  8945 net.cpp:141] Setting up inception_3b/relu_pool_proj
I0403 19:12:38.522053  8945 net.cpp:148] Top shape: 24 64 28 28 (1204224)
I0403 19:12:38.522068  8945 net.cpp:156] Memory required for data: 773112864
I0403 19:12:38.522083  8945 layer_factory.hpp:77] Creating layer inception_3b/output
I0403 19:12:38.522099  8945 net.cpp:91] Creating Layer inception_3b/output
I0403 19:12:38.522114  8945 net.cpp:425] inception_3b/output <- inception_3b/1x1
I0403 19:12:38.522130  8945 net.cpp:425] inception_3b/output <- inception_3b/3x3
I0403 19:12:38.522212  8945 net.cpp:425] inception_3b/output <- inception_3b/5x5
I0403 19:12:38.522233  8945 net.cpp:425] inception_3b/output <- inception_3b/pool_proj
I0403 19:12:38.522254  8945 net.cpp:399] inception_3b/output -> inception_3b/output
I0403 19:12:38.522300  8945 net.cpp:141] Setting up inception_3b/output
I0403 19:12:38.522326  8945 net.cpp:148] Top shape: 24 480 28 28 (9031680)
I0403 19:12:38.522341  8945 net.cpp:156] Memory required for data: 809239584
I0403 19:12:38.522356  8945 layer_factory.hpp:77] Creating layer pool3/3x3_s2
I0403 19:12:38.522373  8945 net.cpp:91] Creating Layer pool3/3x3_s2
I0403 19:12:38.522389  8945 net.cpp:425] pool3/3x3_s2 <- inception_3b/output
I0403 19:12:38.522413  8945 net.cpp:399] pool3/3x3_s2 -> pool3/3x3_s2
I0403 19:12:38.522510  8945 net.cpp:141] Setting up pool3/3x3_s2
I0403 19:12:38.522536  8945 net.cpp:148] Top shape: 24 480 14 14 (2257920)
I0403 19:12:38.522550  8945 net.cpp:156] Memory required for data: 818271264
I0403 19:12:38.522565  8945 layer_factory.hpp:77] Creating layer pool3/3x3_s2_pool3/3x3_s2_0_split
I0403 19:12:38.522586  8945 net.cpp:91] Creating Layer pool3/3x3_s2_pool3/3x3_s2_0_split
I0403 19:12:38.522603  8945 net.cpp:425] pool3/3x3_s2_pool3/3x3_s2_0_split <- pool3/3x3_s2
I0403 19:12:38.522622  8945 net.cpp:399] pool3/3x3_s2_pool3/3x3_s2_0_split -> pool3/3x3_s2_pool3/3x3_s2_0_split_0
I0403 19:12:38.522642  8945 net.cpp:399] pool3/3x3_s2_pool3/3x3_s2_0_split -> pool3/3x3_s2_pool3/3x3_s2_0_split_1
I0403 19:12:38.522665  8945 net.cpp:399] pool3/3x3_s2_pool3/3x3_s2_0_split -> pool3/3x3_s2_pool3/3x3_s2_0_split_2
I0403 19:12:38.522686  8945 net.cpp:399] pool3/3x3_s2_pool3/3x3_s2_0_split -> pool3/3x3_s2_pool3/3x3_s2_0_split_3
I0403 19:12:38.522773  8945 net.cpp:141] Setting up pool3/3x3_s2_pool3/3x3_s2_0_split
I0403 19:12:38.522797  8945 net.cpp:148] Top shape: 24 480 14 14 (2257920)
I0403 19:12:38.522815  8945 net.cpp:148] Top shape: 24 480 14 14 (2257920)
I0403 19:12:38.522830  8945 net.cpp:148] Top shape: 24 480 14 14 (2257920)
I0403 19:12:38.522846  8945 net.cpp:148] Top shape: 24 480 14 14 (2257920)
I0403 19:12:38.522860  8945 net.cpp:156] Memory required for data: 854397984
I0403 19:12:38.522874  8945 layer_factory.hpp:77] Creating layer inception_4a/1x1
I0403 19:12:38.522897  8945 net.cpp:91] Creating Layer inception_4a/1x1
I0403 19:12:38.522915  8945 net.cpp:425] inception_4a/1x1 <- pool3/3x3_s2_pool3/3x3_s2_0_split_0
I0403 19:12:38.522936  8945 net.cpp:399] inception_4a/1x1 -> inception_4a/1x1
I0403 19:12:38.524513  8945 net.cpp:141] Setting up inception_4a/1x1
I0403 19:12:38.524543  8945 net.cpp:148] Top shape: 24 192 14 14 (903168)
I0403 19:12:38.524559  8945 net.cpp:156] Memory required for data: 858010656
I0403 19:12:38.524576  8945 layer_factory.hpp:77] Creating layer inception_4a/relu_1x1
I0403 19:12:38.524596  8945 net.cpp:91] Creating Layer inception_4a/relu_1x1
I0403 19:12:38.524613  8945 net.cpp:425] inception_4a/relu_1x1 <- inception_4a/1x1
I0403 19:12:38.524631  8945 net.cpp:386] inception_4a/relu_1x1 -> inception_4a/1x1 (in-place)
I0403 19:12:38.524807  8945 net.cpp:141] Setting up inception_4a/relu_1x1
I0403 19:12:38.524835  8945 net.cpp:148] Top shape: 24 192 14 14 (903168)
I0403 19:12:38.524852  8945 net.cpp:156] Memory required for data: 861623328
I0403 19:12:38.524868  8945 layer_factory.hpp:77] Creating layer inception_4a/3x3_reduce
I0403 19:12:38.524889  8945 net.cpp:91] Creating Layer inception_4a/3x3_reduce
I0403 19:12:38.524907  8945 net.cpp:425] inception_4a/3x3_reduce <- pool3/3x3_s2_pool3/3x3_s2_0_split_1
I0403 19:12:38.524927  8945 net.cpp:399] inception_4a/3x3_reduce -> inception_4a/3x3_reduce
I0403 19:12:38.526196  8945 net.cpp:141] Setting up inception_4a/3x3_reduce
I0403 19:12:38.526223  8945 net.cpp:148] Top shape: 24 96 14 14 (451584)
I0403 19:12:38.526239  8945 net.cpp:156] Memory required for data: 863429664
I0403 19:12:38.526264  8945 layer_factory.hpp:77] Creating layer inception_4a/relu_3x3_reduce
I0403 19:12:38.526286  8945 net.cpp:91] Creating Layer inception_4a/relu_3x3_reduce
I0403 19:12:38.526304  8945 net.cpp:425] inception_4a/relu_3x3_reduce <- inception_4a/3x3_reduce
I0403 19:12:38.526321  8945 net.cpp:386] inception_4a/relu_3x3_reduce -> inception_4a/3x3_reduce (in-place)
I0403 19:12:38.526520  8945 net.cpp:141] Setting up inception_4a/relu_3x3_reduce
I0403 19:12:38.526546  8945 net.cpp:148] Top shape: 24 96 14 14 (451584)
I0403 19:12:38.526561  8945 net.cpp:156] Memory required for data: 865236000
I0403 19:12:38.526576  8945 layer_factory.hpp:77] Creating layer inception_4a/3x3
I0403 19:12:38.526600  8945 net.cpp:91] Creating Layer inception_4a/3x3
I0403 19:12:38.526619  8945 net.cpp:425] inception_4a/3x3 <- inception_4a/3x3_reduce
I0403 19:12:38.526639  8945 net.cpp:399] inception_4a/3x3 -> inception_4a/3x3
I0403 19:12:38.529361  8945 net.cpp:141] Setting up inception_4a/3x3
I0403 19:12:38.529392  8945 net.cpp:148] Top shape: 24 208 14 14 (978432)
I0403 19:12:38.529407  8945 net.cpp:156] Memory required for data: 869149728
I0403 19:12:38.529425  8945 layer_factory.hpp:77] Creating layer inception_4a/relu_3x3
I0403 19:12:38.529456  8945 net.cpp:91] Creating Layer inception_4a/relu_3x3
I0403 19:12:38.529474  8945 net.cpp:425] inception_4a/relu_3x3 <- inception_4a/3x3
I0403 19:12:38.529490  8945 net.cpp:386] inception_4a/relu_3x3 -> inception_4a/3x3 (in-place)
I0403 19:12:38.529752  8945 net.cpp:141] Setting up inception_4a/relu_3x3
I0403 19:12:38.529779  8945 net.cpp:148] Top shape: 24 208 14 14 (978432)
I0403 19:12:38.529795  8945 net.cpp:156] Memory required for data: 873063456
I0403 19:12:38.529810  8945 layer_factory.hpp:77] Creating layer inception_4a/5x5_reduce
I0403 19:12:38.529831  8945 net.cpp:91] Creating Layer inception_4a/5x5_reduce
I0403 19:12:38.529849  8945 net.cpp:425] inception_4a/5x5_reduce <- pool3/3x3_s2_pool3/3x3_s2_0_split_2
I0403 19:12:38.529866  8945 net.cpp:399] inception_4a/5x5_reduce -> inception_4a/5x5_reduce
I0403 19:12:38.530864  8945 net.cpp:141] Setting up inception_4a/5x5_reduce
I0403 19:12:38.530891  8945 net.cpp:148] Top shape: 24 16 14 14 (75264)
I0403 19:12:38.530906  8945 net.cpp:156] Memory required for data: 873364512
I0403 19:12:38.530925  8945 layer_factory.hpp:77] Creating layer inception_4a/relu_5x5_reduce
I0403 19:12:38.530942  8945 net.cpp:91] Creating Layer inception_4a/relu_5x5_reduce
I0403 19:12:38.530958  8945 net.cpp:425] inception_4a/relu_5x5_reduce <- inception_4a/5x5_reduce
I0403 19:12:38.530977  8945 net.cpp:386] inception_4a/relu_5x5_reduce -> inception_4a/5x5_reduce (in-place)
I0403 19:12:38.531148  8945 net.cpp:141] Setting up inception_4a/relu_5x5_reduce
I0403 19:12:38.531174  8945 net.cpp:148] Top shape: 24 16 14 14 (75264)
I0403 19:12:38.531190  8945 net.cpp:156] Memory required for data: 873665568
I0403 19:12:38.531205  8945 layer_factory.hpp:77] Creating layer inception_4a/5x5
I0403 19:12:38.531227  8945 net.cpp:91] Creating Layer inception_4a/5x5
I0403 19:12:38.531244  8945 net.cpp:425] inception_4a/5x5 <- inception_4a/5x5_reduce
I0403 19:12:38.531263  8945 net.cpp:399] inception_4a/5x5 -> inception_4a/5x5
I0403 19:12:38.532285  8945 net.cpp:141] Setting up inception_4a/5x5
I0403 19:12:38.532312  8945 net.cpp:148] Top shape: 24 48 14 14 (225792)
I0403 19:12:38.532327  8945 net.cpp:156] Memory required for data: 874568736
I0403 19:12:38.532346  8945 layer_factory.hpp:77] Creating layer inception_4a/relu_5x5
I0403 19:12:38.532363  8945 net.cpp:91] Creating Layer inception_4a/relu_5x5
I0403 19:12:38.532379  8945 net.cpp:425] inception_4a/relu_5x5 <- inception_4a/5x5
I0403 19:12:38.532395  8945 net.cpp:386] inception_4a/relu_5x5 -> inception_4a/5x5 (in-place)
I0403 19:12:38.532574  8945 net.cpp:141] Setting up inception_4a/relu_5x5
I0403 19:12:38.532599  8945 net.cpp:148] Top shape: 24 48 14 14 (225792)
I0403 19:12:38.532618  8945 net.cpp:156] Memory required for data: 875471904
I0403 19:12:38.532631  8945 layer_factory.hpp:77] Creating layer inception_4a/pool
I0403 19:12:38.532649  8945 net.cpp:91] Creating Layer inception_4a/pool
I0403 19:12:38.532662  8945 net.cpp:425] inception_4a/pool <- pool3/3x3_s2_pool3/3x3_s2_0_split_3
I0403 19:12:38.532680  8945 net.cpp:399] inception_4a/pool -> inception_4a/pool
I0403 19:12:38.532737  8945 net.cpp:141] Setting up inception_4a/pool
I0403 19:12:38.532760  8945 net.cpp:148] Top shape: 24 480 14 14 (2257920)
I0403 19:12:38.532775  8945 net.cpp:156] Memory required for data: 884503584
I0403 19:12:38.532789  8945 layer_factory.hpp:77] Creating layer inception_4a/pool_proj
I0403 19:12:38.532809  8945 net.cpp:91] Creating Layer inception_4a/pool_proj
I0403 19:12:38.532827  8945 net.cpp:425] inception_4a/pool_proj <- inception_4a/pool
I0403 19:12:38.532847  8945 net.cpp:399] inception_4a/pool_proj -> inception_4a/pool_proj
I0403 19:12:38.533954  8945 net.cpp:141] Setting up inception_4a/pool_proj
I0403 19:12:38.533982  8945 net.cpp:148] Top shape: 24 64 14 14 (301056)
I0403 19:12:38.534011  8945 net.cpp:156] Memory required for data: 885707808
I0403 19:12:38.534029  8945 layer_factory.hpp:77] Creating layer inception_4a/relu_pool_proj
I0403 19:12:38.534049  8945 net.cpp:91] Creating Layer inception_4a/relu_pool_proj
I0403 19:12:38.534066  8945 net.cpp:425] inception_4a/relu_pool_proj <- inception_4a/pool_proj
I0403 19:12:38.534083  8945 net.cpp:386] inception_4a/relu_pool_proj -> inception_4a/pool_proj (in-place)
I0403 19:12:38.534353  8945 net.cpp:141] Setting up inception_4a/relu_pool_proj
I0403 19:12:38.534379  8945 net.cpp:148] Top shape: 24 64 14 14 (301056)
I0403 19:12:38.534394  8945 net.cpp:156] Memory required for data: 886912032
I0403 19:12:38.534407  8945 layer_factory.hpp:77] Creating layer inception_4a/output
I0403 19:12:38.534426  8945 net.cpp:91] Creating Layer inception_4a/output
I0403 19:12:38.534461  8945 net.cpp:425] inception_4a/output <- inception_4a/1x1
I0403 19:12:38.534477  8945 net.cpp:425] inception_4a/output <- inception_4a/3x3
I0403 19:12:38.534494  8945 net.cpp:425] inception_4a/output <- inception_4a/5x5
I0403 19:12:38.534509  8945 net.cpp:425] inception_4a/output <- inception_4a/pool_proj
I0403 19:12:38.534525  8945 net.cpp:399] inception_4a/output -> inception_4a/output
I0403 19:12:38.534570  8945 net.cpp:141] Setting up inception_4a/output
I0403 19:12:38.534593  8945 net.cpp:148] Top shape: 24 512 14 14 (2408448)
I0403 19:12:38.534608  8945 net.cpp:156] Memory required for data: 896545824
I0403 19:12:38.534624  8945 layer_factory.hpp:77] Creating layer inception_4a/output_inception_4a/output_0_split
I0403 19:12:38.534641  8945 net.cpp:91] Creating Layer inception_4a/output_inception_4a/output_0_split
I0403 19:12:38.534665  8945 net.cpp:425] inception_4a/output_inception_4a/output_0_split <- inception_4a/output
I0403 19:12:38.534684  8945 net.cpp:399] inception_4a/output_inception_4a/output_0_split -> inception_4a/output_inception_4a/output_0_split_0
I0403 19:12:38.534704  8945 net.cpp:399] inception_4a/output_inception_4a/output_0_split -> inception_4a/output_inception_4a/output_0_split_1
I0403 19:12:38.534737  8945 net.cpp:399] inception_4a/output_inception_4a/output_0_split -> inception_4a/output_inception_4a/output_0_split_2
I0403 19:12:38.534757  8945 net.cpp:399] inception_4a/output_inception_4a/output_0_split -> inception_4a/output_inception_4a/output_0_split_3
I0403 19:12:38.534785  8945 net.cpp:399] inception_4a/output_inception_4a/output_0_split -> inception_4a/output_inception_4a/output_0_split_4
I0403 19:12:38.534874  8945 net.cpp:141] Setting up inception_4a/output_inception_4a/output_0_split
I0403 19:12:38.534898  8945 net.cpp:148] Top shape: 24 512 14 14 (2408448)
I0403 19:12:38.534914  8945 net.cpp:148] Top shape: 24 512 14 14 (2408448)
I0403 19:12:38.534929  8945 net.cpp:148] Top shape: 24 512 14 14 (2408448)
I0403 19:12:38.534943  8945 net.cpp:148] Top shape: 24 512 14 14 (2408448)
I0403 19:12:38.534958  8945 net.cpp:148] Top shape: 24 512 14 14 (2408448)
I0403 19:12:38.534971  8945 net.cpp:156] Memory required for data: 944714784
I0403 19:12:38.534986  8945 layer_factory.hpp:77] Creating layer loss1/ave_pool
I0403 19:12:38.535002  8945 net.cpp:91] Creating Layer loss1/ave_pool
I0403 19:12:38.535017  8945 net.cpp:425] loss1/ave_pool <- inception_4a/output_inception_4a/output_0_split_0
I0403 19:12:38.535037  8945 net.cpp:399] loss1/ave_pool -> loss1/ave_pool
I0403 19:12:38.535234  8945 net.cpp:141] Setting up loss1/ave_pool
I0403 19:12:38.535260  8945 net.cpp:148] Top shape: 24 512 4 4 (196608)
I0403 19:12:38.535274  8945 net.cpp:156] Memory required for data: 945501216
I0403 19:12:38.535289  8945 layer_factory.hpp:77] Creating layer loss1/conv
I0403 19:12:38.535310  8945 net.cpp:91] Creating Layer loss1/conv
I0403 19:12:38.535327  8945 net.cpp:425] loss1/conv <- loss1/ave_pool
I0403 19:12:38.535348  8945 net.cpp:399] loss1/conv -> loss1/conv
I0403 19:12:38.536742  8945 net.cpp:141] Setting up loss1/conv
I0403 19:12:38.536772  8945 net.cpp:148] Top shape: 24 128 4 4 (49152)
I0403 19:12:38.536789  8945 net.cpp:156] Memory required for data: 945697824
I0403 19:12:38.536823  8945 layer_factory.hpp:77] Creating layer loss1/relu_conv
I0403 19:12:38.536842  8945 net.cpp:91] Creating Layer loss1/relu_conv
I0403 19:12:38.536859  8945 net.cpp:425] loss1/relu_conv <- loss1/conv
I0403 19:12:38.536876  8945 net.cpp:386] loss1/relu_conv -> loss1/conv (in-place)
I0403 19:12:38.537155  8945 net.cpp:141] Setting up loss1/relu_conv
I0403 19:12:38.537184  8945 net.cpp:148] Top shape: 24 128 4 4 (49152)
I0403 19:12:38.537199  8945 net.cpp:156] Memory required for data: 945894432
I0403 19:12:38.537215  8945 layer_factory.hpp:77] Creating layer loss1/fc
I0403 19:12:38.537240  8945 net.cpp:91] Creating Layer loss1/fc
I0403 19:12:38.537257  8945 net.cpp:425] loss1/fc <- loss1/conv
I0403 19:12:38.537277  8945 net.cpp:399] loss1/fc -> loss1/fc
I0403 19:12:38.554574  8945 net.cpp:141] Setting up loss1/fc
I0403 19:12:38.554607  8945 net.cpp:148] Top shape: 24 1024 (24576)
I0403 19:12:38.554625  8945 net.cpp:156] Memory required for data: 945992736
I0403 19:12:38.554643  8945 layer_factory.hpp:77] Creating layer loss1/relu_fc
I0403 19:12:38.554661  8945 net.cpp:91] Creating Layer loss1/relu_fc
I0403 19:12:38.554678  8945 net.cpp:425] loss1/relu_fc <- loss1/fc
I0403 19:12:38.554694  8945 net.cpp:386] loss1/relu_fc -> loss1/fc (in-place)
I0403 19:12:38.554883  8945 net.cpp:141] Setting up loss1/relu_fc
I0403 19:12:38.554909  8945 net.cpp:148] Top shape: 24 1024 (24576)
I0403 19:12:38.554925  8945 net.cpp:156] Memory required for data: 946091040
I0403 19:12:38.554940  8945 layer_factory.hpp:77] Creating layer loss1/drop_fc
I0403 19:12:38.554965  8945 net.cpp:91] Creating Layer loss1/drop_fc
I0403 19:12:38.554981  8945 net.cpp:425] loss1/drop_fc <- loss1/fc
I0403 19:12:38.554998  8945 net.cpp:386] loss1/drop_fc -> loss1/fc (in-place)
I0403 19:12:38.555049  8945 net.cpp:141] Setting up loss1/drop_fc
I0403 19:12:38.555071  8945 net.cpp:148] Top shape: 24 1024 (24576)
I0403 19:12:38.555085  8945 net.cpp:156] Memory required for data: 946189344
I0403 19:12:38.555100  8945 layer_factory.hpp:77] Creating layer loss1/classifier_plantvillage
I0403 19:12:38.555121  8945 net.cpp:91] Creating Layer loss1/classifier_plantvillage
I0403 19:12:38.555136  8945 net.cpp:425] loss1/classifier_plantvillage <- loss1/fc
I0403 19:12:38.555155  8945 net.cpp:399] loss1/classifier_plantvillage -> loss1/classifier_plantvillage
I0403 19:12:38.555999  8945 net.cpp:141] Setting up loss1/classifier_plantvillage
I0403 19:12:38.556030  8945 net.cpp:148] Top shape: 24 38 (912)
I0403 19:12:38.556044  8945 net.cpp:156] Memory required for data: 946192992
I0403 19:12:38.556064  8945 layer_factory.hpp:77] Creating layer loss1/classifier_plantvillage_loss1/classifier_plantvillage_0_split
I0403 19:12:38.556082  8945 net.cpp:91] Creating Layer loss1/classifier_plantvillage_loss1/classifier_plantvillage_0_split
I0403 19:12:38.556095  8945 net.cpp:425] loss1/classifier_plantvillage_loss1/classifier_plantvillage_0_split <- loss1/classifier_plantvillage
I0403 19:12:38.556113  8945 net.cpp:399] loss1/classifier_plantvillage_loss1/classifier_plantvillage_0_split -> loss1/classifier_plantvillage_loss1/classifier_plantvillage_0_split_0
I0403 19:12:38.556130  8945 net.cpp:399] loss1/classifier_plantvillage_loss1/classifier_plantvillage_0_split -> loss1/classifier_plantvillage_loss1/classifier_plantvillage_0_split_1
I0403 19:12:38.556149  8945 net.cpp:399] loss1/classifier_plantvillage_loss1/classifier_plantvillage_0_split -> loss1/classifier_plantvillage_loss1/classifier_plantvillage_0_split_2
I0403 19:12:38.556212  8945 net.cpp:141] Setting up loss1/classifier_plantvillage_loss1/classifier_plantvillage_0_split
I0403 19:12:38.556236  8945 net.cpp:148] Top shape: 24 38 (912)
I0403 19:12:38.556252  8945 net.cpp:148] Top shape: 24 38 (912)
I0403 19:12:38.556267  8945 net.cpp:148] Top shape: 24 38 (912)
I0403 19:12:38.556279  8945 net.cpp:156] Memory required for data: 946203936
I0403 19:12:38.556293  8945 layer_factory.hpp:77] Creating layer inception_4b/1x1
I0403 19:12:38.556313  8945 net.cpp:91] Creating Layer inception_4b/1x1
I0403 19:12:38.556345  8945 net.cpp:425] inception_4b/1x1 <- inception_4a/output_inception_4a/output_0_split_1
I0403 19:12:38.556366  8945 net.cpp:399] inception_4b/1x1 -> inception_4b/1x1
I0403 19:12:38.557904  8945 net.cpp:141] Setting up inception_4b/1x1
I0403 19:12:38.557934  8945 net.cpp:148] Top shape: 24 160 14 14 (752640)
I0403 19:12:38.557950  8945 net.cpp:156] Memory required for data: 949214496
I0403 19:12:38.557968  8945 layer_factory.hpp:77] Creating layer inception_4b/relu_1x1
I0403 19:12:38.557984  8945 net.cpp:91] Creating Layer inception_4b/relu_1x1
I0403 19:12:38.557998  8945 net.cpp:425] inception_4b/relu_1x1 <- inception_4b/1x1
I0403 19:12:38.558017  8945 net.cpp:386] inception_4b/relu_1x1 -> inception_4b/1x1 (in-place)
I0403 19:12:38.558184  8945 net.cpp:141] Setting up inception_4b/relu_1x1
I0403 19:12:38.558209  8945 net.cpp:148] Top shape: 24 160 14 14 (752640)
I0403 19:12:38.558224  8945 net.cpp:156] Memory required for data: 952225056
I0403 19:12:38.558239  8945 layer_factory.hpp:77] Creating layer inception_4b/3x3_reduce
I0403 19:12:38.558261  8945 net.cpp:91] Creating Layer inception_4b/3x3_reduce
I0403 19:12:38.558277  8945 net.cpp:425] inception_4b/3x3_reduce <- inception_4a/output_inception_4a/output_0_split_2
I0403 19:12:38.558300  8945 net.cpp:399] inception_4b/3x3_reduce -> inception_4b/3x3_reduce
I0403 19:12:38.559608  8945 net.cpp:141] Setting up inception_4b/3x3_reduce
I0403 19:12:38.559636  8945 net.cpp:148] Top shape: 24 112 14 14 (526848)
I0403 19:12:38.559651  8945 net.cpp:156] Memory required for data: 954332448
I0403 19:12:38.559669  8945 layer_factory.hpp:77] Creating layer inception_4b/relu_3x3_reduce
I0403 19:12:38.559689  8945 net.cpp:91] Creating Layer inception_4b/relu_3x3_reduce
I0403 19:12:38.559705  8945 net.cpp:425] inception_4b/relu_3x3_reduce <- inception_4b/3x3_reduce
I0403 19:12:38.559721  8945 net.cpp:386] inception_4b/relu_3x3_reduce -> inception_4b/3x3_reduce (in-place)
I0403 19:12:38.559988  8945 net.cpp:141] Setting up inception_4b/relu_3x3_reduce
I0403 19:12:38.560014  8945 net.cpp:148] Top shape: 24 112 14 14 (526848)
I0403 19:12:38.560027  8945 net.cpp:156] Memory required for data: 956439840
I0403 19:12:38.560042  8945 layer_factory.hpp:77] Creating layer inception_4b/3x3
I0403 19:12:38.560063  8945 net.cpp:91] Creating Layer inception_4b/3x3
I0403 19:12:38.560080  8945 net.cpp:425] inception_4b/3x3 <- inception_4b/3x3_reduce
I0403 19:12:38.560101  8945 net.cpp:399] inception_4b/3x3 -> inception_4b/3x3
I0403 19:12:38.562929  8945 net.cpp:141] Setting up inception_4b/3x3
I0403 19:12:38.562958  8945 net.cpp:148] Top shape: 24 224 14 14 (1053696)
I0403 19:12:38.562974  8945 net.cpp:156] Memory required for data: 960654624
I0403 19:12:38.562993  8945 layer_factory.hpp:77] Creating layer inception_4b/relu_3x3
I0403 19:12:38.563011  8945 net.cpp:91] Creating Layer inception_4b/relu_3x3
I0403 19:12:38.563029  8945 net.cpp:425] inception_4b/relu_3x3 <- inception_4b/3x3
I0403 19:12:38.563045  8945 net.cpp:386] inception_4b/relu_3x3 -> inception_4b/3x3 (in-place)
I0403 19:12:38.563215  8945 net.cpp:141] Setting up inception_4b/relu_3x3
I0403 19:12:38.563241  8945 net.cpp:148] Top shape: 24 224 14 14 (1053696)
I0403 19:12:38.563257  8945 net.cpp:156] Memory required for data: 964869408
I0403 19:12:38.563271  8945 layer_factory.hpp:77] Creating layer inception_4b/5x5_reduce
I0403 19:12:38.563293  8945 net.cpp:91] Creating Layer inception_4b/5x5_reduce
I0403 19:12:38.563309  8945 net.cpp:425] inception_4b/5x5_reduce <- inception_4a/output_inception_4a/output_0_split_3
I0403 19:12:38.563328  8945 net.cpp:399] inception_4b/5x5_reduce -> inception_4b/5x5_reduce
I0403 19:12:38.564349  8945 net.cpp:141] Setting up inception_4b/5x5_reduce
I0403 19:12:38.564379  8945 net.cpp:148] Top shape: 24 24 14 14 (112896)
I0403 19:12:38.564395  8945 net.cpp:156] Memory required for data: 965320992
I0403 19:12:38.564414  8945 layer_factory.hpp:77] Creating layer inception_4b/relu_5x5_reduce
I0403 19:12:38.564435  8945 net.cpp:91] Creating Layer inception_4b/relu_5x5_reduce
I0403 19:12:38.564465  8945 net.cpp:425] inception_4b/relu_5x5_reduce <- inception_4b/5x5_reduce
I0403 19:12:38.564488  8945 net.cpp:386] inception_4b/relu_5x5_reduce -> inception_4b/5x5_reduce (in-place)
I0403 19:12:38.564663  8945 net.cpp:141] Setting up inception_4b/relu_5x5_reduce
I0403 19:12:38.564688  8945 net.cpp:148] Top shape: 24 24 14 14 (112896)
I0403 19:12:38.564702  8945 net.cpp:156] Memory required for data: 965772576
I0403 19:12:38.564716  8945 layer_factory.hpp:77] Creating layer inception_4b/5x5
I0403 19:12:38.564738  8945 net.cpp:91] Creating Layer inception_4b/5x5
I0403 19:12:38.564754  8945 net.cpp:425] inception_4b/5x5 <- inception_4b/5x5_reduce
I0403 19:12:38.564774  8945 net.cpp:399] inception_4b/5x5 -> inception_4b/5x5
I0403 19:12:38.565928  8945 net.cpp:141] Setting up inception_4b/5x5
I0403 19:12:38.565958  8945 net.cpp:148] Top shape: 24 64 14 14 (301056)
I0403 19:12:38.565974  8945 net.cpp:156] Memory required for data: 966976800
I0403 19:12:38.565992  8945 layer_factory.hpp:77] Creating layer inception_4b/relu_5x5
I0403 19:12:38.566010  8945 net.cpp:91] Creating Layer inception_4b/relu_5x5
I0403 19:12:38.566025  8945 net.cpp:425] inception_4b/relu_5x5 <- inception_4b/5x5
I0403 19:12:38.566043  8945 net.cpp:386] inception_4b/relu_5x5 -> inception_4b/5x5 (in-place)
I0403 19:12:38.566309  8945 net.cpp:141] Setting up inception_4b/relu_5x5
I0403 19:12:38.566337  8945 net.cpp:148] Top shape: 24 64 14 14 (301056)
I0403 19:12:38.566354  8945 net.cpp:156] Memory required for data: 968181024
I0403 19:12:38.566370  8945 layer_factory.hpp:77] Creating layer inception_4b/pool
I0403 19:12:38.566386  8945 net.cpp:91] Creating Layer inception_4b/pool
I0403 19:12:38.566401  8945 net.cpp:425] inception_4b/pool <- inception_4a/output_inception_4a/output_0_split_4
I0403 19:12:38.566421  8945 net.cpp:399] inception_4b/pool -> inception_4b/pool
I0403 19:12:38.566500  8945 net.cpp:141] Setting up inception_4b/pool
I0403 19:12:38.566524  8945 net.cpp:148] Top shape: 24 512 14 14 (2408448)
I0403 19:12:38.566546  8945 net.cpp:156] Memory required for data: 977814816
I0403 19:12:38.566561  8945 layer_factory.hpp:77] Creating layer inception_4b/pool_proj
I0403 19:12:38.566584  8945 net.cpp:91] Creating Layer inception_4b/pool_proj
I0403 19:12:38.566601  8945 net.cpp:425] inception_4b/pool_proj <- inception_4b/pool
I0403 19:12:38.566618  8945 net.cpp:399] inception_4b/pool_proj -> inception_4b/pool_proj
I0403 19:12:38.567773  8945 net.cpp:141] Setting up inception_4b/pool_proj
I0403 19:12:38.567800  8945 net.cpp:148] Top shape: 24 64 14 14 (301056)
I0403 19:12:38.567816  8945 net.cpp:156] Memory required for data: 979019040
I0403 19:12:38.567833  8945 layer_factory.hpp:77] Creating layer inception_4b/relu_pool_proj
I0403 19:12:38.567850  8945 net.cpp:91] Creating Layer inception_4b/relu_pool_proj
I0403 19:12:38.567867  8945 net.cpp:425] inception_4b/relu_pool_proj <- inception_4b/pool_proj
I0403 19:12:38.567886  8945 net.cpp:386] inception_4b/relu_pool_proj -> inception_4b/pool_proj (in-place)
I0403 19:12:38.568063  8945 net.cpp:141] Setting up inception_4b/relu_pool_proj
I0403 19:12:38.568087  8945 net.cpp:148] Top shape: 24 64 14 14 (301056)
I0403 19:12:38.568101  8945 net.cpp:156] Memory required for data: 980223264
I0403 19:12:38.568116  8945 layer_factory.hpp:77] Creating layer inception_4b/output
I0403 19:12:38.568135  8945 net.cpp:91] Creating Layer inception_4b/output
I0403 19:12:38.568150  8945 net.cpp:425] inception_4b/output <- inception_4b/1x1
I0403 19:12:38.568166  8945 net.cpp:425] inception_4b/output <- inception_4b/3x3
I0403 19:12:38.568183  8945 net.cpp:425] inception_4b/output <- inception_4b/5x5
I0403 19:12:38.568198  8945 net.cpp:425] inception_4b/output <- inception_4b/pool_proj
I0403 19:12:38.568213  8945 net.cpp:399] inception_4b/output -> inception_4b/output
I0403 19:12:38.568255  8945 net.cpp:141] Setting up inception_4b/output
I0403 19:12:38.568280  8945 net.cpp:148] Top shape: 24 512 14 14 (2408448)
I0403 19:12:38.568296  8945 net.cpp:156] Memory required for data: 989857056
I0403 19:12:38.568325  8945 layer_factory.hpp:77] Creating layer inception_4b/output_inception_4b/output_0_split
I0403 19:12:38.568342  8945 net.cpp:91] Creating Layer inception_4b/output_inception_4b/output_0_split
I0403 19:12:38.568357  8945 net.cpp:425] inception_4b/output_inception_4b/output_0_split <- inception_4b/output
I0403 19:12:38.568375  8945 net.cpp:399] inception_4b/output_inception_4b/output_0_split -> inception_4b/output_inception_4b/output_0_split_0
I0403 19:12:38.568395  8945 net.cpp:399] inception_4b/output_inception_4b/output_0_split -> inception_4b/output_inception_4b/output_0_split_1
I0403 19:12:38.568415  8945 net.cpp:399] inception_4b/output_inception_4b/output_0_split -> inception_4b/output_inception_4b/output_0_split_2
I0403 19:12:38.568441  8945 net.cpp:399] inception_4b/output_inception_4b/output_0_split -> inception_4b/output_inception_4b/output_0_split_3
I0403 19:12:38.568521  8945 net.cpp:141] Setting up inception_4b/output_inception_4b/output_0_split
I0403 19:12:38.568547  8945 net.cpp:148] Top shape: 24 512 14 14 (2408448)
I0403 19:12:38.568563  8945 net.cpp:148] Top shape: 24 512 14 14 (2408448)
I0403 19:12:38.568579  8945 net.cpp:148] Top shape: 24 512 14 14 (2408448)
I0403 19:12:38.568594  8945 net.cpp:148] Top shape: 24 512 14 14 (2408448)
I0403 19:12:38.568608  8945 net.cpp:156] Memory required for data: 1028392224
I0403 19:12:38.568621  8945 layer_factory.hpp:77] Creating layer inception_4c/1x1
I0403 19:12:38.568645  8945 net.cpp:91] Creating Layer inception_4c/1x1
I0403 19:12:38.568661  8945 net.cpp:425] inception_4c/1x1 <- inception_4b/output_inception_4b/output_0_split_0
I0403 19:12:38.568680  8945 net.cpp:399] inception_4c/1x1 -> inception_4c/1x1
I0403 19:12:38.570035  8945 net.cpp:141] Setting up inception_4c/1x1
I0403 19:12:38.570062  8945 net.cpp:148] Top shape: 24 128 14 14 (602112)
I0403 19:12:38.570078  8945 net.cpp:156] Memory required for data: 1030800672
I0403 19:12:38.570096  8945 layer_factory.hpp:77] Creating layer inception_4c/relu_1x1
I0403 19:12:38.570116  8945 net.cpp:91] Creating Layer inception_4c/relu_1x1
I0403 19:12:38.570130  8945 net.cpp:425] inception_4c/relu_1x1 <- inception_4c/1x1
I0403 19:12:38.570147  8945 net.cpp:386] inception_4c/relu_1x1 -> inception_4c/1x1 (in-place)
I0403 19:12:38.570322  8945 net.cpp:141] Setting up inception_4c/relu_1x1
I0403 19:12:38.570348  8945 net.cpp:148] Top shape: 24 128 14 14 (602112)
I0403 19:12:38.570363  8945 net.cpp:156] Memory required for data: 1033209120
I0403 19:12:38.570377  8945 layer_factory.hpp:77] Creating layer inception_4c/3x3_reduce
I0403 19:12:38.570396  8945 net.cpp:91] Creating Layer inception_4c/3x3_reduce
I0403 19:12:38.570415  8945 net.cpp:425] inception_4c/3x3_reduce <- inception_4b/output_inception_4b/output_0_split_1
I0403 19:12:38.570451  8945 net.cpp:399] inception_4c/3x3_reduce -> inception_4c/3x3_reduce
I0403 19:12:38.572296  8945 net.cpp:141] Setting up inception_4c/3x3_reduce
I0403 19:12:38.572327  8945 net.cpp:148] Top shape: 24 128 14 14 (602112)
I0403 19:12:38.572343  8945 net.cpp:156] Memory required for data: 1035617568
I0403 19:12:38.572362  8945 layer_factory.hpp:77] Creating layer inception_4c/relu_3x3_reduce
I0403 19:12:38.572379  8945 net.cpp:91] Creating Layer inception_4c/relu_3x3_reduce
I0403 19:12:38.572396  8945 net.cpp:425] inception_4c/relu_3x3_reduce <- inception_4c/3x3_reduce
I0403 19:12:38.572414  8945 net.cpp:386] inception_4c/relu_3x3_reduce -> inception_4c/3x3_reduce (in-place)
I0403 19:12:38.572695  8945 net.cpp:141] Setting up inception_4c/relu_3x3_reduce
I0403 19:12:38.572724  8945 net.cpp:148] Top shape: 24 128 14 14 (602112)
I0403 19:12:38.572739  8945 net.cpp:156] Memory required for data: 1038026016
I0403 19:12:38.572756  8945 layer_factory.hpp:77] Creating layer inception_4c/3x3
I0403 19:12:38.572777  8945 net.cpp:91] Creating Layer inception_4c/3x3
I0403 19:12:38.572794  8945 net.cpp:425] inception_4c/3x3 <- inception_4c/3x3_reduce
I0403 19:12:38.572813  8945 net.cpp:399] inception_4c/3x3 -> inception_4c/3x3
I0403 19:12:38.576253  8945 net.cpp:141] Setting up inception_4c/3x3
I0403 19:12:38.576293  8945 net.cpp:148] Top shape: 24 256 14 14 (1204224)
I0403 19:12:38.576309  8945 net.cpp:156] Memory required for data: 1042842912
I0403 19:12:38.576340  8945 layer_factory.hpp:77] Creating layer inception_4c/relu_3x3
I0403 19:12:38.576359  8945 net.cpp:91] Creating Layer inception_4c/relu_3x3
I0403 19:12:38.576375  8945 net.cpp:425] inception_4c/relu_3x3 <- inception_4c/3x3
I0403 19:12:38.576393  8945 net.cpp:386] inception_4c/relu_3x3 -> inception_4c/3x3 (in-place)
I0403 19:12:38.576571  8945 net.cpp:141] Setting up inception_4c/relu_3x3
I0403 19:12:38.576596  8945 net.cpp:148] Top shape: 24 256 14 14 (1204224)
I0403 19:12:38.576611  8945 net.cpp:156] Memory required for data: 1047659808
I0403 19:12:38.576623  8945 layer_factory.hpp:77] Creating layer inception_4c/5x5_reduce
I0403 19:12:38.576647  8945 net.cpp:91] Creating Layer inception_4c/5x5_reduce
I0403 19:12:38.576663  8945 net.cpp:425] inception_4c/5x5_reduce <- inception_4b/output_inception_4b/output_0_split_2
I0403 19:12:38.576683  8945 net.cpp:399] inception_4c/5x5_reduce -> inception_4c/5x5_reduce
I0403 19:12:38.577710  8945 net.cpp:141] Setting up inception_4c/5x5_reduce
I0403 19:12:38.577740  8945 net.cpp:148] Top shape: 24 24 14 14 (112896)
I0403 19:12:38.577755  8945 net.cpp:156] Memory required for data: 1048111392
I0403 19:12:38.577774  8945 layer_factory.hpp:77] Creating layer inception_4c/relu_5x5_reduce
I0403 19:12:38.577791  8945 net.cpp:91] Creating Layer inception_4c/relu_5x5_reduce
I0403 19:12:38.577806  8945 net.cpp:425] inception_4c/relu_5x5_reduce <- inception_4c/5x5_reduce
I0403 19:12:38.577826  8945 net.cpp:386] inception_4c/relu_5x5_reduce -> inception_4c/5x5_reduce (in-place)
I0403 19:12:38.578006  8945 net.cpp:141] Setting up inception_4c/relu_5x5_reduce
I0403 19:12:38.578030  8945 net.cpp:148] Top shape: 24 24 14 14 (112896)
I0403 19:12:38.578043  8945 net.cpp:156] Memory required for data: 1048562976
I0403 19:12:38.578058  8945 layer_factory.hpp:77] Creating layer inception_4c/5x5
I0403 19:12:38.578078  8945 net.cpp:91] Creating Layer inception_4c/5x5
I0403 19:12:38.578095  8945 net.cpp:425] inception_4c/5x5 <- inception_4c/5x5_reduce
I0403 19:12:38.578115  8945 net.cpp:399] inception_4c/5x5 -> inception_4c/5x5
I0403 19:12:38.579319  8945 net.cpp:141] Setting up inception_4c/5x5
I0403 19:12:38.579346  8945 net.cpp:148] Top shape: 24 64 14 14 (301056)
I0403 19:12:38.579362  8945 net.cpp:156] Memory required for data: 1049767200
I0403 19:12:38.579380  8945 layer_factory.hpp:77] Creating layer inception_4c/relu_5x5
I0403 19:12:38.579399  8945 net.cpp:91] Creating Layer inception_4c/relu_5x5
I0403 19:12:38.579416  8945 net.cpp:425] inception_4c/relu_5x5 <- inception_4c/5x5
I0403 19:12:38.579437  8945 net.cpp:386] inception_4c/relu_5x5 -> inception_4c/5x5 (in-place)
I0403 19:12:38.579715  8945 net.cpp:141] Setting up inception_4c/relu_5x5
I0403 19:12:38.579741  8945 net.cpp:148] Top shape: 24 64 14 14 (301056)
I0403 19:12:38.579756  8945 net.cpp:156] Memory required for data: 1050971424
I0403 19:12:38.579769  8945 layer_factory.hpp:77] Creating layer inception_4c/pool
I0403 19:12:38.579788  8945 net.cpp:91] Creating Layer inception_4c/pool
I0403 19:12:38.579804  8945 net.cpp:425] inception_4c/pool <- inception_4b/output_inception_4b/output_0_split_3
I0403 19:12:38.579823  8945 net.cpp:399] inception_4c/pool -> inception_4c/pool
I0403 19:12:38.579890  8945 net.cpp:141] Setting up inception_4c/pool
I0403 19:12:38.579913  8945 net.cpp:148] Top shape: 24 512 14 14 (2408448)
I0403 19:12:38.579928  8945 net.cpp:156] Memory required for data: 1060605216
I0403 19:12:38.579941  8945 layer_factory.hpp:77] Creating layer inception_4c/pool_proj
I0403 19:12:38.579962  8945 net.cpp:91] Creating Layer inception_4c/pool_proj
I0403 19:12:38.579980  8945 net.cpp:425] inception_4c/pool_proj <- inception_4c/pool
I0403 19:12:38.580000  8945 net.cpp:399] inception_4c/pool_proj -> inception_4c/pool_proj
I0403 19:12:38.581187  8945 net.cpp:141] Setting up inception_4c/pool_proj
I0403 19:12:38.581214  8945 net.cpp:148] Top shape: 24 64 14 14 (301056)
I0403 19:12:38.581243  8945 net.cpp:156] Memory required for data: 1061809440
I0403 19:12:38.581261  8945 layer_factory.hpp:77] Creating layer inception_4c/relu_pool_proj
I0403 19:12:38.581279  8945 net.cpp:91] Creating Layer inception_4c/relu_pool_proj
I0403 19:12:38.581293  8945 net.cpp:425] inception_4c/relu_pool_proj <- inception_4c/pool_proj
I0403 19:12:38.581312  8945 net.cpp:386] inception_4c/relu_pool_proj -> inception_4c/pool_proj (in-place)
I0403 19:12:38.581491  8945 net.cpp:141] Setting up inception_4c/relu_pool_proj
I0403 19:12:38.581516  8945 net.cpp:148] Top shape: 24 64 14 14 (301056)
I0403 19:12:38.581531  8945 net.cpp:156] Memory required for data: 1063013664
I0403 19:12:38.581544  8945 layer_factory.hpp:77] Creating layer inception_4c/output
I0403 19:12:38.581560  8945 net.cpp:91] Creating Layer inception_4c/output
I0403 19:12:38.581580  8945 net.cpp:425] inception_4c/output <- inception_4c/1x1
I0403 19:12:38.581596  8945 net.cpp:425] inception_4c/output <- inception_4c/3x3
I0403 19:12:38.581611  8945 net.cpp:425] inception_4c/output <- inception_4c/5x5
I0403 19:12:38.581625  8945 net.cpp:425] inception_4c/output <- inception_4c/pool_proj
I0403 19:12:38.581641  8945 net.cpp:399] inception_4c/output -> inception_4c/output
I0403 19:12:38.581684  8945 net.cpp:141] Setting up inception_4c/output
I0403 19:12:38.581709  8945 net.cpp:148] Top shape: 24 512 14 14 (2408448)
I0403 19:12:38.581724  8945 net.cpp:156] Memory required for data: 1072647456
I0403 19:12:38.581739  8945 layer_factory.hpp:77] Creating layer inception_4c/output_inception_4c/output_0_split
I0403 19:12:38.581755  8945 net.cpp:91] Creating Layer inception_4c/output_inception_4c/output_0_split
I0403 19:12:38.581769  8945 net.cpp:425] inception_4c/output_inception_4c/output_0_split <- inception_4c/output
I0403 19:12:38.581789  8945 net.cpp:399] inception_4c/output_inception_4c/output_0_split -> inception_4c/output_inception_4c/output_0_split_0
I0403 19:12:38.581809  8945 net.cpp:399] inception_4c/output_inception_4c/output_0_split -> inception_4c/output_inception_4c/output_0_split_1
I0403 19:12:38.581828  8945 net.cpp:399] inception_4c/output_inception_4c/output_0_split -> inception_4c/output_inception_4c/output_0_split_2
I0403 19:12:38.581847  8945 net.cpp:399] inception_4c/output_inception_4c/output_0_split -> inception_4c/output_inception_4c/output_0_split_3
I0403 19:12:38.581926  8945 net.cpp:141] Setting up inception_4c/output_inception_4c/output_0_split
I0403 19:12:38.581951  8945 net.cpp:148] Top shape: 24 512 14 14 (2408448)
I0403 19:12:38.581969  8945 net.cpp:148] Top shape: 24 512 14 14 (2408448)
I0403 19:12:38.581984  8945 net.cpp:148] Top shape: 24 512 14 14 (2408448)
I0403 19:12:38.581998  8945 net.cpp:148] Top shape: 24 512 14 14 (2408448)
I0403 19:12:38.582012  8945 net.cpp:156] Memory required for data: 1111182624
I0403 19:12:38.582026  8945 layer_factory.hpp:77] Creating layer inception_4d/1x1
I0403 19:12:38.582046  8945 net.cpp:91] Creating Layer inception_4d/1x1
I0403 19:12:38.582063  8945 net.cpp:425] inception_4d/1x1 <- inception_4c/output_inception_4c/output_0_split_0
I0403 19:12:38.582082  8945 net.cpp:399] inception_4d/1x1 -> inception_4d/1x1
I0403 19:12:38.583487  8945 net.cpp:141] Setting up inception_4d/1x1
I0403 19:12:38.583518  8945 net.cpp:148] Top shape: 24 112 14 14 (526848)
I0403 19:12:38.583534  8945 net.cpp:156] Memory required for data: 1113290016
I0403 19:12:38.583554  8945 layer_factory.hpp:77] Creating layer inception_4d/relu_1x1
I0403 19:12:38.583570  8945 net.cpp:91] Creating Layer inception_4d/relu_1x1
I0403 19:12:38.583585  8945 net.cpp:425] inception_4d/relu_1x1 <- inception_4d/1x1
I0403 19:12:38.583601  8945 net.cpp:386] inception_4d/relu_1x1 -> inception_4d/1x1 (in-place)
I0403 19:12:38.583780  8945 net.cpp:141] Setting up inception_4d/relu_1x1
I0403 19:12:38.583807  8945 net.cpp:148] Top shape: 24 112 14 14 (526848)
I0403 19:12:38.583824  8945 net.cpp:156] Memory required for data: 1115397408
I0403 19:12:38.583838  8945 layer_factory.hpp:77] Creating layer inception_4d/3x3_reduce
I0403 19:12:38.583873  8945 net.cpp:91] Creating Layer inception_4d/3x3_reduce
I0403 19:12:38.583894  8945 net.cpp:425] inception_4d/3x3_reduce <- inception_4c/output_inception_4c/output_0_split_1
I0403 19:12:38.583911  8945 net.cpp:399] inception_4d/3x3_reduce -> inception_4d/3x3_reduce
I0403 19:12:38.585381  8945 net.cpp:141] Setting up inception_4d/3x3_reduce
I0403 19:12:38.585409  8945 net.cpp:148] Top shape: 24 144 14 14 (677376)
I0403 19:12:38.585425  8945 net.cpp:156] Memory required for data: 1118106912
I0403 19:12:38.585448  8945 layer_factory.hpp:77] Creating layer inception_4d/relu_3x3_reduce
I0403 19:12:38.585469  8945 net.cpp:91] Creating Layer inception_4d/relu_3x3_reduce
I0403 19:12:38.585484  8945 net.cpp:425] inception_4d/relu_3x3_reduce <- inception_4d/3x3_reduce
I0403 19:12:38.585502  8945 net.cpp:386] inception_4d/relu_3x3_reduce -> inception_4d/3x3_reduce (in-place)
I0403 19:12:38.585788  8945 net.cpp:141] Setting up inception_4d/relu_3x3_reduce
I0403 19:12:38.585815  8945 net.cpp:148] Top shape: 24 144 14 14 (677376)
I0403 19:12:38.585830  8945 net.cpp:156] Memory required for data: 1120816416
I0403 19:12:38.585846  8945 layer_factory.hpp:77] Creating layer inception_4d/3x3
I0403 19:12:38.585868  8945 net.cpp:91] Creating Layer inception_4d/3x3
I0403 19:12:38.585886  8945 net.cpp:425] inception_4d/3x3 <- inception_4d/3x3_reduce
I0403 19:12:38.585906  8945 net.cpp:399] inception_4d/3x3 -> inception_4d/3x3
I0403 19:12:38.590070  8945 net.cpp:141] Setting up inception_4d/3x3
I0403 19:12:38.590101  8945 net.cpp:148] Top shape: 24 288 14 14 (1354752)
I0403 19:12:38.590116  8945 net.cpp:156] Memory required for data: 1126235424
I0403 19:12:38.590134  8945 layer_factory.hpp:77] Creating layer inception_4d/relu_3x3
I0403 19:12:38.590157  8945 net.cpp:91] Creating Layer inception_4d/relu_3x3
I0403 19:12:38.590176  8945 net.cpp:425] inception_4d/relu_3x3 <- inception_4d/3x3
I0403 19:12:38.590195  8945 net.cpp:386] inception_4d/relu_3x3 -> inception_4d/3x3 (in-place)
I0403 19:12:38.590376  8945 net.cpp:141] Setting up inception_4d/relu_3x3
I0403 19:12:38.590401  8945 net.cpp:148] Top shape: 24 288 14 14 (1354752)
I0403 19:12:38.590416  8945 net.cpp:156] Memory required for data: 1131654432
I0403 19:12:38.590448  8945 layer_factory.hpp:77] Creating layer inception_4d/5x5_reduce
I0403 19:12:38.590473  8945 net.cpp:91] Creating Layer inception_4d/5x5_reduce
I0403 19:12:38.590492  8945 net.cpp:425] inception_4d/5x5_reduce <- inception_4c/output_inception_4c/output_0_split_2
I0403 19:12:38.590514  8945 net.cpp:399] inception_4d/5x5_reduce -> inception_4d/5x5_reduce
I0403 19:12:38.591647  8945 net.cpp:141] Setting up inception_4d/5x5_reduce
I0403 19:12:38.591678  8945 net.cpp:148] Top shape: 24 32 14 14 (150528)
I0403 19:12:38.591694  8945 net.cpp:156] Memory required for data: 1132256544
I0403 19:12:38.591712  8945 layer_factory.hpp:77] Creating layer inception_4d/relu_5x5_reduce
I0403 19:12:38.591730  8945 net.cpp:91] Creating Layer inception_4d/relu_5x5_reduce
I0403 19:12:38.591747  8945 net.cpp:425] inception_4d/relu_5x5_reduce <- inception_4d/5x5_reduce
I0403 19:12:38.591763  8945 net.cpp:386] inception_4d/relu_5x5_reduce -> inception_4d/5x5_reduce (in-place)
I0403 19:12:38.591948  8945 net.cpp:141] Setting up inception_4d/relu_5x5_reduce
I0403 19:12:38.591974  8945 net.cpp:148] Top shape: 24 32 14 14 (150528)
I0403 19:12:38.591989  8945 net.cpp:156] Memory required for data: 1132858656
I0403 19:12:38.592005  8945 layer_factory.hpp:77] Creating layer inception_4d/5x5
I0403 19:12:38.592026  8945 net.cpp:91] Creating Layer inception_4d/5x5
I0403 19:12:38.592043  8945 net.cpp:425] inception_4d/5x5 <- inception_4d/5x5_reduce
I0403 19:12:38.592064  8945 net.cpp:399] inception_4d/5x5 -> inception_4d/5x5
I0403 19:12:38.593497  8945 net.cpp:141] Setting up inception_4d/5x5
I0403 19:12:38.593525  8945 net.cpp:148] Top shape: 24 64 14 14 (301056)
I0403 19:12:38.593541  8945 net.cpp:156] Memory required for data: 1134062880
I0403 19:12:38.593560  8945 layer_factory.hpp:77] Creating layer inception_4d/relu_5x5
I0403 19:12:38.593595  8945 net.cpp:91] Creating Layer inception_4d/relu_5x5
I0403 19:12:38.593613  8945 net.cpp:425] inception_4d/relu_5x5 <- inception_4d/5x5
I0403 19:12:38.593631  8945 net.cpp:386] inception_4d/relu_5x5 -> inception_4d/5x5 (in-place)
I0403 19:12:38.593924  8945 net.cpp:141] Setting up inception_4d/relu_5x5
I0403 19:12:38.593950  8945 net.cpp:148] Top shape: 24 64 14 14 (301056)
I0403 19:12:38.593964  8945 net.cpp:156] Memory required for data: 1135267104
I0403 19:12:38.593979  8945 layer_factory.hpp:77] Creating layer inception_4d/pool
I0403 19:12:38.593997  8945 net.cpp:91] Creating Layer inception_4d/pool
I0403 19:12:38.594013  8945 net.cpp:425] inception_4d/pool <- inception_4c/output_inception_4c/output_0_split_3
I0403 19:12:38.594034  8945 net.cpp:399] inception_4d/pool -> inception_4d/pool
I0403 19:12:38.594097  8945 net.cpp:141] Setting up inception_4d/pool
I0403 19:12:38.594123  8945 net.cpp:148] Top shape: 24 512 14 14 (2408448)
I0403 19:12:38.594138  8945 net.cpp:156] Memory required for data: 1144900896
I0403 19:12:38.594153  8945 layer_factory.hpp:77] Creating layer inception_4d/pool_proj
I0403 19:12:38.594175  8945 net.cpp:91] Creating Layer inception_4d/pool_proj
I0403 19:12:38.594194  8945 net.cpp:425] inception_4d/pool_proj <- inception_4d/pool
I0403 19:12:38.594213  8945 net.cpp:399] inception_4d/pool_proj -> inception_4d/pool_proj
I0403 19:12:38.595948  8945 net.cpp:141] Setting up inception_4d/pool_proj
I0403 19:12:38.595980  8945 net.cpp:148] Top shape: 24 64 14 14 (301056)
I0403 19:12:38.595996  8945 net.cpp:156] Memory required for data: 1146105120
I0403 19:12:38.596017  8945 layer_factory.hpp:77] Creating layer inception_4d/relu_pool_proj
I0403 19:12:38.596040  8945 net.cpp:91] Creating Layer inception_4d/relu_pool_proj
I0403 19:12:38.596057  8945 net.cpp:425] inception_4d/relu_pool_proj <- inception_4d/pool_proj
I0403 19:12:38.596074  8945 net.cpp:386] inception_4d/relu_pool_proj -> inception_4d/pool_proj (in-place)
I0403 19:12:38.596257  8945 net.cpp:141] Setting up inception_4d/relu_pool_proj
I0403 19:12:38.596282  8945 net.cpp:148] Top shape: 24 64 14 14 (301056)
I0403 19:12:38.596297  8945 net.cpp:156] Memory required for data: 1147309344
I0403 19:12:38.596312  8945 layer_factory.hpp:77] Creating layer inception_4d/output
I0403 19:12:38.596329  8945 net.cpp:91] Creating Layer inception_4d/output
I0403 19:12:38.596344  8945 net.cpp:425] inception_4d/output <- inception_4d/1x1
I0403 19:12:38.596361  8945 net.cpp:425] inception_4d/output <- inception_4d/3x3
I0403 19:12:38.596376  8945 net.cpp:425] inception_4d/output <- inception_4d/5x5
I0403 19:12:38.596392  8945 net.cpp:425] inception_4d/output <- inception_4d/pool_proj
I0403 19:12:38.596413  8945 net.cpp:399] inception_4d/output -> inception_4d/output
I0403 19:12:38.596465  8945 net.cpp:141] Setting up inception_4d/output
I0403 19:12:38.596493  8945 net.cpp:148] Top shape: 24 528 14 14 (2483712)
I0403 19:12:38.596508  8945 net.cpp:156] Memory required for data: 1157244192
I0403 19:12:38.596523  8945 layer_factory.hpp:77] Creating layer inception_4d/output_inception_4d/output_0_split
I0403 19:12:38.596539  8945 net.cpp:91] Creating Layer inception_4d/output_inception_4d/output_0_split
I0403 19:12:38.596554  8945 net.cpp:425] inception_4d/output_inception_4d/output_0_split <- inception_4d/output
I0403 19:12:38.596572  8945 net.cpp:399] inception_4d/output_inception_4d/output_0_split -> inception_4d/output_inception_4d/output_0_split_0
I0403 19:12:38.596593  8945 net.cpp:399] inception_4d/output_inception_4d/output_0_split -> inception_4d/output_inception_4d/output_0_split_1
I0403 19:12:38.596616  8945 net.cpp:399] inception_4d/output_inception_4d/output_0_split -> inception_4d/output_inception_4d/output_0_split_2
I0403 19:12:38.596634  8945 net.cpp:399] inception_4d/output_inception_4d/output_0_split -> inception_4d/output_inception_4d/output_0_split_3
I0403 19:12:38.596654  8945 net.cpp:399] inception_4d/output_inception_4d/output_0_split -> inception_4d/output_inception_4d/output_0_split_4
I0403 19:12:38.596755  8945 net.cpp:141] Setting up inception_4d/output_inception_4d/output_0_split
I0403 19:12:38.596791  8945 net.cpp:148] Top shape: 24 528 14 14 (2483712)
I0403 19:12:38.596807  8945 net.cpp:148] Top shape: 24 528 14 14 (2483712)
I0403 19:12:38.596822  8945 net.cpp:148] Top shape: 24 528 14 14 (2483712)
I0403 19:12:38.596838  8945 net.cpp:148] Top shape: 24 528 14 14 (2483712)
I0403 19:12:38.596854  8945 net.cpp:148] Top shape: 24 528 14 14 (2483712)
I0403 19:12:38.596868  8945 net.cpp:156] Memory required for data: 1206918432
I0403 19:12:38.596882  8945 layer_factory.hpp:77] Creating layer loss2/ave_pool
I0403 19:12:38.596902  8945 net.cpp:91] Creating Layer loss2/ave_pool
I0403 19:12:38.596918  8945 net.cpp:425] loss2/ave_pool <- inception_4d/output_inception_4d/output_0_split_0
I0403 19:12:38.596937  8945 net.cpp:399] loss2/ave_pool -> loss2/ave_pool
I0403 19:12:38.597242  8945 net.cpp:141] Setting up loss2/ave_pool
I0403 19:12:38.597271  8945 net.cpp:148] Top shape: 24 528 4 4 (202752)
I0403 19:12:38.597287  8945 net.cpp:156] Memory required for data: 1207729440
I0403 19:12:38.597303  8945 layer_factory.hpp:77] Creating layer loss2/conv
I0403 19:12:38.597326  8945 net.cpp:91] Creating Layer loss2/conv
I0403 19:12:38.597343  8945 net.cpp:425] loss2/conv <- loss2/ave_pool
I0403 19:12:38.597362  8945 net.cpp:399] loss2/conv -> loss2/conv
I0403 19:12:38.599237  8945 net.cpp:141] Setting up loss2/conv
I0403 19:12:38.599277  8945 net.cpp:148] Top shape: 24 128 4 4 (49152)
I0403 19:12:38.599292  8945 net.cpp:156] Memory required for data: 1207926048
I0403 19:12:38.599310  8945 layer_factory.hpp:77] Creating layer loss2/relu_conv
I0403 19:12:38.599328  8945 net.cpp:91] Creating Layer loss2/relu_conv
I0403 19:12:38.599345  8945 net.cpp:425] loss2/relu_conv <- loss2/conv
I0403 19:12:38.599364  8945 net.cpp:386] loss2/relu_conv -> loss2/conv (in-place)
I0403 19:12:38.599659  8945 net.cpp:141] Setting up loss2/relu_conv
I0403 19:12:38.599688  8945 net.cpp:148] Top shape: 24 128 4 4 (49152)
I0403 19:12:38.599702  8945 net.cpp:156] Memory required for data: 1208122656
I0403 19:12:38.599717  8945 layer_factory.hpp:77] Creating layer loss2/fc
I0403 19:12:38.599736  8945 net.cpp:91] Creating Layer loss2/fc
I0403 19:12:38.599752  8945 net.cpp:425] loss2/fc <- loss2/conv
I0403 19:12:38.599774  8945 net.cpp:399] loss2/fc -> loss2/fc
I0403 19:12:38.616614  8945 net.cpp:141] Setting up loss2/fc
I0403 19:12:38.616646  8945 net.cpp:148] Top shape: 24 1024 (24576)
I0403 19:12:38.616660  8945 net.cpp:156] Memory required for data: 1208220960
I0403 19:12:38.616679  8945 layer_factory.hpp:77] Creating layer loss2/relu_fc
I0403 19:12:38.616696  8945 net.cpp:91] Creating Layer loss2/relu_fc
I0403 19:12:38.616713  8945 net.cpp:425] loss2/relu_fc <- loss2/fc
I0403 19:12:38.616729  8945 net.cpp:386] loss2/relu_fc -> loss2/fc (in-place)
I0403 19:12:38.617008  8945 net.cpp:141] Setting up loss2/relu_fc
I0403 19:12:38.617036  8945 net.cpp:148] Top shape: 24 1024 (24576)
I0403 19:12:38.617051  8945 net.cpp:156] Memory required for data: 1208319264
I0403 19:12:38.617066  8945 layer_factory.hpp:77] Creating layer loss2/drop_fc
I0403 19:12:38.617084  8945 net.cpp:91] Creating Layer loss2/drop_fc
I0403 19:12:38.617100  8945 net.cpp:425] loss2/drop_fc <- loss2/fc
I0403 19:12:38.617115  8945 net.cpp:386] loss2/drop_fc -> loss2/fc (in-place)
I0403 19:12:38.617162  8945 net.cpp:141] Setting up loss2/drop_fc
I0403 19:12:38.617185  8945 net.cpp:148] Top shape: 24 1024 (24576)
I0403 19:12:38.617200  8945 net.cpp:156] Memory required for data: 1208417568
I0403 19:12:38.617215  8945 layer_factory.hpp:77] Creating layer loss2/classifier_plantvillage
I0403 19:12:38.617235  8945 net.cpp:91] Creating Layer loss2/classifier_plantvillage
I0403 19:12:38.617251  8945 net.cpp:425] loss2/classifier_plantvillage <- loss2/fc
I0403 19:12:38.617269  8945 net.cpp:399] loss2/classifier_plantvillage -> loss2/classifier_plantvillage
I0403 19:12:38.617655  8945 net.cpp:141] Setting up loss2/classifier_plantvillage
I0403 19:12:38.617679  8945 net.cpp:148] Top shape: 24 38 (912)
I0403 19:12:38.617694  8945 net.cpp:156] Memory required for data: 1208421216
I0403 19:12:38.617727  8945 layer_factory.hpp:77] Creating layer loss2/classifier_plantvillage_loss2/classifier_plantvillage_0_split
I0403 19:12:38.617746  8945 net.cpp:91] Creating Layer loss2/classifier_plantvillage_loss2/classifier_plantvillage_0_split
I0403 19:12:38.617761  8945 net.cpp:425] loss2/classifier_plantvillage_loss2/classifier_plantvillage_0_split <- loss2/classifier_plantvillage
I0403 19:12:38.617780  8945 net.cpp:399] loss2/classifier_plantvillage_loss2/classifier_plantvillage_0_split -> loss2/classifier_plantvillage_loss2/classifier_plantvillage_0_split_0
I0403 19:12:38.617800  8945 net.cpp:399] loss2/classifier_plantvillage_loss2/classifier_plantvillage_0_split -> loss2/classifier_plantvillage_loss2/classifier_plantvillage_0_split_1
I0403 19:12:38.617821  8945 net.cpp:399] loss2/classifier_plantvillage_loss2/classifier_plantvillage_0_split -> loss2/classifier_plantvillage_loss2/classifier_plantvillage_0_split_2
I0403 19:12:38.617899  8945 net.cpp:141] Setting up loss2/classifier_plantvillage_loss2/classifier_plantvillage_0_split
I0403 19:12:38.617923  8945 net.cpp:148] Top shape: 24 38 (912)
I0403 19:12:38.617938  8945 net.cpp:148] Top shape: 24 38 (912)
I0403 19:12:38.617954  8945 net.cpp:148] Top shape: 24 38 (912)
I0403 19:12:38.617966  8945 net.cpp:156] Memory required for data: 1208432160
I0403 19:12:38.617980  8945 layer_factory.hpp:77] Creating layer inception_4e/1x1
I0403 19:12:38.618001  8945 net.cpp:91] Creating Layer inception_4e/1x1
I0403 19:12:38.618017  8945 net.cpp:425] inception_4e/1x1 <- inception_4d/output_inception_4d/output_0_split_1
I0403 19:12:38.618036  8945 net.cpp:399] inception_4e/1x1 -> inception_4e/1x1
I0403 19:12:38.619782  8945 net.cpp:141] Setting up inception_4e/1x1
I0403 19:12:38.619810  8945 net.cpp:148] Top shape: 24 256 14 14 (1204224)
I0403 19:12:38.619827  8945 net.cpp:156] Memory required for data: 1213249056
I0403 19:12:38.619844  8945 layer_factory.hpp:77] Creating layer inception_4e/relu_1x1
I0403 19:12:38.619863  8945 net.cpp:91] Creating Layer inception_4e/relu_1x1
I0403 19:12:38.619880  8945 net.cpp:425] inception_4e/relu_1x1 <- inception_4e/1x1
I0403 19:12:38.619897  8945 net.cpp:386] inception_4e/relu_1x1 -> inception_4e/1x1 (in-place)
I0403 19:12:38.620177  8945 net.cpp:141] Setting up inception_4e/relu_1x1
I0403 19:12:38.620203  8945 net.cpp:148] Top shape: 24 256 14 14 (1204224)
I0403 19:12:38.620216  8945 net.cpp:156] Memory required for data: 1218065952
I0403 19:12:38.620231  8945 layer_factory.hpp:77] Creating layer inception_4e/3x3_reduce
I0403 19:12:38.620254  8945 net.cpp:91] Creating Layer inception_4e/3x3_reduce
I0403 19:12:38.620270  8945 net.cpp:425] inception_4e/3x3_reduce <- inception_4d/output_inception_4d/output_0_split_2
I0403 19:12:38.620290  8945 net.cpp:399] inception_4e/3x3_reduce -> inception_4e/3x3_reduce
I0403 19:12:38.622285  8945 net.cpp:141] Setting up inception_4e/3x3_reduce
I0403 19:12:38.622313  8945 net.cpp:148] Top shape: 24 160 14 14 (752640)
I0403 19:12:38.622330  8945 net.cpp:156] Memory required for data: 1221076512
I0403 19:12:38.622349  8945 layer_factory.hpp:77] Creating layer inception_4e/relu_3x3_reduce
I0403 19:12:38.622364  8945 net.cpp:91] Creating Layer inception_4e/relu_3x3_reduce
I0403 19:12:38.622380  8945 net.cpp:425] inception_4e/relu_3x3_reduce <- inception_4e/3x3_reduce
I0403 19:12:38.622398  8945 net.cpp:386] inception_4e/relu_3x3_reduce -> inception_4e/3x3_reduce (in-place)
I0403 19:12:38.622603  8945 net.cpp:141] Setting up inception_4e/relu_3x3_reduce
I0403 19:12:38.622629  8945 net.cpp:148] Top shape: 24 160 14 14 (752640)
I0403 19:12:38.622644  8945 net.cpp:156] Memory required for data: 1224087072
I0403 19:12:38.622660  8945 layer_factory.hpp:77] Creating layer inception_4e/3x3
I0403 19:12:38.622683  8945 net.cpp:91] Creating Layer inception_4e/3x3
I0403 19:12:38.622699  8945 net.cpp:425] inception_4e/3x3 <- inception_4e/3x3_reduce
I0403 19:12:38.622732  8945 net.cpp:399] inception_4e/3x3 -> inception_4e/3x3
I0403 19:12:38.627527  8945 net.cpp:141] Setting up inception_4e/3x3
I0403 19:12:38.627579  8945 net.cpp:148] Top shape: 24 320 14 14 (1505280)
I0403 19:12:38.627596  8945 net.cpp:156] Memory required for data: 1230108192
I0403 19:12:38.627614  8945 layer_factory.hpp:77] Creating layer inception_4e/relu_3x3
I0403 19:12:38.627634  8945 net.cpp:91] Creating Layer inception_4e/relu_3x3
I0403 19:12:38.627650  8945 net.cpp:425] inception_4e/relu_3x3 <- inception_4e/3x3
I0403 19:12:38.627666  8945 net.cpp:386] inception_4e/relu_3x3 -> inception_4e/3x3 (in-place)
I0403 19:12:38.627957  8945 net.cpp:141] Setting up inception_4e/relu_3x3
I0403 19:12:38.627986  8945 net.cpp:148] Top shape: 24 320 14 14 (1505280)
I0403 19:12:38.628002  8945 net.cpp:156] Memory required for data: 1236129312
I0403 19:12:38.628018  8945 layer_factory.hpp:77] Creating layer inception_4e/5x5_reduce
I0403 19:12:38.628036  8945 net.cpp:91] Creating Layer inception_4e/5x5_reduce
I0403 19:12:38.628053  8945 net.cpp:425] inception_4e/5x5_reduce <- inception_4d/output_inception_4d/output_0_split_3
I0403 19:12:38.628075  8945 net.cpp:399] inception_4e/5x5_reduce -> inception_4e/5x5_reduce
I0403 19:12:38.629104  8945 net.cpp:141] Setting up inception_4e/5x5_reduce
I0403 19:12:38.629142  8945 net.cpp:148] Top shape: 24 32 14 14 (150528)
I0403 19:12:38.629159  8945 net.cpp:156] Memory required for data: 1236731424
I0403 19:12:38.629179  8945 layer_factory.hpp:77] Creating layer inception_4e/relu_5x5_reduce
I0403 19:12:38.629197  8945 net.cpp:91] Creating Layer inception_4e/relu_5x5_reduce
I0403 19:12:38.629215  8945 net.cpp:425] inception_4e/relu_5x5_reduce <- inception_4e/5x5_reduce
I0403 19:12:38.629233  8945 net.cpp:386] inception_4e/relu_5x5_reduce -> inception_4e/5x5_reduce (in-place)
I0403 19:12:38.629549  8945 net.cpp:141] Setting up inception_4e/relu_5x5_reduce
I0403 19:12:38.629573  8945 net.cpp:148] Top shape: 24 32 14 14 (150528)
I0403 19:12:38.629588  8945 net.cpp:156] Memory required for data: 1237333536
I0403 19:12:38.629603  8945 layer_factory.hpp:77] Creating layer inception_4e/5x5
I0403 19:12:38.629640  8945 net.cpp:91] Creating Layer inception_4e/5x5
I0403 19:12:38.629659  8945 net.cpp:425] inception_4e/5x5 <- inception_4e/5x5_reduce
I0403 19:12:38.629678  8945 net.cpp:399] inception_4e/5x5 -> inception_4e/5x5
I0403 19:12:38.631408  8945 net.cpp:141] Setting up inception_4e/5x5
I0403 19:12:38.631444  8945 net.cpp:148] Top shape: 24 128 14 14 (602112)
I0403 19:12:38.631460  8945 net.cpp:156] Memory required for data: 1239741984
I0403 19:12:38.631479  8945 layer_factory.hpp:77] Creating layer inception_4e/relu_5x5
I0403 19:12:38.631497  8945 net.cpp:91] Creating Layer inception_4e/relu_5x5
I0403 19:12:38.631512  8945 net.cpp:425] inception_4e/relu_5x5 <- inception_4e/5x5
I0403 19:12:38.631531  8945 net.cpp:386] inception_4e/relu_5x5 -> inception_4e/5x5 (in-place)
I0403 19:12:38.631719  8945 net.cpp:141] Setting up inception_4e/relu_5x5
I0403 19:12:38.631744  8945 net.cpp:148] Top shape: 24 128 14 14 (602112)
I0403 19:12:38.631758  8945 net.cpp:156] Memory required for data: 1242150432
I0403 19:12:38.631773  8945 layer_factory.hpp:77] Creating layer inception_4e/pool
I0403 19:12:38.631790  8945 net.cpp:91] Creating Layer inception_4e/pool
I0403 19:12:38.631805  8945 net.cpp:425] inception_4e/pool <- inception_4d/output_inception_4d/output_0_split_4
I0403 19:12:38.631824  8945 net.cpp:399] inception_4e/pool -> inception_4e/pool
I0403 19:12:38.631892  8945 net.cpp:141] Setting up inception_4e/pool
I0403 19:12:38.631916  8945 net.cpp:148] Top shape: 24 528 14 14 (2483712)
I0403 19:12:38.631930  8945 net.cpp:156] Memory required for data: 1252085280
I0403 19:12:38.631945  8945 layer_factory.hpp:77] Creating layer inception_4e/pool_proj
I0403 19:12:38.631968  8945 net.cpp:91] Creating Layer inception_4e/pool_proj
I0403 19:12:38.631984  8945 net.cpp:425] inception_4e/pool_proj <- inception_4e/pool
I0403 19:12:38.632004  8945 net.cpp:399] inception_4e/pool_proj -> inception_4e/pool_proj
I0403 19:12:38.633468  8945 net.cpp:141] Setting up inception_4e/pool_proj
I0403 19:12:38.633498  8945 net.cpp:148] Top shape: 24 128 14 14 (602112)
I0403 19:12:38.633527  8945 net.cpp:156] Memory required for data: 1254493728
I0403 19:12:38.633546  8945 layer_factory.hpp:77] Creating layer inception_4e/relu_pool_proj
I0403 19:12:38.633563  8945 net.cpp:91] Creating Layer inception_4e/relu_pool_proj
I0403 19:12:38.633579  8945 net.cpp:425] inception_4e/relu_pool_proj <- inception_4e/pool_proj
I0403 19:12:38.633597  8945 net.cpp:386] inception_4e/relu_pool_proj -> inception_4e/pool_proj (in-place)
I0403 19:12:38.633873  8945 net.cpp:141] Setting up inception_4e/relu_pool_proj
I0403 19:12:38.633903  8945 net.cpp:148] Top shape: 24 128 14 14 (602112)
I0403 19:12:38.633918  8945 net.cpp:156] Memory required for data: 1256902176
I0403 19:12:38.633932  8945 layer_factory.hpp:77] Creating layer inception_4e/output
I0403 19:12:38.633949  8945 net.cpp:91] Creating Layer inception_4e/output
I0403 19:12:38.633963  8945 net.cpp:425] inception_4e/output <- inception_4e/1x1
I0403 19:12:38.633980  8945 net.cpp:425] inception_4e/output <- inception_4e/3x3
I0403 19:12:38.633996  8945 net.cpp:425] inception_4e/output <- inception_4e/5x5
I0403 19:12:38.634011  8945 net.cpp:425] inception_4e/output <- inception_4e/pool_proj
I0403 19:12:38.634027  8945 net.cpp:399] inception_4e/output -> inception_4e/output
I0403 19:12:38.634073  8945 net.cpp:141] Setting up inception_4e/output
I0403 19:12:38.634098  8945 net.cpp:148] Top shape: 24 832 14 14 (3913728)
I0403 19:12:38.634111  8945 net.cpp:156] Memory required for data: 1272557088
I0403 19:12:38.634125  8945 layer_factory.hpp:77] Creating layer pool4/3x3_s2
I0403 19:12:38.634145  8945 net.cpp:91] Creating Layer pool4/3x3_s2
I0403 19:12:38.634161  8945 net.cpp:425] pool4/3x3_s2 <- inception_4e/output
I0403 19:12:38.634178  8945 net.cpp:399] pool4/3x3_s2 -> pool4/3x3_s2
I0403 19:12:38.634243  8945 net.cpp:141] Setting up pool4/3x3_s2
I0403 19:12:38.634268  8945 net.cpp:148] Top shape: 24 832 7 7 (978432)
I0403 19:12:38.634281  8945 net.cpp:156] Memory required for data: 1276470816
I0403 19:12:38.634295  8945 layer_factory.hpp:77] Creating layer pool4/3x3_s2_pool4/3x3_s2_0_split
I0403 19:12:38.634312  8945 net.cpp:91] Creating Layer pool4/3x3_s2_pool4/3x3_s2_0_split
I0403 19:12:38.634326  8945 net.cpp:425] pool4/3x3_s2_pool4/3x3_s2_0_split <- pool4/3x3_s2
I0403 19:12:38.634346  8945 net.cpp:399] pool4/3x3_s2_pool4/3x3_s2_0_split -> pool4/3x3_s2_pool4/3x3_s2_0_split_0
I0403 19:12:38.634364  8945 net.cpp:399] pool4/3x3_s2_pool4/3x3_s2_0_split -> pool4/3x3_s2_pool4/3x3_s2_0_split_1
I0403 19:12:38.634383  8945 net.cpp:399] pool4/3x3_s2_pool4/3x3_s2_0_split -> pool4/3x3_s2_pool4/3x3_s2_0_split_2
I0403 19:12:38.634403  8945 net.cpp:399] pool4/3x3_s2_pool4/3x3_s2_0_split -> pool4/3x3_s2_pool4/3x3_s2_0_split_3
I0403 19:12:38.634495  8945 net.cpp:141] Setting up pool4/3x3_s2_pool4/3x3_s2_0_split
I0403 19:12:38.634519  8945 net.cpp:148] Top shape: 24 832 7 7 (978432)
I0403 19:12:38.634536  8945 net.cpp:148] Top shape: 24 832 7 7 (978432)
I0403 19:12:38.634551  8945 net.cpp:148] Top shape: 24 832 7 7 (978432)
I0403 19:12:38.634567  8945 net.cpp:148] Top shape: 24 832 7 7 (978432)
I0403 19:12:38.634580  8945 net.cpp:156] Memory required for data: 1292125728
I0403 19:12:38.634594  8945 layer_factory.hpp:77] Creating layer inception_5a/1x1
I0403 19:12:38.634615  8945 net.cpp:91] Creating Layer inception_5a/1x1
I0403 19:12:38.634632  8945 net.cpp:425] inception_5a/1x1 <- pool4/3x3_s2_pool4/3x3_s2_0_split_0
I0403 19:12:38.634650  8945 net.cpp:399] inception_5a/1x1 -> inception_5a/1x1
I0403 19:12:38.637403  8945 net.cpp:141] Setting up inception_5a/1x1
I0403 19:12:38.637439  8945 net.cpp:148] Top shape: 24 256 7 7 (301056)
I0403 19:12:38.637457  8945 net.cpp:156] Memory required for data: 1293329952
I0403 19:12:38.637486  8945 layer_factory.hpp:77] Creating layer inception_5a/relu_1x1
I0403 19:12:38.637502  8945 net.cpp:91] Creating Layer inception_5a/relu_1x1
I0403 19:12:38.637517  8945 net.cpp:425] inception_5a/relu_1x1 <- inception_5a/1x1
I0403 19:12:38.637537  8945 net.cpp:386] inception_5a/relu_1x1 -> inception_5a/1x1 (in-place)
I0403 19:12:38.637833  8945 net.cpp:141] Setting up inception_5a/relu_1x1
I0403 19:12:38.637859  8945 net.cpp:148] Top shape: 24 256 7 7 (301056)
I0403 19:12:38.637873  8945 net.cpp:156] Memory required for data: 1294534176
I0403 19:12:38.637888  8945 layer_factory.hpp:77] Creating layer inception_5a/3x3_reduce
I0403 19:12:38.637912  8945 net.cpp:91] Creating Layer inception_5a/3x3_reduce
I0403 19:12:38.637929  8945 net.cpp:425] inception_5a/3x3_reduce <- pool4/3x3_s2_pool4/3x3_s2_0_split_1
I0403 19:12:38.637950  8945 net.cpp:399] inception_5a/3x3_reduce -> inception_5a/3x3_reduce
I0403 19:12:38.640349  8945 net.cpp:141] Setting up inception_5a/3x3_reduce
I0403 19:12:38.640378  8945 net.cpp:148] Top shape: 24 160 7 7 (188160)
I0403 19:12:38.640395  8945 net.cpp:156] Memory required for data: 1295286816
I0403 19:12:38.640413  8945 layer_factory.hpp:77] Creating layer inception_5a/relu_3x3_reduce
I0403 19:12:38.640439  8945 net.cpp:91] Creating Layer inception_5a/relu_3x3_reduce
I0403 19:12:38.640457  8945 net.cpp:425] inception_5a/relu_3x3_reduce <- inception_5a/3x3_reduce
I0403 19:12:38.640475  8945 net.cpp:386] inception_5a/relu_3x3_reduce -> inception_5a/3x3_reduce (in-place)
I0403 19:12:38.640663  8945 net.cpp:141] Setting up inception_5a/relu_3x3_reduce
I0403 19:12:38.640689  8945 net.cpp:148] Top shape: 24 160 7 7 (188160)
I0403 19:12:38.640703  8945 net.cpp:156] Memory required for data: 1296039456
I0403 19:12:38.640717  8945 layer_factory.hpp:77] Creating layer inception_5a/3x3
I0403 19:12:38.640739  8945 net.cpp:91] Creating Layer inception_5a/3x3
I0403 19:12:38.640758  8945 net.cpp:425] inception_5a/3x3 <- inception_5a/3x3_reduce
I0403 19:12:38.640780  8945 net.cpp:399] inception_5a/3x3 -> inception_5a/3x3
I0403 19:12:38.645716  8945 net.cpp:141] Setting up inception_5a/3x3
I0403 19:12:38.645748  8945 net.cpp:148] Top shape: 24 320 7 7 (376320)
I0403 19:12:38.645766  8945 net.cpp:156] Memory required for data: 1297544736
I0403 19:12:38.645784  8945 layer_factory.hpp:77] Creating layer inception_5a/relu_3x3
I0403 19:12:38.645802  8945 net.cpp:91] Creating Layer inception_5a/relu_3x3
I0403 19:12:38.645818  8945 net.cpp:425] inception_5a/relu_3x3 <- inception_5a/3x3
I0403 19:12:38.645838  8945 net.cpp:386] inception_5a/relu_3x3 -> inception_5a/3x3 (in-place)
I0403 19:12:38.646131  8945 net.cpp:141] Setting up inception_5a/relu_3x3
I0403 19:12:38.646158  8945 net.cpp:148] Top shape: 24 320 7 7 (376320)
I0403 19:12:38.646175  8945 net.cpp:156] Memory required for data: 1299050016
I0403 19:12:38.646190  8945 layer_factory.hpp:77] Creating layer inception_5a/5x5_reduce
I0403 19:12:38.646214  8945 net.cpp:91] Creating Layer inception_5a/5x5_reduce
I0403 19:12:38.646232  8945 net.cpp:425] inception_5a/5x5_reduce <- pool4/3x3_s2_pool4/3x3_s2_0_split_2
I0403 19:12:38.646251  8945 net.cpp:399] inception_5a/5x5_reduce -> inception_5a/5x5_reduce
I0403 19:12:38.647419  8945 net.cpp:141] Setting up inception_5a/5x5_reduce
I0403 19:12:38.647454  8945 net.cpp:148] Top shape: 24 32 7 7 (37632)
I0403 19:12:38.647469  8945 net.cpp:156] Memory required for data: 1299200544
I0403 19:12:38.647500  8945 layer_factory.hpp:77] Creating layer inception_5a/relu_5x5_reduce
I0403 19:12:38.647518  8945 net.cpp:91] Creating Layer inception_5a/relu_5x5_reduce
I0403 19:12:38.647534  8945 net.cpp:425] inception_5a/relu_5x5_reduce <- inception_5a/5x5_reduce
I0403 19:12:38.647553  8945 net.cpp:386] inception_5a/relu_5x5_reduce -> inception_5a/5x5_reduce (in-place)
I0403 19:12:38.647846  8945 net.cpp:141] Setting up inception_5a/relu_5x5_reduce
I0403 19:12:38.647872  8945 net.cpp:148] Top shape: 24 32 7 7 (37632)
I0403 19:12:38.647888  8945 net.cpp:156] Memory required for data: 1299351072
I0403 19:12:38.647903  8945 layer_factory.hpp:77] Creating layer inception_5a/5x5
I0403 19:12:38.647927  8945 net.cpp:91] Creating Layer inception_5a/5x5
I0403 19:12:38.647943  8945 net.cpp:425] inception_5a/5x5 <- inception_5a/5x5_reduce
I0403 19:12:38.647965  8945 net.cpp:399] inception_5a/5x5 -> inception_5a/5x5
I0403 19:12:38.649651  8945 net.cpp:141] Setting up inception_5a/5x5
I0403 19:12:38.649693  8945 net.cpp:148] Top shape: 24 128 7 7 (150528)
I0403 19:12:38.649709  8945 net.cpp:156] Memory required for data: 1299953184
I0403 19:12:38.649729  8945 layer_factory.hpp:77] Creating layer inception_5a/relu_5x5
I0403 19:12:38.649745  8945 net.cpp:91] Creating Layer inception_5a/relu_5x5
I0403 19:12:38.649760  8945 net.cpp:425] inception_5a/relu_5x5 <- inception_5a/5x5
I0403 19:12:38.649780  8945 net.cpp:386] inception_5a/relu_5x5 -> inception_5a/5x5 (in-place)
I0403 19:12:38.649968  8945 net.cpp:141] Setting up inception_5a/relu_5x5
I0403 19:12:38.649994  8945 net.cpp:148] Top shape: 24 128 7 7 (150528)
I0403 19:12:38.650009  8945 net.cpp:156] Memory required for data: 1300555296
I0403 19:12:38.650023  8945 layer_factory.hpp:77] Creating layer inception_5a/pool
I0403 19:12:38.650040  8945 net.cpp:91] Creating Layer inception_5a/pool
I0403 19:12:38.650056  8945 net.cpp:425] inception_5a/pool <- pool4/3x3_s2_pool4/3x3_s2_0_split_3
I0403 19:12:38.650076  8945 net.cpp:399] inception_5a/pool -> inception_5a/pool
I0403 19:12:38.650146  8945 net.cpp:141] Setting up inception_5a/pool
I0403 19:12:38.650171  8945 net.cpp:148] Top shape: 24 832 7 7 (978432)
I0403 19:12:38.650184  8945 net.cpp:156] Memory required for data: 1304469024
I0403 19:12:38.650198  8945 layer_factory.hpp:77] Creating layer inception_5a/pool_proj
I0403 19:12:38.650221  8945 net.cpp:91] Creating Layer inception_5a/pool_proj
I0403 19:12:38.650239  8945 net.cpp:425] inception_5a/pool_proj <- inception_5a/pool
I0403 19:12:38.650259  8945 net.cpp:399] inception_5a/pool_proj -> inception_5a/pool_proj
I0403 19:12:38.652524  8945 net.cpp:141] Setting up inception_5a/pool_proj
I0403 19:12:38.652557  8945 net.cpp:148] Top shape: 24 128 7 7 (150528)
I0403 19:12:38.652575  8945 net.cpp:156] Memory required for data: 1305071136
I0403 19:12:38.652593  8945 layer_factory.hpp:77] Creating layer inception_5a/relu_pool_proj
I0403 19:12:38.652611  8945 net.cpp:91] Creating Layer inception_5a/relu_pool_proj
I0403 19:12:38.652626  8945 net.cpp:425] inception_5a/relu_pool_proj <- inception_5a/pool_proj
I0403 19:12:38.652644  8945 net.cpp:386] inception_5a/relu_pool_proj -> inception_5a/pool_proj (in-place)
I0403 19:12:38.652933  8945 net.cpp:141] Setting up inception_5a/relu_pool_proj
I0403 19:12:38.652962  8945 net.cpp:148] Top shape: 24 128 7 7 (150528)
I0403 19:12:38.652978  8945 net.cpp:156] Memory required for data: 1305673248
I0403 19:12:38.652993  8945 layer_factory.hpp:77] Creating layer inception_5a/output
I0403 19:12:38.653010  8945 net.cpp:91] Creating Layer inception_5a/output
I0403 19:12:38.653026  8945 net.cpp:425] inception_5a/output <- inception_5a/1x1
I0403 19:12:38.653043  8945 net.cpp:425] inception_5a/output <- inception_5a/3x3
I0403 19:12:38.653059  8945 net.cpp:425] inception_5a/output <- inception_5a/5x5
I0403 19:12:38.653074  8945 net.cpp:425] inception_5a/output <- inception_5a/pool_proj
I0403 19:12:38.653090  8945 net.cpp:399] inception_5a/output -> inception_5a/output
I0403 19:12:38.653141  8945 net.cpp:141] Setting up inception_5a/output
I0403 19:12:38.653165  8945 net.cpp:148] Top shape: 24 832 7 7 (978432)
I0403 19:12:38.653180  8945 net.cpp:156] Memory required for data: 1309586976
I0403 19:12:38.653194  8945 layer_factory.hpp:77] Creating layer inception_5a/output_inception_5a/output_0_split
I0403 19:12:38.653213  8945 net.cpp:91] Creating Layer inception_5a/output_inception_5a/output_0_split
I0403 19:12:38.653229  8945 net.cpp:425] inception_5a/output_inception_5a/output_0_split <- inception_5a/output
I0403 19:12:38.653247  8945 net.cpp:399] inception_5a/output_inception_5a/output_0_split -> inception_5a/output_inception_5a/output_0_split_0
I0403 19:12:38.653267  8945 net.cpp:399] inception_5a/output_inception_5a/output_0_split -> inception_5a/output_inception_5a/output_0_split_1
I0403 19:12:38.653287  8945 net.cpp:399] inception_5a/output_inception_5a/output_0_split -> inception_5a/output_inception_5a/output_0_split_2
I0403 19:12:38.653306  8945 net.cpp:399] inception_5a/output_inception_5a/output_0_split -> inception_5a/output_inception_5a/output_0_split_3
I0403 19:12:38.653419  8945 net.cpp:141] Setting up inception_5a/output_inception_5a/output_0_split
I0403 19:12:38.653448  8945 net.cpp:148] Top shape: 24 832 7 7 (978432)
I0403 19:12:38.653465  8945 net.cpp:148] Top shape: 24 832 7 7 (978432)
I0403 19:12:38.653481  8945 net.cpp:148] Top shape: 24 832 7 7 (978432)
I0403 19:12:38.653497  8945 net.cpp:148] Top shape: 24 832 7 7 (978432)
I0403 19:12:38.653512  8945 net.cpp:156] Memory required for data: 1325241888
I0403 19:12:38.653527  8945 layer_factory.hpp:77] Creating layer inception_5b/1x1
I0403 19:12:38.653548  8945 net.cpp:91] Creating Layer inception_5b/1x1
I0403 19:12:38.653564  8945 net.cpp:425] inception_5b/1x1 <- inception_5a/output_inception_5a/output_0_split_0
I0403 19:12:38.653585  8945 net.cpp:399] inception_5b/1x1 -> inception_5b/1x1
I0403 19:12:38.657230  8945 net.cpp:141] Setting up inception_5b/1x1
I0403 19:12:38.657260  8945 net.cpp:148] Top shape: 24 384 7 7 (451584)
I0403 19:12:38.657275  8945 net.cpp:156] Memory required for data: 1327048224
I0403 19:12:38.657294  8945 layer_factory.hpp:77] Creating layer inception_5b/relu_1x1
I0403 19:12:38.657313  8945 net.cpp:91] Creating Layer inception_5b/relu_1x1
I0403 19:12:38.657330  8945 net.cpp:425] inception_5b/relu_1x1 <- inception_5b/1x1
I0403 19:12:38.657346  8945 net.cpp:386] inception_5b/relu_1x1 -> inception_5b/1x1 (in-place)
I0403 19:12:38.657665  8945 net.cpp:141] Setting up inception_5b/relu_1x1
I0403 19:12:38.657691  8945 net.cpp:148] Top shape: 24 384 7 7 (451584)
I0403 19:12:38.657706  8945 net.cpp:156] Memory required for data: 1328854560
I0403 19:12:38.657719  8945 layer_factory.hpp:77] Creating layer inception_5b/3x3_reduce
I0403 19:12:38.657742  8945 net.cpp:91] Creating Layer inception_5b/3x3_reduce
I0403 19:12:38.657760  8945 net.cpp:425] inception_5b/3x3_reduce <- inception_5a/output_inception_5a/output_0_split_1
I0403 19:12:38.657780  8945 net.cpp:399] inception_5b/3x3_reduce -> inception_5b/3x3_reduce
I0403 19:12:38.660337  8945 net.cpp:141] Setting up inception_5b/3x3_reduce
I0403 19:12:38.660373  8945 net.cpp:148] Top shape: 24 192 7 7 (225792)
I0403 19:12:38.660392  8945 net.cpp:156] Memory required for data: 1329757728
I0403 19:12:38.660410  8945 layer_factory.hpp:77] Creating layer inception_5b/relu_3x3_reduce
I0403 19:12:38.660432  8945 net.cpp:91] Creating Layer inception_5b/relu_3x3_reduce
I0403 19:12:38.660450  8945 net.cpp:425] inception_5b/relu_3x3_reduce <- inception_5b/3x3_reduce
I0403 19:12:38.660470  8945 net.cpp:386] inception_5b/relu_3x3_reduce -> inception_5b/3x3_reduce (in-place)
I0403 19:12:38.660665  8945 net.cpp:141] Setting up inception_5b/relu_3x3_reduce
I0403 19:12:38.660689  8945 net.cpp:148] Top shape: 24 192 7 7 (225792)
I0403 19:12:38.660703  8945 net.cpp:156] Memory required for data: 1330660896
I0403 19:12:38.660718  8945 layer_factory.hpp:77] Creating layer inception_5b/3x3
I0403 19:12:38.660740  8945 net.cpp:91] Creating Layer inception_5b/3x3
I0403 19:12:38.660758  8945 net.cpp:425] inception_5b/3x3 <- inception_5b/3x3_reduce
I0403 19:12:38.660778  8945 net.cpp:399] inception_5b/3x3 -> inception_5b/3x3
I0403 19:12:38.667196  8945 net.cpp:141] Setting up inception_5b/3x3
I0403 19:12:38.667227  8945 net.cpp:148] Top shape: 24 384 7 7 (451584)
I0403 19:12:38.667244  8945 net.cpp:156] Memory required for data: 1332467232
I0403 19:12:38.667263  8945 layer_factory.hpp:77] Creating layer inception_5b/relu_3x3
I0403 19:12:38.667281  8945 net.cpp:91] Creating Layer inception_5b/relu_3x3
I0403 19:12:38.667297  8945 net.cpp:425] inception_5b/relu_3x3 <- inception_5b/3x3
I0403 19:12:38.667315  8945 net.cpp:386] inception_5b/relu_3x3 -> inception_5b/3x3 (in-place)
I0403 19:12:38.667618  8945 net.cpp:141] Setting up inception_5b/relu_3x3
I0403 19:12:38.667645  8945 net.cpp:148] Top shape: 24 384 7 7 (451584)
I0403 19:12:38.667668  8945 net.cpp:156] Memory required for data: 1334273568
I0403 19:12:38.667685  8945 layer_factory.hpp:77] Creating layer inception_5b/5x5_reduce
I0403 19:12:38.667721  8945 net.cpp:91] Creating Layer inception_5b/5x5_reduce
I0403 19:12:38.667739  8945 net.cpp:425] inception_5b/5x5_reduce <- inception_5a/output_inception_5a/output_0_split_2
I0403 19:12:38.667758  8945 net.cpp:399] inception_5b/5x5_reduce -> inception_5b/5x5_reduce
I0403 19:12:38.668967  8945 net.cpp:141] Setting up inception_5b/5x5_reduce
I0403 19:12:38.668998  8945 net.cpp:148] Top shape: 24 48 7 7 (56448)
I0403 19:12:38.669013  8945 net.cpp:156] Memory required for data: 1334499360
I0403 19:12:38.669031  8945 layer_factory.hpp:77] Creating layer inception_5b/relu_5x5_reduce
I0403 19:12:38.669049  8945 net.cpp:91] Creating Layer inception_5b/relu_5x5_reduce
I0403 19:12:38.669064  8945 net.cpp:425] inception_5b/relu_5x5_reduce <- inception_5b/5x5_reduce
I0403 19:12:38.669083  8945 net.cpp:386] inception_5b/relu_5x5_reduce -> inception_5b/5x5_reduce (in-place)
I0403 19:12:38.669445  8945 net.cpp:141] Setting up inception_5b/relu_5x5_reduce
I0403 19:12:38.669471  8945 net.cpp:148] Top shape: 24 48 7 7 (56448)
I0403 19:12:38.669486  8945 net.cpp:156] Memory required for data: 1334725152
I0403 19:12:38.669500  8945 layer_factory.hpp:77] Creating layer inception_5b/5x5
I0403 19:12:38.669519  8945 net.cpp:91] Creating Layer inception_5b/5x5
I0403 19:12:38.669535  8945 net.cpp:425] inception_5b/5x5 <- inception_5b/5x5_reduce
I0403 19:12:38.669554  8945 net.cpp:399] inception_5b/5x5 -> inception_5b/5x5
I0403 19:12:38.671528  8945 net.cpp:141] Setting up inception_5b/5x5
I0403 19:12:38.671556  8945 net.cpp:148] Top shape: 24 128 7 7 (150528)
I0403 19:12:38.671571  8945 net.cpp:156] Memory required for data: 1335327264
I0403 19:12:38.671589  8945 layer_factory.hpp:77] Creating layer inception_5b/relu_5x5
I0403 19:12:38.671607  8945 net.cpp:91] Creating Layer inception_5b/relu_5x5
I0403 19:12:38.671622  8945 net.cpp:425] inception_5b/relu_5x5 <- inception_5b/5x5
I0403 19:12:38.671639  8945 net.cpp:386] inception_5b/relu_5x5 -> inception_5b/5x5 (in-place)
I0403 19:12:38.671828  8945 net.cpp:141] Setting up inception_5b/relu_5x5
I0403 19:12:38.671851  8945 net.cpp:148] Top shape: 24 128 7 7 (150528)
I0403 19:12:38.671866  8945 net.cpp:156] Memory required for data: 1335929376
I0403 19:12:38.671880  8945 layer_factory.hpp:77] Creating layer inception_5b/pool
I0403 19:12:38.671900  8945 net.cpp:91] Creating Layer inception_5b/pool
I0403 19:12:38.671917  8945 net.cpp:425] inception_5b/pool <- inception_5a/output_inception_5a/output_0_split_3
I0403 19:12:38.671936  8945 net.cpp:399] inception_5b/pool -> inception_5b/pool
I0403 19:12:38.672003  8945 net.cpp:141] Setting up inception_5b/pool
I0403 19:12:38.672027  8945 net.cpp:148] Top shape: 24 832 7 7 (978432)
I0403 19:12:38.672042  8945 net.cpp:156] Memory required for data: 1339843104
I0403 19:12:38.672056  8945 layer_factory.hpp:77] Creating layer inception_5b/pool_proj
I0403 19:12:38.672077  8945 net.cpp:91] Creating Layer inception_5b/pool_proj
I0403 19:12:38.672096  8945 net.cpp:425] inception_5b/pool_proj <- inception_5b/pool
I0403 19:12:38.672116  8945 net.cpp:399] inception_5b/pool_proj -> inception_5b/pool_proj
I0403 19:12:38.674341  8945 net.cpp:141] Setting up inception_5b/pool_proj
I0403 19:12:38.674373  8945 net.cpp:148] Top shape: 24 128 7 7 (150528)
I0403 19:12:38.674388  8945 net.cpp:156] Memory required for data: 1340445216
I0403 19:12:38.674407  8945 layer_factory.hpp:77] Creating layer inception_5b/relu_pool_proj
I0403 19:12:38.674424  8945 net.cpp:91] Creating Layer inception_5b/relu_pool_proj
I0403 19:12:38.674448  8945 net.cpp:425] inception_5b/relu_pool_proj <- inception_5b/pool_proj
I0403 19:12:38.674468  8945 net.cpp:386] inception_5b/relu_pool_proj -> inception_5b/pool_proj (in-place)
I0403 19:12:38.674757  8945 net.cpp:141] Setting up inception_5b/relu_pool_proj
I0403 19:12:38.674784  8945 net.cpp:148] Top shape: 24 128 7 7 (150528)
I0403 19:12:38.674800  8945 net.cpp:156] Memory required for data: 1341047328
I0403 19:12:38.674815  8945 layer_factory.hpp:77] Creating layer inception_5b/output
I0403 19:12:38.674831  8945 net.cpp:91] Creating Layer inception_5b/output
I0403 19:12:38.674860  8945 net.cpp:425] inception_5b/output <- inception_5b/1x1
I0403 19:12:38.674876  8945 net.cpp:425] inception_5b/output <- inception_5b/3x3
I0403 19:12:38.674892  8945 net.cpp:425] inception_5b/output <- inception_5b/5x5
I0403 19:12:38.674908  8945 net.cpp:425] inception_5b/output <- inception_5b/pool_proj
I0403 19:12:38.674927  8945 net.cpp:399] inception_5b/output -> inception_5b/output
I0403 19:12:38.674978  8945 net.cpp:141] Setting up inception_5b/output
I0403 19:12:38.675000  8945 net.cpp:148] Top shape: 24 1024 7 7 (1204224)
I0403 19:12:38.675015  8945 net.cpp:156] Memory required for data: 1345864224
I0403 19:12:38.675029  8945 layer_factory.hpp:77] Creating layer pool5/7x7_s1
I0403 19:12:38.675050  8945 net.cpp:91] Creating Layer pool5/7x7_s1
I0403 19:12:38.675065  8945 net.cpp:425] pool5/7x7_s1 <- inception_5b/output
I0403 19:12:38.675082  8945 net.cpp:399] pool5/7x7_s1 -> pool5/7x7_s1
I0403 19:12:38.675304  8945 net.cpp:141] Setting up pool5/7x7_s1
I0403 19:12:38.675333  8945 net.cpp:148] Top shape: 24 1024 1 1 (24576)
I0403 19:12:38.675349  8945 net.cpp:156] Memory required for data: 1345962528
I0403 19:12:38.675364  8945 layer_factory.hpp:77] Creating layer pool5/drop_7x7_s1
I0403 19:12:38.675382  8945 net.cpp:91] Creating Layer pool5/drop_7x7_s1
I0403 19:12:38.675398  8945 net.cpp:425] pool5/drop_7x7_s1 <- pool5/7x7_s1
I0403 19:12:38.675417  8945 net.cpp:386] pool5/drop_7x7_s1 -> pool5/7x7_s1 (in-place)
I0403 19:12:38.675470  8945 net.cpp:141] Setting up pool5/drop_7x7_s1
I0403 19:12:38.675505  8945 net.cpp:148] Top shape: 24 1024 1 1 (24576)
I0403 19:12:38.675519  8945 net.cpp:156] Memory required for data: 1346060832
I0403 19:12:38.675534  8945 layer_factory.hpp:77] Creating layer loss3/classifier_plantvillage
I0403 19:12:38.675554  8945 net.cpp:91] Creating Layer loss3/classifier_plantvillage
I0403 19:12:38.675571  8945 net.cpp:425] loss3/classifier_plantvillage <- pool5/7x7_s1
I0403 19:12:38.675591  8945 net.cpp:399] loss3/classifier_plantvillage -> loss3/classifier_plantvillage
I0403 19:12:38.675993  8945 net.cpp:141] Setting up loss3/classifier_plantvillage
I0403 19:12:38.676018  8945 net.cpp:148] Top shape: 24 38 (912)
I0403 19:12:38.676033  8945 net.cpp:156] Memory required for data: 1346064480
I0403 19:12:38.676050  8945 layer_factory.hpp:77] Creating layer loss3/classifier_plantvillage_loss3/classifier_plantvillage_0_split
I0403 19:12:38.676069  8945 net.cpp:91] Creating Layer loss3/classifier_plantvillage_loss3/classifier_plantvillage_0_split
I0403 19:12:38.676085  8945 net.cpp:425] loss3/classifier_plantvillage_loss3/classifier_plantvillage_0_split <- loss3/classifier_plantvillage
I0403 19:12:38.676101  8945 net.cpp:399] loss3/classifier_plantvillage_loss3/classifier_plantvillage_0_split -> loss3/classifier_plantvillage_loss3/classifier_plantvillage_0_split_0
I0403 19:12:38.676120  8945 net.cpp:399] loss3/classifier_plantvillage_loss3/classifier_plantvillage_0_split -> loss3/classifier_plantvillage_loss3/classifier_plantvillage_0_split_1
I0403 19:12:38.676139  8945 net.cpp:399] loss3/classifier_plantvillage_loss3/classifier_plantvillage_0_split -> loss3/classifier_plantvillage_loss3/classifier_plantvillage_0_split_2
I0403 19:12:38.676158  8945 net.cpp:399] loss3/classifier_plantvillage_loss3/classifier_plantvillage_0_split -> loss3/classifier_plantvillage_loss3/classifier_plantvillage_0_split_3
I0403 19:12:38.676254  8945 net.cpp:141] Setting up loss3/classifier_plantvillage_loss3/classifier_plantvillage_0_split
I0403 19:12:38.676277  8945 net.cpp:148] Top shape: 24 38 (912)
I0403 19:12:38.676293  8945 net.cpp:148] Top shape: 24 38 (912)
I0403 19:12:38.676307  8945 net.cpp:148] Top shape: 24 38 (912)
I0403 19:12:38.676322  8945 net.cpp:148] Top shape: 24 38 (912)
I0403 19:12:38.676336  8945 net.cpp:156] Memory required for data: 1346079072
I0403 19:12:38.676349  8945 layer_factory.hpp:77] Creating layer loss1/loss
I0403 19:12:38.676372  8945 net.cpp:91] Creating Layer loss1/loss
I0403 19:12:38.676388  8945 net.cpp:425] loss1/loss <- loss1/classifier_plantvillage_loss1/classifier_plantvillage_0_split_0
I0403 19:12:38.676419  8945 net.cpp:425] loss1/loss <- label_data_1_split_0
…
